…
I0225 09:58:46.114615   573 net.cpp:98] Initializing net from parameters: 
state {
  phase: TRAIN
}
layer {
  name: "data"
  type: "ImageData"
  top: "data"
  top: "label"
  include {
    phase: TRAIN
  }
  transform_param {
    scale: 0.022
    mean_value: 73
    mean_value: 82
    mean_value: 72
    resize_param {
      prob: 1
      resize_mode: WARP
      height: 256
      width: 512
    }
  }
  image_data_param {
    source: "../data/cityscapes/calibration.txt"
    batch_size: 1
    shuffle: true
    new_height: 256
    new_width: 512
    root_folder: "../data/cityscapes/calibration_images/"
  }
}
layer {
  name: "conv_d0a-b"
  type: "Convolution"
  bottom: "data"
  top: "d0b"
  param {
    lr_mult: 1
    decay_mult: 1
  }
  param {
    lr_mult: 2
    decay_mult: 0
  }
  convolution_param {
    num_output: 32
    pad: 1
    kernel_size: 3
    stride: 1
    weight_filler {
      type: "msra"
    }
  }
}
layer {
  name: "relu_d0b"
  type: "ReLU"
  bottom: "d0b"
  top: "relu_d0b"
}
layer {
  name: "conv_d0b-c"
  type: "Convolution"
  bottom: "relu_d0b"
  top: "d0c"
  param {
    lr_mult: 1
    decay_mult: 1
  }
  param {
    lr_mult: 2
    decay_mult: 0
  }
  convolution_param {
    num_output: 32
    pad: 1
    kernel_size: 3
    weight_filler {
      type: "msra"
    }
  }
}
layer {
  name: "BatchNorm_d0c"
  type: "BatchNorm"
  bottom: "d0c"
  top: "BatchNorm_d0c"
  param {
    lr_mult: 1
    decay_mult: 0
  }
  param {
    lr_mult: 1
    decay_mult: 0
  }
  param {
    lr_mult: 0
    decay_mult: 0
  }
  param {
    lr_mult: 0
    decay_mult: 0
  }
  batch_norm_param {
    use_global_stats: false
    eps: 1e-05
    scale_filler {
      type: "constant"
      value: 1
    }
    bias_filler {
      type: "constant"
      value: 0
    }
  }
}
layer {
  name: "relu_d0c"
  type: "ReLU"
  bottom: "BatchNorm_d0c"
  top: "relu_d0c"
}
layer {
  name: "pool_d0c-1a"
  type: "Pooling"
  bottom: "relu_d0c"
  top: "d1a"
  pooling_param {
    pool: MAX
    kernel_size: 2
    stride: 2
  }
}
layer {
  name: "conv_d1a-b"
  type: "Convolution"
  bottom: "d1a"
  top: "d1b"
  param {
    lr_mult: 1
    decay_mult: 1
  }
  param {
    lr_mult: 2
    decay_mult: 0
  }
  convolution_param {
    num_output: 64
    pad: 1
    kernel_size: 3
    weight_filler {
      type: "msra"
    }
  }
}
layer {
  name: "relu_d1b"
  type: "ReLU"
  bottom: "d1b"
  top: "relu_d1b"
}
layer {
  name: "conv_d1b-c"
  type: "Convolution"
  bottom: "relu_d1b"
  top: "d1c"
  param {
    lr_mult: 1
    decay_mult: 1
  }
  param {
    lr_mult: 2
    decay_mult: 0
  }
  convolution_param {
    num_output: 64
    pad: 1
    kernel_size: 3
    weight_filler {
      type: "msra"
    }
  }
}
layer {
  name: "BatchNorm_d1c"
  type: "BatchNorm"
  bottom: "d1c"
  top: "BatchNorm_d1c"
  param {
    lr_mult: 1
    decay_mult: 0
  }
  param {
    lr_mult: 1
    decay_mult: 0
  }
  param {
    lr_mult: 0
    decay_mult: 0
  }
  param {
    lr_mult: 0
    decay_mult: 0
  }
  batch_norm_param {
    use_global_stats: false
    eps: 1e-05
    scale_filler {
      type: "constant"
      value: 1
    }
    bias_filler {
      type: "constant"
      value: 0
    }
  }
}
layer {
  name: "relu_d1c"
  type: "ReLU"
  bottom: "BatchNorm_d1c"
  top: "relu_d1c"
}
layer {
  name: "pool_d1c-2a"
  type: "Pooling"
  bottom: "relu_d1c"
  top: "d2a"
  pooling_param {
    pool: MAX
    kernel_size: 2
    stride: 2
  }
}
layer {
  name: "conv_d2a-b"
  type: "Convolution"
  bottom: "d2a"
  top: "d2b"
  param {
    lr_mult: 1
    decay_mult: 1
  }
  param {
    lr_mult: 2
    decay_mult: 0
  }
  convolution_param {
    num_output: 128
    pad: 1
    kernel_size: 3
    weight_filler {
      type: "msra"
    }
  }
}
layer {
  name: "relu_d2b"
  type: "ReLU"
  bottom: "d2b"
  top: "relu_d2b"
}
layer {
  name: "conv_d2b-c"
  type: "Convolution"
  bottom: "relu_d2b"
  top: "d2c"
  param {
    lr_mult: 1
    decay_mult: 1
  }
  param {
    lr_mult: 2
    decay_mult: 0
  }
  convolution_param {
    num_output: 128
    pad: 1
    kernel_size: 3
    weight_filler {
      type: "msra"
    }
  }
}
layer {
  name: "BatchNorm_d2c"
  type: "BatchNorm"
  bottom: "d2c"
  top: "BatchNorm_d2c"
  param {
    lr_mult: 1
    decay_mult: 0
  }
  param {
    lr_mult: 1
    decay_mult: 0
  }
  param {
    lr_mult: 0
    decay_mult: 0
  }
  param {
    lr_mult: 0
    decay_mult: 0
  }
  batch_norm_param {
    use_global_stats: false
    eps: 1e-05
    scale_filler {
      type: "constant"
      value: 1
    }
    bias_filler {
      type: "constant"
      value: 0
    }
  }
}
layer {
  name: "relu_d2c"
  type: "ReLU"
  bottom: "BatchNorm_d2c"
  top: "relu_d2c"
}
layer {
  name: "pool_d2c-3a"
  type: "Pooling"
  bottom: "relu_d2c"
  top: "d3a"
  pooling_param {
    pool: MAX
    kernel_size: 2
    stride: 2
  }
}
layer {
  name: "conv_d3a-b"
  type: "Convolution"
  bottom: "d3a"
  top: "d3b"
  param {
    lr_mult: 1
    decay_mult: 1
  }
  param {
    lr_mult: 2
    decay_mult: 0
  }
  convolution_param {
    num_output: 256
    pad: 1
    kernel_size: 3
    weight_filler {
      type: "msra"
    }
  }
}
layer {
  name: "relu_d3b"
  type: "ReLU"
  bottom: "d3b"
  top: "relu_d3b"
}
layer {
  name: "conv_d3b-c"
  type: "Convolution"
  bottom: "relu_d3b"
  top: "d3c"
  param {
    lr_mult: 1
    decay_mult: 1
  }
  param {
    lr_mult: 2
    decay_mult: 0
  }
  convolution_param {
    num_output: 256
    pad: 1
    kernel_size: 3
    weight_filler {
      type: "msra"
    }
  }
}
layer {
  name: "BatchNorm_1"
  type: "BatchNorm"
  bottom: "d3c"
  top: "BatchNorm_1"
  param {
    lr_mult: 1
    decay_mult: 0
  }
  param {
    lr_mult: 1
    decay_mult: 0
  }
  param {
    lr_mult: 0
    decay_mult: 0
  }
  param {
    lr_mult: 0
    decay_mult: 0
  }
  batch_norm_param {
    use_global_stats: false
    eps: 1e-05
    scale_filler {
      type: "constant"
      value: 1
    }
    bias_filler {
      type: "constant"
      value: 0
    }
  }
}
layer {
  name: "relu_d3c"
  type: "ReLU"
  bottom: "BatchNorm_1"
  top: "relu_d3c"
}
layer {
  name: "pool_d3c-4a"
  type: "Pooling"
  bottom: "relu_d3c"
  top: "d4a"
  pooling_param {
    pool: MAX
    kernel_size: 2
    stride: 2
  }
}
layer {
  name: "conv_d4a-b"
  type: "Convolution"
  bottom: "d4a"
  top: "d4b"
  param {
    lr_mult: 1
    decay_mult: 1
  }
  param {
    lr_mult: 2
    decay_mult: 0
  }
  convolution_param {
    num_output: 512
    pad: 1
    kernel_size: 3
    weight_filler {
      type: "msra"
    }
  }
}
layer {
  name: "BatchNorm_2"
  type: "BatchNorm"
  bottom: "d4b"
  top: "BatchNorm_2"
  param {
    lr_mult: 1
    decay_mult: 0
  }
  param {
    lr_mult: 1
    decay_mult: 0
  }
  param {
    lr_mult: 0
    decay_mult: 0
  }
  param {
    lr_mult: 0
    decay_mult: 0
  }
  batch_norm_param {
    use_global_stats: false
    eps: 1e-05
    scale_filler {
      type: "constant"
      value: 1
    }
    bias_filler {
      type: "constant"
      value: 0
    }
  }
}
layer {
  name: "relu_d4b"
  type: "ReLU"
  bottom: "BatchNorm_2"
  top: "relu_d4b"
}
layer {
  name: "conv_d4b-c"
  type: "Convolution"
  bottom: "relu_d4b"
  top: "d4c"
  param {
    lr_mult: 1
    decay_mult: 1
  }
  param {
    lr_mult: 2
    decay_mult: 0
  }
  convolution_param {
    num_output: 512
    pad: 1
    kernel_size: 3
    weight_filler {
      type: "msra"
    }
  }
}
layer {
  name: "relu_d4c"
  type: "ReLU"
  bottom: "d4c"
  top: "relu_d4c"
}
layer {
  name: "upconv_d4c_u3a"
  type: "Deconvolution"
  bottom: "relu_d4c"
  top: "u3a"
  param {
    lr_mult: 1
    decay_mult: 1
  }
  param {
    lr_mult: 2
    decay_mult: 0
  }
  convolution_param {
    num_output: 256
    pad: 0
    kernel_size: 2
    stride: 2
    weight_filler {
      type: "msra"
    }
  }
}
layer {
  name: "relu_u3a"
  type: "ReLU"
  bottom: "u3a"
  top: "u3a"
}
layer {
  name: "concat_d3cc_u3a-b"
  type: "Concat"
  bottom: "u3a"
  bottom: "d3c"
  top: "u3b"
}
layer {
  name: "conv_u3b-c"
  type: "Convolution"
  bottom: "u3b"
  top: "u3c"
  param {
    lr_mult: 1
    decay_mult: 1
  }
  param {
    lr_mult: 2
    decay_mult: 0
  }
  convolution_param {
    num_output: 256
    pad: 1
    kernel_size: 3
    weight_filler {
      type: "msra"
    }
  }
}
layer {
  name: "relu_u3c"
  type: "ReLU"
  bottom: "u3c"
  top: "u3c"
}
layer {
  name: "conv_u3c-d"
  type: "Convolution"
  bottom: "u3c"
  top: "u3d"
  param {
    lr_mult: 1
    decay_mult: 1
  }
  param {
    lr_mult: 2
    decay_mult: 0
  }
  convolution_param {
    num_output: 256
    pad: 1
    kernel_size: 3
    weight_filler {
      type: "msra"
    }
  }
}
layer {
  name: "relu_u3d"
  type: "ReLU"
  bottom: "u3d"
  top: "u3d"
}
layer {
  name: "upconv_u3d_u2a"
  type: "Deconvolution"
  bottom: "u3d"
  top: "u2a"
  param {
    lr_mult: 1
    decay_mult: 1
  }
  param {
    lr_mult: 2
    decay_mult: 0
  }
  convolution_param {
    num_output: 128
    pad: 0
    kernel_size: 2
    stride: 2
    weight_filler {
      type: "msra"
    }
  }
}
layer {
  name: "relu_u2a"
  type: "ReLU"
  bottom: "u2a"
  top: "u2a"
}
layer {
  name: "concat_d2cc_u2a-b"
  type: "Concat"
  bottom: "u2a"
  bottom: "d2c"
  top: "u2b"
}
layer {
  name: "conv_u2b-c"
  type: "Convolution"
  bottom: "u2b"
  top: "u2c"
  param {
    lr_mult: 1
    decay_mult: 1
  }
  param {
    lr_mult: 2
    decay_mult: 0
  }
  convolution_param {
    num_output: 128
    pad: 1
    kernel_size: 3
    weight_filler {
      type: "msra"
    }
  }
}
layer {
  name: "relu_u2c"
  type: "ReLU"
  bottom: "u2c"
  top: "u2c"
}
layer {
  name: "conv_u2c-d"
  type: "Convolution"
  bottom: "u2c"
  top: "u2d"
  param {
    lr_mult: 1
    decay_mult: 1
  }
  param {
    lr_mult: 2
    decay_mult: 0
  }
  convolution_param {
    num_output: 128
    pad: 1
    kernel_size: 3
    weight_filler {
      type: "msra"
    }
  }
}
layer {
  name: "relu_u2d"
  type: "ReLU"
  bottom: "u2d"
  top: "u2d"
}
layer {
  name: "upconv_u2d_u1a"
  type: "Deconvolution"
  bottom: "u2d"
  top: "u1a"
  param {
    lr_mult: 1
    decay_mult: 1
  }
  param {
    lr_mult: 2
    decay_mult: 0
  }
  convolution_param {
    num_output: 64
    pad: 0
    kernel_size: 2
    stride: 2
    weight_filler {
      type: "msra"
    }
  }
}
layer {
  name: "relu_u1a"
  type: "ReLU"
  bottom: "u1a"
  top: "u1a"
}
layer {
  name: "concat_d1cc_u1a-b"
  type: "Concat"
  bottom: "u1a"
  bottom: "d1c"
  top: "u1b"
}
layer {
  name: "conv_u1b-c"
  type: "Convolution"
  bottom: "u1b"
  top: "u1c"
  param {
    lr_mult: 1
    decay_mult: 1
  }
  param {
    lr_mult: 2
    decay_mult: 0
  }
  convolution_param {
    num_output: 64
    pad: 1
    kernel_size: 3
    weight_filler {
      type: "msra"
    }
  }
}
layer {
  name: "relu_u1c"
  type: "ReLU"
  bottom: "u1c"
  top: "u1c"
}
layer {
  name: "conv_u1c-d"
  type: "Convolution"
  bottom: "u1c"
  top: "u1d"
  param {
    lr_mult: 1
    decay_mult: 1
  }
  param {
    lr_mult: 2
    decay_mult: 0
  }
  convolution_param {
    num_output: 64
    pad: 1
    kernel_size: 3
    weight_filler {
      type: "msra"
    }
  }
}
layer {
  name: "relu_u1d"
  type: "ReLU"
  bottom: "u1d"
  top: "u1d"
}
layer {
  name: "upconv_u1d_u0a_NEW"
  type: "Deconvolution"
  bottom: "u1d"
  top: "u0a"
  param {
    lr_mult: 1
    decay_mult: 1
  }
  param {
    lr_mult: 2
    decay_mult: 0
  }
  convolution_param {
    num_output: 32
    pad: 0
    kernel_size: 2
    stride: 2
    weight_filler {
      type: "msra"
    }
  }
}
layer {
  name: "relu_u0a"
  type: "ReLU"
  bottom: "u0a"
  top: "u0a"
}
layer {
  name: "concat_d0cc_u0a-b"
  type: "Concat"
  bottom: "u0a"
  bottom: "d0c"
  top: "u0b"
}
layer {
  name: "conv_u0b-c_New"
  type: "Convolution"
  bottom: "u0b"
  top: "u0c"
  param {
    lr_mult: 1
    decay_mult: 1
  }
  param {
    lr_mult: 2
    decay_mult: 0
  }
  convolution_param {
    num_output: 32
    pad: 1
    kernel_size: 3
    weight_filler {
      type: "msra"
    }
  }
}
layer {
  name: "relu_u0c"
  type: "ReLU"
  bottom: "u0c"
  top: "u0c"
}
layer {
  name: "conv_u0c-d_New"
  type: "Convolution"
  bottom: "u0c"
  top: "u0d"
  param {
    lr_mult: 1
    decay_mult: 1
  }
  param {
    lr_mult: 2
    decay_mult: 0
  }
  convolution_param {
    num_output: 32
    pad: 1
    kernel_size: 3
    weight_filler {
      type: "msra"
    }
  }
}
layer {
  name: "relu_u0d"
  type: "ReLU"
  bottom: "u0d"
  top: "u0d"
}
layer {
  name: "conv_u0d-score_New"
  type: "Convolution"
  bottom: "u0d"
  top: "conv_u0d-score_New"
  param {
    lr_mult: 1
    decay_mult: 1
  }
  param {
    lr_mult: 2
    decay_mult: 0
  }
  convolution_param {
    num_output: 19
    pad: 0
    kernel_size: 1
    weight_filler {
      type: "msra"
    }
  }
}
layer {
  name: "score"
  type: "Softmax"
  bottom: "conv_u0d-score_New"
  top: "score"
}
I0225 09:58:46.115078   573 layer_factory.hpp:123] Creating layer data
I0225 09:58:46.115103   573 net.cpp:140] Creating Layer data
I0225 09:58:46.115109   573 net.cpp:455] data -> data
I0225 09:58:46.115124   573 net.cpp:455] data -> label
I0225 09:58:46.115136   573 image_data_layer.cpp:87] Opening file ../data/cityscapes/calibration.txt
I0225 09:58:46.115726   573 image_data_layer.cpp:97] Shuffling data
I0225 09:58:46.115839   573 image_data_layer.cpp:102] A total of 1000 images.
I0225 09:58:46.185174   573 image_data_layer.cpp:130] output data size: 1,3,256,512
I0225 09:58:46.194067   573 internal_thread.cpp:73] Starting internal thread(s) on GPU 0
I0225 09:58:46.194147   573 net.cpp:190] Setting up data
I0225 09:58:46.194155   573 net.cpp:197] Top shape: 1 3 256 512 (393216)
I0225 09:58:46.194164   573 net.cpp:197] Top shape: 1 (1)
I0225 09:58:46.194167   573 net.cpp:205] Memory required for data: 1572868
I0225 09:58:46.194172   573 layer_factory.hpp:123] Creating layer conv_d0a-b
I0225 09:58:46.194188   573 net.cpp:140] Creating Layer conv_d0a-b
I0225 09:58:46.194193   573 net.cpp:481] conv_d0a-b <- data
I0225 09:58:46.194200   573 net.cpp:455] conv_d0a-b -> d0b
I0225 09:58:46.194655   573 net.cpp:190] Setting up conv_d0a-b
I0225 09:58:46.194664   573 net.cpp:197] Top shape: 1 32 256 512 (4194304)
I0225 09:58:46.194669   573 net.cpp:205] Memory required for data: 18350084
I0225 09:58:46.194689   573 layer_factory.hpp:123] Creating layer relu_d0b
I0225 09:58:46.194697   573 net.cpp:140] Creating Layer relu_d0b
I0225 09:58:46.194701   573 net.cpp:481] relu_d0b <- d0b
I0225 09:58:46.194705   573 net.cpp:455] relu_d0b -> relu_d0b
I0225 09:58:46.194732   573 net.cpp:190] Setting up relu_d0b
I0225 09:58:46.194738   573 net.cpp:197] Top shape: 1 32 256 512 (4194304)
I0225 09:58:46.194748   573 net.cpp:205] Memory required for data: 35127300
I0225 09:58:46.194752   573 layer_factory.hpp:123] Creating layer conv_d0b-c
I0225 09:58:46.194761   573 net.cpp:140] Creating Layer conv_d0b-c
I0225 09:58:46.194763   573 net.cpp:481] conv_d0b-c <- relu_d0b
I0225 09:58:46.194768   573 net.cpp:455] conv_d0b-c -> d0c
I0225 09:58:46.195120   573 net.cpp:190] Setting up conv_d0b-c
I0225 09:58:46.195130   573 net.cpp:197] Top shape: 1 32 256 512 (4194304)
I0225 09:58:46.195137   573 net.cpp:205] Memory required for data: 51904516
I0225 09:58:46.195143   573 layer_factory.hpp:123] Creating layer d0c_conv_d0b-c_0_split
I0225 09:58:46.195153   573 net.cpp:140] Creating Layer d0c_conv_d0b-c_0_split
I0225 09:58:46.195158   573 net.cpp:481] d0c_conv_d0b-c_0_split <- d0c
I0225 09:58:46.195163   573 net.cpp:455] d0c_conv_d0b-c_0_split -> d0c_conv_d0b-c_0_split_0
I0225 09:58:46.195169   573 net.cpp:455] d0c_conv_d0b-c_0_split -> d0c_conv_d0b-c_0_split_1
I0225 09:58:46.195199   573 net.cpp:190] Setting up d0c_conv_d0b-c_0_split
I0225 09:58:46.195204   573 net.cpp:197] Top shape: 1 32 256 512 (4194304)
I0225 09:58:46.195209   573 net.cpp:197] Top shape: 1 32 256 512 (4194304)
I0225 09:58:46.195212   573 net.cpp:205] Memory required for data: 85458948
I0225 09:58:46.195216   573 layer_factory.hpp:123] Creating layer BatchNorm_d0c
I0225 09:58:46.195225   573 net.cpp:140] Creating Layer BatchNorm_d0c
I0225 09:58:46.195230   573 net.cpp:481] BatchNorm_d0c <- d0c_conv_d0b-c_0_split_0
I0225 09:58:46.195235   573 net.cpp:455] BatchNorm_d0c -> BatchNorm_d0c
I0225 09:58:46.195940   573 net.cpp:190] Setting up BatchNorm_d0c
I0225 09:58:46.195947   573 net.cpp:197] Top shape: 1 32 256 512 (4194304)
I0225 09:58:46.195953   573 net.cpp:205] Memory required for data: 102236164
I0225 09:58:46.195963   573 layer_factory.hpp:123] Creating layer relu_d0c
I0225 09:58:46.195969   573 net.cpp:140] Creating Layer relu_d0c
I0225 09:58:46.195973   573 net.cpp:481] relu_d0c <- BatchNorm_d0c
I0225 09:58:46.195978   573 net.cpp:455] relu_d0c -> relu_d0c
I0225 09:58:46.196043   573 net.cpp:190] Setting up relu_d0c
I0225 09:58:46.196048   573 net.cpp:197] Top shape: 1 32 256 512 (4194304)
I0225 09:58:46.196053   573 net.cpp:205] Memory required for data: 119013380
I0225 09:58:46.196058   573 layer_factory.hpp:123] Creating layer pool_d0c-1a
I0225 09:58:46.196063   573 net.cpp:140] Creating Layer pool_d0c-1a
I0225 09:58:46.196066   573 net.cpp:481] pool_d0c-1a <- relu_d0c
I0225 09:58:46.196071   573 net.cpp:455] pool_d0c-1a -> d1a
I0225 09:58:46.196122   573 net.cpp:190] Setting up pool_d0c-1a
I0225 09:58:46.196132   573 net.cpp:197] Top shape: 1 32 128 256 (1048576)
I0225 09:58:46.196141   573 net.cpp:205] Memory required for data: 123207684
I0225 09:58:46.196146   573 layer_factory.hpp:123] Creating layer conv_d1a-b
I0225 09:58:46.196156   573 net.cpp:140] Creating Layer conv_d1a-b
I0225 09:58:46.196159   573 net.cpp:481] conv_d1a-b <- d1a
I0225 09:58:46.196166   573 net.cpp:455] conv_d1a-b -> d1b
I0225 09:58:46.196609   573 net.cpp:190] Setting up conv_d1a-b
I0225 09:58:46.196616   573 net.cpp:197] Top shape: 1 64 128 256 (2097152)
I0225 09:58:46.196621   573 net.cpp:205] Memory required for data: 131596292
I0225 09:58:46.196627   573 layer_factory.hpp:123] Creating layer relu_d1b
I0225 09:58:46.196632   573 net.cpp:140] Creating Layer relu_d1b
I0225 09:58:46.196636   573 net.cpp:481] relu_d1b <- d1b
I0225 09:58:46.196640   573 net.cpp:455] relu_d1b -> relu_d1b
I0225 09:58:46.196657   573 net.cpp:190] Setting up relu_d1b
I0225 09:58:46.196662   573 net.cpp:197] Top shape: 1 64 128 256 (2097152)
I0225 09:58:46.196667   573 net.cpp:205] Memory required for data: 139984900
I0225 09:58:46.196672   573 layer_factory.hpp:123] Creating layer conv_d1b-c
I0225 09:58:46.196682   573 net.cpp:140] Creating Layer conv_d1b-c
I0225 09:58:46.196687   573 net.cpp:481] conv_d1b-c <- relu_d1b
I0225 09:58:46.196696   573 net.cpp:455] conv_d1b-c -> d1c
I0225 09:58:46.197268   573 net.cpp:190] Setting up conv_d1b-c
I0225 09:58:46.197276   573 net.cpp:197] Top shape: 1 64 128 256 (2097152)
I0225 09:58:46.197281   573 net.cpp:205] Memory required for data: 148373508
I0225 09:58:46.197288   573 layer_factory.hpp:123] Creating layer d1c_conv_d1b-c_0_split
I0225 09:58:46.197293   573 net.cpp:140] Creating Layer d1c_conv_d1b-c_0_split
I0225 09:58:46.197297   573 net.cpp:481] d1c_conv_d1b-c_0_split <- d1c
I0225 09:58:46.197302   573 net.cpp:455] d1c_conv_d1b-c_0_split -> d1c_conv_d1b-c_0_split_0
I0225 09:58:46.197309   573 net.cpp:455] d1c_conv_d1b-c_0_split -> d1c_conv_d1b-c_0_split_1
I0225 09:58:46.197345   573 net.cpp:190] Setting up d1c_conv_d1b-c_0_split
I0225 09:58:46.197352   573 net.cpp:197] Top shape: 1 64 128 256 (2097152)
I0225 09:58:46.197357   573 net.cpp:197] Top shape: 1 64 128 256 (2097152)
I0225 09:58:46.197361   573 net.cpp:205] Memory required for data: 165150724
I0225 09:58:46.197365   573 layer_factory.hpp:123] Creating layer BatchNorm_d1c
I0225 09:58:46.197371   573 net.cpp:140] Creating Layer BatchNorm_d1c
I0225 09:58:46.197377   573 net.cpp:481] BatchNorm_d1c <- d1c_conv_d1b-c_0_split_0
I0225 09:58:46.197386   573 net.cpp:455] BatchNorm_d1c -> BatchNorm_d1c
I0225 09:58:46.197953   573 net.cpp:190] Setting up BatchNorm_d1c
I0225 09:58:46.197962   573 net.cpp:197] Top shape: 1 64 128 256 (2097152)
I0225 09:58:46.197968   573 net.cpp:205] Memory required for data: 173539332
I0225 09:58:46.197978   573 layer_factory.hpp:123] Creating layer relu_d1c
I0225 09:58:46.197984   573 net.cpp:140] Creating Layer relu_d1c
I0225 09:58:46.197988   573 net.cpp:481] relu_d1c <- BatchNorm_d1c
I0225 09:58:46.197993   573 net.cpp:455] relu_d1c -> relu_d1c
I0225 09:58:46.198019   573 net.cpp:190] Setting up relu_d1c
I0225 09:58:46.198027   573 net.cpp:197] Top shape: 1 64 128 256 (2097152)
I0225 09:58:46.198037   573 net.cpp:205] Memory required for data: 181927940
I0225 09:58:46.198042   573 layer_factory.hpp:123] Creating layer pool_d1c-2a
I0225 09:58:46.198050   573 net.cpp:140] Creating Layer pool_d1c-2a
I0225 09:58:46.198060   573 net.cpp:481] pool_d1c-2a <- relu_d1c
I0225 09:58:46.198067   573 net.cpp:455] pool_d1c-2a -> d2a
I0225 09:58:46.198107   573 net.cpp:190] Setting up pool_d1c-2a
I0225 09:58:46.198115   573 net.cpp:197] Top shape: 1 64 64 128 (524288)
I0225 09:58:46.198120   573 net.cpp:205] Memory required for data: 184025092
I0225 09:58:46.198123   573 layer_factory.hpp:123] Creating layer conv_d2a-b
I0225 09:58:46.198130   573 net.cpp:140] Creating Layer conv_d2a-b
I0225 09:58:46.198134   573 net.cpp:481] conv_d2a-b <- d2a
I0225 09:58:46.198138   573 net.cpp:455] conv_d2a-b -> d2b
I0225 09:58:46.198983   573 net.cpp:190] Setting up conv_d2a-b
I0225 09:58:46.198992   573 net.cpp:197] Top shape: 1 128 64 128 (1048576)
I0225 09:58:46.198997   573 net.cpp:205] Memory required for data: 188219396
I0225 09:58:46.199003   573 layer_factory.hpp:123] Creating layer relu_d2b
I0225 09:58:46.199009   573 net.cpp:140] Creating Layer relu_d2b
I0225 09:58:46.199013   573 net.cpp:481] relu_d2b <- d2b
I0225 09:58:46.199018   573 net.cpp:455] relu_d2b -> relu_d2b
I0225 09:58:46.199041   573 net.cpp:190] Setting up relu_d2b
I0225 09:58:46.199049   573 net.cpp:197] Top shape: 1 128 64 128 (1048576)
I0225 09:58:46.199059   573 net.cpp:205] Memory required for data: 192413700
I0225 09:58:46.199065   573 layer_factory.hpp:123] Creating layer conv_d2b-c
I0225 09:58:46.199076   573 net.cpp:140] Creating Layer conv_d2b-c
I0225 09:58:46.199084   573 net.cpp:481] conv_d2b-c <- relu_d2b
I0225 09:58:46.199092   573 net.cpp:455] conv_d2b-c -> d2c
I0225 09:58:46.201238   573 net.cpp:190] Setting up conv_d2b-c
I0225 09:58:46.201249   573 net.cpp:197] Top shape: 1 128 64 128 (1048576)
I0225 09:58:46.201256   573 net.cpp:205] Memory required for data: 196608004
I0225 09:58:46.201262   573 layer_factory.hpp:123] Creating layer d2c_conv_d2b-c_0_split
I0225 09:58:46.201267   573 net.cpp:140] Creating Layer d2c_conv_d2b-c_0_split
I0225 09:58:46.201272   573 net.cpp:481] d2c_conv_d2b-c_0_split <- d2c
I0225 09:58:46.201277   573 net.cpp:455] d2c_conv_d2b-c_0_split -> d2c_conv_d2b-c_0_split_0
I0225 09:58:46.201285   573 net.cpp:455] d2c_conv_d2b-c_0_split -> d2c_conv_d2b-c_0_split_1
I0225 09:58:46.201329   573 net.cpp:190] Setting up d2c_conv_d2b-c_0_split
I0225 09:58:46.201339   573 net.cpp:197] Top shape: 1 128 64 128 (1048576)
I0225 09:58:46.201349   573 net.cpp:197] Top shape: 1 128 64 128 (1048576)
I0225 09:58:46.201359   573 net.cpp:205] Memory required for data: 204996612
I0225 09:58:46.201364   573 layer_factory.hpp:123] Creating layer BatchNorm_d2c
I0225 09:58:46.201373   573 net.cpp:140] Creating Layer BatchNorm_d2c
I0225 09:58:46.201380   573 net.cpp:481] BatchNorm_d2c <- d2c_conv_d2b-c_0_split_0
I0225 09:58:46.201387   573 net.cpp:455] BatchNorm_d2c -> BatchNorm_d2c
I0225 09:58:46.201871   573 net.cpp:190] Setting up BatchNorm_d2c
I0225 09:58:46.201880   573 net.cpp:197] Top shape: 1 128 64 128 (1048576)
I0225 09:58:46.201886   573 net.cpp:205] Memory required for data: 209190916
I0225 09:58:46.201894   573 layer_factory.hpp:123] Creating layer relu_d2c
I0225 09:58:46.201901   573 net.cpp:140] Creating Layer relu_d2c
I0225 09:58:46.201905   573 net.cpp:481] relu_d2c <- BatchNorm_d2c
I0225 09:58:46.201910   573 net.cpp:455] relu_d2c -> relu_d2c
I0225 09:58:46.201930   573 net.cpp:190] Setting up relu_d2c
I0225 09:58:46.201934   573 net.cpp:197] Top shape: 1 128 64 128 (1048576)
I0225 09:58:46.201938   573 net.cpp:205] Memory required for data: 213385220
I0225 09:58:46.201942   573 layer_factory.hpp:123] Creating layer pool_d2c-3a
I0225 09:58:46.201947   573 net.cpp:140] Creating Layer pool_d2c-3a
I0225 09:58:46.201951   573 net.cpp:481] pool_d2c-3a <- relu_d2c
I0225 09:58:46.201956   573 net.cpp:455] pool_d2c-3a -> d3a
I0225 09:58:46.201982   573 net.cpp:190] Setting up pool_d2c-3a
I0225 09:58:46.201987   573 net.cpp:197] Top shape: 1 128 32 64 (262144)
I0225 09:58:46.201992   573 net.cpp:205] Memory required for data: 214433796
I0225 09:58:46.201995   573 layer_factory.hpp:123] Creating layer conv_d3a-b
I0225 09:58:46.202001   573 net.cpp:140] Creating Layer conv_d3a-b
I0225 09:58:46.202005   573 net.cpp:481] conv_d3a-b <- d3a
I0225 09:58:46.202009   573 net.cpp:455] conv_d3a-b -> d3b
I0225 09:58:46.206022   573 net.cpp:190] Setting up conv_d3a-b
I0225 09:58:46.206032   573 net.cpp:197] Top shape: 1 256 32 64 (524288)
I0225 09:58:46.206038   573 net.cpp:205] Memory required for data: 216530948
I0225 09:58:46.206045   573 layer_factory.hpp:123] Creating layer relu_d3b
I0225 09:58:46.206050   573 net.cpp:140] Creating Layer relu_d3b
I0225 09:58:46.206056   573 net.cpp:481] relu_d3b <- d3b
I0225 09:58:46.206063   573 net.cpp:455] relu_d3b -> relu_d3b
I0225 09:58:46.206089   573 net.cpp:190] Setting up relu_d3b
I0225 09:58:46.206097   573 net.cpp:197] Top shape: 1 256 32 64 (524288)
I0225 09:58:46.206106   573 net.cpp:205] Memory required for data: 218628100
I0225 09:58:46.206111   573 layer_factory.hpp:123] Creating layer conv_d3b-c
I0225 09:58:46.206122   573 net.cpp:140] Creating Layer conv_d3b-c
I0225 09:58:46.206130   573 net.cpp:481] conv_d3b-c <- relu_d3b
I0225 09:58:46.206140   573 net.cpp:455] conv_d3b-c -> d3c
I0225 09:58:46.212817   573 net.cpp:190] Setting up conv_d3b-c
I0225 09:58:46.212828   573 net.cpp:197] Top shape: 1 256 32 64 (524288)
I0225 09:58:46.212834   573 net.cpp:205] Memory required for data: 220725252
I0225 09:58:46.212841   573 layer_factory.hpp:123] Creating layer d3c_conv_d3b-c_0_split
I0225 09:58:46.212846   573 net.cpp:140] Creating Layer d3c_conv_d3b-c_0_split
I0225 09:58:46.212851   573 net.cpp:481] d3c_conv_d3b-c_0_split <- d3c
I0225 09:58:46.212855   573 net.cpp:455] d3c_conv_d3b-c_0_split -> d3c_conv_d3b-c_0_split_0
I0225 09:58:46.212862   573 net.cpp:455] d3c_conv_d3b-c_0_split -> d3c_conv_d3b-c_0_split_1
I0225 09:58:46.212888   573 net.cpp:190] Setting up d3c_conv_d3b-c_0_split
I0225 09:58:46.212894   573 net.cpp:197] Top shape: 1 256 32 64 (524288)
I0225 09:58:46.212899   573 net.cpp:197] Top shape: 1 256 32 64 (524288)
I0225 09:58:46.212903   573 net.cpp:205] Memory required for data: 224919556
I0225 09:58:46.212906   573 layer_factory.hpp:123] Creating layer BatchNorm_1
I0225 09:58:46.212913   573 net.cpp:140] Creating Layer BatchNorm_1
I0225 09:58:46.212918   573 net.cpp:481] BatchNorm_1 <- d3c_conv_d3b-c_0_split_0
I0225 09:58:46.212922   573 net.cpp:455] BatchNorm_1 -> BatchNorm_1
I0225 09:58:46.213397   573 net.cpp:190] Setting up BatchNorm_1
I0225 09:58:46.213405   573 net.cpp:197] Top shape: 1 256 32 64 (524288)
I0225 09:58:46.213410   573 net.cpp:205] Memory required for data: 227016708
I0225 09:58:46.213421   573 layer_factory.hpp:123] Creating layer relu_d3c
I0225 09:58:46.213428   573 net.cpp:140] Creating Layer relu_d3c
I0225 09:58:46.213433   573 net.cpp:481] relu_d3c <- BatchNorm_1
I0225 09:58:46.213436   573 net.cpp:455] relu_d3c -> relu_d3c
I0225 09:58:46.213459   573 net.cpp:190] Setting up relu_d3c
I0225 09:58:46.213464   573 net.cpp:197] Top shape: 1 256 32 64 (524288)
I0225 09:58:46.213469   573 net.cpp:205] Memory required for data: 229113860
I0225 09:58:46.213471   573 layer_factory.hpp:123] Creating layer pool_d3c-4a
I0225 09:58:46.213476   573 net.cpp:140] Creating Layer pool_d3c-4a
I0225 09:58:46.213480   573 net.cpp:481] pool_d3c-4a <- relu_d3c
I0225 09:58:46.213485   573 net.cpp:455] pool_d3c-4a -> d4a
I0225 09:58:46.213511   573 net.cpp:190] Setting up pool_d3c-4a
I0225 09:58:46.213516   573 net.cpp:197] Top shape: 1 256 16 32 (131072)
I0225 09:58:46.213521   573 net.cpp:205] Memory required for data: 229638148
I0225 09:58:46.213524   573 layer_factory.hpp:123] Creating layer conv_d4a-b
I0225 09:58:46.213531   573 net.cpp:140] Creating Layer conv_d4a-b
I0225 09:58:46.213536   573 net.cpp:481] conv_d4a-b <- d4a
I0225 09:58:46.213539   573 net.cpp:455] conv_d4a-b -> d4b
I0225 09:58:46.226372   573 net.cpp:190] Setting up conv_d4a-b
I0225 09:58:46.226384   573 net.cpp:197] Top shape: 1 512 16 32 (262144)
I0225 09:58:46.226390   573 net.cpp:205] Memory required for data: 230686724
I0225 09:58:46.226397   573 layer_factory.hpp:123] Creating layer BatchNorm_2
I0225 09:58:46.226404   573 net.cpp:140] Creating Layer BatchNorm_2
I0225 09:58:46.226408   573 net.cpp:481] BatchNorm_2 <- d4b
I0225 09:58:46.226415   573 net.cpp:455] BatchNorm_2 -> BatchNorm_2
I0225 09:58:46.226871   573 net.cpp:190] Setting up BatchNorm_2
I0225 09:58:46.226879   573 net.cpp:197] Top shape: 1 512 16 32 (262144)
I0225 09:58:46.226886   573 net.cpp:205] Memory required for data: 231735300
I0225 09:58:46.226892   573 layer_factory.hpp:123] Creating layer relu_d4b
I0225 09:58:46.226897   573 net.cpp:140] Creating Layer relu_d4b
I0225 09:58:46.226902   573 net.cpp:481] relu_d4b <- BatchNorm_2
I0225 09:58:46.226905   573 net.cpp:455] relu_d4b -> relu_d4b
I0225 09:58:46.226925   573 net.cpp:190] Setting up relu_d4b
I0225 09:58:46.226929   573 net.cpp:197] Top shape: 1 512 16 32 (262144)
I0225 09:58:46.226933   573 net.cpp:205] Memory required for data: 232783876
I0225 09:58:46.226936   573 layer_factory.hpp:123] Creating layer conv_d4b-c
I0225 09:58:46.226945   573 net.cpp:140] Creating Layer conv_d4b-c
I0225 09:58:46.226948   573 net.cpp:481] conv_d4b-c <- relu_d4b
I0225 09:58:46.226953   573 net.cpp:455] conv_d4b-c -> d4c
I0225 09:58:46.252213   573 net.cpp:190] Setting up conv_d4b-c
I0225 09:58:46.252228   573 net.cpp:197] Top shape: 1 512 16 32 (262144)
I0225 09:58:46.252236   573 net.cpp:205] Memory required for data: 233832452
I0225 09:58:46.252243   573 layer_factory.hpp:123] Creating layer relu_d4c
I0225 09:58:46.252251   573 net.cpp:140] Creating Layer relu_d4c
I0225 09:58:46.252256   573 net.cpp:481] relu_d4c <- d4c
I0225 09:58:46.252262   573 net.cpp:455] relu_d4c -> relu_d4c
I0225 09:58:46.252281   573 net.cpp:190] Setting up relu_d4c
I0225 09:58:46.252285   573 net.cpp:197] Top shape: 1 512 16 32 (262144)
I0225 09:58:46.252290   573 net.cpp:205] Memory required for data: 234881028
I0225 09:58:46.252295   573 layer_factory.hpp:123] Creating layer upconv_d4c_u3a
I0225 09:58:46.252310   573 net.cpp:140] Creating Layer upconv_d4c_u3a
I0225 09:58:46.252316   573 net.cpp:481] upconv_d4c_u3a <- relu_d4c
I0225 09:58:46.252322   573 net.cpp:455] upconv_d4c_u3a -> u3a
I0225 09:58:46.258376   573 net.cpp:190] Setting up upconv_d4c_u3a
I0225 09:58:46.258388   573 net.cpp:197] Top shape: 1 256 32 64 (524288)
I0225 09:58:46.258394   573 net.cpp:205] Memory required for data: 236978180
I0225 09:58:46.258400   573 layer_factory.hpp:123] Creating layer relu_u3a
I0225 09:58:46.258406   573 net.cpp:140] Creating Layer relu_u3a
I0225 09:58:46.258410   573 net.cpp:481] relu_u3a <- u3a
I0225 09:58:46.258415   573 net.cpp:442] relu_u3a -> u3a (in-place)
I0225 09:58:46.258421   573 net.cpp:190] Setting up relu_u3a
I0225 09:58:46.258425   573 net.cpp:197] Top shape: 1 256 32 64 (524288)
I0225 09:58:46.258430   573 net.cpp:205] Memory required for data: 239075332
I0225 09:58:46.258432   573 layer_factory.hpp:123] Creating layer concat_d3cc_u3a-b
I0225 09:58:46.258441   573 net.cpp:140] Creating Layer concat_d3cc_u3a-b
I0225 09:58:46.258445   573 net.cpp:481] concat_d3cc_u3a-b <- u3a
I0225 09:58:46.258448   573 net.cpp:481] concat_d3cc_u3a-b <- d3c_conv_d3b-c_0_split_1
I0225 09:58:46.258453   573 net.cpp:455] concat_d3cc_u3a-b -> u3b
I0225 09:58:46.258476   573 net.cpp:190] Setting up concat_d3cc_u3a-b
I0225 09:58:46.258481   573 net.cpp:197] Top shape: 1 512 32 64 (1048576)
I0225 09:58:46.258486   573 net.cpp:205] Memory required for data: 243269636
I0225 09:58:46.258488   573 layer_factory.hpp:123] Creating layer conv_u3b-c
I0225 09:58:46.258496   573 net.cpp:140] Creating Layer conv_u3b-c
I0225 09:58:46.258499   573 net.cpp:481] conv_u3b-c <- u3b
I0225 09:58:46.258503   573 net.cpp:455] conv_u3b-c -> u3c
I0225 09:58:46.270977   573 net.cpp:190] Setting up conv_u3b-c
I0225 09:58:46.270988   573 net.cpp:197] Top shape: 1 256 32 64 (524288)
I0225 09:58:46.270995   573 net.cpp:205] Memory required for data: 245366788
I0225 09:58:46.271016   573 layer_factory.hpp:123] Creating layer relu_u3c
I0225 09:58:46.271036   573 net.cpp:140] Creating Layer relu_u3c
I0225 09:58:46.271040   573 net.cpp:481] relu_u3c <- u3c
I0225 09:58:46.271045   573 net.cpp:442] relu_u3c -> u3c (in-place)
I0225 09:58:46.271052   573 net.cpp:190] Setting up relu_u3c
I0225 09:58:46.271055   573 net.cpp:197] Top shape: 1 256 32 64 (524288)
I0225 09:58:46.271059   573 net.cpp:205] Memory required for data: 247463940
I0225 09:58:46.271062   573 layer_factory.hpp:123] Creating layer conv_u3c-d
I0225 09:58:46.271070   573 net.cpp:140] Creating Layer conv_u3c-d
I0225 09:58:46.271073   573 net.cpp:481] conv_u3c-d <- u3c
I0225 09:58:46.271078   573 net.cpp:455] conv_u3c-d -> u3d
I0225 09:58:46.277603   573 net.cpp:190] Setting up conv_u3c-d
I0225 09:58:46.277614   573 net.cpp:197] Top shape: 1 256 32 64 (524288)
I0225 09:58:46.277635   573 net.cpp:205] Memory required for data: 249561092
I0225 09:58:46.277642   573 layer_factory.hpp:123] Creating layer relu_u3d
I0225 09:58:46.277647   573 net.cpp:140] Creating Layer relu_u3d
I0225 09:58:46.277652   573 net.cpp:481] relu_u3d <- u3d
I0225 09:58:46.277657   573 net.cpp:442] relu_u3d -> u3d (in-place)
I0225 09:58:46.277662   573 net.cpp:190] Setting up relu_u3d
I0225 09:58:46.277680   573 net.cpp:197] Top shape: 1 256 32 64 (524288)
I0225 09:58:46.277684   573 net.cpp:205] Memory required for data: 251658244
I0225 09:58:46.277688   573 layer_factory.hpp:123] Creating layer upconv_u3d_u2a
I0225 09:58:46.277694   573 net.cpp:140] Creating Layer upconv_u3d_u2a
I0225 09:58:46.277698   573 net.cpp:481] upconv_u3d_u2a <- u3d
I0225 09:58:46.277703   573 net.cpp:455] upconv_u3d_u2a -> u2a
I0225 09:58:46.279043   573 net.cpp:190] Setting up upconv_u3d_u2a
I0225 09:58:46.279052   573 net.cpp:197] Top shape: 1 128 64 128 (1048576)
I0225 09:58:46.279072   573 net.cpp:205] Memory required for data: 255852548
I0225 09:58:46.279078   573 layer_factory.hpp:123] Creating layer relu_u2a
I0225 09:58:46.279083   573 net.cpp:140] Creating Layer relu_u2a
I0225 09:58:46.279086   573 net.cpp:481] relu_u2a <- u2a
I0225 09:58:46.279090   573 net.cpp:442] relu_u2a -> u2a (in-place)
I0225 09:58:46.279095   573 net.cpp:190] Setting up relu_u2a
I0225 09:58:46.279098   573 net.cpp:197] Top shape: 1 128 64 128 (1048576)
I0225 09:58:46.279103   573 net.cpp:205] Memory required for data: 260046852
I0225 09:58:46.279105   573 layer_factory.hpp:123] Creating layer concat_d2cc_u2a-b
I0225 09:58:46.279110   573 net.cpp:140] Creating Layer concat_d2cc_u2a-b
I0225 09:58:46.279114   573 net.cpp:481] concat_d2cc_u2a-b <- u2a
I0225 09:58:46.279117   573 net.cpp:481] concat_d2cc_u2a-b <- d2c_conv_d2b-c_0_split_1
I0225 09:58:46.279122   573 net.cpp:455] concat_d2cc_u2a-b -> u2b
I0225 09:58:46.279137   573 net.cpp:190] Setting up concat_d2cc_u2a-b
I0225 09:58:46.279142   573 net.cpp:197] Top shape: 1 256 64 128 (2097152)
I0225 09:58:46.279146   573 net.cpp:205] Memory required for data: 268435460
I0225 09:58:46.279150   573 layer_factory.hpp:123] Creating layer conv_u2b-c
I0225 09:58:46.279156   573 net.cpp:140] Creating Layer conv_u2b-c
I0225 09:58:46.279160   573 net.cpp:481] conv_u2b-c <- u2b
I0225 09:58:46.279165   573 net.cpp:455] conv_u2b-c -> u2c
I0225 09:58:46.283103   573 net.cpp:190] Setting up conv_u2b-c
I0225 09:58:46.283114   573 net.cpp:197] Top shape: 1 128 64 128 (1048576)
I0225 09:58:46.283120   573 net.cpp:205] Memory required for data: 272629764
I0225 09:58:46.283126   573 layer_factory.hpp:123] Creating layer relu_u2c
I0225 09:58:46.283131   573 net.cpp:140] Creating Layer relu_u2c
I0225 09:58:46.283135   573 net.cpp:481] relu_u2c <- u2c
I0225 09:58:46.283140   573 net.cpp:442] relu_u2c -> u2c (in-place)
I0225 09:58:46.283146   573 net.cpp:190] Setting up relu_u2c
I0225 09:58:46.283149   573 net.cpp:197] Top shape: 1 128 64 128 (1048576)
I0225 09:58:46.283154   573 net.cpp:205] Memory required for data: 276824068
I0225 09:58:46.283157   573 layer_factory.hpp:123] Creating layer conv_u2c-d
I0225 09:58:46.283164   573 net.cpp:140] Creating Layer conv_u2c-d
I0225 09:58:46.283167   573 net.cpp:481] conv_u2c-d <- u2c
I0225 09:58:46.283171   573 net.cpp:455] conv_u2c-d -> u2d
I0225 09:58:46.284654   573 net.cpp:190] Setting up conv_u2c-d
I0225 09:58:46.284663   573 net.cpp:197] Top shape: 1 128 64 128 (1048576)
I0225 09:58:46.284683   573 net.cpp:205] Memory required for data: 281018372
I0225 09:58:46.284689   573 layer_factory.hpp:123] Creating layer relu_u2d
I0225 09:58:46.284694   573 net.cpp:140] Creating Layer relu_u2d
I0225 09:58:46.284704   573 net.cpp:481] relu_u2d <- u2d
I0225 09:58:46.284709   573 net.cpp:442] relu_u2d -> u2d (in-place)
I0225 09:58:46.284715   573 net.cpp:190] Setting up relu_u2d
I0225 09:58:46.284718   573 net.cpp:197] Top shape: 1 128 64 128 (1048576)
I0225 09:58:46.284723   573 net.cpp:205] Memory required for data: 285212676
I0225 09:58:46.284725   573 layer_factory.hpp:123] Creating layer upconv_u2d_u1a
I0225 09:58:46.284731   573 net.cpp:140] Creating Layer upconv_u2d_u1a
I0225 09:58:46.284734   573 net.cpp:481] upconv_u2d_u1a <- u2d
I0225 09:58:46.284739   573 net.cpp:455] upconv_u2d_u1a -> u1a
I0225 09:58:46.285250   573 net.cpp:190] Setting up upconv_u2d_u1a
I0225 09:58:46.285259   573 net.cpp:197] Top shape: 1 64 128 256 (2097152)
I0225 09:58:46.285264   573 net.cpp:205] Memory required for data: 293601284
I0225 09:58:46.285269   573 layer_factory.hpp:123] Creating layer relu_u1a
I0225 09:58:46.285274   573 net.cpp:140] Creating Layer relu_u1a
I0225 09:58:46.285276   573 net.cpp:481] relu_u1a <- u1a
I0225 09:58:46.285281   573 net.cpp:442] relu_u1a -> u1a (in-place)
I0225 09:58:46.285286   573 net.cpp:190] Setting up relu_u1a
I0225 09:58:46.285290   573 net.cpp:197] Top shape: 1 64 128 256 (2097152)
I0225 09:58:46.285293   573 net.cpp:205] Memory required for data: 301989892
I0225 09:58:46.285296   573 layer_factory.hpp:123] Creating layer concat_d1cc_u1a-b
I0225 09:58:46.285301   573 net.cpp:140] Creating Layer concat_d1cc_u1a-b
I0225 09:58:46.285305   573 net.cpp:481] concat_d1cc_u1a-b <- u1a
I0225 09:58:46.285307   573 net.cpp:481] concat_d1cc_u1a-b <- d1c_conv_d1b-c_0_split_1
I0225 09:58:46.285312   573 net.cpp:455] concat_d1cc_u1a-b -> u1b
I0225 09:58:46.285332   573 net.cpp:190] Setting up concat_d1cc_u1a-b
I0225 09:58:46.285337   573 net.cpp:197] Top shape: 1 128 128 256 (4194304)
I0225 09:58:46.285341   573 net.cpp:205] Memory required for data: 318767108
I0225 09:58:46.285346   573 layer_factory.hpp:123] Creating layer conv_u1b-c
I0225 09:58:46.285351   573 net.cpp:140] Creating Layer conv_u1b-c
I0225 09:58:46.285354   573 net.cpp:481] conv_u1b-c <- u1b
I0225 09:58:46.285359   573 net.cpp:455] conv_u1b-c -> u1c
I0225 09:58:46.286226   573 net.cpp:190] Setting up conv_u1b-c
I0225 09:58:46.286233   573 net.cpp:197] Top shape: 1 64 128 256 (2097152)
I0225 09:58:46.286253   573 net.cpp:205] Memory required for data: 327155716
I0225 09:58:46.286259   573 layer_factory.hpp:123] Creating layer relu_u1c
I0225 09:58:46.286263   573 net.cpp:140] Creating Layer relu_u1c
I0225 09:58:46.286267   573 net.cpp:481] relu_u1c <- u1c
I0225 09:58:46.286271   573 net.cpp:442] relu_u1c -> u1c (in-place)
I0225 09:58:46.286276   573 net.cpp:190] Setting up relu_u1c
I0225 09:58:46.286279   573 net.cpp:197] Top shape: 1 64 128 256 (2097152)
I0225 09:58:46.286283   573 net.cpp:205] Memory required for data: 335544324
I0225 09:58:46.286288   573 layer_factory.hpp:123] Creating layer conv_u1c-d
I0225 09:58:46.286293   573 net.cpp:140] Creating Layer conv_u1c-d
I0225 09:58:46.286296   573 net.cpp:481] conv_u1c-d <- u1c
I0225 09:58:46.286300   573 net.cpp:455] conv_u1c-d -> u1d
I0225 09:58:46.286837   573 net.cpp:190] Setting up conv_u1c-d
I0225 09:58:46.286845   573 net.cpp:197] Top shape: 1 64 128 256 (2097152)
I0225 09:58:46.286850   573 net.cpp:205] Memory required for data: 343932932
I0225 09:58:46.286855   573 layer_factory.hpp:123] Creating layer relu_u1d
I0225 09:58:46.286860   573 net.cpp:140] Creating Layer relu_u1d
I0225 09:58:46.286864   573 net.cpp:481] relu_u1d <- u1d
I0225 09:58:46.286868   573 net.cpp:442] relu_u1d -> u1d (in-place)
I0225 09:58:46.286873   573 net.cpp:190] Setting up relu_u1d
I0225 09:58:46.286876   573 net.cpp:197] Top shape: 1 64 128 256 (2097152)
I0225 09:58:46.286880   573 net.cpp:205] Memory required for data: 352321540
I0225 09:58:46.286883   573 layer_factory.hpp:123] Creating layer upconv_u1d_u0a_NEW
I0225 09:58:46.286890   573 net.cpp:140] Creating Layer upconv_u1d_u0a_NEW
I0225 09:58:46.286893   573 net.cpp:481] upconv_u1d_u0a_NEW <- u1d
I0225 09:58:46.286897   573 net.cpp:455] upconv_u1d_u0a_NEW -> u0a
I0225 09:58:46.287225   573 net.cpp:190] Setting up upconv_u1d_u0a_NEW
I0225 09:58:46.287231   573 net.cpp:197] Top shape: 1 32 256 512 (4194304)
I0225 09:58:46.287236   573 net.cpp:205] Memory required for data: 369098756
I0225 09:58:46.287245   573 layer_factory.hpp:123] Creating layer relu_u0a
I0225 09:58:46.287250   573 net.cpp:140] Creating Layer relu_u0a
I0225 09:58:46.287253   573 net.cpp:481] relu_u0a <- u0a
I0225 09:58:46.287258   573 net.cpp:442] relu_u0a -> u0a (in-place)
I0225 09:58:46.287263   573 net.cpp:190] Setting up relu_u0a
I0225 09:58:46.287266   573 net.cpp:197] Top shape: 1 32 256 512 (4194304)
I0225 09:58:46.287271   573 net.cpp:205] Memory required for data: 385875972
I0225 09:58:46.287273   573 layer_factory.hpp:123] Creating layer concat_d0cc_u0a-b
I0225 09:58:46.287278   573 net.cpp:140] Creating Layer concat_d0cc_u0a-b
I0225 09:58:46.287281   573 net.cpp:481] concat_d0cc_u0a-b <- u0a
I0225 09:58:46.287286   573 net.cpp:481] concat_d0cc_u0a-b <- d0c_conv_d0b-c_0_split_1
I0225 09:58:46.287289   573 net.cpp:455] concat_d0cc_u0a-b -> u0b
I0225 09:58:46.287310   573 net.cpp:190] Setting up concat_d0cc_u0a-b
I0225 09:58:46.287314   573 net.cpp:197] Top shape: 1 64 256 512 (8388608)
I0225 09:58:46.287318   573 net.cpp:205] Memory required for data: 419430404
I0225 09:58:46.287322   573 layer_factory.hpp:123] Creating layer conv_u0b-c_New
I0225 09:58:46.287328   573 net.cpp:140] Creating Layer conv_u0b-c_New
I0225 09:58:46.287331   573 net.cpp:481] conv_u0b-c_New <- u0b
I0225 09:58:46.287335   573 net.cpp:455] conv_u0b-c_New -> u0c
I0225 09:58:46.288388   573 net.cpp:190] Setting up conv_u0b-c_New
I0225 09:58:46.288398   573 net.cpp:197] Top shape: 1 32 256 512 (4194304)
I0225 09:58:46.288404   573 net.cpp:205] Memory required for data: 436207620
I0225 09:58:46.288411   573 layer_factory.hpp:123] Creating layer relu_u0c
I0225 09:58:46.288416   573 net.cpp:140] Creating Layer relu_u0c
I0225 09:58:46.288420   573 net.cpp:481] relu_u0c <- u0c
I0225 09:58:46.288425   573 net.cpp:442] relu_u0c -> u0c (in-place)
I0225 09:58:46.288431   573 net.cpp:190] Setting up relu_u0c
I0225 09:58:46.288434   573 net.cpp:197] Top shape: 1 32 256 512 (4194304)
I0225 09:58:46.288439   573 net.cpp:205] Memory required for data: 452984836
I0225 09:58:46.288442   573 layer_factory.hpp:123] Creating layer conv_u0c-d_New
I0225 09:58:46.288450   573 net.cpp:140] Creating Layer conv_u0c-d_New
I0225 09:58:46.288452   573 net.cpp:481] conv_u0c-d_New <- u0c
I0225 09:58:46.288456   573 net.cpp:455] conv_u0c-d_New -> u0d
I0225 09:58:46.288803   573 net.cpp:190] Setting up conv_u0c-d_New
I0225 09:58:46.288812   573 net.cpp:197] Top shape: 1 32 256 512 (4194304)
I0225 09:58:46.288817   573 net.cpp:205] Memory required for data: 469762052
I0225 09:58:46.288822   573 layer_factory.hpp:123] Creating layer relu_u0d
I0225 09:58:46.288827   573 net.cpp:140] Creating Layer relu_u0d
I0225 09:58:46.288831   573 net.cpp:481] relu_u0d <- u0d
I0225 09:58:46.288836   573 net.cpp:442] relu_u0d -> u0d (in-place)
I0225 09:58:46.288841   573 net.cpp:190] Setting up relu_u0d
I0225 09:58:46.288844   573 net.cpp:197] Top shape: 1 32 256 512 (4194304)
I0225 09:58:46.288848   573 net.cpp:205] Memory required for data: 486539268
I0225 09:58:46.288851   573 layer_factory.hpp:123] Creating layer conv_u0d-score_New
I0225 09:58:46.288857   573 net.cpp:140] Creating Layer conv_u0d-score_New
I0225 09:58:46.288861   573 net.cpp:481] conv_u0d-score_New <- u0d
I0225 09:58:46.288866   573 net.cpp:455] conv_u0d-score_New -> conv_u0d-score_New
I0225 09:58:46.289134   573 net.cpp:190] Setting up conv_u0d-score_New
I0225 09:58:46.289141   573 net.cpp:197] Top shape: 1 19 256 512 (2490368)
I0225 09:58:46.289146   573 net.cpp:205] Memory required for data: 496500740
I0225 09:58:46.289152   573 layer_factory.hpp:123] Creating layer score
I0225 09:58:46.289158   573 net.cpp:140] Creating Layer score
I0225 09:58:46.289161   573 net.cpp:481] score <- conv_u0d-score_New
I0225 09:58:46.289166   573 net.cpp:455] score -> score
I0225 09:58:46.289227   573 net.cpp:190] Setting up score
I0225 09:58:46.289232   573 net.cpp:197] Top shape: 1 19 256 512 (2490368)
I0225 09:58:46.289237   573 net.cpp:205] Memory required for data: 506462212
I0225 09:58:46.289240   573 net.cpp:268] score does not need backward computation.
I0225 09:58:46.289249   573 net.cpp:268] conv_u0d-score_New does not need backward computation.
I0225 09:58:46.289252   573 net.cpp:268] relu_u0d does not need backward computation.
I0225 09:58:46.289255   573 net.cpp:268] conv_u0c-d_New does not need backward computation.
…
I0225 09:58:46.561218   573 net.cpp:98] Initializing net from parameters: 
state {
  phase: TRAIN
}
layer {
  name: "data"
  type: "ImageData"
  top: "data"
  top: "label"
  include {
    phase: TRAIN
  }
  transform_param {
    scale: 0.022
    mean_value: 73
    mean_value: 82
    mean_value: 72
    resize_param {
      prob: 1
      resize_mode: WARP
      height: 256
      width: 512
    }
  }
  image_data_param {
    source: "../data/cityscapes/calibration.txt"
    batch_size: 1
    shuffle: true
    new_height: 256
    new_width: 512
    root_folder: "../data/cityscapes/calibration_images/"
  }
}
layer {
  name: "data_fixed"
  type: "FixedNeuron"
  bottom: "data"
  top: "data"
  param {
    lr_mult: 0
    decay_mult: 0
  }
  fixed_param {
    fixed_method: OVER_FLOW
    bit_width: 8
    follow_data_layer: true
  }
}
layer {
  name: "conv_d0a-b"
  type: "ConvolutionFixed"
  bottom: "data"
  top: "d0b"
  param {
    lr_mult: 1
    decay_mult: 1
  }
  param {
    lr_mult: 2
    decay_mult: 0
  }
  convolution_param {
    num_output: 32
    pad: 1
    kernel_size: 3
    stride: 1
    weight_filler {
      type: "msra"
    }
  }
  fixed_param {
    fixed_method: DIFF_S
    bit_width: 8
  }
}
layer {
  name: "relu_d0b"
  type: "ReLU"
  bottom: "d0b"
  top: "relu_d0b"
}
layer {
  name: "relu_d0b_fixed"
  type: "FixedNeuron"
  bottom: "relu_d0b"
  top: "relu_d0b"
  param {
    lr_mult: 0
    decay_mult: 0
  }
  fixed_param {
    fixed_method: DIFF_S
    bit_width: 8
  }
}
layer {
  name: "conv_d0b-c"
  type: "ConvolutionFixed"
  bottom: "relu_d0b"
  top: "d0c"
  param {
    lr_mult: 1
    decay_mult: 1
  }
  param {
    lr_mult: 2
    decay_mult: 0
  }
  convolution_param {
    num_output: 32
    pad: 1
    kernel_size: 3
    weight_filler {
      type: "msra"
    }
  }
  fixed_param {
    fixed_method: DIFF_S
    bit_width: 8
  }
}
layer {
  name: "d0c_fixed"
  type: "FixedNeuron"
  bottom: "d0c"
  top: "d0c"
  param {
    lr_mult: 0
    decay_mult: 0
  }
  fixed_param {
    fixed_method: DIFF_S
    bit_width: 8
  }
}
layer {
  name: "BatchNorm_d0c"
  type: "ScaleFixed"
  bottom: "d0c"
  top: "BatchNorm_d0c"
  param {
    lr_mult: 1
    decay_mult: 1
  }
  param {
    lr_mult: 1
    decay_mult: 0
  }
  scale_param {
    bias_term: true
  }
  fixed_param {
    fixed_method: DIFF_S
    bit_width: 8
  }
}
layer {
  name: "relu_d0c"
  type: "ReLU"
  bottom: "BatchNorm_d0c"
  top: "relu_d0c"
}
layer {
  name: "pool_d0c-1a"
  type: "Pooling"
  bottom: "relu_d0c"
  top: "d1a"
  pooling_param {
    pool: MAX
    kernel_size: 2
    stride: 2
  }
}
layer {
  name: "d1a_fixed"
  type: "FixedNeuron"
  bottom: "d1a"
  top: "d1a"
  param {
    lr_mult: 0
    decay_mult: 0
  }
  fixed_param {
    fixed_method: DIFF_S
    bit_width: 8
  }
}
layer {
  name: "conv_d1a-b"
  type: "ConvolutionFixed"
  bottom: "d1a"
  top: "d1b"
  param {
    lr_mult: 1
    decay_mult: 1
  }
  param {
    lr_mult: 2
    decay_mult: 0
  }
  convolution_param {
    num_output: 64
    pad: 1
    kernel_size: 3
    weight_filler {
      type: "msra"
    }
  }
  fixed_param {
    fixed_method: DIFF_S
    bit_width: 8
  }
}
layer {
  name: "relu_d1b"
  type: "ReLU"
  bottom: "d1b"
  top: "relu_d1b"
}
layer {
  name: "relu_d1b_fixed"
  type: "FixedNeuron"
  bottom: "relu_d1b"
  top: "relu_d1b"
  param {
    lr_mult: 0
    decay_mult: 0
  }
  fixed_param {
    fixed_method: DIFF_S
    bit_width: 8
  }
}
layer {
  name: "conv_d1b-c"
  type: "ConvolutionFixed"
  bottom: "relu_d1b"
  top: "d1c"
  param {
    lr_mult: 1
    decay_mult: 1
  }
  param {
    lr_mult: 2
    decay_mult: 0
  }
  convolution_param {
    num_output: 64
    pad: 1
    kernel_size: 3
    weight_filler {
      type: "msra"
    }
  }
  fixed_param {
    fixed_method: DIFF_S
    bit_width: 8
  }
}
layer {
  name: "d1c_fixed"
  type: "FixedNeuron"
  bottom: "d1c"
  top: "d1c"
  param {
    lr_mult: 0
    decay_mult: 0
  }
  fixed_param {
    fixed_method: DIFF_S
    bit_width: 8
  }
}
layer {
  name: "BatchNorm_d1c"
  type: "ScaleFixed"
  bottom: "d1c"
  top: "BatchNorm_d1c"
  param {
    lr_mult: 1
    decay_mult: 1
  }
  param {
    lr_mult: 1
    decay_mult: 0
  }
  scale_param {
    bias_term: true
  }
  fixed_param {
    fixed_method: DIFF_S
    bit_width: 8
  }
}
layer {
  name: "relu_d1c"
  type: "ReLU"
  bottom: "BatchNorm_d1c"
  top: "relu_d1c"
}
layer {
  name: "pool_d1c-2a"
  type: "Pooling"
  bottom: "relu_d1c"
  top: "d2a"
  pooling_param {
    pool: MAX
    kernel_size: 2
    stride: 2
  }
}
layer {
  name: "d2a_fixed"
  type: "FixedNeuron"
  bottom: "d2a"
  top: "d2a"
  param {
    lr_mult: 0
    decay_mult: 0
  }
  fixed_param {
    fixed_method: DIFF_S
    bit_width: 8
  }
}
layer {
  name: "conv_d2a-b"
  type: "ConvolutionFixed"
  bottom: "d2a"
  top: "d2b"
  param {
    lr_mult: 1
    decay_mult: 1
  }
  param {
    lr_mult: 2
    decay_mult: 0
  }
  convolution_param {
    num_output: 128
    pad: 1
    kernel_size: 3
    weight_filler {
      type: "msra"
    }
  }
  fixed_param {
    fixed_method: DIFF_S
    bit_width: 8
  }
}
layer {
  name: "relu_d2b"
  type: "ReLU"
  bottom: "d2b"
  top: "relu_d2b"
}
layer {
  name: "relu_d2b_fixed"
  type: "FixedNeuron"
  bottom: "relu_d2b"
  top: "relu_d2b"
  param {
    lr_mult: 0
    decay_mult: 0
  }
  fixed_param {
    fixed_method: DIFF_S
    bit_width: 8
  }
}
layer {
  name: "conv_d2b-c"
  type: "ConvolutionFixed"
  bottom: "relu_d2b"
  top: "d2c"
  param {
    lr_mult: 1
    decay_mult: 1
  }
  param {
    lr_mult: 2
    decay_mult: 0
  }
  convolution_param {
    num_output: 128
    pad: 1
    kernel_size: 3
    weight_filler {
      type: "msra"
    }
  }
  fixed_param {
    fixed_method: DIFF_S
    bit_width: 8
  }
}
layer {
  name: "d2c_fixed"
  type: "FixedNeuron"
  bottom: "d2c"
  top: "d2c"
  param {
    lr_mult: 0
    decay_mult: 0
  }
  fixed_param {
    fixed_method: DIFF_S
    bit_width: 8
  }
}
layer {
  name: "BatchNorm_d2c"
  type: "ScaleFixed"
  bottom: "d2c"
  top: "BatchNorm_d2c"
  param {
    lr_mult: 1
    decay_mult: 1
  }
  param {
    lr_mult: 1
    decay_mult: 0
  }
  scale_param {
    bias_term: true
  }
  fixed_param {
    fixed_method: DIFF_S
    bit_width: 8
  }
}
layer {
  name: "relu_d2c"
  type: "ReLU"
  bottom: "BatchNorm_d2c"
  top: "relu_d2c"
}
layer {
  name: "pool_d2c-3a"
  type: "Pooling"
  bottom: "relu_d2c"
  top: "d3a"
  pooling_param {
    pool: MAX
    kernel_size: 2
    stride: 2
  }
}
layer {
  name: "d3a_fixed"
  type: "FixedNeuron"
  bottom: "d3a"
  top: "d3a"
  param {
    lr_mult: 0
    decay_mult: 0
  }
  fixed_param {
    fixed_method: DIFF_S
    bit_width: 8
  }
}
layer {
  name: "conv_d3a-b"
  type: "ConvolutionFixed"
  bottom: "d3a"
  top: "d3b"
  param {
    lr_mult: 1
    decay_mult: 1
  }
  param {
    lr_mult: 2
    decay_mult: 0
  }
  convolution_param {
    num_output: 256
    pad: 1
    kernel_size: 3
    weight_filler {
      type: "msra"
    }
  }
  fixed_param {
    fixed_method: DIFF_S
    bit_width: 8
  }
}
layer {
  name: "relu_d3b"
  type: "ReLU"
  bottom: "d3b"
  top: "relu_d3b"
}
layer {
  name: "relu_d3b_fixed"
  type: "FixedNeuron"
  bottom: "relu_d3b"
  top: "relu_d3b"
  param {
    lr_mult: 0
    decay_mult: 0
  }
  fixed_param {
    fixed_method: DIFF_S
    bit_width: 8
  }
}
layer {
  name: "conv_d3b-c"
  type: "ConvolutionFixed"
  bottom: "relu_d3b"
  top: "d3c"
  param {
    lr_mult: 1
    decay_mult: 1
  }
  param {
    lr_mult: 2
    decay_mult: 0
  }
  convolution_param {
    num_output: 256
    pad: 1
    kernel_size: 3
    weight_filler {
      type: "msra"
    }
  }
  fixed_param {
    fixed_method: DIFF_S
    bit_width: 8
  }
}
layer {
  name: "d3c_fixed"
  type: "FixedNeuron"
  bottom: "d3c"
  top: "d3c"
  param {
    lr_mult: 0
    decay_mult: 0
  }
  fixed_param {
    fixed_method: DIFF_S
    bit_width: 8
  }
}
layer {
  name: "BatchNorm_1"
  type: "ScaleFixed"
  bottom: "d3c"
  top: "BatchNorm_1"
  param {
    lr_mult: 1
    decay_mult: 1
  }
  param {
    lr_mult: 1
    decay_mult: 0
  }
  scale_param {
    bias_term: true
  }
  fixed_param {
    fixed_method: DIFF_S
    bit_width: 8
  }
}
layer {
  name: "relu_d3c"
  type: "ReLU"
  bottom: "BatchNorm_1"
  top: "relu_d3c"
}
layer {
  name: "pool_d3c-4a"
  type: "Pooling"
  bottom: "relu_d3c"
  top: "d4a"
  pooling_param {
    pool: MAX
    kernel_size: 2
    stride: 2
  }
}
layer {
  name: "d4a_fixed"
  type: "FixedNeuron"
  bottom: "d4a"
  top: "d4a"
  param {
    lr_mult: 0
    decay_mult: 0
  }
  fixed_param {
    fixed_method: DIFF_S
    bit_width: 8
  }
}
layer {
  name: "conv_d4a-b"
  type: "ConvolutionFixed"
  bottom: "d4a"
  top: "BatchNorm_2"
  param {
    lr_mult: 1
    decay_mult: 1
  }
  param {
    lr_mult: 1
    decay_mult: 0
  }
  convolution_param {
    num_output: 512
    bias_term: true
    pad: 1
    kernel_size: 3
    weight_filler {
      type: "msra"
    }
  }
  fixed_param {
    fixed_method: DIFF_S
    bit_width: 8
  }
}
layer {
  name: "relu_d4b"
  type: "ReLU"
  bottom: "BatchNorm_2"
  top: "relu_d4b"
}
layer {
  name: "relu_d4b_fixed"
  type: "FixedNeuron"
  bottom: "relu_d4b"
  top: "relu_d4b"
  param {
    lr_mult: 0
    decay_mult: 0
  }
  fixed_param {
    fixed_method: DIFF_S
    bit_width: 8
  }
}
layer {
  name: "conv_d4b-c"
  type: "ConvolutionFixed"
  bottom: "relu_d4b"
  top: "d4c"
  param {
    lr_mult: 1
    decay_mult: 1
  }
  param {
    lr_mult: 2
    decay_mult: 0
  }
  convolution_param {
    num_output: 512
    pad: 1
    kernel_size: 3
    weight_filler {
      type: "msra"
    }
  }
  fixed_param {
    fixed_method: DIFF_S
    bit_width: 8
  }
}
layer {
  name: "relu_d4c"
  type: "ReLU"
  bottom: "d4c"
  top: "relu_d4c"
}
layer {
  name: "relu_d4c_fixed"
  type: "FixedNeuron"
  bottom: "relu_d4c"
  top: "relu_d4c"
  param {
    lr_mult: 0
    decay_mult: 0
  }
  fixed_param {
    fixed_method: DIFF_S
    bit_width: 8
  }
}
layer {
  name: "upconv_d4c_u3a"
  type: "DeconvolutionFixed"
  bottom: "relu_d4c"
  top: "u3a"
  param {
    lr_mult: 1
    decay_mult: 1
  }
  param {
    lr_mult: 2
    decay_mult: 0
  }
  convolution_param {
    num_output: 256
    pad: 0
    kernel_size: 2
    stride: 2
    weight_filler {
      type: "msra"
    }
  }
  fixed_param {
    fixed_method: DIFF_S
    bit_width: 8
  }
}
layer {
  name: "relu_u3a"
  type: "ReLU"
  bottom: "u3a"
  top: "u3a"
}
layer {
  name: "concat_d3cc_u3a-b"
  type: "Concat"
  bottom: "u3a"
  bottom: "d3c"
  top: "u3b"
}
layer {
  name: "u3b_fixed"
  type: "FixedNeuron"
  bottom: "u3b"
  top: "u3b"
  param {
    lr_mult: 0
    decay_mult: 0
  }
  fixed_param {
    fixed_method: DIFF_S
    bit_width: 8
  }
}
layer {
  name: "conv_u3b-c"
  type: "ConvolutionFixed"
  bottom: "u3b"
  top: "u3c"
  param {
    lr_mult: 1
    decay_mult: 1
  }
  param {
    lr_mult: 2
    decay_mult: 0
  }
  convolution_param {
    num_output: 256
    pad: 1
    kernel_size: 3
    weight_filler {
      type: "msra"
    }
  }
  fixed_param {
    fixed_method: DIFF_S
    bit_width: 8
  }
}
layer {
  name: "relu_u3c"
  type: "ReLU"
  bottom: "u3c"
  top: "u3c"
}
layer {
  name: "u3c_fixed"
  type: "FixedNeuron"
  bottom: "u3c"
  top: "u3c"
  param {
    lr_mult: 0
    decay_mult: 0
  }
  fixed_param {
    fixed_method: DIFF_S
    bit_width: 8
  }
}
layer {
  name: "conv_u3c-d"
  type: "ConvolutionFixed"
  bottom: "u3c"
  top: "u3d"
  param {
    lr_mult: 1
    decay_mult: 1
  }
  param {
    lr_mult: 2
    decay_mult: 0
  }
  convolution_param {
    num_output: 256
    pad: 1
    kernel_size: 3
    weight_filler {
      type: "msra"
    }
  }
  fixed_param {
    fixed_method: DIFF_S
    bit_width: 8
  }
}
layer {
  name: "relu_u3d"
  type: "ReLU"
  bottom: "u3d"
  top: "u3d"
}
layer {
  name: "u3d_fixed"
  type: "FixedNeuron"
  bottom: "u3d"
  top: "u3d"
  param {
    lr_mult: 0
    decay_mult: 0
  }
  fixed_param {
    fixed_method: DIFF_S
    bit_width: 8
  }
}
layer {
  name: "upconv_u3d_u2a"
  type: "DeconvolutionFixed"
  bottom: "u3d"
  top: "u2a"
  param {
    lr_mult: 1
    decay_mult: 1
  }
  param {
    lr_mult: 2
    decay_mult: 0
  }
  convolution_param {
    num_output: 128
    pad: 0
    kernel_size: 2
    stride: 2
    weight_filler {
      type: "msra"
    }
  }
  fixed_param {
    fixed_method: DIFF_S
    bit_width: 8
  }
}
layer {
  name: "relu_u2a"
  type: "ReLU"
  bottom: "u2a"
  top: "u2a"
}
layer {
  name: "concat_d2cc_u2a-b"
  type: "Concat"
  bottom: "u2a"
  bottom: "d2c"
  top: "u2b"
}
layer {
  name: "u2b_fixed"
  type: "FixedNeuron"
  bottom: "u2b"
  top: "u2b"
  param {
    lr_mult: 0
    decay_mult: 0
  }
  fixed_param {
    fixed_method: DIFF_S
    bit_width: 8
  }
}
layer {
  name: "conv_u2b-c"
  type: "ConvolutionFixed"
  bottom: "u2b"
  top: "u2c"
  param {
    lr_mult: 1
    decay_mult: 1
  }
  param {
    lr_mult: 2
    decay_mult: 0
  }
  convolution_param {
    num_output: 128
    pad: 1
    kernel_size: 3
    weight_filler {
      type: "msra"
    }
  }
  fixed_param {
    fixed_method: DIFF_S
    bit_width: 8
  }
}
layer {
  name: "relu_u2c"
  type: "ReLU"
  bottom: "u2c"
  top: "u2c"
}
layer {
  name: "u2c_fixed"
  type: "FixedNeuron"
  bottom: "u2c"
  top: "u2c"
  param {
    lr_mult: 0
    decay_mult: 0
  }
  fixed_param {
    fixed_method: DIFF_S
    bit_width: 8
  }
}
layer {
  name: "conv_u2c-d"
  type: "ConvolutionFixed"
  bottom: "u2c"
  top: "u2d"
  param {
    lr_mult: 1
    decay_mult: 1
  }
  param {
    lr_mult: 2
    decay_mult: 0
  }
  convolution_param {
    num_output: 128
    pad: 1
    kernel_size: 3
    weight_filler {
      type: "msra"
    }
  }
  fixed_param {
    fixed_method: DIFF_S
    bit_width: 8
  }
}
layer {
  name: "relu_u2d"
  type: "ReLU"
  bottom: "u2d"
  top: "u2d"
}
layer {
  name: "u2d_fixed"
  type: "FixedNeuron"
  bottom: "u2d"
  top: "u2d"
  param {
    lr_mult: 0
    decay_mult: 0
  }
  fixed_param {
    fixed_method: DIFF_S
    bit_width: 8
  }
}
layer {
  name: "upconv_u2d_u1a"
  type: "DeconvolutionFixed"
  bottom: "u2d"
  top: "u1a"
  param {
    lr_mult: 1
    decay_mult: 1
  }
  param {
    lr_mult: 2
    decay_mult: 0
  }
  convolution_param {
    num_output: 64
    pad: 0
    kernel_size: 2
    stride: 2
    weight_filler {
      type: "msra"
    }
  }
  fixed_param {
    fixed_method: DIFF_S
    bit_width: 8
  }
}
layer {
  name: "relu_u1a"
  type: "ReLU"
  bottom: "u1a"
  top: "u1a"
}
layer {
  name: "concat_d1cc_u1a-b"
  type: "Concat"
  bottom: "u1a"
  bottom: "d1c"
  top: "u1b"
}
layer {
  name: "u1b_fixed"
  type: "FixedNeuron"
  bottom: "u1b"
  top: "u1b"
  param {
    lr_mult: 0
    decay_mult: 0
  }
  fixed_param {
    fixed_method: DIFF_S
    bit_width: 8
  }
}
layer {
  name: "conv_u1b-c"
  type: "ConvolutionFixed"
  bottom: "u1b"
  top: "u1c"
  param {
    lr_mult: 1
    decay_mult: 1
  }
  param {
    lr_mult: 2
    decay_mult: 0
  }
  convolution_param {
    num_output: 64
    pad: 1
    kernel_size: 3
    weight_filler {
      type: "msra"
    }
  }
  fixed_param {
    fixed_method: DIFF_S
    bit_width: 8
  }
}
layer {
  name: "relu_u1c"
  type: "ReLU"
  bottom: "u1c"
  top: "u1c"
}
layer {
  name: "u1c_fixed"
  type: "FixedNeuron"
  bottom: "u1c"
  top: "u1c"
  param {
    lr_mult: 0
    decay_mult: 0
  }
  fixed_param {
    fixed_method: DIFF_S
    bit_width: 8
  }
}
layer {
  name: "conv_u1c-d"
  type: "ConvolutionFixed"
  bottom: "u1c"
  top: "u1d"
  param {
    lr_mult: 1
    decay_mult: 1
  }
  param {
    lr_mult: 2
    decay_mult: 0
  }
  convolution_param {
    num_output: 64
    pad: 1
    kernel_size: 3
    weight_filler {
      type: "msra"
    }
  }
  fixed_param {
    fixed_method: DIFF_S
    bit_width: 8
  }
}
layer {
  name: "relu_u1d"
  type: "ReLU"
  bottom: "u1d"
  top: "u1d"
}
layer {
  name: "u1d_fixed"
  type: "FixedNeuron"
  bottom: "u1d"
  top: "u1d"
  param {
    lr_mult: 0
    decay_mult: 0
  }
  fixed_param {
    fixed_method: DIFF_S
    bit_width: 8
  }
}
layer {
  name: "upconv_u1d_u0a_NEW"
  type: "DeconvolutionFixed"
  bottom: "u1d"
  top: "u0a"
  param {
    lr_mult: 1
    decay_mult: 1
  }
  param {
    lr_mult: 2
    decay_mult: 0
  }
  convolution_param {
    num_output: 32
    pad: 0
    kernel_size: 2
    stride: 2
    weight_filler {
      type: "msra"
    }
  }
  fixed_param {
    fixed_method: DIFF_S
    bit_width: 8
  }
}
layer {
  name: "relu_u0a"
  type: "ReLU"
  bottom: "u0a"
  top: "u0a"
}
layer {
  name: "concat_d0cc_u0a-b"
  type: "Concat"
  bottom: "u0a"
  bottom: "d0c"
  top: "u0b"
}
layer {
  name: "u0b_fixed"
  type: "FixedNeuron"
  bottom: "u0b"
  top: "u0b"
  param {
    lr_mult: 0
    decay_mult: 0
  }
  fixed_param {
    fixed_method: DIFF_S
    bit_width: 8
  }
}
layer {
  name: "conv_u0b-c_New"
  type: "ConvolutionFixed"
  bottom: "u0b"
  top: "u0c"
  param {
    lr_mult: 1
    decay_mult: 1
  }
  param {
    lr_mult: 2
    decay_mult: 0
  }
  convolution_param {
    num_output: 32
    pad: 1
    kernel_size: 3
    weight_filler {
      type: "msra"
    }
  }
  fixed_param {
    fixed_method: DIFF_S
    bit_width: 8
  }
}
layer {
  name: "relu_u0c"
  type: "ReLU"
  bottom: "u0c"
  top: "u0c"
}
layer {
  name: "u0c_fixed"
  type: "FixedNeuron"
  bottom: "u0c"
  top: "u0c"
  param {
    lr_mult: 0
    decay_mult: 0
  }
  fixed_param {
    fixed_method: DIFF_S
    bit_width: 8
  }
}
layer {
  name: "conv_u0c-d_New"
  type: "ConvolutionFixed"
  bottom: "u0c"
  top: "u0d"
  param {
    lr_mult: 1
    decay_mult: 1
  }
  param {
    lr_mult: 2
    decay_mult: 0
  }
  convolution_param {
    num_output: 32
    pad: 1
    kernel_size: 3
    weight_filler {
      type: "msra"
    }
  }
  fixed_param {
    fixed_method: DIFF_S
    bit_width: 8
  }
}
layer {
  name: "relu_u0d"
  type: "ReLU"
  bottom: "u0d"
  top: "u0d"
}
layer {
  name: "u0d_fixed"
  type: "FixedNeuron"
  bottom: "u0d"
  top: "u0d"
  param {
    lr_mult: 0
    decay_mult: 0
  }
  fixed_param {
    fixed_method: DIFF_S
    bit_width: 8
  }
}
layer {
  name: "conv_u0d-score_New"
  type: "ConvolutionFixed"
  bottom: "u0d"
  top: "conv_u0d-score_New"
  param {
    lr_mult: 1
    decay_mult: 1
  }
  param {
    lr_mult: 2
    decay_mult: 0
  }
  convolution_param {
    num_output: 19
    pad: 0
    kernel_size: 1
    weight_filler {
      type: "msra"
    }
  }
  fixed_param {
    fixed_method: DIFF_S
    bit_width: 8
  }
}
layer {
  name: "conv_u0d-score_New_fixed"
  type: "FixedNeuron"
  bottom: "conv_u0d-score_New"
  top: "conv_u0d-score_New"
  param {
    lr_mult: 0
    decay_mult: 0
  }
  fixed_param {
    fixed_method: DIFF_S
    bit_width: 8
  }
}
layer {
  name: "score"
  type: "Softmax"
  bottom: "conv_u0d-score_New"
  top: "score"
}
I0225 09:58:46.561798   573 layer_factory.hpp:123] Creating layer data
I0225 09:58:46.561821   573 net.cpp:140] Creating Layer data
I0225 09:58:46.561830   573 net.cpp:455] data -> data
I0225 09:58:46.561843   573 net.cpp:455] data -> label
I0225 09:58:46.561856   573 image_data_layer.cpp:87] Opening file ../data/cityscapes/calibration.txt
I0225 09:58:46.562271   573 image_data_layer.cpp:97] Shuffling data
I0225 09:58:46.562309   573 image_data_layer.cpp:102] A total of 1000 images.
I0225 09:58:46.628602   573 image_data_layer.cpp:130] output data size: 1,3,256,512
I0225 09:58:46.636754   573 internal_thread.cpp:73] Starting internal thread(s) on GPU 0
I0225 09:58:46.636826   573 net.cpp:190] Setting up data
I0225 09:58:46.636832   573 net.cpp:197] Top shape: 1 3 256 512 (393216)
I0225 09:58:46.636840   573 net.cpp:197] Top shape: 1 (1)
I0225 09:58:46.636844   573 net.cpp:205] Memory required for data: 1572868
I0225 09:58:46.636849   573 layer_factory.hpp:123] Creating layer data_fixed
I0225 09:58:46.636867   573 net.cpp:140] Creating Layer data_fixed
I0225 09:58:46.636871   573 net.cpp:481] data_fixed <- data
I0225 09:58:46.636878   573 net.cpp:442] data_fixed -> data (in-place)
I0225 09:58:46.636931   573 net.cpp:190] Setting up data_fixed
I0225 09:58:46.636938   573 net.cpp:197] Top shape: 1 3 256 512 (393216)
I0225 09:58:46.636945   573 net.cpp:205] Memory required for data: 3145732
I0225 09:58:46.636955   573 layer_factory.hpp:123] Creating layer conv_d0a-b
I0225 09:58:46.636965   573 net.cpp:140] Creating Layer conv_d0a-b
I0225 09:58:46.636970   573 net.cpp:481] conv_d0a-b <- data
I0225 09:58:46.636974   573 net.cpp:455] conv_d0a-b -> d0b
I0225 09:58:46.637255   573 layer_factory.hpp:123] Creating layer conv_d0a-b
I0225 09:58:46.637748   573 net.cpp:190] Setting up conv_d0a-b
I0225 09:58:46.637758   573 net.cpp:197] Top shape: 1 32 256 512 (4194304)
I0225 09:58:46.637763   573 net.cpp:205] Memory required for data: 19922948
I0225 09:58:46.637771   573 layer_factory.hpp:123] Creating layer relu_d0b
I0225 09:58:46.637778   573 net.cpp:140] Creating Layer relu_d0b
I0225 09:58:46.637780   573 net.cpp:481] relu_d0b <- d0b
I0225 09:58:46.637785   573 net.cpp:455] relu_d0b -> relu_d0b
I0225 09:58:46.637809   573 net.cpp:190] Setting up relu_d0b
I0225 09:58:46.637814   573 net.cpp:197] Top shape: 1 32 256 512 (4194304)
I0225 09:58:46.637818   573 net.cpp:205] Memory required for data: 36700164
I0225 09:58:46.637822   573 layer_factory.hpp:123] Creating layer relu_d0b_fixed
I0225 09:58:46.637827   573 net.cpp:140] Creating Layer relu_d0b_fixed
I0225 09:58:46.637831   573 net.cpp:481] relu_d0b_fixed <- relu_d0b
I0225 09:58:46.637836   573 net.cpp:442] relu_d0b_fixed -> relu_d0b (in-place)
I0225 09:58:46.637863   573 net.cpp:190] Setting up relu_d0b_fixed
I0225 09:58:46.637867   573 net.cpp:197] Top shape: 1 32 256 512 (4194304)
I0225 09:58:46.637872   573 net.cpp:205] Memory required for data: 53477380
I0225 09:58:46.637876   573 layer_factory.hpp:123] Creating layer conv_d0b-c
I0225 09:58:46.637884   573 net.cpp:140] Creating Layer conv_d0b-c
I0225 09:58:46.637887   573 net.cpp:481] conv_d0b-c <- relu_d0b
I0225 09:58:46.637892   573 net.cpp:455] conv_d0b-c -> d0c
I0225 09:58:46.638131   573 layer_factory.hpp:123] Creating layer conv_d0b-c
I0225 09:58:46.638599   573 net.cpp:190] Setting up conv_d0b-c
I0225 09:58:46.638608   573 net.cpp:197] Top shape: 1 32 256 512 (4194304)
I0225 09:58:46.638614   573 net.cpp:205] Memory required for data: 70254596
I0225 09:58:46.638622   573 layer_factory.hpp:123] Creating layer d0c_fixed
I0225 09:58:46.638628   573 net.cpp:140] Creating Layer d0c_fixed
I0225 09:58:46.638630   573 net.cpp:481] d0c_fixed <- d0c
I0225 09:58:46.638635   573 net.cpp:442] d0c_fixed -> d0c (in-place)
I0225 09:58:46.638666   573 net.cpp:190] Setting up d0c_fixed
I0225 09:58:46.638670   573 net.cpp:197] Top shape: 1 32 256 512 (4194304)
I0225 09:58:46.638674   573 net.cpp:205] Memory required for data: 87031812
I0225 09:58:46.638679   573 layer_factory.hpp:123] Creating layer d0c_d0c_fixed_0_split
I0225 09:58:46.638684   573 net.cpp:140] Creating Layer d0c_d0c_fixed_0_split
I0225 09:58:46.638687   573 net.cpp:481] d0c_d0c_fixed_0_split <- d0c
I0225 09:58:46.638692   573 net.cpp:455] d0c_d0c_fixed_0_split -> d0c_d0c_fixed_0_split_0
I0225 09:58:46.638698   573 net.cpp:455] d0c_d0c_fixed_0_split -> d0c_d0c_fixed_0_split_1
I0225 09:58:46.638783   573 net.cpp:190] Setting up d0c_d0c_fixed_0_split
I0225 09:58:46.638789   573 net.cpp:197] Top shape: 1 32 256 512 (4194304)
I0225 09:58:46.638795   573 net.cpp:197] Top shape: 1 32 256 512 (4194304)
I0225 09:58:46.638799   573 net.cpp:205] Memory required for data: 120586244
I0225 09:58:46.638803   573 layer_factory.hpp:123] Creating layer BatchNorm_d0c
I0225 09:58:46.638814   573 net.cpp:140] Creating Layer BatchNorm_d0c
I0225 09:58:46.638818   573 net.cpp:481] BatchNorm_d0c <- d0c_d0c_fixed_0_split_0
I0225 09:58:46.638823   573 net.cpp:455] BatchNorm_d0c -> BatchNorm_d0c
I0225 09:58:46.638873   573 layer_factory.hpp:123] Creating layer BatchNorm_d0c
I0225 09:58:46.639142   573 layer_factory.hpp:123] Creating layer BatchNorm_d0c
I0225 09:58:46.639187   573 layer_factory.hpp:123] Creating layer BatchNorm_d0c
I0225 09:58:46.640184   573 net.cpp:190] Setting up BatchNorm_d0c
I0225 09:58:46.640194   573 net.cpp:197] Top shape: 1 32 256 512 (4194304)
I0225 09:58:46.640202   573 net.cpp:205] Memory required for data: 137363460
I0225 09:58:46.640208   573 layer_factory.hpp:123] Creating layer relu_d0c
I0225 09:58:46.640214   573 net.cpp:140] Creating Layer relu_d0c
I0225 09:58:46.640218   573 net.cpp:481] relu_d0c <- BatchNorm_d0c
I0225 09:58:46.640223   573 net.cpp:455] relu_d0c -> relu_d0c
I0225 09:58:46.640249   573 net.cpp:190] Setting up relu_d0c
I0225 09:58:46.640254   573 net.cpp:197] Top shape: 1 32 256 512 (4194304)
I0225 09:58:46.640259   573 net.cpp:205] Memory required for data: 154140676
I0225 09:58:46.640262   573 layer_factory.hpp:123] Creating layer pool_d0c-1a
I0225 09:58:46.640269   573 net.cpp:140] Creating Layer pool_d0c-1a
I0225 09:58:46.640272   573 net.cpp:481] pool_d0c-1a <- relu_d0c
I0225 09:58:46.640276   573 net.cpp:455] pool_d0c-1a -> d1a
I0225 09:58:46.640305   573 net.cpp:190] Setting up pool_d0c-1a
I0225 09:58:46.640311   573 net.cpp:197] Top shape: 1 32 128 256 (1048576)
I0225 09:58:46.640316   573 net.cpp:205] Memory required for data: 158334980
I0225 09:58:46.640321   573 layer_factory.hpp:123] Creating layer d1a_fixed
I0225 09:58:46.640326   573 net.cpp:140] Creating Layer d1a_fixed
I0225 09:58:46.640328   573 net.cpp:481] d1a_fixed <- d1a
I0225 09:58:46.640334   573 net.cpp:442] d1a_fixed -> d1a (in-place)
I0225 09:58:46.640362   573 net.cpp:190] Setting up d1a_fixed
I0225 09:58:46.640365   573 net.cpp:197] Top shape: 1 32 128 256 (1048576)
I0225 09:58:46.640370   573 net.cpp:205] Memory required for data: 162529284
I0225 09:58:46.640380   573 layer_factory.hpp:123] Creating layer conv_d1a-b
I0225 09:58:46.640388   573 net.cpp:140] Creating Layer conv_d1a-b
I0225 09:58:46.640393   573 net.cpp:481] conv_d1a-b <- d1a
I0225 09:58:46.640398   573 net.cpp:455] conv_d1a-b -> d1b
I0225 09:58:46.640866   573 layer_factory.hpp:123] Creating layer conv_d1a-b
I0225 09:58:46.641521   573 net.cpp:190] Setting up conv_d1a-b
I0225 09:58:46.641535   573 net.cpp:197] Top shape: 1 64 128 256 (2097152)
I0225 09:58:46.641543   573 net.cpp:205] Memory required for data: 170917892
I0225 09:58:46.641553   573 layer_factory.hpp:123] Creating layer relu_d1b
I0225 09:58:46.641561   573 net.cpp:140] Creating Layer relu_d1b
I0225 09:58:46.641566   573 net.cpp:481] relu_d1b <- d1b
I0225 09:58:46.641574   573 net.cpp:455] relu_d1b -> relu_d1b
I0225 09:58:46.641605   573 net.cpp:190] Setting up relu_d1b
I0225 09:58:46.641613   573 net.cpp:197] Top shape: 1 64 128 256 (2097152)
I0225 09:58:46.641620   573 net.cpp:205] Memory required for data: 179306500
I0225 09:58:46.641625   573 layer_factory.hpp:123] Creating layer relu_d1b_fixed
I0225 09:58:46.641633   573 net.cpp:140] Creating Layer relu_d1b_fixed
I0225 09:58:46.641639   573 net.cpp:481] relu_d1b_fixed <- relu_d1b
I0225 09:58:46.641647   573 net.cpp:442] relu_d1b_fixed -> relu_d1b (in-place)
I0225 09:58:46.641693   573 net.cpp:190] Setting up relu_d1b_fixed
I0225 09:58:46.641703   573 net.cpp:197] Top shape: 1 64 128 256 (2097152)
I0225 09:58:46.641712   573 net.cpp:205] Memory required for data: 187695108
I0225 09:58:46.641721   573 layer_factory.hpp:123] Creating layer conv_d1b-c
I0225 09:58:46.641731   573 net.cpp:140] Creating Layer conv_d1b-c
I0225 09:58:46.641737   573 net.cpp:481] conv_d1b-c <- relu_d1b
I0225 09:58:46.641746   573 net.cpp:455] conv_d1b-c -> d1c
I0225 09:58:46.642293   573 layer_factory.hpp:123] Creating layer conv_d1b-c
I0225 09:58:46.642942   573 net.cpp:190] Setting up conv_d1b-c
I0225 09:58:46.642952   573 net.cpp:197] Top shape: 1 64 128 256 (2097152)
I0225 09:58:46.642958   573 net.cpp:205] Memory required for data: 196083716
I0225 09:58:46.642964   573 layer_factory.hpp:123] Creating layer d1c_fixed
I0225 09:58:46.642971   573 net.cpp:140] Creating Layer d1c_fixed
I0225 09:58:46.642974   573 net.cpp:481] d1c_fixed <- d1c
I0225 09:58:46.642979   573 net.cpp:442] d1c_fixed -> d1c (in-place)
I0225 09:58:46.643012   573 net.cpp:190] Setting up d1c_fixed
I0225 09:58:46.643019   573 net.cpp:197] Top shape: 1 64 128 256 (2097152)
I0225 09:58:46.643024   573 net.cpp:205] Memory required for data: 204472324
I0225 09:58:46.643029   573 layer_factory.hpp:123] Creating layer d1c_d1c_fixed_0_split
I0225 09:58:46.643035   573 net.cpp:140] Creating Layer d1c_d1c_fixed_0_split
I0225 09:58:46.643038   573 net.cpp:481] d1c_d1c_fixed_0_split <- d1c
I0225 09:58:46.643043   573 net.cpp:455] d1c_d1c_fixed_0_split -> d1c_d1c_fixed_0_split_0
I0225 09:58:46.643049   573 net.cpp:455] d1c_d1c_fixed_0_split -> d1c_d1c_fixed_0_split_1
I0225 09:58:46.643077   573 net.cpp:190] Setting up d1c_d1c_fixed_0_split
I0225 09:58:46.643083   573 net.cpp:197] Top shape: 1 64 128 256 (2097152)
I0225 09:58:46.643088   573 net.cpp:197] Top shape: 1 64 128 256 (2097152)
I0225 09:58:46.643092   573 net.cpp:205] Memory required for data: 221249540
I0225 09:58:46.643095   573 layer_factory.hpp:123] Creating layer BatchNorm_d1c
I0225 09:58:46.643101   573 net.cpp:140] Creating Layer BatchNorm_d1c
I0225 09:58:46.643105   573 net.cpp:481] BatchNorm_d1c <- d1c_d1c_fixed_0_split_0
I0225 09:58:46.643110   573 net.cpp:455] BatchNorm_d1c -> BatchNorm_d1c
I0225 09:58:46.643143   573 layer_factory.hpp:123] Creating layer BatchNorm_d1c
I0225 09:58:46.643223   573 layer_factory.hpp:123] Creating layer BatchNorm_d1c
I0225 09:58:46.643263   573 layer_factory.hpp:123] Creating layer BatchNorm_d1c
I0225 09:58:46.644124   573 net.cpp:190] Setting up BatchNorm_d1c
I0225 09:58:46.644134   573 net.cpp:197] Top shape: 1 64 128 256 (2097152)
I0225 09:58:46.644140   573 net.cpp:205] Memory required for data: 229638148
I0225 09:58:46.644148   573 layer_factory.hpp:123] Creating layer relu_d1c
I0225 09:58:46.644155   573 net.cpp:140] Creating Layer relu_d1c
I0225 09:58:46.644158   573 net.cpp:481] relu_d1c <- BatchNorm_d1c
I0225 09:58:46.644163   573 net.cpp:455] relu_d1c -> relu_d1c
I0225 09:58:46.644188   573 net.cpp:190] Setting up relu_d1c
I0225 09:58:46.644192   573 net.cpp:197] Top shape: 1 64 128 256 (2097152)
I0225 09:58:46.644197   573 net.cpp:205] Memory required for data: 238026756
I0225 09:58:46.644201   573 layer_factory.hpp:123] Creating layer pool_d1c-2a
I0225 09:58:46.644207   573 net.cpp:140] Creating Layer pool_d1c-2a
I0225 09:58:46.644209   573 net.cpp:481] pool_d1c-2a <- relu_d1c
I0225 09:58:46.644214   573 net.cpp:455] pool_d1c-2a -> d2a
I0225 09:58:46.644244   573 net.cpp:190] Setting up pool_d1c-2a
I0225 09:58:46.644249   573 net.cpp:197] Top shape: 1 64 64 128 (524288)
I0225 09:58:46.644254   573 net.cpp:205] Memory required for data: 240123908
I0225 09:58:46.644270   573 layer_factory.hpp:123] Creating layer d2a_fixed
I0225 09:58:46.644275   573 net.cpp:140] Creating Layer d2a_fixed
I0225 09:58:46.644279   573 net.cpp:481] d2a_fixed <- d2a
I0225 09:58:46.644284   573 net.cpp:442] d2a_fixed -> d2a (in-place)
I0225 09:58:46.644310   573 net.cpp:190] Setting up d2a_fixed
I0225 09:58:46.644316   573 net.cpp:197] Top shape: 1 64 64 128 (524288)
I0225 09:58:46.644320   573 net.cpp:205] Memory required for data: 242221060
I0225 09:58:46.644325   573 layer_factory.hpp:123] Creating layer conv_d2a-b
I0225 09:58:46.644332   573 net.cpp:140] Creating Layer conv_d2a-b
I0225 09:58:46.644335   573 net.cpp:481] conv_d2a-b <- d2a
I0225 09:58:46.644340   573 net.cpp:455] conv_d2a-b -> d2b
I0225 09:58:46.645195   573 layer_factory.hpp:123] Creating layer conv_d2a-b
I0225 09:58:46.646158   573 net.cpp:190] Setting up conv_d2a-b
I0225 09:58:46.646167   573 net.cpp:197] Top shape: 1 128 64 128 (1048576)
I0225 09:58:46.646173   573 net.cpp:205] Memory required for data: 246415364
I0225 09:58:46.646179   573 layer_factory.hpp:123] Creating layer relu_d2b
I0225 09:58:46.646184   573 net.cpp:140] Creating Layer relu_d2b
I0225 09:58:46.646188   573 net.cpp:481] relu_d2b <- d2b
I0225 09:58:46.646193   573 net.cpp:455] relu_d2b -> relu_d2b
I0225 09:58:46.646215   573 net.cpp:190] Setting up relu_d2b
I0225 09:58:46.646219   573 net.cpp:197] Top shape: 1 128 64 128 (1048576)
I0225 09:58:46.646224   573 net.cpp:205] Memory required for data: 250609668
I0225 09:58:46.646229   573 layer_factory.hpp:123] Creating layer relu_d2b_fixed
I0225 09:58:46.646234   573 net.cpp:140] Creating Layer relu_d2b_fixed
I0225 09:58:46.646236   573 net.cpp:481] relu_d2b_fixed <- relu_d2b
I0225 09:58:46.646241   573 net.cpp:442] relu_d2b_fixed -> relu_d2b (in-place)
I0225 09:58:46.646270   573 net.cpp:190] Setting up relu_d2b_fixed
I0225 09:58:46.646275   573 net.cpp:197] Top shape: 1 128 64 128 (1048576)
I0225 09:58:46.646279   573 net.cpp:205] Memory required for data: 254803972
I0225 09:58:46.646283   573 layer_factory.hpp:123] Creating layer conv_d2b-c
I0225 09:58:46.646291   573 net.cpp:140] Creating Layer conv_d2b-c
I0225 09:58:46.646294   573 net.cpp:481] conv_d2b-c <- relu_d2b
I0225 09:58:46.646299   573 net.cpp:455] conv_d2b-c -> d2c
I0225 09:58:46.648486   573 layer_factory.hpp:123] Creating layer conv_d2b-c
I0225 09:58:46.650135   573 net.cpp:190] Setting up conv_d2b-c
I0225 09:58:46.650144   573 net.cpp:197] Top shape: 1 128 64 128 (1048576)
I0225 09:58:46.650151   573 net.cpp:205] Memory required for data: 258998276
I0225 09:58:46.650157   573 layer_factory.hpp:123] Creating layer d2c_fixed
I0225 09:58:46.650163   573 net.cpp:140] Creating Layer d2c_fixed
I0225 09:58:46.650167   573 net.cpp:481] d2c_fixed <- d2c
I0225 09:58:46.650172   573 net.cpp:442] d2c_fixed -> d2c (in-place)
I0225 09:58:46.650207   573 net.cpp:190] Setting up d2c_fixed
I0225 09:58:46.650210   573 net.cpp:197] Top shape: 1 128 64 128 (1048576)
I0225 09:58:46.650214   573 net.cpp:205] Memory required for data: 263192580
I0225 09:58:46.650219   573 layer_factory.hpp:123] Creating layer d2c_d2c_fixed_0_split
I0225 09:58:46.650224   573 net.cpp:140] Creating Layer d2c_d2c_fixed_0_split
I0225 09:58:46.650228   573 net.cpp:481] d2c_d2c_fixed_0_split <- d2c
I0225 09:58:46.650233   573 net.cpp:455] d2c_d2c_fixed_0_split -> d2c_d2c_fixed_0_split_0
I0225 09:58:46.650238   573 net.cpp:455] d2c_d2c_fixed_0_split -> d2c_d2c_fixed_0_split_1
I0225 09:58:46.650269   573 net.cpp:190] Setting up d2c_d2c_fixed_0_split
I0225 09:58:46.650274   573 net.cpp:197] Top shape: 1 128 64 128 (1048576)
I0225 09:58:46.650279   573 net.cpp:197] Top shape: 1 128 64 128 (1048576)
I0225 09:58:46.650282   573 net.cpp:205] Memory required for data: 271581188
I0225 09:58:46.650286   573 layer_factory.hpp:123] Creating layer BatchNorm_d2c
I0225 09:58:46.650292   573 net.cpp:140] Creating Layer BatchNorm_d2c
I0225 09:58:46.650295   573 net.cpp:481] BatchNorm_d2c <- d2c_d2c_fixed_0_split_0
I0225 09:58:46.650300   573 net.cpp:455] BatchNorm_d2c -> BatchNorm_d2c
I0225 09:58:46.650333   573 layer_factory.hpp:123] Creating layer BatchNorm_d2c
I0225 09:58:46.650388   573 layer_factory.hpp:123] Creating layer BatchNorm_d2c
I0225 09:58:46.650444   573 layer_factory.hpp:123] Creating layer BatchNorm_d2c
I0225 09:58:46.650583   573 net.cpp:190] Setting up BatchNorm_d2c
I0225 09:58:46.650590   573 net.cpp:197] Top shape: 1 128 64 128 (1048576)
I0225 09:58:46.650596   573 net.cpp:205] Memory required for data: 275775492
I0225 09:58:46.650602   573 layer_factory.hpp:123] Creating layer relu_d2c
I0225 09:58:46.650607   573 net.cpp:140] Creating Layer relu_d2c
I0225 09:58:46.650611   573 net.cpp:481] relu_d2c <- BatchNorm_d2c
I0225 09:58:46.650616   573 net.cpp:455] relu_d2c -> relu_d2c
I0225 09:58:46.650636   573 net.cpp:190] Setting up relu_d2c
I0225 09:58:46.650642   573 net.cpp:197] Top shape: 1 128 64 128 (1048576)
I0225 09:58:46.650647   573 net.cpp:205] Memory required for data: 279969796
I0225 09:58:46.650650   573 layer_factory.hpp:123] Creating layer pool_d2c-3a
I0225 09:58:46.650656   573 net.cpp:140] Creating Layer pool_d2c-3a
I0225 09:58:46.650660   573 net.cpp:481] pool_d2c-3a <- relu_d2c
I0225 09:58:46.650665   573 net.cpp:455] pool_d2c-3a -> d3a
I0225 09:58:46.650698   573 net.cpp:190] Setting up pool_d2c-3a
I0225 09:58:46.650707   573 net.cpp:197] Top shape: 1 128 32 64 (262144)
I0225 09:58:46.650717   573 net.cpp:205] Memory required for data: 281018372
I0225 09:58:46.650722   573 layer_factory.hpp:123] Creating layer d3a_fixed
I0225 09:58:46.650727   573 net.cpp:140] Creating Layer d3a_fixed
I0225 09:58:46.650730   573 net.cpp:481] d3a_fixed <- d3a
I0225 09:58:46.650738   573 net.cpp:442] d3a_fixed -> d3a (in-place)
I0225 09:58:46.650775   573 net.cpp:190] Setting up d3a_fixed
I0225 09:58:46.650781   573 net.cpp:197] Top shape: 1 128 32 64 (262144)
I0225 09:58:46.650786   573 net.cpp:205] Memory required for data: 282066948
I0225 09:58:46.650792   573 layer_factory.hpp:123] Creating layer conv_d3a-b
I0225 09:58:46.650800   573 net.cpp:140] Creating Layer conv_d3a-b
I0225 09:58:46.650804   573 net.cpp:481] conv_d3a-b <- d3a
I0225 09:58:46.650813   573 net.cpp:455] conv_d3a-b -> d3b
I0225 09:58:46.655019   573 layer_factory.hpp:123] Creating layer conv_d3a-b
I0225 09:58:46.660341   573 net.cpp:190] Setting up conv_d3a-b
I0225 09:58:46.660352   573 net.cpp:197] Top shape: 1 256 32 64 (524288)
I0225 09:58:46.660359   573 net.cpp:205] Memory required for data: 284164100
I0225 09:58:46.660367   573 layer_factory.hpp:123] Creating layer relu_d3b
I0225 09:58:46.660372   573 net.cpp:140] Creating Layer relu_d3b
I0225 09:58:46.660377   573 net.cpp:481] relu_d3b <- d3b
I0225 09:58:46.660382   573 net.cpp:455] relu_d3b -> relu_d3b
I0225 09:58:46.660399   573 net.cpp:190] Setting up relu_d3b
I0225 09:58:46.660405   573 net.cpp:197] Top shape: 1 256 32 64 (524288)
I0225 09:58:46.660410   573 net.cpp:205] Memory required for data: 286261252
I0225 09:58:46.660414   573 layer_factory.hpp:123] Creating layer relu_d3b_fixed
I0225 09:58:46.660419   573 net.cpp:140] Creating Layer relu_d3b_fixed
I0225 09:58:46.660423   573 net.cpp:481] relu_d3b_fixed <- relu_d3b
I0225 09:58:46.660428   573 net.cpp:442] relu_d3b_fixed -> relu_d3b (in-place)
I0225 09:58:46.660457   573 net.cpp:190] Setting up relu_d3b_fixed
I0225 09:58:46.660462   573 net.cpp:197] Top shape: 1 256 32 64 (524288)
I0225 09:58:46.660467   573 net.cpp:205] Memory required for data: 288358404
I0225 09:58:46.660472   573 layer_factory.hpp:123] Creating layer conv_d3b-c
I0225 09:58:46.660480   573 net.cpp:140] Creating Layer conv_d3b-c
I0225 09:58:46.660482   573 net.cpp:481] conv_d3b-c <- relu_d3b
I0225 09:58:46.660487   573 net.cpp:455] conv_d3b-c -> d3c
I0225 09:58:46.667095   573 layer_factory.hpp:123] Creating layer conv_d3b-c
I0225 09:58:46.673787   573 net.cpp:190] Setting up conv_d3b-c
I0225 09:58:46.673799   573 net.cpp:197] Top shape: 1 256 32 64 (524288)
I0225 09:58:46.673805   573 net.cpp:205] Memory required for data: 290455556
I0225 09:58:46.673815   573 layer_factory.hpp:123] Creating layer d3c_fixed
I0225 09:58:46.673820   573 net.cpp:140] Creating Layer d3c_fixed
I0225 09:58:46.673825   573 net.cpp:481] d3c_fixed <- d3c
I0225 09:58:46.673830   573 net.cpp:442] d3c_fixed -> d3c (in-place)
I0225 09:58:46.673856   573 net.cpp:190] Setting up d3c_fixed
I0225 09:58:46.673859   573 net.cpp:197] Top shape: 1 256 32 64 (524288)
I0225 09:58:46.673863   573 net.cpp:205] Memory required for data: 292552708
I0225 09:58:46.673868   573 layer_factory.hpp:123] Creating layer d3c_d3c_fixed_0_split
I0225 09:58:46.673873   573 net.cpp:140] Creating Layer d3c_d3c_fixed_0_split
I0225 09:58:46.673877   573 net.cpp:481] d3c_d3c_fixed_0_split <- d3c
I0225 09:58:46.673882   573 net.cpp:455] d3c_d3c_fixed_0_split -> d3c_d3c_fixed_0_split_0
I0225 09:58:46.673887   573 net.cpp:455] d3c_d3c_fixed_0_split -> d3c_d3c_fixed_0_split_1
I0225 09:58:46.673915   573 net.cpp:190] Setting up d3c_d3c_fixed_0_split
I0225 09:58:46.673921   573 net.cpp:197] Top shape: 1 256 32 64 (524288)
I0225 09:58:46.673926   573 net.cpp:197] Top shape: 1 256 32 64 (524288)
I0225 09:58:46.673930   573 net.cpp:205] Memory required for data: 296747012
I0225 09:58:46.673933   573 layer_factory.hpp:123] Creating layer BatchNorm_1
I0225 09:58:46.673939   573 net.cpp:140] Creating Layer BatchNorm_1
I0225 09:58:46.673943   573 net.cpp:481] BatchNorm_1 <- d3c_d3c_fixed_0_split_0
I0225 09:58:46.673947   573 net.cpp:455] BatchNorm_1 -> BatchNorm_1
I0225 09:58:46.673979   573 layer_factory.hpp:123] Creating layer BatchNorm_1
I0225 09:58:46.674033   573 layer_factory.hpp:123] Creating layer BatchNorm_1
I0225 09:58:46.674062   573 layer_factory.hpp:123] Creating layer BatchNorm_1
I0225 09:58:46.674154   573 net.cpp:190] Setting up BatchNorm_1
I0225 09:58:46.674158   573 net.cpp:197] Top shape: 1 256 32 64 (524288)
I0225 09:58:46.674163   573 net.cpp:205] Memory required for data: 298844164
I0225 09:58:46.674170   573 layer_factory.hpp:123] Creating layer relu_d3c
I0225 09:58:46.674175   573 net.cpp:140] Creating Layer relu_d3c
I0225 09:58:46.674181   573 net.cpp:481] relu_d3c <- BatchNorm_1
I0225 09:58:46.674188   573 net.cpp:455] relu_d3c -> relu_d3c
I0225 09:58:46.674214   573 net.cpp:190] Setting up relu_d3c
I0225 09:58:46.674221   573 net.cpp:197] Top shape: 1 256 32 64 (524288)
I0225 09:58:46.674226   573 net.cpp:205] Memory required for data: 300941316
I0225 09:58:46.674229   573 layer_factory.hpp:123] Creating layer pool_d3c-4a
I0225 09:58:46.674234   573 net.cpp:140] Creating Layer pool_d3c-4a
I0225 09:58:46.674237   573 net.cpp:481] pool_d3c-4a <- relu_d3c
I0225 09:58:46.674242   573 net.cpp:455] pool_d3c-4a -> d4a
I0225 09:58:46.674280   573 net.cpp:190] Setting up pool_d3c-4a
I0225 09:58:46.674288   573 net.cpp:197] Top shape: 1 256 16 32 (131072)
I0225 09:58:46.674294   573 net.cpp:205] Memory required for data: 301465604
I0225 09:58:46.674297   573 layer_factory.hpp:123] Creating layer d4a_fixed
I0225 09:58:46.674304   573 net.cpp:140] Creating Layer d4a_fixed
I0225 09:58:46.674309   573 net.cpp:481] d4a_fixed <- d4a
I0225 09:58:46.674317   573 net.cpp:442] d4a_fixed -> d4a (in-place)
I0225 09:58:46.674357   573 net.cpp:190] Setting up d4a_fixed
I0225 09:58:46.674363   573 net.cpp:197] Top shape: 1 256 16 32 (131072)
I0225 09:58:46.674368   573 net.cpp:205] Memory required for data: 301989892
I0225 09:58:46.674373   573 layer_factory.hpp:123] Creating layer conv_d4a-b
I0225 09:58:46.674381   573 net.cpp:140] Creating Layer conv_d4a-b
I0225 09:58:46.674386   573 net.cpp:481] conv_d4a-b <- d4a
I0225 09:58:46.674394   573 net.cpp:455] conv_d4a-b -> BatchNorm_2
I0225 09:58:46.687147   573 layer_factory.hpp:123] Creating layer conv_d4a-b
I0225 09:58:46.700816   573 net.cpp:190] Setting up conv_d4a-b
I0225 09:58:46.700829   573 net.cpp:197] Top shape: 1 512 16 32 (262144)
I0225 09:58:46.700836   573 net.cpp:205] Memory required for data: 303038468
I0225 09:58:46.700843   573 layer_factory.hpp:123] Creating layer relu_d4b
I0225 09:58:46.700850   573 net.cpp:140] Creating Layer relu_d4b
I0225 09:58:46.700853   573 net.cpp:481] relu_d4b <- BatchNorm_2
I0225 09:58:46.700860   573 net.cpp:455] relu_d4b -> relu_d4b
I0225 09:58:46.700882   573 net.cpp:190] Setting up relu_d4b
I0225 09:58:46.700891   573 net.cpp:197] Top shape: 1 512 16 32 (262144)
I0225 09:58:46.700896   573 net.cpp:205] Memory required for data: 304087044
I0225 09:58:46.700899   573 layer_factory.hpp:123] Creating layer relu_d4b_fixed
I0225 09:58:46.700904   573 net.cpp:140] Creating Layer relu_d4b_fixed
I0225 09:58:46.700907   573 net.cpp:481] relu_d4b_fixed <- relu_d4b
I0225 09:58:46.700912   573 net.cpp:442] relu_d4b_fixed -> relu_d4b (in-place)
I0225 09:58:46.700940   573 net.cpp:190] Setting up relu_d4b_fixed
I0225 09:58:46.700947   573 net.cpp:197] Top shape: 1 512 16 32 (262144)
I0225 09:58:46.700950   573 net.cpp:205] Memory required for data: 305135620
I0225 09:58:46.700954   573 layer_factory.hpp:123] Creating layer conv_d4b-c
I0225 09:58:46.700961   573 net.cpp:140] Creating Layer conv_d4b-c
I0225 09:58:46.700965   573 net.cpp:481] conv_d4b-c <- relu_d4b
I0225 09:58:46.700970   573 net.cpp:455] conv_d4b-c -> d4c
I0225 09:58:46.726150   573 layer_factory.hpp:123] Creating layer conv_d4b-c
I0225 09:58:46.750345   573 net.cpp:190] Setting up conv_d4b-c
I0225 09:58:46.750361   573 net.cpp:197] Top shape: 1 512 16 32 (262144)
I0225 09:58:46.750386   573 net.cpp:205] Memory required for data: 306184196
I0225 09:58:46.750397   573 layer_factory.hpp:123] Creating layer relu_d4c
I0225 09:58:46.750403   573 net.cpp:140] Creating Layer relu_d4c
I0225 09:58:46.750409   573 net.cpp:481] relu_d4c <- d4c
I0225 09:58:46.750416   573 net.cpp:455] relu_d4c -> relu_d4c
I0225 09:58:46.750452   573 net.cpp:190] Setting up relu_d4c
I0225 09:58:46.750456   573 net.cpp:197] Top shape: 1 512 16 32 (262144)
I0225 09:58:46.750460   573 net.cpp:205] Memory required for data: 307232772
I0225 09:58:46.750463   573 layer_factory.hpp:123] Creating layer relu_d4c_fixed
I0225 09:58:46.750469   573 net.cpp:140] Creating Layer relu_d4c_fixed
I0225 09:58:46.750473   573 net.cpp:481] relu_d4c_fixed <- relu_d4c
I0225 09:58:46.750478   573 net.cpp:442] relu_d4c_fixed -> relu_d4c (in-place)
I0225 09:58:46.750506   573 net.cpp:190] Setting up relu_d4c_fixed
I0225 09:58:46.750511   573 net.cpp:197] Top shape: 1 512 16 32 (262144)
I0225 09:58:46.750516   573 net.cpp:205] Memory required for data: 308281348
I0225 09:58:46.750520   573 layer_factory.hpp:123] Creating layer upconv_d4c_u3a
I0225 09:58:46.750528   573 net.cpp:140] Creating Layer upconv_d4c_u3a
I0225 09:58:46.750531   573 net.cpp:481] upconv_d4c_u3a <- relu_d4c
I0225 09:58:46.750536   573 net.cpp:455] upconv_d4c_u3a -> u3a
I0225 09:58:46.756430   573 layer_factory.hpp:123] Creating layer upconv_d4c_u3a
I0225 09:58:46.762830   573 net.cpp:190] Setting up upconv_d4c_u3a
I0225 09:58:46.762842   573 net.cpp:197] Top shape: 1 256 32 64 (524288)
I0225 09:58:46.762863   573 net.cpp:205] Memory required for data: 310378500
I0225 09:58:46.762871   573 layer_factory.hpp:123] Creating layer relu_u3a
I0225 09:58:46.762876   573 net.cpp:140] Creating Layer relu_u3a
I0225 09:58:46.762881   573 net.cpp:481] relu_u3a <- u3a
I0225 09:58:46.762884   573 net.cpp:442] relu_u3a -> u3a (in-place)
I0225 09:58:46.762892   573 net.cpp:190] Setting up relu_u3a
I0225 09:58:46.762895   573 net.cpp:197] Top shape: 1 256 32 64 (524288)
I0225 09:58:46.762899   573 net.cpp:205] Memory required for data: 312475652
I0225 09:58:46.762902   573 layer_factory.hpp:123] Creating layer concat_d3cc_u3a-b
I0225 09:58:46.762907   573 net.cpp:140] Creating Layer concat_d3cc_u3a-b
I0225 09:58:46.762910   573 net.cpp:481] concat_d3cc_u3a-b <- u3a
I0225 09:58:46.762914   573 net.cpp:481] concat_d3cc_u3a-b <- d3c_d3c_fixed_0_split_1
I0225 09:58:46.762919   573 net.cpp:455] concat_d3cc_u3a-b -> u3b
I0225 09:58:46.762936   573 net.cpp:190] Setting up concat_d3cc_u3a-b
I0225 09:58:46.762940   573 net.cpp:197] Top shape: 1 512 32 64 (1048576)
I0225 09:58:46.762944   573 net.cpp:205] Memory required for data: 316669956
I0225 09:58:46.762948   573 layer_factory.hpp:123] Creating layer u3b_fixed
I0225 09:58:46.762953   573 net.cpp:140] Creating Layer u3b_fixed
I0225 09:58:46.762956   573 net.cpp:481] u3b_fixed <- u3b
I0225 09:58:46.762960   573 net.cpp:442] u3b_fixed -> u3b (in-place)
I0225 09:58:46.762987   573 net.cpp:190] Setting up u3b_fixed
I0225 09:58:46.762993   573 net.cpp:197] Top shape: 1 512 32 64 (1048576)
I0225 09:58:46.763000   573 net.cpp:205] Memory required for data: 320864260
I0225 09:58:46.763003   573 layer_factory.hpp:123] Creating layer conv_u3b-c
I0225 09:58:46.763010   573 net.cpp:140] Creating Layer conv_u3b-c
I0225 09:58:46.763013   573 net.cpp:481] conv_u3b-c <- u3b
I0225 09:58:46.763018   573 net.cpp:455] conv_u3b-c -> u3c
I0225 09:58:46.775797   573 layer_factory.hpp:123] Creating layer conv_u3b-c
I0225 09:58:46.788766   573 net.cpp:190] Setting up conv_u3b-c
I0225 09:58:46.788779   573 net.cpp:197] Top shape: 1 256 32 64 (524288)
I0225 09:58:46.788787   573 net.cpp:205] Memory required for data: 322961412
I0225 09:58:46.788795   573 layer_factory.hpp:123] Creating layer relu_u3c
I0225 09:58:46.788801   573 net.cpp:140] Creating Layer relu_u3c
I0225 09:58:46.788807   573 net.cpp:481] relu_u3c <- u3c
I0225 09:58:46.788812   573 net.cpp:442] relu_u3c -> u3c (in-place)
I0225 09:58:46.788820   573 net.cpp:190] Setting up relu_u3c
I0225 09:58:46.788822   573 net.cpp:197] Top shape: 1 256 32 64 (524288)
I0225 09:58:46.788826   573 net.cpp:205] Memory required for data: 325058564
I0225 09:58:46.788830   573 layer_factory.hpp:123] Creating layer u3c_fixed
I0225 09:58:46.788836   573 net.cpp:140] Creating Layer u3c_fixed
I0225 09:58:46.788838   573 net.cpp:481] u3c_fixed <- u3c
I0225 09:58:46.788842   573 net.cpp:442] u3c_fixed -> u3c (in-place)
I0225 09:58:46.788872   573 net.cpp:190] Setting up u3c_fixed
I0225 09:58:46.788877   573 net.cpp:197] Top shape: 1 256 32 64 (524288)
I0225 09:58:46.788882   573 net.cpp:205] Memory required for data: 327155716
I0225 09:58:46.788887   573 layer_factory.hpp:123] Creating layer conv_u3c-d
I0225 09:58:46.788893   573 net.cpp:140] Creating Layer conv_u3c-d
I0225 09:58:46.788897   573 net.cpp:481] conv_u3c-d <- u3c
I0225 09:58:46.788902   573 net.cpp:455] conv_u3c-d -> u3d
I0225 09:58:46.795907   573 layer_factory.hpp:123] Creating layer conv_u3c-d
I0225 09:58:46.802500   573 net.cpp:190] Setting up conv_u3c-d
I0225 09:58:46.802511   573 net.cpp:197] Top shape: 1 256 32 64 (524288)
I0225 09:58:46.802518   573 net.cpp:205] Memory required for data: 329252868
I0225 09:58:46.802525   573 layer_factory.hpp:123] Creating layer relu_u3d
I0225 09:58:46.802531   573 net.cpp:140] Creating Layer relu_u3d
I0225 09:58:46.802536   573 net.cpp:481] relu_u3d <- u3d
I0225 09:58:46.802556   573 net.cpp:442] relu_u3d -> u3d (in-place)
I0225 09:58:46.802562   573 net.cpp:190] Setting up relu_u3d
I0225 09:58:46.802565   573 net.cpp:197] Top shape: 1 256 32 64 (524288)
I0225 09:58:46.802569   573 net.cpp:205] Memory required for data: 331350020
I0225 09:58:46.802572   573 layer_factory.hpp:123] Creating layer u3d_fixed
I0225 09:58:46.802579   573 net.cpp:140] Creating Layer u3d_fixed
I0225 09:58:46.802582   573 net.cpp:481] u3d_fixed <- u3d
I0225 09:58:46.802587   573 net.cpp:442] u3d_fixed -> u3d (in-place)
I0225 09:58:46.802611   573 net.cpp:190] Setting up u3d_fixed
I0225 09:58:46.802615   573 net.cpp:197] Top shape: 1 256 32 64 (524288)
I0225 09:58:46.802619   573 net.cpp:205] Memory required for data: 333447172
I0225 09:58:46.802624   573 layer_factory.hpp:123] Creating layer upconv_u3d_u2a
I0225 09:58:46.802630   573 net.cpp:140] Creating Layer upconv_u3d_u2a
I0225 09:58:46.802634   573 net.cpp:481] upconv_u3d_u2a <- u3d
I0225 09:58:46.802639   573 net.cpp:455] upconv_u3d_u2a -> u2a
I0225 09:58:46.803954   573 layer_factory.hpp:123] Creating layer upconv_u3d_u2a
I0225 09:58:46.805452   573 net.cpp:190] Setting up upconv_u3d_u2a
I0225 09:58:46.805461   573 net.cpp:197] Top shape: 1 128 64 128 (1048576)
I0225 09:58:46.805481   573 net.cpp:205] Memory required for data: 337641476
I0225 09:58:46.805486   573 layer_factory.hpp:123] Creating layer relu_u2a
I0225 09:58:46.805491   573 net.cpp:140] Creating Layer relu_u2a
I0225 09:58:46.805495   573 net.cpp:481] relu_u2a <- u2a
I0225 09:58:46.805500   573 net.cpp:442] relu_u2a -> u2a (in-place)
I0225 09:58:46.805505   573 net.cpp:190] Setting up relu_u2a
I0225 09:58:46.805507   573 net.cpp:197] Top shape: 1 128 64 128 (1048576)
I0225 09:58:46.805511   573 net.cpp:205] Memory required for data: 341835780
I0225 09:58:46.805514   573 layer_factory.hpp:123] Creating layer concat_d2cc_u2a-b
I0225 09:58:46.805536   573 net.cpp:140] Creating Layer concat_d2cc_u2a-b
I0225 09:58:46.805538   573 net.cpp:481] concat_d2cc_u2a-b <- u2a
I0225 09:58:46.805542   573 net.cpp:481] concat_d2cc_u2a-b <- d2c_d2c_fixed_0_split_1
I0225 09:58:46.805546   573 net.cpp:455] concat_d2cc_u2a-b -> u2b
I0225 09:58:46.805562   573 net.cpp:190] Setting up concat_d2cc_u2a-b
I0225 09:58:46.805567   573 net.cpp:197] Top shape: 1 256 64 128 (2097152)
I0225 09:58:46.805570   573 net.cpp:205] Memory required for data: 350224388
I0225 09:58:46.805573   573 layer_factory.hpp:123] Creating layer u2b_fixed
I0225 09:58:46.805578   573 net.cpp:140] Creating Layer u2b_fixed
I0225 09:58:46.805583   573 net.cpp:481] u2b_fixed <- u2b
I0225 09:58:46.805586   573 net.cpp:442] u2b_fixed -> u2b (in-place)
I0225 09:58:46.805613   573 net.cpp:190] Setting up u2b_fixed
I0225 09:58:46.805619   573 net.cpp:197] Top shape: 1 256 64 128 (2097152)
I0225 09:58:46.805624   573 net.cpp:205] Memory required for data: 358612996
I0225 09:58:46.805627   573 layer_factory.hpp:123] Creating layer conv_u2b-c
I0225 09:58:46.805634   573 net.cpp:140] Creating Layer conv_u2b-c
I0225 09:58:46.805637   573 net.cpp:481] conv_u2b-c <- u2b
I0225 09:58:46.805642   573 net.cpp:455] conv_u2b-c -> u2c
I0225 09:58:46.809584   573 layer_factory.hpp:123] Creating layer conv_u2b-c
I0225 09:58:46.813534   573 net.cpp:190] Setting up conv_u2b-c
I0225 09:58:46.813544   573 net.cpp:197] Top shape: 1 128 64 128 (1048576)
I0225 09:58:46.813565   573 net.cpp:205] Memory required for data: 362807300
I0225 09:58:46.813571   573 layer_factory.hpp:123] Creating layer relu_u2c
I0225 09:58:46.813576   573 net.cpp:140] Creating Layer relu_u2c
I0225 09:58:46.813580   573 net.cpp:481] relu_u2c <- u2c
I0225 09:58:46.813585   573 net.cpp:442] relu_u2c -> u2c (in-place)
I0225 09:58:46.813592   573 net.cpp:190] Setting up relu_u2c
I0225 09:58:46.813594   573 net.cpp:197] Top shape: 1 128 64 128 (1048576)
I0225 09:58:46.813613   573 net.cpp:205] Memory required for data: 367001604
I0225 09:58:46.813616   573 layer_factory.hpp:123] Creating layer u2c_fixed
I0225 09:58:46.813640   573 net.cpp:140] Creating Layer u2c_fixed
I0225 09:58:46.813643   573 net.cpp:481] u2c_fixed <- u2c
I0225 09:58:46.813648   573 net.cpp:442] u2c_fixed -> u2c (in-place)
I0225 09:58:46.813674   573 net.cpp:190] Setting up u2c_fixed
I0225 09:58:46.813678   573 net.cpp:197] Top shape: 1 128 64 128 (1048576)
I0225 09:58:46.813683   573 net.cpp:205] Memory required for data: 371195908
I0225 09:58:46.813688   573 layer_factory.hpp:123] Creating layer conv_u2c-d
I0225 09:58:46.813694   573 net.cpp:140] Creating Layer conv_u2c-d
I0225 09:58:46.813697   573 net.cpp:481] conv_u2c-d <- u2c
I0225 09:58:46.813702   573 net.cpp:455] conv_u2c-d -> u2d
I0225 09:58:46.815111   573 layer_factory.hpp:123] Creating layer conv_u2c-d
I0225 09:58:46.816614   573 net.cpp:190] Setting up conv_u2c-d
I0225 09:58:46.816623   573 net.cpp:197] Top shape: 1 128 64 128 (1048576)
I0225 09:58:46.816642   573 net.cpp:205] Memory required for data: 375390212
I0225 09:58:46.816648   573 layer_factory.hpp:123] Creating layer relu_u2d
I0225 09:58:46.816653   573 net.cpp:140] Creating Layer relu_u2d
I0225 09:58:46.816656   573 net.cpp:481] relu_u2d <- u2d
I0225 09:58:46.816661   573 net.cpp:442] relu_u2d -> u2d (in-place)
I0225 09:58:46.816666   573 net.cpp:190] Setting up relu_u2d
I0225 09:58:46.816669   573 net.cpp:197] Top shape: 1 128 64 128 (1048576)
I0225 09:58:46.816673   573 net.cpp:205] Memory required for data: 379584516
I0225 09:58:46.816676   573 layer_factory.hpp:123] Creating layer u2d_fixed
I0225 09:58:46.816695   573 net.cpp:140] Creating Layer u2d_fixed
I0225 09:58:46.816706   573 net.cpp:481] u2d_fixed <- u2d
I0225 09:58:46.816711   573 net.cpp:442] u2d_fixed -> u2d (in-place)
I0225 09:58:46.816736   573 net.cpp:190] Setting up u2d_fixed
I0225 09:58:46.816740   573 net.cpp:197] Top shape: 1 128 64 128 (1048576)
I0225 09:58:46.816745   573 net.cpp:205] Memory required for data: 383778820
I0225 09:58:46.816749   573 layer_factory.hpp:123] Creating layer upconv_u2d_u1a
I0225 09:58:46.816756   573 net.cpp:140] Creating Layer upconv_u2d_u1a
I0225 09:58:46.816759   573 net.cpp:481] upconv_u2d_u1a <- u2d
I0225 09:58:46.816763   573 net.cpp:455] upconv_u2d_u1a -> u1a
I0225 09:58:46.817210   573 layer_factory.hpp:123] Creating layer upconv_u2d_u1a
I0225 09:58:46.817804   573 net.cpp:190] Setting up upconv_u2d_u1a
I0225 09:58:46.817812   573 net.cpp:197] Top shape: 1 64 128 256 (2097152)
I0225 09:58:46.817832   573 net.cpp:205] Memory required for data: 392167428
I0225 09:58:46.817837   573 layer_factory.hpp:123] Creating layer relu_u1a
I0225 09:58:46.817857   573 net.cpp:140] Creating Layer relu_u1a
I0225 09:58:46.817860   573 net.cpp:481] relu_u1a <- u1a
I0225 09:58:46.817864   573 net.cpp:442] relu_u1a -> u1a (in-place)
I0225 09:58:46.817870   573 net.cpp:190] Setting up relu_u1a
I0225 09:58:46.817873   573 net.cpp:197] Top shape: 1 64 128 256 (2097152)
I0225 09:58:46.817876   573 net.cpp:205] Memory required for data: 400556036
I0225 09:58:46.817879   573 layer_factory.hpp:123] Creating layer concat_d1cc_u1a-b
I0225 09:58:46.817900   573 net.cpp:140] Creating Layer concat_d1cc_u1a-b
I0225 09:58:46.817903   573 net.cpp:481] concat_d1cc_u1a-b <- u1a
I0225 09:58:46.817907   573 net.cpp:481] concat_d1cc_u1a-b <- d1c_d1c_fixed_0_split_1
I0225 09:58:46.817911   573 net.cpp:455] concat_d1cc_u1a-b -> u1b
I0225 09:58:46.817934   573 net.cpp:190] Setting up concat_d1cc_u1a-b
I0225 09:58:46.817941   573 net.cpp:197] Top shape: 1 128 128 256 (4194304)
I0225 09:58:46.817946   573 net.cpp:205] Memory required for data: 417333252
I0225 09:58:46.817950   573 layer_factory.hpp:123] Creating layer u1b_fixed
I0225 09:58:46.817955   573 net.cpp:140] Creating Layer u1b_fixed
I0225 09:58:46.817957   573 net.cpp:481] u1b_fixed <- u1b
I0225 09:58:46.817962   573 net.cpp:442] u1b_fixed -> u1b (in-place)
I0225 09:58:46.817989   573 net.cpp:190] Setting up u1b_fixed
I0225 09:58:46.817994   573 net.cpp:197] Top shape: 1 128 128 256 (4194304)
I0225 09:58:46.817999   573 net.cpp:205] Memory required for data: 434110468
I0225 09:58:46.818003   573 layer_factory.hpp:123] Creating layer conv_u1b-c
I0225 09:58:46.818011   573 net.cpp:140] Creating Layer conv_u1b-c
I0225 09:58:46.818013   573 net.cpp:481] conv_u1b-c <- u1b
I0225 09:58:46.818018   573 net.cpp:455] conv_u1b-c -> u1c
I0225 09:58:46.818822   573 layer_factory.hpp:123] Creating layer conv_u1b-c
I0225 09:58:46.820433   573 net.cpp:190] Setting up conv_u1b-c
I0225 09:58:46.820444   573 net.cpp:197] Top shape: 1 64 128 256 (2097152)
I0225 09:58:46.820451   573 net.cpp:205] Memory required for data: 442499076
I0225 09:58:46.820472   573 layer_factory.hpp:123] Creating layer relu_u1c
I0225 09:58:46.820478   573 net.cpp:140] Creating Layer relu_u1c
I0225 09:58:46.820482   573 net.cpp:481] relu_u1c <- u1c
I0225 09:58:46.820487   573 net.cpp:442] relu_u1c -> u1c (in-place)
I0225 09:58:46.820493   573 net.cpp:190] Setting up relu_u1c
I0225 09:58:46.820497   573 net.cpp:197] Top shape: 1 64 128 256 (2097152)
I0225 09:58:46.820500   573 net.cpp:205] Memory required for data: 450887684
I0225 09:58:46.820504   573 layer_factory.hpp:123] Creating layer u1c_fixed
I0225 09:58:46.820508   573 net.cpp:140] Creating Layer u1c_fixed
I0225 09:58:46.820511   573 net.cpp:481] u1c_fixed <- u1c
I0225 09:58:46.820515   573 net.cpp:442] u1c_fixed -> u1c (in-place)
I0225 09:58:46.820547   573 net.cpp:190] Setting up u1c_fixed
I0225 09:58:46.820554   573 net.cpp:197] Top shape: 1 64 128 256 (2097152)
I0225 09:58:46.820557   573 net.cpp:205] Memory required for data: 459276292
I0225 09:58:46.820561   573 layer_factory.hpp:123] Creating layer conv_u1c-d
I0225 09:58:46.820569   573 net.cpp:140] Creating Layer conv_u1c-d
I0225 09:58:46.820571   573 net.cpp:481] conv_u1c-d <- u1c
I0225 09:58:46.820576   573 net.cpp:455] conv_u1c-d -> u1d
I0225 09:58:46.821071   573 layer_factory.hpp:123] Creating layer conv_u1c-d
I0225 09:58:46.821837   573 net.cpp:190] Setting up conv_u1c-d
I0225 09:58:46.821847   573 net.cpp:197] Top shape: 1 64 128 256 (2097152)
I0225 09:58:46.821871   573 net.cpp:205] Memory required for data: 467664900
I0225 09:58:46.821878   573 layer_factory.hpp:123] Creating layer relu_u1d
I0225 09:58:46.821885   573 net.cpp:140] Creating Layer relu_u1d
I0225 09:58:46.821890   573 net.cpp:481] relu_u1d <- u1d
I0225 09:58:46.821897   573 net.cpp:442] relu_u1d -> u1d (in-place)
I0225 09:58:46.821920   573 net.cpp:190] Setting up relu_u1d
I0225 09:58:46.821925   573 net.cpp:197] Top shape: 1 64 128 256 (2097152)
I0225 09:58:46.821938   573 net.cpp:205] Memory required for data: 476053508
I0225 09:58:46.821943   573 layer_factory.hpp:123] Creating layer u1d_fixed
I0225 09:58:46.821950   573 net.cpp:140] Creating Layer u1d_fixed
I0225 09:58:46.821955   573 net.cpp:481] u1d_fixed <- u1d
I0225 09:58:46.821961   573 net.cpp:442] u1d_fixed -> u1d (in-place)
I0225 09:58:46.822000   573 net.cpp:190] Setting up u1d_fixed
I0225 09:58:46.822007   573 net.cpp:197] Top shape: 1 64 128 256 (2097152)
I0225 09:58:46.822015   573 net.cpp:205] Memory required for data: 484442116
I0225 09:58:46.822021   573 layer_factory.hpp:123] Creating layer upconv_u1d_u0a_NEW
I0225 09:58:46.822031   573 net.cpp:140] Creating Layer upconv_u1d_u0a_NEW
I0225 09:58:46.822036   573 net.cpp:481] upconv_u1d_u0a_NEW <- u1d
I0225 09:58:46.822042   573 net.cpp:455] upconv_u1d_u0a_NEW -> u0a
I0225 09:58:46.822346   573 layer_factory.hpp:123] Creating layer upconv_u1d_u0a_NEW
I0225 09:58:46.823721   573 net.cpp:190] Setting up upconv_u1d_u0a_NEW
I0225 09:58:46.823734   573 net.cpp:197] Top shape: 1 32 256 512 (4194304)
I0225 09:58:46.823740   573 net.cpp:205] Memory required for data: 501219332
I0225 09:58:46.823746   573 layer_factory.hpp:123] Creating layer relu_u0a
I0225 09:58:46.823752   573 net.cpp:140] Creating Layer relu_u0a
I0225 09:58:46.823756   573 net.cpp:481] relu_u0a <- u0a
I0225 09:58:46.823760   573 net.cpp:442] relu_u0a -> u0a (in-place)
I0225 09:58:46.823767   573 net.cpp:190] Setting up relu_u0a
I0225 09:58:46.823770   573 net.cpp:197] Top shape: 1 32 256 512 (4194304)
I0225 09:58:46.823776   573 net.cpp:205] Memory required for data: 517996548
I0225 09:58:46.823778   573 layer_factory.hpp:123] Creating layer concat_d0cc_u0a-b
I0225 09:58:46.823783   573 net.cpp:140] Creating Layer concat_d0cc_u0a-b
I0225 09:58:46.823786   573 net.cpp:481] concat_d0cc_u0a-b <- u0a
I0225 09:58:46.823791   573 net.cpp:481] concat_d0cc_u0a-b <- d0c_d0c_fixed_0_split_1
I0225 09:58:46.823796   573 net.cpp:455] concat_d0cc_u0a-b -> u0b
I0225 09:58:46.823822   573 net.cpp:190] Setting up concat_d0cc_u0a-b
I0225 09:58:46.823827   573 net.cpp:197] Top shape: 1 64 256 512 (8388608)
I0225 09:58:46.823830   573 net.cpp:205] Memory required for data: 551550980
I0225 09:58:46.823833   573 layer_factory.hpp:123] Creating layer u0b_fixed
I0225 09:58:46.823839   573 net.cpp:140] Creating Layer u0b_fixed
I0225 09:58:46.823843   573 net.cpp:481] u0b_fixed <- u0b
I0225 09:58:46.823846   573 net.cpp:442] u0b_fixed -> u0b (in-place)
I0225 09:58:46.823876   573 net.cpp:190] Setting up u0b_fixed
I0225 09:58:46.823882   573 net.cpp:197] Top shape: 1 64 256 512 (8388608)
I0225 09:58:46.823886   573 net.cpp:205] Memory required for data: 585105412
I0225 09:58:46.823891   573 layer_factory.hpp:123] Creating layer conv_u0b-c_New
I0225 09:58:46.823899   573 net.cpp:140] Creating Layer conv_u0b-c_New
I0225 09:58:46.823901   573 net.cpp:481] conv_u0b-c_New <- u0b
I0225 09:58:46.823906   573 net.cpp:455] conv_u0b-c_New -> u0c
I0225 09:58:46.824234   573 layer_factory.hpp:123] Creating layer conv_u0b-c_New
I0225 09:58:46.824863   573 net.cpp:190] Setting up conv_u0b-c_New
I0225 09:58:46.824875   573 net.cpp:197] Top shape: 1 32 256 512 (4194304)
I0225 09:58:46.824882   573 net.cpp:205] Memory required for data: 601882628
I0225 09:58:46.824888   573 layer_factory.hpp:123] Creating layer relu_u0c
I0225 09:58:46.824894   573 net.cpp:140] Creating Layer relu_u0c
I0225 09:58:46.824898   573 net.cpp:481] relu_u0c <- u0c
I0225 09:58:46.824903   573 net.cpp:442] relu_u0c -> u0c (in-place)
I0225 09:58:46.824908   573 net.cpp:190] Setting up relu_u0c
I0225 09:58:46.824913   573 net.cpp:197] Top shape: 1 32 256 512 (4194304)
I0225 09:58:46.824916   573 net.cpp:205] Memory required for data: 618659844
I0225 09:58:46.824919   573 layer_factory.hpp:123] Creating layer u0c_fixed
I0225 09:58:46.824923   573 net.cpp:140] Creating Layer u0c_fixed
I0225 09:58:46.824928   573 net.cpp:481] u0c_fixed <- u0c
I0225 09:58:46.824931   573 net.cpp:442] u0c_fixed -> u0c (in-place)
I0225 09:58:46.824960   573 net.cpp:190] Setting up u0c_fixed
I0225 09:58:46.824966   573 net.cpp:197] Top shape: 1 32 256 512 (4194304)
I0225 09:58:46.824971   573 net.cpp:205] Memory required for data: 635437060
I0225 09:58:46.824975   573 layer_factory.hpp:123] Creating layer conv_u0c-d_New
I0225 09:58:46.824982   573 net.cpp:140] Creating Layer conv_u0c-d_New
I0225 09:58:46.824986   573 net.cpp:481] conv_u0c-d_New <- u0c
I0225 09:58:46.824990   573 net.cpp:455] conv_u0c-d_New -> u0d
I0225 09:58:46.825240   573 layer_factory.hpp:123] Creating layer conv_u0c-d_New
I0225 09:58:46.826315   573 net.cpp:190] Setting up conv_u0c-d_New
I0225 09:58:46.826326   573 net.cpp:197] Top shape: 1 32 256 512 (4194304)
I0225 09:58:46.826333   573 net.cpp:205] Memory required for data: 652214276
I0225 09:58:46.826339   573 layer_factory.hpp:123] Creating layer relu_u0d
I0225 09:58:46.826344   573 net.cpp:140] Creating Layer relu_u0d
I0225 09:58:46.826349   573 net.cpp:481] relu_u0d <- u0d
I0225 09:58:46.826352   573 net.cpp:442] relu_u0d -> u0d (in-place)
I0225 09:58:46.826359   573 net.cpp:190] Setting up relu_u0d
I0225 09:58:46.826362   573 net.cpp:197] Top shape: 1 32 256 512 (4194304)
I0225 09:58:46.826366   573 net.cpp:205] Memory required for data: 668991492
I0225 09:58:46.826370   573 layer_factory.hpp:123] Creating layer u0d_fixed
I0225 09:58:46.826375   573 net.cpp:140] Creating Layer u0d_fixed
I0225 09:58:46.826378   573 net.cpp:481] u0d_fixed <- u0d
I0225 09:58:46.826382   573 net.cpp:442] u0d_fixed -> u0d (in-place)
I0225 09:58:46.826416   573 net.cpp:190] Setting up u0d_fixed
I0225 09:58:46.826421   573 net.cpp:197] Top shape: 1 32 256 512 (4194304)
I0225 09:58:46.826426   573 net.cpp:205] Memory required for data: 685768708
I0225 09:58:46.826429   573 layer_factory.hpp:123] Creating layer conv_u0d-score_New
I0225 09:58:46.826437   573 net.cpp:140] Creating Layer conv_u0d-score_New
I0225 09:58:46.826440   573 net.cpp:481] conv_u0d-score_New <- u0d
I0225 09:58:46.826445   573 net.cpp:455] conv_u0d-score_New -> conv_u0d-score_New
I0225 09:58:46.826609   573 layer_factory.hpp:123] Creating layer conv_u0d-score_New
I0225 09:58:46.827004   573 net.cpp:190] Setting up conv_u0d-score_New
I0225 09:58:46.827013   573 net.cpp:197] Top shape: 1 19 256 512 (2490368)
I0225 09:58:46.827018   573 net.cpp:205] Memory required for data: 695730180
I0225 09:58:46.827024   573 layer_factory.hpp:123] Creating layer conv_u0d-score_New_fixed
I0225 09:58:46.827030   573 net.cpp:140] Creating Layer conv_u0d-score_New_fixed
I0225 09:58:46.827033   573 net.cpp:481] conv_u0d-score_New_fixed <- conv_u0d-score_New
I0225 09:58:46.827039   573 net.cpp:442] conv_u0d-score_New_fixed -> conv_u0d-score_New (in-place)
I0225 09:58:46.827070   573 net.cpp:190] Setting up conv_u0d-score_New_fixed
I0225 09:58:46.827076   573 net.cpp:197] Top shape: 1 19 256 512 (2490368)
I0225 09:58:46.827080   573 net.cpp:205] Memory required for data: 705691652
I0225 09:58:46.827085   573 layer_factory.hpp:123] Creating layer score
I0225 09:58:46.827090   573 net.cpp:140] Creating Layer score
I0225 09:58:46.827093   573 net.cpp:481] score <- conv_u0d-score_New
I0225 09:58:46.827098   573 net.cpp:455] score -> score
I0225 09:58:46.827149   573 net.cpp:190] Setting up score
I0225 09:58:46.827154   573 net.cpp:197] Top shape: 1 19 256 512 (2490368)
I0225 09:58:46.827159   573 net.cpp:205] Memory required for data: 715653124
I0225 09:58:46.827162   573 net.cpp:268] score does not need backward computation.
I0225 09:58:46.827167   573 net.cpp:268] conv_u0d-score_New_fixed does not need backward computation.
I0225 09:58:46.827169   573 net.cpp:268] conv_u0d-score_New does not need backward computation.
I0225 09:58:46.827172   573 net.cpp:268] u0d_fixed does not need backward computation.
…
