…
    phase: TRAIN
  }
  transform_param {
    crop_size: 300
    mean_value: 104
    mean_value: 117
    mean_value: 123
    resize_param {
      prob: 1
      resize_mode: WARP
      height: 300
      width: 300
      interp_mode: LINEAR
      interp_mode: AREA
      interp_mode: NEAREST
      interp_mode: CUBIC
      interp_mode: LANCZOS4
    }
  }
  image_data_param {
    source: "../calibration.txt"
    batch_size: 1
    shuffle: true
    new_height: 300
    new_width: 300
    root_folder: "/workspace/SSD/data/VOCdevkit/VOC2007/JPEGImages/"
  }
}
layer {
  name: "conv1_1"
  type: "Convolution"
  bottom: "data"
  top: "conv1_1"
  param {
    lr_mult: 1
    decay_mult: 1
  }
  param {
    lr_mult: 2
    decay_mult: 0
  }
  convolution_param {
    num_output: 64
    pad: 1
    kernel_size: 3
    weight_filler {
      type: "xavier"
    }
    bias_filler {
      type: "constant"
      value: 0
    }
  }
}
layer {
  name: "relu1_1"
  type: "ReLU"
  bottom: "conv1_1"
  top: "conv1_1"
}
layer {
  name: "conv1_2"
  type: "Convolution"
  bottom: "conv1_1"
  top: "conv1_2"
  param {
    lr_mult: 1
    decay_mult: 1
  }
  param {
    lr_mult: 2
    decay_mult: 0
  }
  convolution_param {
    num_output: 64
    pad: 1
    kernel_size: 3
    weight_filler {
      type: "xavier"
    }
    bias_filler {
      type: "constant"
      value: 0
    }
  }
}
layer {
  name: "relu1_2"
  type: "ReLU"
  bottom: "conv1_2"
  top: "conv1_2"
}
layer {
  name: "pool1"
  type: "Pooling"
  bottom: "conv1_2"
  top: "pool1"
  pooling_param {
    pool: MAX
    kernel_size: 2
    stride: 2
  }
}
layer {
  name: "conv2_1"
  type: "Convolution"
  bottom: "pool1"
  top: "conv2_1"
  param {
    lr_mult: 1
    decay_mult: 1
  }
  param {
    lr_mult: 2
    decay_mult: 0
  }
  convolution_param {
    num_output: 128
    pad: 1
    kernel_size: 3
    weight_filler {
      type: "xavier"
    }
    bias_filler {
      type: "constant"
      value: 0
    }
  }
}
layer {
  name: "relu2_1"
  type: "ReLU"
  bottom: "conv2_1"
  top: "conv2_1"
}
layer {
  name: "conv2_2"
  type: "Convolution"
  bottom: "conv2_1"
  top: "conv2_2"
  param {
    lr_mult: 1
    decay_mult: 1
  }
  param {
    lr_mult: 2
    decay_mult: 0
  }
  convolution_param {
    num_output: 128
    pad: 1
    kernel_size: 3
    weight_filler {
      type: "xavier"
    }
    bias_filler {
      type: "constant"
      value: 0
    }
  }
}
layer {
  name: "relu2_2"
  type: "ReLU"
  bottom: "conv2_2"
  top: "conv2_2"
}
layer {
  name: "pool2"
  type: "Pooling"
  bottom: "conv2_2"
  top: "pool2"
  pooling_param {
    pool: MAX
    kernel_size: 2
    stride: 2
  }
}
layer {
  name: "conv3_1"
  type: "Convolution"
  bottom: "pool2"
  top: "conv3_1"
  param {
    lr_mult: 1
    decay_mult: 1
  }
  param {
    lr_mult: 2
    decay_mult: 0
  }
  convolution_param {
    num_output: 256
    pad: 1
    kernel_size: 3
    weight_filler {
      type: "xavier"
    }
    bias_filler {
      type: "constant"
      value: 0
    }
  }
}
layer {
  name: "relu3_1"
  type: "ReLU"
  bottom: "conv3_1"
  top: "conv3_1"
}
layer {
  name: "conv3_2"
  type: "Convolution"
  bottom: "conv3_1"
  top: "conv3_2"
  param {
    lr_mult: 1
    decay_mult: 1
  }
  param {
    lr_mult: 2
    decay_mult: 0
  }
  convolution_param {
    num_output: 256
    pad: 1
    kernel_size: 3
    weight_filler {
      type: "xavier"
    }
    bias_filler {
      type: "constant"
      value: 0
    }
  }
}
layer {
  name: "relu3_2"
  type: "ReLU"
  bottom: "conv3_2"
  top: "conv3_2"
}
layer {
  name: "conv3_3"
  type: "Convolution"
  bottom: "conv3_2"
  top: "conv3_3"
  param {
    lr_mult: 1
    decay_mult: 1
  }
  param {
    lr_mult: 2
    decay_mult: 0
  }
  convolution_param {
    num_output: 256
    pad: 1
    kernel_size: 3
    weight_filler {
      type: "xavier"
    }
    bias_filler {
      type: "constant"
      value: 0
    }
  }
}
layer {
  name: "relu3_3"
  type: "ReLU"
  bottom: "conv3_3"
  top: "conv3_3"
}
layer {
  name: "pool3"
  type: "Pooling"
  bottom: "conv3_3"
  top: "pool3"
  pooling_param {
    pool: MAX
    kernel_size: 2
    stride: 2
  }
}
layer {
  name: "conv4_1"
  type: "Convolution"
  bottom: "pool3"
  top: "conv4_1"
  param {
    lr_mult: 1
    decay_mult: 1
  }
  param {
    lr_mult: 2
    decay_mult: 0
  }
  convolution_param {
    num_output: 512
    pad: 1
    kernel_size: 3
    weight_filler {
      type: "xavier"
    }
    bias_filler {
      type: "constant"
      value: 0
    }
  }
}
layer {
  name: "relu4_1"
  type: "ReLU"
  bottom: "conv4_1"
  top: "conv4_1"
}
layer {
  name: "conv4_2"
  type: "Convolution"
  bottom: "conv4_1"
  top: "conv4_2"
  param {
    lr_mult: 1
    decay_mult: 1
  }
  param {
    lr_mult: 2
    decay_mult: 0
  }
  convolution_param {
    num_output: 512
    pad: 1
    kernel_size: 3
    weight_filler {
      type: "xavier"
    }
    bias_filler {
      type: "constant"
      value: 0
    }
  }
}
layer {
  name: "relu4_2"
  type: "ReLU"
  bottom: "conv4_2"
  top: "conv4_2"
}
layer {
  name: "conv4_3"
  type: "Convolution"
  bottom: "conv4_2"
  top: "conv4_3"
  param {
    lr_mult: 1
    decay_mult: 1
  }
  param {
    lr_mult: 2
    decay_mult: 0
  }
  convolution_param {
    num_output: 512
    pad: 1
    kernel_size: 3
    weight_filler {
      type: "xavier"
    }
    bias_filler {
      type: "constant"
      value: 0
    }
  }
}
layer {
  name: "conv4_3_bn"
  type: "BatchNorm"
  bottom: "conv4_3"
  top: "conv4_3"
  param {
    lr_mult: 1
    decay_mult: 0
  }
  param {
    lr_mult: 1
    decay_mult: 0
  }
  param {
    lr_mult: 0
    decay_mult: 0
  }
  param {
    lr_mult: 0
    decay_mult: 0
  }
  batch_norm_param {
    use_global_stats: true
    eps: 1e-05
    scale_filler {
      type: "constant"
      value: 1
    }
    bias_filler {
      type: "constant"
      value: 0
    }
  }
}
layer {
  name: "relu4_3"
  type: "ReLU"
  bottom: "conv4_3"
  top: "conv4_3"
}
layer {
  name: "pool4"
  type: "Pooling"
  bottom: "conv4_3"
  top: "pool4"
  pooling_param {
    pool: MAX
    kernel_size: 2
    stride: 2
  }
}
layer {
  name: "conv5_1"
  type: "Convolution"
  bottom: "pool4"
  top: "conv5_1"
  param {
    lr_mult: 1
    decay_mult: 1
  }
  param {
    lr_mult: 2
    decay_mult: 0
  }
  convolution_param {
    num_output: 512
    pad: 1
    kernel_size: 3
    weight_filler {
      type: "xavier"
    }
    bias_filler {
      type: "constant"
      value: 0
    }
    dilation: 1
  }
}
layer {
  name: "relu5_1"
  type: "ReLU"
  bottom: "conv5_1"
  top: "conv5_1"
}
layer {
  name: "conv5_2"
  type: "Convolution"
  bottom: "conv5_1"
  top: "conv5_2"
  param {
    lr_mult: 1
    decay_mult: 1
  }
  param {
    lr_mult: 2
    decay_mult: 0
  }
  convolution_param {
    num_output: 512
    pad: 1
    kernel_size: 3
    weight_filler {
      type: "xavier"
    }
    bias_filler {
      type: "constant"
      value: 0
    }
    dilation: 1
  }
}
layer {
  name: "relu5_2"
  type: "ReLU"
  bottom: "conv5_2"
  top: "conv5_2"
}
layer {
  name: "conv5_3"
  type: "Convolution"
  bottom: "conv5_2"
  top: "conv5_3"
  param {
    lr_mult: 1
    decay_mult: 1
  }
  param {
    lr_mult: 2
    decay_mult: 0
  }
  convolution_param {
    num_output: 512
    pad: 1
    kernel_size: 3
    weight_filler {
      type: "xavier"
    }
    bias_filler {
      type: "constant"
      value: 0
    }
    dilation: 1
  }
}
layer {
  name: "relu5_3"
  type: "ReLU"
  bottom: "conv5_3"
  top: "conv5_3"
}
layer {
  name: "pool5"
  type: "Pooling"
  bottom: "conv5_3"
  top: "pool5"
  pooling_param {
    pool: MAX
    kernel_size: 3
    stride: 1
    pad: 1
  }
}
layer {
  name: "fc6_682"
  type: "Convolution"
  bottom: "pool5"
  top: "fc6_682"
  param {
    lr_mult: 1
    decay_mult: 1
  }
  param {
    lr_mult: 2
    decay_mult: 0
  }
  convolution_param {
    num_output: 682
    pad: 6
    kernel_size: 3
    weight_filler {
      type: "xavier"
    }
    bias_filler {
      type: "constant"
      value: 0
    }
    dilation: 6
  }
}
layer {
  name: "relu6"
  type: "ReLU"
  bottom: "fc6_682"
  top: "fc6_682"
}
layer {
  name: "fc7_682"
  type: "Convolution"
  bottom: "fc6_682"
  top: "fc7_682"
  param {
    lr_mult: 1
    decay_mult: 1
  }
  param {
    lr_mult: 2
    decay_mult: 0
  }
  convolution_param {
    num_output: 1024
    kernel_size: 1
    weight_filler {
      type: "xavier"
    }
    bias_filler {
      type: "constant"
      value: 0
    }
  }
}
layer {
  name: "relu7"
  type: "ReLU"
  bottom: "fc7_682"
  top: "fc7_682"
}
layer {
  name: "conv6_1"
  type: "Convolution"
  bottom: "fc7_682"
  top: "conv6_1"
  param {
    lr_mult: 1
    decay_mult: 1
  }
  param {
    lr_mult: 2
    decay_mult: 0
  }
  convolution_param {
    num_output: 256
    pad: 0
    kernel_size: 1
    stride: 1
    weight_filler {
      type: "xavier"
    }
    bias_filler {
      type: "constant"
      value: 0
    }
  }
}
layer {
  name: "conv6_1_relu"
  type: "ReLU"
  bottom: "conv6_1"
  top: "conv6_1"
}
layer {
  name: "conv6_2"
  type: "Convolution"
  bottom: "conv6_1"
  top: "conv6_2"
  param {
    lr_mult: 1
    decay_mult: 1
  }
  param {
    lr_mult: 2
    decay_mult: 0
  }
  convolution_param {
    num_output: 512
    pad: 1
    kernel_size: 3
    stride: 2
    weight_filler {
      type: "xavier"
    }
    bias_filler {
      type: "constant"
      value: 0
    }
  }
}
layer {
  name: "conv6_2_relu"
  type: "ReLU"
  bottom: "conv6_2"
  top: "conv6_2"
}
layer {
  name: "conv7_1"
  type: "Convolution"
  bottom: "conv6_2"
  top: "conv7_1"
  param {
    lr_mult: 1
    decay_mult: 1
  }
  param {
    lr_mult: 2
    decay_mult: 0
  }
  convolution_param {
    num_output: 128
    pad: 0
    kernel_size: 1
    stride: 1
    weight_filler {
      type: "xavier"
    }
    bias_filler {
      type: "constant"
      value: 0
    }
  }
}
layer {
  name: "conv7_1_relu"
  type: "ReLU"
  bottom: "conv7_1"
  top: "conv7_1"
}
layer {
  name: "conv7_2"
  type: "Convolution"
  bottom: "conv7_1"
  top: "conv7_2"
  param {
    lr_mult: 1
    decay_mult: 1
  }
  param {
    lr_mult: 2
    decay_mult: 0
  }
  convolution_param {
    num_output: 256
    pad: 1
    kernel_size: 3
    stride: 2
    weight_filler {
      type: "xavier"
    }
    bias_filler {
      type: "constant"
      value: 0
    }
  }
}
layer {
  name: "conv7_2_relu"
  type: "ReLU"
  bottom: "conv7_2"
  top: "conv7_2"
}
layer {
  name: "conv8_1"
  type: "Convolution"
  bottom: "conv7_2"
  top: "conv8_1"
  param {
    lr_mult: 1
    decay_mult: 1
  }
  param {
    lr_mult: 2
    decay_mult: 0
  }
  convolution_param {
    num_output: 128
    pad: 0
    kernel_size: 1
    stride: 1
    weight_filler {
      type: "xavier"
    }
    bias_filler {
      type: "constant"
      value: 0
    }
  }
}
layer {
  name: "conv8_1_relu"
  type: "ReLU"
  bottom: "conv8_1"
  top: "conv8_1"
}
layer {
  name: "conv8_2"
  type: "Convolution"
  bottom: "conv8_1"
  top: "conv8_2"
  param {
    lr_mult: 1
    decay_mult: 1
  }
  param {
    lr_mult: 2
    decay_mult: 0
  }
  convolution_param {
    num_output: 256
    pad: 0
    kernel_size: 3
    stride: 1
    weight_filler {
      type: "xavier"
    }
    bias_filler {
      type: "constant"
      value: 0
    }
  }
}
layer {
  name: "conv8_2_relu"
  type: "ReLU"
  bottom: "conv8_2"
  top: "conv8_2"
}
layer {
  name: "conv9_1"
  type: "Convolution"
  bottom: "conv8_2"
  top: "conv9_1"
  param {
    lr_mult: 1
    decay_mult: 1
  }
  param {
    lr_mult: 2
    decay_mult: 0
  }
  convolution_param {
    num_output: 128
    pad: 0
    kernel_size: 1
    stride: 1
    weight_filler {
      type: "xavier"
    }
    bias_filler {
      type: "constant"
      value: 0
    }
  }
}
layer {
  name: "conv9_1_relu"
  type: "ReLU"
  bottom: "conv9_1"
  top: "conv9_1"
}
layer {
  name: "conv9_2"
  type: "Convolution"
  bottom: "conv9_1"
  top: "conv9_2"
  param {
    lr_mult: 1
    decay_mult: 1
  }
  param {
    lr_mult: 2
    decay_mult: 0
  }
  convolution_param {
    num_output: 256
    pad: 0
    kernel_size: 3
    stride: 1
    weight_filler {
      type: "xavier"
    }
    bias_filler {
      type: "constant"
      value: 0
    }
  }
}
layer {
  name: "conv9_2_relu"
  type: "ReLU"
  bottom: "conv9_2"
  top: "conv9_2"
}
layer {
  name: "conv4_3_norm_mbox_loc"
  type: "Convolution"
  bottom: "conv4_3"
  top: "conv4_3_norm_mbox_loc"
  param {
    lr_mult: 1
    decay_mult: 1
  }
  param {
    lr_mult: 2
    decay_mult: 0
  }
  convolution_param {
    num_output: 16
    pad: 1
    kernel_size: 3
    stride: 1
    weight_filler {
      type: "xavier"
    }
    bias_filler {
      type: "constant"
      value: 0
    }
  }
}
layer {
  name: "conv4_3_norm_mbox_loc_perm"
  type: "Permute"
  bottom: "conv4_3_norm_mbox_loc"
  top: "conv4_3_norm_mbox_loc_perm"
  permute_param {
    order: 0
    order: 2
    order: 3
    order: 1
  }
}
layer {
  name: "conv4_3_norm_mbox_loc_flat"
  type: "Flatten"
  bottom: "conv4_3_norm_mbox_loc_perm"
  top: "conv4_3_norm_mbox_loc_flat"
  flatten_param {
    axis: 1
  }
}
layer {
  name: "conv4_3_norm_mbox_conf"
  type: "Convolution"
  bottom: "conv4_3"
  top: "conv4_3_norm_mbox_conf"
  param {
    lr_mult: 1
    decay_mult: 1
  }
  param {
    lr_mult: 2
    decay_mult: 0
  }
  convolution_param {
    num_output: 84
    pad: 1
    kernel_size: 3
    stride: 1
    weight_filler {
      type: "xavier"
    }
    bias_filler {
      type: "constant"
      value: 0
    }
  }
}
layer {
  name: "conv4_3_norm_mbox_conf_perm"
  type: "Permute"
  bottom: "conv4_3_norm_mbox_conf"
  top: "conv4_3_norm_mbox_conf_perm"
  permute_param {
    order: 0
    order: 2
    order: 3
    order: 1
  }
}
layer {
  name: "conv4_3_norm_mbox_conf_flat"
  type: "Flatten"
  bottom: "conv4_3_norm_mbox_conf_perm"
  top: "conv4_3_norm_mbox_conf_flat"
  flatten_param {
    axis: 1
  }
}
layer {
  name: "conv4_3_norm_mbox_priorbox"
  type: "PriorBox"
  bottom: "conv4_3"
  bottom: "data"
  top: "conv4_3_norm_mbox_priorbox"
  prior_box_param {
    min_size: 30
    max_size: 60
    aspect_ratio: 2
    flip: true
    clip: false
    variance: 0.1
    variance: 0.1
    variance: 0.2
    variance: 0.2
    step: 8
    offset: 0.5
  }
}
layer {
  name: "fc7_mbox_loc"
  type: "Convolution"
  bottom: "fc7_682"
  top: "fc7_mbox_loc"
  param {
    lr_mult: 1
    decay_mult: 1
  }
  param {
    lr_mult: 2
    decay_mult: 0
  }
  convolution_param {
    num_output: 24
    pad: 1
    kernel_size: 3
    stride: 1
    weight_filler {
      type: "xavier"
    }
    bias_filler {
      type: "constant"
      value: 0
    }
  }
}
layer {
  name: "fc7_mbox_loc_perm"
  type: "Permute"
  bottom: "fc7_mbox_loc"
  top: "fc7_mbox_loc_perm"
  permute_param {
    order: 0
    order: 2
    order: 3
    order: 1
  }
}
layer {
  name: "fc7_mbox_loc_flat"
  type: "Flatten"
  bottom: "fc7_mbox_loc_perm"
  top: "fc7_mbox_loc_flat"
  flatten_param {
    axis: 1
  }
}
layer {
  name: "fc7_mbox_conf"
  type: "Convolution"
  bottom: "fc7_682"
  top: "fc7_mbox_conf"
  param {
    lr_mult: 1
    decay_mult: 1
  }
  param {
    lr_mult: 2
    decay_mult: 0
  }
  convolution_param {
    num_output: 126
    pad: 1
    kernel_size: 3
    stride: 1
    weight_filler {
      type: "xavier"
    }
    bias_filler {
      type: "constant"
      value: 0
    }
  }
}
layer {
  name: "fc7_mbox_conf_perm"
  type: "Permute"
  bottom: "fc7_mbox_conf"
  top: "fc7_mbox_conf_perm"
  permute_param {
    order: 0
    order: 2
    order: 3
    order: 1
  }
}
layer {
  name: "fc7_mbox_conf_flat"
  type: "Flatten"
  bottom: "fc7_mbox_conf_perm"
  top: "fc7_mbox_conf_flat"
  flatten_param {
    axis: 1
  }
}
layer {
  name: "fc7_mbox_priorbox"
  type: "PriorBox"
  bottom: "fc7_682"
  bottom: "data"
  top: "fc7_mbox_priorbox"
  prior_box_param {
    min_size: 60
    max_size: 111
    aspect_ratio: 2
    aspect_ratio: 3
    flip: true
    clip: false
    variance: 0.1
    variance: 0.1
    variance: 0.2
    variance: 0.2
    step: 16
    offset: 0.5
  }
}
layer {
  name: "conv6_2_mbox_loc"
  type: "Convolution"
  bottom: "conv6_2"
  top: "conv6_2_mbox_loc"
  param {
    lr_mult: 1
    decay_mult: 1
  }
  param {
    lr_mult: 2
    decay_mult: 0
  }
  convolution_param {
    num_output: 24
    pad: 1
    kernel_size: 3
    stride: 1
    weight_filler {
      type: "xavier"
    }
    bias_filler {
      type: "constant"
      value: 0
    }
  }
}
layer {
  name: "conv6_2_mbox_loc_perm"
  type: "Permute"
  bottom: "conv6_2_mbox_loc"
  top: "conv6_2_mbox_loc_perm"
  permute_param {
    order: 0
    order: 2
    order: 3
    order: 1
  }
}
layer {
  name: "conv6_2_mbox_loc_flat"
  type: "Flatten"
  bottom: "conv6_2_mbox_loc_perm"
  top: "conv6_2_mbox_loc_flat"
  flatten_param {
    axis: 1
  }
}
layer {
  name: "conv6_2_mbox_conf"
  type: "Convolution"
  bottom: "conv6_2"
  top: "conv6_2_mbox_conf"
  param {
    lr_mult: 1
    decay_mult: 1
  }
  param {
    lr_mult: 2
    decay_mult: 0
  }
  convolution_param {
    num_output: 126
    pad: 1
    kernel_size: 3
    stride: 1
    weight_filler {
      type: "xavier"
    }
    bias_filler {
      type: "constant"
      value: 0
    }
  }
}
layer {
  name: "conv6_2_mbox_conf_perm"
  type: "Permute"
  bottom: "conv6_2_mbox_conf"
  top: "conv6_2_mbox_conf_perm"
  permute_param {
    order: 0
    order: 2
    order: 3
    order: 1
  }
}
layer {
  name: "conv6_2_mbox_conf_flat"
  type: "Flatten"
  bottom: "conv6_2_mbox_conf_perm"
  top: "conv6_2_mbox_conf_flat"
  flatten_param {
    axis: 1
  }
}
layer {
  name: "conv6_2_mbox_priorbox"
  type: "PriorBox"
  bottom: "conv6_2"
  bottom: "data"
  top: "conv6_2_mbox_priorbox"
  prior_box_param {
    min_size: 111
    max_size: 162
    aspect_ratio: 2
    aspect_ratio: 3
    flip: true
    clip: false
    variance: 0.1
    variance: 0.1
    variance: 0.2
    variance: 0.2
    step: 32
    offset: 0.5
  }
}
layer {
  name: "conv7_2_mbox_loc"
  type: "Convolution"
  bottom: "conv7_2"
  top: "conv7_2_mbox_loc"
  param {
    lr_mult: 1
    decay_mult: 1
  }
  param {
    lr_mult: 2
    decay_mult: 0
  }
  convolution_param {
    num_output: 24
    pad: 1
    kernel_size: 3
    stride: 1
    weight_filler {
      type: "xavier"
    }
    bias_filler {
      type: "constant"
      value: 0
    }
  }
}
layer {
  name: "conv7_2_mbox_loc_perm"
  type: "Permute"
  bottom: "conv7_2_mbox_loc"
  top: "conv7_2_mbox_loc_perm"
  permute_param {
    order: 0
    order: 2
    order: 3
    order: 1
  }
}
layer {
  name: "conv7_2_mbox_loc_flat"
  type: "Flatten"
  bottom: "conv7_2_mbox_loc_perm"
  top: "conv7_2_mbox_loc_flat"
  flatten_param {
    axis: 1
  }
}
layer {
  name: "conv7_2_mbox_conf"
  type: "Convolution"
  bottom: "conv7_2"
  top: "conv7_2_mbox_conf"
  param {
    lr_mult: 1
    decay_mult: 1
  }
  param {
    lr_mult: 2
    decay_mult: 0
  }
  convolution_param {
    num_output: 126
    pad: 1
    kernel_size: 3
    stride: 1
    weight_filler {
      type: "xavier"
    }
    bias_filler {
      type: "constant"
      value: 0
    }
  }
}
layer {
  name: "conv7_2_mbox_conf_perm"
  type: "Permute"
  bottom: "conv7_2_mbox_conf"
  top: "conv7_2_mbox_conf_perm"
  permute_param {
    order: 0
    order: 2
    order: 3
    order: 1
  }
}
layer {
  name: "conv7_2_mbox_conf_flat"
  type: "Flatten"
  bottom: "conv7_2_mbox_conf_perm"
  top: "conv7_2_mbox_conf_flat"
  flatten_param {
    axis: 1
  }
}
layer {
  name: "conv7_2_mbox_priorbox"
  type: "PriorBox"
  bottom: "conv7_2"
  bottom: "data"
  top: "conv7_2_mbox_priorbox"
  prior_box_param {
    min_size: 162
    max_size: 213
    aspect_ratio: 2
    aspect_ratio: 3
    flip: true
    clip: false
    variance: 0.1
    variance: 0.1
    variance: 0.2
    variance: 0.2
    step: 64
    offset: 0.5
  }
}
layer {
  name: "conv8_2_mbox_loc"
  type: "Convolution"
  bottom: "conv8_2"
  top: "conv8_2_mbox_loc"
  param {
    lr_mult: 1
    decay_mult: 1
  }
  param {
    lr_mult: 2
    decay_mult: 0
  }
  convolution_param {
    num_output: 16
    pad: 1
    kernel_size: 3
    stride: 1
    weight_filler {
      type: "xavier"
    }
    bias_filler {
      type: "constant"
      value: 0
    }
  }
}
layer {
  name: "conv8_2_mbox_loc_perm"
  type: "Permute"
  bottom: "conv8_2_mbox_loc"
  top: "conv8_2_mbox_loc_perm"
  permute_param {
    order: 0
    order: 2
    order: 3
    order: 1
  }
}
layer {
  name: "conv8_2_mbox_loc_flat"
  type: "Flatten"
  bottom: "conv8_2_mbox_loc_perm"
  top: "conv8_2_mbox_loc_flat"
  flatten_param {
    axis: 1
  }
}
layer {
  name: "conv8_2_mbox_conf"
  type: "Convolution"
  bottom: "conv8_2"
  top: "conv8_2_mbox_conf"
  param {
    lr_mult: 1
    decay_mult: 1
  }
  param {
    lr_mult: 2
    decay_mult: 0
  }
  convolution_param {
    num_output: 84
    pad: 1
    kernel_size: 3
    stride: 1
    weight_filler {
      type: "xavier"
    }
    bias_filler {
      type: "constant"
      value: 0
    }
  }
}
layer {
  name: "conv8_2_mbox_conf_perm"
  type: "Permute"
  bottom: "conv8_2_mbox_conf"
  top: "conv8_2_mbox_conf_perm"
  permute_param {
    order: 0
    order: 2
    order: 3
    order: 1
  }
}
layer {
  name: "conv8_2_mbox_conf_flat"
  type: "Flatten"
  bottom: "conv8_2_mbox_conf_perm"
  top: "conv8_2_mbox_conf_flat"
  flatten_param {
    axis: 1
  }
}
layer {
  name: "conv8_2_mbox_priorbox"
  type: "PriorBox"
  bottom: "conv8_2"
  bottom: "data"
  top: "conv8_2_mbox_priorbox"
  prior_box_param {
    min_size: 213
    max_size: 264
    aspect_ratio: 2
    flip: true
    clip: false
    variance: 0.1
    variance: 0.1
    variance: 0.2
    variance: 0.2
    step: 100
    offset: 0.5
  }
}
layer {
  name: "conv9_2_mbox_loc"
  type: "Convolution"
  bottom: "conv9_2"
  top: "conv9_2_mbox_loc"
  param {
    lr_mult: 1
    decay_mult: 1
  }
  param {
    lr_mult: 2
    decay_mult: 0
  }
  convolution_param {
    num_output: 16
    pad: 1
    kernel_size: 3
    stride: 1
    weight_filler {
      type: "xavier"
    }
    bias_filler {
      type: "constant"
      value: 0
    }
  }
}
layer {
  name: "conv9_2_mbox_loc_perm"
  type: "Permute"
  bottom: "conv9_2_mbox_loc"
  top: "conv9_2_mbox_loc_perm"
  permute_param {
    order: 0
    order: 2
    order: 3
    order: 1
  }
}
layer {
  name: "conv9_2_mbox_loc_flat"
  type: "Flatten"
  bottom: "conv9_2_mbox_loc_perm"
  top: "conv9_2_mbox_loc_flat"
  flatten_param {
    axis: 1
  }
}
layer {
  name: "conv9_2_mbox_conf"
  type: "Convolution"
  bottom: "conv9_2"
  top: "conv9_2_mbox_conf"
  param {
    lr_mult: 1
    decay_mult: 1
  }
  param {
    lr_mult: 2
    decay_mult: 0
  }
  convolution_param {
    num_output: 84
    pad: 1
    kernel_size: 3
    stride: 1
    weight_filler {
      type: "xavier"
    }
    bias_filler {
      type: "constant"
      value: 0
    }
  }
}
layer {
  name: "conv9_2_mbox_conf_perm"
  type: "Permute"
  bottom: "conv9_2_mbox_conf"
  top: "conv9_2_mbox_conf_perm"
  permute_param {
    order: 0
    order: 2
    order: 3
    order: 1
  }
}
layer {
  name: "conv9_2_mbox_conf_flat"
  type: "Flatten"
  bottom: "conv9_2_mbox_conf_perm"
  top: "conv9_2_mbox_conf_flat"
  flatten_param {
    axis: 1
  }
}
layer {
  name: "conv9_2_mbox_priorbox"
  type: "PriorBox"
  bottom: "conv9_2"
  bottom: "data"
  top: "conv9_2_mbox_priorbox"
  prior_box_param {
    min_size: 264
    max_size: 315
    aspect_ratio: 2
    flip: true
    clip: false
    variance: 0.1
    variance: 0.1
    variance: 0.2
    variance: 0.2
    step: 300
    offset: 0.5
  }
}
layer {
  name: "mbox_loc"
  type: "Concat"
  bottom: "conv4_3_norm_mbox_loc_flat"
  bottom: "fc7_mbox_loc_flat"
  bottom: "conv6_2_mbox_loc_flat"
  bottom: "conv7_2_mbox_loc_flat"
  bottom: "conv8_2_mbox_loc_flat"
  bottom: "conv9_2_mbox_loc_flat"
  top: "mbox_loc"
  concat_param {
    axis: 1
  }
}
layer {
  name: "mbox_conf"
  type: "Concat"
  bottom: "conv4_3_norm_mbox_conf_flat"
  bottom: "fc7_mbox_conf_flat"
  bottom: "conv6_2_mbox_conf_flat"
  bottom: "conv7_2_mbox_conf_flat"
  bottom: "conv8_2_mbox_conf_flat"
  bottom: "conv9_2_mbox_conf_flat"
  top: "mbox_conf"
  concat_param {
    axis: 1
  }
}
layer {
  name: "mbox_priorbox"
  type: "Concat"
  bottom: "conv4_3_norm_mbox_priorbox"
  bottom: "fc7_mbox_priorbox"
  bottom: "conv6_2_mbox_priorbox"
  bottom: "conv7_2_mbox_priorbox"
  bottom: "conv8_2_mbox_priorbox"
  bottom: "conv9_2_mbox_priorbox"
  top: "mbox_priorbox"
  concat_param {
    axis: 2
  }
}
I0406 07:36:22.527482   621 layer_factory.hpp:93] Creating layer data
I0406 07:36:22.527504   621 net.cpp:110] Creating Layer data
I0406 07:36:22.527511   621 net.cpp:425] data -> data
I0406 07:36:22.527527   621 net.cpp:425] data -> label
I0406 07:36:22.527596   621 image_data_layer.cpp:57] Opening file ../calibration.txt
I0406 07:36:22.527849   621 image_data_layer.cpp:67] Shuffling data
I0406 07:36:22.527906   621 image_data_layer.cpp:72] A total of 1000 images.
I0406 07:36:22.531457   621 image_data_layer.cpp:100] output data size: 1,3,300,300
I0406 07:36:22.539180   621 internal_thread.cpp:43] Starting internal thread(s) on GPU 0
I0406 07:36:22.539266   621 net.cpp:160] Setting up data
I0406 07:36:22.539273   621 net.cpp:167] Top shape: 1 3 300 300 (270000)
I0406 07:36:22.539279   621 net.cpp:167] Top shape: 1 (1)
I0406 07:36:22.539283   621 net.cpp:175] Memory required for data: 1080004
I0406 07:36:22.539288   621 layer_factory.hpp:93] Creating layer data_data_0_split
I0406 07:36:22.539302   621 net.cpp:110] Creating Layer data_data_0_split
I0406 07:36:22.539306   621 net.cpp:451] data_data_0_split <- data
I0406 07:36:22.539314   621 net.cpp:425] data_data_0_split -> data_data_0_split_0
I0406 07:36:22.539322   621 net.cpp:425] data_data_0_split -> data_data_0_split_1
I0406 07:36:22.539327   621 net.cpp:425] data_data_0_split -> data_data_0_split_2
I0406 07:36:22.539332   621 net.cpp:425] data_data_0_split -> data_data_0_split_3
I0406 07:36:22.539337   621 net.cpp:425] data_data_0_split -> data_data_0_split_4
I0406 07:36:22.539342   621 net.cpp:425] data_data_0_split -> data_data_0_split_5
I0406 07:36:22.539346   621 net.cpp:425] data_data_0_split -> data_data_0_split_6
I0406 07:36:22.539490   621 net.cpp:160] Setting up data_data_0_split
I0406 07:36:22.539496   621 net.cpp:167] Top shape: 1 3 300 300 (270000)
I0406 07:36:22.539501   621 net.cpp:167] Top shape: 1 3 300 300 (270000)
I0406 07:36:22.539505   621 net.cpp:167] Top shape: 1 3 300 300 (270000)
I0406 07:36:22.539510   621 net.cpp:167] Top shape: 1 3 300 300 (270000)
I0406 07:36:22.539513   621 net.cpp:167] Top shape: 1 3 300 300 (270000)
I0406 07:36:22.539517   621 net.cpp:167] Top shape: 1 3 300 300 (270000)
I0406 07:36:22.539521   621 net.cpp:167] Top shape: 1 3 300 300 (270000)
I0406 07:36:22.539525   621 net.cpp:175] Memory required for data: 8640004
I0406 07:36:22.539528   621 layer_factory.hpp:93] Creating layer conv1_1
I0406 07:36:22.539538   621 net.cpp:110] Creating Layer conv1_1
I0406 07:36:22.539541   621 net.cpp:451] conv1_1 <- data_data_0_split_0
I0406 07:36:22.539547   621 net.cpp:425] conv1_1 -> conv1_1
I0406 07:36:22.539901   621 net.cpp:160] Setting up conv1_1
I0406 07:36:22.539907   621 net.cpp:167] Top shape: 1 64 300 300 (5760000)
I0406 07:36:22.539913   621 net.cpp:175] Memory required for data: 31680004
I0406 07:36:22.539929   621 layer_factory.hpp:93] Creating layer relu1_1
I0406 07:36:22.539935   621 net.cpp:110] Creating Layer relu1_1
I0406 07:36:22.539938   621 net.cpp:451] relu1_1 <- conv1_1
I0406 07:36:22.539942   621 net.cpp:412] relu1_1 -> conv1_1 (in-place)
I0406 07:36:22.539952   621 net.cpp:160] Setting up relu1_1
I0406 07:36:22.539955   621 net.cpp:167] Top shape: 1 64 300 300 (5760000)
I0406 07:36:22.539959   621 net.cpp:175] Memory required for data: 54720004
I0406 07:36:22.539963   621 layer_factory.hpp:93] Creating layer conv1_2
I0406 07:36:22.539969   621 net.cpp:110] Creating Layer conv1_2
I0406 07:36:22.539973   621 net.cpp:451] conv1_2 <- conv1_1
I0406 07:36:22.539978   621 net.cpp:425] conv1_2 -> conv1_2
I0406 07:36:22.540426   621 net.cpp:160] Setting up conv1_2
I0406 07:36:22.540433   621 net.cpp:167] Top shape: 1 64 300 300 (5760000)
I0406 07:36:22.540438   621 net.cpp:175] Memory required for data: 77760004
I0406 07:36:22.540444   621 layer_factory.hpp:93] Creating layer relu1_2
I0406 07:36:22.540449   621 net.cpp:110] Creating Layer relu1_2
I0406 07:36:22.540453   621 net.cpp:451] relu1_2 <- conv1_2
I0406 07:36:22.540457   621 net.cpp:412] relu1_2 -> conv1_2 (in-place)
I0406 07:36:22.540462   621 net.cpp:160] Setting up relu1_2
I0406 07:36:22.540465   621 net.cpp:167] Top shape: 1 64 300 300 (5760000)
I0406 07:36:22.540469   621 net.cpp:175] Memory required for data: 100800004
I0406 07:36:22.540473   621 layer_factory.hpp:93] Creating layer pool1
I0406 07:36:22.540478   621 net.cpp:110] Creating Layer pool1
I0406 07:36:22.540482   621 net.cpp:451] pool1 <- conv1_2
I0406 07:36:22.540485   621 net.cpp:425] pool1 -> pool1
I0406 07:36:22.540518   621 net.cpp:160] Setting up pool1
I0406 07:36:22.540522   621 net.cpp:167] Top shape: 1 64 150 150 (1440000)
I0406 07:36:22.540527   621 net.cpp:175] Memory required for data: 106560004
I0406 07:36:22.540530   621 layer_factory.hpp:93] Creating layer conv2_1
I0406 07:36:22.540535   621 net.cpp:110] Creating Layer conv2_1
I0406 07:36:22.540539   621 net.cpp:451] conv2_1 <- pool1
I0406 07:36:22.540544   621 net.cpp:425] conv2_1 -> conv2_1
I0406 07:36:22.541601   621 net.cpp:160] Setting up conv2_1
I0406 07:36:22.541612   621 net.cpp:167] Top shape: 1 128 150 150 (2880000)
I0406 07:36:22.541618   621 net.cpp:175] Memory required for data: 118080004
I0406 07:36:22.541625   621 layer_factory.hpp:93] Creating layer relu2_1
I0406 07:36:22.541631   621 net.cpp:110] Creating Layer relu2_1
I0406 07:36:22.541635   621 net.cpp:451] relu2_1 <- conv2_1
I0406 07:36:22.541640   621 net.cpp:412] relu2_1 -> conv2_1 (in-place)
I0406 07:36:22.541646   621 net.cpp:160] Setting up relu2_1
I0406 07:36:22.541649   621 net.cpp:167] Top shape: 1 128 150 150 (2880000)
I0406 07:36:22.541654   621 net.cpp:175] Memory required for data: 129600004
I0406 07:36:22.541657   621 layer_factory.hpp:93] Creating layer conv2_2
I0406 07:36:22.541664   621 net.cpp:110] Creating Layer conv2_2
I0406 07:36:22.541667   621 net.cpp:451] conv2_2 <- conv2_1
I0406 07:36:22.541671   621 net.cpp:425] conv2_2 -> conv2_2
I0406 07:36:22.542732   621 net.cpp:160] Setting up conv2_2
I0406 07:36:22.542739   621 net.cpp:167] Top shape: 1 128 150 150 (2880000)
I0406 07:36:22.542744   621 net.cpp:175] Memory required for data: 141120004
I0406 07:36:22.542749   621 layer_factory.hpp:93] Creating layer relu2_2
I0406 07:36:22.542754   621 net.cpp:110] Creating Layer relu2_2
I0406 07:36:22.542757   621 net.cpp:451] relu2_2 <- conv2_2
I0406 07:36:22.542762   621 net.cpp:412] relu2_2 -> conv2_2 (in-place)
I0406 07:36:22.542768   621 net.cpp:160] Setting up relu2_2
I0406 07:36:22.542770   621 net.cpp:167] Top shape: 1 128 150 150 (2880000)
I0406 07:36:22.542774   621 net.cpp:175] Memory required for data: 152640004
I0406 07:36:22.542778   621 layer_factory.hpp:93] Creating layer pool2
I0406 07:36:22.542783   621 net.cpp:110] Creating Layer pool2
I0406 07:36:22.542785   621 net.cpp:451] pool2 <- conv2_2
I0406 07:36:22.542789   621 net.cpp:425] pool2 -> pool2
I0406 07:36:22.542820   621 net.cpp:160] Setting up pool2
I0406 07:36:22.542824   621 net.cpp:167] Top shape: 1 128 75 75 (720000)
I0406 07:36:22.542829   621 net.cpp:175] Memory required for data: 155520004
I0406 07:36:22.542831   621 layer_factory.hpp:93] Creating layer conv3_1
I0406 07:36:22.542838   621 net.cpp:110] Creating Layer conv3_1
I0406 07:36:22.542841   621 net.cpp:451] conv3_1 <- pool2
I0406 07:36:22.542845   621 net.cpp:425] conv3_1 -> conv3_1
I0406 07:36:22.545974   621 net.cpp:160] Setting up conv3_1
I0406 07:36:22.545986   621 net.cpp:167] Top shape: 1 256 75 75 (1440000)
I0406 07:36:22.545992   621 net.cpp:175] Memory required for data: 161280004
I0406 07:36:22.546000   621 layer_factory.hpp:93] Creating layer relu3_1
I0406 07:36:22.546005   621 net.cpp:110] Creating Layer relu3_1
I0406 07:36:22.546010   621 net.cpp:451] relu3_1 <- conv3_1
I0406 07:36:22.546015   621 net.cpp:412] relu3_1 -> conv3_1 (in-place)
I0406 07:36:22.546020   621 net.cpp:160] Setting up relu3_1
I0406 07:36:22.546023   621 net.cpp:167] Top shape: 1 256 75 75 (1440000)
I0406 07:36:22.546027   621 net.cpp:175] Memory required for data: 167040004
I0406 07:36:22.546030   621 layer_factory.hpp:93] Creating layer conv3_2
I0406 07:36:22.546038   621 net.cpp:110] Creating Layer conv3_2
I0406 07:36:22.546041   621 net.cpp:451] conv3_2 <- conv3_1
I0406 07:36:22.546046   621 net.cpp:425] conv3_2 -> conv3_2
I0406 07:36:22.550909   621 net.cpp:160] Setting up conv3_2
I0406 07:36:22.550922   621 net.cpp:167] Top shape: 1 256 75 75 (1440000)
I0406 07:36:22.550928   621 net.cpp:175] Memory required for data: 172800004
I0406 07:36:22.550935   621 layer_factory.hpp:93] Creating layer relu3_2
I0406 07:36:22.550941   621 net.cpp:110] Creating Layer relu3_2
I0406 07:36:22.550945   621 net.cpp:451] relu3_2 <- conv3_2
I0406 07:36:22.550949   621 net.cpp:412] relu3_2 -> conv3_2 (in-place)
I0406 07:36:22.550956   621 net.cpp:160] Setting up relu3_2
I0406 07:36:22.550959   621 net.cpp:167] Top shape: 1 256 75 75 (1440000)
I0406 07:36:22.550963   621 net.cpp:175] Memory required for data: 178560004
I0406 07:36:22.550966   621 layer_factory.hpp:93] Creating layer conv3_3
I0406 07:36:22.550974   621 net.cpp:110] Creating Layer conv3_3
I0406 07:36:22.550977   621 net.cpp:451] conv3_3 <- conv3_2
I0406 07:36:22.550982   621 net.cpp:425] conv3_3 -> conv3_3
I0406 07:36:22.555850   621 net.cpp:160] Setting up conv3_3
I0406 07:36:22.555863   621 net.cpp:167] Top shape: 1 256 75 75 (1440000)
I0406 07:36:22.555871   621 net.cpp:175] Memory required for data: 184320004
I0406 07:36:22.555878   621 layer_factory.hpp:93] Creating layer relu3_3
I0406 07:36:22.555886   621 net.cpp:110] Creating Layer relu3_3
I0406 07:36:22.555889   621 net.cpp:451] relu3_3 <- conv3_3
I0406 07:36:22.555894   621 net.cpp:412] relu3_3 -> conv3_3 (in-place)
I0406 07:36:22.555902   621 net.cpp:160] Setting up relu3_3
I0406 07:36:22.555904   621 net.cpp:167] Top shape: 1 256 75 75 (1440000)
I0406 07:36:22.555908   621 net.cpp:175] Memory required for data: 190080004
I0406 07:36:22.555912   621 layer_factory.hpp:93] Creating layer pool3
I0406 07:36:22.555917   621 net.cpp:110] Creating Layer pool3
I0406 07:36:22.555920   621 net.cpp:451] pool3 <- conv3_3
I0406 07:36:22.555925   621 net.cpp:425] pool3 -> pool3
I0406 07:36:22.555956   621 net.cpp:160] Setting up pool3
I0406 07:36:22.555960   621 net.cpp:167] Top shape: 1 256 38 38 (369664)
I0406 07:36:22.555964   621 net.cpp:175] Memory required for data: 191558660
I0406 07:36:22.555968   621 layer_factory.hpp:93] Creating layer conv4_1
I0406 07:36:22.555976   621 net.cpp:110] Creating Layer conv4_1
I0406 07:36:22.555979   621 net.cpp:451] conv4_1 <- pool3
I0406 07:36:22.555984   621 net.cpp:425] conv4_1 -> conv4_1
I0406 07:36:22.566395   621 net.cpp:160] Setting up conv4_1
I0406 07:36:22.566406   621 net.cpp:167] Top shape: 1 512 38 38 (739328)
I0406 07:36:22.566412   621 net.cpp:175] Memory required for data: 194515972
I0406 07:36:22.566419   621 layer_factory.hpp:93] Creating layer relu4_1
I0406 07:36:22.566426   621 net.cpp:110] Creating Layer relu4_1
I0406 07:36:22.566428   621 net.cpp:451] relu4_1 <- conv4_1
I0406 07:36:22.566433   621 net.cpp:412] relu4_1 -> conv4_1 (in-place)
I0406 07:36:22.566440   621 net.cpp:160] Setting up relu4_1
I0406 07:36:22.566443   621 net.cpp:167] Top shape: 1 512 38 38 (739328)
I0406 07:36:22.566447   621 net.cpp:175] Memory required for data: 197473284
I0406 07:36:22.566452   621 layer_factory.hpp:93] Creating layer conv4_2
I0406 07:36:22.566458   621 net.cpp:110] Creating Layer conv4_2
I0406 07:36:22.566462   621 net.cpp:451] conv4_2 <- conv4_1
I0406 07:36:22.566467   621 net.cpp:425] conv4_2 -> conv4_2
I0406 07:36:22.584579   621 net.cpp:160] Setting up conv4_2
I0406 07:36:22.584594   621 net.cpp:167] Top shape: 1 512 38 38 (739328)
I0406 07:36:22.584601   621 net.cpp:175] Memory required for data: 200430596
I0406 07:36:22.584612   621 layer_factory.hpp:93] Creating layer relu4_2
I0406 07:36:22.584619   621 net.cpp:110] Creating Layer relu4_2
I0406 07:36:22.584625   621 net.cpp:451] relu4_2 <- conv4_2
I0406 07:36:22.584630   621 net.cpp:412] relu4_2 -> conv4_2 (in-place)
I0406 07:36:22.584636   621 net.cpp:160] Setting up relu4_2
I0406 07:36:22.584640   621 net.cpp:167] Top shape: 1 512 38 38 (739328)
I0406 07:36:22.584643   621 net.cpp:175] Memory required for data: 203387908
I0406 07:36:22.584646   621 layer_factory.hpp:93] Creating layer conv4_3
I0406 07:36:22.584656   621 net.cpp:110] Creating Layer conv4_3
I0406 07:36:22.584659   621 net.cpp:451] conv4_3 <- conv4_2
I0406 07:36:22.584663   621 net.cpp:425] conv4_3 -> conv4_3
I0406 07:36:22.602653   621 net.cpp:160] Setting up conv4_3
I0406 07:36:22.602669   621 net.cpp:167] Top shape: 1 512 38 38 (739328)
I0406 07:36:22.602676   621 net.cpp:175] Memory required for data: 206345220
I0406 07:36:22.602685   621 layer_factory.hpp:93] Creating layer conv4_3_bn
I0406 07:36:22.602696   621 net.cpp:110] Creating Layer conv4_3_bn
I0406 07:36:22.602701   621 net.cpp:451] conv4_3_bn <- conv4_3
I0406 07:36:22.602707   621 net.cpp:412] conv4_3_bn -> conv4_3 (in-place)
I0406 07:36:22.603265   621 net.cpp:160] Setting up conv4_3_bn
I0406 07:36:22.603272   621 net.cpp:167] Top shape: 1 512 38 38 (739328)
I0406 07:36:22.603277   621 net.cpp:175] Memory required for data: 209302532
I0406 07:36:22.603286   621 layer_factory.hpp:93] Creating layer relu4_3
I0406 07:36:22.603291   621 net.cpp:110] Creating Layer relu4_3
I0406 07:36:22.603293   621 net.cpp:451] relu4_3 <- conv4_3
I0406 07:36:22.603297   621 net.cpp:412] relu4_3 -> conv4_3 (in-place)
I0406 07:36:22.603304   621 net.cpp:160] Setting up relu4_3
I0406 07:36:22.603307   621 net.cpp:167] Top shape: 1 512 38 38 (739328)
I0406 07:36:22.603312   621 net.cpp:175] Memory required for data: 212259844
I0406 07:36:22.603314   621 layer_factory.hpp:93] Creating layer conv4_3_relu4_3_0_split
I0406 07:36:22.603320   621 net.cpp:110] Creating Layer conv4_3_relu4_3_0_split
I0406 07:36:22.603323   621 net.cpp:451] conv4_3_relu4_3_0_split <- conv4_3
I0406 07:36:22.603328   621 net.cpp:425] conv4_3_relu4_3_0_split -> conv4_3_relu4_3_0_split_0
I0406 07:36:22.603334   621 net.cpp:425] conv4_3_relu4_3_0_split -> conv4_3_relu4_3_0_split_1
I0406 07:36:22.603339   621 net.cpp:425] conv4_3_relu4_3_0_split -> conv4_3_relu4_3_0_split_2
I0406 07:36:22.603344   621 net.cpp:425] conv4_3_relu4_3_0_split -> conv4_3_relu4_3_0_split_3
I0406 07:36:22.603387   621 net.cpp:160] Setting up conv4_3_relu4_3_0_split
I0406 07:36:22.603391   621 net.cpp:167] Top shape: 1 512 38 38 (739328)
I0406 07:36:22.603395   621 net.cpp:167] Top shape: 1 512 38 38 (739328)
I0406 07:36:22.603399   621 net.cpp:167] Top shape: 1 512 38 38 (739328)
I0406 07:36:22.603402   621 net.cpp:167] Top shape: 1 512 38 38 (739328)
I0406 07:36:22.603406   621 net.cpp:175] Memory required for data: 224089092
I0406 07:36:22.603410   621 layer_factory.hpp:93] Creating layer pool4
I0406 07:36:22.603415   621 net.cpp:110] Creating Layer pool4
I0406 07:36:22.603420   621 net.cpp:451] pool4 <- conv4_3_relu4_3_0_split_0
I0406 07:36:22.603425   621 net.cpp:425] pool4 -> pool4
I0406 07:36:22.603448   621 net.cpp:160] Setting up pool4
I0406 07:36:22.603451   621 net.cpp:167] Top shape: 1 512 19 19 (184832)
I0406 07:36:22.603456   621 net.cpp:175] Memory required for data: 224828420
I0406 07:36:22.603459   621 layer_factory.hpp:93] Creating layer conv5_1
I0406 07:36:22.603467   621 net.cpp:110] Creating Layer conv5_1
I0406 07:36:22.603471   621 net.cpp:451] conv5_1 <- pool4
I0406 07:36:22.603475   621 net.cpp:425] conv5_1 -> conv5_1
I0406 07:36:22.621471   621 net.cpp:160] Setting up conv5_1
I0406 07:36:22.621488   621 net.cpp:167] Top shape: 1 512 19 19 (184832)
I0406 07:36:22.621495   621 net.cpp:175] Memory required for data: 225567748
I0406 07:36:22.621505   621 layer_factory.hpp:93] Creating layer relu5_1
I0406 07:36:22.621513   621 net.cpp:110] Creating Layer relu5_1
I0406 07:36:22.621518   621 net.cpp:451] relu5_1 <- conv5_1
I0406 07:36:22.621524   621 net.cpp:412] relu5_1 -> conv5_1 (in-place)
I0406 07:36:22.621533   621 net.cpp:160] Setting up relu5_1
I0406 07:36:22.621536   621 net.cpp:167] Top shape: 1 512 19 19 (184832)
I0406 07:36:22.621541   621 net.cpp:175] Memory required for data: 226307076
I0406 07:36:22.621543   621 layer_factory.hpp:93] Creating layer conv5_2
I0406 07:36:22.621552   621 net.cpp:110] Creating Layer conv5_2
I0406 07:36:22.621556   621 net.cpp:451] conv5_2 <- conv5_1
I0406 07:36:22.621560   621 net.cpp:425] conv5_2 -> conv5_2
I0406 07:36:22.639608   621 net.cpp:160] Setting up conv5_2
I0406 07:36:22.639624   621 net.cpp:167] Top shape: 1 512 19 19 (184832)
I0406 07:36:22.639649   621 net.cpp:175] Memory required for data: 227046404
I0406 07:36:22.639658   621 layer_factory.hpp:93] Creating layer relu5_2
I0406 07:36:22.639667   621 net.cpp:110] Creating Layer relu5_2
I0406 07:36:22.639672   621 net.cpp:451] relu5_2 <- conv5_2
I0406 07:36:22.639678   621 net.cpp:412] relu5_2 -> conv5_2 (in-place)
I0406 07:36:22.639686   621 net.cpp:160] Setting up relu5_2
I0406 07:36:22.639689   621 net.cpp:167] Top shape: 1 512 19 19 (184832)
I0406 07:36:22.639693   621 net.cpp:175] Memory required for data: 227785732
I0406 07:36:22.639696   621 layer_factory.hpp:93] Creating layer conv5_3
I0406 07:36:22.639706   621 net.cpp:110] Creating Layer conv5_3
I0406 07:36:22.639710   621 net.cpp:451] conv5_3 <- conv5_2
I0406 07:36:22.639715   621 net.cpp:425] conv5_3 -> conv5_3
I0406 07:36:22.658411   621 net.cpp:160] Setting up conv5_3
I0406 07:36:22.658430   621 net.cpp:167] Top shape: 1 512 19 19 (184832)
I0406 07:36:22.658454   621 net.cpp:175] Memory required for data: 228525060
I0406 07:36:22.658463   621 layer_factory.hpp:93] Creating layer relu5_3
I0406 07:36:22.658473   621 net.cpp:110] Creating Layer relu5_3
I0406 07:36:22.658478   621 net.cpp:451] relu5_3 <- conv5_3
I0406 07:36:22.658484   621 net.cpp:412] relu5_3 -> conv5_3 (in-place)
I0406 07:36:22.658494   621 net.cpp:160] Setting up relu5_3
I0406 07:36:22.658497   621 net.cpp:167] Top shape: 1 512 19 19 (184832)
I0406 07:36:22.658501   621 net.cpp:175] Memory required for data: 229264388
I0406 07:36:22.658504   621 layer_factory.hpp:93] Creating layer pool5
I0406 07:36:22.658510   621 net.cpp:110] Creating Layer pool5
I0406 07:36:22.658514   621 net.cpp:451] pool5 <- conv5_3
I0406 07:36:22.658519   621 net.cpp:425] pool5 -> pool5
I0406 07:36:22.658555   621 net.cpp:160] Setting up pool5
I0406 07:36:22.658567   621 net.cpp:167] Top shape: 1 512 19 19 (184832)
I0406 07:36:22.658571   621 net.cpp:175] Memory required for data: 230003716
I0406 07:36:22.658576   621 layer_factory.hpp:93] Creating layer fc6_682
I0406 07:36:22.658584   621 net.cpp:110] Creating Layer fc6_682
I0406 07:36:22.658587   621 net.cpp:451] fc6_682 <- pool5
I0406 07:36:22.658592   621 net.cpp:425] fc6_682 -> fc6_682
I0406 07:36:22.682381   621 net.cpp:160] Setting up fc6_682
I0406 07:36:22.682400   621 net.cpp:167] Top shape: 1 682 19 19 (246202)
I0406 07:36:22.682410   621 net.cpp:175] Memory required for data: 230988524
I0406 07:36:22.682425   621 layer_factory.hpp:93] Creating layer relu6
I0406 07:36:22.682433   621 net.cpp:110] Creating Layer relu6
I0406 07:36:22.682438   621 net.cpp:451] relu6 <- fc6_682
I0406 07:36:22.682446   621 net.cpp:412] relu6 -> fc6_682 (in-place)
I0406 07:36:22.682457   621 net.cpp:160] Setting up relu6
I0406 07:36:22.682461   621 net.cpp:167] Top shape: 1 682 19 19 (246202)
I0406 07:36:22.682464   621 net.cpp:175] Memory required for data: 231973332
I0406 07:36:22.682467   621 layer_factory.hpp:93] Creating layer fc7_682
I0406 07:36:22.682476   621 net.cpp:110] Creating Layer fc7_682
I0406 07:36:22.682479   621 net.cpp:451] fc7_682 <- fc6_682
I0406 07:36:22.682484   621 net.cpp:425] fc7_682 -> fc7_682
I0406 07:36:22.688107   621 net.cpp:160] Setting up fc7_682
I0406 07:36:22.688118   621 net.cpp:167] Top shape: 1 1024 19 19 (369664)
I0406 07:36:22.688124   621 net.cpp:175] Memory required for data: 233451988
I0406 07:36:22.688131   621 layer_factory.hpp:93] Creating layer relu7
I0406 07:36:22.688138   621 net.cpp:110] Creating Layer relu7
I0406 07:36:22.688141   621 net.cpp:451] relu7 <- fc7_682
I0406 07:36:22.688145   621 net.cpp:412] relu7 -> fc7_682 (in-place)
I0406 07:36:22.688153   621 net.cpp:160] Setting up relu7
I0406 07:36:22.688155   621 net.cpp:167] Top shape: 1 1024 19 19 (369664)
I0406 07:36:22.688159   621 net.cpp:175] Memory required for data: 234930644
I0406 07:36:22.688163   621 layer_factory.hpp:93] Creating layer fc7_682_relu7_0_split
I0406 07:36:22.688167   621 net.cpp:110] Creating Layer fc7_682_relu7_0_split
I0406 07:36:22.688170   621 net.cpp:451] fc7_682_relu7_0_split <- fc7_682
I0406 07:36:22.688175   621 net.cpp:425] fc7_682_relu7_0_split -> fc7_682_relu7_0_split_0
I0406 07:36:22.688185   621 net.cpp:425] fc7_682_relu7_0_split -> fc7_682_relu7_0_split_1
I0406 07:36:22.688190   621 net.cpp:425] fc7_682_relu7_0_split -> fc7_682_relu7_0_split_2
I0406 07:36:22.688195   621 net.cpp:425] fc7_682_relu7_0_split -> fc7_682_relu7_0_split_3
I0406 07:36:22.688243   621 net.cpp:160] Setting up fc7_682_relu7_0_split
I0406 07:36:22.688247   621 net.cpp:167] Top shape: 1 1024 19 19 (369664)
I0406 07:36:22.688252   621 net.cpp:167] Top shape: 1 1024 19 19 (369664)
I0406 07:36:22.688256   621 net.cpp:167] Top shape: 1 1024 19 19 (369664)
I0406 07:36:22.688259   621 net.cpp:167] Top shape: 1 1024 19 19 (369664)
I0406 07:36:22.688263   621 net.cpp:175] Memory required for data: 240845268
I0406 07:36:22.688266   621 layer_factory.hpp:93] Creating layer conv6_1
I0406 07:36:22.688274   621 net.cpp:110] Creating Layer conv6_1
I0406 07:36:22.688277   621 net.cpp:451] conv6_1 <- fc7_682_relu7_0_split_0
I0406 07:36:22.688283   621 net.cpp:425] conv6_1 -> conv6_1
I0406 07:36:22.690543   621 net.cpp:160] Setting up conv6_1
I0406 07:36:22.690554   621 net.cpp:167] Top shape: 1 256 19 19 (92416)
I0406 07:36:22.690559   621 net.cpp:175] Memory required for data: 241214932
I0406 07:36:22.690565   621 layer_factory.hpp:93] Creating layer conv6_1_relu
I0406 07:36:22.690572   621 net.cpp:110] Creating Layer conv6_1_relu
I0406 07:36:22.690575   621 net.cpp:451] conv6_1_relu <- conv6_1
I0406 07:36:22.690579   621 net.cpp:412] conv6_1_relu -> conv6_1 (in-place)
I0406 07:36:22.690587   621 net.cpp:160] Setting up conv6_1_relu
I0406 07:36:22.690589   621 net.cpp:167] Top shape: 1 256 19 19 (92416)
I0406 07:36:22.690593   621 net.cpp:175] Memory required for data: 241584596
I0406 07:36:22.690596   621 layer_factory.hpp:93] Creating layer conv6_2
I0406 07:36:22.690603   621 net.cpp:110] Creating Layer conv6_2
I0406 07:36:22.690606   621 net.cpp:451] conv6_2 <- conv6_1
I0406 07:36:22.690610   621 net.cpp:425] conv6_2 -> conv6_2
I0406 07:36:22.699707   621 net.cpp:160] Setting up conv6_2
I0406 07:36:22.699719   621 net.cpp:167] Top shape: 1 512 10 10 (51200)
I0406 07:36:22.699725   621 net.cpp:175] Memory required for data: 241789396
I0406 07:36:22.699731   621 layer_factory.hpp:93] Creating layer conv6_2_relu
I0406 07:36:22.699736   621 net.cpp:110] Creating Layer conv6_2_relu
I0406 07:36:22.699740   621 net.cpp:451] conv6_2_relu <- conv6_2
I0406 07:36:22.699745   621 net.cpp:412] conv6_2_relu -> conv6_2 (in-place)
I0406 07:36:22.699751   621 net.cpp:160] Setting up conv6_2_relu
I0406 07:36:22.699754   621 net.cpp:167] Top shape: 1 512 10 10 (51200)
I0406 07:36:22.699759   621 net.cpp:175] Memory required for data: 241994196
I0406 07:36:22.699762   621 layer_factory.hpp:93] Creating layer conv6_2_conv6_2_relu_0_split
I0406 07:36:22.699767   621 net.cpp:110] Creating Layer conv6_2_conv6_2_relu_0_split
I0406 07:36:22.699770   621 net.cpp:451] conv6_2_conv6_2_relu_0_split <- conv6_2
I0406 07:36:22.699774   621 net.cpp:425] conv6_2_conv6_2_relu_0_split -> conv6_2_conv6_2_relu_0_split_0
I0406 07:36:22.699780   621 net.cpp:425] conv6_2_conv6_2_relu_0_split -> conv6_2_conv6_2_relu_0_split_1
I0406 07:36:22.699785   621 net.cpp:425] conv6_2_conv6_2_relu_0_split -> conv6_2_conv6_2_relu_0_split_2
I0406 07:36:22.699790   621 net.cpp:425] conv6_2_conv6_2_relu_0_split -> conv6_2_conv6_2_relu_0_split_3
I0406 07:36:22.699841   621 net.cpp:160] Setting up conv6_2_conv6_2_relu_0_split
I0406 07:36:22.699846   621 net.cpp:167] Top shape: 1 512 10 10 (51200)
I0406 07:36:22.699851   621 net.cpp:167] Top shape: 1 512 10 10 (51200)
I0406 07:36:22.699856   621 net.cpp:167] Top shape: 1 512 10 10 (51200)
I0406 07:36:22.699859   621 net.cpp:167] Top shape: 1 512 10 10 (51200)
I0406 07:36:22.699863   621 net.cpp:175] Memory required for data: 242813396
I0406 07:36:22.699867   621 layer_factory.hpp:93] Creating layer conv7_1
I0406 07:36:22.699875   621 net.cpp:110] Creating Layer conv7_1
I0406 07:36:22.699878   621 net.cpp:451] conv7_1 <- conv6_2_conv6_2_relu_0_split_0
I0406 07:36:22.699883   621 net.cpp:425] conv7_1 -> conv7_1
I0406 07:36:22.700455   621 net.cpp:160] Setting up conv7_1
I0406 07:36:22.700462   621 net.cpp:167] Top shape: 1 128 10 10 (12800)
I0406 07:36:22.700469   621 net.cpp:175] Memory required for data: 242864596
I0406 07:36:22.700474   621 layer_factory.hpp:93] Creating layer conv7_1_relu
I0406 07:36:22.700479   621 net.cpp:110] Creating Layer conv7_1_relu
I0406 07:36:22.700481   621 net.cpp:451] conv7_1_relu <- conv7_1
I0406 07:36:22.700485   621 net.cpp:412] conv7_1_relu -> conv7_1 (in-place)
I0406 07:36:22.700491   621 net.cpp:160] Setting up conv7_1_relu
I0406 07:36:22.700495   621 net.cpp:167] Top shape: 1 128 10 10 (12800)
I0406 07:36:22.700498   621 net.cpp:175] Memory required for data: 242915796
I0406 07:36:22.700501   621 layer_factory.hpp:93] Creating layer conv7_2
I0406 07:36:22.700507   621 net.cpp:110] Creating Layer conv7_2
I0406 07:36:22.700510   621 net.cpp:451] conv7_2 <- conv7_1
I0406 07:36:22.700515   621 net.cpp:425] conv7_2 -> conv7_2
I0406 07:36:22.703546   621 net.cpp:160] Setting up conv7_2
I0406 07:36:22.703557   621 net.cpp:167] Top shape: 1 256 5 5 (6400)
I0406 07:36:22.703562   621 net.cpp:175] Memory required for data: 242941396
I0406 07:36:22.703568   621 layer_factory.hpp:93] Creating layer conv7_2_relu
I0406 07:36:22.703573   621 net.cpp:110] Creating Layer conv7_2_relu
I0406 07:36:22.703577   621 net.cpp:451] conv7_2_relu <- conv7_2
I0406 07:36:22.703581   621 net.cpp:412] conv7_2_relu -> conv7_2 (in-place)
I0406 07:36:22.703588   621 net.cpp:160] Setting up conv7_2_relu
I0406 07:36:22.703590   621 net.cpp:167] Top shape: 1 256 5 5 (6400)
I0406 07:36:22.703595   621 net.cpp:175] Memory required for data: 242966996
I0406 07:36:22.703598   621 layer_factory.hpp:93] Creating layer conv7_2_conv7_2_relu_0_split
I0406 07:36:22.703603   621 net.cpp:110] Creating Layer conv7_2_conv7_2_relu_0_split
I0406 07:36:22.703605   621 net.cpp:451] conv7_2_conv7_2_relu_0_split <- conv7_2
I0406 07:36:22.703610   621 net.cpp:425] conv7_2_conv7_2_relu_0_split -> conv7_2_conv7_2_relu_0_split_0
I0406 07:36:22.703615   621 net.cpp:425] conv7_2_conv7_2_relu_0_split -> conv7_2_conv7_2_relu_0_split_1
I0406 07:36:22.703621   621 net.cpp:425] conv7_2_conv7_2_relu_0_split -> conv7_2_conv7_2_relu_0_split_2
I0406 07:36:22.703625   621 net.cpp:425] conv7_2_conv7_2_relu_0_split -> conv7_2_conv7_2_relu_0_split_3
I0406 07:36:22.703672   621 net.cpp:160] Setting up conv7_2_conv7_2_relu_0_split
I0406 07:36:22.703677   621 net.cpp:167] Top shape: 1 256 5 5 (6400)
I0406 07:36:22.703682   621 net.cpp:167] Top shape: 1 256 5 5 (6400)
I0406 07:36:22.703686   621 net.cpp:167] Top shape: 1 256 5 5 (6400)
I0406 07:36:22.703689   621 net.cpp:167] Top shape: 1 256 5 5 (6400)
I0406 07:36:22.703693   621 net.cpp:175] Memory required for data: 243069396
I0406 07:36:22.703696   621 layer_factory.hpp:93] Creating layer conv8_1
I0406 07:36:22.703704   621 net.cpp:110] Creating Layer conv8_1
I0406 07:36:22.703708   621 net.cpp:451] conv8_1 <- conv7_2_conv7_2_relu_0_split_0
I0406 07:36:22.703713   621 net.cpp:425] conv8_1 -> conv8_1
I0406 07:36:22.704097   621 net.cpp:160] Setting up conv8_1
I0406 07:36:22.704103   621 net.cpp:167] Top shape: 1 128 5 5 (3200)
I0406 07:36:22.704108   621 net.cpp:175] Memory required for data: 243082196
I0406 07:36:22.704113   621 layer_factory.hpp:93] Creating layer conv8_1_relu
I0406 07:36:22.704118   621 net.cpp:110] Creating Layer conv8_1_relu
I0406 07:36:22.704123   621 net.cpp:451] conv8_1_relu <- conv8_1
I0406 07:36:22.704126   621 net.cpp:412] conv8_1_relu -> conv8_1 (in-place)
I0406 07:36:22.704131   621 net.cpp:160] Setting up conv8_1_relu
I0406 07:36:22.704134   621 net.cpp:167] Top shape: 1 128 5 5 (3200)
I0406 07:36:22.704138   621 net.cpp:175] Memory required for data: 243094996
I0406 07:36:22.704143   621 layer_factory.hpp:93] Creating layer conv8_2
I0406 07:36:22.704149   621 net.cpp:110] Creating Layer conv8_2
I0406 07:36:22.704151   621 net.cpp:451] conv8_2 <- conv8_1
I0406 07:36:22.704156   621 net.cpp:425] conv8_2 -> conv8_2
I0406 07:36:22.707180   621 net.cpp:160] Setting up conv8_2
I0406 07:36:22.707191   621 net.cpp:167] Top shape: 1 256 3 3 (2304)
I0406 07:36:22.707197   621 net.cpp:175] Memory required for data: 243104212
I0406 07:36:22.707203   621 layer_factory.hpp:93] Creating layer conv8_2_relu
I0406 07:36:22.707209   621 net.cpp:110] Creating Layer conv8_2_relu
I0406 07:36:22.707213   621 net.cpp:451] conv8_2_relu <- conv8_2
I0406 07:36:22.707217   621 net.cpp:412] conv8_2_relu -> conv8_2 (in-place)
I0406 07:36:22.707223   621 net.cpp:160] Setting up conv8_2_relu
I0406 07:36:22.707226   621 net.cpp:167] Top shape: 1 256 3 3 (2304)
I0406 07:36:22.707231   621 net.cpp:175] Memory required for data: 243113428
I0406 07:36:22.707234   621 layer_factory.hpp:93] Creating layer conv8_2_conv8_2_relu_0_split
I0406 07:36:22.707238   621 net.cpp:110] Creating Layer conv8_2_conv8_2_relu_0_split
I0406 07:36:22.707242   621 net.cpp:451] conv8_2_conv8_2_relu_0_split <- conv8_2
I0406 07:36:22.707247   621 net.cpp:425] conv8_2_conv8_2_relu_0_split -> conv8_2_conv8_2_relu_0_split_0
I0406 07:36:22.707252   621 net.cpp:425] conv8_2_conv8_2_relu_0_split -> conv8_2_conv8_2_relu_0_split_1
I0406 07:36:22.707257   621 net.cpp:425] conv8_2_conv8_2_relu_0_split -> conv8_2_conv8_2_relu_0_split_2
I0406 07:36:22.707262   621 net.cpp:425] conv8_2_conv8_2_relu_0_split -> conv8_2_conv8_2_relu_0_split_3
I0406 07:36:22.707310   621 net.cpp:160] Setting up conv8_2_conv8_2_relu_0_split
I0406 07:36:22.707316   621 net.cpp:167] Top shape: 1 256 3 3 (2304)
I0406 07:36:22.707321   621 net.cpp:167] Top shape: 1 256 3 3 (2304)
I0406 07:36:22.707325   621 net.cpp:167] Top shape: 1 256 3 3 (2304)
I0406 07:36:22.707329   621 net.cpp:167] Top shape: 1 256 3 3 (2304)
I0406 07:36:22.707332   621 net.cpp:175] Memory required for data: 243150292
I0406 07:36:22.707335   621 layer_factory.hpp:93] Creating layer conv9_1
I0406 07:36:22.707343   621 net.cpp:110] Creating Layer conv9_1
I0406 07:36:22.707347   621 net.cpp:451] conv9_1 <- conv8_2_conv8_2_relu_0_split_0
I0406 07:36:22.707352   621 net.cpp:425] conv9_1 -> conv9_1
I0406 07:36:22.707734   621 net.cpp:160] Setting up conv9_1
I0406 07:36:22.707741   621 net.cpp:167] Top shape: 1 128 3 3 (1152)
I0406 07:36:22.707746   621 net.cpp:175] Memory required for data: 243154900
I0406 07:36:22.707751   621 layer_factory.hpp:93] Creating layer conv9_1_relu
I0406 07:36:22.707756   621 net.cpp:110] Creating Layer conv9_1_relu
I0406 07:36:22.707759   621 net.cpp:451] conv9_1_relu <- conv9_1
I0406 07:36:22.707763   621 net.cpp:412] conv9_1_relu -> conv9_1 (in-place)
I0406 07:36:22.707768   621 net.cpp:160] Setting up conv9_1_relu
I0406 07:36:22.707772   621 net.cpp:167] Top shape: 1 128 3 3 (1152)
I0406 07:36:22.707775   621 net.cpp:175] Memory required for data: 243159508
I0406 07:36:22.707778   621 layer_factory.hpp:93] Creating layer conv9_2
I0406 07:36:22.707785   621 net.cpp:110] Creating Layer conv9_2
I0406 07:36:22.707788   621 net.cpp:451] conv9_2 <- conv9_1
I0406 07:36:22.707793   621 net.cpp:425] conv9_2 -> conv9_2
I0406 07:36:22.710847   621 net.cpp:160] Setting up conv9_2
I0406 07:36:22.710858   621 net.cpp:167] Top shape: 1 256 1 1 (256)
I0406 07:36:22.710863   621 net.cpp:175] Memory required for data: 243160532
I0406 07:36:22.710870   621 layer_factory.hpp:93] Creating layer conv9_2_relu
I0406 07:36:22.710876   621 net.cpp:110] Creating Layer conv9_2_relu
I0406 07:36:22.710880   621 net.cpp:451] conv9_2_relu <- conv9_2
I0406 07:36:22.710884   621 net.cpp:412] conv9_2_relu -> conv9_2 (in-place)
I0406 07:36:22.710891   621 net.cpp:160] Setting up conv9_2_relu
I0406 07:36:22.710896   621 net.cpp:167] Top shape: 1 256 1 1 (256)
I0406 07:36:22.710899   621 net.cpp:175] Memory required for data: 243161556
I0406 07:36:22.710902   621 layer_factory.hpp:93] Creating layer conv9_2_conv9_2_relu_0_split
I0406 07:36:22.710907   621 net.cpp:110] Creating Layer conv9_2_conv9_2_relu_0_split
I0406 07:36:22.710911   621 net.cpp:451] conv9_2_conv9_2_relu_0_split <- conv9_2
I0406 07:36:22.710914   621 net.cpp:425] conv9_2_conv9_2_relu_0_split -> conv9_2_conv9_2_relu_0_split_0
I0406 07:36:22.710920   621 net.cpp:425] conv9_2_conv9_2_relu_0_split -> conv9_2_conv9_2_relu_0_split_1
I0406 07:36:22.710925   621 net.cpp:425] conv9_2_conv9_2_relu_0_split -> conv9_2_conv9_2_relu_0_split_2
I0406 07:36:22.710964   621 net.cpp:160] Setting up conv9_2_conv9_2_relu_0_split
I0406 07:36:22.710970   621 net.cpp:167] Top shape: 1 256 1 1 (256)
I0406 07:36:22.710974   621 net.cpp:167] Top shape: 1 256 1 1 (256)
I0406 07:36:22.710978   621 net.cpp:167] Top shape: 1 256 1 1 (256)
I0406 07:36:22.710983   621 net.cpp:175] Memory required for data: 243164628
I0406 07:36:22.710985   621 layer_factory.hpp:93] Creating layer conv4_3_norm_mbox_loc
I0406 07:36:22.710994   621 net.cpp:110] Creating Layer conv4_3_norm_mbox_loc
I0406 07:36:22.710997   621 net.cpp:451] conv4_3_norm_mbox_loc <- conv4_3_relu4_3_0_split_1
I0406 07:36:22.711002   621 net.cpp:425] conv4_3_norm_mbox_loc -> conv4_3_norm_mbox_loc
I0406 07:36:22.711632   621 net.cpp:160] Setting up conv4_3_norm_mbox_loc
I0406 07:36:22.711638   621 net.cpp:167] Top shape: 1 16 38 38 (23104)
I0406 07:36:22.711644   621 net.cpp:175] Memory required for data: 243257044
I0406 07:36:22.711649   621 layer_factory.hpp:93] Creating layer conv4_3_norm_mbox_loc_perm
I0406 07:36:22.711657   621 net.cpp:110] Creating Layer conv4_3_norm_mbox_loc_perm
I0406 07:36:22.711659   621 net.cpp:451] conv4_3_norm_mbox_loc_perm <- conv4_3_norm_mbox_loc
I0406 07:36:22.711664   621 net.cpp:425] conv4_3_norm_mbox_loc_perm -> conv4_3_norm_mbox_loc_perm
I0406 07:36:22.711742   621 net.cpp:160] Setting up conv4_3_norm_mbox_loc_perm
I0406 07:36:22.711748   621 net.cpp:167] Top shape: 1 38 38 16 (23104)
I0406 07:36:22.711753   621 net.cpp:175] Memory required for data: 243349460
I0406 07:36:22.711756   621 layer_factory.hpp:93] Creating layer conv4_3_norm_mbox_loc_flat
I0406 07:36:22.711767   621 net.cpp:110] Creating Layer conv4_3_norm_mbox_loc_flat
I0406 07:36:22.711771   621 net.cpp:451] conv4_3_norm_mbox_loc_flat <- conv4_3_norm_mbox_loc_perm
I0406 07:36:22.711776   621 net.cpp:425] conv4_3_norm_mbox_loc_flat -> conv4_3_norm_mbox_loc_flat
I0406 07:36:22.711796   621 net.cpp:160] Setting up conv4_3_norm_mbox_loc_flat
I0406 07:36:22.711802   621 net.cpp:167] Top shape: 1 23104 (23104)
I0406 07:36:22.711805   621 net.cpp:175] Memory required for data: 243441876
I0406 07:36:22.711808   621 layer_factory.hpp:93] Creating layer conv4_3_norm_mbox_conf
I0406 07:36:22.711815   621 net.cpp:110] Creating Layer conv4_3_norm_mbox_conf
I0406 07:36:22.711819   621 net.cpp:451] conv4_3_norm_mbox_conf <- conv4_3_relu4_3_0_split_2
I0406 07:36:22.711824   621 net.cpp:425] conv4_3_norm_mbox_conf -> conv4_3_norm_mbox_conf
I0406 07:36:22.715384   621 net.cpp:160] Setting up conv4_3_norm_mbox_conf
I0406 07:36:22.715394   621 net.cpp:167] Top shape: 1 84 38 38 (121296)
I0406 07:36:22.715400   621 net.cpp:175] Memory required for data: 243927060
I0406 07:36:22.715406   621 layer_factory.hpp:93] Creating layer conv4_3_norm_mbox_conf_perm
I0406 07:36:22.715416   621 net.cpp:110] Creating Layer conv4_3_norm_mbox_conf_perm
I0406 07:36:22.715420   621 net.cpp:451] conv4_3_norm_mbox_conf_perm <- conv4_3_norm_mbox_conf
I0406 07:36:22.715425   621 net.cpp:425] conv4_3_norm_mbox_conf_perm -> conv4_3_norm_mbox_conf_perm
I0406 07:36:22.715504   621 net.cpp:160] Setting up conv4_3_norm_mbox_conf_perm
I0406 07:36:22.715510   621 net.cpp:167] Top shape: 1 38 38 84 (121296)
I0406 07:36:22.715515   621 net.cpp:175] Memory required for data: 244412244
I0406 07:36:22.715519   621 layer_factory.hpp:93] Creating layer conv4_3_norm_mbox_conf_flat
I0406 07:36:22.715524   621 net.cpp:110] Creating Layer conv4_3_norm_mbox_conf_flat
I0406 07:36:22.715528   621 net.cpp:451] conv4_3_norm_mbox_conf_flat <- conv4_3_norm_mbox_conf_perm
I0406 07:36:22.715533   621 net.cpp:425] conv4_3_norm_mbox_conf_flat -> conv4_3_norm_mbox_conf_flat
I0406 07:36:22.715549   621 net.cpp:160] Setting up conv4_3_norm_mbox_conf_flat
I0406 07:36:22.715553   621 net.cpp:167] Top shape: 1 121296 (121296)
I0406 07:36:22.715557   621 net.cpp:175] Memory required for data: 244897428
I0406 07:36:22.715560   621 layer_factory.hpp:93] Creating layer conv4_3_norm_mbox_priorbox
I0406 07:36:22.715567   621 net.cpp:110] Creating Layer conv4_3_norm_mbox_priorbox
I0406 07:36:22.715570   621 net.cpp:451] conv4_3_norm_mbox_priorbox <- conv4_3_relu4_3_0_split_3
I0406 07:36:22.715574   621 net.cpp:451] conv4_3_norm_mbox_priorbox <- data_data_0_split_1
I0406 07:36:22.715579   621 net.cpp:425] conv4_3_norm_mbox_priorbox -> conv4_3_norm_mbox_priorbox
I0406 07:36:22.715600   621 net.cpp:160] Setting up conv4_3_norm_mbox_priorbox
I0406 07:36:22.715605   621 net.cpp:167] Top shape: 1 2 23104 (46208)
I0406 07:36:22.715610   621 net.cpp:175] Memory required for data: 245082260
I0406 07:36:22.715613   621 layer_factory.hpp:93] Creating layer fc7_mbox_loc
I0406 07:36:22.715620   621 net.cpp:110] Creating Layer fc7_mbox_loc
I0406 07:36:22.715624   621 net.cpp:451] fc7_mbox_loc <- fc7_682_relu7_0_split_1
I0406 07:36:22.715629   621 net.cpp:425] fc7_mbox_loc -> fc7_mbox_loc
I0406 07:36:22.717051   621 net.cpp:160] Setting up fc7_mbox_loc
I0406 07:36:22.717059   621 net.cpp:167] Top shape: 1 24 19 19 (8664)
I0406 07:36:22.717065   621 net.cpp:175] Memory required for data: 245116916
I0406 07:36:22.717070   621 layer_factory.hpp:93] Creating layer fc7_mbox_loc_perm
I0406 07:36:22.717077   621 net.cpp:110] Creating Layer fc7_mbox_loc_perm
I0406 07:36:22.717080   621 net.cpp:451] fc7_mbox_loc_perm <- fc7_mbox_loc
I0406 07:36:22.717085   621 net.cpp:425] fc7_mbox_loc_perm -> fc7_mbox_loc_perm
I0406 07:36:22.717166   621 net.cpp:160] Setting up fc7_mbox_loc_perm
I0406 07:36:22.717171   621 net.cpp:167] Top shape: 1 19 19 24 (8664)
I0406 07:36:22.717176   621 net.cpp:175] Memory required for data: 245151572
I0406 07:36:22.717180   621 layer_factory.hpp:93] Creating layer fc7_mbox_loc_flat
I0406 07:36:22.717185   621 net.cpp:110] Creating Layer fc7_mbox_loc_flat
I0406 07:36:22.717190   621 net.cpp:451] fc7_mbox_loc_flat <- fc7_mbox_loc_perm
I0406 07:36:22.717193   621 net.cpp:425] fc7_mbox_loc_flat -> fc7_mbox_loc_flat
I0406 07:36:22.717212   621 net.cpp:160] Setting up fc7_mbox_loc_flat
I0406 07:36:22.717219   621 net.cpp:167] Top shape: 1 8664 (8664)
I0406 07:36:22.717223   621 net.cpp:175] Memory required for data: 245186228
I0406 07:36:22.717227   621 layer_factory.hpp:93] Creating layer fc7_mbox_conf
I0406 07:36:22.717234   621 net.cpp:110] Creating Layer fc7_mbox_conf
I0406 07:36:22.717237   621 net.cpp:451] fc7_mbox_conf <- fc7_682_relu7_0_split_2
I0406 07:36:22.717242   621 net.cpp:425] fc7_mbox_conf -> fc7_mbox_conf
I0406 07:36:22.726284   621 net.cpp:160] Setting up fc7_mbox_conf
I0406 07:36:22.726297   621 net.cpp:167] Top shape: 1 126 19 19 (45486)
I0406 07:36:22.726305   621 net.cpp:175] Memory required for data: 245368172
I0406 07:36:22.726310   621 layer_factory.hpp:93] Creating layer fc7_mbox_conf_perm
I0406 07:36:22.726317   621 net.cpp:110] Creating Layer fc7_mbox_conf_perm
I0406 07:36:22.726322   621 net.cpp:451] fc7_mbox_conf_perm <- fc7_mbox_conf
I0406 07:36:22.726327   621 net.cpp:425] fc7_mbox_conf_perm -> fc7_mbox_conf_perm
I0406 07:36:22.726410   621 net.cpp:160] Setting up fc7_mbox_conf_perm
I0406 07:36:22.726416   621 net.cpp:167] Top shape: 1 19 19 126 (45486)
I0406 07:36:22.726421   621 net.cpp:175] Memory required for data: 245550116
I0406 07:36:22.726424   621 layer_factory.hpp:93] Creating layer fc7_mbox_conf_flat
I0406 07:36:22.726429   621 net.cpp:110] Creating Layer fc7_mbox_conf_flat
I0406 07:36:22.726433   621 net.cpp:451] fc7_mbox_conf_flat <- fc7_mbox_conf_perm
I0406 07:36:22.726438   621 net.cpp:425] fc7_mbox_conf_flat -> fc7_mbox_conf_flat
I0406 07:36:22.726455   621 net.cpp:160] Setting up fc7_mbox_conf_flat
I0406 07:36:22.726459   621 net.cpp:167] Top shape: 1 45486 (45486)
I0406 07:36:22.726464   621 net.cpp:175] Memory required for data: 245732060
I0406 07:36:22.726466   621 layer_factory.hpp:93] Creating layer fc7_mbox_priorbox
I0406 07:36:22.726472   621 net.cpp:110] Creating Layer fc7_mbox_priorbox
I0406 07:36:22.726475   621 net.cpp:451] fc7_mbox_priorbox <- fc7_682_relu7_0_split_3
I0406 07:36:22.726480   621 net.cpp:451] fc7_mbox_priorbox <- data_data_0_split_2
I0406 07:36:22.726485   621 net.cpp:425] fc7_mbox_priorbox -> fc7_mbox_priorbox
I0406 07:36:22.726503   621 net.cpp:160] Setting up fc7_mbox_priorbox
I0406 07:36:22.726506   621 net.cpp:167] Top shape: 1 2 8664 (17328)
I0406 07:36:22.726511   621 net.cpp:175] Memory required for data: 245801372
I0406 07:36:22.726514   621 layer_factory.hpp:93] Creating layer conv6_2_mbox_loc
I0406 07:36:22.726521   621 net.cpp:110] Creating Layer conv6_2_mbox_loc
I0406 07:36:22.726526   621 net.cpp:451] conv6_2_mbox_loc <- conv6_2_conv6_2_relu_0_split_1
I0406 07:36:22.726531   621 net.cpp:425] conv6_2_mbox_loc -> conv6_2_mbox_loc
I0406 07:36:22.727350   621 net.cpp:160] Setting up conv6_2_mbox_loc
I0406 07:36:22.727358   621 net.cpp:167] Top shape: 1 24 10 10 (2400)
I0406 07:36:22.727363   621 net.cpp:175] Memory required for data: 245810972
I0406 07:36:22.727368   621 layer_factory.hpp:93] Creating layer conv6_2_mbox_loc_perm
I0406 07:36:22.727375   621 net.cpp:110] Creating Layer conv6_2_mbox_loc_perm
I0406 07:36:22.727378   621 net.cpp:451] conv6_2_mbox_loc_perm <- conv6_2_mbox_loc
I0406 07:36:22.727383   621 net.cpp:425] conv6_2_mbox_loc_perm -> conv6_2_mbox_loc_perm
I0406 07:36:22.727463   621 net.cpp:160] Setting up conv6_2_mbox_loc_perm
I0406 07:36:22.727468   621 net.cpp:167] Top shape: 1 10 10 24 (2400)
I0406 07:36:22.727473   621 net.cpp:175] Memory required for data: 245820572
I0406 07:36:22.727476   621 layer_factory.hpp:93] Creating layer conv6_2_mbox_loc_flat
I0406 07:36:22.727481   621 net.cpp:110] Creating Layer conv6_2_mbox_loc_flat
I0406 07:36:22.727484   621 net.cpp:451] conv6_2_mbox_loc_flat <- conv6_2_mbox_loc_perm
I0406 07:36:22.727489   621 net.cpp:425] conv6_2_mbox_loc_flat -> conv6_2_mbox_loc_flat
I0406 07:36:22.727506   621 net.cpp:160] Setting up conv6_2_mbox_loc_flat
I0406 07:36:22.727509   621 net.cpp:167] Top shape: 1 2400 (2400)
I0406 07:36:22.727514   621 net.cpp:175] Memory required for data: 245830172
I0406 07:36:22.727517   621 layer_factory.hpp:93] Creating layer conv6_2_mbox_conf
I0406 07:36:22.727524   621 net.cpp:110] Creating Layer conv6_2_mbox_conf
I0406 07:36:22.727527   621 net.cpp:451] conv6_2_mbox_conf <- conv6_2_conv6_2_relu_0_split_2
I0406 07:36:22.727532   621 net.cpp:425] conv6_2_mbox_conf -> conv6_2_mbox_conf
I0406 07:36:22.732260   621 net.cpp:160] Setting up conv6_2_mbox_conf
I0406 07:36:22.732271   621 net.cpp:167] Top shape: 1 126 10 10 (12600)
I0406 07:36:22.732277   621 net.cpp:175] Memory required for data: 245880572
I0406 07:36:22.732283   621 layer_factory.hpp:93] Creating layer conv6_2_mbox_conf_perm
I0406 07:36:22.732290   621 net.cpp:110] Creating Layer conv6_2_mbox_conf_perm
I0406 07:36:22.732295   621 net.cpp:451] conv6_2_mbox_conf_perm <- conv6_2_mbox_conf
I0406 07:36:22.732300   621 net.cpp:425] conv6_2_mbox_conf_perm -> conv6_2_mbox_conf_perm
I0406 07:36:22.732378   621 net.cpp:160] Setting up conv6_2_mbox_conf_perm
I0406 07:36:22.732383   621 net.cpp:167] Top shape: 1 10 10 126 (12600)
I0406 07:36:22.732388   621 net.cpp:175] Memory required for data: 245930972
I0406 07:36:22.732391   621 layer_factory.hpp:93] Creating layer conv6_2_mbox_conf_flat
I0406 07:36:22.732396   621 net.cpp:110] Creating Layer conv6_2_mbox_conf_flat
I0406 07:36:22.732399   621 net.cpp:451] conv6_2_mbox_conf_flat <- conv6_2_mbox_conf_perm
I0406 07:36:22.732404   621 net.cpp:425] conv6_2_mbox_conf_flat -> conv6_2_mbox_conf_flat
I0406 07:36:22.732422   621 net.cpp:160] Setting up conv6_2_mbox_conf_flat
I0406 07:36:22.732426   621 net.cpp:167] Top shape: 1 12600 (12600)
I0406 07:36:22.732430   621 net.cpp:175] Memory required for data: 245981372
I0406 07:36:22.732434   621 layer_factory.hpp:93] Creating layer conv6_2_mbox_priorbox
I0406 07:36:22.732439   621 net.cpp:110] Creating Layer conv6_2_mbox_priorbox
I0406 07:36:22.732442   621 net.cpp:451] conv6_2_mbox_priorbox <- conv6_2_conv6_2_relu_0_split_3
I0406 07:36:22.732446   621 net.cpp:451] conv6_2_mbox_priorbox <- data_data_0_split_3
I0406 07:36:22.732451   621 net.cpp:425] conv6_2_mbox_priorbox -> conv6_2_mbox_priorbox
I0406 07:36:22.732470   621 net.cpp:160] Setting up conv6_2_mbox_priorbox
I0406 07:36:22.732473   621 net.cpp:167] Top shape: 1 2 2400 (4800)
I0406 07:36:22.732477   621 net.cpp:175] Memory required for data: 246000572
I0406 07:36:22.732481   621 layer_factory.hpp:93] Creating layer conv7_2_mbox_loc
I0406 07:36:22.732488   621 net.cpp:110] Creating Layer conv7_2_mbox_loc
I0406 07:36:22.732491   621 net.cpp:451] conv7_2_mbox_loc <- conv7_2_conv7_2_relu_0_split_1
I0406 07:36:22.732497   621 net.cpp:425] conv7_2_mbox_loc -> conv7_2_mbox_loc
I0406 07:36:22.733031   621 net.cpp:160] Setting up conv7_2_mbox_loc
I0406 07:36:22.733038   621 net.cpp:167] Top shape: 1 24 5 5 (600)
I0406 07:36:22.733043   621 net.cpp:175] Memory required for data: 246002972
I0406 07:36:22.733052   621 layer_factory.hpp:93] Creating layer conv7_2_mbox_loc_perm
I0406 07:36:22.733058   621 net.cpp:110] Creating Layer conv7_2_mbox_loc_perm
I0406 07:36:22.733062   621 net.cpp:451] conv7_2_mbox_loc_perm <- conv7_2_mbox_loc
I0406 07:36:22.733067   621 net.cpp:425] conv7_2_mbox_loc_perm -> conv7_2_mbox_loc_perm
I0406 07:36:22.733144   621 net.cpp:160] Setting up conv7_2_mbox_loc_perm
I0406 07:36:22.733150   621 net.cpp:167] Top shape: 1 5 5 24 (600)
I0406 07:36:22.733153   621 net.cpp:175] Memory required for data: 246005372
I0406 07:36:22.733156   621 layer_factory.hpp:93] Creating layer conv7_2_mbox_loc_flat
I0406 07:36:22.733161   621 net.cpp:110] Creating Layer conv7_2_mbox_loc_flat
I0406 07:36:22.733165   621 net.cpp:451] conv7_2_mbox_loc_flat <- conv7_2_mbox_loc_perm
I0406 07:36:22.733170   621 net.cpp:425] conv7_2_mbox_loc_flat -> conv7_2_mbox_loc_flat
I0406 07:36:22.733187   621 net.cpp:160] Setting up conv7_2_mbox_loc_flat
I0406 07:36:22.733191   621 net.cpp:167] Top shape: 1 600 (600)
I0406 07:36:22.733194   621 net.cpp:175] Memory required for data: 246007772
I0406 07:36:22.733197   621 layer_factory.hpp:93] Creating layer conv7_2_mbox_conf
I0406 07:36:22.733204   621 net.cpp:110] Creating Layer conv7_2_mbox_conf
I0406 07:36:22.733208   621 net.cpp:451] conv7_2_mbox_conf <- conv7_2_conv7_2_relu_0_split_2
I0406 07:36:22.733213   621 net.cpp:425] conv7_2_mbox_conf -> conv7_2_mbox_conf
I0406 07:36:22.738209   621 net.cpp:160] Setting up conv7_2_mbox_conf
I0406 07:36:22.738224   621 net.cpp:167] Top shape: 1 126 5 5 (3150)
I0406 07:36:22.738234   621 net.cpp:175] Memory required for data: 246020372
I0406 07:36:22.738242   621 layer_factory.hpp:93] Creating layer conv7_2_mbox_conf_perm
I0406 07:36:22.738251   621 net.cpp:110] Creating Layer conv7_2_mbox_conf_perm
I0406 07:36:22.738258   621 net.cpp:451] conv7_2_mbox_conf_perm <- conv7_2_mbox_conf
I0406 07:36:22.738266   621 net.cpp:425] conv7_2_mbox_conf_perm -> conv7_2_mbox_conf_perm
I0406 07:36:22.738369   621 net.cpp:160] Setting up conv7_2_mbox_conf_perm
I0406 07:36:22.738379   621 net.cpp:167] Top shape: 1 5 5 126 (3150)
I0406 07:36:22.738385   621 net.cpp:175] Memory required for data: 246032972
I0406 07:36:22.738390   621 layer_factory.hpp:93] Creating layer conv7_2_mbox_conf_flat
I0406 07:36:22.738397   621 net.cpp:110] Creating Layer conv7_2_mbox_conf_flat
I0406 07:36:22.738409   621 net.cpp:451] conv7_2_mbox_conf_flat <- conv7_2_mbox_conf_perm
I0406 07:36:22.738416   621 net.cpp:425] conv7_2_mbox_conf_flat -> conv7_2_mbox_conf_flat
I0406 07:36:22.738442   621 net.cpp:160] Setting up conv7_2_mbox_conf_flat
I0406 07:36:22.738449   621 net.cpp:167] Top shape: 1 3150 (3150)
I0406 07:36:22.738456   621 net.cpp:175] Memory required for data: 246045572
I0406 07:36:22.738462   621 layer_factory.hpp:93] Creating layer conv7_2_mbox_priorbox
I0406 07:36:22.738471   621 net.cpp:110] Creating Layer conv7_2_mbox_priorbox
I0406 07:36:22.738476   621 net.cpp:451] conv7_2_mbox_priorbox <- conv7_2_conv7_2_relu_0_split_3
I0406 07:36:22.738483   621 net.cpp:451] conv7_2_mbox_priorbox <- data_data_0_split_4
I0406 07:36:22.738490   621 net.cpp:425] conv7_2_mbox_priorbox -> conv7_2_mbox_priorbox
I0406 07:36:22.738518   621 net.cpp:160] Setting up conv7_2_mbox_priorbox
I0406 07:36:22.738526   621 net.cpp:167] Top shape: 1 2 600 (1200)
I0406 07:36:22.738533   621 net.cpp:175] Memory required for data: 246050372
I0406 07:36:22.738538   621 layer_factory.hpp:93] Creating layer conv8_2_mbox_loc
I0406 07:36:22.738550   621 net.cpp:110] Creating Layer conv8_2_mbox_loc
I0406 07:36:22.738556   621 net.cpp:451] conv8_2_mbox_loc <- conv8_2_conv8_2_relu_0_split_1
I0406 07:36:22.738564   621 net.cpp:425] conv8_2_mbox_loc -> conv8_2_mbox_loc
I0406 07:36:22.739230   621 net.cpp:160] Setting up conv8_2_mbox_loc
I0406 07:36:22.739238   621 net.cpp:167] Top shape: 1 16 3 3 (144)
I0406 07:36:22.739243   621 net.cpp:175] Memory required for data: 246050948
I0406 07:36:22.739248   621 layer_factory.hpp:93] Creating layer conv8_2_mbox_loc_perm
I0406 07:36:22.739254   621 net.cpp:110] Creating Layer conv8_2_mbox_loc_perm
I0406 07:36:22.739259   621 net.cpp:451] conv8_2_mbox_loc_perm <- conv8_2_mbox_loc
I0406 07:36:22.739264   621 net.cpp:425] conv8_2_mbox_loc_perm -> conv8_2_mbox_loc_perm
I0406 07:36:22.739343   621 net.cpp:160] Setting up conv8_2_mbox_loc_perm
I0406 07:36:22.739348   621 net.cpp:167] Top shape: 1 3 3 16 (144)
I0406 07:36:22.739353   621 net.cpp:175] Memory required for data: 246051524
I0406 07:36:22.739356   621 layer_factory.hpp:93] Creating layer conv8_2_mbox_loc_flat
I0406 07:36:22.739362   621 net.cpp:110] Creating Layer conv8_2_mbox_loc_flat
I0406 07:36:22.739364   621 net.cpp:451] conv8_2_mbox_loc_flat <- conv8_2_mbox_loc_perm
I0406 07:36:22.739369   621 net.cpp:425] conv8_2_mbox_loc_flat -> conv8_2_mbox_loc_flat
I0406 07:36:22.739387   621 net.cpp:160] Setting up conv8_2_mbox_loc_flat
I0406 07:36:22.739390   621 net.cpp:167] Top shape: 1 144 (144)
I0406 07:36:22.739394   621 net.cpp:175] Memory required for data: 246052100
I0406 07:36:22.739398   621 layer_factory.hpp:93] Creating layer conv8_2_mbox_conf
I0406 07:36:22.739404   621 net.cpp:110] Creating Layer conv8_2_mbox_conf
I0406 07:36:22.739408   621 net.cpp:451] conv8_2_mbox_conf <- conv8_2_conv8_2_relu_0_split_2
I0406 07:36:22.739413   621 net.cpp:425] conv8_2_mbox_conf -> conv8_2_mbox_conf
I0406 07:36:22.740720   621 net.cpp:160] Setting up conv8_2_mbox_conf
I0406 07:36:22.740728   621 net.cpp:167] Top shape: 1 84 3 3 (756)
I0406 07:36:22.740732   621 net.cpp:175] Memory required for data: 246055124
I0406 07:36:22.740738   621 layer_factory.hpp:93] Creating layer conv8_2_mbox_conf_perm
I0406 07:36:22.740744   621 net.cpp:110] Creating Layer conv8_2_mbox_conf_perm
I0406 07:36:22.740748   621 net.cpp:451] conv8_2_mbox_conf_perm <- conv8_2_mbox_conf
I0406 07:36:22.740753   621 net.cpp:425] conv8_2_mbox_conf_perm -> conv8_2_mbox_conf_perm
I0406 07:36:22.740829   621 net.cpp:160] Setting up conv8_2_mbox_conf_perm
I0406 07:36:22.740835   621 net.cpp:167] Top shape: 1 3 3 84 (756)
I0406 07:36:22.740839   621 net.cpp:175] Memory required for data: 246058148
I0406 07:36:22.740842   621 layer_factory.hpp:93] Creating layer conv8_2_mbox_conf_flat
I0406 07:36:22.740847   621 net.cpp:110] Creating Layer conv8_2_mbox_conf_flat
I0406 07:36:22.740851   621 net.cpp:451] conv8_2_mbox_conf_flat <- conv8_2_mbox_conf_perm
I0406 07:36:22.740855   621 net.cpp:425] conv8_2_mbox_conf_flat -> conv8_2_mbox_conf_flat
I0406 07:36:22.740872   621 net.cpp:160] Setting up conv8_2_mbox_conf_flat
I0406 07:36:22.740876   621 net.cpp:167] Top shape: 1 756 (756)
I0406 07:36:22.740880   621 net.cpp:175] Memory required for data: 246061172
I0406 07:36:22.740883   621 layer_factory.hpp:93] Creating layer conv8_2_mbox_priorbox
I0406 07:36:22.740890   621 net.cpp:110] Creating Layer conv8_2_mbox_priorbox
I0406 07:36:22.740893   621 net.cpp:451] conv8_2_mbox_priorbox <- conv8_2_conv8_2_relu_0_split_3
I0406 07:36:22.740896   621 net.cpp:451] conv8_2_mbox_priorbox <- data_data_0_split_5
I0406 07:36:22.740901   621 net.cpp:425] conv8_2_mbox_priorbox -> conv8_2_mbox_priorbox
I0406 07:36:22.740921   621 net.cpp:160] Setting up conv8_2_mbox_priorbox
I0406 07:36:22.740924   621 net.cpp:167] Top shape: 1 2 144 (288)
I0406 07:36:22.740928   621 net.cpp:175] Memory required for data: 246062324
I0406 07:36:22.740931   621 layer_factory.hpp:93] Creating layer conv9_2_mbox_loc
I0406 07:36:22.740939   621 net.cpp:110] Creating Layer conv9_2_mbox_loc
I0406 07:36:22.740943   621 net.cpp:451] conv9_2_mbox_loc <- conv9_2_conv9_2_relu_0_split_0
I0406 07:36:22.740948   621 net.cpp:425] conv9_2_mbox_loc -> conv9_2_mbox_loc
I0406 07:36:22.741365   621 net.cpp:160] Setting up conv9_2_mbox_loc
I0406 07:36:22.741372   621 net.cpp:167] Top shape: 1 16 1 1 (16)
I0406 07:36:22.741376   621 net.cpp:175] Memory required for data: 246062388
I0406 07:36:22.741382   621 layer_factory.hpp:93] Creating layer conv9_2_mbox_loc_perm
I0406 07:36:22.741387   621 net.cpp:110] Creating Layer conv9_2_mbox_loc_perm
I0406 07:36:22.741391   621 net.cpp:451] conv9_2_mbox_loc_perm <- conv9_2_mbox_loc
I0406 07:36:22.741396   621 net.cpp:425] conv9_2_mbox_loc_perm -> conv9_2_mbox_loc_perm
I0406 07:36:22.741479   621 net.cpp:160] Setting up conv9_2_mbox_loc_perm
I0406 07:36:22.741485   621 net.cpp:167] Top shape: 1 1 1 16 (16)
I0406 07:36:22.741489   621 net.cpp:175] Memory required for data: 246062452
I0406 07:36:22.741493   621 layer_factory.hpp:93] Creating layer conv9_2_mbox_loc_flat
I0406 07:36:22.741498   621 net.cpp:110] Creating Layer conv9_2_mbox_loc_flat
I0406 07:36:22.741502   621 net.cpp:451] conv9_2_mbox_loc_flat <- conv9_2_mbox_loc_perm
I0406 07:36:22.741506   621 net.cpp:425] conv9_2_mbox_loc_flat -> conv9_2_mbox_loc_flat
I0406 07:36:22.741524   621 net.cpp:160] Setting up conv9_2_mbox_loc_flat
I0406 07:36:22.741528   621 net.cpp:167] Top shape: 1 16 (16)
I0406 07:36:22.741531   621 net.cpp:175] Memory required for data: 246062516
I0406 07:36:22.741534   621 layer_factory.hpp:93] Creating layer conv9_2_mbox_conf
I0406 07:36:22.741542   621 net.cpp:110] Creating Layer conv9_2_mbox_conf
I0406 07:36:22.741545   621 net.cpp:451] conv9_2_mbox_conf <- conv9_2_conv9_2_relu_0_split_1
I0406 07:36:22.741550   621 net.cpp:425] conv9_2_mbox_conf -> conv9_2_mbox_conf
I0406 07:36:22.742841   621 net.cpp:160] Setting up conv9_2_mbox_conf
I0406 07:36:22.742849   621 net.cpp:167] Top shape: 1 84 1 1 (84)
I0406 07:36:22.742853   621 net.cpp:175] Memory required for data: 246062852
I0406 07:36:22.742859   621 layer_factory.hpp:93] Creating layer conv9_2_mbox_conf_perm
I0406 07:36:22.742866   621 net.cpp:110] Creating Layer conv9_2_mbox_conf_perm
I0406 07:36:22.742869   621 net.cpp:451] conv9_2_mbox_conf_perm <- conv9_2_mbox_conf
I0406 07:36:22.742874   621 net.cpp:425] conv9_2_mbox_conf_perm -> conv9_2_mbox_conf_perm
I0406 07:36:22.742950   621 net.cpp:160] Setting up conv9_2_mbox_conf_perm
I0406 07:36:22.742956   621 net.cpp:167] Top shape: 1 1 1 84 (84)
I0406 07:36:22.742960   621 net.cpp:175] Memory required for data: 246063188
I0406 07:36:22.742964   621 layer_factory.hpp:93] Creating layer conv9_2_mbox_conf_flat
I0406 07:36:22.742969   621 net.cpp:110] Creating Layer conv9_2_mbox_conf_flat
I0406 07:36:22.742971   621 net.cpp:451] conv9_2_mbox_conf_flat <- conv9_2_mbox_conf_perm
I0406 07:36:22.742976   621 net.cpp:425] conv9_2_mbox_conf_flat -> conv9_2_mbox_conf_flat
I0406 07:36:22.742995   621 net.cpp:160] Setting up conv9_2_mbox_conf_flat
I0406 07:36:22.742998   621 net.cpp:167] Top shape: 1 84 (84)
I0406 07:36:22.743002   621 net.cpp:175] Memory required for data: 246063524
I0406 07:36:22.743005   621 layer_factory.hpp:93] Creating layer conv9_2_mbox_priorbox
I0406 07:36:22.743010   621 net.cpp:110] Creating Layer conv9_2_mbox_priorbox
I0406 07:36:22.743014   621 net.cpp:451] conv9_2_mbox_priorbox <- conv9_2_conv9_2_relu_0_split_2
I0406 07:36:22.743018   621 net.cpp:451] conv9_2_mbox_priorbox <- data_data_0_split_6
I0406 07:36:22.743022   621 net.cpp:425] conv9_2_mbox_priorbox -> conv9_2_mbox_priorbox
I0406 07:36:22.743041   621 net.cpp:160] Setting up conv9_2_mbox_priorbox
I0406 07:36:22.743044   621 net.cpp:167] Top shape: 1 2 16 (32)
I0406 07:36:22.743048   621 net.cpp:175] Memory required for data: 246063652
I0406 07:36:22.743052   621 layer_factory.hpp:93] Creating layer mbox_loc
I0406 07:36:22.743062   621 net.cpp:110] Creating Layer mbox_loc
I0406 07:36:22.743067   621 net.cpp:451] mbox_loc <- conv4_3_norm_mbox_loc_flat
I0406 07:36:22.743072   621 net.cpp:451] mbox_loc <- fc7_mbox_loc_flat
I0406 07:36:22.743075   621 net.cpp:451] mbox_loc <- conv6_2_mbox_loc_flat
I0406 07:36:22.743078   621 net.cpp:451] mbox_loc <- conv7_2_mbox_loc_flat
I0406 07:36:22.743083   621 net.cpp:451] mbox_loc <- conv8_2_mbox_loc_flat
I0406 07:36:22.743085   621 net.cpp:451] mbox_loc <- conv9_2_mbox_loc_flat
I0406 07:36:22.743090   621 net.cpp:425] mbox_loc -> mbox_loc
I0406 07:36:22.743109   621 net.cpp:160] Setting up mbox_loc
I0406 07:36:22.743113   621 net.cpp:167] Top shape: 1 34928 (34928)
I0406 07:36:22.743116   621 net.cpp:175] Memory required for data: 246203364
I0406 07:36:22.743119   621 layer_factory.hpp:93] Creating layer mbox_conf
I0406 07:36:22.743124   621 net.cpp:110] Creating Layer mbox_conf
I0406 07:36:22.743127   621 net.cpp:451] mbox_conf <- conv4_3_norm_mbox_conf_flat
I0406 07:36:22.743132   621 net.cpp:451] mbox_conf <- fc7_mbox_conf_flat
I0406 07:36:22.743135   621 net.cpp:451] mbox_conf <- conv6_2_mbox_conf_flat
I0406 07:36:22.743139   621 net.cpp:451] mbox_conf <- conv7_2_mbox_conf_flat
I0406 07:36:22.743142   621 net.cpp:451] mbox_conf <- conv8_2_mbox_conf_flat
I0406 07:36:22.743146   621 net.cpp:451] mbox_conf <- conv9_2_mbox_conf_flat
I0406 07:36:22.743150   621 net.cpp:425] mbox_conf -> mbox_conf
I0406 07:36:22.743167   621 net.cpp:160] Setting up mbox_conf
I0406 07:36:22.743175   621 net.cpp:167] Top shape: 1 183372 (183372)
I0406 07:36:22.743180   621 net.cpp:175] Memory required for data: 246936852
I0406 07:36:22.743183   621 layer_factory.hpp:93] Creating layer mbox_priorbox
I0406 07:36:22.743188   621 net.cpp:110] Creating Layer mbox_priorbox
I0406 07:36:22.743191   621 net.cpp:451] mbox_priorbox <- conv4_3_norm_mbox_priorbox
I0406 07:36:22.743196   621 net.cpp:451] mbox_priorbox <- fc7_mbox_priorbox
I0406 07:36:22.743199   621 net.cpp:451] mbox_priorbox <- conv6_2_mbox_priorbox
I0406 07:36:22.743202   621 net.cpp:451] mbox_priorbox <- conv7_2_mbox_priorbox
I0406 07:36:22.743206   621 net.cpp:451] mbox_priorbox <- conv8_2_mbox_priorbox
I0406 07:36:22.743209   621 net.cpp:451] mbox_priorbox <- conv9_2_mbox_priorbox
I0406 07:36:22.743214   621 net.cpp:425] mbox_priorbox -> mbox_priorbox
I0406 07:36:22.743238   621 net.cpp:160] Setting up mbox_priorbox
I0406 07:36:22.743242   621 net.cpp:167] Top shape: 1 2 34928 (69856)
I0406 07:36:22.743247   621 net.cpp:175] Memory required for data: 247216276
I0406 07:36:22.743249   621 net.cpp:238] mbox_priorbox does not need backward computation.
I0406 07:36:22.743259   621 net.cpp:238] mbox_conf does not need backward computation.
I0406 07:36:22.743264   621 net.cpp:238] mbox_loc does not need backward computation.
I0406 07:36:22.743268   621 net.cpp:238] conv9_2_mbox_priorbox does not need backward computation.
…
    phase: TRAIN
  }
  transform_param {
    crop_size: 300
    mean_value: 104
    mean_value: 117
    mean_value: 123
    resize_param {
      prob: 1
      resize_mode: WARP
      height: 300
      width: 300
      interp_mode: LINEAR
      interp_mode: AREA
      interp_mode: NEAREST
      interp_mode: CUBIC
      interp_mode: LANCZOS4
    }
  }
  image_data_param {
    source: "../calibration.txt"
    batch_size: 1
    shuffle: true
    new_height: 300
    new_width: 300
    root_folder: "/workspace/SSD/data/VOCdevkit/VOC2007/JPEGImages/"
  }
}
layer {
  name: "data_fixed"
  type: "FixedNeuron"
  bottom: "data"
  top: "data"
  param {
    lr_mult: 0
    decay_mult: 0
  }
  fixed_param {
    fixed_method: OVER_FLOW
    bit_width: 8
    follow_data_layer: true
  }
}
layer {
  name: "conv1_1"
  type: "ConvolutionFixed"
  bottom: "data"
  top: "conv1_1"
  param {
    lr_mult: 1
    decay_mult: 1
  }
  param {
    lr_mult: 2
    decay_mult: 0
  }
  convolution_param {
    num_output: 64
    pad: 1
    kernel_size: 3
    weight_filler {
      type: "xavier"
    }
    bias_filler {
      type: "constant"
      value: 0
    }
  }
  fixed_param {
    fixed_method: DIFF_S
    bit_width: 8
  }
}
layer {
  name: "relu1_1"
  type: "ReLU"
  bottom: "conv1_1"
  top: "conv1_1"
}
layer {
  name: "conv1_1_fixed"
  type: "FixedNeuron"
  bottom: "conv1_1"
  top: "conv1_1"
  param {
    lr_mult: 0
    decay_mult: 0
  }
  fixed_param {
    fixed_method: DIFF_S
    bit_width: 8
  }
}
layer {
  name: "conv1_2"
  type: "ConvolutionFixed"
  bottom: "conv1_1"
  top: "conv1_2"
  param {
    lr_mult: 1
    decay_mult: 1
  }
  param {
    lr_mult: 2
    decay_mult: 0
  }
  convolution_param {
    num_output: 64
    pad: 1
    kernel_size: 3
    weight_filler {
      type: "xavier"
    }
    bias_filler {
      type: "constant"
      value: 0
    }
  }
  fixed_param {
    fixed_method: DIFF_S
    bit_width: 8
  }
}
layer {
  name: "relu1_2"
  type: "ReLU"
  bottom: "conv1_2"
  top: "conv1_2"
}
layer {
  name: "pool1"
  type: "Pooling"
  bottom: "conv1_2"
  top: "pool1"
  pooling_param {
    pool: MAX
    kernel_size: 2
    stride: 2
  }
}
layer {
  name: "pool1_fixed"
  type: "FixedNeuron"
  bottom: "pool1"
  top: "pool1"
  param {
    lr_mult: 0
    decay_mult: 0
  }
  fixed_param {
    fixed_method: DIFF_S
    bit_width: 8
  }
}
layer {
  name: "conv2_1"
  type: "ConvolutionFixed"
  bottom: "pool1"
  top: "conv2_1"
  param {
    lr_mult: 1
    decay_mult: 1
  }
  param {
    lr_mult: 2
    decay_mult: 0
  }
  convolution_param {
    num_output: 128
    pad: 1
    kernel_size: 3
    weight_filler {
      type: "xavier"
    }
    bias_filler {
      type: "constant"
      value: 0
    }
  }
  fixed_param {
    fixed_method: DIFF_S
    bit_width: 8
  }
}
layer {
  name: "relu2_1"
  type: "ReLU"
  bottom: "conv2_1"
  top: "conv2_1"
}
layer {
  name: "conv2_1_fixed"
  type: "FixedNeuron"
  bottom: "conv2_1"
  top: "conv2_1"
  param {
    lr_mult: 0
    decay_mult: 0
  }
  fixed_param {
    fixed_method: DIFF_S
    bit_width: 8
  }
}
layer {
  name: "conv2_2"
  type: "ConvolutionFixed"
  bottom: "conv2_1"
  top: "conv2_2"
  param {
    lr_mult: 1
    decay_mult: 1
  }
  param {
    lr_mult: 2
    decay_mult: 0
  }
  convolution_param {
    num_output: 128
    pad: 1
    kernel_size: 3
    weight_filler {
      type: "xavier"
    }
    bias_filler {
      type: "constant"
      value: 0
    }
  }
  fixed_param {
    fixed_method: DIFF_S
    bit_width: 8
  }
}
layer {
  name: "relu2_2"
  type: "ReLU"
  bottom: "conv2_2"
  top: "conv2_2"
}
layer {
  name: "pool2"
  type: "Pooling"
  bottom: "conv2_2"
  top: "pool2"
  pooling_param {
    pool: MAX
    kernel_size: 2
    stride: 2
  }
}
layer {
  name: "pool2_fixed"
  type: "FixedNeuron"
  bottom: "pool2"
  top: "pool2"
  param {
    lr_mult: 0
    decay_mult: 0
  }
  fixed_param {
    fixed_method: DIFF_S
    bit_width: 8
  }
}
layer {
  name: "conv3_1"
  type: "ConvolutionFixed"
  bottom: "pool2"
  top: "conv3_1"
  param {
    lr_mult: 1
    decay_mult: 1
  }
  param {
    lr_mult: 2
    decay_mult: 0
  }
  convolution_param {
    num_output: 256
    pad: 1
    kernel_size: 3
    weight_filler {
      type: "xavier"
    }
    bias_filler {
      type: "constant"
      value: 0
    }
  }
  fixed_param {
    fixed_method: DIFF_S
    bit_width: 8
  }
}
layer {
  name: "relu3_1"
  type: "ReLU"
  bottom: "conv3_1"
  top: "conv3_1"
}
layer {
  name: "conv3_1_fixed"
  type: "FixedNeuron"
  bottom: "conv3_1"
  top: "conv3_1"
  param {
    lr_mult: 0
    decay_mult: 0
  }
  fixed_param {
    fixed_method: DIFF_S
    bit_width: 8
  }
}
layer {
  name: "conv3_2"
  type: "ConvolutionFixed"
  bottom: "conv3_1"
  top: "conv3_2"
  param {
    lr_mult: 1
    decay_mult: 1
  }
  param {
    lr_mult: 2
    decay_mult: 0
  }
  convolution_param {
    num_output: 256
    pad: 1
    kernel_size: 3
    weight_filler {
      type: "xavier"
    }
    bias_filler {
      type: "constant"
      value: 0
    }
  }
  fixed_param {
    fixed_method: DIFF_S
    bit_width: 8
  }
}
layer {
  name: "relu3_2"
  type: "ReLU"
  bottom: "conv3_2"
  top: "conv3_2"
}
layer {
  name: "conv3_2_fixed"
  type: "FixedNeuron"
  bottom: "conv3_2"
  top: "conv3_2"
  param {
    lr_mult: 0
    decay_mult: 0
  }
  fixed_param {
    fixed_method: DIFF_S
    bit_width: 8
  }
}
layer {
  name: "conv3_3"
  type: "ConvolutionFixed"
  bottom: "conv3_2"
  top: "conv3_3"
  param {
    lr_mult: 1
    decay_mult: 1
  }
  param {
    lr_mult: 2
    decay_mult: 0
  }
  convolution_param {
    num_output: 256
    pad: 1
    kernel_size: 3
    weight_filler {
      type: "xavier"
    }
    bias_filler {
      type: "constant"
      value: 0
    }
  }
  fixed_param {
    fixed_method: DIFF_S
    bit_width: 8
  }
}
layer {
  name: "relu3_3"
  type: "ReLU"
  bottom: "conv3_3"
  top: "conv3_3"
}
layer {
  name: "pool3"
  type: "Pooling"
  bottom: "conv3_3"
  top: "pool3"
  pooling_param {
    pool: MAX
    kernel_size: 2
    stride: 2
  }
}
layer {
  name: "pool3_fixed"
  type: "FixedNeuron"
  bottom: "pool3"
  top: "pool3"
  param {
    lr_mult: 0
    decay_mult: 0
  }
  fixed_param {
    fixed_method: DIFF_S
    bit_width: 8
  }
}
layer {
  name: "conv4_1"
  type: "ConvolutionFixed"
  bottom: "pool3"
  top: "conv4_1"
  param {
    lr_mult: 1
    decay_mult: 1
  }
  param {
    lr_mult: 2
    decay_mult: 0
  }
  convolution_param {
    num_output: 512
    pad: 1
    kernel_size: 3
    weight_filler {
      type: "xavier"
    }
    bias_filler {
      type: "constant"
      value: 0
    }
  }
  fixed_param {
    fixed_method: DIFF_S
    bit_width: 8
  }
}
layer {
  name: "relu4_1"
  type: "ReLU"
  bottom: "conv4_1"
  top: "conv4_1"
}
layer {
  name: "conv4_1_fixed"
  type: "FixedNeuron"
  bottom: "conv4_1"
  top: "conv4_1"
  param {
    lr_mult: 0
    decay_mult: 0
  }
  fixed_param {
    fixed_method: DIFF_S
    bit_width: 8
  }
}
layer {
  name: "conv4_2"
  type: "ConvolutionFixed"
  bottom: "conv4_1"
  top: "conv4_2"
  param {
    lr_mult: 1
    decay_mult: 1
  }
  param {
    lr_mult: 2
    decay_mult: 0
  }
  convolution_param {
    num_output: 512
    pad: 1
    kernel_size: 3
    weight_filler {
      type: "xavier"
    }
    bias_filler {
      type: "constant"
      value: 0
    }
  }
  fixed_param {
    fixed_method: DIFF_S
    bit_width: 8
  }
}
layer {
  name: "relu4_2"
  type: "ReLU"
  bottom: "conv4_2"
  top: "conv4_2"
}
layer {
  name: "conv4_2_fixed"
  type: "FixedNeuron"
  bottom: "conv4_2"
  top: "conv4_2"
  param {
    lr_mult: 0
    decay_mult: 0
  }
  fixed_param {
    fixed_method: DIFF_S
    bit_width: 8
  }
}
layer {
  name: "conv4_3"
  type: "ConvolutionFixed"
  bottom: "conv4_2"
  top: "conv4_3"
  param {
    lr_mult: 1
    decay_mult: 1
  }
  param {
    lr_mult: 1
    decay_mult: 0
  }
  convolution_param {
    num_output: 512
    bias_term: true
    pad: 1
    kernel_size: 3
    weight_filler {
      type: "xavier"
    }
    bias_filler {
      type: "constant"
      value: 0
    }
  }
  fixed_param {
    fixed_method: DIFF_S
    bit_width: 8
  }
}
layer {
  name: "relu4_3"
  type: "ReLU"
  bottom: "conv4_3"
  top: "conv4_3"
}
layer {
  name: "conv4_3_fixed"
  type: "FixedNeuron"
  bottom: "conv4_3"
  top: "conv4_3"
  param {
    lr_mult: 0
    decay_mult: 0
  }
  fixed_param {
    fixed_method: DIFF_S
    bit_width: 8
  }
}
layer {
  name: "pool4"
  type: "Pooling"
  bottom: "conv4_3"
  top: "pool4"
  pooling_param {
    pool: MAX
    kernel_size: 2
    stride: 2
  }
}
layer {
  name: "conv5_1"
  type: "ConvolutionFixed"
  bottom: "pool4"
  top: "conv5_1"
  param {
    lr_mult: 1
    decay_mult: 1
  }
  param {
    lr_mult: 2
    decay_mult: 0
  }
  convolution_param {
    num_output: 512
    pad: 1
    kernel_size: 3
    weight_filler {
      type: "xavier"
    }
    bias_filler {
      type: "constant"
      value: 0
    }
    dilation: 1
  }
  fixed_param {
    fixed_method: DIFF_S
    bit_width: 8
  }
}
layer {
  name: "relu5_1"
  type: "ReLU"
  bottom: "conv5_1"
  top: "conv5_1"
}
layer {
  name: "conv5_1_fixed"
  type: "FixedNeuron"
  bottom: "conv5_1"
  top: "conv5_1"
  param {
    lr_mult: 0
    decay_mult: 0
  }
  fixed_param {
    fixed_method: DIFF_S
    bit_width: 8
  }
}
layer {
  name: "conv5_2"
  type: "ConvolutionFixed"
  bottom: "conv5_1"
  top: "conv5_2"
  param {
    lr_mult: 1
    decay_mult: 1
  }
  param {
    lr_mult: 2
    decay_mult: 0
  }
  convolution_param {
    num_output: 512
    pad: 1
    kernel_size: 3
    weight_filler {
      type: "xavier"
    }
    bias_filler {
      type: "constant"
      value: 0
    }
    dilation: 1
  }
  fixed_param {
    fixed_method: DIFF_S
    bit_width: 8
  }
}
layer {
  name: "relu5_2"
  type: "ReLU"
  bottom: "conv5_2"
  top: "conv5_2"
}
layer {
  name: "conv5_2_fixed"
  type: "FixedNeuron"
  bottom: "conv5_2"
  top: "conv5_2"
  param {
    lr_mult: 0
    decay_mult: 0
  }
  fixed_param {
    fixed_method: DIFF_S
    bit_width: 8
  }
}
layer {
  name: "conv5_3"
  type: "ConvolutionFixed"
  bottom: "conv5_2"
  top: "conv5_3"
  param {
    lr_mult: 1
    decay_mult: 1
  }
  param {
    lr_mult: 2
    decay_mult: 0
  }
  convolution_param {
    num_output: 512
    pad: 1
    kernel_size: 3
    weight_filler {
      type: "xavier"
    }
    bias_filler {
      type: "constant"
      value: 0
    }
    dilation: 1
  }
  fixed_param {
    fixed_method: DIFF_S
    bit_width: 8
  }
}
layer {
  name: "relu5_3"
  type: "ReLU"
  bottom: "conv5_3"
  top: "conv5_3"
}
layer {
  name: "pool5"
  type: "Pooling"
  bottom: "conv5_3"
  top: "pool5"
  pooling_param {
    pool: MAX
    kernel_size: 3
    stride: 1
    pad: 1
  }
}
layer {
  name: "pool5_fixed"
  type: "FixedNeuron"
  bottom: "pool5"
  top: "pool5"
  param {
    lr_mult: 0
    decay_mult: 0
  }
  fixed_param {
    fixed_method: DIFF_S
    bit_width: 8
  }
}
layer {
  name: "fc6_682"
  type: "ConvolutionFixed"
  bottom: "pool5"
  top: "fc6_682"
  param {
    lr_mult: 1
    decay_mult: 1
  }
  param {
    lr_mult: 2
    decay_mult: 0
  }
  convolution_param {
    num_output: 682
    pad: 6
    kernel_size: 3
    weight_filler {
      type: "xavier"
    }
    bias_filler {
      type: "constant"
      value: 0
    }
    dilation: 6
  }
  fixed_param {
    fixed_method: DIFF_S
    bit_width: 8
  }
}
layer {
  name: "relu6"
  type: "ReLU"
  bottom: "fc6_682"
  top: "fc6_682"
}
layer {
  name: "fc6_682_fixed"
  type: "FixedNeuron"
  bottom: "fc6_682"
  top: "fc6_682"
  param {
    lr_mult: 0
    decay_mult: 0
  }
  fixed_param {
    fixed_method: DIFF_S
    bit_width: 8
  }
}
layer {
  name: "fc7_682"
  type: "ConvolutionFixed"
  bottom: "fc6_682"
  top: "fc7_682"
  param {
    lr_mult: 1
    decay_mult: 1
  }
  param {
    lr_mult: 2
    decay_mult: 0
  }
  convolution_param {
    num_output: 1024
    kernel_size: 1
    weight_filler {
      type: "xavier"
    }
    bias_filler {
      type: "constant"
      value: 0
    }
  }
  fixed_param {
    fixed_method: DIFF_S
    bit_width: 8
  }
}
layer {
  name: "relu7"
  type: "ReLU"
  bottom: "fc7_682"
  top: "fc7_682"
}
layer {
  name: "fc7_682_fixed"
  type: "FixedNeuron"
  bottom: "fc7_682"
  top: "fc7_682"
  param {
    lr_mult: 0
    decay_mult: 0
  }
  fixed_param {
    fixed_method: DIFF_S
    bit_width: 8
  }
}
layer {
  name: "conv6_1"
  type: "ConvolutionFixed"
  bottom: "fc7_682"
  top: "conv6_1"
  param {
    lr_mult: 1
    decay_mult: 1
  }
  param {
    lr_mult: 2
    decay_mult: 0
  }
  convolution_param {
    num_output: 256
    pad: 0
    kernel_size: 1
    stride: 1
    weight_filler {
      type: "xavier"
    }
    bias_filler {
      type: "constant"
      value: 0
    }
  }
  fixed_param {
    fixed_method: DIFF_S
    bit_width: 8
  }
}
layer {
  name: "conv6_1_relu"
  type: "ReLU"
  bottom: "conv6_1"
  top: "conv6_1"
}
layer {
  name: "conv6_1_fixed"
  type: "FixedNeuron"
  bottom: "conv6_1"
  top: "conv6_1"
  param {
    lr_mult: 0
    decay_mult: 0
  }
  fixed_param {
    fixed_method: DIFF_S
    bit_width: 8
  }
}
layer {
  name: "conv6_2"
  type: "ConvolutionFixed"
  bottom: "conv6_1"
  top: "conv6_2"
  param {
    lr_mult: 1
    decay_mult: 1
  }
  param {
    lr_mult: 2
    decay_mult: 0
  }
  convolution_param {
    num_output: 512
    pad: 1
    kernel_size: 3
    stride: 2
    weight_filler {
      type: "xavier"
    }
    bias_filler {
      type: "constant"
      value: 0
    }
  }
  fixed_param {
    fixed_method: DIFF_S
    bit_width: 8
  }
}
layer {
  name: "conv6_2_relu"
  type: "ReLU"
  bottom: "conv6_2"
  top: "conv6_2"
}
layer {
  name: "conv6_2_fixed"
  type: "FixedNeuron"
  bottom: "conv6_2"
  top: "conv6_2"
  param {
    lr_mult: 0
    decay_mult: 0
  }
  fixed_param {
    fixed_method: DIFF_S
    bit_width: 8
  }
}
layer {
  name: "conv7_1"
  type: "ConvolutionFixed"
  bottom: "conv6_2"
  top: "conv7_1"
  param {
    lr_mult: 1
    decay_mult: 1
  }
  param {
    lr_mult: 2
    decay_mult: 0
  }
  convolution_param {
    num_output: 128
    pad: 0
    kernel_size: 1
    stride: 1
    weight_filler {
      type: "xavier"
    }
    bias_filler {
      type: "constant"
      value: 0
    }
  }
  fixed_param {
    fixed_method: DIFF_S
    bit_width: 8
  }
}
layer {
  name: "conv7_1_relu"
  type: "ReLU"
  bottom: "conv7_1"
  top: "conv7_1"
}
layer {
  name: "conv7_1_fixed"
  type: "FixedNeuron"
  bottom: "conv7_1"
  top: "conv7_1"
  param {
    lr_mult: 0
    decay_mult: 0
  }
  fixed_param {
    fixed_method: DIFF_S
    bit_width: 8
  }
}
layer {
  name: "conv7_2"
  type: "ConvolutionFixed"
  bottom: "conv7_1"
  top: "conv7_2"
  param {
    lr_mult: 1
    decay_mult: 1
  }
  param {
    lr_mult: 2
    decay_mult: 0
  }
  convolution_param {
    num_output: 256
    pad: 1
    kernel_size: 3
    stride: 2
    weight_filler {
      type: "xavier"
    }
    bias_filler {
      type: "constant"
      value: 0
    }
  }
  fixed_param {
    fixed_method: DIFF_S
    bit_width: 8
  }
}
layer {
  name: "conv7_2_relu"
  type: "ReLU"
  bottom: "conv7_2"
  top: "conv7_2"
}
layer {
  name: "conv7_2_fixed"
  type: "FixedNeuron"
  bottom: "conv7_2"
  top: "conv7_2"
  param {
    lr_mult: 0
    decay_mult: 0
  }
  fixed_param {
    fixed_method: DIFF_S
    bit_width: 8
  }
}
layer {
  name: "conv8_1"
  type: "ConvolutionFixed"
  bottom: "conv7_2"
  top: "conv8_1"
  param {
    lr_mult: 1
    decay_mult: 1
  }
  param {
    lr_mult: 2
    decay_mult: 0
  }
  convolution_param {
    num_output: 128
    pad: 0
    kernel_size: 1
    stride: 1
    weight_filler {
      type: "xavier"
    }
    bias_filler {
      type: "constant"
      value: 0
    }
  }
  fixed_param {
    fixed_method: DIFF_S
    bit_width: 8
  }
}
layer {
  name: "conv8_1_relu"
  type: "ReLU"
  bottom: "conv8_1"
  top: "conv8_1"
}
layer {
  name: "conv8_1_fixed"
  type: "FixedNeuron"
  bottom: "conv8_1"
  top: "conv8_1"
  param {
    lr_mult: 0
    decay_mult: 0
  }
  fixed_param {
    fixed_method: DIFF_S
    bit_width: 8
  }
}
layer {
  name: "conv8_2"
  type: "ConvolutionFixed"
  bottom: "conv8_1"
  top: "conv8_2"
  param {
    lr_mult: 1
    decay_mult: 1
  }
  param {
    lr_mult: 2
    decay_mult: 0
  }
  convolution_param {
    num_output: 256
    pad: 0
    kernel_size: 3
    stride: 1
    weight_filler {
      type: "xavier"
    }
    bias_filler {
      type: "constant"
      value: 0
    }
  }
  fixed_param {
    fixed_method: DIFF_S
    bit_width: 8
  }
}
layer {
  name: "conv8_2_relu"
  type: "ReLU"
  bottom: "conv8_2"
  top: "conv8_2"
}
layer {
  name: "conv8_2_fixed"
  type: "FixedNeuron"
  bottom: "conv8_2"
  top: "conv8_2"
  param {
    lr_mult: 0
    decay_mult: 0
  }
  fixed_param {
    fixed_method: DIFF_S
    bit_width: 8
  }
}
layer {
  name: "conv9_1"
  type: "ConvolutionFixed"
  bottom: "conv8_2"
  top: "conv9_1"
  param {
    lr_mult: 1
    decay_mult: 1
  }
  param {
    lr_mult: 2
    decay_mult: 0
  }
  convolution_param {
    num_output: 128
    pad: 0
    kernel_size: 1
    stride: 1
    weight_filler {
      type: "xavier"
    }
    bias_filler {
      type: "constant"
      value: 0
    }
  }
  fixed_param {
    fixed_method: DIFF_S
    bit_width: 8
  }
}
layer {
  name: "conv9_1_relu"
  type: "ReLU"
  bottom: "conv9_1"
  top: "conv9_1"
}
layer {
  name: "conv9_1_fixed"
  type: "FixedNeuron"
  bottom: "conv9_1"
  top: "conv9_1"
  param {
    lr_mult: 0
    decay_mult: 0
  }
  fixed_param {
    fixed_method: DIFF_S
    bit_width: 8
  }
}
layer {
  name: "conv9_2"
  type: "ConvolutionFixed"
  bottom: "conv9_1"
  top: "conv9_2"
  param {
    lr_mult: 1
    decay_mult: 1
  }
  param {
    lr_mult: 2
    decay_mult: 0
  }
  convolution_param {
    num_output: 256
    pad: 0
    kernel_size: 3
    stride: 1
    weight_filler {
      type: "xavier"
    }
    bias_filler {
      type: "constant"
      value: 0
    }
  }
  fixed_param {
    fixed_method: DIFF_S
    bit_width: 8
  }
}
layer {
  name: "conv9_2_relu"
  type: "ReLU"
  bottom: "conv9_2"
  top: "conv9_2"
}
layer {
  name: "conv9_2_fixed"
  type: "FixedNeuron"
  bottom: "conv9_2"
  top: "conv9_2"
  param {
    lr_mult: 0
    decay_mult: 0
  }
  fixed_param {
    fixed_method: DIFF_S
    bit_width: 8
  }
}
layer {
  name: "conv4_3_norm_mbox_loc"
  type: "ConvolutionFixed"
  bottom: "conv4_3"
  top: "conv4_3_norm_mbox_loc"
  param {
    lr_mult: 1
    decay_mult: 1
  }
  param {
    lr_mult: 2
    decay_mult: 0
  }
  convolution_param {
    num_output: 16
    pad: 1
    kernel_size: 3
    stride: 1
    weight_filler {
      type: "xavier"
    }
    bias_filler {
      type: "constant"
      value: 0
    }
  }
  fixed_param {
    fixed_method: DIFF_S
    bit_width: 8
  }
}
layer {
  name: "conv4_3_norm_mbox_loc_perm"
  type: "Permute"
  bottom: "conv4_3_norm_mbox_loc"
  top: "conv4_3_norm_mbox_loc_perm"
  permute_param {
    order: 0
    order: 2
    order: 3
    order: 1
  }
}
layer {
  name: "conv4_3_norm_mbox_loc_flat"
  type: "Flatten"
  bottom: "conv4_3_norm_mbox_loc_perm"
  top: "conv4_3_norm_mbox_loc_flat"
  flatten_param {
    axis: 1
  }
}
layer {
  name: "conv4_3_norm_mbox_conf"
  type: "ConvolutionFixed"
  bottom: "conv4_3"
  top: "conv4_3_norm_mbox_conf"
  param {
    lr_mult: 1
    decay_mult: 1
  }
  param {
    lr_mult: 2
    decay_mult: 0
  }
  convolution_param {
    num_output: 84
    pad: 1
    kernel_size: 3
    stride: 1
    weight_filler {
      type: "xavier"
    }
    bias_filler {
      type: "constant"
      value: 0
    }
  }
  fixed_param {
    fixed_method: DIFF_S
    bit_width: 8
  }
}
layer {
  name: "conv4_3_norm_mbox_conf_perm"
  type: "Permute"
  bottom: "conv4_3_norm_mbox_conf"
  top: "conv4_3_norm_mbox_conf_perm"
  permute_param {
    order: 0
    order: 2
    order: 3
    order: 1
  }
}
layer {
  name: "conv4_3_norm_mbox_conf_flat"
  type: "Flatten"
  bottom: "conv4_3_norm_mbox_conf_perm"
  top: "conv4_3_norm_mbox_conf_flat"
  flatten_param {
    axis: 1
  }
}
layer {
  name: "conv4_3_norm_mbox_priorbox"
  type: "PriorBox"
  bottom: "conv4_3"
  bottom: "data"
  top: "conv4_3_norm_mbox_priorbox"
  prior_box_param {
    min_size: 30
    max_size: 60
    aspect_ratio: 2
    flip: true
    clip: false
    variance: 0.1
    variance: 0.1
    variance: 0.2
    variance: 0.2
    step: 8
    offset: 0.5
  }
}
layer {
  name: "fc7_mbox_loc"
  type: "ConvolutionFixed"
  bottom: "fc7_682"
  top: "fc7_mbox_loc"
  param {
    lr_mult: 1
    decay_mult: 1
  }
  param {
    lr_mult: 2
    decay_mult: 0
  }
  convolution_param {
    num_output: 24
    pad: 1
    kernel_size: 3
    stride: 1
    weight_filler {
      type: "xavier"
    }
    bias_filler {
      type: "constant"
      value: 0
    }
  }
  fixed_param {
    fixed_method: DIFF_S
    bit_width: 8
  }
}
layer {
  name: "fc7_mbox_loc_perm"
  type: "Permute"
  bottom: "fc7_mbox_loc"
  top: "fc7_mbox_loc_perm"
  permute_param {
    order: 0
    order: 2
    order: 3
    order: 1
  }
}
layer {
  name: "fc7_mbox_loc_flat"
  type: "Flatten"
  bottom: "fc7_mbox_loc_perm"
  top: "fc7_mbox_loc_flat"
  flatten_param {
    axis: 1
  }
}
layer {
  name: "fc7_mbox_conf"
  type: "ConvolutionFixed"
  bottom: "fc7_682"
  top: "fc7_mbox_conf"
  param {
    lr_mult: 1
    decay_mult: 1
  }
  param {
    lr_mult: 2
    decay_mult: 0
  }
  convolution_param {
    num_output: 126
    pad: 1
    kernel_size: 3
    stride: 1
    weight_filler {
      type: "xavier"
    }
    bias_filler {
      type: "constant"
      value: 0
    }
  }
  fixed_param {
    fixed_method: DIFF_S
    bit_width: 8
  }
}
layer {
  name: "fc7_mbox_conf_perm"
  type: "Permute"
  bottom: "fc7_mbox_conf"
  top: "fc7_mbox_conf_perm"
  permute_param {
    order: 0
    order: 2
    order: 3
    order: 1
  }
}
layer {
  name: "fc7_mbox_conf_flat"
  type: "Flatten"
  bottom: "fc7_mbox_conf_perm"
  top: "fc7_mbox_conf_flat"
  flatten_param {
    axis: 1
  }
}
layer {
  name: "fc7_mbox_priorbox"
  type: "PriorBox"
  bottom: "fc7_682"
  bottom: "data"
  top: "fc7_mbox_priorbox"
  prior_box_param {
    min_size: 60
    max_size: 111
    aspect_ratio: 2
    aspect_ratio: 3
    flip: true
    clip: false
    variance: 0.1
    variance: 0.1
    variance: 0.2
    variance: 0.2
    step: 16
    offset: 0.5
  }
}
layer {
  name: "conv6_2_mbox_loc"
  type: "ConvolutionFixed"
  bottom: "conv6_2"
  top: "conv6_2_mbox_loc"
  param {
    lr_mult: 1
    decay_mult: 1
  }
  param {
    lr_mult: 2
    decay_mult: 0
  }
  convolution_param {
    num_output: 24
    pad: 1
    kernel_size: 3
    stride: 1
    weight_filler {
      type: "xavier"
    }
    bias_filler {
      type: "constant"
      value: 0
    }
  }
  fixed_param {
    fixed_method: DIFF_S
    bit_width: 8
  }
}
layer {
  name: "conv6_2_mbox_loc_perm"
  type: "Permute"
  bottom: "conv6_2_mbox_loc"
  top: "conv6_2_mbox_loc_perm"
  permute_param {
    order: 0
    order: 2
    order: 3
    order: 1
  }
}
layer {
  name: "conv6_2_mbox_loc_flat"
  type: "Flatten"
  bottom: "conv6_2_mbox_loc_perm"
  top: "conv6_2_mbox_loc_flat"
  flatten_param {
    axis: 1
  }
}
layer {
  name: "conv6_2_mbox_conf"
  type: "ConvolutionFixed"
  bottom: "conv6_2"
  top: "conv6_2_mbox_conf"
  param {
    lr_mult: 1
    decay_mult: 1
  }
  param {
    lr_mult: 2
    decay_mult: 0
  }
  convolution_param {
    num_output: 126
    pad: 1
    kernel_size: 3
    stride: 1
    weight_filler {
      type: "xavier"
    }
    bias_filler {
      type: "constant"
      value: 0
    }
  }
  fixed_param {
    fixed_method: DIFF_S
    bit_width: 8
  }
}
layer {
  name: "conv6_2_mbox_conf_perm"
  type: "Permute"
  bottom: "conv6_2_mbox_conf"
  top: "conv6_2_mbox_conf_perm"
  permute_param {
    order: 0
    order: 2
    order: 3
    order: 1
  }
}
layer {
  name: "conv6_2_mbox_conf_flat"
  type: "Flatten"
  bottom: "conv6_2_mbox_conf_perm"
  top: "conv6_2_mbox_conf_flat"
  flatten_param {
    axis: 1
  }
}
layer {
  name: "conv6_2_mbox_priorbox"
  type: "PriorBox"
  bottom: "conv6_2"
  bottom: "data"
  top: "conv6_2_mbox_priorbox"
  prior_box_param {
    min_size: 111
    max_size: 162
    aspect_ratio: 2
    aspect_ratio: 3
    flip: true
    clip: false
    variance: 0.1
    variance: 0.1
    variance: 0.2
    variance: 0.2
    step: 32
    offset: 0.5
  }
}
layer {
  name: "conv7_2_mbox_loc"
  type: "ConvolutionFixed"
  bottom: "conv7_2"
  top: "conv7_2_mbox_loc"
  param {
    lr_mult: 1
    decay_mult: 1
  }
  param {
    lr_mult: 2
    decay_mult: 0
  }
  convolution_param {
    num_output: 24
    pad: 1
    kernel_size: 3
    stride: 1
    weight_filler {
      type: "xavier"
    }
    bias_filler {
      type: "constant"
      value: 0
    }
  }
  fixed_param {
    fixed_method: DIFF_S
    bit_width: 8
  }
}
layer {
  name: "conv7_2_mbox_loc_perm"
  type: "Permute"
  bottom: "conv7_2_mbox_loc"
  top: "conv7_2_mbox_loc_perm"
  permute_param {
    order: 0
    order: 2
    order: 3
    order: 1
  }
}
layer {
  name: "conv7_2_mbox_loc_flat"
  type: "Flatten"
  bottom: "conv7_2_mbox_loc_perm"
  top: "conv7_2_mbox_loc_flat"
  flatten_param {
    axis: 1
  }
}
layer {
  name: "conv7_2_mbox_conf"
  type: "ConvolutionFixed"
  bottom: "conv7_2"
  top: "conv7_2_mbox_conf"
  param {
    lr_mult: 1
    decay_mult: 1
  }
  param {
    lr_mult: 2
    decay_mult: 0
  }
  convolution_param {
    num_output: 126
    pad: 1
    kernel_size: 3
    stride: 1
    weight_filler {
      type: "xavier"
    }
    bias_filler {
      type: "constant"
      value: 0
    }
  }
  fixed_param {
    fixed_method: DIFF_S
    bit_width: 8
  }
}
layer {
  name: "conv7_2_mbox_conf_perm"
  type: "Permute"
  bottom: "conv7_2_mbox_conf"
  top: "conv7_2_mbox_conf_perm"
  permute_param {
    order: 0
    order: 2
    order: 3
    order: 1
  }
}
layer {
  name: "conv7_2_mbox_conf_flat"
  type: "Flatten"
  bottom: "conv7_2_mbox_conf_perm"
  top: "conv7_2_mbox_conf_flat"
  flatten_param {
    axis: 1
  }
}
layer {
  name: "conv7_2_mbox_priorbox"
  type: "PriorBox"
  bottom: "conv7_2"
  bottom: "data"
  top: "conv7_2_mbox_priorbox"
  prior_box_param {
    min_size: 162
    max_size: 213
    aspect_ratio: 2
    aspect_ratio: 3
    flip: true
    clip: false
    variance: 0.1
    variance: 0.1
    variance: 0.2
    variance: 0.2
    step: 64
    offset: 0.5
  }
}
layer {
  name: "conv8_2_mbox_loc"
  type: "ConvolutionFixed"
  bottom: "conv8_2"
  top: "conv8_2_mbox_loc"
  param {
    lr_mult: 1
    decay_mult: 1
  }
  param {
    lr_mult: 2
    decay_mult: 0
  }
  convolution_param {
    num_output: 16
    pad: 1
    kernel_size: 3
    stride: 1
    weight_filler {
      type: "xavier"
    }
    bias_filler {
      type: "constant"
      value: 0
    }
  }
  fixed_param {
    fixed_method: DIFF_S
    bit_width: 8
  }
}
layer {
  name: "conv8_2_mbox_loc_perm"
  type: "Permute"
  bottom: "conv8_2_mbox_loc"
  top: "conv8_2_mbox_loc_perm"
  permute_param {
    order: 0
    order: 2
    order: 3
    order: 1
  }
}
layer {
  name: "conv8_2_mbox_loc_flat"
  type: "Flatten"
  bottom: "conv8_2_mbox_loc_perm"
  top: "conv8_2_mbox_loc_flat"
  flatten_param {
    axis: 1
  }
}
layer {
  name: "conv8_2_mbox_conf"
  type: "ConvolutionFixed"
  bottom: "conv8_2"
  top: "conv8_2_mbox_conf"
  param {
    lr_mult: 1
    decay_mult: 1
  }
  param {
    lr_mult: 2
    decay_mult: 0
  }
  convolution_param {
    num_output: 84
    pad: 1
    kernel_size: 3
    stride: 1
    weight_filler {
      type: "xavier"
    }
    bias_filler {
      type: "constant"
      value: 0
    }
  }
  fixed_param {
    fixed_method: DIFF_S
    bit_width: 8
  }
}
layer {
  name: "conv8_2_mbox_conf_perm"
  type: "Permute"
  bottom: "conv8_2_mbox_conf"
  top: "conv8_2_mbox_conf_perm"
  permute_param {
    order: 0
    order: 2
    order: 3
    order: 1
  }
}
layer {
  name: "conv8_2_mbox_conf_flat"
  type: "Flatten"
  bottom: "conv8_2_mbox_conf_perm"
  top: "conv8_2_mbox_conf_flat"
  flatten_param {
    axis: 1
  }
}
layer {
  name: "conv8_2_mbox_priorbox"
  type: "PriorBox"
  bottom: "conv8_2"
  bottom: "data"
  top: "conv8_2_mbox_priorbox"
  prior_box_param {
    min_size: 213
    max_size: 264
    aspect_ratio: 2
    flip: true
    clip: false
    variance: 0.1
    variance: 0.1
    variance: 0.2
    variance: 0.2
    step: 100
    offset: 0.5
  }
}
layer {
  name: "conv9_2_mbox_loc"
  type: "ConvolutionFixed"
  bottom: "conv9_2"
  top: "conv9_2_mbox_loc"
  param {
    lr_mult: 1
    decay_mult: 1
  }
  param {
    lr_mult: 2
    decay_mult: 0
  }
  convolution_param {
    num_output: 16
    pad: 1
    kernel_size: 3
    stride: 1
    weight_filler {
      type: "xavier"
    }
    bias_filler {
      type: "constant"
      value: 0
    }
  }
  fixed_param {
    fixed_method: DIFF_S
    bit_width: 8
  }
}
layer {
  name: "conv9_2_mbox_loc_perm"
  type: "Permute"
  bottom: "conv9_2_mbox_loc"
  top: "conv9_2_mbox_loc_perm"
  permute_param {
    order: 0
    order: 2
    order: 3
    order: 1
  }
}
layer {
  name: "conv9_2_mbox_loc_flat"
  type: "Flatten"
  bottom: "conv9_2_mbox_loc_perm"
  top: "conv9_2_mbox_loc_flat"
  flatten_param {
    axis: 1
  }
}
layer {
  name: "conv9_2_mbox_conf"
  type: "ConvolutionFixed"
  bottom: "conv9_2"
  top: "conv9_2_mbox_conf"
  param {
    lr_mult: 1
    decay_mult: 1
  }
  param {
    lr_mult: 2
    decay_mult: 0
  }
  convolution_param {
    num_output: 84
    pad: 1
    kernel_size: 3
    stride: 1
    weight_filler {
      type: "xavier"
    }
    bias_filler {
      type: "constant"
      value: 0
    }
  }
  fixed_param {
    fixed_method: DIFF_S
    bit_width: 8
  }
}
layer {
  name: "conv9_2_mbox_conf_perm"
  type: "Permute"
  bottom: "conv9_2_mbox_conf"
  top: "conv9_2_mbox_conf_perm"
  permute_param {
    order: 0
    order: 2
    order: 3
    order: 1
  }
}
layer {
  name: "conv9_2_mbox_conf_flat"
  type: "Flatten"
  bottom: "conv9_2_mbox_conf_perm"
  top: "conv9_2_mbox_conf_flat"
  flatten_param {
    axis: 1
  }
}
layer {
  name: "con
I0406 07:36:23.024216   621 layer_factory.hpp:93] Creating layer data
I0406 07:36:23.024231   621 net.cpp:110] Creating Layer data
I0406 07:36:23.024237   621 net.cpp:425] data -> data
I0406 07:36:23.024246   621 net.cpp:425] data -> label
I0406 07:36:23.024257   621 image_data_layer.cpp:57] Opening file ../calibration.txt
I0406 07:36:23.024451   621 image_data_layer.cpp:67] Shuffling data
I0406 07:36:23.024505   621 image_data_layer.cpp:72] A total of 1000 images.
I0406 07:36:23.028384   621 image_data_layer.cpp:100] output data size: 1,3,300,300
I0406 07:36:23.035019   621 internal_thread.cpp:43] Starting internal thread(s) on GPU 0
I0406 07:36:23.035221   621 net.cpp:160] Setting up data
I0406 07:36:23.035228   621 net.cpp:167] Top shape: 1 3 300 300 (270000)
I0406 07:36:23.035235   621 net.cpp:167] Top shape: 1 (1)
I0406 07:36:23.035239   621 net.cpp:175] Memory required for data: 1080004
I0406 07:36:23.035243   621 layer_factory.hpp:93] Creating layer data_fixed
I0406 07:36:23.035251   621 net.cpp:110] Creating Layer data_fixed
I0406 07:36:23.035255   621 net.cpp:451] data_fixed <- data
I0406 07:36:23.035260   621 net.cpp:412] data_fixed -> data (in-place)
I0406 07:36:23.035362   621 net.cpp:160] Setting up data_fixed
I0406 07:36:23.035367   621 net.cpp:167] Top shape: 1 3 300 300 (270000)
I0406 07:36:23.035373   621 net.cpp:175] Memory required for data: 2160004
I0406 07:36:23.035382   621 layer_factory.hpp:93] Creating layer data_data_fixed_0_split
I0406 07:36:23.035388   621 net.cpp:110] Creating Layer data_data_fixed_0_split
I0406 07:36:23.035392   621 net.cpp:451] data_data_fixed_0_split <- data
I0406 07:36:23.035398   621 net.cpp:425] data_data_fixed_0_split -> data_data_fixed_0_split_0
I0406 07:36:23.035403   621 net.cpp:425] data_data_fixed_0_split -> data_data_fixed_0_split_1
I0406 07:36:23.035409   621 net.cpp:425] data_data_fixed_0_split -> data_data_fixed_0_split_2
I0406 07:36:23.035414   621 net.cpp:425] data_data_fixed_0_split -> data_data_fixed_0_split_3
I0406 07:36:23.035419   621 net.cpp:425] data_data_fixed_0_split -> data_data_fixed_0_split_4
I0406 07:36:23.035423   621 net.cpp:425] data_data_fixed_0_split -> data_data_fixed_0_split_5
I0406 07:36:23.035429   621 net.cpp:425] data_data_fixed_0_split -> data_data_fixed_0_split_6
I0406 07:36:23.035521   621 net.cpp:160] Setting up data_data_fixed_0_split
I0406 07:36:23.035526   621 net.cpp:167] Top shape: 1 3 300 300 (270000)
I0406 07:36:23.035532   621 net.cpp:167] Top shape: 1 3 300 300 (270000)
I0406 07:36:23.035537   621 net.cpp:167] Top shape: 1 3 300 300 (270000)
I0406 07:36:23.035539   621 net.cpp:167] Top shape: 1 3 300 300 (270000)
I0406 07:36:23.035543   621 net.cpp:167] Top shape: 1 3 300 300 (270000)
I0406 07:36:23.035548   621 net.cpp:167] Top shape: 1 3 300 300 (270000)
I0406 07:36:23.035552   621 net.cpp:167] Top shape: 1 3 300 300 (270000)
I0406 07:36:23.035557   621 net.cpp:175] Memory required for data: 9720004
I0406 07:36:23.035559   621 layer_factory.hpp:93] Creating layer conv1_1
I0406 07:36:23.035567   621 net.cpp:110] Creating Layer conv1_1
I0406 07:36:23.035571   621 net.cpp:451] conv1_1 <- data_data_fixed_0_split_0
I0406 07:36:23.035576   621 net.cpp:425] conv1_1 -> conv1_1
I0406 07:36:23.035730   621 layer_factory.hpp:93] Creating layer conv1_1
I0406 07:36:23.036077   621 net.cpp:160] Setting up conv1_1
I0406 07:36:23.036084   621 net.cpp:167] Top shape: 1 64 300 300 (5760000)
I0406 07:36:23.036090   621 net.cpp:175] Memory required for data: 32760004
I0406 07:36:23.036098   621 layer_factory.hpp:93] Creating layer relu1_1
I0406 07:36:23.036103   621 net.cpp:110] Creating Layer relu1_1
I0406 07:36:23.036106   621 net.cpp:451] relu1_1 <- conv1_1
I0406 07:36:23.036110   621 net.cpp:412] relu1_1 -> conv1_1 (in-place)
I0406 07:36:23.036118   621 net.cpp:160] Setting up relu1_1
I0406 07:36:23.036120   621 net.cpp:167] Top shape: 1 64 300 300 (5760000)
I0406 07:36:23.036124   621 net.cpp:175] Memory required for data: 55800004
I0406 07:36:23.036128   621 layer_factory.hpp:93] Creating layer conv1_1_fixed
I0406 07:36:23.036132   621 net.cpp:110] Creating Layer conv1_1_fixed
I0406 07:36:23.036135   621 net.cpp:451] conv1_1_fixed <- conv1_1
I0406 07:36:23.036139   621 net.cpp:412] conv1_1_fixed -> conv1_1 (in-place)
I0406 07:36:23.036168   621 net.cpp:160] Setting up conv1_1_fixed
I0406 07:36:23.036171   621 net.cpp:167] Top shape: 1 64 300 300 (5760000)
I0406 07:36:23.036176   621 net.cpp:175] Memory required for data: 78840004
I0406 07:36:23.036196   621 layer_factory.hpp:93] Creating layer conv1_2
I0406 07:36:23.036203   621 net.cpp:110] Creating Layer conv1_2
I0406 07:36:23.036207   621 net.cpp:451] conv1_2 <- conv1_1
I0406 07:36:23.036211   621 net.cpp:425] conv1_2 -> conv1_2
I0406 07:36:23.036559   621 layer_factory.hpp:93] Creating layer conv1_2
I0406 07:36:23.037237   621 net.cpp:160] Setting up conv1_2
I0406 07:36:23.037246   621 net.cpp:167] Top shape: 1 64 300 300 (5760000)
I0406 07:36:23.037251   621 net.cpp:175] Memory required for data: 101880004
I0406 07:36:23.037258   621 layer_factory.hpp:93] Creating layer relu1_2
I0406 07:36:23.037263   621 net.cpp:110] Creating Layer relu1_2
I0406 07:36:23.037267   621 net.cpp:451] relu1_2 <- conv1_2
I0406 07:36:23.037271   621 net.cpp:412] relu1_2 -> conv1_2 (in-place)
I0406 07:36:23.037276   621 net.cpp:160] Setting up relu1_2
I0406 07:36:23.037279   621 net.cpp:167] Top shape: 1 64 300 300 (5760000)
I0406 07:36:23.037284   621 net.cpp:175] Memory required for data: 124920004
I0406 07:36:23.037287   621 layer_factory.hpp:93] Creating layer pool1
I0406 07:36:23.037292   621 net.cpp:110] Creating Layer pool1
I0406 07:36:23.037297   621 net.cpp:451] pool1 <- conv1_2
I0406 07:36:23.037300   621 net.cpp:425] pool1 -> pool1
I0406 07:36:23.037334   621 net.cpp:160] Setting up pool1
I0406 07:36:23.037339   621 net.cpp:167] Top shape: 1 64 150 150 (1440000)
I0406 07:36:23.037345   621 net.cpp:175] Memory required for data: 130680004
I0406 07:36:23.037348   621 layer_factory.hpp:93] Creating layer pool1_fixed
I0406 07:36:23.037353   621 net.cpp:110] Creating Layer pool1_fixed
I0406 07:36:23.037356   621 net.cpp:451] pool1_fixed <- pool1
I0406 07:36:23.037361   621 net.cpp:412] pool1_fixed -> pool1 (in-place)
I0406 07:36:23.037389   621 net.cpp:160] Setting up pool1_fixed
I0406 07:36:23.037391   621 net.cpp:167] Top shape: 1 64 150 150 (1440000)
I0406 07:36:23.037396   621 net.cpp:175] Memory required for data: 136440004
I0406 07:36:23.037400   621 layer_factory.hpp:93] Creating layer conv2_1
I0406 07:36:23.037408   621 net.cpp:110] Creating Layer conv2_1
I0406 07:36:23.037411   621 net.cpp:451] conv2_1 <- pool1
I0406 07:36:23.037416   621 net.cpp:425] conv2_1 -> conv2_1
I0406 07:36:23.037959   621 layer_factory.hpp:93] Creating layer conv2_1
I0406 07:36:23.038635   621 net.cpp:160] Setting up conv2_1
I0406 07:36:23.038643   621 net.cpp:167] Top shape: 1 128 150 150 (2880000)
I0406 07:36:23.038650   621 net.cpp:175] Memory required for data: 147960004
I0406 07:36:23.038655   621 layer_factory.hpp:93] Creating layer relu2_1
I0406 07:36:23.038661   621 net.cpp:110] Creating Layer relu2_1
I0406 07:36:23.038663   621 net.cpp:451] relu2_1 <- conv2_1
I0406 07:36:23.038668   621 net.cpp:412] relu2_1 -> conv2_1 (in-place)
I0406 07:36:23.038674   621 net.cpp:160] Setting up relu2_1
I0406 07:36:23.038677   621 net.cpp:167] Top shape: 1 128 150 150 (2880000)
I0406 07:36:23.038681   621 net.cpp:175] Memory required for data: 159480004
I0406 07:36:23.038684   621 layer_factory.hpp:93] Creating layer conv2_1_fixed
I0406 07:36:23.038689   621 net.cpp:110] Creating Layer conv2_1_fixed
I0406 07:36:23.038692   621 net.cpp:451] conv2_1_fixed <- conv2_1
I0406 07:36:23.038697   621 net.cpp:412] conv2_1_fixed -> conv2_1 (in-place)
I0406 07:36:23.038725   621 net.cpp:160] Setting up conv2_1_fixed
I0406 07:36:23.038729   621 net.cpp:167] Top shape: 1 128 150 150 (2880000)
I0406 07:36:23.038733   621 net.cpp:175] Memory required for data: 171000004
I0406 07:36:23.038738   621 layer_factory.hpp:93] Creating layer conv2_2
I0406 07:36:23.038745   621 net.cpp:110] Creating Layer conv2_2
I0406 07:36:23.038748   621 net.cpp:451] conv2_2 <- conv2_1
I0406 07:36:23.038753   621 net.cpp:425] conv2_2 -> conv2_2
I0406 07:36:23.039702   621 layer_factory.hpp:93] Creating layer conv2_2
I0406 07:36:23.040788   621 net.cpp:160] Setting up conv2_2
I0406 07:36:23.040796   621 net.cpp:167] Top shape: 1 128 150 150 (2880000)
I0406 07:36:23.040802   621 net.cpp:175] Memory required for data: 182520004
I0406 07:36:23.040808   621 layer_factory.hpp:93] Creating layer relu2_2
I0406 07:36:23.040813   621 net.cpp:110] Creating Layer relu2_2
I0406 07:36:23.040817   621 net.cpp:451] relu2_2 <- conv2_2
I0406 07:36:23.040820   621 net.cpp:412] relu2_2 -> conv2_2 (in-place)
I0406 07:36:23.040827   621 net.cpp:160] Setting up relu2_2
I0406 07:36:23.040830   621 net.cpp:167] Top shape: 1 128 150 150 (2880000)
I0406 07:36:23.040834   621 net.cpp:175] Memory required for data: 194040004
I0406 07:36:23.040838   621 layer_factory.hpp:93] Creating layer pool2
I0406 07:36:23.040843   621 net.cpp:110] Creating Layer pool2
I0406 07:36:23.040845   621 net.cpp:451] pool2 <- conv2_2
I0406 07:36:23.040850   621 net.cpp:425] pool2 -> pool2
I0406 07:36:23.040880   621 net.cpp:160] Setting up pool2
I0406 07:36:23.040884   621 net.cpp:167] Top shape: 1 128 75 75 (720000)
I0406 07:36:23.040889   621 net.cpp:175] Memory required for data: 196920004
I0406 07:36:23.040891   621 layer_factory.hpp:93] Creating layer pool2_fixed
I0406 07:36:23.040897   621 net.cpp:110] Creating Layer pool2_fixed
I0406 07:36:23.040901   621 net.cpp:451] pool2_fixed <- pool2
I0406 07:36:23.040905   621 net.cpp:412] pool2_fixed -> pool2 (in-place)
I0406 07:36:23.040931   621 net.cpp:160] Setting up pool2_fixed
I0406 07:36:23.040935   621 net.cpp:167] Top shape: 1 128 75 75 (720000)
I0406 07:36:23.040940   621 net.cpp:175] Memory required for data: 199800004
I0406 07:36:23.040944   621 layer_factory.hpp:93] Creating layer conv3_1
I0406 07:36:23.040951   621 net.cpp:110] Creating Layer conv3_1
I0406 07:36:23.040956   621 net.cpp:451] conv3_1 <- pool2
I0406 07:36:23.040959   621 net.cpp:425] conv3_1 -> conv3_1
I0406 07:36:23.044049   621 layer_factory.hpp:93] Creating layer conv3_1
I0406 07:36:23.047209   621 net.cpp:160] Setting up conv3_1
I0406 07:36:23.047220   621 net.cpp:167] Top shape: 1 256 75 75 (1440000)
I0406 07:36:23.047227   621 net.cpp:175] Memory required for data: 205560004
I0406 07:36:23.047235   621 layer_factory.hpp:93] Creating layer relu3_1
I0406 07:36:23.047240   621 net.cpp:110] Creating Layer relu3_1
I0406 07:36:23.047245   621 net.cpp:451] relu3_1 <- conv3_1
I0406 07:36:23.047250   621 net.cpp:412] relu3_1 -> conv3_1 (in-place)
I0406 07:36:23.047255   621 net.cpp:160] Setting up relu3_1
I0406 07:36:23.047260   621 net.cpp:167] Top shape: 1 256 75 75 (1440000)
I0406 07:36:23.047263   621 net.cpp:175] Memory required for data: 211320004
I0406 07:36:23.047266   621 layer_factory.hpp:93] Creating layer conv3_1_fixed
I0406 07:36:23.047271   621 net.cpp:110] Creating Layer conv3_1_fixed
I0406 07:36:23.047276   621 net.cpp:451] conv3_1_fixed <- conv3_1
I0406 07:36:23.047278   621 net.cpp:412] conv3_1_fixed -> conv3_1 (in-place)
I0406 07:36:23.047307   621 net.cpp:160] Setting up conv3_1_fixed
I0406 07:36:23.047310   621 net.cpp:167] Top shape: 1 256 75 75 (1440000)
I0406 07:36:23.047314   621 net.cpp:175] Memory required for data: 217080004
I0406 07:36:23.047319   621 layer_factory.hpp:93] Creating layer conv3_2
I0406 07:36:23.047327   621 net.cpp:110] Creating Layer conv3_2
I0406 07:36:23.047330   621 net.cpp:451] conv3_2 <- conv3_1
I0406 07:36:23.047335   621 net.cpp:425] conv3_2 -> conv3_2
I0406 07:36:23.052099   621 layer_factory.hpp:93] Creating layer conv3_2
I0406 07:36:23.056999   621 net.cpp:160] Setting up conv3_2
I0406 07:36:23.057011   621 net.cpp:167] Top shape: 1 256 75 75 (1440000)
I0406 07:36:23.057019   621 net.cpp:175] Memory required for data: 222840004
I0406 07:36:23.057030   621 layer_factory.hpp:93] Creating layer relu3_2
I0406 07:36:23.057036   621 net.cpp:110] Creating Layer relu3_2
I0406 07:36:23.057041   621 net.cpp:451] relu3_2 <- conv3_2
I0406 07:36:23.057046   621 net.cpp:412] relu3_2 -> conv3_2 (in-place)
I0406 07:36:23.057054   621 net.cpp:160] Setting up relu3_2
I0406 07:36:23.057060   621 net.cpp:167] Top shape: 1 256 75 75 (1440000)
I0406 07:36:23.057065   621 net.cpp:175] Memory required for data: 228600004
I0406 07:36:23.057067   621 layer_factory.hpp:93] Creating layer conv3_2_fixed
I0406 07:36:23.057072   621 net.cpp:110] Creating Layer conv3_2_fixed
I0406 07:36:23.057075   621 net.cpp:451] conv3_2_fixed <- conv3_2
I0406 07:36:23.057080   621 net.cpp:412] conv3_2_fixed -> conv3_2 (in-place)
I0406 07:36:23.057111   621 net.cpp:160] Setting up conv3_2_fixed
I0406 07:36:23.057116   621 net.cpp:167] Top shape: 1 256 75 75 (1440000)
I0406 07:36:23.057121   621 net.cpp:175] Memory required for data: 234360004
I0406 07:36:23.057124   621 layer_factory.hpp:93] Creating layer conv3_3
I0406 07:36:23.057133   621 net.cpp:110] Creating Layer conv3_3
I0406 07:36:23.057137   621 net.cpp:451] conv3_3 <- conv3_2
I0406 07:36:23.057142   621 net.cpp:425] conv3_3 -> conv3_3
I0406 07:36:23.062119   621 layer_factory.hpp:93] Creating layer conv3_3
I0406 07:36:23.067003   621 net.cpp:160] Setting up conv3_3
I0406 07:36:23.067015   621 net.cpp:167] Top shape: 1 256 75 75 (1440000)
I0406 07:36:23.067021   621 net.cpp:175] Memory required for data: 240120004
I0406 07:36:23.067029   621 layer_factory.hpp:93] Creating layer relu3_3
I0406 07:36:23.067034   621 net.cpp:110] Creating Layer relu3_3
I0406 07:36:23.067039   621 net.cpp:451] relu3_3 <- conv3_3
I0406 07:36:23.067044   621 net.cpp:412] relu3_3 -> conv3_3 (in-place)
I0406 07:36:23.067049   621 net.cpp:160] Setting up relu3_3
I0406 07:36:23.067052   621 net.cpp:167] Top shape: 1 256 75 75 (1440000)
I0406 07:36:23.067056   621 net.cpp:175] Memory required for data: 245880004
I0406 07:36:23.067060   621 layer_factory.hpp:93] Creating layer pool3
I0406 07:36:23.067065   621 net.cpp:110] Creating Layer pool3
I0406 07:36:23.067068   621 net.cpp:451] pool3 <- conv3_3
I0406 07:36:23.067075   621 net.cpp:425] pool3 -> pool3
I0406 07:36:23.067109   621 net.cpp:160] Setting up pool3
I0406 07:36:23.067114   621 net.cpp:167] Top shape: 1 256 38 38 (369664)
I0406 07:36:23.067119   621 net.cpp:175] Memory required for data: 247358660
I0406 07:36:23.067122   621 layer_factory.hpp:93] Creating layer pool3_fixed
I0406 07:36:23.067127   621 net.cpp:110] Creating Layer pool3_fixed
I0406 07:36:23.067131   621 net.cpp:451] pool3_fixed <- pool3
I0406 07:36:23.067135   621 net.cpp:412] pool3_fixed -> pool3 (in-place)
I0406 07:36:23.067164   621 net.cpp:160] Setting up pool3_fixed
I0406 07:36:23.067169   621 net.cpp:167] Top shape: 1 256 38 38 (369664)
I0406 07:36:23.067174   621 net.cpp:175] Memory required for data: 248837316
I0406 07:36:23.067178   621 layer_factory.hpp:93] Creating layer conv4_1
I0406 07:36:23.067186   621 net.cpp:110] Creating Layer conv4_1
I0406 07:36:23.067190   621 net.cpp:451] conv4_1 <- pool3
I0406 07:36:23.067195   621 net.cpp:425] conv4_1 -> conv4_1
I0406 07:36:23.076339   621 layer_factory.hpp:93] Creating layer conv4_1
I0406 07:36:23.085588   621 net.cpp:160] Setting up conv4_1
I0406 07:36:23.085600   621 net.cpp:167] Top shape: 1 512 38 38 (739328)
I0406 07:36:23.085606   621 net.cpp:175] Memory required for data: 251794628
I0406 07:36:23.085614   621 layer_factory.hpp:93] Creating layer relu4_1
I0406 07:36:23.085619   621 net.cpp:110] Creating Layer relu4_1
I0406 07:36:23.085624   621 net.cpp:451] relu4_1 <- conv4_1
I0406 07:36:23.085629   621 net.cpp:412] relu4_1 -> conv4_1 (in-place)
I0406 07:36:23.085635   621 net.cpp:160] Setting up relu4_1
I0406 07:36:23.085638   621 net.cpp:167] Top shape: 1 512 38 38 (739328)
I0406 07:36:23.085642   621 net.cpp:175] Memory required for data: 254751940
I0406 07:36:23.085645   621 layer_factory.hpp:93] Creating layer conv4_1_fixed
I0406 07:36:23.085650   621 net.cpp:110] Creating Layer conv4_1_fixed
I0406 07:36:23.085654   621 net.cpp:451] conv4_1_fixed <- conv4_1
I0406 07:36:23.085659   621 net.cpp:412] conv4_1_fixed -> conv4_1 (in-place)
I0406 07:36:23.085687   621 net.cpp:160] Setting up conv4_1_fixed
I0406 07:36:23.085692   621 net.cpp:167] Top shape: 1 512 38 38 (739328)
I0406 07:36:23.085697   621 net.cpp:175] Memory required for data: 257709252
I0406 07:36:23.085701   621 layer_factory.hpp:93] Creating layer conv4_2
I0406 07:36:23.085709   621 net.cpp:110] Creating Layer conv4_2
I0406 07:36:23.085713   621 net.cpp:451] conv4_2 <- conv4_1
I0406 07:36:23.085718   621 net.cpp:425] conv4_2 -> conv4_2
I0406 07:36:23.103600   621 layer_factory.hpp:93] Creating layer conv4_2
I0406 07:36:23.121600   621 net.cpp:160] Setting up conv4_2
I0406 07:36:23.121629   621 net.cpp:167] Top shape: 1 512 38 38 (739328)
I0406 07:36:23.121639   621 net.cpp:175] Memory required for data: 260666564
I0406 07:36:23.121649   621 layer_factory.hpp:93] Creating layer relu4_2
I0406 07:36:23.121655   621 net.cpp:110] Creating Layer relu4_2
I0406 07:36:23.121660   621 net.cpp:451] relu4_2 <- conv4_2
I0406 07:36:23.121666   621 net.cpp:412] relu4_2 -> conv4_2 (in-place)
I0406 07:36:23.121678   621 net.cpp:160] Setting up relu4_2
I0406 07:36:23.121681   621 net.cpp:167] Top shape: 1 512 38 38 (739328)
I0406 07:36:23.121686   621 net.cpp:175] Memory required for data: 263623876
I0406 07:36:23.121690   621 layer_factory.hpp:93] Creating layer conv4_2_fixed
I0406 07:36:23.121697   621 net.cpp:110] Creating Layer conv4_2_fixed
I0406 07:36:23.121701   621 net.cpp:451] conv4_2_fixed <- conv4_2
I0406 07:36:23.121706   621 net.cpp:412] conv4_2_fixed -> conv4_2 (in-place)
I0406 07:36:23.121733   621 net.cpp:160] Setting up conv4_2_fixed
I0406 07:36:23.121739   621 net.cpp:167] Top shape: 1 512 38 38 (739328)
I0406 07:36:23.121743   621 net.cpp:175] Memory required for data: 266581188
I0406 07:36:23.121748   621 layer_factory.hpp:93] Creating layer conv4_3
I0406 07:36:23.121757   621 net.cpp:110] Creating Layer conv4_3
I0406 07:36:23.121759   621 net.cpp:451] conv4_3 <- conv4_2
I0406 07:36:23.121764   621 net.cpp:425] conv4_3 -> conv4_3
I0406 07:36:23.139467   621 layer_factory.hpp:93] Creating layer conv4_3
I0406 07:36:23.157438   621 net.cpp:160] Setting up conv4_3
I0406 07:36:23.157454   621 net.cpp:167] Top shape: 1 512 38 38 (739328)
I0406 07:36:23.157480   621 net.cpp:175] Memory required for data: 269538500
I0406 07:36:23.157490   621 layer_factory.hpp:93] Creating layer relu4_3
I0406 07:36:23.157498   621 net.cpp:110] Creating Layer relu4_3
I0406 07:36:23.157503   621 net.cpp:451] relu4_3 <- conv4_3
I0406 07:36:23.157510   621 net.cpp:412] relu4_3 -> conv4_3 (in-place)
I0406 07:36:23.157517   621 net.cpp:160] Setting up relu4_3
I0406 07:36:23.157521   621 net.cpp:167] Top shape: 1 512 38 38 (739328)
I0406 07:36:23.157524   621 net.cpp:175] Memory required for data: 272495812
I0406 07:36:23.157528   621 layer_factory.hpp:93] Creating layer conv4_3_fixed
I0406 07:36:23.157534   621 net.cpp:110] Creating Layer conv4_3_fixed
I0406 07:36:23.157537   621 net.cpp:451] conv4_3_fixed <- conv4_3
I0406 07:36:23.157541   621 net.cpp:412] conv4_3_fixed -> conv4_3 (in-place)
I0406 07:36:23.157569   621 net.cpp:160] Setting up conv4_3_fixed
I0406 07:36:23.157575   621 net.cpp:167] Top shape: 1 512 38 38 (739328)
I0406 07:36:23.157579   621 net.cpp:175] Memory required for data: 275453124
I0406 07:36:23.157584   621 layer_factory.hpp:93] Creating layer conv4_3_conv4_3_fixed_0_split
I0406 07:36:23.157590   621 net.cpp:110] Creating Layer conv4_3_conv4_3_fixed_0_split
I0406 07:36:23.157593   621 net.cpp:451] conv4_3_conv4_3_fixed_0_split <- conv4_3
I0406 07:36:23.157598   621 net.cpp:425] conv4_3_conv4_3_fixed_0_split -> conv4_3_conv4_3_fixed_0_split_0
I0406 07:36:23.157604   621 net.cpp:425] conv4_3_conv4_3_fixed_0_split -> conv4_3_conv4_3_fixed_0_split_1
I0406 07:36:23.157609   621 net.cpp:425] conv4_3_conv4_3_fixed_0_split -> conv4_3_conv4_3_fixed_0_split_2
I0406 07:36:23.157614   621 net.cpp:425] conv4_3_conv4_3_fixed_0_split -> conv4_3_conv4_3_fixed_0_split_3
I0406 07:36:23.157660   621 net.cpp:160] Setting up conv4_3_conv4_3_fixed_0_split
I0406 07:36:23.157665   621 net.cpp:167] Top shape: 1 512 38 38 (739328)
I0406 07:36:23.157670   621 net.cpp:167] Top shape: 1 512 38 38 (739328)
I0406 07:36:23.157673   621 net.cpp:167] Top shape: 1 512 38 38 (739328)
I0406 07:36:23.157677   621 net.cpp:167] Top shape: 1 512 38 38 (739328)
I0406 07:36:23.157681   621 net.cpp:175] Memory required for data: 287282372
I0406 07:36:23.157685   621 layer_factory.hpp:93] Creating layer pool4
I0406 07:36:23.157691   621 net.cpp:110] Creating Layer pool4
I0406 07:36:23.157694   621 net.cpp:451] pool4 <- conv4_3_conv4_3_fixed_0_split_0
I0406 07:36:23.157699   621 net.cpp:425] pool4 -> pool4
I0406 07:36:23.157727   621 net.cpp:160] Setting up pool4
I0406 07:36:23.157732   621 net.cpp:167] Top shape: 1 512 19 19 (184832)
I0406 07:36:23.157735   621 net.cpp:175] Memory required for data: 288021700
I0406 07:36:23.157739   621 layer_factory.hpp:93] Creating layer conv5_1
I0406 07:36:23.157748   621 net.cpp:110] Creating Layer conv5_1
I0406 07:36:23.157752   621 net.cpp:451] conv5_1 <- pool4
I0406 07:36:23.157757   621 net.cpp:425] conv5_1 -> conv5_1
I0406 07:36:23.175559   621 layer_factory.hpp:93] Creating layer conv5_1
I0406 07:36:23.193488   621 net.cpp:160] Setting up conv5_1
I0406 07:36:23.193507   621 net.cpp:167] Top shape: 1 512 19 19 (184832)
I0406 07:36:23.193516   621 net.cpp:175] Memory required for data: 288761028
I0406 07:36:23.193531   621 layer_factory.hpp:93] Creating layer relu5_1
I0406 07:36:23.193538   621 net.cpp:110] Creating Layer relu5_1
I0406 07:36:23.193543   621 net.cpp:451] relu5_1 <- conv5_1
I0406 07:36:23.193550   621 net.cpp:412] relu5_1 -> conv5_1 (in-place)
I0406 07:36:23.193558   621 net.cpp:160] Setting up relu5_1
I0406 07:36:23.193562   621 net.cpp:167] Top shape: 1 512 19 19 (184832)
I0406 07:36:23.193565   621 net.cpp:175] Memory required for data: 289500356
I0406 07:36:23.193568   621 layer_factory.hpp:93] Creating layer conv5_1_fixed
I0406 07:36:23.193575   621 net.cpp:110] Creating Layer conv5_1_fixed
I0406 07:36:23.193578   621 net.cpp:451] conv5_1_fixed <- conv5_1
I0406 07:36:23.193583   621 net.cpp:412] conv5_1_fixed -> conv5_1 (in-place)
I0406 07:36:23.193612   621 net.cpp:160] Setting up conv5_1_fixed
I0406 07:36:23.193617   621 net.cpp:167] Top shape: 1 512 19 19 (184832)
I0406 07:36:23.193622   621 net.cpp:175] Memory required for data: 290239684
I0406 07:36:23.193626   621 layer_factory.hpp:93] Creating layer conv5_2
I0406 07:36:23.193636   621 net.cpp:110] Creating Layer conv5_2
I0406 07:36:23.193639   621 net.cpp:451] conv5_2 <- conv5_1
I0406 07:36:23.193645   621 net.cpp:425] conv5_2 -> conv5_2
I0406 07:36:23.211438   621 layer_factory.hpp:93] Creating layer conv5_2
I0406 07:36:23.229312   621 net.cpp:160] Setting up conv5_2
I0406 07:36:23.229326   621 net.cpp:167] Top shape: 1 512 19 19 (184832)
I0406 07:36:23.229336   621 net.cpp:175] Memory required for data: 290979012
I0406 07:36:23.229346   621 layer_factory.hpp:93] Creating layer relu5_2
I0406 07:36:23.229352   621 net.cpp:110] Creating Layer relu5_2
I0406 07:36:23.229357   621 net.cpp:451] relu5_2 <- conv5_2
I0406 07:36:23.229364   621 net.cpp:412] relu5_2 -> conv5_2 (in-place)
I0406 07:36:23.229372   621 net.cpp:160] Setting up relu5_2
I0406 07:36:23.229374   621 net.cpp:167] Top shape: 1 512 19 19 (184832)
I0406 07:36:23.229378   621 net.cpp:175] Memory required for data: 291718340
I0406 07:36:23.229382   621 layer_factory.hpp:93] Creating layer conv5_2_fixed
I0406 07:36:23.229387   621 net.cpp:110] Creating Layer conv5_2_fixed
I0406 07:36:23.229390   621 net.cpp:451] conv5_2_fixed <- conv5_2
I0406 07:36:23.229394   621 net.cpp:412] conv5_2_fixed -> conv5_2 (in-place)
I0406 07:36:23.229423   621 net.cpp:160] Setting up conv5_2_fixed
I0406 07:36:23.229429   621 net.cpp:167] Top shape: 1 512 19 19 (184832)
I0406 07:36:23.229434   621 net.cpp:175] Memory required for data: 292457668
I0406 07:36:23.229439   621 layer_factory.hpp:93] Creating layer conv5_3
I0406 07:36:23.229447   621 net.cpp:110] Creating Layer conv5_3
I0406 07:36:23.229450   621 net.cpp:451] conv5_3 <- conv5_2
I0406 07:36:23.229455   621 net.cpp:425] conv5_3 -> conv5_3
I0406 07:36:23.247277   621 layer_factory.hpp:93] Creating layer conv5_3
I0406 07:36:23.265235   621 net.cpp:160] Setting up conv5_3
I0406 07:36:23.265254   621 net.cpp:167] Top shape: 1 512 19 19 (184832)
I0406 07:36:23.265262   621 net.cpp:175] Memory required for data: 293196996
I0406 07:36:23.265272   621 layer_factory.hpp:93] Creating layer relu5_3
I0406 07:36:23.265280   621 net.cpp:110] Creating Layer relu5_3
I0406 07:36:23.265286   621 net.cpp:451] relu5_3 <- conv5_3
I0406 07:36:23.265295   621 net.cpp:412] relu5_3 -> conv5_3 (in-place)
I0406 07:36:23.265302   621 net.cpp:160] Setting up relu5_3
I0406 07:36:23.265305   621 net.cpp:167] Top shape: 1 512 19 19 (184832)
I0406 07:36:23.265309   621 net.cpp:175] Memory required for data: 293936324
I0406 07:36:23.265312   621 layer_factory.hpp:93] Creating layer pool5
I0406 07:36:23.265318   621 net.cpp:110] Creating Layer pool5
I0406 07:36:23.265322   621 net.cpp:451] pool5 <- conv5_3
I0406 07:36:23.265326   621 net.cpp:425] pool5 -> pool5
I0406 07:36:23.265359   621 net.cpp:160] Setting up pool5
I0406 07:36:23.265365   621 net.cpp:167] Top shape: 1 512 19 19 (184832)
I0406 07:36:23.265370   621 net.cpp:175] Memory required for data: 294675652
I0406 07:36:23.265373   621 layer_factory.hpp:93] Creating layer pool5_fixed
I0406 07:36:23.265379   621 net.cpp:110] Creating Layer pool5_fixed
I0406 07:36:23.265383   621 net.cpp:451] pool5_fixed <- pool5
I0406 07:36:23.265388   621 net.cpp:412] pool5_fixed -> pool5 (in-place)
I0406 07:36:23.265416   621 net.cpp:160] Setting up pool5_fixed
I0406 07:36:23.265421   621 net.cpp:167] Top shape: 1 512 19 19 (184832)
I0406 07:36:23.265426   621 net.cpp:175] Memory required for data: 295414980
I0406 07:36:23.265430   621 layer_factory.hpp:93] Creating layer fc6_682
I0406 07:36:23.265439   621 net.cpp:110] Creating Layer fc6_682
I0406 07:36:23.265444   621 net.cpp:451] fc6_682 <- pool5
I0406 07:36:23.265449   621 net.cpp:425] fc6_682 -> fc6_682
I0406 07:36:23.289041   621 layer_factory.hpp:93] Creating layer fc6_682
I0406 07:36:23.312716   621 net.cpp:160] Setting up fc6_682
I0406 07:36:23.312732   621 net.cpp:167] Top shape: 1 682 19 19 (246202)
I0406 07:36:23.312742   621 net.cpp:175] Memory required for data: 296399788
I0406 07:36:23.312752   621 layer_factory.hpp:93] Creating layer relu6
I0406 07:36:23.312760   621 net.cpp:110] Creating Layer relu6
I0406 07:36:23.312765   621 net.cpp:451] relu6 <- fc6_682
I0406 07:36:23.312772   621 net.cpp:412] relu6 -> fc6_682 (in-place)
I0406 07:36:23.312783   621 net.cpp:160] Setting up relu6
I0406 07:36:23.312785   621 net.cpp:167] Top shape: 1 682 19 19 (246202)
I0406 07:36:23.312789   621 net.cpp:175] Memory required for data: 297384596
I0406 07:36:23.312793   621 layer_factory.hpp:93] Creating layer fc6_682_fixed
I0406 07:36:23.312798   621 net.cpp:110] Creating Layer fc6_682_fixed
I0406 07:36:23.312801   621 net.cpp:451] fc6_682_fixed <- fc6_682
I0406 07:36:23.312806   621 net.cpp:412] fc6_682_fixed -> fc6_682 (in-place)
I0406 07:36:23.312836   621 net.cpp:160] Setting up fc6_682_fixed
I0406 07:36:23.312842   621 net.cpp:167] Top shape: 1 682 19 19 (246202)
I0406 07:36:23.312857   621 net.cpp:175] Memory required for data: 298369404
I0406 07:36:23.312862   621 layer_factory.hpp:93] Creating layer fc7_682
I0406 07:36:23.312870   621 net.cpp:110] Creating Layer fc7_682
I0406 07:36:23.312875   621 net.cpp:451] fc7_682 <- fc6_682
I0406 07:36:23.312880   621 net.cpp:425] fc7_682 -> fc7_682
I0406 07:36:23.318397   621 layer_factory.hpp:93] Creating layer fc7_682
I0406 07:36:23.324035   621 net.cpp:160] Setting up fc7_682
I0406 07:36:23.324048   621 net.cpp:167] Top shape: 1 1024 19 19 (369664)
I0406 07:36:23.324054   621 net.cpp:175] Memory required for data: 299848060
I0406 07:36:23.324061   621 layer_factory.hpp:93] Creating layer relu7
I0406 07:36:23.324067   621 net.cpp:110] Creating Layer relu7
I0406 07:36:23.324071   621 net.cpp:451] relu7 <- fc7_682
I0406 07:36:23.324077   621 net.cpp:412] relu7 -> fc7_682 (in-place)
I0406 07:36:23.324084   621 net.cpp:160] Setting up relu7
I0406 07:36:23.324087   621 net.cpp:167] Top shape: 1 1024 19 19 (369664)
I0406 07:36:23.324091   621 net.cpp:175] Memory required for data: 301326716
I0406 07:36:23.324095   621 layer_factory.hpp:93] Creating layer fc7_682_fixed
I0406 07:36:23.324100   621 net.cpp:110] Creating Layer fc7_682_fixed
I0406 07:36:23.324102   621 net.cpp:451] fc7_682_fixed <- fc7_682
I0406 07:36:23.324107   621 net.cpp:412] fc7_682_fixed -> fc7_682 (in-place)
I0406 07:36:23.324136   621 net.cpp:160] Setting up fc7_682_fixed
I0406 07:36:23.324141   621 net.cpp:167] Top shape: 1 1024 19 19 (369664)
I0406 07:36:23.324146   621 net.cpp:175] Memory required for data: 302805372
I0406 07:36:23.324151   621 layer_factory.hpp:93] Creating layer fc7_682_fc7_682_fixed_0_split
I0406 07:36:23.324156   621 net.cpp:110] Creating Layer fc7_682_fc7_682_fixed_0_split
I0406 07:36:23.324160   621 net.cpp:451] fc7_682_fc7_682_fixed_0_split <- fc7_682
I0406 07:36:23.324164   621 net.cpp:425] fc7_682_fc7_682_fixed_0_split -> fc7_682_fc7_682_fixed_0_split_0
I0406 07:36:23.324170   621 net.cpp:425] fc7_682_fc7_682_fixed_0_split -> fc7_682_fc7_682_fixed_0_split_1
I0406 07:36:23.324177   621 net.cpp:425] fc7_682_fc7_682_fixed_0_split -> fc7_682_fc7_682_fixed_0_split_2
I0406 07:36:23.324185   621 net.cpp:425] fc7_682_fc7_682_fixed_0_split -> fc7_682_fc7_682_fixed_0_split_3
I0406 07:36:23.324231   621 net.cpp:160] Setting up fc7_682_fc7_682_fixed_0_split
I0406 07:36:23.324236   621 net.cpp:167] Top shape: 1 1024 19 19 (369664)
I0406 07:36:23.324241   621 net.cpp:167] Top shape: 1 1024 19 19 (369664)
I0406 07:36:23.324245   621 net.cpp:167] Top shape: 1 1024 19 19 (369664)
I0406 07:36:23.324249   621 net.cpp:167] Top shape: 1 1024 19 19 (369664)
I0406 07:36:23.324254   621 net.cpp:175] Memory required for data: 308719996
I0406 07:36:23.324256   621 layer_factory.hpp:93] Creating layer conv6_1
I0406 07:36:23.324265   621 net.cpp:110] Creating Layer conv6_1
I0406 07:36:23.324268   621 net.cpp:451] conv6_1 <- fc7_682_fc7_682_fixed_0_split_0
I0406 07:36:23.324275   621 net.cpp:425] conv6_1 -> conv6_1
I0406 07:36:23.326460   621 layer_factory.hpp:93] Creating layer conv6_1
I0406 07:36:23.328775   621 net.cpp:160] Setting up conv6_1
I0406 07:36:23.328786   621 net.cpp:167] Top shape: 1 256 19 19 (92416)
I0406 07:36:23.328792   621 net.cpp:175] Memory required for data: 309089660
I0406 07:36:23.328799   621 layer_factory.hpp:93] Creating layer conv6_1_relu
I0406 07:36:23.328804   621 net.cpp:110] Creating Layer conv6_1_relu
I0406 07:36:23.328807   621 net.cpp:451] conv6_1_relu <- conv6_1
I0406 07:36:23.328811   621 net.cpp:412] conv6_1_relu -> conv6_1 (in-place)
I0406 07:36:23.328819   621 net.cpp:160] Setting up conv6_1_relu
I0406 07:36:23.328821   621 net.cpp:167] Top shape: 1 256 19 19 (92416)
I0406 07:36:23.328825   621 net.cpp:175] Memory required for data: 309459324
I0406 07:36:23.328828   621 layer_factory.hpp:93] Creating layer conv6_1_fixed
I0406 07:36:23.328832   621 net.cpp:110] Creating Layer conv6_1_fixed
I0406 07:36:23.328835   621 net.cpp:451] conv6_1_fixed <- conv6_1
I0406 07:36:23.328840   621 net.cpp:412] conv6_1_fixed -> conv6_1 (in-place)
I0406 07:36:23.328869   621 net.cpp:160] Setting up conv6_1_fixed
I0406 07:36:23.328874   621 net.cpp:167] Top shape: 1 256 19 19 (92416)
I0406 07:36:23.328878   621 net.cpp:175] Memory required for data: 309828988
I0406 07:36:23.328883   621 layer_factory.hpp:93] Creating layer conv6_2
I0406 07:36:23.328891   621 net.cpp:110] Creating Layer conv6_2
I0406 07:36:23.328894   621 net.cpp:451] conv6_2 <- conv6_1
I0406 07:36:23.328899   621 net.cpp:425] conv6_2 -> conv6_2
I0406 07:36:23.337977   621 layer_factory.hpp:93] Creating layer conv6_2
I0406 07:36:23.347169   621 net.cpp:160] Setting up conv6_2
I0406 07:36:23.347182   621 net.cpp:167] Top shape: 1 512 10 10 (51200)
I0406 07:36:23.347189   621 net.cpp:175] Memory required for data: 310033788
I0406 07:36:23.347198   621 layer_factory.hpp:93] Creating layer conv6_2_relu
I0406 07:36:23.347204   621 net.cpp:110] Creating Layer conv6_2_relu
I0406 07:36:23.347208   621 net.cpp:451] conv6_2_relu <- conv6_2
I0406 07:36:23.347214   621 net.cpp:412] conv6_2_relu -> conv6_2 (in-place)
I0406 07:36:23.347221   621 net.cpp:160] Setting up conv6_2_relu
I0406 07:36:23.347224   621 net.cpp:167] Top shape: 1 512 10 10 (51200)
I0406 07:36:23.347229   621 net.cpp:175] Memory required for data: 310238588
I0406 07:36:23.347231   621 layer_factory.hpp:93] Creating layer conv6_2_fixed
I0406 07:36:23.347236   621 net.cpp:110] Creating Layer conv6_2_fixed
I0406 07:36:23.347239   621 net.cpp:451] conv6_2_fixed <- conv6_2
I0406 07:36:23.347244   621 net.cpp:412] conv6_2_fixed -> conv6_2 (in-place)
I0406 07:36:23.347273   621 net.cpp:160] Setting up conv6_2_fixed
I0406 07:36:23.347280   621 net.cpp:167] Top shape: 1 512 10 10 (51200)
I0406 07:36:23.347285   621 net.cpp:175] Memory required for data: 310443388
I0406 07:36:23.347288   621 layer_factory.hpp:93] Creating layer conv6_2_conv6_2_fixed_0_split
I0406 07:36:23.347295   621 net.cpp:110] Creating Layer conv6_2_conv6_2_fixed_0_split
I0406 07:36:23.347297   621 net.cpp:451] conv6_2_conv6_2_fixed_0_split <- conv6_2
I0406 07:36:23.347302   621 net.cpp:425] conv6_2_conv6_2_fixed_0_split -> conv6_2_conv6_2_fixed_0_split_0
I0406 07:36:23.347308   621 net.cpp:425] conv6_2_conv6_2_fixed_0_split -> conv6_2_conv6_2_fixed_0_split_1
I0406 07:36:23.347313   621 net.cpp:425] conv6_2_conv6_2_fixed_0_split -> conv6_2_conv6_2_fixed_0_split_2
I0406 07:36:23.347319   621 net.cpp:425] conv6_2_conv6_2_fixed_0_split -> conv6_2_conv6_2_fixed_0_split_3
I0406 07:36:23.347364   621 net.cpp:160] Setting up conv6_2_conv6_2_fixed_0_split
I0406 07:36:23.347370   621 net.cpp:167] Top shape: 1 512 10 10 (51200)
I0406 07:36:23.347374   621 net.cpp:167] Top shape: 1 512 10 10 (51200)
I0406 07:36:23.347378   621 net.cpp:167] Top shape: 1 512 10 10 (51200)
I0406 07:36:23.347383   621 net.cpp:167] Top shape: 1 512 10 10 (51200)
I0406 07:36:23.347386   621 net.cpp:175] Memory required for data: 311262588
I0406 07:36:23.347389   621 layer_factory.hpp:93] Creating layer conv7_1
I0406 07:36:23.347398   621 net.cpp:110] Creating Layer conv7_1
I0406 07:36:23.347401   621 net.cpp:451] conv7_1 <- conv6_2_conv6_2_fixed_0_split_0
I0406 07:36:23.347406   621 net.cpp:425] conv7_1 -> conv7_1
I0406 07:36:23.347929   621 layer_factory.hpp:93] Creating layer conv7_1
I0406 07:36:23.348569   621 net.cpp:160] Setting up conv7_1
I0406 07:36:23.348577   621 net.cpp:167] Top shape: 1 128 10 10 (12800)
I0406 07:36:23.348582   621 net.cpp:175] Memory required for data: 311313788
I0406 07:36:23.348588   621 layer_factory.hpp:93] Creating layer conv7_1_relu
I0406 07:36:23.348593   621 net.cpp:110] Creating Layer conv7_1_relu
I0406 07:36:23.348596   621 net.cpp:451] conv7_1_relu <- conv7_1
I0406 07:36:23.348600   621 net.cpp:412] conv7_1_relu -> conv7_1 (in-place)
I0406 07:36:23.348606   621 net.cpp:160] Setting up conv7_1_relu
I0406 07:36:23.348609   621 net.cpp:167] Top shape: 1 128 10 10 (12800)
I0406 07:36:23.348613   621 net.cpp:175] Memory required for data: 311364988
I0406 07:36:23.348616   621 layer_factory.hpp:93] Creating layer conv7_1_fixed
I0406 07:36:23.348624   621 net.cpp:110] Creating Layer conv7_1_fixed
I0406 07:36:23.348628   621 net.cpp:451] conv7_1_fixed <- conv7_1
I0406 07:36:23.348631   621 net.cpp:412] conv7_1_fixed -> conv7_1 (in-place)
I0406 07:36:23.348660   621 net.cpp:160] Setting up conv7_1_fixed
I0406 07:36:23.348666   621 net.cpp:167] Top shape: 1 128 10 10 (12800)
I0406 07:36:23.348671   621 net.cpp:175] Memory required for data: 311416188
I0406 07:36:23.348675   621 layer_factory.hpp:93] Creating layer conv7_2
I0406 07:36:23.348683   621 net.cpp:110] Creating Layer conv7_2
I0406 07:36:23.348686   621 net.cpp:451] conv7_2 <- conv7_1
I0406 07:36:23.348691   621 net.cpp:425] conv7_2 -> conv7_2
I0406 07:36:23.351663   621 layer_factory.hpp:93] Creating layer conv7_2
I0406 07:36:23.354763   621 net.cpp:160] Setting up conv7_2
I0406 07:36:23.354773   621 net.cpp:167] Top shape: 1 256 5 5 (6400)
I0406 07:36:23.354779   621 net.cpp:175] Memory required for data: 311441788
I0406 07:36:23.354785   621 layer_factory.hpp:93] Creating layer conv7_2_relu
I0406 07:36:23.354791   621 net.cpp:110] Creating Layer conv7_2_relu
I0406 07:36:23.354795   621 net.cpp:451] conv7_2_relu <- conv7_2
I0406 07:36:23.354800   621 net.cpp:412] conv7_2_relu -> conv7_2 (in-place)
I0406 07:36:23.354806   621 net.cpp:160] Setting up conv7_2_relu
I0406 07:36:23.354809   621 net.cpp:167] Top shape: 1 256 5 5 (6400)
I0406 07:36:23.354813   621 net.cpp:175] Memory required for data: 311467388
I0406 07:36:23.354816   621 layer_factory.hpp:93] Creating layer conv7_2_fixed
I0406 07:36:23.354821   621 net.cpp:110] Creating Layer conv7_2_fixed
I0406 07:36:23.354825   621 net.cpp:451] conv7_2_fixed <- conv7_2
I0406 07:36:23.354828   621 net.cpp:412] conv7_2_fixed -> conv7_2 (in-place)
I0406 07:36:23.354857   621 net.cpp:160] Setting up conv7_2_fixed
I0406 07:36:23.354863   621 net.cpp:167] Top shape: 1 256 5 5 (6400)
I0406 07:36:23.354868   621 net.cpp:175] Memory required for data: 311492988
I0406 07:36:23.354872   621 layer_factory.hpp:93] Creating layer conv7_2_conv7_2_fixed_0_split
I0406 07:36:23.354877   621 net.cpp:110] Creating Layer conv7_2_conv7_2_fixed_0_split
I0406 07:36:23.354880   621 net.cpp:451] conv7_2_conv7_2_fixed_0_split <- conv7_2
I0406 07:36:23.354885   621 net.cpp:425] conv7_2_conv7_2_fixed_0_split -> conv7_2_conv7_2_fixed_0_split_0
I0406 07:36:23.354892   621 net.cpp:425] conv7_2_conv7_2_fixed_0_split -> conv7_2_conv7_2_fixed_0_split_1
I0406 07:36:23.354897   621 net.cpp:425] conv7_2_conv7_2_fixed_0_split -> conv7_2_conv7_2_fixed_0_split_2
I0406 07:36:23.354902   621 net.cpp:425] conv7_2_conv7_2_fixed_0_split -> conv7_2_conv7_2_fixed_0_split_3
I0406 07:36:23.354948   621 net.cpp:160] Setting up conv7_2_conv7_2_fixed_0_split
I0406 07:36:23.354952   621 net.cpp:167] Top shape: 1 256 5 5 (6400)
I0406 07:36:23.354957   621 net.cpp:167] Top shape: 1 256 5 5 (6400)
I0406 07:36:23.354961   621 net.cpp:167] Top shape: 1 256 5 5 (6400)
I0406 07:36:23.354965   621 net.cpp:167] Top shape: 1 256 5 5 (6400)
I0406 07:36:23.354969   621 net.cpp:175] Memory required for data: 311595388
I0406 07:36:23.354971   621 layer_factory.hpp:93] Creating layer conv8_1
I0406 07:36:23.354980   621 net.cpp:110] Creating Layer conv8_1
I0406 07:36:23.354984   621 net.cpp:451] conv8_1 <- conv7_2_conv7_2_fixed_0_split_0
I0406 07:36:23.354990   621 net.cpp:425] conv8_1 -> conv8_1
I0406 07:36:23.355312   621 layer_factory.hpp:93] Creating layer conv8_1
I0406 07:36:23.355746   621 net.cpp:160] Setting up conv8_1
I0406 07:36:23.355754   621 net.cpp:167] Top shape: 1 128 5 5 (3200)
I0406 07:36:23.355759   621 net.cpp:175] Memory required for data: 311608188
I0406 07:36:23.355764   621 layer_factory.hpp:93] Creating layer conv8_1_relu
I0406 07:36:23.355769   621 net.cpp:110] Creating Layer conv8_1_relu
I0406 07:36:23.355772   621 net.cpp:451] conv8_1_relu <- conv8_1
I0406 07:36:23.355777   621 net.cpp:412] conv8_1_relu -> conv8_1 (in-place)
I0406 07:36:23.355782   621 net.cpp:160] Setting up conv8_1_relu
I0406 07:36:23.355785   621 net.cpp:167] Top shape: 1 128 5 5 (3200)
I0406 07:36:23.355789   621 net.cpp:175] Memory required for data: 311620988
I0406 07:36:23.355792   621 layer_factory.hpp:93] Creating layer conv8_1_fixed
I0406 07:36:23.355796   621 net.cpp:110] Creating Layer conv8_1_fixed
I0406 07:36:23.355799   621 net.cpp:451] conv8_1_fixed <- conv8_1
I0406 07:36:23.355803   621 net.cpp:412] conv8_1_fixed -> conv8_1 (in-place)
I0406 07:36:23.355832   621 net.cpp:160] Setting up conv8_1_fixed
I0406 07:36:23.355837   621 net.cpp:167] Top shape: 1 128 5 5 (3200)
I0406 07:36:23.355842   621 net.cpp:175] Memory required for data: 311633788
I0406 07:36:23.355846   621 layer_factory.hpp:93] Creating layer conv8_2
I0406 07:36:23.355865   621 net.cpp:110] Creating Layer conv8_2
I0406 07:36:23.355867   621 net.cpp:451] conv8_2 <- conv8_1
I0406 07:36:23.355872   621 net.cpp:425] conv8_2 -> conv8_2
I0406 07:36:23.358867   621 layer_factory.hpp:93] Creating layer conv8_2
I0406 07:36:23.361984   621 net.cpp:160] Setting up conv8_2
I0406 07:36:23.361995   621 net.cpp:167] Top shape: 1 256 3 3 (2304)
I0406 07:36:23.362001   621 net.cpp:175] Memory required for data: 311643004
I0406 07:36:23.362007   621 layer_factory.hpp:93] Creating layer conv8_2_relu
I0406 07:36:23.362013   621 net.cpp:110] Creating Layer conv8_2_relu
I0406 07:36:23.362017   621 net.cpp:451] conv8_2_relu <- conv8_2
I0406 07:36:23.362021   621 net.cpp:412] conv8_2_relu -> conv8_2 (in-place)
I0406 07:36:23.362028   621 net.cpp:160] Setting up conv8_2_relu
I0406 07:36:23.362031   621 net.cpp:167] Top shape: 1 256 3 3 (2304)
I0406 07:36:23.362035   621 net.cpp:175] Memory required for data: 311652220
I0406 07:36:23.362038   621 layer_factory.hpp:93] Creating layer conv8_2_fixed
I0406 07:36:23.362042   621 net.cpp:110] Creating Layer conv8_2_fixed
I0406 07:36:23.362046   621 net.cpp:451] conv8_2_fixed <- conv8_2
I0406 07:36:23.362051   621 net.cpp:412] conv8_2_fixed -> conv8_2 (in-place)
I0406 07:36:23.362079   621 net.cpp:160] Setting up conv8_2_fixed
I0406 07:36:23.362084   621 net.cpp:167] Top shape: 1 256 3 3 (2304)
I0406 07:36:23.362089   621 net.cpp:175] Memory required for data: 311661436
I0406 07:36:23.362093   621 layer_factory.hpp:93] Creating layer conv8_2_conv8_2_fixed_0_split
I0406 07:36:23.362099   621 net.cpp:110] Creating Layer conv8_2_conv8_2_fixed_0_split
I0406 07:36:23.362102   621 net.cpp:451] conv8_2_conv8_2_fixed_0_split <- conv8_2
I0406 07:36:23.362107   621 net.cpp:425] conv8_2_conv8_2_fixed_0_split -> conv8_2_conv8_2_fixed_0_split_0
I0406 07:36:23.362113   621 net.cpp:425] conv8_2_conv8_2_fixed_0_split -> conv8_2_conv8_2_fixed_0_split_1
I0406 07:36:23.362118   621 net.cpp:425] conv8_2_conv8_2_fixed_0_split -> conv8_2_conv8_2_fixed_0_split_2
I0406 07:36:23.362123   621 net.cpp:425] conv8_2_conv8_2_fixed_0_split -> conv8_2_conv8_2_fixed_0_split_3
I0406 07:36:23.362170   621 net.cpp:160] Setting up conv8_2_conv8_2_fixed_0_split
I0406 07:36:23.362175   621 net.cpp:167] Top shape: 1 256 3 3 (2304)
I0406 07:36:23.362179   621 net.cpp:167] Top shape: 1 256 3 3 (2304)
I0406 07:36:23.362183   621 net.cpp:167] Top shape: 1 256 3 3 (2304)
I0406 07:36:23.362187   621 net.cpp:167] Top shape: 1 256 3 3 (2304)
I0406 07:36:23.362190   621 net.cpp:175] Memory required for data: 311698300
I0406 07:36:23.362195   621 layer_factory.hpp:93] Creating layer conv9_1
I0406 07:36:23.362201   621 net.cpp:110] Creating Layer conv9_1
I0406 07:36:23.362205   621 net.cpp:451] conv9_1 <- conv8_2_conv8_2_fixed_0_split_0
I0406 07:36:23.362210   621 net.cpp:425] conv9_1 -> conv9_1
I0406 07:36:23.362541   621 layer_factory.hpp:93] Creating layer conv9_1
I0406 07:36:23.362978   621 net.cpp:160] Setting up conv9_1
I0406 07:36:23.362985   621 net.cpp:167] Top shape: 1 128 3 3 (1152)
I0406 07:36:23.362990   621 net.cpp:175] Memory required for data: 311702908
I0406 07:36:23.363000   621 layer_factory.hpp:93] Creating layer conv9_1_relu
I0406 07:36:23.363005   621 net.cpp:110] Creating Layer conv9_1_relu
I0406 07:36:23.363008   621 net.cpp:451] conv9_1_relu <- conv9_1
I0406 07:36:23.363013   621 net.cpp:412] conv9_1_relu -> conv9_1 (in-place)
I0406 07:36:23.363018   621 net.cpp:160] Setting up conv9_1_relu
I0406 07:36:23.363021   621 net.cpp:167] Top shape: 1 128 3 3 (1152)
I0406 07:36:23.363025   621 net.cpp:175] Memory required for data: 311707516
I0406 07:36:23.363029   621 layer_factory.hpp:93] Creating layer conv9_1_fixed
I0406 07:36:23.363034   621 net.cpp:110] Creating Layer conv9_1_fixed
I0406 07:36:23.363037   621 net.cpp:451] conv9_1_fixed <- conv9_1
I0406 07:36:23.363041   621 net.cpp:412] conv9_1_fixed -> conv9_1 (in-place)
I0406 07:36:23.363070   621 net.cpp:160] Setting up conv9_1_fixed
I0406 07:36:23.363075   621 net.cpp:167] Top shape: 1 128 3 3 (1152)
I0406 07:36:23.363080   621 net.cpp:175] Memory required for data: 311712124
I0406 07:36:23.363083   621 layer_factory.hpp:93] Creating layer conv9_2
I0406 07:36:23.363091   621 net.cpp:110] Creating Layer conv9_2
I0406 07:36:23.363095   621 net.cpp:451] conv9_2 <- conv9_1
I0406 07:36:23.363099   621 net.cpp:425] conv9_2 -> conv9_2
I0406 07:36:23.366096   621 layer_factory.hpp:93] Creating layer conv9_2
I0406 07:36:23.369238   621 net.cpp:160] Setting up conv9_2
I0406 07:36:23.369249   621 net.cpp:167] Top shape: 1 256 1 1 (256)
I0406 07:36:23.369271   621 net.cpp:175] Memory required for data: 311713148
I0406 07:36:23.369277   621 layer_factory.hpp:93] Creating layer conv9_2_relu
I0406 07:36:23.369282   621 net.cpp:110] Creating Layer conv9_2_relu
I0406 07:36:23.369287   621 net.cpp:451] conv9_2_relu <- conv9_2
I0406 07:36:23.369292   621 net.cpp:412] conv9_2_relu -> conv9_2 (in-place)
I0406 07:36:23.369297   621 net.cpp:160] Setting up conv9_2_relu
I0406 07:36:23.369300   621 net.cpp:167] Top shape: 1 256 1 1 (256)
I0406 07:36:23.369304   621 net.cpp:175] Memory required for data: 311714172
I0406 07:36:23.369307   621 layer_factory.hpp:93] Creating layer conv9_2_fixed
I0406 07:36:23.369313   621 net.cpp:110] Creating Layer conv9_2_fixed
I0406 07:36:23.369315   621 net.cpp:451] conv9_2_fixed <- conv9_2
I0406 07:36:23.369319   621 net.cpp:412] conv9_2_fixed -> conv9_2 (in-place)
I0406 07:36:23.369346   621 net.cpp:160] Setting up conv9_2_fixed
I0406 07:36:23.369352   621 net.cpp:167] Top shape: 1 256 1 1 (256)
I0406 07:36:23.369356   621 net.cpp:175] Memory required for data: 311715196
I0406 07:36:23.369360   621 layer_factory.hpp:93] Creating layer conv9_2_conv9_2_fixed_0_split
I0406 07:36:23.369365   621 net.cpp:110] Creating Layer conv9_2_conv9_2_fixed_0_split
I0406 07:36:23.369369   621 net.cpp:451] conv9_2_conv9_2_fixed_0_split <- conv9_2
I0406 07:36:23.369374   621 net.cpp:425] conv9_2_conv9_2_fixed_0_split -> conv9_2_conv9_2_fixed_0_split_0
I0406 07:36:23.369379   621 net.cpp:425] conv9_2_conv9_2_fixed_0_split -> conv9_2_conv9_2_fixed_0_split_1
I0406 07:36:23.369385   621 net.cpp:425] conv9_2_conv9_2_fixed_0_split -> conv9_2_conv9_2_fixed_0_split_2
I0406 07:36:23.369421   621 net.cpp:160] Setting up conv9_2_conv9_2_fixed_0_split
I0406 07:36:23.369426   621 net.cpp:167] Top shape: 1 256 1 1 (256)
I0406 07:36:23.369431   621 net.cpp:167] Top shape: 1 256 1 1 (256)
I0406 07:36:23.369433   621 net.cpp:167] Top shape: 1 256 1 1 (256)
I0406 07:36:23.369437   621 net.cpp:175] Memory required for data: 311718268
I0406 07:36:23.369441   621 layer_factory.hpp:93] Creating layer conv4_3_norm_mbox_loc
I0406 07:36:23.369448   621 net.cpp:110] Creating Layer conv4_3_norm_mbox_loc
I0406 07:36:23.369452   621 net.cpp:451] conv4_3_norm_mbox_loc <- conv4_3_conv4_3_fixed_0_split_1
I0406 07:36:23.369458   621 net.cpp:425] conv4_3_norm_mbox_loc -> conv4_3_norm_mbox_loc
I0406 07:36:23.370039   621 layer_factory.hpp:93] Creating layer conv4_3_norm_mbox_loc
I0406 07:36:23.370740   621 net.cpp:160] Setting up conv4_3_norm_mbox_loc
I0406 07:36:23.370748   621 net.cpp:167] Top shape: 1 16 38 38 (23104)
I0406 07:36:23.370754   621 net.cpp:175] Memory required for data: 311810684
I0406 07:36:23.370759   621 layer_factory.hpp:93] Creating layer conv4_3_norm_mbox_loc_perm
I0406 07:36:23.370765   621 net.cpp:110] Creating Layer conv4_3_norm_mbox_loc_perm
I0406 07:36:23.370769   621 net.cpp:451] conv4_3_norm_mbox_loc_perm <- conv4_3_norm_mbox_loc
I0406 07:36:23.370774   621 net.cpp:425] conv4_3_norm_mbox_loc_perm -> conv4_3_norm_mbox_loc_perm
I0406 07:36:23.370856   621 net.cpp:160] Setting up conv4_3_norm_mbox_loc_perm
I0406 07:36:23.370860   621 net.cpp:167] Top shape: 1 38 38 16 (23104)
I0406 07:36:23.370865   621 net.cpp:175] Memory required for data: 311903100
I0406 07:36:23.370868   621 layer_factory.hpp:93] Creating layer conv4_3_norm_mbox_loc_flat
I0406 07:36:23.370874   621 net.cpp:110] Creating Layer conv4_3_norm_mbox_loc_flat
I0406 07:36:23.370877   621 net.cpp:451] conv4_3_norm_mbox_loc_flat <- conv4_3_norm_mbox_loc_perm
I0406 07:36:23.370882   621 net.cpp:425] conv4_3_norm_mbox_loc_flat -> conv4_3_norm_mbox_loc_flat
I0406 07:36:23.370900   621 net.cpp:160] Setting up conv4_3_norm_mbox_loc_flat
I0406 07:36:23.370905   621 net.cpp:167] Top shape: 1 23104 (23104)
I0406 07:36:23.370909   621 net.cpp:175] Memory required for data: 311995516
I0406 07:36:23.370913   621 layer_factory.hpp:93] Creating layer conv4_3_norm_mbox_conf
I0406 07:36:23.370920   621 net.cpp:110] Creating Layer conv4_3_norm_mbox_conf
I0406 07:36:23.370924   621 net.cpp:451] conv4_3_norm_mbox_conf <- conv4_3_conv4_3_fixed_0_split_2
I0406 07:36:23.370929   621 net.cpp:425] conv4_3_norm_mbox_conf -> conv4_3_norm_mbox_conf
I0406 07:36:23.374447   621 layer_factory.hpp:93] Creating layer conv4_3_norm_mbox_conf
I0406 07:36:23.378109   621 net.cpp:160] Setting up conv4_3_norm_mbox_conf
I0406 07:36:23.378120   621 net.cpp:167] Top shape: 1 84 38 38 (121296)
I0406 07:36:23.378141   621 net.cpp:175] Memory required for data: 312480700
I0406 07:36:23.378149   621 layer_factory.hpp:93] Creating layer conv4_3_norm_mbox_conf_perm
I0406 07:36:23.378154   621 net.cpp:110] Creating Layer conv4_3_norm_mbox_conf_perm
I0406 07:36:23.378159   621 net.cpp:451] conv4_3_norm_mbox_conf_perm <- conv4_3_norm_mbox_conf
I0406 07:36:23.378165   621 net.cpp:425] conv4_3_norm_mbox_conf_perm -> conv4_3_norm_mbox_conf_perm
I0406 07:36:23.378248   621 net.cpp:160] Setting up conv4_3_norm_mbox_conf_perm
I0406 07:36:23.378254   621 net.cpp:167] Top shape: 1 38 38 84 (121296)
I0406 07:36:23.378259   621 net.cpp:175] Memory required for data: 312965884
I0406 07:36:23.378262   621 layer_factory.hpp:93] Creating layer conv4_3_norm_mbox_conf_flat
I0406 07:36:23.378268   621 net.cpp:110] Creating Layer conv4_3_norm_mbox_conf_flat
I0406 07:36:23.378270   621 net.cpp:451] conv4_3_norm_mbox_conf_flat <- conv4_3_norm_mbox_conf_perm
I0406 07:36:23.378275   621 net.cpp:425] conv4_3_norm_mbox_conf_flat -> conv4_3_norm_mbox_conf_flat
I0406 07:36:23.378294   621 net.cpp:160] Setting up conv4_3_norm_mbox_conf_flat
I0406 07:36:23.378299   621 net.cpp:167] Top shape: 1 121296 (121296)
I0406 07:36:23.378304   621 net.cpp:175] Memory required for data: 313451068
I0406 07:36:23.378306   621 layer_factory.hpp:93] Creating layer conv4_3_norm_mbox_priorbox
I0406 07:36:23.378314   621 net.cpp:110] Creating Layer conv4_3_norm_mbox_priorbox
I0406 07:36:23.378316   621 net.cpp:451] conv4_3_norm_mbox_priorbox <- conv4_3_conv4_3_fixed_0_split_3
I0406 07:36:23.378320   621 net.cpp:451] conv4_3_norm_mbox_priorbox <- data_data_fixed_0_split_1
I0406 07:36:23.378325   621 net.cpp:425] conv4_3_norm_mbox_priorbox -> conv4_3_norm_mbox_priorbox
I0406 07:36:23.378346   621 net.cpp:160] Setting up conv4_3_norm_mbox_priorbox
I0406 07:36:23.378352   621 net.cpp:167] Top shape: 1 2 23104 (46208)
I0406 07:36:23.378356   621 net.cpp:175] Memory required for data: 313635900
I0406 07:36:23.378360   621 layer_factory.hpp:93] Creating layer fc7_mbox_loc
I0406 07:36:23.378367   621 net.cpp:110] Creating Layer fc7_mbox_loc
I0406 07:36:23.378371   621 net.cpp:451] fc7_mbox_loc <- fc7_682_fc7_682_fixed_0_split_1
I0406 07:36:23.378377   621 net.cpp:425] fc7_mbox_loc -> fc7_mbox_loc
I0406 07:36:23.379779   621 layer_factory.hpp:93] Creating layer fc7_mbox_loc
I0406 07:36:23.381315   621 net.cpp:160] Setting up fc7_mbox_loc
I0406 07:36:23.381323   621 net.cpp:167] Top shape: 1 24 19 19 (8664)
I0406 07:36:23.381328   621 net.cpp:175] Memory required for data: 313670556
I0406 07:36:23.381335   621 layer_factory.hpp:93] Creating layer fc7_mbox_loc_perm
I0406 07:36:23.381340   621 net.cpp:110] Creating Layer fc7_mbox_loc_perm
I0406 07:36:23.381345   621 net.cpp:451] fc7_mbox_loc_perm <- fc7_mbox_loc
I0406 07:36:23.381350   621 net.cpp:425] fc7_mbox_loc_perm -> fc7_mbox_loc_perm
I0406 07:36:23.381426   621 net.cpp:160] Setting up fc7_mbox_loc_perm
I0406 07:36:23.381433   621 net.cpp:167] Top shape: 1 19 19 24 (8664)
I0406 07:36:23.381438   621 net.cpp:175] Memory required for data: 313705212
I0406 07:36:23.381440   621 layer_factory.hpp:93] Creating layer fc7_mbox_loc_flat
I0406 07:36:23.381445   621 net.cpp:110] Creating Layer fc7_mbox_loc_flat
I0406 07:36:23.381448   621 net.cpp:451] fc7_mbox_loc_flat <- fc7_mbox_loc_perm
I0406 07:36:23.381453   621 net.cpp:425] fc7_mbox_loc_flat -> fc7_mbox_loc_flat
I0406 07:36:23.381471   621 net.cpp:160] Setting up fc7_mbox_loc_flat
I0406 07:36:23.381479   621 net.cpp:167] Top shape: 1 8664 (8664)
I0406 07:36:23.381482   621 net.cpp:175] Memory required for data: 313739868
I0406 07:36:23.381485   621 layer_factory.hpp:93] Creating layer fc7_mbox_conf
I0406 07:36:23.381492   621 net.cpp:110] Creating Layer fc7_mbox_conf
I0406 07:36:23.381496   621 net.cpp:451] fc7_mbox_conf <- fc7_682_fc7_682_fixed_0_split_2
I0406 07:36:23.381501   621 net.cpp:425] fc7_mbox_conf -> fc7_mbox_conf
I0406 07:36:23.390496   621 layer_factory.hpp:93] Creating layer fc7_mbox_conf
I0406 07:36:23.399602   621 net.cpp:160] Setting up fc7_mbox_conf
I0406 07:36:23.399616   621 net.cpp:167] Top shape: 1 126 19 19 (45486)
I0406 07:36:23.399623   621 net.cpp:175] Memory required for data: 313921812
I0406 07:36:23.399632   621 layer_factory.hpp:93] Creating layer fc7_mbox_conf_perm
I0406 07:36:23.399641   621 net.cpp:110] Creating Layer fc7_mbox_conf_perm
I0406 07:36:23.399646   621 net.cpp:451] fc7_mbox_conf_perm <- fc7_mbox_conf
I0406 07:36:23.399653   621 net.cpp:425] fc7_mbox_conf_perm -> fc7_mbox_conf_perm
I0406 07:36:23.399744   621 net.cpp:160] Setting up fc7_mbox_conf_perm
I0406 07:36:23.399751   621 net.cpp:167] Top shape: 1 19 19 126 (45486)
I0406 07:36:23.399756   621 net.cpp:175] Memory required for data: 314103756
I0406 07:36:23.399760   621 layer_factory.hpp:93] Creating layer fc7_mbox_conf_flat
I0406 07:36:23.399765   621 net.cpp:110] Creating Layer fc7_mbox_conf_flat
I0406 07:36:23.399768   621 net.cpp:451] fc7_mbox_conf_flat <- fc7_mbox_conf_perm
I0406 07:36:23.399772   621 net.cpp:425] fc7_mbox_conf_flat -> fc7_mbox_conf_flat
I0406 07:36:23.399791   621 net.cpp:160] Setting up fc7_mbox_conf_flat
I0406 07:36:23.399796   621 net.cpp:167] Top shape: 1 45486 (45486)
I0406 07:36:23.399801   621 net.cpp:175] Memory required for data: 314285700
I0406 07:36:23.399803   621 layer_factory.hpp:93] Creating layer fc7_mbox_priorbox
I0406 07:36:23.399811   621 net.cpp:110] Creating Layer fc7_mbox_priorbox
I0406 07:36:23.399814   621 net.cpp:451] fc7_mbox_priorbox <- fc7_682_fc7_682_fixed_0_split_3
I0406 07:36:23.399819   621 net.cpp:451] fc7_mbox_priorbox <- data_data_fixed_0_split_2
I0406 07:36:23.399824   621 net.cpp:425] fc7_mbox_priorbox -> fc7_mbox_priorbox
I0406 07:36:23.399847   621 net.cpp:160] Setting up fc7_mbox_priorbox
I0406 07:36:23.399852   621 net.cpp:167] Top shape: 1 2 8664 (17328)
I0406 07:36:23.399857   621 net.cpp:175] Memory required for data: 314355012
I0406 07:36:23.399859   621 layer_factory.hpp:93] Creating layer conv6_2_mbox_loc
I0406 07:36:23.399868   621 net.cpp:110] Creating Layer conv6_2_mbox_loc
I0406 07:36:23.399873   621 net.cpp:451] conv6_2_mbox_loc <- conv6_2_conv6_2_fixed_0_split_1
I0406 07:36:23.399879   621 net.cpp:425] conv6_2_mbox_loc -> conv6_2_mbox_loc
I0406 07:36:23.400665   621 layer_factory.hpp:93] Creating layer conv6_2_mbox_loc
I0406 07:36:23.401564   621 net.cpp:160] Setting up conv6_2_mbox_loc
I0406 07:36:23.401572   621 net.cpp:167] Top shape: 1 24 10 10 (2400)
I0406 07:36:23.401577   621 net.cpp:175] Memory required for data: 314364612
I0406 07:36:23.401582   621 layer_factory.hpp:93] Creating layer conv6_2_mbox_loc_perm
I0406 07:36:23.401589   621 net.cpp:110] Creating Layer conv6_2_mbox_loc_perm
I0406 07:36:23.401593   621 net.cpp:451] conv6_2_mbox_loc_perm <- conv6_2_mbox_loc
I0406 07:36:23.401598   621 net.cpp:425] conv6_2_mbox_loc_perm -> conv6_2_mbox_loc_perm
I0406 07:36:23.401679   621 net.cpp:160] Setting up conv6_2_mbox_loc_perm
I0406 07:36:23.401685   621 net.cpp:167] Top shape: 1 10 10 24 (2400)
I0406 07:36:23.401690   621 net.cpp:175] Memory required for data: 314374212
I0406 07:36:23.401693   621 layer_factory.hpp:93] Creating layer conv6_2_mbox_loc_flat
I0406 07:36:23.401698   621 net.cpp:110] Creating Layer conv6_2_mbox_loc_flat
I0406 07:36:23.401701   621 net.cpp:451] conv6_2_mbox_loc_flat <- conv6_2_mbox_loc_perm
I0406 07:36:23.401706   621 net.cpp:425] conv6_2_mbox_loc_flat -> conv6_2_mbox_loc_flat
I0406 07:36:23.401721   621 net.cpp:160] Setting up conv6_2_mbox_loc_flat
I0406 07:36:23.401729   621 net.cpp:167] Top shape: 1 2400 (2400)
I0406 07:36:23.401733   621 net.cpp:175] Memory required for data: 314383812
I0406 07:36:23.401736   621 layer_factory.hpp:93] Creating layer conv6_2_mbox_conf
I0406 07:36:23.401743   621 net.cpp:110] Creating Layer conv6_2_mbox_conf
I0406 07:36:23.401747   621 net.cpp:451] conv6_2_mbox_conf <- conv6_2_conv6_2_fixed_0_split_2
I0406 07:36:23.401752   621 net.cpp:425] conv6_2_mbox_conf -> conv6_2_mbox_conf
I0406 07:36:23.406425   621 layer_factory.hpp:93] Creating layer conv6_2_mbox_conf
I0406 07:36:23.411202   621 net.cpp:160] Setting up conv6_2_mbox_conf
I0406 07:36:23.411214   621 net.cpp:167] Top shape: 1 126 10 10 (12600)
I0406 07:36:23.411221   621 net.cpp:175] Memory required for data: 314434212
I0406 07:36:23.411226   621 layer_factory.hpp:93] Creating layer conv6_2_mbox_conf_perm
I0406 07:36:23.411233   621 net.cpp:110] Creating Layer conv6_2_mbox_conf_perm
I0406 07:36:23.411237   621 net.cpp:451] conv6_2_mbox_conf_perm <- conv6_2_mbox_conf
I0406 07:36:23.411243   621 net.cpp:425] conv6_2_mbox_conf_perm -> conv6_2_mbox_conf_perm
I0406 07:36:23.411324   621 net.cpp:160] Setting up conv6_2_mbox_conf_perm
I0406 07:36:23.411329   621 net.cpp:167] Top shape: 1 10 10 126 (12600)
I0406 07:36:23.411334   621 net.cpp:175] Memory required for data: 314484612
I0406 07:36:23.411337   621 layer_factory.hpp:93] Creating layer conv6_2_mbox_conf_flat
I0406 07:36:23.411342   621 net.cpp:110] Creating Layer conv6_2_mbox_conf_flat
I0406 07:36:23.411346   621 net.cpp:451] conv6_2_mbox_conf_flat <- conv6_2_mbox_conf_perm
I0406 07:36:23.411351   621 net.cpp:425] conv6_2_mbox_conf_flat -> conv6_2_mbox_conf_flat
I0406 07:36:23.411370   621 net.cpp:160] Setting up conv6_2_mbox_conf_flat
I0406 07:36:23.411375   621 net.cpp:167] Top shape: 1 12600 (12600)
I0406 07:36:23.411379   621 net.cpp:175] Memory required for data: 314535012
I0406 07:36:23.411382   621 layer_factory.hpp:93] Creating layer conv6_2_mbox_priorbox
I0406 07:36:23.411388   621 net.cpp:110] Creating Layer conv6_2_mbox_priorbox
I0406 07:36:23.411391   621 net.cpp:451] conv6_2_mbox_priorbox <- conv6_2_conv6_2_fixed_0_split_3
I0406 07:36:23.411396   621 net.cpp:451] conv6_2_mbox_priorbox <- data_data_fixed_0_split_3
I0406 07:36:23.411401   621 net.cpp:425] conv6_2_mbox_priorbox -> conv6_2_mbox_priorbox
I0406 07:36:23.411422   621 net.cpp:160] Setting up conv6_2_mbox_priorbox
I0406 07:36:23.411427   621 net.cpp:167] Top shape: 1 2 2400 (4800)
I0406 07:36:23.411432   621 net.cpp:175] Memory required for data: 314554212
I0406 07:36:23.411434   621 layer_factory.hpp:93] Creating layer conv7_2_mbox_loc
I0406 07:36:23.411442   621 net.cpp:110] Creating Layer conv7_2_mbox_loc
I0406 07:36:23.411446   621 net.cpp:451] conv7_2_mbox_loc <- conv7_2_conv7_2_fixed_0_split_1
I0406 07:36:23.411451   621 net.cpp:425] conv7_2_mbox_loc -> conv7_2_mbox_loc
I0406 07:36:23.411942   621 layer_factory.hpp:93] Creating layer conv7_2_mbox_loc
I0406 07:36:23.412569   621 net.cpp:160] Setting up conv7_2_mbox_loc
I0406 07:36:23.412577   621 net.cpp:167] Top shape: 1 24 5 5 (600)
I0406 07:36:23.412582   621 net.cpp:175] Memory required for data: 314556612
I0406 07:36:23.412588   621 layer_factory.hpp:93] Creating layer conv7_2_mbox_loc_perm
I0406 07:36:23.412595   621 net.cpp:110] Creating Layer conv7_2_mbox_loc_perm
I0406 07:36:23.412598   621 net.cpp:451] conv7_2_mbox_loc_perm <- conv7_2_mbox_loc
I0406 07:36:23.412603   621 net.cpp:425] conv7_2_mbox_loc_perm -> conv7_2_mbox_loc_perm
I0406 07:36:23.412683   621 net.cpp:160] Setting up conv7_2_mbox_loc_perm
I0406 07:36:23.412689   621 net.cpp:167] Top shape: 1 5 5 24 (600)
I0406 07:36:23.412693   621 net.cpp:175] Memory required for data: 314559012
I0406 07:36:23.412696   621 layer_factory.hpp:93] Creating layer conv7_2_mbox_loc_flat
I0406 07:36:23.412701   621 net.cpp:110] Creating Layer conv7_2_mbox_loc_flat
I0406 07:36:23.412704   621 net.cpp:451] conv7_2_mbox_loc_flat <- conv7_2_mbox_loc_perm
I0406 07:36:23.412709   621 net.cpp:425] conv7_2_mbox_loc_flat -> conv7_2_mbox_loc_flat
I0406 07:36:23.412727   621 net.cpp:160] Setting up conv7_2_mbox_loc_flat
I0406 07:36:23.412732   621 net.cpp:167] Top shape: 1 600 (600)
I0406 07:36:23.412736   621 net.cpp:175] Memory required for data: 314561412
I0406 07:36:23.412739   621 layer_factory.hpp:93] Creating layer conv7_2_mbox_conf
I0406 07:36:23.412746   621 net.cpp:110] Creating Layer conv7_2_mbox_conf
I0406 07:36:23.412750   621 net.cpp:451] conv7_2_mbox_conf <- conv7_2_conv7_2_fixed_0_split_2
I0406 07:36:23.412755   621 net.cpp:425] conv7_2_mbox_conf -> conv7_2_mbox_conf
I0406 07:36:23.415729   621 layer_factory.hpp:93] Creating layer conv7_2_mbox_conf
I0406 07:36:23.418814   621 net.cpp:160] Setting up conv7_2_mbox_conf
I0406 07:36:23.418825   621 net.cpp:167] Top shape: 1 126 5 5 (3150)
I0406 07:36:23.418831   621 net.cpp:175] Memory required for data: 314574012
I0406 07:36:23.418838   621 layer_factory.hpp:93] Creating layer conv7_2_mbox_conf_perm
I0406 07:36:23.418844   621 net.cpp:110] Creating Layer conv7_2_mbox_conf_perm
I0406 07:36:23.418849   621 net.cpp:451] conv7_2_mbox_conf_perm <- conv7_2_mbox_conf
I0406 07:36:23.418854   621 net.cpp:425] conv7_2_mbox_conf_perm -> conv7_2_mbox_conf_perm
I0406 07:36:23.418933   621 net.cpp:160] Setting up conv7_2_mbox_conf_perm
I0406 07:36:23.418939   621 net.cpp:167] Top shape: 1 5 5 126 (3150)
I0406 07:36:23.418944   621 net.cpp:175] Memory required for data: 314586612
I0406 07:36:23.418947   621 layer_factory.hpp:93] Creating layer conv7_2_mbox_conf_flat
I0406 07:36:23.418952   621 net.cpp:110] Creating Layer conv7_2_mbox_conf_flat
I0406 07:36:23.418956   621 net.cpp:451] conv7_2_mbox_conf_flat <- conv7_2_mbox_conf_perm
I0406 07:36:23.418960   621 net.cpp:425] conv7_2_mbox_conf_flat -> conv7_2_mbox_conf_flat
I0406 07:36:23.418979   621 net.cpp:160] Setting up conv7_2_mbox_conf_flat
I0406 07:36:23.418984   621 net.cpp:167] Top shape: 1 3150 (3150)
I0406 07:36:23.418988   621 net.cpp:175] Memory required for data: 314599212
I0406 07:36:23.418992   621 layer_factory.hpp:93] Creating layer conv7_2_mbox_priorbox
I0406 07:36:23.418998   621 net.cpp:110] Creating Layer conv7_2_mbox_priorbox
I0406 07:36:23.419001   621 net.cpp:451] conv7_2_mbox_priorbox <- conv7_2_conv7_2_fixed_0_split_3
I0406 07:36:23.419005   621 net.cpp:451] conv7_2_mbox_priorbox <- data_data_fixed_0_split_4
I0406 07:36:23.419011   621 net.cpp:425] conv7_2_mbox_priorbox -> conv7_2_mbox_priorbox
I0406 07:36:23.419031   621 net.cpp:160] Setting up conv7_2_mbox_priorbox
I0406 07:36:23.419037   621 net.cpp:167] Top shape: 1 2 600 (1200)
I0406 07:36:23.419041   621 net.cpp:175] Memory required for data: 314604012
I0406 07:36:23.419044   621 layer_factory.hpp:93] Creating layer conv8_2_mbox_loc
I0406 07:36:23.419052   621 net.cpp:110] Creating Layer conv8_2_mbox_loc
I0406 07:36:23.419056   621 net.cpp:451] conv8_2_mbox_loc <- conv8_2_conv8_2_fixed_0_split_1
I0406 07:36:23.419062   621 net.cpp:425] conv8_2_mbox_loc -> conv8_2_mbox_loc
I0406 07:36:23.419427   621 layer_factory.hpp:93] Creating layer conv8_2_mbox_loc
I0406 07:36:23.419919   621 net.cpp:160] Setting up conv8_2_mbox_loc
I0406 07:36:23.419926   621 net.cpp:167] Top shape: 1 16 3 3 (144)
I0406 07:36:23.419931   621 net.cpp:175] Memory required for data: 314604588
I0406 07:36:23.419937   621 layer_factory.hpp:93] Creating layer conv8_2_mbox_loc_perm
I0406 07:36:23.419943   621 net.cpp:110] Creating Layer conv8_2_mbox_loc_perm
I0406 07:36:23.419947   621 net.cpp:451] conv8_2_mbox_loc_perm <- conv8_2_mbox_loc
I0406 07:36:23.419952   621 net.cpp:425] conv8_2_mbox_loc_perm -> conv8_2_mbox_loc_perm
I0406 07:36:23.420027   621 net.cpp:160] Setting up conv8_2_mbox_loc_perm
I0406 07:36:23.420033   621 net.cpp:167] Top shape: 1 3 3 16 (144)
I0406 07:36:23.420038   621 net.cpp:175] Memory required for data: 314605164
I0406 07:36:23.420042   621 layer_factory.hpp:93] Creating layer conv8_2_mbox_loc_flat
I0406 07:36:23.420045   621 net.cpp:110] Creating Layer conv8_2_mbox_loc_flat
I0406 07:36:23.420049   621 net.cpp:451] conv8_2_mbox_loc_flat <- conv8_2_mbox_loc_perm
I0406 07:36:23.420053   621 net.cpp:425] conv8_2_mbox_loc_flat -> conv8_2_mbox_loc_flat
I0406 07:36:23.420071   621 net.cpp:160] Setting up conv8_2_mbox_loc_flat
I0406 07:36:23.420078   621 net.cpp:167] Top shape: 1 144 (144)
I0406 07:36:23.420081   621 net.cpp:175] Memory required for data: 314605740
I0406 07:36:23.420084   621 layer_factory.hpp:93] Creating layer conv8_2_mbox_conf
I0406 07:36:23.420091   621 net.cpp:110] Creating Layer conv8_2_mbox_conf
I0406 07:36:23.420094   621 net.cpp:451] conv8_2_mbox_conf <- conv8_2_conv8_2_fixed_0_split_2
I0406 07:36:23.420100   621 net.cpp:425] conv8_2_mbox_conf -> conv8_2_mbox_conf
I0406 07:36:23.421345   621 layer_factory.hpp:93] Creating layer conv8_2_mbox_conf
I0406 07:36:23.422713   621 net.cpp:160] Setting up conv8_2_mbox_conf
I0406 07:36:23.422720   621 net.cpp:167] Top shape: 1 84 3 3 (756)
I0406 07:36:23.422724   621 net.cpp:175] Memory required for data: 314608764
I0406 07:36:23.422730   621 layer_factory.hpp:93] Creating layer conv8_2_mbox_conf_perm
I0406 07:36:23.422736   621 net.cpp:110] Creating Layer conv8_2_mbox_conf_perm
I0406 07:36:23.422740   621 net.cpp:451] conv8_2_mbox_conf_perm <- conv8_2_mbox_conf
I0406 07:36:23.422745   621 net.cpp:425] conv8_2_mbox_conf_perm -> conv8_2_mbox_conf_perm
I0406 07:36:23.422823   621 net.cpp:160] Setting up conv8_2_mbox_conf_perm
I0406 07:36:23.422829   621 net.cpp:167] Top shape: 1 3 3 84 (756)
I0406 07:36:23.422833   621 net.cpp:175] Memory required for data: 314611788
I0406 07:36:23.422837   621 layer_factory.hpp:93] Creating layer conv8_2_mbox_conf_flat
I0406 07:36:23.422842   621 net.cpp:110] Creating Layer conv8_2_mbox_conf_flat
I0406 07:36:23.422845   621 net.cpp:451] conv8_2_mbox_conf_flat <- conv8_2_mbox_conf_perm
I0406 07:36:23.422849   621 net.cpp:425] conv8_2_mbox_conf_flat -> conv8_2_mbox_conf_flat
I0406 07:36:23.422868   621 net.cpp:160] Setting up conv8_2_mbox_conf_flat
I0406 07:36:23.422873   621 net.cpp:167] Top shape: 1 756 (756)
I0406 07:36:23.422876   621 net.cpp:175] Memory required for data: 314614812
I0406 07:36:23.422879   621 layer_factory.hpp:93] Creating layer conv8_2_mbox_priorbox
I0406 07:36:23.422885   621 net.cpp:110] Creating Layer conv8_2_mbox_priorbox
I0406 07:36:23.422888   621 net.cpp:451] conv8_2_mbox_priorbox <- conv8_2_conv8_2_fixed_0_split_3
I0406 07:36:23.422893   621 net.cpp:451] conv8_2_mbox_priorbox <- data_data_fixed_0_split_5
I0406 07:36:23.422897   621 net.cpp:425] conv8_2_mbox_priorbox -> conv8_2_mbox_priorbox
I0406 07:36:23.422917   621 net.cpp:160] Setting up conv8_2_mbox_priorbox
I0406 07:36:23.422924   621 net.cpp:167] Top shape: 1 2 144 (288)
I0406 07:36:23.422930   621 net.cpp:175] Memory required for data: 314615964
I0406 07:36:23.422932   621 layer_factory.hpp:93] Creating layer conv9_2_mbox_loc
I0406 07:36:23.422940   621 net.cpp:110] Creating Layer conv9_2_mbox_loc
I0406 07:36:23.422943   621 net.cpp:451] conv9_2_mbox_loc <- conv9_2_conv9_2_fixed_0_split_0
I0406 07:36:23.422948   621 net.cpp:425] conv9_2_mbox_loc -> conv9_2_mbox_loc
I0406 07:36:23.423310   621 layer_factory.hpp:93] Creating layer conv9_2_mbox_loc
I0406 07:36:23.423782   621 net.cpp:160] Setting up conv9_2_mbox_loc
I0406 07:36:23.423789   621 net.cpp:167] Top shape: 1 16 1 1 (16)
I0406 07:36:23.423794   621 net.cpp:175] Memory required for data: 314616028
I0406 07:36:23.423799   621 layer_factory.hpp:93] Creating layer conv9_2_mbox_loc_perm
I0406 07:36:23.423805   621 net.cpp:110] Creating Layer conv9_2_mbox_loc_perm
I0406 07:36:23.423810   621 net.cpp:451] conv9_2_mbox_loc_perm <- conv9_2_mbox_loc
I0406 07:36:23.423815   621 net.cpp:425] conv9_2_mbox_loc_perm -> conv9_2_mbox_loc_perm
I0406 07:36:23.423890   621 net.cpp:160] Setting up conv9_2_mbox_loc_perm
I0406 07:36:23.423895   621 net.cpp:167] Top shape: 1 1 1 16 (16)
I0406 07:36:23.423900   621 net.cpp:175] Memory required for data: 314616092
I0406 07:36:23.423903   621 layer_factory.hpp:93] Creating layer conv9_2_mbox_loc_flat
I0406 07:36:23.423908   621 net.cpp:110] Creating Layer conv9_2_mbox_loc_flat
I0406 07:36:23.423911   621 net.cpp:451] conv9_2_mbox_loc_flat <- conv9_2_mbox_loc_perm
I0406 07:36:23.423916   621 net.cpp:425] conv9_2_mbox_loc_flat -> conv9_2_mbox_loc_flat
I0406 07:36:23.423933   621 net.cpp:160] Setting up conv9_2_mbox_loc_flat
I0406 07:36:23.423939   621 net.cpp:167] Top shape: 1 16 (16)
I0406 07:36:23.423943   621 net.cpp:175] Memory required for data: 314616156
I0406 07:36:23.423946   621 layer_factory.hpp:93] Creating layer conv9_2_mbox_conf
I0406 07:36:23.423954   621 net.cpp:110] Creating Layer conv9_2_mbox_conf
I0406 07:36:23.423957   621 net.cpp:451] conv9_2_mbox_conf <- conv9_2_conv9_2_fixed_0_split_1
I0406 07:36:23.423962   621 net.cpp:425] conv9_2_mbox_conf -> conv9_2_mbox_conf
I0406 07:36:23.425201   621 layer_factory.hpp:93] Creating layer conv9_2_mbox_conf
I0406 07:36:23.426551   621 net.cpp:160] Setting up conv9_2_mbox_conf
I0406 07:36:23.426559   621 net.cpp:167] Top shape: 1 84 1 1 (84)
I0406 07:36:23.426564   621 net.cpp:175] Memory required for data: 314616492
I0406 07:36:23.426569   621 layer_factory.hpp:93] Creating layer conv9_2_mbox_conf_perm
I0406 07:36:23.426575   621 net.cpp:110] Creating Layer conv9_2_mbox_conf_perm
I0406 07:36:23.426579   621 net.cpp:451] conv9_2_mbox_conf_perm <- conv9_2_mbox_conf
I0406 07:36:23.426584   621 net.cpp:425] conv9_2_mbox_conf_perm -> conv9_2_mbox_conf_perm
I0406 07:36:23.426661   621 net.cpp:160] Setting up conv9_2_mbox_conf_perm
I0406 07:36:23.426667   621 net.cpp:167] Top shape: 1 1 1 84 (84)
I0406 07:36:23.426671   621 net.cpp:175] Memory required for data: 314616828
I0406 07:36:23.426674   621 layer_factory.hpp:93] Creating layer conv9_2_mbox_conf_flat
I0406 07:36:23.426679   621 net.cpp:110] Creating Layer conv9_2_mbox_conf_flat
I0406 07:36:23.426682   621 net.cpp:451] conv9_2_mbox_conf_flat <- conv9_2_mbox_conf_perm
I0406 07:36:23.426687   621 net.cpp:425] conv9_2_mbox_conf_flat -> conv9_2_mbox_conf_flat
I0406 07:36:23.426704   621 net.cpp:160] Setting up conv9_2_mbox_conf_flat
I0406 07:36:23.426709   621 net.cpp:167] Top shape: 1 84 (84)
I0406 07:36:23.426713   621 net.cpp:175] Memory required for data: 314617164
I0406 07:36:23.426717   621 layer_factory.hpp:93] Creating layer conv9_2_mbox_priorbox
I0406 07:36:23.426723   621 net.cpp:110] Creating Layer conv9_2_mbox_priorbox
I0406 07:36:23.426734   621 net.cpp:451] conv9_2_mbox_priorbox <- conv9_2_conv9_2_fixed_0_split_2
I0406 07:36:23.426738   621 net.cpp:451] conv9_2_mbox_priorbox <- data_data_fixed_0_split_6
I0406 07:36:23.426743   621 net.cpp:425] conv9_2_mbox_priorbox -> conv9_2_mbox_priorbox
I0406 07:36:23.426762   621 net.cpp:160] Setting up conv9_2_mbox_priorbox
I0406 07:36:23.426769   621 net.cpp:167] Top shape: 1 2 16 (32)
I0406 07:36:23.426774   621 net.cpp:175] Memory required for data: 314617292
I0406 07:36:23.426776   621 layer_factory.hpp:93] Creating layer mbox_loc
I0406 07:36:23.426781   621 net.cpp:110] Creating Layer mbox_loc
I0406 07:36:23.426786   621 net.cpp:451] mbox_loc <- conv4_3_norm_mbox_loc_flat
I0406 07:36:23.426791   621 net.cpp:451] mbox_loc <- fc7_mbox_loc_flat
I0406 07:36:23.426795   621 net.cpp:451] mbox_loc <- conv6_2_mbox_loc_flat
I0406 07:36:23.426800   621 net.cpp:451] mbox_loc <- conv7_2_mbox_loc_flat
I0406 07:36:23.426802   621 net.cpp:451] mbox_loc <- conv8_2_mbox_loc_flat
I0406 07:36:23.426806   621 net.cpp:451] mbox_loc <- conv9_2_mbox_loc_flat
I0406 07:36:23.426811   621 net.cpp:425] mbox_loc -> mbox_loc
I0406 07:36:23.426829   621 net.cpp:160] Setting up mbox_loc
I0406 07:36:23.426833   621 net.cpp:167] Top shape: 1 34928 (34928)
I0406 07:36:23.426837   621 net.cpp:175] Memory required for data: 314757004
I0406 07:36:23.426841   621 layer_factory.hpp:93] Creating layer mbox_loc_fixed
I0406 07:36:23.426846   621 net.cpp:110] Creating Layer mbox_loc_fixed
I0406 07:36:23.426848   621 net.cpp:451] mbox_loc_fixed <- mbox_loc
I0406 07:36:23.426853   621 net.cpp:412] mbox_loc_fixed -> mbox_loc (in-place)
I0406 07:36:23.426882   621 net.cpp:160] Setting up mbox_loc_fixed
I0406 07:36:23.426887   621 net.cpp:167] Top shape: 1 34928 (34928)
I0406 07:36:23.426892   621 net.cpp:175] Memory required for data: 314896716
I0406 07:36:23.426896   621 layer_factory.hpp:93] Creating layer mbox_conf
I0406 07:36:23.426901   621 net.cpp:110] Creating Layer mbox_conf
I0406 07:36:23.426905   621 net.cpp:451] mbox_conf <- conv4_3_norm_mbox_conf_flat
I0406 07:36:23.426909   621 net.cpp:451] mbox_conf <- fc7_mbox_conf_flat
I0406 07:36:23.426913   621 net.cpp:451] mbox_conf <- conv6_2_mbox_conf_flat
I0406 07:36:23.426916   621 net.cpp:451] mbox_conf <- conv7_2_mbox_conf_flat
I0406 07:36:23.426920   621 net.cpp:451] mbox_conf <- conv8_2_mbox_conf_flat
I0406 07:36:23.426923   621 net.cpp:451] mbox_conf <- conv9_2_mbox_conf_flat
I0406 07:36:23.426928   621 net.cpp:425] mbox_conf -> mbox_conf
I0406 07:36:23.426945   621 net.cpp:160] Setting up mbox_conf
I0406 07:36:23.426949   621 net.cpp:167] Top shape: 1 183372 (183372)
I0406 07:36:23.426954   621 net.cpp:175] Memory required for data: 315630204
I0406 07:36:23.426956   621 layer_factory.hpp:93] Creating layer mbox_conf_fixed
I0406 07:36:23.426965   621 net.cpp:110] Creating Layer mbox_conf_fixed
I0406 07:36:23.426970   621 net.cpp:451] mbox_conf_fixed <- mbox_conf
I0406 07:36:23.426973   621 net.cpp:412] mbox_conf_fixed -> mbox_conf (in-place)
I0406 07:36:23.427000   621 net.cpp:160] Setting up mbox_conf_fixed
I0406 07:36:23.427004   621 net.cpp:167] Top shape: 1 183372 (183372)
I0406 07:36:23.427008   621 net.cpp:175] Memory required for data: 316363692
I0406 07:36:23.427013   621 layer_factory.hpp:93] Creating layer mbox_priorbox
I0406 07:36:23.427017   621 net.cpp:110] Creating Layer mbox_priorbox
I0406 07:36:23.427021   621 net.cpp:451] mbox_priorbox <- conv4_3_norm_mbox_priorbox
I0406 07:36:23.427026   621 net.cpp:451] mbox_priorbox <- fc7_mbox_priorbox
I0406 07:36:23.427028   621 net.cpp:451] mbox_priorbox <- conv6_2_mbox_priorbox
I0406 07:36:23.427032   621 net.cpp:451] mbox_priorbox <- conv7_2_mbox_priorbox
I0406 07:36:23.427036   621 net.cpp:451] mbox_priorbox <- conv8_2_mbox_priorbox
I0406 07:36:23.427039   621 net.cpp:451] mbox_priorbox <- conv9_2_mbox_priorbox
I0406 07:36:23.427043   621 net.cpp:425] mbox_priorbox -> mbox_priorbox
I0406 07:36:23.427062   621 net.cpp:160] Setting up mbox_priorbox
I0406 07:36:23.427064   621 net.cpp:167] Top shape: 1 2 34928 (69856)
I0406 07:36:23.427068   621 net.cpp:175] Memory required for data: 316643116
I0406 07:36:23.427071   621 layer_factory.hpp:93] Creating layer mbox_priorbox_fixed
I0406 07:36:23.427076   621 net.cpp:110] Creating Layer mbox_priorbox_fixed
I0406 07:36:23.427079   621 net.cpp:451] mbox_priorbox_fixed <- mbox_priorbox
I0406 07:36:23.427083   621 net.cpp:412] mbox_priorbox_fixed -> mbox_priorbox (in-place)
I0406 07:36:23.427111   621 net.cpp:160] Setting up mbox_priorbox_fixed
I0406 07:36:23.427114   621 net.cpp:167] Top shape: 1 2 34928 (69856)
I0406 07:36:23.427119   621 net.cpp:175] Memory required for data: 316922540
I0406 07:36:23.427124   621 net.cpp:238] mbox_priorbox_fixed does not need backward computation.
I0406 07:36:23.427127   621 net.cpp:238] mbox_priorbox does not need backward computation.
I0406 07:36:23.427132   621 net.cpp:238] mbox_conf_fixed does not need backward computation.
I0406 07:36:23.427135   621 net.cpp:238] mbox_conf does not need backward computation.
…
