…
I0706 13:22:07.072850  4945 solver.cpp:99] Creating training net from net file: ../workspace/model/enet/train_val.prototxt
I0706 13:22:07.076913  4945 net.cpp:52] Initializing net from parameters: 
state {
  phase: TRAIN
}
layer {
  name: "data"
  type: "ImageSegData"
  top: "data"
  top: "label"
  include {
    phase: TRAIN
  }
  transform_param {
    scale: 0.022
    crop_size: 512
    mean_value: 73
    mean_value: 82
    mean_value: 72
  }
  image_data_param {
    source: "../workspace/data/cityscapes/img_seg.txt"
    batch_size: 7
    mirror: false
    shuffle: true
  }
}
layer {
  name: "ConvNd_1"
  type: "Convolution"
  bottom: "data"
  top: "ConvNd_1"
  convolution_param {
    num_output: 13
    bias_term: false
    pad: 1
    kernel_size: 3
    group: 1
    stride: 2
    weight_filler {
      type: "msra"
    }
    dilation: 1
  }
}
layer {
  name: "MaxPool2d_1"
  type: "Pooling"
  bottom: "data"
  top: "MaxPool2d_1"
  pooling_param {
    pool: MAX
    kernel_size: 3
    stride: 2
    pad: 0
  }
}
layer {
  name: "Concat_1"
  type: "Concat"
  bottom: "ConvNd_1"
  bottom: "MaxPool2d_1"
  top: "Concat_1"
  concat_param {
    axis: 1
  }
}
layer {
  name: "BatchNorm_1"
  type: "BatchNorm"
  bottom: "Concat_1"
  top: "BatchNorm_1"
  param {
    lr_mult: 1
    decay_mult: 0
  }
  param {
    lr_mult: 1
    decay_mult: 0
  }
  param {
    lr_mult: 0
    decay_mult: 0
  }
  param {
    lr_mult: 0
    decay_mult: 0
  }
  batch_norm_param {
    use_global_stats: false
    eps: 1e-05
    scale_filler {
      type: "constant"
      value: 1
    }
    bias_filler {
      type: "constant"
      value: 0
    }
  }
}
layer {
  name: "Threshold_1"
  type: "ReLU"
  bottom: "BatchNorm_1"
  top: "BatchNorm_1"
}
layer {
  name: "MaxPool2d_2"
  type: "Pooling"
  bottom: "BatchNorm_1"
  top: "MaxPool2d_2"
  pooling_param {
    pool: MAX
    kernel_size: 3
    stride: 2
    pad: 0
  }
}
layer {
  name: "ConvNd_2"
  type: "Convolution"
  bottom: "MaxPool2d_2"
  top: "ConvNd_2"
  convolution_param {
    num_output: 64
    bias_term: false
    pad: 0
    kernel_size: 1
    group: 1
    stride: 1
    weight_filler {
      type: "msra"
    }
    dilation: 1
  }
}
layer {
  name: "ConvNd_3"
  type: "Convolution"
  bottom: "BatchNorm_1"
  top: "ConvNd_3"
  convolution_param {
    num_output: 16
    bias_term: false
    pad: 0
    kernel_size: 2
    group: 1
    stride: 2
    weight_filler {
      type: "msra"
    }
    dilation: 1
  }
}
layer {
  name: "BatchNorm_2"
  type: "BatchNorm"
  bottom: "ConvNd_3"
  top: "BatchNorm_2"
  param {
    lr_mult: 1
    decay_mult: 0
  }
  param {
    lr_mult: 1
    decay_mult: 0
  }
  param {
    lr_mult: 0
    decay_mult: 0
  }
  param {
    lr_mult: 0
    decay_mult: 0
  }
  batch_norm_param {
    use_global_stats: false
    eps: 1e-05
    scale_filler {
      type: "constant"
      value: 1
    }
    bias_filler {
      type: "constant"
      value: 0
    }
  }
}
layer {
  name: "Threshold_2"
  type: "ReLU"
  bottom: "BatchNorm_2"
  top: "BatchNorm_2"
}
layer {
  name: "ConvNd_4"
  type: "Convolution"
  bottom: "BatchNorm_2"
  top: "ConvNd_4"
  convolution_param {
    num_output: 16
    bias_term: false
    pad: 1
    kernel_size: 3
    group: 1
    stride: 1
    weight_filler {
      type: "msra"
    }
    dilation: 1
  }
}
layer {
  name: "BatchNorm_3"
  type: "BatchNorm"
  bottom: "ConvNd_4"
  top: "BatchNorm_3"
  param {
    lr_mult: 1
    decay_mult: 0
  }
  param {
    lr_mult: 1
    decay_mult: 0
  }
  param {
    lr_mult: 0
    decay_mult: 0
  }
  param {
    lr_mult: 0
    decay_mult: 0
  }
  batch_norm_param {
    use_global_stats: false
    eps: 1e-05
    scale_filler {
      type: "constant"
      value: 1
    }
    bias_filler {
      type: "constant"
      value: 0
    }
  }
}
layer {
  name: "Threshold_3"
  type: "ReLU"
  bottom: "BatchNorm_3"
  top: "BatchNorm_3"
}
layer {
  name: "ConvNd_5"
  type: "Convolution"
  bottom: "BatchNorm_3"
  top: "ConvNd_5"
  convolution_param {
    num_output: 64
    bias_term: false
    pad: 0
    kernel_size: 1
    group: 1
    stride: 1
    weight_filler {
      type: "msra"
    }
    dilation: 1
  }
}
layer {
  name: "BatchNorm_4"
  type: "BatchNorm"
  bottom: "ConvNd_5"
  top: "BatchNorm_4"
  param {
    lr_mult: 1
    decay_mult: 0
  }
  param {
    lr_mult: 1
    decay_mult: 0
  }
  param {
    lr_mult: 0
    decay_mult: 0
  }
  param {
    lr_mult: 0
    decay_mult: 0
  }
  batch_norm_param {
    use_global_stats: false
    eps: 1e-05
    scale_filler {
      type: "constant"
      value: 1
    }
    bias_filler {
      type: "constant"
      value: 0
    }
  }
}
layer {
  name: "Threshold_4"
  type: "ReLU"
  bottom: "BatchNorm_4"
  top: "BatchNorm_4"
}
layer {
  name: "Add_1"
  type: "Eltwise"
  bottom: "ConvNd_2"
  bottom: "BatchNorm_4"
  top: "Add_1"
}
layer {
  name: "Threshold_5"
  type: "ReLU"
  bottom: "Add_1"
  top: "Add_1"
}
layer {
  name: "ConvNd_6"
  type: "Convolution"
  bottom: "Add_1"
  top: "ConvNd_6"
  convolution_param {
    num_output: 16
    bias_term: false
    pad: 0
    kernel_size: 1
    group: 1
    stride: 1
    weight_filler {
      type: "msra"
    }
    dilation: 1
  }
}
layer {
  name: "BatchNorm_5"
  type: "BatchNorm"
  bottom: "ConvNd_6"
  top: "BatchNorm_5"
  param {
    lr_mult: 1
    decay_mult: 0
  }
  param {
    lr_mult: 1
    decay_mult: 0
  }
  param {
    lr_mult: 0
    decay_mult: 0
  }
  param {
    lr_mult: 0
    decay_mult: 0
  }
  batch_norm_param {
    use_global_stats: false
    eps: 1e-05
    scale_filler {
      type: "constant"
      value: 1
    }
    bias_filler {
      type: "constant"
      value: 0
    }
  }
}
layer {
  name: "Threshold_6"
  type: "ReLU"
  bottom: "BatchNorm_5"
  top: "BatchNorm_5"
}
layer {
  name: "ConvNd_7"
  type: "Convolution"
  bottom: "BatchNorm_5"
  top: "ConvNd_7"
  convolution_param {
    num_output: 16
    bias_term: false
    pad: 1
    kernel_size: 3
    group: 1
    stride: 1
    weight_filler {
      type: "msra"
    }
    dilation: 1
  }
}
layer {
  name: "BatchNorm_6"
  type: "BatchNorm"
  bottom: "ConvNd_7"
  top: "BatchNorm_6"
  param {
    lr_mult: 1
    decay_mult: 0
  }
  param {
    lr_mult: 1
    decay_mult: 0
  }
  param {
    lr_mult: 0
    decay_mult: 0
  }
  param {
    lr_mult: 0
    decay_mult: 0
  }
  batch_norm_param {
    use_global_stats: false
    eps: 1e-05
    scale_filler {
      type: "constant"
      value: 1
    }
    bias_filler {
      type: "constant"
      value: 0
    }
  }
}
layer {
  name: "Threshold_7"
  type: "ReLU"
  bottom: "BatchNorm_6"
  top: "BatchNorm_6"
}
layer {
  name: "ConvNd_8"
  type: "Convolution"
  bottom: "BatchNorm_6"
  top: "ConvNd_8"
  convolution_param {
    num_output: 64
    bias_term: false
    pad: 0
    kernel_size: 1
    group: 1
    stride: 1
    weight_filler {
      type: "msra"
    }
    dilation: 1
  }
}
layer {
  name: "BatchNorm_7"
  type: "BatchNorm"
  bottom: "ConvNd_8"
  top: "BatchNorm_7"
  param {
    lr_mult: 1
    decay_mult: 0
  }
  param {
    lr_mult: 1
    decay_mult: 0
  }
  param {
    lr_mult: 0
    decay_mult: 0
  }
  param {
    lr_mult: 0
    decay_mult: 0
  }
  batch_norm_param {
    use_global_stats: false
    eps: 1e-05
    scale_filler {
      type: "constant"
      value: 1
    }
    bias_filler {
      type: "constant"
      value: 0
    }
  }
}
layer {
  name: "Threshold_8"
  type: "ReLU"
  bottom: "BatchNorm_7"
  top: "BatchNorm_7"
}
layer {
  name: "Add_2"
  type: "Eltwise"
  bottom: "Add_1"
  bottom: "BatchNorm_7"
  top: "Add_2"
}
layer {
  name: "Threshold_9"
  type: "ReLU"
  bottom: "Add_2"
  top: "Add_2"
}
layer {
  name: "ConvNd_9"
  type: "Convolution"
  bottom: "Add_2"
  top: "ConvNd_9"
  convolution_param {
    num_output: 16
    bias_term: false
    pad: 0
    kernel_size: 1
    group: 1
    stride: 1
    weight_filler {
      type: "msra"
    }
    dilation: 1
  }
}
layer {
  name: "BatchNorm_8"
  type: "BatchNorm"
  bottom: "ConvNd_9"
  top: "BatchNorm_8"
  param {
    lr_mult: 1
    decay_mult: 0
  }
  param {
    lr_mult: 1
    decay_mult: 0
  }
  param {
    lr_mult: 0
    decay_mult: 0
  }
  param {
    lr_mult: 0
    decay_mult: 0
  }
  batch_norm_param {
    use_global_stats: false
    eps: 1e-05
    scale_filler {
      type: "constant"
      value: 1
    }
    bias_filler {
      type: "constant"
      value: 0
    }
  }
}
layer {
  name: "Threshold_10"
  type: "ReLU"
  bottom: "BatchNorm_8"
  top: "BatchNorm_8"
}
layer {
  name: "ConvNd_10"
  type: "Convolution"
  bottom: "BatchNorm_8"
  top: "ConvNd_10"
  convolution_param {
    num_output: 16
    bias_term: false
    pad: 1
    kernel_size: 3
    group: 1
    stride: 1
    weight_filler {
      type: "msra"
    }
    dilation: 1
  }
}
layer {
  name: "BatchNorm_9"
  type: "BatchNorm"
  bottom: "ConvNd_10"
  top: "BatchNorm_9"
  param {
    lr_mult: 1
    decay_mult: 0
  }
  param {
    lr_mult: 1
    decay_mult: 0
  }
  param {
    lr_mult: 0
    decay_mult: 0
  }
  param {
    lr_mult: 0
    decay_mult: 0
  }
  batch_norm_param {
    use_global_stats: false
    eps: 1e-05
    scale_filler {
      type: "constant"
      value: 1
    }
    bias_filler {
      type: "constant"
      value: 0
    }
  }
}
layer {
  name: "Threshold_11"
  type: "ReLU"
  bottom: "BatchNorm_9"
  top: "BatchNorm_9"
}
layer {
  name: "ConvNd_11"
  type: "Convolution"
  bottom: "BatchNorm_9"
  top: "ConvNd_11"
  convolution_param {
    num_output: 64
    bias_term: false
    pad: 0
    kernel_size: 1
    group: 1
    stride: 1
    weight_filler {
      type: "msra"
    }
    dilation: 1
  }
}
layer {
  name: "BatchNorm_10"
  type: "BatchNorm"
  bottom: "ConvNd_11"
  top: "BatchNorm_10"
  param {
    lr_mult: 1
    decay_mult: 0
  }
  param {
    lr_mult: 1
    decay_mult: 0
  }
  param {
    lr_mult: 0
    decay_mult: 0
  }
  param {
    lr_mult: 0
    decay_mult: 0
  }
  batch_norm_param {
    use_global_stats: false
    eps: 1e-05
    scale_filler {
      type: "constant"
      value: 1
    }
    bias_filler {
      type: "constant"
      value: 0
    }
  }
}
layer {
  name: "Threshold_12"
  type: "ReLU"
  bottom: "BatchNorm_10"
  top: "BatchNorm_10"
}
layer {
  name: "Add_3"
  type: "Eltwise"
  bottom: "Add_2"
  bottom: "BatchNorm_10"
  top: "Add_3"
}
layer {
  name: "Threshold_13"
  type: "ReLU"
  bottom: "Add_3"
  top: "Add_3"
}
layer {
  name: "ConvNd_12"
  type: "Convolution"
  bottom: "Add_3"
  top: "ConvNd_12"
  convolution_param {
    num_output: 16
    bias_term: false
    pad: 0
    kernel_size: 1
    group: 1
    stride: 1
    weight_filler {
      type: "msra"
    }
    dilation: 1
  }
}
layer {
  name: "BatchNorm_11"
  type: "BatchNorm"
  bottom: "ConvNd_12"
  top: "BatchNorm_11"
  param {
    lr_mult: 1
    decay_mult: 0
  }
  param {
    lr_mult: 1
    decay_mult: 0
  }
  param {
    lr_mult: 0
    decay_mult: 0
  }
  param {
    lr_mult: 0
    decay_mult: 0
  }
  batch_norm_param {
    use_global_stats: false
    eps: 1e-05
    scale_filler {
      type: "constant"
      value: 1
    }
    bias_filler {
      type: "constant"
      value: 0
    }
  }
}
layer {
  name: "Threshold_14"
  type: "ReLU"
  bottom: "BatchNorm_11"
  top: "BatchNorm_11"
}
layer {
  name: "ConvNd_13"
  type: "Convolution"
  bottom: "BatchNorm_11"
  top: "ConvNd_13"
  convolution_param {
    num_output: 16
    bias_term: false
    pad: 1
    kernel_size: 3
    group: 1
    stride: 1
    weight_filler {
      type: "msra"
    }
    dilation: 1
  }
}
layer {
  name: "BatchNorm_12"
  type: "BatchNorm"
  bottom: "ConvNd_13"
  top: "BatchNorm_12"
  param {
    lr_mult: 1
    decay_mult: 0
  }
  param {
    lr_mult: 1
    decay_mult: 0
  }
  param {
    lr_mult: 0
    decay_mult: 0
  }
  param {
    lr_mult: 0
    decay_mult: 0
  }
  batch_norm_param {
    use_global_stats: false
    eps: 1e-05
    scale_filler {
      type: "constant"
      value: 1
    }
    bias_filler {
      type: "constant"
      value: 0
    }
  }
}
layer {
  name: "Threshold_15"
  type: "ReLU"
  bottom: "BatchNorm_12"
  top: "BatchNorm_12"
}
layer {
  name: "ConvNd_14"
  type: "Convolution"
  bottom: "BatchNorm_12"
  top: "ConvNd_14"
  convolution_param {
    num_output: 64
    bias_term: false
    pad: 0
    kernel_size: 1
    group: 1
    stride: 1
    weight_filler {
      type: "msra"
    }
    dilation: 1
  }
}
layer {
  name: "BatchNorm_13"
  type: "BatchNorm"
  bottom: "ConvNd_14"
  top: "BatchNorm_13"
  param {
    lr_mult: 1
    decay_mult: 0
  }
  param {
    lr_mult: 1
    decay_mult: 0
  }
  param {
    lr_mult: 0
    decay_mult: 0
  }
  param {
    lr_mult: 0
    decay_mult: 0
  }
  batch_norm_param {
    use_global_stats: false
    eps: 1e-05
    scale_filler {
      type: "constant"
      value: 1
    }
    bias_filler {
      type: "constant"
      value: 0
    }
  }
}
layer {
  name: "Threshold_16"
  type: "ReLU"
  bottom: "BatchNorm_13"
  top: "BatchNorm_13"
}
layer {
  name: "Add_4"
  type: "Eltwise"
  bottom: "Add_3"
  bottom: "BatchNorm_13"
  top: "Add_4"
}
layer {
  name: "Threshold_17"
  type: "ReLU"
  bottom: "Add_4"
  top: "Add_4"
}
layer {
  name: "ConvNd_15"
  type: "Convolution"
  bottom: "Add_4"
  top: "ConvNd_15"
  convolution_param {
    num_output: 16
    bias_term: false
    pad: 0
    kernel_size: 1
    group: 1
    stride: 1
    weight_filler {
      type: "msra"
    }
    dilation: 1
  }
}
layer {
  name: "BatchNorm_14"
  type: "BatchNorm"
  bottom: "ConvNd_15"
  top: "BatchNorm_14"
  param {
    lr_mult: 1
    decay_mult: 0
  }
  param {
    lr_mult: 1
    decay_mult: 0
  }
  param {
    lr_mult: 0
    decay_mult: 0
  }
  param {
    lr_mult: 0
    decay_mult: 0
  }
  batch_norm_param {
    use_global_stats: false
    eps: 1e-05
    scale_filler {
      type: "constant"
      value: 1
    }
    bias_filler {
      type: "constant"
      value: 0
    }
  }
}
layer {
  name: "Threshold_18"
  type: "ReLU"
  bottom: "BatchNorm_14"
  top: "BatchNorm_14"
}
layer {
  name: "ConvNd_16"
  type: "Convolution"
  bottom: "BatchNorm_14"
  top: "ConvNd_16"
  convolution_param {
    num_output: 16
    bias_term: false
    pad: 1
    kernel_size: 3
    group: 1
    stride: 1
    weight_filler {
      type: "msra"
    }
    dilation: 1
  }
}
layer {
  name: "BatchNorm_15"
  type: "BatchNorm"
  bottom: "ConvNd_16"
  top: "BatchNorm_15"
  param {
    lr_mult: 1
    decay_mult: 0
  }
  param {
    lr_mult: 1
    decay_mult: 0
  }
  param {
    lr_mult: 0
    decay_mult: 0
  }
  param {
    lr_mult: 0
    decay_mult: 0
  }
  batch_norm_param {
    use_global_stats: false
    eps: 1e-05
    scale_filler {
      type: "constant"
      value: 1
    }
    bias_filler {
      type: "constant"
      value: 0
    }
  }
}
layer {
  name: "Threshold_19"
  type: "ReLU"
  bottom: "BatchNorm_15"
  top: "BatchNorm_15"
}
layer {
  name: "ConvNd_17"
  type: "Convolution"
  bottom: "BatchNorm_15"
  top: "ConvNd_17"
  convolution_param {
    num_output: 64
    bias_term: false
    pad: 0
    kernel_size: 1
    group: 1
    stride: 1
    weight_filler {
      type: "msra"
    }
    dilation: 1
  }
}
layer {
  name: "BatchNorm_16"
  type: "BatchNorm"
  bottom: "ConvNd_17"
  top: "BatchNorm_16"
  param {
    lr_mult: 1
    decay_mult: 0
  }
  param {
    lr_mult: 1
    decay_mult: 0
  }
  param {
    lr_mult: 0
    decay_mult: 0
  }
  param {
    lr_mult: 0
    decay_mult: 0
  }
  batch_norm_param {
    use_global_stats: false
    eps: 1e-05
    scale_filler {
      type: "constant"
      value: 1
    }
    bias_filler {
      type: "constant"
      value: 0
    }
  }
}
layer {
  name: "Threshold_20"
  type: "ReLU"
  bottom: "BatchNorm_16"
  top: "BatchNorm_16"
}
layer {
  name: "Add_5"
  type: "Eltwise"
  bottom: "Add_4"
  bottom: "BatchNorm_16"
  top: "Add_5"
}
layer {
  name: "Threshold_21"
  type: "ReLU"
  bottom: "Add_5"
  top: "Add_5"
}
layer {
  name: "MaxPool2d_3"
  type: "Pooling"
  bottom: "Add_5"
  top: "MaxPool2d_3"
  pooling_param {
    pool: MAX
    kernel_size: 3
    stride: 2
    pad: 0
  }
}
layer {
  name: "ConvNd_18"
  type: "Convolution"
  bottom: "MaxPool2d_3"
  top: "ConvNd_18"
  convolution_param {
    num_output: 128
    bias_term: false
    pad: 0
    kernel_size: 1
    group: 1
    stride: 1
    weight_filler {
      type: "msra"
    }
    dilation: 1
  }
}
layer {
  name: "ConvNd_19"
  type: "Convolution"
  bottom: "Add_5"
  top: "ConvNd_19"
  convolution_param {
    num_output: 32
    bias_term: false
    pad: 0
    kernel_size: 2
    group: 1
    stride: 2
    weight_filler {
      type: "msra"
    }
    dilation: 1
  }
}
layer {
  name: "BatchNorm_17"
  type: "BatchNorm"
  bottom: "ConvNd_19"
  top: "BatchNorm_17"
  param {
    lr_mult: 1
    decay_mult: 0
  }
  param {
    lr_mult: 1
    decay_mult: 0
  }
  param {
    lr_mult: 0
    decay_mult: 0
  }
  param {
    lr_mult: 0
    decay_mult: 0
  }
  batch_norm_param {
    use_global_stats: false
    eps: 1e-05
    scale_filler {
      type: "constant"
      value: 1
    }
    bias_filler {
      type: "constant"
      value: 0
    }
  }
}
layer {
  name: "Threshold_22"
  type: "ReLU"
  bottom: "BatchNorm_17"
  top: "BatchNorm_17"
}
layer {
  name: "ConvNd_20"
  type: "Convolution"
  bottom: "BatchNorm_17"
  top: "ConvNd_20"
  convolution_param {
    num_output: 32
    bias_term: false
    pad: 1
    kernel_size: 3
    group: 1
    stride: 1
    weight_filler {
      type: "msra"
    }
    dilation: 1
  }
}
layer {
  name: "BatchNorm_18"
  type: "BatchNorm"
  bottom: "ConvNd_20"
  top: "BatchNorm_18"
  param {
    lr_mult: 1
    decay_mult: 0
  }
  param {
    lr_mult: 1
    decay_mult: 0
  }
  param {
    lr_mult: 0
    decay_mult: 0
  }
  param {
    lr_mult: 0
    decay_mult: 0
  }
  batch_norm_param {
    use_global_stats: false
    eps: 1e-05
    scale_filler {
      type: "constant"
      value: 1
    }
    bias_filler {
      type: "constant"
      value: 0
    }
  }
}
layer {
  name: "Threshold_23"
  type: "ReLU"
  bottom: "BatchNorm_18"
  top: "BatchNorm_18"
}
layer {
  name: "ConvNd_21"
  type: "Convolution"
  bottom: "BatchNorm_18"
  top: "ConvNd_21"
  convolution_param {
    num_output: 128
    bias_term: false
    pad: 0
    kernel_size: 1
    group: 1
    stride: 1
    weight_filler {
      type: "msra"
    }
    dilation: 1
  }
}
layer {
  name: "BatchNorm_19"
  type: "BatchNorm"
  bottom: "ConvNd_21"
  top: "BatchNorm_19"
  param {
    lr_mult: 1
    decay_mult: 0
  }
  param {
    lr_mult: 1
    decay_mult: 0
  }
  param {
    lr_mult: 0
    decay_mult: 0
  }
  param {
    lr_mult: 0
    decay_mult: 0
  }
  batch_norm_param {
    use_global_stats: false
    eps: 1e-05
    scale_filler {
      type: "constant"
      value: 1
    }
    bias_filler {
      type: "constant"
      value: 0
    }
  }
}
layer {
  name: "Threshold_24"
  type: "ReLU"
  bottom: "BatchNorm_19"
  top: "BatchNorm_19"
}
layer {
  name: "Add_6"
  type: "Eltwise"
  bottom: "ConvNd_18"
  bottom: "BatchNorm_19"
  top: "Add_6"
}
layer {
  name: "Threshold_25"
  type: "ReLU"
  bottom: "Add_6"
  top: "Add_6"
}
layer {
  name: "ConvNd_22"
  type: "Convolution"
  bottom: "Add_6"
  top: "ConvNd_22"
  convolution_param {
    num_output: 32
    bias_term: false
    pad: 0
    kernel_size: 1
    group: 1
    stride: 1
    weight_filler {
      type: "msra"
    }
    dilation: 1
  }
}
layer {
  name: "BatchNorm_20"
  type: "BatchNorm"
  bottom: "ConvNd_22"
  top: "BatchNorm_20"
  param {
    lr_mult: 1
    decay_mult: 0
  }
  param {
    lr_mult: 1
    decay_mult: 0
  }
  param {
    lr_mult: 0
    decay_mult: 0
  }
  param {
    lr_mult: 0
    decay_mult: 0
  }
  batch_norm_param {
    use_global_stats: false
    eps: 1e-05
    scale_filler {
      type: "constant"
      value: 1
    }
    bias_filler {
      type: "constant"
      value: 0
    }
  }
}
layer {
  name: "Threshold_26"
  type: "ReLU"
  bottom: "BatchNorm_20"
  top: "BatchNorm_20"
}
layer {
  name: "ConvNd_23"
  type: "Convolution"
  bottom: "BatchNorm_20"
  top: "ConvNd_23"
  convolution_param {
    num_output: 32
    bias_term: false
    pad: 1
    kernel_size: 3
    group: 1
    stride: 1
    weight_filler {
      type: "msra"
    }
    dilation: 1
  }
}
layer {
  name: "BatchNorm_21"
  type: "BatchNorm"
  bottom: "ConvNd_23"
  top: "BatchNorm_21"
  param {
    lr_mult: 1
    decay_mult: 0
  }
  param {
    lr_mult: 1
    decay_mult: 0
  }
  param {
    lr_mult: 0
    decay_mult: 0
  }
  param {
    lr_mult: 0
    decay_mult: 0
  }
  batch_norm_param {
    use_global_stats: false
    eps: 1e-05
    scale_filler {
      type: "constant"
      value: 1
    }
    bias_filler {
      type: "constant"
      value: 0
    }
  }
}
layer {
  name: "Threshold_27"
  type: "ReLU"
  bottom: "BatchNorm_21"
  top: "BatchNorm_21"
}
layer {
  name: "ConvNd_24"
  type: "Convolution"
  bottom: "BatchNorm_21"
  top: "ConvNd_24"
  convolution_param {
    num_output: 128
    bias_term: false
    pad: 0
    kernel_size: 1
    group: 1
    stride: 1
    weight_filler {
      type: "msra"
    }
    dilation: 1
  }
}
layer {
  name: "BatchNorm_22"
  type: "BatchNorm"
  bottom: "ConvNd_24"
  top: "BatchNorm_22"
  param {
    lr_mult: 1
    decay_mult: 0
  }
  param {
    lr_mult: 1
    decay_mult: 0
  }
  param {
    lr_mult: 0
    decay_mult: 0
  }
  param {
    lr_mult: 0
    decay_mult: 0
  }
  batch_norm_param {
    use_global_stats: false
    eps: 1e-05
    scale_filler {
      type: "constant"
      value: 1
    }
    bias_filler {
      type: "constant"
      value: 0
    }
  }
}
layer {
  name: "Threshold_28"
  type: "ReLU"
  bottom: "BatchNorm_22"
  top: "BatchNorm_22"
}
layer {
  name: "Add_7"
  type: "Eltwise"
  bottom: "Add_6"
  bottom: "BatchNorm_22"
  top: "Add_7"
}
layer {
  name: "Threshold_29"
  type: "ReLU"
  bottom: "Add_7"
  top: "Add_7"
}
layer {
  name: "ConvNd_25"
  type: "Convolution"
  bottom: "Add_7"
  top: "ConvNd_25"
  convolution_param {
    num_output: 32
    bias_term: false
    pad: 0
    kernel_size: 1
    group: 1
    stride: 1
    weight_filler {
      type: "msra"
    }
    dilation: 1
  }
}
layer {
  name: "BatchNorm_23"
  type: "BatchNorm"
  bottom: "ConvNd_25"
  top: "BatchNorm_23"
  param {
    lr_mult: 1
    decay_mult: 0
  }
  param {
    lr_mult: 1
    decay_mult: 0
  }
  param {
    lr_mult: 0
    decay_mult: 0
  }
  param {
    lr_mult: 0
    decay_mult: 0
  }
  batch_norm_param {
    use_global_stats: false
    eps: 1e-05
    scale_filler {
      type: "constant"
      value: 1
    }
    bias_filler {
      type: "constant"
      value: 0
    }
  }
}
layer {
  name: "Threshold_30"
  type: "ReLU"
  bottom: "BatchNorm_23"
  top: "BatchNorm_23"
}
layer {
  name: "ConvNd_26"
  type: "Convolution"
  bottom: "BatchNorm_23"
  top: "ConvNd_26"
  convolution_param {
    num_output: 32
    bias_term: false
    pad: 2
    kernel_size: 3
    group: 1
    stride: 1
    weight_filler {
      type: "msra"
    }
    dilation: 2
  }
}
layer {
  name: "BatchNorm_24"
  type: "BatchNorm"
  bottom: "ConvNd_26"
  top: "BatchNorm_24"
  param {
    lr_mult: 1
    decay_mult: 0
  }
  param {
    lr_mult: 1
    decay_mult: 0
  }
  param {
    lr_mult: 0
    decay_mult: 0
  }
  param {
    lr_mult: 0
    decay_mult: 0
  }
  batch_norm_param {
    use_global_stats: false
    eps: 1e-05
    scale_filler {
      type: "constant"
      value: 1
    }
    bias_filler {
      type: "constant"
      value: 0
    }
  }
}
layer {
  name: "Threshold_31"
  type: "ReLU"
  bottom: "BatchNorm_24"
  top: "BatchNorm_24"
}
layer {
  name: "ConvNd_27"
  type: "Convolution"
  bottom: "BatchNorm_24"
  top: "ConvNd_27"
  convolution_param {
    num_output: 128
    bias_term: false
    pad: 0
    kernel_size: 1
    group: 1
    stride: 1
    weight_filler {
      type: "msra"
    }
    dilation: 1
  }
}
layer {
  name: "BatchNorm_25"
  type: "BatchNorm"
  bottom: "ConvNd_27"
  top: "BatchNorm_25"
  param {
    lr_mult: 1
    decay_mult: 0
  }
  param {
    lr_mult: 1
    decay_mult: 0
  }
  param {
    lr_mult: 0
    decay_mult: 0
  }
  param {
    lr_mult: 0
    decay_mult: 0
  }
  batch_norm_param {
    use_global_stats: false
    eps: 1e-05
    scale_filler {
      type: "constant"
      value: 1
    }
    bias_filler {
      type: "constant"
      value: 0
    }
  }
}
layer {
  name: "Threshold_32"
  type: "ReLU"
  bottom: "BatchNorm_25"
  top: "BatchNorm_25"
}
layer {
  name: "Add_8"
  type: "Eltwise"
  bottom: "Add_7"
  bottom: "BatchNorm_25"
  top: "Add_8"
}
layer {
  name: "Threshold_33"
  type: "ReLU"
  bottom: "Add_8"
  top: "Add_8"
}
layer {
  name: "ConvNd_28"
  type: "Convolution"
  bottom: "Add_8"
  top: "ConvNd_28"
  convolution_param {
    num_output: 32
    bias_term: false
    pad: 0
    kernel_size: 1
    group: 1
    stride: 1
    weight_filler {
      type: "msra"
    }
    dilation: 1
  }
}
layer {
  name: "BatchNorm_26"
  type: "BatchNorm"
  bottom: "ConvNd_28"
  top: "BatchNorm_26"
  param {
    lr_mult: 1
    decay_mult: 0
  }
  param {
    lr_mult: 1
    decay_mult: 0
  }
  param {
    lr_mult: 0
    decay_mult: 0
  }
  param {
    lr_mult: 0
    decay_mult: 0
  }
  batch_norm_param {
    use_global_stats: false
    eps: 1e-05
    scale_filler {
      type: "constant"
      value: 1
    }
    bias_filler {
      type: "constant"
      value: 0
    }
  }
}
layer {
  name: "Threshold_34"
  type: "ReLU"
  bottom: "BatchNorm_26"
  top: "BatchNorm_26"
}
layer {
  name: "ConvNd_29"
  type: "Convolution"
  bottom: "BatchNorm_26"
  top: "ConvNd_29"
  convolution_param {
    num_output: 32
    bias_term: false
    group: 1
    stride: 1
    weight_filler {
      type: "msra"
    }
    pad_h: 2
    pad_w: 0
    kernel_h: 5
    kernel_w: 1
    dilation: 1
  }
}
layer {
  name: "BatchNorm_27"
  type: "BatchNorm"
  bottom: "ConvNd_29"
  top: "BatchNorm_27"
  param {
    lr_mult: 1
    decay_mult: 0
  }
  param {
    lr_mult: 1
    decay_mult: 0
  }
  param {
    lr_mult: 0
    decay_mult: 0
  }
  param {
    lr_mult: 0
    decay_mult: 0
  }
  batch_norm_param {
    use_global_stats: false
    eps: 1e-05
    scale_filler {
      type: "constant"
      value: 1
    }
    bias_filler {
      type: "constant"
      value: 0
    }
  }
}
layer {
  name: "Threshold_35"
  type: "ReLU"
  bottom: "BatchNorm_27"
  top: "BatchNorm_27"
}
layer {
  name: "ConvNd_30"
  type: "Convolution"
  bottom: "BatchNorm_27"
  top: "ConvNd_30"
  convolution_param {
    num_output: 32
    bias_term: false
    group: 1
    stride: 1
    weight_filler {
      type: "msra"
    }
    pad_h: 0
    pad_w: 2
    kernel_h: 1
    kernel_w: 5
    dilation: 1
  }
}
layer {
  name: "BatchNorm_28"
  type: "BatchNorm"
  bottom: "ConvNd_30"
  top: "BatchNorm_28"
  param {
    lr_mult: 1
    decay_mult: 0
  }
  param {
    lr_mult: 1
    decay_mult: 0
  }
  param {
    lr_mult: 0
    decay_mult: 0
  }
  param {
    lr_mult: 0
    decay_mult: 0
  }
  batch_norm_param {
    use_global_stats: false
    eps: 1e-05
    scale_filler {
      type: "constant"
      value: 1
    }
    bias_filler {
      type: "constant"
      value: 0
    }
  }
}
layer {
  name: "Threshold_36"
  type: "ReLU"
  bottom: "BatchNorm_28"
  top: "BatchNorm_28"
}
layer {
  name: "ConvNd_31"
  type: "Convolution"
  bottom: "BatchNorm_28"
  top: "ConvNd_31"
  convolution_param {
    num_output: 128
    bias_term: false
    pad: 0
    kernel_size: 1
    group: 1
    stride: 1
    weight_filler {
      type: "msra"
    }
    dilation: 1
  }
}
layer {
  name: "BatchNorm_29"
  type: "BatchNorm"
  bottom: "ConvNd_31"
  top: "BatchNorm_29"
  param {
    lr_mult: 1
    decay_mult: 0
  }
  param {
    lr_mult: 1
    decay_mult: 0
  }
  param {
    lr_mult: 0
    decay_mult: 0
  }
  param {
    lr_mult: 0
    decay_mult: 0
  }
  batch_norm_param {
    use_global_stats: false
    eps: 1e-05
    scale_filler {
      type: "constant"
      value: 1
    }
    bias_filler {
      type: "constant"
      value: 0
    }
  }
}
layer {
  name: "Threshold_37"
  type: "ReLU"
  bottom: "BatchNorm_29"
  top: "BatchNorm_29"
}
layer {
  name: "Add_9"
  type: "Eltwise"
  bottom: "Add_8"
  bottom: "BatchNorm_29"
  top: "Add_9"
}
layer {
  name: "Threshold_38"
  type: "ReLU"
  bottom: "Add_9"
  top: "Add_9"
}
layer {
  name: "ConvNd_32"
  type: "Convolution"
  bottom: "Add_9"
  top: "ConvNd_32"
  convolution_param {
    num_output: 32
    bias_term: false
    pad: 0
    kernel_size: 1
    group: 1
    stride: 1
    weight_filler {
      type: "msra"
    }
    dilation: 1
  }
}
layer {
  name: "BatchNorm_30"
  type: "BatchNorm"
  bottom: "ConvNd_32"
  top: "BatchNorm_30"
  param {
    lr_mult: 1
    decay_mult: 0
  }
  param {
    lr_mult: 1
    decay_mult: 0
  }
  param {
    lr_mult: 0
    decay_mult: 0
  }
  param {
    lr_mult: 0
    decay_mult: 0
  }
  batch_norm_param {
    use_global_stats: false
    eps: 1e-05
    scale_filler {
      type: "constant"
      value: 1
    }
    bias_filler {
      type: "constant"
      value: 0
    }
  }
}
layer {
  name: "Threshold_39"
  type: "ReLU"
  bottom: "BatchNorm_30"
  top: "BatchNorm_30"
}
layer {
  name: "ConvNd_33"
  type: "Convolution"
  bottom: "BatchNorm_30"
  top: "ConvNd_33"
  convolution_param {
    num_output: 32
    bias_term: false
    pad: 4
    kernel_size: 3
    group: 1
    stride: 1
    weight_filler {
      type: "msra"
    }
    dilation: 4
  }
}
layer {
  name: "BatchNorm_31"
  type: "BatchNorm"
  bottom: "ConvNd_33"
  top: "BatchNorm_31"
  param {
    lr_mult: 1
    decay_mult: 0
  }
  param {
    lr_mult: 1
    decay_mult: 0
  }
  param {
    lr_mult: 0
    decay_mult: 0
  }
  param {
    lr_mult: 0
    decay_mult: 0
  }
  batch_norm_param {
    use_global_stats: false
    eps: 1e-05
    scale_filler {
      type: "constant"
      value: 1
    }
    bias_filler {
      type: "constant"
      value: 0
    }
  }
}
layer {
  name: "Threshold_40"
  type: "ReLU"
  bottom: "BatchNorm_31"
  top: "BatchNorm_31"
}
layer {
  name: "ConvNd_34"
  type: "Convolution"
  bottom: "BatchNorm_31"
  top: "ConvNd_34"
  convolution_param {
    num_output: 128
    bias_term: false
    pad: 0
    kernel_size: 1
    group: 1
    stride: 1
    weight_filler {
      type: "msra"
    }
    dilation: 1
  }
}
layer {
  name: "BatchNorm_32"
  type
I0706 13:22:07.078116  4945 layer_factory.hpp:77] Creating layer data
I0706 13:22:07.078150  4945 net.cpp:94] Creating Layer data
I0706 13:22:07.078160  4945 net.cpp:409] data -> data
I0706 13:22:07.078188  4945 net.cpp:409] data -> label
I0706 13:22:07.078249  4945 image_seg_data_layer.cpp:46] Opening file ../workspace/data/cityscapes/img_seg.txt
I0706 13:22:07.081629  4945 image_seg_data_layer.cpp:63] Shuffling data
I0706 13:22:07.081692  4945 image_seg_data_layer.cpp:68] A total of 2975 images.
I0706 13:22:07.154011  4945 image_seg_data_layer.cpp:97] output data size: 7,3,512,512
I0706 13:22:07.269560  4945 internal_thread.cpp:27] Starting internal thread(s) on GPU 1
I0706 13:22:07.269631  4945 net.cpp:144] Setting up data
I0706 13:22:07.269644  4945 net.cpp:151] Top shape: 7 3 512 512 (5505024)
I0706 13:22:07.269654  4945 net.cpp:151] Top shape: 7 1 512 512 (1835008)
I0706 13:22:07.269657  4945 net.cpp:159] Memory required for data: 29360128
I0706 13:22:07.269665  4945 layer_factory.hpp:77] Creating layer data_data_0_split
I0706 13:22:07.269680  4945 net.cpp:94] Creating Layer data_data_0_split
I0706 13:22:07.269687  4945 net.cpp:435] data_data_0_split <- data
I0706 13:22:07.269699  4945 net.cpp:409] data_data_0_split -> data_data_0_split_0
I0706 13:22:07.269712  4945 net.cpp:409] data_data_0_split -> data_data_0_split_1
I0706 13:22:07.269834  4945 net.cpp:144] Setting up data_data_0_split
I0706 13:22:07.269841  4945 net.cpp:151] Top shape: 7 3 512 512 (5505024)
I0706 13:22:07.269845  4945 net.cpp:151] Top shape: 7 3 512 512 (5505024)
I0706 13:22:07.269848  4945 net.cpp:159] Memory required for data: 73400320
I0706 13:22:07.269852  4945 layer_factory.hpp:77] Creating layer label_data_1_split
I0706 13:22:07.269858  4945 net.cpp:94] Creating Layer label_data_1_split
I0706 13:22:07.269861  4945 net.cpp:435] label_data_1_split <- label
I0706 13:22:07.269866  4945 net.cpp:409] label_data_1_split -> label_data_1_split_0
I0706 13:22:07.269891  4945 net.cpp:409] label_data_1_split -> label_data_1_split_1
I0706 13:22:07.269923  4945 net.cpp:144] Setting up label_data_1_split
I0706 13:22:07.269929  4945 net.cpp:151] Top shape: 7 1 512 512 (1835008)
I0706 13:22:07.269933  4945 net.cpp:151] Top shape: 7 1 512 512 (1835008)
I0706 13:22:07.269937  4945 net.cpp:159] Memory required for data: 88080384
I0706 13:22:07.269940  4945 layer_factory.hpp:77] Creating layer ConvNd_1
I0706 13:22:07.269956  4945 net.cpp:94] Creating Layer ConvNd_1
I0706 13:22:07.269961  4945 net.cpp:435] ConvNd_1 <- data_data_0_split_0
I0706 13:22:07.269968  4945 net.cpp:409] ConvNd_1 -> ConvNd_1
I0706 13:22:07.271147  4945 net.cpp:144] Setting up ConvNd_1
I0706 13:22:07.271158  4945 net.cpp:151] Top shape: 7 13 256 256 (5963776)
I0706 13:22:07.271163  4945 net.cpp:159] Memory required for data: 111935488
I0706 13:22:07.271178  4945 layer_factory.hpp:77] Creating layer MaxPool2d_1
I0706 13:22:07.271188  4945 net.cpp:94] Creating Layer MaxPool2d_1
I0706 13:22:07.271193  4945 net.cpp:435] MaxPool2d_1 <- data_data_0_split_1
I0706 13:22:07.271199  4945 net.cpp:409] MaxPool2d_1 -> MaxPool2d_1
I0706 13:22:07.271250  4945 net.cpp:144] Setting up MaxPool2d_1
I0706 13:22:07.271255  4945 net.cpp:151] Top shape: 7 3 256 256 (1376256)
I0706 13:22:07.271258  4945 net.cpp:159] Memory required for data: 117440512
I0706 13:22:07.271262  4945 layer_factory.hpp:77] Creating layer Concat_1
I0706 13:22:07.271270  4945 net.cpp:94] Creating Layer Concat_1
I0706 13:22:07.271272  4945 net.cpp:435] Concat_1 <- ConvNd_1
I0706 13:22:07.271276  4945 net.cpp:435] Concat_1 <- MaxPool2d_1
I0706 13:22:07.271281  4945 net.cpp:409] Concat_1 -> Concat_1
I0706 13:22:07.271304  4945 net.cpp:144] Setting up Concat_1
I0706 13:22:07.271322  4945 net.cpp:151] Top shape: 7 16 256 256 (7340032)
I0706 13:22:07.271324  4945 net.cpp:159] Memory required for data: 146800640
I0706 13:22:07.271327  4945 layer_factory.hpp:77] Creating layer BatchNorm_1
I0706 13:22:07.271337  4945 net.cpp:94] Creating Layer BatchNorm_1
I0706 13:22:07.271342  4945 net.cpp:435] BatchNorm_1 <- Concat_1
I0706 13:22:07.271348  4945 net.cpp:409] BatchNorm_1 -> BatchNorm_1
I0706 13:22:07.272568  4945 net.cpp:144] Setting up BatchNorm_1
I0706 13:22:07.272583  4945 net.cpp:151] Top shape: 7 16 256 256 (7340032)
I0706 13:22:07.272586  4945 net.cpp:159] Memory required for data: 176160768
I0706 13:22:07.272600  4945 layer_factory.hpp:77] Creating layer Threshold_1
I0706 13:22:07.272608  4945 net.cpp:94] Creating Layer Threshold_1
I0706 13:22:07.272614  4945 net.cpp:435] Threshold_1 <- BatchNorm_1
I0706 13:22:07.272619  4945 net.cpp:396] Threshold_1 -> BatchNorm_1 (in-place)
I0706 13:22:07.272630  4945 net.cpp:144] Setting up Threshold_1
I0706 13:22:07.272636  4945 net.cpp:151] Top shape: 7 16 256 256 (7340032)
I0706 13:22:07.272640  4945 net.cpp:159] Memory required for data: 205520896
I0706 13:22:07.272644  4945 layer_factory.hpp:77] Creating layer BatchNorm_1_Threshold_1_0_split
I0706 13:22:07.272650  4945 net.cpp:94] Creating Layer BatchNorm_1_Threshold_1_0_split
I0706 13:22:07.272652  4945 net.cpp:435] BatchNorm_1_Threshold_1_0_split <- BatchNorm_1
I0706 13:22:07.272658  4945 net.cpp:409] BatchNorm_1_Threshold_1_0_split -> BatchNorm_1_Threshold_1_0_split_0
I0706 13:22:07.272665  4945 net.cpp:409] BatchNorm_1_Threshold_1_0_split -> BatchNorm_1_Threshold_1_0_split_1
I0706 13:22:07.272696  4945 net.cpp:144] Setting up BatchNorm_1_Threshold_1_0_split
I0706 13:22:07.272702  4945 net.cpp:151] Top shape: 7 16 256 256 (7340032)
I0706 13:22:07.272707  4945 net.cpp:151] Top shape: 7 16 256 256 (7340032)
I0706 13:22:07.272711  4945 net.cpp:159] Memory required for data: 264241152
I0706 13:22:07.272713  4945 layer_factory.hpp:77] Creating layer MaxPool2d_2
I0706 13:22:07.272719  4945 net.cpp:94] Creating Layer MaxPool2d_2
I0706 13:22:07.272724  4945 net.cpp:435] MaxPool2d_2 <- BatchNorm_1_Threshold_1_0_split_0
I0706 13:22:07.272729  4945 net.cpp:409] MaxPool2d_2 -> MaxPool2d_2
I0706 13:22:07.272758  4945 net.cpp:144] Setting up MaxPool2d_2
I0706 13:22:07.272763  4945 net.cpp:151] Top shape: 7 16 128 128 (1835008)
I0706 13:22:07.272778  4945 net.cpp:159] Memory required for data: 271581184
I0706 13:22:07.272783  4945 layer_factory.hpp:77] Creating layer ConvNd_2
I0706 13:22:07.272790  4945 net.cpp:94] Creating Layer ConvNd_2
I0706 13:22:07.272795  4945 net.cpp:435] ConvNd_2 <- MaxPool2d_2
I0706 13:22:07.272801  4945 net.cpp:409] ConvNd_2 -> ConvNd_2
I0706 13:22:07.272970  4945 net.cpp:144] Setting up ConvNd_2
I0706 13:22:07.272979  4945 net.cpp:151] Top shape: 7 64 128 128 (7340032)
I0706 13:22:07.272982  4945 net.cpp:159] Memory required for data: 300941312
I0706 13:22:07.272987  4945 layer_factory.hpp:77] Creating layer ConvNd_3
I0706 13:22:07.272995  4945 net.cpp:94] Creating Layer ConvNd_3
I0706 13:22:07.273000  4945 net.cpp:435] ConvNd_3 <- BatchNorm_1_Threshold_1_0_split_1
I0706 13:22:07.273006  4945 net.cpp:409] ConvNd_3 -> ConvNd_3
I0706 13:22:07.273180  4945 net.cpp:144] Setting up ConvNd_3
I0706 13:22:07.273188  4945 net.cpp:151] Top shape: 7 16 128 128 (1835008)
I0706 13:22:07.273191  4945 net.cpp:159] Memory required for data: 308281344
I0706 13:22:07.273196  4945 layer_factory.hpp:77] Creating layer BatchNorm_2
I0706 13:22:07.273205  4945 net.cpp:94] Creating Layer BatchNorm_2
I0706 13:22:07.273209  4945 net.cpp:435] BatchNorm_2 <- ConvNd_3
I0706 13:22:07.273216  4945 net.cpp:409] BatchNorm_2 -> BatchNorm_2
I0706 13:22:07.274364  4945 net.cpp:144] Setting up BatchNorm_2
I0706 13:22:07.274379  4945 net.cpp:151] Top shape: 7 16 128 128 (1835008)
I0706 13:22:07.274381  4945 net.cpp:159] Memory required for data: 315621376
I0706 13:22:07.274394  4945 layer_factory.hpp:77] Creating layer Threshold_2
I0706 13:22:07.274401  4945 net.cpp:94] Creating Layer Threshold_2
I0706 13:22:07.274406  4945 net.cpp:435] Threshold_2 <- BatchNorm_2
I0706 13:22:07.274411  4945 net.cpp:396] Threshold_2 -> BatchNorm_2 (in-place)
I0706 13:22:07.274418  4945 net.cpp:144] Setting up Threshold_2
I0706 13:22:07.274425  4945 net.cpp:151] Top shape: 7 16 128 128 (1835008)
I0706 13:22:07.274428  4945 net.cpp:159] Memory required for data: 322961408
I0706 13:22:07.274431  4945 layer_factory.hpp:77] Creating layer ConvNd_4
I0706 13:22:07.274438  4945 net.cpp:94] Creating Layer ConvNd_4
I0706 13:22:07.274443  4945 net.cpp:435] ConvNd_4 <- BatchNorm_2
I0706 13:22:07.274451  4945 net.cpp:409] ConvNd_4 -> ConvNd_4
I0706 13:22:07.275321  4945 net.cpp:144] Setting up ConvNd_4
I0706 13:22:07.275333  4945 net.cpp:151] Top shape: 7 16 128 128 (1835008)
I0706 13:22:07.275339  4945 net.cpp:159] Memory required for data: 330301440
I0706 13:22:07.275346  4945 layer_factory.hpp:77] Creating layer BatchNorm_3
I0706 13:22:07.275353  4945 net.cpp:94] Creating Layer BatchNorm_3
I0706 13:22:07.275358  4945 net.cpp:435] BatchNorm_3 <- ConvNd_4
I0706 13:22:07.275364  4945 net.cpp:409] BatchNorm_3 -> BatchNorm_3
I0706 13:22:07.275842  4945 net.cpp:144] Setting up BatchNorm_3
I0706 13:22:07.275851  4945 net.cpp:151] Top shape: 7 16 128 128 (1835008)
I0706 13:22:07.275854  4945 net.cpp:159] Memory required for data: 337641472
I0706 13:22:07.275866  4945 layer_factory.hpp:77] Creating layer Threshold_3
I0706 13:22:07.275876  4945 net.cpp:94] Creating Layer Threshold_3
I0706 13:22:07.275880  4945 net.cpp:435] Threshold_3 <- BatchNorm_3
I0706 13:22:07.275885  4945 net.cpp:396] Threshold_3 -> BatchNorm_3 (in-place)
I0706 13:22:07.275892  4945 net.cpp:144] Setting up Threshold_3
I0706 13:22:07.275897  4945 net.cpp:151] Top shape: 7 16 128 128 (1835008)
I0706 13:22:07.275900  4945 net.cpp:159] Memory required for data: 344981504
I0706 13:22:07.275903  4945 layer_factory.hpp:77] Creating layer ConvNd_5
I0706 13:22:07.275912  4945 net.cpp:94] Creating Layer ConvNd_5
I0706 13:22:07.275916  4945 net.cpp:435] ConvNd_5 <- BatchNorm_3
I0706 13:22:07.275921  4945 net.cpp:409] ConvNd_5 -> ConvNd_5
I0706 13:22:07.276085  4945 net.cpp:144] Setting up ConvNd_5
I0706 13:22:07.276093  4945 net.cpp:151] Top shape: 7 64 128 128 (7340032)
I0706 13:22:07.276098  4945 net.cpp:159] Memory required for data: 374341632
I0706 13:22:07.276103  4945 layer_factory.hpp:77] Creating layer BatchNorm_4
I0706 13:22:07.276121  4945 net.cpp:94] Creating Layer BatchNorm_4
I0706 13:22:07.276126  4945 net.cpp:435] BatchNorm_4 <- ConvNd_5
I0706 13:22:07.276132  4945 net.cpp:409] BatchNorm_4 -> BatchNorm_4
I0706 13:22:07.276588  4945 net.cpp:144] Setting up BatchNorm_4
I0706 13:22:07.276597  4945 net.cpp:151] Top shape: 7 64 128 128 (7340032)
I0706 13:22:07.276600  4945 net.cpp:159] Memory required for data: 403701760
I0706 13:22:07.276610  4945 layer_factory.hpp:77] Creating layer Threshold_4
I0706 13:22:07.276616  4945 net.cpp:94] Creating Layer Threshold_4
I0706 13:22:07.276620  4945 net.cpp:435] Threshold_4 <- BatchNorm_4
I0706 13:22:07.276625  4945 net.cpp:396] Threshold_4 -> BatchNorm_4 (in-place)
I0706 13:22:07.276631  4945 net.cpp:144] Setting up Threshold_4
I0706 13:22:07.276638  4945 net.cpp:151] Top shape: 7 64 128 128 (7340032)
I0706 13:22:07.276640  4945 net.cpp:159] Memory required for data: 433061888
I0706 13:22:07.276643  4945 layer_factory.hpp:77] Creating layer Add_1
I0706 13:22:07.276649  4945 net.cpp:94] Creating Layer Add_1
I0706 13:22:07.276652  4945 net.cpp:435] Add_1 <- ConvNd_2
I0706 13:22:07.276656  4945 net.cpp:435] Add_1 <- BatchNorm_4
I0706 13:22:07.276661  4945 net.cpp:409] Add_1 -> Add_1
I0706 13:22:07.276682  4945 net.cpp:144] Setting up Add_1
I0706 13:22:07.276688  4945 net.cpp:151] Top shape: 7 64 128 128 (7340032)
I0706 13:22:07.276691  4945 net.cpp:159] Memory required for data: 462422016
I0706 13:22:07.276695  4945 layer_factory.hpp:77] Creating layer Threshold_5
I0706 13:22:07.276700  4945 net.cpp:94] Creating Layer Threshold_5
I0706 13:22:07.276703  4945 net.cpp:435] Threshold_5 <- Add_1
I0706 13:22:07.276707  4945 net.cpp:396] Threshold_5 -> Add_1 (in-place)
I0706 13:22:07.276712  4945 net.cpp:144] Setting up Threshold_5
I0706 13:22:07.276718  4945 net.cpp:151] Top shape: 7 64 128 128 (7340032)
I0706 13:22:07.276721  4945 net.cpp:159] Memory required for data: 491782144
I0706 13:22:07.276724  4945 layer_factory.hpp:77] Creating layer Add_1_Threshold_5_0_split
I0706 13:22:07.276729  4945 net.cpp:94] Creating Layer Add_1_Threshold_5_0_split
I0706 13:22:07.276734  4945 net.cpp:435] Add_1_Threshold_5_0_split <- Add_1
I0706 13:22:07.276739  4945 net.cpp:409] Add_1_Threshold_5_0_split -> Add_1_Threshold_5_0_split_0
I0706 13:22:07.276746  4945 net.cpp:409] Add_1_Threshold_5_0_split -> Add_1_Threshold_5_0_split_1
I0706 13:22:07.276773  4945 net.cpp:144] Setting up Add_1_Threshold_5_0_split
I0706 13:22:07.276779  4945 net.cpp:151] Top shape: 7 64 128 128 (7340032)
I0706 13:22:07.276783  4945 net.cpp:151] Top shape: 7 64 128 128 (7340032)
I0706 13:22:07.276787  4945 net.cpp:159] Memory required for data: 550502400
I0706 13:22:07.276789  4945 layer_factory.hpp:77] Creating layer ConvNd_6
I0706 13:22:07.276798  4945 net.cpp:94] Creating Layer ConvNd_6
I0706 13:22:07.276801  4945 net.cpp:435] ConvNd_6 <- Add_1_Threshold_5_0_split_0
I0706 13:22:07.276808  4945 net.cpp:409] ConvNd_6 -> ConvNd_6
I0706 13:22:07.276966  4945 net.cpp:144] Setting up ConvNd_6
I0706 13:22:07.276974  4945 net.cpp:151] Top shape: 7 16 128 128 (1835008)
I0706 13:22:07.276978  4945 net.cpp:159] Memory required for data: 557842432
I0706 13:22:07.276983  4945 layer_factory.hpp:77] Creating layer BatchNorm_5
I0706 13:22:07.276989  4945 net.cpp:94] Creating Layer BatchNorm_5
I0706 13:22:07.276994  4945 net.cpp:435] BatchNorm_5 <- ConvNd_6
I0706 13:22:07.277000  4945 net.cpp:409] BatchNorm_5 -> BatchNorm_5
I0706 13:22:07.277467  4945 net.cpp:144] Setting up BatchNorm_5
I0706 13:22:07.277477  4945 net.cpp:151] Top shape: 7 16 128 128 (1835008)
I0706 13:22:07.277482  4945 net.cpp:159] Memory required for data: 565182464
I0706 13:22:07.277490  4945 layer_factory.hpp:77] Creating layer Threshold_6
I0706 13:22:07.277496  4945 net.cpp:94] Creating Layer Threshold_6
I0706 13:22:07.277500  4945 net.cpp:435] Threshold_6 <- BatchNorm_5
I0706 13:22:07.277506  4945 net.cpp:396] Threshold_6 -> BatchNorm_5 (in-place)
I0706 13:22:07.277513  4945 net.cpp:144] Setting up Threshold_6
I0706 13:22:07.277518  4945 net.cpp:151] Top shape: 7 16 128 128 (1835008)
I0706 13:22:07.277531  4945 net.cpp:159] Memory required for data: 572522496
I0706 13:22:07.277535  4945 layer_factory.hpp:77] Creating layer ConvNd_7
I0706 13:22:07.277544  4945 net.cpp:94] Creating Layer ConvNd_7
I0706 13:22:07.277549  4945 net.cpp:435] ConvNd_7 <- BatchNorm_5
I0706 13:22:07.277554  4945 net.cpp:409] ConvNd_7 -> ConvNd_7
I0706 13:22:07.277732  4945 net.cpp:144] Setting up ConvNd_7
I0706 13:22:07.277740  4945 net.cpp:151] Top shape: 7 16 128 128 (1835008)
I0706 13:22:07.277743  4945 net.cpp:159] Memory required for data: 579862528
I0706 13:22:07.277747  4945 layer_factory.hpp:77] Creating layer BatchNorm_6
I0706 13:22:07.277755  4945 net.cpp:94] Creating Layer BatchNorm_6
I0706 13:22:07.277760  4945 net.cpp:435] BatchNorm_6 <- ConvNd_7
I0706 13:22:07.277765  4945 net.cpp:409] BatchNorm_6 -> BatchNorm_6
I0706 13:22:07.278220  4945 net.cpp:144] Setting up BatchNorm_6
I0706 13:22:07.278229  4945 net.cpp:151] Top shape: 7 16 128 128 (1835008)
I0706 13:22:07.278232  4945 net.cpp:159] Memory required for data: 587202560
I0706 13:22:07.278244  4945 layer_factory.hpp:77] Creating layer Threshold_7
I0706 13:22:07.278250  4945 net.cpp:94] Creating Layer Threshold_7
I0706 13:22:07.278254  4945 net.cpp:435] Threshold_7 <- BatchNorm_6
I0706 13:22:07.278259  4945 net.cpp:396] Threshold_7 -> BatchNorm_6 (in-place)
I0706 13:22:07.278265  4945 net.cpp:144] Setting up Threshold_7
I0706 13:22:07.278270  4945 net.cpp:151] Top shape: 7 16 128 128 (1835008)
I0706 13:22:07.278275  4945 net.cpp:159] Memory required for data: 594542592
I0706 13:22:07.278277  4945 layer_factory.hpp:77] Creating layer ConvNd_8
I0706 13:22:07.278285  4945 net.cpp:94] Creating Layer ConvNd_8
I0706 13:22:07.278287  4945 net.cpp:435] ConvNd_8 <- BatchNorm_6
I0706 13:22:07.278293  4945 net.cpp:409] ConvNd_8 -> ConvNd_8
I0706 13:22:07.278456  4945 net.cpp:144] Setting up ConvNd_8
I0706 13:22:07.278465  4945 net.cpp:151] Top shape: 7 64 128 128 (7340032)
I0706 13:22:07.278467  4945 net.cpp:159] Memory required for data: 623902720
I0706 13:22:07.278472  4945 layer_factory.hpp:77] Creating layer BatchNorm_7
I0706 13:22:07.278479  4945 net.cpp:94] Creating Layer BatchNorm_7
I0706 13:22:07.278484  4945 net.cpp:435] BatchNorm_7 <- ConvNd_8
I0706 13:22:07.278489  4945 net.cpp:409] BatchNorm_7 -> BatchNorm_7
I0706 13:22:07.278944  4945 net.cpp:144] Setting up BatchNorm_7
I0706 13:22:07.278952  4945 net.cpp:151] Top shape: 7 64 128 128 (7340032)
I0706 13:22:07.278955  4945 net.cpp:159] Memory required for data: 653262848
I0706 13:22:07.278964  4945 layer_factory.hpp:77] Creating layer Threshold_8
I0706 13:22:07.278970  4945 net.cpp:94] Creating Layer Threshold_8
I0706 13:22:07.278975  4945 net.cpp:435] Threshold_8 <- BatchNorm_7
I0706 13:22:07.278978  4945 net.cpp:396] Threshold_8 -> BatchNorm_7 (in-place)
I0706 13:22:07.278985  4945 net.cpp:144] Setting up Threshold_8
I0706 13:22:07.278990  4945 net.cpp:151] Top shape: 7 64 128 128 (7340032)
I0706 13:22:07.278992  4945 net.cpp:159] Memory required for data: 682622976
I0706 13:22:07.278995  4945 layer_factory.hpp:77] Creating layer Add_2
I0706 13:22:07.279001  4945 net.cpp:94] Creating Layer Add_2
I0706 13:22:07.279006  4945 net.cpp:435] Add_2 <- Add_1_Threshold_5_0_split_1
I0706 13:22:07.279011  4945 net.cpp:435] Add_2 <- BatchNorm_7
I0706 13:22:07.279014  4945 net.cpp:409] Add_2 -> Add_2
I0706 13:22:07.279034  4945 net.cpp:144] Setting up Add_2
I0706 13:22:07.279042  4945 net.cpp:151] Top shape: 7 64 128 128 (7340032)
I0706 13:22:07.279044  4945 net.cpp:159] Memory required for data: 711983104
I0706 13:22:07.279047  4945 layer_factory.hpp:77] Creating layer Threshold_9
I0706 13:22:07.279052  4945 net.cpp:94] Creating Layer Threshold_9
I0706 13:22:07.279057  4945 net.cpp:435] Threshold_9 <- Add_2
I0706 13:22:07.279062  4945 net.cpp:396] Threshold_9 -> Add_2 (in-place)
I0706 13:22:07.279067  4945 net.cpp:144] Setting up Threshold_9
I0706 13:22:07.279072  4945 net.cpp:151] Top shape: 7 64 128 128 (7340032)
I0706 13:22:07.279075  4945 net.cpp:159] Memory required for data: 741343232
I0706 13:22:07.279088  4945 layer_factory.hpp:77] Creating layer Add_2_Threshold_9_0_split
I0706 13:22:07.279093  4945 net.cpp:94] Creating Layer Add_2_Threshold_9_0_split
I0706 13:22:07.279096  4945 net.cpp:435] Add_2_Threshold_9_0_split <- Add_2
I0706 13:22:07.279101  4945 net.cpp:409] Add_2_Threshold_9_0_split -> Add_2_Threshold_9_0_split_0
I0706 13:22:07.279109  4945 net.cpp:409] Add_2_Threshold_9_0_split -> Add_2_Threshold_9_0_split_1
I0706 13:22:07.279139  4945 net.cpp:144] Setting up Add_2_Threshold_9_0_split
I0706 13:22:07.279145  4945 net.cpp:151] Top shape: 7 64 128 128 (7340032)
I0706 13:22:07.279150  4945 net.cpp:151] Top shape: 7 64 128 128 (7340032)
I0706 13:22:07.279153  4945 net.cpp:159] Memory required for data: 800063488
I0706 13:22:07.279156  4945 layer_factory.hpp:77] Creating layer ConvNd_9
I0706 13:22:07.279163  4945 net.cpp:94] Creating Layer ConvNd_9
I0706 13:22:07.279170  4945 net.cpp:435] ConvNd_9 <- Add_2_Threshold_9_0_split_0
I0706 13:22:07.279175  4945 net.cpp:409] ConvNd_9 -> ConvNd_9
I0706 13:22:07.279338  4945 net.cpp:144] Setting up ConvNd_9
I0706 13:22:07.279346  4945 net.cpp:151] Top shape: 7 16 128 128 (1835008)
I0706 13:22:07.279350  4945 net.cpp:159] Memory required for data: 807403520
I0706 13:22:07.279356  4945 layer_factory.hpp:77] Creating layer BatchNorm_8
I0706 13:22:07.279361  4945 net.cpp:94] Creating Layer BatchNorm_8
I0706 13:22:07.279366  4945 net.cpp:435] BatchNorm_8 <- ConvNd_9
I0706 13:22:07.279372  4945 net.cpp:409] BatchNorm_8 -> BatchNorm_8
I0706 13:22:07.279847  4945 net.cpp:144] Setting up BatchNorm_8
I0706 13:22:07.279856  4945 net.cpp:151] Top shape: 7 16 128 128 (1835008)
I0706 13:22:07.279860  4945 net.cpp:159] Memory required for data: 814743552
I0706 13:22:07.279870  4945 layer_factory.hpp:77] Creating layer Threshold_10
I0706 13:22:07.279875  4945 net.cpp:94] Creating Layer Threshold_10
I0706 13:22:07.279880  4945 net.cpp:435] Threshold_10 <- BatchNorm_8
I0706 13:22:07.279884  4945 net.cpp:396] Threshold_10 -> BatchNorm_8 (in-place)
I0706 13:22:07.279891  4945 net.cpp:144] Setting up Threshold_10
I0706 13:22:07.279896  4945 net.cpp:151] Top shape: 7 16 128 128 (1835008)
I0706 13:22:07.279899  4945 net.cpp:159] Memory required for data: 822083584
I0706 13:22:07.279902  4945 layer_factory.hpp:77] Creating layer ConvNd_10
I0706 13:22:07.279911  4945 net.cpp:94] Creating Layer ConvNd_10
I0706 13:22:07.279913  4945 net.cpp:435] ConvNd_10 <- BatchNorm_8
I0706 13:22:07.279918  4945 net.cpp:409] ConvNd_10 -> ConvNd_10
I0706 13:22:07.280092  4945 net.cpp:144] Setting up ConvNd_10
I0706 13:22:07.280099  4945 net.cpp:151] Top shape: 7 16 128 128 (1835008)
I0706 13:22:07.280102  4945 net.cpp:159] Memory required for data: 829423616
I0706 13:22:07.280107  4945 layer_factory.hpp:77] Creating layer BatchNorm_9
I0706 13:22:07.280114  4945 net.cpp:94] Creating Layer BatchNorm_9
I0706 13:22:07.280119  4945 net.cpp:435] BatchNorm_9 <- ConvNd_10
I0706 13:22:07.280125  4945 net.cpp:409] BatchNorm_9 -> BatchNorm_9
I0706 13:22:07.280584  4945 net.cpp:144] Setting up BatchNorm_9
I0706 13:22:07.280593  4945 net.cpp:151] Top shape: 7 16 128 128 (1835008)
I0706 13:22:07.280597  4945 net.cpp:159] Memory required for data: 836763648
I0706 13:22:07.280606  4945 layer_factory.hpp:77] Creating layer Threshold_11
I0706 13:22:07.280612  4945 net.cpp:94] Creating Layer Threshold_11
I0706 13:22:07.280616  4945 net.cpp:435] Threshold_11 <- BatchNorm_9
I0706 13:22:07.280622  4945 net.cpp:396] Threshold_11 -> BatchNorm_9 (in-place)
I0706 13:22:07.280627  4945 net.cpp:144] Setting up Threshold_11
I0706 13:22:07.280632  4945 net.cpp:151] Top shape: 7 16 128 128 (1835008)
I0706 13:22:07.280635  4945 net.cpp:159] Memory required for data: 844103680
I0706 13:22:07.280638  4945 layer_factory.hpp:77] Creating layer ConvNd_11
I0706 13:22:07.280645  4945 net.cpp:94] Creating Layer ConvNd_11
I0706 13:22:07.280649  4945 net.cpp:435] ConvNd_11 <- BatchNorm_9
I0706 13:22:07.280654  4945 net.cpp:409] ConvNd_11 -> ConvNd_11
I0706 13:22:07.280820  4945 net.cpp:144] Setting up ConvNd_11
I0706 13:22:07.280838  4945 net.cpp:151] Top shape: 7 64 128 128 (7340032)
I0706 13:22:07.280840  4945 net.cpp:159] Memory required for data: 873463808
I0706 13:22:07.280845  4945 layer_factory.hpp:77] Creating layer BatchNorm_10
I0706 13:22:07.280853  4945 net.cpp:94] Creating Layer BatchNorm_10
I0706 13:22:07.280858  4945 net.cpp:435] BatchNorm_10 <- ConvNd_11
I0706 13:22:07.280864  4945 net.cpp:409] BatchNorm_10 -> BatchNorm_10
I0706 13:22:07.281352  4945 net.cpp:144] Setting up BatchNorm_10
I0706 13:22:07.281363  4945 net.cpp:151] Top shape: 7 64 128 128 (7340032)
I0706 13:22:07.281368  4945 net.cpp:159] Memory required for data: 902823936
I0706 13:22:07.281376  4945 layer_factory.hpp:77] Creating layer Threshold_12
I0706 13:22:07.281383  4945 net.cpp:94] Creating Layer Threshold_12
I0706 13:22:07.281388  4945 net.cpp:435] Threshold_12 <- BatchNorm_10
I0706 13:22:07.281392  4945 net.cpp:396] Threshold_12 -> BatchNorm_10 (in-place)
I0706 13:22:07.281400  4945 net.cpp:144] Setting up Threshold_12
I0706 13:22:07.281405  4945 net.cpp:151] Top shape: 7 64 128 128 (7340032)
I0706 13:22:07.281409  4945 net.cpp:159] Memory required for data: 932184064
I0706 13:22:07.281414  4945 layer_factory.hpp:77] Creating layer Add_3
I0706 13:22:07.281417  4945 net.cpp:94] Creating Layer Add_3
I0706 13:22:07.281421  4945 net.cpp:435] Add_3 <- Add_2_Threshold_9_0_split_1
I0706 13:22:07.281426  4945 net.cpp:435] Add_3 <- BatchNorm_10
I0706 13:22:07.281431  4945 net.cpp:409] Add_3 -> Add_3
I0706 13:22:07.281451  4945 net.cpp:144] Setting up Add_3
I0706 13:22:07.281457  4945 net.cpp:151] Top shape: 7 64 128 128 (7340032)
I0706 13:22:07.281461  4945 net.cpp:159] Memory required for data: 961544192
I0706 13:22:07.281464  4945 layer_factory.hpp:77] Creating layer Threshold_13
I0706 13:22:07.281469  4945 net.cpp:94] Creating Layer Threshold_13
I0706 13:22:07.281472  4945 net.cpp:435] Threshold_13 <- Add_3
I0706 13:22:07.281477  4945 net.cpp:396] Threshold_13 -> Add_3 (in-place)
I0706 13:22:07.281482  4945 net.cpp:144] Setting up Threshold_13
I0706 13:22:07.281486  4945 net.cpp:151] Top shape: 7 64 128 128 (7340032)
I0706 13:22:07.281489  4945 net.cpp:159] Memory required for data: 990904320
I0706 13:22:07.281493  4945 layer_factory.hpp:77] Creating layer Add_3_Threshold_13_0_split
I0706 13:22:07.281498  4945 net.cpp:94] Creating Layer Add_3_Threshold_13_0_split
I0706 13:22:07.281502  4945 net.cpp:435] Add_3_Threshold_13_0_split <- Add_3
I0706 13:22:07.281507  4945 net.cpp:409] Add_3_Threshold_13_0_split -> Add_3_Threshold_13_0_split_0
I0706 13:22:07.281514  4945 net.cpp:409] Add_3_Threshold_13_0_split -> Add_3_Threshold_13_0_split_1
I0706 13:22:07.281544  4945 net.cpp:144] Setting up Add_3_Threshold_13_0_split
I0706 13:22:07.281550  4945 net.cpp:151] Top shape: 7 64 128 128 (7340032)
I0706 13:22:07.281554  4945 net.cpp:151] Top shape: 7 64 128 128 (7340032)
I0706 13:22:07.281558  4945 net.cpp:159] Memory required for data: 1049624576
I0706 13:22:07.281561  4945 layer_factory.hpp:77] Creating layer ConvNd_12
I0706 13:22:07.281569  4945 net.cpp:94] Creating Layer ConvNd_12
I0706 13:22:07.281572  4945 net.cpp:435] ConvNd_12 <- Add_3_Threshold_13_0_split_0
I0706 13:22:07.281579  4945 net.cpp:409] ConvNd_12 -> ConvNd_12
I0706 13:22:07.281745  4945 net.cpp:144] Setting up ConvNd_12
I0706 13:22:07.281752  4945 net.cpp:151] Top shape: 7 16 128 128 (1835008)
I0706 13:22:07.281755  4945 net.cpp:159] Memory required for data: 1056964608
I0706 13:22:07.281761  4945 layer_factory.hpp:77] Creating layer BatchNorm_11
I0706 13:22:07.281769  4945 net.cpp:94] Creating Layer BatchNorm_11
I0706 13:22:07.281774  4945 net.cpp:435] BatchNorm_11 <- ConvNd_12
I0706 13:22:07.281778  4945 net.cpp:409] BatchNorm_11 -> BatchNorm_11
I0706 13:22:07.282250  4945 net.cpp:144] Setting up BatchNorm_11
I0706 13:22:07.282258  4945 net.cpp:151] Top shape: 7 16 128 128 (1835008)
I0706 13:22:07.282261  4945 net.cpp:159] Memory required for data: 1064304640
I0706 13:22:07.282274  4945 layer_factory.hpp:77] Creating layer Threshold_14
I0706 13:22:07.282280  4945 net.cpp:94] Creating Layer Threshold_14
I0706 13:22:07.282295  4945 net.cpp:435] Threshold_14 <- BatchNorm_11
I0706 13:22:07.282300  4945 net.cpp:396] Threshold_14 -> BatchNorm_11 (in-place)
I0706 13:22:07.282306  4945 net.cpp:144] Setting up Threshold_14
I0706 13:22:07.282312  4945 net.cpp:151] Top shape: 7 16 128 128 (1835008)
I0706 13:22:07.282315  4945 net.cpp:159] Memory required for data: 1071644672
I0706 13:22:07.282318  4945 layer_factory.hpp:77] Creating layer ConvNd_13
I0706 13:22:07.282326  4945 net.cpp:94] Creating Layer ConvNd_13
I0706 13:22:07.282330  4945 net.cpp:435] ConvNd_13 <- BatchNorm_11
I0706 13:22:07.282335  4945 net.cpp:409] ConvNd_13 -> ConvNd_13
I0706 13:22:07.282516  4945 net.cpp:144] Setting up ConvNd_13
I0706 13:22:07.282523  4945 net.cpp:151] Top shape: 7 16 128 128 (1835008)
I0706 13:22:07.282527  4945 net.cpp:159] Memory required for data: 1078984704
I0706 13:22:07.282532  4945 layer_factory.hpp:77] Creating layer BatchNorm_12
I0706 13:22:07.282539  4945 net.cpp:94] Creating Layer BatchNorm_12
I0706 13:22:07.282544  4945 net.cpp:435] BatchNorm_12 <- ConvNd_13
I0706 13:22:07.282550  4945 net.cpp:409] BatchNorm_12 -> BatchNorm_12
I0706 13:22:07.283015  4945 net.cpp:144] Setting up BatchNorm_12
I0706 13:22:07.283022  4945 net.cpp:151] Top shape: 7 16 128 128 (1835008)
I0706 13:22:07.283025  4945 net.cpp:159] Memory required for data: 1086324736
I0706 13:22:07.283035  4945 layer_factory.hpp:77] Creating layer Threshold_15
I0706 13:22:07.283041  4945 net.cpp:94] Creating Layer Threshold_15
I0706 13:22:07.283046  4945 net.cpp:435] Threshold_15 <- BatchNorm_12
I0706 13:22:07.283051  4945 net.cpp:396] Threshold_15 -> BatchNorm_12 (in-place)
I0706 13:22:07.283057  4945 net.cpp:144] Setting up Threshold_15
I0706 13:22:07.283063  4945 net.cpp:151] Top shape: 7 16 128 128 (1835008)
I0706 13:22:07.283066  4945 net.cpp:159] Memory required for data: 1093664768
I0706 13:22:07.283068  4945 layer_factory.hpp:77] Creating layer ConvNd_14
I0706 13:22:07.283077  4945 net.cpp:94] Creating Layer ConvNd_14
I0706 13:22:07.283082  4945 net.cpp:435] ConvNd_14 <- BatchNorm_12
I0706 13:22:07.283087  4945 net.cpp:409] ConvNd_14 -> ConvNd_14
I0706 13:22:07.283253  4945 net.cpp:144] Setting up ConvNd_14
I0706 13:22:07.283260  4945 net.cpp:151] Top shape: 7 64 128 128 (7340032)
I0706 13:22:07.283264  4945 net.cpp:159] Memory required for data: 1123024896
I0706 13:22:07.283268  4945 layer_factory.hpp:77] Creating layer BatchNorm_13
I0706 13:22:07.283275  4945 net.cpp:94] Creating Layer BatchNorm_13
I0706 13:22:07.283280  4945 net.cpp:435] BatchNorm_13 <- ConvNd_14
I0706 13:22:07.283287  4945 net.cpp:409] BatchNorm_13 -> BatchNorm_13
I0706 13:22:07.283782  4945 net.cpp:144] Setting up BatchNorm_13
I0706 13:22:07.283795  4945 net.cpp:151] Top shape: 7 64 128 128 (7340032)
I0706 13:22:07.283802  4945 net.cpp:159] Memory required for data: 1152385024
I0706 13:22:07.283810  4945 layer_factory.hpp:77] Creating layer Threshold_16
I0706 13:22:07.283816  4945 net.cpp:94] Creating Layer Threshold_16
I0706 13:22:07.283820  4945 net.cpp:435] Threshold_16 <- BatchNorm_13
I0706 13:22:07.283825  4945 net.cpp:396] Threshold_16 -> BatchNorm_13 (in-place)
I0706 13:22:07.283831  4945 net.cpp:144] Setting up Threshold_16
I0706 13:22:07.283836  4945 net.cpp:151] Top shape: 7 64 128 128 (7340032)
I0706 13:22:07.283839  4945 net.cpp:159] Memory required for data: 1181745152
I0706 13:22:07.283843  4945 layer_factory.hpp:77] Creating layer Add_4
I0706 13:22:07.283849  4945 net.cpp:94] Creating Layer Add_4
I0706 13:22:07.283852  4945 net.cpp:435] Add_4 <- Add_3_Threshold_13_0_split_1
I0706 13:22:07.283856  4945 net.cpp:435] Add_4 <- BatchNorm_13
I0706 13:22:07.283861  4945 net.cpp:409] Add_4 -> Add_4
I0706 13:22:07.283885  4945 net.cpp:144] Setting up Add_4
I0706 13:22:07.283890  4945 net.cpp:151] Top shape: 7 64 128 128 (7340032)
I0706 13:22:07.283892  4945 net.cpp:159] Memory required for data: 1211105280
I0706 13:22:07.283896  4945 layer_factory.hpp:77] Creating layer Threshold_17
I0706 13:22:07.283901  4945 net.cpp:94] Creating Layer Threshold_17
I0706 13:22:07.283905  4945 net.cpp:435] Threshold_17 <- Add_4
I0706 13:22:07.283921  4945 net.cpp:396] Threshold_17 -> Add_4 (in-place)
I0706 13:22:07.283928  4945 net.cpp:144] Setting up Threshold_17
I0706 13:22:07.283933  4945 net.cpp:151] Top shape: 7 64 128 128 (7340032)
I0706 13:22:07.283936  4945 net.cpp:159] Memory required for data: 1240465408
I0706 13:22:07.283939  4945 layer_factory.hpp:77] Creating layer Add_4_Threshold_17_0_split
I0706 13:22:07.283946  4945 net.cpp:94] Creating Layer Add_4_Threshold_17_0_split
I0706 13:22:07.283948  4945 net.cpp:435] Add_4_Threshold_17_0_split <- Add_4
I0706 13:22:07.283953  4945 net.cpp:409] Add_4_Threshold_17_0_split -> Add_4_Threshold_17_0_split_0
I0706 13:22:07.283959  4945 net.cpp:409] Add_4_Threshold_17_0_split -> Add_4_Threshold_17_0_split_1
I0706 13:22:07.283993  4945 net.cpp:144] Setting up Add_4_Threshold_17_0_split
I0706 13:22:07.283998  4945 net.cpp:151] Top shape: 7 64 128 128 (7340032)
I0706 13:22:07.284003  4945 net.cpp:151] Top shape: 7 64 128 128 (7340032)
I0706 13:22:07.284005  4945 net.cpp:159] Memory required for data: 1299185664
I0706 13:22:07.284009  4945 layer_factory.hpp:77] Creating layer ConvNd_15
I0706 13:22:07.284018  4945 net.cpp:94] Creating Layer ConvNd_15
I0706 13:22:07.284021  4945 net.cpp:435] ConvNd_15 <- Add_4_Threshold_17_0_split_0
I0706 13:22:07.284026  4945 net.cpp:409] ConvNd_15 -> ConvNd_15
I0706 13:22:07.284198  4945 net.cpp:144] Setting up ConvNd_15
I0706 13:22:07.284204  4945 net.cpp:151] Top shape: 7 16 128 128 (1835008)
I0706 13:22:07.284209  4945 net.cpp:159] Memory required for data: 1306525696
I0706 13:22:07.284214  4945 layer_factory.hpp:77] Creating layer BatchNorm_14
I0706 13:22:07.284220  4945 net.cpp:94] Creating Layer BatchNorm_14
I0706 13:22:07.284224  4945 net.cpp:435] BatchNorm_14 <- ConvNd_15
I0706 13:22:07.284229  4945 net.cpp:409] BatchNorm_14 -> BatchNorm_14
I0706 13:22:07.284713  4945 net.cpp:144] Setting up BatchNorm_14
I0706 13:22:07.284723  4945 net.cpp:151] Top shape: 7 16 128 128 (1835008)
I0706 13:22:07.284725  4945 net.cpp:159] Memory required for data: 1313865728
I0706 13:22:07.284734  4945 layer_factory.hpp:77] Creating layer Threshold_18
I0706 13:22:07.284740  4945 net.cpp:94] Creating Layer Threshold_18
I0706 13:22:07.284745  4945 net.cpp:435] Threshold_18 <- BatchNorm_14
I0706 13:22:07.284749  4945 net.cpp:396] Threshold_18 -> BatchNorm_14 (in-place)
I0706 13:22:07.284755  4945 net.cpp:144] Setting up Threshold_18
I0706 13:22:07.284760  4945 net.cpp:151] Top shape: 7 16 128 128 (1835008)
I0706 13:22:07.284765  4945 net.cpp:159] Memory required for data: 1321205760
I0706 13:22:07.284768  4945 layer_factory.hpp:77] Creating layer ConvNd_16
I0706 13:22:07.284775  4945 net.cpp:94] Creating Layer ConvNd_16
I0706 13:22:07.284778  4945 net.cpp:435] ConvNd_16 <- BatchNorm_14
I0706 13:22:07.284785  4945 net.cpp:409] ConvNd_16 -> ConvNd_16
I0706 13:22:07.284966  4945 net.cpp:144] Setting up ConvNd_16
I0706 13:22:07.284974  4945 net.cpp:151] Top shape: 7 16 128 128 (1835008)
I0706 13:22:07.284977  4945 net.cpp:159] Memory required for data: 1328545792
I0706 13:22:07.284983  4945 layer_factory.hpp:77] Creating layer BatchNorm_15
I0706 13:22:07.284989  4945 net.cpp:94] Creating Layer BatchNorm_15
I0706 13:22:07.284994  4945 net.cpp:435] BatchNorm_15 <- ConvNd_16
I0706 13:22:07.285001  4945 net.cpp:409] BatchNorm_15 -> BatchNorm_15
I0706 13:22:07.285493  4945 net.cpp:144] Setting up BatchNorm_15
I0706 13:22:07.285503  4945 net.cpp:151] Top shape: 7 16 128 128 (1835008)
I0706 13:22:07.285506  4945 net.cpp:159] Memory required for data: 1335885824
I0706 13:22:07.285516  4945 layer_factory.hpp:77] Creating layer Threshold_19
I0706 13:22:07.285524  4945 net.cpp:94] Creating Layer Threshold_19
I0706 13:22:07.285529  4945 net.cpp:435] Threshold_19 <- BatchNorm_15
I0706 13:22:07.285534  4945 net.cpp:396] Threshold_19 -> BatchNorm_15 (in-place)
I0706 13:22:07.285542  4945 net.cpp:144] Setting up Threshold_19
I0706 13:22:07.285548  4945 net.cpp:151] Top shape: 7 16 128 128 (1835008)
I0706 13:22:07.285552  4945 net.cpp:159] Memory required for data: 1343225856
I0706 13:22:07.285565  4945 layer_factory.hpp:77] Creating layer ConvNd_17
I0706 13:22:07.285573  4945 net.cpp:94] Creating Layer ConvNd_17
I0706 13:22:07.285578  4945 net.cpp:435] ConvNd_17 <- BatchNorm_15
I0706 13:22:07.285583  4945 net.cpp:409] ConvNd_17 -> ConvNd_17
I0706 13:22:07.285756  4945 net.cpp:144] Setting up ConvNd_17
I0706 13:22:07.285763  4945 net.cpp:151] Top shape: 7 64 128 128 (7340032)
I0706 13:22:07.285768  4945 net.cpp:159] Memory required for data: 1372585984
I0706 13:22:07.285773  4945 layer_factory.hpp:77] Creating layer BatchNorm_16
I0706 13:22:07.285778  4945 net.cpp:94] Creating Layer BatchNorm_16
I0706 13:22:07.285784  4945 net.cpp:435] BatchNorm_16 <- ConvNd_17
I0706 13:22:07.285790  4945 net.cpp:409] BatchNorm_16 -> BatchNorm_16
I0706 13:22:07.286264  4945 net.cpp:144] Setting up BatchNorm_16
I0706 13:22:07.286273  4945 net.cpp:151] Top shape: 7 64 128 128 (7340032)
I0706 13:22:07.286275  4945 net.cpp:159] Memory required for data: 1401946112
I0706 13:22:07.286285  4945 layer_factory.hpp:77] Creating layer Threshold_20
I0706 13:22:07.286291  4945 net.cpp:94] Creating Layer Threshold_20
I0706 13:22:07.286294  4945 net.cpp:435] Threshold_20 <- BatchNorm_16
I0706 13:22:07.286299  4945 net.cpp:396] Threshold_20 -> BatchNorm_16 (in-place)
I0706 13:22:07.286306  4945 net.cpp:144] Setting up Threshold_20
I0706 13:22:07.286311  4945 net.cpp:151] Top shape: 7 64 128 128 (7340032)
I0706 13:22:07.286314  4945 net.cpp:159] Memory required for data: 1431306240
I0706 13:22:07.286317  4945 layer_factory.hpp:77] Creating layer Add_5
I0706 13:22:07.286324  4945 net.cpp:94] Creating Layer Add_5
I0706 13:22:07.286329  4945 net.cpp:435] Add_5 <- Add_4_Threshold_17_0_split_1
I0706 13:22:07.286332  4945 net.cpp:435] Add_5 <- BatchNorm_16
I0706 13:22:07.286337  4945 net.cpp:409] Add_5 -> Add_5
I0706 13:22:07.286358  4945 net.cpp:144] Setting up Add_5
I0706 13:22:07.286365  4945 net.cpp:151] Top shape: 7 64 128 128 (7340032)
I0706 13:22:07.286367  4945 net.cpp:159] Memory required for data: 1460666368
I0706 13:22:07.286370  4945 layer_factory.hpp:77] Creating layer Threshold_21
I0706 13:22:07.286375  4945 net.cpp:94] Creating Layer Threshold_21
I0706 13:22:07.286379  4945 net.cpp:435] Threshold_21 <- Add_5
I0706 13:22:07.286383  4945 net.cpp:396] Threshold_21 -> Add_5 (in-place)
I0706 13:22:07.286388  4945 net.cpp:144] Setting up Threshold_21
I0706 13:22:07.286393  4945 net.cpp:151] Top shape: 7 64 128 128 (7340032)
I0706 13:22:07.286396  4945 net.cpp:159] Memory required for data: 1490026496
I0706 13:22:07.286399  4945 layer_factory.hpp:77] Creating layer Add_5_Threshold_21_0_split
I0706 13:22:07.286404  4945 net.cpp:94] Creating Layer Add_5_Threshold_21_0_split
I0706 13:22:07.286407  4945 net.cpp:435] Add_5_Threshold_21_0_split <- Add_5
I0706 13:22:07.286412  4945 net.cpp:409] Add_5_Threshold_21_0_split -> Add_5_Threshold_21_0_split_0
I0706 13:22:07.286418  4945 net.cpp:409] Add_5_Threshold_21_0_split -> Add_5_Threshold_21_0_split_1
I0706 13:22:07.286448  4945 net.cpp:144] Setting up Add_5_Threshold_21_0_split
I0706 13:22:07.286454  4945 net.cpp:151] Top shape: 7 64 128 128 (7340032)
I0706 13:22:07.286458  4945 net.cpp:151] Top shape: 7 64 128 128 (7340032)
I0706 13:22:07.286461  4945 net.cpp:159] Memory required for data: 1548746752
I0706 13:22:07.286464  4945 layer_factory.hpp:77] Creating layer MaxPool2d_3
I0706 13:22:07.286471  4945 net.cpp:94] Creating Layer MaxPool2d_3
I0706 13:22:07.286476  4945 net.cpp:435] MaxPool2d_3 <- Add_5_Threshold_21_0_split_0
I0706 13:22:07.286481  4945 net.cpp:409] MaxPool2d_3 -> MaxPool2d_3
I0706 13:22:07.286511  4945 net.cpp:144] Setting up MaxPool2d_3
I0706 13:22:07.286520  4945 net.cpp:151] Top shape: 7 64 64 64 (1835008)
I0706 13:22:07.286522  4945 net.cpp:159] Memory required for data: 1556086784
I0706 13:22:07.286525  4945 layer_factory.hpp:77] Creating layer ConvNd_18
I0706 13:22:07.286540  4945 net.cpp:94] Creating Layer ConvNd_18
I0706 13:22:07.286545  4945 net.cpp:435] ConvNd_18 <- MaxPool2d_3
I0706 13:22:07.286550  4945 net.cpp:409] ConvNd_18 -> ConvNd_18
I0706 13:22:07.286793  4945 net.cpp:144] Setting up ConvNd_18
I0706 13:22:07.286801  4945 net.cpp:151] Top shape: 7 128 64 64 (3670016)
I0706 13:22:07.286805  4945 net.cpp:159] Memory required for data: 1570766848
I0706 13:22:07.286810  4945 layer_factory.hpp:77] Creating layer ConvNd_19
I0706 13:22:07.286818  4945 net.cpp:94] Creating Layer ConvNd_19
I0706 13:22:07.286823  4945 net.cpp:435] ConvNd_19 <- Add_5_Threshold_21_0_split_1
I0706 13:22:07.286829  4945 net.cpp:409] ConvNd_19 -> ConvNd_19
I0706 13:22:07.287056  4945 net.cpp:144] Setting up ConvNd_19
I0706 13:22:07.287063  4945 net.cpp:151] Top shape: 7 32 64 64 (917504)
I0706 13:22:07.287066  4945 net.cpp:159] Memory required for data: 1574436864
I0706 13:22:07.287072  4945 layer_factory.hpp:77] Creating layer BatchNorm_17
I0706 13:22:07.287078  4945 net.cpp:94] Creating Layer BatchNorm_17
I0706 13:22:07.287082  4945 net.cpp:435] BatchNorm_17 <- ConvNd_19
I0706 13:22:07.287087  4945 net.cpp:409] BatchNorm_17 -> BatchNorm_17
I0706 13:22:07.287564  4945 net.cpp:144] Setting up BatchNorm_17
I0706 13:22:07.287572  4945 net.cpp:151] Top shape: 7 32 64 64 (917504)
I0706 13:22:07.287575  4945 net.cpp:159] Memory required for data: 1578106880
I0706 13:22:07.287585  4945 layer_factory.hpp:77] Creating layer Threshold_22
I0706 13:22:07.287591  4945 net.cpp:94] Creating Layer Threshold_22
I0706 13:22:07.287595  4945 net.cpp:435] Threshold_22 <- BatchNorm_17
I0706 13:22:07.287600  4945 net.cpp:396] Threshold_22 -> BatchNorm_17 (in-place)
I0706 13:22:07.287606  4945 net.cpp:144] Setting up Threshold_22
I0706 13:22:07.287611  4945 net.cpp:151] Top shape: 7 32 64 64 (917504)
I0706 13:22:07.287613  4945 net.cpp:159] Memory required for data: 1581776896
I0706 13:22:07.287616  4945 layer_factory.hpp:77] Creating layer ConvNd_20
I0706 13:22:07.287624  4945 net.cpp:94] Creating Layer ConvNd_20
I0706 13:22:07.287627  4945 net.cpp:435] ConvNd_20 <- BatchNorm_17
I0706 13:22:07.287633  4945 net.cpp:409] ConvNd_20 -> ConvNd_20
I0706 13:22:07.287890  4945 net.cpp:144] Setting up ConvNd_20
I0706 13:22:07.287899  4945 net.cpp:151] Top shape: 7 32 64 64 (917504)
I0706 13:22:07.287902  4945 net.cpp:159] Memory required for data: 1585446912
I0706 13:22:07.287907  4945 layer_factory.hpp:77] Creating layer BatchNorm_18
I0706 13:22:07.287914  4945 net.cpp:94] Creating Layer BatchNorm_18
I0706 13:22:07.287919  4945 net.cpp:435] BatchNorm_18 <- ConvNd_20
I0706 13:22:07.287926  4945 net.cpp:409] BatchNorm_18 -> BatchNorm_18
I0706 13:22:07.288395  4945 net.cpp:144] Setting up BatchNorm_18
I0706 13:22:07.288404  4945 net.cpp:151] Top shape: 7 32 64 64 (917504)
I0706 13:22:07.288408  4945 net.cpp:159] Memory required for data: 1589116928
I0706 13:22:07.288419  4945 layer_factory.hpp:77] Creating layer Threshold_23
I0706 13:22:07.288424  4945 net.cpp:94] Creating Layer Threshold_23
I0706 13:22:07.288427  4945 net.cpp:435] Threshold_23 <- BatchNorm_18
I0706 13:22:07.288432  4945 net.cpp:396] Threshold_23 -> BatchNorm_18 (in-place)
I0706 13:22:07.288439  4945 net.cpp:144] Setting up Threshold_23
I0706 13:22:07.288444  4945 net.cpp:151] Top shape: 7 32 64 64 (917504)
I0706 13:22:07.288448  4945 net.cpp:159] Memory required for data: 1592786944
I0706 13:22:07.288451  4945 layer_factory.hpp:77] Creating layer ConvNd_21
I0706 13:22:07.288460  4945 net.cpp:94] Creating Layer ConvNd_21
I0706 13:22:07.288462  4945 net.cpp:435] ConvNd_21 <- BatchNorm_18
I0706 13:22:07.288468  4945 net.cpp:409] ConvNd_21 -> ConvNd_21
I0706 13:22:07.288667  4945 net.cpp:144] Setting up ConvNd_21
I0706 13:22:07.288676  4945 net.cpp:151] Top shape: 7 128 64 64 (3670016)
I0706 13:22:07.288679  4945 net.cpp:159] Memory required for data: 1607467008
I0706 13:22:07.288684  4945 layer_factory.hpp:77] Creating layer BatchNorm_19
I0706 13:22:07.288691  4945 net.cpp:94] Creating Layer BatchNorm_19
I0706 13:22:07.288694  4945 net.cpp:435] BatchNorm_19 <- ConvNd_21
I0706 13:22:07.288700  4945 net.cpp:409] BatchNorm_19 -> BatchNorm_19
I0706 13:22:07.289146  4945 net.cpp:144] Setting up BatchNorm_19
I0706 13:22:07.289156  4945 net.cpp:151] Top shape: 7 128 64 64 (3670016)
I0706 13:22:07.289170  4945 net.cpp:159] Memory required for data: 1622147072
I0706 13:22:07.289180  4945 layer_factory.hpp:77] Creating layer Threshold_24
I0706 13:22:07.289187  4945 net.cpp:94] Creating Layer Threshold_24
I0706 13:22:07.289191  4945 net.cpp:435] Threshold_24 <- BatchNorm_19
I0706 13:22:07.289198  4945 net.cpp:396] Threshold_24 -> BatchNorm_19 (in-place)
I0706 13:22:07.289206  4945 net.cpp:144] Setting up Threshold_24
I0706 13:22:07.289211  4945 net.cpp:151] Top shape: 7 128 64 64 (3670016)
I0706 13:22:07.289214  4945 net.cpp:159] Memory required for data: 1636827136
I0706 13:22:07.289217  4945 layer_factory.hpp:77] Creating layer Add_6
I0706 13:22:07.289222  4945 net.cpp:94] Creating Layer Add_6
I0706 13:22:07.289227  4945 net.cpp:435] Add_6 <- ConvNd_18
I0706 13:22:07.289230  4945 net.cpp:435] Add_6 <- BatchNorm_19
I0706 13:22:07.289235  4945 net.cpp:409] Add_6 -> Add_6
I0706 13:22:07.289258  4945 net.cpp:144] Setting up Add_6
I0706 13:22:07.289264  4945 net.cpp:151] Top shape: 7 128 64 64 (3670016)
I0706 13:22:07.289268  4945 net.cpp:159] Memory required for data: 1651507200
I0706 13:22:07.289271  4945 layer_factory.hpp:77] Creating layer Threshold_25
I0706 13:22:07.289276  4945 net.cpp:94] Creating Layer Threshold_25
I0706 13:22:07.289279  4945 net.cpp:435] Threshold_25 <- Add_6
I0706 13:22:07.289284  4945 net.cpp:396] Threshold_25 -> Add_6 (in-place)
I0706 13:22:07.289290  4945 net.cpp:144] Setting up Threshold_25
I0706 13:22:07.289295  4945 net.cpp:151] Top shape: 7 128 64 64 (3670016)
I0706 13:22:07.289299  4945 net.cpp:159] Memory required for data: 1666187264
I0706 13:22:07.289301  4945 layer_factory.hpp:77] Creating layer Add_6_Threshold_25_0_split
I0706 13:22:07.289307  4945 net.cpp:94] Creating Layer Add_6_Threshold_25_0_split
I0706 13:22:07.289310  4945 net.cpp:435] Add_6_Threshold_25_0_split <- Add_6
I0706 13:22:07.289315  4945 net.cpp:409] Add_6_Threshold_25_0_split -> Add_6_Threshold_25_0_split_0
I0706 13:22:07.289321  4945 net.cpp:409] Add_6_Threshold_25_0_split -> Add_6_Threshold_25_0_split_1
I0706 13:22:07.289352  4945 net.cpp:144] Setting up Add_6_Threshold_25_0_split
I0706 13:22:07.289358  4945 net.cpp:151] Top shape: 7 128 64 64 (3670016)
I0706 13:22:07.289362  4945 net.cpp:151] Top shape: 7 128 64 64 (3670016)
I0706 13:22:07.289366  4945 net.cpp:159] Memory required for data: 1695547392
I0706 13:22:07.289369  4945 layer_factory.hpp:77] Creating layer ConvNd_22
I0706 13:22:07.289377  4945 net.cpp:94] Creating Layer ConvNd_22
I0706 13:22:07.289381  4945 net.cpp:435] ConvNd_22 <- Add_6_Threshold_25_0_split_0
I0706 13:22:07.289387  4945 net.cpp:409] ConvNd_22 -> ConvNd_22
I0706 13:22:07.289580  4945 net.cpp:144] Setting up ConvNd_22
I0706 13:22:07.289588  4945 net.cpp:151] Top shape: 7 32 64 64 (917504)
I0706 13:22:07.289592  4945 net.cpp:159] Memory required for data: 1699217408
I0706 13:22:07.289597  4945 layer_factory.hpp:77] Creating layer BatchNorm_20
I0706 13:22:07.289604  4945 net.cpp:94] Creating Layer BatchNorm_20
I0706 13:22:07.289608  4945 net.cpp:435] BatchNorm_20 <- ConvNd_22
I0706 13:22:07.289614  4945 net.cpp:409] BatchNorm_20 -> BatchNorm_20
I0706 13:22:07.290084  4945 net.cpp:144] Setting up BatchNorm_20
I0706 13:22:07.290094  4945 net.cpp:151] Top shape: 7 32 64 64 (917504)
I0706 13:22:07.290097  4945 net.cpp:159] Memory required for data: 1702887424
I0706 13:22:07.290107  4945 layer_factory.hpp:77] Creating layer Threshold_26
I0706 13:22:07.290112  4945 net.cpp:94] Creating Layer Threshold_26
I0706 13:22:07.290117  4945 net.cpp:435] Threshold_26 <- BatchNorm_20
I0706 13:22:07.290122  4945 net.cpp:396] Threshold_26 -> BatchNorm_20 (in-place)
I0706 13:22:07.290127  4945 net.cpp:144] Setting up Threshold_26
I0706 13:22:07.290132  4945 net.cpp:151] Top shape: 7 32 64 64 (917504)
I0706 13:22:07.290135  4945 net.cpp:159] Memory required for data: 1706557440
I0706 13:22:07.290138  4945 layer_factory.hpp:77] Creating layer ConvNd_23
I0706 13:22:07.290145  4945 net.cpp:94] Creating Layer ConvNd_23
I0706 13:22:07.290148  4945 net.cpp:435] ConvNd_23 <- BatchNorm_20
I0706 13:22:07.290164  4945 net.cpp:409] ConvNd_23 -> ConvNd_23
I0706 13:22:07.290405  4945 net.cpp:144] Setting up ConvNd_23
I0706 13:22:07.290413  4945 net.cpp:151] Top shape: 7 32 64 64 (917504)
I0706 13:22:07.290416  4945 net.cpp:159] Memory required for data: 1710227456
I0706 13:22:07.290422  4945 layer_factory.hpp:77] Creating layer BatchNorm_21
I0706 13:22:07.290428  4945 net.cpp:94] Creating Layer BatchNorm_21
I0706 13:22:07.290433  4945 net.cpp:435] BatchNorm_21 <- ConvNd_23
I0706 13:22:07.290439  4945 net.cpp:409] BatchNorm_21 -> BatchNorm_21
I0706 13:22:07.290910  4945 net.cpp:144] Setting up BatchNorm_21
I0706 13:22:07.290920  4945 net.cpp:151] Top shape: 7 32 64 64 (917504)
I0706 13:22:07.290922  4945 net.cpp:159] Memory required for data: 1713897472
I0706 13:22:07.290930  4945 layer_factory.hpp:77] Creating layer Threshold_27
I0706 13:22:07.290938  4945 net.cpp:94] Creating Layer Threshold_27
I0706 13:22:07.290941  4945 net.cpp:435] Threshold_27 <- BatchNorm_21
I0706 13:22:07.290946  4945 net.cpp:396] Threshold_27 -> BatchNorm_21 (in-place)
I0706 13:22:07.290952  4945 net.cpp:144] Setting up Threshold_27
I0706 13:22:07.290958  4945 net.cpp:151] Top shape: 7 32 64 64 (917504)
I0706 13:22:07.290961  4945 net.cpp:159] Memory required for data: 1717567488
I0706 13:22:07.290964  4945 layer_factory.hpp:77] Creating layer ConvNd_24
I0706 13:22:07.290971  4945 net.cpp:94] Creating Layer ConvNd_24
I0706 13:22:07.290977  4945 net.cpp:435] ConvNd_24 <- BatchNorm_21
I0706 13:22:07.290982  4945 net.cpp:409] ConvNd_24 -> ConvNd_24
I0706 13:22:07.291178  4945 net.cpp:144] Setting up ConvNd_24
I0706 13:22:07.291185  4945 net.cpp:151] Top shape: 7 128 64 64 (3670016)
I0706 13:22:07.291189  4945 net.cpp:159] Memory required for data: 1732247552
I0706 13:22:07.291199  4945 layer_factory.hpp:77] Creating layer BatchNorm_22
I0706 13:22:07.291208  4945 net.cpp:94] Creating Layer BatchNorm_22
I0706 13:22:07.291213  4945 net.cpp:435] BatchNorm_22 <- ConvNd_24
I0706 13:22:07.291218  4945 net.cpp:409] BatchNorm_22 -> BatchNorm_22
I0706 13:22:07.291647  4945 net.cpp:144] Setting up BatchNorm_22
I0706 13:22:07.291656  4945 net.cpp:151] Top shape: 7 128 64 64 (3670016)
I0706 13:22:07.291658  4945 net.cpp:159] Memory required for data: 1746927616
I0706 13:22:07.291667  4945 layer_factory.hpp:77] Creating layer Threshold_28
I0706 13:22:07.291673  4945 net.cpp:94] Creating Layer Threshold_28
I0706 13:22:07.291677  4945 net.cpp:435] Threshold_28 <- BatchNorm_22
I0706 13:22:07.291682  4945 net.cpp:396] Threshold_28 -> BatchNorm_22 (in-place)
I0706 13:22:07.291688  4945 net.cpp:144] Setting up Threshold_28
I0706 13:22:07.291694  4945 net.cpp:151] Top shape: 7 128 64 64 (3670016)
I0706 13:22:07.291697  4945 net.cpp:159] Memory required for data: 1761607680
I0706 13:22:07.291700  4945 layer_factory.hpp:77] Creating layer Add_7
I0706 13:22:07.291707  4945 net.cpp:94] Creating Layer Add_7
I0706 13:22:07.291709  4945 net.cpp:435] Add_7 <- Add_6_Threshold_25_0_split_1
I0706 13:22:07.291714  4945 net.cpp:435] Add_7 <- BatchNorm_22
I0706 13:22:07.291719  4945 net.cpp:409] Add_7 -> Add_7
I0706 13:22:07.291743  4945 net.cpp:144] Setting up Add_7
I0706 13:22:07.291749  4945 net.cpp:151] Top shape: 7 128 64 64 (3670016)
I0706 13:22:07.291751  4945 net.cpp:159] Memory required for data: 1776287744
I0706 13:22:07.291762  4945 layer_factory.hpp:77] Creating layer Threshold_29
I0706 13:22:07.291770  4945 net.cpp:94] Creating Layer Threshold_29
I0706 13:22:07.291777  4945 net.cpp:435] Threshold_29 <- Add_7
I0706 13:22:07.291784  4945 net.cpp:396] Threshold_29 -> Add_7 (in-place)
I0706 13:22:07.291790  4945 net.cpp:144] Setting up Threshold_29
I0706 13:22:07.291795  4945 net.cpp:151] Top shape: 7 128 64 64 (3670016)
I0706 13:22:07.291798  4945 net.cpp:159] Memory required for data: 1790967808
I0706 13:22:07.291801  4945 layer_factory.hpp:77] Creating layer Add_7_Threshold_29_0_split
I0706 13:22:07.291806  4945 net.cpp:94] Creating Layer Add_7_Threshold_29_0_split
I0706 13:22:07.291811  4945 net.cpp:435] Add_7_Threshold_29_0_split <- Add_7
I0706 13:22:07.291827  4945 net.cpp:409] Add_7_Threshold_29_0_split -> Add_7_Threshold_29_0_split_0
I0706 13:22:07.291834  4945 net.cpp:409] Add_7_Threshold_29_0_split -> Add_7_Threshold_29_0_split_1
I0706 13:22:07.291869  4945 net.cpp:144] Setting up Add_7_Threshold_29_0_split
I0706 13:22:07.291877  4945 net.cpp:151] Top shape: 7 128 64 64 (3670016)
I0706 13:22:07.291880  4945 net.cpp:151] Top shape: 7 128 64 64 (3670016)
I0706 13:22:07.291883  4945 net.cpp:159] Memory required for data: 1820327936
I0706 13:22:07.291887  4945 layer_factory.hpp:77] Creating layer ConvNd_25
I0706 13:22:07.291895  4945 net.cpp:94] Creating Layer ConvNd_25
I0706 13:22:07.291899  4945 net.cpp:435] ConvNd_25 <- Add_7_Threshold_29_0_split_0
I0706 13:22:07.291905  4945 net.cpp:409] ConvNd_25 -> ConvNd_25
I0706 13:22:07.292102  4945 net.cpp:144] Setting up ConvNd_25
I0706 13:22:07.292110  4945 net.cpp:151] Top shape: 7 32 64 64 (917504)
I0706 13:22:07.292114  4945 net.cpp:159] Memory required for data: 1823997952
I0706 13:22:07.292119  4945 layer_factory.hpp:77] Creating layer BatchNorm_23
I0706 13:22:07.292125  4945 net.cpp:94] Creating Layer BatchNorm_23
I0706 13:22:07.292131  4945 net.cpp:435] BatchNorm_23 <- ConvNd_25
I0706 13:22:07.292136  4945 net.cpp:409] BatchNorm_23 -> BatchNorm_23
I0706 13:22:07.292608  4945 net.cpp:144] Setting up BatchNorm_23
I0706 13:22:07.292615  4945 net.cpp:151] Top shape: 7 32 64 64 (917504)
I0706 13:22:07.292619  4945 net.cpp:159] Memory required for data: 1827667968
I0706 13:22:07.292629  4945 layer_factory.hpp:77] Creating layer Threshold_30
I0706 13:22:07.292634  4945 net.cpp:94] Creating Layer Threshold_30
I0706 13:22:07.292637  4945 net.cpp:435] Threshold_30 <- BatchNorm_23
I0706 13:22:07.292644  4945 net.cpp:396] Threshold_30 -> BatchNorm_23 (in-place)
I0706 13:22:07.292649  4945 net.cpp:144] Setting up Threshold_30
I0706 13:22:07.292654  4945 net.cpp:151] Top shape: 7 32 64 64 (917504)
I0706 13:22:07.292657  4945 net.cpp:159] Memory required for data: 1831337984
I0706 13:22:07.292661  4945 layer_factory.hpp:77] Creating layer ConvNd_26
I0706 13:22:07.292668  4945 net.cpp:94] Creating Layer ConvNd_26
I0706 13:22:07.292673  4945 net.cpp:435] ConvNd_26 <- BatchNorm_23
I0706 13:22:07.292678  4945 net.cpp:409] ConvNd_26 -> ConvNd_26
I0706 13:22:07.292913  4945 net.cpp:144] Setting up ConvNd_26
I0706 13:22:07.292922  4945 net.cpp:151] Top shape: 7 32 64 64 (917504)
I0706 13:22:07.292924  4945 net.cpp:159] Memory required for data: 1835008000
I0706 13:22:07.292928  4945 layer_factory.hpp:77] Creating layer BatchNorm_24
I0706 13:22:07.292935  4945 net.cpp:94] Creating Layer BatchNorm_24
I0706 13:22:07.292939  4945 net.cpp:435] BatchNorm_24 <- ConvNd_26
I0706 13:22:07.292944  4945 net.cpp:409] BatchNorm_24 -> BatchNorm_24
I0706 13:22:07.293439  4945 net.cpp:144] Setting up BatchNorm_24
I0706 13:22:07.293449  4945 net.cpp:151] Top shape: 7 32 64 64 (917504)
I0706 13:22:07.293453  4945 net.cpp:159] Memory required for data: 1838678016
I0706 13:22:07.293462  4945 layer_factory.hpp:77] Creating layer Threshold_31
I0706 13:22:07.293468  4945 net.cpp:94] Creating Layer Threshold_31
I0706 13:22:07.293473  4945 net.cpp:435] Threshold_31 <- BatchNorm_24
I0706 13:22:07.293478  4945 net.cpp:396] Threshold_31 -> BatchNorm_24 (in-place)
I0706 13:22:07.293484  4945 net.cpp:144] Setting up Threshold_31
I0706 13:22:07.293490  4945 net.cpp:151] Top shape: 7 32 64 64 (917504)
I0706 13:22:07.293493  4945 net.cpp:159] Memory required for data: 1842348032
I0706 13:22:07.293498  4945 layer_factory.hpp:77] Creating layer ConvNd_27
I0706 13:22:07.293504  4945 net.cpp:94] Creating Layer ConvNd_27
I0706 13:22:07.293507  4945 net.cpp:435] ConvNd_27 <- BatchNorm_24
I0706 13:22:07.293514  4945 net.cpp:409] ConvNd_27 -> ConvNd_27
I0706 13:22:07.293715  4945 net.cpp:144] Setting up ConvNd_27
I0706 13:22:07.293722  4945 net.cpp:151] Top shape: 7 128 64 64 (3670016)
I0706 13:22:07.293725  4945 net.cpp:159] Memory required for data: 1857028096
I0706 13:22:07.293730  4945 layer_factory.hpp:77] Creating layer BatchNorm_25
I0706 13:22:07.293737  4945 net.cpp:94] Creating Layer BatchNorm_25
I0706 13:22:07.293751  4945 net.cpp:435] BatchNorm_25 <- ConvNd_27
I0706 13:22:07.293758  4945 net.cpp:409] BatchNorm_25 -> BatchNorm_25
I0706 13:22:07.294191  4945 net.cpp:144] Setting up BatchNorm_25
I0706 13:22:07.294200  4945 net.cpp:151] Top shape: 7 128 64 64 (3670016)
I0706 13:22:07.294203  4945 net.cpp:159] Memory required for data: 1871708160
I0706 13:22:07.294211  4945 layer_factory.hpp:77] Creating layer Threshold_32
I0706 13:22:07.294219  4945 net.cpp:94] Creating Layer Threshold_32
I0706 13:22:07.294222  4945 net.cpp:435] Threshold_32 <- BatchNorm_25
I0706 13:22:07.294226  4945 net.cpp:396] Threshold_32 -> BatchNorm_25 (in-place)
I0706 13:22:07.294232  4945 net.cpp:144] Setting up Threshold_32
I0706 13:22:07.294237  4945 net.cpp:151] Top shape: 7 128 64 64 (3670016)
I0706 13:22:07.294240  4945 net.cpp:159] Memory required for data: 1886388224
I0706 13:22:07.294243  4945 layer_factory.hpp:77] Creating layer Add_8
I0706 13:22:07.294248  4945 net.cpp:94] Creating Layer Add_8
I0706 13:22:07.294255  4945 net.cpp:435] Add_8 <- Add_7_Threshold_29_0_split_1
I0706 13:22:07.294258  4945 net.cpp:435] Add_8 <- BatchNorm_25
I0706 13:22:07.294263  4945 net.cpp:409] Add_8 -> Add_8
I0706 13:22:07.294283  4945 net.cpp:144] Setting up Add_8
I0706 13:22:07.294291  4945 net.cpp:151] Top shape: 7 128 64 64 (3670016)
I0706 13:22:07.294293  4945 net.cpp:159] Memory required for data: 1901068288
I0706 13:22:07.294296  4945 layer_factory.hpp:77] Creating layer Threshold_33
I0706 13:22:07.294301  4945 net.cpp:94] Creating Layer Threshold_33
I0706 13:22:07.294306  4945 net.cpp:435] Threshold_33 <- Add_8
I0706 13:22:07.294311  4945 net.cpp:396] Threshold_33 -> Add_8 (in-place)
I0706 13:22:07.294315  4945 net.cpp:144] Setting up Threshold_33
I0706 13:22:07.294319  4945 net.cpp:151] Top shape: 7 128 64 64 (3670016)
I0706 13:22:07.294323  4945 net.cpp:159] Memory required for data: 1915748352
I0706 13:22:07.294327  4945 layer_factory.hpp:77] Creating layer Add_8_Threshold_33_0_split
I0706 13:22:07.294332  4945 net.cpp:94] Creating Layer Add_8_Threshold_33_0_split
I0706 13:22:07.294334  4945 net.cpp:435] Add_8_Threshold_33_0_split <- Add_8
I0706 13:22:07.294339  4945 net.cpp:409] Add_8_Threshold_33_0_split -> Add_8_Threshold_33_0_split_0
I0706 13:22:07.294347  4945 net.cpp:409] Add_8_Threshold_33_0_split -> Add_8_Threshold_33_0_split_1
I0706 13:22:07.294374  4945 net.cpp:144] Setting up Add_8_Threshold_33_0_split
I0706 13:22:07.294380  4945 net.cpp:151] Top shape: 7 128 64 64 (3670016)
I0706 13:22:07.294384  4945 net.cpp:151] Top shape: 7 128 64 64 (3670016)
I0706 13:22:07.294387  4945 net.cpp:159] Memory required for data: 1945108480
I0706 13:22:07.294390  4945 layer_factory.hpp:77] Creating layer ConvNd_28
I0706 13:22:07.294399  4945 net.cpp:94] Creating Layer ConvNd_28
I0706 13:22:07.294404  4945 net.cpp:435] ConvNd_28 <- Add_8_Threshold_33_0_split_0
I0706 13:22:07.294409  4945 net.cpp:409] ConvNd_28 -> ConvNd_28
I0706 13:22:07.294606  4945 net.cpp:144] Setting up ConvNd_28
I0706 13:22:07.294613  4945 net.cpp:151] Top shape: 7 32 64 64 (917504)
I0706 13:22:07.294617  4945 net.cpp:159] Memory required for data: 1948778496
I0706 13:22:07.294622  4945 layer_factory.hpp:77] Creating layer BatchNorm_26
I0706 13:22:07.294628  4945 net.cpp:94] Creating Layer BatchNorm_26
I0706 13:22:07.294632  4945 net.cpp:435] BatchNorm_26 <- ConvNd_28
I0706 13:22:07.294638  4945 net.cpp:409] BatchNorm_26 -> BatchNorm_26
I0706 13:22:07.295111  4945 net.cpp:144] Setting up BatchNorm_26
I0706 13:22:07.295120  4945 net.cpp:151] Top shape: 7 32 64 64 (917504)
I0706 13:22:07.295122  4945 net.cpp:159] Memory required for data: 1952448512
I0706 13:22:07.295131  4945 layer_factory.hpp:77] Creating layer Threshold_34
I0706 13:22:07.295138  4945 net.cpp:94] Creating Layer Threshold_34
I0706 13:22:07.295141  4945 net.cpp:435] Threshold_34 <- BatchNorm_26
I0706 13:22:07.295146  4945 net.cpp:396] Threshold_34 -> BatchNorm_26 (in-place)
I0706 13:22:07.295153  4945 net.cpp:144] Setting up Threshold_34
I0706 13:22:07.295157  4945 net.cpp:151] Top shape: 7 32 64 64 (917504)
I0706 13:22:07.295171  4945 net.cpp:159] Memory required for data: 1956118528
I0706 13:22:07.295173  4945 layer_factory.hpp:77] Creating layer ConvNd_29
I0706 13:22:07.295181  4945 net.cpp:94] Creating Layer ConvNd_29
I0706 13:22:07.295184  4945 net.cpp:435] ConvNd_29 <- BatchNorm_26
I0706 13:22:07.295189  4945 net.cpp:409] ConvNd_29 -> ConvNd_29
I0706 13:22:07.295397  4945 net.cpp:144] Setting up ConvNd_29
I0706 13:22:07.295404  4945 net.cpp:151] Top shape: 7 32 64 64 (917504)
I0706 13:22:07.295408  4945 net.cpp:159] Memory required for data: 1959788544
I0706 13:22:07.295413  4945 layer_factory.hpp:77] Creating layer BatchNorm_27
I0706 13:22:07.295419  4945 net.cpp:94] Creating Layer BatchNorm_27
I0706 13:22:07.295423  4945 net.cpp:435] BatchNorm_27 <- ConvNd_29
I0706 13:22:07.295428  4945 net.cpp:409] BatchNorm_27 -> BatchNorm_27
I0706 13:22:07.295919  4945 net.cpp:144] Setting up BatchNorm_27
I0706 13:22:07.295928  4945 net.cpp:151] Top shape: 7 32 64 64 (917504)
I0706 13:22:07.295933  4945 net.cpp:159] Memory required for data: 1963458560
I0706 13:22:07.295941  4945 layer_factory.hpp:77] Creating layer Threshold_35
I0706 13:22:07.295948  4945 net.cpp:94] Creating Layer Threshold_35
I0706 13:22:07.295951  4945 net.cpp:435] Threshold_35 <- BatchNorm_27
I0706 13:22:07.295958  4945 net.cpp:396] Threshold_35 -> BatchNorm_27 (in-place)
I0706 13:22:07.295964  4945 net.cpp:144] Setting up Threshold_35
I0706 13:22:07.295969  4945 net.cpp:151] Top shape: 7 32 64 64 (917504)
I0706 13:22:07.295971  4945 net.cpp:159] Memory required for data: 1967128576
I0706 13:22:07.295975  4945 layer_factory.hpp:77] Creating layer ConvNd_30
I0706 13:22:07.295982  4945 net.cpp:94] Creating Layer ConvNd_30
I0706 13:22:07.295985  4945 net.cpp:435] ConvNd_30 <- BatchNorm_27
I0706 13:22:07.295990  4945 net.cpp:409] ConvNd_30 -> ConvNd_30
I0706 13:22:07.296197  4945 net.cpp:144] Setting up ConvNd_30
I0706 13:22:07.296205  4945 net.cpp:151] Top shape: 7 32 64 64 (917504)
I0706 13:22:07.296208  4945 net.cpp:159] Memory required for data: 1970798592
I0706 13:22:07.296212  4945 layer_factory.hpp:77] Creating layer BatchNorm_28
I0706 13:22:07.296219  4945 net.cpp:94] Creating Layer BatchNorm_28
I0706 13:22:07.296223  4945 net.cpp:435] BatchNorm_28 <- ConvNd_30
I0706 13:22:07.296229  4945 net.cpp:409] BatchNorm_28 -> BatchNorm_28
I0706 13:22:07.296706  4945 net.cpp:144] Setting up BatchNorm_28
I0706 13:22:07.296715  4945 net.cpp:151] Top shape: 7 32 64 64 (917504)
I0706 13:22:07.296717  4945 net.cpp:159] Memory required for data: 1974468608
I0706 13:22:07.296726  4945 layer_factory.hpp:77] Creating layer Threshold_36
I0706 13:22:07.296732  4945 net.cpp:94] Creating Layer Threshold_36
I0706 13:22:07.296736  4945 net.cpp:435] Threshold_36 <- BatchNorm_28
I0706 13:22:07.296741  4945 net.cpp:396] Threshold_36 -> BatchNorm_28 (in-place)
I0706 13:22:07.296747  4945 net.cpp:144] Setting up Threshold_36
I0706 13:22:07.296751  4945 net.cpp:151] Top shape: 7 32 64 64 (917504)
I0706 13:22:07.296754  4945 net.cpp:159] Memory required for data: 1978138624
I0706 13:22:07.296758  4945 layer_factory.hpp:77] Creating layer ConvNd_31
I0706 13:22:07.296766  4945 net.cpp:94] Creating Layer ConvNd_31
I0706 13:22:07.296768  4945 net.cpp:435] ConvNd_31 <- BatchNorm_28
I0706 13:22:07.296774  4945 net.cpp:409] ConvNd_31 -> ConvNd_31
I0706 13:22:07.296969  4945 net.cpp:144] Setting up ConvNd_31
I0706 13:22:07.296977  4945 net.cpp:151] Top shape: 7 128 64 64 (3670016)
I0706 13:22:07.296980  4945 net.cpp:159] Memory required for data: 1992818688
I0706 13:22:07.296985  4945 layer_factory.hpp:77] Creating layer BatchNorm_29
I0706 13:22:07.296991  4945 net.cpp:94] Creating Layer BatchNorm_29
I0706 13:22:07.296995  4945 net.cpp:435] BatchNorm_29 <- ConvNd_31
I0706 13:22:07.297000  4945 net.cpp:409] BatchNorm_29 -> BatchNorm_29
I0706 13:22:07.297456  4945 net.cpp:144] Setting up BatchNorm_29
I0706 13:22:07.297466  4945 net.cpp:151] Top shape: 7 128 64 64 (3670016)
I0706 13:22:07.297468  4945 net.cpp:159] Memory required for data: 2007498752
I0706 13:22:07.297494  4945 layer_factory.hpp:77] Creating layer Threshold_37
I0706 13:22:07.297502  4945 net.cpp:94] Creating Layer Threshold_37
I0706 13:22:07.297505  4945 net.cpp:435] Threshold_37 <- BatchNorm_29
I0706 13:22:07.297510  4945 net.cpp:396] Threshold_37 -> BatchNorm_29 (in-place)
I0706 13:22:07.297518  4945 net.cpp:144] Setting up Threshold_37
I0706 13:22:07.297523  4945 net.cpp:151] Top shape: 7 128 64 64 (3670016)
I0706 13:22:07.297526  4945 net.cpp:159] Memory required for data: 2022178816
I0706 13:22:07.297529  4945 layer_factory.hpp:77] Creating layer Add_9
I0706 13:22:07.297534  4945 net.cpp:94] Creating Layer Add_9
I0706 13:22:07.297540  4945 net.cpp:435] Add_9 <- Add_8_Threshold_33_0_split_1
I0706 13:22:07.297544  4945 net.cpp:435] Add_9 <- BatchNorm_29
I0706 13:22:07.297549  4945 net.cpp:409] Add_9 -> Add_9
I0706 13:22:07.297572  4945 net.cpp:144] Setting up Add_9
I0706 13:22:07.297580  4945 net.cpp:151] Top shape: 7 128 64 64 (3670016)
I0706 13:22:07.297582  4945 net.cpp:159] Memory required for data: 2036858880
I0706 13:22:07.297585  4945 layer_factory.hpp:77] Creating layer Threshold_38
I0706 13:22:07.297590  4945 net.cpp:94] Creating Layer Threshold_38
I0706 13:22:07.297595  4945 net.cpp:435] Threshold_38 <- Add_9
I0706 13:22:07.297600  4945 net.cpp:396] Threshold_38 -> Add_9 (in-place)
I0706 13:22:07.297605  4945 net.cpp:144] Setting up Threshold_38
I0706 13:22:07.297610  4945 net.cpp:151] Top shape: 7 128 64 64 (3670016)
I0706 13:22:07.297613  4945 net.cpp:159] Memory required for data: 2051538944
I0706 13:22:07.297616  4945 layer_factory.hpp:77] Creating layer Add_9_Threshold_38_0_split
I0706 13:22:07.297621  4945 net.cpp:94] Creating Layer Add_9_Threshold_38_0_split
I0706 13:22:07.297624  4945 net.cpp:435] Add_9_Threshold_38_0_split <- Add_9
I0706 13:22:07.297631  4945 net.cpp:409] Add_9_Threshold_38_0_split -> Add_9_Threshold_38_0_split_0
I0706 13:22:07.297636  4945 net.cpp:409] Add_9_Threshold_38_0_split -> Add_9_Threshold_38_0_split_1
I0706 13:22:07.297667  4945 net.cpp:144] Setting up Add_9_Threshold_38_0_split
I0706 13:22:07.297673  4945 net.cpp:151] Top shape: 7 128 64 64 (3670016)
I0706 13:22:07.297678  4945 net.cpp:151] Top shape: 7 128 64 64 (3670016)
I0706 13:22:07.297682  4945 net.cpp:159] Memory required for data: 2080899072
I0706 13:22:07.297684  4945 layer_factory.hpp:77] Creating layer ConvNd_32
I0706 13:22:07.297693  4945 net.cpp:94] Creating Layer ConvNd_32
I0706 13:22:07.297698  4945 net.cpp:435] ConvNd_32 <- Add_9_Threshold_38_0_split_0
I0706 13:22:07.297703  4945 net.cpp:409] ConvNd_32 -> ConvNd_32
I0706 13:22:07.297902  4945 net.cpp:144] Setting up ConvNd_32
I0706 13:22:07.297910  4945 net.cpp:151] Top shape: 7 32 64 64 (917504)
I0706 13:22:07.297914  4945 net.cpp:159] Memory required for data: 2084569088
I0706 13:22:07.297919  4945 layer_factory.hpp:77] Creating layer BatchNorm_30
I0706 13:22:07.297925  4945 net.cpp:94] Creating Layer BatchNorm_30
I0706 13:22:07.297930  4945 net.cpp:435] BatchNorm_30 <- ConvNd_32
I0706 13:22:07.297937  4945 net.cpp:409] BatchNorm_30 -> BatchNorm_30
I0706 13:22:07.298415  4945 net.cpp:144] Setting up BatchNorm_30
I0706 13:22:07.298424  4945 net.cpp:151] Top shape: 7 32 64 64 (917504)
I0706 13:22:07.298426  4945 net.cpp:159] Memory required for data: 2088239104
I0706 13:22:07.298436  4945 layer_factory.hpp:77] Creating layer Threshold_39
I0706 13:22:07.298442  4945 net.cpp:94] Creating Layer Threshold_39
I0706 13:22:07.298445  4945 net.cpp:435] Threshold_39 <- BatchNorm_30
I0706 13:22:07.298450  4945 net.cpp:396] Threshold_39 -> BatchNorm_30 (in-place)
I0706 13:22:07.298457  4945 net.cpp:144] Setting up Threshold_39
I0706 13:22:07.298462  4945 net.cpp:151] Top shape: 7 32 64 64 (917504)
I0706 13:22:07.298465  4945 net.cpp:159] Memory required for data: 2091909120
I0706 13:22:07.298468  4945 layer_factory.hpp:77] Creating layer ConvNd_33
I0706 13:22:07.298476  4945 net.cpp:94] Creating Layer ConvNd_33
I0706 13:22:07.298480  4945 net.cpp:435] ConvNd_33 <- BatchNorm_30
I0706 13:22:07.298485  4945 net.cpp:409] ConvNd_33 -> ConvNd_33
I0706 13:22:07.298743  4945 net.cpp:144] Setting up ConvNd_33
I0706 13:22:07.298751  4945 net.cpp:151] Top shape: 7 32 64 64 (917504)
I0706 13:22:07.298754  4945 net.cpp:159] Memory required for data: 2095579136
I0706 13:22:07.298759  4945 layer_factory.hpp:77] Creating layer BatchNorm_31
I0706 13:22:07.298769  4945 net.cpp:94] Creating Layer BatchNorm_31
I0706 13:22:07.298774  4945 net.cpp:435] BatchNorm_31 <- ConvNd_33
I0706 13:22:07.298780  4945 net.cpp:409] BatchNorm_31 -> BatchNorm_31
I0706 13:22:07.299257  4945 net.cpp:144] Setting up BatchNorm_31
I0706 13:22:07.299265  4945 net.cpp:151] Top shape: 7 32 64 64 (917504)
I0706 13:22:07.299268  4945 net.cpp:159] Memory required for data: 2099249152
I0706 13:22:07.299278  4945 layer_factory.hpp:77] Creating layer Threshold_40
I0706 13:22:07.299284  4945 net.cpp:94] Creating Layer Threshold_40
I0706 13:22:07.299288  4945 net.cpp:435] Threshold_40 <- BatchNorm_31
I0706 13:22:07.299293  4945 net.cpp:396] Threshold_40 -> BatchNorm_31 (in-place)
I0706 13:22:07.299299  4945 net.cpp:144] Setting up Threshold_40
I0706 13:22:07.299304  4945 net.cpp:151] Top shape: 7 32 64 64 (917504)
I0706 13:22:07.299306  4945 net.cpp:159] Memory required for data: 2102919168
I0706 13:22:07.299309  4945 layer_factory.hpp:77] Creating layer ConvNd_34
I0706 13:22:07.299316  4945 net.cpp:94] Creating Layer ConvNd_34
I0706 13:22:07.299320  4945 net.cpp:435] ConvNd_34 <- BatchNorm_31
I0706 13:22:07.299325  4945 net.cpp:409] ConvNd_34 -> ConvNd_34
I0706 13:22:07.299526  4945 net.cpp:144] Setting up ConvNd_34
I0706 13:22:07.299535  4945 net.cpp:151] Top shape: 7 128 64 64 (3670016)
I0706 13:22:07.299537  4945 net.cpp:159] Memory required for data: 2117599232
I0706 13:22:07.299541  4945 layer_factory.hpp:77] Creating layer BatchNorm_32
I0706 13:22:07.299549  4945 net.cpp:94] Creating Layer BatchNorm_32
I0706 13:22:07.299554  4945 net.cpp:435] BatchNorm_32 <- ConvNd_34
I0706 13:22:07.299561  4945 net.cpp:409] BatchNorm_32 -> BatchNorm_32
I0706 13:22:07.300012  4945 net.cpp:144] Setting up BatchNorm_32
I0706 13:22:07.300024  4945 net.cpp:151] Top shape: 7 128 64 64 (3670016)
I0706 13:22:07.300026  4945 net.cpp:159] Memory required for data: 2132279296
I0706 13:22:07.300035  4945 layer_factory.hpp:77] Creating layer Threshold_41
I0706 13:22:07.300041  4945 net.cpp:94] Creating Layer Threshold_41
I0706 13:22:07.300045  4945 net.cpp:435] Threshold_41 <- BatchNorm_32
I0706 13:22:07.300050  4945 net.cpp:396] Threshold_41 -> BatchNorm_32 (in-place)
I0706 13:22:07.300056  4945 net.cpp:144] Setting up Threshold_41
I0706 13:22:07.300060  4945 net.cpp:151] Top shape: 7 128 64 64 (3670016)
I0706 13:22:07.300063  4945 net.cpp:159] Memory required for data: 2146959360
I0706 13:22:07.300067  4945 layer_factory.hpp:77] Creating layer Add_10
I0706 13:22:07.300071  4945 net.cpp:94] Creating Layer Add_10
I0706 13:22:07.300076  4945 net.cpp:435] Add_10 <- Add_9_Threshold_38_0_split_1
I0706 13:22:07.300079  4945 net.cpp:435] Add_10 <- BatchNorm_32
I0706 13:22:07.300086  4945 net.cpp:409] Add_10 -> Add_10
I0706 13:22:07.300107  4945 net.cpp:144] Setting up Add_10
I0706 13:22:07.300112  4945 net.cpp:151] Top shape: 7 128 64 64 (3670016)
I0706 13:22:07.300115  4945 net.cpp:159] Memory required for data: 2161639424
I0706 13:22:07.300118  4945 layer_factory.hpp:77] Creating layer Threshold_42
I0706 13:22:07.300123  4945 net.cpp:94] Creating Layer Threshold_42
I0706 13:22:07.300127  4945 net.cpp:435] Threshold_42 <- Add_10
I0706 13:22:07.300132  4945 net.cpp:396] Threshold_42 -> Add_10 (in-place)
I0706 13:22:07.300137  4945 net.cpp:144] Setting up Threshold_42
I0706 13:22:07.300141  4945 net.cpp:151] Top shape: 7 128 64 64 (3670016)
I0706 13:22:07.300144  4945 net.cpp:159] Memory required for data: 2176319488
I0706 13:22:07.300148  4945 layer_factory.hpp:77] Creating layer Add_10_Threshold_42_0_split
I0706 13:22:07.300153  4945 net.cpp:94] Creating Layer Add_10_Threshold_42_0_split
I0706 13:22:07.300155  4945 net.cpp:435] Add_10_Threshold_42_0_split <- Add_10
I0706 13:22:07.300160  4945 net.cpp:409] Add_10_Threshold_42_0_split -> Add_10_Threshold_42_0_split_0
I0706 13:22:07.300176  4945 net.cpp:409] Add_10_Threshold_42_0_split -> Add_10_Threshold_42_0_split_1
I0706 13:22:07.300209  4945 net.cpp:144] Setting up Add_10_Threshold_42_0_split
I0706 13:22:07.300215  4945 net.cpp:151] Top shape: 7 128 64 64 (3670016)
I0706 13:22:07.300220  4945 net.cpp:151] Top shape: 7 128 64 64 (3670016)
I0706 13:22:07.300223  4945 net.cpp:159] Memory required for data: 2205679616
I0706 13:22:07.300226  4945 layer_factory.hpp:77] Creating layer ConvNd_35
I0706 13:22:07.300235  4945 net.cpp:94] Creating Layer ConvNd_35
I0706 13:22:07.300237  4945 net.cpp:435] ConvNd_35 <- Add_10_Threshold_42_0_split_0
I0706 13:22:07.300245  4945 net.cpp:409] ConvNd_35 -> ConvNd_35
I0706 13:22:07.300444  4945 net.cpp:144] Setting up ConvNd_35
I0706 13:22:07.300451  4945 net.cpp:151] Top shape: 7 32 64 64 (917504)
I0706 13:22:07.300456  4945 net.cpp:159] Memory required for data: 2209349632
I0706 13:22:07.300460  4945 layer_factory.hpp:77] Creating layer BatchNorm_33
I0706 13:22:07.300467  4945 net.cpp:94] Creating Layer BatchNorm_33
I0706 13:22:07.300472  4945 net.cpp:435] BatchNorm_33 <- ConvNd_35
I0706 13:22:07.300477  4945 net.cpp:409] BatchNorm_33 -> BatchNorm_33
I0706 13:22:07.300956  4945 net.cpp:144] Setting up BatchNorm_33
I0706 13:22:07.300964  4945 net.cpp:151] Top shape: 7 32 64 64 (917504)
I0706 13:22:07.300968  4945 net.cpp:159] Memory required for data: 2213019648
I0706 13:22:07.300976  4945 layer_factory.hpp:77] Creating layer Threshold_43
I0706 13:22:07.300983  4945 net.cpp:94] Creating Layer Threshold_43
I0706 13:22:07.300987  4945 net.cpp:435] Threshold_43 <- BatchNorm_33
I0706 13:22:07.300992  4945 net.cpp:396] Threshold_43 -> BatchNorm_33 (in-place)
I0706 13:22:07.300997  4945 net.cpp:144] Setting up Threshold_43
I0706 13:22:07.301002  4945 net.cpp:151] Top shape: 7 32 64 64 (917504)
I0706 13:22:07.301005  4945 net.cpp:159] Memory required for data: 2216689664
I0706 13:22:07.301008  4945 layer_factory.hpp:77] Creating layer ConvNd_36
I0706 13:22:07.301015  4945 net.cpp:94] Creating Layer ConvNd_36
I0706 13:22:07.301019  4945 net.cpp:435] ConvNd_36 <- BatchNorm_33
I0706 13:22:07.301025  4945 net.cpp:409] ConvNd_36 -> ConvNd_36
I0706 13:22:07.301283  4945 net.cpp:144] Setting up ConvNd_36
I0706 13:22:07.301293  4945 net.cpp:151] Top shape: 7 32 64 64 (917504)
I0706 13:22:07.301297  4945 net.cpp:159] Memory required for data: 2220359680
I0706 13:22:07.301302  4945 layer_factory.hpp:77] Creating layer BatchNorm_34
I0706 13:22:07.301309  4945 net.cpp:94] Creating Layer BatchNorm_34
I0706 13:22:07.301313  4945 net.cpp:435] BatchNorm_34 <- ConvNd_36
I0706 13:22:07.301321  4945 net.cpp:409] BatchNorm_34 -> BatchNorm_34
I0706 13:22:07.301798  4945 net.cpp:144] Setting up BatchNorm_34
I0706 13:22:07.301806  4945 net.cpp:151] Top shape: 7 32 64 64 (917504)
I0706 13:22:07.301810  4945 net.cpp:159] Memory required for data: 2224029696
I0706 13:22:07.301818  4945 layer_factory.hpp:77] Creating layer Threshold_44
I0706 13:22:07.301825  4945 net.cpp:94] Creating Layer Threshold_44
I0706 13:22:07.301827  4945 net.cpp:435] Threshold_44 <- BatchNorm_34
I0706 13:22:07.301832  4945 net.cpp:396] Threshold_44 -> BatchNorm_34 (in-place)
I0706 13:22:07.301839  4945 net.cpp:144] Setting up Threshold_44
I0706 13:22:07.301843  4945 net.cpp:151] Top shape: 7 32 64 64 (917504)
I0706 13:22:07.301846  4945 net.cpp:159] Memory required for data: 2227699712
I0706 13:22:07.301849  4945 layer_factory.hpp:77] Creating layer ConvNd_37
I0706 13:22:07.301857  4945 net.cpp:94] Creating Layer ConvNd_37
I0706 13:22:07.301861  4945 net.cpp:435] ConvNd_37 <- BatchNorm_34
I0706 13:22:07.301867  4945 net.cpp:409] ConvNd_37 -> ConvNd_37
I0706 13:22:07.302067  4945 net.cpp:144] Setting up ConvNd_37
I0706 13:22:07.302075  4945 net.cpp:151] Top shape: 7 128 64 64 (3670016)
I0706 13:22:07.302078  4945 net.cpp:159] Memory required for data: 2242379776
I0706 13:22:07.302083  4945 layer_factory.hpp:77] Creating layer BatchNorm_35
I0706 13:22:07.302089  4945 net.cpp:94] Creating Layer BatchNorm_35
I0706 13:22:07.302093  4945 net.cpp:435] BatchNorm_35 <- ConvNd_37
I0706 13:22:07.302109  4945 net.cpp:409] BatchNorm_35 -> BatchNorm_35
I0706 13:22:07.302543  4945 net.cpp:144] Setting up BatchNorm_35
I0706 13:22:07.302552  4945 net.cpp:151] Top shape: 7 128 64 64 (3670016)
I0706 13:22:07.302556  4945 net.cpp:159] Memory required for data: 2257059840
I0706 13:22:07.302572  4945 layer_factory.hpp:77] Creating layer Threshold_45
I0706 13:22:07.302577  4945 net.cpp:94] Creating Layer Threshold_45
I0706 13:22:07.302582  4945 net.cpp:435] Threshold_45 <- BatchNorm_35
I0706 13:22:07.302587  4945 net.cpp:396] Threshold_45 -> BatchNorm_35 (in-place)
I0706 13:22:07.302592  4945 net.cpp:144] Setting up Threshold_45
I0706 13:22:07.302597  4945 net.cpp:151] Top shape: 7 128 64 64 (3670016)
I0706 13:22:07.302599  4945 net.cpp:159] Memory required for data: 2271739904
I0706 13:22:07.302603  4945 layer_factory.hpp:77] Creating layer Add_11
I0706 13:22:07.302608  4945 net.cpp:94] Creating Layer Add_11
I0706 13:22:07.302613  4945 net.cpp:435] Add_11 <- Add_10_Threshold_42_0_split_1
I0706 13:22:07.302616  4945 net.cpp:435] Add_11 <- BatchNorm_35
I0706 13:22:07.302621  4945 net.cpp:409] Add_11 -> Add_11
I0706 13:22:07.302642  4945 net.cpp:144] Setting up Add_11
I0706 13:22:07.302649  4945 net.cpp:151] Top shape: 7 128 64 64 (3670016)
I0706 13:22:07.302651  4945 net.cpp:159] Memory required for data: 2286419968
I0706 13:22:07.302655  4945 layer_factory.hpp:77] Creating layer Threshold_46
I0706 13:22:07.302660  4945 net.cpp:94] Creating Layer Threshold_46
I0706 13:22:07.302664  4945 net.cpp:435] Threshold_46 <- Add_11
I0706 13:22:07.302667  4945 net.cpp:396] Threshold_46 -> Add_11 (in-place)
I0706 13:22:07.302675  4945 net.cpp:144] Setting up Threshold_46
I0706 13:22:07.302678  4945 net.cpp:151] Top shape: 7 128 64 64 (3670016)
I0706 13:22:07.302681  4945 net.cpp:159] Memory required for data: 2301100032
I0706 13:22:07.302685  4945 layer_factory.hpp:77] Creating layer Add_11_Threshold_46_0_split
I0706 13:22:07.302690  4945 net.cpp:94] Creating Layer Add_11_Threshold_46_0_split
I0706 13:22:07.302692  4945 net.cpp:435] Add_11_Threshold_46_0_split <- Add_11
I0706 13:22:07.302697  4945 net.cpp:409] Add_11_Threshold_46_0_split -> Add_11_Threshold_46_0_split_0
I0706 13:22:07.302703  4945 net.cpp:409] Add_11_Threshold_46_0_split -> Add_11_Threshold_46_0_split_1
I0706 13:22:07.302734  4945 net.cpp:144] Setting up Add_11_Threshold_46_0_split
I0706 13:22:07.302740  4945 net.cpp:151] Top shape: 7 128 64 64 (3670016)
I0706 13:22:07.302744  4945 net.cpp:151] Top shape: 7 128 64 64 (3670016)
I0706 13:22:07.302747  4945 net.cpp:159] Memory required for data: 2330460160
I0706 13:22:07.302750  4945 layer_factory.hpp:77] Creating layer ConvNd_38
I0706 13:22:07.302758  4945 net.cpp:94] Creating Layer ConvNd_38
I0706 13:22:07.302762  4945 net.cpp:435] ConvNd_38 <- Add_11_Threshold_46_0_split_0
I0706 13:22:07.302767  4945 net.cpp:409] ConvNd_38 -> ConvNd_38
I0706 13:22:07.302968  4945 net.cpp:144] Setting up ConvNd_38
I0706 13:22:07.302975  4945 net.cpp:151] Top shape: 7 32 64 64 (917504)
I0706 13:22:07.302978  4945 net.cpp:159] Memory required for data: 2334130176
I0706 13:22:07.302983  4945 layer_factory.hpp:77] Creating layer BatchNorm_36
I0706 13:22:07.302990  4945 net.cpp:94] Creating Layer BatchNorm_36
I0706 13:22:07.302994  4945 net.cpp:435] BatchNorm_36 <- ConvNd_38
I0706 13:22:07.302999  4945 net.cpp:409] BatchNorm_36 -> BatchNorm_36
I0706 13:22:07.303478  4945 net.cpp:144] Setting up BatchNorm_36
I0706 13:22:07.303488  4945 net.cpp:151] Top shape: 7 32 64 64 (917504)
I0706 13:22:07.303491  4945 net.cpp:159] Memory required for data: 2337800192
I0706 13:22:07.303499  4945 layer_factory.hpp:77] Creating layer Threshold_47
I0706 13:22:07.303504  4945 net.cpp:94] Creating Layer Threshold_47
I0706 13:22:07.303509  4945 net.cpp:435] Threshold_47 <- BatchNorm_36
I0706 13:22:07.303514  4945 net.cpp:396] Threshold_47 -> BatchNorm_36 (in-place)
I0706 13:22:07.303520  4945 net.cpp:144] Setting up Threshold_47
I0706 13:22:07.303524  4945 net.cpp:151] Top shape: 7 32 64 64 (917504)
I0706 13:22:07.303527  4945 net.cpp:159] Memory required for data: 2341470208
I0706 13:22:07.303539  4945 layer_factory.hpp:77] Creating layer ConvNd_39
I0706 13:22:07.303546  4945 net.cpp:94] Creating Layer ConvNd_39
I0706 13:22:07.303550  4945 net.cpp:435] ConvNd_39 <- BatchNorm_36
I0706 13:22:07.303556  4945 net.cpp:409] ConvNd_39 -> ConvNd_39
I0706 13:22:07.303822  4945 net.cpp:144] Setting up ConvNd_39
I0706 13:22:07.303830  4945 net.cpp:151] Top shape: 7 32 64 64 (917504)
I0706 13:22:07.303833  4945 net.cpp:159] Memory required for data: 2345140224
I0706 13:22:07.303839  4945 layer_factory.hpp:77] Creating layer BatchNorm_37
I0706 13:22:07.303845  4945 net.cpp:94] Creating Layer BatchNorm_37
I0706 13:22:07.303849  4945 net.cpp:435] BatchNorm_37 <- ConvNd_39
I0706 13:22:07.303854  4945 net.cpp:409] BatchNorm_37 -> BatchNorm_37
I0706 13:22:07.304332  4945 net.cpp:144] Setting up BatchNorm_37
I0706 13:22:07.304340  4945 net.cpp:151] Top shape: 7 32 64 64 (917504)
I0706 13:22:07.304343  4945 net.cpp:159] Memory required for data: 2348810240
I0706 13:22:07.304352  4945 layer_factory.hpp:77] Creating layer Threshold_48
I0706 13:22:07.304358  4945 net.cpp:94] Creating Layer Threshold_48
I0706 13:22:07.304361  4945 net.cpp:435] Threshold_48 <- BatchNorm_37
I0706 13:22:07.304366  4945 net.cpp:396] Threshold_48 -> BatchNorm_37 (in-place)
I0706 13:22:07.304373  4945 net.cpp:144] Setting up Threshold_48
I0706 13:22:07.304378  4945 net.cpp:151] Top shape: 7 32 64 64 (917504)
I0706 13:22:07.304380  4945 net.cpp:159] Memory required for data: 2352480256
I0706 13:22:07.304383  4945 layer_factory.hpp:77] Creating layer ConvNd_40
I0706 13:22:07.304390  4945 net.cpp:94] Creating Layer ConvNd_40
I0706 13:22:07.304395  4945 net.cpp:435] ConvNd_40 <- BatchNorm_37
I0706 13:22:07.304400  4945 net.cpp:409] ConvNd_40 -> ConvNd_40
I0706 13:22:07.304599  4945 net.cpp:144] Setting up ConvNd_40
I0706 13:22:07.304606  4945 net.cpp:151] Top shape: 7 128 64 64 (3670016)
I0706 13:22:07.304610  4945 net.cpp:159] Memory required for data: 2367160320
I0706 13:22:07.304615  4945 layer_factory.hpp:77] Creating layer BatchNorm_38
I0706 13:22:07.304621  4945 net.cpp:94] Creating Layer BatchNorm_38
I0706 13:22:07.304625  4945 net.cpp:435] BatchNorm_38 <- ConvNd_40
I0706 13:22:07.304631  4945 net.cpp:409] BatchNorm_38 -> BatchNorm_38
I0706 13:22:07.305083  4945 net.cpp:144] Setting up BatchNorm_38
I0706 13:22:07.305091  4945 net.cpp:151] Top shape: 7 128 64 64 (3670016)
I0706 13:22:07.305094  4945 net.cpp:159] Memory required for data: 2381840384
I0706 13:22:07.305104  4945 layer_factory.hpp:77] Creating layer Threshold_49
I0706 13:22:07.305110  4945 net.cpp:94] Creating Layer Threshold_49
I0706 13:22:07.305114  4945 net.cpp:435] Threshold_49 <- BatchNorm_38
I0706 13:22:07.305119  4945 net.cpp:396] Threshold_49 -> BatchNorm_38 (in-place)
I0706 13:22:07.305125  4945 net.cpp:144] Setting up Threshold_49
I0706 13:22:07.305130  4945 net.cpp:151] Top shape: 7 128 64 64 (3670016)
I0706 13:22:07.305132  4945 net.cpp:159] Memory required for data: 2396520448
I0706 13:22:07.305135  4945 layer_factory.hpp:77] Creating layer Add_12
I0706 13:22:07.305141  4945 net.cpp:94] Creating Layer Add_12
I0706 13:22:07.305145  4945 net.cpp:435] Add_12 <- Add_11_Threshold_46_0_split_1
I0706 13:22:07.305150  4945 net.cpp:435] Add_12 <- BatchNorm_38
I0706 13:22:07.305155  4945 net.cpp:409] Add_12 -> Add_12
I0706 13:22:07.305176  4945 net.cpp:144] Setting up Add_12
I0706 13:22:07.305182  4945 net.cpp:151] Top shape: 7 128 64 64 (3670016)
I0706 13:22:07.305186  4945 net.cpp:159] Memory required for data: 2411200512
I0706 13:22:07.305188  4945 layer_factory.hpp:77] Creating layer Threshold_50
I0706 13:22:07.305193  4945 net.cpp:94] Creating Layer Threshold_50
I0706 13:22:07.305197  4945 net.cpp:435] Threshold_50 <- Add_12
I0706 13:22:07.305202  4945 net.cpp:396] Threshold_50 -> Add_12 (in-place)
I0706 13:22:07.305207  4945 net.cpp:144] Setting up Threshold_50
I0706 13:22:07.305212  4945 net.cpp:151] Top shape: 7 128 64 64 (3670016)
I0706 13:22:07.305214  4945 net.cpp:159] Memory required for data: 2425880576
I0706 13:22:07.305227  4945 layer_factory.hpp:77] Creating layer Add_12_Threshold_50_0_split
I0706 13:22:07.305233  4945 net.cpp:94] Creating Layer Add_12_Threshold_50_0_split
I0706 13:22:07.305238  4945 net.cpp:435] Add_12_Threshold_50_0_split <- Add_12
I0706 13:22:07.305243  4945 net.cpp:409] Add_12_Threshold_50_0_split -> Add_12_Threshold_50_0_split_0
I0706 13:22:07.305248  4945 net.cpp:409] Add_12_Threshold_50_0_split -> Add_12_Threshold_50_0_split_1
I0706 13:22:07.305280  4945 net.cpp:144] Setting up Add_12_Threshold_50_0_split
I0706 13:22:07.305287  4945 net.cpp:151] Top shape: 7 128 64 64 (3670016)
I0706 13:22:07.305291  4945 net.cpp:151] Top shape: 7 128 64 64 (3670016)
I0706 13:22:07.305294  4945 net.cpp:159] Memory required for data: 2455240704
I0706 13:22:07.305297  4945 layer_factory.hpp:77] Creating layer ConvNd_41
I0706 13:22:07.305306  4945 net.cpp:94] Creating Layer ConvNd_41
I0706 13:22:07.305310  4945 net.cpp:435] ConvNd_41 <- Add_12_Threshold_50_0_split_0
I0706 13:22:07.305315  4945 net.cpp:409] ConvNd_41 -> ConvNd_41
I0706 13:22:07.305518  4945 net.cpp:144] Setting up ConvNd_41
I0706 13:22:07.305527  4945 net.cpp:151] Top shape: 7 32 64 64 (917504)
I0706 13:22:07.305531  4945 net.cpp:159] Memory required for data: 2458910720
I0706 13:22:07.305536  4945 layer_factory.hpp:77] Creating layer BatchNorm_39
I0706 13:22:07.305542  4945 net.cpp:94] Creating Layer BatchNorm_39
I0706 13:22:07.305546  4945 net.cpp:435] BatchNorm_39 <- ConvNd_41
I0706 13:22:07.305552  4945 net.cpp:409] BatchNorm_39 -> BatchNorm_39
I0706 13:22:07.306032  4945 net.cpp:144] Setting up BatchNorm_39
I0706 13:22:07.306041  4945 net.cpp:151] Top shape: 7 32 64 64 (917504)
I0706 13:22:07.306046  4945 net.cpp:159] Memory required for data: 2462580736
I0706 13:22:07.306053  4945 layer_factory.hpp:77] Creating layer Threshold_51
I0706 13:22:07.306059  4945 net.cpp:94] Creating Layer Threshold_51
I0706 13:22:07.306062  4945 net.cpp:435] Threshold_51 <- BatchNorm_39
I0706 13:22:07.306067  4945 net.cpp:396] Threshold_51 -> BatchNorm_39 (in-place)
I0706 13:22:07.306074  4945 net.cpp:144] Setting up Threshold_51
I0706 13:22:07.306078  4945 net.cpp:151] Top shape: 7 32 64 64 (917504)
I0706 13:22:07.306082  4945 net.cpp:159] Memory required for data: 2466250752
I0706 13:22:07.306085  4945 layer_factory.hpp:77] Creating layer ConvNd_42
I0706 13:22:07.306092  4945 net.cpp:94] Creating Layer ConvNd_42
I0706 13:22:07.306095  4945 net.cpp:435] ConvNd_42 <- BatchNorm_39
I0706 13:22:07.306100  4945 net.cpp:409] ConvNd_42 -> ConvNd_42
I0706 13:22:07.306313  4945 net.cpp:144] Setting up ConvNd_42
I0706 13:22:07.306321  4945 net.cpp:151] Top shape: 7 32 64 64 (917504)
I0706 13:22:07.306325  4945 net.cpp:159] Memory required for data: 2469920768
I0706 13:22:07.306329  4945 layer_factory.hpp:77] Creating layer BatchNorm_40
I0706 13:22:07.306337  4945 net.cpp:94] Creating Layer BatchNorm_40
I0706 13:22:07.306340  4945 net.cpp:435] BatchNorm_40 <- ConvNd_42
I0706 13:22:07.306346  4945 net.cpp:409] BatchNorm_40 -> BatchNorm_40
I0706 13:22:07.306828  4945 net.cpp:144] Setting up BatchNorm_40
I0706 13:22:07.306838  4945 net.cpp:151] Top shape: 7 32 64 64 (917504)
I0706 13:22:07.306840  4945 net.cpp:159] Memory required for data: 2473590784
I0706 13:22:07.306849  4945 layer_factory.hpp:77] Creating layer Threshold_52
I0706 13:22:07.306854  4945 net.cpp:94] Creating Layer Threshold_52
I0706 13:22:07.306859  4945 net.cpp:435] Threshold_52 <- BatchNorm_40
I0706 13:22:07.306864  4945 net.cpp:396] Threshold_52 -> BatchNorm_40 (in-place)
I0706 13:22:07.306869  4945 net.cpp:144] Setting up Threshold_52
I0706 13:22:07.306874  4945 net.cpp:151] Top shape: 7 32 64 64 (917504)
I0706 13:22:07.306877  4945 net.cpp:159] Memory required for data: 2477260800
I0706 13:22:07.306880  4945 layer_factory.hpp:77] Creating layer ConvNd_43
I0706 13:22:07.306887  4945 net.cpp:94] Creating Layer ConvNd_43
I0706 13:22:07.306890  4945 net.cpp:435] ConvNd_43 <- BatchNorm_40
I0706 13:22:07.306896  4945 net.cpp:409] ConvNd_43 -> ConvNd_43
I0706 13:22:07.307106  4945 net.cpp:144] Setting up ConvNd_43
I0706 13:22:07.307123  4945 net.cpp:151] Top shape: 7 32 64 64 (917504)
I0706 13:22:07.307126  4945 net.cpp:159] Memory required for data: 2480930816
I0706 13:22:07.307132  4945 layer_factory.hpp:77] Creating layer BatchNorm_41
I0706 13:22:07.307139  4945 net.cpp:94] Creating Layer BatchNorm_41
I0706 13:22:07.307142  4945 net.cpp:435] BatchNorm_41 <- ConvNd_43
I0706 13:22:07.307148  4945 net.cpp:409] BatchNorm_41 -> BatchNorm_41
I0706 13:22:07.307631  4945 net.cpp:144] Setting up BatchNorm_41
I0706 13:22:07.307641  4945 net.cpp:151] Top shape: 7 32 64 64 (917504)
I0706 13:22:07.307643  4945 net.cpp:159] Memory required for data: 2484600832
I0706 13:22:07.307652  4945 layer_factory.hpp:77] Creating layer Threshold_53
I0706 13:22:07.307658  4945 net.cpp:94] Creating Layer Threshold_53
I0706 13:22:07.307662  4945 net.cpp:435] Threshold_53 <- BatchNorm_41
I0706 13:22:07.307667  4945 net.cpp:396] Threshold_53 -> BatchNorm_41 (in-place)
I0706 13:22:07.307672  4945 net.cpp:144] Setting up Threshold_53
I0706 13:22:07.307677  4945 net.cpp:151] Top shape: 7 32 64 64 (917504)
I0706 13:22:07.307680  4945 net.cpp:159] Memory required for data: 2488270848
I0706 13:22:07.307683  4945 layer_factory.hpp:77] Creating layer ConvNd_44
I0706 13:22:07.307690  4945 net.cpp:94] Creating Layer ConvNd_44
I0706 13:22:07.307694  4945 net.cpp:435] ConvNd_44 <- BatchNorm_41
I0706 13:22:07.307700  4945 net.cpp:409] ConvNd_44 -> ConvNd_44
I0706 13:22:07.307924  4945 net.cpp:144] Setting up ConvNd_44
I0706 13:22:07.307931  4945 net.cpp:151] Top shape: 7 128 64 64 (3670016)
I0706 13:22:07.307935  4945 net.cpp:159] Memory required for data: 2502950912
I0706 13:22:07.307940  4945 layer_factory.hpp:77] Creating layer BatchNorm_42
I0706 13:22:07.307948  4945 net.cpp:94] Creating Layer BatchNorm_42
I0706 13:22:07.307951  4945 net.cpp:435] BatchNorm_42 <- ConvNd_44
I0706 13:22:07.307958  4945 net.cpp:409] BatchNorm_42 -> BatchNorm_42
I0706 13:22:07.308396  4945 net.cpp:144] Setting up BatchNorm_42
I0706 13:22:07.308404  4945 net.cpp:151] Top shape: 7 128 64 64 (3670016)
I0706 13:22:07.308408  4945 net.cpp:159] Memory required for data: 2517630976
I0706 13:22:07.308416  4945 layer_factory.hpp:77] Creating layer Threshold_54
I0706 13:22:07.308423  4945 net.cpp:94] Creating Layer Threshold_54
I0706 13:22:07.308426  4945 net.cpp:435] Threshold_54 <- BatchNorm_42
I0706 13:22:07.308431  4945 net.cpp:396] Threshold_54 -> BatchNorm_42 (in-place)
I0706 13:22:07.308439  4945 net.cpp:144] Setting up Threshold_54
I0706 13:22:07.308442  4945 net.cpp:151] Top shape: 7 128 64 64 (3670016)
I0706 13:22:07.308445  4945 net.cpp:159] Memory required for data: 2532311040
I0706 13:22:07.308449  4945 layer_factory.hpp:77] Creating layer Add_13
I0706 13:22:07.308454  4945 net.cpp:94] Creating Layer Add_13
I0706 13:22:07.308457  4945 net.cpp:435] Add_13 <- Add_12_Threshold_50_0_split_1
I0706 13:22:07.308461  4945 net.cpp:435] Add_13 <- BatchNorm_42
I0706 13:22:07.308466  4945 net.cpp:409] Add_13 -> Add_13
I0706 13:22:07.308488  4945 net.cpp:144] Setting up Add_13
I0706 13:22:07.308495  4945 net.cpp:151] Top shape: 7 128 64 64 (3670016)
I0706 13:22:07.308498  4945 net.cpp:159] Memory required for data: 2546991104
I0706 13:22:07.308501  4945 layer_factory.hpp:77] Creating layer Threshold_55
I0706 13:22:07.308507  4945 net.cpp:94] Creating Layer Threshold_55
I0706 13:22:07.308511  4945 net.cpp:435] Threshold_55 <- Add_13
I0706 13:22:07.308516  4945 net.cpp:396] Threshold_55 -> Add_13 (in-place)
I0706 13:22:07.308521  4945 net.cpp:144] Setting up Threshold_55
I0706 13:22:07.308526  4945 net.cpp:151] Top shape: 7 128 64 64 (3670016)
I0706 13:22:07.308528  4945 net.cpp:159] Memory required for data: 2561671168
I0706 13:22:07.308531  4945 layer_factory.hpp:77] Creating layer Add_13_Threshold_55_0_split
I0706 13:22:07.308537  4945 net.cpp:94] Creating Layer Add_13_Threshold_55_0_split
I0706 13:22:07.308540  4945 net.cpp:435] Add_13_Threshold_55_0_split <- Add_13
I0706 13:22:07.308545  4945 net.cpp:409] Add_13_Threshold_55_0_split -> Add_13_Threshold_55_0_split_0
I0706 13:22:07.308552  4945 net.cpp:409] Add_13_Threshold_55_0_split -> Add_13_Threshold_55_0_split_1
I0706 13:22:07.308593  4945 net.cpp:144] Setting up Add_13_Threshold_55_0_split
I0706 13:22:07.308600  4945 net.cpp:151] Top shape: 7 128 64 64 (3670016)
I0706 13:22:07.308604  4945 net.cpp:151] Top shape: 7 128 64 64 (3670016)
I0706 13:22:07.308607  4945 net.cpp:159] Memory required for data: 2591031296
I0706 13:22:07.308610  4945 layer_factory.hpp:77] Creating layer ConvNd_45
I0706 13:22:07.308619  4945 net.cpp:94] Creating Layer ConvNd_45
I0706 13:22:07.308624  4945 net.cpp:435] ConvNd_45 <- Add_13_Threshold_55_0_split_0
I0706 13:22:07.308629  4945 net.cpp:409] ConvNd_45 -> ConvNd_45
I0706 13:22:07.308835  4945 net.cpp:144] Setting up ConvNd_45
I0706 13:22:07.308842  4945 net.cpp:151] Top shape: 7 32 64 64 (917504)
I0706 13:22:07.308845  4945 net.cpp:159] Memory required for data: 2594701312
I0706 13:22:07.308851  4945 layer_factory.hpp:77] Creating layer BatchNorm_43
I0706 13:22:07.308857  4945 net.cpp:94] Creating Layer BatchNorm_43
I0706 13:22:07.308861  4945 net.cpp:435] BatchNorm_43 <- ConvNd_45
I0706 13:22:07.308867  4945 net.cpp:409] BatchNorm_43 -> BatchNorm_43
I0706 13:22:07.309370  4945 net.cpp:144] Setting up BatchNorm_43
I0706 13:22:07.309379  4945 net.cpp:151] Top shape: 7 32 64 64 (917504)
I0706 13:22:07.309383  4945 net.cpp:159] Memory required for data: 2598371328
I0706 13:22:07.309401  4945 layer_factory.hpp:77] Creating layer Threshold_56
I0706 13:22:07.309407  4945 net.cpp:94] Creating Layer Threshold_56
I0706 13:22:07.309412  4945 net.cpp:435] Threshold_56 <- BatchNorm_43
I0706 13:22:07.309417  4945 net.cpp:396] Threshold_56 -> BatchNorm_43 (in-place)
I0706 13:22:07.309424  4945 net.cpp:144] Setting up Threshold_56
I0706 13:22:07.309428  4945 net.cpp:151] Top shape: 7 32 64 64 (917504)
I0706 13:22:07.309432  4945 net.cpp:159] Memory required for data: 2602041344
I0706 13:22:07.309435  4945 layer_factory.hpp:77] Creating layer ConvNd_46
I0706 13:22:07.309442  4945 net.cpp:94] Creating Layer ConvNd_46
I0706 13:22:07.309445  4945 net.cpp:435] ConvNd_46 <- BatchNorm_43
I0706 13:22:07.309451  4945 net.cpp:409] ConvNd_46 -> ConvNd_46
I0706 13:22:07.309691  4945 net.cpp:144] Setting up ConvNd_46
I0706 13:22:07.309700  4945 net.cpp:151] Top shape: 7 32 64 64 (917504)
I0706 13:22:07.309702  4945 net.cpp:159] Memory required for data: 2605711360
I0706 13:22:07.309707  4945 layer_factory.hpp:77] Creating layer BatchNorm_44
I0706 13:22:07.309715  4945 net.cpp:94] Creating Layer BatchNorm_44
I0706 13:22:07.309717  4945 net.cpp:435] BatchNorm_44 <- ConvNd_46
I0706 13:22:07.309723  4945 net.cpp:409] BatchNorm_44 -> BatchNorm_44
I0706 13:22:07.310204  4945 net.cpp:144] Setting up BatchNorm_44
I0706 13:22:07.310214  4945 net.cpp:151] Top shape: 7 32 64 64 (917504)
I0706 13:22:07.310216  4945 net.cpp:159] Memory required for data: 2609381376
I0706 13:22:07.310225  4945 layer_factory.hpp:77] Creating layer Threshold_57
I0706 13:22:07.310230  4945 net.cpp:94] Creating Layer Threshold_57
I0706 13:22:07.310235  4945 net.cpp:435] Threshold_57 <- BatchNorm_44
I0706 13:22:07.310240  4945 net.cpp:396] Threshold_57 -> BatchNorm_44 (in-place)
I0706 13:22:07.310245  4945 net.cpp:144] Setting up Threshold_57
I0706 13:22:07.310250  4945 net.cpp:151] Top shape: 7 32 64 64 (917504)
I0706 13:22:07.310253  4945 net.cpp:159] Memory required for data: 2613051392
I0706 13:22:07.310256  4945 layer_factory.hpp:77] Creating layer ConvNd_47
I0706 13:22:07.310263  4945 net.cpp:94] Creating Layer ConvNd_47
I0706 13:22:07.310266  4945 net.cpp:435] ConvNd_47 <- BatchNorm_44
I0706 13:22:07.310273  4945 net.cpp:409] ConvNd_47 -> ConvNd_47
I0706 13:22:07.310472  4945 net.cpp:144] Setting up ConvNd_47
I0706 13:22:07.310479  4945 net.cpp:151] Top shape: 7 128 64 64 (3670016)
I0706 13:22:07.310482  4945 net.cpp:159] Memory required for data: 2627731456
I0706 13:22:07.310488  4945 layer_factory.hpp:77] Creating layer BatchNorm_45
I0706 13:22:07.310494  4945 net.cpp:94] Creating Layer BatchNorm_45
I0706 13:22:07.310498  4945 net.cpp:435] BatchNorm_45 <- ConvNd_47
I0706 13:22:07.310514  4945 net.cpp:409] BatchNorm_45 -> BatchNorm_45
I0706 13:22:07.310952  4945 net.cpp:144] Setting up BatchNorm_45
I0706 13:22:07.310961  4945 net.cpp:151] Top shape: 7 128 64 64 (3670016)
I0706 13:22:07.310964  4945 net.cpp:159] Memory required for data: 2642411520
I0706 13:22:07.310973  4945 layer_factory.hpp:77] Creating layer Threshold_58
I0706 13:22:07.310979  4945 net.cpp:94] Creating Layer Threshold_58
I0706 13:22:07.310982  4945 net.cpp:435] Threshold_58 <- BatchNorm_45
I0706 13:22:07.310987  4945 net.cpp:396] Threshold_58 -> BatchNorm_45 (in-place)
I0706 13:22:07.310993  4945 net.cpp:144] Setting up Threshold_58
I0706 13:22:07.310998  4945 net.cpp:151] Top shape: 7 128 64 64 (3670016)
I0706 13:22:07.311002  4945 net.cpp:159] Memory required for data: 2657091584
I0706 13:22:07.311004  4945 layer_factory.hpp:77] Creating layer Add_14
I0706 13:22:07.311009  4945 net.cpp:94] Creating Layer Add_14
I0706 13:22:07.311013  4945 net.cpp:435] Add_14 <- Add_13_Threshold_55_0_split_1
I0706 13:22:07.311017  4945 net.cpp:435] Add_14 <- BatchNorm_45
I0706 13:22:07.311022  4945 net.cpp:409] Add_14 -> Add_14
I0706 13:22:07.311044  4945 net.cpp:144] Setting up Add_14
I0706 13:22:07.311053  4945 net.cpp:151] Top shape: 7 128 64 64 (3670016)
I0706 13:22:07.311055  4945 net.cpp:159] Memory required for data: 2671771648
I0706 13:22:07.311058  4945 layer_factory.hpp:77] Creating layer Threshold_59
I0706 13:22:07.311062  4945 net.cpp:94] Creating Layer Threshold_59
I0706 13:22:07.311066  4945 net.cpp:435] Threshold_59 <- Add_14
I0706 13:22:07.311071  4945 net.cpp:396] Threshold_59 -> Add_14 (in-place)
I0706 13:22:07.311076  4945 net.cpp:144] Setting up Threshold_59
I0706 13:22:07.311080  4945 net.cpp:151] Top shape: 7 128 64 64 (3670016)
I0706 13:22:07.311084  4945 net.cpp:159] Memory required for data: 2686451712
I0706 13:22:07.311087  4945 layer_factory.hpp:77] Creating layer Add_14_Threshold_59_0_split
I0706 13:22:07.311092  4945 net.cpp:94] Creating Layer Add_14_Threshold_59_0_split
I0706 13:22:07.311095  4945 net.cpp:435] Add_14_Threshold_59_0_split <- Add_14
I0706 13:22:07.311100  4945 net.cpp:409] Add_14_Threshold_59_0_split -> Add_14_Threshold_59_0_split_0
I0706 13:22:07.311106  4945 net.cpp:409] Add_14_Threshold_59_0_split -> Add_14_Threshold_59_0_split_1
I0706 13:22:07.311136  4945 net.cpp:144] Setting up Add_14_Threshold_59_0_split
I0706 13:22:07.311143  4945 net.cpp:151] Top shape: 7 128 64 64 (3670016)
I0706 13:22:07.311147  4945 net.cpp:151] Top shape: 7 128 64 64 (3670016)
I0706 13:22:07.311151  4945 net.cpp:159] Memory required for data: 2715811840
I0706 13:22:07.311153  4945 layer_factory.hpp:77] Creating layer ConvNd_48
I0706 13:22:07.311161  4945 net.cpp:94] Creating Layer ConvNd_48
I0706 13:22:07.311166  4945 net.cpp:435] ConvNd_48 <- Add_14_Threshold_59_0_split_0
I0706 13:22:07.311172  4945 net.cpp:409] ConvNd_48 -> ConvNd_48
I0706 13:22:07.311370  4945 net.cpp:144] Setting up ConvNd_48
I0706 13:22:07.311378  4945 net.cpp:151] Top shape: 7 32 64 64 (917504)
I0706 13:22:07.311381  4945 net.cpp:159] Memory required for data: 2719481856
I0706 13:22:07.311386  4945 layer_factory.hpp:77] Creating layer BatchNorm_46
I0706 13:22:07.311393  4945 net.cpp:94] Creating Layer BatchNorm_46
I0706 13:22:07.311398  4945 net.cpp:435] BatchNorm_46 <- ConvNd_48
I0706 13:22:07.311403  4945 net.cpp:409] BatchNorm_46 -> BatchNorm_46
I0706 13:22:07.311900  4945 net.cpp:144] Setting up BatchNorm_46
I0706 13:22:07.311910  4945 net.cpp:151] Top shape: 7 32 64 64 (917504)
I0706 13:22:07.311913  4945 net.cpp:159] Memory required for data: 2723151872
I0706 13:22:07.311923  4945 layer_factory.hpp:77] Creating layer Threshold_60
I0706 13:22:07.311928  4945 net.cpp:94] Creating Layer Threshold_60
I0706 13:22:07.311931  4945 net.cpp:435] Threshold_60 <- BatchNorm_46
I0706 13:22:07.311938  4945 net.cpp:396] Threshold_60 -> BatchNorm_46 (in-place)
I0706 13:22:07.311944  4945 net.cpp:144] Setting up Threshold_60
I0706 13:22:07.311949  4945 net.cpp:151] Top shape: 7 32 64 64 (917504)
I0706 13:22:07.311951  4945 net.cpp:159] Memory required for data: 2726821888
I0706 13:22:07.311964  4945 layer_factory.hpp:77] Creating layer ConvNd_49
I0706 13:22:07.311972  4945 net.cpp:94] Creating Layer ConvNd_49
I0706 13:22:07.311975  4945 net.cpp:435] ConvNd_49 <- BatchNorm_46
I0706 13:22:07.311980  4945 net.cpp:409] ConvNd_49 -> ConvNd_49
I0706 13:22:07.312225  4945 net.cpp:144] Setting up ConvNd_49
I0706 13:22:07.312234  4945 net.cpp:151] Top shape: 7 32 64 64 (917504)
I0706 13:22:07.312237  4945 net.cpp:159] Memory required for data: 2730491904
I0706 13:22:07.312242  4945 layer_factory.hpp:77] Creating layer BatchNorm_47
I0706 13:22:07.312249  4945 net.cpp:94] Creating Layer BatchNorm_47
I0706 13:22:07.312253  4945 net.cpp:435] BatchNorm_47 <- ConvNd_49
I0706 13:22:07.312259  4945 net.cpp:409] BatchNorm_47 -> BatchNorm_47
I0706 13:22:07.312738  4945 net.cpp:144] Setting up BatchNorm_47
I0706 13:22:07.312747  4945 net.cpp:151] Top shape: 7 32 64 64 (917504)
I0706 13:22:07.312750  4945 net.cpp:159] Memory required for data: 2734161920
I0706 13:22:07.312759  4945 layer_factory.hpp:77] Creating layer Threshold_61
I0706 13:22:07.312764  4945 net.cpp:94] Creating Layer Threshold_61
I0706 13:22:07.312767  4945 net.cpp:435] Threshold_61 <- BatchNorm_47
I0706 13:22:07.312773  4945 net.cpp:396] Threshold_61 -> BatchNorm_47 (in-place)
I0706 13:22:07.312778  4945 net.cpp:144] Setting up Threshold_61
I0706 13:22:07.312783  4945 net.cpp:151] Top shape: 7 32 64 64 (917504)
I0706 13:22:07.312786  4945 net.cpp:159] Memory required for data: 2737831936
I0706 13:22:07.312790  4945 layer_factory.hpp:77] Creating layer ConvNd_50
I0706 13:22:07.312798  4945 net.cpp:94] Creating Layer ConvNd_50
I0706 13:22:07.312800  4945 net.cpp:435] ConvNd_50 <- BatchNorm_47
I0706 13:22:07.312805  4945 net.cpp:409] ConvNd_50 -> ConvNd_50
I0706 13:22:07.313006  4945 net.cpp:144] Setting up ConvNd_50
I0706 13:22:07.313014  4945 net.cpp:151] Top shape: 7 128 64 64 (3670016)
I0706 13:22:07.313017  4945 net.cpp:159] Memory required for data: 2752512000
I0706 13:22:07.313022  4945 layer_factory.hpp:77] Creating layer BatchNorm_48
I0706 13:22:07.313030  4945 net.cpp:94] Creating Layer BatchNorm_48
I0706 13:22:07.313035  4945 net.cpp:435] BatchNorm_48 <- ConvNd_50
I0706 13:22:07.313045  4945 net.cpp:409] BatchNorm_48 -> BatchNorm_48
I0706 13:22:07.313494  4945 net.cpp:144] Setting up BatchNorm_48
I0706 13:22:07.313503  4945 net.cpp:151] Top shape: 7 128 64 64 (3670016)
I0706 13:22:07.313506  4945 net.cpp:159] Memory required for data: 2767192064
I0706 13:22:07.313515  4945 layer_factory.hpp:77] Creating layer Threshold_62
I0706 13:22:07.313521  4945 net.cpp:94] Creating Layer Threshold_62
I0706 13:22:07.313525  4945 net.cpp:435] Threshold_62 <- BatchNorm_48
I0706 13:22:07.313529  4945 net.cpp:396] Threshold_62 -> BatchNorm_48 (in-place)
I0706 13:22:07.313536  4945 net.cpp:144] Setting up Threshold_62
I0706 13:22:07.313540  4945 net.cpp:151] Top shape: 7 128 64 64 (3670016)
I0706 13:22:07.313544  4945 net.cpp:159] Memory required for data: 2781872128
I0706 13:22:07.313546  4945 layer_factory.hpp:77] Creating layer Add_15
I0706 13:22:07.313551  4945 net.cpp:94] Creating Layer Add_15
I0706 13:22:07.313555  4945 net.cpp:435] Add_15 <- Add_14_Threshold_59_0_split_1
I0706 13:22:07.313560  4945 net.cpp:435] Add_15 <- BatchNorm_48
I0706 13:22:07.313565  4945 net.cpp:409] Add_15 -> Add_15
I0706 13:22:07.313586  4945 net.cpp:144] Setting up Add_15
I0706 13:22:07.313591  4945 net.cpp:151] Top shape: 7 128 64 64 (3670016)
I0706 13:22:07.313596  4945 net.cpp:159] Memory required for data: 2796552192
I0706 13:22:07.313598  4945 layer_factory.hpp:77] Creating layer Threshold_63
I0706 13:22:07.313603  4945 net.cpp:94] Creating Layer Threshold_63
I0706 13:22:07.313606  4945 net.cpp:435] Threshold_63 <- Add_15
I0706 13:22:07.313611  4945 net.cpp:396] Threshold_63 -> Add_15 (in-place)
I0706 13:22:07.313617  4945 net.cpp:144] Setting up Threshold_63
I0706 13:22:07.313621  4945 net.cpp:151] Top shape: 7 128 64 64 (3670016)
I0706 13:22:07.313624  4945 net.cpp:159] Memory required for data: 2811232256
I0706 13:22:07.313628  4945 layer_factory.hpp:77] Creating layer Add_15_Threshold_63_0_split
I0706 13:22:07.313642  4945 net.cpp:94] Creating Layer Add_15_Threshold_63_0_split
I0706 13:22:07.313645  4945 net.cpp:435] Add_15_Threshold_63_0_split <- Add_15
I0706 13:22:07.313650  4945 net.cpp:409] Add_15_Threshold_63_0_split -> Add_15_Threshold_63_0_split_0
I0706 13:22:07.313657  4945 net.cpp:409] Add_15_Threshold_63_0_split -> Add_15_Threshold_63_0_split_1
I0706 13:22:07.313689  4945 net.cpp:144] Setting up Add_15_Threshold_63_0_split
I0706 13:22:07.313696  4945 net.cpp:151] Top shape: 7 128 64 64 (3670016)
I0706 13:22:07.313700  4945 net.cpp:151] Top shape: 7 128 64 64 (3670016)
I0706 13:22:07.313704  4945 net.cpp:159] Memory required for data: 2840592384
I0706 13:22:07.313707  4945 layer_factory.hpp:77] Creating layer ConvNd_51
I0706 13:22:07.313715  4945 net.cpp:94] Creating Layer ConvNd_51
I0706 13:22:07.313719  4945 net.cpp:435] ConvNd_51 <- Add_15_Threshold_63_0_split_0
I0706 13:22:07.313725  4945 net.cpp:409] ConvNd_51 -> ConvNd_51
I0706 13:22:07.313928  4945 net.cpp:144] Setting up ConvNd_51
I0706 13:22:07.313936  4945 net.cpp:151] Top shape: 7 32 64 64 (917504)
I0706 13:22:07.313940  4945 net.cpp:159] Memory required for data: 2844262400
I0706 13:22:07.313946  4945 layer_factory.hpp:77] Creating layer BatchNorm_49
I0706 13:22:07.313952  4945 net.cpp:94] Creating Layer BatchNorm_49
I0706 13:22:07.313956  4945 net.cpp:435] BatchNorm_49 <- ConvNd_51
I0706 13:22:07.313961  4945 net.cpp:409] BatchNorm_49 -> BatchNorm_49
I0706 13:22:07.314441  4945 net.cpp:144] Setting up BatchNorm_49
I0706 13:22:07.314450  4945 net.cpp:151] Top shape: 7 32 64 64 (917504)
I0706 13:22:07.314452  4945 net.cpp:159] Memory required for data: 2847932416
I0706 13:22:07.314461  4945 layer_factory.hpp:77] Creating layer Threshold_64
I0706 13:22:07.314466  4945 net.cpp:94] Creating Layer Threshold_64
I0706 13:22:07.314471  4945 net.cpp:435] Threshold_64 <- BatchNorm_49
I0706 13:22:07.314476  4945 net.cpp:396] Threshold_64 -> BatchNorm_49 (in-place)
I0706 13:22:07.314481  4945 net.cpp:144] Setting up Threshold_64
I0706 13:22:07.314486  4945 net.cpp:151] Top shape: 7 32 64 64 (917504)
I0706 13:22:07.314488  4945 net.cpp:159] Memory required for data: 2851602432
I0706 13:22:07.314491  4945 layer_factory.hpp:77] Creating layer ConvNd_52
I0706 13:22:07.314498  4945 net.cpp:94] Creating Layer ConvNd_52
I0706 13:22:07.314502  4945 net.cpp:435] ConvNd_52 <- BatchNorm_49
I0706 13:22:07.314507  4945 net.cpp:409] ConvNd_52 -> ConvNd_52
I0706 13:22:07.314747  4945 net.cpp:144] Setting up ConvNd_52
I0706 13:22:07.314754  4945 net.cpp:151] Top shape: 7 32 64 64 (917504)
I0706 13:22:07.314759  4945 net.cpp:159] Memory required for data: 2855272448
I0706 13:22:07.314762  4945 layer_factory.hpp:77] Creating layer BatchNorm_50
I0706 13:22:07.314769  4945 net.cpp:94] Creating Layer BatchNorm_50
I0706 13:22:07.314772  4945 net.cpp:435] BatchNorm_50 <- ConvNd_52
I0706 13:22:07.314779  4945 net.cpp:409] BatchNorm_50 -> BatchNorm_50
I0706 13:22:07.315255  4945 net.cpp:144] Setting up BatchNorm_50
I0706 13:22:07.315264  4945 net.cpp:151] Top shape: 7 32 64 64 (917504)
I0706 13:22:07.315268  4945 net.cpp:159] Memory required for data: 2858942464
I0706 13:22:07.315276  4945 layer_factory.hpp:77] Creating layer Threshold_65
I0706 13:22:07.315281  4945 net.cpp:94] Creating Layer Threshold_65
I0706 13:22:07.315285  4945 net.cpp:435] Threshold_65 <- BatchNorm_50
I0706 13:22:07.315297  4945 net.cpp:396] Threshold_65 -> BatchNorm_50 (in-place)
I0706 13:22:07.315304  4945 net.cpp:144] Setting up Threshold_65
I0706 13:22:07.315309  4945 net.cpp:151] Top shape: 7 32 64 64 (917504)
I0706 13:22:07.315311  4945 net.cpp:159] Memory required for data: 2862612480
I0706 13:22:07.315315  4945 layer_factory.hpp:77] Creating layer ConvNd_53
I0706 13:22:07.315321  4945 net.cpp:94] Creating Layer ConvNd_53
I0706 13:22:07.315325  4945 net.cpp:435] ConvNd_53 <- BatchNorm_50
I0706 13:22:07.315330  4945 net.cpp:409] ConvNd_53 -> ConvNd_53
I0706 13:22:07.315531  4945 net.cpp:144] Setting up ConvNd_53
I0706 13:22:07.315538  4945 net.cpp:151] Top shape: 7 128 64 64 (3670016)
I0706 13:22:07.315551  4945 net.cpp:159] Memory required for data: 2877292544
I0706 13:22:07.315555  4945 layer_factory.hpp:77] Creating layer BatchNorm_51
I0706 13:22:07.315562  4945 net.cpp:94] Creating Layer BatchNorm_51
I0706 13:22:07.315565  4945 net.cpp:435] BatchNorm_51 <- ConvNd_53
I0706 13:22:07.315572  4945 net.cpp:409] BatchNorm_51 -> BatchNorm_51
I0706 13:22:07.316033  4945 net.cpp:144] Setting up BatchNorm_51
I0706 13:22:07.316042  4945 net.cpp:151] Top shape: 7 128 64 64 (3670016)
I0706 13:22:07.316046  4945 net.cpp:159] Memory required for data: 2891972608
I0706 13:22:07.316056  4945 layer_factory.hpp:77] Creating layer Threshold_66
I0706 13:22:07.316061  4945 net.cpp:94] Creating Layer Threshold_66
I0706 13:22:07.316064  4945 net.cpp:435] Threshold_66 <- BatchNorm_51
I0706 13:22:07.316069  4945 net.cpp:396] Threshold_66 -> BatchNorm_51 (in-place)
I0706 13:22:07.316076  4945 net.cpp:144] Setting up Threshold_66
I0706 13:22:07.316079  4945 net.cpp:151] Top shape: 7 128 64 64 (3670016)
I0706 13:22:07.316082  4945 net.cpp:159] Memory required for data: 2906652672
I0706 13:22:07.316087  4945 layer_factory.hpp:77] Creating layer Add_16
I0706 13:22:07.316092  4945 net.cpp:94] Creating Layer Add_16
I0706 13:22:07.316095  4945 net.cpp:435] Add_16 <- Add_15_Threshold_63_0_split_1
I0706 13:22:07.316099  4945 net.cpp:435] Add_16 <- BatchNorm_51
I0706 13:22:07.316104  4945 net.cpp:409] Add_16 -> Add_16
I0706 13:22:07.316126  4945 net.cpp:144] Setting up Add_16
I0706 13:22:07.316133  4945 net.cpp:151] Top shape: 7 128 64 64 (3670016)
I0706 13:22:07.316136  4945 net.cpp:159] Memory required for data: 2921332736
I0706 13:22:07.316140  4945 layer_factory.hpp:77] Creating layer Threshold_67
I0706 13:22:07.316144  4945 net.cpp:94] Creating Layer Threshold_67
I0706 13:22:07.316148  4945 net.cpp:435] Threshold_67 <- Add_16
I0706 13:22:07.316152  4945 net.cpp:396] Threshold_67 -> Add_16 (in-place)
I0706 13:22:07.316159  4945 net.cpp:144] Setting up Threshold_67
I0706 13:22:07.316162  4945 net.cpp:151] Top shape: 7 128 64 64 (3670016)
I0706 13:22:07.316165  4945 net.cpp:159] Memory required for data: 2936012800
I0706 13:22:07.316169  4945 layer_factory.hpp:77] Creating layer Add_16_Threshold_67_0_split
I0706 13:22:07.316174  4945 net.cpp:94] Creating Layer Add_16_Threshold_67_0_split
I0706 13:22:07.316176  4945 net.cpp:435] Add_16_Threshold_67_0_split <- Add_16
I0706 13:22:07.316181  4945 net.cpp:409] Add_16_Threshold_67_0_split -> Add_16_Threshold_67_0_split_0
I0706 13:22:07.316188  4945 net.cpp:409] Add_16_Threshold_67_0_split -> Add_16_Threshold_67_0_split_1
I0706 13:22:07.316218  4945 net.cpp:144] Setting up Add_16_Threshold_67_0_split
I0706 13:22:07.316224  4945 net.cpp:151] Top shape: 7 128 64 64 (3670016)
I0706 13:22:07.316228  4945 net.cpp:151] Top shape: 7 128 64 64 (3670016)
I0706 13:22:07.316231  4945 net.cpp:159] Memory required for data: 2965372928
I0706 13:22:07.316236  4945 layer_factory.hpp:77] Creating layer ConvNd_54
I0706 13:22:07.316243  4945 net.cpp:94] Creating Layer ConvNd_54
I0706 13:22:07.316246  4945 net.cpp:435] ConvNd_54 <- Add_16_Threshold_67_0_split_0
I0706 13:22:07.316252  4945 net.cpp:409] ConvNd_54 -> ConvNd_54
I0706 13:22:07.316453  4945 net.cpp:144] Setting up ConvNd_54
I0706 13:22:07.316462  4945 net.cpp:151] Top shape: 7 32 64 64 (917504)
I0706 13:22:07.316464  4945 net.cpp:159] Memory required for data: 2969042944
I0706 13:22:07.316469  4945 layer_factory.hpp:77] Creating layer BatchNorm_52
I0706 13:22:07.316478  4945 net.cpp:94] Creating Layer BatchNorm_52
I0706 13:22:07.316481  4945 net.cpp:435] BatchNorm_52 <- ConvNd_54
I0706 13:22:07.316488  4945 net.cpp:409] BatchNorm_52 -> BatchNorm_52
I0706 13:22:07.316967  4945 net.cpp:144] Setting up BatchNorm_52
I0706 13:22:07.316975  4945 net.cpp:151] Top shape: 7 32 64 64 (917504)
I0706 13:22:07.316978  4945 net.cpp:159] Memory required for data: 2972712960
I0706 13:22:07.316987  4945 layer_factory.hpp:77] Creating layer Threshold_68
I0706 13:22:07.316992  4945 net.cpp:94] Creating Layer Threshold_68
I0706 13:22:07.317006  4945 net.cpp:435] Threshold_68 <- BatchNorm_52
I0706 13:22:07.317011  4945 net.cpp:396] Threshold_68 -> BatchNorm_52 (in-place)
I0706 13:22:07.317018  4945 net.cpp:144] Setting up Threshold_68
I0706 13:22:07.317021  4945 net.cpp:151] Top shape: 7 32 64 64 (917504)
I0706 13:22:07.317025  4945 net.cpp:159] Memory required for data: 2976382976
I0706 13:22:07.317029  4945 layer_factory.hpp:77] Creating layer ConvNd_55
I0706 13:22:07.317039  4945 net.cpp:94] Creating Layer ConvNd_55
I0706 13:22:07.317044  4945 net.cpp:435] ConvNd_55 <- BatchNorm_52
I0706 13:22:07.317054  4945 net.cpp:409] ConvNd_55 -> ConvNd_55
I0706 13:22:07.317275  4945 net.cpp:144] Setting up ConvNd_55
I0706 13:22:07.317283  4945 net.cpp:151] Top shape: 7 32 64 64 (917504)
I0706 13:22:07.317286  4945 net.cpp:159] Memory required for data: 2980052992
I0706 13:22:07.317292  4945 layer_factory.hpp:77] Creating layer BatchNorm_53
I0706 13:22:07.317299  4945 net.cpp:94] Creating Layer BatchNorm_53
I0706 13:22:07.317302  4945 net.cpp:435] BatchNorm_53 <- ConvNd_55
I0706 13:22:07.317309  4945 net.cpp:409] BatchNorm_53 -> BatchNorm_53
I0706 13:22:07.317790  4945 net.cpp:144] Setting up BatchNorm_53
I0706 13:22:07.317800  4945 net.cpp:151] Top shape: 7 32 64 64 (917504)
I0706 13:22:07.317802  4945 net.cpp:159] Memory required for data: 2983723008
I0706 13:22:07.317811  4945 layer_factory.hpp:77] Creating layer Threshold_69
I0706 13:22:07.317816  4945 net.cpp:94] Creating Layer Threshold_69
I0706 13:22:07.317821  4945 net.cpp:435] Threshold_69 <- BatchNorm_53
I0706 13:22:07.317826  4945 net.cpp:396] Threshold_69 -> BatchNorm_53 (in-place)
I0706 13:22:07.317831  4945 net.cpp:144] Setting up Threshold_69
I0706 13:22:07.317836  4945 net.cpp:151] Top shape: 7 32 64 64 (917504)
I0706 13:22:07.317839  4945 net.cpp:159] Memory required for data: 2987393024
I0706 13:22:07.317842  4945 layer_factory.hpp:77] Creating layer ConvNd_56
I0706 13:22:07.317849  4945 net.cpp:94] Creating Layer ConvNd_56
I0706 13:22:07.317853  4945 net.cpp:435] ConvNd_56 <- BatchNorm_53
I0706 13:22:07.317858  4945 net.cpp:409] ConvNd_56 -> ConvNd_56
I0706 13:22:07.318064  4945 net.cpp:144] Setting up ConvNd_56
I0706 13:22:07.318073  4945 net.cpp:151] Top shape: 7 32 64 64 (917504)
I0706 13:22:07.318076  4945 net.cpp:159] Memory required for data: 2991063040
I0706 13:22:07.318080  4945 layer_factory.hpp:77] Creating layer BatchNorm_54
I0706 13:22:07.318087  4945 net.cpp:94] Creating Layer BatchNorm_54
I0706 13:22:07.318091  4945 net.cpp:435] BatchNorm_54 <- ConvNd_56
I0706 13:22:07.318097  4945 net.cpp:409] BatchNorm_54 -> BatchNorm_54
I0706 13:22:07.318576  4945 net.cpp:144] Setting up BatchNorm_54
I0706 13:22:07.318584  4945 net.cpp:151] Top shape: 7 32 64 64 (917504)
I0706 13:22:07.318588  4945 net.cpp:159] Memory required for data: 2994733056
I0706 13:22:07.318596  4945 layer_factory.hpp:77] Creating layer Threshold_70
I0706 13:22:07.318601  4945 net.cpp:94] Creating Layer Threshold_70
I0706 13:22:07.318605  4945 net.cpp:435] Threshold_70 <- BatchNorm_54
I0706 13:22:07.318609  4945 net.cpp:396] Threshold_70 -> BatchNorm_54 (in-place)
I0706 13:22:07.318616  4945 net.cpp:144] Setting up Threshold_70
I0706 13:22:07.318620  4945 net.cpp:151] Top shape: 7 32 64 64 (917504)
I0706 13:22:07.318624  4945 net.cpp:159] Memory required for data: 2998403072
I0706 13:22:07.318626  4945 layer_factory.hpp:77] Creating layer ConvNd_57
I0706 13:22:07.318634  4945 net.cpp:94] Creating Layer ConvNd_57
I0706 13:22:07.318637  4945 net.cpp:435] ConvNd_57 <- BatchNorm_54
I0706 13:22:07.318644  4945 net.cpp:409] ConvNd_57 -> ConvNd_57
I0706 13:22:07.318846  4945 net.cpp:144] Setting up ConvNd_57
I0706 13:22:07.318855  4945 net.cpp:151] Top shape: 7 128 64 64 (3670016)
I0706 13:22:07.318858  4945 net.cpp:159] Memory required for data: 3013083136
I0706 13:22:07.318862  4945 layer_factory.hpp:77] Creating layer BatchNorm_55
I0706 13:22:07.318869  4945 net.cpp:94] Creating Layer BatchNorm_55
I0706 13:22:07.318873  4945 net.cpp:435] BatchNorm_55 <- ConvNd_57
I0706 13:22:07.318878  4945 net.cpp:409] BatchNorm_55 -> BatchNorm_55
I0706 13:22:07.319334  4945 net.cpp:144] Setting up BatchNorm_55
I0706 13:22:07.319341  4945 net.cpp:151] Top shape: 7 128 64 64 (3670016)
I0706 13:22:07.319345  4945 net.cpp:159] Memory required for data: 3027763200
I0706 13:22:07.319355  4945 layer_factory.hpp:77] Creating layer Threshold_71
I0706 13:22:07.319360  4945 net.cpp:94] Creating Layer Threshold_71
I0706 13:22:07.319363  4945 net.cpp:435] Threshold_71 <- BatchNorm_55
I0706 13:22:07.319368  4945 net.cpp:396] Threshold_71 -> BatchNorm_55 (in-place)
I0706 13:22:07.319375  4945 net.cpp:144] Setting up Threshold_71
I0706 13:22:07.319380  4945 net.cpp:151] Top shape: 7 128 64 64 (3670016)
I0706 13:22:07.319382  4945 net.cpp:159] Memory required for data: 3042443264
I0706 13:22:07.319386  4945 layer_factory.hpp:77] Creating layer Add_17
I0706 13:22:07.319391  4945 net.cpp:94] Creating Layer Add_17
I0706 13:22:07.319394  4945 net.cpp:435] Add_17 <- Add_16_Threshold_67_0_split_1
I0706 13:22:07.319398  4945 net.cpp:435] Add_17 <- BatchNorm_55
I0706 13:22:07.319404  4945 net.cpp:409] Add_17 -> Add_17
I0706 13:22:07.319427  4945 net.cpp:144] Setting up Add_17
I0706 13:22:07.319432  4945 net.cpp:151] Top shape: 7 128 64 64 (3670016)
I0706 13:22:07.319435  4945 net.cpp:159] Memory required for data: 3057123328
I0706 13:22:07.319439  4945 layer_factory.hpp:77] Creating layer Threshold_72
I0706 13:22:07.319443  4945 net.cpp:94] Creating Layer Threshold_72
I0706 13:22:07.319447  4945 net.cpp:435] Threshold_72 <- Add_17
I0706 13:22:07.319452  4945 net.cpp:396] Threshold_72 -> Add_17 (in-place)
I0706 13:22:07.319458  4945 net.cpp:144] Setting up Threshold_72
I0706 13:22:07.319461  4945 net.cpp:151] Top shape: 7 128 64 64 (3670016)
I0706 13:22:07.319464  4945 net.cpp:159] Memory required for data: 3071803392
I0706 13:22:07.319468  4945 layer_factory.hpp:77] Creating layer Add_17_Threshold_72_0_split
I0706 13:22:07.319473  4945 net.cpp:94] Creating Layer Add_17_Threshold_72_0_split
I0706 13:22:07.319476  4945 net.cpp:435] Add_17_Threshold_72_0_split <- Add_17
I0706 13:22:07.319481  4945 net.cpp:409] Add_17_Threshold_72_0_split -> Add_17_Threshold_72_0_split_0
I0706 13:22:07.319487  4945 net.cpp:409] Add_17_Threshold_72_0_split -> Add_17_Threshold_72_0_split_1
I0706 13:22:07.319519  4945 net.cpp:144] Setting up Add_17_Threshold_72_0_split
I0706 13:22:07.319525  4945 net.cpp:151] Top shape: 7 128 64 64 (3670016)
I0706 13:22:07.319528  4945 net.cpp:151] Top shape: 7 128 64 64 (3670016)
I0706 13:22:07.319531  4945 net.cpp:159] Memory required for data: 3101163520
I0706 13:22:07.319535  4945 layer_factory.hpp:77] Creating layer ConvNd_58
I0706 13:22:07.319543  4945 net.cpp:94] Creating Layer ConvNd_58
I0706 13:22:07.319546  4945 net.cpp:435] ConvNd_58 <- Add_17_Threshold_72_0_split_0
I0706 13:22:07.319552  4945 net.cpp:409] ConvNd_58 -> ConvNd_58
I0706 13:22:07.319762  4945 net.cpp:144] Setting up ConvNd_58
I0706 13:22:07.319774  4945 net.cpp:151] Top shape: 7 32 64 64 (917504)
I0706 13:22:07.319779  4945 net.cpp:159] Memory required for data: 3104833536
I0706 13:22:07.319787  4945 layer_factory.hpp:77] Creating layer BatchNorm_56
I0706 13:22:07.319793  4945 net.cpp:94] Creating Layer BatchNorm_56
…
I0706 13:22:07.327987  4945 net.cpp:435] Threshold_85 <- BatchNorm_65
I0706 13:22:07.327992  4945 net.cpp:396] Threshold_85 -> BatchNorm_65 (in-place)
I0706 13:22:07.327998  4945 net.cpp:144] Setting up Threshold_85
I0706 13:22:07.328003  4945 net.cpp:151] Top shape: 7 32 64 64 (917504)
I0706 13:22:07.328006  4945 net.cpp:159] Memory required for data: 3486515200
I0706 13:22:07.328009  4945 layer_factory.hpp:77] Creating layer ConvNd_68
I0706 13:22:07.328016  4945 net.cpp:94] Creating Layer ConvNd_68
I0706 13:22:07.328020  4945 net.cpp:435] ConvNd_68 <- BatchNorm_65
I0706 13:22:07.328025  4945 net.cpp:409] ConvNd_68 -> ConvNd_68
I0706 13:22:07.328239  4945 net.cpp:144] Setting up ConvNd_68
I0706 13:22:07.328248  4945 net.cpp:151] Top shape: 7 32 64 64 (917504)
I0706 13:22:07.328250  4945 net.cpp:159] Memory required for data: 3490185216
I0706 13:22:07.328255  4945 layer_factory.hpp:77] Creating layer BatchNorm_66
I0706 13:22:07.328263  4945 net.cpp:94] Creating Layer BatchNorm_66
I0706 13:22:07.328266  4945 net.cpp:435] BatchNorm_66 <- ConvNd_68
I0706 13:22:07.328272  4945 net.cpp:409] BatchNorm_66 -> BatchNorm_66
I0706 13:22:07.328760  4945 net.cpp:144] Setting up BatchNorm_66
I0706 13:22:07.328768  4945 net.cpp:151] Top shape: 7 32 64 64 (917504)
I0706 13:22:07.328771  4945 net.cpp:159] Memory required for data: 3493855232
I0706 13:22:07.328781  4945 layer_factory.hpp:77] Creating layer Threshold_86
I0706 13:22:07.328786  4945 net.cpp:94] Creating Layer Threshold_86
I0706 13:22:07.328790  4945 net.cpp:435] Threshold_86 <- BatchNorm_66
I0706 13:22:07.328794  4945 net.cpp:396] Threshold_86 -> BatchNorm_66 (in-place)
I0706 13:22:07.328801  4945 net.cpp:144] Setting up Threshold_86
I0706 13:22:07.328805  4945 net.cpp:151] Top shape: 7 32 64 64 (917504)
I0706 13:22:07.328809  4945 net.cpp:159] Memory required for data: 3497525248
I0706 13:22:07.328811  4945 layer_factory.hpp:77] Creating layer ConvNd_69
I0706 13:22:07.328828  4945 net.cpp:94] Creating Layer ConvNd_69
I0706 13:22:07.328832  4945 net.cpp:435] ConvNd_69 <- BatchNorm_66
I0706 13:22:07.328837  4945 net.cpp:409] ConvNd_69 -> ConvNd_69
I0706 13:22:07.329048  4945 net.cpp:144] Setting up ConvNd_69
I0706 13:22:07.329057  4945 net.cpp:151] Top shape: 7 32 64 64 (917504)
I0706 13:22:07.329061  4945 net.cpp:159] Memory required for data: 3501195264
I0706 13:22:07.329066  4945 layer_factory.hpp:77] Creating layer BatchNorm_67
I0706 13:22:07.329075  4945 net.cpp:94] Creating Layer BatchNorm_67
I0706 13:22:07.329082  4945 net.cpp:435] BatchNorm_67 <- ConvNd_69
I0706 13:22:07.329090  4945 net.cpp:409] BatchNorm_67 -> BatchNorm_67
I0706 13:22:07.329584  4945 net.cpp:144] Setting up BatchNorm_67
I0706 13:22:07.329594  4945 net.cpp:151] Top shape: 7 32 64 64 (917504)
I0706 13:22:07.329598  4945 net.cpp:159] Memory required for data: 3504865280
I0706 13:22:07.329607  4945 layer_factory.hpp:77] Creating layer Threshold_87
I0706 13:22:07.329612  4945 net.cpp:94] Creating Layer Threshold_87
I0706 13:22:07.329617  4945 net.cpp:435] Threshold_87 <- BatchNorm_67
I0706 13:22:07.329622  4945 net.cpp:396] Threshold_87 -> BatchNorm_67 (in-place)
I0706 13:22:07.329628  4945 net.cpp:144] Setting up Threshold_87
I0706 13:22:07.329632  4945 net.cpp:151] Top shape: 7 32 64 64 (917504)
I0706 13:22:07.329635  4945 net.cpp:159] Memory required for data: 3508535296
I0706 13:22:07.329639  4945 layer_factory.hpp:77] Creating layer ConvNd_70
I0706 13:22:07.329646  4945 net.cpp:94] Creating Layer ConvNd_70
I0706 13:22:07.329649  4945 net.cpp:435] ConvNd_70 <- BatchNorm_67
I0706 13:22:07.329654  4945 net.cpp:409] ConvNd_70 -> ConvNd_70
I0706 13:22:07.329859  4945 net.cpp:144] Setting up ConvNd_70
I0706 13:22:07.329867  4945 net.cpp:151] Top shape: 7 128 64 64 (3670016)
I0706 13:22:07.329870  4945 net.cpp:159] Memory required for data: 3523215360
I0706 13:22:07.329875  4945 layer_factory.hpp:77] Creating layer BatchNorm_68
I0706 13:22:07.329883  4945 net.cpp:94] Creating Layer BatchNorm_68
I0706 13:22:07.329886  4945 net.cpp:435] BatchNorm_68 <- ConvNd_70
I0706 13:22:07.329892  4945 net.cpp:409] BatchNorm_68 -> BatchNorm_68
I0706 13:22:07.330332  4945 net.cpp:144] Setting up BatchNorm_68
I0706 13:22:07.330341  4945 net.cpp:151] Top shape: 7 128 64 64 (3670016)
I0706 13:22:07.330344  4945 net.cpp:159] Memory required for data: 3537895424
I0706 13:22:07.330353  4945 layer_factory.hpp:77] Creating layer Threshold_88
I0706 13:22:07.330358  4945 net.cpp:94] Creating Layer Threshold_88
I0706 13:22:07.330361  4945 net.cpp:435] Threshold_88 <- BatchNorm_68
I0706 13:22:07.330366  4945 net.cpp:396] Threshold_88 -> BatchNorm_68 (in-place)
I0706 13:22:07.330372  4945 net.cpp:144] Setting up Threshold_88
I0706 13:22:07.330376  4945 net.cpp:151] Top shape: 7 128 64 64 (3670016)
I0706 13:22:07.330380  4945 net.cpp:159] Memory required for data: 3552575488
I0706 13:22:07.330384  4945 layer_factory.hpp:77] Creating layer Add_21
I0706 13:22:07.330387  4945 net.cpp:94] Creating Layer Add_21
I0706 13:22:07.330391  4945 net.cpp:435] Add_21 <- Add_20_Threshold_84_0_split_1
I0706 13:22:07.330396  4945 net.cpp:435] Add_21 <- BatchNorm_68
I0706 13:22:07.330401  4945 net.cpp:409] Add_21 -> Add_21
I0706 13:22:07.330423  4945 net.cpp:144] Setting up Add_21
I0706 13:22:07.330430  4945 net.cpp:151] Top shape: 7 128 64 64 (3670016)
I0706 13:22:07.330433  4945 net.cpp:159] Memory required for data: 3567255552
I0706 13:22:07.330436  4945 layer_factory.hpp:77] Creating layer Threshold_89
I0706 13:22:07.330440  4945 net.cpp:94] Creating Layer Threshold_89
I0706 13:22:07.330444  4945 net.cpp:435] Threshold_89 <- Add_21
I0706 13:22:07.330449  4945 net.cpp:396] Threshold_89 -> Add_21 (in-place)
I0706 13:22:07.330456  4945 net.cpp:144] Setting up Threshold_89
I0706 13:22:07.330459  4945 net.cpp:151] Top shape: 7 128 64 64 (3670016)
I0706 13:22:07.330462  4945 net.cpp:159] Memory required for data: 3581935616
I0706 13:22:07.330466  4945 layer_factory.hpp:77] Creating layer Add_21_Threshold_89_0_split
I0706 13:22:07.330482  4945 net.cpp:94] Creating Layer Add_21_Threshold_89_0_split
I0706 13:22:07.330485  4945 net.cpp:435] Add_21_Threshold_89_0_split <- Add_21
I0706 13:22:07.330490  4945 net.cpp:409] Add_21_Threshold_89_0_split -> Add_21_Threshold_89_0_split_0
I0706 13:22:07.330497  4945 net.cpp:409] Add_21_Threshold_89_0_split -> Add_21_Threshold_89_0_split_1
I0706 13:22:07.330530  4945 net.cpp:144] Setting up Add_21_Threshold_89_0_split
I0706 13:22:07.330538  4945 net.cpp:151] Top shape: 7 128 64 64 (3670016)
I0706 13:22:07.330541  4945 net.cpp:151] Top shape: 7 128 64 64 (3670016)
I0706 13:22:07.330544  4945 net.cpp:159] Memory required for data: 3611295744
I0706 13:22:07.330548  4945 layer_factory.hpp:77] Creating layer ConvNd_71
I0706 13:22:07.330555  4945 net.cpp:94] Creating Layer ConvNd_71
I0706 13:22:07.330559  4945 net.cpp:435] ConvNd_71 <- Add_21_Threshold_89_0_split_0
I0706 13:22:07.330565  4945 net.cpp:409] ConvNd_71 -> ConvNd_71
I0706 13:22:07.330770  4945 net.cpp:144] Setting up ConvNd_71
I0706 13:22:07.330777  4945 net.cpp:151] Top shape: 7 32 64 64 (917504)
I0706 13:22:07.330780  4945 net.cpp:159] Memory required for data: 3614965760
I0706 13:22:07.330786  4945 layer_factory.hpp:77] Creating layer BatchNorm_69
I0706 13:22:07.330792  4945 net.cpp:94] Creating Layer BatchNorm_69
I0706 13:22:07.330796  4945 net.cpp:435] BatchNorm_69 <- ConvNd_71
I0706 13:22:07.330802  4945 net.cpp:409] BatchNorm_69 -> BatchNorm_69
I0706 13:22:07.331291  4945 net.cpp:144] Setting up BatchNorm_69
I0706 13:22:07.331300  4945 net.cpp:151] Top shape: 7 32 64 64 (917504)
I0706 13:22:07.331302  4945 net.cpp:159] Memory required for data: 3618635776
I0706 13:22:07.331311  4945 layer_factory.hpp:77] Creating layer Threshold_90
I0706 13:22:07.331316  4945 net.cpp:94] Creating Layer Threshold_90
I0706 13:22:07.331321  4945 net.cpp:435] Threshold_90 <- BatchNorm_69
I0706 13:22:07.331324  4945 net.cpp:396] Threshold_90 -> BatchNorm_69 (in-place)
I0706 13:22:07.331331  4945 net.cpp:144] Setting up Threshold_90
I0706 13:22:07.331336  4945 net.cpp:151] Top shape: 7 32 64 64 (917504)
I0706 13:22:07.331338  4945 net.cpp:159] Memory required for data: 3622305792
I0706 13:22:07.331341  4945 layer_factory.hpp:77] Creating layer ConvNd_72
I0706 13:22:07.331348  4945 net.cpp:94] Creating Layer ConvNd_72
I0706 13:22:07.331352  4945 net.cpp:435] ConvNd_72 <- BatchNorm_69
I0706 13:22:07.331357  4945 net.cpp:409] ConvNd_72 -> ConvNd_72
I0706 13:22:07.331600  4945 net.cpp:144] Setting up ConvNd_72
I0706 13:22:07.331609  4945 net.cpp:151] Top shape: 7 32 64 64 (917504)
I0706 13:22:07.331611  4945 net.cpp:159] Memory required for data: 3625975808
I0706 13:22:07.331616  4945 layer_factory.hpp:77] Creating layer BatchNorm_70
I0706 13:22:07.331622  4945 net.cpp:94] Creating Layer BatchNorm_70
I0706 13:22:07.331626  4945 net.cpp:435] BatchNorm_70 <- ConvNd_72
I0706 13:22:07.331632  4945 net.cpp:409] BatchNorm_70 -> BatchNorm_70
I0706 13:22:07.332134  4945 net.cpp:144] Setting up BatchNorm_70
I0706 13:22:07.332144  4945 net.cpp:151] Top shape: 7 32 64 64 (917504)
I0706 13:22:07.332146  4945 net.cpp:159] Memory required for data: 3629645824
I0706 13:22:07.332156  4945 layer_factory.hpp:77] Creating layer Threshold_91
I0706 13:22:07.332162  4945 net.cpp:94] Creating Layer Threshold_91
I0706 13:22:07.332166  4945 net.cpp:435] Threshold_91 <- BatchNorm_70
I0706 13:22:07.332171  4945 net.cpp:396] Threshold_91 -> BatchNorm_70 (in-place)
I0706 13:22:07.332178  4945 net.cpp:144] Setting up Threshold_91
I0706 13:22:07.332182  4945 net.cpp:151] Top shape: 7 32 64 64 (917504)
I0706 13:22:07.332185  4945 net.cpp:159] Memory required for data: 3633315840
I0706 13:22:07.332188  4945 layer_factory.hpp:77] Creating layer ConvNd_73
I0706 13:22:07.332196  4945 net.cpp:94] Creating Layer ConvNd_73
I0706 13:22:07.332199  4945 net.cpp:435] ConvNd_73 <- BatchNorm_70
I0706 13:22:07.332204  4945 net.cpp:409] ConvNd_73 -> ConvNd_73
I0706 13:22:07.332409  4945 net.cpp:144] Setting up ConvNd_73
I0706 13:22:07.332417  4945 net.cpp:151] Top shape: 7 128 64 64 (3670016)
I0706 13:22:07.332422  4945 net.cpp:159] Memory required for data: 3647995904
I0706 13:22:07.332435  4945 layer_factory.hpp:77] Creating layer BatchNorm_71
I0706 13:22:07.332442  4945 net.cpp:94] Creating Layer BatchNorm_71
I0706 13:22:07.332446  4945 net.cpp:435] BatchNorm_71 <- ConvNd_73
I0706 13:22:07.332453  4945 net.cpp:409] BatchNorm_71 -> BatchNorm_71
I0706 13:22:07.332897  4945 net.cpp:144] Setting up BatchNorm_71
I0706 13:22:07.332906  4945 net.cpp:151] Top shape: 7 128 64 64 (3670016)
I0706 13:22:07.332909  4945 net.cpp:159] Memory required for data: 3662675968
I0706 13:22:07.332918  4945 layer_factory.hpp:77] Creating layer Threshold_92
I0706 13:22:07.332923  4945 net.cpp:94] Creating Layer Threshold_92
I0706 13:22:07.332927  4945 net.cpp:435] Threshold_92 <- BatchNorm_71
I0706 13:22:07.332932  4945 net.cpp:396] Threshold_92 -> BatchNorm_71 (in-place)
I0706 13:22:07.332938  4945 net.cpp:144] Setting up Threshold_92
I0706 13:22:07.332942  4945 net.cpp:151] Top shape: 7 128 64 64 (3670016)
I0706 13:22:07.332945  4945 net.cpp:159] Memory required for data: 3677356032
I0706 13:22:07.332949  4945 layer_factory.hpp:77] Creating layer Add_22
I0706 13:22:07.332954  4945 net.cpp:94] Creating Layer Add_22
I0706 13:22:07.332958  4945 net.cpp:435] Add_22 <- Add_21_Threshold_89_0_split_1
I0706 13:22:07.332962  4945 net.cpp:435] Add_22 <- BatchNorm_71
I0706 13:22:07.332967  4945 net.cpp:409] Add_22 -> Add_22
I0706 13:22:07.332990  4945 net.cpp:144] Setting up Add_22
I0706 13:22:07.332996  4945 net.cpp:151] Top shape: 7 128 64 64 (3670016)
I0706 13:22:07.332999  4945 net.cpp:159] Memory required for data: 3692036096
I0706 13:22:07.333003  4945 layer_factory.hpp:77] Creating layer Threshold_93
I0706 13:22:07.333007  4945 net.cpp:94] Creating Layer Threshold_93
I0706 13:22:07.333011  4945 net.cpp:435] Threshold_93 <- Add_22
I0706 13:22:07.333029  4945 net.cpp:396] Threshold_93 -> Add_22 (in-place)
I0706 13:22:07.333039  4945 net.cpp:144] Setting up Threshold_93
I0706 13:22:07.333042  4945 net.cpp:151] Top shape: 7 128 64 64 (3670016)
I0706 13:22:07.333045  4945 net.cpp:159] Memory required for data: 3706716160
I0706 13:22:07.333048  4945 layer_factory.hpp:77] Creating layer Add_22_Threshold_93_0_split
I0706 13:22:07.333055  4945 net.cpp:94] Creating Layer Add_22_Threshold_93_0_split
I0706 13:22:07.333057  4945 net.cpp:435] Add_22_Threshold_93_0_split <- Add_22
I0706 13:22:07.333062  4945 net.cpp:409] Add_22_Threshold_93_0_split -> Add_22_Threshold_93_0_split_0
I0706 13:22:07.333070  4945 net.cpp:409] Add_22_Threshold_93_0_split -> Add_22_Threshold_93_0_split_1
I0706 13:22:07.333114  4945 net.cpp:144] Setting up Add_22_Threshold_93_0_split
I0706 13:22:07.333124  4945 net.cpp:151] Top shape: 7 128 64 64 (3670016)
I0706 13:22:07.333128  4945 net.cpp:151] Top shape: 7 128 64 64 (3670016)
I0706 13:22:07.333132  4945 net.cpp:159] Memory required for data: 3736076288
I0706 13:22:07.333134  4945 layer_factory.hpp:77] Creating layer ConvNd_74
I0706 13:22:07.333144  4945 net.cpp:94] Creating Layer ConvNd_74
I0706 13:22:07.333148  4945 net.cpp:435] ConvNd_74 <- Add_22_Threshold_93_0_split_0
I0706 13:22:07.333154  4945 net.cpp:409] ConvNd_74 -> ConvNd_74
I0706 13:22:07.333405  4945 net.cpp:144] Setting up ConvNd_74
I0706 13:22:07.333412  4945 net.cpp:151] Top shape: 7 64 64 64 (1835008)
I0706 13:22:07.333416  4945 net.cpp:159] Memory required for data: 3743416320
I0706 13:22:07.333420  4945 layer_factory.hpp:77] Creating layer BatchNorm_72
I0706 13:22:07.333431  4945 net.cpp:94] Creating Layer BatchNorm_72
I0706 13:22:07.333433  4945 net.cpp:435] BatchNorm_72 <- ConvNd_74
I0706 13:22:07.333439  4945 net.cpp:409] BatchNorm_72 -> BatchNorm_72
I0706 13:22:07.333956  4945 net.cpp:144] Setting up BatchNorm_72
I0706 13:22:07.333966  4945 net.cpp:151] Top shape: 7 64 64 64 (1835008)
I0706 13:22:07.333969  4945 net.cpp:159] Memory required for data: 3750756352
I0706 13:22:07.333978  4945 layer_factory.hpp:77] Creating layer UpsamplingBilinear2d_1
I0706 13:22:07.333987  4945 net.cpp:94] Creating Layer UpsamplingBilinear2d_1
I0706 13:22:07.333992  4945 net.cpp:435] UpsamplingBilinear2d_1 <- BatchNorm_72
I0706 13:22:07.334008  4945 net.cpp:409] UpsamplingBilinear2d_1 -> UpsamplingBilinear2d_1
I0706 13:22:07.334234  4945 net.cpp:144] Setting up UpsamplingBilinear2d_1
I0706 13:22:07.334242  4945 net.cpp:151] Top shape: 7 64 128 128 (7340032)
I0706 13:22:07.334246  4945 net.cpp:159] Memory required for data: 3780116480
I0706 13:22:07.334251  4945 layer_factory.hpp:77] Creating layer ConvNd_75
I0706 13:22:07.334259  4945 net.cpp:94] Creating Layer ConvNd_75
I0706 13:22:07.334262  4945 net.cpp:435] ConvNd_75 <- Add_22_Threshold_93_0_split_1
I0706 13:22:07.334272  4945 net.cpp:409] ConvNd_75 -> ConvNd_75
I0706 13:22:07.334488  4945 net.cpp:144] Setting up ConvNd_75
I0706 13:22:07.334496  4945 net.cpp:151] Top shape: 7 32 64 64 (917504)
I0706 13:22:07.334499  4945 net.cpp:159] Memory required for data: 3783786496
I0706 13:22:07.334504  4945 layer_factory.hpp:77] Creating layer BatchNorm_73
I0706 13:22:07.334511  4945 net.cpp:94] Creating Layer BatchNorm_73
I0706 13:22:07.334514  4945 net.cpp:435] BatchNorm_73 <- ConvNd_75
I0706 13:22:07.334522  4945 net.cpp:409] BatchNorm_73 -> BatchNorm_73
I0706 13:22:07.335029  4945 net.cpp:144] Setting up BatchNorm_73
I0706 13:22:07.335038  4945 net.cpp:151] Top shape: 7 32 64 64 (917504)
I0706 13:22:07.335041  4945 net.cpp:159] Memory required for data: 3787456512
I0706 13:22:07.335049  4945 layer_factory.hpp:77] Creating layer Threshold_94
I0706 13:22:07.335055  4945 net.cpp:94] Creating Layer Threshold_94
I0706 13:22:07.335058  4945 net.cpp:435] Threshold_94 <- BatchNorm_73
I0706 13:22:07.335065  4945 net.cpp:396] Threshold_94 -> BatchNorm_73 (in-place)
I0706 13:22:07.335072  4945 net.cpp:144] Setting up Threshold_94
I0706 13:22:07.335077  4945 net.cpp:151] Top shape: 7 32 64 64 (917504)
I0706 13:22:07.335079  4945 net.cpp:159] Memory required for data: 3791126528
I0706 13:22:07.335083  4945 layer_factory.hpp:77] Creating layer ConvNd_76
I0706 13:22:07.335089  4945 net.cpp:94] Creating Layer ConvNd_76
I0706 13:22:07.335094  4945 net.cpp:435] ConvNd_76 <- BatchNorm_73
I0706 13:22:07.335099  4945 net.cpp:409] ConvNd_76 -> ConvNd_76
I0706 13:22:07.335364  4945 net.cpp:144] Setting up ConvNd_76
I0706 13:22:07.335373  4945 net.cpp:151] Top shape: 7 32 128 128 (3670016)
I0706 13:22:07.335377  4945 net.cpp:159] Memory required for data: 3805806592
I0706 13:22:07.335383  4945 layer_factory.hpp:77] Creating layer BatchNorm_74
I0706 13:22:07.335391  4945 net.cpp:94] Creating Layer BatchNorm_74
I0706 13:22:07.335394  4945 net.cpp:435] BatchNorm_74 <- ConvNd_76
I0706 13:22:07.335400  4945 net.cpp:409] BatchNorm_74 -> BatchNorm_74
I0706 13:22:07.335938  4945 net.cpp:144] Setting up BatchNorm_74
I0706 13:22:07.335948  4945 net.cpp:151] Top shape: 7 32 128 128 (3670016)
I0706 13:22:07.335952  4945 net.cpp:159] Memory required for data: 3820486656
I0706 13:22:07.335961  4945 layer_factory.hpp:77] Creating layer Threshold_95
I0706 13:22:07.335968  4945 net.cpp:94] Creating Layer Threshold_95
I0706 13:22:07.335973  4945 net.cpp:435] Threshold_95 <- BatchNorm_74
I0706 13:22:07.335978  4945 net.cpp:396] Threshold_95 -> BatchNorm_74 (in-place)
I0706 13:22:07.335984  4945 net.cpp:144] Setting up Threshold_95
I0706 13:22:07.335989  4945 net.cpp:151] Top shape: 7 32 128 128 (3670016)
I0706 13:22:07.335992  4945 net.cpp:159] Memory required for data: 3835166720
I0706 13:22:07.335995  4945 layer_factory.hpp:77] Creating layer ConvNd_77
I0706 13:22:07.336004  4945 net.cpp:94] Creating Layer ConvNd_77
I0706 13:22:07.336007  4945 net.cpp:435] ConvNd_77 <- BatchNorm_74
I0706 13:22:07.336014  4945 net.cpp:409] ConvNd_77 -> ConvNd_77
I0706 13:22:07.336212  4945 net.cpp:144] Setting up ConvNd_77
I0706 13:22:07.336221  4945 net.cpp:151] Top shape: 7 64 128 128 (7340032)
I0706 13:22:07.336225  4945 net.cpp:159] Memory required for data: 3864526848
I0706 13:22:07.336228  4945 layer_factory.hpp:77] Creating layer BatchNorm_75
I0706 13:22:07.336236  4945 net.cpp:94] Creating Layer BatchNorm_75
I0706 13:22:07.336241  4945 net.cpp:435] BatchNorm_75 <- ConvNd_77
I0706 13:22:07.336247  4945 net.cpp:409] BatchNorm_75 -> BatchNorm_75
I0706 13:22:07.336776  4945 net.cpp:144] Setting up BatchNorm_75
I0706 13:22:07.336784  4945 net.cpp:151] Top shape: 7 64 128 128 (7340032)
I0706 13:22:07.336788  4945 net.cpp:159] Memory required for data: 3893886976
I0706 13:22:07.336796  4945 layer_factory.hpp:77] Creating layer Threshold_96
I0706 13:22:07.336807  4945 net.cpp:94] Creating Layer Threshold_96
I0706 13:22:07.336812  4945 net.cpp:435] Threshold_96 <- BatchNorm_75
I0706 13:22:07.336817  4945 net.cpp:396] Threshold_96 -> BatchNorm_75 (in-place)
I0706 13:22:07.336823  4945 net.cpp:144] Setting up Threshold_96
I0706 13:22:07.336829  4945 net.cpp:151] Top shape: 7 64 128 128 (7340032)
I0706 13:22:07.336833  4945 net.cpp:159] Memory required for data: 3923247104
I0706 13:22:07.336836  4945 layer_factory.hpp:77] Creating layer Add_23
I0706 13:22:07.336841  4945 net.cpp:94] Creating Layer Add_23
I0706 13:22:07.336845  4945 net.cpp:435] Add_23 <- UpsamplingBilinear2d_1
I0706 13:22:07.336849  4945 net.cpp:435] Add_23 <- BatchNorm_75
I0706 13:22:07.336854  4945 net.cpp:409] Add_23 -> Add_23
I0706 13:22:07.336879  4945 net.cpp:144] Setting up Add_23
I0706 13:22:07.336885  4945 net.cpp:151] Top shape: 7 64 128 128 (7340032)
I0706 13:22:07.336889  4945 net.cpp:159] Memory required for data: 3952607232
I0706 13:22:07.336892  4945 layer_factory.hpp:77] Creating layer Threshold_97
I0706 13:22:07.336897  4945 net.cpp:94] Creating Layer Threshold_97
I0706 13:22:07.336902  4945 net.cpp:435] Threshold_97 <- Add_23
I0706 13:22:07.336906  4945 net.cpp:396] Threshold_97 -> Add_23 (in-place)
I0706 13:22:07.336913  4945 net.cpp:144] Setting up Threshold_97
I0706 13:22:07.336917  4945 net.cpp:151] Top shape: 7 64 128 128 (7340032)
I0706 13:22:07.336920  4945 net.cpp:159] Memory required for data: 3981967360
I0706 13:22:07.336923  4945 layer_factory.hpp:77] Creating layer Add_23_Threshold_97_0_split
I0706 13:22:07.336930  4945 net.cpp:94] Creating Layer Add_23_Threshold_97_0_split
I0706 13:22:07.336932  4945 net.cpp:435] Add_23_Threshold_97_0_split <- Add_23
I0706 13:22:07.336938  4945 net.cpp:409] Add_23_Threshold_97_0_split -> Add_23_Threshold_97_0_split_0
I0706 13:22:07.336946  4945 net.cpp:409] Add_23_Threshold_97_0_split -> Add_23_Threshold_97_0_split_1
I0706 13:22:07.336979  4945 net.cpp:144] Setting up Add_23_Threshold_97_0_split
I0706 13:22:07.336987  4945 net.cpp:151] Top shape: 7 64 128 128 (7340032)
I0706 13:22:07.336990  4945 net.cpp:151] Top shape: 7 64 128 128 (7340032)
I0706 13:22:07.336993  4945 net.cpp:159] Memory required for data: 4040687616
I0706 13:22:07.336997  4945 layer_factory.hpp:77] Creating layer ConvNd_78
I0706 13:22:07.337005  4945 net.cpp:94] Creating Layer ConvNd_78
I0706 13:22:07.337009  4945 net.cpp:435] ConvNd_78 <- Add_23_Threshold_97_0_split_0
I0706 13:22:07.337016  4945 net.cpp:409] ConvNd_78 -> ConvNd_78
I0706 13:22:07.337220  4945 net.cpp:144] Setting up ConvNd_78
I0706 13:22:07.337229  4945 net.cpp:151] Top shape: 7 16 128 128 (1835008)
I0706 13:22:07.337234  4945 net.cpp:159] Memory required for data: 4048027648
I0706 13:22:07.337239  4945 layer_factory.hpp:77] Creating layer BatchNorm_76
I0706 13:22:07.337245  4945 net.cpp:94] Creating Layer BatchNorm_76
I0706 13:22:07.337249  4945 net.cpp:435] BatchNorm_76 <- ConvNd_78
I0706 13:22:07.337256  4945 net.cpp:409] BatchNorm_76 -> BatchNorm_76
I0706 13:22:07.337785  4945 net.cpp:144] Setting up BatchNorm_76
I0706 13:22:07.337795  4945 net.cpp:151] Top shape: 7 16 128 128 (1835008)
I0706 13:22:07.337797  4945 net.cpp:159] Memory required for data: 4055367680
I0706 13:22:07.337806  4945 layer_factory.hpp:77] Creating layer Threshold_98
I0706 13:22:07.337813  4945 net.cpp:94] Creating Layer Threshold_98
I0706 13:22:07.337817  4945 net.cpp:435] Threshold_98 <- BatchNorm_76
I0706 13:22:07.337822  4945 net.cpp:396] Threshold_98 -> BatchNorm_76 (in-place)
I0706 13:22:07.337828  4945 net.cpp:144] Setting up Threshold_98
I0706 13:22:07.337832  4945 net.cpp:151] Top shape: 7 16 128 128 (1835008)
I0706 13:22:07.337836  4945 net.cpp:159] Memory required for data: 4062707712
I0706 13:22:07.337849  4945 layer_factory.hpp:77] Creating layer ConvNd_79
I0706 13:22:07.337858  4945 net.cpp:94] Creating Layer ConvNd_79
I0706 13:22:07.337862  4945 net.cpp:435] ConvNd_79 <- BatchNorm_76
I0706 13:22:07.337869  4945 net.cpp:409] ConvNd_79 -> ConvNd_79
I0706 13:22:07.338070  4945 net.cpp:144] Setting up ConvNd_79
I0706 13:22:07.338078  4945 net.cpp:151] Top shape: 7 16 128 128 (1835008)
I0706 13:22:07.338081  4945 net.cpp:159] Memory required for data: 4070047744
I0706 13:22:07.338088  4945 layer_factory.hpp:77] Creating layer BatchNorm_77
I0706 13:22:07.338093  4945 net.cpp:94] Creating Layer BatchNorm_77
I0706 13:22:07.338097  4945 net.cpp:435] BatchNorm_77 <- ConvNd_79
I0706 13:22:07.338104  4945 net.cpp:409] BatchNorm_77 -> BatchNorm_77
I0706 13:22:07.338631  4945 net.cpp:144] Setting up BatchNorm_77
I0706 13:22:07.338639  4945 net.cpp:151] Top shape: 7 16 128 128 (1835008)
I0706 13:22:07.338642  4945 net.cpp:159] Memory required for data: 4077387776
I0706 13:22:07.338651  4945 layer_factory.hpp:77] Creating layer Threshold_99
I0706 13:22:07.338657  4945 net.cpp:94] Creating Layer Threshold_99
I0706 13:22:07.338660  4945 net.cpp:435] Threshold_99 <- BatchNorm_77
I0706 13:22:07.338666  4945 net.cpp:396] Threshold_99 -> BatchNorm_77 (in-place)
I0706 13:22:07.338673  4945 net.cpp:144] Setting up Threshold_99
I0706 13:22:07.338678  4945 net.cpp:151] Top shape: 7 16 128 128 (1835008)
I0706 13:22:07.338681  4945 net.cpp:159] Memory required for data: 4084727808
I0706 13:22:07.338685  4945 layer_factory.hpp:77] Creating layer ConvNd_80
I0706 13:22:07.338692  4945 net.cpp:94] Creating Layer ConvNd_80
I0706 13:22:07.338696  4945 net.cpp:435] ConvNd_80 <- BatchNorm_77
I0706 13:22:07.338703  4945 net.cpp:409] ConvNd_80 -> ConvNd_80
I0706 13:22:07.338891  4945 net.cpp:144] Setting up ConvNd_80
I0706 13:22:07.338899  4945 net.cpp:151] Top shape: 7 64 128 128 (7340032)
I0706 13:22:07.338903  4945 net.cpp:159] Memory required for data: 4114087936
I0706 13:22:07.338907  4945 layer_factory.hpp:77] Creating layer BatchNorm_78
I0706 13:22:07.338914  4945 net.cpp:94] Creating Layer BatchNorm_78
I0706 13:22:07.338918  4945 net.cpp:435] BatchNorm_78 <- ConvNd_80
I0706 13:22:07.338925  4945 net.cpp:409] BatchNorm_78 -> BatchNorm_78
I0706 13:22:07.340256  4945 net.cpp:144] Setting up BatchNorm_78
I0706 13:22:07.340270  4945 net.cpp:151] Top shape: 7 64 128 128 (7340032)
I0706 13:22:07.340272  4945 net.cpp:159] Memory required for data: 4143448064
I0706 13:22:07.340282  4945 layer_factory.hpp:77] Creating layer Threshold_100
I0706 13:22:07.340291  4945 net.cpp:94] Creating Layer Threshold_100
I0706 13:22:07.340294  4945 net.cpp:435] Threshold_100 <- BatchNorm_78
I0706 13:22:07.340299  4945 net.cpp:396] Threshold_100 -> BatchNorm_78 (in-place)
I0706 13:22:07.340307  4945 net.cpp:144] Setting up Threshold_100
I0706 13:22:07.340312  4945 net.cpp:151] Top shape: 7 64 128 128 (7340032)
I0706 13:22:07.340315  4945 net.cpp:159] Memory required for data: 4172808192
I0706 13:22:07.340318  4945 layer_factory.hpp:77] Creating layer Add_24
I0706 13:22:07.340327  4945 net.cpp:94] Creating Layer Add_24
I0706 13:22:07.340330  4945 net.cpp:435] Add_24 <- Add_23_Threshold_97_0_split_1
I0706 13:22:07.340335  4945 net.cpp:435] Add_24 <- BatchNorm_78
I0706 13:22:07.340340  4945 net.cpp:409] Add_24 -> Add_24
I0706 13:22:07.340368  4945 net.cpp:144] Setting up Add_24
I0706 13:22:07.340374  4945 net.cpp:151] Top shape: 7 64 128 128 (7340032)
I0706 13:22:07.340378  4945 net.cpp:159] Memory required for data: 4202168320
I0706 13:22:07.340380  4945 layer_factory.hpp:77] Creating layer Threshold_101
I0706 13:22:07.340385  4945 net.cpp:94] Creating Layer Threshold_101
I0706 13:22:07.340389  4945 net.cpp:435] Threshold_101 <- Add_24
I0706 13:22:07.340395  4945 net.cpp:396] Threshold_101 -> Add_24 (in-place)
I0706 13:22:07.340400  4945 net.cpp:144] Setting up Threshold_101
I0706 13:22:07.340405  4945 net.cpp:151] Top shape: 7 64 128 128 (7340032)
I0706 13:22:07.340409  4945 net.cpp:159] Memory required for data: 4231528448
I0706 13:22:07.340411  4945 layer_factory.hpp:77] Creating layer Add_24_Threshold_101_0_split
I0706 13:22:07.340426  4945 net.cpp:94] Creating Layer Add_24_Threshold_101_0_split
I0706 13:22:07.340432  4945 net.cpp:435] Add_24_Threshold_101_0_split <- Add_24
I0706 13:22:07.340437  4945 net.cpp:409] Add_24_Threshold_101_0_split -> Add_24_Threshold_101_0_split_0
I0706 13:22:07.340445  4945 net.cpp:409] Add_24_Threshold_101_0_split -> Add_24_Threshold_101_0_split_1
I0706 13:22:07.340482  4945 net.cpp:144] Setting up Add_24_Threshold_101_0_split
I0706 13:22:07.340488  4945 net.cpp:151] Top shape: 7 64 128 128 (7340032)
I0706 13:22:07.340492  4945 net.cpp:151] Top shape: 7 64 128 128 (7340032)
I0706 13:22:07.340495  4945 net.cpp:159] Memory required for data: 4290248704
I0706 13:22:07.340498  4945 layer_factory.hpp:77] Creating layer ConvNd_81
I0706 13:22:07.340509  4945 net.cpp:94] Creating Layer ConvNd_81
I0706 13:22:07.340512  4945 net.cpp:435] ConvNd_81 <- Add_24_Threshold_101_0_split_0
I0706 13:22:07.340520  4945 net.cpp:409] ConvNd_81 -> ConvNd_81
I0706 13:22:07.340708  4945 net.cpp:144] Setting up ConvNd_81
I0706 13:22:07.340715  4945 net.cpp:151] Top shape: 7 16 128 128 (1835008)
I0706 13:22:07.340718  4945 net.cpp:159] Memory required for data: 4297588736
I0706 13:22:07.340723  4945 layer_factory.hpp:77] Creating layer BatchNorm_79
I0706 13:22:07.340731  4945 net.cpp:94] Creating Layer BatchNorm_79
I0706 13:22:07.340736  4945 net.cpp:435] BatchNorm_79 <- ConvNd_81
I0706 13:22:07.340741  4945 net.cpp:409] BatchNorm_79 -> BatchNorm_79
I0706 13:22:07.341276  4945 net.cpp:144] Setting up BatchNorm_79
I0706 13:22:07.341285  4945 net.cpp:151] Top shape: 7 16 128 128 (1835008)
I0706 13:22:07.341289  4945 net.cpp:159] Memory required for data: 4304928768
I0706 13:22:07.341298  4945 layer_factory.hpp:77] Creating layer Threshold_102
I0706 13:22:07.341305  4945 net.cpp:94] Creating Layer Threshold_102
I0706 13:22:07.341308  4945 net.cpp:435] Threshold_102 <- BatchNorm_79
I0706 13:22:07.341315  4945 net.cpp:396] Threshold_102 -> BatchNorm_79 (in-place)
I0706 13:22:07.341321  4945 net.cpp:144] Setting up Threshold_102
I0706 13:22:07.341325  4945 net.cpp:151] Top shape: 7 16 128 128 (1835008)
I0706 13:22:07.341328  4945 net.cpp:159] Memory required for data: 4312268800
I0706 13:22:07.341331  4945 layer_factory.hpp:77] Creating layer ConvNd_82
I0706 13:22:07.341341  4945 net.cpp:94] Creating Layer ConvNd_82
I0706 13:22:07.341344  4945 net.cpp:435] ConvNd_82 <- BatchNorm_79
I0706 13:22:07.341351  4945 net.cpp:409] ConvNd_82 -> ConvNd_82
I0706 13:22:07.341555  4945 net.cpp:144] Setting up ConvNd_82
I0706 13:22:07.341562  4945 net.cpp:151] Top shape: 7 16 128 128 (1835008)
I0706 13:22:07.341565  4945 net.cpp:159] Memory required for data: 4319608832
I0706 13:22:07.341569  4945 layer_factory.hpp:77] Creating layer BatchNorm_80
I0706 13:22:07.341578  4945 net.cpp:94] Creating Layer BatchNorm_80
I0706 13:22:07.341583  4945 net.cpp:435] BatchNorm_80 <- ConvNd_82
I0706 13:22:07.341588  4945 net.cpp:409] BatchNorm_80 -> BatchNorm_80
I0706 13:22:07.342103  4945 net.cpp:144] Setting up BatchNorm_80
I0706 13:22:07.342109  4945 net.cpp:151] Top shape: 7 16 128 128 (1835008)
I0706 13:22:07.342113  4945 net.cpp:159] Memory required for data: 4326948864
I0706 13:22:07.342121  4945 layer_factory.hpp:77] Creating layer Threshold_103
I0706 13:22:07.342128  4945 net.cpp:94] Creating Layer Threshold_103
I0706 13:22:07.342133  4945 net.cpp:435] Threshold_103 <- BatchNorm_80
I0706 13:22:07.342137  4945 net.cpp:396] Threshold_103 -> BatchNorm_80 (in-place)
I0706 13:22:07.342144  4945 net.cpp:144] Setting up Threshold_103
I0706 13:22:07.342147  4945 net.cpp:151] Top shape: 7 16 128 128 (1835008)
I0706 13:22:07.342151  4945 net.cpp:159] Memory required for data: 4334288896
I0706 13:22:07.342154  4945 layer_factory.hpp:77] Creating layer ConvNd_83
I0706 13:22:07.342164  4945 net.cpp:94] Creating Layer ConvNd_83
I0706 13:22:07.342166  4945 net.cpp:435] ConvNd_83 <- BatchNorm_80
I0706 13:22:07.342173  4945 net.cpp:409] ConvNd_83 -> ConvNd_83
I0706 13:22:07.342361  4945 net.cpp:144] Setting up ConvNd_83
I0706 13:22:07.342378  4945 net.cpp:151] Top shape: 7 64 128 128 (7340032)
I0706 13:22:07.342382  4945 net.cpp:159] Memory required for data: 4363649024
I0706 13:22:07.342387  4945 layer_factory.hpp:77] Creating layer BatchNorm_81
I0706 13:22:07.342396  4945 net.cpp:94] Creating Layer BatchNorm_81
I0706 13:22:07.342401  4945 net.cpp:435] BatchNorm_81 <- ConvNd_83
I0706 13:22:07.342406  4945 net.cpp:409] BatchNorm_81 -> BatchNorm_81
I0706 13:22:07.342927  4945 net.cpp:144] Setting up BatchNorm_81
I0706 13:22:07.342936  4945 net.cpp:151] Top shape: 7 64 128 128 (7340032)
I0706 13:22:07.342938  4945 net.cpp:159] Memory required for data: 4393009152
I0706 13:22:07.342947  4945 layer_factory.hpp:77] Creating layer Threshold_104
I0706 13:22:07.342954  4945 net.cpp:94] Creating Layer Threshold_104
I0706 13:22:07.342958  4945 net.cpp:435] Threshold_104 <- BatchNorm_81
I0706 13:22:07.342963  4945 net.cpp:396] Threshold_104 -> BatchNorm_81 (in-place)
I0706 13:22:07.342969  4945 net.cpp:144] Setting up Threshold_104
I0706 13:22:07.342974  4945 net.cpp:151] Top shape: 7 64 128 128 (7340032)
I0706 13:22:07.342977  4945 net.cpp:159] Memory required for data: 4422369280
I0706 13:22:07.342979  4945 layer_factory.hpp:77] Creating layer Add_25
I0706 13:22:07.342984  4945 net.cpp:94] Creating Layer Add_25
I0706 13:22:07.342988  4945 net.cpp:435] Add_25 <- Add_24_Threshold_101_0_split_1
I0706 13:22:07.342993  4945 net.cpp:435] Add_25 <- BatchNorm_81
I0706 13:22:07.342999  4945 net.cpp:409] Add_25 -> Add_25
I0706 13:22:07.343022  4945 net.cpp:144] Setting up Add_25
I0706 13:22:07.343029  4945 net.cpp:151] Top shape: 7 64 128 128 (7340032)
I0706 13:22:07.343031  4945 net.cpp:159] Memory required for data: 4451729408
I0706 13:22:07.343034  4945 layer_factory.hpp:77] Creating layer Threshold_105
I0706 13:22:07.343039  4945 net.cpp:94] Creating Layer Threshold_105
I0706 13:22:07.343042  4945 net.cpp:435] Threshold_105 <- Add_25
I0706 13:22:07.343047  4945 net.cpp:396] Threshold_105 -> Add_25 (in-place)
I0706 13:22:07.343055  4945 net.cpp:144] Setting up Threshold_105
I0706 13:22:07.343058  4945 net.cpp:151] Top shape: 7 64 128 128 (7340032)
I0706 13:22:07.343061  4945 net.cpp:159] Memory required for data: 4481089536
I0706 13:22:07.343065  4945 layer_factory.hpp:77] Creating layer Add_25_Threshold_105_0_split
I0706 13:22:07.343070  4945 net.cpp:94] Creating Layer Add_25_Threshold_105_0_split
I0706 13:22:07.343073  4945 net.cpp:435] Add_25_Threshold_105_0_split <- Add_25
I0706 13:22:07.343080  4945 net.cpp:409] Add_25_Threshold_105_0_split -> Add_25_Threshold_105_0_split_0
I0706 13:22:07.343086  4945 net.cpp:409] Add_25_Threshold_105_0_split -> Add_25_Threshold_105_0_split_1
I0706 13:22:07.343120  4945 net.cpp:144] Setting up Add_25_Threshold_105_0_split
I0706 13:22:07.343127  4945 net.cpp:151] Top shape: 7 64 128 128 (7340032)
I0706 13:22:07.343132  4945 net.cpp:151] Top shape: 7 64 128 128 (7340032)
I0706 13:22:07.343135  4945 net.cpp:159] Memory required for data: 4539809792
I0706 13:22:07.343138  4945 layer_factory.hpp:77] Creating layer ConvNd_84
I0706 13:22:07.343148  4945 net.cpp:94] Creating Layer ConvNd_84
I0706 13:22:07.343152  4945 net.cpp:435] ConvNd_84 <- Add_25_Threshold_105_0_split_0
I0706 13:22:07.343158  4945 net.cpp:409] ConvNd_84 -> ConvNd_84
I0706 13:22:07.343346  4945 net.cpp:144] Setting up ConvNd_84
I0706 13:22:07.343354  4945 net.cpp:151] Top shape: 7 16 128 128 (1835008)
I0706 13:22:07.343358  4945 net.cpp:159] Memory required for data: 4547149824
I0706 13:22:07.343363  4945 layer_factory.hpp:77] Creating layer BatchNorm_82
I0706 13:22:07.343371  4945 net.cpp:94] Creating Layer BatchNorm_82
I0706 13:22:07.343375  4945 net.cpp:435] BatchNorm_82 <- ConvNd_84
I0706 13:22:07.343381  4945 net.cpp:409] BatchNorm_82 -> BatchNorm_82
I0706 13:22:07.343921  4945 net.cpp:144] Setting up BatchNorm_82
I0706 13:22:07.343930  4945 net.cpp:151] Top shape: 7 16 128 128 (1835008)
I0706 13:22:07.343935  4945 net.cpp:159] Memory required for data: 4554489856
I0706 13:22:07.343943  4945 layer_factory.hpp:77] Creating layer UpsamplingBilinear2d_2
I0706 13:22:07.343963  4945 net.cpp:94] Creating Layer UpsamplingBilinear2d_2
I0706 13:22:07.343967  4945 net.cpp:435] UpsamplingBilinear2d_2 <- BatchNorm_82
I0706 13:22:07.343973  4945 net.cpp:409] UpsamplingBilinear2d_2 -> UpsamplingBilinear2d_2
I0706 13:22:07.344158  4945 net.cpp:144] Setting up UpsamplingBilinear2d_2
I0706 13:22:07.344166  4945 net.cpp:151] Top shape: 7 16 256 256 (7340032)
I0706 13:22:07.344169  4945 net.cpp:159] Memory required for data: 4583849984
I0706 13:22:07.344173  4945 layer_factory.hpp:77] Creating layer ConvNd_85
I0706 13:22:07.344183  4945 net.cpp:94] Creating Layer ConvNd_85
I0706 13:22:07.344187  4945 net.cpp:435] ConvNd_85 <- Add_25_Threshold_105_0_split_1
I0706 13:22:07.344193  4945 net.cpp:409] ConvNd_85 -> ConvNd_85
I0706 13:22:07.344382  4945 net.cpp:144] Setting up ConvNd_85
I0706 13:22:07.344390  4945 net.cpp:151] Top shape: 7 16 128 128 (1835008)
I0706 13:22:07.344393  4945 net.cpp:159] Memory required for data: 4591190016
I0706 13:22:07.344398  4945 layer_factory.hpp:77] Creating layer BatchNorm_83
I0706 13:22:07.344406  4945 net.cpp:94] Creating Layer BatchNorm_83
I0706 13:22:07.344410  4945 net.cpp:435] BatchNorm_83 <- ConvNd_85
I0706 13:22:07.344416  4945 net.cpp:409] BatchNorm_83 -> BatchNorm_83
I0706 13:22:07.344946  4945 net.cpp:144] Setting up BatchNorm_83
I0706 13:22:07.344955  4945 net.cpp:151] Top shape: 7 16 128 128 (1835008)
I0706 13:22:07.344959  4945 net.cpp:159] Memory required for data: 4598530048
I0706 13:22:07.344967  4945 layer_factory.hpp:77] Creating layer Threshold_106
I0706 13:22:07.344974  4945 net.cpp:94] Creating Layer Threshold_106
I0706 13:22:07.344977  4945 net.cpp:435] Threshold_106 <- BatchNorm_83
I0706 13:22:07.344985  4945 net.cpp:396] Threshold_106 -> BatchNorm_83 (in-place)
I0706 13:22:07.344990  4945 net.cpp:144] Setting up Threshold_106
I0706 13:22:07.344995  4945 net.cpp:151] Top shape: 7 16 128 128 (1835008)
I0706 13:22:07.344997  4945 net.cpp:159] Memory required for data: 4605870080
I0706 13:22:07.345001  4945 layer_factory.hpp:77] Creating layer ConvNd_86
I0706 13:22:07.345010  4945 net.cpp:94] Creating Layer ConvNd_86
I0706 13:22:07.345012  4945 net.cpp:435] ConvNd_86 <- BatchNorm_83
I0706 13:22:07.345018  4945 net.cpp:409] ConvNd_86 -> ConvNd_86
I0706 13:22:07.345307  4945 net.cpp:144] Setting up ConvNd_86
I0706 13:22:07.345319  4945 net.cpp:151] Top shape: 7 16 256 256 (7340032)
I0706 13:22:07.345321  4945 net.cpp:159] Memory required for data: 4635230208
I0706 13:22:07.345327  4945 layer_factory.hpp:77] Creating layer BatchNorm_84
I0706 13:22:07.345336  4945 net.cpp:94] Creating Layer BatchNorm_84
I0706 13:22:07.345340  4945 net.cpp:435] BatchNorm_84 <- ConvNd_86
I0706 13:22:07.345346  4945 net.cpp:409] BatchNorm_84 -> BatchNorm_84
I0706 13:22:07.345901  4945 net.cpp:144] Setting up BatchNorm_84
I0706 13:22:07.345909  4945 net.cpp:151] Top shape: 7 16 256 256 (7340032)
I0706 13:22:07.345912  4945 net.cpp:159] Memory required for data: 4664590336
I0706 13:22:07.345921  4945 layer_factory.hpp:77] Creating layer Threshold_107
I0706 13:22:07.345927  4945 net.cpp:94] Creating Layer Threshold_107
I0706 13:22:07.345932  4945 net.cpp:435] Threshold_107 <- BatchNorm_84
I0706 13:22:07.345937  4945 net.cpp:396] Threshold_107 -> BatchNorm_84 (in-place)
I0706 13:22:07.345943  4945 net.cpp:144] Setting up Threshold_107
I0706 13:22:07.345950  4945 net.cpp:151] Top shape: 7 16 256 256 (7340032)
I0706 13:22:07.345953  4945 net.cpp:159] Memory required for data: 4693950464
I0706 13:22:07.345957  4945 layer_factory.hpp:77] Creating layer ConvNd_87
I0706 13:22:07.345964  4945 net.cpp:94] Creating Layer ConvNd_87
I0706 13:22:07.345968  4945 net.cpp:435] ConvNd_87 <- BatchNorm_84
I0706 13:22:07.345974  4945 net.cpp:409] ConvNd_87 -> ConvNd_87
I0706 13:22:07.346158  4945 net.cpp:144] Setting up ConvNd_87
I0706 13:22:07.346166  4945 net.cpp:151] Top shape: 7 16 256 256 (7340032)
I0706 13:22:07.346169  4945 net.cpp:159] Memory required for data: 4723310592
I0706 13:22:07.346174  4945 layer_factory.hpp:77] Creating layer BatchNorm_85
I0706 13:22:07.346190  4945 net.cpp:94] Creating Layer BatchNorm_85
I0706 13:22:07.346194  4945 net.cpp:435] BatchNorm_85 <- ConvNd_87
I0706 13:22:07.346201  4945 net.cpp:409] BatchNorm_85 -> BatchNorm_85
I0706 13:22:07.346757  4945 net.cpp:144] Setting up BatchNorm_85
I0706 13:22:07.346766  4945 net.cpp:151] Top shape: 7 16 256 256 (7340032)
I0706 13:22:07.346770  4945 net.cpp:159] Memory required for data: 4752670720
I0706 13:22:07.346803  4945 layer_factory.hpp:77] Creating layer Threshold_108
I0706 13:22:07.346812  4945 net.cpp:94] Creating Layer Threshold_108
I0706 13:22:07.346815  4945 net.cpp:435] Threshold_108 <- BatchNorm_85
I0706 13:22:07.346820  4945 net.cpp:396] Threshold_108 -> BatchNorm_85 (in-place)
I0706 13:22:07.346827  4945 net.cpp:144] Setting up Threshold_108
I0706 13:22:07.346832  4945 net.cpp:151] Top shape: 7 16 256 256 (7340032)
I0706 13:22:07.346834  4945 net.cpp:159] Memory required for data: 4782030848
I0706 13:22:07.346837  4945 layer_factory.hpp:77] Creating layer Add_26
I0706 13:22:07.346843  4945 net.cpp:94] Creating Layer Add_26
I0706 13:22:07.346848  4945 net.cpp:435] Add_26 <- UpsamplingBilinear2d_2
I0706 13:22:07.346851  4945 net.cpp:435] Add_26 <- BatchNorm_85
I0706 13:22:07.346856  4945 net.cpp:409] Add_26 -> Add_26
I0706 13:22:07.346880  4945 net.cpp:144] Setting up Add_26
I0706 13:22:07.346887  4945 net.cpp:151] Top shape: 7 16 256 256 (7340032)
I0706 13:22:07.346890  4945 net.cpp:159] Memory required for data: 4811390976
I0706 13:22:07.346894  4945 layer_factory.hpp:77] Creating layer Threshold_109
I0706 13:22:07.346897  4945 net.cpp:94] Creating Layer Threshold_109
I0706 13:22:07.346901  4945 net.cpp:435] Threshold_109 <- Add_26
I0706 13:22:07.346906  4945 net.cpp:396] Threshold_109 -> Add_26 (in-place)
I0706 13:22:07.346911  4945 net.cpp:144] Setting up Threshold_109
I0706 13:22:07.346915  4945 net.cpp:151] Top shape: 7 16 256 256 (7340032)
I0706 13:22:07.346920  4945 net.cpp:159] Memory required for data: 4840751104
I0706 13:22:07.346922  4945 layer_factory.hpp:77] Creating layer Add_26_Threshold_109_0_split
I0706 13:22:07.346930  4945 net.cpp:94] Creating Layer Add_26_Threshold_109_0_split
I0706 13:22:07.346933  4945 net.cpp:435] Add_26_Threshold_109_0_split <- Add_26
I0706 13:22:07.346938  4945 net.cpp:409] Add_26_Threshold_109_0_split -> Add_26_Threshold_109_0_split_0
I0706 13:22:07.346946  4945 net.cpp:409] Add_26_Threshold_109_0_split -> Add_26_Threshold_109_0_split_1
I0706 13:22:07.346979  4945 net.cpp:144] Setting up Add_26_Threshold_109_0_split
I0706 13:22:07.346987  4945 net.cpp:151] Top shape: 7 16 256 256 (7340032)
I0706 13:22:07.346990  4945 net.cpp:151] Top shape: 7 16 256 256 (7340032)
I0706 13:22:07.346993  4945 net.cpp:159] Memory required for data: 4899471360
I0706 13:22:07.346997  4945 layer_factory.hpp:77] Creating layer ConvNd_88
I0706 13:22:07.347005  4945 net.cpp:94] Creating Layer ConvNd_88
I0706 13:22:07.347009  4945 net.cpp:435] ConvNd_88 <- Add_26_Threshold_109_0_split_0
I0706 13:22:07.347018  4945 net.cpp:409] ConvNd_88 -> ConvNd_88
I0706 13:22:07.347201  4945 net.cpp:144] Setting up ConvNd_88
I0706 13:22:07.347209  4945 net.cpp:151] Top shape: 7 4 256 256 (1835008)
I0706 13:22:07.347213  4945 net.cpp:159] Memory required for data: 4906811392
I0706 13:22:07.347218  4945 layer_factory.hpp:77] Creating layer BatchNorm_86
I0706 13:22:07.347226  4945 net.cpp:94] Creating Layer BatchNorm_86
I0706 13:22:07.347230  4945 net.cpp:435] BatchNorm_86 <- ConvNd_88
I0706 13:22:07.347236  4945 net.cpp:409] BatchNorm_86 -> BatchNorm_86
I0706 13:22:07.347807  4945 net.cpp:144] Setting up BatchNorm_86
I0706 13:22:07.347816  4945 net.cpp:151] Top shape: 7 4 256 256 (1835008)
I0706 13:22:07.347820  4945 net.cpp:159] Memory required for data: 4914151424
I0706 13:22:07.347829  4945 layer_factory.hpp:77] Creating layer Threshold_110
I0706 13:22:07.347836  4945 net.cpp:94] Creating Layer Threshold_110
I0706 13:22:07.347841  4945 net.cpp:435] Threshold_110 <- BatchNorm_86
I0706 13:22:07.347844  4945 net.cpp:396] Threshold_110 -> BatchNorm_86 (in-place)
I0706 13:22:07.347853  4945 net.cpp:144] Setting up Threshold_110
I0706 13:22:07.347867  4945 net.cpp:151] Top shape: 7 4 256 256 (1835008)
I0706 13:22:07.347869  4945 net.cpp:159] Memory required for data: 4921491456
I0706 13:22:07.347873  4945 layer_factory.hpp:77] Creating layer ConvNd_89
I0706 13:22:07.347882  4945 net.cpp:94] Creating Layer ConvNd_89
I0706 13:22:07.347884  4945 net.cpp:435] ConvNd_89 <- BatchNorm_86
I0706 13:22:07.347892  4945 net.cpp:409] ConvNd_89 -> ConvNd_89
I0706 13:22:07.348083  4945 net.cpp:144] Setting up ConvNd_89
I0706 13:22:07.348091  4945 net.cpp:151] Top shape: 7 4 256 256 (1835008)
I0706 13:22:07.348094  4945 net.cpp:159] Memory required for data: 4928831488
I0706 13:22:07.348099  4945 layer_factory.hpp:77] Creating layer BatchNorm_87
I0706 13:22:07.348107  4945 net.cpp:94] Creating Layer BatchNorm_87
I0706 13:22:07.348111  4945 net.cpp:435] BatchNorm_87 <- ConvNd_89
I0706 13:22:07.348117  4945 net.cpp:409] BatchNorm_87 -> BatchNorm_87
I0706 13:22:07.348667  4945 net.cpp:144] Setting up BatchNorm_87
I0706 13:22:07.348675  4945 net.cpp:151] Top shape: 7 4 256 256 (1835008)
I0706 13:22:07.348680  4945 net.cpp:159] Memory required for data: 4936171520
I0706 13:22:07.348687  4945 layer_factory.hpp:77] Creating layer Threshold_111
I0706 13:22:07.348692  4945 net.cpp:94] Creating Layer Threshold_111
I0706 13:22:07.348696  4945 net.cpp:435] Threshold_111 <- BatchNorm_87
I0706 13:22:07.348703  4945 net.cpp:396] Threshold_111 -> BatchNorm_87 (in-place)
I0706 13:22:07.348709  4945 net.cpp:144] Setting up Threshold_111
I0706 13:22:07.348713  4945 net.cpp:151] Top shape: 7 4 256 256 (1835008)
I0706 13:22:07.348716  4945 net.cpp:159] Memory required for data: 4943511552
I0706 13:22:07.348721  4945 layer_factory.hpp:77] Creating layer ConvNd_90
I0706 13:22:07.348728  4945 net.cpp:94] Creating Layer ConvNd_90
I0706 13:22:07.348732  4945 net.cpp:435] ConvNd_90 <- BatchNorm_87
I0706 13:22:07.348737  4945 net.cpp:409] ConvNd_90 -> ConvNd_90
I0706 13:22:07.348927  4945 net.cpp:144] Setting up ConvNd_90
I0706 13:22:07.348934  4945 net.cpp:151] Top shape: 7 16 256 256 (7340032)
I0706 13:22:07.348937  4945 net.cpp:159] Memory required for data: 4972871680
I0706 13:22:07.348942  4945 layer_factory.hpp:77] Creating layer BatchNorm_88
I0706 13:22:07.348951  4945 net.cpp:94] Creating Layer BatchNorm_88
I0706 13:22:07.348954  4945 net.cpp:435] BatchNorm_88 <- ConvNd_90
I0706 13:22:07.348960  4945 net.cpp:409] BatchNorm_88 -> BatchNorm_88
I0706 13:22:07.349535  4945 net.cpp:144] Setting up BatchNorm_88
I0706 13:22:07.349546  4945 net.cpp:151] Top shape: 7 16 256 256 (7340032)
I0706 13:22:07.349550  4945 net.cpp:159] Memory required for data: 5002231808
I0706 13:22:07.349558  4945 layer_factory.hpp:77] Creating layer Threshold_112
I0706 13:22:07.349565  4945 net.cpp:94] Creating Layer Threshold_112
I0706 13:22:07.349570  4945 net.cpp:435] Threshold_112 <- BatchNorm_88
I0706 13:22:07.349575  4945 net.cpp:396] Threshold_112 -> BatchNorm_88 (in-place)
I0706 13:22:07.349581  4945 net.cpp:144] Setting up Threshold_112
I0706 13:22:07.349586  4945 net.cpp:151] Top shape: 7 16 256 256 (7340032)
I0706 13:22:07.349589  4945 net.cpp:159] Memory required for data: 5031591936
I0706 13:22:07.349592  4945 layer_factory.hpp:77] Creating layer Add_27
I0706 13:22:07.349597  4945 net.cpp:94] Creating Layer Add_27
I0706 13:22:07.349601  4945 net.cpp:435] Add_27 <- Add_26_Threshold_109_0_split_1
I0706 13:22:07.349606  4945 net.cpp:435] Add_27 <- BatchNorm_88
I0706 13:22:07.349612  4945 net.cpp:409] Add_27 -> Add_27
I0706 13:22:07.349637  4945 net.cpp:144] Setting up Add_27
I0706 13:22:07.349642  4945 net.cpp:151] Top shape: 7 16 256 256 (7340032)
I0706 13:22:07.349647  4945 net.cpp:159] Memory required for data: 5060952064
I0706 13:22:07.349649  4945 layer_factory.hpp:77] Creating layer Threshold_113
I0706 13:22:07.349654  4945 net.cpp:94] Creating Layer Threshold_113
I0706 13:22:07.349658  4945 net.cpp:435] Threshold_113 <- Add_27
I0706 13:22:07.349663  4945 net.cpp:396] Threshold_113 -> Add_27 (in-place)
I0706 13:22:07.349675  4945 net.cpp:144] Setting up Threshold_113
I0706 13:22:07.349690  4945 net.cpp:151] Top shape: 7 16 256 256 (7340032)
I0706 13:22:07.349694  4945 net.cpp:159] Memory required for data: 5090312192
I0706 13:22:07.349697  4945 layer_factory.hpp:77] Creating layer ConvNd_91
I0706 13:22:07.349704  4945 net.cpp:94] Creating Layer ConvNd_91
I0706 13:22:07.349706  4945 net.cpp:435] ConvNd_91 <- Add_27
I0706 13:22:07.349715  4945 net.cpp:409] ConvNd_91 -> ConvNd_91
I0706 13:22:07.350771  4945 net.cpp:144] Setting up ConvNd_91
I0706 13:22:07.350785  4945 net.cpp:151] Top shape: 7 19 512 512 (34865152)
I0706 13:22:07.350787  4945 net.cpp:159] Memory required for data: 5229772800
I0706 13:22:07.350795  4945 layer_factory.hpp:77] Creating layer ConvNd_91_ConvNd_91_0_split
I0706 13:22:07.350802  4945 net.cpp:94] Creating Layer ConvNd_91_ConvNd_91_0_split
I0706 13:22:07.350806  4945 net.cpp:435] ConvNd_91_ConvNd_91_0_split <- ConvNd_91
I0706 13:22:07.350813  4945 net.cpp:409] ConvNd_91_ConvNd_91_0_split -> ConvNd_91_ConvNd_91_0_split_0
I0706 13:22:07.350821  4945 net.cpp:409] ConvNd_91_ConvNd_91_0_split -> ConvNd_91_ConvNd_91_0_split_1
I0706 13:22:07.350867  4945 net.cpp:144] Setting up ConvNd_91_ConvNd_91_0_split
I0706 13:22:07.350874  4945 net.cpp:151] Top shape: 7 19 512 512 (34865152)
I0706 13:22:07.350878  4945 net.cpp:151] Top shape: 7 19 512 512 (34865152)
I0706 13:22:07.350881  4945 net.cpp:159] Memory required for data: 5508694016
I0706 13:22:07.350885  4945 layer_factory.hpp:77] Creating layer loss
I0706 13:22:07.350893  4945 net.cpp:94] Creating Layer loss
I0706 13:22:07.350895  4945 net.cpp:435] loss <- ConvNd_91_ConvNd_91_0_split_0
I0706 13:22:07.350900  4945 net.cpp:435] loss <- label_data_1_split_0
I0706 13:22:07.350908  4945 net.cpp:409] loss -> loss
I0706 13:22:07.350919  4945 layer_factory.hpp:77] Creating layer loss
I0706 13:22:07.411347  4945 net.cpp:144] Setting up loss
I0706 13:22:07.411373  4945 net.cpp:151] Top shape: (1)
I0706 13:22:07.411377  4945 net.cpp:154]     with loss weight 1
I0706 13:22:07.411403  4945 net.cpp:159] Memory required for data: 5508694020
I0706 13:22:07.411409  4945 layer_factory.hpp:77] Creating layer acc
I0706 13:22:07.411422  4945 net.cpp:94] Creating Layer acc
I0706 13:22:07.411427  4945 net.cpp:435] acc <- ConvNd_91_ConvNd_91_0_split_1
I0706 13:22:07.411434  4945 net.cpp:435] acc <- label_data_1_split_1
I0706 13:22:07.411442  4945 net.cpp:409] acc -> acc
I0706 13:22:07.411454  4945 net.cpp:409] acc -> per_acc
I0706 13:22:07.411501  4945 net.cpp:144] Setting up acc
I0706 13:22:07.411509  4945 net.cpp:151] Top shape: (1)
I0706 13:22:07.411512  4945 net.cpp:151] Top shape: 19 (19)
I0706 13:22:07.411515  4945 net.cpp:159] Memory required for data: 5508694100
I0706 13:22:07.411520  4945 net.cpp:222] acc does not need backward computation.
I0706 13:22:07.411526  4945 net.cpp:220] loss needs backward computation.
I0706 13:22:07.411530  4945 net.cpp:220] ConvNd_91_ConvNd_91_0_split needs backward computation.
I0706 13:22:07.411535  4945 net.cpp:220] ConvNd_91 needs backward computation.
…
