…
I1008 09:47:31.678665    96 net.cpp:323] The NetState phase (0) differed from the phase (1) specified by a rule in layer accuracy-top1
I1008 09:47:31.678670    96 net.cpp:52] Initializing net from parameters:
name: "alexnetBNnoLRN m2 (as m3 but less DROP and less BN)"
state {
  phase: TRAIN
}
layer {
  name: "data"
  type: "Data"
  top: "data"
  top: "label"
  include {
    phase: TRAIN
  }
  transform_param {
    mirror: true
    crop_size: 227
    mean_value: 106
    mean_value: 116
    mean_value: 124
  }
  data_param {
    source: "input/lmdb/train_lmdb"
    batch_size: 256
    backend: LMDB
  }
}
layer {
  name: "conv1"
  type: "Convolution"
  bottom: "data"
  top: "conv1"
  param {
    lr_mult: 1
    decay_mult: 1
  }
  param {
    lr_mult: 2
    decay_mult: 0
  }
  convolution_param {
    num_output: 96
    pad: 0
    kernel_size: 8
    stride: 4
    weight_filler {
      type: "gaussian"
      std: 0.01
    }
    bias_filler {
      type: "constant"
      value: 0
    }
  }
}
layer {
  name: "bn1"
  type: "BatchNorm"
  bottom: "conv1"
  top: "bn1"
  param {
    lr_mult: 0
  }
  param {
    lr_mult: 0
  }
  param {
    lr_mult: 0
  }
  batch_norm_param {
    use_global_stats: false
  }
}
layer {
  name: "relu1"
  type: "ReLU"
  bottom: "bn1"
  top: "relu1"
}
layer {
  name: "pool1"
  type: "Pooling"
  bottom: "relu1"
  top: "pool1"
  pooling_param {
    pool: MAX
    kernel_size: 3
    stride: 2
  }
}
layer {
  name: "conv2"
  type: "Convolution"
  bottom: "pool1"
  top: "conv2"
  param {
    lr_mult: 1
    decay_mult: 1
  }
  param {
    lr_mult: 2
    decay_mult: 0
  }
  convolution_param {
    num_output: 256
    pad: 2
    kernel_size: 5
    group: 1
    weight_filler {
      type: "gaussian"
      std: 0.01
    }
    bias_filler {
      type: "constant"
      value: 1
    }
  }
}
layer {
  name: "bn2"
  type: "BatchNorm"
  bottom: "conv2"
  top: "bn2"
  param {
    lr_mult: 0
  }
  param {
    lr_mult: 0
  }
  param {
    lr_mult: 0
  }
  batch_norm_param {
    use_global_stats: false
  }
}
layer {
  name: "relu2"
  type: "ReLU"
  bottom: "bn2"
  top: "relu2"
}
layer {
  name: "pool2"
  type: "Pooling"
  bottom: "relu2"
  top: "pool2"
  pooling_param {
    pool: MAX
    kernel_size: 3
    stride: 2
  }
}
layer {
  name: "conv3"
  type: "Convolution"
  bottom: "pool2"
  top: "conv3"
  param {
    lr_mult: 1
    decay_mult: 1
  }
  param {
    lr_mult: 2
    decay_mult: 0
  }
  convolution_param {
    num_output: 384
    pad: 1
    kernel_size: 3
    weight_filler {
      type: "gaussian"
      std: 0.01
    }
    bias_filler {
      type: "constant"
      value: 0
    }
  }
}
layer {
  name: "relu3"
  type: "ReLU"
  bottom: "conv3"
  top: "relu3"
}
layer {
  name: "conv4"
  type: "Convolution"
  bottom: "relu3"
  top: "conv4"
  param {
    lr_mult: 1
    decay_mult: 1
  }
  param {
    lr_mult: 2
    decay_mult: 0
  }
  convolution_param {
    num_output: 384
    pad: 1
    kernel_size: 3
    group: 1
    weight_filler {
      type: "gaussian"
      std: 0.01
    }
    bias_filler {
      type: "constant"
      value: 1
    }
  }
}
layer {
  name: "relu4"
  type: "ReLU"
  bottom: "conv4"
  top: "relu4"
}
layer {
  name: "conv5"
  type: "Convolution"
  bottom: "relu4"
  top: "conv5"
  param {
    lr_mult: 1
    decay_mult: 1
  }
  param {
    lr_mult: 2
    decay_mult: 0
  }
  convolution_param {
    num_output: 256
    pad: 1
    kernel_size: 3
    group: 1
    weight_filler {
      type: "gaussian"
      std: 0.01
    }
    bias_filler {
      type: "constant"
      value: 1
    }
  }
}
layer {
  name: "relu5"
  type: "ReLU"
  bottom: "conv5"
  top: "relu5"
}
layer {
  name: "pool5"
  type: "Pooling"
  bottom: "relu5"
  top: "pool5"
  pooling_param {
    pool: MAX
    kernel_size: 3
    stride: 2
  }
}
layer {
  name: "fc6"
  type: "InnerProduct"
  bottom: "pool5"
  top: "fc6"
  param {
    lr_mult: 1
    decay_mult: 1
  }
  param {
    lr_mult: 2
    decay_mult: 0
  }
  inner_product_param {
    num_output: 4096
    weight_filler {
      type: "gaussian"
      std: 0.005
    }
    bias_filler {
      type: "constant"
      value: 1
    }
  }
}
layer {
  name: "relu6"
  type: "ReLU"
  bottom: "fc6"
  top: "relu6"
}
layer {
  name: "drop6"
  type: "Dropout"
  bottom: "relu6"
  top: "drop6"
  dropout_param {
    dropout_ratio: 0.5
  }
}
layer {
  name: "fc7"
  type: "InnerProduct"
  bottom: "drop6"
  top: "fc7"
  param {
    lr_mult: 1
    decay_mult: 1
  }
  param {
    lr_mult: 2
    decay_mult: 0
  }
  inner_product_param {
    num_output: 4096
    weight_filler {
      type: "gaussian"
      std: 0.005
    }
    bias_filler {
      type: "constant"
      value: 1
    }
  }
}
layer {
  name: "bn7"
  type: "BatchNorm"
  bottom: "fc7"
  top: "bn7"
  param {
    lr_mult: 0
  }
  param {
    lr_mult: 0
  }
  param {
    lr_mult: 0
  }
  batch_norm_param {
    use_global_stats: false
  }
}
layer {
  name: "relu7"
  type: "ReLU"
  bottom: "bn7"
  top: "relu7"
}
layer {
  name: "drop7"
  type: "Dropout"
  bottom: "relu7"
  top: "drop7"
  dropout_param {
    dropout_ratio: 0.5
  }
}
layer {
  name: "fc8"
  type: "InnerProduct"
  bottom: "drop7"
  top: "fc8"
  param {
    lr_mult: 1
    decay_mult: 1
  }
  param {
    lr_mult: 2
    decay_mult: 0
  }
  inner_product_param {
    num_output: 2
    weight_filler {
      type: "gaussian"
      std: 0.01
    }
    bias_filler {
      type: "constant"
      value: 0
    }
  }
}
layer {
  name: "loss"
  type: "SoftmaxWithLoss"
  bottom: "fc8"
  bottom: "label"
  top: "loss"
}
I1008 09:47:31.678864    96 layer_factory.hpp:77] Creating layer data
I1008 09:47:31.679574    96 internal_thread.cpp:27] Starting internal thread(s) on GPU 0
I1008 09:47:31.681052    96 net.cpp:94] Creating Layer data
I1008 09:47:31.681066    96 net.cpp:409] data -> data
I1008 09:47:31.681078    96 net.cpp:409] data -> label
I1008 09:47:31.754163   128 db_lmdb.cpp:35] Opened lmdb input/lmdb/train_lmdb
I1008 09:47:31.754196   128 db_lmdb.cpp:38] Items count: 20000
I1008 09:47:31.772003   128 data_reader.cpp:124] TRAIN: reading data using 1 channel(s)
I1008 09:47:31.773887    96 data_layer.cpp:78] ReshapePrefetch 256, 3, 227, 227
I1008 09:47:31.774057    96 data_layer.cpp:83] output data size: 256,3,227,227
I1008 09:47:32.318902    96 internal_thread.cpp:27] Starting internal thread(s) on GPU 0
I1008 09:47:32.319123    96 net.cpp:144] Setting up data
I1008 09:47:32.319129    96 net.cpp:151] Top shape: 256 3 227 227 (39574272)
I1008 09:47:32.319139    96 net.cpp:151] Top shape: 256 (256)
I1008 09:47:32.319142    96 net.cpp:159] Memory required for data: 158298112
I1008 09:47:32.319149    96 layer_factory.hpp:77] Creating layer conv1
I1008 09:47:32.319169    96 net.cpp:94] Creating Layer conv1
I1008 09:47:32.319173    96 net.cpp:435] conv1 <- data
I1008 09:47:32.319180    96 net.cpp:409] conv1 -> conv1
I1008 09:47:32.322280    96 net.cpp:144] Setting up conv1
I1008 09:47:32.322293    96 net.cpp:151] Top shape: 256 96 55 55 (74342400)
I1008 09:47:32.322301    96 net.cpp:159] Memory required for data: 455667712
I1008 09:47:32.322314    96 layer_factory.hpp:77] Creating layer bn1
I1008 09:47:32.322345    96 net.cpp:94] Creating Layer bn1
I1008 09:47:32.322350    96 net.cpp:435] bn1 <- conv1
I1008 09:47:32.322355    96 net.cpp:409] bn1 -> bn1
I1008 09:47:32.322680    96 net.cpp:144] Setting up bn1
I1008 09:47:32.322686    96 net.cpp:151] Top shape: 256 96 55 55 (74342400)
I1008 09:47:32.322692    96 net.cpp:159] Memory required for data: 753037312
I1008 09:47:32.322702    96 layer_factory.hpp:77] Creating layer relu1
I1008 09:47:32.322710    96 net.cpp:94] Creating Layer relu1
I1008 09:47:32.322713    96 net.cpp:435] relu1 <- bn1
I1008 09:47:32.322717    96 net.cpp:409] relu1 -> relu1
I1008 09:47:32.322733    96 net.cpp:144] Setting up relu1
I1008 09:47:32.322737    96 net.cpp:151] Top shape: 256 96 55 55 (74342400)
I1008 09:47:32.322741    96 net.cpp:159] Memory required for data: 1050406912
I1008 09:47:32.322746    96 layer_factory.hpp:77] Creating layer pool1
I1008 09:47:32.322751    96 net.cpp:94] Creating Layer pool1
I1008 09:47:32.322755    96 net.cpp:435] pool1 <- relu1
I1008 09:47:32.322759    96 net.cpp:409] pool1 -> pool1
I1008 09:47:32.322774    96 net.cpp:144] Setting up pool1
I1008 09:47:32.322778    96 net.cpp:151] Top shape: 256 96 27 27 (17915904)
I1008 09:47:32.322783    96 net.cpp:159] Memory required for data: 1122070528
I1008 09:47:32.322786    96 layer_factory.hpp:77] Creating layer conv2
I1008 09:47:32.322794    96 net.cpp:94] Creating Layer conv2
I1008 09:47:32.322798    96 net.cpp:435] conv2 <- pool1
I1008 09:47:32.322803    96 net.cpp:409] conv2 -> conv2
I1008 09:47:32.336925    96 net.cpp:144] Setting up conv2
I1008 09:47:32.336941    96 net.cpp:151] Top shape: 256 256 27 27 (47775744)
I1008 09:47:32.336949    96 net.cpp:159] Memory required for data: 1313173504
I1008 09:47:32.336959    96 layer_factory.hpp:77] Creating layer bn2
I1008 09:47:32.336969    96 net.cpp:94] Creating Layer bn2
I1008 09:47:32.336973    96 net.cpp:435] bn2 <- conv2
I1008 09:47:32.336980    96 net.cpp:409] bn2 -> bn2
I1008 09:47:32.337232    96 net.cpp:144] Setting up bn2
I1008 09:47:32.337242    96 net.cpp:151] Top shape: 256 256 27 27 (47775744)
I1008 09:47:32.337249    96 net.cpp:159] Memory required for data: 1504276480
I1008 09:47:32.337278    96 layer_factory.hpp:77] Creating layer relu2
I1008 09:47:32.337286    96 net.cpp:94] Creating Layer relu2
I1008 09:47:32.337291    96 net.cpp:435] relu2 <- bn2
I1008 09:47:32.337298    96 net.cpp:409] relu2 -> relu2
I1008 09:47:32.337314    96 net.cpp:144] Setting up relu2
I1008 09:47:32.337318    96 net.cpp:151] Top shape: 256 256 27 27 (47775744)
I1008 09:47:32.337323    96 net.cpp:159] Memory required for data: 1695379456
I1008 09:47:32.337327    96 layer_factory.hpp:77] Creating layer pool2
I1008 09:47:32.337332    96 net.cpp:94] Creating Layer pool2
I1008 09:47:32.337337    96 net.cpp:435] pool2 <- relu2
I1008 09:47:32.337342    96 net.cpp:409] pool2 -> pool2
I1008 09:47:32.337357    96 net.cpp:144] Setting up pool2
I1008 09:47:32.337360    96 net.cpp:151] Top shape: 256 256 13 13 (11075584)
I1008 09:47:32.337365    96 net.cpp:159] Memory required for data: 1739681792
I1008 09:47:32.337368    96 layer_factory.hpp:77] Creating layer conv3
I1008 09:47:32.337376    96 net.cpp:94] Creating Layer conv3
I1008 09:47:32.337379    96 net.cpp:435] conv3 <- pool2
I1008 09:47:32.337384    96 net.cpp:409] conv3 -> conv3
I1008 09:47:32.342785   157 blocking_queue.cpp:50] Waiting for data
I1008 09:47:32.348701    96 net.cpp:144] Setting up conv3
I1008 09:47:32.348719    96 net.cpp:151] Top shape: 256 384 13 13 (16613376)
I1008 09:47:32.348731    96 net.cpp:159] Memory required for data: 1806135296
I1008 09:47:32.348743    96 layer_factory.hpp:77] Creating layer relu3
I1008 09:47:32.348752    96 net.cpp:94] Creating Layer relu3
I1008 09:47:32.348758    96 net.cpp:435] relu3 <- conv3
I1008 09:47:32.348765    96 net.cpp:409] relu3 -> relu3
I1008 09:47:32.348786    96 net.cpp:144] Setting up relu3
I1008 09:47:32.348790    96 net.cpp:151] Top shape: 256 384 13 13 (16613376)
I1008 09:47:32.348795    96 net.cpp:159] Memory required for data: 1872588800
I1008 09:47:32.348817    96 layer_factory.hpp:77] Creating layer conv4
I1008 09:47:32.348827    96 net.cpp:94] Creating Layer conv4
I1008 09:47:32.348831    96 net.cpp:435] conv4 <- relu3
I1008 09:47:32.348836    96 net.cpp:409] conv4 -> conv4
I1008 09:47:32.361447    96 net.cpp:144] Setting up conv4
I1008 09:47:32.361464    96 net.cpp:151] Top shape: 256 384 13 13 (16613376)
I1008 09:47:32.361472    96 net.cpp:159] Memory required for data: 1939042304
I1008 09:47:32.361483    96 layer_factory.hpp:77] Creating layer relu4
I1008 09:47:32.361491    96 net.cpp:94] Creating Layer relu4
I1008 09:47:32.361495    96 net.cpp:435] relu4 <- conv4
I1008 09:47:32.361501    96 net.cpp:409] relu4 -> relu4
I1008 09:47:32.361536    96 net.cpp:144] Setting up relu4
I1008 09:47:32.361538    96 net.cpp:151] Top shape: 256 384 13 13 (16613376)
I1008 09:47:32.361543    96 net.cpp:159] Memory required for data: 2005495808
I1008 09:47:32.361546    96 layer_factory.hpp:77] Creating layer conv5
I1008 09:47:32.361554    96 net.cpp:94] Creating Layer conv5
I1008 09:47:32.361557    96 net.cpp:435] conv5 <- relu4
I1008 09:47:32.361562    96 net.cpp:409] conv5 -> conv5
I1008 09:47:32.369887    96 net.cpp:144] Setting up conv5
I1008 09:47:32.369902    96 net.cpp:151] Top shape: 256 256 13 13 (11075584)
I1008 09:47:32.369910    96 net.cpp:159] Memory required for data: 2049798144
I1008 09:47:32.369935    96 layer_factory.hpp:77] Creating layer relu5
I1008 09:47:32.369942    96 net.cpp:94] Creating Layer relu5
I1008 09:47:32.369946    96 net.cpp:435] relu5 <- conv5
I1008 09:47:32.369952    96 net.cpp:409] relu5 -> relu5
I1008 09:47:32.369969    96 net.cpp:144] Setting up relu5
I1008 09:47:32.369972    96 net.cpp:151] Top shape: 256 256 13 13 (11075584)
I1008 09:47:32.369976    96 net.cpp:159] Memory required for data: 2094100480
I1008 09:47:32.369979    96 layer_factory.hpp:77] Creating layer pool5
I1008 09:47:32.369984    96 net.cpp:94] Creating Layer pool5
I1008 09:47:32.370005    96 net.cpp:435] pool5 <- relu5
I1008 09:47:32.370010    96 net.cpp:409] pool5 -> pool5
I1008 09:47:32.370025    96 net.cpp:144] Setting up pool5
I1008 09:47:32.370029    96 net.cpp:151] Top shape: 256 256 6 6 (2359296)
I1008 09:47:32.370033    96 net.cpp:159] Memory required for data: 2103537664
I1008 09:47:32.370036    96 layer_factory.hpp:77] Creating layer fc6
I1008 09:47:32.370308    96 net.cpp:94] Creating Layer fc6
I1008 09:47:32.370313    96 net.cpp:435] fc6 <- pool5
I1008 09:47:32.370318    96 net.cpp:409] fc6 -> fc6
I1008 09:47:32.692482    96 net.cpp:144] Setting up fc6
I1008 09:47:32.692508    96 net.cpp:151] Top shape: 256 4096 (1048576)
I1008 09:47:32.692517    96 net.cpp:159] Memory required for data: 2107731968
I1008 09:47:32.692528    96 layer_factory.hpp:77] Creating layer relu6
I1008 09:47:32.692536    96 net.cpp:94] Creating Layer relu6
I1008 09:47:32.692541    96 net.cpp:435] relu6 <- fc6
I1008 09:47:32.692548    96 net.cpp:409] relu6 -> relu6
I1008 09:47:32.692579    96 net.cpp:144] Setting up relu6
I1008 09:47:32.692581    96 net.cpp:151] Top shape: 256 4096 (1048576)
I1008 09:47:32.692585    96 net.cpp:159] Memory required for data: 2111926272
I1008 09:47:32.692589    96 layer_factory.hpp:77] Creating layer drop6
I1008 09:47:32.692647    96 net.cpp:94] Creating Layer drop6
I1008 09:47:32.692651    96 net.cpp:435] drop6 <- relu6
I1008 09:47:32.692656    96 net.cpp:409] drop6 -> drop6
I1008 09:47:32.692670    96 net.cpp:144] Setting up drop6
I1008 09:47:32.692673    96 net.cpp:151] Top shape: 256 4096 (1048576)
I1008 09:47:32.692677    96 net.cpp:159] Memory required for data: 2116120576
I1008 09:47:32.692679    96 layer_factory.hpp:77] Creating layer fc7
I1008 09:47:32.692687    96 net.cpp:94] Creating Layer fc7
I1008 09:47:32.692689    96 net.cpp:435] fc7 <- drop6
I1008 09:47:32.692693    96 net.cpp:409] fc7 -> fc7
I1008 09:47:32.831820    96 net.cpp:144] Setting up fc7
I1008 09:47:32.831845    96 net.cpp:151] Top shape: 256 4096 (1048576)
I1008 09:47:32.831852    96 net.cpp:159] Memory required for data: 2120314880
I1008 09:47:32.831899    96 layer_factory.hpp:77] Creating layer bn7
I1008 09:47:32.831910    96 net.cpp:94] Creating Layer bn7
I1008 09:47:32.831915    96 net.cpp:435] bn7 <- fc7
I1008 09:47:32.831923    96 net.cpp:409] bn7 -> bn7
I1008 09:47:32.832175    96 net.cpp:144] Setting up bn7
I1008 09:47:32.832180    96 net.cpp:151] Top shape: 256 4096 (1048576)
I1008 09:47:32.832183    96 net.cpp:159] Memory required for data: 2124509184
I1008 09:47:32.832190    96 layer_factory.hpp:77] Creating layer relu7
I1008 09:47:32.832195    96 net.cpp:94] Creating Layer relu7
I1008 09:47:32.832197    96 net.cpp:435] relu7 <- bn7
I1008 09:47:32.832201    96 net.cpp:409] relu7 -> relu7
I1008 09:47:32.832211    96 net.cpp:144] Setting up relu7
I1008 09:47:32.832214    96 net.cpp:151] Top shape: 256 4096 (1048576)
I1008 09:47:32.832218    96 net.cpp:159] Memory required for data: 2128703488
I1008 09:47:32.832221    96 layer_factory.hpp:77] Creating layer drop7
I1008 09:47:32.832226    96 net.cpp:94] Creating Layer drop7
I1008 09:47:32.832229    96 net.cpp:435] drop7 <- relu7
I1008 09:47:32.832233    96 net.cpp:409] drop7 -> drop7
I1008 09:47:32.832247    96 net.cpp:144] Setting up drop7
I1008 09:47:32.832249    96 net.cpp:151] Top shape: 256 4096 (1048576)
I1008 09:47:32.832252    96 net.cpp:159] Memory required for data: 2132897792
I1008 09:47:32.832255    96 layer_factory.hpp:77] Creating layer fc8
I1008 09:47:32.832260    96 net.cpp:94] Creating Layer fc8
I1008 09:47:32.832263    96 net.cpp:435] fc8 <- drop7
I1008 09:47:32.832267    96 net.cpp:409] fc8 -> fc8
I1008 09:47:32.832378    96 net.cpp:144] Setting up fc8
I1008 09:47:32.832382    96 net.cpp:151] Top shape: 256 2 (512)
I1008 09:47:32.832386    96 net.cpp:159] Memory required for data: 2132899840
I1008 09:47:32.832391    96 layer_factory.hpp:77] Creating layer loss
I1008 09:47:32.834098    96 net.cpp:94] Creating Layer loss
I1008 09:47:32.834115    96 net.cpp:435] loss <- fc8
I1008 09:47:32.834129    96 net.cpp:435] loss <- label
I1008 09:47:32.834144    96 net.cpp:409] loss -> loss
I1008 09:47:32.834172    96 layer_factory.hpp:77] Creating layer loss
…
I1008 09:47:32.842114    96 net.cpp:323] The NetState phase (1) differed from the phase (0) specified by a rule in layer data
I1008 09:47:32.842161    96 net.cpp:52] Initializing net from parameters:
name: "alexnetBNnoLRN m2 (as m3 but less DROP and less BN)"
state {
  phase: TEST
}
layer {
  name: "data"
  type: "Data"
  top: "data"
  top: "label"
  include {
    phase: TEST
  }
  transform_param {
    mirror: false
    crop_size: 227
    mean_value: 106
    mean_value: 116
    mean_value: 124
  }
  data_param {
    source: "input/lmdb/valid_lmdb"
    batch_size: 50
    backend: LMDB
  }
}
layer {
  name: "conv1"
  type: "Convolution"
  bottom: "data"
  top: "conv1"
  param {
    lr_mult: 1
    decay_mult: 1
  }
  param {
    lr_mult: 2
    decay_mult: 0
  }
  convolution_param {
    num_output: 96
    pad: 0
    kernel_size: 8
    stride: 4
    weight_filler {
      type: "gaussian"
      std: 0.01
    }
    bias_filler {
      type: "constant"
      value: 0
    }
  }
}
layer {
  name: "bn1"
  type: "BatchNorm"
  bottom: "conv1"
  top: "bn1"
  param {
    lr_mult: 0
  }
  param {
    lr_mult: 0
  }
  param {
    lr_mult: 0
  }
  batch_norm_param {
    use_global_stats: false
  }
}
layer {
  name: "relu1"
  type: "ReLU"
  bottom: "bn1"
  top: "relu1"
}
layer {
  name: "pool1"
  type: "Pooling"
  bottom: "relu1"
  top: "pool1"
  pooling_param {
    pool: MAX
    kernel_size: 3
    stride: 2
  }
}
layer {
  name: "conv2"
  type: "Convolution"
  bottom: "pool1"
  top: "conv2"
  param {
    lr_mult: 1
    decay_mult: 1
  }
  param {
    lr_mult: 2
    decay_mult: 0
  }
  convolution_param {
    num_output: 256
    pad: 2
    kernel_size: 5
    group: 1
    weight_filler {
      type: "gaussian"
      std: 0.01
    }
    bias_filler {
      type: "constant"
      value: 1
    }
  }
}
layer {
  name: "bn2"
  type: "BatchNorm"
  bottom: "conv2"
  top: "bn2"
  param {
    lr_mult: 0
  }
  param {
    lr_mult: 0
  }
  param {
    lr_mult: 0
  }
  batch_norm_param {
    use_global_stats: false
  }
}
layer {
  name: "relu2"
  type: "ReLU"
  bottom: "bn2"
  top: "relu2"
}
layer {
  name: "pool2"
  type: "Pooling"
  bottom: "relu2"
  top: "pool2"
  pooling_param {
    pool: MAX
    kernel_size: 3
    stride: 2
  }
}
layer {
  name: "conv3"
  type: "Convolution"
  bottom: "pool2"
  top: "conv3"
  param {
    lr_mult: 1
    decay_mult: 1
  }
  param {
    lr_mult: 2
    decay_mult: 0
  }
  convolution_param {
    num_output: 384
    pad: 1
    kernel_size: 3
    weight_filler {
      type: "gaussian"
      std: 0.01
    }
    bias_filler {
      type: "constant"
      value: 0
    }
  }
}
layer {
  name: "relu3"
  type: "ReLU"
  bottom: "conv3"
  top: "relu3"
}
layer {
  name: "conv4"
  type: "Convolution"
  bottom: "relu3"
  top: "conv4"
  param {
    lr_mult: 1
    decay_mult: 1
  }
  param {
    lr_mult: 2
    decay_mult: 0
  }
  convolution_param {
    num_output: 384
    pad: 1
    kernel_size: 3
    group: 1
    weight_filler {
      type: "gaussian"
      std: 0.01
    }
    bias_filler {
      type: "constant"
      value: 1
    }
  }
}
layer {
  name: "relu4"
  type: "ReLU"
  bottom: "conv4"
  top: "relu4"
}
layer {
  name: "conv5"
  type: "Convolution"
  bottom: "relu4"
  top: "conv5"
  param {
    lr_mult: 1
    decay_mult: 1
  }
  param {
    lr_mult: 2
    decay_mult: 0
  }
  convolution_param {
    num_output: 256
    pad: 1
    kernel_size: 3
    group: 1
    weight_filler {
      type: "gaussian"
      std: 0.01
    }
    bias_filler {
      type: "constant"
      value: 1
    }
  }
}
layer {
  name: "relu5"
  type: "ReLU"
  bottom: "conv5"
  top: "relu5"
}
layer {
  name: "pool5"
  type: "Pooling"
  bottom: "relu5"
  top: "pool5"
  pooling_param {
    pool: MAX
    kernel_size: 3
    stride: 2
  }
}
layer {
  name: "fc6"
  type: "InnerProduct"
  bottom: "pool5"
  top: "fc6"
  param {
    lr_mult: 1
    decay_mult: 1
  }
  param {
    lr_mult: 2
    decay_mult: 0
  }
  inner_product_param {
    num_output: 4096
    weight_filler {
      type: "gaussian"
      std: 0.005
    }
    bias_filler {
      type: "constant"
      value: 1
    }
  }
}
layer {
  name: "relu6"
  type: "ReLU"
  bottom: "fc6"
  top: "relu6"
}
layer {
  name: "drop6"
  type: "Dropout"
  bottom: "relu6"
  top: "drop6"
  dropout_param {
    dropout_ratio: 0.5
  }
}
layer {
  name: "fc7"
  type: "InnerProduct"
  bottom: "drop6"
  top: "fc7"
  param {
    lr_mult: 1
    decay_mult: 1
  }
  param {
    lr_mult: 2
    decay_mult: 0
  }
  inner_product_param {
    num_output: 4096
    weight_filler {
      type: "gaussian"
      std: 0.005
    }
    bias_filler {
      type: "constant"
      value: 1
    }
  }
}
layer {
  name: "bn7"
  type: "BatchNorm"
  bottom: "fc7"
  top: "bn7"
  param {
    lr_mult: 0
  }
  param {
    lr_mult: 0
  }
  param {
    lr_mult: 0
  }
  batch_norm_param {
    use_global_stats: false
  }
}
layer {
  name: "relu7"
  type: "ReLU"
  bottom: "bn7"
  top: "relu7"
}
layer {
  name: "drop7"
  type: "Dropout"
  bottom: "relu7"
  top: "drop7"
  dropout_param {
    dropout_ratio: 0.5
  }
}
layer {
  name: "fc8"
  type: "InnerProduct"
  bottom: "drop7"
  top: "fc8"
  param {
    lr_mult: 1
    decay_mult: 1
  }
  param {
    lr_mult: 2
    decay_mult: 0
  }
  inner_product_param {
    num_output: 2
    weight_filler {
      type: "gaussian"
      std: 0.01
    }
    bias_filler {
      type: "constant"
      value: 0
    }
  }
}
layer {
  name: "accuracy"
  type: "Accuracy"
  bottom: "fc8"
  bottom: "label"
  top: "accuracy"
  include {
    phase: TEST
  }
}
layer {
  name: "loss"
  type: "SoftmaxWithLoss"
  bottom: "fc8"
  bottom: "label"
  top: "loss"
}
layer {
  name: "accuracy-top1"
  type: "Accuracy"
  bottom: "fc8"
  bottom: "label"
  top: "top-1"
  include {
    phase: TEST
  }
}
I1008 09:47:32.842806    96 layer_factory.hpp:77] Creating layer data
I1008 09:47:32.842911    96 internal_thread.cpp:27] Starting internal thread(s) on GPU 0
I1008 09:47:32.846294    96 net.cpp:94] Creating Layer data
I1008 09:47:32.846335    96 net.cpp:409] data -> data
I1008 09:47:32.846364    96 net.cpp:409] data -> label
I1008 09:47:32.940346   158 db_lmdb.cpp:35] Opened lmdb input/lmdb/valid_lmdb
I1008 09:47:32.940382   158 db_lmdb.cpp:38] Items count: 4000
I1008 09:47:32.967728   158 data_reader.cpp:124] TEST: reading data using 1 channel(s)
I1008 09:47:32.976428    96 data_layer.cpp:78] ReshapePrefetch 50, 3, 227, 227
I1008 09:47:32.976616    96 data_layer.cpp:83] output data size: 50,3,227,227
I1008 09:47:33.117146    96 internal_thread.cpp:27] Starting internal thread(s) on GPU 0
I1008 09:47:33.117362    96 net.cpp:144] Setting up data
I1008 09:47:33.117369    96 net.cpp:151] Top shape: 50 3 227 227 (7729350)
I1008 09:47:33.117378    96 net.cpp:151] Top shape: 50 (50)
I1008 09:47:33.117381    96 net.cpp:159] Memory required for data: 30917600
I1008 09:47:33.117386    96 layer_factory.hpp:77] Creating layer label_data_1_split
I1008 09:47:33.117398    96 net.cpp:94] Creating Layer label_data_1_split
I1008 09:47:33.117401    96 net.cpp:435] label_data_1_split <- label
I1008 09:47:33.117408    96 net.cpp:409] label_data_1_split -> label_data_1_split_0
I1008 09:47:33.117417    96 net.cpp:409] label_data_1_split -> label_data_1_split_1
I1008 09:47:33.117421    96 net.cpp:409] label_data_1_split -> label_data_1_split_2
I1008 09:47:33.117461    96 net.cpp:144] Setting up label_data_1_split
I1008 09:47:33.117465    96 net.cpp:151] Top shape: 50 (50)
I1008 09:47:33.117467    96 net.cpp:151] Top shape: 50 (50)
I1008 09:47:33.117471    96 net.cpp:151] Top shape: 50 (50)
I1008 09:47:33.117475    96 net.cpp:159] Memory required for data: 30918200
I1008 09:47:33.117493    96 layer_factory.hpp:77] Creating layer conv1
I1008 09:47:33.117527    96 net.cpp:94] Creating Layer conv1
I1008 09:47:33.117530    96 net.cpp:435] conv1 <- data
I1008 09:47:33.117535    96 net.cpp:409] conv1 -> conv1
I1008 09:47:33.117982    96 net.cpp:144] Setting up conv1
I1008 09:47:33.117990    96 net.cpp:151] Top shape: 50 96 55 55 (14520000)
I1008 09:47:33.117996    96 net.cpp:159] Memory required for data: 88998200
I1008 09:47:33.118005    96 layer_factory.hpp:77] Creating layer bn1
I1008 09:47:33.118013    96 net.cpp:94] Creating Layer bn1
I1008 09:47:33.118017    96 net.cpp:435] bn1 <- conv1
I1008 09:47:33.118021    96 net.cpp:409] bn1 -> bn1
I1008 09:47:33.118331    96 net.cpp:144] Setting up bn1
I1008 09:47:33.118336    96 net.cpp:151] Top shape: 50 96 55 55 (14520000)
I1008 09:47:33.118342    96 net.cpp:159] Memory required for data: 147078200
I1008 09:47:33.118351    96 layer_factory.hpp:77] Creating layer relu1
I1008 09:47:33.118358    96 net.cpp:94] Creating Layer relu1
I1008 09:47:33.118361    96 net.cpp:435] relu1 <- bn1
I1008 09:47:33.118366    96 net.cpp:409] relu1 -> relu1
I1008 09:47:33.118377    96 net.cpp:144] Setting up relu1
I1008 09:47:33.118381    96 net.cpp:151] Top shape: 50 96 55 55 (14520000)
I1008 09:47:33.118386    96 net.cpp:159] Memory required for data: 205158200
I1008 09:47:33.118389    96 layer_factory.hpp:77] Creating layer pool1
I1008 09:47:33.118394    96 net.cpp:94] Creating Layer pool1
I1008 09:47:33.118398    96 net.cpp:435] pool1 <- relu1
I1008 09:47:33.118402    96 net.cpp:409] pool1 -> pool1
I1008 09:47:33.118417    96 net.cpp:144] Setting up pool1
I1008 09:47:33.118420    96 net.cpp:151] Top shape: 50 96 27 27 (3499200)
I1008 09:47:33.118425    96 net.cpp:159] Memory required for data: 219155000
I1008 09:47:33.118428    96 layer_factory.hpp:77] Creating layer conv2
I1008 09:47:33.118434    96 net.cpp:94] Creating Layer conv2
I1008 09:47:33.118438    96 net.cpp:435] conv2 <- pool1
I1008 09:47:33.118443    96 net.cpp:409] conv2 -> conv2
I1008 09:47:33.124785    96 net.cpp:144] Setting up conv2
I1008 09:47:33.124801    96 net.cpp:151] Top shape: 50 256 27 27 (9331200)
I1008 09:47:33.124810    96 net.cpp:159] Memory required for data: 256479800
I1008 09:47:33.124840    96 layer_factory.hpp:77] Creating layer bn2
I1008 09:47:33.124850    96 net.cpp:94] Creating Layer bn2
I1008 09:47:33.124856    96 net.cpp:435] bn2 <- conv2
I1008 09:47:33.124864    96 net.cpp:409] bn2 -> bn2
I1008 09:47:33.125161    96 net.cpp:144] Setting up bn2
I1008 09:47:33.125166    96 net.cpp:151] Top shape: 50 256 27 27 (9331200)
I1008 09:47:33.125172    96 net.cpp:159] Memory required for data: 293804600
I1008 09:47:33.125181    96 layer_factory.hpp:77] Creating layer relu2
I1008 09:47:33.125188    96 net.cpp:94] Creating Layer relu2
I1008 09:47:33.125191    96 net.cpp:435] relu2 <- bn2
I1008 09:47:33.125196    96 net.cpp:409] relu2 -> relu2
I1008 09:47:33.125208    96 net.cpp:144] Setting up relu2
I1008 09:47:33.125212    96 net.cpp:151] Top shape: 50 256 27 27 (9331200)
I1008 09:47:33.125218    96 net.cpp:159] Memory required for data: 331129400
I1008 09:47:33.125222    96 layer_factory.hpp:77] Creating layer pool2
I1008 09:47:33.125227    96 net.cpp:94] Creating Layer pool2
I1008 09:47:33.125231    96 net.cpp:435] pool2 <- relu2
I1008 09:47:33.125236    96 net.cpp:409] pool2 -> pool2
I1008 09:47:33.125252    96 net.cpp:144] Setting up pool2
I1008 09:47:33.125255    96 net.cpp:151] Top shape: 50 256 13 13 (2163200)
I1008 09:47:33.125259    96 net.cpp:159] Memory required for data: 339782200
I1008 09:47:33.125263    96 layer_factory.hpp:77] Creating layer conv3
I1008 09:47:33.125272    96 net.cpp:94] Creating Layer conv3
I1008 09:47:33.125275    96 net.cpp:435] conv3 <- pool2
I1008 09:47:33.125279    96 net.cpp:409] conv3 -> conv3
I1008 09:47:33.134502    96 net.cpp:144] Setting up conv3
I1008 09:47:33.134516    96 net.cpp:151] Top shape: 50 384 13 13 (3244800)
I1008 09:47:33.134522    96 net.cpp:159] Memory required for data: 352761400
I1008 09:47:33.134531    96 layer_factory.hpp:77] Creating layer relu3
I1008 09:47:33.134537    96 net.cpp:94] Creating Layer relu3
I1008 09:47:33.134557    96 net.cpp:435] relu3 <- conv3
I1008 09:47:33.134563    96 net.cpp:409] relu3 -> relu3
I1008 09:47:33.134579    96 net.cpp:144] Setting up relu3
I1008 09:47:33.134583    96 net.cpp:151] Top shape: 50 384 13 13 (3244800)
I1008 09:47:33.134588    96 net.cpp:159] Memory required for data: 365740600
I1008 09:47:33.134591    96 layer_factory.hpp:77] Creating layer conv4
I1008 09:47:33.134598    96 net.cpp:94] Creating Layer conv4
I1008 09:47:33.134603    96 net.cpp:435] conv4 <- relu3
I1008 09:47:33.134606    96 net.cpp:409] conv4 -> conv4
I1008 09:47:33.147357    96 net.cpp:144] Setting up conv4
I1008 09:47:33.147374    96 net.cpp:151] Top shape: 50 384 13 13 (3244800)
I1008 09:47:33.147382    96 net.cpp:159] Memory required for data: 378719800
I1008 09:47:33.147393    96 layer_factory.hpp:77] Creating layer relu4
I1008 09:47:33.147399    96 net.cpp:94] Creating Layer relu4
I1008 09:47:33.147404    96 net.cpp:435] relu4 <- conv4
I1008 09:47:33.147411    96 net.cpp:409] relu4 -> relu4
I1008 09:47:33.147429    96 net.cpp:144] Setting up relu4
I1008 09:47:33.147433    96 net.cpp:151] Top shape: 50 384 13 13 (3244800)
I1008 09:47:33.147437    96 net.cpp:159] Memory required for data: 391699000
I1008 09:47:33.147441    96 layer_factory.hpp:77] Creating layer conv5
I1008 09:47:33.147449    96 net.cpp:94] Creating Layer conv5
I1008 09:47:33.147452    96 net.cpp:435] conv5 <- relu4
I1008 09:47:33.147456    96 net.cpp:409] conv5 -> conv5
I1008 09:47:33.155294    96 net.cpp:144] Setting up conv5
I1008 09:47:33.155305    96 net.cpp:151] Top shape: 50 256 13 13 (2163200)
I1008 09:47:33.155313    96 net.cpp:159] Memory required for data: 400351800
I1008 09:47:33.155319    96 layer_factory.hpp:77] Creating layer relu5
I1008 09:47:33.155325    96 net.cpp:94] Creating Layer relu5
I1008 09:47:33.155329    96 net.cpp:435] relu5 <- conv5
I1008 09:47:33.155334    96 net.cpp:409] relu5 -> relu5
I1008 09:47:33.155349    96 net.cpp:144] Setting up relu5
I1008 09:47:33.155352    96 net.cpp:151] Top shape: 50 256 13 13 (2163200)
I1008 09:47:33.155356    96 net.cpp:159] Memory required for data: 409004600
I1008 09:47:33.155359    96 layer_factory.hpp:77] Creating layer pool5
I1008 09:47:33.155365    96 net.cpp:94] Creating Layer pool5
I1008 09:47:33.155369    96 net.cpp:435] pool5 <- relu5
I1008 09:47:33.155372    96 net.cpp:409] pool5 -> pool5
I1008 09:47:33.155387    96 net.cpp:144] Setting up pool5
I1008 09:47:33.155390    96 net.cpp:151] Top shape: 50 256 6 6 (460800)
I1008 09:47:33.155395    96 net.cpp:159] Memory required for data: 410847800
I1008 09:47:33.155397    96 layer_factory.hpp:77] Creating layer fc6
I1008 09:47:33.155403    96 net.cpp:94] Creating Layer fc6
I1008 09:47:33.155406    96 net.cpp:435] fc6 <- pool5
I1008 09:47:33.155411    96 net.cpp:409] fc6 -> fc6
I1008 09:47:33.476367    96 net.cpp:144] Setting up fc6
I1008 09:47:33.476392    96 net.cpp:151] Top shape: 50 4096 (204800)
I1008 09:47:33.476402    96 net.cpp:159] Memory required for data: 411667000
I1008 09:47:33.476428    96 layer_factory.hpp:77] Creating layer relu6
I1008 09:47:33.476436    96 net.cpp:94] Creating Layer relu6
I1008 09:47:33.476441    96 net.cpp:435] relu6 <- fc6
I1008 09:47:33.476449    96 net.cpp:409] relu6 -> relu6
I1008 09:47:33.476467    96 net.cpp:144] Setting up relu6
I1008 09:47:33.476470    96 net.cpp:151] Top shape: 50 4096 (204800)
I1008 09:47:33.476475    96 net.cpp:159] Memory required for data: 412486200
I1008 09:47:33.476477    96 layer_factory.hpp:77] Creating layer drop6
I1008 09:47:33.476483    96 net.cpp:94] Creating Layer drop6
I1008 09:47:33.476486    96 net.cpp:435] drop6 <- relu6
I1008 09:47:33.476490    96 net.cpp:409] drop6 -> drop6
I1008 09:47:33.476505    96 net.cpp:144] Setting up drop6
I1008 09:47:33.476507    96 net.cpp:151] Top shape: 50 4096 (204800)
I1008 09:47:33.476511    96 net.cpp:159] Memory required for data: 413305400
I1008 09:47:33.476513    96 layer_factory.hpp:77] Creating layer fc7
I1008 09:47:33.476521    96 net.cpp:94] Creating Layer fc7
I1008 09:47:33.476523    96 net.cpp:435] fc7 <- drop6
I1008 09:47:33.476550    96 net.cpp:409] fc7 -> fc7
I1008 09:47:33.615875    96 net.cpp:144] Setting up fc7
I1008 09:47:33.615900    96 net.cpp:151] Top shape: 50 4096 (204800)
I1008 09:47:33.615906    96 net.cpp:159] Memory required for data: 414124600
I1008 09:47:33.615917    96 layer_factory.hpp:77] Creating layer bn7
I1008 09:47:33.615927    96 net.cpp:94] Creating Layer bn7
I1008 09:47:33.615932    96 net.cpp:435] bn7 <- fc7
I1008 09:47:33.615938    96 net.cpp:409] bn7 -> bn7
I1008 09:47:33.616222    96 net.cpp:144] Setting up bn7
I1008 09:47:33.616226    96 net.cpp:151] Top shape: 50 4096 (204800)
I1008 09:47:33.616230    96 net.cpp:159] Memory required for data: 414943800
I1008 09:47:33.616237    96 layer_factory.hpp:77] Creating layer relu7
I1008 09:47:33.616242    96 net.cpp:94] Creating Layer relu7
I1008 09:47:33.616245    96 net.cpp:435] relu7 <- bn7
I1008 09:47:33.616250    96 net.cpp:409] relu7 -> relu7
I1008 09:47:33.616261    96 net.cpp:144] Setting up relu7
I1008 09:47:33.616263    96 net.cpp:151] Top shape: 50 4096 (204800)
I1008 09:47:33.616267    96 net.cpp:159] Memory required for data: 415763000
I1008 09:47:33.616271    96 layer_factory.hpp:77] Creating layer drop7
I1008 09:47:33.616276    96 net.cpp:94] Creating Layer drop7
I1008 09:47:33.616278    96 net.cpp:435] drop7 <- relu7
I1008 09:47:33.616281    96 net.cpp:409] drop7 -> drop7
I1008 09:47:33.616295    96 net.cpp:144] Setting up drop7
I1008 09:47:33.616298    96 net.cpp:151] Top shape: 50 4096 (204800)
I1008 09:47:33.616302    96 net.cpp:159] Memory required for data: 416582200
I1008 09:47:33.616305    96 layer_factory.hpp:77] Creating layer fc8
I1008 09:47:33.616312    96 net.cpp:94] Creating Layer fc8
I1008 09:47:33.616314    96 net.cpp:435] fc8 <- drop7
I1008 09:47:33.616318    96 net.cpp:409] fc8 -> fc8
I1008 09:47:33.616441    96 net.cpp:144] Setting up fc8
I1008 09:47:33.616446    96 net.cpp:151] Top shape: 50 2 (100)
I1008 09:47:33.616452    96 net.cpp:159] Memory required for data: 416582600
I1008 09:47:33.616462    96 layer_factory.hpp:77] Creating layer fc8_fc8_0_split
I1008 09:47:33.616469    96 net.cpp:94] Creating Layer fc8_fc8_0_split
I1008 09:47:33.616473    96 net.cpp:435] fc8_fc8_0_split <- fc8
I1008 09:47:33.616478    96 net.cpp:409] fc8_fc8_0_split -> fc8_fc8_0_split_0
I1008 09:47:33.616484    96 net.cpp:409] fc8_fc8_0_split -> fc8_fc8_0_split_1
I1008 09:47:33.616489    96 net.cpp:409] fc8_fc8_0_split -> fc8_fc8_0_split_2
I1008 09:47:33.616510    96 net.cpp:144] Setting up fc8_fc8_0_split
I1008 09:47:33.616513    96 net.cpp:151] Top shape: 50 2 (100)
I1008 09:47:33.616518    96 net.cpp:151] Top shape: 50 2 (100)
I1008 09:47:33.616521    96 net.cpp:151] Top shape: 50 2 (100)
I1008 09:47:33.616525    96 net.cpp:159] Memory required for data: 416583800
I1008 09:47:33.616529    96 layer_factory.hpp:77] Creating layer accuracy
I1008 09:47:33.616537    96 net.cpp:94] Creating Layer accuracy
I1008 09:47:33.616544    96 net.cpp:435] accuracy <- fc8_fc8_0_split_0
I1008 09:47:33.616547    96 net.cpp:435] accuracy <- label_data_1_split_0
I1008 09:47:33.616552    96 net.cpp:409] accuracy -> accuracy
…
TRAINING WITH CAFFE


Elapsed time for Caffe training (s):  5155.539159



STEP5: PLOT LEARNING CURVERS (METHOD1)


STEP6: COMPUTE PREDICTIONS

I1011 09:34:57.090226    86 gpu_memory.cpp:55] Total memory: 25635848192, Free: 24830148608, dev_info[0]: total=25635848192 free=24830148608
I1011 09:34:57.096993    86 net.cpp:52] Initializing net from parameters:
name: "AlexNet_BNnoLRN m2 deploy"
state {
  phase: TEST
}
layer {
  name: "data"
  type: "Input"
  top: "data"
  input_param {
    shape {
      dim: 1
      dim: 3
      dim: 227
      dim: 227
    }
  }
}
layer {
  name: "conv1"
  type: "Convolution"
  bottom: "data"
  top: "conv1"
  param {
    lr_mult: 1
    decay_mult: 1
  }
  param {
    lr_mult: 2
    decay_mult: 0
  }
  convolution_param {
    num_output: 96
    pad: 0
    kernel_size: 8
    stride: 4
    weight_filler {
      type: "gaussian"
      std: 0.01
    }
    bias_filler {
      type: "constant"
      value: 0
    }
  }
}
layer {
  name: "bn1"
  type: "BatchNorm"
  bottom: "conv1"
  top: "bn1"
  param {
    lr_mult: 0
  }
  param {
    lr_mult: 0
  }
  param {
    lr_mult: 0
  }
  batch_norm_param {
    use_global_stats: true
  }
}
layer {
  name: "relu1"
  type: "ReLU"
  bottom: "bn1"
  top: "relu1"
}
layer {
  name: "pool1"
  type: "Pooling"
  bottom: "relu1"
  top: "pool1"
  pooling_param {
    pool: MAX
    kernel_size: 3
    stride: 2
  }
}
layer {
  name: "conv2"
  type: "Convolution"
  bottom: "pool1"
  top: "conv2"
  param {
    lr_mult: 1
    decay_mult: 1
  }
  param {
    lr_mult: 2
    decay_mult: 0
  }
  convolution_param {
    num_output: 256
    pad: 2
    kernel_size: 5
    group: 1
    weight_filler {
      type: "gaussian"
      std: 0.01
    }
    bias_filler {
      type: "constant"
      value: 1
    }
  }
}
layer {
  name: "bn2"
  type: "BatchNorm"
  bottom: "conv2"
  top: "bn2"
  param {
    lr_mult: 0
  }
  param {
    lr_mult: 0
  }
  param {
    lr_mult: 0
  }
  batch_norm_param {
    use_global_stats: true
  }
}
layer {
  name: "relu2"
  type: "ReLU"
  bottom: "bn2"
  top: "relu2"
}
layer {
  name: "pool2"
  type: "Pooling"
  bottom: "relu2"
  top: "pool2"
  pooling_param {
    pool: MAX
    kernel_size: 3
    stride: 2
  }
}
layer {
  name: "conv3"
  type: "Convolution"
  bottom: "pool2"
  top: "conv3"
  param {
    lr_mult: 1
    decay_mult: 1
  }
  param {
    lr_mult: 2
    decay_mult: 0
  }
  convolution_param {
    num_output: 384
    pad: 1
    kernel_size: 3
    weight_filler {
      type: "gaussian"
      std: 0.01
    }
    bias_filler {
      type: "constant"
      value: 0
    }
  }
}
layer {
  name: "relu3"
  type: "ReLU"
  bottom: "conv3"
  top: "relu3"
}
layer {
  name: "conv4"
  type: "Convolution"
  bottom: "relu3"
  top: "conv4"
  param {
    lr_mult: 1
    decay_mult: 1
  }
  param {
    lr_mult: 2
    decay_mult: 0
  }
  convolution_param {
    num_output: 384
    pad: 1
    kernel_size: 3
    group: 1
    weight_filler {
      type: "gaussian"
      std: 0.01
    }
    bias_filler {
      type: "constant"
      value: 1
    }
  }
}
layer {
  name: "relu4"
  type: "ReLU"
  bottom: "conv4"
  top: "relu4"
}
layer {
  name: "conv5"
  type: "Convolution"
  bottom: "relu4"
  top: "conv5"
  param {
    lr_mult: 1
    decay_mult: 1
  }
  param {
    lr_mult: 2
    decay_mult: 0
  }
  convolution_param {
    num_output: 256
    pad: 1
    kernel_size: 3
    group: 1
    weight_filler {
      type: "gaussian"
      std: 0.01
    }
    bias_filler {
      type: "constant"
      value: 1
    }
  }
}
layer {
  name: "relu5"
  type: "ReLU"
  bottom: "conv5"
  top: "relu5"
}
layer {
  name: "pool5"
  type: "Pooling"
  bottom: "relu5"
  top: "pool5"
  pooling_param {
    pool: MAX
    kernel_size: 3
    stride: 2
  }
}
layer {
  name: "fc6"
  type: "InnerProduct"
  bottom: "pool5"
  top: "fc6"
  param {
    lr_mult: 1
    decay_mult: 1
  }
  param {
    lr_mult: 2
    decay_mult: 0
  }
  inner_product_param {
    num_output: 4096
    weight_filler {
      type: "gaussian"
      std: 0.005
    }
    bias_filler {
      type: "constant"
      value: 1
    }
  }
}
layer {
  name: "relu6"
  type: "ReLU"
  bottom: "fc6"
  top: "relu6"
}
layer {
  name: "drop6"
  type: "Dropout"
  bottom: "relu6"
  top: "drop6"
  dropout_param {
    dropout_ratio: 0.5
  }
}
layer {
  name: "fc7"
  type: "InnerProduct"
  bottom: "drop6"
  top: "fc7"
  param {
    lr_mult: 1
    decay_mult: 1
  }
  param {
    lr_mult: 2
    decay_mult: 0
  }
  inner_product_param {
    num_output: 4096
    weight_filler {
      type: "gaussian"
      std: 0.005
    }
    bias_filler {
      type: "constant"
      value: 1
    }
  }
}
layer {
  name: "bn7"
  type: "BatchNorm"
  bottom: "fc7"
  top: "bn7"
  param {
    lr_mult: 0
  }
  param {
    lr_mult: 0
  }
  param {
    lr_mult: 0
  }
  batch_norm_param {
    use_global_stats: true
  }
}
layer {
  name: "relu7"
  type: "ReLU"
  bottom: "bn7"
  top: "relu7"
}
layer {
  name: "drop7"
  type: "Dropout"
  bottom: "relu7"
  top: "drop7"
  dropout_param {
    dropout_ratio: 0.5
  }
}
layer {
  name: "fc8"
  type: "InnerProduct"
  bottom: "drop7"
  top: "fc8"
  param {
    lr_mult: 1
    decay_mult: 1
  }
  param {
    lr_mult: 2
    decay_mult: 0
  }
  inner_product_param {
    num_output: 2
    weight_filler {
      type: "gaussian"
      std: 0.01
    }
    bias_filler {
      type: "constant"
      value: 0
    }
  }
}
layer {
  name: "prob"
  type: "Softmax"
  bottom: "fc8"
  top: "prob"
}
I1011 09:34:57.098095    86 layer_factory.hpp:77] Creating layer data
I1011 09:34:57.098421    86 net.cpp:94] Creating Layer data
I1011 09:34:57.098912    86 net.cpp:409] data -> data
I1011 09:34:57.099470    86 net.cpp:144] Setting up data
I1011 09:34:57.099491    86 net.cpp:151] Top shape: 1 3 227 227 (154587)
I1011 09:34:57.099510    86 net.cpp:159] Memory required for data: 618348
I1011 09:34:57.099521    86 layer_factory.hpp:77] Creating layer conv1
I1011 09:34:57.099550    86 net.cpp:94] Creating Layer conv1
I1011 09:34:57.099560    86 net.cpp:435] conv1 <- data
I1011 09:34:57.099577    86 net.cpp:409] conv1 -> conv1
I1011 09:34:57.102692    86 net.cpp:144] Setting up conv1
I1011 09:34:57.102716    86 net.cpp:151] Top shape: 1 96 55 55 (290400)
I1011 09:34:57.102737    86 net.cpp:159] Memory required for data: 1779948
I1011 09:34:57.102771    86 layer_factory.hpp:77] Creating layer bn1
I1011 09:34:57.102802    86 net.cpp:94] Creating Layer bn1
I1011 09:34:57.102811    86 net.cpp:435] bn1 <- conv1
I1011 09:34:57.102825    86 net.cpp:409] bn1 -> bn1
I1011 09:34:57.103825    86 net.cpp:144] Setting up bn1
I1011 09:34:57.103847    86 net.cpp:151] Top shape: 1 96 55 55 (290400)
I1011 09:34:57.103863    86 net.cpp:159] Memory required for data: 2941548
I1011 09:34:57.103902    86 layer_factory.hpp:77] Creating layer relu1
I1011 09:34:57.103919    86 net.cpp:94] Creating Layer relu1
I1011 09:34:57.103929    86 net.cpp:435] relu1 <- bn1
I1011 09:34:57.103941    86 net.cpp:409] relu1 -> relu1
I1011 09:34:57.103991    86 net.cpp:144] Setting up relu1
I1011 09:34:57.104003    86 net.cpp:151] Top shape: 1 96 55 55 (290400)
I1011 09:34:57.104017    86 net.cpp:159] Memory required for data: 4103148
I1011 09:34:57.104027    86 layer_factory.hpp:77] Creating layer pool1
I1011 09:34:57.104048    86 net.cpp:94] Creating Layer pool1
I1011 09:34:57.104056    86 net.cpp:435] pool1 <- relu1
I1011 09:34:57.104068    86 net.cpp:409] pool1 -> pool1
I1011 09:34:57.104133    86 net.cpp:144] Setting up pool1
I1011 09:34:57.104146    86 net.cpp:151] Top shape: 1 96 27 27 (69984)
I1011 09:34:57.104158    86 net.cpp:159] Memory required for data: 4383084
I1011 09:34:57.104167    86 layer_factory.hpp:77] Creating layer conv2
I1011 09:34:57.104194    86 net.cpp:94] Creating Layer conv2
I1011 09:34:57.104204    86 net.cpp:435] conv2 <- pool1
I1011 09:34:57.104216    86 net.cpp:409] conv2 -> conv2
I1011 09:34:57.122082    86 net.cpp:144] Setting up conv2
I1011 09:34:57.122112    86 net.cpp:151] Top shape: 1 256 27 27 (186624)
I1011 09:34:57.122126    86 net.cpp:159] Memory required for data: 5129580
I1011 09:34:57.122148    86 layer_factory.hpp:77] Creating layer bn2
I1011 09:34:57.122171    86 net.cpp:94] Creating Layer bn2
I1011 09:34:57.122179    86 net.cpp:435] bn2 <- conv2
I1011 09:34:57.122189    86 net.cpp:409] bn2 -> bn2
I1011 09:34:57.122735    86 net.cpp:144] Setting up bn2
I1011 09:34:57.122747    86 net.cpp:151] Top shape: 1 256 27 27 (186624)
I1011 09:34:57.122757    86 net.cpp:159] Memory required for data: 5876076
I1011 09:34:57.122776    86 layer_factory.hpp:77] Creating layer relu2
I1011 09:34:57.122789    86 net.cpp:94] Creating Layer relu2
I1011 09:34:57.122795    86 net.cpp:435] relu2 <- bn2
I1011 09:34:57.122803    86 net.cpp:409] relu2 -> relu2
I1011 09:34:57.122824    86 net.cpp:144] Setting up relu2
I1011 09:34:57.122830    86 net.cpp:151] Top shape: 1 256 27 27 (186624)
I1011 09:34:57.122838    86 net.cpp:159] Memory required for data: 6622572
I1011 09:34:57.122844    86 layer_factory.hpp:77] Creating layer pool2
I1011 09:34:57.122857    86 net.cpp:94] Creating Layer pool2
I1011 09:34:57.122864    86 net.cpp:435] pool2 <- relu2
I1011 09:34:57.122870    86 net.cpp:409] pool2 -> pool2
I1011 09:34:57.122911    86 net.cpp:144] Setting up pool2
I1011 09:34:57.122920    86 net.cpp:151] Top shape: 1 256 13 13 (43264)
I1011 09:34:57.122931    86 net.cpp:159] Memory required for data: 6795628
I1011 09:34:57.122937    86 layer_factory.hpp:77] Creating layer conv3
I1011 09:34:57.122949    86 net.cpp:94] Creating Layer conv3
I1011 09:34:57.122956    86 net.cpp:435] conv3 <- pool2
I1011 09:34:57.122964    86 net.cpp:409] conv3 -> conv3
I1011 09:34:57.137048    86 net.cpp:144] Setting up conv3
I1011 09:34:57.137068    86 net.cpp:151] Top shape: 1 384 13 13 (64896)
I1011 09:34:57.137075    86 net.cpp:159] Memory required for data: 7055212
I1011 09:34:57.137084    86 layer_factory.hpp:77] Creating layer relu3
I1011 09:34:57.137094    86 net.cpp:94] Creating Layer relu3
I1011 09:34:57.137099    86 net.cpp:435] relu3 <- conv3
I1011 09:34:57.137105    86 net.cpp:409] relu3 -> relu3
I1011 09:34:57.137125    86 net.cpp:144] Setting up relu3
I1011 09:34:57.137127    86 net.cpp:151] Top shape: 1 384 13 13 (64896)
I1011 09:34:57.137131    86 net.cpp:159] Memory required for data: 7314796
I1011 09:34:57.137135    86 layer_factory.hpp:77] Creating layer conv4
I1011 09:34:57.137142    86 net.cpp:94] Creating Layer conv4
I1011 09:34:57.137145    86 net.cpp:435] conv4 <- relu3
I1011 09:34:57.137149    86 net.cpp:409] conv4 -> conv4
I1011 09:34:57.151042    86 net.cpp:144] Setting up conv4
I1011 09:34:57.151058    86 net.cpp:151] Top shape: 1 384 13 13 (64896)
I1011 09:34:57.151065    86 net.cpp:159] Memory required for data: 7574380
I1011 09:34:57.151077    86 layer_factory.hpp:77] Creating layer relu4
I1011 09:34:57.151083    86 net.cpp:94] Creating Layer relu4
I1011 09:34:57.151086    86 net.cpp:435] relu4 <- conv4
I1011 09:34:57.151109    86 net.cpp:409] relu4 -> relu4
I1011 09:34:57.151127    86 net.cpp:144] Setting up relu4
I1011 09:34:57.151130    86 net.cpp:151] Top shape: 1 384 13 13 (64896)
I1011 09:34:57.151134    86 net.cpp:159] Memory required for data: 7833964
I1011 09:34:57.151137    86 layer_factory.hpp:77] Creating layer conv5
I1011 09:34:57.151145    86 net.cpp:94] Creating Layer conv5
I1011 09:34:57.151149    86 net.cpp:435] conv5 <- relu4
I1011 09:34:57.151151    86 net.cpp:409] conv5 -> conv5
I1011 09:34:57.159709    86 net.cpp:144] Setting up conv5
I1011 09:34:57.159724    86 net.cpp:151] Top shape: 1 256 13 13 (43264)
I1011 09:34:57.159731    86 net.cpp:159] Memory required for data: 8007020
I1011 09:34:57.159739    86 layer_factory.hpp:77] Creating layer relu5
I1011 09:34:57.159746    86 net.cpp:94] Creating Layer relu5
I1011 09:34:57.159751    86 net.cpp:435] relu5 <- conv5
I1011 09:34:57.159757    86 net.cpp:409] relu5 -> relu5
I1011 09:34:57.159791    86 net.cpp:144] Setting up relu5
I1011 09:34:57.159794    86 net.cpp:151] Top shape: 1 256 13 13 (43264)
I1011 09:34:57.159798    86 net.cpp:159] Memory required for data: 8180076
I1011 09:34:57.159801    86 layer_factory.hpp:77] Creating layer pool5
I1011 09:34:57.159806    86 net.cpp:94] Creating Layer pool5
I1011 09:34:57.159809    86 net.cpp:435] pool5 <- relu5
I1011 09:34:57.159812    86 net.cpp:409] pool5 -> pool5
I1011 09:34:57.159830    86 net.cpp:144] Setting up pool5
I1011 09:34:57.159833    86 net.cpp:151] Top shape: 1 256 6 6 (9216)
I1011 09:34:57.159837    86 net.cpp:159] Memory required for data: 8216940
I1011 09:34:57.159840    86 layer_factory.hpp:77] Creating layer fc6
I1011 09:34:57.159849    86 net.cpp:94] Creating Layer fc6
I1011 09:34:57.159852    86 net.cpp:435] fc6 <- pool5
I1011 09:34:57.159858    86 net.cpp:409] fc6 -> fc6
I1011 09:34:57.488330    86 net.cpp:144] Setting up fc6
I1011 09:34:57.488353    86 net.cpp:151] Top shape: 1 4096 (4096)
I1011 09:34:57.488360    86 net.cpp:159] Memory required for data: 8233324
I1011 09:34:57.488387    86 layer_factory.hpp:77] Creating layer relu6
I1011 09:34:57.488399    86 net.cpp:94] Creating Layer relu6
I1011 09:34:57.488402    86 net.cpp:435] relu6 <- fc6
I1011 09:34:57.488409    86 net.cpp:409] relu6 -> relu6
I1011 09:34:57.488426    86 net.cpp:144] Setting up relu6
I1011 09:34:57.488430    86 net.cpp:151] Top shape: 1 4096 (4096)
I1011 09:34:57.488431    86 net.cpp:159] Memory required for data: 8249708
I1011 09:34:57.488435    86 layer_factory.hpp:77] Creating layer drop6
I1011 09:34:57.488484    86 net.cpp:94] Creating Layer drop6
I1011 09:34:57.488487    86 net.cpp:435] drop6 <- relu6
I1011 09:34:57.488492    86 net.cpp:409] drop6 -> drop6
I1011 09:34:57.488504    86 net.cpp:144] Setting up drop6
I1011 09:34:57.488507    86 net.cpp:151] Top shape: 1 4096 (4096)
I1011 09:34:57.488510    86 net.cpp:159] Memory required for data: 8266092
I1011 09:34:57.488512    86 layer_factory.hpp:77] Creating layer fc7
I1011 09:34:57.488518    86 net.cpp:94] Creating Layer fc7
I1011 09:34:57.488521    86 net.cpp:435] fc7 <- drop6
I1011 09:34:57.488524    86 net.cpp:409] fc7 -> fc7
I1011 09:34:57.624805    86 net.cpp:144] Setting up fc7
I1011 09:34:57.624828    86 net.cpp:151] Top shape: 1 4096 (4096)
I1011 09:34:57.624835    86 net.cpp:159] Memory required for data: 8282476
I1011 09:34:57.624846    86 layer_factory.hpp:77] Creating layer bn7
I1011 09:34:57.624856    86 net.cpp:94] Creating Layer bn7
I1011 09:34:57.624861    86 net.cpp:435] bn7 <- fc7
I1011 09:34:57.624867    86 net.cpp:409] bn7 -> bn7
I1011 09:34:57.625164    86 net.cpp:144] Setting up bn7
I1011 09:34:57.625169    86 net.cpp:151] Top shape: 1 4096 (4096)
I1011 09:34:57.625172    86 net.cpp:159] Memory required for data: 8298860
I1011 09:34:57.625180    86 layer_factory.hpp:77] Creating layer relu7
I1011 09:34:57.625183    86 net.cpp:94] Creating Layer relu7
I1011 09:34:57.625186    86 net.cpp:435] relu7 <- bn7
I1011 09:34:57.625191    86 net.cpp:409] relu7 -> relu7
I1011 09:34:57.625201    86 net.cpp:144] Setting up relu7
I1011 09:34:57.625205    86 net.cpp:151] Top shape: 1 4096 (4096)
I1011 09:34:57.625208    86 net.cpp:159] Memory required for data: 8315244
I1011 09:34:57.625211    86 layer_factory.hpp:77] Creating layer drop7
I1011 09:34:57.625216    86 net.cpp:94] Creating Layer drop7
I1011 09:34:57.625218    86 net.cpp:435] drop7 <- relu7
I1011 09:34:57.625221    86 net.cpp:409] drop7 -> drop7
I1011 09:34:57.625236    86 net.cpp:144] Setting up drop7
I1011 09:34:57.625238    86 net.cpp:151] Top shape: 1 4096 (4096)
I1011 09:34:57.625241    86 net.cpp:159] Memory required for data: 8331628
I1011 09:34:57.625244    86 layer_factory.hpp:77] Creating layer fc8
I1011 09:34:57.625252    86 net.cpp:94] Creating Layer fc8
I1011 09:34:57.625254    86 net.cpp:435] fc8 <- drop7
I1011 09:34:57.625258    86 net.cpp:409] fc8 -> fc8
I1011 09:34:57.625388    86 net.cpp:144] Setting up fc8
I1011 09:34:57.625392    86 net.cpp:151] Top shape: 1 2 (2)
I1011 09:34:57.625396    86 net.cpp:159] Memory required for data: 8331636
I1011 09:34:57.625401    86 layer_factory.hpp:77] Creating layer prob
I1011 09:34:57.625404    86 net.cpp:94] Creating Layer prob
I1011 09:34:57.625407    86 net.cpp:435] prob <- fc8
I1011 09:34:57.625411    86 net.cpp:409] prob -> prob
I1011 09:34:57.627125    86 net.cpp:144] Setting up prob
I1011 09:34:57.627130    86 net.cpp:151] Top shape: 1 2 (2)
I1011 09:34:57.627135    86 net.cpp:159] Memory required for data: 8331644
I1011 09:34:57.627137    86 net.cpp:222] prob does not need backward computation.
I1011 09:34:57.627140    86 net.cpp:222] fc8 does not need backward computation.
I1011 09:34:57.627143    86 net.cpp:222] drop7 does not need backward computation.
I1011 09:34:57.627146    86 net.cpp:222] relu7 does not need backward computation.
…
I1008 12:40:12.231215   349 net.cpp:323] The NetState phase (0) differed from the phase (1) specified by a rule in layer accuracy-top1
I1008 12:40:12.231218   349 net.cpp:52] Initializing net from parameters:
state {
  phase: TRAIN
}
layer {
  name: "data"
  type: "ImageData"
  top: "data"
  top: "label"
  include {
    phase: TRAIN
  }
  transform_param {
    crop_size: 227
    mean_value: 106
    mean_value: 116
    mean_value: 124
  }
  image_data_param {
    source: "deploy/alexnetBNnoLRN/quantiz/data/calib/calibration.txt"
    batch_size: 10
    shuffle: true
    root_folder: "deploy/alexnetBNnoLRN/quantiz/data/calib/"
  }
}
layer {
  name: "conv1"
  type: "Convolution"
  bottom: "data"
  top: "conv1"
  param {
    lr_mult: 1
    decay_mult: 1
  }
  param {
    lr_mult: 2
    decay_mult: 0
  }
  convolution_param {
    num_output: 96
    pad: 0
    kernel_size: 8
    stride: 4
    weight_filler {
      type: "gaussian"
      std: 0.01
    }
    bias_filler {
      type: "constant"
      value: 0
    }
  }
}
layer {
  name: "bn1"
  type: "BatchNorm"
  bottom: "conv1"
  top: "bn1"
  param {
    lr_mult: 0
  }
  param {
    lr_mult: 0
  }
  param {
    lr_mult: 0
  }
  batch_norm_param {
    use_global_stats: false
  }
}
layer {
  name: "relu1"
  type: "ReLU"
  bottom: "bn1"
  top: "relu1"
}
layer {
  name: "pool1"
  type: "Pooling"
  bottom: "relu1"
  top: "pool1"
  pooling_param {
    pool: MAX
    kernel_size: 3
    stride: 2
  }
}
layer {
  name: "conv2"
  type: "Convolution"
  bottom: "pool1"
  top: "conv2"
  param {
    lr_mult: 1
    decay_mult: 1
  }
  param {
    lr_mult: 2
    decay_mult: 0
  }
  convolution_param {
    num_output: 256
    pad: 2
    kernel_size: 5
    group: 1
    weight_filler {
      type: "gaussian"
      std: 0.01
    }
    bias_filler {
      type: "constant"
      value: 1
    }
  }
}
layer {
  name: "bn2"
  type: "BatchNorm"
  bottom: "conv2"
  top: "bn2"
  param {
    lr_mult: 0
  }
  param {
    lr_mult: 0
  }
  param {
    lr_mult: 0
  }
  batch_norm_param {
    use_global_stats: false
  }
}
layer {
  name: "relu2"
  type: "ReLU"
  bottom: "bn2"
  top: "relu2"
}
layer {
  name: "pool2"
  type: "Pooling"
  bottom: "relu2"
  top: "pool2"
  pooling_param {
    pool: MAX
    kernel_size: 3
    stride: 2
  }
}
layer {
  name: "conv3"
  type: "Convolution"
  bottom: "pool2"
  top: "conv3"
  param {
    lr_mult: 1
    decay_mult: 1
  }
  param {
    lr_mult: 2
    decay_mult: 0
  }
  convolution_param {
    num_output: 384
    pad: 1
    kernel_size: 3
    weight_filler {
      type: "gaussian"
      std: 0.01
    }
    bias_filler {
      type: "constant"
      value: 0
    }
  }
}
layer {
  name: "relu3"
  type: "ReLU"
  bottom: "conv3"
  top: "relu3"
}
layer {
  name: "conv4"
  type: "Convolution"
  bottom: "relu3"
  top: "conv4"
  param {
    lr_mult: 1
    decay_mult: 1
  }
  param {
    lr_mult: 2
    decay_mult: 0
  }
  convolution_param {
    num_output: 384
    pad: 1
    kernel_size: 3
    group: 1
    weight_filler {
      type: "gaussian"
      std: 0.01
    }
    bias_filler {
      type: "constant"
      value: 1
    }
  }
}
layer {
  name: "relu4"
  type: "ReLU"
  bottom: "conv4"
  top: "relu4"
}
layer {
  name: "conv5"
  type: "Convolution"
  bottom: "relu4"
  top: "conv5"
  param {
    lr_mult: 1
    decay_mult: 1
  }
  param {
    lr_mult: 2
    decay_mult: 0
  }
  convolution_param {
    num_output: 256
    pad: 1
    kernel_size: 3
    group: 1
    weight_filler {
      type: "gaussian"
      std: 0.01
    }
    bias_filler {
      type: "constant"
      value: 1
    }
  }
}
layer {
  name: "relu5"
  type: "ReLU"
  bottom: "conv5"
  top: "relu5"
}
layer {
  name: "pool5"
  type: "Pooling"
  bottom: "relu5"
  top: "pool5"
  pooling_param {
    pool: MAX
    kernel_size: 3
    stride: 2
  }
}
layer {
  name: "fc6"
  type: "InnerProduct"
  bottom: "pool5"
  top: "fc6"
  param {
    lr_mult: 1
    decay_mult: 1
  }
  param {
    lr_mult: 2
    decay_mult: 0
  }
  inner_product_param {
    num_output: 4096
    weight_filler {
      type: "gaussian"
      std: 0.005
    }
    bias_filler {
      type: "constant"
      value: 1
    }
  }
}
layer {
  name: "relu6"
  type: "ReLU"
  bottom: "fc6"
  top: "relu6"
}
layer {
  name: "fc7"
  type: "InnerProduct"
  bottom: "relu6"
  top: "fc7"
  param {
    lr_mult: 1
    decay_mult: 1
  }
  param {
    lr_mult: 2
    decay_mult: 0
  }
  inner_product_param {
    num_output: 4096
    weight_filler {
      type: "gaussian"
      std: 0.005
    }
    bias_filler {
      type: "constant"
      value: 1
    }
  }
}
layer {
  name: "bn7"
  type: "BatchNorm"
  bottom: "fc7"
  top: "bn7"
  param {
    lr_mult: 0
  }
  param {
    lr_mult: 0
  }
  param {
    lr_mult: 0
  }
  batch_norm_param {
    use_global_stats: false
  }
}
layer {
  name: "relu7"
  type: "ReLU"
  bottom: "bn7"
  top: "relu7"
}
layer {
  name: "fc8"
  type: "InnerProduct"
  bottom: "relu7"
  top: "fc8"
  param {
    lr_mult: 1
    decay_mult: 1
  }
  param {
    lr_mult: 2
    decay_mult: 0
  }
  inner_product_param {
    num_output: 2
    weight_filler {
      type: "gaussian"
      std: 0.01
    }
    bias_filler {
      type: "constant"
      value: 0
    }
  }
}
layer {
  name: "loss"
  type: "SoftmaxWithLoss"
  bottom: "fc8"
  bottom: "label"
  top: "loss"
}
I1008 12:40:12.231413   349 layer_factory.hpp:77] Creating layer data
I1008 12:40:12.231432   349 net.cpp:94] Creating Layer data
I1008 12:40:12.231436   349 net.cpp:409] data -> data
I1008 12:40:12.231444   349 net.cpp:409] data -> label
I1008 12:40:12.231508   349 image_data_layer.cpp:41] Opening file deploy/alexnetBNnoLRN/quantiz/data/calib/calibration.txt
I1008 12:40:12.263132   349 image_data_layer.cpp:51] Shuffling data
I1008 12:40:12.263193   349 image_data_layer.cpp:56] A total of 200 images.
I1008 12:40:12.299727   349 image_data_layer.cpp:84] output data size: 10,3,227,227
I1008 12:40:12.338124   349 internal_thread.cpp:27] Starting internal thread(s) on GPU 0
I1008 12:40:12.338227   349 net.cpp:144] Setting up data
I1008 12:40:12.338233   349 net.cpp:151] Top shape: 10 3 227 227 (1545870)
I1008 12:40:12.338243   349 net.cpp:151] Top shape: 10 (10)
I1008 12:40:12.338246   349 net.cpp:159] Memory required for data: 6183520
I1008 12:40:12.338251   349 layer_factory.hpp:77] Creating layer conv1
I1008 12:40:12.338271   349 net.cpp:94] Creating Layer conv1
I1008 12:40:12.338275   349 net.cpp:435] conv1 <- data
I1008 12:40:12.338284   349 net.cpp:409] conv1 -> conv1
I1008 12:40:12.338752   349 net.cpp:144] Setting up conv1
I1008 12:40:12.338758   349 net.cpp:151] Top shape: 10 96 55 55 (2904000)
I1008 12:40:12.338763   349 net.cpp:159] Memory required for data: 17799520
I1008 12:40:12.338802   349 layer_factory.hpp:77] Creating layer bn1
I1008 12:40:12.338810   349 net.cpp:94] Creating Layer bn1
I1008 12:40:12.338814   349 net.cpp:435] bn1 <- conv1
I1008 12:40:12.338819   349 net.cpp:409] bn1 -> bn1
I1008 12:40:12.339109   349 net.cpp:144] Setting up bn1
I1008 12:40:12.339115   349 net.cpp:151] Top shape: 10 96 55 55 (2904000)
I1008 12:40:12.339120   349 net.cpp:159] Memory required for data: 29415520
I1008 12:40:12.339128   349 layer_factory.hpp:77] Creating layer relu1
I1008 12:40:12.339133   349 net.cpp:94] Creating Layer relu1
I1008 12:40:12.339136   349 net.cpp:435] relu1 <- bn1
I1008 12:40:12.339140   349 net.cpp:409] relu1 -> relu1
I1008 12:40:12.339164   349 net.cpp:144] Setting up relu1
I1008 12:40:12.339169   349 net.cpp:151] Top shape: 10 96 55 55 (2904000)
I1008 12:40:12.339172   349 net.cpp:159] Memory required for data: 41031520
I1008 12:40:12.339175   349 layer_factory.hpp:77] Creating layer pool1
I1008 12:40:12.339181   349 net.cpp:94] Creating Layer pool1
I1008 12:40:12.339184   349 net.cpp:435] pool1 <- relu1
I1008 12:40:12.339187   349 net.cpp:409] pool1 -> pool1
I1008 12:40:12.339203   349 net.cpp:144] Setting up pool1
I1008 12:40:12.339206   349 net.cpp:151] Top shape: 10 96 27 27 (699840)
I1008 12:40:12.339210   349 net.cpp:159] Memory required for data: 43830880
I1008 12:40:12.339213   349 layer_factory.hpp:77] Creating layer conv2
I1008 12:40:12.339219   349 net.cpp:94] Creating Layer conv2
I1008 12:40:12.339222   349 net.cpp:435] conv2 <- pool1
I1008 12:40:12.339226   349 net.cpp:409] conv2 -> conv2
I1008 12:40:12.345474   349 net.cpp:144] Setting up conv2
I1008 12:40:12.345489   349 net.cpp:151] Top shape: 10 256 27 27 (1866240)
I1008 12:40:12.345495   349 net.cpp:159] Memory required for data: 51295840
I1008 12:40:12.345503   349 layer_factory.hpp:77] Creating layer bn2
I1008 12:40:12.345511   349 net.cpp:94] Creating Layer bn2
I1008 12:40:12.345515   349 net.cpp:435] bn2 <- conv2
I1008 12:40:12.345520   349 net.cpp:409] bn2 -> bn2
I1008 12:40:12.345775   349 net.cpp:144] Setting up bn2
I1008 12:40:12.345782   349 net.cpp:151] Top shape: 10 256 27 27 (1866240)
I1008 12:40:12.345788   349 net.cpp:159] Memory required for data: 58760800
I1008 12:40:12.345794   349 layer_factory.hpp:77] Creating layer relu2
I1008 12:40:12.345798   349 net.cpp:94] Creating Layer relu2
I1008 12:40:12.345801   349 net.cpp:435] relu2 <- bn2
I1008 12:40:12.345805   349 net.cpp:409] relu2 -> relu2
I1008 12:40:12.345816   349 net.cpp:144] Setting up relu2
I1008 12:40:12.345819   349 net.cpp:151] Top shape: 10 256 27 27 (1866240)
I1008 12:40:12.345824   349 net.cpp:159] Memory required for data: 66225760
I1008 12:40:12.345826   349 layer_factory.hpp:77] Creating layer pool2
I1008 12:40:12.345831   349 net.cpp:94] Creating Layer pool2
I1008 12:40:12.345834   349 net.cpp:435] pool2 <- relu2
I1008 12:40:12.345839   349 net.cpp:409] pool2 -> pool2
I1008 12:40:12.345851   349 net.cpp:144] Setting up pool2
I1008 12:40:12.345854   349 net.cpp:151] Top shape: 10 256 13 13 (432640)
I1008 12:40:12.345858   349 net.cpp:159] Memory required for data: 67956320
I1008 12:40:12.345861   349 layer_factory.hpp:77] Creating layer conv3
I1008 12:40:12.345868   349 net.cpp:94] Creating Layer conv3
I1008 12:40:12.345871   349 net.cpp:435] conv3 <- pool2
I1008 12:40:12.345875   349 net.cpp:409] conv3 -> conv3
I1008 12:40:12.354722   349 net.cpp:144] Setting up conv3
I1008 12:40:12.354737   349 net.cpp:151] Top shape: 10 384 13 13 (648960)
I1008 12:40:12.354745   349 net.cpp:159] Memory required for data: 70552160
I1008 12:40:12.354753   349 layer_factory.hpp:77] Creating layer relu3
I1008 12:40:12.354760   349 net.cpp:94] Creating Layer relu3
I1008 12:40:12.354763   349 net.cpp:435] relu3 <- conv3
I1008 12:40:12.354769   349 net.cpp:409] relu3 -> relu3
I1008 12:40:12.354784   349 net.cpp:144] Setting up relu3
I1008 12:40:12.354787   349 net.cpp:151] Top shape: 10 384 13 13 (648960)
I1008 12:40:12.354791   349 net.cpp:159] Memory required for data: 73148000
I1008 12:40:12.354794   349 layer_factory.hpp:77] Creating layer conv4
I1008 12:40:12.354801   349 net.cpp:94] Creating Layer conv4
I1008 12:40:12.354804   349 net.cpp:435] conv4 <- relu3
I1008 12:40:12.354808   349 net.cpp:409] conv4 -> conv4
I1008 12:40:12.367699   349 net.cpp:144] Setting up conv4
I1008 12:40:12.367713   349 net.cpp:151] Top shape: 10 384 13 13 (648960)
I1008 12:40:12.367720   349 net.cpp:159] Memory required for data: 75743840
I1008 12:40:12.367729   349 layer_factory.hpp:77] Creating layer relu4
I1008 12:40:12.367736   349 net.cpp:94] Creating Layer relu4
I1008 12:40:12.367739   349 net.cpp:435] relu4 <- conv4
I1008 12:40:12.367761   349 net.cpp:409] relu4 -> relu4
I1008 12:40:12.367777   349 net.cpp:144] Setting up relu4
I1008 12:40:12.367780   349 net.cpp:151] Top shape: 10 384 13 13 (648960)
I1008 12:40:12.367784   349 net.cpp:159] Memory required for data: 78339680
I1008 12:40:12.367786   349 layer_factory.hpp:77] Creating layer conv5
I1008 12:40:12.367794   349 net.cpp:94] Creating Layer conv5
I1008 12:40:12.367796   349 net.cpp:435] conv5 <- relu4
I1008 12:40:12.367800   349 net.cpp:409] conv5 -> conv5
I1008 12:40:12.375880   349 net.cpp:144] Setting up conv5
I1008 12:40:12.375892   349 net.cpp:151] Top shape: 10 256 13 13 (432640)
I1008 12:40:12.375898   349 net.cpp:159] Memory required for data: 80070240
I1008 12:40:12.375905   349 layer_factory.hpp:77] Creating layer relu5
I1008 12:40:12.375910   349 net.cpp:94] Creating Layer relu5
I1008 12:40:12.375913   349 net.cpp:435] relu5 <- conv5
I1008 12:40:12.375918   349 net.cpp:409] relu5 -> relu5
I1008 12:40:12.375932   349 net.cpp:144] Setting up relu5
I1008 12:40:12.375934   349 net.cpp:151] Top shape: 10 256 13 13 (432640)
I1008 12:40:12.375938   349 net.cpp:159] Memory required for data: 81800800
I1008 12:40:12.375941   349 layer_factory.hpp:77] Creating layer pool5
I1008 12:40:12.375946   349 net.cpp:94] Creating Layer pool5
I1008 12:40:12.375963   349 net.cpp:435] pool5 <- relu5
I1008 12:40:12.375967   349 net.cpp:409] pool5 -> pool5
I1008 12:40:12.375983   349 net.cpp:144] Setting up pool5
I1008 12:40:12.375986   349 net.cpp:151] Top shape: 10 256 6 6 (92160)
I1008 12:40:12.375990   349 net.cpp:159] Memory required for data: 82169440
I1008 12:40:12.375993   349 layer_factory.hpp:77] Creating layer fc6
I1008 12:40:12.376006   349 net.cpp:94] Creating Layer fc6
I1008 12:40:12.376009   349 net.cpp:435] fc6 <- pool5
I1008 12:40:12.376013   349 net.cpp:409] fc6 -> fc6
I1008 12:40:12.695299   349 net.cpp:144] Setting up fc6
I1008 12:40:12.695318   349 net.cpp:151] Top shape: 10 4096 (40960)
I1008 12:40:12.695325   349 net.cpp:159] Memory required for data: 82333280
I1008 12:40:12.695350   349 layer_factory.hpp:77] Creating layer relu6
I1008 12:40:12.695358   349 net.cpp:94] Creating Layer relu6
I1008 12:40:12.695361   349 net.cpp:435] relu6 <- fc6
I1008 12:40:12.695369   349 net.cpp:409] relu6 -> relu6
I1008 12:40:12.695387   349 net.cpp:144] Setting up relu6
I1008 12:40:12.695389   349 net.cpp:151] Top shape: 10 4096 (40960)
I1008 12:40:12.695394   349 net.cpp:159] Memory required for data: 82497120
I1008 12:40:12.695395   349 layer_factory.hpp:77] Creating layer fc7
I1008 12:40:12.695401   349 net.cpp:94] Creating Layer fc7
I1008 12:40:12.695405   349 net.cpp:435] fc7 <- relu6
I1008 12:40:12.695408   349 net.cpp:409] fc7 -> fc7
I1008 12:40:12.838027   349 net.cpp:144] Setting up fc7
I1008 12:40:12.838050   349 net.cpp:151] Top shape: 10 4096 (40960)
I1008 12:40:12.838057   349 net.cpp:159] Memory required for data: 82660960
I1008 12:40:12.838074   349 layer_factory.hpp:77] Creating layer bn7
I1008 12:40:12.838086   349 net.cpp:94] Creating Layer bn7
I1008 12:40:12.838090   349 net.cpp:435] bn7 <- fc7
I1008 12:40:12.838097   349 net.cpp:409] bn7 -> bn7
I1008 12:40:12.838361   349 net.cpp:144] Setting up bn7
I1008 12:40:12.838364   349 net.cpp:151] Top shape: 10 4096 (40960)
I1008 12:40:12.838368   349 net.cpp:159] Memory required for data: 82824800
I1008 12:40:12.838374   349 layer_factory.hpp:77] Creating layer relu7
I1008 12:40:12.838379   349 net.cpp:94] Creating Layer relu7
I1008 12:40:12.838382   349 net.cpp:435] relu7 <- bn7
I1008 12:40:12.838387   349 net.cpp:409] relu7 -> relu7
I1008 12:40:12.838397   349 net.cpp:144] Setting up relu7
I1008 12:40:12.838399   349 net.cpp:151] Top shape: 10 4096 (40960)
I1008 12:40:12.838402   349 net.cpp:159] Memory required for data: 82988640
I1008 12:40:12.838405   349 layer_factory.hpp:77] Creating layer fc8
I1008 12:40:12.838410   349 net.cpp:94] Creating Layer fc8
I1008 12:40:12.838413   349 net.cpp:435] fc8 <- relu7
I1008 12:40:12.838418   349 net.cpp:409] fc8 -> fc8
I1008 12:40:12.838528   349 net.cpp:144] Setting up fc8
I1008 12:40:12.838531   349 net.cpp:151] Top shape: 10 2 (20)
I1008 12:40:12.838534   349 net.cpp:159] Memory required for data: 82988720
I1008 12:40:12.838538   349 layer_factory.hpp:77] Creating layer loss
I1008 12:40:12.838551   349 net.cpp:94] Creating Layer loss
I1008 12:40:12.838553   349 net.cpp:435] loss <- fc8
I1008 12:40:12.838557   349 net.cpp:435] loss <- label
I1008 12:40:12.838562   349 net.cpp:409] loss -> loss
I1008 12:40:12.838569   349 layer_factory.hpp:77] Creating layer loss
…
I1008 12:40:13.960155   349 net.cpp:323] The NetState phase (0) differed from the phase (1) specified by a rule in layer accuracy-top1
I1008 12:40:13.960173   349 net.cpp:52] Initializing net from parameters:
state {
  phase: TRAIN
}
layer {
  name: "data"
  type: "ImageData"
  top: "data"
  top: "label"
  include {
    phase: TRAIN
  }
  transform_param {
    crop_size: 227
    mean_value: 106
    mean_value: 116
    mean_value: 124
  }
  image_data_param {
    source: "deploy/alexnetBNnoLRN/quantiz/data/calib/calibration.txt"
    batch_size: 10
    shuffle: true
    root_folder: "deploy/alexnetBNnoLRN/quantiz/data/calib/"
  }
}
layer {
  name: "data_fixed"
  type: "FixedNeuron"
  bottom: "data"
  top: "data"
  param {
    lr_mult: 0
    decay_mult: 0
  }
  fixed_param {
    fixed_method: OVER_FLOW
    bit_width: 8
    follow_data_layer: true
  }
}
layer {
  name: "conv1"
  type: "ConvolutionFixed"
  bottom: "data"
  top: "bn1"
  param {
    lr_mult: 1
    decay_mult: 1
  }
  param {
    lr_mult: 1
    decay_mult: 0
  }
  convolution_param {
    num_output: 96
    bias_term: true
    pad: 0
    kernel_size: 8
    stride: 4
    weight_filler {
      type: "gaussian"
      std: 0.01
    }
    bias_filler {
      type: "constant"
      value: 0
    }
  }
  fixed_param {
    fixed_method: DIFF_S
    bit_width: 8
  }
}
layer {
  name: "relu1"
  type: "ReLU"
  bottom: "bn1"
  top: "relu1"
}
layer {
  name: "pool1"
  type: "Pooling"
  bottom: "relu1"
  top: "pool1"
  pooling_param {
    pool: MAX
    kernel_size: 3
    stride: 2
  }
}
layer {
  name: "pool1_fixed"
  type: "FixedNeuron"
  bottom: "pool1"
  top: "pool1"
  param {
    lr_mult: 0
    decay_mult: 0
  }
  fixed_param {
    fixed_method: DIFF_S
    bit_width: 8
  }
}
layer {
  name: "conv2"
  type: "ConvolutionFixed"
  bottom: "pool1"
  top: "bn2"
  param {
    lr_mult: 1
    decay_mult: 1
  }
  param {
    lr_mult: 1
    decay_mult: 0
  }
  convolution_param {
    num_output: 256
    bias_term: true
    pad: 2
    kernel_size: 5
    group: 1
    weight_filler {
      type: "gaussian"
      std: 0.01
    }
    bias_filler {
      type: "constant"
      value: 1
    }
  }
  fixed_param {
    fixed_method: DIFF_S
    bit_width: 8
  }
}
layer {
  name: "relu2"
  type: "ReLU"
  bottom: "bn2"
  top: "relu2"
}
layer {
  name: "pool2"
  type: "Pooling"
  bottom: "relu2"
  top: "pool2"
  pooling_param {
    pool: MAX
    kernel_size: 3
    stride: 2
  }
}
layer {
  name: "pool2_fixed"
  type: "FixedNeuron"
  bottom: "pool2"
  top: "pool2"
  param {
    lr_mult: 0
    decay_mult: 0
  }
  fixed_param {
    fixed_method: DIFF_S
    bit_width: 8
  }
}
layer {
  name: "conv3"
  type: "ConvolutionFixed"
  bottom: "pool2"
  top: "conv3"
  param {
    lr_mult: 1
    decay_mult: 1
  }
  param {
    lr_mult: 2
    decay_mult: 0
  }
  convolution_param {
    num_output: 384
    pad: 1
    kernel_size: 3
    weight_filler {
      type: "gaussian"
      std: 0.01
    }
    bias_filler {
      type: "constant"
      value: 0
    }
  }
  fixed_param {
    fixed_method: DIFF_S
    bit_width: 8
  }
}
layer {
  name: "relu3"
  type: "ReLU"
  bottom: "conv3"
  top: "relu3"
}
layer {
  name: "relu3_fixed"
  type: "FixedNeuron"
  bottom: "relu3"
  top: "relu3"
  param {
    lr_mult: 0
    decay_mult: 0
  }
  fixed_param {
    fixed_method: DIFF_S
    bit_width: 8
  }
}
layer {
  name: "conv4"
  type: "ConvolutionFixed"
  bottom: "relu3"
  top: "conv4"
  param {
    lr_mult: 1
    decay_mult: 1
  }
  param {
    lr_mult: 2
    decay_mult: 0
  }
  convolution_param {
    num_output: 384
    pad: 1
    kernel_size: 3
    group: 1
    weight_filler {
      type: "gaussian"
      std: 0.01
    }
    bias_filler {
      type: "constant"
      value: 1
    }
  }
  fixed_param {
    fixed_method: DIFF_S
    bit_width: 8
  }
}
layer {
  name: "relu4"
  type: "ReLU"
  bottom: "conv4"
  top: "relu4"
}
layer {
  name: "relu4_fixed"
  type: "FixedNeuron"
  bottom: "relu4"
  top: "relu4"
  param {
    lr_mult: 0
    decay_mult: 0
  }
  fixed_param {
    fixed_method: DIFF_S
    bit_width: 8
  }
}
layer {
  name: "conv5"
  type: "ConvolutionFixed"
  bottom: "relu4"
  top: "conv5"
  param {
    lr_mult: 1
    decay_mult: 1
  }
  param {
    lr_mult: 2
    decay_mult: 0
  }
  convolution_param {
    num_output: 256
    pad: 1
    kernel_size: 3
    group: 1
    weight_filler {
      type: "gaussian"
      std: 0.01
    }
    bias_filler {
      type: "constant"
      value: 1
    }
  }
  fixed_param {
    fixed_method: DIFF_S
    bit_width: 8
  }
}
layer {
  name: "relu5"
  type: "ReLU"
  bottom: "conv5"
  top: "relu5"
}
layer {
  name: "pool5"
  type: "Pooling"
  bottom: "relu5"
  top: "pool5"
  pooling_param {
    pool: MAX
    kernel_size: 3
    stride: 2
  }
}
layer {
  name: "pool5_fixed"
  type: "FixedNeuron"
  bottom: "pool5"
  top: "pool5"
  param {
    lr_mult: 0
    decay_mult: 0
  }
  fixed_param {
    fixed_method: DIFF_S
    bit_width: 8
  }
}
layer {
  name: "fc6"
  type: "InnerProductFixed"
  bottom: "pool5"
  top: "fc6"
  param {
    lr_mult: 1
    decay_mult: 1
  }
  param {
    lr_mult: 2
    decay_mult: 0
  }
  inner_product_param {
    num_output: 4096
    weight_filler {
      type: "gaussian"
      std: 0.005
    }
    bias_filler {
      type: "constant"
      value: 1
    }
  }
  fixed_param {
    fixed_method: DIFF_S
    bit_width: 8
  }
}
layer {
  name: "relu6"
  type: "ReLU"
  bottom: "fc6"
  top: "relu6"
}
layer {
  name: "relu6_fixed"
  type: "FixedNeuron"
  bottom: "relu6"
  top: "relu6"
  param {
    lr_mult: 0
    decay_mult: 0
  }
  fixed_param {
    fixed_method: DIFF_S
    bit_width: 8
  }
}
layer {
  name: "fc7"
  type: "InnerProductFixed"
  bottom: "relu6"
  top: "bn7"
  param {
    lr_mult: 1
    decay_mult: 1
  }
  param {
    lr_mult: 1
    decay_mult: 0
  }
  inner_product_param {
    num_output: 4096
    bias_term: true
    weight_filler {
      type: "gaussian"
      std: 0.005
    }
    bias_filler {
      type: "constant"
      value: 1
    }
  }
  fixed_param {
    fixed_method: DIFF_S
    bit_width: 8
  }
}
layer {
  name: "relu7"
  type: "ReLU"
  bottom: "bn7"
  top: "relu7"
}
layer {
  name: "relu7_fixed"
  type: "FixedNeuron"
  bottom: "relu7"
  top: "relu7"
  param {
    lr_mult: 0
    decay_mult: 0
  }
  fixed_param {
    fixed_method: DIFF_S
    bit_width: 8
  }
}
layer {
  name: "fc8"
  type: "InnerProductFixed"
  bottom: "relu7"
  top: "fc8"
  param {
    lr_mult: 1
    decay_mult: 1
  }
  param {
    lr_mult: 2
    decay_mult: 0
  }
  inner_product_param {
    num_output: 2
    weight_filler {
      type: "gaussian"
      std: 0.01
    }
    bias_filler {
      type: "constant"
      value: 0
    }
  }
  fixed_param {
    fixed_method: DIFF_S
    bit_width: 8
  }
}
layer {
  name: "fc8_fixed"
  type: "FixedNeuron"
  bottom: "fc8"
  top: "fc8"
  param {
    lr_mult: 0
    decay_mult: 0
  }
  fixed_param {
    fixed_method: DIFF_S
    bit_width: 8
  }
}
layer {
  name: "loss"
  type: "SoftmaxWithLoss"
  bottom: "fc8"
  bottom: "label"
  top: "loss"
}
I1008 12:40:13.960319   349 layer_factory.hpp:77] Creating layer data
I1008 12:40:13.960345   349 net.cpp:94] Creating Layer data
I1008 12:40:13.960350   349 net.cpp:409] data -> data
I1008 12:40:13.960355   349 net.cpp:409] data -> label
I1008 12:40:13.960364   349 image_data_layer.cpp:41] Opening file deploy/alexnetBNnoLRN/quantiz/data/calib/calibration.txt
I1008 12:40:13.961133   349 image_data_layer.cpp:51] Shuffling data
I1008 12:40:13.961151   349 image_data_layer.cpp:56] A total of 200 images.
I1008 12:40:13.998028   349 image_data_layer.cpp:84] output data size: 10,3,227,227
I1008 12:40:14.033799   349 internal_thread.cpp:27] Starting internal thread(s) on GPU 0
I1008 12:40:14.033867   349 net.cpp:144] Setting up data
I1008 12:40:14.033872   349 net.cpp:151] Top shape: 10 3 227 227 (1545870)
I1008 12:40:14.033881   349 net.cpp:151] Top shape: 10 (10)
I1008 12:40:14.033885   349 net.cpp:159] Memory required for data: 6183520
I1008 12:40:14.033888   349 layer_factory.hpp:77] Creating layer data_fixed
I1008 12:40:14.033907   349 net.cpp:94] Creating Layer data_fixed
I1008 12:40:14.033912   349 net.cpp:435] data_fixed <- data
I1008 12:40:14.033918   349 net.cpp:396] data_fixed -> data (in-place)
I1008 12:40:14.033954   349 net.cpp:144] Setting up data_fixed
I1008 12:40:14.033957   349 net.cpp:151] Top shape: 10 3 227 227 (1545870)
I1008 12:40:14.033960   349 net.cpp:159] Memory required for data: 12367000
I1008 12:40:14.033968   349 layer_factory.hpp:77] Creating layer conv1
I1008 12:40:14.033978   349 net.cpp:94] Creating Layer conv1
I1008 12:40:14.033980   349 net.cpp:435] conv1 <- data
I1008 12:40:14.033984   349 net.cpp:409] conv1 -> bn1
I1008 12:40:14.034340   349 layer_factory.hpp:77] Creating layer conv1
I1008 12:40:14.034642   349 net.cpp:144] Setting up conv1
I1008 12:40:14.034649   349 net.cpp:151] Top shape: 10 96 55 55 (2904000)
I1008 12:40:14.034655   349 net.cpp:159] Memory required for data: 23983000
I1008 12:40:14.034663   349 layer_factory.hpp:77] Creating layer relu1
I1008 12:40:14.034668   349 net.cpp:94] Creating Layer relu1
I1008 12:40:14.034672   349 net.cpp:435] relu1 <- bn1
I1008 12:40:14.034677   349 net.cpp:409] relu1 -> relu1
I1008 12:40:14.034693   349 net.cpp:144] Setting up relu1
I1008 12:40:14.034695   349 net.cpp:151] Top shape: 10 96 55 55 (2904000)
I1008 12:40:14.034699   349 net.cpp:159] Memory required for data: 35599000
I1008 12:40:14.034703   349 layer_factory.hpp:77] Creating layer pool1
I1008 12:40:14.034710   349 net.cpp:94] Creating Layer pool1
I1008 12:40:14.034714   349 net.cpp:435] pool1 <- relu1
I1008 12:40:14.034718   349 net.cpp:409] pool1 -> pool1
I1008 12:40:14.034751   349 net.cpp:144] Setting up pool1
I1008 12:40:14.034754   349 net.cpp:151] Top shape: 10 96 27 27 (699840)
I1008 12:40:14.034759   349 net.cpp:159] Memory required for data: 38398360
I1008 12:40:14.034763   349 layer_factory.hpp:77] Creating layer pool1_fixed
I1008 12:40:14.034770   349 net.cpp:94] Creating Layer pool1_fixed
I1008 12:40:14.034773   349 net.cpp:435] pool1_fixed <- pool1
I1008 12:40:14.034777   349 net.cpp:396] pool1_fixed -> pool1 (in-place)
I1008 12:40:14.034791   349 net.cpp:144] Setting up pool1_fixed
I1008 12:40:14.034793   349 net.cpp:151] Top shape: 10 96 27 27 (699840)
I1008 12:40:14.034797   349 net.cpp:159] Memory required for data: 41197720
I1008 12:40:14.034802   349 layer_factory.hpp:77] Creating layer conv2
I1008 12:40:14.034808   349 net.cpp:94] Creating Layer conv2
I1008 12:40:14.034811   349 net.cpp:435] conv2 <- pool1
I1008 12:40:14.034817   349 net.cpp:409] conv2 -> bn2
I1008 12:40:14.040596   349 layer_factory.hpp:77] Creating layer conv2
I1008 12:40:14.046559   349 net.cpp:144] Setting up conv2
I1008 12:40:14.046573   349 net.cpp:151] Top shape: 10 256 27 27 (1866240)
I1008 12:40:14.046581   349 net.cpp:159] Memory required for data: 48662680
I1008 12:40:14.046588   349 layer_factory.hpp:77] Creating layer relu2
I1008 12:40:14.046594   349 net.cpp:94] Creating Layer relu2
I1008 12:40:14.046598   349 net.cpp:435] relu2 <- bn2
I1008 12:40:14.046603   349 net.cpp:409] relu2 -> relu2
I1008 12:40:14.046615   349 net.cpp:144] Setting up relu2
I1008 12:40:14.046617   349 net.cpp:151] Top shape: 10 256 27 27 (1866240)
I1008 12:40:14.046622   349 net.cpp:159] Memory required for data: 56127640
I1008 12:40:14.046624   349 layer_factory.hpp:77] Creating layer pool2
I1008 12:40:14.046629   349 net.cpp:94] Creating Layer pool2
I1008 12:40:14.046633   349 net.cpp:435] pool2 <- relu2
I1008 12:40:14.046636   349 net.cpp:409] pool2 -> pool2
I1008 12:40:14.046650   349 net.cpp:144] Setting up pool2
I1008 12:40:14.046653   349 net.cpp:151] Top shape: 10 256 13 13 (432640)
I1008 12:40:14.046658   349 net.cpp:159] Memory required for data: 57858200
I1008 12:40:14.046660   349 layer_factory.hpp:77] Creating layer pool2_fixed
I1008 12:40:14.046667   349 net.cpp:94] Creating Layer pool2_fixed
I1008 12:40:14.046669   349 net.cpp:435] pool2_fixed <- pool2
I1008 12:40:14.046674   349 net.cpp:396] pool2_fixed -> pool2 (in-place)
I1008 12:40:14.046686   349 net.cpp:144] Setting up pool2_fixed
I1008 12:40:14.046689   349 net.cpp:151] Top shape: 10 256 13 13 (432640)
I1008 12:40:14.046692   349 net.cpp:159] Memory required for data: 59588760
I1008 12:40:14.046696   349 layer_factory.hpp:77] Creating layer conv3
I1008 12:40:14.046702   349 net.cpp:94] Creating Layer conv3
I1008 12:40:14.046705   349 net.cpp:435] conv3 <- pool2
I1008 12:40:14.046710   349 net.cpp:409] conv3 -> conv3
I1008 12:40:14.054623   349 layer_factory.hpp:77] Creating layer conv3
I1008 12:40:14.062532   349 net.cpp:144] Setting up conv3
I1008 12:40:14.062546   349 net.cpp:151] Top shape: 10 384 13 13 (648960)
I1008 12:40:14.062551   349 net.cpp:159] Memory required for data: 62184600
I1008 12:40:14.062559   349 layer_factory.hpp:77] Creating layer relu3
I1008 12:40:14.062564   349 net.cpp:94] Creating Layer relu3
I1008 12:40:14.062567   349 net.cpp:435] relu3 <- conv3
I1008 12:40:14.062573   349 net.cpp:409] relu3 -> relu3
I1008 12:40:14.062585   349 net.cpp:144] Setting up relu3
I1008 12:40:14.062587   349 net.cpp:151] Top shape: 10 384 13 13 (648960)
I1008 12:40:14.062590   349 net.cpp:159] Memory required for data: 64780440
I1008 12:40:14.062593   349 layer_factory.hpp:77] Creating layer relu3_fixed
I1008 12:40:14.062598   349 net.cpp:94] Creating Layer relu3_fixed
I1008 12:40:14.062600   349 net.cpp:435] relu3_fixed <- relu3
I1008 12:40:14.062604   349 net.cpp:396] relu3_fixed -> relu3 (in-place)
I1008 12:40:14.062615   349 net.cpp:144] Setting up relu3_fixed
I1008 12:40:14.062618   349 net.cpp:151] Top shape: 10 384 13 13 (648960)
I1008 12:40:14.062621   349 net.cpp:159] Memory required for data: 67376280
I1008 12:40:14.062624   349 layer_factory.hpp:77] Creating layer conv4
I1008 12:40:14.062630   349 net.cpp:94] Creating Layer conv4
I1008 12:40:14.062633   349 net.cpp:435] conv4 <- relu3
I1008 12:40:14.062636   349 net.cpp:409] conv4 -> conv4
I1008 12:40:14.074333   349 layer_factory.hpp:77] Creating layer conv4
I1008 12:40:14.086004   349 net.cpp:144] Setting up conv4
I1008 12:40:14.086019   349 net.cpp:151] Top shape: 10 384 13 13 (648960)
I1008 12:40:14.086027   349 net.cpp:159] Memory required for data: 69972120
I1008 12:40:14.086035   349 layer_factory.hpp:77] Creating layer relu4
I1008 12:40:14.086041   349 net.cpp:94] Creating Layer relu4
I1008 12:40:14.086045   349 net.cpp:435] relu4 <- conv4
I1008 12:40:14.086051   349 net.cpp:409] relu4 -> relu4
I1008 12:40:14.086063   349 net.cpp:144] Setting up relu4
I1008 12:40:14.086072   349 net.cpp:151] Top shape: 10 384 13 13 (648960)
I1008 12:40:14.086076   349 net.cpp:159] Memory required for data: 72567960
I1008 12:40:14.086077   349 layer_factory.hpp:77] Creating layer relu4_fixed
I1008 12:40:14.086083   349 net.cpp:94] Creating Layer relu4_fixed
I1008 12:40:14.086086   349 net.cpp:435] relu4_fixed <- relu4
I1008 12:40:14.086089   349 net.cpp:396] relu4_fixed -> relu4 (in-place)
I1008 12:40:14.086102   349 net.cpp:144] Setting up relu4_fixed
I1008 12:40:14.086103   349 net.cpp:151] Top shape: 10 384 13 13 (648960)
I1008 12:40:14.086107   349 net.cpp:159] Memory required for data: 75163800
I1008 12:40:14.086110   349 layer_factory.hpp:77] Creating layer conv5
I1008 12:40:14.086118   349 net.cpp:94] Creating Layer conv5
I1008 12:40:14.086120   349 net.cpp:435] conv5 <- relu4
I1008 12:40:14.086124   349 net.cpp:409] conv5 -> conv5
I1008 12:40:14.093971   349 layer_factory.hpp:77] Creating layer conv5
I1008 12:40:14.102042   349 net.cpp:144] Setting up conv5
I1008 12:40:14.102054   349 net.cpp:151] Top shape: 10 256 13 13 (432640)
I1008 12:40:14.102062   349 net.cpp:159] Memory required for data: 76894360
I1008 12:40:14.102077   349 layer_factory.hpp:77] Creating layer relu5
I1008 12:40:14.102082   349 net.cpp:94] Creating Layer relu5
I1008 12:40:14.102085   349 net.cpp:435] relu5 <- conv5
I1008 12:40:14.102092   349 net.cpp:409] relu5 -> relu5
I1008 12:40:14.102103   349 net.cpp:144] Setting up relu5
I1008 12:40:14.102105   349 net.cpp:151] Top shape: 10 256 13 13 (432640)
I1008 12:40:14.102109   349 net.cpp:159] Memory required for data: 78624920
I1008 12:40:14.102111   349 layer_factory.hpp:77] Creating layer pool5
I1008 12:40:14.102116   349 net.cpp:94] Creating Layer pool5
I1008 12:40:14.102119   349 net.cpp:435] pool5 <- relu5
I1008 12:40:14.102123   349 net.cpp:409] pool5 -> pool5
I1008 12:40:14.102136   349 net.cpp:144] Setting up pool5
I1008 12:40:14.102138   349 net.cpp:151] Top shape: 10 256 6 6 (92160)
I1008 12:40:14.102141   349 net.cpp:159] Memory required for data: 78993560
I1008 12:40:14.102144   349 layer_factory.hpp:77] Creating layer pool5_fixed
I1008 12:40:14.102165   349 net.cpp:94] Creating Layer pool5_fixed
I1008 12:40:14.102169   349 net.cpp:435] pool5_fixed <- pool5
I1008 12:40:14.102172   349 net.cpp:396] pool5_fixed -> pool5 (in-place)
I1008 12:40:14.102185   349 net.cpp:144] Setting up pool5_fixed
I1008 12:40:14.102187   349 net.cpp:151] Top shape: 10 256 6 6 (92160)
I1008 12:40:14.102191   349 net.cpp:159] Memory required for data: 79362200
I1008 12:40:14.102195   349 layer_factory.hpp:77] Creating layer fc6
I1008 12:40:14.102200   349 net.cpp:94] Creating Layer fc6
I1008 12:40:14.102203   349 net.cpp:435] fc6 <- pool5
I1008 12:40:14.102207   349 net.cpp:409] fc6 -> fc6
I1008 12:40:14.420346   349 layer_factory.hpp:77] Creating layer fc6
I1008 12:40:14.737617   349 net.cpp:144] Setting up fc6
I1008 12:40:14.737638   349 net.cpp:151] Top shape: 10 4096 (40960)
I1008 12:40:14.737644   349 net.cpp:159] Memory required for data: 79526040
I1008 12:40:14.737655   349 layer_factory.hpp:77] Creating layer relu6
I1008 12:40:14.737663   349 net.cpp:94] Creating Layer relu6
I1008 12:40:14.737666   349 net.cpp:435] relu6 <- fc6
I1008 12:40:14.737673   349 net.cpp:409] relu6 -> relu6
I1008 12:40:14.737687   349 net.cpp:144] Setting up relu6
I1008 12:40:14.737690   349 net.cpp:151] Top shape: 10 4096 (40960)
I1008 12:40:14.737695   349 net.cpp:159] Memory required for data: 79689880
I1008 12:40:14.737697   349 layer_factory.hpp:77] Creating layer relu6_fixed
I1008 12:40:14.737704   349 net.cpp:94] Creating Layer relu6_fixed
I1008 12:40:14.737706   349 net.cpp:435] relu6_fixed <- relu6
I1008 12:40:14.737710   349 net.cpp:396] relu6_fixed -> relu6 (in-place)
I1008 12:40:14.737722   349 net.cpp:144] Setting up relu6_fixed
I1008 12:40:14.737725   349 net.cpp:151] Top shape: 10 4096 (40960)
I1008 12:40:14.737728   349 net.cpp:159] Memory required for data: 79853720
I1008 12:40:14.737731   349 layer_factory.hpp:77] Creating layer fc7
I1008 12:40:14.737753   349 net.cpp:94] Creating Layer fc7
I1008 12:40:14.737756   349 net.cpp:435] fc7 <- relu6
I1008 12:40:14.737759   349 net.cpp:409] fc7 -> bn7
I1008 12:40:14.878327   349 layer_factory.hpp:77] Creating layer fc7
I1008 12:40:15.021237   349 net.cpp:144] Setting up fc7
I1008 12:40:15.021260   349 net.cpp:151] Top shape: 10 4096 (40960)
I1008 12:40:15.021267   349 net.cpp:159] Memory required for data: 80017560
I1008 12:40:15.021275   349 layer_factory.hpp:77] Creating layer relu7
I1008 12:40:15.021283   349 net.cpp:94] Creating Layer relu7
I1008 12:40:15.021287   349 net.cpp:435] relu7 <- bn7
I1008 12:40:15.021293   349 net.cpp:409] relu7 -> relu7
I1008 12:40:15.021308   349 net.cpp:144] Setting up relu7
I1008 12:40:15.021311   349 net.cpp:151] Top shape: 10 4096 (40960)
I1008 12:40:15.021314   349 net.cpp:159] Memory required for data: 80181400
I1008 12:40:15.021319   349 layer_factory.hpp:77] Creating layer relu7_fixed
I1008 12:40:15.021325   349 net.cpp:94] Creating Layer relu7_fixed
I1008 12:40:15.021328   349 net.cpp:435] relu7_fixed <- relu7
I1008 12:40:15.021332   349 net.cpp:396] relu7_fixed -> relu7 (in-place)
I1008 12:40:15.021343   349 net.cpp:144] Setting up relu7_fixed
I1008 12:40:15.021345   349 net.cpp:151] Top shape: 10 4096 (40960)
I1008 12:40:15.021348   349 net.cpp:159] Memory required for data: 80345240
I1008 12:40:15.021351   349 layer_factory.hpp:77] Creating layer fc8
I1008 12:40:15.021373   349 net.cpp:94] Creating Layer fc8
I1008 12:40:15.021376   349 net.cpp:435] fc8 <- relu7
I1008 12:40:15.021380   349 net.cpp:409] fc8 -> fc8
I1008 12:40:15.021468   349 layer_factory.hpp:77] Creating layer fc8
I1008 12:40:15.021567   349 net.cpp:144] Setting up fc8
I1008 12:40:15.021570   349 net.cpp:151] Top shape: 10 2 (20)
I1008 12:40:15.021572   349 net.cpp:159] Memory required for data: 80345320
I1008 12:40:15.021576   349 layer_factory.hpp:77] Creating layer fc8_fixed
I1008 12:40:15.021580   349 net.cpp:94] Creating Layer fc8_fixed
I1008 12:40:15.021584   349 net.cpp:435] fc8_fixed <- fc8
I1008 12:40:15.021586   349 net.cpp:396] fc8_fixed -> fc8 (in-place)
I1008 12:40:15.021597   349 net.cpp:144] Setting up fc8_fixed
I1008 12:40:15.021600   349 net.cpp:151] Top shape: 10 2 (20)
I1008 12:40:15.021603   349 net.cpp:159] Memory required for data: 80345400
I1008 12:40:15.021607   349 layer_factory.hpp:77] Creating layer loss
I1008 12:40:15.021617   349 net.cpp:94] Creating Layer loss
I1008 12:40:15.021620   349 net.cpp:435] loss <- fc8
I1008 12:40:15.021625   349 net.cpp:435] loss <- label
I1008 12:40:15.021628   349 net.cpp:409] loss -> loss
I1008 12:40:15.021634   349 layer_factory.hpp:77] Creating layer loss
…
I1008 12:40:22.564219   349 net.cpp:284] Network initialization done.
I1008 12:40:22.665159   349 net.cpp:323] The NetState phase (1) differed from the phase (0) specified by a rule in layer data
I1008 12:40:22.665189   349 net.cpp:52] Initializing net from parameters:
layer {
  name: "data"
  type: "Data"
  top: "data"
  top: "label"
  include {
    phase: TEST
  }
  transform_param {
    mirror: false
    crop_size: 227
    mean_value: 106
    mean_value: 116
    mean_value: 124
  }
  data_param {
    source: "input/lmdb/valid_lmdb"
    batch_size: 50
    backend: LMDB
  }
}
layer {
  name: "data_fixed"
  type: "FixedNeuron"
  bottom: "data"
  top: "data"
  param {
    lr_mult: 0
    decay_mult: 0
  }
  fixed_param {
    fixed_method: OVER_FLOW
    bit_width: 8
    follow_data_layer: true
  }
}
layer {
  name: "conv1"
  type: "ConvolutionFixed"
  bottom: "data"
  top: "bn1"
  param {
    lr_mult: 1
    decay_mult: 1
  }
  param {
    lr_mult: 1
    decay_mult: 0
  }
  convolution_param {
    num_output: 96
    bias_term: true
    pad: 0
    kernel_size: 8
    stride: 4
    weight_filler {
      type: "gaussian"
      std: 0.01
    }
    bias_filler {
      type: "constant"
      value: 0
    }
  }
  fixed_param {
    fixed_method: DIFF_S
    bit_width: 8
  }
}
layer {
  name: "relu1"
  type: "ReLU"
  bottom: "bn1"
  top: "relu1"
}
layer {
  name: "pool1"
  type: "Pooling"
  bottom: "relu1"
  top: "pool1"
  pooling_param {
    pool: MAX
    kernel_size: 3
    stride: 2
  }
}
layer {
  name: "pool1_fixed"
  type: "FixedNeuron"
  bottom: "pool1"
  top: "pool1"
  param {
    lr_mult: 0
    decay_mult: 0
  }
  fixed_param {
    fixed_method: DIFF_S
    bit_width: 8
  }
}
layer {
  name: "conv2"
  type: "ConvolutionFixed"
  bottom: "pool1"
  top: "bn2"
  param {
    lr_mult: 1
    decay_mult: 1
  }
  param {
    lr_mult: 1
    decay_mult: 0
  }
  convolution_param {
    num_output: 256
    bias_term: true
    pad: 2
    kernel_size: 5
    group: 1
    weight_filler {
      type: "gaussian"
      std: 0.01
    }
    bias_filler {
      type: "constant"
      value: 1
    }
  }
  fixed_param {
    fixed_method: DIFF_S
    bit_width: 8
  }
}
layer {
  name: "relu2"
  type: "ReLU"
  bottom: "bn2"
  top: "relu2"
}
layer {
  name: "pool2"
  type: "Pooling"
  bottom: "relu2"
  top: "pool2"
  pooling_param {
    pool: MAX
    kernel_size: 3
    stride: 2
  }
}
layer {
  name: "pool2_fixed"
  type: "FixedNeuron"
  bottom: "pool2"
  top: "pool2"
  param {
    lr_mult: 0
    decay_mult: 0
  }
  fixed_param {
    fixed_method: DIFF_S
    bit_width: 8
  }
}
layer {
  name: "conv3"
  type: "ConvolutionFixed"
  bottom: "pool2"
  top: "conv3"
  param {
    lr_mult: 1
    decay_mult: 1
  }
  param {
    lr_mult: 2
    decay_mult: 0
  }
  convolution_param {
    num_output: 384
    pad: 1
    kernel_size: 3
    weight_filler {
      type: "gaussian"
      std: 0.01
    }
    bias_filler {
      type: "constant"
      value: 0
    }
  }
  fixed_param {
    fixed_method: DIFF_S
    bit_width: 8
  }
}
layer {
  name: "relu3"
  type: "ReLU"
  bottom: "conv3"
  top: "relu3"
}
layer {
  name: "relu3_fixed"
  type: "FixedNeuron"
  bottom: "relu3"
  top: "relu3"
  param {
    lr_mult: 0
    decay_mult: 0
  }
  fixed_param {
    fixed_method: DIFF_S
    bit_width: 8
  }
}
layer {
  name: "conv4"
  type: "ConvolutionFixed"
  bottom: "relu3"
  top: "conv4"
  param {
    lr_mult: 1
    decay_mult: 1
  }
  param {
    lr_mult: 2
    decay_mult: 0
  }
  convolution_param {
    num_output: 384
    pad: 1
    kernel_size: 3
    group: 1
    weight_filler {
      type: "gaussian"
      std: 0.01
    }
    bias_filler {
      type: "constant"
      value: 1
    }
  }
  fixed_param {
    fixed_method: DIFF_S
    bit_width: 8
  }
}
layer {
  name: "relu4"
  type: "ReLU"
  bottom: "conv4"
  top: "relu4"
}
layer {
  name: "relu4_fixed"
  type: "FixedNeuron"
  bottom: "relu4"
  top: "relu4"
  param {
    lr_mult: 0
    decay_mult: 0
  }
  fixed_param {
    fixed_method: DIFF_S
    bit_width: 8
  }
}
layer {
  name: "conv5"
  type: "ConvolutionFixed"
  bottom: "relu4"
  top: "conv5"
  param {
    lr_mult: 1
    decay_mult: 1
  }
  param {
    lr_mult: 2
    decay_mult: 0
  }
  convolution_param {
    num_output: 256
    pad: 1
    kernel_size: 3
    group: 1
    weight_filler {
      type: "gaussian"
      std: 0.01
    }
    bias_filler {
      type: "constant"
      value: 1
    }
  }
  fixed_param {
    fixed_method: DIFF_S
    bit_width: 8
  }
}
layer {
  name: "relu5"
  type: "ReLU"
  bottom: "conv5"
  top: "relu5"
}
layer {
  name: "pool5"
  type: "Pooling"
  bottom: "relu5"
  top: "pool5"
  pooling_param {
    pool: MAX
    kernel_size: 3
    stride: 2
  }
}
layer {
  name: "pool5_fixed"
  type: "FixedNeuron"
  bottom: "pool5"
  top: "pool5"
  param {
    lr_mult: 0
    decay_mult: 0
  }
  fixed_param {
    fixed_method: DIFF_S
    bit_width: 8
  }
}
layer {
  name: "fc6"
  type: "InnerProductFixed"
  bottom: "pool5"
  top: "fc6"
  param {
    lr_mult: 1
    decay_mult: 1
  }
  param {
    lr_mult: 2
    decay_mult: 0
  }
  inner_product_param {
    num_output: 4096
    weight_filler {
      type: "gaussian"
      std: 0.005
    }
    bias_filler {
      type: "constant"
      value: 1
    }
  }
  fixed_param {
    fixed_method: DIFF_S
    bit_width: 8
  }
}
layer {
  name: "relu6"
  type: "ReLU"
  bottom: "fc6"
  top: "relu6"
}
layer {
  name: "relu6_fixed"
  type: "FixedNeuron"
  bottom: "relu6"
  top: "relu6"
  param {
    lr_mult: 0
    decay_mult: 0
  }
  fixed_param {
    fixed_method: DIFF_S
    bit_width: 8
  }
}
layer {
  name: "fc7"
  type: "InnerProductFixed"
  bottom: "relu6"
  top: "bn7"
  param {
    lr_mult: 1
    decay_mult: 1
  }
  param {
    lr_mult: 1
    decay_mult: 0
  }
  inner_product_param {
    num_output: 4096
    bias_term: true
    weight_filler {
      type: "gaussian"
      std: 0.005
    }
    bias_filler {
      type: "constant"
      value: 1
    }
  }
  fixed_param {
    fixed_method: DIFF_S
    bit_width: 8
  }
}
layer {
  name: "relu7"
  type: "ReLU"
  bottom: "bn7"
  top: "relu7"
}
layer {
  name: "relu7_fixed"
  type: "FixedNeuron"
  bottom: "relu7"
  top: "relu7"
  param {
    lr_mult: 0
    decay_mult: 0
  }
  fixed_param {
    fixed_method: DIFF_S
    bit_width: 8
  }
}
layer {
  name: "fc8"
  type: "InnerProductFixed"
  bottom: "relu7"
  top: "fc8"
  param {
    lr_mult: 1
    decay_mult: 1
  }
  param {
    lr_mult: 2
    decay_mult: 0
  }
  inner_product_param {
    num_output: 2
    weight_filler {
      type: "gaussian"
      std: 0.01
    }
    bias_filler {
      type: "constant"
      value: 0
    }
  }
  fixed_param {
    fixed_method: DIFF_S
    bit_width: 8
  }
}
layer {
  name: "fc8_fixed"
  type: "FixedNeuron"
  bottom: "fc8"
  top: "fc8"
  param {
    lr_mult: 0
    decay_mult: 0
  }
  fixed_param {
    fixed_method: DIFF_S
    bit_width: 8
  }
}
layer {
  name: "accuracy"
  type: "Accuracy"
  bottom: "fc8"
  bottom: "label"
  top: "accuracy"
  include {
    phase: TEST
  }
}
layer {
  name: "loss"
  type: "SoftmaxWithLoss"
  bottom: "fc8"
  bottom: "label"
  top: "loss"
}
layer {
  name: "accuracy-top1"
  type: "Accuracy"
  bottom: "fc8"
  bottom: "label"
  top: "top-1"
  include {
    phase: TEST
  }
}
I1008 12:40:22.665621   349 layer_factory.hpp:77] Creating layer data
I1008 12:40:22.665657   349 internal_thread.cpp:27] Starting internal thread(s) on GPU 0
I1008 12:40:22.666672   349 net.cpp:94] Creating Layer data
I1008 12:40:22.666688   349 net.cpp:409] data -> data
I1008 12:40:22.666698   349 net.cpp:409] data -> label
I1008 12:40:22.668439   383 db_lmdb.cpp:35] Opened lmdb input/lmdb/valid_lmdb
I1008 12:40:22.668468   383 db_lmdb.cpp:38] Items count: 4000
I1008 12:40:22.668506   383 data_reader.cpp:124] TEST: reading data using 1 channel(s)
I1008 12:40:22.668678   349 data_layer.cpp:78] ReshapePrefetch 50, 3, 227, 227
I1008 12:40:22.668732   349 data_layer.cpp:83] output data size: 50,3,227,227
I1008 12:40:22.777029   349 internal_thread.cpp:27] Starting internal thread(s) on GPU 0
I1008 12:40:22.777271   349 net.cpp:144] Setting up data
I1008 12:40:22.777276   349 net.cpp:151] Top shape: 50 3 227 227 (7729350)
I1008 12:40:22.777287   349 net.cpp:151] Top shape: 50 (50)
I1008 12:40:22.777290   349 net.cpp:159] Memory required for data: 30917600
I1008 12:40:22.777295   349 layer_factory.hpp:77] Creating layer label_data_1_split
I1008 12:40:22.777307   349 net.cpp:94] Creating Layer label_data_1_split
I1008 12:40:22.777312   349 net.cpp:435] label_data_1_split <- label
I1008 12:40:22.777319   349 net.cpp:409] label_data_1_split -> label_data_1_split_0
I1008 12:40:22.777329   349 net.cpp:409] label_data_1_split -> label_data_1_split_1
I1008 12:40:22.777333   349 net.cpp:409] label_data_1_split -> label_data_1_split_2
I1008 12:40:22.777372   349 net.cpp:144] Setting up label_data_1_split
I1008 12:40:22.777375   349 net.cpp:151] Top shape: 50 (50)
I1008 12:40:22.777379   349 net.cpp:151] Top shape: 50 (50)
I1008 12:40:22.777381   349 net.cpp:151] Top shape: 50 (50)
I1008 12:40:22.777384   349 net.cpp:159] Memory required for data: 30918200
I1008 12:40:22.777387   349 layer_factory.hpp:77] Creating layer data_fixed
I1008 12:40:22.777395   349 net.cpp:94] Creating Layer data_fixed
I1008 12:40:22.777397   349 net.cpp:435] data_fixed <- data
I1008 12:40:22.777400   349 net.cpp:396] data_fixed -> data (in-place)
I1008 12:40:22.777417   349 net.cpp:144] Setting up data_fixed
I1008 12:40:22.777420   349 net.cpp:151] Top shape: 50 3 227 227 (7729350)
I1008 12:40:22.777424   349 net.cpp:159] Memory required for data: 61835600
I1008 12:40:22.777432   349 layer_factory.hpp:77] Creating layer conv1
I1008 12:40:22.777441   349 net.cpp:94] Creating Layer conv1
I1008 12:40:22.777444   349 net.cpp:435] conv1 <- data
I1008 12:40:22.777448   349 net.cpp:409] conv1 -> bn1
I1008 12:40:22.777791   349 layer_factory.hpp:77] Creating layer conv1
I1008 12:40:22.778093   349 net.cpp:144] Setting up conv1
I1008 12:40:22.778100   349 net.cpp:151] Top shape: 50 96 55 55 (14520000)
I1008 12:40:22.778107   349 net.cpp:159] Memory required for data: 119915600
I1008 12:40:22.778116   349 layer_factory.hpp:77] Creating layer relu1
I1008 12:40:22.778133   349 net.cpp:94] Creating Layer relu1
I1008 12:40:22.778138   349 net.cpp:435] relu1 <- bn1
I1008 12:40:22.778143   349 net.cpp:409] relu1 -> relu1
I1008 12:40:22.778157   349 net.cpp:144] Setting up relu1
I1008 12:40:22.778160   349 net.cpp:151] Top shape: 50 96 55 55 (14520000)
I1008 12:40:22.778164   349 net.cpp:159] Memory required for data: 177995600
I1008 12:40:22.778168   349 layer_factory.hpp:77] Creating layer pool1
I1008 12:40:22.778173   349 net.cpp:94] Creating Layer pool1
I1008 12:40:22.778177   349 net.cpp:435] pool1 <- relu1
I1008 12:40:22.778180   349 net.cpp:409] pool1 -> pool1
I1008 12:40:22.778198   349 net.cpp:144] Setting up pool1
I1008 12:40:22.778201   349 net.cpp:151] Top shape: 50 96 27 27 (3499200)
I1008 12:40:22.778205   349 net.cpp:159] Memory required for data: 191992400
I1008 12:40:22.778208   349 layer_factory.hpp:77] Creating layer pool1_fixed
I1008 12:40:22.778213   349 net.cpp:94] Creating Layer pool1_fixed
I1008 12:40:22.778216   349 net.cpp:435] pool1_fixed <- pool1
I1008 12:40:22.778220   349 net.cpp:396] pool1_fixed -> pool1 (in-place)
I1008 12:40:22.778234   349 net.cpp:144] Setting up pool1_fixed
I1008 12:40:22.778237   349 net.cpp:151] Top shape: 50 96 27 27 (3499200)
I1008 12:40:22.778241   349 net.cpp:159] Memory required for data: 205989200
I1008 12:40:22.778245   349 layer_factory.hpp:77] Creating layer conv2
I1008 12:40:22.778252   349 net.cpp:94] Creating Layer conv2
I1008 12:40:22.778254   349 net.cpp:435] conv2 <- pool1
I1008 12:40:22.778259   349 net.cpp:409] conv2 -> bn2
I1008 12:40:22.784665   349 layer_factory.hpp:77] Creating layer conv2
I1008 12:40:22.795681   349 net.cpp:144] Setting up conv2
I1008 12:40:22.795699   349 net.cpp:151] Top shape: 50 256 27 27 (9331200)
I1008 12:40:22.795708   349 net.cpp:159] Memory required for data: 243314000
I1008 12:40:22.795734   349 layer_factory.hpp:77] Creating layer relu2
I1008 12:40:22.795742   349 net.cpp:94] Creating Layer relu2
I1008 12:40:22.795747   349 net.cpp:435] relu2 <- bn2
I1008 12:40:22.795753   349 net.cpp:409] relu2 -> relu2
I1008 12:40:22.795768   349 net.cpp:144] Setting up relu2
I1008 12:40:22.795770   349 net.cpp:151] Top shape: 50 256 27 27 (9331200)
I1008 12:40:22.795774   349 net.cpp:159] Memory required for data: 280638800
I1008 12:40:22.795778   349 layer_factory.hpp:77] Creating layer pool2
I1008 12:40:22.795783   349 net.cpp:94] Creating Layer pool2
I1008 12:40:22.795786   349 net.cpp:435] pool2 <- relu2
I1008 12:40:22.795790   349 net.cpp:409] pool2 -> pool2
I1008 12:40:22.795809   349 net.cpp:144] Setting up pool2
I1008 12:40:22.795814   349 net.cpp:151] Top shape: 50 256 13 13 (2163200)
I1008 12:40:22.795820   349 net.cpp:159] Memory required for data: 289291600
I1008 12:40:22.795825   349 layer_factory.hpp:77] Creating layer pool2_fixed
I1008 12:40:22.795835   349 net.cpp:94] Creating Layer pool2_fixed
I1008 12:40:22.795840   349 net.cpp:435] pool2_fixed <- pool2
I1008 12:40:22.795847   349 net.cpp:396] pool2_fixed -> pool2 (in-place)
I1008 12:40:22.795868   349 net.cpp:144] Setting up pool2_fixed
I1008 12:40:22.795872   349 net.cpp:151] Top shape: 50 256 13 13 (2163200)
I1008 12:40:22.795878   349 net.cpp:159] Memory required for data: 297944400
I1008 12:40:22.795884   349 layer_factory.hpp:77] Creating layer conv3
I1008 12:40:22.795895   349 net.cpp:94] Creating Layer conv3
I1008 12:40:22.795900   349 net.cpp:435] conv3 <- pool2
I1008 12:40:22.795907   349 net.cpp:409] conv3 -> conv3
I1008 12:40:22.805869   349 layer_factory.hpp:77] Creating layer conv3
I1008 12:40:22.819110   349 net.cpp:144] Setting up conv3
I1008 12:40:22.819139   349 net.cpp:151] Top shape: 50 384 13 13 (3244800)
I1008 12:40:22.819151   349 net.cpp:159] Memory required for data: 310923600
I1008 12:40:22.819166   349 layer_factory.hpp:77] Creating layer relu3
I1008 12:40:22.819176   349 net.cpp:94] Creating Layer relu3
I1008 12:40:22.819182   349 net.cpp:435] relu3 <- conv3
I1008 12:40:22.819192   349 net.cpp:409] relu3 -> relu3
I1008 12:40:22.819216   349 net.cpp:144] Setting up relu3
I1008 12:40:22.819219   349 net.cpp:151] Top shape: 50 384 13 13 (3244800)
I1008 12:40:22.819226   349 net.cpp:159] Memory required for data: 323902800
I1008 12:40:22.819231   349 layer_factory.hpp:77] Creating layer relu3_fixed
I1008 12:40:22.819240   349 net.cpp:94] Creating Layer relu3_fixed
I1008 12:40:22.819244   349 net.cpp:435] relu3_fixed <- relu3
I1008 12:40:22.819250   349 net.cpp:396] relu3_fixed -> relu3 (in-place)
I1008 12:40:22.819276   349 net.cpp:144] Setting up relu3_fixed
I1008 12:40:22.819281   349 net.cpp:151] Top shape: 50 384 13 13 (3244800)
I1008 12:40:22.819288   349 net.cpp:159] Memory required for data: 336882000
I1008 12:40:22.819294   349 layer_factory.hpp:77] Creating layer conv4
I1008 12:40:22.819309   349 net.cpp:94] Creating Layer conv4
I1008 12:40:22.819314   349 net.cpp:435] conv4 <- relu3
I1008 12:40:22.819321   349 net.cpp:409] conv4 -> conv4
I1008 12:40:22.835366   349 layer_factory.hpp:77] Creating layer conv4
I1008 12:40:22.851104   349 net.cpp:144] Setting up conv4
I1008 12:40:22.851136   349 net.cpp:151] Top shape: 50 384 13 13 (3244800)
I1008 12:40:22.851150   349 net.cpp:159] Memory required for data: 349861200
I1008 12:40:22.851162   349 layer_factory.hpp:77] Creating layer relu4
I1008 12:40:22.851188   349 net.cpp:94] Creating Layer relu4
I1008 12:40:22.851195   349 net.cpp:435] relu4 <- conv4
I1008 12:40:22.851204   349 net.cpp:409] relu4 -> relu4
I1008 12:40:22.851230   349 net.cpp:144] Setting up relu4
I1008 12:40:22.851234   349 net.cpp:151] Top shape: 50 384 13 13 (3244800)
I1008 12:40:22.851240   349 net.cpp:159] Memory required for data: 362840400
I1008 12:40:22.851244   349 layer_factory.hpp:77] Creating layer relu4_fixed
I1008 12:40:22.851255   349 net.cpp:94] Creating Layer relu4_fixed
I1008 12:40:22.851260   349 net.cpp:435] relu4_fixed <- relu4
I1008 12:40:22.851266   349 net.cpp:396] relu4_fixed -> relu4 (in-place)
I1008 12:40:22.851290   349 net.cpp:144] Setting up relu4_fixed
I1008 12:40:22.851294   349 net.cpp:151] Top shape: 50 384 13 13 (3244800)
I1008 12:40:22.851300   349 net.cpp:159] Memory required for data: 375819600
I1008 12:40:22.851305   349 layer_factory.hpp:77] Creating layer conv5
I1008 12:40:22.851317   349 net.cpp:94] Creating Layer conv5
I1008 12:40:22.851321   349 net.cpp:435] conv5 <- relu4
I1008 12:40:22.851328   349 net.cpp:409] conv5 -> conv5
I1008 12:40:22.860613   349 layer_factory.hpp:77] Creating layer conv5
I1008 12:40:22.868824   349 net.cpp:144] Setting up conv5
I1008 12:40:22.868841   349 net.cpp:151] Top shape: 50 256 13 13 (2163200)
I1008 12:40:22.868849   349 net.cpp:159] Memory required for data: 384472400
I1008 12:40:22.868857   349 layer_factory.hpp:77] Creating layer relu5
I1008 12:40:22.868865   349 net.cpp:94] Creating Layer relu5
I1008 12:40:22.868872   349 net.cpp:435] relu5 <- conv5
I1008 12:40:22.868881   349 net.cpp:409] relu5 -> relu5
I1008 12:40:22.868901   349 net.cpp:144] Setting up relu5
I1008 12:40:22.868902   349 net.cpp:151] Top shape: 50 256 13 13 (2163200)
I1008 12:40:22.868906   349 net.cpp:159] Memory required for data: 393125200
I1008 12:40:22.868909   349 layer_factory.hpp:77] Creating layer pool5
I1008 12:40:22.868914   349 net.cpp:94] Creating Layer pool5
I1008 12:40:22.868916   349 net.cpp:435] pool5 <- relu5
I1008 12:40:22.868921   349 net.cpp:409] pool5 -> pool5
I1008 12:40:22.868943   349 net.cpp:144] Setting up pool5
I1008 12:40:22.868948   349 net.cpp:151] Top shape: 50 256 6 6 (460800)
I1008 12:40:22.868953   349 net.cpp:159] Memory required for data: 394968400
I1008 12:40:22.868957   349 layer_factory.hpp:77] Creating layer pool5_fixed
I1008 12:40:22.868963   349 net.cpp:94] Creating Layer pool5_fixed
I1008 12:40:22.868983   349 net.cpp:435] pool5_fixed <- pool5
I1008 12:40:22.868988   349 net.cpp:396] pool5_fixed -> pool5 (in-place)
I1008 12:40:22.869004   349 net.cpp:144] Setting up pool5_fixed
I1008 12:40:22.869006   349 net.cpp:151] Top shape: 50 256 6 6 (460800)
I1008 12:40:22.869010   349 net.cpp:159] Memory required for data: 396811600
I1008 12:40:22.869014   349 layer_factory.hpp:77] Creating layer fc6
I1008 12:40:22.869021   349 net.cpp:94] Creating Layer fc6
I1008 12:40:22.869024   349 net.cpp:435] fc6 <- pool5
I1008 12:40:22.869029   349 net.cpp:409] fc6 -> fc6
I1008 12:40:23.192694   349 layer_factory.hpp:77] Creating layer fc6
I1008 12:40:23.508644   349 net.cpp:144] Setting up fc6
I1008 12:40:23.508671   349 net.cpp:151] Top shape: 50 4096 (204800)
I1008 12:40:23.508679   349 net.cpp:159] Memory required for data: 397630800
I1008 12:40:23.508690   349 layer_factory.hpp:77] Creating layer relu6
I1008 12:40:23.508697   349 net.cpp:94] Creating Layer relu6
I1008 12:40:23.508702   349 net.cpp:435] relu6 <- fc6
I1008 12:40:23.508708   349 net.cpp:409] relu6 -> relu6
I1008 12:40:23.508723   349 net.cpp:144] Setting up relu6
I1008 12:40:23.508725   349 net.cpp:151] Top shape: 50 4096 (204800)
I1008 12:40:23.508730   349 net.cpp:159] Memory required for data: 398450000
I1008 12:40:23.508733   349 layer_factory.hpp:77] Creating layer relu6_fixed
I1008 12:40:23.508739   349 net.cpp:94] Creating Layer relu6_fixed
I1008 12:40:23.508741   349 net.cpp:435] relu6_fixed <- relu6
I1008 12:40:23.508745   349 net.cpp:396] relu6_fixed -> relu6 (in-place)
I1008 12:40:23.508759   349 net.cpp:144] Setting up relu6_fixed
I1008 12:40:23.508760   349 net.cpp:151] Top shape: 50 4096 (204800)
I1008 12:40:23.508764   349 net.cpp:159] Memory required for data: 399269200
I1008 12:40:23.508766   349 layer_factory.hpp:77] Creating layer fc7
I1008 12:40:23.508774   349 net.cpp:94] Creating Layer fc7
I1008 12:40:23.508775   349 net.cpp:435] fc7 <- relu6
I1008 12:40:23.508780   349 net.cpp:409] fc7 -> bn7
I1008 12:40:23.646534   349 layer_factory.hpp:77] Creating layer fc7
I1008 12:40:23.785216   349 net.cpp:144] Setting up fc7
I1008 12:40:23.785238   349 net.cpp:151] Top shape: 50 4096 (204800)
I1008 12:40:23.785245   349 net.cpp:159] Memory required for data: 400088400
I1008 12:40:23.785254   349 layer_factory.hpp:77] Creating layer relu7
I1008 12:40:23.785261   349 net.cpp:94] Creating Layer relu7
I1008 12:40:23.785265   349 net.cpp:435] relu7 <- bn7
I1008 12:40:23.785272   349 net.cpp:409] relu7 -> relu7
I1008 12:40:23.785287   349 net.cpp:144] Setting up relu7
I1008 12:40:23.785290   349 net.cpp:151] Top shape: 50 4096 (204800)
I1008 12:40:23.785292   349 net.cpp:159] Memory required for data: 400907600
I1008 12:40:23.785295   349 layer_factory.hpp:77] Creating layer relu7_fixed
I1008 12:40:23.785301   349 net.cpp:94] Creating Layer relu7_fixed
I1008 12:40:23.785305   349 net.cpp:435] relu7_fixed <- relu7
I1008 12:40:23.785307   349 net.cpp:396] relu7_fixed -> relu7 (in-place)
I1008 12:40:23.785320   349 net.cpp:144] Setting up relu7_fixed
I1008 12:40:23.785322   349 net.cpp:151] Top shape: 50 4096 (204800)
I1008 12:40:23.785326   349 net.cpp:159] Memory required for data: 401726800
I1008 12:40:23.785328   349 layer_factory.hpp:77] Creating layer fc8
I1008 12:40:23.785349   349 net.cpp:94] Creating Layer fc8
I1008 12:40:23.785351   349 net.cpp:435] fc8 <- relu7
I1008 12:40:23.785356   349 net.cpp:409] fc8 -> fc8
I1008 12:40:23.785459   349 layer_factory.hpp:77] Creating layer fc8
I1008 12:40:23.785562   349 net.cpp:144] Setting up fc8
I1008 12:40:23.785567   349 net.cpp:151] Top shape: 50 2 (100)
I1008 12:40:23.785569   349 net.cpp:159] Memory required for data: 401727200
I1008 12:40:23.785573   349 layer_factory.hpp:77] Creating layer fc8_fixed
I1008 12:40:23.785578   349 net.cpp:94] Creating Layer fc8_fixed
I1008 12:40:23.785579   349 net.cpp:435] fc8_fixed <- fc8
I1008 12:40:23.785583   349 net.cpp:396] fc8_fixed -> fc8 (in-place)
I1008 12:40:23.785595   349 net.cpp:144] Setting up fc8_fixed
I1008 12:40:23.785598   349 net.cpp:151] Top shape: 50 2 (100)
I1008 12:40:23.785600   349 net.cpp:159] Memory required for data: 401727600
I1008 12:40:23.785604   349 layer_factory.hpp:77] Creating layer fc8_fc8_fixed_0_split
I1008 12:40:23.785609   349 net.cpp:94] Creating Layer fc8_fc8_fixed_0_split
I1008 12:40:23.785610   349 net.cpp:435] fc8_fc8_fixed_0_split <- fc8
I1008 12:40:23.785614   349 net.cpp:409] fc8_fc8_fixed_0_split -> fc8_fc8_fixed_0_split_0
I1008 12:40:23.785634   349 net.cpp:409] fc8_fc8_fixed_0_split -> fc8_fc8_fixed_0_split_1
I1008 12:40:23.785640   349 net.cpp:409] fc8_fc8_fixed_0_split -> fc8_fc8_fixed_0_split_2
I1008 12:40:23.785656   349 net.cpp:144] Setting up fc8_fc8_fixed_0_split
I1008 12:40:23.785660   349 net.cpp:151] Top shape: 50 2 (100)
I1008 12:40:23.785663   349 net.cpp:151] Top shape: 50 2 (100)
I1008 12:40:23.785666   349 net.cpp:151] Top shape: 50 2 (100)
I1008 12:40:23.785670   349 net.cpp:159] Memory required for data: 401728800
I1008 12:40:23.785672   349 layer_factory.hpp:77] Creating layer accuracy
I1008 12:40:23.785678   349 net.cpp:94] Creating Layer accuracy
I1008 12:40:23.785681   349 net.cpp:435] accuracy <- fc8_fc8_fixed_0_split_0
I1008 12:40:23.785686   349 net.cpp:435] accuracy <- label_data_1_split_0
I1008 12:40:23.785689   349 net.cpp:409] accuracy -> accuracy
…
