…
I0318 06:03:20.571985   633 net.cpp:369] The NetState phase (0) differed from the phase (1) specified by a rule in layer accuracy-top1
I0318 06:03:20.571990   633 net.cpp:98] Initializing net from parameters: 
name: "alexnetBNnoLRN m2 (as m3 but less DROP and less BN)"
state {
  phase: TRAIN
}
layer {
  name: "data"
  type: "Data"
  top: "data"
  top: "label"
  include {
    phase: TRAIN
  }
  transform_param {
    mirror: true
    crop_size: 227
    mean_value: 106
    mean_value: 116
    mean_value: 124
  }
  data_param {
    source: "input/lmdb/train_lmdb"
    batch_size: 256
    backend: LMDB
  }
}
layer {
  name: "conv1"
  type: "Convolution"
  bottom: "data"
  top: "conv1"
  param {
    lr_mult: 1
    decay_mult: 1
  }
  param {
    lr_mult: 2
    decay_mult: 0
  }
  convolution_param {
    num_output: 96
    pad: 1
    kernel_size: 11
    stride: 4
    weight_filler {
      type: "gaussian"
      std: 0.01
    }
    bias_filler {
      type: "constant"
      value: 0
    }
  }
}
layer {
  name: "bn1"
  type: "BatchNorm"
  bottom: "conv1"
  top: "bn1"
  param {
    lr_mult: 0
  }
  param {
    lr_mult: 0
  }
  param {
    lr_mult: 0
  }
  batch_norm_param {
    use_global_stats: false
  }
}
layer {
  name: "relu1"
  type: "ReLU"
  bottom: "bn1"
  top: "relu1"
}
layer {
  name: "pool1"
  type: "Pooling"
  bottom: "relu1"
  top: "pool1"
  pooling_param {
    pool: MAX
    kernel_size: 3
    stride: 2
  }
}
layer {
  name: "conv2"
  type: "Convolution"
  bottom: "pool1"
  top: "conv2"
  param {
    lr_mult: 1
    decay_mult: 1
  }
  param {
    lr_mult: 2
    decay_mult: 0
  }
  convolution_param {
    num_output: 256
    pad: 2
    kernel_size: 5
    group: 1
    weight_filler {
      type: "gaussian"
      std: 0.01
    }
    bias_filler {
      type: "constant"
      value: 1
    }
  }
}
layer {
  name: "bn2"
  type: "BatchNorm"
  bottom: "conv2"
  top: "bn2"
  param {
    lr_mult: 0
  }
  param {
    lr_mult: 0
  }
  param {
    lr_mult: 0
  }
  batch_norm_param {
    use_global_stats: false
  }
}
layer {
  name: "relu2"
  type: "ReLU"
  bottom: "bn2"
  top: "relu2"
}
layer {
  name: "pool2"
  type: "Pooling"
  bottom: "relu2"
  top: "pool2"
  pooling_param {
    pool: MAX
    kernel_size: 3
    stride: 2
  }
}
layer {
  name: "conv3"
  type: "Convolution"
  bottom: "pool2"
  top: "conv3"
  param {
    lr_mult: 1
    decay_mult: 1
  }
  param {
    lr_mult: 2
    decay_mult: 0
  }
  convolution_param {
    num_output: 384
    pad: 1
    kernel_size: 3
    weight_filler {
      type: "gaussian"
      std: 0.01
    }
    bias_filler {
      type: "constant"
      value: 0
    }
  }
}
layer {
  name: "relu3"
  type: "ReLU"
  bottom: "conv3"
  top: "relu3"
}
layer {
  name: "conv4"
  type: "Convolution"
  bottom: "relu3"
  top: "conv4"
  param {
    lr_mult: 1
    decay_mult: 1
  }
  param {
    lr_mult: 2
    decay_mult: 0
  }
  convolution_param {
    num_output: 384
    pad: 1
    kernel_size: 3
    group: 1
    weight_filler {
      type: "gaussian"
      std: 0.01
    }
    bias_filler {
      type: "constant"
      value: 1
    }
  }
}
layer {
  name: "relu4"
  type: "ReLU"
  bottom: "conv4"
  top: "relu4"
}
layer {
  name: "conv5"
  type: "Convolution"
  bottom: "relu4"
  top: "conv5"
  param {
    lr_mult: 1
    decay_mult: 1
  }
  param {
    lr_mult: 2
    decay_mult: 0
  }
  convolution_param {
    num_output: 256
    pad: 1
    kernel_size: 3
    group: 1
    weight_filler {
      type: "gaussian"
      std: 0.01
    }
    bias_filler {
      type: "constant"
      value: 1
    }
  }
}
layer {
  name: "relu5"
  type: "ReLU"
  bottom: "conv5"
  top: "relu5"
}
layer {
  name: "pool5"
  type: "Pooling"
  bottom: "relu5"
  top: "pool5"
  pooling_param {
    pool: MAX
    kernel_size: 3
    stride: 2
  }
}
layer {
  name: "fc6"
  type: "InnerProduct"
  bottom: "pool5"
  top: "fc6"
  param {
    lr_mult: 1
    decay_mult: 1
  }
  param {
    lr_mult: 2
    decay_mult: 0
  }
  inner_product_param {
    num_output: 4096
    weight_filler {
      type: "gaussian"
      std: 0.005
    }
    bias_filler {
      type: "constant"
      value: 1
    }
  }
}
layer {
  name: "relu6"
  type: "ReLU"
  bottom: "fc6"
  top: "relu6"
}
layer {
  name: "drop6"
  type: "Dropout"
  bottom: "relu6"
  top: "drop6"
  dropout_param {
    dropout_ratio: 0.5
  }
}
layer {
  name: "fc7"
  type: "InnerProduct"
  bottom: "drop6"
  top: "fc7"
  param {
    lr_mult: 1
    decay_mult: 1
  }
  param {
    lr_mult: 2
    decay_mult: 0
  }
  inner_product_param {
    num_output: 4096
    weight_filler {
      type: "gaussian"
      std: 0.005
    }
    bias_filler {
      type: "constant"
      value: 1
    }
  }
}
layer {
  name: "bn7"
  type: "BatchNorm"
  bottom: "fc7"
  top: "bn7"
  param {
    lr_mult: 0
  }
  param {
    lr_mult: 0
  }
  param {
    lr_mult: 0
  }
  batch_norm_param {
    use_global_stats: false
  }
}
layer {
  name: "relu7"
  type: "ReLU"
  bottom: "bn7"
  top: "relu7"
}
layer {
  name: "drop7"
  type: "Dropout"
  bottom: "relu7"
  top: "drop7"
  dropout_param {
    dropout_ratio: 0.5
  }
}
layer {
  name: "fc8"
  type: "InnerProduct"
  bottom: "drop7"
  top: "fc8"
  param {
    lr_mult: 1
    decay_mult: 1
  }
  param {
    lr_mult: 2
    decay_mult: 0
  }
  inner_product_param {
    num_output: 2
    weight_filler {
      type: "gaussian"
      std: 0.01
    }
    bias_filler {
      type: "constant"
      value: 0
    }
  }
}
layer {
  name: "loss"
  type: "SoftmaxWithLoss"
  bottom: "fc8"
  bottom: "label"
  top: "loss"
}
I0318 06:03:20.572187   633 layer_factory.hpp:123] Creating layer data
I0318 06:03:20.572307   633 internal_thread.cpp:73] Starting internal thread(s) on GPU 0
I0318 06:03:20.573729   633 net.cpp:140] Creating Layer data
I0318 06:03:20.573743   633 net.cpp:455] data -> data
I0318 06:03:20.573758   633 net.cpp:455] data -> label
I0318 06:03:20.575168   665 db_lmdb.cpp:81] Opened lmdb input/lmdb/train_lmdb
I0318 06:03:20.575203   665 data_reader.cpp:170] TRAIN: reading data using 1 channel(s)
I0318 06:03:20.575544   633 data_layer.cpp:124] ReshapePrefetch 256, 3, 227, 227
I0318 06:03:20.575629   633 data_layer.cpp:129] output data size: 256,3,227,227
I0318 06:03:20.957983   633 internal_thread.cpp:73] Starting internal thread(s) on GPU 0
I0318 06:03:20.958081   633 net.cpp:190] Setting up data
I0318 06:03:20.958091   633 net.cpp:197] Top shape: 256 3 227 227 (39574272)
I0318 06:03:20.958102   633 net.cpp:197] Top shape: 256 (256)
I0318 06:03:20.958106   633 net.cpp:205] Memory required for data: 158298112
I0318 06:03:20.958110   633 layer_factory.hpp:123] Creating layer conv1
I0318 06:03:20.958127   633 net.cpp:140] Creating Layer conv1
I0318 06:03:20.958132   633 net.cpp:481] conv1 <- data
I0318 06:03:20.958137   633 net.cpp:455] conv1 -> conv1
I0318 06:03:20.958758   633 net.cpp:190] Setting up conv1
I0318 06:03:20.958767   633 net.cpp:197] Top shape: 256 96 55 55 (74342400)
I0318 06:03:20.958773   633 net.cpp:205] Memory required for data: 455667712
I0318 06:03:20.958783   633 layer_factory.hpp:123] Creating layer bn1
I0318 06:03:20.958806   633 net.cpp:140] Creating Layer bn1
I0318 06:03:20.958811   633 net.cpp:481] bn1 <- conv1
I0318 06:03:20.958817   633 net.cpp:455] bn1 -> bn1
I0318 06:03:20.959333   633 net.cpp:190] Setting up bn1
I0318 06:03:20.959340   633 net.cpp:197] Top shape: 256 96 55 55 (74342400)
I0318 06:03:20.959345   633 net.cpp:205] Memory required for data: 753037312
I0318 06:03:20.959354   633 layer_factory.hpp:123] Creating layer relu1
I0318 06:03:20.959359   633 net.cpp:140] Creating Layer relu1
I0318 06:03:20.959362   633 net.cpp:481] relu1 <- bn1
I0318 06:03:20.959367   633 net.cpp:455] relu1 -> relu1
I0318 06:03:20.959386   633 net.cpp:190] Setting up relu1
I0318 06:03:20.959391   633 net.cpp:197] Top shape: 256 96 55 55 (74342400)
I0318 06:03:20.959395   633 net.cpp:205] Memory required for data: 1050406912
I0318 06:03:20.959398   633 layer_factory.hpp:123] Creating layer pool1
I0318 06:03:20.959404   633 net.cpp:140] Creating Layer pool1
I0318 06:03:20.959408   633 net.cpp:481] pool1 <- relu1
I0318 06:03:20.959411   633 net.cpp:455] pool1 -> pool1
I0318 06:03:20.959434   633 net.cpp:190] Setting up pool1
I0318 06:03:20.959439   633 net.cpp:197] Top shape: 256 96 27 27 (17915904)
I0318 06:03:20.959442   633 net.cpp:205] Memory required for data: 1122070528
I0318 06:03:20.959446   633 layer_factory.hpp:123] Creating layer conv2
I0318 06:03:20.959452   633 net.cpp:140] Creating Layer conv2
I0318 06:03:20.959455   633 net.cpp:481] conv2 <- pool1
I0318 06:03:20.959460   633 net.cpp:455] conv2 -> conv2
I0318 06:03:20.974953   633 net.cpp:190] Setting up conv2
I0318 06:03:20.974972   633 net.cpp:197] Top shape: 256 256 27 27 (47775744)
I0318 06:03:20.974982   633 net.cpp:205] Memory required for data: 1313173504
I0318 06:03:20.974993   633 layer_factory.hpp:123] Creating layer bn2
I0318 06:03:20.975005   633 net.cpp:140] Creating Layer bn2
I0318 06:03:20.975010   633 net.cpp:481] bn2 <- conv2
I0318 06:03:20.975018   633 net.cpp:455] bn2 -> bn2
I0318 06:03:20.976245   633 net.cpp:190] Setting up bn2
I0318 06:03:20.976269   633 net.cpp:197] Top shape: 256 256 27 27 (47775744)
I0318 06:03:20.976286   633 net.cpp:205] Memory required for data: 1504276480
I0318 06:03:20.976307   633 layer_factory.hpp:123] Creating layer relu2
I0318 06:03:20.976325   633 net.cpp:140] Creating Layer relu2
I0318 06:03:20.976341   633 net.cpp:481] relu2 <- bn2
I0318 06:03:20.976351   633 net.cpp:455] relu2 -> relu2
I0318 06:03:20.976472   633 net.cpp:190] Setting up relu2
I0318 06:03:20.976490   633 net.cpp:197] Top shape: 256 256 27 27 (47775744)
I0318 06:03:20.976505   633 net.cpp:205] Memory required for data: 1695379456
I0318 06:03:20.976514   633 layer_factory.hpp:123] Creating layer pool2
I0318 06:03:20.976529   633 net.cpp:140] Creating Layer pool2
I0318 06:03:20.976539   633 net.cpp:481] pool2 <- relu2
I0318 06:03:20.976548   633 net.cpp:455] pool2 -> pool2
I0318 06:03:20.976606   633 net.cpp:190] Setting up pool2
I0318 06:03:20.976616   633 net.cpp:197] Top shape: 256 256 13 13 (11075584)
I0318 06:03:20.976630   633 net.cpp:205] Memory required for data: 1739681792
I0318 06:03:20.976644   633 layer_factory.hpp:123] Creating layer conv3
I0318 06:03:20.976675   633 net.cpp:140] Creating Layer conv3
I0318 06:03:20.976688   633 net.cpp:481] conv3 <- pool2
I0318 06:03:20.976702   633 net.cpp:455] conv3 -> conv3
I0318 06:03:21.010231   633 net.cpp:190] Setting up conv3
I0318 06:03:21.010270   633 net.cpp:197] Top shape: 256 384 13 13 (16613376)
I0318 06:03:21.010285   633 net.cpp:205] Memory required for data: 1806135296
I0318 06:03:21.010299   633 layer_factory.hpp:123] Creating layer relu3
I0318 06:03:21.010309   633 net.cpp:140] Creating Layer relu3
I0318 06:03:21.010314   633 net.cpp:481] relu3 <- conv3
I0318 06:03:21.010324   633 net.cpp:455] relu3 -> relu3
I0318 06:03:21.010356   633 net.cpp:190] Setting up relu3
I0318 06:03:21.010365   633 net.cpp:197] Top shape: 256 384 13 13 (16613376)
I0318 06:03:21.010371   633 net.cpp:205] Memory required for data: 1872588800
I0318 06:03:21.010375   633 layer_factory.hpp:123] Creating layer conv4
I0318 06:03:21.010417   633 net.cpp:140] Creating Layer conv4
I0318 06:03:21.010421   633 net.cpp:481] conv4 <- relu3
I0318 06:03:21.010427   633 net.cpp:455] conv4 -> conv4
I0318 06:03:21.042814   633 net.cpp:190] Setting up conv4
I0318 06:03:21.042870   633 net.cpp:197] Top shape: 256 384 13 13 (16613376)
I0318 06:03:21.042894   633 net.cpp:205] Memory required for data: 1939042304
I0318 06:03:21.042927   633 layer_factory.hpp:123] Creating layer relu4
I0318 06:03:21.042946   633 net.cpp:140] Creating Layer relu4
I0318 06:03:21.042963   633 net.cpp:481] relu4 <- conv4
I0318 06:03:21.042979   633 net.cpp:455] relu4 -> relu4
I0318 06:03:21.043052   633 net.cpp:190] Setting up relu4
I0318 06:03:21.043063   633 net.cpp:197] Top shape: 256 384 13 13 (16613376)
I0318 06:03:21.043076   633 net.cpp:205] Memory required for data: 2005495808
I0318 06:03:21.043082   633 layer_factory.hpp:123] Creating layer conv5
I0318 06:03:21.043098   633 net.cpp:140] Creating Layer conv5
I0318 06:03:21.043104   633 net.cpp:481] conv5 <- relu4
I0318 06:03:21.043112   633 net.cpp:455] conv5 -> conv5
I0318 06:03:21.056991   633 net.cpp:190] Setting up conv5
I0318 06:03:21.057026   633 net.cpp:197] Top shape: 256 256 13 13 (11075584)
I0318 06:03:21.057039   633 net.cpp:205] Memory required for data: 2049798144
I0318 06:03:21.057050   633 layer_factory.hpp:123] Creating layer relu5
I0318 06:03:21.057063   633 net.cpp:140] Creating Layer relu5
I0318 06:03:21.057070   633 net.cpp:481] relu5 <- conv5
I0318 06:03:21.057081   633 net.cpp:455] relu5 -> relu5
I0318 06:03:21.057116   633 net.cpp:190] Setting up relu5
I0318 06:03:21.057124   633 net.cpp:197] Top shape: 256 256 13 13 (11075584)
I0318 06:03:21.057130   633 net.cpp:205] Memory required for data: 2094100480
I0318 06:03:21.057134   633 layer_factory.hpp:123] Creating layer pool5
I0318 06:03:21.057142   633 net.cpp:140] Creating Layer pool5
I0318 06:03:21.057144   633 net.cpp:481] pool5 <- relu5
I0318 06:03:21.057148   633 net.cpp:455] pool5 -> pool5
I0318 06:03:21.057191   633 net.cpp:190] Setting up pool5
I0318 06:03:21.057194   633 net.cpp:197] Top shape: 256 256 6 6 (2359296)
I0318 06:03:21.057199   633 net.cpp:205] Memory required for data: 2103537664
I0318 06:03:21.057201   633 layer_factory.hpp:123] Creating layer fc6
I0318 06:03:21.057222   633 net.cpp:140] Creating Layer fc6
I0318 06:03:21.057230   633 net.cpp:481] fc6 <- pool5
I0318 06:03:21.057240   633 net.cpp:455] fc6 -> fc6
I0318 06:03:21.374402   633 net.cpp:190] Setting up fc6
I0318 06:03:21.374424   633 net.cpp:197] Top shape: 256 4096 (1048576)
I0318 06:03:21.374433   633 net.cpp:205] Memory required for data: 2107731968
I0318 06:03:21.374460   633 layer_factory.hpp:123] Creating layer relu6
I0318 06:03:21.374469   633 net.cpp:140] Creating Layer relu6
I0318 06:03:21.374472   633 net.cpp:481] relu6 <- fc6
I0318 06:03:21.374480   633 net.cpp:455] relu6 -> relu6
I0318 06:03:21.374495   633 net.cpp:190] Setting up relu6
I0318 06:03:21.374498   633 net.cpp:197] Top shape: 256 4096 (1048576)
I0318 06:03:21.374501   633 net.cpp:205] Memory required for data: 2111926272
I0318 06:03:21.374503   633 layer_factory.hpp:123] Creating layer drop6
I0318 06:03:21.374508   633 net.cpp:140] Creating Layer drop6
I0318 06:03:21.374511   633 net.cpp:481] drop6 <- relu6
I0318 06:03:21.374516   633 net.cpp:455] drop6 -> drop6
I0318 06:03:21.374534   633 net.cpp:190] Setting up drop6
I0318 06:03:21.374539   633 net.cpp:197] Top shape: 256 4096 (1048576)
I0318 06:03:21.374542   633 net.cpp:205] Memory required for data: 2116120576
I0318 06:03:21.374545   633 layer_factory.hpp:123] Creating layer fc7
I0318 06:03:21.374552   633 net.cpp:140] Creating Layer fc7
I0318 06:03:21.374554   633 net.cpp:481] fc7 <- drop6
I0318 06:03:21.374557   633 net.cpp:455] fc7 -> fc7
I0318 06:03:21.510963   633 net.cpp:190] Setting up fc7
I0318 06:03:21.510988   633 net.cpp:197] Top shape: 256 4096 (1048576)
I0318 06:03:21.510998   633 net.cpp:205] Memory required for data: 2120314880
I0318 06:03:21.511024   633 layer_factory.hpp:123] Creating layer bn7
I0318 06:03:21.511035   633 net.cpp:140] Creating Layer bn7
I0318 06:03:21.511059   633 net.cpp:481] bn7 <- fc7
I0318 06:03:21.511065   633 net.cpp:455] bn7 -> bn7
I0318 06:03:21.511515   633 net.cpp:190] Setting up bn7
I0318 06:03:21.511521   633 net.cpp:197] Top shape: 256 4096 (1048576)
I0318 06:03:21.511526   633 net.cpp:205] Memory required for data: 2124509184
I0318 06:03:21.511535   633 layer_factory.hpp:123] Creating layer relu7
I0318 06:03:21.511541   633 net.cpp:140] Creating Layer relu7
I0318 06:03:21.511544   633 net.cpp:481] relu7 <- bn7
I0318 06:03:21.511548   633 net.cpp:455] relu7 -> relu7
I0318 06:03:21.511562   633 net.cpp:190] Setting up relu7
I0318 06:03:21.511566   633 net.cpp:197] Top shape: 256 4096 (1048576)
I0318 06:03:21.511570   633 net.cpp:205] Memory required for data: 2128703488
I0318 06:03:21.511574   633 layer_factory.hpp:123] Creating layer drop7
I0318 06:03:21.511581   633 net.cpp:140] Creating Layer drop7
I0318 06:03:21.511585   633 net.cpp:481] drop7 <- relu7
I0318 06:03:21.511588   633 net.cpp:455] drop7 -> drop7
I0318 06:03:21.511611   633 net.cpp:190] Setting up drop7
I0318 06:03:21.511615   633 net.cpp:197] Top shape: 256 4096 (1048576)
I0318 06:03:21.511620   633 net.cpp:205] Memory required for data: 2132897792
I0318 06:03:21.511623   633 layer_factory.hpp:123] Creating layer fc8
I0318 06:03:21.511628   633 net.cpp:140] Creating Layer fc8
I0318 06:03:21.511631   633 net.cpp:481] fc8 <- drop7
I0318 06:03:21.511636   633 net.cpp:455] fc8 -> fc8
I0318 06:03:21.511790   633 net.cpp:190] Setting up fc8
I0318 06:03:21.511795   633 net.cpp:197] Top shape: 256 2 (512)
I0318 06:03:21.511799   633 net.cpp:205] Memory required for data: 2132899840
I0318 06:03:21.511806   633 layer_factory.hpp:123] Creating layer loss
I0318 06:03:21.511816   633 net.cpp:140] Creating Layer loss
I0318 06:03:21.511821   633 net.cpp:481] loss <- fc8
I0318 06:03:21.511824   633 net.cpp:481] loss <- label
I0318 06:03:21.511828   633 net.cpp:455] loss -> loss
I0318 06:03:21.511870   633 layer_factory.hpp:123] Creating layer loss
…
I0318 06:03:21.512480   633 net.cpp:369] The NetState phase (1) differed from the phase (0) specified by a rule in layer data
I0318 06:03:21.512495   633 net.cpp:98] Initializing net from parameters: 
name: "alexnetBNnoLRN m2 (as m3 but less DROP and less BN)"
state {
  phase: TEST
}
layer {
  name: "data"
  type: "Data"
  top: "data"
  top: "label"
  include {
    phase: TEST
  }
  transform_param {
    mirror: false
    crop_size: 227
    mean_value: 106
    mean_value: 116
    mean_value: 124
  }
  data_param {
    source: "input/lmdb/valid_lmdb"
    batch_size: 50
    backend: LMDB
  }
}
layer {
  name: "conv1"
  type: "Convolution"
  bottom: "data"
  top: "conv1"
  param {
    lr_mult: 1
    decay_mult: 1
  }
  param {
    lr_mult: 2
    decay_mult: 0
  }
  convolution_param {
    num_output: 96
    pad: 1
    kernel_size: 11
    stride: 4
    weight_filler {
      type: "gaussian"
      std: 0.01
    }
    bias_filler {
      type: "constant"
      value: 0
    }
  }
}
layer {
  name: "bn1"
  type: "BatchNorm"
  bottom: "conv1"
  top: "bn1"
  param {
    lr_mult: 0
  }
  param {
    lr_mult: 0
  }
  param {
    lr_mult: 0
  }
  batch_norm_param {
    use_global_stats: false
  }
}
layer {
  name: "relu1"
  type: "ReLU"
  bottom: "bn1"
  top: "relu1"
}
layer {
  name: "pool1"
  type: "Pooling"
  bottom: "relu1"
  top: "pool1"
  pooling_param {
    pool: MAX
    kernel_size: 3
    stride: 2
  }
}
layer {
  name: "conv2"
  type: "Convolution"
  bottom: "pool1"
  top: "conv2"
  param {
    lr_mult: 1
    decay_mult: 1
  }
  param {
    lr_mult: 2
    decay_mult: 0
  }
  convolution_param {
    num_output: 256
    pad: 2
    kernel_size: 5
    group: 1
    weight_filler {
      type: "gaussian"
      std: 0.01
    }
    bias_filler {
      type: "constant"
      value: 1
    }
  }
}
layer {
  name: "bn2"
  type: "BatchNorm"
  bottom: "conv2"
  top: "bn2"
  param {
    lr_mult: 0
  }
  param {
    lr_mult: 0
  }
  param {
    lr_mult: 0
  }
  batch_norm_param {
    use_global_stats: false
  }
}
layer {
  name: "relu2"
  type: "ReLU"
  bottom: "bn2"
  top: "relu2"
}
layer {
  name: "pool2"
  type: "Pooling"
  bottom: "relu2"
  top: "pool2"
  pooling_param {
    pool: MAX
    kernel_size: 3
    stride: 2
  }
}
layer {
  name: "conv3"
  type: "Convolution"
  bottom: "pool2"
  top: "conv3"
  param {
    lr_mult: 1
    decay_mult: 1
  }
  param {
    lr_mult: 2
    decay_mult: 0
  }
  convolution_param {
    num_output: 384
    pad: 1
    kernel_size: 3
    weight_filler {
      type: "gaussian"
      std: 0.01
    }
    bias_filler {
      type: "constant"
      value: 0
    }
  }
}
layer {
  name: "relu3"
  type: "ReLU"
  bottom: "conv3"
  top: "relu3"
}
layer {
  name: "conv4"
  type: "Convolution"
  bottom: "relu3"
  top: "conv4"
  param {
    lr_mult: 1
    decay_mult: 1
  }
  param {
    lr_mult: 2
    decay_mult: 0
  }
  convolution_param {
    num_output: 384
    pad: 1
    kernel_size: 3
    group: 1
    weight_filler {
      type: "gaussian"
      std: 0.01
    }
    bias_filler {
      type: "constant"
      value: 1
    }
  }
}
layer {
  name: "relu4"
  type: "ReLU"
  bottom: "conv4"
  top: "relu4"
}
layer {
  name: "conv5"
  type: "Convolution"
  bottom: "relu4"
  top: "conv5"
  param {
    lr_mult: 1
    decay_mult: 1
  }
  param {
    lr_mult: 2
    decay_mult: 0
  }
  convolution_param {
    num_output: 256
    pad: 1
    kernel_size: 3
    group: 1
    weight_filler {
      type: "gaussian"
      std: 0.01
    }
    bias_filler {
      type: "constant"
      value: 1
    }
  }
}
layer {
  name: "relu5"
  type: "ReLU"
  bottom: "conv5"
  top: "relu5"
}
layer {
  name: "pool5"
  type: "Pooling"
  bottom: "relu5"
  top: "pool5"
  pooling_param {
    pool: MAX
    kernel_size: 3
    stride: 2
  }
}
layer {
  name: "fc6"
  type: "InnerProduct"
  bottom: "pool5"
  top: "fc6"
  param {
    lr_mult: 1
    decay_mult: 1
  }
  param {
    lr_mult: 2
    decay_mult: 0
  }
  inner_product_param {
    num_output: 4096
    weight_filler {
      type: "gaussian"
      std: 0.005
    }
    bias_filler {
      type: "constant"
      value: 1
    }
  }
}
layer {
  name: "relu6"
  type: "ReLU"
  bottom: "fc6"
  top: "relu6"
}
layer {
  name: "drop6"
  type: "Dropout"
  bottom: "relu6"
  top: "drop6"
  dropout_param {
    dropout_ratio: 0.5
  }
}
layer {
  name: "fc7"
  type: "InnerProduct"
  bottom: "drop6"
  top: "fc7"
  param {
    lr_mult: 1
    decay_mult: 1
  }
  param {
    lr_mult: 2
    decay_mult: 0
  }
  inner_product_param {
    num_output: 4096
    weight_filler {
      type: "gaussian"
      std: 0.005
    }
    bias_filler {
      type: "constant"
      value: 1
    }
  }
}
layer {
  name: "bn7"
  type: "BatchNorm"
  bottom: "fc7"
  top: "bn7"
  param {
    lr_mult: 0
  }
  param {
    lr_mult: 0
  }
  param {
    lr_mult: 0
  }
  batch_norm_param {
    use_global_stats: false
  }
}
layer {
  name: "relu7"
  type: "ReLU"
  bottom: "bn7"
  top: "relu7"
}
layer {
  name: "drop7"
  type: "Dropout"
  bottom: "relu7"
  top: "drop7"
  dropout_param {
    dropout_ratio: 0.5
  }
}
layer {
  name: "fc8"
  type: "InnerProduct"
  bottom: "drop7"
  top: "fc8"
  param {
    lr_mult: 1
    decay_mult: 1
  }
  param {
    lr_mult: 2
    decay_mult: 0
  }
  inner_product_param {
    num_output: 2
    weight_filler {
      type: "gaussian"
      std: 0.01
    }
    bias_filler {
      type: "constant"
      value: 0
    }
  }
}
layer {
  name: "accuracy"
  type: "Accuracy"
  bottom: "fc8"
  bottom: "label"
  top: "accuracy"
  include {
    phase: TEST
  }
}
layer {
  name: "loss"
  type: "SoftmaxWithLoss"
  bottom: "fc8"
  bottom: "label"
  top: "loss"
}
layer {
  name: "accuracy-top1"
  type: "Accuracy"
  bottom: "fc8"
  bottom: "label"
  top: "top-1"
  include {
    phase: TEST
  }
}
I0318 06:03:21.512723   633 layer_factory.hpp:123] Creating layer data
I0318 06:03:21.512768   633 internal_thread.cpp:73] Starting internal thread(s) on GPU 0
I0318 06:03:21.514192   633 net.cpp:140] Creating Layer data
I0318 06:03:21.514206   633 net.cpp:455] data -> data
I0318 06:03:21.514215   633 net.cpp:455] data -> label
I0318 06:03:21.515951   695 db_lmdb.cpp:81] Opened lmdb input/lmdb/valid_lmdb
I0318 06:03:21.515987   695 data_reader.cpp:170] TEST: reading data using 1 channel(s)
I0318 06:03:21.516304   633 data_layer.cpp:124] ReshapePrefetch 50, 3, 227, 227
I0318 06:03:21.516389   633 data_layer.cpp:129] output data size: 50,3,227,227
I0318 06:03:21.596020   633 internal_thread.cpp:73] Starting internal thread(s) on GPU 0
I0318 06:03:21.596117   633 net.cpp:190] Setting up data
I0318 06:03:21.596124   633 net.cpp:197] Top shape: 50 3 227 227 (7729350)
I0318 06:03:21.596134   633 net.cpp:197] Top shape: 50 (50)
I0318 06:03:21.596138   633 net.cpp:205] Memory required for data: 30917600
I0318 06:03:21.596143   633 layer_factory.hpp:123] Creating layer label_data_1_split
I0318 06:03:21.596153   633 net.cpp:140] Creating Layer label_data_1_split
I0318 06:03:21.596158   633 net.cpp:481] label_data_1_split <- label
I0318 06:03:21.596164   633 net.cpp:455] label_data_1_split -> label_data_1_split_0
I0318 06:03:21.596172   633 net.cpp:455] label_data_1_split -> label_data_1_split_1
I0318 06:03:21.596176   633 net.cpp:455] label_data_1_split -> label_data_1_split_2
I0318 06:03:21.596248   633 net.cpp:190] Setting up label_data_1_split
I0318 06:03:21.596253   633 net.cpp:197] Top shape: 50 (50)
I0318 06:03:21.596257   633 net.cpp:197] Top shape: 50 (50)
I0318 06:03:21.596261   633 net.cpp:197] Top shape: 50 (50)
I0318 06:03:21.596263   633 net.cpp:205] Memory required for data: 30918200
I0318 06:03:21.596266   633 layer_factory.hpp:123] Creating layer conv1
I0318 06:03:21.596277   633 net.cpp:140] Creating Layer conv1
I0318 06:03:21.596282   633 net.cpp:481] conv1 <- data
I0318 06:03:21.596287   633 net.cpp:455] conv1 -> conv1
I0318 06:03:21.596895   633 net.cpp:190] Setting up conv1
I0318 06:03:21.596902   633 net.cpp:197] Top shape: 50 96 55 55 (14520000)
I0318 06:03:21.596909   633 net.cpp:205] Memory required for data: 88998200
I0318 06:03:21.596920   633 layer_factory.hpp:123] Creating layer bn1
I0318 06:03:21.596928   633 net.cpp:140] Creating Layer bn1
I0318 06:03:21.596932   633 net.cpp:481] bn1 <- conv1
I0318 06:03:21.596937   633 net.cpp:455] bn1 -> bn1
I0318 06:03:21.597477   633 net.cpp:190] Setting up bn1
I0318 06:03:21.597483   633 net.cpp:197] Top shape: 50 96 55 55 (14520000)
I0318 06:03:21.597488   633 net.cpp:205] Memory required for data: 147078200
I0318 06:03:21.597496   633 layer_factory.hpp:123] Creating layer relu1
I0318 06:03:21.597503   633 net.cpp:140] Creating Layer relu1
I0318 06:03:21.597506   633 net.cpp:481] relu1 <- bn1
I0318 06:03:21.597510   633 net.cpp:455] relu1 -> relu1
I0318 06:03:21.597527   633 net.cpp:190] Setting up relu1
I0318 06:03:21.597532   633 net.cpp:197] Top shape: 50 96 55 55 (14520000)
I0318 06:03:21.597537   633 net.cpp:205] Memory required for data: 205158200
I0318 06:03:21.597539   633 layer_factory.hpp:123] Creating layer pool1
I0318 06:03:21.597548   633 net.cpp:140] Creating Layer pool1
I0318 06:03:21.597561   633 net.cpp:481] pool1 <- relu1
I0318 06:03:21.597565   633 net.cpp:455] pool1 -> pool1
I0318 06:03:21.597591   633 net.cpp:190] Setting up pool1
I0318 06:03:21.597596   633 net.cpp:197] Top shape: 50 96 27 27 (3499200)
I0318 06:03:21.597600   633 net.cpp:205] Memory required for data: 219155000
I0318 06:03:21.597604   633 layer_factory.hpp:123] Creating layer conv2
I0318 06:03:21.597611   633 net.cpp:140] Creating Layer conv2
I0318 06:03:21.597633   633 net.cpp:481] conv2 <- pool1
I0318 06:03:21.597637   633 net.cpp:455] conv2 -> conv2
I0318 06:03:21.603732   633 net.cpp:190] Setting up conv2
I0318 06:03:21.603749   633 net.cpp:197] Top shape: 50 256 27 27 (9331200)
I0318 06:03:21.603757   633 net.cpp:205] Memory required for data: 256479800
I0318 06:03:21.603767   633 layer_factory.hpp:123] Creating layer bn2
I0318 06:03:21.603776   633 net.cpp:140] Creating Layer bn2
I0318 06:03:21.603781   633 net.cpp:481] bn2 <- conv2
I0318 06:03:21.603787   633 net.cpp:455] bn2 -> bn2
I0318 06:03:21.604353   633 net.cpp:190] Setting up bn2
I0318 06:03:21.604359   633 net.cpp:197] Top shape: 50 256 27 27 (9331200)
I0318 06:03:21.604364   633 net.cpp:205] Memory required for data: 293804600
I0318 06:03:21.604379   633 layer_factory.hpp:123] Creating layer relu2
I0318 06:03:21.604385   633 net.cpp:140] Creating Layer relu2
I0318 06:03:21.604389   633 net.cpp:481] relu2 <- bn2
I0318 06:03:21.604393   633 net.cpp:455] relu2 -> relu2
I0318 06:03:21.604408   633 net.cpp:190] Setting up relu2
I0318 06:03:21.604414   633 net.cpp:197] Top shape: 50 256 27 27 (9331200)
I0318 06:03:21.604441   633 net.cpp:205] Memory required for data: 331129400
I0318 06:03:21.604445   633 layer_factory.hpp:123] Creating layer pool2
I0318 06:03:21.604450   633 net.cpp:140] Creating Layer pool2
I0318 06:03:21.604454   633 net.cpp:481] pool2 <- relu2
I0318 06:03:21.604457   633 net.cpp:455] pool2 -> pool2
I0318 06:03:21.604539   633 net.cpp:190] Setting up pool2
I0318 06:03:21.604547   633 net.cpp:197] Top shape: 50 256 13 13 (2163200)
I0318 06:03:21.604552   633 net.cpp:205] Memory required for data: 339782200
I0318 06:03:21.604557   633 layer_factory.hpp:123] Creating layer conv3
I0318 06:03:21.604600   633 net.cpp:140] Creating Layer conv3
I0318 06:03:21.604605   633 net.cpp:481] conv3 <- pool2
I0318 06:03:21.604610   633 net.cpp:455] conv3 -> conv3
I0318 06:03:21.623586   633 net.cpp:190] Setting up conv3
I0318 06:03:21.623621   633 net.cpp:197] Top shape: 50 384 13 13 (3244800)
I0318 06:03:21.623641   633 net.cpp:205] Memory required for data: 352761400
I0318 06:03:21.623662   633 layer_factory.hpp:123] Creating layer relu3
I0318 06:03:21.623679   633 net.cpp:140] Creating Layer relu3
I0318 06:03:21.623687   633 net.cpp:481] relu3 <- conv3
I0318 06:03:21.623698   633 net.cpp:455] relu3 -> relu3
I0318 06:03:21.623770   633 net.cpp:190] Setting up relu3
I0318 06:03:21.623777   633 net.cpp:197] Top shape: 50 384 13 13 (3244800)
I0318 06:03:21.623785   633 net.cpp:205] Memory required for data: 365740600
I0318 06:03:21.623788   633 layer_factory.hpp:123] Creating layer conv4
I0318 06:03:21.623801   633 net.cpp:140] Creating Layer conv4
I0318 06:03:21.623807   633 net.cpp:481] conv4 <- relu3
I0318 06:03:21.623817   633 net.cpp:455] conv4 -> conv4
I0318 06:03:21.639737   633 net.cpp:190] Setting up conv4
I0318 06:03:21.639775   633 net.cpp:197] Top shape: 50 384 13 13 (3244800)
I0318 06:03:21.639791   633 net.cpp:205] Memory required for data: 378719800
I0318 06:03:21.639812   633 layer_factory.hpp:123] Creating layer relu4
I0318 06:03:21.639827   633 net.cpp:140] Creating Layer relu4
I0318 06:03:21.639832   633 net.cpp:481] relu4 <- conv4
I0318 06:03:21.639840   633 net.cpp:455] relu4 -> relu4
I0318 06:03:21.639871   633 net.cpp:190] Setting up relu4
I0318 06:03:21.639878   633 net.cpp:197] Top shape: 50 384 13 13 (3244800)
I0318 06:03:21.639881   633 net.cpp:205] Memory required for data: 391699000
I0318 06:03:21.639884   633 layer_factory.hpp:123] Creating layer conv5
I0318 06:03:21.639895   633 net.cpp:140] Creating Layer conv5
I0318 06:03:21.639899   633 net.cpp:481] conv5 <- relu4
I0318 06:03:21.639902   633 net.cpp:455] conv5 -> conv5
I0318 06:03:21.648635   633 net.cpp:190] Setting up conv5
I0318 06:03:21.648667   633 net.cpp:197] Top shape: 50 256 13 13 (2163200)
I0318 06:03:21.648682   633 net.cpp:205] Memory required for data: 400351800
I0318 06:03:21.648708   633 layer_factory.hpp:123] Creating layer relu5
I0318 06:03:21.648722   633 net.cpp:140] Creating Layer relu5
I0318 06:03:21.648728   633 net.cpp:481] relu5 <- conv5
I0318 06:03:21.648736   633 net.cpp:455] relu5 -> relu5
I0318 06:03:21.648768   633 net.cpp:190] Setting up relu5
I0318 06:03:21.648785   633 net.cpp:197] Top shape: 50 256 13 13 (2163200)
I0318 06:03:21.648789   633 net.cpp:205] Memory required for data: 409004600
I0318 06:03:21.648792   633 layer_factory.hpp:123] Creating layer pool5
I0318 06:03:21.648802   633 net.cpp:140] Creating Layer pool5
I0318 06:03:21.648806   633 net.cpp:481] pool5 <- relu5
I0318 06:03:21.648810   633 net.cpp:455] pool5 -> pool5
I0318 06:03:21.648849   633 net.cpp:190] Setting up pool5
I0318 06:03:21.648866   633 net.cpp:197] Top shape: 50 256 6 6 (460800)
I0318 06:03:21.648870   633 net.cpp:205] Memory required for data: 410847800
I0318 06:03:21.648872   633 layer_factory.hpp:123] Creating layer fc6
I0318 06:03:21.648880   633 net.cpp:140] Creating Layer fc6
I0318 06:03:21.648900   633 net.cpp:481] fc6 <- pool5
I0318 06:03:21.648905   633 net.cpp:455] fc6 -> fc6
I0318 06:03:21.947528   633 net.cpp:190] Setting up fc6
I0318 06:03:21.947548   633 net.cpp:197] Top shape: 50 4096 (204800)
I0318 06:03:21.947557   633 net.cpp:205] Memory required for data: 411667000
I0318 06:03:21.947582   633 layer_factory.hpp:123] Creating layer relu6
I0318 06:03:21.947592   633 net.cpp:140] Creating Layer relu6
I0318 06:03:21.947595   633 net.cpp:481] relu6 <- fc6
I0318 06:03:21.947604   633 net.cpp:455] relu6 -> relu6
I0318 06:03:21.947630   633 net.cpp:190] Setting up relu6
I0318 06:03:21.947633   633 net.cpp:197] Top shape: 50 4096 (204800)
I0318 06:03:21.947636   633 net.cpp:205] Memory required for data: 412486200
I0318 06:03:21.947639   633 layer_factory.hpp:123] Creating layer drop6
I0318 06:03:21.947643   633 net.cpp:140] Creating Layer drop6
I0318 06:03:21.947646   633 net.cpp:481] drop6 <- relu6
I0318 06:03:21.947667   633 net.cpp:455] drop6 -> drop6
I0318 06:03:21.947688   633 net.cpp:190] Setting up drop6
I0318 06:03:21.947692   633 net.cpp:197] Top shape: 50 4096 (204800)
I0318 06:03:21.947695   633 net.cpp:205] Memory required for data: 413305400
I0318 06:03:21.947698   633 layer_factory.hpp:123] Creating layer fc7
I0318 06:03:21.947706   633 net.cpp:140] Creating Layer fc7
I0318 06:03:21.947708   633 net.cpp:481] fc7 <- drop6
I0318 06:03:21.947712   633 net.cpp:455] fc7 -> fc7
I0318 06:03:22.083649   633 net.cpp:190] Setting up fc7
I0318 06:03:22.083691   633 net.cpp:197] Top shape: 50 4096 (204800)
I0318 06:03:22.083700   633 net.cpp:205] Memory required for data: 414124600
I0318 06:03:22.083726   633 layer_factory.hpp:123] Creating layer bn7
I0318 06:03:22.083737   633 net.cpp:140] Creating Layer bn7
I0318 06:03:22.083741   633 net.cpp:481] bn7 <- fc7
I0318 06:03:22.083747   633 net.cpp:455] bn7 -> bn7
I0318 06:03:22.084264   633 net.cpp:190] Setting up bn7
I0318 06:03:22.084273   633 net.cpp:197] Top shape: 50 4096 (204800)
I0318 06:03:22.084278   633 net.cpp:205] Memory required for data: 414943800
I0318 06:03:22.084287   633 layer_factory.hpp:123] Creating layer relu7
I0318 06:03:22.084292   633 net.cpp:140] Creating Layer relu7
I0318 06:03:22.084295   633 net.cpp:481] relu7 <- bn7
I0318 06:03:22.084300   633 net.cpp:455] relu7 -> relu7
I0318 06:03:22.084317   633 net.cpp:190] Setting up relu7
I0318 06:03:22.084322   633 net.cpp:197] Top shape: 50 4096 (204800)
I0318 06:03:22.084326   633 net.cpp:205] Memory required for data: 415763000
I0318 06:03:22.084329   633 layer_factory.hpp:123] Creating layer drop7
I0318 06:03:22.084334   633 net.cpp:140] Creating Layer drop7
I0318 06:03:22.084337   633 net.cpp:481] drop7 <- relu7
I0318 06:03:22.084340   633 net.cpp:455] drop7 -> drop7
I0318 06:03:22.084363   633 net.cpp:190] Setting up drop7
I0318 06:03:22.084367   633 net.cpp:197] Top shape: 50 4096 (204800)
I0318 06:03:22.084372   633 net.cpp:205] Memory required for data: 416582200
I0318 06:03:22.084375   633 layer_factory.hpp:123] Creating layer fc8
I0318 06:03:22.084381   633 net.cpp:140] Creating Layer fc8
I0318 06:03:22.084384   633 net.cpp:481] fc8 <- drop7
I0318 06:03:22.084389   633 net.cpp:455] fc8 -> fc8
I0318 06:03:22.084564   633 net.cpp:190] Setting up fc8
I0318 06:03:22.084570   633 net.cpp:197] Top shape: 50 2 (100)
I0318 06:03:22.084574   633 net.cpp:205] Memory required for data: 416582600
I0318 06:03:22.084578   633 layer_factory.hpp:123] Creating layer fc8_fc8_0_split
I0318 06:03:22.084584   633 net.cpp:140] Creating Layer fc8_fc8_0_split
I0318 06:03:22.084586   633 net.cpp:481] fc8_fc8_0_split <- fc8
I0318 06:03:22.084591   633 net.cpp:455] fc8_fc8_0_split -> fc8_fc8_0_split_0
I0318 06:03:22.084597   633 net.cpp:455] fc8_fc8_0_split -> fc8_fc8_0_split_1
I0318 06:03:22.084602   633 net.cpp:455] fc8_fc8_0_split -> fc8_fc8_0_split_2
I0318 06:03:22.084632   633 net.cpp:190] Setting up fc8_fc8_0_split
I0318 06:03:22.084636   633 net.cpp:197] Top shape: 50 2 (100)
I0318 06:03:22.084640   633 net.cpp:197] Top shape: 50 2 (100)
I0318 06:03:22.084643   633 net.cpp:197] Top shape: 50 2 (100)
I0318 06:03:22.084647   633 net.cpp:205] Memory required for data: 416583800
I0318 06:03:22.084650   633 layer_factory.hpp:123] Creating layer accuracy
I0318 06:03:22.084656   633 net.cpp:140] Creating Layer accuracy
I0318 06:03:22.084661   633 net.cpp:481] accuracy <- fc8_fc8_0_split_0
I0318 06:03:22.084666   633 net.cpp:481] accuracy <- label_data_1_split_0
I0318 06:03:22.084669   633 net.cpp:455] accuracy -> accuracy
…
WARNING: Logging before InitGoogleLogging() is written to STDERR
I0318 07:57:26.790895  1025 gpu_memory.cpp:99] GPUMemory::Manager initialized with Caching (CUB) GPU Allocator
I0318 07:57:26.790922  1025 gpu_memory.cpp:101] Total memory: 25620447232, Free: 24507449344, dev_info[0]: total=25620447232 free=24507449344
I0318 07:57:26.792433  1025 net.cpp:98] Initializing net from parameters: 
name: "AlexNet_BNnoLRN m2 deploy"
state {
  phase: TEST
}
layer {
  name: "data"
  type: "Input"
  top: "data"
  input_param {
    shape {
      dim: 1
      dim: 3
      dim: 227
      dim: 227
    }
  }
}
layer {
  name: "conv1"
  type: "Convolution"
  bottom: "data"
  top: "conv1"
  param {
    lr_mult: 1
    decay_mult: 1
  }
  param {
    lr_mult: 2
    decay_mult: 0
  }
  convolution_param {
    num_output: 96
    pad: 1
    kernel_size: 11
    stride: 4
    weight_filler {
      type: "gaussian"
      std: 0.01
    }
    bias_filler {
      type: "constant"
      value: 0
    }
  }
}
layer {
  name: "bn1"
  type: "BatchNorm"
  bottom: "conv1"
  top: "bn1"
  param {
    lr_mult: 0
  }
  param {
    lr_mult: 0
  }
  param {
    lr_mult: 0
  }
  batch_norm_param {
    use_global_stats: true
  }
}
layer {
  name: "relu1"
  type: "ReLU"
  bottom: "bn1"
  top: "relu1"
}
layer {
  name: "pool1"
  type: "Pooling"
  bottom: "relu1"
  top: "pool1"
  pooling_param {
    pool: MAX
    kernel_size: 3
    stride: 2
  }
}
layer {
  name: "conv2"
  type: "Convolution"
  bottom: "pool1"
  top: "conv2"
  param {
    lr_mult: 1
    decay_mult: 1
  }
  param {
    lr_mult: 2
    decay_mult: 0
  }
  convolution_param {
    num_output: 256
    pad: 2
    kernel_size: 5
    group: 1
    weight_filler {
      type: "gaussian"
      std: 0.01
    }
    bias_filler {
      type: "constant"
      value: 1
    }
  }
}
layer {
  name: "bn2"
  type: "BatchNorm"
  bottom: "conv2"
  top: "bn2"
  param {
    lr_mult: 0
  }
  param {
    lr_mult: 0
  }
  param {
    lr_mult: 0
  }
  batch_norm_param {
    use_global_stats: true
  }
}
layer {
  name: "relu2"
  type: "ReLU"
  bottom: "bn2"
  top: "relu2"
}
layer {
  name: "pool2"
  type: "Pooling"
  bottom: "relu2"
  top: "pool2"
  pooling_param {
    pool: MAX
    kernel_size: 3
    stride: 2
  }
}
layer {
  name: "conv3"
  type: "Convolution"
  bottom: "pool2"
  top: "conv3"
  param {
    lr_mult: 1
    decay_mult: 1
  }
  param {
    lr_mult: 2
    decay_mult: 0
  }
  convolution_param {
    num_output: 384
    pad: 1
    kernel_size: 3
    weight_filler {
      type: "gaussian"
      std: 0.01
    }
    bias_filler {
      type: "constant"
      value: 0
    }
  }
}
layer {
  name: "relu3"
  type: "ReLU"
  bottom: "conv3"
  top: "relu3"
}
layer {
  name: "conv4"
  type: "Convolution"
  bottom: "relu3"
  top: "conv4"
  param {
    lr_mult: 1
    decay_mult: 1
  }
  param {
    lr_mult: 2
    decay_mult: 0
  }
  convolution_param {
    num_output: 384
    pad: 1
    kernel_size: 3
    group: 1
    weight_filler {
      type: "gaussian"
      std: 0.01
    }
    bias_filler {
      type: "constant"
      value: 1
    }
  }
}
layer {
  name: "relu4"
  type: "ReLU"
  bottom: "conv4"
  top: "relu4"
}
layer {
  name: "conv5"
  type: "Convolution"
  bottom: "relu4"
  top: "conv5"
  param {
    lr_mult: 1
    decay_mult: 1
  }
  param {
    lr_mult: 2
    decay_mult: 0
  }
  convolution_param {
    num_output: 256
    pad: 1
    kernel_size: 3
    group: 1
    weight_filler {
      type: "gaussian"
      std: 0.01
    }
    bias_filler {
      type: "constant"
      value: 1
    }
  }
}
layer {
  name: "relu5"
  type: "ReLU"
  bottom: "conv5"
  top: "relu5"
}
layer {
  name: "pool5"
  type: "Pooling"
  bottom: "relu5"
  top: "pool5"
  pooling_param {
    pool: MAX
    kernel_size: 3
    stride: 2
  }
}
layer {
  name: "fc6"
  type: "InnerProduct"
  bottom: "pool5"
  top: "fc6"
  param {
    lr_mult: 1
    decay_mult: 1
  }
  param {
    lr_mult: 2
    decay_mult: 0
  }
  inner_product_param {
    num_output: 4096
    weight_filler {
      type: "gaussian"
      std: 0.005
    }
    bias_filler {
      type: "constant"
      value: 1
    }
  }
}
layer {
  name: "relu6"
  type: "ReLU"
  bottom: "fc6"
  top: "relu6"
}
layer {
  name: "drop6"
  type: "Dropout"
  bottom: "relu6"
  top: "drop6"
  dropout_param {
    dropout_ratio: 0.5
  }
}
layer {
  name: "fc7"
  type: "InnerProduct"
  bottom: "drop6"
  top: "fc7"
  param {
    lr_mult: 1
    decay_mult: 1
  }
  param {
    lr_mult: 2
    decay_mult: 0
  }
  inner_product_param {
    num_output: 4096
    weight_filler {
      type: "gaussian"
      std: 0.005
    }
    bias_filler {
      type: "constant"
      value: 1
    }
  }
}
layer {
  name: "bn7"
  type: "BatchNorm"
  bottom: "fc7"
  top: "bn7"
  param {
    lr_mult: 0
  }
  param {
    lr_mult: 0
  }
  param {
    lr_mult: 0
  }
  batch_norm_param {
    use_global_stats: true
  }
}
layer {
  name: "relu7"
  type: "ReLU"
  bottom: "bn7"
  top: "relu7"
}
layer {
  name: "drop7"
  type: "Dropout"
  bottom: "relu7"
  top: "drop7"
  dropout_param {
    dropout_ratio: 0.5
  }
}
layer {
  name: "fc8"
  type: "InnerProduct"
  bottom: "drop7"
  top: "fc8"
  param {
    lr_mult: 1
    decay_mult: 1
  }
  param {
    lr_mult: 2
    decay_mult: 0
  }
  inner_product_param {
    num_output: 2
    weight_filler {
      type: "gaussian"
      std: 0.01
    }
    bias_filler {
      type: "constant"
      value: 0
    }
  }
}
layer {
  name: "prob"
  type: "Softmax"
  bottom: "fc8"
  top: "prob"
}
I0318 07:57:26.792608  1025 layer_factory.hpp:123] Creating layer data
I0318 07:57:26.792618  1025 net.cpp:140] Creating Layer data
I0318 07:57:26.792623  1025 net.cpp:455] data -> data
I0318 07:57:26.792672  1025 net.cpp:190] Setting up data
I0318 07:57:26.792675  1025 net.cpp:197] Top shape: 1 3 227 227 (154587)
I0318 07:57:26.792681  1025 net.cpp:205] Memory required for data: 618348
I0318 07:57:26.792685  1025 layer_factory.hpp:123] Creating layer conv1
I0318 07:57:26.792693  1025 net.cpp:140] Creating Layer conv1
I0318 07:57:26.792696  1025 net.cpp:481] conv1 <- data
I0318 07:57:26.792701  1025 net.cpp:455] conv1 -> conv1
I0318 07:57:26.793558  1025 net.cpp:190] Setting up conv1
I0318 07:57:26.793566  1025 net.cpp:197] Top shape: 1 96 55 55 (290400)
I0318 07:57:26.793570  1025 net.cpp:205] Memory required for data: 1779948
I0318 07:57:26.793581  1025 layer_factory.hpp:123] Creating layer bn1
I0318 07:57:26.793586  1025 net.cpp:140] Creating Layer bn1
I0318 07:57:26.793588  1025 net.cpp:481] bn1 <- conv1
I0318 07:57:26.793592  1025 net.cpp:455] bn1 -> bn1
I0318 07:57:26.794107  1025 net.cpp:190] Setting up bn1
I0318 07:57:26.794113  1025 net.cpp:197] Top shape: 1 96 55 55 (290400)
I0318 07:57:26.794118  1025 net.cpp:205] Memory required for data: 2941548
I0318 07:57:26.794126  1025 layer_factory.hpp:123] Creating layer relu1
I0318 07:57:26.794131  1025 net.cpp:140] Creating Layer relu1
I0318 07:57:26.794133  1025 net.cpp:481] relu1 <- bn1
I0318 07:57:26.794137  1025 net.cpp:455] relu1 -> relu1
I0318 07:57:26.794154  1025 net.cpp:190] Setting up relu1
I0318 07:57:26.794159  1025 net.cpp:197] Top shape: 1 96 55 55 (290400)
I0318 07:57:26.794163  1025 net.cpp:205] Memory required for data: 4103148
I0318 07:57:26.794165  1025 layer_factory.hpp:123] Creating layer pool1
I0318 07:57:26.794171  1025 net.cpp:140] Creating Layer pool1
I0318 07:57:26.794174  1025 net.cpp:481] pool1 <- relu1
I0318 07:57:26.794178  1025 net.cpp:455] pool1 -> pool1
I0318 07:57:26.794205  1025 net.cpp:190] Setting up pool1
I0318 07:57:26.794209  1025 net.cpp:197] Top shape: 1 96 27 27 (69984)
I0318 07:57:26.794214  1025 net.cpp:205] Memory required for data: 4383084
I0318 07:57:26.794216  1025 layer_factory.hpp:123] Creating layer conv2
I0318 07:57:26.794221  1025 net.cpp:140] Creating Layer conv2
I0318 07:57:26.794224  1025 net.cpp:481] conv2 <- pool1
I0318 07:57:26.794229  1025 net.cpp:455] conv2 -> conv2
I0318 07:57:26.800496  1025 net.cpp:190] Setting up conv2
I0318 07:57:26.800509  1025 net.cpp:197] Top shape: 1 256 27 27 (186624)
I0318 07:57:26.800515  1025 net.cpp:205] Memory required for data: 5129580
I0318 07:57:26.800523  1025 layer_factory.hpp:123] Creating layer bn2
I0318 07:57:26.800530  1025 net.cpp:140] Creating Layer bn2
I0318 07:57:26.800534  1025 net.cpp:481] bn2 <- conv2
I0318 07:57:26.800539  1025 net.cpp:455] bn2 -> bn2
I0318 07:57:26.801005  1025 net.cpp:190] Setting up bn2
I0318 07:57:26.801010  1025 net.cpp:197] Top shape: 1 256 27 27 (186624)
I0318 07:57:26.801015  1025 net.cpp:205] Memory required for data: 5876076
I0318 07:57:26.801023  1025 layer_factory.hpp:123] Creating layer relu2
I0318 07:57:26.801025  1025 net.cpp:140] Creating Layer relu2
I0318 07:57:26.801028  1025 net.cpp:481] relu2 <- bn2
I0318 07:57:26.801033  1025 net.cpp:455] relu2 -> relu2
I0318 07:57:26.801046  1025 net.cpp:190] Setting up relu2
I0318 07:57:26.801051  1025 net.cpp:197] Top shape: 1 256 27 27 (186624)
I0318 07:57:26.801054  1025 net.cpp:205] Memory required for data: 6622572
I0318 07:57:26.801057  1025 layer_factory.hpp:123] Creating layer pool2
I0318 07:57:26.801064  1025 net.cpp:140] Creating Layer pool2
I0318 07:57:26.801066  1025 net.cpp:481] pool2 <- relu2
I0318 07:57:26.801069  1025 net.cpp:455] pool2 -> pool2
I0318 07:57:26.801093  1025 net.cpp:190] Setting up pool2
I0318 07:57:26.801098  1025 net.cpp:197] Top shape: 1 256 13 13 (43264)
I0318 07:57:26.801102  1025 net.cpp:205] Memory required for data: 6795628
I0318 07:57:26.801105  1025 layer_factory.hpp:123] Creating layer conv3
I0318 07:57:26.801112  1025 net.cpp:140] Creating Layer conv3
I0318 07:57:26.801115  1025 net.cpp:481] conv3 <- pool2
I0318 07:57:26.801120  1025 net.cpp:455] conv3 -> conv3
I0318 07:57:26.809418  1025 net.cpp:190] Setting up conv3
I0318 07:57:26.809429  1025 net.cpp:197] Top shape: 1 384 13 13 (64896)
I0318 07:57:26.809434  1025 net.cpp:205] Memory required for data: 7055212
I0318 07:57:26.809442  1025 layer_factory.hpp:123] Creating layer relu3
I0318 07:57:26.809463  1025 net.cpp:140] Creating Layer relu3
I0318 07:57:26.809465  1025 net.cpp:481] relu3 <- conv3
I0318 07:57:26.809469  1025 net.cpp:455] relu3 -> relu3
I0318 07:57:26.809490  1025 net.cpp:190] Setting up relu3
I0318 07:57:26.809494  1025 net.cpp:197] Top shape: 1 384 13 13 (64896)
I0318 07:57:26.809497  1025 net.cpp:205] Memory required for data: 7314796
I0318 07:57:26.809499  1025 layer_factory.hpp:123] Creating layer conv4
I0318 07:57:26.809505  1025 net.cpp:140] Creating Layer conv4
I0318 07:57:26.809509  1025 net.cpp:481] conv4 <- relu3
I0318 07:57:26.809511  1025 net.cpp:455] conv4 -> conv4
I0318 07:57:26.821228  1025 net.cpp:190] Setting up conv4
I0318 07:57:26.821242  1025 net.cpp:197] Top shape: 1 384 13 13 (64896)
I0318 07:57:26.821249  1025 net.cpp:205] Memory required for data: 7574380
I0318 07:57:26.821256  1025 layer_factory.hpp:123] Creating layer relu4
I0318 07:57:26.821262  1025 net.cpp:140] Creating Layer relu4
I0318 07:57:26.821264  1025 net.cpp:481] relu4 <- conv4
I0318 07:57:26.821269  1025 net.cpp:455] relu4 -> relu4
I0318 07:57:26.821286  1025 net.cpp:190] Setting up relu4
I0318 07:57:26.821290  1025 net.cpp:197] Top shape: 1 384 13 13 (64896)
I0318 07:57:26.821292  1025 net.cpp:205] Memory required for data: 7833964
I0318 07:57:26.821295  1025 layer_factory.hpp:123] Creating layer conv5
I0318 07:57:26.821301  1025 net.cpp:140] Creating Layer conv5
I0318 07:57:26.821303  1025 net.cpp:481] conv5 <- relu4
I0318 07:57:26.821306  1025 net.cpp:455] conv5 -> conv5
I0318 07:57:26.829174  1025 net.cpp:190] Setting up conv5
I0318 07:57:26.829187  1025 net.cpp:197] Top shape: 1 256 13 13 (43264)
I0318 07:57:26.829193  1025 net.cpp:205] Memory required for data: 8007020
I0318 07:57:26.829200  1025 layer_factory.hpp:123] Creating layer relu5
I0318 07:57:26.829205  1025 net.cpp:140] Creating Layer relu5
I0318 07:57:26.829208  1025 net.cpp:481] relu5 <- conv5
I0318 07:57:26.829212  1025 net.cpp:455] relu5 -> relu5
I0318 07:57:26.829229  1025 net.cpp:190] Setting up relu5
I0318 07:57:26.829234  1025 net.cpp:197] Top shape: 1 256 13 13 (43264)
I0318 07:57:26.829237  1025 net.cpp:205] Memory required for data: 8180076
I0318 07:57:26.829239  1025 layer_factory.hpp:123] Creating layer pool5
I0318 07:57:26.829243  1025 net.cpp:140] Creating Layer pool5
I0318 07:57:26.829246  1025 net.cpp:481] pool5 <- relu5
I0318 07:57:26.829248  1025 net.cpp:455] pool5 -> pool5
I0318 07:57:26.829285  1025 net.cpp:190] Setting up pool5
I0318 07:57:26.829288  1025 net.cpp:197] Top shape: 1 256 6 6 (9216)
I0318 07:57:26.829290  1025 net.cpp:205] Memory required for data: 8216940
I0318 07:57:26.829293  1025 layer_factory.hpp:123] Creating layer fc6
I0318 07:57:26.829304  1025 net.cpp:140] Creating Layer fc6
I0318 07:57:26.829311  1025 net.cpp:481] fc6 <- pool5
I0318 07:57:26.829315  1025 net.cpp:455] fc6 -> fc6
I0318 07:57:27.129700  1025 net.cpp:190] Setting up fc6
I0318 07:57:27.129720  1025 net.cpp:197] Top shape: 1 4096 (4096)
I0318 07:57:27.129726  1025 net.cpp:205] Memory required for data: 8233324
I0318 07:57:27.129739  1025 layer_factory.hpp:123] Creating layer relu6
I0318 07:57:27.129746  1025 net.cpp:140] Creating Layer relu6
I0318 07:57:27.129750  1025 net.cpp:481] relu6 <- fc6
I0318 07:57:27.129755  1025 net.cpp:455] relu6 -> relu6
I0318 07:57:27.129791  1025 net.cpp:190] Setting up relu6
I0318 07:57:27.129796  1025 net.cpp:197] Top shape: 1 4096 (4096)
I0318 07:57:27.129798  1025 net.cpp:205] Memory required for data: 8249708
I0318 07:57:27.129801  1025 layer_factory.hpp:123] Creating layer drop6
I0318 07:57:27.129806  1025 net.cpp:140] Creating Layer drop6
I0318 07:57:27.129807  1025 net.cpp:481] drop6 <- relu6
I0318 07:57:27.129810  1025 net.cpp:455] drop6 -> drop6
I0318 07:57:27.129830  1025 net.cpp:190] Setting up drop6
I0318 07:57:27.129834  1025 net.cpp:197] Top shape: 1 4096 (4096)
I0318 07:57:27.129837  1025 net.cpp:205] Memory required for data: 8266092
I0318 07:57:27.129839  1025 layer_factory.hpp:123] Creating layer fc7
I0318 07:57:27.129845  1025 net.cpp:140] Creating Layer fc7
I0318 07:57:27.129848  1025 net.cpp:481] fc7 <- drop6
I0318 07:57:27.129853  1025 net.cpp:455] fc7 -> fc7
I0318 07:57:27.264552  1025 net.cpp:190] Setting up fc7
I0318 07:57:27.264575  1025 net.cpp:197] Top shape: 1 4096 (4096)
I0318 07:57:27.264581  1025 net.cpp:205] Memory required for data: 8282476
I0318 07:57:27.264592  1025 layer_factory.hpp:123] Creating layer bn7
I0318 07:57:27.264603  1025 net.cpp:140] Creating Layer bn7
I0318 07:57:27.264606  1025 net.cpp:481] bn7 <- fc7
I0318 07:57:27.264612  1025 net.cpp:455] bn7 -> bn7
I0318 07:57:27.265076  1025 net.cpp:190] Setting up bn7
I0318 07:57:27.265082  1025 net.cpp:197] Top shape: 1 4096 (4096)
I0318 07:57:27.265085  1025 net.cpp:205] Memory required for data: 8298860
I0318 07:57:27.265092  1025 layer_factory.hpp:123] Creating layer relu7
I0318 07:57:27.265097  1025 net.cpp:140] Creating Layer relu7
I0318 07:57:27.265100  1025 net.cpp:481] relu7 <- bn7
I0318 07:57:27.265103  1025 net.cpp:455] relu7 -> relu7
I0318 07:57:27.265117  1025 net.cpp:190] Setting up relu7
I0318 07:57:27.265122  1025 net.cpp:197] Top shape: 1 4096 (4096)
I0318 07:57:27.265125  1025 net.cpp:205] Memory required for data: 8315244
I0318 07:57:27.265127  1025 layer_factory.hpp:123] Creating layer drop7
I0318 07:57:27.265133  1025 net.cpp:140] Creating Layer drop7
I0318 07:57:27.265136  1025 net.cpp:481] drop7 <- relu7
I0318 07:57:27.265139  1025 net.cpp:455] drop7 -> drop7
I0318 07:57:27.265177  1025 net.cpp:190] Setting up drop7
I0318 07:57:27.265182  1025 net.cpp:197] Top shape: 1 4096 (4096)
I0318 07:57:27.265185  1025 net.cpp:205] Memory required for data: 8331628
I0318 07:57:27.265187  1025 layer_factory.hpp:123] Creating layer fc8
I0318 07:57:27.265193  1025 net.cpp:140] Creating Layer fc8
I0318 07:57:27.265197  1025 net.cpp:481] fc8 <- drop7
I0318 07:57:27.265199  1025 net.cpp:455] fc8 -> fc8
I0318 07:57:27.265352  1025 net.cpp:190] Setting up fc8
I0318 07:57:27.265357  1025 net.cpp:197] Top shape: 1 2 (2)
I0318 07:57:27.265359  1025 net.cpp:205] Memory required for data: 8331636
I0318 07:57:27.265364  1025 layer_factory.hpp:123] Creating layer prob
I0318 07:57:27.265368  1025 net.cpp:140] Creating Layer prob
I0318 07:57:27.265372  1025 net.cpp:481] prob <- fc8
I0318 07:57:27.265374  1025 net.cpp:455] prob -> prob
I0318 07:57:27.265425  1025 net.cpp:190] Setting up prob
I0318 07:57:27.265430  1025 net.cpp:197] Top shape: 1 2 (2)
I0318 07:57:27.265434  1025 net.cpp:205] Memory required for data: 8331644
I0318 07:57:27.265436  1025 net.cpp:268] prob does not need backward computation.
I0318 07:57:27.265439  1025 net.cpp:268] fc8 does not need backward computation.
I0318 07:57:27.265441  1025 net.cpp:268] drop7 does not need backward computation.
I0318 07:57:27.265444  1025 net.cpp:268] relu7 does not need backward computation.
…
I0318 07:57:35.721102  1063 net.cpp:369] The NetState phase (0) differed from the phase (1) specified by a rule in layer accuracy-top1
I0318 07:57:35.721105  1063 net.cpp:98] Initializing net from parameters: 
state {
  phase: TRAIN
}
layer {
  name: "data"
  type: "ImageData"
  top: "data"
  top: "label"
  include {
    phase: TRAIN
  }
  transform_param {
    crop_size: 227
    mean_value: 106
    mean_value: 116
    mean_value: 124
  }
  image_data_param {
    source: "deploy/alexnetBNnoLRN/quantiz/data/calib/calibration.txt"
    batch_size: 10
    shuffle: true
    root_folder: "deploy/alexnetBNnoLRN/quantiz/data/calib/"
  }
}
layer {
  name: "conv1"
  type: "Convolution"
  bottom: "data"
  top: "conv1"
  param {
    lr_mult: 1
    decay_mult: 1
  }
  param {
    lr_mult: 2
    decay_mult: 0
  }
  convolution_param {
    num_output: 96
    pad: 1
    kernel_size: 11
    stride: 4
    weight_filler {
      type: "gaussian"
      std: 0.01
    }
    bias_filler {
      type: "constant"
      value: 0
    }
  }
}
layer {
  name: "bn1"
  type: "BatchNorm"
  bottom: "conv1"
  top: "bn1"
  param {
    lr_mult: 0
  }
  param {
    lr_mult: 0
  }
  param {
    lr_mult: 0
  }
  batch_norm_param {
    use_global_stats: false
  }
}
layer {
  name: "relu1"
  type: "ReLU"
  bottom: "bn1"
  top: "relu1"
}
layer {
  name: "pool1"
  type: "Pooling"
  bottom: "relu1"
  top: "pool1"
  pooling_param {
    pool: MAX
    kernel_size: 3
    stride: 2
  }
}
layer {
  name: "conv2"
  type: "Convolution"
  bottom: "pool1"
  top: "conv2"
  param {
    lr_mult: 1
    decay_mult: 1
  }
  param {
    lr_mult: 2
    decay_mult: 0
  }
  convolution_param {
    num_output: 256
    pad: 2
    kernel_size: 5
    group: 1
    weight_filler {
      type: "gaussian"
      std: 0.01
    }
    bias_filler {
      type: "constant"
      value: 1
    }
  }
}
layer {
  name: "bn2"
  type: "BatchNorm"
  bottom: "conv2"
  top: "bn2"
  param {
    lr_mult: 0
  }
  param {
    lr_mult: 0
  }
  param {
    lr_mult: 0
  }
  batch_norm_param {
    use_global_stats: false
  }
}
layer {
  name: "relu2"
  type: "ReLU"
  bottom: "bn2"
  top: "relu2"
}
layer {
  name: "pool2"
  type: "Pooling"
  bottom: "relu2"
  top: "pool2"
  pooling_param {
    pool: MAX
    kernel_size: 3
    stride: 2
  }
}
layer {
  name: "conv3"
  type: "Convolution"
  bottom: "pool2"
  top: "conv3"
  param {
    lr_mult: 1
    decay_mult: 1
  }
  param {
    lr_mult: 2
    decay_mult: 0
  }
  convolution_param {
    num_output: 384
    pad: 1
    kernel_size: 3
    weight_filler {
      type: "gaussian"
      std: 0.01
    }
    bias_filler {
      type: "constant"
      value: 0
    }
  }
}
layer {
  name: "relu3"
  type: "ReLU"
  bottom: "conv3"
  top: "relu3"
}
layer {
  name: "conv4"
  type: "Convolution"
  bottom: "relu3"
  top: "conv4"
  param {
    lr_mult: 1
    decay_mult: 1
  }
  param {
    lr_mult: 2
    decay_mult: 0
  }
  convolution_param {
    num_output: 384
    pad: 1
    kernel_size: 3
    group: 1
    weight_filler {
      type: "gaussian"
      std: 0.01
    }
    bias_filler {
      type: "constant"
      value: 1
    }
  }
}
layer {
  name: "relu4"
  type: "ReLU"
  bottom: "conv4"
  top: "relu4"
}
layer {
  name: "conv5"
  type: "Convolution"
  bottom: "relu4"
  top: "conv5"
  param {
    lr_mult: 1
    decay_mult: 1
  }
  param {
    lr_mult: 2
    decay_mult: 0
  }
  convolution_param {
    num_output: 256
    pad: 1
    kernel_size: 3
    group: 1
    weight_filler {
      type: "gaussian"
      std: 0.01
    }
    bias_filler {
      type: "constant"
      value: 1
    }
  }
}
layer {
  name: "relu5"
  type: "ReLU"
  bottom: "conv5"
  top: "relu5"
}
layer {
  name: "pool5"
  type: "Pooling"
  bottom: "relu5"
  top: "pool5"
  pooling_param {
    pool: MAX
    kernel_size: 3
    stride: 2
  }
}
layer {
  name: "fc6"
  type: "InnerProduct"
  bottom: "pool5"
  top: "fc6"
  param {
    lr_mult: 1
    decay_mult: 1
  }
  param {
    lr_mult: 2
    decay_mult: 0
  }
  inner_product_param {
    num_output: 4096
    weight_filler {
      type: "gaussian"
      std: 0.005
    }
    bias_filler {
      type: "constant"
      value: 1
    }
  }
}
layer {
  name: "relu6"
  type: "ReLU"
  bottom: "fc6"
  top: "relu6"
}
layer {
  name: "fc7"
  type: "InnerProduct"
  bottom: "relu6"
  top: "fc7"
  param {
    lr_mult: 1
    decay_mult: 1
  }
  param {
    lr_mult: 2
    decay_mult: 0
  }
  inner_product_param {
    num_output: 4096
    weight_filler {
      type: "gaussian"
      std: 0.005
    }
    bias_filler {
      type: "constant"
      value: 1
    }
  }
}
layer {
  name: "bn7"
  type: "BatchNorm"
  bottom: "fc7"
  top: "bn7"
  param {
    lr_mult: 0
  }
  param {
    lr_mult: 0
  }
  param {
    lr_mult: 0
  }
  batch_norm_param {
    use_global_stats: false
  }
}
layer {
  name: "relu7"
  type: "ReLU"
  bottom: "bn7"
  top: "relu7"
}
layer {
  name: "fc8"
  type: "InnerProduct"
  bottom: "relu7"
  top: "fc8"
  param {
    lr_mult: 1
    decay_mult: 1
  }
  param {
    lr_mult: 2
    decay_mult: 0
  }
  inner_product_param {
    num_output: 2
    weight_filler {
      type: "gaussian"
      std: 0.01
    }
    bias_filler {
      type: "constant"
      value: 0
    }
  }
}
layer {
  name: "loss"
  type: "SoftmaxWithLoss"
  bottom: "fc8"
  bottom: "label"
  top: "loss"
}
I0318 07:57:35.721294  1063 layer_factory.hpp:123] Creating layer data
I0318 07:57:35.721328  1063 net.cpp:140] Creating Layer data
I0318 07:57:35.721331  1063 net.cpp:455] data -> data
I0318 07:57:35.721343  1063 net.cpp:455] data -> label
I0318 07:57:35.721714  1063 image_data_layer.cpp:87] Opening file deploy/alexnetBNnoLRN/quantiz/data/calib/calibration.txt
I0318 07:57:35.721845  1063 image_data_layer.cpp:97] Shuffling data
I0318 07:57:35.721858  1063 image_data_layer.cpp:102] A total of 200 images.
I0318 07:57:35.723224  1063 image_data_layer.cpp:130] output data size: 10,3,227,227
I0318 07:57:35.741674  1063 internal_thread.cpp:73] Starting internal thread(s) on GPU 0
I0318 07:57:35.741770  1063 net.cpp:190] Setting up data
I0318 07:57:35.741776  1063 net.cpp:197] Top shape: 10 3 227 227 (1545870)
I0318 07:57:35.741784  1063 net.cpp:197] Top shape: 10 (10)
I0318 07:57:35.741788  1063 net.cpp:205] Memory required for data: 6183520
I0318 07:57:35.741792  1063 layer_factory.hpp:123] Creating layer conv1
I0318 07:57:35.741817  1063 net.cpp:140] Creating Layer conv1
I0318 07:57:35.741823  1063 net.cpp:481] conv1 <- data
I0318 07:57:35.741830  1063 net.cpp:455] conv1 -> conv1
I0318 07:57:35.742408  1063 net.cpp:190] Setting up conv1
I0318 07:57:35.742413  1063 net.cpp:197] Top shape: 10 96 55 55 (2904000)
I0318 07:57:35.742419  1063 net.cpp:205] Memory required for data: 17799520
I0318 07:57:35.742437  1063 layer_factory.hpp:123] Creating layer bn1
I0318 07:57:35.742447  1063 net.cpp:140] Creating Layer bn1
I0318 07:57:35.742450  1063 net.cpp:481] bn1 <- conv1
I0318 07:57:35.742455  1063 net.cpp:455] bn1 -> bn1
I0318 07:57:35.742962  1063 net.cpp:190] Setting up bn1
I0318 07:57:35.742967  1063 net.cpp:197] Top shape: 10 96 55 55 (2904000)
I0318 07:57:35.742971  1063 net.cpp:205] Memory required for data: 29415520
I0318 07:57:35.742980  1063 layer_factory.hpp:123] Creating layer relu1
I0318 07:57:35.742985  1063 net.cpp:140] Creating Layer relu1
I0318 07:57:35.742987  1063 net.cpp:481] relu1 <- bn1
I0318 07:57:35.742990  1063 net.cpp:455] relu1 -> relu1
I0318 07:57:35.743005  1063 net.cpp:190] Setting up relu1
I0318 07:57:35.743008  1063 net.cpp:197] Top shape: 10 96 55 55 (2904000)
I0318 07:57:35.743011  1063 net.cpp:205] Memory required for data: 41031520
I0318 07:57:35.743014  1063 layer_factory.hpp:123] Creating layer pool1
I0318 07:57:35.743019  1063 net.cpp:140] Creating Layer pool1
I0318 07:57:35.743022  1063 net.cpp:481] pool1 <- relu1
I0318 07:57:35.743026  1063 net.cpp:455] pool1 -> pool1
I0318 07:57:35.743047  1063 net.cpp:190] Setting up pool1
I0318 07:57:35.743050  1063 net.cpp:197] Top shape: 10 96 27 27 (699840)
I0318 07:57:35.743053  1063 net.cpp:205] Memory required for data: 43830880
I0318 07:57:35.743057  1063 layer_factory.hpp:123] Creating layer conv2
I0318 07:57:35.743062  1063 net.cpp:140] Creating Layer conv2
I0318 07:57:35.743065  1063 net.cpp:481] conv2 <- pool1
I0318 07:57:35.743069  1063 net.cpp:455] conv2 -> conv2
I0318 07:57:35.748755  1063 net.cpp:190] Setting up conv2
I0318 07:57:35.748769  1063 net.cpp:197] Top shape: 10 256 27 27 (1866240)
I0318 07:57:35.748775  1063 net.cpp:205] Memory required for data: 51295840
I0318 07:57:35.748783  1063 layer_factory.hpp:123] Creating layer bn2
I0318 07:57:35.748790  1063 net.cpp:140] Creating Layer bn2
I0318 07:57:35.748793  1063 net.cpp:481] bn2 <- conv2
I0318 07:57:35.748797  1063 net.cpp:455] bn2 -> bn2
I0318 07:57:35.749238  1063 net.cpp:190] Setting up bn2
I0318 07:57:35.749243  1063 net.cpp:197] Top shape: 10 256 27 27 (1866240)
I0318 07:57:35.749248  1063 net.cpp:205] Memory required for data: 58760800
I0318 07:57:35.749254  1063 layer_factory.hpp:123] Creating layer relu2
I0318 07:57:35.749258  1063 net.cpp:140] Creating Layer relu2
I0318 07:57:35.749261  1063 net.cpp:481] relu2 <- bn2
I0318 07:57:35.749264  1063 net.cpp:455] relu2 -> relu2
I0318 07:57:35.749279  1063 net.cpp:190] Setting up relu2
I0318 07:57:35.749282  1063 net.cpp:197] Top shape: 10 256 27 27 (1866240)
I0318 07:57:35.749285  1063 net.cpp:205] Memory required for data: 66225760
I0318 07:57:35.749289  1063 layer_factory.hpp:123] Creating layer pool2
I0318 07:57:35.749294  1063 net.cpp:140] Creating Layer pool2
I0318 07:57:35.749296  1063 net.cpp:481] pool2 <- relu2
I0318 07:57:35.749300  1063 net.cpp:455] pool2 -> pool2
I0318 07:57:35.749321  1063 net.cpp:190] Setting up pool2
I0318 07:57:35.749326  1063 net.cpp:197] Top shape: 10 256 13 13 (432640)
I0318 07:57:35.749330  1063 net.cpp:205] Memory required for data: 67956320
I0318 07:57:35.749333  1063 layer_factory.hpp:123] Creating layer conv3
I0318 07:57:35.749339  1063 net.cpp:140] Creating Layer conv3
I0318 07:57:35.749342  1063 net.cpp:481] conv3 <- pool2
I0318 07:57:35.749346  1063 net.cpp:455] conv3 -> conv3
I0318 07:57:35.757606  1063 net.cpp:190] Setting up conv3
I0318 07:57:35.757620  1063 net.cpp:197] Top shape: 10 384 13 13 (648960)
I0318 07:57:35.757625  1063 net.cpp:205] Memory required for data: 70552160
I0318 07:57:35.757632  1063 layer_factory.hpp:123] Creating layer relu3
I0318 07:57:35.757637  1063 net.cpp:140] Creating Layer relu3
I0318 07:57:35.757640  1063 net.cpp:481] relu3 <- conv3
I0318 07:57:35.757644  1063 net.cpp:455] relu3 -> relu3
I0318 07:57:35.757661  1063 net.cpp:190] Setting up relu3
I0318 07:57:35.757663  1063 net.cpp:197] Top shape: 10 384 13 13 (648960)
I0318 07:57:35.757668  1063 net.cpp:205] Memory required for data: 73148000
I0318 07:57:35.757669  1063 layer_factory.hpp:123] Creating layer conv4
I0318 07:57:35.757676  1063 net.cpp:140] Creating Layer conv4
I0318 07:57:35.757678  1063 net.cpp:481] conv4 <- relu3
I0318 07:57:35.757681  1063 net.cpp:455] conv4 -> conv4
I0318 07:57:35.769028  1063 net.cpp:190] Setting up conv4
I0318 07:57:35.769042  1063 net.cpp:197] Top shape: 10 384 13 13 (648960)
I0318 07:57:35.769047  1063 net.cpp:205] Memory required for data: 75743840
I0318 07:57:35.769073  1063 layer_factory.hpp:123] Creating layer relu4
I0318 07:57:35.769078  1063 net.cpp:140] Creating Layer relu4
I0318 07:57:35.769081  1063 net.cpp:481] relu4 <- conv4
I0318 07:57:35.769086  1063 net.cpp:455] relu4 -> relu4
I0318 07:57:35.769104  1063 net.cpp:190] Setting up relu4
I0318 07:57:35.769107  1063 net.cpp:197] Top shape: 10 384 13 13 (648960)
I0318 07:57:35.769109  1063 net.cpp:205] Memory required for data: 78339680
I0318 07:57:35.769112  1063 layer_factory.hpp:123] Creating layer conv5
I0318 07:57:35.769119  1063 net.cpp:140] Creating Layer conv5
I0318 07:57:35.769121  1063 net.cpp:481] conv5 <- relu4
I0318 07:57:35.769124  1063 net.cpp:455] conv5 -> conv5
I0318 07:57:35.777004  1063 net.cpp:190] Setting up conv5
I0318 07:57:35.777014  1063 net.cpp:197] Top shape: 10 256 13 13 (432640)
I0318 07:57:35.777020  1063 net.cpp:205] Memory required for data: 80070240
I0318 07:57:35.777026  1063 layer_factory.hpp:123] Creating layer relu5
I0318 07:57:35.777031  1063 net.cpp:140] Creating Layer relu5
I0318 07:57:35.777034  1063 net.cpp:481] relu5 <- conv5
I0318 07:57:35.777040  1063 net.cpp:455] relu5 -> relu5
I0318 07:57:35.777056  1063 net.cpp:190] Setting up relu5
I0318 07:57:35.777060  1063 net.cpp:197] Top shape: 10 256 13 13 (432640)
I0318 07:57:35.777063  1063 net.cpp:205] Memory required for data: 81800800
I0318 07:57:35.777065  1063 layer_factory.hpp:123] Creating layer pool5
I0318 07:57:35.777070  1063 net.cpp:140] Creating Layer pool5
I0318 07:57:35.777072  1063 net.cpp:481] pool5 <- relu5
I0318 07:57:35.777076  1063 net.cpp:455] pool5 -> pool5
I0318 07:57:35.777110  1063 net.cpp:190] Setting up pool5
I0318 07:57:35.777113  1063 net.cpp:197] Top shape: 10 256 6 6 (92160)
I0318 07:57:35.777117  1063 net.cpp:205] Memory required for data: 82169440
I0318 07:57:35.777118  1063 layer_factory.hpp:123] Creating layer fc6
I0318 07:57:35.777130  1063 net.cpp:140] Creating Layer fc6
I0318 07:57:35.777132  1063 net.cpp:481] fc6 <- pool5
I0318 07:57:35.777137  1063 net.cpp:455] fc6 -> fc6
I0318 07:57:36.073092  1063 net.cpp:190] Setting up fc6
I0318 07:57:36.073114  1063 net.cpp:197] Top shape: 10 4096 (40960)
I0318 07:57:36.073119  1063 net.cpp:205] Memory required for data: 82333280
I0318 07:57:36.073129  1063 layer_factory.hpp:123] Creating layer relu6
I0318 07:57:36.073137  1063 net.cpp:140] Creating Layer relu6
I0318 07:57:36.073140  1063 net.cpp:481] relu6 <- fc6
I0318 07:57:36.073145  1063 net.cpp:455] relu6 -> relu6
I0318 07:57:36.073166  1063 net.cpp:190] Setting up relu6
I0318 07:57:36.073168  1063 net.cpp:197] Top shape: 10 4096 (40960)
I0318 07:57:36.073171  1063 net.cpp:205] Memory required for data: 82497120
I0318 07:57:36.073173  1063 layer_factory.hpp:123] Creating layer fc7
I0318 07:57:36.073179  1063 net.cpp:140] Creating Layer fc7
I0318 07:57:36.073181  1063 net.cpp:481] fc7 <- relu6
I0318 07:57:36.073184  1063 net.cpp:455] fc7 -> fc7
I0318 07:57:36.208469  1063 net.cpp:190] Setting up fc7
I0318 07:57:36.208494  1063 net.cpp:197] Top shape: 10 4096 (40960)
I0318 07:57:36.208500  1063 net.cpp:205] Memory required for data: 82660960
I0318 07:57:36.208525  1063 layer_factory.hpp:123] Creating layer bn7
I0318 07:57:36.208536  1063 net.cpp:140] Creating Layer bn7
I0318 07:57:36.208539  1063 net.cpp:481] bn7 <- fc7
I0318 07:57:36.208545  1063 net.cpp:455] bn7 -> bn7
I0318 07:57:36.208992  1063 net.cpp:190] Setting up bn7
I0318 07:57:36.208997  1063 net.cpp:197] Top shape: 10 4096 (40960)
I0318 07:57:36.209000  1063 net.cpp:205] Memory required for data: 82824800
I0318 07:57:36.209007  1063 layer_factory.hpp:123] Creating layer relu7
I0318 07:57:36.209010  1063 net.cpp:140] Creating Layer relu7
I0318 07:57:36.209012  1063 net.cpp:481] relu7 <- bn7
I0318 07:57:36.209017  1063 net.cpp:455] relu7 -> relu7
I0318 07:57:36.209030  1063 net.cpp:190] Setting up relu7
I0318 07:57:36.209033  1063 net.cpp:197] Top shape: 10 4096 (40960)
I0318 07:57:36.209036  1063 net.cpp:205] Memory required for data: 82988640
I0318 07:57:36.209038  1063 layer_factory.hpp:123] Creating layer fc8
I0318 07:57:36.209044  1063 net.cpp:140] Creating Layer fc8
I0318 07:57:36.209046  1063 net.cpp:481] fc8 <- relu7
I0318 07:57:36.209050  1063 net.cpp:455] fc8 -> fc8
I0318 07:57:36.209209  1063 net.cpp:190] Setting up fc8
I0318 07:57:36.209213  1063 net.cpp:197] Top shape: 10 2 (20)
I0318 07:57:36.209218  1063 net.cpp:205] Memory required for data: 82988720
I0318 07:57:36.209221  1063 layer_factory.hpp:123] Creating layer loss
I0318 07:57:36.209233  1063 net.cpp:140] Creating Layer loss
I0318 07:57:36.209236  1063 net.cpp:481] loss <- fc8
I0318 07:57:36.209239  1063 net.cpp:481] loss <- label
I0318 07:57:36.209244  1063 net.cpp:455] loss -> loss
I0318 07:57:36.209255  1063 layer_factory.hpp:123] Creating layer loss
…
I0318 07:57:37.086378  1063 net.cpp:369] The NetState phase (0) differed from the phase (1) specified by a rule in layer accuracy-top1
I0318 07:57:37.086385  1063 net.cpp:98] Initializing net from parameters: 
state {
  phase: TRAIN
}
layer {
  name: "data"
  type: "ImageData"
  top: "data"
  top: "label"
  include {
    phase: TRAIN
  }
  transform_param {
    crop_size: 227
    mean_value: 106
    mean_value: 116
    mean_value: 124
  }
  image_data_param {
    source: "deploy/alexnetBNnoLRN/quantiz/data/calib/calibration.txt"
    batch_size: 10
    shuffle: true
    root_folder: "deploy/alexnetBNnoLRN/quantiz/data/calib/"
  }
}
layer {
  name: "data_fixed"
  type: "FixedNeuron"
  bottom: "data"
  top: "data"
  param {
    lr_mult: 0
    decay_mult: 0
  }
  fixed_param {
    fixed_method: OVER_FLOW
    bit_width: 8
    follow_data_layer: true
  }
}
layer {
  name: "conv1"
  type: "ConvolutionFixed"
  bottom: "data"
  top: "bn1"
  param {
    lr_mult: 1
    decay_mult: 1
  }
  param {
    lr_mult: 1
    decay_mult: 0
  }
  convolution_param {
    num_output: 96
    bias_term: true
    pad: 1
    kernel_size: 11
    stride: 4
    weight_filler {
      type: "gaussian"
      std: 0.01
    }
    bias_filler {
      type: "constant"
      value: 0
    }
  }
  fixed_param {
    fixed_method: DIFF_S
    bit_width: 8
  }
}
layer {
  name: "relu1"
  type: "ReLU"
  bottom: "bn1"
  top: "relu1"
}
layer {
  name: "pool1"
  type: "Pooling"
  bottom: "relu1"
  top: "pool1"
  pooling_param {
    pool: MAX
    kernel_size: 3
    stride: 2
  }
}
layer {
  name: "pool1_fixed"
  type: "FixedNeuron"
  bottom: "pool1"
  top: "pool1"
  param {
    lr_mult: 0
    decay_mult: 0
  }
  fixed_param {
    fixed_method: DIFF_S
    bit_width: 8
  }
}
layer {
  name: "conv2"
  type: "ConvolutionFixed"
  bottom: "pool1"
  top: "bn2"
  param {
    lr_mult: 1
    decay_mult: 1
  }
  param {
    lr_mult: 1
    decay_mult: 0
  }
  convolution_param {
    num_output: 256
    bias_term: true
    pad: 2
    kernel_size: 5
    group: 1
    weight_filler {
      type: "gaussian"
      std: 0.01
    }
    bias_filler {
      type: "constant"
      value: 1
    }
  }
  fixed_param {
    fixed_method: DIFF_S
    bit_width: 8
  }
}
layer {
  name: "relu2"
  type: "ReLU"
  bottom: "bn2"
  top: "relu2"
}
layer {
  name: "pool2"
  type: "Pooling"
  bottom: "relu2"
  top: "pool2"
  pooling_param {
    pool: MAX
    kernel_size: 3
    stride: 2
  }
}
layer {
  name: "pool2_fixed"
  type: "FixedNeuron"
  bottom: "pool2"
  top: "pool2"
  param {
    lr_mult: 0
    decay_mult: 0
  }
  fixed_param {
    fixed_method: DIFF_S
    bit_width: 8
  }
}
layer {
  name: "conv3"
  type: "ConvolutionFixed"
  bottom: "pool2"
  top: "conv3"
  param {
    lr_mult: 1
    decay_mult: 1
  }
  param {
    lr_mult: 2
    decay_mult: 0
  }
  convolution_param {
    num_output: 384
    pad: 1
    kernel_size: 3
    weight_filler {
      type: "gaussian"
      std: 0.01
    }
    bias_filler {
      type: "constant"
      value: 0
    }
  }
  fixed_param {
    fixed_method: DIFF_S
    bit_width: 8
  }
}
layer {
  name: "relu3"
  type: "ReLU"
  bottom: "conv3"
  top: "relu3"
}
layer {
  name: "relu3_fixed"
  type: "FixedNeuron"
  bottom: "relu3"
  top: "relu3"
  param {
    lr_mult: 0
    decay_mult: 0
  }
  fixed_param {
    fixed_method: DIFF_S
    bit_width: 8
  }
}
layer {
  name: "conv4"
  type: "ConvolutionFixed"
  bottom: "relu3"
  top: "conv4"
  param {
    lr_mult: 1
    decay_mult: 1
  }
  param {
    lr_mult: 2
    decay_mult: 0
  }
  convolution_param {
    num_output: 384
    pad: 1
    kernel_size: 3
    group: 1
    weight_filler {
      type: "gaussian"
      std: 0.01
    }
    bias_filler {
      type: "constant"
      value: 1
    }
  }
  fixed_param {
    fixed_method: DIFF_S
    bit_width: 8
  }
}
layer {
  name: "relu4"
  type: "ReLU"
  bottom: "conv4"
  top: "relu4"
}
layer {
  name: "relu4_fixed"
  type: "FixedNeuron"
  bottom: "relu4"
  top: "relu4"
  param {
    lr_mult: 0
    decay_mult: 0
  }
  fixed_param {
    fixed_method: DIFF_S
    bit_width: 8
  }
}
layer {
  name: "conv5"
  type: "ConvolutionFixed"
  bottom: "relu4"
  top: "conv5"
  param {
    lr_mult: 1
    decay_mult: 1
  }
  param {
    lr_mult: 2
    decay_mult: 0
  }
  convolution_param {
    num_output: 256
    pad: 1
    kernel_size: 3
    group: 1
    weight_filler {
      type: "gaussian"
      std: 0.01
    }
    bias_filler {
      type: "constant"
      value: 1
    }
  }
  fixed_param {
    fixed_method: DIFF_S
    bit_width: 8
  }
}
layer {
  name: "relu5"
  type: "ReLU"
  bottom: "conv5"
  top: "relu5"
}
layer {
  name: "pool5"
  type: "Pooling"
  bottom: "relu5"
  top: "pool5"
  pooling_param {
    pool: MAX
    kernel_size: 3
    stride: 2
  }
}
layer {
  name: "pool5_fixed"
  type: "FixedNeuron"
  bottom: "pool5"
  top: "pool5"
  param {
    lr_mult: 0
    decay_mult: 0
  }
  fixed_param {
    fixed_method: DIFF_S
    bit_width: 8
  }
}
layer {
  name: "fc6"
  type: "InnerProductFixed"
  bottom: "pool5"
  top: "fc6"
  param {
    lr_mult: 1
    decay_mult: 1
  }
  param {
    lr_mult: 2
    decay_mult: 0
  }
  inner_product_param {
    num_output: 4096
    weight_filler {
      type: "gaussian"
      std: 0.005
    }
    bias_filler {
      type: "constant"
      value: 1
    }
  }
  fixed_param {
    fixed_method: DIFF_S
    bit_width: 8
  }
}
layer {
  name: "relu6"
  type: "ReLU"
  bottom: "fc6"
  top: "relu6"
}
layer {
  name: "relu6_fixed"
  type: "FixedNeuron"
  bottom: "relu6"
  top: "relu6"
  param {
    lr_mult: 0
    decay_mult: 0
  }
  fixed_param {
    fixed_method: DIFF_S
    bit_width: 8
  }
}
layer {
  name: "fc7"
  type: "InnerProductFixed"
  bottom: "relu6"
  top: "bn7"
  param {
    lr_mult: 1
    decay_mult: 1
  }
  param {
    lr_mult: 1
    decay_mult: 0
  }
  inner_product_param {
    num_output: 4096
    bias_term: true
    weight_filler {
      type: "gaussian"
      std: 0.005
    }
    bias_filler {
      type: "constant"
      value: 1
    }
  }
  fixed_param {
    fixed_method: DIFF_S
    bit_width: 8
  }
}
layer {
  name: "relu7"
  type: "ReLU"
  bottom: "bn7"
  top: "relu7"
}
layer {
  name: "relu7_fixed"
  type: "FixedNeuron"
  bottom: "relu7"
  top: "relu7"
  param {
    lr_mult: 0
    decay_mult: 0
  }
  fixed_param {
    fixed_method: DIFF_S
    bit_width: 8
  }
}
layer {
  name: "fc8"
  type: "InnerProductFixed"
  bottom: "relu7"
  top: "fc8"
  param {
    lr_mult: 1
    decay_mult: 1
  }
  param {
    lr_mult: 2
    decay_mult: 0
  }
  inner_product_param {
    num_output: 2
    weight_filler {
      type: "gaussian"
      std: 0.01
    }
    bias_filler {
      type: "constant"
      value: 0
    }
  }
  fixed_param {
    fixed_method: DIFF_S
    bit_width: 8
  }
}
layer {
  name: "fc8_fixed"
  type: "FixedNeuron"
  bottom: "fc8"
  top: "fc8"
  param {
    lr_mult: 0
    decay_mult: 0
  }
  fixed_param {
    fixed_method: DIFF_S
    bit_width: 8
  }
}
layer {
  name: "loss"
  type: "SoftmaxWithLoss"
  bottom: "fc8"
  bottom: "label"
  top: "loss"
}
I0318 07:57:37.086782  1063 layer_factory.hpp:123] Creating layer data
I0318 07:57:37.086804  1063 net.cpp:140] Creating Layer data
I0318 07:57:37.086813  1063 net.cpp:455] data -> data
I0318 07:57:37.086827  1063 net.cpp:455] data -> label
I0318 07:57:37.086845  1063 image_data_layer.cpp:87] Opening file deploy/alexnetBNnoLRN/quantiz/data/calib/calibration.txt
I0318 07:57:37.087051  1063 image_data_layer.cpp:97] Shuffling data
I0318 07:57:37.087078  1063 image_data_layer.cpp:102] A total of 200 images.
I0318 07:57:37.089794  1063 image_data_layer.cpp:130] output data size: 10,3,227,227
I0318 07:57:37.113643  1063 internal_thread.cpp:73] Starting internal thread(s) on GPU 0
I0318 07:57:37.113709  1063 net.cpp:190] Setting up data
I0318 07:57:37.113714  1063 net.cpp:197] Top shape: 10 3 227 227 (1545870)
I0318 07:57:37.113723  1063 net.cpp:197] Top shape: 10 (10)
I0318 07:57:37.113726  1063 net.cpp:205] Memory required for data: 6183520
I0318 07:57:37.113731  1063 layer_factory.hpp:123] Creating layer data_fixed
I0318 07:57:37.113749  1063 net.cpp:140] Creating Layer data_fixed
I0318 07:57:37.113752  1063 net.cpp:481] data_fixed <- data
I0318 07:57:37.113759  1063 net.cpp:442] data_fixed -> data (in-place)
I0318 07:57:37.113880  1063 net.cpp:190] Setting up data_fixed
I0318 07:57:37.113886  1063 net.cpp:197] Top shape: 10 3 227 227 (1545870)
I0318 07:57:37.113890  1063 net.cpp:205] Memory required for data: 12367000
I0318 07:57:37.113899  1063 layer_factory.hpp:123] Creating layer conv1
I0318 07:57:37.113910  1063 net.cpp:140] Creating Layer conv1
I0318 07:57:37.113914  1063 net.cpp:481] conv1 <- data
I0318 07:57:37.113917  1063 net.cpp:455] conv1 -> bn1
I0318 07:57:37.114419  1063 layer_factory.hpp:123] Creating layer conv1
I0318 07:57:37.114939  1063 net.cpp:190] Setting up conv1
I0318 07:57:37.114945  1063 net.cpp:197] Top shape: 10 96 55 55 (2904000)
I0318 07:57:37.114950  1063 net.cpp:205] Memory required for data: 23983000
I0318 07:57:37.114957  1063 layer_factory.hpp:123] Creating layer relu1
I0318 07:57:37.114962  1063 net.cpp:140] Creating Layer relu1
I0318 07:57:37.114966  1063 net.cpp:481] relu1 <- bn1
I0318 07:57:37.114969  1063 net.cpp:455] relu1 -> relu1
I0318 07:57:37.114984  1063 net.cpp:190] Setting up relu1
I0318 07:57:37.114987  1063 net.cpp:197] Top shape: 10 96 55 55 (2904000)
I0318 07:57:37.114991  1063 net.cpp:205] Memory required for data: 35599000
I0318 07:57:37.114993  1063 layer_factory.hpp:123] Creating layer pool1
I0318 07:57:37.115000  1063 net.cpp:140] Creating Layer pool1
I0318 07:57:37.115001  1063 net.cpp:481] pool1 <- relu1
I0318 07:57:37.115005  1063 net.cpp:455] pool1 -> pool1
I0318 07:57:37.115028  1063 net.cpp:190] Setting up pool1
I0318 07:57:37.115032  1063 net.cpp:197] Top shape: 10 96 27 27 (699840)
I0318 07:57:37.115036  1063 net.cpp:205] Memory required for data: 38398360
I0318 07:57:37.115039  1063 layer_factory.hpp:123] Creating layer pool1_fixed
I0318 07:57:37.115043  1063 net.cpp:140] Creating Layer pool1_fixed
I0318 07:57:37.115046  1063 net.cpp:481] pool1_fixed <- pool1
I0318 07:57:37.115051  1063 net.cpp:442] pool1_fixed -> pool1 (in-place)
I0318 07:57:37.115070  1063 net.cpp:190] Setting up pool1_fixed
I0318 07:57:37.115075  1063 net.cpp:197] Top shape: 10 96 27 27 (699840)
I0318 07:57:37.115078  1063 net.cpp:205] Memory required for data: 41197720
I0318 07:57:37.115082  1063 layer_factory.hpp:123] Creating layer conv2
I0318 07:57:37.115088  1063 net.cpp:140] Creating Layer conv2
I0318 07:57:37.115092  1063 net.cpp:481] conv2 <- pool1
I0318 07:57:37.115095  1063 net.cpp:455] conv2 -> bn2
I0318 07:57:37.121109  1063 layer_factory.hpp:123] Creating layer conv2
I0318 07:57:37.126817  1063 net.cpp:190] Setting up conv2
I0318 07:57:37.126829  1063 net.cpp:197] Top shape: 10 256 27 27 (1866240)
I0318 07:57:37.126835  1063 net.cpp:205] Memory required for data: 48662680
I0318 07:57:37.126843  1063 layer_factory.hpp:123] Creating layer relu2
I0318 07:57:37.126848  1063 net.cpp:140] Creating Layer relu2
I0318 07:57:37.126852  1063 net.cpp:481] relu2 <- bn2
I0318 07:57:37.126855  1063 net.cpp:455] relu2 -> relu2
I0318 07:57:37.126868  1063 net.cpp:190] Setting up relu2
I0318 07:57:37.126871  1063 net.cpp:197] Top shape: 10 256 27 27 (1866240)
I0318 07:57:37.126875  1063 net.cpp:205] Memory required for data: 56127640
I0318 07:57:37.126878  1063 layer_factory.hpp:123] Creating layer pool2
I0318 07:57:37.126883  1063 net.cpp:140] Creating Layer pool2
I0318 07:57:37.126884  1063 net.cpp:481] pool2 <- relu2
I0318 07:57:37.126888  1063 net.cpp:455] pool2 -> pool2
I0318 07:57:37.126921  1063 net.cpp:190] Setting up pool2
I0318 07:57:37.126924  1063 net.cpp:197] Top shape: 10 256 13 13 (432640)
I0318 07:57:37.126927  1063 net.cpp:205] Memory required for data: 57858200
I0318 07:57:37.126930  1063 layer_factory.hpp:123] Creating layer pool2_fixed
I0318 07:57:37.126935  1063 net.cpp:140] Creating Layer pool2_fixed
I0318 07:57:37.126937  1063 net.cpp:481] pool2_fixed <- pool2
I0318 07:57:37.126940  1063 net.cpp:442] pool2_fixed -> pool2 (in-place)
I0318 07:57:37.126960  1063 net.cpp:190] Setting up pool2_fixed
I0318 07:57:37.126963  1063 net.cpp:197] Top shape: 10 256 13 13 (432640)
I0318 07:57:37.126967  1063 net.cpp:205] Memory required for data: 59588760
I0318 07:57:37.126971  1063 layer_factory.hpp:123] Creating layer conv3
I0318 07:57:37.126976  1063 net.cpp:140] Creating Layer conv3
I0318 07:57:37.126979  1063 net.cpp:481] conv3 <- pool2
I0318 07:57:37.126983  1063 net.cpp:455] conv3 -> conv3
I0318 07:57:37.134909  1063 layer_factory.hpp:123] Creating layer conv3
I0318 07:57:37.142647  1063 net.cpp:190] Setting up conv3
I0318 07:57:37.142660  1063 net.cpp:197] Top shape: 10 384 13 13 (648960)
I0318 07:57:37.142665  1063 net.cpp:205] Memory required for data: 62184600
I0318 07:57:37.142690  1063 layer_factory.hpp:123] Creating layer relu3
I0318 07:57:37.142695  1063 net.cpp:140] Creating Layer relu3
I0318 07:57:37.142699  1063 net.cpp:481] relu3 <- conv3
I0318 07:57:37.142704  1063 net.cpp:455] relu3 -> relu3
I0318 07:57:37.142719  1063 net.cpp:190] Setting up relu3
I0318 07:57:37.142721  1063 net.cpp:197] Top shape: 10 384 13 13 (648960)
I0318 07:57:37.142724  1063 net.cpp:205] Memory required for data: 64780440
I0318 07:57:37.142726  1063 layer_factory.hpp:123] Creating layer relu3_fixed
I0318 07:57:37.142730  1063 net.cpp:140] Creating Layer relu3_fixed
I0318 07:57:37.142732  1063 net.cpp:481] relu3_fixed <- relu3
I0318 07:57:37.142735  1063 net.cpp:442] relu3_fixed -> relu3 (in-place)
I0318 07:57:37.142752  1063 net.cpp:190] Setting up relu3_fixed
I0318 07:57:37.142755  1063 net.cpp:197] Top shape: 10 384 13 13 (648960)
I0318 07:57:37.142757  1063 net.cpp:205] Memory required for data: 67376280
I0318 07:57:37.142760  1063 layer_factory.hpp:123] Creating layer conv4
I0318 07:57:37.142767  1063 net.cpp:140] Creating Layer conv4
I0318 07:57:37.142769  1063 net.cpp:481] conv4 <- relu3
I0318 07:57:37.142772  1063 net.cpp:455] conv4 -> conv4
I0318 07:57:37.154201  1063 layer_factory.hpp:123] Creating layer conv4
I0318 07:57:37.165355  1063 net.cpp:190] Setting up conv4
I0318 07:57:37.165370  1063 net.cpp:197] Top shape: 10 384 13 13 (648960)
I0318 07:57:37.165376  1063 net.cpp:205] Memory required for data: 69972120
I0318 07:57:37.165400  1063 layer_factory.hpp:123] Creating layer relu4
I0318 07:57:37.165406  1063 net.cpp:140] Creating Layer relu4
I0318 07:57:37.165410  1063 net.cpp:481] relu4 <- conv4
I0318 07:57:37.165414  1063 net.cpp:455] relu4 -> relu4
I0318 07:57:37.165429  1063 net.cpp:190] Setting up relu4
I0318 07:57:37.165431  1063 net.cpp:197] Top shape: 10 384 13 13 (648960)
I0318 07:57:37.165434  1063 net.cpp:205] Memory required for data: 72567960
I0318 07:57:37.165436  1063 layer_factory.hpp:123] Creating layer relu4_fixed
I0318 07:57:37.165441  1063 net.cpp:140] Creating Layer relu4_fixed
I0318 07:57:37.165443  1063 net.cpp:481] relu4_fixed <- relu4
I0318 07:57:37.165446  1063 net.cpp:442] relu4_fixed -> relu4 (in-place)
I0318 07:57:37.165463  1063 net.cpp:190] Setting up relu4_fixed
I0318 07:57:37.165465  1063 net.cpp:197] Top shape: 10 384 13 13 (648960)
I0318 07:57:37.165468  1063 net.cpp:205] Memory required for data: 75163800
I0318 07:57:37.165472  1063 layer_factory.hpp:123] Creating layer conv5
I0318 07:57:37.165478  1063 net.cpp:140] Creating Layer conv5
I0318 07:57:37.165480  1063 net.cpp:481] conv5 <- relu4
I0318 07:57:37.165483  1063 net.cpp:455] conv5 -> conv5
I0318 07:57:37.173115  1063 layer_factory.hpp:123] Creating layer conv5
I0318 07:57:37.180830  1063 net.cpp:190] Setting up conv5
I0318 07:57:37.180845  1063 net.cpp:197] Top shape: 10 256 13 13 (432640)
I0318 07:57:37.180851  1063 net.cpp:205] Memory required for data: 76894360
I0318 07:57:37.180860  1063 layer_factory.hpp:123] Creating layer relu5
I0318 07:57:37.180864  1063 net.cpp:140] Creating Layer relu5
I0318 07:57:37.180868  1063 net.cpp:481] relu5 <- conv5
I0318 07:57:37.180872  1063 net.cpp:455] relu5 -> relu5
I0318 07:57:37.180887  1063 net.cpp:190] Setting up relu5
I0318 07:57:37.180889  1063 net.cpp:197] Top shape: 10 256 13 13 (432640)
I0318 07:57:37.180892  1063 net.cpp:205] Memory required for data: 78624920
I0318 07:57:37.180894  1063 layer_factory.hpp:123] Creating layer pool5
I0318 07:57:37.180899  1063 net.cpp:140] Creating Layer pool5
I0318 07:57:37.180902  1063 net.cpp:481] pool5 <- relu5
I0318 07:57:37.180904  1063 net.cpp:455] pool5 -> pool5
I0318 07:57:37.180939  1063 net.cpp:190] Setting up pool5
I0318 07:57:37.180945  1063 net.cpp:197] Top shape: 10 256 6 6 (92160)
I0318 07:57:37.180949  1063 net.cpp:205] Memory required for data: 78993560
I0318 07:57:37.180951  1063 layer_factory.hpp:123] Creating layer pool5_fixed
I0318 07:57:37.180956  1063 net.cpp:140] Creating Layer pool5_fixed
I0318 07:57:37.180959  1063 net.cpp:481] pool5_fixed <- pool5
I0318 07:57:37.180963  1063 net.cpp:442] pool5_fixed -> pool5 (in-place)
I0318 07:57:37.180982  1063 net.cpp:190] Setting up pool5_fixed
I0318 07:57:37.180987  1063 net.cpp:197] Top shape: 10 256 6 6 (92160)
I0318 07:57:37.180990  1063 net.cpp:205] Memory required for data: 79362200
I0318 07:57:37.180994  1063 layer_factory.hpp:123] Creating layer fc6
I0318 07:57:37.180999  1063 net.cpp:140] Creating Layer fc6
I0318 07:57:37.181002  1063 net.cpp:481] fc6 <- pool5
I0318 07:57:37.181005  1063 net.cpp:455] fc6 -> fc6
I0318 07:57:37.477226  1063 layer_factory.hpp:123] Creating layer fc6
I0318 07:57:37.774868  1063 net.cpp:190] Setting up fc6
I0318 07:57:37.774889  1063 net.cpp:197] Top shape: 10 4096 (40960)
I0318 07:57:37.774895  1063 net.cpp:205] Memory required for data: 79526040
I0318 07:57:37.774924  1063 layer_factory.hpp:123] Creating layer relu6
I0318 07:57:37.774930  1063 net.cpp:140] Creating Layer relu6
I0318 07:57:37.774935  1063 net.cpp:481] relu6 <- fc6
I0318 07:57:37.774940  1063 net.cpp:455] relu6 -> relu6
I0318 07:57:37.774957  1063 net.cpp:190] Setting up relu6
I0318 07:57:37.774960  1063 net.cpp:197] Top shape: 10 4096 (40960)
I0318 07:57:37.774962  1063 net.cpp:205] Memory required for data: 79689880
I0318 07:57:37.774964  1063 layer_factory.hpp:123] Creating layer relu6_fixed
I0318 07:57:37.774969  1063 net.cpp:140] Creating Layer relu6_fixed
I0318 07:57:37.774971  1063 net.cpp:481] relu6_fixed <- relu6
I0318 07:57:37.774974  1063 net.cpp:442] relu6_fixed -> relu6 (in-place)
I0318 07:57:37.774992  1063 net.cpp:190] Setting up relu6_fixed
I0318 07:57:37.774996  1063 net.cpp:197] Top shape: 10 4096 (40960)
I0318 07:57:37.774997  1063 net.cpp:205] Memory required for data: 79853720
I0318 07:57:37.775000  1063 layer_factory.hpp:123] Creating layer fc7
I0318 07:57:37.775007  1063 net.cpp:140] Creating Layer fc7
I0318 07:57:37.775008  1063 net.cpp:481] fc7 <- relu6
I0318 07:57:37.775012  1063 net.cpp:455] fc7 -> bn7
I0318 07:57:37.911957  1063 layer_factory.hpp:123] Creating layer fc7
I0318 07:57:38.044847  1063 net.cpp:190] Setting up fc7
I0318 07:57:38.044870  1063 net.cpp:197] Top shape: 10 4096 (40960)
I0318 07:57:38.044876  1063 net.cpp:205] Memory required for data: 80017560
I0318 07:57:38.044903  1063 layer_factory.hpp:123] Creating layer relu7
I0318 07:57:38.044909  1063 net.cpp:140] Creating Layer relu7
I0318 07:57:38.044914  1063 net.cpp:481] relu7 <- bn7
I0318 07:57:38.044919  1063 net.cpp:455] relu7 -> relu7
I0318 07:57:38.044937  1063 net.cpp:190] Setting up relu7
I0318 07:57:38.044939  1063 net.cpp:197] Top shape: 10 4096 (40960)
I0318 07:57:38.044941  1063 net.cpp:205] Memory required for data: 80181400
I0318 07:57:38.044945  1063 layer_factory.hpp:123] Creating layer relu7_fixed
I0318 07:57:38.044950  1063 net.cpp:140] Creating Layer relu7_fixed
I0318 07:57:38.044952  1063 net.cpp:481] relu7_fixed <- relu7
I0318 07:57:38.044955  1063 net.cpp:442] relu7_fixed -> relu7 (in-place)
I0318 07:57:38.044972  1063 net.cpp:190] Setting up relu7_fixed
I0318 07:57:38.044975  1063 net.cpp:197] Top shape: 10 4096 (40960)
I0318 07:57:38.044976  1063 net.cpp:205] Memory required for data: 80345240
I0318 07:57:38.044979  1063 layer_factory.hpp:123] Creating layer fc8
I0318 07:57:38.044986  1063 net.cpp:140] Creating Layer fc8
I0318 07:57:38.044987  1063 net.cpp:481] fc8 <- relu7
I0318 07:57:38.044991  1063 net.cpp:455] fc8 -> fc8
I0318 07:57:38.045109  1063 layer_factory.hpp:123] Creating layer fc8
I0318 07:57:38.045264  1063 net.cpp:190] Setting up fc8
I0318 07:57:38.045269  1063 net.cpp:197] Top shape: 10 2 (20)
I0318 07:57:38.045271  1063 net.cpp:205] Memory required for data: 80345320
I0318 07:57:38.045275  1063 layer_factory.hpp:123] Creating layer fc8_fixed
I0318 07:57:38.045279  1063 net.cpp:140] Creating Layer fc8_fixed
I0318 07:57:38.045281  1063 net.cpp:481] fc8_fixed <- fc8
I0318 07:57:38.045284  1063 net.cpp:442] fc8_fixed -> fc8 (in-place)
I0318 07:57:38.045303  1063 net.cpp:190] Setting up fc8_fixed
I0318 07:57:38.045306  1063 net.cpp:197] Top shape: 10 2 (20)
I0318 07:57:38.045310  1063 net.cpp:205] Memory required for data: 80345400
I0318 07:57:38.045312  1063 layer_factory.hpp:123] Creating layer loss
I0318 07:57:38.045317  1063 net.cpp:140] Creating Layer loss
I0318 07:57:38.045320  1063 net.cpp:481] loss <- fc8
I0318 07:57:38.045322  1063 net.cpp:481] loss <- label
I0318 07:57:38.045326  1063 net.cpp:455] loss -> loss
I0318 07:57:38.045331  1063 layer_factory.hpp:123] Creating layer loss
…
I0318 07:57:42.032534  1063 net.cpp:330] Network initialization done.
I0318 07:57:42.129153  1063 net.cpp:369] The NetState phase (1) differed from the phase (0) specified by a rule in layer data
I0318 07:57:42.129181  1063 net.cpp:98] Initializing net from parameters: 
layer {
  name: "data"
  type: "Data"
  top: "data"
  top: "label"
  include {
    phase: TEST
  }
  transform_param {
    mirror: false
    crop_size: 227
    mean_value: 106
    mean_value: 116
    mean_value: 124
  }
  data_param {
    source: "input/lmdb/valid_lmdb"
    batch_size: 50
    backend: LMDB
  }
}
layer {
  name: "data_fixed"
  type: "FixedNeuron"
  bottom: "data"
  top: "data"
  param {
    lr_mult: 0
    decay_mult: 0
  }
  fixed_param {
    fixed_method: OVER_FLOW
    bit_width: 8
    follow_data_layer: true
  }
}
layer {
  name: "conv1"
  type: "ConvolutionFixed"
  bottom: "data"
  top: "bn1"
  param {
    lr_mult: 1
    decay_mult: 1
  }
  param {
    lr_mult: 1
    decay_mult: 0
  }
  convolution_param {
    num_output: 96
    bias_term: true
    pad: 1
    kernel_size: 11
    stride: 4
    weight_filler {
      type: "gaussian"
      std: 0.01
    }
    bias_filler {
      type: "constant"
      value: 0
    }
  }
  fixed_param {
    fixed_method: DIFF_S
    bit_width: 8
  }
}
layer {
  name: "relu1"
  type: "ReLU"
  bottom: "bn1"
  top: "relu1"
}
layer {
  name: "pool1"
  type: "Pooling"
  bottom: "relu1"
  top: "pool1"
  pooling_param {
    pool: MAX
    kernel_size: 3
    stride: 2
  }
}
layer {
  name: "pool1_fixed"
  type: "FixedNeuron"
  bottom: "pool1"
  top: "pool1"
  param {
    lr_mult: 0
    decay_mult: 0
  }
  fixed_param {
    fixed_method: DIFF_S
    bit_width: 8
  }
}
layer {
  name: "conv2"
  type: "ConvolutionFixed"
  bottom: "pool1"
  top: "bn2"
  param {
    lr_mult: 1
    decay_mult: 1
  }
  param {
    lr_mult: 1
    decay_mult: 0
  }
  convolution_param {
    num_output: 256
    bias_term: true
    pad: 2
    kernel_size: 5
    group: 1
    weight_filler {
      type: "gaussian"
      std: 0.01
    }
    bias_filler {
      type: "constant"
      value: 1
    }
  }
  fixed_param {
    fixed_method: DIFF_S
    bit_width: 8
  }
}
layer {
  name: "relu2"
  type: "ReLU"
  bottom: "bn2"
  top: "relu2"
}
layer {
  name: "pool2"
  type: "Pooling"
  bottom: "relu2"
  top: "pool2"
  pooling_param {
    pool: MAX
    kernel_size: 3
    stride: 2
  }
}
layer {
  name: "pool2_fixed"
  type: "FixedNeuron"
  bottom: "pool2"
  top: "pool2"
  param {
    lr_mult: 0
    decay_mult: 0
  }
  fixed_param {
    fixed_method: DIFF_S
    bit_width: 8
  }
}
layer {
  name: "conv3"
  type: "ConvolutionFixed"
  bottom: "pool2"
  top: "conv3"
  param {
    lr_mult: 1
    decay_mult: 1
  }
  param {
    lr_mult: 2
    decay_mult: 0
  }
  convolution_param {
    num_output: 384
    pad: 1
    kernel_size: 3
    weight_filler {
      type: "gaussian"
      std: 0.01
    }
    bias_filler {
      type: "constant"
      value: 0
    }
  }
  fixed_param {
    fixed_method: DIFF_S
    bit_width: 8
  }
}
layer {
  name: "relu3"
  type: "ReLU"
  bottom: "conv3"
  top: "relu3"
}
layer {
  name: "relu3_fixed"
  type: "FixedNeuron"
  bottom: "relu3"
  top: "relu3"
  param {
    lr_mult: 0
    decay_mult: 0
  }
  fixed_param {
    fixed_method: DIFF_S
    bit_width: 8
  }
}
layer {
  name: "conv4"
  type: "ConvolutionFixed"
  bottom: "relu3"
  top: "conv4"
  param {
    lr_mult: 1
    decay_mult: 1
  }
  param {
    lr_mult: 2
    decay_mult: 0
  }
  convolution_param {
    num_output: 384
    pad: 1
    kernel_size: 3
    group: 1
    weight_filler {
      type: "gaussian"
      std: 0.01
    }
    bias_filler {
      type: "constant"
      value: 1
    }
  }
  fixed_param {
    fixed_method: DIFF_S
    bit_width: 8
  }
}
layer {
  name: "relu4"
  type: "ReLU"
  bottom: "conv4"
  top: "relu4"
}
layer {
  name: "relu4_fixed"
  type: "FixedNeuron"
  bottom: "relu4"
  top: "relu4"
  param {
    lr_mult: 0
    decay_mult: 0
  }
  fixed_param {
    fixed_method: DIFF_S
    bit_width: 8
  }
}
layer {
  name: "conv5"
  type: "ConvolutionFixed"
  bottom: "relu4"
  top: "conv5"
  param {
    lr_mult: 1
    decay_mult: 1
  }
  param {
    lr_mult: 2
    decay_mult: 0
  }
  convolution_param {
    num_output: 256
    pad: 1
    kernel_size: 3
    group: 1
    weight_filler {
      type: "gaussian"
      std: 0.01
    }
    bias_filler {
      type: "constant"
      value: 1
    }
  }
  fixed_param {
    fixed_method: DIFF_S
    bit_width: 8
  }
}
layer {
  name: "relu5"
  type: "ReLU"
  bottom: "conv5"
  top: "relu5"
}
layer {
  name: "pool5"
  type: "Pooling"
  bottom: "relu5"
  top: "pool5"
  pooling_param {
    pool: MAX
    kernel_size: 3
    stride: 2
  }
}
layer {
  name: "pool5_fixed"
  type: "FixedNeuron"
  bottom: "pool5"
  top: "pool5"
  param {
    lr_mult: 0
    decay_mult: 0
  }
  fixed_param {
    fixed_method: DIFF_S
    bit_width: 8
  }
}
layer {
  name: "fc6"
  type: "InnerProductFixed"
  bottom: "pool5"
  top: "fc6"
  param {
    lr_mult: 1
    decay_mult: 1
  }
  param {
    lr_mult: 2
    decay_mult: 0
  }
  inner_product_param {
    num_output: 4096
    weight_filler {
      type: "gaussian"
      std: 0.005
    }
    bias_filler {
      type: "constant"
      value: 1
    }
  }
  fixed_param {
    fixed_method: DIFF_S
    bit_width: 8
  }
}
layer {
  name: "relu6"
  type: "ReLU"
  bottom: "fc6"
  top: "relu6"
}
layer {
  name: "relu6_fixed"
  type: "FixedNeuron"
  bottom: "relu6"
  top: "relu6"
  param {
    lr_mult: 0
    decay_mult: 0
  }
  fixed_param {
    fixed_method: DIFF_S
    bit_width: 8
  }
}
layer {
  name: "fc7"
  type: "InnerProductFixed"
  bottom: "relu6"
  top: "bn7"
  param {
    lr_mult: 1
    decay_mult: 1
  }
  param {
    lr_mult: 1
    decay_mult: 0
  }
  inner_product_param {
    num_output: 4096
    bias_term: true
    weight_filler {
      type: "gaussian"
      std: 0.005
    }
    bias_filler {
      type: "constant"
      value: 1
    }
  }
  fixed_param {
    fixed_method: DIFF_S
    bit_width: 8
  }
}
layer {
  name: "relu7"
  type: "ReLU"
  bottom: "bn7"
  top: "relu7"
}
layer {
  name: "relu7_fixed"
  type: "FixedNeuron"
  bottom: "relu7"
  top: "relu7"
  param {
    lr_mult: 0
    decay_mult: 0
  }
  fixed_param {
    fixed_method: DIFF_S
    bit_width: 8
  }
}
layer {
  name: "fc8"
  type: "InnerProductFixed"
  bottom: "relu7"
  top: "fc8"
  param {
    lr_mult: 1
    decay_mult: 1
  }
  param {
    lr_mult: 2
    decay_mult: 0
  }
  inner_product_param {
    num_output: 2
    weight_filler {
      type: "gaussian"
      std: 0.01
    }
    bias_filler {
      type: "constant"
      value: 0
    }
  }
  fixed_param {
    fixed_method: DIFF_S
    bit_width: 8
  }
}
layer {
  name: "fc8_fixed"
  type: "FixedNeuron"
  bottom: "fc8"
  top: "fc8"
  param {
    lr_mult: 0
    decay_mult: 0
  }
  fixed_param {
    fixed_method: DIFF_S
    bit_width: 8
  }
}
layer {
  name: "accuracy"
  type: "Accuracy"
  bottom: "fc8"
  bottom: "label"
  top: "accuracy"
  include {
    phase: TEST
  }
}
layer {
  name: "loss"
  type: "SoftmaxWithLoss"
  bottom: "fc8"
  bottom: "label"
  top: "loss"
}
layer {
  name: "accuracy-top1"
  type: "Accuracy"
  bottom: "fc8"
  bottom: "label"
  top: "top-1"
  include {
    phase: TEST
  }
}
I0318 07:57:42.129631  1063 layer_factory.hpp:123] Creating layer data
I0318 07:57:42.129700  1063 internal_thread.cpp:73] Starting internal thread(s) on GPU 0
I0318 07:57:42.130895  1063 net.cpp:140] Creating Layer data
I0318 07:57:42.130908  1063 net.cpp:455] data -> data
I0318 07:57:42.130918  1063 net.cpp:455] data -> label
I0318 07:57:42.131949  1097 db_lmdb.cpp:81] Opened lmdb input/lmdb/valid_lmdb
I0318 07:57:42.131983  1097 data_reader.cpp:170] TEST: reading data using 1 channel(s)
I0318 07:57:42.132122  1063 data_layer.cpp:124] ReshapePrefetch 50, 3, 227, 227
I0318 07:57:42.132198  1063 data_layer.cpp:129] output data size: 50,3,227,227
I0318 07:57:42.211325  1063 internal_thread.cpp:73] Starting internal thread(s) on GPU 0
I0318 07:57:42.211405  1063 net.cpp:190] Setting up data
I0318 07:57:42.211410  1063 net.cpp:197] Top shape: 50 3 227 227 (7729350)
I0318 07:57:42.211418  1063 net.cpp:197] Top shape: 50 (50)
I0318 07:57:42.211421  1063 net.cpp:205] Memory required for data: 30917600
I0318 07:57:42.211426  1063 layer_factory.hpp:123] Creating layer label_data_1_split
I0318 07:57:42.211436  1063 net.cpp:140] Creating Layer label_data_1_split
I0318 07:57:42.211441  1063 net.cpp:481] label_data_1_split <- label
I0318 07:57:42.211447  1063 net.cpp:455] label_data_1_split -> label_data_1_split_0
I0318 07:57:42.211454  1063 net.cpp:455] label_data_1_split -> label_data_1_split_1
I0318 07:57:42.211458  1063 net.cpp:455] label_data_1_split -> label_data_1_split_2
I0318 07:57:42.211519  1063 net.cpp:190] Setting up label_data_1_split
I0318 07:57:42.211524  1063 net.cpp:197] Top shape: 50 (50)
I0318 07:57:42.211526  1063 net.cpp:197] Top shape: 50 (50)
I0318 07:57:42.211530  1063 net.cpp:197] Top shape: 50 (50)
I0318 07:57:42.211534  1063 net.cpp:205] Memory required for data: 30918200
I0318 07:57:42.211535  1063 layer_factory.hpp:123] Creating layer data_fixed
I0318 07:57:42.211542  1063 net.cpp:140] Creating Layer data_fixed
I0318 07:57:42.211544  1063 net.cpp:481] data_fixed <- data
I0318 07:57:42.211549  1063 net.cpp:442] data_fixed -> data (in-place)
I0318 07:57:42.211603  1063 net.cpp:190] Setting up data_fixed
I0318 07:57:42.211608  1063 net.cpp:197] Top shape: 50 3 227 227 (7729350)
I0318 07:57:42.211613  1063 net.cpp:205] Memory required for data: 61835600
I0318 07:57:42.211621  1063 layer_factory.hpp:123] Creating layer conv1
I0318 07:57:42.211632  1063 net.cpp:140] Creating Layer conv1
I0318 07:57:42.211633  1063 net.cpp:481] conv1 <- data
I0318 07:57:42.211637  1063 net.cpp:455] conv1 -> bn1
I0318 07:57:42.212121  1063 layer_factory.hpp:123] Creating layer conv1
I0318 07:57:42.212646  1063 net.cpp:190] Setting up conv1
I0318 07:57:42.212651  1063 net.cpp:197] Top shape: 50 96 55 55 (14520000)
I0318 07:57:42.212656  1063 net.cpp:205] Memory required for data: 119915600
I0318 07:57:42.212663  1063 layer_factory.hpp:123] Creating layer relu1
I0318 07:57:42.212671  1063 net.cpp:140] Creating Layer relu1
I0318 07:57:42.212673  1063 net.cpp:481] relu1 <- bn1
I0318 07:57:42.212677  1063 net.cpp:455] relu1 -> relu1
I0318 07:57:42.212692  1063 net.cpp:190] Setting up relu1
I0318 07:57:42.212697  1063 net.cpp:197] Top shape: 50 96 55 55 (14520000)
I0318 07:57:42.212700  1063 net.cpp:205] Memory required for data: 177995600
I0318 07:57:42.212702  1063 layer_factory.hpp:123] Creating layer pool1
I0318 07:57:42.212708  1063 net.cpp:140] Creating Layer pool1
I0318 07:57:42.212710  1063 net.cpp:481] pool1 <- relu1
I0318 07:57:42.212714  1063 net.cpp:455] pool1 -> pool1
I0318 07:57:42.212738  1063 net.cpp:190] Setting up pool1
I0318 07:57:42.212741  1063 net.cpp:197] Top shape: 50 96 27 27 (3499200)
I0318 07:57:42.212745  1063 net.cpp:205] Memory required for data: 191992400
I0318 07:57:42.212749  1063 layer_factory.hpp:123] Creating layer pool1_fixed
I0318 07:57:42.212754  1063 net.cpp:140] Creating Layer pool1_fixed
I0318 07:57:42.212755  1063 net.cpp:481] pool1_fixed <- pool1
I0318 07:57:42.212759  1063 net.cpp:442] pool1_fixed -> pool1 (in-place)
I0318 07:57:42.212780  1063 net.cpp:190] Setting up pool1_fixed
I0318 07:57:42.212786  1063 net.cpp:197] Top shape: 50 96 27 27 (3499200)
I0318 07:57:42.212790  1063 net.cpp:205] Memory required for data: 205989200
I0318 07:57:42.212793  1063 layer_factory.hpp:123] Creating layer conv2
I0318 07:57:42.212800  1063 net.cpp:140] Creating Layer conv2
I0318 07:57:42.212802  1063 net.cpp:481] conv2 <- pool1
I0318 07:57:42.212807  1063 net.cpp:455] conv2 -> bn2
I0318 07:57:42.218650  1063 layer_factory.hpp:123] Creating layer conv2
I0318 07:57:42.235493  1063 net.cpp:190] Setting up conv2
I0318 07:57:42.235522  1063 net.cpp:197] Top shape: 50 256 27 27 (9331200)
I0318 07:57:42.235533  1063 net.cpp:205] Memory required for data: 243314000
I0318 07:57:42.235550  1063 layer_factory.hpp:123] Creating layer relu2
I0318 07:57:42.235564  1063 net.cpp:140] Creating Layer relu2
I0318 07:57:42.235570  1063 net.cpp:481] relu2 <- bn2
I0318 07:57:42.235581  1063 net.cpp:455] relu2 -> relu2
I0318 07:57:42.235610  1063 net.cpp:190] Setting up relu2
I0318 07:57:42.235613  1063 net.cpp:197] Top shape: 50 256 27 27 (9331200)
I0318 07:57:42.235620  1063 net.cpp:205] Memory required for data: 280638800
I0318 07:57:42.235623  1063 layer_factory.hpp:123] Creating layer pool2
I0318 07:57:42.235632  1063 net.cpp:140] Creating Layer pool2
I0318 07:57:42.235636  1063 net.cpp:481] pool2 <- relu2
I0318 07:57:42.235641  1063 net.cpp:455] pool2 -> pool2
I0318 07:57:42.235677  1063 net.cpp:190] Setting up pool2
I0318 07:57:42.235682  1063 net.cpp:197] Top shape: 50 256 13 13 (2163200)
I0318 07:57:42.235689  1063 net.cpp:205] Memory required for data: 289291600
I0318 07:57:42.235694  1063 layer_factory.hpp:123] Creating layer pool2_fixed
I0318 07:57:42.235703  1063 net.cpp:140] Creating Layer pool2_fixed
I0318 07:57:42.235708  1063 net.cpp:481] pool2_fixed <- pool2
I0318 07:57:42.235713  1063 net.cpp:442] pool2_fixed -> pool2 (in-place)
I0318 07:57:42.235745  1063 net.cpp:190] Setting up pool2_fixed
I0318 07:57:42.235749  1063 net.cpp:197] Top shape: 50 256 13 13 (2163200)
I0318 07:57:42.235755  1063 net.cpp:205] Memory required for data: 297944400
I0318 07:57:42.235760  1063 layer_factory.hpp:123] Creating layer conv3
I0318 07:57:42.235774  1063 net.cpp:140] Creating Layer conv3
I0318 07:57:42.235777  1063 net.cpp:481] conv3 <- pool2
I0318 07:57:42.235785  1063 net.cpp:455] conv3 -> conv3
I0318 07:57:42.250941  1063 layer_factory.hpp:123] Creating layer conv3
I0318 07:57:42.260890  1063 net.cpp:190] Setting up conv3
I0318 07:57:42.260910  1063 net.cpp:197] Top shape: 50 384 13 13 (3244800)
I0318 07:57:42.260918  1063 net.cpp:205] Memory required for data: 310923600
I0318 07:57:42.260929  1063 layer_factory.hpp:123] Creating layer relu3
I0318 07:57:42.260936  1063 net.cpp:140] Creating Layer relu3
I0318 07:57:42.260941  1063 net.cpp:481] relu3 <- conv3
I0318 07:57:42.260947  1063 net.cpp:455] relu3 -> relu3
I0318 07:57:42.260964  1063 net.cpp:190] Setting up relu3
I0318 07:57:42.260967  1063 net.cpp:197] Top shape: 50 384 13 13 (3244800)
I0318 07:57:42.260972  1063 net.cpp:205] Memory required for data: 323902800
I0318 07:57:42.260973  1063 layer_factory.hpp:123] Creating layer relu3_fixed
I0318 07:57:42.260979  1063 net.cpp:140] Creating Layer relu3_fixed
I0318 07:57:42.260982  1063 net.cpp:481] relu3_fixed <- relu3
I0318 07:57:42.260985  1063 net.cpp:442] relu3_fixed -> relu3 (in-place)
I0318 07:57:42.261006  1063 net.cpp:190] Setting up relu3_fixed
I0318 07:57:42.261009  1063 net.cpp:197] Top shape: 50 384 13 13 (3244800)
I0318 07:57:42.261013  1063 net.cpp:205] Memory required for data: 336882000
I0318 07:57:42.261016  1063 layer_factory.hpp:123] Creating layer conv4
I0318 07:57:42.261023  1063 net.cpp:140] Creating Layer conv4
I0318 07:57:42.261026  1063 net.cpp:481] conv4 <- relu3
I0318 07:57:42.261029  1063 net.cpp:455] conv4 -> conv4
I0318 07:57:42.274233  1063 layer_factory.hpp:123] Creating layer conv4
I0318 07:57:42.285745  1063 net.cpp:190] Setting up conv4
I0318 07:57:42.285763  1063 net.cpp:197] Top shape: 50 384 13 13 (3244800)
I0318 07:57:42.285770  1063 net.cpp:205] Memory required for data: 349861200
I0318 07:57:42.285794  1063 layer_factory.hpp:123] Creating layer relu4
I0318 07:57:42.285800  1063 net.cpp:140] Creating Layer relu4
I0318 07:57:42.285804  1063 net.cpp:481] relu4 <- conv4
I0318 07:57:42.285809  1063 net.cpp:455] relu4 -> relu4
I0318 07:57:42.285823  1063 net.cpp:190] Setting up relu4
I0318 07:57:42.285825  1063 net.cpp:197] Top shape: 50 384 13 13 (3244800)
I0318 07:57:42.285828  1063 net.cpp:205] Memory required for data: 362840400
I0318 07:57:42.285830  1063 layer_factory.hpp:123] Creating layer relu4_fixed
I0318 07:57:42.285837  1063 net.cpp:140] Creating Layer relu4_fixed
I0318 07:57:42.285840  1063 net.cpp:481] relu4_fixed <- relu4
I0318 07:57:42.285842  1063 net.cpp:442] relu4_fixed -> relu4 (in-place)
I0318 07:57:42.285859  1063 net.cpp:190] Setting up relu4_fixed
I0318 07:57:42.285862  1063 net.cpp:197] Top shape: 50 384 13 13 (3244800)
I0318 07:57:42.285864  1063 net.cpp:205] Memory required for data: 375819600
I0318 07:57:42.285867  1063 layer_factory.hpp:123] Creating layer conv5
I0318 07:57:42.285876  1063 net.cpp:140] Creating Layer conv5
I0318 07:57:42.285877  1063 net.cpp:481] conv5 <- relu4
I0318 07:57:42.285881  1063 net.cpp:455] conv5 -> conv5
I0318 07:57:42.293598  1063 layer_factory.hpp:123] Creating layer conv5
I0318 07:57:42.301183  1063 net.cpp:190] Setting up conv5
I0318 07:57:42.301196  1063 net.cpp:197] Top shape: 50 256 13 13 (2163200)
I0318 07:57:42.301203  1063 net.cpp:205] Memory required for data: 384472400
I0318 07:57:42.301228  1063 layer_factory.hpp:123] Creating layer relu5
I0318 07:57:42.301234  1063 net.cpp:140] Creating Layer relu5
I0318 07:57:42.301236  1063 net.cpp:481] relu5 <- conv5
I0318 07:57:42.301241  1063 net.cpp:455] relu5 -> relu5
I0318 07:57:42.301256  1063 net.cpp:190] Setting up relu5
I0318 07:57:42.301259  1063 net.cpp:197] Top shape: 50 256 13 13 (2163200)
I0318 07:57:42.301262  1063 net.cpp:205] Memory required for data: 393125200
I0318 07:57:42.301265  1063 layer_factory.hpp:123] Creating layer pool5
I0318 07:57:42.301268  1063 net.cpp:140] Creating Layer pool5
I0318 07:57:42.301270  1063 net.cpp:481] pool5 <- relu5
I0318 07:57:42.301273  1063 net.cpp:455] pool5 -> pool5
I0318 07:57:42.301291  1063 net.cpp:190] Setting up pool5
I0318 07:57:42.301295  1063 net.cpp:197] Top shape: 50 256 6 6 (460800)
I0318 07:57:42.301296  1063 net.cpp:205] Memory required for data: 394968400
I0318 07:57:42.301299  1063 layer_factory.hpp:123] Creating layer pool5_fixed
I0318 07:57:42.301303  1063 net.cpp:140] Creating Layer pool5_fixed
I0318 07:57:42.301306  1063 net.cpp:481] pool5_fixed <- pool5
I0318 07:57:42.301308  1063 net.cpp:442] pool5_fixed -> pool5 (in-place)
I0318 07:57:42.301342  1063 net.cpp:190] Setting up pool5_fixed
I0318 07:57:42.301345  1063 net.cpp:197] Top shape: 50 256 6 6 (460800)
I0318 07:57:42.301348  1063 net.cpp:205] Memory required for data: 396811600
I0318 07:57:42.301352  1063 layer_factory.hpp:123] Creating layer fc6
I0318 07:57:42.301358  1063 net.cpp:140] Creating Layer fc6
I0318 07:57:42.301360  1063 net.cpp:481] fc6 <- pool5
I0318 07:57:42.301363  1063 net.cpp:455] fc6 -> fc6
I0318 07:57:42.606595  1063 layer_factory.hpp:123] Creating layer fc6
I0318 07:57:42.907145  1063 net.cpp:190] Setting up fc6
I0318 07:57:42.907166  1063 net.cpp:197] Top shape: 50 4096 (204800)
I0318 07:57:42.907173  1063 net.cpp:205] Memory required for data: 397630800
I0318 07:57:42.907200  1063 layer_factory.hpp:123] Creating layer relu6
I0318 07:57:42.907207  1063 net.cpp:140] Creating Layer relu6
I0318 07:57:42.907212  1063 net.cpp:481] relu6 <- fc6
I0318 07:57:42.907217  1063 net.cpp:455] relu6 -> relu6
I0318 07:57:42.907232  1063 net.cpp:190] Setting up relu6
I0318 07:57:42.907234  1063 net.cpp:197] Top shape: 50 4096 (204800)
I0318 07:57:42.907238  1063 net.cpp:205] Memory required for data: 398450000
I0318 07:57:42.907239  1063 layer_factory.hpp:123] Creating layer relu6_fixed
I0318 07:57:42.907245  1063 net.cpp:140] Creating Layer relu6_fixed
I0318 07:57:42.907248  1063 net.cpp:481] relu6_fixed <- relu6
I0318 07:57:42.907249  1063 net.cpp:442] relu6_fixed -> relu6 (in-place)
I0318 07:57:42.907268  1063 net.cpp:190] Setting up relu6_fixed
I0318 07:57:42.907269  1063 net.cpp:197] Top shape: 50 4096 (204800)
I0318 07:57:42.907272  1063 net.cpp:205] Memory required for data: 399269200
I0318 07:57:42.907275  1063 layer_factory.hpp:123] Creating layer fc7
I0318 07:57:42.907296  1063 net.cpp:140] Creating Layer fc7
I0318 07:57:42.907299  1063 net.cpp:481] fc7 <- relu6
I0318 07:57:42.907303  1063 net.cpp:455] fc7 -> bn7
I0318 07:57:43.043921  1063 layer_factory.hpp:123] Creating layer fc7
I0318 07:57:43.179641  1063 net.cpp:190] Setting up fc7
I0318 07:57:43.179666  1063 net.cpp:197] Top shape: 50 4096 (204800)
I0318 07:57:43.179672  1063 net.cpp:205] Memory required for data: 400088400
I0318 07:57:43.179698  1063 layer_factory.hpp:123] Creating layer relu7
I0318 07:57:43.179705  1063 net.cpp:140] Creating Layer relu7
I0318 07:57:43.179709  1063 net.cpp:481] relu7 <- bn7
I0318 07:57:43.179715  1063 net.cpp:455] relu7 -> relu7
I0318 07:57:43.179731  1063 net.cpp:190] Setting up relu7
I0318 07:57:43.179734  1063 net.cpp:197] Top shape: 50 4096 (204800)
I0318 07:57:43.179738  1063 net.cpp:205] Memory required for data: 400907600
I0318 07:57:43.179739  1063 layer_factory.hpp:123] Creating layer relu7_fixed
I0318 07:57:43.179745  1063 net.cpp:140] Creating Layer relu7_fixed
I0318 07:57:43.179747  1063 net.cpp:481] relu7_fixed <- relu7
I0318 07:57:43.179750  1063 net.cpp:442] relu7_fixed -> relu7 (in-place)
I0318 07:57:43.179769  1063 net.cpp:190] Setting up relu7_fixed
I0318 07:57:43.179771  1063 net.cpp:197] Top shape: 50 4096 (204800)
I0318 07:57:43.179774  1063 net.cpp:205] Memory required for data: 401726800
I0318 07:57:43.179777  1063 layer_factory.hpp:123] Creating layer fc8
I0318 07:57:43.179782  1063 net.cpp:140] Creating Layer fc8
I0318 07:57:43.179785  1063 net.cpp:481] fc8 <- relu7
I0318 07:57:43.179790  1063 net.cpp:455] fc8 -> fc8
I0318 07:57:43.179924  1063 layer_factory.hpp:123] Creating layer fc8
I0318 07:57:43.180133  1063 net.cpp:190] Setting up fc8
I0318 07:57:43.180140  1063 net.cpp:197] Top shape: 50 2 (100)
I0318 07:57:43.180145  1063 net.cpp:205] Memory required for data: 401727200
I0318 07:57:43.180150  1063 layer_factory.hpp:123] Creating layer fc8_fixed
I0318 07:57:43.180153  1063 net.cpp:140] Creating Layer fc8_fixed
I0318 07:57:43.180157  1063 net.cpp:481] fc8_fixed <- fc8
I0318 07:57:43.180161  1063 net.cpp:442] fc8_fixed -> fc8 (in-place)
I0318 07:57:43.180182  1063 net.cpp:190] Setting up fc8_fixed
I0318 07:57:43.180186  1063 net.cpp:197] Top shape: 50 2 (100)
I0318 07:57:43.180188  1063 net.cpp:205] Memory required for data: 401727600
I0318 07:57:43.180191  1063 layer_factory.hpp:123] Creating layer fc8_fc8_fixed_0_split
I0318 07:57:43.180197  1063 net.cpp:140] Creating Layer fc8_fc8_fixed_0_split
I0318 07:57:43.180199  1063 net.cpp:481] fc8_fc8_fixed_0_split <- fc8
I0318 07:57:43.180203  1063 net.cpp:455] fc8_fc8_fixed_0_split -> fc8_fc8_fixed_0_split_0
I0318 07:57:43.180208  1063 net.cpp:455] fc8_fc8_fixed_0_split -> fc8_fc8_fixed_0_split_1
I0318 07:57:43.180213  1063 net.cpp:455] fc8_fc8_fixed_0_split -> fc8_fc8_fixed_0_split_2
I0318 07:57:43.180246  1063 net.cpp:190] Setting up fc8_fc8_fixed_0_split
I0318 07:57:43.180253  1063 net.cpp:197] Top shape: 50 2 (100)
I0318 07:57:43.180258  1063 net.cpp:197] Top shape: 50 2 (100)
I0318 07:57:43.180263  1063 net.cpp:197] Top shape: 50 2 (100)
I0318 07:57:43.180267  1063 net.cpp:205] Memory required for data: 401728800
I0318 07:57:43.180271  1063 layer_factory.hpp:123] Creating layer accuracy
I0318 07:57:43.180279  1063 net.cpp:140] Creating Layer accuracy
I0318 07:57:43.180282  1063 net.cpp:481] accuracy <- fc8_fc8_fixed_0_split_0
I0318 07:57:43.180285  1063 net.cpp:481] accuracy <- label_data_1_split_0
I0318 07:57:43.180291  1063 net.cpp:455] accuracy -> accuracy
…
