…
2020-02-13 05:51:31.644110: I tensorflow/core/common_runtime/gpu/gpu_device.cc:1115] Created TensorFlow device (/job:localhost/replica:0/task:0/device:GPU:0 with 22213 MB memory) -> physical GPU (device: 0, name: Quadro P6000, pci bus id: 0000:65:00.0, compute capability: 6.1)
__________________________________________________________________________________________________
Layer (type)                    Output Shape         Param #     Connected to                     
==================================================================================================
conv2d_1_input (InputLayer)     (None, 32, 32, 3)    0                                            
__________________________________________________________________________________________________
conv2d_1 (Conv2D)               (None, 32, 32, 96)   2688        conv2d_1_input[0][0]             
__________________________________________________________________________________________________
batch_normalization_1 (BatchNor (None, 32, 32, 96)   384         conv2d_1[0][0]                   
__________________________________________________________________________________________________
activation_1 (Activation)       (None, 32, 32, 96)   0           batch_normalization_1[0][0]      
__________________________________________________________________________________________________
conv2d_2 (Conv2D)               (None, 32, 32, 32)   3104        activation_1[0][0]               
__________________________________________________________________________________________________
conv2d_3 (Conv2D)               (None, 32, 32, 32)   27680       activation_1[0][0]               
__________________________________________________________________________________________________
batch_normalization_2 (BatchNor (None, 32, 32, 32)   128         conv2d_2[0][0]                   
__________________________________________________________________________________________________
batch_normalization_3 (BatchNor (None, 32, 32, 32)   128         conv2d_3[0][0]                   
__________________________________________________________________________________________________
activation_2 (Activation)       (None, 32, 32, 32)   0           batch_normalization_2[0][0]      
__________________________________________________________________________________________________
activation_3 (Activation)       (None, 32, 32, 32)   0           batch_normalization_3[0][0]      
__________________________________________________________________________________________________
concatenate_1 (Concatenate)     (None, 32, 32, 64)   0           activation_2[0][0]               
                                                                 activation_3[0][0]               
__________________________________________________________________________________________________
conv2d_4 (Conv2D)               (None, 32, 32, 32)   2080        concatenate_1[0][0]              
__________________________________________________________________________________________________
conv2d_5 (Conv2D)               (None, 32, 32, 48)   27696       concatenate_1[0][0]              
__________________________________________________________________________________________________
batch_normalization_4 (BatchNor (None, 32, 32, 32)   128         conv2d_4[0][0]                   
__________________________________________________________________________________________________
batch_normalization_5 (BatchNor (None, 32, 32, 48)   192         conv2d_5[0][0]                   
__________________________________________________________________________________________________
activation_4 (Activation)       (None, 32, 32, 32)   0           batch_normalization_4[0][0]      
__________________________________________________________________________________________________
activation_5 (Activation)       (None, 32, 32, 48)   0           batch_normalization_5[0][0]      
__________________________________________________________________________________________________
concatenate_2 (Concatenate)     (None, 32, 32, 80)   0           activation_4[0][0]               
                                                                 activation_5[0][0]               
__________________________________________________________________________________________________
conv2d_6 (Conv2D)               (None, 15, 15, 80)   57680       concatenate_2[0][0]              
__________________________________________________________________________________________________
batch_normalization_6 (BatchNor (None, 15, 15, 80)   320         conv2d_6[0][0]                   
__________________________________________________________________________________________________
activation_6 (Activation)       (None, 15, 15, 80)   0           batch_normalization_6[0][0]      
__________________________________________________________________________________________________
max_pooling2d_1 (MaxPooling2D)  (None, 15, 15, 80)   0           concatenate_2[0][0]              
__________________________________________________________________________________________________
concatenate_3 (Concatenate)     (None, 15, 15, 160)  0           activation_6[0][0]               
                                                                 max_pooling2d_1[0][0]            
__________________________________________________________________________________________________
conv2d_7 (Conv2D)               (None, 15, 15, 112)  18032       concatenate_3[0][0]              
__________________________________________________________________________________________________
conv2d_8 (Conv2D)               (None, 15, 15, 48)   69168       concatenate_3[0][0]              
__________________________________________________________________________________________________
batch_normalization_7 (BatchNor (None, 15, 15, 112)  448         conv2d_7[0][0]                   
__________________________________________________________________________________________________
batch_normalization_8 (BatchNor (None, 15, 15, 48)   192         conv2d_8[0][0]                   
__________________________________________________________________________________________________
activation_7 (Activation)       (None, 15, 15, 112)  0           batch_normalization_7[0][0]      
__________________________________________________________________________________________________
activation_8 (Activation)       (None, 15, 15, 48)   0           batch_normalization_8[0][0]      
__________________________________________________________________________________________________
concatenate_4 (Concatenate)     (None, 15, 15, 160)  0           activation_7[0][0]               
                                                                 activation_8[0][0]               
__________________________________________________________________________________________________
conv2d_9 (Conv2D)               (None, 15, 15, 96)   15456       concatenate_4[0][0]              
__________________________________________________________________________________________________
conv2d_10 (Conv2D)              (None, 15, 15, 64)   92224       concatenate_4[0][0]              
__________________________________________________________________________________________________
batch_normalization_9 (BatchNor (None, 15, 15, 96)   384         conv2d_9[0][0]                   
__________________________________________________________________________________________________
batch_normalization_10 (BatchNo (None, 15, 15, 64)   256         conv2d_10[0][0]                  
__________________________________________________________________________________________________
activation_9 (Activation)       (None, 15, 15, 96)   0           batch_normalization_9[0][0]      
__________________________________________________________________________________________________
activation_10 (Activation)      (None, 15, 15, 64)   0           batch_normalization_10[0][0]     
__________________________________________________________________________________________________
concatenate_5 (Concatenate)     (None, 15, 15, 160)  0           activation_9[0][0]               
                                                                 activation_10[0][0]              
__________________________________________________________________________________________________
conv2d_11 (Conv2D)              (None, 15, 15, 80)   12880       concatenate_5[0][0]              
__________________________________________________________________________________________________
conv2d_12 (Conv2D)              (None, 15, 15, 80)   115280      concatenate_5[0][0]              
__________________________________________________________________________________________________
batch_normalization_11 (BatchNo (None, 15, 15, 80)   320         conv2d_11[0][0]                  
__________________________________________________________________________________________________
batch_normalization_12 (BatchNo (None, 15, 15, 80)   320         conv2d_12[0][0]                  
__________________________________________________________________________________________________
activation_11 (Activation)      (None, 15, 15, 80)   0           batch_normalization_11[0][0]     
__________________________________________________________________________________________________
activation_12 (Activation)      (None, 15, 15, 80)   0           batch_normalization_12[0][0]     
__________________________________________________________________________________________________
concatenate_6 (Concatenate)     (None, 15, 15, 160)  0           activation_11[0][0]              
                                                                 activation_12[0][0]              
__________________________________________________________________________________________________
conv2d_13 (Conv2D)              (None, 15, 15, 48)   7728        concatenate_6[0][0]              
__________________________________________________________________________________________________
conv2d_14 (Conv2D)              (None, 15, 15, 96)   138336      concatenate_6[0][0]              
__________________________________________________________________________________________________
batch_normalization_13 (BatchNo (None, 15, 15, 48)   192         conv2d_13[0][0]                  
__________________________________________________________________________________________________
batch_normalization_14 (BatchNo (None, 15, 15, 96)   384         conv2d_14[0][0]                  
__________________________________________________________________________________________________
activation_13 (Activation)      (None, 15, 15, 48)   0           batch_normalization_13[0][0]     
__________________________________________________________________________________________________
activation_14 (Activation)      (None, 15, 15, 96)   0           batch_normalization_14[0][0]     
__________________________________________________________________________________________________
concatenate_7 (Concatenate)     (None, 15, 15, 144)  0           activation_13[0][0]              
                                                                 activation_14[0][0]              
__________________________________________________________________________________________________
conv2d_15 (Conv2D)              (None, 7, 7, 96)     124512      concatenate_7[0][0]              
__________________________________________________________________________________________________
batch_normalization_15 (BatchNo (None, 7, 7, 96)     384         conv2d_15[0][0]                  
__________________________________________________________________________________________________
activation_15 (Activation)      (None, 7, 7, 96)     0           batch_normalization_15[0][0]     
__________________________________________________________________________________________________
max_pooling2d_2 (MaxPooling2D)  (None, 7, 7, 144)    0           concatenate_7[0][0]              
__________________________________________________________________________________________________
concatenate_8 (Concatenate)     (None, 7, 7, 240)    0           activation_15[0][0]              
                                                                 max_pooling2d_2[0][0]            
__________________________________________________________________________________________________
conv2d_16 (Conv2D)              (None, 7, 7, 176)    42416       concatenate_8[0][0]              
__________________________________________________________________________________________________
conv2d_17 (Conv2D)              (None, 7, 7, 160)    345760      concatenate_8[0][0]              
__________________________________________________________________________________________________
batch_normalization_16 (BatchNo (None, 7, 7, 176)    704         conv2d_16[0][0]                  
__________________________________________________________________________________________________
batch_normalization_17 (BatchNo (None, 7, 7, 160)    640         conv2d_17[0][0]                  
__________________________________________________________________________________________________
activation_16 (Activation)      (None, 7, 7, 176)    0           batch_normalization_16[0][0]     
__________________________________________________________________________________________________
activation_17 (Activation)      (None, 7, 7, 160)    0           batch_normalization_17[0][0]     
__________________________________________________________________________________________________
concatenate_9 (Concatenate)     (None, 7, 7, 336)    0           activation_16[0][0]              
                                                                 activation_17[0][0]              
__________________________________________________________________________________________________
conv2d_18 (Conv2D)              (None, 7, 7, 176)    59312       concatenate_9[0][0]              
__________________________________________________________________________________________________
conv2d_19 (Conv2D)              (None, 7, 7, 160)    484000      concatenate_9[0][0]              
__________________________________________________________________________________________________
batch_normalization_18 (BatchNo (None, 7, 7, 176)    704         conv2d_18[0][0]                  
__________________________________________________________________________________________________
batch_normalization_19 (BatchNo (None, 7, 7, 160)    640         conv2d_19[0][0]                  
__________________________________________________________________________________________________
activation_18 (Activation)      (None, 7, 7, 176)    0           batch_normalization_18[0][0]     
__________________________________________________________________________________________________
activation_19 (Activation)      (None, 7, 7, 160)    0           batch_normalization_19[0][0]     
__________________________________________________________________________________________________
concatenate_10 (Concatenate)    (None, 7, 7, 336)    0           activation_18[0][0]              
                                                                 activation_19[0][0]              
__________________________________________________________________________________________________
average_pooling2d_1 (AveragePoo (None, 1, 1, 336)    0           concatenate_10[0][0]             
__________________________________________________________________________________________________
dropout_1 (Dropout)             (None, 1, 1, 336)    0           average_pooling2d_1[0][0]        
__________________________________________________________________________________________________
flatten_1 (Flatten)             (None, 336)          0           dropout_1[0][0]                  
__________________________________________________________________________________________________
dense_1 (Dense)                 (None, 10)           3370        flatten_1[0][0]                  
__________________________________________________________________________________________________
activation_20 (Activation)      (None, 10)           0           dense_1[0][0]                    
==================================================================================================
Total params: 1,656,250
Trainable params: 1,652,826
Non-trainable params: 3,424
__________________________________________________________________________________________________

 TF input node name:
[<tf.Tensor 'conv2d_1_input:0' shape=(?, 32, 32, 3) dtype=float32>]
…
