…
layer {
  name: "data"
  type: "ImageData"
  top: "data"
  top: "label"
  include {
    phase: TRAIN
  }
  transform_param {
    scale: 0.022
    mean_value: 73
    mean_value: 82
    mean_value: 72
    resize_param {
      prob: 1
      resize_mode: WARP
      height: 512
      width: 1024
    }
  }
  image_data_param {
    source: "/workspace/Segment/VAI/data/cityscapes/calibration.txt"
    batch_size: 1
    shuffle: true
    new_height: 512
    new_width: 1024
    root_folder: "/workspace/Segment/VAI/data/cityscapes/calibration_images/"
  }
}
layer {
  name: "conv1/7x7_s2"
  type: "Convolution"
  bottom: "data"
  top: "conv1/7x7_s2_raw"
  param {
    lr_mult: 1
    decay_mult: 1
  }
  convolution_param {
    num_output: 64
    pad: 3
    kernel_size: 7
    stride: 2
    weight_filler {
      type: "msra"
    }
    bias_filler {
      type: "constant"
      value: 0.2
    }
  }
}
layer {
  name: "conv1/7x7_s2_BatchNorm"
  type: "BatchNorm"
  bottom: "conv1/7x7_s2_raw"
  top: "conv1/7x7_s2"
  param {
    lr_mult: 1
    decay_mult: 0
  }
  param {
    lr_mult: 1
    decay_mult: 0
  }
  param {
    lr_mult: 0
    decay_mult: 0
  }
  param {
    lr_mult: 0
    decay_mult: 0
  }
  batch_norm_param {
    use_global_stats: false
    eps: 1e-05
    scale_filler {
      type: "constant"
      value: 1
    }
    bias_filler {
      type: "constant"
      value: 0
    }
  }
}
layer {
  name: "conv1/relu_7x7"
  type: "ReLU"
  bottom: "conv1/7x7_s2"
  top: "conv1/7x7_s2"
}
layer {
  name: "pool1/3x3_s2"
  type: "Pooling"
  bottom: "conv1/7x7_s2"
  top: "pool1/3x3_s2"
  pooling_param {
    pool: MAX
    kernel_size: 3
    stride: 2
  }
}
layer {
  name: "conv2/3x3_reduce"
  type: "Convolution"
  bottom: "pool1/3x3_s2"
  top: "conv2/3x3_reduce_raw"
  param {
    lr_mult: 1
    decay_mult: 1
  }
  convolution_param {
    num_output: 64
    kernel_size: 1
    weight_filler {
      type: "msra"
    }
    bias_filler {
      type: "constant"
      value: 0.2
    }
  }
}
layer {
  name: "conv2/3x3_reduce_BatchNorm"
  type: "BatchNorm"
  bottom: "conv2/3x3_reduce_raw"
  top: "conv2/3x3_reduce"
  param {
    lr_mult: 1
    decay_mult: 0
  }
  param {
    lr_mult: 1
    decay_mult: 0
  }
  param {
    lr_mult: 0
    decay_mult: 0
  }
  param {
    lr_mult: 0
    decay_mult: 0
  }
  batch_norm_param {
    use_global_stats: false
    eps: 1e-05
    scale_filler {
      type: "constant"
      value: 1
    }
    bias_filler {
      type: "constant"
      value: 0
    }
  }
}
layer {
  name: "conv2/relu_3x3_reduce"
  type: "ReLU"
  bottom: "conv2/3x3_reduce"
  top: "conv2/3x3_reduce"
}
layer {
  name: "conv2/3x3"
  type: "Convolution"
  bottom: "conv2/3x3_reduce"
  top: "conv2/3x3_raw"
  param {
    lr_mult: 1
    decay_mult: 1
  }
  convolution_param {
    num_output: 192
    pad: 1
    kernel_size: 3
    weight_filler {
      type: "msra"
    }
    bias_filler {
      type: "constant"
      value: 0.2
    }
  }
}
layer {
  name: "conv2/3x3_BatchNorm"
  type: "BatchNorm"
  bottom: "conv2/3x3_raw"
  top: "conv2/3x3"
  param {
    lr_mult: 1
    decay_mult: 0
  }
  param {
    lr_mult: 1
    decay_mult: 0
  }
  param {
    lr_mult: 0
    decay_mult: 0
  }
  param {
    lr_mult: 0
    decay_mult: 0
  }
  batch_norm_param {
    use_global_stats: false
    eps: 1e-05
    scale_filler {
      type: "constant"
      value: 1
    }
    bias_filler {
      type: "constant"
      value: 0
    }
  }
}
layer {
  name: "conv2/relu_3x3"
  type: "ReLU"
  bottom: "conv2/3x3"
  top: "conv2/3x3"
}
layer {
  name: "pool2/3x3_s2"
  type: "Pooling"
  bottom: "conv2/3x3"
  top: "pool2/3x3_s2"
  pooling_param {
    pool: MAX
    kernel_size: 3
    stride: 2
  }
}
layer {
  name: "inception_3a/1x1"
  type: "Convolution"
  bottom: "pool2/3x3_s2"
  top: "inception_3a/1x1_raw"
  param {
    lr_mult: 1
    decay_mult: 1
  }
  convolution_param {
    num_output: 64
    kernel_size: 1
    weight_filler {
      type: "msra"
    }
    bias_filler {
      type: "constant"
      value: 0.2
    }
  }
}
layer {
  name: "inception_3a/1x1_BatchNorm"
  type: "BatchNorm"
  bottom: "inception_3a/1x1_raw"
  top: "inception_3a/1x1"
  param {
    lr_mult: 1
    decay_mult: 0
  }
  param {
    lr_mult: 1
    decay_mult: 0
  }
  param {
    lr_mult: 0
    decay_mult: 0
  }
  param {
    lr_mult: 0
    decay_mult: 0
  }
  batch_norm_param {
    use_global_stats: false
    eps: 1e-05
    scale_filler {
      type: "constant"
      value: 1
    }
    bias_filler {
      type: "constant"
      value: 0
    }
  }
}
layer {
  name: "inception_3a/relu_1x1"
  type: "ReLU"
  bottom: "inception_3a/1x1"
  top: "inception_3a/1x1"
}
layer {
  name: "inception_3a/3x3_reduce"
  type: "Convolution"
  bottom: "pool2/3x3_s2"
  top: "inception_3a/3x3_reduce_raw"
  param {
    lr_mult: 1
    decay_mult: 1
  }
  convolution_param {
    num_output: 96
    kernel_size: 1
    weight_filler {
      type: "msra"
    }
    bias_filler {
      type: "constant"
      value: 0.2
    }
  }
}
layer {
  name: "inception_3a/3x3_reduce_BatchNorm"
  type: "BatchNorm"
  bottom: "inception_3a/3x3_reduce_raw"
  top: "inception_3a/3x3_reduce"
  param {
    lr_mult: 1
    decay_mult: 0
  }
  param {
    lr_mult: 1
    decay_mult: 0
  }
  param {
    lr_mult: 0
    decay_mult: 0
  }
  param {
    lr_mult: 0
    decay_mult: 0
  }
  batch_norm_param {
    use_global_stats: false
    eps: 1e-05
    scale_filler {
      type: "constant"
      value: 1
    }
    bias_filler {
      type: "constant"
      value: 0
    }
  }
}
layer {
  name: "inception_3a/relu_3x3_reduce"
  type: "ReLU"
  bottom: "inception_3a/3x3_reduce"
  top: "inception_3a/3x3_reduce"
}
layer {
  name: "inception_3a/3x3"
  type: "Convolution"
  bottom: "inception_3a/3x3_reduce"
  top: "inception_3a/3x3_raw"
  param {
    lr_mult: 1
    decay_mult: 1
  }
  convolution_param {
    num_output: 128
    pad: 1
    kernel_size: 3
    weight_filler {
      type: "msra"
    }
    bias_filler {
      type: "constant"
      value: 0.2
    }
  }
}
layer {
  name: "inception_3a/3x3_BatchNorm"
  type: "BatchNorm"
  bottom: "inception_3a/3x3_raw"
  top: "inception_3a/3x3"
  param {
    lr_mult: 1
    decay_mult: 0
  }
  param {
    lr_mult: 1
    decay_mult: 0
  }
  param {
    lr_mult: 0
    decay_mult: 0
  }
  param {
    lr_mult: 0
    decay_mult: 0
  }
  batch_norm_param {
    use_global_stats: false
    eps: 1e-05
    scale_filler {
      type: "constant"
      value: 1
    }
    bias_filler {
      type: "constant"
      value: 0
    }
  }
}
layer {
  name: "inception_3a/relu_3x3"
  type: "ReLU"
  bottom: "inception_3a/3x3"
  top: "inception_3a/3x3"
}
layer {
  name: "inception_3a/5x5_reduce"
  type: "Convolution"
  bottom: "pool2/3x3_s2"
  top: "inception_3a/5x5_reduce_raw"
  param {
    lr_mult: 1
    decay_mult: 1
  }
  convolution_param {
    num_output: 16
    kernel_size: 1
    weight_filler {
      type: "msra"
    }
    bias_filler {
      type: "constant"
      value: 0.2
    }
  }
}
layer {
  name: "inception_3a/5x5_reduce_BatchNorm"
  type: "BatchNorm"
  bottom: "inception_3a/5x5_reduce_raw"
  top: "inception_3a/5x5_reduce"
  param {
    lr_mult: 1
    decay_mult: 0
  }
  param {
    lr_mult: 1
    decay_mult: 0
  }
  param {
    lr_mult: 0
    decay_mult: 0
  }
  param {
    lr_mult: 0
    decay_mult: 0
  }
  batch_norm_param {
    use_global_stats: false
    eps: 1e-05
    scale_filler {
      type: "constant"
      value: 1
    }
    bias_filler {
      type: "constant"
      value: 0
    }
  }
}
layer {
  name: "inception_3a/relu_5x5_reduce"
  type: "ReLU"
  bottom: "inception_3a/5x5_reduce"
  top: "inception_3a/5x5_reduce"
}
layer {
  name: "inception_3a/5x5"
  type: "Convolution"
  bottom: "inception_3a/5x5_reduce"
  top: "inception_3a/5x5_raw"
  param {
    lr_mult: 1
    decay_mult: 1
  }
  convolution_param {
    num_output: 32
    pad: 2
    kernel_size: 5
    weight_filler {
      type: "msra"
    }
    bias_filler {
      type: "constant"
      value: 0.2
    }
  }
}
layer {
  name: "inception_3a/5x5_BatchNorm"
  type: "BatchNorm"
  bottom: "inception_3a/5x5_raw"
  top: "inception_3a/5x5"
  param {
    lr_mult: 1
    decay_mult: 0
  }
  param {
    lr_mult: 1
    decay_mult: 0
  }
  param {
    lr_mult: 0
    decay_mult: 0
  }
  param {
    lr_mult: 0
    decay_mult: 0
  }
  batch_norm_param {
    use_global_stats: false
    eps: 1e-05
    scale_filler {
      type: "constant"
      value: 1
    }
    bias_filler {
      type: "constant"
      value: 0
    }
  }
}
layer {
  name: "inception_3a/relu_5x5"
  type: "ReLU"
  bottom: "inception_3a/5x5"
  top: "inception_3a/5x5"
}
layer {
  name: "inception_3a/pool"
  type: "Pooling"
  bottom: "pool2/3x3_s2"
  top: "inception_3a/pool"
  pooling_param {
    pool: MAX
    kernel_size: 3
    stride: 1
    pad: 1
  }
}
layer {
  name: "inception_3a/pool_proj"
  type: "Convolution"
  bottom: "inception_3a/pool"
  top: "inception_3a/pool_proj_raw"
  param {
    lr_mult: 1
    decay_mult: 1
  }
  convolution_param {
    num_output: 32
    kernel_size: 1
    weight_filler {
      type: "msra"
    }
    bias_filler {
      type: "constant"
      value: 0.2
    }
  }
}
layer {
  name: "inception_3a/pool_proj_BatchNorm"
  type: "BatchNorm"
  bottom: "inception_3a/pool_proj_raw"
  top: "inception_3a/pool_proj"
  param {
    lr_mult: 1
    decay_mult: 0
  }
  param {
    lr_mult: 1
    decay_mult: 0
  }
  param {
    lr_mult: 0
    decay_mult: 0
  }
  param {
    lr_mult: 0
    decay_mult: 0
  }
  batch_norm_param {
    use_global_stats: false
    eps: 1e-05
    scale_filler {
      type: "constant"
      value: 1
    }
    bias_filler {
      type: "constant"
      value: 0
    }
  }
}
layer {
  name: "inception_3a/relu_pool_proj"
  type: "ReLU"
  bottom: "inception_3a/pool_proj"
  top: "inception_3a/pool_proj"
}
layer {
  name: "inception_3a/output"
  type: "Concat"
  bottom: "inception_3a/1x1"
  bottom: "inception_3a/3x3"
  bottom: "inception_3a/5x5"
  bottom: "inception_3a/pool_proj"
  top: "inception_3a/output"
}
layer {
  name: "inception_3b/1x1"
  type: "Convolution"
  bottom: "inception_3a/output"
  top: "inception_3b/1x1_raw"
  param {
    lr_mult: 1
    decay_mult: 1
  }
  convolution_param {
    num_output: 128
    kernel_size: 1
    weight_filler {
      type: "msra"
    }
    bias_filler {
      type: "constant"
      value: 0.2
    }
  }
}
layer {
  name: "inception_3b/1x1_BatchNorm"
  type: "BatchNorm"
  bottom: "inception_3b/1x1_raw"
  top: "inception_3b/1x1"
  param {
    lr_mult: 1
    decay_mult: 0
  }
  param {
    lr_mult: 1
    decay_mult: 0
  }
  param {
    lr_mult: 0
    decay_mult: 0
  }
  param {
    lr_mult: 0
    decay_mult: 0
  }
  batch_norm_param {
    use_global_stats: false
    eps: 1e-05
    scale_filler {
      type: "constant"
      value: 1
    }
    bias_filler {
      type: "constant"
      value: 0
    }
  }
}
layer {
  name: "inception_3b/relu_1x1"
  type: "ReLU"
  bottom: "inception_3b/1x1"
  top: "inception_3b/1x1"
}
layer {
  name: "inception_3b/3x3_reduce"
  type: "Convolution"
  bottom: "inception_3a/output"
  top: "inception_3b/3x3_reduce_raw"
  param {
    lr_mult: 1
    decay_mult: 1
  }
  convolution_param {
    num_output: 128
    kernel_size: 1
    weight_filler {
      type: "msra"
    }
    bias_filler {
      type: "constant"
      value: 0.2
    }
  }
}
layer {
  name: "inception_3b/3x3_reduce_BatchNorm"
  type: "BatchNorm"
  bottom: "inception_3b/3x3_reduce_raw"
  top: "inception_3b/3x3_reduce"
  param {
    lr_mult: 1
    decay_mult: 0
  }
  param {
    lr_mult: 1
    decay_mult: 0
  }
  param {
    lr_mult: 0
    decay_mult: 0
  }
  param {
    lr_mult: 0
    decay_mult: 0
  }
  batch_norm_param {
    use_global_stats: false
    eps: 1e-05
    scale_filler {
      type: "constant"
      value: 1
    }
    bias_filler {
      type: "constant"
      value: 0
    }
  }
}
layer {
  name: "inception_3b/relu_3x3_reduce"
  type: "ReLU"
  bottom: "inception_3b/3x3_reduce"
  top: "inception_3b/3x3_reduce"
}
layer {
  name: "inception_3b/3x3"
  type: "Convolution"
  bottom: "inception_3b/3x3_reduce"
  top: "inception_3b/3x3_raw"
  param {
    lr_mult: 1
    decay_mult: 1
  }
  convolution_param {
    num_output: 192
    pad: 1
    kernel_size: 3
    weight_filler {
      type: "msra"
    }
    bias_filler {
      type: "constant"
      value: 0.2
    }
  }
}
layer {
  name: "inception_3b/3x3_BatchNorm"
  type: "BatchNorm"
  bottom: "inception_3b/3x3_raw"
  top: "inception_3b/3x3"
  param {
    lr_mult: 1
    decay_mult: 0
  }
  param {
    lr_mult: 1
    decay_mult: 0
  }
  param {
    lr_mult: 0
    decay_mult: 0
  }
  param {
    lr_mult: 0
    decay_mult: 0
  }
  batch_norm_param {
    use_global_stats: false
    eps: 1e-05
    scale_filler {
      type: "constant"
      value: 1
    }
    bias_filler {
      type: "constant"
      value: 0
    }
  }
}
layer {
  name: "inception_3b/relu_3x3"
  type: "ReLU"
  bottom: "inception_3b/3x3"
  top: "inception_3b/3x3"
}
layer {
  name: "inception_3b/5x5_reduce"
  type: "Convolution"
  bottom: "inception_3a/output"
  top: "inception_3b/5x5_reduce_raw"
  param {
    lr_mult: 1
    decay_mult: 1
  }
  convolution_param {
    num_output: 32
    kernel_size: 1
    weight_filler {
      type: "msra"
    }
    bias_filler {
      type: "constant"
      value: 0.2
    }
  }
}
layer {
  name: "inception_3b/5x5_reduce_BatchNorm"
  type: "BatchNorm"
  bottom: "inception_3b/5x5_reduce_raw"
  top: "inception_3b/5x5_reduce"
  param {
    lr_mult: 1
    decay_mult: 0
  }
  param {
    lr_mult: 1
    decay_mult: 0
  }
  param {
    lr_mult: 0
    decay_mult: 0
  }
  param {
    lr_mult: 0
    decay_mult: 0
  }
  batch_norm_param {
    use_global_stats: false
    eps: 1e-05
    scale_filler {
      type: "constant"
      value: 1
    }
    bias_filler {
      type: "constant"
      value: 0
    }
  }
}
layer {
  name: "inception_3b/relu_5x5_reduce"
  type: "ReLU"
  bottom: "inception_3b/5x5_reduce"
  top: "inception_3b/5x5_reduce"
}
layer {
  name: "inception_3b/5x5"
  type: "Convolution"
  bottom: "inception_3b/5x5_reduce"
  top: "inception_3b/5x5_raw"
  param {
    lr_mult: 1
    decay_mult: 1
  }
  convolution_param {
    num_output: 96
    pad: 2
    kernel_size: 5
    weight_filler {
      type: "msra"
    }
    bias_filler {
      type: "constant"
      value: 0.2
    }
  }
}
layer {
  name: "inception_3b/5x5_BatchNorm"
  type: "BatchNorm"
  bottom: "inception_3b/5x5_raw"
  top: "inception_3b/5x5"
  param {
    lr_mult: 1
    decay_mult: 0
  }
  param {
    lr_mult: 1
    decay_mult: 0
  }
  param {
    lr_mult: 0
    decay_mult: 0
  }
  param {
    lr_mult: 0
    decay_mult: 0
  }
  batch_norm_param {
    use_global_stats: false
    eps: 1e-05
    scale_filler {
      type: "constant"
      value: 1
    }
    bias_filler {
      type: "constant"
      value: 0
    }
  }
}
layer {
  name: "inception_3b/relu_5x5"
  type: "ReLU"
  bottom: "inception_3b/5x5"
  top: "inception_3b/5x5"
}
layer {
  name: "inception_3b/pool"
  type: "Pooling"
  bottom: "inception_3a/output"
  top: "inception_3b/pool"
  pooling_param {
    pool: MAX
    kernel_size: 3
    stride: 1
    pad: 1
  }
}
layer {
  name: "inception_3b/pool_proj"
  type: "Convolution"
  bottom: "inception_3b/pool"
  top: "inception_3b/pool_proj_raw"
  param {
    lr_mult: 1
    decay_mult: 1
  }
  convolution_param {
    num_output: 64
    kernel_size: 1
    weight_filler {
      type: "msra"
    }
    bias_filler {
      type: "constant"
      value: 0.2
    }
  }
}
layer {
  name: "inception_3b/pool_proj_BatchNorm"
  type: "BatchNorm"
  bottom: "inception_3b/pool_proj_raw"
  top: "inception_3b/pool_proj"
  param {
    lr_mult: 1
    decay_mult: 0
  }
  param {
    lr_mult: 1
    decay_mult: 0
  }
  param {
    lr_mult: 0
    decay_mult: 0
  }
  param {
    lr_mult: 0
    decay_mult: 0
  }
  batch_norm_param {
    use_global_stats: false
    eps: 1e-05
    scale_filler {
      type: "constant"
      value: 1
    }
    bias_filler {
      type: "constant"
      value: 0
    }
  }
}
layer {
  name: "inception_3b/relu_pool_proj"
  type: "ReLU"
  bottom: "inception_3b/pool_proj"
  top: "inception_3b/pool_proj"
}
layer {
  name: "inception_3b/output"
  type: "Concat"
  bottom: "inception_3b/1x1"
  bottom: "inception_3b/3x3"
  bottom: "inception_3b/5x5"
  bottom: "inception_3b/pool_proj"
  top: "inception_3b/output"
}
layer {
  name: "pool3/3x3_s2"
  type: "Pooling"
  bottom: "inception_3b/output"
  top: "pool3/3x3_s2"
  pooling_param {
    pool: MAX
    kernel_size: 3
    stride: 2
  }
}
layer {
  name: "inception_4a/1x1"
  type: "Convolution"
  bottom: "pool3/3x3_s2"
  top: "inception_4a/1x1_raw"
  param {
    lr_mult: 1
    decay_mult: 1
  }
  convolution_param {
    num_output: 192
    kernel_size: 1
    weight_filler {
      type: "msra"
    }
    bias_filler {
      type: "constant"
      value: 0.2
    }
  }
}
layer {
  name: "inception_4a/1x1_BatchNorm"
  type: "BatchNorm"
  bottom: "inception_4a/1x1_raw"
  top: "inception_4a/1x1"
  param {
    lr_mult: 1
    decay_mult: 0
  }
  param {
    lr_mult: 1
    decay_mult: 0
  }
  param {
    lr_mult: 0
    decay_mult: 0
  }
  param {
    lr_mult: 0
    decay_mult: 0
  }
  batch_norm_param {
    use_global_stats: false
    eps: 1e-05
    scale_filler {
      type: "constant"
      value: 1
    }
    bias_filler {
      type: "constant"
      value: 0
    }
  }
}
layer {
  name: "inception_4a/relu_1x1"
  type: "ReLU"
  bottom: "inception_4a/1x1"
  top: "inception_4a/1x1"
}
layer {
  name: "inception_4a/3x3_reduce"
  type: "Convolution"
  bottom: "pool3/3x3_s2"
  top: "inception_4a/3x3_reduce_raw"
  param {
    lr_mult: 1
    decay_mult: 1
  }
  convolution_param {
    num_output: 96
    kernel_size: 1
    weight_filler {
      type: "msra"
    }
    bias_filler {
      type: "constant"
      value: 0.2
    }
  }
}
layer {
  name: "inception_4a/3x3_reduce_BatchNorm"
  type: "BatchNorm"
  bottom: "inception_4a/3x3_reduce_raw"
  top: "inception_4a/3x3_reduce"
  param {
    lr_mult: 1
    decay_mult: 0
  }
  param {
    lr_mult: 1
    decay_mult: 0
  }
  param {
    lr_mult: 0
    decay_mult: 0
  }
  param {
    lr_mult: 0
    decay_mult: 0
  }
  batch_norm_param {
    use_global_stats: false
    eps: 1e-05
    scale_filler {
      type: "constant"
      value: 1
    }
    bias_filler {
      type: "constant"
      value: 0
    }
  }
}
layer {
  name: "inception_4a/relu_3x3_reduce"
  type: "ReLU"
  bottom: "inception_4a/3x3_reduce"
  top: "inception_4a/3x3_reduce"
}
layer {
  name: "inception_4a/3x3"
  type: "Convolution"
  bottom: "inception_4a/3x3_reduce"
  top: "inception_4a/3x3_raw"
  param {
    lr_mult: 1
    decay_mult: 1
  }
  convolution_param {
    num_output: 208
    pad: 1
    kernel_size: 3
    weight_filler {
      type: "msra"
    }
    bias_filler {
      type: "constant"
      value: 0.2
    }
  }
}
layer {
  name: "inception_4a/3x3_BatchNorm"
  type: "BatchNorm"
  bottom: "inception_4a/3x3_raw"
  top: "inception_4a/3x3"
  param {
    lr_mult: 1
    decay_mult: 0
  }
  param {
    lr_mult: 1
    decay_mult: 0
  }
  param {
    lr_mult: 0
    decay_mult: 0
  }
  param {
    lr_mult: 0
    decay_mult: 0
  }
  batch_norm_param {
    use_global_stats: false
    eps: 1e-05
    scale_filler {
      type: "constant"
      value: 1
    }
    bias_filler {
      type: "constant"
      value: 0
    }
  }
}
layer {
  name: "inception_4a/relu_3x3"
  type: "ReLU"
  bottom: "inception_4a/3x3"
  top: "inception_4a/3x3"
}
layer {
  name: "inception_4a/5x5_reduce"
  type: "Convolution"
  bottom: "pool3/3x3_s2"
  top: "inception_4a/5x5_reduce_raw"
  param {
    lr_mult: 1
    decay_mult: 1
  }
  convolution_param {
    num_output: 16
    kernel_size: 1
    weight_filler {
      type: "msra"
    }
    bias_filler {
      type: "constant"
      value: 0.2
    }
  }
}
layer {
  name: "inception_4a/5x5_reduce_BatchNorm"
  type: "BatchNorm"
  bottom: "inception_4a/5x5_reduce_raw"
  top: "inception_4a/5x5_reduce"
  param {
    lr_mult: 1
    decay_mult: 0
  }
  param {
    lr_mult: 1
    decay_mult: 0
  }
  param {
    lr_mult: 0
    decay_mult: 0
  }
  param {
    lr_mult: 0
    decay_mult: 0
  }
  batch_norm_param {
    use_global_stats: false
    eps: 1e-05
    scale_filler {
      type: "constant"
      value: 1
    }
    bias_filler {
      type: "constant"
      value: 0
    }
  }
}
layer {
  name: "inception_4a/relu_5x5_reduce"
  type: "ReLU"
  bottom: "inception_4a/5x5_reduce"
  top: "inception_4a/5x5_reduce"
}
layer {
  name: "inception_4a/5x5"
  type: "Convolution"
  bottom: "inception_4a/5x5_reduce"
  top: "inception_4a/5x5_raw"
  param {
    lr_mult: 1
    decay_mult: 1
  }
  convolution_param {
    num_output: 48
    pad: 2
    kernel_size: 5
    weight_filler {
      type: "msra"
    }
    bias_filler {
      type: "constant"
      value: 0.2
    }
  }
}
layer {
  name: "inception_4a/5x5_BatchNorm"
  type: "BatchNorm"
  bottom: "inception_4a/5x5_raw"
  top: "inception_4a/5x5"
  param {
    lr_mult: 1
    decay_mult: 0
  }
  param {
    lr_mult: 1
    decay_mult: 0
  }
  param {
    lr_mult: 0
    decay_mult: 0
  }
  param {
    lr_mult: 0
    decay_mult: 0
  }
  batch_norm_param {
    use_global_stats: false
    eps: 1e-05
    scale_filler {
      type: "constant"
      value: 1
    }
    bias_filler {
      type: "constant"
      value: 0
    }
  }
}
layer {
  name: "inception_4a/relu_5x5"
  type: "ReLU"
  bottom: "inception_4a/5x5"
  top: "inception_4a/5x5"
}
layer {
  name: "inception_4a/pool"
  type: "Pooling"
  bottom: "pool3/3x3_s2"
  top: "inception_4a/pool"
  pooling_param {
    pool: MAX
    kernel_size: 3
    stride: 1
    pad: 1
  }
}
layer {
  name: "inception_4a/pool_proj"
  type: "Convolution"
  bottom: "inception_4a/pool"
  top: "inception_4a/pool_proj_raw"
  param {
    lr_mult: 1
    decay_mult: 1
  }
  convolution_param {
    num_output: 64
    kernel_size: 1
    weight_filler {
      type: "msra"
    }
    bias_filler {
      type: "constant"
      value: 0.2
    }
  }
}
layer {
  name: "inception_4a/pool_proj_BatchNorm"
  type: "BatchNorm"
  bottom: "inception_4a/pool_proj_raw"
  top: "inception_4a/pool_proj"
  param {
    lr_mult: 1
    decay_mult: 0
  }
  param {
    lr_mult: 1
    decay_mult: 0
  }
  param {
    lr_mult: 0
    decay_mult: 0
  }
  param {
    lr_mult: 0
    decay_mult: 0
  }
  batch_norm_param {
    use_global_stats: false
    eps: 1e-05
    scale_filler {
      type: "constant"
      value: 1
    }
    bias_filler {
      type: "constant"
      value: 0
    }
  }
}
layer {
  name: "inception_4a/relu_pool_proj"
  type: "ReLU"
  bottom: "inception_4a/pool_proj"
  top: "inception_4a/pool_proj"
}
layer {
  name: "inception_4a/output"
  type: "Concat"
  bottom: "inception_4a/1x1"
  bottom: "inception_4a/3x3"
  bottom: "inception_4a/5x5"
  bottom: "inception_4a/pool_proj"
  top: "inception_4a/output"
}
layer {
  name: "inception_4b/1x1"
  type: "Convolution"
  bottom: "inception_4a/output"
  top: "inception_4b/1x1_raw"
  param {
    lr_mult: 1
    decay_mult: 1
  }
  convolution_param {
    num_output: 160
    kernel_size: 1
    weight_filler {
      type: "msra"
    }
    bias_filler {
      type: "constant"
      value: 0.2
    }
  }
}
layer {
  name: "inception_4b/1x1_BatchNorm"
  type: "BatchNorm"
  bottom: "inception_4b/1x1_raw"
  top: "inception_4b/1x1"
  param {
    lr_mult: 1
    decay_mult: 0
  }
  param {
    lr_mult: 1
    decay_mult: 0
  }
  param {
    lr_mult: 0
    decay_mult: 0
  }
  param {
    lr_mult: 0
    decay_mult: 0
  }
  batch_norm_param {
    use_global_stats: false
    eps: 1e-05
    scale_filler {
      type: "constant"
      value: 1
    }
    bias_filler {
      type: "constant"
      value: 0
    }
  }
}
layer {
  name: "inception_4b/relu_1x1"
  type: "ReLU"
  bottom: "inception_4b/1x1"
  top: "inception_4b/1x1"
}
layer {
  name: "inception_4b/3x3_reduce"
  type: "Convolution"
  bottom: "inception_4a/output"
  top: "inception_4b/3x3_reduce_raw"
  param {
    lr_mult: 1
    decay_mult: 1
  }
  convolution_param {
    num_output: 112
    kernel_size: 1
    weight_filler {
      type: "msra"
    }
    bias_filler {
      type: "constant"
      value: 0.2
    }
  }
}
layer {
  name: "inception_4b/3x3_reduce_BatchNorm"
  type: "BatchNorm"
  bottom: "inception_4b/3x3_reduce_raw"
  top: "inception_4b/3x3_reduce"
  param {
    lr_mult: 1
    decay_mult: 0
  }
  param {
    lr_mult: 1
    decay_mult: 0
  }
  param {
    lr_mult: 0
    decay_mult: 0
  }
  param {
    lr_mult: 0
    decay_mult: 0
  }
  batch_norm_param {
    use_global_stats: false
    eps: 1e-05
    scale_filler {
      type: "constant"
      value: 1
    }
    bias_filler {
      type: "constant"
      value: 0
    }
  }
}
layer {
  name: "inception_4b/relu_3x3_reduce"
  type: "ReLU"
  bottom: "inception_4b/3x3_reduce"
  top: "inception_4b/3x3_reduce"
}
layer {
  name: "inception_4b/3x3"
  type: "Convolution"
  bottom: "inception_4b/3x3_reduce"
  top: "inception_4b/3x3_raw"
  param {
    lr_mult: 1
    decay_mult: 1
  }
  convolution_param {
    num_output: 224
    pad: 1
    kernel_size: 3
    weight_filler {
      type: "msra"
    }
    bias_filler {
      type: "constant"
      value: 0.2
    }
  }
}
layer {
  name: "inception_4b/3x3_BatchNorm"
  type: "BatchNorm"
  bottom: "inception_4b/3x3_raw"
  top: "inception_4b/3x3"
  param {
    lr_mult: 1
    decay_mult: 0
  }
  param {
    lr_mult: 1
    decay_mult: 0
  }
  param {
    lr_mult: 0
    decay_mult: 0
  }
  param {
    lr_mult: 0
    decay_mult: 0
  }
  batch_norm_param {
    use_global_stats: false
    eps: 1e-05
    scale_filler {
      type: "constant"
      value: 1
    }
    bias_filler {
      type: "constant"
      value: 0
    }
  }
}
layer {
  name: "inception_4b/relu_3x3"
  type: "ReLU"
  bottom: "inception_4b/3x3"
  top: "inception_4b/3x3"
}
layer {
  name: "inception_4b/5x5_reduce"
  type: "Convolution"
  bottom: "inception_4a/output"
  top: "inception_4b/5x5_reduce_raw"
  param {
    lr_mult: 1
    decay_mult: 1
  }
  convolution_param {
    num_output: 24
    kernel_size: 1
    weight_filler {
      type: "msra"
    }
    bias_filler {
      type: "constant"
      value: 0.2
    }
  }
}
layer {
  name: "inception_4b/5x5_reduce_BatchNorm"
  type: "BatchNorm"
  bottom: "inception_4b/5x5_reduce_raw"
  top: "inception_4b/5x5_reduce"
  param {
    lr_mult: 1
    decay_mult: 0
  }
  param {
    lr_mult: 1
    decay_mult: 0
  }
  param {
    lr_mult: 0
    decay_mult: 0
  }
  param {
    lr_mult: 0
    decay_mult: 0
  }
  batch_norm_param {
    use_global_stats: false
    eps: 1e-05
    scale_filler {
      type: "constant"
      value: 1
    }
    bias_filler {
      type: "constant"
      value: 0
    }
  }
}
layer {
  name: "inception_4b/relu_5x5_reduce"
  type: "ReLU"
  bottom: "inception_4b/5x5_reduce"
  top: "inception_4b/5x5_reduce"
}
layer {
  name: "inception_4b/5x5"
  type: "Convolution"
  bottom: "inception_4b/5x5_reduce"
  top: "inception_4b/5x5_raw"
  param {
    lr_mult: 1
    decay_mult: 1
  }
  convolution_param {
    num_output: 64
    pad: 2
    kernel_size: 5
    weight_filler {
      type: "msra"
    }
    bias_filler {
      type: "constant"
      value: 0.2
    }
  }
}
layer {
  name: "inception_4b/5x5_BatchNorm"
  type: "BatchNorm"
  bottom: "inception_4b/5x5_raw"
  top: "inception_4b/5x5"
  param {
    lr_mult: 1
    decay_mult: 0
  }
  param {
    lr_mult: 1
    decay_mult: 0
  }
  param {
    lr_mult: 0
    decay_mult: 0
  }
  param {
    lr_mult: 0
    decay_mult: 0
  }
  batch_norm_param {
    use_global_stats: false
    eps: 1e-05
    scale_filler {
      type: "constant"
      value: 1
    }
    bias_filler {
      type: "constant"
      value: 0
    }
  }
}
layer {
  name: "inception_4b/relu_5x5"
  type: "ReLU"
  bottom: "inception_4b/5x5"
  top: "inception_4b/5x5"
}
layer {
  name: "inception_4b/pool"
  type: "Pooling"
  bottom: "inception_4a/output"
  top: "inception_4b/pool"
  pooling_param {
    pool: MAX
    kernel_size: 3
    stride: 1
    pad: 1
  }
}
layer {
  name: "inception_4b/pool_proj"
  type: "Convolution"
  bottom: "inception_4b/pool"
  top: "inception_4b/pool_proj_raw"
  param {
    lr_mult: 1
    decay_mult: 1
  }
  convolution_param {
    num_output: 64
    kernel_size: 1
    weight_filler {
      type: "msra"
    }
    bias_filler {
      type: "constant"
      value: 0.2
    }
  }
}
layer {
  name: "inception_4b/pool_proj_BatchNorm"
  type: "BatchNorm"
  bottom: "inception_4b/pool_proj_raw"
  top: "inception_4b/pool_proj"
  param {
    lr_mult: 1
    decay_mult: 0
  }
  param {
    lr_mult: 1
    decay_mult: 0
  }
  param {
    lr_mult: 0
    decay_mult: 0
  }
  param {
    lr_mult: 0
    decay_mult: 0
  }
  batch_norm_param {
    use_global_stats: false
    eps: 1e-05
    scale_filler {
      type: "constant"
      value: 1
    }
    bias_filler {
      type: "constant"
      value: 0
    }
  }
}
layer {
  name: "inception_4b/relu_pool_proj"
  type: "ReLU"
  bottom: "inception_4b/pool_proj"
  top: "inception_4b/pool_proj"
}
layer {
  name: "inception_4b/output"
  type: "Concat"
  bottom: "inception_4b/1x1"
  bottom: "inception_4b/3x3"
  bottom: "inception_4b/5x5"
  bottom: "inception_4b/pool_proj"
  top: "inception_4b/output"
}
layer {
  name: "inception_4c/1x1"
  type: "Convolution"
  bottom: "inception_4b/output"
  top: "inception_4c/1x1_raw"
  param {
    lr_mult: 1
    decay_mult: 1
  }
  convolution_param {
    num_output: 128
    kernel_size: 1
    weight_filler {
      type: "msra"
    }
    bias_filler {
      type: "constant"
      value: 0.2
    }
  }
}
layer {
  name: "inception_4c/1x1_BatchNorm"
  type: "BatchNorm"
  bottom: "inception_4c/1x1_raw"
  top: "inception_4c/1x1"
  param {
    lr_mult: 1
    decay_mult: 0
  }
  param {
    lr_mult: 1
    decay_mult: 0
  }
  param {
    lr_mult: 0
    decay_mult: 0
  }
  param {
    lr_mult: 0
    decay_mult: 0
  }
  batch_norm_param {
    use_
I0225 09:08:35.139613    44 layer_factory.hpp:123] Creating layer data
I0225 09:08:35.140254    44 net.cpp:140] Creating Layer data
I0225 09:08:35.140262    44 net.cpp:455] data -> data
I0225 09:08:35.140275    44 net.cpp:455] data -> label
I0225 09:08:35.140731    44 image_data_layer.cpp:87] Opening file /workspace/Segment/VAI/data/cityscapes/calibration.txt
I0225 09:08:35.150884    44 image_data_layer.cpp:97] Shuffling data
I0225 09:08:35.151453    44 image_data_layer.cpp:102] A total of 1000 images.
I0225 09:08:35.231820    44 image_data_layer.cpp:130] output data size: 1,3,512,1024
I0225 09:08:35.258703    44 internal_thread.cpp:73] Starting internal thread(s) on GPU 0
I0225 09:08:35.258801    44 net.cpp:190] Setting up data
I0225 09:08:35.258808    44 net.cpp:197] Top shape: 1 3 512 1024 (1572864)
I0225 09:08:35.258821    44 net.cpp:197] Top shape: 1 (1)
I0225 09:08:35.258826    44 net.cpp:205] Memory required for data: 6291460
I0225 09:08:35.258831    44 layer_factory.hpp:123] Creating layer conv1/7x7_s2
I0225 09:08:35.258852    44 net.cpp:140] Creating Layer conv1/7x7_s2
I0225 09:08:35.258857    44 net.cpp:481] conv1/7x7_s2 <- data
I0225 09:08:35.258865    44 net.cpp:455] conv1/7x7_s2 -> conv1/7x7_s2_raw
I0225 09:08:35.261267    44 net.cpp:190] Setting up conv1/7x7_s2
I0225 09:08:35.261277    44 net.cpp:197] Top shape: 1 64 256 512 (8388608)
I0225 09:08:35.261283    44 net.cpp:205] Memory required for data: 39845892
I0225 09:08:35.261304    44 layer_factory.hpp:123] Creating layer conv1/7x7_s2_BatchNorm
I0225 09:08:35.261315    44 net.cpp:140] Creating Layer conv1/7x7_s2_BatchNorm
I0225 09:08:35.261319    44 net.cpp:481] conv1/7x7_s2_BatchNorm <- conv1/7x7_s2_raw
I0225 09:08:35.261324    44 net.cpp:455] conv1/7x7_s2_BatchNorm -> conv1/7x7_s2
I0225 09:08:35.261890    44 net.cpp:190] Setting up conv1/7x7_s2_BatchNorm
I0225 09:08:35.261898    44 net.cpp:197] Top shape: 1 64 256 512 (8388608)
I0225 09:08:35.261904    44 net.cpp:205] Memory required for data: 73400324
I0225 09:08:35.261914    44 layer_factory.hpp:123] Creating layer conv1/relu_7x7
I0225 09:08:35.261919    44 net.cpp:140] Creating Layer conv1/relu_7x7
I0225 09:08:35.261922    44 net.cpp:481] conv1/relu_7x7 <- conv1/7x7_s2
I0225 09:08:35.261926    44 net.cpp:442] conv1/relu_7x7 -> conv1/7x7_s2 (in-place)
I0225 09:08:35.261932    44 net.cpp:190] Setting up conv1/relu_7x7
I0225 09:08:35.261935    44 net.cpp:197] Top shape: 1 64 256 512 (8388608)
I0225 09:08:35.261940    44 net.cpp:205] Memory required for data: 106954756
I0225 09:08:35.261942    44 layer_factory.hpp:123] Creating layer pool1/3x3_s2
I0225 09:08:35.261982    44 net.cpp:140] Creating Layer pool1/3x3_s2
I0225 09:08:35.261986    44 net.cpp:481] pool1/3x3_s2 <- conv1/7x7_s2
I0225 09:08:35.261991    44 net.cpp:455] pool1/3x3_s2 -> pool1/3x3_s2
I0225 09:08:35.262022    44 net.cpp:190] Setting up pool1/3x3_s2
I0225 09:08:35.262027    44 net.cpp:197] Top shape: 1 64 128 256 (2097152)
I0225 09:08:35.262032    44 net.cpp:205] Memory required for data: 115343364
I0225 09:08:35.262035    44 layer_factory.hpp:123] Creating layer conv2/3x3_reduce
I0225 09:08:35.262042    44 net.cpp:140] Creating Layer conv2/3x3_reduce
I0225 09:08:35.262046    44 net.cpp:481] conv2/3x3_reduce <- pool1/3x3_s2
I0225 09:08:35.262051    44 net.cpp:455] conv2/3x3_reduce -> conv2/3x3_reduce_raw
I0225 09:08:35.262337    44 net.cpp:190] Setting up conv2/3x3_reduce
I0225 09:08:35.262346    44 net.cpp:197] Top shape: 1 64 128 256 (2097152)
I0225 09:08:35.262359    44 net.cpp:205] Memory required for data: 123731972
I0225 09:08:35.262367    44 layer_factory.hpp:123] Creating layer conv2/3x3_reduce_BatchNorm
I0225 09:08:35.262374    44 net.cpp:140] Creating Layer conv2/3x3_reduce_BatchNorm
I0225 09:08:35.262378    44 net.cpp:481] conv2/3x3_reduce_BatchNorm <- conv2/3x3_reduce_raw
I0225 09:08:35.262384    44 net.cpp:455] conv2/3x3_reduce_BatchNorm -> conv2/3x3_reduce
I0225 09:08:35.263067    44 net.cpp:190] Setting up conv2/3x3_reduce_BatchNorm
I0225 09:08:35.263074    44 net.cpp:197] Top shape: 1 64 128 256 (2097152)
I0225 09:08:35.263079    44 net.cpp:205] Memory required for data: 132120580
I0225 09:08:35.263087    44 layer_factory.hpp:123] Creating layer conv2/relu_3x3_reduce
I0225 09:08:35.263092    44 net.cpp:140] Creating Layer conv2/relu_3x3_reduce
I0225 09:08:35.263098    44 net.cpp:481] conv2/relu_3x3_reduce <- conv2/3x3_reduce
I0225 09:08:35.263101    44 net.cpp:442] conv2/relu_3x3_reduce -> conv2/3x3_reduce (in-place)
I0225 09:08:35.263108    44 net.cpp:190] Setting up conv2/relu_3x3_reduce
I0225 09:08:35.263110    44 net.cpp:197] Top shape: 1 64 128 256 (2097152)
I0225 09:08:35.263114    44 net.cpp:205] Memory required for data: 140509188
I0225 09:08:35.263118    44 layer_factory.hpp:123] Creating layer conv2/3x3
I0225 09:08:35.263125    44 net.cpp:140] Creating Layer conv2/3x3
I0225 09:08:35.263128    44 net.cpp:481] conv2/3x3 <- conv2/3x3_reduce
I0225 09:08:35.263134    44 net.cpp:455] conv2/3x3 -> conv2/3x3_raw
I0225 09:08:35.265000    44 net.cpp:190] Setting up conv2/3x3
I0225 09:08:35.265012    44 net.cpp:197] Top shape: 1 192 128 256 (6291456)
I0225 09:08:35.265017    44 net.cpp:205] Memory required for data: 165675012
I0225 09:08:35.265023    44 layer_factory.hpp:123] Creating layer conv2/3x3_BatchNorm
I0225 09:08:35.265031    44 net.cpp:140] Creating Layer conv2/3x3_BatchNorm
I0225 09:08:35.265035    44 net.cpp:481] conv2/3x3_BatchNorm <- conv2/3x3_raw
I0225 09:08:35.265040    44 net.cpp:455] conv2/3x3_BatchNorm -> conv2/3x3
I0225 09:08:35.265568    44 net.cpp:190] Setting up conv2/3x3_BatchNorm
I0225 09:08:35.265578    44 net.cpp:197] Top shape: 1 192 128 256 (6291456)
I0225 09:08:35.265583    44 net.cpp:205] Memory required for data: 190840836
I0225 09:08:35.265591    44 layer_factory.hpp:123] Creating layer conv2/relu_3x3
I0225 09:08:35.265596    44 net.cpp:140] Creating Layer conv2/relu_3x3
I0225 09:08:35.265599    44 net.cpp:481] conv2/relu_3x3 <- conv2/3x3
I0225 09:08:35.265604    44 net.cpp:442] conv2/relu_3x3 -> conv2/3x3 (in-place)
I0225 09:08:35.265610    44 net.cpp:190] Setting up conv2/relu_3x3
I0225 09:08:35.265614    44 net.cpp:197] Top shape: 1 192 128 256 (6291456)
I0225 09:08:35.265617    44 net.cpp:205] Memory required for data: 216006660
I0225 09:08:35.265620    44 layer_factory.hpp:123] Creating layer conv2/3x3_conv2/relu_3x3_0_split
I0225 09:08:35.266336    44 net.cpp:140] Creating Layer conv2/3x3_conv2/relu_3x3_0_split
I0225 09:08:35.266343    44 net.cpp:481] conv2/3x3_conv2/relu_3x3_0_split <- conv2/3x3
I0225 09:08:35.266348    44 net.cpp:455] conv2/3x3_conv2/relu_3x3_0_split -> conv2/3x3_conv2/relu_3x3_0_split_0
I0225 09:08:35.266355    44 net.cpp:455] conv2/3x3_conv2/relu_3x3_0_split -> conv2/3x3_conv2/relu_3x3_0_split_1
I0225 09:08:35.266383    44 net.cpp:190] Setting up conv2/3x3_conv2/relu_3x3_0_split
I0225 09:08:35.266387    44 net.cpp:197] Top shape: 1 192 128 256 (6291456)
I0225 09:08:35.266392    44 net.cpp:197] Top shape: 1 192 128 256 (6291456)
I0225 09:08:35.266396    44 net.cpp:205] Memory required for data: 266338308
I0225 09:08:35.266399    44 layer_factory.hpp:123] Creating layer pool2/3x3_s2
I0225 09:08:35.266404    44 net.cpp:140] Creating Layer pool2/3x3_s2
I0225 09:08:35.266407    44 net.cpp:481] pool2/3x3_s2 <- conv2/3x3_conv2/relu_3x3_0_split_0
I0225 09:08:35.266412    44 net.cpp:455] pool2/3x3_s2 -> pool2/3x3_s2
I0225 09:08:35.266438    44 net.cpp:190] Setting up pool2/3x3_s2
I0225 09:08:35.266443    44 net.cpp:197] Top shape: 1 192 64 128 (1572864)
I0225 09:08:35.266448    44 net.cpp:205] Memory required for data: 272629764
I0225 09:08:35.266450    44 layer_factory.hpp:123] Creating layer pool2/3x3_s2_pool2/3x3_s2_0_split
I0225 09:08:35.266455    44 net.cpp:140] Creating Layer pool2/3x3_s2_pool2/3x3_s2_0_split
I0225 09:08:35.266458    44 net.cpp:481] pool2/3x3_s2_pool2/3x3_s2_0_split <- pool2/3x3_s2
I0225 09:08:35.266463    44 net.cpp:455] pool2/3x3_s2_pool2/3x3_s2_0_split -> pool2/3x3_s2_pool2/3x3_s2_0_split_0
I0225 09:08:35.266469    44 net.cpp:455] pool2/3x3_s2_pool2/3x3_s2_0_split -> pool2/3x3_s2_pool2/3x3_s2_0_split_1
I0225 09:08:35.266472    44 net.cpp:455] pool2/3x3_s2_pool2/3x3_s2_0_split -> pool2/3x3_s2_pool2/3x3_s2_0_split_2
I0225 09:08:35.266477    44 net.cpp:455] pool2/3x3_s2_pool2/3x3_s2_0_split -> pool2/3x3_s2_pool2/3x3_s2_0_split_3
I0225 09:08:35.266516    44 net.cpp:190] Setting up pool2/3x3_s2_pool2/3x3_s2_0_split
I0225 09:08:35.266521    44 net.cpp:197] Top shape: 1 192 64 128 (1572864)
I0225 09:08:35.266525    44 net.cpp:197] Top shape: 1 192 64 128 (1572864)
I0225 09:08:35.266530    44 net.cpp:197] Top shape: 1 192 64 128 (1572864)
I0225 09:08:35.266533    44 net.cpp:197] Top shape: 1 192 64 128 (1572864)
I0225 09:08:35.266537    44 net.cpp:205] Memory required for data: 297795588
I0225 09:08:35.266541    44 layer_factory.hpp:123] Creating layer inception_3a/1x1
I0225 09:08:35.266548    44 net.cpp:140] Creating Layer inception_3a/1x1
I0225 09:08:35.266551    44 net.cpp:481] inception_3a/1x1 <- pool2/3x3_s2_pool2/3x3_s2_0_split_0
I0225 09:08:35.266556    44 net.cpp:455] inception_3a/1x1 -> inception_3a/1x1_raw
I0225 09:08:35.266862    44 net.cpp:190] Setting up inception_3a/1x1
I0225 09:08:35.266870    44 net.cpp:197] Top shape: 1 64 64 128 (524288)
I0225 09:08:35.266875    44 net.cpp:205] Memory required for data: 299892740
I0225 09:08:35.266880    44 layer_factory.hpp:123] Creating layer inception_3a/1x1_BatchNorm
I0225 09:08:35.266887    44 net.cpp:140] Creating Layer inception_3a/1x1_BatchNorm
I0225 09:08:35.266891    44 net.cpp:481] inception_3a/1x1_BatchNorm <- inception_3a/1x1_raw
I0225 09:08:35.266896    44 net.cpp:455] inception_3a/1x1_BatchNorm -> inception_3a/1x1
I0225 09:08:35.267412    44 net.cpp:190] Setting up inception_3a/1x1_BatchNorm
I0225 09:08:35.267418    44 net.cpp:197] Top shape: 1 64 64 128 (524288)
I0225 09:08:35.267424    44 net.cpp:205] Memory required for data: 301989892
I0225 09:08:35.267431    44 layer_factory.hpp:123] Creating layer inception_3a/relu_1x1
I0225 09:08:35.267437    44 net.cpp:140] Creating Layer inception_3a/relu_1x1
I0225 09:08:35.267441    44 net.cpp:481] inception_3a/relu_1x1 <- inception_3a/1x1
I0225 09:08:35.267446    44 net.cpp:442] inception_3a/relu_1x1 -> inception_3a/1x1 (in-place)
I0225 09:08:35.267450    44 net.cpp:190] Setting up inception_3a/relu_1x1
I0225 09:08:35.267453    44 net.cpp:197] Top shape: 1 64 64 128 (524288)
I0225 09:08:35.267457    44 net.cpp:205] Memory required for data: 304087044
I0225 09:08:35.267460    44 layer_factory.hpp:123] Creating layer inception_3a/3x3_reduce
I0225 09:08:35.267467    44 net.cpp:140] Creating Layer inception_3a/3x3_reduce
I0225 09:08:35.267470    44 net.cpp:481] inception_3a/3x3_reduce <- pool2/3x3_s2_pool2/3x3_s2_0_split_1
I0225 09:08:35.267477    44 net.cpp:455] inception_3a/3x3_reduce -> inception_3a/3x3_reduce_raw
I0225 09:08:35.267833    44 net.cpp:190] Setting up inception_3a/3x3_reduce
I0225 09:08:35.267840    44 net.cpp:197] Top shape: 1 96 64 128 (786432)
I0225 09:08:35.267844    44 net.cpp:205] Memory required for data: 307232772
I0225 09:08:35.267850    44 layer_factory.hpp:123] Creating layer inception_3a/3x3_reduce_BatchNorm
I0225 09:08:35.267856    44 net.cpp:140] Creating Layer inception_3a/3x3_reduce_BatchNorm
I0225 09:08:35.267860    44 net.cpp:481] inception_3a/3x3_reduce_BatchNorm <- inception_3a/3x3_reduce_raw
I0225 09:08:35.267865    44 net.cpp:455] inception_3a/3x3_reduce_BatchNorm -> inception_3a/3x3_reduce
I0225 09:08:35.268430    44 net.cpp:190] Setting up inception_3a/3x3_reduce_BatchNorm
I0225 09:08:35.268440    44 net.cpp:197] Top shape: 1 96 64 128 (786432)
I0225 09:08:35.268445    44 net.cpp:205] Memory required for data: 310378500
I0225 09:08:35.268455    44 layer_factory.hpp:123] Creating layer inception_3a/relu_3x3_reduce
I0225 09:08:35.268461    44 net.cpp:140] Creating Layer inception_3a/relu_3x3_reduce
I0225 09:08:35.268465    44 net.cpp:481] inception_3a/relu_3x3_reduce <- inception_3a/3x3_reduce
I0225 09:08:35.268469    44 net.cpp:442] inception_3a/relu_3x3_reduce -> inception_3a/3x3_reduce (in-place)
I0225 09:08:35.268476    44 net.cpp:190] Setting up inception_3a/relu_3x3_reduce
I0225 09:08:35.268478    44 net.cpp:197] Top shape: 1 96 64 128 (786432)
I0225 09:08:35.268482    44 net.cpp:205] Memory required for data: 313524228
I0225 09:08:35.268486    44 layer_factory.hpp:123] Creating layer inception_3a/3x3
I0225 09:08:35.268499    44 net.cpp:140] Creating Layer inception_3a/3x3
I0225 09:08:35.268502    44 net.cpp:481] inception_3a/3x3 <- inception_3a/3x3_reduce
I0225 09:08:35.268507    44 net.cpp:455] inception_3a/3x3 -> inception_3a/3x3_raw
I0225 09:08:35.269646    44 net.cpp:190] Setting up inception_3a/3x3
I0225 09:08:35.269654    44 net.cpp:197] Top shape: 1 128 64 128 (1048576)
I0225 09:08:35.269659    44 net.cpp:205] Memory required for data: 317718532
I0225 09:08:35.269665    44 layer_factory.hpp:123] Creating layer inception_3a/3x3_BatchNorm
I0225 09:08:35.269671    44 net.cpp:140] Creating Layer inception_3a/3x3_BatchNorm
I0225 09:08:35.269675    44 net.cpp:481] inception_3a/3x3_BatchNorm <- inception_3a/3x3_raw
I0225 09:08:35.269680    44 net.cpp:455] inception_3a/3x3_BatchNorm -> inception_3a/3x3
I0225 09:08:35.270115    44 net.cpp:190] Setting up inception_3a/3x3_BatchNorm
I0225 09:08:35.270123    44 net.cpp:197] Top shape: 1 128 64 128 (1048576)
I0225 09:08:35.270128    44 net.cpp:205] Memory required for data: 321912836
I0225 09:08:35.270134    44 layer_factory.hpp:123] Creating layer inception_3a/relu_3x3
I0225 09:08:35.270139    44 net.cpp:140] Creating Layer inception_3a/relu_3x3
I0225 09:08:35.270143    44 net.cpp:481] inception_3a/relu_3x3 <- inception_3a/3x3
I0225 09:08:35.270148    44 net.cpp:442] inception_3a/relu_3x3 -> inception_3a/3x3 (in-place)
I0225 09:08:35.270153    44 net.cpp:190] Setting up inception_3a/relu_3x3
I0225 09:08:35.270155    44 net.cpp:197] Top shape: 1 128 64 128 (1048576)
I0225 09:08:35.270159    44 net.cpp:205] Memory required for data: 326107140
I0225 09:08:35.270162    44 layer_factory.hpp:123] Creating layer inception_3a/5x5_reduce
I0225 09:08:35.270169    44 net.cpp:140] Creating Layer inception_3a/5x5_reduce
I0225 09:08:35.270172    44 net.cpp:481] inception_3a/5x5_reduce <- pool2/3x3_s2_pool2/3x3_s2_0_split_2
I0225 09:08:35.270177    44 net.cpp:455] inception_3a/5x5_reduce -> inception_3a/5x5_reduce_raw
I0225 09:08:35.270401    44 net.cpp:190] Setting up inception_3a/5x5_reduce
I0225 09:08:35.270408    44 net.cpp:197] Top shape: 1 16 64 128 (131072)
I0225 09:08:35.270412    44 net.cpp:205] Memory required for data: 326631428
I0225 09:08:35.270418    44 layer_factory.hpp:123] Creating layer inception_3a/5x5_reduce_BatchNorm
I0225 09:08:35.270426    44 net.cpp:140] Creating Layer inception_3a/5x5_reduce_BatchNorm
I0225 09:08:35.270428    44 net.cpp:481] inception_3a/5x5_reduce_BatchNorm <- inception_3a/5x5_reduce_raw
I0225 09:08:35.270433    44 net.cpp:455] inception_3a/5x5_reduce_BatchNorm -> inception_3a/5x5_reduce
I0225 09:08:35.270936    44 net.cpp:190] Setting up inception_3a/5x5_reduce_BatchNorm
I0225 09:08:35.270942    44 net.cpp:197] Top shape: 1 16 64 128 (131072)
I0225 09:08:35.270946    44 net.cpp:205] Memory required for data: 327155716
I0225 09:08:35.270954    44 layer_factory.hpp:123] Creating layer inception_3a/relu_5x5_reduce
I0225 09:08:35.270959    44 net.cpp:140] Creating Layer inception_3a/relu_5x5_reduce
I0225 09:08:35.270962    44 net.cpp:481] inception_3a/relu_5x5_reduce <- inception_3a/5x5_reduce
I0225 09:08:35.270967    44 net.cpp:442] inception_3a/relu_5x5_reduce -> inception_3a/5x5_reduce (in-place)
I0225 09:08:35.270972    44 net.cpp:190] Setting up inception_3a/relu_5x5_reduce
I0225 09:08:35.270977    44 net.cpp:197] Top shape: 1 16 64 128 (131072)
I0225 09:08:35.270980    44 net.cpp:205] Memory required for data: 327680004
I0225 09:08:35.270983    44 layer_factory.hpp:123] Creating layer inception_3a/5x5
I0225 09:08:35.270990    44 net.cpp:140] Creating Layer inception_3a/5x5
I0225 09:08:35.270993    44 net.cpp:481] inception_3a/5x5 <- inception_3a/5x5_reduce
I0225 09:08:35.270998    44 net.cpp:455] inception_3a/5x5 -> inception_3a/5x5_raw
I0225 09:08:35.271968    44 net.cpp:190] Setting up inception_3a/5x5
I0225 09:08:35.271978    44 net.cpp:197] Top shape: 1 32 64 128 (262144)
I0225 09:08:35.271986    44 net.cpp:205] Memory required for data: 328728580
I0225 09:08:35.271991    44 layer_factory.hpp:123] Creating layer inception_3a/5x5_BatchNorm
I0225 09:08:35.271999    44 net.cpp:140] Creating Layer inception_3a/5x5_BatchNorm
I0225 09:08:35.272003    44 net.cpp:481] inception_3a/5x5_BatchNorm <- inception_3a/5x5_raw
I0225 09:08:35.272011    44 net.cpp:455] inception_3a/5x5_BatchNorm -> inception_3a/5x5
I0225 09:08:35.272572    44 net.cpp:190] Setting up inception_3a/5x5_BatchNorm
I0225 09:08:35.272579    44 net.cpp:197] Top shape: 1 32 64 128 (262144)
I0225 09:08:35.272585    44 net.cpp:205] Memory required for data: 329777156
I0225 09:08:35.272593    44 layer_factory.hpp:123] Creating layer inception_3a/relu_5x5
I0225 09:08:35.272599    44 net.cpp:140] Creating Layer inception_3a/relu_5x5
I0225 09:08:35.272603    44 net.cpp:481] inception_3a/relu_5x5 <- inception_3a/5x5
I0225 09:08:35.272608    44 net.cpp:442] inception_3a/relu_5x5 -> inception_3a/5x5 (in-place)
I0225 09:08:35.272614    44 net.cpp:190] Setting up inception_3a/relu_5x5
I0225 09:08:35.272616    44 net.cpp:197] Top shape: 1 32 64 128 (262144)
I0225 09:08:35.272620    44 net.cpp:205] Memory required for data: 330825732
I0225 09:08:35.272624    44 layer_factory.hpp:123] Creating layer inception_3a/pool
I0225 09:08:35.272629    44 net.cpp:140] Creating Layer inception_3a/pool
I0225 09:08:35.272632    44 net.cpp:481] inception_3a/pool <- pool2/3x3_s2_pool2/3x3_s2_0_split_3
I0225 09:08:35.272637    44 net.cpp:455] inception_3a/pool -> inception_3a/pool
I0225 09:08:35.272665    44 net.cpp:190] Setting up inception_3a/pool
I0225 09:08:35.272670    44 net.cpp:197] Top shape: 1 192 64 128 (1572864)
I0225 09:08:35.272675    44 net.cpp:205] Memory required for data: 337117188
I0225 09:08:35.272677    44 layer_factory.hpp:123] Creating layer inception_3a/pool_proj
I0225 09:08:35.272684    44 net.cpp:140] Creating Layer inception_3a/pool_proj
I0225 09:08:35.272687    44 net.cpp:481] inception_3a/pool_proj <- inception_3a/pool
I0225 09:08:35.272692    44 net.cpp:455] inception_3a/pool_proj -> inception_3a/pool_proj_raw
I0225 09:08:35.272958    44 net.cpp:190] Setting up inception_3a/pool_proj
I0225 09:08:35.272965    44 net.cpp:197] Top shape: 1 32 64 128 (262144)
I0225 09:08:35.272969    44 net.cpp:205] Memory required for data: 338165764
I0225 09:08:35.272975    44 layer_factory.hpp:123] Creating layer inception_3a/pool_proj_BatchNorm
I0225 09:08:35.272982    44 net.cpp:140] Creating Layer inception_3a/pool_proj_BatchNorm
I0225 09:08:35.272986    44 net.cpp:481] inception_3a/pool_proj_BatchNorm <- inception_3a/pool_proj_raw
I0225 09:08:35.272991    44 net.cpp:455] inception_3a/pool_proj_BatchNorm -> inception_3a/pool_proj
I0225 09:08:35.273504    44 net.cpp:190] Setting up inception_3a/pool_proj_BatchNorm
I0225 09:08:35.273511    44 net.cpp:197] Top shape: 1 32 64 128 (262144)
I0225 09:08:35.273516    44 net.cpp:205] Memory required for data: 339214340
I0225 09:08:35.273524    44 layer_factory.hpp:123] Creating layer inception_3a/relu_pool_proj
I0225 09:08:35.273530    44 net.cpp:140] Creating Layer inception_3a/relu_pool_proj
I0225 09:08:35.273533    44 net.cpp:481] inception_3a/relu_pool_proj <- inception_3a/pool_proj
I0225 09:08:35.273538    44 net.cpp:442] inception_3a/relu_pool_proj -> inception_3a/pool_proj (in-place)
I0225 09:08:35.273543    44 net.cpp:190] Setting up inception_3a/relu_pool_proj
I0225 09:08:35.273547    44 net.cpp:197] Top shape: 1 32 64 128 (262144)
I0225 09:08:35.273551    44 net.cpp:205] Memory required for data: 340262916
I0225 09:08:35.273555    44 layer_factory.hpp:123] Creating layer inception_3a/output
I0225 09:08:35.273562    44 net.cpp:140] Creating Layer inception_3a/output
I0225 09:08:35.273566    44 net.cpp:481] inception_3a/output <- inception_3a/1x1
I0225 09:08:35.273569    44 net.cpp:481] inception_3a/output <- inception_3a/3x3
I0225 09:08:35.273573    44 net.cpp:481] inception_3a/output <- inception_3a/5x5
I0225 09:08:35.273576    44 net.cpp:481] inception_3a/output <- inception_3a/pool_proj
I0225 09:08:35.273581    44 net.cpp:455] inception_3a/output -> inception_3a/output
I0225 09:08:35.273888    44 net.cpp:190] Setting up inception_3a/output
I0225 09:08:35.273898    44 net.cpp:197] Top shape: 1 256 64 128 (2097152)
I0225 09:08:35.273905    44 net.cpp:205] Memory required for data: 348651524
I0225 09:08:35.273907    44 layer_factory.hpp:123] Creating layer inception_3a/output_inception_3a/output_0_split
I0225 09:08:35.273913    44 net.cpp:140] Creating Layer inception_3a/output_inception_3a/output_0_split
I0225 09:08:35.273917    44 net.cpp:481] inception_3a/output_inception_3a/output_0_split <- inception_3a/output
I0225 09:08:35.273922    44 net.cpp:455] inception_3a/output_inception_3a/output_0_split -> inception_3a/output_inception_3a/output_0_split_0
I0225 09:08:35.273929    44 net.cpp:455] inception_3a/output_inception_3a/output_0_split -> inception_3a/output_inception_3a/output_0_split_1
I0225 09:08:35.273934    44 net.cpp:455] inception_3a/output_inception_3a/output_0_split -> inception_3a/output_inception_3a/output_0_split_2
I0225 09:08:35.273941    44 net.cpp:455] inception_3a/output_inception_3a/output_0_split -> inception_3a/output_inception_3a/output_0_split_3
I0225 09:08:35.273985    44 net.cpp:190] Setting up inception_3a/output_inception_3a/output_0_split
I0225 09:08:35.273990    44 net.cpp:197] Top shape: 1 256 64 128 (2097152)
I0225 09:08:35.273995    44 net.cpp:197] Top shape: 1 256 64 128 (2097152)
I0225 09:08:35.273999    44 net.cpp:197] Top shape: 1 256 64 128 (2097152)
I0225 09:08:35.274003    44 net.cpp:197] Top shape: 1 256 64 128 (2097152)
I0225 09:08:35.274008    44 net.cpp:205] Memory required for data: 382205956
I0225 09:08:35.274010    44 layer_factory.hpp:123] Creating layer inception_3b/1x1
I0225 09:08:35.274019    44 net.cpp:140] Creating Layer inception_3b/1x1
I0225 09:08:35.274021    44 net.cpp:481] inception_3b/1x1 <- inception_3a/output_inception_3a/output_0_split_0
I0225 09:08:35.274026    44 net.cpp:455] inception_3b/1x1 -> inception_3b/1x1_raw
I0225 09:08:35.274503    44 net.cpp:190] Setting up inception_3b/1x1
I0225 09:08:35.274509    44 net.cpp:197] Top shape: 1 128 64 128 (1048576)
I0225 09:08:35.274514    44 net.cpp:205] Memory required for data: 386400260
I0225 09:08:35.274523    44 layer_factory.hpp:123] Creating layer inception_3b/1x1_BatchNorm
I0225 09:08:35.274529    44 net.cpp:140] Creating Layer inception_3b/1x1_BatchNorm
I0225 09:08:35.274533    44 net.cpp:481] inception_3b/1x1_BatchNorm <- inception_3b/1x1_raw
I0225 09:08:35.274538    44 net.cpp:455] inception_3b/1x1_BatchNorm -> inception_3b/1x1
I0225 09:08:35.274981    44 net.cpp:190] Setting up inception_3b/1x1_BatchNorm
I0225 09:08:35.274989    44 net.cpp:197] Top shape: 1 128 64 128 (1048576)
I0225 09:08:35.274994    44 net.cpp:205] Memory required for data: 390594564
I0225 09:08:35.275003    44 layer_factory.hpp:123] Creating layer inception_3b/relu_1x1
I0225 09:08:35.275009    44 net.cpp:140] Creating Layer inception_3b/relu_1x1
I0225 09:08:35.275012    44 net.cpp:481] inception_3b/relu_1x1 <- inception_3b/1x1
I0225 09:08:35.275017    44 net.cpp:442] inception_3b/relu_1x1 -> inception_3b/1x1 (in-place)
I0225 09:08:35.275023    44 net.cpp:190] Setting up inception_3b/relu_1x1
I0225 09:08:35.275027    44 net.cpp:197] Top shape: 1 128 64 128 (1048576)
I0225 09:08:35.275030    44 net.cpp:205] Memory required for data: 394788868
I0225 09:08:35.275033    44 layer_factory.hpp:123] Creating layer inception_3b/3x3_reduce
I0225 09:08:35.275040    44 net.cpp:140] Creating Layer inception_3b/3x3_reduce
I0225 09:08:35.275043    44 net.cpp:481] inception_3b/3x3_reduce <- inception_3a/output_inception_3a/output_0_split_1
I0225 09:08:35.275049    44 net.cpp:455] inception_3b/3x3_reduce -> inception_3b/3x3_reduce_raw
I0225 09:08:35.275524    44 net.cpp:190] Setting up inception_3b/3x3_reduce
I0225 09:08:35.275530    44 net.cpp:197] Top shape: 1 128 64 128 (1048576)
I0225 09:08:35.275535    44 net.cpp:205] Memory required for data: 398983172
I0225 09:08:35.275540    44 layer_factory.hpp:123] Creating layer inception_3b/3x3_reduce_BatchNorm
I0225 09:08:35.275547    44 net.cpp:140] Creating Layer inception_3b/3x3_reduce_BatchNorm
I0225 09:08:35.275550    44 net.cpp:481] inception_3b/3x3_reduce_BatchNorm <- inception_3b/3x3_reduce_raw
I0225 09:08:35.275555    44 net.cpp:455] inception_3b/3x3_reduce_BatchNorm -> inception_3b/3x3_reduce
I0225 09:08:35.275993    44 net.cpp:190] Setting up inception_3b/3x3_reduce_BatchNorm
I0225 09:08:35.276000    44 net.cpp:197] Top shape: 1 128 64 128 (1048576)
I0225 09:08:35.276005    44 net.cpp:205] Memory required for data: 403177476
I0225 09:08:35.276011    44 layer_factory.hpp:123] Creating layer inception_3b/relu_3x3_reduce
I0225 09:08:35.276016    44 net.cpp:140] Creating Layer inception_3b/relu_3x3_reduce
I0225 09:08:35.276021    44 net.cpp:481] inception_3b/relu_3x3_reduce <- inception_3b/3x3_reduce
I0225 09:08:35.276024    44 net.cpp:442] inception_3b/relu_3x3_reduce -> inception_3b/3x3_reduce (in-place)
I0225 09:08:35.276029    44 net.cpp:190] Setting up inception_3b/relu_3x3_reduce
I0225 09:08:35.276032    44 net.cpp:197] Top shape: 1 128 64 128 (1048576)
I0225 09:08:35.276037    44 net.cpp:205] Memory required for data: 407371780
I0225 09:08:35.276041    44 layer_factory.hpp:123] Creating layer inception_3b/3x3
I0225 09:08:35.276047    44 net.cpp:140] Creating Layer inception_3b/3x3
I0225 09:08:35.276051    44 net.cpp:481] inception_3b/3x3 <- inception_3b/3x3_reduce
I0225 09:08:35.276055    44 net.cpp:455] inception_3b/3x3 -> inception_3b/3x3_raw
I0225 09:08:35.278827    44 net.cpp:190] Setting up inception_3b/3x3
I0225 09:08:35.278838    44 net.cpp:197] Top shape: 1 192 64 128 (1572864)
I0225 09:08:35.278843    44 net.cpp:205] Memory required for data: 413663236
I0225 09:08:35.278851    44 layer_factory.hpp:123] Creating layer inception_3b/3x3_BatchNorm
I0225 09:08:35.278858    44 net.cpp:140] Creating Layer inception_3b/3x3_BatchNorm
I0225 09:08:35.278862    44 net.cpp:481] inception_3b/3x3_BatchNorm <- inception_3b/3x3_raw
I0225 09:08:35.278867    44 net.cpp:455] inception_3b/3x3_BatchNorm -> inception_3b/3x3
I0225 09:08:35.279395    44 net.cpp:190] Setting up inception_3b/3x3_BatchNorm
I0225 09:08:35.279403    44 net.cpp:197] Top shape: 1 192 64 128 (1572864)
I0225 09:08:35.279408    44 net.cpp:205] Memory required for data: 419954692
I0225 09:08:35.279415    44 layer_factory.hpp:123] Creating layer inception_3b/relu_3x3
I0225 09:08:35.279420    44 net.cpp:140] Creating Layer inception_3b/relu_3x3
I0225 09:08:35.279424    44 net.cpp:481] inception_3b/relu_3x3 <- inception_3b/3x3
I0225 09:08:35.279428    44 net.cpp:442] inception_3b/relu_3x3 -> inception_3b/3x3 (in-place)
I0225 09:08:35.279434    44 net.cpp:190] Setting up inception_3b/relu_3x3
I0225 09:08:35.279438    44 net.cpp:197] Top shape: 1 192 64 128 (1572864)
I0225 09:08:35.279441    44 net.cpp:205] Memory required for data: 426246148
I0225 09:08:35.279444    44 layer_factory.hpp:123] Creating layer inception_3b/5x5_reduce
I0225 09:08:35.279453    44 net.cpp:140] Creating Layer inception_3b/5x5_reduce
I0225 09:08:35.279455    44 net.cpp:481] inception_3b/5x5_reduce <- inception_3a/output_inception_3a/output_0_split_2
I0225 09:08:35.279460    44 net.cpp:455] inception_3b/5x5_reduce -> inception_3b/5x5_reduce_raw
I0225 09:08:35.279739    44 net.cpp:190] Setting up inception_3b/5x5_reduce
I0225 09:08:35.279747    44 net.cpp:197] Top shape: 1 32 64 128 (262144)
I0225 09:08:35.279752    44 net.cpp:205] Memory required for data: 427294724
I0225 09:08:35.279757    44 layer_factory.hpp:123] Creating layer inception_3b/5x5_reduce_BatchNorm
I0225 09:08:35.279763    44 net.cpp:140] Creating Layer inception_3b/5x5_reduce_BatchNorm
I0225 09:08:35.279767    44 net.cpp:481] inception_3b/5x5_reduce_BatchNorm <- inception_3b/5x5_reduce_raw
I0225 09:08:35.279772    44 net.cpp:455] inception_3b/5x5_reduce_BatchNorm -> inception_3b/5x5_reduce
I0225 09:08:35.280308    44 net.cpp:190] Setting up inception_3b/5x5_reduce_BatchNorm
I0225 09:08:35.280315    44 net.cpp:197] Top shape: 1 32 64 128 (262144)
I0225 09:08:35.280319    44 net.cpp:205] Memory required for data: 428343300
I0225 09:08:35.280328    44 layer_factory.hpp:123] Creating layer inception_3b/relu_5x5_reduce
I0225 09:08:35.280333    44 net.cpp:140] Creating Layer inception_3b/relu_5x5_reduce
I0225 09:08:35.280335    44 net.cpp:481] inception_3b/relu_5x5_reduce <- inception_3b/5x5_reduce
I0225 09:08:35.280340    44 net.cpp:442] inception_3b/relu_5x5_reduce -> inception_3b/5x5_reduce (in-place)
I0225 09:08:35.280345    44 net.cpp:190] Setting up inception_3b/relu_5x5_reduce
I0225 09:08:35.280349    44 net.cpp:197] Top shape: 1 32 64 128 (262144)
I0225 09:08:35.280352    44 net.cpp:205] Memory required for data: 429391876
I0225 09:08:35.280355    44 layer_factory.hpp:123] Creating layer inception_3b/5x5
I0225 09:08:35.280362    44 net.cpp:140] Creating Layer inception_3b/5x5
I0225 09:08:35.280365    44 net.cpp:481] inception_3b/5x5 <- inception_3b/5x5_reduce
I0225 09:08:35.280370    44 net.cpp:455] inception_3b/5x5 -> inception_3b/5x5_raw
I0225 09:08:35.281251    44 net.cpp:190] Setting up inception_3b/5x5
I0225 09:08:35.281258    44 net.cpp:197] Top shape: 1 96 64 128 (786432)
I0225 09:08:35.281278    44 net.cpp:205] Memory required for data: 432537604
I0225 09:08:35.281285    44 layer_factory.hpp:123] Creating layer inception_3b/5x5_BatchNorm
I0225 09:08:35.281291    44 net.cpp:140] Creating Layer inception_3b/5x5_BatchNorm
I0225 09:08:35.281296    44 net.cpp:481] inception_3b/5x5_BatchNorm <- inception_3b/5x5_raw
I0225 09:08:35.281301    44 net.cpp:455] inception_3b/5x5_BatchNorm -> inception_3b/5x5
I0225 09:08:35.281816    44 net.cpp:190] Setting up inception_3b/5x5_BatchNorm
I0225 09:08:35.281822    44 net.cpp:197] Top shape: 1 96 64 128 (786432)
I0225 09:08:35.281827    44 net.cpp:205] Memory required for data: 435683332
I0225 09:08:35.281836    44 layer_factory.hpp:123] Creating layer inception_3b/relu_5x5
I0225 09:08:35.281841    44 net.cpp:140] Creating Layer inception_3b/relu_5x5
I0225 09:08:35.281843    44 net.cpp:481] inception_3b/relu_5x5 <- inception_3b/5x5
I0225 09:08:35.281847    44 net.cpp:442] inception_3b/relu_5x5 -> inception_3b/5x5 (in-place)
I0225 09:08:35.281857    44 net.cpp:190] Setting up inception_3b/relu_5x5
I0225 09:08:35.281859    44 net.cpp:197] Top shape: 1 96 64 128 (786432)
I0225 09:08:35.281864    44 net.cpp:205] Memory required for data: 438829060
I0225 09:08:35.281867    44 layer_factory.hpp:123] Creating layer inception_3b/pool
I0225 09:08:35.281873    44 net.cpp:140] Creating Layer inception_3b/pool
I0225 09:08:35.281877    44 net.cpp:481] inception_3b/pool <- inception_3a/output_inception_3a/output_0_split_3
I0225 09:08:35.281881    44 net.cpp:455] inception_3b/pool -> inception_3b/pool
I0225 09:08:35.281908    44 net.cpp:190] Setting up inception_3b/pool
I0225 09:08:35.281911    44 net.cpp:197] Top shape: 1 256 64 128 (2097152)
I0225 09:08:35.281916    44 net.cpp:205] Memory required for data: 447217668
I0225 09:08:35.281919    44 layer_factory.hpp:123] Creating layer inception_3b/pool_proj
I0225 09:08:35.281926    44 net.cpp:140] Creating Layer inception_3b/pool_proj
I0225 09:08:35.281929    44 net.cpp:481] inception_3b/pool_proj <- inception_3b/pool
I0225 09:08:35.281934    44 net.cpp:455] inception_3b/pool_proj -> inception_3b/pool_proj_raw
I0225 09:08:35.282274    44 net.cpp:190] Setting up inception_3b/pool_proj
I0225 09:08:35.282280    44 net.cpp:197] Top shape: 1 64 64 128 (524288)
I0225 09:08:35.282285    44 net.cpp:205] Memory required for data: 449314820
I0225 09:08:35.282290    44 layer_factory.hpp:123] Creating layer inception_3b/pool_proj_BatchNorm
I0225 09:08:35.282297    44 net.cpp:140] Creating Layer inception_3b/pool_proj_BatchNorm
I0225 09:08:35.282301    44 net.cpp:481] inception_3b/pool_proj_BatchNorm <- inception_3b/pool_proj_raw
I0225 09:08:35.282306    44 net.cpp:455] inception_3b/pool_proj_BatchNorm -> inception_3b/pool_proj
I0225 09:08:35.282821    44 net.cpp:190] Setting up inception_3b/pool_proj_BatchNorm
I0225 09:08:35.282829    44 net.cpp:197] Top shape: 1 64 64 128 (524288)
I0225 09:08:35.282833    44 net.cpp:205] Memory required for data: 451411972
I0225 09:08:35.282840    44 layer_factory.hpp:123] Creating layer inception_3b/relu_pool_proj
I0225 09:08:35.282845    44 net.cpp:140] Creating Layer inception_3b/relu_pool_proj
I0225 09:08:35.282848    44 net.cpp:481] inception_3b/relu_pool_proj <- inception_3b/pool_proj
I0225 09:08:35.282853    44 net.cpp:442] inception_3b/relu_pool_proj -> inception_3b/pool_proj (in-place)
I0225 09:08:35.282858    44 net.cpp:190] Setting up inception_3b/relu_pool_proj
I0225 09:08:35.282861    44 net.cpp:197] Top shape: 1 64 64 128 (524288)
I0225 09:08:35.282866    44 net.cpp:205] Memory required for data: 453509124
I0225 09:08:35.282868    44 layer_factory.hpp:123] Creating layer inception_3b/output
I0225 09:08:35.282873    44 net.cpp:140] Creating Layer inception_3b/output
I0225 09:08:35.282876    44 net.cpp:481] inception_3b/output <- inception_3b/1x1
I0225 09:08:35.282881    44 net.cpp:481] inception_3b/output <- inception_3b/3x3
I0225 09:08:35.282883    44 net.cpp:481] inception_3b/output <- inception_3b/5x5
I0225 09:08:35.282886    44 net.cpp:481] inception_3b/output <- inception_3b/pool_proj
I0225 09:08:35.282891    44 net.cpp:455] inception_3b/output -> inception_3b/output
I0225 09:08:35.282908    44 net.cpp:190] Setting up inception_3b/output
I0225 09:08:35.282912    44 net.cpp:197] Top shape: 1 480 64 128 (3932160)
I0225 09:08:35.282915    44 net.cpp:205] Memory required for data: 469237764
I0225 09:08:35.282919    44 layer_factory.hpp:123] Creating layer inception_3b/output_inception_3b/output_0_split
I0225 09:08:35.282923    44 net.cpp:140] Creating Layer inception_3b/output_inception_3b/output_0_split
I0225 09:08:35.282927    44 net.cpp:481] inception_3b/output_inception_3b/output_0_split <- inception_3b/output
I0225 09:08:35.282932    44 net.cpp:455] inception_3b/output_inception_3b/output_0_split -> inception_3b/output_inception_3b/output_0_split_0
I0225 09:08:35.282936    44 net.cpp:455] inception_3b/output_inception_3b/output_0_split -> inception_3b/output_inception_3b/output_0_split_1
I0225 09:08:35.282960    44 net.cpp:190] Setting up inception_3b/output_inception_3b/output_0_split
I0225 09:08:35.282965    44 net.cpp:197] Top shape: 1 480 64 128 (3932160)
I0225 09:08:35.282969    44 net.cpp:197] Top shape: 1 480 64 128 (3932160)
I0225 09:08:35.282974    44 net.cpp:205] Memory required for data: 500695044
I0225 09:08:35.282976    44 layer_factory.hpp:123] Creating layer pool3/3x3_s2
I0225 09:08:35.282982    44 net.cpp:140] Creating Layer pool3/3x3_s2
I0225 09:08:35.282985    44 net.cpp:481] pool3/3x3_s2 <- inception_3b/output_inception_3b/output_0_split_0
I0225 09:08:35.282990    44 net.cpp:455] pool3/3x3_s2 -> pool3/3x3_s2
I0225 09:08:35.283015    44 net.cpp:190] Setting up pool3/3x3_s2
I0225 09:08:35.283020    44 net.cpp:197] Top shape: 1 480 32 64 (983040)
I0225 09:08:35.283025    44 net.cpp:205] Memory required for data: 504627204
I0225 09:08:35.283027    44 layer_factory.hpp:123] Creating layer pool3/3x3_s2_pool3/3x3_s2_0_split
I0225 09:08:35.283032    44 net.cpp:140] Creating Layer pool3/3x3_s2_pool3/3x3_s2_0_split
I0225 09:08:35.283035    44 net.cpp:481] pool3/3x3_s2_pool3/3x3_s2_0_split <- pool3/3x3_s2
I0225 09:08:35.283040    44 net.cpp:455] pool3/3x3_s2_pool3/3x3_s2_0_split -> pool3/3x3_s2_pool3/3x3_s2_0_split_0
I0225 09:08:35.283044    44 net.cpp:455] pool3/3x3_s2_pool3/3x3_s2_0_split -> pool3/3x3_s2_pool3/3x3_s2_0_split_1
I0225 09:08:35.283049    44 net.cpp:455] pool3/3x3_s2_pool3/3x3_s2_0_split -> pool3/3x3_s2_pool3/3x3_s2_0_split_2
I0225 09:08:35.283054    44 net.cpp:455] pool3/3x3_s2_pool3/3x3_s2_0_split -> pool3/3x3_s2_pool3/3x3_s2_0_split_3
I0225 09:08:35.283094    44 net.cpp:190] Setting up pool3/3x3_s2_pool3/3x3_s2_0_split
I0225 09:08:35.283099    44 net.cpp:197] Top shape: 1 480 32 64 (983040)
I0225 09:08:35.283104    44 net.cpp:197] Top shape: 1 480 32 64 (983040)
I0225 09:08:35.283108    44 net.cpp:197] Top shape: 1 480 32 64 (983040)
I0225 09:08:35.283113    44 net.cpp:197] Top shape: 1 480 32 64 (983040)
I0225 09:08:35.283115    44 net.cpp:205] Memory required for data: 520355844
I0225 09:08:35.283119    44 layer_factory.hpp:123] Creating layer inception_4a/1x1
I0225 09:08:35.283126    44 net.cpp:140] Creating Layer inception_4a/1x1
I0225 09:08:35.283129    44 net.cpp:481] inception_4a/1x1 <- pool3/3x3_s2_pool3/3x3_s2_0_split_0
I0225 09:08:35.283134    44 net.cpp:455] inception_4a/1x1 -> inception_4a/1x1_raw
I0225 09:08:35.284767    44 net.cpp:190] Setting up inception_4a/1x1
I0225 09:08:35.284777    44 net.cpp:197] Top shape: 1 192 32 64 (393216)
I0225 09:08:35.284783    44 net.cpp:205] Memory required for data: 521928708
I0225 09:08:35.284790    44 layer_factory.hpp:123] Creating layer inception_4a/1x1_BatchNorm
I0225 09:08:35.284796    44 net.cpp:140] Creating Layer inception_4a/1x1_BatchNorm
I0225 09:08:35.284801    44 net.cpp:481] inception_4a/1x1_BatchNorm <- inception_4a/1x1_raw
I0225 09:08:35.284806    44 net.cpp:455] inception_4a/1x1_BatchNorm -> inception_4a/1x1
I0225 09:08:35.285324    44 net.cpp:190] Setting up inception_4a/1x1_BatchNorm
I0225 09:08:35.285331    44 net.cpp:197] Top shape: 1 192 32 64 (393216)
I0225 09:08:35.285336    44 net.cpp:205] Memory required for data: 523501572
I0225 09:08:35.285344    44 layer_factory.hpp:123] Creating layer inception_4a/relu_1x1
I0225 09:08:35.285349    44 net.cpp:140] Creating Layer inception_4a/relu_1x1
I0225 09:08:35.285352    44 net.cpp:481] inception_4a/relu_1x1 <- inception_4a/1x1
I0225 09:08:35.285357    44 net.cpp:442] inception_4a/relu_1x1 -> inception_4a/1x1 (in-place)
I0225 09:08:35.285362    44 net.cpp:190] Setting up inception_4a/relu_1x1
I0225 09:08:35.285365    44 net.cpp:197] Top shape: 1 192 32 64 (393216)
I0225 09:08:35.285369    44 net.cpp:205] Memory required for data: 525074436
I0225 09:08:35.285372    44 layer_factory.hpp:123] Creating layer inception_4a/3x3_reduce
I0225 09:08:35.285380    44 net.cpp:140] Creating Layer inception_4a/3x3_reduce
I0225 09:08:35.285383    44 net.cpp:481] inception_4a/3x3_reduce <- pool3/3x3_s2_pool3/3x3_s2_0_split_1
I0225 09:08:35.285388    44 net.cpp:455] inception_4a/3x3_reduce -> inception_4a/3x3_reduce_raw
I0225 09:08:35.285995    44 net.cpp:190] Setting up inception_4a/3x3_reduce
I0225 09:08:35.286001    44 net.cpp:197] Top shape: 1 96 32 64 (196608)
I0225 09:08:35.286006    44 net.cpp:205] Memory required for data: 525860868
I0225 09:08:35.286011    44 layer_factory.hpp:123] Creating layer inception_4a/3x3_reduce_BatchNorm
I0225 09:08:35.286018    44 net.cpp:140] Creating Layer inception_4a/3x3_reduce_BatchNorm
I0225 09:08:35.286022    44 net.cpp:481] inception_4a/3x3_reduce_BatchNorm <- inception_4a/3x3_reduce_raw
I0225 09:08:35.286027    44 net.cpp:455] inception_4a/3x3_reduce_BatchNorm -> inception_4a/3x3_reduce
I0225 09:08:35.286569    44 net.cpp:190] Setting up inception_4a/3x3_reduce_BatchNorm
I0225 09:08:35.286581    44 net.cpp:197] Top shape: 1 96 32 64 (196608)
I0225 09:08:35.286586    44 net.cpp:205] Memory required for data: 526647300
I0225 09:08:35.286598    44 layer_factory.hpp:123] Creating layer inception_4a/relu_3x3_reduce
I0225 09:08:35.286607    44 net.cpp:140] Creating Layer inception_4a/relu_3x3_reduce
I0225 09:08:35.286612    44 net.cpp:481] inception_4a/relu_3x3_reduce <- inception_4a/3x3_reduce
I0225 09:08:35.286620    44 net.cpp:442] inception_4a/relu_3x3_reduce -> inception_4a/3x3_reduce (in-place)
I0225 09:08:35.286628    44 net.cpp:190] Setting up inception_4a/relu_3x3_reduce
I0225 09:08:35.286633    44 net.cpp:197] Top shape: 1 96 32 64 (196608)
I0225 09:08:35.286640    44 net.cpp:205] Memory required for data: 527433732
I0225 09:08:35.286645    44 layer_factory.hpp:123] Creating layer inception_4a/3x3
I0225 09:08:35.286659    44 net.cpp:140] Creating Layer inception_4a/3x3
I0225 09:08:35.286664    44 net.cpp:481] inception_4a/3x3 <- inception_4a/3x3_reduce
I0225 09:08:35.286669    44 net.cpp:455] inception_4a/3x3 -> inception_4a/3x3_raw
I0225 09:08:35.289146    44 net.cpp:190] Setting up inception_4a/3x3
I0225 09:08:35.289156    44 net.cpp:197] Top shape: 1 208 32 64 (425984)
I0225 09:08:35.289177    44 net.cpp:205] Memory required for data: 529137668
I0225 09:08:35.289183    44 layer_factory.hpp:123] Creating layer inception_4a/3x3_BatchNorm
I0225 09:08:35.289191    44 net.cpp:140] Creating Layer inception_4a/3x3_BatchNorm
I0225 09:08:35.289196    44 net.cpp:481] inception_4a/3x3_BatchNorm <- inception_4a/3x3_raw
I0225 09:08:35.289202    44 net.cpp:455] inception_4a/3x3_BatchNorm -> inception_4a/3x3
I0225 09:08:35.289736    44 net.cpp:190] Setting up inception_4a/3x3_BatchNorm
I0225 09:08:35.289744    44 net.cpp:197] Top shape: 1 208 32 64 (425984)
I0225 09:08:35.289749    44 net.cpp:205] Memory required for data: 530841604
I0225 09:08:35.289757    44 layer_factory.hpp:123] Creating layer inception_4a/relu_3x3
I0225 09:08:35.289762    44 net.cpp:140] Creating Layer inception_4a/relu_3x3
I0225 09:08:35.289767    44 net.cpp:481] inception_4a/relu_3x3 <- inception_4a/3x3
I0225 09:08:35.289770    44 net.cpp:442] inception_4a/relu_3x3 -> inception_4a/3x3 (in-place)
I0225 09:08:35.289777    44 net.cpp:190] Setting up inception_4a/relu_3x3
I0225 09:08:35.289779    44 net.cpp:197] Top shape: 1 208 32 64 (425984)
I0225 09:08:35.289783    44 net.cpp:205] Memory required for data: 532545540
I0225 09:08:35.289786    44 layer_factory.hpp:123] Creating layer inception_4a/5x5_reduce
I0225 09:08:35.289793    44 net.cpp:140] Creating Layer inception_4a/5x5_reduce
I0225 09:08:35.289798    44 net.cpp:481] inception_4a/5x5_reduce <- pool3/3x3_s2_pool3/3x3_s2_0_split_2
I0225 09:08:35.289803    44 net.cpp:455] inception_4a/5x5_reduce -> inception_4a/5x5_reduce_raw
I0225 09:08:35.290074    44 net.cpp:190] Setting up inception_4a/5x5_reduce
I0225 09:08:35.290081    44 net.cpp:197] Top shape: 1 16 32 64 (32768)
I0225 09:08:35.290086    44 net.cpp:205] Memory required for data: 532676612
I0225 09:08:35.290091    44 layer_factory.hpp:123] Creating layer inception_4a/5x5_reduce_BatchNorm
I0225 09:08:35.290098    44 net.cpp:140] Creating Layer inception_4a/5x5_reduce_BatchNorm
I0225 09:08:35.290102    44 net.cpp:481] inception_4a/5x5_reduce_BatchNorm <- inception_4a/5x5_reduce_raw
I0225 09:08:35.290107    44 net.cpp:455] inception_4a/5x5_reduce_BatchNorm -> inception_4a/5x5_reduce
I0225 09:08:35.290632    44 net.cpp:190] Setting up inception_4a/5x5_reduce_BatchNorm
I0225 09:08:35.290638    44 net.cpp:197] Top shape: 1 16 32 64 (32768)
I0225 09:08:35.290643    44 net.cpp:205] Memory required for data: 532807684
I0225 09:08:35.290655    44 layer_factory.hpp:123] Creating layer inception_4a/relu_5x5_reduce
I0225 09:08:35.290660    44 net.cpp:140] Creating Layer inception_4a/relu_5x5_reduce
I0225 09:08:35.290664    44 net.cpp:481] inception_4a/relu_5x5_reduce <- inception_4a/5x5_reduce
I0225 09:08:35.290668    44 net.cpp:442] inception_4a/relu_5x5_reduce -> inception_4a/5x5_reduce (in-place)
I0225 09:08:35.290674    44 net.cpp:190] Setting up inception_4a/relu_5x5_reduce
I0225 09:08:35.290678    44 net.cpp:197] Top shape: 1 16 32 64 (32768)
I0225 09:08:35.290681    44 net.cpp:205] Memory required for data: 532938756
I0225 09:08:35.290684    44 layer_factory.hpp:123] Creating layer inception_4a/5x5
I0225 09:08:35.290690    44 net.cpp:140] Creating Layer inception_4a/5x5
I0225 09:08:35.290693    44 net.cpp:481] inception_4a/5x5 <- inception_4a/5x5_reduce
I0225 09:08:35.290699    44 net.cpp:455] inception_4a/5x5 -> inception_4a/5x5_raw
I0225 09:08:35.291069    44 net.cpp:190] Setting up inception_4a/5x5
I0225 09:08:35.291076    44 net.cpp:197] Top shape: 1 48 32 64 (98304)
I0225 09:08:35.291081    44 net.cpp:205] Memory required for data: 533331972
I0225 09:08:35.291086    44 layer_factory.hpp:123] Creating layer inception_4a/5x5_BatchNorm
I0225 09:08:35.291092    44 net.cpp:140] Creating Layer inception_4a/5x5_BatchNorm
I0225 09:08:35.291096    44 net.cpp:481] inception_4a/5x5_BatchNorm <- inception_4a/5x5_raw
I0225 09:08:35.291101    44 net.cpp:455] inception_4a/5x5_BatchNorm -> inception_4a/5x5
I0225 09:08:35.291628    44 net.cpp:190] Setting up inception_4a/5x5_BatchNorm
I0225 09:08:35.291635    44 net.cpp:197] Top shape: 1 48 32 64 (98304)
I0225 09:08:35.291640    44 net.cpp:205] Memory required for data: 533725188
I0225 09:08:35.291647    44 layer_factory.hpp:123] Creating layer inception_4a/relu_5x5
I0225 09:08:35.291652    44 net.cpp:140] Creating Layer inception_4a/relu_5x5
I0225 09:08:35.291656    44 net.cpp:481] inception_4a/relu_5x5 <- inception_4a/5x5
I0225 09:08:35.291659    44 net.cpp:442] inception_4a/relu_5x5 -> inception_4a/5x5 (in-place)
I0225 09:08:35.291666    44 net.cpp:190] Setting up inception_4a/relu_5x5
I0225 09:08:35.291668    44 net.cpp:197] Top shape: 1 48 32 64 (98304)
I0225 09:08:35.291672    44 net.cpp:205] Memory required for data: 534118404
I0225 09:08:35.291676    44 layer_factory.hpp:123] Creating layer inception_4a/pool
I0225 09:08:35.291680    44 net.cpp:140] Creating Layer inception_4a/pool
I0225 09:08:35.291684    44 net.cpp:481] inception_4a/pool <- pool3/3x3_s2_pool3/3x3_s2_0_split_3
I0225 09:08:35.291688    44 net.cpp:455] inception_4a/pool -> inception_4a/pool
I0225 09:08:35.291715    44 net.cpp:190] Setting up inception_4a/pool
I0225 09:08:35.291719    44 net.cpp:197] Top shape: 1 480 32 64 (983040)
I0225 09:08:35.291723    44 net.cpp:205] Memory required for data: 538050564
I0225 09:08:35.291726    44 layer_factory.hpp:123] Creating layer inception_4a/pool_proj
I0225 09:08:35.291733    44 net.cpp:140] Creating Layer inception_4a/pool_proj
I0225 09:08:35.291736    44 net.cpp:481] inception_4a/pool_proj <- inception_4a/pool
I0225 09:08:35.291741    44 net.cpp:455] inception_4a/pool_proj -> inception_4a/pool_proj_raw
I0225 09:08:35.292212    44 net.cpp:190] Setting up inception_4a/pool_proj
I0225 09:08:35.292218    44 net.cpp:197] Top shape: 1 64 32 64 (131072)
I0225 09:08:35.292223    44 net.cpp:205] Memory required for data: 538574852
I0225 09:08:35.292228    44 layer_factory.hpp:123] Creating layer inception_4a/pool_proj_BatchNorm
I0225 09:08:35.292235    44 net.cpp:140] Creating Layer inception_4a/pool_proj_BatchNorm
I0225 09:08:35.292238    44 net.cpp:481] inception_4a/pool_proj_BatchNorm <- inception_4a/pool_proj_raw
I0225 09:08:35.292243    44 net.cpp:455] inception_4a/pool_proj_BatchNorm -> inception_4a/pool_proj
I0225 09:08:35.292779    44 net.cpp:190] Setting up inception_4a/pool_proj_BatchNorm
I0225 09:08:35.292786    44 net.cpp:197] Top shape: 1 64 32 64 (131072)
I0225 09:08:35.292791    44 net.cpp:205] Memory required for data: 539099140
I0225 09:08:35.292798    44 layer_factory.hpp:123] Creating layer inception_4a/relu_pool_proj
I0225 09:08:35.292804    44 net.cpp:140] Creating Layer inception_4a/relu_pool_proj
I0225 09:08:35.292807    44 net.cpp:481] inception_4a/relu_pool_proj <- inception_4a/pool_proj
I0225 09:08:35.292812    44 net.cpp:442] inception_4a/relu_pool_proj -> inception_4a/pool_proj (in-place)
I0225 09:08:35.292817    44 net.cpp:190] Setting up inception_4a/relu_pool_proj
I0225 09:08:35.292820    44 net.cpp:197] Top shape: 1 64 32 64 (131072)
I0225 09:08:35.292824    44 net.cpp:205] Memory required for data: 539623428
I0225 09:08:35.292827    44 layer_factory.hpp:123] Creating layer inception_4a/output
I0225 09:08:35.292832    44 net.cpp:140] Creating Layer inception_4a/output
I0225 09:08:35.292835    44 net.cpp:481] inception_4a/output <- inception_4a/1x1
I0225 09:08:35.292840    44 net.cpp:481] inception_4a/output <- inception_4a/3x3
I0225 09:08:35.292842    44 net.cpp:481] inception_4a/output <- inception_4a/5x5
I0225 09:08:35.292846    44 net.cpp:481] inception_4a/output <- inception_4a/pool_proj
I0225 09:08:35.292850    44 net.cpp:455] inception_4a/output -> inception_4a/output
I0225 09:08:35.292873    44 net.cpp:190] Setting up inception_4a/output
I0225 09:08:35.292876    44 net.cpp:197] Top shape: 1 512 32 64 (1048576)
I0225 09:08:35.292881    44 net.cpp:205] Memory required for data: 543817732
I0225 09:08:35.292884    44 layer_factory.hpp:123] Creating layer inception_4a/output_inception_4a/output_0_split
I0225 09:08:35.292889    44 net.cpp:140] Creating Layer inception_4a/output_inception_4a/output_0_split
I0225 09:08:35.292892    44 net.cpp:481] inception_4a/output_inception_4a/output_0_split <- inception_4a/output
I0225 09:08:35.292896    44 net.cpp:455] inception_4a/output_inception_4a/output_0_split -> inception_4a/output_inception_4a/output_0_split_0
I0225 09:08:35.292902    44 net.cpp:455] inception_4a/output_inception_4a/output_0_split -> inception_4a/output_inception_4a/output_0_split_1
I0225 09:08:35.292907    44 net.cpp:455] inception_4a/output_inception_4a/output_0_split -> inception_4a/output_inception_4a/output_0_split_2
I0225 09:08:35.292912    44 net.cpp:455] inception_4a/output_inception_4a/output_0_split -> inception_4a/output_inception_4a/output_0_split_3
I0225 09:08:35.292956    44 net.cpp:190] Setting up inception_4a/output_inception_4a/output_0_split
I0225 09:08:35.292963    44 net.cpp:197] Top shape: 1 512 32 64 (1048576)
I0225 09:08:35.292966    44 net.cpp:197] Top shape: 1 512 32 64 (1048576)
I0225 09:08:35.292970    44 net.cpp:197] Top shape: 1 512 32 64 (1048576)
I0225 09:08:35.292974    44 net.cpp:197] Top shape: 1 512 32 64 (1048576)
I0225 09:08:35.292979    44 net.cpp:205] Memory required for data: 560594948
I0225 09:08:35.292981    44 layer_factory.hpp:123] Creating layer inception_4b/1x1
I0225 09:08:35.292989    44 net.cpp:140] Creating Layer inception_4b/1x1
I0225 09:08:35.292992    44 net.cpp:481] inception_4b/1x1 <- inception_4a/output_inception_4a/output_0_split_0
I0225 09:08:35.292996    44 net.cpp:455] inception_4b/1x1 -> inception_4b/1x1_raw
I0225 09:08:35.293902    44 net.cpp:190] Setting up inception_4b/1x1
I0225 09:08:35.293910    44 net.cpp:197] Top shape: 1 160 32 64 (327680)
I0225 09:08:35.293915    44 net.cpp:205] Memory required for data: 561905668
I0225 09:08:35.293920    44 layer_factory.hpp:123] Creating layer inception_4b/1x1_BatchNorm
I0225 09:08:35.293926    44 net.cpp:140] Creating Layer inception_4b/1x1_BatchNorm
I0225 09:08:35.293929    44 net.cpp:481] inception_4b/1x1_BatchNorm <- inception_4b/1x1_raw
I0225 09:08:35.293934    44 net.cpp:455] inception_4b/1x1_BatchNorm -> inception_4b/1x1
I0225 09:08:35.294454    44 net.cpp:190] Setting up inception_4b/1x1_BatchNorm
I0225 09:08:35.294461    44 net.cpp:197] Top shape: 1 160 32 64 (327680)
I0225 09:08:35.294466    44 net.cpp:205] Memory required for data: 563216388
I0225 09:08:35.294472    44 layer_factory.hpp:123] Creating layer inception_4b/relu_1x1
I0225 09:08:35.294478    44 net.cpp:140] Creating Layer inception_4b/relu_1x1
I0225 09:08:35.294481    44 net.cpp:481] inception_4b/relu_1x1 <- inception_4b/1x1
I0225 09:08:35.294486    44 net.cpp:442] inception_4b/relu_1x1 -> inception_4b/1x1 (in-place)
I0225 09:08:35.294492    44 net.cpp:190] Setting up inception_4b/relu_1x1
I0225 09:08:35.294494    44 net.cpp:197] Top shape: 1 160 32 64 (327680)
I0225 09:08:35.294498    44 net.cpp:205] Memory required for data: 564527108
I0225 09:08:35.294502    44 layer_factory.hpp:123] Creating layer inception_4b/3x3_reduce
I0225 09:08:35.294508    44 net.cpp:140] Creating Layer inception_4b/3x3_reduce
I0225 09:08:35.294512    44 net.cpp:481] inception_4b/3x3_reduce <- inception_4a/output_inception_4a/output_0_split_1
I0225 09:08:35.294517    44 net.cpp:455] inception_4b/3x3_reduce -> inception_4b/3x3_reduce_raw
I0225 09:08:35.295881    44 net.cpp:190] Setting up inception_4b/3x3_reduce
I0225 09:08:35.295891    44 net.cpp:197] Top shape: 1 112 32 64 (229376)
I0225 09:08:35.295895    44 net.cpp:205] Memory required for data: 565444612
I0225 09:08:35.295902    44 layer_factory.hpp:123] Creating layer inception_4b/3x3_reduce_BatchNorm
I0225 09:08:35.295910    44 net.cpp:140] Creating Layer inception_4b/3x3_reduce_BatchNorm
I0225 09:08:35.295914    44 net.cpp:481] inception_4b/3x3_reduce_BatchNorm <- inception_4b/3x3_reduce_raw
I0225 09:08:35.295920    44 net.cpp:455] inception_4b/3x3_reduce_BatchNorm -> inception_4b/3x3_reduce
I0225 09:08:35.296466    44 net.cpp:190] Setting up inception_4b/3x3_reduce_BatchNorm
I0225 09:08:35.296473    44 net.cpp:197] Top shape: 1 112 32 64 (229376)
I0225 09:08:35.296478    44 net.cpp:205] Memory required for data: 566362116
I0225 09:08:35.296486    44 layer_factory.hpp:123] Creating layer inception_4b/relu_3x3_reduce
I0225 09:08:35.296491    44 net.cpp:140] Creating Layer inception_4b/relu_3x3_reduce
I0225 09:08:35.296494    44 net.cpp:481] inception_4b/relu_3x3_reduce <- inception_4b/3x3_reduce
I0225 09:08:35.296499    44 net.cpp:442] inception_4b/relu_3x3_reduce -> inception_4b/3x3_reduce (in-place)
I0225 09:08:35.296505    44 net.cpp:190] Setting up inception_4b/relu_3x3_reduce
I0225 09:08:35.296509    44 net.cpp:197] Top shape: 1 112 32 64 (229376)
I0225 09:08:35.296512    44 net.cpp:205] Memory required for data: 567279620
I0225 09:08:35.296515    44 layer_factory.hpp:123] Creating layer inception_4b/3x3
I0225 09:08:35.296522    44 net.cpp:140] Creating Layer inception_4b/3x3
I0225 09:08:35.296525    44 net.cpp:481] inception_4b/3x3 <- inception_4b/3x3_reduce
I0225 09:08:35.296530    44 net.cpp:455] inception_4b/3x3 -> inception_4b/3x3_raw
I0225 09:08:35.298629    44 net.cpp:190] Setting up inception_4b/3x3
I0225 09:08:35.298636    44 net.cpp:197] Top shape: 1 224 32 64 (458752)
I0225 09:08:35.298651    44 net.cpp:205] Memory required for data: 569114628
I0225 09:08:35.298657    44 layer_factory.hpp:123] Creating layer inception_4b/3x3_BatchNorm
I0225 09:08:35.298665    44 net.cpp:140] Creating Layer inception_4b/3x3_BatchNorm
I0225 09:08:35.298668    44 net.cpp:481] inception_4b/3x3_BatchNorm <- inception_4b/3x3_raw
I0225 09:08:35.298674    44 net.cpp:455] inception_4b/3x3_BatchNorm -> inception_4b/3x3
I0225 09:08:35.299208    44 net.cpp:190] Setting up inception_4b/3x3_BatchNorm
I0225 09:08:35.299216    44 net.cpp:197] Top shape: 1 224 32 64 (458752)
I0225 09:08:35.299221    44 net.cpp:205] Memory required for data: 570949636
I0225 09:08:35.299227    44 layer_factory.hpp:123] Creating layer inception_4b/relu_3x3
I0225 09:08:35.299232    44 net.cpp:140] Creating Layer inception_4b/relu_3x3
I0225 09:08:35.299237    44 net.cpp:481] inception_4b/relu_3x3 <- inception_4b/3x3
I0225 09:08:35.299240    44 net.cpp:442] inception_4b/relu_3x3 -> inception_4b/3x3 (in-place)
I0225 09:08:35.299245    44 net.cpp:190] Setting up inception_4b/relu_3x3
I0225 09:08:35.299248    44 net.cpp:197] Top shape: 1 224 32 64 (458752)
I0225 09:08:35.299252    44 net.cpp:205] Memory required for data: 572784644
I0225 09:08:35.299255    44 layer_factory.hpp:123] Creating layer inception_4b/5x5_reduce
I0225 09:08:35.299263    44 net.cpp:140] Creating Layer inception_4b/5x5_reduce
I0225 09:08:35.299266    44 net.cpp:481] inception_4b/5x5_reduce <- inception_4a/output_inception_4a/output_0_split_2
I0225 09:08:35.299271    44 net.cpp:455] inception_4b/5x5_reduce -> inception_4b/5x5_reduce_raw
I0225 09:08:35.299593    44 net.cpp:190] Setting up inception_4b/5x5_reduce
I0225 09:08:35.299600    44 net.cpp:197] Top shape: 1 24 32 64 (49152)
I0225 09:08:35.299605    44 net.cpp:205] Memory required for data: 572981252
I0225 09:08:35.299612    44 layer_factory.hpp:123] Creating layer inception_4b/5x5_reduce_BatchNorm
I0225 09:08:35.299618    44 net.cpp:140] Creating Layer inception_4b/5x5_reduce_BatchNorm
I0225 09:08:35.299621    44 net.cpp:481] inception_4b/5x5_reduce_BatchNorm <- inception_4b/5x5_reduce_raw
I0225 09:08:35.299626    44 net.cpp:455] inception_4b/5x5_reduce_BatchNorm -> inception_4b/5x5_reduce
I0225 09:08:35.300161    44 net.cpp:190] Setting up inception_4b/5x5_reduce_BatchNorm
I0225 09:08:35.300168    44 net.cpp:197] Top shape: 1 24 32 64 (49152)
I0225 09:08:35.300184    44 net.cpp:205] Memory required for data: 573177860
I0225 09:08:35.300190    44 layer_factory.hpp:123] Creating layer inception_4b/relu_5x5_reduce
I0225 09:08:35.300195    44 net.cpp:140] Creating Layer inception_4b/relu_5x5_reduce
I0225 09:08:35.300199    44 net.cpp:481] inception_4b/relu_5x5_reduce <- inception_4b/5x5_reduce
I0225 09:08:35.300204    44 net.cpp:442] inception_4b/relu_5x5_reduce -> inception_4b/5x5_reduce (in-place)
I0225 09:08:35.300209    44 net.cpp:190] Setting up inception_4b/relu_5x5_reduce
I0225 09:08:35.300212    44 net.cpp:197] Top shape: 1 24 32 64 (49152)
I0225 09:08:35.300216    44 net.cpp:205] Memory required for data: 573374468
I0225 09:08:35.300220    44 layer_factory.hpp:123] Creating layer inception_4b/5x5
I0225 09:08:35.300226    44 net.cpp:140] Creating Layer inception_4b/5x5
I0225 09:08:35.300230    44 net.cpp:481] inception_4b/5x5 <- inception_4b/5x5_reduce
I0225 09:08:35.300235    44 net.cpp:455] inception_4b/5x5 -> inception_4b/5x5_raw
I0225 09:08:35.301410    44 net.cpp:190] Setting up inception_4b/5x5
I0225 09:08:35.301419    44 net.cpp:197] Top shape: 1 64 32 64 (131072)
I0225 09:08:35.301425    44 net.cpp:205] Memory required for data: 573898756
I0225 09:08:35.301431    44 layer_factory.hpp:123] Creating layer inception_4b/5x5_BatchNorm
I0225 09:08:35.301440    44 net.cpp:140] Creating Layer inception_4b/5x5_BatchNorm
I0225 09:08:35.301443    44 net.cpp:481] inception_4b/5x5_BatchNorm <- inception_4b/5x5_raw
I0225 09:08:35.301448    44 net.cpp:455] inception_4b/5x5_BatchNorm -> inception_4b/5x5
I0225 09:08:35.301980    44 net.cpp:190] Setting up inception_4b/5x5_BatchNorm
I0225 09:08:35.301985    44 net.cpp:197] Top shape: 1 64 32 64 (131072)
I0225 09:08:35.301990    44 net.cpp:205] Memory required for data: 574423044
I0225 09:08:35.301997    44 layer_factory.hpp:123] Creating layer inception_4b/relu_5x5
I0225 09:08:35.302003    44 net.cpp:140] Creating Layer inception_4b/relu_5x5
I0225 09:08:35.302006    44 net.cpp:481] inception_4b/relu_5x5 <- inception_4b/5x5
I0225 09:08:35.302011    44 net.cpp:442] inception_4b/relu_5x5 -> inception_4b/5x5 (in-place)
I0225 09:08:35.302016    44 net.cpp:190] Setting up inception_4b/relu_5x5
I0225 09:08:35.302019    44 net.cpp:197] Top shape: 1 64 32 64 (131072)
I0225 09:08:35.302023    44 net.cpp:205] Memory required for data: 574947332
I0225 09:08:35.302026    44 layer_factory.hpp:123] Creating layer inception_4b/pool
I0225 09:08:35.302032    44 net.cpp:140] Creating Layer inception_4b/pool
I0225 09:08:35.302036    44 net.cpp:481] inception_4b/pool <- inception_4a/output_inception_4a/output_0_split_3
I0225 09:08:35.302040    44 net.cpp:455] inception_4b/pool -> inception_4b/pool
I0225 09:08:35.302067    44 net.cpp:190] Setting up inception_4b/pool
I0225 09:08:35.302070    44 net.cpp:197] Top shape: 1 512 32 64 (1048576)
I0225 09:08:35.302075    44 net.cpp:205] Memory required for data: 579141636
I0225 09:08:35.302080    44 layer_factory.hpp:123] Creating layer inception_4b/pool_proj
I0225 09:08:35.302090    44 net.cpp:140] Creating Layer inception_4b/pool_proj
I0225 09:08:35.302095    44 net.cpp:481] inception_4b/pool_proj <- inception_4b/pool
I0225 09:08:35.302104    44 net.cpp:455] inception_4b/pool_proj -> inception_4b/pool_proj_raw
I0225 09:08:35.302636    44 net.cpp:190] Setting up inception_4b/pool_proj
I0225 09:08:35.302645    44 net.cpp:197] Top shape: 1 64 32 64 (131072)
I0225 09:08:35.302650    44 net.cpp:205] Memory required for data: 579665924
I0225 09:08:35.302656    44 layer_factory.hpp:123] Creating layer inception_4b/pool_proj_BatchNorm
I0225 09:08:35.302664    44 net.cpp:140] Creating Layer inception_4b/pool_proj_BatchNorm
I0225 09:08:35.302667    44 net.cpp:481] inception_4b/pool_proj_BatchNorm <- inception_4b/pool_proj_raw
I0225 09:08:35.302673    44 net.cpp:455] inception_4b/pool_proj_BatchNorm -> inception_4b/pool_proj
I0225 09:08:35.303213    44 net.cpp:190] Setting up inception_4b/pool_proj_BatchNorm
I0225 09:08:35.303220    44 net.cpp:197] Top shape: 1 64 32 64 (131072)
I0225 09:08:35.303225    44 net.cpp:205] Memory required for data: 580190212
I0225 09:08:35.303232    44 layer_factory.hpp:123] Creating layer inception_4b/relu_pool_proj
I0225 09:08:35.303237    44 net.cpp:140] Creating Layer inception_4b/relu_pool_proj
I0225 09:08:35.303241    44 net.cpp:481] inception_4b/relu_pool_proj <- inception_4b/pool_proj
I0225 09:08:35.303246    44 net.cpp:442] inception_4b/relu_pool_proj -> inception_4b/pool_proj (in-place)
I0225 09:08:35.303251    44 net.cpp:190] Setting up inception_4b/relu_pool_proj
I0225 09:08:35.303254    44 net.cpp:197] Top shape: 1 64 32 64 (131072)
I0225 09:08:35.303258    44 net.cpp:205] Memory required for data: 580714500
I0225 09:08:35.303261    44 layer_factory.hpp:123] Creating layer inception_4b/output
I0225 09:08:35.303267    44 net.cpp:140] Creating Layer inception_4b/output
I0225 09:08:35.303269    44 net.cpp:481] inception_4b/output <- inception_4b/1x1
I0225 09:08:35.303272    44 net.cpp:481] inception_4b/output <- inception_4b/3x3
I0225 09:08:35.303277    44 net.cpp:481] inception_4b/output <- inception_4b/5x5
I0225 09:08:35.303279    44 net.cpp:481] inception_4b/output <- inception_4b/pool_proj
I0225 09:08:35.303283    44 net.cpp:455] inception_4b/output -> inception_4b/output
I0225 09:08:35.303303    44 net.cpp:190] Setting up inception_4b/output
I0225 09:08:35.303305    44 net.cpp:197] Top shape: 1 512 32 64 (1048576)
I0225 09:08:35.303310    44 net.cpp:205] Memory required for data: 584908804
I0225 09:08:35.303313    44 layer_factory.hpp:123] Creating layer inception_4b/output_inception_4b/output_0_split
I0225 09:08:35.303318    44 net.cpp:140] Creating Layer inception_4b/output_inception_4b/output_0_split
I0225 09:08:35.303323    44 net.cpp:481] inception_4b/output_inception_4b/output_0_split <- inception_4b/output
I0225 09:08:35.303326    44 net.cpp:455] inception_4b/output_inception_4b/output_0_split -> inception_4b/output_inception_4b/output_0_split_0
I0225 09:08:35.303333    44 net.cpp:455] inception_4b/output_inception_4b/output_0_split -> inception_4b/output_inception_4b/output_0_split_1
I0225 09:08:35.303336    44 net.cpp:455] inception_4b/output_inception_4b/output_0_split -> inception_4b/output_inception_4b/output_0_split_2
I0225 09:08:35.303341    44 net.cpp:455] inception_4b/output_inception_4b/output_0_split -> inception_4b/output_inception_4b/output_0_split_3
I0225 09:08:35.303385    44 net.cpp:190] Setting up inception_4b/output_inception_4b/output_0_split
I0225 09:08:35.303390    44 net.cpp:197] Top shape: 1 512 32 64 (1048576)
I0225 09:08:35.303395    44 net.cpp:197] Top shape: 1 512 32 64 (1048576)
I0225 09:08:35.303400    44 net.cpp:197] Top shape: 1 512 32 64 (1048576)
I0225 09:08:35.303402    44 net.cpp:197] Top shape: 1 512 32 64 (1048576)
I0225 09:08:35.303406    44 net.cpp:205] Memory required for data: 601686020
I0225 09:08:35.303409    44 layer_factory.hpp:123] Creating layer inception_4c/1x1
I0225 09:08:35.303417    44 net.cpp:140] Creating Layer inception_4c/1x1
I0225 09:08:35.303421    44 net.cpp:481] inception_4c/1x1 <- inception_4b/output_inception_4b/output_0_split_0
I0225 09:08:35.303426    44 net.cpp:455] inception_4c/1x1 -> inception_4c/1x1_raw
I0225 09:08:35.304183    44 net.cpp:190] Setting up inception_4c/1x1
I0225 09:08:35.304188    44 net.cpp:197] Top shape: 1 128 32 64 (262144)
I0225 09:08:35.304193    44 net.cpp:205] Memory required for data: 602734596
I0225 09:08:35.304198    44 layer_factory.hpp:123] Creating layer inception_4c/1x1_BatchNorm
I0225 09:08:35.304206    44 net.cpp:140] Creating Layer inception_4c/1x1_BatchNorm
I0225 09:08:35.304211    44 net.cpp:481] inception_4c/1x1_BatchNorm <- inception_4c/1x1_raw
I0225 09:08:35.304219    44 net.cpp:455] inception_4c/1x1_BatchNorm -> inception_4c/1x1
I0225 09:08:35.304729    44 net.cpp:190] Setting up inception_4c/1x1_BatchNorm
I0225 09:08:35.304738    44 net.cpp:197] Top shape: 1 128 32 64 (262144)
I0225 09:08:35.304744    44 net.cpp:205] Memory required for data: 603783172
I0225 09:08:35.304751    44 layer_factory.hpp:123] Creating layer inception_4c/relu_1x1
I0225 09:08:35.304757    44 net.cpp:140] Creating Layer inception_4c/relu_1x1
I0225 09:08:35.304761    44 net.cpp:481] inception_4c/relu_1x1 <- inception_4c/1x1
I0225 09:08:35.304765    44 net.cpp:442] inception_4c/relu_1x1 -> inception_4c/1x1 (in-place)
I0225 09:08:35.304771    44 net.cpp:190] Setting up inception_4c/relu_1x1
I0225 09:08:35.304774    44 net.cpp:197] Top shape: 1 128 32 64 (262144)
I0225 09:08:35.304778    44 net.cpp:205] Memory required for data: 604831748
I0225 09:08:35.304781    44 layer_factory.hpp:123] Creating layer inception_4c/3x3_reduce
I0225 09:08:35.304790    44 net.cpp:140] Creating Layer inception_4c/3x3_reduce
I0225 09:08:35.304792    44 net.cpp:481] inception_4c/3x3_reduce <- inception_4b/output_inception_4b/output_0_split_1
I0225 09:08:35.304798    44 net.cpp:455] inception_4c/3x3_reduce -> inception_4c/3x3_reduce_raw
I0225 09:08:35.305554    44 net.cpp:190] Setting up inception_4c/3x3_reduce
I0225 09:08:35.305562    44 net.cpp:197] Top shape: 1 128 32 64 (262144)
I0225 09:08:35.305567    44 net.cpp:205] Memory required for data: 605880324
I0225 09:08:35.305572    44 layer_factory.hpp:123] Creating layer inception_4c/3x3_reduce_BatchNorm
I0225 09:08:35.305579    44 net.cpp:140] Creating Layer inception_4c/3x3_reduce_BatchNorm
I0225 09:08:35.305583    44 net.cpp:481] inception_4c/3x3_reduce_BatchNorm <- inception_4c/3x3_reduce_raw
I0225 09:08:35.305588    44 net.cpp:455] inception_4c/3x3_reduce_BatchNorm -> inception_4c/3x3_reduce
I0225 09:08:35.306043    44 net.cpp:190] Setting up inception_4c/3x3_reduce_BatchNorm
I0225 09:08:35.306051    44 net.cpp:197] Top shape: 1 128 32 64 (262144)
I0225 09:08:35.306056    44 net.cpp:205] Memory required for data: 606928900
I0225 09:08:35.306062    44 layer_factory.hpp:123] Creating layer inception_4c/relu_3x3_reduce
I0225 09:08:35.306067    44 net.cpp:140] Creating Layer inception_4c/relu_3x3_reduce
I0225 09:08:35.306071    44 net.cpp:481] inception_4c/relu_3x3_reduce <- inception_4c/3x3_reduce
I0225 09:08:35.306077    44 net.cpp:442] inception_4c/relu_3x3_reduce -> inception_4c/3x3_reduce (in-place)
I0225 09:08:35.306082    44 net.cpp:190] Setting up inception_4c/relu_3x3_reduce
I0225 09:08:35.306085    44 net.cpp:197] Top shape: 1 128 32 64 (262144)
I0225 09:08:35.306089    44 net.cpp:205] Memory required for data: 607977476
I0225 09:08:35.306092    44 layer_factory.hpp:123] Creating layer inception_4c/3x3
I0225 09:08:35.306099    44 net.cpp:140] Creating Layer inception_4c/3x3
I0225 09:08:35.306102    44 net.cpp:481] inception_4c/3x3 <- inception_4c/3x3_reduce
I0225 09:08:35.306107    44 net.cpp:455] inception_4c/3x3 -> inception_4c/3x3_raw
I0225 09:08:35.310070    44 net.cpp:190] Setting up inception_4c/3x3
I0225 09:08:35.310081    44 net.cpp:197] Top shape: 1 256 32 64 (524288)
I0225 09:08:35.310087    44 net.cpp:205] Memory required for data: 610074628
I0225 09:08:35.310093    44 layer_factory.hpp:123] Creating layer inception_4c/3x3_BatchNorm
I0225 09:08:35.310101    44 net.cpp:140] Creating Layer inception_4c/3x3_BatchNorm
I0225 09:08:35.310106    44 net.cpp:481] inception_4c/3x3_BatchNorm <- inception_4c/3x3_raw
I0225 09:08:35.310111    44 net.cpp:455] inception_4c/3x3_BatchNorm -> inception_4c/3x3
I0225 09:08:35.310581    44 net.cpp:190] Setting up inception_4c/3x3_BatchNorm
I0225 09:08:35.310590    44 net.cpp:197] Top shape: 1 256 32 64 (524288)
I0225 09:08:35.310595    44 net.cpp:205] Memory required for data: 612171780
I0225 09:08:35.310602    44 layer_factory.hpp:123] Creating layer inception_4c/relu_3x3
I0225 09:08:35.310607    44 net.cpp:140] Creating Layer inception_4c/relu_3x3
I0225 09:08:35.310611    44 net.cpp:481] inception_4c/relu_3x3 <- inception_4c/3x3
I0225 09:08:35.310616    44 net.cpp:442] inception_4c/relu_3x3 -> inception_4c/3x3 (in-place)
I0225 09:08:35.310621    44 net.cpp:190] Setting up inception_4c/relu_3x3
I0225 09:08:35.310624    44 net.cpp:197] Top shape: 1 256 32 64 (524288)
I0225 09:08:35.310628    44 net.cpp:205] Memory required for data: 614268932
I0225 09:08:35.310631    44 layer_factory.hpp:123] Creating layer inception_4c/5x5_reduce
I0225 09:08:35.310638    44 net.cpp:140] Creating Layer inception_4c/5x5_reduce
I0225 09:08:35.310642    44 net.cpp:481] inception_4c/5x5_reduce <- inception_4b/output_inception_4b/output_0_split_2
I0225 09:08:35.310647    44 net.cpp:455] inception_4c/5x5_reduce -> inception_4c/5x5_reduce_raw
I0225 09:08:35.310962    44 net.cpp:190] Setting up inception_4c/5x5_reduce
I0225 09:08:35.310968    44 net.cpp:197] Top shape: 1 24 32 64 (49152)
I0225 09:08:35.310973    44 net.cpp:205] Memory required for data: 614465540
I0225 09:08:35.310978    44 layer_factory.hpp:123] Creating layer inception_4c/5x5_reduce_BatchNorm
I0225 09:08:35.310986    44 net.cpp:140] Creating Layer inception_4c/5x5_reduce_BatchNorm
I0225 09:08:35.310989    44 net.cpp:481] inception_4c/5x5_reduce_BatchNorm <- inception_4c/5x5_reduce_raw
I0225 09:08:35.310995    44 net.cpp:455] inception_4c/5x5_reduce_BatchNorm -> inception_4c/5x5_reduce
I0225 09:08:35.311544    44 net.cpp:190] Setting up inception_4c/5x5_reduce_BatchNorm
I0225 09:08:35.311551    44 net.cpp:197] Top shape: 1 24 32 64 (49152)
I0225 09:08:35.311570    44 net.cpp:205] Memory required for data: 614662148
I0225 09:08:35.311578    44 layer_factory.hpp:123] Creating layer inception_4c/relu_5x5_reduce
I0225 09:08:35.311583    44 net.cpp:140] Creating Layer inception_4c/relu_5x5_reduce
I0225 09:08:35.311586    44 net.cpp:481] inception_4c/relu_5x5_reduce <- inception_4c/5x5_reduce
I0225 09:08:35.311590    44 net.cpp:442] inception_4c/relu_5x5_reduce -> inception_4c/5x5_reduce (in-place)
I0225 09:08:35.311596    44 net.cpp:190] Setting up inception_4c/relu_5x5_reduce
I0225 09:08:35.311599    44 net.cpp:197] Top shape: 1 24 32 64 (49152)
I0225 09:08:35.311604    44 net.cpp:205] Memory required for data: 614858756
I0225 09:08:35.311606    44 layer_factory.hpp:123] Creating layer inception_4c/5x5
I0225 09:08:35.311614    44 net.cpp:140] Creating Layer inception_4c/5x5
I0225 09:08:35.311616    44 net.cpp:481] inception_4c/5x5 <- inception_4c/5x5_reduce
I0225 09:08:35.311621    44 net.cpp:455] inception_4c/5x5 -> inception_4c/5x5_raw
I0225 09:08:35.312218    44 net.cpp:190] Setting up inception_4c/5x5
I0225 09:08:35.312227    44 net.cpp:197] Top shape: 1 64 32 64 (131072)
I0225 09:08:35.312233    44 net.cpp:205] Memory required for data: 615383044
I0225 09:08:35.312239    44 layer_factory.hpp:123] Creating layer inception_4c/5x5_BatchNorm
I0225 09:08:35.312247    44 net.cpp:140] Creating Layer inception_4c/5x5_BatchNorm
I0225 09:08:35.312250    44 net.cpp:481] inception_4c/5x5_BatchNorm <- inception_4c/5x5_raw
I0225 09:08:35.312256    44 net.cpp:455] inception_4c/5x5_BatchNorm -> inception_4c/5x5
I0225 09:08:35.312806    44 net.cpp:190] Setting up inception_4c/5x5_BatchNorm
I0225 09:08:35.312814    44 net.cpp:197] Top shape: 1 64 32 64 (131072)
I0225 09:08:35.312819    44 net.cpp:205] Memory required for data: 615907332
I0225 09:08:35.312827    44 layer_factory.hpp:123] Creating layer inception_4c/relu_5x5
I0225 09:08:35.312832    44 net.cpp:140] Creating Layer inception_4c/relu_5x5
I0225 09:08:35.312836    44 net.cpp:481] inception_4c/relu_5x5 <- inception_4c/5x5
I0225 09:08:35.312840    44 net.cpp:442] inception_4c/relu_5x5 -> inception_4c/5x5 (in-place)
I0225 09:08:35.312846    44 net.cpp:190] Setting up inception_4c/relu_5x5
I0225 09:08:35.312849    44 net.cpp:197] Top shape: 1 64 32 64 (131072)
I0225 09:08:35.312852    44 net.cpp:205] Memory required for data: 616431620
I0225 09:08:35.312856    44 layer_factory.hpp:123] Creating layer inception_4c/pool
I0225 09:08:35.312861    44 net.cpp:140] Creating Layer inception_4c/pool
I0225 09:08:35.312865    44 net.cpp:481] inception_4c/pool <- inception_4b/output_inception_4b/output_0_split_3
I0225 09:08:35.312870    44 net.cpp:455] inception_4c/pool -> inception_4c/pool
I0225 09:08:35.312898    44 net.cpp:190] Setting up inception_4c/pool
I0225 09:08:35.312904    44 net.cpp:197] Top shape: 1 512 32 64 (1048576)
I0225 09:08:35.312909    44 net.cpp:205] Memory required for data: 620625924
I0225 09:08:35.312912    44 layer_factory.hpp:123] Creating layer inception_4c/pool_proj
I0225 09:08:35.312919    44 net.cpp:140] Creating Layer inception_4c/pool_proj
I0225 09:08:35.312922    44 net.cpp:481] inception_4c/pool_proj <- inception_4c/pool
I0225 09:08:35.312927    44 net.cpp:455] inception_4c/pool_proj -> inception_4c/pool_proj_raw
I0225 09:08:35.313428    44 net.cpp:190] Setting up inception_4c/pool_proj
I0225 09:08:35.313434    44 net.cpp:197] Top shape: 1 64 32 64 (131072)
I0225 09:08:35.313439    44 net.cpp:205] Memory required for data: 621150212
I0225 09:08:35.313444    44 layer_factory.hpp:123] Creating layer inception_4c/pool_proj_BatchNorm
I0225 09:08:35.313452    44 net.cpp:140] Creating Layer inception_4c/pool_proj_BatchNorm
I0225 09:08:35.313455    44 net.cpp:481] inception_4c/pool_proj_BatchNorm <- inception_4c/pool_proj_raw
I0225 09:08:35.313460    44 net.cpp:455] inception_4c/pool_proj_BatchNorm -> inception_4c/pool_proj
I0225 09:08:35.314023    44 net.cpp:190] Setting up inception_4c/pool_proj_BatchNorm
I0225 09:08:35.314034    44 net.cpp:197] Top shape: 1 64 32 64 (131072)
I0225 09:08:35.314043    44 net.cpp:205] Memory required for data: 621674500
I0225 09:08:35.314054    44 layer_factory.hpp:123] Creating layer inception_4c/relu_pool_proj
I0225 09:08:35.314062    44 net.cpp:140] Creating Layer inception_4c/relu_pool_proj
I0225 09:08:35.314069    44 net.cpp:481] inception_4c/relu_pool_proj <- inception_4c/pool_proj
I0225 09:08:35.314075    44 net.cpp:442] inception_4c/relu_pool_proj -> inception_4c/pool_proj (in-place)
I0225 09:08:35.314085    44 net.cpp:190] Setting up inception_4c/relu_pool_proj
I0225 09:08:35.314090    44 net.cpp:197] Top shape: 1 64 32 64 (131072)
I0225 09:08:35.314096    44 net.cpp:205] Memory required for data: 622198788
I0225 09:08:35.314101    44 layer_factory.hpp:123] Creating layer inception_4c/output
I0225 09:08:35.314110    44 net.cpp:140] Creating Layer inception_4c/output
I0225 09:08:35.314115    44 net.cpp:481] inception_4c/output <- inception_4c/1x1
I0225 09:08:35.314119    44 net.cpp:481] inception_4c/output <- inception_4c/3x3
I0225 09:08:35.314122    44 net.cpp:481] inception_4c/output <- inception_4c/5x5
I0225 09:08:35.314126    44 net.cpp:481] inception_4c/output <- inception_4c/pool_proj
I0225 09:08:35.314131    44 net.cpp:455] inception_4c/output -> inception_4c/output
I0225 09:08:35.314152    44 net.cpp:190] Setting up inception_4c/output
I0225 09:08:35.314157    44 net.cpp:197] Top shape: 1 512 32 64 (1048576)
I0225 09:08:35.314160    44 net.cpp:205] Memory required for data: 626393092
I0225 09:08:35.314164    44 layer_factory.hpp:123] Creating layer inception_4c/output_inception_4c/output_0_split
I0225 09:08:35.314169    44 net.cpp:140] Creating Layer inception_4c/output_inception_4c/output_0_split
I0225 09:08:35.314172    44 net.cpp:481] inception_4c/output_inception_4c/output_0_split <- inception_4c/output
I0225 09:08:35.314177    44 net.cpp:455] inception_4c/output_inception_4c/output_0_split -> inception_4c/output_inception_4c/output_0_split_0
I0225 09:08:35.314183    44 net.cpp:455] inception_4c/output_inception_4c/output_0_split -> inception_4c/output_inception_4c/output_0_split_1
I0225 09:08:35.314188    44 net.cpp:455] inception_4c/output_inception_4c/output_0_split -> inception_4c/output_inception_4c/output_0_split_2
I0225 09:08:35.314193    44 net.cpp:455] inception_4c/output_inception_4c/output_0_split -> inception_4c/output_inception_4c/output_0_split_3
I0225 09:08:35.314237    44 net.cpp:190] Setting up inception_4c/output_inception_4c/output_0_split
I0225 09:08:35.314245    44 net.cpp:197] Top shape: 1 512 32 64 (1048576)
I0225 09:08:35.314249    44 net.cpp:197] Top shape: 1 512 32 64 (1048576)
I0225 09:08:35.314254    44 net.cpp:197] Top shape: 1 512 32 64 (1048576)
I0225 09:08:35.314257    44 net.cpp:197] Top shape: 1 512 32 64 (1048576)
I0225 09:08:35.314261    44 net.cpp:205] Memory required for data: 643170308
I0225 09:08:35.314265    44 layer_factory.hpp:123] Creating layer inception_4d/1x1
I0225 09:08:35.314271    44 net.cpp:140] Creating Layer inception_4d/1x1
I0225 09:08:35.314275    44 net.cpp:481] inception_4d/1x1 <- inception_4c/output_inception_4c/output_0_split_0
I0225 09:08:35.314280    44 net.cpp:455] inception_4d/1x1 -> inception_4d/1x1_raw
I0225 09:08:35.314990    44 net.cpp:190] Setting up inception_4d/1x1
I0225 09:08:35.314996    44 net.cpp:197] Top shape: 1 112 32 64 (229376)
I0225 09:08:35.315001    44 net.cpp:205] Memory required for data: 644087812
I0225 09:08:35.315007    44 layer_factory.hpp:123] Creating layer inception_4d/1x1_BatchNorm
I0225 09:08:35.315014    44 net.cpp:140] Creating Layer inception_4d/1x1_BatchNorm
I0225 09:08:35.315017    44 net.cpp:481] inception_4d/1x1_BatchNorm <- inception_4d/1x1_raw
I0225 09:08:35.315023    44 net.cpp:455] inception_4d/1x1_BatchNorm -> inception_4d/1x1
I0225 09:08:35.315570    44 net.cpp:190] Setting up inception_4d/1x1_BatchNorm
I0225 09:08:35.315578    44 net.cpp:197] Top shape: 1 112 32 64 (229376)
I0225 09:08:35.315582    44 net.cpp:205] Memory required for data: 645005316
I0225 09:08:35.315590    44 layer_factory.hpp:123] Creating layer inception_4d/relu_1x1
I0225 09:08:35.315595    44 net.cpp:140] Creating Layer inception_4d/relu_1x1
I0225 09:08:35.315599    44 net.cpp:481] inception_4d/relu_1x1 <- inception_4d/1x1
I0225 09:08:35.315603    44 net.cpp:442] inception_4d/relu_1x1 -> inception_4d/1x1 (in-place)
I0225 09:08:35.315608    44 net.cpp:190] Setting up inception_4d/relu_1x1
I0225 09:08:35.315611    44 net.cpp:197] Top shape: 1 112 32 64 (229376)
I0225 09:08:35.315615    44 net.cpp:205] Memory required for data: 645922820
I0225 09:08:35.315618    44 layer_factory.hpp:123] Creating layer inception_4d/3x3_reduce
I0225 09:08:35.315625    44 net.cpp:140] Creating Layer inception_4d/3x3_reduce
I0225 09:08:35.315629    44 net.cpp:481] inception_4d/3x3_reduce <- inception_4c/output_inception_4c/output_0_split_1
I0225 09:08:35.315634    44 net.cpp:455] inception_4d/3x3_reduce -> inception_4d/3x3_reduce_raw
I0225 09:08:35.316473    44 net.cpp:190] Setting up inception_4d/3x3_reduce
I0225 09:08:35.316480    44 net.cpp:197] Top shape: 1 144 32 64 (294912)
I0225 09:08:35.316485    44 net.cpp:205] Memory required for data: 647102468
I0225 09:08:35.316491    44 layer_factory.hpp:123] Creating layer inception_4d/3x3_reduce_BatchNorm
I0225 09:08:35.316498    44 net.cpp:140] Creating Layer inception_4d/3x3_reduce_BatchNorm
I0225 09:08:35.316501    44 net.cpp:481] inception_4d/3x3_reduce_BatchNorm <- inception_4d/3x3_reduce_raw
I0225 09:08:35.316506    44 net.cpp:455] inception_4d/3x3_reduce_BatchNorm -> inception_4d/3x3_reduce
I0225 09:08:35.317042    44 net.cpp:190] Setting up inception_4d/3x3_reduce_BatchNorm
I0225 09:08:35.317049    44 net.cpp:197] Top shape: 1 144 32 64 (294912)
I0225 09:08:35.317054    44 net.cpp:205] Memory required for data: 648282116
I0225 09:08:35.317062    44 layer_factory.hpp:123] Creating layer inception_4d/relu_3x3_reduce
I0225 09:08:35.317067    44 net.cpp:140] Creating Layer inception_4d/relu_3x3_reduce
I0225 09:08:35.317070    44 net.cpp:481] inception_4d/relu_3x3_reduce <- inception_4d/3x3_reduce
I0225 09:08:35.317075    44 net.cpp:442] inception_4d/relu_3x3_reduce -> inception_4d/3x3_reduce (in-place)
I0225 09:08:35.317080    44 net.cpp:190] Setting up inception_4d/relu_3x3_reduce
I0225 09:08:35.317083    44 net.cpp:197] Top shape: 1 144 32 64 (294912)
I0225 09:08:35.317087    44 net.cpp:205] Memory required for data: 649461764
I0225 09:08:35.317091    44 layer_factory.hpp:123] Creating layer inception_4d/3x3
I0225 09:08:35.317099    44 net.cpp:140] Creating Layer inception_4d/3x3
I0225 09:08:35.317102    44 net.cpp:481] inception_4d/3x3 <- inception_4d/3x3_reduce
I0225 09:08:35.317107    44 net.cpp:455] inception_4d/3x3 -> inception_4d/3x3_raw
I0225 09:08:35.321862    44 net.cpp:190] Setting up inception_4d/3x3
I0225 09:08:35.321873    44 net.cpp:197] Top shape: 1 288 32 64 (589824)
I0225 09:08:35.321878    44 net.cpp:205] Memory required for data: 651821060
I0225 09:08:35.321885    44 layer_factory.hpp:123] Creating layer inception_4d/3x3_BatchNorm
I0225 09:08:35.321897    44 net.cpp:140] Creating Layer inception_4d/3x3_BatchNorm
I0225 09:08:35.321900    44 net.cpp:481] inception_4d/3x3_BatchNorm <- inception_4d/3x3_raw
I0225 09:08:35.321907    44 net.cpp:455] inception_4d/3x3_BatchNorm -> inception_4d/3x3
I0225 09:08:35.322453    44 net.cpp:190] Setting up inception_4d/3x3_BatchNorm
I0225 09:08:35.322459    44 net.cpp:197] Top shape: 1 288 32 64 (589824)
I0225 09:08:35.322465    44 net.cpp:205] Memory required for data: 654180356
I0225 09:08:35.322472    44 layer_factory.hpp:123] Creating layer inception_4d/relu_3x3
I0225 09:08:35.322479    44 net.cpp:140] Creating Layer inception_4d/relu_3x3
I0225 09:08:35.322481    44 net.cpp:481] inception_4d/relu_3x3 <- inception_4d/3x3
I0225 09:08:35.322486    44 net.cpp:442] inception_4d/relu_3x3 -> inception_4d/3x3 (in-place)
I0225 09:08:35.322492    44 net.cpp:190] Setting up inception_4d/relu_3x3
I0225 09:08:35.322495    44 net.cpp:197] Top shape: 1 288 32 64 (589824)
I0225 09:08:35.322499    44 net.cpp:205] Memory required for data: 656539652
I0225 09:08:35.322502    44 layer_factory.hpp:123] Creating layer inception_4d/5x5_reduce
I0225 09:08:35.322510    44 net.cpp:140] Creating Layer inception_4d/5x5_reduce
I0225 09:08:35.322513    44 net.cpp:481] inception_4d/5x5_reduce <- inception_4c/output_inception_4c/output_0_split_2
I0225 09:08:35.322520    44 net.cpp:455] inception_4d/5x5_reduce -> inception_4d/5x5_reduce_raw
I0225 09:08:35.322887    44 net.cpp:190] Setting up inception_4d/5x5_reduce
I0225 09:08:35.322894    44 net.cpp:197] Top shape: 1 32 32 64 (65536)
I0225 09:08:35.322899    44 net.cpp:205] Memory required for data: 656801796
I0225 09:08:35.322906    44 layer_factory.hpp:123] Creating layer inception_4d/5x5_reduce_BatchNorm
I0225 09:08:35.322912    44 net.cpp:140] Creating Layer inception_4d/5x5_reduce_BatchNorm
I0225 09:08:35.322916    44 net.cpp:481] inception_4d/5x5_reduce_BatchNorm <- inception_4d/5x5_reduce_raw
I0225 09:08:35.322921    44 net.cpp:455] inception_4d/5x5_reduce_BatchNorm -> inception_4d/5x5_reduce
I0225 09:08:35.323457    44 net.cpp:190] Setting up inception_4d/5x5_reduce_BatchNorm
I0225 09:08:35.323463    44 net.cpp:197] Top shape: 1 32 32 64 (65536)
I0225 09:08:35.323468    44 net.cpp:205] Memory required for data: 657063940
I0225 09:08:35.323482    44 layer_factory.hpp:123] Creating layer inception_4d/relu_5x5_reduce
I0225 09:08:35.323487    44 net.cpp:140] Creating Layer inception_4d/relu_5x5_reduce
I0225 09:08:35.323491    44 net.cpp:481] inception_4d/relu_5x5_reduce <- inception_4d/5x5_reduce
I0225 09:08:35.323495    44 net.cpp:442] inception_4d/relu_5x5_reduce -> inception_4d/5x5_reduce (in-place)
I0225 09:08:35.323501    44 net.cpp:190] Setting up inception_4d/relu_5x5_reduce
I0225 09:08:35.323504    44 net.cpp:197] Top shape: 1 32 32 64 (65536)
I0225 09:08:35.323508    44 net.cpp:205] Memory required for data: 657326084
I0225 09:08:35.323511    44 layer_factory.hpp:123] Creating layer inception_4d/5x5
I0225 09:08:35.323518    44 net.cpp:140] Creating Layer inception_4d/5x5
I0225 09:08:35.323521    44 net.cpp:481] inception_4d/5x5 <- inception_4d/5x5_reduce
I0225 09:08:35.323526    44 net.cpp:455] inception_4d/5x5 -> inception_4d/5x5_raw
I0225 09:08:35.324194    44 net.cpp:190] Setting up inception_4d/5x5
I0225 09:08:35.324203    44 net.cpp:197] Top shape: 1 64 32 64 (131072)
I0225 09:08:35.324208    44 net.cpp:205] Memory required for data: 657850372
I0225 09:08:35.324215    44 layer_factory.hpp:123] Creating layer inception_4d/5x5_BatchNorm
I0225 09:08:35.324223    44 net.cpp:140] Creating Layer inception_4d/5x5_BatchNorm
I0225 09:08:35.324227    44 net.cpp:481] inception_4d/5x5_BatchNorm <- inception_4d/5x5_raw
I0225 09:08:35.324232    44 net.cpp:455] inception_4d/5x5_BatchNorm -> inception_4d/5x5
I0225 09:08:35.324826    44 net.cpp:190] Setting up inception_4d/5x5_BatchNorm
I0225 09:08:35.324834    44 net.cpp:197] Top shape: 1 64 32 64 (131072)
I0225 09:08:35.324839    44 net.cpp:205] Memory required for data: 658374660
I0225 09:08:35.324847    44 layer_factory.hpp:123] Creating layer inception_4d/relu_5x5
I0225 09:08:35.324853    44 net.cpp:140] Creating Layer inception_4d/relu_5x5
I0225 09:08:35.324857    44 net.cpp:481] inception_4d/relu_5x5 <- inception_4d/5x5
I0225 09:08:35.324862    44 net.cpp:442] inception_4d/relu_5x5 -> inception_4d/5x5 (in-place)
I0225 09:08:35.324867    44 net.cpp:190] Setting up inception_4d/relu_5x5
I0225 09:08:35.324870    44 net.cpp:197] Top shape: 1 64 32 64 (131072)
I0225 09:08:35.324874    44 net.cpp:205] Memory required for data: 658898948
I0225 09:08:35.324877    44 layer_factory.hpp:123] Creating layer inception_4d/pool
I0225 09:08:35.324883    44 net.cpp:140] Creating Layer inception_4d/pool
I0225 09:08:35.324887    44 net.cpp:481] inception_4d/pool <- inception_4c/output_inception_4c/output_0_split_3
I0225 09:08:35.324892    44 net.cpp:455] inception_4d/pool -> inception_4d/pool
I0225 09:08:35.324920    44 net.cpp:190] Setting up inception_4d/pool
I0225 09:08:35.324928    44 net.cpp:197] Top shape: 1 512 32 64 (1048576)
I0225 09:08:35.324932    44 net.cpp:205] Memory required for data: 663093252
I0225 09:08:35.324936    44 layer_factory.hpp:123] Creating layer inception_4d/pool_proj
I0225 09:08:35.324944    44 net.cpp:140] Creating Layer inception_4d/pool_proj
I0225 09:08:35.324947    44 net.cpp:481] inception_4d/pool_proj <- inception_4d/pool
I0225 09:08:35.324952    44 net.cpp:455] inception_4d/pool_proj -> inception_4d/pool_proj_raw
I0225 09:08:35.325443    44 net.cpp:190] Setting up inception_4d/pool_proj
I0225 09:08:35.325450    44 net.cpp:197] Top shape: 1 64 32 64 (131072)
I0225 09:08:35.325455    44 net.cpp:205] Memory required for data: 663617540
I0225 09:08:35.325460    44 layer_factory.hpp:123] Creating layer inception_4d/pool_proj_BatchNorm
I0225 09:08:35.325467    44 net.cpp:140] Creating Layer inception_4d/pool_proj_BatchNorm
I0225 09:08:35.325471    44 net.cpp:481] inception_4d/pool_proj_BatchNorm <- inception_4d/pool_proj_raw
I0225 09:08:35.325476    44 net.cpp:455] inception_4d/pool_proj_BatchNorm -> inception_4d/pool_proj
I0225 09:08:35.326040    44 net.cpp:190] Setting up inception_4d/pool_proj_BatchNorm
I0225 09:08:35.326047    44 net.cpp:197] Top shape: 1 64 32 64 (131072)
I0225 09:08:35.326052    44 net.cpp:205] Memory required for data: 664141828
I0225 09:08:35.326062    44 layer_factory.hpp:123] Creating layer inception_4d/relu_pool_proj
I0225 09:08:35.326067    44 net.cpp:140] Creating Layer inception_4d/relu_pool_proj
I0225 09:08:35.326071    44 net.cpp:481] inception_4d/relu_pool_proj <- inception_4d/pool_proj
I0225 09:08:35.326076    44 net.cpp:442] inception_4d/relu_pool_proj -> inception_4d/pool_proj (in-place)
I0225 09:08:35.326082    44 net.cpp:190] Setting up inception_4d/relu_pool_proj
I0225 09:08:35.326086    44 net.cpp:197] Top shape: 1 64 32 64 (131072)
I0225 09:08:35.326089    44 net.cpp:205] Memory required for data: 664666116
I0225 09:08:35.326092    44 layer_factory.hpp:123] Creating layer inception_4d/output
I0225 09:08:35.326097    44 net.cpp:140] Creating Layer inception_4d/output
I0225 09:08:35.326100    44 net.cpp:481] inception_4d/output <- inception_4d/1x1
I0225 09:08:35.326107    44 net.cpp:481] inception_4d/output <- inception_4d/3x3
I0225 09:08:35.326112    44 net.cpp:481] inception_4d/output <- inception_4d/5x5
I0225 09:08:35.326117    44 net.cpp:481] inception_4d/output <- inception_4d/pool_proj
I0225 09:08:35.326122    44 net.cpp:455] inception_4d/output -> inception_4d/output
I0225 09:08:35.326151    44 net.cpp:190] Setting up inception_4d/output
I0225 09:08:35.326158    44 net.cpp:197] Top shape: 1 528 32 64 (1081344)
I0225 09:08:35.326164    44 net.cpp:205] Memory required for data: 668991492
I0225 09:08:35.326169    44 layer_factory.hpp:123] Creating layer inception_4d/output_inception_4d/output_0_split
I0225 09:08:35.326177    44 net.cpp:140] Creating Layer inception_4d/output_inception_4d/output_0_split
I0225 09:08:35.326184    44 net.cpp:481] inception_4d/output_inception_4d/output_0_split <- inception_4d/output
I0225 09:08:35.326190    44 net.cpp:455] inception_4d/output_inception_4d/output_0_split -> inception_4d/output_inception_4d/output_0_split_0
I0225 09:08:35.326197    44 net.cpp:455] inception_4d/output_inception_4d/output_0_split -> inception_4d/output_inception_4d/output_0_split_1
I0225 09:08:35.326201    44 net.cpp:455] inception_4d/output_inception_4d/output_0_split -> inception_4d/output_inception_4d/output_0_split_2
I0225 09:08:35.326206    44 net.cpp:455] inception_4d/output_inception_4d/output_0_split -> inception_4d/output_inception_4d/output_0_split_3
I0225 09:08:35.326256    44 net.cpp:190] Setting up inception_4d/output_inception_4d/output_0_split
I0225 09:08:35.326261    44 net.cpp:197] Top shape: 1 528 32 64 (1081344)
I0225 09:08:35.326265    44 net.cpp:197] Top shape: 1 528 32 64 (1081344)
I0225 09:08:35.326269    44 net.cpp:197] Top shape: 1 528 32 64 (1081344)
I0225 09:08:35.326273    44 net.cpp:197] Top shape: 1 528 32 64 (1081344)
I0225 09:08:35.326277    44 net.cpp:205] Memory required for data: 686292996
I0225 09:08:35.326280    44 layer_factory.hpp:123] Creating layer inception_4e/1x1
I0225 09:08:35.326288    44 net.cpp:140] Creating Layer inception_4e/1x1
I0225 09:08:35.326292    44 net.cpp:481] inception_4e/1x1 <- inception_4d/output_inception_4d/output_0_split_0
I0225 09:08:35.326297    44 net.cpp:455] inception_4e/1x1 -> inception_4e/1x1_raw
I0225 09:08:35.328315    44 net.cpp:190] Setting up inception_4e/1x1
I0225 09:08:35.328325    44 net.cpp:197] Top shape: 1 256 32 64 (524288)
I0225 09:08:35.328330    44 net.cpp:205] Memory required for data: 688390148
I0225 09:08:35.328336    44 layer_factory.hpp:123] Creating layer inception_4e/1x1_BatchNorm
I0225 09:08:35.328344    44 net.cpp:140] Creating Layer inception_4e/1x1_BatchNorm
I0225 09:08:35.328348    44 net.cpp:481] inception_4e/1x1_BatchNorm <- inception_4e/1x1_raw
I0225 09:08:35.328354    44 net.cpp:455] inception_4e/1x1_BatchNorm -> inception_4e/1x1
I0225 09:08:35.328833    44 net.cpp:190] Setting up inception_4e/1x1_BatchNorm
I0225 09:08:35.328841    44 net.cpp:197] Top shape: 1 256 32 64 (524288)
I0225 09:08:35.328846    44 net.cpp:205] Memory required for data: 690487300
I0225 09:08:35.328855    44 layer_factory.hpp:123] Creating layer inception_4e/relu_1x1
I0225 09:08:35.328860    44 net.cpp:140] Creating Layer inception_4e/relu_1x1
I0225 09:08:35.328862    44 net.cpp:481] inception_4e/relu_1x1 <- inception_4e/1x1
I0225 09:08:35.328867    44 net.cpp:442] inception_4e/relu_1x1 -> inception_4e/1x1 (in-place)
I0225 09:08:35.328872    44 net.cpp:190] Setting up inception_4e/relu_1x1
I0225 09:08:35.328876    44 net.cpp:197] Top shape: 1 256 32 64 (524288)
I0225 09:08:35.328881    44 net.cpp:205] Memory required for data: 692584452
I0225 09:08:35.328883    44 layer_factory.hpp:123] Creating layer inception_4e/3x3_reduce
I0225 09:08:35.328891    44 net.cpp:140] Creating Layer inception_4e/3x3_reduce
I0225 09:08:35.328893    44 net.cpp:481] inception_4e/3x3_reduce <- inception_4d/output_inception_4d/output_0_split_1
I0225 09:08:35.328898    44 net.cpp:455] inception_4e/3x3_reduce -> inception_4e/3x3_reduce_raw
I0225 09:08:35.329831    44 net.cpp:190] Setting up inception_4e/3x3_reduce
I0225 09:08:35.329838    44 net.cpp:197] Top shape: 1 160 32 64 (327680)
I0225 09:08:35.329843    44 net.cpp:205] Memory required for data: 693895172
I0225 09:08:35.329849    44 layer_factory.hpp:123] Creating layer inception_4e/3x3_reduce_BatchNorm
I0225 09:08:35.329855    44 net.cpp:140] Creating Layer inception_4e/3x3_reduce_BatchNorm
I0225 09:08:35.329859    44 net.cpp:481] inception_4e/3x3_reduce_BatchNorm <- inception_4e/3x3_reduce_raw
I0225 09:08:35.329864    44 net.cpp:455] inception_4e/3x3_reduce_BatchNorm -> inception_4e/3x3_reduce
I0225 09:08:35.330395    44 net.cpp:190] Setting up inception_4e/3x3_reduce_BatchNorm
I0225 09:08:35.330402    44 net.cpp:197] Top shape: 1 160 32 64 (327680)
I0225 09:08:35.330406    44 net.cpp:205] Memory required for data: 695205892
I0225 09:08:35.330415    44 layer_factory.hpp:123] Creating layer inception_4e/relu_3x3_reduce
I0225 09:08:35.330420    44 net.cpp:140] Creating Layer inception_4e/relu_3x3_reduce
I0225 09:08:35.330425    44 net.cpp:481] inception_4e/relu_3x3_reduce <- inception_4e/3x3_reduce
I0225 09:08:35.330432    44 net.cpp:442] inception_4e/relu_3x3_reduce -> inception_4e/3x3_reduce (in-place)
I0225 09:08:35.330441    44 net.cpp:190] Setting up inception_4e/relu_3x3_reduce
I0225 09:08:35.330446    44 net.cpp:197] Top shape: 1 160 32 64 (327680)
I0225 09:08:35.330452    44 net.cpp:205] Memory required for data: 696516612
I0225 09:08:35.330457    44 layer_factory.hpp:123] Creating layer inception_4e/3x3
I0225 09:08:35.330469    44 net.cpp:140] Creating Layer inception_4e/3x3
I0225 09:08:35.330474    44 net.cpp:481] inception_4e/3x3 <- inception_4e/3x3_reduce
I0225 09:08:35.330482    44 net.cpp:455] inception_4e/3x3 -> inception_4e/3x3_raw
I0225 09:08:35.336030    44 net.cpp:190] Setting up inception_4e/3x3
I0225 09:08:35.336041    44 net.cpp:197] Top shape: 1 320 32 64 (655360)
I0225 09:08:35.336062    44 net.cpp:205] Memory required for data: 699138052
I0225 09:08:35.336069    44 layer_factory.hpp:123] Creating layer inception_4e/3x3_BatchNorm
I0225 09:08:35.336077    44 net.cpp:140] Creating Layer inception_4e/3x3_BatchNorm
I0225 09:08:35.336081    44 net.cpp:481] inception_4e/3x3_BatchNorm <- inception_4e/3x3_raw
I0225 09:08:35.336088    44 net.cpp:455] inception_4e/3x3_BatchNorm -> inception_4e/3x3
I0225 09:08:35.336655    44 net.cpp:190] Setting up inception_4e/3x3_BatchNorm
I0225 09:08:35.336663    44 net.cpp:197] Top shape: 1 320 32 64 (655360)
I0225 09:08:35.336668    44 net.cpp:205] Memory required for data: 701759492
I0225 09:08:35.336674    44 layer_factory.hpp:123] Creating layer inception_4e/relu_3x3
I0225 09:08:35.336679    44 net.cpp:140] Creating Layer inception_4e/relu_3x3
I0225 09:08:35.336683    44 net.cpp:481] inception_4e/relu_3x3 <- inception_4e/3x3
I0225 09:08:35.336688    44 net.cpp:442] inception_4e/relu_3x3 -> inception_4e/3x3 (in-place)
I0225 09:08:35.336694    44 net.cpp:190] Setting up inception_4e/relu_3x3
I0225 09:08:35.336704    44 net.cpp:197] Top shape: 1 320 32 64 (655360)
I0225 09:08:35.336709    44 net.cpp:205] Memory required for data: 704380932
I0225 09:08:35.336711    44 layer_factory.hpp:123] Creating layer inception_4e/5x5_reduce
I0225 09:08:35.336719    44 net.cpp:140] Creating Layer inception_4e/5x5_reduce
I0225 09:08:35.336724    44 net.cpp:481] inception_4e/5x5_reduce <- inception_4d/output_inception_4d/output_0_split_2
I0225 09:08:35.336728    44 net.cpp:455] inception_4e/5x5_reduce -> inception_4e/5x5_reduce_raw
I0225 09:08:35.337095    44 net.cpp:190] Setting up inception_4e/5x5_reduce
I0225 09:08:35.337102    44 net.cpp:197] Top shape: 1 32 32 64 (65536)
I0225 09:08:35.337107    44 net.cpp:205] Memory required for data: 704643076
I0225 09:08:35.337113    44 layer_factory.hpp:123] Creating layer inception_4e/5x5_reduce_BatchNorm
I0225 09:08:35.337121    44 net.cpp:140] Creating Layer inception_4e/5x5_reduce_BatchNorm
I0225 09:08:35.337124    44 net.cpp:481] inception_4e/5x5_reduce_BatchNorm <- inception_4e/5x5_reduce_raw
I0225 09:08:35.337129    44 net.cpp:455] inception_4e/5x5_reduce_BatchNorm -> inception_4e/5x5_reduce
I0225 09:08:35.337675    44 net.cpp:190] Setting up inception_4e/5x5_reduce_BatchNorm
I0225 09:08:35.337682    44 net.cpp:197] Top shape: 1 32 32 64 (65536)
I0225 09:08:35.337687    44 net.cpp:205] Memory required for data: 704905220
I0225 09:08:35.337694    44 layer_factory.hpp:123] Creating layer inception_4e/relu_5x5_reduce
I0225 09:08:35.337699    44 net.cpp:140] Creating Layer inception_4e/relu_5x5_reduce
I0225 09:08:35.337702    44 net.cpp:481] inception_4e/relu_5x5_reduce <- inception_4e/5x5_reduce
I0225 09:08:35.337707    44 net.cpp:442] inception_4e/relu_5x5_reduce -> inception_4e/5x5_reduce (in-place)
I0225 09:08:35.337714    44 net.cpp:190] Setting up inception_4e/relu_5x5_reduce
I0225 09:08:35.337719    44 net.cpp:197] Top shape: 1 32 32 64 (65536)
I0225 09:08:35.337725    44 net.cpp:205] Memory required for data: 705167364
I0225 09:08:35.337729    44 layer_factory.hpp:123] Creating layer inception_4e/5x5
I0225 09:08:35.337741    44 net.cpp:140] Creating Layer inception_4e/5x5
I0225 09:08:35.337746    44 net.cpp:481] inception_4e/5x5 <- inception_4e/5x5_reduce
I0225 09:08:35.337754    44 net.cpp:455] inception_4e/5x5 -> inception_4e/5x5_raw
I0225 09:08:35.339478    44 net.cpp:190] Setting up inception_4e/5x5
I0225 09:08:35.339488    44 net.cpp:197] Top shape: 1 128 32 64 (262144)
I0225 09:08:35.339509    44 net.cpp:205] Memory required for data: 706215940
I0225 09:08:35.339515    44 layer_factory.hpp:123] Creating layer inception_4e/5x5_BatchNorm
I0225 09:08:35.339522    44 net.cpp:140] Creating Layer inception_4e/5x5_BatchNorm
I0225 09:08:35.339526    44 net.cpp:481] inception_4e/5x5_BatchNorm <- inception_4e/5x5_raw
I0225 09:08:35.339532    44 net.cpp:455] inception_4e/5x5_BatchNorm -> inception_4e/5x5
I0225 09:08:35.340076    44 net.cpp:190] Setting up inception_4e/5x5_BatchNorm
I0225 09:08:35.340085    44 net.cpp:197] Top shape: 1 128 32 64 (262144)
I0225 09:08:35.340091    44 net.cpp:205] Memory required for data: 707264516
I0225 09:08:35.340099    44 layer_factory.hpp:123] Creating layer inception_4e/relu_5x5
I0225 09:08:35.340106    44 net.cpp:140] Creating Layer inception_4e/relu_5x5
I0225 09:08:35.340109    44 net.cpp:481] inception_4e/relu_5x5 <- inception_4e/5x5
I0225 09:08:35.340114    44 net.cpp:442] inception_4e/relu_5x5 -> inception_4e/5x5 (in-place)
I0225 09:08:35.340121    44 net.cpp:190] Setting up inception_4e/relu_5x5
I0225 09:08:35.340123    44 net.cpp:197] Top shape: 1 128 32 64 (262144)
I0225 09:08:35.340127    44 net.cpp:205] Memory required for data: 708313092
I0225 09:08:35.340131    44 layer_factory.hpp:123] Creating layer inception_4e/pool
I0225 09:08:35.340137    44 net.cpp:140] Creating Layer inception_4e/pool
I0225 09:08:35.340139    44 net.cpp:481] inception_4e/pool <- inception_4d/output_inception_4d/output_0_split_3
I0225 09:08:35.340144    44 net.cpp:455] inception_4e/pool -> inception_4e/pool
I0225 09:08:35.340175    44 net.cpp:190] Setting up inception_4e/pool
I0225 09:08:35.340180    44 net.cpp:197] Top shape: 1 528 32 64 (1081344)
I0225 09:08:35.340185    44 net.cpp:205] Memory required for data: 712638468
I0225 09:08:35.340188    44 layer_factory.hpp:123] Creating layer inception_4e/pool_proj
I0225 09:08:35.340195    44 net.cpp:140] Creating Layer inception_4e/pool_proj
I0225 09:08:35.340198    44 net.cpp:481] inception_4e/pool_proj <- inception_4e/pool
I0225 09:08:35.340204    44 net.cpp:455] inception_4e/pool_proj -> inception_4e/pool_proj_raw
I0225 09:08:35.341022    44 net.cpp:190] Setting up inception_4e/pool_proj
I0225 09:08:35.341029    44 net.cpp:197] Top shape: 1 128 32 64 (262144)
I0225 09:08:35.341034    44 net.cpp:205] Memory required for data: 713687044
I0225 09:08:35.341039    44 layer_factory.hpp:123] Creating layer inception_4e/pool_proj_BatchNorm
I0225 09:08:35.341046    44 net.cpp:140] Creating Layer inception_4e/pool_proj_BatchNorm
I0225 09:08:35.341050    44 net.cpp:481] inception_4e/pool_proj_BatchNorm <- inception_4e/pool_proj_raw
I0225 09:08:35.341055    44 net.cpp:455] inception_4e/pool_proj_BatchNorm -> inception_4e/pool_proj
I0225 09:08:35.341513    44 net.cpp:190] Setting up inception_4e/pool_proj_BatchNorm
I0225 09:08:35.341521    44 net.cpp:197] Top shape: 1 128 32 64 (262144)
I0225 09:08:35.341526    44 net.cpp:205] Memory required for data: 714735620
I0225 09:08:35.341533    44 layer_factory.hpp:123] Creating layer inception_4e/relu_pool_proj
I0225 09:08:35.341537    44 net.cpp:140] Creating Layer inception_4e/relu_pool_proj
I0225 09:08:35.341542    44 net.cpp:481] inception_4e/relu_pool_proj <- inception_4e/pool_proj
I0225 09:08:35.341547    44 net.cpp:442] inception_4e/relu_pool_proj -> inception_4e/pool_proj (in-place)
I0225 09:08:35.341552    44 net.cpp:190] Setting up inception_4e/relu_pool_proj
I0225 09:08:35.341554    44 net.cpp:197] Top shape: 1 128 32 64 (262144)
I0225 09:08:35.341558    44 net.cpp:205] Memory required for data: 715784196
I0225 09:08:35.341562    44 layer_factory.hpp:123] Creating layer inception_4e/output
I0225 09:08:35.341567    44 net.cpp:140] Creating Layer inception_4e/output
I0225 09:08:35.341570    44 net.cpp:481] inception_4e/output <- inception_4e/1x1
I0225 09:08:35.341574    44 net.cpp:481] inception_4e/output <- inception_4e/3x3
I0225 09:08:35.341578    44 net.cpp:481] inception_4e/output <- inception_4e/5x5
I0225 09:08:35.341580    44 net.cpp:481] inception_4e/output <- inception_4e/pool_proj
I0225 09:08:35.341584    44 net.cpp:455] inception_4e/output -> inception_4e/output
I0225 09:08:35.341603    44 net.cpp:190] Setting up inception_4e/output
I0225 09:08:35.341608    44 net.cpp:197] Top shape: 1 832 32 64 (1703936)
I0225 09:08:35.341611    44 net.cpp:205] Memory required for data: 722599940
I0225 09:08:35.341614    44 layer_factory.hpp:123] Creating layer inception_4e/output_inception_4e/output_0_split
I0225 09:08:35.341619    44 net.cpp:140] Creating Layer inception_4e/output_inception_4e/output_0_split
I0225 09:08:35.341622    44 net.cpp:481] inception_4e/output_inception_4e/output_0_split <- inception_4e/output
I0225 09:08:35.341626    44 net.cpp:455] inception_4e/output_inception_4e/output_0_split -> inception_4e/output_inception_4e/output_0_split_0
I0225 09:08:35.341632    44 net.cpp:455] inception_4e/output_inception_4e/output_0_split -> inception_4e/output_inception_4e/output_0_split_1
I0225 09:08:35.341657    44 net.cpp:190] Setting up inception_4e/output_inception_4e/output_0_split
I0225 09:08:35.341661    44 net.cpp:197] Top shape: 1 832 32 64 (1703936)
I0225 09:08:35.341665    44 net.cpp:197] Top shape: 1 832 32 64 (1703936)
I0225 09:08:35.341670    44 net.cpp:205] Memory required for data: 736231428
I0225 09:08:35.341672    44 layer_factory.hpp:123] Creating layer pool4/3x3_s2
I0225 09:08:35.341678    44 net.cpp:140] Creating Layer pool4/3x3_s2
I0225 09:08:35.341681    44 net.cpp:481] pool4/3x3_s2 <- inception_4e/output_inception_4e/output_0_split_0
I0225 09:08:35.341686    44 net.cpp:455] pool4/3x3_s2 -> pool4/3x3_s2
I0225 09:08:35.341712    44 net.cpp:190] Setting up pool4/3x3_s2
I0225 09:08:35.341718    44 net.cpp:197] Top shape: 1 832 16 32 (425984)
I0225 09:08:35.341722    44 net.cpp:205] Memory required for data: 737935364
I0225 09:08:35.341727    44 layer_factory.hpp:123] Creating layer pool4/3x3_s2_pool4/3x3_s2_0_split
I0225 09:08:35.341734    44 net.cpp:140] Creating Layer pool4/3x3_s2_pool4/3x3_s2_0_split
I0225 09:08:35.341739    44 net.cpp:481] pool4/3x3_s2_pool4/3x3_s2_0_split <- pool4/3x3_s2
I0225 09:08:35.341747    44 net.cpp:455] pool4/3x3_s2_pool4/3x3_s2_0_split -> pool4/3x3_s2_pool4/3x3_s2_0_split_0
I0225 09:08:35.341766    44 net.cpp:455] pool4/3x3_s2_pool4/3x3_s2_0_split -> pool4/3x3_s2_pool4/3x3_s2_0_split_1
I0225 09:08:35.341774    44 net.cpp:455] pool4/3x3_s2_pool4/3x3_s2_0_split -> pool4/3x3_s2_pool4/3x3_s2_0_split_2
I0225 09:08:35.341784    44 net.cpp:455] pool4/3x3_s2_pool4/3x3_s2_0_split -> pool4/3x3_s2_pool4/3x3_s2_0_split_3
I0225 09:08:35.341835    44 net.cpp:190] Setting up pool4/3x3_s2_pool4/3x3_s2_0_split
I0225 09:08:35.341840    44 net.cpp:197] Top shape: 1 832 16 32 (425984)
I0225 09:08:35.341845    44 net.cpp:197] Top shape: 1 832 16 32 (425984)
I0225 09:08:35.341850    44 net.cpp:197] Top shape: 1 832 16 32 (425984)
I0225 09:08:35.341852    44 net.cpp:197] Top shape: 1 832 16 32 (425984)
I0225 09:08:35.341856    44 net.cpp:205] Memory required for data: 744751108
I0225 09:08:35.341861    44 layer_factory.hpp:123] Creating layer inception_5a/1x1
I0225 09:08:35.341868    44 net.cpp:140] Creating Layer inception_5a/1x1
I0225 09:08:35.341872    44 net.cpp:481] inception_5a/1x1 <- pool4/3x3_s2_pool4/3x3_s2_0_split_0
I0225 09:08:35.341881    44 net.cpp:455] inception_5a/1x1 -> inception_5a/1x1_raw
I0225 09:08:35.344523    44 net.cpp:190] Setting up inception_5a/1x1
I0225 09:08:35.344533    44 net.cpp:197] Top shape: 1 256 16 32 (131072)
I0225 09:08:35.344539    44 net.cpp:205] Memory required for data: 745275396
I0225 09:08:35.344545    44 layer_factory.hpp:123] Creating layer inception_5a/1x1_BatchNorm
I0225 09:08:35.344552    44 net.cpp:140] Creating Layer inception_5a/1x1_BatchNorm
I0225 09:08:35.344557    44 net.cpp:481] inception_5a/1x1_BatchNorm <- inception_5a/1x1_raw
I0225 09:08:35.344563    44 net.cpp:455] inception_5a/1x1_BatchNorm -> inception_5a/1x1
I0225 09:08:35.345044    44 net.cpp:190] Setting up inception_5a/1x1_BatchNorm
I0225 09:08:35.345052    44 net.cpp:197] Top shape: 1 256 16 32 (131072)
I0225 09:08:35.345057    44 net.cpp:205] Memory required for data: 745799684
I0225 09:08:35.345064    44 layer_factory.hpp:123] Creating layer inception_5a/relu_1x1
I0225 09:08:35.345069    44 net.cpp:140] Creating Layer inception_5a/relu_1x1
I0225 09:08:35.345073    44 net.cpp:481] inception_5a/relu_1x1 <- inception_5a/1x1
I0225 09:08:35.345077    44 net.cpp:442] inception_5a/relu_1x1 -> inception_5a/1x1 (in-place)
I0225 09:08:35.345083    44 net.cpp:190] Setting up inception_5a/relu_1x1
I0225 09:08:35.345086    44 net.cpp:197] Top shape: 1 256 16 32 (131072)
I0225 09:08:35.345090    44 net.cpp:205] Memory required for data: 746323972
I0225 09:08:35.345093    44 layer_factory.hpp:123] Creating layer inception_5a/3x3_reduce
I0225 09:08:35.345100    44 net.cpp:140] Creating Layer inception_5a/3x3_reduce
I0225 09:08:35.345103    44 net.cpp:481] inception_5a/3x3_reduce <- pool4/3x3_s2_pool4/3x3_s2_0_split_1
I0225 09:08:35.345108    44 net.cpp:455] inception_5a/3x3_reduce -> inception_5a/3x3_reduce_raw
I0225 09:08:35.346503    44 net.cpp:190] Setting up inception_5a/3x3_reduce
I0225 09:08:35.346513    44 net.cpp:197] Top shape: 1 160 16 32 (81920)
I0225 09:08:35.346518    44 net.cpp:205] Memory required for data: 746651652
I0225 09:08:35.346524    44 layer_factory.hpp:123] Creating layer inception_5a/3x3_reduce_BatchNorm
I0225 09:08:35.346532    44 net.cpp:140] Creating Layer inception_5a/3x3_reduce_BatchNorm
I0225 09:08:35.346535    44 net.cpp:481] inception_5a/3x3_reduce_BatchNorm <- inception_5a/3x3_reduce_raw
I0225 09:08:35.346541    44 net.cpp:455] inception_5a/3x3_reduce_BatchNorm -> inception_5a/3x3_reduce
I0225 09:08:35.347088    44 net.cpp:190] Setting up inception_5a/3x3_reduce_BatchNorm
I0225 09:08:35.347095    44 net.cpp:197] Top shape: 1 160 16 32 (81920)
I0225 09:08:35.347100    44 net.cpp:205] Memory required for data: 746979332
I0225 09:08:35.347107    44 layer_factory.hpp:123] Creating layer inception_5a/relu_3x3_reduce
I0225 09:08:35.347112    44 net.cpp:140] Creating Layer inception_5a/relu_3x3_reduce
I0225 09:08:35.347116    44 net.cpp:481] inception_5a/relu_3x3_reduce <- inception_5a/3x3_reduce
I0225 09:08:35.347121    44 net.cpp:442] inception_5a/relu_3x3_reduce -> inception_5a/3x3_reduce (in-place)
I0225 09:08:35.347126    44 net.cpp:190] Setting up inception_5a/relu_3x3_reduce
I0225 09:08:35.347129    44 net.cpp:197] Top shape: 1 160 16 32 (81920)
I0225 09:08:35.347133    44 net.cpp:205] Memory required for data: 747307012
I0225 09:08:35.347136    44 layer_factory.hpp:123] Creating layer inception_5a/3x3
I0225 09:08:35.347143    44 net.cpp:140] Creating Layer inception_5a/3x3
I0225 09:08:35.347146    44 net.cpp:481] inception_5a/3x3 <- inception_5a/3x3_reduce
I0225 09:08:35.347151    44 net.cpp:455] inception_5a/3x3 -> inception_5a/3x3_raw
I0225 09:08:35.352769    44 net.cpp:190] Setting up inception_5a/3x3
I0225 09:08:35.352780    44 net.cpp:197] Top shape: 1 320 16 32 (163840)
I0225 09:08:35.352785    44 net.cpp:205] Memory required for data: 747962372
I0225 09:08:35.352792    44 layer_factory.hpp:123] Creating layer inception_5a/3x3_BatchNorm
I0225 09:08:35.352800    44 net.cpp:140] Creating Layer inception_5a/3x3_BatchNorm
I0225 09:08:35.352804    44 net.cpp:481] inception_5a/3x3_BatchNorm <- inception_5a/3x3_raw
I0225 09:08:35.352810    44 net.cpp:455] inception_5a/3x3_BatchNorm -> inception_5a/3x3
I0225 09:08:35.353358    44 net.cpp:190] Setting up inception_5a/3x3_BatchNorm
I0225 09:08:35.353364    44 net.cpp:197] Top shape: 1 320 16 32 (163840)
I0225 09:08:35.353369    44 net.cpp:205] Memory required for data: 748617732
I0225 09:08:35.353376    44 layer_factory.hpp:123] Creating layer inception_5a/relu_3x3
I0225 09:08:35.353381    44 net.cpp:140] Creating Layer inception_5a/relu_3x3
I0225 09:08:35.353385    44 net.cpp:481] inception_5a/relu_3x3 <- inception_5a/3x3
I0225 09:08:35.353390    44 net.cpp:442] inception_5a/relu_3x3 -> inception_5a/3x3 (in-place)
I0225 09:08:35.353395    44 net.cpp:190] Setting up inception_5a/relu_3x3
I0225 09:08:35.353399    44 net.cpp:197] Top shape: 1 320 16 32 (163840)
I0225 09:08:35.353402    44 net.cpp:205] Memory required for data: 749273092
I0225 09:08:35.353406    44 layer_factory.hpp:123] Creating layer inception_5a/5x5_reduce
I0225 09:08:35.353413    44 net.cpp:140] Creating Layer inception_5a/5x5_reduce
I0225 09:08:35.353416    44 net.cpp:481] inception_5a/5x5_reduce <- pool4/3x3_s2_pool4/3x3_s2_0_split_2
I0225 09:08:35.353421    44 net.cpp:455] inception_5a/5x5_reduce -> inception_5a/5x5_reduce_raw
I0225 09:08:35.353870    44 net.cpp:190] Setting up inception_5a/5x5_reduce
I0225 09:08:35.353878    44 net.cpp:197] Top shape: 1 32 16 32 (16384)
I0225 09:08:35.353883    44 net.cpp:205] Memory required for data: 749338628
I0225 09:08:35.353888    44 layer_factory.hpp:123] Creating layer inception_5a/5x5_reduce_BatchNorm
I0225 09:08:35.353894    44 net.cpp:140] Creating Layer inception_5a/5x5_reduce_BatchNorm
I0225 09:08:35.353899    44 net.cpp:481] inception_5a/5x5_reduce_BatchNorm <- inception_5a/5x5_reduce_raw
I0225 09:08:35.353904    44 net.cpp:455] inception_5a/5x5_reduce_BatchNorm -> inception_5a/5x5_reduce
I0225 09:08:35.354449    44 net.cpp:190] Setting up inception_5a/5x5_reduce_BatchNorm
I0225 09:08:35.354456    44 net.cpp:197] Top shape: 1 32 16 32 (16384)
I0225 09:08:35.354471    44 net.cpp:205] Memory required for data: 749404164
I0225 09:08:35.354478    44 layer_factory.hpp:123] Creating layer inception_5a/relu_5x5_reduce
I0225 09:08:35.354483    44 net.cpp:140] Creating Layer inception_5a/relu_5x5_reduce
I0225 09:08:35.354487    44 net.cpp:481] inception_5a/relu_5x5_reduce <- inception_5a/5x5_reduce
I0225 09:08:35.354491    44 net.cpp:442] inception_5a/relu_5x5_reduce -> inception_5a/5x5_reduce (in-place)
I0225 09:08:35.354497    44 net.cpp:190] Setting up inception_5a/relu_5x5_reduce
I0225 09:08:35.354501    44 net.cpp:197] Top shape: 1 32 16 32 (16384)
I0225 09:08:35.354504    44 net.cpp:205] Memory required for data: 749469700
I0225 09:08:35.354507    44 layer_factory.hpp:123] Creating layer inception_5a/5x5
I0225 09:08:35.354514    44 net.cpp:140] Creating Layer inception_5a/5x5
I0225 09:08:35.354517    44 net.cpp:481] inception_5a/5x5 <- inception_5a/5x5_reduce
I0225 09:08:35.354522    44 net.cpp:455] inception_5a/5x5 -> inception_5a/5x5_raw
I0225 09:08:35.356240    44 net.cpp:190] Setting up inception_5a/5x5
I0225 09:08:35.356249    44 net.cpp:197] Top shape: 1 128 16 32 (65536)
I0225 09:08:35.356266    44 net.cpp:205] Memory required for data: 749731844
I0225 09:08:35.356272    44 layer_factory.hpp:123] Creating layer inception_5a/5x5_BatchNorm
I0225 09:08:35.356279    44 net.cpp:140] Creating Layer inception_5a/5x5_BatchNorm
I0225 09:08:35.356283    44 net.cpp:481] inception_5a/5x5_BatchNorm <- inception_5a/5x5_raw
I0225 09:08:35.356289    44 net.cpp:455] inception_5a/5x5_BatchNorm -> inception_5a/5x5
I0225 09:08:35.356756    44 net.cpp:190] Setting up inception_5a/5x5_BatchNorm
I0225 09:08:35.356765    44 net.cpp:197] Top shape: 1 128 16 32 (65536)
I0225 09:08:35.356770    44 net.cpp:205] Memory required for data: 749993988
I0225 09:08:35.356776    44 layer_factory.hpp:123] Creating layer inception_5a/relu_5x5
I0225 09:08:35.356781    44 net.cpp:140] Creating Layer inception_5a/relu_5x5
I0225 09:08:35.356786    44 net.cpp:481] inception_5a/relu_5x5 <- inception_5a/5x5
I0225 09:08:35.356791    44 net.cpp:442] inception_5a/relu_5x5 -> inception_5a/5x5 (in-place)
I0225 09:08:35.356796    44 net.cpp:190] Setting up inception_5a/relu_5x5
I0225 09:08:35.356799    44 net.cpp:197] Top shape: 1 128 16 32 (65536)
I0225 09:08:35.356803    44 net.cpp:205] Memory required for data: 750256132
I0225 09:08:35.356806    44 layer_factory.hpp:123] Creating layer inception_5a/pool
I0225 09:08:35.356812    44 net.cpp:140] Creating Layer inception_5a/pool
I0225 09:08:35.356814    44 net.cpp:481] inception_5a/pool <- pool4/3x3_s2_pool4/3x3_s2_0_split_3
I0225 09:08:35.356819    44 net.cpp:455] inception_5a/pool -> inception_5a/pool
I0225 09:08:35.356848    44 net.cpp:190] Setting up inception_5a/pool
I0225 09:08:35.356853    44 net.cpp:197] Top shape: 1 832 16 32 (425984)
I0225 09:08:35.356858    44 net.cpp:205] Memory required for data: 751960068
I0225 09:08:35.356861    44 layer_factory.hpp:123] Creating layer inception_5a/pool_proj
I0225 09:08:35.356868    44 net.cpp:140] Creating Layer inception_5a/pool_proj
I0225 09:08:35.356873    44 net.cpp:481] inception_5a/pool_proj <- inception_5a/pool
I0225 09:08:35.356876    44 net.cpp:455] inception_5a/pool_proj -> inception_5a/pool_proj_raw
I0225 09:08:35.357977    44 net.cpp:190] Setting up inception_5a/pool_proj
I0225 09:08:35.357985    44 net.cpp:197] Top shape: 1 128 16 32 (65536)
I0225 09:08:35.357988    44 net.cpp:205] Memory required for data: 752222212
I0225 09:08:35.358006    44 layer_factory.hpp:123] Creating layer inception_5a/pool_proj_BatchNorm
I0225 09:08:35.358012    44 net.cpp:140] Creating Layer inception_5a/pool_proj_BatchNorm
I0225 09:08:35.358016    44 net.cpp:481] inception_5a/pool_proj_BatchNorm <- inception_5a/pool_proj_raw
I0225 09:08:35.358021    44 net.cpp:455] inception_5a/pool_proj_BatchNorm -> inception_5a/pool_proj
I0225 09:08:35.358533    44 net.cpp:190] Setting up inception_5a/pool_proj_BatchNorm
I0225 09:08:35.358542    44 net.cpp:197] Top shape: 1 128 16 32 (65536)
I0225 09:08:35.358548    44 net.cpp:205] Memory required for data: 752484356
I0225 09:08:35.358556    44 layer_factory.hpp:123] Creating layer inception_5a/relu_pool_proj
I0225 09:08:35.358561    44 net.cpp:140] Creating Layer inception_5a/relu_pool_proj
I0225 09:08:35.358566    44 net.cpp:481] inception_5a/relu_pool_proj <- inception_5a/pool_proj
I0225 09:08:35.358570    44 net.cpp:442] inception_5a/relu_pool_proj -> inception_5a/pool_proj (in-place)
I0225 09:08:35.358577    44 net.cpp:190] Setting up inception_5a/relu_pool_proj
I0225 09:08:35.358579    44 net.cpp:197] Top shape: 1 128 16 32 (65536)
I0225 09:08:35.358583    44 net.cpp:205] Memory required for data: 752746500
I0225 09:08:35.358587    44 layer_factory.hpp:123] Creating layer inception_5a/output
I0225 09:08:35.358592    44 net.cpp:140] Creating Layer inception_5a/output
I0225 09:08:35.358594    44 net.cpp:481] inception_5a/output <- inception_5a/1x1
I0225 09:08:35.358598    44 net.cpp:481] inception_5a/output <- inception_5a/3x3
I0225 09:08:35.358602    44 net.cpp:481] inception_5a/output <- inception_5a/5x5
I0225 09:08:35.358605    44 net.cpp:481] inception_5a/output <- inception_5a/pool_proj
I0225 09:08:35.358609    44 net.cpp:455] inception_5a/output -> inception_5a/output
I0225 09:08:35.358628    44 net.cpp:190] Setting up inception_5a/output
I0225 09:08:35.358631    44 net.cpp:197] Top shape: 1 832 16 32 (425984)
I0225 09:08:35.358635    44 net.cpp:205] Memory required for data: 754450436
I0225 09:08:35.358639    44 layer_factory.hpp:123] Creating layer inception_5a/output_inception_5a/output_0_split
I0225 09:08:35.358644    44 net.cpp:140] Creating Layer inception_5a/output_inception_5a/output_0_split
I0225 09:08:35.358647    44 net.cpp:481] inception_5a/output_inception_5a/output_0_split <- inception_5a/output
I0225 09:08:35.358652    44 net.cpp:455] inception_5a/output_inception_5a/output_0_split -> inception_5a/output_inception_5a/output_0_split_0
I0225 09:08:35.358659    44 net.cpp:455] inception_5a/output_inception_5a/output_0_split -> inception_5a/output_inception_5a/output_0_split_1
I0225 09:08:35.358664    44 net.cpp:455] inception_5a/output_inception_5a/output_0_split -> inception_5a/output_inception_5a/output_0_split_2
I0225 09:08:35.358667    44 net.cpp:455] inception_5a/output_inception_5a/output_0_split -> inception_5a/output_inception_5a/output_0_split_3
I0225 09:08:35.358711    44 net.cpp:190] Setting up inception_5a/output_inception_5a/output_0_split
I0225 09:08:35.358716    44 net.cpp:197] Top shape: 1 832 16 32 (425984)
I0225 09:08:35.358721    44 net.cpp:197] Top shape: 1 832 16 32 (425984)
I0225 09:08:35.358726    44 net.cpp:197] Top shape: 1 832 16 32 (425984)
I0225 09:08:35.358728    44 net.cpp:197] Top shape: 1 832 16 32 (425984)
I0225 09:08:35.358732    44 net.cpp:205] Memory required for data: 761266180
I0225 09:08:35.358736    44 layer_factory.hpp:123] Creating layer inception_5b/1x1
I0225 09:08:35.358743    44 net.cpp:140] Creating Layer inception_5b/1x1
I0225 09:08:35.358747    44 net.cpp:481] inception_5b/1x1 <- inception_5a/output_inception_5a/output_0_split_0
I0225 09:08:35.358752    44 net.cpp:455] inception_5b/1x1 -> inception_5b/1x1_raw
I0225 09:08:35.362916    44 net.cpp:190] Setting up inception_5b/1x1
I0225 09:08:35.362926    44 net.cpp:197] Top shape: 1 384 16 32 (196608)
I0225 09:08:35.362932    44 net.cpp:205] Memory required for data: 762052612
I0225 09:08:35.362938    44 layer_factory.hpp:123] Creating layer inception_5b/1x1_BatchNorm
I0225 09:08:35.362946    44 net.cpp:140] Creating Layer inception_5b/1x1_BatchNorm
I0225 09:08:35.362951    44 net.cpp:481] inception_5b/1x1_BatchNorm <- inception_5b/1x1_raw
I0225 09:08:35.362957    44 net.cpp:455] inception_5b/1x1_BatchNorm -> inception_5b/1x1
I0225 09:08:35.363415    44 net.cpp:190] Setting up inception_5b/1x1_BatchNorm
I0225 09:08:35.363422    44 net.cpp:197] Top shape: 1 384 16 32 (196608)
I0225 09:08:35.363427    44 net.cpp:205] Memory required for data: 762839044
I0225 09:08:35.363435    44 layer_factory.hpp:123] Creating layer inception_5b/relu_1x1
I0225 09:08:35.363440    44 net.cpp:140] Creating Layer inception_5b/relu_1x1
I0225 09:08:35.363443    44 net.cpp:481] inception_5b/relu_1x1 <- inception_5b/1x1
I0225 09:08:35.363448    44 net.cpp:442] inception_5b/relu_1x1 -> inception_5b/1x1 (in-place)
I0225 09:08:35.363454    44 net.cpp:190] Setting up inception_5b/relu_1x1
I0225 09:08:35.363457    44 net.cpp:197] Top shape: 1 384 16 32 (196608)
I0225 09:08:35.363461    44 net.cpp:205] Memory required for data: 763625476
I0225 09:08:35.363464    44 layer_factory.hpp:123] Creating layer inception_5b/3x3_reduce
…
I0225 09:08:36.062711    44 net.cpp:442] inception_4e/relu_1x1 -> inception_4e/1x1 (in-place)
I0225 09:08:36.062718    44 net.cpp:190] Setting up inception_4e/relu_1x1
I0225 09:08:36.062722    44 net.cpp:197] Top shape: 1 256 32 64 (524288)
I0225 09:08:36.062726    44 net.cpp:205] Memory required for data: 671612932
I0225 09:08:36.062731    44 layer_factory.hpp:123] Creating layer inception_4e/3x3_reduce
I0225 09:08:36.062737    44 net.cpp:140] Creating Layer inception_4e/3x3_reduce
I0225 09:08:36.062741    44 net.cpp:481] inception_4e/3x3_reduce <- inception_4d/output_inception_4d/output_fixed_0_split_1
I0225 09:08:36.062747    44 net.cpp:455] inception_4e/3x3_reduce -> inception_4e/3x3_reduce
I0225 09:08:36.064231    44 layer_factory.hpp:123] Creating layer inception_4e/3x3_reduce
I0225 09:08:36.065232    44 net.cpp:190] Setting up inception_4e/3x3_reduce
I0225 09:08:36.065239    44 net.cpp:197] Top shape: 1 160 32 64 (327680)
I0225 09:08:36.065244    44 net.cpp:205] Memory required for data: 672923652
I0225 09:08:36.065250    44 layer_factory.hpp:123] Creating layer inception_4e/relu_3x3_reduce
I0225 09:08:36.065260    44 net.cpp:140] Creating Layer inception_4e/relu_3x3_reduce
I0225 09:08:36.065264    44 net.cpp:481] inception_4e/relu_3x3_reduce <- inception_4e/3x3_reduce
I0225 09:08:36.065269    44 net.cpp:442] inception_4e/relu_3x3_reduce -> inception_4e/3x3_reduce (in-place)
I0225 09:08:36.065275    44 net.cpp:190] Setting up inception_4e/relu_3x3_reduce
I0225 09:08:36.065279    44 net.cpp:197] Top shape: 1 160 32 64 (327680)
I0225 09:08:36.065282    44 net.cpp:205] Memory required for data: 674234372
I0225 09:08:36.065286    44 layer_factory.hpp:123] Creating layer inception_4e/3x3_reduce_fixed
I0225 09:08:36.065291    44 net.cpp:140] Creating Layer inception_4e/3x3_reduce_fixed
I0225 09:08:36.065294    44 net.cpp:481] inception_4e/3x3_reduce_fixed <- inception_4e/3x3_reduce
I0225 09:08:36.065299    44 net.cpp:442] inception_4e/3x3_reduce_fixed -> inception_4e/3x3_reduce (in-place)
I0225 09:08:36.065323    44 net.cpp:190] Setting up inception_4e/3x3_reduce_fixed
I0225 09:08:36.065328    44 net.cpp:197] Top shape: 1 160 32 64 (327680)
I0225 09:08:36.065332    44 net.cpp:205] Memory required for data: 675545092
I0225 09:08:36.065336    44 layer_factory.hpp:123] Creating layer inception_4e/3x3
I0225 09:08:36.065344    44 net.cpp:140] Creating Layer inception_4e/3x3
I0225 09:08:36.065347    44 net.cpp:481] inception_4e/3x3 <- inception_4e/3x3_reduce
I0225 09:08:36.065352    44 net.cpp:455] inception_4e/3x3 -> inception_4e/3x3
I0225 09:08:36.070622    44 layer_factory.hpp:123] Creating layer inception_4e/3x3
I0225 09:08:36.076033    44 net.cpp:190] Setting up inception_4e/3x3
I0225 09:08:36.076043    44 net.cpp:197] Top shape: 1 320 32 64 (655360)
I0225 09:08:36.076050    44 net.cpp:205] Memory required for data: 678166532
I0225 09:08:36.076056    44 layer_factory.hpp:123] Creating layer inception_4e/relu_3x3
I0225 09:08:36.076061    44 net.cpp:140] Creating Layer inception_4e/relu_3x3
I0225 09:08:36.076066    44 net.cpp:481] inception_4e/relu_3x3 <- inception_4e/3x3
I0225 09:08:36.076071    44 net.cpp:442] inception_4e/relu_3x3 -> inception_4e/3x3 (in-place)
I0225 09:08:36.076076    44 net.cpp:190] Setting up inception_4e/relu_3x3
I0225 09:08:36.076079    44 net.cpp:197] Top shape: 1 320 32 64 (655360)
I0225 09:08:36.076083    44 net.cpp:205] Memory required for data: 680787972
I0225 09:08:36.076086    44 layer_factory.hpp:123] Creating layer inception_4e/5x5_reduce
I0225 09:08:36.076094    44 net.cpp:140] Creating Layer inception_4e/5x5_reduce
I0225 09:08:36.076100    44 net.cpp:481] inception_4e/5x5_reduce <- inception_4d/output_inception_4d/output_fixed_0_split_2
I0225 09:08:36.076105    44 net.cpp:455] inception_4e/5x5_reduce -> inception_4e/5x5_reduce
I0225 09:08:36.076409    44 layer_factory.hpp:123] Creating layer inception_4e/5x5_reduce
I0225 09:08:36.076875    44 net.cpp:190] Setting up inception_4e/5x5_reduce
I0225 09:08:36.076882    44 net.cpp:197] Top shape: 1 32 32 64 (65536)
I0225 09:08:36.076887    44 net.cpp:205] Memory required for data: 681050116
I0225 09:08:36.076894    44 layer_factory.hpp:123] Creating layer inception_4e/relu_5x5_reduce
I0225 09:08:36.076898    44 net.cpp:140] Creating Layer inception_4e/relu_5x5_reduce
I0225 09:08:36.076902    44 net.cpp:481] inception_4e/relu_5x5_reduce <- inception_4e/5x5_reduce
I0225 09:08:36.076906    44 net.cpp:442] inception_4e/relu_5x5_reduce -> inception_4e/5x5_reduce (in-place)
I0225 09:08:36.076912    44 net.cpp:190] Setting up inception_4e/relu_5x5_reduce
I0225 09:08:36.076915    44 net.cpp:197] Top shape: 1 32 32 64 (65536)
I0225 09:08:36.076920    44 net.cpp:205] Memory required for data: 681312260
I0225 09:08:36.076922    44 layer_factory.hpp:123] Creating layer inception_4e/5x5_reduce_fixed
I0225 09:08:36.076928    44 net.cpp:140] Creating Layer inception_4e/5x5_reduce_fixed
I0225 09:08:36.076931    44 net.cpp:481] inception_4e/5x5_reduce_fixed <- inception_4e/5x5_reduce
I0225 09:08:36.076936    44 net.cpp:442] inception_4e/5x5_reduce_fixed -> inception_4e/5x5_reduce (in-place)
I0225 09:08:36.076962    44 net.cpp:190] Setting up inception_4e/5x5_reduce_fixed
I0225 09:08:36.076967    44 net.cpp:197] Top shape: 1 32 32 64 (65536)
I0225 09:08:36.076972    44 net.cpp:205] Memory required for data: 681574404
I0225 09:08:36.076977    44 layer_factory.hpp:123] Creating layer inception_4e/5x5
I0225 09:08:36.076983    44 net.cpp:140] Creating Layer inception_4e/5x5
I0225 09:08:36.076989    44 net.cpp:481] inception_4e/5x5 <- inception_4e/5x5_reduce
I0225 09:08:36.076994    44 net.cpp:455] inception_4e/5x5 -> inception_4e/5x5
I0225 09:08:36.078039    44 layer_factory.hpp:123] Creating layer inception_4e/5x5
I0225 09:08:36.079805    44 net.cpp:190] Setting up inception_4e/5x5
I0225 09:08:36.079815    44 net.cpp:197] Top shape: 1 128 32 64 (262144)
I0225 09:08:36.079821    44 net.cpp:205] Memory required for data: 682622980
I0225 09:08:36.079828    44 layer_factory.hpp:123] Creating layer inception_4e/relu_5x5
I0225 09:08:36.079833    44 net.cpp:140] Creating Layer inception_4e/relu_5x5
I0225 09:08:36.079836    44 net.cpp:481] inception_4e/relu_5x5 <- inception_4e/5x5
I0225 09:08:36.079841    44 net.cpp:442] inception_4e/relu_5x5 -> inception_4e/5x5 (in-place)
I0225 09:08:36.079847    44 net.cpp:190] Setting up inception_4e/relu_5x5
I0225 09:08:36.079850    44 net.cpp:197] Top shape: 1 128 32 64 (262144)
I0225 09:08:36.079854    44 net.cpp:205] Memory required for data: 683671556
I0225 09:08:36.079857    44 layer_factory.hpp:123] Creating layer inception_4e/pool
I0225 09:08:36.079864    44 net.cpp:140] Creating Layer inception_4e/pool
I0225 09:08:36.079866    44 net.cpp:481] inception_4e/pool <- inception_4d/output_inception_4d/output_fixed_0_split_3
I0225 09:08:36.079871    44 net.cpp:455] inception_4e/pool -> inception_4e/pool
I0225 09:08:36.079900    44 net.cpp:190] Setting up inception_4e/pool
I0225 09:08:36.079905    44 net.cpp:197] Top shape: 1 528 32 64 (1081344)
I0225 09:08:36.079910    44 net.cpp:205] Memory required for data: 687996932
I0225 09:08:36.079913    44 layer_factory.hpp:123] Creating layer inception_4e/pool_proj
I0225 09:08:36.079921    44 net.cpp:140] Creating Layer inception_4e/pool_proj
I0225 09:08:36.079923    44 net.cpp:481] inception_4e/pool_proj <- inception_4e/pool
I0225 09:08:36.079928    44 net.cpp:455] inception_4e/pool_proj -> inception_4e/pool_proj
I0225 09:08:36.080657    44 layer_factory.hpp:123] Creating layer inception_4e/pool_proj
I0225 09:08:36.081514    44 net.cpp:190] Setting up inception_4e/pool_proj
I0225 09:08:36.081521    44 net.cpp:197] Top shape: 1 128 32 64 (262144)
I0225 09:08:36.081542    44 net.cpp:205] Memory required for data: 689045508
I0225 09:08:36.081548    44 layer_factory.hpp:123] Creating layer inception_4e/relu_pool_proj
I0225 09:08:36.081553    44 net.cpp:140] Creating Layer inception_4e/relu_pool_proj
I0225 09:08:36.081557    44 net.cpp:481] inception_4e/relu_pool_proj <- inception_4e/pool_proj
I0225 09:08:36.081562    44 net.cpp:442] inception_4e/relu_pool_proj -> inception_4e/pool_proj (in-place)
I0225 09:08:36.081566    44 net.cpp:190] Setting up inception_4e/relu_pool_proj
I0225 09:08:36.081569    44 net.cpp:197] Top shape: 1 128 32 64 (262144)
I0225 09:08:36.081574    44 net.cpp:205] Memory required for data: 690094084
I0225 09:08:36.081578    44 layer_factory.hpp:123] Creating layer inception_4e/output
I0225 09:08:36.081581    44 net.cpp:140] Creating Layer inception_4e/output
I0225 09:08:36.081585    44 net.cpp:481] inception_4e/output <- inception_4e/1x1
I0225 09:08:36.081588    44 net.cpp:481] inception_4e/output <- inception_4e/3x3
I0225 09:08:36.081593    44 net.cpp:481] inception_4e/output <- inception_4e/5x5
I0225 09:08:36.081595    44 net.cpp:481] inception_4e/output <- inception_4e/pool_proj
I0225 09:08:36.081599    44 net.cpp:455] inception_4e/output -> inception_4e/output
I0225 09:08:36.081614    44 net.cpp:190] Setting up inception_4e/output
I0225 09:08:36.081619    44 net.cpp:197] Top shape: 1 832 32 64 (1703936)
I0225 09:08:36.081624    44 net.cpp:205] Memory required for data: 696909828
I0225 09:08:36.081627    44 layer_factory.hpp:123] Creating layer inception_4e/output_fixed
I0225 09:08:36.081632    44 net.cpp:140] Creating Layer inception_4e/output_fixed
I0225 09:08:36.081636    44 net.cpp:481] inception_4e/output_fixed <- inception_4e/output
I0225 09:08:36.081640    44 net.cpp:442] inception_4e/output_fixed -> inception_4e/output (in-place)
I0225 09:08:36.081670    44 net.cpp:190] Setting up inception_4e/output_fixed
I0225 09:08:36.081674    44 net.cpp:197] Top shape: 1 832 32 64 (1703936)
I0225 09:08:36.081679    44 net.cpp:205] Memory required for data: 703725572
I0225 09:08:36.081683    44 layer_factory.hpp:123] Creating layer inception_4e/output_inception_4e/output_fixed_0_split
I0225 09:08:36.081688    44 net.cpp:140] Creating Layer inception_4e/output_inception_4e/output_fixed_0_split
I0225 09:08:36.081692    44 net.cpp:481] inception_4e/output_inception_4e/output_fixed_0_split <- inception_4e/output
I0225 09:08:36.081696    44 net.cpp:455] inception_4e/output_inception_4e/output_fixed_0_split -> inception_4e/output_inception_4e/output_fixed_0_split_0
I0225 09:08:36.081701    44 net.cpp:455] inception_4e/output_inception_4e/output_fixed_0_split -> inception_4e/output_inception_4e/output_fixed_0_split_1
I0225 09:08:36.081729    44 net.cpp:190] Setting up inception_4e/output_inception_4e/output_fixed_0_split
I0225 09:08:36.081734    44 net.cpp:197] Top shape: 1 832 32 64 (1703936)
I0225 09:08:36.081738    44 net.cpp:197] Top shape: 1 832 32 64 (1703936)
I0225 09:08:36.081743    44 net.cpp:205] Memory required for data: 717357060
I0225 09:08:36.081746    44 layer_factory.hpp:123] Creating layer pool4/3x3_s2
I0225 09:08:36.081751    44 net.cpp:140] Creating Layer pool4/3x3_s2
I0225 09:08:36.081755    44 net.cpp:481] pool4/3x3_s2 <- inception_4e/output_inception_4e/output_fixed_0_split_0
I0225 09:08:36.081760    44 net.cpp:455] pool4/3x3_s2 -> pool4/3x3_s2
I0225 09:08:36.081790    44 net.cpp:190] Setting up pool4/3x3_s2
I0225 09:08:36.081795    44 net.cpp:197] Top shape: 1 832 16 32 (425984)
I0225 09:08:36.081800    44 net.cpp:205] Memory required for data: 719060996
I0225 09:08:36.081804    44 layer_factory.hpp:123] Creating layer pool4/3x3_s2_pool4/3x3_s2_0_split
I0225 09:08:36.081809    44 net.cpp:140] Creating Layer pool4/3x3_s2_pool4/3x3_s2_0_split
I0225 09:08:36.081811    44 net.cpp:481] pool4/3x3_s2_pool4/3x3_s2_0_split <- pool4/3x3_s2
I0225 09:08:36.081816    44 net.cpp:455] pool4/3x3_s2_pool4/3x3_s2_0_split -> pool4/3x3_s2_pool4/3x3_s2_0_split_0
I0225 09:08:36.081821    44 net.cpp:455] pool4/3x3_s2_pool4/3x3_s2_0_split -> pool4/3x3_s2_pool4/3x3_s2_0_split_1
I0225 09:08:36.081826    44 net.cpp:455] pool4/3x3_s2_pool4/3x3_s2_0_split -> pool4/3x3_s2_pool4/3x3_s2_0_split_2
I0225 09:08:36.081830    44 net.cpp:455] pool4/3x3_s2_pool4/3x3_s2_0_split -> pool4/3x3_s2_pool4/3x3_s2_0_split_3
I0225 09:08:36.081876    44 net.cpp:190] Setting up pool4/3x3_s2_pool4/3x3_s2_0_split
I0225 09:08:36.081881    44 net.cpp:197] Top shape: 1 832 16 32 (425984)
I0225 09:08:36.081884    44 net.cpp:197] Top shape: 1 832 16 32 (425984)
I0225 09:08:36.081888    44 net.cpp:197] Top shape: 1 832 16 32 (425984)
I0225 09:08:36.081892    44 net.cpp:197] Top shape: 1 832 16 32 (425984)
I0225 09:08:36.081897    44 net.cpp:205] Memory required for data: 725876740
I0225 09:08:36.081900    44 layer_factory.hpp:123] Creating layer inception_5a/1x1
I0225 09:08:36.081907    44 net.cpp:140] Creating Layer inception_5a/1x1
I0225 09:08:36.081912    44 net.cpp:481] inception_5a/1x1 <- pool4/3x3_s2_pool4/3x3_s2_0_split_0
I0225 09:08:36.081917    44 net.cpp:455] inception_5a/1x1 -> inception_5a/1x1
I0225 09:08:36.084494    44 layer_factory.hpp:123] Creating layer inception_5a/1x1
I0225 09:08:36.087194    44 net.cpp:190] Setting up inception_5a/1x1
I0225 09:08:36.087204    44 net.cpp:197] Top shape: 1 256 16 32 (131072)
I0225 09:08:36.087210    44 net.cpp:205] Memory required for data: 726401028
I0225 09:08:36.087216    44 layer_factory.hpp:123] Creating layer inception_5a/relu_1x1
I0225 09:08:36.087222    44 net.cpp:140] Creating Layer inception_5a/relu_1x1
I0225 09:08:36.087226    44 net.cpp:481] inception_5a/relu_1x1 <- inception_5a/1x1
I0225 09:08:36.087230    44 net.cpp:442] inception_5a/relu_1x1 -> inception_5a/1x1 (in-place)
I0225 09:08:36.087237    44 net.cpp:190] Setting up inception_5a/relu_1x1
I0225 09:08:36.087240    44 net.cpp:197] Top shape: 1 256 16 32 (131072)
I0225 09:08:36.087244    44 net.cpp:205] Memory required for data: 726925316
I0225 09:08:36.087247    44 layer_factory.hpp:123] Creating layer inception_5a/3x3_reduce
I0225 09:08:36.087255    44 net.cpp:140] Creating Layer inception_5a/3x3_reduce
I0225 09:08:36.087258    44 net.cpp:481] inception_5a/3x3_reduce <- pool4/3x3_s2_pool4/3x3_s2_0_split_1
I0225 09:08:36.087263    44 net.cpp:455] inception_5a/3x3_reduce -> inception_5a/3x3_reduce
I0225 09:08:36.089185    44 layer_factory.hpp:123] Creating layer inception_5a/3x3_reduce
I0225 09:08:36.091200    44 net.cpp:190] Setting up inception_5a/3x3_reduce
I0225 09:08:36.091210    44 net.cpp:197] Top shape: 1 160 16 32 (81920)
I0225 09:08:36.091217    44 net.cpp:205] Memory required for data: 727252996
I0225 09:08:36.091223    44 layer_factory.hpp:123] Creating layer inception_5a/relu_3x3_reduce
I0225 09:08:36.091228    44 net.cpp:140] Creating Layer inception_5a/relu_3x3_reduce
I0225 09:08:36.091233    44 net.cpp:481] inception_5a/relu_3x3_reduce <- inception_5a/3x3_reduce
I0225 09:08:36.091236    44 net.cpp:442] inception_5a/relu_3x3_reduce -> inception_5a/3x3_reduce (in-place)
I0225 09:08:36.091243    44 net.cpp:190] Setting up inception_5a/relu_3x3_reduce
I0225 09:08:36.091246    44 net.cpp:197] Top shape: 1 160 16 32 (81920)
I0225 09:08:36.091250    44 net.cpp:205] Memory required for data: 727580676
I0225 09:08:36.091253    44 layer_factory.hpp:123] Creating layer inception_5a/3x3_reduce_fixed
I0225 09:08:36.091259    44 net.cpp:140] Creating Layer inception_5a/3x3_reduce_fixed
I0225 09:08:36.091261    44 net.cpp:481] inception_5a/3x3_reduce_fixed <- inception_5a/3x3_reduce
I0225 09:08:36.091265    44 net.cpp:442] inception_5a/3x3_reduce_fixed -> inception_5a/3x3_reduce (in-place)
I0225 09:08:36.091290    44 net.cpp:190] Setting up inception_5a/3x3_reduce_fixed
I0225 09:08:36.091295    44 net.cpp:197] Top shape: 1 160 16 32 (81920)
I0225 09:08:36.091300    44 net.cpp:205] Memory required for data: 727908356
I0225 09:08:36.091305    44 layer_factory.hpp:123] Creating layer inception_5a/3x3
I0225 09:08:36.091311    44 net.cpp:140] Creating Layer inception_5a/3x3
I0225 09:08:36.091315    44 net.cpp:481] inception_5a/3x3 <- inception_5a/3x3_reduce
I0225 09:08:36.091320    44 net.cpp:455] inception_5a/3x3 -> inception_5a/3x3
I0225 09:08:36.096572    44 layer_factory.hpp:123] Creating layer inception_5a/3x3
I0225 09:08:36.101893    44 net.cpp:190] Setting up inception_5a/3x3
I0225 09:08:36.101904    44 net.cpp:197] Top shape: 1 320 16 32 (163840)
I0225 09:08:36.101925    44 net.cpp:205] Memory required for data: 728563716
I0225 09:08:36.101931    44 layer_factory.hpp:123] Creating layer inception_5a/relu_3x3
I0225 09:08:36.101938    44 net.cpp:140] Creating Layer inception_5a/relu_3x3
I0225 09:08:36.101941    44 net.cpp:481] inception_5a/relu_3x3 <- inception_5a/3x3
I0225 09:08:36.101946    44 net.cpp:442] inception_5a/relu_3x3 -> inception_5a/3x3 (in-place)
I0225 09:08:36.101953    44 net.cpp:190] Setting up inception_5a/relu_3x3
I0225 09:08:36.101955    44 net.cpp:197] Top shape: 1 320 16 32 (163840)
I0225 09:08:36.101959    44 net.cpp:205] Memory required for data: 729219076
I0225 09:08:36.101963    44 layer_factory.hpp:123] Creating layer inception_5a/5x5_reduce
I0225 09:08:36.101970    44 net.cpp:140] Creating Layer inception_5a/5x5_reduce
I0225 09:08:36.101974    44 net.cpp:481] inception_5a/5x5_reduce <- pool4/3x3_s2_pool4/3x3_s2_0_split_2
I0225 09:08:36.101979    44 net.cpp:455] inception_5a/5x5_reduce -> inception_5a/5x5_reduce
I0225 09:08:36.102362    44 layer_factory.hpp:123] Creating layer inception_5a/5x5_reduce
I0225 09:08:36.102885    44 net.cpp:190] Setting up inception_5a/5x5_reduce
I0225 09:08:36.102892    44 net.cpp:197] Top shape: 1 32 16 32 (16384)
I0225 09:08:36.102912    44 net.cpp:205] Memory required for data: 729284612
I0225 09:08:36.102917    44 layer_factory.hpp:123] Creating layer inception_5a/relu_5x5_reduce
I0225 09:08:36.102922    44 net.cpp:140] Creating Layer inception_5a/relu_5x5_reduce
I0225 09:08:36.102926    44 net.cpp:481] inception_5a/relu_5x5_reduce <- inception_5a/5x5_reduce
I0225 09:08:36.102931    44 net.cpp:442] inception_5a/relu_5x5_reduce -> inception_5a/5x5_reduce (in-place)
I0225 09:08:36.102936    44 net.cpp:190] Setting up inception_5a/relu_5x5_reduce
I0225 09:08:36.102939    44 net.cpp:197] Top shape: 1 32 16 32 (16384)
I0225 09:08:36.102943    44 net.cpp:205] Memory required for data: 729350148
I0225 09:08:36.102946    44 layer_factory.hpp:123] Creating layer inception_5a/5x5_reduce_fixed
I0225 09:08:36.102950    44 net.cpp:140] Creating Layer inception_5a/5x5_reduce_fixed
I0225 09:08:36.102954    44 net.cpp:481] inception_5a/5x5_reduce_fixed <- inception_5a/5x5_reduce
I0225 09:08:36.102958    44 net.cpp:442] inception_5a/5x5_reduce_fixed -> inception_5a/5x5_reduce (in-place)
I0225 09:08:36.102982    44 net.cpp:190] Setting up inception_5a/5x5_reduce_fixed
I0225 09:08:36.102986    44 net.cpp:197] Top shape: 1 32 16 32 (16384)
I0225 09:08:36.102991    44 net.cpp:205] Memory required for data: 729415684
I0225 09:08:36.102995    44 layer_factory.hpp:123] Creating layer inception_5a/5x5
I0225 09:08:36.103003    44 net.cpp:140] Creating Layer inception_5a/5x5
I0225 09:08:36.103005    44 net.cpp:481] inception_5a/5x5 <- inception_5a/5x5_reduce
I0225 09:08:36.103010    44 net.cpp:455] inception_5a/5x5 -> inception_5a/5x5
I0225 09:08:36.104032    44 layer_factory.hpp:123] Creating layer inception_5a/5x5
I0225 09:08:36.105195    44 net.cpp:190] Setting up inception_5a/5x5
I0225 09:08:36.105202    44 net.cpp:197] Top shape: 1 128 16 32 (65536)
I0225 09:08:36.105222    44 net.cpp:205] Memory required for data: 729677828
I0225 09:08:36.105228    44 layer_factory.hpp:123] Creating layer inception_5a/relu_5x5
I0225 09:08:36.105233    44 net.cpp:140] Creating Layer inception_5a/relu_5x5
I0225 09:08:36.105237    44 net.cpp:481] inception_5a/relu_5x5 <- inception_5a/5x5
I0225 09:08:36.105242    44 net.cpp:442] inception_5a/relu_5x5 -> inception_5a/5x5 (in-place)
I0225 09:08:36.105247    44 net.cpp:190] Setting up inception_5a/relu_5x5
I0225 09:08:36.105249    44 net.cpp:197] Top shape: 1 128 16 32 (65536)
I0225 09:08:36.105253    44 net.cpp:205] Memory required for data: 729939972
I0225 09:08:36.105257    44 layer_factory.hpp:123] Creating layer inception_5a/pool
I0225 09:08:36.105262    44 net.cpp:140] Creating Layer inception_5a/pool
I0225 09:08:36.105266    44 net.cpp:481] inception_5a/pool <- pool4/3x3_s2_pool4/3x3_s2_0_split_3
I0225 09:08:36.105271    44 net.cpp:455] inception_5a/pool -> inception_5a/pool
I0225 09:08:36.105298    44 net.cpp:190] Setting up inception_5a/pool
I0225 09:08:36.105302    44 net.cpp:197] Top shape: 1 832 16 32 (425984)
I0225 09:08:36.105306    44 net.cpp:205] Memory required for data: 731643908
I0225 09:08:36.105309    44 layer_factory.hpp:123] Creating layer inception_5a/pool_proj
I0225 09:08:36.105316    44 net.cpp:140] Creating Layer inception_5a/pool_proj
I0225 09:08:36.105319    44 net.cpp:481] inception_5a/pool_proj <- inception_5a/pool
I0225 09:08:36.105324    44 net.cpp:455] inception_5a/pool_proj -> inception_5a/pool_proj
I0225 09:08:36.106971    44 layer_factory.hpp:123] Creating layer inception_5a/pool_proj
I0225 09:08:36.108162    44 net.cpp:190] Setting up inception_5a/pool_proj
I0225 09:08:36.108170    44 net.cpp:197] Top shape: 1 128 16 32 (65536)
I0225 09:08:36.108189    44 net.cpp:205] Memory required for data: 731906052
I0225 09:08:36.108201    44 layer_factory.hpp:123] Creating layer inception_5a/relu_pool_proj
I0225 09:08:36.108223    44 net.cpp:140] Creating Layer inception_5a/relu_pool_proj
I0225 09:08:36.108227    44 net.cpp:481] inception_5a/relu_pool_proj <- inception_5a/pool_proj
I0225 09:08:36.108232    44 net.cpp:442] inception_5a/relu_pool_proj -> inception_5a/pool_proj (in-place)
I0225 09:08:36.108238    44 net.cpp:190] Setting up inception_5a/relu_pool_proj
I0225 09:08:36.108242    44 net.cpp:197] Top shape: 1 128 16 32 (65536)
I0225 09:08:36.108247    44 net.cpp:205] Memory required for data: 732168196
I0225 09:08:36.108249    44 layer_factory.hpp:123] Creating layer inception_5a/output
I0225 09:08:36.108254    44 net.cpp:140] Creating Layer inception_5a/output
I0225 09:08:36.108258    44 net.cpp:481] inception_5a/output <- inception_5a/1x1
I0225 09:08:36.108261    44 net.cpp:481] inception_5a/output <- inception_5a/3x3
I0225 09:08:36.108264    44 net.cpp:481] inception_5a/output <- inception_5a/5x5
I0225 09:08:36.108268    44 net.cpp:481] inception_5a/output <- inception_5a/pool_proj
I0225 09:08:36.108273    44 net.cpp:455] inception_5a/output -> inception_5a/output
I0225 09:08:36.108289    44 net.cpp:190] Setting up inception_5a/output
I0225 09:08:36.108294    44 net.cpp:197] Top shape: 1 832 16 32 (425984)
I0225 09:08:36.108299    44 net.cpp:205] Memory required for data: 733872132
I0225 09:08:36.108301    44 layer_factory.hpp:123] Creating layer inception_5a/output_fixed
I0225 09:08:36.108306    44 net.cpp:140] Creating Layer inception_5a/output_fixed
I0225 09:08:36.108309    44 net.cpp:481] inception_5a/output_fixed <- inception_5a/output
I0225 09:08:36.108314    44 net.cpp:442] inception_5a/output_fixed -> inception_5a/output (in-place)
I0225 09:08:36.108342    44 net.cpp:190] Setting up inception_5a/output_fixed
I0225 09:08:36.108347    44 net.cpp:197] Top shape: 1 832 16 32 (425984)
I0225 09:08:36.108352    44 net.cpp:205] Memory required for data: 735576068
I0225 09:08:36.108356    44 layer_factory.hpp:123] Creating layer inception_5a/output_inception_5a/output_fixed_0_split
I0225 09:08:36.108362    44 net.cpp:140] Creating Layer inception_5a/output_inception_5a/output_fixed_0_split
I0225 09:08:36.108366    44 net.cpp:481] inception_5a/output_inception_5a/output_fixed_0_split <- inception_5a/output
I0225 09:08:36.108371    44 net.cpp:455] inception_5a/output_inception_5a/output_fixed_0_split -> inception_5a/output_inception_5a/output_fixed_0_split_0
I0225 09:08:36.108376    44 net.cpp:455] inception_5a/output_inception_5a/output_fixed_0_split -> inception_5a/output_inception_5a/output_fixed_0_split_1
I0225 09:08:36.108381    44 net.cpp:455] inception_5a/output_inception_5a/output_fixed_0_split -> inception_5a/output_inception_5a/output_fixed_0_split_2
I0225 09:08:36.108386    44 net.cpp:455] inception_5a/output_inception_5a/output_fixed_0_split -> inception_5a/output_inception_5a/output_fixed_0_split_3
I0225 09:08:36.108431    44 net.cpp:190] Setting up inception_5a/output_inception_5a/output_fixed_0_split
I0225 09:08:36.108436    44 net.cpp:197] Top shape: 1 832 16 32 (425984)
I0225 09:08:36.108440    44 net.cpp:197] Top shape: 1 832 16 32 (425984)
I0225 09:08:36.108444    44 net.cpp:197] Top shape: 1 832 16 32 (425984)
I0225 09:08:36.108448    44 net.cpp:197] Top shape: 1 832 16 32 (425984)
I0225 09:08:36.108453    44 net.cpp:205] Memory required for data: 742391812
I0225 09:08:36.108455    44 layer_factory.hpp:123] Creating layer inception_5b/1x1
I0225 09:08:36.108464    44 net.cpp:140] Creating Layer inception_5b/1x1
I0225 09:08:36.108466    44 net.cpp:481] inception_5b/1x1 <- inception_5a/output_inception_5a/output_fixed_0_split_0
I0225 09:08:36.108471    44 net.cpp:455] inception_5b/1x1 -> inception_5b/1x1
I0225 09:08:36.112576    44 layer_factory.hpp:123] Creating layer inception_5b/1x1
I0225 09:08:36.116755    44 net.cpp:190] Setting up inception_5b/1x1
I0225 09:08:36.116765    44 net.cpp:197] Top shape: 1 384 16 32 (196608)
I0225 09:08:36.116770    44 net.cpp:205] Memory required for data: 743178244
I0225 09:08:36.116776    44 layer_factory.hpp:123] Creating layer inception_5b/relu_1x1
I0225 09:08:36.116781    44 net.cpp:140] Creating Layer inception_5b/relu_1x1
I0225 09:08:36.116786    44 net.cpp:481] inception_5b/relu_1x1 <- inception_5b/1x1
I0225 09:08:36.116791    44 net.cpp:442] inception_5b/relu_1x1 -> inception_5b/1x1 (in-place)
I0225 09:08:36.116796    44 net.cpp:190] Setting up inception_5b/relu_1x1
I0225 09:08:36.116799    44 net.cpp:197] Top shape: 1 384 16 32 (196608)
I0225 09:08:36.116803    44 net.cpp:205] Memory required for data: 743964676
I0225 09:08:36.116806    44 layer_factory.hpp:123] Creating layer inception_5b/3x3_reduce
I0225 09:08:36.116813    44 net.cpp:140] Creating Layer inception_5b/3x3_reduce
I0225 09:08:36.116817    44 net.cpp:481] inception_5b/3x3_reduce <- inception_5a/output_inception_5a/output_fixed_0_split_1
I0225 09:08:36.116822    44 net.cpp:455] inception_5b/3x3_reduce -> inception_5b/3x3_reduce
I0225 09:08:36.118330    44 layer_factory.hpp:123] Creating layer inception_5b/3x3_reduce
I0225 09:08:36.119966    44 net.cpp:190] Setting up inception_5b/3x3_reduce
I0225 09:08:36.119973    44 net.cpp:197] Top shape: 1 192 16 32 (98304)
I0225 09:08:36.119978    44 net.cpp:205] Memory required for data: 744357892
I0225 09:08:36.119983    44 layer_factory.hpp:123] Creating layer inception_5b/relu_3x3_reduce
I0225 09:08:36.119988    44 net.cpp:140] Creating Layer inception_5b/relu_3x3_reduce
I0225 09:08:36.119992    44 net.cpp:481] inception_5b/relu_3x3_reduce <- inception_5b/3x3_reduce
I0225 09:08:36.119997    44 net.cpp:442] inception_5b/relu_3x3_reduce -> inception_5b/3x3_reduce (in-place)
I0225 09:08:36.120002    44 net.cpp:190] Setting up inception_5b/relu_3x3_reduce
I0225 09:08:36.120005    44 net.cpp:197] Top shape: 1 192 16 32 (98304)
I0225 09:08:36.120009    44 net.cpp:205] Memory required for data: 744751108
I0225 09:08:36.120012    44 layer_factory.hpp:123] Creating layer inception_5b/3x3_reduce_fixed
I0225 09:08:36.120016    44 net.cpp:140] Creating Layer inception_5b/3x3_reduce_fixed
I0225 09:08:36.120019    44 net.cpp:481] inception_5b/3x3_reduce_fixed <- inception_5b/3x3_reduce
I0225 09:08:36.120023    44 net.cpp:442] inception_5b/3x3_reduce_fixed -> inception_5b/3x3_reduce (in-place)
I0225 09:08:36.120048    44 net.cpp:190] Setting up inception_5b/3x3_reduce_fixed
I0225 09:08:36.120051    44 net.cpp:197] Top shape: 1 192 16 32 (98304)
I0225 09:08:36.120056    44 net.cpp:205] Memory required for data: 745144324
I0225 09:08:36.120060    44 layer_factory.hpp:123] Creating layer inception_5b/3x3
I0225 09:08:36.120067    44 net.cpp:140] Creating Layer inception_5b/3x3
I0225 09:08:36.120070    44 net.cpp:481] inception_5b/3x3 <- inception_5b/3x3_reduce
I0225 09:08:36.120075    44 net.cpp:455] inception_5b/3x3 -> inception_5b/3x3
I0225 09:08:36.127351    44 layer_factory.hpp:123] Creating layer inception_5b/3x3
I0225 09:08:36.134614    44 net.cpp:190] Setting up inception_5b/3x3
I0225 09:08:36.134625    44 net.cpp:197] Top shape: 1 384 16 32 (196608)
I0225 09:08:36.134649    44 net.cpp:205] Memory required for data: 745930756
I0225 09:08:36.134656    44 layer_factory.hpp:123] Creating layer inception_5b/relu_3x3
I0225 09:08:36.134663    44 net.cpp:140] Creating Layer inception_5b/relu_3x3
I0225 09:08:36.134668    44 net.cpp:481] inception_5b/relu_3x3 <- inception_5b/3x3
I0225 09:08:36.134688    44 net.cpp:442] inception_5b/relu_3x3 -> inception_5b/3x3 (in-place)
I0225 09:08:36.134696    44 net.cpp:190] Setting up inception_5b/relu_3x3
I0225 09:08:36.134699    44 net.cpp:197] Top shape: 1 384 16 32 (196608)
I0225 09:08:36.134703    44 net.cpp:205] Memory required for data: 746717188
I0225 09:08:36.134706    44 layer_factory.hpp:123] Creating layer inception_5b/5x5_reduce
I0225 09:08:36.134714    44 net.cpp:140] Creating Layer inception_5b/5x5_reduce
I0225 09:08:36.134718    44 net.cpp:481] inception_5b/5x5_reduce <- inception_5a/output_inception_5a/output_fixed_0_split_2
I0225 09:08:36.134724    44 net.cpp:455] inception_5b/5x5_reduce -> inception_5b/5x5_reduce
I0225 09:08:36.135237    44 layer_factory.hpp:123] Creating layer inception_5b/5x5_reduce
I0225 09:08:36.135885    44 net.cpp:190] Setting up inception_5b/5x5_reduce
I0225 09:08:36.135891    44 net.cpp:197] Top shape: 1 48 16 32 (24576)
I0225 09:08:36.135896    44 net.cpp:205] Memory required for data: 746815492
I0225 09:08:36.135901    44 layer_factory.hpp:123] Creating layer inception_5b/relu_5x5_reduce
I0225 09:08:36.135906    44 net.cpp:140] Creating Layer inception_5b/relu_5x5_reduce
I0225 09:08:36.135910    44 net.cpp:481] inception_5b/relu_5x5_reduce <- inception_5b/5x5_reduce
I0225 09:08:36.135915    44 net.cpp:442] inception_5b/relu_5x5_reduce -> inception_5b/5x5_reduce (in-place)
I0225 09:08:36.135921    44 net.cpp:190] Setting up inception_5b/relu_5x5_reduce
I0225 09:08:36.135923    44 net.cpp:197] Top shape: 1 48 16 32 (24576)
I0225 09:08:36.135927    44 net.cpp:205] Memory required for data: 746913796
I0225 09:08:36.135931    44 layer_factory.hpp:123] Creating layer inception_5b/5x5_reduce_fixed
I0225 09:08:36.135936    44 net.cpp:140] Creating Layer inception_5b/5x5_reduce_fixed
I0225 09:08:36.135939    44 net.cpp:481] inception_5b/5x5_reduce_fixed <- inception_5b/5x5_reduce
I0225 09:08:36.135943    44 net.cpp:442] inception_5b/5x5_reduce_fixed -> inception_5b/5x5_reduce (in-place)
I0225 09:08:36.135968    44 net.cpp:190] Setting up inception_5b/5x5_reduce_fixed
I0225 09:08:36.135973    44 net.cpp:197] Top shape: 1 48 16 32 (24576)
I0225 09:08:36.135977    44 net.cpp:205] Memory required for data: 747012100
I0225 09:08:36.135982    44 layer_factory.hpp:123] Creating layer inception_5b/5x5
I0225 09:08:36.135988    44 net.cpp:140] Creating Layer inception_5b/5x5
I0225 09:08:36.135993    44 net.cpp:481] inception_5b/5x5 <- inception_5b/5x5_reduce
I0225 09:08:36.135998    44 net.cpp:455] inception_5b/5x5 -> inception_5b/5x5
I0225 09:08:36.138048    44 layer_factory.hpp:123] Creating layer inception_5b/5x5
I0225 09:08:36.140202    44 net.cpp:190] Setting up inception_5b/5x5
I0225 09:08:36.140211    44 net.cpp:197] Top shape: 1 128 16 32 (65536)
I0225 09:08:36.140231    44 net.cpp:205] Memory required for data: 747274244
I0225 09:08:36.140238    44 layer_factory.hpp:123] Creating layer inception_5b/relu_5x5
I0225 09:08:36.140244    44 net.cpp:140] Creating Layer inception_5b/relu_5x5
I0225 09:08:36.140247    44 net.cpp:481] inception_5b/relu_5x5 <- inception_5b/5x5
I0225 09:08:36.140251    44 net.cpp:442] inception_5b/relu_5x5 -> inception_5b/5x5 (in-place)
I0225 09:08:36.140257    44 net.cpp:190] Setting up inception_5b/relu_5x5
I0225 09:08:36.140271    44 net.cpp:197] Top shape: 1 128 16 32 (65536)
I0225 09:08:36.140275    44 net.cpp:205] Memory required for data: 747536388
I0225 09:08:36.140278    44 layer_factory.hpp:123] Creating layer inception_5b/pool
I0225 09:08:36.140285    44 net.cpp:140] Creating Layer inception_5b/pool
I0225 09:08:36.140288    44 net.cpp:481] inception_5b/pool <- inception_5a/output_inception_5a/output_fixed_0_split_3
I0225 09:08:36.140293    44 net.cpp:455] inception_5b/pool -> inception_5b/pool
I0225 09:08:36.140321    44 net.cpp:190] Setting up inception_5b/pool
I0225 09:08:36.140327    44 net.cpp:197] Top shape: 1 832 16 32 (425984)
I0225 09:08:36.140331    44 net.cpp:205] Memory required for data: 749240324
I0225 09:08:36.140334    44 layer_factory.hpp:123] Creating layer inception_5b/pool_proj
I0225 09:08:36.140341    44 net.cpp:140] Creating Layer inception_5b/pool_proj
I0225 09:08:36.140345    44 net.cpp:481] inception_5b/pool_proj <- inception_5b/pool
I0225 09:08:36.140349    44 net.cpp:455] inception_5b/pool_proj -> inception_5b/pool_proj
I0225 09:08:36.141448    44 layer_factory.hpp:123] Creating layer inception_5b/pool_proj
I0225 09:08:36.143321    44 net.cpp:190] Setting up inception_5b/pool_proj
I0225 09:08:36.143332    44 net.cpp:197] Top shape: 1 128 16 32 (65536)
I0225 09:08:36.143352    44 net.cpp:205] Memory required for data: 749502468
I0225 09:08:36.143357    44 layer_factory.hpp:123] Creating layer inception_5b/relu_pool_proj
I0225 09:08:36.143363    44 net.cpp:140] Creating Layer inception_5b/relu_pool_proj
I0225 09:08:36.143366    44 net.cpp:481] inception_5b/relu_pool_proj <- inception_5b/pool_proj
I0225 09:08:36.143371    44 net.cpp:442] inception_5b/relu_pool_proj -> inception_5b/pool_proj (in-place)
I0225 09:08:36.143378    44 net.cpp:190] Setting up inception_5b/relu_pool_proj
I0225 09:08:36.143380    44 net.cpp:197] Top shape: 1 128 16 32 (65536)
I0225 09:08:36.143399    44 net.cpp:205] Memory required for data: 749764612
I0225 09:08:36.143402    44 layer_factory.hpp:123] Creating layer inception_5b/output
I0225 09:08:36.143407    44 net.cpp:140] Creating Layer inception_5b/output
I0225 09:08:36.143411    44 net.cpp:481] inception_5b/output <- inception_5b/1x1
I0225 09:08:36.143414    44 net.cpp:481] inception_5b/output <- inception_5b/3x3
I0225 09:08:36.143419    44 net.cpp:481] inception_5b/output <- inception_5b/5x5
I0225 09:08:36.143421    44 net.cpp:481] inception_5b/output <- inception_5b/pool_proj
I0225 09:08:36.143425    44 net.cpp:455] inception_5b/output -> inception_5b/output
I0225 09:08:36.143441    44 net.cpp:190] Setting up inception_5b/output
I0225 09:08:36.143455    44 net.cpp:197] Top shape: 1 1024 16 32 (524288)
I0225 09:08:36.143460    44 net.cpp:205] Memory required for data: 751861764
I0225 09:08:36.143463    44 layer_factory.hpp:123] Creating layer inception_5b/output_fixed
I0225 09:08:36.143468    44 net.cpp:140] Creating Layer inception_5b/output_fixed
I0225 09:08:36.143472    44 net.cpp:481] inception_5b/output_fixed <- inception_5b/output
I0225 09:08:36.143476    44 net.cpp:442] inception_5b/output_fixed -> inception_5b/output (in-place)
I0225 09:08:36.143504    44 net.cpp:190] Setting up inception_5b/output_fixed
I0225 09:08:36.143509    44 net.cpp:197] Top shape: 1 1024 16 32 (524288)
I0225 09:08:36.143513    44 net.cpp:205] Memory required for data: 753958916
I0225 09:08:36.143518    44 layer_factory.hpp:123] Creating layer p5
I0225 09:08:36.143525    44 net.cpp:140] Creating Layer p5
I0225 09:08:36.143528    44 net.cpp:481] p5 <- inception_5b/output
I0225 09:08:36.143533    44 net.cpp:455] p5 -> p5
I0225 09:08:36.143985    44 layer_factory.hpp:123] Creating layer p5
I0225 09:08:36.144551    44 net.cpp:190] Setting up p5
I0225 09:08:36.144557    44 net.cpp:197] Top shape: 1 32 16 32 (16384)
I0225 09:08:36.144562    44 net.cpp:205] Memory required for data: 754024452
I0225 09:08:36.144568    44 layer_factory.hpp:123] Creating layer p5_fixed
I0225 09:08:36.144573    44 net.cpp:140] Creating Layer p5_fixed
I0225 09:08:36.144577    44 net.cpp:481] p5_fixed <- p5
I0225 09:08:36.144582    44 net.cpp:442] p5_fixed -> p5 (in-place)
I0225 09:08:36.144610    44 net.cpp:190] Setting up p5_fixed
I0225 09:08:36.144614    44 net.cpp:197] Top shape: 1 32 16 32 (16384)
I0225 09:08:36.144618    44 net.cpp:205] Memory required for data: 754089988
I0225 09:08:36.144623    44 layer_factory.hpp:123] Creating layer latlayer_4f
I0225 09:08:36.144629    44 net.cpp:140] Creating Layer latlayer_4f
I0225 09:08:36.144634    44 net.cpp:481] latlayer_4f <- inception_4e/output_inception_4e/output_fixed_0_split_1
I0225 09:08:36.144639    44 net.cpp:455] latlayer_4f -> latlayer_4f
I0225 09:08:36.145054    44 layer_factory.hpp:123] Creating layer latlayer_4f
I0225 09:08:36.145570    44 net.cpp:190] Setting up latlayer_4f
I0225 09:08:36.145576    44 net.cpp:197] Top shape: 1 32 32 64 (65536)
I0225 09:08:36.145581    44 net.cpp:205] Memory required for data: 754352132
I0225 09:08:36.145586    44 layer_factory.hpp:123] Creating layer latlayer_4f_fixed
I0225 09:08:36.145591    44 net.cpp:140] Creating Layer latlayer_4f_fixed
I0225 09:08:36.145596    44 net.cpp:481] latlayer_4f_fixed <- latlayer_4f
I0225 09:08:36.145601    44 net.cpp:442] latlayer_4f_fixed -> latlayer_4f (in-place)
I0225 09:08:36.145630    44 net.cpp:190] Setting up latlayer_4f_fixed
I0225 09:08:36.145635    44 net.cpp:197] Top shape: 1 32 32 64 (65536)
I0225 09:08:36.145640    44 net.cpp:205] Memory required for data: 754614276
I0225 09:08:36.145644    44 layer_factory.hpp:123] Creating layer upsample_p5
I0225 09:08:36.145684    44 net.cpp:140] Creating Layer upsample_p5
I0225 09:08:36.145689    44 net.cpp:481] upsample_p5 <- p5
I0225 09:08:36.145696    44 net.cpp:455] upsample_p5 -> upsample_p5
I0225 09:08:36.145975    44 layer_factory.hpp:123] Creating layer upsample_p5
I0225 09:08:36.146332    44 net.cpp:190] Setting up upsample_p5
I0225 09:08:36.146338    44 net.cpp:197] Top shape: 1 32 32 64 (65536)
I0225 09:08:36.146343    44 net.cpp:205] Memory required for data: 754876420
I0225 09:08:36.146348    44 layer_factory.hpp:123] Creating layer upsample_p5_fixed
I0225 09:08:36.146353    44 net.cpp:140] Creating Layer upsample_p5_fixed
I0225 09:08:36.146356    44 net.cpp:481] upsample_p5_fixed <- upsample_p5
I0225 09:08:36.146361    44 net.cpp:442] upsample_p5_fixed -> upsample_p5 (in-place)
I0225 09:08:36.146389    44 net.cpp:190] Setting up upsample_p5_fixed
I0225 09:08:36.146391    44 net.cpp:197] Top shape: 1 32 32 64 (65536)
I0225 09:08:36.146396    44 net.cpp:205] Memory required for data: 755138564
I0225 09:08:36.146400    44 layer_factory.hpp:123] Creating layer add_p4
I0225 09:08:36.146405    44 net.cpp:140] Creating Layer add_p4
I0225 09:08:36.146409    44 net.cpp:481] add_p4 <- upsample_p5
I0225 09:08:36.146412    44 net.cpp:481] add_p4 <- latlayer_4f
I0225 09:08:36.146417    44 net.cpp:455] add_p4 -> add_p4
I0225 09:08:36.146435    44 net.cpp:190] Setting up add_p4
I0225 09:08:36.146445    44 net.cpp:197] Top shape: 1 32 32 64 (65536)
I0225 09:08:36.146448    44 net.cpp:205] Memory required for data: 755400708
I0225 09:08:36.146451    44 layer_factory.hpp:123] Creating layer add_p4_fixed
I0225 09:08:36.146456    44 net.cpp:140] Creating Layer add_p4_fixed
I0225 09:08:36.146459    44 net.cpp:481] add_p4_fixed <- add_p4
I0225 09:08:36.146464    44 net.cpp:442] add_p4_fixed -> add_p4 (in-place)
I0225 09:08:36.146492    44 net.cpp:190] Setting up add_p4_fixed
I0225 09:08:36.146497    44 net.cpp:197] Top shape: 1 32 32 64 (65536)
I0225 09:08:36.146502    44 net.cpp:205] Memory required for data: 755662852
I0225 09:08:36.146505    44 layer_factory.hpp:123] Creating layer toplayer_p4
I0225 09:08:36.146512    44 net.cpp:140] Creating Layer toplayer_p4
I0225 09:08:36.146514    44 net.cpp:481] toplayer_p4 <- add_p4
I0225 09:08:36.146519    44 net.cpp:455] toplayer_p4 -> p4
I0225 09:08:36.146775    44 layer_factory.hpp:123] Creating layer toplayer_p4
I0225 09:08:36.147136    44 net.cpp:190] Setting up toplayer_p4
I0225 09:08:36.147142    44 net.cpp:197] Top shape: 1 32 32 64 (65536)
I0225 09:08:36.147147    44 net.cpp:205] Memory required for data: 755924996
I0225 09:08:36.147153    44 layer_factory.hpp:123] Creating layer p4_fixed
I0225 09:08:36.147158    44 net.cpp:140] Creating Layer p4_fixed
I0225 09:08:36.147162    44 net.cpp:481] p4_fixed <- p4
I0225 09:08:36.147166    44 net.cpp:442] p4_fixed -> p4 (in-place)
I0225 09:08:36.147194    44 net.cpp:190] Setting up p4_fixed
I0225 09:08:36.147198    44 net.cpp:197] Top shape: 1 32 32 64 (65536)
I0225 09:08:36.147202    44 net.cpp:205] Memory required for data: 756187140
I0225 09:08:36.147207    44 layer_factory.hpp:123] Creating layer latlayer_3d
I0225 09:08:36.147213    44 net.cpp:140] Creating Layer latlayer_3d
I0225 09:08:36.147217    44 net.cpp:481] latlayer_3d <- inception_3b/output_inception_3b/output_fixed_0_split_1
I0225 09:08:36.147222    44 net.cpp:455] latlayer_3d -> latlayer_3d
I0225 09:08:36.147511    44 layer_factory.hpp:123] Creating layer latlayer_3d
I0225 09:08:36.147938    44 net.cpp:190] Setting up latlayer_3d
I0225 09:08:36.147945    44 net.cpp:197] Top shape: 1 32 64 128 (262144)
I0225 09:08:36.147950    44 net.cpp:205] Memory required for data: 757235716
I0225 09:08:36.147956    44 layer_factory.hpp:123] Creating layer latlayer_3d_fixed
I0225 09:08:36.147961    44 net.cpp:140] Creating Layer latlayer_3d_fixed
I0225 09:08:36.147965    44 net.cpp:481] latlayer_3d_fixed <- latlayer_3d
I0225 09:08:36.147970    44 net.cpp:442] latlayer_3d_fixed -> latlayer_3d (in-place)
I0225 09:08:36.147995    44 net.cpp:190] Setting up latlayer_3d_fixed
I0225 09:08:36.148001    44 net.cpp:197] Top shape: 1 32 64 128 (262144)
I0225 09:08:36.148005    44 net.cpp:205] Memory required for data: 758284292
I0225 09:08:36.148010    44 layer_factory.hpp:123] Creating layer upsample_p4
I0225 09:08:36.148016    44 net.cpp:140] Creating Layer upsample_p4
I0225 09:08:36.148020    44 net.cpp:481] upsample_p4 <- p4
I0225 09:08:36.148025    44 net.cpp:455] upsample_p4 -> upsample_p4
I0225 09:08:36.148283    44 layer_factory.hpp:123] Creating layer upsample_p4
I0225 09:08:36.148622    44 net.cpp:190] Setting up upsample_p4
I0225 09:08:36.148627    44 net.cpp:197] Top shape: 1 32 64 128 (262144)
I0225 09:08:36.148633    44 net.cpp:205] Memory required for data: 759332868
I0225 09:08:36.148638    44 layer_factory.hpp:123] Creating layer upsample_p4_fixed
I0225 09:08:36.148643    44 net.cpp:140] Creating Layer upsample_p4_fixed
I0225 09:08:36.148646    44 net.cpp:481] upsample_p4_fixed <- upsample_p4
I0225 09:08:36.148651    44 net.cpp:442] upsample_p4_fixed -> upsample_p4 (in-place)
I0225 09:08:36.148679    44 net.cpp:190] Setting up upsample_p4_fixed
I0225 09:08:36.148684    44 net.cpp:197] Top shape: 1 32 64 128 (262144)
I0225 09:08:36.148689    44 net.cpp:205] Memory required for data: 760381444
I0225 09:08:36.148692    44 layer_factory.hpp:123] Creating layer add_p3
I0225 09:08:36.148705    44 net.cpp:140] Creating Layer add_p3
I0225 09:08:36.148710    44 net.cpp:481] add_p3 <- upsample_p4
I0225 09:08:36.148713    44 net.cpp:481] add_p3 <- latlayer_3d
I0225 09:08:36.148717    44 net.cpp:455] add_p3 -> add_p3
I0225 09:08:36.148736    44 net.cpp:190] Setting up add_p3
I0225 09:08:36.148739    44 net.cpp:197] Top shape: 1 32 64 128 (262144)
I0225 09:08:36.148743    44 net.cpp:205] Memory required for data: 761430020
I0225 09:08:36.148746    44 layer_factory.hpp:123] Creating layer add_p3_fixed
I0225 09:08:36.148751    44 net.cpp:140] Creating Layer add_p3_fixed
I0225 09:08:36.148754    44 net.cpp:481] add_p3_fixed <- add_p3
I0225 09:08:36.148759    44 net.cpp:442] add_p3_fixed -> add_p3 (in-place)
I0225 09:08:36.148784    44 net.cpp:190] Setting up add_p3_fixed
I0225 09:08:36.148790    44 net.cpp:197] Top shape: 1 32 64 128 (262144)
I0225 09:08:36.148794    44 net.cpp:205] Memory required for data: 762478596
I0225 09:08:36.148798    44 layer_factory.hpp:123] Creating layer toplayer_p3
I0225 09:08:36.148805    44 net.cpp:140] Creating Layer toplayer_p3
I0225 09:08:36.148809    44 net.cpp:481] toplayer_p3 <- add_p3
I0225 09:08:36.148813    44 net.cpp:455] toplayer_p3 -> p3
I0225 09:08:36.149040    44 layer_factory.hpp:123] Creating layer toplayer_p3
I0225 09:08:36.149392    44 net.cpp:190] Setting up toplayer_p3
I0225 09:08:36.149399    44 net.cpp:197] Top shape: 1 32 64 128 (262144)
I0225 09:08:36.149402    44 net.cpp:205] Memory required for data: 763527172
I0225 09:08:36.149408    44 layer_factory.hpp:123] Creating layer p3_fixed
I0225 09:08:36.149413    44 net.cpp:140] Creating Layer p3_fixed
I0225 09:08:36.149416    44 net.cpp:481] p3_fixed <- p3
I0225 09:08:36.149421    44 net.cpp:442] p3_fixed -> p3 (in-place)
I0225 09:08:36.149451    44 net.cpp:190] Setting up p3_fixed
I0225 09:08:36.149456    44 net.cpp:197] Top shape: 1 32 64 128 (262144)
I0225 09:08:36.149459    44 net.cpp:205] Memory required for data: 764575748
I0225 09:08:36.149464    44 layer_factory.hpp:123] Creating layer latlayer_2c
I0225 09:08:36.149471    44 net.cpp:140] Creating Layer latlayer_2c
I0225 09:08:36.149475    44 net.cpp:481] latlayer_2c <- conv2/3x3_conv2/3x3_fixed_0_split_1
I0225 09:08:36.149480    44 net.cpp:455] latlayer_2c -> latlayer_2c
I0225 09:08:36.149680    44 layer_factory.hpp:123] Creating layer latlayer_2c
I0225 09:08:36.150029    44 net.cpp:190] Setting up latlayer_2c
I0225 09:08:36.150036    44 net.cpp:197] Top shape: 1 32 128 256 (1048576)
I0225 09:08:36.150041    44 net.cpp:205] Memory required for data: 768770052
I0225 09:08:36.150046    44 layer_factory.hpp:123] Creating layer latlayer_2c_fixed
I0225 09:08:36.150051    44 net.cpp:140] Creating Layer latlayer_2c_fixed
I0225 09:08:36.150055    44 net.cpp:481] latlayer_2c_fixed <- latlayer_2c
I0225 09:08:36.150059    44 net.cpp:442] latlayer_2c_fixed -> latlayer_2c (in-place)
I0225 09:08:36.150090    44 net.cpp:190] Setting up latlayer_2c_fixed
I0225 09:08:36.150095    44 net.cpp:197] Top shape: 1 32 128 256 (1048576)
I0225 09:08:36.150099    44 net.cpp:205] Memory required for data: 772964356
I0225 09:08:36.150104    44 layer_factory.hpp:123] Creating layer upsample_p3
I0225 09:08:36.150110    44 net.cpp:140] Creating Layer upsample_p3
I0225 09:08:36.150115    44 net.cpp:481] upsample_p3 <- p3
I0225 09:08:36.150118    44 net.cpp:455] upsample_p3 -> upsample_p3
I0225 09:08:36.150389    44 layer_factory.hpp:123] Creating layer upsample_p3
I0225 09:08:36.150729    44 net.cpp:190] Setting up upsample_p3
I0225 09:08:36.150737    44 net.cpp:197] Top shape: 1 32 128 256 (1048576)
I0225 09:08:36.150740    44 net.cpp:205] Memory required for data: 777158660
I0225 09:08:36.150745    44 layer_factory.hpp:123] Creating layer upsample_p3_fixed
I0225 09:08:36.150750    44 net.cpp:140] Creating Layer upsample_p3_fixed
I0225 09:08:36.150754    44 net.cpp:481] upsample_p3_fixed <- upsample_p3
I0225 09:08:36.150759    44 net.cpp:442] upsample_p3_fixed -> upsample_p3 (in-place)
I0225 09:08:36.150785    44 net.cpp:190] Setting up upsample_p3_fixed
I0225 09:08:36.150791    44 net.cpp:197] Top shape: 1 32 128 256 (1048576)
I0225 09:08:36.150795    44 net.cpp:205] Memory required for data: 781352964
I0225 09:08:36.150799    44 layer_factory.hpp:123] Creating layer add_p2
I0225 09:08:36.150804    44 net.cpp:140] Creating Layer add_p2
I0225 09:08:36.150807    44 net.cpp:481] add_p2 <- upsample_p3
I0225 09:08:36.150811    44 net.cpp:481] add_p2 <- latlayer_2c
I0225 09:08:36.150816    44 net.cpp:455] add_p2 -> add_p2
I0225 09:08:36.150832    44 net.cpp:190] Setting up add_p2
I0225 09:08:36.150837    44 net.cpp:197] Top shape: 1 32 128 256 (1048576)
I0225 09:08:36.150842    44 net.cpp:205] Memory required for data: 785547268
I0225 09:08:36.150846    44 layer_factory.hpp:123] Creating layer add_p2_fixed
I0225 09:08:36.150851    44 net.cpp:140] Creating Layer add_p2_fixed
I0225 09:08:36.150853    44 net.cpp:481] add_p2_fixed <- add_p2
I0225 09:08:36.150858    44 net.cpp:442] add_p2_fixed -> add_p2 (in-place)
I0225 09:08:36.150883    44 net.cpp:190] Setting up add_p2_fixed
I0225 09:08:36.150888    44 net.cpp:197] Top shape: 1 32 128 256 (1048576)
I0225 09:08:36.150893    44 net.cpp:205] Memory required for data: 789741572
I0225 09:08:36.150897    44 layer_factory.hpp:123] Creating layer toplayer_p2
I0225 09:08:36.150903    44 net.cpp:140] Creating Layer toplayer_p2
I0225 09:08:36.150907    44 net.cpp:481] toplayer_p2 <- add_p2
I0225 09:08:36.150912    44 net.cpp:455] toplayer_p2 -> pred
I0225 09:08:36.151145    44 layer_factory.hpp:123] Creating layer toplayer_p2
I0225 09:08:36.153164    44 net.cpp:190] Setting up toplayer_p2
I0225 09:08:36.153174    44 net.cpp:197] Top shape: 1 19 512 1024 (9961472)
I0225 09:08:36.153180    44 net.cpp:205] Memory required for data: 829587460
I0225 09:08:36.153187    44 layer_factory.hpp:123] Creating layer pred_fixed
I0225 09:08:36.153192    44 net.cpp:140] Creating Layer pred_fixed
I0225 09:08:36.153196    44 net.cpp:481] pred_fixed <- pred
I0225 09:08:36.153201    44 net.cpp:442] pred_fixed -> pred (in-place)
I0225 09:08:36.153236    44 net.cpp:190] Setting up pred_fixed
I0225 09:08:36.153241    44 net.cpp:197] Top shape: 1 19 512 1024 (9961472)
I0225 09:08:36.153246    44 net.cpp:205] Memory required for data: 869433348
I0225 09:08:36.153250    44 layer_factory.hpp:123] Creating layer score
I0225 09:08:36.153255    44 net.cpp:140] Creating Layer score
I0225 09:08:36.153259    44 net.cpp:481] score <- pred
I0225 09:08:36.153264    44 net.cpp:455] score -> score
I0225 09:08:36.153316    44 net.cpp:190] Setting up score
I0225 09:08:36.153321    44 net.cpp:197] Top shape: 1 19 512 1024 (9961472)
I0225 09:08:36.153326    44 net.cpp:205] Memory required for data: 909279236
I0225 09:08:36.153328    44 net.cpp:268] score does not need backward computation.
I0225 09:08:36.153332    44 net.cpp:268] pred_fixed does not need backward computation.
I0225 09:08:36.153335    44 net.cpp:268] toplayer_p2 does not need backward computation.
I0225 09:08:36.153338    44 net.cpp:268] add_p2_fixed does not need backward computation.
…
