…
  top: "label"
  include {
    phase: TRAIN
  }
  transform_param {
    mean_value: 104
    mean_value: 117
    mean_value: 123
    resize_param {
      prob: 1
      resize_mode: WARP
      height: 360
      width: 480
      interp_mode: LINEAR
      interp_mode: AREA
      interp_mode: NEAREST
      interp_mode: CUBIC
      interp_mode: LANCZOS4
    }
  }
  image_data_param {
    source: "../calibration.txt"
    batch_size: 1
    shuffle: true
    new_height: 360
    new_width: 480
    root_folder: "/workspace/SSD/data/VOCdevkit/VOC2007/JPEGImages/"
  }
}
layer {
  name: "conv1"
  type: "Convolution"
  bottom: "data"
  top: "conv1"
  param {
    lr_mult: 1
    decay_mult: 1
  }
  convolution_param {
    num_output: 32
    bias_term: false
    pad: 1
    kernel_size: 3
    stride: 2
    weight_filler {
      type: "msra"
    }
  }
}
layer {
  name: "conv1/bn"
  type: "BatchNorm"
  bottom: "conv1"
  top: "conv1/bn"
  param {
    lr_mult: 1
    decay_mult: 0
  }
  param {
    lr_mult: 1
    decay_mult: 0
  }
  param {
    lr_mult: 0
    decay_mult: 0
  }
  param {
    lr_mult: 0
    decay_mult: 0
  }
  batch_norm_param {
    use_global_stats: true
    eps: 1e-05
    scale_filler {
      type: "constant"
      value: 1
    }
    bias_filler {
      type: "constant"
      value: 0
    }
  }
}
layer {
  name: "relu1"
  type: "ReLU"
  bottom: "conv1/bn"
  top: "conv1/bn"
}
layer {
  name: "conv2_1/expand"
  type: "Convolution"
  bottom: "conv1/bn"
  top: "conv2_1/expand"
  param {
    lr_mult: 1
    decay_mult: 1
  }
  convolution_param {
    num_output: 32
    bias_term: false
    kernel_size: 1
    weight_filler {
      type: "msra"
    }
  }
}
layer {
  name: "conv2_1/expand/bn"
  type: "BatchNorm"
  bottom: "conv2_1/expand"
  top: "conv2_1/expand/bn"
  param {
    lr_mult: 1
    decay_mult: 0
  }
  param {
    lr_mult: 1
    decay_mult: 0
  }
  param {
    lr_mult: 0
    decay_mult: 0
  }
  param {
    lr_mult: 0
    decay_mult: 0
  }
  batch_norm_param {
    use_global_stats: true
    eps: 1e-05
    scale_filler {
      type: "constant"
      value: 1
    }
    bias_filler {
      type: "constant"
      value: 0
    }
  }
}
layer {
  name: "relu2_1/expand"
  type: "ReLU"
  bottom: "conv2_1/expand/bn"
  top: "conv2_1/expand/bn"
}
layer {
  name: "conv2_1/dwise"
  type: "Convolution"
  bottom: "conv2_1/expand/bn"
  top: "conv2_1/dwise"
  param {
    lr_mult: 1
    decay_mult: 1
  }
  convolution_param {
    num_output: 32
    bias_term: false
    pad: 1
    kernel_size: 3
    group: 32
    weight_filler {
      type: "msra"
    }
    engine: CAFFE
  }
}
layer {
  name: "conv2_1/dwise/bn"
  type: "BatchNorm"
  bottom: "conv2_1/dwise"
  top: "conv2_1/dwise/bn"
  param {
    lr_mult: 1
    decay_mult: 0
  }
  param {
    lr_mult: 1
    decay_mult: 0
  }
  param {
    lr_mult: 0
    decay_mult: 0
  }
  param {
    lr_mult: 0
    decay_mult: 0
  }
  batch_norm_param {
    use_global_stats: true
    eps: 1e-05
    scale_filler {
      type: "constant"
      value: 1
    }
    bias_filler {
      type: "constant"
      value: 0
    }
  }
}
layer {
  name: "relu2_1/dwise"
  type: "ReLU"
  bottom: "conv2_1/dwise/bn"
  top: "conv2_1/dwise/bn"
}
layer {
  name: "conv2_1/linear"
  type: "Convolution"
  bottom: "conv2_1/dwise/bn"
  top: "conv2_1/linear"
  param {
    lr_mult: 1
    decay_mult: 1
  }
  convolution_param {
    num_output: 16
    bias_term: false
    kernel_size: 1
    weight_filler {
      type: "msra"
    }
  }
}
layer {
  name: "conv2_1/linear/bn"
  type: "BatchNorm"
  bottom: "conv2_1/linear"
  top: "conv2_1/linear/bn"
  param {
    lr_mult: 1
    decay_mult: 0
  }
  param {
    lr_mult: 1
    decay_mult: 0
  }
  param {
    lr_mult: 0
    decay_mult: 0
  }
  param {
    lr_mult: 0
    decay_mult: 0
  }
  batch_norm_param {
    use_global_stats: true
    eps: 1e-05
    scale_filler {
      type: "constant"
      value: 1
    }
    bias_filler {
      type: "constant"
      value: 0
    }
  }
}
layer {
  name: "conv2_2/expand"
  type: "Convolution"
  bottom: "conv2_1/linear/bn"
  top: "conv2_2/expand"
  param {
    lr_mult: 1
    decay_mult: 1
  }
  convolution_param {
    num_output: 96
    bias_term: false
    kernel_size: 1
    weight_filler {
      type: "msra"
    }
  }
}
layer {
  name: "conv2_2/expand/bn"
  type: "BatchNorm"
  bottom: "conv2_2/expand"
  top: "conv2_2/expand/bn"
  param {
    lr_mult: 1
    decay_mult: 0
  }
  param {
    lr_mult: 1
    decay_mult: 0
  }
  param {
    lr_mult: 0
    decay_mult: 0
  }
  param {
    lr_mult: 0
    decay_mult: 0
  }
  batch_norm_param {
    use_global_stats: true
    eps: 1e-05
    scale_filler {
      type: "constant"
      value: 1
    }
    bias_filler {
      type: "constant"
      value: 0
    }
  }
}
layer {
  name: "relu2_2/expand"
  type: "ReLU"
  bottom: "conv2_2/expand/bn"
  top: "conv2_2/expand/bn"
}
layer {
  name: "conv2_2/dwise"
  type: "Convolution"
  bottom: "conv2_2/expand/bn"
  top: "conv2_2/dwise"
  param {
    lr_mult: 1
    decay_mult: 1
  }
  convolution_param {
    num_output: 96
    bias_term: false
    pad: 1
    kernel_size: 3
    group: 96
    stride: 2
    weight_filler {
      type: "msra"
    }
    engine: CAFFE
  }
}
layer {
  name: "conv2_2/dwise/bn"
  type: "BatchNorm"
  bottom: "conv2_2/dwise"
  top: "conv2_2/dwise/bn"
  param {
    lr_mult: 1
    decay_mult: 0
  }
  param {
    lr_mult: 1
    decay_mult: 0
  }
  param {
    lr_mult: 0
    decay_mult: 0
  }
  param {
    lr_mult: 0
    decay_mult: 0
  }
  batch_norm_param {
    use_global_stats: true
    eps: 1e-05
    scale_filler {
      type: "constant"
      value: 1
    }
    bias_filler {
      type: "constant"
      value: 0
    }
  }
}
layer {
  name: "relu2_2/dwise"
  type: "ReLU"
  bottom: "conv2_2/dwise/bn"
  top: "conv2_2/dwise/bn"
}
layer {
  name: "conv2_2/linear"
  type: "Convolution"
  bottom: "conv2_2/dwise/bn"
  top: "conv2_2/linear"
  param {
    lr_mult: 1
    decay_mult: 1
  }
  convolution_param {
    num_output: 24
    bias_term: false
    kernel_size: 1
    weight_filler {
      type: "msra"
    }
  }
}
layer {
  name: "conv2_2/linear/bn"
  type: "BatchNorm"
  bottom: "conv2_2/linear"
  top: "conv2_2/linear/bn"
  param {
    lr_mult: 1
    decay_mult: 0
  }
  param {
    lr_mult: 1
    decay_mult: 0
  }
  param {
    lr_mult: 0
    decay_mult: 0
  }
  param {
    lr_mult: 0
    decay_mult: 0
  }
  batch_norm_param {
    use_global_stats: true
    eps: 1e-05
    scale_filler {
      type: "constant"
      value: 1
    }
    bias_filler {
      type: "constant"
      value: 0
    }
  }
}
layer {
  name: "conv3_1/expand"
  type: "Convolution"
  bottom: "conv2_2/linear/bn"
  top: "conv3_1/expand"
  param {
    lr_mult: 1
    decay_mult: 1
  }
  convolution_param {
    num_output: 144
    bias_term: false
    kernel_size: 1
    weight_filler {
      type: "msra"
    }
  }
}
layer {
  name: "conv3_1/expand/bn"
  type: "BatchNorm"
  bottom: "conv3_1/expand"
  top: "conv3_1/expand/bn"
  param {
    lr_mult: 1
    decay_mult: 0
  }
  param {
    lr_mult: 1
    decay_mult: 0
  }
  param {
    lr_mult: 0
    decay_mult: 0
  }
  param {
    lr_mult: 0
    decay_mult: 0
  }
  batch_norm_param {
    use_global_stats: true
    eps: 1e-05
    scale_filler {
      type: "constant"
      value: 1
    }
    bias_filler {
      type: "constant"
      value: 0
    }
  }
}
layer {
  name: "relu3_1/expand"
  type: "ReLU"
  bottom: "conv3_1/expand/bn"
  top: "conv3_1/expand/bn"
}
layer {
  name: "conv3_1/dwise"
  type: "Convolution"
  bottom: "conv3_1/expand/bn"
  top: "conv3_1/dwise"
  param {
    lr_mult: 1
    decay_mult: 1
  }
  convolution_param {
    num_output: 144
    bias_term: false
    pad: 1
    kernel_size: 3
    group: 144
    weight_filler {
      type: "msra"
    }
    engine: CAFFE
  }
}
layer {
  name: "conv3_1/dwise/bn"
  type: "BatchNorm"
  bottom: "conv3_1/dwise"
  top: "conv3_1/dwise/bn"
  param {
    lr_mult: 1
    decay_mult: 0
  }
  param {
    lr_mult: 1
    decay_mult: 0
  }
  param {
    lr_mult: 0
    decay_mult: 0
  }
  param {
    lr_mult: 0
    decay_mult: 0
  }
  batch_norm_param {
    use_global_stats: true
    eps: 1e-05
    scale_filler {
      type: "constant"
      value: 1
    }
    bias_filler {
      type: "constant"
      value: 0
    }
  }
}
layer {
  name: "relu3_1/dwise"
  type: "ReLU"
  bottom: "conv3_1/dwise/bn"
  top: "conv3_1/dwise/bn"
}
layer {
  name: "conv3_1/linear"
  type: "Convolution"
  bottom: "conv3_1/dwise/bn"
  top: "conv3_1/linear"
  param {
    lr_mult: 1
    decay_mult: 1
  }
  convolution_param {
    num_output: 24
    bias_term: false
    kernel_size: 1
    weight_filler {
      type: "msra"
    }
  }
}
layer {
  name: "conv3_1/linear/bn"
  type: "BatchNorm"
  bottom: "conv3_1/linear"
  top: "conv3_1/linear/bn"
  param {
    lr_mult: 1
    decay_mult: 0
  }
  param {
    lr_mult: 1
    decay_mult: 0
  }
  param {
    lr_mult: 0
    decay_mult: 0
  }
  param {
    lr_mult: 0
    decay_mult: 0
  }
  batch_norm_param {
    use_global_stats: true
    eps: 1e-05
    scale_filler {
      type: "constant"
      value: 1
    }
    bias_filler {
      type: "constant"
      value: 0
    }
  }
}
layer {
  name: "block_3_1"
  type: "Eltwise"
  bottom: "conv2_2/linear/bn"
  bottom: "conv3_1/linear/bn"
  top: "block_3_1"
}
layer {
  name: "conv3_2/expand"
  type: "Convolution"
  bottom: "block_3_1"
  top: "conv3_2/expand"
  param {
    lr_mult: 1
    decay_mult: 1
  }
  convolution_param {
    num_output: 144
    bias_term: false
    kernel_size: 1
    weight_filler {
      type: "msra"
    }
  }
}
layer {
  name: "conv3_2/expand/bn"
  type: "BatchNorm"
  bottom: "conv3_2/expand"
  top: "conv3_2/expand/bn"
  param {
    lr_mult: 1
    decay_mult: 0
  }
  param {
    lr_mult: 1
    decay_mult: 0
  }
  param {
    lr_mult: 0
    decay_mult: 0
  }
  param {
    lr_mult: 0
    decay_mult: 0
  }
  batch_norm_param {
    use_global_stats: true
    eps: 1e-05
    scale_filler {
      type: "constant"
      value: 1
    }
    bias_filler {
      type: "constant"
      value: 0
    }
  }
}
layer {
  name: "relu3_2/expand"
  type: "ReLU"
  bottom: "conv3_2/expand/bn"
  top: "conv3_2/expand/bn"
}
layer {
  name: "conv3_2/dwise"
  type: "Convolution"
  bottom: "conv3_2/expand/bn"
  top: "conv3_2/dwise"
  param {
    lr_mult: 1
    decay_mult: 1
  }
  convolution_param {
    num_output: 144
    bias_term: false
    pad: 1
    kernel_size: 3
    group: 144
    stride: 2
    weight_filler {
      type: "msra"
    }
    engine: CAFFE
  }
}
layer {
  name: "conv3_2/dwise/bn"
  type: "BatchNorm"
  bottom: "conv3_2/dwise"
  top: "conv3_2/dwise/bn"
  param {
    lr_mult: 1
    decay_mult: 0
  }
  param {
    lr_mult: 1
    decay_mult: 0
  }
  param {
    lr_mult: 0
    decay_mult: 0
  }
  param {
    lr_mult: 0
    decay_mult: 0
  }
  batch_norm_param {
    use_global_stats: true
    eps: 1e-05
    scale_filler {
      type: "constant"
      value: 1
    }
    bias_filler {
      type: "constant"
      value: 0
    }
  }
}
layer {
  name: "relu3_2/dwise"
  type: "ReLU"
  bottom: "conv3_2/dwise/bn"
  top: "conv3_2/dwise/bn"
}
layer {
  name: "conv3_2/linear"
  type: "Convolution"
  bottom: "conv3_2/dwise/bn"
  top: "conv3_2/linear"
  param {
    lr_mult: 1
    decay_mult: 1
  }
  convolution_param {
    num_output: 32
    bias_term: false
    kernel_size: 1
    weight_filler {
      type: "msra"
    }
  }
}
layer {
  name: "conv3_2/linear/bn"
  type: "BatchNorm"
  bottom: "conv3_2/linear"
  top: "conv3_2/linear/bn"
  param {
    lr_mult: 1
    decay_mult: 0
  }
  param {
    lr_mult: 1
    decay_mult: 0
  }
  param {
    lr_mult: 0
    decay_mult: 0
  }
  param {
    lr_mult: 0
    decay_mult: 0
  }
  batch_norm_param {
    use_global_stats: true
    eps: 1e-05
    scale_filler {
      type: "constant"
      value: 1
    }
    bias_filler {
      type: "constant"
      value: 0
    }
  }
}
layer {
  name: "conv4_1/expand"
  type: "Convolution"
  bottom: "conv3_2/linear/bn"
  top: "conv4_1/expand"
  param {
    lr_mult: 1
    decay_mult: 1
  }
  convolution_param {
    num_output: 192
    bias_term: false
    kernel_size: 1
    weight_filler {
      type: "msra"
    }
  }
}
layer {
  name: "conv4_1/expand/bn"
  type: "BatchNorm"
  bottom: "conv4_1/expand"
  top: "conv4_1/expand/bn"
  param {
    lr_mult: 1
    decay_mult: 0
  }
  param {
    lr_mult: 1
    decay_mult: 0
  }
  param {
    lr_mult: 0
    decay_mult: 0
  }
  param {
    lr_mult: 0
    decay_mult: 0
  }
  batch_norm_param {
    use_global_stats: true
    eps: 1e-05
    scale_filler {
      type: "constant"
      value: 1
    }
    bias_filler {
      type: "constant"
      value: 0
    }
  }
}
layer {
  name: "relu4_1/expand"
  type: "ReLU"
  bottom: "conv4_1/expand/bn"
  top: "conv4_1/expand/bn"
}
layer {
  name: "conv4_1/dwise"
  type: "Convolution"
  bottom: "conv4_1/expand/bn"
  top: "conv4_1/dwise"
  param {
    lr_mult: 1
    decay_mult: 1
  }
  convolution_param {
    num_output: 192
    bias_term: false
    pad: 1
    kernel_size: 3
    group: 192
    weight_filler {
      type: "msra"
    }
    engine: CAFFE
  }
}
layer {
  name: "conv4_1/dwise/bn"
  type: "BatchNorm"
  bottom: "conv4_1/dwise"
  top: "conv4_1/dwise/bn"
  param {
    lr_mult: 1
    decay_mult: 0
  }
  param {
    lr_mult: 1
    decay_mult: 0
  }
  param {
    lr_mult: 0
    decay_mult: 0
  }
  param {
    lr_mult: 0
    decay_mult: 0
  }
  batch_norm_param {
    use_global_stats: true
    eps: 1e-05
    scale_filler {
      type: "constant"
      value: 1
    }
    bias_filler {
      type: "constant"
      value: 0
    }
  }
}
layer {
  name: "relu4_1/dwise"
  type: "ReLU"
  bottom: "conv4_1/dwise/bn"
  top: "conv4_1/dwise/bn"
}
layer {
  name: "conv4_1/linear"
  type: "Convolution"
  bottom: "conv4_1/dwise/bn"
  top: "conv4_1/linear"
  param {
    lr_mult: 1
    decay_mult: 1
  }
  convolution_param {
    num_output: 32
    bias_term: false
    kernel_size: 1
    weight_filler {
      type: "msra"
    }
  }
}
layer {
  name: "conv4_1/linear/bn"
  type: "BatchNorm"
  bottom: "conv4_1/linear"
  top: "conv4_1/linear/bn"
  param {
    lr_mult: 1
    decay_mult: 0
  }
  param {
    lr_mult: 1
    decay_mult: 0
  }
  param {
    lr_mult: 0
    decay_mult: 0
  }
  param {
    lr_mult: 0
    decay_mult: 0
  }
  batch_norm_param {
    use_global_stats: true
    eps: 1e-05
    scale_filler {
      type: "constant"
      value: 1
    }
    bias_filler {
      type: "constant"
      value: 0
    }
  }
}
layer {
  name: "block_4_1"
  type: "Eltwise"
  bottom: "conv3_2/linear/bn"
  bottom: "conv4_1/linear/bn"
  top: "block_4_1"
}
layer {
  name: "conv4_2/expand"
  type: "Convolution"
  bottom: "block_4_1"
  top: "conv4_2/expand"
  param {
    lr_mult: 1
    decay_mult: 1
  }
  convolution_param {
    num_output: 192
    bias_term: false
    kernel_size: 1
    weight_filler {
      type: "msra"
    }
  }
}
layer {
  name: "conv4_2/expand/bn"
  type: "BatchNorm"
  bottom: "conv4_2/expand"
  top: "conv4_2/expand/bn"
  param {
    lr_mult: 1
    decay_mult: 0
  }
  param {
    lr_mult: 1
    decay_mult: 0
  }
  param {
    lr_mult: 0
    decay_mult: 0
  }
  param {
    lr_mult: 0
    decay_mult: 0
  }
  batch_norm_param {
    use_global_stats: true
    eps: 1e-05
    scale_filler {
      type: "constant"
      value: 1
    }
    bias_filler {
      type: "constant"
      value: 0
    }
  }
}
layer {
  name: "relu4_2/expand"
  type: "ReLU"
  bottom: "conv4_2/expand/bn"
  top: "conv4_2/expand/bn"
}
layer {
  name: "conv4_2/dwise"
  type: "Convolution"
  bottom: "conv4_2/expand/bn"
  top: "conv4_2/dwise"
  param {
    lr_mult: 1
    decay_mult: 1
  }
  convolution_param {
    num_output: 192
    bias_term: false
    pad: 1
    kernel_size: 3
    group: 192
    weight_filler {
      type: "msra"
    }
    engine: CAFFE
  }
}
layer {
  name: "conv4_2/dwise/bn"
  type: "BatchNorm"
  bottom: "conv4_2/dwise"
  top: "conv4_2/dwise/bn"
  param {
    lr_mult: 1
    decay_mult: 0
  }
  param {
    lr_mult: 1
    decay_mult: 0
  }
  param {
    lr_mult: 0
    decay_mult: 0
  }
  param {
    lr_mult: 0
    decay_mult: 0
  }
  batch_norm_param {
    use_global_stats: true
    eps: 1e-05
    scale_filler {
      type: "constant"
      value: 1
    }
    bias_filler {
      type: "constant"
      value: 0
    }
  }
}
layer {
  name: "relu4_2/dwise"
  type: "ReLU"
  bottom: "conv4_2/dwise/bn"
  top: "conv4_2/dwise/bn"
}
layer {
  name: "conv4_2/linear"
  type: "Convolution"
  bottom: "conv4_2/dwise/bn"
  top: "conv4_2/linear"
  param {
    lr_mult: 1
    decay_mult: 1
  }
  convolution_param {
    num_output: 32
    bias_term: false
    kernel_size: 1
    weight_filler {
      type: "msra"
    }
  }
}
layer {
  name: "conv4_2/linear/bn"
  type: "BatchNorm"
  bottom: "conv4_2/linear"
  top: "conv4_2/linear/bn"
  param {
    lr_mult: 1
    decay_mult: 0
  }
  param {
    lr_mult: 1
    decay_mult: 0
  }
  param {
    lr_mult: 0
    decay_mult: 0
  }
  param {
    lr_mult: 0
    decay_mult: 0
  }
  batch_norm_param {
    use_global_stats: true
    eps: 1e-05
    scale_filler {
      type: "constant"
      value: 1
    }
    bias_filler {
      type: "constant"
      value: 0
    }
  }
}
layer {
  name: "block_4_2"
  type: "Eltwise"
  bottom: "block_4_1"
  bottom: "conv4_2/linear/bn"
  top: "block_4_2"
}
layer {
  name: "conv4_3/expand"
  type: "Convolution"
  bottom: "block_4_2"
  top: "conv4_3/expand"
  param {
    lr_mult: 1
    decay_mult: 1
  }
  convolution_param {
    num_output: 192
    bias_term: false
    kernel_size: 1
    weight_filler {
      type: "msra"
    }
  }
}
layer {
  name: "conv4_3/expand/bn"
  type: "BatchNorm"
  bottom: "conv4_3/expand"
  top: "conv4_3/expand/bn"
  param {
    lr_mult: 1
    decay_mult: 0
  }
  param {
    lr_mult: 1
    decay_mult: 0
  }
  param {
    lr_mult: 0
    decay_mult: 0
  }
  param {
    lr_mult: 0
    decay_mult: 0
  }
  batch_norm_param {
    use_global_stats: true
    eps: 1e-05
    scale_filler {
      type: "constant"
      value: 1
    }
    bias_filler {
      type: "constant"
      value: 0
    }
  }
}
layer {
  name: "relu4_3/expand"
  type: "ReLU"
  bottom: "conv4_3/expand/bn"
  top: "conv4_3/expand/bn"
}
layer {
  name: "conv4_3/dwise"
  type: "Convolution"
  bottom: "conv4_3/expand/bn"
  top: "conv4_3/dwise"
  param {
    lr_mult: 1
    decay_mult: 1
  }
  convolution_param {
    num_output: 192
    bias_term: false
    pad: 1
    kernel_size: 3
    group: 192
    weight_filler {
      type: "msra"
    }
    engine: CAFFE
  }
}
layer {
  name: "conv4_3/dwise/bn"
  type: "BatchNorm"
  bottom: "conv4_3/dwise"
  top: "conv4_3/dwise/bn"
  param {
    lr_mult: 1
    decay_mult: 0
  }
  param {
    lr_mult: 1
    decay_mult: 0
  }
  param {
    lr_mult: 0
    decay_mult: 0
  }
  param {
    lr_mult: 0
    decay_mult: 0
  }
  batch_norm_param {
    use_global_stats: true
    eps: 1e-05
    scale_filler {
      type: "constant"
      value: 1
    }
    bias_filler {
      type: "constant"
      value: 0
    }
  }
}
layer {
  name: "relu4_3/dwise"
  type: "ReLU"
  bottom: "conv4_3/dwise/bn"
  top: "conv4_3/dwise/bn"
}
layer {
  name: "conv4_3/linear"
  type: "Convolution"
  bottom: "conv4_3/dwise/bn"
  top: "conv4_3/linear"
  param {
    lr_mult: 1
    decay_mult: 1
  }
  convolution_param {
    num_output: 64
    bias_term: false
    kernel_size: 1
    weight_filler {
      type: "msra"
    }
  }
}
layer {
  name: "conv4_3/linear/bn"
  type: "BatchNorm"
  bottom: "conv4_3/linear"
  top: "conv4_3/linear/bn"
  param {
    lr_mult: 1
    decay_mult: 0
  }
  param {
    lr_mult: 1
    decay_mult: 0
  }
  param {
    lr_mult: 0
    decay_mult: 0
  }
  param {
    lr_mult: 0
    decay_mult: 0
  }
  batch_norm_param {
    use_global_stats: true
    eps: 1e-05
    scale_filler {
      type: "constant"
      value: 1
    }
    bias_filler {
      type: "constant"
      value: 0
    }
  }
}
layer {
  name: "conv4_4/expand"
  type: "Convolution"
  bottom: "conv4_3/linear/bn"
  top: "conv4_4/expand"
  param {
    lr_mult: 1
    decay_mult: 1
  }
  convolution_param {
    num_output: 384
    bias_term: false
    kernel_size: 1
    weight_filler {
      type: "msra"
    }
  }
}
layer {
  name: "conv4_4/expand/bn"
  type: "BatchNorm"
  bottom: "conv4_4/expand"
  top: "conv4_4/expand/bn"
  param {
    lr_mult: 1
    decay_mult: 0
  }
  param {
    lr_mult: 1
    decay_mult: 0
  }
  param {
    lr_mult: 0
    decay_mult: 0
  }
  param {
    lr_mult: 0
    decay_mult: 0
  }
  batch_norm_param {
    use_global_stats: true
    eps: 1e-05
    scale_filler {
      type: "constant"
      value: 1
    }
    bias_filler {
      type: "constant"
      value: 0
    }
  }
}
layer {
  name: "relu4_4/expand"
  type: "ReLU"
  bottom: "conv4_4/expand/bn"
  top: "conv4_4/expand/bn"
}
layer {
  name: "conv4_4/dwise"
  type: "Convolution"
  bottom: "conv4_4/expand/bn"
  top: "conv4_4/dwise"
  param {
    lr_mult: 1
    decay_mult: 1
  }
  convolution_param {
    num_output: 384
    bias_term: false
    pad: 1
    kernel_size: 3
    group: 384
    weight_filler {
      type: "msra"
    }
    engine: CAFFE
  }
}
layer {
  name: "conv4_4/dwise/bn"
  type: "BatchNorm"
  bottom: "conv4_4/dwise"
  top: "conv4_4/dwise/bn"
  param {
    lr_mult: 1
    decay_mult: 0
  }
  param {
    lr_mult: 1
    decay_mult: 0
  }
  param {
    lr_mult: 0
    decay_mult: 0
  }
  param {
    lr_mult: 0
    decay_mult: 0
  }
  batch_norm_param {
    use_global_stats: true
    eps: 1e-05
    scale_filler {
      type: "constant"
      value: 1
    }
    bias_filler {
      type: "constant"
      value: 0
    }
  }
}
layer {
  name: "relu4_4/dwise"
  type: "ReLU"
  bottom: "conv4_4/dwise/bn"
  top: "conv4_4/dwise/bn"
}
layer {
  name: "conv4_4/linear"
  type: "Convolution"
  bottom: "conv4_4/dwise/bn"
  top: "conv4_4/linear"
  param {
    lr_mult: 1
    decay_mult: 1
  }
  convolution_param {
    num_output: 64
    bias_term: false
    kernel_size: 1
    weight_filler {
      type: "msra"
    }
  }
}
layer {
  name: "conv4_4/linear/bn"
  type: "BatchNorm"
  bottom: "conv4_4/linear"
  top: "conv4_4/linear/bn"
  param {
    lr_mult: 1
    decay_mult: 0
  }
  param {
    lr_mult: 1
    decay_mult: 0
  }
  param {
    lr_mult: 0
    decay_mult: 0
  }
  param {
    lr_mult: 0
    decay_mult: 0
  }
  batch_norm_param {
    use_global_stats: true
    eps: 1e-05
    scale_filler {
      type: "constant"
      value: 1
    }
    bias_filler {
      type: "constant"
      value: 0
    }
  }
}
layer {
  name: "block_4_4"
  type: "Eltwise"
  bottom: "conv4_3/linear/bn"
  bottom: "conv4_4/linear/bn"
  top: "block_4_4"
}
layer {
  name: "conv4_5/expand"
  type: "Convolution"
  bottom: "block_4_4"
  top: "conv4_5/expand"
  param {
    lr_mult: 1
    decay_mult: 1
  }
  convolution_param {
    num_output: 384
    bias_term: false
    kernel_size: 1
    weight_filler {
      type: "msra"
    }
  }
}
layer {
  name: "conv4_5/expand/bn"
  type: "BatchNorm"
  bottom: "conv4_5/expand"
  top: "conv4_5/expand/bn"
  param {
    lr_mult: 1
    decay_mult: 0
  }
  param {
    lr_mult: 1
    decay_mult: 0
  }
  param {
    lr_mult: 0
    decay_mult: 0
  }
  param {
    lr_mult: 0
    decay_mult: 0
  }
  batch_norm_param {
    use_global_stats: true
    eps: 1e-05
    scale_filler {
      type: "constant"
      value: 1
    }
    bias_filler {
      type: "constant"
      value: 0
    }
  }
}
layer {
  name: "relu4_5/expand"
  type: "ReLU"
  bottom: "conv4_5/expand/bn"
  top: "conv4_5/expand/bn"
}
layer {
  name: "conv4_5/dwise"
  type: "Convolution"
  bottom: "conv4_5/expand/bn"
  top: "conv4_5/dwise"
  param {
    lr_mult: 1
    decay_mult: 1
  }
  convolution_param {
    num_output: 384
    bias_term: false
    pad: 1
    kernel_size: 3
    group: 384
    weight_filler {
      type: "msra"
    }
    engine: CAFFE
  }
}
layer {
  name: "conv4_5/dwise/bn"
  type: "BatchNorm"
  bottom: "conv4_5/dwise"
  top: "conv4_5/dwise/bn"
  param {
    lr_mult: 1
    decay_mult: 0
  }
  param {
    lr_mult: 1
    decay_mult: 0
  }
  param {
    lr_mult: 0
    decay_mult: 0
  }
  param {
    lr_mult: 0
    decay_mult: 0
  }
  batch_norm_param {
    use_global_stats: true
    eps: 1e-05
    scale_filler {
      type: "constant"
      value: 1
    }
    bias_filler {
      type: "constant"
      value: 0
    }
  }
}
layer {
  name: "relu4_5/dwise"
  type: "ReLU"
  bottom: "conv4_5/dwise/bn"
  top: "conv4_5/dwise/bn"
}
layer {
  name: "conv4_5/linear"
  type: "Convolution"
  bottom: "conv4_5/dwise/bn"
  top: "conv4_5/linear"
  param {
    lr_mult: 1
    decay_mult: 1
  }
  convolution_param {
    num_output: 64
    bias_term: false
    kernel_size: 1
    weight_filler {
      type: "msra"
    }
  }
}
layer {
  name: "conv4_5/linear/bn"
  type: "BatchNorm"
  bottom: "conv4_5/linear"
  top: "conv4_5/linear/bn"
  param {
    lr_mult: 1
    decay_mult: 0
  }
  param {
    lr_mult: 1
    decay_mult: 0
  }
  param {
    lr_mult: 0
    decay_mult: 0
  }
  param {
    lr_mult: 0
    decay_mult: 0
  }
  batch_norm_param {
    use_global_stats: true
    eps: 1e-05
    scale_filler {
      type: "constant"
      value: 1
    }
    bias_filler {
      type: "constant"
      value: 0
    }
  }
}
layer {
  name: "block_4_5"
  type: "Eltwise"
  bottom: "block_4_4"
  bottom: "conv4_5/linear/bn"
  top: "block_4_5"
}
layer {
  name: "conv4_6/expand"
  type: "Convolution"
  bottom: "block_4_5"
  top: "conv4_6/expand"
  param {
    lr_mult: 1
    decay_mult: 1
  }
  convolution_param {
    num_output: 384
    bias_term: false
    kernel_size: 1
    weight_filler {
      type: "msra"
    }
  }
}
layer {
  name: "conv4_6/expand/bn"
  type: "BatchNorm"
  bottom: "conv4_6/expand"
  top: "conv4_6/expand/bn"
  param {
    lr_mult: 1
    decay_mult: 0
  }
  param {
    lr_mult: 1
    decay_mult: 0
  }
  param {
    lr_mult: 0
    decay_mult: 0
  }
  param {
    lr_mult: 0
    decay_mult: 0
  }
  batch_norm_param {
    use_global_stats: true
    eps: 1e-05
    scale_filler {
      type: "constant"
      value: 1
    }
    bias_filler {
      type: "constant"
      value: 0
    }
  }
}
layer {
  name: "relu4_6/expand"
  type: "ReLU"
  bottom: "conv4_6/expand/bn"
  top: "conv4_6/expand/bn"
}
layer {
  name: "conv4_6/dwise"
  type: "Convolution"
  bottom: "conv4_6/expand/bn"
  top: "conv4_6/dwise"
  param {
    lr_mult: 1
    decay_mult: 1
  }
  convolution_param {
    num_output: 384
    bias_term: false
    pad: 1
    kernel_size: 3
    group: 384
    weight_filler {
      type: "msra"
    }
    engine: CAFFE
  }
}
layer {
  name: "conv4_6/dwise/bn"
  type: "BatchNorm"
  bottom: "conv4_6/dwise"
  top: "conv4_6/dwise/bn"
  param {
    lr_mult: 1
    decay_mult: 0
  }
  param {
    lr_mult: 1
    decay_mult: 0
  }
  param {
    lr_mult: 0
    decay_mult: 0
  }
  param {
    lr_mult: 0
    decay_mult: 0
  }
  batch_norm_param {
    use_global_stats: true
    eps: 1e-05
    scale_filler {
      type: "constant"
      value: 1
    }
    bias_filler {
      type: "constant"
      value: 0
    }
  }
}
layer {
  name: "relu4_6/dwise"
  type: "ReLU"
  bottom: "conv4_6/dwise/bn"
  top: "conv4_6/dwise/bn"
}
layer {
  name: "conv4_6/linear"
  type: "Convolution"
  bottom: "conv4_6/dwise/bn"
  top: "conv4_6/linear"
  param {
    lr_mult: 1
    decay_mult: 1
  }
  convolution_param {
    num_output: 64
    bias_term: false
    kernel_size: 1
    weight_filler {
      type: "msra"
    }
  }
}
layer {
  name: "conv4_6/linear/bn"
  type: "BatchNorm"
  bottom: "conv4_6/linear"
  top: "conv4_6/linear/bn"
  param {
    lr_mult: 1
    decay_mult: 0
  }
  param {
    lr_mult: 1
    decay_mult: 0
  }
  param {
    lr_mult: 0
    decay_mult: 0
  }
  param {
    lr_mult: 0
    decay_mult: 0
  }
  batch_norm_param {
    use_global_stats: true
    eps: 1e-05
    scale_filler {
      type: "constant"
      value: 1
    }
    bias_filler {
      type: "constant"
      value: 0
    }
  }
}
layer {
  name: "block_4_6"
  type: "Eltwise"
  bottom: "block_4_5"
  bottom: "conv4_6/linear/bn"
  top: "block_4_6"
}
layer {
  name: "conv4_7/expand"
  type: "Convolution"
  bottom: "block_4_6"
  top: "conv4_7/expand"
  param {
    lr_mult: 1
    decay_mult: 1
  }
  convolution_param {
    num_output: 384
    bias_term: false
    kernel_size: 1
    weight_filler {
      type: "msra"
    }
  }
}
layer {
  name: "conv4_7/expand/bn"
  type: "BatchNorm"
  bottom: "conv4_7/expand"
  top: "conv4_7/expand/bn"
  param {
    lr_mult: 1
    decay_mult: 0
  }
  param {
    lr_mult: 1
    decay_mult: 0
  }
  param {
    lr_mult: 0
    decay_mult: 0
  }
  param {
    lr_mult: 0
    decay_mult: 0
  }
  batch_norm_param {
    use_global_stats: true
    eps: 1e-05
    scale_filler {
      type: "constant"
      value: 1
    }
    bias_filler {
      type: "constant"
      value: 0
    }
  }
}
layer {
  name: "relu4_7/expand"
  type: "ReLU"
  bottom: "conv4_7/expand/bn"
  top: "conv4_7/expand/bn"
}
layer {
  name: "conv4_7/dwise"
  type: "Convolution"
  bottom: "conv4_7/expand/bn"
  top: "conv4_7/dwise"
  param {
    lr_mult: 1
    decay_mult: 1
  }
  convolution_param {
    num_output: 384
    bias_term: false
    pad: 1
    kernel_size: 3
    group: 384
    stride: 2
    weight_filler {
      type: "msra"
    }
    engine: CAFFE
  }
}
layer {
  name: "conv4_7/dwise/bn"
  type: "BatchNorm"
  bottom: "conv4_7/dwise"
  top: "conv4_7/dwise/bn"
  param {
    lr_mult: 1
    decay_mult: 0
  }
  param {
    lr_mult: 1
    decay_mult: 0
  }
  param {
    lr_mult: 0
    decay_mult: 0
  }
  param {
    lr_mult: 0
    decay_mult: 0
  }
  batch_norm_param {
    use_global_stats: true
    eps: 1e-05
    scale_filler {
      type: "constant"
      value: 1
    }
    bias_filler {
      type: "constant"
      value: 0
    }
  }
}
layer {
  name: "relu4_7/dwise"
  type: "ReLU"
  bottom: "conv4_7/dwise/bn"
  top: "conv4_7/dwise/bn"
}
layer {
  n
I0402 12:22:08.152573   463 layer_factory.hpp:93] Creating layer data
I0402 12:22:08.152601   463 net.cpp:110] Creating Layer data
I0402 12:22:08.152611   463 net.cpp:425] data -> data
I0402 12:22:08.152631   463 net.cpp:425] data -> label
I0402 12:22:08.152644   463 image_data_layer.cpp:57] Opening file ../calibration.txt
I0402 12:22:08.152925   463 image_data_layer.cpp:67] Shuffling data
I0402 12:22:08.153060   463 image_data_layer.cpp:72] A total of 1000 images.
I0402 12:22:08.162972   463 image_data_layer.cpp:100] output data size: 1,3,360,480
I0402 12:22:08.185528   463 internal_thread.cpp:43] Starting internal thread(s) on GPU 1
I0402 12:22:08.185632   463 net.cpp:160] Setting up data
I0402 12:22:08.185640   463 net.cpp:167] Top shape: 1 3 360 480 (518400)
I0402 12:22:08.185650   463 net.cpp:167] Top shape: 1 (1)
I0402 12:22:08.185655   463 net.cpp:175] Memory required for data: 2073604
I0402 12:22:08.185662   463 layer_factory.hpp:93] Creating layer data_data_0_split
I0402 12:22:08.185678   463 net.cpp:110] Creating Layer data_data_0_split
I0402 12:22:08.185683   463 net.cpp:451] data_data_0_split <- data
I0402 12:22:08.185693   463 net.cpp:425] data_data_0_split -> data_data_0_split_0
I0402 12:22:08.185703   463 net.cpp:425] data_data_0_split -> data_data_0_split_1
I0402 12:22:08.185711   463 net.cpp:425] data_data_0_split -> data_data_0_split_2
I0402 12:22:08.185717   463 net.cpp:425] data_data_0_split -> data_data_0_split_3
I0402 12:22:08.185722   463 net.cpp:425] data_data_0_split -> data_data_0_split_4
I0402 12:22:08.185729   463 net.cpp:425] data_data_0_split -> data_data_0_split_5
I0402 12:22:08.185863   463 net.cpp:160] Setting up data_data_0_split
I0402 12:22:08.185871   463 net.cpp:167] Top shape: 1 3 360 480 (518400)
I0402 12:22:08.185878   463 net.cpp:167] Top shape: 1 3 360 480 (518400)
I0402 12:22:08.185883   463 net.cpp:167] Top shape: 1 3 360 480 (518400)
I0402 12:22:08.185886   463 net.cpp:167] Top shape: 1 3 360 480 (518400)
I0402 12:22:08.185890   463 net.cpp:167] Top shape: 1 3 360 480 (518400)
I0402 12:22:08.185895   463 net.cpp:167] Top shape: 1 3 360 480 (518400)
I0402 12:22:08.185899   463 net.cpp:175] Memory required for data: 14515204
I0402 12:22:08.185904   463 layer_factory.hpp:93] Creating layer conv1
I0402 12:22:08.185919   463 net.cpp:110] Creating Layer conv1
I0402 12:22:08.185927   463 net.cpp:451] conv1 <- data_data_0_split_0
I0402 12:22:08.185936   463 net.cpp:425] conv1 -> conv1
I0402 12:22:08.186179   463 net.cpp:160] Setting up conv1
I0402 12:22:08.186187   463 net.cpp:167] Top shape: 1 32 180 240 (1382400)
I0402 12:22:08.186193   463 net.cpp:175] Memory required for data: 20044804
I0402 12:22:08.186213   463 layer_factory.hpp:93] Creating layer conv1/bn
I0402 12:22:08.186228   463 net.cpp:110] Creating Layer conv1/bn
I0402 12:22:08.186233   463 net.cpp:451] conv1/bn <- conv1
I0402 12:22:08.186242   463 net.cpp:425] conv1/bn -> conv1/bn
I0402 12:22:08.189491   463 net.cpp:160] Setting up conv1/bn
I0402 12:22:08.189502   463 net.cpp:167] Top shape: 1 32 180 240 (1382400)
I0402 12:22:08.189507   463 net.cpp:175] Memory required for data: 25574404
I0402 12:22:08.189519   463 layer_factory.hpp:93] Creating layer relu1
I0402 12:22:08.189527   463 net.cpp:110] Creating Layer relu1
I0402 12:22:08.189530   463 net.cpp:451] relu1 <- conv1/bn
I0402 12:22:08.189535   463 net.cpp:412] relu1 -> conv1/bn (in-place)
I0402 12:22:08.189548   463 net.cpp:160] Setting up relu1
I0402 12:22:08.189550   463 net.cpp:167] Top shape: 1 32 180 240 (1382400)
I0402 12:22:08.189555   463 net.cpp:175] Memory required for data: 31104004
I0402 12:22:08.189559   463 layer_factory.hpp:93] Creating layer conv2_1/expand
I0402 12:22:08.189566   463 net.cpp:110] Creating Layer conv2_1/expand
I0402 12:22:08.189570   463 net.cpp:451] conv2_1/expand <- conv1/bn
I0402 12:22:08.189575   463 net.cpp:425] conv2_1/expand -> conv2_1/expand
I0402 12:22:08.189888   463 net.cpp:160] Setting up conv2_1/expand
I0402 12:22:08.189896   463 net.cpp:167] Top shape: 1 32 180 240 (1382400)
I0402 12:22:08.189903   463 net.cpp:175] Memory required for data: 36633604
I0402 12:22:08.189908   463 layer_factory.hpp:93] Creating layer conv2_1/expand/bn
I0402 12:22:08.189915   463 net.cpp:110] Creating Layer conv2_1/expand/bn
I0402 12:22:08.189919   463 net.cpp:451] conv2_1/expand/bn <- conv2_1/expand
I0402 12:22:08.189925   463 net.cpp:425] conv2_1/expand/bn -> conv2_1/expand/bn
I0402 12:22:08.190717   463 net.cpp:160] Setting up conv2_1/expand/bn
I0402 12:22:08.190726   463 net.cpp:167] Top shape: 1 32 180 240 (1382400)
I0402 12:22:08.190732   463 net.cpp:175] Memory required for data: 42163204
I0402 12:22:08.190742   463 layer_factory.hpp:93] Creating layer relu2_1/expand
I0402 12:22:08.190747   463 net.cpp:110] Creating Layer relu2_1/expand
I0402 12:22:08.190752   463 net.cpp:451] relu2_1/expand <- conv2_1/expand/bn
I0402 12:22:08.190757   463 net.cpp:412] relu2_1/expand -> conv2_1/expand/bn (in-place)
I0402 12:22:08.190764   463 net.cpp:160] Setting up relu2_1/expand
I0402 12:22:08.190768   463 net.cpp:167] Top shape: 1 32 180 240 (1382400)
I0402 12:22:08.190771   463 net.cpp:175] Memory required for data: 47692804
I0402 12:22:08.190775   463 layer_factory.hpp:93] Creating layer conv2_1/dwise
I0402 12:22:08.190783   463 net.cpp:110] Creating Layer conv2_1/dwise
I0402 12:22:08.190786   463 net.cpp:451] conv2_1/dwise <- conv2_1/expand/bn
I0402 12:22:08.190793   463 net.cpp:425] conv2_1/dwise -> conv2_1/dwise
I0402 12:22:08.190970   463 net.cpp:160] Setting up conv2_1/dwise
I0402 12:22:08.190979   463 net.cpp:167] Top shape: 1 32 180 240 (1382400)
I0402 12:22:08.190984   463 net.cpp:175] Memory required for data: 53222404
I0402 12:22:08.190989   463 layer_factory.hpp:93] Creating layer conv2_1/dwise/bn
I0402 12:22:08.190997   463 net.cpp:110] Creating Layer conv2_1/dwise/bn
I0402 12:22:08.191001   463 net.cpp:451] conv2_1/dwise/bn <- conv2_1/dwise
I0402 12:22:08.191006   463 net.cpp:425] conv2_1/dwise/bn -> conv2_1/dwise/bn
I0402 12:22:08.191704   463 net.cpp:160] Setting up conv2_1/dwise/bn
I0402 12:22:08.191715   463 net.cpp:167] Top shape: 1 32 180 240 (1382400)
I0402 12:22:08.191720   463 net.cpp:175] Memory required for data: 58752004
I0402 12:22:08.191730   463 layer_factory.hpp:93] Creating layer relu2_1/dwise
I0402 12:22:08.191736   463 net.cpp:110] Creating Layer relu2_1/dwise
I0402 12:22:08.191740   463 net.cpp:451] relu2_1/dwise <- conv2_1/dwise/bn
I0402 12:22:08.191745   463 net.cpp:412] relu2_1/dwise -> conv2_1/dwise/bn (in-place)
I0402 12:22:08.191752   463 net.cpp:160] Setting up relu2_1/dwise
I0402 12:22:08.191756   463 net.cpp:167] Top shape: 1 32 180 240 (1382400)
I0402 12:22:08.191761   463 net.cpp:175] Memory required for data: 64281604
I0402 12:22:08.191763   463 layer_factory.hpp:93] Creating layer conv2_1/linear
I0402 12:22:08.191771   463 net.cpp:110] Creating Layer conv2_1/linear
I0402 12:22:08.191776   463 net.cpp:451] conv2_1/linear <- conv2_1/dwise/bn
I0402 12:22:08.191785   463 net.cpp:425] conv2_1/linear -> conv2_1/linear
I0402 12:22:08.191963   463 net.cpp:160] Setting up conv2_1/linear
I0402 12:22:08.191972   463 net.cpp:167] Top shape: 1 16 180 240 (691200)
I0402 12:22:08.191977   463 net.cpp:175] Memory required for data: 67046404
I0402 12:22:08.191982   463 layer_factory.hpp:93] Creating layer conv2_1/linear/bn
I0402 12:22:08.191992   463 net.cpp:110] Creating Layer conv2_1/linear/bn
I0402 12:22:08.191995   463 net.cpp:451] conv2_1/linear/bn <- conv2_1/linear
I0402 12:22:08.192000   463 net.cpp:425] conv2_1/linear/bn -> conv2_1/linear/bn
I0402 12:22:08.192611   463 net.cpp:160] Setting up conv2_1/linear/bn
I0402 12:22:08.192621   463 net.cpp:167] Top shape: 1 16 180 240 (691200)
I0402 12:22:08.192627   463 net.cpp:175] Memory required for data: 69811204
I0402 12:22:08.192636   463 layer_factory.hpp:93] Creating layer conv2_2/expand
I0402 12:22:08.192644   463 net.cpp:110] Creating Layer conv2_2/expand
I0402 12:22:08.192648   463 net.cpp:451] conv2_2/expand <- conv2_1/linear/bn
I0402 12:22:08.192653   463 net.cpp:425] conv2_2/expand -> conv2_2/expand
I0402 12:22:08.192864   463 net.cpp:160] Setting up conv2_2/expand
I0402 12:22:08.192873   463 net.cpp:167] Top shape: 1 96 180 240 (4147200)
I0402 12:22:08.192879   463 net.cpp:175] Memory required for data: 86400004
I0402 12:22:08.192885   463 layer_factory.hpp:93] Creating layer conv2_2/expand/bn
I0402 12:22:08.192893   463 net.cpp:110] Creating Layer conv2_2/expand/bn
I0402 12:22:08.192896   463 net.cpp:451] conv2_2/expand/bn <- conv2_2/expand
I0402 12:22:08.192903   463 net.cpp:425] conv2_2/expand/bn -> conv2_2/expand/bn
I0402 12:22:08.193506   463 net.cpp:160] Setting up conv2_2/expand/bn
I0402 12:22:08.193514   463 net.cpp:167] Top shape: 1 96 180 240 (4147200)
I0402 12:22:08.193521   463 net.cpp:175] Memory required for data: 102988804
I0402 12:22:08.193529   463 layer_factory.hpp:93] Creating layer relu2_2/expand
I0402 12:22:08.193534   463 net.cpp:110] Creating Layer relu2_2/expand
I0402 12:22:08.193538   463 net.cpp:451] relu2_2/expand <- conv2_2/expand/bn
I0402 12:22:08.193543   463 net.cpp:412] relu2_2/expand -> conv2_2/expand/bn (in-place)
I0402 12:22:08.193550   463 net.cpp:160] Setting up relu2_2/expand
I0402 12:22:08.193553   463 net.cpp:167] Top shape: 1 96 180 240 (4147200)
I0402 12:22:08.193558   463 net.cpp:175] Memory required for data: 119577604
I0402 12:22:08.193562   463 layer_factory.hpp:93] Creating layer conv2_2/dwise
I0402 12:22:08.193569   463 net.cpp:110] Creating Layer conv2_2/dwise
I0402 12:22:08.193573   463 net.cpp:451] conv2_2/dwise <- conv2_2/expand/bn
I0402 12:22:08.193578   463 net.cpp:425] conv2_2/dwise -> conv2_2/dwise
I0402 12:22:08.193753   463 net.cpp:160] Setting up conv2_2/dwise
I0402 12:22:08.193759   463 net.cpp:167] Top shape: 1 96 90 120 (1036800)
I0402 12:22:08.193764   463 net.cpp:175] Memory required for data: 123724804
I0402 12:22:08.193769   463 layer_factory.hpp:93] Creating layer conv2_2/dwise/bn
I0402 12:22:08.193776   463 net.cpp:110] Creating Layer conv2_2/dwise/bn
I0402 12:22:08.193780   463 net.cpp:451] conv2_2/dwise/bn <- conv2_2/dwise
I0402 12:22:08.193785   463 net.cpp:425] conv2_2/dwise/bn -> conv2_2/dwise/bn
I0402 12:22:08.194371   463 net.cpp:160] Setting up conv2_2/dwise/bn
I0402 12:22:08.194381   463 net.cpp:167] Top shape: 1 96 90 120 (1036800)
I0402 12:22:08.194386   463 net.cpp:175] Memory required for data: 127872004
I0402 12:22:08.194397   463 layer_factory.hpp:93] Creating layer relu2_2/dwise
I0402 12:22:08.194403   463 net.cpp:110] Creating Layer relu2_2/dwise
I0402 12:22:08.194407   463 net.cpp:451] relu2_2/dwise <- conv2_2/dwise/bn
I0402 12:22:08.194412   463 net.cpp:412] relu2_2/dwise -> conv2_2/dwise/bn (in-place)
I0402 12:22:08.194419   463 net.cpp:160] Setting up relu2_2/dwise
I0402 12:22:08.194422   463 net.cpp:167] Top shape: 1 96 90 120 (1036800)
I0402 12:22:08.194427   463 net.cpp:175] Memory required for data: 132019204
I0402 12:22:08.194432   463 layer_factory.hpp:93] Creating layer conv2_2/linear
I0402 12:22:08.194437   463 net.cpp:110] Creating Layer conv2_2/linear
I0402 12:22:08.194440   463 net.cpp:451] conv2_2/linear <- conv2_2/dwise/bn
I0402 12:22:08.194447   463 net.cpp:425] conv2_2/linear -> conv2_2/linear
I0402 12:22:08.194638   463 net.cpp:160] Setting up conv2_2/linear
I0402 12:22:08.194645   463 net.cpp:167] Top shape: 1 24 90 120 (259200)
I0402 12:22:08.194650   463 net.cpp:175] Memory required for data: 133056004
I0402 12:22:08.194656   463 layer_factory.hpp:93] Creating layer conv2_2/linear/bn
I0402 12:22:08.194664   463 net.cpp:110] Creating Layer conv2_2/linear/bn
I0402 12:22:08.194667   463 net.cpp:451] conv2_2/linear/bn <- conv2_2/linear
I0402 12:22:08.194674   463 net.cpp:425] conv2_2/linear/bn -> conv2_2/linear/bn
I0402 12:22:08.195261   463 net.cpp:160] Setting up conv2_2/linear/bn
I0402 12:22:08.195271   463 net.cpp:167] Top shape: 1 24 90 120 (259200)
I0402 12:22:08.195276   463 net.cpp:175] Memory required for data: 134092804
I0402 12:22:08.195284   463 layer_factory.hpp:93] Creating layer conv2_2/linear/bn_conv2_2/linear/bn_0_split
I0402 12:22:08.195291   463 net.cpp:110] Creating Layer conv2_2/linear/bn_conv2_2/linear/bn_0_split
I0402 12:22:08.195294   463 net.cpp:451] conv2_2/linear/bn_conv2_2/linear/bn_0_split <- conv2_2/linear/bn
I0402 12:22:08.195299   463 net.cpp:425] conv2_2/linear/bn_conv2_2/linear/bn_0_split -> conv2_2/linear/bn_conv2_2/linear/bn_0_split_0
I0402 12:22:08.195307   463 net.cpp:425] conv2_2/linear/bn_conv2_2/linear/bn_0_split -> conv2_2/linear/bn_conv2_2/linear/bn_0_split_1
I0402 12:22:08.195334   463 net.cpp:160] Setting up conv2_2/linear/bn_conv2_2/linear/bn_0_split
I0402 12:22:08.195339   463 net.cpp:167] Top shape: 1 24 90 120 (259200)
I0402 12:22:08.195344   463 net.cpp:167] Top shape: 1 24 90 120 (259200)
I0402 12:22:08.195349   463 net.cpp:175] Memory required for data: 136166404
I0402 12:22:08.195353   463 layer_factory.hpp:93] Creating layer conv3_1/expand
I0402 12:22:08.195360   463 net.cpp:110] Creating Layer conv3_1/expand
I0402 12:22:08.195363   463 net.cpp:451] conv3_1/expand <- conv2_2/linear/bn_conv2_2/linear/bn_0_split_0
I0402 12:22:08.195369   463 net.cpp:425] conv3_1/expand -> conv3_1/expand
I0402 12:22:08.195618   463 net.cpp:160] Setting up conv3_1/expand
I0402 12:22:08.195628   463 net.cpp:167] Top shape: 1 144 90 120 (1555200)
I0402 12:22:08.195634   463 net.cpp:175] Memory required for data: 142387204
I0402 12:22:08.195639   463 layer_factory.hpp:93] Creating layer conv3_1/expand/bn
I0402 12:22:08.195648   463 net.cpp:110] Creating Layer conv3_1/expand/bn
I0402 12:22:08.195652   463 net.cpp:451] conv3_1/expand/bn <- conv3_1/expand
I0402 12:22:08.195658   463 net.cpp:425] conv3_1/expand/bn -> conv3_1/expand/bn
I0402 12:22:08.196242   463 net.cpp:160] Setting up conv3_1/expand/bn
I0402 12:22:08.196252   463 net.cpp:167] Top shape: 1 144 90 120 (1555200)
I0402 12:22:08.196257   463 net.cpp:175] Memory required for data: 148608004
I0402 12:22:08.196267   463 layer_factory.hpp:93] Creating layer relu3_1/expand
I0402 12:22:08.196272   463 net.cpp:110] Creating Layer relu3_1/expand
I0402 12:22:08.196276   463 net.cpp:451] relu3_1/expand <- conv3_1/expand/bn
I0402 12:22:08.196281   463 net.cpp:412] relu3_1/expand -> conv3_1/expand/bn (in-place)
I0402 12:22:08.196288   463 net.cpp:160] Setting up relu3_1/expand
I0402 12:22:08.196291   463 net.cpp:167] Top shape: 1 144 90 120 (1555200)
I0402 12:22:08.196296   463 net.cpp:175] Memory required for data: 154828804
I0402 12:22:08.196300   463 layer_factory.hpp:93] Creating layer conv3_1/dwise
I0402 12:22:08.196306   463 net.cpp:110] Creating Layer conv3_1/dwise
I0402 12:22:08.196311   463 net.cpp:451] conv3_1/dwise <- conv3_1/expand/bn
I0402 12:22:08.196319   463 net.cpp:425] conv3_1/dwise -> conv3_1/dwise
I0402 12:22:08.196532   463 net.cpp:160] Setting up conv3_1/dwise
I0402 12:22:08.196542   463 net.cpp:167] Top shape: 1 144 90 120 (1555200)
I0402 12:22:08.196547   463 net.cpp:175] Memory required for data: 161049604
I0402 12:22:08.196552   463 layer_factory.hpp:93] Creating layer conv3_1/dwise/bn
I0402 12:22:08.196560   463 net.cpp:110] Creating Layer conv3_1/dwise/bn
I0402 12:22:08.196564   463 net.cpp:451] conv3_1/dwise/bn <- conv3_1/dwise
I0402 12:22:08.196569   463 net.cpp:425] conv3_1/dwise/bn -> conv3_1/dwise/bn
I0402 12:22:08.197156   463 net.cpp:160] Setting up conv3_1/dwise/bn
I0402 12:22:08.197165   463 net.cpp:167] Top shape: 1 144 90 120 (1555200)
I0402 12:22:08.197170   463 net.cpp:175] Memory required for data: 167270404
I0402 12:22:08.197180   463 layer_factory.hpp:93] Creating layer relu3_1/dwise
I0402 12:22:08.197185   463 net.cpp:110] Creating Layer relu3_1/dwise
I0402 12:22:08.197188   463 net.cpp:451] relu3_1/dwise <- conv3_1/dwise/bn
I0402 12:22:08.197193   463 net.cpp:412] relu3_1/dwise -> conv3_1/dwise/bn (in-place)
I0402 12:22:08.197201   463 net.cpp:160] Setting up relu3_1/dwise
I0402 12:22:08.197203   463 net.cpp:167] Top shape: 1 144 90 120 (1555200)
I0402 12:22:08.197208   463 net.cpp:175] Memory required for data: 173491204
I0402 12:22:08.197211   463 layer_factory.hpp:93] Creating layer conv3_1/linear
I0402 12:22:08.197218   463 net.cpp:110] Creating Layer conv3_1/linear
I0402 12:22:08.197222   463 net.cpp:451] conv3_1/linear <- conv3_1/dwise/bn
I0402 12:22:08.197227   463 net.cpp:425] conv3_1/linear -> conv3_1/linear
I0402 12:22:08.197456   463 net.cpp:160] Setting up conv3_1/linear
I0402 12:22:08.197465   463 net.cpp:167] Top shape: 1 24 90 120 (259200)
I0402 12:22:08.197471   463 net.cpp:175] Memory required for data: 174528004
I0402 12:22:08.197477   463 layer_factory.hpp:93] Creating layer conv3_1/linear/bn
I0402 12:22:08.197484   463 net.cpp:110] Creating Layer conv3_1/linear/bn
I0402 12:22:08.197489   463 net.cpp:451] conv3_1/linear/bn <- conv3_1/linear
I0402 12:22:08.197494   463 net.cpp:425] conv3_1/linear/bn -> conv3_1/linear/bn
I0402 12:22:08.198074   463 net.cpp:160] Setting up conv3_1/linear/bn
I0402 12:22:08.198083   463 net.cpp:167] Top shape: 1 24 90 120 (259200)
I0402 12:22:08.198088   463 net.cpp:175] Memory required for data: 175564804
I0402 12:22:08.198097   463 layer_factory.hpp:93] Creating layer block_3_1
I0402 12:22:08.198104   463 net.cpp:110] Creating Layer block_3_1
I0402 12:22:08.198108   463 net.cpp:451] block_3_1 <- conv2_2/linear/bn_conv2_2/linear/bn_0_split_1
I0402 12:22:08.198112   463 net.cpp:451] block_3_1 <- conv3_1/linear/bn
I0402 12:22:08.198117   463 net.cpp:425] block_3_1 -> block_3_1
I0402 12:22:08.198138   463 net.cpp:160] Setting up block_3_1
I0402 12:22:08.198144   463 net.cpp:167] Top shape: 1 24 90 120 (259200)
I0402 12:22:08.198153   463 net.cpp:175] Memory required for data: 176601604
I0402 12:22:08.198158   463 layer_factory.hpp:93] Creating layer conv3_2/expand
I0402 12:22:08.198168   463 net.cpp:110] Creating Layer conv3_2/expand
I0402 12:22:08.198174   463 net.cpp:451] conv3_2/expand <- block_3_1
I0402 12:22:08.198184   463 net.cpp:425] conv3_2/expand -> conv3_2/expand
I0402 12:22:08.198402   463 net.cpp:160] Setting up conv3_2/expand
I0402 12:22:08.198411   463 net.cpp:167] Top shape: 1 144 90 120 (1555200)
I0402 12:22:08.198416   463 net.cpp:175] Memory required for data: 182822404
I0402 12:22:08.198422   463 layer_factory.hpp:93] Creating layer conv3_2/expand/bn
I0402 12:22:08.198431   463 net.cpp:110] Creating Layer conv3_2/expand/bn
I0402 12:22:08.198434   463 net.cpp:451] conv3_2/expand/bn <- conv3_2/expand
I0402 12:22:08.198441   463 net.cpp:425] conv3_2/expand/bn -> conv3_2/expand/bn
I0402 12:22:08.199018   463 net.cpp:160] Setting up conv3_2/expand/bn
I0402 12:22:08.199028   463 net.cpp:167] Top shape: 1 144 90 120 (1555200)
I0402 12:22:08.199034   463 net.cpp:175] Memory required for data: 189043204
I0402 12:22:08.199046   463 layer_factory.hpp:93] Creating layer relu3_2/expand
I0402 12:22:08.199052   463 net.cpp:110] Creating Layer relu3_2/expand
I0402 12:22:08.199056   463 net.cpp:451] relu3_2/expand <- conv3_2/expand/bn
I0402 12:22:08.199061   463 net.cpp:412] relu3_2/expand -> conv3_2/expand/bn (in-place)
I0402 12:22:08.199069   463 net.cpp:160] Setting up relu3_2/expand
I0402 12:22:08.199071   463 net.cpp:167] Top shape: 1 144 90 120 (1555200)
I0402 12:22:08.199076   463 net.cpp:175] Memory required for data: 195264004
I0402 12:22:08.199079   463 layer_factory.hpp:93] Creating layer conv3_2/dwise
I0402 12:22:08.199088   463 net.cpp:110] Creating Layer conv3_2/dwise
I0402 12:22:08.199095   463 net.cpp:451] conv3_2/dwise <- conv3_2/expand/bn
I0402 12:22:08.199102   463 net.cpp:425] conv3_2/dwise -> conv3_2/dwise
I0402 12:22:08.199306   463 net.cpp:160] Setting up conv3_2/dwise
I0402 12:22:08.199316   463 net.cpp:167] Top shape: 1 144 45 60 (388800)
I0402 12:22:08.199321   463 net.cpp:175] Memory required for data: 196819204
I0402 12:22:08.199326   463 layer_factory.hpp:93] Creating layer conv3_2/dwise/bn
I0402 12:22:08.199333   463 net.cpp:110] Creating Layer conv3_2/dwise/bn
I0402 12:22:08.199337   463 net.cpp:451] conv3_2/dwise/bn <- conv3_2/dwise
I0402 12:22:08.199343   463 net.cpp:425] conv3_2/dwise/bn -> conv3_2/dwise/bn
I0402 12:22:08.199895   463 net.cpp:160] Setting up conv3_2/dwise/bn
I0402 12:22:08.199903   463 net.cpp:167] Top shape: 1 144 45 60 (388800)
I0402 12:22:08.199909   463 net.cpp:175] Memory required for data: 198374404
I0402 12:22:08.199918   463 layer_factory.hpp:93] Creating layer relu3_2/dwise
I0402 12:22:08.199923   463 net.cpp:110] Creating Layer relu3_2/dwise
I0402 12:22:08.199926   463 net.cpp:451] relu3_2/dwise <- conv3_2/dwise/bn
I0402 12:22:08.199931   463 net.cpp:412] relu3_2/dwise -> conv3_2/dwise/bn (in-place)
I0402 12:22:08.199937   463 net.cpp:160] Setting up relu3_2/dwise
I0402 12:22:08.199940   463 net.cpp:167] Top shape: 1 144 45 60 (388800)
I0402 12:22:08.199945   463 net.cpp:175] Memory required for data: 199929604
I0402 12:22:08.199949   463 layer_factory.hpp:93] Creating layer conv3_2/linear
I0402 12:22:08.199954   463 net.cpp:110] Creating Layer conv3_2/linear
I0402 12:22:08.199959   463 net.cpp:451] conv3_2/linear <- conv3_2/dwise/bn
I0402 12:22:08.199964   463 net.cpp:425] conv3_2/linear -> conv3_2/linear
I0402 12:22:08.200165   463 net.cpp:160] Setting up conv3_2/linear
I0402 12:22:08.200171   463 net.cpp:167] Top shape: 1 32 45 60 (86400)
I0402 12:22:08.200184   463 net.cpp:175] Memory required for data: 200275204
I0402 12:22:08.200191   463 layer_factory.hpp:93] Creating layer conv3_2/linear/bn
I0402 12:22:08.200197   463 net.cpp:110] Creating Layer conv3_2/linear/bn
I0402 12:22:08.200201   463 net.cpp:451] conv3_2/linear/bn <- conv3_2/linear
I0402 12:22:08.200206   463 net.cpp:425] conv3_2/linear/bn -> conv3_2/linear/bn
I0402 12:22:08.200795   463 net.cpp:160] Setting up conv3_2/linear/bn
I0402 12:22:08.200805   463 net.cpp:167] Top shape: 1 32 45 60 (86400)
I0402 12:22:08.200812   463 net.cpp:175] Memory required for data: 200620804
I0402 12:22:08.200821   463 layer_factory.hpp:93] Creating layer conv3_2/linear/bn_conv3_2/linear/bn_0_split
I0402 12:22:08.200829   463 net.cpp:110] Creating Layer conv3_2/linear/bn_conv3_2/linear/bn_0_split
I0402 12:22:08.200832   463 net.cpp:451] conv3_2/linear/bn_conv3_2/linear/bn_0_split <- conv3_2/linear/bn
I0402 12:22:08.200839   463 net.cpp:425] conv3_2/linear/bn_conv3_2/linear/bn_0_split -> conv3_2/linear/bn_conv3_2/linear/bn_0_split_0
I0402 12:22:08.200845   463 net.cpp:425] conv3_2/linear/bn_conv3_2/linear/bn_0_split -> conv3_2/linear/bn_conv3_2/linear/bn_0_split_1
I0402 12:22:08.200873   463 net.cpp:160] Setting up conv3_2/linear/bn_conv3_2/linear/bn_0_split
I0402 12:22:08.200879   463 net.cpp:167] Top shape: 1 32 45 60 (86400)
I0402 12:22:08.200884   463 net.cpp:167] Top shape: 1 32 45 60 (86400)
I0402 12:22:08.200889   463 net.cpp:175] Memory required for data: 201312004
I0402 12:22:08.200892   463 layer_factory.hpp:93] Creating layer conv4_1/expand
I0402 12:22:08.200901   463 net.cpp:110] Creating Layer conv4_1/expand
I0402 12:22:08.200904   463 net.cpp:451] conv4_1/expand <- conv3_2/linear/bn_conv3_2/linear/bn_0_split_0
I0402 12:22:08.200911   463 net.cpp:425] conv4_1/expand -> conv4_1/expand
I0402 12:22:08.201129   463 net.cpp:160] Setting up conv4_1/expand
I0402 12:22:08.201138   463 net.cpp:167] Top shape: 1 192 45 60 (518400)
I0402 12:22:08.201144   463 net.cpp:175] Memory required for data: 203385604
I0402 12:22:08.201149   463 layer_factory.hpp:93] Creating layer conv4_1/expand/bn
I0402 12:22:08.201158   463 net.cpp:110] Creating Layer conv4_1/expand/bn
I0402 12:22:08.201161   463 net.cpp:451] conv4_1/expand/bn <- conv4_1/expand
I0402 12:22:08.201166   463 net.cpp:425] conv4_1/expand/bn -> conv4_1/expand/bn
I0402 12:22:08.201738   463 net.cpp:160] Setting up conv4_1/expand/bn
I0402 12:22:08.201746   463 net.cpp:167] Top shape: 1 192 45 60 (518400)
I0402 12:22:08.201751   463 net.cpp:175] Memory required for data: 205459204
I0402 12:22:08.201761   463 layer_factory.hpp:93] Creating layer relu4_1/expand
I0402 12:22:08.201766   463 net.cpp:110] Creating Layer relu4_1/expand
I0402 12:22:08.201769   463 net.cpp:451] relu4_1/expand <- conv4_1/expand/bn
I0402 12:22:08.201774   463 net.cpp:412] relu4_1/expand -> conv4_1/expand/bn (in-place)
I0402 12:22:08.201781   463 net.cpp:160] Setting up relu4_1/expand
I0402 12:22:08.201783   463 net.cpp:167] Top shape: 1 192 45 60 (518400)
I0402 12:22:08.201788   463 net.cpp:175] Memory required for data: 207532804
I0402 12:22:08.201792   463 layer_factory.hpp:93] Creating layer conv4_1/dwise
I0402 12:22:08.201798   463 net.cpp:110] Creating Layer conv4_1/dwise
I0402 12:22:08.201802   463 net.cpp:451] conv4_1/dwise <- conv4_1/expand/bn
I0402 12:22:08.201807   463 net.cpp:425] conv4_1/dwise -> conv4_1/dwise
I0402 12:22:08.202349   463 net.cpp:160] Setting up conv4_1/dwise
I0402 12:22:08.202356   463 net.cpp:167] Top shape: 1 192 45 60 (518400)
I0402 12:22:08.202363   463 net.cpp:175] Memory required for data: 209606404
I0402 12:22:08.202368   463 layer_factory.hpp:93] Creating layer conv4_1/dwise/bn
I0402 12:22:08.202375   463 net.cpp:110] Creating Layer conv4_1/dwise/bn
I0402 12:22:08.202379   463 net.cpp:451] conv4_1/dwise/bn <- conv4_1/dwise
I0402 12:22:08.202384   463 net.cpp:425] conv4_1/dwise/bn -> conv4_1/dwise/bn
I0402 12:22:08.202950   463 net.cpp:160] Setting up conv4_1/dwise/bn
I0402 12:22:08.202957   463 net.cpp:167] Top shape: 1 192 45 60 (518400)
I0402 12:22:08.202963   463 net.cpp:175] Memory required for data: 211680004
I0402 12:22:08.202971   463 layer_factory.hpp:93] Creating layer relu4_1/dwise
I0402 12:22:08.202976   463 net.cpp:110] Creating Layer relu4_1/dwise
I0402 12:22:08.202980   463 net.cpp:451] relu4_1/dwise <- conv4_1/dwise/bn
I0402 12:22:08.202986   463 net.cpp:412] relu4_1/dwise -> conv4_1/dwise/bn (in-place)
I0402 12:22:08.202991   463 net.cpp:160] Setting up relu4_1/dwise
I0402 12:22:08.202996   463 net.cpp:167] Top shape: 1 192 45 60 (518400)
I0402 12:22:08.202999   463 net.cpp:175] Memory required for data: 213753604
I0402 12:22:08.203002   463 layer_factory.hpp:93] Creating layer conv4_1/linear
I0402 12:22:08.203009   463 net.cpp:110] Creating Layer conv4_1/linear
I0402 12:22:08.203013   463 net.cpp:451] conv4_1/linear <- conv4_1/dwise/bn
I0402 12:22:08.203018   463 net.cpp:425] conv4_1/linear -> conv4_1/linear
I0402 12:22:08.203235   463 net.cpp:160] Setting up conv4_1/linear
I0402 12:22:08.203243   463 net.cpp:167] Top shape: 1 32 45 60 (86400)
I0402 12:22:08.203248   463 net.cpp:175] Memory required for data: 214099204
I0402 12:22:08.203253   463 layer_factory.hpp:93] Creating layer conv4_1/linear/bn
I0402 12:22:08.203259   463 net.cpp:110] Creating Layer conv4_1/linear/bn
I0402 12:22:08.203263   463 net.cpp:451] conv4_1/linear/bn <- conv4_1/linear
I0402 12:22:08.203269   463 net.cpp:425] conv4_1/linear/bn -> conv4_1/linear/bn
I0402 12:22:08.203840   463 net.cpp:160] Setting up conv4_1/linear/bn
I0402 12:22:08.203848   463 net.cpp:167] Top shape: 1 32 45 60 (86400)
I0402 12:22:08.203853   463 net.cpp:175] Memory required for data: 214444804
I0402 12:22:08.203861   463 layer_factory.hpp:93] Creating layer block_4_1
I0402 12:22:08.203867   463 net.cpp:110] Creating Layer block_4_1
I0402 12:22:08.203871   463 net.cpp:451] block_4_1 <- conv3_2/linear/bn_conv3_2/linear/bn_0_split_1
I0402 12:22:08.203876   463 net.cpp:451] block_4_1 <- conv4_1/linear/bn
I0402 12:22:08.203881   463 net.cpp:425] block_4_1 -> block_4_1
I0402 12:22:08.203902   463 net.cpp:160] Setting up block_4_1
I0402 12:22:08.203907   463 net.cpp:167] Top shape: 1 32 45 60 (86400)
I0402 12:22:08.203912   463 net.cpp:175] Memory required for data: 214790404
I0402 12:22:08.203915   463 layer_factory.hpp:93] Creating layer block_4_1_block_4_1_0_split
I0402 12:22:08.203922   463 net.cpp:110] Creating Layer block_4_1_block_4_1_0_split
I0402 12:22:08.203924   463 net.cpp:451] block_4_1_block_4_1_0_split <- block_4_1
I0402 12:22:08.203929   463 net.cpp:425] block_4_1_block_4_1_0_split -> block_4_1_block_4_1_0_split_0
I0402 12:22:08.203935   463 net.cpp:425] block_4_1_block_4_1_0_split -> block_4_1_block_4_1_0_split_1
I0402 12:22:08.203961   463 net.cpp:160] Setting up block_4_1_block_4_1_0_split
I0402 12:22:08.203969   463 net.cpp:167] Top shape: 1 32 45 60 (86400)
I0402 12:22:08.203974   463 net.cpp:167] Top shape: 1 32 45 60 (86400)
I0402 12:22:08.203977   463 net.cpp:175] Memory required for data: 215481604
I0402 12:22:08.203981   463 layer_factory.hpp:93] Creating layer conv4_2/expand
I0402 12:22:08.203989   463 net.cpp:110] Creating Layer conv4_2/expand
I0402 12:22:08.203992   463 net.cpp:451] conv4_2/expand <- block_4_1_block_4_1_0_split_0
I0402 12:22:08.203997   463 net.cpp:425] conv4_2/expand -> conv4_2/expand
I0402 12:22:08.204257   463 net.cpp:160] Setting up conv4_2/expand
I0402 12:22:08.204267   463 net.cpp:167] Top shape: 1 192 45 60 (518400)
I0402 12:22:08.204273   463 net.cpp:175] Memory required for data: 217555204
I0402 12:22:08.204280   463 layer_factory.hpp:93] Creating layer conv4_2/expand/bn
I0402 12:22:08.204288   463 net.cpp:110] Creating Layer conv4_2/expand/bn
I0402 12:22:08.204293   463 net.cpp:451] conv4_2/expand/bn <- conv4_2/expand
I0402 12:22:08.204298   463 net.cpp:425] conv4_2/expand/bn -> conv4_2/expand/bn
I0402 12:22:08.204877   463 net.cpp:160] Setting up conv4_2/expand/bn
I0402 12:22:08.204885   463 net.cpp:167] Top shape: 1 192 45 60 (518400)
I0402 12:22:08.204890   463 net.cpp:175] Memory required for data: 219628804
I0402 12:22:08.204898   463 layer_factory.hpp:93] Creating layer relu4_2/expand
I0402 12:22:08.204905   463 net.cpp:110] Creating Layer relu4_2/expand
I0402 12:22:08.204908   463 net.cpp:451] relu4_2/expand <- conv4_2/expand/bn
I0402 12:22:08.204913   463 net.cpp:412] relu4_2/expand -> conv4_2/expand/bn (in-place)
I0402 12:22:08.204919   463 net.cpp:160] Setting up relu4_2/expand
I0402 12:22:08.204923   463 net.cpp:167] Top shape: 1 192 45 60 (518400)
I0402 12:22:08.204927   463 net.cpp:175] Memory required for data: 221702404
I0402 12:22:08.204931   463 layer_factory.hpp:93] Creating layer conv4_2/dwise
I0402 12:22:08.204938   463 net.cpp:110] Creating Layer conv4_2/dwise
I0402 12:22:08.204942   463 net.cpp:451] conv4_2/dwise <- conv4_2/expand/bn
I0402 12:22:08.204947   463 net.cpp:425] conv4_2/dwise -> conv4_2/dwise
I0402 12:22:08.205127   463 net.cpp:160] Setting up conv4_2/dwise
I0402 12:22:08.205134   463 net.cpp:167] Top shape: 1 192 45 60 (518400)
I0402 12:22:08.205139   463 net.cpp:175] Memory required for data: 223776004
I0402 12:22:08.205144   463 layer_factory.hpp:93] Creating layer conv4_2/dwise/bn
I0402 12:22:08.205152   463 net.cpp:110] Creating Layer conv4_2/dwise/bn
I0402 12:22:08.205155   463 net.cpp:451] conv4_2/dwise/bn <- conv4_2/dwise
I0402 12:22:08.205160   463 net.cpp:425] conv4_2/dwise/bn -> conv4_2/dwise/bn
I0402 12:22:08.205724   463 net.cpp:160] Setting up conv4_2/dwise/bn
I0402 12:22:08.205732   463 net.cpp:167] Top shape: 1 192 45 60 (518400)
I0402 12:22:08.205737   463 net.cpp:175] Memory required for data: 225849604
I0402 12:22:08.205746   463 layer_factory.hpp:93] Creating layer relu4_2/dwise
I0402 12:22:08.205751   463 net.cpp:110] Creating Layer relu4_2/dwise
I0402 12:22:08.205755   463 net.cpp:451] relu4_2/dwise <- conv4_2/dwise/bn
I0402 12:22:08.205760   463 net.cpp:412] relu4_2/dwise -> conv4_2/dwise/bn (in-place)
I0402 12:22:08.205766   463 net.cpp:160] Setting up relu4_2/dwise
I0402 12:22:08.205770   463 net.cpp:167] Top shape: 1 192 45 60 (518400)
I0402 12:22:08.205775   463 net.cpp:175] Memory required for data: 227923204
I0402 12:22:08.205777   463 layer_factory.hpp:93] Creating layer conv4_2/linear
I0402 12:22:08.205785   463 net.cpp:110] Creating Layer conv4_2/linear
I0402 12:22:08.205787   463 net.cpp:451] conv4_2/linear <- conv4_2/dwise/bn
I0402 12:22:08.205793   463 net.cpp:425] conv4_2/linear -> conv4_2/linear
I0402 12:22:08.206017   463 net.cpp:160] Setting up conv4_2/linear
I0402 12:22:08.206025   463 net.cpp:167] Top shape: 1 32 45 60 (86400)
I0402 12:22:08.206030   463 net.cpp:175] Memory required for data: 228268804
I0402 12:22:08.206035   463 layer_factory.hpp:93] Creating layer conv4_2/linear/bn
I0402 12:22:08.206043   463 net.cpp:110] Creating Layer conv4_2/linear/bn
I0402 12:22:08.206046   463 net.cpp:451] conv4_2/linear/bn <- conv4_2/linear
I0402 12:22:08.206053   463 net.cpp:425] conv4_2/linear/bn -> conv4_2/linear/bn
I0402 12:22:08.206657   463 net.cpp:160] Setting up conv4_2/linear/bn
I0402 12:22:08.206668   463 net.cpp:167] Top shape: 1 32 45 60 (86400)
I0402 12:22:08.206674   463 net.cpp:175] Memory required for data: 228614404
I0402 12:22:08.206683   463 layer_factory.hpp:93] Creating layer block_4_2
I0402 12:22:08.206691   463 net.cpp:110] Creating Layer block_4_2
I0402 12:22:08.206694   463 net.cpp:451] block_4_2 <- block_4_1_block_4_1_0_split_1
I0402 12:22:08.206699   463 net.cpp:451] block_4_2 <- conv4_2/linear/bn
I0402 12:22:08.206704   463 net.cpp:425] block_4_2 -> block_4_2
I0402 12:22:08.206725   463 net.cpp:160] Setting up block_4_2
I0402 12:22:08.206732   463 net.cpp:167] Top shape: 1 32 45 60 (86400)
I0402 12:22:08.206737   463 net.cpp:175] Memory required for data: 228960004
I0402 12:22:08.206739   463 layer_factory.hpp:93] Creating layer conv4_3/expand
I0402 12:22:08.206746   463 net.cpp:110] Creating Layer conv4_3/expand
I0402 12:22:08.206750   463 net.cpp:451] conv4_3/expand <- block_4_2
I0402 12:22:08.206755   463 net.cpp:425] conv4_3/expand -> conv4_3/expand
I0402 12:22:08.206990   463 net.cpp:160] Setting up conv4_3/expand
I0402 12:22:08.207001   463 net.cpp:167] Top shape: 1 192 45 60 (518400)
I0402 12:22:08.207007   463 net.cpp:175] Memory required for data: 231033604
I0402 12:22:08.207013   463 layer_factory.hpp:93] Creating layer conv4_3/expand/bn
I0402 12:22:08.207021   463 net.cpp:110] Creating Layer conv4_3/expand/bn
I0402 12:22:08.207026   463 net.cpp:451] conv4_3/expand/bn <- conv4_3/expand
I0402 12:22:08.207031   463 net.cpp:425] conv4_3/expand/bn -> conv4_3/expand/bn
I0402 12:22:08.207620   463 net.cpp:160] Setting up conv4_3/expand/bn
I0402 12:22:08.207631   463 net.cpp:167] Top shape: 1 192 45 60 (518400)
I0402 12:22:08.207638   463 net.cpp:175] Memory required for data: 233107204
I0402 12:22:08.207646   463 layer_factory.hpp:93] Creating layer relu4_3/expand
I0402 12:22:08.207653   463 net.cpp:110] Creating Layer relu4_3/expand
I0402 12:22:08.207656   463 net.cpp:451] relu4_3/expand <- conv4_3/expand/bn
I0402 12:22:08.207661   463 net.cpp:412] relu4_3/expand -> conv4_3/expand/bn (in-place)
I0402 12:22:08.207669   463 net.cpp:160] Setting up relu4_3/expand
I0402 12:22:08.207671   463 net.cpp:167] Top shape: 1 192 45 60 (518400)
I0402 12:22:08.207676   463 net.cpp:175] Memory required for data: 235180804
I0402 12:22:08.207680   463 layer_factory.hpp:93] Creating layer conv4_3/dwise
I0402 12:22:08.207687   463 net.cpp:110] Creating Layer conv4_3/dwise
I0402 12:22:08.207691   463 net.cpp:451] conv4_3/dwise <- conv4_3/expand/bn
I0402 12:22:08.207696   463 net.cpp:425] conv4_3/dwise -> conv4_3/dwise
I0402 12:22:08.207878   463 net.cpp:160] Setting up conv4_3/dwise
I0402 12:22:08.207885   463 net.cpp:167] Top shape: 1 192 45 60 (518400)
I0402 12:22:08.207891   463 net.cpp:175] Memory required for data: 237254404
I0402 12:22:08.207896   463 layer_factory.hpp:93] Creating layer conv4_3/dwise/bn
I0402 12:22:08.207902   463 net.cpp:110] Creating Layer conv4_3/dwise/bn
I0402 12:22:08.207906   463 net.cpp:451] conv4_3/dwise/bn <- conv4_3/dwise
I0402 12:22:08.207912   463 net.cpp:425] conv4_3/dwise/bn -> conv4_3/dwise/bn
I0402 12:22:08.208516   463 net.cpp:160] Setting up conv4_3/dwise/bn
I0402 12:22:08.208528   463 net.cpp:167] Top shape: 1 192 45 60 (518400)
I0402 12:22:08.208534   463 net.cpp:175] Memory required for data: 239328004
I0402 12:22:08.208542   463 layer_factory.hpp:93] Creating layer relu4_3/dwise
I0402 12:22:08.208551   463 net.cpp:110] Creating Layer relu4_3/dwise
I0402 12:22:08.208555   463 net.cpp:451] relu4_3/dwise <- conv4_3/dwise/bn
I0402 12:22:08.208561   463 net.cpp:412] relu4_3/dwise -> conv4_3/dwise/bn (in-place)
I0402 12:22:08.208568   463 net.cpp:160] Setting up relu4_3/dwise
I0402 12:22:08.208571   463 net.cpp:167] Top shape: 1 192 45 60 (518400)
I0402 12:22:08.208576   463 net.cpp:175] Memory required for data: 241401604
I0402 12:22:08.208580   463 layer_factory.hpp:93] Creating layer conv4_3/linear
I0402 12:22:08.208586   463 net.cpp:110] Creating Layer conv4_3/linear
I0402 12:22:08.208596   463 net.cpp:451] conv4_3/linear <- conv4_3/dwise/bn
I0402 12:22:08.208601   463 net.cpp:425] conv4_3/linear -> conv4_3/linear
I0402 12:22:08.209621   463 net.cpp:160] Setting up conv4_3/linear
I0402 12:22:08.209631   463 net.cpp:167] Top shape: 1 64 45 60 (172800)
I0402 12:22:08.209637   463 net.cpp:175] Memory required for data: 242092804
I0402 12:22:08.209643   463 layer_factory.hpp:93] Creating layer conv4_3/linear/bn
I0402 12:22:08.209652   463 net.cpp:110] Creating Layer conv4_3/linear/bn
I0402 12:22:08.209656   463 net.cpp:451] conv4_3/linear/bn <- conv4_3/linear
I0402 12:22:08.209662   463 net.cpp:425] conv4_3/linear/bn -> conv4_3/linear/bn
I0402 12:22:08.210377   463 net.cpp:160] Setting up conv4_3/linear/bn
I0402 12:22:08.210386   463 net.cpp:167] Top shape: 1 64 45 60 (172800)
I0402 12:22:08.210391   463 net.cpp:175] Memory required for data: 242784004
I0402 12:22:08.210404   463 layer_factory.hpp:93] Creating layer conv4_3/linear/bn_conv4_3/linear/bn_0_split
I0402 12:22:08.210412   463 net.cpp:110] Creating Layer conv4_3/linear/bn_conv4_3/linear/bn_0_split
I0402 12:22:08.210415   463 net.cpp:451] conv4_3/linear/bn_conv4_3/linear/bn_0_split <- conv4_3/linear/bn
I0402 12:22:08.210420   463 net.cpp:425] conv4_3/linear/bn_conv4_3/linear/bn_0_split -> conv4_3/linear/bn_conv4_3/linear/bn_0_split_0
I0402 12:22:08.210427   463 net.cpp:425] conv4_3/linear/bn_conv4_3/linear/bn_0_split -> conv4_3/linear/bn_conv4_3/linear/bn_0_split_1
I0402 12:22:08.210458   463 net.cpp:160] Setting up conv4_3/linear/bn_conv4_3/linear/bn_0_split
I0402 12:22:08.210465   463 net.cpp:167] Top shape: 1 64 45 60 (172800)
I0402 12:22:08.210474   463 net.cpp:167] Top shape: 1 64 45 60 (172800)
I0402 12:22:08.210480   463 net.cpp:175] Memory required for data: 244166404
I0402 12:22:08.210486   463 layer_factory.hpp:93] Creating layer conv4_4/expand
I0402 12:22:08.210497   463 net.cpp:110] Creating Layer conv4_4/expand
I0402 12:22:08.210503   463 net.cpp:451] conv4_4/expand <- conv4_3/linear/bn_conv4_3/linear/bn_0_split_0
I0402 12:22:08.210513   463 net.cpp:425] conv4_4/expand -> conv4_4/expand
I0402 12:22:08.210947   463 net.cpp:160] Setting up conv4_4/expand
I0402 12:22:08.210956   463 net.cpp:167] Top shape: 1 384 45 60 (1036800)
I0402 12:22:08.210963   463 net.cpp:175] Memory required for data: 248313604
I0402 12:22:08.210968   463 layer_factory.hpp:93] Creating layer conv4_4/expand/bn
I0402 12:22:08.210975   463 net.cpp:110] Creating Layer conv4_4/expand/bn
I0402 12:22:08.210979   463 net.cpp:451] conv4_4/expand/bn <- conv4_4/expand
I0402 12:22:08.210985   463 net.cpp:425] conv4_4/expand/bn -> conv4_4/expand/bn
I0402 12:22:08.211496   463 net.cpp:160] Setting up conv4_4/expand/bn
I0402 12:22:08.211505   463 net.cpp:167] Top shape: 1 384 45 60 (1036800)
I0402 12:22:08.211511   463 net.cpp:175] Memory required for data: 252460804
I0402 12:22:08.211519   463 layer_factory.hpp:93] Creating layer relu4_4/expand
I0402 12:22:08.211525   463 net.cpp:110] Creating Layer relu4_4/expand
I0402 12:22:08.211529   463 net.cpp:451] relu4_4/expand <- conv4_4/expand/bn
I0402 12:22:08.211534   463 net.cpp:412] relu4_4/expand -> conv4_4/expand/bn (in-place)
I0402 12:22:08.211541   463 net.cpp:160] Setting up relu4_4/expand
I0402 12:22:08.211545   463 net.cpp:167] Top shape: 1 384 45 60 (1036800)
I0402 12:22:08.211549   463 net.cpp:175] Memory required for data: 256608004
I0402 12:22:08.211553   463 layer_factory.hpp:93] Creating layer conv4_4/dwise
I0402 12:22:08.211560   463 net.cpp:110] Creating Layer conv4_4/dwise
I0402 12:22:08.211566   463 net.cpp:451] conv4_4/dwise <- conv4_4/expand/bn
I0402 12:22:08.211575   463 net.cpp:425] conv4_4/dwise -> conv4_4/dwise
I0402 12:22:08.211800   463 net.cpp:160] Setting up conv4_4/dwise
I0402 12:22:08.211809   463 net.cpp:167] Top shape: 1 384 45 60 (1036800)
I0402 12:22:08.211815   463 net.cpp:175] Memory required for data: 260755204
I0402 12:22:08.211820   463 layer_factory.hpp:93] Creating layer conv4_4/dwise/bn
I0402 12:22:08.211835   463 net.cpp:110] Creating Layer conv4_4/dwise/bn
I0402 12:22:08.211839   463 net.cpp:451] conv4_4/dwise/bn <- conv4_4/dwise
I0402 12:22:08.211845   463 net.cpp:425] conv4_4/dwise/bn -> conv4_4/dwise/bn
I0402 12:22:08.212368   463 net.cpp:160] Setting up conv4_4/dwise/bn
I0402 12:22:08.212376   463 net.cpp:167] Top shape: 1 384 45 60 (1036800)
I0402 12:22:08.212389   463 net.cpp:175] Memory required for data: 264902404
I0402 12:22:08.212399   463 layer_factory.hpp:93] Creating layer relu4_4/dwise
I0402 12:22:08.212404   463 net.cpp:110] Creating Layer relu4_4/dwise
I0402 12:22:08.212407   463 net.cpp:451] relu4_4/dwise <- conv4_4/dwise/bn
I0402 12:22:08.212414   463 net.cpp:412] relu4_4/dwise -> conv4_4/dwise/bn (in-place)
I0402 12:22:08.212419   463 net.cpp:160] Setting up relu4_4/dwise
I0402 12:22:08.212424   463 net.cpp:167] Top shape: 1 384 45 60 (1036800)
I0402 12:22:08.212427   463 net.cpp:175] Memory required for data: 269049604
I0402 12:22:08.212431   463 layer_factory.hpp:93] Creating layer conv4_4/linear
I0402 12:22:08.212437   463 net.cpp:110] Creating Layer conv4_4/linear
I0402 12:22:08.212441   463 net.cpp:451] conv4_4/linear <- conv4_4/dwise/bn
I0402 12:22:08.212446   463 net.cpp:425] conv4_4/linear -> conv4_4/linear
I0402 12:22:08.212847   463 net.cpp:160] Setting up conv4_4/linear
I0402 12:22:08.212855   463 net.cpp:167] Top shape: 1 64 45 60 (172800)
I0402 12:22:08.212860   463 net.cpp:175] Memory required for data: 269740804
I0402 12:22:08.212865   463 layer_factory.hpp:93] Creating layer conv4_4/linear/bn
I0402 12:22:08.212872   463 net.cpp:110] Creating Layer conv4_4/linear/bn
I0402 12:22:08.212877   463 net.cpp:451] conv4_4/linear/bn <- conv4_4/linear
I0402 12:22:08.212882   463 net.cpp:425] conv4_4/linear/bn -> conv4_4/linear/bn
I0402 12:22:08.213505   463 net.cpp:160] Setting up conv4_4/linear/bn
I0402 12:22:08.213513   463 net.cpp:167] Top shape: 1 64 45 60 (172800)
I0402 12:22:08.213519   463 net.cpp:175] Memory required for data: 270432004
I0402 12:22:08.213528   463 layer_factory.hpp:93] Creating layer block_4_4
I0402 12:22:08.213536   463 net.cpp:110] Creating Layer block_4_4
I0402 12:22:08.213539   463 net.cpp:451] block_4_4 <- conv4_3/linear/bn_conv4_3/linear/bn_0_split_1
I0402 12:22:08.213543   463 net.cpp:451] block_4_4 <- conv4_4/linear/bn
I0402 12:22:08.213549   463 net.cpp:425] block_4_4 -> block_4_4
I0402 12:22:08.213569   463 net.cpp:160] Setting up block_4_4
I0402 12:22:08.213577   463 net.cpp:167] Top shape: 1 64 45 60 (172800)
I0402 12:22:08.213582   463 net.cpp:175] Memory required for data: 271123204
I0402 12:22:08.213587   463 layer_factory.hpp:93] Creating layer block_4_4_block_4_4_0_split
I0402 12:22:08.213593   463 net.cpp:110] Creating Layer block_4_4_block_4_4_0_split
I0402 12:22:08.213599   463 net.cpp:451] block_4_4_block_4_4_0_split <- block_4_4
I0402 12:22:08.213608   463 net.cpp:425] block_4_4_block_4_4_0_split -> block_4_4_block_4_4_0_split_0
I0402 12:22:08.213618   463 net.cpp:425] block_4_4_block_4_4_0_split -> block_4_4_block_4_4_0_split_1
I0402 12:22:08.213662   463 net.cpp:160] Setting up block_4_4_block_4_4_0_split
I0402 12:22:08.213671   463 net.cpp:167] Top shape: 1 64 45 60 (172800)
I0402 12:22:08.213680   463 net.cpp:167] Top shape: 1 64 45 60 (172800)
I0402 12:22:08.213687   463 net.cpp:175] Memory required for data: 272505604
I0402 12:22:08.213692   463 layer_factory.hpp:93] Creating layer conv4_5/expand
I0402 12:22:08.213703   463 net.cpp:110] Creating Layer conv4_5/expand
I0402 12:22:08.213708   463 net.cpp:451] conv4_5/expand <- block_4_4_block_4_4_0_split_0
I0402 12:22:08.213714   463 net.cpp:425] conv4_5/expand -> conv4_5/expand
I0402 12:22:08.214128   463 net.cpp:160] Setting up conv4_5/expand
I0402 12:22:08.214136   463 net.cpp:167] Top shape: 1 384 45 60 (1036800)
I0402 12:22:08.214141   463 net.cpp:175] Memory required for data: 276652804
I0402 12:22:08.214148   463 layer_factory.hpp:93] Creating layer conv4_5/expand/bn
I0402 12:22:08.214154   463 net.cpp:110] Creating Layer conv4_5/expand/bn
I0402 12:22:08.214159   463 net.cpp:451] conv4_5/expand/bn <- conv4_5/expand
I0402 12:22:08.214164   463 net.cpp:425] conv4_5/expand/bn -> conv4_5/expand/bn
I0402 12:22:08.214696   463 net.cpp:160] Setting up conv4_5/expand/bn
I0402 12:22:08.214706   463 net.cpp:167] Top shape: 1 384 45 60 (1036800)
I0402 12:22:08.214711   463 net.cpp:175] Memory required for data: 280800004
I0402 12:22:08.214720   463 layer_factory.hpp:93] Creating layer relu4_5/expand
I0402 12:22:08.214726   463 net.cpp:110] Creating Layer relu4_5/expand
I0402 12:22:08.214730   463 net.cpp:451] relu4_5/expand <- conv4_5/expand/bn
I0402 12:22:08.214735   463 net.cpp:412] relu4_5/expand -> conv4_5/expand/bn (in-place)
I0402 12:22:08.214742   463 net.cpp:160] Setting up relu4_5/expand
I0402 12:22:08.214745   463 net.cpp:167] Top shape: 1 384 45 60 (1036800)
I0402 12:22:08.214749   463 net.cpp:175] Memory required for data: 284947204
I0402 12:22:08.214753   463 layer_factory.hpp:93] Creating layer conv4_5/dwise
I0402 12:22:08.214761   463 net.cpp:110] Creating Layer conv4_5/dwise
I0402 12:22:08.214764   463 net.cpp:451] conv4_5/dwise <- conv4_5/expand/bn
I0402 12:22:08.214769   463 net.cpp:425] conv4_5/dwise -> conv4_5/dwise
I0402 12:22:08.215006   463 net.cpp:160] Setting up conv4_5/dwise
I0402 12:22:08.215013   463 net.cpp:167] Top shape: 1 384 45 60 (1036800)
I0402 12:22:08.215019   463 net.cpp:175] Memory required for data: 289094404
I0402 12:22:08.215025   463 layer_factory.hpp:93] Creating layer conv4_5/dwise/bn
I0402 12:22:08.215032   463 net.cpp:110] Creating Layer conv4_5/dwise/bn
I0402 12:22:08.215036   463 net.cpp:451] conv4_5/dwise/bn <- conv4_5/dwise
I0402 12:22:08.215042   463 net.cpp:425] conv4_5/dwise/bn -> conv4_5/dwise/bn
I0402 12:22:08.215864   463 net.cpp:160] Setting up conv4_5/dwise/bn
I0402 12:22:08.215873   463 net.cpp:167] Top shape: 1 384 45 60 (1036800)
I0402 12:22:08.215879   463 net.cpp:175] Memory required for data: 293241604
I0402 12:22:08.215888   463 layer_factory.hpp:93] Creating layer relu4_5/dwise
I0402 12:22:08.215893   463 net.cpp:110] Creating Layer relu4_5/dwise
I0402 12:22:08.215898   463 net.cpp:451] relu4_5/dwise <- conv4_5/dwise/bn
I0402 12:22:08.215903   463 net.cpp:412] relu4_5/dwise -> conv4_5/dwise/bn (in-place)
I0402 12:22:08.215909   463 net.cpp:160] Setting up relu4_5/dwise
I0402 12:22:08.215912   463 net.cpp:167] Top shape: 1 384 45 60 (1036800)
I0402 12:22:08.215916   463 net.cpp:175] Memory required for data: 297388804
I0402 12:22:08.215920   463 layer_factory.hpp:93] Creating layer conv4_5/linear
I0402 12:22:08.215927   463 net.cpp:110] Creating Layer conv4_5/linear
I0402 12:22:08.215930   463 net.cpp:451] conv4_5/linear <- conv4_5/dwise/bn
I0402 12:22:08.215936   463 net.cpp:425] conv4_5/linear -> conv4_5/linear
I0402 12:22:08.216390   463 net.cpp:160] Setting up conv4_5/linear
I0402 12:22:08.216400   463 net.cpp:167] Top shape: 1 64 45 60 (172800)
I0402 12:22:08.216406   463 net.cpp:175] Memory required for data: 298080004
I0402 12:22:08.216411   463 layer_factory.hpp:93] Creating layer conv4_5/linear/bn
I0402 12:22:08.216419   463 net.cpp:110] Creating Layer conv4_5/linear/bn
I0402 12:22:08.216423   463 net.cpp:451] conv4_5/linear/bn <- conv4_5/linear
I0402 12:22:08.216429   463 net.cpp:425] conv4_5/linear/bn -> conv4_5/linear/bn
I0402 12:22:08.217036   463 net.cpp:160] Setting up conv4_5/linear/bn
I0402 12:22:08.217044   463 net.cpp:167] Top shape: 1 64 45 60 (172800)
I0402 12:22:08.217051   463 net.cpp:175] Memory required for data: 298771204
I0402 12:22:08.217059   463 layer_factory.hpp:93] Creating layer block_4_5
I0402 12:22:08.217065   463 net.cpp:110] Creating Layer block_4_5
I0402 12:22:08.217070   463 net.cpp:451] block_4_5 <- block_4_4_block_4_4_0_split_1
I0402 12:22:08.217074   463 net.cpp:451] block_4_5 <- conv4_5/linear/bn
I0402 12:22:08.217080   463 net.cpp:425] block_4_5 -> block_4_5
I0402 12:22:08.217100   463 net.cpp:160] Setting up block_4_5
I0402 12:22:08.217106   463 net.cpp:167] Top shape: 1 64 45 60 (172800)
I0402 12:22:08.217111   463 net.cpp:175] Memory required for data: 299462404
I0402 12:22:08.217114   463 layer_factory.hpp:93] Creating layer block_4_5_block_4_5_0_split
I0402 12:22:08.217120   463 net.cpp:110] Creating Layer block_4_5_block_4_5_0_split
I0402 12:22:08.217124   463 net.cpp:451] block_4_5_block_4_5_0_split <- block_4_5
I0402 12:22:08.217129   463 net.cpp:425] block_4_5_block_4_5_0_split -> block_4_5_block_4_5_0_split_0
I0402 12:22:08.217134   463 net.cpp:425] block_4_5_block_4_5_0_split -> block_4_5_block_4_5_0_split_1
I0402 12:22:08.217162   463 net.cpp:160] Setting up block_4_5_block_4_5_0_split
I0402 12:22:08.217169   463 net.cpp:167] Top shape: 1 64 45 60 (172800)
I0402 12:22:08.217173   463 net.cpp:167] Top shape: 1 64 45 60 (172800)
I0402 12:22:08.217177   463 net.cpp:175] Memory required for data: 300844804
I0402 12:22:08.217181   463 layer_factory.hpp:93] Creating layer conv4_6/expand
I0402 12:22:08.217188   463 net.cpp:110] Creating Layer conv4_6/expand
I0402 12:22:08.217192   463 net.cpp:451] conv4_6/expand <- block_4_5_block_4_5_0_split_0
I0402 12:22:08.217198   463 net.cpp:425] conv4_6/expand -> conv4_6/expand
I0402 12:22:08.217615   463 net.cpp:160] Setting up conv4_6/expand
I0402 12:22:08.217624   463 net.cpp:167] Top shape: 1 384 45 60 (1036800)
I0402 12:22:08.217629   463 net.cpp:175] Memory required for data: 304992004
I0402 12:22:08.217635   463 layer_factory.hpp:93] Creating layer conv4_6/expand/bn
I0402 12:22:08.217643   463 net.cpp:110] Creating Layer conv4_6/expand/bn
I0402 12:22:08.217646   463 net.cpp:451] conv4_6/expand/bn <- conv4_6/expand
I0402 12:22:08.217653   463 net.cpp:425] conv4_6/expand/bn -> conv4_6/expand/bn
I0402 12:22:08.218195   463 net.cpp:160] Setting up conv4_6/expand/bn
I0402 12:22:08.218204   463 net.cpp:167] Top shape: 1 384 45 60 (1036800)
I0402 12:22:08.218209   463 net.cpp:175] Memory required for data: 309139204
I0402 12:22:08.218219   463 layer_factory.hpp:93] Creating layer relu4_6/expand
I0402 12:22:08.218225   463 net.cpp:110] Creating Layer relu4_6/expand
I0402 12:22:08.218230   463 net.cpp:451] relu4_6/expand <- conv4_6/expand/bn
I0402 12:22:08.218235   463 net.cpp:412] relu4_6/expand -> conv4_6/expand/bn (in-place)
I0402 12:22:08.218241   463 net.cpp:160] Setting up relu4_6/expand
I0402 12:22:08.218245   463 net.cpp:167] Top shape: 1 384 45 60 (1036800)
I0402 12:22:08.218250   463 net.cpp:175] Memory required for data: 313286404
I0402 12:22:08.218253   463 layer_factory.hpp:93] Creating layer conv4_6/dwise
I0402 12:22:08.218261   463 net.cpp:110] Creating Layer conv4_6/dwise
I0402 12:22:08.218264   463 net.cpp:451] conv4_6/dwise <- conv4_6/expand/bn
I0402 12:22:08.218269   463 net.cpp:425] conv4_6/dwise -> conv4_6/dwise
I0402 12:22:08.218490   463 net.cpp:160] Setting up conv4_6/dwise
I0402 12:22:08.218499   463 net.cpp:167] Top shape: 1 384 45 60 (1036800)
I0402 12:22:08.218504   463 net.cpp:175] Memory required for data: 317433604
I0402 12:22:08.218510   463 layer_factory.hpp:93] Creating layer conv4_6/dwise/bn
I0402 12:22:08.218518   463 net.cpp:110] Creating Layer conv4_6/dwise/bn
I0402 12:22:08.218521   463 net.cpp:451] conv4_6/dwise/bn <- conv4_6/dwise
I0402 12:22:08.218528   463 net.cpp:425] conv4_6/dwise/bn -> conv4_6/dwise/bn
I0402 12:22:08.219044   463 net.cpp:160] Setting up conv4_6/dwise/bn
I0402 12:22:08.219053   463 net.cpp:167] Top shape: 1 384 45 60 (1036800)
I0402 12:22:08.219058   463 net.cpp:175] Memory required for data: 321580804
I0402 12:22:08.219066   463 layer_factory.hpp:93] Creating layer relu4_6/dwise
I0402 12:22:08.219072   463 net.cpp:110] Creating Layer relu4_6/dwise
I0402 12:22:08.219076   463 net.cpp:451] relu4_6/dwise <- conv4_6/dwise/bn
I0402 12:22:08.219081   463 net.cpp:412] relu4_6/dwise -> conv4_6/dwise/bn (in-place)
I0402 12:22:08.219087   463 net.cpp:160] Setting up relu4_6/dwise
I0402 12:22:08.219091   463 net.cpp:167] Top shape: 1 384 45 60 (1036800)
I0402 12:22:08.219095   463 net.cpp:175] Memory required for data: 325728004
I0402 12:22:08.219099   463 layer_factory.hpp:93] Creating layer conv4_6/linear
I0402 12:22:08.219106   463 net.cpp:110] Creating Layer conv4_6/linear
I0402 12:22:08.219110   463 net.cpp:451] conv4_6/linear <- conv4_6/dwise/bn
I0402 12:22:08.219115   463 net.cpp:425] conv4_6/linear -> conv4_6/linear
I0402 12:22:08.219555   463 net.cpp:160] Setting up conv4_6/linear
I0402 12:22:08.219565   463 net.cpp:167] Top shape: 1 64 45 60 (172800)
I0402 12:22:08.219570   463 net.cpp:175] Memory required for data: 326419204
I0402 12:22:08.219576   463 layer_factory.hpp:93] Creating layer conv4_6/linear/bn
I0402 12:22:08.219584   463 net.cpp:110] Creating Layer conv4_6/linear/bn
I0402 12:22:08.219588   463 net.cpp:451] conv4_6/linear/bn <- conv4_6/linear
I0402 12:22:08.219594   463 net.cpp:425] conv4_6/linear/bn -> conv4_6/linear/bn
I0402 12:22:08.220216   463 net.cpp:160] Setting up conv4_6/linear/bn
I0402 12:22:08.220224   463 net.cpp:167] Top shape: 1 64 45 60 (172800)
I0402 12:22:08.220230   463 net.cpp:175] Memory required for data: 327110404
I0402 12:22:08.220239   463 layer_factory.hpp:93] Creating layer block_4_6
I0402 12:22:08.220245   463 net.cpp:110] Creating Layer block_4_6
I0402 12:22:08.220249   463 net.cpp:451] block_4_6 <- block_4_5_block_4_5_0_split_1
I0402 12:22:08.220254   463 net.cpp:451] block_4_6 <- conv4_6/linear/bn
I0402 12:22:08.220259   463 net.cpp:425] block_4_6 -> block_4_6
I0402 12:22:08.220279   463 net.cpp:160] Setting up block_4_6
I0402 12:22:08.220284   463 net.cpp:167] Top shape: 1 64 45 60 (172800)
I0402 12:22:08.220289   463 net.cpp:175] Memory required for data: 327801604
I0402 12:22:08.220293   463 layer_factory.hpp:93] Creating layer conv4_7/expand
I0402 12:22:08.220300   463 net.cpp:110] Creating Layer conv4_7/expand
I0402 12:22:08.220304   463 net.cpp:451] conv4_7/expand <- block_4_6
I0402 12:22:08.220309   463 net.cpp:425] conv4_7/expand -> conv4_7/expand
I0402 12:22:08.220712   463 net.cpp:160] Setting up conv4_7/expand
I0402 12:22:08.220721   463 net.cpp:167] Top shape: 1 384 45 60 (1036800)
I0402 12:22:08.220726   463 net.cpp:175] Memory required for data: 331948804
I0402 12:22:08.220732   463 layer_factory.hpp:93] Creating layer conv4_7/expand/bn
I0402 12:22:08.220739   463 net.cpp:110] Creating Layer conv4_7/expand/bn
I0402 12:22:08.220743   463 net.cpp:451] conv4_7/expand/bn <- conv4_7/expand
I0402 12:22:08.220749   463 net.cpp:425] conv4_7/expand/bn -> conv4_7/expand/bn
I0402 12:22:08.221287   463 net.cpp:160] Setting up conv4_7/expand/bn
I0402 12:22:08.221297   463 net.cpp:167] Top shape: 1 384 45 60 (1036800)
I0402 12:22:08.221302   463 net.cpp:175] Memory required for data: 336096004
I0402 12:22:08.221310   463 layer_factory.hpp:93] Creating layer relu4_7/expand
I0402 12:22:08.221316   463 net.cpp:110] Creating Layer relu4_7/expand
I0402 12:22:08.221320   463 net.cpp:451] relu4_7/expand <- conv4_7/expand/bn
I0402 12:22:08.221325   463 net.cpp:412] relu4_7/expand -> conv4_7/expand/bn (in-place)
I0402 12:22:08.221333   463 net.cpp:160] Setting up relu4_7/expand
I0402 12:22:08.221335   463 net.cpp:167] Top shape: 1 384 45 60 (1036800)
I0402 12:22:08.221340   463 net.cpp:175] Memory required for data: 340243204
I0402 12:22:08.221344   463 layer_factory.hpp:93] Creating layer conv4_7/expand/bn_relu4_7/expand_0_split
I0402 12:22:08.221349   463 net.cpp:110] Creating Layer conv4_7/expand/bn_relu4_7/expand_0_split
I0402 12:22:08.221354   463 net.cpp:451] conv4_7/expand/bn_relu4_7/expand_0_split <- conv4_7/expand/bn
I0402 12:22:08.221359   463 net.cpp:425] conv4_7/expand/bn_relu4_7/expand_0_split -> conv4_7/expand/bn_relu4_7/expand_0_split_0
I0402 12:22:08.221364   463 net.cpp:425] conv4_7/expand/bn_relu4_7/expand_0_split -> conv4_7/expand/bn_relu4_7/expand_0_split_1
I0402 12:22:08.221370   463 net.cpp:425] conv4_7/expand/bn_relu4_7/expand_0_split -> conv4_7/expand/bn_relu4_7/expand_0_split_2
I0402 12:22:08.221375   463 net.cpp:425] conv4_7/expand/bn_relu4_7/expand_0_split -> conv4_7/expand/bn_relu4_7/expand_0_split_3
I0402 12:22:08.221436   463 net.cpp:160] Setting up conv4_7/expand/bn_relu4_7/expand_0_split
I0402 12:22:08.221442   463 net.cpp:167] Top shape: 1 384 45 60 (1036800)
I0402 12:22:08.221448   463 net.cpp:167] Top shape: 1 384 45 60 (1036800)
I0402 12:22:08.221452   463 net.cpp:167] Top shape: 1 384 45 60 (1036800)
I0402 12:22:08.221457   463 net.cpp:167] Top shape: 1 384 45 60 (1036800)
I0402 12:22:08.221460   463 net.cpp:175] Memory required for data: 356832004
I0402 12:22:08.221464   463 layer_factory.hpp:93] Creating layer conv4_7/dwise
I0402 12:22:08.221472   463 net.cpp:110] Creating Layer conv4_7/dwise
I0402 12:22:08.221477   463 net.cpp:451] conv4_7/dwise <- conv4_7/expand/bn_relu4_7/expand_0_split_0
I0402 12:22:08.221485   463 net.cpp:425] conv4_7/dwise -> conv4_7/dwise
I0402 12:22:08.221725   463 net.cpp:160] Setting up conv4_7/dwise
I0402 12:22:08.221735   463 net.cpp:167] Top shape: 1 384 23 30 (264960)
I0402 12:22:08.221740   463 net.cpp:175] Memory required for data: 357891844
I0402 12:22:08.221745   463 layer_factory.hpp:93] Creating layer conv4_7/dwise/bn
I0402 12:22:08.221753   463 net.cpp:110] Creating Layer conv4_7/dwise/bn
I0402 12:22:08.221757   463 net.cpp:451] conv4_7/dwise/bn <- conv4_7/dwise
I0402 12:22:08.221763   463 net.cpp:425] conv4_7/dwise/bn -> conv4_7/dwise/bn
I0402 12:22:08.222481   463 net.cpp:160] Setting up conv4_7/dwise/bn
I0402 12:22:08.222488   463 net.cpp:167] Top shape: 1 384 23 30 (264960)
I0402 12:22:08.222493   463 net.cpp:175] Memory required for data: 358951684
I0402 12:22:08.222502   463 layer_factory.hpp:93] Creating layer relu4_7/dwise
I0402 12:22:08.222508   463 net.cpp:110] Creating Layer relu4_7/dwise
I0402 12:22:08.222512   463 net.cpp:451] relu4_7/dwise <- conv4_7/dwise/bn
I0402 12:22:08.222517   463 net.cpp:412] relu4_7/dwise -> conv4_7/dwise/bn (in-place)
I0402 12:22:08.222524   463 net.cpp:160] Setting up relu4_7/dwise
I0402 12:22:08.222527   463 net.cpp:167] Top shape: 1 384 23 30 (264960)
I0402 12:22:08.222532   463 net.cpp:175] Memory required for data: 360011524
I0402 12:22:08.222535   463 layer_factory.hpp:93] Creating layer conv4_7/linear
I0402 12:22:08.222543   463 net.cpp:110] Creating Layer conv4_7/linear
I0402 12:22:08.222548   463 net.cpp:451] conv4_7/linear <- conv4_7/dwise/bn
I0402 12:22:08.222558   463 net.cpp:425] conv4_7/linear -> conv4_7/linear
I0402 12:22:08.223824   463 net.cpp:160] Setting up conv4_7/linear
I0402 12:22:08.223835   463 net.cpp:167] Top shape: 1 96 23 30 (66240)
I0402 12:22:08.223841   463 net.cpp:175] Memory required for data: 360276484
I0402 12:22:08.223847   463 layer_factory.hpp:93] Creating layer conv4_7/linear/bn
I0402 12:22:08.223856   463 net.cpp:110] Creating Layer conv4_7/linear/bn
I0402 12:22:08.223860   463 net.cpp:451] conv4_7/linear/bn <- conv4_7/linear
I0402 12:22:08.223866   463 net.cpp:425] conv4_7/linear/bn -> conv4_7/linear/bn
I0402 12:22:08.224510   463 net.cpp:160] Setting up conv4_7/linear/bn
I0402 12:22:08.224520   463 net.cpp:167] Top shape: 1 96 23 30 (66240)
I0402 12:22:08.224526   463 net.cpp:175] Memory required for data: 360541444
I0402 12:22:08.224535   463 layer_factory.hpp:93] Creating layer conv4_7/linear/bn_conv4_7/linear/bn_0_split
I0402 12:22:08.224541   463 net.cpp:110] Creating Layer conv4_7/linear/bn_conv4_7/linear/bn_0_split
I0402 12:22:08.224545   463 net.cpp:451] conv4_7/linear/bn_conv4_7/linear/bn_0_split <- conv4_7/linear/bn
I0402 12:22:08.224551   463 net.cpp:425] conv4_7/linear/bn_conv4_7/linear/bn_0_split -> conv4_7/linear/bn_conv4_7/linear/bn_0_split_0
I0402 12:22:08.224558   463 net.cpp:425] conv4_7/linear/bn_conv4_7/linear/bn_0_split -> conv4_7/linear/bn_conv4_7/linear/bn_0_split_1
I0402 12:22:08.224588   463 net.cpp:160] Setting up conv4_7/linear/bn_conv4_7/linear/bn_0_split
I0402 12:22:08.224594   463 net.cpp:167] Top shape: 1 96 23 30 (66240)
I0402 12:22:08.224599   463 net.cpp:167] Top shape: 1 96 23 30 (66240)
I0402 12:22:08.224603   463 net.cpp:175] Memory required for data: 361071364
I0402 12:22:08.224606   463 layer_factory.hpp:93] Creating layer conv5_1/expand
I0402 12:22:08.224614   463 net.cpp:110] Creating Layer conv5_1/expand
I0402 12:22:08.224618   463 net.cpp:451] conv5_1/expand <- conv4_7/linear/bn_conv4_7/linear/bn_0_split_0
I0402 12:22:08.224624   463 net.cpp:425] conv5_1/expand -> conv5_1/expand
I0402 12:22:08.225318   463 net.cpp:160] Setting up conv5_1/expand
I0402 12:22:08.225327   463 net.cpp:167] Top shape: 1 576 23 30 (397440)
I0402 12:22:08.225332   463 net.cpp:175] Memory required for data: 362661124
I0402 12:22:08.225338   463 layer_factory.hpp:93] Creating layer conv5_1/expand/bn
I0402 12:22:08.225345   463 net.cpp:110] Creating Layer conv5_1/expand/bn
I0402 12:22:08.225349   463 net.cpp:451] conv5_1/expand/bn <- conv5_1/expand
I0402 12:22:08.225355   463 net.cpp:425] conv5_1/expand/bn -> conv5_1/expand/bn
I0402 12:22:08.225980   463 net.cpp:160] Setting up conv5_1/expand/bn
I0402 12:22:08.225991   463 net.cpp:167] Top shape: 1 576 23 30 (397440)
I0402 12:22:08.225996   463 net.cpp:175] Memory required for data: 364250884
I0402 12:22:08.226004   463 layer_factory.hpp:93] Creating layer relu5_1/expand
I0402 12:22:08.226011   463 net.cpp:110] Creating Layer relu5_1/expand
I0402 12:22:08.226014   463 net.cpp:451] relu5_1/expand <- conv5_1/expand/bn
I0402 12:22:08.226019   463 net.cpp:412] relu5_1/expand -> conv5_1/expand/bn (in-place)
I0402 12:22:08.226027   463 net.cpp:160] Setting up relu5_1/expand
I0402 12:22:08.226029   463 net.cpp:167] Top shape: 1 576 23 30 (397440)
I0402 12:22:08.226034   463 net.cpp:175] Memory required for data: 365840644
I0402 12:22:08.226037   463 layer_factory.hpp:93] Creating layer conv5_1/dwise
I0402 12:22:08.226045   463 net.cpp:110] Creating Layer conv5_1/dwise
I0402 12:22:08.226048   463 net.cpp:451] conv5_1/dwise <- conv5_1/expand/bn
I0402 12:22:08.226053   463 net.cpp:425] conv5_1/dwise -> conv5_1/dwise
I0402 12:22:08.226292   463 net.cpp:160] Setting up conv5_1/dwise
I0402 12:22:08.226301   463 net.cpp:167] Top shape: 1 576 23 30 (397440)
I0402 12:22:08.226306   463 net.cpp:175] Memory required for data: 367430404
I0402 12:22:08.226311   463 layer_factory.hpp:93] Creating layer conv5_1/dwise/bn
I0402 12:22:08.226318   463 net.cpp:110] Creating Layer conv5_1/dwise/bn
I0402 12:22:08.226323   463 net.cpp:451] conv5_1/dwise/bn <- conv5_1/dwise
I0402 12:22:08.226330   463 net.cpp:425] conv5_1/dwise/bn -> conv5_1/dwise/bn
I0402 12:22:08.226923   463 net.cpp:160] Setting up conv5_1/dwise/bn
I0402 12:22:08.226933   463 net.cpp:167] Top shape: 1 576 23 30 (397440)
I0402 12:22:08.226938   463 net.cpp:175] Memory required for data: 369020164
I0402 12:22:08.226946   463 layer_factory.hpp:93] Creating layer relu5_1/dwise
I0402 12:22:08.226951   463 net.cpp:110] Creating Layer relu5_1/dwise
I0402 12:22:08.226955   463 net.cpp:451] relu5_1/dwise <- conv5_1/dwise/bn
I0402 12:22:08.226960   463 net.cpp:412] relu5_1/dwise -> conv5_1/dwise/bn (in-place)
I0402 12:22:08.226967   463 net.cpp:160] Setting up relu5_1/dwise
I0402 12:22:08.226970   463 net.cpp:167] Top shape: 1 576 23 30 (397440)
I0402 12:22:08.226974   463 net.cpp:175] Memory required for data: 370609924
I0402 12:22:08.226979   463 layer_factory.hpp:93] Creating layer conv5_1/linear
I0402 12:22:08.226985   463 net.cpp:110] Creating Layer conv5_1/linear
I0402 12:22:08.226989   463 net.cpp:451] conv5_1/linear <- conv5_1/dwise/bn
I0402 12:22:08.226994   463 net.cpp:425] conv5_1/linear -> conv5_1/linear
I0402 12:22:08.227784   463 net.cpp:160] Setting up conv5_1/linear
I0402 12:22:08.227793   463 net.cpp:167] Top shape: 1 96 23 30 (66240)
I0402 12:22:08.227798   463 net.cpp:175] Memory required for data: 370874884
I0402 12:22:08.227804   463 layer_factory.hpp:93] Creating layer conv5_1/linear/bn
I0402 12:22:08.227811   463 net.cpp:110] Creating Layer conv5_1/linear/bn
I0402 12:22:08.227815   463 net.cpp:451] conv5_1/linear/bn <- conv5_1/linear
I0402 12:22:08.227823   463 net.cpp:425] conv5_1/linear/bn -> conv5_1/linear/bn
I0402 12:22:08.228463   463 net.cpp:160] Setting up conv5_1/linear/bn
I0402 12:22:08.228473   463 net.cpp:167] Top shape: 1 96 23 30 (66240)
I0402 12:22:08.228478   463 net.cpp:175] Memory required for data: 371139844
I0402 12:22:08.228487   463 layer_factory.hpp:93] Creating layer block_5_1
I0402 12:22:08.228494   463 net.cpp:110] Creating Layer block_5_1
I0402 12:22:08.228498   463 net.cpp:451] block_5_1 <- conv4_7/linear/bn_conv4_7/linear/bn_0_split_1
I0402 12:22:08.228503   463 net.cpp:451] block_5_1 <- conv5_1/linear/bn
I0402 12:22:08.228509   463 net.cpp:425] block_5_1 -> block_5_1
I0402 12:22:08.228529   463 net.cpp:160] Setting up block_5_1
I0402 12:22:08.228535   463 net.cpp:167] Top shape: 1 96 23 30 (66240)
I0402 12:22:08.228540   463 net.cpp:175] Memory required for data: 371404804
I0402 12:22:08.228544   463 layer_factory.hpp:93] Creating layer block_5_1_block_5_1_0_split
I0402 12:22:08.228549   463 net.cpp:110] Creating Layer block_5_1_block_5_1_0_split
I0402 12:22:08.228554   463 net.cpp:451] block_5_1_block_5_1_0_split <- block_5_1
I0402 12:22:08.228559   463 net.cpp:425] block_5_1_block_5_1_0_split -> block_5_1_block_5_1_0_split_0
I0402 12:22:08.228564   463 net.cpp:425] block_5_1_block_5_1_0_split -> block_5_1_block_5_1_0_split_1
I0402 12:22:08.228603   463 net.cpp:160] Setting up block_5_1_block_5_1_0_split
I0402 12:22:08.228613   463 net.cpp:167] Top shape: 1 96 23 30 (66240)
I0402 12:22:08.228622   463 net.cpp:167] Top shape: 1 96 23 30 (66240)
I0402 12:22:08.228629   463 net.cpp:175] Memory required for data: 371934724
I0402 12:22:08.228634   463 layer_factory.hpp:93] Creating layer conv5_2/expand
I0402 12:22:08.228646   463 net.cpp:110] Creating Layer conv5_2/expand
I0402 12:22:08.228653   463 net.cpp:451] conv5_2/expand <- block_5_1_block_5_1_0_split_0
I0402 12:22:08.228663   463 net.cpp:425] conv5_2/expand -> conv5_2/expand
I0402 12:22:08.229373   463 net.cpp:160] Setting up conv5_2/expand
I0402 12:22:08.229383   463 net.cpp:167] Top shape: 1 576 23 30 (397440)
I0402 12:22:08.229388   463 net.cpp:175] Memory required for data: 373524484
I0402 12:22:08.229394   463 layer_factory.hpp:93] Creating layer conv5_2/expand/bn
I0402 12:22:08.229401   463 net.cpp:110] Creating Layer conv5_2/expand/bn
I0402 12:22:08.229405   463 net.cpp:451] conv5_2/expand/bn <- conv5_2/expand
I0402 12:22:08.229411   463 net.cpp:425] conv5_2/expand/bn -> conv5_2/expand/bn
I0402 12:22:08.230017   463 net.cpp:160] Setting up conv5_2/expand/bn
I0402 12:22:08.230026   463 net.cpp:167] Top shape: 1 576 23 30 (397440)
I0402 12:22:08.230032   463 net.cpp:175] Memory required for data: 375114244
I0402 12:22:08.230041   463 layer_factory.hpp:93] Creating layer relu5_2/expand
I0402 12:22:08.230046   463 net.cpp:110] Creating Layer relu5_2/expand
I0402 12:22:08.230051   463 net.cpp:451] relu5_2/expand <- conv5_2/expand/bn
I0402 12:22:08.230056   463 net.cpp:412] relu5_2/expand -> conv5_2/expand/bn (in-place)
I0402 12:22:08.230062   463 net.cpp:160] Setting up relu5_2/expand
I0402 12:22:08.230065   463 net.cpp:167] Top shape: 1 576 23 30 (397440)
I0402 12:22:08.230069   463 net.cpp:175] Memory required for data: 376704004
I0402 12:22:08.230073   463 layer_factory.hpp:93] Creating layer conv5_2/dwise
I0402 12:22:08.230080   463 net.cpp:110] Creating Layer conv5_2/dwise
I0402 12:22:08.230084   463 net.cpp:451] conv5_2/dwise <- conv5_2/expand/bn
I0402 12:22:08.230089   463 net.cpp:425] conv5_2/dwise -> conv5_2/dwise
I0402 12:22:08.230317   463 net.cpp:160] Setting up conv5_2/dwise
I0402 12:22:08.230325   463 net.cpp:167] Top shape: 1 576 23 30 (397440)
I0402 12:22:08.230331   463 net.cpp:175] Memory required for data: 378293764
I0402 12:22:08.230335   463 layer_factory.hpp:93] Creating layer conv5_2/dwise/bn
I0402 12:22:08.230343   463 net.cpp:110] Creating Layer conv5_2/dwise/bn
I0402 12:22:08.230347   463 net.cpp:451] conv5_2/dwise/bn <- conv5_2/dwise
I0402 12:22:08.230352   463 net.cpp:425] conv5_2/dwise/bn -> conv5_2/dwise/bn
I0402 12:22:08.230967   463 net.cpp:160] Setting up conv5_2/dwise/bn
I0402 12:22:08.230976   463 net.cpp:167] Top shape: 1 576 23 30 (397440)
I0402 12:22:08.230983   463 net.cpp:175] Memory required for data: 379883524
I0402 12:22:08.230991   463 layer_factory.hpp:93] Creating layer relu5_2/dwise
I0402 12:22:08.230998   463 net.cpp:110] Creating Layer relu5_2/dwise
I0402 12:22:08.231001   463 net.cpp:451] relu5_2/dwise <- conv5_2/dwise/bn
I0402 12:22:08.231006   463 net.cpp:412] relu5_2/dwise -> conv5_2/dwise/bn (in-place)
I0402 12:22:08.231012   463 net.cpp:160] Setting up relu5_2/dwise
I0402 12:22:08.231016   463 net.cpp:167] Top shape: 1 576 23 30 (397440)
I0402 12:22:08.231020   463 net.cpp:175] Memory required for data: 381473284
I0402 12:22:08.231024   463 layer_factory.hpp:93] Creating layer conv5_2/linear
I0402 12:22:08.231030   463 net.cpp:110] Creating Layer conv5_2/linear
I0402 12:22:08.231034   463 net.cpp:451] conv5_2/linear <- conv5_2/dwise/bn
I0402 12:22:08.231040   463 net.cpp:425] conv5_2/linear -> conv5_2/linear
I0402 12:22:08.232517   463 net.cpp:160] Setting up conv5_2/linear
I0402 12:22:08.232530   463 net.cpp:167] Top shape: 1 96 23 30 (66240)
I0402 12:22:08.232539   463 net.cpp:175] Memory required for data: 381738244
I0402 12:22:08.232548   463 layer_factory.hpp:93] Creating layer conv5_2/linear/bn
I0402 12:22:08.232559   463 net.cpp:110] Creating Layer conv5_2/linear/bn
I0402 12:22:08.232566   463 net.cpp:451] conv5_2/linear/bn <- conv5_2/linear
I0402 12:22:08.232576   463 net.cpp:425] conv5_2/linear/bn -> conv5_2/linear/bn
I0402 12:22:08.233263   463 net.cpp:160] Setting up conv5_2/linear/bn
I0402 12:22:08.233271   463 net.cpp:167] Top shape: 1 96 23 30 (66240)
I0402 12:22:08.233276   463 net.cpp:175] Memory required for data: 382003204
I0402 12:22:08.233285   463 layer_factory.hpp:93] Creating layer block_5_2
I0402 12:22:08.233291   463 net.cpp:110] Creating Layer block_5_2
I0402 12:22:08.233296   463 net.cpp:451] block_5_2 <- block_5_1_block_5_1_0_split_1
I0402 12:22:08.233300   463 net.cpp:451] block_5_2 <- conv5_2/linear/bn
I0402 12:22:08.233305   463 net.cpp:425] block_5_2 -> block_5_2
I0402 12:22:08.233326   463 net.cpp:160] Setting up block_5_2
I0402 12:22:08.233331   463 net.cpp:167] Top shape: 1 96 23 30 (66240)
I0402 12:22:08.233335   463 net.cpp:175] Memory required for data: 382268164
I0402 12:22:08.233340   463 layer_factory.hpp:93] Creating layer conv5_3/expand
I0402 12:22:08.233346   463 net.cpp:110] Creating Layer conv5_3/expand
I0402 12:22:08.233350   463 net.cpp:451] conv5_3/expand <- block_5_2
I0402 12:22:08.233355   463 net.cpp:425] conv5_3/expand -> conv5_3/expand
I0402 12:22:08.234033   463 net.cpp:160] Setting up conv5_3/expand
I0402 12:22:08.234041   463 net.cpp:167] Top shape: 1 576 23 30 (397440)
I0402 12:22:08.234046   463 net.cpp:175] Memory required for data: 383857924
I0402 12:22:08.234051   463 layer_factory.hpp:93] Creating layer conv5_3/expand/bn
I0402 12:22:08.234059   463 net.cpp:110] Creating Layer conv5_3/expand/bn
I0402 12:22:08.234064   463 net.cpp:451] conv5_3/expand/bn <- conv5_3/expand
I0402 12:22:08.234071   463 net.cpp:425] conv5_3/expand/bn -> conv5_3/expand/bn
I0402 12:22:08.234668   463 net.cpp:160] Setting up conv5_3/expand/bn
I0402 12:22:08.234676   463 net.cpp:167] Top shape: 1 576 23 30 (397440)
I0402 12:22:08.234681   463 net.cpp:175] Memory required for data: 385447684
I0402 12:22:08.234689   463 layer_factory.hpp:93] Creating layer relu5_3/expand
I0402 12:22:08.234699   463 net.cpp:110] Creating Layer relu5_3/expand
I0402 12:22:08.234704   463 net.cpp:451] relu5_3/expand <- conv5_3/expand/bn
I0402 12:22:08.234709   463 net.cpp:412] relu5_3/expand -> conv5_3/expand/bn (in-place)
I0402 12:22:08.234715   463 net.cpp:160] Setting up relu5_3/expand
I0402 12:22:08.234719   463 net.cpp:167] Top shape: 1 576 23 30 (397440)
I0402 12:22:08.234724   463 net.cpp:175] Memory required for data: 387037444
I0402 12:22:08.234727   463 layer_factory.hpp:93] Creating layer conv5_3/expand/bn_relu5_3/expand_0_split
I0402 12:22:08.234732   463 net.cpp:110] Creating Layer conv5_3/expand/bn_relu5_3/expand_0_split
I0402 12:22:08.234736   463 net.cpp:451] conv5_3/expand/bn_relu5_3/expand_0_split <- conv5_3/expand/bn
I0402 12:22:08.234741   463 net.cpp:425] conv5_3/expand/bn_relu5_3/expand_0_split -> conv5_3/expand/bn_relu5_3/expand_0_split_0
I0402 12:22:08.234747   463 net.cpp:425] conv5_3/expand/bn_relu5_3/expand_0_split -> conv5_3/expand/bn_relu5_3/expand_0_split_1
I0402 12:22:08.234752   463 net.cpp:425] conv5_3/expand/bn_relu5_3/expand_0_split -> conv5_3/expand/bn_relu5_3/expand_0_split_2
I0402 12:22:08.234757   463 net.cpp:425] conv5_3/expand/bn_relu5_3/expand_0_split -> conv5_3/expand/bn_relu5_3/expand_0_split_3
I0402 12:22:08.234808   463 net.cpp:160] Setting up conv5_3/expand/bn_relu5_3/expand_0_split
I0402 12:22:08.234814   463 net.cpp:167] Top shape: 1 576 23 30 (397440)
I0402 12:22:08.234818   463 net.cpp:167] Top shape: 1 576 23 30 (397440)
I0402 12:22:08.234823   463 net.cpp:167] Top shape: 1 576 23 30 (397440)
I0402 12:22:08.234827   463 net.cpp:167] Top shape: 1 576 23 30 (397440)
I0402 12:22:08.234831   463 net.cpp:175] Memory required for data: 393396484
I0402 12:22:08.234835   463 layer_factory.hpp:93] Creating layer conv5_3/dwise
I0402 12:22:08.234843   463 net.cpp:110] Creating Layer conv5_3/dwise
I0402 12:22:08.234846   463 net.cpp:451] conv5_3/dwise <- conv5_3/expand/bn_relu5_3/expand_0_split_0
I0402 12:22:08.234851   463 net.cpp:425] conv5_3/dwise -> conv5_3/dwise
I0402 12:22:08.235069   463 net.cpp:160] Setting up conv5_3/dwise
I0402 12:22:08.235075   463 net.cpp:167] Top shape: 1 576 12 15 (103680)
I0402 12:22:08.235080   463 net.cpp:175] Memory required for data: 393811204
I0402 12:22:08.235085   463 layer_factory.hpp:93] Creating layer conv5_3/dwise/bn
I0402 12:22:08.235092   463 net.cpp:110] Creating Layer conv5_3/dwise/bn
I0402 12:22:08.235096   463 net.cpp:451] conv5_3/dwise/bn <- conv5_3/dwise
I0402 12:22:08.235102   463 net.cpp:425] conv5_3/dwise/bn -> conv5_3/dwise/bn
I0402 12:22:08.235689   463 net.cpp:160] Setting up conv5_3/dwise/bn
I0402 12:22:08.235697   463 net.cpp:167] Top shape: 1 576 12 15 (103680)
I0402 12:22:08.235702   463 net.cpp:175] Memory required for data: 394225924
I0402 12:22:08.235711   463 layer_factory.hpp:93] Creating layer relu5_3/dwise
I0402 12:22:08.235716   463 net.cpp:110] Creating Layer relu5_3/dwise
I0402 12:22:08.235720   463 net.cpp:451] relu5_3/dwise <- conv5_3/dwise/bn
I0402 12:22:08.235725   463 net.cpp:412] relu5_3/dwise -> conv5_3/dwise/bn (in-place)
I0402 12:22:08.235731   463 net.cpp:160] Setting up relu5_3/dwise
I0402 12:22:08.235735   463 net.cpp:167] Top shape: 1 576 12 15 (103680)
I0402 12:22:08.235739   463 net.cpp:175] Memory required for data: 394640644
I0402 12:22:08.235743   463 layer_factory.hpp:93] Creating layer conv5_3/linear
I0402 12:22:08.235749   463 net.cpp:110] Creating Layer conv5_3/linear
I0402 12:22:08.235752   463 net.cpp:451] conv5_3/linear <- conv5_3/dwise/bn
I0402 12:22:08.235759   463 net.cpp:425] conv5_3/linear -> conv5_3/linear
I0402 12:22:08.236779   463 net.cpp:160] Setting up conv5_3/linear
I0402 12:22:08.236788   463 net.cpp:167] Top shape: 1 160 12 15 (28800)
I0402 12:22:08.236793   463 net.cpp:175] Memory required for data: 394755844
I0402 12:22:08.236799   463 layer_factory.hpp:93] Creating layer conv5_3/linear/bn
I0402 12:22:08.236805   463 net.cpp:110] Creating Layer conv5_3/linear/bn
I0402 12:22:08.236809   463 net.cpp:451] conv5_3/linear/bn <- conv5_3/linear
I0402 12:22:08.236815   463 net.cpp:425] conv5_3/linear/bn -> conv5_3/linear/bn
I0402 12:22:08.237407   463 net.cpp:160] Setting up conv5_3/linear/bn
I0402 12:22:08.237416   463 net.cpp:167] Top shape: 1 160 12 15 (28800)
I0402 12:22:08.237421   463 net.cpp:175] Memory required for data: 394871044
I0402 12:22:08.237437   463 layer_factory.hpp:93] Creating layer conv5_3/linear/bn_conv5_3/linear/bn_0_split
I0402 12:22:08.237442   463 net.cpp:110] Creating Layer conv5_3/linear/bn_conv5_3/linear/bn_0_split
I0402 12:22:08.237447   463 net.cpp:451] conv5_3/linear/bn_conv5_3/linear/bn_0_split <- conv5_3/linear/bn
I0402 12:22:08.237452   463 net.cpp:425] conv5_3/linear/bn_conv5_3/linear/bn_0_split -> conv5_3/linear/bn_conv5_3/linear/bn_0_split_0
I0402 12:22:08.237458   463 net.cpp:425] conv5_3/linear/bn_conv5_3/linear/bn_0_split -> conv5_3/linear/bn_conv5_3/linear/bn_0_split_1
I0402 12:22:08.237488   463 net.cpp:160] Setting up conv5_3/linear/bn_conv5_3/linear/bn_0_split
I0402 12:22:08.237494   463 net.cpp:167] Top shape: 1 160 12 15 (28800)
I0402 12:22:08.237499   463 net.cpp:167] Top shape: 1 160 12 15 (28800)
I0402 12:22:08.237504   463 net.cpp:175] Memory required for data: 395101444
I0402 12:22:08.237507   463 layer_factory.hpp:93] Creating layer conv6_1/expand
I0402 12:22:08.237515   463 net.cpp:110] Creating Layer conv6_1/expand
I0402 12:22:08.237519   463 net.cpp:451] conv6_1/expand <- conv5_3/linear/bn_conv5_3/linear/bn_0_split_0
I0402 12:22:08.237524   463 net.cpp:425] conv6_1/expand -> conv6_1/expand
I0402 12:22:08.239998   463 net.cpp:160] Setting up conv6_1/expand
I0402 12:22:08.240008   463 net.cpp:167] Top shape: 1 960 12 15 (172800)
I0402 12:22:08.240015   463 net.cpp:175] Memory required for data: 395792644
I0402 12:22:08.240020   463 layer_factory.hpp:93] Creating layer conv6_1/expand/bn
I0402 12:22:08.240029   463 net.cpp:110] Creating Layer conv6_1/expand/bn
I0402 12:22:08.240033   463 net.cpp:451] conv6_1/expand/bn <- conv6_1/expand
I0402 12:22:08.240039   463 net.cpp:425] conv6_1/expand/bn -> conv6_1/expand/bn
I0402 12:22:08.240945   463 net.cpp:160] Setting up conv6_1/expand/bn
I0402 12:22:08.240954   463 net.cpp:167] Top shape: 1 960 12 15 (172800)
I0402 12:22:08.240959   463 net.cpp:175] Memory required for data: 396483844
I0402 12:22:08.240968   463 layer_factory.hpp:93] Creating layer relu6_1/expand
I0402 12:22:08.240974   463 net.cpp:110] Creating Layer relu6_1/expand
I0402 12:22:08.240978   463 net.cpp:451] relu6_1/expand <- conv6_1/expand/bn
I0402 12:22:08.240983   463 net.cpp:412] relu6_1/expand -> conv6_1/expand/bn (in-place)
I0402 12:22:08.240990   463 net.cpp:160] Setting up relu6_1/expand
I0402 12:22:08.240994   463 net.cpp:167] Top shape: 1 960 12 15 (172800)
I0402 12:22:08.240998   463 net.cpp:175] Memory required for data: 397175044
I0402 12:22:08.241001   463 layer_factory.hpp:93] Creating layer conv6_1/dwise
I0402 12:22:08.241008   463 net.cpp:110] Creating Layer conv6_1/dwise
I0402 12:22:08.241012   463 net.cpp:451] conv6_1/dwise <- conv6_1/expand/bn
I0402 12:22:08.241017   463 net.cpp:425] conv6_1/dwise -> conv6_1/dwise
I0402 12:22:08.241273   463 net.cpp:160] Setting up conv6_1/dwise
I0402 12:22:08.241281   463 net.cpp:167] Top shape: 1 960 12 15 (172800)
I0402 12:22:08.241286   463 net.cpp:175] Memory required for data: 397866244
I0402 12:22:08.241291   463 layer_factory.hpp:93] Creating layer conv6_1/dwise/bn
I0402 12:22:08.241299   463 net.cpp:110] Creating Layer conv6_1/dwise/bn
I0402 12:22:08.241303   463 net.cpp:451] conv6_1/dwise/bn <- conv6_1/dwise
I0402 12:22:08.241309   463 net.cpp:425] conv6_1/dwise/bn -> conv6_1/dwise/bn
I0402 12:22:08.241902   463 net.cpp:160] Setting up conv6_1/dwise/bn
I0402 12:22:08.241910   463 net.cpp:167] Top shape: 1 960 12 15 (172800)
I0402 12:22:08.241915   463 net.cpp:175] Memory required for data: 398557444
I0402 12:22:08.241923   463 layer_factory.hpp:93] Creating layer relu6_1/dwise
I0402 12:22:08.241930   463 net.cpp:110] Creating Layer relu6_1/dwise
I0402 12:22:08.241933   463 net.cpp:451] relu6_1/dwise <- conv6_1/dwise/bn
I0402 12:22:08.241938   463 net.cpp:412] relu6_1/dwise -> conv6_1/dwise/bn (in-place)
I0402 12:22:08.241945   463 net.cpp:160] Setting up relu6_1/dwise
I0402 12:22:08.241947   463 net.cpp:167] Top shape: 1 960 12 15 (172800)
I0402 12:22:08.241952   463 net.cpp:175] Memory required for data: 399248644
I0402 12:22:08.241955   463 layer_factory.hpp:93] Creating layer conv6_1/linear
I0402 12:22:08.241961   463 net.cpp:110] Creating Layer conv6_1/linear
I0402 12:22:08.241966   463 net.cpp:451] conv6_1/linear <- conv6_1/dwise/bn
I0402 12:22:08.241971   463 net.cpp:425] conv6_1/linear -> conv6_1/linear
I0402 12:22:08.244228   463 net.cpp:160] Setting up conv6_1/linear
I0402 12:22:08.244240   463 net.cpp:167] Top shape: 1 160 12 15 (28800)
I0402 12:22:08.244246   463 net.cpp:175] Memory required for data: 399363844
I0402 12:22:08.244252   463 layer_factory.hpp:93] Creating layer conv6_1/linear/bn
I0402 12:22:08.244261   463 net.cpp:110] Creating Layer conv6_1/linear/bn
I0402 12:22:08.244264   463 net.cpp:451] conv6_1/linear/bn <- conv6_1/linear
I0402 12:22:08.244271   463 net.cpp:425] conv6_1/linear/bn -> conv6_1/linear/bn
I0402 12:22:08.244895   463 net.cpp:160] Setting up conv6_1/linear/bn
I0402 12:22:08.244904   463 net.cpp:167] Top shape: 1 160 12 15 (28800)
I0402 12:22:08.244910   463 net.cpp:175] Memory required for data: 399479044
I0402 12:22:08.244920   463 layer_factory.hpp:93] Creating layer block_6_1
I0402 12:22:08.244925   463 net.cpp:110] Creating Layer block_6_1
I0402 12:22:08.244930   463 net.cpp:451] block_6_1 <- conv5_3/linear/bn_conv5_3/linear/bn_0_split_1
I0402 12:22:08.244935   463 net.cpp:451] block_6_1 <- conv6_1/linear/bn
I0402 12:22:08.244940   463 net.cpp:425] block_6_1 -> block_6_1
I0402 12:22:08.244961   463 net.cpp:160] Setting up block_6_1
I0402 12:22:08.244966   463 net.cpp:167] Top shape: 1 160 12 15 (28800)
I0402 12:22:08.244971   463 net.cpp:175] Memory required for data: 399594244
I0402 12:22:08.244973   463 layer_factory.hpp:93] Creating layer block_6_1_block_6_1_0_split
I0402 12:22:08.244978   463 net.cpp:110] Creating Layer block_6_1_block_6_1_0_split
I0402 12:22:08.244982   463 net.cpp:451] block_6_1_block_6_1_0_split <- block_6_1
I0402 12:22:08.244987   463 net.cpp:425] block_6_1_block_6_1_0_split -> block_6_1_block_6_1_0_split_0
I0402 12:22:08.244993   463 net.cpp:425] block_6_1_block_6_1_0_split -> block_6_1_block_6_1_0_split_1
I0402 12:22:08.245023   463 net.cpp:160] Setting up block_6_1_block_6_1_0_split
I0402 12:22:08.245028   463 net.cpp:167] Top shape: 1 160 12 15 (28800)
I0402 12:22:08.245033   463 net.cpp:167] Top shape: 1 160 12 15 (28800)
I0402 12:22:08.245038   463 net.cpp:175] Memory required for data: 399824644
I0402 12:22:08.245041   463 layer_factory.hpp:93] Creating layer conv6_2/expand
I0402 12:22:08.245048   463 net.cpp:110] Creating Layer conv6_2/expand
I0402 12:22:08.245052   463 net.cpp:451] conv6_2/expand <- block_6_1_block_6_1_0_split_0
I0402 12:22:08.245057   463 net.cpp:425] conv6_2/expand -> conv6_2/expand
I0402 12:22:08.246647   463 net.cpp:160] Setting up conv6_2/expand
I0402 12:22:08.246656   463 net.cpp:167] Top shape: 1 960 12 15 (172800)
I0402 12:22:08.246662   463 net.cpp:175] Memory required for data: 400515844
I0402 12:22:08.246667   463 layer_factory.hpp:93] Creating layer conv6_2/expand/bn
I0402 12:22:08.246675   463 net.cpp:110] Creating Layer conv6_2/expand/bn
I0402 12:22:08.246680   463 net.cpp:451] conv6_2/expand/bn <- conv6_2/expand
I0402 12:22:08.246685   463 net.cpp:425] conv6_2/expand/bn -> conv6_2/expand/bn
I0402 12:22:08.247431   463 net.cpp:160] Setting up conv6_2/expand/bn
I0402 12:22:08.247437   463 net.cpp:167] Top shape: 1 960 12 15 (172800)
I0402 12:22:08.247443   463 net.cpp:175] Memory required for data: 401207044
I0402 12:22:08.247452   463 layer_factory.hpp:93] Creating layer relu6_2/expand
I0402 12:22:08.247457   463 net.cpp:110] Creating Layer relu6_2/expand
I0402 12:22:08.247462   463 net.cpp:451] relu6_2/expand <- conv6_2/expand/bn
I0402 12:22:08.247467   463 net.cpp:412] relu6_2/expand -> conv6_2/expand/bn (in-place)
I0402 12:22:08.247474   463 net.cpp:160] Setting up relu6_2/expand
I0402 12:22:08.247478   463 net.cpp:167] Top shape: 1 960 12 15 (172800)
I0402 12:22:08.247483   463 net.cpp:175] Memory required for data: 401898244
I0402 12:22:08.247485   463 layer_factory.hpp:93] Creating layer conv6_2/dwise
I0402 12:22:08.247493   463 net.cpp:110] Creating Layer conv6_2/dwise
I0402 12:22:08.247496   463 net.cpp:451] conv6_2/dwise <- conv6_2/expand/bn
I0402 12:22:08.247501   463 net.cpp:425] conv6_2/dwise -> conv6_2/dwise
I0402 12:22:08.247761   463 net.cpp:160] Setting up conv6_2/dwise
I0402 12:22:08.247768   463 net.cpp:167] Top shape: 1 960 12 15 (172800)
I0402 12:22:08.247773   463 net.cpp:175] Memory required for data: 402589444
I0402 12:22:08.247778   463 layer_factory.hpp:93] Creating layer conv6_2/dwise/bn
I0402 12:22:08.247786   463 net.cpp:110] Creating Layer conv6_2/dwise/bn
I0402 12:22:08.247789   463 net.cpp:451] conv6_2/dwise/bn <- conv6_2/dwise
I0402 12:22:08.247795   463 net.cpp:425] conv6_2/dwise/bn -> conv6_2/dwise/bn
I0402 12:22:08.248399   463 net.cpp:160] Setting up conv6_2/dwise/bn
I0402 12:22:08.248407   463 net.cpp:167] Top shape: 1 960 12 15 (172800)
I0402 12:22:08.248414   463 net.cpp:175] Memory required for data: 403280644
I0402 12:22:08.248421   463 layer_factory.hpp:93] Creating layer relu6_2/dwise
I0402 12:22:08.248427   463 net.cpp:110] Creating Layer relu6_2/dwise
I0402 12:22:08.248430   463 net.cpp:451] relu6_2/dwise <- conv6_2/dwise/bn
I0402 12:22:08.248435   463 net.cpp:412] relu6_2/dwise -> conv6_2/dwise/bn (in-place)
I0402 12:22:08.248442   463 net.cpp:160] Setting up relu6_2/dwise
I0402 12:22:08.248445   463 net.cpp:167] Top shape: 1 960 12 15 (172800)
I0402 12:22:08.248450   463 net.cpp:175] Memory required for data: 403971844
I0402 12:22:08.248453   463 layer_factory.hpp:93] Creating layer conv6_2/linear
I0402 12:22:08.248459   463 net.cpp:110] Creating Layer conv6_2/linear
I0402 12:22:08.248463   463 net.cpp:451] conv6_2/linear <- conv6_2/dwise/bn
I0402 12:22:08.248468   463 net.cpp:425] conv6_2/linear -> conv6_2/linear
I0402 12:22:08.250739   463 net.cpp:160] Setting up conv6_2/linear
I0402 12:22:08.250751   463 net.cpp:167] Top shape: 1 160 12 15 (28800)
I0402 12:22:08.250756   463 net.cpp:175] Memory required for data: 404087044
I0402 12:22:08.250762   463 layer_factory.hpp:93] Creating layer conv6_2/linear/bn
I0402 12:22:08.250771   463 net.cpp:110] Creating Layer conv6_2/linear/bn
I0402 12:22:08.250775   463 net.cpp:451] conv6_2/linear/bn <- conv6_2/linear
I0402 12:22:08.250782   463 net.cpp:425] conv6_2/linear/bn -> conv6_2/linear/bn
I0402 12:22:08.251392   463 net.cpp:160] Setting up conv6_2/linear/bn
I0402 12:22:08.251400   463 net.cpp:167] Top shape: 1 160 12 15 (28800)
I0402 12:22:08.251406   463 net.cpp:175] Memory required for data: 404202244
I0402 12:22:08.251415   463 layer_factory.hpp:93] Creating layer block_6_2
I0402 12:22:08.251420   463 net.cpp:110] Creating Layer block_6_2
I0402 12:22:08.251425   463 net.cpp:451] block_6_2 <- block_6_1_block_6_1_0_split_1
I0402 12:22:08.251430   463 net.cpp:451] block_6_2 <- conv6_2/linear/bn
I0402 12:22:08.251435   463 net.cpp:425] block_6_2 -> block_6_2
I0402 12:22:08.251456   463 net.cpp:160] Setting up block_6_2
I0402 12:22:08.251459   463 net.cpp:167] Top shape: 1 160 12 15 (28800)
I0402 12:22:08.251464   463 net.cpp:175] Memory required for data: 404317444
I0402 12:22:08.251468   463 layer_factory.hpp:93] Creating layer conv6_3/expand
I0402 12:22:08.251474   463 net.cpp:110] Creating Layer conv6_3/expand
I0402 12:22:08.251478   463 net.cpp:451] conv6_3/expand <- block_6_2
I0402 12:22:08.251484   463 net.cpp:425] conv6_3/expand -> conv6_3/expand
I0402 12:22:08.253955   463 net.cpp:160] Setting up conv6_3/expand
I0402 12:22:08.253968   463 net.cpp:167] Top shape: 1 960 12 15 (172800)
I0402 12:22:08.253973   463 net.cpp:175] Memory required for data: 405008644
I0402 12:22:08.253979   463 layer_factory.hpp:93] Creating layer conv6_3/expand/bn
I0402 12:22:08.253988   463 net.cpp:110] Creating Layer conv6_3/expand/bn
I0402 12:22:08.253993   463 net.cpp:451] conv6_3/expand/bn <- conv6_3/expand
I0402 12:22:08.253998   463 net.cpp:425] conv6_3/expand/bn -> conv6_3/expand/bn
I0402 12:22:08.254613   463 net.cpp:160] Setting up conv6_3/expand/bn
I0402 12:22:08.254621   463 net.cpp:167] Top shape: 1 960 12 15 (172800)
I0402 12:22:08.254627   463 net.cpp:175] Memory required for data: 405699844
I0402 12:22:08.254635   463 layer_factory.hpp:93] Creating layer relu6_3/expand
I0402 12:22:08.254642   463 net.cpp:110] Creating Layer relu6_3/expand
I0402 12:22:08.254645   463 net.cpp:451] relu6_3/expand <- conv6_3/expand/bn
I0402 12:22:08.254650   463 net.cpp:412] relu6_3/expand -> conv6_3/expand/bn (in-place)
I0402 12:22:08.254657   463 net.cpp:160] Setting up relu6_3/expand
I0402 12:22:08.254660   463 net.cpp:167] Top shape: 1 960 12 15 (172800)
I0402 12:22:08.254664   463 net.cpp:175] Memory required for data: 406391044
I0402 12:22:08.254668   463 layer_factory.hpp:93] Creating layer conv6_3/dwise
I0402 12:22:08.254675   463 net.cpp:110] Creating Layer conv6_3/dwise
I0402 12:22:08.254678   463 net.cpp:451] conv6_3/dwise <- conv6_3/expand/bn
I0402 12:22:08.254683   463 net.cpp:425] conv6_3/dwise -> conv6_3/dwise
I0402 12:22:08.254943   463 net.cpp:160] Setting up conv6_3/dwise
I0402 12:22:08.254951   463 net.cpp:167] Top shape: 1 960 12 15 (172800)
I0402 12:22:08.254956   463 net.cpp:175] Memory required for data: 407082244
I0402 12:22:08.254962   463 layer_factory.hpp:93] Creating layer conv6_3/dwise/bn
I0402 12:22:08.254969   463 net.cpp:110] Creating Layer conv6_3/dwise/bn
I0402 12:22:08.254973   463 net.cpp:451] conv6_3/dwise/bn <- conv6_3/dwise
I0402 12:22:08.254979   463 net.cpp:425] conv6_3/dwise/bn -> conv6_3/dwise/bn
I0402 12:22:08.255582   463 net.cpp:160] Setting up conv6_3/dwise/bn
I0402 12:22:08.255590   463 net.cpp:167] Top shape: 1 960 12 15 (172800)
I0402 12:22:08.255595   463 net.cpp:175] Memory required for data: 407773444
I0402 12:22:08.255604   463 layer_factory.hpp:93] Creating layer relu6_3/dwise
I0402 12:22:08.255609   463 net.cpp:110] Creating Layer relu6_3/dwise
I0402 12:22:08.255614   463 net.cpp:451] relu6_3/dwise <- conv6_3/dwise/bn
I0402 12:22:08.255618   463 net.cpp:412] relu6_3/dwise -> conv6_3/dwise/bn (in-place)
I0402 12:22:08.255625   463 net.cpp:160] Setting up relu6_3/dwise
I0402 12:22:08.255628   463 net.cpp:167] Top shape: 1 960 12 15 (172800)
I0402 12:22:08.255632   463 net.cpp:175] Memory required for data: 408464644
I0402 12:22:08.255636   463 layer_factory.hpp:93] Creating layer conv6_3/linear
I0402 12:22:08.255643   463 net.cpp:110] Creating Layer conv6_3/linear
I0402 12:22:08.255646   463 net.cpp:451] conv6_3/linear <- conv6_3/dwise/bn
I0402 12:22:08.255652   463 net.cpp:425] conv6_3/linear -> conv6_3/linear
I0402 12:22:08.259310   463 net.cpp:160] Setting up conv6_3/linear
I0402 12:22:08.259321   463 net.cpp:167] Top shape: 1 320 12 15 (57600)
I0402 12:22:08.259327   463 net.cpp:175] Memory required for data: 408695044
I0402 12:22:08.259333   463 layer_factory.hpp:93] Creating layer conv6_3/linear/bn
I0402 12:22:08.259341   463 net.cpp:110] Creating Layer conv6_3/linear/bn
I0402 12:22:08.259346   463 net.cpp:451] conv6_3/linear/bn <- conv6_3/linear
I0402 12:22:08.259353   463 net.cpp:425] conv6_3/linear/bn -> conv6_3/linear/bn
I0402 12:22:08.260066   463 net.cpp:160] Setting up conv6_3/linear/bn
I0402 12:22:08.260072   463 net.cpp:167] Top shape: 1 320 12 15 (57600)
I0402 12:22:08.260077   463 net.cpp:175] Memory required for data: 408925444
I0402 12:22:08.260087   463 layer_factory.hpp:93] Creating layer conv6_4
I0402 12:22:08.260094   463 net.cpp:110] Creating Layer conv6_4
I0402 12:22:08.260098   463 net.cpp:451] conv6_4 <- conv6_3/linear/bn
I0402 12:22:08.260104   463 net.cpp:425] conv6_4 -> conv6_4
I0402 12:22:08.265470   463 net.cpp:160] Setting up conv6_4
I0402 12:22:08.265481   463 net.cpp:167] Top shape: 1 1280 12 15 (230400)
I0402 12:22:08.265488   463 net.cpp:175] Memory required for data: 409847044
I0402 12:22:08.265494   463 layer_factory.hpp:93] Creating layer conv6_4/bn
I0402 12:22:08.265502   463 net.cpp:110] Creating Layer conv6_4/bn
I0402 12:22:08.265506   463 net.cpp:451] conv6_4/bn <- conv6_4
I0402 12:22:08.265512   463 net.cpp:425] conv6_4/bn -> conv6_4/bn
I0402 12:22:08.266038   463 net.cpp:160] Setting up conv6_4/bn
I0402 12:22:08.266047   463 net.cpp:167] Top shape: 1 1280 12 15 (230400)
I0402 12:22:08.266052   463 net.cpp:175] Memory required for data: 410768644
I0402 12:22:08.266062   463 layer_factory.hpp:93] Creating layer relu7
I0402 12:22:08.266067   463 net.cpp:110] Creating Layer relu7
I0402 12:22:08.266070   463 net.cpp:451] relu7 <- conv6_4/bn
I0402 12:22:08.266075   463 net.cpp:425] relu7 -> fc7
I0402 12:22:08.266099   463 net.cpp:160] Setting up relu7
I0402 12:22:08.266103   463 net.cpp:167] Top shape: 1 1280 12 15 (230400)
I0402 12:22:08.266108   463 net.cpp:175] Memory required for data: 411690244
I0402 12:22:08.266113   463 layer_factory.hpp:93] Creating layer fc7_relu7_0_split
I0402 12:22:08.266117   463 net.cpp:110] Creating Layer fc7_relu7_0_split
I0402 12:22:08.266121   463 net.cpp:451] fc7_relu7_0_split <- fc7
I0402 12:22:08.266126   463 net.cpp:425] fc7_relu7_0_split -> fc7_relu7_0_split_0
I0402 12:22:08.266132   463 net.cpp:425] fc7_relu7_0_split -> fc7_relu7_0_split_1
I0402 12:22:08.266137   463 net.cpp:425] fc7_relu7_0_split -> fc7_relu7_0_split_2
I0402 12:22:08.266144   463 net.cpp:425] fc7_relu7_0_split -> fc7_relu7_0_split_3
I0402 12:22:08.266192   463 net.cpp:160] Setting up fc7_relu7_0_split
I0402 12:22:08.266198   463 net.cpp:167] Top shape: 1 1280 12 15 (230400)
I0402 12:22:08.266203   463 net.cpp:167] Top shape: 1 1280 12 15 (230400)
I0402 12:22:08.266207   463 net.cpp:167] Top shape: 1 1280 12 15 (230400)
I0402 12:22:08.266211   463 net.cpp:167] Top shape: 1 1280 12 15 (230400)
I0402 12:22:08.266216   463 net.cpp:175] Memory required for data: 415376644
I0402 12:22:08.266219   463 layer_factory.hpp:93] Creating layer conv6_1
I0402 12:22:08.266228   463 net.cpp:110] Creating Layer conv6_1
I0402 12:22:08.266232   463 net.cpp:451] conv6_1 <- fc7_relu7_0_split_0
I0402 12:22:08.266237   463 net.cpp:425] conv6_1 -> conv6_1
I0402 12:22:08.269735   463 net.cpp:160] Setting up conv6_1
I0402 12:22:08.269747   463 net.cpp:167] Top shape: 1 256 12 15 (46080)
I0402 12:22:08.269753   463 net.cpp:175] Memory required for data: 415560964
I0402 12:22:08.269760   463 layer_factory.hpp:93] Creating layer conv6_1_bn
I0402 12:22:08.269768   463 net.cpp:110] Creating Layer conv6_1_bn
I0402 12:22:08.269773   463 net.cpp:451] conv6_1_bn <- conv6_1
I0402 12:22:08.269779   463 net.cpp:412] conv6_1_bn -> conv6_1 (in-place)
I0402 12:22:08.270328   463 net.cpp:160] Setting up conv6_1_bn
I0402 12:22:08.270335   463 net.cpp:167] Top shape: 1 256 12 15 (46080)
I0402 12:22:08.270340   463 net.cpp:175] Memory required for data: 415745284
I0402 12:22:08.270349   463 layer_factory.hpp:93] Creating layer conv6_1_relu
I0402 12:22:08.270354   463 net.cpp:110] Creating Layer conv6_1_relu
I0402 12:22:08.270359   463 net.cpp:451] conv6_1_relu <- conv6_1
I0402 12:22:08.270364   463 net.cpp:412] conv6_1_relu -> conv6_1 (in-place)
I0402 12:22:08.270370   463 net.cpp:160] Setting up conv6_1_relu
I0402 12:22:08.270372   463 net.cpp:167] Top shape: 1 256 12 15 (46080)
I0402 12:22:08.270377   463 net.cpp:175] Memory required for data: 415929604
I0402 12:22:08.270380   463 layer_factory.hpp:93] Creating layer conv6_2
I0402 12:22:08.270388   463 net.cpp:110] Creating Layer conv6_2
I0402 12:22:08.270392   463 net.cpp:451] conv6_2 <- conv6_1
I0402 12:22:08.270397   463 net.cpp:425] conv6_2 -> conv6_2
I0402 12:22:08.280675   463 net.cpp:160] Setting up conv6_2
I0402 12:22:08.280689   463 net.cpp:167] Top shape: 1 512 6 8 (24576)
I0402 12:22:08.280695   463 net.cpp:175] Memory required for data: 416027908
I0402 12:22:08.280702   463 layer_factory.hpp:93] Creating layer conv6_2_bn
I0402 12:22:08.280710   463 net.cpp:110] Creating Layer conv6_2_bn
I0402 12:22:08.280715   463 net.cpp:451] conv6_2_bn <- conv6_2
I0402 12:22:08.280721   463 net.cpp:412] conv6_2_bn -> conv6_2 (in-place)
I0402 12:22:08.281271   463 net.cpp:160] Setting up conv6_2_bn
I0402 12:22:08.281280   463 net.cpp:167] Top shape: 1 512 6 8 (24576)
I0402 12:22:08.281284   463 net.cpp:175] Memory required for data: 416126212
I0402 12:22:08.281293   463 layer_factory.hpp:93] Creating layer conv6_2_relu
I0402 12:22:08.281298   463 net.cpp:110] Creating Layer conv6_2_relu
I0402 12:22:08.281302   463 net.cpp:451] conv6_2_relu <- conv6_2
I0402 12:22:08.281306   463 net.cpp:412] conv6_2_relu -> conv6_2 (in-place)
I0402 12:22:08.281313   463 net.cpp:160] Setting up conv6_2_relu
I0402 12:22:08.281316   463 net.cpp:167] Top shape: 1 512 6 8 (24576)
I0402 12:22:08.281320   463 net.cpp:175] Memory required for data: 416224516
I0402 12:22:08.281324   463 layer_factory.hpp:93] Creating layer conv6_2_conv6_2_relu_0_split
I0402 12:22:08.281329   463 net.cpp:110] Creating Layer conv6_2_conv6_2_relu_0_split
I0402 12:22:08.281333   463 net.cpp:451] conv6_2_conv6_2_relu_0_split <- conv6_2
I0402 12:22:08.281338   463 net.cpp:425] conv6_2_conv6_2_relu_0_split -> conv6_2_conv6_2_relu_0_split_0
I0402 12:22:08.281344   463 net.cpp:425] conv6_2_conv6_2_relu_0_split -> conv6_2_conv6_2_relu_0_split_1
I0402 12:22:08.281350   463 net.cpp:425] conv6_2_conv6_2_relu_0_split -> conv6_2_conv6_2_relu_0_split_2
I0402 12:22:08.281356   463 net.cpp:425] conv6_2_conv6_2_relu_0_split -> conv6_2_conv6_2_relu_0_split_3
I0402 12:22:08.281406   463 net.cpp:160] Setting up conv6_2_conv6_2_relu_0_split
I0402 12:22:08.281412   463 net.cpp:167] Top shape: 1 512 6 8 (24576)
I0402 12:22:08.281417   463 net.cpp:167] Top shape: 1 512 6 8 (24576)
I0402 12:22:08.281421   463 net.cpp:167] Top shape: 1 512 6 8 (24576)
I0402 12:22:08.281425   463 net.cpp:167] Top shape: 1 512 6 8 (24576)
I0402 12:22:08.281430   463 net.cpp:175] Memory required for data: 416617732
I0402 12:22:08.281433   463 layer_factory.hpp:93] Creating layer conv7_1
I0402 12:22:08.281441   463 net.cpp:110] Creating Layer conv7_1
I0402 12:22:08.281445   463 net.cpp:451] conv7_1 <- conv6_2_conv6_2_relu_0_split_0
I0402 12:22:08.281451   463 net.cpp:425] conv7_1 -> conv7_1
I0402 12:22:08.282094   463 net.cpp:160] Setting up conv7_1
I0402 12:22:08.282101   463 net.cpp:167] Top shape: 1 128 6 8 (6144)
I0402 12:22:08.282107   463 net.cpp:175] Memory required for data: 416642308
I0402 12:22:08.282114   463 layer_factory.hpp:93] Creating layer conv7_1_bn
I0402 12:22:08.282119   463 net.cpp:110] Creating Layer conv7_1_bn
I0402 12:22:08.282124   463 net.cpp:451] conv7_1_bn <- conv7_1
I0402 12:22:08.282130   463 net.cpp:412] conv7_1_bn -> conv7_1 (in-place)
I0402 12:22:08.282752   463 net.cpp:160] Setting up conv7_1_bn
I0402 12:22:08.282763   463 net.cpp:167] Top shape: 1 128 6 8 (6144)
I0402 12:22:08.282768   463 net.cpp:175] Memory required for data: 416666884
I0402 12:22:08.282778   463 layer_factory.hpp:93] Creating layer conv7_1_relu
I0402 12:22:08.282783   463 net.cpp:110] Creating Layer conv7_1_relu
I0402 12:22:08.282788   463 net.cpp:451] conv7_1_relu <- conv7_1
I0402 12:22:08.282793   463 net.cpp:412] conv7_1_relu -> conv7_1 (in-place)
I0402 12:22:08.282800   463 net.cpp:160] Setting up conv7_1_relu
I0402 12:22:08.282804   463 net.cpp:167] Top shape: 1 128 6 8 (6144)
I0402 12:22:08.282809   463 net.cpp:175] Memory required for data: 416691460
I0402 12:22:08.282811   463 layer_factory.hpp:93] Creating layer conv7_2
I0402 12:22:08.282819   463 net.cpp:110] Creating Layer conv7_2
I0402 12:22:08.282822   463 net.cpp:451] conv7_2 <- conv7_1
I0402 12:22:08.282829   463 net.cpp:425] conv7_2 -> conv7_2
I0402 12:22:08.286263   463 net.cpp:160] Setting up conv7_2
I0402 12:22:08.286278   463 net.cpp:167] Top shape: 1 256 3 4 (3072)
I0402 12:22:08.286288   463 net.cpp:175] Memory required for data: 416703748
I0402 12:22:08.286298   463 layer_factory.hpp:93] Creating layer conv7_2_bn
I0402 12:22:08.286309   463 net.cpp:110] Creating Layer conv7_2_bn
I0402 12:22:08.286315   463 net.cpp:451] conv7_2_bn <- conv7_2
I0402 12:22:08.286324   463 net.cpp:412] conv7_2_bn -> conv7_2 (in-place)
I0402 12:22:08.287232   463 net.cpp:160] Setting up conv7_2_bn
I0402 12:22:08.287245   463 net.cpp:167] Top shape: 1 256 3 4 (3072)
I0402 12:22:08.287250   463 net.cpp:175] Memory required for data: 416716036
I0402 12:22:08.287261   463 layer_factory.hpp:93] Creating layer conv7_2_relu
I0402 12:22:08.287266   463 net.cpp:110] Creating Layer conv7_2_relu
I0402 12:22:08.287271   463 net.cpp:451] conv7_2_relu <- conv7_2
I0402 12:22:08.287276   463 net.cpp:412] conv7_2_relu -> conv7_2 (in-place)
I0402 12:22:08.287283   463 net.cpp:160] Setting up conv7_2_relu
I0402 12:22:08.287287   463 net.cpp:167] Top shape: 1 256 3 4 (3072)
I0402 12:22:08.287292   463 net.cpp:175] Memory required for data: 416728324
I0402 12:22:08.287295   463 layer_factory.hpp:93] Creating layer conv7_2_conv7_2_relu_0_split
I0402 12:22:08.287300   463 net.cpp:110] Creating Layer conv7_2_conv7_2_relu_0_split
I0402 12:22:08.287303   463 net.cpp:451] conv7_2_conv7_2_relu_0_split <- conv7_2
I0402 12:22:08.287309   463 net.cpp:425] conv7_2_conv7_2_relu_0_split -> conv7_2_conv7_2_relu_0_split_0
I0402 12:22:08.287315   463 net.cpp:425] conv7_2_conv7_2_relu_0_split -> conv7_2_conv7_2_relu_0_split_1
I0402 12:22:08.287322   463 net.cpp:425] conv7_2_conv7_2_relu_0_split -> conv7_2_conv7_2_relu_0_split_2
I0402 12:22:08.287372   463 net.cpp:160] Setting up conv7_2_conv7_2_relu_0_split
I0402 12:22:08.287379   463 net.cpp:167] Top shape: 1 256 3 4 (3072)
I0402 12:22:08.287385   463 net.cpp:167] Top shape: 1 256 3 4 (3072)
I0402 12:22:08.287389   463 net.cpp:167] Top shape: 1 256 3 4 (3072)
I0402 12:22:08.287394   463 net.cpp:175] Memory required for data: 416765188
I0402 12:22:08.287397   463 layer_factory.hpp:93] Creating layer conv4_3_norm_mbox_loc
I0402 12:22:08.287411   463 net.cpp:110] Creating Layer conv4_3_norm_mbox_loc
I0402 12:22:08.287418   463 net.cpp:451] conv4_3_norm_mbox_loc <- conv4_7/expand/bn_relu4_7/expand_0_split_1
I0402 12:22:08.287425   463 net.cpp:425] conv4_3_norm_mbox_loc -> conv4_3_norm_mbox_loc
I0402 12:22:08.288372   463 net.cpp:160] Setting up conv4_3_norm_mbox_loc
I0402 12:22:08.288381   463 net.cpp:167] Top shape: 1 32 45 60 (86400)
I0402 12:22:08.288388   463 net.cpp:175] Memory required for data: 417110788
I0402 12:22:08.288393   463 layer_factory.hpp:93] Creating layer conv4_3_norm_mbox_loc_bn
I0402 12:22:08.288401   463 net.cpp:110] Creating Layer conv4_3_norm_mbox_loc_bn
I0402 12:22:08.288408   463 net.cpp:451] conv4_3_norm_mbox_loc_bn <- conv4_3_norm_mbox_loc
I0402 12:22:08.288416   463 net.cpp:412] conv4_3_norm_mbox_loc_bn -> conv4_3_norm_mbox_loc (in-place)
I0402 12:22:08.289068   463 net.cpp:160] Setting up conv4_3_norm_mbox_loc_bn
I0402 12:22:08.289077   463 net.cpp:167] Top shape: 1 32 45 60 (86400)
I0402 12:22:08.289083   463 net.cpp:175] Memory required for data: 417456388
I0402 12:22:08.289091   463 layer_factory.hpp:93] Creating layer conv4_3_norm_mbox_loc_perm
I0402 12:22:08.289104   463 net.cpp:110] Creating Layer conv4_3_norm_mbox_loc_perm
I0402 12:22:08.289108   463 net.cpp:451] conv4_3_norm_mbox_loc_perm <- conv4_3_norm_mbox_loc
I0402 12:22:08.289114   463 net.cpp:425] conv4_3_norm_mbox_loc_perm -> conv4_3_norm_mbox_loc_perm
I0402 12:22:08.289216   463 net.cpp:160] Setting up conv4_3_norm_mbox_loc_perm
I0402 12:22:08.289223   463 net.cpp:167] Top shape: 1 45 60 32 (86400)
I0402 12:22:08.289229   463 net.cpp:175] Memory required for data: 417801988
I0402 12:22:08.289232   463 layer_factory.hpp:93] Creating layer conv4_3_norm_mbox_loc_flat
I0402 12:22:08.289242   463 net.cpp:110] Creating Layer conv4_3_norm_mbox_loc_flat
I0402 12:22:08.289247   463 net.cpp:451] conv4_3_norm_mbox_loc_flat <- conv4_3_norm_mbox_loc_perm
I0402 12:22:08.289255   463 net.cpp:425] conv4_3_norm_mbox_loc_flat -> conv4_3_norm_mbox_loc_flat
I0402 12:22:08.289288   463 net.cpp:160] Setting up conv4_3_norm_mbox_loc_flat
I0402 12:22:08.289297   463 net.cpp:167] Top shape: 1 86400 (86400)
I0402 12:22:08.289302   463 net.cpp:175] Memory required for data: 418147588
I0402 12:22:08.289306   463 layer_factory.hpp:93] Creating layer conv4_3_norm_mbox_conf_new
I0402 12:22:08.289315   463 net.cpp:110] Creating Layer conv4_3_norm_mbox_conf_new
I0402 12:22:08.289319   463 net.cpp:451] conv4_3_norm_mbox_conf_new <- conv4_7/expand/bn_relu4_7/expand_0_split_2
I0402 12:22:08.289328   463 net.cpp:425] conv4_3_norm_mbox_conf_new -> conv4_3_norm_mbox_conf_new
I0402 12:22:08.294466   463 net.cpp:160] Setting up conv4_3_norm_mbox_conf_new
I0402 12:22:08.294479   463 net.cpp:167] Top shape: 1 168 45 60 (453600)
I0402 12:22:08.294486   463 net.cpp:175] Memory required for data: 419961988
I0402 12:22:08.294492   463 layer_factory.hpp:93] Creating layer conv4_3_norm_mbox_conf_bn
I0402 12:22:08.294500   463 net.cpp:110] Creating Layer conv4_3_norm_mbox_conf_bn
I0402 12:22:08.294505   463 net.cpp:451] conv4_3_norm_mbox_conf_bn <- conv4_3_norm_mbox_conf_new
I0402 12:22:08.294512   463 net.cpp:412] conv4_3_norm_mbox_conf_bn -> conv4_3_norm_mbox_conf_new (in-place)
I0402 12:22:08.295145   463 net.cpp:160] Setting up conv4_3_norm_mbox_conf_bn
I0402 12:22:08.295156   463 net.cpp:167] Top shape: 1 168 45 60 (453600)
I0402 12:22:08.295162   463 net.cpp:175] Memory required for data: 421776388
I0402 12:22:08.295171   463 layer_factory.hpp:93] Creating layer conv4_3_norm_mbox_conf_perm
I0402 12:22:08.295178   463 net.cpp:110] Creating Layer conv4_3_norm_mbox_conf_perm
I0402 12:22:08.295183   463 net.cpp:451] conv4_3_norm_mbox_conf_perm <- conv4_3_norm_mbox_conf_new
I0402 12:22:08.295189   463 net.cpp:425] conv4_3_norm_mbox_conf_perm -> conv4_3_norm_mbox_conf_perm
I0402 12:22:08.295284   463 net.cpp:160] Setting up conv4_3_norm_mbox_conf_perm
I0402 12:22:08.295291   463 net.cpp:167] Top shape: 1 45 60 168 (453600)
I0402 12:22:08.295296   463 net.cpp:175] Memory required for data: 423590788
I0402 12:22:08.295300   463 layer_factory.hpp:93] Creating layer conv4_3_norm_mbox_conf_flat
I0402 12:22:08.295305   463 net.cpp:110] Creating Layer conv4_3_norm_mbox_conf_flat
I0402 12:22:08.295310   463 net.cpp:451] conv4_3_norm_mbox_conf_flat <- conv4_3_norm_mbox_conf_perm
I0402 12:22:08.295318   463 net.cpp:425] conv4_3_norm_mbox_conf_flat -> conv4_3_norm_mbox_conf_flat
I0402 12:22:08.295347   463 net.cpp:160] Setting up conv4_3_norm_mbox_conf_flat
I0402 12:22:08.295357   463 net.cpp:167] Top shape: 1 453600 (453600)
I0402 12:22:08.295364   463 net.cpp:175] Memory required for data: 425405188
I0402 12:22:08.295368   463 layer_factory.hpp:93] Creating layer conv4_3_norm_mbox_priorbox
I0402 12:22:08.295377   463 net.cpp:110] Creating Layer conv4_3_norm_mbox_priorbox
I0402 12:22:08.295383   463 net.cpp:451] conv4_3_norm_mbox_priorbox <- conv4_7/expand/bn_relu4_7/expand_0_split_3
I0402 12:22:08.295390   463 net.cpp:451] conv4_3_norm_mbox_priorbox <- data_data_0_split_1
I0402 12:22:08.295399   463 net.cpp:425] conv4_3_norm_mbox_priorbox -> conv4_3_norm_mbox_priorbox
I0402 12:22:08.295433   463 net.cpp:160] Setting up conv4_3_norm_mbox_priorbox
I0402 12:22:08.295444   463 net.cpp:167] Top shape: 1 2 86400 (172800)
I0402 12:22:08.295449   463 net.cpp:175] Memory required for data: 426096388
I0402 12:22:08.295452   463 layer_factory.hpp:93] Creating layer fc7_mbox_loc
I0402 12:22:08.295461   463 net.cpp:110] Creating Layer fc7_mbox_loc
I0402 12:22:08.295466   463 net.cpp:451] fc7_mbox_loc <- conv5_3/expand/bn_relu5_3/expand_0_split_1
I0402 12:22:08.295475   463 net.cpp:425] fc7_mbox_loc -> fc7_mbox_loc
I0402 12:22:08.296499   463 net.cpp:160] Setting up fc7_mbox_loc
I0402 12:22:08.296507   463 net.cpp:167] Top shape: 1 24 23 30 (16560)
I0402 12:22:08.296514   463 net.cpp:175] Memory required for data: 426162628
I0402 12:22:08.296520   463 layer_factory.hpp:93] Creating layer fc7_mbox_loc_bn
I0402 12:22:08.296527   463 net.cpp:110] Creating Layer fc7_mbox_loc_bn
I0402 12:22:08.296532   463 net.cpp:451] fc7_mbox_loc_bn <- fc7_mbox_loc
I0402 12:22:08.296541   463 net.cpp:412] fc7_mbox_loc_bn -> fc7_mbox_loc (in-place)
I0402 12:22:08.297170   463 net.cpp:160] Setting up fc7_mbox_loc_bn
I0402 12:22:08.297179   463 net.cpp:167] Top shape: 1 24 23 30 (16560)
I0402 12:22:08.297184   463 net.cpp:175] Memory required for data: 426228868
I0402 12:22:08.297194   463 layer_factory.hpp:93] Creating layer fc7_mbox_loc_perm
I0402 12:22:08.297199   463 net.cpp:110] Creating Layer fc7_mbox_loc_perm
I0402 12:22:08.297204   463 net.cpp:451] fc7_mbox_loc_perm <- fc7_mbox_loc
I0402 12:22:08.297210   463 net.cpp:425] fc7_mbox_loc_perm -> fc7_mbox_loc_perm
I0402 12:22:08.297297   463 net.cpp:160] Setting up fc7_mbox_loc_perm
I0402 12:22:08.297307   463 net.cpp:167] Top shape: 1 23 30 24 (16560)
I0402 12:22:08.297313   463 net.cpp:175] Memory required for data: 426295108
I0402 12:22:08.297317   463 layer_factory.hpp:93] Creating layer fc7_mbox_loc_flat
I0402 12:22:08.297322   463 net.cpp:110] Creating Layer fc7_mbox_loc_flat
I0402 12:22:08.297327   463 net.cpp:451] fc7_mbox_loc_flat <- fc7_mbox_loc_perm
I0402 12:22:08.297335   463 net.cpp:425] fc7_mbox_loc_flat -> fc7_mbox_loc_flat
I0402 12:22:08.297364   463 net.cpp:160] Setting up fc7_mbox_loc_flat
I0402 12:22:08.297374   463 net.cpp:167] Top shape: 1 16560 (16560)
I0402 12:22:08.297379   463 net.cpp:175] Memory required for data: 426361348
I0402 12:22:08.297384   463 layer_factory.hpp:93] Creating layer fc7_mbox_conf_new
I0402 12:22:08.297391   463 net.cpp:110] Creating Layer fc7_mbox_conf_new
I0402 12:22:08.297396   463 net.cpp:451] fc7_mbox_conf_new <- conv5_3/expand/bn_relu5_3/expand_0_split_2
I0402 12:22:08.297405   463 net.cpp:425] fc7_mbox_conf_new -> fc7_mbox_conf_new
I0402 12:22:08.303057   463 net.cpp:160] Setting up fc7_mbox_conf_new
I0402 12:22:08.303071   463 net.cpp:167] Top shape: 1 126 23 30 (86940)
I0402 12:22:08.303076   463 net.cpp:175] Memory required for data: 426709108
I0402 12:22:08.303083   463 layer_factory.hpp:93] Creating layer fc7_mbox_conf_bn
I0402 12:22:08.303092   463 net.cpp:110] Creating Layer fc7_mbox_conf_bn
I0402 12:22:08.303097   463 net.cpp:451] fc7_mbox_conf_bn <- fc7_mbox_conf_new
I0402 12:22:08.303102   463 net.cpp:412] fc7_mbox_conf_bn -> fc7_mbox_conf_new (in-place)
I0402 12:22:08.303738   463 net.cpp:160] Setting up fc7_mbox_conf_bn
I0402 12:22:08.303747   463 net.cpp:167] Top shape: 1 126 23 30 (86940)
I0402 12:22:08.303753   463 net.cpp:175] Memory required for data: 427056868
I0402 12:22:08.303761   463 layer_factory.hpp:93] Creating layer fc7_mbox_conf_perm
I0402 12:22:08.303768   463 net.cpp:110] Creating Layer fc7_mbox_conf_perm
I0402 12:22:08.303772   463 net.cpp:451] fc7_mbox_conf_perm <- fc7_mbox_conf_new
I0402 12:22:08.303778   463 net.cpp:425] fc7_mbox_conf_perm -> fc7_mbox_conf_perm
I0402 12:22:08.303865   463 net.cpp:160] Setting up fc7_mbox_conf_perm
I0402 12:22:08.303874   463 net.cpp:167] Top shape: 1 23 30 126 (86940)
I0402 12:22:08.303879   463 net.cpp:175] Memory required for data: 427404628
I0402 12:22:08.303882   463 layer_factory.hpp:93] Creating layer fc7_mbox_conf_flat
I0402 12:22:08.303887   463 net.cpp:110] Creating Layer fc7_mbox_conf_flat
I0402 12:22:08.303892   463 net.cpp:451] fc7_mbox_conf_flat <- fc7_mbox_conf_perm
I0402 12:22:08.303900   463 net.cpp:425] fc7_mbox_conf_flat -> fc7_mbox_conf_flat
I0402 12:22:08.303927   463 net.cpp:160] Setting up fc7_mbox_conf_flat
I0402 12:22:08.303932   463 net.cpp:167] Top shape: 1 86940 (86940)
I0402 12:22:08.303939   463 net.cpp:175] Memory required for data: 427752388
I0402 12:22:08.303943   463 layer_factory.hpp:93] Creating layer fc7_mbox_priorbox
I0402 12:22:08.303952   463 net.cpp:110] Creating Layer fc7_mbox_priorbox
I0402 12:22:08.303959   463 net.cpp:451] fc7_mbox_priorbox <- conv5_3/expand/bn_relu5_3/expand_0_split_3
I0402 12:22:08.303964   463 net.cpp:451] fc7_mbox_priorbox <- data_data_0_split_2
I0402 12:22:08.303972   463 net.cpp:425] fc7_mbox_priorbox -> fc7_mbox_priorbox
I0402 12:22:08.303998   463 net.cpp:160] Setting up fc7_mbox_priorbox
I0402 12:22:08.304004   463 net.cpp:167] Top shape: 1 2 16560 (33120)
I0402 12:22:08.304009   463 net.cpp:175] Memory required for data: 427884868
I0402 12:22:08.304013   463 layer_factory.hpp:93] Creating layer conv6_2_mbox_loc
I0402 12:22:08.304024   463 net.cpp:110] Creating Layer conv6_2_mbox_loc
I0402 12:22:08.304029   463 net.cpp:451] conv6_2_mbox_loc <- fc7_relu7_0_split_1
I0402 12:22:08.304039   463 net.cpp:425] conv6_2_mbox_loc -> conv6_2_mbox_loc
I0402 12:22:08.307231   463 net.cpp:160] Setting up conv6_2_mbox_loc
I0402 12:22:08.307243   463 net.cpp:167] Top shape: 1 24 12 15 (4320)
I0402 12:22:08.307250   463 net.cpp:175] Memory required for data: 427902148
I0402 12:22:08.307255   463 layer_factory.hpp:93] Creating layer conv6_2_mbox_loc__bn
I0402 12:22:08.307265   463 net.cpp:110] Creating Layer conv6_2_mbox_loc__bn
I0402 12:22:08.307269   463 net.cpp:451] conv6_2_mbox_loc__bn <- conv6_2_mbox_loc
I0402 12:22:08.307276   463 net.cpp:412] conv6_2_mbox_loc__bn -> conv6_2_mbox_loc (in-place)
I0402 12:22:08.307914   463 net.cpp:160] Setting up conv6_2_mbox_loc__bn
I0402 12:22:08.307922   463 net.cpp:167] Top shape: 1 24 12 15 (4320)
I0402 12:22:08.307929   463 net.cpp:175] Memory required for data: 427919428
I0402 12:22:08.307936   463 layer_factory.hpp:93] Creating layer conv6_2_mbox_loc_perm
I0402 12:22:08.307943   463 net.cpp:110] Creating Layer conv6_2_mbox_loc_perm
I0402 12:22:08.307948   463 net.cpp:451] conv6_2_mbox_loc_perm <- conv6_2_mbox_loc
I0402 12:22:08.307955   463 net.cpp:425] conv6_2_mbox_loc_perm -> conv6_2_mbox_loc_perm
I0402 12:22:08.308051   463 net.cpp:160] Setting up conv6_2_mbox_loc_perm
I0402 12:22:08.308058   463 net.cpp:167] Top shape: 1 12 15 24 (4320)
I0402 12:22:08.308065   463 net.cpp:175] Memory required for data: 427936708
I0402 12:22:08.308068   463 layer_factory.hpp:93] Creating layer conv6_2_mbox_loc_flat
I0402 12:22:08.308074   463 net.cpp:110] Creating Layer conv6_2_mbox_loc_flat
I0402 12:22:08.308079   463 net.cpp:451] conv6_2_mbox_loc_flat <- conv6_2_mbox_loc_perm
I0402 12:22:08.308084   463 net.cpp:425] conv6_2_mbox_loc_flat -> conv6_2_mbox_loc_flat
I0402 12:22:08.308112   463 net.cpp:160] Setting up conv6_2_mbox_loc_flat
I0402 12:22:08.308118   463 net.cpp:167] Top shape: 1 4320 (4320)
I0402 12:22:08.308125   463 net.cpp:175] Memory required for data: 427953988
I0402 12:22:08.308130   463 layer_factory.hpp:93] Creating layer conv6_2_mbox_conf_new
I0402 12:22:08.308138   463 net.cpp:110] Creating Layer conv6_2_mbox_conf_new
I0402 12:22:08.308142   463 net.cpp:451] conv6_2_mbox_conf_new <- fc7_relu7_0_split_2
I0402 12:22:08.308148   463 net.cpp:425] conv6_2_mbox_conf_new -> conv6_2_mbox_conf_new
I0402 12:22:08.320076   463 net.cpp:160] Setting up conv6_2_mbox_conf_new
I0402 12:22:08.320089   463 net.cpp:167] Top shape: 1 126 12 15 (22680)
I0402 12:22:08.320096   463 net.cpp:175] Memory required for data: 428044708
I0402 12:22:08.320103   463 layer_factory.hpp:93] Creating layer conv6_2_mbox_conf_bn
I0402 12:22:08.320112   463 net.cpp:110] Creating Layer conv6_2_mbox_conf_bn
I0402 12:22:08.320117   463 net.cpp:451] conv6_2_mbox_conf_bn <- conv6_2_mbox_conf_new
I0402 12:22:08.320123   463 net.cpp:412] conv6_2_mbox_conf_bn -> conv6_2_mbox_conf_new (in-place)
I0402 12:22:08.320796   463 net.cpp:160] Setting up conv6_2_mbox_conf_bn
I0402 12:22:08.320806   463 net.cpp:167] Top shape: 1 126 12 15 (22680)
I0402 12:22:08.320811   463 net.cpp:175] Memory required for data: 428135428
I0402 12:22:08.320821   463 layer_factory.hpp:93] Creating layer conv6_2_mbox_conf_perm
I0402 12:22:08.320827   463 net.cpp:110] Creating Layer conv6_2_mbox_conf_perm
I0402 12:22:08.320832   463 net.cpp:451] conv6_2_mbox_conf_perm <- conv6_2_mbox_conf_new
I0402 12:22:08.320838   463 net.cpp:425] conv6_2_mbox_conf_perm -> conv6_2_mbox_conf_perm
I0402 12:22:08.320945   463 net.cpp:160] Setting up conv6_2_mbox_conf_perm
I0402 12:22:08.320952   463 net.cpp:167] Top shape: 1 12 15 126 (22680)
I0402 12:22:08.320957   463 net.cpp:175] Memory required for data: 428226148
I0402 12:22:08.320961   463 layer_factory.hpp:93] Creating layer conv6_2_mbox_conf_flat
I0402 12:22:08.320967   463 net.cpp:110] Creating Layer conv6_2_mbox_conf_flat
I0402 12:22:08.320971   463 net.cpp:451] conv6_2_mbox_conf_flat <- conv6_2_mbox_conf_perm
I0402 12:22:08.320977   463 net.cpp:425] conv6_2_mbox_conf_flat -> conv6_2_mbox_conf_flat
I0402 12:22:08.321008   463 net.cpp:160] Setting up conv6_2_mbox_conf_flat
I0402 12:22:08.321017   463 net.cpp:167] Top shape: 1 22680 (22680)
I0402 12:22:08.321023   463 net.cpp:175] Memory required for data: 428316868
I0402 12:22:08.321027   463 layer_factory.hpp:93] Creating layer conv6_2_mbox_priorbox
I0402 12:22:08.321034   463 net.cpp:110] Creating Layer conv6_2_mbox_priorbox
I0402 12:22:08.321038   463 net.cpp:451] conv6_2_mbox_priorbox <- fc7_relu7_0_split_3
I0402 12:22:08.321043   463 net.cpp:451] conv6_2_mbox_priorbox <- data_data_0_split_3
I0402 12:22:08.321050   463 net.cpp:425] conv6_2_mbox_priorbox -> conv6_2_mbox_priorbox
I0402 12:22:08.321084   463 net.cpp:160] Setting up conv6_2_mbox_priorbox
I0402 12:22:08.321092   463 net.cpp:167] Top shape: 1 2 4320 (8640)
I0402 12:22:08.321099   463 net.cpp:175] Memory required for data: 428351428
I0402 12:22:08.321102   463 layer_factory.hpp:93] Creating layer conv7_2_mbox_loc
I0402 12:22:08.321111   463 net.cpp:110] Creating Layer conv7_2_mbox_loc
I0402 12:22:08.321118   463 net.cpp:451] conv7_2_mbox_loc <- conv6_2_conv6_2_relu_0_split_1
I0402 12:22:08.321128   463 net.cpp:425] conv7_2_mbox_loc -> conv7_2_mbox_loc
I0402 12:22:08.322072   463 net.cpp:160] Setting up conv7_2_mbox_loc
I0402 12:22:08.322082   463 net.cpp:167] Top shape: 1 24 6 8 (1152)
I0402 12:22:08.322086   463 net.cpp:175] Memory required for data: 428356036
I0402 12:22:08.322093   463 layer_factory.hpp:93] Creating layer conv7_2_mbox_loc_bn
I0402 12:22:08.322101   463 net.cpp:110] Creating Layer conv7_2_mbox_loc_bn
I0402 12:22:08.322105   463 net.cpp:451] conv7_2_mbox_loc_bn <- conv7_2_mbox_loc
I0402 12:22:08.322111   463 net.cpp:412] conv7_2_mbox_loc_bn -> conv7_2_mbox_loc (in-place)
I0402 12:22:08.322757   463 net.cpp:160] Setting up conv7_2_mbox_loc_bn
I0402 12:22:08.322767   463 net.cpp:167] Top shape: 1 24 6 8 (1152)
I0402 12:22:08.322772   463 net.cpp:175] Memory required for data: 428360644
I0402 12:22:08.322780   463 layer_factory.hpp:93] Creating layer conv7_2_mbox_loc_perm
I0402 12:22:08.322787   463 net.cpp:110] Creating Layer conv7_2_mbox_loc_perm
I0402 12:22:08.322791   463 net.cpp:451] conv7_2_mbox_loc_perm <- conv7_2_mbox_loc
I0402 12:22:08.322796   463 net.cpp:425] conv7_2_mbox_loc_perm -> conv7_2_mbox_loc_perm
I0402 12:22:08.322890   463 net.cpp:160] Setting up conv7_2_mbox_loc_perm
I0402 12:22:08.322898   463 net.cpp:167] Top shape: 1 6 8 24 (1152)
I0402 12:22:08.322902   463 net.cpp:175] Memory required for data: 428365252
I0402 12:22:08.322906   463 layer_factory.hpp:93] Creating layer conv7_2_mbox_loc_flat
I0402 12:22:08.322911   463 net.cpp:110] Creating Layer conv7_2_mbox_loc_flat
I0402 12:22:08.322916   463 net.cpp:451] conv7_2_mbox_loc_flat <- conv7_2_mbox_loc_perm
I0402 12:22:08.322923   463 net.cpp:425] conv7_2_mbox_loc_flat -> conv7_2_mbox_loc_flat
I0402 12:22:08.322952   463 net.cpp:160] Setting up conv7_2_mbox_loc_flat
I0402 12:22:08.322957   463 net.cpp:167] Top shape: 1 1152 (1152)
I0402 12:22:08.322962   463 net.cpp:175] Memory required for data: 428369860
I0402 12:22:08.322965   463 layer_factory.hpp:93] Creating layer conv7_2_mbox_conf_new
…
I0402 12:22:08.623286   463 net.cpp:412] conv6_1/dwise/bn_fixed -> conv6_1/dwise/bn (in-place)
I0402 12:22:08.623317   463 net.cpp:160] Setting up conv6_1/dwise/bn_fixed
I0402 12:22:08.623322   463 net.cpp:167] Top shape: 1 960 12 15 (172800)
I0402 12:22:08.623327   463 net.cpp:175] Memory required for data: 405653764
I0402 12:22:08.623332   463 layer_factory.hpp:93] Creating layer conv6_1/linear
I0402 12:22:08.623339   463 net.cpp:110] Creating Layer conv6_1/linear
I0402 12:22:08.623342   463 net.cpp:451] conv6_1/linear <- conv6_1/dwise/bn
I0402 12:22:08.623348   463 net.cpp:425] conv6_1/linear -> conv6_1/linear/bn
I0402 12:22:08.624898   463 layer_factory.hpp:93] Creating layer conv6_1/linear
I0402 12:22:08.627621   463 net.cpp:160] Setting up conv6_1/linear
I0402 12:22:08.627633   463 net.cpp:167] Top shape: 1 160 12 15 (28800)
I0402 12:22:08.627640   463 net.cpp:175] Memory required for data: 405768964
I0402 12:22:08.627646   463 layer_factory.hpp:93] Creating layer conv6_1/linear/bn_fixed
I0402 12:22:08.627653   463 net.cpp:110] Creating Layer conv6_1/linear/bn_fixed
I0402 12:22:08.627657   463 net.cpp:451] conv6_1/linear/bn_fixed <- conv6_1/linear/bn
I0402 12:22:08.627663   463 net.cpp:412] conv6_1/linear/bn_fixed -> conv6_1/linear/bn (in-place)
I0402 12:22:08.627696   463 net.cpp:160] Setting up conv6_1/linear/bn_fixed
I0402 12:22:08.627702   463 net.cpp:167] Top shape: 1 160 12 15 (28800)
I0402 12:22:08.627707   463 net.cpp:175] Memory required for data: 405884164
I0402 12:22:08.627712   463 layer_factory.hpp:93] Creating layer block_6_1
I0402 12:22:08.627717   463 net.cpp:110] Creating Layer block_6_1
I0402 12:22:08.627722   463 net.cpp:451] block_6_1 <- conv5_3/linear/bn_conv5_3/linear/bn_fixed_0_split_1
I0402 12:22:08.627727   463 net.cpp:451] block_6_1 <- conv6_1/linear/bn
I0402 12:22:08.627732   463 net.cpp:425] block_6_1 -> block_6_1
I0402 12:22:08.627751   463 net.cpp:160] Setting up block_6_1
I0402 12:22:08.627758   463 net.cpp:167] Top shape: 1 160 12 15 (28800)
I0402 12:22:08.627763   463 net.cpp:175] Memory required for data: 405999364
I0402 12:22:08.627765   463 layer_factory.hpp:93] Creating layer block_6_1_fixed
I0402 12:22:08.627770   463 net.cpp:110] Creating Layer block_6_1_fixed
I0402 12:22:08.627774   463 net.cpp:451] block_6_1_fixed <- block_6_1
I0402 12:22:08.627779   463 net.cpp:412] block_6_1_fixed -> block_6_1 (in-place)
I0402 12:22:08.627808   463 net.cpp:160] Setting up block_6_1_fixed
I0402 12:22:08.627815   463 net.cpp:167] Top shape: 1 160 12 15 (28800)
I0402 12:22:08.627820   463 net.cpp:175] Memory required for data: 406114564
I0402 12:22:08.627823   463 layer_factory.hpp:93] Creating layer block_6_1_block_6_1_fixed_0_split
I0402 12:22:08.627828   463 net.cpp:110] Creating Layer block_6_1_block_6_1_fixed_0_split
I0402 12:22:08.627832   463 net.cpp:451] block_6_1_block_6_1_fixed_0_split <- block_6_1
I0402 12:22:08.627837   463 net.cpp:425] block_6_1_block_6_1_fixed_0_split -> block_6_1_block_6_1_fixed_0_split_0
I0402 12:22:08.627843   463 net.cpp:425] block_6_1_block_6_1_fixed_0_split -> block_6_1_block_6_1_fixed_0_split_1
I0402 12:22:08.627873   463 net.cpp:160] Setting up block_6_1_block_6_1_fixed_0_split
I0402 12:22:08.627878   463 net.cpp:167] Top shape: 1 160 12 15 (28800)
I0402 12:22:08.627883   463 net.cpp:167] Top shape: 1 160 12 15 (28800)
I0402 12:22:08.627887   463 net.cpp:175] Memory required for data: 406344964
I0402 12:22:08.627892   463 layer_factory.hpp:93] Creating layer conv6_2/expand
I0402 12:22:08.627898   463 net.cpp:110] Creating Layer conv6_2/expand
I0402 12:22:08.627902   463 net.cpp:451] conv6_2/expand <- block_6_1_block_6_1_fixed_0_split_0
I0402 12:22:08.627908   463 net.cpp:425] conv6_2/expand -> conv6_2/expand/bn
I0402 12:22:08.630133   463 layer_factory.hpp:93] Creating layer conv6_2/expand
I0402 12:22:08.631835   463 net.cpp:160] Setting up conv6_2/expand
I0402 12:22:08.631844   463 net.cpp:167] Top shape: 1 960 12 15 (172800)
I0402 12:22:08.631850   463 net.cpp:175] Memory required for data: 407036164
I0402 12:22:08.631856   463 layer_factory.hpp:93] Creating layer relu6_2/expand
I0402 12:22:08.631862   463 net.cpp:110] Creating Layer relu6_2/expand
I0402 12:22:08.631866   463 net.cpp:451] relu6_2/expand <- conv6_2/expand/bn
I0402 12:22:08.631871   463 net.cpp:412] relu6_2/expand -> conv6_2/expand/bn (in-place)
I0402 12:22:08.631878   463 net.cpp:160] Setting up relu6_2/expand
I0402 12:22:08.631881   463 net.cpp:167] Top shape: 1 960 12 15 (172800)
I0402 12:22:08.631886   463 net.cpp:175] Memory required for data: 407727364
I0402 12:22:08.631889   463 layer_factory.hpp:93] Creating layer conv6_2/expand/bn_fixed
I0402 12:22:08.631896   463 net.cpp:110] Creating Layer conv6_2/expand/bn_fixed
I0402 12:22:08.631898   463 net.cpp:451] conv6_2/expand/bn_fixed <- conv6_2/expand/bn
I0402 12:22:08.631904   463 net.cpp:412] conv6_2/expand/bn_fixed -> conv6_2/expand/bn (in-place)
I0402 12:22:08.631937   463 net.cpp:160] Setting up conv6_2/expand/bn_fixed
I0402 12:22:08.631942   463 net.cpp:167] Top shape: 1 960 12 15 (172800)
I0402 12:22:08.631947   463 net.cpp:175] Memory required for data: 408418564
I0402 12:22:08.631952   463 layer_factory.hpp:93] Creating layer conv6_2/dwise
I0402 12:22:08.631958   463 net.cpp:110] Creating Layer conv6_2/dwise
I0402 12:22:08.631963   463 net.cpp:451] conv6_2/dwise <- conv6_2/expand/bn
I0402 12:22:08.631968   463 net.cpp:425] conv6_2/dwise -> conv6_2/dwise/bn
I0402 12:22:08.632225   463 layer_factory.hpp:93] Creating layer conv6_2/dwise
I0402 12:22:08.632588   463 net.cpp:160] Setting up conv6_2/dwise
I0402 12:22:08.632596   463 net.cpp:167] Top shape: 1 960 12 15 (172800)
I0402 12:22:08.632601   463 net.cpp:175] Memory required for data: 409109764
I0402 12:22:08.632607   463 layer_factory.hpp:93] Creating layer relu6_2/dwise
I0402 12:22:08.632612   463 net.cpp:110] Creating Layer relu6_2/dwise
I0402 12:22:08.632616   463 net.cpp:451] relu6_2/dwise <- conv6_2/dwise/bn
I0402 12:22:08.632622   463 net.cpp:412] relu6_2/dwise -> conv6_2/dwise/bn (in-place)
I0402 12:22:08.632627   463 net.cpp:160] Setting up relu6_2/dwise
I0402 12:22:08.632632   463 net.cpp:167] Top shape: 1 960 12 15 (172800)
I0402 12:22:08.632635   463 net.cpp:175] Memory required for data: 409800964
I0402 12:22:08.632639   463 layer_factory.hpp:93] Creating layer conv6_2/dwise/bn_fixed
I0402 12:22:08.632644   463 net.cpp:110] Creating Layer conv6_2/dwise/bn_fixed
I0402 12:22:08.632647   463 net.cpp:451] conv6_2/dwise/bn_fixed <- conv6_2/dwise/bn
I0402 12:22:08.632652   463 net.cpp:412] conv6_2/dwise/bn_fixed -> conv6_2/dwise/bn (in-place)
I0402 12:22:08.632683   463 net.cpp:160] Setting up conv6_2/dwise/bn_fixed
I0402 12:22:08.632688   463 net.cpp:167] Top shape: 1 960 12 15 (172800)
I0402 12:22:08.632694   463 net.cpp:175] Memory required for data: 410492164
I0402 12:22:08.632697   463 layer_factory.hpp:93] Creating layer conv6_2/linear
I0402 12:22:08.632704   463 net.cpp:110] Creating Layer conv6_2/linear
I0402 12:22:08.632709   463 net.cpp:451] conv6_2/linear <- conv6_2/dwise/bn
I0402 12:22:08.632714   463 net.cpp:425] conv6_2/linear -> conv6_2/linear/bn
I0402 12:22:08.634930   463 layer_factory.hpp:93] Creating layer conv6_2/linear
I0402 12:22:08.637859   463 net.cpp:160] Setting up conv6_2/linear
I0402 12:22:08.637871   463 net.cpp:167] Top shape: 1 160 12 15 (28800)
I0402 12:22:08.637878   463 net.cpp:175] Memory required for data: 410607364
I0402 12:22:08.637886   463 layer_factory.hpp:93] Creating layer conv6_2/linear/bn_fixed
I0402 12:22:08.637892   463 net.cpp:110] Creating Layer conv6_2/linear/bn_fixed
I0402 12:22:08.637897   463 net.cpp:451] conv6_2/linear/bn_fixed <- conv6_2/linear/bn
I0402 12:22:08.637902   463 net.cpp:412] conv6_2/linear/bn_fixed -> conv6_2/linear/bn (in-place)
I0402 12:22:08.637936   463 net.cpp:160] Setting up conv6_2/linear/bn_fixed
I0402 12:22:08.637943   463 net.cpp:167] Top shape: 1 160 12 15 (28800)
I0402 12:22:08.637948   463 net.cpp:175] Memory required for data: 410722564
I0402 12:22:08.637953   463 layer_factory.hpp:93] Creating layer block_6_2
I0402 12:22:08.637959   463 net.cpp:110] Creating Layer block_6_2
I0402 12:22:08.637964   463 net.cpp:451] block_6_2 <- block_6_1_block_6_1_fixed_0_split_1
I0402 12:22:08.637969   463 net.cpp:451] block_6_2 <- conv6_2/linear/bn
I0402 12:22:08.637974   463 net.cpp:425] block_6_2 -> block_6_2
I0402 12:22:08.637993   463 net.cpp:160] Setting up block_6_2
I0402 12:22:08.638000   463 net.cpp:167] Top shape: 1 160 12 15 (28800)
I0402 12:22:08.638003   463 net.cpp:175] Memory required for data: 410837764
I0402 12:22:08.638007   463 layer_factory.hpp:93] Creating layer block_6_2_fixed
I0402 12:22:08.638012   463 net.cpp:110] Creating Layer block_6_2_fixed
I0402 12:22:08.638016   463 net.cpp:451] block_6_2_fixed <- block_6_2
I0402 12:22:08.638020   463 net.cpp:412] block_6_2_fixed -> block_6_2 (in-place)
I0402 12:22:08.638051   463 net.cpp:160] Setting up block_6_2_fixed
I0402 12:22:08.638056   463 net.cpp:167] Top shape: 1 160 12 15 (28800)
I0402 12:22:08.638067   463 net.cpp:175] Memory required for data: 410952964
I0402 12:22:08.638072   463 layer_factory.hpp:93] Creating layer conv6_3/expand
I0402 12:22:08.638079   463 net.cpp:110] Creating Layer conv6_3/expand
I0402 12:22:08.638083   463 net.cpp:451] conv6_3/expand <- block_6_2
I0402 12:22:08.638088   463 net.cpp:425] conv6_3/expand -> conv6_3/expand/bn
I0402 12:22:08.639638   463 layer_factory.hpp:93] Creating layer conv6_3/expand
I0402 12:22:08.642043   463 net.cpp:160] Setting up conv6_3/expand
I0402 12:22:08.642055   463 net.cpp:167] Top shape: 1 960 12 15 (172800)
I0402 12:22:08.642062   463 net.cpp:175] Memory required for data: 411644164
I0402 12:22:08.642069   463 layer_factory.hpp:93] Creating layer relu6_3/expand
I0402 12:22:08.642076   463 net.cpp:110] Creating Layer relu6_3/expand
I0402 12:22:08.642079   463 net.cpp:451] relu6_3/expand <- conv6_3/expand/bn
I0402 12:22:08.642084   463 net.cpp:412] relu6_3/expand -> conv6_3/expand/bn (in-place)
I0402 12:22:08.642091   463 net.cpp:160] Setting up relu6_3/expand
I0402 12:22:08.642096   463 net.cpp:167] Top shape: 1 960 12 15 (172800)
I0402 12:22:08.642099   463 net.cpp:175] Memory required for data: 412335364
I0402 12:22:08.642103   463 layer_factory.hpp:93] Creating layer conv6_3/expand/bn_fixed
I0402 12:22:08.642108   463 net.cpp:110] Creating Layer conv6_3/expand/bn_fixed
I0402 12:22:08.642112   463 net.cpp:451] conv6_3/expand/bn_fixed <- conv6_3/expand/bn
I0402 12:22:08.642117   463 net.cpp:412] conv6_3/expand/bn_fixed -> conv6_3/expand/bn (in-place)
I0402 12:22:08.642150   463 net.cpp:160] Setting up conv6_3/expand/bn_fixed
I0402 12:22:08.642156   463 net.cpp:167] Top shape: 1 960 12 15 (172800)
I0402 12:22:08.642161   463 net.cpp:175] Memory required for data: 413026564
I0402 12:22:08.642166   463 layer_factory.hpp:93] Creating layer conv6_3/dwise
I0402 12:22:08.642174   463 net.cpp:110] Creating Layer conv6_3/dwise
I0402 12:22:08.642179   463 net.cpp:451] conv6_3/dwise <- conv6_3/expand/bn
I0402 12:22:08.642184   463 net.cpp:425] conv6_3/dwise -> conv6_3/dwise/bn
I0402 12:22:08.642426   463 layer_factory.hpp:93] Creating layer conv6_3/dwise
I0402 12:22:08.642813   463 net.cpp:160] Setting up conv6_3/dwise
I0402 12:22:08.642822   463 net.cpp:167] Top shape: 1 960 12 15 (172800)
I0402 12:22:08.642827   463 net.cpp:175] Memory required for data: 413717764
I0402 12:22:08.642832   463 layer_factory.hpp:93] Creating layer relu6_3/dwise
I0402 12:22:08.642838   463 net.cpp:110] Creating Layer relu6_3/dwise
I0402 12:22:08.642843   463 net.cpp:451] relu6_3/dwise <- conv6_3/dwise/bn
I0402 12:22:08.642848   463 net.cpp:412] relu6_3/dwise -> conv6_3/dwise/bn (in-place)
I0402 12:22:08.642853   463 net.cpp:160] Setting up relu6_3/dwise
I0402 12:22:08.642856   463 net.cpp:167] Top shape: 1 960 12 15 (172800)
I0402 12:22:08.642861   463 net.cpp:175] Memory required for data: 414408964
I0402 12:22:08.642865   463 layer_factory.hpp:93] Creating layer conv6_3/dwise/bn_fixed
I0402 12:22:08.642870   463 net.cpp:110] Creating Layer conv6_3/dwise/bn_fixed
I0402 12:22:08.642874   463 net.cpp:451] conv6_3/dwise/bn_fixed <- conv6_3/dwise/bn
I0402 12:22:08.642879   463 net.cpp:412] conv6_3/dwise/bn_fixed -> conv6_3/dwise/bn (in-place)
I0402 12:22:08.642911   463 net.cpp:160] Setting up conv6_3/dwise/bn_fixed
I0402 12:22:08.642917   463 net.cpp:167] Top shape: 1 960 12 15 (172800)
I0402 12:22:08.642922   463 net.cpp:175] Memory required for data: 415100164
I0402 12:22:08.642926   463 layer_factory.hpp:93] Creating layer conv6_3/linear
I0402 12:22:08.642933   463 net.cpp:110] Creating Layer conv6_3/linear
I0402 12:22:08.642937   463 net.cpp:451] conv6_3/linear <- conv6_3/dwise/bn
I0402 12:22:08.642942   463 net.cpp:425] conv6_3/linear -> conv6_3/linear/bn
I0402 12:22:08.647279   463 layer_factory.hpp:93] Creating layer conv6_3/linear
I0402 12:22:08.651710   463 net.cpp:160] Setting up conv6_3/linear
I0402 12:22:08.651722   463 net.cpp:167] Top shape: 1 320 12 15 (57600)
I0402 12:22:08.651728   463 net.cpp:175] Memory required for data: 415330564
I0402 12:22:08.651736   463 layer_factory.hpp:93] Creating layer conv6_3/linear/bn_fixed
I0402 12:22:08.651743   463 net.cpp:110] Creating Layer conv6_3/linear/bn_fixed
I0402 12:22:08.651748   463 net.cpp:451] conv6_3/linear/bn_fixed <- conv6_3/linear/bn
I0402 12:22:08.651754   463 net.cpp:412] conv6_3/linear/bn_fixed -> conv6_3/linear/bn (in-place)
I0402 12:22:08.651790   463 net.cpp:160] Setting up conv6_3/linear/bn_fixed
I0402 12:22:08.651798   463 net.cpp:167] Top shape: 1 320 12 15 (57600)
I0402 12:22:08.651803   463 net.cpp:175] Memory required for data: 415560964
I0402 12:22:08.651808   463 layer_factory.hpp:93] Creating layer conv6_4
I0402 12:22:08.651815   463 net.cpp:110] Creating Layer conv6_4
I0402 12:22:08.651819   463 net.cpp:451] conv6_4 <- conv6_3/linear/bn
I0402 12:22:08.651824   463 net.cpp:425] conv6_4 -> conv6_4/bn
I0402 12:22:08.657027   463 layer_factory.hpp:93] Creating layer conv6_4
I0402 12:22:08.662699   463 net.cpp:160] Setting up conv6_4
I0402 12:22:08.662711   463 net.cpp:167] Top shape: 1 1280 12 15 (230400)
I0402 12:22:08.662719   463 net.cpp:175] Memory required for data: 416482564
I0402 12:22:08.662725   463 layer_factory.hpp:93] Creating layer relu7
I0402 12:22:08.662731   463 net.cpp:110] Creating Layer relu7
I0402 12:22:08.662735   463 net.cpp:451] relu7 <- conv6_4/bn
I0402 12:22:08.662741   463 net.cpp:425] relu7 -> fc7
I0402 12:22:08.662767   463 net.cpp:160] Setting up relu7
I0402 12:22:08.662771   463 net.cpp:167] Top shape: 1 1280 12 15 (230400)
I0402 12:22:08.662777   463 net.cpp:175] Memory required for data: 417404164
I0402 12:22:08.662781   463 layer_factory.hpp:93] Creating layer fc7_fixed
I0402 12:22:08.662786   463 net.cpp:110] Creating Layer fc7_fixed
I0402 12:22:08.662789   463 net.cpp:451] fc7_fixed <- fc7
I0402 12:22:08.662794   463 net.cpp:412] fc7_fixed -> fc7 (in-place)
I0402 12:22:08.662828   463 net.cpp:160] Setting up fc7_fixed
I0402 12:22:08.662834   463 net.cpp:167] Top shape: 1 1280 12 15 (230400)
I0402 12:22:08.662839   463 net.cpp:175] Memory required for data: 418325764
I0402 12:22:08.662843   463 layer_factory.hpp:93] Creating layer fc7_fc7_fixed_0_split
I0402 12:22:08.662850   463 net.cpp:110] Creating Layer fc7_fc7_fixed_0_split
I0402 12:22:08.662854   463 net.cpp:451] fc7_fc7_fixed_0_split <- fc7
I0402 12:22:08.662859   463 net.cpp:425] fc7_fc7_fixed_0_split -> fc7_fc7_fixed_0_split_0
I0402 12:22:08.662865   463 net.cpp:425] fc7_fc7_fixed_0_split -> fc7_fc7_fixed_0_split_1
I0402 12:22:08.662871   463 net.cpp:425] fc7_fc7_fixed_0_split -> fc7_fc7_fixed_0_split_2
I0402 12:22:08.662876   463 net.cpp:425] fc7_fc7_fixed_0_split -> fc7_fc7_fixed_0_split_3
I0402 12:22:08.662933   463 net.cpp:160] Setting up fc7_fc7_fixed_0_split
I0402 12:22:08.662940   463 net.cpp:167] Top shape: 1 1280 12 15 (230400)
I0402 12:22:08.662943   463 net.cpp:167] Top shape: 1 1280 12 15 (230400)
I0402 12:22:08.662948   463 net.cpp:167] Top shape: 1 1280 12 15 (230400)
I0402 12:22:08.662952   463 net.cpp:167] Top shape: 1 1280 12 15 (230400)
I0402 12:22:08.662956   463 net.cpp:175] Memory required for data: 422012164
I0402 12:22:08.662961   463 layer_factory.hpp:93] Creating layer conv6_1
I0402 12:22:08.662968   463 net.cpp:110] Creating Layer conv6_1
I0402 12:22:08.662972   463 net.cpp:451] conv6_1 <- fc7_fc7_fixed_0_split_0
I0402 12:22:08.662978   463 net.cpp:425] conv6_1 -> conv6_1
I0402 12:22:08.666404   463 layer_factory.hpp:93] Creating layer conv6_1
I0402 12:22:08.670156   463 net.cpp:160] Setting up conv6_1
I0402 12:22:08.670171   463 net.cpp:167] Top shape: 1 256 12 15 (46080)
I0402 12:22:08.670179   463 net.cpp:175] Memory required for data: 422196484
I0402 12:22:08.670189   463 layer_factory.hpp:93] Creating layer conv6_1_relu
I0402 12:22:08.670198   463 net.cpp:110] Creating Layer conv6_1_relu
I0402 12:22:08.670204   463 net.cpp:451] conv6_1_relu <- conv6_1
I0402 12:22:08.670212   463 net.cpp:412] conv6_1_relu -> conv6_1 (in-place)
I0402 12:22:08.670222   463 net.cpp:160] Setting up conv6_1_relu
I0402 12:22:08.670228   463 net.cpp:167] Top shape: 1 256 12 15 (46080)
I0402 12:22:08.670234   463 net.cpp:175] Memory required for data: 422380804
I0402 12:22:08.670239   463 layer_factory.hpp:93] Creating layer conv6_1_fixed
I0402 12:22:08.670248   463 net.cpp:110] Creating Layer conv6_1_fixed
I0402 12:22:08.670253   463 net.cpp:451] conv6_1_fixed <- conv6_1
I0402 12:22:08.670259   463 net.cpp:412] conv6_1_fixed -> conv6_1 (in-place)
I0402 12:22:08.670302   463 net.cpp:160] Setting up conv6_1_fixed
I0402 12:22:08.670310   463 net.cpp:167] Top shape: 1 256 12 15 (46080)
I0402 12:22:08.670318   463 net.cpp:175] Memory required for data: 422565124
I0402 12:22:08.670325   463 layer_factory.hpp:93] Creating layer conv6_2
I0402 12:22:08.670337   463 net.cpp:110] Creating Layer conv6_2
I0402 12:22:08.670342   463 net.cpp:451] conv6_2 <- conv6_1
I0402 12:22:08.670351   463 net.cpp:425] conv6_2 -> conv6_2
I0402 12:22:08.680445   463 layer_factory.hpp:93] Creating layer conv6_2
I0402 12:22:08.694036   463 net.cpp:160] Setting up conv6_2
I0402 12:22:08.694106   463 net.cpp:167] Top shape: 1 512 6 8 (24576)
I0402 12:22:08.694155   463 net.cpp:175] Memory required for data: 422663428
I0402 12:22:08.694205   463 layer_factory.hpp:93] Creating layer conv6_2_relu
I0402 12:22:08.694250   463 net.cpp:110] Creating Layer conv6_2_relu
I0402 12:22:08.694295   463 net.cpp:451] conv6_2_relu <- conv6_2
I0402 12:22:08.694329   463 net.cpp:412] conv6_2_relu -> conv6_2 (in-place)
I0402 12:22:08.694368   463 net.cpp:160] Setting up conv6_2_relu
I0402 12:22:08.694398   463 net.cpp:167] Top shape: 1 512 6 8 (24576)
I0402 12:22:08.694447   463 net.cpp:175] Memory required for data: 422761732
I0402 12:22:08.694483   463 layer_factory.hpp:93] Creating layer conv6_2_fixed
I0402 12:22:08.694516   463 net.cpp:110] Creating Layer conv6_2_fixed
I0402 12:22:08.694555   463 net.cpp:451] conv6_2_fixed <- conv6_2
I0402 12:22:08.694587   463 net.cpp:412] conv6_2_fixed -> conv6_2 (in-place)
I0402 12:22:08.694665   463 net.cpp:160] Setting up conv6_2_fixed
I0402 12:22:08.694700   463 net.cpp:167] Top shape: 1 512 6 8 (24576)
I0402 12:22:08.694736   463 net.cpp:175] Memory required for data: 422860036
I0402 12:22:08.694768   463 layer_factory.hpp:93] Creating layer conv6_2_conv6_2_fixed_0_split
I0402 12:22:08.694806   463 net.cpp:110] Creating Layer conv6_2_conv6_2_fixed_0_split
I0402 12:22:08.694844   463 net.cpp:451] conv6_2_conv6_2_fixed_0_split <- conv6_2
I0402 12:22:08.694916   463 net.cpp:425] conv6_2_conv6_2_fixed_0_split -> conv6_2_conv6_2_fixed_0_split_0
I0402 12:22:08.694955   463 net.cpp:425] conv6_2_conv6_2_fixed_0_split -> conv6_2_conv6_2_fixed_0_split_1
I0402 12:22:08.694994   463 net.cpp:425] conv6_2_conv6_2_fixed_0_split -> conv6_2_conv6_2_fixed_0_split_2
I0402 12:22:08.695031   463 net.cpp:425] conv6_2_conv6_2_fixed_0_split -> conv6_2_conv6_2_fixed_0_split_3
I0402 12:22:08.695134   463 net.cpp:160] Setting up conv6_2_conv6_2_fixed_0_split
I0402 12:22:08.695168   463 net.cpp:167] Top shape: 1 512 6 8 (24576)
I0402 12:22:08.695183   463 net.cpp:167] Top shape: 1 512 6 8 (24576)
I0402 12:22:08.695190   463 net.cpp:167] Top shape: 1 512 6 8 (24576)
I0402 12:22:08.695196   463 net.cpp:167] Top shape: 1 512 6 8 (24576)
I0402 12:22:08.695204   463 net.cpp:175] Memory required for data: 423253252
I0402 12:22:08.695209   463 layer_factory.hpp:93] Creating layer conv7_1
I0402 12:22:08.695224   463 net.cpp:110] Creating Layer conv7_1
I0402 12:22:08.695231   463 net.cpp:451] conv7_1 <- conv6_2_conv6_2_fixed_0_split_0
I0402 12:22:08.695240   463 net.cpp:425] conv7_1 -> conv7_1
I0402 12:22:08.696189   463 layer_factory.hpp:93] Creating layer conv7_1
I0402 12:22:08.697207   463 net.cpp:160] Setting up conv7_1
I0402 12:22:08.697216   463 net.cpp:167] Top shape: 1 128 6 8 (6144)
I0402 12:22:08.697221   463 net.cpp:175] Memory required for data: 423277828
I0402 12:22:08.697228   463 layer_factory.hpp:93] Creating layer conv7_1_relu
I0402 12:22:08.697234   463 net.cpp:110] Creating Layer conv7_1_relu
I0402 12:22:08.697238   463 net.cpp:451] conv7_1_relu <- conv7_1
I0402 12:22:08.697243   463 net.cpp:412] conv7_1_relu -> conv7_1 (in-place)
I0402 12:22:08.697250   463 net.cpp:160] Setting up conv7_1_relu
I0402 12:22:08.697253   463 net.cpp:167] Top shape: 1 128 6 8 (6144)
I0402 12:22:08.697258   463 net.cpp:175] Memory required for data: 423302404
I0402 12:22:08.697261   463 layer_factory.hpp:93] Creating layer conv7_1_fixed
I0402 12:22:08.697266   463 net.cpp:110] Creating Layer conv7_1_fixed
I0402 12:22:08.697270   463 net.cpp:451] conv7_1_fixed <- conv7_1
I0402 12:22:08.697274   463 net.cpp:412] conv7_1_fixed -> conv7_1 (in-place)
I0402 12:22:08.697306   463 net.cpp:160] Setting up conv7_1_fixed
I0402 12:22:08.697312   463 net.cpp:167] Top shape: 1 128 6 8 (6144)
I0402 12:22:08.697317   463 net.cpp:175] Memory required for data: 423326980
I0402 12:22:08.697322   463 layer_factory.hpp:93] Creating layer conv7_2
I0402 12:22:08.697329   463 net.cpp:110] Creating Layer conv7_2
I0402 12:22:08.697333   463 net.cpp:451] conv7_2 <- conv7_1
I0402 12:22:08.697338   463 net.cpp:425] conv7_2 -> conv7_2
I0402 12:22:08.700572   463 layer_factory.hpp:93] Creating layer conv7_2
I0402 12:22:08.703882   463 net.cpp:160] Setting up conv7_2
I0402 12:22:08.703894   463 net.cpp:167] Top shape: 1 256 3 4 (3072)
I0402 12:22:08.703902   463 net.cpp:175] Memory required for data: 423339268
I0402 12:22:08.703907   463 layer_factory.hpp:93] Creating layer conv7_2_relu
I0402 12:22:08.703917   463 net.cpp:110] Creating Layer conv7_2_relu
I0402 12:22:08.703922   463 net.cpp:451] conv7_2_relu <- conv7_2
I0402 12:22:08.703928   463 net.cpp:412] conv7_2_relu -> conv7_2 (in-place)
I0402 12:22:08.703938   463 net.cpp:160] Setting up conv7_2_relu
I0402 12:22:08.703940   463 net.cpp:167] Top shape: 1 256 3 4 (3072)
I0402 12:22:08.703945   463 net.cpp:175] Memory required for data: 423351556
I0402 12:22:08.703949   463 layer_factory.hpp:93] Creating layer conv7_2_fixed
I0402 12:22:08.703954   463 net.cpp:110] Creating Layer conv7_2_fixed
I0402 12:22:08.703958   463 net.cpp:451] conv7_2_fixed <- conv7_2
I0402 12:22:08.703963   463 net.cpp:412] conv7_2_fixed -> conv7_2 (in-place)
I0402 12:22:08.703996   463 net.cpp:160] Setting up conv7_2_fixed
I0402 12:22:08.704002   463 net.cpp:167] Top shape: 1 256 3 4 (3072)
I0402 12:22:08.704007   463 net.cpp:175] Memory required for data: 423363844
I0402 12:22:08.704011   463 layer_factory.hpp:93] Creating layer conv7_2_conv7_2_fixed_0_split
I0402 12:22:08.704017   463 net.cpp:110] Creating Layer conv7_2_conv7_2_fixed_0_split
I0402 12:22:08.704020   463 net.cpp:451] conv7_2_conv7_2_fixed_0_split <- conv7_2
I0402 12:22:08.704025   463 net.cpp:425] conv7_2_conv7_2_fixed_0_split -> conv7_2_conv7_2_fixed_0_split_0
I0402 12:22:08.704032   463 net.cpp:425] conv7_2_conv7_2_fixed_0_split -> conv7_2_conv7_2_fixed_0_split_1
I0402 12:22:08.704037   463 net.cpp:425] conv7_2_conv7_2_fixed_0_split -> conv7_2_conv7_2_fixed_0_split_2
I0402 12:22:08.704080   463 net.cpp:160] Setting up conv7_2_conv7_2_fixed_0_split
I0402 12:22:08.704085   463 net.cpp:167] Top shape: 1 256 3 4 (3072)
I0402 12:22:08.704090   463 net.cpp:167] Top shape: 1 256 3 4 (3072)
I0402 12:22:08.704095   463 net.cpp:167] Top shape: 1 256 3 4 (3072)
I0402 12:22:08.704099   463 net.cpp:175] Memory required for data: 423400708
I0402 12:22:08.704102   463 layer_factory.hpp:93] Creating layer conv4_3_norm_mbox_loc
I0402 12:22:08.704111   463 net.cpp:110] Creating Layer conv4_3_norm_mbox_loc
I0402 12:22:08.704118   463 net.cpp:451] conv4_3_norm_mbox_loc <- conv4_7/expand/bn_conv4_7/expand/bn_fixed_0_split_1
I0402 12:22:08.704124   463 net.cpp:425] conv4_3_norm_mbox_loc -> conv4_3_norm_mbox_loc
I0402 12:22:08.704985   463 layer_factory.hpp:93] Creating layer conv4_3_norm_mbox_loc
I0402 12:22:08.705948   463 net.cpp:160] Setting up conv4_3_norm_mbox_loc
I0402 12:22:08.705956   463 net.cpp:167] Top shape: 1 32 45 60 (86400)
I0402 12:22:08.705962   463 net.cpp:175] Memory required for data: 423746308
I0402 12:22:08.705968   463 layer_factory.hpp:93] Creating layer conv4_3_norm_mbox_loc_perm
I0402 12:22:08.705976   463 net.cpp:110] Creating Layer conv4_3_norm_mbox_loc_perm
I0402 12:22:08.705979   463 net.cpp:451] conv4_3_norm_mbox_loc_perm <- conv4_3_norm_mbox_loc
I0402 12:22:08.705986   463 net.cpp:425] conv4_3_norm_mbox_loc_perm -> conv4_3_norm_mbox_loc_perm
I0402 12:22:08.706075   463 net.cpp:160] Setting up conv4_3_norm_mbox_loc_perm
I0402 12:22:08.706082   463 net.cpp:167] Top shape: 1 45 60 32 (86400)
I0402 12:22:08.706087   463 net.cpp:175] Memory required for data: 424091908
I0402 12:22:08.706090   463 layer_factory.hpp:93] Creating layer conv4_3_norm_mbox_loc_flat
I0402 12:22:08.706096   463 net.cpp:110] Creating Layer conv4_3_norm_mbox_loc_flat
I0402 12:22:08.706100   463 net.cpp:451] conv4_3_norm_mbox_loc_flat <- conv4_3_norm_mbox_loc_perm
I0402 12:22:08.706105   463 net.cpp:425] conv4_3_norm_mbox_loc_flat -> conv4_3_norm_mbox_loc_flat
I0402 12:22:08.706125   463 net.cpp:160] Setting up conv4_3_norm_mbox_loc_flat
I0402 12:22:08.706130   463 net.cpp:167] Top shape: 1 86400 (86400)
I0402 12:22:08.706135   463 net.cpp:175] Memory required for data: 424437508
I0402 12:22:08.706138   463 layer_factory.hpp:93] Creating layer conv4_3_norm_mbox_conf_new
I0402 12:22:08.706146   463 net.cpp:110] Creating Layer conv4_3_norm_mbox_conf_new
I0402 12:22:08.706151   463 net.cpp:451] conv4_3_norm_mbox_conf_new <- conv4_7/expand/bn_conv4_7/expand/bn_fixed_0_split_2
I0402 12:22:08.706156   463 net.cpp:425] conv4_3_norm_mbox_conf_new -> conv4_3_norm_mbox_conf_new
I0402 12:22:08.711141   463 layer_factory.hpp:93] Creating layer conv4_3_norm_mbox_conf_new
I0402 12:22:08.716326   463 net.cpp:160] Setting up conv4_3_norm_mbox_conf_new
I0402 12:22:08.716339   463 net.cpp:167] Top shape: 1 168 45 60 (453600)
I0402 12:22:08.716347   463 net.cpp:175] Memory required for data: 426251908
I0402 12:22:08.716356   463 layer_factory.hpp:93] Creating layer conv4_3_norm_mbox_conf_perm
I0402 12:22:08.716363   463 net.cpp:110] Creating Layer conv4_3_norm_mbox_conf_perm
I0402 12:22:08.716369   463 net.cpp:451] conv4_3_norm_mbox_conf_perm <- conv4_3_norm_mbox_conf_new
I0402 12:22:08.716377   463 net.cpp:425] conv4_3_norm_mbox_conf_perm -> conv4_3_norm_mbox_conf_perm
I0402 12:22:08.716464   463 net.cpp:160] Setting up conv4_3_norm_mbox_conf_perm
I0402 12:22:08.716470   463 net.cpp:167] Top shape: 1 45 60 168 (453600)
I0402 12:22:08.716475   463 net.cpp:175] Memory required for data: 428066308
I0402 12:22:08.716480   463 layer_factory.hpp:93] Creating layer conv4_3_norm_mbox_conf_flat
I0402 12:22:08.716485   463 net.cpp:110] Creating Layer conv4_3_norm_mbox_conf_flat
I0402 12:22:08.716488   463 net.cpp:451] conv4_3_norm_mbox_conf_flat <- conv4_3_norm_mbox_conf_perm
I0402 12:22:08.716493   463 net.cpp:425] conv4_3_norm_mbox_conf_flat -> conv4_3_norm_mbox_conf_flat
I0402 12:22:08.716513   463 net.cpp:160] Setting up conv4_3_norm_mbox_conf_flat
I0402 12:22:08.716519   463 net.cpp:167] Top shape: 1 453600 (453600)
I0402 12:22:08.716523   463 net.cpp:175] Memory required for data: 429880708
I0402 12:22:08.716527   463 layer_factory.hpp:93] Creating layer conv4_3_norm_mbox_priorbox
I0402 12:22:08.716536   463 net.cpp:110] Creating Layer conv4_3_norm_mbox_priorbox
I0402 12:22:08.716539   463 net.cpp:451] conv4_3_norm_mbox_priorbox <- conv4_7/expand/bn_conv4_7/expand/bn_fixed_0_split_3
I0402 12:22:08.716544   463 net.cpp:451] conv4_3_norm_mbox_priorbox <- data_data_fixed_0_split_1
I0402 12:22:08.716550   463 net.cpp:425] conv4_3_norm_mbox_priorbox -> conv4_3_norm_mbox_priorbox
I0402 12:22:08.716574   463 net.cpp:160] Setting up conv4_3_norm_mbox_priorbox
I0402 12:22:08.716581   463 net.cpp:167] Top shape: 1 2 86400 (172800)
I0402 12:22:08.716586   463 net.cpp:175] Memory required for data: 430571908
I0402 12:22:08.716590   463 layer_factory.hpp:93] Creating layer fc7_mbox_loc
I0402 12:22:08.716598   463 net.cpp:110] Creating Layer fc7_mbox_loc
I0402 12:22:08.716603   463 net.cpp:451] fc7_mbox_loc <- conv5_3/expand/bn_conv5_3/expand/bn_fixed_0_split_1
I0402 12:22:08.716609   463 net.cpp:425] fc7_mbox_loc -> fc7_mbox_loc
I0402 12:22:08.717535   463 layer_factory.hpp:93] Creating layer fc7_mbox_loc
I0402 12:22:08.718585   463 net.cpp:160] Setting up fc7_mbox_loc
I0402 12:22:08.718593   463 net.cpp:167] Top shape: 1 24 23 30 (16560)
I0402 12:22:08.718598   463 net.cpp:175] Memory required for data: 430638148
I0402 12:22:08.718605   463 layer_factory.hpp:93] Creating layer fc7_mbox_loc_perm
I0402 12:22:08.718611   463 net.cpp:110] Creating Layer fc7_mbox_loc_perm
I0402 12:22:08.718616   463 net.cpp:451] fc7_mbox_loc_perm <- fc7_mbox_loc
I0402 12:22:08.718621   463 net.cpp:425] fc7_mbox_loc_perm -> fc7_mbox_loc_perm
I0402 12:22:08.718706   463 net.cpp:160] Setting up fc7_mbox_loc_perm
I0402 12:22:08.718713   463 net.cpp:167] Top shape: 1 23 30 24 (16560)
I0402 12:22:08.718717   463 net.cpp:175] Memory required for data: 430704388
I0402 12:22:08.718721   463 layer_factory.hpp:93] Creating layer fc7_mbox_loc_flat
I0402 12:22:08.718726   463 net.cpp:110] Creating Layer fc7_mbox_loc_flat
I0402 12:22:08.718730   463 net.cpp:451] fc7_mbox_loc_flat <- fc7_mbox_loc_perm
I0402 12:22:08.718735   463 net.cpp:425] fc7_mbox_loc_flat -> fc7_mbox_loc_flat
I0402 12:22:08.718755   463 net.cpp:160] Setting up fc7_mbox_loc_flat
I0402 12:22:08.718760   463 net.cpp:167] Top shape: 1 16560 (16560)
I0402 12:22:08.718763   463 net.cpp:175] Memory required for data: 430770628
I0402 12:22:08.718767   463 layer_factory.hpp:93] Creating layer fc7_mbox_conf_new
I0402 12:22:08.718775   463 net.cpp:110] Creating Layer fc7_mbox_conf_new
I0402 12:22:08.718778   463 net.cpp:451] fc7_mbox_conf_new <- conv5_3/expand/bn_conv5_3/expand/bn_fixed_0_split_2
I0402 12:22:08.718784   463 net.cpp:425] fc7_mbox_conf_new -> fc7_mbox_conf_new
I0402 12:22:08.724354   463 layer_factory.hpp:93] Creating layer fc7_mbox_conf_new
I0402 12:22:08.730100   463 net.cpp:160] Setting up fc7_mbox_conf_new
I0402 12:22:08.730113   463 net.cpp:167] Top shape: 1 126 23 30 (86940)
I0402 12:22:08.730131   463 net.cpp:175] Memory required for data: 431118388
I0402 12:22:08.730139   463 layer_factory.hpp:93] Creating layer fc7_mbox_conf_perm
I0402 12:22:08.730147   463 net.cpp:110] Creating Layer fc7_mbox_conf_perm
I0402 12:22:08.730152   463 net.cpp:451] fc7_mbox_conf_perm <- fc7_mbox_conf_new
I0402 12:22:08.730159   463 net.cpp:425] fc7_mbox_conf_perm -> fc7_mbox_conf_perm
I0402 12:22:08.730247   463 net.cpp:160] Setting up fc7_mbox_conf_perm
I0402 12:22:08.730252   463 net.cpp:167] Top shape: 1 23 30 126 (86940)
I0402 12:22:08.730257   463 net.cpp:175] Memory required for data: 431466148
I0402 12:22:08.730262   463 layer_factory.hpp:93] Creating layer fc7_mbox_conf_flat
I0402 12:22:08.730266   463 net.cpp:110] Creating Layer fc7_mbox_conf_flat
I0402 12:22:08.730270   463 net.cpp:451] fc7_mbox_conf_flat <- fc7_mbox_conf_perm
I0402 12:22:08.730275   463 net.cpp:425] fc7_mbox_conf_flat -> fc7_mbox_conf_flat
I0402 12:22:08.730296   463 net.cpp:160] Setting up fc7_mbox_conf_flat
I0402 12:22:08.730301   463 net.cpp:167] Top shape: 1 86940 (86940)
I0402 12:22:08.730306   463 net.cpp:175] Memory required for data: 431813908
I0402 12:22:08.730310   463 layer_factory.hpp:93] Creating layer fc7_mbox_priorbox
I0402 12:22:08.730317   463 net.cpp:110] Creating Layer fc7_mbox_priorbox
I0402 12:22:08.730322   463 net.cpp:451] fc7_mbox_priorbox <- conv5_3/expand/bn_conv5_3/expand/bn_fixed_0_split_3
I0402 12:22:08.730327   463 net.cpp:451] fc7_mbox_priorbox <- data_data_fixed_0_split_2
I0402 12:22:08.730334   463 net.cpp:425] fc7_mbox_priorbox -> fc7_mbox_priorbox
I0402 12:22:08.730360   463 net.cpp:160] Setting up fc7_mbox_priorbox
I0402 12:22:08.730365   463 net.cpp:167] Top shape: 1 2 16560 (33120)
I0402 12:22:08.730370   463 net.cpp:175] Memory required for data: 431946388
I0402 12:22:08.730374   463 layer_factory.hpp:93] Creating layer conv6_2_mbox_loc
I0402 12:22:08.730382   463 net.cpp:110] Creating Layer conv6_2_mbox_loc
I0402 12:22:08.730386   463 net.cpp:451] conv6_2_mbox_loc <- fc7_fc7_fixed_0_split_1
I0402 12:22:08.730393   463 net.cpp:425] conv6_2_mbox_loc -> conv6_2_mbox_loc
I0402 12:22:08.733510   463 layer_factory.hpp:93] Creating layer conv6_2_mbox_loc
I0402 12:22:08.736754   463 net.cpp:160] Setting up conv6_2_mbox_loc
I0402 12:22:08.736766   463 net.cpp:167] Top shape: 1 24 12 15 (4320)
I0402 12:22:08.736773   463 net.cpp:175] Memory required for data: 431963668
I0402 12:22:08.736779   463 layer_factory.hpp:93] Creating layer conv6_2_mbox_loc_perm
I0402 12:22:08.736788   463 net.cpp:110] Creating Layer conv6_2_mbox_loc_perm
I0402 12:22:08.736793   463 net.cpp:451] conv6_2_mbox_loc_perm <- conv6_2_mbox_loc
I0402 12:22:08.736799   463 net.cpp:425] conv6_2_mbox_loc_perm -> conv6_2_mbox_loc_perm
I0402 12:22:08.736891   463 net.cpp:160] Setting up conv6_2_mbox_loc_perm
I0402 12:22:08.736897   463 net.cpp:167] Top shape: 1 12 15 24 (4320)
I0402 12:22:08.736902   463 net.cpp:175] Memory required for data: 431980948
I0402 12:22:08.736907   463 layer_factory.hpp:93] Creating layer conv6_2_mbox_loc_flat
I0402 12:22:08.736912   463 net.cpp:110] Creating Layer conv6_2_mbox_loc_flat
I0402 12:22:08.736915   463 net.cpp:451] conv6_2_mbox_loc_flat <- conv6_2_mbox_loc_perm
I0402 12:22:08.736920   463 net.cpp:425] conv6_2_mbox_loc_flat -> conv6_2_mbox_loc_flat
I0402 12:22:08.736941   463 net.cpp:160] Setting up conv6_2_mbox_loc_flat
I0402 12:22:08.736948   463 net.cpp:167] Top shape: 1 4320 (4320)
I0402 12:22:08.736953   463 net.cpp:175] Memory required for data: 431998228
I0402 12:22:08.736956   463 layer_factory.hpp:93] Creating layer conv6_2_mbox_conf_new
I0402 12:22:08.736964   463 net.cpp:110] Creating Layer conv6_2_mbox_conf_new
I0402 12:22:08.736968   463 net.cpp:451] conv6_2_mbox_conf_new <- fc7_fc7_fixed_0_split_2
I0402 12:22:08.736974   463 net.cpp:425] conv6_2_mbox_conf_new -> conv6_2_mbox_conf_new
I0402 12:22:08.748878   463 layer_factory.hpp:93] Creating layer conv6_2_mbox_conf_new
I0402 12:22:08.760972   463 net.cpp:160] Setting up conv6_2_mbox_conf_new
I0402 12:22:08.760985   463 net.cpp:167] Top shape: 1 126 12 15 (22680)
I0402 12:22:08.760994   463 net.cpp:175] Memory required for data: 432088948
I0402 12:22:08.761004   463 layer_factory.hpp:93] Creating layer conv6_2_mbox_conf_perm
I0402 12:22:08.761013   463 net.cpp:110] Creating Layer conv6_2_mbox_conf_perm
I0402 12:22:08.761018   463 net.cpp:451] conv6_2_mbox_conf_perm <- conv6_2_mbox_conf_new
I0402 12:22:08.761025   463 net.cpp:425] conv6_2_mbox_conf_perm -> conv6_2_mbox_conf_perm
I0402 12:22:08.761113   463 net.cpp:160] Setting up conv6_2_mbox_conf_perm
I0402 12:22:08.761119   463 net.cpp:167] Top shape: 1 12 15 126 (22680)
I0402 12:22:08.761124   463 net.cpp:175] Memory required for data: 432179668
I0402 12:22:08.761128   463 layer_factory.hpp:93] Creating layer conv6_2_mbox_conf_flat
I0402 12:22:08.761134   463 net.cpp:110] Creating Layer conv6_2_mbox_conf_flat
I0402 12:22:08.761138   463 net.cpp:451] conv6_2_mbox_conf_flat <- conv6_2_mbox_conf_perm
I0402 12:22:08.761143   463 net.cpp:425] conv6_2_mbox_conf_flat -> conv6_2_mbox_conf_flat
I0402 12:22:08.761163   463 net.cpp:160] Setting up conv6_2_mbox_conf_flat
I0402 12:22:08.761169   463 net.cpp:167] Top shape: 1 22680 (22680)
I0402 12:22:08.761174   463 net.cpp:175] Memory required for data: 432270388
I0402 12:22:08.761178   463 layer_factory.hpp:93] Creating layer conv6_2_mbox_priorbox
I0402 12:22:08.761184   463 net.cpp:110] Creating Layer conv6_2_mbox_priorbox
I0402 12:22:08.761189   463 net.cpp:451] conv6_2_mbox_priorbox <- fc7_fc7_fixed_0_split_3
I0402 12:22:08.761194   463 net.cpp:451] conv6_2_mbox_priorbox <- data_data_fixed_0_split_3
I0402 12:22:08.761199   463 net.cpp:425] conv6_2_mbox_priorbox -> conv6_2_mbox_priorbox
I0402 12:22:08.761222   463 net.cpp:160] Setting up conv6_2_mbox_priorbox
I0402 12:22:08.761226   463 net.cpp:167] Top shape: 1 2 4320 (8640)
I0402 12:22:08.761230   463 net.cpp:175] Memory required for data: 432304948
I0402 12:22:08.761234   463 layer_factory.hpp:93] Creating layer conv7_2_mbox_loc
I0402 12:22:08.761243   463 net.cpp:110] Creating Layer conv7_2_mbox_loc
I0402 12:22:08.761247   463 net.cpp:451] conv7_2_mbox_loc <- conv6_2_conv6_2_fixed_0_split_1
I0402 12:22:08.761255   463 net.cpp:425] conv7_2_mbox_loc -> conv7_2_mbox_loc
I0402 12:22:08.762107   463 layer_factory.hpp:93] Creating layer conv7_2_mbox_loc
I0402 12:22:08.763084   463 net.cpp:160] Setting up conv7_2_mbox_loc
I0402 12:22:08.763092   463 net.cpp:167] Top shape: 1 24 6 8 (1152)
I0402 12:22:08.763098   463 net.cpp:175] Memory required for data: 432309556
I0402 12:22:08.763104   463 layer_factory.hpp:93] Creating layer conv7_2_mbox_loc_perm
I0402 12:22:08.763110   463 net.cpp:110] Creating Layer conv7_2_mbox_loc_perm
I0402 12:22:08.763115   463 net.cpp:451] conv7_2_mbox_loc_perm <- conv7_2_mbox_loc
I0402 12:22:08.763120   463 net.cpp:425] conv7_2_mbox_loc_perm -> conv7_2_mbox_loc_perm
I0402 12:22:08.763208   463 net.cpp:160] Setting up conv7_2_mbox_loc_perm
I0402 12:22:08.763216   463 net.cpp:167] Top shape: 1 6 8 24 (1152)
I0402 12:22:08.763219   463 net.cpp:175] Memory required for data: 432314164
I0402 12:22:08.763223   463 layer_factory.hpp:93] Creating layer conv7_2_mbox_loc_flat
I0402 12:22:08.763228   463 net.cpp:110] Creating Layer conv7_2_mbox_loc_flat
I0402 12:22:08.763232   463 net.cpp:451] conv7_2_mbox_loc_flat <- conv7_2_mbox_loc_perm
I0402 12:22:08.763236   463 net.cpp:425] conv7_2_mbox_loc_flat -> conv7_2_mbox_loc_flat
I0402 12:22:08.763257   463 net.cpp:160] Setting up conv7_2_mbox_loc_flat
I0402 12:22:08.763262   463 net.cpp:167] Top shape: 1 1152 (1152)
I0402 12:22:08.763267   463 net.cpp:175] Memory required for data: 432318772
I0402 12:22:08.763270   463 layer_factory.hpp:93] Creating layer conv7_2_mbox_conf_new
I0402 12:22:08.763278   463 net.cpp:110] Creating Layer conv7_2_mbox_conf_new
I0402 12:22:08.763283   463 net.cpp:451] conv7_2_mbox_conf_new <- conv6_2_conv6_2_fixed_0_split_2
I0402 12:22:08.763288   463 net.cpp:425] conv7_2_mbox_conf_new -> conv7_2_mbox_conf_new
I0402 12:22:08.768278   463 layer_factory.hpp:93] Creating layer conv7_2_mbox_conf_new
I0402 12:22:08.773398   463 net.cpp:160] Setting up conv7_2_mbox_conf_new
I0402 12:22:08.773411   463 net.cpp:167] Top shape: 1 126 6 8 (6048)
I0402 12:22:08.773416   463 net.cpp:175] Memory required for data: 432342964
I0402 12:22:08.773423   463 layer_factory.hpp:93] Creating layer conv7_2_mbox_conf_perm
I0402 12:22:08.773430   463 net.cpp:110] Creating Layer conv7_2_mbox_conf_perm
I0402 12:22:08.773435   463 net.cpp:451] conv7_2_mbox_conf_perm <- conv7_2_mbox_conf_new
I0402 12:22:08.773442   463 net.cpp:425] conv7_2_mbox_conf_perm -> conv7_2_mbox_conf_perm
I0402 12:22:08.773535   463 net.cpp:160] Setting up conv7_2_mbox_conf_perm
I0402 12:22:08.773542   463 net.cpp:167] Top shape: 1 6 8 126 (6048)
I0402 12:22:08.773547   463 net.cpp:175] Memory required for data: 432367156
I0402 12:22:08.773551   463 layer_factory.hpp:93] Creating layer conv7_2_mbox_conf_flat
I0402 12:22:08.773556   463 net.cpp:110] Creating Layer conv7_2_mbox_conf_flat
I0402 12:22:08.773561   463 net.cpp:451] conv7_2_mbox_conf_flat <- conv7_2_mbox_conf_perm
I0402 12:22:08.773566   463 net.cpp:425] conv7_2_mbox_conf_flat -> conv7_2_mbox_conf_flat
I0402 12:22:08.773589   463 net.cpp:160] Setting up conv7_2_mbox_conf_flat
I0402 12:22:08.773595   463 net.cpp:167] Top shape: 1 6048 (6048)
I0402 12:22:08.773599   463 net.cpp:175] Memory required for data: 432391348
I0402 12:22:08.773603   463 layer_factory.hpp:93] Creating layer conv7_2_mbox_priorbox
I0402 12:22:08.773610   463 net.cpp:110] Creating Layer conv7_2_mbox_priorbox
I0402 12:22:08.773614   463 net.cpp:451] conv7_2_mbox_priorbox <- conv6_2_conv6_2_fixed_0_split_3
I0402 12:22:08.773618   463 net.cpp:451] conv7_2_mbox_priorbox <- data_data_fixed_0_split_4
I0402 12:22:08.773624   463 net.cpp:425] conv7_2_mbox_priorbox -> conv7_2_mbox_priorbox
I0402 12:22:08.773648   463 net.cpp:160] Setting up conv7_2_mbox_priorbox
I0402 12:22:08.773653   463 net.cpp:167] Top shape: 1 2 1152 (2304)
I0402 12:22:08.773658   463 net.cpp:175] Memory required for data: 432400564
I0402 12:22:08.773660   463 layer_factory.hpp:93] Creating layer conv8_2_mbox_loc
I0402 12:22:08.773669   463 net.cpp:110] Creating Layer conv8_2_mbox_loc
I0402 12:22:08.773674   463 net.cpp:451] conv8_2_mbox_loc <- conv7_2_conv7_2_fixed_0_split_0
I0402 12:22:08.773690   463 net.cpp:425] conv8_2_mbox_loc -> conv8_2_mbox_loc
I0402 12:22:08.774088   463 layer_factory.hpp:93] Creating layer conv8_2_mbox_loc
I0402 12:22:08.774632   463 net.cpp:160] Setting up conv8_2_mbox_loc
I0402 12:22:08.774641   463 net.cpp:167] Top shape: 1 16 3 4 (192)
I0402 12:22:08.774646   463 net.cpp:175] Memory required for data: 432401332
I0402 12:22:08.774652   463 layer_factory.hpp:93] Creating layer conv8_2_mbox_loc_perm
I0402 12:22:08.774658   463 net.cpp:110] Creating Layer conv8_2_mbox_loc_perm
I0402 12:22:08.774662   463 net.cpp:451] conv8_2_mbox_loc_perm <- conv8_2_mbox_loc
I0402 12:22:08.774668   463 net.cpp:425] conv8_2_mbox_loc_perm -> conv8_2_mbox_loc_perm
I0402 12:22:08.774757   463 net.cpp:160] Setting up conv8_2_mbox_loc_perm
I0402 12:22:08.774765   463 net.cpp:167] Top shape: 1 3 4 16 (192)
I0402 12:22:08.774768   463 net.cpp:175] Memory required for data: 432402100
I0402 12:22:08.774772   463 layer_factory.hpp:93] Creating layer conv8_2_mbox_loc_flat
I0402 12:22:08.774777   463 net.cpp:110] Creating Layer conv8_2_mbox_loc_flat
I0402 12:22:08.774781   463 net.cpp:451] conv8_2_mbox_loc_flat <- conv8_2_mbox_loc_perm
I0402 12:22:08.774786   463 net.cpp:425] conv8_2_mbox_loc_flat -> conv8_2_mbox_loc_flat
I0402 12:22:08.774806   463 net.cpp:160] Setting up conv8_2_mbox_loc_flat
I0402 12:22:08.774811   463 net.cpp:167] Top shape: 1 192 (192)
I0402 12:22:08.774816   463 net.cpp:175] Memory required for data: 432402868
I0402 12:22:08.774819   463 layer_factory.hpp:93] Creating layer conv8_2_mbox_conf_new
I0402 12:22:08.774827   463 net.cpp:110] Creating Layer conv8_2_mbox_conf_new
I0402 12:22:08.774830   463 net.cpp:451] conv8_2_mbox_conf_new <- conv7_2_conv7_2_fixed_0_split_1
I0402 12:22:08.774835   463 net.cpp:425] conv8_2_mbox_conf_new -> conv8_2_mbox_conf_new
I0402 12:22:08.776175   463 layer_factory.hpp:93] Creating layer conv8_2_mbox_conf_new
I0402 12:22:08.777660   463 net.cpp:160] Setting up conv8_2_mbox_conf_new
I0402 12:22:08.777668   463 net.cpp:167] Top shape: 1 84 3 4 (1008)
I0402 12:22:08.777674   463 net.cpp:175] Memory required for data: 432406900
I0402 12:22:08.777680   463 layer_factory.hpp:93] Creating layer conv8_2_mbox_conf_perm
I0402 12:22:08.777686   463 net.cpp:110] Creating Layer conv8_2_mbox_conf_perm
I0402 12:22:08.777690   463 net.cpp:451] conv8_2_mbox_conf_perm <- conv8_2_mbox_conf_new
I0402 12:22:08.777696   463 net.cpp:425] conv8_2_mbox_conf_perm -> conv8_2_mbox_conf_perm
I0402 12:22:08.777782   463 net.cpp:160] Setting up conv8_2_mbox_conf_perm
I0402 12:22:08.777788   463 net.cpp:167] Top shape: 1 3 4 84 (1008)
I0402 12:22:08.777793   463 net.cpp:175] Memory required for data: 432410932
I0402 12:22:08.777796   463 layer_factory.hpp:93] Creating layer conv8_2_mbox_conf_flat
I0402 12:22:08.777801   463 net.cpp:110] Creating Layer conv8_2_mbox_conf_flat
I0402 12:22:08.777806   463 net.cpp:451] conv8_2_mbox_conf_flat <- conv8_2_mbox_conf_perm
I0402 12:22:08.777810   463 net.cpp:425] conv8_2_mbox_conf_flat -> conv8_2_mbox_conf_flat
I0402 12:22:08.777830   463 net.cpp:160] Setting up conv8_2_mbox_conf_flat
I0402 12:22:08.777837   463 net.cpp:167] Top shape: 1 1008 (1008)
I0402 12:22:08.777840   463 net.cpp:175] Memory required for data: 432414964
I0402 12:22:08.777843   463 layer_factory.hpp:93] Creating layer conv8_2_mbox_priorbox
I0402 12:22:08.777850   463 net.cpp:110] Creating Layer conv8_2_mbox_priorbox
I0402 12:22:08.777854   463 net.cpp:451] conv8_2_mbox_priorbox <- conv7_2_conv7_2_fixed_0_split_2
I0402 12:22:08.777858   463 net.cpp:451] conv8_2_mbox_priorbox <- data_data_fixed_0_split_5
I0402 12:22:08.777863   463 net.cpp:425] conv8_2_mbox_priorbox -> conv8_2_mbox_priorbox
I0402 12:22:08.777885   463 net.cpp:160] Setting up conv8_2_mbox_priorbox
I0402 12:22:08.777890   463 net.cpp:167] Top shape: 1 2 192 (384)
I0402 12:22:08.777895   463 net.cpp:175] Memory required for data: 432416500
I0402 12:22:08.777899   463 layer_factory.hpp:93] Creating layer mbox_loc
I0402 12:22:08.777904   463 net.cpp:110] Creating Layer mbox_loc
I0402 12:22:08.777909   463 net.cpp:451] mbox_loc <- conv4_3_norm_mbox_loc_flat
I0402 12:22:08.777915   463 net.cpp:451] mbox_loc <- fc7_mbox_loc_flat
I0402 12:22:08.777920   463 net.cpp:451] mbox_loc <- conv6_2_mbox_loc_flat
I0402 12:22:08.777923   463 net.cpp:451] mbox_loc <- conv7_2_mbox_loc_flat
I0402 12:22:08.777927   463 net.cpp:451] mbox_loc <- conv8_2_mbox_loc_flat
I0402 12:22:08.777932   463 net.cpp:425] mbox_loc -> mbox_loc
I0402 12:22:08.777953   463 net.cpp:160] Setting up mbox_loc
I0402 12:22:08.777957   463 net.cpp:167] Top shape: 1 108624 (108624)
I0402 12:22:08.777962   463 net.cpp:175] Memory required for data: 432850996
I0402 12:22:08.777966   463 layer_factory.hpp:93] Creating layer mbox_loc_fixed
I0402 12:22:08.777971   463 net.cpp:110] Creating Layer mbox_loc_fixed
I0402 12:22:08.777974   463 net.cpp:451] mbox_loc_fixed <- mbox_loc
I0402 12:22:08.777979   463 net.cpp:412] mbox_loc_fixed -> mbox_loc (in-place)
I0402 12:22:08.778010   463 net.cpp:160] Setting up mbox_loc_fixed
I0402 12:22:08.778023   463 net.cpp:167] Top shape: 1 108624 (108624)
I0402 12:22:08.778028   463 net.cpp:175] Memory required for data: 433285492
I0402 12:22:08.778033   463 layer_factory.hpp:93] Creating layer mbox_conf
I0402 12:22:08.778038   463 net.cpp:110] Creating Layer mbox_conf
I0402 12:22:08.778043   463 net.cpp:451] mbox_conf <- conv4_3_norm_mbox_conf_flat
I0402 12:22:08.778048   463 net.cpp:451] mbox_conf <- fc7_mbox_conf_flat
I0402 12:22:08.778051   463 net.cpp:451] mbox_conf <- conv6_2_mbox_conf_flat
I0402 12:22:08.778055   463 net.cpp:451] mbox_conf <- conv7_2_mbox_conf_flat
I0402 12:22:08.778059   463 net.cpp:451] mbox_conf <- conv8_2_mbox_conf_flat
I0402 12:22:08.778064   463 net.cpp:425] mbox_conf -> mbox_conf
I0402 12:22:08.778084   463 net.cpp:160] Setting up mbox_conf
I0402 12:22:08.778090   463 net.cpp:167] Top shape: 1 570276 (570276)
I0402 12:22:08.778095   463 net.cpp:175] Memory required for data: 435566596
I0402 12:22:08.778100   463 layer_factory.hpp:93] Creating layer mbox_conf_fixed
I0402 12:22:08.778105   463 net.cpp:110] Creating Layer mbox_conf_fixed
I0402 12:22:08.778107   463 net.cpp:451] mbox_conf_fixed <- mbox_conf
I0402 12:22:08.778112   463 net.cpp:412] mbox_conf_fixed -> mbox_conf (in-place)
I0402 12:22:08.778142   463 net.cpp:160] Setting up mbox_conf_fixed
I0402 12:22:08.778148   463 net.cpp:167] Top shape: 1 570276 (570276)
I0402 12:22:08.778152   463 net.cpp:175] Memory required for data: 437847700
I0402 12:22:08.778157   463 layer_factory.hpp:93] Creating layer mbox_priorbox
I0402 12:22:08.778162   463 net.cpp:110] Creating Layer mbox_priorbox
I0402 12:22:08.778167   463 net.cpp:451] mbox_priorbox <- conv4_3_norm_mbox_priorbox
I0402 12:22:08.778172   463 net.cpp:451] mbox_priorbox <- fc7_mbox_priorbox
I0402 12:22:08.778175   463 net.cpp:451] mbox_priorbox <- conv6_2_mbox_priorbox
I0402 12:22:08.778179   463 net.cpp:451] mbox_priorbox <- conv7_2_mbox_priorbox
I0402 12:22:08.778183   463 net.cpp:451] mbox_priorbox <- conv8_2_mbox_priorbox
I0402 12:22:08.778187   463 net.cpp:425] mbox_priorbox -> mbox_priorbox
I0402 12:22:08.778206   463 net.cpp:160] Setting up mbox_priorbox
I0402 12:22:08.778211   463 net.cpp:167] Top shape: 1 2 108624 (217248)
I0402 12:22:08.778215   463 net.cpp:175] Memory required for data: 438716692
I0402 12:22:08.778219   463 layer_factory.hpp:93] Creating layer mbox_priorbox_fixed
I0402 12:22:08.778224   463 net.cpp:110] Creating Layer mbox_priorbox_fixed
I0402 12:22:08.778228   463 net.cpp:451] mbox_priorbox_fixed <- mbox_priorbox
I0402 12:22:08.778232   463 net.cpp:412] mbox_priorbox_fixed -> mbox_priorbox (in-place)
I0402 12:22:08.778261   463 net.cpp:160] Setting up mbox_priorbox_fixed
I0402 12:22:08.778267   463 net.cpp:167] Top shape: 1 2 108624 (217248)
I0402 12:22:08.778272   463 net.cpp:175] Memory required for data: 439585684
I0402 12:22:08.778276   463 net.cpp:238] mbox_priorbox_fixed does not need backward computation.
I0402 12:22:08.778280   463 net.cpp:238] mbox_priorbox does not need backward computation.
I0402 12:22:08.778286   463 net.cpp:238] mbox_conf_fixed does not need backward computation.
I0402 12:22:08.778290   463 net.cpp:238] mbox_conf does not need backward computation.
…
