…
I0711 08:33:22.733464 21633 solver.cpp:99] Creating training net from net file: ../workspace/model/unet-full/train_val.prototxt
I0711 08:33:22.754096 21633 net.cpp:52] Initializing net from parameters: 
name: "unet"
state {
  phase: TRAIN
}
layer {
  name: "data"
  type: "ImageSegData"
  top: "data"
  top: "label"
  include {
    phase: TRAIN
  }
  transform_param {
    scale: 0.022
    crop_size: 512
    mean_value: 73
    mean_value: 82
    mean_value: 72
  }
  image_data_param {
    source: "../workspace/data/cityscapes/img_seg.txt"
    batch_size: 2
    mirror: true
    shuffle: true
  }
}
layer {
  name: "conv_d0a-b"
  type: "Convolution"
  bottom: "data"
  top: "d0b"
  param {
    lr_mult: 1
    decay_mult: 1
  }
  param {
    lr_mult: 2
    decay_mult: 0
  }
  convolution_param {
    num_output: 64
    pad: 1
    kernel_size: 3
    stride: 1
    weight_filler {
      type: "msra"
    }
  }
}
layer {
  name: "relu_d0b"
  type: "ReLU"
  bottom: "d0b"
  top: "relu_d0b"
}
layer {
  name: "conv_d0b-c"
  type: "Convolution"
  bottom: "relu_d0b"
  top: "d0c"
  param {
    lr_mult: 1
    decay_mult: 1
  }
  param {
    lr_mult: 2
    decay_mult: 0
  }
  convolution_param {
    num_output: 64
    pad: 1
    kernel_size: 3
    weight_filler {
      type: "msra"
    }
  }
}
layer {
  name: "BatchNorm_d0c"
  type: "BatchNorm"
  bottom: "d0c"
  top: "BatchNorm_d0c"
  param {
    lr_mult: 1
    decay_mult: 0
  }
  param {
    lr_mult: 1
    decay_mult: 0
  }
  param {
    lr_mult: 0
    decay_mult: 0
  }
  param {
    lr_mult: 0
    decay_mult: 0
  }
  batch_norm_param {
    use_global_stats: true
    eps: 1e-05
    scale_filler {
      type: "constant"
      value: 1
    }
    bias_filler {
      type: "constant"
      value: 0
    }
  }
}
layer {
  name: "relu_d0c"
  type: "ReLU"
  bottom: "BatchNorm_d0c"
  top: "relu_d0c"
}
layer {
  name: "pool_d0c-1a"
  type: "Pooling"
  bottom: "relu_d0c"
  top: "d1a"
  pooling_param {
    pool: MAX
    kernel_size: 2
    stride: 2
  }
}
layer {
  name: "conv_d1a-b"
  type: "Convolution"
  bottom: "d1a"
  top: "d1b"
  param {
    lr_mult: 1
    decay_mult: 1
  }
  param {
    lr_mult: 2
    decay_mult: 0
  }
  convolution_param {
    num_output: 128
    pad: 1
    kernel_size: 3
    weight_filler {
      type: "msra"
    }
  }
}
layer {
  name: "relu_d1b"
  type: "ReLU"
  bottom: "d1b"
  top: "relu_d1b"
}
layer {
  name: "conv_d1b-c"
  type: "Convolution"
  bottom: "relu_d1b"
  top: "d1c"
  param {
    lr_mult: 1
    decay_mult: 1
  }
  param {
    lr_mult: 2
    decay_mult: 0
  }
  convolution_param {
    num_output: 128
    pad: 1
    kernel_size: 3
    weight_filler {
      type: "msra"
    }
  }
}
layer {
  name: "BatchNorm_d1c"
  type: "BatchNorm"
  bottom: "d1c"
  top: "BatchNorm_d1c"
  param {
    lr_mult: 1
    decay_mult: 0
  }
  param {
    lr_mult: 1
    decay_mult: 0
  }
  param {
    lr_mult: 0
    decay_mult: 0
  }
  param {
    lr_mult: 0
    decay_mult: 0
  }
  batch_norm_param {
    use_global_stats: true
    eps: 1e-05
    scale_filler {
      type: "constant"
      value: 1
    }
    bias_filler {
      type: "constant"
      value: 0
    }
  }
}
layer {
  name: "relu_d1c"
  type: "ReLU"
  bottom: "BatchNorm_d1c"
  top: "relu_d1c"
}
layer {
  name: "pool_d1c-2a"
  type: "Pooling"
  bottom: "relu_d1c"
  top: "d2a"
  pooling_param {
    pool: MAX
    kernel_size: 2
    stride: 2
  }
}
layer {
  name: "conv_d2a-b"
  type: "Convolution"
  bottom: "d2a"
  top: "d2b"
  param {
    lr_mult: 1
    decay_mult: 1
  }
  param {
    lr_mult: 2
    decay_mult: 0
  }
  convolution_param {
    num_output: 256
    pad: 1
    kernel_size: 3
    weight_filler {
      type: "msra"
    }
  }
}
layer {
  name: "relu_d2b"
  type: "ReLU"
  bottom: "d2b"
  top: "relu_d2b"
}
layer {
  name: "conv_d2b-c"
  type: "Convolution"
  bottom: "relu_d2b"
  top: "d2c"
  param {
    lr_mult: 1
    decay_mult: 1
  }
  param {
    lr_mult: 2
    decay_mult: 0
  }
  convolution_param {
    num_output: 256
    pad: 1
    kernel_size: 3
    weight_filler {
      type: "msra"
    }
  }
}
layer {
  name: "BatchNorm_d2c"
  type: "BatchNorm"
  bottom: "d2c"
  top: "BatchNorm_d2c"
  param {
    lr_mult: 1
    decay_mult: 0
  }
  param {
    lr_mult: 1
    decay_mult: 0
  }
  param {
    lr_mult: 0
    decay_mult: 0
  }
  param {
    lr_mult: 0
    decay_mult: 0
  }
  batch_norm_param {
    use_global_stats: true
    eps: 1e-05
    scale_filler {
      type: "constant"
      value: 1
    }
    bias_filler {
      type: "constant"
      value: 0
    }
  }
}
layer {
  name: "relu_d2c"
  type: "ReLU"
  bottom: "BatchNorm_d2c"
  top: "relu_d2c"
}
layer {
  name: "pool_d2c-3a"
  type: "Pooling"
  bottom: "relu_d2c"
  top: "d3a"
  pooling_param {
    pool: MAX
    kernel_size: 2
    stride: 2
  }
}
layer {
  name: "conv_d3a-b"
  type: "Convolution"
  bottom: "d3a"
  top: "d3b"
  param {
    lr_mult: 1
    decay_mult: 1
  }
  param {
    lr_mult: 2
    decay_mult: 0
  }
  convolution_param {
    num_output: 512
    pad: 1
    kernel_size: 3
    weight_filler {
      type: "msra"
    }
  }
}
layer {
  name: "relu_d3b"
  type: "ReLU"
  bottom: "d3b"
  top: "relu_d3b"
}
layer {
  name: "conv_d3b-c"
  type: "Convolution"
  bottom: "relu_d3b"
  top: "d3c"
  param {
    lr_mult: 1
    decay_mult: 1
  }
  param {
    lr_mult: 2
    decay_mult: 0
  }
  convolution_param {
    num_output: 512
    pad: 1
    kernel_size: 3
    weight_filler {
      type: "msra"
    }
  }
}
layer {
  name: "BatchNorm_1"
  type: "BatchNorm"
  bottom: "d3c"
  top: "BatchNorm_1"
  param {
    lr_mult: 1
    decay_mult: 0
  }
  param {
    lr_mult: 1
    decay_mult: 0
  }
  param {
    lr_mult: 0
    decay_mult: 0
  }
  param {
    lr_mult: 0
    decay_mult: 0
  }
  batch_norm_param {
    use_global_stats: true
    eps: 1e-05
    scale_filler {
      type: "constant"
      value: 1
    }
    bias_filler {
      type: "constant"
      value: 0
    }
  }
}
layer {
  name: "relu_d3c"
  type: "ReLU"
  bottom: "BatchNorm_1"
  top: "relu_d3c"
}
layer {
  name: "pool_d3c-4a"
  type: "Pooling"
  bottom: "relu_d3c"
  top: "d4a"
  pooling_param {
    pool: MAX
    kernel_size: 2
    stride: 2
  }
}
layer {
  name: "conv_d4a-b"
  type: "Convolution"
  bottom: "d4a"
  top: "d4b"
  param {
    lr_mult: 1
    decay_mult: 1
  }
  param {
    lr_mult: 2
    decay_mult: 0
  }
  convolution_param {
    num_output: 1024
    pad: 1
    kernel_size: 3
    weight_filler {
      type: "msra"
    }
  }
}
layer {
  name: "BatchNorm_2"
  type: "BatchNorm"
  bottom: "d4b"
  top: "BatchNorm_2"
  param {
    lr_mult: 1
    decay_mult: 0
  }
  param {
    lr_mult: 1
    decay_mult: 0
  }
  param {
    lr_mult: 0
    decay_mult: 0
  }
  param {
    lr_mult: 0
    decay_mult: 0
  }
  batch_norm_param {
    use_global_stats: true
    eps: 1e-05
    scale_filler {
      type: "constant"
      value: 1
    }
    bias_filler {
      type: "constant"
      value: 0
    }
  }
}
layer {
  name: "relu_d4b"
  type: "ReLU"
  bottom: "BatchNorm_2"
  top: "relu_d4b"
}
layer {
  name: "conv_d4b-c"
  type: "Convolution"
  bottom: "relu_d4b"
  top: "d4c"
  param {
    lr_mult: 1
    decay_mult: 1
  }
  param {
    lr_mult: 2
    decay_mult: 0
  }
  convolution_param {
    num_output: 1024
    pad: 1
    kernel_size: 3
    weight_filler {
      type: "msra"
    }
  }
}
layer {
  name: "relu_d4c"
  type: "ReLU"
  bottom: "d4c"
  top: "relu_d4c"
}
layer {
  name: "upconv_d4c_u3a"
  type: "Deconvolution"
  bottom: "relu_d4c"
  top: "u3a"
  param {
    lr_mult: 1
    decay_mult: 1
  }
  param {
    lr_mult: 2
    decay_mult: 0
  }
  convolution_param {
    num_output: 512
    pad: 0
    kernel_size: 2
    stride: 2
    weight_filler {
      type: "msra"
    }
  }
}
layer {
  name: "relu_u3a"
  type: "ReLU"
  bottom: "u3a"
  top: "u3a"
}
layer {
  name: "concat_d3cc_u3a-b"
  type: "Concat"
  bottom: "u3a"
  bottom: "d3c"
  top: "u3b"
}
layer {
  name: "conv_u3b-c"
  type: "Convolution"
  bottom: "u3b"
  top: "u3c"
  param {
    lr_mult: 1
    decay_mult: 1
  }
  param {
    lr_mult: 2
    decay_mult: 0
  }
  convolution_param {
    num_output: 512
    pad: 1
    kernel_size: 3
    weight_filler {
      type: "msra"
    }
  }
}
layer {
  name: "relu_u3c"
  type: "ReLU"
  bottom: "u3c"
  top: "u3c"
}
layer {
  name: "conv_u3c-d"
  type: "Convolution"
  bottom: "u3c"
  top: "u3d"
  param {
    lr_mult: 1
    decay_mult: 1
  }
  param {
    lr_mult: 2
    decay_mult: 0
  }
  convolution_param {
    num_output: 512
    pad: 1
    kernel_size: 3
    weight_filler {
      type: "msra"
    }
  }
}
layer {
  name: "relu_u3d"
  type: "ReLU"
  bottom: "u3d"
  top: "u3d"
}
layer {
  name: "upconv_u3d_u2a"
  type: "Deconvolution"
  bottom: "u3d"
  top: "u2a"
  param {
    lr_mult: 1
    decay_mult: 1
  }
  param {
    lr_mult: 2
    decay_mult: 0
  }
  convolution_param {
    num_output: 512
    pad: 0
    kernel_size: 2
    stride: 2
    weight_filler {
      type: "msra"
    }
  }
}
layer {
  name: "relu_u2a"
  type: "ReLU"
  bottom: "u2a"
  top: "u2a"
}
layer {
  name: "concat_d2cc_u2a-b"
  type: "Concat"
  bottom: "u2a"
  bottom: "d2c"
  top: "u2b"
}
layer {
  name: "conv_u2b-c"
  type: "Convolution"
  bottom: "u2b"
  top: "u2c"
  param {
    lr_mult: 1
    decay_mult: 1
  }
  param {
    lr_mult: 2
    decay_mult: 0
  }
  convolution_param {
    num_output: 256
    pad: 1
    kernel_size: 3
    weight_filler {
      type: "msra"
    }
  }
}
layer {
  name: "relu_u2c"
  type: "ReLU"
  bottom: "u2c"
  top: "u2c"
}
layer {
  name: "conv_u2c-d"
  type: "Convolution"
  bottom: "u2c"
  top: "u2d"
  param {
    lr_mult: 1
    decay_mult: 1
  }
  param {
    lr_mult: 2
    decay_mult: 0
  }
  convolution_param {
    num_output: 256
    pad: 1
    kernel_size: 3
    weight_filler {
      type: "msra"
    }
  }
}
layer {
  name: "relu_u2d"
  type: "ReLU"
  bottom: "u2d"
  top: "u2d"
}
layer {
  name: "upconv_u2d_u1a"
  type: "Deconvolution"
  bottom: "u2d"
  top: "u1a"
  param {
    lr_mult: 1
    decay_mult: 1
  }
  param {
    lr_mult: 2
    decay_mult: 0
  }
  convolution_param {
    num_output: 128
    pad: 0
    kernel_size: 2
    stride: 2
    weight_filler {
      type: "msra"
    }
  }
}
layer {
  name: "relu_u1a"
  type: "ReLU"
  bottom: "u1a"
  top: "u1a"
}
layer {
  name: "concat_d1cc_u1a-b"
  type: "Concat"
  bottom: "u1a"
  bottom: "d1c"
  top: "u1b"
}
layer {
  name: "conv_u1b-c"
  type: "Convolution"
  bottom: "u1b"
  top: "u1c"
  param {
    lr_mult: 1
    decay_mult: 1
  }
  param {
    lr_mult: 2
    decay_mult: 0
  }
  convolution_param {
    num_output: 128
    pad: 1
    kernel_size: 3
    weight_filler {
      type: "msra"
    }
  }
}
layer {
  name: "relu_u1c"
  type: "ReLU"
  bottom: "u1c"
  top: "u1c"
}
layer {
  name: "conv_u1c-d"
  type: "Convolution"
  bottom: "u1c"
  top: "u1d"
  param {
    lr_mult: 1
    decay_mult: 1
  }
  param {
    lr_mult: 2
    decay_mult: 0
  }
  convolution_param {
    num_output: 128
    pad: 1
    kernel_size: 3
    weight_filler {
      type: "msra"
    }
  }
}
layer {
  name: "relu_u1d"
  type: "ReLU"
  bottom: "u1d"
  top: "u1d"
}
layer {
  name: "upconv_u1d_u0a_NEW"
  type: "Deconvolution"
  bottom: "u1d"
  top: "u0a"
  param {
    lr_mult: 1
    decay_mult: 1
  }
  param {
    lr_mult: 2
    decay_mult: 0
  }
  convolution_param {
    num_output: 64
    pad: 0
    kernel_size: 2
    stride: 2
    weight_filler {
      type: "msra"
    }
  }
}
layer {
  name: "relu_u0a"
  type: "ReLU"
  bottom: "u0a"
  top: "u0a"
}
layer {
  name: "concat_d0cc_u0a-b"
  type: "Concat"
  bottom: "u0a"
  bottom: "d0c"
  top: "u0b"
}
layer {
  name: "conv_u0b-c_New"
  type: "Convolution"
  bottom: "u0b"
  top: "u0c"
  param {
    lr_mult: 1
    decay_mult: 1
  }
  param {
    lr_mult: 2
    decay_mult: 0
  }
  convolution_param {
    num_output: 64
    pad: 1
    kernel_size: 3
    weight_filler {
      type: "msra"
    }
  }
}
layer {
  name: "relu_u0c"
  type: "ReLU"
  bottom: "u0c"
  top: "u0c"
}
layer {
  name: "conv_u0c-d_New"
  type: "Convolution"
  bottom: "u0c"
  top: "u0d"
  param {
    lr_mult: 1
    decay_mult: 1
  }
  param {
    lr_mult: 2
    decay_mult: 0
  }
  convolution_param {
    num_output: 64
    pad: 1
    kernel_size: 3
    weight_filler {
      type: "msra"
    }
  }
}
layer {
  name: "relu_u0d"
  type: "ReLU"
  bottom: "u0d"
  top: "u0d"
}
layer {
  name: "conv_u0d-score_New"
  type: "Convolution"
  bottom: "u0d"
  top: "conv_u0d-score_New"
  param {
    lr_mult: 1
    decay_mult: 1
  }
  param {
    lr_mult: 2
    decay_mult: 0
  }
  convolution_param {
    num_output: 19
    pad: 0
    kernel_size: 1
    weight_filler {
      type: "msra"
    }
  }
}
layer {
  name: "loss"
  type: "SoftmaxWithLoss"
  bottom: "conv_u0d-score_New"
  bottom: "label"
  top: "loss"
  include {
    phase: TRAIN
  }
  loss_param {
    ignore_label: 255
  }
}
layer {
  name: "acc"
  type: "Accuracy"
  bottom: "conv_u0d-score_New"
  bottom: "label"
  top: "acc"
  top: "per_acc"
  include {
    phase: TRAIN
  }
  accuracy_param {
    ignore_label: 255
  }
}
I0711 08:33:22.754441 21633 layer_factory.hpp:77] Creating layer data
I0711 08:33:22.754487 21633 net.cpp:94] Creating Layer data
I0711 08:33:22.754503 21633 net.cpp:409] data -> data
I0711 08:33:22.754539 21633 net.cpp:409] data -> label
I0711 08:33:22.754799 21633 image_seg_data_layer.cpp:46] Opening file ../workspace/data/cityscapes/img_seg.txt
I0711 08:33:22.771700 21633 image_seg_data_layer.cpp:63] Shuffling data
I0711 08:33:22.771771 21633 image_seg_data_layer.cpp:68] A total of 2975 images.
I0711 08:33:22.841876 21633 image_seg_data_layer.cpp:97] output data size: 2,3,512,512
I0711 08:33:22.879073 21633 internal_thread.cpp:27] Starting internal thread(s) on GPU 1
I0711 08:33:22.879148 21633 net.cpp:144] Setting up data
I0711 08:33:22.879160 21633 net.cpp:151] Top shape: 2 3 512 512 (1572864)
I0711 08:33:22.879164 21633 net.cpp:151] Top shape: 2 1 512 512 (524288)
I0711 08:33:22.879168 21633 net.cpp:159] Memory required for data: 8388608
I0711 08:33:22.879176 21633 layer_factory.hpp:77] Creating layer label_data_1_split
I0711 08:33:22.879189 21633 net.cpp:94] Creating Layer label_data_1_split
I0711 08:33:22.879195 21633 net.cpp:435] label_data_1_split <- label
I0711 08:33:22.879207 21633 net.cpp:409] label_data_1_split -> label_data_1_split_0
I0711 08:33:22.879217 21633 net.cpp:409] label_data_1_split -> label_data_1_split_1
I0711 08:33:22.879266 21633 net.cpp:144] Setting up label_data_1_split
I0711 08:33:22.879273 21633 net.cpp:151] Top shape: 2 1 512 512 (524288)
I0711 08:33:22.879277 21633 net.cpp:151] Top shape: 2 1 512 512 (524288)
I0711 08:33:22.879281 21633 net.cpp:159] Memory required for data: 12582912
I0711 08:33:22.879283 21633 layer_factory.hpp:77] Creating layer conv_d0a-b
I0711 08:33:22.879300 21633 net.cpp:94] Creating Layer conv_d0a-b
I0711 08:33:22.879304 21633 net.cpp:435] conv_d0a-b <- data
I0711 08:33:22.879309 21633 net.cpp:409] conv_d0a-b -> d0b
I0711 08:33:22.881295 21633 net.cpp:144] Setting up conv_d0a-b
I0711 08:33:22.881309 21633 net.cpp:151] Top shape: 2 64 512 512 (33554432)
I0711 08:33:22.881311 21633 net.cpp:159] Memory required for data: 146800640
I0711 08:33:22.881326 21633 layer_factory.hpp:77] Creating layer relu_d0b
I0711 08:33:22.881335 21633 net.cpp:94] Creating Layer relu_d0b
I0711 08:33:22.881337 21633 net.cpp:435] relu_d0b <- d0b
I0711 08:33:22.881342 21633 net.cpp:409] relu_d0b -> relu_d0b
I0711 08:33:22.881597 21633 net.cpp:144] Setting up relu_d0b
I0711 08:33:22.881605 21633 net.cpp:151] Top shape: 2 64 512 512 (33554432)
I0711 08:33:22.881608 21633 net.cpp:159] Memory required for data: 281018368
I0711 08:33:22.881611 21633 layer_factory.hpp:77] Creating layer conv_d0b-c
I0711 08:33:22.881639 21633 net.cpp:94] Creating Layer conv_d0b-c
I0711 08:33:22.881644 21633 net.cpp:435] conv_d0b-c <- relu_d0b
I0711 08:33:22.881649 21633 net.cpp:409] conv_d0b-c -> d0c
I0711 08:33:22.883052 21633 net.cpp:144] Setting up conv_d0b-c
I0711 08:33:22.883064 21633 net.cpp:151] Top shape: 2 64 512 512 (33554432)
I0711 08:33:22.883069 21633 net.cpp:159] Memory required for data: 415236096
I0711 08:33:22.883076 21633 layer_factory.hpp:77] Creating layer d0c_conv_d0b-c_0_split
I0711 08:33:22.883085 21633 net.cpp:94] Creating Layer d0c_conv_d0b-c_0_split
I0711 08:33:22.883088 21633 net.cpp:435] d0c_conv_d0b-c_0_split <- d0c
I0711 08:33:22.883095 21633 net.cpp:409] d0c_conv_d0b-c_0_split -> d0c_conv_d0b-c_0_split_0
I0711 08:33:22.883102 21633 net.cpp:409] d0c_conv_d0b-c_0_split -> d0c_conv_d0b-c_0_split_1
I0711 08:33:22.883137 21633 net.cpp:144] Setting up d0c_conv_d0b-c_0_split
I0711 08:33:22.883142 21633 net.cpp:151] Top shape: 2 64 512 512 (33554432)
I0711 08:33:22.883147 21633 net.cpp:151] Top shape: 2 64 512 512 (33554432)
I0711 08:33:22.883150 21633 net.cpp:159] Memory required for data: 683671552
I0711 08:33:22.883153 21633 layer_factory.hpp:77] Creating layer BatchNorm_d0c
I0711 08:33:22.883162 21633 net.cpp:94] Creating Layer BatchNorm_d0c
I0711 08:33:22.883165 21633 net.cpp:435] BatchNorm_d0c <- d0c_conv_d0b-c_0_split_0
I0711 08:33:22.883172 21633 net.cpp:409] BatchNorm_d0c -> BatchNorm_d0c
I0711 08:33:22.884474 21633 net.cpp:144] Setting up BatchNorm_d0c
I0711 08:33:22.884487 21633 net.cpp:151] Top shape: 2 64 512 512 (33554432)
I0711 08:33:22.884491 21633 net.cpp:159] Memory required for data: 817889280
I0711 08:33:22.884505 21633 layer_factory.hpp:77] Creating layer relu_d0c
I0711 08:33:22.884510 21633 net.cpp:94] Creating Layer relu_d0c
I0711 08:33:22.884515 21633 net.cpp:435] relu_d0c <- BatchNorm_d0c
I0711 08:33:22.884521 21633 net.cpp:409] relu_d0c -> relu_d0c
I0711 08:33:22.884543 21633 net.cpp:144] Setting up relu_d0c
I0711 08:33:22.884547 21633 net.cpp:151] Top shape: 2 64 512 512 (33554432)
I0711 08:33:22.884551 21633 net.cpp:159] Memory required for data: 952107008
I0711 08:33:22.884554 21633 layer_factory.hpp:77] Creating layer pool_d0c-1a
I0711 08:33:22.884563 21633 net.cpp:94] Creating Layer pool_d0c-1a
I0711 08:33:22.884567 21633 net.cpp:435] pool_d0c-1a <- relu_d0c
I0711 08:33:22.884572 21633 net.cpp:409] pool_d0c-1a -> d1a
I0711 08:33:22.884608 21633 net.cpp:144] Setting up pool_d0c-1a
I0711 08:33:22.884614 21633 net.cpp:151] Top shape: 2 64 256 256 (8388608)
I0711 08:33:22.884618 21633 net.cpp:159] Memory required for data: 985661440
I0711 08:33:22.884620 21633 layer_factory.hpp:77] Creating layer conv_d1a-b
I0711 08:33:22.884629 21633 net.cpp:94] Creating Layer conv_d1a-b
I0711 08:33:22.884632 21633 net.cpp:435] conv_d1a-b <- d1a
I0711 08:33:22.884637 21633 net.cpp:409] conv_d1a-b -> d1b
I0711 08:33:22.885459 21633 net.cpp:144] Setting up conv_d1a-b
I0711 08:33:22.885469 21633 net.cpp:151] Top shape: 2 128 256 256 (16777216)
I0711 08:33:22.885473 21633 net.cpp:159] Memory required for data: 1052770304
I0711 08:33:22.885478 21633 layer_factory.hpp:77] Creating layer relu_d1b
I0711 08:33:22.885483 21633 net.cpp:94] Creating Layer relu_d1b
I0711 08:33:22.885488 21633 net.cpp:435] relu_d1b <- d1b
I0711 08:33:22.885491 21633 net.cpp:409] relu_d1b -> relu_d1b
I0711 08:33:22.885514 21633 net.cpp:144] Setting up relu_d1b
I0711 08:33:22.885519 21633 net.cpp:151] Top shape: 2 128 256 256 (16777216)
I0711 08:33:22.885522 21633 net.cpp:159] Memory required for data: 1119879168
I0711 08:33:22.885525 21633 layer_factory.hpp:77] Creating layer conv_d1b-c
I0711 08:33:22.885531 21633 net.cpp:94] Creating Layer conv_d1b-c
I0711 08:33:22.885535 21633 net.cpp:435] conv_d1b-c <- relu_d1b
I0711 08:33:22.885540 21633 net.cpp:409] conv_d1b-c -> d1c
I0711 08:33:22.886952 21633 net.cpp:144] Setting up conv_d1b-c
I0711 08:33:22.886961 21633 net.cpp:151] Top shape: 2 128 256 256 (16777216)
I0711 08:33:22.886965 21633 net.cpp:159] Memory required for data: 1186988032
I0711 08:33:22.886982 21633 layer_factory.hpp:77] Creating layer d1c_conv_d1b-c_0_split
I0711 08:33:22.886988 21633 net.cpp:94] Creating Layer d1c_conv_d1b-c_0_split
I0711 08:33:22.886991 21633 net.cpp:435] d1c_conv_d1b-c_0_split <- d1c
I0711 08:33:22.886996 21633 net.cpp:409] d1c_conv_d1b-c_0_split -> d1c_conv_d1b-c_0_split_0
I0711 08:33:22.887004 21633 net.cpp:409] d1c_conv_d1b-c_0_split -> d1c_conv_d1b-c_0_split_1
I0711 08:33:22.887037 21633 net.cpp:144] Setting up d1c_conv_d1b-c_0_split
I0711 08:33:22.887042 21633 net.cpp:151] Top shape: 2 128 256 256 (16777216)
I0711 08:33:22.887046 21633 net.cpp:151] Top shape: 2 128 256 256 (16777216)
I0711 08:33:22.887050 21633 net.cpp:159] Memory required for data: 1321205760
I0711 08:33:22.887053 21633 layer_factory.hpp:77] Creating layer BatchNorm_d1c
I0711 08:33:22.887059 21633 net.cpp:94] Creating Layer BatchNorm_d1c
I0711 08:33:22.887063 21633 net.cpp:435] BatchNorm_d1c <- d1c_conv_d1b-c_0_split_0
I0711 08:33:22.887069 21633 net.cpp:409] BatchNorm_d1c -> BatchNorm_d1c
I0711 08:33:22.887518 21633 net.cpp:144] Setting up BatchNorm_d1c
I0711 08:33:22.887526 21633 net.cpp:151] Top shape: 2 128 256 256 (16777216)
I0711 08:33:22.887529 21633 net.cpp:159] Memory required for data: 1388314624
I0711 08:33:22.887542 21633 layer_factory.hpp:77] Creating layer relu_d1c
I0711 08:33:22.887547 21633 net.cpp:94] Creating Layer relu_d1c
I0711 08:33:22.887550 21633 net.cpp:435] relu_d1c <- BatchNorm_d1c
I0711 08:33:22.887555 21633 net.cpp:409] relu_d1c -> relu_d1c
I0711 08:33:22.887576 21633 net.cpp:144] Setting up relu_d1c
I0711 08:33:22.887580 21633 net.cpp:151] Top shape: 2 128 256 256 (16777216)
I0711 08:33:22.887583 21633 net.cpp:159] Memory required for data: 1455423488
I0711 08:33:22.887586 21633 layer_factory.hpp:77] Creating layer pool_d1c-2a
I0711 08:33:22.887593 21633 net.cpp:94] Creating Layer pool_d1c-2a
I0711 08:33:22.887595 21633 net.cpp:435] pool_d1c-2a <- relu_d1c
I0711 08:33:22.887600 21633 net.cpp:409] pool_d1c-2a -> d2a
I0711 08:33:22.887627 21633 net.cpp:144] Setting up pool_d1c-2a
I0711 08:33:22.887645 21633 net.cpp:151] Top shape: 2 128 128 128 (4194304)
I0711 08:33:22.887647 21633 net.cpp:159] Memory required for data: 1472200704
I0711 08:33:22.887650 21633 layer_factory.hpp:77] Creating layer conv_d2a-b
I0711 08:33:22.887658 21633 net.cpp:94] Creating Layer conv_d2a-b
I0711 08:33:22.887662 21633 net.cpp:435] conv_d2a-b <- d2a
I0711 08:33:22.887667 21633 net.cpp:409] conv_d2a-b -> d2b
I0711 08:33:22.891649 21633 net.cpp:144] Setting up conv_d2a-b
I0711 08:33:22.891661 21633 net.cpp:151] Top shape: 2 256 128 128 (8388608)
I0711 08:33:22.891664 21633 net.cpp:159] Memory required for data: 1505755136
I0711 08:33:22.891671 21633 layer_factory.hpp:77] Creating layer relu_d2b
I0711 08:33:22.891677 21633 net.cpp:94] Creating Layer relu_d2b
I0711 08:33:22.891681 21633 net.cpp:435] relu_d2b <- d2b
I0711 08:33:22.891686 21633 net.cpp:409] relu_d2b -> relu_d2b
I0711 08:33:22.891713 21633 net.cpp:144] Setting up relu_d2b
I0711 08:33:22.891718 21633 net.cpp:151] Top shape: 2 256 128 128 (8388608)
I0711 08:33:22.891721 21633 net.cpp:159] Memory required for data: 1539309568
I0711 08:33:22.891726 21633 layer_factory.hpp:77] Creating layer conv_d2b-c
I0711 08:33:22.891732 21633 net.cpp:94] Creating Layer conv_d2b-c
I0711 08:33:22.891736 21633 net.cpp:435] conv_d2b-c <- relu_d2b
I0711 08:33:22.891741 21633 net.cpp:409] conv_d2b-c -> d2c
I0711 08:33:22.897491 21633 net.cpp:144] Setting up conv_d2b-c
I0711 08:33:22.897503 21633 net.cpp:151] Top shape: 2 256 128 128 (8388608)
I0711 08:33:22.897507 21633 net.cpp:159] Memory required for data: 1572864000
I0711 08:33:22.897513 21633 layer_factory.hpp:77] Creating layer d2c_conv_d2b-c_0_split
I0711 08:33:22.897519 21633 net.cpp:94] Creating Layer d2c_conv_d2b-c_0_split
I0711 08:33:22.897523 21633 net.cpp:435] d2c_conv_d2b-c_0_split <- d2c
I0711 08:33:22.897528 21633 net.cpp:409] d2c_conv_d2b-c_0_split -> d2c_conv_d2b-c_0_split_0
I0711 08:33:22.897536 21633 net.cpp:409] d2c_conv_d2b-c_0_split -> d2c_conv_d2b-c_0_split_1
I0711 08:33:22.897570 21633 net.cpp:144] Setting up d2c_conv_d2b-c_0_split
I0711 08:33:22.897586 21633 net.cpp:151] Top shape: 2 256 128 128 (8388608)
I0711 08:33:22.897590 21633 net.cpp:151] Top shape: 2 256 128 128 (8388608)
I0711 08:33:22.897593 21633 net.cpp:159] Memory required for data: 1639972864
I0711 08:33:22.897598 21633 layer_factory.hpp:77] Creating layer BatchNorm_d2c
I0711 08:33:22.897604 21633 net.cpp:94] Creating Layer BatchNorm_d2c
I0711 08:33:22.897608 21633 net.cpp:435] BatchNorm_d2c <- d2c_conv_d2b-c_0_split_0
I0711 08:33:22.897614 21633 net.cpp:409] BatchNorm_d2c -> BatchNorm_d2c
I0711 08:33:22.898046 21633 net.cpp:144] Setting up BatchNorm_d2c
I0711 08:33:22.898053 21633 net.cpp:151] Top shape: 2 256 128 128 (8388608)
I0711 08:33:22.898056 21633 net.cpp:159] Memory required for data: 1673527296
I0711 08:33:22.898064 21633 layer_factory.hpp:77] Creating layer relu_d2c
I0711 08:33:22.898070 21633 net.cpp:94] Creating Layer relu_d2c
I0711 08:33:22.898074 21633 net.cpp:435] relu_d2c <- BatchNorm_d2c
I0711 08:33:22.898079 21633 net.cpp:409] relu_d2c -> relu_d2c
I0711 08:33:22.898099 21633 net.cpp:144] Setting up relu_d2c
I0711 08:33:22.898104 21633 net.cpp:151] Top shape: 2 256 128 128 (8388608)
I0711 08:33:22.898108 21633 net.cpp:159] Memory required for data: 1707081728
I0711 08:33:22.898110 21633 layer_factory.hpp:77] Creating layer pool_d2c-3a
I0711 08:33:22.898116 21633 net.cpp:94] Creating Layer pool_d2c-3a
I0711 08:33:22.898120 21633 net.cpp:435] pool_d2c-3a <- relu_d2c
I0711 08:33:22.898124 21633 net.cpp:409] pool_d2c-3a -> d3a
I0711 08:33:22.898152 21633 net.cpp:144] Setting up pool_d2c-3a
I0711 08:33:22.898159 21633 net.cpp:151] Top shape: 2 256 64 64 (2097152)
I0711 08:33:22.898162 21633 net.cpp:159] Memory required for data: 1715470336
I0711 08:33:22.898165 21633 layer_factory.hpp:77] Creating layer conv_d3a-b
I0711 08:33:22.898174 21633 net.cpp:94] Creating Layer conv_d3a-b
I0711 08:33:22.898176 21633 net.cpp:435] conv_d3a-b <- d3a
I0711 08:33:22.898182 21633 net.cpp:409] conv_d3a-b -> d3b
I0711 08:33:22.909953 21633 net.cpp:144] Setting up conv_d3a-b
I0711 08:33:22.909967 21633 net.cpp:151] Top shape: 2 512 64 64 (4194304)
I0711 08:33:22.909970 21633 net.cpp:159] Memory required for data: 1732247552
I0711 08:33:22.909977 21633 layer_factory.hpp:77] Creating layer relu_d3b
I0711 08:33:22.909983 21633 net.cpp:94] Creating Layer relu_d3b
I0711 08:33:22.909987 21633 net.cpp:435] relu_d3b <- d3b
I0711 08:33:22.909993 21633 net.cpp:409] relu_d3b -> relu_d3b
I0711 08:33:22.910018 21633 net.cpp:144] Setting up relu_d3b
I0711 08:33:22.910023 21633 net.cpp:151] Top shape: 2 512 64 64 (4194304)
I0711 08:33:22.910027 21633 net.cpp:159] Memory required for data: 1749024768
I0711 08:33:22.910029 21633 layer_factory.hpp:77] Creating layer conv_d3b-c
I0711 08:33:22.910037 21633 net.cpp:94] Creating Layer conv_d3b-c
I0711 08:33:22.910042 21633 net.cpp:435] conv_d3b-c <- relu_d3b
I0711 08:33:22.910046 21633 net.cpp:409] conv_d3b-c -> d3c
I0711 08:33:22.931721 21633 net.cpp:144] Setting up conv_d3b-c
I0711 08:33:22.931736 21633 net.cpp:151] Top shape: 2 512 64 64 (4194304)
I0711 08:33:22.931740 21633 net.cpp:159] Memory required for data: 1765801984
I0711 08:33:22.931746 21633 layer_factory.hpp:77] Creating layer d3c_conv_d3b-c_0_split
I0711 08:33:22.931753 21633 net.cpp:94] Creating Layer d3c_conv_d3b-c_0_split
I0711 08:33:22.931764 21633 net.cpp:435] d3c_conv_d3b-c_0_split <- d3c
I0711 08:33:22.931771 21633 net.cpp:409] d3c_conv_d3b-c_0_split -> d3c_conv_d3b-c_0_split_0
I0711 08:33:22.931778 21633 net.cpp:409] d3c_conv_d3b-c_0_split -> d3c_conv_d3b-c_0_split_1
I0711 08:33:22.931814 21633 net.cpp:144] Setting up d3c_conv_d3b-c_0_split
I0711 08:33:22.931824 21633 net.cpp:151] Top shape: 2 512 64 64 (4194304)
I0711 08:33:22.931828 21633 net.cpp:151] Top shape: 2 512 64 64 (4194304)
I0711 08:33:22.931831 21633 net.cpp:159] Memory required for data: 1799356416
I0711 08:33:22.931834 21633 layer_factory.hpp:77] Creating layer BatchNorm_1
I0711 08:33:22.931843 21633 net.cpp:94] Creating Layer BatchNorm_1
I0711 08:33:22.931846 21633 net.cpp:435] BatchNorm_1 <- d3c_conv_d3b-c_0_split_0
I0711 08:33:22.931866 21633 net.cpp:409] BatchNorm_1 -> BatchNorm_1
I0711 08:33:22.932292 21633 net.cpp:144] Setting up BatchNorm_1
I0711 08:33:22.932301 21633 net.cpp:151] Top shape: 2 512 64 64 (4194304)
I0711 08:33:22.932304 21633 net.cpp:159] Memory required for data: 1816133632
I0711 08:33:22.932317 21633 layer_factory.hpp:77] Creating layer relu_d3c
I0711 08:33:22.932322 21633 net.cpp:94] Creating Layer relu_d3c
I0711 08:33:22.932327 21633 net.cpp:435] relu_d3c <- BatchNorm_1
I0711 08:33:22.932332 21633 net.cpp:409] relu_d3c -> relu_d3c
I0711 08:33:22.932353 21633 net.cpp:144] Setting up relu_d3c
I0711 08:33:22.932358 21633 net.cpp:151] Top shape: 2 512 64 64 (4194304)
I0711 08:33:22.932361 21633 net.cpp:159] Memory required for data: 1832910848
I0711 08:33:22.932364 21633 layer_factory.hpp:77] Creating layer pool_d3c-4a
I0711 08:33:22.932369 21633 net.cpp:94] Creating Layer pool_d3c-4a
I0711 08:33:22.932374 21633 net.cpp:435] pool_d3c-4a <- relu_d3c
I0711 08:33:22.932379 21633 net.cpp:409] pool_d3c-4a -> d4a
I0711 08:33:22.932409 21633 net.cpp:144] Setting up pool_d3c-4a
I0711 08:33:22.932415 21633 net.cpp:151] Top shape: 2 512 32 32 (1048576)
I0711 08:33:22.932417 21633 net.cpp:159] Memory required for data: 1837105152
I0711 08:33:22.932420 21633 layer_factory.hpp:77] Creating layer conv_d4a-b
I0711 08:33:22.932428 21633 net.cpp:94] Creating Layer conv_d4a-b
I0711 08:33:22.932431 21633 net.cpp:435] conv_d4a-b <- d4a
I0711 08:33:22.932436 21633 net.cpp:409] conv_d4a-b -> d4b
I0711 08:33:22.975574 21633 net.cpp:144] Setting up conv_d4a-b
I0711 08:33:22.975596 21633 net.cpp:151] Top shape: 2 1024 32 32 (2097152)
I0711 08:33:22.975600 21633 net.cpp:159] Memory required for data: 1845493760
I0711 08:33:22.975608 21633 layer_factory.hpp:77] Creating layer BatchNorm_2
I0711 08:33:22.975621 21633 net.cpp:94] Creating Layer BatchNorm_2
I0711 08:33:22.975626 21633 net.cpp:435] BatchNorm_2 <- d4b
I0711 08:33:22.975633 21633 net.cpp:409] BatchNorm_2 -> BatchNorm_2
I0711 08:33:22.976079 21633 net.cpp:144] Setting up BatchNorm_2
I0711 08:33:22.976089 21633 net.cpp:151] Top shape: 2 1024 32 32 (2097152)
I0711 08:33:22.976092 21633 net.cpp:159] Memory required for data: 1853882368
I0711 08:33:22.976102 21633 layer_factory.hpp:77] Creating layer relu_d4b
I0711 08:33:22.976111 21633 net.cpp:94] Creating Layer relu_d4b
I0711 08:33:22.976115 21633 net.cpp:435] relu_d4b <- BatchNorm_2
I0711 08:33:22.976121 21633 net.cpp:409] relu_d4b -> relu_d4b
I0711 08:33:22.976142 21633 net.cpp:144] Setting up relu_d4b
I0711 08:33:22.976148 21633 net.cpp:151] Top shape: 2 1024 32 32 (2097152)
I0711 08:33:22.976151 21633 net.cpp:159] Memory required for data: 1862270976
I0711 08:33:22.976155 21633 layer_factory.hpp:77] Creating layer conv_d4b-c
I0711 08:33:22.976163 21633 net.cpp:94] Creating Layer conv_d4b-c
I0711 08:33:22.976167 21633 net.cpp:435] conv_d4b-c <- relu_d4b
I0711 08:33:22.976173 21633 net.cpp:409] conv_d4b-c -> d4c
I0711 08:33:23.063329 21633 net.cpp:144] Setting up conv_d4b-c
I0711 08:33:23.063359 21633 net.cpp:151] Top shape: 2 1024 32 32 (2097152)
I0711 08:33:23.063362 21633 net.cpp:159] Memory required for data: 1870659584
I0711 08:33:23.063372 21633 layer_factory.hpp:77] Creating layer relu_d4c
I0711 08:33:23.063382 21633 net.cpp:94] Creating Layer relu_d4c
I0711 08:33:23.063387 21633 net.cpp:435] relu_d4c <- d4c
I0711 08:33:23.063396 21633 net.cpp:409] relu_d4c -> relu_d4c
I0711 08:33:23.063426 21633 net.cpp:144] Setting up relu_d4c
I0711 08:33:23.063429 21633 net.cpp:151] Top shape: 2 1024 32 32 (2097152)
I0711 08:33:23.063432 21633 net.cpp:159] Memory required for data: 1879048192
I0711 08:33:23.063436 21633 layer_factory.hpp:77] Creating layer upconv_d4c_u3a
I0711 08:33:23.063444 21633 net.cpp:94] Creating Layer upconv_d4c_u3a
I0711 08:33:23.063448 21633 net.cpp:435] upconv_d4c_u3a <- relu_d4c
I0711 08:33:23.063453 21633 net.cpp:409] upconv_d4c_u3a -> u3a
I0711 08:33:23.083135 21633 net.cpp:144] Setting up upconv_d4c_u3a
I0711 08:33:23.083156 21633 net.cpp:151] Top shape: 2 512 64 64 (4194304)
I0711 08:33:23.083182 21633 net.cpp:159] Memory required for data: 1895825408
I0711 08:33:23.083191 21633 layer_factory.hpp:77] Creating layer relu_u3a
I0711 08:33:23.083200 21633 net.cpp:94] Creating Layer relu_u3a
I0711 08:33:23.083205 21633 net.cpp:435] relu_u3a <- u3a
I0711 08:33:23.083211 21633 net.cpp:396] relu_u3a -> u3a (in-place)
I0711 08:33:23.083222 21633 net.cpp:144] Setting up relu_u3a
I0711 08:33:23.083226 21633 net.cpp:151] Top shape: 2 512 64 64 (4194304)
I0711 08:33:23.083230 21633 net.cpp:159] Memory required for data: 1912602624
I0711 08:33:23.083233 21633 layer_factory.hpp:77] Creating layer concat_d3cc_u3a-b
I0711 08:33:23.083238 21633 net.cpp:94] Creating Layer concat_d3cc_u3a-b
I0711 08:33:23.083241 21633 net.cpp:435] concat_d3cc_u3a-b <- u3a
I0711 08:33:23.083246 21633 net.cpp:435] concat_d3cc_u3a-b <- d3c_conv_d3b-c_0_split_1
I0711 08:33:23.083252 21633 net.cpp:409] concat_d3cc_u3a-b -> u3b
I0711 08:33:23.083277 21633 net.cpp:144] Setting up concat_d3cc_u3a-b
I0711 08:33:23.083284 21633 net.cpp:151] Top shape: 2 1024 64 64 (8388608)
I0711 08:33:23.083287 21633 net.cpp:159] Memory required for data: 1946157056
I0711 08:33:23.083290 21633 layer_factory.hpp:77] Creating layer conv_u3b-c
I0711 08:33:23.083300 21633 net.cpp:94] Creating Layer conv_u3b-c
I0711 08:33:23.083304 21633 net.cpp:435] conv_u3b-c <- u3b
I0711 08:33:23.083309 21633 net.cpp:409] conv_u3b-c -> u3c
I0711 08:33:23.126410 21633 net.cpp:144] Setting up conv_u3b-c
I0711 08:33:23.126432 21633 net.cpp:151] Top shape: 2 512 64 64 (4194304)
I0711 08:33:23.126436 21633 net.cpp:159] Memory required for data: 1962934272
I0711 08:33:23.126446 21633 layer_factory.hpp:77] Creating layer relu_u3c
I0711 08:33:23.126454 21633 net.cpp:94] Creating Layer relu_u3c
I0711 08:33:23.126459 21633 net.cpp:435] relu_u3c <- u3c
I0711 08:33:23.126466 21633 net.cpp:396] relu_u3c -> u3c (in-place)
I0711 08:33:23.126475 21633 net.cpp:144] Setting up relu_u3c
I0711 08:33:23.126479 21633 net.cpp:151] Top shape: 2 512 64 64 (4194304)
I0711 08:33:23.126482 21633 net.cpp:159] Memory required for data: 1979711488
I0711 08:33:23.126485 21633 layer_factory.hpp:77] Creating layer conv_u3c-d
I0711 08:33:23.126494 21633 net.cpp:94] Creating Layer conv_u3c-d
I0711 08:33:23.126497 21633 net.cpp:435] conv_u3c-d <- u3c
I0711 08:33:23.126502 21633 net.cpp:409] conv_u3c-d -> u3d
I0711 08:33:23.148495 21633 net.cpp:144] Setting up conv_u3c-d
I0711 08:33:23.148521 21633 net.cpp:151] Top shape: 2 512 64 64 (4194304)
I0711 08:33:23.148524 21633 net.cpp:159] Memory required for data: 1996488704
I0711 08:33:23.148535 21633 layer_factory.hpp:77] Creating layer relu_u3d
I0711 08:33:23.148543 21633 net.cpp:94] Creating Layer relu_u3d
I0711 08:33:23.148548 21633 net.cpp:435] relu_u3d <- u3d
I0711 08:33:23.148555 21633 net.cpp:396] relu_u3d -> u3d (in-place)
I0711 08:33:23.148566 21633 net.cpp:144] Setting up relu_u3d
I0711 08:33:23.148569 21633 net.cpp:151] Top shape: 2 512 64 64 (4194304)
I0711 08:33:23.148572 21633 net.cpp:159] Memory required for data: 2013265920
I0711 08:33:23.148576 21633 layer_factory.hpp:77] Creating layer upconv_u3d_u2a
I0711 08:33:23.148583 21633 net.cpp:94] Creating Layer upconv_u3d_u2a
I0711 08:33:23.148586 21633 net.cpp:435] upconv_u3d_u2a <- u3d
I0711 08:33:23.148592 21633 net.cpp:409] upconv_u3d_u2a -> u2a
I0711 08:33:23.158773 21633 net.cpp:144] Setting up upconv_u3d_u2a
I0711 08:33:23.158797 21633 net.cpp:151] Top shape: 2 512 128 128 (16777216)
I0711 08:33:23.158800 21633 net.cpp:159] Memory required for data: 2080374784
I0711 08:33:23.158812 21633 layer_factory.hpp:77] Creating layer relu_u2a
I0711 08:33:23.158821 21633 net.cpp:94] Creating Layer relu_u2a
I0711 08:33:23.158826 21633 net.cpp:435] relu_u2a <- u2a
I0711 08:33:23.158835 21633 net.cpp:396] relu_u2a -> u2a (in-place)
I0711 08:33:23.158848 21633 net.cpp:144] Setting up relu_u2a
I0711 08:33:23.158851 21633 net.cpp:151] Top shape: 2 512 128 128 (16777216)
I0711 08:33:23.158854 21633 net.cpp:159] Memory required for data: 2147483648
I0711 08:33:23.158857 21633 layer_factory.hpp:77] Creating layer concat_d2cc_u2a-b
I0711 08:33:23.158885 21633 net.cpp:94] Creating Layer concat_d2cc_u2a-b
I0711 08:33:23.158890 21633 net.cpp:435] concat_d2cc_u2a-b <- u2a
I0711 08:33:23.158895 21633 net.cpp:435] concat_d2cc_u2a-b <- d2c_conv_d2b-c_0_split_1
I0711 08:33:23.158900 21633 net.cpp:409] concat_d2cc_u2a-b -> u2b
I0711 08:33:23.158928 21633 net.cpp:144] Setting up concat_d2cc_u2a-b
I0711 08:33:23.158936 21633 net.cpp:151] Top shape: 2 768 128 128 (25165824)
I0711 08:33:23.158938 21633 net.cpp:159] Memory required for data: 2248146944
I0711 08:33:23.158942 21633 layer_factory.hpp:77] Creating layer conv_u2b-c
I0711 08:33:23.158952 21633 net.cpp:94] Creating Layer conv_u2b-c
I0711 08:33:23.158957 21633 net.cpp:435] conv_u2b-c <- u2b
I0711 08:33:23.158962 21633 net.cpp:409] conv_u2b-c -> u2c
I0711 08:33:23.175700 21633 net.cpp:144] Setting up conv_u2b-c
I0711 08:33:23.175724 21633 net.cpp:151] Top shape: 2 256 128 128 (8388608)
I0711 08:33:23.175726 21633 net.cpp:159] Memory required for data: 2281701376
I0711 08:33:23.175736 21633 layer_factory.hpp:77] Creating layer relu_u2c
I0711 08:33:23.175745 21633 net.cpp:94] Creating Layer relu_u2c
I0711 08:33:23.175751 21633 net.cpp:435] relu_u2c <- u2c
I0711 08:33:23.175761 21633 net.cpp:396] relu_u2c -> u2c (in-place)
I0711 08:33:23.175770 21633 net.cpp:144] Setting up relu_u2c
I0711 08:33:23.175774 21633 net.cpp:151] Top shape: 2 256 128 128 (8388608)
I0711 08:33:23.175778 21633 net.cpp:159] Memory required for data: 2315255808
I0711 08:33:23.175781 21633 layer_factory.hpp:77] Creating layer conv_u2c-d
I0711 08:33:23.175791 21633 net.cpp:94] Creating Layer conv_u2c-d
I0711 08:33:23.175793 21633 net.cpp:435] conv_u2c-d <- u2c
I0711 08:33:23.175799 21633 net.cpp:409] conv_u2c-d -> u2d
I0711 08:33:23.181663 21633 net.cpp:144] Setting up conv_u2c-d
I0711 08:33:23.181674 21633 net.cpp:151] Top shape: 2 256 128 128 (8388608)
I0711 08:33:23.181677 21633 net.cpp:159] Memory required for data: 2348810240
I0711 08:33:23.181684 21633 layer_factory.hpp:77] Creating layer relu_u2d
I0711 08:33:23.181690 21633 net.cpp:94] Creating Layer relu_u2d
I0711 08:33:23.181694 21633 net.cpp:435] relu_u2d <- u2d
I0711 08:33:23.181699 21633 net.cpp:396] relu_u2d -> u2d (in-place)
I0711 08:33:23.181706 21633 net.cpp:144] Setting up relu_u2d
I0711 08:33:23.181710 21633 net.cpp:151] Top shape: 2 256 128 128 (8388608)
I0711 08:33:23.181713 21633 net.cpp:159] Memory required for data: 2382364672
I0711 08:33:23.181716 21633 layer_factory.hpp:77] Creating layer upconv_u2d_u1a
I0711 08:33:23.181723 21633 net.cpp:94] Creating Layer upconv_u2d_u1a
I0711 08:33:23.181726 21633 net.cpp:435] upconv_u2d_u1a <- u2d
I0711 08:33:23.181731 21633 net.cpp:409] upconv_u2d_u1a -> u1a
I0711 08:33:23.183055 21633 net.cpp:144] Setting up upconv_u2d_u1a
I0711 08:33:23.183064 21633 net.cpp:151] Top shape: 2 128 256 256 (16777216)
I0711 08:33:23.183068 21633 net.cpp:159] Memory required for data: 2449473536
I0711 08:33:23.183073 21633 layer_factory.hpp:77] Creating layer relu_u1a
I0711 08:33:23.183077 21633 net.cpp:94] Creating Layer relu_u1a
I0711 08:33:23.183081 21633 net.cpp:435] relu_u1a <- u1a
I0711 08:33:23.183085 21633 net.cpp:396] relu_u1a -> u1a (in-place)
I0711 08:33:23.183091 21633 net.cpp:144] Setting up relu_u1a
I0711 08:33:23.183095 21633 net.cpp:151] Top shape: 2 128 256 256 (16777216)
I0711 08:33:23.183099 21633 net.cpp:159] Memory required for data: 2516582400
I0711 08:33:23.183101 21633 layer_factory.hpp:77] Creating layer concat_d1cc_u1a-b
I0711 08:33:23.183106 21633 net.cpp:94] Creating Layer concat_d1cc_u1a-b
I0711 08:33:23.183110 21633 net.cpp:435] concat_d1cc_u1a-b <- u1a
I0711 08:33:23.183115 21633 net.cpp:435] concat_d1cc_u1a-b <- d1c_conv_d1b-c_0_split_1
I0711 08:33:23.183120 21633 net.cpp:409] concat_d1cc_u1a-b -> u1b
I0711 08:33:23.183143 21633 net.cpp:144] Setting up concat_d1cc_u1a-b
I0711 08:33:23.183148 21633 net.cpp:151] Top shape: 2 256 256 256 (33554432)
I0711 08:33:23.183152 21633 net.cpp:159] Memory required for data: 2650800128
I0711 08:33:23.183156 21633 layer_factory.hpp:77] Creating layer conv_u1b-c
I0711 08:33:23.183181 21633 net.cpp:94] Creating Layer conv_u1b-c
I0711 08:33:23.183183 21633 net.cpp:435] conv_u1b-c <- u1b
I0711 08:33:23.183189 21633 net.cpp:409] conv_u1b-c -> u1c
I0711 08:33:23.186525 21633 net.cpp:144] Setting up conv_u1b-c
I0711 08:33:23.186537 21633 net.cpp:151] Top shape: 2 128 256 256 (16777216)
I0711 08:33:23.186542 21633 net.cpp:159] Memory required for data: 2717908992
I0711 08:33:23.186547 21633 layer_factory.hpp:77] Creating layer relu_u1c
I0711 08:33:23.186553 21633 net.cpp:94] Creating Layer relu_u1c
I0711 08:33:23.186556 21633 net.cpp:435] relu_u1c <- u1c
I0711 08:33:23.186563 21633 net.cpp:396] relu_u1c -> u1c (in-place)
I0711 08:33:23.186569 21633 net.cpp:144] Setting up relu_u1c
I0711 08:33:23.186573 21633 net.cpp:151] Top shape: 2 128 256 256 (16777216)
I0711 08:33:23.186576 21633 net.cpp:159] Memory required for data: 2785017856
I0711 08:33:23.186579 21633 layer_factory.hpp:77] Creating layer conv_u1c-d
I0711 08:33:23.186586 21633 net.cpp:94] Creating Layer conv_u1c-d
I0711 08:33:23.186589 21633 net.cpp:435] conv_u1c-d <- u1c
I0711 08:33:23.186594 21633 net.cpp:409] conv_u1c-d -> u1d
I0711 08:33:23.188046 21633 net.cpp:144] Setting up conv_u1c-d
I0711 08:33:23.188056 21633 net.cpp:151] Top shape: 2 128 256 256 (16777216)
I0711 08:33:23.188060 21633 net.cpp:159] Memory required for data: 2852126720
I0711 08:33:23.188066 21633 layer_factory.hpp:77] Creating layer relu_u1d
I0711 08:33:23.188071 21633 net.cpp:94] Creating Layer relu_u1d
I0711 08:33:23.188074 21633 net.cpp:435] relu_u1d <- u1d
I0711 08:33:23.188078 21633 net.cpp:396] relu_u1d -> u1d (in-place)
I0711 08:33:23.188084 21633 net.cpp:144] Setting up relu_u1d
I0711 08:33:23.188088 21633 net.cpp:151] Top shape: 2 128 256 256 (16777216)
I0711 08:33:23.188091 21633 net.cpp:159] Memory required for data: 2919235584
I0711 08:33:23.188094 21633 layer_factory.hpp:77] Creating layer upconv_u1d_u0a_NEW
I0711 08:33:23.188100 21633 net.cpp:94] Creating Layer upconv_u1d_u0a_NEW
I0711 08:33:23.188103 21633 net.cpp:435] upconv_u1d_u0a_NEW <- u1d
I0711 08:33:23.188108 21633 net.cpp:409] upconv_u1d_u0a_NEW -> u0a
I0711 08:33:23.189426 21633 net.cpp:144] Setting up upconv_u1d_u0a_NEW
I0711 08:33:23.189438 21633 net.cpp:151] Top shape: 2 64 512 512 (33554432)
I0711 08:33:23.189441 21633 net.cpp:159] Memory required for data: 3053453312
I0711 08:33:23.189453 21633 layer_factory.hpp:77] Creating layer relu_u0a
I0711 08:33:23.189460 21633 net.cpp:94] Creating Layer relu_u0a
I0711 08:33:23.189463 21633 net.cpp:435] relu_u0a <- u0a
I0711 08:33:23.189467 21633 net.cpp:396] relu_u0a -> u0a (in-place)
I0711 08:33:23.189476 21633 net.cpp:144] Setting up relu_u0a
I0711 08:33:23.189479 21633 net.cpp:151] Top shape: 2 64 512 512 (33554432)
I0711 08:33:23.189482 21633 net.cpp:159] Memory required for data: 3187671040
I0711 08:33:23.189486 21633 layer_factory.hpp:77] Creating layer concat_d0cc_u0a-b
I0711 08:33:23.189491 21633 net.cpp:94] Creating Layer concat_d0cc_u0a-b
I0711 08:33:23.189493 21633 net.cpp:435] concat_d0cc_u0a-b <- u0a
I0711 08:33:23.189497 21633 net.cpp:435] concat_d0cc_u0a-b <- d0c_conv_d0b-c_0_split_1
I0711 08:33:23.189502 21633 net.cpp:409] concat_d0cc_u0a-b -> u0b
I0711 08:33:23.189530 21633 net.cpp:144] Setting up concat_d0cc_u0a-b
I0711 08:33:23.189538 21633 net.cpp:151] Top shape: 2 128 512 512 (67108864)
I0711 08:33:23.189541 21633 net.cpp:159] Memory required for data: 3456106496
I0711 08:33:23.189544 21633 layer_factory.hpp:77] Creating layer conv_u0b-c_New
I0711 08:33:23.189553 21633 net.cpp:94] Creating Layer conv_u0b-c_New
I0711 08:33:23.189556 21633 net.cpp:435] conv_u0b-c_New <- u0b
I0711 08:33:23.189561 21633 net.cpp:409] conv_u0b-c_New -> u0c
I0711 08:33:23.191192 21633 net.cpp:144] Setting up conv_u0b-c_New
I0711 08:33:23.191205 21633 net.cpp:151] Top shape: 2 64 512 512 (33554432)
I0711 08:33:23.191207 21633 net.cpp:159] Memory required for data: 3590324224
I0711 08:33:23.191215 21633 layer_factory.hpp:77] Creating layer relu_u0c
I0711 08:33:23.191221 21633 net.cpp:94] Creating Layer relu_u0c
I0711 08:33:23.191226 21633 net.cpp:435] relu_u0c <- u0c
I0711 08:33:23.191243 21633 net.cpp:396] relu_u0c -> u0c (in-place)
I0711 08:33:23.191251 21633 net.cpp:144] Setting up relu_u0c
I0711 08:33:23.191254 21633 net.cpp:151] Top shape: 2 64 512 512 (33554432)
I0711 08:33:23.191257 21633 net.cpp:159] Memory required for data: 3724541952
I0711 08:33:23.191260 21633 layer_factory.hpp:77] Creating layer conv_u0c-d_New
I0711 08:33:23.191268 21633 net.cpp:94] Creating Layer conv_u0c-d_New
I0711 08:33:23.191272 21633 net.cpp:435] conv_u0c-d_New <- u0c
I0711 08:33:23.191277 21633 net.cpp:409] conv_u0c-d_New -> u0d
I0711 08:33:23.191951 21633 net.cpp:144] Setting up conv_u0c-d_New
I0711 08:33:23.191960 21633 net.cpp:151] Top shape: 2 64 512 512 (33554432)
I0711 08:33:23.191963 21633 net.cpp:159] Memory required for data: 3858759680
I0711 08:33:23.191969 21633 layer_factory.hpp:77] Creating layer relu_u0d
I0711 08:33:23.191974 21633 net.cpp:94] Creating Layer relu_u0d
I0711 08:33:23.191977 21633 net.cpp:435] relu_u0d <- u0d
I0711 08:33:23.191982 21633 net.cpp:396] relu_u0d -> u0d (in-place)
I0711 08:33:23.191988 21633 net.cpp:144] Setting up relu_u0d
I0711 08:33:23.191992 21633 net.cpp:151] Top shape: 2 64 512 512 (33554432)
I0711 08:33:23.191996 21633 net.cpp:159] Memory required for data: 3992977408
I0711 08:33:23.191998 21633 layer_factory.hpp:77] Creating layer conv_u0d-score_New
I0711 08:33:23.192006 21633 net.cpp:94] Creating Layer conv_u0d-score_New
I0711 08:33:23.192009 21633 net.cpp:435] conv_u0d-score_New <- u0d
I0711 08:33:23.192014 21633 net.cpp:409] conv_u0d-score_New -> conv_u0d-score_New
I0711 08:33:23.193058 21633 net.cpp:144] Setting up conv_u0d-score_New
I0711 08:33:23.193068 21633 net.cpp:151] Top shape: 2 19 512 512 (9961472)
I0711 08:33:23.193071 21633 net.cpp:159] Memory required for data: 4032823296
I0711 08:33:23.193078 21633 layer_factory.hpp:77] Creating layer conv_u0d-score_New_conv_u0d-score_New_0_split
I0711 08:33:23.193087 21633 net.cpp:94] Creating Layer conv_u0d-score_New_conv_u0d-score_New_0_split
I0711 08:33:23.193092 21633 net.cpp:435] conv_u0d-score_New_conv_u0d-score_New_0_split <- conv_u0d-score_New
I0711 08:33:23.193097 21633 net.cpp:409] conv_u0d-score_New_conv_u0d-score_New_0_split -> conv_u0d-score_New_conv_u0d-score_New_0_split_0
I0711 08:33:23.193105 21633 net.cpp:409] conv_u0d-score_New_conv_u0d-score_New_0_split -> conv_u0d-score_New_conv_u0d-score_New_0_split_1
I0711 08:33:23.193146 21633 net.cpp:144] Setting up conv_u0d-score_New_conv_u0d-score_New_0_split
I0711 08:33:23.193153 21633 net.cpp:151] Top shape: 2 19 512 512 (9961472)
I0711 08:33:23.193157 21633 net.cpp:151] Top shape: 2 19 512 512 (9961472)
I0711 08:33:23.193161 21633 net.cpp:159] Memory required for data: 4112515072
I0711 08:33:23.193163 21633 layer_factory.hpp:77] Creating layer loss
I0711 08:33:23.193171 21633 net.cpp:94] Creating Layer loss
I0711 08:33:23.193176 21633 net.cpp:435] loss <- conv_u0d-score_New_conv_u0d-score_New_0_split_0
I0711 08:33:23.193179 21633 net.cpp:435] loss <- label_data_1_split_0
I0711 08:33:23.193184 21633 net.cpp:409] loss -> loss
I0711 08:33:23.193199 21633 layer_factory.hpp:77] Creating layer loss
I0711 08:33:23.210417 21633 net.cpp:144] Setting up loss
I0711 08:33:23.210441 21633 net.cpp:151] Top shape: (1)
I0711 08:33:23.210444 21633 net.cpp:154]     with loss weight 1
I0711 08:33:23.210465 21633 net.cpp:159] Memory required for data: 4112515076
I0711 08:33:23.210470 21633 layer_factory.hpp:77] Creating layer acc
I0711 08:33:23.210482 21633 net.cpp:94] Creating Layer acc
I0711 08:33:23.210489 21633 net.cpp:435] acc <- conv_u0d-score_New_conv_u0d-score_New_0_split_1
I0711 08:33:23.210496 21633 net.cpp:435] acc <- label_data_1_split_1
I0711 08:33:23.210502 21633 net.cpp:409] acc -> acc
I0711 08:33:23.210515 21633 net.cpp:409] acc -> per_acc
I0711 08:33:23.210557 21633 net.cpp:144] Setting up acc
I0711 08:33:23.210564 21633 net.cpp:151] Top shape: (1)
I0711 08:33:23.210568 21633 net.cpp:151] Top shape: 19 (19)
I0711 08:33:23.210570 21633 net.cpp:159] Memory required for data: 4112515156
I0711 08:33:23.210573 21633 net.cpp:222] acc does not need backward computation.
I0711 08:33:23.210608 21633 net.cpp:220] loss needs backward computation.
I0711 08:33:23.210613 21633 net.cpp:220] conv_u0d-score_New_conv_u0d-score_New_0_split needs backward computation.
I0711 08:33:23.210616 21633 net.cpp:220] conv_u0d-score_New needs backward computation.
…
