…
I0318 23:08:45.621349 30512 net.cpp:369] The NetState phase (0) differed from the phase (1) specified by a rule in layer accuracy
I0318 23:08:45.621352 30512 net.cpp:369] The NetState phase (0) differed from the phase (1) specified by a rule in layer accuracy-top1
I0318 23:08:45.621455 30512 net.cpp:98] Initializing net from parameters:
state {
  phase: TRAIN
}
layer {
  name: "data"
  type: "Data"
  top: "data"
  top: "label"
  include {
    phase: TRAIN
  }
  transform_param {
    mirror: true
    crop_size: 227
    mean_value: 106
    mean_value: 116
    mean_value: 124
  }
  data_param {
    source: "input/lmdb/train_lmdb"
    batch_size: 256
    backend: LMDB
  }
}
layer {
  name: "conv1"
  type: "Convolution"
  bottom: "data"
  top: "conv1"
  param {
    lr_mult: 1
    decay_mult: 1
    compression: PRUNE
  }
  param {
    lr_mult: 2
    decay_mult: 0
    compression: PRUNE
  }
  convolution_param {
    num_output: 96
    pad: 1
    kernel_size: 11
    stride: 4
    weight_filler {
      type: "gaussian"
      std: 0.01
    }
    bias_filler {
      type: "constant"
      value: 0
    }
  }
}
layer {
  name: "bn1"
  type: "BatchNorm"
  bottom: "conv1"
  top: "bn1"
  param {
    lr_mult: 0
    compression: PRUNE
  }
  param {
    lr_mult: 0
    compression: PRUNE
  }
  param {
    lr_mult: 0
    compression: PRUNE
  }
  batch_norm_param {
    use_global_stats: false
  }
}
layer {
  name: "relu1"
  type: "ReLU"
  bottom: "bn1"
  top: "relu1"
}
layer {
  name: "pool1"
  type: "Pooling"
  bottom: "relu1"
  top: "pool1"
  pooling_param {
    pool: MAX
    kernel_size: 3
    stride: 2
  }
}
layer {
  name: "conv2"
  type: "Convolution"
  bottom: "pool1"
  top: "conv2"
  param {
    lr_mult: 1
    decay_mult: 1
    compression: PRUNE
  }
  param {
    lr_mult: 2
    decay_mult: 0
    compression: PRUNE
  }
  convolution_param {
    num_output: 256
    pad: 2
    kernel_size: 5
    group: 1
    weight_filler {
      type: "gaussian"
      std: 0.01
    }
    bias_filler {
      type: "constant"
      value: 1
    }
  }
}
layer {
  name: "bn2"
  type: "BatchNorm"
  bottom: "conv2"
  top: "bn2"
  param {
    lr_mult: 0
    compression: PRUNE
  }
  param {
    lr_mult: 0
    compression: PRUNE
  }
  param {
    lr_mult: 0
    compression: PRUNE
  }
  batch_norm_param {
    use_global_stats: false
  }
}
layer {
  name: "relu2"
  type: "ReLU"
  bottom: "bn2"
  top: "relu2"
}
layer {
  name: "pool2"
  type: "Pooling"
  bottom: "relu2"
  top: "pool2"
  pooling_param {
    pool: MAX
    kernel_size: 3
    stride: 2
  }
}
layer {
  name: "conv3"
  type: "Convolution"
  bottom: "pool2"
  top: "conv3"
  param {
    lr_mult: 1
    decay_mult: 1
    compression: PRUNE
  }
  param {
    lr_mult: 2
    decay_mult: 0
    compression: PRUNE
  }
  convolution_param {
    num_output: 384
    pad: 1
    kernel_size: 3
    weight_filler {
      type: "gaussian"
      std: 0.01
    }
    bias_filler {
      type: "constant"
      value: 0
    }
  }
}
layer {
  name: "relu3"
  type: "ReLU"
  bottom: "conv3"
  top: "relu3"
}
layer {
  name: "conv4"
  type: "Convolution"
  bottom: "relu3"
  top: "conv4"
  param {
    lr_mult: 1
    decay_mult: 1
    compression: PRUNE
  }
  param {
    lr_mult: 2
    decay_mult: 0
    compression: PRUNE
  }
  convolution_param {
    num_output: 384
    pad: 1
    kernel_size: 3
    group: 1
    weight_filler {
      type: "gaussian"
      std: 0.01
    }
    bias_filler {
      type: "constant"
      value: 1
    }
  }
}
layer {
  name: "relu4"
  type: "ReLU"
  bottom: "conv4"
  top: "relu4"
}
layer {
  name: "conv5"
  type: "Convolution"
  bottom: "relu4"
  top: "conv5"
  param {
    lr_mult: 1
    decay_mult: 1
    compression: PRUNE
  }
  param {
    lr_mult: 2
    decay_mult: 0
    compression: PRUNE
  }
  convolution_param {
    num_output: 256
    pad: 1
    kernel_size: 3
    group: 1
    weight_filler {
      type: "gaussian"
      std: 0.01
    }
    bias_filler {
      type: "constant"
      value: 1
    }
  }
}
layer {
  name: "relu5"
  type: "ReLU"
  bottom: "conv5"
  top: "relu5"
}
layer {
  name: "pool5"
  type: "Pooling"
  bottom: "relu5"
  top: "pool5"
  pooling_param {
    pool: MAX
    kernel_size: 3
    stride: 2
  }
}
layer {
  name: "fc6"
  type: "InnerProduct"
  bottom: "pool5"
  top: "fc6"
  param {
    lr_mult: 1
    decay_mult: 1
  }
  param {
    lr_mult: 2
    decay_mult: 0
  }
  inner_product_param {
    num_output: 4096
    weight_filler {
      type: "gaussian"
      std: 0.005
    }
    bias_filler {
      type: "constant"
      value: 1
    }
  }
}
layer {
  name: "relu6"
  type: "ReLU"
  bottom: "fc6"
  top: "relu6"
}
layer {
  name: "drop6"
  type: "Dropout"
  bottom: "relu6"
  top: "drop6"
  dropout_param {
    dropout_ratio: 0.5
  }
}
layer {
  name: "fc7"
  type: "InnerProduct"
  bottom: "drop6"
  top: "fc7"
  param {
    lr_mult: 1
    decay_mult: 1
  }
  param {
    lr_mult: 2
    decay_mult: 0
  }
  inner_product_param {
    num_output: 4096
    weight_filler {
      type: "gaussian"
      std: 0.005
    }
    bias_filler {
      type: "constant"
      value: 1
    }
  }
}
layer {
  name: "bn7"
  type: "BatchNorm"
  bottom: "fc7"
  top: "bn7"
  param {
    lr_mult: 0
    compression: PRUNE
  }
  param {
    lr_mult: 0
    compression: PRUNE
  }
  param {
    lr_mult: 0
    compression: PRUNE
  }
  batch_norm_param {
    use_global_stats: false
  }
}
layer {
  name: "relu7"
  type: "ReLU"
  bottom: "bn7"
  top: "relu7"
}
layer {
  name: "drop7"
  type: "Dropout"
  bottom: "relu7"
  top: "drop7"
  dropout_param {
    dropout_ratio: 0.5
  }
}
layer {
  name: "fc8"
  type: "InnerProduct"
  bottom: "drop7"
  top: "fc8"
  param {
    lr_mult: 1
    decay_mult: 1
  }
  param {
    lr_mult: 2
    decay_mult: 0
  }
  inner_product_param {
    num_output: 2
    weight_filler {
      type: "gaussian"
      std: 0.01
    }
    bias_filler {
      type: "constant"
      value: 0
    }
  }
}
layer {
  name: "loss"
  type: "SoftmaxWithLoss"
  bottom: "fc8"
  bottom: "label"
  top: "loss"
}
I0318 23:08:45.621508 30512 layer_factory.hpp:123] Creating layer data
I0318 23:08:45.621603 30512 internal_thread.cpp:73] Starting internal thread(s) on GPU 0
I0318 23:08:45.622139 30512 net.cpp:140] Creating Layer data
I0318 23:08:45.622148 30512 net.cpp:455] data -> data
I0318 23:08:45.622155 30512 net.cpp:455] data -> label
I0318 23:08:45.624342 30552 db_lmdb.cpp:81] Opened lmdb input/lmdb/train_lmdb
I0318 23:08:45.624399 30552 data_reader.cpp:166] TRAIN: reading data using 1 channel(s)
I0318 23:08:45.624666 30512 data_layer.cpp:124] ReshapePrefetch 256, 3, 227, 227
I0318 23:08:45.624728 30512 data_layer.cpp:129] output data size: 256,3,227,227
I0318 23:08:46.011407 30512 internal_thread.cpp:73] Starting internal thread(s) on GPU 0
I0318 23:08:46.011484 30512 net.cpp:190] Setting up data
I0318 23:08:46.011493 30512 net.cpp:197] Top shape: 256 3 227 227 (39574272)
I0318 23:08:46.011497 30512 net.cpp:197] Top shape: 256 (256)
I0318 23:08:46.011498 30512 net.cpp:205] Memory required for data: 158298112
I0318 23:08:46.011502 30512 layer_factory.hpp:123] Creating layer conv1
I0318 23:08:46.011514 30512 net.cpp:140] Creating Layer conv1
I0318 23:08:46.011518 30512 net.cpp:481] conv1 <- data
I0318 23:08:46.011533 30512 net.cpp:455] conv1 -> conv1
I0318 23:08:46.011992 30512 net.cpp:190] Setting up conv1
I0318 23:08:46.011998 30512 net.cpp:197] Top shape: 256 96 55 55 (74342400)
I0318 23:08:46.012001 30512 net.cpp:205] Memory required for data: 455667712
I0318 23:08:46.012012 30512 layer_factory.hpp:123] Creating layer bn1
I0318 23:08:46.012019 30512 net.cpp:140] Creating Layer bn1
I0318 23:08:46.012022 30512 net.cpp:481] bn1 <- conv1
I0318 23:08:46.012027 30512 net.cpp:455] bn1 -> bn1
I0318 23:08:46.012428 30512 net.cpp:190] Setting up bn1
I0318 23:08:46.012434 30512 net.cpp:197] Top shape: 256 96 55 55 (74342400)
I0318 23:08:46.012437 30512 net.cpp:205] Memory required for data: 753037312
I0318 23:08:46.012444 30512 layer_factory.hpp:123] Creating layer relu1
I0318 23:08:46.012449 30512 net.cpp:140] Creating Layer relu1
I0318 23:08:46.012452 30512 net.cpp:481] relu1 <- bn1
I0318 23:08:46.012455 30512 net.cpp:455] relu1 -> relu1
I0318 23:08:46.012475 30512 net.cpp:190] Setting up relu1
I0318 23:08:46.012480 30512 net.cpp:197] Top shape: 256 96 55 55 (74342400)
I0318 23:08:46.012482 30512 net.cpp:205] Memory required for data: 1050406912
I0318 23:08:46.012485 30512 layer_factory.hpp:123] Creating layer pool1
I0318 23:08:46.012490 30512 net.cpp:140] Creating Layer pool1
I0318 23:08:46.012491 30512 net.cpp:481] pool1 <- relu1
I0318 23:08:46.012495 30512 net.cpp:455] pool1 -> pool1
I0318 23:08:46.012514 30512 net.cpp:190] Setting up pool1
I0318 23:08:46.012518 30512 net.cpp:197] Top shape: 256 96 27 27 (17915904)
I0318 23:08:46.012521 30512 net.cpp:205] Memory required for data: 1122070528
I0318 23:08:46.012522 30512 layer_factory.hpp:123] Creating layer conv2
I0318 23:08:46.012544 30512 net.cpp:140] Creating Layer conv2
I0318 23:08:46.012547 30512 net.cpp:481] conv2 <- pool1
I0318 23:08:46.012550 30512 net.cpp:455] conv2 -> conv2
I0318 23:08:46.027921 30512 net.cpp:190] Setting up conv2
I0318 23:08:46.027940 30512 net.cpp:197] Top shape: 256 256 27 27 (47775744)
I0318 23:08:46.027942 30512 net.cpp:205] Memory required for data: 1313173504
I0318 23:08:46.027951 30512 layer_factory.hpp:123] Creating layer bn2
I0318 23:08:46.027961 30512 net.cpp:140] Creating Layer bn2
I0318 23:08:46.027964 30512 net.cpp:481] bn2 <- conv2
I0318 23:08:46.027971 30512 net.cpp:455] bn2 -> bn2
I0318 23:08:46.028483 30512 net.cpp:190] Setting up bn2
I0318 23:08:46.028493 30512 net.cpp:197] Top shape: 256 256 27 27 (47775744)
I0318 23:08:46.028496 30512 net.cpp:205] Memory required for data: 1504276480
I0318 23:08:46.028506 30512 layer_factory.hpp:123] Creating layer relu2
I0318 23:08:46.028511 30512 net.cpp:140] Creating Layer relu2
I0318 23:08:46.028514 30512 net.cpp:481] relu2 <- bn2
I0318 23:08:46.028519 30512 net.cpp:455] relu2 -> relu2
I0318 23:08:46.028537 30512 net.cpp:190] Setting up relu2
I0318 23:08:46.028543 30512 net.cpp:197] Top shape: 256 256 27 27 (47775744)
I0318 23:08:46.028548 30512 net.cpp:205] Memory required for data: 1695379456
I0318 23:08:46.028550 30512 layer_factory.hpp:123] Creating layer pool2
I0318 23:08:46.028556 30512 net.cpp:140] Creating Layer pool2
I0318 23:08:46.028560 30512 net.cpp:481] pool2 <- relu2
I0318 23:08:46.028565 30512 net.cpp:455] pool2 -> pool2
I0318 23:08:46.028594 30512 net.cpp:190] Setting up pool2
I0318 23:08:46.028599 30512 net.cpp:197] Top shape: 256 256 13 13 (11075584)
I0318 23:08:46.028602 30512 net.cpp:205] Memory required for data: 1739681792
I0318 23:08:46.028606 30512 layer_factory.hpp:123] Creating layer conv3
I0318 23:08:46.028614 30512 net.cpp:140] Creating Layer conv3
I0318 23:08:46.028630 30512 net.cpp:481] conv3 <- pool2
I0318 23:08:46.028635 30512 net.cpp:455] conv3 -> conv3
I0318 23:08:46.040608 30512 net.cpp:190] Setting up conv3
I0318 23:08:46.040640 30512 net.cpp:197] Top shape: 256 384 13 13 (16613376)
I0318 23:08:46.040644 30512 net.cpp:205] Memory required for data: 1806135296
I0318 23:08:46.040654 30512 layer_factory.hpp:123] Creating layer relu3
I0318 23:08:46.040665 30512 net.cpp:140] Creating Layer relu3
I0318 23:08:46.040670 30512 net.cpp:481] relu3 <- conv3
I0318 23:08:46.040678 30512 net.cpp:455] relu3 -> relu3
I0318 23:08:46.040709 30512 net.cpp:190] Setting up relu3
I0318 23:08:46.040717 30512 net.cpp:197] Top shape: 256 384 13 13 (16613376)
I0318 23:08:46.040721 30512 net.cpp:205] Memory required for data: 1872588800
I0318 23:08:46.040725 30512 layer_factory.hpp:123] Creating layer conv4
I0318 23:08:46.040736 30512 net.cpp:140] Creating Layer conv4
I0318 23:08:46.040741 30512 net.cpp:481] conv4 <- relu3
I0318 23:08:46.040747 30512 net.cpp:455] conv4 -> conv4
I0318 23:08:46.060632 30512 net.cpp:190] Setting up conv4
I0318 23:08:46.060652 30512 net.cpp:197] Top shape: 256 384 13 13 (16613376)
I0318 23:08:46.060655 30512 net.cpp:205] Memory required for data: 1939042304
I0318 23:08:46.060664 30512 layer_factory.hpp:123] Creating layer relu4
I0318 23:08:46.060670 30512 net.cpp:140] Creating Layer relu4
I0318 23:08:46.060673 30512 net.cpp:481] relu4 <- conv4
I0318 23:08:46.060678 30512 net.cpp:455] relu4 -> relu4
I0318 23:08:46.060698 30512 net.cpp:190] Setting up relu4
I0318 23:08:46.060700 30512 net.cpp:197] Top shape: 256 384 13 13 (16613376)
I0318 23:08:46.060703 30512 net.cpp:205] Memory required for data: 2005495808
I0318 23:08:46.060705 30512 layer_factory.hpp:123] Creating layer conv5
I0318 23:08:46.060711 30512 net.cpp:140] Creating Layer conv5
I0318 23:08:46.060714 30512 net.cpp:481] conv5 <- relu4
I0318 23:08:46.060716 30512 net.cpp:455] conv5 -> conv5
I0318 23:08:46.076205 30512 net.cpp:190] Setting up conv5
I0318 23:08:46.076262 30512 net.cpp:197] Top shape: 256 256 13 13 (11075584)
I0318 23:08:46.076280 30512 net.cpp:205] Memory required for data: 2049798144
I0318 23:08:46.076304 30512 layer_factory.hpp:123] Creating layer relu5
I0318 23:08:46.076323 30512 net.cpp:140] Creating Layer relu5
I0318 23:08:46.076335 30512 net.cpp:481] relu5 <- conv5
I0318 23:08:46.076350 30512 net.cpp:455] relu5 -> relu5
I0318 23:08:46.076396 30512 net.cpp:190] Setting up relu5
I0318 23:08:46.076411 30512 net.cpp:197] Top shape: 256 256 13 13 (11075584)
I0318 23:08:46.076436 30512 net.cpp:205] Memory required for data: 2094100480
I0318 23:08:46.076452 30512 layer_factory.hpp:123] Creating layer pool5
I0318 23:08:46.076472 30512 net.cpp:140] Creating Layer pool5
I0318 23:08:46.076488 30512 net.cpp:481] pool5 <- relu5
I0318 23:08:46.076506 30512 net.cpp:455] pool5 -> pool5
I0318 23:08:46.076566 30512 net.cpp:190] Setting up pool5
I0318 23:08:46.076584 30512 net.cpp:197] Top shape: 256 256 6 6 (2359296)
I0318 23:08:46.076601 30512 net.cpp:205] Memory required for data: 2103537664
I0318 23:08:46.076615 30512 layer_factory.hpp:123] Creating layer fc6
I0318 23:08:46.076638 30512 net.cpp:140] Creating Layer fc6
I0318 23:08:46.076654 30512 net.cpp:481] fc6 <- pool5
I0318 23:08:46.076674 30512 net.cpp:455] fc6 -> fc6
I0318 23:08:46.429774 30512 net.cpp:190] Setting up fc6
I0318 23:08:46.429800 30512 net.cpp:197] Top shape: 256 4096 (1048576)
I0318 23:08:46.429802 30512 net.cpp:205] Memory required for data: 2107731968
I0318 23:08:46.429810 30512 layer_factory.hpp:123] Creating layer relu6
I0318 23:08:46.429816 30512 net.cpp:140] Creating Layer relu6
I0318 23:08:46.429818 30512 net.cpp:481] relu6 <- fc6
I0318 23:08:46.429822 30512 net.cpp:455] relu6 -> relu6
I0318 23:08:46.429837 30512 net.cpp:190] Setting up relu6
I0318 23:08:46.429839 30512 net.cpp:197] Top shape: 256 4096 (1048576)
I0318 23:08:46.429841 30512 net.cpp:205] Memory required for data: 2111926272
I0318 23:08:46.429843 30512 layer_factory.hpp:123] Creating layer drop6
I0318 23:08:46.429848 30512 net.cpp:140] Creating Layer drop6
I0318 23:08:46.429889 30512 net.cpp:481] drop6 <- relu6
I0318 23:08:46.429893 30512 net.cpp:455] drop6 -> drop6
I0318 23:08:46.429911 30512 net.cpp:190] Setting up drop6
I0318 23:08:46.429915 30512 net.cpp:197] Top shape: 256 4096 (1048576)
I0318 23:08:46.429917 30512 net.cpp:205] Memory required for data: 2116120576
I0318 23:08:46.429920 30512 layer_factory.hpp:123] Creating layer fc7
I0318 23:08:46.429925 30512 net.cpp:140] Creating Layer fc7
I0318 23:08:46.429927 30512 net.cpp:481] fc7 <- drop6
I0318 23:08:46.429930 30512 net.cpp:455] fc7 -> fc7
I0318 23:08:46.565871 30512 net.cpp:190] Setting up fc7
I0318 23:08:46.565894 30512 net.cpp:197] Top shape: 256 4096 (1048576)
I0318 23:08:46.565896 30512 net.cpp:205] Memory required for data: 2120314880
I0318 23:08:46.565903 30512 layer_factory.hpp:123] Creating layer bn7
I0318 23:08:46.565910 30512 net.cpp:140] Creating Layer bn7
I0318 23:08:46.565913 30512 net.cpp:481] bn7 <- fc7
I0318 23:08:46.565918 30512 net.cpp:455] bn7 -> bn7
I0318 23:08:46.566326 30512 net.cpp:190] Setting up bn7
I0318 23:08:46.566332 30512 net.cpp:197] Top shape: 256 4096 (1048576)
I0318 23:08:46.566334 30512 net.cpp:205] Memory required for data: 2124509184
I0318 23:08:46.566341 30512 layer_factory.hpp:123] Creating layer relu7
I0318 23:08:46.566345 30512 net.cpp:140] Creating Layer relu7
I0318 23:08:46.566347 30512 net.cpp:481] relu7 <- bn7
I0318 23:08:46.566350 30512 net.cpp:455] relu7 -> relu7
I0318 23:08:46.566365 30512 net.cpp:190] Setting up relu7
I0318 23:08:46.566368 30512 net.cpp:197] Top shape: 256 4096 (1048576)
I0318 23:08:46.566370 30512 net.cpp:205] Memory required for data: 2128703488
I0318 23:08:46.566373 30512 layer_factory.hpp:123] Creating layer drop7
I0318 23:08:46.566377 30512 net.cpp:140] Creating Layer drop7
I0318 23:08:46.566380 30512 net.cpp:481] drop7 <- relu7
I0318 23:08:46.566382 30512 net.cpp:455] drop7 -> drop7
I0318 23:08:46.566401 30512 net.cpp:190] Setting up drop7
I0318 23:08:46.566404 30512 net.cpp:197] Top shape: 256 4096 (1048576)
I0318 23:08:46.566406 30512 net.cpp:205] Memory required for data: 2132897792
I0318 23:08:46.566408 30512 layer_factory.hpp:123] Creating layer fc8
I0318 23:08:46.566413 30512 net.cpp:140] Creating Layer fc8
I0318 23:08:46.566416 30512 net.cpp:481] fc8 <- drop7
I0318 23:08:46.566419 30512 net.cpp:455] fc8 -> fc8
I0318 23:08:46.566536 30512 net.cpp:190] Setting up fc8
I0318 23:08:46.566540 30512 net.cpp:197] Top shape: 256 2 (512)
I0318 23:08:46.566542 30512 net.cpp:205] Memory required for data: 2132899840
I0318 23:08:46.566546 30512 layer_factory.hpp:123] Creating layer loss
I0318 23:08:46.566550 30512 net.cpp:140] Creating Layer loss
I0318 23:08:46.566552 30512 net.cpp:481] loss <- fc8
I0318 23:08:46.566555 30512 net.cpp:481] loss <- label
I0318 23:08:46.566558 30512 net.cpp:455] loss -> loss
I0318 23:08:46.566563 30512 layer_factory.hpp:123] Creating layer loss
…
I0318 23:08:46.566953 30512 solver.cpp:235] Creating test net (#0) specified by net file: pruning/alexnetBNnoLRN/regular_rate_0.6/net_finetune.prototxt
I0318 23:08:46.566975 30512 net.cpp:369] The NetState phase (1) differed from the phase (0) specified by a rule in layer data
I0318 23:08:46.567099 30512 net.cpp:98] Initializing net from parameters:
state {
  phase: TEST
}
layer {
  name: "data"
  type: "Data"
  top: "data"
  top: "label"
  include {
    phase: TEST
  }
  transform_param {
    mirror: false
    crop_size: 227
    mean_value: 106
    mean_value: 116
    mean_value: 124
  }
  data_param {
    source: "input/lmdb/valid_lmdb"
    batch_size: 50
    backend: LMDB
  }
}
layer {
  name: "conv1"
  type: "Convolution"
  bottom: "data"
  top: "conv1"
  param {
    lr_mult: 1
    decay_mult: 1
    compression: PRUNE
  }
  param {
    lr_mult: 2
    decay_mult: 0
    compression: PRUNE
  }
  convolution_param {
    num_output: 96
    pad: 1
    kernel_size: 11
    stride: 4
    weight_filler {
      type: "gaussian"
      std: 0.01
    }
    bias_filler {
      type: "constant"
      value: 0
    }
  }
}
layer {
  name: "bn1"
  type: "BatchNorm"
  bottom: "conv1"
  top: "bn1"
  param {
    lr_mult: 0
    compression: PRUNE
  }
  param {
    lr_mult: 0
    compression: PRUNE
  }
  param {
    lr_mult: 0
    compression: PRUNE
  }
  batch_norm_param {
    use_global_stats: false
  }
}
layer {
  name: "relu1"
  type: "ReLU"
  bottom: "bn1"
  top: "relu1"
}
layer {
  name: "pool1"
  type: "Pooling"
  bottom: "relu1"
  top: "pool1"
  pooling_param {
    pool: MAX
    kernel_size: 3
    stride: 2
  }
}
layer {
  name: "conv2"
  type: "Convolution"
  bottom: "pool1"
  top: "conv2"
  param {
    lr_mult: 1
    decay_mult: 1
    compression: PRUNE
  }
  param {
    lr_mult: 2
    decay_mult: 0
    compression: PRUNE
  }
  convolution_param {
    num_output: 256
    pad: 2
    kernel_size: 5
    group: 1
    weight_filler {
      type: "gaussian"
      std: 0.01
    }
    bias_filler {
      type: "constant"
      value: 1
    }
  }
}
layer {
  name: "bn2"
  type: "BatchNorm"
  bottom: "conv2"
  top: "bn2"
  param {
    lr_mult: 0
    compression: PRUNE
  }
  param {
    lr_mult: 0
    compression: PRUNE
  }
  param {
    lr_mult: 0
    compression: PRUNE
  }
  batch_norm_param {
    use_global_stats: false
  }
}
layer {
  name: "relu2"
  type: "ReLU"
  bottom: "bn2"
  top: "relu2"
}
layer {
  name: "pool2"
  type: "Pooling"
  bottom: "relu2"
  top: "pool2"
  pooling_param {
    pool: MAX
    kernel_size: 3
    stride: 2
  }
}
layer {
  name: "conv3"
  type: "Convolution"
  bottom: "pool2"
  top: "conv3"
  param {
    lr_mult: 1
    decay_mult: 1
    compression: PRUNE
  }
  param {
    lr_mult: 2
    decay_mult: 0
    compression: PRUNE
  }
  convolution_param {
    num_output: 384
    pad: 1
    kernel_size: 3
    weight_filler {
      type: "gaussian"
      std: 0.01
    }
    bias_filler {
      type: "constant"
      value: 0
    }
  }
}
layer {
  name: "relu3"
  type: "ReLU"
  bottom: "conv3"
  top: "relu3"
}
layer {
  name: "conv4"
  type: "Convolution"
  bottom: "relu3"
  top: "conv4"
  param {
    lr_mult: 1
    decay_mult: 1
    compression: PRUNE
  }
  param {
    lr_mult: 2
    decay_mult: 0
    compression: PRUNE
  }
  convolution_param {
    num_output: 384
    pad: 1
    kernel_size: 3
    group: 1
    weight_filler {
      type: "gaussian"
      std: 0.01
    }
    bias_filler {
      type: "constant"
      value: 1
    }
  }
}
layer {
  name: "relu4"
  type: "ReLU"
  bottom: "conv4"
  top: "relu4"
}
layer {
  name: "conv5"
  type: "Convolution"
  bottom: "relu4"
  top: "conv5"
  param {
    lr_mult: 1
    decay_mult: 1
    compression: PRUNE
  }
  param {
    lr_mult: 2
    decay_mult: 0
    compression: PRUNE
  }
  convolution_param {
    num_output: 256
    pad: 1
    kernel_size: 3
    group: 1
    weight_filler {
      type: "gaussian"
      std: 0.01
    }
    bias_filler {
      type: "constant"
      value: 1
    }
  }
}
layer {
  name: "relu5"
  type: "ReLU"
  bottom: "conv5"
  top: "relu5"
}
layer {
  name: "pool5"
  type: "Pooling"
  bottom: "relu5"
  top: "pool5"
  pooling_param {
    pool: MAX
    kernel_size: 3
    stride: 2
  }
}
layer {
  name: "fc6"
  type: "InnerProduct"
  bottom: "pool5"
  top: "fc6"
  param {
    lr_mult: 1
    decay_mult: 1
  }
  param {
    lr_mult: 2
    decay_mult: 0
  }
  inner_product_param {
    num_output: 4096
    weight_filler {
      type: "gaussian"
      std: 0.005
    }
    bias_filler {
      type: "constant"
      value: 1
    }
  }
}
layer {
  name: "relu6"
  type: "ReLU"
  bottom: "fc6"
  top: "relu6"
}
layer {
  name: "drop6"
  type: "Dropout"
  bottom: "relu6"
  top: "drop6"
  dropout_param {
    dropout_ratio: 0.5
  }
}
layer {
  name: "fc7"
  type: "InnerProduct"
  bottom: "drop6"
  top: "fc7"
  param {
    lr_mult: 1
    decay_mult: 1
  }
  param {
    lr_mult: 2
    decay_mult: 0
  }
  inner_product_param {
    num_output: 4096
    weight_filler {
      type: "gaussian"
      std: 0.005
    }
    bias_filler {
      type: "constant"
      value: 1
    }
  }
}
layer {
  name: "bn7"
  type: "BatchNorm"
  bottom: "fc7"
  top: "bn7"
  param {
    lr_mult: 0
    compression: PRUNE
  }
  param {
    lr_mult: 0
    compression: PRUNE
  }
  param {
    lr_mult: 0
    compression: PRUNE
  }
  batch_norm_param {
    use_global_stats: false
  }
}
layer {
  name: "relu7"
  type: "ReLU"
  bottom: "bn7"
  top: "relu7"
}
layer {
  name: "drop7"
  type: "Dropout"
  bottom: "relu7"
  top: "drop7"
  dropout_param {
    dropout_ratio: 0.5
  }
}
layer {
  name: "fc8"
  type: "InnerProduct"
  bottom: "drop7"
  top: "fc8"
  param {
    lr_mult: 1
    decay_mult: 1
  }
  param {
    lr_mult: 2
    decay_mult: 0
  }
  inner_product_param {
    num_output: 2
    weight_filler {
      type: "gaussian"
      std: 0.01
    }
    bias_filler {
      type: "constant"
      value: 0
    }
  }
}
layer {
  name: "accuracy"
  type: "Accuracy"
  bottom: "fc8"
  bottom: "label"
  top: "accuracy"
  include {
    phase: TEST
  }
}
layer {
  name: "loss"
  type: "SoftmaxWithLoss"
  bottom: "fc8"
  bottom: "label"
  top: "loss"
}
layer {
  name: "accuracy-top1"
  type: "Accuracy"
  bottom: "fc8"
  bottom: "label"
  top: "top-1"
  include {
    phase: TEST
  }
}
I0318 23:08:46.567167 30512 layer_factory.hpp:123] Creating layer data
I0318 23:08:46.567195 30512 internal_thread.cpp:73] Starting internal thread(s) on GPU 0
I0318 23:08:46.567643 30512 net.cpp:140] Creating Layer data
I0318 23:08:46.567652 30512 net.cpp:455] data -> data
I0318 23:08:46.567658 30512 net.cpp:455] data -> label
I0318 23:08:46.570201 30583 db_lmdb.cpp:81] Opened lmdb input/lmdb/valid_lmdb
I0318 23:08:46.570235 30583 data_reader.cpp:166] TEST: reading data using 1 channel(s)
I0318 23:08:46.570502 30512 data_layer.cpp:124] ReshapePrefetch 50, 3, 227, 227
I0318 23:08:46.570562 30512 data_layer.cpp:129] output data size: 50,3,227,227
I0318 23:08:46.647955 30512 internal_thread.cpp:73] Starting internal thread(s) on GPU 0
I0318 23:08:46.648016 30512 net.cpp:190] Setting up data
I0318 23:08:46.648039 30512 net.cpp:197] Top shape: 50 3 227 227 (7729350)
I0318 23:08:46.648043 30512 net.cpp:197] Top shape: 50 (50)
I0318 23:08:46.648044 30512 net.cpp:205] Memory required for data: 30917600
I0318 23:08:46.648048 30512 layer_factory.hpp:123] Creating layer label_data_1_split
I0318 23:08:46.648057 30512 net.cpp:140] Creating Layer label_data_1_split
I0318 23:08:46.648061 30512 net.cpp:481] label_data_1_split <- label
I0318 23:08:46.648066 30512 net.cpp:455] label_data_1_split -> label_data_1_split_0
I0318 23:08:46.648072 30512 net.cpp:455] label_data_1_split -> label_data_1_split_1
I0318 23:08:46.648077 30512 net.cpp:455] label_data_1_split -> label_data_1_split_2
I0318 23:08:46.648133 30512 net.cpp:190] Setting up label_data_1_split
I0318 23:08:46.648136 30512 net.cpp:197] Top shape: 50 (50)
I0318 23:08:46.648138 30512 net.cpp:197] Top shape: 50 (50)
I0318 23:08:46.648141 30512 net.cpp:197] Top shape: 50 (50)
I0318 23:08:46.648144 30512 net.cpp:205] Memory required for data: 30918200
I0318 23:08:46.648145 30512 layer_factory.hpp:123] Creating layer conv1
I0318 23:08:46.648152 30512 net.cpp:140] Creating Layer conv1
I0318 23:08:46.648157 30512 net.cpp:481] conv1 <- data
I0318 23:08:46.648160 30512 net.cpp:455] conv1 -> conv1
I0318 23:08:46.648645 30512 net.cpp:190] Setting up conv1
I0318 23:08:46.648653 30512 net.cpp:197] Top shape: 50 96 55 55 (14520000)
I0318 23:08:46.648654 30512 net.cpp:205] Memory required for data: 88998200
I0318 23:08:46.648663 30512 layer_factory.hpp:123] Creating layer bn1
I0318 23:08:46.648670 30512 net.cpp:140] Creating Layer bn1
I0318 23:08:46.648672 30512 net.cpp:481] bn1 <- conv1
I0318 23:08:46.648677 30512 net.cpp:455] bn1 -> bn1
I0318 23:08:46.649099 30512 net.cpp:190] Setting up bn1
I0318 23:08:46.649104 30512 net.cpp:197] Top shape: 50 96 55 55 (14520000)
I0318 23:08:46.649106 30512 net.cpp:205] Memory required for data: 147078200
I0318 23:08:46.649114 30512 layer_factory.hpp:123] Creating layer relu1
I0318 23:08:46.649121 30512 net.cpp:140] Creating Layer relu1
I0318 23:08:46.649122 30512 net.cpp:481] relu1 <- bn1
I0318 23:08:46.649125 30512 net.cpp:455] relu1 -> relu1
I0318 23:08:46.649139 30512 net.cpp:190] Setting up relu1
I0318 23:08:46.649143 30512 net.cpp:197] Top shape: 50 96 55 55 (14520000)
I0318 23:08:46.649145 30512 net.cpp:205] Memory required for data: 205158200
I0318 23:08:46.649147 30512 layer_factory.hpp:123] Creating layer pool1
I0318 23:08:46.649152 30512 net.cpp:140] Creating Layer pool1
I0318 23:08:46.649153 30512 net.cpp:481] pool1 <- relu1
I0318 23:08:46.649157 30512 net.cpp:455] pool1 -> pool1
I0318 23:08:46.649175 30512 net.cpp:190] Setting up pool1
I0318 23:08:46.649180 30512 net.cpp:197] Top shape: 50 96 27 27 (3499200)
I0318 23:08:46.649183 30512 net.cpp:205] Memory required for data: 219155000
I0318 23:08:46.649184 30512 layer_factory.hpp:123] Creating layer conv2
I0318 23:08:46.649189 30512 net.cpp:140] Creating Layer conv2
I0318 23:08:46.649194 30512 net.cpp:481] conv2 <- pool1
I0318 23:08:46.649197 30512 net.cpp:455] conv2 -> conv2
I0318 23:08:46.655148 30512 net.cpp:190] Setting up conv2
I0318 23:08:46.655167 30512 net.cpp:197] Top shape: 50 256 27 27 (9331200)
I0318 23:08:46.655172 30512 net.cpp:205] Memory required for data: 256479800
I0318 23:08:46.655182 30512 layer_factory.hpp:123] Creating layer bn2
I0318 23:08:46.655196 30512 net.cpp:140] Creating Layer bn2
I0318 23:08:46.655201 30512 net.cpp:481] bn2 <- conv2
I0318 23:08:46.655210 30512 net.cpp:455] bn2 -> bn2
I0318 23:08:46.655659 30512 net.cpp:190] Setting up bn2
I0318 23:08:46.655666 30512 net.cpp:197] Top shape: 50 256 27 27 (9331200)
I0318 23:08:46.655670 30512 net.cpp:205] Memory required for data: 293804600
I0318 23:08:46.655681 30512 layer_factory.hpp:123] Creating layer relu2
I0318 23:08:46.655691 30512 net.cpp:140] Creating Layer relu2
I0318 23:08:46.655696 30512 net.cpp:481] relu2 <- bn2
I0318 23:08:46.655704 30512 net.cpp:455] relu2 -> relu2
I0318 23:08:46.655725 30512 net.cpp:190] Setting up relu2
I0318 23:08:46.655731 30512 net.cpp:197] Top shape: 50 256 27 27 (9331200)
I0318 23:08:46.655747 30512 net.cpp:205] Memory required for data: 331129400
I0318 23:08:46.655751 30512 layer_factory.hpp:123] Creating layer pool2
I0318 23:08:46.655759 30512 net.cpp:140] Creating Layer pool2
I0318 23:08:46.655763 30512 net.cpp:481] pool2 <- relu2
I0318 23:08:46.655769 30512 net.cpp:455] pool2 -> pool2
I0318 23:08:46.655797 30512 net.cpp:190] Setting up pool2
I0318 23:08:46.655805 30512 net.cpp:197] Top shape: 50 256 13 13 (2163200)
I0318 23:08:46.655808 30512 net.cpp:205] Memory required for data: 339782200
I0318 23:08:46.655812 30512 layer_factory.hpp:123] Creating layer conv3
I0318 23:08:46.655822 30512 net.cpp:140] Creating Layer conv3
I0318 23:08:46.655828 30512 net.cpp:481] conv3 <- pool2
I0318 23:08:46.655833 30512 net.cpp:455] conv3 -> conv3
I0318 23:08:46.666959 30512 net.cpp:190] Setting up conv3
I0318 23:08:46.666981 30512 net.cpp:197] Top shape: 50 384 13 13 (3244800)
I0318 23:08:46.666985 30512 net.cpp:205] Memory required for data: 352761400
I0318 23:08:46.666993 30512 layer_factory.hpp:123] Creating layer relu3
I0318 23:08:46.667002 30512 net.cpp:140] Creating Layer relu3
I0318 23:08:46.667008 30512 net.cpp:481] relu3 <- conv3
I0318 23:08:46.667016 30512 net.cpp:455] relu3 -> relu3
I0318 23:08:46.667047 30512 net.cpp:190] Setting up relu3
I0318 23:08:46.667053 30512 net.cpp:197] Top shape: 50 384 13 13 (3244800)
I0318 23:08:46.667057 30512 net.cpp:205] Memory required for data: 365740600
I0318 23:08:46.667062 30512 layer_factory.hpp:123] Creating layer conv4
I0318 23:08:46.667073 30512 net.cpp:140] Creating Layer conv4
I0318 23:08:46.667078 30512 net.cpp:481] conv4 <- relu3
I0318 23:08:46.667084 30512 net.cpp:455] conv4 -> conv4
I0318 23:08:46.685539 30512 net.cpp:190] Setting up conv4
I0318 23:08:46.685566 30512 net.cpp:197] Top shape: 50 384 13 13 (3244800)
I0318 23:08:46.685571 30512 net.cpp:205] Memory required for data: 378719800
I0318 23:08:46.685586 30512 layer_factory.hpp:123] Creating layer relu4
I0318 23:08:46.685612 30512 net.cpp:140] Creating Layer relu4
I0318 23:08:46.685617 30512 net.cpp:481] relu4 <- conv4
I0318 23:08:46.685624 30512 net.cpp:455] relu4 -> relu4
I0318 23:08:46.685664 30512 net.cpp:190] Setting up relu4
I0318 23:08:46.685694 30512 net.cpp:197] Top shape: 50 384 13 13 (3244800)
I0318 23:08:46.685706 30512 net.cpp:205] Memory required for data: 391699000
I0318 23:08:46.685719 30512 layer_factory.hpp:123] Creating layer conv5
I0318 23:08:46.685737 30512 net.cpp:140] Creating Layer conv5
I0318 23:08:46.685750 30512 net.cpp:481] conv5 <- relu4
I0318 23:08:46.685788 30512 net.cpp:455] conv5 -> conv5
I0318 23:08:46.696610 30512 net.cpp:190] Setting up conv5
I0318 23:08:46.696688 30512 net.cpp:197] Top shape: 50 256 13 13 (2163200)
I0318 23:08:46.696710 30512 net.cpp:205] Memory required for data: 400351800
I0318 23:08:46.696736 30512 layer_factory.hpp:123] Creating layer relu5
I0318 23:08:46.696776 30512 net.cpp:140] Creating Layer relu5
I0318 23:08:46.696797 30512 net.cpp:481] relu5 <- conv5
I0318 23:08:46.696822 30512 net.cpp:455] relu5 -> relu5
I0318 23:08:46.696884 30512 net.cpp:190] Setting up relu5
I0318 23:08:46.696907 30512 net.cpp:197] Top shape: 50 256 13 13 (2163200)
I0318 23:08:46.696926 30512 net.cpp:205] Memory required for data: 409004600
I0318 23:08:46.696946 30512 layer_factory.hpp:123] Creating layer pool5
I0318 23:08:46.696971 30512 net.cpp:140] Creating Layer pool5
I0318 23:08:46.696991 30512 net.cpp:481] pool5 <- relu5
I0318 23:08:46.697013 30512 net.cpp:455] pool5 -> pool5
I0318 23:08:46.697067 30512 net.cpp:190] Setting up pool5
I0318 23:08:46.697098 30512 net.cpp:197] Top shape: 50 256 6 6 (460800)
I0318 23:08:46.697118 30512 net.cpp:205] Memory required for data: 410847800
I0318 23:08:46.697137 30512 layer_factory.hpp:123] Creating layer fc6
I0318 23:08:46.697163 30512 net.cpp:140] Creating Layer fc6
I0318 23:08:46.697183 30512 net.cpp:481] fc6 <- pool5
I0318 23:08:46.697204 30512 net.cpp:455] fc6 -> fc6
I0318 23:08:47.020814 30512 net.cpp:190] Setting up fc6
I0318 23:08:47.020843 30512 net.cpp:197] Top shape: 50 4096 (204800)
I0318 23:08:47.020880 30512 net.cpp:205] Memory required for data: 411667000
I0318 23:08:47.020886 30512 layer_factory.hpp:123] Creating layer relu6
I0318 23:08:47.020895 30512 net.cpp:140] Creating Layer relu6
I0318 23:08:47.020897 30512 net.cpp:481] relu6 <- fc6
I0318 23:08:47.020902 30512 net.cpp:455] relu6 -> relu6
I0318 23:08:47.020925 30512 net.cpp:190] Setting up relu6
I0318 23:08:47.020931 30512 net.cpp:197] Top shape: 50 4096 (204800)
I0318 23:08:47.020933 30512 net.cpp:205] Memory required for data: 412486200
I0318 23:08:47.020934 30512 layer_factory.hpp:123] Creating layer drop6
I0318 23:08:47.020941 30512 net.cpp:140] Creating Layer drop6
I0318 23:08:47.020942 30512 net.cpp:481] drop6 <- relu6
I0318 23:08:47.020946 30512 net.cpp:455] drop6 -> drop6
I0318 23:08:47.020964 30512 net.cpp:190] Setting up drop6
I0318 23:08:47.020968 30512 net.cpp:197] Top shape: 50 4096 (204800)
I0318 23:08:47.020969 30512 net.cpp:205] Memory required for data: 413305400
I0318 23:08:47.020972 30512 layer_factory.hpp:123] Creating layer fc7
I0318 23:08:47.020977 30512 net.cpp:140] Creating Layer fc7
I0318 23:08:47.020979 30512 net.cpp:481] fc7 <- drop6
I0318 23:08:47.020982 30512 net.cpp:455] fc7 -> fc7
I0318 23:08:47.162629 30512 net.cpp:190] Setting up fc7
I0318 23:08:47.162652 30512 net.cpp:197] Top shape: 50 4096 (204800)
I0318 23:08:47.162654 30512 net.cpp:205] Memory required for data: 414124600
I0318 23:08:47.162662 30512 layer_factory.hpp:123] Creating layer bn7
I0318 23:08:47.162669 30512 net.cpp:140] Creating Layer bn7
I0318 23:08:47.162673 30512 net.cpp:481] bn7 <- fc7
I0318 23:08:47.162678 30512 net.cpp:455] bn7 -> bn7
I0318 23:08:47.163076 30512 net.cpp:190] Setting up bn7
I0318 23:08:47.163081 30512 net.cpp:197] Top shape: 50 4096 (204800)
I0318 23:08:47.163084 30512 net.cpp:205] Memory required for data: 414943800
I0318 23:08:47.163089 30512 layer_factory.hpp:123] Creating layer relu7
I0318 23:08:47.163094 30512 net.cpp:140] Creating Layer relu7
I0318 23:08:47.163096 30512 net.cpp:481] relu7 <- bn7
I0318 23:08:47.163100 30512 net.cpp:455] relu7 -> relu7
I0318 23:08:47.163115 30512 net.cpp:190] Setting up relu7
I0318 23:08:47.163118 30512 net.cpp:197] Top shape: 50 4096 (204800)
I0318 23:08:47.163122 30512 net.cpp:205] Memory required for data: 415763000
I0318 23:08:47.163125 30512 layer_factory.hpp:123] Creating layer drop7
I0318 23:08:47.163130 30512 net.cpp:140] Creating Layer drop7
I0318 23:08:47.163131 30512 net.cpp:481] drop7 <- relu7
I0318 23:08:47.163136 30512 net.cpp:455] drop7 -> drop7
I0318 23:08:47.163157 30512 net.cpp:190] Setting up drop7
I0318 23:08:47.163162 30512 net.cpp:197] Top shape: 50 4096 (204800)
I0318 23:08:47.163166 30512 net.cpp:205] Memory required for data: 416582200
I0318 23:08:47.163167 30512 layer_factory.hpp:123] Creating layer fc8
I0318 23:08:47.163173 30512 net.cpp:140] Creating Layer fc8
I0318 23:08:47.163175 30512 net.cpp:481] fc8 <- drop7
I0318 23:08:47.163178 30512 net.cpp:455] fc8 -> fc8
I0318 23:08:47.163306 30512 net.cpp:190] Setting up fc8
I0318 23:08:47.163311 30512 net.cpp:197] Top shape: 50 2 (100)
I0318 23:08:47.163312 30512 net.cpp:205] Memory required for data: 416582600
I0318 23:08:47.163316 30512 layer_factory.hpp:123] Creating layer fc8_fc8_0_split
I0318 23:08:47.163321 30512 net.cpp:140] Creating Layer fc8_fc8_0_split
I0318 23:08:47.163322 30512 net.cpp:481] fc8_fc8_0_split <- fc8
I0318 23:08:47.163326 30512 net.cpp:455] fc8_fc8_0_split -> fc8_fc8_0_split_0
I0318 23:08:47.163331 30512 net.cpp:455] fc8_fc8_0_split -> fc8_fc8_0_split_1
I0318 23:08:47.163337 30512 net.cpp:455] fc8_fc8_0_split -> fc8_fc8_0_split_2
I0318 23:08:47.163365 30512 net.cpp:190] Setting up fc8_fc8_0_split
I0318 23:08:47.163369 30512 net.cpp:197] Top shape: 50 2 (100)
I0318 23:08:47.163372 30512 net.cpp:197] Top shape: 50 2 (100)
I0318 23:08:47.163374 30512 net.cpp:197] Top shape: 50 2 (100)
I0318 23:08:47.163377 30512 net.cpp:205] Memory required for data: 416583800
I0318 23:08:47.163378 30512 layer_factory.hpp:123] Creating layer accuracy
I0318 23:08:47.163383 30512 net.cpp:140] Creating Layer accuracy
I0318 23:08:47.163396 30512 net.cpp:481] accuracy <- fc8_fc8_0_split_0
I0318 23:08:47.163399 30512 net.cpp:481] accuracy <- label_data_1_split_0
I0318 23:08:47.163403 30512 net.cpp:455] accuracy -> accuracy
…
