…
  name: "data"
  type: "AnnotatedData"
  top: "data"
  top: "label"
  include {
    phase: TEST
  }
  transform_param {
    mean_value: 104
    mean_value: 117
    mean_value: 123
    resize_param {
      prob: 1
      resize_mode: WARP
      height: 300
      width: 300
      interp_mode: LINEAR
    }
  }
  data_param {
    source: "/data2/datasets/VOCdevkit/VOC0712/lmdb/VOC0712_test_lmdb"
    batch_size: 1
    backend: LMDB
  }
  annotated_data_param {
    batch_sampler {
    }
    label_map_file: "/workspace/SSD/data/labelmap_voc.prototxt"
  }
}
layer {
  name: "conv1_1"
  type: "Convolution"
  bottom: "data"
  top: "conv1_1"
  param {
    lr_mult: 1
    decay_mult: 1
  }
  param {
    lr_mult: 2
    decay_mult: 0
  }
  convolution_param {
    num_output: 64
    pad: 1
    kernel_size: 3
    weight_filler {
      type: "xavier"
    }
    bias_filler {
      type: "constant"
      value: 0
    }
  }
}
layer {
  name: "relu1_1"
  type: "ReLU"
  bottom: "conv1_1"
  top: "conv1_1"
}
layer {
  name: "conv1_2"
  type: "Convolution"
  bottom: "conv1_1"
  top: "conv1_2"
  param {
    lr_mult: 1
    decay_mult: 1
  }
  param {
    lr_mult: 2
    decay_mult: 0
  }
  convolution_param {
    num_output: 64
    pad: 1
    kernel_size: 3
    weight_filler {
      type: "xavier"
    }
    bias_filler {
      type: "constant"
      value: 0
    }
  }
}
layer {
  name: "relu1_2"
  type: "ReLU"
  bottom: "conv1_2"
  top: "conv1_2"
}
layer {
  name: "pool1"
  type: "Pooling"
  bottom: "conv1_2"
  top: "pool1"
  pooling_param {
    pool: MAX
    kernel_size: 2
    stride: 2
  }
}
layer {
  name: "conv2_1"
  type: "Convolution"
  bottom: "pool1"
  top: "conv2_1"
  param {
    lr_mult: 1
    decay_mult: 1
  }
  param {
    lr_mult: 2
    decay_mult: 0
  }
  convolution_param {
    num_output: 128
    pad: 1
    kernel_size: 3
    weight_filler {
      type: "xavier"
    }
    bias_filler {
      type: "constant"
      value: 0
    }
  }
}
layer {
  name: "relu2_1"
  type: "ReLU"
  bottom: "conv2_1"
  top: "conv2_1"
}
layer {
  name: "conv2_2"
  type: "Convolution"
  bottom: "conv2_1"
  top: "conv2_2"
  param {
    lr_mult: 1
    decay_mult: 1
  }
  param {
    lr_mult: 2
    decay_mult: 0
  }
  convolution_param {
    num_output: 128
    pad: 1
    kernel_size: 3
    weight_filler {
      type: "xavier"
    }
    bias_filler {
      type: "constant"
      value: 0
    }
  }
}
layer {
  name: "relu2_2"
  type: "ReLU"
  bottom: "conv2_2"
  top: "conv2_2"
}
layer {
  name: "pool2"
  type: "Pooling"
  bottom: "conv2_2"
  top: "pool2"
  pooling_param {
    pool: MAX
    kernel_size: 2
    stride: 2
  }
}
layer {
  name: "conv3_1"
  type: "Convolution"
  bottom: "pool2"
  top: "conv3_1"
  param {
    lr_mult: 1
    decay_mult: 1
  }
  param {
    lr_mult: 2
    decay_mult: 0
  }
  convolution_param {
    num_output: 256
    pad: 1
    kernel_size: 3
    weight_filler {
      type: "xavier"
    }
    bias_filler {
      type: "constant"
      value: 0
    }
  }
}
layer {
  name: "relu3_1"
  type: "ReLU"
  bottom: "conv3_1"
  top: "conv3_1"
}
layer {
  name: "conv3_2"
  type: "Convolution"
  bottom: "conv3_1"
  top: "conv3_2"
  param {
    lr_mult: 1
    decay_mult: 1
  }
  param {
    lr_mult: 2
    decay_mult: 0
  }
  convolution_param {
    num_output: 256
    pad: 1
    kernel_size: 3
    weight_filler {
      type: "xavier"
    }
    bias_filler {
      type: "constant"
      value: 0
    }
  }
}
layer {
  name: "relu3_2"
  type: "ReLU"
  bottom: "conv3_2"
  top: "conv3_2"
}
layer {
  name: "conv3_3"
  type: "Convolution"
  bottom: "conv3_2"
  top: "conv3_3"
  param {
    lr_mult: 1
    decay_mult: 1
  }
  param {
    lr_mult: 2
    decay_mult: 0
  }
  convolution_param {
    num_output: 256
    pad: 1
    kernel_size: 3
    weight_filler {
      type: "xavier"
    }
    bias_filler {
      type: "constant"
      value: 0
    }
  }
}
layer {
  name: "relu3_3"
  type: "ReLU"
  bottom: "conv3_3"
  top: "conv3_3"
}
layer {
  name: "pool3"
  type: "Pooling"
  bottom: "conv3_3"
  top: "pool3"
  pooling_param {
    pool: MAX
    kernel_size: 2
    stride: 2
  }
}
layer {
  name: "conv4_1"
  type: "Convolution"
  bottom: "pool3"
  top: "conv4_1"
  param {
    lr_mult: 1
    decay_mult: 1
  }
  param {
    lr_mult: 2
    decay_mult: 0
  }
  convolution_param {
    num_output: 512
    pad: 1
    kernel_size: 3
    weight_filler {
      type: "xavier"
    }
    bias_filler {
      type: "constant"
      value: 0
    }
  }
}
layer {
  name: "relu4_1"
  type: "ReLU"
  bottom: "conv4_1"
  top: "conv4_1"
}
layer {
  name: "conv4_2"
  type: "Convolution"
  bottom: "conv4_1"
  top: "conv4_2"
  param {
    lr_mult: 1
    decay_mult: 1
  }
  param {
    lr_mult: 2
    decay_mult: 0
  }
  convolution_param {
    num_output: 512
    pad: 1
    kernel_size: 3
    weight_filler {
      type: "xavier"
    }
    bias_filler {
      type: "constant"
      value: 0
    }
  }
}
layer {
  name: "relu4_2"
  type: "ReLU"
  bottom: "conv4_2"
  top: "conv4_2"
}
layer {
  name: "conv4_3"
  type: "Convolution"
  bottom: "conv4_2"
  top: "conv4_3"
  param {
    lr_mult: 1
    decay_mult: 1
  }
  param {
    lr_mult: 2
    decay_mult: 0
  }
  convolution_param {
    num_output: 512
    pad: 1
    kernel_size: 3
    weight_filler {
      type: "xavier"
    }
    bias_filler {
      type: "constant"
      value: 0
    }
  }
}
layer {
  name: "conv4_3_bn"
  type: "BatchNorm"
  bottom: "conv4_3"
  top: "conv4_3"
  param {
    lr_mult: 1
    decay_mult: 0
  }
  param {
    lr_mult: 1
    decay_mult: 0
  }
  param {
    lr_mult: 0
    decay_mult: 0
  }
  param {
    lr_mult: 0
    decay_mult: 0
  }
  batch_norm_param {
    use_global_stats: true
    eps: 1e-05
    scale_filler {
      type: "constant"
      value: 1
    }
    bias_filler {
      type: "constant"
      value: 0
    }
  }
}
layer {
  name: "relu4_3"
  type: "ReLU"
  bottom: "conv4_3"
  top: "conv4_3"
}
layer {
  name: "pool4"
  type: "Pooling"
  bottom: "conv4_3"
  top: "pool4"
  pooling_param {
    pool: MAX
    kernel_size: 2
    stride: 2
  }
}
layer {
  name: "conv5_1"
  type: "Convolution"
  bottom: "pool4"
  top: "conv5_1"
  param {
    lr_mult: 1
    decay_mult: 1
  }
  param {
    lr_mult: 2
    decay_mult: 0
  }
  convolution_param {
    num_output: 512
    pad: 1
    kernel_size: 3
    weight_filler {
      type: "xavier"
    }
    bias_filler {
      type: "constant"
      value: 0
    }
    dilation: 1
  }
}
layer {
  name: "relu5_1"
  type: "ReLU"
  bottom: "conv5_1"
  top: "conv5_1"
}
layer {
  name: "conv5_2"
  type: "Convolution"
  bottom: "conv5_1"
  top: "conv5_2"
  param {
    lr_mult: 1
    decay_mult: 1
  }
  param {
    lr_mult: 2
    decay_mult: 0
  }
  convolution_param {
    num_output: 512
    pad: 1
    kernel_size: 3
    weight_filler {
      type: "xavier"
    }
    bias_filler {
      type: "constant"
      value: 0
    }
    dilation: 1
  }
}
layer {
  name: "relu5_2"
  type: "ReLU"
  bottom: "conv5_2"
  top: "conv5_2"
}
layer {
  name: "conv5_3"
  type: "Convolution"
  bottom: "conv5_2"
  top: "conv5_3"
  param {
    lr_mult: 1
    decay_mult: 1
  }
  param {
    lr_mult: 2
    decay_mult: 0
  }
  convolution_param {
    num_output: 512
    pad: 1
    kernel_size: 3
    weight_filler {
      type: "xavier"
    }
    bias_filler {
      type: "constant"
      value: 0
    }
    dilation: 1
  }
}
layer {
  name: "relu5_3"
  type: "ReLU"
  bottom: "conv5_3"
  top: "conv5_3"
}
layer {
  name: "pool5"
  type: "Pooling"
  bottom: "conv5_3"
  top: "pool5"
  pooling_param {
    pool: MAX
    kernel_size: 3
    stride: 1
    pad: 1
  }
}
layer {
  name: "fc6_682"
  type: "Convolution"
  bottom: "pool5"
  top: "fc6_682"
  param {
    lr_mult: 1
    decay_mult: 1
  }
  param {
    lr_mult: 2
    decay_mult: 0
  }
  convolution_param {
    num_output: 682
    pad: 6
    kernel_size: 3
    weight_filler {
      type: "xavier"
    }
    bias_filler {
      type: "constant"
      value: 0
    }
    dilation: 6
  }
}
layer {
  name: "relu6"
  type: "ReLU"
  bottom: "fc6_682"
  top: "fc6_682"
}
layer {
  name: "fc7_682"
  type: "Convolution"
  bottom: "fc6_682"
  top: "fc7_682"
  param {
    lr_mult: 1
    decay_mult: 1
  }
  param {
    lr_mult: 2
    decay_mult: 0
  }
  convolution_param {
    num_output: 1024
    kernel_size: 1
    weight_filler {
      type: "xavier"
    }
    bias_filler {
      type: "constant"
      value: 0
    }
  }
}
layer {
  name: "relu7"
  type: "ReLU"
  bottom: "fc7_682"
  top: "fc7_682"
}
layer {
  name: "conv6_1"
  type: "Convolution"
  bottom: "fc7_682"
  top: "conv6_1"
  param {
    lr_mult: 1
    decay_mult: 1
  }
  param {
    lr_mult: 2
    decay_mult: 0
  }
  convolution_param {
    num_output: 256
    pad: 0
    kernel_size: 1
    stride: 1
    weight_filler {
      type: "xavier"
    }
    bias_filler {
      type: "constant"
      value: 0
    }
  }
}
layer {
  name: "conv6_1_relu"
  type: "ReLU"
  bottom: "conv6_1"
  top: "conv6_1"
}
layer {
  name: "conv6_2"
  type: "Convolution"
  bottom: "conv6_1"
  top: "conv6_2"
  param {
    lr_mult: 1
    decay_mult: 1
  }
  param {
    lr_mult: 2
    decay_mult: 0
  }
  convolution_param {
    num_output: 512
    pad: 1
    kernel_size: 3
    stride: 2
    weight_filler {
      type: "xavier"
    }
    bias_filler {
      type: "constant"
      value: 0
    }
  }
}
layer {
  name: "conv6_2_relu"
  type: "ReLU"
  bottom: "conv6_2"
  top: "conv6_2"
}
layer {
  name: "conv7_1"
  type: "Convolution"
  bottom: "conv6_2"
  top: "conv7_1"
  param {
    lr_mult: 1
    decay_mult: 1
  }
  param {
    lr_mult: 2
    decay_mult: 0
  }
  convolution_param {
    num_output: 128
    pad: 0
    kernel_size: 1
    stride: 1
    weight_filler {
      type: "xavier"
    }
    bias_filler {
      type: "constant"
      value: 0
    }
  }
}
layer {
  name: "conv7_1_relu"
  type: "ReLU"
  bottom: "conv7_1"
  top: "conv7_1"
}
layer {
  name: "conv7_2"
  type: "Convolution"
  bottom: "conv7_1"
  top: "conv7_2"
  param {
    lr_mult: 1
    decay_mult: 1
  }
  param {
    lr_mult: 2
    decay_mult: 0
  }
  convolution_param {
    num_output: 256
    pad: 1
    kernel_size: 3
    stride: 2
    weight_filler {
      type: "xavier"
    }
    bias_filler {
      type: "constant"
      value: 0
    }
  }
}
layer {
  name: "conv7_2_relu"
  type: "ReLU"
  bottom: "conv7_2"
  top: "conv7_2"
}
layer {
  name: "conv8_1"
  type: "Convolution"
  bottom: "conv7_2"
  top: "conv8_1"
  param {
    lr_mult: 1
    decay_mult: 1
  }
  param {
    lr_mult: 2
    decay_mult: 0
  }
  convolution_param {
    num_output: 128
    pad: 0
    kernel_size: 1
    stride: 1
    weight_filler {
      type: "xavier"
    }
    bias_filler {
      type: "constant"
      value: 0
    }
  }
}
layer {
  name: "conv8_1_relu"
  type: "ReLU"
  bottom: "conv8_1"
  top: "conv8_1"
}
layer {
  name: "conv8_2"
  type: "Convolution"
  bottom: "conv8_1"
  top: "conv8_2"
  param {
    lr_mult: 1
    decay_mult: 1
  }
  param {
    lr_mult: 2
    decay_mult: 0
  }
  convolution_param {
    num_output: 256
    pad: 0
    kernel_size: 3
    stride: 1
    weight_filler {
      type: "xavier"
    }
    bias_filler {
      type: "constant"
      value: 0
    }
  }
}
layer {
  name: "conv8_2_relu"
  type: "ReLU"
  bottom: "conv8_2"
  top: "conv8_2"
}
layer {
  name: "conv9_1"
  type: "Convolution"
  bottom: "conv8_2"
  top: "conv9_1"
  param {
    lr_mult: 1
    decay_mult: 1
  }
  param {
    lr_mult: 2
    decay_mult: 0
  }
  convolution_param {
    num_output: 128
    pad: 0
    kernel_size: 1
    stride: 1
    weight_filler {
      type: "xavier"
    }
    bias_filler {
      type: "constant"
      value: 0
    }
  }
}
layer {
  name: "conv9_1_relu"
  type: "ReLU"
  bottom: "conv9_1"
  top: "conv9_1"
}
layer {
  name: "conv9_2"
  type: "Convolution"
  bottom: "conv9_1"
  top: "conv9_2"
  param {
    lr_mult: 1
    decay_mult: 1
  }
  param {
    lr_mult: 2
    decay_mult: 0
  }
  convolution_param {
    num_output: 256
    pad: 0
    kernel_size: 3
    stride: 1
    weight_filler {
      type: "xavier"
    }
    bias_filler {
      type: "constant"
      value: 0
    }
  }
}
layer {
  name: "conv9_2_relu"
  type: "ReLU"
  bottom: "conv9_2"
  top: "conv9_2"
}
layer {
  name: "conv4_3_norm_mbox_loc"
  type: "Convolution"
  bottom: "conv4_3"
  top: "conv4_3_norm_mbox_loc"
  param {
    lr_mult: 1
    decay_mult: 1
  }
  param {
    lr_mult: 2
    decay_mult: 0
  }
  convolution_param {
    num_output: 16
    pad: 1
    kernel_size: 3
    stride: 1
    weight_filler {
      type: "xavier"
    }
    bias_filler {
      type: "constant"
      value: 0
    }
  }
}
layer {
  name: "conv4_3_norm_mbox_loc_perm"
  type: "Permute"
  bottom: "conv4_3_norm_mbox_loc"
  top: "conv4_3_norm_mbox_loc_perm"
  permute_param {
    order: 0
    order: 2
    order: 3
    order: 1
  }
}
layer {
  name: "conv4_3_norm_mbox_loc_flat"
  type: "Flatten"
  bottom: "conv4_3_norm_mbox_loc_perm"
  top: "conv4_3_norm_mbox_loc_flat"
  flatten_param {
    axis: 1
  }
}
layer {
  name: "conv4_3_norm_mbox_conf"
  type: "Convolution"
  bottom: "conv4_3"
  top: "conv4_3_norm_mbox_conf"
  param {
    lr_mult: 1
    decay_mult: 1
  }
  param {
    lr_mult: 2
    decay_mult: 0
  }
  convolution_param {
    num_output: 84
    pad: 1
    kernel_size: 3
    stride: 1
    weight_filler {
      type: "xavier"
    }
    bias_filler {
      type: "constant"
      value: 0
    }
  }
}
layer {
  name: "conv4_3_norm_mbox_conf_perm"
  type: "Permute"
  bottom: "conv4_3_norm_mbox_conf"
  top: "conv4_3_norm_mbox_conf_perm"
  permute_param {
    order: 0
    order: 2
    order: 3
    order: 1
  }
}
layer {
  name: "conv4_3_norm_mbox_conf_flat"
  type: "Flatten"
  bottom: "conv4_3_norm_mbox_conf_perm"
  top: "conv4_3_norm_mbox_conf_flat"
  flatten_param {
    axis: 1
  }
}
layer {
  name: "conv4_3_norm_mbox_priorbox"
  type: "PriorBox"
  bottom: "conv4_3"
  bottom: "data"
  top: "conv4_3_norm_mbox_priorbox"
  prior_box_param {
    min_size: 30
    max_size: 60
    aspect_ratio: 2
    flip: true
    clip: false
    variance: 0.1
    variance: 0.1
    variance: 0.2
    variance: 0.2
    step: 8
    offset: 0.5
  }
}
layer {
  name: "fc7_mbox_loc"
  type: "Convolution"
  bottom: "fc7_682"
  top: "fc7_mbox_loc"
  param {
    lr_mult: 1
    decay_mult: 1
  }
  param {
    lr_mult: 2
    decay_mult: 0
  }
  convolution_param {
    num_output: 24
    pad: 1
    kernel_size: 3
    stride: 1
    weight_filler {
      type: "xavier"
    }
    bias_filler {
      type: "constant"
      value: 0
    }
  }
}
layer {
  name: "fc7_mbox_loc_perm"
  type: "Permute"
  bottom: "fc7_mbox_loc"
  top: "fc7_mbox_loc_perm"
  permute_param {
    order: 0
    order: 2
    order: 3
    order: 1
  }
}
layer {
  name: "fc7_mbox_loc_flat"
  type: "Flatten"
  bottom: "fc7_mbox_loc_perm"
  top: "fc7_mbox_loc_flat"
  flatten_param {
    axis: 1
  }
}
layer {
  name: "fc7_mbox_conf"
  type: "Convolution"
  bottom: "fc7_682"
  top: "fc7_mbox_conf"
  param {
    lr_mult: 1
    decay_mult: 1
  }
  param {
    lr_mult: 2
    decay_mult: 0
  }
  convolution_param {
    num_output: 126
    pad: 1
    kernel_size: 3
    stride: 1
    weight_filler {
      type: "xavier"
    }
    bias_filler {
      type: "constant"
      value: 0
    }
  }
}
layer {
  name: "fc7_mbox_conf_perm"
  type: "Permute"
  bottom: "fc7_mbox_conf"
  top: "fc7_mbox_conf_perm"
  permute_param {
    order: 0
    order: 2
    order: 3
    order: 1
  }
}
layer {
  name: "fc7_mbox_conf_flat"
  type: "Flatten"
  bottom: "fc7_mbox_conf_perm"
  top: "fc7_mbox_conf_flat"
  flatten_param {
    axis: 1
  }
}
layer {
  name: "fc7_mbox_priorbox"
  type: "PriorBox"
  bottom: "fc7_682"
  bottom: "data"
  top: "fc7_mbox_priorbox"
  prior_box_param {
    min_size: 60
    max_size: 111
    aspect_ratio: 2
    aspect_ratio: 3
    flip: true
    clip: false
    variance: 0.1
    variance: 0.1
    variance: 0.2
    variance: 0.2
    step: 16
    offset: 0.5
  }
}
layer {
  name: "conv6_2_mbox_loc"
  type: "Convolution"
  bottom: "conv6_2"
  top: "conv6_2_mbox_loc"
  param {
    lr_mult: 1
    decay_mult: 1
  }
  param {
    lr_mult: 2
    decay_mult: 0
  }
  convolution_param {
    num_output: 24
    pad: 1
    kernel_size: 3
    stride: 1
    weight_filler {
      type: "xavier"
    }
    bias_filler {
      type: "constant"
      value: 0
    }
  }
}
layer {
  name: "conv6_2_mbox_loc_perm"
  type: "Permute"
  bottom: "conv6_2_mbox_loc"
  top: "conv6_2_mbox_loc_perm"
  permute_param {
    order: 0
    order: 2
    order: 3
    order: 1
  }
}
layer {
  name: "conv6_2_mbox_loc_flat"
  type: "Flatten"
  bottom: "conv6_2_mbox_loc_perm"
  top: "conv6_2_mbox_loc_flat"
  flatten_param {
    axis: 1
  }
}
layer {
  name: "conv6_2_mbox_conf"
  type: "Convolution"
  bottom: "conv6_2"
  top: "conv6_2_mbox_conf"
  param {
    lr_mult: 1
    decay_mult: 1
  }
  param {
    lr_mult: 2
    decay_mult: 0
  }
  convolution_param {
    num_output: 126
    pad: 1
    kernel_size: 3
    stride: 1
    weight_filler {
      type: "xavier"
    }
    bias_filler {
      type: "constant"
      value: 0
    }
  }
}
layer {
  name: "conv6_2_mbox_conf_perm"
  type: "Permute"
  bottom: "conv6_2_mbox_conf"
  top: "conv6_2_mbox_conf_perm"
  permute_param {
    order: 0
    order: 2
    order: 3
    order: 1
  }
}
layer {
  name: "conv6_2_mbox_conf_flat"
  type: "Flatten"
  bottom: "conv6_2_mbox_conf_perm"
  top: "conv6_2_mbox_conf_flat"
  flatten_param {
    axis: 1
  }
}
layer {
  name: "conv6_2_mbox_priorbox"
  type: "PriorBox"
  bottom: "conv6_2"
  bottom: "data"
  top: "conv6_2_mbox_priorbox"
  prior_box_param {
    min_size: 111
    max_size: 162
    aspect_ratio: 2
    aspect_ratio: 3
    flip: true
    clip: false
    variance: 0.1
    variance: 0.1
    variance: 0.2
    variance: 0.2
    step: 32
    offset: 0.5
  }
}
layer {
  name: "conv7_2_mbox_loc"
  type: "Convolution"
  bottom: "conv7_2"
  top: "conv7_2_mbox_loc"
  param {
    lr_mult: 1
    decay_mult: 1
  }
  param {
    lr_mult: 2
    decay_mult: 0
  }
  convolution_param {
    num_output: 24
    pad: 1
    kernel_size: 3
    stride: 1
    weight_filler {
      type: "xavier"
    }
    bias_filler {
      type: "constant"
      value: 0
    }
  }
}
layer {
  name: "conv7_2_mbox_loc_perm"
  type: "Permute"
  bottom: "conv7_2_mbox_loc"
  top: "conv7_2_mbox_loc_perm"
  permute_param {
    order: 0
    order: 2
    order: 3
    order: 1
  }
}
layer {
  name: "conv7_2_mbox_loc_flat"
  type: "Flatten"
  bottom: "conv7_2_mbox_loc_perm"
  top: "conv7_2_mbox_loc_flat"
  flatten_param {
    axis: 1
  }
}
layer {
  name: "conv7_2_mbox_conf"
  type: "Convolution"
  bottom: "conv7_2"
  top: "conv7_2_mbox_conf"
  param {
    lr_mult: 1
    decay_mult: 1
  }
  param {
    lr_mult: 2
    decay_mult: 0
  }
  convolution_param {
    num_output: 126
    pad: 1
    kernel_size: 3
    stride: 1
    weight_filler {
      type: "xavier"
    }
    bias_filler {
      type: "constant"
      value: 0
    }
  }
}
layer {
  name: "conv7_2_mbox_conf_perm"
  type: "Permute"
  bottom: "conv7_2_mbox_conf"
  top: "conv7_2_mbox_conf_perm"
  permute_param {
    order: 0
    order: 2
    order: 3
    order: 1
  }
}
layer {
  name: "conv7_2_mbox_conf_flat"
  type: "Flatten"
  bottom: "conv7_2_mbox_conf_perm"
  top: "conv7_2_mbox_conf_flat"
  flatten_param {
    axis: 1
  }
}
layer {
  name: "conv7_2_mbox_priorbox"
  type: "PriorBox"
  bottom: "conv7_2"
  bottom: "data"
  top: "conv7_2_mbox_priorbox"
  prior_box_param {
    min_size: 162
    max_size: 213
    aspect_ratio: 2
    aspect_ratio: 3
    flip: true
    clip: false
    variance: 0.1
    variance: 0.1
    variance: 0.2
    variance: 0.2
    step: 64
    offset: 0.5
  }
}
layer {
  name: "conv8_2_mbox_loc"
  type: "Convolution"
  bottom: "conv8_2"
  top: "conv8_2_mbox_loc"
  param {
    lr_mult: 1
    decay_mult: 1
  }
  param {
    lr_mult: 2
    decay_mult: 0
  }
  convolution_param {
    num_output: 16
    pad: 1
    kernel_size: 3
    stride: 1
    weight_filler {
      type: "xavier"
    }
    bias_filler {
      type: "constant"
      value: 0
    }
  }
}
layer {
  name: "conv8_2_mbox_loc_perm"
  type: "Permute"
  bottom: "conv8_2_mbox_loc"
  top: "conv8_2_mbox_loc_perm"
  permute_param {
    order: 0
    order: 2
    order: 3
    order: 1
  }
}
layer {
  name: "conv8_2_mbox_loc_flat"
  type: "Flatten"
  bottom: "conv8_2_mbox_loc_perm"
  top: "conv8_2_mbox_loc_flat"
  flatten_param {
    axis: 1
  }
}
layer {
  name: "conv8_2_mbox_conf"
  type: "Convolution"
  bottom: "conv8_2"
  top: "conv8_2_mbox_conf"
  param {
    lr_mult: 1
    decay_mult: 1
  }
  param {
    lr_mult: 2
    decay_mult: 0
  }
  convolution_param {
    num_output: 84
    pad: 1
    kernel_size: 3
    stride: 1
    weight_filler {
      type: "xavier"
    }
    bias_filler {
      type: "constant"
      value: 0
    }
  }
}
layer {
  name: "conv8_2_mbox_conf_perm"
  type: "Permute"
  bottom: "conv8_2_mbox_conf"
  top: "conv8_2_mbox_conf_perm"
  permute_param {
    order: 0
    order: 2
    order: 3
    order: 1
  }
}
layer {
  name: "conv8_2_mbox_conf_flat"
  type: "Flatten"
  bottom: "conv8_2_mbox_conf_perm"
  top: "conv8_2_mbox_conf_flat"
  flatten_param {
    axis: 1
  }
}
layer {
  name: "conv8_2_mbox_priorbox"
  type: "PriorBox"
  bottom: "conv8_2"
  bottom: "data"
  top: "conv8_2_mbox_priorbox"
  prior_box_param {
    min_size: 213
    max_size: 264
    aspect_ratio: 2
    flip: true
    clip: false
    variance: 0.1
    variance: 0.1
    variance: 0.2
    variance: 0.2
    step: 100
    offset: 0.5
  }
}
layer {
  name: "conv9_2_mbox_loc"
  type: "Convolution"
  bottom: "conv9_2"
  top: "conv9_2_mbox_loc"
  param {
    lr_mult: 1
    decay_mult: 1
  }
  param {
    lr_mult: 2
    decay_mult: 0
  }
  convolution_param {
    num_output: 16
    pad: 1
    kernel_size: 3
    stride: 1
    weight_filler {
      type: "xavier"
    }
    bias_filler {
      type: "constant"
      value: 0
    }
  }
}
layer {
  name: "conv9_2_mbox_loc_perm"
  type: "Permute"
  bottom: "conv9_2_mbox_loc"
  top: "conv9_2_mbox_loc_perm"
  permute_param {
    order: 0
    order: 2
    order: 3
    order: 1
  }
}
layer {
  name: "conv9_2_mbox_loc_flat"
  type: "Flatten"
  bottom: "conv9_2_mbox_loc_perm"
  top: "conv9_2_mbox_loc_flat"
  flatten_param {
    axis: 1
  }
}
layer {
  name: "conv9_2_mbox_conf"
  type: "Convolution"
  bottom: "conv9_2"
  top: "conv9_2_mbox_conf"
  param {
    lr_mult: 1
    decay_mult: 1
  }
  param {
    lr_mult: 2
    decay_mult: 0
  }
  convolution_param {
    num_output: 84
    pad: 1
    kernel_size: 3
    stride: 1
    weight_filler {
      type: "xavier"
    }
    bias_filler {
      type: "constant"
      value: 0
    }
  }
}
layer {
  name: "conv9_2_mbox_conf_perm"
  type: "Permute"
  bottom: "conv9_2_mbox_conf"
  top: "conv9_2_mbox_conf_perm"
  permute_param {
    order: 0
    order: 2
    order: 3
    order: 1
  }
}
layer {
  name: "conv9_2_mbox_conf_flat"
  type: "Flatten"
  bottom: "conv9_2_mbox_conf_perm"
  top: "conv9_2_mbox_conf_flat"
  flatten_param {
    axis: 1
  }
}
layer {
  name: "conv9_2_mbox_priorbox"
  type: "PriorBox"
  bottom: "conv9_2"
  bottom: "data"
  top: "conv9_2_mbox_priorbox"
  prior_box_param {
    min_size: 264
    max_size: 315
    aspect_ratio: 2
    flip: true
    clip: false
    variance: 0.1
    variance: 0.1
    variance: 0.2
    variance: 0.2
    step: 300
    offset: 0.5
  }
}
layer {
  name: "mbox_loc"
  type: "Concat"
  bottom: "conv4_3_norm_mbox_loc_flat"
  bottom: "fc7_mbox_loc_flat"
  bottom: "conv6_2_mbox_loc_flat"
  bottom: "conv7_2_mbox_loc_flat"
  bottom: "conv8_2_mbox_loc_flat"
  bottom: "conv9_2_mbox_loc_flat"
  top: "mbox_loc"
  concat_param {
    axis: 1
  }
}
layer {
  name: "mbox_conf"
  type: "Concat"
  bottom: "conv4_3_norm_mbox_conf_flat"
  bottom: "fc7_mbox_conf_flat"
  bottom: "conv6_2_mbox_conf_flat"
  bottom: "conv7_2_mbox_conf_flat"
  bottom: "conv8_2_mbox_conf_flat"
  bottom: "conv9_2_mbox_conf_flat"
  top: "mbox_conf"
  concat_param {
    axis: 1
  }
}
layer {
  name: "mbox_priorbox"
  type: "Concat"
  bottom: "conv4_3_norm_mbox_priorbox"
  bottom: "fc7_mbox_priorbox"
  bottom: "conv6_2_mbox_priorbox"
  bottom: "conv7_2_mbox_priorbox"
  bottom: "conv8_2_mbox_priorbox"
  bottom: "conv9_2_mbox_priorbox"
  top: "mbox_priorbox"
  concat_param {
    axis: 2
  }
}
layer {
  name: "mbox_conf_reshape"
  type: "Reshape"
  bottom: "mbox_conf"
  top: "mbox_conf_reshape"
  include {
    phase: TEST
  }
  reshape_param {
    shape {
      dim: 0
      dim: -1
      dim: 21
    }
  }
}
layer {
  name: "mbox_conf_softmax"
  type: "Softmax"
  bottom: "mbox_conf_reshape"
  top: "mbox_conf_softmax"
  include {
    phase: TEST
  }
  softmax_param {
    axis: 2
  }
}
layer {
  name: "mbox_conf_flatten"
  type: "Flatten"
  bottom: "mbox_conf_softmax"
  top: "mbox_conf_flatten"
  include {
    phase: TEST
  }
  flatten_param {
    axis: 1
  }
}
layer {
  name: "detection_out"
  type: "DetectionOutput"
  bottom: "mbox_loc"
  bottom: "mbox_conf_flatten"
  bottom: "mbox_priorbox"
  top: "detection_out"
  include {
    phase: TEST
  }
  detection_output_param {
    num_classes: 21
    share_location: true
    background_label_id: 0
    nms_param {
      nms_threshold: 0.45
      top_k: 400
    }
    save_output_param {
      output_directory: "snapshots/test_results"
      output_name_prefix: "comp4_det_test_"
      output_format: "VOC"
      label_map_file: "/workspace/SSD/data/labelmap_voc.prototxt"
      name_size_file: "/workspace/SSD/data/test_name_size.txt"
      num_test_image: 4952
    }
    code_type: CENTER_SIZE
    keep_top_k: 200
    confidence_threshold: 0.01
  }
}
layer {
  name: "detection_eval"
  type: "DetectionEvaluate"
  bottom: "detection_out"
  bottom: "label"
  top: "detection_eval"
  include {
    phase: TEST
  }
  detection_evaluate_param {
    num_classes: 21
    background_label_id: 0
    overlap_threshold: 0.5
    evaluate_difficult_gt: false
    name_size_file: "/workspace/SSD/data/test_name_size.txt"
  }
}
I0104 20:08:15.506434   434 layer_factory.hpp:77] Creating layer data
I0104 20:08:15.506521   434 internal_thread.cpp:27] Starting internal thread(s) on GPU 0
I0104 20:08:15.506837   434 net.cpp:94] Creating Layer data
I0104 20:08:15.506862   434 net.cpp:409] data -> data
I0104 20:08:15.506889   434 net.cpp:409] data -> label
I0104 20:08:15.509068   462 db_lmdb.cpp:35] Opened lmdb /data2/datasets/VOCdevkit/VOC0712/lmdb/VOC0712_test_lmdb
I0104 20:08:15.509091   462 db_lmdb.cpp:38] Items count: 4952
I0104 20:08:15.509114   462 data_reader.cpp:124] TEST: reading data using 1 channel(s)
I0104 20:08:15.517505   434 annotated_data_layer.cpp:65] output data size: 1,3,300,300
I0104 20:08:15.517527   434 annotated_data_layer.cpp:92] annotation group size: 2
I0104 20:08:15.530763   434 internal_thread.cpp:27] Starting internal thread(s) on GPU 0
I0104 20:08:15.530848   434 net.cpp:144] Setting up data
I0104 20:08:15.530862   434 net.cpp:151] Top shape: 1 3 300 300 (270000)
I0104 20:08:15.530872   434 net.cpp:151] Top shape: 1 1 2 8 (16)
I0104 20:08:15.530877   434 net.cpp:159] Memory required for data: 1080064
I0104 20:08:15.530884   434 layer_factory.hpp:77] Creating layer data_data_0_split
I0104 20:08:15.530902   434 net.cpp:94] Creating Layer data_data_0_split
I0104 20:08:15.530911   434 net.cpp:435] data_data_0_split <- data
I0104 20:08:15.530920   434 net.cpp:409] data_data_0_split -> data_data_0_split_0
I0104 20:08:15.530932   434 net.cpp:409] data_data_0_split -> data_data_0_split_1
I0104 20:08:15.530938   434 net.cpp:409] data_data_0_split -> data_data_0_split_2
I0104 20:08:15.530944   434 net.cpp:409] data_data_0_split -> data_data_0_split_3
I0104 20:08:15.530951   434 net.cpp:409] data_data_0_split -> data_data_0_split_4
I0104 20:08:15.530956   434 net.cpp:409] data_data_0_split -> data_data_0_split_5
I0104 20:08:15.530961   434 net.cpp:409] data_data_0_split -> data_data_0_split_6
I0104 20:08:15.531072   434 net.cpp:144] Setting up data_data_0_split
I0104 20:08:15.531080   434 net.cpp:151] Top shape: 1 3 300 300 (270000)
I0104 20:08:15.531085   434 net.cpp:151] Top shape: 1 3 300 300 (270000)
I0104 20:08:15.531090   434 net.cpp:151] Top shape: 1 3 300 300 (270000)
I0104 20:08:15.531093   434 net.cpp:151] Top shape: 1 3 300 300 (270000)
I0104 20:08:15.531097   434 net.cpp:151] Top shape: 1 3 300 300 (270000)
I0104 20:08:15.531101   434 net.cpp:151] Top shape: 1 3 300 300 (270000)
I0104 20:08:15.531105   434 net.cpp:151] Top shape: 1 3 300 300 (270000)
I0104 20:08:15.531111   434 net.cpp:159] Memory required for data: 8640064
I0104 20:08:15.531113   434 layer_factory.hpp:77] Creating layer conv1_1
I0104 20:08:15.531132   434 net.cpp:94] Creating Layer conv1_1
I0104 20:08:15.531137   434 net.cpp:435] conv1_1 <- data_data_0_split_0
I0104 20:08:15.531143   434 net.cpp:409] conv1_1 -> conv1_1
I0104 20:08:15.531677   434 net.cpp:144] Setting up conv1_1
I0104 20:08:15.531693   434 net.cpp:151] Top shape: 1 64 300 300 (5760000)
I0104 20:08:15.531703   434 net.cpp:159] Memory required for data: 31680064
I0104 20:08:15.531759   434 layer_factory.hpp:77] Creating layer relu1_1
I0104 20:08:15.531775   434 net.cpp:94] Creating Layer relu1_1
I0104 20:08:15.531782   434 net.cpp:435] relu1_1 <- conv1_1
I0104 20:08:15.531790   434 net.cpp:396] relu1_1 -> conv1_1 (in-place)
I0104 20:08:15.531808   434 net.cpp:144] Setting up relu1_1
I0104 20:08:15.531822   434 net.cpp:151] Top shape: 1 64 300 300 (5760000)
I0104 20:08:15.531832   434 net.cpp:159] Memory required for data: 54720064
I0104 20:08:15.531838   434 layer_factory.hpp:77] Creating layer conv1_2
I0104 20:08:15.531852   434 net.cpp:94] Creating Layer conv1_2
I0104 20:08:15.531859   434 net.cpp:435] conv1_2 <- conv1_1
I0104 20:08:15.531868   434 net.cpp:409] conv1_2 -> conv1_2
I0104 20:08:15.532644   434 net.cpp:144] Setting up conv1_2
I0104 20:08:15.532656   434 net.cpp:151] Top shape: 1 64 300 300 (5760000)
I0104 20:08:15.532662   434 net.cpp:159] Memory required for data: 77760064
I0104 20:08:15.532671   434 layer_factory.hpp:77] Creating layer relu1_2
I0104 20:08:15.532678   434 net.cpp:94] Creating Layer relu1_2
I0104 20:08:15.532685   434 net.cpp:435] relu1_2 <- conv1_2
I0104 20:08:15.532691   434 net.cpp:396] relu1_2 -> conv1_2 (in-place)
I0104 20:08:15.532699   434 net.cpp:144] Setting up relu1_2
I0104 20:08:15.532702   434 net.cpp:151] Top shape: 1 64 300 300 (5760000)
I0104 20:08:15.532707   434 net.cpp:159] Memory required for data: 100800064
I0104 20:08:15.532711   434 layer_factory.hpp:77] Creating layer pool1
I0104 20:08:15.532717   434 net.cpp:94] Creating Layer pool1
I0104 20:08:15.532721   434 net.cpp:435] pool1 <- conv1_2
I0104 20:08:15.532725   434 net.cpp:409] pool1 -> pool1
I0104 20:08:15.532768   434 net.cpp:144] Setting up pool1
I0104 20:08:15.532774   434 net.cpp:151] Top shape: 1 64 150 150 (1440000)
I0104 20:08:15.532780   434 net.cpp:159] Memory required for data: 106560064
I0104 20:08:15.532783   434 layer_factory.hpp:77] Creating layer conv2_1
I0104 20:08:15.532793   434 net.cpp:94] Creating Layer conv2_1
I0104 20:08:15.532796   434 net.cpp:435] conv2_1 <- pool1
I0104 20:08:15.532801   434 net.cpp:409] conv2_1 -> conv2_1
I0104 20:08:15.533546   434 net.cpp:144] Setting up conv2_1
I0104 20:08:15.533558   434 net.cpp:151] Top shape: 1 128 150 150 (2880000)
I0104 20:08:15.533565   434 net.cpp:159] Memory required for data: 118080064
I0104 20:08:15.533572   434 layer_factory.hpp:77] Creating layer relu2_1
I0104 20:08:15.533579   434 net.cpp:94] Creating Layer relu2_1
I0104 20:08:15.533583   434 net.cpp:435] relu2_1 <- conv2_1
I0104 20:08:15.533588   434 net.cpp:396] relu2_1 -> conv2_1 (in-place)
I0104 20:08:15.533596   434 net.cpp:144] Setting up relu2_1
I0104 20:08:15.533599   434 net.cpp:151] Top shape: 1 128 150 150 (2880000)
I0104 20:08:15.533604   434 net.cpp:159] Memory required for data: 129600064
I0104 20:08:15.533607   434 layer_factory.hpp:77] Creating layer conv2_2
I0104 20:08:15.533615   434 net.cpp:94] Creating Layer conv2_2
I0104 20:08:15.533619   434 net.cpp:435] conv2_2 <- conv2_1
I0104 20:08:15.533624   434 net.cpp:409] conv2_2 -> conv2_2
I0104 20:08:15.534821   434 net.cpp:144] Setting up conv2_2
I0104 20:08:15.534832   434 net.cpp:151] Top shape: 1 128 150 150 (2880000)
I0104 20:08:15.534838   434 net.cpp:159] Memory required for data: 141120064
I0104 20:08:15.534845   434 layer_factory.hpp:77] Creating layer relu2_2
I0104 20:08:15.534850   434 net.cpp:94] Creating Layer relu2_2
I0104 20:08:15.534855   434 net.cpp:435] relu2_2 <- conv2_2
I0104 20:08:15.534859   434 net.cpp:396] relu2_2 -> conv2_2 (in-place)
I0104 20:08:15.534866   434 net.cpp:144] Setting up relu2_2
I0104 20:08:15.534870   434 net.cpp:151] Top shape: 1 128 150 150 (2880000)
I0104 20:08:15.534874   434 net.cpp:159] Memory required for data: 152640064
I0104 20:08:15.534878   434 layer_factory.hpp:77] Creating layer pool2
I0104 20:08:15.534883   434 net.cpp:94] Creating Layer pool2
I0104 20:08:15.534888   434 net.cpp:435] pool2 <- conv2_2
I0104 20:08:15.534893   434 net.cpp:409] pool2 -> pool2
I0104 20:08:15.534930   434 net.cpp:144] Setting up pool2
I0104 20:08:15.534937   434 net.cpp:151] Top shape: 1 128 75 75 (720000)
I0104 20:08:15.534942   434 net.cpp:159] Memory required for data: 155520064
I0104 20:08:15.534946   434 layer_factory.hpp:77] Creating layer conv3_1
I0104 20:08:15.534955   434 net.cpp:94] Creating Layer conv3_1
I0104 20:08:15.534958   434 net.cpp:435] conv3_1 <- pool2
I0104 20:08:15.534963   434 net.cpp:409] conv3_1 -> conv3_1
I0104 20:08:15.538805   434 net.cpp:144] Setting up conv3_1
I0104 20:08:15.538821   434 net.cpp:151] Top shape: 1 256 75 75 (1440000)
I0104 20:08:15.538827   434 net.cpp:159] Memory required for data: 161280064
I0104 20:08:15.538837   434 layer_factory.hpp:77] Creating layer relu3_1
I0104 20:08:15.538843   434 net.cpp:94] Creating Layer relu3_1
I0104 20:08:15.538848   434 net.cpp:435] relu3_1 <- conv3_1
I0104 20:08:15.538853   434 net.cpp:396] relu3_1 -> conv3_1 (in-place)
I0104 20:08:15.538861   434 net.cpp:144] Setting up relu3_1
I0104 20:08:15.538864   434 net.cpp:151] Top shape: 1 256 75 75 (1440000)
I0104 20:08:15.538868   434 net.cpp:159] Memory required for data: 167040064
I0104 20:08:15.538872   434 layer_factory.hpp:77] Creating layer conv3_2
I0104 20:08:15.538882   434 net.cpp:94] Creating Layer conv3_2
I0104 20:08:15.538884   434 net.cpp:435] conv3_2 <- conv3_1
I0104 20:08:15.538889   434 net.cpp:409] conv3_2 -> conv3_2
I0104 20:08:15.544508   434 net.cpp:144] Setting up conv3_2
I0104 20:08:15.544523   434 net.cpp:151] Top shape: 1 256 75 75 (1440000)
I0104 20:08:15.544530   434 net.cpp:159] Memory required for data: 172800064
I0104 20:08:15.544538   434 layer_factory.hpp:77] Creating layer relu3_2
I0104 20:08:15.544544   434 net.cpp:94] Creating Layer relu3_2
I0104 20:08:15.544549   434 net.cpp:435] relu3_2 <- conv3_2
I0104 20:08:15.544554   434 net.cpp:396] relu3_2 -> conv3_2 (in-place)
I0104 20:08:15.544562   434 net.cpp:144] Setting up relu3_2
I0104 20:08:15.544565   434 net.cpp:151] Top shape: 1 256 75 75 (1440000)
I0104 20:08:15.544570   434 net.cpp:159] Memory required for data: 178560064
I0104 20:08:15.544574   434 layer_factory.hpp:77] Creating layer conv3_3
I0104 20:08:15.544584   434 net.cpp:94] Creating Layer conv3_3
I0104 20:08:15.544587   434 net.cpp:435] conv3_3 <- conv3_2
I0104 20:08:15.544592   434 net.cpp:409] conv3_3 -> conv3_3
I0104 20:08:15.550132   434 net.cpp:144] Setting up conv3_3
I0104 20:08:15.550146   434 net.cpp:151] Top shape: 1 256 75 75 (1440000)
I0104 20:08:15.550153   434 net.cpp:159] Memory required for data: 184320064
I0104 20:08:15.550160   434 layer_factory.hpp:77] Creating layer relu3_3
I0104 20:08:15.550166   434 net.cpp:94] Creating Layer relu3_3
I0104 20:08:15.550171   434 net.cpp:435] relu3_3 <- conv3_3
I0104 20:08:15.550176   434 net.cpp:396] relu3_3 -> conv3_3 (in-place)
I0104 20:08:15.550184   434 net.cpp:144] Setting up relu3_3
I0104 20:08:15.550187   434 net.cpp:151] Top shape: 1 256 75 75 (1440000)
I0104 20:08:15.550192   434 net.cpp:159] Memory required for data: 190080064
I0104 20:08:15.550195   434 layer_factory.hpp:77] Creating layer pool3
I0104 20:08:15.550201   434 net.cpp:94] Creating Layer pool3
I0104 20:08:15.550204   434 net.cpp:435] pool3 <- conv3_3
I0104 20:08:15.550209   434 net.cpp:409] pool3 -> pool3
I0104 20:08:15.550246   434 net.cpp:144] Setting up pool3
I0104 20:08:15.550252   434 net.cpp:151] Top shape: 1 256 38 38 (369664)
I0104 20:08:15.550258   434 net.cpp:159] Memory required for data: 191558720
I0104 20:08:15.550262   434 layer_factory.hpp:77] Creating layer conv4_1
I0104 20:08:15.550271   434 net.cpp:94] Creating Layer conv4_1
I0104 20:08:15.550274   434 net.cpp:435] conv4_1 <- pool3
I0104 20:08:15.550280   434 net.cpp:409] conv4_1 -> conv4_1
I0104 20:08:15.560663   434 net.cpp:144] Setting up conv4_1
I0104 20:08:15.560676   434 net.cpp:151] Top shape: 1 512 38 38 (739328)
I0104 20:08:15.560683   434 net.cpp:159] Memory required for data: 194516032
I0104 20:08:15.560690   434 layer_factory.hpp:77] Creating layer relu4_1
I0104 20:08:15.560696   434 net.cpp:94] Creating Layer relu4_1
I0104 20:08:15.560701   434 net.cpp:435] relu4_1 <- conv4_1
I0104 20:08:15.560706   434 net.cpp:396] relu4_1 -> conv4_1 (in-place)
I0104 20:08:15.560714   434 net.cpp:144] Setting up relu4_1
I0104 20:08:15.560717   434 net.cpp:151] Top shape: 1 512 38 38 (739328)
I0104 20:08:15.560721   434 net.cpp:159] Memory required for data: 197473344
I0104 20:08:15.560725   434 layer_factory.hpp:77] Creating layer conv4_2
I0104 20:08:15.560734   434 net.cpp:94] Creating Layer conv4_2
I0104 20:08:15.560736   434 net.cpp:435] conv4_2 <- conv4_1
I0104 20:08:15.560741   434 net.cpp:409] conv4_2 -> conv4_2
I0104 20:08:15.581506   434 net.cpp:144] Setting up conv4_2
I0104 20:08:15.581523   434 net.cpp:151] Top shape: 1 512 38 38 (739328)
I0104 20:08:15.581532   434 net.cpp:159] Memory required for data: 200430656
I0104 20:08:15.581543   434 layer_factory.hpp:77] Creating layer relu4_2
I0104 20:08:15.581550   434 net.cpp:94] Creating Layer relu4_2
I0104 20:08:15.581557   434 net.cpp:435] relu4_2 <- conv4_2
I0104 20:08:15.581562   434 net.cpp:396] relu4_2 -> conv4_2 (in-place)
I0104 20:08:15.581571   434 net.cpp:144] Setting up relu4_2
I0104 20:08:15.581574   434 net.cpp:151] Top shape: 1 512 38 38 (739328)
I0104 20:08:15.581579   434 net.cpp:159] Memory required for data: 203387968
I0104 20:08:15.581583   434 layer_factory.hpp:77] Creating layer conv4_3
I0104 20:08:15.581593   434 net.cpp:94] Creating Layer conv4_3
I0104 20:08:15.581595   434 net.cpp:435] conv4_3 <- conv4_2
I0104 20:08:15.581601   434 net.cpp:409] conv4_3 -> conv4_3
I0104 20:08:15.601964   434 net.cpp:144] Setting up conv4_3
I0104 20:08:15.601980   434 net.cpp:151] Top shape: 1 512 38 38 (739328)
I0104 20:08:15.601989   434 net.cpp:159] Memory required for data: 206345280
I0104 20:08:15.602000   434 layer_factory.hpp:77] Creating layer conv4_3_bn
I0104 20:08:15.602012   434 net.cpp:94] Creating Layer conv4_3_bn
I0104 20:08:15.602017   434 net.cpp:435] conv4_3_bn <- conv4_3
I0104 20:08:15.602025   434 net.cpp:396] conv4_3_bn -> conv4_3 (in-place)
I0104 20:08:15.602658   434 net.cpp:144] Setting up conv4_3_bn
I0104 20:08:15.602669   434 net.cpp:151] Top shape: 1 512 38 38 (739328)
I0104 20:08:15.602674   434 net.cpp:159] Memory required for data: 209302592
I0104 20:08:15.602684   434 layer_factory.hpp:77] Creating layer relu4_3
I0104 20:08:15.602690   434 net.cpp:94] Creating Layer relu4_3
I0104 20:08:15.602694   434 net.cpp:435] relu4_3 <- conv4_3
I0104 20:08:15.602699   434 net.cpp:396] relu4_3 -> conv4_3 (in-place)
I0104 20:08:15.602705   434 net.cpp:144] Setting up relu4_3
I0104 20:08:15.602710   434 net.cpp:151] Top shape: 1 512 38 38 (739328)
I0104 20:08:15.602715   434 net.cpp:159] Memory required for data: 212259904
I0104 20:08:15.602718   434 layer_factory.hpp:77] Creating layer conv4_3_relu4_3_0_split
I0104 20:08:15.602725   434 net.cpp:94] Creating Layer conv4_3_relu4_3_0_split
I0104 20:08:15.602727   434 net.cpp:435] conv4_3_relu4_3_0_split <- conv4_3
I0104 20:08:15.602733   434 net.cpp:409] conv4_3_relu4_3_0_split -> conv4_3_relu4_3_0_split_0
I0104 20:08:15.602739   434 net.cpp:409] conv4_3_relu4_3_0_split -> conv4_3_relu4_3_0_split_1
I0104 20:08:15.602746   434 net.cpp:409] conv4_3_relu4_3_0_split -> conv4_3_relu4_3_0_split_2
I0104 20:08:15.602751   434 net.cpp:409] conv4_3_relu4_3_0_split -> conv4_3_relu4_3_0_split_3
I0104 20:08:15.602798   434 net.cpp:144] Setting up conv4_3_relu4_3_0_split
I0104 20:08:15.602804   434 net.cpp:151] Top shape: 1 512 38 38 (739328)
I0104 20:08:15.602809   434 net.cpp:151] Top shape: 1 512 38 38 (739328)
I0104 20:08:15.602813   434 net.cpp:151] Top shape: 1 512 38 38 (739328)
I0104 20:08:15.602818   434 net.cpp:151] Top shape: 1 512 38 38 (739328)
I0104 20:08:15.602821   434 net.cpp:159] Memory required for data: 224089152
I0104 20:08:15.602830   434 layer_factory.hpp:77] Creating layer pool4
I0104 20:08:15.602838   434 net.cpp:94] Creating Layer pool4
I0104 20:08:15.602841   434 net.cpp:435] pool4 <- conv4_3_relu4_3_0_split_0
I0104 20:08:15.602846   434 net.cpp:409] pool4 -> pool4
I0104 20:08:15.602875   434 net.cpp:144] Setting up pool4
I0104 20:08:15.602881   434 net.cpp:151] Top shape: 1 512 19 19 (184832)
I0104 20:08:15.602886   434 net.cpp:159] Memory required for data: 224828480
I0104 20:08:15.602890   434 layer_factory.hpp:77] Creating layer conv5_1
I0104 20:08:15.602898   434 net.cpp:94] Creating Layer conv5_1
I0104 20:08:15.602902   434 net.cpp:435] conv5_1 <- pool4
I0104 20:08:15.602908   434 net.cpp:409] conv5_1 -> conv5_1
I0104 20:08:15.622396   434 net.cpp:144] Setting up conv5_1
I0104 20:08:15.622414   434 net.cpp:151] Top shape: 1 512 19 19 (184832)
I0104 20:08:15.622421   434 net.cpp:159] Memory required for data: 225567808
I0104 20:08:15.622431   434 layer_factory.hpp:77] Creating layer relu5_1
I0104 20:08:15.622438   434 net.cpp:94] Creating Layer relu5_1
I0104 20:08:15.622443   434 net.cpp:435] relu5_1 <- conv5_1
I0104 20:08:15.622448   434 net.cpp:396] relu5_1 -> conv5_1 (in-place)
I0104 20:08:15.622457   434 net.cpp:144] Setting up relu5_1
I0104 20:08:15.622460   434 net.cpp:151] Top shape: 1 512 19 19 (184832)
I0104 20:08:15.622464   434 net.cpp:159] Memory required for data: 226307136
I0104 20:08:15.622468   434 layer_factory.hpp:77] Creating layer conv5_2
I0104 20:08:15.622478   434 net.cpp:94] Creating Layer conv5_2
I0104 20:08:15.622480   434 net.cpp:435] conv5_2 <- conv5_1
I0104 20:08:15.622485   434 net.cpp:409] conv5_2 -> conv5_2
I0104 20:08:15.641835   434 net.cpp:144] Setting up conv5_2
I0104 20:08:15.641852   434 net.cpp:151] Top shape: 1 512 19 19 (184832)
I0104 20:08:15.641875   434 net.cpp:159] Memory required for data: 227046464
I0104 20:08:15.641885   434 layer_factory.hpp:77] Creating layer relu5_2
I0104 20:08:15.641891   434 net.cpp:94] Creating Layer relu5_2
I0104 20:08:15.641896   434 net.cpp:435] relu5_2 <- conv5_2
I0104 20:08:15.641902   434 net.cpp:396] relu5_2 -> conv5_2 (in-place)
I0104 20:08:15.641911   434 net.cpp:144] Setting up relu5_2
I0104 20:08:15.641913   434 net.cpp:151] Top shape: 1 512 19 19 (184832)
I0104 20:08:15.641917   434 net.cpp:159] Memory required for data: 227785792
I0104 20:08:15.641921   434 layer_factory.hpp:77] Creating layer conv5_3
I0104 20:08:15.641932   434 net.cpp:94] Creating Layer conv5_3
I0104 20:08:15.641935   434 net.cpp:435] conv5_3 <- conv5_2
I0104 20:08:15.641940   434 net.cpp:409] conv5_3 -> conv5_3
I0104 20:08:15.659143   434 net.cpp:144] Setting up conv5_3
I0104 20:08:15.659159   434 net.cpp:151] Top shape: 1 512 19 19 (184832)
I0104 20:08:15.659181   434 net.cpp:159] Memory required for data: 228525120
I0104 20:08:15.659189   434 layer_factory.hpp:77] Creating layer relu5_3
I0104 20:08:15.659196   434 net.cpp:94] Creating Layer relu5_3
I0104 20:08:15.659201   434 net.cpp:435] relu5_3 <- conv5_3
I0104 20:08:15.659207   434 net.cpp:396] relu5_3 -> conv5_3 (in-place)
I0104 20:08:15.659215   434 net.cpp:144] Setting up relu5_3
I0104 20:08:15.659219   434 net.cpp:151] Top shape: 1 512 19 19 (184832)
I0104 20:08:15.659222   434 net.cpp:159] Memory required for data: 229264448
I0104 20:08:15.659241   434 layer_factory.hpp:77] Creating layer pool5
I0104 20:08:15.659247   434 net.cpp:94] Creating Layer pool5
I0104 20:08:15.659250   434 net.cpp:435] pool5 <- conv5_3
I0104 20:08:15.659255   434 net.cpp:409] pool5 -> pool5
I0104 20:08:15.659291   434 net.cpp:144] Setting up pool5
I0104 20:08:15.659299   434 net.cpp:151] Top shape: 1 512 19 19 (184832)
I0104 20:08:15.659304   434 net.cpp:159] Memory required for data: 230003776
I0104 20:08:15.659307   434 layer_factory.hpp:77] Creating layer fc6_682
I0104 20:08:15.659317   434 net.cpp:94] Creating Layer fc6_682
I0104 20:08:15.659319   434 net.cpp:435] fc6_682 <- pool5
I0104 20:08:15.659324   434 net.cpp:409] fc6_682 -> fc6_682
I0104 20:08:15.683459   434 net.cpp:144] Setting up fc6_682
I0104 20:08:15.683476   434 net.cpp:151] Top shape: 1 682 19 19 (246202)
I0104 20:08:15.683501   434 net.cpp:159] Memory required for data: 230988584
I0104 20:08:15.683514   434 layer_factory.hpp:77] Creating layer relu6
I0104 20:08:15.683523   434 net.cpp:94] Creating Layer relu6
I0104 20:08:15.683528   434 net.cpp:435] relu6 <- fc6_682
I0104 20:08:15.683534   434 net.cpp:396] relu6 -> fc6_682 (in-place)
I0104 20:08:15.683545   434 net.cpp:144] Setting up relu6
I0104 20:08:15.683548   434 net.cpp:151] Top shape: 1 682 19 19 (246202)
I0104 20:08:15.683552   434 net.cpp:159] Memory required for data: 231973392
I0104 20:08:15.683555   434 layer_factory.hpp:77] Creating layer fc7_682
I0104 20:08:15.683563   434 net.cpp:94] Creating Layer fc7_682
I0104 20:08:15.683566   434 net.cpp:435] fc7_682 <- fc6_682
I0104 20:08:15.683571   434 net.cpp:409] fc7_682 -> fc7_682
I0104 20:08:15.689123   434 net.cpp:144] Setting up fc7_682
I0104 20:08:15.689136   434 net.cpp:151] Top shape: 1 1024 19 19 (369664)
I0104 20:08:15.689157   434 net.cpp:159] Memory required for data: 233452048
I0104 20:08:15.689163   434 layer_factory.hpp:77] Creating layer relu7
I0104 20:08:15.689169   434 net.cpp:94] Creating Layer relu7
I0104 20:08:15.689173   434 net.cpp:435] relu7 <- fc7_682
I0104 20:08:15.689178   434 net.cpp:396] relu7 -> fc7_682 (in-place)
I0104 20:08:15.689184   434 net.cpp:144] Setting up relu7
I0104 20:08:15.689188   434 net.cpp:151] Top shape: 1 1024 19 19 (369664)
I0104 20:08:15.689191   434 net.cpp:159] Memory required for data: 234930704
I0104 20:08:15.689195   434 layer_factory.hpp:77] Creating layer fc7_682_relu7_0_split
I0104 20:08:15.689201   434 net.cpp:94] Creating Layer fc7_682_relu7_0_split
I0104 20:08:15.689204   434 net.cpp:435] fc7_682_relu7_0_split <- fc7_682
I0104 20:08:15.689208   434 net.cpp:409] fc7_682_relu7_0_split -> fc7_682_relu7_0_split_0
I0104 20:08:15.689214   434 net.cpp:409] fc7_682_relu7_0_split -> fc7_682_relu7_0_split_1
I0104 20:08:15.689219   434 net.cpp:409] fc7_682_relu7_0_split -> fc7_682_relu7_0_split_2
I0104 20:08:15.689224   434 net.cpp:409] fc7_682_relu7_0_split -> fc7_682_relu7_0_split_3
I0104 20:08:15.689273   434 net.cpp:144] Setting up fc7_682_relu7_0_split
I0104 20:08:15.689278   434 net.cpp:151] Top shape: 1 1024 19 19 (369664)
I0104 20:08:15.689283   434 net.cpp:151] Top shape: 1 1024 19 19 (369664)
I0104 20:08:15.689287   434 net.cpp:151] Top shape: 1 1024 19 19 (369664)
I0104 20:08:15.689291   434 net.cpp:151] Top shape: 1 1024 19 19 (369664)
I0104 20:08:15.689296   434 net.cpp:159] Memory required for data: 240845328
I0104 20:08:15.689298   434 layer_factory.hpp:77] Creating layer conv6_1
I0104 20:08:15.689306   434 net.cpp:94] Creating Layer conv6_1
I0104 20:08:15.689311   434 net.cpp:435] conv6_1 <- fc7_682_relu7_0_split_0
I0104 20:08:15.689316   434 net.cpp:409] conv6_1 -> conv6_1
I0104 20:08:15.691604   434 net.cpp:144] Setting up conv6_1
I0104 20:08:15.691613   434 net.cpp:151] Top shape: 1 256 19 19 (92416)
I0104 20:08:15.691619   434 net.cpp:159] Memory required for data: 241214992
I0104 20:08:15.691625   434 layer_factory.hpp:77] Creating layer conv6_1_relu
I0104 20:08:15.691630   434 net.cpp:94] Creating Layer conv6_1_relu
I0104 20:08:15.691634   434 net.cpp:435] conv6_1_relu <- conv6_1
I0104 20:08:15.691639   434 net.cpp:396] conv6_1_relu -> conv6_1 (in-place)
I0104 20:08:15.691646   434 net.cpp:144] Setting up conv6_1_relu
I0104 20:08:15.691650   434 net.cpp:151] Top shape: 1 256 19 19 (92416)
I0104 20:08:15.691654   434 net.cpp:159] Memory required for data: 241584656
I0104 20:08:15.691658   434 layer_factory.hpp:77] Creating layer conv6_2
I0104 20:08:15.691664   434 net.cpp:94] Creating Layer conv6_2
I0104 20:08:15.691668   434 net.cpp:435] conv6_2 <- conv6_1
I0104 20:08:15.691673   434 net.cpp:409] conv6_2 -> conv6_2
I0104 20:08:15.701548   434 net.cpp:144] Setting up conv6_2
I0104 20:08:15.701561   434 net.cpp:151] Top shape: 1 512 10 10 (51200)
I0104 20:08:15.701582   434 net.cpp:159] Memory required for data: 241789456
I0104 20:08:15.701589   434 layer_factory.hpp:77] Creating layer conv6_2_relu
I0104 20:08:15.701596   434 net.cpp:94] Creating Layer conv6_2_relu
I0104 20:08:15.701599   434 net.cpp:435] conv6_2_relu <- conv6_2
I0104 20:08:15.701604   434 net.cpp:396] conv6_2_relu -> conv6_2 (in-place)
I0104 20:08:15.701611   434 net.cpp:144] Setting up conv6_2_relu
I0104 20:08:15.701614   434 net.cpp:151] Top shape: 1 512 10 10 (51200)
I0104 20:08:15.701618   434 net.cpp:159] Memory required for data: 241994256
I0104 20:08:15.701622   434 layer_factory.hpp:77] Creating layer conv6_2_conv6_2_relu_0_split
I0104 20:08:15.701627   434 net.cpp:94] Creating Layer conv6_2_conv6_2_relu_0_split
I0104 20:08:15.701630   434 net.cpp:435] conv6_2_conv6_2_relu_0_split <- conv6_2
I0104 20:08:15.701635   434 net.cpp:409] conv6_2_conv6_2_relu_0_split -> conv6_2_conv6_2_relu_0_split_0
I0104 20:08:15.701642   434 net.cpp:409] conv6_2_conv6_2_relu_0_split -> conv6_2_conv6_2_relu_0_split_1
I0104 20:08:15.701647   434 net.cpp:409] conv6_2_conv6_2_relu_0_split -> conv6_2_conv6_2_relu_0_split_2
I0104 20:08:15.701651   434 net.cpp:409] conv6_2_conv6_2_relu_0_split -> conv6_2_conv6_2_relu_0_split_3
I0104 20:08:15.701702   434 net.cpp:144] Setting up conv6_2_conv6_2_relu_0_split
I0104 20:08:15.701709   434 net.cpp:151] Top shape: 1 512 10 10 (51200)
I0104 20:08:15.701712   434 net.cpp:151] Top shape: 1 512 10 10 (51200)
I0104 20:08:15.701716   434 net.cpp:151] Top shape: 1 512 10 10 (51200)
I0104 20:08:15.701720   434 net.cpp:151] Top shape: 1 512 10 10 (51200)
I0104 20:08:15.701725   434 net.cpp:159] Memory required for data: 242813456
I0104 20:08:15.701728   434 layer_factory.hpp:77] Creating layer conv7_1
I0104 20:08:15.701736   434 net.cpp:94] Creating Layer conv7_1
I0104 20:08:15.701740   434 net.cpp:435] conv7_1 <- conv6_2_conv6_2_relu_0_split_0
I0104 20:08:15.701745   434 net.cpp:409] conv7_1 -> conv7_1
I0104 20:08:15.702329   434 net.cpp:144] Setting up conv7_1
I0104 20:08:15.702337   434 net.cpp:151] Top shape: 1 128 10 10 (12800)
I0104 20:08:15.702343   434 net.cpp:159] Memory required for data: 242864656
I0104 20:08:15.702349   434 layer_factory.hpp:77] Creating layer conv7_1_relu
I0104 20:08:15.702354   434 net.cpp:94] Creating Layer conv7_1_relu
I0104 20:08:15.702358   434 net.cpp:435] conv7_1_relu <- conv7_1
I0104 20:08:15.702363   434 net.cpp:396] conv7_1_relu -> conv7_1 (in-place)
I0104 20:08:15.702368   434 net.cpp:144] Setting up conv7_1_relu
I0104 20:08:15.702371   434 net.cpp:151] Top shape: 1 128 10 10 (12800)
I0104 20:08:15.702375   434 net.cpp:159] Memory required for data: 242915856
I0104 20:08:15.702378   434 layer_factory.hpp:77] Creating layer conv7_2
I0104 20:08:15.702385   434 net.cpp:94] Creating Layer conv7_2
I0104 20:08:15.702389   434 net.cpp:435] conv7_2 <- conv7_1
I0104 20:08:15.702392   434 net.cpp:409] conv7_2 -> conv7_2
I0104 20:08:15.705483   434 net.cpp:144] Setting up conv7_2
I0104 20:08:15.705493   434 net.cpp:151] Top shape: 1 256 5 5 (6400)
I0104 20:08:15.705514   434 net.cpp:159] Memory required for data: 242941456
I0104 20:08:15.705520   434 layer_factory.hpp:77] Creating layer conv7_2_relu
I0104 20:08:15.705526   434 net.cpp:94] Creating Layer conv7_2_relu
I0104 20:08:15.705530   434 net.cpp:435] conv7_2_relu <- conv7_2
I0104 20:08:15.705534   434 net.cpp:396] conv7_2_relu -> conv7_2 (in-place)
I0104 20:08:15.705541   434 net.cpp:144] Setting up conv7_2_relu
I0104 20:08:15.705544   434 net.cpp:151] Top shape: 1 256 5 5 (6400)
I0104 20:08:15.705549   434 net.cpp:159] Memory required for data: 242967056
I0104 20:08:15.705551   434 layer_factory.hpp:77] Creating layer conv7_2_conv7_2_relu_0_split
I0104 20:08:15.705556   434 net.cpp:94] Creating Layer conv7_2_conv7_2_relu_0_split
I0104 20:08:15.705559   434 net.cpp:435] conv7_2_conv7_2_relu_0_split <- conv7_2
I0104 20:08:15.705564   434 net.cpp:409] conv7_2_conv7_2_relu_0_split -> conv7_2_conv7_2_relu_0_split_0
I0104 20:08:15.705569   434 net.cpp:409] conv7_2_conv7_2_relu_0_split -> conv7_2_conv7_2_relu_0_split_1
I0104 20:08:15.705574   434 net.cpp:409] conv7_2_conv7_2_relu_0_split -> conv7_2_conv7_2_relu_0_split_2
I0104 20:08:15.705579   434 net.cpp:409] conv7_2_conv7_2_relu_0_split -> conv7_2_conv7_2_relu_0_split_3
I0104 20:08:15.705626   434 net.cpp:144] Setting up conv7_2_conv7_2_relu_0_split
I0104 20:08:15.705631   434 net.cpp:151] Top shape: 1 256 5 5 (6400)
I0104 20:08:15.705636   434 net.cpp:151] Top shape: 1 256 5 5 (6400)
I0104 20:08:15.705639   434 net.cpp:151] Top shape: 1 256 5 5 (6400)
I0104 20:08:15.705642   434 net.cpp:151] Top shape: 1 256 5 5 (6400)
I0104 20:08:15.705646   434 net.cpp:159] Memory required for data: 243069456
I0104 20:08:15.705649   434 layer_factory.hpp:77] Creating layer conv8_1
I0104 20:08:15.705657   434 net.cpp:94] Creating Layer conv8_1
I0104 20:08:15.705662   434 net.cpp:435] conv8_1 <- conv7_2_conv7_2_relu_0_split_0
I0104 20:08:15.705667   434 net.cpp:409] conv8_1 -> conv8_1
I0104 20:08:15.706068   434 net.cpp:144] Setting up conv8_1
I0104 20:08:15.706076   434 net.cpp:151] Top shape: 1 128 5 5 (3200)
I0104 20:08:15.706082   434 net.cpp:159] Memory required for data: 243082256
I0104 20:08:15.706089   434 layer_factory.hpp:77] Creating layer conv8_1_relu
I0104 20:08:15.706092   434 net.cpp:94] Creating Layer conv8_1_relu
I0104 20:08:15.706096   434 net.cpp:435] conv8_1_relu <- conv8_1
I0104 20:08:15.706100   434 net.cpp:396] conv8_1_relu -> conv8_1 (in-place)
I0104 20:08:15.706106   434 net.cpp:144] Setting up conv8_1_relu
I0104 20:08:15.706110   434 net.cpp:151] Top shape: 1 128 5 5 (3200)
I0104 20:08:15.706113   434 net.cpp:159] Memory required for data: 243095056
I0104 20:08:15.706117   434 layer_factory.hpp:77] Creating layer conv8_2
I0104 20:08:15.706125   434 net.cpp:94] Creating Layer conv8_2
I0104 20:08:15.706127   434 net.cpp:435] conv8_2 <- conv8_1
I0104 20:08:15.706131   434 net.cpp:409] conv8_2 -> conv8_2
I0104 20:08:15.709174   434 net.cpp:144] Setting up conv8_2
I0104 20:08:15.709184   434 net.cpp:151] Top shape: 1 256 3 3 (2304)
I0104 20:08:15.709190   434 net.cpp:159] Memory required for data: 243104272
I0104 20:08:15.709197   434 layer_factory.hpp:77] Creating layer conv8_2_relu
I0104 20:08:15.709203   434 net.cpp:94] Creating Layer conv8_2_relu
I0104 20:08:15.709206   434 net.cpp:435] conv8_2_relu <- conv8_2
I0104 20:08:15.709210   434 net.cpp:396] conv8_2_relu -> conv8_2 (in-place)
I0104 20:08:15.709216   434 net.cpp:144] Setting up conv8_2_relu
I0104 20:08:15.709221   434 net.cpp:151] Top shape: 1 256 3 3 (2304)
I0104 20:08:15.709225   434 net.cpp:159] Memory required for data: 243113488
I0104 20:08:15.709228   434 layer_factory.hpp:77] Creating layer conv8_2_conv8_2_relu_0_split
I0104 20:08:15.709233   434 net.cpp:94] Creating Layer conv8_2_conv8_2_relu_0_split
I0104 20:08:15.709236   434 net.cpp:435] conv8_2_conv8_2_relu_0_split <- conv8_2
I0104 20:08:15.709241   434 net.cpp:409] conv8_2_conv8_2_relu_0_split -> conv8_2_conv8_2_relu_0_split_0
I0104 20:08:15.709246   434 net.cpp:409] conv8_2_conv8_2_relu_0_split -> conv8_2_conv8_2_relu_0_split_1
I0104 20:08:15.709252   434 net.cpp:409] conv8_2_conv8_2_relu_0_split -> conv8_2_conv8_2_relu_0_split_2
I0104 20:08:15.709257   434 net.cpp:409] conv8_2_conv8_2_relu_0_split -> conv8_2_conv8_2_relu_0_split_3
I0104 20:08:15.709306   434 net.cpp:144] Setting up conv8_2_conv8_2_relu_0_split
I0104 20:08:15.709312   434 net.cpp:151] Top shape: 1 256 3 3 (2304)
I0104 20:08:15.709316   434 net.cpp:151] Top shape: 1 256 3 3 (2304)
I0104 20:08:15.709321   434 net.cpp:151] Top shape: 1 256 3 3 (2304)
I0104 20:08:15.709324   434 net.cpp:151] Top shape: 1 256 3 3 (2304)
I0104 20:08:15.709328   434 net.cpp:159] Memory required for data: 243150352
I0104 20:08:15.709331   434 layer_factory.hpp:77] Creating layer conv9_1
I0104 20:08:15.709339   434 net.cpp:94] Creating Layer conv9_1
I0104 20:08:15.709343   434 net.cpp:435] conv9_1 <- conv8_2_conv8_2_relu_0_split_0
I0104 20:08:15.709348   434 net.cpp:409] conv9_1 -> conv9_1
I0104 20:08:15.709753   434 net.cpp:144] Setting up conv9_1
I0104 20:08:15.709761   434 net.cpp:151] Top shape: 1 128 3 3 (1152)
I0104 20:08:15.709766   434 net.cpp:159] Memory required for data: 243154960
I0104 20:08:15.709772   434 layer_factory.hpp:77] Creating layer conv9_1_relu
I0104 20:08:15.709777   434 net.cpp:94] Creating Layer conv9_1_relu
I0104 20:08:15.709781   434 net.cpp:435] conv9_1_relu <- conv9_1
I0104 20:08:15.709785   434 net.cpp:396] conv9_1_relu -> conv9_1 (in-place)
I0104 20:08:15.709791   434 net.cpp:144] Setting up conv9_1_relu
I0104 20:08:15.709794   434 net.cpp:151] Top shape: 1 128 3 3 (1152)
I0104 20:08:15.709798   434 net.cpp:159] Memory required for data: 243159568
I0104 20:08:15.709801   434 layer_factory.hpp:77] Creating layer conv9_2
I0104 20:08:15.709808   434 net.cpp:94] Creating Layer conv9_2
I0104 20:08:15.709811   434 net.cpp:435] conv9_2 <- conv9_1
I0104 20:08:15.709816   434 net.cpp:409] conv9_2 -> conv9_2
I0104 20:08:15.712877   434 net.cpp:144] Setting up conv9_2
I0104 20:08:15.712888   434 net.cpp:151] Top shape: 1 256 1 1 (256)
I0104 20:08:15.712893   434 net.cpp:159] Memory required for data: 243160592
I0104 20:08:15.712899   434 layer_factory.hpp:77] Creating layer conv9_2_relu
I0104 20:08:15.712904   434 net.cpp:94] Creating Layer conv9_2_relu
I0104 20:08:15.712908   434 net.cpp:435] conv9_2_relu <- conv9_2
I0104 20:08:15.712913   434 net.cpp:396] conv9_2_relu -> conv9_2 (in-place)
I0104 20:08:15.712919   434 net.cpp:144] Setting up conv9_2_relu
I0104 20:08:15.712922   434 net.cpp:151] Top shape: 1 256 1 1 (256)
I0104 20:08:15.712926   434 net.cpp:159] Memory required for data: 243161616
I0104 20:08:15.712929   434 layer_factory.hpp:77] Creating layer conv9_2_conv9_2_relu_0_split
I0104 20:08:15.712934   434 net.cpp:94] Creating Layer conv9_2_conv9_2_relu_0_split
I0104 20:08:15.712937   434 net.cpp:435] conv9_2_conv9_2_relu_0_split <- conv9_2
I0104 20:08:15.712942   434 net.cpp:409] conv9_2_conv9_2_relu_0_split -> conv9_2_conv9_2_relu_0_split_0
I0104 20:08:15.712947   434 net.cpp:409] conv9_2_conv9_2_relu_0_split -> conv9_2_conv9_2_relu_0_split_1
I0104 20:08:15.712954   434 net.cpp:409] conv9_2_conv9_2_relu_0_split -> conv9_2_conv9_2_relu_0_split_2
I0104 20:08:15.712991   434 net.cpp:144] Setting up conv9_2_conv9_2_relu_0_split
I0104 20:08:15.713001   434 net.cpp:151] Top shape: 1 256 1 1 (256)
I0104 20:08:15.713004   434 net.cpp:151] Top shape: 1 256 1 1 (256)
I0104 20:08:15.713007   434 net.cpp:151] Top shape: 1 256 1 1 (256)
I0104 20:08:15.713011   434 net.cpp:159] Memory required for data: 243164688
I0104 20:08:15.713014   434 layer_factory.hpp:77] Creating layer conv4_3_norm_mbox_loc
I0104 20:08:15.713023   434 net.cpp:94] Creating Layer conv4_3_norm_mbox_loc
I0104 20:08:15.713027   434 net.cpp:435] conv4_3_norm_mbox_loc <- conv4_3_relu4_3_0_split_1
I0104 20:08:15.713032   434 net.cpp:409] conv4_3_norm_mbox_loc -> conv4_3_norm_mbox_loc
I0104 20:08:15.713682   434 net.cpp:144] Setting up conv4_3_norm_mbox_loc
I0104 20:08:15.713690   434 net.cpp:151] Top shape: 1 16 38 38 (23104)
I0104 20:08:15.713696   434 net.cpp:159] Memory required for data: 243257104
I0104 20:08:15.713701   434 layer_factory.hpp:77] Creating layer conv4_3_norm_mbox_loc_perm
I0104 20:08:15.713708   434 net.cpp:94] Creating Layer conv4_3_norm_mbox_loc_perm
I0104 20:08:15.713711   434 net.cpp:435] conv4_3_norm_mbox_loc_perm <- conv4_3_norm_mbox_loc
I0104 20:08:15.713716   434 net.cpp:409] conv4_3_norm_mbox_loc_perm -> conv4_3_norm_mbox_loc_perm
I0104 20:08:15.713804   434 net.cpp:144] Setting up conv4_3_norm_mbox_loc_perm
I0104 20:08:15.713810   434 net.cpp:151] Top shape: 1 38 38 16 (23104)
I0104 20:08:15.713815   434 net.cpp:159] Memory required for data: 243349520
I0104 20:08:15.713819   434 layer_factory.hpp:77] Creating layer conv4_3_norm_mbox_loc_flat
I0104 20:08:15.713831   434 net.cpp:94] Creating Layer conv4_3_norm_mbox_loc_flat
I0104 20:08:15.713835   434 net.cpp:435] conv4_3_norm_mbox_loc_flat <- conv4_3_norm_mbox_loc_perm
I0104 20:08:15.713840   434 net.cpp:409] conv4_3_norm_mbox_loc_flat -> conv4_3_norm_mbox_loc_flat
I0104 20:08:15.713858   434 net.cpp:144] Setting up conv4_3_norm_mbox_loc_flat
I0104 20:08:15.713862   434 net.cpp:151] Top shape: 1 23104 (23104)
I0104 20:08:15.713867   434 net.cpp:159] Memory required for data: 243441936
I0104 20:08:15.713871   434 layer_factory.hpp:77] Creating layer conv4_3_norm_mbox_conf
I0104 20:08:15.713878   434 net.cpp:94] Creating Layer conv4_3_norm_mbox_conf
I0104 20:08:15.713881   434 net.cpp:435] conv4_3_norm_mbox_conf <- conv4_3_relu4_3_0_split_2
I0104 20:08:15.713887   434 net.cpp:409] conv4_3_norm_mbox_conf -> conv4_3_norm_mbox_conf
I0104 20:08:15.717450   434 net.cpp:144] Setting up conv4_3_norm_mbox_conf
I0104 20:08:15.717461   434 net.cpp:151] Top shape: 1 84 38 38 (121296)
I0104 20:08:15.717468   434 net.cpp:159] Memory required for data: 243927120
I0104 20:08:15.717473   434 layer_factory.hpp:77] Creating layer conv4_3_norm_mbox_conf_perm
I0104 20:08:15.717483   434 net.cpp:94] Creating Layer conv4_3_norm_mbox_conf_perm
I0104 20:08:15.717487   434 net.cpp:435] conv4_3_norm_mbox_conf_perm <- conv4_3_norm_mbox_conf
I0104 20:08:15.717492   434 net.cpp:409] conv4_3_norm_mbox_conf_perm -> conv4_3_norm_mbox_conf_perm
I0104 20:08:15.717576   434 net.cpp:144] Setting up conv4_3_norm_mbox_conf_perm
I0104 20:08:15.717582   434 net.cpp:151] Top shape: 1 38 38 84 (121296)
I0104 20:08:15.717587   434 net.cpp:159] Memory required for data: 244412304
I0104 20:08:15.717590   434 layer_factory.hpp:77] Creating layer conv4_3_norm_mbox_conf_flat
I0104 20:08:15.717595   434 net.cpp:94] Creating Layer conv4_3_norm_mbox_conf_flat
I0104 20:08:15.717598   434 net.cpp:435] conv4_3_norm_mbox_conf_flat <- conv4_3_norm_mbox_conf_perm
I0104 20:08:15.717603   434 net.cpp:409] conv4_3_norm_mbox_conf_flat -> conv4_3_norm_mbox_conf_flat
I0104 20:08:15.717622   434 net.cpp:144] Setting up conv4_3_norm_mbox_conf_flat
I0104 20:08:15.717625   434 net.cpp:151] Top shape: 1 121296 (121296)
I0104 20:08:15.717629   434 net.cpp:159] Memory required for data: 244897488
I0104 20:08:15.717633   434 layer_factory.hpp:77] Creating layer conv4_3_norm_mbox_priorbox
I0104 20:08:15.717644   434 net.cpp:94] Creating Layer conv4_3_norm_mbox_priorbox
I0104 20:08:15.717648   434 net.cpp:435] conv4_3_norm_mbox_priorbox <- conv4_3_relu4_3_0_split_3
I0104 20:08:15.717653   434 net.cpp:435] conv4_3_norm_mbox_priorbox <- data_data_0_split_1
I0104 20:08:15.717658   434 net.cpp:409] conv4_3_norm_mbox_priorbox -> conv4_3_norm_mbox_priorbox
I0104 20:08:15.717677   434 net.cpp:144] Setting up conv4_3_norm_mbox_priorbox
I0104 20:08:15.717686   434 net.cpp:151] Top shape: 1 2 23104 (46208)
I0104 20:08:15.717691   434 net.cpp:159] Memory required for data: 245082320
I0104 20:08:15.717694   434 layer_factory.hpp:77] Creating layer fc7_mbox_loc
I0104 20:08:15.717702   434 net.cpp:94] Creating Layer fc7_mbox_loc
I0104 20:08:15.717707   434 net.cpp:435] fc7_mbox_loc <- fc7_682_relu7_0_split_1
I0104 20:08:15.717713   434 net.cpp:409] fc7_mbox_loc -> fc7_mbox_loc
I0104 20:08:15.719152   434 net.cpp:144] Setting up fc7_mbox_loc
I0104 20:08:15.719161   434 net.cpp:151] Top shape: 1 24 19 19 (8664)
I0104 20:08:15.719166   434 net.cpp:159] Memory required for data: 245116976
I0104 20:08:15.719172   434 layer_factory.hpp:77] Creating layer fc7_mbox_loc_perm
I0104 20:08:15.719178   434 net.cpp:94] Creating Layer fc7_mbox_loc_perm
I0104 20:08:15.719182   434 net.cpp:435] fc7_mbox_loc_perm <- fc7_mbox_loc
I0104 20:08:15.719187   434 net.cpp:409] fc7_mbox_loc_perm -> fc7_mbox_loc_perm
I0104 20:08:15.719267   434 net.cpp:144] Setting up fc7_mbox_loc_perm
I0104 20:08:15.719274   434 net.cpp:151] Top shape: 1 19 19 24 (8664)
I0104 20:08:15.719278   434 net.cpp:159] Memory required for data: 245151632
I0104 20:08:15.719281   434 layer_factory.hpp:77] Creating layer fc7_mbox_loc_flat
I0104 20:08:15.719286   434 net.cpp:94] Creating Layer fc7_mbox_loc_flat
I0104 20:08:15.719290   434 net.cpp:435] fc7_mbox_loc_flat <- fc7_mbox_loc_perm
I0104 20:08:15.719295   434 net.cpp:409] fc7_mbox_loc_flat -> fc7_mbox_loc_flat
I0104 20:08:15.719311   434 net.cpp:144] Setting up fc7_mbox_loc_flat
I0104 20:08:15.719316   434 net.cpp:151] Top shape: 1 8664 (8664)
I0104 20:08:15.719319   434 net.cpp:159] Memory required for data: 245186288
I0104 20:08:15.719322   434 layer_factory.hpp:77] Creating layer fc7_mbox_conf
I0104 20:08:15.719329   434 net.cpp:94] Creating Layer fc7_mbox_conf
I0104 20:08:15.719333   434 net.cpp:435] fc7_mbox_conf <- fc7_682_relu7_0_split_2
I0104 20:08:15.719338   434 net.cpp:409] fc7_mbox_conf -> fc7_mbox_conf
I0104 20:08:15.729862   434 net.cpp:144] Setting up fc7_mbox_conf
I0104 20:08:15.729874   434 net.cpp:151] Top shape: 1 126 19 19 (45486)
I0104 20:08:15.729882   434 net.cpp:159] Memory required for data: 245368232
I0104 20:08:15.729892   434 layer_factory.hpp:77] Creating layer fc7_mbox_conf_perm
I0104 20:08:15.729902   434 net.cpp:94] Creating Layer fc7_mbox_conf_perm
I0104 20:08:15.729908   434 net.cpp:435] fc7_mbox_conf_perm <- fc7_mbox_conf
I0104 20:08:15.729918   434 net.cpp:409] fc7_mbox_conf_perm -> fc7_mbox_conf_perm
I0104 20:08:15.730029   434 net.cpp:144] Setting up fc7_mbox_conf_perm
I0104 20:08:15.730042   434 net.cpp:151] Top shape: 1 19 19 126 (45486)
I0104 20:08:15.730051   434 net.cpp:159] Memory required for data: 245550176
I0104 20:08:15.730057   434 layer_factory.hpp:77] Creating layer fc7_mbox_conf_flat
I0104 20:08:15.730065   434 net.cpp:94] Creating Layer fc7_mbox_conf_flat
I0104 20:08:15.730072   434 net.cpp:435] fc7_mbox_conf_flat <- fc7_mbox_conf_perm
I0104 20:08:15.730079   434 net.cpp:409] fc7_mbox_conf_flat -> fc7_mbox_conf_flat
I0104 20:08:15.730110   434 net.cpp:144] Setting up fc7_mbox_conf_flat
I0104 20:08:15.730120   434 net.cpp:151] Top shape: 1 45486 (45486)
I0104 20:08:15.730125   434 net.cpp:159] Memory required for data: 245732120
I0104 20:08:15.730129   434 layer_factory.hpp:77] Creating layer fc7_mbox_priorbox
I0104 20:08:15.730136   434 net.cpp:94] Creating Layer fc7_mbox_priorbox
I0104 20:08:15.730140   434 net.cpp:435] fc7_mbox_priorbox <- fc7_682_relu7_0_split_3
I0104 20:08:15.730145   434 net.cpp:435] fc7_mbox_priorbox <- data_data_0_split_2
I0104 20:08:15.730150   434 net.cpp:409] fc7_mbox_priorbox -> fc7_mbox_priorbox
I0104 20:08:15.730175   434 net.cpp:144] Setting up fc7_mbox_priorbox
I0104 20:08:15.730178   434 net.cpp:151] Top shape: 1 2 8664 (17328)
I0104 20:08:15.730182   434 net.cpp:159] Memory required for data: 245801432
I0104 20:08:15.730186   434 layer_factory.hpp:77] Creating layer conv6_2_mbox_loc
I0104 20:08:15.730195   434 net.cpp:94] Creating Layer conv6_2_mbox_loc
I0104 20:08:15.730198   434 net.cpp:435] conv6_2_mbox_loc <- conv6_2_conv6_2_relu_0_split_1
I0104 20:08:15.730206   434 net.cpp:409] conv6_2_mbox_loc -> conv6_2_mbox_loc
I0104 20:08:15.731067   434 net.cpp:144] Setting up conv6_2_mbox_loc
I0104 20:08:15.731076   434 net.cpp:151] Top shape: 1 24 10 10 (2400)
I0104 20:08:15.731081   434 net.cpp:159] Memory required for data: 245811032
I0104 20:08:15.731087   434 layer_factory.hpp:77] Creating layer conv6_2_mbox_loc_perm
I0104 20:08:15.731094   434 net.cpp:94] Creating Layer conv6_2_mbox_loc_perm
I0104 20:08:15.731097   434 net.cpp:435] conv6_2_mbox_loc_perm <- conv6_2_mbox_loc
I0104 20:08:15.731102   434 net.cpp:409] conv6_2_mbox_loc_perm -> conv6_2_mbox_loc_perm
I0104 20:08:15.731184   434 net.cpp:144] Setting up conv6_2_mbox_loc_perm
I0104 20:08:15.731189   434 net.cpp:151] Top shape: 1 10 10 24 (2400)
I0104 20:08:15.731194   434 net.cpp:159] Memory required for data: 245820632
I0104 20:08:15.731197   434 layer_factory.hpp:77] Creating layer conv6_2_mbox_loc_flat
I0104 20:08:15.731202   434 net.cpp:94] Creating Layer conv6_2_mbox_loc_flat
I0104 20:08:15.731205   434 net.cpp:435] conv6_2_mbox_loc_flat <- conv6_2_mbox_loc_perm
I0104 20:08:15.731210   434 net.cpp:409] conv6_2_mbox_loc_flat -> conv6_2_mbox_loc_flat
I0104 20:08:15.731227   434 net.cpp:144] Setting up conv6_2_mbox_loc_flat
I0104 20:08:15.731231   434 net.cpp:151] Top shape: 1 2400 (2400)
I0104 20:08:15.731235   434 net.cpp:159] Memory required for data: 245830232
I0104 20:08:15.731238   434 layer_factory.hpp:77] Creating layer conv6_2_mbox_conf
I0104 20:08:15.731245   434 net.cpp:94] Creating Layer conv6_2_mbox_conf
I0104 20:08:15.731249   434 net.cpp:435] conv6_2_mbox_conf <- conv6_2_conv6_2_relu_0_split_2
I0104 20:08:15.731254   434 net.cpp:409] conv6_2_mbox_conf -> conv6_2_mbox_conf
I0104 20:08:15.735989   434 net.cpp:144] Setting up conv6_2_mbox_conf
I0104 20:08:15.735999   434 net.cpp:151] Top shape: 1 126 10 10 (12600)
I0104 20:08:15.736006   434 net.cpp:159] Memory required for data: 245880632
I0104 20:08:15.736012   434 layer_factory.hpp:77] Creating layer conv6_2_mbox_conf_perm
I0104 20:08:15.736019   434 net.cpp:94] Creating Layer conv6_2_mbox_conf_perm
I0104 20:08:15.736023   434 net.cpp:435] conv6_2_mbox_conf_perm <- conv6_2_mbox_conf
I0104 20:08:15.736028   434 net.cpp:409] conv6_2_mbox_conf_perm -> conv6_2_mbox_conf_perm
I0104 20:08:15.736105   434 net.cpp:144] Setting up conv6_2_mbox_conf_perm
I0104 20:08:15.736111   434 net.cpp:151] Top shape: 1 10 10 126 (12600)
I0104 20:08:15.736115   434 net.cpp:159] Memory required for data: 245931032
I0104 20:08:15.736119   434 layer_factory.hpp:77] Creating layer conv6_2_mbox_conf_flat
I0104 20:08:15.736124   434 net.cpp:94] Creating Layer conv6_2_mbox_conf_flat
I0104 20:08:15.736127   434 net.cpp:435] conv6_2_mbox_conf_flat <- conv6_2_mbox_conf_perm
I0104 20:08:15.736132   434 net.cpp:409] conv6_2_mbox_conf_flat -> conv6_2_mbox_conf_flat
I0104 20:08:15.736150   434 net.cpp:144] Setting up conv6_2_mbox_conf_flat
I0104 20:08:15.736153   434 net.cpp:151] Top shape: 1 12600 (12600)
I0104 20:08:15.736157   434 net.cpp:159] Memory required for data: 245981432
I0104 20:08:15.736160   434 layer_factory.hpp:77] Creating layer conv6_2_mbox_priorbox
I0104 20:08:15.736166   434 net.cpp:94] Creating Layer conv6_2_mbox_priorbox
I0104 20:08:15.736171   434 net.cpp:435] conv6_2_mbox_priorbox <- conv6_2_conv6_2_relu_0_split_3
I0104 20:08:15.736174   434 net.cpp:435] conv6_2_mbox_priorbox <- data_data_0_split_3
I0104 20:08:15.736179   434 net.cpp:409] conv6_2_mbox_priorbox -> conv6_2_mbox_priorbox
I0104 20:08:15.736197   434 net.cpp:144] Setting up conv6_2_mbox_priorbox
I0104 20:08:15.736202   434 net.cpp:151] Top shape: 1 2 2400 (4800)
I0104 20:08:15.736204   434 net.cpp:159] Memory required for data: 246000632
I0104 20:08:15.736207   434 layer_factory.hpp:77] Creating layer conv7_2_mbox_loc
I0104 20:08:15.736215   434 net.cpp:94] Creating Layer conv7_2_mbox_loc
I0104 20:08:15.736219   434 net.cpp:435] conv7_2_mbox_loc <- conv7_2_conv7_2_relu_0_split_1
I0104 20:08:15.736224   434 net.cpp:409] conv7_2_mbox_loc -> conv7_2_mbox_loc
I0104 20:08:15.736783   434 net.cpp:144] Setting up conv7_2_mbox_loc
I0104 20:08:15.736791   434 net.cpp:151] Top shape: 1 24 5 5 (600)
I0104 20:08:15.736795   434 net.cpp:159] Memory required for data: 246003032
I0104 20:08:15.736805   434 layer_factory.hpp:77] Creating layer conv7_2_mbox_loc_perm
I0104 20:08:15.736811   434 net.cpp:94] Creating Layer conv7_2_mbox_loc_perm
I0104 20:08:15.736815   434 net.cpp:435] conv7_2_mbox_loc_perm <- conv7_2_mbox_loc
I0104 20:08:15.736820   434 net.cpp:409] conv7_2_mbox_loc_perm -> conv7_2_mbox_loc_perm
I0104 20:08:15.736896   434 net.cpp:144] Setting up conv7_2_mbox_loc_perm
I0104 20:08:15.736901   434 net.cpp:151] Top shape: 1 5 5 24 (600)
I0104 20:08:15.736905   434 net.cpp:159] Memory required for data: 246005432
I0104 20:08:15.736908   434 layer_factory.hpp:77] Creating layer conv7_2_mbox_loc_flat
I0104 20:08:15.736913   434 net.cpp:94] Creating Layer conv7_2_mbox_loc_flat
I0104 20:08:15.736917   434 net.cpp:435] conv7_2_mbox_loc_flat <- conv7_2_mbox_loc_perm
I0104 20:08:15.736922   434 net.cpp:409] conv7_2_mbox_loc_flat -> conv7_2_mbox_loc_flat
I0104 20:08:15.736939   434 net.cpp:144] Setting up conv7_2_mbox_loc_flat
I0104 20:08:15.736943   434 net.cpp:151] Top shape: 1 600 (600)
I0104 20:08:15.736946   434 net.cpp:159] Memory required for data: 246007832
I0104 20:08:15.736950   434 layer_factory.hpp:77] Creating layer conv7_2_mbox_conf
I0104 20:08:15.736958   434 net.cpp:94] Creating Layer conv7_2_mbox_conf
I0104 20:08:15.736961   434 net.cpp:435] conv7_2_mbox_conf <- conv7_2_conv7_2_relu_0_split_2
I0104 20:08:15.736966   434 net.cpp:409] conv7_2_mbox_conf -> conv7_2_mbox_conf
I0104 20:08:15.740022   434 net.cpp:144] Setting up conv7_2_mbox_conf
I0104 20:08:15.740032   434 net.cpp:151] Top shape: 1 126 5 5 (3150)
I0104 20:08:15.740038   434 net.cpp:159] Memory required for data: 246020432
I0104 20:08:15.740046   434 layer_factory.hpp:77] Creating layer conv7_2_mbox_conf_perm
I0104 20:08:15.740052   434 net.cpp:94] Creating Layer conv7_2_mbox_conf_perm
I0104 20:08:15.740056   434 net.cpp:435] conv7_2_mbox_conf_perm <- conv7_2_mbox_conf
I0104 20:08:15.740062   434 net.cpp:409] conv7_2_mbox_conf_perm -> conv7_2_mbox_conf_perm
I0104 20:08:15.740142   434 net.cpp:144] Setting up conv7_2_mbox_conf_perm
I0104 20:08:15.740149   434 net.cpp:151] Top shape: 1 5 5 126 (3150)
I0104 20:08:15.740152   434 net.cpp:159] Memory required for data: 246033032
I0104 20:08:15.740155   434 layer_factory.hpp:77] Creating layer conv7_2_mbox_conf_flat
I0104 20:08:15.740160   434 net.cpp:94] Creating Layer conv7_2_mbox_conf_flat
I0104 20:08:15.740164   434 net.cpp:435] conv7_2_mbox_conf_flat <- conv7_2_mbox_conf_perm
I0104 20:08:15.740168   434 net.cpp:409] conv7_2_mbox_conf_flat -> conv7_2_mbox_conf_flat
I0104 20:08:15.740187   434 net.cpp:144] Setting up conv7_2_mbox_conf_flat
I0104 20:08:15.740191   434 net.cpp:151] Top shape: 1 3150 (3150)
I0104 20:08:15.740195   434 net.cpp:159] Memory required for data: 246045632
I0104 20:08:15.740198   434 layer_factory.hpp:77] Creating layer conv7_2_mbox_priorbox
I0104 20:08:15.740204   434 net.cpp:94] Creating Layer conv7_2_mbox_priorbox
I0104 20:08:15.740208   434 net.cpp:435] conv7_2_mbox_priorbox <- conv7_2_conv7_2_relu_0_split_3
I0104 20:08:15.740212   434 net.cpp:435] conv7_2_mbox_priorbox <- data_data_0_split_4
I0104 20:08:15.740217   434 net.cpp:409] conv7_2_mbox_priorbox -> conv7_2_mbox_priorbox
I0104 20:08:15.740236   434 net.cpp:144] Setting up conv7_2_mbox_priorbox
I0104 20:08:15.740239   434 net.cpp:151] Top shape: 1 2 600 (1200)
I0104 20:08:15.740243   434 net.cpp:159] Memory required for data: 246050432
I0104 20:08:15.740247   434 layer_factory.hpp:77] Creating layer conv8_2_mbox_loc
I0104 20:08:15.740254   434 net.cpp:94] Creating Layer conv8_2_mbox_loc
I0104 20:08:15.740258   434 net.cpp:435] conv8_2_mbox_loc <- conv8_2_conv8_2_relu_0_split_1
I0104 20:08:15.740263   434 net.cpp:409] conv8_2_mbox_loc -> conv8_2_mbox_loc
I0104 20:08:15.740725   434 net.cpp:144] Setting up conv8_2_mbox_loc
I0104 20:08:15.740734   434 net.cpp:151] Top shape: 1 16 3 3 (144)
I0104 20:08:15.740739   434 net.cpp:159] Memory required for data: 246051008
I0104 20:08:15.740746   434 layer_factory.hpp:77] Creating layer conv8_2_mbox_loc_perm
I0104 20:08:15.740752   434 net.cpp:94] Creating Layer conv8_2_mbox_loc_perm
I0104 20:08:15.740756   434 net.cpp:435] conv8_2_mbox_loc_perm <- conv8_2_mbox_loc
I0104 20:08:15.740761   434 net.cpp:409] conv8_2_mbox_loc_perm -> conv8_2_mbox_loc_perm
I0104 20:08:15.740844   434 net.cpp:144] Setting up conv8_2_mbox_loc_perm
I0104 20:08:15.740849   434 net.cpp:151] Top shape: 1 3 3 16 (144)
I0104 20:08:15.740854   434 net.cpp:159] Memory required for data: 246051584
I0104 20:08:15.740857   434 layer_factory.hpp:77] Creating layer conv8_2_mbox_loc_flat
I0104 20:08:15.740861   434 net.cpp:94] Creating Layer conv8_2_mbox_loc_flat
I0104 20:08:15.740865   434 net.cpp:435] conv8_2_mbox_loc_flat <- conv8_2_mbox_loc_perm
I0104 20:08:15.740869   434 net.cpp:409] conv8_2_mbox_loc_flat -> conv8_2_mbox_loc_flat
I0104 20:08:15.740887   434 net.cpp:144] Setting up conv8_2_mbox_loc_flat
I0104 20:08:15.740890   434 net.cpp:151] Top shape: 1 144 (144)
I0104 20:08:15.740895   434 net.cpp:159] Memory required for data: 246052160
I0104 20:08:15.740897   434 layer_factory.hpp:77] Creating layer conv8_2_mbox_conf
I0104 20:08:15.740906   434 net.cpp:94] Creating Layer conv8_2_mbox_conf
I0104 20:08:15.740908   434 net.cpp:435] conv8_2_mbox_conf <- conv8_2_conv8_2_relu_0_split_2
I0104 20:08:15.740913   434 net.cpp:409] conv8_2_mbox_conf -> conv8_2_mbox_conf
I0104 20:08:15.742239   434 net.cpp:144] Setting up conv8_2_mbox_conf
I0104 20:08:15.742249   434 net.cpp:151] Top shape: 1 84 3 3 (756)
I0104 20:08:15.742252   434 net.cpp:159] Memory required for data: 246055184
I0104 20:08:15.742259   434 layer_factory.hpp:77] Creating layer conv8_2_mbox_conf_perm
I0104 20:08:15.742264   434 net.cpp:94] Creating Layer conv8_2_mbox_conf_perm
I0104 20:08:15.742269   434 net.cpp:435] conv8_2_mbox_conf_perm <- conv8_2_mbox_conf
I0104 20:08:15.742274   434 net.cpp:409] conv8_2_mbox_conf_perm -> conv8_2_mbox_conf_perm
I0104 20:08:15.742352   434 net.cpp:144] Setting up conv8_2_mbox_conf_perm
I0104 20:08:15.742357   434 net.cpp:151] Top shape: 1 3 3 84 (756)
I0104 20:08:15.742362   434 net.cpp:159] Memory required for data: 246058208
I0104 20:08:15.742365   434 layer_factory.hpp:77] Creating layer conv8_2_mbox_conf_flat
I0104 20:08:15.742370   434 net.cpp:94] Creating Layer conv8_2_mbox_conf_flat
I0104 20:08:15.742373   434 net.cpp:435] conv8_2_mbox_conf_flat <- conv8_2_mbox_conf_perm
I0104 20:08:15.742379   434 net.cpp:409] conv8_2_mbox_conf_flat -> conv8_2_mbox_conf_flat
I0104 20:08:15.742398   434 net.cpp:144] Setting up conv8_2_mbox_conf_flat
I0104 20:08:15.742401   434 net.cpp:151] Top shape: 1 756 (756)
I0104 20:08:15.742405   434 net.cpp:159] Memory required for data: 246061232
I0104 20:08:15.742408   434 layer_factory.hpp:77] Creating layer conv8_2_mbox_priorbox
I0104 20:08:15.742414   434 net.cpp:94] Creating Layer conv8_2_mbox_priorbox
I0104 20:08:15.742417   434 net.cpp:435] conv8_2_mbox_priorbox <- conv8_2_conv8_2_relu_0_split_3
I0104 20:08:15.742421   434 net.cpp:435] conv8_2_mbox_priorbox <- data_data_0_split_5
I0104 20:08:15.742426   434 net.cpp:409] conv8_2_mbox_priorbox -> conv8_2_mbox_priorbox
I0104 20:08:15.742445   434 net.cpp:144] Setting up conv8_2_mbox_priorbox
I0104 20:08:15.742449   434 net.cpp:151] Top shape: 1 2 144 (288)
I0104 20:08:15.742452   434 net.cpp:159] Memory required for data: 246062384
I0104 20:08:15.742456   434 layer_factory.hpp:77] Creating layer conv9_2_mbox_loc
I0104 20:08:15.742463   434 net.cpp:94] Creating Layer conv9_2_mbox_loc
I0104 20:08:15.742467   434 net.cpp:435] conv9_2_mbox_loc <- conv9_2_conv9_2_relu_0_split_0
I0104 20:08:15.742472   434 net.cpp:409] conv9_2_mbox_loc -> conv9_2_mbox_loc
I0104 20:08:15.742930   434 net.cpp:144] Setting up conv9_2_mbox_loc
I0104 20:08:15.742938   434 net.cpp:151] Top shape: 1 16 1 1 (16)
I0104 20:08:15.742942   434 net.cpp:159] Memory required for data: 246062448
I0104 20:08:15.742949   434 layer_factory.hpp:77] Creating layer conv9_2_mbox_loc_perm
I0104 20:08:15.742954   434 net.cpp:94] Creating Layer conv9_2_mbox_loc_perm
I0104 20:08:15.742959   434 net.cpp:435] conv9_2_mbox_loc_perm <- conv9_2_mbox_loc
I0104 20:08:15.742964   434 net.cpp:409] conv9_2_mbox_loc_perm -> conv9_2_mbox_loc_perm
I0104 20:08:15.743042   434 net.cpp:144] Setting up conv9_2_mbox_loc_perm
I0104 20:08:15.743048   434 net.cpp:151] Top shape: 1 1 1 16 (16)
I0104 20:08:15.743052   434 net.cpp:159] Memory required for data: 246062512
I0104 20:08:15.743057   434 layer_factory.hpp:77] Creating layer conv9_2_mbox_loc_flat
I0104 20:08:15.743060   434 net.cpp:94] Creating Layer conv9_2_mbox_loc_flat
I0104 20:08:15.743064   434 net.cpp:435] conv9_2_mbox_loc_flat <- conv9_2_mbox_loc_perm
I0104 20:08:15.743069   434 net.cpp:409] conv9_2_mbox_loc_flat -> conv9_2_mbox_loc_flat
I0104 20:08:15.743086   434 net.cpp:144] Setting up conv9_2_mbox_loc_flat
I0104 20:08:15.743090   434 net.cpp:151] Top shape: 1 16 (16)
I0104 20:08:15.743094   434 net.cpp:159] Memory required for data: 246062576
I0104 20:08:15.743098   434 layer_factory.hpp:77] Creating layer conv9_2_mbox_conf
I0104 20:08:15.743105   434 net.cpp:94] Creating Layer conv9_2_mbox_conf
I0104 20:08:15.743108   434 net.cpp:435] conv9_2_mbox_conf <- conv9_2_conv9_2_relu_0_split_1
I0104 20:08:15.743113   434 net.cpp:409] conv9_2_mbox_conf -> conv9_2_mbox_conf
I0104 20:08:15.744411   434 net.cpp:144] Setting up conv9_2_mbox_conf
I0104 20:08:15.744421   434 net.cpp:151] Top shape: 1 84 1 1 (84)
I0104 20:08:15.744424   434 net.cpp:159] Memory required for data: 246062912
I0104 20:08:15.744431   434 layer_factory.hpp:77] Creating layer conv9_2_mbox_conf_perm
I0104 20:08:15.744436   434 net.cpp:94] Creating Layer conv9_2_mbox_conf_perm
I0104 20:08:15.744441   434 net.cpp:435] conv9_2_mbox_conf_perm <- conv9_2_mbox_conf
I0104 20:08:15.744446   434 net.cpp:409] conv9_2_mbox_conf_perm -> conv9_2_mbox_conf_perm
I0104 20:08:15.744520   434 net.cpp:144] Setting up conv9_2_mbox_conf_perm
I0104 20:08:15.744526   434 net.cpp:151] Top shape: 1 1 1 84 (84)
I0104 20:08:15.744530   434 net.cpp:159] Memory required for data: 246063248
I0104 20:08:15.744534   434 layer_factory.hpp:77] Creating layer conv9_2_mbox_conf_flat
I0104 20:08:15.744539   434 net.cpp:94] Creating Layer conv9_2_mbox_conf_flat
I0104 20:08:15.744541   434 net.cpp:435] conv9_2_mbox_conf_flat <- conv9_2_mbox_conf_perm
I0104 20:08:15.744546   434 net.cpp:409] conv9_2_mbox_conf_flat -> conv9_2_mbox_conf_flat
I0104 20:08:15.744563   434 net.cpp:144] Setting up conv9_2_mbox_conf_flat
I0104 20:08:15.744567   434 net.cpp:151] Top shape: 1 84 (84)
I0104 20:08:15.744570   434 net.cpp:159] Memory required for data: 246063584
I0104 20:08:15.744573   434 layer_factory.hpp:77] Creating layer conv9_2_mbox_priorbox
I0104 20:08:15.744580   434 net.cpp:94] Creating Layer conv9_2_mbox_priorbox
I0104 20:08:15.744583   434 net.cpp:435] conv9_2_mbox_priorbox <- conv9_2_conv9_2_relu_0_split_2
I0104 20:08:15.744587   434 net.cpp:435] conv9_2_mbox_priorbox <- data_data_0_split_6
I0104 20:08:15.744592   434 net.cpp:409] conv9_2_mbox_priorbox -> conv9_2_mbox_priorbox
I0104 20:08:15.744611   434 net.cpp:144] Setting up conv9_2_mbox_priorbox
I0104 20:08:15.744614   434 net.cpp:151] Top shape: 1 2 16 (32)
I0104 20:08:15.744617   434 net.cpp:159] Memory required for data: 246063712
I0104 20:08:15.744621   434 layer_factory.hpp:77] Creating layer mbox_loc
I0104 20:08:15.744632   434 net.cpp:94] Creating Layer mbox_loc
I0104 20:08:15.744637   434 net.cpp:435] mbox_loc <- conv4_3_norm_mbox_loc_flat
I0104 20:08:15.744640   434 net.cpp:435] mbox_loc <- fc7_mbox_loc_flat
I0104 20:08:15.744644   434 net.cpp:435] mbox_loc <- conv6_2_mbox_loc_flat
I0104 20:08:15.744647   434 net.cpp:435] mbox_loc <- conv7_2_mbox_loc_flat
I0104 20:08:15.744652   434 net.cpp:435] mbox_loc <- conv8_2_mbox_loc_flat
I0104 20:08:15.744654   434 net.cpp:435] mbox_loc <- conv9_2_mbox_loc_flat
I0104 20:08:15.744659   434 net.cpp:409] mbox_loc -> mbox_loc
I0104 20:08:15.744678   434 net.cpp:144] Setting up mbox_loc
I0104 20:08:15.744683   434 net.cpp:151] Top shape: 1 34928 (34928)
I0104 20:08:15.744686   434 net.cpp:159] Memory required for data: 246203424
I0104 20:08:15.744689   434 layer_factory.hpp:77] Creating layer mbox_conf
I0104 20:08:15.744694   434 net.cpp:94] Creating Layer mbox_conf
I0104 20:08:15.744697   434 net.cpp:435] mbox_conf <- conv4_3_norm_mbox_conf_flat
I0104 20:08:15.744701   434 net.cpp:435] mbox_conf <- fc7_mbox_conf_flat
I0104 20:08:15.744705   434 net.cpp:435] mbox_conf <- conv6_2_mbox_conf_flat
I0104 20:08:15.744709   434 net.cpp:435] mbox_conf <- conv7_2_mbox_conf_flat
I0104 20:08:15.744712   434 net.cpp:435] mbox_conf <- conv8_2_mbox_conf_flat
I0104 20:08:15.744715   434 net.cpp:435] mbox_conf <- conv9_2_mbox_conf_flat
I0104 20:08:15.744720   434 net.cpp:409] mbox_conf -> mbox_conf
I0104 20:08:15.744736   434 net.cpp:144] Setting up mbox_conf
I0104 20:08:15.744740   434 net.cpp:151] Top shape: 1 183372 (183372)
I0104 20:08:15.744745   434 net.cpp:159] Memory required for data: 246936912
I0104 20:08:15.744747   434 layer_factory.hpp:77] Creating layer mbox_priorbox
I0104 20:08:15.744752   434 net.cpp:94] Creating Layer mbox_priorbox
I0104 20:08:15.744757   434 net.cpp:435] mbox_priorbox <- conv4_3_norm_mbox_priorbox
I0104 20:08:15.744763   434 net.cpp:435] mbox_priorbox <- fc7_mbox_priorbox
I0104 20:08:15.744769   434 net.cpp:435] mbox_priorbox <- conv6_2_mbox_priorbox
I0104 20:08:15.744774   434 net.cpp:435] mbox_priorbox <- conv7_2_mbox_priorbox
I0104 20:08:15.744781   434 net.cpp:435] mbox_priorbox <- conv8_2_mbox_priorbox
I0104 20:08:15.744786   434 net.cpp:435] mbox_priorbox <- conv9_2_mbox_priorbox
I0104 20:08:15.744793   434 net.cpp:409] mbox_priorbox -> mbox_priorbox
I0104 20:08:15.744814   434 net.cpp:144] Setting up mbox_priorbox
I0104 20:08:15.744818   434 net.cpp:151] Top shape: 1 2 34928 (69856)
I0104 20:08:15.744825   434 net.cpp:159] Memory required for data: 247216336
I0104 20:08:15.744830   434 layer_factory.hpp:77] Creating layer mbox_conf_reshape
I0104 20:08:15.744846   434 net.cpp:94] Creating Layer mbox_conf_reshape
I0104 20:08:15.744853   434 net.cpp:435] mbox_conf_reshape <- mbox_conf
I0104 20:08:15.744858   434 net.cpp:409] mbox_conf_reshape -> mbox_conf_reshape
I0104 20:08:15.744884   434 net.cpp:144] Setting up mbox_conf_reshape
I0104 20:08:15.744896   434 net.cpp:151] Top shape: 1 8732 21 (183372)
I0104 20:08:15.744904   434 net.cpp:159] Memory required for data: 247949824
I0104 20:08:15.744906   434 layer_factory.hpp:77] Creating layer mbox_conf_softmax
I0104 20:08:15.744912   434 net.cpp:94] Creating Layer mbox_conf_softmax
I0104 20:08:15.744916   434 net.cpp:435] mbox_conf_softmax <- mbox_conf_reshape
I0104 20:08:15.744921   434 net.cpp:409] mbox_conf_softmax -> mbox_conf_softmax
I0104 20:08:15.744989   434 net.cpp:144] Setting up mbox_conf_softmax
I0104 20:08:15.744997   434 net.cpp:151] Top shape: 1 8732 21 (183372)
I0104 20:08:15.745002   434 net.cpp:159] Memory required for data: 248683312
I0104 20:08:15.745008   434 layer_factory.hpp:77] Creating layer mbox_conf_flatten
I0104 20:08:15.745016   434 net.cpp:94] Creating Layer mbox_conf_flatten
I0104 20:08:15.745023   434 net.cpp:435] mbox_conf_flatten <- mbox_conf_softmax
I0104 20:08:15.745029   434 net.cpp:409] mbox_conf_flatten -> mbox_conf_flatten
I0104 20:08:15.745050   434 net.cpp:144] Setting up mbox_conf_flatten
I0104 20:08:15.745054   434 net.cpp:151] Top shape: 1 183372 (183372)
I0104 20:08:15.745059   434 net.cpp:159] Memory required for data: 249416800
I0104 20:08:15.745061   434 layer_factory.hpp:77] Creating layer detection_out
I0104 20:08:15.745070   434 net.cpp:94] Creating Layer detection_out
I0104 20:08:15.745074   434 net.cpp:435] detection_out <- mbox_loc
I0104 20:08:15.745079   434 net.cpp:435] detection_out <- mbox_conf_flatten
I0104 20:08:15.745081   434 net.cpp:435] detection_out <- mbox_priorbox
I0104 20:08:15.745087   434 net.cpp:409] detection_out -> detection_out
I0104 20:08:15.747381   434 net.cpp:144] Setting up detection_out
I0104 20:08:15.747391   434 net.cpp:151] Top shape: 1 1 1 7 (7)
I0104 20:08:15.747396   434 net.cpp:159] Memory required for data: 249416828
I0104 20:08:15.747400   434 layer_factory.hpp:77] Creating layer detection_eval
I0104 20:08:15.747406   434 net.cpp:94] Creating Layer detection_eval
I0104 20:08:15.747411   434 net.cpp:435] detection_eval <- detection_out
I0104 20:08:15.747416   434 net.cpp:435] detection_eval <- label
I0104 20:08:15.747421   434 net.cpp:409] detection_eval -> detection_eval
I0104 20:08:15.749023   434 net.cpp:144] Setting up detection_eval
I0104 20:08:15.749032   434 net.cpp:151] Top shape: 1 1 21 5 (105)
I0104 20:08:15.749037   434 net.cpp:159] Memory required for data: 249417248
I0104 20:08:15.749040   434 net.cpp:222] detection_eval does not need backward computation.
I0104 20:08:15.749047   434 net.cpp:222] detection_out does not need backward computation.
I0104 20:08:15.749050   434 net.cpp:222] mbox_conf_flatten does not need backward computation.
I0104 20:08:15.749054   434 net.cpp:222] mbox_conf_softmax does not need backward computation.
…
