…
  include {
    phase: TRAIN
  }
  transform_param {
    crop_size: 300
    mean_value: 104
    mean_value: 117
    mean_value: 123
    resize_param {
      prob: 1
      resize_mode: WARP
      height: 300
      width: 300
      interp_mode: LINEAR
      interp_mode: AREA
      interp_mode: NEAREST
      interp_mode: CUBIC
      interp_mode: LANCZOS4
    }
  }
  image_data_param {
    source: "../calibration.txt"
    batch_size: 1
    shuffle: true
    new_height: 300
    new_width: 300
    root_folder: "/data2/datasets/VOCdevkit/VOC2007/JPEGImages/"
  }
}
layer {
  name: "conv1_1"
  type: "Convolution"
  bottom: "data"
  top: "conv1_1"
  param {
    lr_mult: 1
    decay_mult: 1
  }
  param {
    lr_mult: 2
    decay_mult: 0
  }
  convolution_param {
    num_output: 64
    pad: 1
    kernel_size: 3
    weight_filler {
      type: "xavier"
    }
    bias_filler {
      type: "constant"
      value: 0
    }
  }
}
layer {
  name: "relu1_1"
  type: "ReLU"
  bottom: "conv1_1"
  top: "conv1_1"
}
layer {
  name: "conv1_2"
  type: "Convolution"
  bottom: "conv1_1"
  top: "conv1_2"
  param {
    lr_mult: 1
    decay_mult: 1
  }
  param {
    lr_mult: 2
    decay_mult: 0
  }
  convolution_param {
    num_output: 64
    pad: 1
    kernel_size: 3
    weight_filler {
      type: "xavier"
    }
    bias_filler {
      type: "constant"
      value: 0
    }
  }
}
layer {
  name: "relu1_2"
  type: "ReLU"
  bottom: "conv1_2"
  top: "conv1_2"
}
layer {
  name: "pool1"
  type: "Pooling"
  bottom: "conv1_2"
  top: "pool1"
  pooling_param {
    pool: MAX
    kernel_size: 2
    stride: 2
  }
}
layer {
  name: "conv2_1"
  type: "Convolution"
  bottom: "pool1"
  top: "conv2_1"
  param {
    lr_mult: 1
    decay_mult: 1
  }
  param {
    lr_mult: 2
    decay_mult: 0
  }
  convolution_param {
    num_output: 128
    pad: 1
    kernel_size: 3
    weight_filler {
      type: "xavier"
    }
    bias_filler {
      type: "constant"
      value: 0
    }
  }
}
layer {
  name: "relu2_1"
  type: "ReLU"
  bottom: "conv2_1"
  top: "conv2_1"
}
layer {
  name: "conv2_2"
  type: "Convolution"
  bottom: "conv2_1"
  top: "conv2_2"
  param {
    lr_mult: 1
    decay_mult: 1
  }
  param {
    lr_mult: 2
    decay_mult: 0
  }
  convolution_param {
    num_output: 128
    pad: 1
    kernel_size: 3
    weight_filler {
      type: "xavier"
    }
    bias_filler {
      type: "constant"
      value: 0
    }
  }
}
layer {
  name: "relu2_2"
  type: "ReLU"
  bottom: "conv2_2"
  top: "conv2_2"
}
layer {
  name: "pool2"
  type: "Pooling"
  bottom: "conv2_2"
  top: "pool2"
  pooling_param {
    pool: MAX
    kernel_size: 2
    stride: 2
  }
}
layer {
  name: "conv3_1"
  type: "Convolution"
  bottom: "pool2"
  top: "conv3_1"
  param {
    lr_mult: 1
    decay_mult: 1
  }
  param {
    lr_mult: 2
    decay_mult: 0
  }
  convolution_param {
    num_output: 256
    pad: 1
    kernel_size: 3
    weight_filler {
      type: "xavier"
    }
    bias_filler {
      type: "constant"
      value: 0
    }
  }
}
layer {
  name: "relu3_1"
  type: "ReLU"
  bottom: "conv3_1"
  top: "conv3_1"
}
layer {
  name: "conv3_2"
  type: "Convolution"
  bottom: "conv3_1"
  top: "conv3_2"
  param {
    lr_mult: 1
    decay_mult: 1
  }
  param {
    lr_mult: 2
    decay_mult: 0
  }
  convolution_param {
    num_output: 256
    pad: 1
    kernel_size: 3
    weight_filler {
      type: "xavier"
    }
    bias_filler {
      type: "constant"
      value: 0
    }
  }
}
layer {
  name: "relu3_2"
  type: "ReLU"
  bottom: "conv3_2"
  top: "conv3_2"
}
layer {
  name: "conv3_3"
  type: "Convolution"
  bottom: "conv3_2"
  top: "conv3_3"
  param {
    lr_mult: 1
    decay_mult: 1
  }
  param {
    lr_mult: 2
    decay_mult: 0
  }
  convolution_param {
    num_output: 256
    pad: 1
    kernel_size: 3
    weight_filler {
      type: "xavier"
    }
    bias_filler {
      type: "constant"
      value: 0
    }
  }
}
layer {
  name: "relu3_3"
  type: "ReLU"
  bottom: "conv3_3"
  top: "conv3_3"
}
layer {
  name: "pool3"
  type: "Pooling"
  bottom: "conv3_3"
  top: "pool3"
  pooling_param {
    pool: MAX
    kernel_size: 2
    stride: 2
  }
}
layer {
  name: "conv4_1"
  type: "Convolution"
  bottom: "pool3"
  top: "conv4_1"
  param {
    lr_mult: 1
    decay_mult: 1
  }
  param {
    lr_mult: 2
    decay_mult: 0
  }
  convolution_param {
    num_output: 512
    pad: 1
    kernel_size: 3
    weight_filler {
      type: "xavier"
    }
    bias_filler {
      type: "constant"
      value: 0
    }
  }
}
layer {
  name: "relu4_1"
  type: "ReLU"
  bottom: "conv4_1"
  top: "conv4_1"
}
layer {
  name: "conv4_2"
  type: "Convolution"
  bottom: "conv4_1"
  top: "conv4_2"
  param {
    lr_mult: 1
    decay_mult: 1
  }
  param {
    lr_mult: 2
    decay_mult: 0
  }
  convolution_param {
    num_output: 512
    pad: 1
    kernel_size: 3
    weight_filler {
      type: "xavier"
    }
    bias_filler {
      type: "constant"
      value: 0
    }
  }
}
layer {
  name: "relu4_2"
  type: "ReLU"
  bottom: "conv4_2"
  top: "conv4_2"
}
layer {
  name: "conv4_3"
  type: "Convolution"
  bottom: "conv4_2"
  top: "conv4_3"
  param {
    lr_mult: 1
    decay_mult: 1
  }
  param {
    lr_mult: 2
    decay_mult: 0
  }
  convolution_param {
    num_output: 512
    pad: 1
    kernel_size: 3
    weight_filler {
      type: "xavier"
    }
    bias_filler {
      type: "constant"
      value: 0
    }
  }
}
layer {
  name: "conv4_3_bn"
  type: "BatchNorm"
  bottom: "conv4_3"
  top: "conv4_3"
  param {
    lr_mult: 1
    decay_mult: 0
  }
  param {
    lr_mult: 1
    decay_mult: 0
  }
  param {
    lr_mult: 0
    decay_mult: 0
  }
  param {
    lr_mult: 0
    decay_mult: 0
  }
  batch_norm_param {
    use_global_stats: true
    eps: 1e-05
    scale_filler {
      type: "constant"
      value: 1
    }
    bias_filler {
      type: "constant"
      value: 0
    }
  }
}
layer {
  name: "relu4_3"
  type: "ReLU"
  bottom: "conv4_3"
  top: "conv4_3"
}
layer {
  name: "pool4"
  type: "Pooling"
  bottom: "conv4_3"
  top: "pool4"
  pooling_param {
    pool: MAX
    kernel_size: 2
    stride: 2
  }
}
layer {
  name: "conv5_1"
  type: "Convolution"
  bottom: "pool4"
  top: "conv5_1"
  param {
    lr_mult: 1
    decay_mult: 1
  }
  param {
    lr_mult: 2
    decay_mult: 0
  }
  convolution_param {
    num_output: 512
    pad: 1
    kernel_size: 3
    weight_filler {
      type: "xavier"
    }
    bias_filler {
      type: "constant"
      value: 0
    }
    dilation: 1
  }
}
layer {
  name: "relu5_1"
  type: "ReLU"
  bottom: "conv5_1"
  top: "conv5_1"
}
layer {
  name: "conv5_2"
  type: "Convolution"
  bottom: "conv5_1"
  top: "conv5_2"
  param {
    lr_mult: 1
    decay_mult: 1
  }
  param {
    lr_mult: 2
    decay_mult: 0
  }
  convolution_param {
    num_output: 512
    pad: 1
    kernel_size: 3
    weight_filler {
      type: "xavier"
    }
    bias_filler {
      type: "constant"
      value: 0
    }
    dilation: 1
  }
}
layer {
  name: "relu5_2"
  type: "ReLU"
  bottom: "conv5_2"
  top: "conv5_2"
}
layer {
  name: "conv5_3"
  type: "Convolution"
  bottom: "conv5_2"
  top: "conv5_3"
  param {
    lr_mult: 1
    decay_mult: 1
  }
  param {
    lr_mult: 2
    decay_mult: 0
  }
  convolution_param {
    num_output: 512
    pad: 1
    kernel_size: 3
    weight_filler {
      type: "xavier"
    }
    bias_filler {
      type: "constant"
      value: 0
    }
    dilation: 1
  }
}
layer {
  name: "relu5_3"
  type: "ReLU"
  bottom: "conv5_3"
  top: "conv5_3"
}
layer {
  name: "pool5"
  type: "Pooling"
  bottom: "conv5_3"
  top: "pool5"
  pooling_param {
    pool: MAX
    kernel_size: 3
    stride: 1
    pad: 1
  }
}
layer {
  name: "fc6_682"
  type: "Convolution"
  bottom: "pool5"
  top: "fc6_682"
  param {
    lr_mult: 1
    decay_mult: 1
  }
  param {
    lr_mult: 2
    decay_mult: 0
  }
  convolution_param {
    num_output: 682
    pad: 6
    kernel_size: 3
    weight_filler {
      type: "xavier"
    }
    bias_filler {
      type: "constant"
      value: 0
    }
    dilation: 6
  }
}
layer {
  name: "relu6"
  type: "ReLU"
  bottom: "fc6_682"
  top: "fc6_682"
}
layer {
  name: "fc7_682"
  type: "Convolution"
  bottom: "fc6_682"
  top: "fc7_682"
  param {
    lr_mult: 1
    decay_mult: 1
  }
  param {
    lr_mult: 2
    decay_mult: 0
  }
  convolution_param {
    num_output: 1024
    kernel_size: 1
    weight_filler {
      type: "xavier"
    }
    bias_filler {
      type: "constant"
      value: 0
    }
  }
}
layer {
  name: "relu7"
  type: "ReLU"
  bottom: "fc7_682"
  top: "fc7_682"
}
layer {
  name: "conv6_1"
  type: "Convolution"
  bottom: "fc7_682"
  top: "conv6_1"
  param {
    lr_mult: 1
    decay_mult: 1
  }
  param {
    lr_mult: 2
    decay_mult: 0
  }
  convolution_param {
    num_output: 256
    pad: 0
    kernel_size: 1
    stride: 1
    weight_filler {
      type: "xavier"
    }
    bias_filler {
      type: "constant"
      value: 0
    }
  }
}
layer {
  name: "conv6_1_relu"
  type: "ReLU"
  bottom: "conv6_1"
  top: "conv6_1"
}
layer {
  name: "conv6_2"
  type: "Convolution"
  bottom: "conv6_1"
  top: "conv6_2"
  param {
    lr_mult: 1
    decay_mult: 1
  }
  param {
    lr_mult: 2
    decay_mult: 0
  }
  convolution_param {
    num_output: 512
    pad: 1
    kernel_size: 3
    stride: 2
    weight_filler {
      type: "xavier"
    }
    bias_filler {
      type: "constant"
      value: 0
    }
  }
}
layer {
  name: "conv6_2_relu"
  type: "ReLU"
  bottom: "conv6_2"
  top: "conv6_2"
}
layer {
  name: "conv7_1"
  type: "Convolution"
  bottom: "conv6_2"
  top: "conv7_1"
  param {
    lr_mult: 1
    decay_mult: 1
  }
  param {
    lr_mult: 2
    decay_mult: 0
  }
  convolution_param {
    num_output: 128
    pad: 0
    kernel_size: 1
    stride: 1
    weight_filler {
      type: "xavier"
    }
    bias_filler {
      type: "constant"
      value: 0
    }
  }
}
layer {
  name: "conv7_1_relu"
  type: "ReLU"
  bottom: "conv7_1"
  top: "conv7_1"
}
layer {
  name: "conv7_2"
  type: "Convolution"
  bottom: "conv7_1"
  top: "conv7_2"
  param {
    lr_mult: 1
    decay_mult: 1
  }
  param {
    lr_mult: 2
    decay_mult: 0
  }
  convolution_param {
    num_output: 256
    pad: 1
    kernel_size: 3
    stride: 2
    weight_filler {
      type: "xavier"
    }
    bias_filler {
      type: "constant"
      value: 0
    }
  }
}
layer {
  name: "conv7_2_relu"
  type: "ReLU"
  bottom: "conv7_2"
  top: "conv7_2"
}
layer {
  name: "conv8_1"
  type: "Convolution"
  bottom: "conv7_2"
  top: "conv8_1"
  param {
    lr_mult: 1
    decay_mult: 1
  }
  param {
    lr_mult: 2
    decay_mult: 0
  }
  convolution_param {
    num_output: 128
    pad: 0
    kernel_size: 1
    stride: 1
    weight_filler {
      type: "xavier"
    }
    bias_filler {
      type: "constant"
      value: 0
    }
  }
}
layer {
  name: "conv8_1_relu"
  type: "ReLU"
  bottom: "conv8_1"
  top: "conv8_1"
}
layer {
  name: "conv8_2"
  type: "Convolution"
  bottom: "conv8_1"
  top: "conv8_2"
  param {
    lr_mult: 1
    decay_mult: 1
  }
  param {
    lr_mult: 2
    decay_mult: 0
  }
  convolution_param {
    num_output: 256
    pad: 0
    kernel_size: 3
    stride: 1
    weight_filler {
      type: "xavier"
    }
    bias_filler {
      type: "constant"
      value: 0
    }
  }
}
layer {
  name: "conv8_2_relu"
  type: "ReLU"
  bottom: "conv8_2"
  top: "conv8_2"
}
layer {
  name: "conv9_1"
  type: "Convolution"
  bottom: "conv8_2"
  top: "conv9_1"
  param {
    lr_mult: 1
    decay_mult: 1
  }
  param {
    lr_mult: 2
    decay_mult: 0
  }
  convolution_param {
    num_output: 128
    pad: 0
    kernel_size: 1
    stride: 1
    weight_filler {
      type: "xavier"
    }
    bias_filler {
      type: "constant"
      value: 0
    }
  }
}
layer {
  name: "conv9_1_relu"
  type: "ReLU"
  bottom: "conv9_1"
  top: "conv9_1"
}
layer {
  name: "conv9_2"
  type: "Convolution"
  bottom: "conv9_1"
  top: "conv9_2"
  param {
    lr_mult: 1
    decay_mult: 1
  }
  param {
    lr_mult: 2
    decay_mult: 0
  }
  convolution_param {
    num_output: 256
    pad: 0
    kernel_size: 3
    stride: 1
    weight_filler {
      type: "xavier"
    }
    bias_filler {
      type: "constant"
      value: 0
    }
  }
}
layer {
  name: "conv9_2_relu"
  type: "ReLU"
  bottom: "conv9_2"
  top: "conv9_2"
}
layer {
  name: "conv4_3_norm_mbox_loc"
  type: "Convolution"
  bottom: "conv4_3"
  top: "conv4_3_norm_mbox_loc"
  param {
    lr_mult: 1
    decay_mult: 1
  }
  param {
    lr_mult: 2
    decay_mult: 0
  }
  convolution_param {
    num_output: 16
    pad: 1
    kernel_size: 3
    stride: 1
    weight_filler {
      type: "xavier"
    }
    bias_filler {
      type: "constant"
      value: 0
    }
  }
}
layer {
  name: "conv4_3_norm_mbox_loc_perm"
  type: "Permute"
  bottom: "conv4_3_norm_mbox_loc"
  top: "conv4_3_norm_mbox_loc_perm"
  permute_param {
    order: 0
    order: 2
    order: 3
    order: 1
  }
}
layer {
  name: "conv4_3_norm_mbox_loc_flat"
  type: "Flatten"
  bottom: "conv4_3_norm_mbox_loc_perm"
  top: "conv4_3_norm_mbox_loc_flat"
  flatten_param {
    axis: 1
  }
}
layer {
  name: "conv4_3_norm_mbox_conf"
  type: "Convolution"
  bottom: "conv4_3"
  top: "conv4_3_norm_mbox_conf"
  param {
    lr_mult: 1
    decay_mult: 1
  }
  param {
    lr_mult: 2
    decay_mult: 0
  }
  convolution_param {
    num_output: 84
    pad: 1
    kernel_size: 3
    stride: 1
    weight_filler {
      type: "xavier"
    }
    bias_filler {
      type: "constant"
      value: 0
    }
  }
}
layer {
  name: "conv4_3_norm_mbox_conf_perm"
  type: "Permute"
  bottom: "conv4_3_norm_mbox_conf"
  top: "conv4_3_norm_mbox_conf_perm"
  permute_param {
    order: 0
    order: 2
    order: 3
    order: 1
  }
}
layer {
  name: "conv4_3_norm_mbox_conf_flat"
  type: "Flatten"
  bottom: "conv4_3_norm_mbox_conf_perm"
  top: "conv4_3_norm_mbox_conf_flat"
  flatten_param {
    axis: 1
  }
}
layer {
  name: "conv4_3_norm_mbox_priorbox"
  type: "PriorBox"
  bottom: "conv4_3"
  bottom: "data"
  top: "conv4_3_norm_mbox_priorbox"
  prior_box_param {
    min_size: 30
    max_size: 60
    aspect_ratio: 2
    flip: true
    clip: false
    variance: 0.1
    variance: 0.1
    variance: 0.2
    variance: 0.2
    step: 8
    offset: 0.5
  }
}
layer {
  name: "fc7_mbox_loc"
  type: "Convolution"
  bottom: "fc7_682"
  top: "fc7_mbox_loc"
  param {
    lr_mult: 1
    decay_mult: 1
  }
  param {
    lr_mult: 2
    decay_mult: 0
  }
  convolution_param {
    num_output: 24
    pad: 1
    kernel_size: 3
    stride: 1
    weight_filler {
      type: "xavier"
    }
    bias_filler {
      type: "constant"
      value: 0
    }
  }
}
layer {
  name: "fc7_mbox_loc_perm"
  type: "Permute"
  bottom: "fc7_mbox_loc"
  top: "fc7_mbox_loc_perm"
  permute_param {
    order: 0
    order: 2
    order: 3
    order: 1
  }
}
layer {
  name: "fc7_mbox_loc_flat"
  type: "Flatten"
  bottom: "fc7_mbox_loc_perm"
  top: "fc7_mbox_loc_flat"
  flatten_param {
    axis: 1
  }
}
layer {
  name: "fc7_mbox_conf"
  type: "Convolution"
  bottom: "fc7_682"
  top: "fc7_mbox_conf"
  param {
    lr_mult: 1
    decay_mult: 1
  }
  param {
    lr_mult: 2
    decay_mult: 0
  }
  convolution_param {
    num_output: 126
    pad: 1
    kernel_size: 3
    stride: 1
    weight_filler {
      type: "xavier"
    }
    bias_filler {
      type: "constant"
      value: 0
    }
  }
}
layer {
  name: "fc7_mbox_conf_perm"
  type: "Permute"
  bottom: "fc7_mbox_conf"
  top: "fc7_mbox_conf_perm"
  permute_param {
    order: 0
    order: 2
    order: 3
    order: 1
  }
}
layer {
  name: "fc7_mbox_conf_flat"
  type: "Flatten"
  bottom: "fc7_mbox_conf_perm"
  top: "fc7_mbox_conf_flat"
  flatten_param {
    axis: 1
  }
}
layer {
  name: "fc7_mbox_priorbox"
  type: "PriorBox"
  bottom: "fc7_682"
  bottom: "data"
  top: "fc7_mbox_priorbox"
  prior_box_param {
    min_size: 60
    max_size: 111
    aspect_ratio: 2
    aspect_ratio: 3
    flip: true
    clip: false
    variance: 0.1
    variance: 0.1
    variance: 0.2
    variance: 0.2
    step: 16
    offset: 0.5
  }
}
layer {
  name: "conv6_2_mbox_loc"
  type: "Convolution"
  bottom: "conv6_2"
  top: "conv6_2_mbox_loc"
  param {
    lr_mult: 1
    decay_mult: 1
  }
  param {
    lr_mult: 2
    decay_mult: 0
  }
  convolution_param {
    num_output: 24
    pad: 1
    kernel_size: 3
    stride: 1
    weight_filler {
      type: "xavier"
    }
    bias_filler {
      type: "constant"
      value: 0
    }
  }
}
layer {
  name: "conv6_2_mbox_loc_perm"
  type: "Permute"
  bottom: "conv6_2_mbox_loc"
  top: "conv6_2_mbox_loc_perm"
  permute_param {
    order: 0
    order: 2
    order: 3
    order: 1
  }
}
layer {
  name: "conv6_2_mbox_loc_flat"
  type: "Flatten"
  bottom: "conv6_2_mbox_loc_perm"
  top: "conv6_2_mbox_loc_flat"
  flatten_param {
    axis: 1
  }
}
layer {
  name: "conv6_2_mbox_conf"
  type: "Convolution"
  bottom: "conv6_2"
  top: "conv6_2_mbox_conf"
  param {
    lr_mult: 1
    decay_mult: 1
  }
  param {
    lr_mult: 2
    decay_mult: 0
  }
  convolution_param {
    num_output: 126
    pad: 1
    kernel_size: 3
    stride: 1
    weight_filler {
      type: "xavier"
    }
    bias_filler {
      type: "constant"
      value: 0
    }
  }
}
layer {
  name: "conv6_2_mbox_conf_perm"
  type: "Permute"
  bottom: "conv6_2_mbox_conf"
  top: "conv6_2_mbox_conf_perm"
  permute_param {
    order: 0
    order: 2
    order: 3
    order: 1
  }
}
layer {
  name: "conv6_2_mbox_conf_flat"
  type: "Flatten"
  bottom: "conv6_2_mbox_conf_perm"
  top: "conv6_2_mbox_conf_flat"
  flatten_param {
    axis: 1
  }
}
layer {
  name: "conv6_2_mbox_priorbox"
  type: "PriorBox"
  bottom: "conv6_2"
  bottom: "data"
  top: "conv6_2_mbox_priorbox"
  prior_box_param {
    min_size: 111
    max_size: 162
    aspect_ratio: 2
    aspect_ratio: 3
    flip: true
    clip: false
    variance: 0.1
    variance: 0.1
    variance: 0.2
    variance: 0.2
    step: 32
    offset: 0.5
  }
}
layer {
  name: "conv7_2_mbox_loc"
  type: "Convolution"
  bottom: "conv7_2"
  top: "conv7_2_mbox_loc"
  param {
    lr_mult: 1
    decay_mult: 1
  }
  param {
    lr_mult: 2
    decay_mult: 0
  }
  convolution_param {
    num_output: 24
    pad: 1
    kernel_size: 3
    stride: 1
    weight_filler {
      type: "xavier"
    }
    bias_filler {
      type: "constant"
      value: 0
    }
  }
}
layer {
  name: "conv7_2_mbox_loc_perm"
  type: "Permute"
  bottom: "conv7_2_mbox_loc"
  top: "conv7_2_mbox_loc_perm"
  permute_param {
    order: 0
    order: 2
    order: 3
    order: 1
  }
}
layer {
  name: "conv7_2_mbox_loc_flat"
  type: "Flatten"
  bottom: "conv7_2_mbox_loc_perm"
  top: "conv7_2_mbox_loc_flat"
  flatten_param {
    axis: 1
  }
}
layer {
  name: "conv7_2_mbox_conf"
  type: "Convolution"
  bottom: "conv7_2"
  top: "conv7_2_mbox_conf"
  param {
    lr_mult: 1
    decay_mult: 1
  }
  param {
    lr_mult: 2
    decay_mult: 0
  }
  convolution_param {
    num_output: 126
    pad: 1
    kernel_size: 3
    stride: 1
    weight_filler {
      type: "xavier"
    }
    bias_filler {
      type: "constant"
      value: 0
    }
  }
}
layer {
  name: "conv7_2_mbox_conf_perm"
  type: "Permute"
  bottom: "conv7_2_mbox_conf"
  top: "conv7_2_mbox_conf_perm"
  permute_param {
    order: 0
    order: 2
    order: 3
    order: 1
  }
}
layer {
  name: "conv7_2_mbox_conf_flat"
  type: "Flatten"
  bottom: "conv7_2_mbox_conf_perm"
  top: "conv7_2_mbox_conf_flat"
  flatten_param {
    axis: 1
  }
}
layer {
  name: "conv7_2_mbox_priorbox"
  type: "PriorBox"
  bottom: "conv7_2"
  bottom: "data"
  top: "conv7_2_mbox_priorbox"
  prior_box_param {
    min_size: 162
    max_size: 213
    aspect_ratio: 2
    aspect_ratio: 3
    flip: true
    clip: false
    variance: 0.1
    variance: 0.1
    variance: 0.2
    variance: 0.2
    step: 64
    offset: 0.5
  }
}
layer {
  name: "conv8_2_mbox_loc"
  type: "Convolution"
  bottom: "conv8_2"
  top: "conv8_2_mbox_loc"
  param {
    lr_mult: 1
    decay_mult: 1
  }
  param {
    lr_mult: 2
    decay_mult: 0
  }
  convolution_param {
    num_output: 16
    pad: 1
    kernel_size: 3
    stride: 1
    weight_filler {
      type: "xavier"
    }
    bias_filler {
      type: "constant"
      value: 0
    }
  }
}
layer {
  name: "conv8_2_mbox_loc_perm"
  type: "Permute"
  bottom: "conv8_2_mbox_loc"
  top: "conv8_2_mbox_loc_perm"
  permute_param {
    order: 0
    order: 2
    order: 3
    order: 1
  }
}
layer {
  name: "conv8_2_mbox_loc_flat"
  type: "Flatten"
  bottom: "conv8_2_mbox_loc_perm"
  top: "conv8_2_mbox_loc_flat"
  flatten_param {
    axis: 1
  }
}
layer {
  name: "conv8_2_mbox_conf"
  type: "Convolution"
  bottom: "conv8_2"
  top: "conv8_2_mbox_conf"
  param {
    lr_mult: 1
    decay_mult: 1
  }
  param {
    lr_mult: 2
    decay_mult: 0
  }
  convolution_param {
    num_output: 84
    pad: 1
    kernel_size: 3
    stride: 1
    weight_filler {
      type: "xavier"
    }
    bias_filler {
      type: "constant"
      value: 0
    }
  }
}
layer {
  name: "conv8_2_mbox_conf_perm"
  type: "Permute"
  bottom: "conv8_2_mbox_conf"
  top: "conv8_2_mbox_conf_perm"
  permute_param {
    order: 0
    order: 2
    order: 3
    order: 1
  }
}
layer {
  name: "conv8_2_mbox_conf_flat"
  type: "Flatten"
  bottom: "conv8_2_mbox_conf_perm"
  top: "conv8_2_mbox_conf_flat"
  flatten_param {
    axis: 1
  }
}
layer {
  name: "conv8_2_mbox_priorbox"
  type: "PriorBox"
  bottom: "conv8_2"
  bottom: "data"
  top: "conv8_2_mbox_priorbox"
  prior_box_param {
    min_size: 213
    max_size: 264
    aspect_ratio: 2
    flip: true
    clip: false
    variance: 0.1
    variance: 0.1
    variance: 0.2
    variance: 0.2
    step: 100
    offset: 0.5
  }
}
layer {
  name: "conv9_2_mbox_loc"
  type: "Convolution"
  bottom: "conv9_2"
  top: "conv9_2_mbox_loc"
  param {
    lr_mult: 1
    decay_mult: 1
  }
  param {
    lr_mult: 2
    decay_mult: 0
  }
  convolution_param {
    num_output: 16
    pad: 1
    kernel_size: 3
    stride: 1
    weight_filler {
      type: "xavier"
    }
    bias_filler {
      type: "constant"
      value: 0
    }
  }
}
layer {
  name: "conv9_2_mbox_loc_perm"
  type: "Permute"
  bottom: "conv9_2_mbox_loc"
  top: "conv9_2_mbox_loc_perm"
  permute_param {
    order: 0
    order: 2
    order: 3
    order: 1
  }
}
layer {
  name: "conv9_2_mbox_loc_flat"
  type: "Flatten"
  bottom: "conv9_2_mbox_loc_perm"
  top: "conv9_2_mbox_loc_flat"
  flatten_param {
    axis: 1
  }
}
layer {
  name: "conv9_2_mbox_conf"
  type: "Convolution"
  bottom: "conv9_2"
  top: "conv9_2_mbox_conf"
  param {
    lr_mult: 1
    decay_mult: 1
  }
  param {
    lr_mult: 2
    decay_mult: 0
  }
  convolution_param {
    num_output: 84
    pad: 1
    kernel_size: 3
    stride: 1
    weight_filler {
      type: "xavier"
    }
    bias_filler {
      type: "constant"
      value: 0
    }
  }
}
layer {
  name: "conv9_2_mbox_conf_perm"
  type: "Permute"
  bottom: "conv9_2_mbox_conf"
  top: "conv9_2_mbox_conf_perm"
  permute_param {
    order: 0
    order: 2
    order: 3
    order: 1
  }
}
layer {
  name: "conv9_2_mbox_conf_flat"
  type: "Flatten"
  bottom: "conv9_2_mbox_conf_perm"
  top: "conv9_2_mbox_conf_flat"
  flatten_param {
    axis: 1
  }
}
layer {
  name: "conv9_2_mbox_priorbox"
  type: "PriorBox"
  bottom: "conv9_2"
  bottom: "data"
  top: "conv9_2_mbox_priorbox"
  prior_box_param {
    min_size: 264
    max_size: 315
    aspect_ratio: 2
    flip: true
    clip: false
    variance: 0.1
    variance: 0.1
    variance: 0.2
    variance: 0.2
    step: 300
    offset: 0.5
  }
}
layer {
  name: "mbox_loc"
  type: "Concat"
  bottom: "conv4_3_norm_mbox_loc_flat"
  bottom: "fc7_mbox_loc_flat"
  bottom: "conv6_2_mbox_loc_flat"
  bottom: "conv7_2_mbox_loc_flat"
  bottom: "conv8_2_mbox_loc_flat"
  bottom: "conv9_2_mbox_loc_flat"
  top: "mbox_loc"
  concat_param {
    axis: 1
  }
}
layer {
  name: "mbox_conf"
  type: "Concat"
  bottom: "conv4_3_norm_mbox_conf_flat"
  bottom: "fc7_mbox_conf_flat"
  bottom: "conv6_2_mbox_conf_flat"
  bottom: "conv7_2_mbox_conf_flat"
  bottom: "conv8_2_mbox_conf_flat"
  bottom: "conv9_2_mbox_conf_flat"
  top: "mbox_conf"
  concat_param {
    axis: 1
  }
}
layer {
  name: "mbox_priorbox"
  type: "Concat"
  bottom: "conv4_3_norm_mbox_priorbox"
  bottom: "fc7_mbox_priorbox"
  bottom: "conv6_2_mbox_priorbox"
  bottom: "conv7_2_mbox_priorbox"
  bottom: "conv8_2_mbox_priorbox"
  bottom: "conv9_2_mbox_priorbox"
  top: "mbox_priorbox"
  concat_param {
    axis: 2
  }
}
I0104 20:10:33.664564   465 layer_factory.hpp:77] Creating layer data
I0104 20:10:33.664599   465 net.cpp:94] Creating Layer data
I0104 20:10:33.664605   465 net.cpp:409] data -> data
I0104 20:10:33.664623   465 net.cpp:409] data -> label
I0104 20:10:33.664698   465 image_data_layer.cpp:41] Opening file ../calibration.txt
I0104 20:10:33.665009   465 image_data_layer.cpp:51] Shuffling data
I0104 20:10:33.665094   465 image_data_layer.cpp:56] A total of 1000 images.
I0104 20:10:33.670043   465 image_data_layer.cpp:84] output data size: 1,3,300,300
I0104 20:10:33.680068   465 internal_thread.cpp:27] Starting internal thread(s) on GPU 0
I0104 20:10:33.680137   465 net.cpp:144] Setting up data
I0104 20:10:33.680143   465 net.cpp:151] Top shape: 1 3 300 300 (270000)
I0104 20:10:33.680151   465 net.cpp:151] Top shape: 1 (1)
I0104 20:10:33.680155   465 net.cpp:159] Memory required for data: 1080004
I0104 20:10:33.680160   465 layer_factory.hpp:77] Creating layer data_data_0_split
I0104 20:10:33.680174   465 net.cpp:94] Creating Layer data_data_0_split
I0104 20:10:33.680178   465 net.cpp:435] data_data_0_split <- data
I0104 20:10:33.680186   465 net.cpp:409] data_data_0_split -> data_data_0_split_0
I0104 20:10:33.680194   465 net.cpp:409] data_data_0_split -> data_data_0_split_1
I0104 20:10:33.680203   465 net.cpp:409] data_data_0_split -> data_data_0_split_2
I0104 20:10:33.680210   465 net.cpp:409] data_data_0_split -> data_data_0_split_3
I0104 20:10:33.680215   465 net.cpp:409] data_data_0_split -> data_data_0_split_4
I0104 20:10:33.680220   465 net.cpp:409] data_data_0_split -> data_data_0_split_5
I0104 20:10:33.680225   465 net.cpp:409] data_data_0_split -> data_data_0_split_6
I0104 20:10:33.680301   465 net.cpp:144] Setting up data_data_0_split
I0104 20:10:33.680308   465 net.cpp:151] Top shape: 1 3 300 300 (270000)
I0104 20:10:33.680313   465 net.cpp:151] Top shape: 1 3 300 300 (270000)
I0104 20:10:33.680317   465 net.cpp:151] Top shape: 1 3 300 300 (270000)
I0104 20:10:33.680321   465 net.cpp:151] Top shape: 1 3 300 300 (270000)
I0104 20:10:33.680325   465 net.cpp:151] Top shape: 1 3 300 300 (270000)
I0104 20:10:33.680330   465 net.cpp:151] Top shape: 1 3 300 300 (270000)
I0104 20:10:33.680332   465 net.cpp:151] Top shape: 1 3 300 300 (270000)
I0104 20:10:33.680336   465 net.cpp:159] Memory required for data: 8640004
I0104 20:10:33.680339   465 layer_factory.hpp:77] Creating layer conv1_1
I0104 20:10:33.680352   465 net.cpp:94] Creating Layer conv1_1
I0104 20:10:33.680357   465 net.cpp:435] conv1_1 <- data_data_0_split_0
I0104 20:10:33.680363   465 net.cpp:409] conv1_1 -> conv1_1
I0104 20:10:33.680780   465 net.cpp:144] Setting up conv1_1
I0104 20:10:33.680788   465 net.cpp:151] Top shape: 1 64 300 300 (5760000)
I0104 20:10:33.680792   465 net.cpp:159] Memory required for data: 31680004
I0104 20:10:33.680810   465 layer_factory.hpp:77] Creating layer relu1_1
I0104 20:10:33.680816   465 net.cpp:94] Creating Layer relu1_1
I0104 20:10:33.680819   465 net.cpp:435] relu1_1 <- conv1_1
I0104 20:10:33.680824   465 net.cpp:396] relu1_1 -> conv1_1 (in-place)
I0104 20:10:33.680830   465 net.cpp:144] Setting up relu1_1
I0104 20:10:33.680833   465 net.cpp:151] Top shape: 1 64 300 300 (5760000)
I0104 20:10:33.680837   465 net.cpp:159] Memory required for data: 54720004
I0104 20:10:33.680840   465 layer_factory.hpp:77] Creating layer conv1_2
I0104 20:10:33.680847   465 net.cpp:94] Creating Layer conv1_2
I0104 20:10:33.680850   465 net.cpp:435] conv1_2 <- conv1_1
I0104 20:10:33.680855   465 net.cpp:409] conv1_2 -> conv1_2
I0104 20:10:33.681305   465 net.cpp:144] Setting up conv1_2
I0104 20:10:33.681314   465 net.cpp:151] Top shape: 1 64 300 300 (5760000)
I0104 20:10:33.681319   465 net.cpp:159] Memory required for data: 77760004
I0104 20:10:33.681325   465 layer_factory.hpp:77] Creating layer relu1_2
I0104 20:10:33.681330   465 net.cpp:94] Creating Layer relu1_2
I0104 20:10:33.681334   465 net.cpp:435] relu1_2 <- conv1_2
I0104 20:10:33.681339   465 net.cpp:396] relu1_2 -> conv1_2 (in-place)
I0104 20:10:33.681344   465 net.cpp:144] Setting up relu1_2
I0104 20:10:33.681345   465 net.cpp:151] Top shape: 1 64 300 300 (5760000)
I0104 20:10:33.681350   465 net.cpp:159] Memory required for data: 100800004
I0104 20:10:33.681354   465 layer_factory.hpp:77] Creating layer pool1
I0104 20:10:33.681358   465 net.cpp:94] Creating Layer pool1
I0104 20:10:33.681361   465 net.cpp:435] pool1 <- conv1_2
I0104 20:10:33.681365   465 net.cpp:409] pool1 -> pool1
I0104 20:10:33.681397   465 net.cpp:144] Setting up pool1
I0104 20:10:33.681401   465 net.cpp:151] Top shape: 1 64 150 150 (1440000)
I0104 20:10:33.681406   465 net.cpp:159] Memory required for data: 106560004
I0104 20:10:33.681408   465 layer_factory.hpp:77] Creating layer conv2_1
I0104 20:10:33.681417   465 net.cpp:94] Creating Layer conv2_1
I0104 20:10:33.681422   465 net.cpp:435] conv2_1 <- pool1
I0104 20:10:33.681427   465 net.cpp:409] conv2_1 -> conv2_1
I0104 20:10:33.682049   465 net.cpp:144] Setting up conv2_1
I0104 20:10:33.682056   465 net.cpp:151] Top shape: 1 128 150 150 (2880000)
I0104 20:10:33.682061   465 net.cpp:159] Memory required for data: 118080004
I0104 20:10:33.682068   465 layer_factory.hpp:77] Creating layer relu2_1
I0104 20:10:33.682073   465 net.cpp:94] Creating Layer relu2_1
I0104 20:10:33.682077   465 net.cpp:435] relu2_1 <- conv2_1
I0104 20:10:33.682081   465 net.cpp:396] relu2_1 -> conv2_1 (in-place)
I0104 20:10:33.682086   465 net.cpp:144] Setting up relu2_1
I0104 20:10:33.682090   465 net.cpp:151] Top shape: 1 128 150 150 (2880000)
I0104 20:10:33.682094   465 net.cpp:159] Memory required for data: 129600004
I0104 20:10:33.682097   465 layer_factory.hpp:77] Creating layer conv2_2
I0104 20:10:33.682103   465 net.cpp:94] Creating Layer conv2_2
I0104 20:10:33.682106   465 net.cpp:435] conv2_2 <- conv2_1
I0104 20:10:33.682111   465 net.cpp:409] conv2_2 -> conv2_2
I0104 20:10:33.683311   465 net.cpp:144] Setting up conv2_2
I0104 20:10:33.683320   465 net.cpp:151] Top shape: 1 128 150 150 (2880000)
I0104 20:10:33.683324   465 net.cpp:159] Memory required for data: 141120004
I0104 20:10:33.683331   465 layer_factory.hpp:77] Creating layer relu2_2
I0104 20:10:33.683336   465 net.cpp:94] Creating Layer relu2_2
I0104 20:10:33.683338   465 net.cpp:435] relu2_2 <- conv2_2
I0104 20:10:33.683342   465 net.cpp:396] relu2_2 -> conv2_2 (in-place)
I0104 20:10:33.683347   465 net.cpp:144] Setting up relu2_2
I0104 20:10:33.683351   465 net.cpp:151] Top shape: 1 128 150 150 (2880000)
I0104 20:10:33.683354   465 net.cpp:159] Memory required for data: 152640004
I0104 20:10:33.683357   465 layer_factory.hpp:77] Creating layer pool2
I0104 20:10:33.683362   465 net.cpp:94] Creating Layer pool2
I0104 20:10:33.683365   465 net.cpp:435] pool2 <- conv2_2
I0104 20:10:33.683370   465 net.cpp:409] pool2 -> pool2
I0104 20:10:33.683400   465 net.cpp:144] Setting up pool2
I0104 20:10:33.683406   465 net.cpp:151] Top shape: 1 128 75 75 (720000)
I0104 20:10:33.683410   465 net.cpp:159] Memory required for data: 155520004
I0104 20:10:33.683413   465 layer_factory.hpp:77] Creating layer conv3_1
I0104 20:10:33.683420   465 net.cpp:94] Creating Layer conv3_1
I0104 20:10:33.683423   465 net.cpp:435] conv3_1 <- pool2
I0104 20:10:33.683429   465 net.cpp:409] conv3_1 -> conv3_1
I0104 20:10:33.686575   465 net.cpp:144] Setting up conv3_1
I0104 20:10:33.686586   465 net.cpp:151] Top shape: 1 256 75 75 (1440000)
I0104 20:10:33.686591   465 net.cpp:159] Memory required for data: 161280004
I0104 20:10:33.686599   465 layer_factory.hpp:77] Creating layer relu3_1
I0104 20:10:33.686604   465 net.cpp:94] Creating Layer relu3_1
I0104 20:10:33.686609   465 net.cpp:435] relu3_1 <- conv3_1
I0104 20:10:33.686612   465 net.cpp:396] relu3_1 -> conv3_1 (in-place)
I0104 20:10:33.686619   465 net.cpp:144] Setting up relu3_1
I0104 20:10:33.686622   465 net.cpp:151] Top shape: 1 256 75 75 (1440000)
I0104 20:10:33.686627   465 net.cpp:159] Memory required for data: 167040004
I0104 20:10:33.686630   465 layer_factory.hpp:77] Creating layer conv3_2
I0104 20:10:33.686637   465 net.cpp:94] Creating Layer conv3_2
I0104 20:10:33.686640   465 net.cpp:435] conv3_2 <- conv3_1
I0104 20:10:33.686645   465 net.cpp:409] conv3_2 -> conv3_2
I0104 20:10:33.691532   465 net.cpp:144] Setting up conv3_2
I0104 20:10:33.691543   465 net.cpp:151] Top shape: 1 256 75 75 (1440000)
I0104 20:10:33.691550   465 net.cpp:159] Memory required for data: 172800004
I0104 20:10:33.691555   465 layer_factory.hpp:77] Creating layer relu3_2
I0104 20:10:33.691560   465 net.cpp:94] Creating Layer relu3_2
I0104 20:10:33.691565   465 net.cpp:435] relu3_2 <- conv3_2
I0104 20:10:33.691570   465 net.cpp:396] relu3_2 -> conv3_2 (in-place)
I0104 20:10:33.691576   465 net.cpp:144] Setting up relu3_2
I0104 20:10:33.691578   465 net.cpp:151] Top shape: 1 256 75 75 (1440000)
I0104 20:10:33.691582   465 net.cpp:159] Memory required for data: 178560004
I0104 20:10:33.691586   465 layer_factory.hpp:77] Creating layer conv3_3
I0104 20:10:33.691593   465 net.cpp:94] Creating Layer conv3_3
I0104 20:10:33.691596   465 net.cpp:435] conv3_3 <- conv3_2
I0104 20:10:33.691601   465 net.cpp:409] conv3_3 -> conv3_3
I0104 20:10:33.696534   465 net.cpp:144] Setting up conv3_3
I0104 20:10:33.696545   465 net.cpp:151] Top shape: 1 256 75 75 (1440000)
I0104 20:10:33.696552   465 net.cpp:159] Memory required for data: 184320004
I0104 20:10:33.696558   465 layer_factory.hpp:77] Creating layer relu3_3
I0104 20:10:33.696563   465 net.cpp:94] Creating Layer relu3_3
I0104 20:10:33.696568   465 net.cpp:435] relu3_3 <- conv3_3
I0104 20:10:33.696571   465 net.cpp:396] relu3_3 -> conv3_3 (in-place)
I0104 20:10:33.696578   465 net.cpp:144] Setting up relu3_3
I0104 20:10:33.696581   465 net.cpp:151] Top shape: 1 256 75 75 (1440000)
I0104 20:10:33.696585   465 net.cpp:159] Memory required for data: 190080004
I0104 20:10:33.696588   465 layer_factory.hpp:77] Creating layer pool3
I0104 20:10:33.696593   465 net.cpp:94] Creating Layer pool3
I0104 20:10:33.696596   465 net.cpp:435] pool3 <- conv3_3
I0104 20:10:33.696601   465 net.cpp:409] pool3 -> pool3
I0104 20:10:33.696630   465 net.cpp:144] Setting up pool3
I0104 20:10:33.696635   465 net.cpp:151] Top shape: 1 256 38 38 (369664)
I0104 20:10:33.696638   465 net.cpp:159] Memory required for data: 191558660
I0104 20:10:33.696642   465 layer_factory.hpp:77] Creating layer conv4_1
I0104 20:10:33.696650   465 net.cpp:94] Creating Layer conv4_1
I0104 20:10:33.696652   465 net.cpp:435] conv4_1 <- pool3
I0104 20:10:33.696657   465 net.cpp:409] conv4_1 -> conv4_1
I0104 20:10:33.705857   465 net.cpp:144] Setting up conv4_1
I0104 20:10:33.705868   465 net.cpp:151] Top shape: 1 512 38 38 (739328)
I0104 20:10:33.705873   465 net.cpp:159] Memory required for data: 194515972
I0104 20:10:33.705879   465 layer_factory.hpp:77] Creating layer relu4_1
I0104 20:10:33.705885   465 net.cpp:94] Creating Layer relu4_1
I0104 20:10:33.705889   465 net.cpp:435] relu4_1 <- conv4_1
I0104 20:10:33.705893   465 net.cpp:396] relu4_1 -> conv4_1 (in-place)
I0104 20:10:33.705900   465 net.cpp:144] Setting up relu4_1
I0104 20:10:33.705904   465 net.cpp:151] Top shape: 1 512 38 38 (739328)
I0104 20:10:33.705907   465 net.cpp:159] Memory required for data: 197473284
I0104 20:10:33.705910   465 layer_factory.hpp:77] Creating layer conv4_2
I0104 20:10:33.705917   465 net.cpp:94] Creating Layer conv4_2
I0104 20:10:33.705920   465 net.cpp:435] conv4_2 <- conv4_1
I0104 20:10:33.705925   465 net.cpp:409] conv4_2 -> conv4_2
I0104 20:10:33.724184   465 net.cpp:144] Setting up conv4_2
I0104 20:10:33.724198   465 net.cpp:151] Top shape: 1 512 38 38 (739328)
I0104 20:10:33.724205   465 net.cpp:159] Memory required for data: 200430596
I0104 20:10:33.724215   465 layer_factory.hpp:77] Creating layer relu4_2
I0104 20:10:33.724222   465 net.cpp:94] Creating Layer relu4_2
I0104 20:10:33.724225   465 net.cpp:435] relu4_2 <- conv4_2
I0104 20:10:33.724231   465 net.cpp:396] relu4_2 -> conv4_2 (in-place)
I0104 20:10:33.724241   465 net.cpp:144] Setting up relu4_2
I0104 20:10:33.724243   465 net.cpp:151] Top shape: 1 512 38 38 (739328)
I0104 20:10:33.724247   465 net.cpp:159] Memory required for data: 203387908
I0104 20:10:33.724251   465 layer_factory.hpp:77] Creating layer conv4_3
I0104 20:10:33.724258   465 net.cpp:94] Creating Layer conv4_3
I0104 20:10:33.724262   465 net.cpp:435] conv4_3 <- conv4_2
I0104 20:10:33.724267   465 net.cpp:409] conv4_3 -> conv4_3
I0104 20:10:33.742394   465 net.cpp:144] Setting up conv4_3
I0104 20:10:33.742408   465 net.cpp:151] Top shape: 1 512 38 38 (739328)
I0104 20:10:33.742415   465 net.cpp:159] Memory required for data: 206345220
I0104 20:10:33.742424   465 layer_factory.hpp:77] Creating layer conv4_3_bn
I0104 20:10:33.742434   465 net.cpp:94] Creating Layer conv4_3_bn
I0104 20:10:33.742437   465 net.cpp:435] conv4_3_bn <- conv4_3
I0104 20:10:33.742444   465 net.cpp:396] conv4_3_bn -> conv4_3 (in-place)
I0104 20:10:33.742933   465 net.cpp:144] Setting up conv4_3_bn
I0104 20:10:33.742941   465 net.cpp:151] Top shape: 1 512 38 38 (739328)
I0104 20:10:33.742946   465 net.cpp:159] Memory required for data: 209302532
I0104 20:10:33.742955   465 layer_factory.hpp:77] Creating layer relu4_3
I0104 20:10:33.742960   465 net.cpp:94] Creating Layer relu4_3
I0104 20:10:33.742964   465 net.cpp:435] relu4_3 <- conv4_3
I0104 20:10:33.742969   465 net.cpp:396] relu4_3 -> conv4_3 (in-place)
I0104 20:10:33.742974   465 net.cpp:144] Setting up relu4_3
I0104 20:10:33.742977   465 net.cpp:151] Top shape: 1 512 38 38 (739328)
I0104 20:10:33.742981   465 net.cpp:159] Memory required for data: 212259844
I0104 20:10:33.742985   465 layer_factory.hpp:77] Creating layer conv4_3_relu4_3_0_split
I0104 20:10:33.742990   465 net.cpp:94] Creating Layer conv4_3_relu4_3_0_split
I0104 20:10:33.742993   465 net.cpp:435] conv4_3_relu4_3_0_split <- conv4_3
I0104 20:10:33.742997   465 net.cpp:409] conv4_3_relu4_3_0_split -> conv4_3_relu4_3_0_split_0
I0104 20:10:33.743005   465 net.cpp:409] conv4_3_relu4_3_0_split -> conv4_3_relu4_3_0_split_1
I0104 20:10:33.743010   465 net.cpp:409] conv4_3_relu4_3_0_split -> conv4_3_relu4_3_0_split_2
I0104 20:10:33.743014   465 net.cpp:409] conv4_3_relu4_3_0_split -> conv4_3_relu4_3_0_split_3
I0104 20:10:33.743059   465 net.cpp:144] Setting up conv4_3_relu4_3_0_split
I0104 20:10:33.743065   465 net.cpp:151] Top shape: 1 512 38 38 (739328)
I0104 20:10:33.743069   465 net.cpp:151] Top shape: 1 512 38 38 (739328)
I0104 20:10:33.743073   465 net.cpp:151] Top shape: 1 512 38 38 (739328)
I0104 20:10:33.743077   465 net.cpp:151] Top shape: 1 512 38 38 (739328)
I0104 20:10:33.743080   465 net.cpp:159] Memory required for data: 224089092
I0104 20:10:33.743084   465 layer_factory.hpp:77] Creating layer pool4
I0104 20:10:33.743090   465 net.cpp:94] Creating Layer pool4
I0104 20:10:33.743093   465 net.cpp:435] pool4 <- conv4_3_relu4_3_0_split_0
I0104 20:10:33.743098   465 net.cpp:409] pool4 -> pool4
I0104 20:10:33.743125   465 net.cpp:144] Setting up pool4
I0104 20:10:33.743130   465 net.cpp:151] Top shape: 1 512 19 19 (184832)
I0104 20:10:33.743135   465 net.cpp:159] Memory required for data: 224828420
I0104 20:10:33.743139   465 layer_factory.hpp:77] Creating layer conv5_1
I0104 20:10:33.743146   465 net.cpp:94] Creating Layer conv5_1
I0104 20:10:33.743149   465 net.cpp:435] conv5_1 <- pool4
I0104 20:10:33.743155   465 net.cpp:409] conv5_1 -> conv5_1
I0104 20:10:33.761437   465 net.cpp:144] Setting up conv5_1
I0104 20:10:33.761452   465 net.cpp:151] Top shape: 1 512 19 19 (184832)
I0104 20:10:33.761459   465 net.cpp:159] Memory required for data: 225567748
I0104 20:10:33.761467   465 layer_factory.hpp:77] Creating layer relu5_1
I0104 20:10:33.761474   465 net.cpp:94] Creating Layer relu5_1
I0104 20:10:33.761479   465 net.cpp:435] relu5_1 <- conv5_1
I0104 20:10:33.761484   465 net.cpp:396] relu5_1 -> conv5_1 (in-place)
I0104 20:10:33.761492   465 net.cpp:144] Setting up relu5_1
I0104 20:10:33.761495   465 net.cpp:151] Top shape: 1 512 19 19 (184832)
I0104 20:10:33.761499   465 net.cpp:159] Memory required for data: 226307076
I0104 20:10:33.761502   465 layer_factory.hpp:77] Creating layer conv5_2
I0104 20:10:33.761510   465 net.cpp:94] Creating Layer conv5_2
I0104 20:10:33.761513   465 net.cpp:435] conv5_2 <- conv5_1
I0104 20:10:33.761518   465 net.cpp:409] conv5_2 -> conv5_2
I0104 20:10:33.779597   465 net.cpp:144] Setting up conv5_2
I0104 20:10:33.779610   465 net.cpp:151] Top shape: 1 512 19 19 (184832)
I0104 20:10:33.779616   465 net.cpp:159] Memory required for data: 227046404
I0104 20:10:33.779624   465 layer_factory.hpp:77] Creating layer relu5_2
I0104 20:10:33.779631   465 net.cpp:94] Creating Layer relu5_2
I0104 20:10:33.779635   465 net.cpp:435] relu5_2 <- conv5_2
I0104 20:10:33.779641   465 net.cpp:396] relu5_2 -> conv5_2 (in-place)
I0104 20:10:33.779649   465 net.cpp:144] Setting up relu5_2
I0104 20:10:33.779651   465 net.cpp:151] Top shape: 1 512 19 19 (184832)
I0104 20:10:33.779655   465 net.cpp:159] Memory required for data: 227785732
I0104 20:10:33.779659   465 layer_factory.hpp:77] Creating layer conv5_3
I0104 20:10:33.779668   465 net.cpp:94] Creating Layer conv5_3
I0104 20:10:33.779671   465 net.cpp:435] conv5_3 <- conv5_2
I0104 20:10:33.779676   465 net.cpp:409] conv5_3 -> conv5_3
I0104 20:10:33.797926   465 net.cpp:144] Setting up conv5_3
I0104 20:10:33.797940   465 net.cpp:151] Top shape: 1 512 19 19 (184832)
I0104 20:10:33.797947   465 net.cpp:159] Memory required for data: 228525060
I0104 20:10:33.797955   465 layer_factory.hpp:77] Creating layer relu5_3
I0104 20:10:33.797962   465 net.cpp:94] Creating Layer relu5_3
I0104 20:10:33.797967   465 net.cpp:435] relu5_3 <- conv5_3
I0104 20:10:33.797972   465 net.cpp:396] relu5_3 -> conv5_3 (in-place)
I0104 20:10:33.797981   465 net.cpp:144] Setting up relu5_3
I0104 20:10:33.797983   465 net.cpp:151] Top shape: 1 512 19 19 (184832)
I0104 20:10:33.797987   465 net.cpp:159] Memory required for data: 229264388
I0104 20:10:33.797991   465 layer_factory.hpp:77] Creating layer pool5
I0104 20:10:33.797996   465 net.cpp:94] Creating Layer pool5
I0104 20:10:33.797999   465 net.cpp:435] pool5 <- conv5_3
I0104 20:10:33.798003   465 net.cpp:409] pool5 -> pool5
I0104 20:10:33.798038   465 net.cpp:144] Setting up pool5
I0104 20:10:33.798041   465 net.cpp:151] Top shape: 1 512 19 19 (184832)
I0104 20:10:33.798045   465 net.cpp:159] Memory required for data: 230003716
I0104 20:10:33.798049   465 layer_factory.hpp:77] Creating layer fc6_682
I0104 20:10:33.798058   465 net.cpp:94] Creating Layer fc6_682
I0104 20:10:33.798061   465 net.cpp:435] fc6_682 <- pool5
I0104 20:10:33.798065   465 net.cpp:409] fc6_682 -> fc6_682
I0104 20:10:33.822165   465 net.cpp:144] Setting up fc6_682
I0104 20:10:33.822181   465 net.cpp:151] Top shape: 1 682 19 19 (246202)
I0104 20:10:33.822188   465 net.cpp:159] Memory required for data: 230988524
I0104 20:10:33.822199   465 layer_factory.hpp:77] Creating layer relu6
I0104 20:10:33.822206   465 net.cpp:94] Creating Layer relu6
I0104 20:10:33.822211   465 net.cpp:435] relu6 <- fc6_682
I0104 20:10:33.822216   465 net.cpp:396] relu6 -> fc6_682 (in-place)
I0104 20:10:33.822227   465 net.cpp:144] Setting up relu6
I0104 20:10:33.822229   465 net.cpp:151] Top shape: 1 682 19 19 (246202)
I0104 20:10:33.822233   465 net.cpp:159] Memory required for data: 231973332
I0104 20:10:33.822237   465 layer_factory.hpp:77] Creating layer fc7_682
I0104 20:10:33.822244   465 net.cpp:94] Creating Layer fc7_682
I0104 20:10:33.822248   465 net.cpp:435] fc7_682 <- fc6_682
I0104 20:10:33.822252   465 net.cpp:409] fc7_682 -> fc7_682
I0104 20:10:33.827899   465 net.cpp:144] Setting up fc7_682
I0104 20:10:33.827913   465 net.cpp:151] Top shape: 1 1024 19 19 (369664)
I0104 20:10:33.827919   465 net.cpp:159] Memory required for data: 233451988
I0104 20:10:33.827926   465 layer_factory.hpp:77] Creating layer relu7
I0104 20:10:33.827932   465 net.cpp:94] Creating Layer relu7
I0104 20:10:33.827936   465 net.cpp:435] relu7 <- fc7_682
I0104 20:10:33.827941   465 net.cpp:396] relu7 -> fc7_682 (in-place)
I0104 20:10:33.827947   465 net.cpp:144] Setting up relu7
I0104 20:10:33.827950   465 net.cpp:151] Top shape: 1 1024 19 19 (369664)
I0104 20:10:33.827955   465 net.cpp:159] Memory required for data: 234930644
I0104 20:10:33.827958   465 layer_factory.hpp:77] Creating layer fc7_682_relu7_0_split
I0104 20:10:33.827963   465 net.cpp:94] Creating Layer fc7_682_relu7_0_split
I0104 20:10:33.827966   465 net.cpp:435] fc7_682_relu7_0_split <- fc7_682
I0104 20:10:33.827971   465 net.cpp:409] fc7_682_relu7_0_split -> fc7_682_relu7_0_split_0
I0104 20:10:33.827976   465 net.cpp:409] fc7_682_relu7_0_split -> fc7_682_relu7_0_split_1
I0104 20:10:33.827981   465 net.cpp:409] fc7_682_relu7_0_split -> fc7_682_relu7_0_split_2
I0104 20:10:33.827986   465 net.cpp:409] fc7_682_relu7_0_split -> fc7_682_relu7_0_split_3
I0104 20:10:33.828034   465 net.cpp:144] Setting up fc7_682_relu7_0_split
I0104 20:10:33.828039   465 net.cpp:151] Top shape: 1 1024 19 19 (369664)
I0104 20:10:33.828044   465 net.cpp:151] Top shape: 1 1024 19 19 (369664)
I0104 20:10:33.828048   465 net.cpp:151] Top shape: 1 1024 19 19 (369664)
I0104 20:10:33.828052   465 net.cpp:151] Top shape: 1 1024 19 19 (369664)
I0104 20:10:33.828055   465 net.cpp:159] Memory required for data: 240845268
I0104 20:10:33.828058   465 layer_factory.hpp:77] Creating layer conv6_1
I0104 20:10:33.828068   465 net.cpp:94] Creating Layer conv6_1
I0104 20:10:33.828071   465 net.cpp:435] conv6_1 <- fc7_682_relu7_0_split_0
I0104 20:10:33.828078   465 net.cpp:409] conv6_1 -> conv6_1
I0104 20:10:33.830360   465 net.cpp:144] Setting up conv6_1
I0104 20:10:33.830371   465 net.cpp:151] Top shape: 1 256 19 19 (92416)
I0104 20:10:33.830376   465 net.cpp:159] Memory required for data: 241214932
I0104 20:10:33.830384   465 layer_factory.hpp:77] Creating layer conv6_1_relu
I0104 20:10:33.830389   465 net.cpp:94] Creating Layer conv6_1_relu
I0104 20:10:33.830392   465 net.cpp:435] conv6_1_relu <- conv6_1
I0104 20:10:33.830396   465 net.cpp:396] conv6_1_relu -> conv6_1 (in-place)
I0104 20:10:33.830404   465 net.cpp:144] Setting up conv6_1_relu
I0104 20:10:33.830405   465 net.cpp:151] Top shape: 1 256 19 19 (92416)
I0104 20:10:33.830410   465 net.cpp:159] Memory required for data: 241584596
I0104 20:10:33.830413   465 layer_factory.hpp:77] Creating layer conv6_2
I0104 20:10:33.830420   465 net.cpp:94] Creating Layer conv6_2
I0104 20:10:33.830423   465 net.cpp:435] conv6_2 <- conv6_1
I0104 20:10:33.830428   465 net.cpp:409] conv6_2 -> conv6_2
I0104 20:10:33.839583   465 net.cpp:144] Setting up conv6_2
I0104 20:10:33.839594   465 net.cpp:151] Top shape: 1 512 10 10 (51200)
I0104 20:10:33.839601   465 net.cpp:159] Memory required for data: 241789396
I0104 20:10:33.839607   465 layer_factory.hpp:77] Creating layer conv6_2_relu
I0104 20:10:33.839612   465 net.cpp:94] Creating Layer conv6_2_relu
I0104 20:10:33.839617   465 net.cpp:435] conv6_2_relu <- conv6_2
I0104 20:10:33.839622   465 net.cpp:396] conv6_2_relu -> conv6_2 (in-place)
I0104 20:10:33.839627   465 net.cpp:144] Setting up conv6_2_relu
I0104 20:10:33.839632   465 net.cpp:151] Top shape: 1 512 10 10 (51200)
I0104 20:10:33.839635   465 net.cpp:159] Memory required for data: 241994196
I0104 20:10:33.839638   465 layer_factory.hpp:77] Creating layer conv6_2_conv6_2_relu_0_split
I0104 20:10:33.839643   465 net.cpp:94] Creating Layer conv6_2_conv6_2_relu_0_split
I0104 20:10:33.839646   465 net.cpp:435] conv6_2_conv6_2_relu_0_split <- conv6_2
I0104 20:10:33.839651   465 net.cpp:409] conv6_2_conv6_2_relu_0_split -> conv6_2_conv6_2_relu_0_split_0
I0104 20:10:33.839656   465 net.cpp:409] conv6_2_conv6_2_relu_0_split -> conv6_2_conv6_2_relu_0_split_1
I0104 20:10:33.839663   465 net.cpp:409] conv6_2_conv6_2_relu_0_split -> conv6_2_conv6_2_relu_0_split_2
I0104 20:10:33.839668   465 net.cpp:409] conv6_2_conv6_2_relu_0_split -> conv6_2_conv6_2_relu_0_split_3
I0104 20:10:33.839725   465 net.cpp:144] Setting up conv6_2_conv6_2_relu_0_split
I0104 20:10:33.839728   465 net.cpp:151] Top shape: 1 512 10 10 (51200)
I0104 20:10:33.839732   465 net.cpp:151] Top shape: 1 512 10 10 (51200)
I0104 20:10:33.839736   465 net.cpp:151] Top shape: 1 512 10 10 (51200)
I0104 20:10:33.839740   465 net.cpp:151] Top shape: 1 512 10 10 (51200)
I0104 20:10:33.839745   465 net.cpp:159] Memory required for data: 242813396
I0104 20:10:33.839751   465 layer_factory.hpp:77] Creating layer conv7_1
I0104 20:10:33.839761   465 net.cpp:94] Creating Layer conv7_1
I0104 20:10:33.839767   465 net.cpp:435] conv7_1 <- conv6_2_conv6_2_relu_0_split_0
I0104 20:10:33.839776   465 net.cpp:409] conv7_1 -> conv7_1
I0104 20:10:33.840354   465 net.cpp:144] Setting up conv7_1
I0104 20:10:33.840363   465 net.cpp:151] Top shape: 1 128 10 10 (12800)
I0104 20:10:33.840366   465 net.cpp:159] Memory required for data: 242864596
I0104 20:10:33.840373   465 layer_factory.hpp:77] Creating layer conv7_1_relu
I0104 20:10:33.840378   465 net.cpp:94] Creating Layer conv7_1_relu
I0104 20:10:33.840380   465 net.cpp:435] conv7_1_relu <- conv7_1
I0104 20:10:33.840384   465 net.cpp:396] conv7_1_relu -> conv7_1 (in-place)
I0104 20:10:33.840390   465 net.cpp:144] Setting up conv7_1_relu
I0104 20:10:33.840394   465 net.cpp:151] Top shape: 1 128 10 10 (12800)
I0104 20:10:33.840397   465 net.cpp:159] Memory required for data: 242915796
I0104 20:10:33.840400   465 layer_factory.hpp:77] Creating layer conv7_2
I0104 20:10:33.840406   465 net.cpp:94] Creating Layer conv7_2
I0104 20:10:33.840410   465 net.cpp:435] conv7_2 <- conv7_1
I0104 20:10:33.840415   465 net.cpp:409] conv7_2 -> conv7_2
I0104 20:10:33.843474   465 net.cpp:144] Setting up conv7_2
I0104 20:10:33.843484   465 net.cpp:151] Top shape: 1 256 5 5 (6400)
I0104 20:10:33.843490   465 net.cpp:159] Memory required for data: 242941396
I0104 20:10:33.843497   465 layer_factory.hpp:77] Creating layer conv7_2_relu
I0104 20:10:33.843502   465 net.cpp:94] Creating Layer conv7_2_relu
I0104 20:10:33.843505   465 net.cpp:435] conv7_2_relu <- conv7_2
I0104 20:10:33.843510   465 net.cpp:396] conv7_2_relu -> conv7_2 (in-place)
I0104 20:10:33.843516   465 net.cpp:144] Setting up conv7_2_relu
I0104 20:10:33.843519   465 net.cpp:151] Top shape: 1 256 5 5 (6400)
I0104 20:10:33.843523   465 net.cpp:159] Memory required for data: 242966996
I0104 20:10:33.843526   465 layer_factory.hpp:77] Creating layer conv7_2_conv7_2_relu_0_split
I0104 20:10:33.843531   465 net.cpp:94] Creating Layer conv7_2_conv7_2_relu_0_split
I0104 20:10:33.843534   465 net.cpp:435] conv7_2_conv7_2_relu_0_split <- conv7_2
I0104 20:10:33.843539   465 net.cpp:409] conv7_2_conv7_2_relu_0_split -> conv7_2_conv7_2_relu_0_split_0
I0104 20:10:33.843544   465 net.cpp:409] conv7_2_conv7_2_relu_0_split -> conv7_2_conv7_2_relu_0_split_1
I0104 20:10:33.843549   465 net.cpp:409] conv7_2_conv7_2_relu_0_split -> conv7_2_conv7_2_relu_0_split_2
I0104 20:10:33.843554   465 net.cpp:409] conv7_2_conv7_2_relu_0_split -> conv7_2_conv7_2_relu_0_split_3
I0104 20:10:33.843601   465 net.cpp:144] Setting up conv7_2_conv7_2_relu_0_split
I0104 20:10:33.843608   465 net.cpp:151] Top shape: 1 256 5 5 (6400)
I0104 20:10:33.843616   465 net.cpp:151] Top shape: 1 256 5 5 (6400)
I0104 20:10:33.843621   465 net.cpp:151] Top shape: 1 256 5 5 (6400)
I0104 20:10:33.843624   465 net.cpp:151] Top shape: 1 256 5 5 (6400)
I0104 20:10:33.843628   465 net.cpp:159] Memory required for data: 243069396
I0104 20:10:33.843631   465 layer_factory.hpp:77] Creating layer conv8_1
I0104 20:10:33.843639   465 net.cpp:94] Creating Layer conv8_1
I0104 20:10:33.843642   465 net.cpp:435] conv8_1 <- conv7_2_conv7_2_relu_0_split_0
I0104 20:10:33.843648   465 net.cpp:409] conv8_1 -> conv8_1
I0104 20:10:33.844043   465 net.cpp:144] Setting up conv8_1
I0104 20:10:33.844050   465 net.cpp:151] Top shape: 1 128 5 5 (3200)
I0104 20:10:33.844055   465 net.cpp:159] Memory required for data: 243082196
I0104 20:10:33.844061   465 layer_factory.hpp:77] Creating layer conv8_1_relu
I0104 20:10:33.844066   465 net.cpp:94] Creating Layer conv8_1_relu
I0104 20:10:33.844069   465 net.cpp:435] conv8_1_relu <- conv8_1
I0104 20:10:33.844074   465 net.cpp:396] conv8_1_relu -> conv8_1 (in-place)
I0104 20:10:33.844079   465 net.cpp:144] Setting up conv8_1_relu
I0104 20:10:33.844082   465 net.cpp:151] Top shape: 1 128 5 5 (3200)
I0104 20:10:33.844086   465 net.cpp:159] Memory required for data: 243094996
I0104 20:10:33.844089   465 layer_factory.hpp:77] Creating layer conv8_2
I0104 20:10:33.844095   465 net.cpp:94] Creating Layer conv8_2
I0104 20:10:33.844099   465 net.cpp:435] conv8_2 <- conv8_1
I0104 20:10:33.844105   465 net.cpp:409] conv8_2 -> conv8_2
I0104 20:10:33.847249   465 net.cpp:144] Setting up conv8_2
I0104 20:10:33.847263   465 net.cpp:151] Top shape: 1 256 3 3 (2304)
I0104 20:10:33.847271   465 net.cpp:159] Memory required for data: 243104212
I0104 20:10:33.847281   465 layer_factory.hpp:77] Creating layer conv8_2_relu
I0104 20:10:33.847290   465 net.cpp:94] Creating Layer conv8_2_relu
I0104 20:10:33.847295   465 net.cpp:435] conv8_2_relu <- conv8_2
I0104 20:10:33.847302   465 net.cpp:396] conv8_2_relu -> conv8_2 (in-place)
I0104 20:10:33.847312   465 net.cpp:144] Setting up conv8_2_relu
I0104 20:10:33.847317   465 net.cpp:151] Top shape: 1 256 3 3 (2304)
I0104 20:10:33.847322   465 net.cpp:159] Memory required for data: 243113428
I0104 20:10:33.847326   465 layer_factory.hpp:77] Creating layer conv8_2_conv8_2_relu_0_split
I0104 20:10:33.847330   465 net.cpp:94] Creating Layer conv8_2_conv8_2_relu_0_split
I0104 20:10:33.847333   465 net.cpp:435] conv8_2_conv8_2_relu_0_split <- conv8_2
I0104 20:10:33.847338   465 net.cpp:409] conv8_2_conv8_2_relu_0_split -> conv8_2_conv8_2_relu_0_split_0
I0104 20:10:33.847344   465 net.cpp:409] conv8_2_conv8_2_relu_0_split -> conv8_2_conv8_2_relu_0_split_1
I0104 20:10:33.847350   465 net.cpp:409] conv8_2_conv8_2_relu_0_split -> conv8_2_conv8_2_relu_0_split_2
I0104 20:10:33.847358   465 net.cpp:409] conv8_2_conv8_2_relu_0_split -> conv8_2_conv8_2_relu_0_split_3
I0104 20:10:33.847424   465 net.cpp:144] Setting up conv8_2_conv8_2_relu_0_split
I0104 20:10:33.847432   465 net.cpp:151] Top shape: 1 256 3 3 (2304)
I0104 20:10:33.847437   465 net.cpp:151] Top shape: 1 256 3 3 (2304)
I0104 20:10:33.847440   465 net.cpp:151] Top shape: 1 256 3 3 (2304)
I0104 20:10:33.847445   465 net.cpp:151] Top shape: 1 256 3 3 (2304)
I0104 20:10:33.847448   465 net.cpp:159] Memory required for data: 243150292
I0104 20:10:33.847451   465 layer_factory.hpp:77] Creating layer conv9_1
I0104 20:10:33.847460   465 net.cpp:94] Creating Layer conv9_1
I0104 20:10:33.847465   465 net.cpp:435] conv9_1 <- conv8_2_conv8_2_relu_0_split_0
I0104 20:10:33.847470   465 net.cpp:409] conv9_1 -> conv9_1
I0104 20:10:33.847868   465 net.cpp:144] Setting up conv9_1
I0104 20:10:33.847875   465 net.cpp:151] Top shape: 1 128 3 3 (1152)
I0104 20:10:33.847880   465 net.cpp:159] Memory required for data: 243154900
I0104 20:10:33.847887   465 layer_factory.hpp:77] Creating layer conv9_1_relu
I0104 20:10:33.847892   465 net.cpp:94] Creating Layer conv9_1_relu
I0104 20:10:33.847894   465 net.cpp:435] conv9_1_relu <- conv9_1
I0104 20:10:33.847899   465 net.cpp:396] conv9_1_relu -> conv9_1 (in-place)
I0104 20:10:33.847904   465 net.cpp:144] Setting up conv9_1_relu
I0104 20:10:33.847908   465 net.cpp:151] Top shape: 1 128 3 3 (1152)
I0104 20:10:33.847911   465 net.cpp:159] Memory required for data: 243159508
I0104 20:10:33.847914   465 layer_factory.hpp:77] Creating layer conv9_2
I0104 20:10:33.847921   465 net.cpp:94] Creating Layer conv9_2
I0104 20:10:33.847925   465 net.cpp:435] conv9_2 <- conv9_1
I0104 20:10:33.847929   465 net.cpp:409] conv9_2 -> conv9_2
I0104 20:10:33.850975   465 net.cpp:144] Setting up conv9_2
I0104 20:10:33.850986   465 net.cpp:151] Top shape: 1 256 1 1 (256)
I0104 20:10:33.850991   465 net.cpp:159] Memory required for data: 243160532
I0104 20:10:33.850996   465 layer_factory.hpp:77] Creating layer conv9_2_relu
I0104 20:10:33.851001   465 net.cpp:94] Creating Layer conv9_2_relu
I0104 20:10:33.851006   465 net.cpp:435] conv9_2_relu <- conv9_2
I0104 20:10:33.851011   465 net.cpp:396] conv9_2_relu -> conv9_2 (in-place)
I0104 20:10:33.851016   465 net.cpp:144] Setting up conv9_2_relu
I0104 20:10:33.851019   465 net.cpp:151] Top shape: 1 256 1 1 (256)
I0104 20:10:33.851023   465 net.cpp:159] Memory required for data: 243161556
I0104 20:10:33.851027   465 layer_factory.hpp:77] Creating layer conv9_2_conv9_2_relu_0_split
I0104 20:10:33.851032   465 net.cpp:94] Creating Layer conv9_2_conv9_2_relu_0_split
I0104 20:10:33.851035   465 net.cpp:435] conv9_2_conv9_2_relu_0_split <- conv9_2
I0104 20:10:33.851039   465 net.cpp:409] conv9_2_conv9_2_relu_0_split -> conv9_2_conv9_2_relu_0_split_0
I0104 20:10:33.851045   465 net.cpp:409] conv9_2_conv9_2_relu_0_split -> conv9_2_conv9_2_relu_0_split_1
I0104 20:10:33.851050   465 net.cpp:409] conv9_2_conv9_2_relu_0_split -> conv9_2_conv9_2_relu_0_split_2
I0104 20:10:33.851087   465 net.cpp:144] Setting up conv9_2_conv9_2_relu_0_split
I0104 20:10:33.851094   465 net.cpp:151] Top shape: 1 256 1 1 (256)
I0104 20:10:33.851099   465 net.cpp:151] Top shape: 1 256 1 1 (256)
I0104 20:10:33.851102   465 net.cpp:151] Top shape: 1 256 1 1 (256)
I0104 20:10:33.851106   465 net.cpp:159] Memory required for data: 243164628
I0104 20:10:33.851109   465 layer_factory.hpp:77] Creating layer conv4_3_norm_mbox_loc
I0104 20:10:33.851117   465 net.cpp:94] Creating Layer conv4_3_norm_mbox_loc
I0104 20:10:33.851121   465 net.cpp:435] conv4_3_norm_mbox_loc <- conv4_3_relu4_3_0_split_1
I0104 20:10:33.851126   465 net.cpp:409] conv4_3_norm_mbox_loc -> conv4_3_norm_mbox_loc
I0104 20:10:33.851771   465 net.cpp:144] Setting up conv4_3_norm_mbox_loc
I0104 20:10:33.851778   465 net.cpp:151] Top shape: 1 16 38 38 (23104)
I0104 20:10:33.851799   465 net.cpp:159] Memory required for data: 243257044
I0104 20:10:33.851804   465 layer_factory.hpp:77] Creating layer conv4_3_norm_mbox_loc_perm
I0104 20:10:33.851817   465 net.cpp:94] Creating Layer conv4_3_norm_mbox_loc_perm
I0104 20:10:33.851821   465 net.cpp:435] conv4_3_norm_mbox_loc_perm <- conv4_3_norm_mbox_loc
I0104 20:10:33.851825   465 net.cpp:409] conv4_3_norm_mbox_loc_perm -> conv4_3_norm_mbox_loc_perm
I0104 20:10:33.851902   465 net.cpp:144] Setting up conv4_3_norm_mbox_loc_perm
I0104 20:10:33.851908   465 net.cpp:151] Top shape: 1 38 38 16 (23104)
I0104 20:10:33.851912   465 net.cpp:159] Memory required for data: 243349460
I0104 20:10:33.851915   465 layer_factory.hpp:77] Creating layer conv4_3_norm_mbox_loc_flat
I0104 20:10:33.851925   465 net.cpp:94] Creating Layer conv4_3_norm_mbox_loc_flat
I0104 20:10:33.851929   465 net.cpp:435] conv4_3_norm_mbox_loc_flat <- conv4_3_norm_mbox_loc_perm
I0104 20:10:33.851933   465 net.cpp:409] conv4_3_norm_mbox_loc_flat -> conv4_3_norm_mbox_loc_flat
I0104 20:10:33.851953   465 net.cpp:144] Setting up conv4_3_norm_mbox_loc_flat
I0104 20:10:33.851958   465 net.cpp:151] Top shape: 1 23104 (23104)
I0104 20:10:33.851961   465 net.cpp:159] Memory required for data: 243441876
I0104 20:10:33.851964   465 layer_factory.hpp:77] Creating layer conv4_3_norm_mbox_conf
I0104 20:10:33.851972   465 net.cpp:94] Creating Layer conv4_3_norm_mbox_conf
I0104 20:10:33.851975   465 net.cpp:435] conv4_3_norm_mbox_conf <- conv4_3_relu4_3_0_split_2
I0104 20:10:33.851980   465 net.cpp:409] conv4_3_norm_mbox_conf -> conv4_3_norm_mbox_conf
I0104 20:10:33.855556   465 net.cpp:144] Setting up conv4_3_norm_mbox_conf
I0104 20:10:33.855566   465 net.cpp:151] Top shape: 1 84 38 38 (121296)
I0104 20:10:33.855571   465 net.cpp:159] Memory required for data: 243927060
I0104 20:10:33.855578   465 layer_factory.hpp:77] Creating layer conv4_3_norm_mbox_conf_perm
I0104 20:10:33.855587   465 net.cpp:94] Creating Layer conv4_3_norm_mbox_conf_perm
I0104 20:10:33.855592   465 net.cpp:435] conv4_3_norm_mbox_conf_perm <- conv4_3_norm_mbox_conf
I0104 20:10:33.855597   465 net.cpp:409] conv4_3_norm_mbox_conf_perm -> conv4_3_norm_mbox_conf_perm
I0104 20:10:33.855677   465 net.cpp:144] Setting up conv4_3_norm_mbox_conf_perm
I0104 20:10:33.855684   465 net.cpp:151] Top shape: 1 38 38 84 (121296)
I0104 20:10:33.855687   465 net.cpp:159] Memory required for data: 244412244
I0104 20:10:33.855691   465 layer_factory.hpp:77] Creating layer conv4_3_norm_mbox_conf_flat
I0104 20:10:33.855696   465 net.cpp:94] Creating Layer conv4_3_norm_mbox_conf_flat
I0104 20:10:33.855700   465 net.cpp:435] conv4_3_norm_mbox_conf_flat <- conv4_3_norm_mbox_conf_perm
I0104 20:10:33.855703   465 net.cpp:409] conv4_3_norm_mbox_conf_flat -> conv4_3_norm_mbox_conf_flat
I0104 20:10:33.855729   465 net.cpp:144] Setting up conv4_3_norm_mbox_conf_flat
I0104 20:10:33.855733   465 net.cpp:151] Top shape: 1 121296 (121296)
I0104 20:10:33.855737   465 net.cpp:159] Memory required for data: 244897428
I0104 20:10:33.855741   465 layer_factory.hpp:77] Creating layer conv4_3_norm_mbox_priorbox
I0104 20:10:33.855752   465 net.cpp:94] Creating Layer conv4_3_norm_mbox_priorbox
I0104 20:10:33.855756   465 net.cpp:435] conv4_3_norm_mbox_priorbox <- conv4_3_relu4_3_0_split_3
I0104 20:10:33.855760   465 net.cpp:435] conv4_3_norm_mbox_priorbox <- data_data_0_split_1
I0104 20:10:33.855764   465 net.cpp:409] conv4_3_norm_mbox_priorbox -> conv4_3_norm_mbox_priorbox
I0104 20:10:33.855785   465 net.cpp:144] Setting up conv4_3_norm_mbox_priorbox
I0104 20:10:33.855792   465 net.cpp:151] Top shape: 1 2 23104 (46208)
I0104 20:10:33.855796   465 net.cpp:159] Memory required for data: 245082260
I0104 20:10:33.855799   465 layer_factory.hpp:77] Creating layer fc7_mbox_loc
I0104 20:10:33.855808   465 net.cpp:94] Creating Layer fc7_mbox_loc
I0104 20:10:33.855810   465 net.cpp:435] fc7_mbox_loc <- fc7_682_relu7_0_split_1
I0104 20:10:33.855816   465 net.cpp:409] fc7_mbox_loc -> fc7_mbox_loc
I0104 20:10:33.857246   465 net.cpp:144] Setting up fc7_mbox_loc
I0104 20:10:33.857254   465 net.cpp:151] Top shape: 1 24 19 19 (8664)
I0104 20:10:33.857257   465 net.cpp:159] Memory required for data: 245116916
I0104 20:10:33.857264   465 layer_factory.hpp:77] Creating layer fc7_mbox_loc_perm
I0104 20:10:33.857270   465 net.cpp:94] Creating Layer fc7_mbox_loc_perm
I0104 20:10:33.857272   465 net.cpp:435] fc7_mbox_loc_perm <- fc7_mbox_loc
I0104 20:10:33.857277   465 net.cpp:409] fc7_mbox_loc_perm -> fc7_mbox_loc_perm
I0104 20:10:33.857357   465 net.cpp:144] Setting up fc7_mbox_loc_perm
I0104 20:10:33.857362   465 net.cpp:151] Top shape: 1 19 19 24 (8664)
I0104 20:10:33.857367   465 net.cpp:159] Memory required for data: 245151572
I0104 20:10:33.857369   465 layer_factory.hpp:77] Creating layer fc7_mbox_loc_flat
I0104 20:10:33.857374   465 net.cpp:94] Creating Layer fc7_mbox_loc_flat
I0104 20:10:33.857378   465 net.cpp:435] fc7_mbox_loc_flat <- fc7_mbox_loc_perm
I0104 20:10:33.857383   465 net.cpp:409] fc7_mbox_loc_flat -> fc7_mbox_loc_flat
I0104 20:10:33.857399   465 net.cpp:144] Setting up fc7_mbox_loc_flat
I0104 20:10:33.857403   465 net.cpp:151] Top shape: 1 8664 (8664)
I0104 20:10:33.857407   465 net.cpp:159] Memory required for data: 245186228
I0104 20:10:33.857410   465 layer_factory.hpp:77] Creating layer fc7_mbox_conf
I0104 20:10:33.857419   465 net.cpp:94] Creating Layer fc7_mbox_conf
I0104 20:10:33.857421   465 net.cpp:435] fc7_mbox_conf <- fc7_682_relu7_0_split_2
I0104 20:10:33.857426   465 net.cpp:409] fc7_mbox_conf -> fc7_mbox_conf
I0104 20:10:33.866531   465 net.cpp:144] Setting up fc7_mbox_conf
I0104 20:10:33.866542   465 net.cpp:151] Top shape: 1 126 19 19 (45486)
I0104 20:10:33.866549   465 net.cpp:159] Memory required for data: 245368172
I0104 20:10:33.866555   465 layer_factory.hpp:77] Creating layer fc7_mbox_conf_perm
I0104 20:10:33.866562   465 net.cpp:94] Creating Layer fc7_mbox_conf_perm
I0104 20:10:33.866566   465 net.cpp:435] fc7_mbox_conf_perm <- fc7_mbox_conf
I0104 20:10:33.866572   465 net.cpp:409] fc7_mbox_conf_perm -> fc7_mbox_conf_perm
I0104 20:10:33.866654   465 net.cpp:144] Setting up fc7_mbox_conf_perm
I0104 20:10:33.866660   465 net.cpp:151] Top shape: 1 19 19 126 (45486)
I0104 20:10:33.866665   465 net.cpp:159] Memory required for data: 245550116
I0104 20:10:33.866668   465 layer_factory.hpp:77] Creating layer fc7_mbox_conf_flat
I0104 20:10:33.866673   465 net.cpp:94] Creating Layer fc7_mbox_conf_flat
I0104 20:10:33.866677   465 net.cpp:435] fc7_mbox_conf_flat <- fc7_mbox_conf_perm
I0104 20:10:33.866681   465 net.cpp:409] fc7_mbox_conf_flat -> fc7_mbox_conf_flat
I0104 20:10:33.866699   465 net.cpp:144] Setting up fc7_mbox_conf_flat
I0104 20:10:33.866703   465 net.cpp:151] Top shape: 1 45486 (45486)
I0104 20:10:33.866708   465 net.cpp:159] Memory required for data: 245732060
I0104 20:10:33.866710   465 layer_factory.hpp:77] Creating layer fc7_mbox_priorbox
I0104 20:10:33.866716   465 net.cpp:94] Creating Layer fc7_mbox_priorbox
I0104 20:10:33.866720   465 net.cpp:435] fc7_mbox_priorbox <- fc7_682_relu7_0_split_3
I0104 20:10:33.866724   465 net.cpp:435] fc7_mbox_priorbox <- data_data_0_split_2
I0104 20:10:33.866729   465 net.cpp:409] fc7_mbox_priorbox -> fc7_mbox_priorbox
I0104 20:10:33.866747   465 net.cpp:144] Setting up fc7_mbox_priorbox
I0104 20:10:33.866751   465 net.cpp:151] Top shape: 1 2 8664 (17328)
I0104 20:10:33.866756   465 net.cpp:159] Memory required for data: 245801372
I0104 20:10:33.866760   465 layer_factory.hpp:77] Creating layer conv6_2_mbox_loc
I0104 20:10:33.866766   465 net.cpp:94] Creating Layer conv6_2_mbox_loc
I0104 20:10:33.866770   465 net.cpp:435] conv6_2_mbox_loc <- conv6_2_conv6_2_relu_0_split_1
I0104 20:10:33.866775   465 net.cpp:409] conv6_2_mbox_loc -> conv6_2_mbox_loc
I0104 20:10:33.867605   465 net.cpp:144] Setting up conv6_2_mbox_loc
I0104 20:10:33.867611   465 net.cpp:151] Top shape: 1 24 10 10 (2400)
I0104 20:10:33.867616   465 net.cpp:159] Memory required for data: 245810972
I0104 20:10:33.867621   465 layer_factory.hpp:77] Creating layer conv6_2_mbox_loc_perm
I0104 20:10:33.867627   465 net.cpp:94] Creating Layer conv6_2_mbox_loc_perm
I0104 20:10:33.867631   465 net.cpp:435] conv6_2_mbox_loc_perm <- conv6_2_mbox_loc
I0104 20:10:33.867635   465 net.cpp:409] conv6_2_mbox_loc_perm -> conv6_2_mbox_loc_perm
I0104 20:10:33.867723   465 net.cpp:144] Setting up conv6_2_mbox_loc_perm
I0104 20:10:33.867729   465 net.cpp:151] Top shape: 1 10 10 24 (2400)
I0104 20:10:33.867734   465 net.cpp:159] Memory required for data: 245820572
I0104 20:10:33.867738   465 layer_factory.hpp:77] Creating layer conv6_2_mbox_loc_flat
I0104 20:10:33.867743   465 net.cpp:94] Creating Layer conv6_2_mbox_loc_flat
I0104 20:10:33.867745   465 net.cpp:435] conv6_2_mbox_loc_flat <- conv6_2_mbox_loc_perm
I0104 20:10:33.867750   465 net.cpp:409] conv6_2_mbox_loc_flat -> conv6_2_mbox_loc_flat
I0104 20:10:33.867767   465 net.cpp:144] Setting up conv6_2_mbox_loc_flat
I0104 20:10:33.867771   465 net.cpp:151] Top shape: 1 2400 (2400)
I0104 20:10:33.867775   465 net.cpp:159] Memory required for data: 245830172
I0104 20:10:33.867779   465 layer_factory.hpp:77] Creating layer conv6_2_mbox_conf
I0104 20:10:33.867785   465 net.cpp:94] Creating Layer conv6_2_mbox_conf
I0104 20:10:33.867789   465 net.cpp:435] conv6_2_mbox_conf <- conv6_2_conv6_2_relu_0_split_2
I0104 20:10:33.867794   465 net.cpp:409] conv6_2_mbox_conf -> conv6_2_mbox_conf
I0104 20:10:33.872522   465 net.cpp:144] Setting up conv6_2_mbox_conf
I0104 20:10:33.872532   465 net.cpp:151] Top shape: 1 126 10 10 (12600)
I0104 20:10:33.872539   465 net.cpp:159] Memory required for data: 245880572
I0104 20:10:33.872545   465 layer_factory.hpp:77] Creating layer conv6_2_mbox_conf_perm
I0104 20:10:33.872551   465 net.cpp:94] Creating Layer conv6_2_mbox_conf_perm
I0104 20:10:33.872555   465 net.cpp:435] conv6_2_mbox_conf_perm <- conv6_2_mbox_conf
I0104 20:10:33.872560   465 net.cpp:409] conv6_2_mbox_conf_perm -> conv6_2_mbox_conf_perm
I0104 20:10:33.872638   465 net.cpp:144] Setting up conv6_2_mbox_conf_perm
I0104 20:10:33.872644   465 net.cpp:151] Top shape: 1 10 10 126 (12600)
I0104 20:10:33.872649   465 net.cpp:159] Memory required for data: 245930972
I0104 20:10:33.872653   465 layer_factory.hpp:77] Creating layer conv6_2_mbox_conf_flat
I0104 20:10:33.872656   465 net.cpp:94] Creating Layer conv6_2_mbox_conf_flat
I0104 20:10:33.872660   465 net.cpp:435] conv6_2_mbox_conf_flat <- conv6_2_mbox_conf_perm
I0104 20:10:33.872664   465 net.cpp:409] conv6_2_mbox_conf_flat -> conv6_2_mbox_conf_flat
I0104 20:10:33.872682   465 net.cpp:144] Setting up conv6_2_mbox_conf_flat
I0104 20:10:33.872686   465 net.cpp:151] Top shape: 1 12600 (12600)
I0104 20:10:33.872690   465 net.cpp:159] Memory required for data: 245981372
I0104 20:10:33.872694   465 layer_factory.hpp:77] Creating layer conv6_2_mbox_priorbox
I0104 20:10:33.872699   465 net.cpp:94] Creating Layer conv6_2_mbox_priorbox
I0104 20:10:33.872702   465 net.cpp:435] conv6_2_mbox_priorbox <- conv6_2_conv6_2_relu_0_split_3
I0104 20:10:33.872706   465 net.cpp:435] conv6_2_mbox_priorbox <- data_data_0_split_3
I0104 20:10:33.872711   465 net.cpp:409] conv6_2_mbox_priorbox -> conv6_2_mbox_priorbox
I0104 20:10:33.872730   465 net.cpp:144] Setting up conv6_2_mbox_priorbox
I0104 20:10:33.872733   465 net.cpp:151] Top shape: 1 2 2400 (4800)
I0104 20:10:33.872737   465 net.cpp:159] Memory required for data: 246000572
I0104 20:10:33.872741   465 layer_factory.hpp:77] Creating layer conv7_2_mbox_loc
I0104 20:10:33.872748   465 net.cpp:94] Creating Layer conv7_2_mbox_loc
I0104 20:10:33.872752   465 net.cpp:435] conv7_2_mbox_loc <- conv7_2_conv7_2_relu_0_split_1
I0104 20:10:33.872757   465 net.cpp:409] conv7_2_mbox_loc -> conv7_2_mbox_loc
I0104 20:10:33.873288   465 net.cpp:144] Setting up conv7_2_mbox_loc
I0104 20:10:33.873296   465 net.cpp:151] Top shape: 1 24 5 5 (600)
I0104 20:10:33.873299   465 net.cpp:159] Memory required for data: 246002972
I0104 20:10:33.873309   465 layer_factory.hpp:77] Creating layer conv7_2_mbox_loc_perm
I0104 20:10:33.873315   465 net.cpp:94] Creating Layer conv7_2_mbox_loc_perm
I0104 20:10:33.873319   465 net.cpp:435] conv7_2_mbox_loc_perm <- conv7_2_mbox_loc
I0104 20:10:33.873323   465 net.cpp:409] conv7_2_mbox_loc_perm -> conv7_2_mbox_loc_perm
I0104 20:10:33.873399   465 net.cpp:144] Setting up conv7_2_mbox_loc_perm
I0104 20:10:33.873404   465 net.cpp:151] Top shape: 1 5 5 24 (600)
I0104 20:10:33.873409   465 net.cpp:159] Memory required for data: 246005372
I0104 20:10:33.873411   465 layer_factory.hpp:77] Creating layer conv7_2_mbox_loc_flat
I0104 20:10:33.873416   465 net.cpp:94] Creating Layer conv7_2_mbox_loc_flat
I0104 20:10:33.873420   465 net.cpp:435] conv7_2_mbox_loc_flat <- conv7_2_mbox_loc_perm
I0104 20:10:33.873423   465 net.cpp:409] conv7_2_mbox_loc_flat -> conv7_2_mbox_loc_flat
I0104 20:10:33.873441   465 net.cpp:144] Setting up conv7_2_mbox_loc_flat
I0104 20:10:33.873445   465 net.cpp:151] Top shape: 1 600 (600)
I0104 20:10:33.873448   465 net.cpp:159] Memory required for data: 246007772
I0104 20:10:33.873451   465 layer_factory.hpp:77] Creating layer conv7_2_mbox_conf
I0104 20:10:33.873458   465 net.cpp:94] Creating Layer conv7_2_mbox_conf
I0104 20:10:33.873462   465 net.cpp:435] conv7_2_mbox_conf <- conv7_2_conv7_2_relu_0_split_2
I0104 20:10:33.873467   465 net.cpp:409] conv7_2_mbox_conf -> conv7_2_mbox_conf
I0104 20:10:33.876523   465 net.cpp:144] Setting up conv7_2_mbox_conf
I0104 20:10:33.876533   465 net.cpp:151] Top shape: 1 126 5 5 (3150)
I0104 20:10:33.876539   465 net.cpp:159] Memory required for data: 246020372
I0104 20:10:33.876545   465 layer_factory.hpp:77] Creating layer conv7_2_mbox_conf_perm
I0104 20:10:33.876552   465 net.cpp:94] Creating Layer conv7_2_mbox_conf_perm
I0104 20:10:33.876556   465 net.cpp:435] conv7_2_mbox_conf_perm <- conv7_2_mbox_conf
I0104 20:10:33.876561   465 net.cpp:409] conv7_2_mbox_conf_perm -> conv7_2_mbox_conf_perm
I0104 20:10:33.876641   465 net.cpp:144] Setting up conv7_2_mbox_conf_perm
I0104 20:10:33.876647   465 net.cpp:151] Top shape: 1 5 5 126 (3150)
I0104 20:10:33.876652   465 net.cpp:159] Memory required for data: 246032972
I0104 20:10:33.876654   465 layer_factory.hpp:77] Creating layer conv7_2_mbox_conf_flat
I0104 20:10:33.876659   465 net.cpp:94] Creating Layer conv7_2_mbox_conf_flat
I0104 20:10:33.876663   465 net.cpp:435] conv7_2_mbox_conf_flat <- conv7_2_mbox_conf_perm
I0104 20:10:33.876667   465 net.cpp:409] conv7_2_mbox_conf_flat -> conv7_2_mbox_conf_flat
I0104 20:10:33.876686   465 net.cpp:144] Setting up conv7_2_mbox_conf_flat
I0104 20:10:33.876689   465 net.cpp:151] Top shape: 1 3150 (3150)
I0104 20:10:33.876693   465 net.cpp:159] Memory required for data: 246045572
I0104 20:10:33.876698   465 layer_factory.hpp:77] Creating layer conv7_2_mbox_priorbox
I0104 20:10:33.876703   465 net.cpp:94] Creating Layer conv7_2_mbox_priorbox
I0104 20:10:33.876706   465 net.cpp:435] conv7_2_mbox_priorbox <- conv7_2_conv7_2_relu_0_split_3
I0104 20:10:33.876710   465 net.cpp:435] conv7_2_mbox_priorbox <- data_data_0_split_4
I0104 20:10:33.876715   465 net.cpp:409] conv7_2_mbox_priorbox -> conv7_2_mbox_priorbox
I0104 20:10:33.876734   465 net.cpp:144] Setting up conv7_2_mbox_priorbox
I0104 20:10:33.876739   465 net.cpp:151] Top shape: 1 2 600 (1200)
I0104 20:10:33.876742   465 net.cpp:159] Memory required for data: 246050372
I0104 20:10:33.876745   465 layer_factory.hpp:77] Creating layer conv8_2_mbox_loc
I0104 20:10:33.876754   465 net.cpp:94] Creating Layer conv8_2_mbox_loc
I0104 20:10:33.876756   465 net.cpp:435] conv8_2_mbox_loc <- conv8_2_conv8_2_relu_0_split_1
I0104 20:10:33.876761   465 net.cpp:409] conv8_2_mbox_loc -> conv8_2_mbox_loc
I0104 20:10:33.877195   465 net.cpp:144] Setting up conv8_2_mbox_loc
I0104 20:10:33.877202   465 net.cpp:151] Top shape: 1 16 3 3 (144)
I0104 20:10:33.877207   465 net.cpp:159] Memory required for data: 246050948
I0104 20:10:33.877211   465 layer_factory.hpp:77] Creating layer conv8_2_mbox_loc_perm
I0104 20:10:33.877218   465 net.cpp:94] Creating Layer conv8_2_mbox_loc_perm
I0104 20:10:33.877221   465 net.cpp:435] conv8_2_mbox_loc_perm <- conv8_2_mbox_loc
I0104 20:10:33.877226   465 net.cpp:409] conv8_2_mbox_loc_perm -> conv8_2_mbox_loc_perm
I0104 20:10:33.877302   465 net.cpp:144] Setting up conv8_2_mbox_loc_perm
I0104 20:10:33.877308   465 net.cpp:151] Top shape: 1 3 3 16 (144)
I0104 20:10:33.877312   465 net.cpp:159] Memory required for data: 246051524
I0104 20:10:33.877316   465 layer_factory.hpp:77] Creating layer conv8_2_mbox_loc_flat
I0104 20:10:33.877321   465 net.cpp:94] Creating Layer conv8_2_mbox_loc_flat
I0104 20:10:33.877324   465 net.cpp:435] conv8_2_mbox_loc_flat <- conv8_2_mbox_loc_perm
I0104 20:10:33.877329   465 net.cpp:409] conv8_2_mbox_loc_flat -> conv8_2_mbox_loc_flat
I0104 20:10:33.877346   465 net.cpp:144] Setting up conv8_2_mbox_loc_flat
I0104 20:10:33.877349   465 net.cpp:151] Top shape: 1 144 (144)
I0104 20:10:33.877353   465 net.cpp:159] Memory required for data: 246052100
I0104 20:10:33.877357   465 layer_factory.hpp:77] Creating layer conv8_2_mbox_conf
I0104 20:10:33.877363   465 net.cpp:94] Creating Layer conv8_2_mbox_conf
I0104 20:10:33.877367   465 net.cpp:435] conv8_2_mbox_conf <- conv8_2_conv8_2_relu_0_split_2
I0104 20:10:33.877372   465 net.cpp:409] conv8_2_mbox_conf -> conv8_2_mbox_conf
I0104 20:10:33.878655   465 net.cpp:144] Setting up conv8_2_mbox_conf
I0104 20:10:33.878661   465 net.cpp:151] Top shape: 1 84 3 3 (756)
I0104 20:10:33.878666   465 net.cpp:159] Memory required for data: 246055124
I0104 20:10:33.878672   465 layer_factory.hpp:77] Creating layer conv8_2_mbox_conf_perm
I0104 20:10:33.878677   465 net.cpp:94] Creating Layer conv8_2_mbox_conf_perm
I0104 20:10:33.878681   465 net.cpp:435] conv8_2_mbox_conf_perm <- conv8_2_mbox_conf
I0104 20:10:33.878686   465 net.cpp:409] conv8_2_mbox_conf_perm -> conv8_2_mbox_conf_perm
I0104 20:10:33.878764   465 net.cpp:144] Setting up conv8_2_mbox_conf_perm
I0104 20:10:33.878769   465 net.cpp:151] Top shape: 1 3 3 84 (756)
I0104 20:10:33.878773   465 net.cpp:159] Memory required for data: 246058148
I0104 20:10:33.878777   465 layer_factory.hpp:77] Creating layer conv8_2_mbox_conf_flat
I0104 20:10:33.878782   465 net.cpp:94] Creating Layer conv8_2_mbox_conf_flat
I0104 20:10:33.878784   465 net.cpp:435] conv8_2_mbox_conf_flat <- conv8_2_mbox_conf_perm
I0104 20:10:33.878789   465 net.cpp:409] conv8_2_mbox_conf_flat -> conv8_2_mbox_conf_flat
I0104 20:10:33.878806   465 net.cpp:144] Setting up conv8_2_mbox_conf_flat
I0104 20:10:33.878810   465 net.cpp:151] Top shape: 1 756 (756)
I0104 20:10:33.878814   465 net.cpp:159] Memory required for data: 246061172
I0104 20:10:33.878818   465 layer_factory.hpp:77] Creating layer conv8_2_mbox_priorbox
I0104 20:10:33.878823   465 net.cpp:94] Creating Layer conv8_2_mbox_priorbox
I0104 20:10:33.878826   465 net.cpp:435] conv8_2_mbox_priorbox <- conv8_2_conv8_2_relu_0_split_3
I0104 20:10:33.878829   465 net.cpp:435] conv8_2_mbox_priorbox <- data_data_0_split_5
I0104 20:10:33.878834   465 net.cpp:409] conv8_2_mbox_priorbox -> conv8_2_mbox_priorbox
I0104 20:10:33.878852   465 net.cpp:144] Setting up conv8_2_mbox_priorbox
I0104 20:10:33.878856   465 net.cpp:151] Top shape: 1 2 144 (288)
I0104 20:10:33.878860   465 net.cpp:159] Memory required for data: 246062324
I0104 20:10:33.878863   465 layer_factory.hpp:77] Creating layer conv9_2_mbox_loc
I0104 20:10:33.878870   465 net.cpp:94] Creating Layer conv9_2_mbox_loc
I0104 20:10:33.878873   465 net.cpp:435] conv9_2_mbox_loc <- conv9_2_conv9_2_relu_0_split_0
I0104 20:10:33.878878   465 net.cpp:409] conv9_2_mbox_loc -> conv9_2_mbox_loc
I0104 20:10:33.879300   465 net.cpp:144] Setting up conv9_2_mbox_loc
I0104 20:10:33.879307   465 net.cpp:151] Top shape: 1 16 1 1 (16)
I0104 20:10:33.879312   465 net.cpp:159] Memory required for data: 246062388
I0104 20:10:33.879317   465 layer_factory.hpp:77] Creating layer conv9_2_mbox_loc_perm
I0104 20:10:33.879323   465 net.cpp:94] Creating Layer conv9_2_mbox_loc_perm
I0104 20:10:33.879325   465 net.cpp:435] conv9_2_mbox_loc_perm <- conv9_2_mbox_loc
I0104 20:10:33.879330   465 net.cpp:409] conv9_2_mbox_loc_perm -> conv9_2_mbox_loc_perm
I0104 20:10:33.879408   465 net.cpp:144] Setting up conv9_2_mbox_loc_perm
I0104 20:10:33.879415   465 net.cpp:151] Top shape: 1 1 1 16 (16)
I0104 20:10:33.879418   465 net.cpp:159] Memory required for data: 246062452
I0104 20:10:33.879421   465 layer_factory.hpp:77] Creating layer conv9_2_mbox_loc_flat
I0104 20:10:33.879426   465 net.cpp:94] Creating Layer conv9_2_mbox_loc_flat
I0104 20:10:33.879429   465 net.cpp:435] conv9_2_mbox_loc_flat <- conv9_2_mbox_loc_perm
I0104 20:10:33.879434   465 net.cpp:409] conv9_2_mbox_loc_flat -> conv9_2_mbox_loc_flat
I0104 20:10:33.879451   465 net.cpp:144] Setting up conv9_2_mbox_loc_flat
I0104 20:10:33.879454   465 net.cpp:151] Top shape: 1 16 (16)
I0104 20:10:33.879458   465 net.cpp:159] Memory required for data: 246062516
I0104 20:10:33.879462   465 layer_factory.hpp:77] Creating layer conv9_2_mbox_conf
I0104 20:10:33.879469   465 net.cpp:94] Creating Layer conv9_2_mbox_conf
I0104 20:10:33.879472   465 net.cpp:435] conv9_2_mbox_conf <- conv9_2_conv9_2_relu_0_split_1
I0104 20:10:33.879477   465 net.cpp:409] conv9_2_mbox_conf -> conv9_2_mbox_conf
I0104 20:10:33.880761   465 net.cpp:144] Setting up conv9_2_mbox_conf
I0104 20:10:33.880769   465 net.cpp:151] Top shape: 1 84 1 1 (84)
I0104 20:10:33.880774   465 net.cpp:159] Memory required for data: 246062852
I0104 20:10:33.880779   465 layer_factory.hpp:77] Creating layer conv9_2_mbox_conf_perm
I0104 20:10:33.880784   465 net.cpp:94] Creating Layer conv9_2_mbox_conf_perm
I0104 20:10:33.880789   465 net.cpp:435] conv9_2_mbox_conf_perm <- conv9_2_mbox_conf
I0104 20:10:33.880792   465 net.cpp:409] conv9_2_mbox_conf_perm -> conv9_2_mbox_conf_perm
I0104 20:10:33.880868   465 net.cpp:144] Setting up conv9_2_mbox_conf_perm
I0104 20:10:33.880873   465 net.cpp:151] Top shape: 1 1 1 84 (84)
I0104 20:10:33.880878   465 net.cpp:159] Memory required for data: 246063188
I0104 20:10:33.880882   465 layer_factory.hpp:77] Creating layer conv9_2_mbox_conf_flat
I0104 20:10:33.880887   465 net.cpp:94] Creating Layer conv9_2_mbox_conf_flat
I0104 20:10:33.880889   465 net.cpp:435] conv9_2_mbox_conf_flat <- conv9_2_mbox_conf_perm
I0104 20:10:33.880894   465 net.cpp:409] conv9_2_mbox_conf_flat -> conv9_2_mbox_conf_flat
I0104 20:10:33.880911   465 net.cpp:144] Setting up conv9_2_mbox_conf_flat
I0104 20:10:33.880914   465 net.cpp:151] Top shape: 1 84 (84)
I0104 20:10:33.880918   465 net.cpp:159] Memory required for data: 246063524
I0104 20:10:33.880921   465 layer_factory.hpp:77] Creating layer conv9_2_mbox_priorbox
I0104 20:10:33.880928   465 net.cpp:94] Creating Layer conv9_2_mbox_priorbox
I0104 20:10:33.880930   465 net.cpp:435] conv9_2_mbox_priorbox <- conv9_2_conv9_2_relu_0_split_2
I0104 20:10:33.880934   465 net.cpp:435] conv9_2_mbox_priorbox <- data_data_0_split_6
I0104 20:10:33.880939   465 net.cpp:409] conv9_2_mbox_priorbox -> conv9_2_mbox_priorbox
I0104 20:10:33.880957   465 net.cpp:144] Setting up conv9_2_mbox_priorbox
I0104 20:10:33.880961   465 net.cpp:151] Top shape: 1 2 16 (32)
I0104 20:10:33.880964   465 net.cpp:159] Memory required for data: 246063652
I0104 20:10:33.880967   465 layer_factory.hpp:77] Creating layer mbox_loc
I0104 20:10:33.880980   465 net.cpp:94] Creating Layer mbox_loc
I0104 20:10:33.880985   465 net.cpp:435] mbox_loc <- conv4_3_norm_mbox_loc_flat
I0104 20:10:33.880988   465 net.cpp:435] mbox_loc <- fc7_mbox_loc_flat
I0104 20:10:33.880992   465 net.cpp:435] mbox_loc <- conv6_2_mbox_loc_flat
I0104 20:10:33.880995   465 net.cpp:435] mbox_loc <- conv7_2_mbox_loc_flat
I0104 20:10:33.880998   465 net.cpp:435] mbox_loc <- conv8_2_mbox_loc_flat
I0104 20:10:33.881002   465 net.cpp:435] mbox_loc <- conv9_2_mbox_loc_flat
I0104 20:10:33.881007   465 net.cpp:409] mbox_loc -> mbox_loc
I0104 20:10:33.881026   465 net.cpp:144] Setting up mbox_loc
I0104 20:10:33.881031   465 net.cpp:151] Top shape: 1 34928 (34928)
I0104 20:10:33.881036   465 net.cpp:159] Memory required for data: 246203364
I0104 20:10:33.881038   465 layer_factory.hpp:77] Creating layer mbox_conf
I0104 20:10:33.881043   465 net.cpp:94] Creating Layer mbox_conf
I0104 20:10:33.881047   465 net.cpp:435] mbox_conf <- conv4_3_norm_mbox_conf_flat
I0104 20:10:33.881052   465 net.cpp:435] mbox_conf <- fc7_mbox_conf_flat
I0104 20:10:33.881054   465 net.cpp:435] mbox_conf <- conv6_2_mbox_conf_flat
I0104 20:10:33.881058   465 net.cpp:435] mbox_conf <- conv7_2_mbox_conf_flat
I0104 20:10:33.881062   465 net.cpp:435] mbox_conf <- conv8_2_mbox_conf_flat
I0104 20:10:33.881065   465 net.cpp:435] mbox_conf <- conv9_2_mbox_conf_flat
I0104 20:10:33.881069   465 net.cpp:409] mbox_conf -> mbox_conf
I0104 20:10:33.881088   465 net.cpp:144] Setting up mbox_conf
I0104 20:10:33.881090   465 net.cpp:151] Top shape: 1 183372 (183372)
I0104 20:10:33.881095   465 net.cpp:159] Memory required for data: 246936852
I0104 20:10:33.881098   465 layer_factory.hpp:77] Creating layer mbox_priorbox
I0104 20:10:33.881103   465 net.cpp:94] Creating Layer mbox_priorbox
I0104 20:10:33.881106   465 net.cpp:435] mbox_priorbox <- conv4_3_norm_mbox_priorbox
I0104 20:10:33.881109   465 net.cpp:435] mbox_priorbox <- fc7_mbox_priorbox
I0104 20:10:33.881114   465 net.cpp:435] mbox_priorbox <- conv6_2_mbox_priorbox
I0104 20:10:33.881116   465 net.cpp:435] mbox_priorbox <- conv7_2_mbox_priorbox
I0104 20:10:33.881120   465 net.cpp:435] mbox_priorbox <- conv8_2_mbox_priorbox
I0104 20:10:33.881124   465 net.cpp:435] mbox_priorbox <- conv9_2_mbox_priorbox
I0104 20:10:33.881127   465 net.cpp:409] mbox_priorbox -> mbox_priorbox
I0104 20:10:33.881145   465 net.cpp:144] Setting up mbox_priorbox
I0104 20:10:33.881147   465 net.cpp:151] Top shape: 1 2 34928 (69856)
I0104 20:10:33.881152   465 net.cpp:159] Memory required for data: 247216276
I0104 20:10:33.881155   465 net.cpp:222] mbox_priorbox does not need backward computation.
I0104 20:10:33.881160   465 net.cpp:222] mbox_conf does not need backward computation.
I0104 20:10:33.881165   465 net.cpp:222] mbox_loc does not need backward computation.
I0104 20:10:33.881168   465 net.cpp:222] conv9_2_mbox_priorbox does not need backward computation.
…
    phase: TRAIN
  }
  transform_param {
    crop_size: 300
    mean_value: 104
    mean_value: 117
    mean_value: 123
    resize_param {
      prob: 1
      resize_mode: WARP
      height: 300
      width: 300
      interp_mode: LINEAR
      interp_mode: AREA
      interp_mode: NEAREST
      interp_mode: CUBIC
      interp_mode: LANCZOS4
    }
  }
  image_data_param {
    source: "../calibration.txt"
    batch_size: 1
    shuffle: true
    new_height: 300
    new_width: 300
    root_folder: "/data2/datasets/VOCdevkit/VOC2007/JPEGImages/"
  }
}
layer {
  name: "data_fixed"
  type: "FixedNeuron"
  bottom: "data"
  top: "data"
  param {
    lr_mult: 0
    decay_mult: 0
  }
  fixed_param {
    fixed_method: OVER_FLOW
    bit_width: 8
    follow_data_layer: true
  }
}
layer {
  name: "conv1_1"
  type: "ConvolutionFixed"
  bottom: "data"
  top: "conv1_1"
  param {
    lr_mult: 1
    decay_mult: 1
  }
  param {
    lr_mult: 2
    decay_mult: 0
  }
  convolution_param {
    num_output: 64
    pad: 1
    kernel_size: 3
    weight_filler {
      type: "xavier"
    }
    bias_filler {
      type: "constant"
      value: 0
    }
  }
  fixed_param {
    fixed_method: DIFF_S
    bit_width: 8
  }
}
layer {
  name: "relu1_1"
  type: "ReLU"
  bottom: "conv1_1"
  top: "conv1_1"
}
layer {
  name: "conv1_1_fixed"
  type: "FixedNeuron"
  bottom: "conv1_1"
  top: "conv1_1"
  param {
    lr_mult: 0
    decay_mult: 0
  }
  fixed_param {
    fixed_method: DIFF_S
    bit_width: 8
  }
}
layer {
  name: "conv1_2"
  type: "ConvolutionFixed"
  bottom: "conv1_1"
  top: "conv1_2"
  param {
    lr_mult: 1
    decay_mult: 1
  }
  param {
    lr_mult: 2
    decay_mult: 0
  }
  convolution_param {
    num_output: 64
    pad: 1
    kernel_size: 3
    weight_filler {
      type: "xavier"
    }
    bias_filler {
      type: "constant"
      value: 0
    }
  }
  fixed_param {
    fixed_method: DIFF_S
    bit_width: 8
  }
}
layer {
  name: "relu1_2"
  type: "ReLU"
  bottom: "conv1_2"
  top: "conv1_2"
}
layer {
  name: "pool1"
  type: "Pooling"
  bottom: "conv1_2"
  top: "pool1"
  pooling_param {
    pool: MAX
    kernel_size: 2
    stride: 2
  }
}
layer {
  name: "pool1_fixed"
  type: "FixedNeuron"
  bottom: "pool1"
  top: "pool1"
  param {
    lr_mult: 0
    decay_mult: 0
  }
  fixed_param {
    fixed_method: DIFF_S
    bit_width: 8
  }
}
layer {
  name: "conv2_1"
  type: "ConvolutionFixed"
  bottom: "pool1"
  top: "conv2_1"
  param {
    lr_mult: 1
    decay_mult: 1
  }
  param {
    lr_mult: 2
    decay_mult: 0
  }
  convolution_param {
    num_output: 128
    pad: 1
    kernel_size: 3
    weight_filler {
      type: "xavier"
    }
    bias_filler {
      type: "constant"
      value: 0
    }
  }
  fixed_param {
    fixed_method: DIFF_S
    bit_width: 8
  }
}
layer {
  name: "relu2_1"
  type: "ReLU"
  bottom: "conv2_1"
  top: "conv2_1"
}
layer {
  name: "conv2_1_fixed"
  type: "FixedNeuron"
  bottom: "conv2_1"
  top: "conv2_1"
  param {
    lr_mult: 0
    decay_mult: 0
  }
  fixed_param {
    fixed_method: DIFF_S
    bit_width: 8
  }
}
layer {
  name: "conv2_2"
  type: "ConvolutionFixed"
  bottom: "conv2_1"
  top: "conv2_2"
  param {
    lr_mult: 1
    decay_mult: 1
  }
  param {
    lr_mult: 2
    decay_mult: 0
  }
  convolution_param {
    num_output: 128
    pad: 1
    kernel_size: 3
    weight_filler {
      type: "xavier"
    }
    bias_filler {
      type: "constant"
      value: 0
    }
  }
  fixed_param {
    fixed_method: DIFF_S
    bit_width: 8
  }
}
layer {
  name: "relu2_2"
  type: "ReLU"
  bottom: "conv2_2"
  top: "conv2_2"
}
layer {
  name: "pool2"
  type: "Pooling"
  bottom: "conv2_2"
  top: "pool2"
  pooling_param {
    pool: MAX
    kernel_size: 2
    stride: 2
  }
}
layer {
  name: "pool2_fixed"
  type: "FixedNeuron"
  bottom: "pool2"
  top: "pool2"
  param {
    lr_mult: 0
    decay_mult: 0
  }
  fixed_param {
    fixed_method: DIFF_S
    bit_width: 8
  }
}
layer {
  name: "conv3_1"
  type: "ConvolutionFixed"
  bottom: "pool2"
  top: "conv3_1"
  param {
    lr_mult: 1
    decay_mult: 1
  }
  param {
    lr_mult: 2
    decay_mult: 0
  }
  convolution_param {
    num_output: 256
    pad: 1
    kernel_size: 3
    weight_filler {
      type: "xavier"
    }
    bias_filler {
      type: "constant"
      value: 0
    }
  }
  fixed_param {
    fixed_method: DIFF_S
    bit_width: 8
  }
}
layer {
  name: "relu3_1"
  type: "ReLU"
  bottom: "conv3_1"
  top: "conv3_1"
}
layer {
  name: "conv3_1_fixed"
  type: "FixedNeuron"
  bottom: "conv3_1"
  top: "conv3_1"
  param {
    lr_mult: 0
    decay_mult: 0
  }
  fixed_param {
    fixed_method: DIFF_S
    bit_width: 8
  }
}
layer {
  name: "conv3_2"
  type: "ConvolutionFixed"
  bottom: "conv3_1"
  top: "conv3_2"
  param {
    lr_mult: 1
    decay_mult: 1
  }
  param {
    lr_mult: 2
    decay_mult: 0
  }
  convolution_param {
    num_output: 256
    pad: 1
    kernel_size: 3
    weight_filler {
      type: "xavier"
    }
    bias_filler {
      type: "constant"
      value: 0
    }
  }
  fixed_param {
    fixed_method: DIFF_S
    bit_width: 8
  }
}
layer {
  name: "relu3_2"
  type: "ReLU"
  bottom: "conv3_2"
  top: "conv3_2"
}
layer {
  name: "conv3_2_fixed"
  type: "FixedNeuron"
  bottom: "conv3_2"
  top: "conv3_2"
  param {
    lr_mult: 0
    decay_mult: 0
  }
  fixed_param {
    fixed_method: DIFF_S
    bit_width: 8
  }
}
layer {
  name: "conv3_3"
  type: "ConvolutionFixed"
  bottom: "conv3_2"
  top: "conv3_3"
  param {
    lr_mult: 1
    decay_mult: 1
  }
  param {
    lr_mult: 2
    decay_mult: 0
  }
  convolution_param {
    num_output: 256
    pad: 1
    kernel_size: 3
    weight_filler {
      type: "xavier"
    }
    bias_filler {
      type: "constant"
      value: 0
    }
  }
  fixed_param {
    fixed_method: DIFF_S
    bit_width: 8
  }
}
layer {
  name: "relu3_3"
  type: "ReLU"
  bottom: "conv3_3"
  top: "conv3_3"
}
layer {
  name: "pool3"
  type: "Pooling"
  bottom: "conv3_3"
  top: "pool3"
  pooling_param {
    pool: MAX
    kernel_size: 2
    stride: 2
  }
}
layer {
  name: "pool3_fixed"
  type: "FixedNeuron"
  bottom: "pool3"
  top: "pool3"
  param {
    lr_mult: 0
    decay_mult: 0
  }
  fixed_param {
    fixed_method: DIFF_S
    bit_width: 8
  }
}
layer {
  name: "conv4_1"
  type: "ConvolutionFixed"
  bottom: "pool3"
  top: "conv4_1"
  param {
    lr_mult: 1
    decay_mult: 1
  }
  param {
    lr_mult: 2
    decay_mult: 0
  }
  convolution_param {
    num_output: 512
    pad: 1
    kernel_size: 3
    weight_filler {
      type: "xavier"
    }
    bias_filler {
      type: "constant"
      value: 0
    }
  }
  fixed_param {
    fixed_method: DIFF_S
    bit_width: 8
  }
}
layer {
  name: "relu4_1"
  type: "ReLU"
  bottom: "conv4_1"
  top: "conv4_1"
}
layer {
  name: "conv4_1_fixed"
  type: "FixedNeuron"
  bottom: "conv4_1"
  top: "conv4_1"
  param {
    lr_mult: 0
    decay_mult: 0
  }
  fixed_param {
    fixed_method: DIFF_S
    bit_width: 8
  }
}
layer {
  name: "conv4_2"
  type: "ConvolutionFixed"
  bottom: "conv4_1"
  top: "conv4_2"
  param {
    lr_mult: 1
    decay_mult: 1
  }
  param {
    lr_mult: 2
    decay_mult: 0
  }
  convolution_param {
    num_output: 512
    pad: 1
    kernel_size: 3
    weight_filler {
      type: "xavier"
    }
    bias_filler {
      type: "constant"
      value: 0
    }
  }
  fixed_param {
    fixed_method: DIFF_S
    bit_width: 8
  }
}
layer {
  name: "relu4_2"
  type: "ReLU"
  bottom: "conv4_2"
  top: "conv4_2"
}
layer {
  name: "conv4_2_fixed"
  type: "FixedNeuron"
  bottom: "conv4_2"
  top: "conv4_2"
  param {
    lr_mult: 0
    decay_mult: 0
  }
  fixed_param {
    fixed_method: DIFF_S
    bit_width: 8
  }
}
layer {
  name: "conv4_3"
  type: "ConvolutionFixed"
  bottom: "conv4_2"
  top: "conv4_3"
  param {
    lr_mult: 1
    decay_mult: 1
  }
  param {
    lr_mult: 1
    decay_mult: 0
  }
  convolution_param {
    num_output: 512
    bias_term: true
    pad: 1
    kernel_size: 3
    weight_filler {
      type: "xavier"
    }
    bias_filler {
      type: "constant"
      value: 0
    }
  }
  fixed_param {
    fixed_method: DIFF_S
    bit_width: 8
  }
}
layer {
  name: "relu4_3"
  type: "ReLU"
  bottom: "conv4_3"
  top: "conv4_3"
}
layer {
  name: "conv4_3_fixed"
  type: "FixedNeuron"
  bottom: "conv4_3"
  top: "conv4_3"
  param {
    lr_mult: 0
    decay_mult: 0
  }
  fixed_param {
    fixed_method: DIFF_S
    bit_width: 8
  }
}
layer {
  name: "pool4"
  type: "Pooling"
  bottom: "conv4_3"
  top: "pool4"
  pooling_param {
    pool: MAX
    kernel_size: 2
    stride: 2
  }
}
layer {
  name: "conv5_1"
  type: "ConvolutionFixed"
  bottom: "pool4"
  top: "conv5_1"
  param {
    lr_mult: 1
    decay_mult: 1
  }
  param {
    lr_mult: 2
    decay_mult: 0
  }
  convolution_param {
    num_output: 512
    pad: 1
    kernel_size: 3
    weight_filler {
      type: "xavier"
    }
    bias_filler {
      type: "constant"
      value: 0
    }
    dilation: 1
  }
  fixed_param {
    fixed_method: DIFF_S
    bit_width: 8
  }
}
layer {
  name: "relu5_1"
  type: "ReLU"
  bottom: "conv5_1"
  top: "conv5_1"
}
layer {
  name: "conv5_1_fixed"
  type: "FixedNeuron"
  bottom: "conv5_1"
  top: "conv5_1"
  param {
    lr_mult: 0
    decay_mult: 0
  }
  fixed_param {
    fixed_method: DIFF_S
    bit_width: 8
  }
}
layer {
  name: "conv5_2"
  type: "ConvolutionFixed"
  bottom: "conv5_1"
  top: "conv5_2"
  param {
    lr_mult: 1
    decay_mult: 1
  }
  param {
    lr_mult: 2
    decay_mult: 0
  }
  convolution_param {
    num_output: 512
    pad: 1
    kernel_size: 3
    weight_filler {
      type: "xavier"
    }
    bias_filler {
      type: "constant"
      value: 0
    }
    dilation: 1
  }
  fixed_param {
    fixed_method: DIFF_S
    bit_width: 8
  }
}
layer {
  name: "relu5_2"
  type: "ReLU"
  bottom: "conv5_2"
  top: "conv5_2"
}
layer {
  name: "conv5_2_fixed"
  type: "FixedNeuron"
  bottom: "conv5_2"
  top: "conv5_2"
  param {
    lr_mult: 0
    decay_mult: 0
  }
  fixed_param {
    fixed_method: DIFF_S
    bit_width: 8
  }
}
layer {
  name: "conv5_3"
  type: "ConvolutionFixed"
  bottom: "conv5_2"
  top: "conv5_3"
  param {
    lr_mult: 1
    decay_mult: 1
  }
  param {
    lr_mult: 2
    decay_mult: 0
  }
  convolution_param {
    num_output: 512
    pad: 1
    kernel_size: 3
    weight_filler {
      type: "xavier"
    }
    bias_filler {
      type: "constant"
      value: 0
    }
    dilation: 1
  }
  fixed_param {
    fixed_method: DIFF_S
    bit_width: 8
  }
}
layer {
  name: "relu5_3"
  type: "ReLU"
  bottom: "conv5_3"
  top: "conv5_3"
}
layer {
  name: "pool5"
  type: "Pooling"
  bottom: "conv5_3"
  top: "pool5"
  pooling_param {
    pool: MAX
    kernel_size: 3
    stride: 1
    pad: 1
  }
}
layer {
  name: "pool5_fixed"
  type: "FixedNeuron"
  bottom: "pool5"
  top: "pool5"
  param {
    lr_mult: 0
    decay_mult: 0
  }
  fixed_param {
    fixed_method: DIFF_S
    bit_width: 8
  }
}
layer {
  name: "fc6_682"
  type: "ConvolutionFixed"
  bottom: "pool5"
  top: "fc6_682"
  param {
    lr_mult: 1
    decay_mult: 1
  }
  param {
    lr_mult: 2
    decay_mult: 0
  }
  convolution_param {
    num_output: 682
    pad: 6
    kernel_size: 3
    weight_filler {
      type: "xavier"
    }
    bias_filler {
      type: "constant"
      value: 0
    }
    dilation: 6
  }
  fixed_param {
    fixed_method: DIFF_S
    bit_width: 8
  }
}
layer {
  name: "relu6"
  type: "ReLU"
  bottom: "fc6_682"
  top: "fc6_682"
}
layer {
  name: "fc6_682_fixed"
  type: "FixedNeuron"
  bottom: "fc6_682"
  top: "fc6_682"
  param {
    lr_mult: 0
    decay_mult: 0
  }
  fixed_param {
    fixed_method: DIFF_S
    bit_width: 8
  }
}
layer {
  name: "fc7_682"
  type: "ConvolutionFixed"
  bottom: "fc6_682"
  top: "fc7_682"
  param {
    lr_mult: 1
    decay_mult: 1
  }
  param {
    lr_mult: 2
    decay_mult: 0
  }
  convolution_param {
    num_output: 1024
    kernel_size: 1
    weight_filler {
      type: "xavier"
    }
    bias_filler {
      type: "constant"
      value: 0
    }
  }
  fixed_param {
    fixed_method: DIFF_S
    bit_width: 8
  }
}
layer {
  name: "relu7"
  type: "ReLU"
  bottom: "fc7_682"
  top: "fc7_682"
}
layer {
  name: "fc7_682_fixed"
  type: "FixedNeuron"
  bottom: "fc7_682"
  top: "fc7_682"
  param {
    lr_mult: 0
    decay_mult: 0
  }
  fixed_param {
    fixed_method: DIFF_S
    bit_width: 8
  }
}
layer {
  name: "conv6_1"
  type: "ConvolutionFixed"
  bottom: "fc7_682"
  top: "conv6_1"
  param {
    lr_mult: 1
    decay_mult: 1
  }
  param {
    lr_mult: 2
    decay_mult: 0
  }
  convolution_param {
    num_output: 256
    pad: 0
    kernel_size: 1
    stride: 1
    weight_filler {
      type: "xavier"
    }
    bias_filler {
      type: "constant"
      value: 0
    }
  }
  fixed_param {
    fixed_method: DIFF_S
    bit_width: 8
  }
}
layer {
  name: "conv6_1_relu"
  type: "ReLU"
  bottom: "conv6_1"
  top: "conv6_1"
}
layer {
  name: "conv6_1_fixed"
  type: "FixedNeuron"
  bottom: "conv6_1"
  top: "conv6_1"
  param {
    lr_mult: 0
    decay_mult: 0
  }
  fixed_param {
    fixed_method: DIFF_S
    bit_width: 8
  }
}
layer {
  name: "conv6_2"
  type: "ConvolutionFixed"
  bottom: "conv6_1"
  top: "conv6_2"
  param {
    lr_mult: 1
    decay_mult: 1
  }
  param {
    lr_mult: 2
    decay_mult: 0
  }
  convolution_param {
    num_output: 512
    pad: 1
    kernel_size: 3
    stride: 2
    weight_filler {
      type: "xavier"
    }
    bias_filler {
      type: "constant"
      value: 0
    }
  }
  fixed_param {
    fixed_method: DIFF_S
    bit_width: 8
  }
}
layer {
  name: "conv6_2_relu"
  type: "ReLU"
  bottom: "conv6_2"
  top: "conv6_2"
}
layer {
  name: "conv6_2_fixed"
  type: "FixedNeuron"
  bottom: "conv6_2"
  top: "conv6_2"
  param {
    lr_mult: 0
    decay_mult: 0
  }
  fixed_param {
    fixed_method: DIFF_S
    bit_width: 8
  }
}
layer {
  name: "conv7_1"
  type: "ConvolutionFixed"
  bottom: "conv6_2"
  top: "conv7_1"
  param {
    lr_mult: 1
    decay_mult: 1
  }
  param {
    lr_mult: 2
    decay_mult: 0
  }
  convolution_param {
    num_output: 128
    pad: 0
    kernel_size: 1
    stride: 1
    weight_filler {
      type: "xavier"
    }
    bias_filler {
      type: "constant"
      value: 0
    }
  }
  fixed_param {
    fixed_method: DIFF_S
    bit_width: 8
  }
}
layer {
  name: "conv7_1_relu"
  type: "ReLU"
  bottom: "conv7_1"
  top: "conv7_1"
}
layer {
  name: "conv7_1_fixed"
  type: "FixedNeuron"
  bottom: "conv7_1"
  top: "conv7_1"
  param {
    lr_mult: 0
    decay_mult: 0
  }
  fixed_param {
    fixed_method: DIFF_S
    bit_width: 8
  }
}
layer {
  name: "conv7_2"
  type: "ConvolutionFixed"
  bottom: "conv7_1"
  top: "conv7_2"
  param {
    lr_mult: 1
    decay_mult: 1
  }
  param {
    lr_mult: 2
    decay_mult: 0
  }
  convolution_param {
    num_output: 256
    pad: 1
    kernel_size: 3
    stride: 2
    weight_filler {
      type: "xavier"
    }
    bias_filler {
      type: "constant"
      value: 0
    }
  }
  fixed_param {
    fixed_method: DIFF_S
    bit_width: 8
  }
}
layer {
  name: "conv7_2_relu"
  type: "ReLU"
  bottom: "conv7_2"
  top: "conv7_2"
}
layer {
  name: "conv7_2_fixed"
  type: "FixedNeuron"
  bottom: "conv7_2"
  top: "conv7_2"
  param {
    lr_mult: 0
    decay_mult: 0
  }
  fixed_param {
    fixed_method: DIFF_S
    bit_width: 8
  }
}
layer {
  name: "conv8_1"
  type: "ConvolutionFixed"
  bottom: "conv7_2"
  top: "conv8_1"
  param {
    lr_mult: 1
    decay_mult: 1
  }
  param {
    lr_mult: 2
    decay_mult: 0
  }
  convolution_param {
    num_output: 128
    pad: 0
    kernel_size: 1
    stride: 1
    weight_filler {
      type: "xavier"
    }
    bias_filler {
      type: "constant"
      value: 0
    }
  }
  fixed_param {
    fixed_method: DIFF_S
    bit_width: 8
  }
}
layer {
  name: "conv8_1_relu"
  type: "ReLU"
  bottom: "conv8_1"
  top: "conv8_1"
}
layer {
  name: "conv8_1_fixed"
  type: "FixedNeuron"
  bottom: "conv8_1"
  top: "conv8_1"
  param {
    lr_mult: 0
    decay_mult: 0
  }
  fixed_param {
    fixed_method: DIFF_S
    bit_width: 8
  }
}
layer {
  name: "conv8_2"
  type: "ConvolutionFixed"
  bottom: "conv8_1"
  top: "conv8_2"
  param {
    lr_mult: 1
    decay_mult: 1
  }
  param {
    lr_mult: 2
    decay_mult: 0
  }
  convolution_param {
    num_output: 256
    pad: 0
    kernel_size: 3
    stride: 1
    weight_filler {
      type: "xavier"
    }
    bias_filler {
      type: "constant"
      value: 0
    }
  }
  fixed_param {
    fixed_method: DIFF_S
    bit_width: 8
  }
}
layer {
  name: "conv8_2_relu"
  type: "ReLU"
  bottom: "conv8_2"
  top: "conv8_2"
}
layer {
  name: "conv8_2_fixed"
  type: "FixedNeuron"
  bottom: "conv8_2"
  top: "conv8_2"
  param {
    lr_mult: 0
    decay_mult: 0
  }
  fixed_param {
    fixed_method: DIFF_S
    bit_width: 8
  }
}
layer {
  name: "conv9_1"
  type: "ConvolutionFixed"
  bottom: "conv8_2"
  top: "conv9_1"
  param {
    lr_mult: 1
    decay_mult: 1
  }
  param {
    lr_mult: 2
    decay_mult: 0
  }
  convolution_param {
    num_output: 128
    pad: 0
    kernel_size: 1
    stride: 1
    weight_filler {
      type: "xavier"
    }
    bias_filler {
      type: "constant"
      value: 0
    }
  }
  fixed_param {
    fixed_method: DIFF_S
    bit_width: 8
  }
}
layer {
  name: "conv9_1_relu"
  type: "ReLU"
  bottom: "conv9_1"
  top: "conv9_1"
}
layer {
  name: "conv9_1_fixed"
  type: "FixedNeuron"
  bottom: "conv9_1"
  top: "conv9_1"
  param {
    lr_mult: 0
    decay_mult: 0
  }
  fixed_param {
    fixed_method: DIFF_S
    bit_width: 8
  }
}
layer {
  name: "conv9_2"
  type: "ConvolutionFixed"
  bottom: "conv9_1"
  top: "conv9_2"
  param {
    lr_mult: 1
    decay_mult: 1
  }
  param {
    lr_mult: 2
    decay_mult: 0
  }
  convolution_param {
    num_output: 256
    pad: 0
    kernel_size: 3
    stride: 1
    weight_filler {
      type: "xavier"
    }
    bias_filler {
      type: "constant"
      value: 0
    }
  }
  fixed_param {
    fixed_method: DIFF_S
    bit_width: 8
  }
}
layer {
  name: "conv9_2_relu"
  type: "ReLU"
  bottom: "conv9_2"
  top: "conv9_2"
}
layer {
  name: "conv9_2_fixed"
  type: "FixedNeuron"
  bottom: "conv9_2"
  top: "conv9_2"
  param {
    lr_mult: 0
    decay_mult: 0
  }
  fixed_param {
    fixed_method: DIFF_S
    bit_width: 8
  }
}
layer {
  name: "conv4_3_norm_mbox_loc"
  type: "ConvolutionFixed"
  bottom: "conv4_3"
  top: "conv4_3_norm_mbox_loc"
  param {
    lr_mult: 1
    decay_mult: 1
  }
  param {
    lr_mult: 2
    decay_mult: 0
  }
  convolution_param {
    num_output: 16
    pad: 1
    kernel_size: 3
    stride: 1
    weight_filler {
      type: "xavier"
    }
    bias_filler {
      type: "constant"
      value: 0
    }
  }
  fixed_param {
    fixed_method: DIFF_S
    bit_width: 8
  }
}
layer {
  name: "conv4_3_norm_mbox_loc_perm"
  type: "Permute"
  bottom: "conv4_3_norm_mbox_loc"
  top: "conv4_3_norm_mbox_loc_perm"
  permute_param {
    order: 0
    order: 2
    order: 3
    order: 1
  }
}
layer {
  name: "conv4_3_norm_mbox_loc_flat"
  type: "Flatten"
  bottom: "conv4_3_norm_mbox_loc_perm"
  top: "conv4_3_norm_mbox_loc_flat"
  flatten_param {
    axis: 1
  }
}
layer {
  name: "conv4_3_norm_mbox_conf"
  type: "ConvolutionFixed"
  bottom: "conv4_3"
  top: "conv4_3_norm_mbox_conf"
  param {
    lr_mult: 1
    decay_mult: 1
  }
  param {
    lr_mult: 2
    decay_mult: 0
  }
  convolution_param {
    num_output: 84
    pad: 1
    kernel_size: 3
    stride: 1
    weight_filler {
      type: "xavier"
    }
    bias_filler {
      type: "constant"
      value: 0
    }
  }
  fixed_param {
    fixed_method: DIFF_S
    bit_width: 8
  }
}
layer {
  name: "conv4_3_norm_mbox_conf_perm"
  type: "Permute"
  bottom: "conv4_3_norm_mbox_conf"
  top: "conv4_3_norm_mbox_conf_perm"
  permute_param {
    order: 0
    order: 2
    order: 3
    order: 1
  }
}
layer {
  name: "conv4_3_norm_mbox_conf_flat"
  type: "Flatten"
  bottom: "conv4_3_norm_mbox_conf_perm"
  top: "conv4_3_norm_mbox_conf_flat"
  flatten_param {
    axis: 1
  }
}
layer {
  name: "conv4_3_norm_mbox_priorbox"
  type: "PriorBox"
  bottom: "conv4_3"
  bottom: "data"
  top: "conv4_3_norm_mbox_priorbox"
  prior_box_param {
    min_size: 30
    max_size: 60
    aspect_ratio: 2
    flip: true
    clip: false
    variance: 0.1
    variance: 0.1
    variance: 0.2
    variance: 0.2
    step: 8
    offset: 0.5
  }
}
layer {
  name: "fc7_mbox_loc"
  type: "ConvolutionFixed"
  bottom: "fc7_682"
  top: "fc7_mbox_loc"
  param {
    lr_mult: 1
    decay_mult: 1
  }
  param {
    lr_mult: 2
    decay_mult: 0
  }
  convolution_param {
    num_output: 24
    pad: 1
    kernel_size: 3
    stride: 1
    weight_filler {
      type: "xavier"
    }
    bias_filler {
      type: "constant"
      value: 0
    }
  }
  fixed_param {
    fixed_method: DIFF_S
    bit_width: 8
  }
}
layer {
  name: "fc7_mbox_loc_perm"
  type: "Permute"
  bottom: "fc7_mbox_loc"
  top: "fc7_mbox_loc_perm"
  permute_param {
    order: 0
    order: 2
    order: 3
    order: 1
  }
}
layer {
  name: "fc7_mbox_loc_flat"
  type: "Flatten"
  bottom: "fc7_mbox_loc_perm"
  top: "fc7_mbox_loc_flat"
  flatten_param {
    axis: 1
  }
}
layer {
  name: "fc7_mbox_conf"
  type: "ConvolutionFixed"
  bottom: "fc7_682"
  top: "fc7_mbox_conf"
  param {
    lr_mult: 1
    decay_mult: 1
  }
  param {
    lr_mult: 2
    decay_mult: 0
  }
  convolution_param {
    num_output: 126
    pad: 1
    kernel_size: 3
    stride: 1
    weight_filler {
      type: "xavier"
    }
    bias_filler {
      type: "constant"
      value: 0
    }
  }
  fixed_param {
    fixed_method: DIFF_S
    bit_width: 8
  }
}
layer {
  name: "fc7_mbox_conf_perm"
  type: "Permute"
  bottom: "fc7_mbox_conf"
  top: "fc7_mbox_conf_perm"
  permute_param {
    order: 0
    order: 2
    order: 3
    order: 1
  }
}
layer {
  name: "fc7_mbox_conf_flat"
  type: "Flatten"
  bottom: "fc7_mbox_conf_perm"
  top: "fc7_mbox_conf_flat"
  flatten_param {
    axis: 1
  }
}
layer {
  name: "fc7_mbox_priorbox"
  type: "PriorBox"
  bottom: "fc7_682"
  bottom: "data"
  top: "fc7_mbox_priorbox"
  prior_box_param {
    min_size: 60
    max_size: 111
    aspect_ratio: 2
    aspect_ratio: 3
    flip: true
    clip: false
    variance: 0.1
    variance: 0.1
    variance: 0.2
    variance: 0.2
    step: 16
    offset: 0.5
  }
}
layer {
  name: "conv6_2_mbox_loc"
  type: "ConvolutionFixed"
  bottom: "conv6_2"
  top: "conv6_2_mbox_loc"
  param {
    lr_mult: 1
    decay_mult: 1
  }
  param {
    lr_mult: 2
    decay_mult: 0
  }
  convolution_param {
    num_output: 24
    pad: 1
    kernel_size: 3
    stride: 1
    weight_filler {
      type: "xavier"
    }
    bias_filler {
      type: "constant"
      value: 0
    }
  }
  fixed_param {
    fixed_method: DIFF_S
    bit_width: 8
  }
}
layer {
  name: "conv6_2_mbox_loc_perm"
  type: "Permute"
  bottom: "conv6_2_mbox_loc"
  top: "conv6_2_mbox_loc_perm"
  permute_param {
    order: 0
    order: 2
    order: 3
    order: 1
  }
}
layer {
  name: "conv6_2_mbox_loc_flat"
  type: "Flatten"
  bottom: "conv6_2_mbox_loc_perm"
  top: "conv6_2_mbox_loc_flat"
  flatten_param {
    axis: 1
  }
}
layer {
  name: "conv6_2_mbox_conf"
  type: "ConvolutionFixed"
  bottom: "conv6_2"
  top: "conv6_2_mbox_conf"
  param {
    lr_mult: 1
    decay_mult: 1
  }
  param {
    lr_mult: 2
    decay_mult: 0
  }
  convolution_param {
    num_output: 126
    pad: 1
    kernel_size: 3
    stride: 1
    weight_filler {
      type: "xavier"
    }
    bias_filler {
      type: "constant"
      value: 0
    }
  }
  fixed_param {
    fixed_method: DIFF_S
    bit_width: 8
  }
}
layer {
  name: "conv6_2_mbox_conf_perm"
  type: "Permute"
  bottom: "conv6_2_mbox_conf"
  top: "conv6_2_mbox_conf_perm"
  permute_param {
    order: 0
    order: 2
    order: 3
    order: 1
  }
}
layer {
  name: "conv6_2_mbox_conf_flat"
  type: "Flatten"
  bottom: "conv6_2_mbox_conf_perm"
  top: "conv6_2_mbox_conf_flat"
  flatten_param {
    axis: 1
  }
}
layer {
  name: "conv6_2_mbox_priorbox"
  type: "PriorBox"
  bottom: "conv6_2"
  bottom: "data"
  top: "conv6_2_mbox_priorbox"
  prior_box_param {
    min_size: 111
    max_size: 162
    aspect_ratio: 2
    aspect_ratio: 3
    flip: true
    clip: false
    variance: 0.1
    variance: 0.1
    variance: 0.2
    variance: 0.2
    step: 32
    offset: 0.5
  }
}
layer {
  name: "conv7_2_mbox_loc"
  type: "ConvolutionFixed"
  bottom: "conv7_2"
  top: "conv7_2_mbox_loc"
  param {
    lr_mult: 1
    decay_mult: 1
  }
  param {
    lr_mult: 2
    decay_mult: 0
  }
  convolution_param {
    num_output: 24
    pad: 1
    kernel_size: 3
    stride: 1
    weight_filler {
      type: "xavier"
    }
    bias_filler {
      type: "constant"
      value: 0
    }
  }
  fixed_param {
    fixed_method: DIFF_S
    bit_width: 8
  }
}
layer {
  name: "conv7_2_mbox_loc_perm"
  type: "Permute"
  bottom: "conv7_2_mbox_loc"
  top: "conv7_2_mbox_loc_perm"
  permute_param {
    order: 0
    order: 2
    order: 3
    order: 1
  }
}
layer {
  name: "conv7_2_mbox_loc_flat"
  type: "Flatten"
  bottom: "conv7_2_mbox_loc_perm"
  top: "conv7_2_mbox_loc_flat"
  flatten_param {
    axis: 1
  }
}
layer {
  name: "conv7_2_mbox_conf"
  type: "ConvolutionFixed"
  bottom: "conv7_2"
  top: "conv7_2_mbox_conf"
  param {
    lr_mult: 1
    decay_mult: 1
  }
  param {
    lr_mult: 2
    decay_mult: 0
  }
  convolution_param {
    num_output: 126
    pad: 1
    kernel_size: 3
    stride: 1
    weight_filler {
      type: "xavier"
    }
    bias_filler {
      type: "constant"
      value: 0
    }
  }
  fixed_param {
    fixed_method: DIFF_S
    bit_width: 8
  }
}
layer {
  name: "conv7_2_mbox_conf_perm"
  type: "Permute"
  bottom: "conv7_2_mbox_conf"
  top: "conv7_2_mbox_conf_perm"
  permute_param {
    order: 0
    order: 2
    order: 3
    order: 1
  }
}
layer {
  name: "conv7_2_mbox_conf_flat"
  type: "Flatten"
  bottom: "conv7_2_mbox_conf_perm"
  top: "conv7_2_mbox_conf_flat"
  flatten_param {
    axis: 1
  }
}
layer {
  name: "conv7_2_mbox_priorbox"
  type: "PriorBox"
  bottom: "conv7_2"
  bottom: "data"
  top: "conv7_2_mbox_priorbox"
  prior_box_param {
    min_size: 162
    max_size: 213
    aspect_ratio: 2
    aspect_ratio: 3
    flip: true
    clip: false
    variance: 0.1
    variance: 0.1
    variance: 0.2
    variance: 0.2
    step: 64
    offset: 0.5
  }
}
layer {
  name: "conv8_2_mbox_loc"
  type: "ConvolutionFixed"
  bottom: "conv8_2"
  top: "conv8_2_mbox_loc"
  param {
    lr_mult: 1
    decay_mult: 1
  }
  param {
    lr_mult: 2
    decay_mult: 0
  }
  convolution_param {
    num_output: 16
    pad: 1
    kernel_size: 3
    stride: 1
    weight_filler {
      type: "xavier"
    }
    bias_filler {
      type: "constant"
      value: 0
    }
  }
  fixed_param {
    fixed_method: DIFF_S
    bit_width: 8
  }
}
layer {
  name: "conv8_2_mbox_loc_perm"
  type: "Permute"
  bottom: "conv8_2_mbox_loc"
  top: "conv8_2_mbox_loc_perm"
  permute_param {
    order: 0
    order: 2
    order: 3
    order: 1
  }
}
layer {
  name: "conv8_2_mbox_loc_flat"
  type: "Flatten"
  bottom: "conv8_2_mbox_loc_perm"
  top: "conv8_2_mbox_loc_flat"
  flatten_param {
    axis: 1
  }
}
layer {
  name: "conv8_2_mbox_conf"
  type: "ConvolutionFixed"
  bottom: "conv8_2"
  top: "conv8_2_mbox_conf"
  param {
    lr_mult: 1
    decay_mult: 1
  }
  param {
    lr_mult: 2
    decay_mult: 0
  }
  convolution_param {
    num_output: 84
    pad: 1
    kernel_size: 3
    stride: 1
    weight_filler {
      type: "xavier"
    }
    bias_filler {
      type: "constant"
      value: 0
    }
  }
  fixed_param {
    fixed_method: DIFF_S
    bit_width: 8
  }
}
layer {
  name: "conv8_2_mbox_conf_perm"
  type: "Permute"
  bottom: "conv8_2_mbox_conf"
  top: "conv8_2_mbox_conf_perm"
  permute_param {
    order: 0
    order: 2
    order: 3
    order: 1
  }
}
layer {
  name: "conv8_2_mbox_conf_flat"
  type: "Flatten"
  bottom: "conv8_2_mbox_conf_perm"
  top: "conv8_2_mbox_conf_flat"
  flatten_param {
    axis: 1
  }
}
layer {
  name: "conv8_2_mbox_priorbox"
  type: "PriorBox"
  bottom: "conv8_2"
  bottom: "data"
  top: "conv8_2_mbox_priorbox"
  prior_box_param {
    min_size: 213
    max_size: 264
    aspect_ratio: 2
    flip: true
    clip: false
    variance: 0.1
    variance: 0.1
    variance: 0.2
    variance: 0.2
    step: 100
    offset: 0.5
  }
}
layer {
  name: "conv9_2_mbox_loc"
  type: "ConvolutionFixed"
  bottom: "conv9_2"
  top: "conv9_2_mbox_loc"
  param {
    lr_mult: 1
    decay_mult: 1
  }
  param {
    lr_mult: 2
    decay_mult: 0
  }
  convolution_param {
    num_output: 16
    pad: 1
    kernel_size: 3
    stride: 1
    weight_filler {
      type: "xavier"
    }
    bias_filler {
      type: "constant"
      value: 0
    }
  }
  fixed_param {
    fixed_method: DIFF_S
    bit_width: 8
  }
}
layer {
  name: "conv9_2_mbox_loc_perm"
  type: "Permute"
  bottom: "conv9_2_mbox_loc"
  top: "conv9_2_mbox_loc_perm"
  permute_param {
    order: 0
    order: 2
    order: 3
    order: 1
  }
}
layer {
  name: "conv9_2_mbox_loc_flat"
  type: "Flatten"
  bottom: "conv9_2_mbox_loc_perm"
  top: "conv9_2_mbox_loc_flat"
  flatten_param {
    axis: 1
  }
}
layer {
  name: "conv9_2_mbox_conf"
  type: "ConvolutionFixed"
  bottom: "conv9_2"
  top: "conv9_2_mbox_conf"
  param {
    lr_mult: 1
    decay_mult: 1
  }
  param {
    lr_mult: 2
    decay_mult: 0
  }
  convolution_param {
    num_output: 84
    pad: 1
    kernel_size: 3
    stride: 1
    weight_filler {
      type: "xavier"
    }
    bias_filler {
      type: "constant"
      value: 0
    }
  }
  fixed_param {
    fixed_method: DIFF_S
    bit_width: 8
  }
}
layer {
  name: "conv9_2_mbox_conf_perm"
  type: "Permute"
  bottom: "conv9_2_mbox_conf"
  top: "conv9_2_mbox_conf_perm"
  permute_param {
    order: 0
    order: 2
    order: 3
    order: 1
  }
}
layer {
  name: "conv9_2_mbox_conf_flat"
  type: "Flatten"
  bottom: "conv9_2_mbox_conf_perm"
  top: "conv9_2_mbox_conf_flat"
  flatten_param {
    axis: 1
  }
}
layer {
  name: "conv9_2
I0104 20:10:34.177521   465 layer_factory.hpp:77] Creating layer data
I0104 20:10:34.177541   465 net.cpp:94] Creating Layer data
I0104 20:10:34.177546   465 net.cpp:409] data -> data
I0104 20:10:34.177556   465 net.cpp:409] data -> label
I0104 20:10:34.177568   465 image_data_layer.cpp:41] Opening file ../calibration.txt
I0104 20:10:34.177804   465 image_data_layer.cpp:51] Shuffling data
I0104 20:10:34.177865   465 image_data_layer.cpp:56] A total of 1000 images.
I0104 20:10:34.181908   465 image_data_layer.cpp:84] output data size: 1,3,300,300
I0104 20:10:34.192061   465 internal_thread.cpp:27] Starting internal thread(s) on GPU 0
I0104 20:10:34.192126   465 net.cpp:144] Setting up data
I0104 20:10:34.192137   465 net.cpp:151] Top shape: 1 3 300 300 (270000)
I0104 20:10:34.192143   465 net.cpp:151] Top shape: 1 (1)
I0104 20:10:34.192148   465 net.cpp:159] Memory required for data: 1080004
I0104 20:10:34.192153   465 layer_factory.hpp:77] Creating layer data_fixed
I0104 20:10:34.192164   465 net.cpp:94] Creating Layer data_fixed
I0104 20:10:34.192170   465 net.cpp:435] data_fixed <- data
I0104 20:10:34.192176   465 net.cpp:396] data_fixed -> data (in-place)
I0104 20:10:34.192263   465 net.cpp:144] Setting up data_fixed
I0104 20:10:34.192270   465 net.cpp:151] Top shape: 1 3 300 300 (270000)
I0104 20:10:34.192276   465 net.cpp:159] Memory required for data: 2160004
I0104 20:10:34.192284   465 layer_factory.hpp:77] Creating layer data_data_fixed_0_split
I0104 20:10:34.192293   465 net.cpp:94] Creating Layer data_data_fixed_0_split
I0104 20:10:34.192298   465 net.cpp:435] data_data_fixed_0_split <- data
I0104 20:10:34.192303   465 net.cpp:409] data_data_fixed_0_split -> data_data_fixed_0_split_0
I0104 20:10:34.192310   465 net.cpp:409] data_data_fixed_0_split -> data_data_fixed_0_split_1
I0104 20:10:34.192317   465 net.cpp:409] data_data_fixed_0_split -> data_data_fixed_0_split_2
I0104 20:10:34.192322   465 net.cpp:409] data_data_fixed_0_split -> data_data_fixed_0_split_3
I0104 20:10:34.192327   465 net.cpp:409] data_data_fixed_0_split -> data_data_fixed_0_split_4
I0104 20:10:34.192333   465 net.cpp:409] data_data_fixed_0_split -> data_data_fixed_0_split_5
I0104 20:10:34.192338   465 net.cpp:409] data_data_fixed_0_split -> data_data_fixed_0_split_6
I0104 20:10:34.192416   465 net.cpp:144] Setting up data_data_fixed_0_split
I0104 20:10:34.192422   465 net.cpp:151] Top shape: 1 3 300 300 (270000)
I0104 20:10:34.192426   465 net.cpp:151] Top shape: 1 3 300 300 (270000)
I0104 20:10:34.192431   465 net.cpp:151] Top shape: 1 3 300 300 (270000)
I0104 20:10:34.192435   465 net.cpp:151] Top shape: 1 3 300 300 (270000)
I0104 20:10:34.192440   465 net.cpp:151] Top shape: 1 3 300 300 (270000)
I0104 20:10:34.192443   465 net.cpp:151] Top shape: 1 3 300 300 (270000)
I0104 20:10:34.192447   465 net.cpp:151] Top shape: 1 3 300 300 (270000)
I0104 20:10:34.192451   465 net.cpp:159] Memory required for data: 9720004
I0104 20:10:34.192454   465 layer_factory.hpp:77] Creating layer conv1_1
I0104 20:10:34.192466   465 net.cpp:94] Creating Layer conv1_1
I0104 20:10:34.192471   465 net.cpp:435] conv1_1 <- data_data_fixed_0_split_0
I0104 20:10:34.192476   465 net.cpp:409] conv1_1 -> conv1_1
I0104 20:10:34.192636   465 layer_factory.hpp:77] Creating layer conv1_1
I0104 20:10:34.193003   465 net.cpp:144] Setting up conv1_1
I0104 20:10:34.193011   465 net.cpp:151] Top shape: 1 64 300 300 (5760000)
I0104 20:10:34.193017   465 net.cpp:159] Memory required for data: 32760004
I0104 20:10:34.193024   465 layer_factory.hpp:77] Creating layer relu1_1
I0104 20:10:34.193030   465 net.cpp:94] Creating Layer relu1_1
I0104 20:10:34.193035   465 net.cpp:435] relu1_1 <- conv1_1
I0104 20:10:34.193040   465 net.cpp:396] relu1_1 -> conv1_1 (in-place)
I0104 20:10:34.193046   465 net.cpp:144] Setting up relu1_1
I0104 20:10:34.193050   465 net.cpp:151] Top shape: 1 64 300 300 (5760000)
I0104 20:10:34.193054   465 net.cpp:159] Memory required for data: 55800004
I0104 20:10:34.193058   465 layer_factory.hpp:77] Creating layer conv1_1_fixed
I0104 20:10:34.193063   465 net.cpp:94] Creating Layer conv1_1_fixed
I0104 20:10:34.193066   465 net.cpp:435] conv1_1_fixed <- conv1_1
I0104 20:10:34.193070   465 net.cpp:396] conv1_1_fixed -> conv1_1 (in-place)
I0104 20:10:34.193099   465 net.cpp:144] Setting up conv1_1_fixed
I0104 20:10:34.193104   465 net.cpp:151] Top shape: 1 64 300 300 (5760000)
I0104 20:10:34.193109   465 net.cpp:159] Memory required for data: 78840004
I0104 20:10:34.193114   465 layer_factory.hpp:77] Creating layer conv1_2
I0104 20:10:34.193121   465 net.cpp:94] Creating Layer conv1_2
I0104 20:10:34.193125   465 net.cpp:435] conv1_2 <- conv1_1
I0104 20:10:34.193130   465 net.cpp:409] conv1_2 -> conv1_2
I0104 20:10:34.193583   465 layer_factory.hpp:77] Creating layer conv1_2
I0104 20:10:34.194259   465 net.cpp:144] Setting up conv1_2
I0104 20:10:34.194267   465 net.cpp:151] Top shape: 1 64 300 300 (5760000)
I0104 20:10:34.194273   465 net.cpp:159] Memory required for data: 101880004
I0104 20:10:34.194280   465 layer_factory.hpp:77] Creating layer relu1_2
I0104 20:10:34.194286   465 net.cpp:94] Creating Layer relu1_2
I0104 20:10:34.194290   465 net.cpp:435] relu1_2 <- conv1_2
I0104 20:10:34.194294   465 net.cpp:396] relu1_2 -> conv1_2 (in-place)
I0104 20:10:34.194300   465 net.cpp:144] Setting up relu1_2
I0104 20:10:34.194303   465 net.cpp:151] Top shape: 1 64 300 300 (5760000)
I0104 20:10:34.194308   465 net.cpp:159] Memory required for data: 124920004
I0104 20:10:34.194310   465 layer_factory.hpp:77] Creating layer pool1
I0104 20:10:34.194317   465 net.cpp:94] Creating Layer pool1
I0104 20:10:34.194322   465 net.cpp:435] pool1 <- conv1_2
I0104 20:10:34.194327   465 net.cpp:409] pool1 -> pool1
I0104 20:10:34.194360   465 net.cpp:144] Setting up pool1
I0104 20:10:34.194365   465 net.cpp:151] Top shape: 1 64 150 150 (1440000)
I0104 20:10:34.194370   465 net.cpp:159] Memory required for data: 130680004
I0104 20:10:34.194372   465 layer_factory.hpp:77] Creating layer pool1_fixed
I0104 20:10:34.194378   465 net.cpp:94] Creating Layer pool1_fixed
I0104 20:10:34.194381   465 net.cpp:435] pool1_fixed <- pool1
I0104 20:10:34.194386   465 net.cpp:396] pool1_fixed -> pool1 (in-place)
I0104 20:10:34.194412   465 net.cpp:144] Setting up pool1_fixed
I0104 20:10:34.194418   465 net.cpp:151] Top shape: 1 64 150 150 (1440000)
I0104 20:10:34.194422   465 net.cpp:159] Memory required for data: 136440004
I0104 20:10:34.194427   465 layer_factory.hpp:77] Creating layer conv2_1
I0104 20:10:34.194434   465 net.cpp:94] Creating Layer conv2_1
I0104 20:10:34.194438   465 net.cpp:435] conv2_1 <- pool1
I0104 20:10:34.194443   465 net.cpp:409] conv2_1 -> conv2_1
I0104 20:10:34.195041   465 layer_factory.hpp:77] Creating layer conv2_1
I0104 20:10:34.195786   465 net.cpp:144] Setting up conv2_1
I0104 20:10:34.195794   465 net.cpp:151] Top shape: 1 128 150 150 (2880000)
I0104 20:10:34.195801   465 net.cpp:159] Memory required for data: 147960004
I0104 20:10:34.195806   465 layer_factory.hpp:77] Creating layer relu2_1
I0104 20:10:34.195812   465 net.cpp:94] Creating Layer relu2_1
I0104 20:10:34.195816   465 net.cpp:435] relu2_1 <- conv2_1
I0104 20:10:34.195820   465 net.cpp:396] relu2_1 -> conv2_1 (in-place)
I0104 20:10:34.195825   465 net.cpp:144] Setting up relu2_1
I0104 20:10:34.195829   465 net.cpp:151] Top shape: 1 128 150 150 (2880000)
I0104 20:10:34.195833   465 net.cpp:159] Memory required for data: 159480004
I0104 20:10:34.195837   465 layer_factory.hpp:77] Creating layer conv2_1_fixed
I0104 20:10:34.195842   465 net.cpp:94] Creating Layer conv2_1_fixed
I0104 20:10:34.195847   465 net.cpp:435] conv2_1_fixed <- conv2_1
I0104 20:10:34.195850   465 net.cpp:396] conv2_1_fixed -> conv2_1 (in-place)
I0104 20:10:34.195879   465 net.cpp:144] Setting up conv2_1_fixed
I0104 20:10:34.195885   465 net.cpp:151] Top shape: 1 128 150 150 (2880000)
I0104 20:10:34.195889   465 net.cpp:159] Memory required for data: 171000004
I0104 20:10:34.195894   465 layer_factory.hpp:77] Creating layer conv2_2
I0104 20:10:34.195900   465 net.cpp:94] Creating Layer conv2_2
I0104 20:10:34.195904   465 net.cpp:435] conv2_2 <- conv2_1
I0104 20:10:34.195909   465 net.cpp:409] conv2_2 -> conv2_2
I0104 20:10:34.196914   465 layer_factory.hpp:77] Creating layer conv2_2
I0104 20:10:34.198002   465 net.cpp:144] Setting up conv2_2
I0104 20:10:34.198010   465 net.cpp:151] Top shape: 1 128 150 150 (2880000)
I0104 20:10:34.198015   465 net.cpp:159] Memory required for data: 182520004
I0104 20:10:34.198020   465 layer_factory.hpp:77] Creating layer relu2_2
I0104 20:10:34.198027   465 net.cpp:94] Creating Layer relu2_2
I0104 20:10:34.198030   465 net.cpp:435] relu2_2 <- conv2_2
I0104 20:10:34.198035   465 net.cpp:396] relu2_2 -> conv2_2 (in-place)
I0104 20:10:34.198040   465 net.cpp:144] Setting up relu2_2
I0104 20:10:34.198045   465 net.cpp:151] Top shape: 1 128 150 150 (2880000)
I0104 20:10:34.198048   465 net.cpp:159] Memory required for data: 194040004
I0104 20:10:34.198051   465 layer_factory.hpp:77] Creating layer pool2
I0104 20:10:34.198056   465 net.cpp:94] Creating Layer pool2
I0104 20:10:34.198060   465 net.cpp:435] pool2 <- conv2_2
I0104 20:10:34.198065   465 net.cpp:409] pool2 -> pool2
I0104 20:10:34.198094   465 net.cpp:144] Setting up pool2
I0104 20:10:34.198099   465 net.cpp:151] Top shape: 1 128 75 75 (720000)
I0104 20:10:34.198103   465 net.cpp:159] Memory required for data: 196920004
I0104 20:10:34.198107   465 layer_factory.hpp:77] Creating layer pool2_fixed
I0104 20:10:34.198112   465 net.cpp:94] Creating Layer pool2_fixed
I0104 20:10:34.198117   465 net.cpp:435] pool2_fixed <- pool2
I0104 20:10:34.198122   465 net.cpp:396] pool2_fixed -> pool2 (in-place)
I0104 20:10:34.198148   465 net.cpp:144] Setting up pool2_fixed
I0104 20:10:34.198153   465 net.cpp:151] Top shape: 1 128 75 75 (720000)
I0104 20:10:34.198158   465 net.cpp:159] Memory required for data: 199800004
I0104 20:10:34.198161   465 layer_factory.hpp:77] Creating layer conv3_1
I0104 20:10:34.198168   465 net.cpp:94] Creating Layer conv3_1
I0104 20:10:34.198171   465 net.cpp:435] conv3_1 <- pool2
I0104 20:10:34.198176   465 net.cpp:409] conv3_1 -> conv3_1
I0104 20:10:34.201237   465 layer_factory.hpp:77] Creating layer conv3_1
I0104 20:10:34.204522   465 net.cpp:144] Setting up conv3_1
I0104 20:10:34.204533   465 net.cpp:151] Top shape: 1 256 75 75 (1440000)
I0104 20:10:34.204538   465 net.cpp:159] Memory required for data: 205560004
I0104 20:10:34.204545   465 layer_factory.hpp:77] Creating layer relu3_1
I0104 20:10:34.204550   465 net.cpp:94] Creating Layer relu3_1
I0104 20:10:34.204555   465 net.cpp:435] relu3_1 <- conv3_1
I0104 20:10:34.204560   465 net.cpp:396] relu3_1 -> conv3_1 (in-place)
I0104 20:10:34.204566   465 net.cpp:144] Setting up relu3_1
I0104 20:10:34.204568   465 net.cpp:151] Top shape: 1 256 75 75 (1440000)
I0104 20:10:34.204572   465 net.cpp:159] Memory required for data: 211320004
I0104 20:10:34.204576   465 layer_factory.hpp:77] Creating layer conv3_1_fixed
I0104 20:10:34.204581   465 net.cpp:94] Creating Layer conv3_1_fixed
I0104 20:10:34.204584   465 net.cpp:435] conv3_1_fixed <- conv3_1
I0104 20:10:34.204588   465 net.cpp:396] conv3_1_fixed -> conv3_1 (in-place)
I0104 20:10:34.204615   465 net.cpp:144] Setting up conv3_1_fixed
I0104 20:10:34.204622   465 net.cpp:151] Top shape: 1 256 75 75 (1440000)
I0104 20:10:34.204625   465 net.cpp:159] Memory required for data: 217080004
I0104 20:10:34.204629   465 layer_factory.hpp:77] Creating layer conv3_2
I0104 20:10:34.204636   465 net.cpp:94] Creating Layer conv3_2
I0104 20:10:34.204639   465 net.cpp:435] conv3_2 <- conv3_1
I0104 20:10:34.204644   465 net.cpp:409] conv3_2 -> conv3_2
I0104 20:10:34.209511   465 layer_factory.hpp:77] Creating layer conv3_2
I0104 20:10:34.214406   465 net.cpp:144] Setting up conv3_2
I0104 20:10:34.214418   465 net.cpp:151] Top shape: 1 256 75 75 (1440000)
I0104 20:10:34.214424   465 net.cpp:159] Memory required for data: 222840004
I0104 20:10:34.214433   465 layer_factory.hpp:77] Creating layer relu3_2
I0104 20:10:34.214439   465 net.cpp:94] Creating Layer relu3_2
I0104 20:10:34.214443   465 net.cpp:435] relu3_2 <- conv3_2
I0104 20:10:34.214448   465 net.cpp:396] relu3_2 -> conv3_2 (in-place)
I0104 20:10:34.214454   465 net.cpp:144] Setting up relu3_2
I0104 20:10:34.214457   465 net.cpp:151] Top shape: 1 256 75 75 (1440000)
I0104 20:10:34.214462   465 net.cpp:159] Memory required for data: 228600004
I0104 20:10:34.214464   465 layer_factory.hpp:77] Creating layer conv3_2_fixed
I0104 20:10:34.214470   465 net.cpp:94] Creating Layer conv3_2_fixed
I0104 20:10:34.214473   465 net.cpp:435] conv3_2_fixed <- conv3_2
I0104 20:10:34.214478   465 net.cpp:396] conv3_2_fixed -> conv3_2 (in-place)
I0104 20:10:34.214507   465 net.cpp:144] Setting up conv3_2_fixed
I0104 20:10:34.214514   465 net.cpp:151] Top shape: 1 256 75 75 (1440000)
I0104 20:10:34.214517   465 net.cpp:159] Memory required for data: 234360004
I0104 20:10:34.214522   465 layer_factory.hpp:77] Creating layer conv3_3
I0104 20:10:34.214529   465 net.cpp:94] Creating Layer conv3_3
I0104 20:10:34.214534   465 net.cpp:435] conv3_3 <- conv3_2
I0104 20:10:34.214538   465 net.cpp:409] conv3_3 -> conv3_3
I0104 20:10:34.219524   465 layer_factory.hpp:77] Creating layer conv3_3
I0104 20:10:34.224404   465 net.cpp:144] Setting up conv3_3
I0104 20:10:34.224416   465 net.cpp:151] Top shape: 1 256 75 75 (1440000)
I0104 20:10:34.224422   465 net.cpp:159] Memory required for data: 240120004
I0104 20:10:34.224429   465 layer_factory.hpp:77] Creating layer relu3_3
I0104 20:10:34.224434   465 net.cpp:94] Creating Layer relu3_3
I0104 20:10:34.224438   465 net.cpp:435] relu3_3 <- conv3_3
I0104 20:10:34.224442   465 net.cpp:396] relu3_3 -> conv3_3 (in-place)
I0104 20:10:34.224449   465 net.cpp:144] Setting up relu3_3
I0104 20:10:34.224452   465 net.cpp:151] Top shape: 1 256 75 75 (1440000)
I0104 20:10:34.224457   465 net.cpp:159] Memory required for data: 245880004
I0104 20:10:34.224459   465 layer_factory.hpp:77] Creating layer pool3
I0104 20:10:34.224465   465 net.cpp:94] Creating Layer pool3
I0104 20:10:34.224468   465 net.cpp:435] pool3 <- conv3_3
I0104 20:10:34.224472   465 net.cpp:409] pool3 -> pool3
I0104 20:10:34.224509   465 net.cpp:144] Setting up pool3
I0104 20:10:34.224514   465 net.cpp:151] Top shape: 1 256 38 38 (369664)
I0104 20:10:34.224519   465 net.cpp:159] Memory required for data: 247358660
I0104 20:10:34.224522   465 layer_factory.hpp:77] Creating layer pool3_fixed
I0104 20:10:34.224529   465 net.cpp:94] Creating Layer pool3_fixed
I0104 20:10:34.224531   465 net.cpp:435] pool3_fixed <- pool3
I0104 20:10:34.224535   465 net.cpp:396] pool3_fixed -> pool3 (in-place)
I0104 20:10:34.224562   465 net.cpp:144] Setting up pool3_fixed
I0104 20:10:34.224567   465 net.cpp:151] Top shape: 1 256 38 38 (369664)
I0104 20:10:34.224571   465 net.cpp:159] Memory required for data: 248837316
I0104 20:10:34.224576   465 layer_factory.hpp:77] Creating layer conv4_1
I0104 20:10:34.224583   465 net.cpp:94] Creating Layer conv4_1
I0104 20:10:34.224587   465 net.cpp:435] conv4_1 <- pool3
I0104 20:10:34.224591   465 net.cpp:409] conv4_1 -> conv4_1
I0104 20:10:34.233794   465 layer_factory.hpp:77] Creating layer conv4_1
I0104 20:10:34.243122   465 net.cpp:144] Setting up conv4_1
I0104 20:10:34.243135   465 net.cpp:151] Top shape: 1 512 38 38 (739328)
I0104 20:10:34.243141   465 net.cpp:159] Memory required for data: 251794628
I0104 20:10:34.243149   465 layer_factory.hpp:77] Creating layer relu4_1
I0104 20:10:34.243155   465 net.cpp:94] Creating Layer relu4_1
I0104 20:10:34.243160   465 net.cpp:435] relu4_1 <- conv4_1
I0104 20:10:34.243165   465 net.cpp:396] relu4_1 -> conv4_1 (in-place)
I0104 20:10:34.243170   465 net.cpp:144] Setting up relu4_1
I0104 20:10:34.243173   465 net.cpp:151] Top shape: 1 512 38 38 (739328)
I0104 20:10:34.243177   465 net.cpp:159] Memory required for data: 254751940
I0104 20:10:34.243180   465 layer_factory.hpp:77] Creating layer conv4_1_fixed
I0104 20:10:34.243186   465 net.cpp:94] Creating Layer conv4_1_fixed
I0104 20:10:34.243189   465 net.cpp:435] conv4_1_fixed <- conv4_1
I0104 20:10:34.243193   465 net.cpp:396] conv4_1_fixed -> conv4_1 (in-place)
I0104 20:10:34.243222   465 net.cpp:144] Setting up conv4_1_fixed
I0104 20:10:34.243227   465 net.cpp:151] Top shape: 1 512 38 38 (739328)
I0104 20:10:34.243232   465 net.cpp:159] Memory required for data: 257709252
I0104 20:10:34.243237   465 layer_factory.hpp:77] Creating layer conv4_2
I0104 20:10:34.243243   465 net.cpp:94] Creating Layer conv4_2
I0104 20:10:34.243247   465 net.cpp:435] conv4_2 <- conv4_1
I0104 20:10:34.243252   465 net.cpp:409] conv4_2 -> conv4_2
I0104 20:10:34.261391   465 layer_factory.hpp:77] Creating layer conv4_2
I0104 20:10:34.279623   465 net.cpp:144] Setting up conv4_2
I0104 20:10:34.279637   465 net.cpp:151] Top shape: 1 512 38 38 (739328)
I0104 20:10:34.279655   465 net.cpp:159] Memory required for data: 260666564
I0104 20:10:34.279664   465 layer_factory.hpp:77] Creating layer relu4_2
I0104 20:10:34.279671   465 net.cpp:94] Creating Layer relu4_2
I0104 20:10:34.279675   465 net.cpp:435] relu4_2 <- conv4_2
I0104 20:10:34.279680   465 net.cpp:396] relu4_2 -> conv4_2 (in-place)
I0104 20:10:34.279687   465 net.cpp:144] Setting up relu4_2
I0104 20:10:34.279690   465 net.cpp:151] Top shape: 1 512 38 38 (739328)
I0104 20:10:34.279695   465 net.cpp:159] Memory required for data: 263623876
I0104 20:10:34.279698   465 layer_factory.hpp:77] Creating layer conv4_2_fixed
I0104 20:10:34.279713   465 net.cpp:94] Creating Layer conv4_2_fixed
I0104 20:10:34.279717   465 net.cpp:435] conv4_2_fixed <- conv4_2
I0104 20:10:34.279722   465 net.cpp:396] conv4_2_fixed -> conv4_2 (in-place)
I0104 20:10:34.279752   465 net.cpp:144] Setting up conv4_2_fixed
I0104 20:10:34.279757   465 net.cpp:151] Top shape: 1 512 38 38 (739328)
I0104 20:10:34.279762   465 net.cpp:159] Memory required for data: 266581188
I0104 20:10:34.279765   465 layer_factory.hpp:77] Creating layer conv4_3
I0104 20:10:34.279773   465 net.cpp:94] Creating Layer conv4_3
I0104 20:10:34.279776   465 net.cpp:435] conv4_3 <- conv4_2
I0104 20:10:34.279781   465 net.cpp:409] conv4_3 -> conv4_3
I0104 20:10:34.297883   465 layer_factory.hpp:77] Creating layer conv4_3
I0104 20:10:34.315851   465 net.cpp:144] Setting up conv4_3
I0104 20:10:34.315865   465 net.cpp:151] Top shape: 1 512 38 38 (739328)
I0104 20:10:34.315887   465 net.cpp:159] Memory required for data: 269538500
I0104 20:10:34.315896   465 layer_factory.hpp:77] Creating layer relu4_3
I0104 20:10:34.315902   465 net.cpp:94] Creating Layer relu4_3
I0104 20:10:34.315907   465 net.cpp:435] relu4_3 <- conv4_3
I0104 20:10:34.315912   465 net.cpp:396] relu4_3 -> conv4_3 (in-place)
I0104 20:10:34.315918   465 net.cpp:144] Setting up relu4_3
I0104 20:10:34.315935   465 net.cpp:151] Top shape: 1 512 38 38 (739328)
I0104 20:10:34.315939   465 net.cpp:159] Memory required for data: 272495812
I0104 20:10:34.315943   465 layer_factory.hpp:77] Creating layer conv4_3_fixed
I0104 20:10:34.315949   465 net.cpp:94] Creating Layer conv4_3_fixed
I0104 20:10:34.315953   465 net.cpp:435] conv4_3_fixed <- conv4_3
I0104 20:10:34.315956   465 net.cpp:396] conv4_3_fixed -> conv4_3 (in-place)
I0104 20:10:34.315984   465 net.cpp:144] Setting up conv4_3_fixed
I0104 20:10:34.315989   465 net.cpp:151] Top shape: 1 512 38 38 (739328)
I0104 20:10:34.315994   465 net.cpp:159] Memory required for data: 275453124
I0104 20:10:34.315999   465 layer_factory.hpp:77] Creating layer conv4_3_conv4_3_fixed_0_split
I0104 20:10:34.316004   465 net.cpp:94] Creating Layer conv4_3_conv4_3_fixed_0_split
I0104 20:10:34.316007   465 net.cpp:435] conv4_3_conv4_3_fixed_0_split <- conv4_3
I0104 20:10:34.316012   465 net.cpp:409] conv4_3_conv4_3_fixed_0_split -> conv4_3_conv4_3_fixed_0_split_0
I0104 20:10:34.316018   465 net.cpp:409] conv4_3_conv4_3_fixed_0_split -> conv4_3_conv4_3_fixed_0_split_1
I0104 20:10:34.316025   465 net.cpp:409] conv4_3_conv4_3_fixed_0_split -> conv4_3_conv4_3_fixed_0_split_2
I0104 20:10:34.316030   465 net.cpp:409] conv4_3_conv4_3_fixed_0_split -> conv4_3_conv4_3_fixed_0_split_3
I0104 20:10:34.316076   465 net.cpp:144] Setting up conv4_3_conv4_3_fixed_0_split
I0104 20:10:34.316080   465 net.cpp:151] Top shape: 1 512 38 38 (739328)
I0104 20:10:34.316084   465 net.cpp:151] Top shape: 1 512 38 38 (739328)
I0104 20:10:34.316088   465 net.cpp:151] Top shape: 1 512 38 38 (739328)
I0104 20:10:34.316092   465 net.cpp:151] Top shape: 1 512 38 38 (739328)
I0104 20:10:34.316097   465 net.cpp:159] Memory required for data: 287282372
I0104 20:10:34.316099   465 layer_factory.hpp:77] Creating layer pool4
I0104 20:10:34.316105   465 net.cpp:94] Creating Layer pool4
I0104 20:10:34.316108   465 net.cpp:435] pool4 <- conv4_3_conv4_3_fixed_0_split_0
I0104 20:10:34.316113   465 net.cpp:409] pool4 -> pool4
I0104 20:10:34.316140   465 net.cpp:144] Setting up pool4
I0104 20:10:34.316145   465 net.cpp:151] Top shape: 1 512 19 19 (184832)
I0104 20:10:34.316150   465 net.cpp:159] Memory required for data: 288021700
I0104 20:10:34.316154   465 layer_factory.hpp:77] Creating layer conv5_1
I0104 20:10:34.316161   465 net.cpp:94] Creating Layer conv5_1
I0104 20:10:34.316165   465 net.cpp:435] conv5_1 <- pool4
I0104 20:10:34.316170   465 net.cpp:409] conv5_1 -> conv5_1
I0104 20:10:34.334054   465 layer_factory.hpp:77] Creating layer conv5_1
I0104 20:10:34.351850   465 net.cpp:144] Setting up conv5_1
I0104 20:10:34.351863   465 net.cpp:151] Top shape: 1 512 19 19 (184832)
I0104 20:10:34.351886   465 net.cpp:159] Memory required for data: 288761028
I0104 20:10:34.351898   465 layer_factory.hpp:77] Creating layer relu5_1
I0104 20:10:34.351905   465 net.cpp:94] Creating Layer relu5_1
I0104 20:10:34.351910   465 net.cpp:435] relu5_1 <- conv5_1
I0104 20:10:34.351915   465 net.cpp:396] relu5_1 -> conv5_1 (in-place)
I0104 20:10:34.351938   465 net.cpp:144] Setting up relu5_1
I0104 20:10:34.351941   465 net.cpp:151] Top shape: 1 512 19 19 (184832)
I0104 20:10:34.351945   465 net.cpp:159] Memory required for data: 289500356
I0104 20:10:34.351949   465 layer_factory.hpp:77] Creating layer conv5_1_fixed
I0104 20:10:34.351955   465 net.cpp:94] Creating Layer conv5_1_fixed
I0104 20:10:34.351958   465 net.cpp:435] conv5_1_fixed <- conv5_1
I0104 20:10:34.351963   465 net.cpp:396] conv5_1_fixed -> conv5_1 (in-place)
I0104 20:10:34.351994   465 net.cpp:144] Setting up conv5_1_fixed
I0104 20:10:34.351999   465 net.cpp:151] Top shape: 1 512 19 19 (184832)
I0104 20:10:34.352002   465 net.cpp:159] Memory required for data: 290239684
I0104 20:10:34.352007   465 layer_factory.hpp:77] Creating layer conv5_2
I0104 20:10:34.352015   465 net.cpp:94] Creating Layer conv5_2
I0104 20:10:34.352018   465 net.cpp:435] conv5_2 <- conv5_1
I0104 20:10:34.352023   465 net.cpp:409] conv5_2 -> conv5_2
I0104 20:10:34.368842   465 layer_factory.hpp:77] Creating layer conv5_2
I0104 20:10:34.386795   465 net.cpp:144] Setting up conv5_2
I0104 20:10:34.386809   465 net.cpp:151] Top shape: 1 512 19 19 (184832)
I0104 20:10:34.386832   465 net.cpp:159] Memory required for data: 290979012
I0104 20:10:34.386840   465 layer_factory.hpp:77] Creating layer relu5_2
I0104 20:10:34.386847   465 net.cpp:94] Creating Layer relu5_2
I0104 20:10:34.386852   465 net.cpp:435] relu5_2 <- conv5_2
I0104 20:10:34.386857   465 net.cpp:396] relu5_2 -> conv5_2 (in-place)
I0104 20:10:34.386864   465 net.cpp:144] Setting up relu5_2
I0104 20:10:34.386868   465 net.cpp:151] Top shape: 1 512 19 19 (184832)
I0104 20:10:34.386871   465 net.cpp:159] Memory required for data: 291718340
I0104 20:10:34.386874   465 layer_factory.hpp:77] Creating layer conv5_2_fixed
I0104 20:10:34.386881   465 net.cpp:94] Creating Layer conv5_2_fixed
I0104 20:10:34.386884   465 net.cpp:435] conv5_2_fixed <- conv5_2
I0104 20:10:34.386889   465 net.cpp:396] conv5_2_fixed -> conv5_2 (in-place)
I0104 20:10:34.386917   465 net.cpp:144] Setting up conv5_2_fixed
I0104 20:10:34.386924   465 net.cpp:151] Top shape: 1 512 19 19 (184832)
I0104 20:10:34.386927   465 net.cpp:159] Memory required for data: 292457668
I0104 20:10:34.386931   465 layer_factory.hpp:77] Creating layer conv5_3
I0104 20:10:34.386940   465 net.cpp:94] Creating Layer conv5_3
I0104 20:10:34.386943   465 net.cpp:435] conv5_3 <- conv5_2
I0104 20:10:34.386948   465 net.cpp:409] conv5_3 -> conv5_3
I0104 20:10:34.404799   465 layer_factory.hpp:77] Creating layer conv5_3
I0104 20:10:34.422789   465 net.cpp:144] Setting up conv5_3
I0104 20:10:34.422804   465 net.cpp:151] Top shape: 1 512 19 19 (184832)
I0104 20:10:34.422812   465 net.cpp:159] Memory required for data: 293196996
I0104 20:10:34.422822   465 layer_factory.hpp:77] Creating layer relu5_3
I0104 20:10:34.422828   465 net.cpp:94] Creating Layer relu5_3
I0104 20:10:34.422834   465 net.cpp:435] relu5_3 <- conv5_3
I0104 20:10:34.422840   465 net.cpp:396] relu5_3 -> conv5_3 (in-place)
I0104 20:10:34.422848   465 net.cpp:144] Setting up relu5_3
I0104 20:10:34.422852   465 net.cpp:151] Top shape: 1 512 19 19 (184832)
I0104 20:10:34.422855   465 net.cpp:159] Memory required for data: 293936324
I0104 20:10:34.422858   465 layer_factory.hpp:77] Creating layer pool5
I0104 20:10:34.422864   465 net.cpp:94] Creating Layer pool5
I0104 20:10:34.422868   465 net.cpp:435] pool5 <- conv5_3
I0104 20:10:34.422873   465 net.cpp:409] pool5 -> pool5
I0104 20:10:34.422904   465 net.cpp:144] Setting up pool5
I0104 20:10:34.422909   465 net.cpp:151] Top shape: 1 512 19 19 (184832)
I0104 20:10:34.422914   465 net.cpp:159] Memory required for data: 294675652
I0104 20:10:34.422917   465 layer_factory.hpp:77] Creating layer pool5_fixed
I0104 20:10:34.422924   465 net.cpp:94] Creating Layer pool5_fixed
I0104 20:10:34.422927   465 net.cpp:435] pool5_fixed <- pool5
I0104 20:10:34.422931   465 net.cpp:396] pool5_fixed -> pool5 (in-place)
I0104 20:10:34.422958   465 net.cpp:144] Setting up pool5_fixed
I0104 20:10:34.422963   465 net.cpp:151] Top shape: 1 512 19 19 (184832)
I0104 20:10:34.422967   465 net.cpp:159] Memory required for data: 295414980
I0104 20:10:34.422972   465 layer_factory.hpp:77] Creating layer fc6_682
I0104 20:10:34.422979   465 net.cpp:94] Creating Layer fc6_682
I0104 20:10:34.422983   465 net.cpp:435] fc6_682 <- pool5
I0104 20:10:34.422987   465 net.cpp:409] fc6_682 -> fc6_682
I0104 20:10:34.447122   465 layer_factory.hpp:77] Creating layer fc6_682
I0104 20:10:34.471220   465 net.cpp:144] Setting up fc6_682
I0104 20:10:34.471236   465 net.cpp:151] Top shape: 1 682 19 19 (246202)
I0104 20:10:34.471246   465 net.cpp:159] Memory required for data: 296399788
I0104 20:10:34.471254   465 layer_factory.hpp:77] Creating layer relu6
I0104 20:10:34.471261   465 net.cpp:94] Creating Layer relu6
I0104 20:10:34.471266   465 net.cpp:435] relu6 <- fc6_682
I0104 20:10:34.471272   465 net.cpp:396] relu6 -> fc6_682 (in-place)
I0104 20:10:34.471282   465 net.cpp:144] Setting up relu6
I0104 20:10:34.471285   465 net.cpp:151] Top shape: 1 682 19 19 (246202)
I0104 20:10:34.471289   465 net.cpp:159] Memory required for data: 297384596
I0104 20:10:34.471292   465 layer_factory.hpp:77] Creating layer fc6_682_fixed
I0104 20:10:34.471299   465 net.cpp:94] Creating Layer fc6_682_fixed
I0104 20:10:34.471302   465 net.cpp:435] fc6_682_fixed <- fc6_682
I0104 20:10:34.471307   465 net.cpp:396] fc6_682_fixed -> fc6_682 (in-place)
I0104 20:10:34.471335   465 net.cpp:144] Setting up fc6_682_fixed
I0104 20:10:34.471340   465 net.cpp:151] Top shape: 1 682 19 19 (246202)
I0104 20:10:34.471345   465 net.cpp:159] Memory required for data: 298369404
I0104 20:10:34.471349   465 layer_factory.hpp:77] Creating layer fc7_682
I0104 20:10:34.471357   465 net.cpp:94] Creating Layer fc7_682
I0104 20:10:34.471361   465 net.cpp:435] fc7_682 <- fc6_682
I0104 20:10:34.471365   465 net.cpp:409] fc7_682 -> fc7_682
I0104 20:10:34.476939   465 layer_factory.hpp:77] Creating layer fc7_682
I0104 20:10:34.482535   465 net.cpp:144] Setting up fc7_682
I0104 20:10:34.482545   465 net.cpp:151] Top shape: 1 1024 19 19 (369664)
I0104 20:10:34.482551   465 net.cpp:159] Memory required for data: 299848060
I0104 20:10:34.482573   465 layer_factory.hpp:77] Creating layer relu7
I0104 20:10:34.482578   465 net.cpp:94] Creating Layer relu7
I0104 20:10:34.482583   465 net.cpp:435] relu7 <- fc7_682
I0104 20:10:34.482589   465 net.cpp:396] relu7 -> fc7_682 (in-place)
I0104 20:10:34.482594   465 net.cpp:144] Setting up relu7
I0104 20:10:34.482597   465 net.cpp:151] Top shape: 1 1024 19 19 (369664)
I0104 20:10:34.482601   465 net.cpp:159] Memory required for data: 301326716
I0104 20:10:34.482604   465 layer_factory.hpp:77] Creating layer fc7_682_fixed
I0104 20:10:34.482625   465 net.cpp:94] Creating Layer fc7_682_fixed
I0104 20:10:34.482627   465 net.cpp:435] fc7_682_fixed <- fc7_682
I0104 20:10:34.482632   465 net.cpp:396] fc7_682_fixed -> fc7_682 (in-place)
I0104 20:10:34.482661   465 net.cpp:144] Setting up fc7_682_fixed
I0104 20:10:34.482664   465 net.cpp:151] Top shape: 1 1024 19 19 (369664)
I0104 20:10:34.482668   465 net.cpp:159] Memory required for data: 302805372
I0104 20:10:34.482673   465 layer_factory.hpp:77] Creating layer fc7_682_fc7_682_fixed_0_split
I0104 20:10:34.482678   465 net.cpp:94] Creating Layer fc7_682_fc7_682_fixed_0_split
I0104 20:10:34.482681   465 net.cpp:435] fc7_682_fc7_682_fixed_0_split <- fc7_682
I0104 20:10:34.482686   465 net.cpp:409] fc7_682_fc7_682_fixed_0_split -> fc7_682_fc7_682_fixed_0_split_0
I0104 20:10:34.482692   465 net.cpp:409] fc7_682_fc7_682_fixed_0_split -> fc7_682_fc7_682_fixed_0_split_1
I0104 20:10:34.482697   465 net.cpp:409] fc7_682_fc7_682_fixed_0_split -> fc7_682_fc7_682_fixed_0_split_2
I0104 20:10:34.482702   465 net.cpp:409] fc7_682_fc7_682_fixed_0_split -> fc7_682_fc7_682_fixed_0_split_3
I0104 20:10:34.482745   465 net.cpp:144] Setting up fc7_682_fc7_682_fixed_0_split
I0104 20:10:34.482751   465 net.cpp:151] Top shape: 1 1024 19 19 (369664)
I0104 20:10:34.482756   465 net.cpp:151] Top shape: 1 1024 19 19 (369664)
I0104 20:10:34.482759   465 net.cpp:151] Top shape: 1 1024 19 19 (369664)
I0104 20:10:34.482764   465 net.cpp:151] Top shape: 1 1024 19 19 (369664)
I0104 20:10:34.482767   465 net.cpp:159] Memory required for data: 308719996
I0104 20:10:34.482770   465 layer_factory.hpp:77] Creating layer conv6_1
I0104 20:10:34.482779   465 net.cpp:94] Creating Layer conv6_1
I0104 20:10:34.482781   465 net.cpp:435] conv6_1 <- fc7_682_fc7_682_fixed_0_split_0
I0104 20:10:34.482787   465 net.cpp:409] conv6_1 -> conv6_1
I0104 20:10:34.485070   465 layer_factory.hpp:77] Creating layer conv6_1
I0104 20:10:34.487478   465 net.cpp:144] Setting up conv6_1
I0104 20:10:34.487488   465 net.cpp:151] Top shape: 1 256 19 19 (92416)
I0104 20:10:34.487509   465 net.cpp:159] Memory required for data: 309089660
I0104 20:10:34.487514   465 layer_factory.hpp:77] Creating layer conv6_1_relu
I0104 20:10:34.487519   465 net.cpp:94] Creating Layer conv6_1_relu
I0104 20:10:34.487522   465 net.cpp:435] conv6_1_relu <- conv6_1
I0104 20:10:34.487527   465 net.cpp:396] conv6_1_relu -> conv6_1 (in-place)
I0104 20:10:34.487534   465 net.cpp:144] Setting up conv6_1_relu
I0104 20:10:34.487536   465 net.cpp:151] Top shape: 1 256 19 19 (92416)
I0104 20:10:34.487540   465 net.cpp:159] Memory required for data: 309459324
I0104 20:10:34.487543   465 layer_factory.hpp:77] Creating layer conv6_1_fixed
I0104 20:10:34.487565   465 net.cpp:94] Creating Layer conv6_1_fixed
I0104 20:10:34.487567   465 net.cpp:435] conv6_1_fixed <- conv6_1
I0104 20:10:34.487572   465 net.cpp:396] conv6_1_fixed -> conv6_1 (in-place)
I0104 20:10:34.487601   465 net.cpp:144] Setting up conv6_1_fixed
I0104 20:10:34.487607   465 net.cpp:151] Top shape: 1 256 19 19 (92416)
I0104 20:10:34.487612   465 net.cpp:159] Memory required for data: 309828988
I0104 20:10:34.487615   465 layer_factory.hpp:77] Creating layer conv6_2
I0104 20:10:34.487622   465 net.cpp:94] Creating Layer conv6_2
I0104 20:10:34.487625   465 net.cpp:435] conv6_2 <- conv6_1
I0104 20:10:34.487630   465 net.cpp:409] conv6_2 -> conv6_2
I0104 20:10:34.496737   465 layer_factory.hpp:77] Creating layer conv6_2
I0104 20:10:34.505970   465 net.cpp:144] Setting up conv6_2
I0104 20:10:34.505981   465 net.cpp:151] Top shape: 1 512 10 10 (51200)
I0104 20:10:34.506004   465 net.cpp:159] Memory required for data: 310033788
I0104 20:10:34.506012   465 layer_factory.hpp:77] Creating layer conv6_2_relu
I0104 20:10:34.506018   465 net.cpp:94] Creating Layer conv6_2_relu
I0104 20:10:34.506022   465 net.cpp:435] conv6_2_relu <- conv6_2
I0104 20:10:34.506027   465 net.cpp:396] conv6_2_relu -> conv6_2 (in-place)
I0104 20:10:34.506038   465 net.cpp:144] Setting up conv6_2_relu
I0104 20:10:34.506043   465 net.cpp:151] Top shape: 1 512 10 10 (51200)
I0104 20:10:34.506047   465 net.cpp:159] Memory required for data: 310238588
I0104 20:10:34.506050   465 layer_factory.hpp:77] Creating layer conv6_2_fixed
I0104 20:10:34.506057   465 net.cpp:94] Creating Layer conv6_2_fixed
I0104 20:10:34.506059   465 net.cpp:435] conv6_2_fixed <- conv6_2
I0104 20:10:34.506064   465 net.cpp:396] conv6_2_fixed -> conv6_2 (in-place)
I0104 20:10:34.506093   465 net.cpp:144] Setting up conv6_2_fixed
I0104 20:10:34.506098   465 net.cpp:151] Top shape: 1 512 10 10 (51200)
I0104 20:10:34.506103   465 net.cpp:159] Memory required for data: 310443388
I0104 20:10:34.506106   465 layer_factory.hpp:77] Creating layer conv6_2_conv6_2_fixed_0_split
I0104 20:10:34.506112   465 net.cpp:94] Creating Layer conv6_2_conv6_2_fixed_0_split
I0104 20:10:34.506115   465 net.cpp:435] conv6_2_conv6_2_fixed_0_split <- conv6_2
I0104 20:10:34.506120   465 net.cpp:409] conv6_2_conv6_2_fixed_0_split -> conv6_2_conv6_2_fixed_0_split_0
I0104 20:10:34.506126   465 net.cpp:409] conv6_2_conv6_2_fixed_0_split -> conv6_2_conv6_2_fixed_0_split_1
I0104 20:10:34.506131   465 net.cpp:409] conv6_2_conv6_2_fixed_0_split -> conv6_2_conv6_2_fixed_0_split_2
I0104 20:10:34.506136   465 net.cpp:409] conv6_2_conv6_2_fixed_0_split -> conv6_2_conv6_2_fixed_0_split_3
I0104 20:10:34.506182   465 net.cpp:144] Setting up conv6_2_conv6_2_fixed_0_split
I0104 20:10:34.506187   465 net.cpp:151] Top shape: 1 512 10 10 (51200)
I0104 20:10:34.506192   465 net.cpp:151] Top shape: 1 512 10 10 (51200)
I0104 20:10:34.506196   465 net.cpp:151] Top shape: 1 512 10 10 (51200)
I0104 20:10:34.506199   465 net.cpp:151] Top shape: 1 512 10 10 (51200)
I0104 20:10:34.506204   465 net.cpp:159] Memory required for data: 311262588
I0104 20:10:34.506207   465 layer_factory.hpp:77] Creating layer conv7_1
I0104 20:10:34.506214   465 net.cpp:94] Creating Layer conv7_1
I0104 20:10:34.506218   465 net.cpp:435] conv7_1 <- conv6_2_conv6_2_fixed_0_split_0
I0104 20:10:34.506223   465 net.cpp:409] conv7_1 -> conv7_1
I0104 20:10:34.506742   465 layer_factory.hpp:77] Creating layer conv7_1
I0104 20:10:34.507364   465 net.cpp:144] Setting up conv7_1
I0104 20:10:34.507369   465 net.cpp:151] Top shape: 1 128 10 10 (12800)
I0104 20:10:34.507375   465 net.cpp:159] Memory required for data: 311313788
I0104 20:10:34.507380   465 layer_factory.hpp:77] Creating layer conv7_1_relu
I0104 20:10:34.507385   465 net.cpp:94] Creating Layer conv7_1_relu
I0104 20:10:34.507388   465 net.cpp:435] conv7_1_relu <- conv7_1
I0104 20:10:34.507392   465 net.cpp:396] conv7_1_relu -> conv7_1 (in-place)
I0104 20:10:34.507397   465 net.cpp:144] Setting up conv7_1_relu
…
I0104 20:11:10.656778   465 net.cpp:435] fc7_682_fc7_682_fixed_0_split <- fc7_682
I0104 20:11:10.656782   465 net.cpp:409] fc7_682_fc7_682_fixed_0_split -> fc7_682_fc7_682_fixed_0_split_0
I0104 20:11:10.656788   465 net.cpp:409] fc7_682_fc7_682_fixed_0_split -> fc7_682_fc7_682_fixed_0_split_1
I0104 20:11:10.656793   465 net.cpp:409] fc7_682_fc7_682_fixed_0_split -> fc7_682_fc7_682_fixed_0_split_2
I0104 20:11:10.656798   465 net.cpp:409] fc7_682_fc7_682_fixed_0_split -> fc7_682_fc7_682_fixed_0_split_3
I0104 20:11:10.656848   465 net.cpp:144] Setting up fc7_682_fc7_682_fixed_0_split
I0104 20:11:10.656854   465 net.cpp:151] Top shape: 1 1024 19 19 (369664)
I0104 20:11:10.656858   465 net.cpp:151] Top shape: 1 1024 19 19 (369664)
I0104 20:11:10.656862   465 net.cpp:151] Top shape: 1 1024 19 19 (369664)
I0104 20:11:10.656867   465 net.cpp:151] Top shape: 1 1024 19 19 (369664)
I0104 20:11:10.656870   465 net.cpp:159] Memory required for data: 308720056
I0104 20:11:10.656873   465 layer_factory.hpp:77] Creating layer conv6_1
I0104 20:11:10.656881   465 net.cpp:94] Creating Layer conv6_1
I0104 20:11:10.656886   465 net.cpp:435] conv6_1 <- fc7_682_fc7_682_fixed_0_split_0
I0104 20:11:10.656894   465 net.cpp:409] conv6_1 -> conv6_1
I0104 20:11:10.659093   465 layer_factory.hpp:77] Creating layer conv6_1
I0104 20:11:10.661408   465 net.cpp:144] Setting up conv6_1
I0104 20:11:10.661419   465 net.cpp:151] Top shape: 1 256 19 19 (92416)
I0104 20:11:10.661425   465 net.cpp:159] Memory required for data: 309089720
I0104 20:11:10.661432   465 layer_factory.hpp:77] Creating layer conv6_1_relu
I0104 20:11:10.661437   465 net.cpp:94] Creating Layer conv6_1_relu
I0104 20:11:10.661440   465 net.cpp:435] conv6_1_relu <- conv6_1
I0104 20:11:10.661445   465 net.cpp:396] conv6_1_relu -> conv6_1 (in-place)
I0104 20:11:10.661451   465 net.cpp:144] Setting up conv6_1_relu
I0104 20:11:10.661454   465 net.cpp:151] Top shape: 1 256 19 19 (92416)
I0104 20:11:10.661458   465 net.cpp:159] Memory required for data: 309459384
I0104 20:11:10.661461   465 layer_factory.hpp:77] Creating layer conv6_1_fixed
I0104 20:11:10.661468   465 net.cpp:94] Creating Layer conv6_1_fixed
I0104 20:11:10.661470   465 net.cpp:435] conv6_1_fixed <- conv6_1
I0104 20:11:10.661475   465 net.cpp:396] conv6_1_fixed -> conv6_1 (in-place)
I0104 20:11:10.661504   465 net.cpp:144] Setting up conv6_1_fixed
I0104 20:11:10.661512   465 net.cpp:151] Top shape: 1 256 19 19 (92416)
I0104 20:11:10.661518   465 net.cpp:159] Memory required for data: 309829048
I0104 20:11:10.661523   465 layer_factory.hpp:77] Creating layer conv6_2
I0104 20:11:10.661531   465 net.cpp:94] Creating Layer conv6_2
I0104 20:11:10.661536   465 net.cpp:435] conv6_2 <- conv6_1
I0104 20:11:10.661541   465 net.cpp:409] conv6_2 -> conv6_2
I0104 20:11:10.670598   465 layer_factory.hpp:77] Creating layer conv6_2
I0104 20:11:10.679790   465 net.cpp:144] Setting up conv6_2
I0104 20:11:10.679800   465 net.cpp:151] Top shape: 1 512 10 10 (51200)
I0104 20:11:10.679807   465 net.cpp:159] Memory required for data: 310033848
I0104 20:11:10.679814   465 layer_factory.hpp:77] Creating layer conv6_2_relu
I0104 20:11:10.679821   465 net.cpp:94] Creating Layer conv6_2_relu
I0104 20:11:10.679824   465 net.cpp:435] conv6_2_relu <- conv6_2
I0104 20:11:10.679829   465 net.cpp:396] conv6_2_relu -> conv6_2 (in-place)
I0104 20:11:10.679836   465 net.cpp:144] Setting up conv6_2_relu
I0104 20:11:10.679838   465 net.cpp:151] Top shape: 1 512 10 10 (51200)
I0104 20:11:10.679842   465 net.cpp:159] Memory required for data: 310238648
I0104 20:11:10.679845   465 layer_factory.hpp:77] Creating layer conv6_2_fixed
I0104 20:11:10.679852   465 net.cpp:94] Creating Layer conv6_2_fixed
I0104 20:11:10.679854   465 net.cpp:435] conv6_2_fixed <- conv6_2
I0104 20:11:10.679858   465 net.cpp:396] conv6_2_fixed -> conv6_2 (in-place)
I0104 20:11:10.679888   465 net.cpp:144] Setting up conv6_2_fixed
I0104 20:11:10.679893   465 net.cpp:151] Top shape: 1 512 10 10 (51200)
I0104 20:11:10.679898   465 net.cpp:159] Memory required for data: 310443448
I0104 20:11:10.679903   465 layer_factory.hpp:77] Creating layer conv6_2_conv6_2_fixed_0_split
I0104 20:11:10.679908   465 net.cpp:94] Creating Layer conv6_2_conv6_2_fixed_0_split
I0104 20:11:10.679911   465 net.cpp:435] conv6_2_conv6_2_fixed_0_split <- conv6_2
I0104 20:11:10.679915   465 net.cpp:409] conv6_2_conv6_2_fixed_0_split -> conv6_2_conv6_2_fixed_0_split_0
I0104 20:11:10.679921   465 net.cpp:409] conv6_2_conv6_2_fixed_0_split -> conv6_2_conv6_2_fixed_0_split_1
I0104 20:11:10.679926   465 net.cpp:409] conv6_2_conv6_2_fixed_0_split -> conv6_2_conv6_2_fixed_0_split_2
I0104 20:11:10.679931   465 net.cpp:409] conv6_2_conv6_2_fixed_0_split -> conv6_2_conv6_2_fixed_0_split_3
I0104 20:11:10.679986   465 net.cpp:144] Setting up conv6_2_conv6_2_fixed_0_split
I0104 20:11:10.679991   465 net.cpp:151] Top shape: 1 512 10 10 (51200)
I0104 20:11:10.679996   465 net.cpp:151] Top shape: 1 512 10 10 (51200)
I0104 20:11:10.679999   465 net.cpp:151] Top shape: 1 512 10 10 (51200)
I0104 20:11:10.680006   465 net.cpp:151] Top shape: 1 512 10 10 (51200)
I0104 20:11:10.680011   465 net.cpp:159] Memory required for data: 311262648
I0104 20:11:10.680013   465 layer_factory.hpp:77] Creating layer conv7_1
I0104 20:11:10.680022   465 net.cpp:94] Creating Layer conv7_1
I0104 20:11:10.680025   465 net.cpp:435] conv7_1 <- conv6_2_conv6_2_fixed_0_split_0
I0104 20:11:10.680032   465 net.cpp:409] conv7_1 -> conv7_1
I0104 20:11:10.680557   465 layer_factory.hpp:77] Creating layer conv7_1
I0104 20:11:10.681202   465 net.cpp:144] Setting up conv7_1
I0104 20:11:10.681210   465 net.cpp:151] Top shape: 1 128 10 10 (12800)
I0104 20:11:10.681214   465 net.cpp:159] Memory required for data: 311313848
I0104 20:11:10.681221   465 layer_factory.hpp:77] Creating layer conv7_1_relu
I0104 20:11:10.681226   465 net.cpp:94] Creating Layer conv7_1_relu
I0104 20:11:10.681228   465 net.cpp:435] conv7_1_relu <- conv7_1
I0104 20:11:10.681232   465 net.cpp:396] conv7_1_relu -> conv7_1 (in-place)
I0104 20:11:10.681238   465 net.cpp:144] Setting up conv7_1_relu
I0104 20:11:10.681241   465 net.cpp:151] Top shape: 1 128 10 10 (12800)
I0104 20:11:10.681246   465 net.cpp:159] Memory required for data: 311365048
I0104 20:11:10.681248   465 layer_factory.hpp:77] Creating layer conv7_1_fixed
I0104 20:11:10.681257   465 net.cpp:94] Creating Layer conv7_1_fixed
I0104 20:11:10.681259   465 net.cpp:435] conv7_1_fixed <- conv7_1
I0104 20:11:10.681263   465 net.cpp:396] conv7_1_fixed -> conv7_1 (in-place)
I0104 20:11:10.681290   465 net.cpp:144] Setting up conv7_1_fixed
I0104 20:11:10.681296   465 net.cpp:151] Top shape: 1 128 10 10 (12800)
I0104 20:11:10.681300   465 net.cpp:159] Memory required for data: 311416248
I0104 20:11:10.681304   465 layer_factory.hpp:77] Creating layer conv7_2
I0104 20:11:10.681311   465 net.cpp:94] Creating Layer conv7_2
I0104 20:11:10.681315   465 net.cpp:435] conv7_2 <- conv7_1
I0104 20:11:10.681319   465 net.cpp:409] conv7_2 -> conv7_2
I0104 20:11:10.684267   465 layer_factory.hpp:77] Creating layer conv7_2
I0104 20:11:10.687232   465 net.cpp:144] Setting up conv7_2
I0104 20:11:10.687242   465 net.cpp:151] Top shape: 1 256 5 5 (6400)
I0104 20:11:10.687247   465 net.cpp:159] Memory required for data: 311441848
I0104 20:11:10.687268   465 layer_factory.hpp:77] Creating layer conv7_2_relu
I0104 20:11:10.687274   465 net.cpp:94] Creating Layer conv7_2_relu
I0104 20:11:10.687278   465 net.cpp:435] conv7_2_relu <- conv7_2
I0104 20:11:10.687283   465 net.cpp:396] conv7_2_relu -> conv7_2 (in-place)
I0104 20:11:10.687289   465 net.cpp:144] Setting up conv7_2_relu
I0104 20:11:10.687291   465 net.cpp:151] Top shape: 1 256 5 5 (6400)
I0104 20:11:10.687310   465 net.cpp:159] Memory required for data: 311467448
I0104 20:11:10.687314   465 layer_factory.hpp:77] Creating layer conv7_2_fixed
I0104 20:11:10.687320   465 net.cpp:94] Creating Layer conv7_2_fixed
I0104 20:11:10.687323   465 net.cpp:435] conv7_2_fixed <- conv7_2
I0104 20:11:10.687327   465 net.cpp:396] conv7_2_fixed -> conv7_2 (in-place)
I0104 20:11:10.687355   465 net.cpp:144] Setting up conv7_2_fixed
I0104 20:11:10.687361   465 net.cpp:151] Top shape: 1 256 5 5 (6400)
I0104 20:11:10.687364   465 net.cpp:159] Memory required for data: 311493048
I0104 20:11:10.687368   465 layer_factory.hpp:77] Creating layer conv7_2_conv7_2_fixed_0_split
I0104 20:11:10.687374   465 net.cpp:94] Creating Layer conv7_2_conv7_2_fixed_0_split
I0104 20:11:10.687377   465 net.cpp:435] conv7_2_conv7_2_fixed_0_split <- conv7_2
I0104 20:11:10.687382   465 net.cpp:409] conv7_2_conv7_2_fixed_0_split -> conv7_2_conv7_2_fixed_0_split_0
I0104 20:11:10.687387   465 net.cpp:409] conv7_2_conv7_2_fixed_0_split -> conv7_2_conv7_2_fixed_0_split_1
I0104 20:11:10.687393   465 net.cpp:409] conv7_2_conv7_2_fixed_0_split -> conv7_2_conv7_2_fixed_0_split_2
I0104 20:11:10.687398   465 net.cpp:409] conv7_2_conv7_2_fixed_0_split -> conv7_2_conv7_2_fixed_0_split_3
I0104 20:11:10.687450   465 net.cpp:144] Setting up conv7_2_conv7_2_fixed_0_split
I0104 20:11:10.687455   465 net.cpp:151] Top shape: 1 256 5 5 (6400)
I0104 20:11:10.687460   465 net.cpp:151] Top shape: 1 256 5 5 (6400)
I0104 20:11:10.687464   465 net.cpp:151] Top shape: 1 256 5 5 (6400)
I0104 20:11:10.687467   465 net.cpp:151] Top shape: 1 256 5 5 (6400)
I0104 20:11:10.687472   465 net.cpp:159] Memory required for data: 311595448
I0104 20:11:10.687476   465 layer_factory.hpp:77] Creating layer conv8_1
I0104 20:11:10.687486   465 net.cpp:94] Creating Layer conv8_1
I0104 20:11:10.687489   465 net.cpp:435] conv8_1 <- conv7_2_conv7_2_fixed_0_split_0
I0104 20:11:10.687495   465 net.cpp:409] conv8_1 -> conv8_1
I0104 20:11:10.687836   465 layer_factory.hpp:77] Creating layer conv8_1
I0104 20:11:10.688284   465 net.cpp:144] Setting up conv8_1
I0104 20:11:10.688292   465 net.cpp:151] Top shape: 1 128 5 5 (3200)
I0104 20:11:10.688297   465 net.cpp:159] Memory required for data: 311608248
I0104 20:11:10.688302   465 layer_factory.hpp:77] Creating layer conv8_1_relu
I0104 20:11:10.688308   465 net.cpp:94] Creating Layer conv8_1_relu
I0104 20:11:10.688310   465 net.cpp:435] conv8_1_relu <- conv8_1
I0104 20:11:10.688315   465 net.cpp:396] conv8_1_relu -> conv8_1 (in-place)
I0104 20:11:10.688320   465 net.cpp:144] Setting up conv8_1_relu
I0104 20:11:10.688323   465 net.cpp:151] Top shape: 1 128 5 5 (3200)
I0104 20:11:10.688328   465 net.cpp:159] Memory required for data: 311621048
I0104 20:11:10.688330   465 layer_factory.hpp:77] Creating layer conv8_1_fixed
I0104 20:11:10.688335   465 net.cpp:94] Creating Layer conv8_1_fixed
I0104 20:11:10.688338   465 net.cpp:435] conv8_1_fixed <- conv8_1
I0104 20:11:10.688344   465 net.cpp:396] conv8_1_fixed -> conv8_1 (in-place)
I0104 20:11:10.688374   465 net.cpp:144] Setting up conv8_1_fixed
I0104 20:11:10.688380   465 net.cpp:151] Top shape: 1 128 5 5 (3200)
I0104 20:11:10.688383   465 net.cpp:159] Memory required for data: 311633848
I0104 20:11:10.688387   465 layer_factory.hpp:77] Creating layer conv8_2
I0104 20:11:10.688400   465 net.cpp:94] Creating Layer conv8_2
I0104 20:11:10.688402   465 net.cpp:435] conv8_2 <- conv8_1
I0104 20:11:10.688407   465 net.cpp:409] conv8_2 -> conv8_2
I0104 20:11:10.691386   465 layer_factory.hpp:77] Creating layer conv8_2
I0104 20:11:10.694499   465 net.cpp:144] Setting up conv8_2
I0104 20:11:10.694510   465 net.cpp:151] Top shape: 1 256 3 3 (2304)
I0104 20:11:10.694515   465 net.cpp:159] Memory required for data: 311643064
I0104 20:11:10.694536   465 layer_factory.hpp:77] Creating layer conv8_2_relu
I0104 20:11:10.694543   465 net.cpp:94] Creating Layer conv8_2_relu
I0104 20:11:10.694547   465 net.cpp:435] conv8_2_relu <- conv8_2
I0104 20:11:10.694552   465 net.cpp:396] conv8_2_relu -> conv8_2 (in-place)
I0104 20:11:10.694558   465 net.cpp:144] Setting up conv8_2_relu
I0104 20:11:10.694561   465 net.cpp:151] Top shape: 1 256 3 3 (2304)
I0104 20:11:10.694566   465 net.cpp:159] Memory required for data: 311652280
I0104 20:11:10.694568   465 layer_factory.hpp:77] Creating layer conv8_2_fixed
I0104 20:11:10.694574   465 net.cpp:94] Creating Layer conv8_2_fixed
I0104 20:11:10.694577   465 net.cpp:435] conv8_2_fixed <- conv8_2
I0104 20:11:10.694581   465 net.cpp:396] conv8_2_fixed -> conv8_2 (in-place)
I0104 20:11:10.694612   465 net.cpp:144] Setting up conv8_2_fixed
I0104 20:11:10.694617   465 net.cpp:151] Top shape: 1 256 3 3 (2304)
I0104 20:11:10.694622   465 net.cpp:159] Memory required for data: 311661496
I0104 20:11:10.694626   465 layer_factory.hpp:77] Creating layer conv8_2_conv8_2_fixed_0_split
I0104 20:11:10.694631   465 net.cpp:94] Creating Layer conv8_2_conv8_2_fixed_0_split
I0104 20:11:10.694634   465 net.cpp:435] conv8_2_conv8_2_fixed_0_split <- conv8_2
I0104 20:11:10.694639   465 net.cpp:409] conv8_2_conv8_2_fixed_0_split -> conv8_2_conv8_2_fixed_0_split_0
I0104 20:11:10.694645   465 net.cpp:409] conv8_2_conv8_2_fixed_0_split -> conv8_2_conv8_2_fixed_0_split_1
I0104 20:11:10.694650   465 net.cpp:409] conv8_2_conv8_2_fixed_0_split -> conv8_2_conv8_2_fixed_0_split_2
I0104 20:11:10.694655   465 net.cpp:409] conv8_2_conv8_2_fixed_0_split -> conv8_2_conv8_2_fixed_0_split_3
I0104 20:11:10.694708   465 net.cpp:144] Setting up conv8_2_conv8_2_fixed_0_split
I0104 20:11:10.694715   465 net.cpp:151] Top shape: 1 256 3 3 (2304)
I0104 20:11:10.694718   465 net.cpp:151] Top shape: 1 256 3 3 (2304)
I0104 20:11:10.694723   465 net.cpp:151] Top shape: 1 256 3 3 (2304)
I0104 20:11:10.694730   465 net.cpp:151] Top shape: 1 256 3 3 (2304)
I0104 20:11:10.694733   465 net.cpp:159] Memory required for data: 311698360
I0104 20:11:10.694737   465 layer_factory.hpp:77] Creating layer conv9_1
I0104 20:11:10.694746   465 net.cpp:94] Creating Layer conv9_1
I0104 20:11:10.694749   465 net.cpp:435] conv9_1 <- conv8_2_conv8_2_fixed_0_split_0
I0104 20:11:10.694754   465 net.cpp:409] conv9_1 -> conv9_1
I0104 20:11:10.695092   465 layer_factory.hpp:77] Creating layer conv9_1
I0104 20:11:10.695546   465 net.cpp:144] Setting up conv9_1
I0104 20:11:10.695554   465 net.cpp:151] Top shape: 1 128 3 3 (1152)
I0104 20:11:10.695559   465 net.cpp:159] Memory required for data: 311702968
I0104 20:11:10.695569   465 layer_factory.hpp:77] Creating layer conv9_1_relu
I0104 20:11:10.695575   465 net.cpp:94] Creating Layer conv9_1_relu
I0104 20:11:10.695578   465 net.cpp:435] conv9_1_relu <- conv9_1
I0104 20:11:10.695583   465 net.cpp:396] conv9_1_relu -> conv9_1 (in-place)
I0104 20:11:10.695588   465 net.cpp:144] Setting up conv9_1_relu
I0104 20:11:10.695591   465 net.cpp:151] Top shape: 1 128 3 3 (1152)
I0104 20:11:10.695595   465 net.cpp:159] Memory required for data: 311707576
I0104 20:11:10.695598   465 layer_factory.hpp:77] Creating layer conv9_1_fixed
I0104 20:11:10.695603   465 net.cpp:94] Creating Layer conv9_1_fixed
I0104 20:11:10.695607   465 net.cpp:435] conv9_1_fixed <- conv9_1
I0104 20:11:10.695611   465 net.cpp:396] conv9_1_fixed -> conv9_1 (in-place)
I0104 20:11:10.695641   465 net.cpp:144] Setting up conv9_1_fixed
I0104 20:11:10.695647   465 net.cpp:151] Top shape: 1 128 3 3 (1152)
I0104 20:11:10.695652   465 net.cpp:159] Memory required for data: 311712184
I0104 20:11:10.695657   465 layer_factory.hpp:77] Creating layer conv9_2
I0104 20:11:10.695663   465 net.cpp:94] Creating Layer conv9_2
I0104 20:11:10.695668   465 net.cpp:435] conv9_2 <- conv9_1
I0104 20:11:10.695674   465 net.cpp:409] conv9_2 -> conv9_2
I0104 20:11:10.698669   465 layer_factory.hpp:77] Creating layer conv9_2
I0104 20:11:10.701699   465 net.cpp:144] Setting up conv9_2
I0104 20:11:10.701709   465 net.cpp:151] Top shape: 1 256 1 1 (256)
I0104 20:11:10.701714   465 net.cpp:159] Memory required for data: 311713208
I0104 20:11:10.701720   465 layer_factory.hpp:77] Creating layer conv9_2_relu
I0104 20:11:10.701726   465 net.cpp:94] Creating Layer conv9_2_relu
I0104 20:11:10.701746   465 net.cpp:435] conv9_2_relu <- conv9_2
I0104 20:11:10.701751   465 net.cpp:396] conv9_2_relu -> conv9_2 (in-place)
I0104 20:11:10.701757   465 net.cpp:144] Setting up conv9_2_relu
I0104 20:11:10.701761   465 net.cpp:151] Top shape: 1 256 1 1 (256)
I0104 20:11:10.701764   465 net.cpp:159] Memory required for data: 311714232
I0104 20:11:10.701767   465 layer_factory.hpp:77] Creating layer conv9_2_fixed
I0104 20:11:10.701773   465 net.cpp:94] Creating Layer conv9_2_fixed
I0104 20:11:10.701776   465 net.cpp:435] conv9_2_fixed <- conv9_2
I0104 20:11:10.701781   465 net.cpp:396] conv9_2_fixed -> conv9_2 (in-place)
I0104 20:11:10.701808   465 net.cpp:144] Setting up conv9_2_fixed
I0104 20:11:10.701813   465 net.cpp:151] Top shape: 1 256 1 1 (256)
I0104 20:11:10.701817   465 net.cpp:159] Memory required for data: 311715256
I0104 20:11:10.701822   465 layer_factory.hpp:77] Creating layer conv9_2_conv9_2_fixed_0_split
I0104 20:11:10.701828   465 net.cpp:94] Creating Layer conv9_2_conv9_2_fixed_0_split
I0104 20:11:10.701831   465 net.cpp:435] conv9_2_conv9_2_fixed_0_split <- conv9_2
I0104 20:11:10.701835   465 net.cpp:409] conv9_2_conv9_2_fixed_0_split -> conv9_2_conv9_2_fixed_0_split_0
I0104 20:11:10.701843   465 net.cpp:409] conv9_2_conv9_2_fixed_0_split -> conv9_2_conv9_2_fixed_0_split_1
I0104 20:11:10.701850   465 net.cpp:409] conv9_2_conv9_2_fixed_0_split -> conv9_2_conv9_2_fixed_0_split_2
I0104 20:11:10.701913   465 net.cpp:144] Setting up conv9_2_conv9_2_fixed_0_split
I0104 20:11:10.701920   465 net.cpp:151] Top shape: 1 256 1 1 (256)
I0104 20:11:10.701923   465 net.cpp:151] Top shape: 1 256 1 1 (256)
I0104 20:11:10.701927   465 net.cpp:151] Top shape: 1 256 1 1 (256)
I0104 20:11:10.701930   465 net.cpp:159] Memory required for data: 311718328
I0104 20:11:10.701934   465 layer_factory.hpp:77] Creating layer conv4_3_norm_mbox_loc
I0104 20:11:10.701942   465 net.cpp:94] Creating Layer conv4_3_norm_mbox_loc
I0104 20:11:10.701946   465 net.cpp:435] conv4_3_norm_mbox_loc <- conv4_3_conv4_3_fixed_0_split_1
I0104 20:11:10.701951   465 net.cpp:409] conv4_3_norm_mbox_loc -> conv4_3_norm_mbox_loc
I0104 20:11:10.702531   465 layer_factory.hpp:77] Creating layer conv4_3_norm_mbox_loc
I0104 20:11:10.703229   465 net.cpp:144] Setting up conv4_3_norm_mbox_loc
I0104 20:11:10.703236   465 net.cpp:151] Top shape: 1 16 38 38 (23104)
I0104 20:11:10.703243   465 net.cpp:159] Memory required for data: 311810744
I0104 20:11:10.703248   465 layer_factory.hpp:77] Creating layer conv4_3_norm_mbox_loc_perm
I0104 20:11:10.703254   465 net.cpp:94] Creating Layer conv4_3_norm_mbox_loc_perm
I0104 20:11:10.703258   465 net.cpp:435] conv4_3_norm_mbox_loc_perm <- conv4_3_norm_mbox_loc
I0104 20:11:10.703263   465 net.cpp:409] conv4_3_norm_mbox_loc_perm -> conv4_3_norm_mbox_loc_perm
I0104 20:11:10.703343   465 net.cpp:144] Setting up conv4_3_norm_mbox_loc_perm
I0104 20:11:10.703351   465 net.cpp:151] Top shape: 1 38 38 16 (23104)
I0104 20:11:10.703356   465 net.cpp:159] Memory required for data: 311903160
I0104 20:11:10.703359   465 layer_factory.hpp:77] Creating layer conv4_3_norm_mbox_loc_flat
I0104 20:11:10.703364   465 net.cpp:94] Creating Layer conv4_3_norm_mbox_loc_flat
I0104 20:11:10.703368   465 net.cpp:435] conv4_3_norm_mbox_loc_flat <- conv4_3_norm_mbox_loc_perm
I0104 20:11:10.703372   465 net.cpp:409] conv4_3_norm_mbox_loc_flat -> conv4_3_norm_mbox_loc_flat
I0104 20:11:10.703392   465 net.cpp:144] Setting up conv4_3_norm_mbox_loc_flat
I0104 20:11:10.703397   465 net.cpp:151] Top shape: 1 23104 (23104)
I0104 20:11:10.703402   465 net.cpp:159] Memory required for data: 311995576
I0104 20:11:10.703408   465 layer_factory.hpp:77] Creating layer conv4_3_norm_mbox_conf
I0104 20:11:10.703416   465 net.cpp:94] Creating Layer conv4_3_norm_mbox_conf
I0104 20:11:10.703420   465 net.cpp:435] conv4_3_norm_mbox_conf <- conv4_3_conv4_3_fixed_0_split_2
I0104 20:11:10.703428   465 net.cpp:409] conv4_3_norm_mbox_conf -> conv4_3_norm_mbox_conf
I0104 20:11:10.706955   465 layer_factory.hpp:77] Creating layer conv4_3_norm_mbox_conf
I0104 20:11:10.710592   465 net.cpp:144] Setting up conv4_3_norm_mbox_conf
I0104 20:11:10.710603   465 net.cpp:151] Top shape: 1 84 38 38 (121296)
I0104 20:11:10.710609   465 net.cpp:159] Memory required for data: 312480760
I0104 20:11:10.710615   465 layer_factory.hpp:77] Creating layer conv4_3_norm_mbox_conf_perm
I0104 20:11:10.710623   465 net.cpp:94] Creating Layer conv4_3_norm_mbox_conf_perm
I0104 20:11:10.710626   465 net.cpp:435] conv4_3_norm_mbox_conf_perm <- conv4_3_norm_mbox_conf
I0104 20:11:10.710633   465 net.cpp:409] conv4_3_norm_mbox_conf_perm -> conv4_3_norm_mbox_conf_perm
I0104 20:11:10.710716   465 net.cpp:144] Setting up conv4_3_norm_mbox_conf_perm
I0104 20:11:10.710721   465 net.cpp:151] Top shape: 1 38 38 84 (121296)
I0104 20:11:10.710726   465 net.cpp:159] Memory required for data: 312965944
I0104 20:11:10.710731   465 layer_factory.hpp:77] Creating layer conv4_3_norm_mbox_conf_flat
I0104 20:11:10.710738   465 net.cpp:94] Creating Layer conv4_3_norm_mbox_conf_flat
I0104 20:11:10.710744   465 net.cpp:435] conv4_3_norm_mbox_conf_flat <- conv4_3_norm_mbox_conf_perm
I0104 20:11:10.710752   465 net.cpp:409] conv4_3_norm_mbox_conf_flat -> conv4_3_norm_mbox_conf_flat
I0104 20:11:10.710777   465 net.cpp:144] Setting up conv4_3_norm_mbox_conf_flat
I0104 20:11:10.710783   465 net.cpp:151] Top shape: 1 121296 (121296)
I0104 20:11:10.710788   465 net.cpp:159] Memory required for data: 313451128
I0104 20:11:10.710793   465 layer_factory.hpp:77] Creating layer conv4_3_norm_mbox_priorbox
I0104 20:11:10.710800   465 net.cpp:94] Creating Layer conv4_3_norm_mbox_priorbox
I0104 20:11:10.710803   465 net.cpp:435] conv4_3_norm_mbox_priorbox <- conv4_3_conv4_3_fixed_0_split_3
I0104 20:11:10.710808   465 net.cpp:435] conv4_3_norm_mbox_priorbox <- data_data_fixed_0_split_1
I0104 20:11:10.710813   465 net.cpp:409] conv4_3_norm_mbox_priorbox -> conv4_3_norm_mbox_priorbox
I0104 20:11:10.710836   465 net.cpp:144] Setting up conv4_3_norm_mbox_priorbox
I0104 20:11:10.710844   465 net.cpp:151] Top shape: 1 2 23104 (46208)
I0104 20:11:10.710851   465 net.cpp:159] Memory required for data: 313635960
I0104 20:11:10.710855   465 layer_factory.hpp:77] Creating layer fc7_mbox_loc
I0104 20:11:10.710862   465 net.cpp:94] Creating Layer fc7_mbox_loc
I0104 20:11:10.710866   465 net.cpp:435] fc7_mbox_loc <- fc7_682_fc7_682_fixed_0_split_1
I0104 20:11:10.710875   465 net.cpp:409] fc7_mbox_loc -> fc7_mbox_loc
I0104 20:11:10.712282   465 layer_factory.hpp:77] Creating layer fc7_mbox_loc
I0104 20:11:10.713795   465 net.cpp:144] Setting up fc7_mbox_loc
I0104 20:11:10.713804   465 net.cpp:151] Top shape: 1 24 19 19 (8664)
I0104 20:11:10.713809   465 net.cpp:159] Memory required for data: 313670616
I0104 20:11:10.713815   465 layer_factory.hpp:77] Creating layer fc7_mbox_loc_perm
I0104 20:11:10.713820   465 net.cpp:94] Creating Layer fc7_mbox_loc_perm
I0104 20:11:10.713824   465 net.cpp:435] fc7_mbox_loc_perm <- fc7_mbox_loc
I0104 20:11:10.713830   465 net.cpp:409] fc7_mbox_loc_perm -> fc7_mbox_loc_perm
I0104 20:11:10.713908   465 net.cpp:144] Setting up fc7_mbox_loc_perm
I0104 20:11:10.713914   465 net.cpp:151] Top shape: 1 19 19 24 (8664)
I0104 20:11:10.713919   465 net.cpp:159] Memory required for data: 313705272
I0104 20:11:10.713922   465 layer_factory.hpp:77] Creating layer fc7_mbox_loc_flat
I0104 20:11:10.713927   465 net.cpp:94] Creating Layer fc7_mbox_loc_flat
I0104 20:11:10.713930   465 net.cpp:435] fc7_mbox_loc_flat <- fc7_mbox_loc_perm
I0104 20:11:10.713937   465 net.cpp:409] fc7_mbox_loc_flat -> fc7_mbox_loc_flat
I0104 20:11:10.713960   465 net.cpp:144] Setting up fc7_mbox_loc_flat
I0104 20:11:10.713968   465 net.cpp:151] Top shape: 1 8664 (8664)
I0104 20:11:10.713973   465 net.cpp:159] Memory required for data: 313739928
I0104 20:11:10.713975   465 layer_factory.hpp:77] Creating layer fc7_mbox_conf
I0104 20:11:10.713982   465 net.cpp:94] Creating Layer fc7_mbox_conf
I0104 20:11:10.713985   465 net.cpp:435] fc7_mbox_conf <- fc7_682_fc7_682_fixed_0_split_2
I0104 20:11:10.713991   465 net.cpp:409] fc7_mbox_conf -> fc7_mbox_conf
I0104 20:11:10.722945   465 layer_factory.hpp:77] Creating layer fc7_mbox_conf
I0104 20:11:10.731895   465 net.cpp:144] Setting up fc7_mbox_conf
I0104 20:11:10.731907   465 net.cpp:151] Top shape: 1 126 19 19 (45486)
I0104 20:11:10.731914   465 net.cpp:159] Memory required for data: 313921872
I0104 20:11:10.731935   465 layer_factory.hpp:77] Creating layer fc7_mbox_conf_perm
I0104 20:11:10.731943   465 net.cpp:94] Creating Layer fc7_mbox_conf_perm
I0104 20:11:10.731948   465 net.cpp:435] fc7_mbox_conf_perm <- fc7_mbox_conf
I0104 20:11:10.731954   465 net.cpp:409] fc7_mbox_conf_perm -> fc7_mbox_conf_perm
I0104 20:11:10.732041   465 net.cpp:144] Setting up fc7_mbox_conf_perm
I0104 20:11:10.732048   465 net.cpp:151] Top shape: 1 19 19 126 (45486)
I0104 20:11:10.732053   465 net.cpp:159] Memory required for data: 314103816
I0104 20:11:10.732056   465 layer_factory.hpp:77] Creating layer fc7_mbox_conf_flat
I0104 20:11:10.732061   465 net.cpp:94] Creating Layer fc7_mbox_conf_flat
I0104 20:11:10.732065   465 net.cpp:435] fc7_mbox_conf_flat <- fc7_mbox_conf_perm
I0104 20:11:10.732069   465 net.cpp:409] fc7_mbox_conf_flat -> fc7_mbox_conf_flat
I0104 20:11:10.732089   465 net.cpp:144] Setting up fc7_mbox_conf_flat
I0104 20:11:10.732096   465 net.cpp:151] Top shape: 1 45486 (45486)
I0104 20:11:10.732101   465 net.cpp:159] Memory required for data: 314285760
I0104 20:11:10.732105   465 layer_factory.hpp:77] Creating layer fc7_mbox_priorbox
I0104 20:11:10.732113   465 net.cpp:94] Creating Layer fc7_mbox_priorbox
I0104 20:11:10.732117   465 net.cpp:435] fc7_mbox_priorbox <- fc7_682_fc7_682_fixed_0_split_3
I0104 20:11:10.732125   465 net.cpp:435] fc7_mbox_priorbox <- data_data_fixed_0_split_2
I0104 20:11:10.732131   465 net.cpp:409] fc7_mbox_priorbox -> fc7_mbox_priorbox
I0104 20:11:10.732156   465 net.cpp:144] Setting up fc7_mbox_priorbox
I0104 20:11:10.732163   465 net.cpp:151] Top shape: 1 2 8664 (17328)
I0104 20:11:10.732169   465 net.cpp:159] Memory required for data: 314355072
I0104 20:11:10.732172   465 layer_factory.hpp:77] Creating layer conv6_2_mbox_loc
I0104 20:11:10.732182   465 net.cpp:94] Creating Layer conv6_2_mbox_loc
I0104 20:11:10.732195   465 net.cpp:435] conv6_2_mbox_loc <- conv6_2_conv6_2_fixed_0_split_1
I0104 20:11:10.732201   465 net.cpp:409] conv6_2_mbox_loc -> conv6_2_mbox_loc
I0104 20:11:10.732990   465 layer_factory.hpp:77] Creating layer conv6_2_mbox_loc
I0104 20:11:10.733896   465 net.cpp:144] Setting up conv6_2_mbox_loc
I0104 20:11:10.733902   465 net.cpp:151] Top shape: 1 24 10 10 (2400)
I0104 20:11:10.733908   465 net.cpp:159] Memory required for data: 314364672
I0104 20:11:10.733913   465 layer_factory.hpp:77] Creating layer conv6_2_mbox_loc_perm
I0104 20:11:10.733919   465 net.cpp:94] Creating Layer conv6_2_mbox_loc_perm
I0104 20:11:10.733923   465 net.cpp:435] conv6_2_mbox_loc_perm <- conv6_2_mbox_loc
I0104 20:11:10.733928   465 net.cpp:409] conv6_2_mbox_loc_perm -> conv6_2_mbox_loc_perm
I0104 20:11:10.734009   465 net.cpp:144] Setting up conv6_2_mbox_loc_perm
I0104 20:11:10.734014   465 net.cpp:151] Top shape: 1 10 10 24 (2400)
I0104 20:11:10.734019   465 net.cpp:159] Memory required for data: 314374272
I0104 20:11:10.734021   465 layer_factory.hpp:77] Creating layer conv6_2_mbox_loc_flat
I0104 20:11:10.734027   465 net.cpp:94] Creating Layer conv6_2_mbox_loc_flat
I0104 20:11:10.734030   465 net.cpp:435] conv6_2_mbox_loc_flat <- conv6_2_mbox_loc_perm
I0104 20:11:10.734037   465 net.cpp:409] conv6_2_mbox_loc_flat -> conv6_2_mbox_loc_flat
I0104 20:11:10.734059   465 net.cpp:144] Setting up conv6_2_mbox_loc_flat
I0104 20:11:10.734066   465 net.cpp:151] Top shape: 1 2400 (2400)
I0104 20:11:10.734071   465 net.cpp:159] Memory required for data: 314383872
I0104 20:11:10.734074   465 layer_factory.hpp:77] Creating layer conv6_2_mbox_conf
I0104 20:11:10.734082   465 net.cpp:94] Creating Layer conv6_2_mbox_conf
I0104 20:11:10.734086   465 net.cpp:435] conv6_2_mbox_conf <- conv6_2_conv6_2_fixed_0_split_2
I0104 20:11:10.734091   465 net.cpp:409] conv6_2_mbox_conf -> conv6_2_mbox_conf
I0104 20:11:10.738715   465 layer_factory.hpp:77] Creating layer conv6_2_mbox_conf
I0104 20:11:10.743255   465 net.cpp:144] Setting up conv6_2_mbox_conf
I0104 20:11:10.743265   465 net.cpp:151] Top shape: 1 126 10 10 (12600)
I0104 20:11:10.743288   465 net.cpp:159] Memory required for data: 314434272
I0104 20:11:10.743294   465 layer_factory.hpp:77] Creating layer conv6_2_mbox_conf_perm
I0104 20:11:10.743299   465 net.cpp:94] Creating Layer conv6_2_mbox_conf_perm
I0104 20:11:10.743304   465 net.cpp:435] conv6_2_mbox_conf_perm <- conv6_2_mbox_conf
I0104 20:11:10.743309   465 net.cpp:409] conv6_2_mbox_conf_perm -> conv6_2_mbox_conf_perm
I0104 20:11:10.743404   465 net.cpp:144] Setting up conv6_2_mbox_conf_perm
I0104 20:11:10.743409   465 net.cpp:151] Top shape: 1 10 10 126 (12600)
I0104 20:11:10.743414   465 net.cpp:159] Memory required for data: 314484672
I0104 20:11:10.743417   465 layer_factory.hpp:77] Creating layer conv6_2_mbox_conf_flat
I0104 20:11:10.743422   465 net.cpp:94] Creating Layer conv6_2_mbox_conf_flat
I0104 20:11:10.743427   465 net.cpp:435] conv6_2_mbox_conf_flat <- conv6_2_mbox_conf_perm
I0104 20:11:10.743430   465 net.cpp:409] conv6_2_mbox_conf_flat -> conv6_2_mbox_conf_flat
I0104 20:11:10.743448   465 net.cpp:144] Setting up conv6_2_mbox_conf_flat
I0104 20:11:10.743455   465 net.cpp:151] Top shape: 1 12600 (12600)
I0104 20:11:10.743459   465 net.cpp:159] Memory required for data: 314535072
I0104 20:11:10.743463   465 layer_factory.hpp:77] Creating layer conv6_2_mbox_priorbox
I0104 20:11:10.743468   465 net.cpp:94] Creating Layer conv6_2_mbox_priorbox
I0104 20:11:10.743472   465 net.cpp:435] conv6_2_mbox_priorbox <- conv6_2_conv6_2_fixed_0_split_3
I0104 20:11:10.743476   465 net.cpp:435] conv6_2_mbox_priorbox <- data_data_fixed_0_split_3
I0104 20:11:10.743482   465 net.cpp:409] conv6_2_mbox_priorbox -> conv6_2_mbox_priorbox
I0104 20:11:10.743510   465 net.cpp:144] Setting up conv6_2_mbox_priorbox
I0104 20:11:10.743515   465 net.cpp:151] Top shape: 1 2 2400 (4800)
I0104 20:11:10.743520   465 net.cpp:159] Memory required for data: 314554272
I0104 20:11:10.743522   465 layer_factory.hpp:77] Creating layer conv7_2_mbox_loc
I0104 20:11:10.743530   465 net.cpp:94] Creating Layer conv7_2_mbox_loc
I0104 20:11:10.743535   465 net.cpp:435] conv7_2_mbox_loc <- conv7_2_conv7_2_fixed_0_split_1
I0104 20:11:10.743541   465 net.cpp:409] conv7_2_mbox_loc -> conv7_2_mbox_loc
I0104 20:11:10.744035   465 layer_factory.hpp:77] Creating layer conv7_2_mbox_loc
I0104 20:11:10.744643   465 net.cpp:144] Setting up conv7_2_mbox_loc
I0104 20:11:10.744650   465 net.cpp:151] Top shape: 1 24 5 5 (600)
I0104 20:11:10.744655   465 net.cpp:159] Memory required for data: 314556672
I0104 20:11:10.744661   465 layer_factory.hpp:77] Creating layer conv7_2_mbox_loc_perm
I0104 20:11:10.744666   465 net.cpp:94] Creating Layer conv7_2_mbox_loc_perm
I0104 20:11:10.744670   465 net.cpp:435] conv7_2_mbox_loc_perm <- conv7_2_mbox_loc
I0104 20:11:10.744675   465 net.cpp:409] conv7_2_mbox_loc_perm -> conv7_2_mbox_loc_perm
I0104 20:11:10.744755   465 net.cpp:144] Setting up conv7_2_mbox_loc_perm
I0104 20:11:10.744760   465 net.cpp:151] Top shape: 1 5 5 24 (600)
I0104 20:11:10.744765   465 net.cpp:159] Memory required for data: 314559072
I0104 20:11:10.744767   465 layer_factory.hpp:77] Creating layer conv7_2_mbox_loc_flat
I0104 20:11:10.744771   465 net.cpp:94] Creating Layer conv7_2_mbox_loc_flat
I0104 20:11:10.744776   465 net.cpp:435] conv7_2_mbox_loc_flat <- conv7_2_mbox_loc_perm
I0104 20:11:10.744779   465 net.cpp:409] conv7_2_mbox_loc_flat -> conv7_2_mbox_loc_flat
I0104 20:11:10.744798   465 net.cpp:144] Setting up conv7_2_mbox_loc_flat
I0104 20:11:10.744805   465 net.cpp:151] Top shape: 1 600 (600)
I0104 20:11:10.744812   465 net.cpp:159] Memory required for data: 314561472
I0104 20:11:10.744815   465 layer_factory.hpp:77] Creating layer conv7_2_mbox_conf
I0104 20:11:10.744822   465 net.cpp:94] Creating Layer conv7_2_mbox_conf
I0104 20:11:10.744827   465 net.cpp:435] conv7_2_mbox_conf <- conv7_2_conv7_2_fixed_0_split_2
I0104 20:11:10.744832   465 net.cpp:409] conv7_2_mbox_conf -> conv7_2_mbox_conf
I0104 20:11:10.747807   465 layer_factory.hpp:77] Creating layer conv7_2_mbox_conf
I0104 20:11:10.750870   465 net.cpp:144] Setting up conv7_2_mbox_conf
I0104 20:11:10.750880   465 net.cpp:151] Top shape: 1 126 5 5 (3150)
I0104 20:11:10.750901   465 net.cpp:159] Memory required for data: 314574072
I0104 20:11:10.750908   465 layer_factory.hpp:77] Creating layer conv7_2_mbox_conf_perm
I0104 20:11:10.750914   465 net.cpp:94] Creating Layer conv7_2_mbox_conf_perm
I0104 20:11:10.750918   465 net.cpp:435] conv7_2_mbox_conf_perm <- conv7_2_mbox_conf
I0104 20:11:10.750923   465 net.cpp:409] conv7_2_mbox_conf_perm -> conv7_2_mbox_conf_perm
I0104 20:11:10.751005   465 net.cpp:144] Setting up conv7_2_mbox_conf_perm
I0104 20:11:10.751010   465 net.cpp:151] Top shape: 1 5 5 126 (3150)
I0104 20:11:10.751015   465 net.cpp:159] Memory required for data: 314586672
I0104 20:11:10.751019   465 layer_factory.hpp:77] Creating layer conv7_2_mbox_conf_flat
I0104 20:11:10.751024   465 net.cpp:94] Creating Layer conv7_2_mbox_conf_flat
I0104 20:11:10.751026   465 net.cpp:435] conv7_2_mbox_conf_flat <- conv7_2_mbox_conf_perm
I0104 20:11:10.751031   465 net.cpp:409] conv7_2_mbox_conf_flat -> conv7_2_mbox_conf_flat
I0104 20:11:10.751050   465 net.cpp:144] Setting up conv7_2_mbox_conf_flat
I0104 20:11:10.751053   465 net.cpp:151] Top shape: 1 3150 (3150)
I0104 20:11:10.751057   465 net.cpp:159] Memory required for data: 314599272
I0104 20:11:10.751060   465 layer_factory.hpp:77] Creating layer conv7_2_mbox_priorbox
I0104 20:11:10.751067   465 net.cpp:94] Creating Layer conv7_2_mbox_priorbox
I0104 20:11:10.751071   465 net.cpp:435] conv7_2_mbox_priorbox <- conv7_2_conv7_2_fixed_0_split_3
I0104 20:11:10.751075   465 net.cpp:435] conv7_2_mbox_priorbox <- data_data_fixed_0_split_4
I0104 20:11:10.751080   465 net.cpp:409] conv7_2_mbox_priorbox -> conv7_2_mbox_priorbox
I0104 20:11:10.751104   465 net.cpp:144] Setting up conv7_2_mbox_priorbox
I0104 20:11:10.751111   465 net.cpp:151] Top shape: 1 2 600 (1200)
I0104 20:11:10.751116   465 net.cpp:159] Memory required for data: 314604072
I0104 20:11:10.751118   465 layer_factory.hpp:77] Creating layer conv8_2_mbox_loc
I0104 20:11:10.751127   465 net.cpp:94] Creating Layer conv8_2_mbox_loc
I0104 20:11:10.751130   465 net.cpp:435] conv8_2_mbox_loc <- conv8_2_conv8_2_fixed_0_split_1
I0104 20:11:10.751135   465 net.cpp:409] conv8_2_mbox_loc -> conv8_2_mbox_loc
I0104 20:11:10.751524   465 layer_factory.hpp:77] Creating layer conv8_2_mbox_loc
I0104 20:11:10.752028   465 net.cpp:144] Setting up conv8_2_mbox_loc
I0104 20:11:10.752036   465 net.cpp:151] Top shape: 1 16 3 3 (144)
I0104 20:11:10.752041   465 net.cpp:159] Memory required for data: 314604648
I0104 20:11:10.752048   465 layer_factory.hpp:77] Creating layer conv8_2_mbox_loc_perm
I0104 20:11:10.752053   465 net.cpp:94] Creating Layer conv8_2_mbox_loc_perm
I0104 20:11:10.752056   465 net.cpp:435] conv8_2_mbox_loc_perm <- conv8_2_mbox_loc
I0104 20:11:10.752063   465 net.cpp:409] conv8_2_mbox_loc_perm -> conv8_2_mbox_loc_perm
I0104 20:11:10.752140   465 net.cpp:144] Setting up conv8_2_mbox_loc_perm
I0104 20:11:10.752146   465 net.cpp:151] Top shape: 1 3 3 16 (144)
I0104 20:11:10.752149   465 net.cpp:159] Memory required for data: 314605224
I0104 20:11:10.752152   465 layer_factory.hpp:77] Creating layer conv8_2_mbox_loc_flat
I0104 20:11:10.752157   465 net.cpp:94] Creating Layer conv8_2_mbox_loc_flat
I0104 20:11:10.752161   465 net.cpp:435] conv8_2_mbox_loc_flat <- conv8_2_mbox_loc_perm
I0104 20:11:10.752166   465 net.cpp:409] conv8_2_mbox_loc_flat -> conv8_2_mbox_loc_flat
I0104 20:11:10.752182   465 net.cpp:144] Setting up conv8_2_mbox_loc_flat
I0104 20:11:10.752187   465 net.cpp:151] Top shape: 1 144 (144)
I0104 20:11:10.752192   465 net.cpp:159] Memory required for data: 314605800
I0104 20:11:10.752194   465 layer_factory.hpp:77] Creating layer conv8_2_mbox_conf
I0104 20:11:10.752202   465 net.cpp:94] Creating Layer conv8_2_mbox_conf
I0104 20:11:10.752207   465 net.cpp:435] conv8_2_mbox_conf <- conv8_2_conv8_2_fixed_0_split_2
I0104 20:11:10.752214   465 net.cpp:409] conv8_2_mbox_conf -> conv8_2_mbox_conf
I0104 20:11:10.753463   465 layer_factory.hpp:77] Creating layer conv8_2_mbox_conf
I0104 20:11:10.754822   465 net.cpp:144] Setting up conv8_2_mbox_conf
I0104 20:11:10.754828   465 net.cpp:151] Top shape: 1 84 3 3 (756)
I0104 20:11:10.754832   465 net.cpp:159] Memory required for data: 314608824
I0104 20:11:10.754838   465 layer_factory.hpp:77] Creating layer conv8_2_mbox_conf_perm
I0104 20:11:10.754843   465 net.cpp:94] Creating Layer conv8_2_mbox_conf_perm
I0104 20:11:10.754846   465 net.cpp:435] conv8_2_mbox_conf_perm <- conv8_2_mbox_conf
I0104 20:11:10.754851   465 net.cpp:409] conv8_2_mbox_conf_perm -> conv8_2_mbox_conf_perm
I0104 20:11:10.754957   465 net.cpp:144] Setting up conv8_2_mbox_conf_perm
I0104 20:11:10.754962   465 net.cpp:151] Top shape: 1 3 3 84 (756)
I0104 20:11:10.754966   465 net.cpp:159] Memory required for data: 314611848
I0104 20:11:10.754969   465 layer_factory.hpp:77] Creating layer conv8_2_mbox_conf_flat
I0104 20:11:10.754974   465 net.cpp:94] Creating Layer conv8_2_mbox_conf_flat
I0104 20:11:10.754978   465 net.cpp:435] conv8_2_mbox_conf_flat <- conv8_2_mbox_conf_perm
I0104 20:11:10.754982   465 net.cpp:409] conv8_2_mbox_conf_flat -> conv8_2_mbox_conf_flat
I0104 20:11:10.754999   465 net.cpp:144] Setting up conv8_2_mbox_conf_flat
I0104 20:11:10.755004   465 net.cpp:151] Top shape: 1 756 (756)
I0104 20:11:10.755008   465 net.cpp:159] Memory required for data: 314614872
I0104 20:11:10.755012   465 layer_factory.hpp:77] Creating layer conv8_2_mbox_priorbox
I0104 20:11:10.755018   465 net.cpp:94] Creating Layer conv8_2_mbox_priorbox
I0104 20:11:10.755021   465 net.cpp:435] conv8_2_mbox_priorbox <- conv8_2_conv8_2_fixed_0_split_3
I0104 20:11:10.755025   465 net.cpp:435] conv8_2_mbox_priorbox <- data_data_fixed_0_split_5
I0104 20:11:10.755030   465 net.cpp:409] conv8_2_mbox_priorbox -> conv8_2_mbox_priorbox
I0104 20:11:10.755053   465 net.cpp:144] Setting up conv8_2_mbox_priorbox
I0104 20:11:10.755060   465 net.cpp:151] Top shape: 1 2 144 (288)
I0104 20:11:10.755064   465 net.cpp:159] Memory required for data: 314616024
I0104 20:11:10.755067   465 layer_factory.hpp:77] Creating layer conv9_2_mbox_loc
I0104 20:11:10.755074   465 net.cpp:94] Creating Layer conv9_2_mbox_loc
I0104 20:11:10.755079   465 net.cpp:435] conv9_2_mbox_loc <- conv9_2_conv9_2_fixed_0_split_0
I0104 20:11:10.755084   465 net.cpp:409] conv9_2_mbox_loc -> conv9_2_mbox_loc
I0104 20:11:10.755452   465 layer_factory.hpp:77] Creating layer conv9_2_mbox_loc
I0104 20:11:10.755939   465 net.cpp:144] Setting up conv9_2_mbox_loc
I0104 20:11:10.755947   465 net.cpp:151] Top shape: 1 16 1 1 (16)
I0104 20:11:10.755951   465 net.cpp:159] Memory required for data: 314616088
I0104 20:11:10.755957   465 layer_factory.hpp:77] Creating layer conv9_2_mbox_loc_perm
I0104 20:11:10.755964   465 net.cpp:94] Creating Layer conv9_2_mbox_loc_perm
I0104 20:11:10.755967   465 net.cpp:435] conv9_2_mbox_loc_perm <- conv9_2_mbox_loc
I0104 20:11:10.755972   465 net.cpp:409] conv9_2_mbox_loc_perm -> conv9_2_mbox_loc_perm
I0104 20:11:10.756048   465 net.cpp:144] Setting up conv9_2_mbox_loc_perm
I0104 20:11:10.756054   465 net.cpp:151] Top shape: 1 1 1 16 (16)
I0104 20:11:10.756058   465 net.cpp:159] Memory required for data: 314616152
I0104 20:11:10.756062   465 layer_factory.hpp:77] Creating layer conv9_2_mbox_loc_flat
I0104 20:11:10.756067   465 net.cpp:94] Creating Layer conv9_2_mbox_loc_flat
I0104 20:11:10.756069   465 net.cpp:435] conv9_2_mbox_loc_flat <- conv9_2_mbox_loc_perm
I0104 20:11:10.756074   465 net.cpp:409] conv9_2_mbox_loc_flat -> conv9_2_mbox_loc_flat
I0104 20:11:10.756099   465 net.cpp:144] Setting up conv9_2_mbox_loc_flat
I0104 20:11:10.756108   465 net.cpp:151] Top shape: 1 16 (16)
I0104 20:11:10.756112   465 net.cpp:159] Memory required for data: 314616216
I0104 20:11:10.756115   465 layer_factory.hpp:77] Creating layer conv9_2_mbox_conf
I0104 20:11:10.756124   465 net.cpp:94] Creating Layer conv9_2_mbox_conf
I0104 20:11:10.756127   465 net.cpp:435] conv9_2_mbox_conf <- conv9_2_conv9_2_fixed_0_split_1
I0104 20:11:10.756132   465 net.cpp:409] conv9_2_mbox_conf -> conv9_2_mbox_conf
I0104 20:11:10.757383   465 layer_factory.hpp:77] Creating layer conv9_2_mbox_conf
I0104 20:11:10.758734   465 net.cpp:144] Setting up conv9_2_mbox_conf
I0104 20:11:10.758740   465 net.cpp:151] Top shape: 1 84 1 1 (84)
I0104 20:11:10.758744   465 net.cpp:159] Memory required for data: 314616552
I0104 20:11:10.758766   465 layer_factory.hpp:77] Creating layer conv9_2_mbox_conf_perm
I0104 20:11:10.758772   465 net.cpp:94] Creating Layer conv9_2_mbox_conf_perm
I0104 20:11:10.758775   465 net.cpp:435] conv9_2_mbox_conf_perm <- conv9_2_mbox_conf
I0104 20:11:10.758780   465 net.cpp:409] conv9_2_mbox_conf_perm -> conv9_2_mbox_conf_perm
I0104 20:11:10.758865   465 net.cpp:144] Setting up conv9_2_mbox_conf_perm
I0104 20:11:10.758872   465 net.cpp:151] Top shape: 1 1 1 84 (84)
I0104 20:11:10.758875   465 net.cpp:159] Memory required for data: 314616888
I0104 20:11:10.758878   465 layer_factory.hpp:77] Creating layer conv9_2_mbox_conf_flat
I0104 20:11:10.758883   465 net.cpp:94] Creating Layer conv9_2_mbox_conf_flat
I0104 20:11:10.758886   465 net.cpp:435] conv9_2_mbox_conf_flat <- conv9_2_mbox_conf_perm
I0104 20:11:10.758891   465 net.cpp:409] conv9_2_mbox_conf_flat -> conv9_2_mbox_conf_flat
I0104 20:11:10.758908   465 net.cpp:144] Setting up conv9_2_mbox_conf_flat
I0104 20:11:10.758911   465 net.cpp:151] Top shape: 1 84 (84)
I0104 20:11:10.758915   465 net.cpp:159] Memory required for data: 314617224
I0104 20:11:10.758919   465 layer_factory.hpp:77] Creating layer conv9_2_mbox_priorbox
I0104 20:11:10.758924   465 net.cpp:94] Creating Layer conv9_2_mbox_priorbox
I0104 20:11:10.758929   465 net.cpp:435] conv9_2_mbox_priorbox <- conv9_2_conv9_2_fixed_0_split_2
I0104 20:11:10.758934   465 net.cpp:435] conv9_2_mbox_priorbox <- data_data_fixed_0_split_6
I0104 20:11:10.758940   465 net.cpp:409] conv9_2_mbox_priorbox -> conv9_2_mbox_priorbox
I0104 20:11:10.758965   465 net.cpp:144] Setting up conv9_2_mbox_priorbox
I0104 20:11:10.758970   465 net.cpp:151] Top shape: 1 2 16 (32)
I0104 20:11:10.758973   465 net.cpp:159] Memory required for data: 314617352
I0104 20:11:10.758976   465 layer_factory.hpp:77] Creating layer mbox_loc
I0104 20:11:10.758985   465 net.cpp:94] Creating Layer mbox_loc
I0104 20:11:10.758991   465 net.cpp:435] mbox_loc <- conv4_3_norm_mbox_loc_flat
I0104 20:11:10.758997   465 net.cpp:435] mbox_loc <- fc7_mbox_loc_flat
I0104 20:11:10.759001   465 net.cpp:435] mbox_loc <- conv6_2_mbox_loc_flat
I0104 20:11:10.759004   465 net.cpp:435] mbox_loc <- conv7_2_mbox_loc_flat
I0104 20:11:10.759008   465 net.cpp:435] mbox_loc <- conv8_2_mbox_loc_flat
I0104 20:11:10.759011   465 net.cpp:435] mbox_loc <- conv9_2_mbox_loc_flat
I0104 20:11:10.759016   465 net.cpp:409] mbox_loc -> mbox_loc
I0104 20:11:10.759039   465 net.cpp:144] Setting up mbox_loc
I0104 20:11:10.759045   465 net.cpp:151] Top shape: 1 34928 (34928)
I0104 20:11:10.759049   465 net.cpp:159] Memory required for data: 314757064
I0104 20:11:10.759052   465 layer_factory.hpp:77] Creating layer mbox_loc_fixed
I0104 20:11:10.759058   465 net.cpp:94] Creating Layer mbox_loc_fixed
I0104 20:11:10.759061   465 net.cpp:435] mbox_loc_fixed <- mbox_loc
I0104 20:11:10.759068   465 net.cpp:396] mbox_loc_fixed -> mbox_loc (in-place)
I0104 20:11:10.759101   465 net.cpp:144] Setting up mbox_loc_fixed
I0104 20:11:10.759109   465 net.cpp:151] Top shape: 1 34928 (34928)
I0104 20:11:10.759114   465 net.cpp:159] Memory required for data: 314896776
I0104 20:11:10.759121   465 layer_factory.hpp:77] Creating layer mbox_conf
I0104 20:11:10.759127   465 net.cpp:94] Creating Layer mbox_conf
I0104 20:11:10.759130   465 net.cpp:435] mbox_conf <- conv4_3_norm_mbox_conf_flat
I0104 20:11:10.759135   465 net.cpp:435] mbox_conf <- fc7_mbox_conf_flat
I0104 20:11:10.759138   465 net.cpp:435] mbox_conf <- conv6_2_mbox_conf_flat
I0104 20:11:10.759142   465 net.cpp:435] mbox_conf <- conv7_2_mbox_conf_flat
I0104 20:11:10.759145   465 net.cpp:435] mbox_conf <- conv8_2_mbox_conf_flat
I0104 20:11:10.759148   465 net.cpp:435] mbox_conf <- conv9_2_mbox_conf_flat
I0104 20:11:10.759155   465 net.cpp:409] mbox_conf -> mbox_conf
I0104 20:11:10.759178   465 net.cpp:144] Setting up mbox_conf
I0104 20:11:10.759186   465 net.cpp:151] Top shape: 1 183372 (183372)
I0104 20:11:10.759191   465 net.cpp:159] Memory required for data: 315630264
I0104 20:11:10.759196   465 layer_factory.hpp:77] Creating layer mbox_conf_fixed
I0104 20:11:10.759212   465 net.cpp:94] Creating Layer mbox_conf_fixed
I0104 20:11:10.759217   465 net.cpp:435] mbox_conf_fixed <- mbox_conf
I0104 20:11:10.759220   465 net.cpp:396] mbox_conf_fixed -> mbox_conf (in-place)
I0104 20:11:10.759254   465 net.cpp:144] Setting up mbox_conf_fixed
I0104 20:11:10.759261   465 net.cpp:151] Top shape: 1 183372 (183372)
I0104 20:11:10.759266   465 net.cpp:159] Memory required for data: 316363752
I0104 20:11:10.759270   465 layer_factory.hpp:77] Creating layer mbox_priorbox
I0104 20:11:10.759275   465 net.cpp:94] Creating Layer mbox_priorbox
I0104 20:11:10.759279   465 net.cpp:435] mbox_priorbox <- conv4_3_norm_mbox_priorbox
I0104 20:11:10.759282   465 net.cpp:435] mbox_priorbox <- fc7_mbox_priorbox
I0104 20:11:10.759286   465 net.cpp:435] mbox_priorbox <- conv6_2_mbox_priorbox
I0104 20:11:10.759290   465 net.cpp:435] mbox_priorbox <- conv7_2_mbox_priorbox
I0104 20:11:10.759294   465 net.cpp:435] mbox_priorbox <- conv8_2_mbox_priorbox
I0104 20:11:10.759296   465 net.cpp:435] mbox_priorbox <- conv9_2_mbox_priorbox
I0104 20:11:10.759301   465 net.cpp:409] mbox_priorbox -> mbox_priorbox
I0104 20:11:10.759325   465 net.cpp:144] Setting up mbox_priorbox
I0104 20:11:10.759332   465 net.cpp:151] Top shape: 1 2 34928 (69856)
I0104 20:11:10.759338   465 net.cpp:159] Memory required for data: 316643176
I0104 20:11:10.759343   465 layer_factory.hpp:77] Creating layer mbox_priorbox_fixed
I0104 20:11:10.759351   465 net.cpp:94] Creating Layer mbox_priorbox_fixed
I0104 20:11:10.759353   465 net.cpp:435] mbox_priorbox_fixed <- mbox_priorbox
I0104 20:11:10.759358   465 net.cpp:396] mbox_priorbox_fixed -> mbox_priorbox (in-place)
I0104 20:11:10.759393   465 net.cpp:144] Setting up mbox_priorbox_fixed
I0104 20:11:10.759400   465 net.cpp:151] Top shape: 1 2 34928 (69856)
I0104 20:11:10.759405   465 net.cpp:159] Memory required for data: 316922600
I0104 20:11:10.759410   465 layer_factory.hpp:77] Creating layer mbox_conf_reshape
I0104 20:11:10.759424   465 net.cpp:94] Creating Layer mbox_conf_reshape
I0104 20:11:10.759430   465 net.cpp:435] mbox_conf_reshape <- mbox_conf
I0104 20:11:10.759436   465 net.cpp:409] mbox_conf_reshape -> mbox_conf_reshape
I0104 20:11:10.759461   465 net.cpp:144] Setting up mbox_conf_reshape
I0104 20:11:10.759469   465 net.cpp:151] Top shape: 1 8732 21 (183372)
I0104 20:11:10.759474   465 net.cpp:159] Memory required for data: 317656088
I0104 20:11:10.759477   465 layer_factory.hpp:77] Creating layer mbox_conf_softmax
I0104 20:11:10.759483   465 net.cpp:94] Creating Layer mbox_conf_softmax
I0104 20:11:10.759486   465 net.cpp:435] mbox_conf_softmax <- mbox_conf_reshape
I0104 20:11:10.759491   465 net.cpp:409] mbox_conf_softmax -> mbox_conf_softmax
I0104 20:11:10.759549   465 net.cpp:144] Setting up mbox_conf_softmax
I0104 20:11:10.759554   465 net.cpp:151] Top shape: 1 8732 21 (183372)
I0104 20:11:10.759559   465 net.cpp:159] Memory required for data: 318389576
I0104 20:11:10.759562   465 layer_factory.hpp:77] Creating layer mbox_conf_flatten
I0104 20:11:10.759567   465 net.cpp:94] Creating Layer mbox_conf_flatten
I0104 20:11:10.759572   465 net.cpp:435] mbox_conf_flatten <- mbox_conf_softmax
I0104 20:11:10.759578   465 net.cpp:409] mbox_conf_flatten -> mbox_conf_flatten
I0104 20:11:10.759603   465 net.cpp:144] Setting up mbox_conf_flatten
I0104 20:11:10.759610   465 net.cpp:151] Top shape: 1 183372 (183372)
I0104 20:11:10.759615   465 net.cpp:159] Memory required for data: 319123064
I0104 20:11:10.759618   465 layer_factory.hpp:77] Creating layer detection_out
I0104 20:11:10.759634   465 net.cpp:94] Creating Layer detection_out
I0104 20:11:10.759639   465 net.cpp:435] detection_out <- mbox_loc
I0104 20:11:10.759644   465 net.cpp:435] detection_out <- mbox_conf_flatten
I0104 20:11:10.759646   465 net.cpp:435] detection_out <- mbox_priorbox
I0104 20:11:10.759652   465 net.cpp:409] detection_out -> detection_out
I0104 20:11:10.767207   465 net.cpp:144] Setting up detection_out
I0104 20:11:10.767217   465 net.cpp:151] Top shape: 1 1 1 7 (7)
I0104 20:11:10.767222   465 net.cpp:159] Memory required for data: 319123092
I0104 20:11:10.767226   465 layer_factory.hpp:77] Creating layer detection_eval
I0104 20:11:10.767233   465 net.cpp:94] Creating Layer detection_eval
I0104 20:11:10.767237   465 net.cpp:435] detection_eval <- detection_out
I0104 20:11:10.767241   465 net.cpp:435] detection_eval <- label
I0104 20:11:10.767247   465 net.cpp:409] detection_eval -> detection_eval
I0104 20:11:10.768836   465 net.cpp:144] Setting up detection_eval
I0104 20:11:10.768844   465 net.cpp:151] Top shape: 1 1 21 5 (105)
I0104 20:11:10.768848   465 net.cpp:159] Memory required for data: 319123512
I0104 20:11:10.768852   465 net.cpp:222] detection_eval does not need backward computation.
I0104 20:11:10.768857   465 net.cpp:222] detection_out does not need backward computation.
I0104 20:11:10.768860   465 net.cpp:222] mbox_conf_flatten does not need backward computation.
I0104 20:11:10.768863   465 net.cpp:222] mbox_conf_softmax does not need backward computation.
…
