…
I0318 22:13:48.423403 27880 net.cpp:369] The NetState phase (0) differed from the phase (1) specified by a rule in layer accuracy
I0318 22:13:48.423406 27880 net.cpp:369] The NetState phase (0) differed from the phase (1) specified by a rule in layer accuracy-top1
I0318 22:13:48.423537 27880 net.cpp:98] Initializing net from parameters:
state {
  phase: TRAIN
}
layer {
  name: "data"
  type: "Data"
  top: "data"
  top: "label"
  include {
    phase: TRAIN
  }
  transform_param {
    mirror: true
    crop_size: 227
    mean_value: 106
    mean_value: 116
    mean_value: 124
  }
  data_param {
    source: "input/lmdb/train_lmdb"
    batch_size: 256
    backend: LMDB
  }
}
layer {
  name: "conv1"
  type: "Convolution"
  bottom: "data"
  top: "conv1"
  param {
    lr_mult: 1
    decay_mult: 1
    compression: PRUNE
  }
  param {
    lr_mult: 2
    decay_mult: 0
    compression: PRUNE
  }
  convolution_param {
    num_output: 96
    pad: 1
    kernel_size: 11
    stride: 4
    weight_filler {
      type: "gaussian"
      std: 0.01
    }
    bias_filler {
      type: "constant"
      value: 0
    }
  }
}
layer {
  name: "bn1"
  type: "BatchNorm"
  bottom: "conv1"
  top: "bn1"
  param {
    lr_mult: 0
    compression: PRUNE
  }
  param {
    lr_mult: 0
    compression: PRUNE
  }
  param {
    lr_mult: 0
    compression: PRUNE
  }
  batch_norm_param {
    use_global_stats: false
  }
}
layer {
  name: "relu1"
  type: "ReLU"
  bottom: "bn1"
  top: "relu1"
}
layer {
  name: "pool1"
  type: "Pooling"
  bottom: "relu1"
  top: "pool1"
  pooling_param {
    pool: MAX
    kernel_size: 3
    stride: 2
  }
}
layer {
  name: "conv2"
  type: "Convolution"
  bottom: "pool1"
  top: "conv2"
  param {
    lr_mult: 1
    decay_mult: 1
    compression: PRUNE
  }
  param {
    lr_mult: 2
    decay_mult: 0
    compression: PRUNE
  }
  convolution_param {
    num_output: 256
    pad: 2
    kernel_size: 5
    group: 1
    weight_filler {
      type: "gaussian"
      std: 0.01
    }
    bias_filler {
      type: "constant"
      value: 1
    }
  }
}
layer {
  name: "bn2"
  type: "BatchNorm"
  bottom: "conv2"
  top: "bn2"
  param {
    lr_mult: 0
    compression: PRUNE
  }
  param {
    lr_mult: 0
    compression: PRUNE
  }
  param {
    lr_mult: 0
    compression: PRUNE
  }
  batch_norm_param {
    use_global_stats: false
  }
}
layer {
  name: "relu2"
  type: "ReLU"
  bottom: "bn2"
  top: "relu2"
}
layer {
  name: "pool2"
  type: "Pooling"
  bottom: "relu2"
  top: "pool2"
  pooling_param {
    pool: MAX
    kernel_size: 3
    stride: 2
  }
}
layer {
  name: "conv3"
  type: "Convolution"
  bottom: "pool2"
  top: "conv3"
  param {
    lr_mult: 1
    decay_mult: 1
    compression: PRUNE
  }
  param {
    lr_mult: 2
    decay_mult: 0
    compression: PRUNE
  }
  convolution_param {
    num_output: 384
    pad: 1
    kernel_size: 3
    weight_filler {
      type: "gaussian"
      std: 0.01
    }
    bias_filler {
      type: "constant"
      value: 0
    }
  }
}
layer {
  name: "relu3"
  type: "ReLU"
  bottom: "conv3"
  top: "relu3"
}
layer {
  name: "conv4"
  type: "Convolution"
  bottom: "relu3"
  top: "conv4"
  param {
    lr_mult: 1
    decay_mult: 1
    compression: PRUNE
  }
  param {
    lr_mult: 2
    decay_mult: 0
    compression: PRUNE
  }
  convolution_param {
    num_output: 384
    pad: 1
    kernel_size: 3
    group: 1
    weight_filler {
      type: "gaussian"
      std: 0.01
    }
    bias_filler {
      type: "constant"
      value: 1
    }
  }
}
layer {
  name: "relu4"
  type: "ReLU"
  bottom: "conv4"
  top: "relu4"
}
layer {
  name: "conv5"
  type: "Convolution"
  bottom: "relu4"
  top: "conv5"
  param {
    lr_mult: 1
    decay_mult: 1
    compression: PRUNE
  }
  param {
    lr_mult: 2
    decay_mult: 0
    compression: PRUNE
  }
  convolution_param {
    num_output: 256
    pad: 1
    kernel_size: 3
    group: 1
    weight_filler {
      type: "gaussian"
      std: 0.01
    }
    bias_filler {
      type: "constant"
      value: 1
    }
  }
}
layer {
  name: "relu5"
  type: "ReLU"
  bottom: "conv5"
  top: "relu5"
}
layer {
  name: "pool5"
  type: "Pooling"
  bottom: "relu5"
  top: "pool5"
  pooling_param {
    pool: MAX
    kernel_size: 3
    stride: 2
  }
}
layer {
  name: "fc6"
  type: "InnerProduct"
  bottom: "pool5"
  top: "fc6"
  param {
    lr_mult: 1
    decay_mult: 1
  }
  param {
    lr_mult: 2
    decay_mult: 0
  }
  inner_product_param {
    num_output: 4096
    weight_filler {
      type: "gaussian"
      std: 0.005
    }
    bias_filler {
      type: "constant"
      value: 1
    }
  }
}
layer {
  name: "relu6"
  type: "ReLU"
  bottom: "fc6"
  top: "relu6"
}
layer {
  name: "drop6"
  type: "Dropout"
  bottom: "relu6"
  top: "drop6"
  dropout_param {
    dropout_ratio: 0.5
  }
}
layer {
  name: "fc7"
  type: "InnerProduct"
  bottom: "drop6"
  top: "fc7"
  param {
    lr_mult: 1
    decay_mult: 1
  }
  param {
    lr_mult: 2
    decay_mult: 0
  }
  inner_product_param {
    num_output: 4096
    weight_filler {
      type: "gaussian"
      std: 0.005
    }
    bias_filler {
      type: "constant"
      value: 1
    }
  }
}
layer {
  name: "bn7"
  type: "BatchNorm"
  bottom: "fc7"
  top: "bn7"
  param {
    lr_mult: 0
    compression: PRUNE
  }
  param {
    lr_mult: 0
    compression: PRUNE
  }
  param {
    lr_mult: 0
    compression: PRUNE
  }
  batch_norm_param {
    use_global_stats: false
  }
}
layer {
  name: "relu7"
  type: "ReLU"
  bottom: "bn7"
  top: "relu7"
}
layer {
  name: "drop7"
  type: "Dropout"
  bottom: "relu7"
  top: "drop7"
  dropout_param {
    dropout_ratio: 0.5
  }
}
layer {
  name: "fc8"
  type: "InnerProduct"
  bottom: "drop7"
  top: "fc8"
  param {
    lr_mult: 1
    decay_mult: 1
  }
  param {
    lr_mult: 2
    decay_mult: 0
  }
  inner_product_param {
    num_output: 2
    weight_filler {
      type: "gaussian"
      std: 0.01
    }
    bias_filler {
      type: "constant"
      value: 0
    }
  }
}
layer {
  name: "loss"
  type: "SoftmaxWithLoss"
  bottom: "fc8"
  bottom: "label"
  top: "loss"
}
I0318 22:13:48.423594 27880 layer_factory.hpp:123] Creating layer data
I0318 22:13:48.423686 27880 internal_thread.cpp:73] Starting internal thread(s) on GPU 0
I0318 22:13:48.424144 27880 net.cpp:140] Creating Layer data
I0318 22:13:48.424154 27880 net.cpp:455] data -> data
I0318 22:13:48.424163 27880 net.cpp:455] data -> label
I0318 22:13:48.426380 27919 db_lmdb.cpp:81] Opened lmdb input/lmdb/train_lmdb
I0318 22:13:48.426426 27919 data_reader.cpp:166] TRAIN: reading data using 1 channel(s)
I0318 22:13:48.426745 27880 data_layer.cpp:124] ReshapePrefetch 256, 3, 227, 227
I0318 22:13:48.426803 27880 data_layer.cpp:129] output data size: 256,3,227,227
I0318 22:13:48.805269 27880 internal_thread.cpp:73] Starting internal thread(s) on GPU 0
I0318 22:13:48.805330 27880 net.cpp:190] Setting up data
I0318 22:13:48.805337 27880 net.cpp:197] Top shape: 256 3 227 227 (39574272)
I0318 22:13:48.805341 27880 net.cpp:197] Top shape: 256 (256)
I0318 22:13:48.805342 27880 net.cpp:205] Memory required for data: 158298112
I0318 22:13:48.805349 27880 layer_factory.hpp:123] Creating layer conv1
I0318 22:13:48.805361 27880 net.cpp:140] Creating Layer conv1
I0318 22:13:48.805363 27880 net.cpp:481] conv1 <- data
I0318 22:13:48.805377 27880 net.cpp:455] conv1 -> conv1
I0318 22:13:48.805974 27880 net.cpp:190] Setting up conv1
I0318 22:13:48.805980 27880 net.cpp:197] Top shape: 256 96 55 55 (74342400)
I0318 22:13:48.805984 27880 net.cpp:205] Memory required for data: 455667712
I0318 22:13:48.805996 27880 layer_factory.hpp:123] Creating layer bn1
I0318 22:13:48.806006 27880 net.cpp:140] Creating Layer bn1
I0318 22:13:48.806008 27880 net.cpp:481] bn1 <- conv1
I0318 22:13:48.806012 27880 net.cpp:455] bn1 -> bn1
I0318 22:13:48.806468 27880 net.cpp:190] Setting up bn1
I0318 22:13:48.806474 27880 net.cpp:197] Top shape: 256 96 55 55 (74342400)
I0318 22:13:48.806478 27880 net.cpp:205] Memory required for data: 753037312
I0318 22:13:48.806489 27880 layer_factory.hpp:123] Creating layer relu1
I0318 22:13:48.806497 27880 net.cpp:140] Creating Layer relu1
I0318 22:13:48.806500 27880 net.cpp:481] relu1 <- bn1
I0318 22:13:48.806504 27880 net.cpp:455] relu1 -> relu1
I0318 22:13:48.806526 27880 net.cpp:190] Setting up relu1
I0318 22:13:48.806531 27880 net.cpp:197] Top shape: 256 96 55 55 (74342400)
I0318 22:13:48.806535 27880 net.cpp:205] Memory required for data: 1050406912
I0318 22:13:48.806536 27880 layer_factory.hpp:123] Creating layer pool1
I0318 22:13:48.806542 27880 net.cpp:140] Creating Layer pool1
I0318 22:13:48.806545 27880 net.cpp:481] pool1 <- relu1
I0318 22:13:48.806550 27880 net.cpp:455] pool1 -> pool1
I0318 22:13:48.806571 27880 net.cpp:190] Setting up pool1
I0318 22:13:48.806576 27880 net.cpp:197] Top shape: 256 96 27 27 (17915904)
I0318 22:13:48.806578 27880 net.cpp:205] Memory required for data: 1122070528
I0318 22:13:48.806581 27880 layer_factory.hpp:123] Creating layer conv2
I0318 22:13:48.806587 27880 net.cpp:140] Creating Layer conv2
I0318 22:13:48.806591 27880 net.cpp:481] conv2 <- pool1
I0318 22:13:48.806594 27880 net.cpp:455] conv2 -> conv2
I0318 22:13:48.821862 27880 net.cpp:190] Setting up conv2
I0318 22:13:48.821879 27880 net.cpp:197] Top shape: 256 256 27 27 (47775744)
I0318 22:13:48.821882 27880 net.cpp:205] Memory required for data: 1313173504
I0318 22:13:48.821890 27880 layer_factory.hpp:123] Creating layer bn2
I0318 22:13:48.821988 27880 net.cpp:140] Creating Layer bn2
I0318 22:13:48.821993 27880 net.cpp:481] bn2 <- conv2
I0318 22:13:48.822043 27880 net.cpp:455] bn2 -> bn2
I0318 22:13:48.822582 27880 net.cpp:190] Setting up bn2
I0318 22:13:48.822592 27880 net.cpp:197] Top shape: 256 256 27 27 (47775744)
I0318 22:13:48.822593 27880 net.cpp:205] Memory required for data: 1504276480
I0318 22:13:48.822600 27880 layer_factory.hpp:123] Creating layer relu2
I0318 22:13:48.822607 27880 net.cpp:140] Creating Layer relu2
I0318 22:13:48.822612 27880 net.cpp:481] relu2 <- bn2
I0318 22:13:48.822615 27880 net.cpp:455] relu2 -> relu2
I0318 22:13:48.822633 27880 net.cpp:190] Setting up relu2
I0318 22:13:48.822639 27880 net.cpp:197] Top shape: 256 256 27 27 (47775744)
I0318 22:13:48.822643 27880 net.cpp:205] Memory required for data: 1695379456
I0318 22:13:48.822645 27880 layer_factory.hpp:123] Creating layer pool2
I0318 22:13:48.822654 27880 net.cpp:140] Creating Layer pool2
I0318 22:13:48.822662 27880 net.cpp:481] pool2 <- relu2
I0318 22:13:48.822669 27880 net.cpp:455] pool2 -> pool2
I0318 22:13:48.822695 27880 net.cpp:190] Setting up pool2
I0318 22:13:48.822701 27880 net.cpp:197] Top shape: 256 256 13 13 (11075584)
I0318 22:13:48.822705 27880 net.cpp:205] Memory required for data: 1739681792
I0318 22:13:48.822707 27880 layer_factory.hpp:123] Creating layer conv3
I0318 22:13:48.822716 27880 net.cpp:140] Creating Layer conv3
I0318 22:13:48.822736 27880 net.cpp:481] conv3 <- pool2
I0318 22:13:48.822739 27880 net.cpp:455] conv3 -> conv3
I0318 22:13:48.835145 27880 net.cpp:190] Setting up conv3
I0318 22:13:48.835168 27880 net.cpp:197] Top shape: 256 384 13 13 (16613376)
I0318 22:13:48.835171 27880 net.cpp:205] Memory required for data: 1806135296
I0318 22:13:48.835178 27880 layer_factory.hpp:123] Creating layer relu3
I0318 22:13:48.835189 27880 net.cpp:140] Creating Layer relu3
I0318 22:13:48.835192 27880 net.cpp:481] relu3 <- conv3
I0318 22:13:48.835198 27880 net.cpp:455] relu3 -> relu3
I0318 22:13:48.835224 27880 net.cpp:190] Setting up relu3
I0318 22:13:48.835232 27880 net.cpp:197] Top shape: 256 384 13 13 (16613376)
I0318 22:13:48.835233 27880 net.cpp:205] Memory required for data: 1872588800
I0318 22:13:48.835235 27880 layer_factory.hpp:123] Creating layer conv4
I0318 22:13:48.835247 27880 net.cpp:140] Creating Layer conv4
I0318 22:13:48.835252 27880 net.cpp:481] conv4 <- relu3
I0318 22:13:48.835255 27880 net.cpp:455] conv4 -> conv4
I0318 22:13:48.853279 27880 net.cpp:190] Setting up conv4
I0318 22:13:48.853300 27880 net.cpp:197] Top shape: 256 384 13 13 (16613376)
I0318 22:13:48.853303 27880 net.cpp:205] Memory required for data: 1939042304
I0318 22:13:48.853315 27880 layer_factory.hpp:123] Creating layer relu4
I0318 22:13:48.853323 27880 net.cpp:140] Creating Layer relu4
I0318 22:13:48.853327 27880 net.cpp:481] relu4 <- conv4
I0318 22:13:48.853333 27880 net.cpp:455] relu4 -> relu4
I0318 22:13:48.853355 27880 net.cpp:190] Setting up relu4
I0318 22:13:48.853360 27880 net.cpp:197] Top shape: 256 384 13 13 (16613376)
I0318 22:13:48.853363 27880 net.cpp:205] Memory required for data: 2005495808
I0318 22:13:48.853366 27880 layer_factory.hpp:123] Creating layer conv5
I0318 22:13:48.853375 27880 net.cpp:140] Creating Layer conv5
I0318 22:13:48.853379 27880 net.cpp:481] conv5 <- relu4
I0318 22:13:48.853384 27880 net.cpp:455] conv5 -> conv5
I0318 22:13:48.871716 27880 net.cpp:190] Setting up conv5
I0318 22:13:48.871739 27880 net.cpp:197] Top shape: 256 256 13 13 (11075584)
I0318 22:13:48.871742 27880 net.cpp:205] Memory required for data: 2049798144
I0318 22:13:48.871749 27880 layer_factory.hpp:123] Creating layer relu5
I0318 22:13:48.871758 27880 net.cpp:140] Creating Layer relu5
I0318 22:13:48.871762 27880 net.cpp:481] relu5 <- conv5
I0318 22:13:48.871768 27880 net.cpp:455] relu5 -> relu5
I0318 22:13:48.871793 27880 net.cpp:190] Setting up relu5
I0318 22:13:48.871799 27880 net.cpp:197] Top shape: 256 256 13 13 (11075584)
I0318 22:13:48.871801 27880 net.cpp:205] Memory required for data: 2094100480
I0318 22:13:48.871803 27880 layer_factory.hpp:123] Creating layer pool5
I0318 22:13:48.871810 27880 net.cpp:140] Creating Layer pool5
I0318 22:13:48.871814 27880 net.cpp:481] pool5 <- relu5
I0318 22:13:48.871817 27880 net.cpp:455] pool5 -> pool5
I0318 22:13:48.871845 27880 net.cpp:190] Setting up pool5
I0318 22:13:48.871851 27880 net.cpp:197] Top shape: 256 256 6 6 (2359296)
I0318 22:13:48.871855 27880 net.cpp:205] Memory required for data: 2103537664
I0318 22:13:48.871856 27880 layer_factory.hpp:123] Creating layer fc6
I0318 22:13:48.871866 27880 net.cpp:140] Creating Layer fc6
I0318 22:13:48.871868 27880 net.cpp:481] fc6 <- pool5
I0318 22:13:48.871873 27880 net.cpp:455] fc6 -> fc6
I0318 22:13:49.212908 27880 net.cpp:190] Setting up fc6
I0318 22:13:49.212931 27880 net.cpp:197] Top shape: 256 4096 (1048576)
I0318 22:13:49.212934 27880 net.cpp:205] Memory required for data: 2107731968
I0318 22:13:49.212939 27880 layer_factory.hpp:123] Creating layer relu6
I0318 22:13:49.212947 27880 net.cpp:140] Creating Layer relu6
I0318 22:13:49.212950 27880 net.cpp:481] relu6 <- fc6
I0318 22:13:49.212955 27880 net.cpp:455] relu6 -> relu6
I0318 22:13:49.212970 27880 net.cpp:190] Setting up relu6
I0318 22:13:49.212973 27880 net.cpp:197] Top shape: 256 4096 (1048576)
I0318 22:13:49.212975 27880 net.cpp:205] Memory required for data: 2111926272
I0318 22:13:49.212976 27880 layer_factory.hpp:123] Creating layer drop6
I0318 22:13:49.212981 27880 net.cpp:140] Creating Layer drop6
I0318 22:13:49.213019 27880 net.cpp:481] drop6 <- relu6
I0318 22:13:49.213023 27880 net.cpp:455] drop6 -> drop6
I0318 22:13:49.213042 27880 net.cpp:190] Setting up drop6
I0318 22:13:49.213047 27880 net.cpp:197] Top shape: 256 4096 (1048576)
I0318 22:13:49.213048 27880 net.cpp:205] Memory required for data: 2116120576
I0318 22:13:49.213052 27880 layer_factory.hpp:123] Creating layer fc7
I0318 22:13:49.213063 27880 net.cpp:140] Creating Layer fc7
I0318 22:13:49.213066 27880 net.cpp:481] fc7 <- drop6
I0318 22:13:49.213070 27880 net.cpp:455] fc7 -> fc7
I0318 22:13:49.351219 27880 net.cpp:190] Setting up fc7
I0318 22:13:49.351243 27880 net.cpp:197] Top shape: 256 4096 (1048576)
I0318 22:13:49.351246 27880 net.cpp:205] Memory required for data: 2120314880
I0318 22:13:49.351253 27880 layer_factory.hpp:123] Creating layer bn7
I0318 22:13:49.351261 27880 net.cpp:140] Creating Layer bn7
I0318 22:13:49.351264 27880 net.cpp:481] bn7 <- fc7
I0318 22:13:49.351269 27880 net.cpp:455] bn7 -> bn7
I0318 22:13:49.351675 27880 net.cpp:190] Setting up bn7
I0318 22:13:49.351680 27880 net.cpp:197] Top shape: 256 4096 (1048576)
I0318 22:13:49.351682 27880 net.cpp:205] Memory required for data: 2124509184
I0318 22:13:49.351688 27880 layer_factory.hpp:123] Creating layer relu7
I0318 22:13:49.351692 27880 net.cpp:140] Creating Layer relu7
I0318 22:13:49.351696 27880 net.cpp:481] relu7 <- bn7
I0318 22:13:49.351699 27880 net.cpp:455] relu7 -> relu7
I0318 22:13:49.351714 27880 net.cpp:190] Setting up relu7
I0318 22:13:49.351718 27880 net.cpp:197] Top shape: 256 4096 (1048576)
I0318 22:13:49.351720 27880 net.cpp:205] Memory required for data: 2128703488
I0318 22:13:49.351722 27880 layer_factory.hpp:123] Creating layer drop7
I0318 22:13:49.351727 27880 net.cpp:140] Creating Layer drop7
I0318 22:13:49.351728 27880 net.cpp:481] drop7 <- relu7
I0318 22:13:49.351732 27880 net.cpp:455] drop7 -> drop7
I0318 22:13:49.351752 27880 net.cpp:190] Setting up drop7
I0318 22:13:49.351756 27880 net.cpp:197] Top shape: 256 4096 (1048576)
I0318 22:13:49.351758 27880 net.cpp:205] Memory required for data: 2132897792
I0318 22:13:49.351760 27880 layer_factory.hpp:123] Creating layer fc8
I0318 22:13:49.351765 27880 net.cpp:140] Creating Layer fc8
I0318 22:13:49.351768 27880 net.cpp:481] fc8 <- drop7
I0318 22:13:49.351773 27880 net.cpp:455] fc8 -> fc8
I0318 22:13:49.351897 27880 net.cpp:190] Setting up fc8
I0318 22:13:49.351900 27880 net.cpp:197] Top shape: 256 2 (512)
I0318 22:13:49.351903 27880 net.cpp:205] Memory required for data: 2132899840
I0318 22:13:49.351907 27880 layer_factory.hpp:123] Creating layer loss
I0318 22:13:49.351909 27880 net.cpp:140] Creating Layer loss
I0318 22:13:49.351912 27880 net.cpp:481] loss <- fc8
I0318 22:13:49.351915 27880 net.cpp:481] loss <- label
I0318 22:13:49.351919 27880 net.cpp:455] loss -> loss
I0318 22:13:49.351924 27880 layer_factory.hpp:123] Creating layer loss
…
I0318 22:13:49.352291 27880 solver.cpp:235] Creating test net (#0) specified by net file: pruning/alexnetBNnoLRN/regular_rate_0.5/net_finetune.prototxt
I0318 22:13:49.352313 27880 net.cpp:369] The NetState phase (1) differed from the phase (0) specified by a rule in layer data
I0318 22:13:49.352435 27880 net.cpp:98] Initializing net from parameters:
state {
  phase: TEST
}
layer {
  name: "data"
  type: "Data"
  top: "data"
  top: "label"
  include {
    phase: TEST
  }
  transform_param {
    mirror: false
    crop_size: 227
    mean_value: 106
    mean_value: 116
    mean_value: 124
  }
  data_param {
    source: "input/lmdb/valid_lmdb"
    batch_size: 50
    backend: LMDB
  }
}
layer {
  name: "conv1"
  type: "Convolution"
  bottom: "data"
  top: "conv1"
  param {
    lr_mult: 1
    decay_mult: 1
    compression: PRUNE
  }
  param {
    lr_mult: 2
    decay_mult: 0
    compression: PRUNE
  }
  convolution_param {
    num_output: 96
    pad: 1
    kernel_size: 11
    stride: 4
    weight_filler {
      type: "gaussian"
      std: 0.01
    }
    bias_filler {
      type: "constant"
      value: 0
    }
  }
}
layer {
  name: "bn1"
  type: "BatchNorm"
  bottom: "conv1"
  top: "bn1"
  param {
    lr_mult: 0
    compression: PRUNE
  }
  param {
    lr_mult: 0
    compression: PRUNE
  }
  param {
    lr_mult: 0
    compression: PRUNE
  }
  batch_norm_param {
    use_global_stats: false
  }
}
layer {
  name: "relu1"
  type: "ReLU"
  bottom: "bn1"
  top: "relu1"
}
layer {
  name: "pool1"
  type: "Pooling"
  bottom: "relu1"
  top: "pool1"
  pooling_param {
    pool: MAX
    kernel_size: 3
    stride: 2
  }
}
layer {
  name: "conv2"
  type: "Convolution"
  bottom: "pool1"
  top: "conv2"
  param {
    lr_mult: 1
    decay_mult: 1
    compression: PRUNE
  }
  param {
    lr_mult: 2
    decay_mult: 0
    compression: PRUNE
  }
  convolution_param {
    num_output: 256
    pad: 2
    kernel_size: 5
    group: 1
    weight_filler {
      type: "gaussian"
      std: 0.01
    }
    bias_filler {
      type: "constant"
      value: 1
    }
  }
}
layer {
  name: "bn2"
  type: "BatchNorm"
  bottom: "conv2"
  top: "bn2"
  param {
    lr_mult: 0
    compression: PRUNE
  }
  param {
    lr_mult: 0
    compression: PRUNE
  }
  param {
    lr_mult: 0
    compression: PRUNE
  }
  batch_norm_param {
    use_global_stats: false
  }
}
layer {
  name: "relu2"
  type: "ReLU"
  bottom: "bn2"
  top: "relu2"
}
layer {
  name: "pool2"
  type: "Pooling"
  bottom: "relu2"
  top: "pool2"
  pooling_param {
    pool: MAX
    kernel_size: 3
    stride: 2
  }
}
layer {
  name: "conv3"
  type: "Convolution"
  bottom: "pool2"
  top: "conv3"
  param {
    lr_mult: 1
    decay_mult: 1
    compression: PRUNE
  }
  param {
    lr_mult: 2
    decay_mult: 0
    compression: PRUNE
  }
  convolution_param {
    num_output: 384
    pad: 1
    kernel_size: 3
    weight_filler {
      type: "gaussian"
      std: 0.01
    }
    bias_filler {
      type: "constant"
      value: 0
    }
  }
}
layer {
  name: "relu3"
  type: "ReLU"
  bottom: "conv3"
  top: "relu3"
}
layer {
  name: "conv4"
  type: "Convolution"
  bottom: "relu3"
  top: "conv4"
  param {
    lr_mult: 1
    decay_mult: 1
    compression: PRUNE
  }
  param {
    lr_mult: 2
    decay_mult: 0
    compression: PRUNE
  }
  convolution_param {
    num_output: 384
    pad: 1
    kernel_size: 3
    group: 1
    weight_filler {
      type: "gaussian"
      std: 0.01
    }
    bias_filler {
      type: "constant"
      value: 1
    }
  }
}
layer {
  name: "relu4"
  type: "ReLU"
  bottom: "conv4"
  top: "relu4"
}
layer {
  name: "conv5"
  type: "Convolution"
  bottom: "relu4"
  top: "conv5"
  param {
    lr_mult: 1
    decay_mult: 1
    compression: PRUNE
  }
  param {
    lr_mult: 2
    decay_mult: 0
    compression: PRUNE
  }
  convolution_param {
    num_output: 256
    pad: 1
    kernel_size: 3
    group: 1
    weight_filler {
      type: "gaussian"
      std: 0.01
    }
    bias_filler {
      type: "constant"
      value: 1
    }
  }
}
layer {
  name: "relu5"
  type: "ReLU"
  bottom: "conv5"
  top: "relu5"
}
layer {
  name: "pool5"
  type: "Pooling"
  bottom: "relu5"
  top: "pool5"
  pooling_param {
    pool: MAX
    kernel_size: 3
    stride: 2
  }
}
layer {
  name: "fc6"
  type: "InnerProduct"
  bottom: "pool5"
  top: "fc6"
  param {
    lr_mult: 1
    decay_mult: 1
  }
  param {
    lr_mult: 2
    decay_mult: 0
  }
  inner_product_param {
    num_output: 4096
    weight_filler {
      type: "gaussian"
      std: 0.005
    }
    bias_filler {
      type: "constant"
      value: 1
    }
  }
}
layer {
  name: "relu6"
  type: "ReLU"
  bottom: "fc6"
  top: "relu6"
}
layer {
  name: "drop6"
  type: "Dropout"
  bottom: "relu6"
  top: "drop6"
  dropout_param {
    dropout_ratio: 0.5
  }
}
layer {
  name: "fc7"
  type: "InnerProduct"
  bottom: "drop6"
  top: "fc7"
  param {
    lr_mult: 1
    decay_mult: 1
  }
  param {
    lr_mult: 2
    decay_mult: 0
  }
  inner_product_param {
    num_output: 4096
    weight_filler {
      type: "gaussian"
      std: 0.005
    }
    bias_filler {
      type: "constant"
      value: 1
    }
  }
}
layer {
  name: "bn7"
  type: "BatchNorm"
  bottom: "fc7"
  top: "bn7"
  param {
    lr_mult: 0
    compression: PRUNE
  }
  param {
    lr_mult: 0
    compression: PRUNE
  }
  param {
    lr_mult: 0
    compression: PRUNE
  }
  batch_norm_param {
    use_global_stats: false
  }
}
layer {
  name: "relu7"
  type: "ReLU"
  bottom: "bn7"
  top: "relu7"
}
layer {
  name: "drop7"
  type: "Dropout"
  bottom: "relu7"
  top: "drop7"
  dropout_param {
    dropout_ratio: 0.5
  }
}
layer {
  name: "fc8"
  type: "InnerProduct"
  bottom: "drop7"
  top: "fc8"
  param {
    lr_mult: 1
    decay_mult: 1
  }
  param {
    lr_mult: 2
    decay_mult: 0
  }
  inner_product_param {
    num_output: 2
    weight_filler {
      type: "gaussian"
      std: 0.01
    }
    bias_filler {
      type: "constant"
      value: 0
    }
  }
}
layer {
  name: "accuracy"
  type: "Accuracy"
  bottom: "fc8"
  bottom: "label"
  top: "accuracy"
  include {
    phase: TEST
  }
}
layer {
  name: "loss"
  type: "SoftmaxWithLoss"
  bottom: "fc8"
  bottom: "label"
  top: "loss"
}
layer {
  name: "accuracy-top1"
  type: "Accuracy"
  bottom: "fc8"
  bottom: "label"
  top: "top-1"
  include {
    phase: TEST
  }
}
I0318 22:13:49.352514 27880 layer_factory.hpp:123] Creating layer data
I0318 22:13:49.352546 27880 internal_thread.cpp:73] Starting internal thread(s) on GPU 0
I0318 22:13:49.352990 27880 net.cpp:140] Creating Layer data
I0318 22:13:49.353000 27880 net.cpp:455] data -> data
I0318 22:13:49.353009 27880 net.cpp:455] data -> label
I0318 22:13:49.355551 27951 db_lmdb.cpp:81] Opened lmdb input/lmdb/valid_lmdb
I0318 22:13:49.355585 27951 data_reader.cpp:166] TEST: reading data using 1 channel(s)
I0318 22:13:49.355907 27880 data_layer.cpp:124] ReshapePrefetch 50, 3, 227, 227
I0318 22:13:49.355985 27880 data_layer.cpp:129] output data size: 50,3,227,227
I0318 22:13:49.433023 27880 internal_thread.cpp:73] Starting internal thread(s) on GPU 0
I0318 22:13:49.433070 27880 net.cpp:190] Setting up data
I0318 22:13:49.433094 27880 net.cpp:197] Top shape: 50 3 227 227 (7729350)
I0318 22:13:49.433096 27880 net.cpp:197] Top shape: 50 (50)
I0318 22:13:49.433099 27880 net.cpp:205] Memory required for data: 30917600
I0318 22:13:49.433102 27880 layer_factory.hpp:123] Creating layer label_data_1_split
I0318 22:13:49.433111 27880 net.cpp:140] Creating Layer label_data_1_split
I0318 22:13:49.433135 27880 net.cpp:481] label_data_1_split <- label
I0318 22:13:49.433140 27880 net.cpp:455] label_data_1_split -> label_data_1_split_0
I0318 22:13:49.433147 27880 net.cpp:455] label_data_1_split -> label_data_1_split_1
I0318 22:13:49.433152 27880 net.cpp:455] label_data_1_split -> label_data_1_split_2
I0318 22:13:49.433204 27880 net.cpp:190] Setting up label_data_1_split
I0318 22:13:49.433209 27880 net.cpp:197] Top shape: 50 (50)
I0318 22:13:49.433212 27880 net.cpp:197] Top shape: 50 (50)
I0318 22:13:49.433218 27880 net.cpp:197] Top shape: 50 (50)
I0318 22:13:49.433220 27880 net.cpp:205] Memory required for data: 30918200
I0318 22:13:49.433223 27880 layer_factory.hpp:123] Creating layer conv1
I0318 22:13:49.433230 27880 net.cpp:140] Creating Layer conv1
I0318 22:13:49.433234 27880 net.cpp:481] conv1 <- data
I0318 22:13:49.433238 27880 net.cpp:455] conv1 -> conv1
I0318 22:13:49.433708 27880 net.cpp:190] Setting up conv1
I0318 22:13:49.433714 27880 net.cpp:197] Top shape: 50 96 55 55 (14520000)
I0318 22:13:49.433717 27880 net.cpp:205] Memory required for data: 88998200
I0318 22:13:49.433725 27880 layer_factory.hpp:123] Creating layer bn1
I0318 22:13:49.433730 27880 net.cpp:140] Creating Layer bn1
I0318 22:13:49.433732 27880 net.cpp:481] bn1 <- conv1
I0318 22:13:49.433737 27880 net.cpp:455] bn1 -> bn1
I0318 22:13:49.434154 27880 net.cpp:190] Setting up bn1
I0318 22:13:49.434159 27880 net.cpp:197] Top shape: 50 96 55 55 (14520000)
I0318 22:13:49.434161 27880 net.cpp:205] Memory required for data: 147078200
I0318 22:13:49.434170 27880 layer_factory.hpp:123] Creating layer relu1
I0318 22:13:49.434175 27880 net.cpp:140] Creating Layer relu1
I0318 22:13:49.434180 27880 net.cpp:481] relu1 <- bn1
I0318 22:13:49.434183 27880 net.cpp:455] relu1 -> relu1
I0318 22:13:49.434198 27880 net.cpp:190] Setting up relu1
I0318 22:13:49.434202 27880 net.cpp:197] Top shape: 50 96 55 55 (14520000)
I0318 22:13:49.434204 27880 net.cpp:205] Memory required for data: 205158200
I0318 22:13:49.434206 27880 layer_factory.hpp:123] Creating layer pool1
I0318 22:13:49.434211 27880 net.cpp:140] Creating Layer pool1
I0318 22:13:49.434214 27880 net.cpp:481] pool1 <- relu1
I0318 22:13:49.434217 27880 net.cpp:455] pool1 -> pool1
I0318 22:13:49.434239 27880 net.cpp:190] Setting up pool1
I0318 22:13:49.434244 27880 net.cpp:197] Top shape: 50 96 27 27 (3499200)
I0318 22:13:49.434245 27880 net.cpp:205] Memory required for data: 219155000
I0318 22:13:49.434247 27880 layer_factory.hpp:123] Creating layer conv2
I0318 22:13:49.434253 27880 net.cpp:140] Creating Layer conv2
I0318 22:13:49.434257 27880 net.cpp:481] conv2 <- pool1
I0318 22:13:49.434259 27880 net.cpp:455] conv2 -> conv2
I0318 22:13:49.440258 27880 net.cpp:190] Setting up conv2
I0318 22:13:49.440277 27880 net.cpp:197] Top shape: 50 256 27 27 (9331200)
I0318 22:13:49.440281 27880 net.cpp:205] Memory required for data: 256479800
I0318 22:13:49.440290 27880 layer_factory.hpp:123] Creating layer bn2
I0318 22:13:49.440299 27880 net.cpp:140] Creating Layer bn2
I0318 22:13:49.440301 27880 net.cpp:481] bn2 <- conv2
I0318 22:13:49.440346 27880 net.cpp:455] bn2 -> bn2
I0318 22:13:49.441704 27880 net.cpp:190] Setting up bn2
I0318 22:13:49.441723 27880 net.cpp:197] Top shape: 50 256 27 27 (9331200)
I0318 22:13:49.441730 27880 net.cpp:205] Memory required for data: 293804600
I0318 22:13:49.441745 27880 layer_factory.hpp:123] Creating layer relu2
I0318 22:13:49.441761 27880 net.cpp:140] Creating Layer relu2
I0318 22:13:49.441776 27880 net.cpp:481] relu2 <- bn2
I0318 22:13:49.441784 27880 net.cpp:455] relu2 -> relu2
I0318 22:13:49.441818 27880 net.cpp:190] Setting up relu2
I0318 22:13:49.441826 27880 net.cpp:197] Top shape: 50 256 27 27 (9331200)
I0318 22:13:49.441854 27880 net.cpp:205] Memory required for data: 331129400
I0318 22:13:49.441860 27880 layer_factory.hpp:123] Creating layer pool2
I0318 22:13:49.441872 27880 net.cpp:140] Creating Layer pool2
I0318 22:13:49.441880 27880 net.cpp:481] pool2 <- relu2
I0318 22:13:49.441887 27880 net.cpp:455] pool2 -> pool2
I0318 22:13:49.441934 27880 net.cpp:190] Setting up pool2
I0318 22:13:49.441943 27880 net.cpp:197] Top shape: 50 256 13 13 (2163200)
I0318 22:13:49.441947 27880 net.cpp:205] Memory required for data: 339782200
I0318 22:13:49.441952 27880 layer_factory.hpp:123] Creating layer conv3
I0318 22:13:49.441965 27880 net.cpp:140] Creating Layer conv3
I0318 22:13:49.441973 27880 net.cpp:481] conv3 <- pool2
I0318 22:13:49.441982 27880 net.cpp:455] conv3 -> conv3
I0318 22:13:49.460480 27880 net.cpp:190] Setting up conv3
I0318 22:13:49.460507 27880 net.cpp:197] Top shape: 50 384 13 13 (3244800)
I0318 22:13:49.460513 27880 net.cpp:205] Memory required for data: 352761400
I0318 22:13:49.460522 27880 layer_factory.hpp:123] Creating layer relu3
I0318 22:13:49.460536 27880 net.cpp:140] Creating Layer relu3
I0318 22:13:49.460541 27880 net.cpp:481] relu3 <- conv3
I0318 22:13:49.460549 27880 net.cpp:455] relu3 -> relu3
I0318 22:13:49.460583 27880 net.cpp:190] Setting up relu3
I0318 22:13:49.460593 27880 net.cpp:197] Top shape: 50 384 13 13 (3244800)
I0318 22:13:49.460597 27880 net.cpp:205] Memory required for data: 365740600
I0318 22:13:49.460602 27880 layer_factory.hpp:123] Creating layer conv4
I0318 22:13:49.460615 27880 net.cpp:140] Creating Layer conv4
I0318 22:13:49.460623 27880 net.cpp:481] conv4 <- relu3
I0318 22:13:49.460631 27880 net.cpp:455] conv4 -> conv4
I0318 22:13:49.479460 27880 net.cpp:190] Setting up conv4
I0318 22:13:49.479486 27880 net.cpp:197] Top shape: 50 384 13 13 (3244800)
I0318 22:13:49.479490 27880 net.cpp:205] Memory required for data: 378719800
I0318 22:13:49.479506 27880 layer_factory.hpp:123] Creating layer relu4
I0318 22:13:49.479521 27880 net.cpp:140] Creating Layer relu4
I0318 22:13:49.479526 27880 net.cpp:481] relu4 <- conv4
I0318 22:13:49.479537 27880 net.cpp:455] relu4 -> relu4
I0318 22:13:49.479574 27880 net.cpp:190] Setting up relu4
I0318 22:13:49.479601 27880 net.cpp:197] Top shape: 50 384 13 13 (3244800)
I0318 22:13:49.479614 27880 net.cpp:205] Memory required for data: 391699000
I0318 22:13:49.479626 27880 layer_factory.hpp:123] Creating layer conv5
I0318 22:13:49.479648 27880 net.cpp:140] Creating Layer conv5
I0318 22:13:49.479665 27880 net.cpp:481] conv5 <- relu4
I0318 22:13:49.479681 27880 net.cpp:455] conv5 -> conv5
I0318 22:13:49.490629 27880 net.cpp:190] Setting up conv5
I0318 22:13:49.490684 27880 net.cpp:197] Top shape: 50 256 13 13 (2163200)
I0318 22:13:49.490696 27880 net.cpp:205] Memory required for data: 400351800
I0318 22:13:49.490715 27880 layer_factory.hpp:123] Creating layer relu5
I0318 22:13:49.490739 27880 net.cpp:140] Creating Layer relu5
I0318 22:13:49.490753 27880 net.cpp:481] relu5 <- conv5
I0318 22:13:49.490770 27880 net.cpp:455] relu5 -> relu5
I0318 22:13:49.490820 27880 net.cpp:190] Setting up relu5
I0318 22:13:49.490835 27880 net.cpp:197] Top shape: 50 256 13 13 (2163200)
I0318 22:13:49.490847 27880 net.cpp:205] Memory required for data: 409004600
I0318 22:13:49.490859 27880 layer_factory.hpp:123] Creating layer pool5
I0318 22:13:49.490880 27880 net.cpp:140] Creating Layer pool5
I0318 22:13:49.490895 27880 net.cpp:481] pool5 <- relu5
I0318 22:13:49.490908 27880 net.cpp:455] pool5 -> pool5
I0318 22:13:49.490974 27880 net.cpp:190] Setting up pool5
I0318 22:13:49.490991 27880 net.cpp:197] Top shape: 50 256 6 6 (460800)
I0318 22:13:49.491003 27880 net.cpp:205] Memory required for data: 410847800
I0318 22:13:49.491014 27880 layer_factory.hpp:123] Creating layer fc6
I0318 22:13:49.491034 27880 net.cpp:140] Creating Layer fc6
I0318 22:13:49.491047 27880 net.cpp:481] fc6 <- pool5
I0318 22:13:49.491063 27880 net.cpp:455] fc6 -> fc6
I0318 22:13:49.804940 27880 net.cpp:190] Setting up fc6
I0318 22:13:49.804963 27880 net.cpp:197] Top shape: 50 4096 (204800)
I0318 22:13:49.804997 27880 net.cpp:205] Memory required for data: 411667000
I0318 22:13:49.805003 27880 layer_factory.hpp:123] Creating layer relu6
I0318 22:13:49.805011 27880 net.cpp:140] Creating Layer relu6
I0318 22:13:49.805013 27880 net.cpp:481] relu6 <- fc6
I0318 22:13:49.805018 27880 net.cpp:455] relu6 -> relu6
I0318 22:13:49.805042 27880 net.cpp:190] Setting up relu6
I0318 22:13:49.805047 27880 net.cpp:197] Top shape: 50 4096 (204800)
I0318 22:13:49.805049 27880 net.cpp:205] Memory required for data: 412486200
I0318 22:13:49.805052 27880 layer_factory.hpp:123] Creating layer drop6
I0318 22:13:49.805055 27880 net.cpp:140] Creating Layer drop6
I0318 22:13:49.805058 27880 net.cpp:481] drop6 <- relu6
I0318 22:13:49.805061 27880 net.cpp:455] drop6 -> drop6
I0318 22:13:49.805080 27880 net.cpp:190] Setting up drop6
I0318 22:13:49.805084 27880 net.cpp:197] Top shape: 50 4096 (204800)
I0318 22:13:49.805086 27880 net.cpp:205] Memory required for data: 413305400
I0318 22:13:49.805088 27880 layer_factory.hpp:123] Creating layer fc7
I0318 22:13:49.805094 27880 net.cpp:140] Creating Layer fc7
I0318 22:13:49.805095 27880 net.cpp:481] fc7 <- drop6
I0318 22:13:49.805114 27880 net.cpp:455] fc7 -> fc7
I0318 22:13:49.941488 27880 net.cpp:190] Setting up fc7
I0318 22:13:49.941512 27880 net.cpp:197] Top shape: 50 4096 (204800)
I0318 22:13:49.941514 27880 net.cpp:205] Memory required for data: 414124600
I0318 22:13:49.941535 27880 layer_factory.hpp:123] Creating layer bn7
I0318 22:13:49.941543 27880 net.cpp:140] Creating Layer bn7
I0318 22:13:49.941546 27880 net.cpp:481] bn7 <- fc7
I0318 22:13:49.941552 27880 net.cpp:455] bn7 -> bn7
I0318 22:13:49.941967 27880 net.cpp:190] Setting up bn7
I0318 22:13:49.941972 27880 net.cpp:197] Top shape: 50 4096 (204800)
I0318 22:13:49.941974 27880 net.cpp:205] Memory required for data: 414943800
I0318 22:13:49.941980 27880 layer_factory.hpp:123] Creating layer relu7
I0318 22:13:49.941987 27880 net.cpp:140] Creating Layer relu7
I0318 22:13:49.941990 27880 net.cpp:481] relu7 <- bn7
I0318 22:13:49.941993 27880 net.cpp:455] relu7 -> relu7
I0318 22:13:49.942008 27880 net.cpp:190] Setting up relu7
I0318 22:13:49.942013 27880 net.cpp:197] Top shape: 50 4096 (204800)
I0318 22:13:49.942014 27880 net.cpp:205] Memory required for data: 415763000
I0318 22:13:49.942016 27880 layer_factory.hpp:123] Creating layer drop7
I0318 22:13:49.942021 27880 net.cpp:140] Creating Layer drop7
I0318 22:13:49.942024 27880 net.cpp:481] drop7 <- relu7
I0318 22:13:49.942034 27880 net.cpp:455] drop7 -> drop7
I0318 22:13:49.942054 27880 net.cpp:190] Setting up drop7
I0318 22:13:49.942057 27880 net.cpp:197] Top shape: 50 4096 (204800)
I0318 22:13:49.942059 27880 net.cpp:205] Memory required for data: 416582200
I0318 22:13:49.942061 27880 layer_factory.hpp:123] Creating layer fc8
I0318 22:13:49.942068 27880 net.cpp:140] Creating Layer fc8
I0318 22:13:49.942070 27880 net.cpp:481] fc8 <- drop7
I0318 22:13:49.942073 27880 net.cpp:455] fc8 -> fc8
I0318 22:13:49.942209 27880 net.cpp:190] Setting up fc8
I0318 22:13:49.942212 27880 net.cpp:197] Top shape: 50 2 (100)
I0318 22:13:49.942214 27880 net.cpp:205] Memory required for data: 416582600
I0318 22:13:49.942217 27880 layer_factory.hpp:123] Creating layer fc8_fc8_0_split
I0318 22:13:49.942222 27880 net.cpp:140] Creating Layer fc8_fc8_0_split
I0318 22:13:49.942224 27880 net.cpp:481] fc8_fc8_0_split <- fc8
I0318 22:13:49.942227 27880 net.cpp:455] fc8_fc8_0_split -> fc8_fc8_0_split_0
I0318 22:13:49.942231 27880 net.cpp:455] fc8_fc8_0_split -> fc8_fc8_0_split_1
I0318 22:13:49.942235 27880 net.cpp:455] fc8_fc8_0_split -> fc8_fc8_0_split_2
I0318 22:13:49.942260 27880 net.cpp:190] Setting up fc8_fc8_0_split
I0318 22:13:49.942265 27880 net.cpp:197] Top shape: 50 2 (100)
I0318 22:13:49.942266 27880 net.cpp:197] Top shape: 50 2 (100)
I0318 22:13:49.942270 27880 net.cpp:197] Top shape: 50 2 (100)
I0318 22:13:49.942271 27880 net.cpp:205] Memory required for data: 416583800
I0318 22:13:49.942273 27880 layer_factory.hpp:123] Creating layer accuracy
I0318 22:13:49.942277 27880 net.cpp:140] Creating Layer accuracy
I0318 22:13:49.942293 27880 net.cpp:481] accuracy <- fc8_fc8_0_split_0
I0318 22:13:49.942296 27880 net.cpp:481] accuracy <- label_data_1_split_0
I0318 22:13:49.942299 27880 net.cpp:455] accuracy -> accuracy
…
