…
I0318 17:45:48.130666 20473 net.cpp:369] The NetState phase (0) differed from the phase (1) specified by a rule in layer accuracy
I0318 17:45:48.130668 20473 net.cpp:369] The NetState phase (0) differed from the phase (1) specified by a rule in layer accuracy-top1
I0318 17:45:48.130770 20473 net.cpp:98] Initializing net from parameters:
state {
  phase: TRAIN
}
layer {
  name: "data"
  type: "Data"
  top: "data"
  top: "label"
  include {
    phase: TRAIN
  }
  transform_param {
    mirror: true
    crop_size: 227
    mean_value: 106
    mean_value: 116
    mean_value: 124
  }
  data_param {
    source: "input/lmdb/train_lmdb"
    batch_size: 256
    backend: LMDB
  }
}
layer {
  name: "conv1"
  type: "Convolution"
  bottom: "data"
  top: "conv1"
  param {
    lr_mult: 1
    decay_mult: 1
    compression: PRUNE
  }
  param {
    lr_mult: 2
    decay_mult: 0
    compression: PRUNE
  }
  convolution_param {
    num_output: 96
    pad: 1
    kernel_size: 11
    stride: 4
    weight_filler {
      type: "gaussian"
      std: 0.01
    }
    bias_filler {
      type: "constant"
      value: 0
    }
  }
}
layer {
  name: "bn1"
  type: "BatchNorm"
  bottom: "conv1"
  top: "bn1"
  param {
    lr_mult: 0
    compression: PRUNE
  }
  param {
    lr_mult: 0
    compression: PRUNE
  }
  param {
    lr_mult: 0
    compression: PRUNE
  }
  batch_norm_param {
    use_global_stats: false
  }
}
layer {
  name: "relu1"
  type: "ReLU"
  bottom: "bn1"
  top: "relu1"
}
layer {
  name: "pool1"
  type: "Pooling"
  bottom: "relu1"
  top: "pool1"
  pooling_param {
    pool: MAX
    kernel_size: 3
    stride: 2
  }
}
layer {
  name: "conv2"
  type: "Convolution"
  bottom: "pool1"
  top: "conv2"
  param {
    lr_mult: 1
    decay_mult: 1
    compression: PRUNE
  }
  param {
    lr_mult: 2
    decay_mult: 0
    compression: PRUNE
  }
  convolution_param {
    num_output: 256
    pad: 2
    kernel_size: 5
    group: 1
    weight_filler {
      type: "gaussian"
      std: 0.01
    }
    bias_filler {
      type: "constant"
      value: 1
    }
  }
}
layer {
  name: "bn2"
  type: "BatchNorm"
  bottom: "conv2"
  top: "bn2"
  param {
    lr_mult: 0
    compression: PRUNE
  }
  param {
    lr_mult: 0
    compression: PRUNE
  }
  param {
    lr_mult: 0
    compression: PRUNE
  }
  batch_norm_param {
    use_global_stats: false
  }
}
layer {
  name: "relu2"
  type: "ReLU"
  bottom: "bn2"
  top: "relu2"
}
layer {
  name: "pool2"
  type: "Pooling"
  bottom: "relu2"
  top: "pool2"
  pooling_param {
    pool: MAX
    kernel_size: 3
    stride: 2
  }
}
layer {
  name: "conv3"
  type: "Convolution"
  bottom: "pool2"
  top: "conv3"
  param {
    lr_mult: 1
    decay_mult: 1
    compression: PRUNE
  }
  param {
    lr_mult: 2
    decay_mult: 0
    compression: PRUNE
  }
  convolution_param {
    num_output: 384
    pad: 1
    kernel_size: 3
    weight_filler {
      type: "gaussian"
      std: 0.01
    }
    bias_filler {
      type: "constant"
      value: 0
    }
  }
}
layer {
  name: "relu3"
  type: "ReLU"
  bottom: "conv3"
  top: "relu3"
}
layer {
  name: "conv4"
  type: "Convolution"
  bottom: "relu3"
  top: "conv4"
  param {
    lr_mult: 1
    decay_mult: 1
    compression: PRUNE
  }
  param {
    lr_mult: 2
    decay_mult: 0
    compression: PRUNE
  }
  convolution_param {
    num_output: 384
    pad: 1
    kernel_size: 3
    group: 1
    weight_filler {
      type: "gaussian"
      std: 0.01
    }
    bias_filler {
      type: "constant"
      value: 1
    }
  }
}
layer {
  name: "relu4"
  type: "ReLU"
  bottom: "conv4"
  top: "relu4"
}
layer {
  name: "conv5"
  type: "Convolution"
  bottom: "relu4"
  top: "conv5"
  param {
    lr_mult: 1
    decay_mult: 1
    compression: PRUNE
  }
  param {
    lr_mult: 2
    decay_mult: 0
    compression: PRUNE
  }
  convolution_param {
    num_output: 256
    pad: 1
    kernel_size: 3
    group: 1
    weight_filler {
      type: "gaussian"
      std: 0.01
    }
    bias_filler {
      type: "constant"
      value: 1
    }
  }
}
layer {
  name: "relu5"
  type: "ReLU"
  bottom: "conv5"
  top: "relu5"
}
layer {
  name: "pool5"
  type: "Pooling"
  bottom: "relu5"
  top: "pool5"
  pooling_param {
    pool: MAX
    kernel_size: 3
    stride: 2
  }
}
layer {
  name: "fc6"
  type: "InnerProduct"
  bottom: "pool5"
  top: "fc6"
  param {
    lr_mult: 1
    decay_mult: 1
  }
  param {
    lr_mult: 2
    decay_mult: 0
  }
  inner_product_param {
    num_output: 4096
    weight_filler {
      type: "gaussian"
      std: 0.005
    }
    bias_filler {
      type: "constant"
      value: 1
    }
  }
}
layer {
  name: "relu6"
  type: "ReLU"
  bottom: "fc6"
  top: "relu6"
}
layer {
  name: "drop6"
  type: "Dropout"
  bottom: "relu6"
  top: "drop6"
  dropout_param {
    dropout_ratio: 0.5
  }
}
layer {
  name: "fc7"
  type: "InnerProduct"
  bottom: "drop6"
  top: "fc7"
  param {
    lr_mult: 1
    decay_mult: 1
  }
  param {
    lr_mult: 2
    decay_mult: 0
  }
  inner_product_param {
    num_output: 4096
    weight_filler {
      type: "gaussian"
      std: 0.005
    }
    bias_filler {
      type: "constant"
      value: 1
    }
  }
}
layer {
  name: "bn7"
  type: "BatchNorm"
  bottom: "fc7"
  top: "bn7"
  param {
    lr_mult: 0
    compression: PRUNE
  }
  param {
    lr_mult: 0
    compression: PRUNE
  }
  param {
    lr_mult: 0
    compression: PRUNE
  }
  batch_norm_param {
    use_global_stats: false
  }
}
layer {
  name: "relu7"
  type: "ReLU"
  bottom: "bn7"
  top: "relu7"
}
layer {
  name: "drop7"
  type: "Dropout"
  bottom: "relu7"
  top: "drop7"
  dropout_param {
    dropout_ratio: 0.5
  }
}
layer {
  name: "fc8"
  type: "InnerProduct"
  bottom: "drop7"
  top: "fc8"
  param {
    lr_mult: 1
    decay_mult: 1
  }
  param {
    lr_mult: 2
    decay_mult: 0
  }
  inner_product_param {
    num_output: 2
    weight_filler {
      type: "gaussian"
      std: 0.01
    }
    bias_filler {
      type: "constant"
      value: 0
    }
  }
}
layer {
  name: "loss"
  type: "SoftmaxWithLoss"
  bottom: "fc8"
  bottom: "label"
  top: "loss"
}
I0318 17:45:48.130823 20473 layer_factory.hpp:123] Creating layer data
I0318 17:45:48.130929 20473 internal_thread.cpp:73] Starting internal thread(s) on GPU 0
I0318 17:45:48.131474 20473 net.cpp:140] Creating Layer data
I0318 17:45:48.131482 20473 net.cpp:455] data -> data
I0318 17:45:48.131490 20473 net.cpp:455] data -> label
I0318 17:45:48.133671 20512 db_lmdb.cpp:81] Opened lmdb input/lmdb/train_lmdb
I0318 17:45:48.133718 20512 data_reader.cpp:166] TRAIN: reading data using 1 channel(s)
I0318 17:45:48.133981 20473 data_layer.cpp:124] ReshapePrefetch 256, 3, 227, 227
I0318 17:45:48.134049 20473 data_layer.cpp:129] output data size: 256,3,227,227
I0318 17:45:48.513993 20473 internal_thread.cpp:73] Starting internal thread(s) on GPU 0
I0318 17:45:48.514075 20473 net.cpp:190] Setting up data
I0318 17:45:48.514082 20473 net.cpp:197] Top shape: 256 3 227 227 (39574272)
I0318 17:45:48.514086 20473 net.cpp:197] Top shape: 256 (256)
I0318 17:45:48.514087 20473 net.cpp:205] Memory required for data: 158298112
I0318 17:45:48.514092 20473 layer_factory.hpp:123] Creating layer conv1
I0318 17:45:48.514104 20473 net.cpp:140] Creating Layer conv1
I0318 17:45:48.514106 20473 net.cpp:481] conv1 <- data
I0318 17:45:48.514122 20473 net.cpp:455] conv1 -> conv1
I0318 17:45:48.514703 20473 net.cpp:190] Setting up conv1
I0318 17:45:48.514711 20473 net.cpp:197] Top shape: 256 96 55 55 (74342400)
I0318 17:45:48.514714 20473 net.cpp:205] Memory required for data: 455667712
I0318 17:45:48.514727 20473 layer_factory.hpp:123] Creating layer bn1
I0318 17:45:48.514735 20473 net.cpp:140] Creating Layer bn1
I0318 17:45:48.514739 20473 net.cpp:481] bn1 <- conv1
I0318 17:45:48.514744 20473 net.cpp:455] bn1 -> bn1
I0318 17:45:48.515197 20473 net.cpp:190] Setting up bn1
I0318 17:45:48.515202 20473 net.cpp:197] Top shape: 256 96 55 55 (74342400)
I0318 17:45:48.515205 20473 net.cpp:205] Memory required for data: 753037312
I0318 17:45:48.515225 20473 layer_factory.hpp:123] Creating layer relu1
I0318 17:45:48.515230 20473 net.cpp:140] Creating Layer relu1
I0318 17:45:48.515233 20473 net.cpp:481] relu1 <- bn1
I0318 17:45:48.515236 20473 net.cpp:455] relu1 -> relu1
I0318 17:45:48.515257 20473 net.cpp:190] Setting up relu1
I0318 17:45:48.515261 20473 net.cpp:197] Top shape: 256 96 55 55 (74342400)
I0318 17:45:48.515264 20473 net.cpp:205] Memory required for data: 1050406912
I0318 17:45:48.515266 20473 layer_factory.hpp:123] Creating layer pool1
I0318 17:45:48.515271 20473 net.cpp:140] Creating Layer pool1
I0318 17:45:48.515273 20473 net.cpp:481] pool1 <- relu1
I0318 17:45:48.515276 20473 net.cpp:455] pool1 -> pool1
I0318 17:45:48.515295 20473 net.cpp:190] Setting up pool1
I0318 17:45:48.515300 20473 net.cpp:197] Top shape: 256 96 27 27 (17915904)
I0318 17:45:48.515301 20473 net.cpp:205] Memory required for data: 1122070528
I0318 17:45:48.515303 20473 layer_factory.hpp:123] Creating layer conv2
I0318 17:45:48.515308 20473 net.cpp:140] Creating Layer conv2
I0318 17:45:48.515311 20473 net.cpp:481] conv2 <- pool1
I0318 17:45:48.515313 20473 net.cpp:455] conv2 -> conv2
I0318 17:45:48.530598 20473 net.cpp:190] Setting up conv2
I0318 17:45:48.530617 20473 net.cpp:197] Top shape: 256 256 27 27 (47775744)
I0318 17:45:48.530620 20473 net.cpp:205] Memory required for data: 1313173504
I0318 17:45:48.530630 20473 layer_factory.hpp:123] Creating layer bn2
I0318 17:45:48.530639 20473 net.cpp:140] Creating Layer bn2
I0318 17:45:48.530642 20473 net.cpp:481] bn2 <- conv2
I0318 17:45:48.530649 20473 net.cpp:455] bn2 -> bn2
I0318 17:45:48.531208 20473 net.cpp:190] Setting up bn2
I0318 17:45:48.531219 20473 net.cpp:197] Top shape: 256 256 27 27 (47775744)
I0318 17:45:48.531222 20473 net.cpp:205] Memory required for data: 1504276480
I0318 17:45:48.531230 20473 layer_factory.hpp:123] Creating layer relu2
I0318 17:45:48.531236 20473 net.cpp:140] Creating Layer relu2
I0318 17:45:48.531240 20473 net.cpp:481] relu2 <- bn2
I0318 17:45:48.531247 20473 net.cpp:455] relu2 -> relu2
I0318 17:45:48.531312 20473 net.cpp:190] Setting up relu2
I0318 17:45:48.531347 20473 net.cpp:197] Top shape: 256 256 27 27 (47775744)
I0318 17:45:48.531369 20473 net.cpp:205] Memory required for data: 1695379456
I0318 17:45:48.531381 20473 layer_factory.hpp:123] Creating layer pool2
I0318 17:45:48.531405 20473 net.cpp:140] Creating Layer pool2
I0318 17:45:48.531414 20473 net.cpp:481] pool2 <- relu2
I0318 17:45:48.531431 20473 net.cpp:455] pool2 -> pool2
I0318 17:45:48.531550 20473 net.cpp:190] Setting up pool2
I0318 17:45:48.531566 20473 net.cpp:197] Top shape: 256 256 13 13 (11075584)
I0318 17:45:48.531574 20473 net.cpp:205] Memory required for data: 1739681792
I0318 17:45:48.531587 20473 layer_factory.hpp:123] Creating layer conv3
I0318 17:45:48.531610 20473 net.cpp:140] Creating Layer conv3
I0318 17:45:48.531646 20473 net.cpp:481] conv3 <- pool2
I0318 17:45:48.531663 20473 net.cpp:455] conv3 -> conv3
I0318 17:45:48.556432 20473 net.cpp:190] Setting up conv3
I0318 17:45:48.556458 20473 net.cpp:197] Top shape: 256 384 13 13 (16613376)
I0318 17:45:48.556463 20473 net.cpp:205] Memory required for data: 1806135296
I0318 17:45:48.556471 20473 layer_factory.hpp:123] Creating layer relu3
I0318 17:45:48.556483 20473 net.cpp:140] Creating Layer relu3
I0318 17:45:48.556488 20473 net.cpp:481] relu3 <- conv3
I0318 17:45:48.556495 20473 net.cpp:455] relu3 -> relu3
I0318 17:45:48.556525 20473 net.cpp:190] Setting up relu3
I0318 17:45:48.556531 20473 net.cpp:197] Top shape: 256 384 13 13 (16613376)
I0318 17:45:48.556535 20473 net.cpp:205] Memory required for data: 1872588800
I0318 17:45:48.556538 20473 layer_factory.hpp:123] Creating layer conv4
I0318 17:45:48.556550 20473 net.cpp:140] Creating Layer conv4
I0318 17:45:48.556557 20473 net.cpp:481] conv4 <- relu3
I0318 17:45:48.556565 20473 net.cpp:455] conv4 -> conv4
I0318 17:45:48.583353 20473 net.cpp:190] Setting up conv4
I0318 17:45:48.583382 20473 net.cpp:197] Top shape: 256 384 13 13 (16613376)
I0318 17:45:48.583387 20473 net.cpp:205] Memory required for data: 1939042304
I0318 17:45:48.583403 20473 layer_factory.hpp:123] Creating layer relu4
I0318 17:45:48.583413 20473 net.cpp:140] Creating Layer relu4
I0318 17:45:48.583418 20473 net.cpp:481] relu4 <- conv4
I0318 17:45:48.583427 20473 net.cpp:455] relu4 -> relu4
I0318 17:45:48.583457 20473 net.cpp:190] Setting up relu4
I0318 17:45:48.583465 20473 net.cpp:197] Top shape: 256 384 13 13 (16613376)
I0318 17:45:48.583469 20473 net.cpp:205] Memory required for data: 2005495808
I0318 17:45:48.583474 20473 layer_factory.hpp:123] Creating layer conv5
I0318 17:45:48.583487 20473 net.cpp:140] Creating Layer conv5
I0318 17:45:48.583490 20473 net.cpp:481] conv5 <- relu4
I0318 17:45:48.583499 20473 net.cpp:455] conv5 -> conv5
I0318 17:45:48.599560 20473 net.cpp:190] Setting up conv5
I0318 17:45:48.599584 20473 net.cpp:197] Top shape: 256 256 13 13 (11075584)
I0318 17:45:48.599587 20473 net.cpp:205] Memory required for data: 2049798144
I0318 17:45:48.599596 20473 layer_factory.hpp:123] Creating layer relu5
I0318 17:45:48.599604 20473 net.cpp:140] Creating Layer relu5
I0318 17:45:48.599607 20473 net.cpp:481] relu5 <- conv5
I0318 17:45:48.599615 20473 net.cpp:455] relu5 -> relu5
I0318 17:45:48.599642 20473 net.cpp:190] Setting up relu5
I0318 17:45:48.599647 20473 net.cpp:197] Top shape: 256 256 13 13 (11075584)
I0318 17:45:48.599650 20473 net.cpp:205] Memory required for data: 2094100480
I0318 17:45:48.599653 20473 layer_factory.hpp:123] Creating layer pool5
I0318 17:45:48.599658 20473 net.cpp:140] Creating Layer pool5
I0318 17:45:48.599663 20473 net.cpp:481] pool5 <- relu5
I0318 17:45:48.599668 20473 net.cpp:455] pool5 -> pool5
I0318 17:45:48.599697 20473 net.cpp:190] Setting up pool5
I0318 17:45:48.599702 20473 net.cpp:197] Top shape: 256 256 6 6 (2359296)
I0318 17:45:48.599705 20473 net.cpp:205] Memory required for data: 2103537664
I0318 17:45:48.599707 20473 layer_factory.hpp:123] Creating layer fc6
I0318 17:45:48.599715 20473 net.cpp:140] Creating Layer fc6
I0318 17:45:48.599720 20473 net.cpp:481] fc6 <- pool5
I0318 17:45:48.599726 20473 net.cpp:455] fc6 -> fc6
I0318 17:45:48.948729 20473 net.cpp:190] Setting up fc6
I0318 17:45:48.948753 20473 net.cpp:197] Top shape: 256 4096 (1048576)
I0318 17:45:48.948755 20473 net.cpp:205] Memory required for data: 2107731968
I0318 17:45:48.948779 20473 layer_factory.hpp:123] Creating layer relu6
I0318 17:45:48.948786 20473 net.cpp:140] Creating Layer relu6
I0318 17:45:48.948791 20473 net.cpp:481] relu6 <- fc6
I0318 17:45:48.948796 20473 net.cpp:455] relu6 -> relu6
I0318 17:45:48.948808 20473 net.cpp:190] Setting up relu6
I0318 17:45:48.948812 20473 net.cpp:197] Top shape: 256 4096 (1048576)
I0318 17:45:48.948813 20473 net.cpp:205] Memory required for data: 2111926272
I0318 17:45:48.948815 20473 layer_factory.hpp:123] Creating layer drop6
I0318 17:45:48.948820 20473 net.cpp:140] Creating Layer drop6
I0318 17:45:48.948839 20473 net.cpp:481] drop6 <- relu6
I0318 17:45:48.948843 20473 net.cpp:455] drop6 -> drop6
I0318 17:45:48.948860 20473 net.cpp:190] Setting up drop6
I0318 17:45:48.948865 20473 net.cpp:197] Top shape: 256 4096 (1048576)
I0318 17:45:48.948868 20473 net.cpp:205] Memory required for data: 2116120576
I0318 17:45:48.948869 20473 layer_factory.hpp:123] Creating layer fc7
I0318 17:45:48.948874 20473 net.cpp:140] Creating Layer fc7
I0318 17:45:48.948877 20473 net.cpp:481] fc7 <- drop6
I0318 17:45:48.948880 20473 net.cpp:455] fc7 -> fc7
I0318 17:45:49.091740 20473 net.cpp:190] Setting up fc7
I0318 17:45:49.091761 20473 net.cpp:197] Top shape: 256 4096 (1048576)
I0318 17:45:49.091763 20473 net.cpp:205] Memory required for data: 2120314880
I0318 17:45:49.091786 20473 layer_factory.hpp:123] Creating layer bn7
I0318 17:45:49.091796 20473 net.cpp:140] Creating Layer bn7
I0318 17:45:49.091799 20473 net.cpp:481] bn7 <- fc7
I0318 17:45:49.091804 20473 net.cpp:455] bn7 -> bn7
I0318 17:45:49.092209 20473 net.cpp:190] Setting up bn7
I0318 17:45:49.092214 20473 net.cpp:197] Top shape: 256 4096 (1048576)
I0318 17:45:49.092216 20473 net.cpp:205] Memory required for data: 2124509184
I0318 17:45:49.092222 20473 layer_factory.hpp:123] Creating layer relu7
I0318 17:45:49.092226 20473 net.cpp:140] Creating Layer relu7
I0318 17:45:49.092229 20473 net.cpp:481] relu7 <- bn7
I0318 17:45:49.092232 20473 net.cpp:455] relu7 -> relu7
I0318 17:45:49.092247 20473 net.cpp:190] Setting up relu7
I0318 17:45:49.092252 20473 net.cpp:197] Top shape: 256 4096 (1048576)
I0318 17:45:49.092254 20473 net.cpp:205] Memory required for data: 2128703488
I0318 17:45:49.092257 20473 layer_factory.hpp:123] Creating layer drop7
I0318 17:45:49.092260 20473 net.cpp:140] Creating Layer drop7
I0318 17:45:49.092262 20473 net.cpp:481] drop7 <- relu7
I0318 17:45:49.092265 20473 net.cpp:455] drop7 -> drop7
I0318 17:45:49.092285 20473 net.cpp:190] Setting up drop7
I0318 17:45:49.092289 20473 net.cpp:197] Top shape: 256 4096 (1048576)
I0318 17:45:49.092291 20473 net.cpp:205] Memory required for data: 2132897792
I0318 17:45:49.092293 20473 layer_factory.hpp:123] Creating layer fc8
I0318 17:45:49.092299 20473 net.cpp:140] Creating Layer fc8
I0318 17:45:49.092303 20473 net.cpp:481] fc8 <- drop7
I0318 17:45:49.092305 20473 net.cpp:455] fc8 -> fc8
I0318 17:45:49.092428 20473 net.cpp:190] Setting up fc8
I0318 17:45:49.092432 20473 net.cpp:197] Top shape: 256 2 (512)
I0318 17:45:49.092435 20473 net.cpp:205] Memory required for data: 2132899840
I0318 17:45:49.092438 20473 layer_factory.hpp:123] Creating layer loss
I0318 17:45:49.092443 20473 net.cpp:140] Creating Layer loss
I0318 17:45:49.092445 20473 net.cpp:481] loss <- fc8
I0318 17:45:49.092448 20473 net.cpp:481] loss <- label
I0318 17:45:49.092451 20473 net.cpp:455] loss -> loss
I0318 17:45:49.092456 20473 layer_factory.hpp:123] Creating layer loss
…
I0318 17:45:49.092819 20473 solver.cpp:235] Creating test net (#0) specified by net file: pruning/alexnetBNnoLRN/regular_rate_0/net_finetune.prototxt
I0318 17:45:49.092842 20473 net.cpp:369] The NetState phase (1) differed from the phase (0) specified by a rule in layer data
I0318 17:45:49.092963 20473 net.cpp:98] Initializing net from parameters:
state {
  phase: TEST
}
layer {
  name: "data"
  type: "Data"
  top: "data"
  top: "label"
  include {
    phase: TEST
  }
  transform_param {
    mirror: false
    crop_size: 227
    mean_value: 106
    mean_value: 116
    mean_value: 124
  }
  data_param {
    source: "input/lmdb/valid_lmdb"
    batch_size: 50
    backend: LMDB
  }
}
layer {
  name: "conv1"
  type: "Convolution"
  bottom: "data"
  top: "conv1"
  param {
    lr_mult: 1
    decay_mult: 1
    compression: PRUNE
  }
  param {
    lr_mult: 2
    decay_mult: 0
    compression: PRUNE
  }
  convolution_param {
    num_output: 96
    pad: 1
    kernel_size: 11
    stride: 4
    weight_filler {
      type: "gaussian"
      std: 0.01
    }
    bias_filler {
      type: "constant"
      value: 0
    }
  }
}
layer {
  name: "bn1"
  type: "BatchNorm"
  bottom: "conv1"
  top: "bn1"
  param {
    lr_mult: 0
    compression: PRUNE
  }
  param {
    lr_mult: 0
    compression: PRUNE
  }
  param {
    lr_mult: 0
    compression: PRUNE
  }
  batch_norm_param {
    use_global_stats: false
  }
}
layer {
  name: "relu1"
  type: "ReLU"
  bottom: "bn1"
  top: "relu1"
}
layer {
  name: "pool1"
  type: "Pooling"
  bottom: "relu1"
  top: "pool1"
  pooling_param {
    pool: MAX
    kernel_size: 3
    stride: 2
  }
}
layer {
  name: "conv2"
  type: "Convolution"
  bottom: "pool1"
  top: "conv2"
  param {
    lr_mult: 1
    decay_mult: 1
    compression: PRUNE
  }
  param {
    lr_mult: 2
    decay_mult: 0
    compression: PRUNE
  }
  convolution_param {
    num_output: 256
    pad: 2
    kernel_size: 5
    group: 1
    weight_filler {
      type: "gaussian"
      std: 0.01
    }
    bias_filler {
      type: "constant"
      value: 1
    }
  }
}
layer {
  name: "bn2"
  type: "BatchNorm"
  bottom: "conv2"
  top: "bn2"
  param {
    lr_mult: 0
    compression: PRUNE
  }
  param {
    lr_mult: 0
    compression: PRUNE
  }
  param {
    lr_mult: 0
    compression: PRUNE
  }
  batch_norm_param {
    use_global_stats: false
  }
}
layer {
  name: "relu2"
  type: "ReLU"
  bottom: "bn2"
  top: "relu2"
}
layer {
  name: "pool2"
  type: "Pooling"
  bottom: "relu2"
  top: "pool2"
  pooling_param {
    pool: MAX
    kernel_size: 3
    stride: 2
  }
}
layer {
  name: "conv3"
  type: "Convolution"
  bottom: "pool2"
  top: "conv3"
  param {
    lr_mult: 1
    decay_mult: 1
    compression: PRUNE
  }
  param {
    lr_mult: 2
    decay_mult: 0
    compression: PRUNE
  }
  convolution_param {
    num_output: 384
    pad: 1
    kernel_size: 3
    weight_filler {
      type: "gaussian"
      std: 0.01
    }
    bias_filler {
      type: "constant"
      value: 0
    }
  }
}
layer {
  name: "relu3"
  type: "ReLU"
  bottom: "conv3"
  top: "relu3"
}
layer {
  name: "conv4"
  type: "Convolution"
  bottom: "relu3"
  top: "conv4"
  param {
    lr_mult: 1
    decay_mult: 1
    compression: PRUNE
  }
  param {
    lr_mult: 2
    decay_mult: 0
    compression: PRUNE
  }
  convolution_param {
    num_output: 384
    pad: 1
    kernel_size: 3
    group: 1
    weight_filler {
      type: "gaussian"
      std: 0.01
    }
    bias_filler {
      type: "constant"
      value: 1
    }
  }
}
layer {
  name: "relu4"
  type: "ReLU"
  bottom: "conv4"
  top: "relu4"
}
layer {
  name: "conv5"
  type: "Convolution"
  bottom: "relu4"
  top: "conv5"
  param {
    lr_mult: 1
    decay_mult: 1
    compression: PRUNE
  }
  param {
    lr_mult: 2
    decay_mult: 0
    compression: PRUNE
  }
  convolution_param {
    num_output: 256
    pad: 1
    kernel_size: 3
    group: 1
    weight_filler {
      type: "gaussian"
      std: 0.01
    }
    bias_filler {
      type: "constant"
      value: 1
    }
  }
}
layer {
  name: "relu5"
  type: "ReLU"
  bottom: "conv5"
  top: "relu5"
}
layer {
  name: "pool5"
  type: "Pooling"
  bottom: "relu5"
  top: "pool5"
  pooling_param {
    pool: MAX
    kernel_size: 3
    stride: 2
  }
}
layer {
  name: "fc6"
  type: "InnerProduct"
  bottom: "pool5"
  top: "fc6"
  param {
    lr_mult: 1
    decay_mult: 1
  }
  param {
    lr_mult: 2
    decay_mult: 0
  }
  inner_product_param {
    num_output: 4096
    weight_filler {
      type: "gaussian"
      std: 0.005
    }
    bias_filler {
      type: "constant"
      value: 1
    }
  }
}
layer {
  name: "relu6"
  type: "ReLU"
  bottom: "fc6"
  top: "relu6"
}
layer {
  name: "drop6"
  type: "Dropout"
  bottom: "relu6"
  top: "drop6"
  dropout_param {
    dropout_ratio: 0.5
  }
}
layer {
  name: "fc7"
  type: "InnerProduct"
  bottom: "drop6"
  top: "fc7"
  param {
    lr_mult: 1
    decay_mult: 1
  }
  param {
    lr_mult: 2
    decay_mult: 0
  }
  inner_product_param {
    num_output: 4096
    weight_filler {
      type: "gaussian"
      std: 0.005
    }
    bias_filler {
      type: "constant"
      value: 1
    }
  }
}
layer {
  name: "bn7"
  type: "BatchNorm"
  bottom: "fc7"
  top: "bn7"
  param {
    lr_mult: 0
    compression: PRUNE
  }
  param {
    lr_mult: 0
    compression: PRUNE
  }
  param {
    lr_mult: 0
    compression: PRUNE
  }
  batch_norm_param {
    use_global_stats: false
  }
}
layer {
  name: "relu7"
  type: "ReLU"
  bottom: "bn7"
  top: "relu7"
}
layer {
  name: "drop7"
  type: "Dropout"
  bottom: "relu7"
  top: "drop7"
  dropout_param {
    dropout_ratio: 0.5
  }
}
layer {
  name: "fc8"
  type: "InnerProduct"
  bottom: "drop7"
  top: "fc8"
  param {
    lr_mult: 1
    decay_mult: 1
  }
  param {
    lr_mult: 2
    decay_mult: 0
  }
  inner_product_param {
    num_output: 2
    weight_filler {
      type: "gaussian"
      std: 0.01
    }
    bias_filler {
      type: "constant"
      value: 0
    }
  }
}
layer {
  name: "accuracy"
  type: "Accuracy"
  bottom: "fc8"
  bottom: "label"
  top: "accuracy"
  include {
    phase: TEST
  }
}
layer {
  name: "loss"
  type: "SoftmaxWithLoss"
  bottom: "fc8"
  bottom: "label"
  top: "loss"
}
layer {
  name: "accuracy-top1"
  type: "Accuracy"
  bottom: "fc8"
  bottom: "label"
  top: "top-1"
  include {
    phase: TEST
  }
}
I0318 17:45:49.093034 20473 layer_factory.hpp:123] Creating layer data
I0318 17:45:49.093070 20473 internal_thread.cpp:73] Starting internal thread(s) on GPU 0
I0318 17:45:49.093562 20473 net.cpp:140] Creating Layer data
I0318 17:45:49.093571 20473 net.cpp:455] data -> data
I0318 17:45:49.093580 20473 net.cpp:455] data -> label
I0318 17:45:49.095693 20542 db_lmdb.cpp:81] Opened lmdb input/lmdb/valid_lmdb
I0318 17:45:49.095724 20542 data_reader.cpp:166] TEST: reading data using 1 channel(s)
I0318 17:45:49.096036 20473 data_layer.cpp:124] ReshapePrefetch 50, 3, 227, 227
I0318 17:45:49.096110 20473 data_layer.cpp:129] output data size: 50,3,227,227
I0318 17:45:49.174809 20473 internal_thread.cpp:73] Starting internal thread(s) on GPU 0
I0318 17:45:49.174860 20473 net.cpp:190] Setting up data
I0318 17:45:49.174899 20473 net.cpp:197] Top shape: 50 3 227 227 (7729350)
I0318 17:45:49.174902 20473 net.cpp:197] Top shape: 50 (50)
I0318 17:45:49.174904 20473 net.cpp:205] Memory required for data: 30917600
I0318 17:45:49.174908 20473 layer_factory.hpp:123] Creating layer label_data_1_split
I0318 17:45:49.174918 20473 net.cpp:140] Creating Layer label_data_1_split
I0318 17:45:49.174922 20473 net.cpp:481] label_data_1_split <- label
I0318 17:45:49.174927 20473 net.cpp:455] label_data_1_split -> label_data_1_split_0
I0318 17:45:49.174933 20473 net.cpp:455] label_data_1_split -> label_data_1_split_1
I0318 17:45:49.174937 20473 net.cpp:455] label_data_1_split -> label_data_1_split_2
I0318 17:45:49.174986 20473 net.cpp:190] Setting up label_data_1_split
I0318 17:45:49.174990 20473 net.cpp:197] Top shape: 50 (50)
I0318 17:45:49.174993 20473 net.cpp:197] Top shape: 50 (50)
I0318 17:45:49.174996 20473 net.cpp:197] Top shape: 50 (50)
I0318 17:45:49.174998 20473 net.cpp:205] Memory required for data: 30918200
I0318 17:45:49.174999 20473 layer_factory.hpp:123] Creating layer conv1
I0318 17:45:49.175007 20473 net.cpp:140] Creating Layer conv1
I0318 17:45:49.175010 20473 net.cpp:481] conv1 <- data
I0318 17:45:49.175014 20473 net.cpp:455] conv1 -> conv1
I0318 17:45:49.175527 20473 net.cpp:190] Setting up conv1
I0318 17:45:49.175534 20473 net.cpp:197] Top shape: 50 96 55 55 (14520000)
I0318 17:45:49.175537 20473 net.cpp:205] Memory required for data: 88998200
I0318 17:45:49.175544 20473 layer_factory.hpp:123] Creating layer bn1
I0318 17:45:49.175550 20473 net.cpp:140] Creating Layer bn1
I0318 17:45:49.175552 20473 net.cpp:481] bn1 <- conv1
I0318 17:45:49.175556 20473 net.cpp:455] bn1 -> bn1
I0318 17:45:49.175983 20473 net.cpp:190] Setting up bn1
I0318 17:45:49.175988 20473 net.cpp:197] Top shape: 50 96 55 55 (14520000)
I0318 17:45:49.175990 20473 net.cpp:205] Memory required for data: 147078200
I0318 17:45:49.175998 20473 layer_factory.hpp:123] Creating layer relu1
I0318 17:45:49.176003 20473 net.cpp:140] Creating Layer relu1
I0318 17:45:49.176007 20473 net.cpp:481] relu1 <- bn1
I0318 17:45:49.176010 20473 net.cpp:455] relu1 -> relu1
I0318 17:45:49.176024 20473 net.cpp:190] Setting up relu1
I0318 17:45:49.176030 20473 net.cpp:197] Top shape: 50 96 55 55 (14520000)
I0318 17:45:49.176033 20473 net.cpp:205] Memory required for data: 205158200
I0318 17:45:49.176034 20473 layer_factory.hpp:123] Creating layer pool1
I0318 17:45:49.176039 20473 net.cpp:140] Creating Layer pool1
I0318 17:45:49.176041 20473 net.cpp:481] pool1 <- relu1
I0318 17:45:49.176048 20473 net.cpp:455] pool1 -> pool1
I0318 17:45:49.176070 20473 net.cpp:190] Setting up pool1
I0318 17:45:49.176074 20473 net.cpp:197] Top shape: 50 96 27 27 (3499200)
I0318 17:45:49.176076 20473 net.cpp:205] Memory required for data: 219155000
I0318 17:45:49.176079 20473 layer_factory.hpp:123] Creating layer conv2
I0318 17:45:49.176085 20473 net.cpp:140] Creating Layer conv2
I0318 17:45:49.176088 20473 net.cpp:481] conv2 <- pool1
I0318 17:45:49.176092 20473 net.cpp:455] conv2 -> conv2
I0318 17:45:49.182240 20473 net.cpp:190] Setting up conv2
I0318 17:45:49.182258 20473 net.cpp:197] Top shape: 50 256 27 27 (9331200)
I0318 17:45:49.182261 20473 net.cpp:205] Memory required for data: 256479800
I0318 17:45:49.182269 20473 layer_factory.hpp:123] Creating layer bn2
I0318 17:45:49.182283 20473 net.cpp:140] Creating Layer bn2
I0318 17:45:49.182287 20473 net.cpp:481] bn2 <- conv2
I0318 17:45:49.182293 20473 net.cpp:455] bn2 -> bn2
I0318 17:45:49.182745 20473 net.cpp:190] Setting up bn2
I0318 17:45:49.182751 20473 net.cpp:197] Top shape: 50 256 27 27 (9331200)
I0318 17:45:49.182754 20473 net.cpp:205] Memory required for data: 293804600
I0318 17:45:49.182761 20473 layer_factory.hpp:123] Creating layer relu2
I0318 17:45:49.182767 20473 net.cpp:140] Creating Layer relu2
I0318 17:45:49.182770 20473 net.cpp:481] relu2 <- bn2
I0318 17:45:49.182775 20473 net.cpp:455] relu2 -> relu2
I0318 17:45:49.182793 20473 net.cpp:190] Setting up relu2
I0318 17:45:49.182797 20473 net.cpp:197] Top shape: 50 256 27 27 (9331200)
I0318 17:45:49.182812 20473 net.cpp:205] Memory required for data: 331129400
I0318 17:45:49.182814 20473 layer_factory.hpp:123] Creating layer pool2
I0318 17:45:49.182819 20473 net.cpp:140] Creating Layer pool2
I0318 17:45:49.182822 20473 net.cpp:481] pool2 <- relu2
I0318 17:45:49.182827 20473 net.cpp:455] pool2 -> pool2
I0318 17:45:49.182850 20473 net.cpp:190] Setting up pool2
I0318 17:45:49.182857 20473 net.cpp:197] Top shape: 50 256 13 13 (2163200)
I0318 17:45:49.182859 20473 net.cpp:205] Memory required for data: 339782200
I0318 17:45:49.182862 20473 layer_factory.hpp:123] Creating layer conv3
I0318 17:45:49.182870 20473 net.cpp:140] Creating Layer conv3
I0318 17:45:49.182875 20473 net.cpp:481] conv3 <- pool2
I0318 17:45:49.182880 20473 net.cpp:455] conv3 -> conv3
I0318 17:45:49.194530 20473 net.cpp:190] Setting up conv3
I0318 17:45:49.194550 20473 net.cpp:197] Top shape: 50 384 13 13 (3244800)
I0318 17:45:49.194553 20473 net.cpp:205] Memory required for data: 352761400
I0318 17:45:49.194561 20473 layer_factory.hpp:123] Creating layer relu3
I0318 17:45:49.194569 20473 net.cpp:140] Creating Layer relu3
I0318 17:45:49.194589 20473 net.cpp:481] relu3 <- conv3
I0318 17:45:49.194597 20473 net.cpp:455] relu3 -> relu3
I0318 17:45:49.194619 20473 net.cpp:190] Setting up relu3
I0318 17:45:49.194624 20473 net.cpp:197] Top shape: 50 384 13 13 (3244800)
I0318 17:45:49.194628 20473 net.cpp:205] Memory required for data: 365740600
I0318 17:45:49.194630 20473 layer_factory.hpp:123] Creating layer conv4
I0318 17:45:49.194639 20473 net.cpp:140] Creating Layer conv4
I0318 17:45:49.194644 20473 net.cpp:481] conv4 <- relu3
I0318 17:45:49.194649 20473 net.cpp:455] conv4 -> conv4
I0318 17:45:49.208806 20473 net.cpp:190] Setting up conv4
I0318 17:45:49.208829 20473 net.cpp:197] Top shape: 50 384 13 13 (3244800)
I0318 17:45:49.208832 20473 net.cpp:205] Memory required for data: 378719800
I0318 17:45:49.208843 20473 layer_factory.hpp:123] Creating layer relu4
I0318 17:45:49.208853 20473 net.cpp:140] Creating Layer relu4
I0318 17:45:49.208856 20473 net.cpp:481] relu4 <- conv4
I0318 17:45:49.208863 20473 net.cpp:455] relu4 -> relu4
I0318 17:45:49.208889 20473 net.cpp:190] Setting up relu4
I0318 17:45:49.208895 20473 net.cpp:197] Top shape: 50 384 13 13 (3244800)
I0318 17:45:49.208899 20473 net.cpp:205] Memory required for data: 391699000
I0318 17:45:49.208900 20473 layer_factory.hpp:123] Creating layer conv5
I0318 17:45:49.208912 20473 net.cpp:140] Creating Layer conv5
I0318 17:45:49.208917 20473 net.cpp:481] conv5 <- relu4
I0318 17:45:49.208921 20473 net.cpp:455] conv5 -> conv5
I0318 17:45:49.219452 20473 net.cpp:190] Setting up conv5
I0318 17:45:49.219472 20473 net.cpp:197] Top shape: 50 256 13 13 (2163200)
I0318 17:45:49.219475 20473 net.cpp:205] Memory required for data: 400351800
I0318 17:45:49.219481 20473 layer_factory.hpp:123] Creating layer relu5
I0318 17:45:49.219488 20473 net.cpp:140] Creating Layer relu5
I0318 17:45:49.219491 20473 net.cpp:481] relu5 <- conv5
I0318 17:45:49.219498 20473 net.cpp:455] relu5 -> relu5
I0318 17:45:49.219521 20473 net.cpp:190] Setting up relu5
I0318 17:45:49.219524 20473 net.cpp:197] Top shape: 50 256 13 13 (2163200)
I0318 17:45:49.219525 20473 net.cpp:205] Memory required for data: 409004600
I0318 17:45:49.219528 20473 layer_factory.hpp:123] Creating layer pool5
I0318 17:45:49.219534 20473 net.cpp:140] Creating Layer pool5
I0318 17:45:49.219537 20473 net.cpp:481] pool5 <- relu5
I0318 17:45:49.219540 20473 net.cpp:455] pool5 -> pool5
I0318 17:45:49.219563 20473 net.cpp:190] Setting up pool5
I0318 17:45:49.219568 20473 net.cpp:197] Top shape: 50 256 6 6 (460800)
I0318 17:45:49.219569 20473 net.cpp:205] Memory required for data: 410847800
I0318 17:45:49.219573 20473 layer_factory.hpp:123] Creating layer fc6
I0318 17:45:49.219578 20473 net.cpp:140] Creating Layer fc6
I0318 17:45:49.219581 20473 net.cpp:481] fc6 <- pool5
I0318 17:45:49.219584 20473 net.cpp:455] fc6 -> fc6
I0318 17:45:49.540714 20473 net.cpp:190] Setting up fc6
I0318 17:45:49.540740 20473 net.cpp:197] Top shape: 50 4096 (204800)
I0318 17:45:49.540774 20473 net.cpp:205] Memory required for data: 411667000
I0318 17:45:49.540781 20473 layer_factory.hpp:123] Creating layer relu6
I0318 17:45:49.540788 20473 net.cpp:140] Creating Layer relu6
I0318 17:45:49.540791 20473 net.cpp:481] relu6 <- fc6
I0318 17:45:49.540796 20473 net.cpp:455] relu6 -> relu6
I0318 17:45:49.540819 20473 net.cpp:190] Setting up relu6
I0318 17:45:49.540825 20473 net.cpp:197] Top shape: 50 4096 (204800)
I0318 17:45:49.540827 20473 net.cpp:205] Memory required for data: 412486200
I0318 17:45:49.540829 20473 layer_factory.hpp:123] Creating layer drop6
I0318 17:45:49.540833 20473 net.cpp:140] Creating Layer drop6
I0318 17:45:49.540835 20473 net.cpp:481] drop6 <- relu6
I0318 17:45:49.540839 20473 net.cpp:455] drop6 -> drop6
I0318 17:45:49.540859 20473 net.cpp:190] Setting up drop6
I0318 17:45:49.540863 20473 net.cpp:197] Top shape: 50 4096 (204800)
I0318 17:45:49.540865 20473 net.cpp:205] Memory required for data: 413305400
I0318 17:45:49.540868 20473 layer_factory.hpp:123] Creating layer fc7
I0318 17:45:49.540874 20473 net.cpp:140] Creating Layer fc7
I0318 17:45:49.540876 20473 net.cpp:481] fc7 <- drop6
I0318 17:45:49.540896 20473 net.cpp:455] fc7 -> fc7
I0318 17:45:49.681877 20473 net.cpp:190] Setting up fc7
I0318 17:45:49.681901 20473 net.cpp:197] Top shape: 50 4096 (204800)
I0318 17:45:49.681905 20473 net.cpp:205] Memory required for data: 414124600
I0318 17:45:49.681910 20473 layer_factory.hpp:123] Creating layer bn7
I0318 17:45:49.681921 20473 net.cpp:140] Creating Layer bn7
I0318 17:45:49.681924 20473 net.cpp:481] bn7 <- fc7
I0318 17:45:49.681929 20473 net.cpp:455] bn7 -> bn7
I0318 17:45:49.682368 20473 net.cpp:190] Setting up bn7
I0318 17:45:49.682374 20473 net.cpp:197] Top shape: 50 4096 (204800)
I0318 17:45:49.682376 20473 net.cpp:205] Memory required for data: 414943800
I0318 17:45:49.682382 20473 layer_factory.hpp:123] Creating layer relu7
I0318 17:45:49.682387 20473 net.cpp:140] Creating Layer relu7
I0318 17:45:49.682390 20473 net.cpp:481] relu7 <- bn7
I0318 17:45:49.682394 20473 net.cpp:455] relu7 -> relu7
I0318 17:45:49.682408 20473 net.cpp:190] Setting up relu7
I0318 17:45:49.682412 20473 net.cpp:197] Top shape: 50 4096 (204800)
I0318 17:45:49.682415 20473 net.cpp:205] Memory required for data: 415763000
I0318 17:45:49.682417 20473 layer_factory.hpp:123] Creating layer drop7
I0318 17:45:49.682421 20473 net.cpp:140] Creating Layer drop7
I0318 17:45:49.682423 20473 net.cpp:481] drop7 <- relu7
I0318 17:45:49.682428 20473 net.cpp:455] drop7 -> drop7
I0318 17:45:49.682446 20473 net.cpp:190] Setting up drop7
I0318 17:45:49.682451 20473 net.cpp:197] Top shape: 50 4096 (204800)
I0318 17:45:49.682453 20473 net.cpp:205] Memory required for data: 416582200
I0318 17:45:49.682456 20473 layer_factory.hpp:123] Creating layer fc8
I0318 17:45:49.682461 20473 net.cpp:140] Creating Layer fc8
I0318 17:45:49.682463 20473 net.cpp:481] fc8 <- drop7
I0318 17:45:49.682467 20473 net.cpp:455] fc8 -> fc8
I0318 17:45:49.682595 20473 net.cpp:190] Setting up fc8
I0318 17:45:49.682600 20473 net.cpp:197] Top shape: 50 2 (100)
I0318 17:45:49.682601 20473 net.cpp:205] Memory required for data: 416582600
I0318 17:45:49.682605 20473 layer_factory.hpp:123] Creating layer fc8_fc8_0_split
I0318 17:45:49.682610 20473 net.cpp:140] Creating Layer fc8_fc8_0_split
I0318 17:45:49.682612 20473 net.cpp:481] fc8_fc8_0_split <- fc8
I0318 17:45:49.682616 20473 net.cpp:455] fc8_fc8_0_split -> fc8_fc8_0_split_0
I0318 17:45:49.682621 20473 net.cpp:455] fc8_fc8_0_split -> fc8_fc8_0_split_1
I0318 17:45:49.682626 20473 net.cpp:455] fc8_fc8_0_split -> fc8_fc8_0_split_2
I0318 17:45:49.682651 20473 net.cpp:190] Setting up fc8_fc8_0_split
I0318 17:45:49.682654 20473 net.cpp:197] Top shape: 50 2 (100)
I0318 17:45:49.682657 20473 net.cpp:197] Top shape: 50 2 (100)
I0318 17:45:49.682659 20473 net.cpp:197] Top shape: 50 2 (100)
I0318 17:45:49.682662 20473 net.cpp:205] Memory required for data: 416583800
I0318 17:45:49.682662 20473 layer_factory.hpp:123] Creating layer accuracy
I0318 17:45:49.682667 20473 net.cpp:140] Creating Layer accuracy
I0318 17:45:49.682682 20473 net.cpp:481] accuracy <- fc8_fc8_0_split_0
I0318 17:45:49.682684 20473 net.cpp:481] accuracy <- label_data_1_split_0
I0318 17:45:49.682688 20473 net.cpp:455] accuracy -> accuracy
…
