…
I0716 14:22:55.073455 24765 decent_q.cpp:595] GPU device name: GeForce GTX 1080 Ti
I0716 14:22:56.830930 24765 net.cpp:369] The NetState phase (1) differed from the phase (0) specified by a rule in layer data
I0716 14:22:56.831846 24765 net.cpp:98] Initializing net from parameters: 
layer {
  name: "data"
  type: "ImageSegData"
  top: "data"
  top: "label"
  include {
    phase: TEST
  }
  transform_param {
    scale: 0.022
    mean_value: 73
    mean_value: 82
    mean_value: 72
  }
  image_data_param {
    source: "../data/val_img_seg_nomap.txt"
    batch_size: 1
    shuffle: false
  }
}
layer {
  name: "resize_down"
  type: "DeephiResize"
  bottom: "data"
  top: "data"
  deephi_resize_param {
    resize_type: BILINEAR
    new_height: 512
    new_width: 1024
  }
}
layer {
  name: "conv_d0a-b"
  type: "Convolution"
  bottom: "data"
  top: "d0b"
  param {
    lr_mult: 1
    decay_mult: 1
  }
  param {
    lr_mult: 2
    decay_mult: 0
  }
  convolution_param {
    num_output: 64
    pad: 1
    kernel_size: 3
    stride: 1
    weight_filler {
      type: "msra"
    }
  }
}
layer {
  name: "relu_d0b"
  type: "ReLU"
  bottom: "d0b"
  top: "relu_d0b"
}
layer {
  name: "conv_d0b-c"
  type: "Convolution"
  bottom: "relu_d0b"
  top: "d0c"
  param {
    lr_mult: 1
    decay_mult: 1
  }
  param {
    lr_mult: 2
    decay_mult: 0
  }
  convolution_param {
    num_output: 64
    pad: 1
    kernel_size: 3
    weight_filler {
      type: "msra"
    }
  }
}
layer {
  name: "BatchNorm_d0c"
  type: "BatchNorm"
  bottom: "d0c"
  top: "BatchNorm_d0c"
  param {
    lr_mult: 1
    decay_mult: 0
  }
  param {
    lr_mult: 1
    decay_mult: 0
  }
  param {
    lr_mult: 0
    decay_mult: 0
  }
  param {
    lr_mult: 0
    decay_mult: 0
  }
  batch_norm_param {
    use_global_stats: true
    eps: 1e-05
    scale_filler {
      type: "constant"
      value: 1
    }
    bias_filler {
      type: "constant"
      value: 0
    }
  }
}
layer {
  name: "relu_d0c"
  type: "ReLU"
  bottom: "BatchNorm_d0c"
  top: "relu_d0c"
}
layer {
  name: "pool_d0c-1a"
  type: "Pooling"
  bottom: "relu_d0c"
  top: "d1a"
  pooling_param {
    pool: MAX
    kernel_size: 2
    stride: 2
  }
}
layer {
  name: "conv_d1a-b"
  type: "Convolution"
  bottom: "d1a"
  top: "d1b"
  param {
    lr_mult: 1
    decay_mult: 1
  }
  param {
    lr_mult: 2
    decay_mult: 0
  }
  convolution_param {
    num_output: 128
    pad: 1
    kernel_size: 3
    weight_filler {
      type: "msra"
    }
  }
}
layer {
  name: "relu_d1b"
  type: "ReLU"
  bottom: "d1b"
  top: "relu_d1b"
}
layer {
  name: "conv_d1b-c"
  type: "Convolution"
  bottom: "relu_d1b"
  top: "d1c"
  param {
    lr_mult: 1
    decay_mult: 1
  }
  param {
    lr_mult: 2
    decay_mult: 0
  }
  convolution_param {
    num_output: 128
    pad: 1
    kernel_size: 3
    weight_filler {
      type: "msra"
    }
  }
}
layer {
  name: "BatchNorm_d1c"
  type: "BatchNorm"
  bottom: "d1c"
  top: "BatchNorm_d1c"
  param {
    lr_mult: 1
    decay_mult: 0
  }
  param {
    lr_mult: 1
    decay_mult: 0
  }
  param {
    lr_mult: 0
    decay_mult: 0
  }
  param {
    lr_mult: 0
    decay_mult: 0
  }
  batch_norm_param {
    use_global_stats: true
    eps: 1e-05
    scale_filler {
      type: "constant"
      value: 1
    }
    bias_filler {
      type: "constant"
      value: 0
    }
  }
}
layer {
  name: "relu_d1c"
  type: "ReLU"
  bottom: "BatchNorm_d1c"
  top: "relu_d1c"
}
layer {
  name: "pool_d1c-2a"
  type: "Pooling"
  bottom: "relu_d1c"
  top: "d2a"
  pooling_param {
    pool: MAX
    kernel_size: 2
    stride: 2
  }
}
layer {
  name: "conv_d2a-b"
  type: "Convolution"
  bottom: "d2a"
  top: "d2b"
  param {
    lr_mult: 1
    decay_mult: 1
  }
  param {
    lr_mult: 2
    decay_mult: 0
  }
  convolution_param {
    num_output: 256
    pad: 1
    kernel_size: 3
    weight_filler {
      type: "msra"
    }
  }
}
layer {
  name: "relu_d2b"
  type: "ReLU"
  bottom: "d2b"
  top: "relu_d2b"
}
layer {
  name: "conv_d2b-c"
  type: "Convolution"
  bottom: "relu_d2b"
  top: "d2c"
  param {
    lr_mult: 1
    decay_mult: 1
  }
  param {
    lr_mult: 2
    decay_mult: 0
  }
  convolution_param {
    num_output: 256
    pad: 1
    kernel_size: 3
    weight_filler {
      type: "msra"
    }
  }
}
layer {
  name: "BatchNorm_d2c"
  type: "BatchNorm"
  bottom: "d2c"
  top: "BatchNorm_d2c"
  param {
    lr_mult: 1
    decay_mult: 0
  }
  param {
    lr_mult: 1
    decay_mult: 0
  }
  param {
    lr_mult: 0
    decay_mult: 0
  }
  param {
    lr_mult: 0
    decay_mult: 0
  }
  batch_norm_param {
    use_global_stats: true
    eps: 1e-05
    scale_filler {
      type: "constant"
      value: 1
    }
    bias_filler {
      type: "constant"
      value: 0
    }
  }
}
layer {
  name: "relu_d2c"
  type: "ReLU"
  bottom: "BatchNorm_d2c"
  top: "relu_d2c"
}
layer {
  name: "pool_d2c-3a"
  type: "Pooling"
  bottom: "relu_d2c"
  top: "d3a"
  pooling_param {
    pool: MAX
    kernel_size: 2
    stride: 2
  }
}
layer {
  name: "conv_d3a-b"
  type: "Convolution"
  bottom: "d3a"
  top: "d3b"
  param {
    lr_mult: 1
    decay_mult: 1
  }
  param {
    lr_mult: 2
    decay_mult: 0
  }
  convolution_param {
    num_output: 512
    pad: 1
    kernel_size: 3
    weight_filler {
      type: "msra"
    }
  }
}
layer {
  name: "relu_d3b"
  type: "ReLU"
  bottom: "d3b"
  top: "relu_d3b"
}
layer {
  name: "conv_d3b-c"
  type: "Convolution"
  bottom: "relu_d3b"
  top: "d3c"
  param {
    lr_mult: 1
    decay_mult: 1
  }
  param {
    lr_mult: 2
    decay_mult: 0
  }
  convolution_param {
    num_output: 512
    pad: 1
    kernel_size: 3
    weight_filler {
      type: "msra"
    }
  }
}
layer {
  name: "BatchNorm_1"
  type: "BatchNorm"
  bottom: "d3c"
  top: "BatchNorm_1"
  param {
    lr_mult: 1
    decay_mult: 0
  }
  param {
    lr_mult: 1
    decay_mult: 0
  }
  param {
    lr_mult: 0
    decay_mult: 0
  }
  param {
    lr_mult: 0
    decay_mult: 0
  }
  batch_norm_param {
    use_global_stats: true
    eps: 1e-05
    scale_filler {
      type: "constant"
      value: 1
    }
    bias_filler {
      type: "constant"
      value: 0
    }
  }
}
layer {
  name: "relu_d3c"
  type: "ReLU"
  bottom: "BatchNorm_1"
  top: "relu_d3c"
}
layer {
  name: "pool_d3c-4a"
  type: "Pooling"
  bottom: "relu_d3c"
  top: "d4a"
  pooling_param {
    pool: MAX
    kernel_size: 2
    stride: 2
  }
}
layer {
  name: "conv_d4a-b"
  type: "Convolution"
  bottom: "d4a"
  top: "d4b"
  param {
    lr_mult: 1
    decay_mult: 1
  }
  param {
    lr_mult: 2
    decay_mult: 0
  }
  convolution_param {
    num_output: 1024
    pad: 1
    kernel_size: 3
    weight_filler {
      type: "msra"
    }
  }
}
layer {
  name: "BatchNorm_2"
  type: "BatchNorm"
  bottom: "d4b"
  top: "BatchNorm_2"
  param {
    lr_mult: 1
    decay_mult: 0
  }
  param {
    lr_mult: 1
    decay_mult: 0
  }
  param {
    lr_mult: 0
    decay_mult: 0
  }
  param {
    lr_mult: 0
    decay_mult: 0
  }
  batch_norm_param {
    use_global_stats: true
    eps: 1e-05
    scale_filler {
      type: "constant"
      value: 1
    }
    bias_filler {
      type: "constant"
      value: 0
    }
  }
}
layer {
  name: "relu_d4b"
  type: "ReLU"
  bottom: "BatchNorm_2"
  top: "relu_d4b"
}
layer {
  name: "conv_d4b-c"
  type: "Convolution"
  bottom: "relu_d4b"
  top: "d4c"
  param {
    lr_mult: 1
    decay_mult: 1
  }
  param {
    lr_mult: 2
    decay_mult: 0
  }
  convolution_param {
    num_output: 1024
    pad: 1
    kernel_size: 3
    weight_filler {
      type: "msra"
    }
  }
}
layer {
  name: "relu_d4c"
  type: "ReLU"
  bottom: "d4c"
  top: "relu_d4c"
}
layer {
  name: "upconv_d4c_u3a"
  type: "Deconvolution"
  bottom: "relu_d4c"
  top: "u3a"
  param {
    lr_mult: 1
    decay_mult: 1
  }
  param {
    lr_mult: 2
    decay_mult: 0
  }
  convolution_param {
    num_output: 512
    pad: 0
    kernel_size: 2
    stride: 2
    weight_filler {
      type: "msra"
    }
  }
}
layer {
  name: "relu_u3a"
  type: "ReLU"
  bottom: "u3a"
  top: "u3a"
}
layer {
  name: "concat_d3cc_u3a-b"
  type: "Concat"
  bottom: "u3a"
  bottom: "d3c"
  top: "u3b"
}
layer {
  name: "conv_u3b-c"
  type: "Convolution"
  bottom: "u3b"
  top: "u3c"
  param {
    lr_mult: 1
    decay_mult: 1
  }
  param {
    lr_mult: 2
    decay_mult: 0
  }
  convolution_param {
    num_output: 512
    pad: 1
    kernel_size: 3
    weight_filler {
      type: "msra"
    }
  }
}
layer {
  name: "relu_u3c"
  type: "ReLU"
  bottom: "u3c"
  top: "u3c"
}
layer {
  name: "conv_u3c-d"
  type: "Convolution"
  bottom: "u3c"
  top: "u3d"
  param {
    lr_mult: 1
    decay_mult: 1
  }
  param {
    lr_mult: 2
    decay_mult: 0
  }
  convolution_param {
    num_output: 512
    pad: 1
    kernel_size: 3
    weight_filler {
      type: "msra"
    }
  }
}
layer {
  name: "relu_u3d"
  type: "ReLU"
  bottom: "u3d"
  top: "u3d"
}
layer {
  name: "upconv_u3d_u2a"
  type: "Deconvolution"
  bottom: "u3d"
  top: "u2a"
  param {
    lr_mult: 1
    decay_mult: 1
  }
  param {
    lr_mult: 2
    decay_mult: 0
  }
  convolution_param {
    num_output: 512
    pad: 0
    kernel_size: 2
    stride: 2
    weight_filler {
      type: "msra"
    }
  }
}
layer {
  name: "relu_u2a"
  type: "ReLU"
  bottom: "u2a"
  top: "u2a"
}
layer {
  name: "concat_d2cc_u2a-b"
  type: "Concat"
  bottom: "u2a"
  bottom: "d2c"
  top: "u2b"
}
layer {
  name: "conv_u2b-c"
  type: "Convolution"
  bottom: "u2b"
  top: "u2c"
  param {
    lr_mult: 1
    decay_mult: 1
  }
  param {
    lr_mult: 2
    decay_mult: 0
  }
  convolution_param {
    num_output: 256
    pad: 1
    kernel_size: 3
    weight_filler {
      type: "msra"
    }
  }
}
layer {
  name: "relu_u2c"
  type: "ReLU"
  bottom: "u2c"
  top: "u2c"
}
layer {
  name: "conv_u2c-d"
  type: "Convolution"
  bottom: "u2c"
  top: "u2d"
  param {
    lr_mult: 1
    decay_mult: 1
  }
  param {
    lr_mult: 2
    decay_mult: 0
  }
  convolution_param {
    num_output: 256
    pad: 1
    kernel_size: 3
    weight_filler {
      type: "msra"
    }
  }
}
layer {
  name: "relu_u2d"
  type: "ReLU"
  bottom: "u2d"
  top: "u2d"
}
layer {
  name: "upconv_u2d_u1a"
  type: "Deconvolution"
  bottom: "u2d"
  top: "u1a"
  param {
    lr_mult: 1
    decay_mult: 1
  }
  param {
    lr_mult: 2
    decay_mult: 0
  }
  convolution_param {
    num_output: 128
    pad: 0
    kernel_size: 2
    stride: 2
    weight_filler {
      type: "msra"
    }
  }
}
layer {
  name: "relu_u1a"
  type: "ReLU"
  bottom: "u1a"
  top: "u1a"
}
layer {
  name: "concat_d1cc_u1a-b"
  type: "Concat"
  bottom: "u1a"
  bottom: "d1c"
  top: "u1b"
}
layer {
  name: "conv_u1b-c"
  type: "Convolution"
  bottom: "u1b"
  top: "u1c"
  param {
    lr_mult: 1
    decay_mult: 1
  }
  param {
    lr_mult: 2
    decay_mult: 0
  }
  convolution_param {
    num_output: 128
    pad: 1
    kernel_size: 3
    weight_filler {
      type: "msra"
    }
  }
}
layer {
  name: "relu_u1c"
  type: "ReLU"
  bottom: "u1c"
  top: "u1c"
}
layer {
  name: "conv_u1c-d"
  type: "Convolution"
  bottom: "u1c"
  top: "u1d"
  param {
    lr_mult: 1
    decay_mult: 1
  }
  param {
    lr_mult: 2
    decay_mult: 0
  }
  convolution_param {
    num_output: 128
    pad: 1
    kernel_size: 3
    weight_filler {
      type: "msra"
    }
  }
}
layer {
  name: "relu_u1d"
  type: "ReLU"
  bottom: "u1d"
  top: "u1d"
}
layer {
  name: "upconv_u1d_u0a_NEW"
  type: "Deconvolution"
  bottom: "u1d"
  top: "u0a"
  param {
    lr_mult: 1
    decay_mult: 1
  }
  param {
    lr_mult: 2
    decay_mult: 0
  }
  convolution_param {
    num_output: 64
    pad: 0
    kernel_size: 2
    stride: 2
    weight_filler {
      type: "msra"
    }
  }
}
layer {
  name: "relu_u0a"
  type: "ReLU"
  bottom: "u0a"
  top: "u0a"
}
layer {
  name: "concat_d0cc_u0a-b"
  type: "Concat"
  bottom: "u0a"
  bottom: "d0c"
  top: "u0b"
}
layer {
  name: "conv_u0b-c_New"
  type: "Convolution"
  bottom: "u0b"
  top: "u0c"
  param {
    lr_mult: 1
    decay_mult: 1
  }
  param {
    lr_mult: 2
    decay_mult: 0
  }
  convolution_param {
    num_output: 64
    pad: 1
    kernel_size: 3
    weight_filler {
      type: "msra"
    }
  }
}
layer {
  name: "relu_u0c"
  type: "ReLU"
  bottom: "u0c"
  top: "u0c"
}
layer {
  name: "conv_u0c-d_New"
  type: "Convolution"
  bottom: "u0c"
  top: "u0d"
  param {
    lr_mult: 1
    decay_mult: 1
  }
  param {
    lr_mult: 2
    decay_mult: 0
  }
  convolution_param {
    num_output: 64
    pad: 1
    kernel_size: 3
    weight_filler {
      type: "msra"
    }
  }
}
layer {
  name: "relu_u0d"
  type: "ReLU"
  bottom: "u0d"
  top: "u0d"
}
layer {
  name: "conv_u0d-score_New"
  type: "Convolution"
  bottom: "u0d"
  top: "conv_u0d-score_New"
  param {
    lr_mult: 1
    decay_mult: 1
  }
  param {
    lr_mult: 2
    decay_mult: 0
  }
  convolution_param {
    num_output: 19
    pad: 0
    kernel_size: 1
    weight_filler {
      type: "msra"
    }
  }
}
layer {
  name: "score"
  type: "Softmax"
  bottom: "conv_u0d-score_New"
  top: "score"
}
layer {
  name: "accuracy"
  type: "SegmentPixelIOU"
  bottom: "score"
  bottom: "label"
  top: "segmentation_eval"
  include {
    phase: TEST
  }
}
I0716 14:22:56.832281 24765 layer_factory.hpp:123] Creating layer data
I0716 14:22:56.832334 24765 net.cpp:140] Creating Layer data
I0716 14:22:56.832353 24765 net.cpp:455] data -> data
I0716 14:22:56.832377 24765 net.cpp:455] data -> label
I0716 14:22:56.832415 24765 image_seg_data_layer.cpp:46] Opening file ../data/val_img_seg_nomap.txt
I0716 14:22:56.833881 24765 image_seg_data_layer.cpp:68] A total of 500 images.
I0716 14:22:56.910455 24765 image_seg_data_layer.cpp:97] output data size: 1,3,1024,2048
I0716 14:22:57.047344 24765 internal_thread.cpp:73] Starting internal thread(s) on GPU 0
I0716 14:22:57.047466 24765 net.cpp:190] Setting up data
I0716 14:22:57.047478 24765 net.cpp:197] Top shape: 1 3 1024 2048 (6291456)
I0716 14:22:57.047482 24765 net.cpp:197] Top shape: 1 1 1024 2048 (2097152)
I0716 14:22:57.047485 24765 net.cpp:205] Memory required for data: 33554432
I0716 14:22:57.047490 24765 layer_factory.hpp:123] Creating layer resize_down
I0716 14:22:57.047502 24765 net.cpp:140] Creating Layer resize_down
I0716 14:22:57.047508 24765 net.cpp:481] resize_down <- data
I0716 14:22:57.047520 24765 net.cpp:442] resize_down -> data (in-place)
I0716 14:22:57.047530 24765 net.cpp:190] Setting up resize_down
I0716 14:22:57.047534 24765 net.cpp:197] Top shape: 1 3 512 1024 (1572864)
I0716 14:22:57.047536 24765 net.cpp:205] Memory required for data: 39845888
I0716 14:22:57.047539 24765 layer_factory.hpp:123] Creating layer conv_d0a-b
I0716 14:22:57.047549 24765 net.cpp:140] Creating Layer conv_d0a-b
I0716 14:22:57.047557 24765 net.cpp:481] conv_d0a-b <- data
I0716 14:22:57.047562 24765 net.cpp:455] conv_d0a-b -> d0b
I0716 14:22:57.049656 24765 net.cpp:190] Setting up conv_d0a-b
I0716 14:22:57.049669 24765 net.cpp:197] Top shape: 1 64 512 1024 (33554432)
I0716 14:22:57.049672 24765 net.cpp:205] Memory required for data: 174063616
I0716 14:22:57.049690 24765 layer_factory.hpp:123] Creating layer relu_d0b
I0716 14:22:57.049697 24765 net.cpp:140] Creating Layer relu_d0b
I0716 14:22:57.049700 24765 net.cpp:481] relu_d0b <- d0b
I0716 14:22:57.049705 24765 net.cpp:455] relu_d0b -> relu_d0b
I0716 14:22:57.049736 24765 net.cpp:190] Setting up relu_d0b
I0716 14:22:57.049743 24765 net.cpp:197] Top shape: 1 64 512 1024 (33554432)
I0716 14:22:57.049746 24765 net.cpp:205] Memory required for data: 308281344
I0716 14:22:57.049749 24765 layer_factory.hpp:123] Creating layer conv_d0b-c
I0716 14:22:57.049757 24765 net.cpp:140] Creating Layer conv_d0b-c
I0716 14:22:57.049762 24765 net.cpp:481] conv_d0b-c <- relu_d0b
I0716 14:22:57.049767 24765 net.cpp:455] conv_d0b-c -> d0c
I0716 14:22:57.052220 24765 net.cpp:190] Setting up conv_d0b-c
I0716 14:22:57.052232 24765 net.cpp:197] Top shape: 1 64 512 1024 (33554432)
I0716 14:22:57.052235 24765 net.cpp:205] Memory required for data: 442499072
I0716 14:22:57.052243 24765 layer_factory.hpp:123] Creating layer d0c_conv_d0b-c_0_split
I0716 14:22:57.052250 24765 net.cpp:140] Creating Layer d0c_conv_d0b-c_0_split
I0716 14:22:57.052253 24765 net.cpp:481] d0c_conv_d0b-c_0_split <- d0c
I0716 14:22:57.052258 24765 net.cpp:455] d0c_conv_d0b-c_0_split -> d0c_conv_d0b-c_0_split_0
I0716 14:22:57.052265 24765 net.cpp:455] d0c_conv_d0b-c_0_split -> d0c_conv_d0b-c_0_split_1
I0716 14:22:57.052304 24765 net.cpp:190] Setting up d0c_conv_d0b-c_0_split
I0716 14:22:57.052311 24765 net.cpp:197] Top shape: 1 64 512 1024 (33554432)
I0716 14:22:57.052316 24765 net.cpp:197] Top shape: 1 64 512 1024 (33554432)
I0716 14:22:57.052320 24765 net.cpp:205] Memory required for data: 710934528
I0716 14:22:57.052322 24765 layer_factory.hpp:123] Creating layer BatchNorm_d0c
I0716 14:22:57.052330 24765 net.cpp:140] Creating Layer BatchNorm_d0c
I0716 14:22:57.052333 24765 net.cpp:481] BatchNorm_d0c <- d0c_conv_d0b-c_0_split_0
I0716 14:22:57.052340 24765 net.cpp:455] BatchNorm_d0c -> BatchNorm_d0c
I0716 14:22:57.053915 24765 net.cpp:190] Setting up BatchNorm_d0c
I0716 14:22:57.053926 24765 net.cpp:197] Top shape: 1 64 512 1024 (33554432)
I0716 14:22:57.053930 24765 net.cpp:205] Memory required for data: 845152256
I0716 14:22:57.053942 24765 layer_factory.hpp:123] Creating layer relu_d0c
I0716 14:22:57.053948 24765 net.cpp:140] Creating Layer relu_d0c
I0716 14:22:57.053952 24765 net.cpp:481] relu_d0c <- BatchNorm_d0c
I0716 14:22:57.053958 24765 net.cpp:455] relu_d0c -> relu_d0c
I0716 14:22:57.053982 24765 net.cpp:190] Setting up relu_d0c
I0716 14:22:57.053987 24765 net.cpp:197] Top shape: 1 64 512 1024 (33554432)
I0716 14:22:57.053990 24765 net.cpp:205] Memory required for data: 979369984
I0716 14:22:57.053993 24765 layer_factory.hpp:123] Creating layer pool_d0c-1a
I0716 14:22:57.054000 24765 net.cpp:140] Creating Layer pool_d0c-1a
I0716 14:22:57.054003 24765 net.cpp:481] pool_d0c-1a <- relu_d0c
I0716 14:22:57.054008 24765 net.cpp:455] pool_d0c-1a -> d1a
I0716 14:22:57.054036 24765 net.cpp:190] Setting up pool_d0c-1a
I0716 14:22:57.054042 24765 net.cpp:197] Top shape: 1 64 256 512 (8388608)
I0716 14:22:57.054044 24765 net.cpp:205] Memory required for data: 1012924416
I0716 14:22:57.054047 24765 layer_factory.hpp:123] Creating layer conv_d1a-b
I0716 14:22:57.054055 24765 net.cpp:140] Creating Layer conv_d1a-b
I0716 14:22:57.054059 24765 net.cpp:481] conv_d1a-b <- d1a
I0716 14:22:57.054064 24765 net.cpp:455] conv_d1a-b -> d1b
I0716 14:22:57.055671 24765 net.cpp:190] Setting up conv_d1a-b
I0716 14:22:57.055683 24765 net.cpp:197] Top shape: 1 128 256 512 (16777216)
I0716 14:22:57.055686 24765 net.cpp:205] Memory required for data: 1080033280
I0716 14:22:57.055691 24765 layer_factory.hpp:123] Creating layer relu_d1b
I0716 14:22:57.055697 24765 net.cpp:140] Creating Layer relu_d1b
I0716 14:22:57.055701 24765 net.cpp:481] relu_d1b <- d1b
I0716 14:22:57.055706 24765 net.cpp:455] relu_d1b -> relu_d1b
I0716 14:22:57.055727 24765 net.cpp:190] Setting up relu_d1b
I0716 14:22:57.055737 24765 net.cpp:197] Top shape: 1 128 256 512 (16777216)
I0716 14:22:57.055740 24765 net.cpp:205] Memory required for data: 1147142144
I0716 14:22:57.055743 24765 layer_factory.hpp:123] Creating layer conv_d1b-c
I0716 14:22:57.055750 24765 net.cpp:140] Creating Layer conv_d1b-c
I0716 14:22:57.055758 24765 net.cpp:481] conv_d1b-c <- relu_d1b
I0716 14:22:57.055764 24765 net.cpp:455] conv_d1b-c -> d1c
I0716 14:22:57.058032 24765 net.cpp:190] Setting up conv_d1b-c
I0716 14:22:57.058043 24765 net.cpp:197] Top shape: 1 128 256 512 (16777216)
I0716 14:22:57.058046 24765 net.cpp:205] Memory required for data: 1214251008
I0716 14:22:57.058053 24765 layer_factory.hpp:123] Creating layer d1c_conv_d1b-c_0_split
I0716 14:22:57.058058 24765 net.cpp:140] Creating Layer d1c_conv_d1b-c_0_split
I0716 14:22:57.058061 24765 net.cpp:481] d1c_conv_d1b-c_0_split <- d1c
I0716 14:22:57.058066 24765 net.cpp:455] d1c_conv_d1b-c_0_split -> d1c_conv_d1b-c_0_split_0
I0716 14:22:57.058073 24765 net.cpp:455] d1c_conv_d1b-c_0_split -> d1c_conv_d1b-c_0_split_1
I0716 14:22:57.058107 24765 net.cpp:190] Setting up d1c_conv_d1b-c_0_split
I0716 14:22:57.058113 24765 net.cpp:197] Top shape: 1 128 256 512 (16777216)
I0716 14:22:57.058117 24765 net.cpp:197] Top shape: 1 128 256 512 (16777216)
I0716 14:22:57.058120 24765 net.cpp:205] Memory required for data: 1348468736
I0716 14:22:57.058123 24765 layer_factory.hpp:123] Creating layer BatchNorm_d1c
I0716 14:22:57.058130 24765 net.cpp:140] Creating Layer BatchNorm_d1c
I0716 14:22:57.058133 24765 net.cpp:481] BatchNorm_d1c <- d1c_conv_d1b-c_0_split_0
I0716 14:22:57.058140 24765 net.cpp:455] BatchNorm_d1c -> BatchNorm_d1c
I0716 14:22:57.058740 24765 net.cpp:190] Setting up BatchNorm_d1c
I0716 14:22:57.058749 24765 net.cpp:197] Top shape: 1 128 256 512 (16777216)
I0716 14:22:57.058753 24765 net.cpp:205] Memory required for data: 1415577600
I0716 14:22:57.058763 24765 layer_factory.hpp:123] Creating layer relu_d1c
I0716 14:22:57.058769 24765 net.cpp:140] Creating Layer relu_d1c
I0716 14:22:57.058773 24765 net.cpp:481] relu_d1c <- BatchNorm_d1c
I0716 14:22:57.058778 24765 net.cpp:455] relu_d1c -> relu_d1c
I0716 14:22:57.058799 24765 net.cpp:190] Setting up relu_d1c
I0716 14:22:57.058804 24765 net.cpp:197] Top shape: 1 128 256 512 (16777216)
I0716 14:22:57.058806 24765 net.cpp:205] Memory required for data: 1482686464
I0716 14:22:57.058809 24765 layer_factory.hpp:123] Creating layer pool_d1c-2a
I0716 14:22:57.058815 24765 net.cpp:140] Creating Layer pool_d1c-2a
I0716 14:22:57.058818 24765 net.cpp:481] pool_d1c-2a <- relu_d1c
I0716 14:22:57.058822 24765 net.cpp:455] pool_d1c-2a -> d2a
I0716 14:22:57.058851 24765 net.cpp:190] Setting up pool_d1c-2a
I0716 14:22:57.058856 24765 net.cpp:197] Top shape: 1 128 128 256 (4194304)
I0716 14:22:57.058859 24765 net.cpp:205] Memory required for data: 1499463680
I0716 14:22:57.058862 24765 layer_factory.hpp:123] Creating layer conv_d2a-b
I0716 14:22:57.058871 24765 net.cpp:140] Creating Layer conv_d2a-b
I0716 14:22:57.058874 24765 net.cpp:481] conv_d2a-b <- d2a
I0716 14:22:57.058879 24765 net.cpp:455] conv_d2a-b -> d2b
I0716 14:22:57.063022 24765 net.cpp:190] Setting up conv_d2a-b
I0716 14:22:57.063035 24765 net.cpp:197] Top shape: 1 256 128 256 (8388608)
I0716 14:22:57.063038 24765 net.cpp:205] Memory required for data: 1533018112
I0716 14:22:57.063045 24765 layer_factory.hpp:123] Creating layer relu_d2b
I0716 14:22:57.063050 24765 net.cpp:140] Creating Layer relu_d2b
I0716 14:22:57.063053 24765 net.cpp:481] relu_d2b <- d2b
I0716 14:22:57.063058 24765 net.cpp:455] relu_d2b -> relu_d2b
I0716 14:22:57.063081 24765 net.cpp:190] Setting up relu_d2b
I0716 14:22:57.063086 24765 net.cpp:197] Top shape: 1 256 128 256 (8388608)
I0716 14:22:57.063088 24765 net.cpp:205] Memory required for data: 1566572544
I0716 14:22:57.063091 24765 layer_factory.hpp:123] Creating layer conv_d2b-c
I0716 14:22:57.063099 24765 net.cpp:140] Creating Layer conv_d2b-c
I0716 14:22:57.063102 24765 net.cpp:481] conv_d2b-c <- relu_d2b
I0716 14:22:57.063107 24765 net.cpp:455] conv_d2b-c -> d2c
I0716 14:22:57.069916 24765 net.cpp:190] Setting up conv_d2b-c
I0716 14:22:57.069929 24765 net.cpp:197] Top shape: 1 256 128 256 (8388608)
I0716 14:22:57.069932 24765 net.cpp:205] Memory required for data: 1600126976
I0716 14:22:57.069938 24765 layer_factory.hpp:123] Creating layer d2c_conv_d2b-c_0_split
I0716 14:22:57.069944 24765 net.cpp:140] Creating Layer d2c_conv_d2b-c_0_split
I0716 14:22:57.069948 24765 net.cpp:481] d2c_conv_d2b-c_0_split <- d2c
I0716 14:22:57.069953 24765 net.cpp:455] d2c_conv_d2b-c_0_split -> d2c_conv_d2b-c_0_split_0
I0716 14:22:57.069960 24765 net.cpp:455] d2c_conv_d2b-c_0_split -> d2c_conv_d2b-c_0_split_1
I0716 14:22:57.069994 24765 net.cpp:190] Setting up d2c_conv_d2b-c_0_split
I0716 14:22:57.070000 24765 net.cpp:197] Top shape: 1 256 128 256 (8388608)
I0716 14:22:57.070004 24765 net.cpp:197] Top shape: 1 256 128 256 (8388608)
I0716 14:22:57.070006 24765 net.cpp:205] Memory required for data: 1667235840
I0716 14:22:57.070010 24765 layer_factory.hpp:123] Creating layer BatchNorm_d2c
I0716 14:22:57.070017 24765 net.cpp:140] Creating Layer BatchNorm_d2c
I0716 14:22:57.070020 24765 net.cpp:481] BatchNorm_d2c <- d2c_conv_d2b-c_0_split_0
I0716 14:22:57.070026 24765 net.cpp:455] BatchNorm_d2c -> BatchNorm_d2c
I0716 14:22:57.070583 24765 net.cpp:190] Setting up BatchNorm_d2c
I0716 14:22:57.070591 24765 net.cpp:197] Top shape: 1 256 128 256 (8388608)
I0716 14:22:57.070595 24765 net.cpp:205] Memory required for data: 1700790272
I0716 14:22:57.070603 24765 layer_factory.hpp:123] Creating layer relu_d2c
I0716 14:22:57.070608 24765 net.cpp:140] Creating Layer relu_d2c
I0716 14:22:57.070611 24765 net.cpp:481] relu_d2c <- BatchNorm_d2c
I0716 14:22:57.070616 24765 net.cpp:455] relu_d2c -> relu_d2c
I0716 14:22:57.070636 24765 net.cpp:190] Setting up relu_d2c
I0716 14:22:57.070641 24765 net.cpp:197] Top shape: 1 256 128 256 (8388608)
I0716 14:22:57.070644 24765 net.cpp:205] Memory required for data: 1734344704
I0716 14:22:57.070647 24765 layer_factory.hpp:123] Creating layer pool_d2c-3a
I0716 14:22:57.070652 24765 net.cpp:140] Creating Layer pool_d2c-3a
I0716 14:22:57.070655 24765 net.cpp:481] pool_d2c-3a <- relu_d2c
I0716 14:22:57.070659 24765 net.cpp:455] pool_d2c-3a -> d3a
I0716 14:22:57.070688 24765 net.cpp:190] Setting up pool_d2c-3a
I0716 14:22:57.070693 24765 net.cpp:197] Top shape: 1 256 64 128 (2097152)
I0716 14:22:57.070698 24765 net.cpp:205] Memory required for data: 1742733312
I0716 14:22:57.070699 24765 layer_factory.hpp:123] Creating layer conv_d3a-b
I0716 14:22:57.070706 24765 net.cpp:140] Creating Layer conv_d3a-b
I0716 14:22:57.070709 24765 net.cpp:481] conv_d3a-b <- d3a
I0716 14:22:57.070714 24765 net.cpp:455] conv_d3a-b -> d3b
I0716 14:22:57.085050 24765 net.cpp:190] Setting up conv_d3a-b
I0716 14:22:57.085065 24765 net.cpp:197] Top shape: 1 512 64 128 (4194304)
I0716 14:22:57.085068 24765 net.cpp:205] Memory required for data: 1759510528
I0716 14:22:57.085075 24765 layer_factory.hpp:123] Creating layer relu_d3b
I0716 14:22:57.085081 24765 net.cpp:140] Creating Layer relu_d3b
I0716 14:22:57.085085 24765 net.cpp:481] relu_d3b <- d3b
I0716 14:22:57.085091 24765 net.cpp:455] relu_d3b -> relu_d3b
I0716 14:22:57.085119 24765 net.cpp:190] Setting up relu_d3b
I0716 14:22:57.085124 24765 net.cpp:197] Top shape: 1 512 64 128 (4194304)
I0716 14:22:57.085127 24765 net.cpp:205] Memory required for data: 1776287744
I0716 14:22:57.085130 24765 layer_factory.hpp:123] Creating layer conv_d3b-c
I0716 14:22:57.085139 24765 net.cpp:140] Creating Layer conv_d3b-c
I0716 14:22:57.085141 24765 net.cpp:481] conv_d3b-c <- relu_d3b
I0716 14:22:57.085146 24765 net.cpp:455] conv_d3b-c -> d3c
I0716 14:22:57.110606 24765 net.cpp:190] Setting up conv_d3b-c
I0716 14:22:57.110623 24765 net.cpp:197] Top shape: 1 512 64 128 (4194304)
I0716 14:22:57.110626 24765 net.cpp:205] Memory required for data: 1793064960
I0716 14:22:57.110632 24765 layer_factory.hpp:123] Creating layer d3c_conv_d3b-c_0_split
I0716 14:22:57.110639 24765 net.cpp:140] Creating Layer d3c_conv_d3b-c_0_split
I0716 14:22:57.110644 24765 net.cpp:481] d3c_conv_d3b-c_0_split <- d3c
I0716 14:22:57.110651 24765 net.cpp:455] d3c_conv_d3b-c_0_split -> d3c_conv_d3b-c_0_split_0
I0716 14:22:57.110658 24765 net.cpp:455] d3c_conv_d3b-c_0_split -> d3c_conv_d3b-c_0_split_1
I0716 14:22:57.110693 24765 net.cpp:190] Setting up d3c_conv_d3b-c_0_split
I0716 14:22:57.110699 24765 net.cpp:197] Top shape: 1 512 64 128 (4194304)
I0716 14:22:57.110703 24765 net.cpp:197] Top shape: 1 512 64 128 (4194304)
I0716 14:22:57.110707 24765 net.cpp:205] Memory required for data: 1826619392
I0716 14:22:57.110709 24765 layer_factory.hpp:123] Creating layer BatchNorm_1
I0716 14:22:57.110718 24765 net.cpp:140] Creating Layer BatchNorm_1
I0716 14:22:57.110723 24765 net.cpp:481] BatchNorm_1 <- d3c_conv_d3b-c_0_split_0
I0716 14:22:57.110728 24765 net.cpp:455] BatchNorm_1 -> BatchNorm_1
I0716 14:22:57.111294 24765 net.cpp:190] Setting up BatchNorm_1
I0716 14:22:57.111301 24765 net.cpp:197] Top shape: 1 512 64 128 (4194304)
I0716 14:22:57.111304 24765 net.cpp:205] Memory required for data: 1843396608
I0716 14:22:57.111316 24765 layer_factory.hpp:123] Creating layer relu_d3c
I0716 14:22:57.111322 24765 net.cpp:140] Creating Layer relu_d3c
I0716 14:22:57.111325 24765 net.cpp:481] relu_d3c <- BatchNorm_1
I0716 14:22:57.111330 24765 net.cpp:455] relu_d3c -> relu_d3c
I0716 14:22:57.111352 24765 net.cpp:190] Setting up relu_d3c
I0716 14:22:57.111357 24765 net.cpp:197] Top shape: 1 512 64 128 (4194304)
I0716 14:22:57.111361 24765 net.cpp:205] Memory required for data: 1860173824
I0716 14:22:57.111363 24765 layer_factory.hpp:123] Creating layer pool_d3c-4a
I0716 14:22:57.111369 24765 net.cpp:140] Creating Layer pool_d3c-4a
I0716 14:22:57.111372 24765 net.cpp:481] pool_d3c-4a <- relu_d3c
I0716 14:22:57.111377 24765 net.cpp:455] pool_d3c-4a -> d4a
I0716 14:22:57.111407 24765 net.cpp:190] Setting up pool_d3c-4a
I0716 14:22:57.111413 24765 net.cpp:197] Top shape: 1 512 32 64 (1048576)
I0716 14:22:57.111415 24765 net.cpp:205] Memory required for data: 1864368128
I0716 14:22:57.111418 24765 layer_factory.hpp:123] Creating layer conv_d4a-b
I0716 14:22:57.111426 24765 net.cpp:140] Creating Layer conv_d4a-b
I0716 14:22:57.111431 24765 net.cpp:481] conv_d4a-b <- d4a
I0716 14:22:57.111438 24765 net.cpp:455] conv_d4a-b -> d4b
I0716 14:22:57.161887 24765 net.cpp:190] Setting up conv_d4a-b
I0716 14:22:57.161911 24765 net.cpp:197] Top shape: 1 1024 32 64 (2097152)
I0716 14:22:57.161913 24765 net.cpp:205] Memory required for data: 1872756736
I0716 14:22:57.161921 24765 layer_factory.hpp:123] Creating layer BatchNorm_2
I0716 14:22:57.161932 24765 net.cpp:140] Creating Layer BatchNorm_2
I0716 14:22:57.161937 24765 net.cpp:481] BatchNorm_2 <- d4b
I0716 14:22:57.161947 24765 net.cpp:455] BatchNorm_2 -> BatchNorm_2
I0716 14:22:57.162509 24765 net.cpp:190] Setting up BatchNorm_2
I0716 14:22:57.162518 24765 net.cpp:197] Top shape: 1 1024 32 64 (2097152)
I0716 14:22:57.162520 24765 net.cpp:205] Memory required for data: 1881145344
I0716 14:22:57.162529 24765 layer_factory.hpp:123] Creating layer relu_d4b
I0716 14:22:57.162536 24765 net.cpp:140] Creating Layer relu_d4b
I0716 14:22:57.162540 24765 net.cpp:481] relu_d4b <- BatchNorm_2
I0716 14:22:57.162545 24765 net.cpp:455] relu_d4b -> relu_d4b
I0716 14:22:57.162567 24765 net.cpp:190] Setting up relu_d4b
I0716 14:22:57.162573 24765 net.cpp:197] Top shape: 1 1024 32 64 (2097152)
I0716 14:22:57.162576 24765 net.cpp:205] Memory required for data: 1889533952
I0716 14:22:57.162580 24765 layer_factory.hpp:123] Creating layer conv_d4b-c
I0716 14:22:57.162588 24765 net.cpp:140] Creating Layer conv_d4b-c
I0716 14:22:57.162591 24765 net.cpp:481] conv_d4b-c <- relu_d4b
I0716 14:22:57.162596 24765 net.cpp:455] conv_d4b-c -> d4c
I0716 14:22:57.265815 24765 net.cpp:190] Setting up conv_d4b-c
I0716 14:22:57.265841 24765 net.cpp:197] Top shape: 1 1024 32 64 (2097152)
I0716 14:22:57.265846 24765 net.cpp:205] Memory required for data: 1897922560
I0716 14:22:57.265853 24765 layer_factory.hpp:123] Creating layer relu_d4c
I0716 14:22:57.265862 24765 net.cpp:140] Creating Layer relu_d4c
I0716 14:22:57.265867 24765 net.cpp:481] relu_d4c <- d4c
I0716 14:22:57.265875 24765 net.cpp:455] relu_d4c -> relu_d4c
I0716 14:22:57.265902 24765 net.cpp:190] Setting up relu_d4c
I0716 14:22:57.265906 24765 net.cpp:197] Top shape: 1 1024 32 64 (2097152)
I0716 14:22:57.265909 24765 net.cpp:205] Memory required for data: 1906311168
I0716 14:22:57.265913 24765 layer_factory.hpp:123] Creating layer upconv_d4c_u3a
I0716 14:22:57.265920 24765 net.cpp:140] Creating Layer upconv_d4c_u3a
I0716 14:22:57.265923 24765 net.cpp:481] upconv_d4c_u3a <- relu_d4c
I0716 14:22:57.265928 24765 net.cpp:455] upconv_d4c_u3a -> u3a
I0716 14:22:57.288607 24765 net.cpp:190] Setting up upconv_d4c_u3a
I0716 14:22:57.288622 24765 net.cpp:197] Top shape: 1 512 64 128 (4194304)
I0716 14:22:57.288625 24765 net.cpp:205] Memory required for data: 1923088384
I0716 14:22:57.288631 24765 layer_factory.hpp:123] Creating layer relu_u3a
I0716 14:22:57.288640 24765 net.cpp:140] Creating Layer relu_u3a
I0716 14:22:57.288643 24765 net.cpp:481] relu_u3a <- u3a
I0716 14:22:57.288648 24765 net.cpp:442] relu_u3a -> u3a (in-place)
I0716 14:22:57.288655 24765 net.cpp:190] Setting up relu_u3a
I0716 14:22:57.288659 24765 net.cpp:197] Top shape: 1 512 64 128 (4194304)
I0716 14:22:57.288662 24765 net.cpp:205] Memory required for data: 1939865600
I0716 14:22:57.288666 24765 layer_factory.hpp:123] Creating layer concat_d3cc_u3a-b
I0716 14:22:57.288671 24765 net.cpp:140] Creating Layer concat_d3cc_u3a-b
I0716 14:22:57.288672 24765 net.cpp:481] concat_d3cc_u3a-b <- u3a
I0716 14:22:57.288677 24765 net.cpp:481] concat_d3cc_u3a-b <- d3c_conv_d3b-c_0_split_1
I0716 14:22:57.288682 24765 net.cpp:455] concat_d3cc_u3a-b -> u3b
I0716 14:22:57.288707 24765 net.cpp:190] Setting up concat_d3cc_u3a-b
I0716 14:22:57.288713 24765 net.cpp:197] Top shape: 1 1024 64 128 (8388608)
I0716 14:22:57.288717 24765 net.cpp:205] Memory required for data: 1973420032
I0716 14:22:57.288719 24765 layer_factory.hpp:123] Creating layer conv_u3b-c
I0716 14:22:57.288727 24765 net.cpp:140] Creating Layer conv_u3b-c
I0716 14:22:57.288730 24765 net.cpp:481] conv_u3b-c <- u3b
I0716 14:22:57.288735 24765 net.cpp:455] conv_u3b-c -> u3c
I0716 14:22:57.343242 24765 net.cpp:190] Setting up conv_u3b-c
I0716 14:22:57.343262 24765 net.cpp:197] Top shape: 1 512 64 128 (4194304)
I0716 14:22:57.343266 24765 net.cpp:205] Memory required for data: 1990197248
I0716 14:22:57.343273 24765 layer_factory.hpp:123] Creating layer relu_u3c
I0716 14:22:57.343281 24765 net.cpp:140] Creating Layer relu_u3c
I0716 14:22:57.343286 24765 net.cpp:481] relu_u3c <- u3c
I0716 14:22:57.343291 24765 net.cpp:442] relu_u3c -> u3c (in-place)
I0716 14:22:57.343300 24765 net.cpp:190] Setting up relu_u3c
I0716 14:22:57.343304 24765 net.cpp:197] Top shape: 1 512 64 128 (4194304)
I0716 14:22:57.343307 24765 net.cpp:205] Memory required for data: 2006974464
I0716 14:22:57.343309 24765 layer_factory.hpp:123] Creating layer conv_u3c-d
I0716 14:22:57.343317 24765 net.cpp:140] Creating Layer conv_u3c-d
I0716 14:22:57.343320 24765 net.cpp:481] conv_u3c-d <- u3c
I0716 14:22:57.343325 24765 net.cpp:455] conv_u3c-d -> u3d
I0716 14:22:57.370000 24765 net.cpp:190] Setting up conv_u3c-d
I0716 14:22:57.370020 24765 net.cpp:197] Top shape: 1 512 64 128 (4194304)
I0716 14:22:57.370023 24765 net.cpp:205] Memory required for data: 2023751680
I0716 14:22:57.370031 24765 layer_factory.hpp:123] Creating layer relu_u3d
I0716 14:22:57.370039 24765 net.cpp:140] Creating Layer relu_u3d
I0716 14:22:57.370044 24765 net.cpp:481] relu_u3d <- u3d
I0716 14:22:57.370049 24765 net.cpp:442] relu_u3d -> u3d (in-place)
I0716 14:22:57.370059 24765 net.cpp:190] Setting up relu_u3d
I0716 14:22:57.370061 24765 net.cpp:197] Top shape: 1 512 64 128 (4194304)
I0716 14:22:57.370064 24765 net.cpp:205] Memory required for data: 2040528896
I0716 14:22:57.370067 24765 layer_factory.hpp:123] Creating layer upconv_u3d_u2a
I0716 14:22:57.370075 24765 net.cpp:140] Creating Layer upconv_u3d_u2a
I0716 14:22:57.370079 24765 net.cpp:481] upconv_u3d_u2a <- u3d
I0716 14:22:57.370084 24765 net.cpp:455] upconv_u3d_u2a -> u2a
I0716 14:22:57.381692 24765 net.cpp:190] Setting up upconv_u3d_u2a
I0716 14:22:57.381707 24765 net.cpp:197] Top shape: 1 512 128 256 (16777216)
I0716 14:22:57.381711 24765 net.cpp:205] Memory required for data: 2107637760
I0716 14:22:57.381717 24765 layer_factory.hpp:123] Creating layer relu_u2a
I0716 14:22:57.381724 24765 net.cpp:140] Creating Layer relu_u2a
I0716 14:22:57.381728 24765 net.cpp:481] relu_u2a <- u2a
I0716 14:22:57.381733 24765 net.cpp:442] relu_u2a -> u2a (in-place)
I0716 14:22:57.381742 24765 net.cpp:190] Setting up relu_u2a
I0716 14:22:57.381745 24765 net.cpp:197] Top shape: 1 512 128 256 (16777216)
I0716 14:22:57.381748 24765 net.cpp:205] Memory required for data: 2174746624
I0716 14:22:57.381750 24765 layer_factory.hpp:123] Creating layer concat_d2cc_u2a-b
I0716 14:22:57.381757 24765 net.cpp:140] Creating Layer concat_d2cc_u2a-b
I0716 14:22:57.381759 24765 net.cpp:481] concat_d2cc_u2a-b <- u2a
I0716 14:22:57.381763 24765 net.cpp:481] concat_d2cc_u2a-b <- d2c_conv_d2b-c_0_split_1
I0716 14:22:57.381768 24765 net.cpp:455] concat_d2cc_u2a-b -> u2b
I0716 14:22:57.381798 24765 net.cpp:190] Setting up concat_d2cc_u2a-b
I0716 14:22:57.381804 24765 net.cpp:197] Top shape: 1 768 128 256 (25165824)
I0716 14:22:57.381808 24765 net.cpp:205] Memory required for data: 2275409920
I0716 14:22:57.381809 24765 layer_factory.hpp:123] Creating layer conv_u2b-c
I0716 14:22:57.381817 24765 net.cpp:140] Creating Layer conv_u2b-c
I0716 14:22:57.381820 24765 net.cpp:481] conv_u2b-c <- u2b
I0716 14:22:57.381825 24765 net.cpp:455] conv_u2b-c -> u2c
I0716 14:22:57.400923 24765 net.cpp:190] Setting up conv_u2b-c
I0716 14:22:57.400938 24765 net.cpp:197] Top shape: 1 256 128 256 (8388608)
I0716 14:22:57.400941 24765 net.cpp:205] Memory required for data: 2308964352
I0716 14:22:57.400948 24765 layer_factory.hpp:123] Creating layer relu_u2c
I0716 14:22:57.400954 24765 net.cpp:140] Creating Layer relu_u2c
I0716 14:22:57.400957 24765 net.cpp:481] relu_u2c <- u2c
I0716 14:22:57.400962 24765 net.cpp:442] relu_u2c -> u2c (in-place)
I0716 14:22:57.400969 24765 net.cpp:190] Setting up relu_u2c
I0716 14:22:57.400974 24765 net.cpp:197] Top shape: 1 256 128 256 (8388608)
I0716 14:22:57.400976 24765 net.cpp:205] Memory required for data: 2342518784
I0716 14:22:57.400979 24765 layer_factory.hpp:123] Creating layer conv_u2c-d
I0716 14:22:57.400986 24765 net.cpp:140] Creating Layer conv_u2c-d
I0716 14:22:57.400990 24765 net.cpp:481] conv_u2c-d <- u2c
I0716 14:22:57.400995 24765 net.cpp:455] conv_u2c-d -> u2d
I0716 14:22:57.407786 24765 net.cpp:190] Setting up conv_u2c-d
I0716 14:22:57.407799 24765 net.cpp:197] Top shape: 1 256 128 256 (8388608)
I0716 14:22:57.407802 24765 net.cpp:205] Memory required for data: 2376073216
I0716 14:22:57.407809 24765 layer_factory.hpp:123] Creating layer relu_u2d
I0716 14:22:57.407814 24765 net.cpp:140] Creating Layer relu_u2d
I0716 14:22:57.407817 24765 net.cpp:481] relu_u2d <- u2d
I0716 14:22:57.407822 24765 net.cpp:442] relu_u2d -> u2d (in-place)
I0716 14:22:57.407829 24765 net.cpp:190] Setting up relu_u2d
I0716 14:22:57.407833 24765 net.cpp:197] Top shape: 1 256 128 256 (8388608)
I0716 14:22:57.407836 24765 net.cpp:205] Memory required for data: 2409627648
I0716 14:22:57.407838 24765 layer_factory.hpp:123] Creating layer upconv_u2d_u1a
I0716 14:22:57.407845 24765 net.cpp:140] Creating Layer upconv_u2d_u1a
I0716 14:22:57.407848 24765 net.cpp:481] upconv_u2d_u1a <- u2d
I0716 14:22:57.407853 24765 net.cpp:455] upconv_u2d_u1a -> u1a
I0716 14:22:57.409977 24765 net.cpp:190] Setting up upconv_u2d_u1a
I0716 14:22:57.409989 24765 net.cpp:197] Top shape: 1 128 256 512 (16777216)
I0716 14:22:57.409992 24765 net.cpp:205] Memory required for data: 2476736512
I0716 14:22:57.409998 24765 layer_factory.hpp:123] Creating layer relu_u1a
I0716 14:22:57.410003 24765 net.cpp:140] Creating Layer relu_u1a
I0716 14:22:57.410007 24765 net.cpp:481] relu_u1a <- u1a
I0716 14:22:57.410012 24765 net.cpp:442] relu_u1a -> u1a (in-place)
I0716 14:22:57.410018 24765 net.cpp:190] Setting up relu_u1a
I0716 14:22:57.410022 24765 net.cpp:197] Top shape: 1 128 256 512 (16777216)
I0716 14:22:57.410025 24765 net.cpp:205] Memory required for data: 2543845376
I0716 14:22:57.410028 24765 layer_factory.hpp:123] Creating layer concat_d1cc_u1a-b
I0716 14:22:57.410033 24765 net.cpp:140] Creating Layer concat_d1cc_u1a-b
I0716 14:22:57.410037 24765 net.cpp:481] concat_d1cc_u1a-b <- u1a
I0716 14:22:57.410040 24765 net.cpp:481] concat_d1cc_u1a-b <- d1c_conv_d1b-c_0_split_1
I0716 14:22:57.410045 24765 net.cpp:455] concat_d1cc_u1a-b -> u1b
I0716 14:22:57.410073 24765 net.cpp:190] Setting up concat_d1cc_u1a-b
I0716 14:22:57.410079 24765 net.cpp:197] Top shape: 1 256 256 512 (33554432)
I0716 14:22:57.410082 24765 net.cpp:205] Memory required for data: 2678063104
I0716 14:22:57.410085 24765 layer_factory.hpp:123] Creating layer conv_u1b-c
I0716 14:22:57.410092 24765 net.cpp:140] Creating Layer conv_u1b-c
I0716 14:22:57.410095 24765 net.cpp:481] conv_u1b-c <- u1b
I0716 14:22:57.410100 24765 net.cpp:455] conv_u1b-c -> u1c
I0716 14:22:57.413612 24765 net.cpp:190] Setting up conv_u1b-c
I0716 14:22:57.413625 24765 net.cpp:197] Top shape: 1 128 256 512 (16777216)
I0716 14:22:57.413627 24765 net.cpp:205] Memory required for data: 2745171968
I0716 14:22:57.413633 24765 layer_factory.hpp:123] Creating layer relu_u1c
I0716 14:22:57.413638 24765 net.cpp:140] Creating Layer relu_u1c
I0716 14:22:57.413642 24765 net.cpp:481] relu_u1c <- u1c
I0716 14:22:57.413646 24765 net.cpp:442] relu_u1c -> u1c (in-place)
I0716 14:22:57.413653 24765 net.cpp:190] Setting up relu_u1c
I0716 14:22:57.413656 24765 net.cpp:197] Top shape: 1 128 256 512 (16777216)
I0716 14:22:57.413659 24765 net.cpp:205] Memory required for data: 2812280832
I0716 14:22:57.413662 24765 layer_factory.hpp:123] Creating layer conv_u1c-d
I0716 14:22:57.413669 24765 net.cpp:140] Creating Layer conv_u1c-d
I0716 14:22:57.413672 24765 net.cpp:481] conv_u1c-d <- u1c
I0716 14:22:57.413676 24765 net.cpp:455] conv_u1c-d -> u1d
I0716 14:22:57.415925 24765 net.cpp:190] Setting up conv_u1c-d
I0716 14:22:57.415936 24765 net.cpp:197] Top shape: 1 128 256 512 (16777216)
I0716 14:22:57.415940 24765 net.cpp:205] Memory required for data: 2879389696
I0716 14:22:57.415946 24765 layer_factory.hpp:123] Creating layer relu_u1d
I0716 14:22:57.415951 24765 net.cpp:140] Creating Layer relu_u1d
I0716 14:22:57.415954 24765 net.cpp:481] relu_u1d <- u1d
I0716 14:22:57.415959 24765 net.cpp:442] relu_u1d -> u1d (in-place)
I0716 14:22:57.415966 24765 net.cpp:190] Setting up relu_u1d
I0716 14:22:57.415968 24765 net.cpp:197] Top shape: 1 128 256 512 (16777216)
I0716 14:22:57.415971 24765 net.cpp:205] Memory required for data: 2946498560
I0716 14:22:57.415974 24765 layer_factory.hpp:123] Creating layer upconv_u1d_u0a_NEW
I0716 14:22:57.415982 24765 net.cpp:140] Creating Layer upconv_u1d_u0a_NEW
I0716 14:22:57.415983 24765 net.cpp:481] upconv_u1d_u0a_NEW <- u1d
I0716 14:22:57.415989 24765 net.cpp:455] upconv_u1d_u0a_NEW -> u0a
I0716 14:22:57.417548 24765 net.cpp:190] Setting up upconv_u1d_u0a_NEW
I0716 14:22:57.417560 24765 net.cpp:197] Top shape: 1 64 512 1024 (33554432)
I0716 14:22:57.417563 24765 net.cpp:205] Memory required for data: 3080716288
I0716 14:22:57.417577 24765 layer_factory.hpp:123] Creating layer relu_u0a
I0716 14:22:57.417582 24765 net.cpp:140] Creating Layer relu_u0a
I0716 14:22:57.417587 24765 net.cpp:481] relu_u0a <- u0a
I0716 14:22:57.417593 24765 net.cpp:442] relu_u0a -> u0a (in-place)
I0716 14:22:57.417600 24765 net.cpp:190] Setting up relu_u0a
I0716 14:22:57.417604 24765 net.cpp:197] Top shape: 1 64 512 1024 (33554432)
I0716 14:22:57.417608 24765 net.cpp:205] Memory required for data: 3214934016
I0716 14:22:57.417611 24765 layer_factory.hpp:123] Creating layer concat_d0cc_u0a-b
I0716 14:22:57.417618 24765 net.cpp:140] Creating Layer concat_d0cc_u0a-b
I0716 14:22:57.417620 24765 net.cpp:481] concat_d0cc_u0a-b <- u0a
I0716 14:22:57.417624 24765 net.cpp:481] concat_d0cc_u0a-b <- d0c_conv_d0b-c_0_split_1
I0716 14:22:57.417629 24765 net.cpp:455] concat_d0cc_u0a-b -> u0b
I0716 14:22:57.417662 24765 net.cpp:190] Setting up concat_d0cc_u0a-b
I0716 14:22:57.417670 24765 net.cpp:197] Top shape: 1 128 512 1024 (67108864)
I0716 14:22:57.417672 24765 net.cpp:205] Memory required for data: 3483369472
I0716 14:22:57.417676 24765 layer_factory.hpp:123] Creating layer conv_u0b-c_New
I0716 14:22:57.417685 24765 net.cpp:140] Creating Layer conv_u0b-c_New
I0716 14:22:57.417690 24765 net.cpp:481] conv_u0b-c_New <- u0b
I0716 14:22:57.417695 24765 net.cpp:455] conv_u0b-c_New -> u0c
I0716 14:22:57.419551 24765 net.cpp:190] Setting up conv_u0b-c_New
I0716 14:22:57.419564 24765 net.cpp:197] Top shape: 1 64 512 1024 (33554432)
I0716 14:22:57.419567 24765 net.cpp:205] Memory required for data: 3617587200
I0716 14:22:57.419574 24765 layer_factory.hpp:123] Creating layer relu_u0c
I0716 14:22:57.419579 24765 net.cpp:140] Creating Layer relu_u0c
I0716 14:22:57.419582 24765 net.cpp:481] relu_u0c <- u0c
I0716 14:22:57.419586 24765 net.cpp:442] relu_u0c -> u0c (in-place)
I0716 14:22:57.419593 24765 net.cpp:190] Setting up relu_u0c
I0716 14:22:57.419597 24765 net.cpp:197] Top shape: 1 64 512 1024 (33554432)
I0716 14:22:57.419600 24765 net.cpp:205] Memory required for data: 3751804928
I0716 14:22:57.419602 24765 layer_factory.hpp:123] Creating layer conv_u0c-d_New
I0716 14:22:57.419610 24765 net.cpp:140] Creating Layer conv_u0c-d_New
I0716 14:22:57.419612 24765 net.cpp:481] conv_u0c-d_New <- u0c
I0716 14:22:57.419617 24765 net.cpp:455] conv_u0c-d_New -> u0d
I0716 14:22:57.421183 24765 net.cpp:190] Setting up conv_u0c-d_New
I0716 14:22:57.421195 24765 net.cpp:197] Top shape: 1 64 512 1024 (33554432)
I0716 14:22:57.421198 24765 net.cpp:205] Memory required for data: 3886022656
I0716 14:22:57.421205 24765 layer_factory.hpp:123] Creating layer relu_u0d
I0716 14:22:57.421209 24765 net.cpp:140] Creating Layer relu_u0d
I0716 14:22:57.421213 24765 net.cpp:481] relu_u0d <- u0d
I0716 14:22:57.421217 24765 net.cpp:442] relu_u0d -> u0d (in-place)
I0716 14:22:57.421224 24765 net.cpp:190] Setting up relu_u0d
I0716 14:22:57.421228 24765 net.cpp:197] Top shape: 1 64 512 1024 (33554432)
I0716 14:22:57.421231 24765 net.cpp:205] Memory required for data: 4020240384
I0716 14:22:57.421233 24765 layer_factory.hpp:123] Creating layer conv_u0d-score_New
I0716 14:22:57.421241 24765 net.cpp:140] Creating Layer conv_u0d-score_New
I0716 14:22:57.421243 24765 net.cpp:481] conv_u0d-score_New <- u0d
I0716 14:22:57.421249 24765 net.cpp:455] conv_u0d-score_New -> conv_u0d-score_New
I0716 14:22:57.422493 24765 net.cpp:190] Setting up conv_u0d-score_New
I0716 14:22:57.422505 24765 net.cpp:197] Top shape: 1 19 512 1024 (9961472)
I0716 14:22:57.422508 24765 net.cpp:205] Memory required for data: 4060086272
I0716 14:22:57.422514 24765 layer_factory.hpp:123] Creating layer score
I0716 14:22:57.422523 24765 net.cpp:140] Creating Layer score
I0716 14:22:57.422526 24765 net.cpp:481] score <- conv_u0d-score_New
I0716 14:22:57.422533 24765 net.cpp:455] score -> score
I0716 14:22:57.422600 24765 net.cpp:190] Setting up score
I0716 14:22:57.422606 24765 net.cpp:197] Top shape: 1 19 512 1024 (9961472)
I0716 14:22:57.422610 24765 net.cpp:205] Memory required for data: 4099932160
I0716 14:22:57.422613 24765 layer_factory.hpp:123] Creating layer accuracy
I0716 14:22:57.422642 24765 net.cpp:140] Creating Layer accuracy
I0716 14:22:57.422647 24765 net.cpp:481] accuracy <- score
I0716 14:22:57.422652 24765 net.cpp:481] accuracy <- label
I0716 14:22:57.422657 24765 net.cpp:455] accuracy -> segmentation_eval
I0716 14:22:57.422682 24765 net.cpp:190] Setting up accuracy
I0716 14:22:57.422686 24765 net.cpp:197] Top shape: 3 19 (57)
I0716 14:22:57.422689 24765 net.cpp:205] Memory required for data: 4099932388
I0716 14:22:57.422693 24765 net.cpp:268] accuracy does not need backward computation.
I0716 14:22:57.422701 24765 net.cpp:268] score does not need backward computation.
I0716 14:22:57.422704 24765 net.cpp:268] conv_u0d-score_New does not need backward computation.
I0716 14:22:57.422708 24765 net.cpp:268] relu_u0d does not need backward computation.
…
