…
I0716 14:33:57.885253 25179 net.cpp:98] Initializing net from parameters: 
state {
  phase: TRAIN
}
layer {
  name: "data"
  type: "ImageData"
  top: "data"
  top: "label"
  include {
    phase: TRAIN
  }
  transform_param {
    scale: 0.022
    mean_value: 73
    mean_value: 82
    mean_value: 72
    resize_param {
      prob: 1
      resize_mode: WARP
      height: 512
      width: 1024
    }
  }
  image_data_param {
    source: "../data/cityscapes/calibration.txt"
    batch_size: 1
    shuffle: true
    new_height: 512
    new_width: 1024
    root_folder: "../data/cityscapes/calibration_images/"
  }
}
layer {
  name: "resize_down"
  type: "DeephiResize"
  bottom: "data"
  top: "data"
  deephi_resize_param {
    resize_type: BILINEAR
    new_height: 512
    new_width: 1024
  }
}
layer {
  name: "conv_d0a-b"
  type: "Convolution"
  bottom: "data"
  top: "d0b"
  param {
    lr_mult: 1
    decay_mult: 1
  }
  param {
    lr_mult: 2
    decay_mult: 0
  }
  convolution_param {
    num_output: 64
    pad: 1
    kernel_size: 3
    stride: 1
    weight_filler {
      type: "msra"
    }
  }
}
layer {
  name: "relu_d0b"
  type: "ReLU"
  bottom: "d0b"
  top: "relu_d0b"
}
layer {
  name: "conv_d0b-c"
  type: "Convolution"
  bottom: "relu_d0b"
  top: "d0c"
  param {
    lr_mult: 1
    decay_mult: 1
  }
  param {
    lr_mult: 2
    decay_mult: 0
  }
  convolution_param {
    num_output: 64
    pad: 1
    kernel_size: 3
    weight_filler {
      type: "msra"
    }
  }
}
layer {
  name: "BatchNorm_d0c"
  type: "BatchNorm"
  bottom: "d0c"
  top: "BatchNorm_d0c"
  param {
    lr_mult: 1
    decay_mult: 0
  }
  param {
    lr_mult: 1
    decay_mult: 0
  }
  param {
    lr_mult: 0
    decay_mult: 0
  }
  param {
    lr_mult: 0
    decay_mult: 0
  }
  batch_norm_param {
    use_global_stats: true
    eps: 1e-05
    scale_filler {
      type: "constant"
      value: 1
    }
    bias_filler {
      type: "constant"
      value: 0
    }
  }
}
layer {
  name: "relu_d0c"
  type: "ReLU"
  bottom: "BatchNorm_d0c"
  top: "relu_d0c"
}
layer {
  name: "pool_d0c-1a"
  type: "Pooling"
  bottom: "relu_d0c"
  top: "d1a"
  pooling_param {
    pool: MAX
    kernel_size: 2
    stride: 2
  }
}
layer {
  name: "conv_d1a-b"
  type: "Convolution"
  bottom: "d1a"
  top: "d1b"
  param {
    lr_mult: 1
    decay_mult: 1
  }
  param {
    lr_mult: 2
    decay_mult: 0
  }
  convolution_param {
    num_output: 128
    pad: 1
    kernel_size: 3
    weight_filler {
      type: "msra"
    }
  }
}
layer {
  name: "relu_d1b"
  type: "ReLU"
  bottom: "d1b"
  top: "relu_d1b"
}
layer {
  name: "conv_d1b-c"
  type: "Convolution"
  bottom: "relu_d1b"
  top: "d1c"
  param {
    lr_mult: 1
    decay_mult: 1
  }
  param {
    lr_mult: 2
    decay_mult: 0
  }
  convolution_param {
    num_output: 128
    pad: 1
    kernel_size: 3
    weight_filler {
      type: "msra"
    }
  }
}
layer {
  name: "BatchNorm_d1c"
  type: "BatchNorm"
  bottom: "d1c"
  top: "BatchNorm_d1c"
  param {
    lr_mult: 1
    decay_mult: 0
  }
  param {
    lr_mult: 1
    decay_mult: 0
  }
  param {
    lr_mult: 0
    decay_mult: 0
  }
  param {
    lr_mult: 0
    decay_mult: 0
  }
  batch_norm_param {
    use_global_stats: true
    eps: 1e-05
    scale_filler {
      type: "constant"
      value: 1
    }
    bias_filler {
      type: "constant"
      value: 0
    }
  }
}
layer {
  name: "relu_d1c"
  type: "ReLU"
  bottom: "BatchNorm_d1c"
  top: "relu_d1c"
}
layer {
  name: "pool_d1c-2a"
  type: "Pooling"
  bottom: "relu_d1c"
  top: "d2a"
  pooling_param {
    pool: MAX
    kernel_size: 2
    stride: 2
  }
}
layer {
  name: "conv_d2a-b"
  type: "Convolution"
  bottom: "d2a"
  top: "d2b"
  param {
    lr_mult: 1
    decay_mult: 1
  }
  param {
    lr_mult: 2
    decay_mult: 0
  }
  convolution_param {
    num_output: 256
    pad: 1
    kernel_size: 3
    weight_filler {
      type: "msra"
    }
  }
}
layer {
  name: "relu_d2b"
  type: "ReLU"
  bottom: "d2b"
  top: "relu_d2b"
}
layer {
  name: "conv_d2b-c"
  type: "Convolution"
  bottom: "relu_d2b"
  top: "d2c"
  param {
    lr_mult: 1
    decay_mult: 1
  }
  param {
    lr_mult: 2
    decay_mult: 0
  }
  convolution_param {
    num_output: 256
    pad: 1
    kernel_size: 3
    weight_filler {
      type: "msra"
    }
  }
}
layer {
  name: "BatchNorm_d2c"
  type: "BatchNorm"
  bottom: "d2c"
  top: "BatchNorm_d2c"
  param {
    lr_mult: 1
    decay_mult: 0
  }
  param {
    lr_mult: 1
    decay_mult: 0
  }
  param {
    lr_mult: 0
    decay_mult: 0
  }
  param {
    lr_mult: 0
    decay_mult: 0
  }
  batch_norm_param {
    use_global_stats: true
    eps: 1e-05
    scale_filler {
      type: "constant"
      value: 1
    }
    bias_filler {
      type: "constant"
      value: 0
    }
  }
}
layer {
  name: "relu_d2c"
  type: "ReLU"
  bottom: "BatchNorm_d2c"
  top: "relu_d2c"
}
layer {
  name: "pool_d2c-3a"
  type: "Pooling"
  bottom: "relu_d2c"
  top: "d3a"
  pooling_param {
    pool: MAX
    kernel_size: 2
    stride: 2
  }
}
layer {
  name: "conv_d3a-b"
  type: "Convolution"
  bottom: "d3a"
  top: "d3b"
  param {
    lr_mult: 1
    decay_mult: 1
  }
  param {
    lr_mult: 2
    decay_mult: 0
  }
  convolution_param {
    num_output: 512
    pad: 1
    kernel_size: 3
    weight_filler {
      type: "msra"
    }
  }
}
layer {
  name: "relu_d3b"
  type: "ReLU"
  bottom: "d3b"
  top: "relu_d3b"
}
layer {
  name: "conv_d3b-c"
  type: "Convolution"
  bottom: "relu_d3b"
  top: "d3c"
  param {
    lr_mult: 1
    decay_mult: 1
  }
  param {
    lr_mult: 2
    decay_mult: 0
  }
  convolution_param {
    num_output: 512
    pad: 1
    kernel_size: 3
    weight_filler {
      type: "msra"
    }
  }
}
layer {
  name: "BatchNorm_1"
  type: "BatchNorm"
  bottom: "d3c"
  top: "BatchNorm_1"
  param {
    lr_mult: 1
    decay_mult: 0
  }
  param {
    lr_mult: 1
    decay_mult: 0
  }
  param {
    lr_mult: 0
    decay_mult: 0
  }
  param {
    lr_mult: 0
    decay_mult: 0
  }
  batch_norm_param {
    use_global_stats: true
    eps: 1e-05
    scale_filler {
      type: "constant"
      value: 1
    }
    bias_filler {
      type: "constant"
      value: 0
    }
  }
}
layer {
  name: "relu_d3c"
  type: "ReLU"
  bottom: "BatchNorm_1"
  top: "relu_d3c"
}
layer {
  name: "pool_d3c-4a"
  type: "Pooling"
  bottom: "relu_d3c"
  top: "d4a"
  pooling_param {
    pool: MAX
    kernel_size: 2
    stride: 2
  }
}
layer {
  name: "conv_d4a-b"
  type: "Convolution"
  bottom: "d4a"
  top: "d4b"
  param {
    lr_mult: 1
    decay_mult: 1
  }
  param {
    lr_mult: 2
    decay_mult: 0
  }
  convolution_param {
    num_output: 1024
    pad: 1
    kernel_size: 3
    weight_filler {
      type: "msra"
    }
  }
}
layer {
  name: "BatchNorm_2"
  type: "BatchNorm"
  bottom: "d4b"
  top: "BatchNorm_2"
  param {
    lr_mult: 1
    decay_mult: 0
  }
  param {
    lr_mult: 1
    decay_mult: 0
  }
  param {
    lr_mult: 0
    decay_mult: 0
  }
  param {
    lr_mult: 0
    decay_mult: 0
  }
  batch_norm_param {
    use_global_stats: true
    eps: 1e-05
    scale_filler {
      type: "constant"
      value: 1
    }
    bias_filler {
      type: "constant"
      value: 0
    }
  }
}
layer {
  name: "relu_d4b"
  type: "ReLU"
  bottom: "BatchNorm_2"
  top: "relu_d4b"
}
layer {
  name: "conv_d4b-c"
  type: "Convolution"
  bottom: "relu_d4b"
  top: "d4c"
  param {
    lr_mult: 1
    decay_mult: 1
  }
  param {
    lr_mult: 2
    decay_mult: 0
  }
  convolution_param {
    num_output: 1024
    pad: 1
    kernel_size: 3
    weight_filler {
      type: "msra"
    }
  }
}
layer {
  name: "relu_d4c"
  type: "ReLU"
  bottom: "d4c"
  top: "relu_d4c"
}
layer {
  name: "upconv_d4c_u3a"
  type: "Deconvolution"
  bottom: "relu_d4c"
  top: "u3a"
  param {
    lr_mult: 1
    decay_mult: 1
  }
  param {
    lr_mult: 2
    decay_mult: 0
  }
  convolution_param {
    num_output: 512
    pad: 0
    kernel_size: 2
    stride: 2
    weight_filler {
      type: "msra"
    }
  }
}
layer {
  name: "relu_u3a"
  type: "ReLU"
  bottom: "u3a"
  top: "u3a"
}
layer {
  name: "concat_d3cc_u3a-b"
  type: "Concat"
  bottom: "u3a"
  bottom: "d3c"
  top: "u3b"
}
layer {
  name: "conv_u3b-c"
  type: "Convolution"
  bottom: "u3b"
  top: "u3c"
  param {
    lr_mult: 1
    decay_mult: 1
  }
  param {
    lr_mult: 2
    decay_mult: 0
  }
  convolution_param {
    num_output: 512
    pad: 1
    kernel_size: 3
    weight_filler {
      type: "msra"
    }
  }
}
layer {
  name: "relu_u3c"
  type: "ReLU"
  bottom: "u3c"
  top: "u3c"
}
layer {
  name: "conv_u3c-d"
  type: "Convolution"
  bottom: "u3c"
  top: "u3d"
  param {
    lr_mult: 1
    decay_mult: 1
  }
  param {
    lr_mult: 2
    decay_mult: 0
  }
  convolution_param {
    num_output: 512
    pad: 1
    kernel_size: 3
    weight_filler {
      type: "msra"
    }
  }
}
layer {
  name: "relu_u3d"
  type: "ReLU"
  bottom: "u3d"
  top: "u3d"
}
layer {
  name: "upconv_u3d_u2a"
  type: "Deconvolution"
  bottom: "u3d"
  top: "u2a"
  param {
    lr_mult: 1
    decay_mult: 1
  }
  param {
    lr_mult: 2
    decay_mult: 0
  }
  convolution_param {
    num_output: 512
    pad: 0
    kernel_size: 2
    stride: 2
    weight_filler {
      type: "msra"
    }
  }
}
layer {
  name: "relu_u2a"
  type: "ReLU"
  bottom: "u2a"
  top: "u2a"
}
layer {
  name: "concat_d2cc_u2a-b"
  type: "Concat"
  bottom: "u2a"
  bottom: "d2c"
  top: "u2b"
}
layer {
  name: "conv_u2b-c"
  type: "Convolution"
  bottom: "u2b"
  top: "u2c"
  param {
    lr_mult: 1
    decay_mult: 1
  }
  param {
    lr_mult: 2
    decay_mult: 0
  }
  convolution_param {
    num_output: 256
    pad: 1
    kernel_size: 3
    weight_filler {
      type: "msra"
    }
  }
}
layer {
  name: "relu_u2c"
  type: "ReLU"
  bottom: "u2c"
  top: "u2c"
}
layer {
  name: "conv_u2c-d"
  type: "Convolution"
  bottom: "u2c"
  top: "u2d"
  param {
    lr_mult: 1
    decay_mult: 1
  }
  param {
    lr_mult: 2
    decay_mult: 0
  }
  convolution_param {
    num_output: 256
    pad: 1
    kernel_size: 3
    weight_filler {
      type: "msra"
    }
  }
}
layer {
  name: "relu_u2d"
  type: "ReLU"
  bottom: "u2d"
  top: "u2d"
}
layer {
  name: "upconv_u2d_u1a"
  type: "Deconvolution"
  bottom: "u2d"
  top: "u1a"
  param {
    lr_mult: 1
    decay_mult: 1
  }
  param {
    lr_mult: 2
    decay_mult: 0
  }
  convolution_param {
    num_output: 128
    pad: 0
    kernel_size: 2
    stride: 2
    weight_filler {
      type: "msra"
    }
  }
}
layer {
  name: "relu_u1a"
  type: "ReLU"
  bottom: "u1a"
  top: "u1a"
}
layer {
  name: "concat_d1cc_u1a-b"
  type: "Concat"
  bottom: "u1a"
  bottom: "d1c"
  top: "u1b"
}
layer {
  name: "conv_u1b-c"
  type: "Convolution"
  bottom: "u1b"
  top: "u1c"
  param {
    lr_mult: 1
    decay_mult: 1
  }
  param {
    lr_mult: 2
    decay_mult: 0
  }
  convolution_param {
    num_output: 128
    pad: 1
    kernel_size: 3
    weight_filler {
      type: "msra"
    }
  }
}
layer {
  name: "relu_u1c"
  type: "ReLU"
  bottom: "u1c"
  top: "u1c"
}
layer {
  name: "conv_u1c-d"
  type: "Convolution"
  bottom: "u1c"
  top: "u1d"
  param {
    lr_mult: 1
    decay_mult: 1
  }
  param {
    lr_mult: 2
    decay_mult: 0
  }
  convolution_param {
    num_output: 128
    pad: 1
    kernel_size: 3
    weight_filler {
      type: "msra"
    }
  }
}
layer {
  name: "relu_u1d"
  type: "ReLU"
  bottom: "u1d"
  top: "u1d"
}
layer {
  name: "upconv_u1d_u0a_NEW"
  type: "Deconvolution"
  bottom: "u1d"
  top: "u0a"
  param {
    lr_mult: 1
    decay_mult: 1
  }
  param {
    lr_mult: 2
    decay_mult: 0
  }
  convolution_param {
    num_output: 64
    pad: 0
    kernel_size: 2
    stride: 2
    weight_filler {
      type: "msra"
    }
  }
}
layer {
  name: "relu_u0a"
  type: "ReLU"
  bottom: "u0a"
  top: "u0a"
}
layer {
  name: "concat_d0cc_u0a-b"
  type: "Concat"
  bottom: "u0a"
  bottom: "d0c"
  top: "u0b"
}
layer {
  name: "conv_u0b-c_New"
  type: "Convolution"
  bottom: "u0b"
  top: "u0c"
  param {
    lr_mult: 1
    decay_mult: 1
  }
  param {
    lr_mult: 2
    decay_mult: 0
  }
  convolution_param {
    num_output: 64
    pad: 1
    kernel_size: 3
    weight_filler {
      type: "msra"
    }
  }
}
layer {
  name: "relu_u0c"
  type: "ReLU"
  bottom: "u0c"
  top: "u0c"
}
layer {
  name: "conv_u0c-d_New"
  type: "Convolution"
  bottom: "u0c"
  top: "u0d"
  param {
    lr_mult: 1
    decay_mult: 1
  }
  param {
    lr_mult: 2
    decay_mult: 0
  }
  convolution_param {
    num_output: 64
    pad: 1
    kernel_size: 3
    weight_filler {
      type: "msra"
    }
  }
}
layer {
  name: "relu_u0d"
  type: "ReLU"
  bottom: "u0d"
  top: "u0d"
}
layer {
  name: "conv_u0d-score_New"
  type: "Convolution"
  bottom: "u0d"
  top: "conv_u0d-score_New"
  param {
    lr_mult: 1
    decay_mult: 1
  }
  param {
    lr_mult: 2
    decay_mult: 0
  }
  convolution_param {
    num_output: 19
    pad: 0
    kernel_size: 1
    weight_filler {
      type: "msra"
    }
  }
}
layer {
  name: "score"
  type: "Softmax"
  bottom: "conv_u0d-score_New"
  top: "score"
}
I0716 14:33:57.885423 25179 layer_factory.hpp:123] Creating layer data
I0716 14:33:57.885450 25179 net.cpp:140] Creating Layer data
I0716 14:33:57.885462 25179 net.cpp:455] data -> data
I0716 14:33:57.885470 25179 net.cpp:455] data -> label
I0716 14:33:57.885489 25179 image_data_layer.cpp:87] Opening file ../data/cityscapes/calibration.txt
I0716 14:33:57.885748 25179 image_data_layer.cpp:97] Shuffling data
I0716 14:33:57.885810 25179 image_data_layer.cpp:102] A total of 1000 images.
I0716 14:33:57.961890 25179 image_data_layer.cpp:130] output data size: 1,3,512,1024
I0716 14:33:57.989267 25179 internal_thread.cpp:73] Starting internal thread(s) on GPU 0
I0716 14:33:57.989342 25179 net.cpp:190] Setting up data
I0716 14:33:57.989354 25179 net.cpp:197] Top shape: 1 3 512 1024 (1572864)
I0716 14:33:57.989359 25179 net.cpp:197] Top shape: 1 (1)
I0716 14:33:57.989362 25179 net.cpp:205] Memory required for data: 6291460
I0716 14:33:57.989367 25179 layer_factory.hpp:123] Creating layer resize_down
I0716 14:33:57.989378 25179 net.cpp:140] Creating Layer resize_down
I0716 14:33:57.989382 25179 net.cpp:481] resize_down <- data
I0716 14:33:57.989394 25179 net.cpp:442] resize_down -> data (in-place)
I0716 14:33:57.989413 25179 net.cpp:190] Setting up resize_down
I0716 14:33:57.989416 25179 net.cpp:197] Top shape: 1 3 512 1024 (1572864)
I0716 14:33:57.989419 25179 net.cpp:205] Memory required for data: 12582916
I0716 14:33:57.989423 25179 layer_factory.hpp:123] Creating layer conv_d0a-b
I0716 14:33:57.989431 25179 net.cpp:140] Creating Layer conv_d0a-b
I0716 14:33:57.989434 25179 net.cpp:481] conv_d0a-b <- data
I0716 14:33:57.989439 25179 net.cpp:455] conv_d0a-b -> d0b
I0716 14:33:57.991644 25179 net.cpp:190] Setting up conv_d0a-b
I0716 14:33:57.991657 25179 net.cpp:197] Top shape: 1 64 512 1024 (33554432)
I0716 14:33:57.991660 25179 net.cpp:205] Memory required for data: 146800644
I0716 14:33:57.991674 25179 layer_factory.hpp:123] Creating layer relu_d0b
I0716 14:33:57.991681 25179 net.cpp:140] Creating Layer relu_d0b
I0716 14:33:57.991684 25179 net.cpp:481] relu_d0b <- d0b
I0716 14:33:57.991689 25179 net.cpp:455] relu_d0b -> relu_d0b
I0716 14:33:57.991719 25179 net.cpp:190] Setting up relu_d0b
I0716 14:33:57.991725 25179 net.cpp:197] Top shape: 1 64 512 1024 (33554432)
I0716 14:33:57.991729 25179 net.cpp:205] Memory required for data: 281018372
I0716 14:33:57.991731 25179 layer_factory.hpp:123] Creating layer conv_d0b-c
I0716 14:33:57.991739 25179 net.cpp:140] Creating Layer conv_d0b-c
I0716 14:33:57.991742 25179 net.cpp:481] conv_d0b-c <- relu_d0b
I0716 14:33:57.991747 25179 net.cpp:455] conv_d0b-c -> d0c
I0716 14:33:57.994236 25179 net.cpp:190] Setting up conv_d0b-c
I0716 14:33:57.994248 25179 net.cpp:197] Top shape: 1 64 512 1024 (33554432)
I0716 14:33:57.994251 25179 net.cpp:205] Memory required for data: 415236100
I0716 14:33:57.994259 25179 layer_factory.hpp:123] Creating layer d0c_conv_d0b-c_0_split
I0716 14:33:57.994266 25179 net.cpp:140] Creating Layer d0c_conv_d0b-c_0_split
I0716 14:33:57.994269 25179 net.cpp:481] d0c_conv_d0b-c_0_split <- d0c
I0716 14:33:57.994274 25179 net.cpp:455] d0c_conv_d0b-c_0_split -> d0c_conv_d0b-c_0_split_0
I0716 14:33:57.994282 25179 net.cpp:455] d0c_conv_d0b-c_0_split -> d0c_conv_d0b-c_0_split_1
I0716 14:33:57.994321 25179 net.cpp:190] Setting up d0c_conv_d0b-c_0_split
I0716 14:33:57.994328 25179 net.cpp:197] Top shape: 1 64 512 1024 (33554432)
I0716 14:33:57.994331 25179 net.cpp:197] Top shape: 1 64 512 1024 (33554432)
I0716 14:33:57.994334 25179 net.cpp:205] Memory required for data: 683671556
I0716 14:33:57.994338 25179 layer_factory.hpp:123] Creating layer BatchNorm_d0c
I0716 14:33:57.994344 25179 net.cpp:140] Creating Layer BatchNorm_d0c
I0716 14:33:57.994364 25179 net.cpp:481] BatchNorm_d0c <- d0c_conv_d0b-c_0_split_0
I0716 14:33:57.994369 25179 net.cpp:455] BatchNorm_d0c -> BatchNorm_d0c
I0716 14:33:57.995985 25179 net.cpp:190] Setting up BatchNorm_d0c
I0716 14:33:57.995997 25179 net.cpp:197] Top shape: 1 64 512 1024 (33554432)
I0716 14:33:57.996001 25179 net.cpp:205] Memory required for data: 817889284
I0716 14:33:57.996012 25179 layer_factory.hpp:123] Creating layer relu_d0c
I0716 14:33:57.996019 25179 net.cpp:140] Creating Layer relu_d0c
I0716 14:33:57.996022 25179 net.cpp:481] relu_d0c <- BatchNorm_d0c
I0716 14:33:57.996027 25179 net.cpp:455] relu_d0c -> relu_d0c
I0716 14:33:57.996057 25179 net.cpp:190] Setting up relu_d0c
I0716 14:33:57.996062 25179 net.cpp:197] Top shape: 1 64 512 1024 (33554432)
I0716 14:33:57.996064 25179 net.cpp:205] Memory required for data: 952107012
I0716 14:33:57.996068 25179 layer_factory.hpp:123] Creating layer pool_d0c-1a
I0716 14:33:57.996074 25179 net.cpp:140] Creating Layer pool_d0c-1a
I0716 14:33:57.996078 25179 net.cpp:481] pool_d0c-1a <- relu_d0c
I0716 14:33:57.996083 25179 net.cpp:455] pool_d0c-1a -> d1a
I0716 14:33:57.996110 25179 net.cpp:190] Setting up pool_d0c-1a
I0716 14:33:57.996116 25179 net.cpp:197] Top shape: 1 64 256 512 (8388608)
I0716 14:33:57.996119 25179 net.cpp:205] Memory required for data: 985661444
I0716 14:33:57.996122 25179 layer_factory.hpp:123] Creating layer conv_d1a-b
I0716 14:33:57.996129 25179 net.cpp:140] Creating Layer conv_d1a-b
I0716 14:33:57.996132 25179 net.cpp:481] conv_d1a-b <- d1a
I0716 14:33:57.996137 25179 net.cpp:455] conv_d1a-b -> d1b
I0716 14:33:57.997762 25179 net.cpp:190] Setting up conv_d1a-b
I0716 14:33:57.997776 25179 net.cpp:197] Top shape: 1 128 256 512 (16777216)
I0716 14:33:57.997779 25179 net.cpp:205] Memory required for data: 1052770308
I0716 14:33:57.997786 25179 layer_factory.hpp:123] Creating layer relu_d1b
I0716 14:33:57.997792 25179 net.cpp:140] Creating Layer relu_d1b
I0716 14:33:57.997794 25179 net.cpp:481] relu_d1b <- d1b
I0716 14:33:57.997799 25179 net.cpp:455] relu_d1b -> relu_d1b
I0716 14:33:57.997822 25179 net.cpp:190] Setting up relu_d1b
I0716 14:33:57.997828 25179 net.cpp:197] Top shape: 1 128 256 512 (16777216)
I0716 14:33:57.997831 25179 net.cpp:205] Memory required for data: 1119879172
I0716 14:33:57.997833 25179 layer_factory.hpp:123] Creating layer conv_d1b-c
I0716 14:33:57.997841 25179 net.cpp:140] Creating Layer conv_d1b-c
I0716 14:33:57.997844 25179 net.cpp:481] conv_d1b-c <- relu_d1b
I0716 14:33:57.997849 25179 net.cpp:455] conv_d1b-c -> d1c
I0716 14:33:58.000128 25179 net.cpp:190] Setting up conv_d1b-c
I0716 14:33:58.000140 25179 net.cpp:197] Top shape: 1 128 256 512 (16777216)
I0716 14:33:58.000144 25179 net.cpp:205] Memory required for data: 1186988036
I0716 14:33:58.000150 25179 layer_factory.hpp:123] Creating layer d1c_conv_d1b-c_0_split
I0716 14:33:58.000155 25179 net.cpp:140] Creating Layer d1c_conv_d1b-c_0_split
I0716 14:33:58.000159 25179 net.cpp:481] d1c_conv_d1b-c_0_split <- d1c
I0716 14:33:58.000164 25179 net.cpp:455] d1c_conv_d1b-c_0_split -> d1c_conv_d1b-c_0_split_0
I0716 14:33:58.000171 25179 net.cpp:455] d1c_conv_d1b-c_0_split -> d1c_conv_d1b-c_0_split_1
I0716 14:33:58.000205 25179 net.cpp:190] Setting up d1c_conv_d1b-c_0_split
I0716 14:33:58.000211 25179 net.cpp:197] Top shape: 1 128 256 512 (16777216)
I0716 14:33:58.000214 25179 net.cpp:197] Top shape: 1 128 256 512 (16777216)
I0716 14:33:58.000217 25179 net.cpp:205] Memory required for data: 1321205764
I0716 14:33:58.000221 25179 layer_factory.hpp:123] Creating layer BatchNorm_d1c
I0716 14:33:58.000227 25179 net.cpp:140] Creating Layer BatchNorm_d1c
I0716 14:33:58.000231 25179 net.cpp:481] BatchNorm_d1c <- d1c_conv_d1b-c_0_split_0
I0716 14:33:58.000236 25179 net.cpp:455] BatchNorm_d1c -> BatchNorm_d1c
I0716 14:33:58.000809 25179 net.cpp:190] Setting up BatchNorm_d1c
I0716 14:33:58.000819 25179 net.cpp:197] Top shape: 1 128 256 512 (16777216)
I0716 14:33:58.000823 25179 net.cpp:205] Memory required for data: 1388314628
I0716 14:33:58.000834 25179 layer_factory.hpp:123] Creating layer relu_d1c
I0716 14:33:58.000839 25179 net.cpp:140] Creating Layer relu_d1c
I0716 14:33:58.000844 25179 net.cpp:481] relu_d1c <- BatchNorm_d1c
I0716 14:33:58.000849 25179 net.cpp:455] relu_d1c -> relu_d1c
I0716 14:33:58.000869 25179 net.cpp:190] Setting up relu_d1c
I0716 14:33:58.000874 25179 net.cpp:197] Top shape: 1 128 256 512 (16777216)
I0716 14:33:58.000878 25179 net.cpp:205] Memory required for data: 1455423492
I0716 14:33:58.000880 25179 layer_factory.hpp:123] Creating layer pool_d1c-2a
I0716 14:33:58.000885 25179 net.cpp:140] Creating Layer pool_d1c-2a
I0716 14:33:58.000890 25179 net.cpp:481] pool_d1c-2a <- relu_d1c
I0716 14:33:58.000895 25179 net.cpp:455] pool_d1c-2a -> d2a
I0716 14:33:58.000921 25179 net.cpp:190] Setting up pool_d1c-2a
I0716 14:33:58.000927 25179 net.cpp:197] Top shape: 1 128 128 256 (4194304)
I0716 14:33:58.000931 25179 net.cpp:205] Memory required for data: 1472200708
I0716 14:33:58.000933 25179 layer_factory.hpp:123] Creating layer conv_d2a-b
I0716 14:33:58.000941 25179 net.cpp:140] Creating Layer conv_d2a-b
I0716 14:33:58.000944 25179 net.cpp:481] conv_d2a-b <- d2a
I0716 14:33:58.000949 25179 net.cpp:455] conv_d2a-b -> d2b
I0716 14:33:58.005134 25179 net.cpp:190] Setting up conv_d2a-b
I0716 14:33:58.005148 25179 net.cpp:197] Top shape: 1 256 128 256 (8388608)
I0716 14:33:58.005151 25179 net.cpp:205] Memory required for data: 1505755140
I0716 14:33:58.005157 25179 layer_factory.hpp:123] Creating layer relu_d2b
I0716 14:33:58.005163 25179 net.cpp:140] Creating Layer relu_d2b
I0716 14:33:58.005167 25179 net.cpp:481] relu_d2b <- d2b
I0716 14:33:58.005172 25179 net.cpp:455] relu_d2b -> relu_d2b
I0716 14:33:58.005194 25179 net.cpp:190] Setting up relu_d2b
I0716 14:33:58.005200 25179 net.cpp:197] Top shape: 1 256 128 256 (8388608)
I0716 14:33:58.005203 25179 net.cpp:205] Memory required for data: 1539309572
I0716 14:33:58.005206 25179 layer_factory.hpp:123] Creating layer conv_d2b-c
I0716 14:33:58.005213 25179 net.cpp:140] Creating Layer conv_d2b-c
I0716 14:33:58.005218 25179 net.cpp:481] conv_d2b-c <- relu_d2b
I0716 14:33:58.005223 25179 net.cpp:455] conv_d2b-c -> d2c
I0716 14:33:58.012125 25179 net.cpp:190] Setting up conv_d2b-c
I0716 14:33:58.012138 25179 net.cpp:197] Top shape: 1 256 128 256 (8388608)
I0716 14:33:58.012142 25179 net.cpp:205] Memory required for data: 1572864004
I0716 14:33:58.012148 25179 layer_factory.hpp:123] Creating layer d2c_conv_d2b-c_0_split
I0716 14:33:58.012154 25179 net.cpp:140] Creating Layer d2c_conv_d2b-c_0_split
I0716 14:33:58.012158 25179 net.cpp:481] d2c_conv_d2b-c_0_split <- d2c
I0716 14:33:58.012164 25179 net.cpp:455] d2c_conv_d2b-c_0_split -> d2c_conv_d2b-c_0_split_0
I0716 14:33:58.012171 25179 net.cpp:455] d2c_conv_d2b-c_0_split -> d2c_conv_d2b-c_0_split_1
I0716 14:33:58.012204 25179 net.cpp:190] Setting up d2c_conv_d2b-c_0_split
I0716 14:33:58.012210 25179 net.cpp:197] Top shape: 1 256 128 256 (8388608)
I0716 14:33:58.012214 25179 net.cpp:197] Top shape: 1 256 128 256 (8388608)
I0716 14:33:58.012217 25179 net.cpp:205] Memory required for data: 1639972868
I0716 14:33:58.012219 25179 layer_factory.hpp:123] Creating layer BatchNorm_d2c
I0716 14:33:58.012226 25179 net.cpp:140] Creating Layer BatchNorm_d2c
I0716 14:33:58.012230 25179 net.cpp:481] BatchNorm_d2c <- d2c_conv_d2b-c_0_split_0
I0716 14:33:58.012235 25179 net.cpp:455] BatchNorm_d2c -> BatchNorm_d2c
I0716 14:33:58.012786 25179 net.cpp:190] Setting up BatchNorm_d2c
I0716 14:33:58.012796 25179 net.cpp:197] Top shape: 1 256 128 256 (8388608)
I0716 14:33:58.012799 25179 net.cpp:205] Memory required for data: 1673527300
I0716 14:33:58.012807 25179 layer_factory.hpp:123] Creating layer relu_d2c
I0716 14:33:58.012814 25179 net.cpp:140] Creating Layer relu_d2c
I0716 14:33:58.012816 25179 net.cpp:481] relu_d2c <- BatchNorm_d2c
I0716 14:33:58.012821 25179 net.cpp:455] relu_d2c -> relu_d2c
I0716 14:33:58.012840 25179 net.cpp:190] Setting up relu_d2c
I0716 14:33:58.012846 25179 net.cpp:197] Top shape: 1 256 128 256 (8388608)
I0716 14:33:58.012850 25179 net.cpp:205] Memory required for data: 1707081732
I0716 14:33:58.012852 25179 layer_factory.hpp:123] Creating layer pool_d2c-3a
I0716 14:33:58.012857 25179 net.cpp:140] Creating Layer pool_d2c-3a
I0716 14:33:58.012861 25179 net.cpp:481] pool_d2c-3a <- relu_d2c
I0716 14:33:58.012866 25179 net.cpp:455] pool_d2c-3a -> d3a
I0716 14:33:58.012893 25179 net.cpp:190] Setting up pool_d2c-3a
I0716 14:33:58.012898 25179 net.cpp:197] Top shape: 1 256 64 128 (2097152)
I0716 14:33:58.012902 25179 net.cpp:205] Memory required for data: 1715470340
I0716 14:33:58.012904 25179 layer_factory.hpp:123] Creating layer conv_d3a-b
I0716 14:33:58.012912 25179 net.cpp:140] Creating Layer conv_d3a-b
I0716 14:33:58.012914 25179 net.cpp:481] conv_d3a-b <- d3a
I0716 14:33:58.012919 25179 net.cpp:455] conv_d3a-b -> d3b
I0716 14:33:58.027456 25179 net.cpp:190] Setting up conv_d3a-b
I0716 14:33:58.027478 25179 net.cpp:197] Top shape: 1 512 64 128 (4194304)
I0716 14:33:58.027482 25179 net.cpp:205] Memory required for data: 1732247556
I0716 14:33:58.027489 25179 layer_factory.hpp:123] Creating layer relu_d3b
I0716 14:33:58.027498 25179 net.cpp:140] Creating Layer relu_d3b
I0716 14:33:58.027503 25179 net.cpp:481] relu_d3b <- d3b
I0716 14:33:58.027509 25179 net.cpp:455] relu_d3b -> relu_d3b
I0716 14:33:58.027539 25179 net.cpp:190] Setting up relu_d3b
I0716 14:33:58.027545 25179 net.cpp:197] Top shape: 1 512 64 128 (4194304)
I0716 14:33:58.027549 25179 net.cpp:205] Memory required for data: 1749024772
I0716 14:33:58.027551 25179 layer_factory.hpp:123] Creating layer conv_d3b-c
I0716 14:33:58.027559 25179 net.cpp:140] Creating Layer conv_d3b-c
I0716 14:33:58.027562 25179 net.cpp:481] conv_d3b-c <- relu_d3b
I0716 14:33:58.027568 25179 net.cpp:455] conv_d3b-c -> d3c
I0716 14:33:58.053974 25179 net.cpp:190] Setting up conv_d3b-c
I0716 14:33:58.053997 25179 net.cpp:197] Top shape: 1 512 64 128 (4194304)
I0716 14:33:58.054000 25179 net.cpp:205] Memory required for data: 1765801988
I0716 14:33:58.054009 25179 layer_factory.hpp:123] Creating layer d3c_conv_d3b-c_0_split
I0716 14:33:58.054018 25179 net.cpp:140] Creating Layer d3c_conv_d3b-c_0_split
I0716 14:33:58.054023 25179 net.cpp:481] d3c_conv_d3b-c_0_split <- d3c
I0716 14:33:58.054029 25179 net.cpp:455] d3c_conv_d3b-c_0_split -> d3c_conv_d3b-c_0_split_0
I0716 14:33:58.054039 25179 net.cpp:455] d3c_conv_d3b-c_0_split -> d3c_conv_d3b-c_0_split_1
I0716 14:33:58.054071 25179 net.cpp:190] Setting up d3c_conv_d3b-c_0_split
I0716 14:33:58.054078 25179 net.cpp:197] Top shape: 1 512 64 128 (4194304)
I0716 14:33:58.054082 25179 net.cpp:197] Top shape: 1 512 64 128 (4194304)
I0716 14:33:58.054085 25179 net.cpp:205] Memory required for data: 1799356420
I0716 14:33:58.054088 25179 layer_factory.hpp:123] Creating layer BatchNorm_1
I0716 14:33:58.054096 25179 net.cpp:140] Creating Layer BatchNorm_1
I0716 14:33:58.054100 25179 net.cpp:481] BatchNorm_1 <- d3c_conv_d3b-c_0_split_0
I0716 14:33:58.054105 25179 net.cpp:455] BatchNorm_1 -> BatchNorm_1
I0716 14:33:58.054651 25179 net.cpp:190] Setting up BatchNorm_1
I0716 14:33:58.054659 25179 net.cpp:197] Top shape: 1 512 64 128 (4194304)
I0716 14:33:58.054662 25179 net.cpp:205] Memory required for data: 1816133636
I0716 14:33:58.054675 25179 layer_factory.hpp:123] Creating layer relu_d3c
I0716 14:33:58.054682 25179 net.cpp:140] Creating Layer relu_d3c
I0716 14:33:58.054684 25179 net.cpp:481] relu_d3c <- BatchNorm_1
I0716 14:33:58.054689 25179 net.cpp:455] relu_d3c -> relu_d3c
I0716 14:33:58.054713 25179 net.cpp:190] Setting up relu_d3c
I0716 14:33:58.054720 25179 net.cpp:197] Top shape: 1 512 64 128 (4194304)
I0716 14:33:58.054723 25179 net.cpp:205] Memory required for data: 1832910852
I0716 14:33:58.054725 25179 layer_factory.hpp:123] Creating layer pool_d3c-4a
I0716 14:33:58.054731 25179 net.cpp:140] Creating Layer pool_d3c-4a
I0716 14:33:58.054735 25179 net.cpp:481] pool_d3c-4a <- relu_d3c
I0716 14:33:58.054739 25179 net.cpp:455] pool_d3c-4a -> d4a
I0716 14:33:58.054769 25179 net.cpp:190] Setting up pool_d3c-4a
I0716 14:33:58.054775 25179 net.cpp:197] Top shape: 1 512 32 64 (1048576)
I0716 14:33:58.054778 25179 net.cpp:205] Memory required for data: 1837105156
I0716 14:33:58.054781 25179 layer_factory.hpp:123] Creating layer conv_d4a-b
I0716 14:33:58.054790 25179 net.cpp:140] Creating Layer conv_d4a-b
I0716 14:33:58.054792 25179 net.cpp:481] conv_d4a-b <- d4a
I0716 14:33:58.054797 25179 net.cpp:455] conv_d4a-b -> d4b
I0716 14:33:58.106709 25179 net.cpp:190] Setting up conv_d4a-b
I0716 14:33:58.106737 25179 net.cpp:197] Top shape: 1 1024 32 64 (2097152)
I0716 14:33:58.106741 25179 net.cpp:205] Memory required for data: 1845493764
I0716 14:33:58.106750 25179 layer_factory.hpp:123] Creating layer BatchNorm_2
I0716 14:33:58.106761 25179 net.cpp:140] Creating Layer BatchNorm_2
I0716 14:33:58.106765 25179 net.cpp:481] BatchNorm_2 <- d4b
I0716 14:33:58.106773 25179 net.cpp:455] BatchNorm_2 -> BatchNorm_2
I0716 14:33:58.107324 25179 net.cpp:190] Setting up BatchNorm_2
I0716 14:33:58.107333 25179 net.cpp:197] Top shape: 1 1024 32 64 (2097152)
I0716 14:33:58.107336 25179 net.cpp:205] Memory required for data: 1853882372
I0716 14:33:58.107345 25179 layer_factory.hpp:123] Creating layer relu_d4b
I0716 14:33:58.107353 25179 net.cpp:140] Creating Layer relu_d4b
I0716 14:33:58.107357 25179 net.cpp:481] relu_d4b <- BatchNorm_2
I0716 14:33:58.107362 25179 net.cpp:455] relu_d4b -> relu_d4b
I0716 14:33:58.107384 25179 net.cpp:190] Setting up relu_d4b
I0716 14:33:58.107390 25179 net.cpp:197] Top shape: 1 1024 32 64 (2097152)
I0716 14:33:58.107393 25179 net.cpp:205] Memory required for data: 1862270980
I0716 14:33:58.107396 25179 layer_factory.hpp:123] Creating layer conv_d4b-c
I0716 14:33:58.107404 25179 net.cpp:140] Creating Layer conv_d4b-c
I0716 14:33:58.107408 25179 net.cpp:481] conv_d4b-c <- relu_d4b
I0716 14:33:58.107412 25179 net.cpp:455] conv_d4b-c -> d4c
I0716 14:33:58.211855 25179 net.cpp:190] Setting up conv_d4b-c
I0716 14:33:58.211881 25179 net.cpp:197] Top shape: 1 1024 32 64 (2097152)
I0716 14:33:58.211884 25179 net.cpp:205] Memory required for data: 1870659588
I0716 14:33:58.211894 25179 layer_factory.hpp:123] Creating layer relu_d4c
I0716 14:33:58.211901 25179 net.cpp:140] Creating Layer relu_d4c
I0716 14:33:58.211906 25179 net.cpp:481] relu_d4c <- d4c
I0716 14:33:58.211913 25179 net.cpp:455] relu_d4c -> relu_d4c
I0716 14:33:58.211942 25179 net.cpp:190] Setting up relu_d4c
I0716 14:33:58.211949 25179 net.cpp:197] Top shape: 1 1024 32 64 (2097152)
I0716 14:33:58.211953 25179 net.cpp:205] Memory required for data: 1879048196
I0716 14:33:58.211957 25179 layer_factory.hpp:123] Creating layer upconv_d4c_u3a
I0716 14:33:58.211966 25179 net.cpp:140] Creating Layer upconv_d4c_u3a
I0716 14:33:58.211969 25179 net.cpp:481] upconv_d4c_u3a <- relu_d4c
I0716 14:33:58.211974 25179 net.cpp:455] upconv_d4c_u3a -> u3a
I0716 14:33:58.235100 25179 net.cpp:190] Setting up upconv_d4c_u3a
I0716 14:33:58.235126 25179 net.cpp:197] Top shape: 1 512 64 128 (4194304)
I0716 14:33:58.235128 25179 net.cpp:205] Memory required for data: 1895825412
I0716 14:33:58.235137 25179 layer_factory.hpp:123] Creating layer relu_u3a
I0716 14:33:58.235146 25179 net.cpp:140] Creating Layer relu_u3a
I0716 14:33:58.235150 25179 net.cpp:481] relu_u3a <- u3a
I0716 14:33:58.235157 25179 net.cpp:442] relu_u3a -> u3a (in-place)
I0716 14:33:58.235167 25179 net.cpp:190] Setting up relu_u3a
I0716 14:33:58.235170 25179 net.cpp:197] Top shape: 1 512 64 128 (4194304)
I0716 14:33:58.235173 25179 net.cpp:205] Memory required for data: 1912602628
I0716 14:33:58.235177 25179 layer_factory.hpp:123] Creating layer concat_d3cc_u3a-b
I0716 14:33:58.235182 25179 net.cpp:140] Creating Layer concat_d3cc_u3a-b
I0716 14:33:58.235184 25179 net.cpp:481] concat_d3cc_u3a-b <- u3a
I0716 14:33:58.235189 25179 net.cpp:481] concat_d3cc_u3a-b <- d3c_conv_d3b-c_0_split_1
I0716 14:33:58.235193 25179 net.cpp:455] concat_d3cc_u3a-b -> u3b
I0716 14:33:58.235219 25179 net.cpp:190] Setting up concat_d3cc_u3a-b
I0716 14:33:58.235224 25179 net.cpp:197] Top shape: 1 1024 64 128 (8388608)
I0716 14:33:58.235226 25179 net.cpp:205] Memory required for data: 1946157060
I0716 14:33:58.235229 25179 layer_factory.hpp:123] Creating layer conv_u3b-c
I0716 14:33:58.235237 25179 net.cpp:140] Creating Layer conv_u3b-c
I0716 14:33:58.235246 25179 net.cpp:481] conv_u3b-c <- u3b
I0716 14:33:58.235251 25179 net.cpp:455] conv_u3b-c -> u3c
I0716 14:33:58.286854 25179 net.cpp:190] Setting up conv_u3b-c
I0716 14:33:58.286876 25179 net.cpp:197] Top shape: 1 512 64 128 (4194304)
I0716 14:33:58.286880 25179 net.cpp:205] Memory required for data: 1962934276
I0716 14:33:58.286888 25179 layer_factory.hpp:123] Creating layer relu_u3c
I0716 14:33:58.286896 25179 net.cpp:140] Creating Layer relu_u3c
I0716 14:33:58.286900 25179 net.cpp:481] relu_u3c <- u3c
I0716 14:33:58.286906 25179 net.cpp:442] relu_u3c -> u3c (in-place)
I0716 14:33:58.286916 25179 net.cpp:190] Setting up relu_u3c
I0716 14:33:58.286919 25179 net.cpp:197] Top shape: 1 512 64 128 (4194304)
I0716 14:33:58.286922 25179 net.cpp:205] Memory required for data: 1979711492
I0716 14:33:58.286926 25179 layer_factory.hpp:123] Creating layer conv_u3c-d
I0716 14:33:58.286933 25179 net.cpp:140] Creating Layer conv_u3c-d
I0716 14:33:58.286936 25179 net.cpp:481] conv_u3c-d <- u3c
I0716 14:33:58.286942 25179 net.cpp:455] conv_u3c-d -> u3d
I0716 14:33:58.313139 25179 net.cpp:190] Setting up conv_u3c-d
I0716 14:33:58.313165 25179 net.cpp:197] Top shape: 1 512 64 128 (4194304)
I0716 14:33:58.313169 25179 net.cpp:205] Memory required for data: 1996488708
I0716 14:33:58.313177 25179 layer_factory.hpp:123] Creating layer relu_u3d
I0716 14:33:58.313185 25179 net.cpp:140] Creating Layer relu_u3d
I0716 14:33:58.313190 25179 net.cpp:481] relu_u3d <- u3d
I0716 14:33:58.313196 25179 net.cpp:442] relu_u3d -> u3d (in-place)
I0716 14:33:58.313205 25179 net.cpp:190] Setting up relu_u3d
I0716 14:33:58.313210 25179 net.cpp:197] Top shape: 1 512 64 128 (4194304)
I0716 14:33:58.313211 25179 net.cpp:205] Memory required for data: 2013265924
I0716 14:33:58.313215 25179 layer_factory.hpp:123] Creating layer upconv_u3d_u2a
I0716 14:33:58.313222 25179 net.cpp:140] Creating Layer upconv_u3d_u2a
I0716 14:33:58.313225 25179 net.cpp:481] upconv_u3d_u2a <- u3d
I0716 14:33:58.313230 25179 net.cpp:455] upconv_u3d_u2a -> u2a
I0716 14:33:58.325234 25179 net.cpp:190] Setting up upconv_u3d_u2a
I0716 14:33:58.325256 25179 net.cpp:197] Top shape: 1 512 128 256 (16777216)
I0716 14:33:58.325259 25179 net.cpp:205] Memory required for data: 2080374788
I0716 14:33:58.325268 25179 layer_factory.hpp:123] Creating layer relu_u2a
I0716 14:33:58.325275 25179 net.cpp:140] Creating Layer relu_u2a
I0716 14:33:58.325280 25179 net.cpp:481] relu_u2a <- u2a
I0716 14:33:58.325286 25179 net.cpp:442] relu_u2a -> u2a (in-place)
I0716 14:33:58.325296 25179 net.cpp:190] Setting up relu_u2a
I0716 14:33:58.325300 25179 net.cpp:197] Top shape: 1 512 128 256 (16777216)
I0716 14:33:58.325304 25179 net.cpp:205] Memory required for data: 2147483652
I0716 14:33:58.325306 25179 layer_factory.hpp:123] Creating layer concat_d2cc_u2a-b
I0716 14:33:58.325311 25179 net.cpp:140] Creating Layer concat_d2cc_u2a-b
I0716 14:33:58.325314 25179 net.cpp:481] concat_d2cc_u2a-b <- u2a
I0716 14:33:58.325318 25179 net.cpp:481] concat_d2cc_u2a-b <- d2c_conv_d2b-c_0_split_1
I0716 14:33:58.325323 25179 net.cpp:455] concat_d2cc_u2a-b -> u2b
I0716 14:33:58.325348 25179 net.cpp:190] Setting up concat_d2cc_u2a-b
I0716 14:33:58.325353 25179 net.cpp:197] Top shape: 1 768 128 256 (25165824)
I0716 14:33:58.325356 25179 net.cpp:205] Memory required for data: 2248146948
I0716 14:33:58.325359 25179 layer_factory.hpp:123] Creating layer conv_u2b-c
I0716 14:33:58.325367 25179 net.cpp:140] Creating Layer conv_u2b-c
I0716 14:33:58.325371 25179 net.cpp:481] conv_u2b-c <- u2b
I0716 14:33:58.325376 25179 net.cpp:455] conv_u2b-c -> u2c
I0716 14:33:58.344712 25179 net.cpp:190] Setting up conv_u2b-c
I0716 14:33:58.344730 25179 net.cpp:197] Top shape: 1 256 128 256 (8388608)
I0716 14:33:58.344733 25179 net.cpp:205] Memory required for data: 2281701380
I0716 14:33:58.344740 25179 layer_factory.hpp:123] Creating layer relu_u2c
I0716 14:33:58.344748 25179 net.cpp:140] Creating Layer relu_u2c
I0716 14:33:58.344751 25179 net.cpp:481] relu_u2c <- u2c
I0716 14:33:58.344756 25179 net.cpp:442] relu_u2c -> u2c (in-place)
I0716 14:33:58.344765 25179 net.cpp:190] Setting up relu_u2c
I0716 14:33:58.344769 25179 net.cpp:197] Top shape: 1 256 128 256 (8388608)
I0716 14:33:58.344771 25179 net.cpp:205] Memory required for data: 2315255812
I0716 14:33:58.344774 25179 layer_factory.hpp:123] Creating layer conv_u2c-d
I0716 14:33:58.344782 25179 net.cpp:140] Creating Layer conv_u2c-d
I0716 14:33:58.344785 25179 net.cpp:481] conv_u2c-d <- u2c
I0716 14:33:58.344790 25179 net.cpp:455] conv_u2c-d -> u2d
I0716 14:33:58.351617 25179 net.cpp:190] Setting up conv_u2c-d
I0716 14:33:58.351631 25179 net.cpp:197] Top shape: 1 256 128 256 (8388608)
I0716 14:33:58.351634 25179 net.cpp:205] Memory required for data: 2348810244
I0716 14:33:58.351640 25179 layer_factory.hpp:123] Creating layer relu_u2d
I0716 14:33:58.351646 25179 net.cpp:140] Creating Layer relu_u2d
I0716 14:33:58.351650 25179 net.cpp:481] relu_u2d <- u2d
I0716 14:33:58.351655 25179 net.cpp:442] relu_u2d -> u2d (in-place)
I0716 14:33:58.351661 25179 net.cpp:190] Setting up relu_u2d
I0716 14:33:58.351665 25179 net.cpp:197] Top shape: 1 256 128 256 (8388608)
I0716 14:33:58.351668 25179 net.cpp:205] Memory required for data: 2382364676
I0716 14:33:58.351671 25179 layer_factory.hpp:123] Creating layer upconv_u2d_u1a
I0716 14:33:58.351677 25179 net.cpp:140] Creating Layer upconv_u2d_u1a
I0716 14:33:58.351680 25179 net.cpp:481] upconv_u2d_u1a <- u2d
I0716 14:33:58.351686 25179 net.cpp:455] upconv_u2d_u1a -> u1a
I0716 14:33:58.353842 25179 net.cpp:190] Setting up upconv_u2d_u1a
I0716 14:33:58.353854 25179 net.cpp:197] Top shape: 1 128 256 512 (16777216)
I0716 14:33:58.353857 25179 net.cpp:205] Memory required for data: 2449473540
I0716 14:33:58.353863 25179 layer_factory.hpp:123] Creating layer relu_u1a
I0716 14:33:58.353869 25179 net.cpp:140] Creating Layer relu_u1a
I0716 14:33:58.353873 25179 net.cpp:481] relu_u1a <- u1a
I0716 14:33:58.353878 25179 net.cpp:442] relu_u1a -> u1a (in-place)
I0716 14:33:58.353884 25179 net.cpp:190] Setting up relu_u1a
I0716 14:33:58.353888 25179 net.cpp:197] Top shape: 1 128 256 512 (16777216)
I0716 14:33:58.353890 25179 net.cpp:205] Memory required for data: 2516582404
I0716 14:33:58.353893 25179 layer_factory.hpp:123] Creating layer concat_d1cc_u1a-b
I0716 14:33:58.353899 25179 net.cpp:140] Creating Layer concat_d1cc_u1a-b
I0716 14:33:58.353901 25179 net.cpp:481] concat_d1cc_u1a-b <- u1a
I0716 14:33:58.353905 25179 net.cpp:481] concat_d1cc_u1a-b <- d1c_conv_d1b-c_0_split_1
I0716 14:33:58.353910 25179 net.cpp:455] concat_d1cc_u1a-b -> u1b
I0716 14:33:58.353938 25179 net.cpp:190] Setting up concat_d1cc_u1a-b
I0716 14:33:58.353945 25179 net.cpp:197] Top shape: 1 256 256 512 (33554432)
I0716 14:33:58.353947 25179 net.cpp:205] Memory required for data: 2650800132
I0716 14:33:58.353950 25179 layer_factory.hpp:123] Creating layer conv_u1b-c
I0716 14:33:58.353958 25179 net.cpp:140] Creating Layer conv_u1b-c
I0716 14:33:58.353961 25179 net.cpp:481] conv_u1b-c <- u1b
I0716 14:33:58.353966 25179 net.cpp:455] conv_u1b-c -> u1c
I0716 14:33:58.357501 25179 net.cpp:190] Setting up conv_u1b-c
I0716 14:33:58.357513 25179 net.cpp:197] Top shape: 1 128 256 512 (16777216)
I0716 14:33:58.357517 25179 net.cpp:205] Memory required for data: 2717908996
I0716 14:33:58.357522 25179 layer_factory.hpp:123] Creating layer relu_u1c
I0716 14:33:58.357527 25179 net.cpp:140] Creating Layer relu_u1c
I0716 14:33:58.357532 25179 net.cpp:481] relu_u1c <- u1c
I0716 14:33:58.357537 25179 net.cpp:442] relu_u1c -> u1c (in-place)
I0716 14:33:58.357542 25179 net.cpp:190] Setting up relu_u1c
I0716 14:33:58.357547 25179 net.cpp:197] Top shape: 1 128 256 512 (16777216)
I0716 14:33:58.357549 25179 net.cpp:205] Memory required for data: 2785017860
I0716 14:33:58.357553 25179 layer_factory.hpp:123] Creating layer conv_u1c-d
I0716 14:33:58.357559 25179 net.cpp:140] Creating Layer conv_u1c-d
I0716 14:33:58.357563 25179 net.cpp:481] conv_u1c-d <- u1c
I0716 14:33:58.357566 25179 net.cpp:455] conv_u1c-d -> u1d
I0716 14:33:58.359832 25179 net.cpp:190] Setting up conv_u1c-d
I0716 14:33:58.359844 25179 net.cpp:197] Top shape: 1 128 256 512 (16777216)
I0716 14:33:58.359848 25179 net.cpp:205] Memory required for data: 2852126724
I0716 14:33:58.359853 25179 layer_factory.hpp:123] Creating layer relu_u1d
I0716 14:33:58.359858 25179 net.cpp:140] Creating Layer relu_u1d
I0716 14:33:58.359863 25179 net.cpp:481] relu_u1d <- u1d
I0716 14:33:58.359866 25179 net.cpp:442] relu_u1d -> u1d (in-place)
I0716 14:33:58.359874 25179 net.cpp:190] Setting up relu_u1d
I0716 14:33:58.359877 25179 net.cpp:197] Top shape: 1 128 256 512 (16777216)
I0716 14:33:58.359880 25179 net.cpp:205] Memory required for data: 2919235588
I0716 14:33:58.359882 25179 layer_factory.hpp:123] Creating layer upconv_u1d_u0a_NEW
I0716 14:33:58.359889 25179 net.cpp:140] Creating Layer upconv_u1d_u0a_NEW
I0716 14:33:58.359892 25179 net.cpp:481] upconv_u1d_u0a_NEW <- u1d
I0716 14:33:58.359897 25179 net.cpp:455] upconv_u1d_u0a_NEW -> u0a
I0716 14:33:58.361369 25179 net.cpp:190] Setting up upconv_u1d_u0a_NEW
I0716 14:33:58.361382 25179 net.cpp:197] Top shape: 1 64 512 1024 (33554432)
I0716 14:33:58.361385 25179 net.cpp:205] Memory required for data: 3053453316
I0716 14:33:58.361397 25179 layer_factory.hpp:123] Creating layer relu_u0a
I0716 14:33:58.361402 25179 net.cpp:140] Creating Layer relu_u0a
I0716 14:33:58.361405 25179 net.cpp:481] relu_u0a <- u0a
I0716 14:33:58.361410 25179 net.cpp:442] relu_u0a -> u0a (in-place)
I0716 14:33:58.361416 25179 net.cpp:190] Setting up relu_u0a
I0716 14:33:58.361420 25179 net.cpp:197] Top shape: 1 64 512 1024 (33554432)
I0716 14:33:58.361423 25179 net.cpp:205] Memory required for data: 3187671044
I0716 14:33:58.361426 25179 layer_factory.hpp:123] Creating layer concat_d0cc_u0a-b
I0716 14:33:58.361431 25179 net.cpp:140] Creating Layer concat_d0cc_u0a-b
I0716 14:33:58.361433 25179 net.cpp:481] concat_d0cc_u0a-b <- u0a
I0716 14:33:58.361438 25179 net.cpp:481] concat_d0cc_u0a-b <- d0c_conv_d0b-c_0_split_1
I0716 14:33:58.361443 25179 net.cpp:455] concat_d0cc_u0a-b -> u0b
I0716 14:33:58.361471 25179 net.cpp:190] Setting up concat_d0cc_u0a-b
I0716 14:33:58.361477 25179 net.cpp:197] Top shape: 1 128 512 1024 (67108864)
I0716 14:33:58.361481 25179 net.cpp:205] Memory required for data: 3456106500
I0716 14:33:58.361483 25179 layer_factory.hpp:123] Creating layer conv_u0b-c_New
I0716 14:33:58.361490 25179 net.cpp:140] Creating Layer conv_u0b-c_New
I0716 14:33:58.361493 25179 net.cpp:481] conv_u0b-c_New <- u0b
I0716 14:33:58.361500 25179 net.cpp:455] conv_u0b-c_New -> u0c
I0716 14:33:58.363459 25179 net.cpp:190] Setting up conv_u0b-c_New
I0716 14:33:58.363472 25179 net.cpp:197] Top shape: 1 64 512 1024 (33554432)
I0716 14:33:58.363476 25179 net.cpp:205] Memory required for data: 3590324228
I0716 14:33:58.363481 25179 layer_factory.hpp:123] Creating layer relu_u0c
I0716 14:33:58.363487 25179 net.cpp:140] Creating Layer relu_u0c
I0716 14:33:58.363492 25179 net.cpp:481] relu_u0c <- u0c
I0716 14:33:58.363495 25179 net.cpp:442] relu_u0c -> u0c (in-place)
I0716 14:33:58.363502 25179 net.cpp:190] Setting up relu_u0c
I0716 14:33:58.363507 25179 net.cpp:197] Top shape: 1 64 512 1024 (33554432)
I0716 14:33:58.363510 25179 net.cpp:205] Memory required for data: 3724541956
I0716 14:33:58.363512 25179 layer_factory.hpp:123] Creating layer conv_u0c-d_New
I0716 14:33:58.363520 25179 net.cpp:140] Creating Layer conv_u0c-d_New
I0716 14:33:58.363523 25179 net.cpp:481] conv_u0c-d_New <- u0c
I0716 14:33:58.363528 25179 net.cpp:455] conv_u0c-d_New -> u0d
I0716 14:33:58.368063 25179 net.cpp:190] Setting up conv_u0c-d_New
I0716 14:33:58.368077 25179 net.cpp:197] Top shape: 1 64 512 1024 (33554432)
I0716 14:33:58.368079 25179 net.cpp:205] Memory required for data: 3858759684
I0716 14:33:58.368085 25179 layer_factory.hpp:123] Creating layer relu_u0d
I0716 14:33:58.368091 25179 net.cpp:140] Creating Layer relu_u0d
I0716 14:33:58.368095 25179 net.cpp:481] relu_u0d <- u0d
I0716 14:33:58.368100 25179 net.cpp:442] relu_u0d -> u0d (in-place)
I0716 14:33:58.368108 25179 net.cpp:190] Setting up relu_u0d
I0716 14:33:58.368111 25179 net.cpp:197] Top shape: 1 64 512 1024 (33554432)
I0716 14:33:58.368114 25179 net.cpp:205] Memory required for data: 3992977412
I0716 14:33:58.368118 25179 layer_factory.hpp:123] Creating layer conv_u0d-score_New
I0716 14:33:58.368124 25179 net.cpp:140] Creating Layer conv_u0d-score_New
I0716 14:33:58.368127 25179 net.cpp:481] conv_u0d-score_New <- u0d
I0716 14:33:58.368132 25179 net.cpp:455] conv_u0d-score_New -> conv_u0d-score_New
I0716 14:33:58.369366 25179 net.cpp:190] Setting up conv_u0d-score_New
I0716 14:33:58.369379 25179 net.cpp:197] Top shape: 1 19 512 1024 (9961472)
I0716 14:33:58.369381 25179 net.cpp:205] Memory required for data: 4032823300
I0716 14:33:58.369387 25179 layer_factory.hpp:123] Creating layer score
I0716 14:33:58.369396 25179 net.cpp:140] Creating Layer score
I0716 14:33:58.369400 25179 net.cpp:481] score <- conv_u0d-score_New
I0716 14:33:58.369405 25179 net.cpp:455] score -> score
I0716 14:33:58.369473 25179 net.cpp:190] Setting up score
I0716 14:33:58.369480 25179 net.cpp:197] Top shape: 1 19 512 1024 (9961472)
I0716 14:33:58.369483 25179 net.cpp:205] Memory required for data: 4072669188
I0716 14:33:58.369487 25179 net.cpp:268] score does not need backward computation.
I0716 14:33:58.369499 25179 net.cpp:268] conv_u0d-score_New does not need backward computation.
I0716 14:33:58.369503 25179 net.cpp:268] relu_u0d does not need backward computation.
I0716 14:33:58.369505 25179 net.cpp:268] conv_u0c-d_New does not need backward computation.
…
I0716 14:33:58.836472 25179 net.cpp:98] Initializing net from parameters: 
state {
  phase: TRAIN
}
layer {
  name: "data"
  type: "ImageData"
  top: "data"
  top: "label"
  include {
    phase: TRAIN
  }
  transform_param {
    scale: 0.022
    mean_value: 73
    mean_value: 82
    mean_value: 72
    resize_param {
      prob: 1
      resize_mode: WARP
      height: 512
      width: 1024
    }
  }
  image_data_param {
    source: "../data/cityscapes/calibration.txt"
    batch_size: 1
    shuffle: true
    new_height: 512
    new_width: 1024
    root_folder: "../data/cityscapes/calibration_images/"
  }
}
layer {
  name: "resize_down"
  type: "DeephiResize"
  bottom: "data"
  top: "data"
  deephi_resize_param {
    resize_type: BILINEAR
    new_height: 512
    new_width: 1024
  }
}
layer {
  name: "data_fixed"
  type: "FixedNeuron"
  bottom: "data"
  top: "data"
  param {
    lr_mult: 0
    decay_mult: 0
  }
  fixed_param {
    fixed_method: OVER_FLOW
    bit_width: 8
    follow_data_layer: true
  }
}
layer {
  name: "conv_d0a-b"
  type: "ConvolutionFixed"
  bottom: "data"
  top: "d0b"
  param {
    lr_mult: 1
    decay_mult: 1
  }
  param {
    lr_mult: 2
    decay_mult: 0
  }
  convolution_param {
    num_output: 64
    pad: 1
    kernel_size: 3
    stride: 1
    weight_filler {
      type: "msra"
    }
  }
  fixed_param {
    fixed_method: DIFF_S
    bit_width: 8
  }
}
layer {
  name: "relu_d0b"
  type: "ReLU"
  bottom: "d0b"
  top: "relu_d0b"
}
layer {
  name: "relu_d0b_fixed"
  type: "FixedNeuron"
  bottom: "relu_d0b"
  top: "relu_d0b"
  param {
    lr_mult: 0
    decay_mult: 0
  }
  fixed_param {
    fixed_method: DIFF_S
    bit_width: 8
  }
}
layer {
  name: "conv_d0b-c"
  type: "ConvolutionFixed"
  bottom: "relu_d0b"
  top: "d0c"
  param {
    lr_mult: 1
    decay_mult: 1
  }
  param {
    lr_mult: 2
    decay_mult: 0
  }
  convolution_param {
    num_output: 64
    pad: 1
    kernel_size: 3
    weight_filler {
      type: "msra"
    }
  }
  fixed_param {
    fixed_method: DIFF_S
    bit_width: 8
  }
}
layer {
  name: "d0c_fixed"
  type: "FixedNeuron"
  bottom: "d0c"
  top: "d0c"
  param {
    lr_mult: 0
    decay_mult: 0
  }
  fixed_param {
    fixed_method: DIFF_S
    bit_width: 8
  }
}
layer {
  name: "BatchNorm_d0c"
  type: "ScaleFixed"
  bottom: "d0c"
  top: "BatchNorm_d0c"
  param {
    lr_mult: 1
    decay_mult: 1
  }
  param {
    lr_mult: 1
    decay_mult: 0
  }
  scale_param {
    bias_term: true
  }
  fixed_param {
    fixed_method: DIFF_S
    bit_width: 8
  }
}
layer {
  name: "relu_d0c"
  type: "ReLU"
  bottom: "BatchNorm_d0c"
  top: "relu_d0c"
}
layer {
  name: "pool_d0c-1a"
  type: "Pooling"
  bottom: "relu_d0c"
  top: "d1a"
  pooling_param {
    pool: MAX
    kernel_size: 2
    stride: 2
  }
}
layer {
  name: "d1a_fixed"
  type: "FixedNeuron"
  bottom: "d1a"
  top: "d1a"
  param {
    lr_mult: 0
    decay_mult: 0
  }
  fixed_param {
    fixed_method: DIFF_S
    bit_width: 8
  }
}
layer {
  name: "conv_d1a-b"
  type: "ConvolutionFixed"
  bottom: "d1a"
  top: "d1b"
  param {
    lr_mult: 1
    decay_mult: 1
  }
  param {
    lr_mult: 2
    decay_mult: 0
  }
  convolution_param {
    num_output: 128
    pad: 1
    kernel_size: 3
    weight_filler {
      type: "msra"
    }
  }
  fixed_param {
    fixed_method: DIFF_S
    bit_width: 8
  }
}
layer {
  name: "relu_d1b"
  type: "ReLU"
  bottom: "d1b"
  top: "relu_d1b"
}
layer {
  name: "relu_d1b_fixed"
  type: "FixedNeuron"
  bottom: "relu_d1b"
  top: "relu_d1b"
  param {
    lr_mult: 0
    decay_mult: 0
  }
  fixed_param {
    fixed_method: DIFF_S
    bit_width: 8
  }
}
layer {
  name: "conv_d1b-c"
  type: "ConvolutionFixed"
  bottom: "relu_d1b"
  top: "d1c"
  param {
    lr_mult: 1
    decay_mult: 1
  }
  param {
    lr_mult: 2
    decay_mult: 0
  }
  convolution_param {
    num_output: 128
    pad: 1
    kernel_size: 3
    weight_filler {
      type: "msra"
    }
  }
  fixed_param {
    fixed_method: DIFF_S
    bit_width: 8
  }
}
layer {
  name: "d1c_fixed"
  type: "FixedNeuron"
  bottom: "d1c"
  top: "d1c"
  param {
    lr_mult: 0
    decay_mult: 0
  }
  fixed_param {
    fixed_method: DIFF_S
    bit_width: 8
  }
}
layer {
  name: "BatchNorm_d1c"
  type: "ScaleFixed"
  bottom: "d1c"
  top: "BatchNorm_d1c"
  param {
    lr_mult: 1
    decay_mult: 1
  }
  param {
    lr_mult: 1
    decay_mult: 0
  }
  scale_param {
    bias_term: true
  }
  fixed_param {
    fixed_method: DIFF_S
    bit_width: 8
  }
}
layer {
  name: "relu_d1c"
  type: "ReLU"
  bottom: "BatchNorm_d1c"
  top: "relu_d1c"
}
layer {
  name: "pool_d1c-2a"
  type: "Pooling"
  bottom: "relu_d1c"
  top: "d2a"
  pooling_param {
    pool: MAX
    kernel_size: 2
    stride: 2
  }
}
layer {
  name: "d2a_fixed"
  type: "FixedNeuron"
  bottom: "d2a"
  top: "d2a"
  param {
    lr_mult: 0
    decay_mult: 0
  }
  fixed_param {
    fixed_method: DIFF_S
    bit_width: 8
  }
}
layer {
  name: "conv_d2a-b"
  type: "ConvolutionFixed"
  bottom: "d2a"
  top: "d2b"
  param {
    lr_mult: 1
    decay_mult: 1
  }
  param {
    lr_mult: 2
    decay_mult: 0
  }
  convolution_param {
    num_output: 256
    pad: 1
    kernel_size: 3
    weight_filler {
      type: "msra"
    }
  }
  fixed_param {
    fixed_method: DIFF_S
    bit_width: 8
  }
}
layer {
  name: "relu_d2b"
  type: "ReLU"
  bottom: "d2b"
  top: "relu_d2b"
}
layer {
  name: "relu_d2b_fixed"
  type: "FixedNeuron"
  bottom: "relu_d2b"
  top: "relu_d2b"
  param {
    lr_mult: 0
    decay_mult: 0
  }
  fixed_param {
    fixed_method: DIFF_S
    bit_width: 8
  }
}
layer {
  name: "conv_d2b-c"
  type: "ConvolutionFixed"
  bottom: "relu_d2b"
  top: "d2c"
  param {
    lr_mult: 1
    decay_mult: 1
  }
  param {
    lr_mult: 2
    decay_mult: 0
  }
  convolution_param {
    num_output: 256
    pad: 1
    kernel_size: 3
    weight_filler {
      type: "msra"
    }
  }
  fixed_param {
    fixed_method: DIFF_S
    bit_width: 8
  }
}
layer {
  name: "d2c_fixed"
  type: "FixedNeuron"
  bottom: "d2c"
  top: "d2c"
  param {
    lr_mult: 0
    decay_mult: 0
  }
  fixed_param {
    fixed_method: DIFF_S
    bit_width: 8
  }
}
layer {
  name: "BatchNorm_d2c"
  type: "ScaleFixed"
  bottom: "d2c"
  top: "BatchNorm_d2c"
  param {
    lr_mult: 1
    decay_mult: 1
  }
  param {
    lr_mult: 1
    decay_mult: 0
  }
  scale_param {
    bias_term: true
  }
  fixed_param {
    fixed_method: DIFF_S
    bit_width: 8
  }
}
layer {
  name: "relu_d2c"
  type: "ReLU"
  bottom: "BatchNorm_d2c"
  top: "relu_d2c"
}
layer {
  name: "pool_d2c-3a"
  type: "Pooling"
  bottom: "relu_d2c"
  top: "d3a"
  pooling_param {
    pool: MAX
    kernel_size: 2
    stride: 2
  }
}
layer {
  name: "d3a_fixed"
  type: "FixedNeuron"
  bottom: "d3a"
  top: "d3a"
  param {
    lr_mult: 0
    decay_mult: 0
  }
  fixed_param {
    fixed_method: DIFF_S
    bit_width: 8
  }
}
layer {
  name: "conv_d3a-b"
  type: "ConvolutionFixed"
  bottom: "d3a"
  top: "d3b"
  param {
    lr_mult: 1
    decay_mult: 1
  }
  param {
    lr_mult: 2
    decay_mult: 0
  }
  convolution_param {
    num_output: 512
    pad: 1
    kernel_size: 3
    weight_filler {
      type: "msra"
    }
  }
  fixed_param {
    fixed_method: DIFF_S
    bit_width: 8
  }
}
layer {
  name: "relu_d3b"
  type: "ReLU"
  bottom: "d3b"
  top: "relu_d3b"
}
layer {
  name: "relu_d3b_fixed"
  type: "FixedNeuron"
  bottom: "relu_d3b"
  top: "relu_d3b"
  param {
    lr_mult: 0
    decay_mult: 0
  }
  fixed_param {
    fixed_method: DIFF_S
    bit_width: 8
  }
}
layer {
  name: "conv_d3b-c"
  type: "ConvolutionFixed"
  bottom: "relu_d3b"
  top: "d3c"
  param {
    lr_mult: 1
    decay_mult: 1
  }
  param {
    lr_mult: 2
    decay_mult: 0
  }
  convolution_param {
    num_output: 512
    pad: 1
    kernel_size: 3
    weight_filler {
      type: "msra"
    }
  }
  fixed_param {
    fixed_method: DIFF_S
    bit_width: 8
  }
}
layer {
  name: "d3c_fixed"
  type: "FixedNeuron"
  bottom: "d3c"
  top: "d3c"
  param {
    lr_mult: 0
    decay_mult: 0
  }
  fixed_param {
    fixed_method: DIFF_S
    bit_width: 8
  }
}
layer {
  name: "BatchNorm_1"
  type: "ScaleFixed"
  bottom: "d3c"
  top: "BatchNorm_1"
  param {
    lr_mult: 1
    decay_mult: 1
  }
  param {
    lr_mult: 1
    decay_mult: 0
  }
  scale_param {
    bias_term: true
  }
  fixed_param {
    fixed_method: DIFF_S
    bit_width: 8
  }
}
layer {
  name: "relu_d3c"
  type: "ReLU"
  bottom: "BatchNorm_1"
  top: "relu_d3c"
}
layer {
  name: "pool_d3c-4a"
  type: "Pooling"
  bottom: "relu_d3c"
  top: "d4a"
  pooling_param {
    pool: MAX
    kernel_size: 2
    stride: 2
  }
}
layer {
  name: "d4a_fixed"
  type: "FixedNeuron"
  bottom: "d4a"
  top: "d4a"
  param {
    lr_mult: 0
    decay_mult: 0
  }
  fixed_param {
    fixed_method: DIFF_S
    bit_width: 8
  }
}
layer {
  name: "conv_d4a-b"
  type: "ConvolutionFixed"
  bottom: "d4a"
  top: "BatchNorm_2"
  param {
    lr_mult: 1
    decay_mult: 1
  }
  param {
    lr_mult: 1
    decay_mult: 0
  }
  convolution_param {
    num_output: 1024
    bias_term: true
    pad: 1
    kernel_size: 3
    weight_filler {
      type: "msra"
    }
  }
  fixed_param {
    fixed_method: DIFF_S
    bit_width: 8
  }
}
layer {
  name: "relu_d4b"
  type: "ReLU"
  bottom: "BatchNorm_2"
  top: "relu_d4b"
}
layer {
  name: "relu_d4b_fixed"
  type: "FixedNeuron"
  bottom: "relu_d4b"
  top: "relu_d4b"
  param {
    lr_mult: 0
    decay_mult: 0
  }
  fixed_param {
    fixed_method: DIFF_S
    bit_width: 8
  }
}
layer {
  name: "conv_d4b-c"
  type: "ConvolutionFixed"
  bottom: "relu_d4b"
  top: "d4c"
  param {
    lr_mult: 1
    decay_mult: 1
  }
  param {
    lr_mult: 2
    decay_mult: 0
  }
  convolution_param {
    num_output: 1024
    pad: 1
    kernel_size: 3
    weight_filler {
      type: "msra"
    }
  }
  fixed_param {
    fixed_method: DIFF_S
    bit_width: 8
  }
}
layer {
  name: "relu_d4c"
  type: "ReLU"
  bottom: "d4c"
  top: "relu_d4c"
}
layer {
  name: "relu_d4c_fixed"
  type: "FixedNeuron"
  bottom: "relu_d4c"
  top: "relu_d4c"
  param {
    lr_mult: 0
    decay_mult: 0
  }
  fixed_param {
    fixed_method: DIFF_S
    bit_width: 8
  }
}
layer {
  name: "upconv_d4c_u3a"
  type: "DeconvolutionFixed"
  bottom: "relu_d4c"
  top: "u3a"
  param {
    lr_mult: 1
    decay_mult: 1
  }
  param {
    lr_mult: 2
    decay_mult: 0
  }
  convolution_param {
    num_output: 512
    pad: 0
    kernel_size: 2
    stride: 2
    weight_filler {
      type: "msra"
    }
  }
  fixed_param {
    fixed_method: DIFF_S
    bit_width: 8
  }
}
layer {
  name: "relu_u3a"
  type: "ReLU"
  bottom: "u3a"
  top: "u3a"
}
layer {
  name: "concat_d3cc_u3a-b"
  type: "Concat"
  bottom: "u3a"
  bottom: "d3c"
  top: "u3b"
}
layer {
  name: "u3b_fixed"
  type: "FixedNeuron"
  bottom: "u3b"
  top: "u3b"
  param {
    lr_mult: 0
    decay_mult: 0
  }
  fixed_param {
    fixed_method: DIFF_S
    bit_width: 8
  }
}
layer {
  name: "conv_u3b-c"
  type: "ConvolutionFixed"
  bottom: "u3b"
  top: "u3c"
  param {
    lr_mult: 1
    decay_mult: 1
  }
  param {
    lr_mult: 2
    decay_mult: 0
  }
  convolution_param {
    num_output: 512
    pad: 1
    kernel_size: 3
    weight_filler {
      type: "msra"
    }
  }
  fixed_param {
    fixed_method: DIFF_S
    bit_width: 8
  }
}
layer {
  name: "relu_u3c"
  type: "ReLU"
  bottom: "u3c"
  top: "u3c"
}
layer {
  name: "u3c_fixed"
  type: "FixedNeuron"
  bottom: "u3c"
  top: "u3c"
  param {
    lr_mult: 0
    decay_mult: 0
  }
  fixed_param {
    fixed_method: DIFF_S
    bit_width: 8
  }
}
layer {
  name: "conv_u3c-d"
  type: "ConvolutionFixed"
  bottom: "u3c"
  top: "u3d"
  param {
    lr_mult: 1
    decay_mult: 1
  }
  param {
    lr_mult: 2
    decay_mult: 0
  }
  convolution_param {
    num_output: 512
    pad: 1
    kernel_size: 3
    weight_filler {
      type: "msra"
    }
  }
  fixed_param {
    fixed_method: DIFF_S
    bit_width: 8
  }
}
layer {
  name: "relu_u3d"
  type: "ReLU"
  bottom: "u3d"
  top: "u3d"
}
layer {
  name: "u3d_fixed"
  type: "FixedNeuron"
  bottom: "u3d"
  top: "u3d"
  param {
    lr_mult: 0
    decay_mult: 0
  }
  fixed_param {
    fixed_method: DIFF_S
    bit_width: 8
  }
}
layer {
  name: "upconv_u3d_u2a"
  type: "DeconvolutionFixed"
  bottom: "u3d"
  top: "u2a"
  param {
    lr_mult: 1
    decay_mult: 1
  }
  param {
    lr_mult: 2
    decay_mult: 0
  }
  convolution_param {
    num_output: 512
    pad: 0
    kernel_size: 2
    stride: 2
    weight_filler {
      type: "msra"
    }
  }
  fixed_param {
    fixed_method: DIFF_S
    bit_width: 8
  }
}
layer {
  name: "relu_u2a"
  type: "ReLU"
  bottom: "u2a"
  top: "u2a"
}
layer {
  name: "concat_d2cc_u2a-b"
  type: "Concat"
  bottom: "u2a"
  bottom: "d2c"
  top: "u2b"
}
layer {
  name: "u2b_fixed"
  type: "FixedNeuron"
  bottom: "u2b"
  top: "u2b"
  param {
    lr_mult: 0
    decay_mult: 0
  }
  fixed_param {
    fixed_method: DIFF_S
    bit_width: 8
  }
}
layer {
  name: "conv_u2b-c"
  type: "ConvolutionFixed"
  bottom: "u2b"
  top: "u2c"
  param {
    lr_mult: 1
    decay_mult: 1
  }
  param {
    lr_mult: 2
    decay_mult: 0
  }
  convolution_param {
    num_output: 256
    pad: 1
    kernel_size: 3
    weight_filler {
      type: "msra"
    }
  }
  fixed_param {
    fixed_method: DIFF_S
    bit_width: 8
  }
}
layer {
  name: "relu_u2c"
  type: "ReLU"
  bottom: "u2c"
  top: "u2c"
}
layer {
  name: "u2c_fixed"
  type: "FixedNeuron"
  bottom: "u2c"
  top: "u2c"
  param {
    lr_mult: 0
    decay_mult: 0
  }
  fixed_param {
    fixed_method: DIFF_S
    bit_width: 8
  }
}
layer {
  name: "conv_u2c-d"
  type: "ConvolutionFixed"
  bottom: "u2c"
  top: "u2d"
  param {
    lr_mult: 1
    decay_mult: 1
  }
  param {
    lr_mult: 2
    decay_mult: 0
  }
  convolution_param {
    num_output: 256
    pad: 1
    kernel_size: 3
    weight_filler {
      type: "msra"
    }
  }
  fixed_param {
    fixed_method: DIFF_S
    bit_width: 8
  }
}
layer {
  name: "relu_u2d"
  type: "ReLU"
  bottom: "u2d"
  top: "u2d"
}
layer {
  name: "u2d_fixed"
  type: "FixedNeuron"
  bottom: "u2d"
  top: "u2d"
  param {
    lr_mult: 0
    decay_mult: 0
  }
  fixed_param {
    fixed_method: DIFF_S
    bit_width: 8
  }
}
layer {
  name: "upconv_u2d_u1a"
  type: "DeconvolutionFixed"
  bottom: "u2d"
  top: "u1a"
  param {
    lr_mult: 1
    decay_mult: 1
  }
  param {
    lr_mult: 2
    decay_mult: 0
  }
  convolution_param {
    num_output: 128
    pad: 0
    kernel_size: 2
    stride: 2
    weight_filler {
      type: "msra"
    }
  }
  fixed_param {
    fixed_method: DIFF_S
    bit_width: 8
  }
}
layer {
  name: "relu_u1a"
  type: "ReLU"
  bottom: "u1a"
  top: "u1a"
}
layer {
  name: "concat_d1cc_u1a-b"
  type: "Concat"
  bottom: "u1a"
  bottom: "d1c"
  top: "u1b"
}
layer {
  name: "u1b_fixed"
  type: "FixedNeuron"
  bottom: "u1b"
  top: "u1b"
  param {
    lr_mult: 0
    decay_mult: 0
  }
  fixed_param {
    fixed_method: DIFF_S
    bit_width: 8
  }
}
layer {
  name: "conv_u1b-c"
  type: "ConvolutionFixed"
  bottom: "u1b"
  top: "u1c"
  param {
    lr_mult: 1
    decay_mult: 1
  }
  param {
    lr_mult: 2
    decay_mult: 0
  }
  convolution_param {
    num_output: 128
    pad: 1
    kernel_size: 3
    weight_filler {
      type: "msra"
    }
  }
  fixed_param {
    fixed_method: DIFF_S
    bit_width: 8
  }
}
layer {
  name: "relu_u1c"
  type: "ReLU"
  bottom: "u1c"
  top: "u1c"
}
layer {
  name: "u1c_fixed"
  type: "FixedNeuron"
  bottom: "u1c"
  top: "u1c"
  param {
    lr_mult: 0
    decay_mult: 0
  }
  fixed_param {
    fixed_method: DIFF_S
    bit_width: 8
  }
}
layer {
  name: "conv_u1c-d"
  type: "ConvolutionFixed"
  bottom: "u1c"
  top: "u1d"
  param {
    lr_mult: 1
    decay_mult: 1
  }
  param {
    lr_mult: 2
    decay_mult: 0
  }
  convolution_param {
    num_output: 128
    pad: 1
    kernel_size: 3
    weight_filler {
      type: "msra"
    }
  }
  fixed_param {
    fixed_method: DIFF_S
    bit_width: 8
  }
}
layer {
  name: "relu_u1d"
  type: "ReLU"
  bottom: "u1d"
  top: "u1d"
}
layer {
  name: "u1d_fixed"
  type: "FixedNeuron"
  bottom: "u1d"
  top: "u1d"
  param {
    lr_mult: 0
    decay_mult: 0
  }
  fixed_param {
    fixed_method: DIFF_S
    bit_width: 8
  }
}
layer {
  name: "upconv_u1d_u0a_NEW"
  type: "DeconvolutionFixed"
  bottom: "u1d"
  top: "u0a"
  param {
    lr_mult: 1
    decay_mult: 1
  }
  param {
    lr_mult: 2
    decay_mult: 0
  }
  convolution_param {
    num_output: 64
    pad: 0
    kernel_size: 2
    stride: 2
    weight_filler {
      type: "msra"
    }
  }
  fixed_param {
    fixed_method: DIFF_S
    bit_width: 8
  }
}
layer {
  name: "relu_u0a"
  type: "ReLU"
  bottom: "u0a"
  top: "u0a"
}
layer {
  name: "concat_d0cc_u0a-b"
  type: "Concat"
  bottom: "u0a"
  bottom: "d0c"
  top: "u0b"
}
layer {
  name: "u0b_fixed"
  type: "FixedNeuron"
  bottom: "u0b"
  top: "u0b"
  param {
    lr_mult: 0
    decay_mult: 0
  }
  fixed_param {
    fixed_method: DIFF_S
    bit_width: 8
  }
}
layer {
  name: "conv_u0b-c_New"
  type: "ConvolutionFixed"
  bottom: "u0b"
  top: "u0c"
  param {
    lr_mult: 1
    decay_mult: 1
  }
  param {
    lr_mult: 2
    decay_mult: 0
  }
  convolution_param {
    num_output: 64
    pad: 1
    kernel_size: 3
    weight_filler {
      type: "msra"
    }
  }
  fixed_param {
    fixed_method: DIFF_S
    bit_width: 8
  }
}
layer {
  name: "relu_u0c"
  type: "ReLU"
  bottom: "u0c"
  top: "u0c"
}
layer {
  name: "u0c_fixed"
  type: "FixedNeuron"
  bottom: "u0c"
  top: "u0c"
  param {
    lr_mult: 0
    decay_mult: 0
  }
  fixed_param {
    fixed_method: DIFF_S
    bit_width: 8
  }
}
layer {
  name: "conv_u0c-d_New"
  type: "ConvolutionFixed"
  bottom: "u0c"
  top: "u0d"
  param {
    lr_mult: 1
    decay_mult: 1
  }
  param {
    lr_mult: 2
    decay_mult: 0
  }
  convolution_param {
    num_output: 64
    pad: 1
    kernel_size: 3
    weight_filler {
      type: "msra"
    }
  }
  fixed_param {
    fixed_method: DIFF_S
    bit_width: 8
  }
}
layer {
  name: "relu_u0d"
  type: "ReLU"
  bottom: "u0d"
  top: "u0d"
}
layer {
  name: "u0d_fixed"
  type: "FixedNeuron"
  bottom: "u0d"
  top: "u0d"
  param {
    lr_mult: 0
    decay_mult: 0
  }
  fixed_param {
    fixed_method: DIFF_S
    bit_width: 8
  }
}
layer {
  name: "conv_u0d-score_New"
  type: "ConvolutionFixed"
  bottom: "u0d"
  top: "conv_u0d-score_New"
  param {
    lr_mult: 1
    decay_mult: 1
  }
  param {
    lr_mult: 2
    decay_mult: 0
  }
  convolution_param {
    num_output: 19
    pad: 0
    kernel_size: 1
    weight_filler {
      type: "msra"
    }
  }
  fixed_param {
    fixed_method: DIFF_S
    bit_width: 8
  }
}
layer {
  name: "conv_u0d-score_New_fixed"
  type: "FixedNeuron"
  bottom: "conv_u0d-score_New"
  top: "conv_u0d-score_New"
  param {
    lr_mult: 0
    decay_mult: 0
  }
  fixed_param {
    fixed_method: DIFF_S
    bit_width: 8
  }
}
layer {
  name: "score"
  type: "Softmax"
  bottom: "conv_u0d-score_New"
  top: "score"
}
I0716 14:33:58.836683 25179 layer_factory.hpp:123] Creating layer data
I0716 14:33:58.836699 25179 net.cpp:140] Creating Layer data
I0716 14:33:58.836706 25179 net.cpp:455] data -> data
I0716 14:33:58.836716 25179 net.cpp:455] data -> label
I0716 14:33:58.836724 25179 image_data_layer.cpp:87] Opening file ../data/cityscapes/calibration.txt
I0716 14:33:58.836951 25179 image_data_layer.cpp:97] Shuffling data
I0716 14:33:58.836974 25179 image_data_layer.cpp:102] A total of 1000 images.
I0716 14:33:58.904670 25179 image_data_layer.cpp:130] output data size: 1,3,512,1024
I0716 14:33:58.932873 25179 internal_thread.cpp:73] Starting internal thread(s) on GPU 0
I0716 14:33:58.933079 25179 net.cpp:190] Setting up data
I0716 14:33:58.933089 25179 net.cpp:197] Top shape: 1 3 512 1024 (1572864)
I0716 14:33:58.933094 25179 net.cpp:197] Top shape: 1 (1)
I0716 14:33:58.933096 25179 net.cpp:205] Memory required for data: 6291460
I0716 14:33:58.933101 25179 layer_factory.hpp:123] Creating layer resize_down
I0716 14:33:58.933112 25179 net.cpp:140] Creating Layer resize_down
I0716 14:33:58.933116 25179 net.cpp:481] resize_down <- data
I0716 14:33:58.933122 25179 net.cpp:442] resize_down -> data (in-place)
I0716 14:33:58.933132 25179 net.cpp:190] Setting up resize_down
I0716 14:33:58.933136 25179 net.cpp:197] Top shape: 1 3 512 1024 (1572864)
I0716 14:33:58.933140 25179 net.cpp:205] Memory required for data: 12582916
I0716 14:33:58.933142 25179 layer_factory.hpp:123] Creating layer data_fixed
I0716 14:33:58.933151 25179 net.cpp:140] Creating Layer data_fixed
I0716 14:33:58.933154 25179 net.cpp:481] data_fixed <- data
I0716 14:33:58.933159 25179 net.cpp:442] data_fixed -> data (in-place)
I0716 14:33:58.933224 25179 net.cpp:190] Setting up data_fixed
I0716 14:33:58.933230 25179 net.cpp:197] Top shape: 1 3 512 1024 (1572864)
I0716 14:33:58.933233 25179 net.cpp:205] Memory required for data: 18874372
I0716 14:33:58.933241 25179 layer_factory.hpp:123] Creating layer conv_d0a-b
I0716 14:33:58.933251 25179 net.cpp:140] Creating Layer conv_d0a-b
I0716 14:33:58.933255 25179 net.cpp:481] conv_d0a-b <- data
I0716 14:33:58.933261 25179 net.cpp:455] conv_d0a-b -> d0b
I0716 14:33:58.933612 25179 layer_factory.hpp:123] Creating layer conv_d0a-b
I0716 14:33:58.936113 25179 net.cpp:190] Setting up conv_d0a-b
I0716 14:33:58.936125 25179 net.cpp:197] Top shape: 1 64 512 1024 (33554432)
I0716 14:33:58.936130 25179 net.cpp:205] Memory required for data: 153092100
I0716 14:33:58.936137 25179 layer_factory.hpp:123] Creating layer relu_d0b
I0716 14:33:58.936146 25179 net.cpp:140] Creating Layer relu_d0b
I0716 14:33:58.936148 25179 net.cpp:481] relu_d0b <- d0b
I0716 14:33:58.936154 25179 net.cpp:455] relu_d0b -> relu_d0b
I0716 14:33:58.936645 25179 net.cpp:190] Setting up relu_d0b
I0716 14:33:58.936656 25179 net.cpp:197] Top shape: 1 64 512 1024 (33554432)
I0716 14:33:58.936659 25179 net.cpp:205] Memory required for data: 287309828
I0716 14:33:58.936663 25179 layer_factory.hpp:123] Creating layer relu_d0b_fixed
I0716 14:33:58.936669 25179 net.cpp:140] Creating Layer relu_d0b_fixed
I0716 14:33:58.936672 25179 net.cpp:481] relu_d0b_fixed <- relu_d0b
I0716 14:33:58.936677 25179 net.cpp:442] relu_d0b_fixed -> relu_d0b (in-place)
I0716 14:33:58.936774 25179 net.cpp:190] Setting up relu_d0b_fixed
I0716 14:33:58.936781 25179 net.cpp:197] Top shape: 1 64 512 1024 (33554432)
I0716 14:33:58.936784 25179 net.cpp:205] Memory required for data: 421527556
I0716 14:33:58.936789 25179 layer_factory.hpp:123] Creating layer conv_d0b-c
I0716 14:33:58.936797 25179 net.cpp:140] Creating Layer conv_d0b-c
I0716 14:33:58.936800 25179 net.cpp:481] conv_d0b-c <- relu_d0b
I0716 14:33:58.936805 25179 net.cpp:455] conv_d0b-c -> d0c
I0716 14:33:58.937433 25179 layer_factory.hpp:123] Creating layer conv_d0b-c
I0716 14:33:58.940708 25179 net.cpp:190] Setting up conv_d0b-c
I0716 14:33:58.940721 25179 net.cpp:197] Top shape: 1 64 512 1024 (33554432)
I0716 14:33:58.940724 25179 net.cpp:205] Memory required for data: 555745284
I0716 14:33:58.940732 25179 layer_factory.hpp:123] Creating layer d0c_fixed
I0716 14:33:58.940739 25179 net.cpp:140] Creating Layer d0c_fixed
I0716 14:33:58.940742 25179 net.cpp:481] d0c_fixed <- d0c
I0716 14:33:58.940747 25179 net.cpp:442] d0c_fixed -> d0c (in-place)
I0716 14:33:58.940789 25179 net.cpp:190] Setting up d0c_fixed
I0716 14:33:58.940796 25179 net.cpp:197] Top shape: 1 64 512 1024 (33554432)
I0716 14:33:58.940799 25179 net.cpp:205] Memory required for data: 689963012
I0716 14:33:58.940804 25179 layer_factory.hpp:123] Creating layer d0c_d0c_fixed_0_split
I0716 14:33:58.940809 25179 net.cpp:140] Creating Layer d0c_d0c_fixed_0_split
I0716 14:33:58.940814 25179 net.cpp:481] d0c_d0c_fixed_0_split <- d0c
I0716 14:33:58.940817 25179 net.cpp:455] d0c_d0c_fixed_0_split -> d0c_d0c_fixed_0_split_0
I0716 14:33:58.940824 25179 net.cpp:455] d0c_d0c_fixed_0_split -> d0c_d0c_fixed_0_split_1
I0716 14:33:58.940860 25179 net.cpp:190] Setting up d0c_d0c_fixed_0_split
I0716 14:33:58.940866 25179 net.cpp:197] Top shape: 1 64 512 1024 (33554432)
I0716 14:33:58.940871 25179 net.cpp:197] Top shape: 1 64 512 1024 (33554432)
I0716 14:33:58.940873 25179 net.cpp:205] Memory required for data: 958398468
I0716 14:33:58.940876 25179 layer_factory.hpp:123] Creating layer BatchNorm_d0c
I0716 14:33:58.940884 25179 net.cpp:140] Creating Layer BatchNorm_d0c
I0716 14:33:58.940886 25179 net.cpp:481] BatchNorm_d0c <- d0c_d0c_fixed_0_split_0
I0716 14:33:58.940891 25179 net.cpp:455] BatchNorm_d0c -> BatchNorm_d0c
I0716 14:33:58.940932 25179 layer_factory.hpp:123] Creating layer BatchNorm_d0c
I0716 14:33:58.941953 25179 layer_factory.hpp:123] Creating layer BatchNorm_d0c
I0716 14:33:58.942006 25179 layer_factory.hpp:123] Creating layer BatchNorm_d0c
I0716 14:33:58.944977 25179 net.cpp:190] Setting up BatchNorm_d0c
I0716 14:33:58.944989 25179 net.cpp:197] Top shape: 1 64 512 1024 (33554432)
I0716 14:33:58.944993 25179 net.cpp:205] Memory required for data: 1092616196
I0716 14:33:58.945001 25179 layer_factory.hpp:123] Creating layer relu_d0c
I0716 14:33:58.945008 25179 net.cpp:140] Creating Layer relu_d0c
I0716 14:33:58.945011 25179 net.cpp:481] relu_d0c <- BatchNorm_d0c
I0716 14:33:58.945016 25179 net.cpp:455] relu_d0c -> relu_d0c
I0716 14:33:58.945049 25179 net.cpp:190] Setting up relu_d0c
I0716 14:33:58.945055 25179 net.cpp:197] Top shape: 1 64 512 1024 (33554432)
I0716 14:33:58.945057 25179 net.cpp:205] Memory required for data: 1226833924
I0716 14:33:58.945060 25179 layer_factory.hpp:123] Creating layer pool_d0c-1a
I0716 14:33:58.945066 25179 net.cpp:140] Creating Layer pool_d0c-1a
I0716 14:33:58.945070 25179 net.cpp:481] pool_d0c-1a <- relu_d0c
I0716 14:33:58.945075 25179 net.cpp:455] pool_d0c-1a -> d1a
I0716 14:33:58.945112 25179 net.cpp:190] Setting up pool_d0c-1a
I0716 14:33:58.945119 25179 net.cpp:197] Top shape: 1 64 256 512 (8388608)
I0716 14:33:58.945122 25179 net.cpp:205] Memory required for data: 1260388356
I0716 14:33:58.945125 25179 layer_factory.hpp:123] Creating layer d1a_fixed
I0716 14:33:58.945130 25179 net.cpp:140] Creating Layer d1a_fixed
I0716 14:33:58.945133 25179 net.cpp:481] d1a_fixed <- d1a
I0716 14:33:58.945137 25179 net.cpp:442] d1a_fixed -> d1a (in-place)
I0716 14:33:58.945171 25179 net.cpp:190] Setting up d1a_fixed
I0716 14:33:58.945178 25179 net.cpp:197] Top shape: 1 64 256 512 (8388608)
I0716 14:33:58.945180 25179 net.cpp:205] Memory required for data: 1293942788
I0716 14:33:58.945184 25179 layer_factory.hpp:123] Creating layer conv_d1a-b
I0716 14:33:58.945192 25179 net.cpp:140] Creating Layer conv_d1a-b
I0716 14:33:58.945196 25179 net.cpp:481] conv_d1a-b <- d1a
I0716 14:33:58.945200 25179 net.cpp:455] conv_d1a-b -> d1b
I0716 14:33:58.946045 25179 layer_factory.hpp:123] Creating layer conv_d1a-b
I0716 14:33:58.947881 25179 net.cpp:190] Setting up conv_d1a-b
I0716 14:33:58.947894 25179 net.cpp:197] Top shape: 1 128 256 512 (16777216)
I0716 14:33:58.947897 25179 net.cpp:205] Memory required for data: 1361051652
I0716 14:33:58.947903 25179 layer_factory.hpp:123] Creating layer relu_d1b
I0716 14:33:58.947909 25179 net.cpp:140] Creating Layer relu_d1b
I0716 14:33:58.947912 25179 net.cpp:481] relu_d1b <- d1b
I0716 14:33:58.947917 25179 net.cpp:455] relu_d1b -> relu_d1b
I0716 14:33:58.947945 25179 net.cpp:190] Setting up relu_d1b
I0716 14:33:58.947950 25179 net.cpp:197] Top shape: 1 128 256 512 (16777216)
I0716 14:33:58.947953 25179 net.cpp:205] Memory required for data: 1428160516
I0716 14:33:58.947957 25179 layer_factory.hpp:123] Creating layer relu_d1b_fixed
I0716 14:33:58.947962 25179 net.cpp:140] Creating Layer relu_d1b_fixed
I0716 14:33:58.947964 25179 net.cpp:481] relu_d1b_fixed <- relu_d1b
I0716 14:33:58.947969 25179 net.cpp:442] relu_d1b_fixed -> relu_d1b (in-place)
I0716 14:33:58.948004 25179 net.cpp:190] Setting up relu_d1b_fixed
I0716 14:33:58.948010 25179 net.cpp:197] Top shape: 1 128 256 512 (16777216)
I0716 14:33:58.948014 25179 net.cpp:205] Memory required for data: 1495269380
I0716 14:33:58.948017 25179 layer_factory.hpp:123] Creating layer conv_d1b-c
I0716 14:33:58.948026 25179 net.cpp:140] Creating Layer conv_d1b-c
I0716 14:33:58.948029 25179 net.cpp:481] conv_d1b-c <- relu_d1b
I0716 14:33:58.948035 25179 net.cpp:455] conv_d1b-c -> d1c
I0716 14:33:58.950166 25179 layer_factory.hpp:123] Creating layer conv_d1b-c
I0716 14:33:58.952594 25179 net.cpp:190] Setting up conv_d1b-c
I0716 14:33:58.952607 25179 net.cpp:197] Top shape: 1 128 256 512 (16777216)
I0716 14:33:58.952610 25179 net.cpp:205] Memory required for data: 1562378244
I0716 14:33:58.952616 25179 layer_factory.hpp:123] Creating layer d1c_fixed
I0716 14:33:58.952622 25179 net.cpp:140] Creating Layer d1c_fixed
I0716 14:33:58.952625 25179 net.cpp:481] d1c_fixed <- d1c
I0716 14:33:58.952630 25179 net.cpp:442] d1c_fixed -> d1c (in-place)
I0716 14:33:58.952668 25179 net.cpp:190] Setting up d1c_fixed
I0716 14:33:58.952680 25179 net.cpp:197] Top shape: 1 128 256 512 (16777216)
I0716 14:33:58.952682 25179 net.cpp:205] Memory required for data: 1629487108
I0716 14:33:58.952687 25179 layer_factory.hpp:123] Creating layer d1c_d1c_fixed_0_split
I0716 14:33:58.952692 25179 net.cpp:140] Creating Layer d1c_d1c_fixed_0_split
I0716 14:33:58.952695 25179 net.cpp:481] d1c_d1c_fixed_0_split <- d1c
I0716 14:33:58.952700 25179 net.cpp:455] d1c_d1c_fixed_0_split -> d1c_d1c_fixed_0_split_0
I0716 14:33:58.952706 25179 net.cpp:455] d1c_d1c_fixed_0_split -> d1c_d1c_fixed_0_split_1
I0716 14:33:58.952744 25179 net.cpp:190] Setting up d1c_d1c_fixed_0_split
I0716 14:33:58.952750 25179 net.cpp:197] Top shape: 1 128 256 512 (16777216)
I0716 14:33:58.952754 25179 net.cpp:197] Top shape: 1 128 256 512 (16777216)
I0716 14:33:58.952756 25179 net.cpp:205] Memory required for data: 1763704836
I0716 14:33:58.952759 25179 layer_factory.hpp:123] Creating layer BatchNorm_d1c
I0716 14:33:58.952765 25179 net.cpp:140] Creating Layer BatchNorm_d1c
I0716 14:33:58.952769 25179 net.cpp:481] BatchNorm_d1c <- d1c_d1c_fixed_0_split_0
I0716 14:33:58.952774 25179 net.cpp:455] BatchNorm_d1c -> BatchNorm_d1c
I0716 14:33:58.952813 25179 layer_factory.hpp:123] Creating layer BatchNorm_d1c
I0716 14:33:58.952944 25179 layer_factory.hpp:123] Creating layer BatchNorm_d1c
I0716 14:33:58.952987 25179 layer_factory.hpp:123] Creating layer BatchNorm_d1c
I0716 14:33:58.953999 25179 net.cpp:190] Setting up BatchNorm_d1c
I0716 14:33:58.954011 25179 net.cpp:197] Top shape: 1 128 256 512 (16777216)
I0716 14:33:58.954015 25179 net.cpp:205] Memory required for data: 1830813700
I0716 14:33:58.954023 25179 layer_factory.hpp:123] Creating layer relu_d1c
I0716 14:33:58.954030 25179 net.cpp:140] Creating Layer relu_d1c
I0716 14:33:58.954032 25179 net.cpp:481] relu_d1c <- BatchNorm_d1c
I0716 14:33:58.954037 25179 net.cpp:455] relu_d1c -> relu_d1c
I0716 14:33:58.954066 25179 net.cpp:190] Setting up relu_d1c
I0716 14:33:58.954071 25179 net.cpp:197] Top shape: 1 128 256 512 (16777216)
I0716 14:33:58.954075 25179 net.cpp:205] Memory required for data: 1897922564
I0716 14:33:58.954078 25179 layer_factory.hpp:123] Creating layer pool_d1c-2a
I0716 14:33:58.954083 25179 net.cpp:140] Creating Layer pool_d1c-2a
I0716 14:33:58.954087 25179 net.cpp:481] pool_d1c-2a <- relu_d1c
I0716 14:33:58.954092 25179 net.cpp:455] pool_d1c-2a -> d2a
I0716 14:33:58.954128 25179 net.cpp:190] Setting up pool_d1c-2a
I0716 14:33:58.954133 25179 net.cpp:197] Top shape: 1 128 128 256 (4194304)
I0716 14:33:58.954136 25179 net.cpp:205] Memory required for data: 1914699780
I0716 14:33:58.954139 25179 layer_factory.hpp:123] Creating layer d2a_fixed
I0716 14:33:58.954144 25179 net.cpp:140] Creating Layer d2a_fixed
I0716 14:33:58.954147 25179 net.cpp:481] d2a_fixed <- d2a
I0716 14:33:58.954151 25179 net.cpp:442] d2a_fixed -> d2a (in-place)
I0716 14:33:58.954185 25179 net.cpp:190] Setting up d2a_fixed
I0716 14:33:58.954191 25179 net.cpp:197] Top shape: 1 128 128 256 (4194304)
I0716 14:33:58.954195 25179 net.cpp:205] Memory required for data: 1931476996
I0716 14:33:58.954198 25179 layer_factory.hpp:123] Creating layer conv_d2a-b
I0716 14:33:58.954205 25179 net.cpp:140] Creating Layer conv_d2a-b
I0716 14:33:58.954210 25179 net.cpp:481] conv_d2a-b <- d2a
I0716 14:33:58.954214 25179 net.cpp:455] conv_d2a-b -> d2b
I0716 14:33:58.958324 25179 layer_factory.hpp:123] Creating layer conv_d2a-b
I0716 14:33:58.962611 25179 net.cpp:190] Setting up conv_d2a-b
I0716 14:33:58.962625 25179 net.cpp:197] Top shape: 1 256 128 256 (8388608)
I0716 14:33:58.962627 25179 net.cpp:205] Memory required for data: 1965031428
I0716 14:33:58.962633 25179 layer_factory.hpp:123] Creating layer relu_d2b
I0716 14:33:58.962640 25179 net.cpp:140] Creating Layer relu_d2b
I0716 14:33:58.962642 25179 net.cpp:481] relu_d2b <- d2b
I0716 14:33:58.962647 25179 net.cpp:455] relu_d2b -> relu_d2b
I0716 14:33:58.962677 25179 net.cpp:190] Setting up relu_d2b
I0716 14:33:58.962682 25179 net.cpp:197] Top shape: 1 256 128 256 (8388608)
I0716 14:33:58.962685 25179 net.cpp:205] Memory required for data: 1998585860
I0716 14:33:58.962688 25179 layer_factory.hpp:123] Creating layer relu_d2b_fixed
I0716 14:33:58.962693 25179 net.cpp:140] Creating Layer relu_d2b_fixed
I0716 14:33:58.962697 25179 net.cpp:481] relu_d2b_fixed <- relu_d2b
I0716 14:33:58.962702 25179 net.cpp:442] relu_d2b_fixed -> relu_d2b (in-place)
I0716 14:33:58.962738 25179 net.cpp:190] Setting up relu_d2b_fixed
I0716 14:33:58.962743 25179 net.cpp:197] Top shape: 1 256 128 256 (8388608)
I0716 14:33:58.962746 25179 net.cpp:205] Memory required for data: 2032140292
I0716 14:33:58.962750 25179 layer_factory.hpp:123] Creating layer conv_d2b-c
I0716 14:33:58.962759 25179 net.cpp:140] Creating Layer conv_d2b-c
I0716 14:33:58.962761 25179 net.cpp:481] conv_d2b-c <- relu_d2b
I0716 14:33:58.962766 25179 net.cpp:455] conv_d2b-c -> d2c
I0716 14:33:58.969574 25179 layer_factory.hpp:123] Creating layer conv_d2b-c
I0716 14:33:58.976577 25179 net.cpp:190] Setting up conv_d2b-c
I0716 14:33:58.976590 25179 net.cpp:197] Top shape: 1 256 128 256 (8388608)
I0716 14:33:58.976593 25179 net.cpp:205] Memory required for data: 2065694724
I0716 14:33:58.976599 25179 layer_factory.hpp:123] Creating layer d2c_fixed
I0716 14:33:58.976605 25179 net.cpp:140] Creating Layer d2c_fixed
I0716 14:33:58.976609 25179 net.cpp:481] d2c_fixed <- d2c
I0716 14:33:58.976615 25179 net.cpp:442] d2c_fixed -> d2c (in-place)
I0716 14:33:58.976653 25179 net.cpp:190] Setting up d2c_fixed
I0716 14:33:58.976660 25179 net.cpp:197] Top shape: 1 256 128 256 (8388608)
I0716 14:33:58.976663 25179 net.cpp:205] Memory required for data: 2099249156
I0716 14:33:58.976668 25179 layer_factory.hpp:123] Creating layer d2c_d2c_fixed_0_split
I0716 14:33:58.976673 25179 net.cpp:140] Creating Layer d2c_d2c_fixed_0_split
I0716 14:33:58.976676 25179 net.cpp:481] d2c_d2c_fixed_0_split <- d2c
I0716 14:33:58.976681 25179 net.cpp:455] d2c_d2c_fixed_0_split -> d2c_d2c_fixed_0_split_0
I0716 14:33:58.976688 25179 net.cpp:455] d2c_d2c_fixed_0_split -> d2c_d2c_fixed_0_split_1
I0716 14:33:58.976724 25179 net.cpp:190] Setting up d2c_d2c_fixed_0_split
I0716 14:33:58.976730 25179 net.cpp:197] Top shape: 1 256 128 256 (8388608)
I0716 14:33:58.976734 25179 net.cpp:197] Top shape: 1 256 128 256 (8388608)
I0716 14:33:58.976737 25179 net.cpp:205] Memory required for data: 2166358020
I0716 14:33:58.976740 25179 layer_factory.hpp:123] Creating layer BatchNorm_d2c
I0716 14:33:58.976747 25179 net.cpp:140] Creating Layer BatchNorm_d2c
I0716 14:33:58.976750 25179 net.cpp:481] BatchNorm_d2c <- d2c_d2c_fixed_0_split_0
I0716 14:33:58.976755 25179 net.cpp:455] BatchNorm_d2c -> BatchNorm_d2c
I0716 14:33:58.976795 25179 layer_factory.hpp:123] Creating layer BatchNorm_d2c
I0716 14:33:58.976883 25179 layer_factory.hpp:123] Creating layer BatchNorm_d2c
I0716 14:33:58.976925 25179 layer_factory.hpp:123] Creating layer BatchNorm_d2c
I0716 14:33:58.977110 25179 net.cpp:190] Setting up BatchNorm_d2c
I0716 14:33:58.977118 25179 net.cpp:197] Top shape: 1 256 128 256 (8388608)
I0716 14:33:58.977121 25179 net.cpp:205] Memory required for data: 2199912452
I0716 14:33:58.977126 25179 layer_factory.hpp:123] Creating layer relu_d2c
I0716 14:33:58.977131 25179 net.cpp:140] Creating Layer relu_d2c
I0716 14:33:58.977135 25179 net.cpp:481] relu_d2c <- BatchNorm_d2c
I0716 14:33:58.977140 25179 net.cpp:455] relu_d2c -> relu_d2c
I0716 14:33:58.977166 25179 net.cpp:190] Setting up relu_d2c
I0716 14:33:58.977172 25179 net.cpp:197] Top shape: 1 256 128 256 (8388608)
I0716 14:33:58.977175 25179 net.cpp:205] Memory required for data: 2233466884
I0716 14:33:58.977178 25179 layer_factory.hpp:123] Creating layer pool_d2c-3a
I0716 14:33:58.977185 25179 net.cpp:140] Creating Layer pool_d2c-3a
I0716 14:33:58.977187 25179 net.cpp:481] pool_d2c-3a <- relu_d2c
I0716 14:33:58.977192 25179 net.cpp:455] pool_d2c-3a -> d3a
I0716 14:33:58.977228 25179 net.cpp:190] Setting up pool_d2c-3a
I0716 14:33:58.977234 25179 net.cpp:197] Top shape: 1 256 64 128 (2097152)
I0716 14:33:58.977237 25179 net.cpp:205] Memory required for data: 2241855492
I0716 14:33:58.977241 25179 layer_factory.hpp:123] Creating layer d3a_fixed
I0716 14:33:58.977247 25179 net.cpp:140] Creating Layer d3a_fixed
I0716 14:33:58.977250 25179 net.cpp:481] d3a_fixed <- d3a
I0716 14:33:58.977254 25179 net.cpp:442] d3a_fixed -> d3a (in-place)
I0716 14:33:58.977290 25179 net.cpp:190] Setting up d3a_fixed
I0716 14:33:58.977296 25179 net.cpp:197] Top shape: 1 256 64 128 (2097152)
I0716 14:33:58.977299 25179 net.cpp:205] Memory required for data: 2250244100
I0716 14:33:58.977303 25179 layer_factory.hpp:123] Creating layer conv_d3a-b
I0716 14:33:58.977310 25179 net.cpp:140] Creating Layer conv_d3a-b
I0716 14:33:58.977314 25179 net.cpp:481] conv_d3a-b <- d3a
I0716 14:33:58.977319 25179 net.cpp:455] conv_d3a-b -> d3b
I0716 14:33:58.990592 25179 layer_factory.hpp:123] Creating layer conv_d3a-b
I0716 14:33:59.004284 25179 net.cpp:190] Setting up conv_d3a-b
I0716 14:33:59.004304 25179 net.cpp:197] Top shape: 1 512 64 128 (4194304)
I0716 14:33:59.004308 25179 net.cpp:205] Memory required for data: 2267021316
I0716 14:33:59.004315 25179 layer_factory.hpp:123] Creating layer relu_d3b
I0716 14:33:59.004324 25179 net.cpp:140] Creating Layer relu_d3b
I0716 14:33:59.004328 25179 net.cpp:481] relu_d3b <- d3b
I0716 14:33:59.004334 25179 net.cpp:455] relu_d3b -> relu_d3b
I0716 14:33:59.004365 25179 net.cpp:190] Setting up relu_d3b
I0716 14:33:59.004370 25179 net.cpp:197] Top shape: 1 512 64 128 (4194304)
I0716 14:33:59.004374 25179 net.cpp:205] Memory required for data: 2283798532
I0716 14:33:59.004376 25179 layer_factory.hpp:123] Creating layer relu_d3b_fixed
I0716 14:33:59.004382 25179 net.cpp:140] Creating Layer relu_d3b_fixed
I0716 14:33:59.004385 25179 net.cpp:481] relu_d3b_fixed <- relu_d3b
I0716 14:33:59.004390 25179 net.cpp:442] relu_d3b_fixed -> relu_d3b (in-place)
I0716 14:33:59.004426 25179 net.cpp:190] Setting up relu_d3b_fixed
I0716 14:33:59.004432 25179 net.cpp:197] Top shape: 1 512 64 128 (4194304)
I0716 14:33:59.004436 25179 net.cpp:205] Memory required for data: 2300575748
I0716 14:33:59.004439 25179 layer_factory.hpp:123] Creating layer conv_d3b-c
I0716 14:33:59.004448 25179 net.cpp:140] Creating Layer conv_d3b-c
I0716 14:33:59.004452 25179 net.cpp:481] conv_d3b-c <- relu_d3b
I0716 14:33:59.004457 25179 net.cpp:455] conv_d3b-c -> d3c
I0716 14:33:59.030428 25179 layer_factory.hpp:123] Creating layer conv_d3b-c
I0716 14:33:59.056473 25179 net.cpp:190] Setting up conv_d3b-c
I0716 14:33:59.056499 25179 net.cpp:197] Top shape: 1 512 64 128 (4194304)
I0716 14:33:59.056502 25179 net.cpp:205] Memory required for data: 2317352964
I0716 14:33:59.056515 25179 layer_factory.hpp:123] Creating layer d3c_fixed
I0716 14:33:59.056524 25179 net.cpp:140] Creating Layer d3c_fixed
I0716 14:33:59.056529 25179 net.cpp:481] d3c_fixed <- d3c
I0716 14:33:59.056536 25179 net.cpp:442] d3c_fixed -> d3c (in-place)
I0716 14:33:59.056577 25179 net.cpp:190] Setting up d3c_fixed
I0716 14:33:59.056582 25179 net.cpp:197] Top shape: 1 512 64 128 (4194304)
I0716 14:33:59.056586 25179 net.cpp:205] Memory required for data: 2334130180
I0716 14:33:59.056591 25179 layer_factory.hpp:123] Creating layer d3c_d3c_fixed_0_split
I0716 14:33:59.056596 25179 net.cpp:140] Creating Layer d3c_d3c_fixed_0_split
I0716 14:33:59.056598 25179 net.cpp:481] d3c_d3c_fixed_0_split <- d3c
I0716 14:33:59.056603 25179 net.cpp:455] d3c_d3c_fixed_0_split -> d3c_d3c_fixed_0_split_0
I0716 14:33:59.056610 25179 net.cpp:455] d3c_d3c_fixed_0_split -> d3c_d3c_fixed_0_split_1
I0716 14:33:59.056648 25179 net.cpp:190] Setting up d3c_d3c_fixed_0_split
I0716 14:33:59.056653 25179 net.cpp:197] Top shape: 1 512 64 128 (4194304)
I0716 14:33:59.056658 25179 net.cpp:197] Top shape: 1 512 64 128 (4194304)
I0716 14:33:59.056660 25179 net.cpp:205] Memory required for data: 2367684612
I0716 14:33:59.056663 25179 layer_factory.hpp:123] Creating layer BatchNorm_1
I0716 14:33:59.056670 25179 net.cpp:140] Creating Layer BatchNorm_1
I0716 14:33:59.056674 25179 net.cpp:481] BatchNorm_1 <- d3c_d3c_fixed_0_split_0
I0716 14:33:59.056679 25179 net.cpp:455] BatchNorm_1 -> BatchNorm_1
I0716 14:33:59.056716 25179 layer_factory.hpp:123] Creating layer BatchNorm_1
I0716 14:33:59.056798 25179 layer_factory.hpp:123] Creating layer BatchNorm_1
I0716 14:33:59.056836 25179 layer_factory.hpp:123] Creating layer BatchNorm_1
I0716 14:33:59.056980 25179 net.cpp:190] Setting up BatchNorm_1
I0716 14:33:59.056987 25179 net.cpp:197] Top shape: 1 512 64 128 (4194304)
I0716 14:33:59.056989 25179 net.cpp:205] Memory required for data: 2384461828
I0716 14:33:59.056995 25179 layer_factory.hpp:123] Creating layer relu_d3c
I0716 14:33:59.057000 25179 net.cpp:140] Creating Layer relu_d3c
I0716 14:33:59.057004 25179 net.cpp:481] relu_d3c <- BatchNorm_1
I0716 14:33:59.057009 25179 net.cpp:455] relu_d3c -> relu_d3c
I0716 14:33:59.057037 25179 net.cpp:190] Setting up relu_d3c
I0716 14:33:59.057044 25179 net.cpp:197] Top shape: 1 512 64 128 (4194304)
I0716 14:33:59.057047 25179 net.cpp:205] Memory required for data: 2401239044
I0716 14:33:59.057049 25179 layer_factory.hpp:123] Creating layer pool_d3c-4a
I0716 14:33:59.057056 25179 net.cpp:140] Creating Layer pool_d3c-4a
I0716 14:33:59.057060 25179 net.cpp:481] pool_d3c-4a <- relu_d3c
I0716 14:33:59.057065 25179 net.cpp:455] pool_d3c-4a -> d4a
I0716 14:33:59.057102 25179 net.cpp:190] Setting up pool_d3c-4a
I0716 14:33:59.057108 25179 net.cpp:197] Top shape: 1 512 32 64 (1048576)
I0716 14:33:59.057111 25179 net.cpp:205] Memory required for data: 2405433348
I0716 14:33:59.057114 25179 layer_factory.hpp:123] Creating layer d4a_fixed
I0716 14:33:59.057118 25179 net.cpp:140] Creating Layer d4a_fixed
I0716 14:33:59.057122 25179 net.cpp:481] d4a_fixed <- d4a
I0716 14:33:59.057126 25179 net.cpp:442] d4a_fixed -> d4a (in-place)
I0716 14:33:59.057160 25179 net.cpp:190] Setting up d4a_fixed
I0716 14:33:59.057165 25179 net.cpp:197] Top shape: 1 512 32 64 (1048576)
I0716 14:33:59.057169 25179 net.cpp:205] Memory required for data: 2409627652
I0716 14:33:59.057173 25179 layer_factory.hpp:123] Creating layer conv_d4a-b
I0716 14:33:59.057183 25179 net.cpp:140] Creating Layer conv_d4a-b
I0716 14:33:59.057193 25179 net.cpp:481] conv_d4a-b <- d4a
I0716 14:33:59.057198 25179 net.cpp:455] conv_d4a-b -> BatchNorm_2
I0716 14:33:59.109364 25179 layer_factory.hpp:123] Creating layer conv_d4a-b
I0716 14:33:59.161353 25179 net.cpp:190] Setting up conv_d4a-b
I0716 14:33:59.161377 25179 net.cpp:197] Top shape: 1 1024 32 64 (2097152)
I0716 14:33:59.161381 25179 net.cpp:205] Memory required for data: 2418016260
I0716 14:33:59.161389 25179 layer_factory.hpp:123] Creating layer relu_d4b
I0716 14:33:59.161397 25179 net.cpp:140] Creating Layer relu_d4b
I0716 14:33:59.161401 25179 net.cpp:481] relu_d4b <- BatchNorm_2
I0716 14:33:59.161409 25179 net.cpp:455] relu_d4b -> relu_d4b
I0716 14:33:59.161439 25179 net.cpp:190] Setting up relu_d4b
I0716 14:33:59.161444 25179 net.cpp:197] Top shape: 1 1024 32 64 (2097152)
I0716 14:33:59.161448 25179 net.cpp:205] Memory required for data: 2426404868
I0716 14:33:59.161450 25179 layer_factory.hpp:123] Creating layer relu_d4b_fixed
I0716 14:33:59.161456 25179 net.cpp:140] Creating Layer relu_d4b_fixed
I0716 14:33:59.161459 25179 net.cpp:481] relu_d4b_fixed <- relu_d4b
I0716 14:33:59.161463 25179 net.cpp:442] relu_d4b_fixed -> relu_d4b (in-place)
I0716 14:33:59.161502 25179 net.cpp:190] Setting up relu_d4b_fixed
I0716 14:33:59.161509 25179 net.cpp:197] Top shape: 1 1024 32 64 (2097152)
I0716 14:33:59.161511 25179 net.cpp:205] Memory required for data: 2434793476
I0716 14:33:59.161515 25179 layer_factory.hpp:123] Creating layer conv_d4b-c
I0716 14:33:59.161525 25179 net.cpp:140] Creating Layer conv_d4b-c
I0716 14:33:59.161527 25179 net.cpp:481] conv_d4b-c <- relu_d4b
I0716 14:33:59.161538 25179 net.cpp:455] conv_d4b-c -> d4c
I0716 14:33:59.265620 25179 layer_factory.hpp:123] Creating layer conv_d4b-c
I0716 14:33:59.370333 25179 net.cpp:190] Setting up conv_d4b-c
I0716 14:33:59.370359 25179 net.cpp:197] Top shape: 1 1024 32 64 (2097152)
I0716 14:33:59.370363 25179 net.cpp:205] Memory required for data: 2443182084
I0716 14:33:59.370370 25179 layer_factory.hpp:123] Creating layer relu_d4c
I0716 14:33:59.370379 25179 net.cpp:140] Creating Layer relu_d4c
I0716 14:33:59.370384 25179 net.cpp:481] relu_d4c <- d4c
I0716 14:33:59.370391 25179 net.cpp:455] relu_d4c -> relu_d4c
I0716 14:33:59.370421 25179 net.cpp:190] Setting up relu_d4c
I0716 14:33:59.370426 25179 net.cpp:197] Top shape: 1 1024 32 64 (2097152)
I0716 14:33:59.370429 25179 net.cpp:205] Memory required for data: 2451570692
I0716 14:33:59.370432 25179 layer_factory.hpp:123] Creating layer relu_d4c_fixed
I0716 14:33:59.370438 25179 net.cpp:140] Creating Layer relu_d4c_fixed
I0716 14:33:59.370442 25179 net.cpp:481] relu_d4c_fixed <- relu_d4c
I0716 14:33:59.370446 25179 net.cpp:442] relu_d4c_fixed -> relu_d4c (in-place)
I0716 14:33:59.370484 25179 net.cpp:190] Setting up relu_d4c_fixed
I0716 14:33:59.370491 25179 net.cpp:197] Top shape: 1 1024 32 64 (2097152)
I0716 14:33:59.370494 25179 net.cpp:205] Memory required for data: 2459959300
I0716 14:33:59.370498 25179 layer_factory.hpp:123] Creating layer upconv_d4c_u3a
I0716 14:33:59.370507 25179 net.cpp:140] Creating Layer upconv_d4c_u3a
I0716 14:33:59.370509 25179 net.cpp:481] upconv_d4c_u3a <- relu_d4c
I0716 14:33:59.370514 25179 net.cpp:455] upconv_d4c_u3a -> u3a
I0716 14:33:59.393532 25179 layer_factory.hpp:123] Creating layer upconv_d4c_u3a
I0716 14:33:59.417220 25179 net.cpp:190] Setting up upconv_d4c_u3a
I0716 14:33:59.417244 25179 net.cpp:197] Top shape: 1 512 64 128 (4194304)
I0716 14:33:59.417248 25179 net.cpp:205] Memory required for data: 2476736516
I0716 14:33:59.417256 25179 layer_factory.hpp:123] Creating layer relu_u3a
I0716 14:33:59.417265 25179 net.cpp:140] Creating Layer relu_u3a
I0716 14:33:59.417269 25179 net.cpp:481] relu_u3a <- u3a
I0716 14:33:59.417276 25179 net.cpp:442] relu_u3a -> u3a (in-place)
I0716 14:33:59.417285 25179 net.cpp:190] Setting up relu_u3a
I0716 14:33:59.417289 25179 net.cpp:197] Top shape: 1 512 64 128 (4194304)
I0716 14:33:59.417292 25179 net.cpp:205] Memory required for data: 2493513732
I0716 14:33:59.417295 25179 layer_factory.hpp:123] Creating layer concat_d3cc_u3a-b
I0716 14:33:59.417300 25179 net.cpp:140] Creating Layer concat_d3cc_u3a-b
I0716 14:33:59.417304 25179 net.cpp:481] concat_d3cc_u3a-b <- u3a
I0716 14:33:59.417307 25179 net.cpp:481] concat_d3cc_u3a-b <- d3c_d3c_fixed_0_split_1
I0716 14:33:59.417312 25179 net.cpp:455] concat_d3cc_u3a-b -> u3b
I0716 14:33:59.417342 25179 net.cpp:190] Setting up concat_d3cc_u3a-b
I0716 14:33:59.417349 25179 net.cpp:197] Top shape: 1 1024 64 128 (8388608)
I0716 14:33:59.417351 25179 net.cpp:205] Memory required for data: 2527068164
I0716 14:33:59.417354 25179 layer_factory.hpp:123] Creating layer u3b_fixed
I0716 14:33:59.417361 25179 net.cpp:140] Creating Layer u3b_fixed
I0716 14:33:59.417363 25179 net.cpp:481] u3b_fixed <- u3b
I0716 14:33:59.417367 25179 net.cpp:442] u3b_fixed -> u3b (in-place)
I0716 14:33:59.417407 25179 net.cpp:190] Setting up u3b_fixed
I0716 14:33:59.417412 25179 net.cpp:197] Top shape: 1 1024 64 128 (8388608)
I0716 14:33:59.417415 25179 net.cpp:205] Memory required for data: 2560622596
I0716 14:33:59.417419 25179 layer_factory.hpp:123] Creating layer conv_u3b-c
I0716 14:33:59.417428 25179 net.cpp:140] Creating Layer conv_u3b-c
I0716 14:33:59.417431 25179 net.cpp:481] conv_u3b-c <- u3b
I0716 14:33:59.417436 25179 net.cpp:455] conv_u3b-c -> u3c
I0716 14:33:59.470418 25179 layer_factory.hpp:123] Creating layer conv_u3b-c
I0716 14:33:59.522357 25179 net.cpp:190] Setting up conv_u3b-c
I0716 14:33:59.522380 25179 net.cpp:197] Top shape: 1 512 64 128 (4194304)
I0716 14:33:59.522384 25179 net.cpp:205] Memory required for data: 2577399812
I0716 14:33:59.522392 25179 layer_factory.hpp:123] Creating layer relu_u3c
I0716 14:33:59.522400 25179 net.cpp:140] Creating Layer relu_u3c
I0716 14:33:59.522404 25179 net.cpp:481] relu_u3c <- u3c
I0716 14:33:59.522410 25179 net.cpp:442] relu_u3c -> u3c (in-place)
I0716 14:33:59.522420 25179 net.cpp:190] Setting up relu_u3c
I0716 14:33:59.522424 25179 net.cpp:197] Top shape: 1 512 64 128 (4194304)
I0716 14:33:59.522428 25179 net.cpp:205] Memory required for data: 2594177028
I0716 14:33:59.522429 25179 layer_factory.hpp:123] Creating layer u3c_fixed
I0716 14:33:59.522435 25179 net.cpp:140] Creating Layer u3c_fixed
I0716 14:33:59.522439 25179 net.cpp:481] u3c_fixed <- u3c
I0716 14:33:59.522442 25179 net.cpp:442] u3c_fixed -> u3c (in-place)
I0716 14:33:59.522483 25179 net.cpp:190] Setting up u3c_fixed
I0716 14:33:59.522490 25179 net.cpp:197] Top shape: 1 512 64 128 (4194304)
I0716 14:33:59.522493 25179 net.cpp:205] Memory required for data: 2610954244
I0716 14:33:59.522497 25179 layer_factory.hpp:123] Creating layer conv_u3c-d
I0716 14:33:59.522506 25179 net.cpp:140] Creating Layer conv_u3c-d
I0716 14:33:59.522512 25179 net.cpp:481] conv_u3c-d <- u3c
I0716 14:33:59.522517 25179 net.cpp:455] conv_u3c-d -> u3d
I0716 14:33:59.548424 25179 layer_factory.hpp:123] Creating layer conv_u3c-d
I0716 14:33:59.574772 25179 net.cpp:190] Setting up conv_u3c-d
I0716 14:33:59.574798 25179 net.cpp:197] Top shape: 1 512 64 128 (4194304)
I0716 14:33:59.574801 25179 net.cpp:205] Memory required for data: 2627731460
I0716 14:33:59.574810 25179 layer_factory.hpp:123] Creating layer relu_u3d
I0716 14:33:59.574818 25179 net.cpp:140] Creating Layer relu_u3d
I0716 14:33:59.574822 25179 net.cpp:481] relu_u3d <- u3d
I0716 14:33:59.574829 25179 net.cpp:442] relu_u3d -> u3d (in-place)
I0716 14:33:59.574837 25179 net.cpp:190] Setting up relu_u3d
I0716 14:33:59.574841 25179 net.cpp:197] Top shape: 1 512 64 128 (4194304)
I0716 14:33:59.574843 25179 net.cpp:205] Memory required for data: 2644508676
I0716 14:33:59.574846 25179 layer_factory.hpp:123] Creating layer u3d_fixed
I0716 14:33:59.574852 25179 net.cpp:140] Creating Layer u3d_fixed
I0716 14:33:59.574856 25179 net.cpp:481] u3d_fixed <- u3d
I0716 14:33:59.574858 25179 net.cpp:442] u3d_fixed -> u3d (in-place)
I0716 14:33:59.574901 25179 net.cpp:190] Setting up u3d_fixed
I0716 14:33:59.574908 25179 net.cpp:197] Top shape: 1 512 64 128 (4194304)
I0716 14:33:59.574911 25179 net.cpp:205] Memory required for data: 2661285892
I0716 14:33:59.574915 25179 layer_factory.hpp:123] Creating layer upconv_u3d_u2a
I0716 14:33:59.574923 25179 net.cpp:140] Creating Layer upconv_u3d_u2a
I0716 14:33:59.574926 25179 net.cpp:481] upconv_u3d_u2a <- u3d
I0716 14:33:59.574931 25179 net.cpp:455] upconv_u3d_u2a -> u2a
I0716 14:33:59.586941 25179 layer_factory.hpp:123] Creating layer upconv_u3d_u2a
I0716 14:33:59.598886 25179 net.cpp:190] Setting up upconv_u3d_u2a
I0716 14:33:59.598901 25179 net.cpp:197] Top shape: 1 512 128 256 (16777216)
I0716 14:33:59.598904 25179 net.cpp:205] Memory required for data: 2728394756
I0716 14:33:59.598912 25179 layer_factory.hpp:123] Creating layer relu_u2a
I0716 14:33:59.598919 25179 net.cpp:140] Creating Layer relu_u2a
I0716 14:33:59.598923 25179 net.cpp:481] relu_u2a <- u2a
I0716 14:33:59.598929 25179 net.cpp:442] relu_u2a -> u2a (in-place)
I0716 14:33:59.598937 25179 net.cpp:190] Setting up relu_u2a
I0716 14:33:59.598942 25179 net.cpp:197] Top shape: 1 512 128 256 (16777216)
I0716 14:33:59.598944 25179 net.cpp:205] Memory required for data: 2795503620
I0716 14:33:59.598948 25179 layer_factory.hpp:123] Creating layer concat_d2cc_u2a-b
I0716 14:33:59.598953 25179 net.cpp:140] Creating Layer concat_d2cc_u2a-b
I0716 14:33:59.598955 25179 net.cpp:481] concat_d2cc_u2a-b <- u2a
I0716 14:33:59.598959 25179 net.cpp:481] concat_d2cc_u2a-b <- d2c_d2c_fixed_0_split_1
I0716 14:33:59.598965 25179 net.cpp:455] concat_d2cc_u2a-b -> u2b
I0716 14:33:59.598995 25179 net.cpp:190] Setting up concat_d2cc_u2a-b
I0716 14:33:59.599002 25179 net.cpp:197] Top shape: 1 768 128 256 (25165824)
I0716 14:33:59.599005 25179 net.cpp:205] Memory required for data: 2896166916
I0716 14:33:59.599007 25179 layer_factory.hpp:123] Creating layer u2b_fixed
I0716 14:33:59.599014 25179 net.cpp:140] Creating Layer u2b_fixed
I0716 14:33:59.599017 25179 net.cpp:481] u2b_fixed <- u2b
I0716 14:33:59.599021 25179 net.cpp:442] u2b_fixed -> u2b (in-place)
I0716 14:33:59.599061 25179 net.cpp:190] Setting up u2b_fixed
I0716 14:33:59.599067 25179 net.cpp:197] Top shape: 1 768 128 256 (25165824)
I0716 14:33:59.599071 25179 net.cpp:205] Memory required for data: 2996830212
I0716 14:33:59.599074 25179 layer_factory.hpp:123] Creating layer conv_u2b-c
I0716 14:33:59.599083 25179 net.cpp:140] Creating Layer conv_u2b-c
I0716 14:33:59.599086 25179 net.cpp:481] conv_u2b-c <- u2b
I0716 14:33:59.599092 25179 net.cpp:455] conv_u2b-c -> u2c
I0716 14:33:59.618749 25179 layer_factory.hpp:123] Creating layer conv_u2b-c
I0716 14:33:59.639632 25179 net.cpp:190] Setting up conv_u2b-c
I0716 14:33:59.639657 25179 net.cpp:197] Top shape: 1 256 128 256 (8388608)
I0716 14:33:59.639662 25179 net.cpp:205] Memory required for data: 3030384644
I0716 14:33:59.639668 25179 layer_factory.hpp:123] Creating layer relu_u2c
I0716 14:33:59.639679 25179 net.cpp:140] Creating Layer relu_u2c
I0716 14:33:59.639684 25179 net.cpp:481] relu_u2c <- u2c
I0716 14:33:59.639693 25179 net.cpp:442] relu_u2c -> u2c (in-place)
I0716 14:33:59.639701 25179 net.cpp:190] Setting up relu_u2c
I0716 14:33:59.639705 25179 net.cpp:197] Top shape: 1 256 128 256 (8388608)
I0716 14:33:59.639708 25179 net.cpp:205] Memory required for data: 3063939076
I0716 14:33:59.639712 25179 layer_factory.hpp:123] Creating layer u2c_fixed
I0716 14:33:59.639719 25179 net.cpp:140] Creating Layer u2c_fixed
I0716 14:33:59.639721 25179 net.cpp:481] u2c_fixed <- u2c
I0716 14:33:59.639725 25179 net.cpp:442] u2c_fixed -> u2c (in-place)
I0716 14:33:59.639789 25179 net.cpp:190] Setting up u2c_fixed
I0716 14:33:59.639797 25179 net.cpp:197] Top shape: 1 256 128 256 (8388608)
I0716 14:33:59.639801 25179 net.cpp:205] Memory required for data: 3097493508
I0716 14:33:59.639804 25179 layer_factory.hpp:123] Creating layer conv_u2c-d
I0716 14:33:59.639814 25179 net.cpp:140] Creating Layer conv_u2c-d
I0716 14:33:59.639817 25179 net.cpp:481] conv_u2c-d <- u2c
I0716 14:33:59.639823 25179 net.cpp:455] conv_u2c-d -> u2d
I0716 14:33:59.646632 25179 layer_factory.hpp:123] Creating layer conv_u2c-d
I0716 14:33:59.653630 25179 net.cpp:190] Setting up conv_u2c-d
I0716 14:33:59.653642 25179 net.cpp:197] Top shape: 1 256 128 256 (8388608)
I0716 14:33:59.653645 25179 net.cpp:205] Memory required for data: 3131047940
I0716 14:33:59.653651 25179 layer_factory.hpp:123] Creating layer relu_u2d
I0716 14:33:59.653657 25179 net.cpp:140] Creating Layer relu_u2d
I0716 14:33:59.653661 25179 net.cpp:481] relu_u2d <- u2d
I0716 14:33:59.653666 25179 net.cpp:442] relu_u2d -> u2d (in-place)
I0716 14:33:59.653673 25179 net.cpp:190] Setting up relu_u2d
I0716 14:33:59.653677 25179 net.cpp:197] Top shape: 1 256 128 256 (8388608)
I0716 14:33:59.653681 25179 net.cpp:205] Memory required for data: 3164602372
I0716 14:33:59.653682 25179 layer_factory.hpp:123] Creating layer u2d_fixed
I0716 14:33:59.653687 25179 net.cpp:140] Creating Layer u2d_fixed
I0716 14:33:59.653690 25179 net.cpp:481] u2d_fixed <- u2d
I0716 14:33:59.653694 25179 net.cpp:442] u2d_fixed -> u2d (in-place)
I0716 14:33:59.653738 25179 net.cpp:190] Setting up u2d_fixed
I0716 14:33:59.653744 25179 net.cpp:197] Top shape: 1 256 128 256 (8388608)
I0716 14:33:59.653748 25179 net.cpp:205] Memory required for data: 3198156804
I0716 14:33:59.653751 25179 layer_factory.hpp:123] Creating layer upconv_u2d_u1a
I0716 14:33:59.653759 25179 net.cpp:140] Creating Layer upconv_u2d_u1a
I0716 14:33:59.653761 25179 net.cpp:481] upconv_u2d_u1a <- u2d
I0716 14:33:59.653766 25179 net.cpp:455] upconv_u2d_u1a -> u1a
I0716 14:33:59.655129 25179 layer_factory.hpp:123] Creating layer upconv_u2d_u1a
I0716 14:33:59.656882 25179 net.cpp:190] Setting up upconv_u2d_u1a
I0716 14:33:59.656891 25179 net.cpp:197] Top shape: 1 128 256 512 (16777216)
I0716 14:33:59.656894 25179 net.cpp:205] Memory required for data: 3265265668
I0716 14:33:59.656899 25179 layer_factory.hpp:123] Creating layer relu_u1a
I0716 14:33:59.656904 25179 net.cpp:140] Creating Layer relu_u1a
I0716 14:33:59.656908 25179 net.cpp:481] relu_u1a <- u1a
I0716 14:33:59.656913 25179 net.cpp:442] relu_u1a -> u1a (in-place)
I0716 14:33:59.656919 25179 net.cpp:190] Setting up relu_u1a
I0716 14:33:59.656922 25179 net.cpp:197] Top shape: 1 128 256 512 (16777216)
I0716 14:33:59.656925 25179 net.cpp:205] Memory required for data: 3332374532
I0716 14:33:59.656929 25179 layer_factory.hpp:123] Creating layer concat_d1cc_u1a-b
I0716 14:33:59.656934 25179 net.cpp:140] Creating Layer concat_d1cc_u1a-b
I0716 14:33:59.656936 25179 net.cpp:481] concat_d1cc_u1a-b <- u1a
I0716 14:33:59.656939 25179 net.cpp:481] concat_d1cc_u1a-b <- d1c_d1c_fixed_0_split_1
I0716 14:33:59.656944 25179 net.cpp:455] concat_d1cc_u1a-b -> u1b
I0716 14:33:59.656975 25179 net.cpp:190] Setting up concat_d1cc_u1a-b
I0716 14:33:59.656981 25179 net.cpp:197] Top shape: 1 256 256 512 (33554432)
I0716 14:33:59.656985 25179 net.cpp:205] Memory required for data: 3466592260
I0716 14:33:59.656987 25179 layer_factory.hpp:123] Creating layer u1b_fixed
I0716 14:33:59.656992 25179 net.cpp:140] Creating Layer u1b_fixed
I0716 14:33:59.656996 25179 net.cpp:481] u1b_fixed <- u1b
I0716 14:33:59.656999 25179 net.cpp:442] u1b_fixed -> u1b (in-place)
I0716 14:33:59.657040 25179 net.cpp:190] Setting up u1b_fixed
I0716 14:33:59.657047 25179 net.cpp:197] Top shape: 1 256 256 512 (33554432)
I0716 14:33:59.657049 25179 net.cpp:205] Memory required for data: 3600809988
I0716 14:33:59.657052 25179 layer_factory.hpp:123] Creating layer conv_u1b-c
I0716 14:33:59.657060 25179 net.cpp:140] Creating Layer conv_u1b-c
I0716 14:33:59.657063 25179 net.cpp:481] conv_u1b-c <- u1b
I0716 14:33:59.657068 25179 net.cpp:455] conv_u1b-c -> u1c
I0716 14:33:59.661181 25179 layer_factory.hpp:123] Creating layer conv_u1b-c
I0716 14:33:59.665622 25179 net.cpp:190] Setting up conv_u1b-c
I0716 14:33:59.665635 25179 net.cpp:197] Top shape: 1 128 256 512 (16777216)
I0716 14:33:59.665638 25179 net.cpp:205] Memory required for data: 3667918852
I0716 14:33:59.665652 25179 layer_factory.hpp:123] Creating layer relu_u1c
I0716 14:33:59.665657 25179 net.cpp:140] Creating Layer relu_u1c
I0716 14:33:59.665661 25179 net.cpp:481] relu_u1c <- u1c
I0716 14:33:59.665666 25179 net.cpp:442] relu_u1c -> u1c (in-place)
I0716 14:33:59.665673 25179 net.cpp:190] Setting up relu_u1c
I0716 14:33:59.665678 25179 net.cpp:197] Top shape: 1 128 256 512 (16777216)
I0716 14:33:59.665680 25179 net.cpp:205] Memory required for data: 3735027716
I0716 14:33:59.665683 25179 layer_factory.hpp:123] Creating layer u1c_fixed
I0716 14:33:59.665688 25179 net.cpp:140] Creating Layer u1c_fixed
I0716 14:33:59.665691 25179 net.cpp:481] u1c_fixed <- u1c
I0716 14:33:59.665695 25179 net.cpp:442] u1c_fixed -> u1c (in-place)
I0716 14:33:59.665740 25179 net.cpp:190] Setting up u1c_fixed
I0716 14:33:59.665746 25179 net.cpp:197] Top shape: 1 128 256 512 (16777216)
I0716 14:33:59.665750 25179 net.cpp:205] Memory required for data: 3802136580
I0716 14:33:59.665752 25179 layer_factory.hpp:123] Creating layer conv_u1c-d
I0716 14:33:59.665760 25179 net.cpp:140] Creating Layer conv_u1c-d
I0716 14:33:59.665763 25179 net.cpp:481] conv_u1c-d <- u1c
I0716 14:33:59.665768 25179 net.cpp:455] conv_u1c-d -> u1d
I0716 14:33:59.667263 25179 layer_factory.hpp:123] Creating layer conv_u1c-d
I0716 14:33:59.670481 25179 net.cpp:190] Setting up conv_u1c-d
I0716 14:33:59.670495 25179 net.cpp:197] Top shape: 1 128 256 512 (16777216)
I0716 14:33:59.670500 25179 net.cpp:205] Memory required for data: 3869245444
I0716 14:33:59.670506 25179 layer_factory.hpp:123] Creating layer relu_u1d
I0716 14:33:59.670511 25179 net.cpp:140] Creating Layer relu_u1d
I0716 14:33:59.670516 25179 net.cpp:481] relu_u1d <- u1d
I0716 14:33:59.670521 25179 net.cpp:442] relu_u1d -> u1d (in-place)
I0716 14:33:59.670527 25179 net.cpp:190] Setting up relu_u1d
I0716 14:33:59.670531 25179 net.cpp:197] Top shape: 1 128 256 512 (16777216)
I0716 14:33:59.670534 25179 net.cpp:205] Memory required for data: 3936354308
I0716 14:33:59.670537 25179 layer_factory.hpp:123] Creating layer u1d_fixed
I0716 14:33:59.670542 25179 net.cpp:140] Creating Layer u1d_fixed
I0716 14:33:59.670545 25179 net.cpp:481] u1d_fixed <- u1d
I0716 14:33:59.670548 25179 net.cpp:442] u1d_fixed -> u1d (in-place)
I0716 14:33:59.670598 25179 net.cpp:190] Setting up u1d_fixed
I0716 14:33:59.670604 25179 net.cpp:197] Top shape: 1 128 256 512 (16777216)
I0716 14:33:59.670608 25179 net.cpp:205] Memory required for data: 4003463172
I0716 14:33:59.670612 25179 layer_factory.hpp:123] Creating layer upconv_u1d_u0a_NEW
I0716 14:33:59.670619 25179 net.cpp:140] Creating Layer upconv_u1d_u0a_NEW
I0716 14:33:59.670622 25179 net.cpp:481] upconv_u1d_u0a_NEW <- u1d
I0716 14:33:59.670627 25179 net.cpp:455] upconv_u1d_u0a_NEW -> u0a
I0716 14:33:59.671857 25179 layer_factory.hpp:123] Creating layer upconv_u1d_u0a_NEW
I0716 14:33:59.674698 25179 net.cpp:190] Setting up upconv_u1d_u0a_NEW
I0716 14:33:59.674717 25179 net.cpp:197] Top shape: 1 64 512 1024 (33554432)
I0716 14:33:59.674721 25179 net.cpp:205] Memory required for data: 4137680900
I0716 14:33:59.674727 25179 layer_factory.hpp:123] Creating layer relu_u0a
I0716 14:33:59.674736 25179 net.cpp:140] Creating Layer relu_u0a
I0716 14:33:59.674741 25179 net.cpp:481] relu_u0a <- u0a
I0716 14:33:59.674746 25179 net.cpp:442] relu_u0a -> u0a (in-place)
I0716 14:33:59.674754 25179 net.cpp:190] Setting up relu_u0a
I0716 14:33:59.674759 25179 net.cpp:197] Top shape: 1 64 512 1024 (33554432)
I0716 14:33:59.674762 25179 net.cpp:205] Memory required for data: 4271898628
I0716 14:33:59.674764 25179 layer_factory.hpp:123] Creating layer concat_d0cc_u0a-b
I0716 14:33:59.674769 25179 net.cpp:140] Creating Layer concat_d0cc_u0a-b
I0716 14:33:59.674772 25179 net.cpp:481] concat_d0cc_u0a-b <- u0a
I0716 14:33:59.674777 25179 net.cpp:481] concat_d0cc_u0a-b <- d0c_d0c_fixed_0_split_1
I0716 14:33:59.674782 25179 net.cpp:455] concat_d0cc_u0a-b -> u0b
I0716 14:33:59.674820 25179 net.cpp:190] Setting up concat_d0cc_u0a-b
I0716 14:33:59.674827 25179 net.cpp:197] Top shape: 1 128 512 1024 (67108864)
I0716 14:33:59.674830 25179 net.cpp:205] Memory required for data: 4540334084
I0716 14:33:59.674834 25179 layer_factory.hpp:123] Creating layer u0b_fixed
I0716 14:33:59.674839 25179 net.cpp:140] Creating Layer u0b_fixed
I0716 14:33:59.674841 25179 net.cpp:481] u0b_fixed <- u0b
I0716 14:33:59.674846 25179 net.cpp:442] u0b_fixed -> u0b (in-place)
I0716 14:33:59.674890 25179 net.cpp:190] Setting up u0b_fixed
I0716 14:33:59.674897 25179 net.cpp:197] Top shape: 1 128 512 1024 (67108864)
I0716 14:33:59.674901 25179 net.cpp:205] Memory required for data: 4808769540
I0716 14:33:59.674904 25179 layer_factory.hpp:123] Creating layer conv_u0b-c_New
I0716 14:33:59.674913 25179 net.cpp:140] Creating Layer conv_u0b-c_New
I0716 14:33:59.674916 25179 net.cpp:481] conv_u0b-c_New <- u0b
I0716 14:33:59.674921 25179 net.cpp:455] conv_u0b-c_New -> u0c
I0716 14:33:59.675833 25179 layer_factory.hpp:123] Creating layer conv_u0b-c_New
I0716 14:33:59.678898 25179 net.cpp:190] Setting up conv_u0b-c_New
I0716 14:33:59.678913 25179 net.cpp:197] Top shape: 1 64 512 1024 (33554432)
I0716 14:33:59.678917 25179 net.cpp:205] Memory required for data: 4942987268
I0716 14:33:59.678925 25179 layer_factory.hpp:123] Creating layer relu_u0c
I0716 14:33:59.678931 25179 net.cpp:140] Creating Layer relu_u0c
I0716 14:33:59.678936 25179 net.cpp:481] relu_u0c <- u0c
I0716 14:33:59.678941 25179 net.cpp:442] relu_u0c -> u0c (in-place)
I0716 14:33:59.678948 25179 net.cpp:190] Setting up relu_u0c
I0716 14:33:59.678952 25179 net.cpp:197] Top shape: 1 64 512 1024 (33554432)
I0716 14:33:59.678956 25179 net.cpp:205] Memory required for data: 5077204996
I0716 14:33:59.678958 25179 layer_factory.hpp:123] Creating layer u0c_fixed
I0716 14:33:59.678963 25179 net.cpp:140] Creating Layer u0c_fixed
I0716 14:33:59.678966 25179 net.cpp:481] u0c_fixed <- u0c
I0716 14:33:59.678969 25179 net.cpp:442] u0c_fixed -> u0c (in-place)
I0716 14:33:59.679019 25179 net.cpp:190] Setting up u0c_fixed
I0716 14:33:59.679025 25179 net.cpp:197] Top shape: 1 64 512 1024 (33554432)
I0716 14:33:59.679028 25179 net.cpp:205] Memory required for data: 5211422724
I0716 14:33:59.679033 25179 layer_factory.hpp:123] Creating layer conv_u0c-d_New
I0716 14:33:59.679041 25179 net.cpp:140] Creating Layer conv_u0c-d_New
I0716 14:33:59.679044 25179 net.cpp:481] conv_u0c-d_New <- u0c
I0716 14:33:59.679049 25179 net.cpp:455] conv_u0c-d_New -> u0d
I0716 14:33:59.679605 25179 layer_factory.hpp:123] Creating layer conv_u0c-d_New
I0716 14:33:59.682322 25179 net.cpp:190] Setting up conv_u0c-d_New
I0716 14:33:59.682337 25179 net.cpp:197] Top shape: 1 64 512 1024 (33554432)
I0716 14:33:59.682339 25179 net.cpp:205] Memory required for data: 5345640452
I0716 14:33:59.682346 25179 layer_factory.hpp:123] Creating layer relu_u0d
I0716 14:33:59.682353 25179 net.cpp:140] Creating Layer relu_u0d
I0716 14:33:59.682356 25179 net.cpp:481] relu_u0d <- u0d
I0716 14:33:59.682361 25179 net.cpp:442] relu_u0d -> u0d (in-place)
I0716 14:33:59.682368 25179 net.cpp:190] Setting up relu_u0d
I0716 14:33:59.682374 25179 net.cpp:197] Top shape: 1 64 512 1024 (33554432)
I0716 14:33:59.682375 25179 net.cpp:205] Memory required for data: 5479858180
I0716 14:33:59.682379 25179 layer_factory.hpp:123] Creating layer u0d_fixed
I0716 14:33:59.682384 25179 net.cpp:140] Creating Layer u0d_fixed
I0716 14:33:59.682386 25179 net.cpp:481] u0d_fixed <- u0d
I0716 14:33:59.682390 25179 net.cpp:442] u0d_fixed -> u0d (in-place)
I0716 14:33:59.682440 25179 net.cpp:190] Setting up u0d_fixed
I0716 14:33:59.682446 25179 net.cpp:197] Top shape: 1 64 512 1024 (33554432)
I0716 14:33:59.682451 25179 net.cpp:205] Memory required for data: 5614075908
I0716 14:33:59.682454 25179 layer_factory.hpp:123] Creating layer conv_u0d-score_New
I0716 14:33:59.682461 25179 net.cpp:140] Creating Layer conv_u0d-score_New
I0716 14:33:59.682464 25179 net.cpp:481] conv_u0d-score_New <- u0d
I0716 14:33:59.682471 25179 net.cpp:455] conv_u0d-score_New -> conv_u0d-score_New
I0716 14:33:59.682727 25179 layer_factory.hpp:123] Creating layer conv_u0d-score_New
I0716 14:33:59.685123 25179 net.cpp:190] Setting up conv_u0d-score_New
I0716 14:33:59.685137 25179 net.cpp:197] Top shape: 1 19 512 1024 (9961472)
I0716 14:33:59.685142 25179 net.cpp:205] Memory required for data: 5653921796
I0716 14:33:59.685148 25179 layer_factory.hpp:123] Creating layer conv_u0d-score_New_fixed
I0716 14:33:59.685154 25179 net.cpp:140] Creating Layer conv_u0d-score_New_fixed
I0716 14:33:59.685158 25179 net.cpp:481] conv_u0d-score_New_fixed <- conv_u0d-score_New
I0716 14:33:59.685164 25179 net.cpp:442] conv_u0d-score_New_fixed -> conv_u0d-score_New (in-place)
I0716 14:33:59.685216 25179 net.cpp:190] Setting up conv_u0d-score_New_fixed
I0716 14:33:59.685223 25179 net.cpp:197] Top shape: 1 19 512 1024 (9961472)
I0716 14:33:59.685226 25179 net.cpp:205] Memory required for data: 5693767684
I0716 14:33:59.685231 25179 layer_factory.hpp:123] Creating layer score
I0716 14:33:59.685236 25179 net.cpp:140] Creating Layer score
I0716 14:33:59.685240 25179 net.cpp:481] score <- conv_u0d-score_New
I0716 14:33:59.685245 25179 net.cpp:455] score -> score
I0716 14:33:59.685324 25179 net.cpp:190] Setting up score
I0716 14:33:59.685331 25179 net.cpp:197] Top shape: 1 19 512 1024 (9961472)
I0716 14:33:59.685334 25179 net.cpp:205] Memory required for data: 5733613572
I0716 14:33:59.685338 25179 net.cpp:268] score does not need backward computation.
I0716 14:33:59.685341 25179 net.cpp:268] conv_u0d-score_New_fixed does not need backward computation.
I0716 14:33:59.685343 25179 net.cpp:268] conv_u0d-score_New does not need backward computation.
I0716 14:33:59.685348 25179 net.cpp:268] u0d_fixed does not need backward computation.
…
I0716 14:40:06.807219 25179 net.cpp:330] Network initialization done.
I0716 14:40:06.918638 25179 net.cpp:369] The NetState phase (1) differed from the phase (0) specified by a rule in layer data
I0716 14:40:06.919138 25179 net.cpp:98] Initializing net from parameters: 
layer {
  name: "data"
  type: "ImageSegData"
  top: "data"
  top: "label"
  include {
    phase: TEST
  }
  transform_param {
    scale: 0.022
    mean_value: 73
    mean_value: 82
    mean_value: 72
  }
  image_data_param {
    source: "../data/val_img_seg_nomap.txt"
    batch_size: 1
    shuffle: false
  }
}
layer {
  name: "resize_down"
  type: "DeephiResize"
  bottom: "data"
  top: "data"
  deephi_resize_param {
    resize_type: BILINEAR
    new_height: 512
    new_width: 1024
  }
}
layer {
  name: "data_fixed"
  type: "FixedNeuron"
  bottom: "data"
  top: "data"
  param {
    lr_mult: 0
    decay_mult: 0
  }
  fixed_param {
    fixed_method: OVER_FLOW
    bit_width: 8
    follow_data_layer: true
  }
}
layer {
  name: "conv_d0a-b"
  type: "ConvolutionFixed"
  bottom: "data"
  top: "d0b"
  param {
    lr_mult: 1
    decay_mult: 1
  }
  param {
    lr_mult: 2
    decay_mult: 0
  }
  convolution_param {
    num_output: 64
    pad: 1
    kernel_size: 3
    stride: 1
    weight_filler {
      type: "msra"
    }
  }
  fixed_param {
    fixed_method: DIFF_S
    bit_width: 8
  }
}
layer {
  name: "relu_d0b"
  type: "ReLU"
  bottom: "d0b"
  top: "relu_d0b"
}
layer {
  name: "relu_d0b_fixed"
  type: "FixedNeuron"
  bottom: "relu_d0b"
  top: "relu_d0b"
  param {
    lr_mult: 0
    decay_mult: 0
  }
  fixed_param {
    fixed_method: DIFF_S
    bit_width: 8
  }
}
layer {
  name: "conv_d0b-c"
  type: "ConvolutionFixed"
  bottom: "relu_d0b"
  top: "d0c"
  param {
    lr_mult: 1
    decay_mult: 1
  }
  param {
    lr_mult: 2
    decay_mult: 0
  }
  convolution_param {
    num_output: 64
    pad: 1
    kernel_size: 3
    weight_filler {
      type: "msra"
    }
  }
  fixed_param {
    fixed_method: DIFF_S
    bit_width: 8
  }
}
layer {
  name: "d0c_fixed"
  type: "FixedNeuron"
  bottom: "d0c"
  top: "d0c"
  param {
    lr_mult: 0
    decay_mult: 0
  }
  fixed_param {
    fixed_method: DIFF_S
    bit_width: 8
  }
}
layer {
  name: "BatchNorm_d0c"
  type: "ScaleFixed"
  bottom: "d0c"
  top: "BatchNorm_d0c"
  param {
    lr_mult: 1
    decay_mult: 1
  }
  param {
    lr_mult: 1
    decay_mult: 0
  }
  scale_param {
    bias_term: true
  }
  fixed_param {
    fixed_method: DIFF_S
    bit_width: 8
  }
}
layer {
  name: "relu_d0c"
  type: "ReLU"
  bottom: "BatchNorm_d0c"
  top: "relu_d0c"
}
layer {
  name: "pool_d0c-1a"
  type: "Pooling"
  bottom: "relu_d0c"
  top: "d1a"
  pooling_param {
    pool: MAX
    kernel_size: 2
    stride: 2
  }
}
layer {
  name: "d1a_fixed"
  type: "FixedNeuron"
  bottom: "d1a"
  top: "d1a"
  param {
    lr_mult: 0
    decay_mult: 0
  }
  fixed_param {
    fixed_method: DIFF_S
    bit_width: 8
  }
}
layer {
  name: "conv_d1a-b"
  type: "ConvolutionFixed"
  bottom: "d1a"
  top: "d1b"
  param {
    lr_mult: 1
    decay_mult: 1
  }
  param {
    lr_mult: 2
    decay_mult: 0
  }
  convolution_param {
    num_output: 128
    pad: 1
    kernel_size: 3
    weight_filler {
      type: "msra"
    }
  }
  fixed_param {
    fixed_method: DIFF_S
    bit_width: 8
  }
}
layer {
  name: "relu_d1b"
  type: "ReLU"
  bottom: "d1b"
  top: "relu_d1b"
}
layer {
  name: "relu_d1b_fixed"
  type: "FixedNeuron"
  bottom: "relu_d1b"
  top: "relu_d1b"
  param {
    lr_mult: 0
    decay_mult: 0
  }
  fixed_param {
    fixed_method: DIFF_S
    bit_width: 8
  }
}
layer {
  name: "conv_d1b-c"
  type: "ConvolutionFixed"
  bottom: "relu_d1b"
  top: "d1c"
  param {
    lr_mult: 1
    decay_mult: 1
  }
  param {
    lr_mult: 2
    decay_mult: 0
  }
  convolution_param {
    num_output: 128
    pad: 1
    kernel_size: 3
    weight_filler {
      type: "msra"
    }
  }
  fixed_param {
    fixed_method: DIFF_S
    bit_width: 8
  }
}
layer {
  name: "d1c_fixed"
  type: "FixedNeuron"
  bottom: "d1c"
  top: "d1c"
  param {
    lr_mult: 0
    decay_mult: 0
  }
  fixed_param {
    fixed_method: DIFF_S
    bit_width: 8
  }
}
layer {
  name: "BatchNorm_d1c"
  type: "ScaleFixed"
  bottom: "d1c"
  top: "BatchNorm_d1c"
  param {
    lr_mult: 1
    decay_mult: 1
  }
  param {
    lr_mult: 1
    decay_mult: 0
  }
  scale_param {
    bias_term: true
  }
  fixed_param {
    fixed_method: DIFF_S
    bit_width: 8
  }
}
layer {
  name: "relu_d1c"
  type: "ReLU"
  bottom: "BatchNorm_d1c"
  top: "relu_d1c"
}
layer {
  name: "pool_d1c-2a"
  type: "Pooling"
  bottom: "relu_d1c"
  top: "d2a"
  pooling_param {
    pool: MAX
    kernel_size: 2
    stride: 2
  }
}
layer {
  name: "d2a_fixed"
  type: "FixedNeuron"
  bottom: "d2a"
  top: "d2a"
  param {
    lr_mult: 0
    decay_mult: 0
  }
  fixed_param {
    fixed_method: DIFF_S
    bit_width: 8
  }
}
layer {
  name: "conv_d2a-b"
  type: "ConvolutionFixed"
  bottom: "d2a"
  top: "d2b"
  param {
    lr_mult: 1
    decay_mult: 1
  }
  param {
    lr_mult: 2
    decay_mult: 0
  }
  convolution_param {
    num_output: 256
    pad: 1
    kernel_size: 3
    weight_filler {
      type: "msra"
    }
  }
  fixed_param {
    fixed_method: DIFF_S
    bit_width: 8
  }
}
layer {
  name: "relu_d2b"
  type: "ReLU"
  bottom: "d2b"
  top: "relu_d2b"
}
layer {
  name: "relu_d2b_fixed"
  type: "FixedNeuron"
  bottom: "relu_d2b"
  top: "relu_d2b"
  param {
    lr_mult: 0
    decay_mult: 0
  }
  fixed_param {
    fixed_method: DIFF_S
    bit_width: 8
  }
}
layer {
  name: "conv_d2b-c"
  type: "ConvolutionFixed"
  bottom: "relu_d2b"
  top: "d2c"
  param {
    lr_mult: 1
    decay_mult: 1
  }
  param {
    lr_mult: 2
    decay_mult: 0
  }
  convolution_param {
    num_output: 256
    pad: 1
    kernel_size: 3
    weight_filler {
      type: "msra"
    }
  }
  fixed_param {
    fixed_method: DIFF_S
    bit_width: 8
  }
}
layer {
  name: "d2c_fixed"
  type: "FixedNeuron"
  bottom: "d2c"
  top: "d2c"
  param {
    lr_mult: 0
    decay_mult: 0
  }
  fixed_param {
    fixed_method: DIFF_S
    bit_width: 8
  }
}
layer {
  name: "BatchNorm_d2c"
  type: "ScaleFixed"
  bottom: "d2c"
  top: "BatchNorm_d2c"
  param {
    lr_mult: 1
    decay_mult: 1
  }
  param {
    lr_mult: 1
    decay_mult: 0
  }
  scale_param {
    bias_term: true
  }
  fixed_param {
    fixed_method: DIFF_S
    bit_width: 8
  }
}
layer {
  name: "relu_d2c"
  type: "ReLU"
  bottom: "BatchNorm_d2c"
  top: "relu_d2c"
}
layer {
  name: "pool_d2c-3a"
  type: "Pooling"
  bottom: "relu_d2c"
  top: "d3a"
  pooling_param {
    pool: MAX
    kernel_size: 2
    stride: 2
  }
}
layer {
  name: "d3a_fixed"
  type: "FixedNeuron"
  bottom: "d3a"
  top: "d3a"
  param {
    lr_mult: 0
    decay_mult: 0
  }
  fixed_param {
    fixed_method: DIFF_S
    bit_width: 8
  }
}
layer {
  name: "conv_d3a-b"
  type: "ConvolutionFixed"
  bottom: "d3a"
  top: "d3b"
  param {
    lr_mult: 1
    decay_mult: 1
  }
  param {
    lr_mult: 2
    decay_mult: 0
  }
  convolution_param {
    num_output: 512
    pad: 1
    kernel_size: 3
    weight_filler {
      type: "msra"
    }
  }
  fixed_param {
    fixed_method: DIFF_S
    bit_width: 8
  }
}
layer {
  name: "relu_d3b"
  type: "ReLU"
  bottom: "d3b"
  top: "relu_d3b"
}
layer {
  name: "relu_d3b_fixed"
  type: "FixedNeuron"
  bottom: "relu_d3b"
  top: "relu_d3b"
  param {
    lr_mult: 0
    decay_mult: 0
  }
  fixed_param {
    fixed_method: DIFF_S
    bit_width: 8
  }
}
layer {
  name: "conv_d3b-c"
  type: "ConvolutionFixed"
  bottom: "relu_d3b"
  top: "d3c"
  param {
    lr_mult: 1
    decay_mult: 1
  }
  param {
    lr_mult: 2
    decay_mult: 0
  }
  convolution_param {
    num_output: 512
    pad: 1
    kernel_size: 3
    weight_filler {
      type: "msra"
    }
  }
  fixed_param {
    fixed_method: DIFF_S
    bit_width: 8
  }
}
layer {
  name: "d3c_fixed"
  type: "FixedNeuron"
  bottom: "d3c"
  top: "d3c"
  param {
    lr_mult: 0
    decay_mult: 0
  }
  fixed_param {
    fixed_method: DIFF_S
    bit_width: 8
  }
}
layer {
  name: "BatchNorm_1"
  type: "ScaleFixed"
  bottom: "d3c"
  top: "BatchNorm_1"
  param {
    lr_mult: 1
    decay_mult: 1
  }
  param {
    lr_mult: 1
    decay_mult: 0
  }
  scale_param {
    bias_term: true
  }
  fixed_param {
    fixed_method: DIFF_S
    bit_width: 8
  }
}
layer {
  name: "relu_d3c"
  type: "ReLU"
  bottom: "BatchNorm_1"
  top: "relu_d3c"
}
layer {
  name: "pool_d3c-4a"
  type: "Pooling"
  bottom: "relu_d3c"
  top: "d4a"
  pooling_param {
    pool: MAX
    kernel_size: 2
    stride: 2
  }
}
layer {
  name: "d4a_fixed"
  type: "FixedNeuron"
  bottom: "d4a"
  top: "d4a"
  param {
    lr_mult: 0
    decay_mult: 0
  }
  fixed_param {
    fixed_method: DIFF_S
    bit_width: 8
  }
}
layer {
  name: "conv_d4a-b"
  type: "ConvolutionFixed"
  bottom: "d4a"
  top: "BatchNorm_2"
  param {
    lr_mult: 1
    decay_mult: 1
  }
  param {
    lr_mult: 1
    decay_mult: 0
  }
  convolution_param {
    num_output: 1024
    bias_term: true
    pad: 1
    kernel_size: 3
    weight_filler {
      type: "msra"
    }
  }
  fixed_param {
    fixed_method: DIFF_S
    bit_width: 8
  }
}
layer {
  name: "relu_d4b"
  type: "ReLU"
  bottom: "BatchNorm_2"
  top: "relu_d4b"
}
layer {
  name: "relu_d4b_fixed"
  type: "FixedNeuron"
  bottom: "relu_d4b"
  top: "relu_d4b"
  param {
    lr_mult: 0
    decay_mult: 0
  }
  fixed_param {
    fixed_method: DIFF_S
    bit_width: 8
  }
}
layer {
  name: "conv_d4b-c"
  type: "ConvolutionFixed"
  bottom: "relu_d4b"
  top: "d4c"
  param {
    lr_mult: 1
    decay_mult: 1
  }
  param {
    lr_mult: 2
    decay_mult: 0
  }
  convolution_param {
    num_output: 1024
    pad: 1
    kernel_size: 3
    weight_filler {
      type: "msra"
    }
  }
  fixed_param {
    fixed_method: DIFF_S
    bit_width: 8
  }
}
layer {
  name: "relu_d4c"
  type: "ReLU"
  bottom: "d4c"
  top: "relu_d4c"
}
layer {
  name: "relu_d4c_fixed"
  type: "FixedNeuron"
  bottom: "relu_d4c"
  top: "relu_d4c"
  param {
    lr_mult: 0
    decay_mult: 0
  }
  fixed_param {
    fixed_method: DIFF_S
    bit_width: 8
  }
}
layer {
  name: "upconv_d4c_u3a"
  type: "DeconvolutionFixed"
  bottom: "relu_d4c"
  top: "u3a"
  param {
    lr_mult: 1
    decay_mult: 1
  }
  param {
    lr_mult: 2
    decay_mult: 0
  }
  convolution_param {
    num_output: 512
    pad: 0
    kernel_size: 2
    stride: 2
    weight_filler {
      type: "msra"
    }
  }
  fixed_param {
    fixed_method: DIFF_S
    bit_width: 8
  }
}
layer {
  name: "relu_u3a"
  type: "ReLU"
  bottom: "u3a"
  top: "u3a"
}
layer {
  name: "concat_d3cc_u3a-b"
  type: "Concat"
  bottom: "u3a"
  bottom: "d3c"
  top: "u3b"
}
layer {
  name: "u3b_fixed"
  type: "FixedNeuron"
  bottom: "u3b"
  top: "u3b"
  param {
    lr_mult: 0
    decay_mult: 0
  }
  fixed_param {
    fixed_method: DIFF_S
    bit_width: 8
  }
}
layer {
  name: "conv_u3b-c"
  type: "ConvolutionFixed"
  bottom: "u3b"
  top: "u3c"
  param {
    lr_mult: 1
    decay_mult: 1
  }
  param {
    lr_mult: 2
    decay_mult: 0
  }
  convolution_param {
    num_output: 512
    pad: 1
    kernel_size: 3
    weight_filler {
      type: "msra"
    }
  }
  fixed_param {
    fixed_method: DIFF_S
    bit_width: 8
  }
}
layer {
  name: "relu_u3c"
  type: "ReLU"
  bottom: "u3c"
  top: "u3c"
}
layer {
  name: "u3c_fixed"
  type: "FixedNeuron"
  bottom: "u3c"
  top: "u3c"
  param {
    lr_mult: 0
    decay_mult: 0
  }
  fixed_param {
    fixed_method: DIFF_S
    bit_width: 8
  }
}
layer {
  name: "conv_u3c-d"
  type: "ConvolutionFixed"
  bottom: "u3c"
  top: "u3d"
  param {
    lr_mult: 1
    decay_mult: 1
  }
  param {
    lr_mult: 2
    decay_mult: 0
  }
  convolution_param {
    num_output: 512
    pad: 1
    kernel_size: 3
    weight_filler {
      type: "msra"
    }
  }
  fixed_param {
    fixed_method: DIFF_S
    bit_width: 8
  }
}
layer {
  name: "relu_u3d"
  type: "ReLU"
  bottom: "u3d"
  top: "u3d"
}
layer {
  name: "u3d_fixed"
  type: "FixedNeuron"
  bottom: "u3d"
  top: "u3d"
  param {
    lr_mult: 0
    decay_mult: 0
  }
  fixed_param {
    fixed_method: DIFF_S
    bit_width: 8
  }
}
layer {
  name: "upconv_u3d_u2a"
  type: "DeconvolutionFixed"
  bottom: "u3d"
  top: "u2a"
  param {
    lr_mult: 1
    decay_mult: 1
  }
  param {
    lr_mult: 2
    decay_mult: 0
  }
  convolution_param {
    num_output: 512
    pad: 0
    kernel_size: 2
    stride: 2
    weight_filler {
      type: "msra"
    }
  }
  fixed_param {
    fixed_method: DIFF_S
    bit_width: 8
  }
}
layer {
  name: "relu_u2a"
  type: "ReLU"
  bottom: "u2a"
  top: "u2a"
}
layer {
  name: "concat_d2cc_u2a-b"
  type: "Concat"
  bottom: "u2a"
  bottom: "d2c"
  top: "u2b"
}
layer {
  name: "u2b_fixed"
  type: "FixedNeuron"
  bottom: "u2b"
  top: "u2b"
  param {
    lr_mult: 0
    decay_mult: 0
  }
  fixed_param {
    fixed_method: DIFF_S
    bit_width: 8
  }
}
layer {
  name: "conv_u2b-c"
  type: "ConvolutionFixed"
  bottom: "u2b"
  top: "u2c"
  param {
    lr_mult: 1
    decay_mult: 1
  }
  param {
    lr_mult: 2
    decay_mult: 0
  }
  convolution_param {
    num_output: 256
    pad: 1
    kernel_size: 3
    weight_filler {
      type: "msra"
    }
  }
  fixed_param {
    fixed_method: DIFF_S
    bit_width: 8
  }
}
layer {
  name: "relu_u2c"
  type: "ReLU"
  bottom: "u2c"
  top: "u2c"
}
layer {
  name: "u2c_fixed"
  type: "FixedNeuron"
  bottom: "u2c"
  top: "u2c"
  param {
    lr_mult: 0
    decay_mult: 0
  }
  fixed_param {
    fixed_method: DIFF_S
    bit_width: 8
  }
}
layer {
  name: "conv_u2c-d"
  type: "ConvolutionFixed"
  bottom: "u2c"
  top: "u2d"
  param {
    lr_mult: 1
    decay_mult: 1
  }
  param {
    lr_mult: 2
    decay_mult: 0
  }
  convolution_param {
    num_output: 256
    pad: 1
    kernel_size: 3
    weight_filler {
      type: "msra"
    }
  }
  fixed_param {
    fixed_method: DIFF_S
    bit_width: 8
  }
}
layer {
  name: "relu_u2d"
  type: "ReLU"
  bottom: "u2d"
  top: "u2d"
}
layer {
  name: "u2d_fixed"
  type: "FixedNeuron"
  bottom: "u2d"
  top: "u2d"
  param {
    lr_mult: 0
    decay_mult: 0
  }
  fixed_param {
    fixed_method: DIFF_S
    bit_width: 8
  }
}
layer {
  name: "upconv_u2d_u1a"
  type: "DeconvolutionFixed"
  bottom: "u2d"
  top: "u1a"
  param {
    lr_mult: 1
    decay_mult: 1
  }
  param {
    lr_mult: 2
    decay_mult: 0
  }
  convolution_param {
    num_output: 128
    pad: 0
    kernel_size: 2
    stride: 2
    weight_filler {
      type: "msra"
    }
  }
  fixed_param {
    fixed_method: DIFF_S
    bit_width: 8
  }
}
layer {
  name: "relu_u1a"
  type: "ReLU"
  bottom: "u1a"
  top: "u1a"
}
layer {
  name: "concat_d1cc_u1a-b"
  type: "Concat"
  bottom: "u1a"
  bottom: "d1c"
  top: "u1b"
}
layer {
  name: "u1b_fixed"
  type: "FixedNeuron"
  bottom: "u1b"
  top: "u1b"
  param {
    lr_mult: 0
    decay_mult: 0
  }
  fixed_param {
    fixed_method: DIFF_S
    bit_width: 8
  }
}
layer {
  name: "conv_u1b-c"
  type: "ConvolutionFixed"
  bottom: "u1b"
  top: "u1c"
  param {
    lr_mult: 1
    decay_mult: 1
  }
  param {
    lr_mult: 2
    decay_mult: 0
  }
  convolution_param {
    num_output: 128
    pad: 1
    kernel_size: 3
    weight_filler {
      type: "msra"
    }
  }
  fixed_param {
    fixed_method: DIFF_S
    bit_width: 8
  }
}
layer {
  name: "relu_u1c"
  type: "ReLU"
  bottom: "u1c"
  top: "u1c"
}
layer {
  name: "u1c_fixed"
  type: "FixedNeuron"
  bottom: "u1c"
  top: "u1c"
  param {
    lr_mult: 0
    decay_mult: 0
  }
  fixed_param {
    fixed_method: DIFF_S
    bit_width: 8
  }
}
layer {
  name: "conv_u1c-d"
  type: "ConvolutionFixed"
  bottom: "u1c"
  top: "u1d"
  param {
    lr_mult: 1
    decay_mult: 1
  }
  param {
    lr_mult: 2
    decay_mult: 0
  }
  convolution_param {
    num_output: 128
    pad: 1
    kernel_size: 3
    weight_filler {
      type: "msra"
    }
  }
  fixed_param {
    fixed_method: DIFF_S
    bit_width: 8
  }
}
layer {
  name: "relu_u1d"
  type: "ReLU"
  bottom: "u1d"
  top: "u1d"
}
layer {
  name: "u1d_fixed"
  type: "FixedNeuron"
  bottom: "u1d"
  top: "u1d"
  param {
    lr_mult: 0
    decay_mult: 0
  }
  fixed_param {
    fixed_method: DIFF_S
    bit_width: 8
  }
}
layer {
  name: "upconv_u1d_u0a_NEW"
  type: "DeconvolutionFixed"
  bottom: "u1d"
  top: "u0a"
  param {
    lr_mult: 1
    decay_mult: 1
  }
  param {
    lr_mult: 2
    decay_mult: 0
  }
  convolution_param {
    num_output: 64
    pad: 0
    kernel_size: 2
    stride: 2
    weight_filler {
      type: "msra"
    }
  }
  fixed_param {
    fixed_method: DIFF_S
    bit_width: 8
  }
}
layer {
  name: "relu_u0a"
  type: "ReLU"
  bottom: "u0a"
  top: "u0a"
}
layer {
  name: "concat_d0cc_u0a-b"
  type: "Concat"
  bottom: "u0a"
  bottom: "d0c"
  top: "u0b"
}
layer {
  name: "u0b_fixed"
  type: "FixedNeuron"
  bottom: "u0b"
  top: "u0b"
  param {
    lr_mult: 0
    decay_mult: 0
  }
  fixed_param {
    fixed_method: DIFF_S
    bit_width: 8
  }
}
layer {
  name: "conv_u0b-c_New"
  type: "ConvolutionFixed"
  bottom: "u0b"
  top: "u0c"
  param {
    lr_mult: 1
    decay_mult: 1
  }
  param {
    lr_mult: 2
    decay_mult: 0
  }
  convolution_param {
    num_output: 64
    pad: 1
    kernel_size: 3
    weight_filler {
      type: "msra"
    }
  }
  fixed_param {
    fixed_method: DIFF_S
    bit_width: 8
  }
}
layer {
  name: "relu_u0c"
  type: "ReLU"
  bottom: "u0c"
  top: "u0c"
}
layer {
  name: "u0c_fixed"
  type: "FixedNeuron"
  bottom: "u0c"
  top: "u0c"
  param {
    lr_mult: 0
    decay_mult: 0
  }
  fixed_param {
    fixed_method: DIFF_S
    bit_width: 8
  }
}
layer {
  name: "conv_u0c-d_New"
  type: "ConvolutionFixed"
  bottom: "u0c"
  top: "u0d"
  param {
    lr_mult: 1
    decay_mult: 1
  }
  param {
    lr_mult: 2
    decay_mult: 0
  }
  convolution_param {
    num_output: 64
    pad: 1
    kernel_size: 3
    weight_filler {
      type: "msra"
    }
  }
  fixed_param {
    fixed_method: DIFF_S
    bit_width: 8
  }
}
layer {
  name: "relu_u0d"
  type: "ReLU"
  bottom: "u0d"
  top: "u0d"
}
layer {
  name: "u0d_fixed"
  type: "FixedNeuron"
  bottom: "u0d"
  top: "u0d"
  param {
    lr_mult: 0
    decay_mult: 0
  }
  fixed_param {
    fixed_method: DIFF_S
    bit_width: 8
  }
}
layer {
  name: "conv_u0d-score_New"
  type: "ConvolutionFixed"
  bottom: "u0d"
  top: "conv_u0d-score_New"
  param {
    lr_mult: 1
    decay_mult: 1
  }
  param {
    lr_mult: 2
    decay_mult: 0
  }
  convolution_param {
    num_output: 19
    pad: 0
    kernel_size: 1
    weight_filler {
      type: "msra"
    }
  }
  fixed_param {
    fixed_method: DIFF_S
    bit_width: 8
  }
}
layer {
  name: "conv_u0d-score_New_fixed"
  type: "FixedNeuron"
  bottom: "conv_u0d-score_New"
  top: "conv_u0d-score_New"
  param {
    lr_mult: 0
    decay_mult: 0
  }
  fixed_param {
    fixed_method: DIFF_S
    bit_width: 8
  }
}
layer {
  name: "score"
  type: "Softmax"
  bottom: "conv_u0d-score_New"
  top: "score"
}
layer {
  name: "accuracy"
  type: "SegmentPixelIOU"
  bottom: "score"
  bottom: "label"
  top: "segmentation_eval"
  include {
    phase: TEST
  }
}
I0716 14:40:06.919387 25179 layer_factory.hpp:123] Creating layer data
I0716 14:40:06.919404 25179 net.cpp:140] Creating Layer data
I0716 14:40:06.919410 25179 net.cpp:455] data -> data
I0716 14:40:06.919420 25179 net.cpp:455] data -> label
I0716 14:40:06.919428 25179 image_seg_data_layer.cpp:46] Opening file ../data/val_img_seg_nomap.txt
I0716 14:40:06.920003 25179 image_seg_data_layer.cpp:68] A total of 500 images.
I0716 14:40:06.986176 25179 image_seg_data_layer.cpp:97] output data size: 1,3,1024,2048
I0716 14:40:07.127838 25179 internal_thread.cpp:73] Starting internal thread(s) on GPU 0
I0716 14:40:07.128047 25179 net.cpp:190] Setting up data
I0716 14:40:07.128059 25179 net.cpp:197] Top shape: 1 3 1024 2048 (6291456)
I0716 14:40:07.128064 25179 net.cpp:197] Top shape: 1 1 1024 2048 (2097152)
I0716 14:40:07.128067 25179 net.cpp:205] Memory required for data: 33554432
I0716 14:40:07.128073 25179 layer_factory.hpp:123] Creating layer resize_down
I0716 14:40:07.128084 25179 net.cpp:140] Creating Layer resize_down
I0716 14:40:07.128088 25179 net.cpp:481] resize_down <- data
I0716 14:40:07.128095 25179 net.cpp:442] resize_down -> data (in-place)
I0716 14:40:07.128105 25179 net.cpp:190] Setting up resize_down
I0716 14:40:07.128109 25179 net.cpp:197] Top shape: 1 3 512 1024 (1572864)
I0716 14:40:07.128113 25179 net.cpp:205] Memory required for data: 39845888
I0716 14:40:07.128115 25179 layer_factory.hpp:123] Creating layer data_fixed
I0716 14:40:07.128121 25179 net.cpp:140] Creating Layer data_fixed
I0716 14:40:07.128124 25179 net.cpp:481] data_fixed <- data
I0716 14:40:07.128129 25179 net.cpp:442] data_fixed -> data (in-place)
I0716 14:40:07.128281 25179 net.cpp:190] Setting up data_fixed
I0716 14:40:07.128288 25179 net.cpp:197] Top shape: 1 3 512 1024 (1572864)
I0716 14:40:07.128291 25179 net.cpp:205] Memory required for data: 46137344
I0716 14:40:07.128299 25179 layer_factory.hpp:123] Creating layer conv_d0a-b
I0716 14:40:07.128310 25179 net.cpp:140] Creating Layer conv_d0a-b
I0716 14:40:07.128314 25179 net.cpp:481] conv_d0a-b <- data
I0716 14:40:07.128319 25179 net.cpp:455] conv_d0a-b -> d0b
I0716 14:40:07.128652 25179 layer_factory.hpp:123] Creating layer conv_d0a-b
I0716 14:40:07.130978 25179 net.cpp:190] Setting up conv_d0a-b
I0716 14:40:07.130991 25179 net.cpp:197] Top shape: 1 64 512 1024 (33554432)
I0716 14:40:07.130995 25179 net.cpp:205] Memory required for data: 180355072
I0716 14:40:07.131003 25179 layer_factory.hpp:123] Creating layer relu_d0b
I0716 14:40:07.131011 25179 net.cpp:140] Creating Layer relu_d0b
I0716 14:40:07.131014 25179 net.cpp:481] relu_d0b <- d0b
I0716 14:40:07.131019 25179 net.cpp:455] relu_d0b -> relu_d0b
I0716 14:40:07.131053 25179 net.cpp:190] Setting up relu_d0b
I0716 14:40:07.131063 25179 net.cpp:197] Top shape: 1 64 512 1024 (33554432)
I0716 14:40:07.131067 25179 net.cpp:205] Memory required for data: 314572800
I0716 14:40:07.131069 25179 layer_factory.hpp:123] Creating layer relu_d0b_fixed
I0716 14:40:07.131074 25179 net.cpp:140] Creating Layer relu_d0b_fixed
I0716 14:40:07.131078 25179 net.cpp:481] relu_d0b_fixed <- relu_d0b
I0716 14:40:07.131083 25179 net.cpp:442] relu_d0b_fixed -> relu_d0b (in-place)
I0716 14:40:07.131119 25179 net.cpp:190] Setting up relu_d0b_fixed
I0716 14:40:07.131124 25179 net.cpp:197] Top shape: 1 64 512 1024 (33554432)
I0716 14:40:07.131127 25179 net.cpp:205] Memory required for data: 448790528
I0716 14:40:07.131132 25179 layer_factory.hpp:123] Creating layer conv_d0b-c
I0716 14:40:07.131141 25179 net.cpp:140] Creating Layer conv_d0b-c
I0716 14:40:07.131145 25179 net.cpp:481] conv_d0b-c <- relu_d0b
I0716 14:40:07.131150 25179 net.cpp:455] conv_d0b-c -> d0c
I0716 14:40:07.131669 25179 layer_factory.hpp:123] Creating layer conv_d0b-c
I0716 14:40:07.141290 25179 net.cpp:190] Setting up conv_d0b-c
I0716 14:40:07.141305 25179 net.cpp:197] Top shape: 1 64 512 1024 (33554432)
I0716 14:40:07.141309 25179 net.cpp:205] Memory required for data: 583008256
I0716 14:40:07.141319 25179 layer_factory.hpp:123] Creating layer d0c_fixed
I0716 14:40:07.141326 25179 net.cpp:140] Creating Layer d0c_fixed
I0716 14:40:07.141330 25179 net.cpp:481] d0c_fixed <- d0c
I0716 14:40:07.141335 25179 net.cpp:442] d0c_fixed -> d0c (in-place)
I0716 14:40:07.141382 25179 net.cpp:190] Setting up d0c_fixed
I0716 14:40:07.141388 25179 net.cpp:197] Top shape: 1 64 512 1024 (33554432)
I0716 14:40:07.141391 25179 net.cpp:205] Memory required for data: 717225984
I0716 14:40:07.141396 25179 layer_factory.hpp:123] Creating layer d0c_d0c_fixed_0_split
I0716 14:40:07.141403 25179 net.cpp:140] Creating Layer d0c_d0c_fixed_0_split
I0716 14:40:07.141407 25179 net.cpp:481] d0c_d0c_fixed_0_split <- d0c
I0716 14:40:07.141412 25179 net.cpp:455] d0c_d0c_fixed_0_split -> d0c_d0c_fixed_0_split_0
I0716 14:40:07.141418 25179 net.cpp:455] d0c_d0c_fixed_0_split -> d0c_d0c_fixed_0_split_1
I0716 14:40:07.141456 25179 net.cpp:190] Setting up d0c_d0c_fixed_0_split
I0716 14:40:07.141463 25179 net.cpp:197] Top shape: 1 64 512 1024 (33554432)
I0716 14:40:07.141466 25179 net.cpp:197] Top shape: 1 64 512 1024 (33554432)
I0716 14:40:07.141469 25179 net.cpp:205] Memory required for data: 985661440
I0716 14:40:07.141472 25179 layer_factory.hpp:123] Creating layer BatchNorm_d0c
I0716 14:40:07.141479 25179 net.cpp:140] Creating Layer BatchNorm_d0c
I0716 14:40:07.141482 25179 net.cpp:481] BatchNorm_d0c <- d0c_d0c_fixed_0_split_0
I0716 14:40:07.141487 25179 net.cpp:455] BatchNorm_d0c -> BatchNorm_d0c
I0716 14:40:07.141530 25179 layer_factory.hpp:123] Creating layer BatchNorm_d0c
I0716 14:40:07.142662 25179 layer_factory.hpp:123] Creating layer BatchNorm_d0c
I0716 14:40:07.142716 25179 layer_factory.hpp:123] Creating layer BatchNorm_d0c
I0716 14:40:07.145701 25179 net.cpp:190] Setting up BatchNorm_d0c
I0716 14:40:07.145714 25179 net.cpp:197] Top shape: 1 64 512 1024 (33554432)
I0716 14:40:07.145716 25179 net.cpp:205] Memory required for data: 1119879168
I0716 14:40:07.145725 25179 layer_factory.hpp:123] Creating layer relu_d0c
I0716 14:40:07.145732 25179 net.cpp:140] Creating Layer relu_d0c
I0716 14:40:07.145735 25179 net.cpp:481] relu_d0c <- BatchNorm_d0c
I0716 14:40:07.145740 25179 net.cpp:455] relu_d0c -> relu_d0c
I0716 14:40:07.145774 25179 net.cpp:190] Setting up relu_d0c
I0716 14:40:07.145781 25179 net.cpp:197] Top shape: 1 64 512 1024 (33554432)
I0716 14:40:07.145783 25179 net.cpp:205] Memory required for data: 1254096896
I0716 14:40:07.145787 25179 layer_factory.hpp:123] Creating layer pool_d0c-1a
I0716 14:40:07.145792 25179 net.cpp:140] Creating Layer pool_d0c-1a
I0716 14:40:07.145795 25179 net.cpp:481] pool_d0c-1a <- relu_d0c
I0716 14:40:07.145799 25179 net.cpp:455] pool_d0c-1a -> d1a
I0716 14:40:07.145838 25179 net.cpp:190] Setting up pool_d0c-1a
I0716 14:40:07.145844 25179 net.cpp:197] Top shape: 1 64 256 512 (8388608)
I0716 14:40:07.145848 25179 net.cpp:205] Memory required for data: 1287651328
I0716 14:40:07.145850 25179 layer_factory.hpp:123] Creating layer d1a_fixed
I0716 14:40:07.145855 25179 net.cpp:140] Creating Layer d1a_fixed
I0716 14:40:07.145859 25179 net.cpp:481] d1a_fixed <- d1a
I0716 14:40:07.145864 25179 net.cpp:442] d1a_fixed -> d1a (in-place)
I0716 14:40:07.145900 25179 net.cpp:190] Setting up d1a_fixed
I0716 14:40:07.145905 25179 net.cpp:197] Top shape: 1 64 256 512 (8388608)
I0716 14:40:07.145908 25179 net.cpp:205] Memory required for data: 1321205760
I0716 14:40:07.145912 25179 layer_factory.hpp:123] Creating layer conv_d1a-b
I0716 14:40:07.145920 25179 net.cpp:140] Creating Layer conv_d1a-b
I0716 14:40:07.145923 25179 net.cpp:481] conv_d1a-b <- d1a
I0716 14:40:07.145928 25179 net.cpp:455] conv_d1a-b -> d1b
I0716 14:40:07.146785 25179 layer_factory.hpp:123] Creating layer conv_d1a-b
I0716 14:40:07.148602 25179 net.cpp:190] Setting up conv_d1a-b
I0716 14:40:07.148615 25179 net.cpp:197] Top shape: 1 128 256 512 (16777216)
I0716 14:40:07.148618 25179 net.cpp:205] Memory required for data: 1388314624
I0716 14:40:07.148624 25179 layer_factory.hpp:123] Creating layer relu_d1b
I0716 14:40:07.148629 25179 net.cpp:140] Creating Layer relu_d1b
I0716 14:40:07.148633 25179 net.cpp:481] relu_d1b <- d1b
I0716 14:40:07.148638 25179 net.cpp:455] relu_d1b -> relu_d1b
I0716 14:40:07.148666 25179 net.cpp:190] Setting up relu_d1b
I0716 14:40:07.148671 25179 net.cpp:197] Top shape: 1 128 256 512 (16777216)
I0716 14:40:07.148674 25179 net.cpp:205] Memory required for data: 1455423488
I0716 14:40:07.148677 25179 layer_factory.hpp:123] Creating layer relu_d1b_fixed
I0716 14:40:07.148682 25179 net.cpp:140] Creating Layer relu_d1b_fixed
I0716 14:40:07.148685 25179 net.cpp:481] relu_d1b_fixed <- relu_d1b
I0716 14:40:07.148689 25179 net.cpp:442] relu_d1b_fixed -> relu_d1b (in-place)
I0716 14:40:07.148725 25179 net.cpp:190] Setting up relu_d1b_fixed
I0716 14:40:07.148731 25179 net.cpp:197] Top shape: 1 128 256 512 (16777216)
I0716 14:40:07.148735 25179 net.cpp:205] Memory required for data: 1522532352
I0716 14:40:07.148738 25179 layer_factory.hpp:123] Creating layer conv_d1b-c
I0716 14:40:07.148747 25179 net.cpp:140] Creating Layer conv_d1b-c
I0716 14:40:07.148753 25179 net.cpp:481] conv_d1b-c <- relu_d1b
I0716 14:40:07.148758 25179 net.cpp:455] conv_d1b-c -> d1c
I0716 14:40:07.150895 25179 layer_factory.hpp:123] Creating layer conv_d1b-c
I0716 14:40:07.153331 25179 net.cpp:190] Setting up conv_d1b-c
I0716 14:40:07.153342 25179 net.cpp:197] Top shape: 1 128 256 512 (16777216)
I0716 14:40:07.153345 25179 net.cpp:205] Memory required for data: 1589641216
I0716 14:40:07.153352 25179 layer_factory.hpp:123] Creating layer d1c_fixed
I0716 14:40:07.153357 25179 net.cpp:140] Creating Layer d1c_fixed
I0716 14:40:07.153360 25179 net.cpp:481] d1c_fixed <- d1c
I0716 14:40:07.153365 25179 net.cpp:442] d1c_fixed -> d1c (in-place)
I0716 14:40:07.153405 25179 net.cpp:190] Setting up d1c_fixed
I0716 14:40:07.153414 25179 net.cpp:197] Top shape: 1 128 256 512 (16777216)
I0716 14:40:07.153417 25179 net.cpp:205] Memory required for data: 1656750080
I0716 14:40:07.153421 25179 layer_factory.hpp:123] Creating layer d1c_d1c_fixed_0_split
I0716 14:40:07.153426 25179 net.cpp:140] Creating Layer d1c_d1c_fixed_0_split
I0716 14:40:07.153429 25179 net.cpp:481] d1c_d1c_fixed_0_split <- d1c
I0716 14:40:07.153434 25179 net.cpp:455] d1c_d1c_fixed_0_split -> d1c_d1c_fixed_0_split_0
I0716 14:40:07.153440 25179 net.cpp:455] d1c_d1c_fixed_0_split -> d1c_d1c_fixed_0_split_1
I0716 14:40:07.153478 25179 net.cpp:190] Setting up d1c_d1c_fixed_0_split
I0716 14:40:07.153484 25179 net.cpp:197] Top shape: 1 128 256 512 (16777216)
I0716 14:40:07.153488 25179 net.cpp:197] Top shape: 1 128 256 512 (16777216)
I0716 14:40:07.153491 25179 net.cpp:205] Memory required for data: 1790967808
I0716 14:40:07.153493 25179 layer_factory.hpp:123] Creating layer BatchNorm_d1c
I0716 14:40:07.153501 25179 net.cpp:140] Creating Layer BatchNorm_d1c
I0716 14:40:07.153503 25179 net.cpp:481] BatchNorm_d1c <- d1c_d1c_fixed_0_split_0
I0716 14:40:07.153508 25179 net.cpp:455] BatchNorm_d1c -> BatchNorm_d1c
I0716 14:40:07.153546 25179 layer_factory.hpp:123] Creating layer BatchNorm_d1c
I0716 14:40:07.153679 25179 layer_factory.hpp:123] Creating layer BatchNorm_d1c
I0716 14:40:07.153723 25179 layer_factory.hpp:123] Creating layer BatchNorm_d1c
I0716 14:40:07.154762 25179 net.cpp:190] Setting up BatchNorm_d1c
I0716 14:40:07.154774 25179 net.cpp:197] Top shape: 1 128 256 512 (16777216)
I0716 14:40:07.154778 25179 net.cpp:205] Memory required for data: 1858076672
I0716 14:40:07.154788 25179 layer_factory.hpp:123] Creating layer relu_d1c
I0716 14:40:07.154793 25179 net.cpp:140] Creating Layer relu_d1c
I0716 14:40:07.154796 25179 net.cpp:481] relu_d1c <- BatchNorm_d1c
I0716 14:40:07.154803 25179 net.cpp:455] relu_d1c -> relu_d1c
I0716 14:40:07.154832 25179 net.cpp:190] Setting up relu_d1c
I0716 14:40:07.154837 25179 net.cpp:197] Top shape: 1 128 256 512 (16777216)
I0716 14:40:07.154840 25179 net.cpp:205] Memory required for data: 1925185536
I0716 14:40:07.154844 25179 layer_factory.hpp:123] Creating layer pool_d1c-2a
I0716 14:40:07.154850 25179 net.cpp:140] Creating Layer pool_d1c-2a
I0716 14:40:07.154853 25179 net.cpp:481] pool_d1c-2a <- relu_d1c
I0716 14:40:07.154858 25179 net.cpp:455] pool_d1c-2a -> d2a
I0716 14:40:07.154896 25179 net.cpp:190] Setting up pool_d1c-2a
I0716 14:40:07.154903 25179 net.cpp:197] Top shape: 1 128 128 256 (4194304)
I0716 14:40:07.154906 25179 net.cpp:205] Memory required for data: 1941962752
I0716 14:40:07.154909 25179 layer_factory.hpp:123] Creating layer d2a_fixed
I0716 14:40:07.154914 25179 net.cpp:140] Creating Layer d2a_fixed
I0716 14:40:07.154917 25179 net.cpp:481] d2a_fixed <- d2a
I0716 14:40:07.154922 25179 net.cpp:442] d2a_fixed -> d2a (in-place)
I0716 14:40:07.154959 25179 net.cpp:190] Setting up d2a_fixed
I0716 14:40:07.154965 25179 net.cpp:197] Top shape: 1 128 128 256 (4194304)
I0716 14:40:07.154968 25179 net.cpp:205] Memory required for data: 1958739968
I0716 14:40:07.154973 25179 layer_factory.hpp:123] Creating layer conv_d2a-b
I0716 14:40:07.154980 25179 net.cpp:140] Creating Layer conv_d2a-b
I0716 14:40:07.154983 25179 net.cpp:481] conv_d2a-b <- d2a
I0716 14:40:07.154989 25179 net.cpp:455] conv_d2a-b -> d2b
I0716 14:40:07.159099 25179 layer_factory.hpp:123] Creating layer conv_d2a-b
I0716 14:40:07.164811 25179 net.cpp:190] Setting up conv_d2a-b
I0716 14:40:07.164824 25179 net.cpp:197] Top shape: 1 256 128 256 (8388608)
I0716 14:40:07.164829 25179 net.cpp:205] Memory required for data: 1992294400
I0716 14:40:07.164834 25179 layer_factory.hpp:123] Creating layer relu_d2b
I0716 14:40:07.164839 25179 net.cpp:140] Creating Layer relu_d2b
I0716 14:40:07.164844 25179 net.cpp:481] relu_d2b <- d2b
I0716 14:40:07.164849 25179 net.cpp:455] relu_d2b -> relu_d2b
I0716 14:40:07.164878 25179 net.cpp:190] Setting up relu_d2b
I0716 14:40:07.164885 25179 net.cpp:197] Top shape: 1 256 128 256 (8388608)
I0716 14:40:07.164888 25179 net.cpp:205] Memory required for data: 2025848832
I0716 14:40:07.164891 25179 layer_factory.hpp:123] Creating layer relu_d2b_fixed
I0716 14:40:07.164896 25179 net.cpp:140] Creating Layer relu_d2b_fixed
I0716 14:40:07.164899 25179 net.cpp:481] relu_d2b_fixed <- relu_d2b
I0716 14:40:07.164904 25179 net.cpp:442] relu_d2b_fixed -> relu_d2b (in-place)
I0716 14:40:07.164942 25179 net.cpp:190] Setting up relu_d2b_fixed
I0716 14:40:07.164947 25179 net.cpp:197] Top shape: 1 256 128 256 (8388608)
I0716 14:40:07.164950 25179 net.cpp:205] Memory required for data: 2059403264
I0716 14:40:07.164954 25179 layer_factory.hpp:123] Creating layer conv_d2b-c
I0716 14:40:07.164963 25179 net.cpp:140] Creating Layer conv_d2b-c
I0716 14:40:07.164965 25179 net.cpp:481] conv_d2b-c <- relu_d2b
I0716 14:40:07.164970 25179 net.cpp:455] conv_d2b-c -> d2c
I0716 14:40:07.171711 25179 layer_factory.hpp:123] Creating layer conv_d2b-c
I0716 14:40:07.178663 25179 net.cpp:190] Setting up conv_d2b-c
I0716 14:40:07.178676 25179 net.cpp:197] Top shape: 1 256 128 256 (8388608)
I0716 14:40:07.178679 25179 net.cpp:205] Memory required for data: 2092957696
I0716 14:40:07.178685 25179 layer_factory.hpp:123] Creating layer d2c_fixed
I0716 14:40:07.178691 25179 net.cpp:140] Creating Layer d2c_fixed
I0716 14:40:07.178694 25179 net.cpp:481] d2c_fixed <- d2c
I0716 14:40:07.178699 25179 net.cpp:442] d2c_fixed -> d2c (in-place)
I0716 14:40:07.178740 25179 net.cpp:190] Setting up d2c_fixed
I0716 14:40:07.178746 25179 net.cpp:197] Top shape: 1 256 128 256 (8388608)
I0716 14:40:07.178750 25179 net.cpp:205] Memory required for data: 2126512128
I0716 14:40:07.178755 25179 layer_factory.hpp:123] Creating layer d2c_d2c_fixed_0_split
I0716 14:40:07.178759 25179 net.cpp:140] Creating Layer d2c_d2c_fixed_0_split
I0716 14:40:07.178762 25179 net.cpp:481] d2c_d2c_fixed_0_split <- d2c
I0716 14:40:07.178767 25179 net.cpp:455] d2c_d2c_fixed_0_split -> d2c_d2c_fixed_0_split_0
I0716 14:40:07.178773 25179 net.cpp:455] d2c_d2c_fixed_0_split -> d2c_d2c_fixed_0_split_1
I0716 14:40:07.178812 25179 net.cpp:190] Setting up d2c_d2c_fixed_0_split
I0716 14:40:07.178817 25179 net.cpp:197] Top shape: 1 256 128 256 (8388608)
I0716 14:40:07.178822 25179 net.cpp:197] Top shape: 1 256 128 256 (8388608)
I0716 14:40:07.178823 25179 net.cpp:205] Memory required for data: 2193620992
I0716 14:40:07.178827 25179 layer_factory.hpp:123] Creating layer BatchNorm_d2c
I0716 14:40:07.178833 25179 net.cpp:140] Creating Layer BatchNorm_d2c
I0716 14:40:07.178836 25179 net.cpp:481] BatchNorm_d2c <- d2c_d2c_fixed_0_split_0
I0716 14:40:07.178841 25179 net.cpp:455] BatchNorm_d2c -> BatchNorm_d2c
I0716 14:40:07.178881 25179 layer_factory.hpp:123] Creating layer BatchNorm_d2c
I0716 14:40:07.178973 25179 layer_factory.hpp:123] Creating layer BatchNorm_d2c
I0716 14:40:07.179016 25179 layer_factory.hpp:123] Creating layer BatchNorm_d2c
I0716 14:40:07.179206 25179 net.cpp:190] Setting up BatchNorm_d2c
I0716 14:40:07.179214 25179 net.cpp:197] Top shape: 1 256 128 256 (8388608)
I0716 14:40:07.179217 25179 net.cpp:205] Memory required for data: 2227175424
I0716 14:40:07.179222 25179 layer_factory.hpp:123] Creating layer relu_d2c
I0716 14:40:07.179227 25179 net.cpp:140] Creating Layer relu_d2c
I0716 14:40:07.179230 25179 net.cpp:481] relu_d2c <- BatchNorm_d2c
I0716 14:40:07.179235 25179 net.cpp:455] relu_d2c -> relu_d2c
I0716 14:40:07.179263 25179 net.cpp:190] Setting up relu_d2c
I0716 14:40:07.179270 25179 net.cpp:197] Top shape: 1 256 128 256 (8388608)
I0716 14:40:07.179272 25179 net.cpp:205] Memory required for data: 2260729856
I0716 14:40:07.179275 25179 layer_factory.hpp:123] Creating layer pool_d2c-3a
I0716 14:40:07.179281 25179 net.cpp:140] Creating Layer pool_d2c-3a
I0716 14:40:07.179284 25179 net.cpp:481] pool_d2c-3a <- relu_d2c
I0716 14:40:07.179288 25179 net.cpp:455] pool_d2c-3a -> d3a
I0716 14:40:07.179327 25179 net.cpp:190] Setting up pool_d2c-3a
I0716 14:40:07.179332 25179 net.cpp:197] Top shape: 1 256 64 128 (2097152)
I0716 14:40:07.179337 25179 net.cpp:205] Memory required for data: 2269118464
I0716 14:40:07.179338 25179 layer_factory.hpp:123] Creating layer d3a_fixed
I0716 14:40:07.179345 25179 net.cpp:140] Creating Layer d3a_fixed
I0716 14:40:07.179348 25179 net.cpp:481] d3a_fixed <- d3a
I0716 14:40:07.179353 25179 net.cpp:442] d3a_fixed -> d3a (in-place)
I0716 14:40:07.179388 25179 net.cpp:190] Setting up d3a_fixed
I0716 14:40:07.179395 25179 net.cpp:197] Top shape: 1 256 64 128 (2097152)
I0716 14:40:07.179397 25179 net.cpp:205] Memory required for data: 2277507072
I0716 14:40:07.179401 25179 layer_factory.hpp:123] Creating layer conv_d3a-b
I0716 14:40:07.179409 25179 net.cpp:140] Creating Layer conv_d3a-b
I0716 14:40:07.179412 25179 net.cpp:481] conv_d3a-b <- d3a
I0716 14:40:07.179417 25179 net.cpp:455] conv_d3a-b -> d3b
I0716 14:40:07.192344 25179 layer_factory.hpp:123] Creating layer conv_d3a-b
I0716 14:40:07.206293 25179 net.cpp:190] Setting up conv_d3a-b
I0716 14:40:07.206310 25179 net.cpp:197] Top shape: 1 512 64 128 (4194304)
I0716 14:40:07.206315 25179 net.cpp:205] Memory required for data: 2294284288
I0716 14:40:07.206321 25179 layer_factory.hpp:123] Creating layer relu_d3b
I0716 14:40:07.206327 25179 net.cpp:140] Creating Layer relu_d3b
I0716 14:40:07.206332 25179 net.cpp:481] relu_d3b <- d3b
I0716 14:40:07.206338 25179 net.cpp:455] relu_d3b -> relu_d3b
I0716 14:40:07.206368 25179 net.cpp:190] Setting up relu_d3b
I0716 14:40:07.206375 25179 net.cpp:197] Top shape: 1 512 64 128 (4194304)
I0716 14:40:07.206378 25179 net.cpp:205] Memory required for data: 2311061504
I0716 14:40:07.206382 25179 layer_factory.hpp:123] Creating layer relu_d3b_fixed
I0716 14:40:07.206387 25179 net.cpp:140] Creating Layer relu_d3b_fixed
I0716 14:40:07.206389 25179 net.cpp:481] relu_d3b_fixed <- relu_d3b
I0716 14:40:07.206394 25179 net.cpp:442] relu_d3b_fixed -> relu_d3b (in-place)
I0716 14:40:07.206431 25179 net.cpp:190] Setting up relu_d3b_fixed
I0716 14:40:07.206437 25179 net.cpp:197] Top shape: 1 512 64 128 (4194304)
I0716 14:40:07.206441 25179 net.cpp:205] Memory required for data: 2327838720
I0716 14:40:07.206445 25179 layer_factory.hpp:123] Creating layer conv_d3b-c
I0716 14:40:07.206454 25179 net.cpp:140] Creating Layer conv_d3b-c
I0716 14:40:07.206457 25179 net.cpp:481] conv_d3b-c <- relu_d3b
I0716 14:40:07.206462 25179 net.cpp:455] conv_d3b-c -> d3c
I0716 14:40:07.240586 25179 layer_factory.hpp:123] Creating layer conv_d3b-c
I0716 14:40:07.267890 25179 net.cpp:190] Setting up conv_d3b-c
I0716 14:40:07.267915 25179 net.cpp:197] Top shape: 1 512 64 128 (4194304)
I0716 14:40:07.267917 25179 net.cpp:205] Memory required for data: 2344615936
I0716 14:40:07.267931 25179 layer_factory.hpp:123] Creating layer d3c_fixed
I0716 14:40:07.267940 25179 net.cpp:140] Creating Layer d3c_fixed
I0716 14:40:07.267946 25179 net.cpp:481] d3c_fixed <- d3c
I0716 14:40:07.267951 25179 net.cpp:442] d3c_fixed -> d3c (in-place)
I0716 14:40:07.267994 25179 net.cpp:190] Setting up d3c_fixed
I0716 14:40:07.268007 25179 net.cpp:197] Top shape: 1 512 64 128 (4194304)
I0716 14:40:07.268009 25179 net.cpp:205] Memory required for data: 2361393152
I0716 14:40:07.268013 25179 layer_factory.hpp:123] Creating layer d3c_d3c_fixed_0_split
I0716 14:40:07.268019 25179 net.cpp:140] Creating Layer d3c_d3c_fixed_0_split
I0716 14:40:07.268023 25179 net.cpp:481] d3c_d3c_fixed_0_split <- d3c
I0716 14:40:07.268028 25179 net.cpp:455] d3c_d3c_fixed_0_split -> d3c_d3c_fixed_0_split_0
I0716 14:40:07.268034 25179 net.cpp:455] d3c_d3c_fixed_0_split -> d3c_d3c_fixed_0_split_1
I0716 14:40:07.268074 25179 net.cpp:190] Setting up d3c_d3c_fixed_0_split
I0716 14:40:07.268079 25179 net.cpp:197] Top shape: 1 512 64 128 (4194304)
I0716 14:40:07.268085 25179 net.cpp:197] Top shape: 1 512 64 128 (4194304)
I0716 14:40:07.268086 25179 net.cpp:205] Memory required for data: 2394947584
I0716 14:40:07.268090 25179 layer_factory.hpp:123] Creating layer BatchNorm_1
I0716 14:40:07.268097 25179 net.cpp:140] Creating Layer BatchNorm_1
I0716 14:40:07.268100 25179 net.cpp:481] BatchNorm_1 <- d3c_d3c_fixed_0_split_0
I0716 14:40:07.268106 25179 net.cpp:455] BatchNorm_1 -> BatchNorm_1
I0716 14:40:07.268146 25179 layer_factory.hpp:123] Creating layer BatchNorm_1
I0716 14:40:07.268229 25179 layer_factory.hpp:123] Creating layer BatchNorm_1
I0716 14:40:07.268267 25179 layer_factory.hpp:123] Creating layer BatchNorm_1
I0716 14:40:07.268414 25179 net.cpp:190] Setting up BatchNorm_1
I0716 14:40:07.268421 25179 net.cpp:197] Top shape: 1 512 64 128 (4194304)
I0716 14:40:07.268424 25179 net.cpp:205] Memory required for data: 2411724800
I0716 14:40:07.268429 25179 layer_factory.hpp:123] Creating layer relu_d3c
I0716 14:40:07.268435 25179 net.cpp:140] Creating Layer relu_d3c
I0716 14:40:07.268440 25179 net.cpp:481] relu_d3c <- BatchNorm_1
I0716 14:40:07.268445 25179 net.cpp:455] relu_d3c -> relu_d3c
I0716 14:40:07.268472 25179 net.cpp:190] Setting up relu_d3c
I0716 14:40:07.268478 25179 net.cpp:197] Top shape: 1 512 64 128 (4194304)
I0716 14:40:07.268481 25179 net.cpp:205] Memory required for data: 2428502016
I0716 14:40:07.268484 25179 layer_factory.hpp:123] Creating layer pool_d3c-4a
I0716 14:40:07.268491 25179 net.cpp:140] Creating Layer pool_d3c-4a
I0716 14:40:07.268493 25179 net.cpp:481] pool_d3c-4a <- relu_d3c
I0716 14:40:07.268498 25179 net.cpp:455] pool_d3c-4a -> d4a
I0716 14:40:07.268537 25179 net.cpp:190] Setting up pool_d3c-4a
I0716 14:40:07.268543 25179 net.cpp:197] Top shape: 1 512 32 64 (1048576)
I0716 14:40:07.268546 25179 net.cpp:205] Memory required for data: 2432696320
I0716 14:40:07.268549 25179 layer_factory.hpp:123] Creating layer d4a_fixed
I0716 14:40:07.268554 25179 net.cpp:140] Creating Layer d4a_fixed
I0716 14:40:07.268558 25179 net.cpp:481] d4a_fixed <- d4a
I0716 14:40:07.268563 25179 net.cpp:442] d4a_fixed -> d4a (in-place)
I0716 14:40:07.268599 25179 net.cpp:190] Setting up d4a_fixed
I0716 14:40:07.268604 25179 net.cpp:197] Top shape: 1 512 32 64 (1048576)
I0716 14:40:07.268607 25179 net.cpp:205] Memory required for data: 2436890624
I0716 14:40:07.268612 25179 layer_factory.hpp:123] Creating layer conv_d4a-b
I0716 14:40:07.268621 25179 net.cpp:140] Creating Layer conv_d4a-b
I0716 14:40:07.268625 25179 net.cpp:481] conv_d4a-b <- d4a
I0716 14:40:07.268630 25179 net.cpp:455] conv_d4a-b -> BatchNorm_2
I0716 14:40:07.319999 25179 layer_factory.hpp:123] Creating layer conv_d4a-b
I0716 14:40:07.372570 25179 net.cpp:190] Setting up conv_d4a-b
I0716 14:40:07.372592 25179 net.cpp:197] Top shape: 1 1024 32 64 (2097152)
I0716 14:40:07.372596 25179 net.cpp:205] Memory required for data: 2445279232
I0716 14:40:07.372603 25179 layer_factory.hpp:123] Creating layer relu_d4b
I0716 14:40:07.372612 25179 net.cpp:140] Creating Layer relu_d4b
I0716 14:40:07.372617 25179 net.cpp:481] relu_d4b <- BatchNorm_2
I0716 14:40:07.372624 25179 net.cpp:455] relu_d4b -> relu_d4b
I0716 14:40:07.372656 25179 net.cpp:190] Setting up relu_d4b
I0716 14:40:07.372661 25179 net.cpp:197] Top shape: 1 1024 32 64 (2097152)
I0716 14:40:07.372664 25179 net.cpp:205] Memory required for data: 2453667840
I0716 14:40:07.372668 25179 layer_factory.hpp:123] Creating layer relu_d4b_fixed
I0716 14:40:07.372673 25179 net.cpp:140] Creating Layer relu_d4b_fixed
I0716 14:40:07.372676 25179 net.cpp:481] relu_d4b_fixed <- relu_d4b
I0716 14:40:07.372681 25179 net.cpp:442] relu_d4b_fixed -> relu_d4b (in-place)
I0716 14:40:07.372720 25179 net.cpp:190] Setting up relu_d4b_fixed
I0716 14:40:07.372726 25179 net.cpp:197] Top shape: 1 1024 32 64 (2097152)
I0716 14:40:07.372730 25179 net.cpp:205] Memory required for data: 2462056448
I0716 14:40:07.372733 25179 layer_factory.hpp:123] Creating layer conv_d4b-c
I0716 14:40:07.372742 25179 net.cpp:140] Creating Layer conv_d4b-c
I0716 14:40:07.372745 25179 net.cpp:481] conv_d4b-c <- relu_d4b
I0716 14:40:07.372751 25179 net.cpp:455] conv_d4b-c -> d4c
I0716 14:40:07.476320 25179 layer_factory.hpp:123] Creating layer conv_d4b-c
I0716 14:40:07.579896 25179 net.cpp:190] Setting up conv_d4b-c
I0716 14:40:07.579922 25179 net.cpp:197] Top shape: 1 1024 32 64 (2097152)
I0716 14:40:07.579926 25179 net.cpp:205] Memory required for data: 2470445056
I0716 14:40:07.579934 25179 layer_factory.hpp:123] Creating layer relu_d4c
I0716 14:40:07.579942 25179 net.cpp:140] Creating Layer relu_d4c
I0716 14:40:07.579947 25179 net.cpp:481] relu_d4c <- d4c
I0716 14:40:07.579955 25179 net.cpp:455] relu_d4c -> relu_d4c
I0716 14:40:07.579988 25179 net.cpp:190] Setting up relu_d4c
I0716 14:40:07.579993 25179 net.cpp:197] Top shape: 1 1024 32 64 (2097152)
I0716 14:40:07.579996 25179 net.cpp:205] Memory required for data: 2478833664
I0716 14:40:07.580000 25179 layer_factory.hpp:123] Creating layer relu_d4c_fixed
I0716 14:40:07.580005 25179 net.cpp:140] Creating Layer relu_d4c_fixed
I0716 14:40:07.580008 25179 net.cpp:481] relu_d4c_fixed <- relu_d4c
I0716 14:40:07.580013 25179 net.cpp:442] relu_d4c_fixed -> relu_d4c (in-place)
I0716 14:40:07.580055 25179 net.cpp:190] Setting up relu_d4c_fixed
I0716 14:40:07.580061 25179 net.cpp:197] Top shape: 1 1024 32 64 (2097152)
I0716 14:40:07.580065 25179 net.cpp:205] Memory required for data: 2487222272
I0716 14:40:07.580068 25179 layer_factory.hpp:123] Creating layer upconv_d4c_u3a
I0716 14:40:07.580076 25179 net.cpp:140] Creating Layer upconv_d4c_u3a
I0716 14:40:07.580080 25179 net.cpp:481] upconv_d4c_u3a <- relu_d4c
I0716 14:40:07.580085 25179 net.cpp:455] upconv_d4c_u3a -> u3a
I0716 14:40:07.602603 25179 layer_factory.hpp:123] Creating layer upconv_d4c_u3a
I0716 14:40:07.625120 25179 net.cpp:190] Setting up upconv_d4c_u3a
I0716 14:40:07.625155 25179 net.cpp:197] Top shape: 1 512 64 128 (4194304)
I0716 14:40:07.625159 25179 net.cpp:205] Memory required for data: 2503999488
I0716 14:40:07.625166 25179 layer_factory.hpp:123] Creating layer relu_u3a
I0716 14:40:07.625175 25179 net.cpp:140] Creating Layer relu_u3a
I0716 14:40:07.625180 25179 net.cpp:481] relu_u3a <- u3a
I0716 14:40:07.625185 25179 net.cpp:442] relu_u3a -> u3a (in-place)
I0716 14:40:07.625195 25179 net.cpp:190] Setting up relu_u3a
I0716 14:40:07.625198 25179 net.cpp:197] Top shape: 1 512 64 128 (4194304)
I0716 14:40:07.625201 25179 net.cpp:205] Memory required for data: 2520776704
I0716 14:40:07.625205 25179 layer_factory.hpp:123] Creating layer concat_d3cc_u3a-b
I0716 14:40:07.625210 25179 net.cpp:140] Creating Layer concat_d3cc_u3a-b
I0716 14:40:07.625212 25179 net.cpp:481] concat_d3cc_u3a-b <- u3a
I0716 14:40:07.625217 25179 net.cpp:481] concat_d3cc_u3a-b <- d3c_d3c_fixed_0_split_1
I0716 14:40:07.625222 25179 net.cpp:455] concat_d3cc_u3a-b -> u3b
I0716 14:40:07.625254 25179 net.cpp:190] Setting up concat_d3cc_u3a-b
I0716 14:40:07.625262 25179 net.cpp:197] Top shape: 1 1024 64 128 (8388608)
I0716 14:40:07.625264 25179 net.cpp:205] Memory required for data: 2554331136
I0716 14:40:07.625267 25179 layer_factory.hpp:123] Creating layer u3b_fixed
I0716 14:40:07.625272 25179 net.cpp:140] Creating Layer u3b_fixed
I0716 14:40:07.625277 25179 net.cpp:481] u3b_fixed <- u3b
I0716 14:40:07.625280 25179 net.cpp:442] u3b_fixed -> u3b (in-place)
I0716 14:40:07.625320 25179 net.cpp:190] Setting up u3b_fixed
I0716 14:40:07.625326 25179 net.cpp:197] Top shape: 1 1024 64 128 (8388608)
I0716 14:40:07.625330 25179 net.cpp:205] Memory required for data: 2587885568
I0716 14:40:07.625334 25179 layer_factory.hpp:123] Creating layer conv_u3b-c
I0716 14:40:07.625344 25179 net.cpp:140] Creating Layer conv_u3b-c
I0716 14:40:07.625345 25179 net.cpp:481] conv_u3b-c <- u3b
I0716 14:40:07.625351 25179 net.cpp:455] conv_u3b-c -> u3c
I0716 14:40:07.677037 25179 layer_factory.hpp:123] Creating layer conv_u3b-c
I0716 14:40:07.728420 25179 net.cpp:190] Setting up conv_u3b-c
I0716 14:40:07.728449 25179 net.cpp:197] Top shape: 1 512 64 128 (4194304)
I0716 14:40:07.728456 25179 net.cpp:205] Memory required for data: 2604662784
I0716 14:40:07.728467 25179 layer_factory.hpp:123] Creating layer relu_u3c
I0716 14:40:07.728479 25179 net.cpp:140] Creating Layer relu_u3c
I0716 14:40:07.728485 25179 net.cpp:481] relu_u3c <- u3c
I0716 14:40:07.728497 25179 net.cpp:442] relu_u3c -> u3c (in-place)
I0716 14:40:07.728509 25179 net.cpp:190] Setting up relu_u3c
I0716 14:40:07.728516 25179 net.cpp:197] Top shape: 1 512 64 128 (4194304)
I0716 14:40:07.728520 25179 net.cpp:205] Memory required for data: 2621440000
I0716 14:40:07.728526 25179 layer_factory.hpp:123] Creating layer u3c_fixed
I0716 14:40:07.728535 25179 net.cpp:140] Creating Layer u3c_fixed
I0716 14:40:07.728540 25179 net.cpp:481] u3c_fixed <- u3c
I0716 14:40:07.728547 25179 net.cpp:442] u3c_fixed -> u3c (in-place)
I0716 14:40:07.728623 25179 net.cpp:190] Setting up u3c_fixed
I0716 14:40:07.728637 25179 net.cpp:197] Top shape: 1 512 64 128 (4194304)
I0716 14:40:07.728641 25179 net.cpp:205] Memory required for data: 2638217216
I0716 14:40:07.728649 25179 layer_factory.hpp:123] Creating layer conv_u3c-d
I0716 14:40:07.728664 25179 net.cpp:140] Creating Layer conv_u3c-d
I0716 14:40:07.728670 25179 net.cpp:481] conv_u3c-d <- u3c
I0716 14:40:07.728679 25179 net.cpp:455] conv_u3c-d -> u3d
I0716 14:40:07.754532 25179 layer_factory.hpp:123] Creating layer conv_u3c-d
I0716 14:40:07.779995 25179 net.cpp:190] Setting up conv_u3c-d
I0716 14:40:07.780014 25179 net.cpp:197] Top shape: 1 512 64 128 (4194304)
I0716 14:40:07.780017 25179 net.cpp:205] Memory required for data: 2654994432
I0716 14:40:07.780025 25179 layer_factory.hpp:123] Creating layer relu_u3d
I0716 14:40:07.780033 25179 net.cpp:140] Creating Layer relu_u3d
I0716 14:40:07.780038 25179 net.cpp:481] relu_u3d <- u3d
I0716 14:40:07.780045 25179 net.cpp:442] relu_u3d -> u3d (in-place)
I0716 14:40:07.780052 25179 net.cpp:190] Setting up relu_u3d
I0716 14:40:07.780056 25179 net.cpp:197] Top shape: 1 512 64 128 (4194304)
I0716 14:40:07.780059 25179 net.cpp:205] Memory required for data: 2671771648
I0716 14:40:07.780062 25179 layer_factory.hpp:123] Creating layer u3d_fixed
I0716 14:40:07.780067 25179 net.cpp:140] Creating Layer u3d_fixed
I0716 14:40:07.780071 25179 net.cpp:481] u3d_fixed <- u3d
I0716 14:40:07.780076 25179 net.cpp:442] u3d_fixed -> u3d (in-place)
I0716 14:40:07.780118 25179 net.cpp:190] Setting up u3d_fixed
I0716 14:40:07.780124 25179 net.cpp:197] Top shape: 1 512 64 128 (4194304)
I0716 14:40:07.780128 25179 net.cpp:205] Memory required for data: 2688548864
I0716 14:40:07.780133 25179 layer_factory.hpp:123] Creating layer upconv_u3d_u2a
I0716 14:40:07.780139 25179 net.cpp:140] Creating Layer upconv_u3d_u2a
I0716 14:40:07.780143 25179 net.cpp:481] upconv_u3d_u2a <- u3d
I0716 14:40:07.780148 25179 net.cpp:455] upconv_u3d_u2a -> u2a
I0716 14:40:07.791678 25179 layer_factory.hpp:123] Creating layer upconv_u3d_u2a
I0716 14:40:07.803417 25179 net.cpp:190] Setting up upconv_u3d_u2a
I0716 14:40:07.803431 25179 net.cpp:197] Top shape: 1 512 128 256 (16777216)
I0716 14:40:07.803434 25179 net.cpp:205] Memory required for data: 2755657728
I0716 14:40:07.803441 25179 layer_factory.hpp:123] Creating layer relu_u2a
I0716 14:40:07.803447 25179 net.cpp:140] Creating Layer relu_u2a
I0716 14:40:07.803449 25179 net.cpp:481] relu_u2a <- u2a
I0716 14:40:07.803455 25179 net.cpp:442] relu_u2a -> u2a (in-place)
I0716 14:40:07.803462 25179 net.cpp:190] Setting up relu_u2a
I0716 14:40:07.803467 25179 net.cpp:197] Top shape: 1 512 128 256 (16777216)
I0716 14:40:07.803469 25179 net.cpp:205] Memory required for data: 2822766592
I0716 14:40:07.803472 25179 layer_factory.hpp:123] Creating layer concat_d2cc_u2a-b
I0716 14:40:07.803478 25179 net.cpp:140] Creating Layer concat_d2cc_u2a-b
I0716 14:40:07.803480 25179 net.cpp:481] concat_d2cc_u2a-b <- u2a
I0716 14:40:07.803484 25179 net.cpp:481] concat_d2cc_u2a-b <- d2c_d2c_fixed_0_split_1
I0716 14:40:07.803489 25179 net.cpp:455] concat_d2cc_u2a-b -> u2b
I0716 14:40:07.803521 25179 net.cpp:190] Setting up concat_d2cc_u2a-b
I0716 14:40:07.803527 25179 net.cpp:197] Top shape: 1 768 128 256 (25165824)
I0716 14:40:07.803530 25179 net.cpp:205] Memory required for data: 2923429888
I0716 14:40:07.803534 25179 layer_factory.hpp:123] Creating layer u2b_fixed
I0716 14:40:07.803539 25179 net.cpp:140] Creating Layer u2b_fixed
I0716 14:40:07.803541 25179 net.cpp:481] u2b_fixed <- u2b
I0716 14:40:07.803546 25179 net.cpp:442] u2b_fixed -> u2b (in-place)
I0716 14:40:07.803588 25179 net.cpp:190] Setting up u2b_fixed
I0716 14:40:07.803596 25179 net.cpp:197] Top shape: 1 768 128 256 (25165824)
I0716 14:40:07.803598 25179 net.cpp:205] Memory required for data: 3024093184
I0716 14:40:07.803602 25179 layer_factory.hpp:123] Creating layer conv_u2b-c
I0716 14:40:07.803611 25179 net.cpp:140] Creating Layer conv_u2b-c
I0716 14:40:07.803614 25179 net.cpp:481] conv_u2b-c <- u2b
I0716 14:40:07.803619 25179 net.cpp:455] conv_u2b-c -> u2c
I0716 14:40:07.822650 25179 layer_factory.hpp:123] Creating layer conv_u2b-c
I0716 14:40:07.842741 25179 net.cpp:190] Setting up conv_u2b-c
I0716 14:40:07.842758 25179 net.cpp:197] Top shape: 1 256 128 256 (8388608)
I0716 14:40:07.842761 25179 net.cpp:205] Memory required for data: 3057647616
I0716 14:40:07.842769 25179 layer_factory.hpp:123] Creating layer relu_u2c
I0716 14:40:07.842779 25179 net.cpp:140] Creating Layer relu_u2c
I0716 14:40:07.842784 25179 net.cpp:481] relu_u2c <- u2c
I0716 14:40:07.842790 25179 net.cpp:442] relu_u2c -> u2c (in-place)
I0716 14:40:07.842798 25179 net.cpp:190] Setting up relu_u2c
I0716 14:40:07.842803 25179 net.cpp:197] Top shape: 1 256 128 256 (8388608)
I0716 14:40:07.842805 25179 net.cpp:205] Memory required for data: 3091202048
I0716 14:40:07.842808 25179 layer_factory.hpp:123] Creating layer u2c_fixed
I0716 14:40:07.842813 25179 net.cpp:140] Creating Layer u2c_fixed
I0716 14:40:07.842816 25179 net.cpp:481] u2c_fixed <- u2c
I0716 14:40:07.842820 25179 net.cpp:442] u2c_fixed -> u2c (in-place)
I0716 14:40:07.842865 25179 net.cpp:190] Setting up u2c_fixed
I0716 14:40:07.842871 25179 net.cpp:197] Top shape: 1 256 128 256 (8388608)
I0716 14:40:07.842875 25179 net.cpp:205] Memory required for data: 3124756480
I0716 14:40:07.842878 25179 layer_factory.hpp:123] Creating layer conv_u2c-d
I0716 14:40:07.842887 25179 net.cpp:140] Creating Layer conv_u2c-d
I0716 14:40:07.842890 25179 net.cpp:481] conv_u2c-d <- u2c
I0716 14:40:07.842896 25179 net.cpp:455] conv_u2c-d -> u2d
I0716 14:40:07.849584 25179 layer_factory.hpp:123] Creating layer conv_u2c-d
I0716 14:40:07.860363 25179 net.cpp:190] Setting up conv_u2c-d
I0716 14:40:07.860376 25179 net.cpp:197] Top shape: 1 256 128 256 (8388608)
I0716 14:40:07.860396 25179 net.cpp:205] Memory required for data: 3158310912
I0716 14:40:07.860402 25179 layer_factory.hpp:123] Creating layer relu_u2d
I0716 14:40:07.860409 25179 net.cpp:140] Creating Layer relu_u2d
I0716 14:40:07.860411 25179 net.cpp:481] relu_u2d <- u2d
I0716 14:40:07.860417 25179 net.cpp:442] relu_u2d -> u2d (in-place)
I0716 14:40:07.860424 25179 net.cpp:190] Setting up relu_u2d
I0716 14:40:07.860427 25179 net.cpp:197] Top shape: 1 256 128 256 (8388608)
I0716 14:40:07.860430 25179 net.cpp:205] Memory required for data: 3191865344
I0716 14:40:07.860433 25179 layer_factory.hpp:123] Creating layer u2d_fixed
I0716 14:40:07.860438 25179 net.cpp:140] Creating Layer u2d_fixed
I0716 14:40:07.860441 25179 net.cpp:481] u2d_fixed <- u2d
I0716 14:40:07.860445 25179 net.cpp:442] u2d_fixed -> u2d (in-place)
I0716 14:40:07.860489 25179 net.cpp:190] Setting up u2d_fixed
I0716 14:40:07.860496 25179 net.cpp:197] Top shape: 1 256 128 256 (8388608)
I0716 14:40:07.860500 25179 net.cpp:205] Memory required for data: 3225419776
I0716 14:40:07.860504 25179 layer_factory.hpp:123] Creating layer upconv_u2d_u1a
I0716 14:40:07.860512 25179 net.cpp:140] Creating Layer upconv_u2d_u1a
I0716 14:40:07.860515 25179 net.cpp:481] upconv_u2d_u1a <- u2d
I0716 14:40:07.860520 25179 net.cpp:455] upconv_u2d_u1a -> u1a
I0716 14:40:07.861902 25179 layer_factory.hpp:123] Creating layer upconv_u2d_u1a
I0716 14:40:07.863725 25179 net.cpp:190] Setting up upconv_u2d_u1a
I0716 14:40:07.863734 25179 net.cpp:197] Top shape: 1 128 256 512 (16777216)
I0716 14:40:07.863737 25179 net.cpp:205] Memory required for data: 3292528640
I0716 14:40:07.863742 25179 layer_factory.hpp:123] Creating layer relu_u1a
I0716 14:40:07.863747 25179 net.cpp:140] Creating Layer relu_u1a
I0716 14:40:07.863750 25179 net.cpp:481] relu_u1a <- u1a
I0716 14:40:07.863760 25179 net.cpp:442] relu_u1a -> u1a (in-place)
I0716 14:40:07.863767 25179 net.cpp:190] Setting up relu_u1a
I0716 14:40:07.863771 25179 net.cpp:197] Top shape: 1 128 256 512 (16777216)
I0716 14:40:07.863775 25179 net.cpp:205] Memory required for data: 3359637504
I0716 14:40:07.863777 25179 layer_factory.hpp:123] Creating layer concat_d1cc_u1a-b
I0716 14:40:07.863782 25179 net.cpp:140] Creating Layer concat_d1cc_u1a-b
I0716 14:40:07.863785 25179 net.cpp:481] concat_d1cc_u1a-b <- u1a
I0716 14:40:07.863790 25179 net.cpp:481] concat_d1cc_u1a-b <- d1c_d1c_fixed_0_split_1
I0716 14:40:07.863795 25179 net.cpp:455] concat_d1cc_u1a-b -> u1b
I0716 14:40:07.863826 25179 net.cpp:190] Setting up concat_d1cc_u1a-b
I0716 14:40:07.863832 25179 net.cpp:197] Top shape: 1 256 256 512 (33554432)
I0716 14:40:07.863837 25179 net.cpp:205] Memory required for data: 3493855232
I0716 14:40:07.863838 25179 layer_factory.hpp:123] Creating layer u1b_fixed
I0716 14:40:07.863843 25179 net.cpp:140] Creating Layer u1b_fixed
I0716 14:40:07.863847 25179 net.cpp:481] u1b_fixed <- u1b
I0716 14:40:07.863852 25179 net.cpp:442] u1b_fixed -> u1b (in-place)
I0716 14:40:07.863891 25179 net.cpp:190] Setting up u1b_fixed
I0716 14:40:07.863898 25179 net.cpp:197] Top shape: 1 256 256 512 (33554432)
I0716 14:40:07.863900 25179 net.cpp:205] Memory required for data: 3628072960
I0716 14:40:07.863904 25179 layer_factory.hpp:123] Creating layer conv_u1b-c
I0716 14:40:07.863911 25179 net.cpp:140] Creating Layer conv_u1b-c
I0716 14:40:07.863914 25179 net.cpp:481] conv_u1b-c <- u1b
I0716 14:40:07.863919 25179 net.cpp:455] conv_u1b-c -> u1c
I0716 14:40:07.877825 25179 layer_factory.hpp:123] Creating layer conv_u1b-c
I0716 14:40:07.884454 25179 net.cpp:190] Setting up conv_u1b-c
I0716 14:40:07.884490 25179 net.cpp:197] Top shape: 1 128 256 512 (16777216)
I0716 14:40:07.884495 25179 net.cpp:205] Memory required for data: 3695181824
I0716 14:40:07.884515 25179 layer_factory.hpp:123] Creating layer relu_u1c
I0716 14:40:07.884526 25179 net.cpp:140] Creating Layer relu_u1c
I0716 14:40:07.884531 25179 net.cpp:481] relu_u1c <- u1c
I0716 14:40:07.884541 25179 net.cpp:442] relu_u1c -> u1c (in-place)
I0716 14:40:07.884552 25179 net.cpp:190] Setting up relu_u1c
I0716 14:40:07.884557 25179 net.cpp:197] Top shape: 1 128 256 512 (16777216)
I0716 14:40:07.884562 25179 net.cpp:205] Memory required for data: 3762290688
I0716 14:40:07.884567 25179 layer_factory.hpp:123] Creating layer u1c_fixed
I0716 14:40:07.884573 25179 net.cpp:140] Creating Layer u1c_fixed
I0716 14:40:07.884578 25179 net.cpp:481] u1c_fixed <- u1c
I0716 14:40:07.884584 25179 net.cpp:442] u1c_fixed -> u1c (in-place)
I0716 14:40:07.884649 25179 net.cpp:190] Setting up u1c_fixed
I0716 14:40:07.884657 25179 net.cpp:197] Top shape: 1 128 256 512 (16777216)
I0716 14:40:07.884661 25179 net.cpp:205] Memory required for data: 3829399552
I0716 14:40:07.884666 25179 layer_factory.hpp:123] Creating layer conv_u1c-d
I0716 14:40:07.884680 25179 net.cpp:140] Creating Layer conv_u1c-d
I0716 14:40:07.884685 25179 net.cpp:481] conv_u1c-d <- u1c
I0716 14:40:07.884692 25179 net.cpp:455] conv_u1c-d -> u1d
I0716 14:40:07.886961 25179 layer_factory.hpp:123] Creating layer conv_u1c-d
I0716 14:40:07.890532 25179 net.cpp:190] Setting up conv_u1c-d
I0716 14:40:07.890547 25179 net.cpp:197] Top shape: 1 128 256 512 (16777216)
I0716 14:40:07.890550 25179 net.cpp:205] Memory required for data: 3896508416
I0716 14:40:07.890558 25179 layer_factory.hpp:123] Creating layer relu_u1d
I0716 14:40:07.890563 25179 net.cpp:140] Creating Layer relu_u1d
I0716 14:40:07.890568 25179 net.cpp:481] relu_u1d <- u1d
I0716 14:40:07.890573 25179 net.cpp:442] relu_u1d -> u1d (in-place)
I0716 14:40:07.890579 25179 net.cpp:190] Setting up relu_u1d
I0716 14:40:07.890584 25179 net.cpp:197] Top shape: 1 128 256 512 (16777216)
I0716 14:40:07.890586 25179 net.cpp:205] Memory required for data: 3963617280
I0716 14:40:07.890589 25179 layer_factory.hpp:123] Creating layer u1d_fixed
I0716 14:40:07.890594 25179 net.cpp:140] Creating Layer u1d_fixed
I0716 14:40:07.890597 25179 net.cpp:481] u1d_fixed <- u1d
I0716 14:40:07.890601 25179 net.cpp:442] u1d_fixed -> u1d (in-place)
I0716 14:40:07.890650 25179 net.cpp:190] Setting up u1d_fixed
I0716 14:40:07.890656 25179 net.cpp:197] Top shape: 1 128 256 512 (16777216)
I0716 14:40:07.890661 25179 net.cpp:205] Memory required for data: 4030726144
I0716 14:40:07.890664 25179 layer_factory.hpp:123] Creating layer upconv_u1d_u0a_NEW
I0716 14:40:07.890672 25179 net.cpp:140] Creating Layer upconv_u1d_u0a_NEW
I0716 14:40:07.890676 25179 net.cpp:481] upconv_u1d_u0a_NEW <- u1d
I0716 14:40:07.890681 25179 net.cpp:455] upconv_u1d_u0a_NEW -> u0a
I0716 14:40:07.891898 25179 layer_factory.hpp:123] Creating layer upconv_u1d_u0a_NEW
I0716 14:40:07.894668 25179 net.cpp:190] Setting up upconv_u1d_u0a_NEW
I0716 14:40:07.894681 25179 net.cpp:197] Top shape: 1 64 512 1024 (33554432)
I0716 14:40:07.894701 25179 net.cpp:205] Memory required for data: 4164943872
I0716 14:40:07.894706 25179 layer_factory.hpp:123] Creating layer relu_u0a
I0716 14:40:07.894712 25179 net.cpp:140] Creating Layer relu_u0a
I0716 14:40:07.894716 25179 net.cpp:481] relu_u0a <- u0a
I0716 14:40:07.894722 25179 net.cpp:442] relu_u0a -> u0a (in-place)
I0716 14:40:07.894729 25179 net.cpp:190] Setting up relu_u0a
I0716 14:40:07.894733 25179 net.cpp:197] Top shape: 1 64 512 1024 (33554432)
I0716 14:40:07.894737 25179 net.cpp:205] Memory required for data: 4299161600
I0716 14:40:07.894739 25179 layer_factory.hpp:123] Creating layer concat_d0cc_u0a-b
I0716 14:40:07.894744 25179 net.cpp:140] Creating Layer concat_d0cc_u0a-b
I0716 14:40:07.894747 25179 net.cpp:481] concat_d0cc_u0a-b <- u0a
I0716 14:40:07.894752 25179 net.cpp:481] concat_d0cc_u0a-b <- d0c_d0c_fixed_0_split_1
I0716 14:40:07.894757 25179 net.cpp:455] concat_d0cc_u0a-b -> u0b
I0716 14:40:07.894794 25179 net.cpp:190] Setting up concat_d0cc_u0a-b
I0716 14:40:07.894801 25179 net.cpp:197] Top shape: 1 128 512 1024 (67108864)
I0716 14:40:07.894804 25179 net.cpp:205] Memory required for data: 4567597056
I0716 14:40:07.894807 25179 layer_factory.hpp:123] Creating layer u0b_fixed
I0716 14:40:07.894812 25179 net.cpp:140] Creating Layer u0b_fixed
I0716 14:40:07.894815 25179 net.cpp:481] u0b_fixed <- u0b
I0716 14:40:07.894819 25179 net.cpp:442] u0b_fixed -> u0b (in-place)
I0716 14:40:07.894863 25179 net.cpp:190] Setting up u0b_fixed
I0716 14:40:07.894870 25179 net.cpp:197] Top shape: 1 128 512 1024 (67108864)
I0716 14:40:07.894872 25179 net.cpp:205] Memory required for data: 4836032512
I0716 14:40:07.894877 25179 layer_factory.hpp:123] Creating layer conv_u0b-c_New
I0716 14:40:07.894886 25179 net.cpp:140] Creating Layer conv_u0b-c_New
I0716 14:40:07.894888 25179 net.cpp:481] conv_u0b-c_New <- u0b
I0716 14:40:07.894893 25179 net.cpp:455] conv_u0b-c_New -> u0c
I0716 14:40:07.895778 25179 layer_factory.hpp:123] Creating layer conv_u0b-c_New
I0716 14:40:07.898737 25179 net.cpp:190] Setting up conv_u0b-c_New
I0716 14:40:07.898751 25179 net.cpp:197] Top shape: 1 64 512 1024 (33554432)
I0716 14:40:07.898753 25179 net.cpp:205] Memory required for data: 4970250240
I0716 14:40:07.898759 25179 layer_factory.hpp:123] Creating layer relu_u0c
I0716 14:40:07.898766 25179 net.cpp:140] Creating Layer relu_u0c
I0716 14:40:07.898771 25179 net.cpp:481] relu_u0c <- u0c
I0716 14:40:07.898775 25179 net.cpp:442] relu_u0c -> u0c (in-place)
I0716 14:40:07.898782 25179 net.cpp:190] Setting up relu_u0c
I0716 14:40:07.898787 25179 net.cpp:197] Top shape: 1 64 512 1024 (33554432)
I0716 14:40:07.898789 25179 net.cpp:205] Memory required for data: 5104467968
I0716 14:40:07.898792 25179 layer_factory.hpp:123] Creating layer u0c_fixed
I0716 14:40:07.898797 25179 net.cpp:140] Creating Layer u0c_fixed
I0716 14:40:07.898800 25179 net.cpp:481] u0c_fixed <- u0c
I0716 14:40:07.898804 25179 net.cpp:442] u0c_fixed -> u0c (in-place)
I0716 14:40:07.898855 25179 net.cpp:190] Setting up u0c_fixed
I0716 14:40:07.898861 25179 net.cpp:197] Top shape: 1 64 512 1024 (33554432)
I0716 14:40:07.898864 25179 net.cpp:205] Memory required for data: 5238685696
I0716 14:40:07.898869 25179 layer_factory.hpp:123] Creating layer conv_u0c-d_New
I0716 14:40:07.898876 25179 net.cpp:140] Creating Layer conv_u0c-d_New
I0716 14:40:07.898880 25179 net.cpp:481] conv_u0c-d_New <- u0c
I0716 14:40:07.898885 25179 net.cpp:455] conv_u0c-d_New -> u0d
I0716 14:40:07.899435 25179 layer_factory.hpp:123] Creating layer conv_u0c-d_New
I0716 14:40:07.903650 25179 net.cpp:190] Setting up conv_u0c-d_New
I0716 14:40:07.903661 25179 net.cpp:197] Top shape: 1 64 512 1024 (33554432)
I0716 14:40:07.903664 25179 net.cpp:205] Memory required for data: 5372903424
I0716 14:40:07.903671 25179 layer_factory.hpp:123] Creating layer relu_u0d
I0716 14:40:07.903676 25179 net.cpp:140] Creating Layer relu_u0d
I0716 14:40:07.903681 25179 net.cpp:481] relu_u0d <- u0d
I0716 14:40:07.903686 25179 net.cpp:442] relu_u0d -> u0d (in-place)
I0716 14:40:07.903692 25179 net.cpp:190] Setting up relu_u0d
I0716 14:40:07.903697 25179 net.cpp:197] Top shape: 1 64 512 1024 (33554432)
I0716 14:40:07.903699 25179 net.cpp:205] Memory required for data: 5507121152
I0716 14:40:07.903702 25179 layer_factory.hpp:123] Creating layer u0d_fixed
I0716 14:40:07.903707 25179 net.cpp:140] Creating Layer u0d_fixed
I0716 14:40:07.903709 25179 net.cpp:481] u0d_fixed <- u0d
I0716 14:40:07.903713 25179 net.cpp:442] u0d_fixed -> u0d (in-place)
I0716 14:40:07.903772 25179 net.cpp:190] Setting up u0d_fixed
I0716 14:40:07.903779 25179 net.cpp:197] Top shape: 1 64 512 1024 (33554432)
I0716 14:40:07.903781 25179 net.cpp:205] Memory required for data: 5641338880
I0716 14:40:07.903786 25179 layer_factory.hpp:123] Creating layer conv_u0d-score_New
I0716 14:40:07.903795 25179 net.cpp:140] Creating Layer conv_u0d-score_New
I0716 14:40:07.903797 25179 net.cpp:481] conv_u0d-score_New <- u0d
I0716 14:40:07.903802 25179 net.cpp:455] conv_u0d-score_New -> conv_u0d-score_New
I0716 14:40:07.904057 25179 layer_factory.hpp:123] Creating layer conv_u0d-score_New
I0716 14:40:07.912938 25179 net.cpp:190] Setting up conv_u0d-score_New
I0716 14:40:07.912952 25179 net.cpp:197] Top shape: 1 19 512 1024 (9961472)
I0716 14:40:07.912956 25179 net.cpp:205] Memory required for data: 5681184768
I0716 14:40:07.912962 25179 layer_factory.hpp:123] Creating layer conv_u0d-score_New_fixed
I0716 14:40:07.912969 25179 net.cpp:140] Creating Layer conv_u0d-score_New_fixed
I0716 14:40:07.912972 25179 net.cpp:481] conv_u0d-score_New_fixed <- conv_u0d-score_New
I0716 14:40:07.912978 25179 net.cpp:442] conv_u0d-score_New_fixed -> conv_u0d-score_New (in-place)
I0716 14:40:07.913031 25179 net.cpp:190] Setting up conv_u0d-score_New_fixed
I0716 14:40:07.913038 25179 net.cpp:197] Top shape: 1 19 512 1024 (9961472)
I0716 14:40:07.913041 25179 net.cpp:205] Memory required for data: 5721030656
I0716 14:40:07.913045 25179 layer_factory.hpp:123] Creating layer score
I0716 14:40:07.913051 25179 net.cpp:140] Creating Layer score
I0716 14:40:07.913055 25179 net.cpp:481] score <- conv_u0d-score_New
I0716 14:40:07.913061 25179 net.cpp:455] score -> score
I0716 14:40:07.913141 25179 net.cpp:190] Setting up score
I0716 14:40:07.913146 25179 net.cpp:197] Top shape: 1 19 512 1024 (9961472)
I0716 14:40:07.913151 25179 net.cpp:205] Memory required for data: 5760876544
I0716 14:40:07.913152 25179 layer_factory.hpp:123] Creating layer accuracy
I0716 14:40:07.913175 25179 net.cpp:140] Creating Layer accuracy
I0716 14:40:07.913180 25179 net.cpp:481] accuracy <- score
I0716 14:40:07.913184 25179 net.cpp:481] accuracy <- label
I0716 14:40:07.913189 25179 net.cpp:455] accuracy -> segmentation_eval
I0716 14:40:07.913220 25179 net.cpp:190] Setting up accuracy
I0716 14:40:07.913226 25179 net.cpp:197] Top shape: 3 19 (57)
I0716 14:40:07.913229 25179 net.cpp:205] Memory required for data: 5760876772
I0716 14:40:07.913233 25179 net.cpp:268] accuracy does not need backward computation.
I0716 14:40:07.913236 25179 net.cpp:268] score does not need backward computation.
I0716 14:40:07.913239 25179 net.cpp:268] conv_u0d-score_New_fixed does not need backward computation.
I0716 14:40:07.913242 25179 net.cpp:268] conv_u0d-score_New does not need backward computation.
…
