…
I0318 18:39:19.666200 21883 net.cpp:369] The NetState phase (0) differed from the phase (1) specified by a rule in layer accuracy
I0318 18:39:19.666203 21883 net.cpp:369] The NetState phase (0) differed from the phase (1) specified by a rule in layer accuracy-top1
I0318 18:39:19.666308 21883 net.cpp:98] Initializing net from parameters:
state {
  phase: TRAIN
}
layer {
  name: "data"
  type: "Data"
  top: "data"
  top: "label"
  include {
    phase: TRAIN
  }
  transform_param {
    mirror: true
    crop_size: 227
    mean_value: 106
    mean_value: 116
    mean_value: 124
  }
  data_param {
    source: "input/lmdb/train_lmdb"
    batch_size: 256
    backend: LMDB
  }
}
layer {
  name: "conv1"
  type: "Convolution"
  bottom: "data"
  top: "conv1"
  param {
    lr_mult: 1
    decay_mult: 1
    compression: PRUNE
  }
  param {
    lr_mult: 2
    decay_mult: 0
    compression: PRUNE
  }
  convolution_param {
    num_output: 96
    pad: 1
    kernel_size: 11
    stride: 4
    weight_filler {
      type: "gaussian"
      std: 0.01
    }
    bias_filler {
      type: "constant"
      value: 0
    }
  }
}
layer {
  name: "bn1"
  type: "BatchNorm"
  bottom: "conv1"
  top: "bn1"
  param {
    lr_mult: 0
    compression: PRUNE
  }
  param {
    lr_mult: 0
    compression: PRUNE
  }
  param {
    lr_mult: 0
    compression: PRUNE
  }
  batch_norm_param {
    use_global_stats: false
  }
}
layer {
  name: "relu1"
  type: "ReLU"
  bottom: "bn1"
  top: "relu1"
}
layer {
  name: "pool1"
  type: "Pooling"
  bottom: "relu1"
  top: "pool1"
  pooling_param {
    pool: MAX
    kernel_size: 3
    stride: 2
  }
}
layer {
  name: "conv2"
  type: "Convolution"
  bottom: "pool1"
  top: "conv2"
  param {
    lr_mult: 1
    decay_mult: 1
    compression: PRUNE
  }
  param {
    lr_mult: 2
    decay_mult: 0
    compression: PRUNE
  }
  convolution_param {
    num_output: 256
    pad: 2
    kernel_size: 5
    group: 1
    weight_filler {
      type: "gaussian"
      std: 0.01
    }
    bias_filler {
      type: "constant"
      value: 1
    }
  }
}
layer {
  name: "bn2"
  type: "BatchNorm"
  bottom: "conv2"
  top: "bn2"
  param {
    lr_mult: 0
    compression: PRUNE
  }
  param {
    lr_mult: 0
    compression: PRUNE
  }
  param {
    lr_mult: 0
    compression: PRUNE
  }
  batch_norm_param {
    use_global_stats: false
  }
}
layer {
  name: "relu2"
  type: "ReLU"
  bottom: "bn2"
  top: "relu2"
}
layer {
  name: "pool2"
  type: "Pooling"
  bottom: "relu2"
  top: "pool2"
  pooling_param {
    pool: MAX
    kernel_size: 3
    stride: 2
  }
}
layer {
  name: "conv3"
  type: "Convolution"
  bottom: "pool2"
  top: "conv3"
  param {
    lr_mult: 1
    decay_mult: 1
    compression: PRUNE
  }
  param {
    lr_mult: 2
    decay_mult: 0
    compression: PRUNE
  }
  convolution_param {
    num_output: 384
    pad: 1
    kernel_size: 3
    weight_filler {
      type: "gaussian"
      std: 0.01
    }
    bias_filler {
      type: "constant"
      value: 0
    }
  }
}
layer {
  name: "relu3"
  type: "ReLU"
  bottom: "conv3"
  top: "relu3"
}
layer {
  name: "conv4"
  type: "Convolution"
  bottom: "relu3"
  top: "conv4"
  param {
    lr_mult: 1
    decay_mult: 1
    compression: PRUNE
  }
  param {
    lr_mult: 2
    decay_mult: 0
    compression: PRUNE
  }
  convolution_param {
    num_output: 384
    pad: 1
    kernel_size: 3
    group: 1
    weight_filler {
      type: "gaussian"
      std: 0.01
    }
    bias_filler {
      type: "constant"
      value: 1
    }
  }
}
layer {
  name: "relu4"
  type: "ReLU"
  bottom: "conv4"
  top: "relu4"
}
layer {
  name: "conv5"
  type: "Convolution"
  bottom: "relu4"
  top: "conv5"
  param {
    lr_mult: 1
    decay_mult: 1
    compression: PRUNE
  }
  param {
    lr_mult: 2
    decay_mult: 0
    compression: PRUNE
  }
  convolution_param {
    num_output: 256
    pad: 1
    kernel_size: 3
    group: 1
    weight_filler {
      type: "gaussian"
      std: 0.01
    }
    bias_filler {
      type: "constant"
      value: 1
    }
  }
}
layer {
  name: "relu5"
  type: "ReLU"
  bottom: "conv5"
  top: "relu5"
}
layer {
  name: "pool5"
  type: "Pooling"
  bottom: "relu5"
  top: "pool5"
  pooling_param {
    pool: MAX
    kernel_size: 3
    stride: 2
  }
}
layer {
  name: "fc6"
  type: "InnerProduct"
  bottom: "pool5"
  top: "fc6"
  param {
    lr_mult: 1
    decay_mult: 1
  }
  param {
    lr_mult: 2
    decay_mult: 0
  }
  inner_product_param {
    num_output: 4096
    weight_filler {
      type: "gaussian"
      std: 0.005
    }
    bias_filler {
      type: "constant"
      value: 1
    }
  }
}
layer {
  name: "relu6"
  type: "ReLU"
  bottom: "fc6"
  top: "relu6"
}
layer {
  name: "drop6"
  type: "Dropout"
  bottom: "relu6"
  top: "drop6"
  dropout_param {
    dropout_ratio: 0.5
  }
}
layer {
  name: "fc7"
  type: "InnerProduct"
  bottom: "drop6"
  top: "fc7"
  param {
    lr_mult: 1
    decay_mult: 1
  }
  param {
    lr_mult: 2
    decay_mult: 0
  }
  inner_product_param {
    num_output: 4096
    weight_filler {
      type: "gaussian"
      std: 0.005
    }
    bias_filler {
      type: "constant"
      value: 1
    }
  }
}
layer {
  name: "bn7"
  type: "BatchNorm"
  bottom: "fc7"
  top: "bn7"
  param {
    lr_mult: 0
    compression: PRUNE
  }
  param {
    lr_mult: 0
    compression: PRUNE
  }
  param {
    lr_mult: 0
    compression: PRUNE
  }
  batch_norm_param {
    use_global_stats: false
  }
}
layer {
  name: "relu7"
  type: "ReLU"
  bottom: "bn7"
  top: "relu7"
}
layer {
  name: "drop7"
  type: "Dropout"
  bottom: "relu7"
  top: "drop7"
  dropout_param {
    dropout_ratio: 0.5
  }
}
layer {
  name: "fc8"
  type: "InnerProduct"
  bottom: "drop7"
  top: "fc8"
  param {
    lr_mult: 1
    decay_mult: 1
  }
  param {
    lr_mult: 2
    decay_mult: 0
  }
  inner_product_param {
    num_output: 2
    weight_filler {
      type: "gaussian"
      std: 0.01
    }
    bias_filler {
      type: "constant"
      value: 0
    }
  }
}
layer {
  name: "loss"
  type: "SoftmaxWithLoss"
  bottom: "fc8"
  bottom: "label"
  top: "loss"
}
I0318 18:39:19.666362 21883 layer_factory.hpp:123] Creating layer data
I0318 18:39:19.666455 21883 internal_thread.cpp:73] Starting internal thread(s) on GPU 0
I0318 18:39:19.667028 21883 net.cpp:140] Creating Layer data
I0318 18:39:19.667037 21883 net.cpp:455] data -> data
I0318 18:39:19.667047 21883 net.cpp:455] data -> label
I0318 18:39:19.669217 21922 db_lmdb.cpp:81] Opened lmdb input/lmdb/train_lmdb
I0318 18:39:19.669262 21922 data_reader.cpp:166] TRAIN: reading data using 1 channel(s)
I0318 18:39:19.669528 21883 data_layer.cpp:124] ReshapePrefetch 256, 3, 227, 227
I0318 18:39:19.669591 21883 data_layer.cpp:129] output data size: 256,3,227,227
I0318 18:39:20.055541 21883 internal_thread.cpp:73] Starting internal thread(s) on GPU 0
I0318 18:39:20.055619 21883 net.cpp:190] Setting up data
I0318 18:39:20.055627 21883 net.cpp:197] Top shape: 256 3 227 227 (39574272)
I0318 18:39:20.055631 21883 net.cpp:197] Top shape: 256 (256)
I0318 18:39:20.055632 21883 net.cpp:205] Memory required for data: 158298112
I0318 18:39:20.055637 21883 layer_factory.hpp:123] Creating layer conv1
I0318 18:39:20.055649 21883 net.cpp:140] Creating Layer conv1
I0318 18:39:20.055651 21883 net.cpp:481] conv1 <- data
I0318 18:39:20.055666 21883 net.cpp:455] conv1 -> conv1
I0318 18:39:20.056154 21883 net.cpp:190] Setting up conv1
I0318 18:39:20.056160 21883 net.cpp:197] Top shape: 256 96 55 55 (74342400)
I0318 18:39:20.056162 21883 net.cpp:205] Memory required for data: 455667712
I0318 18:39:20.056174 21883 layer_factory.hpp:123] Creating layer bn1
I0318 18:39:20.056182 21883 net.cpp:140] Creating Layer bn1
I0318 18:39:20.056185 21883 net.cpp:481] bn1 <- conv1
I0318 18:39:20.056190 21883 net.cpp:455] bn1 -> bn1
I0318 18:39:20.056594 21883 net.cpp:190] Setting up bn1
I0318 18:39:20.056600 21883 net.cpp:197] Top shape: 256 96 55 55 (74342400)
I0318 18:39:20.056604 21883 net.cpp:205] Memory required for data: 753037312
I0318 18:39:20.056612 21883 layer_factory.hpp:123] Creating layer relu1
I0318 18:39:20.056615 21883 net.cpp:140] Creating Layer relu1
I0318 18:39:20.056618 21883 net.cpp:481] relu1 <- bn1
I0318 18:39:20.056622 21883 net.cpp:455] relu1 -> relu1
I0318 18:39:20.056640 21883 net.cpp:190] Setting up relu1
I0318 18:39:20.056645 21883 net.cpp:197] Top shape: 256 96 55 55 (74342400)
I0318 18:39:20.056648 21883 net.cpp:205] Memory required for data: 1050406912
I0318 18:39:20.056650 21883 layer_factory.hpp:123] Creating layer pool1
I0318 18:39:20.056654 21883 net.cpp:140] Creating Layer pool1
I0318 18:39:20.056656 21883 net.cpp:481] pool1 <- relu1
I0318 18:39:20.056660 21883 net.cpp:455] pool1 -> pool1
I0318 18:39:20.056679 21883 net.cpp:190] Setting up pool1
I0318 18:39:20.056682 21883 net.cpp:197] Top shape: 256 96 27 27 (17915904)
I0318 18:39:20.056684 21883 net.cpp:205] Memory required for data: 1122070528
I0318 18:39:20.056686 21883 layer_factory.hpp:123] Creating layer conv2
I0318 18:39:20.056692 21883 net.cpp:140] Creating Layer conv2
I0318 18:39:20.056694 21883 net.cpp:481] conv2 <- pool1
I0318 18:39:20.056697 21883 net.cpp:455] conv2 -> conv2
I0318 18:39:20.071707 21883 net.cpp:190] Setting up conv2
I0318 18:39:20.071722 21883 net.cpp:197] Top shape: 256 256 27 27 (47775744)
I0318 18:39:20.071725 21883 net.cpp:205] Memory required for data: 1313173504
I0318 18:39:20.071733 21883 layer_factory.hpp:123] Creating layer bn2
I0318 18:39:20.071740 21883 net.cpp:140] Creating Layer bn2
I0318 18:39:20.071743 21883 net.cpp:481] bn2 <- conv2
I0318 18:39:20.071748 21883 net.cpp:455] bn2 -> bn2
I0318 18:39:20.072162 21883 net.cpp:190] Setting up bn2
I0318 18:39:20.072168 21883 net.cpp:197] Top shape: 256 256 27 27 (47775744)
I0318 18:39:20.072171 21883 net.cpp:205] Memory required for data: 1504276480
I0318 18:39:20.072178 21883 layer_factory.hpp:123] Creating layer relu2
I0318 18:39:20.072182 21883 net.cpp:140] Creating Layer relu2
I0318 18:39:20.072186 21883 net.cpp:481] relu2 <- bn2
I0318 18:39:20.072190 21883 net.cpp:455] relu2 -> relu2
I0318 18:39:20.072206 21883 net.cpp:190] Setting up relu2
I0318 18:39:20.072211 21883 net.cpp:197] Top shape: 256 256 27 27 (47775744)
I0318 18:39:20.072214 21883 net.cpp:205] Memory required for data: 1695379456
I0318 18:39:20.072216 21883 layer_factory.hpp:123] Creating layer pool2
I0318 18:39:20.072221 21883 net.cpp:140] Creating Layer pool2
I0318 18:39:20.072223 21883 net.cpp:481] pool2 <- relu2
I0318 18:39:20.072227 21883 net.cpp:455] pool2 -> pool2
I0318 18:39:20.072248 21883 net.cpp:190] Setting up pool2
I0318 18:39:20.072253 21883 net.cpp:197] Top shape: 256 256 13 13 (11075584)
I0318 18:39:20.072255 21883 net.cpp:205] Memory required for data: 1739681792
I0318 18:39:20.072258 21883 layer_factory.hpp:123] Creating layer conv3
I0318 18:39:20.072264 21883 net.cpp:140] Creating Layer conv3
I0318 18:39:20.072278 21883 net.cpp:481] conv3 <- pool2
I0318 18:39:20.072283 21883 net.cpp:455] conv3 -> conv3
I0318 18:39:20.084762 21883 net.cpp:190] Setting up conv3
I0318 18:39:20.084786 21883 net.cpp:197] Top shape: 256 384 13 13 (16613376)
I0318 18:39:20.084790 21883 net.cpp:205] Memory required for data: 1806135296
I0318 18:39:20.084798 21883 layer_factory.hpp:123] Creating layer relu3
I0318 18:39:20.084810 21883 net.cpp:140] Creating Layer relu3
I0318 18:39:20.084813 21883 net.cpp:481] relu3 <- conv3
I0318 18:39:20.084834 21883 net.cpp:455] relu3 -> relu3
I0318 18:39:20.084874 21883 net.cpp:190] Setting up relu3
I0318 18:39:20.084882 21883 net.cpp:197] Top shape: 256 384 13 13 (16613376)
I0318 18:39:20.084885 21883 net.cpp:205] Memory required for data: 1872588800
I0318 18:39:20.084889 21883 layer_factory.hpp:123] Creating layer conv4
I0318 18:39:20.084899 21883 net.cpp:140] Creating Layer conv4
I0318 18:39:20.084906 21883 net.cpp:481] conv4 <- relu3
I0318 18:39:20.084913 21883 net.cpp:455] conv4 -> conv4
I0318 18:39:20.102571 21883 net.cpp:190] Setting up conv4
I0318 18:39:20.102596 21883 net.cpp:197] Top shape: 256 384 13 13 (16613376)
I0318 18:39:20.102598 21883 net.cpp:205] Memory required for data: 1939042304
I0318 18:39:20.102610 21883 layer_factory.hpp:123] Creating layer relu4
I0318 18:39:20.102618 21883 net.cpp:140] Creating Layer relu4
I0318 18:39:20.102623 21883 net.cpp:481] relu4 <- conv4
I0318 18:39:20.102632 21883 net.cpp:455] relu4 -> relu4
I0318 18:39:20.102674 21883 net.cpp:190] Setting up relu4
I0318 18:39:20.102679 21883 net.cpp:197] Top shape: 256 384 13 13 (16613376)
I0318 18:39:20.102681 21883 net.cpp:205] Memory required for data: 2005495808
I0318 18:39:20.102686 21883 layer_factory.hpp:123] Creating layer conv5
I0318 18:39:20.102696 21883 net.cpp:140] Creating Layer conv5
I0318 18:39:20.102700 21883 net.cpp:481] conv5 <- relu4
I0318 18:39:20.102705 21883 net.cpp:455] conv5 -> conv5
I0318 18:39:20.122105 21883 net.cpp:190] Setting up conv5
I0318 18:39:20.122129 21883 net.cpp:197] Top shape: 256 256 13 13 (11075584)
I0318 18:39:20.122133 21883 net.cpp:205] Memory required for data: 2049798144
I0318 18:39:20.122143 21883 layer_factory.hpp:123] Creating layer relu5
I0318 18:39:20.122153 21883 net.cpp:140] Creating Layer relu5
I0318 18:39:20.122159 21883 net.cpp:481] relu5 <- conv5
I0318 18:39:20.122179 21883 net.cpp:455] relu5 -> relu5
I0318 18:39:20.122220 21883 net.cpp:190] Setting up relu5
I0318 18:39:20.122238 21883 net.cpp:197] Top shape: 256 256 13 13 (11075584)
I0318 18:39:20.122252 21883 net.cpp:205] Memory required for data: 2094100480
I0318 18:39:20.122265 21883 layer_factory.hpp:123] Creating layer pool5
I0318 18:39:20.122283 21883 net.cpp:140] Creating Layer pool5
I0318 18:39:20.122298 21883 net.cpp:481] pool5 <- relu5
I0318 18:39:20.122313 21883 net.cpp:455] pool5 -> pool5
I0318 18:39:20.122359 21883 net.cpp:190] Setting up pool5
I0318 18:39:20.122367 21883 net.cpp:197] Top shape: 256 256 6 6 (2359296)
I0318 18:39:20.122371 21883 net.cpp:205] Memory required for data: 2103537664
I0318 18:39:20.122375 21883 layer_factory.hpp:123] Creating layer fc6
I0318 18:39:20.122395 21883 net.cpp:140] Creating Layer fc6
I0318 18:39:20.122407 21883 net.cpp:481] fc6 <- pool5
I0318 18:39:20.122426 21883 net.cpp:455] fc6 -> fc6
I0318 18:39:20.479480 21883 net.cpp:190] Setting up fc6
I0318 18:39:20.479507 21883 net.cpp:197] Top shape: 256 4096 (1048576)
I0318 18:39:20.479511 21883 net.cpp:205] Memory required for data: 2107731968
I0318 18:39:20.479517 21883 layer_factory.hpp:123] Creating layer relu6
I0318 18:39:20.479523 21883 net.cpp:140] Creating Layer relu6
I0318 18:39:20.479526 21883 net.cpp:481] relu6 <- fc6
I0318 18:39:20.479532 21883 net.cpp:455] relu6 -> relu6
I0318 18:39:20.479545 21883 net.cpp:190] Setting up relu6
I0318 18:39:20.479549 21883 net.cpp:197] Top shape: 256 4096 (1048576)
I0318 18:39:20.479552 21883 net.cpp:205] Memory required for data: 2111926272
I0318 18:39:20.479553 21883 layer_factory.hpp:123] Creating layer drop6
I0318 18:39:20.479558 21883 net.cpp:140] Creating Layer drop6
I0318 18:39:20.479586 21883 net.cpp:481] drop6 <- relu6
I0318 18:39:20.479591 21883 net.cpp:455] drop6 -> drop6
I0318 18:39:20.479630 21883 net.cpp:190] Setting up drop6
I0318 18:39:20.479635 21883 net.cpp:197] Top shape: 256 4096 (1048576)
I0318 18:39:20.479637 21883 net.cpp:205] Memory required for data: 2116120576
I0318 18:39:20.479640 21883 layer_factory.hpp:123] Creating layer fc7
I0318 18:39:20.479646 21883 net.cpp:140] Creating Layer fc7
I0318 18:39:20.479650 21883 net.cpp:481] fc7 <- drop6
I0318 18:39:20.479655 21883 net.cpp:455] fc7 -> fc7
I0318 18:39:20.621699 21883 net.cpp:190] Setting up fc7
I0318 18:39:20.621726 21883 net.cpp:197] Top shape: 256 4096 (1048576)
I0318 18:39:20.621728 21883 net.cpp:205] Memory required for data: 2120314880
I0318 18:39:20.621735 21883 layer_factory.hpp:123] Creating layer bn7
I0318 18:39:20.621742 21883 net.cpp:140] Creating Layer bn7
I0318 18:39:20.621745 21883 net.cpp:481] bn7 <- fc7
I0318 18:39:20.621752 21883 net.cpp:455] bn7 -> bn7
I0318 18:39:20.622167 21883 net.cpp:190] Setting up bn7
I0318 18:39:20.622175 21883 net.cpp:197] Top shape: 256 4096 (1048576)
I0318 18:39:20.622177 21883 net.cpp:205] Memory required for data: 2124509184
I0318 18:39:20.622184 21883 layer_factory.hpp:123] Creating layer relu7
I0318 18:39:20.622189 21883 net.cpp:140] Creating Layer relu7
I0318 18:39:20.622191 21883 net.cpp:481] relu7 <- bn7
I0318 18:39:20.622195 21883 net.cpp:455] relu7 -> relu7
I0318 18:39:20.622211 21883 net.cpp:190] Setting up relu7
I0318 18:39:20.622217 21883 net.cpp:197] Top shape: 256 4096 (1048576)
I0318 18:39:20.622221 21883 net.cpp:205] Memory required for data: 2128703488
I0318 18:39:20.622225 21883 layer_factory.hpp:123] Creating layer drop7
I0318 18:39:20.622231 21883 net.cpp:140] Creating Layer drop7
I0318 18:39:20.622233 21883 net.cpp:481] drop7 <- relu7
I0318 18:39:20.622236 21883 net.cpp:455] drop7 -> drop7
I0318 18:39:20.622259 21883 net.cpp:190] Setting up drop7
I0318 18:39:20.622265 21883 net.cpp:197] Top shape: 256 4096 (1048576)
I0318 18:39:20.622269 21883 net.cpp:205] Memory required for data: 2132897792
I0318 18:39:20.622272 21883 layer_factory.hpp:123] Creating layer fc8
I0318 18:39:20.622278 21883 net.cpp:140] Creating Layer fc8
I0318 18:39:20.622283 21883 net.cpp:481] fc8 <- drop7
I0318 18:39:20.622288 21883 net.cpp:455] fc8 -> fc8
I0318 18:39:20.622421 21883 net.cpp:190] Setting up fc8
I0318 18:39:20.622426 21883 net.cpp:197] Top shape: 256 2 (512)
I0318 18:39:20.622428 21883 net.cpp:205] Memory required for data: 2132899840
I0318 18:39:20.622432 21883 layer_factory.hpp:123] Creating layer loss
I0318 18:39:20.622437 21883 net.cpp:140] Creating Layer loss
I0318 18:39:20.622438 21883 net.cpp:481] loss <- fc8
I0318 18:39:20.622442 21883 net.cpp:481] loss <- label
I0318 18:39:20.622444 21883 net.cpp:455] loss -> loss
I0318 18:39:20.622452 21883 layer_factory.hpp:123] Creating layer loss
…
I0318 18:39:20.622850 21883 solver.cpp:235] Creating test net (#0) specified by net file: pruning/alexnetBNnoLRN/regular_rate_0.1/net_finetune.prototxt
I0318 18:39:20.622872 21883 net.cpp:369] The NetState phase (1) differed from the phase (0) specified by a rule in layer data
I0318 18:39:20.623003 21883 net.cpp:98] Initializing net from parameters:
state {
  phase: TEST
}
layer {
  name: "data"
  type: "Data"
  top: "data"
  top: "label"
  include {
    phase: TEST
  }
  transform_param {
    mirror: false
    crop_size: 227
    mean_value: 106
    mean_value: 116
    mean_value: 124
  }
  data_param {
    source: "input/lmdb/valid_lmdb"
    batch_size: 50
    backend: LMDB
  }
}
layer {
  name: "conv1"
  type: "Convolution"
  bottom: "data"
  top: "conv1"
  param {
    lr_mult: 1
    decay_mult: 1
    compression: PRUNE
  }
  param {
    lr_mult: 2
    decay_mult: 0
    compression: PRUNE
  }
  convolution_param {
    num_output: 96
    pad: 1
    kernel_size: 11
    stride: 4
    weight_filler {
      type: "gaussian"
      std: 0.01
    }
    bias_filler {
      type: "constant"
      value: 0
    }
  }
}
layer {
  name: "bn1"
  type: "BatchNorm"
  bottom: "conv1"
  top: "bn1"
  param {
    lr_mult: 0
    compression: PRUNE
  }
  param {
    lr_mult: 0
    compression: PRUNE
  }
  param {
    lr_mult: 0
    compression: PRUNE
  }
  batch_norm_param {
    use_global_stats: false
  }
}
layer {
  name: "relu1"
  type: "ReLU"
  bottom: "bn1"
  top: "relu1"
}
layer {
  name: "pool1"
  type: "Pooling"
  bottom: "relu1"
  top: "pool1"
  pooling_param {
    pool: MAX
    kernel_size: 3
    stride: 2
  }
}
layer {
  name: "conv2"
  type: "Convolution"
  bottom: "pool1"
  top: "conv2"
  param {
    lr_mult: 1
    decay_mult: 1
    compression: PRUNE
  }
  param {
    lr_mult: 2
    decay_mult: 0
    compression: PRUNE
  }
  convolution_param {
    num_output: 256
    pad: 2
    kernel_size: 5
    group: 1
    weight_filler {
      type: "gaussian"
      std: 0.01
    }
    bias_filler {
      type: "constant"
      value: 1
    }
  }
}
layer {
  name: "bn2"
  type: "BatchNorm"
  bottom: "conv2"
  top: "bn2"
  param {
    lr_mult: 0
    compression: PRUNE
  }
  param {
    lr_mult: 0
    compression: PRUNE
  }
  param {
    lr_mult: 0
    compression: PRUNE
  }
  batch_norm_param {
    use_global_stats: false
  }
}
layer {
  name: "relu2"
  type: "ReLU"
  bottom: "bn2"
  top: "relu2"
}
layer {
  name: "pool2"
  type: "Pooling"
  bottom: "relu2"
  top: "pool2"
  pooling_param {
    pool: MAX
    kernel_size: 3
    stride: 2
  }
}
layer {
  name: "conv3"
  type: "Convolution"
  bottom: "pool2"
  top: "conv3"
  param {
    lr_mult: 1
    decay_mult: 1
    compression: PRUNE
  }
  param {
    lr_mult: 2
    decay_mult: 0
    compression: PRUNE
  }
  convolution_param {
    num_output: 384
    pad: 1
    kernel_size: 3
    weight_filler {
      type: "gaussian"
      std: 0.01
    }
    bias_filler {
      type: "constant"
      value: 0
    }
  }
}
layer {
  name: "relu3"
  type: "ReLU"
  bottom: "conv3"
  top: "relu3"
}
layer {
  name: "conv4"
  type: "Convolution"
  bottom: "relu3"
  top: "conv4"
  param {
    lr_mult: 1
    decay_mult: 1
    compression: PRUNE
  }
  param {
    lr_mult: 2
    decay_mult: 0
    compression: PRUNE
  }
  convolution_param {
    num_output: 384
    pad: 1
    kernel_size: 3
    group: 1
    weight_filler {
      type: "gaussian"
      std: 0.01
    }
    bias_filler {
      type: "constant"
      value: 1
    }
  }
}
layer {
  name: "relu4"
  type: "ReLU"
  bottom: "conv4"
  top: "relu4"
}
layer {
  name: "conv5"
  type: "Convolution"
  bottom: "relu4"
  top: "conv5"
  param {
    lr_mult: 1
    decay_mult: 1
    compression: PRUNE
  }
  param {
    lr_mult: 2
    decay_mult: 0
    compression: PRUNE
  }
  convolution_param {
    num_output: 256
    pad: 1
    kernel_size: 3
    group: 1
    weight_filler {
      type: "gaussian"
      std: 0.01
    }
    bias_filler {
      type: "constant"
      value: 1
    }
  }
}
layer {
  name: "relu5"
  type: "ReLU"
  bottom: "conv5"
  top: "relu5"
}
layer {
  name: "pool5"
  type: "Pooling"
  bottom: "relu5"
  top: "pool5"
  pooling_param {
    pool: MAX
    kernel_size: 3
    stride: 2
  }
}
layer {
  name: "fc6"
  type: "InnerProduct"
  bottom: "pool5"
  top: "fc6"
  param {
    lr_mult: 1
    decay_mult: 1
  }
  param {
    lr_mult: 2
    decay_mult: 0
  }
  inner_product_param {
    num_output: 4096
    weight_filler {
      type: "gaussian"
      std: 0.005
    }
    bias_filler {
      type: "constant"
      value: 1
    }
  }
}
layer {
  name: "relu6"
  type: "ReLU"
  bottom: "fc6"
  top: "relu6"
}
layer {
  name: "drop6"
  type: "Dropout"
  bottom: "relu6"
  top: "drop6"
  dropout_param {
    dropout_ratio: 0.5
  }
}
layer {
  name: "fc7"
  type: "InnerProduct"
  bottom: "drop6"
  top: "fc7"
  param {
    lr_mult: 1
    decay_mult: 1
  }
  param {
    lr_mult: 2
    decay_mult: 0
  }
  inner_product_param {
    num_output: 4096
    weight_filler {
      type: "gaussian"
      std: 0.005
    }
    bias_filler {
      type: "constant"
      value: 1
    }
  }
}
layer {
  name: "bn7"
  type: "BatchNorm"
  bottom: "fc7"
  top: "bn7"
  param {
    lr_mult: 0
    compression: PRUNE
  }
  param {
    lr_mult: 0
    compression: PRUNE
  }
  param {
    lr_mult: 0
    compression: PRUNE
  }
  batch_norm_param {
    use_global_stats: false
  }
}
layer {
  name: "relu7"
  type: "ReLU"
  bottom: "bn7"
  top: "relu7"
}
layer {
  name: "drop7"
  type: "Dropout"
  bottom: "relu7"
  top: "drop7"
  dropout_param {
    dropout_ratio: 0.5
  }
}
layer {
  name: "fc8"
  type: "InnerProduct"
  bottom: "drop7"
  top: "fc8"
  param {
    lr_mult: 1
    decay_mult: 1
  }
  param {
    lr_mult: 2
    decay_mult: 0
  }
  inner_product_param {
    num_output: 2
    weight_filler {
      type: "gaussian"
      std: 0.01
    }
    bias_filler {
      type: "constant"
      value: 0
    }
  }
}
layer {
  name: "accuracy"
  type: "Accuracy"
  bottom: "fc8"
  bottom: "label"
  top: "accuracy"
  include {
    phase: TEST
  }
}
layer {
  name: "loss"
  type: "SoftmaxWithLoss"
  bottom: "fc8"
  bottom: "label"
  top: "loss"
}
layer {
  name: "accuracy-top1"
  type: "Accuracy"
  bottom: "fc8"
  bottom: "label"
  top: "top-1"
  include {
    phase: TEST
  }
}
I0318 18:39:20.623100 21883 layer_factory.hpp:123] Creating layer data
I0318 18:39:20.623139 21883 internal_thread.cpp:73] Starting internal thread(s) on GPU 0
I0318 18:39:20.623669 21883 net.cpp:140] Creating Layer data
I0318 18:39:20.623682 21883 net.cpp:455] data -> data
I0318 18:39:20.623692 21883 net.cpp:455] data -> label
I0318 18:39:20.626094 21953 db_lmdb.cpp:81] Opened lmdb input/lmdb/valid_lmdb
I0318 18:39:20.626129 21953 data_reader.cpp:166] TEST: reading data using 1 channel(s)
I0318 18:39:20.626407 21883 data_layer.cpp:124] ReshapePrefetch 50, 3, 227, 227
I0318 18:39:20.626482 21883 data_layer.cpp:129] output data size: 50,3,227,227
I0318 18:39:20.705312 21883 internal_thread.cpp:73] Starting internal thread(s) on GPU 0
I0318 18:39:20.705363 21883 net.cpp:190] Setting up data
I0318 18:39:20.705385 21883 net.cpp:197] Top shape: 50 3 227 227 (7729350)
I0318 18:39:20.705389 21883 net.cpp:197] Top shape: 50 (50)
I0318 18:39:20.705390 21883 net.cpp:205] Memory required for data: 30917600
I0318 18:39:20.705394 21883 layer_factory.hpp:123] Creating layer label_data_1_split
I0318 18:39:20.705405 21883 net.cpp:140] Creating Layer label_data_1_split
I0318 18:39:20.705408 21883 net.cpp:481] label_data_1_split <- label
I0318 18:39:20.705413 21883 net.cpp:455] label_data_1_split -> label_data_1_split_0
I0318 18:39:20.705420 21883 net.cpp:455] label_data_1_split -> label_data_1_split_1
I0318 18:39:20.705425 21883 net.cpp:455] label_data_1_split -> label_data_1_split_2
I0318 18:39:20.705507 21883 net.cpp:190] Setting up label_data_1_split
I0318 18:39:20.705513 21883 net.cpp:197] Top shape: 50 (50)
I0318 18:39:20.705516 21883 net.cpp:197] Top shape: 50 (50)
I0318 18:39:20.705523 21883 net.cpp:197] Top shape: 50 (50)
I0318 18:39:20.705525 21883 net.cpp:205] Memory required for data: 30918200
I0318 18:39:20.705528 21883 layer_factory.hpp:123] Creating layer conv1
I0318 18:39:20.705539 21883 net.cpp:140] Creating Layer conv1
I0318 18:39:20.705545 21883 net.cpp:481] conv1 <- data
I0318 18:39:20.705551 21883 net.cpp:455] conv1 -> conv1
I0318 18:39:20.706091 21883 net.cpp:190] Setting up conv1
I0318 18:39:20.706099 21883 net.cpp:197] Top shape: 50 96 55 55 (14520000)
I0318 18:39:20.706104 21883 net.cpp:205] Memory required for data: 88998200
I0318 18:39:20.706112 21883 layer_factory.hpp:123] Creating layer bn1
I0318 18:39:20.706120 21883 net.cpp:140] Creating Layer bn1
I0318 18:39:20.706126 21883 net.cpp:481] bn1 <- conv1
I0318 18:39:20.706135 21883 net.cpp:455] bn1 -> bn1
I0318 18:39:20.706631 21883 net.cpp:190] Setting up bn1
I0318 18:39:20.706638 21883 net.cpp:197] Top shape: 50 96 55 55 (14520000)
I0318 18:39:20.706640 21883 net.cpp:205] Memory required for data: 147078200
I0318 18:39:20.706650 21883 layer_factory.hpp:123] Creating layer relu1
I0318 18:39:20.706656 21883 net.cpp:140] Creating Layer relu1
I0318 18:39:20.706660 21883 net.cpp:481] relu1 <- bn1
I0318 18:39:20.706665 21883 net.cpp:455] relu1 -> relu1
I0318 18:39:20.706686 21883 net.cpp:190] Setting up relu1
I0318 18:39:20.706692 21883 net.cpp:197] Top shape: 50 96 55 55 (14520000)
I0318 18:39:20.706696 21883 net.cpp:205] Memory required for data: 205158200
I0318 18:39:20.706701 21883 layer_factory.hpp:123] Creating layer pool1
I0318 18:39:20.706707 21883 net.cpp:140] Creating Layer pool1
I0318 18:39:20.706712 21883 net.cpp:481] pool1 <- relu1
I0318 18:39:20.706717 21883 net.cpp:455] pool1 -> pool1
I0318 18:39:20.706745 21883 net.cpp:190] Setting up pool1
I0318 18:39:20.706753 21883 net.cpp:197] Top shape: 50 96 27 27 (3499200)
I0318 18:39:20.706754 21883 net.cpp:205] Memory required for data: 219155000
I0318 18:39:20.706756 21883 layer_factory.hpp:123] Creating layer conv2
I0318 18:39:20.706763 21883 net.cpp:140] Creating Layer conv2
I0318 18:39:20.706768 21883 net.cpp:481] conv2 <- pool1
I0318 18:39:20.706773 21883 net.cpp:455] conv2 -> conv2
I0318 18:39:20.713114 21883 net.cpp:190] Setting up conv2
I0318 18:39:20.713132 21883 net.cpp:197] Top shape: 50 256 27 27 (9331200)
I0318 18:39:20.713136 21883 net.cpp:205] Memory required for data: 256479800
I0318 18:39:20.713145 21883 layer_factory.hpp:123] Creating layer bn2
I0318 18:39:20.713153 21883 net.cpp:140] Creating Layer bn2
I0318 18:39:20.713156 21883 net.cpp:481] bn2 <- conv2
I0318 18:39:20.713162 21883 net.cpp:455] bn2 -> bn2
I0318 18:39:20.713618 21883 net.cpp:190] Setting up bn2
I0318 18:39:20.713624 21883 net.cpp:197] Top shape: 50 256 27 27 (9331200)
I0318 18:39:20.713627 21883 net.cpp:205] Memory required for data: 293804600
I0318 18:39:20.713635 21883 layer_factory.hpp:123] Creating layer relu2
I0318 18:39:20.713644 21883 net.cpp:140] Creating Layer relu2
I0318 18:39:20.713647 21883 net.cpp:481] relu2 <- bn2
I0318 18:39:20.713654 21883 net.cpp:455] relu2 -> relu2
I0318 18:39:20.713675 21883 net.cpp:190] Setting up relu2
I0318 18:39:20.713681 21883 net.cpp:197] Top shape: 50 256 27 27 (9331200)
I0318 18:39:20.713698 21883 net.cpp:205] Memory required for data: 331129400
I0318 18:39:20.713702 21883 layer_factory.hpp:123] Creating layer pool2
I0318 18:39:20.713709 21883 net.cpp:140] Creating Layer pool2
I0318 18:39:20.713713 21883 net.cpp:481] pool2 <- relu2
I0318 18:39:20.713718 21883 net.cpp:455] pool2 -> pool2
I0318 18:39:20.713747 21883 net.cpp:190] Setting up pool2
I0318 18:39:20.713755 21883 net.cpp:197] Top shape: 50 256 13 13 (2163200)
I0318 18:39:20.713758 21883 net.cpp:205] Memory required for data: 339782200
I0318 18:39:20.713762 21883 layer_factory.hpp:123] Creating layer conv3
I0318 18:39:20.713768 21883 net.cpp:140] Creating Layer conv3
I0318 18:39:20.713771 21883 net.cpp:481] conv3 <- pool2
I0318 18:39:20.713776 21883 net.cpp:455] conv3 -> conv3
I0318 18:39:20.726603 21883 net.cpp:190] Setting up conv3
I0318 18:39:20.726627 21883 net.cpp:197] Top shape: 50 384 13 13 (3244800)
I0318 18:39:20.726631 21883 net.cpp:205] Memory required for data: 352761400
I0318 18:39:20.726640 21883 layer_factory.hpp:123] Creating layer relu3
I0318 18:39:20.726649 21883 net.cpp:140] Creating Layer relu3
I0318 18:39:20.726655 21883 net.cpp:481] relu3 <- conv3
I0318 18:39:20.726662 21883 net.cpp:455] relu3 -> relu3
I0318 18:39:20.726691 21883 net.cpp:190] Setting up relu3
I0318 18:39:20.726697 21883 net.cpp:197] Top shape: 50 384 13 13 (3244800)
I0318 18:39:20.726701 21883 net.cpp:205] Memory required for data: 365740600
I0318 18:39:20.726706 21883 layer_factory.hpp:123] Creating layer conv4
I0318 18:39:20.726717 21883 net.cpp:140] Creating Layer conv4
I0318 18:39:20.726720 21883 net.cpp:481] conv4 <- relu3
I0318 18:39:20.726727 21883 net.cpp:455] conv4 -> conv4
I0318 18:39:20.741433 21883 net.cpp:190] Setting up conv4
I0318 18:39:20.741458 21883 net.cpp:197] Top shape: 50 384 13 13 (3244800)
I0318 18:39:20.741461 21883 net.cpp:205] Memory required for data: 378719800
I0318 18:39:20.741477 21883 layer_factory.hpp:123] Creating layer relu4
I0318 18:39:20.741487 21883 net.cpp:140] Creating Layer relu4
I0318 18:39:20.741504 21883 net.cpp:481] relu4 <- conv4
I0318 18:39:20.741511 21883 net.cpp:455] relu4 -> relu4
I0318 18:39:20.741544 21883 net.cpp:190] Setting up relu4
I0318 18:39:20.741549 21883 net.cpp:197] Top shape: 50 384 13 13 (3244800)
I0318 18:39:20.741554 21883 net.cpp:205] Memory required for data: 391699000
I0318 18:39:20.741556 21883 layer_factory.hpp:123] Creating layer conv5
I0318 18:39:20.741566 21883 net.cpp:140] Creating Layer conv5
I0318 18:39:20.741571 21883 net.cpp:481] conv5 <- relu4
I0318 18:39:20.741576 21883 net.cpp:455] conv5 -> conv5
I0318 18:39:20.751606 21883 net.cpp:190] Setting up conv5
I0318 18:39:20.751631 21883 net.cpp:197] Top shape: 50 256 13 13 (2163200)
I0318 18:39:20.751634 21883 net.cpp:205] Memory required for data: 400351800
I0318 18:39:20.751642 21883 layer_factory.hpp:123] Creating layer relu5
I0318 18:39:20.751650 21883 net.cpp:140] Creating Layer relu5
I0318 18:39:20.751655 21883 net.cpp:481] relu5 <- conv5
I0318 18:39:20.751663 21883 net.cpp:455] relu5 -> relu5
I0318 18:39:20.751688 21883 net.cpp:190] Setting up relu5
I0318 18:39:20.751691 21883 net.cpp:197] Top shape: 50 256 13 13 (2163200)
I0318 18:39:20.751694 21883 net.cpp:205] Memory required for data: 409004600
I0318 18:39:20.751699 21883 layer_factory.hpp:123] Creating layer pool5
I0318 18:39:20.751708 21883 net.cpp:140] Creating Layer pool5
I0318 18:39:20.751711 21883 net.cpp:481] pool5 <- relu5
I0318 18:39:20.751715 21883 net.cpp:455] pool5 -> pool5
I0318 18:39:20.751739 21883 net.cpp:190] Setting up pool5
I0318 18:39:20.751744 21883 net.cpp:197] Top shape: 50 256 6 6 (460800)
I0318 18:39:20.751745 21883 net.cpp:205] Memory required for data: 410847800
I0318 18:39:20.751749 21883 layer_factory.hpp:123] Creating layer fc6
I0318 18:39:20.751756 21883 net.cpp:140] Creating Layer fc6
I0318 18:39:20.751760 21883 net.cpp:481] fc6 <- pool5
I0318 18:39:20.751765 21883 net.cpp:455] fc6 -> fc6
I0318 18:39:21.076124 21883 net.cpp:190] Setting up fc6
I0318 18:39:21.076150 21883 net.cpp:197] Top shape: 50 4096 (204800)
I0318 18:39:21.076191 21883 net.cpp:205] Memory required for data: 411667000
I0318 18:39:21.076200 21883 layer_factory.hpp:123] Creating layer relu6
I0318 18:39:21.076210 21883 net.cpp:140] Creating Layer relu6
I0318 18:39:21.076215 21883 net.cpp:481] relu6 <- fc6
I0318 18:39:21.076221 21883 net.cpp:455] relu6 -> relu6
I0318 18:39:21.076248 21883 net.cpp:190] Setting up relu6
I0318 18:39:21.076253 21883 net.cpp:197] Top shape: 50 4096 (204800)
I0318 18:39:21.076256 21883 net.cpp:205] Memory required for data: 412486200
I0318 18:39:21.076259 21883 layer_factory.hpp:123] Creating layer drop6
I0318 18:39:21.076265 21883 net.cpp:140] Creating Layer drop6
I0318 18:39:21.076269 21883 net.cpp:481] drop6 <- relu6
I0318 18:39:21.076274 21883 net.cpp:455] drop6 -> drop6
I0318 18:39:21.076297 21883 net.cpp:190] Setting up drop6
I0318 18:39:21.076300 21883 net.cpp:197] Top shape: 50 4096 (204800)
I0318 18:39:21.076303 21883 net.cpp:205] Memory required for data: 413305400
I0318 18:39:21.076306 21883 layer_factory.hpp:123] Creating layer fc7
I0318 18:39:21.076313 21883 net.cpp:140] Creating Layer fc7
I0318 18:39:21.076316 21883 net.cpp:481] fc7 <- drop6
I0318 18:39:21.076321 21883 net.cpp:455] fc7 -> fc7
I0318 18:39:21.219780 21883 net.cpp:190] Setting up fc7
I0318 18:39:21.219807 21883 net.cpp:197] Top shape: 50 4096 (204800)
I0318 18:39:21.219810 21883 net.cpp:205] Memory required for data: 414124600
I0318 18:39:21.219818 21883 layer_factory.hpp:123] Creating layer bn7
I0318 18:39:21.219844 21883 net.cpp:140] Creating Layer bn7
I0318 18:39:21.219849 21883 net.cpp:481] bn7 <- fc7
I0318 18:39:21.219857 21883 net.cpp:455] bn7 -> bn7
I0318 18:39:21.220263 21883 net.cpp:190] Setting up bn7
I0318 18:39:21.220268 21883 net.cpp:197] Top shape: 50 4096 (204800)
I0318 18:39:21.220271 21883 net.cpp:205] Memory required for data: 414943800
I0318 18:39:21.220279 21883 layer_factory.hpp:123] Creating layer relu7
I0318 18:39:21.220286 21883 net.cpp:140] Creating Layer relu7
I0318 18:39:21.220290 21883 net.cpp:481] relu7 <- bn7
I0318 18:39:21.220295 21883 net.cpp:455] relu7 -> relu7
I0318 18:39:21.220311 21883 net.cpp:190] Setting up relu7
I0318 18:39:21.220315 21883 net.cpp:197] Top shape: 50 4096 (204800)
I0318 18:39:21.220319 21883 net.cpp:205] Memory required for data: 415763000
I0318 18:39:21.220322 21883 layer_factory.hpp:123] Creating layer drop7
I0318 18:39:21.220326 21883 net.cpp:140] Creating Layer drop7
I0318 18:39:21.220330 21883 net.cpp:481] drop7 <- relu7
I0318 18:39:21.220335 21883 net.cpp:455] drop7 -> drop7
I0318 18:39:21.220355 21883 net.cpp:190] Setting up drop7
I0318 18:39:21.220360 21883 net.cpp:197] Top shape: 50 4096 (204800)
I0318 18:39:21.220362 21883 net.cpp:205] Memory required for data: 416582200
I0318 18:39:21.220366 21883 layer_factory.hpp:123] Creating layer fc8
I0318 18:39:21.220372 21883 net.cpp:140] Creating Layer fc8
I0318 18:39:21.220376 21883 net.cpp:481] fc8 <- drop7
I0318 18:39:21.220381 21883 net.cpp:455] fc8 -> fc8
I0318 18:39:21.220507 21883 net.cpp:190] Setting up fc8
I0318 18:39:21.220511 21883 net.cpp:197] Top shape: 50 2 (100)
I0318 18:39:21.220515 21883 net.cpp:205] Memory required for data: 416582600
I0318 18:39:21.220520 21883 layer_factory.hpp:123] Creating layer fc8_fc8_0_split
I0318 18:39:21.220526 21883 net.cpp:140] Creating Layer fc8_fc8_0_split
I0318 18:39:21.220530 21883 net.cpp:481] fc8_fc8_0_split <- fc8
I0318 18:39:21.220535 21883 net.cpp:455] fc8_fc8_0_split -> fc8_fc8_0_split_0
I0318 18:39:21.220541 21883 net.cpp:455] fc8_fc8_0_split -> fc8_fc8_0_split_1
I0318 18:39:21.220546 21883 net.cpp:455] fc8_fc8_0_split -> fc8_fc8_0_split_2
I0318 18:39:21.220573 21883 net.cpp:190] Setting up fc8_fc8_0_split
I0318 18:39:21.220577 21883 net.cpp:197] Top shape: 50 2 (100)
I0318 18:39:21.220582 21883 net.cpp:197] Top shape: 50 2 (100)
I0318 18:39:21.220585 21883 net.cpp:197] Top shape: 50 2 (100)
I0318 18:39:21.220588 21883 net.cpp:205] Memory required for data: 416583800
I0318 18:39:21.220592 21883 layer_factory.hpp:123] Creating layer accuracy
I0318 18:39:21.220597 21883 net.cpp:140] Creating Layer accuracy
I0318 18:39:21.220611 21883 net.cpp:481] accuracy <- fc8_fc8_0_split_0
I0318 18:39:21.220615 21883 net.cpp:481] accuracy <- label_data_1_split_0
I0318 18:39:21.220620 21883 net.cpp:455] accuracy -> accuracy
…
