…
I0318 19:32:42.925156 23180 net.cpp:369] The NetState phase (0) differed from the phase (1) specified by a rule in layer accuracy
I0318 19:32:42.925163 23180 net.cpp:369] The NetState phase (0) differed from the phase (1) specified by a rule in layer accuracy-top1
I0318 19:32:42.925276 23180 net.cpp:98] Initializing net from parameters:
state {
  phase: TRAIN
}
layer {
  name: "data"
  type: "Data"
  top: "data"
  top: "label"
  include {
    phase: TRAIN
  }
  transform_param {
    mirror: true
    crop_size: 227
    mean_value: 106
    mean_value: 116
    mean_value: 124
  }
  data_param {
    source: "input/lmdb/train_lmdb"
    batch_size: 256
    backend: LMDB
  }
}
layer {
  name: "conv1"
  type: "Convolution"
  bottom: "data"
  top: "conv1"
  param {
    lr_mult: 1
    decay_mult: 1
    compression: PRUNE
  }
  param {
    lr_mult: 2
    decay_mult: 0
    compression: PRUNE
  }
  convolution_param {
    num_output: 96
    pad: 1
    kernel_size: 11
    stride: 4
    weight_filler {
      type: "gaussian"
      std: 0.01
    }
    bias_filler {
      type: "constant"
      value: 0
    }
  }
}
layer {
  name: "bn1"
  type: "BatchNorm"
  bottom: "conv1"
  top: "bn1"
  param {
    lr_mult: 0
    compression: PRUNE
  }
  param {
    lr_mult: 0
    compression: PRUNE
  }
  param {
    lr_mult: 0
    compression: PRUNE
  }
  batch_norm_param {
    use_global_stats: false
  }
}
layer {
  name: "relu1"
  type: "ReLU"
  bottom: "bn1"
  top: "relu1"
}
layer {
  name: "pool1"
  type: "Pooling"
  bottom: "relu1"
  top: "pool1"
  pooling_param {
    pool: MAX
    kernel_size: 3
    stride: 2
  }
}
layer {
  name: "conv2"
  type: "Convolution"
  bottom: "pool1"
  top: "conv2"
  param {
    lr_mult: 1
    decay_mult: 1
    compression: PRUNE
  }
  param {
    lr_mult: 2
    decay_mult: 0
    compression: PRUNE
  }
  convolution_param {
    num_output: 256
    pad: 2
    kernel_size: 5
    group: 1
    weight_filler {
      type: "gaussian"
      std: 0.01
    }
    bias_filler {
      type: "constant"
      value: 1
    }
  }
}
layer {
  name: "bn2"
  type: "BatchNorm"
  bottom: "conv2"
  top: "bn2"
  param {
    lr_mult: 0
    compression: PRUNE
  }
  param {
    lr_mult: 0
    compression: PRUNE
  }
  param {
    lr_mult: 0
    compression: PRUNE
  }
  batch_norm_param {
    use_global_stats: false
  }
}
layer {
  name: "relu2"
  type: "ReLU"
  bottom: "bn2"
  top: "relu2"
}
layer {
  name: "pool2"
  type: "Pooling"
  bottom: "relu2"
  top: "pool2"
  pooling_param {
    pool: MAX
    kernel_size: 3
    stride: 2
  }
}
layer {
  name: "conv3"
  type: "Convolution"
  bottom: "pool2"
  top: "conv3"
  param {
    lr_mult: 1
    decay_mult: 1
    compression: PRUNE
  }
  param {
    lr_mult: 2
    decay_mult: 0
    compression: PRUNE
  }
  convolution_param {
    num_output: 384
    pad: 1
    kernel_size: 3
    weight_filler {
      type: "gaussian"
      std: 0.01
    }
    bias_filler {
      type: "constant"
      value: 0
    }
  }
}
layer {
  name: "relu3"
  type: "ReLU"
  bottom: "conv3"
  top: "relu3"
}
layer {
  name: "conv4"
  type: "Convolution"
  bottom: "relu3"
  top: "conv4"
  param {
    lr_mult: 1
    decay_mult: 1
    compression: PRUNE
  }
  param {
    lr_mult: 2
    decay_mult: 0
    compression: PRUNE
  }
  convolution_param {
    num_output: 384
    pad: 1
    kernel_size: 3
    group: 1
    weight_filler {
      type: "gaussian"
      std: 0.01
    }
    bias_filler {
      type: "constant"
      value: 1
    }
  }
}
layer {
  name: "relu4"
  type: "ReLU"
  bottom: "conv4"
  top: "relu4"
}
layer {
  name: "conv5"
  type: "Convolution"
  bottom: "relu4"
  top: "conv5"
  param {
    lr_mult: 1
    decay_mult: 1
    compression: PRUNE
  }
  param {
    lr_mult: 2
    decay_mult: 0
    compression: PRUNE
  }
  convolution_param {
    num_output: 256
    pad: 1
    kernel_size: 3
    group: 1
    weight_filler {
      type: "gaussian"
      std: 0.01
    }
    bias_filler {
      type: "constant"
      value: 1
    }
  }
}
layer {
  name: "relu5"
  type: "ReLU"
  bottom: "conv5"
  top: "relu5"
}
layer {
  name: "pool5"
  type: "Pooling"
  bottom: "relu5"
  top: "pool5"
  pooling_param {
    pool: MAX
    kernel_size: 3
    stride: 2
  }
}
layer {
  name: "fc6"
  type: "InnerProduct"
  bottom: "pool5"
  top: "fc6"
  param {
    lr_mult: 1
    decay_mult: 1
  }
  param {
    lr_mult: 2
    decay_mult: 0
  }
  inner_product_param {
    num_output: 4096
    weight_filler {
      type: "gaussian"
      std: 0.005
    }
    bias_filler {
      type: "constant"
      value: 1
    }
  }
}
layer {
  name: "relu6"
  type: "ReLU"
  bottom: "fc6"
  top: "relu6"
}
layer {
  name: "drop6"
  type: "Dropout"
  bottom: "relu6"
  top: "drop6"
  dropout_param {
    dropout_ratio: 0.5
  }
}
layer {
  name: "fc7"
  type: "InnerProduct"
  bottom: "drop6"
  top: "fc7"
  param {
    lr_mult: 1
    decay_mult: 1
  }
  param {
    lr_mult: 2
    decay_mult: 0
  }
  inner_product_param {
    num_output: 4096
    weight_filler {
      type: "gaussian"
      std: 0.005
    }
    bias_filler {
      type: "constant"
      value: 1
    }
  }
}
layer {
  name: "bn7"
  type: "BatchNorm"
  bottom: "fc7"
  top: "bn7"
  param {
    lr_mult: 0
    compression: PRUNE
  }
  param {
    lr_mult: 0
    compression: PRUNE
  }
  param {
    lr_mult: 0
    compression: PRUNE
  }
  batch_norm_param {
    use_global_stats: false
  }
}
layer {
  name: "relu7"
  type: "ReLU"
  bottom: "bn7"
  top: "relu7"
}
layer {
  name: "drop7"
  type: "Dropout"
  bottom: "relu7"
  top: "drop7"
  dropout_param {
    dropout_ratio: 0.5
  }
}
layer {
  name: "fc8"
  type: "InnerProduct"
  bottom: "drop7"
  top: "fc8"
  param {
    lr_mult: 1
    decay_mult: 1
  }
  param {
    lr_mult: 2
    decay_mult: 0
  }
  inner_product_param {
    num_output: 2
    weight_filler {
      type: "gaussian"
      std: 0.01
    }
    bias_filler {
      type: "constant"
      value: 0
    }
  }
}
layer {
  name: "loss"
  type: "SoftmaxWithLoss"
  bottom: "fc8"
  bottom: "label"
  top: "loss"
}
I0318 19:32:42.925359 23180 layer_factory.hpp:123] Creating layer data
I0318 19:32:42.925493 23180 internal_thread.cpp:73] Starting internal thread(s) on GPU 0
I0318 19:32:42.925977 23180 net.cpp:140] Creating Layer data
I0318 19:32:42.925987 23180 net.cpp:455] data -> data
I0318 19:32:42.925997 23180 net.cpp:455] data -> label
I0318 19:32:42.928201 23219 db_lmdb.cpp:81] Opened lmdb input/lmdb/train_lmdb
I0318 19:32:42.928249 23219 data_reader.cpp:166] TRAIN: reading data using 1 channel(s)
I0318 19:32:42.928576 23180 data_layer.cpp:124] ReshapePrefetch 256, 3, 227, 227
I0318 19:32:42.928647 23180 data_layer.cpp:129] output data size: 256,3,227,227
I0318 19:32:43.305611 23180 internal_thread.cpp:73] Starting internal thread(s) on GPU 0
I0318 19:32:43.305691 23180 net.cpp:190] Setting up data
I0318 19:32:43.305698 23180 net.cpp:197] Top shape: 256 3 227 227 (39574272)
I0318 19:32:43.305702 23180 net.cpp:197] Top shape: 256 (256)
I0318 19:32:43.305704 23180 net.cpp:205] Memory required for data: 158298112
I0318 19:32:43.305708 23180 layer_factory.hpp:123] Creating layer conv1
I0318 19:32:43.305723 23180 net.cpp:140] Creating Layer conv1
I0318 19:32:43.305727 23180 net.cpp:481] conv1 <- data
I0318 19:32:43.305747 23180 net.cpp:455] conv1 -> conv1
I0318 19:32:43.306248 23180 net.cpp:190] Setting up conv1
I0318 19:32:43.306255 23180 net.cpp:197] Top shape: 256 96 55 55 (74342400)
I0318 19:32:43.306258 23180 net.cpp:205] Memory required for data: 455667712
I0318 19:32:43.306269 23180 layer_factory.hpp:123] Creating layer bn1
I0318 19:32:43.306278 23180 net.cpp:140] Creating Layer bn1
I0318 19:32:43.306280 23180 net.cpp:481] bn1 <- conv1
I0318 19:32:43.306284 23180 net.cpp:455] bn1 -> bn1
I0318 19:32:43.306697 23180 net.cpp:190] Setting up bn1
I0318 19:32:43.306704 23180 net.cpp:197] Top shape: 256 96 55 55 (74342400)
I0318 19:32:43.306706 23180 net.cpp:205] Memory required for data: 753037312
I0318 19:32:43.306713 23180 layer_factory.hpp:123] Creating layer relu1
I0318 19:32:43.306718 23180 net.cpp:140] Creating Layer relu1
I0318 19:32:43.306721 23180 net.cpp:481] relu1 <- bn1
I0318 19:32:43.306725 23180 net.cpp:455] relu1 -> relu1
I0318 19:32:43.306743 23180 net.cpp:190] Setting up relu1
I0318 19:32:43.306747 23180 net.cpp:197] Top shape: 256 96 55 55 (74342400)
I0318 19:32:43.306751 23180 net.cpp:205] Memory required for data: 1050406912
I0318 19:32:43.306752 23180 layer_factory.hpp:123] Creating layer pool1
I0318 19:32:43.306757 23180 net.cpp:140] Creating Layer pool1
I0318 19:32:43.306759 23180 net.cpp:481] pool1 <- relu1
I0318 19:32:43.306763 23180 net.cpp:455] pool1 -> pool1
I0318 19:32:43.306782 23180 net.cpp:190] Setting up pool1
I0318 19:32:43.306787 23180 net.cpp:197] Top shape: 256 96 27 27 (17915904)
I0318 19:32:43.306788 23180 net.cpp:205] Memory required for data: 1122070528
I0318 19:32:43.306790 23180 layer_factory.hpp:123] Creating layer conv2
I0318 19:32:43.306797 23180 net.cpp:140] Creating Layer conv2
I0318 19:32:43.306798 23180 net.cpp:481] conv2 <- pool1
I0318 19:32:43.306802 23180 net.cpp:455] conv2 -> conv2
I0318 19:32:43.321911 23180 net.cpp:190] Setting up conv2
I0318 19:32:43.321926 23180 net.cpp:197] Top shape: 256 256 27 27 (47775744)
I0318 19:32:43.321928 23180 net.cpp:205] Memory required for data: 1313173504
I0318 19:32:43.321954 23180 layer_factory.hpp:123] Creating layer bn2
I0318 19:32:43.321960 23180 net.cpp:140] Creating Layer bn2
I0318 19:32:43.321964 23180 net.cpp:481] bn2 <- conv2
I0318 19:32:43.321969 23180 net.cpp:455] bn2 -> bn2
I0318 19:32:43.322494 23180 net.cpp:190] Setting up bn2
I0318 19:32:43.322502 23180 net.cpp:197] Top shape: 256 256 27 27 (47775744)
I0318 19:32:43.322505 23180 net.cpp:205] Memory required for data: 1504276480
I0318 19:32:43.322512 23180 layer_factory.hpp:123] Creating layer relu2
I0318 19:32:43.322517 23180 net.cpp:140] Creating Layer relu2
I0318 19:32:43.322521 23180 net.cpp:481] relu2 <- bn2
I0318 19:32:43.322525 23180 net.cpp:455] relu2 -> relu2
I0318 19:32:43.322544 23180 net.cpp:190] Setting up relu2
I0318 19:32:43.322549 23180 net.cpp:197] Top shape: 256 256 27 27 (47775744)
I0318 19:32:43.322554 23180 net.cpp:205] Memory required for data: 1695379456
I0318 19:32:43.322557 23180 layer_factory.hpp:123] Creating layer pool2
I0318 19:32:43.322584 23180 net.cpp:140] Creating Layer pool2
I0318 19:32:43.322590 23180 net.cpp:481] pool2 <- relu2
I0318 19:32:43.322597 23180 net.cpp:455] pool2 -> pool2
I0318 19:32:43.322629 23180 net.cpp:190] Setting up pool2
I0318 19:32:43.322638 23180 net.cpp:197] Top shape: 256 256 13 13 (11075584)
I0318 19:32:43.322640 23180 net.cpp:205] Memory required for data: 1739681792
I0318 19:32:43.322643 23180 layer_factory.hpp:123] Creating layer conv3
I0318 19:32:43.322669 23180 net.cpp:140] Creating Layer conv3
I0318 19:32:43.322688 23180 net.cpp:481] conv3 <- pool2
I0318 19:32:43.322695 23180 net.cpp:455] conv3 -> conv3
I0318 19:32:43.338304 23180 net.cpp:190] Setting up conv3
I0318 19:32:43.338369 23180 net.cpp:197] Top shape: 256 384 13 13 (16613376)
I0318 19:32:43.338382 23180 net.cpp:205] Memory required for data: 1806135296
I0318 19:32:43.338399 23180 layer_factory.hpp:123] Creating layer relu3
I0318 19:32:43.338419 23180 net.cpp:140] Creating Layer relu3
I0318 19:32:43.338434 23180 net.cpp:481] relu3 <- conv3
I0318 19:32:43.338454 23180 net.cpp:455] relu3 -> relu3
I0318 19:32:43.338515 23180 net.cpp:190] Setting up relu3
I0318 19:32:43.338536 23180 net.cpp:197] Top shape: 256 384 13 13 (16613376)
I0318 19:32:43.338551 23180 net.cpp:205] Memory required for data: 1872588800
I0318 19:32:43.338562 23180 layer_factory.hpp:123] Creating layer conv4
I0318 19:32:43.338585 23180 net.cpp:140] Creating Layer conv4
I0318 19:32:43.338600 23180 net.cpp:481] conv4 <- relu3
I0318 19:32:43.338618 23180 net.cpp:455] conv4 -> conv4
I0318 19:32:43.366663 23180 net.cpp:190] Setting up conv4
I0318 19:32:43.366688 23180 net.cpp:197] Top shape: 256 384 13 13 (16613376)
I0318 19:32:43.366690 23180 net.cpp:205] Memory required for data: 1939042304
I0318 19:32:43.366701 23180 layer_factory.hpp:123] Creating layer relu4
I0318 19:32:43.366713 23180 net.cpp:140] Creating Layer relu4
I0318 19:32:43.366716 23180 net.cpp:481] relu4 <- conv4
I0318 19:32:43.366724 23180 net.cpp:455] relu4 -> relu4
I0318 19:32:43.366766 23180 net.cpp:190] Setting up relu4
I0318 19:32:43.366772 23180 net.cpp:197] Top shape: 256 384 13 13 (16613376)
I0318 19:32:43.366775 23180 net.cpp:205] Memory required for data: 2005495808
I0318 19:32:43.366780 23180 layer_factory.hpp:123] Creating layer conv5
I0318 19:32:43.366794 23180 net.cpp:140] Creating Layer conv5
I0318 19:32:43.366801 23180 net.cpp:481] conv5 <- relu4
I0318 19:32:43.366811 23180 net.cpp:455] conv5 -> conv5
I0318 19:32:43.384192 23180 net.cpp:190] Setting up conv5
I0318 19:32:43.384217 23180 net.cpp:197] Top shape: 256 256 13 13 (11075584)
I0318 19:32:43.384218 23180 net.cpp:205] Memory required for data: 2049798144
I0318 19:32:43.384225 23180 layer_factory.hpp:123] Creating layer relu5
I0318 19:32:43.384234 23180 net.cpp:140] Creating Layer relu5
I0318 19:32:43.384238 23180 net.cpp:481] relu5 <- conv5
I0318 19:32:43.384244 23180 net.cpp:455] relu5 -> relu5
I0318 19:32:43.384269 23180 net.cpp:190] Setting up relu5
I0318 19:32:43.384277 23180 net.cpp:197] Top shape: 256 256 13 13 (11075584)
I0318 19:32:43.384279 23180 net.cpp:205] Memory required for data: 2094100480
I0318 19:32:43.384282 23180 layer_factory.hpp:123] Creating layer pool5
I0318 19:32:43.384286 23180 net.cpp:140] Creating Layer pool5
I0318 19:32:43.384292 23180 net.cpp:481] pool5 <- relu5
I0318 19:32:43.384299 23180 net.cpp:455] pool5 -> pool5
I0318 19:32:43.384330 23180 net.cpp:190] Setting up pool5
I0318 19:32:43.384335 23180 net.cpp:197] Top shape: 256 256 6 6 (2359296)
I0318 19:32:43.384338 23180 net.cpp:205] Memory required for data: 2103537664
I0318 19:32:43.384341 23180 layer_factory.hpp:123] Creating layer fc6
I0318 19:32:43.384349 23180 net.cpp:140] Creating Layer fc6
I0318 19:32:43.384354 23180 net.cpp:481] fc6 <- pool5
I0318 19:32:43.384359 23180 net.cpp:455] fc6 -> fc6
I0318 19:32:43.751451 23180 net.cpp:190] Setting up fc6
I0318 19:32:43.751469 23180 net.cpp:197] Top shape: 256 4096 (1048576)
I0318 19:32:43.751472 23180 net.cpp:205] Memory required for data: 2107731968
I0318 19:32:43.751479 23180 layer_factory.hpp:123] Creating layer relu6
I0318 19:32:43.751502 23180 net.cpp:140] Creating Layer relu6
I0318 19:32:43.751504 23180 net.cpp:481] relu6 <- fc6
I0318 19:32:43.751509 23180 net.cpp:455] relu6 -> relu6
I0318 19:32:43.751528 23180 net.cpp:190] Setting up relu6
I0318 19:32:43.751530 23180 net.cpp:197] Top shape: 256 4096 (1048576)
I0318 19:32:43.751533 23180 net.cpp:205] Memory required for data: 2111926272
I0318 19:32:43.751534 23180 layer_factory.hpp:123] Creating layer drop6
I0318 19:32:43.751539 23180 net.cpp:140] Creating Layer drop6
I0318 19:32:43.751559 23180 net.cpp:481] drop6 <- relu6
I0318 19:32:43.751561 23180 net.cpp:455] drop6 -> drop6
I0318 19:32:43.751581 23180 net.cpp:190] Setting up drop6
I0318 19:32:43.751585 23180 net.cpp:197] Top shape: 256 4096 (1048576)
I0318 19:32:43.751587 23180 net.cpp:205] Memory required for data: 2116120576
I0318 19:32:43.751590 23180 layer_factory.hpp:123] Creating layer fc7
I0318 19:32:43.751595 23180 net.cpp:140] Creating Layer fc7
I0318 19:32:43.751597 23180 net.cpp:481] fc7 <- drop6
I0318 19:32:43.751601 23180 net.cpp:455] fc7 -> fc7
I0318 19:32:43.888425 23180 net.cpp:190] Setting up fc7
I0318 19:32:43.888449 23180 net.cpp:197] Top shape: 256 4096 (1048576)
I0318 19:32:43.888453 23180 net.cpp:205] Memory required for data: 2120314880
I0318 19:32:43.888458 23180 layer_factory.hpp:123] Creating layer bn7
I0318 19:32:43.888466 23180 net.cpp:140] Creating Layer bn7
I0318 19:32:43.888468 23180 net.cpp:481] bn7 <- fc7
I0318 19:32:43.888475 23180 net.cpp:455] bn7 -> bn7
I0318 19:32:43.888896 23180 net.cpp:190] Setting up bn7
I0318 19:32:43.888901 23180 net.cpp:197] Top shape: 256 4096 (1048576)
I0318 19:32:43.888903 23180 net.cpp:205] Memory required for data: 2124509184
I0318 19:32:43.888911 23180 layer_factory.hpp:123] Creating layer relu7
I0318 19:32:43.888916 23180 net.cpp:140] Creating Layer relu7
I0318 19:32:43.888917 23180 net.cpp:481] relu7 <- bn7
I0318 19:32:43.888921 23180 net.cpp:455] relu7 -> relu7
I0318 19:32:43.888936 23180 net.cpp:190] Setting up relu7
I0318 19:32:43.888942 23180 net.cpp:197] Top shape: 256 4096 (1048576)
I0318 19:32:43.888944 23180 net.cpp:205] Memory required for data: 2128703488
I0318 19:32:43.888947 23180 layer_factory.hpp:123] Creating layer drop7
I0318 19:32:43.888953 23180 net.cpp:140] Creating Layer drop7
I0318 19:32:43.888957 23180 net.cpp:481] drop7 <- relu7
I0318 19:32:43.888962 23180 net.cpp:455] drop7 -> drop7
I0318 19:32:43.888984 23180 net.cpp:190] Setting up drop7
I0318 19:32:43.888989 23180 net.cpp:197] Top shape: 256 4096 (1048576)
I0318 19:32:43.888991 23180 net.cpp:205] Memory required for data: 2132897792
I0318 19:32:43.888993 23180 layer_factory.hpp:123] Creating layer fc8
I0318 19:32:43.888999 23180 net.cpp:140] Creating Layer fc8
I0318 19:32:43.889001 23180 net.cpp:481] fc8 <- drop7
I0318 19:32:43.889005 23180 net.cpp:455] fc8 -> fc8
I0318 19:32:43.889134 23180 net.cpp:190] Setting up fc8
I0318 19:32:43.889139 23180 net.cpp:197] Top shape: 256 2 (512)
I0318 19:32:43.889142 23180 net.cpp:205] Memory required for data: 2132899840
I0318 19:32:43.889145 23180 layer_factory.hpp:123] Creating layer loss
I0318 19:32:43.889149 23180 net.cpp:140] Creating Layer loss
I0318 19:32:43.889151 23180 net.cpp:481] loss <- fc8
I0318 19:32:43.889154 23180 net.cpp:481] loss <- label
I0318 19:32:43.889158 23180 net.cpp:455] loss -> loss
I0318 19:32:43.889163 23180 layer_factory.hpp:123] Creating layer loss
…
I0318 19:32:43.889557 23180 solver.cpp:235] Creating test net (#0) specified by net file: pruning/alexnetBNnoLRN/regular_rate_0.2/net_finetune.prototxt
I0318 19:32:43.889580 23180 net.cpp:369] The NetState phase (1) differed from the phase (0) specified by a rule in layer data
I0318 19:32:43.889703 23180 net.cpp:98] Initializing net from parameters:
state {
  phase: TEST
}
layer {
  name: "data"
  type: "Data"
  top: "data"
  top: "label"
  include {
    phase: TEST
  }
  transform_param {
    mirror: false
    crop_size: 227
    mean_value: 106
    mean_value: 116
    mean_value: 124
  }
  data_param {
    source: "input/lmdb/valid_lmdb"
    batch_size: 50
    backend: LMDB
  }
}
layer {
  name: "conv1"
  type: "Convolution"
  bottom: "data"
  top: "conv1"
  param {
    lr_mult: 1
    decay_mult: 1
    compression: PRUNE
  }
  param {
    lr_mult: 2
    decay_mult: 0
    compression: PRUNE
  }
  convolution_param {
    num_output: 96
    pad: 1
    kernel_size: 11
    stride: 4
    weight_filler {
      type: "gaussian"
      std: 0.01
    }
    bias_filler {
      type: "constant"
      value: 0
    }
  }
}
layer {
  name: "bn1"
  type: "BatchNorm"
  bottom: "conv1"
  top: "bn1"
  param {
    lr_mult: 0
    compression: PRUNE
  }
  param {
    lr_mult: 0
    compression: PRUNE
  }
  param {
    lr_mult: 0
    compression: PRUNE
  }
  batch_norm_param {
    use_global_stats: false
  }
}
layer {
  name: "relu1"
  type: "ReLU"
  bottom: "bn1"
  top: "relu1"
}
layer {
  name: "pool1"
  type: "Pooling"
  bottom: "relu1"
  top: "pool1"
  pooling_param {
    pool: MAX
    kernel_size: 3
    stride: 2
  }
}
layer {
  name: "conv2"
  type: "Convolution"
  bottom: "pool1"
  top: "conv2"
  param {
    lr_mult: 1
    decay_mult: 1
    compression: PRUNE
  }
  param {
    lr_mult: 2
    decay_mult: 0
    compression: PRUNE
  }
  convolution_param {
    num_output: 256
    pad: 2
    kernel_size: 5
    group: 1
    weight_filler {
      type: "gaussian"
      std: 0.01
    }
    bias_filler {
      type: "constant"
      value: 1
    }
  }
}
layer {
  name: "bn2"
  type: "BatchNorm"
  bottom: "conv2"
  top: "bn2"
  param {
    lr_mult: 0
    compression: PRUNE
  }
  param {
    lr_mult: 0
    compression: PRUNE
  }
  param {
    lr_mult: 0
    compression: PRUNE
  }
  batch_norm_param {
    use_global_stats: false
  }
}
layer {
  name: "relu2"
  type: "ReLU"
  bottom: "bn2"
  top: "relu2"
}
layer {
  name: "pool2"
  type: "Pooling"
  bottom: "relu2"
  top: "pool2"
  pooling_param {
    pool: MAX
    kernel_size: 3
    stride: 2
  }
}
layer {
  name: "conv3"
  type: "Convolution"
  bottom: "pool2"
  top: "conv3"
  param {
    lr_mult: 1
    decay_mult: 1
    compression: PRUNE
  }
  param {
    lr_mult: 2
    decay_mult: 0
    compression: PRUNE
  }
  convolution_param {
    num_output: 384
    pad: 1
    kernel_size: 3
    weight_filler {
      type: "gaussian"
      std: 0.01
    }
    bias_filler {
      type: "constant"
      value: 0
    }
  }
}
layer {
  name: "relu3"
  type: "ReLU"
  bottom: "conv3"
  top: "relu3"
}
layer {
  name: "conv4"
  type: "Convolution"
  bottom: "relu3"
  top: "conv4"
  param {
    lr_mult: 1
    decay_mult: 1
    compression: PRUNE
  }
  param {
    lr_mult: 2
    decay_mult: 0
    compression: PRUNE
  }
  convolution_param {
    num_output: 384
    pad: 1
    kernel_size: 3
    group: 1
    weight_filler {
      type: "gaussian"
      std: 0.01
    }
    bias_filler {
      type: "constant"
      value: 1
    }
  }
}
layer {
  name: "relu4"
  type: "ReLU"
  bottom: "conv4"
  top: "relu4"
}
layer {
  name: "conv5"
  type: "Convolution"
  bottom: "relu4"
  top: "conv5"
  param {
    lr_mult: 1
    decay_mult: 1
    compression: PRUNE
  }
  param {
    lr_mult: 2
    decay_mult: 0
    compression: PRUNE
  }
  convolution_param {
    num_output: 256
    pad: 1
    kernel_size: 3
    group: 1
    weight_filler {
      type: "gaussian"
      std: 0.01
    }
    bias_filler {
      type: "constant"
      value: 1
    }
  }
}
layer {
  name: "relu5"
  type: "ReLU"
  bottom: "conv5"
  top: "relu5"
}
layer {
  name: "pool5"
  type: "Pooling"
  bottom: "relu5"
  top: "pool5"
  pooling_param {
    pool: MAX
    kernel_size: 3
    stride: 2
  }
}
layer {
  name: "fc6"
  type: "InnerProduct"
  bottom: "pool5"
  top: "fc6"
  param {
    lr_mult: 1
    decay_mult: 1
  }
  param {
    lr_mult: 2
    decay_mult: 0
  }
  inner_product_param {
    num_output: 4096
    weight_filler {
      type: "gaussian"
      std: 0.005
    }
    bias_filler {
      type: "constant"
      value: 1
    }
  }
}
layer {
  name: "relu6"
  type: "ReLU"
  bottom: "fc6"
  top: "relu6"
}
layer {
  name: "drop6"
  type: "Dropout"
  bottom: "relu6"
  top: "drop6"
  dropout_param {
    dropout_ratio: 0.5
  }
}
layer {
  name: "fc7"
  type: "InnerProduct"
  bottom: "drop6"
  top: "fc7"
  param {
    lr_mult: 1
    decay_mult: 1
  }
  param {
    lr_mult: 2
    decay_mult: 0
  }
  inner_product_param {
    num_output: 4096
    weight_filler {
      type: "gaussian"
      std: 0.005
    }
    bias_filler {
      type: "constant"
      value: 1
    }
  }
}
layer {
  name: "bn7"
  type: "BatchNorm"
  bottom: "fc7"
  top: "bn7"
  param {
    lr_mult: 0
    compression: PRUNE
  }
  param {
    lr_mult: 0
    compression: PRUNE
  }
  param {
    lr_mult: 0
    compression: PRUNE
  }
  batch_norm_param {
    use_global_stats: false
  }
}
layer {
  name: "relu7"
  type: "ReLU"
  bottom: "bn7"
  top: "relu7"
}
layer {
  name: "drop7"
  type: "Dropout"
  bottom: "relu7"
  top: "drop7"
  dropout_param {
    dropout_ratio: 0.5
  }
}
layer {
  name: "fc8"
  type: "InnerProduct"
  bottom: "drop7"
  top: "fc8"
  param {
    lr_mult: 1
    decay_mult: 1
  }
  param {
    lr_mult: 2
    decay_mult: 0
  }
  inner_product_param {
    num_output: 2
    weight_filler {
      type: "gaussian"
      std: 0.01
    }
    bias_filler {
      type: "constant"
      value: 0
    }
  }
}
layer {
  name: "accuracy"
  type: "Accuracy"
  bottom: "fc8"
  bottom: "label"
  top: "accuracy"
  include {
    phase: TEST
  }
}
layer {
  name: "loss"
  type: "SoftmaxWithLoss"
  bottom: "fc8"
  bottom: "label"
  top: "loss"
}
layer {
  name: "accuracy-top1"
  type: "Accuracy"
  bottom: "fc8"
  bottom: "label"
  top: "top-1"
  include {
    phase: TEST
  }
}
I0318 19:32:43.889789 23180 layer_factory.hpp:123] Creating layer data
I0318 19:32:43.889827 23180 internal_thread.cpp:73] Starting internal thread(s) on GPU 0
I0318 19:32:43.890347 23180 net.cpp:140] Creating Layer data
I0318 19:32:43.890360 23180 net.cpp:455] data -> data
I0318 19:32:43.890374 23180 net.cpp:455] data -> label
I0318 19:32:43.892802 23249 db_lmdb.cpp:81] Opened lmdb input/lmdb/valid_lmdb
I0318 19:32:43.892838 23249 data_reader.cpp:166] TEST: reading data using 1 channel(s)
I0318 19:32:43.893160 23180 data_layer.cpp:124] ReshapePrefetch 50, 3, 227, 227
I0318 19:32:43.893225 23180 data_layer.cpp:129] output data size: 50,3,227,227
I0318 19:32:43.970435 23180 internal_thread.cpp:73] Starting internal thread(s) on GPU 0
I0318 19:32:43.970497 23180 net.cpp:190] Setting up data
I0318 19:32:43.970521 23180 net.cpp:197] Top shape: 50 3 227 227 (7729350)
I0318 19:32:43.970525 23180 net.cpp:197] Top shape: 50 (50)
I0318 19:32:43.970526 23180 net.cpp:205] Memory required for data: 30917600
I0318 19:32:43.970530 23180 layer_factory.hpp:123] Creating layer label_data_1_split
I0318 19:32:43.970541 23180 net.cpp:140] Creating Layer label_data_1_split
I0318 19:32:43.970543 23180 net.cpp:481] label_data_1_split <- label
I0318 19:32:43.970548 23180 net.cpp:455] label_data_1_split -> label_data_1_split_0
I0318 19:32:43.970554 23180 net.cpp:455] label_data_1_split -> label_data_1_split_1
I0318 19:32:43.970558 23180 net.cpp:455] label_data_1_split -> label_data_1_split_2
I0318 19:32:43.970634 23180 net.cpp:190] Setting up label_data_1_split
I0318 19:32:43.970639 23180 net.cpp:197] Top shape: 50 (50)
I0318 19:32:43.970643 23180 net.cpp:197] Top shape: 50 (50)
I0318 19:32:43.970645 23180 net.cpp:197] Top shape: 50 (50)
I0318 19:32:43.970647 23180 net.cpp:205] Memory required for data: 30918200
I0318 19:32:43.970649 23180 layer_factory.hpp:123] Creating layer conv1
I0318 19:32:43.970657 23180 net.cpp:140] Creating Layer conv1
I0318 19:32:43.970662 23180 net.cpp:481] conv1 <- data
I0318 19:32:43.970665 23180 net.cpp:455] conv1 -> conv1
I0318 19:32:43.971151 23180 net.cpp:190] Setting up conv1
I0318 19:32:43.971158 23180 net.cpp:197] Top shape: 50 96 55 55 (14520000)
I0318 19:32:43.971161 23180 net.cpp:205] Memory required for data: 88998200
I0318 19:32:43.971170 23180 layer_factory.hpp:123] Creating layer bn1
I0318 19:32:43.971175 23180 net.cpp:140] Creating Layer bn1
I0318 19:32:43.971181 23180 net.cpp:481] bn1 <- conv1
I0318 19:32:43.971186 23180 net.cpp:455] bn1 -> bn1
I0318 19:32:43.971611 23180 net.cpp:190] Setting up bn1
I0318 19:32:43.971616 23180 net.cpp:197] Top shape: 50 96 55 55 (14520000)
I0318 19:32:43.971619 23180 net.cpp:205] Memory required for data: 147078200
I0318 19:32:43.971627 23180 layer_factory.hpp:123] Creating layer relu1
I0318 19:32:43.971632 23180 net.cpp:140] Creating Layer relu1
I0318 19:32:43.971634 23180 net.cpp:481] relu1 <- bn1
I0318 19:32:43.971639 23180 net.cpp:455] relu1 -> relu1
I0318 19:32:43.971653 23180 net.cpp:190] Setting up relu1
I0318 19:32:43.971658 23180 net.cpp:197] Top shape: 50 96 55 55 (14520000)
I0318 19:32:43.971662 23180 net.cpp:205] Memory required for data: 205158200
I0318 19:32:43.971664 23180 layer_factory.hpp:123] Creating layer pool1
I0318 19:32:43.971670 23180 net.cpp:140] Creating Layer pool1
I0318 19:32:43.971673 23180 net.cpp:481] pool1 <- relu1
I0318 19:32:43.971676 23180 net.cpp:455] pool1 -> pool1
I0318 19:32:43.971700 23180 net.cpp:190] Setting up pool1
I0318 19:32:43.971705 23180 net.cpp:197] Top shape: 50 96 27 27 (3499200)
I0318 19:32:43.971707 23180 net.cpp:205] Memory required for data: 219155000
I0318 19:32:43.971709 23180 layer_factory.hpp:123] Creating layer conv2
I0318 19:32:43.971716 23180 net.cpp:140] Creating Layer conv2
I0318 19:32:43.971719 23180 net.cpp:481] conv2 <- pool1
I0318 19:32:43.971729 23180 net.cpp:455] conv2 -> conv2
I0318 19:32:43.977777 23180 net.cpp:190] Setting up conv2
I0318 19:32:43.977794 23180 net.cpp:197] Top shape: 50 256 27 27 (9331200)
I0318 19:32:43.977799 23180 net.cpp:205] Memory required for data: 256479800
I0318 19:32:43.977807 23180 layer_factory.hpp:123] Creating layer bn2
I0318 19:32:43.977815 23180 net.cpp:140] Creating Layer bn2
I0318 19:32:43.977818 23180 net.cpp:481] bn2 <- conv2
I0318 19:32:43.977880 23180 net.cpp:455] bn2 -> bn2
I0318 19:32:43.980445 23180 net.cpp:190] Setting up bn2
I0318 19:32:43.980453 23180 net.cpp:197] Top shape: 50 256 27 27 (9331200)
I0318 19:32:43.980458 23180 net.cpp:205] Memory required for data: 293804600
I0318 19:32:43.980465 23180 layer_factory.hpp:123] Creating layer relu2
I0318 19:32:43.980484 23180 net.cpp:140] Creating Layer relu2
I0318 19:32:43.980490 23180 net.cpp:481] relu2 <- bn2
I0318 19:32:43.980505 23180 net.cpp:455] relu2 -> relu2
I0318 19:32:43.980530 23180 net.cpp:190] Setting up relu2
I0318 19:32:43.980536 23180 net.cpp:197] Top shape: 50 256 27 27 (9331200)
I0318 19:32:43.980567 23180 net.cpp:205] Memory required for data: 331129400
I0318 19:32:43.980574 23180 layer_factory.hpp:123] Creating layer pool2
I0318 19:32:43.980621 23180 net.cpp:140] Creating Layer pool2
I0318 19:32:43.980626 23180 net.cpp:481] pool2 <- relu2
I0318 19:32:43.980633 23180 net.cpp:455] pool2 -> pool2
I0318 19:32:43.980685 23180 net.cpp:190] Setting up pool2
I0318 19:32:43.980692 23180 net.cpp:197] Top shape: 50 256 13 13 (2163200)
I0318 19:32:43.980695 23180 net.cpp:205] Memory required for data: 339782200
I0318 19:32:43.980697 23180 layer_factory.hpp:123] Creating layer conv3
I0318 19:32:43.980718 23180 net.cpp:140] Creating Layer conv3
I0318 19:32:43.980736 23180 net.cpp:481] conv3 <- pool2
I0318 19:32:43.980744 23180 net.cpp:455] conv3 -> conv3
I0318 19:32:43.991842 23180 net.cpp:190] Setting up conv3
I0318 19:32:43.991863 23180 net.cpp:197] Top shape: 50 384 13 13 (3244800)
I0318 19:32:43.991866 23180 net.cpp:205] Memory required for data: 352761400
I0318 19:32:43.991873 23180 layer_factory.hpp:123] Creating layer relu3
I0318 19:32:43.991880 23180 net.cpp:140] Creating Layer relu3
I0318 19:32:43.991884 23180 net.cpp:481] relu3 <- conv3
I0318 19:32:43.991890 23180 net.cpp:455] relu3 -> relu3
I0318 19:32:43.991914 23180 net.cpp:190] Setting up relu3
I0318 19:32:43.991917 23180 net.cpp:197] Top shape: 50 384 13 13 (3244800)
I0318 19:32:43.991919 23180 net.cpp:205] Memory required for data: 365740600
I0318 19:32:43.991922 23180 layer_factory.hpp:123] Creating layer conv4
I0318 19:32:43.991932 23180 net.cpp:140] Creating Layer conv4
I0318 19:32:43.991935 23180 net.cpp:481] conv4 <- relu3
I0318 19:32:43.991940 23180 net.cpp:455] conv4 -> conv4
I0318 19:32:44.006340 23180 net.cpp:190] Setting up conv4
I0318 19:32:44.006361 23180 net.cpp:197] Top shape: 50 384 13 13 (3244800)
I0318 19:32:44.006363 23180 net.cpp:205] Memory required for data: 378719800
I0318 19:32:44.006376 23180 layer_factory.hpp:123] Creating layer relu4
I0318 19:32:44.006383 23180 net.cpp:140] Creating Layer relu4
I0318 19:32:44.006387 23180 net.cpp:481] relu4 <- conv4
I0318 19:32:44.006394 23180 net.cpp:455] relu4 -> relu4
I0318 19:32:44.006422 23180 net.cpp:190] Setting up relu4
I0318 19:32:44.006429 23180 net.cpp:197] Top shape: 50 384 13 13 (3244800)
I0318 19:32:44.006433 23180 net.cpp:205] Memory required for data: 391699000
I0318 19:32:44.006436 23180 layer_factory.hpp:123] Creating layer conv5
I0318 19:32:44.006448 23180 net.cpp:140] Creating Layer conv5
I0318 19:32:44.006455 23180 net.cpp:481] conv5 <- relu4
I0318 19:32:44.006469 23180 net.cpp:455] conv5 -> conv5
I0318 19:32:44.016798 23180 net.cpp:190] Setting up conv5
I0318 19:32:44.016816 23180 net.cpp:197] Top shape: 50 256 13 13 (2163200)
I0318 19:32:44.016819 23180 net.cpp:205] Memory required for data: 400351800
I0318 19:32:44.016825 23180 layer_factory.hpp:123] Creating layer relu5
I0318 19:32:44.016832 23180 net.cpp:140] Creating Layer relu5
I0318 19:32:44.016835 23180 net.cpp:481] relu5 <- conv5
I0318 19:32:44.016842 23180 net.cpp:455] relu5 -> relu5
I0318 19:32:44.016862 23180 net.cpp:190] Setting up relu5
I0318 19:32:44.016865 23180 net.cpp:197] Top shape: 50 256 13 13 (2163200)
I0318 19:32:44.016867 23180 net.cpp:205] Memory required for data: 409004600
I0318 19:32:44.016870 23180 layer_factory.hpp:123] Creating layer pool5
I0318 19:32:44.016880 23180 net.cpp:140] Creating Layer pool5
I0318 19:32:44.016881 23180 net.cpp:481] pool5 <- relu5
I0318 19:32:44.016901 23180 net.cpp:455] pool5 -> pool5
I0318 19:32:44.016924 23180 net.cpp:190] Setting up pool5
I0318 19:32:44.016928 23180 net.cpp:197] Top shape: 50 256 6 6 (460800)
I0318 19:32:44.016930 23180 net.cpp:205] Memory required for data: 410847800
I0318 19:32:44.016932 23180 layer_factory.hpp:123] Creating layer fc6
I0318 19:32:44.016938 23180 net.cpp:140] Creating Layer fc6
I0318 19:32:44.016940 23180 net.cpp:481] fc6 <- pool5
I0318 19:32:44.016945 23180 net.cpp:455] fc6 -> fc6
I0318 19:32:44.331770 23180 net.cpp:190] Setting up fc6
I0318 19:32:44.331792 23180 net.cpp:197] Top shape: 50 4096 (204800)
I0318 19:32:44.331810 23180 net.cpp:205] Memory required for data: 411667000
I0318 19:32:44.331817 23180 layer_factory.hpp:123] Creating layer relu6
I0318 19:32:44.331823 23180 net.cpp:140] Creating Layer relu6
I0318 19:32:44.331827 23180 net.cpp:481] relu6 <- fc6
I0318 19:32:44.331835 23180 net.cpp:455] relu6 -> relu6
I0318 19:32:44.331857 23180 net.cpp:190] Setting up relu6
I0318 19:32:44.331861 23180 net.cpp:197] Top shape: 50 4096 (204800)
I0318 19:32:44.331881 23180 net.cpp:205] Memory required for data: 412486200
I0318 19:32:44.331882 23180 layer_factory.hpp:123] Creating layer drop6
I0318 19:32:44.331887 23180 net.cpp:140] Creating Layer drop6
I0318 19:32:44.331889 23180 net.cpp:481] drop6 <- relu6
I0318 19:32:44.331893 23180 net.cpp:455] drop6 -> drop6
I0318 19:32:44.331912 23180 net.cpp:190] Setting up drop6
I0318 19:32:44.331917 23180 net.cpp:197] Top shape: 50 4096 (204800)
I0318 19:32:44.331918 23180 net.cpp:205] Memory required for data: 413305400
I0318 19:32:44.331921 23180 layer_factory.hpp:123] Creating layer fc7
I0318 19:32:44.331926 23180 net.cpp:140] Creating Layer fc7
I0318 19:32:44.331928 23180 net.cpp:481] fc7 <- drop6
I0318 19:32:44.331931 23180 net.cpp:455] fc7 -> fc7
I0318 19:32:44.467476 23180 net.cpp:190] Setting up fc7
I0318 19:32:44.467500 23180 net.cpp:197] Top shape: 50 4096 (204800)
I0318 19:32:44.467502 23180 net.cpp:205] Memory required for data: 414124600
I0318 19:32:44.467525 23180 layer_factory.hpp:123] Creating layer bn7
I0318 19:32:44.467535 23180 net.cpp:140] Creating Layer bn7
I0318 19:32:44.467537 23180 net.cpp:481] bn7 <- fc7
I0318 19:32:44.467552 23180 net.cpp:455] bn7 -> bn7
I0318 19:32:44.467988 23180 net.cpp:190] Setting up bn7
I0318 19:32:44.467994 23180 net.cpp:197] Top shape: 50 4096 (204800)
I0318 19:32:44.467996 23180 net.cpp:205] Memory required for data: 414943800
I0318 19:32:44.468003 23180 layer_factory.hpp:123] Creating layer relu7
I0318 19:32:44.468008 23180 net.cpp:140] Creating Layer relu7
I0318 19:32:44.468010 23180 net.cpp:481] relu7 <- bn7
I0318 19:32:44.468014 23180 net.cpp:455] relu7 -> relu7
I0318 19:32:44.468031 23180 net.cpp:190] Setting up relu7
I0318 19:32:44.468039 23180 net.cpp:197] Top shape: 50 4096 (204800)
I0318 19:32:44.468042 23180 net.cpp:205] Memory required for data: 415763000
I0318 19:32:44.468045 23180 layer_factory.hpp:123] Creating layer drop7
I0318 19:32:44.468066 23180 net.cpp:140] Creating Layer drop7
I0318 19:32:44.468070 23180 net.cpp:481] drop7 <- relu7
I0318 19:32:44.468075 23180 net.cpp:455] drop7 -> drop7
I0318 19:32:44.468101 23180 net.cpp:190] Setting up drop7
I0318 19:32:44.468106 23180 net.cpp:197] Top shape: 50 4096 (204800)
I0318 19:32:44.468108 23180 net.cpp:205] Memory required for data: 416582200
I0318 19:32:44.468111 23180 layer_factory.hpp:123] Creating layer fc8
I0318 19:32:44.468117 23180 net.cpp:140] Creating Layer fc8
I0318 19:32:44.468120 23180 net.cpp:481] fc8 <- drop7
I0318 19:32:44.468124 23180 net.cpp:455] fc8 -> fc8
I0318 19:32:44.468266 23180 net.cpp:190] Setting up fc8
I0318 19:32:44.468269 23180 net.cpp:197] Top shape: 50 2 (100)
I0318 19:32:44.468271 23180 net.cpp:205] Memory required for data: 416582600
I0318 19:32:44.468276 23180 layer_factory.hpp:123] Creating layer fc8_fc8_0_split
I0318 19:32:44.468281 23180 net.cpp:140] Creating Layer fc8_fc8_0_split
I0318 19:32:44.468284 23180 net.cpp:481] fc8_fc8_0_split <- fc8
I0318 19:32:44.468287 23180 net.cpp:455] fc8_fc8_0_split -> fc8_fc8_0_split_0
I0318 19:32:44.468292 23180 net.cpp:455] fc8_fc8_0_split -> fc8_fc8_0_split_1
I0318 19:32:44.468299 23180 net.cpp:455] fc8_fc8_0_split -> fc8_fc8_0_split_2
I0318 19:32:44.468336 23180 net.cpp:190] Setting up fc8_fc8_0_split
I0318 19:32:44.468341 23180 net.cpp:197] Top shape: 50 2 (100)
I0318 19:32:44.468343 23180 net.cpp:197] Top shape: 50 2 (100)
I0318 19:32:44.468346 23180 net.cpp:197] Top shape: 50 2 (100)
I0318 19:32:44.468348 23180 net.cpp:205] Memory required for data: 416583800
I0318 19:32:44.468350 23180 layer_factory.hpp:123] Creating layer accuracy
I0318 19:32:44.468356 23180 net.cpp:140] Creating Layer accuracy
I0318 19:32:44.468371 23180 net.cpp:481] accuracy <- fc8_fc8_0_split_0
I0318 19:32:44.468375 23180 net.cpp:481] accuracy <- label_data_1_split_0
I0318 19:32:44.468379 23180 net.cpp:455] accuracy -> accuracy
…
