…
I0319 00:02:15.107751 32250 net.cpp:369] The NetState phase (0) differed from the phase (1) specified by a rule in layer accuracy
I0319 00:02:15.107754 32250 net.cpp:369] The NetState phase (0) differed from the phase (1) specified by a rule in layer accuracy-top1
I0319 00:02:15.107859 32250 net.cpp:98] Initializing net from parameters:
state {
  phase: TRAIN
}
layer {
  name: "data"
  type: "Data"
  top: "data"
  top: "label"
  include {
    phase: TRAIN
  }
  transform_param {
    mirror: true
    crop_size: 227
    mean_value: 106
    mean_value: 116
    mean_value: 124
  }
  data_param {
    source: "input/lmdb/train_lmdb"
    batch_size: 256
    backend: LMDB
  }
}
layer {
  name: "conv1"
  type: "Convolution"
  bottom: "data"
  top: "conv1"
  param {
    lr_mult: 1
    decay_mult: 1
    compression: PRUNE
  }
  param {
    lr_mult: 2
    decay_mult: 0
    compression: PRUNE
  }
  convolution_param {
    num_output: 96
    pad: 1
    kernel_size: 11
    stride: 4
    weight_filler {
      type: "gaussian"
      std: 0.01
    }
    bias_filler {
      type: "constant"
      value: 0
    }
  }
}
layer {
  name: "bn1"
  type: "BatchNorm"
  bottom: "conv1"
  top: "bn1"
  param {
    lr_mult: 0
    compression: PRUNE
  }
  param {
    lr_mult: 0
    compression: PRUNE
  }
  param {
    lr_mult: 0
    compression: PRUNE
  }
  batch_norm_param {
    use_global_stats: false
  }
}
layer {
  name: "relu1"
  type: "ReLU"
  bottom: "bn1"
  top: "relu1"
}
layer {
  name: "pool1"
  type: "Pooling"
  bottom: "relu1"
  top: "pool1"
  pooling_param {
    pool: MAX
    kernel_size: 3
    stride: 2
  }
}
layer {
  name: "conv2"
  type: "Convolution"
  bottom: "pool1"
  top: "conv2"
  param {
    lr_mult: 1
    decay_mult: 1
    compression: PRUNE
  }
  param {
    lr_mult: 2
    decay_mult: 0
    compression: PRUNE
  }
  convolution_param {
    num_output: 256
    pad: 2
    kernel_size: 5
    group: 1
    weight_filler {
      type: "gaussian"
      std: 0.01
    }
    bias_filler {
      type: "constant"
      value: 1
    }
  }
}
layer {
  name: "bn2"
  type: "BatchNorm"
  bottom: "conv2"
  top: "bn2"
  param {
    lr_mult: 0
    compression: PRUNE
  }
  param {
    lr_mult: 0
    compression: PRUNE
  }
  param {
    lr_mult: 0
    compression: PRUNE
  }
  batch_norm_param {
    use_global_stats: false
  }
}
layer {
  name: "relu2"
  type: "ReLU"
  bottom: "bn2"
  top: "relu2"
}
layer {
  name: "pool2"
  type: "Pooling"
  bottom: "relu2"
  top: "pool2"
  pooling_param {
    pool: MAX
    kernel_size: 3
    stride: 2
  }
}
layer {
  name: "conv3"
  type: "Convolution"
  bottom: "pool2"
  top: "conv3"
  param {
    lr_mult: 1
    decay_mult: 1
    compression: PRUNE
  }
  param {
    lr_mult: 2
    decay_mult: 0
    compression: PRUNE
  }
  convolution_param {
    num_output: 384
    pad: 1
    kernel_size: 3
    weight_filler {
      type: "gaussian"
      std: 0.01
    }
    bias_filler {
      type: "constant"
      value: 0
    }
  }
}
layer {
  name: "relu3"
  type: "ReLU"
  bottom: "conv3"
  top: "relu3"
}
layer {
  name: "conv4"
  type: "Convolution"
  bottom: "relu3"
  top: "conv4"
  param {
    lr_mult: 1
    decay_mult: 1
    compression: PRUNE
  }
  param {
    lr_mult: 2
    decay_mult: 0
    compression: PRUNE
  }
  convolution_param {
    num_output: 384
    pad: 1
    kernel_size: 3
    group: 1
    weight_filler {
      type: "gaussian"
      std: 0.01
    }
    bias_filler {
      type: "constant"
      value: 1
    }
  }
}
layer {
  name: "relu4"
  type: "ReLU"
  bottom: "conv4"
  top: "relu4"
}
layer {
  name: "conv5"
  type: "Convolution"
  bottom: "relu4"
  top: "conv5"
  param {
    lr_mult: 1
    decay_mult: 1
    compression: PRUNE
  }
  param {
    lr_mult: 2
    decay_mult: 0
    compression: PRUNE
  }
  convolution_param {
    num_output: 256
    pad: 1
    kernel_size: 3
    group: 1
    weight_filler {
      type: "gaussian"
      std: 0.01
    }
    bias_filler {
      type: "constant"
      value: 1
    }
  }
}
layer {
  name: "relu5"
  type: "ReLU"
  bottom: "conv5"
  top: "relu5"
}
layer {
  name: "pool5"
  type: "Pooling"
  bottom: "relu5"
  top: "pool5"
  pooling_param {
    pool: MAX
    kernel_size: 3
    stride: 2
  }
}
layer {
  name: "fc6"
  type: "InnerProduct"
  bottom: "pool5"
  top: "fc6"
  param {
    lr_mult: 1
    decay_mult: 1
  }
  param {
    lr_mult: 2
    decay_mult: 0
  }
  inner_product_param {
    num_output: 4096
    weight_filler {
      type: "gaussian"
      std: 0.005
    }
    bias_filler {
      type: "constant"
      value: 1
    }
  }
}
layer {
  name: "relu6"
  type: "ReLU"
  bottom: "fc6"
  top: "relu6"
}
layer {
  name: "drop6"
  type: "Dropout"
  bottom: "relu6"
  top: "drop6"
  dropout_param {
    dropout_ratio: 0.5
  }
}
layer {
  name: "fc7"
  type: "InnerProduct"
  bottom: "drop6"
  top: "fc7"
  param {
    lr_mult: 1
    decay_mult: 1
  }
  param {
    lr_mult: 2
    decay_mult: 0
  }
  inner_product_param {
    num_output: 4096
    weight_filler {
      type: "gaussian"
      std: 0.005
    }
    bias_filler {
      type: "constant"
      value: 1
    }
  }
}
layer {
  name: "bn7"
  type: "BatchNorm"
  bottom: "fc7"
  top: "bn7"
  param {
    lr_mult: 0
    compression: PRUNE
  }
  param {
    lr_mult: 0
    compression: PRUNE
  }
  param {
    lr_mult: 0
    compression: PRUNE
  }
  batch_norm_param {
    use_global_stats: false
  }
}
layer {
  name: "relu7"
  type: "ReLU"
  bottom: "bn7"
  top: "relu7"
}
layer {
  name: "drop7"
  type: "Dropout"
  bottom: "relu7"
  top: "drop7"
  dropout_param {
    dropout_ratio: 0.5
  }
}
layer {
  name: "fc8"
  type: "InnerProduct"
  bottom: "drop7"
  top: "fc8"
  param {
    lr_mult: 1
    decay_mult: 1
  }
  param {
    lr_mult: 2
    decay_mult: 0
  }
  inner_product_param {
    num_output: 2
    weight_filler {
      type: "gaussian"
      std: 0.01
    }
    bias_filler {
      type: "constant"
      value: 0
    }
  }
}
layer {
  name: "loss"
  type: "SoftmaxWithLoss"
  bottom: "fc8"
  bottom: "label"
  top: "loss"
}
I0319 00:02:15.107913 32250 layer_factory.hpp:123] Creating layer data
I0319 00:02:15.108006 32250 internal_thread.cpp:73] Starting internal thread(s) on GPU 0
I0319 00:02:15.108541 32250 net.cpp:140] Creating Layer data
I0319 00:02:15.108549 32250 net.cpp:455] data -> data
I0319 00:02:15.108557 32250 net.cpp:455] data -> label
I0319 00:02:15.110728 32289 db_lmdb.cpp:81] Opened lmdb input/lmdb/train_lmdb
I0319 00:02:15.110785 32289 data_reader.cpp:166] TRAIN: reading data using 1 channel(s)
I0319 00:02:15.111050 32250 data_layer.cpp:124] ReshapePrefetch 256, 3, 227, 227
I0319 00:02:15.111119 32250 data_layer.cpp:129] output data size: 256,3,227,227
I0319 00:02:15.496896 32250 internal_thread.cpp:73] Starting internal thread(s) on GPU 0
I0319 00:02:15.496964 32250 net.cpp:190] Setting up data
I0319 00:02:15.496973 32250 net.cpp:197] Top shape: 256 3 227 227 (39574272)
I0319 00:02:15.496975 32250 net.cpp:197] Top shape: 256 (256)
I0319 00:02:15.496978 32250 net.cpp:205] Memory required for data: 158298112
I0319 00:02:15.496982 32250 layer_factory.hpp:123] Creating layer conv1
I0319 00:02:15.496994 32250 net.cpp:140] Creating Layer conv1
I0319 00:02:15.496997 32250 net.cpp:481] conv1 <- data
I0319 00:02:15.497010 32250 net.cpp:455] conv1 -> conv1
I0319 00:02:15.497570 32250 net.cpp:190] Setting up conv1
I0319 00:02:15.497576 32250 net.cpp:197] Top shape: 256 96 55 55 (74342400)
I0319 00:02:15.497579 32250 net.cpp:205] Memory required for data: 455667712
I0319 00:02:15.497591 32250 layer_factory.hpp:123] Creating layer bn1
I0319 00:02:15.497599 32250 net.cpp:140] Creating Layer bn1
I0319 00:02:15.497602 32250 net.cpp:481] bn1 <- conv1
I0319 00:02:15.497607 32250 net.cpp:455] bn1 -> bn1
I0319 00:02:15.498075 32250 net.cpp:190] Setting up bn1
I0319 00:02:15.498081 32250 net.cpp:197] Top shape: 256 96 55 55 (74342400)
I0319 00:02:15.498085 32250 net.cpp:205] Memory required for data: 753037312
I0319 00:02:15.498092 32250 layer_factory.hpp:123] Creating layer relu1
I0319 00:02:15.498097 32250 net.cpp:140] Creating Layer relu1
I0319 00:02:15.498100 32250 net.cpp:481] relu1 <- bn1
I0319 00:02:15.498104 32250 net.cpp:455] relu1 -> relu1
I0319 00:02:15.498127 32250 net.cpp:190] Setting up relu1
I0319 00:02:15.498132 32250 net.cpp:197] Top shape: 256 96 55 55 (74342400)
I0319 00:02:15.498136 32250 net.cpp:205] Memory required for data: 1050406912
I0319 00:02:15.498138 32250 layer_factory.hpp:123] Creating layer pool1
I0319 00:02:15.498143 32250 net.cpp:140] Creating Layer pool1
I0319 00:02:15.498145 32250 net.cpp:481] pool1 <- relu1
I0319 00:02:15.498149 32250 net.cpp:455] pool1 -> pool1
I0319 00:02:15.498172 32250 net.cpp:190] Setting up pool1
I0319 00:02:15.498175 32250 net.cpp:197] Top shape: 256 96 27 27 (17915904)
I0319 00:02:15.498178 32250 net.cpp:205] Memory required for data: 1122070528
I0319 00:02:15.498180 32250 layer_factory.hpp:123] Creating layer conv2
I0319 00:02:15.498186 32250 net.cpp:140] Creating Layer conv2
I0319 00:02:15.498188 32250 net.cpp:481] conv2 <- pool1
I0319 00:02:15.498193 32250 net.cpp:455] conv2 -> conv2
I0319 00:02:15.513255 32250 net.cpp:190] Setting up conv2
I0319 00:02:15.513273 32250 net.cpp:197] Top shape: 256 256 27 27 (47775744)
I0319 00:02:15.513275 32250 net.cpp:205] Memory required for data: 1313173504
I0319 00:02:15.513283 32250 layer_factory.hpp:123] Creating layer bn2
I0319 00:02:15.513290 32250 net.cpp:140] Creating Layer bn2
I0319 00:02:15.513293 32250 net.cpp:481] bn2 <- conv2
I0319 00:02:15.513298 32250 net.cpp:455] bn2 -> bn2
I0319 00:02:15.513761 32250 net.cpp:190] Setting up bn2
I0319 00:02:15.513767 32250 net.cpp:197] Top shape: 256 256 27 27 (47775744)
I0319 00:02:15.513772 32250 net.cpp:205] Memory required for data: 1504276480
I0319 00:02:15.513779 32250 layer_factory.hpp:123] Creating layer relu2
I0319 00:02:15.513784 32250 net.cpp:140] Creating Layer relu2
I0319 00:02:15.513787 32250 net.cpp:481] relu2 <- bn2
I0319 00:02:15.513792 32250 net.cpp:455] relu2 -> relu2
I0319 00:02:15.513808 32250 net.cpp:190] Setting up relu2
I0319 00:02:15.513816 32250 net.cpp:197] Top shape: 256 256 27 27 (47775744)
I0319 00:02:15.513819 32250 net.cpp:205] Memory required for data: 1695379456
I0319 00:02:15.513823 32250 layer_factory.hpp:123] Creating layer pool2
I0319 00:02:15.513828 32250 net.cpp:140] Creating Layer pool2
I0319 00:02:15.513830 32250 net.cpp:481] pool2 <- relu2
I0319 00:02:15.513835 32250 net.cpp:455] pool2 -> pool2
I0319 00:02:15.513859 32250 net.cpp:190] Setting up pool2
I0319 00:02:15.513864 32250 net.cpp:197] Top shape: 256 256 13 13 (11075584)
I0319 00:02:15.513867 32250 net.cpp:205] Memory required for data: 1739681792
I0319 00:02:15.513870 32250 layer_factory.hpp:123] Creating layer conv3
I0319 00:02:15.513877 32250 net.cpp:140] Creating Layer conv3
I0319 00:02:15.513893 32250 net.cpp:481] conv3 <- pool2
I0319 00:02:15.513897 32250 net.cpp:455] conv3 -> conv3
I0319 00:02:15.535058 32250 net.cpp:190] Setting up conv3
I0319 00:02:15.535084 32250 net.cpp:197] Top shape: 256 384 13 13 (16613376)
I0319 00:02:15.535087 32250 net.cpp:205] Memory required for data: 1806135296
I0319 00:02:15.535095 32250 layer_factory.hpp:123] Creating layer relu3
I0319 00:02:15.535107 32250 net.cpp:140] Creating Layer relu3
I0319 00:02:15.535111 32250 net.cpp:481] relu3 <- conv3
I0319 00:02:15.535143 32250 net.cpp:455] relu3 -> relu3
I0319 00:02:15.535198 32250 net.cpp:190] Setting up relu3
I0319 00:02:15.535214 32250 net.cpp:197] Top shape: 256 384 13 13 (16613376)
I0319 00:02:15.535225 32250 net.cpp:205] Memory required for data: 1872588800
I0319 00:02:15.535236 32250 layer_factory.hpp:123] Creating layer conv4
I0319 00:02:15.535254 32250 net.cpp:140] Creating Layer conv4
I0319 00:02:15.535267 32250 net.cpp:481] conv4 <- relu3
I0319 00:02:15.535281 32250 net.cpp:455] conv4 -> conv4
I0319 00:02:15.554975 32250 net.cpp:190] Setting up conv4
I0319 00:02:15.554998 32250 net.cpp:197] Top shape: 256 384 13 13 (16613376)
I0319 00:02:15.555001 32250 net.cpp:205] Memory required for data: 1939042304
I0319 00:02:15.555011 32250 layer_factory.hpp:123] Creating layer relu4
I0319 00:02:15.555017 32250 net.cpp:140] Creating Layer relu4
I0319 00:02:15.555020 32250 net.cpp:481] relu4 <- conv4
I0319 00:02:15.555025 32250 net.cpp:455] relu4 -> relu4
I0319 00:02:15.555044 32250 net.cpp:190] Setting up relu4
I0319 00:02:15.555047 32250 net.cpp:197] Top shape: 256 384 13 13 (16613376)
I0319 00:02:15.555049 32250 net.cpp:205] Memory required for data: 2005495808
I0319 00:02:15.555052 32250 layer_factory.hpp:123] Creating layer conv5
I0319 00:02:15.555058 32250 net.cpp:140] Creating Layer conv5
I0319 00:02:15.555060 32250 net.cpp:481] conv5 <- relu4
I0319 00:02:15.555063 32250 net.cpp:455] conv5 -> conv5
I0319 00:02:15.571099 32250 net.cpp:190] Setting up conv5
I0319 00:02:15.571163 32250 net.cpp:197] Top shape: 256 256 13 13 (11075584)
I0319 00:02:15.571177 32250 net.cpp:205] Memory required for data: 2049798144
I0319 00:02:15.571194 32250 layer_factory.hpp:123] Creating layer relu5
I0319 00:02:15.571213 32250 net.cpp:140] Creating Layer relu5
I0319 00:02:15.571228 32250 net.cpp:481] relu5 <- conv5
I0319 00:02:15.571244 32250 net.cpp:455] relu5 -> relu5
I0319 00:02:15.571287 32250 net.cpp:190] Setting up relu5
I0319 00:02:15.571302 32250 net.cpp:197] Top shape: 256 256 13 13 (11075584)
I0319 00:02:15.571313 32250 net.cpp:205] Memory required for data: 2094100480
I0319 00:02:15.571326 32250 layer_factory.hpp:123] Creating layer pool5
I0319 00:02:15.571341 32250 net.cpp:140] Creating Layer pool5
I0319 00:02:15.571353 32250 net.cpp:481] pool5 <- relu5
I0319 00:02:15.571367 32250 net.cpp:455] pool5 -> pool5
I0319 00:02:15.571414 32250 net.cpp:190] Setting up pool5
I0319 00:02:15.571429 32250 net.cpp:197] Top shape: 256 256 6 6 (2359296)
I0319 00:02:15.571441 32250 net.cpp:205] Memory required for data: 2103537664
I0319 00:02:15.571452 32250 layer_factory.hpp:123] Creating layer fc6
I0319 00:02:15.571470 32250 net.cpp:140] Creating Layer fc6
I0319 00:02:15.571481 32250 net.cpp:481] fc6 <- pool5
I0319 00:02:15.571496 32250 net.cpp:455] fc6 -> fc6
I0319 00:02:15.932463 32250 net.cpp:190] Setting up fc6
I0319 00:02:15.932487 32250 net.cpp:197] Top shape: 256 4096 (1048576)
I0319 00:02:15.932489 32250 net.cpp:205] Memory required for data: 2107731968
I0319 00:02:15.932497 32250 layer_factory.hpp:123] Creating layer relu6
I0319 00:02:15.932505 32250 net.cpp:140] Creating Layer relu6
I0319 00:02:15.932525 32250 net.cpp:481] relu6 <- fc6
I0319 00:02:15.932533 32250 net.cpp:455] relu6 -> relu6
I0319 00:02:15.932550 32250 net.cpp:190] Setting up relu6
I0319 00:02:15.932554 32250 net.cpp:197] Top shape: 256 4096 (1048576)
I0319 00:02:15.932557 32250 net.cpp:205] Memory required for data: 2111926272
I0319 00:02:15.932560 32250 layer_factory.hpp:123] Creating layer drop6
I0319 00:02:15.932566 32250 net.cpp:140] Creating Layer drop6
I0319 00:02:15.932580 32250 net.cpp:481] drop6 <- relu6
I0319 00:02:15.932585 32250 net.cpp:455] drop6 -> drop6
I0319 00:02:15.932607 32250 net.cpp:190] Setting up drop6
I0319 00:02:15.932612 32250 net.cpp:197] Top shape: 256 4096 (1048576)
I0319 00:02:15.932615 32250 net.cpp:205] Memory required for data: 2116120576
I0319 00:02:15.932617 32250 layer_factory.hpp:123] Creating layer fc7
I0319 00:02:15.932641 32250 net.cpp:140] Creating Layer fc7
I0319 00:02:15.932644 32250 net.cpp:481] fc7 <- drop6
I0319 00:02:15.932649 32250 net.cpp:455] fc7 -> fc7
I0319 00:02:16.069219 32250 net.cpp:190] Setting up fc7
I0319 00:02:16.069247 32250 net.cpp:197] Top shape: 256 4096 (1048576)
I0319 00:02:16.069250 32250 net.cpp:205] Memory required for data: 2120314880
I0319 00:02:16.069259 32250 layer_factory.hpp:123] Creating layer bn7
I0319 00:02:16.069269 32250 net.cpp:140] Creating Layer bn7
I0319 00:02:16.069288 32250 net.cpp:481] bn7 <- fc7
I0319 00:02:16.069298 32250 net.cpp:455] bn7 -> bn7
I0319 00:02:16.069703 32250 net.cpp:190] Setting up bn7
I0319 00:02:16.069710 32250 net.cpp:197] Top shape: 256 4096 (1048576)
I0319 00:02:16.069712 32250 net.cpp:205] Memory required for data: 2124509184
I0319 00:02:16.069722 32250 layer_factory.hpp:123] Creating layer relu7
I0319 00:02:16.069728 32250 net.cpp:140] Creating Layer relu7
I0319 00:02:16.069732 32250 net.cpp:481] relu7 <- bn7
I0319 00:02:16.069737 32250 net.cpp:455] relu7 -> relu7
I0319 00:02:16.069754 32250 net.cpp:190] Setting up relu7
I0319 00:02:16.069759 32250 net.cpp:197] Top shape: 256 4096 (1048576)
I0319 00:02:16.069761 32250 net.cpp:205] Memory required for data: 2128703488
I0319 00:02:16.069764 32250 layer_factory.hpp:123] Creating layer drop7
I0319 00:02:16.069772 32250 net.cpp:140] Creating Layer drop7
I0319 00:02:16.069775 32250 net.cpp:481] drop7 <- relu7
I0319 00:02:16.069780 32250 net.cpp:455] drop7 -> drop7
I0319 00:02:16.069802 32250 net.cpp:190] Setting up drop7
I0319 00:02:16.069806 32250 net.cpp:197] Top shape: 256 4096 (1048576)
I0319 00:02:16.069809 32250 net.cpp:205] Memory required for data: 2132897792
I0319 00:02:16.069811 32250 layer_factory.hpp:123] Creating layer fc8
I0319 00:02:16.069818 32250 net.cpp:140] Creating Layer fc8
I0319 00:02:16.069823 32250 net.cpp:481] fc8 <- drop7
I0319 00:02:16.069828 32250 net.cpp:455] fc8 -> fc8
I0319 00:02:16.069952 32250 net.cpp:190] Setting up fc8
I0319 00:02:16.069957 32250 net.cpp:197] Top shape: 256 2 (512)
I0319 00:02:16.069960 32250 net.cpp:205] Memory required for data: 2132899840
I0319 00:02:16.069965 32250 layer_factory.hpp:123] Creating layer loss
I0319 00:02:16.069972 32250 net.cpp:140] Creating Layer loss
I0319 00:02:16.069975 32250 net.cpp:481] loss <- fc8
I0319 00:02:16.069980 32250 net.cpp:481] loss <- label
I0319 00:02:16.069985 32250 net.cpp:455] loss -> loss
I0319 00:02:16.069993 32250 layer_factory.hpp:123] Creating layer loss
…
I0319 00:02:16.070403 32250 solver.cpp:235] Creating test net (#0) specified by net file: pruning/alexnetBNnoLRN/regular_rate_0.7/net_finetune.prototxt
I0319 00:02:16.070428 32250 net.cpp:369] The NetState phase (1) differed from the phase (0) specified by a rule in layer data
I0319 00:02:16.070554 32250 net.cpp:98] Initializing net from parameters:
state {
  phase: TEST
}
layer {
  name: "data"
  type: "Data"
  top: "data"
  top: "label"
  include {
    phase: TEST
  }
  transform_param {
    mirror: false
    crop_size: 227
    mean_value: 106
    mean_value: 116
    mean_value: 124
  }
  data_param {
    source: "input/lmdb/valid_lmdb"
    batch_size: 50
    backend: LMDB
  }
}
layer {
  name: "conv1"
  type: "Convolution"
  bottom: "data"
  top: "conv1"
  param {
    lr_mult: 1
    decay_mult: 1
    compression: PRUNE
  }
  param {
    lr_mult: 2
    decay_mult: 0
    compression: PRUNE
  }
  convolution_param {
    num_output: 96
    pad: 1
    kernel_size: 11
    stride: 4
    weight_filler {
      type: "gaussian"
      std: 0.01
    }
    bias_filler {
      type: "constant"
      value: 0
    }
  }
}
layer {
  name: "bn1"
  type: "BatchNorm"
  bottom: "conv1"
  top: "bn1"
  param {
    lr_mult: 0
    compression: PRUNE
  }
  param {
    lr_mult: 0
    compression: PRUNE
  }
  param {
    lr_mult: 0
    compression: PRUNE
  }
  batch_norm_param {
    use_global_stats: false
  }
}
layer {
  name: "relu1"
  type: "ReLU"
  bottom: "bn1"
  top: "relu1"
}
layer {
  name: "pool1"
  type: "Pooling"
  bottom: "relu1"
  top: "pool1"
  pooling_param {
    pool: MAX
    kernel_size: 3
    stride: 2
  }
}
layer {
  name: "conv2"
  type: "Convolution"
  bottom: "pool1"
  top: "conv2"
  param {
    lr_mult: 1
    decay_mult: 1
    compression: PRUNE
  }
  param {
    lr_mult: 2
    decay_mult: 0
    compression: PRUNE
  }
  convolution_param {
    num_output: 256
    pad: 2
    kernel_size: 5
    group: 1
    weight_filler {
      type: "gaussian"
      std: 0.01
    }
    bias_filler {
      type: "constant"
      value: 1
    }
  }
}
layer {
  name: "bn2"
  type: "BatchNorm"
  bottom: "conv2"
  top: "bn2"
  param {
    lr_mult: 0
    compression: PRUNE
  }
  param {
    lr_mult: 0
    compression: PRUNE
  }
  param {
    lr_mult: 0
    compression: PRUNE
  }
  batch_norm_param {
    use_global_stats: false
  }
}
layer {
  name: "relu2"
  type: "ReLU"
  bottom: "bn2"
  top: "relu2"
}
layer {
  name: "pool2"
  type: "Pooling"
  bottom: "relu2"
  top: "pool2"
  pooling_param {
    pool: MAX
    kernel_size: 3
    stride: 2
  }
}
layer {
  name: "conv3"
  type: "Convolution"
  bottom: "pool2"
  top: "conv3"
  param {
    lr_mult: 1
    decay_mult: 1
    compression: PRUNE
  }
  param {
    lr_mult: 2
    decay_mult: 0
    compression: PRUNE
  }
  convolution_param {
    num_output: 384
    pad: 1
    kernel_size: 3
    weight_filler {
      type: "gaussian"
      std: 0.01
    }
    bias_filler {
      type: "constant"
      value: 0
    }
  }
}
layer {
  name: "relu3"
  type: "ReLU"
  bottom: "conv3"
  top: "relu3"
}
layer {
  name: "conv4"
  type: "Convolution"
  bottom: "relu3"
  top: "conv4"
  param {
    lr_mult: 1
    decay_mult: 1
    compression: PRUNE
  }
  param {
    lr_mult: 2
    decay_mult: 0
    compression: PRUNE
  }
  convolution_param {
    num_output: 384
    pad: 1
    kernel_size: 3
    group: 1
    weight_filler {
      type: "gaussian"
      std: 0.01
    }
    bias_filler {
      type: "constant"
      value: 1
    }
  }
}
layer {
  name: "relu4"
  type: "ReLU"
  bottom: "conv4"
  top: "relu4"
}
layer {
  name: "conv5"
  type: "Convolution"
  bottom: "relu4"
  top: "conv5"
  param {
    lr_mult: 1
    decay_mult: 1
    compression: PRUNE
  }
  param {
    lr_mult: 2
    decay_mult: 0
    compression: PRUNE
  }
  convolution_param {
    num_output: 256
    pad: 1
    kernel_size: 3
    group: 1
    weight_filler {
      type: "gaussian"
      std: 0.01
    }
    bias_filler {
      type: "constant"
      value: 1
    }
  }
}
layer {
  name: "relu5"
  type: "ReLU"
  bottom: "conv5"
  top: "relu5"
}
layer {
  name: "pool5"
  type: "Pooling"
  bottom: "relu5"
  top: "pool5"
  pooling_param {
    pool: MAX
    kernel_size: 3
    stride: 2
  }
}
layer {
  name: "fc6"
  type: "InnerProduct"
  bottom: "pool5"
  top: "fc6"
  param {
    lr_mult: 1
    decay_mult: 1
  }
  param {
    lr_mult: 2
    decay_mult: 0
  }
  inner_product_param {
    num_output: 4096
    weight_filler {
      type: "gaussian"
      std: 0.005
    }
    bias_filler {
      type: "constant"
      value: 1
    }
  }
}
layer {
  name: "relu6"
  type: "ReLU"
  bottom: "fc6"
  top: "relu6"
}
layer {
  name: "drop6"
  type: "Dropout"
  bottom: "relu6"
  top: "drop6"
  dropout_param {
    dropout_ratio: 0.5
  }
}
layer {
  name: "fc7"
  type: "InnerProduct"
  bottom: "drop6"
  top: "fc7"
  param {
    lr_mult: 1
    decay_mult: 1
  }
  param {
    lr_mult: 2
    decay_mult: 0
  }
  inner_product_param {
    num_output: 4096
    weight_filler {
      type: "gaussian"
      std: 0.005
    }
    bias_filler {
      type: "constant"
      value: 1
    }
  }
}
layer {
  name: "bn7"
  type: "BatchNorm"
  bottom: "fc7"
  top: "bn7"
  param {
    lr_mult: 0
    compression: PRUNE
  }
  param {
    lr_mult: 0
    compression: PRUNE
  }
  param {
    lr_mult: 0
    compression: PRUNE
  }
  batch_norm_param {
    use_global_stats: false
  }
}
layer {
  name: "relu7"
  type: "ReLU"
  bottom: "bn7"
  top: "relu7"
}
layer {
  name: "drop7"
  type: "Dropout"
  bottom: "relu7"
  top: "drop7"
  dropout_param {
    dropout_ratio: 0.5
  }
}
layer {
  name: "fc8"
  type: "InnerProduct"
  bottom: "drop7"
  top: "fc8"
  param {
    lr_mult: 1
    decay_mult: 1
  }
  param {
    lr_mult: 2
    decay_mult: 0
  }
  inner_product_param {
    num_output: 2
    weight_filler {
      type: "gaussian"
      std: 0.01
    }
    bias_filler {
      type: "constant"
      value: 0
    }
  }
}
layer {
  name: "accuracy"
  type: "Accuracy"
  bottom: "fc8"
  bottom: "label"
  top: "accuracy"
  include {
    phase: TEST
  }
}
layer {
  name: "loss"
  type: "SoftmaxWithLoss"
  bottom: "fc8"
  bottom: "label"
  top: "loss"
}
layer {
  name: "accuracy-top1"
  type: "Accuracy"
  bottom: "fc8"
  bottom: "label"
  top: "top-1"
  include {
    phase: TEST
  }
}
I0319 00:02:16.070627 32250 layer_factory.hpp:123] Creating layer data
I0319 00:02:16.070662 32250 internal_thread.cpp:73] Starting internal thread(s) on GPU 0
I0319 00:02:16.071158 32250 net.cpp:140] Creating Layer data
I0319 00:02:16.071169 32250 net.cpp:455] data -> data
I0319 00:02:16.071178 32250 net.cpp:455] data -> label
I0319 00:02:16.073650 32320 db_lmdb.cpp:81] Opened lmdb input/lmdb/valid_lmdb
I0319 00:02:16.073685 32320 data_reader.cpp:166] TEST: reading data using 1 channel(s)
I0319 00:02:16.073941 32250 data_layer.cpp:124] ReshapePrefetch 50, 3, 227, 227
I0319 00:02:16.074004 32250 data_layer.cpp:129] output data size: 50,3,227,227
I0319 00:02:16.151693 32250 internal_thread.cpp:73] Starting internal thread(s) on GPU 0
I0319 00:02:16.151748 32250 net.cpp:190] Setting up data
I0319 00:02:16.151769 32250 net.cpp:197] Top shape: 50 3 227 227 (7729350)
I0319 00:02:16.151774 32250 net.cpp:197] Top shape: 50 (50)
I0319 00:02:16.151777 32250 net.cpp:205] Memory required for data: 30917600
I0319 00:02:16.151782 32250 layer_factory.hpp:123] Creating layer label_data_1_split
I0319 00:02:16.151795 32250 net.cpp:140] Creating Layer label_data_1_split
I0319 00:02:16.151799 32250 net.cpp:481] label_data_1_split <- label
I0319 00:02:16.151805 32250 net.cpp:455] label_data_1_split -> label_data_1_split_0
I0319 00:02:16.151815 32250 net.cpp:455] label_data_1_split -> label_data_1_split_1
I0319 00:02:16.151821 32250 net.cpp:455] label_data_1_split -> label_data_1_split_2
I0319 00:02:16.151878 32250 net.cpp:190] Setting up label_data_1_split
I0319 00:02:16.151882 32250 net.cpp:197] Top shape: 50 (50)
I0319 00:02:16.151886 32250 net.cpp:197] Top shape: 50 (50)
I0319 00:02:16.151891 32250 net.cpp:197] Top shape: 50 (50)
I0319 00:02:16.151895 32250 net.cpp:205] Memory required for data: 30918200
I0319 00:02:16.151898 32250 layer_factory.hpp:123] Creating layer conv1
I0319 00:02:16.151908 32250 net.cpp:140] Creating Layer conv1
I0319 00:02:16.151912 32250 net.cpp:481] conv1 <- data
I0319 00:02:16.151917 32250 net.cpp:455] conv1 -> conv1
I0319 00:02:16.152468 32250 net.cpp:190] Setting up conv1
I0319 00:02:16.152477 32250 net.cpp:197] Top shape: 50 96 55 55 (14520000)
I0319 00:02:16.152480 32250 net.cpp:205] Memory required for data: 88998200
I0319 00:02:16.152493 32250 layer_factory.hpp:123] Creating layer bn1
I0319 00:02:16.152500 32250 net.cpp:140] Creating Layer bn1
I0319 00:02:16.152505 32250 net.cpp:481] bn1 <- conv1
I0319 00:02:16.152513 32250 net.cpp:455] bn1 -> bn1
I0319 00:02:16.152985 32250 net.cpp:190] Setting up bn1
I0319 00:02:16.152992 32250 net.cpp:197] Top shape: 50 96 55 55 (14520000)
I0319 00:02:16.152994 32250 net.cpp:205] Memory required for data: 147078200
I0319 00:02:16.153007 32250 layer_factory.hpp:123] Creating layer relu1
I0319 00:02:16.153014 32250 net.cpp:140] Creating Layer relu1
I0319 00:02:16.153018 32250 net.cpp:481] relu1 <- bn1
I0319 00:02:16.153023 32250 net.cpp:455] relu1 -> relu1
I0319 00:02:16.153043 32250 net.cpp:190] Setting up relu1
I0319 00:02:16.153048 32250 net.cpp:197] Top shape: 50 96 55 55 (14520000)
I0319 00:02:16.153050 32250 net.cpp:205] Memory required for data: 205158200
I0319 00:02:16.153053 32250 layer_factory.hpp:123] Creating layer pool1
I0319 00:02:16.153061 32250 net.cpp:140] Creating Layer pool1
I0319 00:02:16.153065 32250 net.cpp:481] pool1 <- relu1
I0319 00:02:16.153071 32250 net.cpp:455] pool1 -> pool1
I0319 00:02:16.153095 32250 net.cpp:190] Setting up pool1
I0319 00:02:16.153101 32250 net.cpp:197] Top shape: 50 96 27 27 (3499200)
I0319 00:02:16.153105 32250 net.cpp:205] Memory required for data: 219155000
I0319 00:02:16.153107 32250 layer_factory.hpp:123] Creating layer conv2
I0319 00:02:16.153115 32250 net.cpp:140] Creating Layer conv2
I0319 00:02:16.153120 32250 net.cpp:481] conv2 <- pool1
I0319 00:02:16.153124 32250 net.cpp:455] conv2 -> conv2
I0319 00:02:16.159250 32250 net.cpp:190] Setting up conv2
I0319 00:02:16.159268 32250 net.cpp:197] Top shape: 50 256 27 27 (9331200)
I0319 00:02:16.159273 32250 net.cpp:205] Memory required for data: 256479800
I0319 00:02:16.159286 32250 layer_factory.hpp:123] Creating layer bn2
I0319 00:02:16.159294 32250 net.cpp:140] Creating Layer bn2
I0319 00:02:16.159299 32250 net.cpp:481] bn2 <- conv2
I0319 00:02:16.159308 32250 net.cpp:455] bn2 -> bn2
I0319 00:02:16.159745 32250 net.cpp:190] Setting up bn2
I0319 00:02:16.159752 32250 net.cpp:197] Top shape: 50 256 27 27 (9331200)
I0319 00:02:16.159755 32250 net.cpp:205] Memory required for data: 293804600
I0319 00:02:16.159766 32250 layer_factory.hpp:123] Creating layer relu2
I0319 00:02:16.159775 32250 net.cpp:140] Creating Layer relu2
I0319 00:02:16.159780 32250 net.cpp:481] relu2 <- bn2
I0319 00:02:16.159785 32250 net.cpp:455] relu2 -> relu2
I0319 00:02:16.159806 32250 net.cpp:190] Setting up relu2
I0319 00:02:16.159812 32250 net.cpp:197] Top shape: 50 256 27 27 (9331200)
I0319 00:02:16.159826 32250 net.cpp:205] Memory required for data: 331129400
I0319 00:02:16.159829 32250 layer_factory.hpp:123] Creating layer pool2
I0319 00:02:16.159837 32250 net.cpp:140] Creating Layer pool2
I0319 00:02:16.159842 32250 net.cpp:481] pool2 <- relu2
I0319 00:02:16.159847 32250 net.cpp:455] pool2 -> pool2
I0319 00:02:16.159873 32250 net.cpp:190] Setting up pool2
I0319 00:02:16.159878 32250 net.cpp:197] Top shape: 50 256 13 13 (2163200)
I0319 00:02:16.159881 32250 net.cpp:205] Memory required for data: 339782200
I0319 00:02:16.159885 32250 layer_factory.hpp:123] Creating layer conv3
I0319 00:02:16.159894 32250 net.cpp:140] Creating Layer conv3
I0319 00:02:16.159898 32250 net.cpp:481] conv3 <- pool2
I0319 00:02:16.159904 32250 net.cpp:455] conv3 -> conv3
I0319 00:02:16.171474 32250 net.cpp:190] Setting up conv3
I0319 00:02:16.171496 32250 net.cpp:197] Top shape: 50 384 13 13 (3244800)
I0319 00:02:16.171500 32250 net.cpp:205] Memory required for data: 352761400
I0319 00:02:16.171509 32250 layer_factory.hpp:123] Creating layer relu3
I0319 00:02:16.171521 32250 net.cpp:140] Creating Layer relu3
I0319 00:02:16.171526 32250 net.cpp:481] relu3 <- conv3
I0319 00:02:16.171535 32250 net.cpp:455] relu3 -> relu3
I0319 00:02:16.171561 32250 net.cpp:190] Setting up relu3
I0319 00:02:16.171566 32250 net.cpp:197] Top shape: 50 384 13 13 (3244800)
I0319 00:02:16.171591 32250 net.cpp:205] Memory required for data: 365740600
I0319 00:02:16.171598 32250 layer_factory.hpp:123] Creating layer conv4
I0319 00:02:16.171610 32250 net.cpp:140] Creating Layer conv4
I0319 00:02:16.171614 32250 net.cpp:481] conv4 <- relu3
I0319 00:02:16.171620 32250 net.cpp:455] conv4 -> conv4
I0319 00:02:16.185703 32250 net.cpp:190] Setting up conv4
I0319 00:02:16.185729 32250 net.cpp:197] Top shape: 50 384 13 13 (3244800)
I0319 00:02:16.185731 32250 net.cpp:205] Memory required for data: 378719800
I0319 00:02:16.185745 32250 layer_factory.hpp:123] Creating layer relu4
I0319 00:02:16.185755 32250 net.cpp:140] Creating Layer relu4
I0319 00:02:16.185763 32250 net.cpp:481] relu4 <- conv4
I0319 00:02:16.185770 32250 net.cpp:455] relu4 -> relu4
I0319 00:02:16.185801 32250 net.cpp:190] Setting up relu4
I0319 00:02:16.185807 32250 net.cpp:197] Top shape: 50 384 13 13 (3244800)
I0319 00:02:16.185814 32250 net.cpp:205] Memory required for data: 391699000
I0319 00:02:16.185817 32250 layer_factory.hpp:123] Creating layer conv5
I0319 00:02:16.185827 32250 net.cpp:140] Creating Layer conv5
I0319 00:02:16.185834 32250 net.cpp:481] conv5 <- relu4
I0319 00:02:16.185842 32250 net.cpp:455] conv5 -> conv5
I0319 00:02:16.194550 32250 net.cpp:190] Setting up conv5
I0319 00:02:16.194573 32250 net.cpp:197] Top shape: 50 256 13 13 (2163200)
I0319 00:02:16.194577 32250 net.cpp:205] Memory required for data: 400351800
I0319 00:02:16.194587 32250 layer_factory.hpp:123] Creating layer relu5
I0319 00:02:16.194595 32250 net.cpp:140] Creating Layer relu5
I0319 00:02:16.194602 32250 net.cpp:481] relu5 <- conv5
I0319 00:02:16.194610 32250 net.cpp:455] relu5 -> relu5
I0319 00:02:16.194641 32250 net.cpp:190] Setting up relu5
I0319 00:02:16.194648 32250 net.cpp:197] Top shape: 50 256 13 13 (2163200)
I0319 00:02:16.194653 32250 net.cpp:205] Memory required for data: 409004600
I0319 00:02:16.194658 32250 layer_factory.hpp:123] Creating layer pool5
I0319 00:02:16.194665 32250 net.cpp:140] Creating Layer pool5
I0319 00:02:16.194670 32250 net.cpp:481] pool5 <- relu5
I0319 00:02:16.194675 32250 net.cpp:455] pool5 -> pool5
I0319 00:02:16.194711 32250 net.cpp:190] Setting up pool5
I0319 00:02:16.194717 32250 net.cpp:197] Top shape: 50 256 6 6 (460800)
I0319 00:02:16.194721 32250 net.cpp:205] Memory required for data: 410847800
I0319 00:02:16.194725 32250 layer_factory.hpp:123] Creating layer fc6
I0319 00:02:16.194734 32250 net.cpp:140] Creating Layer fc6
I0319 00:02:16.194739 32250 net.cpp:481] fc6 <- pool5
I0319 00:02:16.194744 32250 net.cpp:455] fc6 -> fc6
I0319 00:02:16.509475 32250 net.cpp:190] Setting up fc6
I0319 00:02:16.509503 32250 net.cpp:197] Top shape: 50 4096 (204800)
I0319 00:02:16.509546 32250 net.cpp:205] Memory required for data: 411667000
I0319 00:02:16.509554 32250 layer_factory.hpp:123] Creating layer relu6
I0319 00:02:16.509563 32250 net.cpp:140] Creating Layer relu6
I0319 00:02:16.509568 32250 net.cpp:481] relu6 <- fc6
I0319 00:02:16.509575 32250 net.cpp:455] relu6 -> relu6
I0319 00:02:16.509601 32250 net.cpp:190] Setting up relu6
I0319 00:02:16.509605 32250 net.cpp:197] Top shape: 50 4096 (204800)
I0319 00:02:16.509608 32250 net.cpp:205] Memory required for data: 412486200
I0319 00:02:16.509611 32250 layer_factory.hpp:123] Creating layer drop6
I0319 00:02:16.509618 32250 net.cpp:140] Creating Layer drop6
I0319 00:02:16.509622 32250 net.cpp:481] drop6 <- relu6
I0319 00:02:16.509627 32250 net.cpp:455] drop6 -> drop6
I0319 00:02:16.509646 32250 net.cpp:190] Setting up drop6
I0319 00:02:16.509667 32250 net.cpp:197] Top shape: 50 4096 (204800)
I0319 00:02:16.509670 32250 net.cpp:205] Memory required for data: 413305400
I0319 00:02:16.509673 32250 layer_factory.hpp:123] Creating layer fc7
I0319 00:02:16.509680 32250 net.cpp:140] Creating Layer fc7
I0319 00:02:16.509685 32250 net.cpp:481] fc7 <- drop6
I0319 00:02:16.509688 32250 net.cpp:455] fc7 -> fc7
I0319 00:02:16.646170 32250 net.cpp:190] Setting up fc7
I0319 00:02:16.646194 32250 net.cpp:197] Top shape: 50 4096 (204800)
I0319 00:02:16.646198 32250 net.cpp:205] Memory required for data: 414124600
I0319 00:02:16.646205 32250 layer_factory.hpp:123] Creating layer bn7
I0319 00:02:16.646215 32250 net.cpp:140] Creating Layer bn7
I0319 00:02:16.646219 32250 net.cpp:481] bn7 <- fc7
I0319 00:02:16.646227 32250 net.cpp:455] bn7 -> bn7
I0319 00:02:16.646636 32250 net.cpp:190] Setting up bn7
I0319 00:02:16.646643 32250 net.cpp:197] Top shape: 50 4096 (204800)
I0319 00:02:16.646646 32250 net.cpp:205] Memory required for data: 414943800
I0319 00:02:16.646654 32250 layer_factory.hpp:123] Creating layer relu7
I0319 00:02:16.646661 32250 net.cpp:140] Creating Layer relu7
I0319 00:02:16.646665 32250 net.cpp:481] relu7 <- bn7
I0319 00:02:16.646670 32250 net.cpp:455] relu7 -> relu7
I0319 00:02:16.646687 32250 net.cpp:190] Setting up relu7
I0319 00:02:16.646692 32250 net.cpp:197] Top shape: 50 4096 (204800)
I0319 00:02:16.646697 32250 net.cpp:205] Memory required for data: 415763000
I0319 00:02:16.646698 32250 layer_factory.hpp:123] Creating layer drop7
I0319 00:02:16.646704 32250 net.cpp:140] Creating Layer drop7
I0319 00:02:16.646708 32250 net.cpp:481] drop7 <- relu7
I0319 00:02:16.646713 32250 net.cpp:455] drop7 -> drop7
I0319 00:02:16.646733 32250 net.cpp:190] Setting up drop7
I0319 00:02:16.646737 32250 net.cpp:197] Top shape: 50 4096 (204800)
I0319 00:02:16.646740 32250 net.cpp:205] Memory required for data: 416582200
I0319 00:02:16.646744 32250 layer_factory.hpp:123] Creating layer fc8
I0319 00:02:16.646750 32250 net.cpp:140] Creating Layer fc8
I0319 00:02:16.646754 32250 net.cpp:481] fc8 <- drop7
I0319 00:02:16.646759 32250 net.cpp:455] fc8 -> fc8
I0319 00:02:16.646885 32250 net.cpp:190] Setting up fc8
I0319 00:02:16.646889 32250 net.cpp:197] Top shape: 50 2 (100)
I0319 00:02:16.646893 32250 net.cpp:205] Memory required for data: 416582600
I0319 00:02:16.646898 32250 layer_factory.hpp:123] Creating layer fc8_fc8_0_split
I0319 00:02:16.646903 32250 net.cpp:140] Creating Layer fc8_fc8_0_split
I0319 00:02:16.646908 32250 net.cpp:481] fc8_fc8_0_split <- fc8
I0319 00:02:16.646911 32250 net.cpp:455] fc8_fc8_0_split -> fc8_fc8_0_split_0
I0319 00:02:16.646917 32250 net.cpp:455] fc8_fc8_0_split -> fc8_fc8_0_split_1
I0319 00:02:16.646924 32250 net.cpp:455] fc8_fc8_0_split -> fc8_fc8_0_split_2
I0319 00:02:16.646952 32250 net.cpp:190] Setting up fc8_fc8_0_split
I0319 00:02:16.646956 32250 net.cpp:197] Top shape: 50 2 (100)
I0319 00:02:16.646960 32250 net.cpp:197] Top shape: 50 2 (100)
I0319 00:02:16.646965 32250 net.cpp:197] Top shape: 50 2 (100)
I0319 00:02:16.646967 32250 net.cpp:205] Memory required for data: 416583800
I0319 00:02:16.646970 32250 layer_factory.hpp:123] Creating layer accuracy
I0319 00:02:16.646975 32250 net.cpp:140] Creating Layer accuracy
I0319 00:02:16.646991 32250 net.cpp:481] accuracy <- fc8_fc8_0_split_0
I0319 00:02:16.646994 32250 net.cpp:481] accuracy <- label_data_1_split_0
I0319 00:02:16.647001 32250 net.cpp:455] accuracy -> accuracy
…
