…
W0319 10:44:28.142552 46194 utils.cpp:207] BVLC BatchNormLayer without ScaleLayer detected: 21, it will be converted to NVCaffe Format.
I0319 10:44:28.142769 46194 net.cpp:369] The NetState phase (1) differed from the phase (0) specified by a rule in layer data
I0319 10:44:28.143208 46194 net.cpp:98] Initializing net from parameters:
state {
  phase: TEST
}
layer {
  name: "data"
  type: "Data"
  top: "data"
  top: "label"
  include {
    phase: TEST
  }
  transform_param {
    mirror: false
    crop_size: 227
    mean_value: 106
    mean_value: 116
    mean_value: 124
  }
  data_param {
    source: "input/lmdb/valid_lmdb"
    batch_size: 50
    backend: LMDB
  }
}
layer {
  name: "conv1"
  type: "Convolution"
  bottom: "data"
  top: "conv1"
  param {
    lr_mult: 1
    decay_mult: 1
  }
  param {
    lr_mult: 2
    decay_mult: 0
  }
  convolution_param {
    num_output: 96
    pad: 1
    kernel_size: 11
    stride: 4
    weight_filler {
      type: "gaussian"
      std: 0.01
    }
    bias_filler {
      type: "constant"
      value: 0
    }
  }
}
layer {
  name: "bn1"
  type: "BatchNorm"
  bottom: "conv1"
  top: "bn1"
  param {
    lr_mult: 0
  }
  param {
    lr_mult: 0
  }
  param {
    lr_mult: 0
  }
  batch_norm_param {
    use_global_stats: false
  }
}
layer {
  name: "relu1"
  type: "ReLU"
  bottom: "bn1"
  top: "relu1"
}
layer {
  name: "pool1"
  type: "Pooling"
  bottom: "relu1"
  top: "pool1"
  pooling_param {
    pool: MAX
    kernel_size: 3
    stride: 2
  }
}
layer {
  name: "conv2"
  type: "Convolution"
  bottom: "pool1"
  top: "conv2"
  param {
    lr_mult: 1
    decay_mult: 1
  }
  param {
    lr_mult: 2
    decay_mult: 0
  }
  convolution_param {
    num_output: 256
    pad: 2
    kernel_size: 5
    group: 1
    weight_filler {
      type: "gaussian"
      std: 0.01
    }
    bias_filler {
      type: "constant"
      value: 1
    }
  }
}
layer {
  name: "bn2"
  type: "BatchNorm"
  bottom: "conv2"
  top: "bn2"
  param {
    lr_mult: 0
  }
  param {
    lr_mult: 0
  }
  param {
    lr_mult: 0
  }
  batch_norm_param {
    use_global_stats: false
  }
}
layer {
  name: "relu2"
  type: "ReLU"
  bottom: "bn2"
  top: "relu2"
}
layer {
  name: "pool2"
  type: "Pooling"
  bottom: "relu2"
  top: "pool2"
  pooling_param {
    pool: MAX
    kernel_size: 3
    stride: 2
  }
}
layer {
  name: "conv3"
  type: "Convolution"
  bottom: "pool2"
  top: "conv3"
  param {
    lr_mult: 1
    decay_mult: 1
  }
  param {
    lr_mult: 2
    decay_mult: 0
  }
  convolution_param {
    num_output: 384
    pad: 1
    kernel_size: 3
    weight_filler {
      type: "gaussian"
      std: 0.01
    }
    bias_filler {
      type: "constant"
      value: 0
    }
  }
}
layer {
  name: "relu3"
  type: "ReLU"
  bottom: "conv3"
  top: "relu3"
}
layer {
  name: "conv4"
  type: "Convolution"
  bottom: "relu3"
  top: "conv4"
  param {
    lr_mult: 1
    decay_mult: 1
  }
  param {
    lr_mult: 2
    decay_mult: 0
  }
  convolution_param {
    num_output: 384
    pad: 1
    kernel_size: 3
    group: 1
    weight_filler {
      type: "gaussian"
      std: 0.01
    }
    bias_filler {
      type: "constant"
      value: 1
    }
  }
}
layer {
  name: "relu4"
  type: "ReLU"
  bottom: "conv4"
  top: "relu4"
}
layer {
  name: "conv5"
  type: "Convolution"
  bottom: "relu4"
  top: "conv5"
  param {
    lr_mult: 1
    decay_mult: 1
  }
  param {
    lr_mult: 2
    decay_mult: 0
  }
  convolution_param {
    num_output: 256
    pad: 1
    kernel_size: 3
    group: 1
    weight_filler {
      type: "gaussian"
      std: 0.01
    }
    bias_filler {
      type: "constant"
      value: 1
    }
  }
}
layer {
  name: "relu5"
  type: "ReLU"
  bottom: "conv5"
  top: "relu5"
}
layer {
  name: "pool5"
  type: "Pooling"
  bottom: "relu5"
  top: "pool5"
  pooling_param {
    pool: MAX
    kernel_size: 3
    stride: 2
  }
}
layer {
  name: "fc6"
  type: "InnerProduct"
  bottom: "pool5"
  top: "fc6"
  param {
    lr_mult: 1
    decay_mult: 1
  }
  param {
    lr_mult: 2
    decay_mult: 0
  }
  inner_product_param {
    num_output: 4096
    weight_filler {
      type: "gaussian"
      std: 0.005
    }
    bias_filler {
      type: "constant"
      value: 1
    }
  }
}
layer {
  name: "relu6"
  type: "ReLU"
  bottom: "fc6"
  top: "relu6"
}
layer {
  name: "drop6"
  type: "Dropout"
  bottom: "relu6"
  top: "drop6"
  dropout_param {
    dropout_ratio: 0.5
  }
}
layer {
  name: "fc7"
  type: "InnerProduct"
  bottom: "drop6"
  top: "fc7"
  param {
    lr_mult: 1
    decay_mult: 1
  }
  param {
    lr_mult: 2
    decay_mult: 0
  }
  inner_product_param {
    num_output: 4096
    weight_filler {
      type: "gaussian"
      std: 0.005
    }
    bias_filler {
      type: "constant"
      value: 1
    }
  }
}
layer {
  name: "bn7"
  type: "BatchNorm"
  bottom: "fc7"
  top: "bn7"
  param {
    lr_mult: 0
  }
  param {
    lr_mult: 0
  }
  param {
    lr_mult: 0
  }
  batch_norm_param {
    use_global_stats: false
  }
}
layer {
  name: "relu7"
  type: "ReLU"
  bottom: "bn7"
  top: "relu7"
}
layer {
  name: "drop7"
  type: "Dropout"
  bottom: "relu7"
  top: "drop7"
  dropout_param {
    dropout_ratio: 0.5
  }
}
layer {
  name: "fc8"
  type: "InnerProduct"
  bottom: "drop7"
  top: "fc8"
  param {
    lr_mult: 1
    decay_mult: 1
  }
  param {
    lr_mult: 2
    decay_mult: 0
  }
  inner_product_param {
    num_output: 2
    weight_filler {
      type: "gaussian"
      std: 0.01
    }
    bias_filler {
      type: "constant"
      value: 0
    }
  }
}
layer {
  name: "accuracy"
  type: "Accuracy"
  bottom: "fc8"
  bottom: "label"
  top: "accuracy"
  include {
    phase: TEST
  }
}
layer {
  name: "loss"
  type: "SoftmaxWithLoss"
  bottom: "fc8"
  bottom: "label"
  top: "loss"
}
layer {
  name: "accuracy-top1"
  type: "Accuracy"
  bottom: "fc8"
  bottom: "label"
  top: "top-1"
  include {
    phase: TEST
  }
}
I0319 10:44:28.143297 46194 layer_factory.hpp:123] Creating layer data
I0319 10:44:28.143347 46194 internal_thread.cpp:73] Starting internal thread(s) on GPU 0
I0319 10:44:28.144102 46194 net.cpp:140] Creating Layer data
I0319 10:44:28.144111 46194 net.cpp:455] data -> data
I0319 10:44:28.144120 46194 net.cpp:455] data -> label
I0319 10:44:28.146466 46232 db_lmdb.cpp:81] Opened lmdb input/lmdb/valid_lmdb
I0319 10:44:28.146512 46232 data_reader.cpp:166] TEST: reading data using 1 channel(s)
I0319 10:44:28.147058 46194 data_layer.cpp:124] ReshapePrefetch 50, 3, 227, 227
I0319 10:44:28.147127 46194 data_layer.cpp:129] output data size: 50,3,227,227
I0319 10:44:28.228248 46194 internal_thread.cpp:73] Starting internal thread(s) on GPU 0
I0319 10:44:28.228302 46194 net.cpp:190] Setting up data
I0319 10:44:28.228310 46194 net.cpp:197] Top shape: 50 3 227 227 (7729350)
I0319 10:44:28.228314 46194 net.cpp:197] Top shape: 50 (50)
I0319 10:44:28.228317 46194 net.cpp:205] Memory required for data: 30917600
I0319 10:44:28.228323 46194 layer_factory.hpp:123] Creating layer label_data_1_split
I0319 10:44:28.228335 46194 net.cpp:140] Creating Layer label_data_1_split
I0319 10:44:28.228339 46194 net.cpp:481] label_data_1_split <- label
I0319 10:44:28.228353 46194 net.cpp:455] label_data_1_split -> label_data_1_split_0
I0319 10:44:28.228363 46194 net.cpp:455] label_data_1_split -> label_data_1_split_1
I0319 10:44:28.228368 46194 net.cpp:455] label_data_1_split -> label_data_1_split_2
I0319 10:44:28.228418 46194 net.cpp:190] Setting up label_data_1_split
I0319 10:44:28.228423 46194 net.cpp:197] Top shape: 50 (50)
I0319 10:44:28.228427 46194 net.cpp:197] Top shape: 50 (50)
I0319 10:44:28.228440 46194 net.cpp:197] Top shape: 50 (50)
I0319 10:44:28.228444 46194 net.cpp:205] Memory required for data: 30918200
I0319 10:44:28.228448 46194 layer_factory.hpp:123] Creating layer conv1
I0319 10:44:28.228458 46194 net.cpp:140] Creating Layer conv1
I0319 10:44:28.228462 46194 net.cpp:481] conv1 <- data
I0319 10:44:28.228467 46194 net.cpp:455] conv1 -> conv1
I0319 10:44:28.229032 46194 net.cpp:190] Setting up conv1
I0319 10:44:28.229040 46194 net.cpp:197] Top shape: 50 96 55 55 (14520000)
I0319 10:44:28.229043 46194 net.cpp:205] Memory required for data: 88998200
I0319 10:44:28.229063 46194 layer_factory.hpp:123] Creating layer bn1
I0319 10:44:28.229070 46194 net.cpp:140] Creating Layer bn1
I0319 10:44:28.229075 46194 net.cpp:481] bn1 <- conv1
I0319 10:44:28.229081 46194 net.cpp:455] bn1 -> bn1
I0319 10:44:28.229565 46194 net.cpp:190] Setting up bn1
I0319 10:44:28.229570 46194 net.cpp:197] Top shape: 50 96 55 55 (14520000)
I0319 10:44:28.229574 46194 net.cpp:205] Memory required for data: 147078200
I0319 10:44:28.229584 46194 layer_factory.hpp:123] Creating layer relu1
I0319 10:44:28.229591 46194 net.cpp:140] Creating Layer relu1
I0319 10:44:28.229594 46194 net.cpp:481] relu1 <- bn1
I0319 10:44:28.229601 46194 net.cpp:455] relu1 -> relu1
I0319 10:44:28.229625 46194 net.cpp:190] Setting up relu1
I0319 10:44:28.229629 46194 net.cpp:197] Top shape: 50 96 55 55 (14520000)
I0319 10:44:28.229632 46194 net.cpp:205] Memory required for data: 205158200
I0319 10:44:28.229636 46194 layer_factory.hpp:123] Creating layer pool1
I0319 10:44:28.229642 46194 net.cpp:140] Creating Layer pool1
I0319 10:44:28.229646 46194 net.cpp:481] pool1 <- relu1
I0319 10:44:28.229651 46194 net.cpp:455] pool1 -> pool1
I0319 10:44:28.229692 46194 net.cpp:190] Setting up pool1
I0319 10:44:28.229697 46194 net.cpp:197] Top shape: 50 96 27 27 (3499200)
I0319 10:44:28.229701 46194 net.cpp:205] Memory required for data: 219155000
I0319 10:44:28.229703 46194 layer_factory.hpp:123] Creating layer conv2
I0319 10:44:28.229714 46194 net.cpp:140] Creating Layer conv2
I0319 10:44:28.229718 46194 net.cpp:481] conv2 <- pool1
I0319 10:44:28.229724 46194 net.cpp:455] conv2 -> conv2
I0319 10:44:28.236318 46194 net.cpp:190] Setting up conv2
I0319 10:44:28.236337 46194 net.cpp:197] Top shape: 50 256 27 27 (9331200)
I0319 10:44:28.236340 46194 net.cpp:205] Memory required for data: 256479800
I0319 10:44:28.236351 46194 layer_factory.hpp:123] Creating layer bn2
I0319 10:44:28.236361 46194 net.cpp:140] Creating Layer bn2
I0319 10:44:28.236368 46194 net.cpp:481] bn2 <- conv2
I0319 10:44:28.236377 46194 net.cpp:455] bn2 -> bn2
I0319 10:44:28.236836 46194 net.cpp:190] Setting up bn2
I0319 10:44:28.236843 46194 net.cpp:197] Top shape: 50 256 27 27 (9331200)
I0319 10:44:28.236847 46194 net.cpp:205] Memory required for data: 293804600
I0319 10:44:28.236857 46194 layer_factory.hpp:123] Creating layer relu2
I0319 10:44:28.236866 46194 net.cpp:140] Creating Layer relu2
I0319 10:44:28.236871 46194 net.cpp:481] relu2 <- bn2
I0319 10:44:28.236881 46194 net.cpp:455] relu2 -> relu2
I0319 10:44:28.236898 46194 net.cpp:190] Setting up relu2
I0319 10:44:28.236903 46194 net.cpp:197] Top shape: 50 256 27 27 (9331200)
I0319 10:44:28.236907 46194 net.cpp:205] Memory required for data: 331129400
I0319 10:44:28.236912 46194 layer_factory.hpp:123] Creating layer pool2
I0319 10:44:28.236924 46194 net.cpp:140] Creating Layer pool2
I0319 10:44:28.236927 46194 net.cpp:481] pool2 <- relu2
I0319 10:44:28.236934 46194 net.cpp:455] pool2 -> pool2
I0319 10:44:28.236963 46194 net.cpp:190] Setting up pool2
I0319 10:44:28.236969 46194 net.cpp:197] Top shape: 50 256 13 13 (2163200)
I0319 10:44:28.236973 46194 net.cpp:205] Memory required for data: 339782200
I0319 10:44:28.236976 46194 layer_factory.hpp:123] Creating layer conv3
I0319 10:44:28.236989 46194 net.cpp:140] Creating Layer conv3
I0319 10:44:28.236991 46194 net.cpp:481] conv3 <- pool2
I0319 10:44:28.236997 46194 net.cpp:455] conv3 -> conv3
I0319 10:44:28.248173 46194 net.cpp:190] Setting up conv3
I0319 10:44:28.248193 46194 net.cpp:197] Top shape: 50 384 13 13 (3244800)
I0319 10:44:28.248214 46194 net.cpp:205] Memory required for data: 352761400
I0319 10:44:28.248221 46194 layer_factory.hpp:123] Creating layer relu3
I0319 10:44:28.248230 46194 net.cpp:140] Creating Layer relu3
I0319 10:44:28.248235 46194 net.cpp:481] relu3 <- conv3
I0319 10:44:28.248246 46194 net.cpp:455] relu3 -> relu3
I0319 10:44:28.248275 46194 net.cpp:190] Setting up relu3
I0319 10:44:28.248281 46194 net.cpp:197] Top shape: 50 384 13 13 (3244800)
I0319 10:44:28.248284 46194 net.cpp:205] Memory required for data: 365740600
I0319 10:44:28.248287 46194 layer_factory.hpp:123] Creating layer conv4
I0319 10:44:28.248301 46194 net.cpp:140] Creating Layer conv4
I0319 10:44:28.248303 46194 net.cpp:481] conv4 <- relu3
I0319 10:44:28.248312 46194 net.cpp:455] conv4 -> conv4
I0319 10:44:28.263125 46194 net.cpp:190] Setting up conv4
I0319 10:44:28.263150 46194 net.cpp:197] Top shape: 50 384 13 13 (3244800)
I0319 10:44:28.263154 46194 net.cpp:205] Memory required for data: 378719800
I0319 10:44:28.263172 46194 layer_factory.hpp:123] Creating layer relu4
I0319 10:44:28.263185 46194 net.cpp:140] Creating Layer relu4
I0319 10:44:28.263202 46194 net.cpp:481] relu4 <- conv4
I0319 10:44:28.263211 46194 net.cpp:455] relu4 -> relu4
I0319 10:44:28.263242 46194 net.cpp:190] Setting up relu4
I0319 10:44:28.263248 46194 net.cpp:197] Top shape: 50 384 13 13 (3244800)
I0319 10:44:28.263252 46194 net.cpp:205] Memory required for data: 391699000
I0319 10:44:28.263254 46194 layer_factory.hpp:123] Creating layer conv5
I0319 10:44:28.263265 46194 net.cpp:140] Creating Layer conv5
I0319 10:44:28.263269 46194 net.cpp:481] conv5 <- relu4
I0319 10:44:28.263274 46194 net.cpp:455] conv5 -> conv5
I0319 10:44:28.273218 46194 net.cpp:190] Setting up conv5
I0319 10:44:28.273241 46194 net.cpp:197] Top shape: 50 256 13 13 (2163200)
I0319 10:44:28.273243 46194 net.cpp:205] Memory required for data: 400351800
I0319 10:44:28.273249 46194 layer_factory.hpp:123] Creating layer relu5
I0319 10:44:28.273257 46194 net.cpp:140] Creating Layer relu5
I0319 10:44:28.273260 46194 net.cpp:481] relu5 <- conv5
I0319 10:44:28.273265 46194 net.cpp:455] relu5 -> relu5
I0319 10:44:28.273288 46194 net.cpp:190] Setting up relu5
I0319 10:44:28.273289 46194 net.cpp:197] Top shape: 50 256 13 13 (2163200)
I0319 10:44:28.273293 46194 net.cpp:205] Memory required for data: 409004600
I0319 10:44:28.273294 46194 layer_factory.hpp:123] Creating layer pool5
I0319 10:44:28.273301 46194 net.cpp:140] Creating Layer pool5
I0319 10:44:28.273303 46194 net.cpp:481] pool5 <- relu5
I0319 10:44:28.273308 46194 net.cpp:455] pool5 -> pool5
I0319 10:44:28.273330 46194 net.cpp:190] Setting up pool5
I0319 10:44:28.273334 46194 net.cpp:197] Top shape: 50 256 6 6 (460800)
I0319 10:44:28.273336 46194 net.cpp:205] Memory required for data: 410847800
I0319 10:44:28.273339 46194 layer_factory.hpp:123] Creating layer fc6
I0319 10:44:28.273346 46194 net.cpp:140] Creating Layer fc6
I0319 10:44:28.273350 46194 net.cpp:481] fc6 <- pool5
I0319 10:44:28.273355 46194 net.cpp:455] fc6 -> fc6
I0319 10:44:28.589869 46194 net.cpp:190] Setting up fc6
I0319 10:44:28.589892 46194 net.cpp:197] Top shape: 50 4096 (204800)
I0319 10:44:28.589895 46194 net.cpp:205] Memory required for data: 411667000
I0319 10:44:28.589900 46194 layer_factory.hpp:123] Creating layer relu6
I0319 10:44:28.589907 46194 net.cpp:140] Creating Layer relu6
I0319 10:44:28.589910 46194 net.cpp:481] relu6 <- fc6
I0319 10:44:28.589915 46194 net.cpp:455] relu6 -> relu6
I0319 10:44:28.589936 46194 net.cpp:190] Setting up relu6
I0319 10:44:28.589941 46194 net.cpp:197] Top shape: 50 4096 (204800)
I0319 10:44:28.589941 46194 net.cpp:205] Memory required for data: 412486200
I0319 10:44:28.589943 46194 layer_factory.hpp:123] Creating layer drop6
I0319 10:44:28.589948 46194 net.cpp:140] Creating Layer drop6
I0319 10:44:28.589951 46194 net.cpp:481] drop6 <- relu6
I0319 10:44:28.589953 46194 net.cpp:455] drop6 -> drop6
I0319 10:44:28.589987 46194 net.cpp:190] Setting up drop6
I0319 10:44:28.589990 46194 net.cpp:197] Top shape: 50 4096 (204800)
I0319 10:44:28.590011 46194 net.cpp:205] Memory required for data: 413305400
I0319 10:44:28.590013 46194 layer_factory.hpp:123] Creating layer fc7
I0319 10:44:28.590018 46194 net.cpp:140] Creating Layer fc7
I0319 10:44:28.590020 46194 net.cpp:481] fc7 <- drop6
I0319 10:44:28.590029 46194 net.cpp:455] fc7 -> fc7
I0319 10:44:28.727106 46194 net.cpp:190] Setting up fc7
I0319 10:44:28.727128 46194 net.cpp:197] Top shape: 50 4096 (204800)
I0319 10:44:28.727131 46194 net.cpp:205] Memory required for data: 414124600
I0319 10:44:28.727138 46194 layer_factory.hpp:123] Creating layer bn7
I0319 10:44:28.727145 46194 net.cpp:140] Creating Layer bn7
I0319 10:44:28.727149 46194 net.cpp:481] bn7 <- fc7
I0319 10:44:28.727154 46194 net.cpp:455] bn7 -> bn7
I0319 10:44:28.727583 46194 net.cpp:190] Setting up bn7
I0319 10:44:28.727588 46194 net.cpp:197] Top shape: 50 4096 (204800)
I0319 10:44:28.727591 46194 net.cpp:205] Memory required for data: 414943800
I0319 10:44:28.727596 46194 layer_factory.hpp:123] Creating layer relu7
I0319 10:44:28.727602 46194 net.cpp:140] Creating Layer relu7
I0319 10:44:28.727603 46194 net.cpp:481] relu7 <- bn7
I0319 10:44:28.727607 46194 net.cpp:455] relu7 -> relu7
I0319 10:44:28.727622 46194 net.cpp:190] Setting up relu7
I0319 10:44:28.727625 46194 net.cpp:197] Top shape: 50 4096 (204800)
I0319 10:44:28.727627 46194 net.cpp:205] Memory required for data: 415763000
I0319 10:44:28.727629 46194 layer_factory.hpp:123] Creating layer drop7
I0319 10:44:28.727633 46194 net.cpp:140] Creating Layer drop7
I0319 10:44:28.727635 46194 net.cpp:481] drop7 <- relu7
I0319 10:44:28.727639 46194 net.cpp:455] drop7 -> drop7
I0319 10:44:28.727658 46194 net.cpp:190] Setting up drop7
I0319 10:44:28.727661 46194 net.cpp:197] Top shape: 50 4096 (204800)
I0319 10:44:28.727663 46194 net.cpp:205] Memory required for data: 416582200
I0319 10:44:28.727665 46194 layer_factory.hpp:123] Creating layer fc8
I0319 10:44:28.727670 46194 net.cpp:140] Creating Layer fc8
I0319 10:44:28.727672 46194 net.cpp:481] fc8 <- drop7
I0319 10:44:28.727677 46194 net.cpp:455] fc8 -> fc8
I0319 10:44:28.727807 46194 net.cpp:190] Setting up fc8
I0319 10:44:28.727810 46194 net.cpp:197] Top shape: 50 2 (100)
I0319 10:44:28.727813 46194 net.cpp:205] Memory required for data: 416582600
I0319 10:44:28.727816 46194 layer_factory.hpp:123] Creating layer fc8_fc8_0_split
I0319 10:44:28.727820 46194 net.cpp:140] Creating Layer fc8_fc8_0_split
I0319 10:44:28.727823 46194 net.cpp:481] fc8_fc8_0_split <- fc8
I0319 10:44:28.727825 46194 net.cpp:455] fc8_fc8_0_split -> fc8_fc8_0_split_0
I0319 10:44:28.727830 46194 net.cpp:455] fc8_fc8_0_split -> fc8_fc8_0_split_1
I0319 10:44:28.727833 46194 net.cpp:455] fc8_fc8_0_split -> fc8_fc8_0_split_2
I0319 10:44:28.727859 46194 net.cpp:190] Setting up fc8_fc8_0_split
I0319 10:44:28.727861 46194 net.cpp:197] Top shape: 50 2 (100)
I0319 10:44:28.727864 46194 net.cpp:197] Top shape: 50 2 (100)
I0319 10:44:28.727865 46194 net.cpp:197] Top shape: 50 2 (100)
I0319 10:44:28.727867 46194 net.cpp:205] Memory required for data: 416583800
I0319 10:44:28.727869 46194 layer_factory.hpp:123] Creating layer accuracy
I0319 10:44:28.727874 46194 net.cpp:140] Creating Layer accuracy
I0319 10:44:28.727876 46194 net.cpp:481] accuracy <- fc8_fc8_0_split_0
I0319 10:44:28.727880 46194 net.cpp:481] accuracy <- label_data_1_split_0
I0319 10:44:28.727882 46194 net.cpp:455] accuracy -> accuracy
…
