…
I0318 20:26:17.915706 24729 net.cpp:369] The NetState phase (0) differed from the phase (1) specified by a rule in layer accuracy
I0318 20:26:17.915709 24729 net.cpp:369] The NetState phase (0) differed from the phase (1) specified by a rule in layer accuracy-top1
I0318 20:26:17.915822 24729 net.cpp:98] Initializing net from parameters:
state {
  phase: TRAIN
}
layer {
  name: "data"
  type: "Data"
  top: "data"
  top: "label"
  include {
    phase: TRAIN
  }
  transform_param {
    mirror: true
    crop_size: 227
    mean_value: 106
    mean_value: 116
    mean_value: 124
  }
  data_param {
    source: "input/lmdb/train_lmdb"
    batch_size: 256
    backend: LMDB
  }
}
layer {
  name: "conv1"
  type: "Convolution"
  bottom: "data"
  top: "conv1"
  param {
    lr_mult: 1
    decay_mult: 1
    compression: PRUNE
  }
  param {
    lr_mult: 2
    decay_mult: 0
    compression: PRUNE
  }
  convolution_param {
    num_output: 96
    pad: 1
    kernel_size: 11
    stride: 4
    weight_filler {
      type: "gaussian"
      std: 0.01
    }
    bias_filler {
      type: "constant"
      value: 0
    }
  }
}
layer {
  name: "bn1"
  type: "BatchNorm"
  bottom: "conv1"
  top: "bn1"
  param {
    lr_mult: 0
    compression: PRUNE
  }
  param {
    lr_mult: 0
    compression: PRUNE
  }
  param {
    lr_mult: 0
    compression: PRUNE
  }
  batch_norm_param {
    use_global_stats: false
  }
}
layer {
  name: "relu1"
  type: "ReLU"
  bottom: "bn1"
  top: "relu1"
}
layer {
  name: "pool1"
  type: "Pooling"
  bottom: "relu1"
  top: "pool1"
  pooling_param {
    pool: MAX
    kernel_size: 3
    stride: 2
  }
}
layer {
  name: "conv2"
  type: "Convolution"
  bottom: "pool1"
  top: "conv2"
  param {
    lr_mult: 1
    decay_mult: 1
    compression: PRUNE
  }
  param {
    lr_mult: 2
    decay_mult: 0
    compression: PRUNE
  }
  convolution_param {
    num_output: 256
    pad: 2
    kernel_size: 5
    group: 1
    weight_filler {
      type: "gaussian"
      std: 0.01
    }
    bias_filler {
      type: "constant"
      value: 1
    }
  }
}
layer {
  name: "bn2"
  type: "BatchNorm"
  bottom: "conv2"
  top: "bn2"
  param {
    lr_mult: 0
    compression: PRUNE
  }
  param {
    lr_mult: 0
    compression: PRUNE
  }
  param {
    lr_mult: 0
    compression: PRUNE
  }
  batch_norm_param {
    use_global_stats: false
  }
}
layer {
  name: "relu2"
  type: "ReLU"
  bottom: "bn2"
  top: "relu2"
}
layer {
  name: "pool2"
  type: "Pooling"
  bottom: "relu2"
  top: "pool2"
  pooling_param {
    pool: MAX
    kernel_size: 3
    stride: 2
  }
}
layer {
  name: "conv3"
  type: "Convolution"
  bottom: "pool2"
  top: "conv3"
  param {
    lr_mult: 1
    decay_mult: 1
    compression: PRUNE
  }
  param {
    lr_mult: 2
    decay_mult: 0
    compression: PRUNE
  }
  convolution_param {
    num_output: 384
    pad: 1
    kernel_size: 3
    weight_filler {
      type: "gaussian"
      std: 0.01
    }
    bias_filler {
      type: "constant"
      value: 0
    }
  }
}
layer {
  name: "relu3"
  type: "ReLU"
  bottom: "conv3"
  top: "relu3"
}
layer {
  name: "conv4"
  type: "Convolution"
  bottom: "relu3"
  top: "conv4"
  param {
    lr_mult: 1
    decay_mult: 1
    compression: PRUNE
  }
  param {
    lr_mult: 2
    decay_mult: 0
    compression: PRUNE
  }
  convolution_param {
    num_output: 384
    pad: 1
    kernel_size: 3
    group: 1
    weight_filler {
      type: "gaussian"
      std: 0.01
    }
    bias_filler {
      type: "constant"
      value: 1
    }
  }
}
layer {
  name: "relu4"
  type: "ReLU"
  bottom: "conv4"
  top: "relu4"
}
layer {
  name: "conv5"
  type: "Convolution"
  bottom: "relu4"
  top: "conv5"
  param {
    lr_mult: 1
    decay_mult: 1
    compression: PRUNE
  }
  param {
    lr_mult: 2
    decay_mult: 0
    compression: PRUNE
  }
  convolution_param {
    num_output: 256
    pad: 1
    kernel_size: 3
    group: 1
    weight_filler {
      type: "gaussian"
      std: 0.01
    }
    bias_filler {
      type: "constant"
      value: 1
    }
  }
}
layer {
  name: "relu5"
  type: "ReLU"
  bottom: "conv5"
  top: "relu5"
}
layer {
  name: "pool5"
  type: "Pooling"
  bottom: "relu5"
  top: "pool5"
  pooling_param {
    pool: MAX
    kernel_size: 3
    stride: 2
  }
}
layer {
  name: "fc6"
  type: "InnerProduct"
  bottom: "pool5"
  top: "fc6"
  param {
    lr_mult: 1
    decay_mult: 1
  }
  param {
    lr_mult: 2
    decay_mult: 0
  }
  inner_product_param {
    num_output: 4096
    weight_filler {
      type: "gaussian"
      std: 0.005
    }
    bias_filler {
      type: "constant"
      value: 1
    }
  }
}
layer {
  name: "relu6"
  type: "ReLU"
  bottom: "fc6"
  top: "relu6"
}
layer {
  name: "drop6"
  type: "Dropout"
  bottom: "relu6"
  top: "drop6"
  dropout_param {
    dropout_ratio: 0.5
  }
}
layer {
  name: "fc7"
  type: "InnerProduct"
  bottom: "drop6"
  top: "fc7"
  param {
    lr_mult: 1
    decay_mult: 1
  }
  param {
    lr_mult: 2
    decay_mult: 0
  }
  inner_product_param {
    num_output: 4096
    weight_filler {
      type: "gaussian"
      std: 0.005
    }
    bias_filler {
      type: "constant"
      value: 1
    }
  }
}
layer {
  name: "bn7"
  type: "BatchNorm"
  bottom: "fc7"
  top: "bn7"
  param {
    lr_mult: 0
    compression: PRUNE
  }
  param {
    lr_mult: 0
    compression: PRUNE
  }
  param {
    lr_mult: 0
    compression: PRUNE
  }
  batch_norm_param {
    use_global_stats: false
  }
}
layer {
  name: "relu7"
  type: "ReLU"
  bottom: "bn7"
  top: "relu7"
}
layer {
  name: "drop7"
  type: "Dropout"
  bottom: "relu7"
  top: "drop7"
  dropout_param {
    dropout_ratio: 0.5
  }
}
layer {
  name: "fc8"
  type: "InnerProduct"
  bottom: "drop7"
  top: "fc8"
  param {
    lr_mult: 1
    decay_mult: 1
  }
  param {
    lr_mult: 2
    decay_mult: 0
  }
  inner_product_param {
    num_output: 2
    weight_filler {
      type: "gaussian"
      std: 0.01
    }
    bias_filler {
      type: "constant"
      value: 0
    }
  }
}
layer {
  name: "loss"
  type: "SoftmaxWithLoss"
  bottom: "fc8"
  bottom: "label"
  top: "loss"
}
I0318 20:26:17.915879 24729 layer_factory.hpp:123] Creating layer data
I0318 20:26:17.915997 24729 internal_thread.cpp:73] Starting internal thread(s) on GPU 0
I0318 20:26:17.916541 24729 net.cpp:140] Creating Layer data
I0318 20:26:17.916550 24729 net.cpp:455] data -> data
I0318 20:26:17.916558 24729 net.cpp:455] data -> label
I0318 20:26:17.918782 24768 db_lmdb.cpp:81] Opened lmdb input/lmdb/train_lmdb
I0318 20:26:17.918829 24768 data_reader.cpp:166] TRAIN: reading data using 1 channel(s)
I0318 20:26:17.919091 24729 data_layer.cpp:124] ReshapePrefetch 256, 3, 227, 227
I0318 20:26:17.919154 24729 data_layer.cpp:129] output data size: 256,3,227,227
I0318 20:26:18.301183 24729 internal_thread.cpp:73] Starting internal thread(s) on GPU 0
I0318 20:26:18.301247 24729 net.cpp:190] Setting up data
I0318 20:26:18.301254 24729 net.cpp:197] Top shape: 256 3 227 227 (39574272)
I0318 20:26:18.301257 24729 net.cpp:197] Top shape: 256 (256)
I0318 20:26:18.301259 24729 net.cpp:205] Memory required for data: 158298112
I0318 20:26:18.301265 24729 layer_factory.hpp:123] Creating layer conv1
I0318 20:26:18.301276 24729 net.cpp:140] Creating Layer conv1
I0318 20:26:18.301280 24729 net.cpp:481] conv1 <- data
I0318 20:26:18.301293 24729 net.cpp:455] conv1 -> conv1
I0318 20:26:18.301806 24729 net.cpp:190] Setting up conv1
I0318 20:26:18.301815 24729 net.cpp:197] Top shape: 256 96 55 55 (74342400)
I0318 20:26:18.301818 24729 net.cpp:205] Memory required for data: 455667712
I0318 20:26:18.301831 24729 layer_factory.hpp:123] Creating layer bn1
I0318 20:26:18.301838 24729 net.cpp:140] Creating Layer bn1
I0318 20:26:18.301841 24729 net.cpp:481] bn1 <- conv1
I0318 20:26:18.301847 24729 net.cpp:455] bn1 -> bn1
I0318 20:26:18.302274 24729 net.cpp:190] Setting up bn1
I0318 20:26:18.302281 24729 net.cpp:197] Top shape: 256 96 55 55 (74342400)
I0318 20:26:18.302284 24729 net.cpp:205] Memory required for data: 753037312
I0318 20:26:18.302291 24729 layer_factory.hpp:123] Creating layer relu1
I0318 20:26:18.302296 24729 net.cpp:140] Creating Layer relu1
I0318 20:26:18.302299 24729 net.cpp:481] relu1 <- bn1
I0318 20:26:18.302302 24729 net.cpp:455] relu1 -> relu1
I0318 20:26:18.302330 24729 net.cpp:190] Setting up relu1
I0318 20:26:18.302336 24729 net.cpp:197] Top shape: 256 96 55 55 (74342400)
I0318 20:26:18.302340 24729 net.cpp:205] Memory required for data: 1050406912
I0318 20:26:18.302341 24729 layer_factory.hpp:123] Creating layer pool1
I0318 20:26:18.302346 24729 net.cpp:140] Creating Layer pool1
I0318 20:26:18.302350 24729 net.cpp:481] pool1 <- relu1
I0318 20:26:18.302352 24729 net.cpp:455] pool1 -> pool1
I0318 20:26:18.302376 24729 net.cpp:190] Setting up pool1
I0318 20:26:18.302382 24729 net.cpp:197] Top shape: 256 96 27 27 (17915904)
I0318 20:26:18.302386 24729 net.cpp:205] Memory required for data: 1122070528
I0318 20:26:18.302389 24729 layer_factory.hpp:123] Creating layer conv2
I0318 20:26:18.302395 24729 net.cpp:140] Creating Layer conv2
I0318 20:26:18.302399 24729 net.cpp:481] conv2 <- pool1
I0318 20:26:18.302404 24729 net.cpp:455] conv2 -> conv2
I0318 20:26:18.317602 24729 net.cpp:190] Setting up conv2
I0318 20:26:18.317620 24729 net.cpp:197] Top shape: 256 256 27 27 (47775744)
I0318 20:26:18.317622 24729 net.cpp:205] Memory required for data: 1313173504
I0318 20:26:18.317631 24729 layer_factory.hpp:123] Creating layer bn2
I0318 20:26:18.317638 24729 net.cpp:140] Creating Layer bn2
I0318 20:26:18.317642 24729 net.cpp:481] bn2 <- conv2
I0318 20:26:18.317647 24729 net.cpp:455] bn2 -> bn2
I0318 20:26:18.318126 24729 net.cpp:190] Setting up bn2
I0318 20:26:18.318135 24729 net.cpp:197] Top shape: 256 256 27 27 (47775744)
I0318 20:26:18.318137 24729 net.cpp:205] Memory required for data: 1504276480
I0318 20:26:18.318145 24729 layer_factory.hpp:123] Creating layer relu2
I0318 20:26:18.318150 24729 net.cpp:140] Creating Layer relu2
I0318 20:26:18.318153 24729 net.cpp:481] relu2 <- bn2
I0318 20:26:18.318157 24729 net.cpp:455] relu2 -> relu2
I0318 20:26:18.318176 24729 net.cpp:190] Setting up relu2
I0318 20:26:18.318182 24729 net.cpp:197] Top shape: 256 256 27 27 (47775744)
I0318 20:26:18.318187 24729 net.cpp:205] Memory required for data: 1695379456
I0318 20:26:18.318192 24729 layer_factory.hpp:123] Creating layer pool2
I0318 20:26:18.318198 24729 net.cpp:140] Creating Layer pool2
I0318 20:26:18.318203 24729 net.cpp:481] pool2 <- relu2
I0318 20:26:18.318209 24729 net.cpp:455] pool2 -> pool2
I0318 20:26:18.318243 24729 net.cpp:190] Setting up pool2
I0318 20:26:18.318249 24729 net.cpp:197] Top shape: 256 256 13 13 (11075584)
I0318 20:26:18.318251 24729 net.cpp:205] Memory required for data: 1739681792
I0318 20:26:18.318255 24729 layer_factory.hpp:123] Creating layer conv3
I0318 20:26:18.318264 24729 net.cpp:140] Creating Layer conv3
I0318 20:26:18.318286 24729 net.cpp:481] conv3 <- pool2
I0318 20:26:18.318295 24729 net.cpp:455] conv3 -> conv3
I0318 20:26:18.329344 24729 net.cpp:190] Setting up conv3
I0318 20:26:18.329403 24729 net.cpp:197] Top shape: 256 384 13 13 (16613376)
I0318 20:26:18.329416 24729 net.cpp:205] Memory required for data: 1806135296
I0318 20:26:18.329433 24729 layer_factory.hpp:123] Creating layer relu3
I0318 20:26:18.329453 24729 net.cpp:140] Creating Layer relu3
I0318 20:26:18.329465 24729 net.cpp:481] relu3 <- conv3
I0318 20:26:18.329481 24729 net.cpp:455] relu3 -> relu3
I0318 20:26:18.329519 24729 net.cpp:190] Setting up relu3
I0318 20:26:18.329536 24729 net.cpp:197] Top shape: 256 384 13 13 (16613376)
I0318 20:26:18.329547 24729 net.cpp:205] Memory required for data: 1872588800
I0318 20:26:18.329560 24729 layer_factory.hpp:123] Creating layer conv4
I0318 20:26:18.329577 24729 net.cpp:140] Creating Layer conv4
I0318 20:26:18.329591 24729 net.cpp:481] conv4 <- relu3
I0318 20:26:18.329604 24729 net.cpp:455] conv4 -> conv4
I0318 20:26:18.347708 24729 net.cpp:190] Setting up conv4
I0318 20:26:18.347731 24729 net.cpp:197] Top shape: 256 384 13 13 (16613376)
I0318 20:26:18.347734 24729 net.cpp:205] Memory required for data: 1939042304
I0318 20:26:18.347745 24729 layer_factory.hpp:123] Creating layer relu4
I0318 20:26:18.347754 24729 net.cpp:140] Creating Layer relu4
I0318 20:26:18.347756 24729 net.cpp:481] relu4 <- conv4
I0318 20:26:18.347762 24729 net.cpp:455] relu4 -> relu4
I0318 20:26:18.347788 24729 net.cpp:190] Setting up relu4
I0318 20:26:18.347795 24729 net.cpp:197] Top shape: 256 384 13 13 (16613376)
I0318 20:26:18.347798 24729 net.cpp:205] Memory required for data: 2005495808
I0318 20:26:18.347802 24729 layer_factory.hpp:123] Creating layer conv5
I0318 20:26:18.347811 24729 net.cpp:140] Creating Layer conv5
I0318 20:26:18.347816 24729 net.cpp:481] conv5 <- relu4
I0318 20:26:18.347822 24729 net.cpp:455] conv5 -> conv5
I0318 20:26:18.365077 24729 net.cpp:190] Setting up conv5
I0318 20:26:18.365099 24729 net.cpp:197] Top shape: 256 256 13 13 (11075584)
I0318 20:26:18.365103 24729 net.cpp:205] Memory required for data: 2049798144
I0318 20:26:18.365111 24729 layer_factory.hpp:123] Creating layer relu5
I0318 20:26:18.365123 24729 net.cpp:140] Creating Layer relu5
I0318 20:26:18.365126 24729 net.cpp:481] relu5 <- conv5
I0318 20:26:18.365134 24729 net.cpp:455] relu5 -> relu5
I0318 20:26:18.365178 24729 net.cpp:190] Setting up relu5
I0318 20:26:18.365193 24729 net.cpp:197] Top shape: 256 256 13 13 (11075584)
I0318 20:26:18.365208 24729 net.cpp:205] Memory required for data: 2094100480
I0318 20:26:18.365219 24729 layer_factory.hpp:123] Creating layer pool5
I0318 20:26:18.365236 24729 net.cpp:140] Creating Layer pool5
I0318 20:26:18.365252 24729 net.cpp:481] pool5 <- relu5
I0318 20:26:18.365267 24729 net.cpp:455] pool5 -> pool5
I0318 20:26:18.365311 24729 net.cpp:190] Setting up pool5
I0318 20:26:18.365329 24729 net.cpp:197] Top shape: 256 256 6 6 (2359296)
I0318 20:26:18.365342 24729 net.cpp:205] Memory required for data: 2103537664
I0318 20:26:18.365366 24729 layer_factory.hpp:123] Creating layer fc6
I0318 20:26:18.365391 24729 net.cpp:140] Creating Layer fc6
I0318 20:26:18.365407 24729 net.cpp:481] fc6 <- pool5
I0318 20:26:18.365428 24729 net.cpp:455] fc6 -> fc6
I0318 20:26:18.709262 24729 net.cpp:190] Setting up fc6
I0318 20:26:18.709287 24729 net.cpp:197] Top shape: 256 4096 (1048576)
I0318 20:26:18.709290 24729 net.cpp:205] Memory required for data: 2107731968
I0318 20:26:18.709297 24729 layer_factory.hpp:123] Creating layer relu6
I0318 20:26:18.709304 24729 net.cpp:140] Creating Layer relu6
I0318 20:26:18.709306 24729 net.cpp:481] relu6 <- fc6
I0318 20:26:18.709311 24729 net.cpp:455] relu6 -> relu6
I0318 20:26:18.709326 24729 net.cpp:190] Setting up relu6
I0318 20:26:18.709334 24729 net.cpp:197] Top shape: 256 4096 (1048576)
I0318 20:26:18.709336 24729 net.cpp:205] Memory required for data: 2111926272
I0318 20:26:18.709337 24729 layer_factory.hpp:123] Creating layer drop6
I0318 20:26:18.709342 24729 net.cpp:140] Creating Layer drop6
I0318 20:26:18.709367 24729 net.cpp:481] drop6 <- relu6
I0318 20:26:18.709372 24729 net.cpp:455] drop6 -> drop6
I0318 20:26:18.709414 24729 net.cpp:190] Setting up drop6
I0318 20:26:18.709419 24729 net.cpp:197] Top shape: 256 4096 (1048576)
I0318 20:26:18.709421 24729 net.cpp:205] Memory required for data: 2116120576
I0318 20:26:18.709424 24729 layer_factory.hpp:123] Creating layer fc7
I0318 20:26:18.709429 24729 net.cpp:140] Creating Layer fc7
I0318 20:26:18.709434 24729 net.cpp:481] fc7 <- drop6
I0318 20:26:18.709439 24729 net.cpp:455] fc7 -> fc7
I0318 20:26:18.845014 24729 net.cpp:190] Setting up fc7
I0318 20:26:18.845038 24729 net.cpp:197] Top shape: 256 4096 (1048576)
I0318 20:26:18.845041 24729 net.cpp:205] Memory required for data: 2120314880
I0318 20:26:18.845047 24729 layer_factory.hpp:123] Creating layer bn7
I0318 20:26:18.845055 24729 net.cpp:140] Creating Layer bn7
I0318 20:26:18.845058 24729 net.cpp:481] bn7 <- fc7
I0318 20:26:18.845064 24729 net.cpp:455] bn7 -> bn7
I0318 20:26:18.845461 24729 net.cpp:190] Setting up bn7
I0318 20:26:18.845468 24729 net.cpp:197] Top shape: 256 4096 (1048576)
I0318 20:26:18.845470 24729 net.cpp:205] Memory required for data: 2124509184
I0318 20:26:18.845476 24729 layer_factory.hpp:123] Creating layer relu7
I0318 20:26:18.845482 24729 net.cpp:140] Creating Layer relu7
I0318 20:26:18.845484 24729 net.cpp:481] relu7 <- bn7
I0318 20:26:18.845487 24729 net.cpp:455] relu7 -> relu7
I0318 20:26:18.845504 24729 net.cpp:190] Setting up relu7
I0318 20:26:18.845510 24729 net.cpp:197] Top shape: 256 4096 (1048576)
I0318 20:26:18.845512 24729 net.cpp:205] Memory required for data: 2128703488
I0318 20:26:18.845515 24729 layer_factory.hpp:123] Creating layer drop7
I0318 20:26:18.845536 24729 net.cpp:140] Creating Layer drop7
I0318 20:26:18.845540 24729 net.cpp:481] drop7 <- relu7
I0318 20:26:18.845544 24729 net.cpp:455] drop7 -> drop7
I0318 20:26:18.845568 24729 net.cpp:190] Setting up drop7
I0318 20:26:18.845574 24729 net.cpp:197] Top shape: 256 4096 (1048576)
I0318 20:26:18.845577 24729 net.cpp:205] Memory required for data: 2132897792
I0318 20:26:18.845580 24729 layer_factory.hpp:123] Creating layer fc8
I0318 20:26:18.845587 24729 net.cpp:140] Creating Layer fc8
I0318 20:26:18.845588 24729 net.cpp:481] fc8 <- drop7
I0318 20:26:18.845592 24729 net.cpp:455] fc8 -> fc8
I0318 20:26:18.845726 24729 net.cpp:190] Setting up fc8
I0318 20:26:18.845731 24729 net.cpp:197] Top shape: 256 2 (512)
I0318 20:26:18.845732 24729 net.cpp:205] Memory required for data: 2132899840
I0318 20:26:18.845736 24729 layer_factory.hpp:123] Creating layer loss
I0318 20:26:18.845739 24729 net.cpp:140] Creating Layer loss
I0318 20:26:18.845742 24729 net.cpp:481] loss <- fc8
I0318 20:26:18.845746 24729 net.cpp:481] loss <- label
I0318 20:26:18.845748 24729 net.cpp:455] loss -> loss
I0318 20:26:18.845755 24729 layer_factory.hpp:123] Creating layer loss
…
I0318 20:26:18.846158 24729 solver.cpp:235] Creating test net (#0) specified by net file: pruning/alexnetBNnoLRN/regular_rate_0.3/net_finetune.prototxt
I0318 20:26:18.846181 24729 net.cpp:369] The NetState phase (1) differed from the phase (0) specified by a rule in layer data
I0318 20:26:18.846314 24729 net.cpp:98] Initializing net from parameters:
state {
  phase: TEST
}
layer {
  name: "data"
  type: "Data"
  top: "data"
  top: "label"
  include {
    phase: TEST
  }
  transform_param {
    mirror: false
    crop_size: 227
    mean_value: 106
    mean_value: 116
    mean_value: 124
  }
  data_param {
    source: "input/lmdb/valid_lmdb"
    batch_size: 50
    backend: LMDB
  }
}
layer {
  name: "conv1"
  type: "Convolution"
  bottom: "data"
  top: "conv1"
  param {
    lr_mult: 1
    decay_mult: 1
    compression: PRUNE
  }
  param {
    lr_mult: 2
    decay_mult: 0
    compression: PRUNE
  }
  convolution_param {
    num_output: 96
    pad: 1
    kernel_size: 11
    stride: 4
    weight_filler {
      type: "gaussian"
      std: 0.01
    }
    bias_filler {
      type: "constant"
      value: 0
    }
  }
}
layer {
  name: "bn1"
  type: "BatchNorm"
  bottom: "conv1"
  top: "bn1"
  param {
    lr_mult: 0
    compression: PRUNE
  }
  param {
    lr_mult: 0
    compression: PRUNE
  }
  param {
    lr_mult: 0
    compression: PRUNE
  }
  batch_norm_param {
    use_global_stats: false
  }
}
layer {
  name: "relu1"
  type: "ReLU"
  bottom: "bn1"
  top: "relu1"
}
layer {
  name: "pool1"
  type: "Pooling"
  bottom: "relu1"
  top: "pool1"
  pooling_param {
    pool: MAX
    kernel_size: 3
    stride: 2
  }
}
layer {
  name: "conv2"
  type: "Convolution"
  bottom: "pool1"
  top: "conv2"
  param {
    lr_mult: 1
    decay_mult: 1
    compression: PRUNE
  }
  param {
    lr_mult: 2
    decay_mult: 0
    compression: PRUNE
  }
  convolution_param {
    num_output: 256
    pad: 2
    kernel_size: 5
    group: 1
    weight_filler {
      type: "gaussian"
      std: 0.01
    }
    bias_filler {
      type: "constant"
      value: 1
    }
  }
}
layer {
  name: "bn2"
  type: "BatchNorm"
  bottom: "conv2"
  top: "bn2"
  param {
    lr_mult: 0
    compression: PRUNE
  }
  param {
    lr_mult: 0
    compression: PRUNE
  }
  param {
    lr_mult: 0
    compression: PRUNE
  }
  batch_norm_param {
    use_global_stats: false
  }
}
layer {
  name: "relu2"
  type: "ReLU"
  bottom: "bn2"
  top: "relu2"
}
layer {
  name: "pool2"
  type: "Pooling"
  bottom: "relu2"
  top: "pool2"
  pooling_param {
    pool: MAX
    kernel_size: 3
    stride: 2
  }
}
layer {
  name: "conv3"
  type: "Convolution"
  bottom: "pool2"
  top: "conv3"
  param {
    lr_mult: 1
    decay_mult: 1
    compression: PRUNE
  }
  param {
    lr_mult: 2
    decay_mult: 0
    compression: PRUNE
  }
  convolution_param {
    num_output: 384
    pad: 1
    kernel_size: 3
    weight_filler {
      type: "gaussian"
      std: 0.01
    }
    bias_filler {
      type: "constant"
      value: 0
    }
  }
}
layer {
  name: "relu3"
  type: "ReLU"
  bottom: "conv3"
  top: "relu3"
}
layer {
  name: "conv4"
  type: "Convolution"
  bottom: "relu3"
  top: "conv4"
  param {
    lr_mult: 1
    decay_mult: 1
    compression: PRUNE
  }
  param {
    lr_mult: 2
    decay_mult: 0
    compression: PRUNE
  }
  convolution_param {
    num_output: 384
    pad: 1
    kernel_size: 3
    group: 1
    weight_filler {
      type: "gaussian"
      std: 0.01
    }
    bias_filler {
      type: "constant"
      value: 1
    }
  }
}
layer {
  name: "relu4"
  type: "ReLU"
  bottom: "conv4"
  top: "relu4"
}
layer {
  name: "conv5"
  type: "Convolution"
  bottom: "relu4"
  top: "conv5"
  param {
    lr_mult: 1
    decay_mult: 1
    compression: PRUNE
  }
  param {
    lr_mult: 2
    decay_mult: 0
    compression: PRUNE
  }
  convolution_param {
    num_output: 256
    pad: 1
    kernel_size: 3
    group: 1
    weight_filler {
      type: "gaussian"
      std: 0.01
    }
    bias_filler {
      type: "constant"
      value: 1
    }
  }
}
layer {
  name: "relu5"
  type: "ReLU"
  bottom: "conv5"
  top: "relu5"
}
layer {
  name: "pool5"
  type: "Pooling"
  bottom: "relu5"
  top: "pool5"
  pooling_param {
    pool: MAX
    kernel_size: 3
    stride: 2
  }
}
layer {
  name: "fc6"
  type: "InnerProduct"
  bottom: "pool5"
  top: "fc6"
  param {
    lr_mult: 1
    decay_mult: 1
  }
  param {
    lr_mult: 2
    decay_mult: 0
  }
  inner_product_param {
    num_output: 4096
    weight_filler {
      type: "gaussian"
      std: 0.005
    }
    bias_filler {
      type: "constant"
      value: 1
    }
  }
}
layer {
  name: "relu6"
  type: "ReLU"
  bottom: "fc6"
  top: "relu6"
}
layer {
  name: "drop6"
  type: "Dropout"
  bottom: "relu6"
  top: "drop6"
  dropout_param {
    dropout_ratio: 0.5
  }
}
layer {
  name: "fc7"
  type: "InnerProduct"
  bottom: "drop6"
  top: "fc7"
  param {
    lr_mult: 1
    decay_mult: 1
  }
  param {
    lr_mult: 2
    decay_mult: 0
  }
  inner_product_param {
    num_output: 4096
    weight_filler {
      type: "gaussian"
      std: 0.005
    }
    bias_filler {
      type: "constant"
      value: 1
    }
  }
}
layer {
  name: "bn7"
  type: "BatchNorm"
  bottom: "fc7"
  top: "bn7"
  param {
    lr_mult: 0
    compression: PRUNE
  }
  param {
    lr_mult: 0
    compression: PRUNE
  }
  param {
    lr_mult: 0
    compression: PRUNE
  }
  batch_norm_param {
    use_global_stats: false
  }
}
layer {
  name: "relu7"
  type: "ReLU"
  bottom: "bn7"
  top: "relu7"
}
layer {
  name: "drop7"
  type: "Dropout"
  bottom: "relu7"
  top: "drop7"
  dropout_param {
    dropout_ratio: 0.5
  }
}
layer {
  name: "fc8"
  type: "InnerProduct"
  bottom: "drop7"
  top: "fc8"
  param {
    lr_mult: 1
    decay_mult: 1
  }
  param {
    lr_mult: 2
    decay_mult: 0
  }
  inner_product_param {
    num_output: 2
    weight_filler {
      type: "gaussian"
      std: 0.01
    }
    bias_filler {
      type: "constant"
      value: 0
    }
  }
}
layer {
  name: "accuracy"
  type: "Accuracy"
  bottom: "fc8"
  bottom: "label"
  top: "accuracy"
  include {
    phase: TEST
  }
}
layer {
  name: "loss"
  type: "SoftmaxWithLoss"
  bottom: "fc8"
  bottom: "label"
  top: "loss"
}
layer {
  name: "accuracy-top1"
  type: "Accuracy"
  bottom: "fc8"
  bottom: "label"
  top: "top-1"
  include {
    phase: TEST
  }
}
I0318 20:26:18.846395 24729 layer_factory.hpp:123] Creating layer data
I0318 20:26:18.846431 24729 internal_thread.cpp:73] Starting internal thread(s) on GPU 0
I0318 20:26:18.846995 24729 net.cpp:140] Creating Layer data
I0318 20:26:18.847007 24729 net.cpp:455] data -> data
I0318 20:26:18.847016 24729 net.cpp:455] data -> label
I0318 20:26:18.849433 24799 db_lmdb.cpp:81] Opened lmdb input/lmdb/valid_lmdb
I0318 20:26:18.849468 24799 data_reader.cpp:166] TEST: reading data using 1 channel(s)
I0318 20:26:18.849727 24729 data_layer.cpp:124] ReshapePrefetch 50, 3, 227, 227
I0318 20:26:18.849807 24729 data_layer.cpp:129] output data size: 50,3,227,227
I0318 20:26:18.926491 24729 internal_thread.cpp:73] Starting internal thread(s) on GPU 0
I0318 20:26:18.926537 24729 net.cpp:190] Setting up data
I0318 20:26:18.926563 24729 net.cpp:197] Top shape: 50 3 227 227 (7729350)
I0318 20:26:18.926565 24729 net.cpp:197] Top shape: 50 (50)
I0318 20:26:18.926568 24729 net.cpp:205] Memory required for data: 30917600
I0318 20:26:18.926570 24729 layer_factory.hpp:123] Creating layer label_data_1_split
I0318 20:26:18.926596 24729 net.cpp:140] Creating Layer label_data_1_split
I0318 20:26:18.926601 24729 net.cpp:481] label_data_1_split <- label
I0318 20:26:18.926606 24729 net.cpp:455] label_data_1_split -> label_data_1_split_0
I0318 20:26:18.926614 24729 net.cpp:455] label_data_1_split -> label_data_1_split_1
I0318 20:26:18.926617 24729 net.cpp:455] label_data_1_split -> label_data_1_split_2
I0318 20:26:18.926667 24729 net.cpp:190] Setting up label_data_1_split
I0318 20:26:18.926672 24729 net.cpp:197] Top shape: 50 (50)
I0318 20:26:18.926674 24729 net.cpp:197] Top shape: 50 (50)
I0318 20:26:18.926677 24729 net.cpp:197] Top shape: 50 (50)
I0318 20:26:18.926679 24729 net.cpp:205] Memory required for data: 30918200
I0318 20:26:18.926681 24729 layer_factory.hpp:123] Creating layer conv1
I0318 20:26:18.926689 24729 net.cpp:140] Creating Layer conv1
I0318 20:26:18.926693 24729 net.cpp:481] conv1 <- data
I0318 20:26:18.926697 24729 net.cpp:455] conv1 -> conv1
I0318 20:26:18.927206 24729 net.cpp:190] Setting up conv1
I0318 20:26:18.927213 24729 net.cpp:197] Top shape: 50 96 55 55 (14520000)
I0318 20:26:18.927217 24729 net.cpp:205] Memory required for data: 88998200
I0318 20:26:18.927224 24729 layer_factory.hpp:123] Creating layer bn1
I0318 20:26:18.927232 24729 net.cpp:140] Creating Layer bn1
I0318 20:26:18.927234 24729 net.cpp:481] bn1 <- conv1
I0318 20:26:18.927239 24729 net.cpp:455] bn1 -> bn1
I0318 20:26:18.927666 24729 net.cpp:190] Setting up bn1
I0318 20:26:18.927671 24729 net.cpp:197] Top shape: 50 96 55 55 (14520000)
I0318 20:26:18.927673 24729 net.cpp:205] Memory required for data: 147078200
I0318 20:26:18.927681 24729 layer_factory.hpp:123] Creating layer relu1
I0318 20:26:18.927687 24729 net.cpp:140] Creating Layer relu1
I0318 20:26:18.927690 24729 net.cpp:481] relu1 <- bn1
I0318 20:26:18.927695 24729 net.cpp:455] relu1 -> relu1
I0318 20:26:18.927709 24729 net.cpp:190] Setting up relu1
I0318 20:26:18.927713 24729 net.cpp:197] Top shape: 50 96 55 55 (14520000)
I0318 20:26:18.927716 24729 net.cpp:205] Memory required for data: 205158200
I0318 20:26:18.927717 24729 layer_factory.hpp:123] Creating layer pool1
I0318 20:26:18.927723 24729 net.cpp:140] Creating Layer pool1
I0318 20:26:18.927726 24729 net.cpp:481] pool1 <- relu1
I0318 20:26:18.927729 24729 net.cpp:455] pool1 -> pool1
I0318 20:26:18.927750 24729 net.cpp:190] Setting up pool1
I0318 20:26:18.927755 24729 net.cpp:197] Top shape: 50 96 27 27 (3499200)
I0318 20:26:18.927757 24729 net.cpp:205] Memory required for data: 219155000
I0318 20:26:18.927758 24729 layer_factory.hpp:123] Creating layer conv2
I0318 20:26:18.927764 24729 net.cpp:140] Creating Layer conv2
I0318 20:26:18.927768 24729 net.cpp:481] conv2 <- pool1
I0318 20:26:18.927772 24729 net.cpp:455] conv2 -> conv2
I0318 20:26:18.933715 24729 net.cpp:190] Setting up conv2
I0318 20:26:18.933733 24729 net.cpp:197] Top shape: 50 256 27 27 (9331200)
I0318 20:26:18.933738 24729 net.cpp:205] Memory required for data: 256479800
I0318 20:26:18.933748 24729 layer_factory.hpp:123] Creating layer bn2
I0318 20:26:18.933770 24729 net.cpp:140] Creating Layer bn2
I0318 20:26:18.933776 24729 net.cpp:481] bn2 <- conv2
I0318 20:26:18.933784 24729 net.cpp:455] bn2 -> bn2
I0318 20:26:18.934244 24729 net.cpp:190] Setting up bn2
I0318 20:26:18.934252 24729 net.cpp:197] Top shape: 50 256 27 27 (9331200)
I0318 20:26:18.934255 24729 net.cpp:205] Memory required for data: 293804600
I0318 20:26:18.934265 24729 layer_factory.hpp:123] Creating layer relu2
I0318 20:26:18.934276 24729 net.cpp:140] Creating Layer relu2
I0318 20:26:18.934281 24729 net.cpp:481] relu2 <- bn2
I0318 20:26:18.934288 24729 net.cpp:455] relu2 -> relu2
I0318 20:26:18.934311 24729 net.cpp:190] Setting up relu2
I0318 20:26:18.934317 24729 net.cpp:197] Top shape: 50 256 27 27 (9331200)
I0318 20:26:18.934330 24729 net.cpp:205] Memory required for data: 331129400
I0318 20:26:18.934334 24729 layer_factory.hpp:123] Creating layer pool2
I0318 20:26:18.934341 24729 net.cpp:140] Creating Layer pool2
I0318 20:26:18.934345 24729 net.cpp:481] pool2 <- relu2
I0318 20:26:18.934352 24729 net.cpp:455] pool2 -> pool2
I0318 20:26:18.934379 24729 net.cpp:190] Setting up pool2
I0318 20:26:18.934386 24729 net.cpp:197] Top shape: 50 256 13 13 (2163200)
I0318 20:26:18.934389 24729 net.cpp:205] Memory required for data: 339782200
I0318 20:26:18.934392 24729 layer_factory.hpp:123] Creating layer conv3
I0318 20:26:18.934403 24729 net.cpp:140] Creating Layer conv3
I0318 20:26:18.934407 24729 net.cpp:481] conv3 <- pool2
I0318 20:26:18.934418 24729 net.cpp:455] conv3 -> conv3
I0318 20:26:18.946017 24729 net.cpp:190] Setting up conv3
I0318 20:26:18.946060 24729 net.cpp:197] Top shape: 50 384 13 13 (3244800)
I0318 20:26:18.946065 24729 net.cpp:205] Memory required for data: 352761400
I0318 20:26:18.946074 24729 layer_factory.hpp:123] Creating layer relu3
I0318 20:26:18.946082 24729 net.cpp:140] Creating Layer relu3
I0318 20:26:18.946089 24729 net.cpp:481] relu3 <- conv3
I0318 20:26:18.946099 24729 net.cpp:455] relu3 -> relu3
I0318 20:26:18.946128 24729 net.cpp:190] Setting up relu3
I0318 20:26:18.946136 24729 net.cpp:197] Top shape: 50 384 13 13 (3244800)
I0318 20:26:18.946141 24729 net.cpp:205] Memory required for data: 365740600
I0318 20:26:18.946146 24729 layer_factory.hpp:123] Creating layer conv4
I0318 20:26:18.946159 24729 net.cpp:140] Creating Layer conv4
I0318 20:26:18.946166 24729 net.cpp:481] conv4 <- relu3
I0318 20:26:18.946173 24729 net.cpp:455] conv4 -> conv4
I0318 20:26:18.960304 24729 net.cpp:190] Setting up conv4
I0318 20:26:18.960325 24729 net.cpp:197] Top shape: 50 384 13 13 (3244800)
I0318 20:26:18.960330 24729 net.cpp:205] Memory required for data: 378719800
I0318 20:26:18.960343 24729 layer_factory.hpp:123] Creating layer relu4
I0318 20:26:18.960353 24729 net.cpp:140] Creating Layer relu4
I0318 20:26:18.960359 24729 net.cpp:481] relu4 <- conv4
I0318 20:26:18.960368 24729 net.cpp:455] relu4 -> relu4
I0318 20:26:18.960398 24729 net.cpp:190] Setting up relu4
I0318 20:26:18.960404 24729 net.cpp:197] Top shape: 50 384 13 13 (3244800)
I0318 20:26:18.960407 24729 net.cpp:205] Memory required for data: 391699000
I0318 20:26:18.960409 24729 layer_factory.hpp:123] Creating layer conv5
I0318 20:26:18.960417 24729 net.cpp:140] Creating Layer conv5
I0318 20:26:18.960423 24729 net.cpp:481] conv5 <- relu4
I0318 20:26:18.960433 24729 net.cpp:455] conv5 -> conv5
I0318 20:26:18.974362 24729 net.cpp:190] Setting up conv5
I0318 20:26:18.974385 24729 net.cpp:197] Top shape: 50 256 13 13 (2163200)
I0318 20:26:18.974390 24729 net.cpp:205] Memory required for data: 400351800
I0318 20:26:18.974397 24729 layer_factory.hpp:123] Creating layer relu5
I0318 20:26:18.974404 24729 net.cpp:140] Creating Layer relu5
I0318 20:26:18.974409 24729 net.cpp:481] relu5 <- conv5
I0318 20:26:18.974417 24729 net.cpp:455] relu5 -> relu5
I0318 20:26:18.974459 24729 net.cpp:190] Setting up relu5
I0318 20:26:18.974463 24729 net.cpp:197] Top shape: 50 256 13 13 (2163200)
I0318 20:26:18.974465 24729 net.cpp:205] Memory required for data: 409004600
I0318 20:26:18.974468 24729 layer_factory.hpp:123] Creating layer pool5
I0318 20:26:18.974475 24729 net.cpp:140] Creating Layer pool5
I0318 20:26:18.974478 24729 net.cpp:481] pool5 <- relu5
I0318 20:26:18.974483 24729 net.cpp:455] pool5 -> pool5
I0318 20:26:18.974524 24729 net.cpp:190] Setting up pool5
I0318 20:26:18.974550 24729 net.cpp:197] Top shape: 50 256 6 6 (460800)
I0318 20:26:18.974555 24729 net.cpp:205] Memory required for data: 410847800
I0318 20:26:18.974557 24729 layer_factory.hpp:123] Creating layer fc6
I0318 20:26:18.974566 24729 net.cpp:140] Creating Layer fc6
I0318 20:26:18.974571 24729 net.cpp:481] fc6 <- pool5
I0318 20:26:18.974577 24729 net.cpp:455] fc6 -> fc6
I0318 20:26:19.295708 24729 net.cpp:190] Setting up fc6
I0318 20:26:19.295734 24729 net.cpp:197] Top shape: 50 4096 (204800)
I0318 20:26:19.295773 24729 net.cpp:205] Memory required for data: 411667000
I0318 20:26:19.295783 24729 layer_factory.hpp:123] Creating layer relu6
I0318 20:26:19.295791 24729 net.cpp:140] Creating Layer relu6
I0318 20:26:19.295797 24729 net.cpp:481] relu6 <- fc6
I0318 20:26:19.295804 24729 net.cpp:455] relu6 -> relu6
I0318 20:26:19.295831 24729 net.cpp:190] Setting up relu6
I0318 20:26:19.295835 24729 net.cpp:197] Top shape: 50 4096 (204800)
I0318 20:26:19.295840 24729 net.cpp:205] Memory required for data: 412486200
I0318 20:26:19.295841 24729 layer_factory.hpp:123] Creating layer drop6
I0318 20:26:19.295847 24729 net.cpp:140] Creating Layer drop6
I0318 20:26:19.295851 24729 net.cpp:481] drop6 <- relu6
I0318 20:26:19.295856 24729 net.cpp:455] drop6 -> drop6
I0318 20:26:19.295878 24729 net.cpp:190] Setting up drop6
I0318 20:26:19.295882 24729 net.cpp:197] Top shape: 50 4096 (204800)
I0318 20:26:19.295886 24729 net.cpp:205] Memory required for data: 413305400
I0318 20:26:19.295888 24729 layer_factory.hpp:123] Creating layer fc7
I0318 20:26:19.295895 24729 net.cpp:140] Creating Layer fc7
I0318 20:26:19.295898 24729 net.cpp:481] fc7 <- drop6
I0318 20:26:19.295904 24729 net.cpp:455] fc7 -> fc7
I0318 20:26:19.437921 24729 net.cpp:190] Setting up fc7
I0318 20:26:19.437947 24729 net.cpp:197] Top shape: 50 4096 (204800)
I0318 20:26:19.437950 24729 net.cpp:205] Memory required for data: 414124600
I0318 20:26:19.437959 24729 layer_factory.hpp:123] Creating layer bn7
I0318 20:26:19.437970 24729 net.cpp:140] Creating Layer bn7
I0318 20:26:19.437974 24729 net.cpp:481] bn7 <- fc7
I0318 20:26:19.437983 24729 net.cpp:455] bn7 -> bn7
I0318 20:26:19.438406 24729 net.cpp:190] Setting up bn7
I0318 20:26:19.438412 24729 net.cpp:197] Top shape: 50 4096 (204800)
I0318 20:26:19.438416 24729 net.cpp:205] Memory required for data: 414943800
I0318 20:26:19.438423 24729 layer_factory.hpp:123] Creating layer relu7
I0318 20:26:19.438431 24729 net.cpp:140] Creating Layer relu7
I0318 20:26:19.438436 24729 net.cpp:481] relu7 <- bn7
I0318 20:26:19.438441 24729 net.cpp:455] relu7 -> relu7
I0318 20:26:19.438458 24729 net.cpp:190] Setting up relu7
I0318 20:26:19.438462 24729 net.cpp:197] Top shape: 50 4096 (204800)
I0318 20:26:19.438465 24729 net.cpp:205] Memory required for data: 415763000
I0318 20:26:19.438468 24729 layer_factory.hpp:123] Creating layer drop7
I0318 20:26:19.438475 24729 net.cpp:140] Creating Layer drop7
I0318 20:26:19.438478 24729 net.cpp:481] drop7 <- relu7
I0318 20:26:19.438484 24729 net.cpp:455] drop7 -> drop7
I0318 20:26:19.438505 24729 net.cpp:190] Setting up drop7
I0318 20:26:19.438509 24729 net.cpp:197] Top shape: 50 4096 (204800)
I0318 20:26:19.438513 24729 net.cpp:205] Memory required for data: 416582200
I0318 20:26:19.438516 24729 layer_factory.hpp:123] Creating layer fc8
I0318 20:26:19.438524 24729 net.cpp:140] Creating Layer fc8
I0318 20:26:19.438526 24729 net.cpp:481] fc8 <- drop7
I0318 20:26:19.438532 24729 net.cpp:455] fc8 -> fc8
I0318 20:26:19.438663 24729 net.cpp:190] Setting up fc8
I0318 20:26:19.438668 24729 net.cpp:197] Top shape: 50 2 (100)
I0318 20:26:19.438670 24729 net.cpp:205] Memory required for data: 416582600
I0318 20:26:19.438675 24729 layer_factory.hpp:123] Creating layer fc8_fc8_0_split
I0318 20:26:19.438681 24729 net.cpp:140] Creating Layer fc8_fc8_0_split
I0318 20:26:19.438685 24729 net.cpp:481] fc8_fc8_0_split <- fc8
I0318 20:26:19.438689 24729 net.cpp:455] fc8_fc8_0_split -> fc8_fc8_0_split_0
I0318 20:26:19.438697 24729 net.cpp:455] fc8_fc8_0_split -> fc8_fc8_0_split_1
I0318 20:26:19.438704 24729 net.cpp:455] fc8_fc8_0_split -> fc8_fc8_0_split_2
I0318 20:26:19.438740 24729 net.cpp:190] Setting up fc8_fc8_0_split
I0318 20:26:19.438743 24729 net.cpp:197] Top shape: 50 2 (100)
I0318 20:26:19.438747 24729 net.cpp:197] Top shape: 50 2 (100)
I0318 20:26:19.438751 24729 net.cpp:197] Top shape: 50 2 (100)
I0318 20:26:19.438753 24729 net.cpp:205] Memory required for data: 416583800
I0318 20:26:19.438757 24729 layer_factory.hpp:123] Creating layer accuracy
I0318 20:26:19.438762 24729 net.cpp:140] Creating Layer accuracy
I0318 20:26:19.438776 24729 net.cpp:481] accuracy <- fc8_fc8_0_split_0
I0318 20:26:19.438779 24729 net.cpp:481] accuracy <- label_data_1_split_0
I0318 20:26:19.438786 24729 net.cpp:455] accuracy -> accuracy
…
