…
I0318 21:19:47.861418 26064 net.cpp:369] The NetState phase (0) differed from the phase (1) specified by a rule in layer accuracy
I0318 21:19:47.861420 26064 net.cpp:369] The NetState phase (0) differed from the phase (1) specified by a rule in layer accuracy-top1
I0318 21:19:47.861524 26064 net.cpp:98] Initializing net from parameters:
state {
  phase: TRAIN
}
layer {
  name: "data"
  type: "Data"
  top: "data"
  top: "label"
  include {
    phase: TRAIN
  }
  transform_param {
    mirror: true
    crop_size: 227
    mean_value: 106
    mean_value: 116
    mean_value: 124
  }
  data_param {
    source: "input/lmdb/train_lmdb"
    batch_size: 256
    backend: LMDB
  }
}
layer {
  name: "conv1"
  type: "Convolution"
  bottom: "data"
  top: "conv1"
  param {
    lr_mult: 1
    decay_mult: 1
    compression: PRUNE
  }
  param {
    lr_mult: 2
    decay_mult: 0
    compression: PRUNE
  }
  convolution_param {
    num_output: 96
    pad: 1
    kernel_size: 11
    stride: 4
    weight_filler {
      type: "gaussian"
      std: 0.01
    }
    bias_filler {
      type: "constant"
      value: 0
    }
  }
}
layer {
  name: "bn1"
  type: "BatchNorm"
  bottom: "conv1"
  top: "bn1"
  param {
    lr_mult: 0
    compression: PRUNE
  }
  param {
    lr_mult: 0
    compression: PRUNE
  }
  param {
    lr_mult: 0
    compression: PRUNE
  }
  batch_norm_param {
    use_global_stats: false
  }
}
layer {
  name: "relu1"
  type: "ReLU"
  bottom: "bn1"
  top: "relu1"
}
layer {
  name: "pool1"
  type: "Pooling"
  bottom: "relu1"
  top: "pool1"
  pooling_param {
    pool: MAX
    kernel_size: 3
    stride: 2
  }
}
layer {
  name: "conv2"
  type: "Convolution"
  bottom: "pool1"
  top: "conv2"
  param {
    lr_mult: 1
    decay_mult: 1
    compression: PRUNE
  }
  param {
    lr_mult: 2
    decay_mult: 0
    compression: PRUNE
  }
  convolution_param {
    num_output: 256
    pad: 2
    kernel_size: 5
    group: 1
    weight_filler {
      type: "gaussian"
      std: 0.01
    }
    bias_filler {
      type: "constant"
      value: 1
    }
  }
}
layer {
  name: "bn2"
  type: "BatchNorm"
  bottom: "conv2"
  top: "bn2"
  param {
    lr_mult: 0
    compression: PRUNE
  }
  param {
    lr_mult: 0
    compression: PRUNE
  }
  param {
    lr_mult: 0
    compression: PRUNE
  }
  batch_norm_param {
    use_global_stats: false
  }
}
layer {
  name: "relu2"
  type: "ReLU"
  bottom: "bn2"
  top: "relu2"
}
layer {
  name: "pool2"
  type: "Pooling"
  bottom: "relu2"
  top: "pool2"
  pooling_param {
    pool: MAX
    kernel_size: 3
    stride: 2
  }
}
layer {
  name: "conv3"
  type: "Convolution"
  bottom: "pool2"
  top: "conv3"
  param {
    lr_mult: 1
    decay_mult: 1
    compression: PRUNE
  }
  param {
    lr_mult: 2
    decay_mult: 0
    compression: PRUNE
  }
  convolution_param {
    num_output: 384
    pad: 1
    kernel_size: 3
    weight_filler {
      type: "gaussian"
      std: 0.01
    }
    bias_filler {
      type: "constant"
      value: 0
    }
  }
}
layer {
  name: "relu3"
  type: "ReLU"
  bottom: "conv3"
  top: "relu3"
}
layer {
  name: "conv4"
  type: "Convolution"
  bottom: "relu3"
  top: "conv4"
  param {
    lr_mult: 1
    decay_mult: 1
    compression: PRUNE
  }
  param {
    lr_mult: 2
    decay_mult: 0
    compression: PRUNE
  }
  convolution_param {
    num_output: 384
    pad: 1
    kernel_size: 3
    group: 1
    weight_filler {
      type: "gaussian"
      std: 0.01
    }
    bias_filler {
      type: "constant"
      value: 1
    }
  }
}
layer {
  name: "relu4"
  type: "ReLU"
  bottom: "conv4"
  top: "relu4"
}
layer {
  name: "conv5"
  type: "Convolution"
  bottom: "relu4"
  top: "conv5"
  param {
    lr_mult: 1
    decay_mult: 1
    compression: PRUNE
  }
  param {
    lr_mult: 2
    decay_mult: 0
    compression: PRUNE
  }
  convolution_param {
    num_output: 256
    pad: 1
    kernel_size: 3
    group: 1
    weight_filler {
      type: "gaussian"
      std: 0.01
    }
    bias_filler {
      type: "constant"
      value: 1
    }
  }
}
layer {
  name: "relu5"
  type: "ReLU"
  bottom: "conv5"
  top: "relu5"
}
layer {
  name: "pool5"
  type: "Pooling"
  bottom: "relu5"
  top: "pool5"
  pooling_param {
    pool: MAX
    kernel_size: 3
    stride: 2
  }
}
layer {
  name: "fc6"
  type: "InnerProduct"
  bottom: "pool5"
  top: "fc6"
  param {
    lr_mult: 1
    decay_mult: 1
  }
  param {
    lr_mult: 2
    decay_mult: 0
  }
  inner_product_param {
    num_output: 4096
    weight_filler {
      type: "gaussian"
      std: 0.005
    }
    bias_filler {
      type: "constant"
      value: 1
    }
  }
}
layer {
  name: "relu6"
  type: "ReLU"
  bottom: "fc6"
  top: "relu6"
}
layer {
  name: "drop6"
  type: "Dropout"
  bottom: "relu6"
  top: "drop6"
  dropout_param {
    dropout_ratio: 0.5
  }
}
layer {
  name: "fc7"
  type: "InnerProduct"
  bottom: "drop6"
  top: "fc7"
  param {
    lr_mult: 1
    decay_mult: 1
  }
  param {
    lr_mult: 2
    decay_mult: 0
  }
  inner_product_param {
    num_output: 4096
    weight_filler {
      type: "gaussian"
      std: 0.005
    }
    bias_filler {
      type: "constant"
      value: 1
    }
  }
}
layer {
  name: "bn7"
  type: "BatchNorm"
  bottom: "fc7"
  top: "bn7"
  param {
    lr_mult: 0
    compression: PRUNE
  }
  param {
    lr_mult: 0
    compression: PRUNE
  }
  param {
    lr_mult: 0
    compression: PRUNE
  }
  batch_norm_param {
    use_global_stats: false
  }
}
layer {
  name: "relu7"
  type: "ReLU"
  bottom: "bn7"
  top: "relu7"
}
layer {
  name: "drop7"
  type: "Dropout"
  bottom: "relu7"
  top: "drop7"
  dropout_param {
    dropout_ratio: 0.5
  }
}
layer {
  name: "fc8"
  type: "InnerProduct"
  bottom: "drop7"
  top: "fc8"
  param {
    lr_mult: 1
    decay_mult: 1
  }
  param {
    lr_mult: 2
    decay_mult: 0
  }
  inner_product_param {
    num_output: 2
    weight_filler {
      type: "gaussian"
      std: 0.01
    }
    bias_filler {
      type: "constant"
      value: 0
    }
  }
}
layer {
  name: "loss"
  type: "SoftmaxWithLoss"
  bottom: "fc8"
  bottom: "label"
  top: "loss"
}
I0318 21:19:47.861580 26064 layer_factory.hpp:123] Creating layer data
I0318 21:19:47.861685 26064 internal_thread.cpp:73] Starting internal thread(s) on GPU 0
I0318 21:19:47.862018 26064 net.cpp:140] Creating Layer data
I0318 21:19:47.862032 26064 net.cpp:455] data -> data
I0318 21:19:47.862040 26064 net.cpp:455] data -> label
I0318 21:19:47.864650 26103 db_lmdb.cpp:81] Opened lmdb input/lmdb/train_lmdb
I0318 21:19:47.864696 26103 data_reader.cpp:166] TRAIN: reading data using 1 channel(s)
I0318 21:19:47.865013 26064 data_layer.cpp:124] ReshapePrefetch 256, 3, 227, 227
I0318 21:19:47.865078 26064 data_layer.cpp:129] output data size: 256,3,227,227
I0318 21:19:48.248059 26064 internal_thread.cpp:73] Starting internal thread(s) on GPU 0
I0318 21:19:48.248145 26064 net.cpp:190] Setting up data
I0318 21:19:48.248153 26064 net.cpp:197] Top shape: 256 3 227 227 (39574272)
I0318 21:19:48.248157 26064 net.cpp:197] Top shape: 256 (256)
I0318 21:19:48.248158 26064 net.cpp:205] Memory required for data: 158298112
I0318 21:19:48.248162 26064 layer_factory.hpp:123] Creating layer conv1
I0318 21:19:48.248174 26064 net.cpp:140] Creating Layer conv1
I0318 21:19:48.248178 26064 net.cpp:481] conv1 <- data
I0318 21:19:48.248193 26064 net.cpp:455] conv1 -> conv1
I0318 21:19:48.248675 26064 net.cpp:190] Setting up conv1
I0318 21:19:48.248682 26064 net.cpp:197] Top shape: 256 96 55 55 (74342400)
I0318 21:19:48.248683 26064 net.cpp:205] Memory required for data: 455667712
I0318 21:19:48.248694 26064 layer_factory.hpp:123] Creating layer bn1
I0318 21:19:48.248700 26064 net.cpp:140] Creating Layer bn1
I0318 21:19:48.248703 26064 net.cpp:481] bn1 <- conv1
I0318 21:19:48.248706 26064 net.cpp:455] bn1 -> bn1
I0318 21:19:48.249109 26064 net.cpp:190] Setting up bn1
I0318 21:19:48.249112 26064 net.cpp:197] Top shape: 256 96 55 55 (74342400)
I0318 21:19:48.249114 26064 net.cpp:205] Memory required for data: 753037312
I0318 21:19:48.249121 26064 layer_factory.hpp:123] Creating layer relu1
I0318 21:19:48.249125 26064 net.cpp:140] Creating Layer relu1
I0318 21:19:48.249128 26064 net.cpp:481] relu1 <- bn1
I0318 21:19:48.249131 26064 net.cpp:455] relu1 -> relu1
I0318 21:19:48.249150 26064 net.cpp:190] Setting up relu1
I0318 21:19:48.249152 26064 net.cpp:197] Top shape: 256 96 55 55 (74342400)
I0318 21:19:48.249155 26064 net.cpp:205] Memory required for data: 1050406912
I0318 21:19:48.249156 26064 layer_factory.hpp:123] Creating layer pool1
I0318 21:19:48.249161 26064 net.cpp:140] Creating Layer pool1
I0318 21:19:48.249163 26064 net.cpp:481] pool1 <- relu1
I0318 21:19:48.249166 26064 net.cpp:455] pool1 -> pool1
I0318 21:19:48.249184 26064 net.cpp:190] Setting up pool1
I0318 21:19:48.249186 26064 net.cpp:197] Top shape: 256 96 27 27 (17915904)
I0318 21:19:48.249188 26064 net.cpp:205] Memory required for data: 1122070528
I0318 21:19:48.249191 26064 layer_factory.hpp:123] Creating layer conv2
I0318 21:19:48.249197 26064 net.cpp:140] Creating Layer conv2
I0318 21:19:48.249198 26064 net.cpp:481] conv2 <- pool1
I0318 21:19:48.249202 26064 net.cpp:455] conv2 -> conv2
I0318 21:19:48.264350 26064 net.cpp:190] Setting up conv2
I0318 21:19:48.264366 26064 net.cpp:197] Top shape: 256 256 27 27 (47775744)
I0318 21:19:48.264369 26064 net.cpp:205] Memory required for data: 1313173504
I0318 21:19:48.264403 26064 layer_factory.hpp:123] Creating layer bn2
I0318 21:19:48.264412 26064 net.cpp:140] Creating Layer bn2
I0318 21:19:48.264415 26064 net.cpp:481] bn2 <- conv2
I0318 21:19:48.264422 26064 net.cpp:455] bn2 -> bn2
I0318 21:19:48.265080 26064 net.cpp:190] Setting up bn2
I0318 21:19:48.265146 26064 net.cpp:197] Top shape: 256 256 27 27 (47775744)
I0318 21:19:48.265178 26064 net.cpp:205] Memory required for data: 1504276480
I0318 21:19:48.265226 26064 layer_factory.hpp:123] Creating layer relu2
I0318 21:19:48.265264 26064 net.cpp:140] Creating Layer relu2
I0318 21:19:48.265280 26064 net.cpp:481] relu2 <- bn2
I0318 21:19:48.265298 26064 net.cpp:455] relu2 -> relu2
I0318 21:19:48.265372 26064 net.cpp:190] Setting up relu2
I0318 21:19:48.265385 26064 net.cpp:197] Top shape: 256 256 27 27 (47775744)
I0318 21:19:48.265395 26064 net.cpp:205] Memory required for data: 1695379456
I0318 21:19:48.265404 26064 layer_factory.hpp:123] Creating layer pool2
I0318 21:19:48.265419 26064 net.cpp:140] Creating Layer pool2
I0318 21:19:48.265429 26064 net.cpp:481] pool2 <- relu2
I0318 21:19:48.265446 26064 net.cpp:455] pool2 -> pool2
I0318 21:19:48.265514 26064 net.cpp:190] Setting up pool2
I0318 21:19:48.265527 26064 net.cpp:197] Top shape: 256 256 13 13 (11075584)
I0318 21:19:48.265534 26064 net.cpp:205] Memory required for data: 1739681792
I0318 21:19:48.265545 26064 layer_factory.hpp:123] Creating layer conv3
I0318 21:19:48.265568 26064 net.cpp:140] Creating Layer conv3
I0318 21:19:48.265594 26064 net.cpp:481] conv3 <- pool2
I0318 21:19:48.265610 26064 net.cpp:455] conv3 -> conv3
I0318 21:19:48.291863 26064 net.cpp:190] Setting up conv3
I0318 21:19:48.291887 26064 net.cpp:197] Top shape: 256 384 13 13 (16613376)
I0318 21:19:48.291890 26064 net.cpp:205] Memory required for data: 1806135296
I0318 21:19:48.291899 26064 layer_factory.hpp:123] Creating layer relu3
I0318 21:19:48.291909 26064 net.cpp:140] Creating Layer relu3
I0318 21:19:48.291915 26064 net.cpp:481] relu3 <- conv3
I0318 21:19:48.291926 26064 net.cpp:455] relu3 -> relu3
I0318 21:19:48.291954 26064 net.cpp:190] Setting up relu3
I0318 21:19:48.291960 26064 net.cpp:197] Top shape: 256 384 13 13 (16613376)
I0318 21:19:48.291962 26064 net.cpp:205] Memory required for data: 1872588800
I0318 21:19:48.291965 26064 layer_factory.hpp:123] Creating layer conv4
I0318 21:19:48.291977 26064 net.cpp:140] Creating Layer conv4
I0318 21:19:48.291982 26064 net.cpp:481] conv4 <- relu3
I0318 21:19:48.291990 26064 net.cpp:455] conv4 -> conv4
I0318 21:19:48.312476 26064 net.cpp:190] Setting up conv4
I0318 21:19:48.312503 26064 net.cpp:197] Top shape: 256 384 13 13 (16613376)
I0318 21:19:48.312507 26064 net.cpp:205] Memory required for data: 1939042304
I0318 21:19:48.312520 26064 layer_factory.hpp:123] Creating layer relu4
I0318 21:19:48.312532 26064 net.cpp:140] Creating Layer relu4
I0318 21:19:48.312539 26064 net.cpp:481] relu4 <- conv4
I0318 21:19:48.312549 26064 net.cpp:455] relu4 -> relu4
I0318 21:19:48.312582 26064 net.cpp:190] Setting up relu4
I0318 21:19:48.312589 26064 net.cpp:197] Top shape: 256 384 13 13 (16613376)
I0318 21:19:48.312592 26064 net.cpp:205] Memory required for data: 2005495808
I0318 21:19:48.312598 26064 layer_factory.hpp:123] Creating layer conv5
I0318 21:19:48.312611 26064 net.cpp:140] Creating Layer conv5
I0318 21:19:48.312619 26064 net.cpp:481] conv5 <- relu4
I0318 21:19:48.312625 26064 net.cpp:455] conv5 -> conv5
I0318 21:19:48.328174 26064 net.cpp:190] Setting up conv5
I0318 21:19:48.328198 26064 net.cpp:197] Top shape: 256 256 13 13 (11075584)
I0318 21:19:48.328202 26064 net.cpp:205] Memory required for data: 2049798144
I0318 21:19:48.328212 26064 layer_factory.hpp:123] Creating layer relu5
I0318 21:19:48.328222 26064 net.cpp:140] Creating Layer relu5
I0318 21:19:48.328227 26064 net.cpp:481] relu5 <- conv5
I0318 21:19:48.328238 26064 net.cpp:455] relu5 -> relu5
I0318 21:19:48.328267 26064 net.cpp:190] Setting up relu5
I0318 21:19:48.328274 26064 net.cpp:197] Top shape: 256 256 13 13 (11075584)
I0318 21:19:48.328277 26064 net.cpp:205] Memory required for data: 2094100480
I0318 21:19:48.328280 26064 layer_factory.hpp:123] Creating layer pool5
I0318 21:19:48.328289 26064 net.cpp:140] Creating Layer pool5
I0318 21:19:48.328294 26064 net.cpp:481] pool5 <- relu5
I0318 21:19:48.328299 26064 net.cpp:455] pool5 -> pool5
I0318 21:19:48.328330 26064 net.cpp:190] Setting up pool5
I0318 21:19:48.328336 26064 net.cpp:197] Top shape: 256 256 6 6 (2359296)
I0318 21:19:48.328341 26064 net.cpp:205] Memory required for data: 2103537664
I0318 21:19:48.328346 26064 layer_factory.hpp:123] Creating layer fc6
I0318 21:19:48.328354 26064 net.cpp:140] Creating Layer fc6
I0318 21:19:48.328358 26064 net.cpp:481] fc6 <- pool5
I0318 21:19:48.328366 26064 net.cpp:455] fc6 -> fc6
I0318 21:19:48.682741 26064 net.cpp:190] Setting up fc6
I0318 21:19:48.682766 26064 net.cpp:197] Top shape: 256 4096 (1048576)
I0318 21:19:48.682770 26064 net.cpp:205] Memory required for data: 2107731968
I0318 21:19:48.682778 26064 layer_factory.hpp:123] Creating layer relu6
I0318 21:19:48.682786 26064 net.cpp:140] Creating Layer relu6
I0318 21:19:48.682791 26064 net.cpp:481] relu6 <- fc6
I0318 21:19:48.682799 26064 net.cpp:455] relu6 -> relu6
I0318 21:19:48.682818 26064 net.cpp:190] Setting up relu6
I0318 21:19:48.682822 26064 net.cpp:197] Top shape: 256 4096 (1048576)
I0318 21:19:48.682824 26064 net.cpp:205] Memory required for data: 2111926272
I0318 21:19:48.682827 26064 layer_factory.hpp:123] Creating layer drop6
I0318 21:19:48.682833 26064 net.cpp:140] Creating Layer drop6
I0318 21:19:48.682845 26064 net.cpp:481] drop6 <- relu6
I0318 21:19:48.682849 26064 net.cpp:455] drop6 -> drop6
I0318 21:19:48.682888 26064 net.cpp:190] Setting up drop6
I0318 21:19:48.682891 26064 net.cpp:197] Top shape: 256 4096 (1048576)
I0318 21:19:48.682894 26064 net.cpp:205] Memory required for data: 2116120576
I0318 21:19:48.682898 26064 layer_factory.hpp:123] Creating layer fc7
I0318 21:19:48.682907 26064 net.cpp:140] Creating Layer fc7
I0318 21:19:48.682910 26064 net.cpp:481] fc7 <- drop6
I0318 21:19:48.682914 26064 net.cpp:455] fc7 -> fc7
I0318 21:19:48.818930 26064 net.cpp:190] Setting up fc7
I0318 21:19:48.818953 26064 net.cpp:197] Top shape: 256 4096 (1048576)
I0318 21:19:48.818955 26064 net.cpp:205] Memory required for data: 2120314880
I0318 21:19:48.818964 26064 layer_factory.hpp:123] Creating layer bn7
I0318 21:19:48.818974 26064 net.cpp:140] Creating Layer bn7
I0318 21:19:48.818979 26064 net.cpp:481] bn7 <- fc7
I0318 21:19:48.819002 26064 net.cpp:455] bn7 -> bn7
I0318 21:19:48.819412 26064 net.cpp:190] Setting up bn7
I0318 21:19:48.819418 26064 net.cpp:197] Top shape: 256 4096 (1048576)
I0318 21:19:48.819422 26064 net.cpp:205] Memory required for data: 2124509184
I0318 21:19:48.819429 26064 layer_factory.hpp:123] Creating layer relu7
I0318 21:19:48.819437 26064 net.cpp:140] Creating Layer relu7
I0318 21:19:48.819442 26064 net.cpp:481] relu7 <- bn7
I0318 21:19:48.819447 26064 net.cpp:455] relu7 -> relu7
I0318 21:19:48.819465 26064 net.cpp:190] Setting up relu7
I0318 21:19:48.819469 26064 net.cpp:197] Top shape: 256 4096 (1048576)
I0318 21:19:48.819473 26064 net.cpp:205] Memory required for data: 2128703488
I0318 21:19:48.819475 26064 layer_factory.hpp:123] Creating layer drop7
I0318 21:19:48.819483 26064 net.cpp:140] Creating Layer drop7
I0318 21:19:48.819486 26064 net.cpp:481] drop7 <- relu7
I0318 21:19:48.819491 26064 net.cpp:455] drop7 -> drop7
I0318 21:19:48.819514 26064 net.cpp:190] Setting up drop7
I0318 21:19:48.819519 26064 net.cpp:197] Top shape: 256 4096 (1048576)
I0318 21:19:48.819521 26064 net.cpp:205] Memory required for data: 2132897792
I0318 21:19:48.819523 26064 layer_factory.hpp:123] Creating layer fc8
I0318 21:19:48.819531 26064 net.cpp:140] Creating Layer fc8
I0318 21:19:48.819535 26064 net.cpp:481] fc8 <- drop7
I0318 21:19:48.819540 26064 net.cpp:455] fc8 -> fc8
I0318 21:19:48.819674 26064 net.cpp:190] Setting up fc8
I0318 21:19:48.819677 26064 net.cpp:197] Top shape: 256 2 (512)
I0318 21:19:48.819681 26064 net.cpp:205] Memory required for data: 2132899840
I0318 21:19:48.819685 26064 layer_factory.hpp:123] Creating layer loss
I0318 21:19:48.819691 26064 net.cpp:140] Creating Layer loss
I0318 21:19:48.819695 26064 net.cpp:481] loss <- fc8
I0318 21:19:48.819700 26064 net.cpp:481] loss <- label
I0318 21:19:48.819705 26064 net.cpp:455] loss -> loss
I0318 21:19:48.819711 26064 layer_factory.hpp:123] Creating layer loss
…
I0318 21:19:48.820112 26064 solver.cpp:235] Creating test net (#0) specified by net file: pruning/alexnetBNnoLRN/regular_rate_0.4/net_finetune.prototxt
I0318 21:19:48.820137 26064 net.cpp:369] The NetState phase (1) differed from the phase (0) specified by a rule in layer data
I0318 21:19:48.820261 26064 net.cpp:98] Initializing net from parameters:
state {
  phase: TEST
}
layer {
  name: "data"
  type: "Data"
  top: "data"
  top: "label"
  include {
    phase: TEST
  }
  transform_param {
    mirror: false
    crop_size: 227
    mean_value: 106
    mean_value: 116
    mean_value: 124
  }
  data_param {
    source: "input/lmdb/valid_lmdb"
    batch_size: 50
    backend: LMDB
  }
}
layer {
  name: "conv1"
  type: "Convolution"
  bottom: "data"
  top: "conv1"
  param {
    lr_mult: 1
    decay_mult: 1
    compression: PRUNE
  }
  param {
    lr_mult: 2
    decay_mult: 0
    compression: PRUNE
  }
  convolution_param {
    num_output: 96
    pad: 1
    kernel_size: 11
    stride: 4
    weight_filler {
      type: "gaussian"
      std: 0.01
    }
    bias_filler {
      type: "constant"
      value: 0
    }
  }
}
layer {
  name: "bn1"
  type: "BatchNorm"
  bottom: "conv1"
  top: "bn1"
  param {
    lr_mult: 0
    compression: PRUNE
  }
  param {
    lr_mult: 0
    compression: PRUNE
  }
  param {
    lr_mult: 0
    compression: PRUNE
  }
  batch_norm_param {
    use_global_stats: false
  }
}
layer {
  name: "relu1"
  type: "ReLU"
  bottom: "bn1"
  top: "relu1"
}
layer {
  name: "pool1"
  type: "Pooling"
  bottom: "relu1"
  top: "pool1"
  pooling_param {
    pool: MAX
    kernel_size: 3
    stride: 2
  }
}
layer {
  name: "conv2"
  type: "Convolution"
  bottom: "pool1"
  top: "conv2"
  param {
    lr_mult: 1
    decay_mult: 1
    compression: PRUNE
  }
  param {
    lr_mult: 2
    decay_mult: 0
    compression: PRUNE
  }
  convolution_param {
    num_output: 256
    pad: 2
    kernel_size: 5
    group: 1
    weight_filler {
      type: "gaussian"
      std: 0.01
    }
    bias_filler {
      type: "constant"
      value: 1
    }
  }
}
layer {
  name: "bn2"
  type: "BatchNorm"
  bottom: "conv2"
  top: "bn2"
  param {
    lr_mult: 0
    compression: PRUNE
  }
  param {
    lr_mult: 0
    compression: PRUNE
  }
  param {
    lr_mult: 0
    compression: PRUNE
  }
  batch_norm_param {
    use_global_stats: false
  }
}
layer {
  name: "relu2"
  type: "ReLU"
  bottom: "bn2"
  top: "relu2"
}
layer {
  name: "pool2"
  type: "Pooling"
  bottom: "relu2"
  top: "pool2"
  pooling_param {
    pool: MAX
    kernel_size: 3
    stride: 2
  }
}
layer {
  name: "conv3"
  type: "Convolution"
  bottom: "pool2"
  top: "conv3"
  param {
    lr_mult: 1
    decay_mult: 1
    compression: PRUNE
  }
  param {
    lr_mult: 2
    decay_mult: 0
    compression: PRUNE
  }
  convolution_param {
    num_output: 384
    pad: 1
    kernel_size: 3
    weight_filler {
      type: "gaussian"
      std: 0.01
    }
    bias_filler {
      type: "constant"
      value: 0
    }
  }
}
layer {
  name: "relu3"
  type: "ReLU"
  bottom: "conv3"
  top: "relu3"
}
layer {
  name: "conv4"
  type: "Convolution"
  bottom: "relu3"
  top: "conv4"
  param {
    lr_mult: 1
    decay_mult: 1
    compression: PRUNE
  }
  param {
    lr_mult: 2
    decay_mult: 0
    compression: PRUNE
  }
  convolution_param {
    num_output: 384
    pad: 1
    kernel_size: 3
    group: 1
    weight_filler {
      type: "gaussian"
      std: 0.01
    }
    bias_filler {
      type: "constant"
      value: 1
    }
  }
}
layer {
  name: "relu4"
  type: "ReLU"
  bottom: "conv4"
  top: "relu4"
}
layer {
  name: "conv5"
  type: "Convolution"
  bottom: "relu4"
  top: "conv5"
  param {
    lr_mult: 1
    decay_mult: 1
    compression: PRUNE
  }
  param {
    lr_mult: 2
    decay_mult: 0
    compression: PRUNE
  }
  convolution_param {
    num_output: 256
    pad: 1
    kernel_size: 3
    group: 1
    weight_filler {
      type: "gaussian"
      std: 0.01
    }
    bias_filler {
      type: "constant"
      value: 1
    }
  }
}
layer {
  name: "relu5"
  type: "ReLU"
  bottom: "conv5"
  top: "relu5"
}
layer {
  name: "pool5"
  type: "Pooling"
  bottom: "relu5"
  top: "pool5"
  pooling_param {
    pool: MAX
    kernel_size: 3
    stride: 2
  }
}
layer {
  name: "fc6"
  type: "InnerProduct"
  bottom: "pool5"
  top: "fc6"
  param {
    lr_mult: 1
    decay_mult: 1
  }
  param {
    lr_mult: 2
    decay_mult: 0
  }
  inner_product_param {
    num_output: 4096
    weight_filler {
      type: "gaussian"
      std: 0.005
    }
    bias_filler {
      type: "constant"
      value: 1
    }
  }
}
layer {
  name: "relu6"
  type: "ReLU"
  bottom: "fc6"
  top: "relu6"
}
layer {
  name: "drop6"
  type: "Dropout"
  bottom: "relu6"
  top: "drop6"
  dropout_param {
    dropout_ratio: 0.5
  }
}
layer {
  name: "fc7"
  type: "InnerProduct"
  bottom: "drop6"
  top: "fc7"
  param {
    lr_mult: 1
    decay_mult: 1
  }
  param {
    lr_mult: 2
    decay_mult: 0
  }
  inner_product_param {
    num_output: 4096
    weight_filler {
      type: "gaussian"
      std: 0.005
    }
    bias_filler {
      type: "constant"
      value: 1
    }
  }
}
layer {
  name: "bn7"
  type: "BatchNorm"
  bottom: "fc7"
  top: "bn7"
  param {
    lr_mult: 0
    compression: PRUNE
  }
  param {
    lr_mult: 0
    compression: PRUNE
  }
  param {
    lr_mult: 0
    compression: PRUNE
  }
  batch_norm_param {
    use_global_stats: false
  }
}
layer {
  name: "relu7"
  type: "ReLU"
  bottom: "bn7"
  top: "relu7"
}
layer {
  name: "drop7"
  type: "Dropout"
  bottom: "relu7"
  top: "drop7"
  dropout_param {
    dropout_ratio: 0.5
  }
}
layer {
  name: "fc8"
  type: "InnerProduct"
  bottom: "drop7"
  top: "fc8"
  param {
    lr_mult: 1
    decay_mult: 1
  }
  param {
    lr_mult: 2
    decay_mult: 0
  }
  inner_product_param {
    num_output: 2
    weight_filler {
      type: "gaussian"
      std: 0.01
    }
    bias_filler {
      type: "constant"
      value: 0
    }
  }
}
layer {
  name: "accuracy"
  type: "Accuracy"
  bottom: "fc8"
  bottom: "label"
  top: "accuracy"
  include {
    phase: TEST
  }
}
layer {
  name: "loss"
  type: "SoftmaxWithLoss"
  bottom: "fc8"
  bottom: "label"
  top: "loss"
}
layer {
  name: "accuracy-top1"
  type: "Accuracy"
  bottom: "fc8"
  bottom: "label"
  top: "top-1"
  include {
    phase: TEST
  }
}
I0318 21:19:48.820343 26064 layer_factory.hpp:123] Creating layer data
I0318 21:19:48.820376 26064 internal_thread.cpp:73] Starting internal thread(s) on GPU 0
I0318 21:19:48.820821 26064 net.cpp:140] Creating Layer data
I0318 21:19:48.820832 26064 net.cpp:455] data -> data
I0318 21:19:48.820840 26064 net.cpp:455] data -> label
I0318 21:19:48.823330 26134 db_lmdb.cpp:81] Opened lmdb input/lmdb/valid_lmdb
I0318 21:19:48.823365 26134 data_reader.cpp:166] TEST: reading data using 1 channel(s)
I0318 21:19:48.823681 26064 data_layer.cpp:124] ReshapePrefetch 50, 3, 227, 227
I0318 21:19:48.823753 26064 data_layer.cpp:129] output data size: 50,3,227,227
I0318 21:19:48.902318 26064 internal_thread.cpp:73] Starting internal thread(s) on GPU 0
I0318 21:19:48.902374 26064 net.cpp:190] Setting up data
I0318 21:19:48.902395 26064 net.cpp:197] Top shape: 50 3 227 227 (7729350)
I0318 21:19:48.902400 26064 net.cpp:197] Top shape: 50 (50)
I0318 21:19:48.902403 26064 net.cpp:205] Memory required for data: 30917600
I0318 21:19:48.902408 26064 layer_factory.hpp:123] Creating layer label_data_1_split
I0318 21:19:48.902421 26064 net.cpp:140] Creating Layer label_data_1_split
I0318 21:19:48.902426 26064 net.cpp:481] label_data_1_split <- label
I0318 21:19:48.902448 26064 net.cpp:455] label_data_1_split -> label_data_1_split_0
I0318 21:19:48.902458 26064 net.cpp:455] label_data_1_split -> label_data_1_split_1
I0318 21:19:48.902464 26064 net.cpp:455] label_data_1_split -> label_data_1_split_2
I0318 21:19:48.902523 26064 net.cpp:190] Setting up label_data_1_split
I0318 21:19:48.902527 26064 net.cpp:197] Top shape: 50 (50)
I0318 21:19:48.902531 26064 net.cpp:197] Top shape: 50 (50)
I0318 21:19:48.902537 26064 net.cpp:197] Top shape: 50 (50)
I0318 21:19:48.902541 26064 net.cpp:205] Memory required for data: 30918200
I0318 21:19:48.902545 26064 layer_factory.hpp:123] Creating layer conv1
I0318 21:19:48.902555 26064 net.cpp:140] Creating Layer conv1
I0318 21:19:48.902559 26064 net.cpp:481] conv1 <- data
I0318 21:19:48.902565 26064 net.cpp:455] conv1 -> conv1
I0318 21:19:48.903110 26064 net.cpp:190] Setting up conv1
I0318 21:19:48.903117 26064 net.cpp:197] Top shape: 50 96 55 55 (14520000)
I0318 21:19:48.903122 26064 net.cpp:205] Memory required for data: 88998200
I0318 21:19:48.903134 26064 layer_factory.hpp:123] Creating layer bn1
I0318 21:19:48.903142 26064 net.cpp:140] Creating Layer bn1
I0318 21:19:48.903146 26064 net.cpp:481] bn1 <- conv1
I0318 21:19:48.903153 26064 net.cpp:455] bn1 -> bn1
I0318 21:19:48.903631 26064 net.cpp:190] Setting up bn1
I0318 21:19:48.903637 26064 net.cpp:197] Top shape: 50 96 55 55 (14520000)
I0318 21:19:48.903640 26064 net.cpp:205] Memory required for data: 147078200
I0318 21:19:48.903653 26064 layer_factory.hpp:123] Creating layer relu1
I0318 21:19:48.903659 26064 net.cpp:140] Creating Layer relu1
I0318 21:19:48.903664 26064 net.cpp:481] relu1 <- bn1
I0318 21:19:48.903669 26064 net.cpp:455] relu1 -> relu1
I0318 21:19:48.903688 26064 net.cpp:190] Setting up relu1
I0318 21:19:48.903693 26064 net.cpp:197] Top shape: 50 96 55 55 (14520000)
I0318 21:19:48.903697 26064 net.cpp:205] Memory required for data: 205158200
I0318 21:19:48.903699 26064 layer_factory.hpp:123] Creating layer pool1
I0318 21:19:48.903708 26064 net.cpp:140] Creating Layer pool1
I0318 21:19:48.903712 26064 net.cpp:481] pool1 <- relu1
I0318 21:19:48.903718 26064 net.cpp:455] pool1 -> pool1
I0318 21:19:48.903744 26064 net.cpp:190] Setting up pool1
I0318 21:19:48.903753 26064 net.cpp:197] Top shape: 50 96 27 27 (3499200)
I0318 21:19:48.903755 26064 net.cpp:205] Memory required for data: 219155000
I0318 21:19:48.903759 26064 layer_factory.hpp:123] Creating layer conv2
I0318 21:19:48.903769 26064 net.cpp:140] Creating Layer conv2
I0318 21:19:48.903774 26064 net.cpp:481] conv2 <- pool1
I0318 21:19:48.903779 26064 net.cpp:455] conv2 -> conv2
I0318 21:19:48.910710 26064 net.cpp:190] Setting up conv2
I0318 21:19:48.910732 26064 net.cpp:197] Top shape: 50 256 27 27 (9331200)
I0318 21:19:48.910737 26064 net.cpp:205] Memory required for data: 256479800
I0318 21:19:48.910748 26064 layer_factory.hpp:123] Creating layer bn2
I0318 21:19:48.910763 26064 net.cpp:140] Creating Layer bn2
I0318 21:19:48.910768 26064 net.cpp:481] bn2 <- conv2
I0318 21:19:48.910776 26064 net.cpp:455] bn2 -> bn2
I0318 21:19:48.912875 26064 net.cpp:190] Setting up bn2
I0318 21:19:48.912889 26064 net.cpp:197] Top shape: 50 256 27 27 (9331200)
I0318 21:19:48.912894 26064 net.cpp:205] Memory required for data: 293804600
I0318 21:19:48.912906 26064 layer_factory.hpp:123] Creating layer relu2
I0318 21:19:48.912945 26064 net.cpp:140] Creating Layer relu2
I0318 21:19:48.912951 26064 net.cpp:481] relu2 <- bn2
I0318 21:19:48.912961 26064 net.cpp:455] relu2 -> relu2
I0318 21:19:48.912998 26064 net.cpp:190] Setting up relu2
I0318 21:19:48.913007 26064 net.cpp:197] Top shape: 50 256 27 27 (9331200)
I0318 21:19:48.913025 26064 net.cpp:205] Memory required for data: 331129400
I0318 21:19:48.913030 26064 layer_factory.hpp:123] Creating layer pool2
I0318 21:19:48.913038 26064 net.cpp:140] Creating Layer pool2
I0318 21:19:48.913043 26064 net.cpp:481] pool2 <- relu2
I0318 21:19:48.913049 26064 net.cpp:455] pool2 -> pool2
I0318 21:19:48.913087 26064 net.cpp:190] Setting up pool2
I0318 21:19:48.913097 26064 net.cpp:197] Top shape: 50 256 13 13 (2163200)
I0318 21:19:48.913101 26064 net.cpp:205] Memory required for data: 339782200
I0318 21:19:48.913105 26064 layer_factory.hpp:123] Creating layer conv3
I0318 21:19:48.913130 26064 net.cpp:140] Creating Layer conv3
I0318 21:19:48.913136 26064 net.cpp:481] conv3 <- pool2
I0318 21:19:48.913144 26064 net.cpp:455] conv3 -> conv3
I0318 21:19:48.924105 26064 net.cpp:190] Setting up conv3
I0318 21:19:48.924129 26064 net.cpp:197] Top shape: 50 384 13 13 (3244800)
I0318 21:19:48.924134 26064 net.cpp:205] Memory required for data: 352761400
I0318 21:19:48.924142 26064 layer_factory.hpp:123] Creating layer relu3
I0318 21:19:48.924150 26064 net.cpp:140] Creating Layer relu3
I0318 21:19:48.924155 26064 net.cpp:481] relu3 <- conv3
I0318 21:19:48.924165 26064 net.cpp:455] relu3 -> relu3
I0318 21:19:48.924193 26064 net.cpp:190] Setting up relu3
I0318 21:19:48.924198 26064 net.cpp:197] Top shape: 50 384 13 13 (3244800)
I0318 21:19:48.924201 26064 net.cpp:205] Memory required for data: 365740600
I0318 21:19:48.924206 26064 layer_factory.hpp:123] Creating layer conv4
I0318 21:19:48.924219 26064 net.cpp:140] Creating Layer conv4
I0318 21:19:48.924224 26064 net.cpp:481] conv4 <- relu3
I0318 21:19:48.924233 26064 net.cpp:455] conv4 -> conv4
I0318 21:19:48.942656 26064 net.cpp:190] Setting up conv4
I0318 21:19:48.942723 26064 net.cpp:197] Top shape: 50 384 13 13 (3244800)
I0318 21:19:48.942737 26064 net.cpp:205] Memory required for data: 378719800
I0318 21:19:48.942764 26064 layer_factory.hpp:123] Creating layer relu4
I0318 21:19:48.942785 26064 net.cpp:140] Creating Layer relu4
I0318 21:19:48.942801 26064 net.cpp:481] relu4 <- conv4
I0318 21:19:48.942817 26064 net.cpp:455] relu4 -> relu4
I0318 21:19:48.942872 26064 net.cpp:190] Setting up relu4
I0318 21:19:48.942889 26064 net.cpp:197] Top shape: 50 384 13 13 (3244800)
I0318 21:19:48.942900 26064 net.cpp:205] Memory required for data: 391699000
I0318 21:19:48.942912 26064 layer_factory.hpp:123] Creating layer conv5
I0318 21:19:48.942943 26064 net.cpp:140] Creating Layer conv5
I0318 21:19:48.942958 26064 net.cpp:481] conv5 <- relu4
I0318 21:19:48.942973 26064 net.cpp:455] conv5 -> conv5
I0318 21:19:48.953534 26064 net.cpp:190] Setting up conv5
I0318 21:19:48.953591 26064 net.cpp:197] Top shape: 50 256 13 13 (2163200)
I0318 21:19:48.953605 26064 net.cpp:205] Memory required for data: 400351800
I0318 21:19:48.953624 26064 layer_factory.hpp:123] Creating layer relu5
I0318 21:19:48.953655 26064 net.cpp:140] Creating Layer relu5
I0318 21:19:48.953666 26064 net.cpp:481] relu5 <- conv5
I0318 21:19:48.953683 26064 net.cpp:455] relu5 -> relu5
I0318 21:19:48.953732 26064 net.cpp:190] Setting up relu5
I0318 21:19:48.953748 26064 net.cpp:197] Top shape: 50 256 13 13 (2163200)
I0318 21:19:48.953759 26064 net.cpp:205] Memory required for data: 409004600
I0318 21:19:48.953773 26064 layer_factory.hpp:123] Creating layer pool5
I0318 21:19:48.953792 26064 net.cpp:140] Creating Layer pool5
I0318 21:19:48.953804 26064 net.cpp:481] pool5 <- relu5
I0318 21:19:48.953817 26064 net.cpp:455] pool5 -> pool5
I0318 21:19:48.953866 26064 net.cpp:190] Setting up pool5
I0318 21:19:48.953882 26064 net.cpp:197] Top shape: 50 256 6 6 (460800)
I0318 21:19:48.953893 26064 net.cpp:205] Memory required for data: 410847800
I0318 21:19:48.953905 26064 layer_factory.hpp:123] Creating layer fc6
I0318 21:19:48.953923 26064 net.cpp:140] Creating Layer fc6
I0318 21:19:48.953935 26064 net.cpp:481] fc6 <- pool5
I0318 21:19:48.953950 26064 net.cpp:455] fc6 -> fc6
I0318 21:19:49.279525 26064 net.cpp:190] Setting up fc6
I0318 21:19:49.279548 26064 net.cpp:197] Top shape: 50 4096 (204800)
I0318 21:19:49.279583 26064 net.cpp:205] Memory required for data: 411667000
I0318 21:19:49.279590 26064 layer_factory.hpp:123] Creating layer relu6
I0318 21:19:49.279599 26064 net.cpp:140] Creating Layer relu6
I0318 21:19:49.279603 26064 net.cpp:481] relu6 <- fc6
I0318 21:19:49.279608 26064 net.cpp:455] relu6 -> relu6
I0318 21:19:49.279630 26064 net.cpp:190] Setting up relu6
I0318 21:19:49.279635 26064 net.cpp:197] Top shape: 50 4096 (204800)
I0318 21:19:49.279639 26064 net.cpp:205] Memory required for data: 412486200
I0318 21:19:49.279640 26064 layer_factory.hpp:123] Creating layer drop6
I0318 21:19:49.279645 26064 net.cpp:140] Creating Layer drop6
I0318 21:19:49.279647 26064 net.cpp:481] drop6 <- relu6
I0318 21:19:49.279651 26064 net.cpp:455] drop6 -> drop6
I0318 21:19:49.279670 26064 net.cpp:190] Setting up drop6
I0318 21:19:49.279675 26064 net.cpp:197] Top shape: 50 4096 (204800)
I0318 21:19:49.279676 26064 net.cpp:205] Memory required for data: 413305400
I0318 21:19:49.279678 26064 layer_factory.hpp:123] Creating layer fc7
I0318 21:19:49.279683 26064 net.cpp:140] Creating Layer fc7
I0318 21:19:49.279685 26064 net.cpp:481] fc7 <- drop6
I0318 21:19:49.279688 26064 net.cpp:455] fc7 -> fc7
I0318 21:19:49.421407 26064 net.cpp:190] Setting up fc7
I0318 21:19:49.421427 26064 net.cpp:197] Top shape: 50 4096 (204800)
I0318 21:19:49.421429 26064 net.cpp:205] Memory required for data: 414124600
I0318 21:19:49.421452 26064 layer_factory.hpp:123] Creating layer bn7
I0318 21:19:49.421463 26064 net.cpp:140] Creating Layer bn7
I0318 21:19:49.421465 26064 net.cpp:481] bn7 <- fc7
I0318 21:19:49.421470 26064 net.cpp:455] bn7 -> bn7
I0318 21:19:49.421886 26064 net.cpp:190] Setting up bn7
I0318 21:19:49.421892 26064 net.cpp:197] Top shape: 50 4096 (204800)
I0318 21:19:49.421895 26064 net.cpp:205] Memory required for data: 414943800
I0318 21:19:49.421900 26064 layer_factory.hpp:123] Creating layer relu7
I0318 21:19:49.421905 26064 net.cpp:140] Creating Layer relu7
I0318 21:19:49.421907 26064 net.cpp:481] relu7 <- bn7
I0318 21:19:49.421911 26064 net.cpp:455] relu7 -> relu7
I0318 21:19:49.421926 26064 net.cpp:190] Setting up relu7
I0318 21:19:49.421931 26064 net.cpp:197] Top shape: 50 4096 (204800)
I0318 21:19:49.421932 26064 net.cpp:205] Memory required for data: 415763000
I0318 21:19:49.421934 26064 layer_factory.hpp:123] Creating layer drop7
I0318 21:19:49.421938 26064 net.cpp:140] Creating Layer drop7
I0318 21:19:49.421941 26064 net.cpp:481] drop7 <- relu7
I0318 21:19:49.421944 26064 net.cpp:455] drop7 -> drop7
I0318 21:19:49.421962 26064 net.cpp:190] Setting up drop7
I0318 21:19:49.421967 26064 net.cpp:197] Top shape: 50 4096 (204800)
I0318 21:19:49.421968 26064 net.cpp:205] Memory required for data: 416582200
I0318 21:19:49.421972 26064 layer_factory.hpp:123] Creating layer fc8
I0318 21:19:49.421977 26064 net.cpp:140] Creating Layer fc8
I0318 21:19:49.421978 26064 net.cpp:481] fc8 <- drop7
I0318 21:19:49.421983 26064 net.cpp:455] fc8 -> fc8
I0318 21:19:49.422117 26064 net.cpp:190] Setting up fc8
I0318 21:19:49.422122 26064 net.cpp:197] Top shape: 50 2 (100)
I0318 21:19:49.422123 26064 net.cpp:205] Memory required for data: 416582600
I0318 21:19:49.422127 26064 layer_factory.hpp:123] Creating layer fc8_fc8_0_split
I0318 21:19:49.422132 26064 net.cpp:140] Creating Layer fc8_fc8_0_split
I0318 21:19:49.422134 26064 net.cpp:481] fc8_fc8_0_split <- fc8
I0318 21:19:49.422137 26064 net.cpp:455] fc8_fc8_0_split -> fc8_fc8_0_split_0
I0318 21:19:49.422142 26064 net.cpp:455] fc8_fc8_0_split -> fc8_fc8_0_split_1
I0318 21:19:49.422145 26064 net.cpp:455] fc8_fc8_0_split -> fc8_fc8_0_split_2
I0318 21:19:49.422171 26064 net.cpp:190] Setting up fc8_fc8_0_split
I0318 21:19:49.422175 26064 net.cpp:197] Top shape: 50 2 (100)
I0318 21:19:49.422178 26064 net.cpp:197] Top shape: 50 2 (100)
I0318 21:19:49.422180 26064 net.cpp:197] Top shape: 50 2 (100)
I0318 21:19:49.422183 26064 net.cpp:205] Memory required for data: 416583800
I0318 21:19:49.422184 26064 layer_factory.hpp:123] Creating layer accuracy
I0318 21:19:49.422188 26064 net.cpp:140] Creating Layer accuracy
I0318 21:19:49.422204 26064 net.cpp:481] accuracy <- fc8_fc8_0_split_0
I0318 21:19:49.422206 26064 net.cpp:481] accuracy <- label_data_1_split_0
I0318 21:19:49.422210 26064 net.cpp:455] accuracy -> accuracy
…
