…
I0712 10:36:07.102511 22064 solver.cpp:99] Creating training net from net file: ../workspace/model/espnet/train_val.prototxt
I0712 10:36:07.104707 22064 net.cpp:52] Initializing net from parameters: 
state {
  phase: TRAIN
}
layer {
  name: "data"
  type: "ImageSegData"
  top: "data"
  top: "label"
  include {
    phase: TRAIN
  }
  transform_param {
    scale: 0.022
    crop_size: 512
    mean_value: 73
    mean_value: 82
    mean_value: 72
  }
  image_data_param {
    source: "../workspace/data/cityscapes/img_seg.txt"
    batch_size: 8
    mirror: true
    shuffle: true
  }
}
layer {
  name: "ConvNd_1"
  type: "Convolution"
  bottom: "data"
  top: "ConvNd_1"
  convolution_param {
    num_output: 16
    bias_term: false
    pad: 1
    kernel_size: 3
    group: 1
    stride: 2
    dilation: 1
  }
}
layer {
  name: "BatchNorm_1"
  type: "BatchNorm"
  bottom: "ConvNd_1"
  top: "BatchNorm_1"
  param {
    lr_mult: 1
    decay_mult: 0
  }
  param {
    lr_mult: 1
    decay_mult: 0
  }
  param {
    lr_mult: 0
    decay_mult: 0
  }
  param {
    lr_mult: 0
    decay_mult: 0
  }
  batch_norm_param {
    use_global_stats: true
    eps: 1e-05
    scale_filler {
      type: "constant"
      value: 1
    }
    bias_filler {
      type: "constant"
      value: 0
    }
  }
}
layer {
  name: "Threshold_1"
  type: "ReLU"
  bottom: "BatchNorm_1"
  top: "BatchNorm_1"
}
layer {
  name: "AvgPool2d_1"
  type: "Pooling"
  bottom: "data"
  top: "AvgPool2d_1"
  pooling_param {
    pool: AVE
    kernel_size: 3
    stride: 2
    pad: 0
  }
}
layer {
  name: "Concat_1"
  type: "Concat"
  bottom: "BatchNorm_1"
  bottom: "AvgPool2d_1"
  top: "Concat_1"
  concat_param {
    axis: 1
  }
}
layer {
  name: "BatchNorm_2"
  type: "BatchNorm"
  bottom: "Concat_1"
  top: "BatchNorm_2"
  param {
    lr_mult: 1
    decay_mult: 0
  }
  param {
    lr_mult: 1
    decay_mult: 0
  }
  param {
    lr_mult: 0
    decay_mult: 0
  }
  param {
    lr_mult: 0
    decay_mult: 0
  }
  batch_norm_param {
    use_global_stats: true
    eps: 1e-05
    scale_filler {
      type: "constant"
      value: 1
    }
    bias_filler {
      type: "constant"
      value: 0
    }
  }
}
layer {
  name: "Threshold_2"
  type: "ReLU"
  bottom: "BatchNorm_2"
  top: "BatchNorm_2"
}
layer {
  name: "ConvNd_2"
  type: "Convolution"
  bottom: "BatchNorm_2"
  top: "ConvNd_2"
  convolution_param {
    num_output: 12
    bias_term: false
    pad: 1
    kernel_size: 3
    group: 1
    stride: 2
    dilation: 1
  }
}
layer {
  name: "ConvNd_3"
  type: "Convolution"
  bottom: "ConvNd_2"
  top: "ConvNd_3"
  convolution_param {
    num_output: 16
    bias_term: false
    pad: 1
    kernel_size: 3
    group: 1
    stride: 1
    dilation: 1
  }
}
layer {
  name: "ConvNd_4"
  type: "Convolution"
  bottom: "ConvNd_2"
  top: "ConvNd_4"
  convolution_param {
    num_output: 12
    bias_term: false
    pad: 2
    kernel_size: 3
    group: 1
    stride: 1
    dilation: 2
  }
}
layer {
  name: "ConvNd_5"
  type: "Convolution"
  bottom: "ConvNd_2"
  top: "ConvNd_5"
  convolution_param {
    num_output: 12
    bias_term: false
    pad: 4
    kernel_size: 3
    group: 1
    stride: 1
    dilation: 4
  }
}
layer {
  name: "Add_1"
  type: "Eltwise"
  bottom: "ConvNd_4"
  bottom: "ConvNd_5"
  top: "Add_1"
}
layer {
  name: "ConvNd_6"
  type: "Convolution"
  bottom: "ConvNd_2"
  top: "ConvNd_6"
  convolution_param {
    num_output: 12
    bias_term: false
    pad: 8
    kernel_size: 3
    group: 1
    stride: 1
    dilation: 8
  }
}
layer {
  name: "Add_2"
  type: "Eltwise"
  bottom: "Add_1"
  bottom: "ConvNd_6"
  top: "Add_2"
}
layer {
  name: "ConvNd_7"
  type: "Convolution"
  bottom: "ConvNd_2"
  top: "ConvNd_7"
  convolution_param {
    num_output: 12
    bias_term: false
    pad: 16
    kernel_size: 3
    group: 1
    stride: 1
    dilation: 16
  }
}
layer {
  name: "Add_3"
  type: "Eltwise"
  bottom: "Add_2"
  bottom: "ConvNd_7"
  top: "Add_3"
}
layer {
  name: "Concat_2"
  type: "Concat"
  bottom: "ConvNd_3"
  bottom: "ConvNd_4"
  bottom: "Add_1"
  bottom: "Add_2"
  bottom: "Add_3"
  top: "Concat_2"
  concat_param {
    axis: 1
  }
}
layer {
  name: "BatchNorm_3"
  type: "BatchNorm"
  bottom: "Concat_2"
  top: "BatchNorm_3"
  param {
    lr_mult: 1
    decay_mult: 0
  }
  param {
    lr_mult: 1
    decay_mult: 0
  }
  param {
    lr_mult: 0
    decay_mult: 0
  }
  param {
    lr_mult: 0
    decay_mult: 0
  }
  batch_norm_param {
    use_global_stats: true
    eps: 1e-05
    scale_filler {
      type: "constant"
      value: 1
    }
    bias_filler {
      type: "constant"
      value: 0
    }
  }
}
layer {
  name: "Threshold_3"
  type: "ReLU"
  bottom: "BatchNorm_3"
  top: "BatchNorm_3"
}
layer {
  name: "ConvNd_8"
  type: "Convolution"
  bottom: "BatchNorm_3"
  top: "ConvNd_8"
  convolution_param {
    num_output: 12
    bias_term: false
    pad: 0
    kernel_size: 1
    group: 1
    stride: 1
    dilation: 1
  }
}
layer {
  name: "ConvNd_9"
  type: "Convolution"
  bottom: "ConvNd_8"
  top: "ConvNd_9"
  convolution_param {
    num_output: 16
    bias_term: false
    pad: 1
    kernel_size: 3
    group: 1
    stride: 1
    dilation: 1
  }
}
layer {
  name: "ConvNd_10"
  type: "Convolution"
  bottom: "ConvNd_8"
  top: "ConvNd_10"
  convolution_param {
    num_output: 12
    bias_term: false
    pad: 2
    kernel_size: 3
    group: 1
    stride: 1
    dilation: 2
  }
}
layer {
  name: "ConvNd_11"
  type: "Convolution"
  bottom: "ConvNd_8"
  top: "ConvNd_11"
  convolution_param {
    num_output: 12
    bias_term: false
    pad: 4
    kernel_size: 3
    group: 1
    stride: 1
    dilation: 4
  }
}
layer {
  name: "Add_4"
  type: "Eltwise"
  bottom: "ConvNd_10"
  bottom: "ConvNd_11"
  top: "Add_4"
}
layer {
  name: "ConvNd_12"
  type: "Convolution"
  bottom: "ConvNd_8"
  top: "ConvNd_12"
  convolution_param {
    num_output: 12
    bias_term: false
    pad: 8
    kernel_size: 3
    group: 1
    stride: 1
    dilation: 8
  }
}
layer {
  name: "Add_5"
  type: "Eltwise"
  bottom: "Add_4"
  bottom: "ConvNd_12"
  top: "Add_5"
}
layer {
  name: "ConvNd_13"
  type: "Convolution"
  bottom: "ConvNd_8"
  top: "ConvNd_13"
  convolution_param {
    num_output: 12
    bias_term: false
    pad: 16
    kernel_size: 3
    group: 1
    stride: 1
    dilation: 16
  }
}
layer {
  name: "Add_6"
  type: "Eltwise"
  bottom: "Add_5"
  bottom: "ConvNd_13"
  top: "Add_6"
}
layer {
  name: "Concat_3"
  type: "Concat"
  bottom: "ConvNd_9"
  bottom: "ConvNd_10"
  bottom: "Add_4"
  bottom: "Add_5"
  bottom: "Add_6"
  top: "Concat_3"
  concat_param {
    axis: 1
  }
}
layer {
  name: "Add_7"
  type: "Eltwise"
  bottom: "BatchNorm_3"
  bottom: "Concat_3"
  top: "Add_7"
}
layer {
  name: "BatchNorm_4"
  type: "BatchNorm"
  bottom: "Add_7"
  top: "BatchNorm_4"
  param {
    lr_mult: 1
    decay_mult: 0
  }
  param {
    lr_mult: 1
    decay_mult: 0
  }
  param {
    lr_mult: 0
    decay_mult: 0
  }
  param {
    lr_mult: 0
    decay_mult: 0
  }
  batch_norm_param {
    use_global_stats: true
    eps: 1e-05
    scale_filler {
      type: "constant"
      value: 1
    }
    bias_filler {
      type: "constant"
      value: 0
    }
  }
}
layer {
  name: "Threshold_4"
  type: "ReLU"
  bottom: "BatchNorm_4"
  top: "BatchNorm_4"
}
layer {
  name: "ConvNd_14"
  type: "Convolution"
  bottom: "BatchNorm_4"
  top: "ConvNd_14"
  convolution_param {
    num_output: 12
    bias_term: false
    pad: 0
    kernel_size: 1
    group: 1
    stride: 1
    dilation: 1
  }
}
layer {
  name: "ConvNd_15"
  type: "Convolution"
  bottom: "ConvNd_14"
  top: "ConvNd_15"
  convolution_param {
    num_output: 16
    bias_term: false
    pad: 1
    kernel_size: 3
    group: 1
    stride: 1
    dilation: 1
  }
}
layer {
  name: "ConvNd_16"
  type: "Convolution"
  bottom: "ConvNd_14"
  top: "ConvNd_16"
  convolution_param {
    num_output: 12
    bias_term: false
    pad: 2
    kernel_size: 3
    group: 1
    stride: 1
    dilation: 2
  }
}
layer {
  name: "ConvNd_17"
  type: "Convolution"
  bottom: "ConvNd_14"
  top: "ConvNd_17"
  convolution_param {
    num_output: 12
    bias_term: false
    pad: 4
    kernel_size: 3
    group: 1
    stride: 1
    dilation: 4
  }
}
layer {
  name: "Add_8"
  type: "Eltwise"
  bottom: "ConvNd_16"
  bottom: "ConvNd_17"
  top: "Add_8"
}
layer {
  name: "ConvNd_18"
  type: "Convolution"
  bottom: "ConvNd_14"
  top: "ConvNd_18"
  convolution_param {
    num_output: 12
    bias_term: false
    pad: 8
    kernel_size: 3
    group: 1
    stride: 1
    dilation: 8
  }
}
layer {
  name: "Add_9"
  type: "Eltwise"
  bottom: "Add_8"
  bottom: "ConvNd_18"
  top: "Add_9"
}
layer {
  name: "ConvNd_19"
  type: "Convolution"
  bottom: "ConvNd_14"
  top: "ConvNd_19"
  convolution_param {
    num_output: 12
    bias_term: false
    pad: 16
    kernel_size: 3
    group: 1
    stride: 1
    dilation: 16
  }
}
layer {
  name: "Add_10"
  type: "Eltwise"
  bottom: "Add_9"
  bottom: "ConvNd_19"
  top: "Add_10"
}
layer {
  name: "Concat_4"
  type: "Concat"
  bottom: "ConvNd_15"
  bottom: "ConvNd_16"
  bottom: "Add_8"
  bottom: "Add_9"
  bottom: "Add_10"
  top: "Concat_4"
  concat_param {
    axis: 1
  }
}
layer {
  name: "Add_11"
  type: "Eltwise"
  bottom: "BatchNorm_4"
  bottom: "Concat_4"
  top: "Add_11"
}
layer {
  name: "BatchNorm_5"
  type: "BatchNorm"
  bottom: "Add_11"
  top: "BatchNorm_5"
  param {
    lr_mult: 1
    decay_mult: 0
  }
  param {
    lr_mult: 1
    decay_mult: 0
  }
  param {
    lr_mult: 0
    decay_mult: 0
  }
  param {
    lr_mult: 0
    decay_mult: 0
  }
  batch_norm_param {
    use_global_stats: true
    eps: 1e-05
    scale_filler {
      type: "constant"
      value: 1
    }
    bias_filler {
      type: "constant"
      value: 0
    }
  }
}
layer {
  name: "Threshold_5"
  type: "ReLU"
  bottom: "BatchNorm_5"
  top: "BatchNorm_5"
}
layer {
  name: "AvgPool2d_2"
  type: "Pooling"
  bottom: "data"
  top: "AvgPool2d_2"
  pooling_param {
    pool: AVE
    kernel_size: 3
    stride: 2
    pad: 0
  }
}
layer {
  name: "AvgPool2d_3"
  type: "Pooling"
  bottom: "AvgPool2d_2"
  top: "AvgPool2d_3"
  pooling_param {
    pool: AVE
    kernel_size: 3
    stride: 2
    pad: 0
  }
}
layer {
  name: "Concat_5"
  type: "Concat"
  bottom: "BatchNorm_5"
  bottom: "BatchNorm_3"
  bottom: "AvgPool2d_3"
  top: "Concat_5"
  concat_param {
    axis: 1
  }
}
layer {
  name: "BatchNorm_6"
  type: "BatchNorm"
  bottom: "Concat_5"
  top: "BatchNorm_6"
  param {
    lr_mult: 1
    decay_mult: 0
  }
  param {
    lr_mult: 1
    decay_mult: 0
  }
  param {
    lr_mult: 0
    decay_mult: 0
  }
  param {
    lr_mult: 0
    decay_mult: 0
  }
  batch_norm_param {
    use_global_stats: true
    eps: 1e-05
    scale_filler {
      type: "constant"
      value: 1
    }
    bias_filler {
      type: "constant"
      value: 0
    }
  }
}
layer {
  name: "Threshold_6"
  type: "ReLU"
  bottom: "BatchNorm_6"
  top: "BatchNorm_6"
}
layer {
  name: "ConvNd_20"
  type: "Convolution"
  bottom: "BatchNorm_6"
  top: "ConvNd_20"
  convolution_param {
    num_output: 19
    bias_term: false
    pad: 0
    kernel_size: 1
    group: 1
    stride: 1
    weight_filler {
      type: "msra"
    }
    dilation: 1
  }
}
layer {
  name: "ConvNd_21"
  type: "Convolution"
  bottom: "BatchNorm_6"
  top: "ConvNd_21"
  convolution_param {
    num_output: 25
    bias_term: false
    pad: 1
    kernel_size: 3
    group: 1
    stride: 2
    dilation: 1
  }
}
layer {
  name: "ConvNd_22"
  type: "Convolution"
  bottom: "ConvNd_21"
  top: "ConvNd_22"
  convolution_param {
    num_output: 28
    bias_term: false
    pad: 1
    kernel_size: 3
    group: 1
    stride: 1
    dilation: 1
  }
}
layer {
  name: "ConvNd_23"
  type: "Convolution"
  bottom: "ConvNd_21"
  top: "ConvNd_23"
  convolution_param {
    num_output: 25
    bias_term: false
    pad: 2
    kernel_size: 3
    group: 1
    stride: 1
    dilation: 2
  }
}
layer {
  name: "ConvNd_24"
  type: "Convolution"
  bottom: "ConvNd_21"
  top: "ConvNd_24"
  convolution_param {
    num_output: 25
    bias_term: false
    pad: 4
    kernel_size: 3
    group: 1
    stride: 1
    dilation: 4
  }
}
layer {
  name: "Add_12"
  type: "Eltwise"
  bottom: "ConvNd_23"
  bottom: "ConvNd_24"
  top: "Add_12"
}
layer {
  name: "ConvNd_25"
  type: "Convolution"
  bottom: "ConvNd_21"
  top: "ConvNd_25"
  convolution_param {
    num_output: 25
    bias_term: false
    pad: 8
    kernel_size: 3
    group: 1
    stride: 1
    dilation: 8
  }
}
layer {
  name: "Add_13"
  type: "Eltwise"
  bottom: "Add_12"
  bottom: "ConvNd_25"
  top: "Add_13"
}
layer {
  name: "ConvNd_26"
  type: "Convolution"
  bottom: "ConvNd_21"
  top: "ConvNd_26"
  convolution_param {
    num_output: 25
    bias_term: false
    pad: 16
    kernel_size: 3
    group: 1
    stride: 1
    dilation: 16
  }
}
layer {
  name: "Add_14"
  type: "Eltwise"
  bottom: "Add_13"
  bottom: "ConvNd_26"
  top: "Add_14"
}
layer {
  name: "Concat_6"
  type: "Concat"
  bottom: "ConvNd_22"
  bottom: "ConvNd_23"
  bottom: "Add_12"
  bottom: "Add_13"
  bottom: "Add_14"
  top: "Concat_6"
  concat_param {
    axis: 1
  }
}
layer {
  name: "BatchNorm_7"
  type: "BatchNorm"
  bottom: "Concat_6"
  top: "BatchNorm_7"
  param {
    lr_mult: 1
    decay_mult: 0
  }
  param {
    lr_mult: 1
    decay_mult: 0
  }
  param {
    lr_mult: 0
    decay_mult: 0
  }
  param {
    lr_mult: 0
    decay_mult: 0
  }
  batch_norm_param {
    use_global_stats: true
    eps: 1e-05
    scale_filler {
      type: "constant"
      value: 1
    }
    bias_filler {
      type: "constant"
      value: 0
    }
  }
}
layer {
  name: "Threshold_7"
  type: "ReLU"
  bottom: "BatchNorm_7"
  top: "BatchNorm_7"
}
layer {
  name: "ConvNd_27"
  type: "Convolution"
  bottom: "BatchNorm_7"
  top: "ConvNd_27"
  convolution_param {
    num_output: 25
    bias_term: false
    pad: 0
    kernel_size: 1
    group: 1
    stride: 1
    dilation: 1
  }
}
layer {
  name: "ConvNd_28"
  type: "Convolution"
  bottom: "ConvNd_27"
  top: "ConvNd_28"
  convolution_param {
    num_output: 28
    bias_term: false
    pad: 1
    kernel_size: 3
    group: 1
    stride: 1
    dilation: 1
  }
}
layer {
  name: "ConvNd_29"
  type: "Convolution"
  bottom: "ConvNd_27"
  top: "ConvNd_29"
  convolution_param {
    num_output: 25
    bias_term: false
    pad: 2
    kernel_size: 3
    group: 1
    stride: 1
    dilation: 2
  }
}
layer {
  name: "ConvNd_30"
  type: "Convolution"
  bottom: "ConvNd_27"
  top: "ConvNd_30"
  convolution_param {
    num_output: 25
    bias_term: false
    pad: 4
    kernel_size: 3
    group: 1
    stride: 1
    dilation: 4
  }
}
layer {
  name: "Add_15"
  type: "Eltwise"
  bottom: "ConvNd_29"
  bottom: "ConvNd_30"
  top: "Add_15"
}
layer {
  name: "ConvNd_31"
  type: "Convolution"
  bottom: "ConvNd_27"
  top: "ConvNd_31"
  convolution_param {
    num_output: 25
    bias_term: false
    pad: 8
    kernel_size: 3
    group: 1
    stride: 1
    dilation: 8
  }
}
layer {
  name: "Add_16"
  type: "Eltwise"
  bottom: "Add_15"
  bottom: "ConvNd_31"
  top: "Add_16"
}
layer {
  name: "ConvNd_32"
  type: "Convolution"
  bottom: "ConvNd_27"
  top: "ConvNd_32"
  convolution_param {
    num_output: 25
    bias_term: false
    pad: 16
    kernel_size: 3
    group: 1
    stride: 1
    dilation: 16
  }
}
layer {
  name: "Add_17"
  type: "Eltwise"
  bottom: "Add_16"
  bottom: "ConvNd_32"
  top: "Add_17"
}
layer {
  name: "Concat_7"
  type: "Concat"
  bottom: "ConvNd_28"
  bottom: "ConvNd_29"
  bottom: "Add_15"
  bottom: "Add_16"
  bottom: "Add_17"
  top: "Concat_7"
  concat_param {
    axis: 1
  }
}
layer {
  name: "Add_18"
  type: "Eltwise"
  bottom: "BatchNorm_7"
  bottom: "Concat_7"
  top: "Add_18"
}
layer {
  name: "BatchNorm_8"
  type: "BatchNorm"
  bottom: "Add_18"
  top: "BatchNorm_8"
  param {
    lr_mult: 1
    decay_mult: 0
  }
  param {
    lr_mult: 1
    decay_mult: 0
  }
  param {
    lr_mult: 0
    decay_mult: 0
  }
  param {
    lr_mult: 0
    decay_mult: 0
  }
  batch_norm_param {
    use_global_stats: true
    eps: 1e-05
    scale_filler {
      type: "constant"
      value: 1
    }
    bias_filler {
      type: "constant"
      value: 0
    }
  }
}
layer {
  name: "Threshold_8"
  type: "ReLU"
  bottom: "BatchNorm_8"
  top: "BatchNorm_8"
}
layer {
  name: "ConvNd_33"
  type: "Convolution"
  bottom: "BatchNorm_8"
  top: "ConvNd_33"
  convolution_param {
    num_output: 25
    bias_term: false
    pad: 0
    kernel_size: 1
    group: 1
    stride: 1
    dilation: 1
  }
}
layer {
  name: "ConvNd_34"
  type: "Convolution"
  bottom: "ConvNd_33"
  top: "ConvNd_34"
  convolution_param {
    num_output: 28
    bias_term: false
    pad: 1
    kernel_size: 3
    group: 1
    stride: 1
    dilation: 1
  }
}
layer {
  name: "ConvNd_35"
  type: "Convolution"
  bottom: "ConvNd_33"
  top: "ConvNd_35"
  convolution_param {
    num_output: 25
    bias_term: false
    pad: 2
    kernel_size: 3
    group: 1
    stride: 1
    dilation: 2
  }
}
layer {
  name: "ConvNd_36"
  type: "Convolution"
  bottom: "ConvNd_33"
  top: "ConvNd_36"
  convolution_param {
    num_output: 25
    bias_term: false
    pad: 4
    kernel_size: 3
    group: 1
    stride: 1
    dilation: 4
  }
}
layer {
  name: "Add_19"
  type: "Eltwise"
  bottom: "ConvNd_35"
  bottom: "ConvNd_36"
  top: "Add_19"
}
layer {
  name: "ConvNd_37"
  type: "Convolution"
  bottom: "ConvNd_33"
  top: "ConvNd_37"
  convolution_param {
    num_output: 25
    bias_term: false
    pad: 8
    kernel_size: 3
    group: 1
    stride: 1
    dilation: 8
  }
}
layer {
  name: "Add_20"
  type: "Eltwise"
  bottom: "Add_19"
  bottom: "ConvNd_37"
  top: "Add_20"
}
layer {
  name: "ConvNd_38"
  type: "Convolution"
  bottom: "ConvNd_33"
  top: "ConvNd_38"
  convolution_param {
    num_output: 25
    bias_term: false
    pad: 16
    kernel_size: 3
    group: 1
    stride: 1
    dilation: 16
  }
}
layer {
  name: "Add_21"
  type: "Eltwise"
  bottom: "Add_20"
  bottom: "ConvNd_38"
  top: "Add_21"
}
layer {
  name: "Concat_8"
  type: "Concat"
  bottom: "ConvNd_34"
  bottom: "ConvNd_35"
  bottom: "Add_19"
  bottom: "Add_20"
  bottom: "Add_21"
  top: "Concat_8"
  concat_param {
    axis: 1
  }
}
layer {
  name: "Add_22"
  type: "Eltwise"
  bottom: "BatchNorm_8"
  bottom: "Concat_8"
  top: "Add_22"
}
layer {
  name: "BatchNorm_9"
  type: "BatchNorm"
  bottom: "Add_22"
  top: "BatchNorm_9"
  param {
    lr_mult: 1
    decay_mult: 0
  }
  param {
    lr_mult: 1
    decay_mult: 0
  }
  param {
    lr_mult: 0
    decay_mult: 0
  }
  param {
    lr_mult: 0
    decay_mult: 0
  }
  batch_norm_param {
    use_global_stats: true
    eps: 1e-05
    scale_filler {
      type: "constant"
      value: 1
    }
    bias_filler {
      type: "constant"
      value: 0
    }
  }
}
layer {
  name: "Threshold_9"
  type: "ReLU"
  bottom: "BatchNorm_9"
  top: "BatchNorm_9"
}
layer {
  name: "ConvNd_39"
  type: "Convolution"
  bottom: "BatchNorm_9"
  top: "ConvNd_39"
  convolution_param {
    num_output: 25
    bias_term: false
    pad: 0
    kernel_size: 1
    group: 1
    stride: 1
    dilation: 1
  }
}
layer {
  name: "ConvNd_40"
  type: "Convolution"
  bottom: "ConvNd_39"
  top: "ConvNd_40"
  convolution_param {
    num_output: 28
    bias_term: false
    pad: 1
    kernel_size: 3
    group: 1
    stride: 1
    dilation: 1
  }
}
layer {
  name: "ConvNd_41"
  type: "Convolution"
  bottom: "ConvNd_39"
  top: "ConvNd_41"
  convolution_param {
    num_output: 25
    bias_term: false
    pad: 2
    kernel_size: 3
    group: 1
    stride: 1
    dilation: 2
  }
}
layer {
  name: "ConvNd_42"
  type: "Convolution"
  bottom: "ConvNd_39"
  top: "ConvNd_42"
  convolution_param {
    num_output: 25
    bias_term: false
    pad: 4
    kernel_size: 3
    group: 1
    stride: 1
    dilation: 4
  }
}
layer {
  name: "Add_23"
  type: "Eltwise"
  bottom: "ConvNd_41"
  bottom: "ConvNd_42"
  top: "Add_23"
}
layer {
  name: "ConvNd_43"
  type: "Convolution"
  bottom: "ConvNd_39"
  top: "ConvNd_43"
  convolution_param {
    num_output: 25
    bias_term: false
    pad: 8
    kernel_size: 3
    group: 1
    stride: 1
    dilation: 8
  }
}
layer {
  name: "Add_24"
  type: "Eltwise"
  bottom: "Add_23"
  bottom: "ConvNd_43"
  top: "Add_24"
}
layer {
  name: "ConvNd_44"
  type: "Convolution"
  bottom: "ConvNd_39"
  top: "ConvNd_44"
  convolution_param {
    num_output: 25
    bias_term: false
    pad: 16
    kernel_size: 3
    group: 1
    stride: 1
    dilation: 16
  }
}
layer {
  name: "Add_25"
  type: "Eltwise"
  bottom: "Add_24"
  bottom: "ConvNd_44"
  top: "Add_25"
}
layer {
  name: "Concat_9"
  type: "Concat"
  bottom: "ConvNd_40"
  bottom: "ConvNd_41"
  bottom: "Add_23"
  bottom: "Add_24"
  bottom: "Add_25"
  top: "Concat_9"
  concat_param {
    axis: 1
  }
}
layer {
  name: "Add_26"
  type: "Eltwise"
  bottom: "BatchNorm_9"
  bottom: "Concat_9"
  top: "Add_26"
}
layer {
  name: "BatchNorm_10"
  type: "BatchNorm"
  bottom: "Add_26"
  top: "BatchNorm_10"
  param {
    lr_mult: 1
    decay_mult: 0
  }
  param {
    lr_mult: 1
    decay_mult: 0
  }
  param {
    lr_mult: 0
    decay_mult: 0
  }
  param {
    lr_mult: 0
    decay_mult: 0
  }
  batch_norm_param {
    use_global_stats: true
    eps: 1e-05
    scale_filler {
      type: "constant"
      value: 1
    }
    bias_filler {
      type: "constant"
      value: 0
    }
  }
}
layer {
  name: "Threshold_10"
  type: "ReLU"
  bottom: "BatchNorm_10"
  top: "BatchNorm_10"
}
layer {
  name: "ConvNd_45"
  type: "Convolution"
  bottom: "BatchNorm_10"
  top: "ConvNd_45"
  convolution_param {
    num_output: 25
    bias_term: false
    pad: 0
    kernel_size: 1
    group: 1
    stride: 1
    dilation: 1
  }
}
layer {
  name: "ConvNd_46"
  type: "Convolution"
  bottom: "ConvNd_45"
  top: "ConvNd_46"
  convolution_param {
    num_output: 28
    bias_term: false
    pad: 1
    kernel_size: 3
    group: 1
    stride: 1
    dilation: 1
  }
}
layer {
  name: "ConvNd_47"
  type: "Convolution"
  bottom: "ConvNd_45"
  top: "ConvNd_47"
  convolution_param {
    num_output: 25
    bias_term: false
    pad: 2
    kernel_size: 3
    group: 1
    stride: 1
    dilation: 2
  }
}
layer {
  name: "ConvNd_48"
  type: "Convolution"
  bottom: "ConvNd_45"
  top: "ConvNd_48"
  convolution_param {
    num_output: 25
    bias_term: false
    pad: 4
    kernel_size: 3
    group: 1
    stride: 1
    dilation: 4
  }
}
layer {
  name: "Add_27"
  type: "Eltwise"
  bottom: "ConvNd_47"
  bottom: "ConvNd_48"
  top: "Add_27"
}
layer {
  name: "ConvNd_49"
  type: "Convolution"
  bottom: "ConvNd_45"
  top: "ConvNd_49"
  convolution_param {
    num_output: 25
    bias_term: false
    pad: 8
    kernel_size: 3
    group: 1
    stride: 1
    dilation: 8
  }
}
layer {
  name: "Add_28"
  type: "Eltwise"
  bottom: "Add_27"
  bottom: "ConvNd_49"
  top: "Add_28"
}
layer {
  name: "ConvNd_50"
  type: "Convolution"
  bottom: "ConvNd_45"
  top: "ConvNd_50"
  convolution_param {
    num_output: 25
    bias_term: false
    pad: 16
    kernel_size: 3
    group: 1
    stride: 1
    dilation: 16
  }
}
layer {
  name: "Add_29"
  type: "Eltwise"
  bottom: "Add_28"
  bottom: "ConvNd_50"
  top: "Add_29"
}
layer {
  name: "Concat_10"
  type: "Concat"
  bottom: "ConvNd_46"
  bottom: "ConvNd_47"
  bottom: "Add_27"
  bottom: "Add_28"
  bottom: "Add_29"
  top: "Concat_10"
  concat_param {
    axis: 1
  }
}
layer {
  name: "Add_30"
  type: "Eltwise"
  bottom: "BatchNorm_10"
  bottom: "Concat_10"
  top: "Add_30"
}
layer {
  name: "BatchNorm_11"
  type: "BatchNorm"
  bottom: "Add_30"
  top: "BatchNorm_11"
  param {
    lr_mult: 1
    decay_mult: 0
  }
  param {
    lr_mult: 1
    decay_mult: 0
  }
  param {
    lr_mult: 0
    decay_mult: 0
  }
  param {
    lr_mult: 0
    decay_mult: 0
  }
  batch_norm_param {
    use_global_stats: true
    eps: 1e-05
    scale_filler {
      type: "constant"
      value: 1
    }
    bias_filler {
      type: "constant"
      value: 0
    }
  }
}
layer {
  name: "Threshold_11"
  type: "ReLU"
  bottom: "BatchNorm_11"
  top: "BatchNorm_11"
}
layer {
  name: "ConvNd_51"
  type: "Convolution"
  bottom: "BatchNorm_11"
  top: "ConvNd_51"
  convolution_param {
    num_output: 25
    bias_term: false
    pad: 0
    kernel_size: 1
    group: 1
    stride: 1
    dilation: 1
  }
}
layer {
  name: "ConvNd_52"
  type: "Convolution"
  bottom: "ConvNd_51"
  top: "ConvNd_52"
  convolution_param {
    num_output: 28
    bias_term: false
    pad: 1
    kernel_size: 3
    group: 1
    stride: 1
    dilation: 1
  }
}
layer {
  name: "ConvNd_53"
  type: "Convolution"
  bottom: "ConvNd_51"
  top: "ConvNd_53"
  convolution_param {
    num_output: 25
    bias_term: false
    pad: 2
    kernel_size: 3
    group: 1
    stride: 1
    dilation: 2
  }
}
layer {
  name: "ConvNd_54"
  type: "Convolution"
  bottom: "ConvNd_51"
  top: "ConvNd_54"
  convolution_param {
    num_output: 25
    bias_term: false
    pad: 4
    kernel_size: 3
    group: 1
    stride: 1
    dilation: 4
  }
}
layer {
  name: "Add_31"
  type: "Eltwise"
  bottom: "ConvNd_53"
  bottom: "ConvNd_54"
  top: "Add_31"
}
layer {
  name: "ConvNd_55"
  type: "Convolution"
  bottom: "ConvNd_51"
  top: "ConvNd_55"
  convolution_param {
    num_output: 25
    bias_term: false
    pad: 8
    kernel_size: 3
    group: 1
    stride: 1
    dilation: 8
  }
}
layer {
  name: "Add_32"
  type: "Eltwise"
  bottom: "Add_31"
  bottom: "ConvNd_55"
  top: "Add_32"
}
layer {
  name: "ConvNd_56"
  type: "Convolution"
  bottom: "ConvNd_51"
  top: "ConvNd_56"
  convolution_param {
    num_output: 25
    bias_term: false
    pad: 16
    kernel_size: 3
    group: 1
    stride: 1
    dilation: 16
  }
}
layer {
  name: "Add_33"
  type: "Eltwise"
  bottom: "Add_32"
  bottom: "ConvNd_56"
  top: "Add_33"
}
layer {
  name: "Concat_11"
  type: "Concat"
  bottom: "ConvNd_52"
  bottom: "ConvNd_53"
  bottom: "Add_31"
  bottom: "Add_32"
  bottom: "Add_33"
  top: "Concat_11"
  concat_param {
    axis: 1
  }
}
layer {
  name: "Add_34"
  type: "Eltwise"
  bottom: "BatchNorm_11"
  bottom: "Concat_11"
  top: "Add_34"
}
layer {
  name: "BatchNorm_12"
  type: "BatchNorm"
  bottom: "Add_34"
  top: "BatchNorm_12"
  param {
    lr_mult: 1
    decay_mult: 0
  }
  param {
    lr_mult: 1
    decay_mult: 0
  }
  param {
    lr_mult: 0
    decay_mult: 0
  }
  param {
    lr_mult: 0
    decay_mult: 0
  }
  batch_norm_param {
    use_global_stats: true
    eps: 1e-05
    scale_filler {
      type: "constant"
      value: 1
    }
    bias_filler {
      type: "constant"
      value: 0
    }
  }
}
layer {
  name: "Threshold_12"
  type: "ReLU"
  bottom: "BatchNorm_12"
  top: "BatchNorm_12"
}
layer {
  name: "ConvNd_57"
  type: "Convolution"
  bottom: "BatchNorm_12"
  top: "ConvNd_57"
  convolution_param {
    num_output: 25
    bias_term: false
    pad: 0
    kernel_size: 1
    group: 1
    stride: 1
    dilation: 1
  }
}
layer {
  name: "ConvNd_58"
  type: "Convolution"
  bottom: "ConvNd_57"
  top: "ConvNd_58"
  convolution_param {
    num_output: 28
    bias_term: false
    pad: 1
    kernel_size: 3
    group: 1
    stride: 1
    dilation: 1
  }
}
layer {
  name: "ConvNd_59"
  type: "Convolution"
  bottom: "ConvNd_57"
  top: "ConvNd_59"
  convolution_param {
    num_output: 25
    bias_term: false
    pad: 2
    kernel_size: 3
    group: 1
    stride: 1
    dilation: 2
  }
}
layer {
  name: "ConvNd_60"
  type: "Convolution"
  bottom: "ConvNd_57"
  top: "ConvNd_60"
  convolution_param {
    num_output: 25
    bias_term: false
    pad: 4
    kernel_size: 3
    group: 1
    stride: 1
    dilation: 4
  }
}
layer {
  name: "Add_35"
  type: "Eltwise"
  bottom: "ConvNd_59"
  bottom: "ConvNd_60"
  top: "Add_35"
}
layer {
  name: "ConvNd_61"
  type: "Convolution"
  bottom: "ConvNd_57"
  top: "ConvNd_61"
  convolution_param {
    num_output: 25
    bias_term: false
    pad: 8
    kernel_size: 3
    group: 1
    stride: 1
    dilation: 8
  }
}
layer {
  name: "Add_36"
  type: "Eltwise"
  bottom: "Add_35"
  bottom: "ConvNd_61"
  top: "Add_36"
}
layer {
  name: "ConvNd_62"
  type: "Convolution"
  bottom: "ConvNd_57"
  top: "ConvNd_62"
  convolution_param {
    num_output: 25
    bias_term: false
    pad: 16
    kernel_size: 3
    group: 1
    stride: 1
    dilation: 16
  }
}
layer {
  name: "Add_37"
  type: "Eltwise"
  bottom: "Add_36"
  bottom: "ConvNd_62"
  top: "Add_37"
}
layer {
  name: "Concat_12"
  type: "Concat"
  bottom: "ConvNd_58"
  bottom: "ConvNd_59"
  bottom: "Add_35"
  bottom: "Add_36"
  bottom: "Add_37"
  top: "Concat_12"
  concat_param {
    axis: 1
  }
}
layer {
  name: "Add_38"
  type: "Eltwise"
  bottom: "BatchNorm_12"
  bottom: "Concat_12"
  top: "Add_38"
}
layer {
  name: "BatchNorm_13"
  type: "BatchNorm"
  bottom: "Add_38"
  top: "BatchNorm_13"
  param {
    lr_mult: 1
    decay_mult: 0
  }
  param {
    lr_mult: 1
    decay_mult: 0
  }
  param {
    lr_mult: 0
    decay_mult: 0
  }
  param {
    lr_mult: 0
    decay_mult: 0
  }
  batch_norm_param {
    use_global_stats: true
    eps: 1e-05
    scale_filler {
      type: "constant"
      value: 1
    }
    bias_filler {
      type: "constant"
      value: 0
    }
  }
}
layer {
  name: "Threshold_13"
  type: "ReLU"
  bottom: "BatchNorm_13"
  top: "BatchNorm_13"
}
layer {
  name: "ConvNd_63"
  type: "Convolution"
  bottom: "BatchNorm_13"
  top: "ConvNd_63"
  convolution_param {
    num_output: 25
    bias_term: false
    pad: 0
    kernel_size: 1
    group: 1
    stride: 1
    dilation: 1
  }
}
layer {
  name: "ConvNd_64"
  type: "Convolution"
  bottom: "ConvNd_63"
  top: "ConvNd_64"
  convolution_param {
    num_output: 28
    bias_term: false
    pad: 1
    kernel_size: 3
    group: 1
    stride: 1
    dilation: 1
  }
}
layer {
  name: "ConvNd_65"
  type: "Convolution"
  bottom: "ConvNd_63"
  top: "ConvNd_65"
  convolution_param {
    num_output: 25
    bias_term: false
    pad: 2
    kernel_size: 3
    group: 1
    stride: 1
    dilation: 2
  }
}
layer {
  name: "ConvNd_66"
  type: "Convolution"
  bottom: "ConvNd_63"
  top: "ConvNd_66"
  convolution_param {
    num_output: 25
    bias_term: false
    pad: 4
    kernel_size: 3
    group: 1
    stride: 1
    dilation: 4
  }
}
layer {
  name: "Add_39"
  type: "Eltwise"
  bottom: "ConvNd_65"
  bottom: "ConvNd_66"
  
I0712 10:36:07.105831 22064 layer_factory.hpp:77] Creating layer data
I0712 10:36:07.105867 22064 net.cpp:94] Creating Layer data
I0712 10:36:07.105876 22064 net.cpp:409] data -> data
I0712 10:36:07.105903 22064 net.cpp:409] data -> label
I0712 10:36:07.105964 22064 image_seg_data_layer.cpp:46] Opening file ../workspace/data/cityscapes/img_seg.txt
I0712 10:36:07.109357 22064 image_seg_data_layer.cpp:63] Shuffling data
I0712 10:36:07.109418 22064 image_seg_data_layer.cpp:68] A total of 2975 images.
I0712 10:36:07.178314 22064 image_seg_data_layer.cpp:97] output data size: 8,3,512,512
I0712 10:36:07.316787 22064 internal_thread.cpp:27] Starting internal thread(s) on GPU 1
I0712 10:36:07.316859 22064 net.cpp:144] Setting up data
I0712 10:36:07.316871 22064 net.cpp:151] Top shape: 8 3 512 512 (6291456)
I0712 10:36:07.316876 22064 net.cpp:151] Top shape: 8 1 512 512 (2097152)
I0712 10:36:07.316879 22064 net.cpp:159] Memory required for data: 33554432
I0712 10:36:07.316886 22064 layer_factory.hpp:77] Creating layer data_data_0_split
I0712 10:36:07.316900 22064 net.cpp:94] Creating Layer data_data_0_split
I0712 10:36:07.316910 22064 net.cpp:435] data_data_0_split <- data
I0712 10:36:07.316922 22064 net.cpp:409] data_data_0_split -> data_data_0_split_0
I0712 10:36:07.316936 22064 net.cpp:409] data_data_0_split -> data_data_0_split_1
I0712 10:36:07.316946 22064 net.cpp:409] data_data_0_split -> data_data_0_split_2
I0712 10:36:07.317014 22064 net.cpp:144] Setting up data_data_0_split
I0712 10:36:07.317021 22064 net.cpp:151] Top shape: 8 3 512 512 (6291456)
I0712 10:36:07.317024 22064 net.cpp:151] Top shape: 8 3 512 512 (6291456)
I0712 10:36:07.317029 22064 net.cpp:151] Top shape: 8 3 512 512 (6291456)
I0712 10:36:07.317031 22064 net.cpp:159] Memory required for data: 109051904
I0712 10:36:07.317034 22064 layer_factory.hpp:77] Creating layer label_data_1_split
I0712 10:36:07.317040 22064 net.cpp:94] Creating Layer label_data_1_split
I0712 10:36:07.317061 22064 net.cpp:435] label_data_1_split <- label
I0712 10:36:07.317067 22064 net.cpp:409] label_data_1_split -> label_data_1_split_0
I0712 10:36:07.317073 22064 net.cpp:409] label_data_1_split -> label_data_1_split_1
I0712 10:36:07.317155 22064 net.cpp:144] Setting up label_data_1_split
I0712 10:36:07.317163 22064 net.cpp:151] Top shape: 8 1 512 512 (2097152)
I0712 10:36:07.317167 22064 net.cpp:151] Top shape: 8 1 512 512 (2097152)
I0712 10:36:07.317170 22064 net.cpp:159] Memory required for data: 125829120
I0712 10:36:07.317173 22064 layer_factory.hpp:77] Creating layer ConvNd_1
I0712 10:36:07.317188 22064 net.cpp:94] Creating Layer ConvNd_1
I0712 10:36:07.317193 22064 net.cpp:435] ConvNd_1 <- data_data_0_split_0
I0712 10:36:07.317198 22064 net.cpp:409] ConvNd_1 -> ConvNd_1
I0712 10:36:07.318580 22064 net.cpp:144] Setting up ConvNd_1
I0712 10:36:07.318593 22064 net.cpp:151] Top shape: 8 16 256 256 (8388608)
I0712 10:36:07.318596 22064 net.cpp:159] Memory required for data: 159383552
I0712 10:36:07.318609 22064 layer_factory.hpp:77] Creating layer BatchNorm_1
I0712 10:36:07.318621 22064 net.cpp:94] Creating Layer BatchNorm_1
I0712 10:36:07.318626 22064 net.cpp:435] BatchNorm_1 <- ConvNd_1
I0712 10:36:07.318632 22064 net.cpp:409] BatchNorm_1 -> BatchNorm_1
I0712 10:36:07.320065 22064 net.cpp:144] Setting up BatchNorm_1
I0712 10:36:07.320077 22064 net.cpp:151] Top shape: 8 16 256 256 (8388608)
I0712 10:36:07.320081 22064 net.cpp:159] Memory required for data: 192937984
I0712 10:36:07.320096 22064 layer_factory.hpp:77] Creating layer Threshold_1
I0712 10:36:07.320104 22064 net.cpp:94] Creating Layer Threshold_1
I0712 10:36:07.320107 22064 net.cpp:435] Threshold_1 <- BatchNorm_1
I0712 10:36:07.320113 22064 net.cpp:396] Threshold_1 -> BatchNorm_1 (in-place)
I0712 10:36:07.320127 22064 net.cpp:144] Setting up Threshold_1
I0712 10:36:07.320132 22064 net.cpp:151] Top shape: 8 16 256 256 (8388608)
I0712 10:36:07.320134 22064 net.cpp:159] Memory required for data: 226492416
I0712 10:36:07.320140 22064 layer_factory.hpp:77] Creating layer BatchNorm_1_Threshold_1_0_split
I0712 10:36:07.320145 22064 net.cpp:94] Creating Layer BatchNorm_1_Threshold_1_0_split
I0712 10:36:07.320148 22064 net.cpp:435] BatchNorm_1_Threshold_1_0_split <- BatchNorm_1
I0712 10:36:07.320154 22064 net.cpp:409] BatchNorm_1_Threshold_1_0_split -> BatchNorm_1_Threshold_1_0_split_0
I0712 10:36:07.320161 22064 net.cpp:409] BatchNorm_1_Threshold_1_0_split -> BatchNorm_1_Threshold_1_0_split_1
I0712 10:36:07.320194 22064 net.cpp:144] Setting up BatchNorm_1_Threshold_1_0_split
I0712 10:36:07.320202 22064 net.cpp:151] Top shape: 8 16 256 256 (8388608)
I0712 10:36:07.320205 22064 net.cpp:151] Top shape: 8 16 256 256 (8388608)
I0712 10:36:07.320209 22064 net.cpp:159] Memory required for data: 293601280
I0712 10:36:07.320214 22064 layer_factory.hpp:77] Creating layer AvgPool2d_1
I0712 10:36:07.320219 22064 net.cpp:94] Creating Layer AvgPool2d_1
I0712 10:36:07.320224 22064 net.cpp:435] AvgPool2d_1 <- data_data_0_split_1
I0712 10:36:07.320230 22064 net.cpp:409] AvgPool2d_1 -> AvgPool2d_1
I0712 10:36:07.320261 22064 net.cpp:144] Setting up AvgPool2d_1
I0712 10:36:07.320268 22064 net.cpp:151] Top shape: 8 3 256 256 (1572864)
I0712 10:36:07.320271 22064 net.cpp:159] Memory required for data: 299892736
I0712 10:36:07.320276 22064 layer_factory.hpp:77] Creating layer Concat_1
I0712 10:36:07.320283 22064 net.cpp:94] Creating Layer Concat_1
I0712 10:36:07.320287 22064 net.cpp:435] Concat_1 <- BatchNorm_1_Threshold_1_0_split_0
I0712 10:36:07.320291 22064 net.cpp:435] Concat_1 <- AvgPool2d_1
I0712 10:36:07.320297 22064 net.cpp:409] Concat_1 -> Concat_1
I0712 10:36:07.320319 22064 net.cpp:144] Setting up Concat_1
I0712 10:36:07.320327 22064 net.cpp:151] Top shape: 8 19 256 256 (9961472)
I0712 10:36:07.320328 22064 net.cpp:159] Memory required for data: 339738624
I0712 10:36:07.320333 22064 layer_factory.hpp:77] Creating layer BatchNorm_2
I0712 10:36:07.320339 22064 net.cpp:94] Creating Layer BatchNorm_2
I0712 10:36:07.320343 22064 net.cpp:435] BatchNorm_2 <- Concat_1
I0712 10:36:07.320358 22064 net.cpp:409] BatchNorm_2 -> BatchNorm_2
I0712 10:36:07.320853 22064 net.cpp:144] Setting up BatchNorm_2
I0712 10:36:07.320863 22064 net.cpp:151] Top shape: 8 19 256 256 (9961472)
I0712 10:36:07.320865 22064 net.cpp:159] Memory required for data: 379584512
I0712 10:36:07.320876 22064 layer_factory.hpp:77] Creating layer Threshold_2
I0712 10:36:07.320883 22064 net.cpp:94] Creating Layer Threshold_2
I0712 10:36:07.320886 22064 net.cpp:435] Threshold_2 <- BatchNorm_2
I0712 10:36:07.320891 22064 net.cpp:396] Threshold_2 -> BatchNorm_2 (in-place)
I0712 10:36:07.320899 22064 net.cpp:144] Setting up Threshold_2
I0712 10:36:07.320904 22064 net.cpp:151] Top shape: 8 19 256 256 (9961472)
I0712 10:36:07.320905 22064 net.cpp:159] Memory required for data: 419430400
I0712 10:36:07.320909 22064 layer_factory.hpp:77] Creating layer ConvNd_2
I0712 10:36:07.320915 22064 net.cpp:94] Creating Layer ConvNd_2
I0712 10:36:07.320919 22064 net.cpp:435] ConvNd_2 <- BatchNorm_2
I0712 10:36:07.320924 22064 net.cpp:409] ConvNd_2 -> ConvNd_2
I0712 10:36:07.321832 22064 net.cpp:144] Setting up ConvNd_2
I0712 10:36:07.321843 22064 net.cpp:151] Top shape: 8 12 128 128 (1572864)
I0712 10:36:07.321847 22064 net.cpp:159] Memory required for data: 425721856
I0712 10:36:07.321853 22064 layer_factory.hpp:77] Creating layer ConvNd_2_ConvNd_2_0_split
I0712 10:36:07.321861 22064 net.cpp:94] Creating Layer ConvNd_2_ConvNd_2_0_split
I0712 10:36:07.321863 22064 net.cpp:435] ConvNd_2_ConvNd_2_0_split <- ConvNd_2
I0712 10:36:07.321871 22064 net.cpp:409] ConvNd_2_ConvNd_2_0_split -> ConvNd_2_ConvNd_2_0_split_0
I0712 10:36:07.321877 22064 net.cpp:409] ConvNd_2_ConvNd_2_0_split -> ConvNd_2_ConvNd_2_0_split_1
I0712 10:36:07.321885 22064 net.cpp:409] ConvNd_2_ConvNd_2_0_split -> ConvNd_2_ConvNd_2_0_split_2
I0712 10:36:07.321892 22064 net.cpp:409] ConvNd_2_ConvNd_2_0_split -> ConvNd_2_ConvNd_2_0_split_3
I0712 10:36:07.321900 22064 net.cpp:409] ConvNd_2_ConvNd_2_0_split -> ConvNd_2_ConvNd_2_0_split_4
I0712 10:36:07.321959 22064 net.cpp:144] Setting up ConvNd_2_ConvNd_2_0_split
I0712 10:36:07.321966 22064 net.cpp:151] Top shape: 8 12 128 128 (1572864)
I0712 10:36:07.321970 22064 net.cpp:151] Top shape: 8 12 128 128 (1572864)
I0712 10:36:07.321974 22064 net.cpp:151] Top shape: 8 12 128 128 (1572864)
I0712 10:36:07.321979 22064 net.cpp:151] Top shape: 8 12 128 128 (1572864)
I0712 10:36:07.321981 22064 net.cpp:151] Top shape: 8 12 128 128 (1572864)
I0712 10:36:07.321985 22064 net.cpp:159] Memory required for data: 457179136
I0712 10:36:07.321987 22064 layer_factory.hpp:77] Creating layer ConvNd_3
I0712 10:36:07.321995 22064 net.cpp:94] Creating Layer ConvNd_3
I0712 10:36:07.321997 22064 net.cpp:435] ConvNd_3 <- ConvNd_2_ConvNd_2_0_split_0
I0712 10:36:07.322003 22064 net.cpp:409] ConvNd_3 -> ConvNd_3
I0712 10:36:07.322160 22064 net.cpp:144] Setting up ConvNd_3
I0712 10:36:07.322168 22064 net.cpp:151] Top shape: 8 16 128 128 (2097152)
I0712 10:36:07.322171 22064 net.cpp:159] Memory required for data: 465567744
I0712 10:36:07.322175 22064 layer_factory.hpp:77] Creating layer ConvNd_4
I0712 10:36:07.322182 22064 net.cpp:94] Creating Layer ConvNd_4
I0712 10:36:07.322186 22064 net.cpp:435] ConvNd_4 <- ConvNd_2_ConvNd_2_0_split_1
I0712 10:36:07.322191 22064 net.cpp:409] ConvNd_4 -> ConvNd_4
I0712 10:36:07.322342 22064 net.cpp:144] Setting up ConvNd_4
I0712 10:36:07.322350 22064 net.cpp:151] Top shape: 8 12 128 128 (1572864)
I0712 10:36:07.322353 22064 net.cpp:159] Memory required for data: 471859200
I0712 10:36:07.322357 22064 layer_factory.hpp:77] Creating layer ConvNd_4_ConvNd_4_0_split
I0712 10:36:07.322362 22064 net.cpp:94] Creating Layer ConvNd_4_ConvNd_4_0_split
I0712 10:36:07.322366 22064 net.cpp:435] ConvNd_4_ConvNd_4_0_split <- ConvNd_4
I0712 10:36:07.322371 22064 net.cpp:409] ConvNd_4_ConvNd_4_0_split -> ConvNd_4_ConvNd_4_0_split_0
I0712 10:36:07.322377 22064 net.cpp:409] ConvNd_4_ConvNd_4_0_split -> ConvNd_4_ConvNd_4_0_split_1
I0712 10:36:07.322405 22064 net.cpp:144] Setting up ConvNd_4_ConvNd_4_0_split
I0712 10:36:07.322412 22064 net.cpp:151] Top shape: 8 12 128 128 (1572864)
I0712 10:36:07.322427 22064 net.cpp:151] Top shape: 8 12 128 128 (1572864)
I0712 10:36:07.322430 22064 net.cpp:159] Memory required for data: 484442112
I0712 10:36:07.322434 22064 layer_factory.hpp:77] Creating layer ConvNd_5
I0712 10:36:07.322443 22064 net.cpp:94] Creating Layer ConvNd_5
I0712 10:36:07.322445 22064 net.cpp:435] ConvNd_5 <- ConvNd_2_ConvNd_2_0_split_2
I0712 10:36:07.322451 22064 net.cpp:409] ConvNd_5 -> ConvNd_5
I0712 10:36:07.322604 22064 net.cpp:144] Setting up ConvNd_5
I0712 10:36:07.322613 22064 net.cpp:151] Top shape: 8 12 128 128 (1572864)
I0712 10:36:07.322614 22064 net.cpp:159] Memory required for data: 490733568
I0712 10:36:07.322619 22064 layer_factory.hpp:77] Creating layer Add_1
I0712 10:36:07.322625 22064 net.cpp:94] Creating Layer Add_1
I0712 10:36:07.322629 22064 net.cpp:435] Add_1 <- ConvNd_4_ConvNd_4_0_split_0
I0712 10:36:07.322633 22064 net.cpp:435] Add_1 <- ConvNd_5
I0712 10:36:07.322638 22064 net.cpp:409] Add_1 -> Add_1
I0712 10:36:07.322659 22064 net.cpp:144] Setting up Add_1
I0712 10:36:07.322664 22064 net.cpp:151] Top shape: 8 12 128 128 (1572864)
I0712 10:36:07.322667 22064 net.cpp:159] Memory required for data: 497025024
I0712 10:36:07.322670 22064 layer_factory.hpp:77] Creating layer Add_1_Add_1_0_split
I0712 10:36:07.322676 22064 net.cpp:94] Creating Layer Add_1_Add_1_0_split
I0712 10:36:07.322680 22064 net.cpp:435] Add_1_Add_1_0_split <- Add_1
I0712 10:36:07.322685 22064 net.cpp:409] Add_1_Add_1_0_split -> Add_1_Add_1_0_split_0
I0712 10:36:07.322690 22064 net.cpp:409] Add_1_Add_1_0_split -> Add_1_Add_1_0_split_1
I0712 10:36:07.322718 22064 net.cpp:144] Setting up Add_1_Add_1_0_split
I0712 10:36:07.322724 22064 net.cpp:151] Top shape: 8 12 128 128 (1572864)
I0712 10:36:07.322728 22064 net.cpp:151] Top shape: 8 12 128 128 (1572864)
I0712 10:36:07.322731 22064 net.cpp:159] Memory required for data: 509607936
I0712 10:36:07.322734 22064 layer_factory.hpp:77] Creating layer ConvNd_6
I0712 10:36:07.322741 22064 net.cpp:94] Creating Layer ConvNd_6
I0712 10:36:07.322744 22064 net.cpp:435] ConvNd_6 <- ConvNd_2_ConvNd_2_0_split_3
I0712 10:36:07.322749 22064 net.cpp:409] ConvNd_6 -> ConvNd_6
I0712 10:36:07.322897 22064 net.cpp:144] Setting up ConvNd_6
I0712 10:36:07.322906 22064 net.cpp:151] Top shape: 8 12 128 128 (1572864)
I0712 10:36:07.322908 22064 net.cpp:159] Memory required for data: 515899392
I0712 10:36:07.322912 22064 layer_factory.hpp:77] Creating layer Add_2
I0712 10:36:07.322917 22064 net.cpp:94] Creating Layer Add_2
I0712 10:36:07.322921 22064 net.cpp:435] Add_2 <- Add_1_Add_1_0_split_0
I0712 10:36:07.322926 22064 net.cpp:435] Add_2 <- ConvNd_6
I0712 10:36:07.322930 22064 net.cpp:409] Add_2 -> Add_2
I0712 10:36:07.322948 22064 net.cpp:144] Setting up Add_2
I0712 10:36:07.322955 22064 net.cpp:151] Top shape: 8 12 128 128 (1572864)
I0712 10:36:07.322958 22064 net.cpp:159] Memory required for data: 522190848
I0712 10:36:07.322962 22064 layer_factory.hpp:77] Creating layer Add_2_Add_2_0_split
I0712 10:36:07.322966 22064 net.cpp:94] Creating Layer Add_2_Add_2_0_split
I0712 10:36:07.322970 22064 net.cpp:435] Add_2_Add_2_0_split <- Add_2
I0712 10:36:07.322974 22064 net.cpp:409] Add_2_Add_2_0_split -> Add_2_Add_2_0_split_0
I0712 10:36:07.322980 22064 net.cpp:409] Add_2_Add_2_0_split -> Add_2_Add_2_0_split_1
I0712 10:36:07.323007 22064 net.cpp:144] Setting up Add_2_Add_2_0_split
I0712 10:36:07.323014 22064 net.cpp:151] Top shape: 8 12 128 128 (1572864)
I0712 10:36:07.323017 22064 net.cpp:151] Top shape: 8 12 128 128 (1572864)
I0712 10:36:07.323020 22064 net.cpp:159] Memory required for data: 534773760
I0712 10:36:07.323024 22064 layer_factory.hpp:77] Creating layer ConvNd_7
I0712 10:36:07.323030 22064 net.cpp:94] Creating Layer ConvNd_7
I0712 10:36:07.323034 22064 net.cpp:435] ConvNd_7 <- ConvNd_2_ConvNd_2_0_split_4
I0712 10:36:07.323038 22064 net.cpp:409] ConvNd_7 -> ConvNd_7
I0712 10:36:07.323185 22064 net.cpp:144] Setting up ConvNd_7
I0712 10:36:07.323192 22064 net.cpp:151] Top shape: 8 12 128 128 (1572864)
I0712 10:36:07.323195 22064 net.cpp:159] Memory required for data: 541065216
I0712 10:36:07.323210 22064 layer_factory.hpp:77] Creating layer Add_3
I0712 10:36:07.323215 22064 net.cpp:94] Creating Layer Add_3
I0712 10:36:07.323220 22064 net.cpp:435] Add_3 <- Add_2_Add_2_0_split_0
I0712 10:36:07.323225 22064 net.cpp:435] Add_3 <- ConvNd_7
I0712 10:36:07.323228 22064 net.cpp:409] Add_3 -> Add_3
I0712 10:36:07.323248 22064 net.cpp:144] Setting up Add_3
I0712 10:36:07.323256 22064 net.cpp:151] Top shape: 8 12 128 128 (1572864)
I0712 10:36:07.323259 22064 net.cpp:159] Memory required for data: 547356672
I0712 10:36:07.323262 22064 layer_factory.hpp:77] Creating layer Concat_2
I0712 10:36:07.323267 22064 net.cpp:94] Creating Layer Concat_2
I0712 10:36:07.323271 22064 net.cpp:435] Concat_2 <- ConvNd_3
I0712 10:36:07.323276 22064 net.cpp:435] Concat_2 <- ConvNd_4_ConvNd_4_0_split_1
I0712 10:36:07.323279 22064 net.cpp:435] Concat_2 <- Add_1_Add_1_0_split_1
I0712 10:36:07.323283 22064 net.cpp:435] Concat_2 <- Add_2_Add_2_0_split_1
I0712 10:36:07.323287 22064 net.cpp:435] Concat_2 <- Add_3
I0712 10:36:07.323292 22064 net.cpp:409] Concat_2 -> Concat_2
I0712 10:36:07.323312 22064 net.cpp:144] Setting up Concat_2
I0712 10:36:07.323318 22064 net.cpp:151] Top shape: 8 64 128 128 (8388608)
I0712 10:36:07.323321 22064 net.cpp:159] Memory required for data: 580911104
I0712 10:36:07.323323 22064 layer_factory.hpp:77] Creating layer BatchNorm_3
I0712 10:36:07.323330 22064 net.cpp:94] Creating Layer BatchNorm_3
I0712 10:36:07.323333 22064 net.cpp:435] BatchNorm_3 <- Concat_2
I0712 10:36:07.323339 22064 net.cpp:409] BatchNorm_3 -> BatchNorm_3
I0712 10:36:07.324548 22064 net.cpp:144] Setting up BatchNorm_3
I0712 10:36:07.324560 22064 net.cpp:151] Top shape: 8 64 128 128 (8388608)
I0712 10:36:07.324563 22064 net.cpp:159] Memory required for data: 614465536
I0712 10:36:07.324574 22064 layer_factory.hpp:77] Creating layer Threshold_3
I0712 10:36:07.324580 22064 net.cpp:94] Creating Layer Threshold_3
I0712 10:36:07.324584 22064 net.cpp:435] Threshold_3 <- BatchNorm_3
I0712 10:36:07.324589 22064 net.cpp:396] Threshold_3 -> BatchNorm_3 (in-place)
I0712 10:36:07.324597 22064 net.cpp:144] Setting up Threshold_3
I0712 10:36:07.324601 22064 net.cpp:151] Top shape: 8 64 128 128 (8388608)
I0712 10:36:07.324604 22064 net.cpp:159] Memory required for data: 648019968
I0712 10:36:07.324607 22064 layer_factory.hpp:77] Creating layer BatchNorm_3_Threshold_3_0_split
I0712 10:36:07.324612 22064 net.cpp:94] Creating Layer BatchNorm_3_Threshold_3_0_split
I0712 10:36:07.324615 22064 net.cpp:435] BatchNorm_3_Threshold_3_0_split <- BatchNorm_3
I0712 10:36:07.324620 22064 net.cpp:409] BatchNorm_3_Threshold_3_0_split -> BatchNorm_3_Threshold_3_0_split_0
I0712 10:36:07.324626 22064 net.cpp:409] BatchNorm_3_Threshold_3_0_split -> BatchNorm_3_Threshold_3_0_split_1
I0712 10:36:07.324633 22064 net.cpp:409] BatchNorm_3_Threshold_3_0_split -> BatchNorm_3_Threshold_3_0_split_2
I0712 10:36:07.324672 22064 net.cpp:144] Setting up BatchNorm_3_Threshold_3_0_split
I0712 10:36:07.324678 22064 net.cpp:151] Top shape: 8 64 128 128 (8388608)
I0712 10:36:07.324682 22064 net.cpp:151] Top shape: 8 64 128 128 (8388608)
I0712 10:36:07.324687 22064 net.cpp:151] Top shape: 8 64 128 128 (8388608)
I0712 10:36:07.324689 22064 net.cpp:159] Memory required for data: 748683264
I0712 10:36:07.324692 22064 layer_factory.hpp:77] Creating layer ConvNd_8
I0712 10:36:07.324699 22064 net.cpp:94] Creating Layer ConvNd_8
I0712 10:36:07.324703 22064 net.cpp:435] ConvNd_8 <- BatchNorm_3_Threshold_3_0_split_0
I0712 10:36:07.324708 22064 net.cpp:409] ConvNd_8 -> ConvNd_8
I0712 10:36:07.324872 22064 net.cpp:144] Setting up ConvNd_8
I0712 10:36:07.324879 22064 net.cpp:151] Top shape: 8 12 128 128 (1572864)
I0712 10:36:07.324883 22064 net.cpp:159] Memory required for data: 754974720
I0712 10:36:07.324887 22064 layer_factory.hpp:77] Creating layer ConvNd_8_ConvNd_8_0_split
I0712 10:36:07.324893 22064 net.cpp:94] Creating Layer ConvNd_8_ConvNd_8_0_split
I0712 10:36:07.324896 22064 net.cpp:435] ConvNd_8_ConvNd_8_0_split <- ConvNd_8
I0712 10:36:07.324903 22064 net.cpp:409] ConvNd_8_ConvNd_8_0_split -> ConvNd_8_ConvNd_8_0_split_0
I0712 10:36:07.324923 22064 net.cpp:409] ConvNd_8_ConvNd_8_0_split -> ConvNd_8_ConvNd_8_0_split_1
I0712 10:36:07.324930 22064 net.cpp:409] ConvNd_8_ConvNd_8_0_split -> ConvNd_8_ConvNd_8_0_split_2
I0712 10:36:07.324936 22064 net.cpp:409] ConvNd_8_ConvNd_8_0_split -> ConvNd_8_ConvNd_8_0_split_3
I0712 10:36:07.324942 22064 net.cpp:409] ConvNd_8_ConvNd_8_0_split -> ConvNd_8_ConvNd_8_0_split_4
I0712 10:36:07.325001 22064 net.cpp:144] Setting up ConvNd_8_ConvNd_8_0_split
I0712 10:36:07.325007 22064 net.cpp:151] Top shape: 8 12 128 128 (1572864)
I0712 10:36:07.325011 22064 net.cpp:151] Top shape: 8 12 128 128 (1572864)
I0712 10:36:07.325016 22064 net.cpp:151] Top shape: 8 12 128 128 (1572864)
I0712 10:36:07.325019 22064 net.cpp:151] Top shape: 8 12 128 128 (1572864)
I0712 10:36:07.325022 22064 net.cpp:151] Top shape: 8 12 128 128 (1572864)
I0712 10:36:07.325026 22064 net.cpp:159] Memory required for data: 786432000
I0712 10:36:07.325029 22064 layer_factory.hpp:77] Creating layer ConvNd_9
I0712 10:36:07.325035 22064 net.cpp:94] Creating Layer ConvNd_9
I0712 10:36:07.325039 22064 net.cpp:435] ConvNd_9 <- ConvNd_8_ConvNd_8_0_split_0
I0712 10:36:07.325045 22064 net.cpp:409] ConvNd_9 -> ConvNd_9
I0712 10:36:07.325201 22064 net.cpp:144] Setting up ConvNd_9
I0712 10:36:07.325209 22064 net.cpp:151] Top shape: 8 16 128 128 (2097152)
I0712 10:36:07.325212 22064 net.cpp:159] Memory required for data: 794820608
I0712 10:36:07.325217 22064 layer_factory.hpp:77] Creating layer ConvNd_10
I0712 10:36:07.325223 22064 net.cpp:94] Creating Layer ConvNd_10
I0712 10:36:07.325227 22064 net.cpp:435] ConvNd_10 <- ConvNd_8_ConvNd_8_0_split_1
I0712 10:36:07.325232 22064 net.cpp:409] ConvNd_10 -> ConvNd_10
I0712 10:36:07.325386 22064 net.cpp:144] Setting up ConvNd_10
I0712 10:36:07.325392 22064 net.cpp:151] Top shape: 8 12 128 128 (1572864)
I0712 10:36:07.325395 22064 net.cpp:159] Memory required for data: 801112064
I0712 10:36:07.325399 22064 layer_factory.hpp:77] Creating layer ConvNd_10_ConvNd_10_0_split
I0712 10:36:07.325407 22064 net.cpp:94] Creating Layer ConvNd_10_ConvNd_10_0_split
I0712 10:36:07.325410 22064 net.cpp:435] ConvNd_10_ConvNd_10_0_split <- ConvNd_10
I0712 10:36:07.325415 22064 net.cpp:409] ConvNd_10_ConvNd_10_0_split -> ConvNd_10_ConvNd_10_0_split_0
I0712 10:36:07.325420 22064 net.cpp:409] ConvNd_10_ConvNd_10_0_split -> ConvNd_10_ConvNd_10_0_split_1
I0712 10:36:07.325450 22064 net.cpp:144] Setting up ConvNd_10_ConvNd_10_0_split
I0712 10:36:07.325456 22064 net.cpp:151] Top shape: 8 12 128 128 (1572864)
I0712 10:36:07.325460 22064 net.cpp:151] Top shape: 8 12 128 128 (1572864)
I0712 10:36:07.325464 22064 net.cpp:159] Memory required for data: 813694976
I0712 10:36:07.325466 22064 layer_factory.hpp:77] Creating layer ConvNd_11
I0712 10:36:07.325474 22064 net.cpp:94] Creating Layer ConvNd_11
I0712 10:36:07.325476 22064 net.cpp:435] ConvNd_11 <- ConvNd_8_ConvNd_8_0_split_2
I0712 10:36:07.325481 22064 net.cpp:409] ConvNd_11 -> ConvNd_11
I0712 10:36:07.325634 22064 net.cpp:144] Setting up ConvNd_11
I0712 10:36:07.325640 22064 net.cpp:151] Top shape: 8 12 128 128 (1572864)
I0712 10:36:07.325644 22064 net.cpp:159] Memory required for data: 819986432
I0712 10:36:07.325647 22064 layer_factory.hpp:77] Creating layer Add_4
I0712 10:36:07.325652 22064 net.cpp:94] Creating Layer Add_4
I0712 10:36:07.325657 22064 net.cpp:435] Add_4 <- ConvNd_10_ConvNd_10_0_split_0
I0712 10:36:07.325661 22064 net.cpp:435] Add_4 <- ConvNd_11
I0712 10:36:07.325666 22064 net.cpp:409] Add_4 -> Add_4
I0712 10:36:07.325685 22064 net.cpp:144] Setting up Add_4
I0712 10:36:07.325691 22064 net.cpp:151] Top shape: 8 12 128 128 (1572864)
I0712 10:36:07.325695 22064 net.cpp:159] Memory required for data: 826277888
I0712 10:36:07.325697 22064 layer_factory.hpp:77] Creating layer Add_4_Add_4_0_split
I0712 10:36:07.325702 22064 net.cpp:94] Creating Layer Add_4_Add_4_0_split
I0712 10:36:07.325706 22064 net.cpp:435] Add_4_Add_4_0_split <- Add_4
I0712 10:36:07.325711 22064 net.cpp:409] Add_4_Add_4_0_split -> Add_4_Add_4_0_split_0
I0712 10:36:07.325726 22064 net.cpp:409] Add_4_Add_4_0_split -> Add_4_Add_4_0_split_1
I0712 10:36:07.325757 22064 net.cpp:144] Setting up Add_4_Add_4_0_split
I0712 10:36:07.325764 22064 net.cpp:151] Top shape: 8 12 128 128 (1572864)
I0712 10:36:07.325768 22064 net.cpp:151] Top shape: 8 12 128 128 (1572864)
I0712 10:36:07.325772 22064 net.cpp:159] Memory required for data: 838860800
I0712 10:36:07.325774 22064 layer_factory.hpp:77] Creating layer ConvNd_12
I0712 10:36:07.325781 22064 net.cpp:94] Creating Layer ConvNd_12
I0712 10:36:07.325785 22064 net.cpp:435] ConvNd_12 <- ConvNd_8_ConvNd_8_0_split_3
I0712 10:36:07.325790 22064 net.cpp:409] ConvNd_12 -> ConvNd_12
I0712 10:36:07.325942 22064 net.cpp:144] Setting up ConvNd_12
I0712 10:36:07.325949 22064 net.cpp:151] Top shape: 8 12 128 128 (1572864)
I0712 10:36:07.325953 22064 net.cpp:159] Memory required for data: 845152256
I0712 10:36:07.325958 22064 layer_factory.hpp:77] Creating layer Add_5
I0712 10:36:07.325963 22064 net.cpp:94] Creating Layer Add_5
I0712 10:36:07.325966 22064 net.cpp:435] Add_5 <- Add_4_Add_4_0_split_0
I0712 10:36:07.325970 22064 net.cpp:435] Add_5 <- ConvNd_12
I0712 10:36:07.325975 22064 net.cpp:409] Add_5 -> Add_5
I0712 10:36:07.325994 22064 net.cpp:144] Setting up Add_5
I0712 10:36:07.326001 22064 net.cpp:151] Top shape: 8 12 128 128 (1572864)
I0712 10:36:07.326004 22064 net.cpp:159] Memory required for data: 851443712
I0712 10:36:07.326006 22064 layer_factory.hpp:77] Creating layer Add_5_Add_5_0_split
I0712 10:36:07.326011 22064 net.cpp:94] Creating Layer Add_5_Add_5_0_split
I0712 10:36:07.326015 22064 net.cpp:435] Add_5_Add_5_0_split <- Add_5
I0712 10:36:07.326020 22064 net.cpp:409] Add_5_Add_5_0_split -> Add_5_Add_5_0_split_0
I0712 10:36:07.326026 22064 net.cpp:409] Add_5_Add_5_0_split -> Add_5_Add_5_0_split_1
I0712 10:36:07.326054 22064 net.cpp:144] Setting up Add_5_Add_5_0_split
I0712 10:36:07.326061 22064 net.cpp:151] Top shape: 8 12 128 128 (1572864)
I0712 10:36:07.326064 22064 net.cpp:151] Top shape: 8 12 128 128 (1572864)
I0712 10:36:07.326066 22064 net.cpp:159] Memory required for data: 864026624
I0712 10:36:07.326069 22064 layer_factory.hpp:77] Creating layer ConvNd_13
I0712 10:36:07.326076 22064 net.cpp:94] Creating Layer ConvNd_13
I0712 10:36:07.326081 22064 net.cpp:435] ConvNd_13 <- ConvNd_8_ConvNd_8_0_split_4
I0712 10:36:07.326086 22064 net.cpp:409] ConvNd_13 -> ConvNd_13
I0712 10:36:07.326237 22064 net.cpp:144] Setting up ConvNd_13
I0712 10:36:07.326244 22064 net.cpp:151] Top shape: 8 12 128 128 (1572864)
I0712 10:36:07.326247 22064 net.cpp:159] Memory required for data: 870318080
I0712 10:36:07.326251 22064 layer_factory.hpp:77] Creating layer Add_6
I0712 10:36:07.326256 22064 net.cpp:94] Creating Layer Add_6
I0712 10:36:07.326261 22064 net.cpp:435] Add_6 <- Add_5_Add_5_0_split_0
I0712 10:36:07.326265 22064 net.cpp:435] Add_6 <- ConvNd_13
I0712 10:36:07.326269 22064 net.cpp:409] Add_6 -> Add_6
I0712 10:36:07.326288 22064 net.cpp:144] Setting up Add_6
I0712 10:36:07.326294 22064 net.cpp:151] Top shape: 8 12 128 128 (1572864)
I0712 10:36:07.326297 22064 net.cpp:159] Memory required for data: 876609536
I0712 10:36:07.326300 22064 layer_factory.hpp:77] Creating layer Concat_3
I0712 10:36:07.326306 22064 net.cpp:94] Creating Layer Concat_3
I0712 10:36:07.326310 22064 net.cpp:435] Concat_3 <- ConvNd_9
I0712 10:36:07.326314 22064 net.cpp:435] Concat_3 <- ConvNd_10_ConvNd_10_0_split_1
I0712 10:36:07.326318 22064 net.cpp:435] Concat_3 <- Add_4_Add_4_0_split_1
I0712 10:36:07.326323 22064 net.cpp:435] Concat_3 <- Add_5_Add_5_0_split_1
I0712 10:36:07.326326 22064 net.cpp:435] Concat_3 <- Add_6
I0712 10:36:07.326331 22064 net.cpp:409] Concat_3 -> Concat_3
I0712 10:36:07.326351 22064 net.cpp:144] Setting up Concat_3
I0712 10:36:07.326357 22064 net.cpp:151] Top shape: 8 64 128 128 (8388608)
I0712 10:36:07.326361 22064 net.cpp:159] Memory required for data: 910163968
I0712 10:36:07.326364 22064 layer_factory.hpp:77] Creating layer Add_7
I0712 10:36:07.326370 22064 net.cpp:94] Creating Layer Add_7
I0712 10:36:07.326372 22064 net.cpp:435] Add_7 <- BatchNorm_3_Threshold_3_0_split_1
I0712 10:36:07.326385 22064 net.cpp:435] Add_7 <- Concat_3
I0712 10:36:07.326390 22064 net.cpp:409] Add_7 -> Add_7
I0712 10:36:07.326411 22064 net.cpp:144] Setting up Add_7
I0712 10:36:07.326417 22064 net.cpp:151] Top shape: 8 64 128 128 (8388608)
I0712 10:36:07.326421 22064 net.cpp:159] Memory required for data: 943718400
I0712 10:36:07.326424 22064 layer_factory.hpp:77] Creating layer BatchNorm_4
I0712 10:36:07.326431 22064 net.cpp:94] Creating Layer BatchNorm_4
I0712 10:36:07.326434 22064 net.cpp:435] BatchNorm_4 <- Add_7
I0712 10:36:07.326440 22064 net.cpp:409] BatchNorm_4 -> BatchNorm_4
I0712 10:36:07.326910 22064 net.cpp:144] Setting up BatchNorm_4
I0712 10:36:07.326918 22064 net.cpp:151] Top shape: 8 64 128 128 (8388608)
I0712 10:36:07.326921 22064 net.cpp:159] Memory required for data: 977272832
I0712 10:36:07.326934 22064 layer_factory.hpp:77] Creating layer Threshold_4
I0712 10:36:07.326941 22064 net.cpp:94] Creating Layer Threshold_4
I0712 10:36:07.326944 22064 net.cpp:435] Threshold_4 <- BatchNorm_4
I0712 10:36:07.326948 22064 net.cpp:396] Threshold_4 -> BatchNorm_4 (in-place)
I0712 10:36:07.326956 22064 net.cpp:144] Setting up Threshold_4
I0712 10:36:07.326961 22064 net.cpp:151] Top shape: 8 64 128 128 (8388608)
I0712 10:36:07.326963 22064 net.cpp:159] Memory required for data: 1010827264
I0712 10:36:07.326967 22064 layer_factory.hpp:77] Creating layer BatchNorm_4_Threshold_4_0_split
I0712 10:36:07.326972 22064 net.cpp:94] Creating Layer BatchNorm_4_Threshold_4_0_split
I0712 10:36:07.326974 22064 net.cpp:435] BatchNorm_4_Threshold_4_0_split <- BatchNorm_4
I0712 10:36:07.326979 22064 net.cpp:409] BatchNorm_4_Threshold_4_0_split -> BatchNorm_4_Threshold_4_0_split_0
I0712 10:36:07.326985 22064 net.cpp:409] BatchNorm_4_Threshold_4_0_split -> BatchNorm_4_Threshold_4_0_split_1
I0712 10:36:07.327016 22064 net.cpp:144] Setting up BatchNorm_4_Threshold_4_0_split
I0712 10:36:07.327023 22064 net.cpp:151] Top shape: 8 64 128 128 (8388608)
I0712 10:36:07.327026 22064 net.cpp:151] Top shape: 8 64 128 128 (8388608)
I0712 10:36:07.327030 22064 net.cpp:159] Memory required for data: 1077936128
I0712 10:36:07.327033 22064 layer_factory.hpp:77] Creating layer ConvNd_14
I0712 10:36:07.327040 22064 net.cpp:94] Creating Layer ConvNd_14
I0712 10:36:07.327044 22064 net.cpp:435] ConvNd_14 <- BatchNorm_4_Threshold_4_0_split_0
I0712 10:36:07.327049 22064 net.cpp:409] ConvNd_14 -> ConvNd_14
I0712 10:36:07.327212 22064 net.cpp:144] Setting up ConvNd_14
I0712 10:36:07.327220 22064 net.cpp:151] Top shape: 8 12 128 128 (1572864)
I0712 10:36:07.327224 22064 net.cpp:159] Memory required for data: 1084227584
I0712 10:36:07.327229 22064 layer_factory.hpp:77] Creating layer ConvNd_14_ConvNd_14_0_split
I0712 10:36:07.327235 22064 net.cpp:94] Creating Layer ConvNd_14_ConvNd_14_0_split
I0712 10:36:07.327239 22064 net.cpp:435] ConvNd_14_ConvNd_14_0_split <- ConvNd_14
I0712 10:36:07.327244 22064 net.cpp:409] ConvNd_14_ConvNd_14_0_split -> ConvNd_14_ConvNd_14_0_split_0
I0712 10:36:07.327251 22064 net.cpp:409] ConvNd_14_ConvNd_14_0_split -> ConvNd_14_ConvNd_14_0_split_1
I0712 10:36:07.327258 22064 net.cpp:409] ConvNd_14_ConvNd_14_0_split -> ConvNd_14_ConvNd_14_0_split_2
I0712 10:36:07.327263 22064 net.cpp:409] ConvNd_14_ConvNd_14_0_split -> ConvNd_14_ConvNd_14_0_split_3
I0712 10:36:07.327270 22064 net.cpp:409] ConvNd_14_ConvNd_14_0_split -> ConvNd_14_ConvNd_14_0_split_4
I0712 10:36:07.327328 22064 net.cpp:144] Setting up ConvNd_14_ConvNd_14_0_split
I0712 10:36:07.327334 22064 net.cpp:151] Top shape: 8 12 128 128 (1572864)
I0712 10:36:07.327338 22064 net.cpp:151] Top shape: 8 12 128 128 (1572864)
I0712 10:36:07.327342 22064 net.cpp:151] Top shape: 8 12 128 128 (1572864)
I0712 10:36:07.327345 22064 net.cpp:151] Top shape: 8 12 128 128 (1572864)
I0712 10:36:07.327349 22064 net.cpp:151] Top shape: 8 12 128 128 (1572864)
I0712 10:36:07.327353 22064 net.cpp:159] Memory required for data: 1115684864
I0712 10:36:07.327355 22064 layer_factory.hpp:77] Creating layer ConvNd_15
I0712 10:36:07.327363 22064 net.cpp:94] Creating Layer ConvNd_15
I0712 10:36:07.327375 22064 net.cpp:435] ConvNd_15 <- ConvNd_14_ConvNd_14_0_split_0
I0712 10:36:07.327381 22064 net.cpp:409] ConvNd_15 -> ConvNd_15
I0712 10:36:07.327543 22064 net.cpp:144] Setting up ConvNd_15
I0712 10:36:07.327549 22064 net.cpp:151] Top shape: 8 16 128 128 (2097152)
I0712 10:36:07.327553 22064 net.cpp:159] Memory required for data: 1124073472
I0712 10:36:07.327558 22064 layer_factory.hpp:77] Creating layer ConvNd_16
I0712 10:36:07.327564 22064 net.cpp:94] Creating Layer ConvNd_16
I0712 10:36:07.327569 22064 net.cpp:435] ConvNd_16 <- ConvNd_14_ConvNd_14_0_split_1
I0712 10:36:07.327574 22064 net.cpp:409] ConvNd_16 -> ConvNd_16
I0712 10:36:07.327728 22064 net.cpp:144] Setting up ConvNd_16
I0712 10:36:07.327735 22064 net.cpp:151] Top shape: 8 12 128 128 (1572864)
I0712 10:36:07.327739 22064 net.cpp:159] Memory required for data: 1130364928
I0712 10:36:07.327744 22064 layer_factory.hpp:77] Creating layer ConvNd_16_ConvNd_16_0_split
I0712 10:36:07.327749 22064 net.cpp:94] Creating Layer ConvNd_16_ConvNd_16_0_split
I0712 10:36:07.327752 22064 net.cpp:435] ConvNd_16_ConvNd_16_0_split <- ConvNd_16
I0712 10:36:07.327764 22064 net.cpp:409] ConvNd_16_ConvNd_16_0_split -> ConvNd_16_ConvNd_16_0_split_0
I0712 10:36:07.327770 22064 net.cpp:409] ConvNd_16_ConvNd_16_0_split -> ConvNd_16_ConvNd_16_0_split_1
I0712 10:36:07.327800 22064 net.cpp:144] Setting up ConvNd_16_ConvNd_16_0_split
I0712 10:36:07.327806 22064 net.cpp:151] Top shape: 8 12 128 128 (1572864)
I0712 10:36:07.327811 22064 net.cpp:151] Top shape: 8 12 128 128 (1572864)
I0712 10:36:07.327814 22064 net.cpp:159] Memory required for data: 1142947840
I0712 10:36:07.327817 22064 layer_factory.hpp:77] Creating layer ConvNd_17
I0712 10:36:07.327824 22064 net.cpp:94] Creating Layer ConvNd_17
I0712 10:36:07.327827 22064 net.cpp:435] ConvNd_17 <- ConvNd_14_ConvNd_14_0_split_2
I0712 10:36:07.327833 22064 net.cpp:409] ConvNd_17 -> ConvNd_17
I0712 10:36:07.327986 22064 net.cpp:144] Setting up ConvNd_17
I0712 10:36:07.327992 22064 net.cpp:151] Top shape: 8 12 128 128 (1572864)
I0712 10:36:07.327996 22064 net.cpp:159] Memory required for data: 1149239296
I0712 10:36:07.328001 22064 layer_factory.hpp:77] Creating layer Add_8
I0712 10:36:07.328006 22064 net.cpp:94] Creating Layer Add_8
I0712 10:36:07.328008 22064 net.cpp:435] Add_8 <- ConvNd_16_ConvNd_16_0_split_0
I0712 10:36:07.328013 22064 net.cpp:435] Add_8 <- ConvNd_17
I0712 10:36:07.328019 22064 net.cpp:409] Add_8 -> Add_8
I0712 10:36:07.328038 22064 net.cpp:144] Setting up Add_8
I0712 10:36:07.328044 22064 net.cpp:151] Top shape: 8 12 128 128 (1572864)
I0712 10:36:07.328047 22064 net.cpp:159] Memory required for data: 1155530752
I0712 10:36:07.328052 22064 layer_factory.hpp:77] Creating layer Add_8_Add_8_0_split
I0712 10:36:07.328055 22064 net.cpp:94] Creating Layer Add_8_Add_8_0_split
I0712 10:36:07.328059 22064 net.cpp:435] Add_8_Add_8_0_split <- Add_8
I0712 10:36:07.328063 22064 net.cpp:409] Add_8_Add_8_0_split -> Add_8_Add_8_0_split_0
I0712 10:36:07.328070 22064 net.cpp:409] Add_8_Add_8_0_split -> Add_8_Add_8_0_split_1
I0712 10:36:07.328097 22064 net.cpp:144] Setting up Add_8_Add_8_0_split
I0712 10:36:07.328104 22064 net.cpp:151] Top shape: 8 12 128 128 (1572864)
I0712 10:36:07.328107 22064 net.cpp:151] Top shape: 8 12 128 128 (1572864)
I0712 10:36:07.328111 22064 net.cpp:159] Memory required for data: 1168113664
I0712 10:36:07.328114 22064 layer_factory.hpp:77] Creating layer ConvNd_18
I0712 10:36:07.328120 22064 net.cpp:94] Creating Layer ConvNd_18
I0712 10:36:07.328131 22064 net.cpp:435] ConvNd_18 <- ConvNd_14_ConvNd_14_0_split_3
I0712 10:36:07.328137 22064 net.cpp:409] ConvNd_18 -> ConvNd_18
I0712 10:36:07.328291 22064 net.cpp:144] Setting up ConvNd_18
I0712 10:36:07.328297 22064 net.cpp:151] Top shape: 8 12 128 128 (1572864)
I0712 10:36:07.328300 22064 net.cpp:159] Memory required for data: 1174405120
I0712 10:36:07.328305 22064 layer_factory.hpp:77] Creating layer Add_9
I0712 10:36:07.328310 22064 net.cpp:94] Creating Layer Add_9
I0712 10:36:07.328313 22064 net.cpp:435] Add_9 <- Add_8_Add_8_0_split_0
I0712 10:36:07.328326 22064 net.cpp:435] Add_9 <- ConvNd_18
I0712 10:36:07.328332 22064 net.cpp:409] Add_9 -> Add_9
I0712 10:36:07.328353 22064 net.cpp:144] Setting up Add_9
I0712 10:36:07.328359 22064 net.cpp:151] Top shape: 8 12 128 128 (1572864)
I0712 10:36:07.328362 22064 net.cpp:159] Memory required for data: 1180696576
I0712 10:36:07.328366 22064 layer_factory.hpp:77] Creating layer Add_9_Add_9_0_split
I0712 10:36:07.328372 22064 net.cpp:94] Creating Layer Add_9_Add_9_0_split
I0712 10:36:07.328374 22064 net.cpp:435] Add_9_Add_9_0_split <- Add_9
I0712 10:36:07.328379 22064 net.cpp:409] Add_9_Add_9_0_split -> Add_9_Add_9_0_split_0
I0712 10:36:07.328385 22064 net.cpp:409] Add_9_Add_9_0_split -> Add_9_Add_9_0_split_1
I0712 10:36:07.328414 22064 net.cpp:144] Setting up Add_9_Add_9_0_split
I0712 10:36:07.328419 22064 net.cpp:151] Top shape: 8 12 128 128 (1572864)
I0712 10:36:07.328423 22064 net.cpp:151] Top shape: 8 12 128 128 (1572864)
I0712 10:36:07.328428 22064 net.cpp:159] Memory required for data: 1193279488
I0712 10:36:07.328430 22064 layer_factory.hpp:77] Creating layer ConvNd_19
I0712 10:36:07.328436 22064 net.cpp:94] Creating Layer ConvNd_19
I0712 10:36:07.328440 22064 net.cpp:435] ConvNd_19 <- ConvNd_14_ConvNd_14_0_split_4
I0712 10:36:07.328446 22064 net.cpp:409] ConvNd_19 -> ConvNd_19
I0712 10:36:07.328599 22064 net.cpp:144] Setting up ConvNd_19
I0712 10:36:07.328606 22064 net.cpp:151] Top shape: 8 12 128 128 (1572864)
I0712 10:36:07.328609 22064 net.cpp:159] Memory required for data: 1199570944
I0712 10:36:07.328614 22064 layer_factory.hpp:77] Creating layer Add_10
I0712 10:36:07.328619 22064 net.cpp:94] Creating Layer Add_10
I0712 10:36:07.328622 22064 net.cpp:435] Add_10 <- Add_9_Add_9_0_split_0
I0712 10:36:07.328626 22064 net.cpp:435] Add_10 <- ConvNd_19
I0712 10:36:07.328631 22064 net.cpp:409] Add_10 -> Add_10
I0712 10:36:07.328650 22064 net.cpp:144] Setting up Add_10
I0712 10:36:07.328656 22064 net.cpp:151] Top shape: 8 12 128 128 (1572864)
I0712 10:36:07.328658 22064 net.cpp:159] Memory required for data: 1205862400
I0712 10:36:07.328662 22064 layer_factory.hpp:77] Creating layer Concat_4
I0712 10:36:07.328668 22064 net.cpp:94] Creating Layer Concat_4
I0712 10:36:07.328677 22064 net.cpp:435] Concat_4 <- ConvNd_15
I0712 10:36:07.328681 22064 net.cpp:435] Concat_4 <- ConvNd_16_ConvNd_16_0_split_1
I0712 10:36:07.328686 22064 net.cpp:435] Concat_4 <- Add_8_Add_8_0_split_1
I0712 10:36:07.328691 22064 net.cpp:435] Concat_4 <- Add_9_Add_9_0_split_1
I0712 10:36:07.328693 22064 net.cpp:435] Concat_4 <- Add_10
I0712 10:36:07.328698 22064 net.cpp:409] Concat_4 -> Concat_4
I0712 10:36:07.328719 22064 net.cpp:144] Setting up Concat_4
I0712 10:36:07.328727 22064 net.cpp:151] Top shape: 8 64 128 128 (8388608)
I0712 10:36:07.328729 22064 net.cpp:159] Memory required for data: 1239416832
I0712 10:36:07.328732 22064 layer_factory.hpp:77] Creating layer Add_11
I0712 10:36:07.328737 22064 net.cpp:94] Creating Layer Add_11
I0712 10:36:07.328740 22064 net.cpp:435] Add_11 <- BatchNorm_4_Threshold_4_0_split_1
I0712 10:36:07.328744 22064 net.cpp:435] Add_11 <- Concat_4
I0712 10:36:07.328749 22064 net.cpp:409] Add_11 -> Add_11
I0712 10:36:07.328768 22064 net.cpp:144] Setting up Add_11
I0712 10:36:07.328774 22064 net.cpp:151] Top shape: 8 64 128 128 (8388608)
I0712 10:36:07.328778 22064 net.cpp:159] Memory required for data: 1272971264
I0712 10:36:07.328780 22064 layer_factory.hpp:77] Creating layer BatchNorm_5
I0712 10:36:07.328788 22064 net.cpp:94] Creating Layer BatchNorm_5
I0712 10:36:07.328790 22064 net.cpp:435] BatchNorm_5 <- Add_11
I0712 10:36:07.328795 22064 net.cpp:409] BatchNorm_5 -> BatchNorm_5
I0712 10:36:07.329272 22064 net.cpp:144] Setting up BatchNorm_5
I0712 10:36:07.329282 22064 net.cpp:151] Top shape: 8 64 128 128 (8388608)
I0712 10:36:07.329285 22064 net.cpp:159] Memory required for data: 1306525696
I0712 10:36:07.329294 22064 layer_factory.hpp:77] Creating layer Threshold_5
I0712 10:36:07.329300 22064 net.cpp:94] Creating Layer Threshold_5
I0712 10:36:07.329304 22064 net.cpp:435] Threshold_5 <- BatchNorm_5
I0712 10:36:07.329320 22064 net.cpp:396] Threshold_5 -> BatchNorm_5 (in-place)
I0712 10:36:07.329327 22064 net.cpp:144] Setting up Threshold_5
I0712 10:36:07.329332 22064 net.cpp:151] Top shape: 8 64 128 128 (8388608)
I0712 10:36:07.329335 22064 net.cpp:159] Memory required for data: 1340080128
I0712 10:36:07.329339 22064 layer_factory.hpp:77] Creating layer AvgPool2d_2
I0712 10:36:07.329344 22064 net.cpp:94] Creating Layer AvgPool2d_2
I0712 10:36:07.329347 22064 net.cpp:435] AvgPool2d_2 <- data_data_0_split_2
I0712 10:36:07.329352 22064 net.cpp:409] AvgPool2d_2 -> AvgPool2d_2
I0712 10:36:07.329376 22064 net.cpp:144] Setting up AvgPool2d_2
I0712 10:36:07.329382 22064 net.cpp:151] Top shape: 8 3 256 256 (1572864)
I0712 10:36:07.329385 22064 net.cpp:159] Memory required for data: 1346371584
I0712 10:36:07.329389 22064 layer_factory.hpp:77] Creating layer AvgPool2d_3
I0712 10:36:07.329396 22064 net.cpp:94] Creating Layer AvgPool2d_3
I0712 10:36:07.329399 22064 net.cpp:435] AvgPool2d_3 <- AvgPool2d_2
I0712 10:36:07.329403 22064 net.cpp:409] AvgPool2d_3 -> AvgPool2d_3
I0712 10:36:07.329422 22064 net.cpp:144] Setting up AvgPool2d_3
I0712 10:36:07.329428 22064 net.cpp:151] Top shape: 8 3 128 128 (393216)
I0712 10:36:07.329432 22064 net.cpp:159] Memory required for data: 1347944448
I0712 10:36:07.329435 22064 layer_factory.hpp:77] Creating layer Concat_5
I0712 10:36:07.329440 22064 net.cpp:94] Creating Layer Concat_5
I0712 10:36:07.329444 22064 net.cpp:435] Concat_5 <- BatchNorm_5
I0712 10:36:07.329447 22064 net.cpp:435] Concat_5 <- BatchNorm_3_Threshold_3_0_split_2
I0712 10:36:07.329452 22064 net.cpp:435] Concat_5 <- AvgPool2d_3
I0712 10:36:07.329457 22064 net.cpp:409] Concat_5 -> Concat_5
I0712 10:36:07.329476 22064 net.cpp:144] Setting up Concat_5
I0712 10:36:07.329483 22064 net.cpp:151] Top shape: 8 131 128 128 (17170432)
I0712 10:36:07.329485 22064 net.cpp:159] Memory required for data: 1416626176
I0712 10:36:07.329489 22064 layer_factory.hpp:77] Creating layer BatchNorm_6
I0712 10:36:07.329495 22064 net.cpp:94] Creating Layer BatchNorm_6
I0712 10:36:07.329499 22064 net.cpp:435] BatchNorm_6 <- Concat_5
I0712 10:36:07.329504 22064 net.cpp:409] BatchNorm_6 -> BatchNorm_6
I0712 10:36:07.329972 22064 net.cpp:144] Setting up BatchNorm_6
I0712 10:36:07.329980 22064 net.cpp:151] Top shape: 8 131 128 128 (17170432)
I0712 10:36:07.329983 22064 net.cpp:159] Memory required for data: 1485307904
I0712 10:36:07.329993 22064 layer_factory.hpp:77] Creating layer Threshold_6
I0712 10:36:07.329998 22064 net.cpp:94] Creating Layer Threshold_6
I0712 10:36:07.330001 22064 net.cpp:435] Threshold_6 <- BatchNorm_6
I0712 10:36:07.330006 22064 net.cpp:396] Threshold_6 -> BatchNorm_6 (in-place)
I0712 10:36:07.330013 22064 net.cpp:144] Setting up Threshold_6
I0712 10:36:07.330018 22064 net.cpp:151] Top shape: 8 131 128 128 (17170432)
I0712 10:36:07.330020 22064 net.cpp:159] Memory required for data: 1553989632
I0712 10:36:07.330024 22064 layer_factory.hpp:77] Creating layer BatchNorm_6_Threshold_6_0_split
I0712 10:36:07.330029 22064 net.cpp:94] Creating Layer BatchNorm_6_Threshold_6_0_split
I0712 10:36:07.330031 22064 net.cpp:435] BatchNorm_6_Threshold_6_0_split <- BatchNorm_6
I0712 10:36:07.330036 22064 net.cpp:409] BatchNorm_6_Threshold_6_0_split -> BatchNorm_6_Threshold_6_0_split_0
I0712 10:36:07.330042 22064 net.cpp:409] BatchNorm_6_Threshold_6_0_split -> BatchNorm_6_Threshold_6_0_split_1
I0712 10:36:07.330073 22064 net.cpp:144] Setting up BatchNorm_6_Threshold_6_0_split
I0712 10:36:07.330080 22064 net.cpp:151] Top shape: 8 131 128 128 (17170432)
I0712 10:36:07.330083 22064 net.cpp:151] Top shape: 8 131 128 128 (17170432)
I0712 10:36:07.330086 22064 net.cpp:159] Memory required for data: 1691353088
I0712 10:36:07.330090 22064 layer_factory.hpp:77] Creating layer ConvNd_20
I0712 10:36:07.330097 22064 net.cpp:94] Creating Layer ConvNd_20
I0712 10:36:07.330101 22064 net.cpp:435] ConvNd_20 <- BatchNorm_6_Threshold_6_0_split_0
I0712 10:36:07.330106 22064 net.cpp:409] ConvNd_20 -> ConvNd_20
I0712 10:36:07.330307 22064 net.cpp:144] Setting up ConvNd_20
I0712 10:36:07.330324 22064 net.cpp:151] Top shape: 8 19 128 128 (2490368)
I0712 10:36:07.330327 22064 net.cpp:159] Memory required for data: 1701314560
I0712 10:36:07.330332 22064 layer_factory.hpp:77] Creating layer ConvNd_21
I0712 10:36:07.330339 22064 net.cpp:94] Creating Layer ConvNd_21
I0712 10:36:07.330343 22064 net.cpp:435] ConvNd_21 <- BatchNorm_6_Threshold_6_0_split_1
I0712 10:36:07.330349 22064 net.cpp:409] ConvNd_21 -> ConvNd_21
I0712 10:36:07.330528 22064 net.cpp:144] Setting up ConvNd_21
I0712 10:36:07.330535 22064 net.cpp:151] Top shape: 8 25 64 64 (819200)
I0712 10:36:07.330538 22064 net.cpp:159] Memory required for data: 1704591360
I0712 10:36:07.330543 22064 layer_factory.hpp:77] Creating layer ConvNd_21_ConvNd_21_0_split
I0712 10:36:07.330549 22064 net.cpp:94] Creating Layer ConvNd_21_ConvNd_21_0_split
I0712 10:36:07.330552 22064 net.cpp:435] ConvNd_21_ConvNd_21_0_split <- ConvNd_21
I0712 10:36:07.330559 22064 net.cpp:409] ConvNd_21_ConvNd_21_0_split -> ConvNd_21_ConvNd_21_0_split_0
I0712 10:36:07.330565 22064 net.cpp:409] ConvNd_21_ConvNd_21_0_split -> ConvNd_21_ConvNd_21_0_split_1
I0712 10:36:07.330571 22064 net.cpp:409] ConvNd_21_ConvNd_21_0_split -> ConvNd_21_ConvNd_21_0_split_2
I0712 10:36:07.330577 22064 net.cpp:409] ConvNd_21_ConvNd_21_0_split -> ConvNd_21_ConvNd_21_0_split_3
I0712 10:36:07.330586 22064 net.cpp:409] ConvNd_21_ConvNd_21_0_split -> ConvNd_21_ConvNd_21_0_split_4
I0712 10:36:07.330646 22064 net.cpp:144] Setting up ConvNd_21_ConvNd_21_0_split
I0712 10:36:07.330652 22064 net.cpp:151] Top shape: 8 25 64 64 (819200)
I0712 10:36:07.330657 22064 net.cpp:151] Top shape: 8 25 64 64 (819200)
I0712 10:36:07.330660 22064 net.cpp:151] Top shape: 8 25 64 64 (819200)
I0712 10:36:07.330664 22064 net.cpp:151] Top shape: 8 25 64 64 (819200)
I0712 10:36:07.330667 22064 net.cpp:151] Top shape: 8 25 64 64 (819200)
I0712 10:36:07.330670 22064 net.cpp:159] Memory required for data: 1720975360
I0712 10:36:07.330673 22064 layer_factory.hpp:77] Creating layer ConvNd_22
I0712 10:36:07.330680 22064 net.cpp:94] Creating Layer ConvNd_22
I0712 10:36:07.330683 22064 net.cpp:435] ConvNd_22 <- ConvNd_21_ConvNd_21_0_split_0
I0712 10:36:07.330688 22064 net.cpp:409] ConvNd_22 -> ConvNd_22
I0712 10:36:07.330847 22064 net.cpp:144] Setting up ConvNd_22
I0712 10:36:07.330857 22064 net.cpp:151] Top shape: 8 28 64 64 (917504)
I0712 10:36:07.330859 22064 net.cpp:159] Memory required for data: 1724645376
I0712 10:36:07.330863 22064 layer_factory.hpp:77] Creating layer ConvNd_23
I0712 10:36:07.330870 22064 net.cpp:94] Creating Layer ConvNd_23
I0712 10:36:07.330873 22064 net.cpp:435] ConvNd_23 <- ConvNd_21_ConvNd_21_0_split_1
I0712 10:36:07.330879 22064 net.cpp:409] ConvNd_23 -> ConvNd_23
I0712 10:36:07.331037 22064 net.cpp:144] Setting up ConvNd_23
I0712 10:36:07.331045 22064 net.cpp:151] Top shape: 8 25 64 64 (819200)
I0712 10:36:07.331048 22064 net.cpp:159] Memory required for data: 1727922176
I0712 10:36:07.331053 22064 layer_factory.hpp:77] Creating layer ConvNd_23_ConvNd_23_0_split
I0712 10:36:07.331058 22064 net.cpp:94] Creating Layer ConvNd_23_ConvNd_23_0_split
I0712 10:36:07.331063 22064 net.cpp:435] ConvNd_23_ConvNd_23_0_split <- ConvNd_23
I0712 10:36:07.331066 22064 net.cpp:409] ConvNd_23_ConvNd_23_0_split -> ConvNd_23_ConvNd_23_0_split_0
I0712 10:36:07.331073 22064 net.cpp:409] ConvNd_23_ConvNd_23_0_split -> ConvNd_23_ConvNd_23_0_split_1
I0712 10:36:07.331104 22064 net.cpp:144] Setting up ConvNd_23_ConvNd_23_0_split
I0712 10:36:07.331110 22064 net.cpp:151] Top shape: 8 25 64 64 (819200)
I0712 10:36:07.331115 22064 net.cpp:151] Top shape: 8 25 64 64 (819200)
I0712 10:36:07.331117 22064 net.cpp:159] Memory required for data: 1734475776
I0712 10:36:07.331120 22064 layer_factory.hpp:77] Creating layer ConvNd_24
I0712 10:36:07.331127 22064 net.cpp:94] Creating Layer ConvNd_24
I0712 10:36:07.331130 22064 net.cpp:435] ConvNd_24 <- ConvNd_21_ConvNd_21_0_split_2
I0712 10:36:07.331136 22064 net.cpp:409] ConvNd_24 -> ConvNd_24
I0712 10:36:07.331292 22064 net.cpp:144] Setting up ConvNd_24
I0712 10:36:07.331300 22064 net.cpp:151] Top shape: 8 25 64 64 (819200)
I0712 10:36:07.331310 22064 net.cpp:159] Memory required for data: 1737752576
I0712 10:36:07.331315 22064 layer_factory.hpp:77] Creating layer Add_12
I0712 10:36:07.331321 22064 net.cpp:94] Creating Layer Add_12
I0712 10:36:07.331326 22064 net.cpp:435] Add_12 <- ConvNd_23_ConvNd_23_0_split_0
I0712 10:36:07.331329 22064 net.cpp:435] Add_12 <- ConvNd_24
I0712 10:36:07.331334 22064 net.cpp:409] Add_12 -> Add_12
I0712 10:36:07.331355 22064 net.cpp:144] Setting up Add_12
I0712 10:36:07.331363 22064 net.cpp:151] Top shape: 8 25 64 64 (819200)
I0712 10:36:07.331367 22064 net.cpp:159] Memory required for data: 1741029376
I0712 10:36:07.331369 22064 layer_factory.hpp:77] Creating layer Add_12_Add_12_0_split
I0712 10:36:07.331374 22064 net.cpp:94] Creating Layer Add_12_Add_12_0_split
I0712 10:36:07.331378 22064 net.cpp:435] Add_12_Add_12_0_split <- Add_12
I0712 10:36:07.331382 22064 net.cpp:409] Add_12_Add_12_0_split -> Add_12_Add_12_0_split_0
I0712 10:36:07.331388 22064 net.cpp:409] Add_12_Add_12_0_split -> Add_12_Add_12_0_split_1
I0712 10:36:07.331418 22064 net.cpp:144] Setting up Add_12_Add_12_0_split
I0712 10:36:07.331425 22064 net.cpp:151] Top shape: 8 25 64 64 (819200)
I0712 10:36:07.331429 22064 net.cpp:151] Top shape: 8 25 64 64 (819200)
I0712 10:36:07.331431 22064 net.cpp:159] Memory required for data: 1747582976
I0712 10:36:07.331435 22064 layer_factory.hpp:77] Creating layer ConvNd_25
I0712 10:36:07.331442 22064 net.cpp:94] Creating Layer ConvNd_25
I0712 10:36:07.331445 22064 net.cpp:435] ConvNd_25 <- ConvNd_21_ConvNd_21_0_split_3
I0712 10:36:07.331450 22064 net.cpp:409] ConvNd_25 -> ConvNd_25
I0712 10:36:07.331607 22064 net.cpp:144] Setting up ConvNd_25
I0712 10:36:07.331615 22064 net.cpp:151] Top shape: 8 25 64 64 (819200)
I0712 10:36:07.331619 22064 net.cpp:159] Memory required for data: 1750859776
I0712 10:36:07.331622 22064 layer_factory.hpp:77] Creating layer Add_13
I0712 10:36:07.331627 22064 net.cpp:94] Creating Layer Add_13
I0712 10:36:07.331631 22064 net.cpp:435] Add_13 <- Add_12_Add_12_0_split_0
I0712 10:36:07.331635 22064 net.cpp:435] Add_13 <- ConvNd_25
I0712 10:36:07.331640 22064 net.cpp:409] Add_13 -> Add_13
I0712 10:36:07.331660 22064 net.cpp:144] Setting up Add_13
I0712 10:36:07.331666 22064 net.cpp:151] Top shape: 8 25 64 64 (819200)
I0712 10:36:07.331670 22064 net.cpp:159] Memory required for data: 1754136576
I0712 10:36:07.331672 22064 layer_factory.hpp:77] Creating layer Add_13_Add_13_0_split
I0712 10:36:07.331677 22064 net.cpp:94] Creating Layer Add_13_Add_13_0_split
I0712 10:36:07.331681 22064 net.cpp:435] Add_13_Add_13_0_split <- Add_13
I0712 10:36:07.331686 22064 net.cpp:409] Add_13_Add_13_0_split -> Add_13_Add_13_0_split_0
I0712 10:36:07.331691 22064 net.cpp:409] Add_13_Add_13_0_split -> Add_13_Add_13_0_split_1
I0712 10:36:07.331722 22064 net.cpp:144] Setting up Add_13_Add_13_0_split
I0712 10:36:07.331728 22064 net.cpp:151] Top shape: 8 25 64 64 (819200)
I0712 10:36:07.331732 22064 net.cpp:151] Top shape: 8 25 64 64 (819200)
I0712 10:36:07.331734 22064 net.cpp:159] Memory required for data: 1760690176
I0712 10:36:07.331737 22064 layer_factory.hpp:77] Creating layer ConvNd_26
I0712 10:36:07.331744 22064 net.cpp:94] Creating Layer ConvNd_26
I0712 10:36:07.331748 22064 net.cpp:435] ConvNd_26 <- ConvNd_21_ConvNd_21_0_split_4
I0712 10:36:07.331753 22064 net.cpp:409] ConvNd_26 -> ConvNd_26
I0712 10:36:07.331918 22064 net.cpp:144] Setting up ConvNd_26
I0712 10:36:07.331925 22064 net.cpp:151] Top shape: 8 25 64 64 (819200)
I0712 10:36:07.331928 22064 net.cpp:159] Memory required for data: 1763966976
I0712 10:36:07.331933 22064 layer_factory.hpp:77] Creating layer Add_14
I0712 10:36:07.331938 22064 net.cpp:94] Creating Layer Add_14
I0712 10:36:07.331943 22064 net.cpp:435] Add_14 <- Add_13_Add_13_0_split_0
I0712 10:36:07.331946 22064 net.cpp:435] Add_14 <- ConvNd_26
I0712 10:36:07.331950 22064 net.cpp:409] Add_14 -> Add_14
I0712 10:36:07.331969 22064 net.cpp:144] Setting up Add_14
I0712 10:36:07.331976 22064 net.cpp:151] Top shape: 8 25 64 64 (819200)
I0712 10:36:07.331987 22064 net.cpp:159] Memory required for data: 1767243776
I0712 10:36:07.331995 22064 layer_factory.hpp:77] Creating layer Concat_6
I0712 10:36:07.332000 22064 net.cpp:94] Creating Layer Concat_6
I0712 10:36:07.332005 22064 net.cpp:435] Concat_6 <- ConvNd_22
I0712 10:36:07.332008 22064 net.cpp:435] Concat_6 <- ConvNd_23_ConvNd_23_0_split_1
I0712 10:36:07.332012 22064 net.cpp:435] Concat_6 <- Add_12_Add_12_0_split_1
I0712 10:36:07.332016 22064 net.cpp:435] Concat_6 <- Add_13_Add_13_0_split_1
I0712 10:36:07.332020 22064 net.cpp:435] Concat_6 <- Add_14
I0712 10:36:07.332026 22064 net.cpp:409] Concat_6 -> Concat_6
I0712 10:36:07.332048 22064 net.cpp:144] Setting up Concat_6
I0712 10:36:07.332054 22064 net.cpp:151] Top shape: 8 128 64 64 (4194304)
I0712 10:36:07.332058 22064 net.cpp:159] Memory required for data: 1784020992
I0712 10:36:07.332062 22064 layer_factory.hpp:77] Creating layer BatchNorm_7
I0712 10:36:07.332067 22064 net.cpp:94] Creating Layer BatchNorm_7
I0712 10:36:07.332072 22064 net.cpp:435] BatchNorm_7 <- Concat_6
I0712 10:36:07.332077 22064 net.cpp:409] BatchNorm_7 -> BatchNorm_7
I0712 10:36:07.332515 22064 net.cpp:144] Setting up BatchNorm_7
I0712 10:36:07.332523 22064 net.cpp:151] Top shape: 8 128 64 64 (4194304)
I0712 10:36:07.332526 22064 net.cpp:159] Memory required for data: 1800798208
I0712 10:36:07.332536 22064 layer_factory.hpp:77] Creating layer Threshold_7
I0712 10:36:07.332541 22064 net.cpp:94] Creating Layer Threshold_7
I0712 10:36:07.332545 22064 net.cpp:435] Threshold_7 <- BatchNorm_7
I0712 10:36:07.332549 22064 net.cpp:396] Threshold_7 -> BatchNorm_7 (in-place)
I0712 10:36:07.332557 22064 net.cpp:144] Setting up Threshold_7
I0712 10:36:07.332561 22064 net.cpp:151] Top shape: 8 128 64 64 (4194304)
I0712 10:36:07.332563 22064 net.cpp:159] Memory required for data: 1817575424
I0712 10:36:07.332566 22064 layer_factory.hpp:77] Creating layer BatchNorm_7_Threshold_7_0_split
I0712 10:36:07.332572 22064 net.cpp:94] Creating Layer BatchNorm_7_Threshold_7_0_split
I0712 10:36:07.332576 22064 net.cpp:435] BatchNorm_7_Threshold_7_0_split <- BatchNorm_7
I0712 10:36:07.332581 22064 net.cpp:409] BatchNorm_7_Threshold_7_0_split -> BatchNorm_7_Threshold_7_0_split_0
I0712 10:36:07.332587 22064 net.cpp:409] BatchNorm_7_Threshold_7_0_split -> BatchNorm_7_Threshold_7_0_split_1
I0712 10:36:07.332592 22064 net.cpp:409] BatchNorm_7_Threshold_7_0_split -> BatchNorm_7_Threshold_7_0_split_2
I0712 10:36:07.332633 22064 net.cpp:144] Setting up BatchNorm_7_Threshold_7_0_split
I0712 10:36:07.332639 22064 net.cpp:151] Top shape: 8 128 64 64 (4194304)
I0712 10:36:07.332643 22064 net.cpp:151] Top shape: 8 128 64 64 (4194304)
I0712 10:36:07.332648 22064 net.cpp:151] Top shape: 8 128 64 64 (4194304)
I0712 10:36:07.332650 22064 net.cpp:159] Memory required for data: 1867907072
I0712 10:36:07.332653 22064 layer_factory.hpp:77] Creating layer ConvNd_27
I0712 10:36:07.332659 22064 net.cpp:94] Creating Layer ConvNd_27
I0712 10:36:07.332664 22064 net.cpp:435] ConvNd_27 <- BatchNorm_7_Threshold_7_0_split_0
I0712 10:36:07.332669 22064 net.cpp:409] ConvNd_27 -> ConvNd_27
I0712 10:36:07.332834 22064 net.cpp:144] Setting up ConvNd_27
I0712 10:36:07.332841 22064 net.cpp:151] Top shape: 8 25 64 64 (819200)
I0712 10:36:07.332845 22064 net.cpp:159] Memory required for data: 1871183872
I0712 10:36:07.332849 22064 layer_factory.hpp:77] Creating layer ConvNd_27_ConvNd_27_0_split
I0712 10:36:07.332855 22064 net.cpp:94] Creating Layer ConvNd_27_ConvNd_27_0_split
I0712 10:36:07.332859 22064 net.cpp:435] ConvNd_27_ConvNd_27_0_split <- ConvNd_27
I0712 10:36:07.332864 22064 net.cpp:409] ConvNd_27_ConvNd_27_0_split -> ConvNd_27_ConvNd_27_0_split_0
I0712 10:36:07.332871 22064 net.cpp:409] ConvNd_27_ConvNd_27_0_split -> ConvNd_27_ConvNd_27_0_split_1
I0712 10:36:07.332877 22064 net.cpp:409] ConvNd_27_ConvNd_27_0_split -> ConvNd_27_ConvNd_27_0_split_2
I0712 10:36:07.332883 22064 net.cpp:409] ConvNd_27_ConvNd_27_0_split -> ConvNd_27_ConvNd_27_0_split_3
I0712 10:36:07.332890 22064 net.cpp:409] ConvNd_27_ConvNd_27_0_split -> ConvNd_27_ConvNd_27_0_split_4
I0712 10:36:07.332967 22064 net.cpp:144] Setting up ConvNd_27_ConvNd_27_0_split
I0712 10:36:07.332973 22064 net.cpp:151] Top shape: 8 25 64 64 (819200)
I0712 10:36:07.332978 22064 net.cpp:151] Top shape: 8 25 64 64 (819200)
I0712 10:36:07.332983 22064 net.cpp:151] Top shape: 8 25 64 64 (819200)
I0712 10:36:07.332985 22064 net.cpp:151] Top shape: 8 25 64 64 (819200)
I0712 10:36:07.332989 22064 net.cpp:151] Top shape: 8 25 64 64 (819200)
I0712 10:36:07.332991 22064 net.cpp:159] Memory required for data: 1887567872
I0712 10:36:07.332995 22064 layer_factory.hpp:77] Creating layer ConvNd_28
I0712 10:36:07.333003 22064 net.cpp:94] Creating Layer ConvNd_28
I0712 10:36:07.333005 22064 net.cpp:435] ConvNd_28 <- ConvNd_27_ConvNd_27_0_split_0
I0712 10:36:07.333011 22064 net.cpp:409] ConvNd_28 -> ConvNd_28
I0712 10:36:07.333182 22064 net.cpp:144] Setting up ConvNd_28
I0712 10:36:07.333190 22064 net.cpp:151] Top shape: 8 28 64 64 (917504)
I0712 10:36:07.333194 22064 net.cpp:159] Memory required for data: 1891237888
I0712 10:36:07.333197 22064 layer_factory.hpp:77] Creating layer ConvNd_29
I0712 10:36:07.333205 22064 net.cpp:94] Creating Layer ConvNd_29
I0712 10:36:07.333209 22064 net.cpp:435] ConvNd_29 <- ConvNd_27_ConvNd_27_0_split_1
I0712 10:36:07.333214 22064 net.cpp:409] ConvNd_29 -> ConvNd_29
I0712 10:36:07.333375 22064 net.cpp:144] Setting up ConvNd_29
I0712 10:36:07.333384 22064 net.cpp:151] Top shape: 8 25 64 64 (819200)
I0712 10:36:07.333386 22064 net.cpp:159] Memory required for data: 1894514688
I0712 10:36:07.333390 22064 layer_factory.hpp:77] Creating layer ConvNd_29_ConvNd_29_0_split
I0712 10:36:07.333395 22064 net.cpp:94] Creating Layer ConvNd_29_ConvNd_29_0_split
I0712 10:36:07.333400 22064 net.cpp:435] ConvNd_29_ConvNd_29_0_split <- ConvNd_29
I0712 10:36:07.333405 22064 net.cpp:409] ConvNd_29_ConvNd_29_0_split -> ConvNd_29_ConvNd_29_0_split_0
I0712 10:36:07.333410 22064 net.cpp:409] ConvNd_29_ConvNd_29_0_split -> ConvNd_29_ConvNd_29_0_split_1
I0712 10:36:07.333444 22064 net.cpp:144] Setting up ConvNd_29_ConvNd_29_0_split
I0712 10:36:07.333451 22064 net.cpp:151] Top shape: 8 25 64 64 (819200)
I0712 10:36:07.333456 22064 net.cpp:151] Top shape: 8 25 64 64 (819200)
I0712 10:36:07.333459 22064 net.cpp:159] Memory required for data: 1901068288
I0712 10:36:07.333462 22064 layer_factory.hpp:77] Creating layer ConvNd_30
I0712 10:36:07.333468 22064 net.cpp:94] Creating Layer ConvNd_30
I0712 10:36:07.333472 22064 net.cpp:435] ConvNd_30 <- ConvNd_27_ConvNd_27_0_split_2
I0712 10:36:07.333477 22064 net.cpp:409] ConvNd_30 -> ConvNd_30
I0712 10:36:07.333637 22064 net.cpp:144] Setting up ConvNd_30
I0712 10:36:07.333644 22064 net.cpp:151] Top shape: 8 25 64 64 (819200)
I0712 10:36:07.333647 22064 net.cpp:159] Memory required for data: 1904345088
I0712 10:36:07.333655 22064 layer_factory.hpp:77] Creating layer Add_15
I0712 10:36:07.333660 22064 net.cpp:94] Creating Layer Add_15
I0712 10:36:07.333664 22064 net.cpp:435] Add_15 <- ConvNd_29_ConvNd_29_0_split_0
I0712 10:36:07.333669 22064 net.cpp:435] Add_15 <- ConvNd_30
I0712 10:36:07.333674 22064 net.cpp:409] Add_15 -> Add_15
I0712 10:36:07.333694 22064 net.cpp:144] Setting up Add_15
I0712 10:36:07.333701 22064 net.cpp:151] Top shape: 8 25 64 64 (819200)
I0712 10:36:07.333704 22064 net.cpp:159] Memory required for data: 1907621888
I0712 10:36:07.333708 22064 layer_factory.hpp:77] Creating layer Add_15_Add_15_0_split
I0712 10:36:07.333712 22064 net.cpp:94] Creating Layer Add_15_Add_15_0_split
I0712 10:36:07.333716 22064 net.cpp:435] Add_15_Add_15_0_split <- Add_15
I0712 10:36:07.333721 22064 net.cpp:409] Add_15_Add_15_0_split -> Add_15_Add_15_0_split_0
I0712 10:36:07.333727 22064 net.cpp:409] Add_15_Add_15_0_split -> Add_15_Add_15_0_split_1
I0712 10:36:07.333756 22064 net.cpp:144] Setting up Add_15_Add_15_0_split
I0712 10:36:07.333763 22064 net.cpp:151] Top shape: 8 25 64 64 (819200)
I0712 10:36:07.333767 22064 net.cpp:151] Top shape: 8 25 64 64 (819200)
I0712 10:36:07.333770 22064 net.cpp:159] Memory required for data: 1914175488
I0712 10:36:07.333772 22064 layer_factory.hpp:77] Creating layer ConvNd_31
I0712 10:36:07.333787 22064 net.cpp:94] Creating Layer ConvNd_31
I0712 10:36:07.333791 22064 net.cpp:435] ConvNd_31 <- ConvNd_27_ConvNd_27_0_split_3
I0712 10:36:07.333796 22064 net.cpp:409] ConvNd_31 -> ConvNd_31
I0712 10:36:07.333958 22064 net.cpp:144] Setting up ConvNd_31
I0712 10:36:07.333966 22064 net.cpp:151] Top shape: 8 25 64 64 (819200)
I0712 10:36:07.333969 22064 net.cpp:159] Memory required for data: 1917452288
I0712 10:36:07.333974 22064 layer_factory.hpp:77] Creating layer Add_16
I0712 10:36:07.333979 22064 net.cpp:94] Creating Layer Add_16
I0712 10:36:07.333983 22064 net.cpp:435] Add_16 <- Add_15_Add_15_0_split_0
I0712 10:36:07.333987 22064 net.cpp:435] Add_16 <- ConvNd_31
I0712 10:36:07.333992 22064 net.cpp:409] Add_16 -> Add_16
I0712 10:36:07.334012 22064 net.cpp:144] Setting up Add_16
I0712 10:36:07.334018 22064 net.cpp:151] Top shape: 8 25 64 64 (819200)
I0712 10:36:07.334022 22064 net.cpp:159] Memory required for data: 1920729088
I0712 10:36:07.334024 22064 layer_factory.hpp:77] Creating layer Add_16_Add_16_0_split
I0712 10:36:07.334029 22064 net.cpp:94] Creating Layer Add_16_Add_16_0_split
I0712 10:36:07.334033 22064 net.cpp:435] Add_16_Add_16_0_split <- Add_16
I0712 10:36:07.334038 22064 net.cpp:409] Add_16_Add_16_0_split -> Add_16_Add_16_0_split_0
I0712 10:36:07.334043 22064 net.cpp:409] Add_16_Add_16_0_split -> Add_16_Add_16_0_split_1
I0712 10:36:07.334072 22064 net.cpp:144] Setting up Add_16_Add_16_0_split
I0712 10:36:07.334079 22064 net.cpp:151] Top shape: 8 25 64 64 (819200)
I0712 10:36:07.334084 22064 net.cpp:151] Top shape: 8 25 64 64 (819200)
I0712 10:36:07.334086 22064 net.cpp:159] Memory required for data: 1927282688
I0712 10:36:07.334089 22064 layer_factory.hpp:77] Creating layer ConvNd_32
I0712 10:36:07.334096 22064 net.cpp:94] Creating Layer ConvNd_32
I0712 10:36:07.334100 22064 net.cpp:435] ConvNd_32 <- ConvNd_27_ConvNd_27_0_split_4
I0712 10:36:07.334105 22064 net.cpp:409] ConvNd_32 -> ConvNd_32
I0712 10:36:07.334267 22064 net.cpp:144] Setting up ConvNd_32
I0712 10:36:07.334275 22064 net.cpp:151] Top shape: 8 25 64 64 (819200)
I0712 10:36:07.334277 22064 net.cpp:159] Memory required for data: 1930559488
I0712 10:36:07.334282 22064 layer_factory.hpp:77] Creating layer Add_17
I0712 10:36:07.334287 22064 net.cpp:94] Creating Layer Add_17
I0712 10:36:07.334291 22064 net.cpp:435] Add_17 <- Add_16_Add_16_0_split_0
I0712 10:36:07.334295 22064 net.cpp:435] Add_17 <- ConvNd_32
I0712 10:36:07.334300 22064 net.cpp:409] Add_17 -> Add_17
I0712 10:36:07.334319 22064 net.cpp:144] Setting up Add_17
I0712 10:36:07.334326 22064 net.cpp:151] Top shape: 8 25 64 64 (819200)
I0712 10:36:07.334329 22064 net.cpp:159] Memory required for data: 1933836288
I0712 10:36:07.334332 22064 layer_factory.hpp:77] Creating layer Concat_7
I0712 10:36:07.334338 22064 net.cpp:94] Creating Layer Concat_7
I0712 10:36:07.334342 22064 net.cpp:435] Concat_7 <- ConvNd_28
I0712 10:36:07.334347 22064 net.cpp:435] Concat_7 <- ConvNd_29_ConvNd_29_0_split_1
I0712 10:36:07.334350 22064 net.cpp:435] Concat_7 <- Add_15_Add_15_0_split_1
I0712 10:36:07.334354 22064 net.cpp:435] Concat_7 <- Add_16_Add_16_0_split_1
I0712 10:36:07.334358 22064 net.cpp:435] Concat_7 <- Add_17
I0712 10:36:07.334363 22064 net.cpp:409] Concat_7 -> Concat_7
I0712 10:36:07.334384 22064 net.cpp:144] Setting up Concat_7
I0712 10:36:07.334390 22064 net.cpp:151] Top shape: 8 128 64 64 (4194304)
I0712 10:36:07.334394 22064 net.cpp:159] Memory required for data: 1950613504
I0712 10:36:07.334398 22064 layer_factory.hpp:77] Creating layer Add_18
I0712 10:36:07.334401 22064 net.cpp:94] Creating Layer Add_18
I0712 10:36:07.334405 22064 net.cpp:435] Add_18 <- BatchNorm_7_Threshold_7_0_split_1
I0712 10:36:07.334410 22064 net.cpp:435] Add_18 <- Concat_7
I0712 10:36:07.334415 22064 net.cpp:409] Add_18 -> Add_18
I0712 10:36:07.334434 22064 net.cpp:144] Setting up Add_18
I0712 10:36:07.334440 22064 net.cpp:151] Top shape: 8 128 64 64 (4194304)
I0712 10:36:07.334444 22064 net.cpp:159] Memory required for data: 1967390720
I0712 10:36:07.334447 22064 layer_factory.hpp:77] Creating layer BatchNorm_8
I0712 10:36:07.334461 22064 net.cpp:94] Creating Layer BatchNorm_8
I0712 10:36:07.334465 22064 net.cpp:435] BatchNorm_8 <- Add_18
I0712 10:36:07.334471 22064 net.cpp:409] BatchNorm_8 -> BatchNorm_8
I0712 10:36:07.334905 22064 net.cpp:144] Setting up BatchNorm_8
I0712 10:36:07.334913 22064 net.cpp:151] Top shape: 8 128 64 64 (4194304)
I0712 10:36:07.334918 22064 net.cpp:159] Memory required for data: 1984167936
I0712 10:36:07.334926 22064 layer_factory.hpp:77] Creating layer Threshold_8
I0712 10:36:07.334933 22064 net.cpp:94] Creating Layer Threshold_8
I0712 10:36:07.334935 22064 net.cpp:435] Threshold_8 <- BatchNorm_8
I0712 10:36:07.334940 22064 net.cpp:396] Threshold_8 -> BatchNorm_8 (in-place)
I0712 10:36:07.334946 22064 net.cpp:144] Setting up Threshold_8
I0712 10:36:07.334950 22064 net.cpp:151] Top shape: 8 128 64 64 (4194304)
I0712 10:36:07.334954 22064 net.cpp:159] Memory required for data: 2000945152
I0712 10:36:07.334956 22064 layer_factory.hpp:77] Creating layer BatchNorm_8_Threshold_8_0_split
I0712 10:36:07.334962 22064 net.cpp:94] Creating Layer BatchNorm_8_Threshold_8_0_split
I0712 10:36:07.334965 22064 net.cpp:435] BatchNorm_8_Threshold_8_0_split <- BatchNorm_8
I0712 10:36:07.334969 22064 net.cpp:409] BatchNorm_8_Threshold_8_0_split -> BatchNorm_8_Threshold_8_0_split_0
I0712 10:36:07.334975 22064 net.cpp:409] BatchNorm_8_Threshold_8_0_split -> BatchNorm_8_Threshold_8_0_split_1
I0712 10:36:07.335007 22064 net.cpp:144] Setting up BatchNorm_8_Threshold_8_0_split
I0712 10:36:07.335013 22064 net.cpp:151] Top shape: 8 128 64 64 (4194304)
I0712 10:36:07.335017 22064 net.cpp:151] Top shape: 8 128 64 64 (4194304)
I0712 10:36:07.335021 22064 net.cpp:159] Memory required for data: 2034499584
I0712 10:36:07.335024 22064 layer_factory.hpp:77] Creating layer ConvNd_33
I0712 10:36:07.335031 22064 net.cpp:94] Creating Layer ConvNd_33
I0712 10:36:07.335034 22064 net.cpp:435] ConvNd_33 <- BatchNorm_8_Threshold_8_0_split_0
I0712 10:36:07.335039 22064 net.cpp:409] ConvNd_33 -> ConvNd_33
I0712 10:36:07.335204 22064 net.cpp:144] Setting up ConvNd_33
I0712 10:36:07.335211 22064 net.cpp:151] Top shape: 8 25 64 64 (819200)
I0712 10:36:07.335214 22064 net.cpp:159] Memory required for data: 2037776384
I0712 10:36:07.335219 22064 layer_factory.hpp:77] Creating layer ConvNd_33_ConvNd_33_0_split
I0712 10:36:07.335225 22064 net.cpp:94] Creating Layer ConvNd_33_ConvNd_33_0_split
I0712 10:36:07.335229 22064 net.cpp:435] ConvNd_33_ConvNd_33_0_split <- ConvNd_33
I0712 10:36:07.335234 22064 net.cpp:409] ConvNd_33_ConvNd_33_0_split -> ConvNd_33_ConvNd_33_0_split_0
I0712 10:36:07.335242 22064 net.cpp:409] ConvNd_33_ConvNd_33_0_split -> ConvNd_33_ConvNd_33_0_split_1
I0712 10:36:07.335248 22064 net.cpp:409] ConvNd_33_ConvNd_33_0_split -> ConvNd_33_ConvNd_33_0_split_2
I0712 10:36:07.335253 22064 net.cpp:409] ConvNd_33_ConvNd_33_0_split -> ConvNd_33_ConvNd_33_0_split_3
I0712 10:36:07.335259 22064 net.cpp:409] ConvNd_33_ConvNd_33_0_split -> ConvNd_33_ConvNd_33_0_split_4
I0712 10:36:07.335320 22064 net.cpp:144] Setting up ConvNd_33_ConvNd_33_0_split
I0712 10:36:07.335327 22064 net.cpp:151] Top shape: 8 25 64 64 (819200)
I0712 10:36:07.335331 22064 net.cpp:151] Top shape: 8 25 64 64 (819200)
I0712 10:36:07.335335 22064 net.cpp:151] Top shape: 8 25 64 64 (819200)
I0712 10:36:07.335338 22064 net.cpp:151] Top shape: 8 25 64 64 (819200)
I0712 10:36:07.335342 22064 net.cpp:151] Top shape: 8 25 64 64 (819200)
I0712 10:36:07.335345 22064 net.cpp:159] Memory required for data: 2054160384
I0712 10:36:07.335348 22064 layer_factory.hpp:77] Creating layer ConvNd_34
I0712 10:36:07.335355 22064 net.cpp:94] Creating Layer ConvNd_34
I0712 10:36:07.335358 22064 net.cpp:435] ConvNd_34 <- ConvNd_33_ConvNd_33_0_split_0
I0712 10:36:07.335364 22064 net.cpp:409] ConvNd_34 -> ConvNd_34
I0712 10:36:07.335531 22064 net.cpp:144] Setting up ConvNd_34
I0712 10:36:07.335538 22064 net.cpp:151] Top shape: 8 28 64 64 (917504)
I0712 10:36:07.335542 22064 net.cpp:159] Memory required for data: 2057830400
I0712 10:36:07.335546 22064 layer_factory.hpp:77] Creating layer ConvNd_35
I0712 10:36:07.335561 22064 net.cpp:94] Creating Layer ConvNd_35
I0712 10:36:07.335566 22064 net.cpp:435] ConvNd_35 <- ConvNd_33_ConvNd_33_0_split_1
I0712 10:36:07.335572 22064 net.cpp:409] ConvNd_35 -> ConvNd_35
I0712 10:36:07.335736 22064 net.cpp:144] Setting up ConvNd_35
I0712 10:36:07.335744 22064 net.cpp:151] Top shape: 8 25 64 64 (819200)
I0712 10:36:07.335747 22064 net.cpp:159] Memory required for data: 2061107200
I0712 10:36:07.335752 22064 layer_factory.hpp:77] Creating layer ConvNd_35_ConvNd_35_0_split
I0712 10:36:07.335762 22064 net.cpp:94] Creating Layer ConvNd_35_ConvNd_35_0_split
I0712 10:36:07.335767 22064 net.cpp:435] ConvNd_35_ConvNd_35_0_split <- ConvNd_35
I0712 10:36:07.335772 22064 net.cpp:409] ConvNd_35_ConvNd_35_0_split -> ConvNd_35_ConvNd_35_0_split_0
I0712 10:36:07.335778 22064 net.cpp:409] ConvNd_35_ConvNd_35_0_split -> ConvNd_35_ConvNd_35_0_split_1
I0712 10:36:07.335809 22064 net.cpp:144] Setting up ConvNd_35_ConvNd_35_0_split
I0712 10:36:07.335815 22064 net.cpp:151] Top shape: 8 25 64 64 (819200)
I0712 10:36:07.335819 22064 net.cpp:151] Top shape: 8 25 64 64 (819200)
I0712 10:36:07.335824 22064 net.cpp:159] Memory required for data: 2067660800
I0712 10:36:07.335826 22064 layer_factory.hpp:77] Creating layer ConvNd_36
I0712 10:36:07.335837 22064 net.cpp:94] Creating Layer ConvNd_36
I0712 10:36:07.335840 22064 net.cpp:435] ConvNd_36 <- ConvNd_33_ConvNd_33_0_split_2
I0712 10:36:07.335845 22064 net.cpp:409] ConvNd_36 -> ConvNd_36
I0712 10:36:07.336006 22064 net.cpp:144] Setting up ConvNd_36
I0712 10:36:07.336012 22064 net.cpp:151] Top shape: 8 25 64 64 (819200)
I0712 10:36:07.336015 22064 net.cpp:159] Memory required for data: 2070937600
I0712 10:36:07.336020 22064 layer_factory.hpp:77] Creating layer Add_19
I0712 10:36:07.336025 22064 net.cpp:94] Creating Layer Add_19
I0712 10:36:07.336030 22064 net.cpp:435] Add_19 <- ConvNd_35_ConvNd_35_0_split_0
I0712 10:36:07.336033 22064 net.cpp:435] Add_19 <- ConvNd_36
I0712 10:36:07.336038 22064 net.cpp:409] Add_19 -> Add_19
I0712 10:36:07.336058 22064 net.cpp:144] Setting up Add_19
I0712 10:36:07.336064 22064 net.cpp:151] Top shape: 8 25 64 64 (819200)
I0712 10:36:07.336067 22064 net.cpp:159] Memory required for data: 2074214400
I0712 10:36:07.336071 22064 layer_factory.hpp:77] Creating layer Add_19_Add_19_0_split
I0712 10:36:07.336076 22064 net.cpp:94] Creating Layer Add_19_Add_19_0_split
I0712 10:36:07.336079 22064 net.cpp:435] Add_19_Add_19_0_split <- Add_19
I0712 10:36:07.336084 22064 net.cpp:409] Add_19_Add_19_0_split -> Add_19_Add_19_0_split_0
I0712 10:36:07.336091 22064 net.cpp:409] Add_19_Add_19_0_split -> Add_19_Add_19_0_split_1
I0712 10:36:07.336120 22064 net.cpp:144] Setting up Add_19_Add_19_0_split
I0712 10:36:07.336127 22064 net.cpp:151] Top shape: 8 25 64 64 (819200)
I0712 10:36:07.336130 22064 net.cpp:151] Top shape: 8 25 64 64 (819200)
I0712 10:36:07.336133 22064 net.cpp:159] Memory required for data: 2080768000
I0712 10:36:07.336136 22064 layer_factory.hpp:77] Creating layer ConvNd_37
I0712 10:36:07.336143 22064 net.cpp:94] Creating Layer ConvNd_37
I0712 10:36:07.336146 22064 net.cpp:435] ConvNd_37 <- ConvNd_33_ConvNd_33_0_split_3
I0712 10:36:07.336153 22064 net.cpp:409] ConvNd_37 -> ConvNd_37
I0712 10:36:07.336313 22064 net.cpp:144] Setting up ConvNd_37
I0712 10:36:07.336319 22064 net.cpp:151] Top shape: 8 25 64 64 (819200)
I0712 10:36:07.336323 22064 net.cpp:159] Memory required for data: 2084044800
I0712 10:36:07.336328 22064 layer_factory.hpp:77] Creating layer Add_20
I0712 10:36:07.336333 22064 net.cpp:94] Creating Layer Add_20
I0712 10:36:07.336338 22064 net.cpp:435] Add_20 <- Add_19_Add_19_0_split_0
I0712 10:36:07.336341 22064 net.cpp:435] Add_20 <- ConvNd_37
I0712 10:36:07.336346 22064 net.cpp:409] Add_20 -> Add_20
I0712 10:36:07.336367 22064 net.cpp:144] Setting up Add_20
I0712 10:36:07.336374 22064 net.cpp:151] Top shape: 8 25 64 64 (819200)
I0712 10:36:07.336376 22064 net.cpp:159] Memory required for data: 2087321600
I0712 10:36:07.336380 22064 layer_factory.hpp:77] Creating layer Add_20_Add_20_0_split
I0712 10:36:07.336393 22064 net.cpp:94] Creating Layer Add_20_Add_20_0_split
I0712 10:36:07.336396 22064 net.cpp:435] Add_20_Add_20_0_split <- Add_20
I0712 10:36:07.336401 22064 net.cpp:409] Add_20_Add_20_0_split -> Add_20_Add_20_0_split_0
I0712 10:36:07.336408 22064 net.cpp:409] Add_20_Add_20_0_split -> Add_20_Add_20_0_split_1
I0712 10:36:07.336439 22064 net.cpp:144] Setting up Add_20_Add_20_0_split
I0712 10:36:07.336446 22064 net.cpp:151] Top shape: 8 25 64 64 (819200)
I0712 10:36:07.336449 22064 net.cpp:151] Top shape: 8 25 64 64 (819200)
I0712 10:36:07.336453 22064 net.cpp:159] Memory required for data: 2093875200
I0712 10:36:07.336457 22064 layer_factory.hpp:77] Creating layer ConvNd_38
I0712 10:36:07.336462 22064 net.cpp:94] Creating Layer ConvNd_38
I0712 10:36:07.336465 22064 net.cpp:435] ConvNd_38 <- ConvNd_33_ConvNd_33_0_split_4
I0712 10:36:07.336472 22064 net.cpp:409] ConvNd_38 -> ConvNd_38
I0712 10:36:07.336632 22064 net.cpp:144] Setting up ConvNd_38
I0712 10:36:07.336638 22064 net.cpp:151] Top shape: 8 25 64 64 (819200)
I0712 10:36:07.336642 22064 net.cpp:159] Memory required for data: 2097152000
I0712 10:36:07.336647 22064 layer_factory.hpp:77] Creating layer Add_21
I0712 10:36:07.336652 22064 net.cpp:94] Creating Layer Add_21
I0712 10:36:07.336657 22064 net.cpp:435] Add_21 <- Add_20_Add_20_0_split_0
I0712 10:36:07.336660 22064 net.cpp:435] Add_21 <- ConvNd_38
I0712 10:36:07.336665 22064 net.cpp:409] Add_21 -> Add_21
I0712 10:36:07.336685 22064 net.cpp:144] Setting up Add_21
I0712 10:36:07.336691 22064 net.cpp:151] Top shape: 8 25 64 64 (819200)
I0712 10:36:07.336694 22064 net.cpp:159] Memory required for data: 2100428800
I0712 10:36:07.336697 22064 layer_factory.hpp:77] Creating layer Concat_8
I0712 10:36:07.336704 22064 net.cpp:94] Creating Layer Concat_8
I0712 10:36:07.336706 22064 net.cpp:435] Concat_8 <- ConvNd_34
I0712 10:36:07.336710 22064 net.cpp:435] Concat_8 <- ConvNd_35_ConvNd_35_0_split_1
I0712 10:36:07.336715 22064 net.cpp:435] Concat_8 <- Add_19_Add_19_0_split_1
I0712 10:36:07.336719 22064 net.cpp:435] Concat_8 <- Add_20_Add_20_0_split_1
I0712 10:36:07.336722 22064 net.cpp:435] Concat_8 <- Add_21
I0712 10:36:07.336727 22064 net.cpp:409] Concat_8 -> Concat_8
I0712 10:36:07.336750 22064 net.cpp:144] Setting up Concat_8
I0712 10:36:07.336755 22064 net.cpp:151] Top shape: 8 128 64 64 (4194304)
I0712 10:36:07.336758 22064 net.cpp:159] Memory required for data: 2117206016
I0712 10:36:07.336761 22064 layer_factory.hpp:77] Creating layer Add_22
I0712 10:36:07.336767 22064 net.cpp:94] Creating Layer Add_22
I0712 10:36:07.336771 22064 net.cpp:435] Add_22 <- BatchNorm_8_Threshold_8_0_split_1
I0712 10:36:07.336774 22064 net.cpp:435] Add_22 <- Concat_8
I0712 10:36:07.336779 22064 net.cpp:409] Add_22 -> Add_22
I0712 10:36:07.336799 22064 net.cpp:144] Setting up Add_22
I0712 10:36:07.336805 22064 net.cpp:151] Top shape: 8 128 64 64 (4194304)
I0712 10:36:07.336808 22064 net.cpp:159] Memory required for data: 2133983232
I0712 10:36:07.336812 22064 layer_factory.hpp:77] Creating layer BatchNorm_9
I0712 10:36:07.336818 22064 net.cpp:94] Creating Layer BatchNorm_9
I0712 10:36:07.336822 22064 net.cpp:435] BatchNorm_9 <- Add_22
I0712 10:36:07.336827 22064 net.cpp:409] BatchNorm_9 -> BatchNorm_9
I0712 10:36:07.337265 22064 net.cpp:144] Setting up BatchNorm_9
I0712 10:36:07.337275 22064 net.cpp:151] Top shape: 8 128 64 64 (4194304)
I0712 10:36:07.337277 22064 net.cpp:159] Memory required for data: 2150760448
I0712 10:36:07.337287 22064 layer_factory.hpp:77] Creating layer Threshold_9
I0712 10:36:07.337292 22064 net.cpp:94] Creating Layer Threshold_9
I0712 10:36:07.337296 22064 net.cpp:435] Threshold_9 <- BatchNorm_9
I0712 10:36:07.337301 22064 net.cpp:396] Threshold_9 -> BatchNorm_9 (in-place)
I0712 10:36:07.337307 22064 net.cpp:144] Setting up Threshold_9
I0712 10:36:07.337311 22064 net.cpp:151] Top shape: 8 128 64 64 (4194304)
I0712 10:36:07.337314 22064 net.cpp:159] Memory required for data: 2167537664
I0712 10:36:07.337318 22064 layer_factory.hpp:77] Creating layer BatchNorm_9_Threshold_9_0_split
I0712 10:36:07.337330 22064 net.cpp:94] Creating Layer BatchNorm_9_Threshold_9_0_split
I0712 10:36:07.337334 22064 net.cpp:435] BatchNorm_9_Threshold_9_0_split <- BatchNorm_9
I0712 10:36:07.337339 22064 net.cpp:409] BatchNorm_9_Threshold_9_0_split -> BatchNorm_9_Threshold_9_0_split_0
I0712 10:36:07.337345 22064 net.cpp:409] BatchNorm_9_Threshold_9_0_split -> BatchNorm_9_Threshold_9_0_split_1
I0712 10:36:07.337378 22064 net.cpp:144] Setting up BatchNorm_9_Threshold_9_0_split
I0712 10:36:07.337384 22064 net.cpp:151] Top shape: 8 128 64 64 (4194304)
I0712 10:36:07.337389 22064 net.cpp:151] Top shape: 8 128 64 64 (4194304)
I0712 10:36:07.337393 22064 net.cpp:159] Memory required for data: 2201092096
I0712 10:36:07.337395 22064 layer_factory.hpp:77] Creating layer ConvNd_39
I0712 10:36:07.337402 22064 net.cpp:94] Creating Layer ConvNd_39
I0712 10:36:07.337406 22064 net.cpp:435] ConvNd_39 <- BatchNorm_9_Threshold_9_0_split_0
I0712 10:36:07.337411 22064 net.cpp:409] ConvNd_39 -> ConvNd_39
I0712 10:36:07.337577 22064 net.cpp:144] Setting up ConvNd_39
I0712 10:36:07.337585 22064 net.cpp:151] Top shape: 8 25 64 64 (819200)
I0712 10:36:07.337589 22064 net.cpp:159] Memory required for data: 2204368896
I0712 10:36:07.337594 22064 layer_factory.hpp:77] Creating layer ConvNd_39_ConvNd_39_0_split
I0712 10:36:07.337599 22064 net.cpp:94] Creating Layer ConvNd_39_ConvNd_39_0_split
I0712 10:36:07.337602 22064 net.cpp:435] ConvNd_39_ConvNd_39_0_split <- ConvNd_39
I0712 10:36:07.337610 22064 net.cpp:409] ConvNd_39_ConvNd_39_0_split -> ConvNd_39_ConvNd_39_0_split_0
I0712 10:36:07.337617 22064 net.cpp:409] ConvNd_39_ConvNd_39_0_split -> ConvNd_39_ConvNd_39_0_split_1
I0712 10:36:07.337623 22064 net.cpp:409] ConvNd_39_ConvNd_39_0_split -> ConvNd_39_ConvNd_39_0_split_2
I0712 10:36:07.337630 22064 net.cpp:409] ConvNd_39_ConvNd_39_0_split -> ConvNd_39_ConvNd_39_0_split_3
I0712 10:36:07.337635 22064 net.cpp:409] ConvNd_39_ConvNd_39_0_split -> ConvNd_39_ConvNd_39_0_split_4
I0712 10:36:07.337697 22064 net.cpp:144] Setting up ConvNd_39_ConvNd_39_0_split
I0712 10:36:07.337702 22064 net.cpp:151] Top shape: 8 25 64 64 (819200)
I0712 10:36:07.337707 22064 net.cpp:151] Top shape: 8 25 64 64 (819200)
I0712 10:36:07.337710 22064 net.cpp:151] Top shape: 8 25 64 64 (819200)
I0712 10:36:07.337714 22064 net.cpp:151] Top shape: 8 25 64 64 (819200)
I0712 10:36:07.337718 22064 net.cpp:151] Top shape: 8 25 64 64 (819200)
I0712 10:36:07.337720 22064 net.cpp:159] Memory required for data: 2220752896
I0712 10:36:07.337724 22064 layer_factory.hpp:77] Creating layer ConvNd_40
I0712 10:36:07.337730 22064 net.cpp:94] Creating Layer ConvNd_40
I0712 10:36:07.337734 22064 net.cpp:435] ConvNd_40 <- ConvNd_39_ConvNd_39_0_split_0
I0712 10:36:07.337739 22064 net.cpp:409] ConvNd_40 -> ConvNd_40
I0712 10:36:07.337908 22064 net.cpp:144] Setting up ConvNd_40
I0712 10:36:07.337916 22064 net.cpp:151] Top shape: 8 28 64 64 (917504)
I0712 10:36:07.337919 22064 net.cpp:159] Memory required for data: 2224422912
I0712 10:36:07.337924 22064 layer_factory.hpp:77] Creating layer ConvNd_41
I0712 10:36:07.337930 22064 net.cpp:94] Creating Layer ConvNd_41
I0712 10:36:07.337934 22064 net.cpp:435] ConvNd_41 <- ConvNd_39_ConvNd_39_0_split_1
I0712 10:36:07.337939 22064 net.cpp:409] ConvNd_41 -> ConvNd_41
I0712 10:36:07.338102 22064 net.cpp:144] Setting up ConvNd_41
I0712 10:36:07.338110 22064 net.cpp:151] Top shape: 8 25 64 64 (819200)
I0712 10:36:07.338114 22064 net.cpp:159] Memory required for data: 2227699712
I0712 10:36:07.338117 22064 layer_factory.hpp:77] Creating layer ConvNd_41_ConvNd_41_0_split
I0712 10:36:07.338122 22064 net.cpp:94] Creating Layer ConvNd_41_ConvNd_41_0_split
I0712 10:36:07.338126 22064 net.cpp:435] ConvNd_41_ConvNd_41_0_split <- ConvNd_41
I0712 10:36:07.338131 22064 net.cpp:409] ConvNd_41_ConvNd_41_0_split -> ConvNd_41_ConvNd_41_0_split_0
I0712 10:36:07.338137 22064 net.cpp:409] ConvNd_41_ConvNd_41_0_split -> ConvNd_41_ConvNd_41_0_split_1
I0712 10:36:07.338167 22064 net.cpp:144] Setting up ConvNd_41_ConvNd_41_0_split
I0712 10:36:07.338176 22064 net.cpp:151] Top shape: 8 25 64 64 (819200)
I0712 10:36:07.338186 22064 net.cpp:151] Top shape: 8 25 64 64 (819200)
I0712 10:36:07.338189 22064 net.cpp:159] Memory required for data: 2234253312
I0712 10:36:07.338192 22064 layer_factory.hpp:77] Creating layer ConvNd_42
I0712 10:36:07.338203 22064 net.cpp:94] Creating Layer ConvNd_42
I0712 10:36:07.338207 22064 net.cpp:435] ConvNd_42 <- ConvNd_39_ConvNd_39_0_split_2
I0712 10:36:07.338212 22064 net.cpp:409] ConvNd_42 -> ConvNd_42
I0712 10:36:07.338377 22064 net.cpp:144] Setting up ConvNd_42
I0712 10:36:07.338385 22064 net.cpp:151] Top shape: 8 25 64 64 (819200)
I0712 10:36:07.338388 22064 net.cpp:159] Memory required for data: 2237530112
I0712 10:36:07.338393 22064 layer_factory.hpp:77] Creating layer Add_23
I0712 10:36:07.338398 22064 net.cpp:94] Creating Layer Add_23
I0712 10:36:07.338402 22064 net.cpp:435] Add_23 <- ConvNd_41_ConvNd_41_0_split_0
I0712 10:36:07.338407 22064 net.cpp:435] Add_23 <- ConvNd_42
I0712 10:36:07.338412 22064 net.cpp:409] Add_23 -> Add_23
I0712 10:36:07.338433 22064 net.cpp:144] Setting up Add_23
I0712 10:36:07.338439 22064 net.cpp:151] Top shape: 8 25 64 64 (819200)
I0712 10:36:07.338443 22064 net.cpp:159] Memory required for data: 2240806912
I0712 10:36:07.338445 22064 layer_factory.hpp:77] Creating layer Add_23_Add_23_0_split
I0712 10:36:07.338449 22064 net.cpp:94] Creating Layer Add_23_Add_23_0_split
I0712 10:36:07.338454 22064 net.cpp:435] Add_23_Add_23_0_split <- Add_23
I0712 10:36:07.338459 22064 net.cpp:409] Add_23_Add_23_0_split -> Add_23_Add_23_0_split_0
I0712 10:36:07.338465 22064 net.cpp:409] Add_23_Add_23_0_split -> Add_23_Add_23_0_split_1
I0712 10:36:07.338495 22064 net.cpp:144] Setting up Add_23_Add_23_0_split
I0712 10:36:07.338501 22064 net.cpp:151] Top shape: 8 25 64 64 (819200)
I0712 10:36:07.338505 22064 net.cpp:151] Top shape: 8 25 64 64 (819200)
I0712 10:36:07.338507 22064 net.cpp:159] Memory required for data: 2247360512
I0712 10:36:07.338510 22064 layer_factory.hpp:77] Creating layer ConvNd_43
I0712 10:36:07.338517 22064 net.cpp:94] Creating Layer ConvNd_43
I0712 10:36:07.338521 22064 net.cpp:435] ConvNd_43 <- ConvNd_39_ConvNd_39_0_split_3
I0712 10:36:07.338526 22064 net.cpp:409] ConvNd_43 -> ConvNd_43
I0712 10:36:07.338687 22064 net.cpp:144] Setting up ConvNd_43
I0712 10:36:07.338694 22064 net.cpp:151] Top shape: 8 25 64 64 (819200)
I0712 10:36:07.338697 22064 net.cpp:159] Memory required for data: 2250637312
I0712 10:36:07.338702 22064 layer_factory.hpp:77] Creating layer Add_24
I0712 10:36:07.338706 22064 net.cpp:94] Creating Layer Add_24
I0712 10:36:07.338711 22064 net.cpp:435] Add_24 <- Add_23_Add_23_0_split_0
I0712 10:36:07.338716 22064 net.cpp:435] Add_24 <- ConvNd_43
I0712 10:36:07.338719 22064 net.cpp:409] Add_24 -> Add_24
I0712 10:36:07.338739 22064 net.cpp:144] Setting up Add_24
I0712 10:36:07.338745 22064 net.cpp:151] Top shape: 8 25 64 64 (819200)
I0712 10:36:07.338748 22064 net.cpp:159] Memory required for data: 2253914112
I0712 10:36:07.338752 22064 layer_factory.hpp:77] Creating layer Add_24_Add_24_0_split
I0712 10:36:07.338757 22064 net.cpp:94] Creating Layer Add_24_Add_24_0_split
I0712 10:36:07.338762 22064 net.cpp:435] Add_24_Add_24_0_split <- Add_24
I0712 10:36:07.338765 22064 net.cpp:409] Add_24_Add_24_0_split -> Add_24_Add_24_0_split_0
I0712 10:36:07.338771 22064 net.cpp:409] Add_24_Add_24_0_split -> Add_24_Add_24_0_split_1
I0712 10:36:07.338801 22064 net.cpp:144] Setting up Add_24_Add_24_0_split
I0712 10:36:07.338809 22064 net.cpp:151] Top shape: 8 25 64 64 (819200)
I0712 10:36:07.338811 22064 net.cpp:151] Top shape: 8 25 64 64 (819200)
I0712 10:36:07.338814 22064 net.cpp:159] Memory required for data: 2260467712
I0712 10:36:07.338817 22064 layer_factory.hpp:77] Creating layer ConvNd_44
I0712 10:36:07.338824 22064 net.cpp:94] Creating Layer ConvNd_44
I0712 10:36:07.338827 22064 net.cpp:435] ConvNd_44 <- ConvNd_39_ConvNd_39_0_split_4
I0712 10:36:07.338834 22064 net.cpp:409] ConvNd_44 -> ConvNd_44
I0712 10:36:07.338992 22064 net.cpp:144] Setting up ConvNd_44
I0712 10:36:07.339000 22064 net.cpp:151] Top shape: 8 25 64 64 (819200)
I0712 10:36:07.339010 22064 net.cpp:159] Memory required for data: 2263744512
I0712 10:36:07.339015 22064 layer_factory.hpp:77] Creating layer Add_25
I0712 10:36:07.339020 22064 net.cpp:94] Creating Layer Add_25
I0712 10:36:07.339025 22064 net.cpp:435] Add_25 <- Add_24_Add_24_0_split_0
I0712 10:36:07.339030 22064 net.cpp:435] Add_25 <- ConvNd_44
I0712 10:36:07.339033 22064 net.cpp:409] Add_25 -> Add_25
I0712 10:36:07.339056 22064 net.cpp:144] Setting up Add_25
I0712 10:36:07.339062 22064 net.cpp:151] Top shape: 8 25 64 64 (819200)
I0712 10:36:07.339066 22064 net.cpp:159] Memory required for data: 2267021312
I0712 10:36:07.339067 22064 layer_factory.hpp:77] Creating layer Concat_9
I0712 10:36:07.339073 22064 net.cpp:94] Creating Layer Concat_9
I0712 10:36:07.339077 22064 net.cpp:435] Concat_9 <- ConvNd_40
I0712 10:36:07.339082 22064 net.cpp:435] Concat_9 <- ConvNd_41_ConvNd_41_0_split_1
I0712 10:36:07.339085 22064 net.cpp:435] Concat_9 <- Add_23_Add_23_0_split_1
I0712 10:36:07.339089 22064 net.cpp:435] Concat_9 <- Add_24_Add_24_0_split_1
I0712 10:36:07.339093 22064 net.cpp:435] Concat_9 <- Add_25
I0712 10:36:07.339098 22064 net.cpp:409] Concat_9 -> Concat_9
I0712 10:36:07.339119 22064 net.cpp:144] Setting up Concat_9
I0712 10:36:07.339125 22064 net.cpp:151] Top shape: 8 128 64 64 (4194304)
I0712 10:36:07.339129 22064 net.cpp:159] Memory required for data: 2283798528
I0712 10:36:07.339133 22064 layer_factory.hpp:77] Creating layer Add_26
I0712 10:36:07.339136 22064 net.cpp:94] Creating Layer Add_26
I0712 10:36:07.339140 22064 net.cpp:435] Add_26 <- BatchNorm_9_Threshold_9_0_split_1
I0712 10:36:07.339145 22064 net.cpp:435] Add_26 <- Concat_9
I0712 10:36:07.339150 22064 net.cpp:409] Add_26 -> Add_26
I0712 10:36:07.339169 22064 net.cpp:144] Setting up Add_26
I0712 10:36:07.339176 22064 net.cpp:151] Top shape: 8 128 64 64 (4194304)
I0712 10:36:07.339179 22064 net.cpp:159] Memory required for data: 2300575744
I0712 10:36:07.339182 22064 layer_factory.hpp:77] Creating layer BatchNorm_10
I0712 10:36:07.339190 22064 net.cpp:94] Creating Layer BatchNorm_10
I0712 10:36:07.339192 22064 net.cpp:435] BatchNorm_10 <- Add_26
I0712 10:36:07.339198 22064 net.cpp:409] BatchNorm_10 -> BatchNorm_10
I0712 10:36:07.339643 22064 net.cpp:144] Setting up BatchNorm_10
I0712 10:36:07.339650 22064 net.cpp:151] Top shape: 8 128 64 64 (4194304)
I0712 10:36:07.339653 22064 net.cpp:159] Memory required for data: 2317352960
I0712 10:36:07.339663 22064 layer_factory.hpp:77] Creating layer Threshold_10
I0712 10:36:07.339668 22064 net.cpp:94] Creating Layer Threshold_10
I0712 10:36:07.339673 22064 net.cpp:435] Threshold_10 <- BatchNorm_10
I0712 10:36:07.339676 22064 net.cpp:396] Threshold_10 -> BatchNorm_10 (in-place)
I0712 10:36:07.339684 22064 net.cpp:144] Setting up Threshold_10
I0712 10:36:07.339689 22064 net.cpp:151] Top shape: 8 128 64 64 (4194304)
I0712 10:36:07.339691 22064 net.cpp:159] Memory required for data: 2334130176
I0712 10:36:07.339694 22064 layer_factory.hpp:77] Creating layer BatchNorm_10_Threshold_10_0_split
I0712 10:36:07.339699 22064 net.cpp:94] Creating Layer BatchNorm_10_Threshold_10_0_split
I0712 10:36:07.339702 22064 net.cpp:435] BatchNorm_10_Threshold_10_0_split <- BatchNorm_10
I0712 10:36:07.339706 22064 net.cpp:409] BatchNorm_10_Threshold_10_0_split -> BatchNorm_10_Threshold_10_0_split_0
I0712 10:36:07.339712 22064 net.cpp:409] BatchNorm_10_Threshold_10_0_split -> BatchNorm_10_Threshold_10_0_split_1
I0712 10:36:07.339745 22064 net.cpp:144] Setting up BatchNorm_10_Threshold_10_0_split
I0712 10:36:07.339751 22064 net.cpp:151] Top shape: 8 128 64 64 (4194304)
I0712 10:36:07.339764 22064 net.cpp:151] Top shape: 8 128 64 64 (4194304)
I0712 10:36:07.339767 22064 net.cpp:159] Memory required for data: 2367684608
I0712 10:36:07.339771 22064 layer_factory.hpp:77] Creating layer ConvNd_45
I0712 10:36:07.339778 22064 net.cpp:94] Creating Layer ConvNd_45
I0712 10:36:07.339782 22064 net.cpp:435] ConvNd_45 <- BatchNorm_10_Threshold_10_0_split_0
I0712 10:36:07.339787 22064 net.cpp:409] ConvNd_45 -> ConvNd_45
I0712 10:36:07.339956 22064 net.cpp:144] Setting up ConvNd_45
I0712 10:36:07.339973 22064 net.cpp:151] Top shape: 8 25 64 64 (819200)
I0712 10:36:07.339977 22064 net.cpp:159] Memory required for data: 2370961408
I0712 10:36:07.339982 22064 layer_factory.hpp:77] Creating layer ConvNd_45_ConvNd_45_0_split
I0712 10:36:07.339987 22064 net.cpp:94] Creating Layer ConvNd_45_ConvNd_45_0_split
I0712 10:36:07.339992 22064 net.cpp:435] ConvNd_45_ConvNd_45_0_split <- ConvNd_45
I0712 10:36:07.339996 22064 net.cpp:409] ConvNd_45_ConvNd_45_0_split -> ConvNd_45_ConvNd_45_0_split_0
I0712 10:36:07.340003 22064 net.cpp:409] ConvNd_45_ConvNd_45_0_split -> ConvNd_45_ConvNd_45_0_split_1
I0712 10:36:07.340011 22064 net.cpp:409] ConvNd_45_ConvNd_45_0_split -> ConvNd_45_ConvNd_45_0_split_2
I0712 10:36:07.340018 22064 net.cpp:409] ConvNd_45_ConvNd_45_0_split -> ConvNd_45_ConvNd_45_0_split_3
I0712 10:36:07.340023 22064 net.cpp:409] ConvNd_45_ConvNd_45_0_split -> ConvNd_45_ConvNd_45_0_split_4
I0712 10:36:07.340085 22064 net.cpp:144] Setting up ConvNd_45_ConvNd_45_0_split
I0712 10:36:07.340093 22064 net.cpp:151] Top shape: 8 25 64 64 (819200)
I0712 10:36:07.340097 22064 net.cpp:151] Top shape: 8 25 64 64 (819200)
I0712 10:36:07.340101 22064 net.cpp:151] Top shape: 8 25 64 64 (819200)
I0712 10:36:07.340104 22064 net.cpp:151] Top shape: 8 25 64 64 (819200)
I0712 10:36:07.340108 22064 net.cpp:151] Top shape: 8 25 64 64 (819200)
I0712 10:36:07.340111 22064 net.cpp:159] Memory required for data: 2387345408
I0712 10:36:07.340114 22064 layer_factory.hpp:77] Creating layer ConvNd_46
I0712 10:36:07.340121 22064 net.cpp:94] Creating Layer ConvNd_46
I0712 10:36:07.340124 22064 net.cpp:435] ConvNd_46 <- ConvNd_45_ConvNd_45_0_split_0
I0712 10:36:07.340131 22064 net.cpp:409] ConvNd_46 -> ConvNd_46
I0712 10:36:07.340299 22064 net.cpp:144] Setting up ConvNd_46
I0712 10:36:07.340306 22064 net.cpp:151] Top shape: 8 28 64 64 (917504)
I0712 10:36:07.340310 22064 net.cpp:159] Memory required for data: 2391015424
I0712 10:36:07.340315 22064 layer_factory.hpp:77] Creating layer ConvNd_47
I0712 10:36:07.340322 22064 net.cpp:94] Creating Layer ConvNd_47
I0712 10:36:07.340325 22064 net.cpp:435] ConvNd_47 <- ConvNd_45_ConvNd_45_0_split_1
I0712 10:36:07.340332 22064 net.cpp:409] ConvNd_47 -> ConvNd_47
I0712 10:36:07.340494 22064 net.cpp:144] Setting up ConvNd_47
I0712 10:36:07.340502 22064 net.cpp:151] Top shape: 8 25 64 64 (819200)
I0712 10:36:07.340504 22064 net.cpp:159] Memory required for data: 2394292224
I0712 10:36:07.340509 22064 layer_factory.hpp:77] Creating layer ConvNd_47_ConvNd_47_0_split
I0712 10:36:07.340515 22064 net.cpp:94] Creating Layer ConvNd_47_ConvNd_47_0_split
I0712 10:36:07.340518 22064 net.cpp:435] ConvNd_47_ConvNd_47_0_split <- ConvNd_47
I0712 10:36:07.340523 22064 net.cpp:409] ConvNd_47_ConvNd_47_0_split -> ConvNd_47_ConvNd_47_0_split_0
I0712 10:36:07.340530 22064 net.cpp:409] ConvNd_47_ConvNd_47_0_split -> ConvNd_47_ConvNd_47_0_split_1
I0712 10:36:07.340561 22064 net.cpp:144] Setting up ConvNd_47_ConvNd_47_0_split
I0712 10:36:07.340567 22064 net.cpp:151] Top shape: 8 25 64 64 (819200)
I0712 10:36:07.340571 22064 net.cpp:151] Top shape: 8 25 64 64 (819200)
I0712 10:36:07.340574 22064 net.cpp:159] Memory required for data: 2400845824
I0712 10:36:07.340577 22064 layer_factory.hpp:77] Creating layer ConvNd_48
I0712 10:36:07.340584 22064 net.cpp:94] Creating Layer ConvNd_48
I0712 10:36:07.340587 22064 net.cpp:435] ConvNd_48 <- ConvNd_45_ConvNd_45_0_split_2
I0712 10:36:07.340593 22064 net.cpp:409] ConvNd_48 -> ConvNd_48
I0712 10:36:07.340755 22064 net.cpp:144] Setting up ConvNd_48
I0712 10:36:07.340762 22064 net.cpp:151] Top shape: 8 25 64 64 (819200)
I0712 10:36:07.340765 22064 net.cpp:159] Memory required for data: 2404122624
I0712 10:36:07.340770 22064 layer_factory.hpp:77] Creating layer Add_27
I0712 10:36:07.340775 22064 net.cpp:94] Creating Layer Add_27
I0712 10:36:07.340778 22064 net.cpp:435] Add_27 <- ConvNd_47_ConvNd_47_0_split_0
I0712 10:36:07.340782 22064 net.cpp:435] Add_27 <- ConvNd_48
I0712 10:36:07.340788 22064 net.cpp:409] Add_27 -> Add_27
I0712 10:36:07.340807 22064 net.cpp:144] Setting up Add_27
I0712 10:36:07.340821 22064 net.cpp:151] Top shape: 8 25 64 64 (819200)
I0712 10:36:07.340824 22064 net.cpp:159] Memory required for data: 2407399424
I0712 10:36:07.340828 22064 layer_factory.hpp:77] Creating layer Add_27_Add_27_0_split
I0712 10:36:07.340833 22064 net.cpp:94] Creating Layer Add_27_Add_27_0_split
I0712 10:36:07.340837 22064 net.cpp:435] Add_27_Add_27_0_split <- Add_27
I0712 10:36:07.340842 22064 net.cpp:409] Add_27_Add_27_0_split -> Add_27_Add_27_0_split_0
I0712 10:36:07.340848 22064 net.cpp:409] Add_27_Add_27_0_split -> Add_27_Add_27_0_split_1
I0712 10:36:07.340879 22064 net.cpp:144] Setting up Add_27_Add_27_0_split
I0712 10:36:07.340885 22064 net.cpp:151] Top shape: 8 25 64 64 (819200)
I0712 10:36:07.340889 22064 net.cpp:151] Top shape: 8 25 64 64 (819200)
I0712 10:36:07.340893 22064 net.cpp:159] Memory required for data: 2413953024
I0712 10:36:07.340895 22064 layer_factory.hpp:77] Creating layer ConvNd_49
I0712 10:36:07.340903 22064 net.cpp:94] Creating Layer ConvNd_49
I0712 10:36:07.340905 22064 net.cpp:435] ConvNd_49 <- ConvNd_45_ConvNd_45_0_split_3
I0712 10:36:07.340911 22064 net.cpp:409] ConvNd_49 -> ConvNd_49
I0712 10:36:07.341073 22064 net.cpp:144] Setting up ConvNd_49
I0712 10:36:07.341080 22064 net.cpp:151] Top shape: 8 25 64 64 (819200)
I0712 10:36:07.341084 22064 net.cpp:159] Memory required for data: 2417229824
I0712 10:36:07.341089 22064 layer_factory.hpp:77] Creating layer Add_28
I0712 10:36:07.341094 22064 net.cpp:94] Creating Layer Add_28
I0712 10:36:07.341097 22064 net.cpp:435] Add_28 <- Add_27_Add_27_0_split_0
I0712 10:36:07.341102 22064 net.cpp:435] Add_28 <- ConvNd_49
I0712 10:36:07.341107 22064 net.cpp:409] Add_28 -> Add_28
I0712 10:36:07.341127 22064 net.cpp:144] Setting up Add_28
I0712 10:36:07.341133 22064 net.cpp:151] Top shape: 8 25 64 64 (819200)
I0712 10:36:07.341136 22064 net.cpp:159] Memory required for data: 2420506624
I0712 10:36:07.341140 22064 layer_factory.hpp:77] Creating layer Add_28_Add_28_0_split
I0712 10:36:07.341145 22064 net.cpp:94] Creating Layer Add_28_Add_28_0_split
I0712 10:36:07.341148 22064 net.cpp:435] Add_28_Add_28_0_split <- Add_28
I0712 10:36:07.341153 22064 net.cpp:409] Add_28_Add_28_0_split -> Add_28_Add_28_0_split_0
I0712 10:36:07.341161 22064 net.cpp:409] Add_28_Add_28_0_split -> Add_28_Add_28_0_split_1
I0712 10:36:07.341190 22064 net.cpp:144] Setting up Add_28_Add_28_0_split
I0712 10:36:07.341197 22064 net.cpp:151] Top shape: 8 25 64 64 (819200)
I0712 10:36:07.341200 22064 net.cpp:151] Top shape: 8 25 64 64 (819200)
I0712 10:36:07.341203 22064 net.cpp:159] Memory required for data: 2427060224
I0712 10:36:07.341207 22064 layer_factory.hpp:77] Creating layer ConvNd_50
I0712 10:36:07.341213 22064 net.cpp:94] Creating Layer ConvNd_50
I0712 10:36:07.341217 22064 net.cpp:435] ConvNd_50 <- ConvNd_45_ConvNd_45_0_split_4
I0712 10:36:07.341223 22064 net.cpp:409] ConvNd_50 -> ConvNd_50
I0712 10:36:07.341383 22064 net.cpp:144] Setting up ConvNd_50
I0712 10:36:07.341390 22064 net.cpp:151] Top shape: 8 25 64 64 (819200)
I0712 10:36:07.341393 22064 net.cpp:159] Memory required for data: 2430337024
I0712 10:36:07.341398 22064 layer_factory.hpp:77] Creating layer Add_29
I0712 10:36:07.341404 22064 net.cpp:94] Creating Layer Add_29
I0712 10:36:07.341408 22064 net.cpp:435] Add_29 <- Add_28_Add_28_0_split_0
I0712 10:36:07.341411 22064 net.cpp:435] Add_29 <- ConvNd_50
I0712 10:36:07.341418 22064 net.cpp:409] Add_29 -> Add_29
I0712 10:36:07.341436 22064 net.cpp:144] Setting up Add_29
I0712 10:36:07.341442 22064 net.cpp:151] Top shape: 8 25 64 64 (819200)
I0712 10:36:07.341445 22064 net.cpp:159] Memory required for data: 2433613824
I0712 10:36:07.341449 22064 layer_factory.hpp:77] Creating layer Concat_10
I0712 10:36:07.341454 22064 net.cpp:94] Creating Layer Concat_10
I0712 10:36:07.341457 22064 net.cpp:435] Concat_10 <- ConvNd_46
I0712 10:36:07.341462 22064 net.cpp:435] Concat_10 <- ConvNd_47_ConvNd_47_0_split_1
I0712 10:36:07.341466 22064 net.cpp:435] Concat_10 <- Add_27_Add_27_0_split_1
I0712 10:36:07.341470 22064 net.cpp:435] Concat_10 <- Add_28_Add_28_0_split_1
I0712 10:36:07.341483 22064 net.cpp:435] Concat_10 <- Add_29
I0712 10:36:07.341490 22064 net.cpp:409] Concat_10 -> Concat_10
I0712 10:36:07.341513 22064 net.cpp:144] Setting up Concat_10
I0712 10:36:07.341519 22064 net.cpp:151] Top shape: 8 128 64 64 (4194304)
I0712 10:36:07.341522 22064 net.cpp:159] Memory required for data: 2450391040
I0712 10:36:07.341526 22064 layer_factory.hpp:77] Creating layer Add_30
I0712 10:36:07.341531 22064 net.cpp:94] Creating Layer Add_30
I0712 10:36:07.341534 22064 net.cpp:435] Add_30 <- BatchNorm_10_Threshold_10_0_split_1
I0712 10:36:07.341538 22064 net.cpp:435] Add_30 <- Concat_10
I0712 10:36:07.341543 22064 net.cpp:409] Add_30 -> Add_30
I0712 10:36:07.341563 22064 net.cpp:144] Setting up Add_30
I0712 10:36:07.341569 22064 net.cpp:151] Top shape: 8 128 64 64 (4194304)
I0712 10:36:07.341572 22064 net.cpp:159] Memory required for data: 2467168256
I0712 10:36:07.341575 22064 layer_factory.hpp:77] Creating layer BatchNorm_11
I0712 10:36:07.341583 22064 net.cpp:94] Creating Layer BatchNorm_11
I0712 10:36:07.341586 22064 net.cpp:435] BatchNorm_11 <- Add_30
I0712 10:36:07.341591 22064 net.cpp:409] BatchNorm_11 -> BatchNorm_11
I0712 10:36:07.342031 22064 net.cpp:144] Setting up BatchNorm_11
I0712 10:36:07.342039 22064 net.cpp:151] Top shape: 8 128 64 64 (4194304)
I0712 10:36:07.342042 22064 net.cpp:159] Memory required for data: 2483945472
I0712 10:36:07.342051 22064 layer_factory.hpp:77] Creating layer Threshold_11
I0712 10:36:07.342056 22064 net.cpp:94] Creating Layer Threshold_11
I0712 10:36:07.342061 22064 net.cpp:435] Threshold_11 <- BatchNorm_11
I0712 10:36:07.342065 22064 net.cpp:396] Threshold_11 -> BatchNorm_11 (in-place)
I0712 10:36:07.342072 22064 net.cpp:144] Setting up Threshold_11
I0712 10:36:07.342075 22064 net.cpp:151] Top shape: 8 128 64 64 (4194304)
I0712 10:36:07.342079 22064 net.cpp:159] Memory required for data: 2500722688
I0712 10:36:07.342082 22064 layer_factory.hpp:77] Creating layer BatchNorm_11_Threshold_11_0_split
I0712 10:36:07.342087 22064 net.cpp:94] Creating Layer BatchNorm_11_Threshold_11_0_split
I0712 10:36:07.342089 22064 net.cpp:435] BatchNorm_11_Threshold_11_0_split <- BatchNorm_11
I0712 10:36:07.342095 22064 net.cpp:409] BatchNorm_11_Threshold_11_0_split -> BatchNorm_11_Threshold_11_0_split_0
I0712 10:36:07.342100 22064 net.cpp:409] BatchNorm_11_Threshold_11_0_split -> BatchNorm_11_Threshold_11_0_split_1
I0712 10:36:07.342131 22064 net.cpp:144] Setting up BatchNorm_11_Threshold_11_0_split
I0712 10:36:07.342139 22064 net.cpp:151] Top shape: 8 128 64 64 (4194304)
I0712 10:36:07.342142 22064 net.cpp:151] Top shape: 8 128 64 64 (4194304)
I0712 10:36:07.342145 22064 net.cpp:159] Memory required for data: 2534277120
I0712 10:36:07.342149 22064 layer_factory.hpp:77] Creating layer ConvNd_51
I0712 10:36:07.342155 22064 net.cpp:94] Creating Layer ConvNd_51
I0712 10:36:07.342159 22064 net.cpp:435] ConvNd_51 <- BatchNorm_11_Threshold_11_0_split_0
I0712 10:36:07.342164 22064 net.cpp:409] ConvNd_51 -> ConvNd_51
I0712 10:36:07.342329 22064 net.cpp:144] Setting up ConvNd_51
I0712 10:36:07.342337 22064 net.cpp:151] Top shape: 8 25 64 64 (819200)
I0712 10:36:07.342341 22064 net.cpp:159] Memory required for data: 2537553920
I0712 10:36:07.342345 22064 layer_factory.hpp:77] Creating layer ConvNd_51_ConvNd_51_0_split
I0712 10:36:07.342351 22064 net.cpp:94] Creating Layer ConvNd_51_ConvNd_51_0_split
I0712 10:36:07.342355 22064 net.cpp:435] ConvNd_51_ConvNd_51_0_split <- ConvNd_51
I0712 10:36:07.342360 22064 net.cpp:409] ConvNd_51_ConvNd_51_0_split -> ConvNd_51_ConvNd_51_0_split_0
I0712 10:36:07.342367 22064 net.cpp:409] ConvNd_51_ConvNd_51_0_split -> ConvNd_51_ConvNd_51_0_split_1
I0712 10:36:07.342373 22064 net.cpp:409] ConvNd_51_ConvNd_51_0_split -> ConvNd_51_ConvNd_51_0_split_2
I0712 10:36:07.342380 22064 net.cpp:409] ConvNd_51_ConvNd_51_0_split -> ConvNd_51_ConvNd_51_0_split_3
I0712 10:36:07.342386 22064 net.cpp:409] ConvNd_51_ConvNd_51_0_split -> ConvNd_51_ConvNd_51_0_split_4
I0712 10:36:07.342447 22064 net.cpp:144] Setting up ConvNd_51_ConvNd_51_0_split
I0712 10:36:07.342460 22064 net.cpp:151] Top shape: 8 25 64 64 (819200)
I0712 10:36:07.342464 22064 net.cpp:151] Top shape: 8 25 64 64 (819200)
I0712 10:36:07.342469 22064 net.cpp:151] Top shape: 8 25 64 64 (819200)
I0712 10:36:07.342473 22064 net.cpp:151] Top shape: 8 25 64 64 (819200)
I0712 10:36:07.342476 22064 net.cpp:151] Top shape: 8 25 64 64 (819200)
I0712 10:36:07.342479 22064 net.cpp:159] Memory required for data: 2553937920
I0712 10:36:07.342483 22064 layer_factory.hpp:77] Creating layer ConvNd_52
I0712 10:36:07.342490 22064 net.cpp:94] Creating Layer ConvNd_52
I0712 10:36:07.342494 22064 net.cpp:435] ConvNd_52 <- ConvNd_51_ConvNd_51_0_split_0
I0712 10:36:07.342499 22064 net.cpp:409] ConvNd_52 -> ConvNd_52
I0712 10:36:07.342672 22064 net.cpp:144] Setting up ConvNd_52
I0712 10:36:07.342679 22064 net.cpp:151] Top shape: 8 28 64 64 (917504)
I0712 10:36:07.342682 22064 net.cpp:159] Memory required for data: 2557607936
I0712 10:36:07.342687 22064 layer_factory.hpp:77] Creating layer ConvNd_53
I0712 10:36:07.342694 22064 net.cpp:94] Creating Layer ConvNd_53
I0712 10:36:07.342698 22064 net.cpp:435] ConvNd_53 <- ConvNd_51_ConvNd_51_0_split_1
I0712 10:36:07.342703 22064 net.cpp:409] ConvNd_53 -> ConvNd_53
I0712 10:36:07.342866 22064 net.cpp:144] Setting up ConvNd_53
I0712 10:36:07.342875 22064 net.cpp:151] Top shape: 8 25 64 64 (819200)
I0712 10:36:07.342877 22064 net.cpp:159] Memory required for data: 2560884736
I0712 10:36:07.342881 22064 layer_factory.hpp:77] Creating layer ConvNd_53_ConvNd_53_0_split
I0712 10:36:07.342886 22064 net.cpp:94] Creating Layer ConvNd_53_ConvNd_53_0_split
I0712 10:36:07.342890 22064 net.cpp:435] ConvNd_53_ConvNd_53_0_split <- ConvNd_53
I0712 10:36:07.342895 22064 net.cpp:409] ConvNd_53_ConvNd_53_0_split -> ConvNd_53_ConvNd_53_0_split_0
I0712 10:36:07.342901 22064 net.cpp:409] ConvNd_53_ConvNd_53_0_split -> ConvNd_53_ConvNd_53_0_split_1
I0712 10:36:07.342932 22064 net.cpp:144] Setting up ConvNd_53_ConvNd_53_0_split
I0712 10:36:07.342939 22064 net.cpp:151] Top shape: 8 25 64 64 (819200)
I0712 10:36:07.342942 22064 net.cpp:151] Top shape: 8 25 64 64 (819200)
I0712 10:36:07.342945 22064 net.cpp:159] Memory required for data: 2567438336
I0712 10:36:07.342948 22064 layer_factory.hpp:77] Creating layer ConvNd_54
I0712 10:36:07.342955 22064 net.cpp:94] Creating Layer ConvNd_54
I0712 10:36:07.342958 22064 net.cpp:435] ConvNd_54 <- ConvNd_51_ConvNd_51_0_split_2
I0712 10:36:07.342964 22064 net.cpp:409] ConvNd_54 -> ConvNd_54
I0712 10:36:07.343127 22064 net.cpp:144] Setting up ConvNd_54
I0712 10:36:07.343133 22064 net.cpp:151] Top shape: 8 25 64 64 (819200)
I0712 10:36:07.343137 22064 net.cpp:159] Memory required for data: 2570715136
I0712 10:36:07.343142 22064 layer_factory.hpp:77] Creating layer Add_31
I0712 10:36:07.343147 22064 net.cpp:94] Creating Layer Add_31
I0712 10:36:07.343150 22064 net.cpp:435] Add_31 <- ConvNd_53_ConvNd_53_0_split_0
I0712 10:36:07.343154 22064 net.cpp:435] Add_31 <- ConvNd_54
I0712 10:36:07.343159 22064 net.cpp:409] Add_31 -> Add_31
I0712 10:36:07.343179 22064 net.cpp:144] Setting up Add_31
I0712 10:36:07.343186 22064 net.cpp:151] Top shape: 8 25 64 64 (819200)
I0712 10:36:07.343189 22064 net.cpp:159] Memory required for data: 2573991936
I0712 10:36:07.343192 22064 layer_factory.hpp:77] Creating layer Add_31_Add_31_0_split
I0712 10:36:07.343197 22064 net.cpp:94] Creating Layer Add_31_Add_31_0_split
I0712 10:36:07.343202 22064 net.cpp:435] Add_31_Add_31_0_split <- Add_31
I0712 10:36:07.343206 22064 net.cpp:409] Add_31_Add_31_0_split -> Add_31_Add_31_0_split_0
I0712 10:36:07.343212 22064 net.cpp:409] Add_31_Add_31_0_split -> Add_31_Add_31_0_split_1
I0712 10:36:07.343241 22064 net.cpp:144] Setting up Add_31_Add_31_0_split
I0712 10:36:07.343248 22064 net.cpp:151] Top shape: 8 25 64 64 (819200)
I0712 10:36:07.343252 22064 net.cpp:151] Top shape: 8 25 64 64 (819200)
I0712 10:36:07.343255 22064 net.cpp:159] Memory required for data: 2580545536
I0712 10:36:07.343258 22064 layer_factory.hpp:77] Creating layer ConvNd_55
I0712 10:36:07.343266 22064 net.cpp:94] Creating Layer ConvNd_55
I0712 10:36:07.343276 22064 net.cpp:435] ConvNd_55 <- ConvNd_51_ConvNd_51_0_split_3
I0712 10:36:07.343281 22064 net.cpp:409] ConvNd_55 -> ConvNd_55
I0712 10:36:07.343443 22064 net.cpp:144] Setting up ConvNd_55
I0712 10:36:07.343451 22064 net.cpp:151] Top shape: 8 25 64 64 (819200)
I0712 10:36:07.343454 22064 net.cpp:159] Memory required for data: 2583822336
I0712 10:36:07.343459 22064 layer_factory.hpp:77] Creating layer Add_32
I0712 10:36:07.343463 22064 net.cpp:94] Creating Layer Add_32
I0712 10:36:07.343468 22064 net.cpp:435] Add_32 <- Add_31_Add_31_0_split_0
I0712 10:36:07.343472 22064 net.cpp:435] Add_32 <- ConvNd_55
I0712 10:36:07.343477 22064 net.cpp:409] Add_32 -> Add_32
I0712 10:36:07.343497 22064 net.cpp:144] Setting up Add_32
I0712 10:36:07.343503 22064 net.cpp:151] Top shape: 8 25 64 64 (819200)
I0712 10:36:07.343506 22064 net.cpp:159] Memory required for data: 2587099136
I0712 10:36:07.343509 22064 layer_factory.hpp:77] Creating layer Add_32_Add_32_0_split
I0712 10:36:07.343514 22064 net.cpp:94] Creating Layer Add_32_Add_32_0_split
I0712 10:36:07.343518 22064 net.cpp:435] Add_32_Add_32_0_split <- Add_32
I0712 10:36:07.343523 22064 net.cpp:409] Add_32_Add_32_0_split -> Add_32_Add_32_0_split_0
I0712 10:36:07.343529 22064 net.cpp:409] Add_32_Add_32_0_split -> Add_32_Add_32_0_split_1
I0712 10:36:07.343559 22064 net.cpp:144] Setting up Add_32_Add_32_0_split
I0712 10:36:07.343566 22064 net.cpp:151] Top shape: 8 25 64 64 (819200)
I0712 10:36:07.343569 22064 net.cpp:151] Top shape: 8 25 64 64 (819200)
I0712 10:36:07.343572 22064 net.cpp:159] Memory required for data: 2593652736
I0712 10:36:07.343575 22064 layer_factory.hpp:77] Creating layer ConvNd_56
I0712 10:36:07.343582 22064 net.cpp:94] Creating Layer ConvNd_56
I0712 10:36:07.343585 22064 net.cpp:435] ConvNd_56 <- ConvNd_51_ConvNd_51_0_split_4
I0712 10:36:07.343590 22064 net.cpp:409] ConvNd_56 -> ConvNd_56
I0712 10:36:07.343752 22064 net.cpp:144] Setting up ConvNd_56
I0712 10:36:07.343765 22064 net.cpp:151] Top shape: 8 25 64 64 (819200)
I0712 10:36:07.343767 22064 net.cpp:159] Memory required for data: 2596929536
I0712 10:36:07.343772 22064 layer_factory.hpp:77] Creating layer Add_33
I0712 10:36:07.343777 22064 net.cpp:94] Creating Layer Add_33
I0712 10:36:07.343781 22064 net.cpp:435] Add_33 <- Add_32_Add_32_0_split_0
I0712 10:36:07.343786 22064 net.cpp:435] Add_33 <- ConvNd_56
I0712 10:36:07.343791 22064 net.cpp:409] Add_33 -> Add_33
I0712 10:36:07.343811 22064 net.cpp:144] Setting up Add_33
I0712 10:36:07.343817 22064 net.cpp:151] Top shape: 8 25 64 64 (819200)
I0712 10:36:07.343820 22064 net.cpp:159] Memory required for data: 2600206336
I0712 10:36:07.343823 22064 layer_factory.hpp:77] Creating layer Concat_11
I0712 10:36:07.343829 22064 net.cpp:94] Creating Layer Concat_11
I0712 10:36:07.343833 22064 net.cpp:435] Concat_11 <- ConvNd_52
I0712 10:36:07.343837 22064 net.cpp:435] Concat_11 <- ConvNd_53_ConvNd_53_0_split_1
I0712 10:36:07.343842 22064 net.cpp:435] Concat_11 <- Add_31_Add_31_0_split_1
I0712 10:36:07.343844 22064 net.cpp:435] Concat_11 <- Add_32_Add_32_0_split_1
I0712 10:36:07.343848 22064 net.cpp:435] Concat_11 <- Add_33
I0712 10:36:07.343853 22064 net.cpp:409] Concat_11 -> Concat_11
I0712 10:36:07.343875 22064 net.cpp:144] Setting up Concat_11
I0712 10:36:07.343881 22064 net.cpp:151] Top shape: 8 128 64 64 (4194304)
I0712 10:36:07.343885 22064 net.cpp:159] Memory required for data: 2616983552
I0712 10:36:07.343888 22064 layer_factory.hpp:77] Creating layer Add_34
I0712 10:36:07.343892 22064 net.cpp:94] Creating Layer Add_34
I0712 10:36:07.343896 22064 net.cpp:435] Add_34 <- BatchNorm_11_Threshold_11_0_split_1
I0712 10:36:07.343901 22064 net.cpp:435] Add_34 <- Concat_11
I0712 10:36:07.343905 22064 net.cpp:409] Add_34 -> Add_34
I0712 10:36:07.343924 22064 net.cpp:144] Setting up Add_34
I0712 10:36:07.343930 22064 net.cpp:151] Top shape: 8 128 64 64 (4194304)
I0712 10:36:07.343935 22064 net.cpp:159] Memory required for data: 2633760768
I0712 10:36:07.343937 22064 layer_factory.hpp:77] Creating layer BatchNorm_12
I0712 10:36:07.343943 22064 net.cpp:94] Creating Layer BatchNorm_12
I0712 10:36:07.343955 22064 net.cpp:435] BatchNorm_12 <- Add_34
I0712 10:36:07.343962 22064 net.cpp:409] BatchNorm_12 -> BatchNorm_12
I0712 10:36:07.344404 22064 net.cpp:144] Setting up BatchNorm_12
I0712 10:36:07.344413 22064 net.cpp:151] Top shape: 8 128 64 64 (4194304)
I0712 10:36:07.344416 22064 net.cpp:159] Memory required for data: 2650537984
I0712 10:36:07.344426 22064 layer_factory.hpp:77] Creating layer Threshold_12
I0712 10:36:07.344431 22064 net.cpp:94] Creating Layer Threshold_12
I0712 10:36:07.344434 22064 net.cpp:435] Threshold_12 <- BatchNorm_12
I0712 10:36:07.344439 22064 net.cpp:396] Threshold_12 -> BatchNorm_12 (in-place)
I0712 10:36:07.344446 22064 net.cpp:144] Setting up Threshold_12
I0712 10:36:07.344450 22064 net.cpp:151] Top shape: 8 128 64 64 (4194304)
I0712 10:36:07.344452 22064 net.cpp:159] Memory required for data: 2667315200
I0712 10:36:07.344455 22064 layer_factory.hpp:77] Creating layer BatchNorm_12_Threshold_12_0_split
I0712 10:36:07.344460 22064 net.cpp:94] Creating Layer BatchNorm_12_Threshold_12_0_split
I0712 10:36:07.344463 22064 net.cpp:435] BatchNorm_12_Threshold_12_0_split <- BatchNorm_12
I0712 10:36:07.344468 22064 net.cpp:409] BatchNorm_12_Threshold_12_0_split -> BatchNorm_12_Threshold_12_0_split_0
I0712 10:36:07.344475 22064 net.cpp:409] BatchNorm_12_Threshold_12_0_split -> BatchNorm_12_Threshold_12_0_split_1
I0712 10:36:07.344506 22064 net.cpp:144] Setting up BatchNorm_12_Threshold_12_0_split
I0712 10:36:07.344512 22064 net.cpp:151] Top shape: 8 128 64 64 (4194304)
I0712 10:36:07.344516 22064 net.cpp:151] Top shape: 8 128 64 64 (4194304)
I0712 10:36:07.344519 22064 net.cpp:159] Memory required for data: 2700869632
I0712 10:36:07.344523 22064 layer_factory.hpp:77] Creating layer ConvNd_57
I0712 10:36:07.344530 22064 net.cpp:94] Creating Layer ConvNd_57
I0712 10:36:07.344533 22064 net.cpp:435] ConvNd_57 <- BatchNorm_12_Threshold_12_0_split_0
I0712 10:36:07.344538 22064 net.cpp:409] ConvNd_57 -> ConvNd_57
I0712 10:36:07.344710 22064 net.cpp:144] Setting up ConvNd_57
I0712 10:36:07.344718 22064 net.cpp:151] Top shape: 8 25 64 64 (819200)
I0712 10:36:07.344722 22064 net.cpp:159] Memory required for data: 2704146432
I0712 10:36:07.344725 22064 layer_factory.hpp:77] Creating layer ConvNd_57_ConvNd_57_0_split
I0712 10:36:07.344732 22064 net.cpp:94] Creating Layer ConvNd_57_ConvNd_57_0_split
I0712 10:36:07.344736 22064 net.cpp:435] ConvNd_57_ConvNd_57_0_split <- ConvNd_57
I0712 10:36:07.344741 22064 net.cpp:409] ConvNd_57_ConvNd_57_0_split -> ConvNd_57_ConvNd_57_0_split_0
I0712 10:36:07.344748 22064 net.cpp:409] ConvNd_57_ConvNd_57_0_split -> ConvNd_57_ConvNd_57_0_split_1
I0712 10:36:07.344755 22064 net.cpp:409] ConvNd_57_ConvNd_57_0_split -> ConvNd_57_ConvNd_57_0_split_2
I0712 10:36:07.344760 22064 net.cpp:409] ConvNd_57_ConvNd_57_0_split -> ConvNd_57_ConvNd_57_0_split_3
I0712 10:36:07.344766 22064 net.cpp:409] ConvNd_57_ConvNd_57_0_split -> ConvNd_57_ConvNd_57_0_split_4
I0712 10:36:07.344828 22064 net.cpp:144] Setting up ConvNd_57_ConvNd_57_0_split
I0712 10:36:07.344835 22064 net.cpp:151] Top shape: 8 25 64 64 (819200)
I0712 10:36:07.344839 22064 net.cpp:151] Top shape: 8 25 64 64 (819200)
I0712 10:36:07.344843 22064 net.cpp:151] Top shape: 8 25 64 64 (819200)
I0712 10:36:07.344846 22064 net.cpp:151] Top shape: 8 25 64 64 (819200)
I0712 10:36:07.344851 22064 net.cpp:151] Top shape: 8 25 64 64 (819200)
I0712 10:36:07.344853 22064 net.cpp:159] Memory required for data: 2720530432
I0712 10:36:07.344856 22064 layer_factory.hpp:77] Creating layer ConvNd_58
I0712 10:36:07.344862 22064 net.cpp:94] Creating Layer ConvNd_58
I0712 10:36:07.344867 22064 net.cpp:435] ConvNd_58 <- ConvNd_57_ConvNd_57_0_split_0
I0712 10:36:07.344872 22064 net.cpp:409] ConvNd_58 -> ConvNd_58
I0712 10:36:07.345042 22064 net.cpp:144] Setting up ConvNd_58
I0712 10:36:07.345050 22064 net.cpp:151] Top shape: 8 28 64 64 (917504)
I0712 10:36:07.345054 22064 net.cpp:159] Memory required for data: 2724200448
I0712 10:36:07.345058 22064 layer_factory.hpp:77] Creating layer ConvNd_59
I0712 10:36:07.345064 22064 net.cpp:94] Creating Layer ConvNd_59
I0712 10:36:07.345077 22064 net.cpp:435] ConvNd_59 <- ConvNd_57_ConvNd_57_0_split_1
I0712 10:36:07.345083 22064 net.cpp:409] ConvNd_59 -> ConvNd_59
I0712 10:36:07.345249 22064 net.cpp:144] Setting up ConvNd_59
I0712 10:36:07.345257 22064 net.cpp:151] Top shape: 8 25 64 64 (819200)
I0712 10:36:07.345260 22064 net.cpp:159] Memory required for data: 2727477248
I0712 10:36:07.345265 22064 layer_factory.hpp:77] Creating layer ConvNd_59_ConvNd_59_0_split
I0712 10:36:07.345270 22064 net.cpp:94] Creating Layer ConvNd_59_ConvNd_59_0_split
I0712 10:36:07.345273 22064 net.cpp:435] ConvNd_59_ConvNd_59_0_split <- ConvNd_59
I0712 10:36:07.345278 22064 net.cpp:409] ConvNd_59_ConvNd_59_0_split -> ConvNd_59_ConvNd_59_0_split_0
I0712 10:36:07.345285 22064 net.cpp:409] ConvNd_59_ConvNd_59_0_split -> ConvNd_59_ConvNd_59_0_split_1
I0712 10:36:07.345316 22064 net.cpp:144] Setting up ConvNd_59_ConvNd_59_0_split
I0712 10:36:07.345322 22064 net.cpp:151] Top shape: 8 25 64 64 (819200)
I0712 10:36:07.345326 22064 net.cpp:151] Top shape: 8 25 64 64 (819200)
I0712 10:36:07.345329 22064 net.cpp:159] Memory required for data: 2734030848
I0712 10:36:07.345332 22064 layer_factory.hpp:77] Creating layer ConvNd_60
I0712 10:36:07.345340 22064 net.cpp:94] Creating Layer ConvNd_60
I0712 10:36:07.345342 22064 net.cpp:435] ConvNd_60 <- ConvNd_57_ConvNd_57_0_split_2
I0712 10:36:07.345348 22064 net.cpp:409] ConvNd_60 -> ConvNd_60
I0712 10:36:07.345510 22064 net.cpp:144] Setting up ConvNd_60
I0712 10:36:07.345518 22064 net.cpp:151] Top shape: 8 25 64 64 (819200)
I0712 10:36:07.345521 22064 net.cpp:159] Memory required for data: 2737307648
I0712 10:36:07.345526 22064 layer_factory.hpp:77] Creating layer Add_35
I0712 10:36:07.345531 22064 net.cpp:94] Creating Layer Add_35
I0712 10:36:07.345535 22064 net.cpp:435] Add_35 <- ConvNd_59_ConvNd_59_0_split_0
I0712 10:36:07.345538 22064 net.cpp:435] Add_35 <- ConvNd_60
I0712 10:36:07.345544 22064 net.cpp:409] Add_35 -> Add_35
I0712 10:36:07.345564 22064 net.cpp:144] Setting up Add_35
I0712 10:36:07.345571 22064 net.cpp:151] Top shape: 8 25 64 64 (819200)
I0712 10:36:07.345573 22064 net.cpp:159] Memory required for data: 2740584448
I0712 10:36:07.345577 22064 layer_factory.hpp:77] Creating layer Add_35_Add_35_0_split
I0712 10:36:07.345582 22064 net.cpp:94] Creating Layer Add_35_Add_35_0_split
I0712 10:36:07.345585 22064 net.cpp:435] Add_35_Add_35_0_split <- Add_35
I0712 10:36:07.345590 22064 net.cpp:409] Add_35_Add_35_0_split -> Add_35_Add_35_0_split_0
I0712 10:36:07.345602 22064 net.cpp:409] Add_35_Add_35_0_split -> Add_35_Add_35_0_split_1
I0712 10:36:07.345634 22064 net.cpp:144] Setting up Add_35_Add_35_0_split
I0712 10:36:07.345641 22064 net.cpp:151] Top shape: 8 25 64 64 (819200)
I0712 10:36:07.345645 22064 net.cpp:151] Top shape: 8 25 64 64 (819200)
I0712 10:36:07.345649 22064 net.cpp:159] Memory required for data: 2747138048
I0712 10:36:07.345651 22064 layer_factory.hpp:77] Creating layer ConvNd_61
I0712 10:36:07.345659 22064 net.cpp:94] Creating Layer ConvNd_61
I0712 10:36:07.345661 22064 net.cpp:435] ConvNd_61 <- ConvNd_57_ConvNd_57_0_split_3
I0712 10:36:07.345667 22064 net.cpp:409] ConvNd_61 -> ConvNd_61
I0712 10:36:07.345831 22064 net.cpp:144] Setting up ConvNd_61
I0712 10:36:07.345839 22064 net.cpp:151] Top shape: 8 25 64 64 (819200)
I0712 10:36:07.345841 22064 net.cpp:159] Memory required for data: 2750414848
I0712 10:36:07.345846 22064 layer_factory.hpp:77] Creating layer Add_36
I0712 10:36:07.345851 22064 net.cpp:94] Creating Layer Add_36
I0712 10:36:07.345854 22064 net.cpp:435] Add_36 <- Add_35_Add_35_0_split_0
I0712 10:36:07.345858 22064 net.cpp:435] Add_36 <- ConvNd_61
I0712 10:36:07.345865 22064 net.cpp:409] Add_36 -> Add_36
I0712 10:36:07.345883 22064 net.cpp:144] Setting up Add_36
I0712 10:36:07.345890 22064 net.cpp:151] Top shape: 8 25 64 64 (819200)
I0712 10:36:07.345892 22064 net.cpp:159] Memory required for data: 2753691648
I0712 10:36:07.345896 22064 layer_factory.hpp:77] Creating layer Add_36_Add_36_0_split
I0712 10:36:07.345902 22064 net.cpp:94] Creating Layer Add_36_Add_36_0_split
I0712 10:36:07.345912 22064 net.cpp:435] Add_36_Add_36_0_split <- Add_36
I0712 10:36:07.345918 22064 net.cpp:409] Add_36_Add_36_0_split -> Add_36_Add_36_0_split_0
I0712 10:36:07.345926 22064 net.cpp:409] Add_36_Add_36_0_split -> Add_36_Add_36_0_split_1
I0712 10:36:07.345957 22064 net.cpp:144] Setting up Add_36_Add_36_0_split
I0712 10:36:07.345964 22064 net.cpp:151] Top shape: 8 25 64 64 (819200)
I0712 10:36:07.345968 22064 net.cpp:151] Top shape: 8 25 64 64 (819200)
I0712 10:36:07.345971 22064 net.cpp:159] Memory required for data: 2760245248
I0712 10:36:07.345974 22064 layer_factory.hpp:77] Creating layer ConvNd_62
I0712 10:36:07.345980 22064 net.cpp:94] Creating Layer ConvNd_62
I0712 10:36:07.345984 22064 net.cpp:435] ConvNd_62 <- ConvNd_57_ConvNd_57_0_split_4
I0712 10:36:07.345990 22064 net.cpp:409] ConvNd_62 -> ConvNd_62
I0712 10:36:07.346154 22064 net.cpp:144] Setting up ConvNd_62
I0712 10:36:07.346159 22064 net.cpp:151] Top shape: 8 25 64 64 (819200)
I0712 10:36:07.346163 22064 net.cpp:159] Memory required for data: 2763522048
I0712 10:36:07.346168 22064 layer_factory.hpp:77] Creating layer Add_37
I0712 10:36:07.346173 22064 net.cpp:94] Creating Layer Add_37
I0712 10:36:07.346175 22064 net.cpp:435] Add_37 <- Add_36_Add_36_0_split_0
I0712 10:36:07.346180 22064 net.cpp:435] Add_37 <- ConvNd_62
I0712 10:36:07.346185 22064 net.cpp:409] Add_37 -> Add_37
I0712 10:36:07.346204 22064 net.cpp:144] Setting up Add_37
I0712 10:36:07.346208 22064 net.cpp:151] Top shape: 8 25 64 64 (819200)
I0712 10:36:07.346211 22064 net.cpp:159] Memory required for data: 2766798848
I0712 10:36:07.346215 22064 layer_factory.hpp:77] Creating layer Concat_12
I0712 10:36:07.346220 22064 net.cpp:94] Creating Layer Concat_12
I0712 10:36:07.346223 22064 net.cpp:435] Concat_12 <- ConvNd_58
I0712 10:36:07.346228 22064 net.cpp:435] Concat_12 <- ConvNd_59_ConvNd_59_0_split_1
I0712 10:36:07.346232 22064 net.cpp:435] Concat_12 <- Add_35_Add_35_0_split_1
I0712 10:36:07.346236 22064 net.cpp:435] Concat_12 <- Add_36_Add_36_0_split_1
I0712 10:36:07.346240 22064 net.cpp:435] Concat_12 <- Add_37
I0712 10:36:07.346246 22064 net.cpp:409] Concat_12 -> Concat_12
I0712 10:36:07.346266 22064 net.cpp:144] Setting up Concat_12
I0712 10:36:07.346271 22064 net.cpp:151] Top shape: 8 128 64 64 (4194304)
I0712 10:36:07.346273 22064 net.cpp:159] Memory required for data: 2783576064
I0712 10:36:07.346276 22064 layer_factory.hpp:77] Creating layer Add_38
I0712 10:36:07.346282 22064 net.cpp:94] Creating Layer Add_38
I0712 10:36:07.346285 22064 net.cpp:435] Add_38 <- BatchNorm_12_Threshold_12_0_split_1
I0712 10:36:07.346289 22064 net.cpp:435] Add_38 <- Concat_12
I0712 10:36:07.346294 22064 net.cpp:409] Add_38 -> Add_38
I0712 10:36:07.346313 22064 net.cpp:144] Setting up Add_38
I0712 10:36:07.346318 22064 net.cpp:151] Top shape: 8 128 64 64 (4194304)
I0712 10:36:07.346321 22064 net.cpp:159] Memory required for data: 2800353280
I0712 10:36:07.346324 22064 layer_factory.hpp:77] Creating layer BatchNorm_13
I0712 10:36:07.346331 22064 net.cpp:94] Creating Layer BatchNorm_13
I0712 10:36:07.346334 22064 net.cpp:435] BatchNorm_13 <- Add_38
I0712 10:36:07.346339 22064 net.cpp:409] BatchNorm_13 -> BatchNorm_13
I0712 10:36:07.346778 22064 net.cpp:144] Setting up BatchNorm_13
I0712 10:36:07.346786 22064 net.cpp:151] Top shape: 8 128 64 64 (4194304)
I0712 10:36:07.346788 22064 net.cpp:159] Memory required for data: 2817130496
I0712 10:36:07.346797 22064 layer_factory.hpp:77] Creating layer Threshold_13
I0712 10:36:07.346803 22064 net.cpp:94] Creating Layer Threshold_13
I0712 10:36:07.346807 22064 net.cpp:435] Threshold_13 <- BatchNorm_13
I0712 10:36:07.346812 22064 net.cpp:396] Threshold_13 -> BatchNorm_13 (in-place)
I0712 10:36:07.346817 22064 net.cpp:144] Setting up Threshold_13
I0712 10:36:07.346822 22064 net.cpp:151] Top shape: 8 128 64 64 (4194304)
I0712 10:36:07.346824 22064 net.cpp:159] Memory required for data: 2833907712
I0712 10:36:07.346827 22064 layer_factory.hpp:77] Creating layer BatchNorm_13_Threshold_13_0_split
I0712 10:36:07.346832 22064 net.cpp:94] Creating Layer BatchNorm_13_Threshold_13_0_split
I0712 10:36:07.346843 22064 net.cpp:435] BatchNorm_13_Threshold_13_0_split <- BatchNorm_13
I0712 10:36:07.346849 22064 net.cpp:409] BatchNorm_13_Threshold_13_0_split -> BatchNorm_13_Threshold_13_0_split_0
I0712 10:36:07.346855 22064 net.cpp:409] BatchNorm_13_Threshold_13_0_split -> BatchNorm_13_Threshold_13_0_split_1
I0712 10:36:07.346887 22064 net.cpp:144] Setting up BatchNorm_13_Threshold_13_0_split
I0712 10:36:07.346892 22064 net.cpp:151] Top shape: 8 128 64 64 (4194304)
I0712 10:36:07.346897 22064 net.cpp:151] Top shape: 8 128 64 64 (4194304)
I0712 10:36:07.346900 22064 net.cpp:159] Memory required for data: 2867462144
I0712 10:36:07.346904 22064 layer_factory.hpp:77] Creating layer ConvNd_63
I0712 10:36:07.346910 22064 net.cpp:94] Creating Layer ConvNd_63
I0712 10:36:07.346915 22064 net.cpp:435] ConvNd_63 <- BatchNorm_13_Threshold_13_0_split_0
I0712 10:36:07.346920 22064 net.cpp:409] ConvNd_63 -> ConvNd_63
I0712 10:36:07.347086 22064 net.cpp:144] Setting up ConvNd_63
I0712 10:36:07.347092 22064 net.cpp:151] Top shape: 8 25 64 64 (819200)
I0712 10:36:07.347095 22064 net.cpp:159] Memory required for data: 2870738944
I0712 10:36:07.347100 22064 layer_factory.hpp:77] Creating layer ConvNd_63_ConvNd_63_0_split
I0712 10:36:07.347106 22064 net.cpp:94] Creating Layer ConvNd_63_ConvNd_63_0_split
I0712 10:36:07.347110 22064 net.cpp:435] ConvNd_63_ConvNd_63_0_split <- ConvNd_63
I0712 10:36:07.347116 22064 net.cpp:409] ConvNd_63_ConvNd_63_0_split -> ConvNd_63_ConvNd_63_0_split_0
I0712 10:36:07.347123 22064 net.cpp:409] ConvNd_63_ConvNd_63_0_split -> ConvNd_63_ConvNd_63_0_split_1
I0712 10:36:07.347129 22064 net.cpp:409] ConvNd_63_ConvNd_63_0_split -> ConvNd_63_ConvNd_63_0_split_2
I0712 10:36:07.347134 22064 net.cpp:409] ConvNd_63_ConvNd_63_0_split -> ConvNd_63_ConvNd_63_0_split_3
I0712 10:36:07.347141 22064 net.cpp:409] ConvNd_63_ConvNd_63_0_split -> ConvNd_63_ConvNd_63_0_split_4
I0712 10:36:07.347203 22064 net.cpp:144] Setting up ConvNd_63_ConvNd_63_0_split
I0712 10:36:07.347208 22064 net.cpp:151] Top shape: 8 25 64 64 (819200)
I0712 10:36:07.347213 22064 net.cpp:151] Top shape: 8 25 64 64 (819200)
I0712 10:36:07.347216 22064 net.cpp:151] Top shape: 8 25 64 64 (819200)
I0712 10:36:07.347219 22064 net.cpp:151] Top shape: 8 25 64 64 (819200)
I0712 10:36:07.347223 22064 net.cpp:151] Top shape: 8 25 64 64 (819200)
I0712 10:36:07.347225 22064 net.cpp:159] Memory required for data: 2887122944
I0712 10:36:07.347229 22064 layer_factory.hpp:77] Creating layer ConvNd_64
I0712 10:36:07.347236 22064 net.cpp:94] Creating Layer ConvNd_64
I0712 10:36:07.347239 22064 net.cpp:435] ConvNd_64 <- ConvNd_63_ConvNd_63_0_split_0
I0712 10:36:07.347244 22064 net.cpp:409] ConvNd_64 -> ConvNd_64
I0712 10:36:07.347414 22064 net.cpp:144] Setting up ConvNd_64
I0712 10:36:07.347419 22064 net.cpp:151] Top shape: 8 28 64 64 (917504)
I0712 10:36:07.347422 22064 net.cpp:159] Memory required for data: 2890792960
I0712 10:36:07.347434 22064 layer_factory.hpp:77] Creating layer ConvNd_65
I0712 10:36:07.347440 22064 net.cpp:94] Creating Layer ConvNd_65
I0712 10:36:07.347445 22064 net.cpp:435] ConvNd_65 <- ConvNd_63_ConvNd_63_0_split_1
I0712 10:36:07.347450 22064 net.cpp:409] ConvNd_65 -> ConvNd_65
I0712 10:36:07.347616 22064 net.cpp:144] Setting up ConvNd_65
I0712 10:36:07.347623 22064 net.cpp:151] Top shape: 8 25 64 64 (819200)
I0712 10:36:07.347625 22064 net.cpp:159] Memory required for data: 2894069760
I0712 10:36:07.347630 22064 layer_factory.hpp:77] Creating layer ConvNd_65_ConvNd_65_0_split
I0712 10:36:07.347635 22064 net.cpp:94] Creating Layer ConvNd_65_ConvNd_65_0_split
I0712 10:36:07.347640 22064 net.cpp:435] ConvNd_65_ConvNd_65_0_split <- ConvNd_65
I0712 10:36:07.347645 22064 net.cpp:409] ConvNd_65_ConvNd_65_0_split -> ConvNd_65_ConvNd_65_0_split_0
I0712 10:36:07.347651 22064 net.cpp:409] ConvNd_65_ConvNd_65_0_split -> ConvNd_65_ConvNd_65_0_split_1
I0712 10:36:07.347681 22064 net.cpp:144] Setting up ConvNd_65_ConvNd_65_0_split
I0712 10:36:07.347687 22064 net.cpp:151] Top shape: 8 25 64 64 (819200)
I0712 10:36:07.347697 22064 net.cpp:151] Top shape: 8 25 64 64 (819200)
I0712 10:36:07.347700 22064 net.cpp:159] Memory required for data: 2900623360
I0712 10:36:07.347703 22064 layer_factory.hpp:77] Creating layer ConvNd_66
I0712 10:36:07.347710 22064 net.cpp:94] Creating Layer ConvNd_66
I0712 10:36:07.347714 22064 net.cpp:435] ConvNd_66 <- ConvNd_63_ConvNd_63_0_split_2
I0712 10:36:07.347719 22064 net.cpp:409] ConvNd_66 -> ConvNd_66
I0712 10:36:07.347893 22064 net.cpp:144] Setting up ConvNd_66
I0712 10:36:07.347903 22064 net.cpp:151] Top shape: 8 25 64 64 (819200)
I0712 10:36:07.347905 22064 net.cpp:159] Memory required for data: 2903900160
I0712 10:36:07.347909 22064 layer_factory.hpp:77] Creating layer Add_39
I0712 10:36:07.347914 22064 net.cpp:94] Creating Layer Add_39
I0712 10:36:07.347919 22064 net.cpp:435] Add_39 <- ConvNd_65_ConvNd_65_0_split_0
I0712 10:36:07.347923 22064 net.cpp:435] Add_39 <- ConvNd_66
I0712 10:36:07.347929 22064 net.cpp:409] Add_39 -> Add_39
I0712 10:36:07.347949 22064 net.cpp:144] Setting up Add_39
I0712 10:36:07.347954 22064 net.cpp:151] Top shape: 8 25 64 64 (819200)
I0712 10:36:07.347956 22064 net.cpp:159] Memory required for data: 2907176960
I0712 10:36:07.347959 22064 layer_factory.hpp:77] Creating layer Add_39_Add_39_0_split
I0712 10:36:07.347965 22064 net.cpp:94] Creating Layer Add_39_Add_39_0_split
I0712 10:36:07.347968 22064 net.cpp:435] Add_39_Add_39_0_split <- Add_39
I0712 10:36:07.347973 22064 net.cpp:409] Add_39_Add_39_0_split -> Add_39_Add_39_0_split_0
I0712 10:36:07.347978 22064 net.cpp:409] Add_39_Add_39_0_split -> Add_39_Add_39_0_split_1
I0712 10:36:07.348008 22064 net.cpp:144] Setting up Add_39_Add_39_0_split
I0712 10:36:07.348013 22064 net.cpp:151] Top shape: 8 25 64 64 (819200)
I0712 10:36:07.348017 22064 net.cpp:151] Top shape: 8 25 64 64 (819200)
I0712 10:36:07.348019 22064 net.cpp:159] Memory required for data: 2913730560
I0712 10:36:07.348022 22064 layer_factory.hpp:77] Creating layer ConvNd_67
I0712 10:36:07.348029 22064 net.cpp:94] Creating Layer ConvNd_67
I0712 10:36:07.348032 22064 net.cpp:435] ConvNd_67 <- ConvNd_63_ConvNd_63_0_split_3
I0712 10:36:07.348038 22064 net.cpp:409] ConvNd_67 -> ConvNd_67
I0712 10:36:07.348201 22064 net.cpp:144] Setting up ConvNd_67
I0712 10:36:07.348206 22064 net.cpp:151] Top shape: 8 25 64 64 (819200)
I0712 10:36:07.348209 22064 net.cpp:159] Memory required for data: 2917007360
I0712 10:36:07.348213 22064 layer_factory.hpp:77] Creating layer Add_40
I0712 10:36:07.348218 22064 net.cpp:94] Creating Layer Add_40
I0712 10:36:07.348222 22064 net.cpp:435] Add_40 <- Add_39_Add_39_0_split_0
I0712 10:36:07.348227 22064 net.cpp:435] Add_40 <- ConvNd_67
I0712 10:36:07.348232 22064 net.cpp:409] Add_40 -> Add_40
I0712 10:36:07.348250 22064 net.cpp:144] Setting up Add_40
I0712 10:36:07.348255 22064 net.cpp:151] Top shape: 8 25 64 64 (819200)
I0712 10:36:07.348258 22064 net.cpp:159] Memory required for data: 2920284160
I0712 10:36:07.348261 22064 layer_factory.hpp:77] Creating layer Add_40_Add_40_0_split
I0712 10:36:07.348266 22064 net.cpp:94] Creating Layer Add_40_Add_40_0_split
I0712 10:36:07.348270 22064 net.cpp:435] Add_40_Add_40_0_split <- Add_40
I0712 10:36:07.348275 22064 net.cpp:409] Add_40_Add_40_0_split -> Add_40_Add_40_0_split_0
I0712 10:36:07.348281 22064 net.cpp:409] Add_40_Add_40_0_split -> Add_40_Add_40_0_split_1
I0712 10:36:07.348310 22064 net.cpp:144] Setting up Add_40_Add_40_0_split
I0712 10:36:07.348315 22064 net.cpp:151] Top shape: 8 25 64 64 (819200)
I0712 10:36:07.348320 22064 net.cpp:151] Top shape: 8 25 64 64 (819200)
I0712 10:36:07.348322 22064 net.cpp:159] Memory required for data: 2926837760
I0712 10:36:07.348325 22064 layer_factory.hpp:77] Creating layer ConvNd_68
I0712 10:36:07.348331 22064 net.cpp:94] Creating Layer ConvNd_68
I0712 10:36:07.348335 22064 net.cpp:435] ConvNd_68 <- ConvNd_63_ConvNd_63_0_split_4
I0712 10:36:07.348340 22064 net.cpp:409] ConvNd_68 -> ConvNd_68
I0712 10:36:07.348501 22064 net.cpp:144] Setting up ConvNd_68
I0712 10:36:07.348507 22064 net.cpp:151] Top shape: 8 25 64 64 (819200)
I0712 10:36:07.348510 22064 net.cpp:159] Memory required for data: 2930114560
I0712 10:36:07.348522 22064 layer_factory.hpp:77] Creating layer Add_41
I0712 10:36:07.348527 22064 net.cpp:94] Creating Layer Add_41
I0712 10:36:07.348531 22064 net.cpp:435] Add_41 <- Add_40_Add_40_0_split_0
I0712 10:36:07.348536 22064 net.cpp:435] Add_41 <- ConvNd_68
I0712 10:36:07.348541 22064 net.cpp:409] Add_41 -> Add_41
I0712 10:36:07.348562 22064 net.cpp:144] Setting up Add_41
I0712 10:36:07.348567 22064 net.cpp:151] Top shape: 8 25 64 64 (819200)
I0712 10:36:07.348569 22064 net.cpp:159] Memory required for data: 2933391360
I0712 10:36:07.348572 22064 layer_factory.hpp:77] Creating layer Concat_13
I0712 10:36:07.348577 22064 net.cpp:94] Creating Layer Concat_13
I0712 10:36:07.348582 22064 net.cpp:435] Concat_13 <- ConvNd_64
I0712 10:36:07.348587 22064 net.cpp:435] Concat_13 <- ConvNd_65_ConvNd_65_0_split_1
I0712 10:36:07.348590 22064 net.cpp:435] Concat_13 <- Add_39_Add_39_0_split_1
I0712 10:36:07.348594 22064 net.cpp:435] Concat_13 <- Add_40_Add_40_0_split_1
I0712 10:36:07.348598 22064 net.cpp:435] Concat_13 <- Add_41
I0712 10:36:07.348603 22064 net.cpp:409] Concat_13 -> Concat_13
I0712 10:36:07.348625 22064 net.cpp:144] Setting up Concat_13
I0712 10:36:07.348630 22064 net.cpp:151] Top shape: 8 128 64 64 (4194304)
I0712 10:36:07.348634 22064 net.cpp:159] Memory required for data: 2950168576
I0712 10:36:07.348636 22064 layer_factory.hpp:77] Creating layer Add_42
I0712 10:36:07.348640 22064 net.cpp:94] Creating Layer Add_42
I0712 10:36:07.348644 22064 net.cpp:435] Add_42 <- BatchNorm_13_Threshold_13_0_split_1
I0712 10:36:07.348649 22064 net.cpp:435] Add_42 <- Concat_13
I0712 10:36:07.348654 22064 net.cpp:409] Add_42 -> Add_42
I0712 10:36:07.348672 22064 net.cpp:144] Setting up Add_42
I0712 10:36:07.348677 22064 net.cpp:151] Top shape: 8 128 64 64 (4194304)
I0712 10:36:07.348680 22064 net.cpp:159] Memory required for data: 2966945792
I0712 10:36:07.348683 22064 layer_factory.hpp:77] Creating layer BatchNorm_14
I0712 10:36:07.348690 22064 net.cpp:94] Creating Layer BatchNorm_14
I0712 10:36:07.348693 22064 net.cpp:435] BatchNorm_14 <- Add_42
I0712 10:36:07.348700 22064 net.cpp:409] BatchNorm_14 -> BatchNorm_14
I0712 10:36:07.349134 22064 net.cpp:144] Setting up BatchNorm_14
I0712 10:36:07.349141 22064 net.cpp:151] Top shape: 8 128 64 64 (4194304)
I0712 10:36:07.349144 22064 net.cpp:159] Memory required for data: 2983723008
I0712 10:36:07.349153 22064 layer_factory.hpp:77] Creating layer Threshold_14
I0712 10:36:07.349159 22064 net.cpp:94] Creating Layer Threshold_14
I0712 10:36:07.349162 22064 net.cpp:435] Threshold_14 <- BatchNorm_14
I0712 10:36:07.349167 22064 net.cpp:396] Threshold_14 -> BatchNorm_14 (in-place)
I0712 10:36:07.349174 22064 net.cpp:144] Setting up Threshold_14
I0712 10:36:07.349177 22064 net.cpp:151] Top shape: 8 128 64 64 (4194304)
I0712 10:36:07.349180 22064 net.cpp:159] Memory required for data: 3000500224
I0712 10:36:07.349184 22064 layer_factory.hpp:77] Creating layer BatchNorm_14_Threshold_14_0_split
I0712 10:36:07.349189 22064 net.cpp:94] Creating Layer BatchNorm_14_Threshold_14_0_split
I0712 10:36:07.349191 22064 net.cpp:435] BatchNorm_14_Threshold_14_0_split <- BatchNorm_14
I0712 10:36:07.349195 22064 net.cpp:409] BatchNorm_14_Threshold_14_0_split -> BatchNorm_14_Threshold_14_0_split_0
I0712 10:36:07.349201 22064 net.cpp:409] BatchNorm_14_Threshold_14_0_split -> BatchNorm_14_Threshold_14_0_split_1
I0712 10:36:07.349232 22064 net.cpp:144] Setting up BatchNorm_14_Threshold_14_0_split
I0712 10:36:07.349237 22064 net.cpp:151] Top shape: 8 128 64 64 (4194304)
I0712 10:36:07.349241 22064 net.cpp:151] Top shape: 8 128 64 64 (4194304)
I0712 10:36:07.349244 22064 net.cpp:159] Memory required for data: 3034054656
I0712 10:36:07.349247 22064 layer_factory.hpp:77] Creating layer ConvNd_69
I0712 10:36:07.349254 22064 net.cpp:94] Creating Layer ConvNd_69
I0712 10:36:07.349257 22064 net.cpp:435] ConvNd_69 <- BatchNorm_14_Threshold_14_0_split_0
I0712 10:36:07.349262 22064 net.cpp:409] ConvNd_69 -> ConvNd_69
I0712 10:36:07.349427 22064 net.cpp:144] Setting up ConvNd_69
I0712 10:36:07.349442 22064 net.cpp:151] Top shape: 8 25 64 64 (819200)
I0712 10:36:07.349445 22064 net.cpp:159] Memory required for data: 3037331456
I0712 10:36:07.349449 22064 layer_factory.hpp:77] Creating layer ConvNd_69_ConvNd_69_0_split
I0712 10:36:07.349455 22064 net.cpp:94] Creating Layer ConvNd_69_ConvNd_69_0_split
I0712 10:36:07.349459 22064 net.cpp:435] ConvNd_69_ConvNd_69_0_split <- ConvNd_69
I0712 10:36:07.349464 22064 net.cpp:409] ConvNd_69_ConvNd_69_0_split -> ConvNd_69_ConvNd_69_0_split_0
I0712 10:36:07.349472 22064 net.cpp:409] ConvNd_69_ConvNd_69_0_split -> ConvNd_69_ConvNd_69_0_split_1
I0712 10:36:07.349478 22064 net.cpp:409] ConvNd_69_ConvNd_69_0_split -> ConvNd_69_ConvNd_69_0_split_2
I0712 10:36:07.349484 22064 net.cpp:409] ConvNd_69_ConvNd_69_0_split -> ConvNd_69_ConvNd_69_0_split_3
I0712 10:36:07.349490 22064 net.cpp:409] ConvNd_69_ConvNd_69_0_split -> ConvNd_69_ConvNd_69_0_split_4
I0712 10:36:07.349553 22064 net.cpp:144] Setting up ConvNd_69_ConvNd_69_0_split
I0712 10:36:07.349561 22064 net.cpp:151] Top shape: 8 25 64 64 (819200)
I0712 10:36:07.349565 22064 net.cpp:151] Top shape: 8 25 64 64 (819200)
I0712 10:36:07.349568 22064 net.cpp:151] Top shape: 8 25 64 64 (819200)
I0712 10:36:07.349572 22064 net.cpp:151] Top shape: 8 25 64 64 (819200)
I0712 10:36:07.349576 22064 net.cpp:151] Top shape: 8 25 64 64 (819200)
I0712 10:36:07.349579 22064 net.cpp:159] Memory required for data: 3053715456
I0712 10:36:07.349582 22064 layer_factory.hpp:77] Creating layer ConvNd_70
I0712 10:36:07.349588 22064 net.cpp:94] Creating Layer ConvNd_70
I0712 10:36:07.349593 22064 net.cpp:435] ConvNd_70 <- ConvNd_69_ConvNd_69_0_split_0
I0712 10:36:07.349598 22064 net.cpp:409] ConvNd_70 -> ConvNd_70
I0712 10:36:07.349766 22064 net.cpp:144] Setting up ConvNd_70
I0712 10:36:07.349774 22064 net.cpp:151] Top shape: 8 28 64 64 (917504)
I0712 10:36:07.349777 22064 net.cpp:159] Memory required for data: 3057385472
I0712 10:36:07.349782 22064 layer_factory.hpp:77] Creating layer ConvNd_71
I0712 10:36:07.349788 22064 net.cpp:94] Creating Layer ConvNd_71
I0712 10:36:07.349792 22064 net.cpp:435] ConvNd_71 <- ConvNd_69_ConvNd_69_0_split_1
I0712 10:36:07.349797 22064 net.cpp:409] ConvNd_71 -> ConvNd_71
I0712 10:36:07.349961 22064 net.cpp:144] Setting up ConvNd_71
I0712 10:36:07.349968 22064 net.cpp:151] Top shape: 8 25 64 64 (819200)
I0712 10:36:07.349972 22064 net.cpp:159] Memory required for data: 3060662272
I0712 10:36:07.349977 22064 layer_factory.hpp:77] Creating layer ConvNd_71_ConvNd_71_0_split
I0712 10:36:07.349980 22064 net.cpp:94] Creating Layer ConvNd_71_ConvNd_71_0_split
I0712 10:36:07.349984 22064 net.cpp:435] ConvNd_71_ConvNd_71_0_split <- ConvNd_71
I0712 10:36:07.349989 22064 net.cpp:409] ConvNd_71_ConvNd_71_0_split -> ConvNd_71_ConvNd_71_0_split_0
I0712 10:36:07.349995 22064 net.cpp:409] ConvNd_71_ConvNd_71_0_split -> ConvNd_71_ConvNd_71_0_split_1
I0712 10:36:07.350026 22064 net.cpp:144] Setting up ConvNd_71_ConvNd_71_0_split
I0712 10:36:07.350033 22064 net.cpp:151] Top shape: 8 25 64 64 (819200)
I0712 10:36:07.350036 22064 net.cpp:151] Top shape: 8 25 64 64 (819200)
I0712 10:36:07.350039 22064 net.cpp:159] Memory required for data: 3067215872
I0712 10:36:07.350042 22064 layer_factory.hpp:77] Creating layer ConvNd_72
I0712 10:36:07.350049 22064 net.cpp:94] Creating Layer ConvNd_72
I0712 10:36:07.350052 22064 net.cpp:435] ConvNd_72 <- ConvNd_69_ConvNd_69_0_split_2
I0712 10:36:07.350057 22064 net.cpp:409] ConvNd_72 -> ConvNd_72
I0712 10:36:07.350219 22064 net.cpp:144] Setting up ConvNd_72
I0712 10:36:07.350225 22064 net.cpp:151] Top shape: 8 25 64 64 (819200)
I0712 10:36:07.350229 22064 net.cpp:159] Memory required for data: 3070492672
I0712 10:36:07.350234 22064 layer_factory.hpp:77] Creating layer Add_43
I0712 10:36:07.350239 22064 net.cpp:94] Creating Layer Add_43
I0712 10:36:07.350242 22064 net.cpp:435] Add_43 <- ConvNd_71_ConvNd_71_0_split_0
I0712 10:36:07.350246 22064 net.cpp:435] Add_43 <- ConvNd_72
I0712 10:36:07.350252 22064 net.cpp:409] Add_43 -> Add_43
I0712 10:36:07.350272 22064 net.cpp:144] Setting up Add_43
I0712 10:36:07.350286 22064 net.cpp:151] Top shape: 8 25 64 64 (819200)
I0712 10:36:07.350288 22064 net.cpp:159] Memory required for data: 3073769472
I0712 10:36:07.350292 22064 layer_factory.hpp:77] Creating layer Add_43_Add_43_0_split
I0712 10:36:07.350297 22064 net.cpp:94] Creating Layer Add_43_Add_43_0_split
I0712 10:36:07.350301 22064 net.cpp:435] Add_43_Add_43_0_split <- Add_43
I0712 10:36:07.350306 22064 net.cpp:409] Add_43_Add_43_0_split -> Add_43_Add_43_0_split_0
I0712 10:36:07.350313 22064 net.cpp:409] Add_43_Add_43_0_split -> Add_43_Add_43_0_split_1
I0712 10:36:07.350343 22064 net.cpp:144] Setting up Add_43_Add_43_0_split
I0712 10:36:07.350349 22064 net.cpp:151] Top shape: 8 25 64 64 (819200)
I0712 10:36:07.350353 22064 net.cpp:151] Top shape: 8 25 64 64 (819200)
I0712 10:36:07.350356 22064 net.cpp:159] Memory required for data: 3080323072
I0712 10:36:07.350360 22064 layer_factory.hpp:77] Creating layer ConvNd_73
I0712 10:36:07.350366 22064 net.cpp:94] Creating Layer ConvNd_73
I0712 10:36:07.350369 22064 net.cpp:435] ConvNd_73 <- ConvNd_69_ConvNd_69_0_split_3
I0712 10:36:07.350375 22064 net.cpp:409] ConvNd_73 -> ConvNd_73
I0712 10:36:07.350539 22064 net.cpp:144] Setting up ConvNd_73
I0712 10:36:07.350546 22064 net.cpp:151] Top shape: 8 25 64 64 (819200)
I0712 10:36:07.350549 22064 net.cpp:159] Memory required for data: 3083599872
I0712 10:36:07.350554 22064 layer_factory.hpp:77] Creating layer Add_44
I0712 10:36:07.350559 22064 net.cpp:94] Creating Layer Add_44
I0712 10:36:07.350562 22064 net.cpp:435] Add_44 <- Add_43_Add_43_0_split_0
I0712 10:36:07.350566 22064 net.cpp:435] Add_44 <- ConvNd_73
I0712 10:36:07.350572 22064 net.cpp:409] Add_44 -> Add_44
I0712 10:36:07.350592 22064 net.cpp:144] Setting up Add_44
I0712 10:36:07.350598 22064 net.cpp:151] Top shape: 8 25 64 64 (819200)
I0712 10:36:07.350601 22064 net.cpp:159] Memory required for data: 3086876672
I0712 10:36:07.350605 22064 layer_factory.hpp:77] Creating layer Add_44_Add_44_0_split
I0712 10:36:07.350610 22064 net.cpp:94] Creating Layer Add_44_Add_44_0_split
I0712 10:36:07.350613 22064 net.cpp:435] Add_44_Add_44_0_split <- Add_44
I0712 10:36:07.350618 22064 net.cpp:409] Add_44_Add_44_0_split -> Add_44_Add_44_0_split_0
I0712 10:36:07.350625 22064 net.cpp:409] Add_44_Add_44_0_split -> Add_44_Add_44_0_split_1
I0712 10:36:07.350656 22064 net.cpp:144] Setting up Add_44_Add_44_0_split
I0712 10:36:07.350661 22064 net.cpp:151] Top shape: 8 25 64 64 (819200)
I0712 10:36:07.350664 22064 net.cpp:151] Top shape: 8 25 64 64 (819200)
I0712 10:36:07.350667 22064 net.cpp:159] Memory required for data: 3093430272
I0712 10:36:07.350672 22064 layer_factory.hpp:77] Creating layer ConvNd_74
I0712 10:36:07.350677 22064 net.cpp:94] Creating Layer ConvNd_74
I0712 10:36:07.350680 22064 net.cpp:435] ConvNd_74 <- ConvNd_69_ConvNd_69_0_split_4
I0712 10:36:07.350687 22064 net.cpp:409] ConvNd_74 -> ConvNd_74
I0712 10:36:07.350848 22064 net.cpp:144] Setting up ConvNd_74
I0712 10:36:07.350855 22064 net.cpp:151] Top shape: 8 25 64 64 (819200)
I0712 10:36:07.350858 22064 net.cpp:159] Memory required for data: 3096707072
I0712 10:36:07.350863 22064 layer_factory.hpp:77] Creating layer Add_45
I0712 10:36:07.350867 22064 net.cpp:94] Creating Layer Add_45
I0712 10:36:07.350872 22064 net.cpp:435] Add_45 <- Add_44_Add_44_0_split_0
I0712 10:36:07.350875 22064 net.cpp:435] Add_45 <- ConvNd_74
I0712 10:36:07.350881 22064 net.cpp:409] Add_45 -> Add_45
I0712 10:36:07.350900 22064 net.cpp:144] Setting up Add_45
I0712 10:36:07.350906 22064 net.cpp:151] Top shape: 8 25 64 64 (819200)
I0712 10:36:07.350909 22064 net.cpp:159] Memory required for data: 3099983872
I0712 10:36:07.350914 22064 layer_factory.hpp:77] Creating layer Concat_14
I0712 10:36:07.350919 22064 net.cpp:94] Creating Layer Concat_14
I0712 10:36:07.350922 22064 net.cpp:435] Concat_14 <- ConvNd_70
I0712 10:36:07.350926 22064 net.cpp:435] Concat_14 <- ConvNd_71_ConvNd_71_0_split_1
I0712 10:36:07.350931 22064 net.cpp:435] Concat_14 <- Add_43_Add_43_0_split_1
I0712 10:36:07.350935 22064 net.cpp:435] Concat_14 <- Add_44_Add_44_0_split_1
I0712 10:36:07.350945 22064 net.cpp:435] Concat_14 <- Add_45
I0712 10:36:07.350951 22064 net.cpp:409] Concat_14 -> Concat_14
I0712 10:36:07.350975 22064 net.cpp:144] Setting up Concat_14
I0712 10:36:07.350981 22064 net.cpp:151] Top shape: 8 128 64 64 (4194304)
I0712 10:36:07.350984 22064 net.cpp:159] Memory required for data: 3116761088
I0712 10:36:07.350987 22064 layer_factory.hpp:77] Creating layer Add_46
I0712 10:36:07.350993 22064 net.cpp:94] Creating Layer Add_46
I0712 10:36:07.350997 22064 net.cpp:435] Add_46 <- BatchNorm_14_Threshold_14_0_split_1
I0712 10:36:07.351001 22064 net.cpp:435] Add_46 <- Concat_14
I0712 10:36:07.351006 22064 net.cpp:409] Add_46 -> Add_46
I0712 10:36:07.351027 22064 net.cpp:144] Setting up Add_46
I0712 10:36:07.351032 22064 net.cpp:151] Top shape: 8 128 64 64 (4194304)
I0712 10:36:07.351035 22064 net.cpp:159] Memory required for data: 3133538304
I0712 10:36:07.351038 22064 layer_factory.hpp:77] Creating layer BatchNorm_15
I0712 10:36:07.351045 22064 net.cpp:94] Creating Layer BatchNorm_15
I0712 10:36:07.351048 22064 net.cpp:435] BatchNorm_15 <- Add_46
I0712 10:36:07.351054 22064 net.cpp:409] BatchNorm_15 -> BatchNorm_15
I0712 10:36:07.351497 22064 net.cpp:144] Setting up BatchNorm_15
I0712 10:36:07.351506 22064 net.cpp:151] Top shape: 8 128 64 64 (4194304)
I0712 10:36:07.351510 22064 net.cpp:159] Memory required for data: 3150315520
I0712 10:36:07.351518 22064 layer_factory.hpp:77] Creating layer Threshold_15
I0712 10:36:07.351523 22064 net.cpp:94] Creating Layer Threshold_15
I0712 10:36:07.351527 22064 net.cpp:435] Threshold_15 <- BatchNorm_15
I0712 10:36:07.351532 22064 net.cpp:396] Threshold_15 -> BatchNorm_15 (in-place)
I0712 10:36:07.351538 22064 net.cpp:144] Setting up Threshold_15
I0712 10:36:07.351542 22064 net.cpp:151] Top shape: 8 128 64 64 (4194304)
I0712 10:36:07.351545 22064 net.cpp:159] Memory required for data: 3167092736
I0712 10:36:07.351548 22064 layer_factory.hpp:77] Creating layer Concat_15
I0712 10:36:07.351553 22064 net.cpp:94] Creating Layer Concat_15
I0712 10:36:07.351557 22064 net.cpp:435] Concat_15 <- BatchNorm_7_Threshold_7_0_split_2
I0712 10:36:07.351562 22064 net.cpp:435] Concat_15 <- BatchNorm_15
I0712 10:36:07.351567 22064 net.cpp:409] Concat_15 -> Concat_15
I0712 10:36:07.351588 22064 net.cpp:144] Setting up Concat_15
I0712 10:36:07.351594 22064 net.cpp:151] Top shape: 8 256 64 64 (8388608)
I0712 10:36:07.351598 22064 net.cpp:159] Memory required for data: 3200647168
I0712 10:36:07.351601 22064 layer_factory.hpp:77] Creating layer BatchNorm_16
I0712 10:36:07.351608 22064 net.cpp:94] Creating Layer BatchNorm_16
I0712 10:36:07.351611 22064 net.cpp:435] BatchNorm_16 <- Concat_15
I0712 10:36:07.351617 22064 net.cpp:409] BatchNorm_16 -> BatchNorm_16
I0712 10:36:07.352063 22064 net.cpp:144] Setting up BatchNorm_16
I0712 10:36:07.352072 22064 net.cpp:151] Top shape: 8 256 64 64 (8388608)
I0712 10:36:07.352075 22064 net.cpp:159] Memory required for data: 3234201600
I0712 10:36:07.352085 22064 layer_factory.hpp:77] Creating layer Threshold_16
I0712 10:36:07.352090 22064 net.cpp:94] Creating Layer Threshold_16
I0712 10:36:07.352093 22064 net.cpp:435] Threshold_16 <- BatchNorm_16
I0712 10:36:07.352098 22064 net.cpp:396] Threshold_16 -> BatchNorm_16 (in-place)
I0712 10:36:07.352104 22064 net.cpp:144] Setting up Threshold_16
I0712 10:36:07.352108 22064 net.cpp:151] Top shape: 8 256 64 64 (8388608)
I0712 10:36:07.352111 22064 net.cpp:159] Memory required for data: 3267756032
I0712 10:36:07.352114 22064 layer_factory.hpp:77] Creating layer ConvNd_75
I0712 10:36:07.352121 22064 net.cpp:94] Creating Layer ConvNd_75
I0712 10:36:07.352125 22064 net.cpp:435] ConvNd_75 <- BatchNorm_16
I0712 10:36:07.352130 22064 net.cpp:409] ConvNd_75 -> ConvNd_75
I0712 10:36:07.352349 22064 net.cpp:144] Setting up ConvNd_75
I0712 10:36:07.352358 22064 net.cpp:151] Top shape: 8 19 64 64 (622592)
I0712 10:36:07.352361 22064 net.cpp:159] Memory required for data: 3270246400
I0712 10:36:07.352365 22064 layer_factory.hpp:77] Creating layer BatchNorm_17
I0712 10:36:07.352372 22064 net.cpp:94] Creating Layer BatchNorm_17
I0712 10:36:07.352385 22064 net.cpp:435] BatchNorm_17 <- ConvNd_75
I0712 10:36:07.352392 22064 net.cpp:409] BatchNorm_17 -> BatchNorm_17
I0712 10:36:07.352887 22064 net.cpp:144] Setting up BatchNorm_17
I0712 10:36:07.352896 22064 net.cpp:151] Top shape: 8 19 64 64 (622592)
I0712 10:36:07.352900 22064 net.cpp:159] Memory required for data: 3272736768
I0712 10:36:07.352910 22064 layer_factory.hpp:77] Creating layer ConvNd_76
I0712 10:36:07.352916 22064 net.cpp:94] Creating Layer ConvNd_76
I0712 10:36:07.352919 22064 net.cpp:435] ConvNd_76 <- BatchNorm_17
I0712 10:36:07.352926 22064 net.cpp:409] ConvNd_76 -> ConvNd_76
I0712 10:36:07.353102 22064 net.cpp:144] Setting up ConvNd_76
I0712 10:36:07.353109 22064 net.cpp:151] Top shape: 8 19 128 128 (2490368)
I0712 10:36:07.353112 22064 net.cpp:159] Memory required for data: 3282698240
I0712 10:36:07.353117 22064 layer_factory.hpp:77] Creating layer Concat_16
I0712 10:36:07.353122 22064 net.cpp:94] Creating Layer Concat_16
I0712 10:36:07.353127 22064 net.cpp:435] Concat_16 <- ConvNd_20
I0712 10:36:07.353132 22064 net.cpp:435] Concat_16 <- ConvNd_76
I0712 10:36:07.353137 22064 net.cpp:409] Concat_16 -> Concat_16
I0712 10:36:07.353158 22064 net.cpp:144] Setting up Concat_16
I0712 10:36:07.353164 22064 net.cpp:151] Top shape: 8 38 128 128 (4980736)
I0712 10:36:07.353166 22064 net.cpp:159] Memory required for data: 3302621184
I0712 10:36:07.353170 22064 layer_factory.hpp:77] Creating layer BatchNorm_18
I0712 10:36:07.353178 22064 net.cpp:94] Creating Layer BatchNorm_18
I0712 10:36:07.353180 22064 net.cpp:435] BatchNorm_18 <- Concat_16
I0712 10:36:07.353186 22064 net.cpp:409] BatchNorm_18 -> BatchNorm_18
I0712 10:36:07.353683 22064 net.cpp:144] Setting up BatchNorm_18
I0712 10:36:07.353693 22064 net.cpp:151] Top shape: 8 38 128 128 (4980736)
I0712 10:36:07.353694 22064 net.cpp:159] Memory required for data: 3322544128
I0712 10:36:07.353703 22064 layer_factory.hpp:77] Creating layer Threshold_17
I0712 10:36:07.353709 22064 net.cpp:94] Creating Layer Threshold_17
I0712 10:36:07.353713 22064 net.cpp:435] Threshold_17 <- BatchNorm_18
I0712 10:36:07.353718 22064 net.cpp:396] Threshold_17 -> BatchNorm_18 (in-place)
I0712 10:36:07.353724 22064 net.cpp:144] Setting up Threshold_17
I0712 10:36:07.353729 22064 net.cpp:151] Top shape: 8 38 128 128 (4980736)
I0712 10:36:07.353730 22064 net.cpp:159] Memory required for data: 3342467072
I0712 10:36:07.353734 22064 layer_factory.hpp:77] Creating layer ConvNd_77
I0712 10:36:07.353740 22064 net.cpp:94] Creating Layer ConvNd_77
I0712 10:36:07.353744 22064 net.cpp:435] ConvNd_77 <- BatchNorm_18
I0712 10:36:07.353749 22064 net.cpp:409] ConvNd_77 -> ConvNd_77
I0712 10:36:07.353920 22064 net.cpp:144] Setting up ConvNd_77
I0712 10:36:07.353929 22064 net.cpp:151] Top shape: 8 4 128 128 (524288)
I0712 10:36:07.353932 22064 net.cpp:159] Memory required for data: 3344564224
I0712 10:36:07.353936 22064 layer_factory.hpp:77] Creating layer ConvNd_77_ConvNd_77_0_split
I0712 10:36:07.353942 22064 net.cpp:94] Creating Layer ConvNd_77_ConvNd_77_0_split
I0712 10:36:07.353945 22064 net.cpp:435] ConvNd_77_ConvNd_77_0_split <- ConvNd_77
I0712 10:36:07.353952 22064 net.cpp:409] ConvNd_77_ConvNd_77_0_split -> ConvNd_77_ConvNd_77_0_split_0
I0712 10:36:07.353958 22064 net.cpp:409] ConvNd_77_ConvNd_77_0_split -> ConvNd_77_ConvNd_77_0_split_1
I0712 10:36:07.353965 22064 net.cpp:409] ConvNd_77_ConvNd_77_0_split -> ConvNd_77_ConvNd_77_0_split_2
I0712 10:36:07.353971 22064 net.cpp:409] ConvNd_77_ConvNd_77_0_split -> ConvNd_77_ConvNd_77_0_split_3
I0712 10:36:07.353976 22064 net.cpp:409] ConvNd_77_ConvNd_77_0_split -> ConvNd_77_ConvNd_77_0_split_4
I0712 10:36:07.354040 22064 net.cpp:144] Setting up ConvNd_77_ConvNd_77_0_split
I0712 10:36:07.354046 22064 net.cpp:151] Top shape: 8 4 128 128 (524288)
I0712 10:36:07.354050 22064 net.cpp:151] Top shape: 8 4 128 128 (524288)
I0712 10:36:07.354054 22064 net.cpp:151] Top shape: 8 4 128 128 (524288)
I0712 10:36:07.354058 22064 net.cpp:151] Top shape: 8 4 128 128 (524288)
I0712 10:36:07.354061 22064 net.cpp:151] Top shape: 8 4 128 128 (524288)
I0712 10:36:07.354074 22064 net.cpp:159] Memory required for data: 3355049984
I0712 10:36:07.354077 22064 layer_factory.hpp:77] Creating layer ConvNd_78
I0712 10:36:07.354084 22064 net.cpp:94] Creating Layer ConvNd_78
I0712 10:36:07.354089 22064 net.cpp:435] ConvNd_78 <- ConvNd_77_ConvNd_77_0_split_0
I0712 10:36:07.354094 22064 net.cpp:409] ConvNd_78 -> ConvNd_78
I0712 10:36:07.354267 22064 net.cpp:144] Setting up ConvNd_78
I0712 10:36:07.354275 22064 net.cpp:151] Top shape: 8 4 128 128 (524288)
I0712 10:36:07.354279 22064 net.cpp:159] Memory required for data: 3357147136
I0712 10:36:07.354284 22064 layer_factory.hpp:77] Creating layer ConvNd_79
I0712 10:36:07.354290 22064 net.cpp:94] Creating Layer ConvNd_79
I0712 10:36:07.354295 22064 net.cpp:435] ConvNd_79 <- ConvNd_77_ConvNd_77_0_split_1
I0712 10:36:07.354300 22064 net.cpp:409] ConvNd_79 -> ConvNd_79
I0712 10:36:07.354463 22064 net.cpp:144] Setting up ConvNd_79
I0712 10:36:07.354470 22064 net.cpp:151] Top shape: 8 4 128 128 (524288)
I0712 10:36:07.354473 22064 net.cpp:159] Memory required for data: 3359244288
I0712 10:36:07.354478 22064 layer_factory.hpp:77] Creating layer ConvNd_79_ConvNd_79_0_split
I0712 10:36:07.354483 22064 net.cpp:94] Creating Layer ConvNd_79_ConvNd_79_0_split
I0712 10:36:07.354487 22064 net.cpp:435] ConvNd_79_ConvNd_79_0_split <- ConvNd_79
I0712 10:36:07.354492 22064 net.cpp:409] ConvNd_79_ConvNd_79_0_split -> ConvNd_79_ConvNd_79_0_split_0
I0712 10:36:07.354498 22064 net.cpp:409] ConvNd_79_ConvNd_79_0_split -> ConvNd_79_ConvNd_79_0_split_1
I0712 10:36:07.354529 22064 net.cpp:144] Setting up ConvNd_79_ConvNd_79_0_split
I0712 10:36:07.354537 22064 net.cpp:151] Top shape: 8 4 128 128 (524288)
I0712 10:36:07.354540 22064 net.cpp:151] Top shape: 8 4 128 128 (524288)
I0712 10:36:07.354543 22064 net.cpp:159] Memory required for data: 3363438592
I0712 10:36:07.354547 22064 layer_factory.hpp:77] Creating layer ConvNd_80
I0712 10:36:07.354554 22064 net.cpp:94] Creating Layer ConvNd_80
I0712 10:36:07.354557 22064 net.cpp:435] ConvNd_80 <- ConvNd_77_ConvNd_77_0_split_2
I0712 10:36:07.354563 22064 net.cpp:409] ConvNd_80 -> ConvNd_80
I0712 10:36:07.354728 22064 net.cpp:144] Setting up ConvNd_80
I0712 10:36:07.354735 22064 net.cpp:151] Top shape: 8 4 128 128 (524288)
I0712 10:36:07.354738 22064 net.cpp:159] Memory required for data: 3365535744
I0712 10:36:07.354743 22064 layer_factory.hpp:77] Creating layer Add_47
I0712 10:36:07.354748 22064 net.cpp:94] Creating Layer Add_47
I0712 10:36:07.354753 22064 net.cpp:435] Add_47 <- ConvNd_79_ConvNd_79_0_split_0
I0712 10:36:07.354756 22064 net.cpp:435] Add_47 <- ConvNd_80
I0712 10:36:07.354761 22064 net.cpp:409] Add_47 -> Add_47
I0712 10:36:07.354782 22064 net.cpp:144] Setting up Add_47
I0712 10:36:07.354789 22064 net.cpp:151] Top shape: 8 4 128 128 (524288)
I0712 10:36:07.354791 22064 net.cpp:159] Memory required for data: 3367632896
I0712 10:36:07.354794 22064 layer_factory.hpp:77] Creating layer Add_47_Add_47_0_split
I0712 10:36:07.354799 22064 net.cpp:94] Creating Layer Add_47_Add_47_0_split
I0712 10:36:07.354804 22064 net.cpp:435] Add_47_Add_47_0_split <- Add_47
I0712 10:36:07.354809 22064 net.cpp:409] Add_47_Add_47_0_split -> Add_47_Add_47_0_split_0
I0712 10:36:07.354815 22064 net.cpp:409] Add_47_Add_47_0_split -> Add_47_Add_47_0_split_1
I0712 10:36:07.354846 22064 net.cpp:144] Setting up Add_47_Add_47_0_split
I0712 10:36:07.354851 22064 net.cpp:151] Top shape: 8 4 128 128 (524288)
I0712 10:36:07.354856 22064 net.cpp:151] Top shape: 8 4 128 128 (524288)
I0712 10:36:07.354858 22064 net.cpp:159] Memory required for data: 3371827200
I0712 10:36:07.354861 22064 layer_factory.hpp:77] Creating layer ConvNd_81
I0712 10:36:07.354869 22064 net.cpp:94] Creating Layer ConvNd_81
I0712 10:36:07.354873 22064 net.cpp:435] ConvNd_81 <- ConvNd_77_ConvNd_77_0_split_3
I0712 10:36:07.354878 22064 net.cpp:409] ConvNd_81 -> ConvNd_81
I0712 10:36:07.355042 22064 net.cpp:144] Setting up ConvNd_81
I0712 10:36:07.355051 22064 net.cpp:151] Top shape: 8 4 128 128 (524288)
I0712 10:36:07.355053 22064 net.cpp:159] Memory required for data: 3373924352
I0712 10:36:07.355067 22064 layer_factory.hpp:77] Creating layer Add_48
I0712 10:36:07.355072 22064 net.cpp:94] Creating Layer Add_48
I0712 10:36:07.355077 22064 net.cpp:435] Add_48 <- Add_47_Add_47_0_split_0
I0712 10:36:07.355082 22064 net.cpp:435] Add_48 <- ConvNd_81
I0712 10:36:07.355087 22064 net.cpp:409] Add_48 -> Add_48
I0712 10:36:07.355108 22064 net.cpp:144] Setting up Add_48
I0712 10:36:07.355115 22064 net.cpp:151] Top shape: 8 4 128 128 (524288)
I0712 10:36:07.355118 22064 net.cpp:159] Memory required for data: 3376021504
I0712 10:36:07.355121 22064 layer_factory.hpp:77] Creating layer Add_48_Add_48_0_split
I0712 10:36:07.355126 22064 net.cpp:94] Creating Layer Add_48_Add_48_0_split
I0712 10:36:07.355130 22064 net.cpp:435] Add_48_Add_48_0_split <- Add_48
I0712 10:36:07.355135 22064 net.cpp:409] Add_48_Add_48_0_split -> Add_48_Add_48_0_split_0
I0712 10:36:07.355141 22064 net.cpp:409] Add_48_Add_48_0_split -> Add_48_Add_48_0_split_1
I0712 10:36:07.355170 22064 net.cpp:144] Setting up Add_48_Add_48_0_split
I0712 10:36:07.355177 22064 net.cpp:151] Top shape: 8 4 128 128 (524288)
I0712 10:36:07.355181 22064 net.cpp:151] Top shape: 8 4 128 128 (524288)
I0712 10:36:07.355183 22064 net.cpp:159] Memory required for data: 3380215808
I0712 10:36:07.355187 22064 layer_factory.hpp:77] Creating layer ConvNd_82
I0712 10:36:07.355195 22064 net.cpp:94] Creating Layer ConvNd_82
I0712 10:36:07.355198 22064 net.cpp:435] ConvNd_82 <- ConvNd_77_ConvNd_77_0_split_4
I0712 10:36:07.355204 22064 net.cpp:409] ConvNd_82 -> ConvNd_82
I0712 10:36:07.355368 22064 net.cpp:144] Setting up ConvNd_82
I0712 10:36:07.355376 22064 net.cpp:151] Top shape: 8 4 128 128 (524288)
I0712 10:36:07.355378 22064 net.cpp:159] Memory required for data: 3382312960
I0712 10:36:07.355383 22064 layer_factory.hpp:77] Creating layer Add_49
I0712 10:36:07.355387 22064 net.cpp:94] Creating Layer Add_49
I0712 10:36:07.355392 22064 net.cpp:435] Add_49 <- Add_48_Add_48_0_split_0
I0712 10:36:07.355396 22064 net.cpp:435] Add_49 <- ConvNd_82
I0712 10:36:07.355401 22064 net.cpp:409] Add_49 -> Add_49
I0712 10:36:07.355420 22064 net.cpp:144] Setting up Add_49
I0712 10:36:07.355427 22064 net.cpp:151] Top shape: 8 4 128 128 (524288)
I0712 10:36:07.355430 22064 net.cpp:159] Memory required for data: 3384410112
I0712 10:36:07.355433 22064 layer_factory.hpp:77] Creating layer Concat_17
I0712 10:36:07.355438 22064 net.cpp:94] Creating Layer Concat_17
I0712 10:36:07.355443 22064 net.cpp:435] Concat_17 <- ConvNd_78
I0712 10:36:07.355446 22064 net.cpp:435] Concat_17 <- ConvNd_79_ConvNd_79_0_split_1
I0712 10:36:07.355450 22064 net.cpp:435] Concat_17 <- Add_47_Add_47_0_split_1
I0712 10:36:07.355454 22064 net.cpp:435] Concat_17 <- Add_48_Add_48_0_split_1
I0712 10:36:07.355458 22064 net.cpp:435] Concat_17 <- Add_49
I0712 10:36:07.355463 22064 net.cpp:409] Concat_17 -> Concat_17
I0712 10:36:07.355485 22064 net.cpp:144] Setting up Concat_17
I0712 10:36:07.355491 22064 net.cpp:151] Top shape: 8 20 128 128 (2621440)
I0712 10:36:07.355495 22064 net.cpp:159] Memory required for data: 3394895872
I0712 10:36:07.355499 22064 layer_factory.hpp:77] Creating layer BatchNorm_19
I0712 10:36:07.355504 22064 net.cpp:94] Creating Layer BatchNorm_19
I0712 10:36:07.355509 22064 net.cpp:435] BatchNorm_19 <- Concat_17
I0712 10:36:07.355515 22064 net.cpp:409] BatchNorm_19 -> BatchNorm_19
I0712 10:36:07.356029 22064 net.cpp:144] Setting up BatchNorm_19
I0712 10:36:07.356039 22064 net.cpp:151] Top shape: 8 20 128 128 (2621440)
I0712 10:36:07.356041 22064 net.cpp:159] Memory required for data: 3405381632
I0712 10:36:07.356051 22064 layer_factory.hpp:77] Creating layer Threshold_18
I0712 10:36:07.356056 22064 net.cpp:94] Creating Layer Threshold_18
I0712 10:36:07.356060 22064 net.cpp:435] Threshold_18 <- BatchNorm_19
I0712 10:36:07.356065 22064 net.cpp:396] Threshold_18 -> BatchNorm_19 (in-place)
I0712 10:36:07.356072 22064 net.cpp:144] Setting up Threshold_18
I0712 10:36:07.356076 22064 net.cpp:151] Top shape: 8 20 128 128 (2621440)
I0712 10:36:07.356079 22064 net.cpp:159] Memory required for data: 3415867392
I0712 10:36:07.356091 22064 layer_factory.hpp:77] Creating layer ConvNd_83
I0712 10:36:07.356098 22064 net.cpp:94] Creating Layer ConvNd_83
I0712 10:36:07.356101 22064 net.cpp:435] ConvNd_83 <- BatchNorm_19
I0712 10:36:07.356107 22064 net.cpp:409] ConvNd_83 -> ConvNd_83
I0712 10:36:07.356294 22064 net.cpp:144] Setting up ConvNd_83
I0712 10:36:07.356302 22064 net.cpp:151] Top shape: 8 19 256 256 (9961472)
I0712 10:36:07.356305 22064 net.cpp:159] Memory required for data: 3455713280
I0712 10:36:07.356310 22064 layer_factory.hpp:77] Creating layer BatchNorm_20
I0712 10:36:07.356323 22064 net.cpp:94] Creating Layer BatchNorm_20
I0712 10:36:07.356326 22064 net.cpp:435] BatchNorm_20 <- ConvNd_83
I0712 10:36:07.356331 22064 net.cpp:409] BatchNorm_20 -> BatchNorm_20
I0712 10:36:07.356873 22064 net.cpp:144] Setting up BatchNorm_20
I0712 10:36:07.356881 22064 net.cpp:151] Top shape: 8 19 256 256 (9961472)
I0712 10:36:07.356884 22064 net.cpp:159] Memory required for data: 3495559168
I0712 10:36:07.356894 22064 layer_factory.hpp:77] Creating layer Threshold_19
I0712 10:36:07.356899 22064 net.cpp:94] Creating Layer Threshold_19
I0712 10:36:07.356901 22064 net.cpp:435] Threshold_19 <- BatchNorm_20
I0712 10:36:07.356907 22064 net.cpp:396] Threshold_19 -> BatchNorm_20 (in-place)
I0712 10:36:07.356912 22064 net.cpp:144] Setting up Threshold_19
I0712 10:36:07.356916 22064 net.cpp:151] Top shape: 8 19 256 256 (9961472)
I0712 10:36:07.356920 22064 net.cpp:159] Memory required for data: 3535405056
I0712 10:36:07.356922 22064 layer_factory.hpp:77] Creating layer Concat_18
I0712 10:36:07.356927 22064 net.cpp:94] Creating Layer Concat_18
I0712 10:36:07.356930 22064 net.cpp:435] Concat_18 <- BatchNorm_20
I0712 10:36:07.356935 22064 net.cpp:435] Concat_18 <- BatchNorm_1_Threshold_1_0_split_1
I0712 10:36:07.356940 22064 net.cpp:409] Concat_18 -> Concat_18
I0712 10:36:07.356962 22064 net.cpp:144] Setting up Concat_18
I0712 10:36:07.356967 22064 net.cpp:151] Top shape: 8 35 256 256 (18350080)
I0712 10:36:07.356971 22064 net.cpp:159] Memory required for data: 3608805376
I0712 10:36:07.356974 22064 layer_factory.hpp:77] Creating layer ConvNd_84
I0712 10:36:07.356981 22064 net.cpp:94] Creating Layer ConvNd_84
I0712 10:36:07.356986 22064 net.cpp:435] ConvNd_84 <- Concat_18
I0712 10:36:07.356990 22064 net.cpp:409] ConvNd_84 -> ConvNd_84
I0712 10:36:07.357210 22064 net.cpp:144] Setting up ConvNd_84
I0712 10:36:07.357218 22064 net.cpp:151] Top shape: 8 19 256 256 (9961472)
I0712 10:36:07.357221 22064 net.cpp:159] Memory required for data: 3648651264
I0712 10:36:07.357225 22064 layer_factory.hpp:77] Creating layer BatchNorm_21
I0712 10:36:07.357233 22064 net.cpp:94] Creating Layer BatchNorm_21
I0712 10:36:07.357236 22064 net.cpp:435] BatchNorm_21 <- ConvNd_84
I0712 10:36:07.357241 22064 net.cpp:409] BatchNorm_21 -> BatchNorm_21
I0712 10:36:07.357774 22064 net.cpp:144] Setting up BatchNorm_21
I0712 10:36:07.357784 22064 net.cpp:151] Top shape: 8 19 256 256 (9961472)
I0712 10:36:07.357786 22064 net.cpp:159] Memory required for data: 3688497152
I0712 10:36:07.357795 22064 layer_factory.hpp:77] Creating layer Threshold_20
I0712 10:36:07.357800 22064 net.cpp:94] Creating Layer Threshold_20
I0712 10:36:07.357803 22064 net.cpp:435] Threshold_20 <- BatchNorm_21
I0712 10:36:07.357807 22064 net.cpp:396] Threshold_20 -> BatchNorm_21 (in-place)
I0712 10:36:07.357813 22064 net.cpp:144] Setting up Threshold_20
I0712 10:36:07.357817 22064 net.cpp:151] Top shape: 8 19 256 256 (9961472)
I0712 10:36:07.357821 22064 net.cpp:159] Memory required for data: 3728343040
I0712 10:36:07.357825 22064 layer_factory.hpp:77] Creating layer ConvNd_85
I0712 10:36:07.357831 22064 net.cpp:94] Creating Layer ConvNd_85
I0712 10:36:07.357833 22064 net.cpp:435] ConvNd_85 <- BatchNorm_21
I0712 10:36:07.357838 22064 net.cpp:409] ConvNd_85 -> ConvNd_85
I0712 10:36:07.358023 22064 net.cpp:144] Setting up ConvNd_85
I0712 10:36:07.358031 22064 net.cpp:151] Top shape: 8 19 512 512 (39845888)
I0712 10:36:07.358033 22064 net.cpp:159] Memory required for data: 3887726592
I0712 10:36:07.358047 22064 layer_factory.hpp:77] Creating layer ConvNd_85_ConvNd_85_0_split
I0712 10:36:07.358052 22064 net.cpp:94] Creating Layer ConvNd_85_ConvNd_85_0_split
I0712 10:36:07.358055 22064 net.cpp:435] ConvNd_85_ConvNd_85_0_split <- ConvNd_85
I0712 10:36:07.358060 22064 net.cpp:409] ConvNd_85_ConvNd_85_0_split -> ConvNd_85_ConvNd_85_0_split_0
I0712 10:36:07.358067 22064 net.cpp:409] ConvNd_85_ConvNd_85_0_split -> ConvNd_85_ConvNd_85_0_split_1
I0712 10:36:07.358101 22064 net.cpp:144] Setting up ConvNd_85_ConvNd_85_0_split
I0712 10:36:07.358108 22064 net.cpp:151] Top shape: 8 19 512 512 (39845888)
I0712 10:36:07.358111 22064 net.cpp:151] Top shape: 8 19 512 512 (39845888)
I0712 10:36:07.358115 22064 net.cpp:159] Memory required for data: 4206493696
I0712 10:36:07.358119 22064 layer_factory.hpp:77] Creating layer loss
I0712 10:36:07.358125 22064 net.cpp:94] Creating Layer loss
I0712 10:36:07.358129 22064 net.cpp:435] loss <- ConvNd_85_ConvNd_85_0_split_0
I0712 10:36:07.358134 22064 net.cpp:435] loss <- label_data_1_split_0
I0712 10:36:07.358139 22064 net.cpp:409] loss -> loss
I0712 10:36:07.358152 22064 layer_factory.hpp:77] Creating layer loss
I0712 10:36:07.428561 22064 net.cpp:144] Setting up loss
I0712 10:36:07.428586 22064 net.cpp:151] Top shape: (1)
I0712 10:36:07.428589 22064 net.cpp:154]     with loss weight 1
I0712 10:36:07.428617 22064 net.cpp:159] Memory required for data: 4206493700
I0712 10:36:07.428622 22064 layer_factory.hpp:77] Creating layer acc
I0712 10:36:07.428635 22064 net.cpp:94] Creating Layer acc
I0712 10:36:07.428642 22064 net.cpp:435] acc <- ConvNd_85_ConvNd_85_0_split_1
I0712 10:36:07.428648 22064 net.cpp:435] acc <- label_data_1_split_1
I0712 10:36:07.428655 22064 net.cpp:409] acc -> acc
I0712 10:36:07.428666 22064 net.cpp:409] acc -> per_acc
I0712 10:36:07.428710 22064 net.cpp:144] Setting up acc
I0712 10:36:07.428717 22064 net.cpp:151] Top shape: (1)
I0712 10:36:07.428721 22064 net.cpp:151] Top shape: 19 (19)
I0712 10:36:07.428725 22064 net.cpp:159] Memory required for data: 4206493780
I0712 10:36:07.428728 22064 net.cpp:222] acc does not need backward computation.
I0712 10:36:07.428735 22064 net.cpp:220] loss needs backward computation.
I0712 10:36:07.428740 22064 net.cpp:220] ConvNd_85_ConvNd_85_0_split needs backward computation.
I0712 10:36:07.428745 22064 net.cpp:220] ConvNd_85 needs backward computation.
…
