…
I0224 06:46:01.505411   569 decent_q.cpp:616] GPU device name: GeForce GTX 1080 Ti
I0224 06:46:02.211838   569 net.cpp:369] The NetState phase (1) differed from the phase (0) specified by a rule in layer data
I0224 06:46:02.211977   569 net.cpp:98] Initializing net from parameters: 
layer {
  name: "data"
  type: "ImageSegData"
  top: "data"
  top: "label"
  include {
    phase: TEST
  }
  transform_param {
    scale: 0.022
    mean_value: 73
    mean_value: 82
    mean_value: 72
  }
  image_data_param {
    source: "/workspace/Segment/VAI/data/val_img_seg_nomap.txt"
    batch_size: 1
    shuffle: false
  }
}
layer {
  name: "resize_down"
  type: "DeephiResize"
  bottom: "data"
  top: "data"
  include {
    phase: TEST
  }
  deephi_resize_param {
    resize_type: BILINEAR
    new_height: 512
    new_width: 1024
  }
}
layer {
  name: "ConvNd_1"
  type: "Convolution"
  bottom: "data"
  top: "ConvNd_1"
  convolution_param {
    num_output: 13
    bias_term: false
    pad: 1
    kernel_size: 3
    group: 1
    stride: 2
    dilation: 1
  }
}
layer {
  name: "MaxPool2d_1"
  type: "Pooling"
  bottom: "data"
  top: "MaxPool2d_1"
  pooling_param {
    pool: MAX
    kernel_size: 3
    stride: 2
    pad: 0
  }
}
layer {
  name: "Concat_1"
  type: "Concat"
  bottom: "ConvNd_1"
  bottom: "MaxPool2d_1"
  top: "Concat_1"
  concat_param {
    axis: 1
  }
}
layer {
  name: "BatchNorm_1"
  type: "BatchNorm"
  bottom: "Concat_1"
  top: "BatchNorm_1"
  param {
    lr_mult: 1
    decay_mult: 0
  }
  param {
    lr_mult: 1
    decay_mult: 0
  }
  param {
    lr_mult: 0
    decay_mult: 0
  }
  param {
    lr_mult: 0
    decay_mult: 0
  }
  batch_norm_param {
    use_global_stats: false
    eps: 1e-05
    scale_filler {
      type: "constant"
      value: 1
    }
    bias_filler {
      type: "constant"
      value: 0
    }
  }
}
layer {
  name: "Threshold_1"
  type: "ReLU"
  bottom: "BatchNorm_1"
  top: "BatchNorm_1"
}
layer {
  name: "MaxPool2d_2"
  type: "Pooling"
  bottom: "BatchNorm_1"
  top: "MaxPool2d_2"
  pooling_param {
    pool: MAX
    kernel_size: 3
    stride: 2
    pad: 0
  }
}
layer {
  name: "ConvNd_2"
  type: "Convolution"
  bottom: "MaxPool2d_2"
  top: "ConvNd_2"
  convolution_param {
    num_output: 64
    bias_term: false
    pad: 0
    kernel_size: 1
    group: 1
    stride: 1
    dilation: 1
  }
}
layer {
  name: "ConvNd_3"
  type: "Convolution"
  bottom: "BatchNorm_1"
  top: "ConvNd_3"
  convolution_param {
    num_output: 16
    bias_term: false
    pad: 0
    kernel_size: 2
    group: 1
    stride: 2
    dilation: 1
  }
}
layer {
  name: "BatchNorm_2"
  type: "BatchNorm"
  bottom: "ConvNd_3"
  top: "BatchNorm_2"
  param {
    lr_mult: 1
    decay_mult: 0
  }
  param {
    lr_mult: 1
    decay_mult: 0
  }
  param {
    lr_mult: 0
    decay_mult: 0
  }
  param {
    lr_mult: 0
    decay_mult: 0
  }
  batch_norm_param {
    use_global_stats: false
    eps: 1e-05
    scale_filler {
      type: "constant"
      value: 1
    }
    bias_filler {
      type: "constant"
      value: 0
    }
  }
}
layer {
  name: "Threshold_2"
  type: "ReLU"
  bottom: "BatchNorm_2"
  top: "BatchNorm_2"
}
layer {
  name: "ConvNd_4"
  type: "Convolution"
  bottom: "BatchNorm_2"
  top: "ConvNd_4"
  convolution_param {
    num_output: 16
    bias_term: false
    pad: 1
    kernel_size: 3
    group: 1
    stride: 1
    dilation: 1
  }
}
layer {
  name: "BatchNorm_3"
  type: "BatchNorm"
  bottom: "ConvNd_4"
  top: "BatchNorm_3"
  param {
    lr_mult: 1
    decay_mult: 0
  }
  param {
    lr_mult: 1
    decay_mult: 0
  }
  param {
    lr_mult: 0
    decay_mult: 0
  }
  param {
    lr_mult: 0
    decay_mult: 0
  }
  batch_norm_param {
    use_global_stats: false
    eps: 1e-05
    scale_filler {
      type: "constant"
      value: 1
    }
    bias_filler {
      type: "constant"
      value: 0
    }
  }
}
layer {
  name: "Threshold_3"
  type: "ReLU"
  bottom: "BatchNorm_3"
  top: "BatchNorm_3"
}
layer {
  name: "ConvNd_5"
  type: "Convolution"
  bottom: "BatchNorm_3"
  top: "ConvNd_5"
  convolution_param {
    num_output: 64
    bias_term: false
    pad: 0
    kernel_size: 1
    group: 1
    stride: 1
    dilation: 1
  }
}
layer {
  name: "BatchNorm_4"
  type: "BatchNorm"
  bottom: "ConvNd_5"
  top: "BatchNorm_4"
  param {
    lr_mult: 1
    decay_mult: 0
  }
  param {
    lr_mult: 1
    decay_mult: 0
  }
  param {
    lr_mult: 0
    decay_mult: 0
  }
  param {
    lr_mult: 0
    decay_mult: 0
  }
  batch_norm_param {
    use_global_stats: false
    eps: 1e-05
    scale_filler {
      type: "constant"
      value: 1
    }
    bias_filler {
      type: "constant"
      value: 0
    }
  }
}
layer {
  name: "Threshold_4"
  type: "ReLU"
  bottom: "BatchNorm_4"
  top: "BatchNorm_4"
}
layer {
  name: "Add_1"
  type: "Eltwise"
  bottom: "ConvNd_2"
  bottom: "BatchNorm_4"
  top: "Add_1"
}
layer {
  name: "Threshold_5"
  type: "ReLU"
  bottom: "Add_1"
  top: "Add_1"
}
layer {
  name: "ConvNd_6"
  type: "Convolution"
  bottom: "Add_1"
  top: "ConvNd_6"
  convolution_param {
    num_output: 16
    bias_term: false
    pad: 0
    kernel_size: 1
    group: 1
    stride: 1
    dilation: 1
  }
}
layer {
  name: "BatchNorm_5"
  type: "BatchNorm"
  bottom: "ConvNd_6"
  top: "BatchNorm_5"
  param {
    lr_mult: 1
    decay_mult: 0
  }
  param {
    lr_mult: 1
    decay_mult: 0
  }
  param {
    lr_mult: 0
    decay_mult: 0
  }
  param {
    lr_mult: 0
    decay_mult: 0
  }
  batch_norm_param {
    use_global_stats: false
    eps: 1e-05
    scale_filler {
      type: "constant"
      value: 1
    }
    bias_filler {
      type: "constant"
      value: 0
    }
  }
}
layer {
  name: "Threshold_6"
  type: "ReLU"
  bottom: "BatchNorm_5"
  top: "BatchNorm_5"
}
layer {
  name: "ConvNd_7"
  type: "Convolution"
  bottom: "BatchNorm_5"
  top: "ConvNd_7"
  convolution_param {
    num_output: 16
    bias_term: false
    pad: 1
    kernel_size: 3
    group: 1
    stride: 1
    dilation: 1
  }
}
layer {
  name: "BatchNorm_6"
  type: "BatchNorm"
  bottom: "ConvNd_7"
  top: "BatchNorm_6"
  param {
    lr_mult: 1
    decay_mult: 0
  }
  param {
    lr_mult: 1
    decay_mult: 0
  }
  param {
    lr_mult: 0
    decay_mult: 0
  }
  param {
    lr_mult: 0
    decay_mult: 0
  }
  batch_norm_param {
    use_global_stats: false
    eps: 1e-05
    scale_filler {
      type: "constant"
      value: 1
    }
    bias_filler {
      type: "constant"
      value: 0
    }
  }
}
layer {
  name: "Threshold_7"
  type: "ReLU"
  bottom: "BatchNorm_6"
  top: "BatchNorm_6"
}
layer {
  name: "ConvNd_8"
  type: "Convolution"
  bottom: "BatchNorm_6"
  top: "ConvNd_8"
  convolution_param {
    num_output: 64
    bias_term: false
    pad: 0
    kernel_size: 1
    group: 1
    stride: 1
    dilation: 1
  }
}
layer {
  name: "BatchNorm_7"
  type: "BatchNorm"
  bottom: "ConvNd_8"
  top: "BatchNorm_7"
  param {
    lr_mult: 1
    decay_mult: 0
  }
  param {
    lr_mult: 1
    decay_mult: 0
  }
  param {
    lr_mult: 0
    decay_mult: 0
  }
  param {
    lr_mult: 0
    decay_mult: 0
  }
  batch_norm_param {
    use_global_stats: false
    eps: 1e-05
    scale_filler {
      type: "constant"
      value: 1
    }
    bias_filler {
      type: "constant"
      value: 0
    }
  }
}
layer {
  name: "Threshold_8"
  type: "ReLU"
  bottom: "BatchNorm_7"
  top: "BatchNorm_7"
}
layer {
  name: "Add_2"
  type: "Eltwise"
  bottom: "Add_1"
  bottom: "BatchNorm_7"
  top: "Add_2"
}
layer {
  name: "Threshold_9"
  type: "ReLU"
  bottom: "Add_2"
  top: "Add_2"
}
layer {
  name: "ConvNd_9"
  type: "Convolution"
  bottom: "Add_2"
  top: "ConvNd_9"
  convolution_param {
    num_output: 16
    bias_term: false
    pad: 0
    kernel_size: 1
    group: 1
    stride: 1
    dilation: 1
  }
}
layer {
  name: "BatchNorm_8"
  type: "BatchNorm"
  bottom: "ConvNd_9"
  top: "BatchNorm_8"
  param {
    lr_mult: 1
    decay_mult: 0
  }
  param {
    lr_mult: 1
    decay_mult: 0
  }
  param {
    lr_mult: 0
    decay_mult: 0
  }
  param {
    lr_mult: 0
    decay_mult: 0
  }
  batch_norm_param {
    use_global_stats: false
    eps: 1e-05
    scale_filler {
      type: "constant"
      value: 1
    }
    bias_filler {
      type: "constant"
      value: 0
    }
  }
}
layer {
  name: "Threshold_10"
  type: "ReLU"
  bottom: "BatchNorm_8"
  top: "BatchNorm_8"
}
layer {
  name: "ConvNd_10"
  type: "Convolution"
  bottom: "BatchNorm_8"
  top: "ConvNd_10"
  convolution_param {
    num_output: 16
    bias_term: false
    pad: 1
    kernel_size: 3
    group: 1
    stride: 1
    dilation: 1
  }
}
layer {
  name: "BatchNorm_9"
  type: "BatchNorm"
  bottom: "ConvNd_10"
  top: "BatchNorm_9"
  param {
    lr_mult: 1
    decay_mult: 0
  }
  param {
    lr_mult: 1
    decay_mult: 0
  }
  param {
    lr_mult: 0
    decay_mult: 0
  }
  param {
    lr_mult: 0
    decay_mult: 0
  }
  batch_norm_param {
    use_global_stats: false
    eps: 1e-05
    scale_filler {
      type: "constant"
      value: 1
    }
    bias_filler {
      type: "constant"
      value: 0
    }
  }
}
layer {
  name: "Threshold_11"
  type: "ReLU"
  bottom: "BatchNorm_9"
  top: "BatchNorm_9"
}
layer {
  name: "ConvNd_11"
  type: "Convolution"
  bottom: "BatchNorm_9"
  top: "ConvNd_11"
  convolution_param {
    num_output: 64
    bias_term: false
    pad: 0
    kernel_size: 1
    group: 1
    stride: 1
    dilation: 1
  }
}
layer {
  name: "BatchNorm_10"
  type: "BatchNorm"
  bottom: "ConvNd_11"
  top: "BatchNorm_10"
  param {
    lr_mult: 1
    decay_mult: 0
  }
  param {
    lr_mult: 1
    decay_mult: 0
  }
  param {
    lr_mult: 0
    decay_mult: 0
  }
  param {
    lr_mult: 0
    decay_mult: 0
  }
  batch_norm_param {
    use_global_stats: false
    eps: 1e-05
    scale_filler {
      type: "constant"
      value: 1
    }
    bias_filler {
      type: "constant"
      value: 0
    }
  }
}
layer {
  name: "Threshold_12"
  type: "ReLU"
  bottom: "BatchNorm_10"
  top: "BatchNorm_10"
}
layer {
  name: "Add_3"
  type: "Eltwise"
  bottom: "Add_2"
  bottom: "BatchNorm_10"
  top: "Add_3"
}
layer {
  name: "Threshold_13"
  type: "ReLU"
  bottom: "Add_3"
  top: "Add_3"
}
layer {
  name: "ConvNd_12"
  type: "Convolution"
  bottom: "Add_3"
  top: "ConvNd_12"
  convolution_param {
    num_output: 16
    bias_term: false
    pad: 0
    kernel_size: 1
    group: 1
    stride: 1
    dilation: 1
  }
}
layer {
  name: "BatchNorm_11"
  type: "BatchNorm"
  bottom: "ConvNd_12"
  top: "BatchNorm_11"
  param {
    lr_mult: 1
    decay_mult: 0
  }
  param {
    lr_mult: 1
    decay_mult: 0
  }
  param {
    lr_mult: 0
    decay_mult: 0
  }
  param {
    lr_mult: 0
    decay_mult: 0
  }
  batch_norm_param {
    use_global_stats: false
    eps: 1e-05
    scale_filler {
      type: "constant"
      value: 1
    }
    bias_filler {
      type: "constant"
      value: 0
    }
  }
}
layer {
  name: "Threshold_14"
  type: "ReLU"
  bottom: "BatchNorm_11"
  top: "BatchNorm_11"
}
layer {
  name: "ConvNd_13"
  type: "Convolution"
  bottom: "BatchNorm_11"
  top: "ConvNd_13"
  convolution_param {
    num_output: 16
    bias_term: false
    pad: 1
    kernel_size: 3
    group: 1
    stride: 1
    dilation: 1
  }
}
layer {
  name: "BatchNorm_12"
  type: "BatchNorm"
  bottom: "ConvNd_13"
  top: "BatchNorm_12"
  param {
    lr_mult: 1
    decay_mult: 0
  }
  param {
    lr_mult: 1
    decay_mult: 0
  }
  param {
    lr_mult: 0
    decay_mult: 0
  }
  param {
    lr_mult: 0
    decay_mult: 0
  }
  batch_norm_param {
    use_global_stats: false
    eps: 1e-05
    scale_filler {
      type: "constant"
      value: 1
    }
    bias_filler {
      type: "constant"
      value: 0
    }
  }
}
layer {
  name: "Threshold_15"
  type: "ReLU"
  bottom: "BatchNorm_12"
  top: "BatchNorm_12"
}
layer {
  name: "ConvNd_14"
  type: "Convolution"
  bottom: "BatchNorm_12"
  top: "ConvNd_14"
  convolution_param {
    num_output: 64
    bias_term: false
    pad: 0
    kernel_size: 1
    group: 1
    stride: 1
    dilation: 1
  }
}
layer {
  name: "BatchNorm_13"
  type: "BatchNorm"
  bottom: "ConvNd_14"
  top: "BatchNorm_13"
  param {
    lr_mult: 1
    decay_mult: 0
  }
  param {
    lr_mult: 1
    decay_mult: 0
  }
  param {
    lr_mult: 0
    decay_mult: 0
  }
  param {
    lr_mult: 0
    decay_mult: 0
  }
  batch_norm_param {
    use_global_stats: false
    eps: 1e-05
    scale_filler {
      type: "constant"
      value: 1
    }
    bias_filler {
      type: "constant"
      value: 0
    }
  }
}
layer {
  name: "Threshold_16"
  type: "ReLU"
  bottom: "BatchNorm_13"
  top: "BatchNorm_13"
}
layer {
  name: "Add_4"
  type: "Eltwise"
  bottom: "Add_3"
  bottom: "BatchNorm_13"
  top: "Add_4"
}
layer {
  name: "Threshold_17"
  type: "ReLU"
  bottom: "Add_4"
  top: "Add_4"
}
layer {
  name: "ConvNd_15"
  type: "Convolution"
  bottom: "Add_4"
  top: "ConvNd_15"
  convolution_param {
    num_output: 16
    bias_term: false
    pad: 0
    kernel_size: 1
    group: 1
    stride: 1
    dilation: 1
  }
}
layer {
  name: "BatchNorm_14"
  type: "BatchNorm"
  bottom: "ConvNd_15"
  top: "BatchNorm_14"
  param {
    lr_mult: 1
    decay_mult: 0
  }
  param {
    lr_mult: 1
    decay_mult: 0
  }
  param {
    lr_mult: 0
    decay_mult: 0
  }
  param {
    lr_mult: 0
    decay_mult: 0
  }
  batch_norm_param {
    use_global_stats: false
    eps: 1e-05
    scale_filler {
      type: "constant"
      value: 1
    }
    bias_filler {
      type: "constant"
      value: 0
    }
  }
}
layer {
  name: "Threshold_18"
  type: "ReLU"
  bottom: "BatchNorm_14"
  top: "BatchNorm_14"
}
layer {
  name: "ConvNd_16"
  type: "Convolution"
  bottom: "BatchNorm_14"
  top: "ConvNd_16"
  convolution_param {
    num_output: 16
    bias_term: false
    pad: 1
    kernel_size: 3
    group: 1
    stride: 1
    dilation: 1
  }
}
layer {
  name: "BatchNorm_15"
  type: "BatchNorm"
  bottom: "ConvNd_16"
  top: "BatchNorm_15"
  param {
    lr_mult: 1
    decay_mult: 0
  }
  param {
    lr_mult: 1
    decay_mult: 0
  }
  param {
    lr_mult: 0
    decay_mult: 0
  }
  param {
    lr_mult: 0
    decay_mult: 0
  }
  batch_norm_param {
    use_global_stats: false
    eps: 1e-05
    scale_filler {
      type: "constant"
      value: 1
    }
    bias_filler {
      type: "constant"
      value: 0
    }
  }
}
layer {
  name: "Threshold_19"
  type: "ReLU"
  bottom: "BatchNorm_15"
  top: "BatchNorm_15"
}
layer {
  name: "ConvNd_17"
  type: "Convolution"
  bottom: "BatchNorm_15"
  top: "ConvNd_17"
  convolution_param {
    num_output: 64
    bias_term: false
    pad: 0
    kernel_size: 1
    group: 1
    stride: 1
    dilation: 1
  }
}
layer {
  name: "BatchNorm_16"
  type: "BatchNorm"
  bottom: "ConvNd_17"
  top: "BatchNorm_16"
  param {
    lr_mult: 1
    decay_mult: 0
  }
  param {
    lr_mult: 1
    decay_mult: 0
  }
  param {
    lr_mult: 0
    decay_mult: 0
  }
  param {
    lr_mult: 0
    decay_mult: 0
  }
  batch_norm_param {
    use_global_stats: false
    eps: 1e-05
    scale_filler {
      type: "constant"
      value: 1
    }
    bias_filler {
      type: "constant"
      value: 0
    }
  }
}
layer {
  name: "Threshold_20"
  type: "ReLU"
  bottom: "BatchNorm_16"
  top: "BatchNorm_16"
}
layer {
  name: "Add_5"
  type: "Eltwise"
  bottom: "Add_4"
  bottom: "BatchNorm_16"
  top: "Add_5"
}
layer {
  name: "Threshold_21"
  type: "ReLU"
  bottom: "Add_5"
  top: "Add_5"
}
layer {
  name: "MaxPool2d_3"
  type: "Pooling"
  bottom: "Add_5"
  top: "MaxPool2d_3"
  pooling_param {
    pool: MAX
    kernel_size: 3
    stride: 2
    pad: 0
  }
}
layer {
  name: "ConvNd_18"
  type: "Convolution"
  bottom: "MaxPool2d_3"
  top: "ConvNd_18"
  convolution_param {
    num_output: 128
    bias_term: false
    pad: 0
    kernel_size: 1
    group: 1
    stride: 1
    dilation: 1
  }
}
layer {
  name: "ConvNd_19"
  type: "Convolution"
  bottom: "Add_5"
  top: "ConvNd_19"
  convolution_param {
    num_output: 32
    bias_term: false
    pad: 0
    kernel_size: 2
    group: 1
    stride: 2
    dilation: 1
  }
}
layer {
  name: "BatchNorm_17"
  type: "BatchNorm"
  bottom: "ConvNd_19"
  top: "BatchNorm_17"
  param {
    lr_mult: 1
    decay_mult: 0
  }
  param {
    lr_mult: 1
    decay_mult: 0
  }
  param {
    lr_mult: 0
    decay_mult: 0
  }
  param {
    lr_mult: 0
    decay_mult: 0
  }
  batch_norm_param {
    use_global_stats: false
    eps: 1e-05
    scale_filler {
      type: "constant"
      value: 1
    }
    bias_filler {
      type: "constant"
      value: 0
    }
  }
}
layer {
  name: "Threshold_22"
  type: "ReLU"
  bottom: "BatchNorm_17"
  top: "BatchNorm_17"
}
layer {
  name: "ConvNd_20"
  type: "Convolution"
  bottom: "BatchNorm_17"
  top: "ConvNd_20"
  convolution_param {
    num_output: 32
    bias_term: false
    pad: 1
    kernel_size: 3
    group: 1
    stride: 1
    dilation: 1
  }
}
layer {
  name: "BatchNorm_18"
  type: "BatchNorm"
  bottom: "ConvNd_20"
  top: "BatchNorm_18"
  param {
    lr_mult: 1
    decay_mult: 0
  }
  param {
    lr_mult: 1
    decay_mult: 0
  }
  param {
    lr_mult: 0
    decay_mult: 0
  }
  param {
    lr_mult: 0
    decay_mult: 0
  }
  batch_norm_param {
    use_global_stats: false
    eps: 1e-05
    scale_filler {
      type: "constant"
      value: 1
    }
    bias_filler {
      type: "constant"
      value: 0
    }
  }
}
layer {
  name: "Threshold_23"
  type: "ReLU"
  bottom: "BatchNorm_18"
  top: "BatchNorm_18"
}
layer {
  name: "ConvNd_21"
  type: "Convolution"
  bottom: "BatchNorm_18"
  top: "ConvNd_21"
  convolution_param {
    num_output: 128
    bias_term: false
    pad: 0
    kernel_size: 1
    group: 1
    stride: 1
    dilation: 1
  }
}
layer {
  name: "BatchNorm_19"
  type: "BatchNorm"
  bottom: "ConvNd_21"
  top: "BatchNorm_19"
  param {
    lr_mult: 1
    decay_mult: 0
  }
  param {
    lr_mult: 1
    decay_mult: 0
  }
  param {
    lr_mult: 0
    decay_mult: 0
  }
  param {
    lr_mult: 0
    decay_mult: 0
  }
  batch_norm_param {
    use_global_stats: false
    eps: 1e-05
    scale_filler {
      type: "constant"
      value: 1
    }
    bias_filler {
      type: "constant"
      value: 0
    }
  }
}
layer {
  name: "Threshold_24"
  type: "ReLU"
  bottom: "BatchNorm_19"
  top: "BatchNorm_19"
}
layer {
  name: "Add_6"
  type: "Eltwise"
  bottom: "ConvNd_18"
  bottom: "BatchNorm_19"
  top: "Add_6"
}
layer {
  name: "Threshold_25"
  type: "ReLU"
  bottom: "Add_6"
  top: "Add_6"
}
layer {
  name: "ConvNd_22"
  type: "Convolution"
  bottom: "Add_6"
  top: "ConvNd_22"
  convolution_param {
    num_output: 32
    bias_term: false
    pad: 0
    kernel_size: 1
    group: 1
    stride: 1
    dilation: 1
  }
}
layer {
  name: "BatchNorm_20"
  type: "BatchNorm"
  bottom: "ConvNd_22"
  top: "BatchNorm_20"
  param {
    lr_mult: 1
    decay_mult: 0
  }
  param {
    lr_mult: 1
    decay_mult: 0
  }
  param {
    lr_mult: 0
    decay_mult: 0
  }
  param {
    lr_mult: 0
    decay_mult: 0
  }
  batch_norm_param {
    use_global_stats: false
    eps: 1e-05
    scale_filler {
      type: "constant"
      value: 1
    }
    bias_filler {
      type: "constant"
      value: 0
    }
  }
}
layer {
  name: "Threshold_26"
  type: "ReLU"
  bottom: "BatchNorm_20"
  top: "BatchNorm_20"
}
layer {
  name: "ConvNd_23"
  type: "Convolution"
  bottom: "BatchNorm_20"
  top: "ConvNd_23"
  convolution_param {
    num_output: 32
    bias_term: false
    pad: 1
    kernel_size: 3
    group: 1
    stride: 1
    dilation: 1
  }
}
layer {
  name: "BatchNorm_21"
  type: "BatchNorm"
  bottom: "ConvNd_23"
  top: "BatchNorm_21"
  param {
    lr_mult: 1
    decay_mult: 0
  }
  param {
    lr_mult: 1
    decay_mult: 0
  }
  param {
    lr_mult: 0
    decay_mult: 0
  }
  param {
    lr_mult: 0
    decay_mult: 0
  }
  batch_norm_param {
    use_global_stats: false
    eps: 1e-05
    scale_filler {
      type: "constant"
      value: 1
    }
    bias_filler {
      type: "constant"
      value: 0
    }
  }
}
layer {
  name: "Threshold_27"
  type: "ReLU"
  bottom: "BatchNorm_21"
  top: "BatchNorm_21"
}
layer {
  name: "ConvNd_24"
  type: "Convolution"
  bottom: "BatchNorm_21"
  top: "ConvNd_24"
  convolution_param {
    num_output: 128
    bias_term: false
    pad: 0
    kernel_size: 1
    group: 1
    stride: 1
    dilation: 1
  }
}
layer {
  name: "BatchNorm_22"
  type: "BatchNorm"
  bottom: "ConvNd_24"
  top: "BatchNorm_22"
  param {
    lr_mult: 1
    decay_mult: 0
  }
  param {
    lr_mult: 1
    decay_mult: 0
  }
  param {
    lr_mult: 0
    decay_mult: 0
  }
  param {
    lr_mult: 0
    decay_mult: 0
  }
  batch_norm_param {
    use_global_stats: false
    eps: 1e-05
    scale_filler {
      type: "constant"
      value: 1
    }
    bias_filler {
      type: "constant"
      value: 0
    }
  }
}
layer {
  name: "Threshold_28"
  type: "ReLU"
  bottom: "BatchNorm_22"
  top: "BatchNorm_22"
}
layer {
  name: "Add_7"
  type: "Eltwise"
  bottom: "Add_6"
  bottom: "BatchNorm_22"
  top: "Add_7"
}
layer {
  name: "Threshold_29"
  type: "ReLU"
  bottom: "Add_7"
  top: "Add_7"
}
layer {
  name: "ConvNd_25"
  type: "Convolution"
  bottom: "Add_7"
  top: "ConvNd_25"
  convolution_param {
    num_output: 32
    bias_term: false
    pad: 0
    kernel_size: 1
    group: 1
    stride: 1
    dilation: 1
  }
}
layer {
  name: "BatchNorm_23"
  type: "BatchNorm"
  bottom: "ConvNd_25"
  top: "BatchNorm_23"
  param {
    lr_mult: 1
    decay_mult: 0
  }
  param {
    lr_mult: 1
    decay_mult: 0
  }
  param {
    lr_mult: 0
    decay_mult: 0
  }
  param {
    lr_mult: 0
    decay_mult: 0
  }
  batch_norm_param {
    use_global_stats: false
    eps: 1e-05
    scale_filler {
      type: "constant"
      value: 1
    }
    bias_filler {
      type: "constant"
      value: 0
    }
  }
}
layer {
  name: "Threshold_30"
  type: "ReLU"
  bottom: "BatchNorm_23"
  top: "BatchNorm_23"
}
layer {
  name: "ConvNd_26"
  type: "Convolution"
  bottom: "BatchNorm_23"
  top: "ConvNd_26"
  convolution_param {
    num_output: 32
    bias_term: false
    pad: 2
    kernel_size: 3
    group: 1
    stride: 1
    dilation: 2
  }
}
layer {
  name: "BatchNorm_24"
  type: "BatchNorm"
  bottom: "ConvNd_26"
  top: "BatchNorm_24"
  param {
    lr_mult: 1
    decay_mult: 0
  }
  param {
    lr_mult: 1
    decay_mult: 0
  }
  param {
    lr_mult: 0
    decay_mult: 0
  }
  param {
    lr_mult: 0
    decay_mult: 0
  }
  batch_norm_param {
    use_global_stats: false
    eps: 1e-05
    scale_filler {
      type: "constant"
      value: 1
    }
    bias_filler {
      type: "constant"
      value: 0
    }
  }
}
layer {
  name: "Threshold_31"
  type: "ReLU"
  bottom: "BatchNorm_24"
  top: "BatchNorm_24"
}
layer {
  name: "ConvNd_27"
  type: "Convolution"
  bottom: "BatchNorm_24"
  top: "ConvNd_27"
  convolution_param {
    num_output: 128
    bias_term: false
    pad: 0
    kernel_size: 1
    group: 1
    stride: 1
    dilation: 1
  }
}
layer {
  name: "BatchNorm_25"
  type: "BatchNorm"
  bottom: "ConvNd_27"
  top: "BatchNorm_25"
  param {
    lr_mult: 1
    decay_mult: 0
  }
  param {
    lr_mult: 1
    decay_mult: 0
  }
  param {
    lr_mult: 0
    decay_mult: 0
  }
  param {
    lr_mult: 0
    decay_mult: 0
  }
  batch_norm_param {
    use_global_stats: false
    eps: 1e-05
    scale_filler {
      type: "constant"
      value: 1
    }
    bias_filler {
      type: "constant"
      value: 0
    }
  }
}
layer {
  name: "Threshold_32"
  type: "ReLU"
  bottom: "BatchNorm_25"
  top: "BatchNorm_25"
}
layer {
  name: "Add_8"
  type: "Eltwise"
  bottom: "Add_7"
  bottom: "BatchNorm_25"
  top: "Add_8"
}
layer {
  name: "Threshold_33"
  type: "ReLU"
  bottom: "Add_8"
  top: "Add_8"
}
layer {
  name: "ConvNd_28"
  type: "Convolution"
  bottom: "Add_8"
  top: "ConvNd_28"
  convolution_param {
    num_output: 32
    bias_term: false
    pad: 0
    kernel_size: 1
    group: 1
    stride: 1
    dilation: 1
  }
}
layer {
  name: "BatchNorm_26"
  type: "BatchNorm"
  bottom: "ConvNd_28"
  top: "BatchNorm_26"
  param {
    lr_mult: 1
    decay_mult: 0
  }
  param {
    lr_mult: 1
    decay_mult: 0
  }
  param {
    lr_mult: 0
    decay_mult: 0
  }
  param {
    lr_mult: 0
    decay_mult: 0
  }
  batch_norm_param {
    use_global_stats: false
    eps: 1e-05
    scale_filler {
      type: "constant"
      value: 1
    }
    bias_filler {
      type: "constant"
      value: 0
    }
  }
}
layer {
  name: "Threshold_34"
  type: "ReLU"
  bottom: "BatchNorm_26"
  top: "BatchNorm_26"
}
layer {
  name: "ConvNd_29"
  type: "Convolution"
  bottom: "BatchNorm_26"
  top: "ConvNd_29"
  convolution_param {
    num_output: 32
    bias_term: false
    group: 1
    stride: 1
    pad_h: 2
    pad_w: 0
    kernel_h: 5
    kernel_w: 1
    dilation: 1
  }
}
layer {
  name: "BatchNorm_27"
  type: "BatchNorm"
  bottom: "ConvNd_29"
  top: "BatchNorm_27"
  param {
    lr_mult: 1
    decay_mult: 0
  }
  param {
    lr_mult: 1
    decay_mult: 0
  }
  param {
    lr_mult: 0
    decay_mult: 0
  }
  param {
    lr_mult: 0
    decay_mult: 0
  }
  batch_norm_param {
    use_global_stats: false
    eps: 1e-05
    scale_filler {
      type: "constant"
      value: 1
    }
    bias_filler {
      type: "constant"
      value: 0
    }
  }
}
layer {
  name: "Threshold_35"
  type: "ReLU"
  bottom: "BatchNorm_27"
  top: "BatchNorm_27"
}
layer {
  name: "ConvNd_30"
  type: "Convolution"
  bottom: "BatchNorm_27"
  top: "ConvNd_30"
  convolution_param {
    num_output: 32
    bias_term: false
    group: 1
    stride: 1
    pad_h: 0
    pad_w: 2
    kernel_h: 1
    kernel_w: 5
    dilation: 1
  }
}
layer {
  name: "BatchNorm_28"
  type: "BatchNorm"
  bottom: "ConvNd_30"
  top: "BatchNorm_28"
  param {
    lr_mult: 1
    decay_mult: 0
  }
  param {
    lr_mult: 1
    decay_mult: 0
  }
  param {
    lr_mult: 0
    decay_mult: 0
  }
  param {
    lr_mult: 0
    decay_mult: 0
  }
  batch_norm_param {
    use_global_stats: false
    eps: 1e-05
    scale_filler {
      type: "constant"
      value: 1
    }
    bias_filler {
      type: "constant"
      value: 0
    }
  }
}
layer {
  name: "Threshold_36"
  type: "ReLU"
  bottom: "BatchNorm_28"
  top: "BatchNorm_28"
}
layer {
  name: "ConvNd_31"
  type: "Convolution"
  bottom: "BatchNorm_28"
  top: "ConvNd_31"
  convolution_param {
    num_output: 128
    bias_term: false
    pad: 0
    kernel_size: 1
    group: 1
    stride: 1
    dilation: 1
  }
}
layer {
  name: "BatchNorm_29"
  type: "BatchNorm"
  bottom: "ConvNd_31"
  top: "BatchNorm_29"
  param {
    lr_mult: 1
    decay_mult: 0
  }
  param {
    lr_mult: 1
    decay_mult: 0
  }
  param {
    lr_mult: 0
    decay_mult: 0
  }
  param {
    lr_mult: 0
    decay_mult: 0
  }
  batch_norm_param {
    use_global_stats: false
    eps: 1e-05
    scale_filler {
      type: "constant"
      value: 1
    }
    bias_filler {
      type: "constant"
      value: 0
    }
  }
}
layer {
  name: "Threshold_37"
  type: "ReLU"
  bottom: "BatchNorm_29"
  top: "BatchNorm_29"
}
layer {
  name: "Add_9"
  type: "Eltwise"
  bottom: "Add_8"
  bottom: "BatchNorm_29"
  top: "Add_9"
}
layer {
  name: "Threshold_38"
  type: "ReLU"
  bottom: "Add_9"
  top: "Add_9"
}
layer {
  name: "ConvNd_32"
  type: "Convolution"
  bottom: "Add_9"
  top: "ConvNd_32"
  convolution_param {
    num_output: 32
    bias_term: false
    pad: 0
    kernel_size: 1
    group: 1
    stride: 1
    dilation: 1
  }
}
layer {
  name: "BatchNorm_30"
  type: "BatchNorm"
  bottom: "ConvNd_32"
  top: "BatchNorm_30"
  param {
    lr_mult: 1
    decay_mult: 0
  }
  param {
    lr_mult: 1
    decay_mult: 0
  }
  param {
    lr_mult: 0
    decay_mult: 0
  }
  param {
    lr_mult: 0
    decay_mult: 0
  }
  batch_norm_param {
    use_global_stats: false
    eps: 1e-05
    scale_filler {
      type: "constant"
      value: 1
    }
    bias_filler {
      type: "constant"
      value: 0
    }
  }
}
layer {
  name: "Threshold_39"
  type: "ReLU"
  bottom: "BatchNorm_30"
  top: "BatchNorm_30"
}
layer {
  name: "ConvNd_33"
  type: "Convolution"
  bottom: "BatchNorm_30"
  top: "ConvNd_33"
  convolution_param {
    num_output: 32
    bias_term: false
    pad: 4
    kernel_size: 3
    group: 1
    stride: 1
    dilation: 4
  }
}
layer {
  name: "BatchNorm_31"
  type: "BatchNorm"
  bottom: "ConvNd_33"
  top: "BatchNorm_31"
  param {
    lr_mult: 1
    decay_mult: 0
  }
  param {
    lr_mult: 1
    decay_mult: 0
  }
  param {
    lr_mult: 0
    decay_mult: 0
  }
  param {
    lr_mult: 0
    decay_mult: 0
  }
  batch_norm_param {
    use_global_stats: false
    eps: 1e-05
    scale_filler {
      type: "constant"
      value: 1
    }
    bias_filler {
      type: "constant"
      value: 0
    }
  }
}
layer {
  name: "Threshold_40"
  type: "ReLU"
  bottom: "BatchNorm_31"
  top: "BatchNorm_31"
}
layer {
  name: "ConvNd_34"
  type: "Convolution"
  bottom: "BatchNorm_31"
  top: "ConvNd_34"
  convolution_param {
    num_output: 128
    bias_term: false
    pad: 0
    kernel_size: 1
    group: 1
    stride: 1
    dilation: 1
  }
}
layer {
  name: "BatchNorm_32"
  type: "BatchNorm"
  bottom: "ConvNd_34"
  top: "BatchNorm_32"
  param {
    lr_mult: 1
    decay_mult: 0
  }
  param {
    lr_mult: 1
    decay_mult: 0
  }
  param {
    lr_mult: 0
    decay_mult: 0
  }
  param {
    lr_mult: 0
    decay_mult: 0
  }
  batch_norm_param {
    use_global_stats: false
    eps: 1e-05
    scale_filler {
      type: "constant"
      value: 1
    }
    bias_filler {
      type: "constant"
      value: 0
    }
  }
}
layer {
  name: "Threshold_41"
  type: "ReLU"
  bottom: "BatchNorm_32"
  top: "BatchNorm_32"
}
layer {
  name: "Add_10"
  type: "Eltwise"
  bottom: "Add_9"
  bottom: "BatchNorm_32"
  top: "Add_10"
}
layer {
  name: "Threshold_42"
  type: "ReLU"
  bottom: "Add_10"
  top: "Add_10"
}
layer {
  name: "ConvNd_35"
  type: "Convolution"
  bottom: "Add_10"
  top: "ConvNd_35"
  convolution_param {
    num_output: 32
    bias_term: false
    pad: 0
    kernel_size: 1
    group: 1
    stride: 1
    dilation: 1
  }
}
layer {
  name: "BatchNorm_33"
  type: "BatchNorm"
  bottom: "ConvNd_35"
  top: "BatchNorm_33"
  param {
    lr_mult: 1
    decay_mult: 0
  }
  param {
    lr_mult: 1
    decay_mult: 0
  }
  param {
    lr_mult: 0
    decay_mult: 0
  }
  param {
    lr_mult: 0
    decay_mult: 0
  }
  batch_norm_param {
    use_global_stats: false
    eps: 1e-05
    scale_filler {
      type: "constant"
      value: 1
    }
    bias_
I0224 06:46:02.214109   569 layer_factory.hpp:123] Creating layer data
I0224 06:46:02.214133   569 net.cpp:140] Creating Layer data
I0224 06:46:02.214139   569 net.cpp:455] data -> data
I0224 06:46:02.214154   569 net.cpp:455] data -> label
I0224 06:46:02.214165   569 image_seg_data_layer.cpp:46] Opening file /workspace/Segment/VAI/data/val_img_seg_nomap.txt
I0224 06:46:02.214684   569 image_seg_data_layer.cpp:68] A total of 500 images.
I0224 06:46:02.278617   569 image_seg_data_layer.cpp:97] output data size: 1,3,1024,2048
I0224 06:46:02.410413   569 internal_thread.cpp:73] Starting internal thread(s) on GPU 0
I0224 06:46:02.410615   569 net.cpp:190] Setting up data
I0224 06:46:02.410624   569 net.cpp:197] Top shape: 1 3 1024 2048 (6291456)
I0224 06:46:02.410634   569 net.cpp:197] Top shape: 1 1 1024 2048 (2097152)
I0224 06:46:02.410638   569 net.cpp:205] Memory required for data: 33554432
I0224 06:46:02.410643   569 layer_factory.hpp:123] Creating layer resize_down
I0224 06:46:02.410660   569 net.cpp:140] Creating Layer resize_down
I0224 06:46:02.410665   569 net.cpp:481] resize_down <- data
I0224 06:46:02.410673   569 net.cpp:442] resize_down -> data (in-place)
I0224 06:46:02.410689   569 net.cpp:190] Setting up resize_down
I0224 06:46:02.410696   569 net.cpp:197] Top shape: 1 3 512 1024 (1572864)
I0224 06:46:02.410701   569 net.cpp:205] Memory required for data: 39845888
I0224 06:46:02.410703   569 layer_factory.hpp:123] Creating layer data_resize_down_0_split
I0224 06:46:02.410712   569 net.cpp:140] Creating Layer data_resize_down_0_split
I0224 06:46:02.410715   569 net.cpp:481] data_resize_down_0_split <- data
I0224 06:46:02.410720   569 net.cpp:455] data_resize_down_0_split -> data_resize_down_0_split_0
I0224 06:46:02.410727   569 net.cpp:455] data_resize_down_0_split -> data_resize_down_0_split_1
I0224 06:46:02.410778   569 net.cpp:190] Setting up data_resize_down_0_split
I0224 06:46:02.410784   569 net.cpp:197] Top shape: 1 3 512 1024 (1572864)
I0224 06:46:02.410789   569 net.cpp:197] Top shape: 1 3 512 1024 (1572864)
I0224 06:46:02.410792   569 net.cpp:205] Memory required for data: 52428800
I0224 06:46:02.410795   569 layer_factory.hpp:123] Creating layer ConvNd_1
I0224 06:46:02.410804   569 net.cpp:140] Creating Layer ConvNd_1
I0224 06:46:02.410807   569 net.cpp:481] ConvNd_1 <- data_resize_down_0_split_0
I0224 06:46:02.410811   569 net.cpp:455] ConvNd_1 -> ConvNd_1
I0224 06:46:02.411082   569 net.cpp:190] Setting up ConvNd_1
I0224 06:46:02.411090   569 net.cpp:197] Top shape: 1 13 256 512 (1703936)
I0224 06:46:02.411095   569 net.cpp:205] Memory required for data: 59244544
I0224 06:46:02.411116   569 layer_factory.hpp:123] Creating layer MaxPool2d_1
I0224 06:46:02.411126   569 net.cpp:140] Creating Layer MaxPool2d_1
I0224 06:46:02.411130   569 net.cpp:481] MaxPool2d_1 <- data_resize_down_0_split_1
I0224 06:46:02.411134   569 net.cpp:455] MaxPool2d_1 -> MaxPool2d_1
I0224 06:46:02.411170   569 net.cpp:190] Setting up MaxPool2d_1
I0224 06:46:02.411175   569 net.cpp:197] Top shape: 1 3 256 512 (393216)
I0224 06:46:02.411180   569 net.cpp:205] Memory required for data: 60817408
I0224 06:46:02.411183   569 layer_factory.hpp:123] Creating layer Concat_1
I0224 06:46:02.411191   569 net.cpp:140] Creating Layer Concat_1
I0224 06:46:02.411195   569 net.cpp:481] Concat_1 <- ConvNd_1
I0224 06:46:02.411198   569 net.cpp:481] Concat_1 <- MaxPool2d_1
I0224 06:46:02.411202   569 net.cpp:455] Concat_1 -> Concat_1
I0224 06:46:02.411221   569 net.cpp:190] Setting up Concat_1
I0224 06:46:02.411223   569 net.cpp:197] Top shape: 1 16 256 512 (2097152)
I0224 06:46:02.411227   569 net.cpp:205] Memory required for data: 69206016
I0224 06:46:02.411231   569 layer_factory.hpp:123] Creating layer BatchNorm_1
I0224 06:46:02.411238   569 net.cpp:140] Creating Layer BatchNorm_1
I0224 06:46:02.411242   569 net.cpp:481] BatchNorm_1 <- Concat_1
I0224 06:46:02.411247   569 net.cpp:455] BatchNorm_1 -> BatchNorm_1
I0224 06:46:02.411836   569 net.cpp:190] Setting up BatchNorm_1
I0224 06:46:02.411844   569 net.cpp:197] Top shape: 1 16 256 512 (2097152)
I0224 06:46:02.411849   569 net.cpp:205] Memory required for data: 77594624
I0224 06:46:02.411860   569 layer_factory.hpp:123] Creating layer Threshold_1
I0224 06:46:02.411865   569 net.cpp:140] Creating Layer Threshold_1
I0224 06:46:02.411870   569 net.cpp:481] Threshold_1 <- BatchNorm_1
I0224 06:46:02.411872   569 net.cpp:442] Threshold_1 -> BatchNorm_1 (in-place)
I0224 06:46:02.411882   569 net.cpp:190] Setting up Threshold_1
I0224 06:46:02.411885   569 net.cpp:197] Top shape: 1 16 256 512 (2097152)
I0224 06:46:02.411890   569 net.cpp:205] Memory required for data: 85983232
I0224 06:46:02.411892   569 layer_factory.hpp:123] Creating layer BatchNorm_1_Threshold_1_0_split
I0224 06:46:02.411898   569 net.cpp:140] Creating Layer BatchNorm_1_Threshold_1_0_split
I0224 06:46:02.411901   569 net.cpp:481] BatchNorm_1_Threshold_1_0_split <- BatchNorm_1
I0224 06:46:02.411906   569 net.cpp:455] BatchNorm_1_Threshold_1_0_split -> BatchNorm_1_Threshold_1_0_split_0
I0224 06:46:02.411911   569 net.cpp:455] BatchNorm_1_Threshold_1_0_split -> BatchNorm_1_Threshold_1_0_split_1
I0224 06:46:02.411937   569 net.cpp:190] Setting up BatchNorm_1_Threshold_1_0_split
I0224 06:46:02.411942   569 net.cpp:197] Top shape: 1 16 256 512 (2097152)
I0224 06:46:02.411947   569 net.cpp:197] Top shape: 1 16 256 512 (2097152)
I0224 06:46:02.411950   569 net.cpp:205] Memory required for data: 102760448
I0224 06:46:02.411953   569 layer_factory.hpp:123] Creating layer MaxPool2d_2
I0224 06:46:02.411958   569 net.cpp:140] Creating Layer MaxPool2d_2
I0224 06:46:02.411962   569 net.cpp:481] MaxPool2d_2 <- BatchNorm_1_Threshold_1_0_split_0
I0224 06:46:02.411967   569 net.cpp:455] MaxPool2d_2 -> MaxPool2d_2
I0224 06:46:02.411991   569 net.cpp:190] Setting up MaxPool2d_2
I0224 06:46:02.411994   569 net.cpp:197] Top shape: 1 16 128 256 (524288)
I0224 06:46:02.411999   569 net.cpp:205] Memory required for data: 104857600
I0224 06:46:02.412003   569 layer_factory.hpp:123] Creating layer ConvNd_2
I0224 06:46:02.412009   569 net.cpp:140] Creating Layer ConvNd_2
I0224 06:46:02.412011   569 net.cpp:481] ConvNd_2 <- MaxPool2d_2
I0224 06:46:02.412015   569 net.cpp:455] ConvNd_2 -> ConvNd_2
I0224 06:46:02.412281   569 net.cpp:190] Setting up ConvNd_2
I0224 06:46:02.412288   569 net.cpp:197] Top shape: 1 64 128 256 (2097152)
I0224 06:46:02.412293   569 net.cpp:205] Memory required for data: 113246208
I0224 06:46:02.412298   569 layer_factory.hpp:123] Creating layer ConvNd_3
I0224 06:46:02.412304   569 net.cpp:140] Creating Layer ConvNd_3
I0224 06:46:02.412307   569 net.cpp:481] ConvNd_3 <- BatchNorm_1_Threshold_1_0_split_1
I0224 06:46:02.412312   569 net.cpp:455] ConvNd_3 -> ConvNd_3
I0224 06:46:02.412537   569 net.cpp:190] Setting up ConvNd_3
I0224 06:46:02.412544   569 net.cpp:197] Top shape: 1 16 128 256 (524288)
I0224 06:46:02.412549   569 net.cpp:205] Memory required for data: 115343360
I0224 06:46:02.412552   569 layer_factory.hpp:123] Creating layer BatchNorm_2
I0224 06:46:02.412560   569 net.cpp:140] Creating Layer BatchNorm_2
I0224 06:46:02.412564   569 net.cpp:481] BatchNorm_2 <- ConvNd_3
I0224 06:46:02.412569   569 net.cpp:455] BatchNorm_2 -> BatchNorm_2
I0224 06:46:02.413306   569 net.cpp:190] Setting up BatchNorm_2
I0224 06:46:02.413313   569 net.cpp:197] Top shape: 1 16 128 256 (524288)
I0224 06:46:02.413331   569 net.cpp:205] Memory required for data: 117440512
I0224 06:46:02.413341   569 layer_factory.hpp:123] Creating layer Threshold_2
I0224 06:46:02.413347   569 net.cpp:140] Creating Layer Threshold_2
I0224 06:46:02.413349   569 net.cpp:481] Threshold_2 <- BatchNorm_2
I0224 06:46:02.413354   569 net.cpp:442] Threshold_2 -> BatchNorm_2 (in-place)
I0224 06:46:02.413359   569 net.cpp:190] Setting up Threshold_2
I0224 06:46:02.413363   569 net.cpp:197] Top shape: 1 16 128 256 (524288)
I0224 06:46:02.413367   569 net.cpp:205] Memory required for data: 119537664
I0224 06:46:02.413370   569 layer_factory.hpp:123] Creating layer ConvNd_4
I0224 06:46:02.413377   569 net.cpp:140] Creating Layer ConvNd_4
I0224 06:46:02.413379   569 net.cpp:481] ConvNd_4 <- BatchNorm_2
I0224 06:46:02.413383   569 net.cpp:455] ConvNd_4 -> ConvNd_4
I0224 06:46:02.413640   569 net.cpp:190] Setting up ConvNd_4
I0224 06:46:02.413647   569 net.cpp:197] Top shape: 1 16 128 256 (524288)
I0224 06:46:02.413652   569 net.cpp:205] Memory required for data: 121634816
I0224 06:46:02.413657   569 layer_factory.hpp:123] Creating layer BatchNorm_3
I0224 06:46:02.413663   569 net.cpp:140] Creating Layer BatchNorm_3
I0224 06:46:02.413667   569 net.cpp:481] BatchNorm_3 <- ConvNd_4
I0224 06:46:02.413672   569 net.cpp:455] BatchNorm_3 -> BatchNorm_3
I0224 06:46:02.414350   569 net.cpp:190] Setting up BatchNorm_3
I0224 06:46:02.414355   569 net.cpp:197] Top shape: 1 16 128 256 (524288)
I0224 06:46:02.414361   569 net.cpp:205] Memory required for data: 123731968
I0224 06:46:02.414371   569 layer_factory.hpp:123] Creating layer Threshold_3
I0224 06:46:02.414376   569 net.cpp:140] Creating Layer Threshold_3
I0224 06:46:02.414379   569 net.cpp:481] Threshold_3 <- BatchNorm_3
I0224 06:46:02.414384   569 net.cpp:442] Threshold_3 -> BatchNorm_3 (in-place)
I0224 06:46:02.414389   569 net.cpp:190] Setting up Threshold_3
I0224 06:46:02.414393   569 net.cpp:197] Top shape: 1 16 128 256 (524288)
I0224 06:46:02.414398   569 net.cpp:205] Memory required for data: 125829120
I0224 06:46:02.414402   569 layer_factory.hpp:123] Creating layer ConvNd_5
I0224 06:46:02.414407   569 net.cpp:140] Creating Layer ConvNd_5
I0224 06:46:02.414410   569 net.cpp:481] ConvNd_5 <- BatchNorm_3
I0224 06:46:02.414414   569 net.cpp:455] ConvNd_5 -> ConvNd_5
I0224 06:46:02.414566   569 net.cpp:190] Setting up ConvNd_5
I0224 06:46:02.414572   569 net.cpp:197] Top shape: 1 64 128 256 (2097152)
I0224 06:46:02.414577   569 net.cpp:205] Memory required for data: 134217728
I0224 06:46:02.414582   569 layer_factory.hpp:123] Creating layer BatchNorm_4
I0224 06:46:02.414589   569 net.cpp:140] Creating Layer BatchNorm_4
I0224 06:46:02.414592   569 net.cpp:481] BatchNorm_4 <- ConvNd_5
I0224 06:46:02.414597   569 net.cpp:455] BatchNorm_4 -> BatchNorm_4
I0224 06:46:02.415160   569 net.cpp:190] Setting up BatchNorm_4
I0224 06:46:02.415168   569 net.cpp:197] Top shape: 1 64 128 256 (2097152)
I0224 06:46:02.415172   569 net.cpp:205] Memory required for data: 142606336
I0224 06:46:02.415180   569 layer_factory.hpp:123] Creating layer Threshold_4
I0224 06:46:02.415184   569 net.cpp:140] Creating Layer Threshold_4
I0224 06:46:02.415189   569 net.cpp:481] Threshold_4 <- BatchNorm_4
I0224 06:46:02.415192   569 net.cpp:442] Threshold_4 -> BatchNorm_4 (in-place)
I0224 06:46:02.415197   569 net.cpp:190] Setting up Threshold_4
I0224 06:46:02.415200   569 net.cpp:197] Top shape: 1 64 128 256 (2097152)
I0224 06:46:02.415205   569 net.cpp:205] Memory required for data: 150994944
I0224 06:46:02.415207   569 layer_factory.hpp:123] Creating layer Add_1
I0224 06:46:02.415213   569 net.cpp:140] Creating Layer Add_1
I0224 06:46:02.415216   569 net.cpp:481] Add_1 <- ConvNd_2
I0224 06:46:02.415220   569 net.cpp:481] Add_1 <- BatchNorm_4
I0224 06:46:02.415225   569 net.cpp:455] Add_1 -> Add_1
I0224 06:46:02.415241   569 net.cpp:190] Setting up Add_1
I0224 06:46:02.415244   569 net.cpp:197] Top shape: 1 64 128 256 (2097152)
I0224 06:46:02.415249   569 net.cpp:205] Memory required for data: 159383552
I0224 06:46:02.415252   569 layer_factory.hpp:123] Creating layer Threshold_5
I0224 06:46:02.415256   569 net.cpp:140] Creating Layer Threshold_5
I0224 06:46:02.415259   569 net.cpp:481] Threshold_5 <- Add_1
I0224 06:46:02.415263   569 net.cpp:442] Threshold_5 -> Add_1 (in-place)
I0224 06:46:02.415267   569 net.cpp:190] Setting up Threshold_5
I0224 06:46:02.415271   569 net.cpp:197] Top shape: 1 64 128 256 (2097152)
I0224 06:46:02.415274   569 net.cpp:205] Memory required for data: 167772160
I0224 06:46:02.415277   569 layer_factory.hpp:123] Creating layer Add_1_Threshold_5_0_split
I0224 06:46:02.415282   569 net.cpp:140] Creating Layer Add_1_Threshold_5_0_split
I0224 06:46:02.415285   569 net.cpp:481] Add_1_Threshold_5_0_split <- Add_1
I0224 06:46:02.415289   569 net.cpp:455] Add_1_Threshold_5_0_split -> Add_1_Threshold_5_0_split_0
I0224 06:46:02.415295   569 net.cpp:455] Add_1_Threshold_5_0_split -> Add_1_Threshold_5_0_split_1
I0224 06:46:02.415319   569 net.cpp:190] Setting up Add_1_Threshold_5_0_split
I0224 06:46:02.415326   569 net.cpp:197] Top shape: 1 64 128 256 (2097152)
I0224 06:46:02.415331   569 net.cpp:197] Top shape: 1 64 128 256 (2097152)
I0224 06:46:02.415335   569 net.cpp:205] Memory required for data: 184549376
I0224 06:46:02.415338   569 layer_factory.hpp:123] Creating layer ConvNd_6
I0224 06:46:02.415344   569 net.cpp:140] Creating Layer ConvNd_6
I0224 06:46:02.415349   569 net.cpp:481] ConvNd_6 <- Add_1_Threshold_5_0_split_0
I0224 06:46:02.415352   569 net.cpp:455] ConvNd_6 -> ConvNd_6
I0224 06:46:02.415496   569 net.cpp:190] Setting up ConvNd_6
I0224 06:46:02.415503   569 net.cpp:197] Top shape: 1 16 128 256 (524288)
I0224 06:46:02.415508   569 net.cpp:205] Memory required for data: 186646528
I0224 06:46:02.415513   569 layer_factory.hpp:123] Creating layer BatchNorm_5
I0224 06:46:02.415519   569 net.cpp:140] Creating Layer BatchNorm_5
I0224 06:46:02.415522   569 net.cpp:481] BatchNorm_5 <- ConvNd_6
I0224 06:46:02.415529   569 net.cpp:455] BatchNorm_5 -> BatchNorm_5
I0224 06:46:02.416057   569 net.cpp:190] Setting up BatchNorm_5
I0224 06:46:02.416065   569 net.cpp:197] Top shape: 1 16 128 256 (524288)
I0224 06:46:02.416070   569 net.cpp:205] Memory required for data: 188743680
I0224 06:46:02.416077   569 layer_factory.hpp:123] Creating layer Threshold_6
I0224 06:46:02.416082   569 net.cpp:140] Creating Layer Threshold_6
I0224 06:46:02.416085   569 net.cpp:481] Threshold_6 <- BatchNorm_5
I0224 06:46:02.416090   569 net.cpp:442] Threshold_6 -> BatchNorm_5 (in-place)
I0224 06:46:02.416095   569 net.cpp:190] Setting up Threshold_6
I0224 06:46:02.416098   569 net.cpp:197] Top shape: 1 16 128 256 (524288)
I0224 06:46:02.416101   569 net.cpp:205] Memory required for data: 190840832
I0224 06:46:02.416105   569 layer_factory.hpp:123] Creating layer ConvNd_7
I0224 06:46:02.416110   569 net.cpp:140] Creating Layer ConvNd_7
I0224 06:46:02.416113   569 net.cpp:481] ConvNd_7 <- BatchNorm_5
I0224 06:46:02.416118   569 net.cpp:455] ConvNd_7 -> ConvNd_7
I0224 06:46:02.416265   569 net.cpp:190] Setting up ConvNd_7
I0224 06:46:02.416271   569 net.cpp:197] Top shape: 1 16 128 256 (524288)
I0224 06:46:02.416275   569 net.cpp:205] Memory required for data: 192937984
I0224 06:46:02.416280   569 layer_factory.hpp:123] Creating layer BatchNorm_6
I0224 06:46:02.416286   569 net.cpp:140] Creating Layer BatchNorm_6
I0224 06:46:02.416290   569 net.cpp:481] BatchNorm_6 <- ConvNd_7
I0224 06:46:02.416296   569 net.cpp:455] BatchNorm_6 -> BatchNorm_6
I0224 06:46:02.416826   569 net.cpp:190] Setting up BatchNorm_6
I0224 06:46:02.416833   569 net.cpp:197] Top shape: 1 16 128 256 (524288)
I0224 06:46:02.416838   569 net.cpp:205] Memory required for data: 195035136
I0224 06:46:02.416847   569 layer_factory.hpp:123] Creating layer Threshold_7
I0224 06:46:02.416852   569 net.cpp:140] Creating Layer Threshold_7
I0224 06:46:02.416857   569 net.cpp:481] Threshold_7 <- BatchNorm_6
I0224 06:46:02.416860   569 net.cpp:442] Threshold_7 -> BatchNorm_6 (in-place)
I0224 06:46:02.416865   569 net.cpp:190] Setting up Threshold_7
I0224 06:46:02.416868   569 net.cpp:197] Top shape: 1 16 128 256 (524288)
I0224 06:46:02.416872   569 net.cpp:205] Memory required for data: 197132288
I0224 06:46:02.416875   569 layer_factory.hpp:123] Creating layer ConvNd_8
I0224 06:46:02.416882   569 net.cpp:140] Creating Layer ConvNd_8
I0224 06:46:02.416884   569 net.cpp:481] ConvNd_8 <- BatchNorm_6
I0224 06:46:02.416888   569 net.cpp:455] ConvNd_8 -> ConvNd_8
I0224 06:46:02.417034   569 net.cpp:190] Setting up ConvNd_8
I0224 06:46:02.417040   569 net.cpp:197] Top shape: 1 64 128 256 (2097152)
I0224 06:46:02.417045   569 net.cpp:205] Memory required for data: 205520896
I0224 06:46:02.417049   569 layer_factory.hpp:123] Creating layer BatchNorm_7
I0224 06:46:02.417055   569 net.cpp:140] Creating Layer BatchNorm_7
I0224 06:46:02.417059   569 net.cpp:481] BatchNorm_7 <- ConvNd_8
I0224 06:46:02.417064   569 net.cpp:455] BatchNorm_7 -> BatchNorm_7
I0224 06:46:02.417613   569 net.cpp:190] Setting up BatchNorm_7
I0224 06:46:02.417620   569 net.cpp:197] Top shape: 1 64 128 256 (2097152)
I0224 06:46:02.417625   569 net.cpp:205] Memory required for data: 213909504
I0224 06:46:02.417634   569 layer_factory.hpp:123] Creating layer Threshold_8
I0224 06:46:02.417639   569 net.cpp:140] Creating Layer Threshold_8
I0224 06:46:02.417641   569 net.cpp:481] Threshold_8 <- BatchNorm_7
I0224 06:46:02.417646   569 net.cpp:442] Threshold_8 -> BatchNorm_7 (in-place)
I0224 06:46:02.417651   569 net.cpp:190] Setting up Threshold_8
I0224 06:46:02.417654   569 net.cpp:197] Top shape: 1 64 128 256 (2097152)
I0224 06:46:02.417659   569 net.cpp:205] Memory required for data: 222298112
I0224 06:46:02.417661   569 layer_factory.hpp:123] Creating layer Add_2
I0224 06:46:02.417668   569 net.cpp:140] Creating Layer Add_2
I0224 06:46:02.417671   569 net.cpp:481] Add_2 <- Add_1_Threshold_5_0_split_1
I0224 06:46:02.417675   569 net.cpp:481] Add_2 <- BatchNorm_7
I0224 06:46:02.417680   569 net.cpp:455] Add_2 -> Add_2
I0224 06:46:02.417696   569 net.cpp:190] Setting up Add_2
I0224 06:46:02.417701   569 net.cpp:197] Top shape: 1 64 128 256 (2097152)
I0224 06:46:02.417704   569 net.cpp:205] Memory required for data: 230686720
I0224 06:46:02.417707   569 layer_factory.hpp:123] Creating layer Threshold_9
I0224 06:46:02.417711   569 net.cpp:140] Creating Layer Threshold_9
I0224 06:46:02.417716   569 net.cpp:481] Threshold_9 <- Add_2
I0224 06:46:02.417719   569 net.cpp:442] Threshold_9 -> Add_2 (in-place)
I0224 06:46:02.417724   569 net.cpp:190] Setting up Threshold_9
I0224 06:46:02.417727   569 net.cpp:197] Top shape: 1 64 128 256 (2097152)
I0224 06:46:02.417732   569 net.cpp:205] Memory required for data: 239075328
I0224 06:46:02.417734   569 layer_factory.hpp:123] Creating layer Add_2_Threshold_9_0_split
I0224 06:46:02.417738   569 net.cpp:140] Creating Layer Add_2_Threshold_9_0_split
I0224 06:46:02.417742   569 net.cpp:481] Add_2_Threshold_9_0_split <- Add_2
I0224 06:46:02.417745   569 net.cpp:455] Add_2_Threshold_9_0_split -> Add_2_Threshold_9_0_split_0
I0224 06:46:02.417750   569 net.cpp:455] Add_2_Threshold_9_0_split -> Add_2_Threshold_9_0_split_1
I0224 06:46:02.417775   569 net.cpp:190] Setting up Add_2_Threshold_9_0_split
I0224 06:46:02.417778   569 net.cpp:197] Top shape: 1 64 128 256 (2097152)
I0224 06:46:02.417783   569 net.cpp:197] Top shape: 1 64 128 256 (2097152)
I0224 06:46:02.417788   569 net.cpp:205] Memory required for data: 255852544
I0224 06:46:02.417790   569 layer_factory.hpp:123] Creating layer ConvNd_9
I0224 06:46:02.417796   569 net.cpp:140] Creating Layer ConvNd_9
I0224 06:46:02.417799   569 net.cpp:481] ConvNd_9 <- Add_2_Threshold_9_0_split_0
I0224 06:46:02.417804   569 net.cpp:455] ConvNd_9 -> ConvNd_9
I0224 06:46:02.417949   569 net.cpp:190] Setting up ConvNd_9
I0224 06:46:02.417956   569 net.cpp:197] Top shape: 1 16 128 256 (524288)
I0224 06:46:02.417961   569 net.cpp:205] Memory required for data: 257949696
I0224 06:46:02.417965   569 layer_factory.hpp:123] Creating layer BatchNorm_8
I0224 06:46:02.417971   569 net.cpp:140] Creating Layer BatchNorm_8
I0224 06:46:02.417975   569 net.cpp:481] BatchNorm_8 <- ConvNd_9
I0224 06:46:02.417980   569 net.cpp:455] BatchNorm_8 -> BatchNorm_8
I0224 06:46:02.418510   569 net.cpp:190] Setting up BatchNorm_8
I0224 06:46:02.418519   569 net.cpp:197] Top shape: 1 16 128 256 (524288)
I0224 06:46:02.418524   569 net.cpp:205] Memory required for data: 260046848
I0224 06:46:02.418530   569 layer_factory.hpp:123] Creating layer Threshold_10
I0224 06:46:02.418535   569 net.cpp:140] Creating Layer Threshold_10
I0224 06:46:02.418540   569 net.cpp:481] Threshold_10 <- BatchNorm_8
I0224 06:46:02.418543   569 net.cpp:442] Threshold_10 -> BatchNorm_8 (in-place)
I0224 06:46:02.418548   569 net.cpp:190] Setting up Threshold_10
I0224 06:46:02.418551   569 net.cpp:197] Top shape: 1 16 128 256 (524288)
I0224 06:46:02.418555   569 net.cpp:205] Memory required for data: 262144000
I0224 06:46:02.418560   569 layer_factory.hpp:123] Creating layer ConvNd_10
I0224 06:46:02.418565   569 net.cpp:140] Creating Layer ConvNd_10
I0224 06:46:02.418567   569 net.cpp:481] ConvNd_10 <- BatchNorm_8
I0224 06:46:02.418572   569 net.cpp:455] ConvNd_10 -> ConvNd_10
I0224 06:46:02.418720   569 net.cpp:190] Setting up ConvNd_10
I0224 06:46:02.418726   569 net.cpp:197] Top shape: 1 16 128 256 (524288)
I0224 06:46:02.418731   569 net.cpp:205] Memory required for data: 264241152
I0224 06:46:02.418735   569 layer_factory.hpp:123] Creating layer BatchNorm_9
I0224 06:46:02.418742   569 net.cpp:140] Creating Layer BatchNorm_9
I0224 06:46:02.418745   569 net.cpp:481] BatchNorm_9 <- ConvNd_10
I0224 06:46:02.418751   569 net.cpp:455] BatchNorm_9 -> BatchNorm_9
I0224 06:46:02.419281   569 net.cpp:190] Setting up BatchNorm_9
I0224 06:46:02.419288   569 net.cpp:197] Top shape: 1 16 128 256 (524288)
I0224 06:46:02.419293   569 net.cpp:205] Memory required for data: 266338304
I0224 06:46:02.419301   569 layer_factory.hpp:123] Creating layer Threshold_11
I0224 06:46:02.419306   569 net.cpp:140] Creating Layer Threshold_11
I0224 06:46:02.419308   569 net.cpp:481] Threshold_11 <- BatchNorm_9
I0224 06:46:02.419312   569 net.cpp:442] Threshold_11 -> BatchNorm_9 (in-place)
I0224 06:46:02.419318   569 net.cpp:190] Setting up Threshold_11
I0224 06:46:02.419322   569 net.cpp:197] Top shape: 1 16 128 256 (524288)
I0224 06:46:02.419325   569 net.cpp:205] Memory required for data: 268435456
I0224 06:46:02.419329   569 layer_factory.hpp:123] Creating layer ConvNd_11
I0224 06:46:02.419335   569 net.cpp:140] Creating Layer ConvNd_11
I0224 06:46:02.419338   569 net.cpp:481] ConvNd_11 <- BatchNorm_9
I0224 06:46:02.419343   569 net.cpp:455] ConvNd_11 -> ConvNd_11
I0224 06:46:02.419489   569 net.cpp:190] Setting up ConvNd_11
I0224 06:46:02.419497   569 net.cpp:197] Top shape: 1 64 128 256 (2097152)
I0224 06:46:02.419500   569 net.cpp:205] Memory required for data: 276824064
I0224 06:46:02.419505   569 layer_factory.hpp:123] Creating layer BatchNorm_10
I0224 06:46:02.419512   569 net.cpp:140] Creating Layer BatchNorm_10
I0224 06:46:02.419515   569 net.cpp:481] BatchNorm_10 <- ConvNd_11
I0224 06:46:02.419520   569 net.cpp:455] BatchNorm_10 -> BatchNorm_10
I0224 06:46:02.420055   569 net.cpp:190] Setting up BatchNorm_10
I0224 06:46:02.420063   569 net.cpp:197] Top shape: 1 64 128 256 (2097152)
I0224 06:46:02.420068   569 net.cpp:205] Memory required for data: 285212672
I0224 06:46:02.420074   569 layer_factory.hpp:123] Creating layer Threshold_12
I0224 06:46:02.420079   569 net.cpp:140] Creating Layer Threshold_12
I0224 06:46:02.420083   569 net.cpp:481] Threshold_12 <- BatchNorm_10
I0224 06:46:02.420087   569 net.cpp:442] Threshold_12 -> BatchNorm_10 (in-place)
I0224 06:46:02.420092   569 net.cpp:190] Setting up Threshold_12
I0224 06:46:02.420095   569 net.cpp:197] Top shape: 1 64 128 256 (2097152)
I0224 06:46:02.420099   569 net.cpp:205] Memory required for data: 293601280
I0224 06:46:02.420104   569 layer_factory.hpp:123] Creating layer Add_3
I0224 06:46:02.420109   569 net.cpp:140] Creating Layer Add_3
I0224 06:46:02.420111   569 net.cpp:481] Add_3 <- Add_2_Threshold_9_0_split_1
I0224 06:46:02.420115   569 net.cpp:481] Add_3 <- BatchNorm_10
I0224 06:46:02.420120   569 net.cpp:455] Add_3 -> Add_3
I0224 06:46:02.420136   569 net.cpp:190] Setting up Add_3
I0224 06:46:02.420140   569 net.cpp:197] Top shape: 1 64 128 256 (2097152)
I0224 06:46:02.420145   569 net.cpp:205] Memory required for data: 301989888
I0224 06:46:02.420147   569 layer_factory.hpp:123] Creating layer Threshold_13
I0224 06:46:02.420151   569 net.cpp:140] Creating Layer Threshold_13
I0224 06:46:02.420156   569 net.cpp:481] Threshold_13 <- Add_3
I0224 06:46:02.420158   569 net.cpp:442] Threshold_13 -> Add_3 (in-place)
I0224 06:46:02.420163   569 net.cpp:190] Setting up Threshold_13
I0224 06:46:02.420166   569 net.cpp:197] Top shape: 1 64 128 256 (2097152)
I0224 06:46:02.420171   569 net.cpp:205] Memory required for data: 310378496
I0224 06:46:02.420173   569 layer_factory.hpp:123] Creating layer Add_3_Threshold_13_0_split
I0224 06:46:02.420178   569 net.cpp:140] Creating Layer Add_3_Threshold_13_0_split
I0224 06:46:02.420181   569 net.cpp:481] Add_3_Threshold_13_0_split <- Add_3
I0224 06:46:02.420186   569 net.cpp:455] Add_3_Threshold_13_0_split -> Add_3_Threshold_13_0_split_0
I0224 06:46:02.420190   569 net.cpp:455] Add_3_Threshold_13_0_split -> Add_3_Threshold_13_0_split_1
I0224 06:46:02.420215   569 net.cpp:190] Setting up Add_3_Threshold_13_0_split
I0224 06:46:02.420218   569 net.cpp:197] Top shape: 1 64 128 256 (2097152)
I0224 06:46:02.420223   569 net.cpp:197] Top shape: 1 64 128 256 (2097152)
I0224 06:46:02.420228   569 net.cpp:205] Memory required for data: 327155712
I0224 06:46:02.420230   569 layer_factory.hpp:123] Creating layer ConvNd_12
I0224 06:46:02.420236   569 net.cpp:140] Creating Layer ConvNd_12
I0224 06:46:02.420239   569 net.cpp:481] ConvNd_12 <- Add_3_Threshold_13_0_split_0
I0224 06:46:02.420244   569 net.cpp:455] ConvNd_12 -> ConvNd_12
I0224 06:46:02.420393   569 net.cpp:190] Setting up ConvNd_12
I0224 06:46:02.420400   569 net.cpp:197] Top shape: 1 16 128 256 (524288)
I0224 06:46:02.420405   569 net.cpp:205] Memory required for data: 329252864
I0224 06:46:02.420409   569 layer_factory.hpp:123] Creating layer BatchNorm_11
I0224 06:46:02.420415   569 net.cpp:140] Creating Layer BatchNorm_11
I0224 06:46:02.420419   569 net.cpp:481] BatchNorm_11 <- ConvNd_12
I0224 06:46:02.420424   569 net.cpp:455] BatchNorm_11 -> BatchNorm_11
I0224 06:46:02.421645   569 net.cpp:190] Setting up BatchNorm_11
I0224 06:46:02.421656   569 net.cpp:197] Top shape: 1 16 128 256 (524288)
I0224 06:46:02.421663   569 net.cpp:205] Memory required for data: 331350016
I0224 06:46:02.421674   569 layer_factory.hpp:123] Creating layer Threshold_14
I0224 06:46:02.421679   569 net.cpp:140] Creating Layer Threshold_14
I0224 06:46:02.421684   569 net.cpp:481] Threshold_14 <- BatchNorm_11
I0224 06:46:02.421687   569 net.cpp:442] Threshold_14 -> BatchNorm_11 (in-place)
I0224 06:46:02.421694   569 net.cpp:190] Setting up Threshold_14
I0224 06:46:02.421697   569 net.cpp:197] Top shape: 1 16 128 256 (524288)
I0224 06:46:02.421701   569 net.cpp:205] Memory required for data: 333447168
I0224 06:46:02.421705   569 layer_factory.hpp:123] Creating layer ConvNd_13
I0224 06:46:02.421710   569 net.cpp:140] Creating Layer ConvNd_13
I0224 06:46:02.421713   569 net.cpp:481] ConvNd_13 <- BatchNorm_11
I0224 06:46:02.421718   569 net.cpp:455] ConvNd_13 -> ConvNd_13
I0224 06:46:02.421880   569 net.cpp:190] Setting up ConvNd_13
I0224 06:46:02.421886   569 net.cpp:197] Top shape: 1 16 128 256 (524288)
I0224 06:46:02.421891   569 net.cpp:205] Memory required for data: 335544320
I0224 06:46:02.421895   569 layer_factory.hpp:123] Creating layer BatchNorm_12
I0224 06:46:02.421902   569 net.cpp:140] Creating Layer BatchNorm_12
I0224 06:46:02.421905   569 net.cpp:481] BatchNorm_12 <- ConvNd_13
I0224 06:46:02.421911   569 net.cpp:455] BatchNorm_12 -> BatchNorm_12
I0224 06:46:02.422451   569 net.cpp:190] Setting up BatchNorm_12
I0224 06:46:02.422458   569 net.cpp:197] Top shape: 1 16 128 256 (524288)
I0224 06:46:02.422463   569 net.cpp:205] Memory required for data: 337641472
I0224 06:46:02.422472   569 layer_factory.hpp:123] Creating layer Threshold_15
I0224 06:46:02.422475   569 net.cpp:140] Creating Layer Threshold_15
I0224 06:46:02.422479   569 net.cpp:481] Threshold_15 <- BatchNorm_12
I0224 06:46:02.422483   569 net.cpp:442] Threshold_15 -> BatchNorm_12 (in-place)
I0224 06:46:02.422488   569 net.cpp:190] Setting up Threshold_15
I0224 06:46:02.422492   569 net.cpp:197] Top shape: 1 16 128 256 (524288)
I0224 06:46:02.422495   569 net.cpp:205] Memory required for data: 339738624
I0224 06:46:02.422498   569 layer_factory.hpp:123] Creating layer ConvNd_14
I0224 06:46:02.422504   569 net.cpp:140] Creating Layer ConvNd_14
I0224 06:46:02.422508   569 net.cpp:481] ConvNd_14 <- BatchNorm_12
I0224 06:46:02.422513   569 net.cpp:455] ConvNd_14 -> ConvNd_14
I0224 06:46:02.422663   569 net.cpp:190] Setting up ConvNd_14
I0224 06:46:02.422669   569 net.cpp:197] Top shape: 1 64 128 256 (2097152)
I0224 06:46:02.422674   569 net.cpp:205] Memory required for data: 348127232
I0224 06:46:02.422678   569 layer_factory.hpp:123] Creating layer BatchNorm_13
I0224 06:46:02.422685   569 net.cpp:140] Creating Layer BatchNorm_13
I0224 06:46:02.422688   569 net.cpp:481] BatchNorm_13 <- ConvNd_14
I0224 06:46:02.422693   569 net.cpp:455] BatchNorm_13 -> BatchNorm_13
I0224 06:46:02.423229   569 net.cpp:190] Setting up BatchNorm_13
I0224 06:46:02.423236   569 net.cpp:197] Top shape: 1 64 128 256 (2097152)
I0224 06:46:02.423241   569 net.cpp:205] Memory required for data: 356515840
I0224 06:46:02.423249   569 layer_factory.hpp:123] Creating layer Threshold_16
I0224 06:46:02.423254   569 net.cpp:140] Creating Layer Threshold_16
I0224 06:46:02.423257   569 net.cpp:481] Threshold_16 <- BatchNorm_13
I0224 06:46:02.423261   569 net.cpp:442] Threshold_16 -> BatchNorm_13 (in-place)
I0224 06:46:02.423266   569 net.cpp:190] Setting up Threshold_16
I0224 06:46:02.423269   569 net.cpp:197] Top shape: 1 64 128 256 (2097152)
I0224 06:46:02.423274   569 net.cpp:205] Memory required for data: 364904448
I0224 06:46:02.423277   569 layer_factory.hpp:123] Creating layer Add_4
I0224 06:46:02.423282   569 net.cpp:140] Creating Layer Add_4
I0224 06:46:02.423285   569 net.cpp:481] Add_4 <- Add_3_Threshold_13_0_split_1
I0224 06:46:02.423288   569 net.cpp:481] Add_4 <- BatchNorm_13
I0224 06:46:02.423293   569 net.cpp:455] Add_4 -> Add_4
I0224 06:46:02.423311   569 net.cpp:190] Setting up Add_4
I0224 06:46:02.423316   569 net.cpp:197] Top shape: 1 64 128 256 (2097152)
I0224 06:46:02.423319   569 net.cpp:205] Memory required for data: 373293056
I0224 06:46:02.423322   569 layer_factory.hpp:123] Creating layer Threshold_17
I0224 06:46:02.423326   569 net.cpp:140] Creating Layer Threshold_17
I0224 06:46:02.423329   569 net.cpp:481] Threshold_17 <- Add_4
I0224 06:46:02.423333   569 net.cpp:442] Threshold_17 -> Add_4 (in-place)
I0224 06:46:02.423337   569 net.cpp:190] Setting up Threshold_17
I0224 06:46:02.423341   569 net.cpp:197] Top shape: 1 64 128 256 (2097152)
I0224 06:46:02.423344   569 net.cpp:205] Memory required for data: 381681664
I0224 06:46:02.423347   569 layer_factory.hpp:123] Creating layer Add_4_Threshold_17_0_split
I0224 06:46:02.423352   569 net.cpp:140] Creating Layer Add_4_Threshold_17_0_split
I0224 06:46:02.423355   569 net.cpp:481] Add_4_Threshold_17_0_split <- Add_4
I0224 06:46:02.423359   569 net.cpp:455] Add_4_Threshold_17_0_split -> Add_4_Threshold_17_0_split_0
I0224 06:46:02.423364   569 net.cpp:455] Add_4_Threshold_17_0_split -> Add_4_Threshold_17_0_split_1
I0224 06:46:02.423388   569 net.cpp:190] Setting up Add_4_Threshold_17_0_split
I0224 06:46:02.423393   569 net.cpp:197] Top shape: 1 64 128 256 (2097152)
I0224 06:46:02.423396   569 net.cpp:197] Top shape: 1 64 128 256 (2097152)
I0224 06:46:02.423400   569 net.cpp:205] Memory required for data: 398458880
I0224 06:46:02.423403   569 layer_factory.hpp:123] Creating layer ConvNd_15
I0224 06:46:02.423409   569 net.cpp:140] Creating Layer ConvNd_15
I0224 06:46:02.423413   569 net.cpp:481] ConvNd_15 <- Add_4_Threshold_17_0_split_0
I0224 06:46:02.423418   569 net.cpp:455] ConvNd_15 -> ConvNd_15
I0224 06:46:02.423564   569 net.cpp:190] Setting up ConvNd_15
I0224 06:46:02.423570   569 net.cpp:197] Top shape: 1 16 128 256 (524288)
I0224 06:46:02.423575   569 net.cpp:205] Memory required for data: 400556032
I0224 06:46:02.423579   569 layer_factory.hpp:123] Creating layer BatchNorm_14
I0224 06:46:02.423593   569 net.cpp:140] Creating Layer BatchNorm_14
I0224 06:46:02.423596   569 net.cpp:481] BatchNorm_14 <- ConvNd_15
I0224 06:46:02.423601   569 net.cpp:455] BatchNorm_14 -> BatchNorm_14
I0224 06:46:02.424134   569 net.cpp:190] Setting up BatchNorm_14
I0224 06:46:02.424140   569 net.cpp:197] Top shape: 1 16 128 256 (524288)
I0224 06:46:02.424145   569 net.cpp:205] Memory required for data: 402653184
I0224 06:46:02.424152   569 layer_factory.hpp:123] Creating layer Threshold_18
I0224 06:46:02.424157   569 net.cpp:140] Creating Layer Threshold_18
I0224 06:46:02.424160   569 net.cpp:481] Threshold_18 <- BatchNorm_14
I0224 06:46:02.424165   569 net.cpp:442] Threshold_18 -> BatchNorm_14 (in-place)
I0224 06:46:02.424170   569 net.cpp:190] Setting up Threshold_18
I0224 06:46:02.424173   569 net.cpp:197] Top shape: 1 16 128 256 (524288)
I0224 06:46:02.424177   569 net.cpp:205] Memory required for data: 404750336
I0224 06:46:02.424181   569 layer_factory.hpp:123] Creating layer ConvNd_16
I0224 06:46:02.424186   569 net.cpp:140] Creating Layer ConvNd_16
I0224 06:46:02.424190   569 net.cpp:481] ConvNd_16 <- BatchNorm_14
I0224 06:46:02.424194   569 net.cpp:455] ConvNd_16 -> ConvNd_16
I0224 06:46:02.424345   569 net.cpp:190] Setting up ConvNd_16
I0224 06:46:02.424350   569 net.cpp:197] Top shape: 1 16 128 256 (524288)
I0224 06:46:02.424355   569 net.cpp:205] Memory required for data: 406847488
I0224 06:46:02.424360   569 layer_factory.hpp:123] Creating layer BatchNorm_15
I0224 06:46:02.424366   569 net.cpp:140] Creating Layer BatchNorm_15
I0224 06:46:02.424369   569 net.cpp:481] BatchNorm_15 <- ConvNd_16
I0224 06:46:02.424374   569 net.cpp:455] BatchNorm_15 -> BatchNorm_15
I0224 06:46:02.424904   569 net.cpp:190] Setting up BatchNorm_15
I0224 06:46:02.424911   569 net.cpp:197] Top shape: 1 16 128 256 (524288)
I0224 06:46:02.424916   569 net.cpp:205] Memory required for data: 408944640
I0224 06:46:02.424923   569 layer_factory.hpp:123] Creating layer Threshold_19
I0224 06:46:02.424930   569 net.cpp:140] Creating Layer Threshold_19
I0224 06:46:02.424934   569 net.cpp:481] Threshold_19 <- BatchNorm_15
I0224 06:46:02.424938   569 net.cpp:442] Threshold_19 -> BatchNorm_15 (in-place)
I0224 06:46:02.424944   569 net.cpp:190] Setting up Threshold_19
I0224 06:46:02.424947   569 net.cpp:197] Top shape: 1 16 128 256 (524288)
I0224 06:46:02.424952   569 net.cpp:205] Memory required for data: 411041792
I0224 06:46:02.424955   569 layer_factory.hpp:123] Creating layer ConvNd_17
I0224 06:46:02.424960   569 net.cpp:140] Creating Layer ConvNd_17
I0224 06:46:02.424963   569 net.cpp:481] ConvNd_17 <- BatchNorm_15
I0224 06:46:02.424968   569 net.cpp:455] ConvNd_17 -> ConvNd_17
I0224 06:46:02.425117   569 net.cpp:190] Setting up ConvNd_17
I0224 06:46:02.425123   569 net.cpp:197] Top shape: 1 64 128 256 (2097152)
I0224 06:46:02.425127   569 net.cpp:205] Memory required for data: 419430400
I0224 06:46:02.425132   569 layer_factory.hpp:123] Creating layer BatchNorm_16
I0224 06:46:02.425138   569 net.cpp:140] Creating Layer BatchNorm_16
I0224 06:46:02.425141   569 net.cpp:481] BatchNorm_16 <- ConvNd_17
I0224 06:46:02.425146   569 net.cpp:455] BatchNorm_16 -> BatchNorm_16
I0224 06:46:02.425689   569 net.cpp:190] Setting up BatchNorm_16
I0224 06:46:02.425698   569 net.cpp:197] Top shape: 1 64 128 256 (2097152)
I0224 06:46:02.425702   569 net.cpp:205] Memory required for data: 427819008
I0224 06:46:02.425709   569 layer_factory.hpp:123] Creating layer Threshold_20
I0224 06:46:02.425714   569 net.cpp:140] Creating Layer Threshold_20
I0224 06:46:02.425717   569 net.cpp:481] Threshold_20 <- BatchNorm_16
I0224 06:46:02.425722   569 net.cpp:442] Threshold_20 -> BatchNorm_16 (in-place)
I0224 06:46:02.425727   569 net.cpp:190] Setting up Threshold_20
I0224 06:46:02.425730   569 net.cpp:197] Top shape: 1 64 128 256 (2097152)
I0224 06:46:02.425735   569 net.cpp:205] Memory required for data: 436207616
I0224 06:46:02.425738   569 layer_factory.hpp:123] Creating layer Add_5
I0224 06:46:02.425743   569 net.cpp:140] Creating Layer Add_5
I0224 06:46:02.425746   569 net.cpp:481] Add_5 <- Add_4_Threshold_17_0_split_1
I0224 06:46:02.425750   569 net.cpp:481] Add_5 <- BatchNorm_16
I0224 06:46:02.425755   569 net.cpp:455] Add_5 -> Add_5
I0224 06:46:02.425772   569 net.cpp:190] Setting up Add_5
I0224 06:46:02.425776   569 net.cpp:197] Top shape: 1 64 128 256 (2097152)
I0224 06:46:02.425781   569 net.cpp:205] Memory required for data: 444596224
I0224 06:46:02.425783   569 layer_factory.hpp:123] Creating layer Threshold_21
I0224 06:46:02.425787   569 net.cpp:140] Creating Layer Threshold_21
I0224 06:46:02.425791   569 net.cpp:481] Threshold_21 <- Add_5
I0224 06:46:02.425794   569 net.cpp:442] Threshold_21 -> Add_5 (in-place)
I0224 06:46:02.425799   569 net.cpp:190] Setting up Threshold_21
I0224 06:46:02.425802   569 net.cpp:197] Top shape: 1 64 128 256 (2097152)
I0224 06:46:02.425806   569 net.cpp:205] Memory required for data: 452984832
I0224 06:46:02.425809   569 layer_factory.hpp:123] Creating layer Add_5_Threshold_21_0_split
I0224 06:46:02.425814   569 net.cpp:140] Creating Layer Add_5_Threshold_21_0_split
I0224 06:46:02.425817   569 net.cpp:481] Add_5_Threshold_21_0_split <- Add_5
I0224 06:46:02.425822   569 net.cpp:455] Add_5_Threshold_21_0_split -> Add_5_Threshold_21_0_split_0
I0224 06:46:02.425827   569 net.cpp:455] Add_5_Threshold_21_0_split -> Add_5_Threshold_21_0_split_1
I0224 06:46:02.425858   569 net.cpp:190] Setting up Add_5_Threshold_21_0_split
I0224 06:46:02.425861   569 net.cpp:197] Top shape: 1 64 128 256 (2097152)
I0224 06:46:02.425865   569 net.cpp:197] Top shape: 1 64 128 256 (2097152)
I0224 06:46:02.425869   569 net.cpp:205] Memory required for data: 469762048
I0224 06:46:02.425873   569 layer_factory.hpp:123] Creating layer MaxPool2d_3
I0224 06:46:02.425877   569 net.cpp:140] Creating Layer MaxPool2d_3
I0224 06:46:02.425880   569 net.cpp:481] MaxPool2d_3 <- Add_5_Threshold_21_0_split_0
I0224 06:46:02.425885   569 net.cpp:455] MaxPool2d_3 -> MaxPool2d_3
I0224 06:46:02.425910   569 net.cpp:190] Setting up MaxPool2d_3
I0224 06:46:02.425913   569 net.cpp:197] Top shape: 1 64 64 128 (524288)
I0224 06:46:02.425918   569 net.cpp:205] Memory required for data: 471859200
I0224 06:46:02.425921   569 layer_factory.hpp:123] Creating layer ConvNd_18
I0224 06:46:02.425926   569 net.cpp:140] Creating Layer ConvNd_18
I0224 06:46:02.425930   569 net.cpp:481] ConvNd_18 <- MaxPool2d_3
I0224 06:46:02.425935   569 net.cpp:455] ConvNd_18 -> ConvNd_18
I0224 06:46:02.426085   569 net.cpp:190] Setting up ConvNd_18
I0224 06:46:02.426091   569 net.cpp:197] Top shape: 1 128 64 128 (1048576)
I0224 06:46:02.426096   569 net.cpp:205] Memory required for data: 476053504
I0224 06:46:02.426101   569 layer_factory.hpp:123] Creating layer ConvNd_19
I0224 06:46:02.426107   569 net.cpp:140] Creating Layer ConvNd_19
I0224 06:46:02.426110   569 net.cpp:481] ConvNd_19 <- Add_5_Threshold_21_0_split_1
I0224 06:46:02.426115   569 net.cpp:455] ConvNd_19 -> ConvNd_19
I0224 06:46:02.426261   569 net.cpp:190] Setting up ConvNd_19
I0224 06:46:02.426267   569 net.cpp:197] Top shape: 1 32 64 128 (262144)
I0224 06:46:02.426272   569 net.cpp:205] Memory required for data: 477102080
I0224 06:46:02.426276   569 layer_factory.hpp:123] Creating layer BatchNorm_17
I0224 06:46:02.426283   569 net.cpp:140] Creating Layer BatchNorm_17
I0224 06:46:02.426286   569 net.cpp:481] BatchNorm_17 <- ConvNd_19
I0224 06:46:02.426291   569 net.cpp:455] BatchNorm_17 -> BatchNorm_17
I0224 06:46:02.426822   569 net.cpp:190] Setting up BatchNorm_17
I0224 06:46:02.426828   569 net.cpp:197] Top shape: 1 32 64 128 (262144)
I0224 06:46:02.426833   569 net.cpp:205] Memory required for data: 478150656
I0224 06:46:02.426841   569 layer_factory.hpp:123] Creating layer Threshold_22
I0224 06:46:02.426846   569 net.cpp:140] Creating Layer Threshold_22
I0224 06:46:02.426848   569 net.cpp:481] Threshold_22 <- BatchNorm_17
I0224 06:46:02.426852   569 net.cpp:442] Threshold_22 -> BatchNorm_17 (in-place)
I0224 06:46:02.426858   569 net.cpp:190] Setting up Threshold_22
I0224 06:46:02.426860   569 net.cpp:197] Top shape: 1 32 64 128 (262144)
I0224 06:46:02.426865   569 net.cpp:205] Memory required for data: 479199232
I0224 06:46:02.426868   569 layer_factory.hpp:123] Creating layer ConvNd_20
I0224 06:46:02.426873   569 net.cpp:140] Creating Layer ConvNd_20
I0224 06:46:02.426877   569 net.cpp:481] ConvNd_20 <- BatchNorm_17
I0224 06:46:02.426882   569 net.cpp:455] ConvNd_20 -> ConvNd_20
I0224 06:46:02.427036   569 net.cpp:190] Setting up ConvNd_20
I0224 06:46:02.427042   569 net.cpp:197] Top shape: 1 32 64 128 (262144)
I0224 06:46:02.427047   569 net.cpp:205] Memory required for data: 480247808
I0224 06:46:02.427050   569 layer_factory.hpp:123] Creating layer BatchNorm_18
I0224 06:46:02.427057   569 net.cpp:140] Creating Layer BatchNorm_18
I0224 06:46:02.427060   569 net.cpp:481] BatchNorm_18 <- ConvNd_20
I0224 06:46:02.427065   569 net.cpp:455] BatchNorm_18 -> BatchNorm_18
I0224 06:46:02.427584   569 net.cpp:190] Setting up BatchNorm_18
I0224 06:46:02.427592   569 net.cpp:197] Top shape: 1 32 64 128 (262144)
I0224 06:46:02.427597   569 net.cpp:205] Memory required for data: 481296384
I0224 06:46:02.427603   569 layer_factory.hpp:123] Creating layer Threshold_23
I0224 06:46:02.427608   569 net.cpp:140] Creating Layer Threshold_23
I0224 06:46:02.427611   569 net.cpp:481] Threshold_23 <- BatchNorm_18
I0224 06:46:02.427615   569 net.cpp:442] Threshold_23 -> BatchNorm_18 (in-place)
I0224 06:46:02.427620   569 net.cpp:190] Setting up Threshold_23
I0224 06:46:02.427623   569 net.cpp:197] Top shape: 1 32 64 128 (262144)
I0224 06:46:02.427628   569 net.cpp:205] Memory required for data: 482344960
I0224 06:46:02.427630   569 layer_factory.hpp:123] Creating layer ConvNd_21
I0224 06:46:02.427636   569 net.cpp:140] Creating Layer ConvNd_21
I0224 06:46:02.427639   569 net.cpp:481] ConvNd_21 <- BatchNorm_18
I0224 06:46:02.427644   569 net.cpp:455] ConvNd_21 -> ConvNd_21
I0224 06:46:02.427790   569 net.cpp:190] Setting up ConvNd_21
I0224 06:46:02.427798   569 net.cpp:197] Top shape: 1 128 64 128 (1048576)
I0224 06:46:02.427803   569 net.cpp:205] Memory required for data: 486539264
I0224 06:46:02.427808   569 layer_factory.hpp:123] Creating layer BatchNorm_19
I0224 06:46:02.427814   569 net.cpp:140] Creating Layer BatchNorm_19
I0224 06:46:02.427816   569 net.cpp:481] BatchNorm_19 <- ConvNd_21
I0224 06:46:02.427821   569 net.cpp:455] BatchNorm_19 -> BatchNorm_19
I0224 06:46:02.428269   569 net.cpp:190] Setting up BatchNorm_19
I0224 06:46:02.428275   569 net.cpp:197] Top shape: 1 128 64 128 (1048576)
I0224 06:46:02.428280   569 net.cpp:205] Memory required for data: 490733568
I0224 06:46:02.428287   569 layer_factory.hpp:123] Creating layer Threshold_24
I0224 06:46:02.428292   569 net.cpp:140] Creating Layer Threshold_24
I0224 06:46:02.428297   569 net.cpp:481] Threshold_24 <- BatchNorm_19
I0224 06:46:02.428300   569 net.cpp:442] Threshold_24 -> BatchNorm_19 (in-place)
I0224 06:46:02.428305   569 net.cpp:190] Setting up Threshold_24
I0224 06:46:02.428308   569 net.cpp:197] Top shape: 1 128 64 128 (1048576)
I0224 06:46:02.428313   569 net.cpp:205] Memory required for data: 494927872
I0224 06:46:02.428315   569 layer_factory.hpp:123] Creating layer Add_6
I0224 06:46:02.428320   569 net.cpp:140] Creating Layer Add_6
I0224 06:46:02.428323   569 net.cpp:481] Add_6 <- ConvNd_18
I0224 06:46:02.428328   569 net.cpp:481] Add_6 <- BatchNorm_19
I0224 06:46:02.428331   569 net.cpp:455] Add_6 -> Add_6
I0224 06:46:02.428349   569 net.cpp:190] Setting up Add_6
I0224 06:46:02.428351   569 net.cpp:197] Top shape: 1 128 64 128 (1048576)
I0224 06:46:02.428356   569 net.cpp:205] Memory required for data: 499122176
I0224 06:46:02.428359   569 layer_factory.hpp:123] Creating layer Threshold_25
I0224 06:46:02.428364   569 net.cpp:140] Creating Layer Threshold_25
I0224 06:46:02.428366   569 net.cpp:481] Threshold_25 <- Add_6
I0224 06:46:02.428370   569 net.cpp:442] Threshold_25 -> Add_6 (in-place)
I0224 06:46:02.428375   569 net.cpp:190] Setting up Threshold_25
I0224 06:46:02.428377   569 net.cpp:197] Top shape: 1 128 64 128 (1048576)
I0224 06:46:02.428381   569 net.cpp:205] Memory required for data: 503316480
I0224 06:46:02.428385   569 layer_factory.hpp:123] Creating layer Add_6_Threshold_25_0_split
I0224 06:46:02.428390   569 net.cpp:140] Creating Layer Add_6_Threshold_25_0_split
I0224 06:46:02.428392   569 net.cpp:481] Add_6_Threshold_25_0_split <- Add_6
I0224 06:46:02.428396   569 net.cpp:455] Add_6_Threshold_25_0_split -> Add_6_Threshold_25_0_split_0
I0224 06:46:02.428401   569 net.cpp:455] Add_6_Threshold_25_0_split -> Add_6_Threshold_25_0_split_1
I0224 06:46:02.428426   569 net.cpp:190] Setting up Add_6_Threshold_25_0_split
I0224 06:46:02.428433   569 net.cpp:197] Top shape: 1 128 64 128 (1048576)
I0224 06:46:02.428437   569 net.cpp:197] Top shape: 1 128 64 128 (1048576)
I0224 06:46:02.428442   569 net.cpp:205] Memory required for data: 511705088
I0224 06:46:02.428444   569 layer_factory.hpp:123] Creating layer ConvNd_22
I0224 06:46:02.428450   569 net.cpp:140] Creating Layer ConvNd_22
I0224 06:46:02.428454   569 net.cpp:481] ConvNd_22 <- Add_6_Threshold_25_0_split_0
I0224 06:46:02.428458   569 net.cpp:455] ConvNd_22 -> ConvNd_22
I0224 06:46:02.428606   569 net.cpp:190] Setting up ConvNd_22
I0224 06:46:02.428611   569 net.cpp:197] Top shape: 1 32 64 128 (262144)
I0224 06:46:02.428617   569 net.cpp:205] Memory required for data: 512753664
I0224 06:46:02.428622   569 layer_factory.hpp:123] Creating layer BatchNorm_20
I0224 06:46:02.428627   569 net.cpp:140] Creating Layer BatchNorm_20
I0224 06:46:02.428630   569 net.cpp:481] BatchNorm_20 <- ConvNd_22
I0224 06:46:02.428635   569 net.cpp:455] BatchNorm_20 -> BatchNorm_20
I0224 06:46:02.429157   569 net.cpp:190] Setting up BatchNorm_20
I0224 06:46:02.429163   569 net.cpp:197] Top shape: 1 32 64 128 (262144)
I0224 06:46:02.429167   569 net.cpp:205] Memory required for data: 513802240
I0224 06:46:02.429175   569 layer_factory.hpp:123] Creating layer Threshold_26
I0224 06:46:02.429179   569 net.cpp:140] Creating Layer Threshold_26
I0224 06:46:02.429183   569 net.cpp:481] Threshold_26 <- BatchNorm_20
I0224 06:46:02.429188   569 net.cpp:442] Threshold_26 -> BatchNorm_20 (in-place)
I0224 06:46:02.429193   569 net.cpp:190] Setting up Threshold_26
I0224 06:46:02.429195   569 net.cpp:197] Top shape: 1 32 64 128 (262144)
I0224 06:46:02.429199   569 net.cpp:205] Memory required for data: 514850816
I0224 06:46:02.429203   569 layer_factory.hpp:123] Creating layer ConvNd_23
I0224 06:46:02.429208   569 net.cpp:140] Creating Layer ConvNd_23
I0224 06:46:02.429211   569 net.cpp:481] ConvNd_23 <- BatchNorm_20
I0224 06:46:02.429215   569 net.cpp:455] ConvNd_23 -> ConvNd_23
I0224 06:46:02.429384   569 net.cpp:190] Setting up ConvNd_23
I0224 06:46:02.429391   569 net.cpp:197] Top shape: 1 32 64 128 (262144)
I0224 06:46:02.429396   569 net.cpp:205] Memory required for data: 515899392
I0224 06:46:02.429401   569 layer_factory.hpp:123] Creating layer BatchNorm_21
I0224 06:46:02.429407   569 net.cpp:140] Creating Layer BatchNorm_21
I0224 06:46:02.429411   569 net.cpp:481] BatchNorm_21 <- ConvNd_23
I0224 06:46:02.429415   569 net.cpp:455] BatchNorm_21 -> BatchNorm_21
I0224 06:46:02.429937   569 net.cpp:190] Setting up BatchNorm_21
I0224 06:46:02.429944   569 net.cpp:197] Top shape: 1 32 64 128 (262144)
I0224 06:46:02.429949   569 net.cpp:205] Memory required for data: 516947968
I0224 06:46:02.429956   569 layer_factory.hpp:123] Creating layer Threshold_27
I0224 06:46:02.429961   569 net.cpp:140] Creating Layer Threshold_27
I0224 06:46:02.429965   569 net.cpp:481] Threshold_27 <- BatchNorm_21
I0224 06:46:02.429968   569 net.cpp:442] Threshold_27 -> BatchNorm_21 (in-place)
I0224 06:46:02.429973   569 net.cpp:190] Setting up Threshold_27
I0224 06:46:02.429976   569 net.cpp:197] Top shape: 1 32 64 128 (262144)
I0224 06:46:02.429980   569 net.cpp:205] Memory required for data: 517996544
I0224 06:46:02.429983   569 layer_factory.hpp:123] Creating layer ConvNd_24
I0224 06:46:02.429989   569 net.cpp:140] Creating Layer ConvNd_24
I0224 06:46:02.429992   569 net.cpp:481] ConvNd_24 <- BatchNorm_21
I0224 06:46:02.429997   569 net.cpp:455] ConvNd_24 -> ConvNd_24
I0224 06:46:02.430147   569 net.cpp:190] Setting up ConvNd_24
I0224 06:46:02.430153   569 net.cpp:197] Top shape: 1 128 64 128 (1048576)
I0224 06:46:02.430158   569 net.cpp:205] Memory required for data: 522190848
I0224 06:46:02.430166   569 layer_factory.hpp:123] Creating layer BatchNorm_22
I0224 06:46:02.430173   569 net.cpp:140] Creating Layer BatchNorm_22
I0224 06:46:02.430176   569 net.cpp:481] BatchNorm_22 <- ConvNd_24
I0224 06:46:02.430182   569 net.cpp:455] BatchNorm_22 -> BatchNorm_22
I0224 06:46:02.430625   569 net.cpp:190] Setting up BatchNorm_22
I0224 06:46:02.430632   569 net.cpp:197] Top shape: 1 128 64 128 (1048576)
I0224 06:46:02.430637   569 net.cpp:205] Memory required for data: 526385152
I0224 06:46:02.430644   569 layer_factory.hpp:123] Creating layer Threshold_28
I0224 06:46:02.430649   569 net.cpp:140] Creating Layer Threshold_28
I0224 06:46:02.430652   569 net.cpp:481] Threshold_28 <- BatchNorm_22
I0224 06:46:02.430656   569 net.cpp:442] Threshold_28 -> BatchNorm_22 (in-place)
I0224 06:46:02.430662   569 net.cpp:190] Setting up Threshold_28
I0224 06:46:02.430665   569 net.cpp:197] Top shape: 1 128 64 128 (1048576)
I0224 06:46:02.430670   569 net.cpp:205] Memory required for data: 530579456
I0224 06:46:02.430672   569 layer_factory.hpp:123] Creating layer Add_7
I0224 06:46:02.430676   569 net.cpp:140] Creating Layer Add_7
I0224 06:46:02.430680   569 net.cpp:481] Add_7 <- Add_6_Threshold_25_0_split_1
I0224 06:46:02.430683   569 net.cpp:481] Add_7 <- BatchNorm_22
I0224 06:46:02.430688   569 net.cpp:455] Add_7 -> Add_7
I0224 06:46:02.430706   569 net.cpp:190] Setting up Add_7
I0224 06:46:02.430708   569 net.cpp:197] Top shape: 1 128 64 128 (1048576)
I0224 06:46:02.430712   569 net.cpp:205] Memory required for data: 534773760
I0224 06:46:02.430716   569 layer_factory.hpp:123] Creating layer Threshold_29
I0224 06:46:02.430721   569 net.cpp:140] Creating Layer Threshold_29
I0224 06:46:02.430723   569 net.cpp:481] Threshold_29 <- Add_7
I0224 06:46:02.430727   569 net.cpp:442] Threshold_29 -> Add_7 (in-place)
I0224 06:46:02.430732   569 net.cpp:190] Setting up Threshold_29
I0224 06:46:02.430734   569 net.cpp:197] Top shape: 1 128 64 128 (1048576)
I0224 06:46:02.430738   569 net.cpp:205] Memory required for data: 538968064
I0224 06:46:02.430742   569 layer_factory.hpp:123] Creating layer Add_7_Threshold_29_0_split
I0224 06:46:02.430747   569 net.cpp:140] Creating Layer Add_7_Threshold_29_0_split
I0224 06:46:02.430749   569 net.cpp:481] Add_7_Threshold_29_0_split <- Add_7
I0224 06:46:02.430753   569 net.cpp:455] Add_7_Threshold_29_0_split -> Add_7_Threshold_29_0_split_0
I0224 06:46:02.430758   569 net.cpp:455] Add_7_Threshold_29_0_split -> Add_7_Threshold_29_0_split_1
I0224 06:46:02.430783   569 net.cpp:190] Setting up Add_7_Threshold_29_0_split
I0224 06:46:02.430788   569 net.cpp:197] Top shape: 1 128 64 128 (1048576)
I0224 06:46:02.430793   569 net.cpp:197] Top shape: 1 128 64 128 (1048576)
I0224 06:46:02.430796   569 net.cpp:205] Memory required for data: 547356672
I0224 06:46:02.430799   569 layer_factory.hpp:123] Creating layer ConvNd_25
I0224 06:46:02.430805   569 net.cpp:140] Creating Layer ConvNd_25
I0224 06:46:02.430809   569 net.cpp:481] ConvNd_25 <- Add_7_Threshold_29_0_split_0
I0224 06:46:02.430814   569 net.cpp:455] ConvNd_25 -> ConvNd_25
I0224 06:46:02.430959   569 net.cpp:190] Setting up ConvNd_25
I0224 06:46:02.430965   569 net.cpp:197] Top shape: 1 32 64 128 (262144)
I0224 06:46:02.430970   569 net.cpp:205] Memory required for data: 548405248
I0224 06:46:02.430974   569 layer_factory.hpp:123] Creating layer BatchNorm_23
I0224 06:46:02.430981   569 net.cpp:140] Creating Layer BatchNorm_23
I0224 06:46:02.430984   569 net.cpp:481] BatchNorm_23 <- ConvNd_25
I0224 06:46:02.430989   569 net.cpp:455] BatchNorm_23 -> BatchNorm_23
I0224 06:46:02.431509   569 net.cpp:190] Setting up BatchNorm_23
I0224 06:46:02.431514   569 net.cpp:197] Top shape: 1 32 64 128 (262144)
I0224 06:46:02.431519   569 net.cpp:205] Memory required for data: 549453824
I0224 06:46:02.431526   569 layer_factory.hpp:123] Creating layer Threshold_30
I0224 06:46:02.431531   569 net.cpp:140] Creating Layer Threshold_30
I0224 06:46:02.431535   569 net.cpp:481] Threshold_30 <- BatchNorm_23
I0224 06:46:02.431538   569 net.cpp:442] Threshold_30 -> BatchNorm_23 (in-place)
I0224 06:46:02.431545   569 net.cpp:190] Setting up Threshold_30
I0224 06:46:02.431547   569 net.cpp:197] Top shape: 1 32 64 128 (262144)
I0224 06:46:02.431550   569 net.cpp:205] Memory required for data: 550502400
I0224 06:46:02.431555   569 layer_factory.hpp:123] Creating layer ConvNd_26
I0224 06:46:02.431560   569 net.cpp:140] Creating Layer ConvNd_26
I0224 06:46:02.431562   569 net.cpp:481] ConvNd_26 <- BatchNorm_23
I0224 06:46:02.431567   569 net.cpp:455] ConvNd_26 -> ConvNd_26
I0224 06:46:02.431717   569 net.cpp:190] Setting up ConvNd_26
I0224 06:46:02.431723   569 net.cpp:197] Top shape: 1 32 64 128 (262144)
I0224 06:46:02.431728   569 net.cpp:205] Memory required for data: 551550976
I0224 06:46:02.431732   569 layer_factory.hpp:123] Creating layer BatchNorm_24
I0224 06:46:02.431738   569 net.cpp:140] Creating Layer BatchNorm_24
I0224 06:46:02.431741   569 net.cpp:481] BatchNorm_24 <- ConvNd_26
I0224 06:46:02.431746   569 net.cpp:455] BatchNorm_24 -> BatchNorm_24
I0224 06:46:02.432267   569 net.cpp:190] Setting up BatchNorm_24
I0224 06:46:02.432273   569 net.cpp:197] Top shape: 1 32 64 128 (262144)
I0224 06:46:02.432277   569 net.cpp:205] Memory required for data: 552599552
I0224 06:46:02.432284   569 layer_factory.hpp:123] Creating layer Threshold_31
I0224 06:46:02.432289   569 net.cpp:140] Creating Layer Threshold_31
I0224 06:46:02.432293   569 net.cpp:481] Threshold_31 <- BatchNorm_24
I0224 06:46:02.432297   569 net.cpp:442] Threshold_31 -> BatchNorm_24 (in-place)
I0224 06:46:02.432302   569 net.cpp:190] Setting up Threshold_31
I0224 06:46:02.432305   569 net.cpp:197] Top shape: 1 32 64 128 (262144)
I0224 06:46:02.432309   569 net.cpp:205] Memory required for data: 553648128
I0224 06:46:02.432312   569 layer_factory.hpp:123] Creating layer ConvNd_27
I0224 06:46:02.432318   569 net.cpp:140] Creating Layer ConvNd_27
I0224 06:46:02.432322   569 net.cpp:481] ConvNd_27 <- BatchNorm_24
I0224 06:46:02.432327   569 net.cpp:455] ConvNd_27 -> ConvNd_27
I0224 06:46:02.432477   569 net.cpp:190] Setting up ConvNd_27
I0224 06:46:02.432483   569 net.cpp:197] Top shape: 1 128 64 128 (1048576)
I0224 06:46:02.432488   569 net.cpp:205] Memory required for data: 557842432
I0224 06:46:02.432492   569 layer_factory.hpp:123] Creating layer BatchNorm_25
I0224 06:46:02.432498   569 net.cpp:140] Creating Layer BatchNorm_25
I0224 06:46:02.432502   569 net.cpp:481] BatchNorm_25 <- ConvNd_27
I0224 06:46:02.432507   569 net.cpp:455] BatchNorm_25 -> BatchNorm_25
I0224 06:46:02.432950   569 net.cpp:190] Setting up BatchNorm_25
I0224 06:46:02.432957   569 net.cpp:197] Top shape: 1 128 64 128 (1048576)
I0224 06:46:02.432961   569 net.cpp:205] Memory required for data: 562036736
I0224 06:46:02.432970   569 layer_factory.hpp:123] Creating layer Threshold_32
I0224 06:46:02.432973   569 net.cpp:140] Creating Layer Threshold_32
I0224 06:46:02.432977   569 net.cpp:481] Threshold_32 <- BatchNorm_25
I0224 06:46:02.432981   569 net.cpp:442] Threshold_32 -> BatchNorm_25 (in-place)
I0224 06:46:02.432986   569 net.cpp:190] Setting up Threshold_32
I0224 06:46:02.432989   569 net.cpp:197] Top shape: 1 128 64 128 (1048576)
I0224 06:46:02.432993   569 net.cpp:205] Memory required for data: 566231040
I0224 06:46:02.432996   569 layer_factory.hpp:123] Creating layer Add_8
I0224 06:46:02.433001   569 net.cpp:140] Creating Layer Add_8
I0224 06:46:02.433004   569 net.cpp:481] Add_8 <- Add_7_Threshold_29_0_split_1
I0224 06:46:02.433007   569 net.cpp:481] Add_8 <- BatchNorm_25
I0224 06:46:02.433012   569 net.cpp:455] Add_8 -> Add_8
I0224 06:46:02.433029   569 net.cpp:190] Setting up Add_8
I0224 06:46:02.433032   569 net.cpp:197] Top shape: 1 128 64 128 (1048576)
I0224 06:46:02.433037   569 net.cpp:205] Memory required for data: 570425344
I0224 06:46:02.433040   569 layer_factory.hpp:123] Creating layer Threshold_33
I0224 06:46:02.433044   569 net.cpp:140] Creating Layer Threshold_33
I0224 06:46:02.433048   569 net.cpp:481] Threshold_33 <- Add_8
I0224 06:46:02.433051   569 net.cpp:442] Threshold_33 -> Add_8 (in-place)
I0224 06:46:02.433056   569 net.cpp:190] Setting up Threshold_33
I0224 06:46:02.433058   569 net.cpp:197] Top shape: 1 128 64 128 (1048576)
I0224 06:46:02.433063   569 net.cpp:205] Memory required for data: 574619648
I0224 06:46:02.433066   569 layer_factory.hpp:123] Creating layer Add_8_Threshold_33_0_split
I0224 06:46:02.433070   569 net.cpp:140] Creating Layer Add_8_Threshold_33_0_split
I0224 06:46:02.433074   569 net.cpp:481] Add_8_Threshold_33_0_split <- Add_8
I0224 06:46:02.433079   569 net.cpp:455] Add_8_Threshold_33_0_split -> Add_8_Threshold_33_0_split_0
I0224 06:46:02.433084   569 net.cpp:455] Add_8_Threshold_33_0_split -> Add_8_Threshold_33_0_split_1
I0224 06:46:02.433107   569 net.cpp:190] Setting up Add_8_Threshold_33_0_split
I0224 06:46:02.433113   569 net.cpp:197] Top shape: 1 128 64 128 (1048576)
I0224 06:46:02.433117   569 net.cpp:197] Top shape: 1 128 64 128 (1048576)
I0224 06:46:02.433121   569 net.cpp:205] Memory required for data: 583008256
I0224 06:46:02.433125   569 layer_factory.hpp:123] Creating layer ConvNd_28
I0224 06:46:02.433131   569 net.cpp:140] Creating Layer ConvNd_28
I0224 06:46:02.433135   569 net.cpp:481] ConvNd_28 <- Add_8_Threshold_33_0_split_0
I0224 06:46:02.433138   569 net.cpp:455] ConvNd_28 -> ConvNd_28
I0224 06:46:02.433296   569 net.cpp:190] Setting up ConvNd_28
I0224 06:46:02.433302   569 net.cpp:197] Top shape: 1 32 64 128 (262144)
I0224 06:46:02.433307   569 net.cpp:205] Memory required for data: 584056832
I0224 06:46:02.433311   569 layer_factory.hpp:123] Creating layer BatchNorm_26
I0224 06:46:02.433326   569 net.cpp:140] Creating Layer BatchNorm_26
I0224 06:46:02.433329   569 net.cpp:481] BatchNorm_26 <- ConvNd_28
I0224 06:46:02.433334   569 net.cpp:455] BatchNorm_26 -> BatchNorm_26
I0224 06:46:02.433861   569 net.cpp:190] Setting up BatchNorm_26
I0224 06:46:02.433868   569 net.cpp:197] Top shape: 1 32 64 128 (262144)
I0224 06:46:02.433873   569 net.cpp:205] Memory required for data: 585105408
I0224 06:46:02.433881   569 layer_factory.hpp:123] Creating layer Threshold_34
I0224 06:46:02.433885   569 net.cpp:140] Creating Layer Threshold_34
I0224 06:46:02.433889   569 net.cpp:481] Threshold_34 <- BatchNorm_26
I0224 06:46:02.433893   569 net.cpp:442] Threshold_34 -> BatchNorm_26 (in-place)
I0224 06:46:02.433899   569 net.cpp:190] Setting up Threshold_34
I0224 06:46:02.433902   569 net.cpp:197] Top shape: 1 32 64 128 (262144)
I0224 06:46:02.433905   569 net.cpp:205] Memory required for data: 586153984
I0224 06:46:02.433909   569 layer_factory.hpp:123] Creating layer ConvNd_29
I0224 06:46:02.433914   569 net.cpp:140] Creating Layer ConvNd_29
I0224 06:46:02.433917   569 net.cpp:481] ConvNd_29 <- BatchNorm_26
I0224 06:46:02.433923   569 net.cpp:455] ConvNd_29 -> ConvNd_29
I0224 06:46:02.434741   569 net.cpp:190] Setting up ConvNd_29
I0224 06:46:02.434751   569 net.cpp:197] Top shape: 1 32 64 128 (262144)
I0224 06:46:02.434757   569 net.cpp:205] Memory required for data: 587202560
I0224 06:46:02.434762   569 layer_factory.hpp:123] Creating layer BatchNorm_27
I0224 06:46:02.434769   569 net.cpp:140] Creating Layer BatchNorm_27
I0224 06:46:02.434773   569 net.cpp:481] BatchNorm_27 <- ConvNd_29
I0224 06:46:02.434779   569 net.cpp:455] BatchNorm_27 -> BatchNorm_27
I0224 06:46:02.435319   569 net.cpp:190] Setting up BatchNorm_27
I0224 06:46:02.435326   569 net.cpp:197] Top shape: 1 32 64 128 (262144)
I0224 06:46:02.435331   569 net.cpp:205] Memory required for data: 588251136
I0224 06:46:02.435339   569 layer_factory.hpp:123] Creating layer Threshold_35
I0224 06:46:02.435344   569 net.cpp:140] Creating Layer Threshold_35
I0224 06:46:02.435348   569 net.cpp:481] Threshold_35 <- BatchNorm_27
I0224 06:46:02.435353   569 net.cpp:442] Threshold_35 -> BatchNorm_27 (in-place)
I0224 06:46:02.435358   569 net.cpp:190] Setting up Threshold_35
I0224 06:46:02.435360   569 net.cpp:197] Top shape: 1 32 64 128 (262144)
I0224 06:46:02.435364   569 net.cpp:205] Memory required for data: 589299712
I0224 06:46:02.435367   569 layer_factory.hpp:123] Creating layer ConvNd_30
I0224 06:46:02.435374   569 net.cpp:140] Creating Layer ConvNd_30
I0224 06:46:02.435376   569 net.cpp:481] ConvNd_30 <- BatchNorm_27
I0224 06:46:02.435380   569 net.cpp:455] ConvNd_30 -> ConvNd_30
I0224 06:46:02.435534   569 net.cpp:190] Setting up ConvNd_30
I0224 06:46:02.435541   569 net.cpp:197] Top shape: 1 32 64 128 (262144)
I0224 06:46:02.435546   569 net.cpp:205] Memory required for data: 590348288
I0224 06:46:02.435550   569 layer_factory.hpp:123] Creating layer BatchNorm_28
I0224 06:46:02.435557   569 net.cpp:140] Creating Layer BatchNorm_28
I0224 06:46:02.435560   569 net.cpp:481] BatchNorm_28 <- ConvNd_30
I0224 06:46:02.435565   569 net.cpp:455] BatchNorm_28 -> BatchNorm_28
I0224 06:46:02.436102   569 net.cpp:190] Setting up BatchNorm_28
I0224 06:46:02.436110   569 net.cpp:197] Top shape: 1 32 64 128 (262144)
I0224 06:46:02.436113   569 net.cpp:205] Memory required for data: 591396864
I0224 06:46:02.436121   569 layer_factory.hpp:123] Creating layer Threshold_36
I0224 06:46:02.436125   569 net.cpp:140] Creating Layer Threshold_36
I0224 06:46:02.436130   569 net.cpp:481] Threshold_36 <- BatchNorm_28
I0224 06:46:02.436133   569 net.cpp:442] Threshold_36 -> BatchNorm_28 (in-place)
I0224 06:46:02.436139   569 net.cpp:190] Setting up Threshold_36
I0224 06:46:02.436142   569 net.cpp:197] Top shape: 1 32 64 128 (262144)
I0224 06:46:02.436146   569 net.cpp:205] Memory required for data: 592445440
I0224 06:46:02.436149   569 layer_factory.hpp:123] Creating layer ConvNd_31
I0224 06:46:02.436156   569 net.cpp:140] Creating Layer ConvNd_31
I0224 06:46:02.436159   569 net.cpp:481] ConvNd_31 <- BatchNorm_28
I0224 06:46:02.436163   569 net.cpp:455] ConvNd_31 -> ConvNd_31
I0224 06:46:02.436317   569 net.cpp:190] Setting up ConvNd_31
I0224 06:46:02.436323   569 net.cpp:197] Top shape: 1 128 64 128 (1048576)
I0224 06:46:02.436328   569 net.cpp:205] Memory required for data: 596639744
I0224 06:46:02.436333   569 layer_factory.hpp:123] Creating layer BatchNorm_29
I0224 06:46:02.436339   569 net.cpp:140] Creating Layer BatchNorm_29
I0224 06:46:02.436342   569 net.cpp:481] BatchNorm_29 <- ConvNd_31
I0224 06:46:02.436347   569 net.cpp:455] BatchNorm_29 -> BatchNorm_29
I0224 06:46:02.436802   569 net.cpp:190] Setting up BatchNorm_29
I0224 06:46:02.436808   569 net.cpp:197] Top shape: 1 128 64 128 (1048576)
I0224 06:46:02.436813   569 net.cpp:205] Memory required for data: 600834048
I0224 06:46:02.436820   569 layer_factory.hpp:123] Creating layer Threshold_37
I0224 06:46:02.436825   569 net.cpp:140] Creating Layer Threshold_37
I0224 06:46:02.436830   569 net.cpp:481] Threshold_37 <- BatchNorm_29
I0224 06:46:02.436832   569 net.cpp:442] Threshold_37 -> BatchNorm_29 (in-place)
I0224 06:46:02.436838   569 net.cpp:190] Setting up Threshold_37
I0224 06:46:02.436841   569 net.cpp:197] Top shape: 1 128 64 128 (1048576)
I0224 06:46:02.436846   569 net.cpp:205] Memory required for data: 605028352
I0224 06:46:02.436848   569 layer_factory.hpp:123] Creating layer Add_9
I0224 06:46:02.436853   569 net.cpp:140] Creating Layer Add_9
I0224 06:46:02.436856   569 net.cpp:481] Add_9 <- Add_8_Threshold_33_0_split_1
I0224 06:46:02.436861   569 net.cpp:481] Add_9 <- BatchNorm_29
I0224 06:46:02.436864   569 net.cpp:455] Add_9 -> Add_9
I0224 06:46:02.436882   569 net.cpp:190] Setting up Add_9
I0224 06:46:02.436885   569 net.cpp:197] Top shape: 1 128 64 128 (1048576)
I0224 06:46:02.436890   569 net.cpp:205] Memory required for data: 609222656
I0224 06:46:02.436893   569 layer_factory.hpp:123] Creating layer Threshold_38
I0224 06:46:02.436897   569 net.cpp:140] Creating Layer Threshold_38
I0224 06:46:02.436900   569 net.cpp:481] Threshold_38 <- Add_9
I0224 06:46:02.436904   569 net.cpp:442] Threshold_38 -> Add_9 (in-place)
I0224 06:46:02.436909   569 net.cpp:190] Setting up Threshold_38
I0224 06:46:02.436913   569 net.cpp:197] Top shape: 1 128 64 128 (1048576)
I0224 06:46:02.436915   569 net.cpp:205] Memory required for data: 613416960
I0224 06:46:02.436918   569 layer_factory.hpp:123] Creating layer Add_9_Threshold_38_0_split
I0224 06:46:02.436923   569 net.cpp:140] Creating Layer Add_9_Threshold_38_0_split
I0224 06:46:02.436926   569 net.cpp:481] Add_9_Threshold_38_0_split <- Add_9
I0224 06:46:02.436930   569 net.cpp:455] Add_9_Threshold_38_0_split -> Add_9_Threshold_38_0_split_0
I0224 06:46:02.436935   569 net.cpp:455] Add_9_Threshold_38_0_split -> Add_9_Threshold_38_0_split_1
I0224 06:46:02.436961   569 net.cpp:190] Setting up Add_9_Threshold_38_0_split
I0224 06:46:02.436966   569 net.cpp:197] Top shape: 1 128 64 128 (1048576)
I0224 06:46:02.436971   569 net.cpp:197] Top shape: 1 128 64 128 (1048576)
I0224 06:46:02.436975   569 net.cpp:205] Memory required for data: 621805568
I0224 06:46:02.436978   569 layer_factory.hpp:123] Creating layer ConvNd_32
I0224 06:46:02.436985   569 net.cpp:140] Creating Layer ConvNd_32
I0224 06:46:02.436987   569 net.cpp:481] ConvNd_32 <- Add_9_Threshold_38_0_split_0
I0224 06:46:02.436992   569 net.cpp:455] ConvNd_32 -> ConvNd_32
I0224 06:46:02.437151   569 net.cpp:190] Setting up ConvNd_32
I0224 06:46:02.437158   569 net.cpp:197] Top shape: 1 32 64 128 (262144)
I0224 06:46:02.437162   569 net.cpp:205] Memory required for data: 622854144
I0224 06:46:02.437167   569 layer_factory.hpp:123] Creating layer BatchNorm_30
I0224 06:46:02.437173   569 net.cpp:140] Creating Layer BatchNorm_30
I0224 06:46:02.437177   569 net.cpp:481] BatchNorm_30 <- ConvNd_32
I0224 06:46:02.437182   569 net.cpp:455] BatchNorm_30 -> BatchNorm_30
I0224 06:46:02.437734   569 net.cpp:190] Setting up BatchNorm_30
I0224 06:46:02.437741   569 net.cpp:197] Top shape: 1 32 64 128 (262144)
I0224 06:46:02.437747   569 net.cpp:205] Memory required for data: 623902720
I0224 06:46:02.437754   569 layer_factory.hpp:123] Creating layer Threshold_39
I0224 06:46:02.437759   569 net.cpp:140] Creating Layer Threshold_39
I0224 06:46:02.437764   569 net.cpp:481] Threshold_39 <- BatchNorm_30
I0224 06:46:02.437768   569 net.cpp:442] Threshold_39 -> BatchNorm_30 (in-place)
I0224 06:46:02.437773   569 net.cpp:190] Setting up Threshold_39
I0224 06:46:02.437777   569 net.cpp:197] Top shape: 1 32 64 128 (262144)
I0224 06:46:02.437780   569 net.cpp:205] Memory required for data: 624951296
I0224 06:46:02.437783   569 layer_factory.hpp:123] Creating layer ConvNd_33
I0224 06:46:02.437789   569 net.cpp:140] Creating Layer ConvNd_33
I0224 06:46:02.437793   569 net.cpp:481] ConvNd_33 <- BatchNorm_30
I0224 06:46:02.437798   569 net.cpp:455] ConvNd_33 -> ConvNd_33
I0224 06:46:02.437952   569 net.cpp:190] Setting up ConvNd_33
I0224 06:46:02.437959   569 net.cpp:197] Top shape: 1 32 64 128 (262144)
I0224 06:46:02.437963   569 net.cpp:205] Memory required for data: 625999872
I0224 06:46:02.437968   569 layer_factory.hpp:123] Creating layer BatchNorm_31
I0224 06:46:02.437978   569 net.cpp:140] Creating Layer BatchNorm_31
I0224 06:46:02.437980   569 net.cpp:481] BatchNorm_31 <- ConvNd_33
I0224 06:46:02.437985   569 net.cpp:455] BatchNorm_31 -> BatchNorm_31
I0224 06:46:02.438521   569 net.cpp:190] Setting up BatchNorm_31
I0224 06:46:02.438529   569 net.cpp:197] Top shape: 1 32 64 128 (262144)
I0224 06:46:02.438534   569 net.cpp:205] Memory required for data: 627048448
I0224 06:46:02.438541   569 layer_factory.hpp:123] Creating layer Threshold_40
I0224 06:46:02.438545   569 net.cpp:140] Creating Layer Threshold_40
I0224 06:46:02.438549   569 net.cpp:481] Threshold_40 <- BatchNorm_31
I0224 06:46:02.438553   569 net.cpp:442] Threshold_40 -> BatchNorm_31 (in-place)
I0224 06:46:02.438558   569 net.cpp:190] Setting up Threshold_40
I0224 06:46:02.438561   569 net.cpp:197] Top shape: 1 32 64 128 (262144)
I0224 06:46:02.438565   569 net.cpp:205] Memory required for data: 628097024
I0224 06:46:02.438570   569 layer_factory.hpp:123] Creating layer ConvNd_34
I0224 06:46:02.438575   569 net.cpp:140] Creating Layer ConvNd_34
I0224 06:46:02.438578   569 net.cpp:481] ConvNd_34 <- BatchNorm_31
I0224 06:46:02.438582   569 net.cpp:455] ConvNd_34 -> ConvNd_34
I0224 06:46:02.438735   569 net.cpp:190] Setting up ConvNd_34
I0224 06:46:02.438742   569 net.cpp:197] Top shape: 1 128 64 128 (1048576)
I0224 06:46:02.438747   569 net.cpp:205] Memory required for data: 632291328
I0224 06:46:02.438751   569 layer_factory.hpp:123] Creating layer BatchNorm_32
I0224 06:46:02.438757   569 net.cpp:140] Creating Layer BatchNorm_32
I0224 06:46:02.438761   569 net.cpp:481] BatchNorm_32 <- ConvNd_34
I0224 06:46:02.438766   569 net.cpp:455] BatchNorm_32 -> BatchNorm_32
I0224 06:46:02.439220   569 net.cpp:190] Setting up BatchNorm_32
I0224 06:46:02.439227   569 net.cpp:197] Top shape: 1 128 64 128 (1048576)
I0224 06:46:02.439232   569 net.cpp:205] Memory required for data: 636485632
I0224 06:46:02.439239   569 layer_factory.hpp:123] Creating layer Threshold_41
I0224 06:46:02.439244   569 net.cpp:140] Creating Layer Threshold_41
I0224 06:46:02.439247   569 net.cpp:481] Threshold_41 <- BatchNorm_32
I0224 06:46:02.439251   569 net.cpp:442] Threshold_41 -> BatchNorm_32 (in-place)
I0224 06:46:02.439256   569 net.cpp:190] Setting up Threshold_41
I0224 06:46:02.439260   569 net.cpp:197] Top shape: 1 128 64 128 (1048576)
I0224 06:46:02.439263   569 net.cpp:205] Memory required for data: 640679936
I0224 06:46:02.439267   569 layer_factory.hpp:123] Creating layer Add_10
I0224 06:46:02.439271   569 net.cpp:140] Creating Layer Add_10
I0224 06:46:02.439275   569 net.cpp:481] Add_10 <- Add_9_Threshold_38_0_split_1
I0224 06:46:02.439278   569 net.cpp:481] Add_10 <- BatchNorm_32
I0224 06:46:02.439283   569 net.cpp:455] Add_10 -> Add_10
I0224 06:46:02.439301   569 net.cpp:190] Setting up Add_10
I0224 06:46:02.439303   569 net.cpp:197] Top shape: 1 128 64 128 (1048576)
I0224 06:46:02.439308   569 net.cpp:205] Memory required for data: 644874240
I0224 06:46:02.439311   569 layer_factory.hpp:123] Creating layer Threshold_42
I0224 06:46:02.439316   569 net.cpp:140] Creating Layer Threshold_42
I0224 06:46:02.439318   569 net.cpp:481] Threshold_42 <- Add_10
I0224 06:46:02.439322   569 net.cpp:442] Threshold_42 -> Add_10 (in-place)
I0224 06:46:02.439327   569 net.cpp:190] Setting up Threshold_42
I0224 06:46:02.439330   569 net.cpp:197] Top shape: 1 128 64 128 (1048576)
I0224 06:46:02.439334   569 net.cpp:205] Memory required for data: 649068544
I0224 06:46:02.439337   569 layer_factory.hpp:123] Creating layer Add_10_Threshold_42_0_split
I0224 06:46:02.439342   569 net.cpp:140] Creating Layer Add_10_Threshold_42_0_split
I0224 06:46:02.439344   569 net.cpp:481] Add_10_Threshold_42_0_split <- Add_10
I0224 06:46:02.439349   569 net.cpp:455] Add_10_Threshold_42_0_split -> Add_10_Threshold_42_0_split_0
I0224 06:46:02.439354   569 net.cpp:455] Add_10_Threshold_42_0_split -> Add_10_Threshold_42_0_split_1
I0224 06:46:02.439378   569 net.cpp:190] Setting up Add_10_Threshold_42_0_split
I0224 06:46:02.439384   569 net.cpp:197] Top shape: 1 128 64 128 (1048576)
I0224 06:46:02.439388   569 net.cpp:197] Top shape: 1 128 64 128 (1048576)
I0224 06:46:02.439393   569 net.cpp:205] Memory required for data: 657457152
I0224 06:46:02.439396   569 layer_factory.hpp:123] Creating layer ConvNd_35
I0224 06:46:02.439402   569 net.cpp:140] Creating Layer ConvNd_35
I0224 06:46:02.439405   569 net.cpp:481] ConvNd_35 <- Add_10_Threshold_42_0_split_0
I0224 06:46:02.439410   569 net.cpp:455] ConvNd_35 -> ConvNd_35
I0224 06:46:02.439559   569 net.cpp:190] Setting up ConvNd_35
I0224 06:46:02.439566   569 net.cpp:197] Top shape: 1 32 64 128 (262144)
I0224 06:46:02.439570   569 net.cpp:205] Memory required for data: 658505728
I0224 06:46:02.439575   569 layer_factory.hpp:123] Creating layer BatchNorm_33
I0224 06:46:02.439581   569 net.cpp:140] Creating Layer BatchNorm_33
I0224 06:46:02.439585   569 net.cpp:481] BatchNorm_33 <- ConvNd_35
I0224 06:46:02.439590   569 net.cpp:455] BatchNorm_33 -> BatchNorm_33
I0224 06:46:02.440129   569 net.cpp:190] Setting up BatchNorm_33
I0224 06:46:02.440136   569 net.cpp:197] Top shape: 1 32 64 128 (262144)
I0224 06:46:02.440141   569 net.cpp:205] Memory required for data: 659554304
I0224 06:46:02.440148   569 layer_factory.hpp:123] Creating layer Threshold_43
I0224 06:46:02.440153   569 net.cpp:140] Creating Layer Threshold_43
I0224 06:46:02.440157   569 net.cpp:481] Threshold_43 <- BatchNorm_33
I0224 06:46:02.440161   569 net.cpp:442] Threshold_43 -> BatchNorm_33 (in-place)
I0224 06:46:02.440166   569 net.cpp:190] Setting up Threshold_43
I0224 06:46:02.440169   569 net.cpp:197] Top shape: 1 32 64 128 (262144)
I0224 06:46:02.440173   569 net.cpp:205] Memory required for data: 660602880
I0224 06:46:02.440176   569 layer_factory.hpp:123] Creating layer ConvNd_36
I0224 06:46:02.440182   569 net.cpp:140] Creating Layer ConvNd_36
I0224 06:46:02.440186   569 net.cpp:481] ConvNd_36 <- BatchNorm_33
I0224 06:46:02.440189   569 net.cpp:455] ConvNd_36 -> ConvNd_36
I0224 06:46:02.440348   569 net.cpp:190] Setting up ConvNd_36
I0224 06:46:02.440356   569 net.cpp:197] Top shape: 1 32 64 128 (262144)
I0224 06:46:02.440359   569 net.cpp:205] Memory required for data: 661651456
I0224 06:46:02.440364   569 layer_factory.hpp:123] Creating layer BatchNorm_34
I0224 06:46:02.440371   569 net.cpp:140] Creating Layer BatchNorm_34
I0224 06:46:02.440374   569 net.cpp:481] BatchNorm_34 <- ConvNd_36
I0224 06:46:02.440379   569 net.cpp:455] BatchNorm_34 -> BatchNorm_34
I0224 06:46:02.440917   569 net.cpp:190] Setting up BatchNorm_34
I0224 06:46:02.440923   569 net.cpp:197] Top shape: 1 32 64 128 (262144)
I0224 06:46:02.440928   569 net.cpp:205] Memory required for data: 662700032
I0224 06:46:02.440935   569 layer_factory.hpp:123] Creating layer Threshold_44
I0224 06:46:02.440939   569 net.cpp:140] Creating Layer Threshold_44
I0224 06:46:02.440943   569 net.cpp:481] Threshold_44 <- BatchNorm_34
I0224 06:46:02.440948   569 net.cpp:442] Threshold_44 -> BatchNorm_34 (in-place)
I0224 06:46:02.440953   569 net.cpp:190] Setting up Threshold_44
I0224 06:46:02.440956   569 net.cpp:197] Top shape: 1 32 64 128 (262144)
I0224 06:46:02.440960   569 net.cpp:205] Memory required for data: 663748608
I0224 06:46:02.440963   569 layer_factory.hpp:123] Creating layer ConvNd_37
I0224 06:46:02.440968   569 net.cpp:140] Creating Layer ConvNd_37
I0224 06:46:02.440973   569 net.cpp:481] ConvNd_37 <- BatchNorm_34
I0224 06:46:02.440976   569 net.cpp:455] ConvNd_37 -> ConvNd_37
I0224 06:46:02.441135   569 net.cpp:190] Setting up ConvNd_37
I0224 06:46:02.441143   569 net.cpp:197] Top shape: 1 128 64 128 (1048576)
I0224 06:46:02.441146   569 net.cpp:205] Memory required for data: 667942912
I0224 06:46:02.441151   569 layer_factory.hpp:123] Creating layer BatchNorm_35
I0224 06:46:02.441157   569 net.cpp:140] Creating Layer BatchNorm_35
I0224 06:46:02.441161   569 net.cpp:481] BatchNorm_35 <- ConvNd_37
I0224 06:46:02.441166   569 net.cpp:455] BatchNorm_35 -> BatchNorm_35
I0224 06:46:02.441632   569 net.cpp:190] Setting up BatchNorm_35
I0224 06:46:02.441638   569 net.cpp:197] Top shape: 1 128 64 128 (1048576)
I0224 06:46:02.441643   569 net.cpp:205] Memory required for data: 672137216
I0224 06:46:02.441650   569 layer_factory.hpp:123] Creating layer Threshold_45
I0224 06:46:02.441655   569 net.cpp:140] Creating Layer Threshold_45
I0224 06:46:02.441659   569 net.cpp:481] Threshold_45 <- BatchNorm_35
I0224 06:46:02.441663   569 net.cpp:442] Threshold_45 -> BatchNorm_35 (in-place)
I0224 06:46:02.441669   569 net.cpp:190] Setting up Threshold_45
I0224 06:46:02.441673   569 net.cpp:197] Top shape: 1 128 64 128 (1048576)
I0224 06:46:02.441675   569 net.cpp:205] Memory required for data: 676331520
I0224 06:46:02.441679   569 layer_factory.hpp:123] Creating layer Add_11
I0224 06:46:02.441684   569 net.cpp:140] Creating Layer Add_11
I0224 06:46:02.441687   569 net.cpp:481] Add_11 <- Add_10_Threshold_42_0_split_1
I0224 06:46:02.441691   569 net.cpp:481] Add_11 <- BatchNorm_35
I0224 06:46:02.441695   569 net.cpp:455] Add_11 -> Add_11
I0224 06:46:02.441713   569 net.cpp:190] Setting up Add_11
I0224 06:46:02.441721   569 net.cpp:197] Top shape: 1 128 64 128 (1048576)
I0224 06:46:02.441726   569 net.cpp:205] Memory required for data: 680525824
I0224 06:46:02.441730   569 layer_factory.hpp:123] Creating layer Threshold_46
I0224 06:46:02.441733   569 net.cpp:140] Creating Layer Threshold_46
I0224 06:46:02.441736   569 net.cpp:481] Threshold_46 <- Add_11
I0224 06:46:02.441740   569 net.cpp:442] Threshold_46 -> Add_11 (in-place)
I0224 06:46:02.441745   569 net.cpp:190] Setting up Threshold_46
I0224 06:46:02.441748   569 net.cpp:197] Top shape: 1 128 64 128 (1048576)
I0224 06:46:02.441752   569 net.cpp:205] Memory required for data: 684720128
I0224 06:46:02.441756   569 layer_factory.hpp:123] Creating layer Add_11_Threshold_46_0_split
I0224 06:46:02.441759   569 net.cpp:140] Creating Layer Add_11_Threshold_46_0_split
I0224 06:46:02.441762   569 net.cpp:481] Add_11_Threshold_46_0_split <- Add_11
I0224 06:46:02.441767   569 net.cpp:455] Add_11_Threshold_46_0_split -> Add_11_Threshold_46_0_split_0
I0224 06:46:02.441772   569 net.cpp:455] Add_11_Threshold_46_0_split -> Add_11_Threshold_46_0_split_1
I0224 06:46:02.441797   569 net.cpp:190] Setting up Add_11_Threshold_46_0_split
I0224 06:46:02.441802   569 net.cpp:197] Top shape: 1 128 64 128 (1048576)
I0224 06:46:02.441807   569 net.cpp:197] Top shape: 1 128 64 128 (1048576)
I0224 06:46:02.441810   569 net.cpp:205] Memory required for data: 693108736
I0224 06:46:02.441813   569 layer_factory.hpp:123] Creating layer ConvNd_38
I0224 06:46:02.441819   569 net.cpp:140] Creating Layer ConvNd_38
I0224 06:46:02.441823   569 net.cpp:481] ConvNd_38 <- Add_11_Threshold_46_0_split_0
I0224 06:46:02.441828   569 net.cpp:455] ConvNd_38 -> ConvNd_38
I0224 06:46:02.441982   569 net.cpp:190] Setting up ConvNd_38
I0224 06:46:02.441987   569 net.cpp:197] Top shape: 1 32 64 128 (262144)
I0224 06:46:02.441992   569 net.cpp:205] Memory required for data: 694157312
I0224 06:46:02.441996   569 layer_factory.hpp:123] Creating layer BatchNorm_36
I0224 06:46:02.442003   569 net.cpp:140] Creating Layer BatchNorm_36
I0224 06:46:02.442006   569 net.cpp:481] BatchNorm_36 <- ConvNd_38
I0224 06:46:02.442011   569 net.cpp:455] BatchNorm_36 -> BatchNorm_36
I0224 06:46:02.442550   569 net.cpp:190] Setting up BatchNorm_36
I0224 06:46:02.442557   569 net.cpp:197] Top shape: 1 32 64 128 (262144)
I0224 06:46:02.442561   569 net.cpp:205] Memory required for data: 695205888
I0224 06:46:02.442569   569 layer_factory.hpp:123] Creating layer Threshold_47
I0224 06:46:02.442574   569 net.cpp:140] Creating Layer Threshold_47
I0224 06:46:02.442577   569 net.cpp:481] Threshold_47 <- BatchNorm_36
I0224 06:46:02.442581   569 net.cpp:442] Threshold_47 -> BatchNorm_36 (in-place)
I0224 06:46:02.442586   569 net.cpp:190] Setting up Threshold_47
I0224 06:46:02.442589   569 net.cpp:197] Top shape: 1 32 64 128 (262144)
I0224 06:46:02.442593   569 net.cpp:205] Memory required for data: 696254464
I0224 06:46:02.442597   569 layer_factory.hpp:123] Creating layer ConvNd_39
I0224 06:46:02.442603   569 net.cpp:140] Creating Layer ConvNd_39
I0224 06:46:02.442606   569 net.cpp:481] ConvNd_39 <- BatchNorm_36
I0224 06:46:02.442610   569 net.cpp:455] ConvNd_39 -> ConvNd_39
I0224 06:46:02.442765   569 net.cpp:190] Setting up ConvNd_39
I0224 06:46:02.442771   569 net.cpp:197] Top shape: 1 32 64 128 (262144)
I0224 06:46:02.442776   569 net.cpp:205] Memory required for data: 697303040
I0224 06:46:02.442780   569 layer_factory.hpp:123] Creating layer BatchNorm_37
I0224 06:46:02.442786   569 net.cpp:140] Creating Layer BatchNorm_37
I0224 06:46:02.442790   569 net.cpp:481] BatchNorm_37 <- ConvNd_39
I0224 06:46:02.442795   569 net.cpp:455] BatchNorm_37 -> BatchNorm_37
I0224 06:46:02.443337   569 net.cpp:190] Setting up BatchNorm_37
I0224 06:46:02.443344   569 net.cpp:197] Top shape: 1 32 64 128 (262144)
I0224 06:46:02.443348   569 net.cpp:205] Memory required for data: 698351616
I0224 06:46:02.443356   569 layer_factory.hpp:123] Creating layer Threshold_48
I0224 06:46:02.443361   569 net.cpp:140] Creating Layer Threshold_48
I0224 06:46:02.443364   569 net.cpp:481] Threshold_48 <- BatchNorm_37
I0224 06:46:02.443368   569 net.cpp:442] Threshold_48 -> BatchNorm_37 (in-place)
I0224 06:46:02.443373   569 net.cpp:190] Setting up Threshold_48
I0224 06:46:02.443377   569 net.cpp:197] Top shape: 1 32 64 128 (262144)
I0224 06:46:02.443380   569 net.cpp:205] Memory required for data: 699400192
I0224 06:46:02.443383   569 layer_factory.hpp:123] Creating layer ConvNd_40
I0224 06:46:02.443389   569 net.cpp:140] Creating Layer ConvNd_40
I0224 06:46:02.443392   569 net.cpp:481] ConvNd_40 <- BatchNorm_37
I0224 06:46:02.443397   569 net.cpp:455] ConvNd_40 -> ConvNd_40
I0224 06:46:02.443550   569 net.cpp:190] Setting up ConvNd_40
I0224 06:46:02.443557   569 net.cpp:197] Top shape: 1 128 64 128 (1048576)
I0224 06:46:02.443562   569 net.cpp:205] Memory required for data: 703594496
I0224 06:46:02.443567   569 layer_factory.hpp:123] Creating layer BatchNorm_38
I0224 06:46:02.443572   569 net.cpp:140] Creating Layer BatchNorm_38
I0224 06:46:02.443575   569 net.cpp:481] BatchNorm_38 <- ConvNd_40
I0224 06:46:02.443580   569 net.cpp:455] BatchNorm_38 -> BatchNorm_38
I0224 06:46:02.444037   569 net.cpp:190] Setting up BatchNorm_38
I0224 06:46:02.444043   569 net.cpp:197] Top shape: 1 128 64 128 (1048576)
I0224 06:46:02.444048   569 net.cpp:205] Memory required for data: 707788800
I0224 06:46:02.444056   569 layer_factory.hpp:123] Creating layer Threshold_49
I0224 06:46:02.444059   569 net.cpp:140] Creating Layer Threshold_49
I0224 06:46:02.444063   569 net.cpp:481] Threshold_49 <- BatchNorm_38
I0224 06:46:02.444067   569 net.cpp:442] Threshold_49 -> BatchNorm_38 (in-place)
I0224 06:46:02.444072   569 net.cpp:190] Setting up Threshold_49
I0224 06:46:02.444075   569 net.cpp:197] Top shape: 1 128 64 128 (1048576)
I0224 06:46:02.444079   569 net.cpp:205] Memory required for data: 711983104
I0224 06:46:02.444082   569 layer_factory.hpp:123] Creating layer Add_12
I0224 06:46:02.444087   569 net.cpp:140] Creating Layer Add_12
I0224 06:46:02.444092   569 net.cpp:481] Add_12 <- Add_11_Threshold_46_0_split_1
I0224 06:46:02.444094   569 net.cpp:481] Add_12 <- BatchNorm_38
I0224 06:46:02.444099   569 net.cpp:455] Add_12 -> Add_12
I0224 06:46:02.444116   569 net.cpp:190] Setting up Add_12
I0224 06:46:02.444123   569 net.cpp:197] Top shape: 1 128 64 128 (1048576)
I0224 06:46:02.444128   569 net.cpp:205] Memory required for data: 716177408
I0224 06:46:02.444130   569 layer_factory.hpp:123] Creating layer Threshold_50
I0224 06:46:02.444134   569 net.cpp:140] Creating Layer Threshold_50
I0224 06:46:02.444139   569 net.cpp:481] Threshold_50 <- Add_12
I0224 06:46:02.444142   569 net.cpp:442] Threshold_50 -> Add_12 (in-place)
I0224 06:46:02.444146   569 net.cpp:190] Setting up Threshold_50
I0224 06:46:02.444150   569 net.cpp:197] Top shape: 1 128 64 128 (1048576)
I0224 06:46:02.444154   569 net.cpp:205] Memory required for data: 720371712
I0224 06:46:02.444157   569 layer_factory.hpp:123] Creating layer Add_12_Threshold_50_0_split
I0224 06:46:02.444161   569 net.cpp:140] Creating Layer Add_12_Threshold_50_0_split
I0224 06:46:02.444164   569 net.cpp:481] Add_12_Threshold_50_0_split <- Add_12
I0224 06:46:02.444169   569 net.cpp:455] Add_12_Threshold_50_0_split -> Add_12_Threshold_50_0_split_0
I0224 06:46:02.444175   569 net.cpp:455] Add_12_Threshold_50_0_split -> Add_12_Threshold_50_0_split_1
I0224 06:46:02.444200   569 net.cpp:190] Setting up Add_12_Threshold_50_0_split
I0224 06:46:02.444205   569 net.cpp:197] Top shape: 1 128 64 128 (1048576)
I0224 06:46:02.444208   569 net.cpp:197] Top shape: 1 128 64 128 (1048576)
I0224 06:46:02.444212   569 net.cpp:205] Memory required for data: 728760320
I0224 06:46:02.444216   569 layer_factory.hpp:123] Creating layer ConvNd_41
I0224 06:46:02.444221   569 net.cpp:140] Creating Layer ConvNd_41
I0224 06:46:02.444226   569 net.cpp:481] ConvNd_41 <- Add_12_Threshold_50_0_split_0
I0224 06:46:02.444231   569 net.cpp:455] ConvNd_41 -> ConvNd_41
I0224 06:46:02.444380   569 net.cpp:190] Setting up ConvNd_41
I0224 06:46:02.444387   569 net.cpp:197] Top shape: 1 32 64 128 (262144)
I0224 06:46:02.444392   569 net.cpp:205] Memory required for data: 729808896
I0224 06:46:02.444396   569 layer_factory.hpp:123] Creating layer BatchNorm_39
I0224 06:46:02.444403   569 net.cpp:140] Creating Layer BatchNorm_39
I0224 06:46:02.444406   569 net.cpp:481] BatchNorm_39 <- ConvNd_41
I0224 06:46:02.444411   569 net.cpp:455] BatchNorm_39 -> BatchNorm_39
I0224 06:46:02.444957   569 net.cpp:190] Setting up BatchNorm_39
I0224 06:46:02.444963   569 net.cpp:197] Top shape: 1 32 64 128 (262144)
I0224 06:46:02.444967   569 net.cpp:205] Memory required for data: 730857472
I0224 06:46:02.444975   569 layer_factory.hpp:123] Creating layer Threshold_51
I0224 06:46:02.444979   569 net.cpp:140] Creating Layer Threshold_51
I0224 06:46:02.444983   569 net.cpp:481] Threshold_51 <- BatchNorm_39
I0224 06:46:02.444988   569 net.cpp:442] Threshold_51 -> BatchNorm_39 (in-place)
I0224 06:46:02.444993   569 net.cpp:190] Setting up Threshold_51
I0224 06:46:02.444995   569 net.cpp:197] Top shape: 1 32 64 128 (262144)
I0224 06:46:02.444999   569 net.cpp:205] Memory required for data: 731906048
I0224 06:46:02.445003   569 layer_factory.hpp:123] Creating layer ConvNd_42
I0224 06:46:02.445008   569 net.cpp:140] Creating Layer ConvNd_42
I0224 06:46:02.445011   569 net.cpp:481] ConvNd_42 <- BatchNorm_39
I0224 06:46:02.445016   569 net.cpp:455] ConvNd_42 -> ConvNd_42
I0224 06:46:02.445170   569 net.cpp:190] Setting up ConvNd_42
I0224 06:46:02.445176   569 net.cpp:197] Top shape: 1 32 64 128 (262144)
I0224 06:46:02.445181   569 net.cpp:205] Memory required for data: 732954624
I0224 06:46:02.445185   569 layer_factory.hpp:123] Creating layer BatchNorm_40
I0224 06:46:02.445192   569 net.cpp:140] Creating Layer BatchNorm_40
I0224 06:46:02.445195   569 net.cpp:481] BatchNorm_40 <- ConvNd_42
I0224 06:46:02.445200   569 net.cpp:455] BatchNorm_40 -> BatchNorm_40
I0224 06:46:02.445753   569 net.cpp:190] Setting up BatchNorm_40
I0224 06:46:02.445760   569 net.cpp:197] Top shape: 1 32 64 128 (262144)
I0224 06:46:02.445765   569 net.cpp:205] Memory required for data: 734003200
I0224 06:46:02.445773   569 layer_factory.hpp:123] Creating layer Threshold_52
I0224 06:46:02.445777   569 net.cpp:140] Creating Layer Threshold_52
I0224 06:46:02.445781   569 net.cpp:481] Threshold_52 <- BatchNorm_40
I0224 06:46:02.445785   569 net.cpp:442] Threshold_52 -> BatchNorm_40 (in-place)
I0224 06:46:02.445791   569 net.cpp:190] Setting up Threshold_52
I0224 06:46:02.445794   569 net.cpp:197] Top shape: 1 32 64 128 (262144)
I0224 06:46:02.445798   569 net.cpp:205] Memory required for data: 735051776
I0224 06:46:02.445801   569 layer_factory.hpp:123] Creating layer ConvNd_43
I0224 06:46:02.445806   569 net.cpp:140] Creating Layer ConvNd_43
I0224 06:46:02.445809   569 net.cpp:481] ConvNd_43 <- BatchNorm_40
I0224 06:46:02.445814   569 net.cpp:455] ConvNd_43 -> ConvNd_43
I0224 06:46:02.445973   569 net.cpp:190] Setting up ConvNd_43
I0224 06:46:02.445981   569 net.cpp:197] Top shape: 1 32 64 128 (262144)
I0224 06:46:02.445986   569 net.cpp:205] Memory required for data: 736100352
I0224 06:46:02.445989   569 layer_factory.hpp:123] Creating layer BatchNorm_41
I0224 06:46:02.445996   569 net.cpp:140] Creating Layer BatchNorm_41
I0224 06:46:02.445999   569 net.cpp:481] BatchNorm_41 <- ConvNd_43
I0224 06:46:02.446004   569 net.cpp:455] BatchNorm_41 -> BatchNorm_41
I0224 06:46:02.446547   569 net.cpp:190] Setting up BatchNorm_41
I0224 06:46:02.446554   569 net.cpp:197] Top shape: 1 32 64 128 (262144)
I0224 06:46:02.446559   569 net.cpp:205] Memory required for data: 737148928
I0224 06:46:02.446566   569 layer_factory.hpp:123] Creating layer Threshold_53
I0224 06:46:02.446571   569 net.cpp:140] Creating Layer Threshold_53
I0224 06:46:02.446575   569 net.cpp:481] Threshold_53 <- BatchNorm_41
I0224 06:46:02.446579   569 net.cpp:442] Threshold_53 -> BatchNorm_41 (in-place)
I0224 06:46:02.446584   569 net.cpp:190] Setting up Threshold_53
I0224 06:46:02.446588   569 net.cpp:197] Top shape: 1 32 64 128 (262144)
I0224 06:46:02.446591   569 net.cpp:205] Memory required for data: 738197504
I0224 06:46:02.446594   569 layer_factory.hpp:123] Creating layer ConvNd_44
I0224 06:46:02.446600   569 net.cpp:140] Creating Layer ConvNd_44
I0224 06:46:02.446604   569 net.cpp:481] ConvNd_44 <- BatchNorm_41
I0224 06:46:02.446609   569 net.cpp:455] ConvNd_44 -> ConvNd_44
I0224 06:46:02.446764   569 net.cpp:190] Setting up ConvNd_44
I0224 06:46:02.446770   569 net.cpp:197] Top shape: 1 128 64 128 (1048576)
I0224 06:46:02.446775   569 net.cpp:205] Memory required for data: 742391808
I0224 06:46:02.446779   569 layer_factory.hpp:123] Creating layer BatchNorm_42
I0224 06:46:02.446786   569 net.cpp:140] Creating Layer BatchNorm_42
I0224 06:46:02.446789   569 net.cpp:481] BatchNorm_42 <- ConvNd_44
I0224 06:46:02.446795   569 net.cpp:455] BatchNorm_42 -> BatchNorm_42
I0224 06:46:02.447253   569 net.cpp:190] Setting up BatchNorm_42
I0224 06:46:02.447260   569 net.cpp:197] Top shape: 1 128 64 128 (1048576)
I0224 06:46:02.447265   569 net.cpp:205] Memory required for data: 746586112
I0224 06:46:02.447273   569 layer_factory.hpp:123] Creating layer Threshold_54
I0224 06:46:02.447278   569 net.cpp:140] Creating Layer Threshold_54
I0224 06:46:02.447281   569 net.cpp:481] Threshold_54 <- BatchNorm_42
I0224 06:46:02.447285   569 net.cpp:442] Threshold_54 -> BatchNorm_42 (in-place)
I0224 06:46:02.447291   569 net.cpp:190] Setting up Threshold_54
I0224 06:46:02.447294   569 net.cpp:197] Top shape: 1 128 64 128 (1048576)
I0224 06:46:02.447299   569 net.cpp:205] Memory required for data: 750780416
I0224 06:46:02.447301   569 layer_factory.hpp:123] Creating layer Add_13
I0224 06:46:02.447306   569 net.cpp:140] Creating Layer Add_13
I0224 06:46:02.447309   569 net.cpp:481] Add_13 <- Add_12_Threshold_50_0_split_1
I0224 06:46:02.447314   569 net.cpp:481] Add_13 <- BatchNorm_42
I0224 06:46:02.447317   569 net.cpp:455] Add_13 -> Add_13
I0224 06:46:02.447335   569 net.cpp:190] Setting up Add_13
I0224 06:46:02.447340   569 net.cpp:197] Top shape: 1 128 64 128 (1048576)
I0224 06:46:02.447343   569 net.cpp:205] Memory required for data: 754974720
I0224 06:46:02.447346   569 layer_factory.hpp:123] Creating layer Threshold_55
I0224 06:46:02.447350   569 net.cpp:140] Creating Layer Threshold_55
I0224 06:46:02.447353   569 net.cpp:481] Threshold_55 <- Add_13
I0224 06:46:02.447357   569 net.cpp:442] Threshold_55 -> Add_13 (in-place)
I0224 06:46:02.447361   569 net.cpp:190] Setting up Threshold_55
I0224 06:46:02.447365   569 net.cpp:197] Top shape: 1 128 64 128 (1048576)
I0224 06:46:02.447368   569 net.cpp:205] Memory required for data: 759169024
I0224 06:46:02.447371   569 layer_factory.hpp:123] Creating layer Add_13_Threshold_55_0_split
I0224 06:46:02.447376   569 net.cpp:140] Creating Layer Add_13_Threshold_55_0_split
I0224 06:46:02.447379   569 net.cpp:481] Add_13_Threshold_55_0_split <- Add_13
I0224 06:46:02.447383   569 net.cpp:455] Add_13_Threshold_55_0_split -> Add_13_Threshold_55_0_split_0
I0224 06:46:02.447388   569 net.cpp:455] Add_13_Threshold_55_0_split -> Add_13_Threshold_55_0_split_1
I0224 06:46:02.447414   569 net.cpp:190] Setting up Add_13_Threshold_55_0_split
I0224 06:46:02.447419   569 net.cpp:197] Top shape: 1 128 64 128 (1048576)
I0224 06:46:02.447424   569 net.cpp:197] Top shape: 1 128 64 128 (1048576)
I0224 06:46:02.447427   569 net.cpp:205] Memory required for data: 767557632
I0224 06:46:02.447432   569 layer_factory.hpp:123] Creating layer ConvNd_45
I0224 06:46:02.447438   569 net.cpp:140] Creating Layer ConvNd_45
I0224 06:46:02.447441   569 net.cpp:481] ConvNd_45 <- Add_13_Threshold_55_0_split_0
I0224 06:46:02.447445   569 net.cpp:455] ConvNd_45 -> ConvNd_45
I0224 06:46:02.447600   569 net.cpp:190] Setting up ConvNd_45
I0224 06:46:02.447607   569 net.cpp:197] Top shape: 1 32 64 128 (262144)
I0224 06:46:02.447613   569 net.cpp:205] Memory required for data: 768606208
I0224 06:46:02.447616   569 layer_factory.hpp:123] Creating layer BatchNorm_43
I0224 06:46:02.447623   569 net.cpp:140] Creating Layer BatchNorm_43
I0224 06:46:02.447626   569 net.cpp:481] BatchNorm_43 <- ConvNd_45
I0224 06:46:02.447631   569 net.cpp:455] BatchNorm_43 -> BatchNorm_43
I0224 06:46:02.448174   569 net.cpp:190] Setting up BatchNorm_43
I0224 06:46:02.448180   569 net.cpp:197] Top shape: 1 32 64 128 (262144)
I0224 06:46:02.448185   569 net.cpp:205] Memory required for data: 769654784
I0224 06:46:02.448199   569 layer_factory.hpp:123] Creating layer Threshold_56
I0224 06:46:02.448205   569 net.cpp:140] Creating Layer Threshold_56
I0224 06:46:02.448209   569 net.cpp:481] Threshold_56 <- BatchNorm_43
I0224 06:46:02.448212   569 net.cpp:442] Threshold_56 -> BatchNorm_43 (in-place)
I0224 06:46:02.448218   569 net.cpp:190] Setting up Threshold_56
I0224 06:46:02.448221   569 net.cpp:197] Top shape: 1 32 64 128 (262144)
I0224 06:46:02.448225   569 net.cpp:205] Memory required for data: 770703360
I0224 06:46:02.448228   569 layer_factory.hpp:123] Creating layer ConvNd_46
I0224 06:46:02.448233   569 net.cpp:140] Creating Layer ConvNd_46
I0224 06:46:02.448236   569 net.cpp:481] ConvNd_46 <- BatchNorm_43
I0224 06:46:02.448241   569 net.cpp:455] ConvNd_46 -> ConvNd_46
I0224 06:46:02.448400   569 net.cpp:190] Setting up ConvNd_46
I0224 06:46:02.448405   569 net.cpp:197] Top shape: 1 32 64 128 (262144)
I0224 06:46:02.448410   569 net.cpp:205] Memory required for data: 771751936
I0224 06:46:02.448415   569 layer_factory.hpp:123] Creating layer BatchNorm_44
I0224 06:46:02.448421   569 net.cpp:140] Creating Layer BatchNorm_44
I0224 06:46:02.448424   569 net.cpp:481] BatchNorm_44 <- ConvNd_46
I0224 06:46:02.448429   569 net.cpp:455] BatchNorm_44 -> BatchNorm_44
I0224 06:46:02.448974   569 net.cpp:190] Setting up BatchNorm_44
I0224 06:46:02.448982   569 net.cpp:197] Top shape: 1 32 64 128 (262144)
I0224 06:46:02.448985   569 net.cpp:205] Memory required for data: 772800512
I0224 06:46:02.448993   569 layer_factory.hpp:123] Creating layer Threshold_57
I0224 06:46:02.448997   569 net.cpp:140] Creating Layer Threshold_57
I0224 06:46:02.449002   569 net.cpp:481] Threshold_57 <- BatchNorm_44
I0224 06:46:02.449005   569 net.cpp:442] Threshold_57 -> BatchNorm_44 (in-place)
I0224 06:46:02.449010   569 net.cpp:190] Setting up Threshold_57
I0224 06:46:02.449013   569 net.cpp:197] Top shape: 1 32 64 128 (262144)
I0224 06:46:02.449018   569 net.cpp:205] Memory required for data: 773849088
I0224 06:46:02.449021   569 layer_factory.hpp:123] Creating layer ConvNd_47
I0224 06:46:02.449026   569 net.cpp:140] Creating Layer ConvNd_47
I0224 06:46:02.449030   569 net.cpp:481] ConvNd_47 <- BatchNorm_44
I0224 06:46:02.449034   569 net.cpp:455] ConvNd_47 -> ConvNd_47
I0224 06:46:02.449192   569 net.cpp:190] Setting up ConvNd_47
I0224 06:46:02.449198   569 net.cpp:197] Top shape: 1 128 64 128 (1048576)
I0224 06:46:02.449203   569 net.cpp:205] Memory required for data: 778043392
I0224 06:46:02.449208   569 layer_factory.hpp:123] Creating layer BatchNorm_45
I0224 06:46:02.449213   569 net.cpp:140] Creating Layer BatchNorm_45
I0224 06:46:02.449218   569 net.cpp:481] BatchNorm_45 <- ConvNd_47
I0224 06:46:02.449223   569 net.cpp:455] BatchNorm_45 -> BatchNorm_45
I0224 06:46:02.449694   569 net.cpp:190] Setting up BatchNorm_45
I0224 06:46:02.449702   569 net.cpp:197] Top shape: 1 128 64 128 (1048576)
I0224 06:46:02.449707   569 net.cpp:205] Memory required for data: 782237696
I0224 06:46:02.449714   569 layer_factory.hpp:123] Creating layer Threshold_58
I0224 06:46:02.449719   569 net.cpp:140] Creating Layer Threshold_58
I0224 06:46:02.449723   569 net.cpp:481] Threshold_58 <- BatchNorm_45
I0224 06:46:02.449728   569 net.cpp:442] Threshold_58 -> BatchNorm_45 (in-place)
I0224 06:46:02.449733   569 net.cpp:190] Setting up Threshold_58
I0224 06:46:02.449735   569 net.cpp:197] Top shape: 1 128 64 128 (1048576)
I0224 06:46:02.449739   569 net.cpp:205] Memory required for data: 786432000
I0224 06:46:02.449743   569 layer_factory.hpp:123] Creating layer Add_14
I0224 06:46:02.449748   569 net.cpp:140] Creating Layer Add_14
I0224 06:46:02.449751   569 net.cpp:481] Add_14 <- Add_13_Threshold_55_0_split_1
I0224 06:46:02.449754   569 net.cpp:481] Add_14 <- BatchNorm_45
I0224 06:46:02.449759   569 net.cpp:455] Add_14 -> Add_14
I0224 06:46:02.449777   569 net.cpp:190] Setting up Add_14
I0224 06:46:02.449780   569 net.cpp:197] Top shape: 1 128 64 128 (1048576)
I0224 06:46:02.449784   569 net.cpp:205] Memory required for data: 790626304
I0224 06:46:02.449789   569 layer_factory.hpp:123] Creating layer Threshold_59
I0224 06:46:02.449792   569 net.cpp:140] Creating Layer Threshold_59
I0224 06:46:02.449795   569 net.cpp:481] Threshold_59 <- Add_14
I0224 06:46:02.449800   569 net.cpp:442] Threshold_59 -> Add_14 (in-place)
I0224 06:46:02.449803   569 net.cpp:190] Setting up Threshold_59
I0224 06:46:02.449806   569 net.cpp:197] Top shape: 1 128 64 128 (1048576)
I0224 06:46:02.449810   569 net.cpp:205] Memory required for data: 794820608
I0224 06:46:02.449813   569 layer_factory.hpp:123] Creating layer Add_14_Threshold_59_0_split
I0224 06:46:02.449818   569 net.cpp:140] Creating Layer Add_14_Threshold_59_0_split
I0224 06:46:02.449821   569 net.cpp:481] Add_14_Threshold_59_0_split <- Add_14
I0224 06:46:02.449826   569 net.cpp:455] Add_14_Threshold_59_0_split -> Add_14_Threshold_59_0_split_0
I0224 06:46:02.449831   569 net.cpp:455] Add_14_Threshold_59_0_split -> Add_14_Threshold_59_0_split_1
I0224 06:46:02.449856   569 net.cpp:190] Setting up Add_14_Threshold_59_0_split
I0224 06:46:02.449862   569 net.cpp:197] Top shape: 1 128 64 128 (1048576)
I0224 06:46:02.449867   569 net.cpp:197] Top shape: 1 128 64 128 (1048576)
I0224 06:46:02.449870   569 net.cpp:205] Memory required for data: 803209216
I0224 06:46:02.449873   569 layer_factory.hpp:123] Creating layer ConvNd_48
I0224 06:46:02.449879   569 net.cpp:140] Creating Layer ConvNd_48
I0224 06:46:02.449883   569 net.cpp:481] ConvNd_48 <- Add_14_Threshold_59_0_split_0
I0224 06:46:02.449887   569 net.cpp:455] ConvNd_48 -> ConvNd_48
I0224 06:46:02.450045   569 net.cpp:190] Setting up ConvNd_48
I0224 06:46:02.450052   569 net.cpp:197] Top shape: 1 32 64 128 (262144)
I0224 06:46:02.450057   569 net.cpp:205] Memory required for data: 804257792
I0224 06:46:02.450060   569 layer_factory.hpp:123] Creating layer BatchNorm_46
I0224 06:46:02.450067   569 net.cpp:140] Creating Layer BatchNorm_46
I0224 06:46:02.450070   569 net.cpp:481] BatchNorm_46 <- ConvNd_48
I0224 06:46:02.450075   569 net.cpp:455] BatchNorm_46 -> BatchNorm_46
I0224 06:46:02.450624   569 net.cpp:190] Setting up BatchNorm_46
I0224 06:46:02.450631   569 net.cpp:197] Top shape: 1 32 64 128 (262144)
I0224 06:46:02.450636   569 net.cpp:205] Memory required for data: 805306368
I0224 06:46:02.450644   569 layer_factory.hpp:123] Creating layer Threshold_60
I0224 06:46:02.450649   569 net.cpp:140] Creating Layer Threshold_60
I0224 06:46:02.450651   569 net.cpp:481] Threshold_60 <- BatchNorm_46
I0224 06:46:02.450655   569 net.cpp:442] Threshold_60 -> BatchNorm_46 (in-place)
I0224 06:46:02.450661   569 net.cpp:190] Setting up Threshold_60
I0224 06:46:02.450664   569 net.cpp:197] Top shape: 1 32 64 128 (262144)
I0224 06:46:02.450668   569 net.cpp:205] Memory required for data: 806354944
I0224 06:46:02.450671   569 layer_factory.hpp:123] Creating layer ConvNd_49
I0224 06:46:02.450677   569 net.cpp:140] Creating Layer ConvNd_49
I0224 06:46:02.450680   569 net.cpp:481] ConvNd_49 <- BatchNorm_46
I0224 06:46:02.450685   569 net.cpp:455] ConvNd_49 -> ConvNd_49
I0224 06:46:02.450850   569 net.cpp:190] Setting up ConvNd_49
I0224 06:46:02.450857   569 net.cpp:197] Top shape: 1 32 64 128 (262144)
I0224 06:46:02.450862   569 net.cpp:205] Memory required for data: 807403520
I0224 06:46:02.450866   569 layer_factory.hpp:123] Creating layer BatchNorm_47
I0224 06:46:02.450872   569 net.cpp:140] Creating Layer BatchNorm_47
I0224 06:46:02.450876   569 net.cpp:481] BatchNorm_47 <- ConvNd_49
I0224 06:46:02.450881   569 net.cpp:455] BatchNorm_47 -> BatchNorm_47
I0224 06:46:02.451433   569 net.cpp:190] Setting up BatchNorm_47
I0224 06:46:02.451439   569 net.cpp:197] Top shape: 1 32 64 128 (262144)
I0224 06:46:02.451444   569 net.cpp:205] Memory required for data: 808452096
I0224 06:46:02.451452   569 layer_factory.hpp:123] Creating layer Threshold_61
I0224 06:46:02.451457   569 net.cpp:140] Creating Layer Threshold_61
I0224 06:46:02.451459   569 net.cpp:481] Threshold_61 <- BatchNorm_47
I0224 06:46:02.451463   569 net.cpp:442] Threshold_61 -> BatchNorm_47 (in-place)
I0224 06:46:02.451468   569 net.cpp:190] Setting up Threshold_61
I0224 06:46:02.451472   569 net.cpp:197] Top shape: 1 32 64 128 (262144)
I0224 06:46:02.451475   569 net.cpp:205] Memory required for data: 809500672
I0224 06:46:02.451479   569 layer_factory.hpp:123] Creating layer ConvNd_50
I0224 06:46:02.451484   569 net.cpp:140] Creating Layer ConvNd_50
I0224 06:46:02.451488   569 net.cpp:481] ConvNd_50 <- BatchNorm_47
I0224 06:46:02.451493   569 net.cpp:455] ConvNd_50 -> ConvNd_50
I0224 06:46:02.451649   569 net.cpp:190] Setting up ConvNd_50
I0224 06:46:02.451656   569 net.cpp:197] Top shape: 1 128 64 128 (1048576)
I0224 06:46:02.451661   569 net.cpp:205] Memory required for data: 813694976
I0224 06:46:02.451665   569 layer_factory.hpp:123] Creating layer BatchNorm_48
I0224 06:46:02.451673   569 net.cpp:140] Creating Layer BatchNorm_48
I0224 06:46:02.451675   569 net.cpp:481] BatchNorm_48 <- ConvNd_50
I0224 06:46:02.451680   569 net.cpp:455] BatchNorm_48 -> BatchNorm_48
I0224 06:46:02.452806   569 net.cpp:190] Setting up BatchNorm_48
I0224 06:46:02.452816   569 net.cpp:197] Top shape: 1 128 64 128 (1048576)
I0224 06:46:02.452822   569 net.cpp:205] Memory required for data: 817889280
I0224 06:46:02.452831   569 layer_factory.hpp:123] Creating layer Threshold_62
I0224 06:46:02.452836   569 net.cpp:140] Creating Layer Threshold_62
I0224 06:46:02.452841   569 net.cpp:481] Threshold_62 <- BatchNorm_48
I0224 06:46:02.452844   569 net.cpp:442] Threshold_62 -> BatchNorm_48 (in-place)
I0224 06:46:02.452850   569 net.cpp:190] Setting up Threshold_62
I0224 06:46:02.452854   569 net.cpp:197] Top shape: 1 128 64 128 (1048576)
I0224 06:46:02.452858   569 net.cpp:205] Memory required for data: 822083584
I0224 06:46:02.452862   569 layer_factory.hpp:123] Creating layer Add_15
I0224 06:46:02.452867   569 net.cpp:140] Creating Layer Add_15
I0224 06:46:02.452869   569 net.cpp:481] Add_15 <- Add_14_Threshold_59_0_split_1
I0224 06:46:02.452873   569 net.cpp:481] Add_15 <- BatchNorm_48
I0224 06:46:02.452878   569 net.cpp:455] Add_15 -> Add_15
I0224 06:46:02.452898   569 net.cpp:190] Setting up Add_15
I0224 06:46:02.452903   569 net.cpp:197] Top shape: 1 128 64 128 (1048576)
I0224 06:46:02.452908   569 net.cpp:205] Memory required for data: 826277888
I0224 06:46:02.452911   569 layer_factory.hpp:123] Creating layer Threshold_63
I0224 06:46:02.452915   569 net.cpp:140] Creating Layer Threshold_63
I0224 06:46:02.452919   569 net.cpp:481] Threshold_63 <- Add_15
I0224 06:46:02.452922   569 net.cpp:442] Threshold_63 -> Add_15 (in-place)
I0224 06:46:02.452927   569 net.cpp:190] Setting up Threshold_63
I0224 06:46:02.452930   569 net.cpp:197] Top shape: 1 128 64 128 (1048576)
I0224 06:46:02.452934   569 net.cpp:205] Memory required for data: 830472192
I0224 06:46:02.452937   569 layer_factory.hpp:123] Creating layer Add_15_Threshold_63_0_split
I0224 06:46:02.452942   569 net.cpp:140] Creating Layer Add_15_Threshold_63_0_split
I0224 06:46:02.452945   569 net.cpp:481] Add_15_Threshold_63_0_split <- Add_15
I0224 06:46:02.452950   569 net.cpp:455] Add_15_Threshold_63_0_split -> Add_15_Threshold_63_0_split_0
I0224 06:46:02.452955   569 net.cpp:455] Add_15_Threshold_63_0_split -> Add_15_Threshold_63_0_split_1
I0224 06:46:02.452980   569 net.cpp:190] Setting up Add_15_Threshold_63_0_split
I0224 06:46:02.452986   569 net.cpp:197] Top shape: 1 128 64 128 (1048576)
I0224 06:46:02.452991   569 net.cpp:197] Top shape: 1 128 64 128 (1048576)
I0224 06:46:02.452994   569 net.cpp:205] Memory required for data: 838860800
I0224 06:46:02.452997   569 layer_factory.hpp:123] Creating layer ConvNd_51
I0224 06:46:02.453004   569 net.cpp:140] Creating Layer ConvNd_51
I0224 06:46:02.453007   569 net.cpp:481] ConvNd_51 <- Add_15_Threshold_63_0_split_0
I0224 06:46:02.453012   569 net.cpp:455] ConvNd_51 -> ConvNd_51
I0224 06:46:02.453176   569 net.cpp:190] Setting up ConvNd_51
I0224 06:46:02.453182   569 net.cpp:197] Top shape: 1 32 64 128 (262144)
I0224 06:46:02.453187   569 net.cpp:205] Memory required for data: 839909376
I0224 06:46:02.453192   569 layer_factory.hpp:123] Creating layer BatchNorm_49
I0224 06:46:02.453199   569 net.cpp:140] Creating Layer BatchNorm_49
I0224 06:46:02.453202   569 net.cpp:481] BatchNorm_49 <- ConvNd_51
I0224 06:46:02.453207   569 net.cpp:455] BatchNorm_49 -> BatchNorm_49
I0224 06:46:02.453776   569 net.cpp:190] Setting up BatchNorm_49
I0224 06:46:02.453783   569 net.cpp:197] Top shape: 1 32 64 128 (262144)
I0224 06:46:02.453788   569 net.cpp:205] Memory required for data: 840957952
I0224 06:46:02.453796   569 layer_factory.hpp:123] Creating layer Threshold_64
I0224 06:46:02.453801   569 net.cpp:140] Creating Layer Threshold_64
I0224 06:46:02.453805   569 net.cpp:481] Threshold_64 <- BatchNorm_49
I0224 06:46:02.453809   569 net.cpp:442] Threshold_64 -> BatchNorm_49 (in-place)
I0224 06:46:02.453814   569 net.cpp:190] Setting up Threshold_64
I0224 06:46:02.453817   569 net.cpp:197] Top shape: 1 32 64 128 (262144)
I0224 06:46:02.453821   569 net.cpp:205] Memory required for data: 842006528
I0224 06:46:02.453825   569 layer_factory.hpp:123] Creating layer ConvNd_52
I0224 06:46:02.453831   569 net.cpp:140] Creating Layer ConvNd_52
I0224 06:46:02.453835   569 net.cpp:481] ConvNd_52 <- BatchNorm_49
I0224 06:46:02.453838   569 net.cpp:455] ConvNd_52 -> ConvNd_52
I0224 06:46:02.453999   569 net.cpp:190] Setting up ConvNd_52
I0224 06:46:02.454005   569 net.cpp:197] Top shape: 1 32 64 128 (262144)
I0224 06:46:02.454010   569 net.cpp:205] Memory required for data: 843055104
I0224 06:46:02.454015   569 layer_factory.hpp:123] Creating layer BatchNorm_50
I0224 06:46:02.454021   569 net.cpp:140] Creating Layer BatchNorm_50
I0224 06:46:02.454025   569 net.cpp:481] BatchNorm_50 <- ConvNd_52
I0224 06:46:02.454030   569 net.cpp:455] BatchNorm_50 -> BatchNorm_50
I0224 06:46:02.454591   569 net.cpp:190] Setting up BatchNorm_50
I0224 06:46:02.454596   569 net.cpp:197] Top shape: 1 32 64 128 (262144)
I0224 06:46:02.454602   569 net.cpp:205] Memory required for data: 844103680
I0224 06:46:02.454609   569 layer_factory.hpp:123] Creating layer Threshold_65
I0224 06:46:02.454613   569 net.cpp:140] Creating Layer Threshold_65
I0224 06:46:02.454617   569 net.cpp:481] Threshold_65 <- BatchNorm_50
I0224 06:46:02.454622   569 net.cpp:442] Threshold_65 -> BatchNorm_50 (in-place)
I0224 06:46:02.454627   569 net.cpp:190] Setting up Threshold_65
I0224 06:46:02.454629   569 net.cpp:197] Top shape: 1 32 64 128 (262144)
I0224 06:46:02.454633   569 net.cpp:205] Memory required for data: 845152256
I0224 06:46:02.454636   569 layer_factory.hpp:123] Creating layer ConvNd_53
I0224 06:46:02.454643   569 net.cpp:140] Creating Layer ConvNd_53
I0224 06:46:02.454646   569 net.cpp:481] ConvNd_53 <- BatchNorm_50
I0224 06:46:02.454650   569 net.cpp:455] ConvNd_53 -> ConvNd_53
I0224 06:46:02.454808   569 net.cpp:190] Setting up ConvNd_53
I0224 06:46:02.454815   569 net.cpp:197] Top shape: 1 128 64 128 (1048576)
I0224 06:46:02.454820   569 net.cpp:205] Memory required for data: 849346560
I0224 06:46:02.454824   569 layer_factory.hpp:123] Creating layer BatchNorm_51
I0224 06:46:02.454831   569 net.cpp:140] Creating Layer BatchNorm_51
I0224 06:46:02.454834   569 net.cpp:481] BatchNorm_51 <- ConvNd_53
I0224 06:46:02.454839   569 net.cpp:455] BatchNorm_51 -> BatchNorm_51
I0224 06:46:02.455312   569 net.cpp:190] Setting up BatchNorm_51
I0224 06:46:02.455318   569 net.cpp:197] Top shape: 1 128 64 128 (1048576)
I0224 06:46:02.455323   569 net.cpp:205] Memory required for data: 853540864
I0224 06:46:02.455330   569 layer_factory.hpp:123] Creating layer Threshold_66
I0224 06:46:02.455335   569 net.cpp:140] Creating Layer Threshold_66
I0224 06:46:02.455338   569 net.cpp:481] Threshold_66 <- BatchNorm_51
I0224 06:46:02.455343   569 net.cpp:442] Threshold_66 -> BatchNorm_51 (in-place)
I0224 06:46:02.455348   569 net.cpp:190] Setting up Threshold_66
I0224 06:46:02.455351   569 net.cpp:197] Top shape: 1 128 64 128 (1048576)
I0224 06:46:02.455355   569 net.cpp:205] Memory required for data: 857735168
I0224 06:46:02.455358   569 layer_factory.hpp:123] Creating layer Add_16
I0224 06:46:02.455363   569 net.cpp:140] Creating Layer Add_16
I0224 06:46:02.455366   569 net.cpp:481] Add_16 <- Add_15_Threshold_63_0_split_1
I0224 06:46:02.455370   569 net.cpp:481] Add_16 <- BatchNorm_51
I0224 06:46:02.455374   569 net.cpp:455] Add_16 -> Add_16
I0224 06:46:02.455394   569 net.cpp:190] Setting up Add_16
I0224 06:46:02.455396   569 net.cpp:197] Top shape: 1 128 64 128 (1048576)
I0224 06:46:02.455400   569 net.cpp:205] Memory required for data: 861929472
I0224 06:46:02.455404   569 layer_factory.hpp:123] Creating layer Threshold_67
I0224 06:46:02.455408   569 net.cpp:140] Creating Layer Threshold_67
I0224 06:46:02.455411   569 net.cpp:481] Threshold_67 <- Add_16
I0224 06:46:02.455415   569 net.cpp:442] Threshold_67 -> Add_16 (in-place)
I0224 06:46:02.455420   569 net.cpp:190] Setting up Threshold_67
I0224 06:46:02.455423   569 net.cpp:197] Top shape: 1 128 64 128 (1048576)
I0224 06:46:02.455427   569 net.cpp:205] Memory required for data: 866123776
I0224 06:46:02.455430   569 layer_factory.hpp:123] Creating layer Add_16_Threshold_67_0_split
I0224 06:46:02.455435   569 net.cpp:140] Creating Layer Add_16_Threshold_67_0_split
I0224 06:46:02.455437   569 net.cpp:481] Add_16_Threshold_67_0_split <- Add_16
I0224 06:46:02.455441   569 net.cpp:455] Add_16_Threshold_67_0_split -> Add_16_Threshold_67_0_split_0
I0224 06:46:02.455447   569 net.cpp:455] Add_16_Threshold_67_0_split -> Add_16_Threshold_67_0_split_1
I0224 06:46:02.455473   569 net.cpp:190] Setting up Add_16_Threshold_67_0_split
I0224 06:46:02.455479   569 net.cpp:197] Top shape: 1 128 64 128 (1048576)
I0224 06:46:02.455483   569 net.cpp:197] Top shape: 1 128 64 128 (1048576)
I0224 06:46:02.455487   569 net.cpp:205] Memory required for data: 874512384
I0224 06:46:02.455490   569 layer_factory.hpp:123] Creating layer ConvNd_54
I0224 06:46:02.455497   569 net.cpp:140] Creating Layer ConvNd_54
I0224 06:46:02.455499   569 net.cpp:481] ConvNd_54 <- Add_16_Threshold_67_0_split_0
I0224 06:46:02.455504   569 net.cpp:455] ConvNd_54 -> ConvNd_54
I0224 06:46:02.455662   569 net.cpp:190] Setting up ConvNd_54
I0224 06:46:02.455668   569 net.cpp:197] Top shape: 1 32 64 128 (262144)
I0224 06:46:02.455673   569 net.cpp:205] Memory required for data: 875560960
I0224 06:46:02.455678   569 layer_factory.hpp:123] Creating layer BatchNorm_52
I0224 06:46:02.455684   569 net.cpp:140] Creating Layer BatchNorm_52
I0224 06:46:02.455687   569 net.cpp:481] BatchNorm_52 <- ConvNd_54
I0224 06:46:02.455693   569 net.cpp:455] BatchNorm_52 -> BatchNorm_52
I0224 06:46:02.456251   569 net.cpp:190] Setting up BatchNorm_52
I0224 06:46:02.456259   569 net.cpp:197] Top shape: 1 32 64 128 (262144)
I0224 06:46:02.456264   569 net.cpp:205] Memory required for data: 876609536
I0224 06:46:02.456270   569 layer_factory.hpp:123] Creating layer Threshold_68
I0224 06:46:02.456275   569 net.cpp:140] Creating Layer Threshold_68
I0224 06:46:02.456279   569 net.cpp:481] Threshold_68 <- BatchNorm_52
I0224 06:46:02.456284   569 net.cpp:442] Threshold_68 -> BatchNorm_52 (in-place)
I0224 06:46:02.456288   569 net.cpp:190] Setting up Threshold_68
I0224 06:46:02.456291   569 net.cpp:197] Top shape: 1 32 64 128 (262144)
I0224 06:46:02.456295   569 net.cpp:205] Memory required for data: 877658112
I0224 06:46:02.456298   569 layer_factory.hpp:123] Creating layer ConvNd_55
I0224 06:46:02.456305   569 net.cpp:140] Creating Layer ConvNd_55
I0224 06:46:02.456307   569 net.cpp:481] ConvNd_55 <- BatchNorm_52
I0224 06:46:02.456312   569 net.cpp:455] ConvNd_55 -> ConvNd_55
I0224 06:46:02.456470   569 net.cpp:190] Setting up ConvNd_55
I0224 06:46:02.456476   569 net.cpp:197] Top shape: 1 32 64 128 (262144)
I0224 06:46:02.456481   569 net.cpp:205] Memory required for data: 878706688
I0224 06:46:02.456485   569 layer_factory.hpp:123] Creating layer BatchNorm_53
I0224 06:46:02.456492   569 net.cpp:140] Creating Layer BatchNorm_53
I0224 06:46:02.456496   569 net.cpp:481] BatchNorm_53 <- ConvNd_55
I0224 06:46:02.456501   569 net.cpp:455] BatchNorm_53 -> BatchNorm_53
I0224 06:46:02.457058   569 net.cpp:190] Setting up BatchNorm_53
I0224 06:46:02.457065   569 net.cpp:197] Top shape: 1 32 64 128 (262144)
I0224 06:46:02.457070   569 net.cpp:205] Memory required for data: 879755264
I0224 06:46:02.457077   569 layer_factory.hpp:123] Creating layer Threshold_69
I0224 06:46:02.457082   569 net.cpp:140] Creating Layer Threshold_69
I0224 06:46:02.457087   569 net.cpp:481] Threshold_69 <- BatchNorm_53
I0224 06:46:02.457090   569 net.cpp:442] Threshold_69 -> BatchNorm_53 (in-place)
I0224 06:46:02.457095   569 net.cpp:190] Setting up Threshold_69
I0224 06:46:02.457098   569 net.cpp:197] Top shape: 1 32 64 128 (262144)
I0224 06:46:02.457103   569 net.cpp:205] Memory required for data: 880803840
I0224 06:46:02.457105   569 layer_factory.hpp:123] Creating layer ConvNd_56
I0224 06:46:02.457111   569 net.cpp:140] Creating Layer ConvNd_56
I0224 06:46:02.457114   569 net.cpp:481] ConvNd_56 <- BatchNorm_53
I0224 06:46:02.457118   569 net.cpp:455] ConvNd_56 -> ConvNd_56
I0224 06:46:02.457278   569 net.cpp:190] Setting up ConvNd_56
I0224 06:46:02.457284   569 net.cpp:197] Top shape: 1 32 64 128 (262144)
I0224 06:46:02.457289   569 net.cpp:205] Memory required for data: 881852416
I0224 06:46:02.457293   569 layer_factory.hpp:123] Creating layer BatchNorm_54
I0224 06:46:02.457300   569 net.cpp:140] Creating Layer BatchNorm_54
I0224 06:46:02.457304   569 net.cpp:481] BatchNorm_54 <- ConvNd_56
I0224 06:46:02.457309   569 net.cpp:455] BatchNorm_54 -> BatchNorm_54
I0224 06:46:02.457875   569 net.cpp:190] Setting up BatchNorm_54
I0224 06:46:02.457882   569 net.cpp:197] Top shape: 1 32 64 128 (262144)
I0224 06:46:02.457887   569 net.cpp:205] Memory required for data: 882900992
I0224 06:46:02.457895   569 layer_factory.hpp:123] Creating layer Threshold_70
I0224 06:46:02.457900   569 net.cpp:140] Creating Layer Threshold_70
I0224 06:46:02.457903   569 net.cpp:481] Threshold_70 <- BatchNorm_54
I0224 06:46:02.457907   569 net.cpp:442] Threshold_70 -> BatchNorm_54 (in-place)
I0224 06:46:02.457912   569 net.cpp:190] Setting up Threshold_70
I0224 06:46:02.457916   569 net.cpp:197] Top shape: 1 32 64 128 (262144)
I0224 06:46:02.457919   569 net.cpp:205] Memory required for data: 883949568
I0224 06:46:02.457922   569 layer_factory.hpp:123] Creating layer ConvNd_57
I0224 06:46:02.457928   569 net.cpp:140] Creating Layer ConvNd_57
I0224 06:46:02.457931   569 net.cpp:481] ConvNd_57 <- BatchNorm_54
I0224 06:46:02.457937   569 net.cpp:455] ConvNd_57 -> ConvNd_57
I0224 06:46:02.458097   569 net.cpp:190] Setting up ConvNd_57
I0224 06:46:02.458106   569 net.cpp:197] Top shape: 1 128 64 128 (1048576)
I0224 06:46:02.458109   569 net.cpp:205] Memory required for data: 888143872
I0224 06:46:02.458114   569 layer_factory.hpp:123] Creating layer BatchNorm_55
I0224 06:46:02.458120   569 net.cpp:140] Creating Layer BatchNorm_55
I0224 06:46:02.458124   569 net.cpp:481] BatchNorm_55 <- ConvNd_57
I0224 06:46:02.458129   569 net.cpp:455] BatchNorm_55 -> BatchNorm_55
I0224 06:46:02.458602   569 net.cpp:190] Setting up BatchNorm_55
I0224 06:46:02.458608   569 net.cpp:197] Top shape: 1 128 64 128 (1048576)
I0224 06:46:02.458613   569 net.cpp:205] Memory required for data: 892338176
I0224 06:46:02.458621   569 layer_factory.hpp:123] Creating layer Threshold_71
I0224 06:46:02.458626   569 net.cpp:140] Creating Layer Threshold_71
I0224 06:46:02.458629   569 net.cpp:481] Threshold_71 <- BatchNorm_55
I0224 06:46:02.458633   569 net.cpp:442] Threshold_71 -> BatchNorm_55 (in-place)
I0224 06:46:02.458638   569 net.cpp:190] Setting up Threshold_71
I0224 06:46:02.458642   569 net.cpp:197] Top shape: 1 128 64 128 (1048576)
I0224 06:46:02.458645   569 net.cpp:205] Memory required for data: 896532480
I0224 06:46:02.458648   569 layer_factory.hpp:123] Creating layer Add_17
I0224 06:46:02.458653   569 net.cpp:140] Creating Layer Add_17
I0224 06:46:02.458657   569 net.cpp:481] Add_17 <- Add_16_Threshold_67_0_split_1
I0224 06:46:02.458660   569 net.cpp:481] Add_17 <- BatchNorm_55
I0224 06:46:02.458665   569 net.cpp:455] Add_17 -> Add_17
I0224 06:46:02.458683   569 net.cpp:190] Setting up Add_17
I0224 06:46:02.458686   569 net.cpp:197] Top shape: 1 128 64 128 (1048576)
I0224 06:46:02.458690   569 net.cpp:205] Memory required for data: 900726784
I0224 06:46:02.458693   569 layer_factory.hpp:123] Creating layer Threshold_72
I0224 06:46:02.458698   569 net.cpp:140] Creating Layer Threshold_72
I0224 06:46:02.458701   569 net.cpp:481] Threshold_72 <- Add_17
I0224 06:46:02.458705   569 net.cpp:442] Threshold_72 -> Add_17 (in-place)
I0224 06:46:02.458709   569 net.cpp:190] Setting up Threshold_72
I0224 06:46:02.458712   569 net.cpp:197] Top shape: 1 128 64 128 (1048576)
I0224 06:46:02.458716   569 net.cpp:205] Memory required for data: 904921088
I0224 06:46:02.458719   569 layer_factory.hpp:123] Creating layer Add_17_Threshold_72_0_split
I0224 06:46:02.458724   569 net.cpp:140] Creating Layer Add_17_Threshold_72_0_split
I0224 06:46:02.458727   569 net.cpp:481] Add_17_Threshold_72_0_split <- Add_17
I0224 06:46:02.458732   569 net.cpp:455] Add_17_Threshold_72_0_split -> Add_17_Threshold_72_0_split_0
I0224 06:46:02.458737   569 net.cpp:455] Add_17_Threshold_72_0_split -> Add_17_Threshold_72_0_split_1
I0224 06:46:02.458763   569 net.cpp:190] Setting up Add_17_Threshold_72_0_split
I0224 06:46:02.458770   569 net.cpp:197] Top shape: 1 128 64 128 (1048576)
I0224 06:46:02.458773   569 net.cpp:197] Top shape: 1 128 64 128 (1048576)
I0224 06:46:02.458777   569 net.cpp:205] Memory required for data: 913309696
I0224 06:46:02.458781   569 layer_factory.hpp:123] Creating layer ConvNd_58
I0224 06:46:02.458786   569 net.cpp:140] Creating Layer ConvNd_58
I0224 06:46:02.458789   569 net.cpp:481] ConvNd_58 <- Add_17_Threshold_72_0_split_0
I0224 06:46:02.458794   569 net.cpp:455] ConvNd_58 -> ConvNd_58
I0224 06:46:02.458954   569 net.cpp:190] Setting up ConvNd_58
…
I0224 06:46:02.466434   569 net.cpp:190] Setting up ConvNd_67
I0224 06:46:02.466441   569 net.cpp:197] Top shape: 1 32 64 128 (262144)
I0224 06:46:02.466446   569 net.cpp:205] Memory required for data: 1021313024
I0224 06:46:02.466450   569 layer_factory.hpp:123] Creating layer BatchNorm_65
I0224 06:46:02.466456   569 net.cpp:140] Creating Layer BatchNorm_65
I0224 06:46:02.466460   569 net.cpp:481] BatchNorm_65 <- ConvNd_67
I0224 06:46:02.466465   569 net.cpp:455] BatchNorm_65 -> BatchNorm_65
I0224 06:46:02.467026   569 net.cpp:190] Setting up BatchNorm_65
I0224 06:46:02.467033   569 net.cpp:197] Top shape: 1 32 64 128 (262144)
I0224 06:46:02.467037   569 net.cpp:205] Memory required for data: 1022361600
I0224 06:46:02.467046   569 layer_factory.hpp:123] Creating layer Threshold_85
I0224 06:46:02.467049   569 net.cpp:140] Creating Layer Threshold_85
I0224 06:46:02.467053   569 net.cpp:481] Threshold_85 <- BatchNorm_65
I0224 06:46:02.467057   569 net.cpp:442] Threshold_85 -> BatchNorm_65 (in-place)
I0224 06:46:02.467063   569 net.cpp:190] Setting up Threshold_85
I0224 06:46:02.467067   569 net.cpp:197] Top shape: 1 32 64 128 (262144)
I0224 06:46:02.467072   569 net.cpp:205] Memory required for data: 1023410176
I0224 06:46:02.467074   569 layer_factory.hpp:123] Creating layer ConvNd_68
I0224 06:46:02.467080   569 net.cpp:140] Creating Layer ConvNd_68
I0224 06:46:02.467083   569 net.cpp:481] ConvNd_68 <- BatchNorm_65
I0224 06:46:02.467087   569 net.cpp:455] ConvNd_68 -> ConvNd_68
I0224 06:46:02.467248   569 net.cpp:190] Setting up ConvNd_68
I0224 06:46:02.467255   569 net.cpp:197] Top shape: 1 32 64 128 (262144)
I0224 06:46:02.467260   569 net.cpp:205] Memory required for data: 1024458752
I0224 06:46:02.467264   569 layer_factory.hpp:123] Creating layer BatchNorm_66
I0224 06:46:02.467270   569 net.cpp:140] Creating Layer BatchNorm_66
I0224 06:46:02.467274   569 net.cpp:481] BatchNorm_66 <- ConvNd_68
I0224 06:46:02.467279   569 net.cpp:455] BatchNorm_66 -> BatchNorm_66
I0224 06:46:02.467840   569 net.cpp:190] Setting up BatchNorm_66
I0224 06:46:02.467849   569 net.cpp:197] Top shape: 1 32 64 128 (262144)
I0224 06:46:02.467852   569 net.cpp:205] Memory required for data: 1025507328
I0224 06:46:02.467860   569 layer_factory.hpp:123] Creating layer Threshold_86
I0224 06:46:02.467864   569 net.cpp:140] Creating Layer Threshold_86
I0224 06:46:02.467869   569 net.cpp:481] Threshold_86 <- BatchNorm_66
I0224 06:46:02.467872   569 net.cpp:442] Threshold_86 -> BatchNorm_66 (in-place)
I0224 06:46:02.467878   569 net.cpp:190] Setting up Threshold_86
I0224 06:46:02.467880   569 net.cpp:197] Top shape: 1 32 64 128 (262144)
I0224 06:46:02.467885   569 net.cpp:205] Memory required for data: 1026555904
I0224 06:46:02.467888   569 layer_factory.hpp:123] Creating layer ConvNd_69
I0224 06:46:02.467895   569 net.cpp:140] Creating Layer ConvNd_69
I0224 06:46:02.467897   569 net.cpp:481] ConvNd_69 <- BatchNorm_66
I0224 06:46:02.467902   569 net.cpp:455] ConvNd_69 -> ConvNd_69
I0224 06:46:02.468063   569 net.cpp:190] Setting up ConvNd_69
I0224 06:46:02.468070   569 net.cpp:197] Top shape: 1 32 64 128 (262144)
I0224 06:46:02.468075   569 net.cpp:205] Memory required for data: 1027604480
I0224 06:46:02.468080   569 layer_factory.hpp:123] Creating layer BatchNorm_67
I0224 06:46:02.468086   569 net.cpp:140] Creating Layer BatchNorm_67
I0224 06:46:02.468089   569 net.cpp:481] BatchNorm_67 <- ConvNd_69
I0224 06:46:02.468094   569 net.cpp:455] BatchNorm_67 -> BatchNorm_67
I0224 06:46:02.468653   569 net.cpp:190] Setting up BatchNorm_67
I0224 06:46:02.468660   569 net.cpp:197] Top shape: 1 32 64 128 (262144)
I0224 06:46:02.468665   569 net.cpp:205] Memory required for data: 1028653056
I0224 06:46:02.468673   569 layer_factory.hpp:123] Creating layer Threshold_87
I0224 06:46:02.468677   569 net.cpp:140] Creating Layer Threshold_87
I0224 06:46:02.468681   569 net.cpp:481] Threshold_87 <- BatchNorm_67
I0224 06:46:02.468685   569 net.cpp:442] Threshold_87 -> BatchNorm_67 (in-place)
I0224 06:46:02.468690   569 net.cpp:190] Setting up Threshold_87
I0224 06:46:02.468693   569 net.cpp:197] Top shape: 1 32 64 128 (262144)
I0224 06:46:02.468698   569 net.cpp:205] Memory required for data: 1029701632
I0224 06:46:02.468701   569 layer_factory.hpp:123] Creating layer ConvNd_70
I0224 06:46:02.468708   569 net.cpp:140] Creating Layer ConvNd_70
I0224 06:46:02.468710   569 net.cpp:481] ConvNd_70 <- BatchNorm_67
I0224 06:46:02.468715   569 net.cpp:455] ConvNd_70 -> ConvNd_70
I0224 06:46:02.468876   569 net.cpp:190] Setting up ConvNd_70
I0224 06:46:02.468883   569 net.cpp:197] Top shape: 1 128 64 128 (1048576)
I0224 06:46:02.468888   569 net.cpp:205] Memory required for data: 1033895936
I0224 06:46:02.468892   569 layer_factory.hpp:123] Creating layer BatchNorm_68
I0224 06:46:02.468899   569 net.cpp:140] Creating Layer BatchNorm_68
I0224 06:46:02.468902   569 net.cpp:481] BatchNorm_68 <- ConvNd_70
I0224 06:46:02.468907   569 net.cpp:455] BatchNorm_68 -> BatchNorm_68
I0224 06:46:02.469393   569 net.cpp:190] Setting up BatchNorm_68
I0224 06:46:02.469401   569 net.cpp:197] Top shape: 1 128 64 128 (1048576)
I0224 06:46:02.469406   569 net.cpp:205] Memory required for data: 1038090240
I0224 06:46:02.469414   569 layer_factory.hpp:123] Creating layer Threshold_88
I0224 06:46:02.469419   569 net.cpp:140] Creating Layer Threshold_88
I0224 06:46:02.469424   569 net.cpp:481] Threshold_88 <- BatchNorm_68
I0224 06:46:02.469427   569 net.cpp:442] Threshold_88 -> BatchNorm_68 (in-place)
I0224 06:46:02.469432   569 net.cpp:190] Setting up Threshold_88
I0224 06:46:02.469435   569 net.cpp:197] Top shape: 1 128 64 128 (1048576)
I0224 06:46:02.469439   569 net.cpp:205] Memory required for data: 1042284544
I0224 06:46:02.469442   569 layer_factory.hpp:123] Creating layer Add_21
I0224 06:46:02.469447   569 net.cpp:140] Creating Layer Add_21
I0224 06:46:02.469451   569 net.cpp:481] Add_21 <- Add_20_Threshold_84_0_split_1
I0224 06:46:02.469455   569 net.cpp:481] Add_21 <- BatchNorm_68
I0224 06:46:02.469460   569 net.cpp:455] Add_21 -> Add_21
I0224 06:46:02.469478   569 net.cpp:190] Setting up Add_21
I0224 06:46:02.469485   569 net.cpp:197] Top shape: 1 128 64 128 (1048576)
I0224 06:46:02.469489   569 net.cpp:205] Memory required for data: 1046478848
I0224 06:46:02.469492   569 layer_factory.hpp:123] Creating layer Threshold_89
I0224 06:46:02.469496   569 net.cpp:140] Creating Layer Threshold_89
I0224 06:46:02.469501   569 net.cpp:481] Threshold_89 <- Add_21
I0224 06:46:02.469504   569 net.cpp:442] Threshold_89 -> Add_21 (in-place)
I0224 06:46:02.469508   569 net.cpp:190] Setting up Threshold_89
I0224 06:46:02.469511   569 net.cpp:197] Top shape: 1 128 64 128 (1048576)
I0224 06:46:02.469516   569 net.cpp:205] Memory required for data: 1050673152
I0224 06:46:02.469518   569 layer_factory.hpp:123] Creating layer Add_21_Threshold_89_0_split
I0224 06:46:02.469523   569 net.cpp:140] Creating Layer Add_21_Threshold_89_0_split
I0224 06:46:02.469527   569 net.cpp:481] Add_21_Threshold_89_0_split <- Add_21
I0224 06:46:02.469530   569 net.cpp:455] Add_21_Threshold_89_0_split -> Add_21_Threshold_89_0_split_0
I0224 06:46:02.469535   569 net.cpp:455] Add_21_Threshold_89_0_split -> Add_21_Threshold_89_0_split_1
I0224 06:46:02.469569   569 net.cpp:190] Setting up Add_21_Threshold_89_0_split
I0224 06:46:02.469576   569 net.cpp:197] Top shape: 1 128 64 128 (1048576)
I0224 06:46:02.469580   569 net.cpp:197] Top shape: 1 128 64 128 (1048576)
I0224 06:46:02.469584   569 net.cpp:205] Memory required for data: 1059061760
I0224 06:46:02.469588   569 layer_factory.hpp:123] Creating layer ConvNd_71
I0224 06:46:02.469594   569 net.cpp:140] Creating Layer ConvNd_71
I0224 06:46:02.469597   569 net.cpp:481] ConvNd_71 <- Add_21_Threshold_89_0_split_0
I0224 06:46:02.469602   569 net.cpp:455] ConvNd_71 -> ConvNd_71
I0224 06:46:02.469763   569 net.cpp:190] Setting up ConvNd_71
I0224 06:46:02.469769   569 net.cpp:197] Top shape: 1 32 64 128 (262144)
I0224 06:46:02.469774   569 net.cpp:205] Memory required for data: 1060110336
I0224 06:46:02.469779   569 layer_factory.hpp:123] Creating layer BatchNorm_69
I0224 06:46:02.469785   569 net.cpp:140] Creating Layer BatchNorm_69
I0224 06:46:02.469789   569 net.cpp:481] BatchNorm_69 <- ConvNd_71
I0224 06:46:02.469794   569 net.cpp:455] BatchNorm_69 -> BatchNorm_69
I0224 06:46:02.470356   569 net.cpp:190] Setting up BatchNorm_69
I0224 06:46:02.470363   569 net.cpp:197] Top shape: 1 32 64 128 (262144)
I0224 06:46:02.470368   569 net.cpp:205] Memory required for data: 1061158912
I0224 06:46:02.470376   569 layer_factory.hpp:123] Creating layer Threshold_90
I0224 06:46:02.470381   569 net.cpp:140] Creating Layer Threshold_90
I0224 06:46:02.470383   569 net.cpp:481] Threshold_90 <- BatchNorm_69
I0224 06:46:02.470387   569 net.cpp:442] Threshold_90 -> BatchNorm_69 (in-place)
I0224 06:46:02.470393   569 net.cpp:190] Setting up Threshold_90
I0224 06:46:02.470396   569 net.cpp:197] Top shape: 1 32 64 128 (262144)
I0224 06:46:02.470400   569 net.cpp:205] Memory required for data: 1062207488
I0224 06:46:02.470403   569 layer_factory.hpp:123] Creating layer ConvNd_72
I0224 06:46:02.470408   569 net.cpp:140] Creating Layer ConvNd_72
I0224 06:46:02.470412   569 net.cpp:481] ConvNd_72 <- BatchNorm_69
I0224 06:46:02.470417   569 net.cpp:455] ConvNd_72 -> ConvNd_72
I0224 06:46:02.471241   569 net.cpp:190] Setting up ConvNd_72
I0224 06:46:02.471251   569 net.cpp:197] Top shape: 1 32 64 128 (262144)
I0224 06:46:02.471256   569 net.cpp:205] Memory required for data: 1063256064
I0224 06:46:02.471262   569 layer_factory.hpp:123] Creating layer BatchNorm_70
I0224 06:46:02.471269   569 net.cpp:140] Creating Layer BatchNorm_70
I0224 06:46:02.471273   569 net.cpp:481] BatchNorm_70 <- ConvNd_72
I0224 06:46:02.471278   569 net.cpp:455] BatchNorm_70 -> BatchNorm_70
I0224 06:46:02.471832   569 net.cpp:190] Setting up BatchNorm_70
I0224 06:46:02.471840   569 net.cpp:197] Top shape: 1 32 64 128 (262144)
I0224 06:46:02.471845   569 net.cpp:205] Memory required for data: 1064304640
I0224 06:46:02.471853   569 layer_factory.hpp:123] Creating layer Threshold_91
I0224 06:46:02.471858   569 net.cpp:140] Creating Layer Threshold_91
I0224 06:46:02.471861   569 net.cpp:481] Threshold_91 <- BatchNorm_70
I0224 06:46:02.471865   569 net.cpp:442] Threshold_91 -> BatchNorm_70 (in-place)
I0224 06:46:02.471871   569 net.cpp:190] Setting up Threshold_91
I0224 06:46:02.471874   569 net.cpp:197] Top shape: 1 32 64 128 (262144)
I0224 06:46:02.471879   569 net.cpp:205] Memory required for data: 1065353216
I0224 06:46:02.471881   569 layer_factory.hpp:123] Creating layer ConvNd_73
I0224 06:46:02.471887   569 net.cpp:140] Creating Layer ConvNd_73
I0224 06:46:02.471890   569 net.cpp:481] ConvNd_73 <- BatchNorm_70
I0224 06:46:02.471895   569 net.cpp:455] ConvNd_73 -> ConvNd_73
I0224 06:46:02.472050   569 net.cpp:190] Setting up ConvNd_73
I0224 06:46:02.472057   569 net.cpp:197] Top shape: 1 128 64 128 (1048576)
I0224 06:46:02.472062   569 net.cpp:205] Memory required for data: 1069547520
I0224 06:46:02.472067   569 layer_factory.hpp:123] Creating layer BatchNorm_71
I0224 06:46:02.472074   569 net.cpp:140] Creating Layer BatchNorm_71
I0224 06:46:02.472077   569 net.cpp:481] BatchNorm_71 <- ConvNd_73
I0224 06:46:02.472082   569 net.cpp:455] BatchNorm_71 -> BatchNorm_71
I0224 06:46:02.472540   569 net.cpp:190] Setting up BatchNorm_71
I0224 06:46:02.472548   569 net.cpp:197] Top shape: 1 128 64 128 (1048576)
I0224 06:46:02.472553   569 net.cpp:205] Memory required for data: 1073741824
I0224 06:46:02.472559   569 layer_factory.hpp:123] Creating layer Threshold_92
I0224 06:46:02.472563   569 net.cpp:140] Creating Layer Threshold_92
I0224 06:46:02.472568   569 net.cpp:481] Threshold_92 <- BatchNorm_71
I0224 06:46:02.472571   569 net.cpp:442] Threshold_92 -> BatchNorm_71 (in-place)
I0224 06:46:02.472576   569 net.cpp:190] Setting up Threshold_92
I0224 06:46:02.472579   569 net.cpp:197] Top shape: 1 128 64 128 (1048576)
I0224 06:46:02.472584   569 net.cpp:205] Memory required for data: 1077936128
I0224 06:46:02.472589   569 layer_factory.hpp:123] Creating layer Add_22
I0224 06:46:02.472594   569 net.cpp:140] Creating Layer Add_22
I0224 06:46:02.472596   569 net.cpp:481] Add_22 <- Add_21_Threshold_89_0_split_1
I0224 06:46:02.472600   569 net.cpp:481] Add_22 <- BatchNorm_71
I0224 06:46:02.472604   569 net.cpp:455] Add_22 -> Add_22
I0224 06:46:02.472622   569 net.cpp:190] Setting up Add_22
I0224 06:46:02.472626   569 net.cpp:197] Top shape: 1 128 64 128 (1048576)
I0224 06:46:02.472630   569 net.cpp:205] Memory required for data: 1082130432
I0224 06:46:02.472633   569 layer_factory.hpp:123] Creating layer Threshold_93
I0224 06:46:02.472637   569 net.cpp:140] Creating Layer Threshold_93
I0224 06:46:02.472640   569 net.cpp:481] Threshold_93 <- Add_22
I0224 06:46:02.472645   569 net.cpp:442] Threshold_93 -> Add_22 (in-place)
I0224 06:46:02.472649   569 net.cpp:190] Setting up Threshold_93
I0224 06:46:02.472652   569 net.cpp:197] Top shape: 1 128 64 128 (1048576)
I0224 06:46:02.472656   569 net.cpp:205] Memory required for data: 1086324736
I0224 06:46:02.472659   569 layer_factory.hpp:123] Creating layer Add_22_Threshold_93_0_split
I0224 06:46:02.472663   569 net.cpp:140] Creating Layer Add_22_Threshold_93_0_split
I0224 06:46:02.472666   569 net.cpp:481] Add_22_Threshold_93_0_split <- Add_22
I0224 06:46:02.472671   569 net.cpp:455] Add_22_Threshold_93_0_split -> Add_22_Threshold_93_0_split_0
I0224 06:46:02.472676   569 net.cpp:455] Add_22_Threshold_93_0_split -> Add_22_Threshold_93_0_split_1
I0224 06:46:02.472702   569 net.cpp:190] Setting up Add_22_Threshold_93_0_split
I0224 06:46:02.472709   569 net.cpp:197] Top shape: 1 128 64 128 (1048576)
I0224 06:46:02.472714   569 net.cpp:197] Top shape: 1 128 64 128 (1048576)
I0224 06:46:02.472718   569 net.cpp:205] Memory required for data: 1094713344
I0224 06:46:02.472721   569 layer_factory.hpp:123] Creating layer ConvNd_74
I0224 06:46:02.472728   569 net.cpp:140] Creating Layer ConvNd_74
I0224 06:46:02.472730   569 net.cpp:481] ConvNd_74 <- Add_22_Threshold_93_0_split_0
I0224 06:46:02.472735   569 net.cpp:455] ConvNd_74 -> ConvNd_74
I0224 06:46:02.472890   569 net.cpp:190] Setting up ConvNd_74
I0224 06:46:02.472898   569 net.cpp:197] Top shape: 1 64 64 128 (524288)
I0224 06:46:02.472903   569 net.cpp:205] Memory required for data: 1096810496
I0224 06:46:02.472906   569 layer_factory.hpp:123] Creating layer BatchNorm_72
I0224 06:46:02.472913   569 net.cpp:140] Creating Layer BatchNorm_72
I0224 06:46:02.472916   569 net.cpp:481] BatchNorm_72 <- ConvNd_74
I0224 06:46:02.472921   569 net.cpp:455] BatchNorm_72 -> BatchNorm_72
I0224 06:46:02.473510   569 net.cpp:190] Setting up BatchNorm_72
I0224 06:46:02.473520   569 net.cpp:197] Top shape: 1 64 64 128 (524288)
I0224 06:46:02.473525   569 net.cpp:205] Memory required for data: 1098907648
I0224 06:46:02.473532   569 layer_factory.hpp:123] Creating layer UpsamplingBilinear2d_1
I0224 06:46:02.473541   569 net.cpp:140] Creating Layer UpsamplingBilinear2d_1
I0224 06:46:02.473544   569 net.cpp:481] UpsamplingBilinear2d_1 <- BatchNorm_72
I0224 06:46:02.473551   569 net.cpp:455] UpsamplingBilinear2d_1 -> UpsamplingBilinear2d_1
I0224 06:46:02.473732   569 net.cpp:190] Setting up UpsamplingBilinear2d_1
I0224 06:46:02.473740   569 net.cpp:197] Top shape: 1 64 128 256 (2097152)
I0224 06:46:02.473744   569 net.cpp:205] Memory required for data: 1107296256
I0224 06:46:02.473749   569 layer_factory.hpp:123] Creating layer ConvNd_75
I0224 06:46:02.473755   569 net.cpp:140] Creating Layer ConvNd_75
I0224 06:46:02.473759   569 net.cpp:481] ConvNd_75 <- Add_22_Threshold_93_0_split_1
I0224 06:46:02.473764   569 net.cpp:455] ConvNd_75 -> ConvNd_75
I0224 06:46:02.473919   569 net.cpp:190] Setting up ConvNd_75
I0224 06:46:02.473925   569 net.cpp:197] Top shape: 1 32 64 128 (262144)
I0224 06:46:02.473930   569 net.cpp:205] Memory required for data: 1108344832
I0224 06:46:02.473934   569 layer_factory.hpp:123] Creating layer BatchNorm_73
I0224 06:46:02.473942   569 net.cpp:140] Creating Layer BatchNorm_73
I0224 06:46:02.473944   569 net.cpp:481] BatchNorm_73 <- ConvNd_75
I0224 06:46:02.473949   569 net.cpp:455] BatchNorm_73 -> BatchNorm_73
I0224 06:46:02.474490   569 net.cpp:190] Setting up BatchNorm_73
I0224 06:46:02.474498   569 net.cpp:197] Top shape: 1 32 64 128 (262144)
I0224 06:46:02.474503   569 net.cpp:205] Memory required for data: 1109393408
I0224 06:46:02.474509   569 layer_factory.hpp:123] Creating layer Threshold_94
I0224 06:46:02.474514   569 net.cpp:140] Creating Layer Threshold_94
I0224 06:46:02.474519   569 net.cpp:481] Threshold_94 <- BatchNorm_73
I0224 06:46:02.474522   569 net.cpp:442] Threshold_94 -> BatchNorm_73 (in-place)
I0224 06:46:02.474527   569 net.cpp:190] Setting up Threshold_94
I0224 06:46:02.474531   569 net.cpp:197] Top shape: 1 32 64 128 (262144)
I0224 06:46:02.474534   569 net.cpp:205] Memory required for data: 1110441984
I0224 06:46:02.474539   569 layer_factory.hpp:123] Creating layer ConvNd_76
I0224 06:46:02.474543   569 net.cpp:140] Creating Layer ConvNd_76
I0224 06:46:02.474546   569 net.cpp:481] ConvNd_76 <- BatchNorm_73
I0224 06:46:02.474551   569 net.cpp:455] ConvNd_76 -> ConvNd_76
I0224 06:46:02.474763   569 net.cpp:190] Setting up ConvNd_76
I0224 06:46:02.474771   569 net.cpp:197] Top shape: 1 32 128 256 (1048576)
I0224 06:46:02.474776   569 net.cpp:205] Memory required for data: 1114636288
I0224 06:46:02.474781   569 layer_factory.hpp:123] Creating layer BatchNorm_74
I0224 06:46:02.474786   569 net.cpp:140] Creating Layer BatchNorm_74
I0224 06:46:02.474790   569 net.cpp:481] BatchNorm_74 <- ConvNd_76
I0224 06:46:02.474795   569 net.cpp:455] BatchNorm_74 -> BatchNorm_74
I0224 06:46:02.475339   569 net.cpp:190] Setting up BatchNorm_74
I0224 06:46:02.475347   569 net.cpp:197] Top shape: 1 32 128 256 (1048576)
I0224 06:46:02.475351   569 net.cpp:205] Memory required for data: 1118830592
I0224 06:46:02.475358   569 layer_factory.hpp:123] Creating layer Threshold_95
I0224 06:46:02.475363   569 net.cpp:140] Creating Layer Threshold_95
I0224 06:46:02.475368   569 net.cpp:481] Threshold_95 <- BatchNorm_74
I0224 06:46:02.475371   569 net.cpp:442] Threshold_95 -> BatchNorm_74 (in-place)
I0224 06:46:02.475376   569 net.cpp:190] Setting up Threshold_95
I0224 06:46:02.475379   569 net.cpp:197] Top shape: 1 32 128 256 (1048576)
I0224 06:46:02.475383   569 net.cpp:205] Memory required for data: 1123024896
I0224 06:46:02.475387   569 layer_factory.hpp:123] Creating layer ConvNd_77
I0224 06:46:02.475392   569 net.cpp:140] Creating Layer ConvNd_77
I0224 06:46:02.475395   569 net.cpp:481] ConvNd_77 <- BatchNorm_74
I0224 06:46:02.475400   569 net.cpp:455] ConvNd_77 -> ConvNd_77
I0224 06:46:02.475554   569 net.cpp:190] Setting up ConvNd_77
I0224 06:46:02.475561   569 net.cpp:197] Top shape: 1 64 128 256 (2097152)
I0224 06:46:02.475566   569 net.cpp:205] Memory required for data: 1131413504
I0224 06:46:02.475570   569 layer_factory.hpp:123] Creating layer BatchNorm_75
I0224 06:46:02.475577   569 net.cpp:140] Creating Layer BatchNorm_75
I0224 06:46:02.475580   569 net.cpp:481] BatchNorm_75 <- ConvNd_77
I0224 06:46:02.475585   569 net.cpp:455] BatchNorm_75 -> BatchNorm_75
I0224 06:46:02.476142   569 net.cpp:190] Setting up BatchNorm_75
I0224 06:46:02.476150   569 net.cpp:197] Top shape: 1 64 128 256 (2097152)
I0224 06:46:02.476155   569 net.cpp:205] Memory required for data: 1139802112
I0224 06:46:02.476162   569 layer_factory.hpp:123] Creating layer Threshold_96
I0224 06:46:02.476166   569 net.cpp:140] Creating Layer Threshold_96
I0224 06:46:02.476171   569 net.cpp:481] Threshold_96 <- BatchNorm_75
I0224 06:46:02.476174   569 net.cpp:442] Threshold_96 -> BatchNorm_75 (in-place)
I0224 06:46:02.476179   569 net.cpp:190] Setting up Threshold_96
I0224 06:46:02.476182   569 net.cpp:197] Top shape: 1 64 128 256 (2097152)
I0224 06:46:02.476186   569 net.cpp:205] Memory required for data: 1148190720
I0224 06:46:02.476191   569 layer_factory.hpp:123] Creating layer Add_23
I0224 06:46:02.476194   569 net.cpp:140] Creating Layer Add_23
I0224 06:46:02.476198   569 net.cpp:481] Add_23 <- UpsamplingBilinear2d_1
I0224 06:46:02.476202   569 net.cpp:481] Add_23 <- BatchNorm_75
I0224 06:46:02.476207   569 net.cpp:455] Add_23 -> Add_23
I0224 06:46:02.476224   569 net.cpp:190] Setting up Add_23
I0224 06:46:02.476228   569 net.cpp:197] Top shape: 1 64 128 256 (2097152)
I0224 06:46:02.476233   569 net.cpp:205] Memory required for data: 1156579328
I0224 06:46:02.476235   569 layer_factory.hpp:123] Creating layer Threshold_97
I0224 06:46:02.476239   569 net.cpp:140] Creating Layer Threshold_97
I0224 06:46:02.476243   569 net.cpp:481] Threshold_97 <- Add_23
I0224 06:46:02.476248   569 net.cpp:442] Threshold_97 -> Add_23 (in-place)
I0224 06:46:02.476253   569 net.cpp:190] Setting up Threshold_97
I0224 06:46:02.476255   569 net.cpp:197] Top shape: 1 64 128 256 (2097152)
I0224 06:46:02.476259   569 net.cpp:205] Memory required for data: 1164967936
I0224 06:46:02.476263   569 layer_factory.hpp:123] Creating layer Add_23_Threshold_97_0_split
I0224 06:46:02.476266   569 net.cpp:140] Creating Layer Add_23_Threshold_97_0_split
I0224 06:46:02.476269   569 net.cpp:481] Add_23_Threshold_97_0_split <- Add_23
I0224 06:46:02.476274   569 net.cpp:455] Add_23_Threshold_97_0_split -> Add_23_Threshold_97_0_split_0
I0224 06:46:02.476279   569 net.cpp:455] Add_23_Threshold_97_0_split -> Add_23_Threshold_97_0_split_1
I0224 06:46:02.476305   569 net.cpp:190] Setting up Add_23_Threshold_97_0_split
I0224 06:46:02.476311   569 net.cpp:197] Top shape: 1 64 128 256 (2097152)
I0224 06:46:02.476315   569 net.cpp:197] Top shape: 1 64 128 256 (2097152)
I0224 06:46:02.476320   569 net.cpp:205] Memory required for data: 1181745152
I0224 06:46:02.476322   569 layer_factory.hpp:123] Creating layer ConvNd_78
I0224 06:46:02.476328   569 net.cpp:140] Creating Layer ConvNd_78
I0224 06:46:02.476332   569 net.cpp:481] ConvNd_78 <- Add_23_Threshold_97_0_split_0
I0224 06:46:02.476337   569 net.cpp:455] ConvNd_78 -> ConvNd_78
I0224 06:46:02.476491   569 net.cpp:190] Setting up ConvNd_78
I0224 06:46:02.476497   569 net.cpp:197] Top shape: 1 16 128 256 (524288)
I0224 06:46:02.476502   569 net.cpp:205] Memory required for data: 1183842304
I0224 06:46:02.476506   569 layer_factory.hpp:123] Creating layer BatchNorm_76
I0224 06:46:02.476513   569 net.cpp:140] Creating Layer BatchNorm_76
I0224 06:46:02.476517   569 net.cpp:481] BatchNorm_76 <- ConvNd_78
I0224 06:46:02.476522   569 net.cpp:455] BatchNorm_76 -> BatchNorm_76
I0224 06:46:02.477080   569 net.cpp:190] Setting up BatchNorm_76
I0224 06:46:02.477087   569 net.cpp:197] Top shape: 1 16 128 256 (524288)
I0224 06:46:02.477092   569 net.cpp:205] Memory required for data: 1185939456
I0224 06:46:02.477099   569 layer_factory.hpp:123] Creating layer Threshold_98
I0224 06:46:02.477104   569 net.cpp:140] Creating Layer Threshold_98
I0224 06:46:02.477108   569 net.cpp:481] Threshold_98 <- BatchNorm_76
I0224 06:46:02.477111   569 net.cpp:442] Threshold_98 -> BatchNorm_76 (in-place)
I0224 06:46:02.477118   569 net.cpp:190] Setting up Threshold_98
I0224 06:46:02.477120   569 net.cpp:197] Top shape: 1 16 128 256 (524288)
I0224 06:46:02.477125   569 net.cpp:205] Memory required for data: 1188036608
I0224 06:46:02.477128   569 layer_factory.hpp:123] Creating layer ConvNd_79
I0224 06:46:02.477134   569 net.cpp:140] Creating Layer ConvNd_79
I0224 06:46:02.477138   569 net.cpp:481] ConvNd_79 <- BatchNorm_76
I0224 06:46:02.477141   569 net.cpp:455] ConvNd_79 -> ConvNd_79
I0224 06:46:02.477298   569 net.cpp:190] Setting up ConvNd_79
I0224 06:46:02.477305   569 net.cpp:197] Top shape: 1 16 128 256 (524288)
I0224 06:46:02.477310   569 net.cpp:205] Memory required for data: 1190133760
I0224 06:46:02.477320   569 layer_factory.hpp:123] Creating layer BatchNorm_77
I0224 06:46:02.477327   569 net.cpp:140] Creating Layer BatchNorm_77
I0224 06:46:02.477330   569 net.cpp:481] BatchNorm_77 <- ConvNd_79
I0224 06:46:02.477335   569 net.cpp:455] BatchNorm_77 -> BatchNorm_77
I0224 06:46:02.477887   569 net.cpp:190] Setting up BatchNorm_77
I0224 06:46:02.477895   569 net.cpp:197] Top shape: 1 16 128 256 (524288)
I0224 06:46:02.477900   569 net.cpp:205] Memory required for data: 1192230912
I0224 06:46:02.477907   569 layer_factory.hpp:123] Creating layer Threshold_99
I0224 06:46:02.477912   569 net.cpp:140] Creating Layer Threshold_99
I0224 06:46:02.477916   569 net.cpp:481] Threshold_99 <- BatchNorm_77
I0224 06:46:02.477919   569 net.cpp:442] Threshold_99 -> BatchNorm_77 (in-place)
I0224 06:46:02.477926   569 net.cpp:190] Setting up Threshold_99
I0224 06:46:02.477928   569 net.cpp:197] Top shape: 1 16 128 256 (524288)
I0224 06:46:02.477932   569 net.cpp:205] Memory required for data: 1194328064
I0224 06:46:02.477936   569 layer_factory.hpp:123] Creating layer ConvNd_80
I0224 06:46:02.477941   569 net.cpp:140] Creating Layer ConvNd_80
I0224 06:46:02.477946   569 net.cpp:481] ConvNd_80 <- BatchNorm_77
I0224 06:46:02.477949   569 net.cpp:455] ConvNd_80 -> ConvNd_80
I0224 06:46:02.478106   569 net.cpp:190] Setting up ConvNd_80
I0224 06:46:02.478112   569 net.cpp:197] Top shape: 1 64 128 256 (2097152)
I0224 06:46:02.478117   569 net.cpp:205] Memory required for data: 1202716672
I0224 06:46:02.478122   569 layer_factory.hpp:123] Creating layer BatchNorm_78
I0224 06:46:02.478128   569 net.cpp:140] Creating Layer BatchNorm_78
I0224 06:46:02.478132   569 net.cpp:481] BatchNorm_78 <- ConvNd_80
I0224 06:46:02.478137   569 net.cpp:455] BatchNorm_78 -> BatchNorm_78
I0224 06:46:02.478696   569 net.cpp:190] Setting up BatchNorm_78
I0224 06:46:02.478703   569 net.cpp:197] Top shape: 1 64 128 256 (2097152)
I0224 06:46:02.478708   569 net.cpp:205] Memory required for data: 1211105280
I0224 06:46:02.478715   569 layer_factory.hpp:123] Creating layer Threshold_100
I0224 06:46:02.478720   569 net.cpp:140] Creating Layer Threshold_100
I0224 06:46:02.478724   569 net.cpp:481] Threshold_100 <- BatchNorm_78
I0224 06:46:02.478727   569 net.cpp:442] Threshold_100 -> BatchNorm_78 (in-place)
I0224 06:46:02.478734   569 net.cpp:190] Setting up Threshold_100
I0224 06:46:02.478736   569 net.cpp:197] Top shape: 1 64 128 256 (2097152)
I0224 06:46:02.478740   569 net.cpp:205] Memory required for data: 1219493888
I0224 06:46:02.478744   569 layer_factory.hpp:123] Creating layer Add_24
I0224 06:46:02.478749   569 net.cpp:140] Creating Layer Add_24
I0224 06:46:02.478751   569 net.cpp:481] Add_24 <- Add_23_Threshold_97_0_split_1
I0224 06:46:02.478755   569 net.cpp:481] Add_24 <- BatchNorm_78
I0224 06:46:02.478760   569 net.cpp:455] Add_24 -> Add_24
I0224 06:46:02.478778   569 net.cpp:190] Setting up Add_24
I0224 06:46:02.478782   569 net.cpp:197] Top shape: 1 64 128 256 (2097152)
I0224 06:46:02.478786   569 net.cpp:205] Memory required for data: 1227882496
I0224 06:46:02.478790   569 layer_factory.hpp:123] Creating layer Threshold_101
I0224 06:46:02.478793   569 net.cpp:140] Creating Layer Threshold_101
I0224 06:46:02.478796   569 net.cpp:481] Threshold_101 <- Add_24
I0224 06:46:02.478801   569 net.cpp:442] Threshold_101 -> Add_24 (in-place)
I0224 06:46:02.478806   569 net.cpp:190] Setting up Threshold_101
I0224 06:46:02.478808   569 net.cpp:197] Top shape: 1 64 128 256 (2097152)
I0224 06:46:02.478812   569 net.cpp:205] Memory required for data: 1236271104
I0224 06:46:02.478816   569 layer_factory.hpp:123] Creating layer Add_24_Threshold_101_0_split
I0224 06:46:02.478821   569 net.cpp:140] Creating Layer Add_24_Threshold_101_0_split
I0224 06:46:02.478823   569 net.cpp:481] Add_24_Threshold_101_0_split <- Add_24
I0224 06:46:02.478827   569 net.cpp:455] Add_24_Threshold_101_0_split -> Add_24_Threshold_101_0_split_0
I0224 06:46:02.478833   569 net.cpp:455] Add_24_Threshold_101_0_split -> Add_24_Threshold_101_0_split_1
I0224 06:46:02.478858   569 net.cpp:190] Setting up Add_24_Threshold_101_0_split
I0224 06:46:02.478865   569 net.cpp:197] Top shape: 1 64 128 256 (2097152)
I0224 06:46:02.478869   569 net.cpp:197] Top shape: 1 64 128 256 (2097152)
I0224 06:46:02.478873   569 net.cpp:205] Memory required for data: 1253048320
I0224 06:46:02.478876   569 layer_factory.hpp:123] Creating layer ConvNd_81
I0224 06:46:02.478883   569 net.cpp:140] Creating Layer ConvNd_81
I0224 06:46:02.478886   569 net.cpp:481] ConvNd_81 <- Add_24_Threshold_101_0_split_0
I0224 06:46:02.478890   569 net.cpp:455] ConvNd_81 -> ConvNd_81
I0224 06:46:02.479046   569 net.cpp:190] Setting up ConvNd_81
I0224 06:46:02.479053   569 net.cpp:197] Top shape: 1 16 128 256 (524288)
I0224 06:46:02.479058   569 net.cpp:205] Memory required for data: 1255145472
I0224 06:46:02.479063   569 layer_factory.hpp:123] Creating layer BatchNorm_79
I0224 06:46:02.479068   569 net.cpp:140] Creating Layer BatchNorm_79
I0224 06:46:02.479072   569 net.cpp:481] BatchNorm_79 <- ConvNd_81
I0224 06:46:02.479077   569 net.cpp:455] BatchNorm_79 -> BatchNorm_79
I0224 06:46:02.479634   569 net.cpp:190] Setting up BatchNorm_79
I0224 06:46:02.479640   569 net.cpp:197] Top shape: 1 16 128 256 (524288)
I0224 06:46:02.479645   569 net.cpp:205] Memory required for data: 1257242624
I0224 06:46:02.479652   569 layer_factory.hpp:123] Creating layer Threshold_102
I0224 06:46:02.479657   569 net.cpp:140] Creating Layer Threshold_102
I0224 06:46:02.479661   569 net.cpp:481] Threshold_102 <- BatchNorm_79
I0224 06:46:02.479665   569 net.cpp:442] Threshold_102 -> BatchNorm_79 (in-place)
I0224 06:46:02.479671   569 net.cpp:190] Setting up Threshold_102
I0224 06:46:02.479673   569 net.cpp:197] Top shape: 1 16 128 256 (524288)
I0224 06:46:02.479677   569 net.cpp:205] Memory required for data: 1259339776
I0224 06:46:02.479681   569 layer_factory.hpp:123] Creating layer ConvNd_82
I0224 06:46:02.479687   569 net.cpp:140] Creating Layer ConvNd_82
I0224 06:46:02.479691   569 net.cpp:481] ConvNd_82 <- BatchNorm_79
I0224 06:46:02.479694   569 net.cpp:455] ConvNd_82 -> ConvNd_82
I0224 06:46:02.479851   569 net.cpp:190] Setting up ConvNd_82
I0224 06:46:02.479856   569 net.cpp:197] Top shape: 1 16 128 256 (524288)
I0224 06:46:02.479861   569 net.cpp:205] Memory required for data: 1261436928
I0224 06:46:02.479866   569 layer_factory.hpp:123] Creating layer BatchNorm_80
I0224 06:46:02.479871   569 net.cpp:140] Creating Layer BatchNorm_80
I0224 06:46:02.479876   569 net.cpp:481] BatchNorm_80 <- ConvNd_82
I0224 06:46:02.479880   569 net.cpp:455] BatchNorm_80 -> BatchNorm_80
I0224 06:46:02.480432   569 net.cpp:190] Setting up BatchNorm_80
I0224 06:46:02.480439   569 net.cpp:197] Top shape: 1 16 128 256 (524288)
I0224 06:46:02.480444   569 net.cpp:205] Memory required for data: 1263534080
I0224 06:46:02.480451   569 layer_factory.hpp:123] Creating layer Threshold_103
I0224 06:46:02.480456   569 net.cpp:140] Creating Layer Threshold_103
I0224 06:46:02.480459   569 net.cpp:481] Threshold_103 <- BatchNorm_80
I0224 06:46:02.480463   569 net.cpp:442] Threshold_103 -> BatchNorm_80 (in-place)
I0224 06:46:02.480469   569 net.cpp:190] Setting up Threshold_103
I0224 06:46:02.480473   569 net.cpp:197] Top shape: 1 16 128 256 (524288)
I0224 06:46:02.480476   569 net.cpp:205] Memory required for data: 1265631232
I0224 06:46:02.480479   569 layer_factory.hpp:123] Creating layer ConvNd_83
I0224 06:46:02.480485   569 net.cpp:140] Creating Layer ConvNd_83
I0224 06:46:02.480489   569 net.cpp:481] ConvNd_83 <- BatchNorm_80
I0224 06:46:02.480492   569 net.cpp:455] ConvNd_83 -> ConvNd_83
I0224 06:46:02.480648   569 net.cpp:190] Setting up ConvNd_83
I0224 06:46:02.480654   569 net.cpp:197] Top shape: 1 64 128 256 (2097152)
I0224 06:46:02.480659   569 net.cpp:205] Memory required for data: 1274019840
I0224 06:46:02.480664   569 layer_factory.hpp:123] Creating layer BatchNorm_81
I0224 06:46:02.480669   569 net.cpp:140] Creating Layer BatchNorm_81
I0224 06:46:02.480674   569 net.cpp:481] BatchNorm_81 <- ConvNd_83
I0224 06:46:02.480679   569 net.cpp:455] BatchNorm_81 -> BatchNorm_81
I0224 06:46:02.481237   569 net.cpp:190] Setting up BatchNorm_81
I0224 06:46:02.481245   569 net.cpp:197] Top shape: 1 64 128 256 (2097152)
I0224 06:46:02.481249   569 net.cpp:205] Memory required for data: 1282408448
I0224 06:46:02.481257   569 layer_factory.hpp:123] Creating layer Threshold_104
I0224 06:46:02.481262   569 net.cpp:140] Creating Layer Threshold_104
I0224 06:46:02.481266   569 net.cpp:481] Threshold_104 <- BatchNorm_81
I0224 06:46:02.481271   569 net.cpp:442] Threshold_104 -> BatchNorm_81 (in-place)
I0224 06:46:02.481276   569 net.cpp:190] Setting up Threshold_104
I0224 06:46:02.481278   569 net.cpp:197] Top shape: 1 64 128 256 (2097152)
I0224 06:46:02.481282   569 net.cpp:205] Memory required for data: 1290797056
I0224 06:46:02.481285   569 layer_factory.hpp:123] Creating layer Add_25
I0224 06:46:02.481290   569 net.cpp:140] Creating Layer Add_25
I0224 06:46:02.481294   569 net.cpp:481] Add_25 <- Add_24_Threshold_101_0_split_1
I0224 06:46:02.481297   569 net.cpp:481] Add_25 <- BatchNorm_81
I0224 06:46:02.481302   569 net.cpp:455] Add_25 -> Add_25
I0224 06:46:02.481326   569 net.cpp:190] Setting up Add_25
I0224 06:46:02.481331   569 net.cpp:197] Top shape: 1 64 128 256 (2097152)
I0224 06:46:02.481335   569 net.cpp:205] Memory required for data: 1299185664
I0224 06:46:02.481338   569 layer_factory.hpp:123] Creating layer Threshold_105
I0224 06:46:02.481343   569 net.cpp:140] Creating Layer Threshold_105
I0224 06:46:02.481346   569 net.cpp:481] Threshold_105 <- Add_25
I0224 06:46:02.481350   569 net.cpp:442] Threshold_105 -> Add_25 (in-place)
I0224 06:46:02.481355   569 net.cpp:190] Setting up Threshold_105
I0224 06:46:02.481359   569 net.cpp:197] Top shape: 1 64 128 256 (2097152)
I0224 06:46:02.481362   569 net.cpp:205] Memory required for data: 1307574272
I0224 06:46:02.481366   569 layer_factory.hpp:123] Creating layer Add_25_Threshold_105_0_split
I0224 06:46:02.481370   569 net.cpp:140] Creating Layer Add_25_Threshold_105_0_split
I0224 06:46:02.481374   569 net.cpp:481] Add_25_Threshold_105_0_split <- Add_25
I0224 06:46:02.481377   569 net.cpp:455] Add_25_Threshold_105_0_split -> Add_25_Threshold_105_0_split_0
I0224 06:46:02.481384   569 net.cpp:455] Add_25_Threshold_105_0_split -> Add_25_Threshold_105_0_split_1
I0224 06:46:02.481410   569 net.cpp:190] Setting up Add_25_Threshold_105_0_split
I0224 06:46:02.481415   569 net.cpp:197] Top shape: 1 64 128 256 (2097152)
I0224 06:46:02.481420   569 net.cpp:197] Top shape: 1 64 128 256 (2097152)
I0224 06:46:02.481423   569 net.cpp:205] Memory required for data: 1324351488
I0224 06:46:02.481426   569 layer_factory.hpp:123] Creating layer ConvNd_84
I0224 06:46:02.481432   569 net.cpp:140] Creating Layer ConvNd_84
I0224 06:46:02.481436   569 net.cpp:481] ConvNd_84 <- Add_25_Threshold_105_0_split_0
I0224 06:46:02.481441   569 net.cpp:455] ConvNd_84 -> ConvNd_84
I0224 06:46:02.481597   569 net.cpp:190] Setting up ConvNd_84
I0224 06:46:02.481603   569 net.cpp:197] Top shape: 1 16 128 256 (524288)
I0224 06:46:02.481608   569 net.cpp:205] Memory required for data: 1326448640
I0224 06:46:02.481612   569 layer_factory.hpp:123] Creating layer BatchNorm_82
I0224 06:46:02.481619   569 net.cpp:140] Creating Layer BatchNorm_82
I0224 06:46:02.481622   569 net.cpp:481] BatchNorm_82 <- ConvNd_84
I0224 06:46:02.481627   569 net.cpp:455] BatchNorm_82 -> BatchNorm_82
I0224 06:46:02.482183   569 net.cpp:190] Setting up BatchNorm_82
I0224 06:46:02.482190   569 net.cpp:197] Top shape: 1 16 128 256 (524288)
I0224 06:46:02.482195   569 net.cpp:205] Memory required for data: 1328545792
I0224 06:46:02.482203   569 layer_factory.hpp:123] Creating layer UpsamplingBilinear2d_2
I0224 06:46:02.482209   569 net.cpp:140] Creating Layer UpsamplingBilinear2d_2
I0224 06:46:02.482213   569 net.cpp:481] UpsamplingBilinear2d_2 <- BatchNorm_82
I0224 06:46:02.482218   569 net.cpp:455] UpsamplingBilinear2d_2 -> UpsamplingBilinear2d_2
I0224 06:46:02.482378   569 net.cpp:190] Setting up UpsamplingBilinear2d_2
I0224 06:46:02.482384   569 net.cpp:197] Top shape: 1 16 256 512 (2097152)
I0224 06:46:02.482388   569 net.cpp:205] Memory required for data: 1336934400
I0224 06:46:02.482393   569 layer_factory.hpp:123] Creating layer ConvNd_85
I0224 06:46:02.482399   569 net.cpp:140] Creating Layer ConvNd_85
I0224 06:46:02.482403   569 net.cpp:481] ConvNd_85 <- Add_25_Threshold_105_0_split_1
I0224 06:46:02.482409   569 net.cpp:455] ConvNd_85 -> ConvNd_85
I0224 06:46:02.483212   569 net.cpp:190] Setting up ConvNd_85
I0224 06:46:02.483222   569 net.cpp:197] Top shape: 1 16 128 256 (524288)
I0224 06:46:02.483228   569 net.cpp:205] Memory required for data: 1339031552
I0224 06:46:02.483233   569 layer_factory.hpp:123] Creating layer BatchNorm_83
I0224 06:46:02.483240   569 net.cpp:140] Creating Layer BatchNorm_83
I0224 06:46:02.483244   569 net.cpp:481] BatchNorm_83 <- ConvNd_85
I0224 06:46:02.483250   569 net.cpp:455] BatchNorm_83 -> BatchNorm_83
I0224 06:46:02.483814   569 net.cpp:190] Setting up BatchNorm_83
I0224 06:46:02.483821   569 net.cpp:197] Top shape: 1 16 128 256 (524288)
I0224 06:46:02.483826   569 net.cpp:205] Memory required for data: 1341128704
I0224 06:46:02.483834   569 layer_factory.hpp:123] Creating layer Threshold_106
I0224 06:46:02.483839   569 net.cpp:140] Creating Layer Threshold_106
I0224 06:46:02.483842   569 net.cpp:481] Threshold_106 <- BatchNorm_83
I0224 06:46:02.483846   569 net.cpp:442] Threshold_106 -> BatchNorm_83 (in-place)
I0224 06:46:02.483852   569 net.cpp:190] Setting up Threshold_106
I0224 06:46:02.483855   569 net.cpp:197] Top shape: 1 16 128 256 (524288)
I0224 06:46:02.483860   569 net.cpp:205] Memory required for data: 1343225856
I0224 06:46:02.483862   569 layer_factory.hpp:123] Creating layer ConvNd_86
I0224 06:46:02.483868   569 net.cpp:140] Creating Layer ConvNd_86
I0224 06:46:02.483871   569 net.cpp:481] ConvNd_86 <- BatchNorm_83
I0224 06:46:02.483876   569 net.cpp:455] ConvNd_86 -> ConvNd_86
I0224 06:46:02.484123   569 net.cpp:190] Setting up ConvNd_86
I0224 06:46:02.484130   569 net.cpp:197] Top shape: 1 16 256 512 (2097152)
I0224 06:46:02.484134   569 net.cpp:205] Memory required for data: 1351614464
I0224 06:46:02.484140   569 layer_factory.hpp:123] Creating layer BatchNorm_84
I0224 06:46:02.484146   569 net.cpp:140] Creating Layer BatchNorm_84
I0224 06:46:02.484150   569 net.cpp:481] BatchNorm_84 <- ConvNd_86
I0224 06:46:02.484155   569 net.cpp:455] BatchNorm_84 -> BatchNorm_84
I0224 06:46:02.484746   569 net.cpp:190] Setting up BatchNorm_84
I0224 06:46:02.484755   569 net.cpp:197] Top shape: 1 16 256 512 (2097152)
I0224 06:46:02.484760   569 net.cpp:205] Memory required for data: 1360003072
I0224 06:46:02.484766   569 layer_factory.hpp:123] Creating layer Threshold_107
I0224 06:46:02.484771   569 net.cpp:140] Creating Layer Threshold_107
I0224 06:46:02.484776   569 net.cpp:481] Threshold_107 <- BatchNorm_84
I0224 06:46:02.484779   569 net.cpp:442] Threshold_107 -> BatchNorm_84 (in-place)
I0224 06:46:02.484784   569 net.cpp:190] Setting up Threshold_107
I0224 06:46:02.484787   569 net.cpp:197] Top shape: 1 16 256 512 (2097152)
I0224 06:46:02.484791   569 net.cpp:205] Memory required for data: 1368391680
I0224 06:46:02.484794   569 layer_factory.hpp:123] Creating layer ConvNd_87
I0224 06:46:02.484800   569 net.cpp:140] Creating Layer ConvNd_87
I0224 06:46:02.484803   569 net.cpp:481] ConvNd_87 <- BatchNorm_84
I0224 06:46:02.484808   569 net.cpp:455] ConvNd_87 -> ConvNd_87
I0224 06:46:02.484966   569 net.cpp:190] Setting up ConvNd_87
I0224 06:46:02.484972   569 net.cpp:197] Top shape: 1 16 256 512 (2097152)
I0224 06:46:02.484977   569 net.cpp:205] Memory required for data: 1376780288
I0224 06:46:02.484982   569 layer_factory.hpp:123] Creating layer BatchNorm_85
I0224 06:46:02.484988   569 net.cpp:140] Creating Layer BatchNorm_85
I0224 06:46:02.484992   569 net.cpp:481] BatchNorm_85 <- ConvNd_87
I0224 06:46:02.484997   569 net.cpp:455] BatchNorm_85 -> BatchNorm_85
I0224 06:46:02.485605   569 net.cpp:190] Setting up BatchNorm_85
I0224 06:46:02.485612   569 net.cpp:197] Top shape: 1 16 256 512 (2097152)
I0224 06:46:02.485617   569 net.cpp:205] Memory required for data: 1385168896
I0224 06:46:02.485636   569 layer_factory.hpp:123] Creating layer Threshold_108
I0224 06:46:02.485642   569 net.cpp:140] Creating Layer Threshold_108
I0224 06:46:02.485646   569 net.cpp:481] Threshold_108 <- BatchNorm_85
I0224 06:46:02.485649   569 net.cpp:442] Threshold_108 -> BatchNorm_85 (in-place)
I0224 06:46:02.485656   569 net.cpp:190] Setting up Threshold_108
I0224 06:46:02.485658   569 net.cpp:197] Top shape: 1 16 256 512 (2097152)
I0224 06:46:02.485662   569 net.cpp:205] Memory required for data: 1393557504
I0224 06:46:02.485666   569 layer_factory.hpp:123] Creating layer Add_26
I0224 06:46:02.485671   569 net.cpp:140] Creating Layer Add_26
I0224 06:46:02.485674   569 net.cpp:481] Add_26 <- UpsamplingBilinear2d_2
I0224 06:46:02.485677   569 net.cpp:481] Add_26 <- BatchNorm_85
I0224 06:46:02.485682   569 net.cpp:455] Add_26 -> Add_26
I0224 06:46:02.485703   569 net.cpp:190] Setting up Add_26
I0224 06:46:02.485709   569 net.cpp:197] Top shape: 1 16 256 512 (2097152)
I0224 06:46:02.485713   569 net.cpp:205] Memory required for data: 1401946112
I0224 06:46:02.485716   569 layer_factory.hpp:123] Creating layer Threshold_109
I0224 06:46:02.485720   569 net.cpp:140] Creating Layer Threshold_109
I0224 06:46:02.485725   569 net.cpp:481] Threshold_109 <- Add_26
I0224 06:46:02.485728   569 net.cpp:442] Threshold_109 -> Add_26 (in-place)
I0224 06:46:02.485733   569 net.cpp:190] Setting up Threshold_109
I0224 06:46:02.485738   569 net.cpp:197] Top shape: 1 16 256 512 (2097152)
I0224 06:46:02.485741   569 net.cpp:205] Memory required for data: 1410334720
I0224 06:46:02.485744   569 layer_factory.hpp:123] Creating layer Add_26_Threshold_109_0_split
I0224 06:46:02.485749   569 net.cpp:140] Creating Layer Add_26_Threshold_109_0_split
I0224 06:46:02.485752   569 net.cpp:481] Add_26_Threshold_109_0_split <- Add_26
I0224 06:46:02.485757   569 net.cpp:455] Add_26_Threshold_109_0_split -> Add_26_Threshold_109_0_split_0
I0224 06:46:02.485762   569 net.cpp:455] Add_26_Threshold_109_0_split -> Add_26_Threshold_109_0_split_1
I0224 06:46:02.485790   569 net.cpp:190] Setting up Add_26_Threshold_109_0_split
I0224 06:46:02.485795   569 net.cpp:197] Top shape: 1 16 256 512 (2097152)
I0224 06:46:02.485800   569 net.cpp:197] Top shape: 1 16 256 512 (2097152)
I0224 06:46:02.485802   569 net.cpp:205] Memory required for data: 1427111936
I0224 06:46:02.485806   569 layer_factory.hpp:123] Creating layer ConvNd_88
I0224 06:46:02.485812   569 net.cpp:140] Creating Layer ConvNd_88
I0224 06:46:02.485816   569 net.cpp:481] ConvNd_88 <- Add_26_Threshold_109_0_split_0
I0224 06:46:02.485821   569 net.cpp:455] ConvNd_88 -> ConvNd_88
I0224 06:46:02.485988   569 net.cpp:190] Setting up ConvNd_88
I0224 06:46:02.485996   569 net.cpp:197] Top shape: 1 4 256 512 (524288)
I0224 06:46:02.485999   569 net.cpp:205] Memory required for data: 1429209088
I0224 06:46:02.486004   569 layer_factory.hpp:123] Creating layer BatchNorm_86
I0224 06:46:02.486011   569 net.cpp:140] Creating Layer BatchNorm_86
I0224 06:46:02.486014   569 net.cpp:481] BatchNorm_86 <- ConvNd_88
I0224 06:46:02.486019   569 net.cpp:455] BatchNorm_86 -> BatchNorm_86
I0224 06:46:02.487242   569 net.cpp:190] Setting up BatchNorm_86
I0224 06:46:02.487252   569 net.cpp:197] Top shape: 1 4 256 512 (524288)
I0224 06:46:02.487258   569 net.cpp:205] Memory required for data: 1431306240
I0224 06:46:02.487267   569 layer_factory.hpp:123] Creating layer Threshold_110
I0224 06:46:02.487272   569 net.cpp:140] Creating Layer Threshold_110
I0224 06:46:02.487275   569 net.cpp:481] Threshold_110 <- BatchNorm_86
I0224 06:46:02.487280   569 net.cpp:442] Threshold_110 -> BatchNorm_86 (in-place)
I0224 06:46:02.487287   569 net.cpp:190] Setting up Threshold_110
I0224 06:46:02.487289   569 net.cpp:197] Top shape: 1 4 256 512 (524288)
I0224 06:46:02.487294   569 net.cpp:205] Memory required for data: 1433403392
I0224 06:46:02.487298   569 layer_factory.hpp:123] Creating layer ConvNd_89
I0224 06:46:02.487303   569 net.cpp:140] Creating Layer ConvNd_89
I0224 06:46:02.487306   569 net.cpp:481] ConvNd_89 <- BatchNorm_86
I0224 06:46:02.487311   569 net.cpp:455] ConvNd_89 -> ConvNd_89
I0224 06:46:02.487488   569 net.cpp:190] Setting up ConvNd_89
I0224 06:46:02.487495   569 net.cpp:197] Top shape: 1 4 256 512 (524288)
I0224 06:46:02.487500   569 net.cpp:205] Memory required for data: 1435500544
I0224 06:46:02.487505   569 layer_factory.hpp:123] Creating layer BatchNorm_87
I0224 06:46:02.487511   569 net.cpp:140] Creating Layer BatchNorm_87
I0224 06:46:02.487515   569 net.cpp:481] BatchNorm_87 <- ConvNd_89
I0224 06:46:02.487520   569 net.cpp:455] BatchNorm_87 -> BatchNorm_87
I0224 06:46:02.488121   569 net.cpp:190] Setting up BatchNorm_87
I0224 06:46:02.488129   569 net.cpp:197] Top shape: 1 4 256 512 (524288)
I0224 06:46:02.488133   569 net.cpp:205] Memory required for data: 1437597696
I0224 06:46:02.488142   569 layer_factory.hpp:123] Creating layer Threshold_111
I0224 06:46:02.488145   569 net.cpp:140] Creating Layer Threshold_111
I0224 06:46:02.488149   569 net.cpp:481] Threshold_111 <- BatchNorm_87
I0224 06:46:02.488153   569 net.cpp:442] Threshold_111 -> BatchNorm_87 (in-place)
I0224 06:46:02.488159   569 net.cpp:190] Setting up Threshold_111
I0224 06:46:02.488162   569 net.cpp:197] Top shape: 1 4 256 512 (524288)
I0224 06:46:02.488167   569 net.cpp:205] Memory required for data: 1439694848
I0224 06:46:02.488169   569 layer_factory.hpp:123] Creating layer ConvNd_90
I0224 06:46:02.488175   569 net.cpp:140] Creating Layer ConvNd_90
I0224 06:46:02.488178   569 net.cpp:481] ConvNd_90 <- BatchNorm_87
I0224 06:46:02.488183   569 net.cpp:455] ConvNd_90 -> ConvNd_90
I0224 06:46:02.488353   569 net.cpp:190] Setting up ConvNd_90
I0224 06:46:02.488360   569 net.cpp:197] Top shape: 1 16 256 512 (2097152)
I0224 06:46:02.488364   569 net.cpp:205] Memory required for data: 1448083456
I0224 06:46:02.488369   569 layer_factory.hpp:123] Creating layer BatchNorm_88
I0224 06:46:02.488375   569 net.cpp:140] Creating Layer BatchNorm_88
I0224 06:46:02.488379   569 net.cpp:481] BatchNorm_88 <- ConvNd_90
I0224 06:46:02.488384   569 net.cpp:455] BatchNorm_88 -> BatchNorm_88
I0224 06:46:02.488996   569 net.cpp:190] Setting up BatchNorm_88
I0224 06:46:02.489003   569 net.cpp:197] Top shape: 1 16 256 512 (2097152)
I0224 06:46:02.489008   569 net.cpp:205] Memory required for data: 1456472064
I0224 06:46:02.489017   569 layer_factory.hpp:123] Creating layer Threshold_112
I0224 06:46:02.489020   569 net.cpp:140] Creating Layer Threshold_112
I0224 06:46:02.489024   569 net.cpp:481] Threshold_112 <- BatchNorm_88
I0224 06:46:02.489028   569 net.cpp:442] Threshold_112 -> BatchNorm_88 (in-place)
I0224 06:46:02.489034   569 net.cpp:190] Setting up Threshold_112
I0224 06:46:02.489037   569 net.cpp:197] Top shape: 1 16 256 512 (2097152)
I0224 06:46:02.489042   569 net.cpp:205] Memory required for data: 1464860672
I0224 06:46:02.489044   569 layer_factory.hpp:123] Creating layer Add_27
I0224 06:46:02.489049   569 net.cpp:140] Creating Layer Add_27
I0224 06:46:02.489053   569 net.cpp:481] Add_27 <- Add_26_Threshold_109_0_split_1
I0224 06:46:02.489058   569 net.cpp:481] Add_27 <- BatchNorm_88
I0224 06:46:02.489061   569 net.cpp:455] Add_27 -> Add_27
I0224 06:46:02.489079   569 net.cpp:190] Setting up Add_27
I0224 06:46:02.489084   569 net.cpp:197] Top shape: 1 16 256 512 (2097152)
I0224 06:46:02.489087   569 net.cpp:205] Memory required for data: 1473249280
I0224 06:46:02.489091   569 layer_factory.hpp:123] Creating layer Threshold_113
I0224 06:46:02.489095   569 net.cpp:140] Creating Layer Threshold_113
I0224 06:46:02.489099   569 net.cpp:481] Threshold_113 <- Add_27
I0224 06:46:02.489102   569 net.cpp:442] Threshold_113 -> Add_27 (in-place)
I0224 06:46:02.489107   569 net.cpp:190] Setting up Threshold_113
I0224 06:46:02.489109   569 net.cpp:197] Top shape: 1 16 256 512 (2097152)
I0224 06:46:02.489114   569 net.cpp:205] Memory required for data: 1481637888
I0224 06:46:02.489117   569 layer_factory.hpp:123] Creating layer ConvNd_91
I0224 06:46:02.489122   569 net.cpp:140] Creating Layer ConvNd_91
I0224 06:46:02.489125   569 net.cpp:481] ConvNd_91 <- Add_27
I0224 06:46:02.489130   569 net.cpp:455] ConvNd_91 -> ConvNd_91
I0224 06:46:02.490180   569 net.cpp:190] Setting up ConvNd_91
I0224 06:46:02.490190   569 net.cpp:197] Top shape: 1 19 512 1024 (9961472)
I0224 06:46:02.490195   569 net.cpp:205] Memory required for data: 1521483776
I0224 06:46:02.490201   569 layer_factory.hpp:123] Creating layer score
I0224 06:46:02.490208   569 net.cpp:140] Creating Layer score
I0224 06:46:02.490212   569 net.cpp:481] score <- ConvNd_91
I0224 06:46:02.490217   569 net.cpp:455] score -> score
I0224 06:46:02.490286   569 net.cpp:190] Setting up score
I0224 06:46:02.490293   569 net.cpp:197] Top shape: 1 19 512 1024 (9961472)
I0224 06:46:02.490298   569 net.cpp:205] Memory required for data: 1561329664
I0224 06:46:02.490301   569 layer_factory.hpp:123] Creating layer accuracy
I0224 06:46:02.490314   569 net.cpp:140] Creating Layer accuracy
I0224 06:46:02.490317   569 net.cpp:481] accuracy <- score
I0224 06:46:02.490321   569 net.cpp:481] accuracy <- label
I0224 06:46:02.490326   569 net.cpp:455] accuracy -> segmentation_eval
I0224 06:46:02.490347   569 net.cpp:190] Setting up accuracy
I0224 06:46:02.490351   569 net.cpp:197] Top shape: 3 19 (57)
I0224 06:46:02.490355   569 net.cpp:205] Memory required for data: 1561329892
I0224 06:46:02.490358   569 net.cpp:268] accuracy does not need backward computation.
I0224 06:46:02.490362   569 net.cpp:268] score does not need backward computation.
I0224 06:46:02.490365   569 net.cpp:268] ConvNd_91 does not need backward computation.
I0224 06:46:02.490368   569 net.cpp:268] Threshold_113 does not need backward computation.
…
