…
layer {
  name: "data"
  type: "ImageData"
  top: "data"
  top: "label"
  include {
    phase: TRAIN
  }
  transform_param {
    scale: 0.022
    mean_value: 73
    mean_value: 82
    mean_value: 72
    resize_param {
      prob: 1
      resize_mode: WARP
      height: 512
      width: 1024
    }
  }
  image_data_param {
    source: "/workspace/Segment/VAI/data/cityscapes/calibration.txt"
    batch_size: 1
    shuffle: true
    new_height: 512
    new_width: 1024
    root_folder: "/workspace/Segment/VAI/data/cityscapes/calibration_images/"
  }
}
layer {
  name: "ConvNd_1"
  type: "Convolution"
  bottom: "data"
  top: "ConvNd_1"
  convolution_param {
    num_output: 13
    bias_term: false
    pad: 1
    kernel_size: 3
    group: 1
    stride: 2
    dilation: 1
  }
}
layer {
  name: "MaxPool2d_1"
  type: "Pooling"
  bottom: "data"
  top: "MaxPool2d_1"
  pooling_param {
    pool: MAX
    kernel_size: 3
    stride: 2
    pad: 0
  }
}
layer {
  name: "Concat_1"
  type: "Concat"
  bottom: "ConvNd_1"
  bottom: "MaxPool2d_1"
  top: "Concat_1"
  concat_param {
    axis: 1
  }
}
layer {
  name: "BatchNorm_1"
  type: "BatchNorm"
  bottom: "Concat_1"
  top: "BatchNorm_1"
  param {
    lr_mult: 1
    decay_mult: 0
  }
  param {
    lr_mult: 1
    decay_mult: 0
  }
  param {
    lr_mult: 0
    decay_mult: 0
  }
  param {
    lr_mult: 0
    decay_mult: 0
  }
  batch_norm_param {
    use_global_stats: false
    eps: 1e-05
    scale_filler {
      type: "constant"
      value: 1
    }
    bias_filler {
      type: "constant"
      value: 0
    }
  }
}
layer {
  name: "Threshold_1"
  type: "ReLU"
  bottom: "BatchNorm_1"
  top: "BatchNorm_1"
}
layer {
  name: "MaxPool2d_2"
  type: "Pooling"
  bottom: "BatchNorm_1"
  top: "MaxPool2d_2"
  pooling_param {
    pool: MAX
    kernel_size: 3
    stride: 2
    pad: 0
  }
}
layer {
  name: "ConvNd_2"
  type: "Convolution"
  bottom: "MaxPool2d_2"
  top: "ConvNd_2"
  convolution_param {
    num_output: 64
    bias_term: false
    pad: 0
    kernel_size: 1
    group: 1
    stride: 1
    dilation: 1
  }
}
layer {
  name: "ConvNd_3"
  type: "Convolution"
  bottom: "BatchNorm_1"
  top: "ConvNd_3"
  convolution_param {
    num_output: 16
    bias_term: false
    pad: 0
    kernel_size: 2
    group: 1
    stride: 2
    dilation: 1
  }
}
layer {
  name: "BatchNorm_2"
  type: "BatchNorm"
  bottom: "ConvNd_3"
  top: "BatchNorm_2"
  param {
    lr_mult: 1
    decay_mult: 0
  }
  param {
    lr_mult: 1
    decay_mult: 0
  }
  param {
    lr_mult: 0
    decay_mult: 0
  }
  param {
    lr_mult: 0
    decay_mult: 0
  }
  batch_norm_param {
    use_global_stats: false
    eps: 1e-05
    scale_filler {
      type: "constant"
      value: 1
    }
    bias_filler {
      type: "constant"
      value: 0
    }
  }
}
layer {
  name: "Threshold_2"
  type: "ReLU"
  bottom: "BatchNorm_2"
  top: "BatchNorm_2"
}
layer {
  name: "ConvNd_4"
  type: "Convolution"
  bottom: "BatchNorm_2"
  top: "ConvNd_4"
  convolution_param {
    num_output: 16
    bias_term: false
    pad: 1
    kernel_size: 3
    group: 1
    stride: 1
    dilation: 1
  }
}
layer {
  name: "BatchNorm_3"
  type: "BatchNorm"
  bottom: "ConvNd_4"
  top: "BatchNorm_3"
  param {
    lr_mult: 1
    decay_mult: 0
  }
  param {
    lr_mult: 1
    decay_mult: 0
  }
  param {
    lr_mult: 0
    decay_mult: 0
  }
  param {
    lr_mult: 0
    decay_mult: 0
  }
  batch_norm_param {
    use_global_stats: false
    eps: 1e-05
    scale_filler {
      type: "constant"
      value: 1
    }
    bias_filler {
      type: "constant"
      value: 0
    }
  }
}
layer {
  name: "Threshold_3"
  type: "ReLU"
  bottom: "BatchNorm_3"
  top: "BatchNorm_3"
}
layer {
  name: "ConvNd_5"
  type: "Convolution"
  bottom: "BatchNorm_3"
  top: "ConvNd_5"
  convolution_param {
    num_output: 64
    bias_term: false
    pad: 0
    kernel_size: 1
    group: 1
    stride: 1
    dilation: 1
  }
}
layer {
  name: "BatchNorm_4"
  type: "BatchNorm"
  bottom: "ConvNd_5"
  top: "BatchNorm_4"
  param {
    lr_mult: 1
    decay_mult: 0
  }
  param {
    lr_mult: 1
    decay_mult: 0
  }
  param {
    lr_mult: 0
    decay_mult: 0
  }
  param {
    lr_mult: 0
    decay_mult: 0
  }
  batch_norm_param {
    use_global_stats: false
    eps: 1e-05
    scale_filler {
      type: "constant"
      value: 1
    }
    bias_filler {
      type: "constant"
      value: 0
    }
  }
}
layer {
  name: "Threshold_4"
  type: "ReLU"
  bottom: "BatchNorm_4"
  top: "BatchNorm_4"
}
layer {
  name: "Add_1"
  type: "Eltwise"
  bottom: "ConvNd_2"
  bottom: "BatchNorm_4"
  top: "Add_1"
}
layer {
  name: "Threshold_5"
  type: "ReLU"
  bottom: "Add_1"
  top: "Add_1"
}
layer {
  name: "ConvNd_6"
  type: "Convolution"
  bottom: "Add_1"
  top: "ConvNd_6"
  convolution_param {
    num_output: 16
    bias_term: false
    pad: 0
    kernel_size: 1
    group: 1
    stride: 1
    dilation: 1
  }
}
layer {
  name: "BatchNorm_5"
  type: "BatchNorm"
  bottom: "ConvNd_6"
  top: "BatchNorm_5"
  param {
    lr_mult: 1
    decay_mult: 0
  }
  param {
    lr_mult: 1
    decay_mult: 0
  }
  param {
    lr_mult: 0
    decay_mult: 0
  }
  param {
    lr_mult: 0
    decay_mult: 0
  }
  batch_norm_param {
    use_global_stats: false
    eps: 1e-05
    scale_filler {
      type: "constant"
      value: 1
    }
    bias_filler {
      type: "constant"
      value: 0
    }
  }
}
layer {
  name: "Threshold_6"
  type: "ReLU"
  bottom: "BatchNorm_5"
  top: "BatchNorm_5"
}
layer {
  name: "ConvNd_7"
  type: "Convolution"
  bottom: "BatchNorm_5"
  top: "ConvNd_7"
  convolution_param {
    num_output: 16
    bias_term: false
    pad: 1
    kernel_size: 3
    group: 1
    stride: 1
    dilation: 1
  }
}
layer {
  name: "BatchNorm_6"
  type: "BatchNorm"
  bottom: "ConvNd_7"
  top: "BatchNorm_6"
  param {
    lr_mult: 1
    decay_mult: 0
  }
  param {
    lr_mult: 1
    decay_mult: 0
  }
  param {
    lr_mult: 0
    decay_mult: 0
  }
  param {
    lr_mult: 0
    decay_mult: 0
  }
  batch_norm_param {
    use_global_stats: false
    eps: 1e-05
    scale_filler {
      type: "constant"
      value: 1
    }
    bias_filler {
      type: "constant"
      value: 0
    }
  }
}
layer {
  name: "Threshold_7"
  type: "ReLU"
  bottom: "BatchNorm_6"
  top: "BatchNorm_6"
}
layer {
  name: "ConvNd_8"
  type: "Convolution"
  bottom: "BatchNorm_6"
  top: "ConvNd_8"
  convolution_param {
    num_output: 64
    bias_term: false
    pad: 0
    kernel_size: 1
    group: 1
    stride: 1
    dilation: 1
  }
}
layer {
  name: "BatchNorm_7"
  type: "BatchNorm"
  bottom: "ConvNd_8"
  top: "BatchNorm_7"
  param {
    lr_mult: 1
    decay_mult: 0
  }
  param {
    lr_mult: 1
    decay_mult: 0
  }
  param {
    lr_mult: 0
    decay_mult: 0
  }
  param {
    lr_mult: 0
    decay_mult: 0
  }
  batch_norm_param {
    use_global_stats: false
    eps: 1e-05
    scale_filler {
      type: "constant"
      value: 1
    }
    bias_filler {
      type: "constant"
      value: 0
    }
  }
}
layer {
  name: "Threshold_8"
  type: "ReLU"
  bottom: "BatchNorm_7"
  top: "BatchNorm_7"
}
layer {
  name: "Add_2"
  type: "Eltwise"
  bottom: "Add_1"
  bottom: "BatchNorm_7"
  top: "Add_2"
}
layer {
  name: "Threshold_9"
  type: "ReLU"
  bottom: "Add_2"
  top: "Add_2"
}
layer {
  name: "ConvNd_9"
  type: "Convolution"
  bottom: "Add_2"
  top: "ConvNd_9"
  convolution_param {
    num_output: 16
    bias_term: false
    pad: 0
    kernel_size: 1
    group: 1
    stride: 1
    dilation: 1
  }
}
layer {
  name: "BatchNorm_8"
  type: "BatchNorm"
  bottom: "ConvNd_9"
  top: "BatchNorm_8"
  param {
    lr_mult: 1
    decay_mult: 0
  }
  param {
    lr_mult: 1
    decay_mult: 0
  }
  param {
    lr_mult: 0
    decay_mult: 0
  }
  param {
    lr_mult: 0
    decay_mult: 0
  }
  batch_norm_param {
    use_global_stats: false
    eps: 1e-05
    scale_filler {
      type: "constant"
      value: 1
    }
    bias_filler {
      type: "constant"
      value: 0
    }
  }
}
layer {
  name: "Threshold_10"
  type: "ReLU"
  bottom: "BatchNorm_8"
  top: "BatchNorm_8"
}
layer {
  name: "ConvNd_10"
  type: "Convolution"
  bottom: "BatchNorm_8"
  top: "ConvNd_10"
  convolution_param {
    num_output: 16
    bias_term: false
    pad: 1
    kernel_size: 3
    group: 1
    stride: 1
    dilation: 1
  }
}
layer {
  name: "BatchNorm_9"
  type: "BatchNorm"
  bottom: "ConvNd_10"
  top: "BatchNorm_9"
  param {
    lr_mult: 1
    decay_mult: 0
  }
  param {
    lr_mult: 1
    decay_mult: 0
  }
  param {
    lr_mult: 0
    decay_mult: 0
  }
  param {
    lr_mult: 0
    decay_mult: 0
  }
  batch_norm_param {
    use_global_stats: false
    eps: 1e-05
    scale_filler {
      type: "constant"
      value: 1
    }
    bias_filler {
      type: "constant"
      value: 0
    }
  }
}
layer {
  name: "Threshold_11"
  type: "ReLU"
  bottom: "BatchNorm_9"
  top: "BatchNorm_9"
}
layer {
  name: "ConvNd_11"
  type: "Convolution"
  bottom: "BatchNorm_9"
  top: "ConvNd_11"
  convolution_param {
    num_output: 64
    bias_term: false
    pad: 0
    kernel_size: 1
    group: 1
    stride: 1
    dilation: 1
  }
}
layer {
  name: "BatchNorm_10"
  type: "BatchNorm"
  bottom: "ConvNd_11"
  top: "BatchNorm_10"
  param {
    lr_mult: 1
    decay_mult: 0
  }
  param {
    lr_mult: 1
    decay_mult: 0
  }
  param {
    lr_mult: 0
    decay_mult: 0
  }
  param {
    lr_mult: 0
    decay_mult: 0
  }
  batch_norm_param {
    use_global_stats: false
    eps: 1e-05
    scale_filler {
      type: "constant"
      value: 1
    }
    bias_filler {
      type: "constant"
      value: 0
    }
  }
}
layer {
  name: "Threshold_12"
  type: "ReLU"
  bottom: "BatchNorm_10"
  top: "BatchNorm_10"
}
layer {
  name: "Add_3"
  type: "Eltwise"
  bottom: "Add_2"
  bottom: "BatchNorm_10"
  top: "Add_3"
}
layer {
  name: "Threshold_13"
  type: "ReLU"
  bottom: "Add_3"
  top: "Add_3"
}
layer {
  name: "ConvNd_12"
  type: "Convolution"
  bottom: "Add_3"
  top: "ConvNd_12"
  convolution_param {
    num_output: 16
    bias_term: false
    pad: 0
    kernel_size: 1
    group: 1
    stride: 1
    dilation: 1
  }
}
layer {
  name: "BatchNorm_11"
  type: "BatchNorm"
  bottom: "ConvNd_12"
  top: "BatchNorm_11"
  param {
    lr_mult: 1
    decay_mult: 0
  }
  param {
    lr_mult: 1
    decay_mult: 0
  }
  param {
    lr_mult: 0
    decay_mult: 0
  }
  param {
    lr_mult: 0
    decay_mult: 0
  }
  batch_norm_param {
    use_global_stats: false
    eps: 1e-05
    scale_filler {
      type: "constant"
      value: 1
    }
    bias_filler {
      type: "constant"
      value: 0
    }
  }
}
layer {
  name: "Threshold_14"
  type: "ReLU"
  bottom: "BatchNorm_11"
  top: "BatchNorm_11"
}
layer {
  name: "ConvNd_13"
  type: "Convolution"
  bottom: "BatchNorm_11"
  top: "ConvNd_13"
  convolution_param {
    num_output: 16
    bias_term: false
    pad: 1
    kernel_size: 3
    group: 1
    stride: 1
    dilation: 1
  }
}
layer {
  name: "BatchNorm_12"
  type: "BatchNorm"
  bottom: "ConvNd_13"
  top: "BatchNorm_12"
  param {
    lr_mult: 1
    decay_mult: 0
  }
  param {
    lr_mult: 1
    decay_mult: 0
  }
  param {
    lr_mult: 0
    decay_mult: 0
  }
  param {
    lr_mult: 0
    decay_mult: 0
  }
  batch_norm_param {
    use_global_stats: false
    eps: 1e-05
    scale_filler {
      type: "constant"
      value: 1
    }
    bias_filler {
      type: "constant"
      value: 0
    }
  }
}
layer {
  name: "Threshold_15"
  type: "ReLU"
  bottom: "BatchNorm_12"
  top: "BatchNorm_12"
}
layer {
  name: "ConvNd_14"
  type: "Convolution"
  bottom: "BatchNorm_12"
  top: "ConvNd_14"
  convolution_param {
    num_output: 64
    bias_term: false
    pad: 0
    kernel_size: 1
    group: 1
    stride: 1
    dilation: 1
  }
}
layer {
  name: "BatchNorm_13"
  type: "BatchNorm"
  bottom: "ConvNd_14"
  top: "BatchNorm_13"
  param {
    lr_mult: 1
    decay_mult: 0
  }
  param {
    lr_mult: 1
    decay_mult: 0
  }
  param {
    lr_mult: 0
    decay_mult: 0
  }
  param {
    lr_mult: 0
    decay_mult: 0
  }
  batch_norm_param {
    use_global_stats: false
    eps: 1e-05
    scale_filler {
      type: "constant"
      value: 1
    }
    bias_filler {
      type: "constant"
      value: 0
    }
  }
}
layer {
  name: "Threshold_16"
  type: "ReLU"
  bottom: "BatchNorm_13"
  top: "BatchNorm_13"
}
layer {
  name: "Add_4"
  type: "Eltwise"
  bottom: "Add_3"
  bottom: "BatchNorm_13"
  top: "Add_4"
}
layer {
  name: "Threshold_17"
  type: "ReLU"
  bottom: "Add_4"
  top: "Add_4"
}
layer {
  name: "ConvNd_15"
  type: "Convolution"
  bottom: "Add_4"
  top: "ConvNd_15"
  convolution_param {
    num_output: 16
    bias_term: false
    pad: 0
    kernel_size: 1
    group: 1
    stride: 1
    dilation: 1
  }
}
layer {
  name: "BatchNorm_14"
  type: "BatchNorm"
  bottom: "ConvNd_15"
  top: "BatchNorm_14"
  param {
    lr_mult: 1
    decay_mult: 0
  }
  param {
    lr_mult: 1
    decay_mult: 0
  }
  param {
    lr_mult: 0
    decay_mult: 0
  }
  param {
    lr_mult: 0
    decay_mult: 0
  }
  batch_norm_param {
    use_global_stats: false
    eps: 1e-05
    scale_filler {
      type: "constant"
      value: 1
    }
    bias_filler {
      type: "constant"
      value: 0
    }
  }
}
layer {
  name: "Threshold_18"
  type: "ReLU"
  bottom: "BatchNorm_14"
  top: "BatchNorm_14"
}
layer {
  name: "ConvNd_16"
  type: "Convolution"
  bottom: "BatchNorm_14"
  top: "ConvNd_16"
  convolution_param {
    num_output: 16
    bias_term: false
    pad: 1
    kernel_size: 3
    group: 1
    stride: 1
    dilation: 1
  }
}
layer {
  name: "BatchNorm_15"
  type: "BatchNorm"
  bottom: "ConvNd_16"
  top: "BatchNorm_15"
  param {
    lr_mult: 1
    decay_mult: 0
  }
  param {
    lr_mult: 1
    decay_mult: 0
  }
  param {
    lr_mult: 0
    decay_mult: 0
  }
  param {
    lr_mult: 0
    decay_mult: 0
  }
  batch_norm_param {
    use_global_stats: false
    eps: 1e-05
    scale_filler {
      type: "constant"
      value: 1
    }
    bias_filler {
      type: "constant"
      value: 0
    }
  }
}
layer {
  name: "Threshold_19"
  type: "ReLU"
  bottom: "BatchNorm_15"
  top: "BatchNorm_15"
}
layer {
  name: "ConvNd_17"
  type: "Convolution"
  bottom: "BatchNorm_15"
  top: "ConvNd_17"
  convolution_param {
    num_output: 64
    bias_term: false
    pad: 0
    kernel_size: 1
    group: 1
    stride: 1
    dilation: 1
  }
}
layer {
  name: "BatchNorm_16"
  type: "BatchNorm"
  bottom: "ConvNd_17"
  top: "BatchNorm_16"
  param {
    lr_mult: 1
    decay_mult: 0
  }
  param {
    lr_mult: 1
    decay_mult: 0
  }
  param {
    lr_mult: 0
    decay_mult: 0
  }
  param {
    lr_mult: 0
    decay_mult: 0
  }
  batch_norm_param {
    use_global_stats: false
    eps: 1e-05
    scale_filler {
      type: "constant"
      value: 1
    }
    bias_filler {
      type: "constant"
      value: 0
    }
  }
}
layer {
  name: "Threshold_20"
  type: "ReLU"
  bottom: "BatchNorm_16"
  top: "BatchNorm_16"
}
layer {
  name: "Add_5"
  type: "Eltwise"
  bottom: "Add_4"
  bottom: "BatchNorm_16"
  top: "Add_5"
}
layer {
  name: "Threshold_21"
  type: "ReLU"
  bottom: "Add_5"
  top: "Add_5"
}
layer {
  name: "MaxPool2d_3"
  type: "Pooling"
  bottom: "Add_5"
  top: "MaxPool2d_3"
  pooling_param {
    pool: MAX
    kernel_size: 3
    stride: 2
    pad: 0
  }
}
layer {
  name: "ConvNd_18"
  type: "Convolution"
  bottom: "MaxPool2d_3"
  top: "ConvNd_18"
  convolution_param {
    num_output: 128
    bias_term: false
    pad: 0
    kernel_size: 1
    group: 1
    stride: 1
    dilation: 1
  }
}
layer {
  name: "ConvNd_19"
  type: "Convolution"
  bottom: "Add_5"
  top: "ConvNd_19"
  convolution_param {
    num_output: 32
    bias_term: false
    pad: 0
    kernel_size: 2
    group: 1
    stride: 2
    dilation: 1
  }
}
layer {
  name: "BatchNorm_17"
  type: "BatchNorm"
  bottom: "ConvNd_19"
  top: "BatchNorm_17"
  param {
    lr_mult: 1
    decay_mult: 0
  }
  param {
    lr_mult: 1
    decay_mult: 0
  }
  param {
    lr_mult: 0
    decay_mult: 0
  }
  param {
    lr_mult: 0
    decay_mult: 0
  }
  batch_norm_param {
    use_global_stats: false
    eps: 1e-05
    scale_filler {
      type: "constant"
      value: 1
    }
    bias_filler {
      type: "constant"
      value: 0
    }
  }
}
layer {
  name: "Threshold_22"
  type: "ReLU"
  bottom: "BatchNorm_17"
  top: "BatchNorm_17"
}
layer {
  name: "ConvNd_20"
  type: "Convolution"
  bottom: "BatchNorm_17"
  top: "ConvNd_20"
  convolution_param {
    num_output: 32
    bias_term: false
    pad: 1
    kernel_size: 3
    group: 1
    stride: 1
    dilation: 1
  }
}
layer {
  name: "BatchNorm_18"
  type: "BatchNorm"
  bottom: "ConvNd_20"
  top: "BatchNorm_18"
  param {
    lr_mult: 1
    decay_mult: 0
  }
  param {
    lr_mult: 1
    decay_mult: 0
  }
  param {
    lr_mult: 0
    decay_mult: 0
  }
  param {
    lr_mult: 0
    decay_mult: 0
  }
  batch_norm_param {
    use_global_stats: false
    eps: 1e-05
    scale_filler {
      type: "constant"
      value: 1
    }
    bias_filler {
      type: "constant"
      value: 0
    }
  }
}
layer {
  name: "Threshold_23"
  type: "ReLU"
  bottom: "BatchNorm_18"
  top: "BatchNorm_18"
}
layer {
  name: "ConvNd_21"
  type: "Convolution"
  bottom: "BatchNorm_18"
  top: "ConvNd_21"
  convolution_param {
    num_output: 128
    bias_term: false
    pad: 0
    kernel_size: 1
    group: 1
    stride: 1
    dilation: 1
  }
}
layer {
  name: "BatchNorm_19"
  type: "BatchNorm"
  bottom: "ConvNd_21"
  top: "BatchNorm_19"
  param {
    lr_mult: 1
    decay_mult: 0
  }
  param {
    lr_mult: 1
    decay_mult: 0
  }
  param {
    lr_mult: 0
    decay_mult: 0
  }
  param {
    lr_mult: 0
    decay_mult: 0
  }
  batch_norm_param {
    use_global_stats: false
    eps: 1e-05
    scale_filler {
      type: "constant"
      value: 1
    }
    bias_filler {
      type: "constant"
      value: 0
    }
  }
}
layer {
  name: "Threshold_24"
  type: "ReLU"
  bottom: "BatchNorm_19"
  top: "BatchNorm_19"
}
layer {
  name: "Add_6"
  type: "Eltwise"
  bottom: "ConvNd_18"
  bottom: "BatchNorm_19"
  top: "Add_6"
}
layer {
  name: "Threshold_25"
  type: "ReLU"
  bottom: "Add_6"
  top: "Add_6"
}
layer {
  name: "ConvNd_22"
  type: "Convolution"
  bottom: "Add_6"
  top: "ConvNd_22"
  convolution_param {
    num_output: 32
    bias_term: false
    pad: 0
    kernel_size: 1
    group: 1
    stride: 1
    dilation: 1
  }
}
layer {
  name: "BatchNorm_20"
  type: "BatchNorm"
  bottom: "ConvNd_22"
  top: "BatchNorm_20"
  param {
    lr_mult: 1
    decay_mult: 0
  }
  param {
    lr_mult: 1
    decay_mult: 0
  }
  param {
    lr_mult: 0
    decay_mult: 0
  }
  param {
    lr_mult: 0
    decay_mult: 0
  }
  batch_norm_param {
    use_global_stats: false
    eps: 1e-05
    scale_filler {
      type: "constant"
      value: 1
    }
    bias_filler {
      type: "constant"
      value: 0
    }
  }
}
layer {
  name: "Threshold_26"
  type: "ReLU"
  bottom: "BatchNorm_20"
  top: "BatchNorm_20"
}
layer {
  name: "ConvNd_23"
  type: "Convolution"
  bottom: "BatchNorm_20"
  top: "ConvNd_23"
  convolution_param {
    num_output: 32
    bias_term: false
    pad: 1
    kernel_size: 3
    group: 1
    stride: 1
    dilation: 1
  }
}
layer {
  name: "BatchNorm_21"
  type: "BatchNorm"
  bottom: "ConvNd_23"
  top: "BatchNorm_21"
  param {
    lr_mult: 1
    decay_mult: 0
  }
  param {
    lr_mult: 1
    decay_mult: 0
  }
  param {
    lr_mult: 0
    decay_mult: 0
  }
  param {
    lr_mult: 0
    decay_mult: 0
  }
  batch_norm_param {
    use_global_stats: false
    eps: 1e-05
    scale_filler {
      type: "constant"
      value: 1
    }
    bias_filler {
      type: "constant"
      value: 0
    }
  }
}
layer {
  name: "Threshold_27"
  type: "ReLU"
  bottom: "BatchNorm_21"
  top: "BatchNorm_21"
}
layer {
  name: "ConvNd_24"
  type: "Convolution"
  bottom: "BatchNorm_21"
  top: "ConvNd_24"
  convolution_param {
    num_output: 128
    bias_term: false
    pad: 0
    kernel_size: 1
    group: 1
    stride: 1
    dilation: 1
  }
}
layer {
  name: "BatchNorm_22"
  type: "BatchNorm"
  bottom: "ConvNd_24"
  top: "BatchNorm_22"
  param {
    lr_mult: 1
    decay_mult: 0
  }
  param {
    lr_mult: 1
    decay_mult: 0
  }
  param {
    lr_mult: 0
    decay_mult: 0
  }
  param {
    lr_mult: 0
    decay_mult: 0
  }
  batch_norm_param {
    use_global_stats: false
    eps: 1e-05
    scale_filler {
      type: "constant"
      value: 1
    }
    bias_filler {
      type: "constant"
      value: 0
    }
  }
}
layer {
  name: "Threshold_28"
  type: "ReLU"
  bottom: "BatchNorm_22"
  top: "BatchNorm_22"
}
layer {
  name: "Add_7"
  type: "Eltwise"
  bottom: "Add_6"
  bottom: "BatchNorm_22"
  top: "Add_7"
}
layer {
  name: "Threshold_29"
  type: "ReLU"
  bottom: "Add_7"
  top: "Add_7"
}
layer {
  name: "ConvNd_25"
  type: "Convolution"
  bottom: "Add_7"
  top: "ConvNd_25"
  convolution_param {
    num_output: 32
    bias_term: false
    pad: 0
    kernel_size: 1
    group: 1
    stride: 1
    dilation: 1
  }
}
layer {
  name: "BatchNorm_23"
  type: "BatchNorm"
  bottom: "ConvNd_25"
  top: "BatchNorm_23"
  param {
    lr_mult: 1
    decay_mult: 0
  }
  param {
    lr_mult: 1
    decay_mult: 0
  }
  param {
    lr_mult: 0
    decay_mult: 0
  }
  param {
    lr_mult: 0
    decay_mult: 0
  }
  batch_norm_param {
    use_global_stats: false
    eps: 1e-05
    scale_filler {
      type: "constant"
      value: 1
    }
    bias_filler {
      type: "constant"
      value: 0
    }
  }
}
layer {
  name: "Threshold_30"
  type: "ReLU"
  bottom: "BatchNorm_23"
  top: "BatchNorm_23"
}
layer {
  name: "ConvNd_26"
  type: "Convolution"
  bottom: "BatchNorm_23"
  top: "ConvNd_26"
  convolution_param {
    num_output: 32
    bias_term: false
    pad: 2
    kernel_size: 3
    group: 1
    stride: 1
    dilation: 2
  }
}
layer {
  name: "BatchNorm_24"
  type: "BatchNorm"
  bottom: "ConvNd_26"
  top: "BatchNorm_24"
  param {
    lr_mult: 1
    decay_mult: 0
  }
  param {
    lr_mult: 1
    decay_mult: 0
  }
  param {
    lr_mult: 0
    decay_mult: 0
  }
  param {
    lr_mult: 0
    decay_mult: 0
  }
  batch_norm_param {
    use_global_stats: false
    eps: 1e-05
    scale_filler {
      type: "constant"
      value: 1
    }
    bias_filler {
      type: "constant"
      value: 0
    }
  }
}
layer {
  name: "Threshold_31"
  type: "ReLU"
  bottom: "BatchNorm_24"
  top: "BatchNorm_24"
}
layer {
  name: "ConvNd_27"
  type: "Convolution"
  bottom: "BatchNorm_24"
  top: "ConvNd_27"
  convolution_param {
    num_output: 128
    bias_term: false
    pad: 0
    kernel_size: 1
    group: 1
    stride: 1
    dilation: 1
  }
}
layer {
  name: "BatchNorm_25"
  type: "BatchNorm"
  bottom: "ConvNd_27"
  top: "BatchNorm_25"
  param {
    lr_mult: 1
    decay_mult: 0
  }
  param {
    lr_mult: 1
    decay_mult: 0
  }
  param {
    lr_mult: 0
    decay_mult: 0
  }
  param {
    lr_mult: 0
    decay_mult: 0
  }
  batch_norm_param {
    use_global_stats: false
    eps: 1e-05
    scale_filler {
      type: "constant"
      value: 1
    }
    bias_filler {
      type: "constant"
      value: 0
    }
  }
}
layer {
  name: "Threshold_32"
  type: "ReLU"
  bottom: "BatchNorm_25"
  top: "BatchNorm_25"
}
layer {
  name: "Add_8"
  type: "Eltwise"
  bottom: "Add_7"
  bottom: "BatchNorm_25"
  top: "Add_8"
}
layer {
  name: "Threshold_33"
  type: "ReLU"
  bottom: "Add_8"
  top: "Add_8"
}
layer {
  name: "ConvNd_28"
  type: "Convolution"
  bottom: "Add_8"
  top: "ConvNd_28"
  convolution_param {
    num_output: 32
    bias_term: false
    pad: 0
    kernel_size: 1
    group: 1
    stride: 1
    dilation: 1
  }
}
layer {
  name: "BatchNorm_26"
  type: "BatchNorm"
  bottom: "ConvNd_28"
  top: "BatchNorm_26"
  param {
    lr_mult: 1
    decay_mult: 0
  }
  param {
    lr_mult: 1
    decay_mult: 0
  }
  param {
    lr_mult: 0
    decay_mult: 0
  }
  param {
    lr_mult: 0
    decay_mult: 0
  }
  batch_norm_param {
    use_global_stats: false
    eps: 1e-05
    scale_filler {
      type: "constant"
      value: 1
    }
    bias_filler {
      type: "constant"
      value: 0
    }
  }
}
layer {
  name: "Threshold_34"
  type: "ReLU"
  bottom: "BatchNorm_26"
  top: "BatchNorm_26"
}
layer {
  name: "ConvNd_29"
  type: "Convolution"
  bottom: "BatchNorm_26"
  top: "ConvNd_29"
  convolution_param {
    num_output: 32
    bias_term: false
    group: 1
    stride: 1
    pad_h: 2
    pad_w: 0
    kernel_h: 5
    kernel_w: 1
    dilation: 1
  }
}
layer {
  name: "BatchNorm_27"
  type: "BatchNorm"
  bottom: "ConvNd_29"
  top: "BatchNorm_27"
  param {
    lr_mult: 1
    decay_mult: 0
  }
  param {
    lr_mult: 1
    decay_mult: 0
  }
  param {
    lr_mult: 0
    decay_mult: 0
  }
  param {
    lr_mult: 0
    decay_mult: 0
  }
  batch_norm_param {
    use_global_stats: false
    eps: 1e-05
    scale_filler {
      type: "constant"
      value: 1
    }
    bias_filler {
      type: "constant"
      value: 0
    }
  }
}
layer {
  name: "Threshold_35"
  type: "ReLU"
  bottom: "BatchNorm_27"
  top: "BatchNorm_27"
}
layer {
  name: "ConvNd_30"
  type: "Convolution"
  bottom: "BatchNorm_27"
  top: "ConvNd_30"
  convolution_param {
    num_output: 32
    bias_term: false
    group: 1
    stride: 1
    pad_h: 0
    pad_w: 2
    kernel_h: 1
    kernel_w: 5
    dilation: 1
  }
}
layer {
  name: "BatchNorm_28"
  type: "BatchNorm"
  bottom: "ConvNd_30"
  top: "BatchNorm_28"
  param {
    lr_mult: 1
    decay_mult: 0
  }
  param {
    lr_mult: 1
    decay_mult: 0
  }
  param {
    lr_mult: 0
    decay_mult: 0
  }
  param {
    lr_mult: 0
    decay_mult: 0
  }
  batch_norm_param {
    use_global_stats: false
    eps: 1e-05
    scale_filler {
      type: "constant"
      value: 1
    }
    bias_filler {
      type: "constant"
      value: 0
    }
  }
}
layer {
  name: "Threshold_36"
  type: "ReLU"
  bottom: "BatchNorm_28"
  top: "BatchNorm_28"
}
layer {
  name: "ConvNd_31"
  type: "Convolution"
  bottom: "BatchNorm_28"
  top: "ConvNd_31"
  convolution_param {
    num_output: 128
    bias_term: false
    pad: 0
    kernel_size: 1
    group: 1
    stride: 1
    dilation: 1
  }
}
layer {
  name: "BatchNorm_29"
  type: "BatchNorm"
  bottom: "ConvNd_31"
  top: "BatchNorm_29"
  param {
    lr_mult: 1
    decay_mult: 0
  }
  param {
    lr_mult: 1
    decay_mult: 0
  }
  param {
    lr_mult: 0
    decay_mult: 0
  }
  param {
    lr_mult: 0
    decay_mult: 0
  }
  batch_norm_param {
    use_global_stats: false
    eps: 1e-05
    scale_filler {
      type: "constant"
      value: 1
    }
    bias_filler {
      type: "constant"
      value: 0
    }
  }
}
layer {
  name: "Threshold_37"
  type: "ReLU"
  bottom: "BatchNorm_29"
  top: "BatchNorm_29"
}
layer {
  name: "Add_9"
  type: "Eltwise"
  bottom: "Add_8"
  bottom: "BatchNorm_29"
  top: "Add_9"
}
layer {
  name: "Threshold_38"
  type: "ReLU"
  bottom: "Add_9"
  top: "Add_9"
}
layer {
  name: "ConvNd_32"
  type: "Convolution"
  bottom: "Add_9"
  top: "ConvNd_32"
  convolution_param {
    num_output: 32
    bias_term: false
    pad: 0
    kernel_size: 1
    group: 1
    stride: 1
    dilation: 1
  }
}
layer {
  name: "BatchNorm_30"
  type: "BatchNorm"
  bottom: "ConvNd_32"
  top: "BatchNorm_30"
  param {
    lr_mult: 1
    decay_mult: 0
  }
  param {
    lr_mult: 1
    decay_mult: 0
  }
  param {
    lr_mult: 0
    decay_mult: 0
  }
  param {
    lr_mult: 0
    decay_mult: 0
  }
  batch_norm_param {
    use_global_stats: false
    eps: 1e-05
    scale_filler {
      type: "constant"
      value: 1
    }
    bias_filler {
      type: "constant"
      value: 0
    }
  }
}
layer {
  name: "Threshold_39"
  type: "ReLU"
  bottom: "BatchNorm_30"
  top: "BatchNorm_30"
}
layer {
  name: "ConvNd_33"
  type: "Convolution"
  bottom: "BatchNorm_30"
  top: "ConvNd_33"
  convolution_param {
    num_output: 32
    bias_term: false
    pad: 4
    kernel_size: 3
    group: 1
    stride: 1
    dilation: 4
  }
}
layer {
  name: "BatchNorm_31"
  type: "BatchNorm"
  bottom: "ConvNd_33"
  top: "BatchNorm_31"
  param {
    lr_mult: 1
    decay_mult: 0
  }
  param {
    lr_mult: 1
    decay_mult: 0
  }
  param {
    lr_mult: 0
    decay_mult: 0
  }
  param {
    lr_mult: 0
    decay_mult: 0
  }
  batch_norm_param {
    use_global_stats: false
    eps: 1e-05
    scale_filler {
      type: "constant"
      value: 1
    }
    bias_filler {
      type: "constant"
      value: 0
    }
  }
}
layer {
  name: "Threshold_40"
  type: "ReLU"
  bottom: "BatchNorm_31"
  top: "BatchNorm_31"
}
layer {
  name: "ConvNd_34"
  type: "Convolution"
  bottom: "BatchNorm_31"
  top: "ConvNd_34"
  convolution_param {
    num_output: 128
    bias_term: false
    pad: 0
    kernel_size: 1
    group: 1
    stride: 1
    dilation: 1
  }
}
layer {
  name: "BatchNorm_32"
  type: "BatchNorm"
  bottom: "ConvNd_34"
  top: "BatchNorm_32"
  param {
    lr_mult: 1
    decay_mult: 0
  }
  param {
    lr_mult: 1
    decay_mult: 0
  }
  param {
    lr_mult: 0
    decay_mult: 0
  }
  param {
    lr_mult: 0
    decay_mult: 0
  }
  batch_norm_param {
    use_global_stats: false
    eps: 1e-05
    scale_filler {
      type: "constant"
      value: 1
    }
    bias_filler {
      type: "constant"
      value: 0
    }
  }
}
layer {
  name: "Threshold_41"
  type: "ReLU"
  bottom: "BatchNorm_32"
  top: "BatchNorm_32"
}
layer {
  name: "Add_10"
  type: "Eltwise"
  bottom: "Add_9"
  bottom: "BatchNorm_32"
  top: "Add_10"
}
layer {
  name: "Threshold_42"
  type: "ReLU"
  bottom: "Add_10"
  top: "Add_10"
}
layer {
  name: "ConvNd_35"
  type: "Convolution"
  bottom: "Add_10"
  top: "ConvNd_35"
  convolution_param {
    num_output: 32
    bias_term: false
    pad: 0
    kernel_size: 1
    group: 1
    stride: 1
    dilation: 1
  }
}
layer {
  name: "BatchNorm_33"
  type: "BatchNorm"
  bottom: "ConvNd_35"
  top: "BatchNorm_33"
  param {
    lr_mult: 1
    decay_mult: 0
  }
  param {
    lr_mult: 1
    decay_mult: 0
  }
  param {
    lr_mult: 0
    decay_mult: 0
  }
  param {
    lr_mult: 0
    decay_mult: 0
  }
  batch_norm_param {
    use_global_stats: false
    eps: 1e-05
    scale_filler {
      type: "constant
I0224 06:53:15.378582   622 layer_factory.hpp:123] Creating layer data
I0224 06:53:15.378604   622 net.cpp:140] Creating Layer data
I0224 06:53:15.378609   622 net.cpp:455] data -> data
I0224 06:53:15.378618   622 net.cpp:455] data -> label
I0224 06:53:15.378633   622 image_data_layer.cpp:87] Opening file /workspace/Segment/VAI/data/cityscapes/calibration.txt
I0224 06:53:15.378971   622 image_data_layer.cpp:97] Shuffling data
I0224 06:53:15.379047   622 image_data_layer.cpp:102] A total of 1000 images.
I0224 06:53:15.451895   622 image_data_layer.cpp:130] output data size: 1,3,512,1024
I0224 06:53:15.481174   622 internal_thread.cpp:73] Starting internal thread(s) on GPU 0
I0224 06:53:15.481276   622 net.cpp:190] Setting up data
I0224 06:53:15.481284   622 net.cpp:197] Top shape: 1 3 512 1024 (1572864)
I0224 06:53:15.481295   622 net.cpp:197] Top shape: 1 (1)
I0224 06:53:15.481299   622 net.cpp:205] Memory required for data: 6291460
I0224 06:53:15.481305   622 layer_factory.hpp:123] Creating layer data_data_0_split
I0224 06:53:15.481333   622 net.cpp:140] Creating Layer data_data_0_split
I0224 06:53:15.481339   622 net.cpp:481] data_data_0_split <- data
I0224 06:53:15.481348   622 net.cpp:455] data_data_0_split -> data_data_0_split_0
I0224 06:53:15.481359   622 net.cpp:455] data_data_0_split -> data_data_0_split_1
I0224 06:53:15.481398   622 net.cpp:190] Setting up data_data_0_split
I0224 06:53:15.481405   622 net.cpp:197] Top shape: 1 3 512 1024 (1572864)
I0224 06:53:15.481410   622 net.cpp:197] Top shape: 1 3 512 1024 (1572864)
I0224 06:53:15.481413   622 net.cpp:205] Memory required for data: 18874372
I0224 06:53:15.481417   622 layer_factory.hpp:123] Creating layer ConvNd_1
I0224 06:53:15.481432   622 net.cpp:140] Creating Layer ConvNd_1
I0224 06:53:15.481436   622 net.cpp:481] ConvNd_1 <- data_data_0_split_0
I0224 06:53:15.481441   622 net.cpp:455] ConvNd_1 -> ConvNd_1
I0224 06:53:15.481707   622 net.cpp:190] Setting up ConvNd_1
I0224 06:53:15.481715   622 net.cpp:197] Top shape: 1 13 256 512 (1703936)
I0224 06:53:15.481720   622 net.cpp:205] Memory required for data: 25690116
I0224 06:53:15.481739   622 layer_factory.hpp:123] Creating layer MaxPool2d_1
I0224 06:53:15.481746   622 net.cpp:140] Creating Layer MaxPool2d_1
I0224 06:53:15.481750   622 net.cpp:481] MaxPool2d_1 <- data_data_0_split_1
I0224 06:53:15.481755   622 net.cpp:455] MaxPool2d_1 -> MaxPool2d_1
I0224 06:53:15.481788   622 net.cpp:190] Setting up MaxPool2d_1
I0224 06:53:15.481794   622 net.cpp:197] Top shape: 1 3 256 512 (393216)
I0224 06:53:15.481799   622 net.cpp:205] Memory required for data: 27262980
I0224 06:53:15.481803   622 layer_factory.hpp:123] Creating layer Concat_1
I0224 06:53:15.481812   622 net.cpp:140] Creating Layer Concat_1
I0224 06:53:15.481817   622 net.cpp:481] Concat_1 <- ConvNd_1
I0224 06:53:15.481820   622 net.cpp:481] Concat_1 <- MaxPool2d_1
I0224 06:53:15.481824   622 net.cpp:455] Concat_1 -> Concat_1
I0224 06:53:15.481842   622 net.cpp:190] Setting up Concat_1
I0224 06:53:15.481848   622 net.cpp:197] Top shape: 1 16 256 512 (2097152)
I0224 06:53:15.481863   622 net.cpp:205] Memory required for data: 35651588
I0224 06:53:15.481868   622 layer_factory.hpp:123] Creating layer BatchNorm_1
I0224 06:53:15.481876   622 net.cpp:140] Creating Layer BatchNorm_1
I0224 06:53:15.481879   622 net.cpp:481] BatchNorm_1 <- Concat_1
I0224 06:53:15.481884   622 net.cpp:455] BatchNorm_1 -> BatchNorm_1
I0224 06:53:15.482589   622 net.cpp:190] Setting up BatchNorm_1
I0224 06:53:15.482596   622 net.cpp:197] Top shape: 1 16 256 512 (2097152)
I0224 06:53:15.482601   622 net.cpp:205] Memory required for data: 44040196
I0224 06:53:15.482612   622 layer_factory.hpp:123] Creating layer Threshold_1
I0224 06:53:15.482619   622 net.cpp:140] Creating Layer Threshold_1
I0224 06:53:15.482621   622 net.cpp:481] Threshold_1 <- BatchNorm_1
I0224 06:53:15.482626   622 net.cpp:442] Threshold_1 -> BatchNorm_1 (in-place)
I0224 06:53:15.482635   622 net.cpp:190] Setting up Threshold_1
I0224 06:53:15.482638   622 net.cpp:197] Top shape: 1 16 256 512 (2097152)
I0224 06:53:15.482642   622 net.cpp:205] Memory required for data: 52428804
I0224 06:53:15.482645   622 layer_factory.hpp:123] Creating layer BatchNorm_1_Threshold_1_0_split
I0224 06:53:15.482650   622 net.cpp:140] Creating Layer BatchNorm_1_Threshold_1_0_split
I0224 06:53:15.482654   622 net.cpp:481] BatchNorm_1_Threshold_1_0_split <- BatchNorm_1
I0224 06:53:15.482658   622 net.cpp:455] BatchNorm_1_Threshold_1_0_split -> BatchNorm_1_Threshold_1_0_split_0
I0224 06:53:15.482664   622 net.cpp:455] BatchNorm_1_Threshold_1_0_split -> BatchNorm_1_Threshold_1_0_split_1
I0224 06:53:15.482717   622 net.cpp:190] Setting up BatchNorm_1_Threshold_1_0_split
I0224 06:53:15.482722   622 net.cpp:197] Top shape: 1 16 256 512 (2097152)
I0224 06:53:15.482728   622 net.cpp:197] Top shape: 1 16 256 512 (2097152)
I0224 06:53:15.482733   622 net.cpp:205] Memory required for data: 69206020
I0224 06:53:15.482735   622 layer_factory.hpp:123] Creating layer MaxPool2d_2
I0224 06:53:15.482741   622 net.cpp:140] Creating Layer MaxPool2d_2
I0224 06:53:15.482745   622 net.cpp:481] MaxPool2d_2 <- BatchNorm_1_Threshold_1_0_split_0
I0224 06:53:15.482750   622 net.cpp:455] MaxPool2d_2 -> MaxPool2d_2
I0224 06:53:15.482818   622 net.cpp:190] Setting up MaxPool2d_2
I0224 06:53:15.482825   622 net.cpp:197] Top shape: 1 16 128 256 (524288)
I0224 06:53:15.482829   622 net.cpp:205] Memory required for data: 71303172
I0224 06:53:15.482832   622 layer_factory.hpp:123] Creating layer ConvNd_2
I0224 06:53:15.482838   622 net.cpp:140] Creating Layer ConvNd_2
I0224 06:53:15.482842   622 net.cpp:481] ConvNd_2 <- MaxPool2d_2
I0224 06:53:15.482847   622 net.cpp:455] ConvNd_2 -> ConvNd_2
I0224 06:53:15.483001   622 net.cpp:190] Setting up ConvNd_2
I0224 06:53:15.483022   622 net.cpp:197] Top shape: 1 64 128 256 (2097152)
I0224 06:53:15.483029   622 net.cpp:205] Memory required for data: 79691780
I0224 06:53:15.483037   622 layer_factory.hpp:123] Creating layer ConvNd_3
I0224 06:53:15.483047   622 net.cpp:140] Creating Layer ConvNd_3
I0224 06:53:15.483052   622 net.cpp:481] ConvNd_3 <- BatchNorm_1_Threshold_1_0_split_1
I0224 06:53:15.483059   622 net.cpp:455] ConvNd_3 -> ConvNd_3
I0224 06:53:15.483218   622 net.cpp:190] Setting up ConvNd_3
I0224 06:53:15.483225   622 net.cpp:197] Top shape: 1 16 128 256 (524288)
I0224 06:53:15.483232   622 net.cpp:205] Memory required for data: 81788932
I0224 06:53:15.483237   622 layer_factory.hpp:123] Creating layer BatchNorm_2
I0224 06:53:15.483243   622 net.cpp:140] Creating Layer BatchNorm_2
I0224 06:53:15.483247   622 net.cpp:481] BatchNorm_2 <- ConvNd_3
I0224 06:53:15.483253   622 net.cpp:455] BatchNorm_2 -> BatchNorm_2
I0224 06:53:15.483940   622 net.cpp:190] Setting up BatchNorm_2
I0224 06:53:15.483948   622 net.cpp:197] Top shape: 1 16 128 256 (524288)
I0224 06:53:15.483953   622 net.cpp:205] Memory required for data: 83886084
I0224 06:53:15.483963   622 layer_factory.hpp:123] Creating layer Threshold_2
I0224 06:53:15.483968   622 net.cpp:140] Creating Layer Threshold_2
I0224 06:53:15.483971   622 net.cpp:481] Threshold_2 <- BatchNorm_2
I0224 06:53:15.483976   622 net.cpp:442] Threshold_2 -> BatchNorm_2 (in-place)
I0224 06:53:15.483983   622 net.cpp:190] Setting up Threshold_2
I0224 06:53:15.483986   622 net.cpp:197] Top shape: 1 16 128 256 (524288)
I0224 06:53:15.483990   622 net.cpp:205] Memory required for data: 85983236
I0224 06:53:15.483994   622 layer_factory.hpp:123] Creating layer ConvNd_4
I0224 06:53:15.484000   622 net.cpp:140] Creating Layer ConvNd_4
I0224 06:53:15.484004   622 net.cpp:481] ConvNd_4 <- BatchNorm_2
I0224 06:53:15.484009   622 net.cpp:455] ConvNd_4 -> ConvNd_4
I0224 06:53:15.484165   622 net.cpp:190] Setting up ConvNd_4
I0224 06:53:15.484172   622 net.cpp:197] Top shape: 1 16 128 256 (524288)
I0224 06:53:15.484179   622 net.cpp:205] Memory required for data: 88080388
I0224 06:53:15.484184   622 layer_factory.hpp:123] Creating layer BatchNorm_3
I0224 06:53:15.484189   622 net.cpp:140] Creating Layer BatchNorm_3
I0224 06:53:15.484192   622 net.cpp:481] BatchNorm_3 <- ConvNd_4
I0224 06:53:15.484199   622 net.cpp:455] BatchNorm_3 -> BatchNorm_3
I0224 06:53:15.484755   622 net.cpp:190] Setting up BatchNorm_3
I0224 06:53:15.484763   622 net.cpp:197] Top shape: 1 16 128 256 (524288)
I0224 06:53:15.484768   622 net.cpp:205] Memory required for data: 90177540
I0224 06:53:15.484778   622 layer_factory.hpp:123] Creating layer Threshold_3
I0224 06:53:15.484783   622 net.cpp:140] Creating Layer Threshold_3
I0224 06:53:15.484786   622 net.cpp:481] Threshold_3 <- BatchNorm_3
I0224 06:53:15.484791   622 net.cpp:442] Threshold_3 -> BatchNorm_3 (in-place)
I0224 06:53:15.484797   622 net.cpp:190] Setting up Threshold_3
I0224 06:53:15.484802   622 net.cpp:197] Top shape: 1 16 128 256 (524288)
I0224 06:53:15.484805   622 net.cpp:205] Memory required for data: 92274692
I0224 06:53:15.484808   622 layer_factory.hpp:123] Creating layer ConvNd_5
I0224 06:53:15.484815   622 net.cpp:140] Creating Layer ConvNd_5
I0224 06:53:15.484819   622 net.cpp:481] ConvNd_5 <- BatchNorm_3
I0224 06:53:15.484824   622 net.cpp:455] ConvNd_5 -> ConvNd_5
I0224 06:53:15.484980   622 net.cpp:190] Setting up ConvNd_5
I0224 06:53:15.484987   622 net.cpp:197] Top shape: 1 64 128 256 (2097152)
I0224 06:53:15.484993   622 net.cpp:205] Memory required for data: 100663300
I0224 06:53:15.484998   622 layer_factory.hpp:123] Creating layer BatchNorm_4
I0224 06:53:15.485004   622 net.cpp:140] Creating Layer BatchNorm_4
I0224 06:53:15.485008   622 net.cpp:481] BatchNorm_4 <- ConvNd_5
I0224 06:53:15.485013   622 net.cpp:455] BatchNorm_4 -> BatchNorm_4
I0224 06:53:15.485595   622 net.cpp:190] Setting up BatchNorm_4
I0224 06:53:15.485605   622 net.cpp:197] Top shape: 1 64 128 256 (2097152)
I0224 06:53:15.485610   622 net.cpp:205] Memory required for data: 109051908
I0224 06:53:15.485618   622 layer_factory.hpp:123] Creating layer Threshold_4
I0224 06:53:15.485623   622 net.cpp:140] Creating Layer Threshold_4
I0224 06:53:15.485627   622 net.cpp:481] Threshold_4 <- BatchNorm_4
I0224 06:53:15.485631   622 net.cpp:442] Threshold_4 -> BatchNorm_4 (in-place)
I0224 06:53:15.485637   622 net.cpp:190] Setting up Threshold_4
I0224 06:53:15.485641   622 net.cpp:197] Top shape: 1 64 128 256 (2097152)
I0224 06:53:15.485646   622 net.cpp:205] Memory required for data: 117440516
I0224 06:53:15.485648   622 layer_factory.hpp:123] Creating layer Add_1
I0224 06:53:15.485654   622 net.cpp:140] Creating Layer Add_1
I0224 06:53:15.485657   622 net.cpp:481] Add_1 <- ConvNd_2
I0224 06:53:15.485661   622 net.cpp:481] Add_1 <- BatchNorm_4
I0224 06:53:15.485666   622 net.cpp:455] Add_1 -> Add_1
I0224 06:53:15.485684   622 net.cpp:190] Setting up Add_1
I0224 06:53:15.485688   622 net.cpp:197] Top shape: 1 64 128 256 (2097152)
I0224 06:53:15.485693   622 net.cpp:205] Memory required for data: 125829124
I0224 06:53:15.485697   622 layer_factory.hpp:123] Creating layer Threshold_5
I0224 06:53:15.485700   622 net.cpp:140] Creating Layer Threshold_5
I0224 06:53:15.485704   622 net.cpp:481] Threshold_5 <- Add_1
I0224 06:53:15.485708   622 net.cpp:442] Threshold_5 -> Add_1 (in-place)
I0224 06:53:15.485713   622 net.cpp:190] Setting up Threshold_5
I0224 06:53:15.485716   622 net.cpp:197] Top shape: 1 64 128 256 (2097152)
I0224 06:53:15.485720   622 net.cpp:205] Memory required for data: 134217732
I0224 06:53:15.485724   622 layer_factory.hpp:123] Creating layer Add_1_Threshold_5_0_split
I0224 06:53:15.485728   622 net.cpp:140] Creating Layer Add_1_Threshold_5_0_split
I0224 06:53:15.485731   622 net.cpp:481] Add_1_Threshold_5_0_split <- Add_1
I0224 06:53:15.485736   622 net.cpp:455] Add_1_Threshold_5_0_split -> Add_1_Threshold_5_0_split_0
I0224 06:53:15.485741   622 net.cpp:455] Add_1_Threshold_5_0_split -> Add_1_Threshold_5_0_split_1
I0224 06:53:15.485767   622 net.cpp:190] Setting up Add_1_Threshold_5_0_split
I0224 06:53:15.485775   622 net.cpp:197] Top shape: 1 64 128 256 (2097152)
I0224 06:53:15.485780   622 net.cpp:197] Top shape: 1 64 128 256 (2097152)
I0224 06:53:15.485785   622 net.cpp:205] Memory required for data: 150994948
I0224 06:53:15.485787   622 layer_factory.hpp:123] Creating layer ConvNd_6
I0224 06:53:15.485793   622 net.cpp:140] Creating Layer ConvNd_6
I0224 06:53:15.485797   622 net.cpp:481] ConvNd_6 <- Add_1_Threshold_5_0_split_0
I0224 06:53:15.485802   622 net.cpp:455] ConvNd_6 -> ConvNd_6
I0224 06:53:15.485957   622 net.cpp:190] Setting up ConvNd_6
I0224 06:53:15.485963   622 net.cpp:197] Top shape: 1 16 128 256 (524288)
I0224 06:53:15.485968   622 net.cpp:205] Memory required for data: 153092100
I0224 06:53:15.485975   622 layer_factory.hpp:123] Creating layer BatchNorm_5
I0224 06:53:15.485980   622 net.cpp:140] Creating Layer BatchNorm_5
I0224 06:53:15.485985   622 net.cpp:481] BatchNorm_5 <- ConvNd_6
I0224 06:53:15.485990   622 net.cpp:455] BatchNorm_5 -> BatchNorm_5
I0224 06:53:15.486558   622 net.cpp:190] Setting up BatchNorm_5
I0224 06:53:15.486567   622 net.cpp:197] Top shape: 1 16 128 256 (524288)
I0224 06:53:15.486572   622 net.cpp:205] Memory required for data: 155189252
I0224 06:53:15.486579   622 layer_factory.hpp:123] Creating layer Threshold_6
I0224 06:53:15.486584   622 net.cpp:140] Creating Layer Threshold_6
I0224 06:53:15.486588   622 net.cpp:481] Threshold_6 <- BatchNorm_5
I0224 06:53:15.486593   622 net.cpp:442] Threshold_6 -> BatchNorm_5 (in-place)
I0224 06:53:15.486598   622 net.cpp:190] Setting up Threshold_6
I0224 06:53:15.486601   622 net.cpp:197] Top shape: 1 16 128 256 (524288)
I0224 06:53:15.486605   622 net.cpp:205] Memory required for data: 157286404
I0224 06:53:15.486609   622 layer_factory.hpp:123] Creating layer ConvNd_7
I0224 06:53:15.486615   622 net.cpp:140] Creating Layer ConvNd_7
I0224 06:53:15.486618   622 net.cpp:481] ConvNd_7 <- BatchNorm_5
I0224 06:53:15.486624   622 net.cpp:455] ConvNd_7 -> ConvNd_7
I0224 06:53:15.486781   622 net.cpp:190] Setting up ConvNd_7
I0224 06:53:15.486789   622 net.cpp:197] Top shape: 1 16 128 256 (524288)
I0224 06:53:15.486794   622 net.cpp:205] Memory required for data: 159383556
I0224 06:53:15.486799   622 layer_factory.hpp:123] Creating layer BatchNorm_6
I0224 06:53:15.486805   622 net.cpp:140] Creating Layer BatchNorm_6
I0224 06:53:15.486809   622 net.cpp:481] BatchNorm_6 <- ConvNd_7
I0224 06:53:15.486814   622 net.cpp:455] BatchNorm_6 -> BatchNorm_6
I0224 06:53:15.487396   622 net.cpp:190] Setting up BatchNorm_6
I0224 06:53:15.487402   622 net.cpp:197] Top shape: 1 16 128 256 (524288)
I0224 06:53:15.487407   622 net.cpp:205] Memory required for data: 161480708
I0224 06:53:15.487418   622 layer_factory.hpp:123] Creating layer Threshold_7
I0224 06:53:15.487423   622 net.cpp:140] Creating Layer Threshold_7
I0224 06:53:15.487427   622 net.cpp:481] Threshold_7 <- BatchNorm_6
I0224 06:53:15.487432   622 net.cpp:442] Threshold_7 -> BatchNorm_6 (in-place)
I0224 06:53:15.487437   622 net.cpp:190] Setting up Threshold_7
I0224 06:53:15.487440   622 net.cpp:197] Top shape: 1 16 128 256 (524288)
I0224 06:53:15.487445   622 net.cpp:205] Memory required for data: 163577860
I0224 06:53:15.487448   622 layer_factory.hpp:123] Creating layer ConvNd_8
I0224 06:53:15.487454   622 net.cpp:140] Creating Layer ConvNd_8
I0224 06:53:15.487457   622 net.cpp:481] ConvNd_8 <- BatchNorm_6
I0224 06:53:15.487462   622 net.cpp:455] ConvNd_8 -> ConvNd_8
I0224 06:53:15.487632   622 net.cpp:190] Setting up ConvNd_8
I0224 06:53:15.487639   622 net.cpp:197] Top shape: 1 64 128 256 (2097152)
I0224 06:53:15.487644   622 net.cpp:205] Memory required for data: 171966468
I0224 06:53:15.487649   622 layer_factory.hpp:123] Creating layer BatchNorm_7
I0224 06:53:15.487656   622 net.cpp:140] Creating Layer BatchNorm_7
I0224 06:53:15.487660   622 net.cpp:481] BatchNorm_7 <- ConvNd_8
I0224 06:53:15.487665   622 net.cpp:455] BatchNorm_7 -> BatchNorm_7
I0224 06:53:15.488231   622 net.cpp:190] Setting up BatchNorm_7
I0224 06:53:15.488240   622 net.cpp:197] Top shape: 1 64 128 256 (2097152)
I0224 06:53:15.488245   622 net.cpp:205] Memory required for data: 180355076
I0224 06:53:15.488252   622 layer_factory.hpp:123] Creating layer Threshold_8
I0224 06:53:15.488257   622 net.cpp:140] Creating Layer Threshold_8
I0224 06:53:15.488261   622 net.cpp:481] Threshold_8 <- BatchNorm_7
I0224 06:53:15.488265   622 net.cpp:442] Threshold_8 -> BatchNorm_7 (in-place)
I0224 06:53:15.488272   622 net.cpp:190] Setting up Threshold_8
I0224 06:53:15.488276   622 net.cpp:197] Top shape: 1 64 128 256 (2097152)
I0224 06:53:15.488279   622 net.cpp:205] Memory required for data: 188743684
I0224 06:53:15.488283   622 layer_factory.hpp:123] Creating layer Add_2
I0224 06:53:15.488288   622 net.cpp:140] Creating Layer Add_2
I0224 06:53:15.488291   622 net.cpp:481] Add_2 <- Add_1_Threshold_5_0_split_1
I0224 06:53:15.488296   622 net.cpp:481] Add_2 <- BatchNorm_7
I0224 06:53:15.488301   622 net.cpp:455] Add_2 -> Add_2
I0224 06:53:15.488318   622 net.cpp:190] Setting up Add_2
I0224 06:53:15.488322   622 net.cpp:197] Top shape: 1 64 128 256 (2097152)
I0224 06:53:15.488327   622 net.cpp:205] Memory required for data: 197132292
I0224 06:53:15.488330   622 layer_factory.hpp:123] Creating layer Threshold_9
I0224 06:53:15.488337   622 net.cpp:140] Creating Layer Threshold_9
I0224 06:53:15.488340   622 net.cpp:481] Threshold_9 <- Add_2
I0224 06:53:15.488345   622 net.cpp:442] Threshold_9 -> Add_2 (in-place)
I0224 06:53:15.488350   622 net.cpp:190] Setting up Threshold_9
I0224 06:53:15.488353   622 net.cpp:197] Top shape: 1 64 128 256 (2097152)
I0224 06:53:15.488358   622 net.cpp:205] Memory required for data: 205520900
I0224 06:53:15.488361   622 layer_factory.hpp:123] Creating layer Add_2_Threshold_9_0_split
I0224 06:53:15.488366   622 net.cpp:140] Creating Layer Add_2_Threshold_9_0_split
I0224 06:53:15.488369   622 net.cpp:481] Add_2_Threshold_9_0_split <- Add_2
I0224 06:53:15.488374   622 net.cpp:455] Add_2_Threshold_9_0_split -> Add_2_Threshold_9_0_split_0
I0224 06:53:15.488379   622 net.cpp:455] Add_2_Threshold_9_0_split -> Add_2_Threshold_9_0_split_1
I0224 06:53:15.488406   622 net.cpp:190] Setting up Add_2_Threshold_9_0_split
I0224 06:53:15.488411   622 net.cpp:197] Top shape: 1 64 128 256 (2097152)
I0224 06:53:15.488416   622 net.cpp:197] Top shape: 1 64 128 256 (2097152)
I0224 06:53:15.488420   622 net.cpp:205] Memory required for data: 222298116
I0224 06:53:15.488425   622 layer_factory.hpp:123] Creating layer ConvNd_9
I0224 06:53:15.488430   622 net.cpp:140] Creating Layer ConvNd_9
I0224 06:53:15.488433   622 net.cpp:481] ConvNd_9 <- Add_2_Threshold_9_0_split_0
I0224 06:53:15.488438   622 net.cpp:455] ConvNd_9 -> ConvNd_9
I0224 06:53:15.488595   622 net.cpp:190] Setting up ConvNd_9
I0224 06:53:15.488602   622 net.cpp:197] Top shape: 1 16 128 256 (524288)
I0224 06:53:15.488607   622 net.cpp:205] Memory required for data: 224395268
I0224 06:53:15.488612   622 layer_factory.hpp:123] Creating layer BatchNorm_8
I0224 06:53:15.488618   622 net.cpp:140] Creating Layer BatchNorm_8
I0224 06:53:15.488622   622 net.cpp:481] BatchNorm_8 <- ConvNd_9
I0224 06:53:15.488627   622 net.cpp:455] BatchNorm_8 -> BatchNorm_8
I0224 06:53:15.489202   622 net.cpp:190] Setting up BatchNorm_8
I0224 06:53:15.489210   622 net.cpp:197] Top shape: 1 16 128 256 (524288)
I0224 06:53:15.489217   622 net.cpp:205] Memory required for data: 226492420
I0224 06:53:15.489223   622 layer_factory.hpp:123] Creating layer Threshold_10
I0224 06:53:15.489228   622 net.cpp:140] Creating Layer Threshold_10
I0224 06:53:15.489233   622 net.cpp:481] Threshold_10 <- BatchNorm_8
I0224 06:53:15.489236   622 net.cpp:442] Threshold_10 -> BatchNorm_8 (in-place)
I0224 06:53:15.489243   622 net.cpp:190] Setting up Threshold_10
I0224 06:53:15.489248   622 net.cpp:197] Top shape: 1 16 128 256 (524288)
I0224 06:53:15.489251   622 net.cpp:205] Memory required for data: 228589572
I0224 06:53:15.489254   622 layer_factory.hpp:123] Creating layer ConvNd_10
I0224 06:53:15.489261   622 net.cpp:140] Creating Layer ConvNd_10
I0224 06:53:15.489264   622 net.cpp:481] ConvNd_10 <- BatchNorm_8
I0224 06:53:15.489269   622 net.cpp:455] ConvNd_10 -> ConvNd_10
I0224 06:53:15.489439   622 net.cpp:190] Setting up ConvNd_10
I0224 06:53:15.489447   622 net.cpp:197] Top shape: 1 16 128 256 (524288)
I0224 06:53:15.489452   622 net.cpp:205] Memory required for data: 230686724
I0224 06:53:15.489457   622 layer_factory.hpp:123] Creating layer BatchNorm_9
I0224 06:53:15.489464   622 net.cpp:140] Creating Layer BatchNorm_9
I0224 06:53:15.489467   622 net.cpp:481] BatchNorm_9 <- ConvNd_10
I0224 06:53:15.489473   622 net.cpp:455] BatchNorm_9 -> BatchNorm_9
I0224 06:53:15.490057   622 net.cpp:190] Setting up BatchNorm_9
I0224 06:53:15.490065   622 net.cpp:197] Top shape: 1 16 128 256 (524288)
I0224 06:53:15.490070   622 net.cpp:205] Memory required for data: 232783876
I0224 06:53:15.490078   622 layer_factory.hpp:123] Creating layer Threshold_11
I0224 06:53:15.490083   622 net.cpp:140] Creating Layer Threshold_11
I0224 06:53:15.490087   622 net.cpp:481] Threshold_11 <- BatchNorm_9
I0224 06:53:15.490092   622 net.cpp:442] Threshold_11 -> BatchNorm_9 (in-place)
I0224 06:53:15.490097   622 net.cpp:190] Setting up Threshold_11
I0224 06:53:15.490100   622 net.cpp:197] Top shape: 1 16 128 256 (524288)
I0224 06:53:15.490105   622 net.cpp:205] Memory required for data: 234881028
I0224 06:53:15.490108   622 layer_factory.hpp:123] Creating layer ConvNd_11
I0224 06:53:15.490114   622 net.cpp:140] Creating Layer ConvNd_11
I0224 06:53:15.490118   622 net.cpp:481] ConvNd_11 <- BatchNorm_9
I0224 06:53:15.490123   622 net.cpp:455] ConvNd_11 -> ConvNd_11
I0224 06:53:15.490283   622 net.cpp:190] Setting up ConvNd_11
I0224 06:53:15.490289   622 net.cpp:197] Top shape: 1 64 128 256 (2097152)
I0224 06:53:15.490294   622 net.cpp:205] Memory required for data: 243269636
I0224 06:53:15.490299   622 layer_factory.hpp:123] Creating layer BatchNorm_10
I0224 06:53:15.490306   622 net.cpp:140] Creating Layer BatchNorm_10
I0224 06:53:15.490309   622 net.cpp:481] BatchNorm_10 <- ConvNd_11
I0224 06:53:15.490314   622 net.cpp:455] BatchNorm_10 -> BatchNorm_10
I0224 06:53:15.490890   622 net.cpp:190] Setting up BatchNorm_10
I0224 06:53:15.490898   622 net.cpp:197] Top shape: 1 64 128 256 (2097152)
I0224 06:53:15.490903   622 net.cpp:205] Memory required for data: 251658244
I0224 06:53:15.490911   622 layer_factory.hpp:123] Creating layer Threshold_12
I0224 06:53:15.490916   622 net.cpp:140] Creating Layer Threshold_12
I0224 06:53:15.490921   622 net.cpp:481] Threshold_12 <- BatchNorm_10
I0224 06:53:15.490924   622 net.cpp:442] Threshold_12 -> BatchNorm_10 (in-place)
I0224 06:53:15.490931   622 net.cpp:190] Setting up Threshold_12
I0224 06:53:15.490933   622 net.cpp:197] Top shape: 1 64 128 256 (2097152)
I0224 06:53:15.490938   622 net.cpp:205] Memory required for data: 260046852
I0224 06:53:15.490942   622 layer_factory.hpp:123] Creating layer Add_3
I0224 06:53:15.490947   622 net.cpp:140] Creating Layer Add_3
I0224 06:53:15.490949   622 net.cpp:481] Add_3 <- Add_2_Threshold_9_0_split_1
I0224 06:53:15.490953   622 net.cpp:481] Add_3 <- BatchNorm_10
I0224 06:53:15.490958   622 net.cpp:455] Add_3 -> Add_3
I0224 06:53:15.490976   622 net.cpp:190] Setting up Add_3
I0224 06:53:15.490980   622 net.cpp:197] Top shape: 1 64 128 256 (2097152)
I0224 06:53:15.490985   622 net.cpp:205] Memory required for data: 268435460
I0224 06:53:15.490988   622 layer_factory.hpp:123] Creating layer Threshold_13
I0224 06:53:15.490993   622 net.cpp:140] Creating Layer Threshold_13
I0224 06:53:15.490996   622 net.cpp:481] Threshold_13 <- Add_3
I0224 06:53:15.491000   622 net.cpp:442] Threshold_13 -> Add_3 (in-place)
I0224 06:53:15.491005   622 net.cpp:190] Setting up Threshold_13
I0224 06:53:15.491008   622 net.cpp:197] Top shape: 1 64 128 256 (2097152)
I0224 06:53:15.491012   622 net.cpp:205] Memory required for data: 276824068
I0224 06:53:15.491016   622 layer_factory.hpp:123] Creating layer Add_3_Threshold_13_0_split
I0224 06:53:15.491021   622 net.cpp:140] Creating Layer Add_3_Threshold_13_0_split
I0224 06:53:15.491024   622 net.cpp:481] Add_3_Threshold_13_0_split <- Add_3
I0224 06:53:15.491029   622 net.cpp:455] Add_3_Threshold_13_0_split -> Add_3_Threshold_13_0_split_0
I0224 06:53:15.491034   622 net.cpp:455] Add_3_Threshold_13_0_split -> Add_3_Threshold_13_0_split_1
I0224 06:53:15.491060   622 net.cpp:190] Setting up Add_3_Threshold_13_0_split
I0224 06:53:15.491066   622 net.cpp:197] Top shape: 1 64 128 256 (2097152)
I0224 06:53:15.491070   622 net.cpp:197] Top shape: 1 64 128 256 (2097152)
I0224 06:53:15.491075   622 net.cpp:205] Memory required for data: 293601284
I0224 06:53:15.491078   622 layer_factory.hpp:123] Creating layer ConvNd_12
I0224 06:53:15.491084   622 net.cpp:140] Creating Layer ConvNd_12
I0224 06:53:15.491088   622 net.cpp:481] ConvNd_12 <- Add_3_Threshold_13_0_split_0
I0224 06:53:15.491093   622 net.cpp:455] ConvNd_12 -> ConvNd_12
I0224 06:53:15.491252   622 net.cpp:190] Setting up ConvNd_12
I0224 06:53:15.491258   622 net.cpp:197] Top shape: 1 16 128 256 (524288)
I0224 06:53:15.491263   622 net.cpp:205] Memory required for data: 295698436
I0224 06:53:15.491268   622 layer_factory.hpp:123] Creating layer BatchNorm_11
I0224 06:53:15.491276   622 net.cpp:140] Creating Layer BatchNorm_11
I0224 06:53:15.491279   622 net.cpp:481] BatchNorm_11 <- ConvNd_12
I0224 06:53:15.491284   622 net.cpp:455] BatchNorm_11 -> BatchNorm_11
I0224 06:53:15.492554   622 net.cpp:190] Setting up BatchNorm_11
I0224 06:53:15.492565   622 net.cpp:197] Top shape: 1 16 128 256 (524288)
I0224 06:53:15.492571   622 net.cpp:205] Memory required for data: 297795588
I0224 06:53:15.492583   622 layer_factory.hpp:123] Creating layer Threshold_14
I0224 06:53:15.492589   622 net.cpp:140] Creating Layer Threshold_14
I0224 06:53:15.492594   622 net.cpp:481] Threshold_14 <- BatchNorm_11
I0224 06:53:15.492599   622 net.cpp:442] Threshold_14 -> BatchNorm_11 (in-place)
I0224 06:53:15.492605   622 net.cpp:190] Setting up Threshold_14
I0224 06:53:15.492609   622 net.cpp:197] Top shape: 1 16 128 256 (524288)
I0224 06:53:15.492614   622 net.cpp:205] Memory required for data: 299892740
I0224 06:53:15.492616   622 layer_factory.hpp:123] Creating layer ConvNd_13
I0224 06:53:15.492622   622 net.cpp:140] Creating Layer ConvNd_13
I0224 06:53:15.492625   622 net.cpp:481] ConvNd_13 <- BatchNorm_11
I0224 06:53:15.492630   622 net.cpp:455] ConvNd_13 -> ConvNd_13
I0224 06:53:15.492799   622 net.cpp:190] Setting up ConvNd_13
I0224 06:53:15.492805   622 net.cpp:197] Top shape: 1 16 128 256 (524288)
I0224 06:53:15.492810   622 net.cpp:205] Memory required for data: 301989892
I0224 06:53:15.492815   622 layer_factory.hpp:123] Creating layer BatchNorm_12
I0224 06:53:15.492823   622 net.cpp:140] Creating Layer BatchNorm_12
I0224 06:53:15.492827   622 net.cpp:481] BatchNorm_12 <- ConvNd_13
I0224 06:53:15.492832   622 net.cpp:455] BatchNorm_12 -> BatchNorm_12
I0224 06:53:15.493419   622 net.cpp:190] Setting up BatchNorm_12
I0224 06:53:15.493427   622 net.cpp:197] Top shape: 1 16 128 256 (524288)
I0224 06:53:15.493433   622 net.cpp:205] Memory required for data: 304087044
I0224 06:53:15.493441   622 layer_factory.hpp:123] Creating layer Threshold_15
I0224 06:53:15.493446   622 net.cpp:140] Creating Layer Threshold_15
I0224 06:53:15.493450   622 net.cpp:481] Threshold_15 <- BatchNorm_12
I0224 06:53:15.493455   622 net.cpp:442] Threshold_15 -> BatchNorm_12 (in-place)
I0224 06:53:15.493461   622 net.cpp:190] Setting up Threshold_15
I0224 06:53:15.493464   622 net.cpp:197] Top shape: 1 16 128 256 (524288)
I0224 06:53:15.493468   622 net.cpp:205] Memory required for data: 306184196
I0224 06:53:15.493472   622 layer_factory.hpp:123] Creating layer ConvNd_14
I0224 06:53:15.493479   622 net.cpp:140] Creating Layer ConvNd_14
I0224 06:53:15.493481   622 net.cpp:481] ConvNd_14 <- BatchNorm_12
I0224 06:53:15.493486   622 net.cpp:455] ConvNd_14 -> ConvNd_14
I0224 06:53:15.493649   622 net.cpp:190] Setting up ConvNd_14
I0224 06:53:15.493655   622 net.cpp:197] Top shape: 1 64 128 256 (2097152)
I0224 06:53:15.493660   622 net.cpp:205] Memory required for data: 314572804
I0224 06:53:15.493665   622 layer_factory.hpp:123] Creating layer BatchNorm_13
I0224 06:53:15.493671   622 net.cpp:140] Creating Layer BatchNorm_13
I0224 06:53:15.493675   622 net.cpp:481] BatchNorm_13 <- ConvNd_14
I0224 06:53:15.493680   622 net.cpp:455] BatchNorm_13 -> BatchNorm_13
I0224 06:53:15.494254   622 net.cpp:190] Setting up BatchNorm_13
I0224 06:53:15.494262   622 net.cpp:197] Top shape: 1 64 128 256 (2097152)
I0224 06:53:15.494267   622 net.cpp:205] Memory required for data: 322961412
I0224 06:53:15.494276   622 layer_factory.hpp:123] Creating layer Threshold_16
I0224 06:53:15.494280   622 net.cpp:140] Creating Layer Threshold_16
I0224 06:53:15.494284   622 net.cpp:481] Threshold_16 <- BatchNorm_13
I0224 06:53:15.494288   622 net.cpp:442] Threshold_16 -> BatchNorm_13 (in-place)
I0224 06:53:15.494294   622 net.cpp:190] Setting up Threshold_16
I0224 06:53:15.494298   622 net.cpp:197] Top shape: 1 64 128 256 (2097152)
I0224 06:53:15.494302   622 net.cpp:205] Memory required for data: 331350020
I0224 06:53:15.494307   622 layer_factory.hpp:123] Creating layer Add_4
I0224 06:53:15.494311   622 net.cpp:140] Creating Layer Add_4
I0224 06:53:15.494314   622 net.cpp:481] Add_4 <- Add_3_Threshold_13_0_split_1
I0224 06:53:15.494318   622 net.cpp:481] Add_4 <- BatchNorm_13
I0224 06:53:15.494323   622 net.cpp:455] Add_4 -> Add_4
I0224 06:53:15.494343   622 net.cpp:190] Setting up Add_4
I0224 06:53:15.494346   622 net.cpp:197] Top shape: 1 64 128 256 (2097152)
I0224 06:53:15.494351   622 net.cpp:205] Memory required for data: 339738628
I0224 06:53:15.494354   622 layer_factory.hpp:123] Creating layer Threshold_17
I0224 06:53:15.494359   622 net.cpp:140] Creating Layer Threshold_17
I0224 06:53:15.494362   622 net.cpp:481] Threshold_17 <- Add_4
I0224 06:53:15.494366   622 net.cpp:442] Threshold_17 -> Add_4 (in-place)
I0224 06:53:15.494371   622 net.cpp:190] Setting up Threshold_17
I0224 06:53:15.494375   622 net.cpp:197] Top shape: 1 64 128 256 (2097152)
I0224 06:53:15.494379   622 net.cpp:205] Memory required for data: 348127236
I0224 06:53:15.494382   622 layer_factory.hpp:123] Creating layer Add_4_Threshold_17_0_split
I0224 06:53:15.494387   622 net.cpp:140] Creating Layer Add_4_Threshold_17_0_split
I0224 06:53:15.494390   622 net.cpp:481] Add_4_Threshold_17_0_split <- Add_4
I0224 06:53:15.494395   622 net.cpp:455] Add_4_Threshold_17_0_split -> Add_4_Threshold_17_0_split_0
I0224 06:53:15.494400   622 net.cpp:455] Add_4_Threshold_17_0_split -> Add_4_Threshold_17_0_split_1
I0224 06:53:15.494427   622 net.cpp:190] Setting up Add_4_Threshold_17_0_split
I0224 06:53:15.494431   622 net.cpp:197] Top shape: 1 64 128 256 (2097152)
I0224 06:53:15.494436   622 net.cpp:197] Top shape: 1 64 128 256 (2097152)
I0224 06:53:15.494439   622 net.cpp:205] Memory required for data: 364904452
I0224 06:53:15.494443   622 layer_factory.hpp:123] Creating layer ConvNd_15
I0224 06:53:15.494449   622 net.cpp:140] Creating Layer ConvNd_15
I0224 06:53:15.494453   622 net.cpp:481] ConvNd_15 <- Add_4_Threshold_17_0_split_0
I0224 06:53:15.494458   622 net.cpp:455] ConvNd_15 -> ConvNd_15
I0224 06:53:15.494616   622 net.cpp:190] Setting up ConvNd_15
I0224 06:53:15.494622   622 net.cpp:197] Top shape: 1 16 128 256 (524288)
I0224 06:53:15.494627   622 net.cpp:205] Memory required for data: 367001604
I0224 06:53:15.494632   622 layer_factory.hpp:123] Creating layer BatchNorm_14
I0224 06:53:15.494639   622 net.cpp:140] Creating Layer BatchNorm_14
I0224 06:53:15.494649   622 net.cpp:481] BatchNorm_14 <- ConvNd_15
I0224 06:53:15.494654   622 net.cpp:455] BatchNorm_14 -> BatchNorm_14
I0224 06:53:15.495234   622 net.cpp:190] Setting up BatchNorm_14
I0224 06:53:15.495241   622 net.cpp:197] Top shape: 1 16 128 256 (524288)
I0224 06:53:15.495246   622 net.cpp:205] Memory required for data: 369098756
I0224 06:53:15.495254   622 layer_factory.hpp:123] Creating layer Threshold_18
I0224 06:53:15.495260   622 net.cpp:140] Creating Layer Threshold_18
I0224 06:53:15.495263   622 net.cpp:481] Threshold_18 <- BatchNorm_14
I0224 06:53:15.495267   622 net.cpp:442] Threshold_18 -> BatchNorm_14 (in-place)
I0224 06:53:15.495273   622 net.cpp:190] Setting up Threshold_18
I0224 06:53:15.495276   622 net.cpp:197] Top shape: 1 16 128 256 (524288)
I0224 06:53:15.495281   622 net.cpp:205] Memory required for data: 371195908
I0224 06:53:15.495285   622 layer_factory.hpp:123] Creating layer ConvNd_16
I0224 06:53:15.495290   622 net.cpp:140] Creating Layer ConvNd_16
I0224 06:53:15.495293   622 net.cpp:481] ConvNd_16 <- BatchNorm_14
I0224 06:53:15.495298   622 net.cpp:455] ConvNd_16 -> ConvNd_16
I0224 06:53:15.495460   622 net.cpp:190] Setting up ConvNd_16
I0224 06:53:15.495466   622 net.cpp:197] Top shape: 1 16 128 256 (524288)
I0224 06:53:15.495471   622 net.cpp:205] Memory required for data: 373293060
I0224 06:53:15.495476   622 layer_factory.hpp:123] Creating layer BatchNorm_15
I0224 06:53:15.495483   622 net.cpp:140] Creating Layer BatchNorm_15
I0224 06:53:15.495487   622 net.cpp:481] BatchNorm_15 <- ConvNd_16
I0224 06:53:15.495492   622 net.cpp:455] BatchNorm_15 -> BatchNorm_15
I0224 06:53:15.496070   622 net.cpp:190] Setting up BatchNorm_15
I0224 06:53:15.496078   622 net.cpp:197] Top shape: 1 16 128 256 (524288)
I0224 06:53:15.496083   622 net.cpp:205] Memory required for data: 375390212
I0224 06:53:15.496090   622 layer_factory.hpp:123] Creating layer Threshold_19
I0224 06:53:15.496095   622 net.cpp:140] Creating Layer Threshold_19
I0224 06:53:15.496099   622 net.cpp:481] Threshold_19 <- BatchNorm_15
I0224 06:53:15.496104   622 net.cpp:442] Threshold_19 -> BatchNorm_15 (in-place)
I0224 06:53:15.496109   622 net.cpp:190] Setting up Threshold_19
I0224 06:53:15.496114   622 net.cpp:197] Top shape: 1 16 128 256 (524288)
I0224 06:53:15.496117   622 net.cpp:205] Memory required for data: 377487364
I0224 06:53:15.496120   622 layer_factory.hpp:123] Creating layer ConvNd_17
I0224 06:53:15.496129   622 net.cpp:140] Creating Layer ConvNd_17
I0224 06:53:15.496131   622 net.cpp:481] ConvNd_17 <- BatchNorm_15
I0224 06:53:15.496137   622 net.cpp:455] ConvNd_17 -> ConvNd_17
I0224 06:53:15.496307   622 net.cpp:190] Setting up ConvNd_17
I0224 06:53:15.496315   622 net.cpp:197] Top shape: 1 64 128 256 (2097152)
I0224 06:53:15.496320   622 net.cpp:205] Memory required for data: 385875972
I0224 06:53:15.496325   622 layer_factory.hpp:123] Creating layer BatchNorm_16
I0224 06:53:15.496332   622 net.cpp:140] Creating Layer BatchNorm_16
I0224 06:53:15.496335   622 net.cpp:481] BatchNorm_16 <- ConvNd_17
I0224 06:53:15.496341   622 net.cpp:455] BatchNorm_16 -> BatchNorm_16
I0224 06:53:15.496920   622 net.cpp:190] Setting up BatchNorm_16
I0224 06:53:15.496928   622 net.cpp:197] Top shape: 1 64 128 256 (2097152)
I0224 06:53:15.496933   622 net.cpp:205] Memory required for data: 394264580
I0224 06:53:15.496942   622 layer_factory.hpp:123] Creating layer Threshold_20
I0224 06:53:15.496946   622 net.cpp:140] Creating Layer Threshold_20
I0224 06:53:15.496949   622 net.cpp:481] Threshold_20 <- BatchNorm_16
I0224 06:53:15.496954   622 net.cpp:442] Threshold_20 -> BatchNorm_16 (in-place)
I0224 06:53:15.496960   622 net.cpp:190] Setting up Threshold_20
I0224 06:53:15.496963   622 net.cpp:197] Top shape: 1 64 128 256 (2097152)
I0224 06:53:15.496968   622 net.cpp:205] Memory required for data: 402653188
I0224 06:53:15.496971   622 layer_factory.hpp:123] Creating layer Add_5
I0224 06:53:15.496976   622 net.cpp:140] Creating Layer Add_5
I0224 06:53:15.496979   622 net.cpp:481] Add_5 <- Add_4_Threshold_17_0_split_1
I0224 06:53:15.496984   622 net.cpp:481] Add_5 <- BatchNorm_16
I0224 06:53:15.496987   622 net.cpp:455] Add_5 -> Add_5
I0224 06:53:15.497006   622 net.cpp:190] Setting up Add_5
I0224 06:53:15.497010   622 net.cpp:197] Top shape: 1 64 128 256 (2097152)
I0224 06:53:15.497015   622 net.cpp:205] Memory required for data: 411041796
I0224 06:53:15.497018   622 layer_factory.hpp:123] Creating layer Threshold_21
I0224 06:53:15.497023   622 net.cpp:140] Creating Layer Threshold_21
I0224 06:53:15.497026   622 net.cpp:481] Threshold_21 <- Add_5
I0224 06:53:15.497030   622 net.cpp:442] Threshold_21 -> Add_5 (in-place)
I0224 06:53:15.497035   622 net.cpp:190] Setting up Threshold_21
I0224 06:53:15.497038   622 net.cpp:197] Top shape: 1 64 128 256 (2097152)
I0224 06:53:15.497043   622 net.cpp:205] Memory required for data: 419430404
I0224 06:53:15.497046   622 layer_factory.hpp:123] Creating layer Add_5_Threshold_21_0_split
I0224 06:53:15.497051   622 net.cpp:140] Creating Layer Add_5_Threshold_21_0_split
I0224 06:53:15.497054   622 net.cpp:481] Add_5_Threshold_21_0_split <- Add_5
I0224 06:53:15.497058   622 net.cpp:455] Add_5_Threshold_21_0_split -> Add_5_Threshold_21_0_split_0
I0224 06:53:15.497064   622 net.cpp:455] Add_5_Threshold_21_0_split -> Add_5_Threshold_21_0_split_1
I0224 06:53:15.497090   622 net.cpp:190] Setting up Add_5_Threshold_21_0_split
I0224 06:53:15.497097   622 net.cpp:197] Top shape: 1 64 128 256 (2097152)
I0224 06:53:15.497102   622 net.cpp:197] Top shape: 1 64 128 256 (2097152)
I0224 06:53:15.497105   622 net.cpp:205] Memory required for data: 436207620
I0224 06:53:15.497108   622 layer_factory.hpp:123] Creating layer MaxPool2d_3
I0224 06:53:15.497114   622 net.cpp:140] Creating Layer MaxPool2d_3
I0224 06:53:15.497117   622 net.cpp:481] MaxPool2d_3 <- Add_5_Threshold_21_0_split_0
I0224 06:53:15.497123   622 net.cpp:455] MaxPool2d_3 -> MaxPool2d_3
I0224 06:53:15.497151   622 net.cpp:190] Setting up MaxPool2d_3
I0224 06:53:15.497156   622 net.cpp:197] Top shape: 1 64 64 128 (524288)
I0224 06:53:15.497161   622 net.cpp:205] Memory required for data: 438304772
I0224 06:53:15.497165   622 layer_factory.hpp:123] Creating layer ConvNd_18
I0224 06:53:15.497170   622 net.cpp:140] Creating Layer ConvNd_18
I0224 06:53:15.497174   622 net.cpp:481] ConvNd_18 <- MaxPool2d_3
I0224 06:53:15.497179   622 net.cpp:455] ConvNd_18 -> ConvNd_18
I0224 06:53:15.497354   622 net.cpp:190] Setting up ConvNd_18
I0224 06:53:15.497360   622 net.cpp:197] Top shape: 1 128 64 128 (1048576)
I0224 06:53:15.497366   622 net.cpp:205] Memory required for data: 442499076
I0224 06:53:15.497371   622 layer_factory.hpp:123] Creating layer ConvNd_19
I0224 06:53:15.497377   622 net.cpp:140] Creating Layer ConvNd_19
I0224 06:53:15.497381   622 net.cpp:481] ConvNd_19 <- Add_5_Threshold_21_0_split_1
I0224 06:53:15.497392   622 net.cpp:455] ConvNd_19 -> ConvNd_19
I0224 06:53:15.497558   622 net.cpp:190] Setting up ConvNd_19
I0224 06:53:15.497565   622 net.cpp:197] Top shape: 1 32 64 128 (262144)
I0224 06:53:15.497570   622 net.cpp:205] Memory required for data: 443547652
I0224 06:53:15.497575   622 layer_factory.hpp:123] Creating layer BatchNorm_17
I0224 06:53:15.497581   622 net.cpp:140] Creating Layer BatchNorm_17
I0224 06:53:15.497586   622 net.cpp:481] BatchNorm_17 <- ConvNd_19
I0224 06:53:15.497591   622 net.cpp:455] BatchNorm_17 -> BatchNorm_17
I0224 06:53:15.498186   622 net.cpp:190] Setting up BatchNorm_17
I0224 06:53:15.498195   622 net.cpp:197] Top shape: 1 32 64 128 (262144)
I0224 06:53:15.498200   622 net.cpp:205] Memory required for data: 444596228
I0224 06:53:15.498209   622 layer_factory.hpp:123] Creating layer Threshold_22
I0224 06:53:15.498214   622 net.cpp:140] Creating Layer Threshold_22
I0224 06:53:15.498219   622 net.cpp:481] Threshold_22 <- BatchNorm_17
I0224 06:53:15.498222   622 net.cpp:442] Threshold_22 -> BatchNorm_17 (in-place)
I0224 06:53:15.498229   622 net.cpp:190] Setting up Threshold_22
I0224 06:53:15.498231   622 net.cpp:197] Top shape: 1 32 64 128 (262144)
I0224 06:53:15.498236   622 net.cpp:205] Memory required for data: 445644804
I0224 06:53:15.498239   622 layer_factory.hpp:123] Creating layer ConvNd_20
I0224 06:53:15.498245   622 net.cpp:140] Creating Layer ConvNd_20
I0224 06:53:15.498250   622 net.cpp:481] ConvNd_20 <- BatchNorm_17
I0224 06:53:15.498253   622 net.cpp:455] ConvNd_20 -> ConvNd_20
I0224 06:53:15.498422   622 net.cpp:190] Setting up ConvNd_20
I0224 06:53:15.498430   622 net.cpp:197] Top shape: 1 32 64 128 (262144)
I0224 06:53:15.498435   622 net.cpp:205] Memory required for data: 446693380
I0224 06:53:15.498440   622 layer_factory.hpp:123] Creating layer BatchNorm_18
I0224 06:53:15.498446   622 net.cpp:140] Creating Layer BatchNorm_18
I0224 06:53:15.498456   622 net.cpp:481] BatchNorm_18 <- ConvNd_20
I0224 06:53:15.498461   622 net.cpp:455] BatchNorm_18 -> BatchNorm_18
I0224 06:53:15.499028   622 net.cpp:190] Setting up BatchNorm_18
I0224 06:53:15.499037   622 net.cpp:197] Top shape: 1 32 64 128 (262144)
I0224 06:53:15.499042   622 net.cpp:205] Memory required for data: 447741956
I0224 06:53:15.499048   622 layer_factory.hpp:123] Creating layer Threshold_23
I0224 06:53:15.499053   622 net.cpp:140] Creating Layer Threshold_23
I0224 06:53:15.499058   622 net.cpp:481] Threshold_23 <- BatchNorm_18
I0224 06:53:15.499061   622 net.cpp:442] Threshold_23 -> BatchNorm_18 (in-place)
I0224 06:53:15.499068   622 net.cpp:190] Setting up Threshold_23
I0224 06:53:15.499070   622 net.cpp:197] Top shape: 1 32 64 128 (262144)
I0224 06:53:15.499074   622 net.cpp:205] Memory required for data: 448790532
I0224 06:53:15.499078   622 layer_factory.hpp:123] Creating layer ConvNd_21
I0224 06:53:15.499084   622 net.cpp:140] Creating Layer ConvNd_21
I0224 06:53:15.499087   622 net.cpp:481] ConvNd_21 <- BatchNorm_18
I0224 06:53:15.499092   622 net.cpp:455] ConvNd_21 -> ConvNd_21
I0224 06:53:15.499255   622 net.cpp:190] Setting up ConvNd_21
I0224 06:53:15.499262   622 net.cpp:197] Top shape: 1 128 64 128 (1048576)
I0224 06:53:15.499267   622 net.cpp:205] Memory required for data: 452984836
I0224 06:53:15.499272   622 layer_factory.hpp:123] Creating layer BatchNorm_19
I0224 06:53:15.499279   622 net.cpp:140] Creating Layer BatchNorm_19
I0224 06:53:15.499284   622 net.cpp:481] BatchNorm_19 <- ConvNd_21
I0224 06:53:15.499289   622 net.cpp:455] BatchNorm_19 -> BatchNorm_19
I0224 06:53:15.499800   622 net.cpp:190] Setting up BatchNorm_19
I0224 06:53:15.499809   622 net.cpp:197] Top shape: 1 128 64 128 (1048576)
I0224 06:53:15.499815   622 net.cpp:205] Memory required for data: 457179140
I0224 06:53:15.499824   622 layer_factory.hpp:123] Creating layer Threshold_24
I0224 06:53:15.499828   622 net.cpp:140] Creating Layer Threshold_24
I0224 06:53:15.499832   622 net.cpp:481] Threshold_24 <- BatchNorm_19
I0224 06:53:15.499837   622 net.cpp:442] Threshold_24 -> BatchNorm_19 (in-place)
I0224 06:53:15.499843   622 net.cpp:190] Setting up Threshold_24
I0224 06:53:15.499847   622 net.cpp:197] Top shape: 1 128 64 128 (1048576)
I0224 06:53:15.499851   622 net.cpp:205] Memory required for data: 461373444
I0224 06:53:15.499855   622 layer_factory.hpp:123] Creating layer Add_6
I0224 06:53:15.499859   622 net.cpp:140] Creating Layer Add_6
I0224 06:53:15.499863   622 net.cpp:481] Add_6 <- ConvNd_18
I0224 06:53:15.499866   622 net.cpp:481] Add_6 <- BatchNorm_19
I0224 06:53:15.499871   622 net.cpp:455] Add_6 -> Add_6
I0224 06:53:15.499891   622 net.cpp:190] Setting up Add_6
I0224 06:53:15.499895   622 net.cpp:197] Top shape: 1 128 64 128 (1048576)
I0224 06:53:15.499899   622 net.cpp:205] Memory required for data: 465567748
I0224 06:53:15.499903   622 layer_factory.hpp:123] Creating layer Threshold_25
I0224 06:53:15.499907   622 net.cpp:140] Creating Layer Threshold_25
I0224 06:53:15.499910   622 net.cpp:481] Threshold_25 <- Add_6
I0224 06:53:15.499915   622 net.cpp:442] Threshold_25 -> Add_6 (in-place)
I0224 06:53:15.499920   622 net.cpp:190] Setting up Threshold_25
I0224 06:53:15.499923   622 net.cpp:197] Top shape: 1 128 64 128 (1048576)
I0224 06:53:15.499927   622 net.cpp:205] Memory required for data: 469762052
I0224 06:53:15.499930   622 layer_factory.hpp:123] Creating layer Add_6_Threshold_25_0_split
I0224 06:53:15.499935   622 net.cpp:140] Creating Layer Add_6_Threshold_25_0_split
I0224 06:53:15.499938   622 net.cpp:481] Add_6_Threshold_25_0_split <- Add_6
I0224 06:53:15.499943   622 net.cpp:455] Add_6_Threshold_25_0_split -> Add_6_Threshold_25_0_split_0
I0224 06:53:15.499949   622 net.cpp:455] Add_6_Threshold_25_0_split -> Add_6_Threshold_25_0_split_1
I0224 06:53:15.499976   622 net.cpp:190] Setting up Add_6_Threshold_25_0_split
I0224 06:53:15.499982   622 net.cpp:197] Top shape: 1 128 64 128 (1048576)
I0224 06:53:15.499987   622 net.cpp:197] Top shape: 1 128 64 128 (1048576)
I0224 06:53:15.499991   622 net.cpp:205] Memory required for data: 478150660
I0224 06:53:15.499994   622 layer_factory.hpp:123] Creating layer ConvNd_22
I0224 06:53:15.500000   622 net.cpp:140] Creating Layer ConvNd_22
I0224 06:53:15.500005   622 net.cpp:481] ConvNd_22 <- Add_6_Threshold_25_0_split_0
I0224 06:53:15.500010   622 net.cpp:455] ConvNd_22 -> ConvNd_22
I0224 06:53:15.500174   622 net.cpp:190] Setting up ConvNd_22
I0224 06:53:15.500180   622 net.cpp:197] Top shape: 1 32 64 128 (262144)
I0224 06:53:15.500185   622 net.cpp:205] Memory required for data: 479199236
I0224 06:53:15.500190   622 layer_factory.hpp:123] Creating layer BatchNorm_20
I0224 06:53:15.500197   622 net.cpp:140] Creating Layer BatchNorm_20
I0224 06:53:15.500200   622 net.cpp:481] BatchNorm_20 <- ConvNd_22
I0224 06:53:15.500206   622 net.cpp:455] BatchNorm_20 -> BatchNorm_20
I0224 06:53:15.500778   622 net.cpp:190] Setting up BatchNorm_20
I0224 06:53:15.500787   622 net.cpp:197] Top shape: 1 32 64 128 (262144)
I0224 06:53:15.500792   622 net.cpp:205] Memory required for data: 480247812
I0224 06:53:15.500799   622 layer_factory.hpp:123] Creating layer Threshold_26
I0224 06:53:15.500803   622 net.cpp:140] Creating Layer Threshold_26
I0224 06:53:15.500808   622 net.cpp:481] Threshold_26 <- BatchNorm_20
I0224 06:53:15.500813   622 net.cpp:442] Threshold_26 -> BatchNorm_20 (in-place)
I0224 06:53:15.500818   622 net.cpp:190] Setting up Threshold_26
I0224 06:53:15.500821   622 net.cpp:197] Top shape: 1 32 64 128 (262144)
I0224 06:53:15.500825   622 net.cpp:205] Memory required for data: 481296388
I0224 06:53:15.500828   622 layer_factory.hpp:123] Creating layer ConvNd_23
I0224 06:53:15.500834   622 net.cpp:140] Creating Layer ConvNd_23
I0224 06:53:15.500838   622 net.cpp:481] ConvNd_23 <- BatchNorm_20
I0224 06:53:15.500842   622 net.cpp:455] ConvNd_23 -> ConvNd_23
I0224 06:53:15.501013   622 net.cpp:190] Setting up ConvNd_23
I0224 06:53:15.501019   622 net.cpp:197] Top shape: 1 32 64 128 (262144)
I0224 06:53:15.501024   622 net.cpp:205] Memory required for data: 482344964
I0224 06:53:15.501029   622 layer_factory.hpp:123] Creating layer BatchNorm_21
I0224 06:53:15.501036   622 net.cpp:140] Creating Layer BatchNorm_21
I0224 06:53:15.501040   622 net.cpp:481] BatchNorm_21 <- ConvNd_23
I0224 06:53:15.501046   622 net.cpp:455] BatchNorm_21 -> BatchNorm_21
I0224 06:53:15.501626   622 net.cpp:190] Setting up BatchNorm_21
I0224 06:53:15.501636   622 net.cpp:197] Top shape: 1 32 64 128 (262144)
I0224 06:53:15.501641   622 net.cpp:205] Memory required for data: 483393540
I0224 06:53:15.501648   622 layer_factory.hpp:123] Creating layer Threshold_27
I0224 06:53:15.501653   622 net.cpp:140] Creating Layer Threshold_27
I0224 06:53:15.501657   622 net.cpp:481] Threshold_27 <- BatchNorm_21
I0224 06:53:15.501662   622 net.cpp:442] Threshold_27 -> BatchNorm_21 (in-place)
I0224 06:53:15.501667   622 net.cpp:190] Setting up Threshold_27
I0224 06:53:15.501670   622 net.cpp:197] Top shape: 1 32 64 128 (262144)
I0224 06:53:15.501674   622 net.cpp:205] Memory required for data: 484442116
I0224 06:53:15.501678   622 layer_factory.hpp:123] Creating layer ConvNd_24
I0224 06:53:15.501684   622 net.cpp:140] Creating Layer ConvNd_24
I0224 06:53:15.501688   622 net.cpp:481] ConvNd_24 <- BatchNorm_21
I0224 06:53:15.501693   622 net.cpp:455] ConvNd_24 -> ConvNd_24
I0224 06:53:15.501863   622 net.cpp:190] Setting up ConvNd_24
I0224 06:53:15.501870   622 net.cpp:197] Top shape: 1 128 64 128 (1048576)
I0224 06:53:15.501875   622 net.cpp:205] Memory required for data: 488636420
I0224 06:53:15.501884   622 layer_factory.hpp:123] Creating layer BatchNorm_22
I0224 06:53:15.501891   622 net.cpp:140] Creating Layer BatchNorm_22
I0224 06:53:15.501895   622 net.cpp:481] BatchNorm_22 <- ConvNd_24
I0224 06:53:15.501900   622 net.cpp:455] BatchNorm_22 -> BatchNorm_22
I0224 06:53:15.502396   622 net.cpp:190] Setting up BatchNorm_22
I0224 06:53:15.502403   622 net.cpp:197] Top shape: 1 128 64 128 (1048576)
I0224 06:53:15.502408   622 net.cpp:205] Memory required for data: 492830724
I0224 06:53:15.502415   622 layer_factory.hpp:123] Creating layer Threshold_28
I0224 06:53:15.502420   622 net.cpp:140] Creating Layer Threshold_28
I0224 06:53:15.502424   622 net.cpp:481] Threshold_28 <- BatchNorm_22
I0224 06:53:15.502429   622 net.cpp:442] Threshold_28 -> BatchNorm_22 (in-place)
I0224 06:53:15.502440   622 net.cpp:190] Setting up Threshold_28
I0224 06:53:15.502444   622 net.cpp:197] Top shape: 1 128 64 128 (1048576)
I0224 06:53:15.502449   622 net.cpp:205] Memory required for data: 497025028
I0224 06:53:15.502454   622 layer_factory.hpp:123] Creating layer Add_7
I0224 06:53:15.502458   622 net.cpp:140] Creating Layer Add_7
I0224 06:53:15.502461   622 net.cpp:481] Add_7 <- Add_6_Threshold_25_0_split_1
I0224 06:53:15.502465   622 net.cpp:481] Add_7 <- BatchNorm_22
I0224 06:53:15.502470   622 net.cpp:455] Add_7 -> Add_7
I0224 06:53:15.502488   622 net.cpp:190] Setting up Add_7
I0224 06:53:15.502493   622 net.cpp:197] Top shape: 1 128 64 128 (1048576)
I0224 06:53:15.502497   622 net.cpp:205] Memory required for data: 501219332
I0224 06:53:15.502501   622 layer_factory.hpp:123] Creating layer Threshold_29
I0224 06:53:15.502506   622 net.cpp:140] Creating Layer Threshold_29
I0224 06:53:15.502508   622 net.cpp:481] Threshold_29 <- Add_7
I0224 06:53:15.502512   622 net.cpp:442] Threshold_29 -> Add_7 (in-place)
I0224 06:53:15.502517   622 net.cpp:190] Setting up Threshold_29
I0224 06:53:15.502521   622 net.cpp:197] Top shape: 1 128 64 128 (1048576)
I0224 06:53:15.502526   622 net.cpp:205] Memory required for data: 505413636
I0224 06:53:15.502528   622 layer_factory.hpp:123] Creating layer Add_7_Threshold_29_0_split
I0224 06:53:15.502533   622 net.cpp:140] Creating Layer Add_7_Threshold_29_0_split
I0224 06:53:15.502537   622 net.cpp:481] Add_7_Threshold_29_0_split <- Add_7
I0224 06:53:15.502542   622 net.cpp:455] Add_7_Threshold_29_0_split -> Add_7_Threshold_29_0_split_0
I0224 06:53:15.502547   622 net.cpp:455] Add_7_Threshold_29_0_split -> Add_7_Threshold_29_0_split_1
I0224 06:53:15.502574   622 net.cpp:190] Setting up Add_7_Threshold_29_0_split
I0224 06:53:15.502580   622 net.cpp:197] Top shape: 1 128 64 128 (1048576)
I0224 06:53:15.502584   622 net.cpp:197] Top shape: 1 128 64 128 (1048576)
I0224 06:53:15.502588   622 net.cpp:205] Memory required for data: 513802244
I0224 06:53:15.502593   622 layer_factory.hpp:123] Creating layer ConvNd_25
I0224 06:53:15.502599   622 net.cpp:140] Creating Layer ConvNd_25
I0224 06:53:15.502602   622 net.cpp:481] ConvNd_25 <- Add_7_Threshold_29_0_split_0
I0224 06:53:15.502607   622 net.cpp:455] ConvNd_25 -> ConvNd_25
I0224 06:53:15.502774   622 net.cpp:190] Setting up ConvNd_25
I0224 06:53:15.502780   622 net.cpp:197] Top shape: 1 32 64 128 (262144)
I0224 06:53:15.502785   622 net.cpp:205] Memory required for data: 514850820
I0224 06:53:15.502790   622 layer_factory.hpp:123] Creating layer BatchNorm_23
I0224 06:53:15.502797   622 net.cpp:140] Creating Layer BatchNorm_23
I0224 06:53:15.502801   622 net.cpp:481] BatchNorm_23 <- ConvNd_25
I0224 06:53:15.502806   622 net.cpp:455] BatchNorm_23 -> BatchNorm_23
I0224 06:53:15.503378   622 net.cpp:190] Setting up BatchNorm_23
I0224 06:53:15.503386   622 net.cpp:197] Top shape: 1 32 64 128 (262144)
I0224 06:53:15.503391   622 net.cpp:205] Memory required for data: 515899396
I0224 06:53:15.503398   622 layer_factory.hpp:123] Creating layer Threshold_30
I0224 06:53:15.503403   622 net.cpp:140] Creating Layer Threshold_30
I0224 06:53:15.503407   622 net.cpp:481] Threshold_30 <- BatchNorm_23
I0224 06:53:15.503412   622 net.cpp:442] Threshold_30 -> BatchNorm_23 (in-place)
I0224 06:53:15.503417   622 net.cpp:190] Setting up Threshold_30
I0224 06:53:15.503420   622 net.cpp:197] Top shape: 1 32 64 128 (262144)
I0224 06:53:15.503424   622 net.cpp:205] Memory required for data: 516947972
I0224 06:53:15.503427   622 layer_factory.hpp:123] Creating layer ConvNd_26
I0224 06:53:15.503433   622 net.cpp:140] Creating Layer ConvNd_26
I0224 06:53:15.503437   622 net.cpp:481] ConvNd_26 <- BatchNorm_23
I0224 06:53:15.503443   622 net.cpp:455] ConvNd_26 -> ConvNd_26
I0224 06:53:15.503615   622 net.cpp:190] Setting up ConvNd_26
I0224 06:53:15.503621   622 net.cpp:197] Top shape: 1 32 64 128 (262144)
I0224 06:53:15.503626   622 net.cpp:205] Memory required for data: 517996548
I0224 06:53:15.503631   622 layer_factory.hpp:123] Creating layer BatchNorm_24
I0224 06:53:15.503638   622 net.cpp:140] Creating Layer BatchNorm_24
I0224 06:53:15.503643   622 net.cpp:481] BatchNorm_24 <- ConvNd_26
I0224 06:53:15.503648   622 net.cpp:455] BatchNorm_24 -> BatchNorm_24
I0224 06:53:15.504217   622 net.cpp:190] Setting up BatchNorm_24
I0224 06:53:15.504225   622 net.cpp:197] Top shape: 1 32 64 128 (262144)
I0224 06:53:15.504230   622 net.cpp:205] Memory required for data: 519045124
I0224 06:53:15.504237   622 layer_factory.hpp:123] Creating layer Threshold_31
I0224 06:53:15.504242   622 net.cpp:140] Creating Layer Threshold_31
I0224 06:53:15.504245   622 net.cpp:481] Threshold_31 <- BatchNorm_24
I0224 06:53:15.504251   622 net.cpp:442] Threshold_31 -> BatchNorm_24 (in-place)
I0224 06:53:15.504256   622 net.cpp:190] Setting up Threshold_31
I0224 06:53:15.504261   622 net.cpp:197] Top shape: 1 32 64 128 (262144)
I0224 06:53:15.504266   622 net.cpp:205] Memory required for data: 520093700
I0224 06:53:15.504268   622 layer_factory.hpp:123] Creating layer ConvNd_27
I0224 06:53:15.504274   622 net.cpp:140] Creating Layer ConvNd_27
I0224 06:53:15.504277   622 net.cpp:481] ConvNd_27 <- BatchNorm_24
I0224 06:53:15.504282   622 net.cpp:455] ConvNd_27 -> ConvNd_27
I0224 06:53:15.504447   622 net.cpp:190] Setting up ConvNd_27
I0224 06:53:15.504454   622 net.cpp:197] Top shape: 1 128 64 128 (1048576)
I0224 06:53:15.504459   622 net.cpp:205] Memory required for data: 524288004
I0224 06:53:15.504464   622 layer_factory.hpp:123] Creating layer BatchNorm_25
I0224 06:53:15.504472   622 net.cpp:140] Creating Layer BatchNorm_25
I0224 06:53:15.504475   622 net.cpp:481] BatchNorm_25 <- ConvNd_27
I0224 06:53:15.504480   622 net.cpp:455] BatchNorm_25 -> BatchNorm_25
I0224 06:53:15.504978   622 net.cpp:190] Setting up BatchNorm_25
I0224 06:53:15.504985   622 net.cpp:197] Top shape: 1 128 64 128 (1048576)
I0224 06:53:15.504990   622 net.cpp:205] Memory required for data: 528482308
I0224 06:53:15.504998   622 layer_factory.hpp:123] Creating layer Threshold_32
I0224 06:53:15.505003   622 net.cpp:140] Creating Layer Threshold_32
I0224 06:53:15.505007   622 net.cpp:481] Threshold_32 <- BatchNorm_25
I0224 06:53:15.505012   622 net.cpp:442] Threshold_32 -> BatchNorm_25 (in-place)
I0224 06:53:15.505017   622 net.cpp:190] Setting up Threshold_32
I0224 06:53:15.505020   622 net.cpp:197] Top shape: 1 128 64 128 (1048576)
I0224 06:53:15.505024   622 net.cpp:205] Memory required for data: 532676612
I0224 06:53:15.505028   622 layer_factory.hpp:123] Creating layer Add_8
I0224 06:53:15.505033   622 net.cpp:140] Creating Layer Add_8
I0224 06:53:15.505036   622 net.cpp:481] Add_8 <- Add_7_Threshold_29_0_split_1
I0224 06:53:15.505040   622 net.cpp:481] Add_8 <- BatchNorm_25
I0224 06:53:15.505044   622 net.cpp:455] Add_8 -> Add_8
I0224 06:53:15.505064   622 net.cpp:190] Setting up Add_8
I0224 06:53:15.505067   622 net.cpp:197] Top shape: 1 128 64 128 (1048576)
I0224 06:53:15.505072   622 net.cpp:205] Memory required for data: 536870916
I0224 06:53:15.505076   622 layer_factory.hpp:123] Creating layer Threshold_33
I0224 06:53:15.505080   622 net.cpp:140] Creating Layer Threshold_33
I0224 06:53:15.505084   622 net.cpp:481] Threshold_33 <- Add_8
I0224 06:53:15.505087   622 net.cpp:442] Threshold_33 -> Add_8 (in-place)
I0224 06:53:15.505092   622 net.cpp:190] Setting up Threshold_33
I0224 06:53:15.505095   622 net.cpp:197] Top shape: 1 128 64 128 (1048576)
I0224 06:53:15.505100   622 net.cpp:205] Memory required for data: 541065220
I0224 06:53:15.505103   622 layer_factory.hpp:123] Creating layer Add_8_Threshold_33_0_split
I0224 06:53:15.505107   622 net.cpp:140] Creating Layer Add_8_Threshold_33_0_split
I0224 06:53:15.505111   622 net.cpp:481] Add_8_Threshold_33_0_split <- Add_8
I0224 06:53:15.505115   622 net.cpp:455] Add_8_Threshold_33_0_split -> Add_8_Threshold_33_0_split_0
I0224 06:53:15.505121   622 net.cpp:455] Add_8_Threshold_33_0_split -> Add_8_Threshold_33_0_split_1
I0224 06:53:15.505148   622 net.cpp:190] Setting up Add_8_Threshold_33_0_split
I0224 06:53:15.505154   622 net.cpp:197] Top shape: 1 128 64 128 (1048576)
I0224 06:53:15.505159   622 net.cpp:197] Top shape: 1 128 64 128 (1048576)
I0224 06:53:15.505163   622 net.cpp:205] Memory required for data: 549453828
I0224 06:53:15.505167   622 layer_factory.hpp:123] Creating layer ConvNd_28
I0224 06:53:15.505173   622 net.cpp:140] Creating Layer ConvNd_28
I0224 06:53:15.505177   622 net.cpp:481] ConvNd_28 <- Add_8_Threshold_33_0_split_0
I0224 06:53:15.505182   622 net.cpp:455] ConvNd_28 -> ConvNd_28
I0224 06:53:15.505357   622 net.cpp:190] Setting up ConvNd_28
I0224 06:53:15.505364   622 net.cpp:197] Top shape: 1 32 64 128 (262144)
I0224 06:53:15.505369   622 net.cpp:205] Memory required for data: 550502404
I0224 06:53:15.505374   622 layer_factory.hpp:123] Creating layer BatchNorm_26
I0224 06:53:15.505380   622 net.cpp:140] Creating Layer BatchNorm_26
I0224 06:53:15.505384   622 net.cpp:481] BatchNorm_26 <- ConvNd_28
I0224 06:53:15.505389   622 net.cpp:455] BatchNorm_26 -> BatchNorm_26
I0224 06:53:15.505972   622 net.cpp:190] Setting up BatchNorm_26
I0224 06:53:15.505980   622 net.cpp:197] Top shape: 1 32 64 128 (262144)
I0224 06:53:15.505985   622 net.cpp:205] Memory required for data: 551550980
I0224 06:53:15.505993   622 layer_factory.hpp:123] Creating layer Threshold_34
I0224 06:53:15.505998   622 net.cpp:140] Creating Layer Threshold_34
I0224 06:53:15.506001   622 net.cpp:481] Threshold_34 <- BatchNorm_26
I0224 06:53:15.506006   622 net.cpp:442] Threshold_34 -> BatchNorm_26 (in-place)
I0224 06:53:15.506012   622 net.cpp:190] Setting up Threshold_34
I0224 06:53:15.506016   622 net.cpp:197] Top shape: 1 32 64 128 (262144)
I0224 06:53:15.506019   622 net.cpp:205] Memory required for data: 552599556
I0224 06:53:15.506023   622 layer_factory.hpp:123] Creating layer ConvNd_29
I0224 06:53:15.506028   622 net.cpp:140] Creating Layer ConvNd_29
I0224 06:53:15.506032   622 net.cpp:481] ConvNd_29 <- BatchNorm_26
I0224 06:53:15.506036   622 net.cpp:455] ConvNd_29 -> ConvNd_29
I0224 06:53:15.506899   622 net.cpp:190] Setting up ConvNd_29
I0224 06:53:15.506911   622 net.cpp:197] Top shape: 1 32 64 128 (262144)
I0224 06:53:15.506916   622 net.cpp:205] Memory required for data: 553648132
I0224 06:53:15.506922   622 layer_factory.hpp:123] Creating layer BatchNorm_27
I0224 06:53:15.506930   622 net.cpp:140] Creating Layer BatchNorm_27
I0224 06:53:15.506934   622 net.cpp:481] BatchNorm_27 <- ConvNd_29
I0224 06:53:15.506940   622 net.cpp:455] BatchNorm_27 -> BatchNorm_27
I0224 06:53:15.507555   622 net.cpp:190] Setting up BatchNorm_27
I0224 06:53:15.507565   622 net.cpp:197] Top shape: 1 32 64 128 (262144)
I0224 06:53:15.507571   622 net.cpp:205] Memory required for data: 554696708
I0224 06:53:15.507580   622 layer_factory.hpp:123] Creating layer Threshold_35
I0224 06:53:15.507586   622 net.cpp:140] Creating Layer Threshold_35
I0224 06:53:15.507591   622 net.cpp:481] Threshold_35 <- BatchNorm_27
I0224 06:53:15.507596   622 net.cpp:442] Threshold_35 -> BatchNorm_27 (in-place)
I0224 06:53:15.507602   622 net.cpp:190] Setting up Threshold_35
I0224 06:53:15.507606   622 net.cpp:197] Top shape: 1 32 64 128 (262144)
I0224 06:53:15.507609   622 net.cpp:205] Memory required for data: 555745284
I0224 06:53:15.507612   622 layer_factory.hpp:123] Creating layer ConvNd_30
I0224 06:53:15.507619   622 net.cpp:140] Creating Layer ConvNd_30
I0224 06:53:15.507622   622 net.cpp:481] ConvNd_30 <- BatchNorm_27
I0224 06:53:15.507627   622 net.cpp:455] ConvNd_30 -> ConvNd_30
I0224 06:53:15.507802   622 net.cpp:190] Setting up ConvNd_30
I0224 06:53:15.507809   622 net.cpp:197] Top shape: 1 32 64 128 (262144)
I0224 06:53:15.507814   622 net.cpp:205] Memory required for data: 556793860
I0224 06:53:15.507819   622 layer_factory.hpp:123] Creating layer BatchNorm_28
I0224 06:53:15.507827   622 net.cpp:140] Creating Layer BatchNorm_28
I0224 06:53:15.507829   622 net.cpp:481] BatchNorm_28 <- ConvNd_30
I0224 06:53:15.507834   622 net.cpp:455] BatchNorm_28 -> BatchNorm_28
I0224 06:53:15.508416   622 net.cpp:190] Setting up BatchNorm_28
I0224 06:53:15.508424   622 net.cpp:197] Top shape: 1 32 64 128 (262144)
I0224 06:53:15.508428   622 net.cpp:205] Memory required for data: 557842436
I0224 06:53:15.508436   622 layer_factory.hpp:123] Creating layer Threshold_36
I0224 06:53:15.508441   622 net.cpp:140] Creating Layer Threshold_36
I0224 06:53:15.508445   622 net.cpp:481] Threshold_36 <- BatchNorm_28
I0224 06:53:15.508450   622 net.cpp:442] Threshold_36 -> BatchNorm_28 (in-place)
I0224 06:53:15.508455   622 net.cpp:190] Setting up Threshold_36
I0224 06:53:15.508460   622 net.cpp:197] Top shape: 1 32 64 128 (262144)
I0224 06:53:15.508464   622 net.cpp:205] Memory required for data: 558891012
I0224 06:53:15.508468   622 layer_factory.hpp:123] Creating layer ConvNd_31
I0224 06:53:15.508474   622 net.cpp:140] Creating Layer ConvNd_31
I0224 06:53:15.508477   622 net.cpp:481] ConvNd_31 <- BatchNorm_28
I0224 06:53:15.508482   622 net.cpp:455] ConvNd_31 -> ConvNd_31
I0224 06:53:15.508647   622 net.cpp:190] Setting up ConvNd_31
I0224 06:53:15.508654   622 net.cpp:197] Top shape: 1 128 64 128 (1048576)
I0224 06:53:15.508659   622 net.cpp:205] Memory required for data: 563085316
I0224 06:53:15.508664   622 layer_factory.hpp:123] Creating layer BatchNorm_29
I0224 06:53:15.508671   622 net.cpp:140] Creating Layer BatchNorm_29
I0224 06:53:15.508675   622 net.cpp:481] BatchNorm_29 <- ConvNd_31
I0224 06:53:15.508680   622 net.cpp:455] BatchNorm_29 -> BatchNorm_29
I0224 06:53:15.509171   622 net.cpp:190] Setting up BatchNorm_29
I0224 06:53:15.509179   622 net.cpp:197] Top shape: 1 128 64 128 (1048576)
I0224 06:53:15.509184   622 net.cpp:205] Memory required for data: 567279620
I0224 06:53:15.509192   622 layer_factory.hpp:123] Creating layer Threshold_37
I0224 06:53:15.509197   622 net.cpp:140] Creating Layer Threshold_37
I0224 06:53:15.509202   622 net.cpp:481] Threshold_37 <- BatchNorm_29
I0224 06:53:15.509205   622 net.cpp:442] Threshold_37 -> BatchNorm_29 (in-place)
I0224 06:53:15.509212   622 net.cpp:190] Setting up Threshold_37
I0224 06:53:15.509217   622 net.cpp:197] Top shape: 1 128 64 128 (1048576)
I0224 06:53:15.509220   622 net.cpp:205] Memory required for data: 571473924
I0224 06:53:15.509223   622 layer_factory.hpp:123] Creating layer Add_9
I0224 06:53:15.509228   622 net.cpp:140] Creating Layer Add_9
I0224 06:53:15.509232   622 net.cpp:481] Add_9 <- Add_8_Threshold_33_0_split_1
I0224 06:53:15.509235   622 net.cpp:481] Add_9 <- BatchNorm_29
I0224 06:53:15.509240   622 net.cpp:455] Add_9 -> Add_9
I0224 06:53:15.509259   622 net.cpp:190] Setting up Add_9
I0224 06:53:15.509263   622 net.cpp:197] Top shape: 1 128 64 128 (1048576)
I0224 06:53:15.509268   622 net.cpp:205] Memory required for data: 575668228
I0224 06:53:15.509271   622 layer_factory.hpp:123] Creating layer Threshold_38
I0224 06:53:15.509275   622 net.cpp:140] Creating Layer Threshold_38
I0224 06:53:15.509279   622 net.cpp:481] Threshold_38 <- Add_9
I0224 06:53:15.509284   622 net.cpp:442] Threshold_38 -> Add_9 (in-place)
I0224 06:53:15.509289   622 net.cpp:190] Setting up Threshold_38
I0224 06:53:15.509291   622 net.cpp:197] Top shape: 1 128 64 128 (1048576)
I0224 06:53:15.509296   622 net.cpp:205] Memory required for data: 579862532
I0224 06:53:15.509299   622 layer_factory.hpp:123] Creating layer Add_9_Threshold_38_0_split
I0224 06:53:15.509305   622 net.cpp:140] Creating Layer Add_9_Threshold_38_0_split
I0224 06:53:15.509307   622 net.cpp:481] Add_9_Threshold_38_0_split <- Add_9
I0224 06:53:15.509312   622 net.cpp:455] Add_9_Threshold_38_0_split -> Add_9_Threshold_38_0_split_0
I0224 06:53:15.509323   622 net.cpp:455] Add_9_Threshold_38_0_split -> Add_9_Threshold_38_0_split_1
I0224 06:53:15.509353   622 net.cpp:190] Setting up Add_9_Threshold_38_0_split
I0224 06:53:15.509359   622 net.cpp:197] Top shape: 1 128 64 128 (1048576)
I0224 06:53:15.509364   622 net.cpp:197] Top shape: 1 128 64 128 (1048576)
I0224 06:53:15.509369   622 net.cpp:205] Memory required for data: 588251140
I0224 06:53:15.509372   622 layer_factory.hpp:123] Creating layer ConvNd_32
I0224 06:53:15.509378   622 net.cpp:140] Creating Layer ConvNd_32
I0224 06:53:15.509382   622 net.cpp:481] ConvNd_32 <- Add_9_Threshold_38_0_split_0
I0224 06:53:15.509387   622 net.cpp:455] ConvNd_32 -> ConvNd_32
I0224 06:53:15.509550   622 net.cpp:190] Setting up ConvNd_32
I0224 06:53:15.509564   622 net.cpp:197] Top shape: 1 32 64 128 (262144)
I0224 06:53:15.509569   622 net.cpp:205] Memory required for data: 589299716
I0224 06:53:15.509574   622 layer_factory.hpp:123] Creating layer BatchNorm_30
I0224 06:53:15.509580   622 net.cpp:140] Creating Layer BatchNorm_30
I0224 06:53:15.509584   622 net.cpp:481] BatchNorm_30 <- ConvNd_32
I0224 06:53:15.509589   622 net.cpp:455] BatchNorm_30 -> BatchNorm_30
I0224 06:53:15.510169   622 net.cpp:190] Setting up BatchNorm_30
I0224 06:53:15.510177   622 net.cpp:197] Top shape: 1 32 64 128 (262144)
I0224 06:53:15.510182   622 net.cpp:205] Memory required for data: 590348292
I0224 06:53:15.510190   622 layer_factory.hpp:123] Creating layer Threshold_39
I0224 06:53:15.510195   622 net.cpp:140] Creating Layer Threshold_39
I0224 06:53:15.510198   622 net.cpp:481] Threshold_39 <- BatchNorm_30
I0224 06:53:15.510203   622 net.cpp:442] Threshold_39 -> BatchNorm_30 (in-place)
I0224 06:53:15.510210   622 net.cpp:190] Setting up Threshold_39
I0224 06:53:15.510213   622 net.cpp:197] Top shape: 1 32 64 128 (262144)
I0224 06:53:15.510218   622 net.cpp:205] Memory required for data: 591396868
I0224 06:53:15.510221   622 layer_factory.hpp:123] Creating layer ConvNd_33
I0224 06:53:15.510227   622 net.cpp:140] Creating Layer ConvNd_33
I0224 06:53:15.510231   622 net.cpp:481] ConvNd_33 <- BatchNorm_30
I0224 06:53:15.510236   622 net.cpp:455] ConvNd_33 -> ConvNd_33
I0224 06:53:15.510401   622 net.cpp:190] Setting up ConvNd_33
I0224 06:53:15.510407   622 net.cpp:197] Top shape: 1 32 64 128 (262144)
I0224 06:53:15.510412   622 net.cpp:205] Memory required for data: 592445444
I0224 06:53:15.510416   622 layer_factory.hpp:123] Creating layer BatchNorm_31
I0224 06:53:15.510423   622 net.cpp:140] Creating Layer BatchNorm_31
I0224 06:53:15.510427   622 net.cpp:481] BatchNorm_31 <- ConvNd_33
I0224 06:53:15.510432   622 net.cpp:455] BatchNorm_31 -> BatchNorm_31
I0224 06:53:15.511006   622 net.cpp:190] Setting up BatchNorm_31
I0224 06:53:15.511013   622 net.cpp:197] Top shape: 1 32 64 128 (262144)
I0224 06:53:15.511018   622 net.cpp:205] Memory required for data: 593494020
I0224 06:53:15.511026   622 layer_factory.hpp:123] Creating layer Threshold_40
I0224 06:53:15.511034   622 net.cpp:140] Creating Layer Threshold_40
I0224 06:53:15.511039   622 net.cpp:481] Threshold_40 <- BatchNorm_31
I0224 06:53:15.511044   622 net.cpp:442] Threshold_40 -> BatchNorm_31 (in-place)
I0224 06:53:15.511049   622 net.cpp:190] Setting up Threshold_40
I0224 06:53:15.511052   622 net.cpp:197] Top shape: 1 32 64 128 (262144)
I0224 06:53:15.511056   622 net.cpp:205] Memory required for data: 594542596
I0224 06:53:15.511060   622 layer_factory.hpp:123] Creating layer ConvNd_34
I0224 06:53:15.511066   622 net.cpp:140] Creating Layer ConvNd_34
I0224 06:53:15.511070   622 net.cpp:481] ConvNd_34 <- BatchNorm_31
I0224 06:53:15.511073   622 net.cpp:455] ConvNd_34 -> ConvNd_34
I0224 06:53:15.511237   622 net.cpp:190] Setting up ConvNd_34
I0224 06:53:15.511245   622 net.cpp:197] Top shape: 1 128 64 128 (1048576)
I0224 06:53:15.511250   622 net.cpp:205] Memory required for data: 598736900
I0224 06:53:15.511255   622 layer_factory.hpp:123] Creating layer BatchNorm_32
I0224 06:53:15.511261   622 net.cpp:140] Creating Layer BatchNorm_32
I0224 06:53:15.511265   622 net.cpp:481] BatchNorm_32 <- ConvNd_34
I0224 06:53:15.511270   622 net.cpp:455] BatchNorm_32 -> BatchNorm_32
I0224 06:53:15.511760   622 net.cpp:190] Setting up BatchNorm_32
I0224 06:53:15.511766   622 net.cpp:197] Top shape: 1 128 64 128 (1048576)
I0224 06:53:15.511771   622 net.cpp:205] Memory required for data: 602931204
I0224 06:53:15.511780   622 layer_factory.hpp:123] Creating layer Threshold_41
I0224 06:53:15.511785   622 net.cpp:140] Creating Layer Threshold_41
I0224 06:53:15.511788   622 net.cpp:481] Threshold_41 <- BatchNorm_32
I0224 06:53:15.511792   622 net.cpp:442] Threshold_41 -> BatchNorm_32 (in-place)
I0224 06:53:15.511798   622 net.cpp:190] Setting up Threshold_41
I0224 06:53:15.511801   622 net.cpp:197] Top shape: 1 128 64 128 (1048576)
I0224 06:53:15.511806   622 net.cpp:205] Memory required for data: 607125508
I0224 06:53:15.511809   622 layer_factory.hpp:123] Creating layer Add_10
I0224 06:53:15.511814   622 net.cpp:140] Creating Layer Add_10
I0224 06:53:15.511818   622 net.cpp:481] Add_10 <- Add_9_Threshold_38_0_split_1
I0224 06:53:15.511822   622 net.cpp:481] Add_10 <- BatchNorm_32
I0224 06:53:15.511826   622 net.cpp:455] Add_10 -> Add_10
I0224 06:53:15.511845   622 net.cpp:190] Setting up Add_10
I0224 06:53:15.511849   622 net.cpp:197] Top shape: 1 128 64 128 (1048576)
I0224 06:53:15.511854   622 net.cpp:205] Memory required for data: 611319812
I0224 06:53:15.511857   622 layer_factory.hpp:123] Creating layer Threshold_42
I0224 06:53:15.511862   622 net.cpp:140] Creating Layer Threshold_42
I0224 06:53:15.511865   622 net.cpp:481] Threshold_42 <- Add_10
I0224 06:53:15.511869   622 net.cpp:442] Threshold_42 -> Add_10 (in-place)
I0224 06:53:15.511874   622 net.cpp:190] Setting up Threshold_42
I0224 06:53:15.511878   622 net.cpp:197] Top shape: 1 128 64 128 (1048576)
I0224 06:53:15.511881   622 net.cpp:205] Memory required for data: 615514116
I0224 06:53:15.511885   622 layer_factory.hpp:123] Creating layer Add_10_Threshold_42_0_split
I0224 06:53:15.511890   622 net.cpp:140] Creating Layer Add_10_Threshold_42_0_split
I0224 06:53:15.511893   622 net.cpp:481] Add_10_Threshold_42_0_split <- Add_10
I0224 06:53:15.511898   622 net.cpp:455] Add_10_Threshold_42_0_split -> Add_10_Threshold_42_0_split_0
I0224 06:53:15.511904   622 net.cpp:455] Add_10_Threshold_42_0_split -> Add_10_Threshold_42_0_split_1
I0224 06:53:15.511931   622 net.cpp:190] Setting up Add_10_Threshold_42_0_split
I0224 06:53:15.511936   622 net.cpp:197] Top shape: 1 128 64 128 (1048576)
I0224 06:53:15.511941   622 net.cpp:197] Top shape: 1 128 64 128 (1048576)
I0224 06:53:15.511945   622 net.cpp:205] Memory required for data: 623902724
I0224 06:53:15.511948   622 layer_factory.hpp:123] Creating layer ConvNd_35
I0224 06:53:15.511955   622 net.cpp:140] Creating Layer ConvNd_35
I0224 06:53:15.511958   622 net.cpp:481] ConvNd_35 <- Add_10_Threshold_42_0_split_0
I0224 06:53:15.511963   622 net.cpp:455] ConvNd_35 -> ConvNd_35
I0224 06:53:15.512125   622 net.cpp:190] Setting up ConvNd_35
I0224 06:53:15.512132   622 net.cpp:197] Top shape: 1 32 64 128 (262144)
I0224 06:53:15.512137   622 net.cpp:205] Memory required for data: 624951300
I0224 06:53:15.512141   622 layer_factory.hpp:123] Creating layer BatchNorm_33
I0224 06:53:15.512148   622 net.cpp:140] Creating Layer BatchNorm_33
I0224 06:53:15.512152   622 net.cpp:481] BatchNorm_33 <- ConvNd_35
I0224 06:53:15.512157   622 net.cpp:455] BatchNorm_33 -> BatchNorm_33
I0224 06:53:15.512730   622 net.cpp:190] Setting up BatchNorm_33
I0224 06:53:15.512737   622 net.cpp:197] Top shape: 1 32 64 128 (262144)
I0224 06:53:15.512742   622 net.cpp:205] Memory required for data: 625999876
I0224 06:53:15.512750   622 layer_factory.hpp:123] Creating layer Threshold_43
I0224 06:53:15.512755   622 net.cpp:140] Creating Layer Threshold_43
I0224 06:53:15.512758   622 net.cpp:481] Threshold_43 <- BatchNorm_33
I0224 06:53:15.512763   622 net.cpp:442] Threshold_43 -> BatchNorm_33 (in-place)
I0224 06:53:15.512769   622 net.cpp:190] Setting up Threshold_43
I0224 06:53:15.512773   622 net.cpp:197] Top shape: 1 32 64 128 (262144)
I0224 06:53:15.512776   622 net.cpp:205] Memory required for data: 627048452
I0224 06:53:15.512780   622 layer_factory.hpp:123] Creating layer ConvNd_36
I0224 06:53:15.512786   622 net.cpp:140] Creating Layer ConvNd_36
I0224 06:53:15.512789   622 net.cpp:481] ConvNd_36 <- BatchNorm_33
I0224 06:53:15.512794   622 net.cpp:455] ConvNd_36 -> ConvNd_36
I0224 06:53:15.512965   622 net.cpp:190] Setting up ConvNd_36
I0224 06:53:15.512974   622 net.cpp:197] Top shape: 1 32 64 128 (262144)
I0224 06:53:15.512979   622 net.cpp:205] Memory required for data: 628097028
I0224 06:53:15.512984   622 layer_factory.hpp:123] Creating layer BatchNorm_34
I0224 06:53:15.512989   622 net.cpp:140] Creating Layer BatchNorm_34
I0224 06:53:15.512993   622 net.cpp:481] BatchNorm_34 <- ConvNd_36
I0224 06:53:15.512998   622 net.cpp:455] BatchNorm_34 -> BatchNorm_34
I0224 06:53:15.513581   622 net.cpp:190] Setting up BatchNorm_34
I0224 06:53:15.513588   622 net.cpp:197] Top shape: 1 32 64 128 (262144)
I0224 06:53:15.513593   622 net.cpp:205] Memory required for data: 629145604
I0224 06:53:15.513602   622 layer_factory.hpp:123] Creating layer Threshold_44
I0224 06:53:15.513607   622 net.cpp:140] Creating Layer Threshold_44
I0224 06:53:15.513610   622 net.cpp:481] Threshold_44 <- BatchNorm_34
I0224 06:53:15.513615   622 net.cpp:442] Threshold_44 -> BatchNorm_34 (in-place)
I0224 06:53:15.513622   622 net.cpp:190] Setting up Threshold_44
I0224 06:53:15.513624   622 net.cpp:197] Top shape: 1 32 64 128 (262144)
I0224 06:53:15.513628   622 net.cpp:205] Memory required for data: 630194180
I0224 06:53:15.513633   622 layer_factory.hpp:123] Creating layer ConvNd_37
I0224 06:53:15.513638   622 net.cpp:140] Creating Layer ConvNd_37
I0224 06:53:15.513641   622 net.cpp:481] ConvNd_37 <- BatchNorm_34
I0224 06:53:15.513646   622 net.cpp:455] ConvNd_37 -> ConvNd_37
I0224 06:53:15.513810   622 net.cpp:190] Setting up ConvNd_37
I0224 06:53:15.513818   622 net.cpp:197] Top shape: 1 128 64 128 (1048576)
I0224 06:53:15.513823   622 net.cpp:205] Memory required for data: 634388484
I0224 06:53:15.513828   622 layer_factory.hpp:123] Creating layer BatchNorm_35
I0224 06:53:15.513834   622 net.cpp:140] Creating Layer BatchNorm_35
I0224 06:53:15.513837   622 net.cpp:481] BatchNorm_35 <- ConvNd_37
I0224 06:53:15.513842   622 net.cpp:455] BatchNorm_35 -> BatchNorm_35
I0224 06:53:15.514335   622 net.cpp:190] Setting up BatchNorm_35
I0224 06:53:15.514343   622 net.cpp:197] Top shape: 1 128 64 128 (1048576)
I0224 06:53:15.514348   622 net.cpp:205] Memory required for data: 638582788
I0224 06:53:15.514356   622 layer_factory.hpp:123] Creating layer Threshold_45
I0224 06:53:15.514361   622 net.cpp:140] Creating Layer Threshold_45
I0224 06:53:15.514365   622 net.cpp:481] Threshold_45 <- BatchNorm_35
I0224 06:53:15.514369   622 net.cpp:442] Threshold_45 -> BatchNorm_35 (in-place)
I0224 06:53:15.514375   622 net.cpp:190] Setting up Threshold_45
I0224 06:53:15.514379   622 net.cpp:197] Top shape: 1 128 64 128 (1048576)
I0224 06:53:15.514384   622 net.cpp:205] Memory required for data: 642777092
I0224 06:53:15.514386   622 layer_factory.hpp:123] Creating layer Add_11
I0224 06:53:15.514391   622 net.cpp:140] Creating Layer Add_11
I0224 06:53:15.514394   622 net.cpp:481] Add_11 <- Add_10_Threshold_42_0_split_1
I0224 06:53:15.514398   622 net.cpp:481] Add_11 <- BatchNorm_35
I0224 06:53:15.514403   622 net.cpp:455] Add_11 -> Add_11
I0224 06:53:15.514422   622 net.cpp:190] Setting up Add_11
I0224 06:53:15.514426   622 net.cpp:197] Top shape: 1 128 64 128 (1048576)
I0224 06:53:15.514431   622 net.cpp:205] Memory required for data: 646971396
I0224 06:53:15.514434   622 layer_factory.hpp:123] Creating layer Threshold_46
I0224 06:53:15.514438   622 net.cpp:140] Creating Layer Threshold_46
I0224 06:53:15.514442   622 net.cpp:481] Threshold_46 <- Add_11
I0224 06:53:15.514446   622 net.cpp:442] Threshold_46 -> Add_11 (in-place)
I0224 06:53:15.514451   622 net.cpp:190] Setting up Threshold_46
I0224 06:53:15.514456   622 net.cpp:197] Top shape: 1 128 64 128 (1048576)
I0224 06:53:15.514459   622 net.cpp:205] Memory required for data: 651165700
I0224 06:53:15.514462   622 layer_factory.hpp:123] Creating layer Add_11_Threshold_46_0_split
I0224 06:53:15.514467   622 net.cpp:140] Creating Layer Add_11_Threshold_46_0_split
I0224 06:53:15.514470   622 net.cpp:481] Add_11_Threshold_46_0_split <- Add_11
I0224 06:53:15.514475   622 net.cpp:455] Add_11_Threshold_46_0_split -> Add_11_Threshold_46_0_split_0
I0224 06:53:15.514480   622 net.cpp:455] Add_11_Threshold_46_0_split -> Add_11_Threshold_46_0_split_1
I0224 06:53:15.514508   622 net.cpp:190] Setting up Add_11_Threshold_46_0_split
I0224 06:53:15.514513   622 net.cpp:197] Top shape: 1 128 64 128 (1048576)
I0224 06:53:15.514518   622 net.cpp:197] Top shape: 1 128 64 128 (1048576)
I0224 06:53:15.514523   622 net.cpp:205] Memory required for data: 659554308
I0224 06:53:15.514526   622 layer_factory.hpp:123] Creating layer ConvNd_38
I0224 06:53:15.514533   622 net.cpp:140] Creating Layer ConvNd_38
I0224 06:53:15.514535   622 net.cpp:481] ConvNd_38 <- Add_11_Threshold_46_0_split_0
I0224 06:53:15.514540   622 net.cpp:455] ConvNd_38 -> ConvNd_38
I0224 06:53:15.514703   622 net.cpp:190] Setting up ConvNd_38
I0224 06:53:15.514709   622 net.cpp:197] Top shape: 1 32 64 128 (262144)
I0224 06:53:15.514714   622 net.cpp:205] Memory required for data: 660602884
I0224 06:53:15.514719   622 layer_factory.hpp:123] Creating layer BatchNorm_36
I0224 06:53:15.514725   622 net.cpp:140] Creating Layer BatchNorm_36
I0224 06:53:15.514729   622 net.cpp:481] BatchNorm_36 <- ConvNd_38
I0224 06:53:15.514734   622 net.cpp:455] BatchNorm_36 -> BatchNorm_36
I0224 06:53:15.515309   622 net.cpp:190] Setting up BatchNorm_36
I0224 06:53:15.515317   622 net.cpp:197] Top shape: 1 32 64 128 (262144)
I0224 06:53:15.515322   622 net.cpp:205] Memory required for data: 661651460
I0224 06:53:15.515331   622 layer_factory.hpp:123] Creating layer Threshold_47
I0224 06:53:15.515336   622 net.cpp:140] Creating Layer Threshold_47
I0224 06:53:15.515338   622 net.cpp:481] Threshold_47 <- BatchNorm_36
I0224 06:53:15.515343   622 net.cpp:442] Threshold_47 -> BatchNorm_36 (in-place)
I0224 06:53:15.515349   622 net.cpp:190] Setting up Threshold_47
I0224 06:53:15.515352   622 net.cpp:197] Top shape: 1 32 64 128 (262144)
I0224 06:53:15.515357   622 net.cpp:205] Memory required for data: 662700036
I0224 06:53:15.515359   622 layer_factory.hpp:123] Creating layer ConvNd_39
I0224 06:53:15.515365   622 net.cpp:140] Creating Layer ConvNd_39
I0224 06:53:15.515369   622 net.cpp:481] ConvNd_39 <- BatchNorm_36
I0224 06:53:15.515373   622 net.cpp:455] ConvNd_39 -> ConvNd_39
I0224 06:53:15.515542   622 net.cpp:190] Setting up ConvNd_39
I0224 06:53:15.515548   622 net.cpp:197] Top shape: 1 32 64 128 (262144)
I0224 06:53:15.515553   622 net.cpp:205] Memory required for data: 663748612
I0224 06:53:15.515558   622 layer_factory.hpp:123] Creating layer BatchNorm_37
I0224 06:53:15.515564   622 net.cpp:140] Creating Layer BatchNorm_37
I0224 06:53:15.515568   622 net.cpp:481] BatchNorm_37 <- ConvNd_39
I0224 06:53:15.515574   622 net.cpp:455] BatchNorm_37 -> BatchNorm_37
I0224 06:53:15.516145   622 net.cpp:190] Setting up BatchNorm_37
I0224 06:53:15.516153   622 net.cpp:197] Top shape: 1 32 64 128 (262144)
I0224 06:53:15.516158   622 net.cpp:205] Memory required for data: 664797188
I0224 06:53:15.516166   622 layer_factory.hpp:123] Creating layer Threshold_48
I0224 06:53:15.516171   622 net.cpp:140] Creating Layer Threshold_48
I0224 06:53:15.516175   622 net.cpp:481] Threshold_48 <- BatchNorm_37
I0224 06:53:15.516180   622 net.cpp:442] Threshold_48 -> BatchNorm_37 (in-place)
I0224 06:53:15.516185   622 net.cpp:190] Setting up Threshold_48
I0224 06:53:15.516188   622 net.cpp:197] Top shape: 1 32 64 128 (262144)
I0224 06:53:15.516192   622 net.cpp:205] Memory required for data: 665845764
I0224 06:53:15.516196   622 layer_factory.hpp:123] Creating layer ConvNd_40
I0224 06:53:15.516201   622 net.cpp:140] Creating Layer ConvNd_40
I0224 06:53:15.516204   622 net.cpp:481] ConvNd_40 <- BatchNorm_37
I0224 06:53:15.516209   622 net.cpp:455] ConvNd_40 -> ConvNd_40
I0224 06:53:15.516373   622 net.cpp:190] Setting up ConvNd_40
I0224 06:53:15.516381   622 net.cpp:197] Top shape: 1 128 64 128 (1048576)
I0224 06:53:15.516386   622 net.cpp:205] Memory required for data: 670040068
I0224 06:53:15.516391   622 layer_factory.hpp:123] Creating layer BatchNorm_38
I0224 06:53:15.516396   622 net.cpp:140] Creating Layer BatchNorm_38
I0224 06:53:15.516400   622 net.cpp:481] BatchNorm_38 <- ConvNd_40
I0224 06:53:15.516405   622 net.cpp:455] BatchNorm_38 -> BatchNorm_38
I0224 06:53:15.516896   622 net.cpp:190] Setting up BatchNorm_38
I0224 06:53:15.516901   622 net.cpp:197] Top shape: 1 128 64 128 (1048576)
I0224 06:53:15.516906   622 net.cpp:205] Memory required for data: 674234372
I0224 06:53:15.516914   622 layer_factory.hpp:123] Creating layer Threshold_49
I0224 06:53:15.516919   622 net.cpp:140] Creating Layer Threshold_49
I0224 06:53:15.516923   622 net.cpp:481] Threshold_49 <- BatchNorm_38
I0224 06:53:15.516927   622 net.cpp:442] Threshold_49 -> BatchNorm_38 (in-place)
I0224 06:53:15.516933   622 net.cpp:190] Setting up Threshold_49
I0224 06:53:15.516937   622 net.cpp:197] Top shape: 1 128 64 128 (1048576)
I0224 06:53:15.516940   622 net.cpp:205] Memory required for data: 678428676
I0224 06:53:15.516944   622 layer_factory.hpp:123] Creating layer Add_12
I0224 06:53:15.516949   622 net.cpp:140] Creating Layer Add_12
I0224 06:53:15.516952   622 net.cpp:481] Add_12 <- Add_11_Threshold_46_0_split_1
I0224 06:53:15.516957   622 net.cpp:481] Add_12 <- BatchNorm_38
I0224 06:53:15.516961   622 net.cpp:455] Add_12 -> Add_12
I0224 06:53:15.516979   622 net.cpp:190] Setting up Add_12
I0224 06:53:15.516985   622 net.cpp:197] Top shape: 1 128 64 128 (1048576)
I0224 06:53:15.516990   622 net.cpp:205] Memory required for data: 682622980
I0224 06:53:15.516993   622 layer_factory.hpp:123] Creating layer Threshold_50
I0224 06:53:15.516999   622 net.cpp:140] Creating Layer Threshold_50
I0224 06:53:15.517001   622 net.cpp:481] Threshold_50 <- Add_12
I0224 06:53:15.517005   622 net.cpp:442] Threshold_50 -> Add_12 (in-place)
I0224 06:53:15.517011   622 net.cpp:190] Setting up Threshold_50
I0224 06:53:15.517014   622 net.cpp:197] Top shape: 1 128 64 128 (1048576)
I0224 06:53:15.517019   622 net.cpp:205] Memory required for data: 686817284
I0224 06:53:15.517021   622 layer_factory.hpp:123] Creating layer Add_12_Threshold_50_0_split
I0224 06:53:15.517026   622 net.cpp:140] Creating Layer Add_12_Threshold_50_0_split
I0224 06:53:15.517030   622 net.cpp:481] Add_12_Threshold_50_0_split <- Add_12
I0224 06:53:15.517035   622 net.cpp:455] Add_12_Threshold_50_0_split -> Add_12_Threshold_50_0_split_0
I0224 06:53:15.517040   622 net.cpp:455] Add_12_Threshold_50_0_split -> Add_12_Threshold_50_0_split_1
I0224 06:53:15.517067   622 net.cpp:190] Setting up Add_12_Threshold_50_0_split
I0224 06:53:15.517073   622 net.cpp:197] Top shape: 1 128 64 128 (1048576)
I0224 06:53:15.517077   622 net.cpp:197] Top shape: 1 128 64 128 (1048576)
I0224 06:53:15.517082   622 net.cpp:205] Memory required for data: 695205892
I0224 06:53:15.517086   622 layer_factory.hpp:123] Creating layer ConvNd_41
I0224 06:53:15.517091   622 net.cpp:140] Creating Layer ConvNd_41
I0224 06:53:15.517096   622 net.cpp:481] ConvNd_41 <- Add_12_Threshold_50_0_split_0
I0224 06:53:15.517100   622 net.cpp:455] ConvNd_41 -> ConvNd_41
I0224 06:53:15.517263   622 net.cpp:190] Setting up ConvNd_41
I0224 06:53:15.517271   622 net.cpp:197] Top shape: 1 32 64 128 (262144)
I0224 06:53:15.517275   622 net.cpp:205] Memory required for data: 696254468
I0224 06:53:15.517279   622 layer_factory.hpp:123] Creating layer BatchNorm_39
I0224 06:53:15.517287   622 net.cpp:140] Creating Layer BatchNorm_39
I0224 06:53:15.517289   622 net.cpp:481] BatchNorm_39 <- ConvNd_41
I0224 06:53:15.517294   622 net.cpp:455] BatchNorm_39 -> BatchNorm_39
I0224 06:53:15.517886   622 net.cpp:190] Setting up BatchNorm_39
I0224 06:53:15.517894   622 net.cpp:197] Top shape: 1 32 64 128 (262144)
I0224 06:53:15.517900   622 net.cpp:205] Memory required for data: 697303044
I0224 06:53:15.517908   622 layer_factory.hpp:123] Creating layer Threshold_51
I0224 06:53:15.517913   622 net.cpp:140] Creating Layer Threshold_51
I0224 06:53:15.517917   622 net.cpp:481] Threshold_51 <- BatchNorm_39
I0224 06:53:15.517921   622 net.cpp:442] Threshold_51 -> BatchNorm_39 (in-place)
I0224 06:53:15.517927   622 net.cpp:190] Setting up Threshold_51
I0224 06:53:15.517930   622 net.cpp:197] Top shape: 1 32 64 128 (262144)
I0224 06:53:15.517935   622 net.cpp:205] Memory required for data: 698351620
I0224 06:53:15.517938   622 layer_factory.hpp:123] Creating layer ConvNd_42
I0224 06:53:15.517944   622 net.cpp:140] Creating Layer ConvNd_42
I0224 06:53:15.517947   622 net.cpp:481] ConvNd_42 <- BatchNorm_39
I0224 06:53:15.517952   622 net.cpp:455] ConvNd_42 -> ConvNd_42
I0224 06:53:15.518119   622 net.cpp:190] Setting up ConvNd_42
I0224 06:53:15.518126   622 net.cpp:197] Top shape: 1 32 64 128 (262144)
I0224 06:53:15.518131   622 net.cpp:205] Memory required for data: 699400196
I0224 06:53:15.518136   622 layer_factory.hpp:123] Creating layer BatchNorm_40
I0224 06:53:15.518143   622 net.cpp:140] Creating Layer BatchNorm_40
I0224 06:53:15.518147   622 net.cpp:481] BatchNorm_40 <- ConvNd_42
I0224 06:53:15.518152   622 net.cpp:455] BatchNorm_40 -> BatchNorm_40
I0224 06:53:15.518733   622 net.cpp:190] Setting up BatchNorm_40
I0224 06:53:15.518739   622 net.cpp:197] Top shape: 1 32 64 128 (262144)
I0224 06:53:15.518744   622 net.cpp:205] Memory required for data: 700448772
I0224 06:53:15.518752   622 layer_factory.hpp:123] Creating layer Threshold_52
I0224 06:53:15.518756   622 net.cpp:140] Creating Layer Threshold_52
I0224 06:53:15.518760   622 net.cpp:481] Threshold_52 <- BatchNorm_40
I0224 06:53:15.518765   622 net.cpp:442] Threshold_52 -> BatchNorm_40 (in-place)
I0224 06:53:15.518771   622 net.cpp:190] Setting up Threshold_52
I0224 06:53:15.518774   622 net.cpp:197] Top shape: 1 32 64 128 (262144)
I0224 06:53:15.518779   622 net.cpp:205] Memory required for data: 701497348
I0224 06:53:15.518781   622 layer_factory.hpp:123] Creating layer ConvNd_43
I0224 06:53:15.518787   622 net.cpp:140] Creating Layer ConvNd_43
I0224 06:53:15.518791   622 net.cpp:481] ConvNd_43 <- BatchNorm_40
I0224 06:53:15.518795   622 net.cpp:455] ConvNd_43 -> ConvNd_43
I0224 06:53:15.518967   622 net.cpp:190] Setting up ConvNd_43
I0224 06:53:15.518975   622 net.cpp:197] Top shape: 1 32 64 128 (262144)
I0224 06:53:15.518980   622 net.cpp:205] Memory required for data: 702545924
I0224 06:53:15.518985   622 layer_factory.hpp:123] Creating layer BatchNorm_41
I0224 06:53:15.518991   622 net.cpp:140] Creating Layer BatchNorm_41
I0224 06:53:15.518996   622 net.cpp:481] BatchNorm_41 <- ConvNd_43
I0224 06:53:15.519001   622 net.cpp:455] BatchNorm_41 -> BatchNorm_41
I0224 06:53:15.519589   622 net.cpp:190] Setting up BatchNorm_41
I0224 06:53:15.519598   622 net.cpp:197] Top shape: 1 32 64 128 (262144)
I0224 06:53:15.519603   622 net.cpp:205] Memory required for data: 703594500
I0224 06:53:15.519609   622 layer_factory.hpp:123] Creating layer Threshold_53
I0224 06:53:15.519614   622 net.cpp:140] Creating Layer Threshold_53
I0224 06:53:15.519618   622 net.cpp:481] Threshold_53 <- BatchNorm_41
I0224 06:53:15.519623   622 net.cpp:442] Threshold_53 -> BatchNorm_41 (in-place)
I0224 06:53:15.519629   622 net.cpp:190] Setting up Threshold_53
I0224 06:53:15.519632   622 net.cpp:197] Top shape: 1 32 64 128 (262144)
I0224 06:53:15.519636   622 net.cpp:205] Memory required for data: 704643076
I0224 06:53:15.519639   622 layer_factory.hpp:123] Creating layer ConvNd_44
I0224 06:53:15.519646   622 net.cpp:140] Creating Layer ConvNd_44
I0224 06:53:15.519649   622 net.cpp:481] ConvNd_44 <- BatchNorm_41
I0224 06:53:15.519654   622 net.cpp:455] ConvNd_44 -> ConvNd_44
I0224 06:53:15.519820   622 net.cpp:190] Setting up ConvNd_44
I0224 06:53:15.519827   622 net.cpp:197] Top shape: 1 128 64 128 (1048576)
I0224 06:53:15.519832   622 net.cpp:205] Memory required for data: 708837380
I0224 06:53:15.519836   622 layer_factory.hpp:123] Creating layer BatchNorm_42
I0224 06:53:15.519842   622 net.cpp:140] Creating Layer BatchNorm_42
I0224 06:53:15.519846   622 net.cpp:481] BatchNorm_42 <- ConvNd_44
I0224 06:53:15.519851   622 net.cpp:455] BatchNorm_42 -> BatchNorm_42
I0224 06:53:15.520350   622 net.cpp:190] Setting up BatchNorm_42
I0224 06:53:15.520357   622 net.cpp:197] Top shape: 1 128 64 128 (1048576)
I0224 06:53:15.520362   622 net.cpp:205] Memory required for data: 713031684
I0224 06:53:15.520370   622 layer_factory.hpp:123] Creating layer Threshold_54
I0224 06:53:15.520375   622 net.cpp:140] Creating Layer Threshold_54
I0224 06:53:15.520380   622 net.cpp:481] Threshold_54 <- BatchNorm_42
I0224 06:53:15.520383   622 net.cpp:442] Threshold_54 -> BatchNorm_42 (in-place)
I0224 06:53:15.520390   622 net.cpp:190] Setting up Threshold_54
I0224 06:53:15.520392   622 net.cpp:197] Top shape: 1 128 64 128 (1048576)
I0224 06:53:15.520397   622 net.cpp:205] Memory required for data: 717225988
I0224 06:53:15.520401   622 layer_factory.hpp:123] Creating layer Add_13
I0224 06:53:15.520406   622 net.cpp:140] Creating Layer Add_13
I0224 06:53:15.520409   622 net.cpp:481] Add_13 <- Add_12_Threshold_50_0_split_1
I0224 06:53:15.520413   622 net.cpp:481] Add_13 <- BatchNorm_42
I0224 06:53:15.520417   622 net.cpp:455] Add_13 -> Add_13
I0224 06:53:15.520437   622 net.cpp:190] Setting up Add_13
I0224 06:53:15.520440   622 net.cpp:197] Top shape: 1 128 64 128 (1048576)
I0224 06:53:15.520445   622 net.cpp:205] Memory required for data: 721420292
I0224 06:53:15.520448   622 layer_factory.hpp:123] Creating layer Threshold_55
I0224 06:53:15.520452   622 net.cpp:140] Creating Layer Threshold_55
I0224 06:53:15.520457   622 net.cpp:481] Threshold_55 <- Add_13
I0224 06:53:15.520460   622 net.cpp:442] Threshold_55 -> Add_13 (in-place)
I0224 06:53:15.520465   622 net.cpp:190] Setting up Threshold_55
I0224 06:53:15.520468   622 net.cpp:197] Top shape: 1 128 64 128 (1048576)
I0224 06:53:15.520473   622 net.cpp:205] Memory required for data: 725614596
I0224 06:53:15.520476   622 layer_factory.hpp:123] Creating layer Add_13_Threshold_55_0_split
I0224 06:53:15.520480   622 net.cpp:140] Creating Layer Add_13_Threshold_55_0_split
I0224 06:53:15.520483   622 net.cpp:481] Add_13_Threshold_55_0_split <- Add_13
I0224 06:53:15.520488   622 net.cpp:455] Add_13_Threshold_55_0_split -> Add_13_Threshold_55_0_split_0
I0224 06:53:15.520494   622 net.cpp:455] Add_13_Threshold_55_0_split -> Add_13_Threshold_55_0_split_1
I0224 06:53:15.520521   622 net.cpp:190] Setting up Add_13_Threshold_55_0_split
I0224 06:53:15.520527   622 net.cpp:197] Top shape: 1 128 64 128 (1048576)
I0224 06:53:15.520532   622 net.cpp:197] Top shape: 1 128 64 128 (1048576)
I0224 06:53:15.520536   622 net.cpp:205] Memory required for data: 734003204
I0224 06:53:15.520539   622 layer_factory.hpp:123] Creating layer ConvNd_45
I0224 06:53:15.520545   622 net.cpp:140] Creating Layer ConvNd_45
I0224 06:53:15.520550   622 net.cpp:481] ConvNd_45 <- Add_13_Threshold_55_0_split_0
I0224 06:53:15.520555   622 net.cpp:455] ConvNd_45 -> ConvNd_45
I0224 06:53:15.520720   622 net.cpp:190] Setting up ConvNd_45
I0224 06:53:15.520726   622 net.cpp:197] Top shape: 1 32 64 128 (262144)
I0224 06:53:15.520731   622 net.cpp:205] Memory required for data: 735051780
I0224 06:53:15.520736   622 layer_factory.hpp:123] Creating layer BatchNorm_43
I0224 06:53:15.520743   622 net.cpp:140] Creating Layer BatchNorm_43
I0224 06:53:15.520747   622 net.cpp:481] BatchNorm_43 <- ConvNd_45
I0224 06:53:15.520753   622 net.cpp:455] BatchNorm_43 -> BatchNorm_43
I0224 06:53:15.521364   622 net.cpp:190] Setting up BatchNorm_43
I0224 06:53:15.521373   622 net.cpp:197] Top shape: 1 32 64 128 (262144)
I0224 06:53:15.521379   622 net.cpp:205] Memory required for data: 736100356
I0224 06:53:15.521395   622 layer_factory.hpp:123] Creating layer Threshold_56
I0224 06:53:15.521401   622 net.cpp:140] Creating Layer Threshold_56
I0224 06:53:15.521405   622 net.cpp:481] Threshold_56 <- BatchNorm_43
I0224 06:53:15.521409   622 net.cpp:442] Threshold_56 -> BatchNorm_43 (in-place)
I0224 06:53:15.521416   622 net.cpp:190] Setting up Threshold_56
I0224 06:53:15.521420   622 net.cpp:197] Top shape: 1 32 64 128 (262144)
I0224 06:53:15.521425   622 net.cpp:205] Memory required for data: 737148932
I0224 06:53:15.521427   622 layer_factory.hpp:123] Creating layer ConvNd_46
I0224 06:53:15.521433   622 net.cpp:140] Creating Layer ConvNd_46
I0224 06:53:15.521436   622 net.cpp:481] ConvNd_46 <- BatchNorm_43
I0224 06:53:15.521441   622 net.cpp:455] ConvNd_46 -> ConvNd_46
I0224 06:53:15.521618   622 net.cpp:190] Setting up ConvNd_46
I0224 06:53:15.521625   622 net.cpp:197] Top shape: 1 32 64 128 (262144)
I0224 06:53:15.521631   622 net.cpp:205] Memory required for data: 738197508
I0224 06:53:15.521636   622 layer_factory.hpp:123] Creating layer BatchNorm_44
I0224 06:53:15.521643   622 net.cpp:140] Creating Layer BatchNorm_44
I0224 06:53:15.521646   622 net.cpp:481] BatchNorm_44 <- ConvNd_46
I0224 06:53:15.521652   622 net.cpp:455] BatchNorm_44 -> BatchNorm_44
I0224 06:53:15.522238   622 net.cpp:190] Setting up BatchNorm_44
I0224 06:53:15.522245   622 net.cpp:197] Top shape: 1 32 64 128 (262144)
I0224 06:53:15.522251   622 net.cpp:205] Memory required for data: 739246084
I0224 06:53:15.522258   622 layer_factory.hpp:123] Creating layer Threshold_57
I0224 06:53:15.522264   622 net.cpp:140] Creating Layer Threshold_57
I0224 06:53:15.522267   622 net.cpp:481] Threshold_57 <- BatchNorm_44
I0224 06:53:15.522272   622 net.cpp:442] Threshold_57 -> BatchNorm_44 (in-place)
I0224 06:53:15.522279   622 net.cpp:190] Setting up Threshold_57
I0224 06:53:15.522281   622 net.cpp:197] Top shape: 1 32 64 128 (262144)
I0224 06:53:15.522285   622 net.cpp:205] Memory required for data: 740294660
I0224 06:53:15.522289   622 layer_factory.hpp:123] Creating layer ConvNd_47
I0224 06:53:15.522295   622 net.cpp:140] Creating Layer ConvNd_47
I0224 06:53:15.522298   622 net.cpp:481] ConvNd_47 <- BatchNorm_44
I0224 06:53:15.522303   622 net.cpp:455] ConvNd_47 -> ConvNd_47
I0224 06:53:15.522469   622 net.cpp:190] Setting up ConvNd_47
I0224 06:53:15.522476   622 net.cpp:197] Top shape: 1 128 64 128 (1048576)
I0224 06:53:15.522481   622 net.cpp:205] Memory required for data: 744488964
I0224 06:53:15.522486   622 layer_factory.hpp:123] Creating layer BatchNorm_45
I0224 06:53:15.522492   622 net.cpp:140] Creating Layer BatchNorm_45
I0224 06:53:15.522496   622 net.cpp:481] BatchNorm_45 <- ConvNd_47
I0224 06:53:15.522501   622 net.cpp:455] BatchNorm_45 -> BatchNorm_45
I0224 06:53:15.523001   622 net.cpp:190] Setting up BatchNorm_45
I0224 06:53:15.523008   622 net.cpp:197] Top shape: 1 128 64 128 (1048576)
I0224 06:53:15.523013   622 net.cpp:205] Memory required for data: 748683268
I0224 06:53:15.523021   622 layer_factory.hpp:123] Creating layer Threshold_58
I0224 06:53:15.523025   622 net.cpp:140] Creating Layer Threshold_58
I0224 06:53:15.523030   622 net.cpp:481] Threshold_58 <- BatchNorm_45
I0224 06:53:15.523034   622 net.cpp:442] Threshold_58 -> BatchNorm_45 (in-place)
I0224 06:53:15.523041   622 net.cpp:190] Setting up Threshold_58
I0224 06:53:15.523043   622 net.cpp:197] Top shape: 1 128 64 128 (1048576)
I0224 06:53:15.523047   622 net.cpp:205] Memory required for data: 752877572
I0224 06:53:15.523051   622 layer_factory.hpp:123] Creating layer Add_14
I0224 06:53:15.523056   622 net.cpp:140] Creating Layer Add_14
I0224 06:53:15.523059   622 net.cpp:481] Add_14 <- Add_13_Threshold_55_0_split_1
I0224 06:53:15.523063   622 net.cpp:481] Add_14 <- BatchNorm_45
I0224 06:53:15.523068   622 net.cpp:455] Add_14 -> Add_14
I0224 06:53:15.523087   622 net.cpp:190] Setting up Add_14
I0224 06:53:15.523092   622 net.cpp:197] Top shape: 1 128 64 128 (1048576)
I0224 06:53:15.523097   622 net.cpp:205] Memory required for data: 757071876
I0224 06:53:15.523099   622 layer_factory.hpp:123] Creating layer Threshold_59
I0224 06:53:15.523103   622 net.cpp:140] Creating Layer Threshold_59
I0224 06:53:15.523108   622 net.cpp:481] Threshold_59 <- Add_14
I0224 06:53:15.523111   622 net.cpp:442] Threshold_59 -> Add_14 (in-place)
I0224 06:53:15.523116   622 net.cpp:190] Setting up Threshold_59
I0224 06:53:15.523120   622 net.cpp:197] Top shape: 1 128 64 128 (1048576)
I0224 06:53:15.523124   622 net.cpp:205] Memory required for data: 761266180
I0224 06:53:15.523128   622 layer_factory.hpp:123] Creating layer Add_14_Threshold_59_0_split
I0224 06:53:15.523133   622 net.cpp:140] Creating Layer Add_14_Threshold_59_0_split
I0224 06:53:15.523135   622 net.cpp:481] Add_14_Threshold_59_0_split <- Add_14
I0224 06:53:15.523140   622 net.cpp:455] Add_14_Threshold_59_0_split -> Add_14_Threshold_59_0_split_0
I0224 06:53:15.523145   622 net.cpp:455] Add_14_Threshold_59_0_split -> Add_14_Threshold_59_0_split_1
I0224 06:53:15.523174   622 net.cpp:190] Setting up Add_14_Threshold_59_0_split
I0224 06:53:15.523180   622 net.cpp:197] Top shape: 1 128 64 128 (1048576)
I0224 06:53:15.523185   622 net.cpp:197] Top shape: 1 128 64 128 (1048576)
I0224 06:53:15.523188   622 net.cpp:205] Memory required for data: 769654788
I0224 06:53:15.523191   622 layer_factory.hpp:123] Creating layer ConvNd_48
I0224 06:53:15.523197   622 net.cpp:140] Creating Layer ConvNd_48
I0224 06:53:15.523201   622 net.cpp:481] ConvNd_48 <- Add_14_Threshold_59_0_split_0
I0224 06:53:15.523206   622 net.cpp:455] ConvNd_48 -> ConvNd_48
I0224 06:53:15.523372   622 net.cpp:190] Setting up ConvNd_48
I0224 06:53:15.523380   622 net.cpp:197] Top shape: 1 32 64 128 (262144)
I0224 06:53:15.523384   622 net.cpp:205] Memory required for data: 770703364
I0224 06:53:15.523389   622 layer_factory.hpp:123] Creating layer BatchNorm_46
I0224 06:53:15.523396   622 net.cpp:140] Creating Layer BatchNorm_46
I0224 06:53:15.523399   622 net.cpp:481] BatchNorm_46 <- ConvNd_48
I0224 06:53:15.523404   622 net.cpp:455] BatchNorm_46 -> BatchNorm_46
I0224 06:53:15.523990   622 net.cpp:190] Setting up BatchNorm_46
I0224 06:53:15.523998   622 net.cpp:197] Top shape: 1 32 64 128 (262144)
I0224 06:53:15.524003   622 net.cpp:205] Memory required for data: 771751940
I0224 06:53:15.524010   622 layer_factory.hpp:123] Creating layer Threshold_60
I0224 06:53:15.524015   622 net.cpp:140] Creating Layer Threshold_60
I0224 06:53:15.524019   622 net.cpp:481] Threshold_60 <- BatchNorm_46
I0224 06:53:15.524024   622 net.cpp:442] Threshold_60 -> BatchNorm_46 (in-place)
I0224 06:53:15.524029   622 net.cpp:190] Setting up Threshold_60
I0224 06:53:15.524032   622 net.cpp:197] Top shape: 1 32 64 128 (262144)
I0224 06:53:15.524036   622 net.cpp:205] Memory required for data: 772800516
I0224 06:53:15.524040   622 layer_factory.hpp:123] Creating layer ConvNd_49
I0224 06:53:15.524046   622 net.cpp:140] Creating Layer ConvNd_49
I0224 06:53:15.524049   622 net.cpp:481] ConvNd_49 <- BatchNorm_46
I0224 06:53:15.524055   622 net.cpp:455] ConvNd_49 -> ConvNd_49
I0224 06:53:15.524230   622 net.cpp:190] Setting up ConvNd_49
I0224 06:53:15.524236   622 net.cpp:197] Top shape: 1 32 64 128 (262144)
I0224 06:53:15.524241   622 net.cpp:205] Memory required for data: 773849092
I0224 06:53:15.524246   622 layer_factory.hpp:123] Creating layer BatchNorm_47
I0224 06:53:15.524252   622 net.cpp:140] Creating Layer BatchNorm_47
I0224 06:53:15.524256   622 net.cpp:481] BatchNorm_47 <- ConvNd_49
I0224 06:53:15.524261   622 net.cpp:455] BatchNorm_47 -> BatchNorm_47
I0224 06:53:15.524845   622 net.cpp:190] Setting up BatchNorm_47
I0224 06:53:15.524853   622 net.cpp:197] Top shape: 1 32 64 128 (262144)
I0224 06:53:15.524858   622 net.cpp:205] Memory required for data: 774897668
I0224 06:53:15.524866   622 layer_factory.hpp:123] Creating layer Threshold_61
I0224 06:53:15.524871   622 net.cpp:140] Creating Layer Threshold_61
I0224 06:53:15.524874   622 net.cpp:481] Threshold_61 <- BatchNorm_47
I0224 06:53:15.524879   622 net.cpp:442] Threshold_61 -> BatchNorm_47 (in-place)
I0224 06:53:15.524885   622 net.cpp:190] Setting up Threshold_61
I0224 06:53:15.524888   622 net.cpp:197] Top shape: 1 32 64 128 (262144)
I0224 06:53:15.524893   622 net.cpp:205] Memory required for data: 775946244
I0224 06:53:15.524895   622 layer_factory.hpp:123] Creating layer ConvNd_50
I0224 06:53:15.524902   622 net.cpp:140] Creating Layer ConvNd_50
I0224 06:53:15.524906   622 net.cpp:481] ConvNd_50 <- BatchNorm_47
I0224 06:53:15.524911   622 net.cpp:455] ConvNd_50 -> ConvNd_50
I0224 06:53:15.525770   622 net.cpp:190] Setting up ConvNd_50
I0224 06:53:15.525781   622 net.cpp:197] Top shape: 1 128 64 128 (1048576)
I0224 06:53:15.525789   622 net.cpp:205] Memory required for data: 780140548
I0224 06:53:15.525794   622 layer_factory.hpp:123] Creating layer BatchNorm_48
I0224 06:53:15.525801   622 net.cpp:140] Creating Layer BatchNorm_48
I0224 06:53:15.525805   622 net.cpp:481] BatchNorm_48 <- ConvNd_50
I0224 06:53:15.525811   622 net.cpp:455] BatchNorm_48 -> BatchNorm_48
I0224 06:53:15.526330   622 net.cpp:190] Setting up BatchNorm_48
I0224 06:53:15.526338   622 net.cpp:197] Top shape: 1 128 64 128 (1048576)
I0224 06:53:15.526343   622 net.cpp:205] Memory required for data: 784334852
I0224 06:53:15.526351   622 layer_factory.hpp:123] Creating layer Threshold_62
I0224 06:53:15.526356   622 net.cpp:140] Creating Layer Threshold_62
I0224 06:53:15.526360   622 net.cpp:481] Threshold_62 <- BatchNorm_48
I0224 06:53:15.526365   622 net.cpp:442] Threshold_62 -> BatchNorm_48 (in-place)
I0224 06:53:15.526371   622 net.cpp:190] Setting up Threshold_62
I0224 06:53:15.526374   622 net.cpp:197] Top shape: 1 128 64 128 (1048576)
I0224 06:53:15.526378   622 net.cpp:205] Memory required for data: 788529156
I0224 06:53:15.526382   622 layer_factory.hpp:123] Creating layer Add_15
I0224 06:53:15.526387   622 net.cpp:140] Creating Layer Add_15
I0224 06:53:15.526391   622 net.cpp:481] Add_15 <- Add_14_Threshold_59_0_split_1
I0224 06:53:15.526396   622 net.cpp:481] Add_15 <- BatchNorm_48
I0224 06:53:15.526399   622 net.cpp:455] Add_15 -> Add_15
I0224 06:53:15.526419   622 net.cpp:190] Setting up Add_15
I0224 06:53:15.526425   622 net.cpp:197] Top shape: 1 128 64 128 (1048576)
I0224 06:53:15.526430   622 net.cpp:205] Memory required for data: 792723460
I0224 06:53:15.526433   622 layer_factory.hpp:123] Creating layer Threshold_63
I0224 06:53:15.526437   622 net.cpp:140] Creating Layer Threshold_63
I0224 06:53:15.526441   622 net.cpp:481] Threshold_63 <- Add_15
I0224 06:53:15.526445   622 net.cpp:442] Threshold_63 -> Add_15 (in-place)
I0224 06:53:15.526450   622 net.cpp:190] Setting up Threshold_63
I0224 06:53:15.526453   622 net.cpp:197] Top shape: 1 128 64 128 (1048576)
I0224 06:53:15.526458   622 net.cpp:205] Memory required for data: 796917764
I0224 06:53:15.526461   622 layer_factory.hpp:123] Creating layer Add_15_Threshold_63_0_split
I0224 06:53:15.526466   622 net.cpp:140] Creating Layer Add_15_Threshold_63_0_split
I0224 06:53:15.526469   622 net.cpp:481] Add_15_Threshold_63_0_split <- Add_15
I0224 06:53:15.526473   622 net.cpp:455] Add_15_Threshold_63_0_split -> Add_15_Threshold_63_0_split_0
I0224 06:53:15.526479   622 net.cpp:455] Add_15_Threshold_63_0_split -> Add_15_Threshold_63_0_split_1
I0224 06:53:15.526507   622 net.cpp:190] Setting up Add_15_Threshold_63_0_split
I0224 06:53:15.526512   622 net.cpp:197] Top shape: 1 128 64 128 (1048576)
I0224 06:53:15.526517   622 net.cpp:197] Top shape: 1 128 64 128 (1048576)
I0224 06:53:15.526521   622 net.cpp:205] Memory required for data: 805306372
I0224 06:53:15.526525   622 layer_factory.hpp:123] Creating layer ConvNd_51
I0224 06:53:15.526531   622 net.cpp:140] Creating Layer ConvNd_51
I0224 06:53:15.526535   622 net.cpp:481] ConvNd_51 <- Add_15_Threshold_63_0_split_0
I0224 06:53:15.526540   622 net.cpp:455] ConvNd_51 -> ConvNd_51
I0224 06:53:15.526721   622 net.cpp:190] Setting up ConvNd_51
I0224 06:53:15.526726   622 net.cpp:197] Top shape: 1 32 64 128 (262144)
I0224 06:53:15.526731   622 net.cpp:205] Memory required for data: 806354948
I0224 06:53:15.526736   622 layer_factory.hpp:123] Creating layer BatchNorm_49
I0224 06:53:15.526743   622 net.cpp:140] Creating Layer BatchNorm_49
I0224 06:53:15.526747   622 net.cpp:481] BatchNorm_49 <- ConvNd_51
I0224 06:53:15.526752   622 net.cpp:455] BatchNorm_49 -> BatchNorm_49
I0224 06:53:15.527352   622 net.cpp:190] Setting up BatchNorm_49
I0224 06:53:15.527360   622 net.cpp:197] Top shape: 1 32 64 128 (262144)
I0224 06:53:15.527365   622 net.cpp:205] Memory required for data: 807403524
I0224 06:53:15.527374   622 layer_factory.hpp:123] Creating layer Threshold_64
I0224 06:53:15.527379   622 net.cpp:140] Creating Layer Threshold_64
I0224 06:53:15.527382   622 net.cpp:481] Threshold_64 <- BatchNorm_49
I0224 06:53:15.527386   622 net.cpp:442] Threshold_64 -> BatchNorm_49 (in-place)
I0224 06:53:15.527392   622 net.cpp:190] Setting up Threshold_64
I0224 06:53:15.527395   622 net.cpp:197] Top shape: 1 32 64 128 (262144)
I0224 06:53:15.527400   622 net.cpp:205] Memory required for data: 808452100
I0224 06:53:15.527403   622 layer_factory.hpp:123] Creating layer ConvNd_52
I0224 06:53:15.527410   622 net.cpp:140] Creating Layer ConvNd_52
I0224 06:53:15.527412   622 net.cpp:481] ConvNd_52 <- BatchNorm_49
I0224 06:53:15.527417   622 net.cpp:455] ConvNd_52 -> ConvNd_52
I0224 06:53:15.527590   622 net.cpp:190] Setting up ConvNd_52
I0224 06:53:15.527596   622 net.cpp:197] Top shape: 1 32 64 128 (262144)
I0224 06:53:15.527601   622 net.cpp:205] Memory required for data: 809500676
I0224 06:53:15.527606   622 layer_factory.hpp:123] Creating layer BatchNorm_50
I0224 06:53:15.527612   622 net.cpp:140] Creating Layer BatchNorm_50
I0224 06:53:15.527616   622 net.cpp:481] BatchNorm_50 <- ConvNd_52
I0224 06:53:15.527621   622 net.cpp:455] BatchNorm_50 -> BatchNorm_50
I0224 06:53:15.528213   622 net.cpp:190] Setting up BatchNorm_50
I0224 06:53:15.528219   622 net.cpp:197] Top shape: 1 32 64 128 (262144)
I0224 06:53:15.528224   622 net.cpp:205] Memory required for data: 810549252
I0224 06:53:15.528231   622 layer_factory.hpp:123] Creating layer Threshold_65
I0224 06:53:15.528236   622 net.cpp:140] Creating Layer Threshold_65
I0224 06:53:15.528240   622 net.cpp:481] Threshold_65 <- BatchNorm_50
I0224 06:53:15.528245   622 net.cpp:442] Threshold_65 -> BatchNorm_50 (in-place)
I0224 06:53:15.528250   622 net.cpp:190] Setting up Threshold_65
I0224 06:53:15.528254   622 net.cpp:197] Top shape: 1 32 64 128 (262144)
I0224 06:53:15.528259   622 net.cpp:205] Memory required for data: 811597828
I0224 06:53:15.528261   622 layer_factory.hpp:123] Creating layer ConvNd_53
I0224 06:53:15.528267   622 net.cpp:140] Creating Layer ConvNd_53
I0224 06:53:15.528270   622 net.cpp:481] ConvNd_53 <- BatchNorm_50
I0224 06:53:15.528275   622 net.cpp:455] ConvNd_53 -> ConvNd_53
I0224 06:53:15.528443   622 net.cpp:190] Setting up ConvNd_53
I0224 06:53:15.528450   622 net.cpp:197] Top shape: 1 128 64 128 (1048576)
I0224 06:53:15.528455   622 net.cpp:205] Memory required for data: 815792132
I0224 06:53:15.528460   622 layer_factory.hpp:123] Creating layer BatchNorm_51
I0224 06:53:15.528466   622 net.cpp:140] Creating Layer BatchNorm_51
I0224 06:53:15.528470   622 net.cpp:481] BatchNorm_51 <- ConvNd_53
I0224 06:53:15.528475   622 net.cpp:455] BatchNorm_51 -> BatchNorm_51
I0224 06:53:15.528980   622 net.cpp:190] Setting up BatchNorm_51
I0224 06:53:15.528986   622 net.cpp:197] Top shape: 1 128 64 128 (1048576)
I0224 06:53:15.528992   622 net.cpp:205] Memory required for data: 819986436
I0224 06:53:15.529000   622 layer_factory.hpp:123] Creating layer Threshold_66
I0224 06:53:15.529004   622 net.cpp:140] Creating Layer Threshold_66
I0224 06:53:15.529008   622 net.cpp:481] Threshold_66 <- BatchNorm_51
I0224 06:53:15.529012   622 net.cpp:442] Threshold_66 -> BatchNorm_51 (in-place)
I0224 06:53:15.529018   622 net.cpp:190] Setting up Threshold_66
I0224 06:53:15.529021   622 net.cpp:197] Top shape: 1 128 64 128 (1048576)
I0224 06:53:15.529026   622 net.cpp:205] Memory required for data: 824180740
I0224 06:53:15.529029   622 layer_factory.hpp:123] Creating layer Add_16
I0224 06:53:15.529034   622 net.cpp:140] Creating Layer Add_16
I0224 06:53:15.529038   622 net.cpp:481] Add_16 <- Add_15_Threshold_63_0_split_1
I0224 06:53:15.529042   622 net.cpp:481] Add_16 <- BatchNorm_51
I0224 06:53:15.529047   622 net.cpp:455] Add_16 -> Add_16
I0224 06:53:15.529067   622 net.cpp:190] Setting up Add_16
I0224 06:53:15.529072   622 net.cpp:197] Top shape: 1 128 64 128 (1048576)
I0224 06:53:15.529078   622 net.cpp:205] Memory required for data: 828375044
I0224 06:53:15.529080   622 layer_factory.hpp:123] Creating layer Threshold_67
I0224 06:53:15.529085   622 net.cpp:140] Creating Layer Threshold_67
I0224 06:53:15.529088   622 net.cpp:481] Threshold_67 <- Add_16
I0224 06:53:15.529093   622 net.cpp:442] Threshold_67 -> Add_16 (in-place)
I0224 06:53:15.529098   622 net.cpp:190] Setting up Threshold_67
I0224 06:53:15.529101   622 net.cpp:197] Top shape: 1 128 64 128 (1048576)
I0224 06:53:15.529105   622 net.cpp:205] Memory required for data: 832569348
I0224 06:53:15.529109   622 layer_factory.hpp:123] Creating layer Add_16_Threshold_67_0_split
I0224 06:53:15.529114   622 net.cpp:140] Creating Layer Add_16_Threshold_67_0_split
I0224 06:53:15.529119   622 net.cpp:481] Add_16_Threshold_67_0_split <- Add_16
I0224 06:53:15.529122   622 net.cpp:455] Add_16_Threshold_67_0_split -> Add_16_Threshold_67_0_split_0
I0224 06:53:15.529129   622 net.cpp:455] Add_16_Threshold_67_0_split -> Add_16_Threshold_67_0_split_1
I0224 06:53:15.529155   622 net.cpp:190] Setting up Add_16_Threshold_67_0_split
I0224 06:53:15.529161   622 net.cpp:197] Top shape: 1 128 64 128 (1048576)
I0224 06:53:15.529166   622 net.cpp:197] Top shape: 1 128 64 128 (1048576)
I0224 06:53:15.529170   622 net.cpp:205] Memory required for data: 840957956
I0224 06:53:15.529173   622 layer_factory.hpp:123] Creating layer ConvNd_54
I0224 06:53:15.529181   622 net.cpp:140] Creating Layer ConvNd_54
I0224 06:53:15.529183   622 net.cpp:481] ConvNd_54 <- Add_16_Threshold_67_0_split_0
I0224 06:53:15.529189   622 net.cpp:455] ConvNd_54 -> ConvNd_54
I0224 06:53:15.529366   622 net.cpp:190] Setting up ConvNd_54
I0224 06:53:15.529372   622 net.cpp:197] Top shape: 1 32 64 128 (262144)
I0224 06:53:15.529378   622 net.cpp:205] Memory required for data: 842006532
I0224 06:53:15.529383   622 layer_factory.hpp:123] Creating layer BatchNorm_52
I0224 06:53:15.529389   622 net.cpp:140] Creating Layer BatchNorm_52
I0224 06:53:15.529393   622 net.cpp:481] BatchNorm_52 <- ConvNd_54
I0224 06:53:15.529398   622 net.cpp:455] BatchNorm_52 -> BatchNorm_52
I0224 06:53:15.529995   622 net.cpp:190] Setting up BatchNorm_52
I0224 06:53:15.530002   622 net.cpp:197] Top shape: 1 32 64 128 (262144)
I0224 06:53:15.530007   622 net.cpp:205] Memory required for data: 843055108
I0224 06:53:15.530015   622 layer_factory.hpp:123] Creating layer Threshold_68
I0224 06:53:15.530020   622 net.cpp:140] Creating Layer Threshold_68
I0224 06:53:15.530025   622 net.cpp:481] Threshold_68 <- BatchNorm_52
I0224 06:53:15.530033   622 net.cpp:442] Threshold_68 -> BatchNorm_52 (in-place)
I0224 06:53:15.530040   622 net.cpp:190] Setting up Threshold_68
I0224 06:53:15.530042   622 net.cpp:197] Top shape: 1 32 64 128 (262144)
I0224 06:53:15.530047   622 net.cpp:205] Memory required for data: 844103684
I0224 06:53:15.530050   622 layer_factory.hpp:123] Creating layer ConvNd_55
I0224 06:53:15.530056   622 net.cpp:140] Creating Layer ConvNd_55
I0224 06:53:15.530061   622 net.cpp:481] ConvNd_55 <- BatchNorm_52
I0224 06:53:15.530064   622 net.cpp:455] ConvNd_55 -> ConvNd_55
I0224 06:53:15.530236   622 net.cpp:190] Setting up ConvNd_55
I0224 06:53:15.530242   622 net.cpp:197] Top shape: 1 32 64 128 (262144)
I0224 06:53:15.530247   622 net.cpp:205] Memory required for data: 845152260
I0224 06:53:15.530252   622 layer_factory.hpp:123] Creating layer BatchNorm_53
I0224 06:53:15.530259   622 net.cpp:140] Creating Layer BatchNorm_53
I0224 06:53:15.530263   622 net.cpp:481] BatchNorm_53 <- ConvNd_55
I0224 06:53:15.530268   622 net.cpp:455] BatchNorm_53 -> BatchNorm_53
I0224 06:53:15.530858   622 net.cpp:190] Setting up BatchNorm_53
I0224 06:53:15.530866   622 net.cpp:197] Top shape: 1 32 64 128 (262144)
I0224 06:53:15.530871   622 net.cpp:205] Memory required for data: 846200836
I0224 06:53:15.530879   622 layer_factory.hpp:123] Creating layer Threshold_69
I0224 06:53:15.530884   622 net.cpp:140] Creating Layer Threshold_69
I0224 06:53:15.530887   622 net.cpp:481] Threshold_69 <- BatchNorm_53
I0224 06:53:15.530892   622 net.cpp:442] Threshold_69 -> BatchNorm_53 (in-place)
I0224 06:53:15.530898   622 net.cpp:190] Setting up Threshold_69
I0224 06:53:15.530901   622 net.cpp:197] Top shape: 1 32 64 128 (262144)
I0224 06:53:15.530906   622 net.cpp:205] Memory required for data: 847249412
I0224 06:53:15.530910   622 layer_factory.hpp:123] Creating layer ConvNd_56
I0224 06:53:15.530915   622 net.cpp:140] Creating Layer ConvNd_56
I0224 06:53:15.530918   622 net.cpp:481] ConvNd_56 <- BatchNorm_53
I0224 06:53:15.530923   622 net.cpp:455] ConvNd_56 -> ConvNd_56
I0224 06:53:15.531090   622 net.cpp:190] Setting up ConvNd_56
I0224 06:53:15.531097   622 net.cpp:197] Top shape: 1 32 64 128 (262144)
I0224 06:53:15.531102   622 net.cpp:205] Memory required for data: 848297988
I0224 06:53:15.531107   622 layer_factory.hpp:123] Creating layer BatchNorm_54
I0224 06:53:15.531113   622 net.cpp:140] Creating Layer BatchNorm_54
I0224 06:53:15.531117   622 net.cpp:481] BatchNorm_54 <- ConvNd_56
I0224 06:53:15.531122   622 net.cpp:455] BatchNorm_54 -> BatchNorm_54
I0224 06:53:15.531713   622 net.cpp:190] Setting up BatchNorm_54
I0224 06:53:15.531719   622 net.cpp:197] Top shape: 1 32 64 128 (262144)
I0224 06:53:15.531724   622 net.cpp:205] Memory required for data: 849346564
I0224 06:53:15.531733   622 layer_factory.hpp:123] Creating layer Threshold_70
I0224 06:53:15.531738   622 net.cpp:140] Creating Layer Threshold_70
I0224 06:53:15.531741   622 net.cpp:481] Threshold_70 <- BatchNorm_54
I0224 06:53:15.531745   622 net.cpp:442] Threshold_70 -> BatchNorm_54 (in-place)
I0224 06:53:15.531751   622 net.cpp:190] Setting up Threshold_70
I0224 06:53:15.531754   622 net.cpp:197] Top shape: 1 32 64 128 (262144)
I0224 06:53:15.531759   622 net.cpp:205] Memory required for data: 850395140
I0224 06:53:15.531762   622 layer_factory.hpp:123] Creating layer ConvNd_57
I0224 06:53:15.531769   622 net.cpp:140] Creating Layer ConvNd_57
I0224 06:53:15.531772   622 net.cpp:481] ConvNd_57 <- BatchNorm_54
I0224 06:53:15.531776   622 net.cpp:455] ConvNd_57 -> ConvNd_57
I0224 06:53:15.531944   622 net.cpp:190] Setting up ConvNd_57
I0224 06:53:15.531950   622 net.cpp:197] Top shape: 1 128 64 128 (1048576)
I0224 06:53:15.531955   622 net.cpp:205] Memory required for data: 854589444
I0224 06:53:15.531960   622 layer_factory.hpp:123] Creating layer BatchNorm_55
I0224 06:53:15.531967   622 net.cpp:140] Creating Layer BatchNorm_55
I0224 06:53:15.531971   622 net.cpp:481] BatchNorm_55 <- ConvNd_57
I0224 06:53:15.531977   622 net.cpp:455] BatchNorm_55 -> BatchNorm_55
I0224 06:53:15.532482   622 net.cpp:190] Setting up BatchNorm_55
I0224 06:53:15.532490   622 net.cpp:197] Top shape: 1 128 64 128 (1048576)
I0224 06:53:15.532495   622 net.cpp:205] Memory required for data: 858783748
I0224 06:53:15.532501   622 layer_factory.hpp:123] Creating layer Threshold_71
I0224 06:53:15.532507   622 net.cpp:140] Creating Layer Threshold_71
I0224 06:53:15.532511   622 net.cpp:481] Threshold_71 <- BatchNorm_55
I0224 06:53:15.532516   622 net.cpp:442] Threshold_71 -> BatchNorm_55 (in-place)
I0224 06:53:15.532521   622 net.cpp:190] Setting up Threshold_71
I0224 06:53:15.532526   622 net.cpp:197] Top shape: 1 128 64 128 (1048576)
I0224 06:53:15.532529   622 net.cpp:205] Memory required for data: 862978052
I0224 06:53:15.532532   622 layer_factory.hpp:123] Creating layer Add_17
I0224 06:53:15.532537   622 net.cpp:140] Creating Layer Add_17
I0224 06:53:15.532541   622 net.cpp:481] Add_17 <- Add_16_Threshold_67_0_split_1
I0224 06:53:15.532546   622 net.cpp:481] Add_17 <- BatchNorm_55
I0224 06:53:15.532550   622 net.cpp:455] Add_17 -> Add_17
I0224 06:53:15.532569   622 net.cpp:190] Setting up Add_17
I0224 06:53:15.532573   622 net.cpp:197] Top shape: 1 128 64 128 (1048576)
I0224 06:53:15.532578   622 net.cpp:205] Memory required for data: 867172356
I0224 06:53:15.532582   622 layer_factory.hpp:123] Creating layer Threshold_72
I0224 06:53:15.532586   622 net.cpp:140] Creating Layer Threshold_72
I0224 06:53:15.532589   622 net.cpp:481] Threshold_72 <- Add_17
I0224 06:53:15.532593   622 net.cpp:442] Threshold_72 -> Add_17 (in-place)
I0224 06:53:15.532599   622 net.cpp:190] Setting up Threshold_72
I0224 06:53:15.532603   622 net.cpp:197] Top shape: 1 128 64 128 (1048576)
I0224 06:53:15.532606   622 net.cpp:205] Memory required for data: 871366660
I0224 06:53:15.532609   622 layer_factory.hpp:123] Creating layer Add_17_Threshold_72_0_split
I0224 06:53:15.532614   622 net.cpp:140] Creating Layer Add_17_Threshold_72_0_split
I0224 06:53:15.532618   622 net.cpp:481] Add_17_Threshold_72_0_split <- Add_17
I0224 06:53:15.532622   622 net.cpp:455] Add_17_Threshold_72_0_split -> Add_17_Threshold_72_0_split_0
I0224 06:53:15.532629   622 net.cpp:455] Add_17_Threshold_72_0_split -> Add_17_Threshold_72_0_split_1
I0224 06:53:15.532656   622 net.cpp:190] Setting up Add_17_Threshold_72_0_split
I0224 06:53:15.532662   622 net.cpp:197] Top shape: 1 128 64 128 (1048576)
I0224 06:53:15.532666   622 net.cpp:197] Top shape: 1 128 64 128 (1048576)
I0224 06:53:15.532670   622 net.cpp:205] Memory required for data: 879755268
I0224 06:53:15.532675   622 layer_factory.hpp:123] Creating layer ConvNd_58
I0224 06:53:15.532680   622 net.cpp:140] Creating Layer ConvNd_58
I0224 06:53:15.532685   622 net.cpp:481] ConvNd_58 <- Add_17_Threshold_72_0_split_0
I0224 06:53:15.532688   622 net.cpp:455] ConvNd_58 -> ConvNd_58
I0224 06:53:15.532853   622 net.cpp:190] Setting up ConvNd_58
I0224 06:53:15.532860   622 net.cpp:197] Top shape: 1 32 64 128 (262144)
I0224 06:53:15.532866   622 net.cpp:205] Memory required for data: 880803844
I0224 06:53:15.532869   622 layer_factory.hpp:123] Creating layer BatchNorm_56
I0224 06:53:15.532876   622 net.cpp:140] Creating Layer BatchNorm_56
I0224 06:53:15.532881   622 net.cpp:481] BatchNorm_56 <- ConvNd_58
I0224 06:53:15.532886   622 net.cpp:455] BatchNorm_56 -> BatchNorm_56
I0224 06:53:15.533506   622 net.cpp:190] Setting up BatchNorm_56
I0224 06:53:15.533515   622 net.cpp:197] Top shape: 1 32 64 128 (262144)
I0224 06:53:15.533521   622 net.cpp:205] Memory required for data: 881852420
I0224 06:53:15.533529   622 layer_factory.hpp:123] Creating layer Threshold_73
I0224 06:53:15.533535   622 net.cpp:140] Creating Layer Threshold_73
…
I0224 06:55:27.296710   622 net.cpp:197] Top shape: 1 128 64 128 (1048576)
I0224 06:55:27.296712   622 net.cpp:205] Memory required for data: 1203765248
I0224 06:55:27.296715   622 layer_factory.hpp:123] Creating layer ConvNd_71
I0224 06:55:27.296722   622 net.cpp:140] Creating Layer ConvNd_71
I0224 06:55:27.296725   622 net.cpp:481] ConvNd_71 <- Add_21_Add_21_fixed_0_split_0
I0224 06:55:27.296731   622 net.cpp:455] ConvNd_71 -> BatchNorm_69
I0224 06:55:27.296872   622 layer_factory.hpp:123] Creating layer ConvNd_71
I0224 06:55:27.297130   622 net.cpp:190] Setting up ConvNd_71
I0224 06:55:27.297137   622 net.cpp:197] Top shape: 1 32 64 128 (262144)
I0224 06:55:27.297142   622 net.cpp:205] Memory required for data: 1204813824
I0224 06:55:27.297147   622 layer_factory.hpp:123] Creating layer Threshold_90
I0224 06:55:27.297152   622 net.cpp:140] Creating Layer Threshold_90
I0224 06:55:27.297155   622 net.cpp:481] Threshold_90 <- BatchNorm_69
I0224 06:55:27.297159   622 net.cpp:442] Threshold_90 -> BatchNorm_69 (in-place)
I0224 06:55:27.297164   622 net.cpp:190] Setting up Threshold_90
I0224 06:55:27.297168   622 net.cpp:197] Top shape: 1 32 64 128 (262144)
I0224 06:55:27.297171   622 net.cpp:205] Memory required for data: 1205862400
I0224 06:55:27.297174   622 layer_factory.hpp:123] Creating layer BatchNorm_69_fixed
I0224 06:55:27.297179   622 net.cpp:140] Creating Layer BatchNorm_69_fixed
I0224 06:55:27.297183   622 net.cpp:481] BatchNorm_69_fixed <- BatchNorm_69
I0224 06:55:27.297186   622 net.cpp:442] BatchNorm_69_fixed -> BatchNorm_69 (in-place)
I0224 06:55:27.297210   622 net.cpp:190] Setting up BatchNorm_69_fixed
I0224 06:55:27.297215   622 net.cpp:197] Top shape: 1 32 64 128 (262144)
I0224 06:55:27.297220   622 net.cpp:205] Memory required for data: 1206910976
I0224 06:55:27.297224   622 layer_factory.hpp:123] Creating layer ConvNd_72
I0224 06:55:27.297230   622 net.cpp:140] Creating Layer ConvNd_72
I0224 06:55:27.297233   622 net.cpp:481] ConvNd_72 <- BatchNorm_69
I0224 06:55:27.297238   622 net.cpp:455] ConvNd_72 -> BatchNorm_70
I0224 06:55:27.297394   622 layer_factory.hpp:123] Creating layer ConvNd_72
I0224 06:55:27.297657   622 net.cpp:190] Setting up ConvNd_72
I0224 06:55:27.297664   622 net.cpp:197] Top shape: 1 32 64 128 (262144)
I0224 06:55:27.297669   622 net.cpp:205] Memory required for data: 1207959552
I0224 06:55:27.297674   622 layer_factory.hpp:123] Creating layer Threshold_91
I0224 06:55:27.297678   622 net.cpp:140] Creating Layer Threshold_91
I0224 06:55:27.297683   622 net.cpp:481] Threshold_91 <- BatchNorm_70
I0224 06:55:27.297686   622 net.cpp:442] Threshold_91 -> BatchNorm_70 (in-place)
I0224 06:55:27.297691   622 net.cpp:190] Setting up Threshold_91
I0224 06:55:27.297694   622 net.cpp:197] Top shape: 1 32 64 128 (262144)
I0224 06:55:27.297698   622 net.cpp:205] Memory required for data: 1209008128
I0224 06:55:27.297701   622 layer_factory.hpp:123] Creating layer BatchNorm_70_fixed
I0224 06:55:27.297706   622 net.cpp:140] Creating Layer BatchNorm_70_fixed
I0224 06:55:27.297709   622 net.cpp:481] BatchNorm_70_fixed <- BatchNorm_70
I0224 06:55:27.297713   622 net.cpp:442] BatchNorm_70_fixed -> BatchNorm_70 (in-place)
I0224 06:55:27.297737   622 net.cpp:190] Setting up BatchNorm_70_fixed
I0224 06:55:27.297744   622 net.cpp:197] Top shape: 1 32 64 128 (262144)
I0224 06:55:27.297747   622 net.cpp:205] Memory required for data: 1210056704
I0224 06:55:27.297751   622 layer_factory.hpp:123] Creating layer ConvNd_73
I0224 06:55:27.297757   622 net.cpp:140] Creating Layer ConvNd_73
I0224 06:55:27.297760   622 net.cpp:481] ConvNd_73 <- BatchNorm_70
I0224 06:55:27.297765   622 net.cpp:455] ConvNd_73 -> BatchNorm_71
I0224 06:55:27.297902   622 layer_factory.hpp:123] Creating layer ConvNd_73
I0224 06:55:27.298148   622 net.cpp:190] Setting up ConvNd_73
I0224 06:55:27.298156   622 net.cpp:197] Top shape: 1 128 64 128 (1048576)
I0224 06:55:27.298161   622 net.cpp:205] Memory required for data: 1214251008
I0224 06:55:27.298166   622 layer_factory.hpp:123] Creating layer Threshold_92
I0224 06:55:27.298171   622 net.cpp:140] Creating Layer Threshold_92
I0224 06:55:27.298173   622 net.cpp:481] Threshold_92 <- BatchNorm_71
I0224 06:55:27.298177   622 net.cpp:442] Threshold_92 -> BatchNorm_71 (in-place)
I0224 06:55:27.298182   622 net.cpp:190] Setting up Threshold_92
I0224 06:55:27.298185   622 net.cpp:197] Top shape: 1 128 64 128 (1048576)
I0224 06:55:27.298190   622 net.cpp:205] Memory required for data: 1218445312
I0224 06:55:27.298193   622 layer_factory.hpp:123] Creating layer BatchNorm_71_fixed
I0224 06:55:27.298197   622 net.cpp:140] Creating Layer BatchNorm_71_fixed
I0224 06:55:27.298200   622 net.cpp:481] BatchNorm_71_fixed <- BatchNorm_71
I0224 06:55:27.298204   622 net.cpp:442] BatchNorm_71_fixed -> BatchNorm_71 (in-place)
I0224 06:55:27.298228   622 net.cpp:190] Setting up BatchNorm_71_fixed
I0224 06:55:27.298233   622 net.cpp:197] Top shape: 1 128 64 128 (1048576)
I0224 06:55:27.298238   622 net.cpp:205] Memory required for data: 1222639616
I0224 06:55:27.298243   622 layer_factory.hpp:123] Creating layer Add_22
I0224 06:55:27.298246   622 net.cpp:140] Creating Layer Add_22
I0224 06:55:27.298250   622 net.cpp:481] Add_22 <- Add_21_Add_21_fixed_0_split_1
I0224 06:55:27.298254   622 net.cpp:481] Add_22 <- BatchNorm_71
I0224 06:55:27.298259   622 net.cpp:455] Add_22 -> Add_22
I0224 06:55:27.298275   622 net.cpp:190] Setting up Add_22
I0224 06:55:27.298279   622 net.cpp:197] Top shape: 1 128 64 128 (1048576)
I0224 06:55:27.298283   622 net.cpp:205] Memory required for data: 1226833920
I0224 06:55:27.298286   622 layer_factory.hpp:123] Creating layer Threshold_93
I0224 06:55:27.298290   622 net.cpp:140] Creating Layer Threshold_93
I0224 06:55:27.298293   622 net.cpp:481] Threshold_93 <- Add_22
I0224 06:55:27.298297   622 net.cpp:442] Threshold_93 -> Add_22 (in-place)
I0224 06:55:27.298302   622 net.cpp:190] Setting up Threshold_93
I0224 06:55:27.298305   622 net.cpp:197] Top shape: 1 128 64 128 (1048576)
I0224 06:55:27.298310   622 net.cpp:205] Memory required for data: 1231028224
I0224 06:55:27.298312   622 layer_factory.hpp:123] Creating layer Add_22_fixed
I0224 06:55:27.298316   622 net.cpp:140] Creating Layer Add_22_fixed
I0224 06:55:27.298319   622 net.cpp:481] Add_22_fixed <- Add_22
I0224 06:55:27.298323   622 net.cpp:442] Add_22_fixed -> Add_22 (in-place)
I0224 06:55:27.298349   622 net.cpp:190] Setting up Add_22_fixed
I0224 06:55:27.298355   622 net.cpp:197] Top shape: 1 128 64 128 (1048576)
I0224 06:55:27.298359   622 net.cpp:205] Memory required for data: 1235222528
I0224 06:55:27.298363   622 layer_factory.hpp:123] Creating layer Add_22_Add_22_fixed_0_split
I0224 06:55:27.298368   622 net.cpp:140] Creating Layer Add_22_Add_22_fixed_0_split
I0224 06:55:27.298372   622 net.cpp:481] Add_22_Add_22_fixed_0_split <- Add_22
I0224 06:55:27.298377   622 net.cpp:455] Add_22_Add_22_fixed_0_split -> Add_22_Add_22_fixed_0_split_0
I0224 06:55:27.298382   622 net.cpp:455] Add_22_Add_22_fixed_0_split -> Add_22_Add_22_fixed_0_split_1
I0224 06:55:27.298408   622 net.cpp:190] Setting up Add_22_Add_22_fixed_0_split
I0224 06:55:27.298413   622 net.cpp:197] Top shape: 1 128 64 128 (1048576)
I0224 06:55:27.298418   622 net.cpp:197] Top shape: 1 128 64 128 (1048576)
I0224 06:55:27.298422   622 net.cpp:205] Memory required for data: 1243611136
I0224 06:55:27.298425   622 layer_factory.hpp:123] Creating layer ConvNd_74
I0224 06:55:27.298432   622 net.cpp:140] Creating Layer ConvNd_74
I0224 06:55:27.298435   622 net.cpp:481] ConvNd_74 <- Add_22_Add_22_fixed_0_split_0
I0224 06:55:27.298440   622 net.cpp:455] ConvNd_74 -> BatchNorm_72
I0224 06:55:27.298589   622 layer_factory.hpp:123] Creating layer ConvNd_74
I0224 06:55:27.298851   622 net.cpp:190] Setting up ConvNd_74
I0224 06:55:27.298858   622 net.cpp:197] Top shape: 1 64 64 128 (524288)
I0224 06:55:27.298863   622 net.cpp:205] Memory required for data: 1245708288
I0224 06:55:27.298868   622 layer_factory.hpp:123] Creating layer BatchNorm_72_fixed
I0224 06:55:27.298872   622 net.cpp:140] Creating Layer BatchNorm_72_fixed
I0224 06:55:27.298877   622 net.cpp:481] BatchNorm_72_fixed <- BatchNorm_72
I0224 06:55:27.298880   622 net.cpp:442] BatchNorm_72_fixed -> BatchNorm_72 (in-place)
I0224 06:55:27.298904   622 net.cpp:190] Setting up BatchNorm_72_fixed
I0224 06:55:27.298909   622 net.cpp:197] Top shape: 1 64 64 128 (524288)
I0224 06:55:27.298913   622 net.cpp:205] Memory required for data: 1247805440
I0224 06:55:27.298918   622 layer_factory.hpp:123] Creating layer UpsamplingBilinear2d_1
I0224 06:55:27.298924   622 net.cpp:140] Creating Layer UpsamplingBilinear2d_1
I0224 06:55:27.298928   622 net.cpp:481] UpsamplingBilinear2d_1 <- BatchNorm_72
I0224 06:55:27.298933   622 net.cpp:455] UpsamplingBilinear2d_1 -> UpsamplingBilinear2d_1
I0224 06:55:27.299073   622 layer_factory.hpp:123] Creating layer UpsamplingBilinear2d_1
I0224 06:55:27.299276   622 net.cpp:190] Setting up UpsamplingBilinear2d_1
I0224 06:55:27.299283   622 net.cpp:197] Top shape: 1 64 128 256 (2097152)
I0224 06:55:27.299288   622 net.cpp:205] Memory required for data: 1256194048
I0224 06:55:27.299291   622 layer_factory.hpp:123] Creating layer UpsamplingBilinear2d_1_fixed
I0224 06:55:27.299297   622 net.cpp:140] Creating Layer UpsamplingBilinear2d_1_fixed
I0224 06:55:27.299300   622 net.cpp:481] UpsamplingBilinear2d_1_fixed <- UpsamplingBilinear2d_1
I0224 06:55:27.299305   622 net.cpp:442] UpsamplingBilinear2d_1_fixed -> UpsamplingBilinear2d_1 (in-place)
I0224 06:55:27.299332   622 net.cpp:190] Setting up UpsamplingBilinear2d_1_fixed
I0224 06:55:27.299337   622 net.cpp:197] Top shape: 1 64 128 256 (2097152)
I0224 06:55:27.299342   622 net.cpp:205] Memory required for data: 1264582656
I0224 06:55:27.299346   622 layer_factory.hpp:123] Creating layer ConvNd_75
I0224 06:55:27.299352   622 net.cpp:140] Creating Layer ConvNd_75
I0224 06:55:27.299356   622 net.cpp:481] ConvNd_75 <- Add_22_Add_22_fixed_0_split_1
I0224 06:55:27.299361   622 net.cpp:455] ConvNd_75 -> BatchNorm_73
I0224 06:55:27.299502   622 layer_factory.hpp:123] Creating layer ConvNd_75
I0224 06:55:27.299759   622 net.cpp:190] Setting up ConvNd_75
I0224 06:55:27.299765   622 net.cpp:197] Top shape: 1 32 64 128 (262144)
I0224 06:55:27.299770   622 net.cpp:205] Memory required for data: 1265631232
I0224 06:55:27.299775   622 layer_factory.hpp:123] Creating layer Threshold_94
I0224 06:55:27.299779   622 net.cpp:140] Creating Layer Threshold_94
I0224 06:55:27.299783   622 net.cpp:481] Threshold_94 <- BatchNorm_73
I0224 06:55:27.299787   622 net.cpp:442] Threshold_94 -> BatchNorm_73 (in-place)
I0224 06:55:27.299793   622 net.cpp:190] Setting up Threshold_94
I0224 06:55:27.299796   622 net.cpp:197] Top shape: 1 32 64 128 (262144)
I0224 06:55:27.299800   622 net.cpp:205] Memory required for data: 1266679808
I0224 06:55:27.299803   622 layer_factory.hpp:123] Creating layer BatchNorm_73_fixed
I0224 06:55:27.299808   622 net.cpp:140] Creating Layer BatchNorm_73_fixed
I0224 06:55:27.299811   622 net.cpp:481] BatchNorm_73_fixed <- BatchNorm_73
I0224 06:55:27.299815   622 net.cpp:442] BatchNorm_73_fixed -> BatchNorm_73 (in-place)
I0224 06:55:27.299839   622 net.cpp:190] Setting up BatchNorm_73_fixed
I0224 06:55:27.299844   622 net.cpp:197] Top shape: 1 32 64 128 (262144)
I0224 06:55:27.299847   622 net.cpp:205] Memory required for data: 1267728384
I0224 06:55:27.299852   622 layer_factory.hpp:123] Creating layer ConvNd_76
I0224 06:55:27.299857   622 net.cpp:140] Creating Layer ConvNd_76
I0224 06:55:27.299861   622 net.cpp:481] ConvNd_76 <- BatchNorm_73
I0224 06:55:27.299865   622 net.cpp:455] ConvNd_76 -> BatchNorm_74
I0224 06:55:27.300635   622 layer_factory.hpp:123] Creating layer ConvNd_76
I0224 06:55:27.300920   622 net.cpp:190] Setting up ConvNd_76
I0224 06:55:27.300927   622 net.cpp:197] Top shape: 1 32 128 256 (1048576)
I0224 06:55:27.300933   622 net.cpp:205] Memory required for data: 1271922688
I0224 06:55:27.300940   622 layer_factory.hpp:123] Creating layer Threshold_95
I0224 06:55:27.300943   622 net.cpp:140] Creating Layer Threshold_95
I0224 06:55:27.300947   622 net.cpp:481] Threshold_95 <- BatchNorm_74
I0224 06:55:27.300951   622 net.cpp:442] Threshold_95 -> BatchNorm_74 (in-place)
I0224 06:55:27.300957   622 net.cpp:190] Setting up Threshold_95
I0224 06:55:27.300961   622 net.cpp:197] Top shape: 1 32 128 256 (1048576)
I0224 06:55:27.300966   622 net.cpp:205] Memory required for data: 1276116992
I0224 06:55:27.300968   622 layer_factory.hpp:123] Creating layer BatchNorm_74_fixed
I0224 06:55:27.300973   622 net.cpp:140] Creating Layer BatchNorm_74_fixed
I0224 06:55:27.300976   622 net.cpp:481] BatchNorm_74_fixed <- BatchNorm_74
I0224 06:55:27.300981   622 net.cpp:442] BatchNorm_74_fixed -> BatchNorm_74 (in-place)
I0224 06:55:27.301005   622 net.cpp:190] Setting up BatchNorm_74_fixed
I0224 06:55:27.301010   622 net.cpp:197] Top shape: 1 32 128 256 (1048576)
I0224 06:55:27.301015   622 net.cpp:205] Memory required for data: 1280311296
I0224 06:55:27.301019   622 layer_factory.hpp:123] Creating layer ConvNd_77
I0224 06:55:27.301025   622 net.cpp:140] Creating Layer ConvNd_77
I0224 06:55:27.301029   622 net.cpp:481] ConvNd_77 <- BatchNorm_74
I0224 06:55:27.301033   622 net.cpp:455] ConvNd_77 -> BatchNorm_75
I0224 06:55:27.301177   622 layer_factory.hpp:123] Creating layer ConvNd_77
I0224 06:55:27.301465   622 net.cpp:190] Setting up ConvNd_77
I0224 06:55:27.301472   622 net.cpp:197] Top shape: 1 64 128 256 (2097152)
I0224 06:55:27.301477   622 net.cpp:205] Memory required for data: 1288699904
I0224 06:55:27.301482   622 layer_factory.hpp:123] Creating layer Threshold_96
I0224 06:55:27.301487   622 net.cpp:140] Creating Layer Threshold_96
I0224 06:55:27.301491   622 net.cpp:481] Threshold_96 <- BatchNorm_75
I0224 06:55:27.301494   622 net.cpp:442] Threshold_96 -> BatchNorm_75 (in-place)
I0224 06:55:27.301501   622 net.cpp:190] Setting up Threshold_96
I0224 06:55:27.301503   622 net.cpp:197] Top shape: 1 64 128 256 (2097152)
I0224 06:55:27.301507   622 net.cpp:205] Memory required for data: 1297088512
I0224 06:55:27.301510   622 layer_factory.hpp:123] Creating layer BatchNorm_75_fixed
I0224 06:55:27.301515   622 net.cpp:140] Creating Layer BatchNorm_75_fixed
I0224 06:55:27.301518   622 net.cpp:481] BatchNorm_75_fixed <- BatchNorm_75
I0224 06:55:27.301522   622 net.cpp:442] BatchNorm_75_fixed -> BatchNorm_75 (in-place)
I0224 06:55:27.301546   622 net.cpp:190] Setting up BatchNorm_75_fixed
I0224 06:55:27.301551   622 net.cpp:197] Top shape: 1 64 128 256 (2097152)
I0224 06:55:27.301556   622 net.cpp:205] Memory required for data: 1305477120
I0224 06:55:27.301560   622 layer_factory.hpp:123] Creating layer Add_23
I0224 06:55:27.301565   622 net.cpp:140] Creating Layer Add_23
I0224 06:55:27.301569   622 net.cpp:481] Add_23 <- UpsamplingBilinear2d_1
I0224 06:55:27.301573   622 net.cpp:481] Add_23 <- BatchNorm_75
I0224 06:55:27.301578   622 net.cpp:455] Add_23 -> Add_23
I0224 06:55:27.301594   622 net.cpp:190] Setting up Add_23
I0224 06:55:27.301599   622 net.cpp:197] Top shape: 1 64 128 256 (2097152)
I0224 06:55:27.301604   622 net.cpp:205] Memory required for data: 1313865728
I0224 06:55:27.301607   622 layer_factory.hpp:123] Creating layer Threshold_97
I0224 06:55:27.301611   622 net.cpp:140] Creating Layer Threshold_97
I0224 06:55:27.301615   622 net.cpp:481] Threshold_97 <- Add_23
I0224 06:55:27.301620   622 net.cpp:442] Threshold_97 -> Add_23 (in-place)
I0224 06:55:27.301625   622 net.cpp:190] Setting up Threshold_97
I0224 06:55:27.301627   622 net.cpp:197] Top shape: 1 64 128 256 (2097152)
I0224 06:55:27.301631   622 net.cpp:205] Memory required for data: 1322254336
I0224 06:55:27.301635   622 layer_factory.hpp:123] Creating layer Add_23_fixed
I0224 06:55:27.301640   622 net.cpp:140] Creating Layer Add_23_fixed
I0224 06:55:27.301642   622 net.cpp:481] Add_23_fixed <- Add_23
I0224 06:55:27.301646   622 net.cpp:442] Add_23_fixed -> Add_23 (in-place)
I0224 06:55:27.301673   622 net.cpp:190] Setting up Add_23_fixed
I0224 06:55:27.301678   622 net.cpp:197] Top shape: 1 64 128 256 (2097152)
I0224 06:55:27.301683   622 net.cpp:205] Memory required for data: 1330642944
I0224 06:55:27.301694   622 layer_factory.hpp:123] Creating layer Add_23_Add_23_fixed_0_split
I0224 06:55:27.301699   622 net.cpp:140] Creating Layer Add_23_Add_23_fixed_0_split
I0224 06:55:27.301702   622 net.cpp:481] Add_23_Add_23_fixed_0_split <- Add_23
I0224 06:55:27.301707   622 net.cpp:455] Add_23_Add_23_fixed_0_split -> Add_23_Add_23_fixed_0_split_0
I0224 06:55:27.301712   622 net.cpp:455] Add_23_Add_23_fixed_0_split -> Add_23_Add_23_fixed_0_split_1
I0224 06:55:27.301741   622 net.cpp:190] Setting up Add_23_Add_23_fixed_0_split
I0224 06:55:27.301746   622 net.cpp:197] Top shape: 1 64 128 256 (2097152)
I0224 06:55:27.301751   622 net.cpp:197] Top shape: 1 64 128 256 (2097152)
I0224 06:55:27.301754   622 net.cpp:205] Memory required for data: 1347420160
I0224 06:55:27.301759   622 layer_factory.hpp:123] Creating layer ConvNd_78
I0224 06:55:27.301764   622 net.cpp:140] Creating Layer ConvNd_78
I0224 06:55:27.301769   622 net.cpp:481] ConvNd_78 <- Add_23_Add_23_fixed_0_split_0
I0224 06:55:27.301772   622 net.cpp:455] ConvNd_78 -> BatchNorm_76
I0224 06:55:27.301921   622 layer_factory.hpp:123] Creating layer ConvNd_78
I0224 06:55:27.302198   622 net.cpp:190] Setting up ConvNd_78
I0224 06:55:27.302204   622 net.cpp:197] Top shape: 1 16 128 256 (524288)
I0224 06:55:27.302209   622 net.cpp:205] Memory required for data: 1349517312
I0224 06:55:27.302215   622 layer_factory.hpp:123] Creating layer Threshold_98
I0224 06:55:27.302219   622 net.cpp:140] Creating Layer Threshold_98
I0224 06:55:27.302223   622 net.cpp:481] Threshold_98 <- BatchNorm_76
I0224 06:55:27.302227   622 net.cpp:442] Threshold_98 -> BatchNorm_76 (in-place)
I0224 06:55:27.302232   622 net.cpp:190] Setting up Threshold_98
I0224 06:55:27.302235   622 net.cpp:197] Top shape: 1 16 128 256 (524288)
I0224 06:55:27.302239   622 net.cpp:205] Memory required for data: 1351614464
I0224 06:55:27.302242   622 layer_factory.hpp:123] Creating layer BatchNorm_76_fixed
I0224 06:55:27.302248   622 net.cpp:140] Creating Layer BatchNorm_76_fixed
I0224 06:55:27.302250   622 net.cpp:481] BatchNorm_76_fixed <- BatchNorm_76
I0224 06:55:27.302254   622 net.cpp:442] BatchNorm_76_fixed -> BatchNorm_76 (in-place)
I0224 06:55:27.302279   622 net.cpp:190] Setting up BatchNorm_76_fixed
I0224 06:55:27.302284   622 net.cpp:197] Top shape: 1 16 128 256 (524288)
I0224 06:55:27.302289   622 net.cpp:205] Memory required for data: 1353711616
I0224 06:55:27.302292   622 layer_factory.hpp:123] Creating layer ConvNd_79
I0224 06:55:27.302299   622 net.cpp:140] Creating Layer ConvNd_79
I0224 06:55:27.302302   622 net.cpp:481] ConvNd_79 <- BatchNorm_76
I0224 06:55:27.302306   622 net.cpp:455] ConvNd_79 -> BatchNorm_77
I0224 06:55:27.302449   622 layer_factory.hpp:123] Creating layer ConvNd_79
I0224 06:55:27.302726   622 net.cpp:190] Setting up ConvNd_79
I0224 06:55:27.302733   622 net.cpp:197] Top shape: 1 16 128 256 (524288)
I0224 06:55:27.302737   622 net.cpp:205] Memory required for data: 1355808768
I0224 06:55:27.302742   622 layer_factory.hpp:123] Creating layer Threshold_99
I0224 06:55:27.302747   622 net.cpp:140] Creating Layer Threshold_99
I0224 06:55:27.302752   622 net.cpp:481] Threshold_99 <- BatchNorm_77
I0224 06:55:27.302754   622 net.cpp:442] Threshold_99 -> BatchNorm_77 (in-place)
I0224 06:55:27.302760   622 net.cpp:190] Setting up Threshold_99
I0224 06:55:27.302763   622 net.cpp:197] Top shape: 1 16 128 256 (524288)
I0224 06:55:27.302767   622 net.cpp:205] Memory required for data: 1357905920
I0224 06:55:27.302770   622 layer_factory.hpp:123] Creating layer BatchNorm_77_fixed
I0224 06:55:27.302775   622 net.cpp:140] Creating Layer BatchNorm_77_fixed
I0224 06:55:27.302778   622 net.cpp:481] BatchNorm_77_fixed <- BatchNorm_77
I0224 06:55:27.302783   622 net.cpp:442] BatchNorm_77_fixed -> BatchNorm_77 (in-place)
I0224 06:55:27.302808   622 net.cpp:190] Setting up BatchNorm_77_fixed
I0224 06:55:27.302812   622 net.cpp:197] Top shape: 1 16 128 256 (524288)
I0224 06:55:27.302816   622 net.cpp:205] Memory required for data: 1360003072
I0224 06:55:27.302820   622 layer_factory.hpp:123] Creating layer ConvNd_80
I0224 06:55:27.302826   622 net.cpp:140] Creating Layer ConvNd_80
I0224 06:55:27.302829   622 net.cpp:481] ConvNd_80 <- BatchNorm_77
I0224 06:55:27.302834   622 net.cpp:455] ConvNd_80 -> BatchNorm_78
I0224 06:55:27.302975   622 layer_factory.hpp:123] Creating layer ConvNd_80
I0224 06:55:27.303247   622 net.cpp:190] Setting up ConvNd_80
I0224 06:55:27.303254   622 net.cpp:197] Top shape: 1 64 128 256 (2097152)
I0224 06:55:27.303258   622 net.cpp:205] Memory required for data: 1368391680
I0224 06:55:27.303263   622 layer_factory.hpp:123] Creating layer Threshold_100
I0224 06:55:27.303268   622 net.cpp:140] Creating Layer Threshold_100
I0224 06:55:27.303272   622 net.cpp:481] Threshold_100 <- BatchNorm_78
I0224 06:55:27.303275   622 net.cpp:442] Threshold_100 -> BatchNorm_78 (in-place)
I0224 06:55:27.303282   622 net.cpp:190] Setting up Threshold_100
I0224 06:55:27.303284   622 net.cpp:197] Top shape: 1 64 128 256 (2097152)
I0224 06:55:27.303288   622 net.cpp:205] Memory required for data: 1376780288
I0224 06:55:27.303292   622 layer_factory.hpp:123] Creating layer BatchNorm_78_fixed
I0224 06:55:27.303297   622 net.cpp:140] Creating Layer BatchNorm_78_fixed
I0224 06:55:27.303299   622 net.cpp:481] BatchNorm_78_fixed <- BatchNorm_78
I0224 06:55:27.303303   622 net.cpp:442] BatchNorm_78_fixed -> BatchNorm_78 (in-place)
I0224 06:55:27.303328   622 net.cpp:190] Setting up BatchNorm_78_fixed
I0224 06:55:27.303333   622 net.cpp:197] Top shape: 1 64 128 256 (2097152)
I0224 06:55:27.303337   622 net.cpp:205] Memory required for data: 1385168896
I0224 06:55:27.303341   622 layer_factory.hpp:123] Creating layer Add_24
I0224 06:55:27.303346   622 net.cpp:140] Creating Layer Add_24
I0224 06:55:27.303349   622 net.cpp:481] Add_24 <- Add_23_Add_23_fixed_0_split_1
I0224 06:55:27.303354   622 net.cpp:481] Add_24 <- BatchNorm_78
I0224 06:55:27.303357   622 net.cpp:455] Add_24 -> Add_24
I0224 06:55:27.303375   622 net.cpp:190] Setting up Add_24
I0224 06:55:27.303380   622 net.cpp:197] Top shape: 1 64 128 256 (2097152)
I0224 06:55:27.303385   622 net.cpp:205] Memory required for data: 1393557504
I0224 06:55:27.303388   622 layer_factory.hpp:123] Creating layer Threshold_101
I0224 06:55:27.303392   622 net.cpp:140] Creating Layer Threshold_101
I0224 06:55:27.303395   622 net.cpp:481] Threshold_101 <- Add_24
I0224 06:55:27.303400   622 net.cpp:442] Threshold_101 -> Add_24 (in-place)
I0224 06:55:27.303405   622 net.cpp:190] Setting up Threshold_101
I0224 06:55:27.303407   622 net.cpp:197] Top shape: 1 64 128 256 (2097152)
I0224 06:55:27.303411   622 net.cpp:205] Memory required for data: 1401946112
I0224 06:55:27.303414   622 layer_factory.hpp:123] Creating layer Add_24_fixed
I0224 06:55:27.303419   622 net.cpp:140] Creating Layer Add_24_fixed
I0224 06:55:27.303422   622 net.cpp:481] Add_24_fixed <- Add_24
I0224 06:55:27.303426   622 net.cpp:442] Add_24_fixed -> Add_24 (in-place)
I0224 06:55:27.303453   622 net.cpp:190] Setting up Add_24_fixed
I0224 06:55:27.303458   622 net.cpp:197] Top shape: 1 64 128 256 (2097152)
I0224 06:55:27.303462   622 net.cpp:205] Memory required for data: 1410334720
I0224 06:55:27.303467   622 layer_factory.hpp:123] Creating layer Add_24_Add_24_fixed_0_split
I0224 06:55:27.303472   622 net.cpp:140] Creating Layer Add_24_Add_24_fixed_0_split
I0224 06:55:27.303474   622 net.cpp:481] Add_24_Add_24_fixed_0_split <- Add_24
I0224 06:55:27.303479   622 net.cpp:455] Add_24_Add_24_fixed_0_split -> Add_24_Add_24_fixed_0_split_0
I0224 06:55:27.303485   622 net.cpp:455] Add_24_Add_24_fixed_0_split -> Add_24_Add_24_fixed_0_split_1
I0224 06:55:27.303512   622 net.cpp:190] Setting up Add_24_Add_24_fixed_0_split
I0224 06:55:27.303519   622 net.cpp:197] Top shape: 1 64 128 256 (2097152)
I0224 06:55:27.303534   622 net.cpp:197] Top shape: 1 64 128 256 (2097152)
I0224 06:55:27.303537   622 net.cpp:205] Memory required for data: 1427111936
I0224 06:55:27.303540   622 layer_factory.hpp:123] Creating layer ConvNd_81
I0224 06:55:27.303546   622 net.cpp:140] Creating Layer ConvNd_81
I0224 06:55:27.303550   622 net.cpp:481] ConvNd_81 <- Add_24_Add_24_fixed_0_split_0
I0224 06:55:27.303555   622 net.cpp:455] ConvNd_81 -> BatchNorm_79
I0224 06:55:27.303700   622 layer_factory.hpp:123] Creating layer ConvNd_81
I0224 06:55:27.303987   622 net.cpp:190] Setting up ConvNd_81
I0224 06:55:27.303993   622 net.cpp:197] Top shape: 1 16 128 256 (524288)
I0224 06:55:27.303998   622 net.cpp:205] Memory required for data: 1429209088
I0224 06:55:27.304003   622 layer_factory.hpp:123] Creating layer Threshold_102
I0224 06:55:27.304008   622 net.cpp:140] Creating Layer Threshold_102
I0224 06:55:27.304011   622 net.cpp:481] Threshold_102 <- BatchNorm_79
I0224 06:55:27.304015   622 net.cpp:442] Threshold_102 -> BatchNorm_79 (in-place)
I0224 06:55:27.304021   622 net.cpp:190] Setting up Threshold_102
I0224 06:55:27.304024   622 net.cpp:197] Top shape: 1 16 128 256 (524288)
I0224 06:55:27.304028   622 net.cpp:205] Memory required for data: 1431306240
I0224 06:55:27.304031   622 layer_factory.hpp:123] Creating layer BatchNorm_79_fixed
I0224 06:55:27.304036   622 net.cpp:140] Creating Layer BatchNorm_79_fixed
I0224 06:55:27.304039   622 net.cpp:481] BatchNorm_79_fixed <- BatchNorm_79
I0224 06:55:27.304044   622 net.cpp:442] BatchNorm_79_fixed -> BatchNorm_79 (in-place)
I0224 06:55:27.304067   622 net.cpp:190] Setting up BatchNorm_79_fixed
I0224 06:55:27.304075   622 net.cpp:197] Top shape: 1 16 128 256 (524288)
I0224 06:55:27.304080   622 net.cpp:205] Memory required for data: 1433403392
I0224 06:55:27.304085   622 layer_factory.hpp:123] Creating layer ConvNd_82
I0224 06:55:27.304090   622 net.cpp:140] Creating Layer ConvNd_82
I0224 06:55:27.304093   622 net.cpp:481] ConvNd_82 <- BatchNorm_79
I0224 06:55:27.304098   622 net.cpp:455] ConvNd_82 -> BatchNorm_80
I0224 06:55:27.304244   622 layer_factory.hpp:123] Creating layer ConvNd_82
I0224 06:55:27.305143   622 net.cpp:190] Setting up ConvNd_82
I0224 06:55:27.305153   622 net.cpp:197] Top shape: 1 16 128 256 (524288)
I0224 06:55:27.305160   622 net.cpp:205] Memory required for data: 1435500544
I0224 06:55:27.305166   622 layer_factory.hpp:123] Creating layer Threshold_103
I0224 06:55:27.305171   622 net.cpp:140] Creating Layer Threshold_103
I0224 06:55:27.305174   622 net.cpp:481] Threshold_103 <- BatchNorm_80
I0224 06:55:27.305179   622 net.cpp:442] Threshold_103 -> BatchNorm_80 (in-place)
I0224 06:55:27.305186   622 net.cpp:190] Setting up Threshold_103
I0224 06:55:27.305188   622 net.cpp:197] Top shape: 1 16 128 256 (524288)
I0224 06:55:27.305193   622 net.cpp:205] Memory required for data: 1437597696
I0224 06:55:27.305197   622 layer_factory.hpp:123] Creating layer BatchNorm_80_fixed
I0224 06:55:27.305202   622 net.cpp:140] Creating Layer BatchNorm_80_fixed
I0224 06:55:27.305204   622 net.cpp:481] BatchNorm_80_fixed <- BatchNorm_80
I0224 06:55:27.305208   622 net.cpp:442] BatchNorm_80_fixed -> BatchNorm_80 (in-place)
I0224 06:55:27.305243   622 net.cpp:190] Setting up BatchNorm_80_fixed
I0224 06:55:27.305248   622 net.cpp:197] Top shape: 1 16 128 256 (524288)
I0224 06:55:27.305253   622 net.cpp:205] Memory required for data: 1439694848
I0224 06:55:27.305256   622 layer_factory.hpp:123] Creating layer ConvNd_83
I0224 06:55:27.305263   622 net.cpp:140] Creating Layer ConvNd_83
I0224 06:55:27.305266   622 net.cpp:481] ConvNd_83 <- BatchNorm_80
I0224 06:55:27.305270   622 net.cpp:455] ConvNd_83 -> BatchNorm_81
I0224 06:55:27.305426   622 layer_factory.hpp:123] Creating layer ConvNd_83
I0224 06:55:27.305709   622 net.cpp:190] Setting up ConvNd_83
I0224 06:55:27.305716   622 net.cpp:197] Top shape: 1 64 128 256 (2097152)
I0224 06:55:27.305722   622 net.cpp:205] Memory required for data: 1448083456
I0224 06:55:27.305730   622 layer_factory.hpp:123] Creating layer Threshold_104
I0224 06:55:27.305737   622 net.cpp:140] Creating Layer Threshold_104
I0224 06:55:27.305742   622 net.cpp:481] Threshold_104 <- BatchNorm_81
I0224 06:55:27.305748   622 net.cpp:442] Threshold_104 -> BatchNorm_81 (in-place)
I0224 06:55:27.305754   622 net.cpp:190] Setting up Threshold_104
I0224 06:55:27.305757   622 net.cpp:197] Top shape: 1 64 128 256 (2097152)
I0224 06:55:27.305763   622 net.cpp:205] Memory required for data: 1456472064
I0224 06:55:27.305765   622 layer_factory.hpp:123] Creating layer BatchNorm_81_fixed
I0224 06:55:27.305770   622 net.cpp:140] Creating Layer BatchNorm_81_fixed
I0224 06:55:27.305773   622 net.cpp:481] BatchNorm_81_fixed <- BatchNorm_81
I0224 06:55:27.305778   622 net.cpp:442] BatchNorm_81_fixed -> BatchNorm_81 (in-place)
I0224 06:55:27.305809   622 net.cpp:190] Setting up BatchNorm_81_fixed
I0224 06:55:27.305814   622 net.cpp:197] Top shape: 1 64 128 256 (2097152)
I0224 06:55:27.305819   622 net.cpp:205] Memory required for data: 1464860672
I0224 06:55:27.305822   622 layer_factory.hpp:123] Creating layer Add_25
I0224 06:55:27.305827   622 net.cpp:140] Creating Layer Add_25
I0224 06:55:27.305831   622 net.cpp:481] Add_25 <- Add_24_Add_24_fixed_0_split_1
I0224 06:55:27.305835   622 net.cpp:481] Add_25 <- BatchNorm_81
I0224 06:55:27.305838   622 net.cpp:455] Add_25 -> Add_25
I0224 06:55:27.305856   622 net.cpp:190] Setting up Add_25
I0224 06:55:27.305860   622 net.cpp:197] Top shape: 1 64 128 256 (2097152)
I0224 06:55:27.305864   622 net.cpp:205] Memory required for data: 1473249280
I0224 06:55:27.305867   622 layer_factory.hpp:123] Creating layer Threshold_105
I0224 06:55:27.305872   622 net.cpp:140] Creating Layer Threshold_105
I0224 06:55:27.305876   622 net.cpp:481] Threshold_105 <- Add_25
I0224 06:55:27.305879   622 net.cpp:442] Threshold_105 -> Add_25 (in-place)
I0224 06:55:27.305884   622 net.cpp:190] Setting up Threshold_105
I0224 06:55:27.305887   622 net.cpp:197] Top shape: 1 64 128 256 (2097152)
I0224 06:55:27.305891   622 net.cpp:205] Memory required for data: 1481637888
I0224 06:55:27.305894   622 layer_factory.hpp:123] Creating layer Add_25_fixed
I0224 06:55:27.305899   622 net.cpp:140] Creating Layer Add_25_fixed
I0224 06:55:27.305902   622 net.cpp:481] Add_25_fixed <- Add_25
I0224 06:55:27.305907   622 net.cpp:442] Add_25_fixed -> Add_25 (in-place)
I0224 06:55:27.305933   622 net.cpp:190] Setting up Add_25_fixed
I0224 06:55:27.305938   622 net.cpp:197] Top shape: 1 64 128 256 (2097152)
I0224 06:55:27.305943   622 net.cpp:205] Memory required for data: 1490026496
I0224 06:55:27.305948   622 layer_factory.hpp:123] Creating layer Add_25_Add_25_fixed_0_split
I0224 06:55:27.305951   622 net.cpp:140] Creating Layer Add_25_Add_25_fixed_0_split
I0224 06:55:27.305955   622 net.cpp:481] Add_25_Add_25_fixed_0_split <- Add_25
I0224 06:55:27.305959   622 net.cpp:455] Add_25_Add_25_fixed_0_split -> Add_25_Add_25_fixed_0_split_0
I0224 06:55:27.305965   622 net.cpp:455] Add_25_Add_25_fixed_0_split -> Add_25_Add_25_fixed_0_split_1
I0224 06:55:27.305991   622 net.cpp:190] Setting up Add_25_Add_25_fixed_0_split
I0224 06:55:27.305997   622 net.cpp:197] Top shape: 1 64 128 256 (2097152)
I0224 06:55:27.306001   622 net.cpp:197] Top shape: 1 64 128 256 (2097152)
I0224 06:55:27.306005   622 net.cpp:205] Memory required for data: 1506803712
I0224 06:55:27.306008   622 layer_factory.hpp:123] Creating layer ConvNd_84
I0224 06:55:27.306015   622 net.cpp:140] Creating Layer ConvNd_84
I0224 06:55:27.306020   622 net.cpp:481] ConvNd_84 <- Add_25_Add_25_fixed_0_split_0
I0224 06:55:27.306023   622 net.cpp:455] ConvNd_84 -> BatchNorm_82
I0224 06:55:27.306172   622 layer_factory.hpp:123] Creating layer ConvNd_84
I0224 06:55:27.306457   622 net.cpp:190] Setting up ConvNd_84
I0224 06:55:27.306463   622 net.cpp:197] Top shape: 1 16 128 256 (524288)
I0224 06:55:27.306468   622 net.cpp:205] Memory required for data: 1508900864
I0224 06:55:27.306473   622 layer_factory.hpp:123] Creating layer BatchNorm_82_fixed
I0224 06:55:27.306478   622 net.cpp:140] Creating Layer BatchNorm_82_fixed
I0224 06:55:27.306481   622 net.cpp:481] BatchNorm_82_fixed <- BatchNorm_82
I0224 06:55:27.306485   622 net.cpp:442] BatchNorm_82_fixed -> BatchNorm_82 (in-place)
I0224 06:55:27.306512   622 net.cpp:190] Setting up BatchNorm_82_fixed
I0224 06:55:27.306517   622 net.cpp:197] Top shape: 1 16 128 256 (524288)
I0224 06:55:27.306522   622 net.cpp:205] Memory required for data: 1510998016
I0224 06:55:27.306526   622 layer_factory.hpp:123] Creating layer UpsamplingBilinear2d_2
I0224 06:55:27.306532   622 net.cpp:140] Creating Layer UpsamplingBilinear2d_2
I0224 06:55:27.306535   622 net.cpp:481] UpsamplingBilinear2d_2 <- BatchNorm_82
I0224 06:55:27.306540   622 net.cpp:455] UpsamplingBilinear2d_2 -> UpsamplingBilinear2d_2
I0224 06:55:27.306663   622 layer_factory.hpp:123] Creating layer UpsamplingBilinear2d_2
I0224 06:55:27.306845   622 net.cpp:190] Setting up UpsamplingBilinear2d_2
I0224 06:55:27.306851   622 net.cpp:197] Top shape: 1 16 256 512 (2097152)
I0224 06:55:27.306856   622 net.cpp:205] Memory required for data: 1519386624
I0224 06:55:27.306860   622 layer_factory.hpp:123] Creating layer UpsamplingBilinear2d_2_fixed
I0224 06:55:27.306865   622 net.cpp:140] Creating Layer UpsamplingBilinear2d_2_fixed
I0224 06:55:27.306869   622 net.cpp:481] UpsamplingBilinear2d_2_fixed <- UpsamplingBilinear2d_2
I0224 06:55:27.306874   622 net.cpp:442] UpsamplingBilinear2d_2_fixed -> UpsamplingBilinear2d_2 (in-place)
I0224 06:55:27.306910   622 net.cpp:190] Setting up UpsamplingBilinear2d_2_fixed
I0224 06:55:27.306915   622 net.cpp:197] Top shape: 1 16 256 512 (2097152)
I0224 06:55:27.306919   622 net.cpp:205] Memory required for data: 1527775232
I0224 06:55:27.306923   622 layer_factory.hpp:123] Creating layer ConvNd_85
I0224 06:55:27.306929   622 net.cpp:140] Creating Layer ConvNd_85
I0224 06:55:27.306933   622 net.cpp:481] ConvNd_85 <- Add_25_Add_25_fixed_0_split_1
I0224 06:55:27.306937   622 net.cpp:455] ConvNd_85 -> BatchNorm_83
I0224 06:55:27.307081   622 layer_factory.hpp:123] Creating layer ConvNd_85
I0224 06:55:27.307358   622 net.cpp:190] Setting up ConvNd_85
I0224 06:55:27.307365   622 net.cpp:197] Top shape: 1 16 128 256 (524288)
I0224 06:55:27.307369   622 net.cpp:205] Memory required for data: 1529872384
I0224 06:55:27.307374   622 layer_factory.hpp:123] Creating layer Threshold_106
I0224 06:55:27.307379   622 net.cpp:140] Creating Layer Threshold_106
I0224 06:55:27.307382   622 net.cpp:481] Threshold_106 <- BatchNorm_83
I0224 06:55:27.307386   622 net.cpp:442] Threshold_106 -> BatchNorm_83 (in-place)
I0224 06:55:27.307394   622 net.cpp:190] Setting up Threshold_106
I0224 06:55:27.307396   622 net.cpp:197] Top shape: 1 16 128 256 (524288)
I0224 06:55:27.307400   622 net.cpp:205] Memory required for data: 1531969536
I0224 06:55:27.307404   622 layer_factory.hpp:123] Creating layer BatchNorm_83_fixed
I0224 06:55:27.307408   622 net.cpp:140] Creating Layer BatchNorm_83_fixed
I0224 06:55:27.307411   622 net.cpp:481] BatchNorm_83_fixed <- BatchNorm_83
I0224 06:55:27.307415   622 net.cpp:442] BatchNorm_83_fixed -> BatchNorm_83 (in-place)
I0224 06:55:27.307440   622 net.cpp:190] Setting up BatchNorm_83_fixed
I0224 06:55:27.307443   622 net.cpp:197] Top shape: 1 16 128 256 (524288)
I0224 06:55:27.307448   622 net.cpp:205] Memory required for data: 1534066688
I0224 06:55:27.307452   622 layer_factory.hpp:123] Creating layer ConvNd_86
I0224 06:55:27.307458   622 net.cpp:140] Creating Layer ConvNd_86
I0224 06:55:27.307461   622 net.cpp:481] ConvNd_86 <- BatchNorm_83
I0224 06:55:27.307466   622 net.cpp:455] ConvNd_86 -> BatchNorm_84
I0224 06:55:27.307605   622 layer_factory.hpp:123] Creating layer ConvNd_86
I0224 06:55:27.307966   622 net.cpp:190] Setting up ConvNd_86
I0224 06:55:27.307972   622 net.cpp:197] Top shape: 1 16 256 512 (2097152)
I0224 06:55:27.307977   622 net.cpp:205] Memory required for data: 1542455296
I0224 06:55:27.307982   622 layer_factory.hpp:123] Creating layer Threshold_107
I0224 06:55:27.307986   622 net.cpp:140] Creating Layer Threshold_107
I0224 06:55:27.307991   622 net.cpp:481] Threshold_107 <- BatchNorm_84
I0224 06:55:27.307994   622 net.cpp:442] Threshold_107 -> BatchNorm_84 (in-place)
I0224 06:55:27.307999   622 net.cpp:190] Setting up Threshold_107
I0224 06:55:27.308002   622 net.cpp:197] Top shape: 1 16 256 512 (2097152)
I0224 06:55:27.308007   622 net.cpp:205] Memory required for data: 1550843904
I0224 06:55:27.308009   622 layer_factory.hpp:123] Creating layer BatchNorm_84_fixed
I0224 06:55:27.308014   622 net.cpp:140] Creating Layer BatchNorm_84_fixed
I0224 06:55:27.308017   622 net.cpp:481] BatchNorm_84_fixed <- BatchNorm_84
I0224 06:55:27.308022   622 net.cpp:442] BatchNorm_84_fixed -> BatchNorm_84 (in-place)
I0224 06:55:27.308046   622 net.cpp:190] Setting up BatchNorm_84_fixed
I0224 06:55:27.308051   622 net.cpp:197] Top shape: 1 16 256 512 (2097152)
I0224 06:55:27.308056   622 net.cpp:205] Memory required for data: 1559232512
I0224 06:55:27.308060   622 layer_factory.hpp:123] Creating layer ConvNd_87
I0224 06:55:27.308065   622 net.cpp:140] Creating Layer ConvNd_87
I0224 06:55:27.308069   622 net.cpp:481] ConvNd_87 <- BatchNorm_84
I0224 06:55:27.308073   622 net.cpp:455] ConvNd_87 -> BatchNorm_85
I0224 06:55:27.308218   622 layer_factory.hpp:123] Creating layer ConvNd_87
I0224 06:55:27.309186   622 net.cpp:190] Setting up ConvNd_87
I0224 06:55:27.309196   622 net.cpp:197] Top shape: 1 16 256 512 (2097152)
I0224 06:55:27.309201   622 net.cpp:205] Memory required for data: 1567621120
I0224 06:55:27.309207   622 layer_factory.hpp:123] Creating layer Threshold_108
I0224 06:55:27.309212   622 net.cpp:140] Creating Layer Threshold_108
I0224 06:55:27.309216   622 net.cpp:481] Threshold_108 <- BatchNorm_85
I0224 06:55:27.309221   622 net.cpp:442] Threshold_108 -> BatchNorm_85 (in-place)
I0224 06:55:27.309227   622 net.cpp:190] Setting up Threshold_108
I0224 06:55:27.309231   622 net.cpp:197] Top shape: 1 16 256 512 (2097152)
I0224 06:55:27.309234   622 net.cpp:205] Memory required for data: 1576009728
I0224 06:55:27.309237   622 layer_factory.hpp:123] Creating layer BatchNorm_85_fixed
I0224 06:55:27.309242   622 net.cpp:140] Creating Layer BatchNorm_85_fixed
I0224 06:55:27.309245   622 net.cpp:481] BatchNorm_85_fixed <- BatchNorm_85
I0224 06:55:27.309249   622 net.cpp:442] BatchNorm_85_fixed -> BatchNorm_85 (in-place)
I0224 06:55:27.309275   622 net.cpp:190] Setting up BatchNorm_85_fixed
I0224 06:55:27.309281   622 net.cpp:197] Top shape: 1 16 256 512 (2097152)
I0224 06:55:27.309285   622 net.cpp:205] Memory required for data: 1584398336
I0224 06:55:27.309289   622 layer_factory.hpp:123] Creating layer Add_26
I0224 06:55:27.309294   622 net.cpp:140] Creating Layer Add_26
I0224 06:55:27.309298   622 net.cpp:481] Add_26 <- UpsamplingBilinear2d_2
I0224 06:55:27.309301   622 net.cpp:481] Add_26 <- BatchNorm_85
I0224 06:55:27.309306   622 net.cpp:455] Add_26 -> Add_26
I0224 06:55:27.309331   622 net.cpp:190] Setting up Add_26
I0224 06:55:27.309336   622 net.cpp:197] Top shape: 1 16 256 512 (2097152)
I0224 06:55:27.309340   622 net.cpp:205] Memory required for data: 1592786944
I0224 06:55:27.309343   622 layer_factory.hpp:123] Creating layer Threshold_109
I0224 06:55:27.309347   622 net.cpp:140] Creating Layer Threshold_109
I0224 06:55:27.309351   622 net.cpp:481] Threshold_109 <- Add_26
I0224 06:55:27.309355   622 net.cpp:442] Threshold_109 -> Add_26 (in-place)
I0224 06:55:27.309360   622 net.cpp:190] Setting up Threshold_109
I0224 06:55:27.309363   622 net.cpp:197] Top shape: 1 16 256 512 (2097152)
I0224 06:55:27.309367   622 net.cpp:205] Memory required for data: 1601175552
I0224 06:55:27.309370   622 layer_factory.hpp:123] Creating layer Add_26_fixed
I0224 06:55:27.309374   622 net.cpp:140] Creating Layer Add_26_fixed
I0224 06:55:27.309378   622 net.cpp:481] Add_26_fixed <- Add_26
I0224 06:55:27.309382   622 net.cpp:442] Add_26_fixed -> Add_26 (in-place)
I0224 06:55:27.309412   622 net.cpp:190] Setting up Add_26_fixed
I0224 06:55:27.309417   622 net.cpp:197] Top shape: 1 16 256 512 (2097152)
I0224 06:55:27.309420   622 net.cpp:205] Memory required for data: 1609564160
I0224 06:55:27.309425   622 layer_factory.hpp:123] Creating layer Add_26_Add_26_fixed_0_split
I0224 06:55:27.309429   622 net.cpp:140] Creating Layer Add_26_Add_26_fixed_0_split
I0224 06:55:27.309433   622 net.cpp:481] Add_26_Add_26_fixed_0_split <- Add_26
I0224 06:55:27.309437   622 net.cpp:455] Add_26_Add_26_fixed_0_split -> Add_26_Add_26_fixed_0_split_0
I0224 06:55:27.309442   622 net.cpp:455] Add_26_Add_26_fixed_0_split -> Add_26_Add_26_fixed_0_split_1
I0224 06:55:27.309471   622 net.cpp:190] Setting up Add_26_Add_26_fixed_0_split
I0224 06:55:27.309478   622 net.cpp:197] Top shape: 1 16 256 512 (2097152)
I0224 06:55:27.309481   622 net.cpp:197] Top shape: 1 16 256 512 (2097152)
I0224 06:55:27.309485   622 net.cpp:205] Memory required for data: 1626341376
I0224 06:55:27.309489   622 layer_factory.hpp:123] Creating layer ConvNd_88
I0224 06:55:27.309496   622 net.cpp:140] Creating Layer ConvNd_88
I0224 06:55:27.309499   622 net.cpp:481] ConvNd_88 <- Add_26_Add_26_fixed_0_split_0
I0224 06:55:27.309504   622 net.cpp:455] ConvNd_88 -> BatchNorm_86
I0224 06:55:27.309655   622 layer_factory.hpp:123] Creating layer ConvNd_88
I0224 06:55:27.310616   622 net.cpp:190] Setting up ConvNd_88
I0224 06:55:27.310626   622 net.cpp:197] Top shape: 1 4 256 512 (524288)
I0224 06:55:27.310632   622 net.cpp:205] Memory required for data: 1628438528
I0224 06:55:27.310638   622 layer_factory.hpp:123] Creating layer Threshold_110
I0224 06:55:27.310644   622 net.cpp:140] Creating Layer Threshold_110
I0224 06:55:27.310648   622 net.cpp:481] Threshold_110 <- BatchNorm_86
I0224 06:55:27.310652   622 net.cpp:442] Threshold_110 -> BatchNorm_86 (in-place)
I0224 06:55:27.310659   622 net.cpp:190] Setting up Threshold_110
I0224 06:55:27.310662   622 net.cpp:197] Top shape: 1 4 256 512 (524288)
I0224 06:55:27.310667   622 net.cpp:205] Memory required for data: 1630535680
I0224 06:55:27.310669   622 layer_factory.hpp:123] Creating layer BatchNorm_86_fixed
I0224 06:55:27.310674   622 net.cpp:140] Creating Layer BatchNorm_86_fixed
I0224 06:55:27.310678   622 net.cpp:481] BatchNorm_86_fixed <- BatchNorm_86
I0224 06:55:27.310681   622 net.cpp:442] BatchNorm_86_fixed -> BatchNorm_86 (in-place)
I0224 06:55:27.310715   622 net.cpp:190] Setting up BatchNorm_86_fixed
I0224 06:55:27.310721   622 net.cpp:197] Top shape: 1 4 256 512 (524288)
I0224 06:55:27.310726   622 net.cpp:205] Memory required for data: 1632632832
I0224 06:55:27.310730   622 layer_factory.hpp:123] Creating layer ConvNd_89
I0224 06:55:27.310737   622 net.cpp:140] Creating Layer ConvNd_89
I0224 06:55:27.310740   622 net.cpp:481] ConvNd_89 <- BatchNorm_86
I0224 06:55:27.310745   622 net.cpp:455] ConvNd_89 -> BatchNorm_87
I0224 06:55:27.310904   622 layer_factory.hpp:123] Creating layer ConvNd_89
I0224 06:55:27.311264   622 net.cpp:190] Setting up ConvNd_89
I0224 06:55:27.311270   622 net.cpp:197] Top shape: 1 4 256 512 (524288)
I0224 06:55:27.311275   622 net.cpp:205] Memory required for data: 1634729984
I0224 06:55:27.311280   622 layer_factory.hpp:123] Creating layer Threshold_111
I0224 06:55:27.311285   622 net.cpp:140] Creating Layer Threshold_111
I0224 06:55:27.311288   622 net.cpp:481] Threshold_111 <- BatchNorm_87
I0224 06:55:27.311292   622 net.cpp:442] Threshold_111 -> BatchNorm_87 (in-place)
I0224 06:55:27.311298   622 net.cpp:190] Setting up Threshold_111
I0224 06:55:27.311301   622 net.cpp:197] Top shape: 1 4 256 512 (524288)
I0224 06:55:27.311305   622 net.cpp:205] Memory required for data: 1636827136
I0224 06:55:27.311308   622 layer_factory.hpp:123] Creating layer BatchNorm_87_fixed
I0224 06:55:27.311312   622 net.cpp:140] Creating Layer BatchNorm_87_fixed
I0224 06:55:27.311316   622 net.cpp:481] BatchNorm_87_fixed <- BatchNorm_87
I0224 06:55:27.311319   622 net.cpp:442] BatchNorm_87_fixed -> BatchNorm_87 (in-place)
I0224 06:55:27.311350   622 net.cpp:190] Setting up BatchNorm_87_fixed
I0224 06:55:27.311357   622 net.cpp:197] Top shape: 1 4 256 512 (524288)
I0224 06:55:27.311360   622 net.cpp:205] Memory required for data: 1638924288
I0224 06:55:27.311364   622 layer_factory.hpp:123] Creating layer ConvNd_90
I0224 06:55:27.311370   622 net.cpp:140] Creating Layer ConvNd_90
I0224 06:55:27.311374   622 net.cpp:481] ConvNd_90 <- BatchNorm_87
I0224 06:55:27.311378   622 net.cpp:455] ConvNd_90 -> BatchNorm_88
I0224 06:55:27.311537   622 layer_factory.hpp:123] Creating layer ConvNd_90
I0224 06:55:27.312510   622 net.cpp:190] Setting up ConvNd_90
I0224 06:55:27.312520   622 net.cpp:197] Top shape: 1 16 256 512 (2097152)
I0224 06:55:27.312526   622 net.cpp:205] Memory required for data: 1647312896
I0224 06:55:27.312532   622 layer_factory.hpp:123] Creating layer Threshold_112
I0224 06:55:27.312537   622 net.cpp:140] Creating Layer Threshold_112
I0224 06:55:27.312541   622 net.cpp:481] Threshold_112 <- BatchNorm_88
I0224 06:55:27.312546   622 net.cpp:442] Threshold_112 -> BatchNorm_88 (in-place)
I0224 06:55:27.312552   622 net.cpp:190] Setting up Threshold_112
I0224 06:55:27.312556   622 net.cpp:197] Top shape: 1 16 256 512 (2097152)
I0224 06:55:27.312559   622 net.cpp:205] Memory required for data: 1655701504
I0224 06:55:27.312562   622 layer_factory.hpp:123] Creating layer BatchNorm_88_fixed
I0224 06:55:27.312567   622 net.cpp:140] Creating Layer BatchNorm_88_fixed
I0224 06:55:27.312570   622 net.cpp:481] BatchNorm_88_fixed <- BatchNorm_88
I0224 06:55:27.312574   622 net.cpp:442] BatchNorm_88_fixed -> BatchNorm_88 (in-place)
I0224 06:55:27.312608   622 net.cpp:190] Setting up BatchNorm_88_fixed
I0224 06:55:27.312613   622 net.cpp:197] Top shape: 1 16 256 512 (2097152)
I0224 06:55:27.312618   622 net.cpp:205] Memory required for data: 1664090112
I0224 06:55:27.312621   622 layer_factory.hpp:123] Creating layer Add_27
I0224 06:55:27.312628   622 net.cpp:140] Creating Layer Add_27
I0224 06:55:27.312630   622 net.cpp:481] Add_27 <- Add_26_Add_26_fixed_0_split_1
I0224 06:55:27.312634   622 net.cpp:481] Add_27 <- BatchNorm_88
I0224 06:55:27.312638   622 net.cpp:455] Add_27 -> Add_27
I0224 06:55:27.312657   622 net.cpp:190] Setting up Add_27
I0224 06:55:27.312660   622 net.cpp:197] Top shape: 1 16 256 512 (2097152)
I0224 06:55:27.312665   622 net.cpp:205] Memory required for data: 1672478720
I0224 06:55:27.312669   622 layer_factory.hpp:123] Creating layer Threshold_113
I0224 06:55:27.312672   622 net.cpp:140] Creating Layer Threshold_113
I0224 06:55:27.312675   622 net.cpp:481] Threshold_113 <- Add_27
I0224 06:55:27.312680   622 net.cpp:442] Threshold_113 -> Add_27 (in-place)
I0224 06:55:27.312685   622 net.cpp:190] Setting up Threshold_113
I0224 06:55:27.312687   622 net.cpp:197] Top shape: 1 16 256 512 (2097152)
I0224 06:55:27.312691   622 net.cpp:205] Memory required for data: 1680867328
I0224 06:55:27.312695   622 layer_factory.hpp:123] Creating layer Add_27_fixed
I0224 06:55:27.312698   622 net.cpp:140] Creating Layer Add_27_fixed
I0224 06:55:27.312701   622 net.cpp:481] Add_27_fixed <- Add_27
I0224 06:55:27.312705   622 net.cpp:442] Add_27_fixed -> Add_27 (in-place)
I0224 06:55:27.312734   622 net.cpp:190] Setting up Add_27_fixed
I0224 06:55:27.312741   622 net.cpp:197] Top shape: 1 16 256 512 (2097152)
I0224 06:55:27.312744   622 net.cpp:205] Memory required for data: 1689255936
I0224 06:55:27.312748   622 layer_factory.hpp:123] Creating layer ConvNd_91
I0224 06:55:27.312754   622 net.cpp:140] Creating Layer ConvNd_91
I0224 06:55:27.312757   622 net.cpp:481] ConvNd_91 <- Add_27
I0224 06:55:27.312762   622 net.cpp:455] ConvNd_91 -> ConvNd_91
I0224 06:55:27.312922   622 layer_factory.hpp:123] Creating layer ConvNd_91
I0224 06:55:27.314853   622 net.cpp:190] Setting up ConvNd_91
I0224 06:55:27.314864   622 net.cpp:197] Top shape: 1 19 512 1024 (9961472)
I0224 06:55:27.314870   622 net.cpp:205] Memory required for data: 1729101824
I0224 06:55:27.314877   622 layer_factory.hpp:123] Creating layer ConvNd_91_fixed
I0224 06:55:27.314882   622 net.cpp:140] Creating Layer ConvNd_91_fixed
I0224 06:55:27.314887   622 net.cpp:481] ConvNd_91_fixed <- ConvNd_91
I0224 06:55:27.314891   622 net.cpp:442] ConvNd_91_fixed -> ConvNd_91 (in-place)
I0224 06:55:27.314929   622 net.cpp:190] Setting up ConvNd_91_fixed
I0224 06:55:27.314934   622 net.cpp:197] Top shape: 1 19 512 1024 (9961472)
I0224 06:55:27.314939   622 net.cpp:205] Memory required for data: 1768947712
I0224 06:55:27.314944   622 layer_factory.hpp:123] Creating layer score
I0224 06:55:27.314949   622 net.cpp:140] Creating Layer score
I0224 06:55:27.314952   622 net.cpp:481] score <- ConvNd_91
I0224 06:55:27.314956   622 net.cpp:455] score -> score
I0224 06:55:27.315011   622 net.cpp:190] Setting up score
I0224 06:55:27.315016   622 net.cpp:197] Top shape: 1 19 512 1024 (9961472)
I0224 06:55:27.315021   622 net.cpp:205] Memory required for data: 1808793600
I0224 06:55:27.315023   622 layer_factory.hpp:123] Creating layer accuracy
I0224 06:55:27.315042   622 net.cpp:140] Creating Layer accuracy
I0224 06:55:27.315048   622 net.cpp:481] accuracy <- score
I0224 06:55:27.315052   622 net.cpp:481] accuracy <- label
I0224 06:55:27.315057   622 net.cpp:455] accuracy -> segmentation_eval
I0224 06:55:27.315078   622 net.cpp:190] Setting up accuracy
I0224 06:55:27.315083   622 net.cpp:197] Top shape: 3 19 (57)
I0224 06:55:27.315088   622 net.cpp:205] Memory required for data: 1808793828
I0224 06:55:27.315091   622 net.cpp:268] accuracy does not need backward computation.
I0224 06:55:27.315095   622 net.cpp:268] score does not need backward computation.
I0224 06:55:27.315099   622 net.cpp:268] ConvNd_91_fixed does not need backward computation.
I0224 06:55:27.315101   622 net.cpp:268] ConvNd_91 does not need backward computation.
…
