…
      sampler {
        min_scale: 0.3
        max_scale: 1
        min_aspect_ratio: 0.5
        max_aspect_ratio: 2
      }
      sample_constraint {
        min_jaccard_overlap: 0.9
      }
      max_sample: 1
      max_trials: 50
    }
    batch_sampler {
      sampler {
        min_scale: 0.3
        max_scale: 1
        min_aspect_ratio: 0.5
        max_aspect_ratio: 2
      }
      sample_constraint {
        max_jaccard_overlap: 1
      }
      max_sample: 1
      max_trials: 50
    }
    label_map_file: "/workspace/SSD/data/labelmap_voc.prototxt"
  }
}
layer {
  name: "conv1_1"
  type: "Convolution"
  bottom: "data"
  top: "conv1_1"
  param {
    lr_mult: 1
    decay_mult: 1
  }
  param {
    lr_mult: 2
    decay_mult: 0
  }
  convolution_param {
    num_output: 64
    pad: 1
    kernel_size: 3
    weight_filler {
      type: "xavier"
    }
    bias_filler {
      type: "constant"
      value: 0
    }
  }
}
layer {
  name: "relu1_1"
  type: "ReLU"
  bottom: "conv1_1"
  top: "conv1_1"
}
layer {
  name: "conv1_2"
  type: "Convolution"
  bottom: "conv1_1"
  top: "conv1_2"
  param {
    lr_mult: 1
    decay_mult: 1
  }
  param {
    lr_mult: 2
    decay_mult: 0
  }
  convolution_param {
    num_output: 64
    pad: 1
    kernel_size: 3
    weight_filler {
      type: "xavier"
    }
    bias_filler {
      type: "constant"
      value: 0
    }
  }
}
layer {
  name: "relu1_2"
  type: "ReLU"
  bottom: "conv1_2"
  top: "conv1_2"
}
layer {
  name: "pool1"
  type: "Pooling"
  bottom: "conv1_2"
  top: "pool1"
  pooling_param {
    pool: MAX
    kernel_size: 2
    stride: 2
  }
}
layer {
  name: "conv2_1"
  type: "Convolution"
  bottom: "pool1"
  top: "conv2_1"
  param {
    lr_mult: 1
    decay_mult: 1
  }
  param {
    lr_mult: 2
    decay_mult: 0
  }
  convolution_param {
    num_output: 128
    pad: 1
    kernel_size: 3
    weight_filler {
      type: "xavier"
    }
    bias_filler {
      type: "constant"
      value: 0
    }
  }
}
layer {
  name: "relu2_1"
  type: "ReLU"
  bottom: "conv2_1"
  top: "conv2_1"
}
layer {
  name: "conv2_2"
  type: "Convolution"
  bottom: "conv2_1"
  top: "conv2_2"
  param {
    lr_mult: 1
    decay_mult: 1
  }
  param {
    lr_mult: 2
    decay_mult: 0
  }
  convolution_param {
    num_output: 128
    pad: 1
    kernel_size: 3
    weight_filler {
      type: "xavier"
    }
    bias_filler {
      type: "constant"
      value: 0
    }
  }
}
layer {
  name: "relu2_2"
  type: "ReLU"
  bottom: "conv2_2"
  top: "conv2_2"
}
layer {
  name: "pool2"
  type: "Pooling"
  bottom: "conv2_2"
  top: "pool2"
  pooling_param {
    pool: MAX
    kernel_size: 2
    stride: 2
  }
}
layer {
  name: "conv3_1"
  type: "Convolution"
  bottom: "pool2"
  top: "conv3_1"
  param {
    lr_mult: 1
    decay_mult: 1
  }
  param {
    lr_mult: 2
    decay_mult: 0
  }
  convolution_param {
    num_output: 256
    pad: 1
    kernel_size: 3
    weight_filler {
      type: "xavier"
    }
    bias_filler {
      type: "constant"
      value: 0
    }
  }
}
layer {
  name: "relu3_1"
  type: "ReLU"
  bottom: "conv3_1"
  top: "conv3_1"
}
layer {
  name: "conv3_2"
  type: "Convolution"
  bottom: "conv3_1"
  top: "conv3_2"
  param {
    lr_mult: 1
    decay_mult: 1
  }
  param {
    lr_mult: 2
    decay_mult: 0
  }
  convolution_param {
    num_output: 256
    pad: 1
    kernel_size: 3
    weight_filler {
      type: "xavier"
    }
    bias_filler {
      type: "constant"
      value: 0
    }
  }
}
layer {
  name: "relu3_2"
  type: "ReLU"
  bottom: "conv3_2"
  top: "conv3_2"
}
layer {
  name: "conv3_3"
  type: "Convolution"
  bottom: "conv3_2"
  top: "conv3_3"
  param {
    lr_mult: 1
    decay_mult: 1
  }
  param {
    lr_mult: 2
    decay_mult: 0
  }
  convolution_param {
    num_output: 256
    pad: 1
    kernel_size: 3
    weight_filler {
      type: "xavier"
    }
    bias_filler {
      type: "constant"
      value: 0
    }
  }
}
layer {
  name: "relu3_3"
  type: "ReLU"
  bottom: "conv3_3"
  top: "conv3_3"
}
layer {
  name: "pool3"
  type: "Pooling"
  bottom: "conv3_3"
  top: "pool3"
  pooling_param {
    pool: MAX
    kernel_size: 2
    stride: 2
  }
}
layer {
  name: "conv4_1"
  type: "Convolution"
  bottom: "pool3"
  top: "conv4_1"
  param {
    lr_mult: 1
    decay_mult: 1
  }
  param {
    lr_mult: 2
    decay_mult: 0
  }
  convolution_param {
    num_output: 512
    pad: 1
    kernel_size: 3
    weight_filler {
      type: "xavier"
    }
    bias_filler {
      type: "constant"
      value: 0
    }
  }
}
layer {
  name: "relu4_1"
  type: "ReLU"
  bottom: "conv4_1"
  top: "conv4_1"
}
layer {
  name: "conv4_2"
  type: "Convolution"
  bottom: "conv4_1"
  top: "conv4_2"
  param {
    lr_mult: 1
    decay_mult: 1
  }
  param {
    lr_mult: 2
    decay_mult: 0
  }
  convolution_param {
    num_output: 512
    pad: 1
    kernel_size: 3
    weight_filler {
      type: "xavier"
    }
    bias_filler {
      type: "constant"
      value: 0
    }
  }
}
layer {
  name: "relu4_2"
  type: "ReLU"
  bottom: "conv4_2"
  top: "conv4_2"
}
layer {
  name: "conv4_3"
  type: "Convolution"
  bottom: "conv4_2"
  top: "conv4_3"
  param {
    lr_mult: 1
    decay_mult: 1
  }
  param {
    lr_mult: 2
    decay_mult: 0
  }
  convolution_param {
    num_output: 512
    pad: 1
    kernel_size: 3
    weight_filler {
      type: "xavier"
    }
    bias_filler {
      type: "constant"
      value: 0
    }
  }
}
layer {
  name: "conv4_3_bn"
  type: "BatchNorm"
  bottom: "conv4_3"
  top: "conv4_3"
  param {
    lr_mult: 1
    decay_mult: 0
  }
  param {
    lr_mult: 1
    decay_mult: 0
  }
  param {
    lr_mult: 0
    decay_mult: 0
  }
  param {
    lr_mult: 0
    decay_mult: 0
  }
  batch_norm_param {
    use_global_stats: true
    eps: 1e-05
    scale_filler {
      type: "constant"
      value: 1
    }
    bias_filler {
      type: "constant"
      value: 0
    }
  }
}
layer {
  name: "relu4_3"
  type: "ReLU"
  bottom: "conv4_3"
  top: "conv4_3"
}
layer {
  name: "pool4"
  type: "Pooling"
  bottom: "conv4_3"
  top: "pool4"
  pooling_param {
    pool: MAX
    kernel_size: 2
    stride: 2
  }
}
layer {
  name: "conv5_1"
  type: "Convolution"
  bottom: "pool4"
  top: "conv5_1"
  param {
    lr_mult: 1
    decay_mult: 1
  }
  param {
    lr_mult: 2
    decay_mult: 0
  }
  convolution_param {
    num_output: 512
    pad: 1
    kernel_size: 3
    weight_filler {
      type: "xavier"
    }
    bias_filler {
      type: "constant"
      value: 0
    }
    dilation: 1
  }
}
layer {
  name: "relu5_1"
  type: "ReLU"
  bottom: "conv5_1"
  top: "conv5_1"
}
layer {
  name: "conv5_2"
  type: "Convolution"
  bottom: "conv5_1"
  top: "conv5_2"
  param {
    lr_mult: 1
    decay_mult: 1
  }
  param {
    lr_mult: 2
    decay_mult: 0
  }
  convolution_param {
    num_output: 512
    pad: 1
    kernel_size: 3
    weight_filler {
      type: "xavier"
    }
    bias_filler {
      type: "constant"
      value: 0
    }
    dilation: 1
  }
}
layer {
  name: "relu5_2"
  type: "ReLU"
  bottom: "conv5_2"
  top: "conv5_2"
}
layer {
  name: "conv5_3"
  type: "Convolution"
  bottom: "conv5_2"
  top: "conv5_3"
  param {
    lr_mult: 1
    decay_mult: 1
  }
  param {
    lr_mult: 2
    decay_mult: 0
  }
  convolution_param {
    num_output: 512
    pad: 1
    kernel_size: 3
    weight_filler {
      type: "xavier"
    }
    bias_filler {
      type: "constant"
      value: 0
    }
    dilation: 1
  }
}
layer {
  name: "relu5_3"
  type: "ReLU"
  bottom: "conv5_3"
  top: "conv5_3"
}
layer {
  name: "pool5"
  type: "Pooling"
  bottom: "conv5_3"
  top: "pool5"
  pooling_param {
    pool: MAX
    kernel_size: 3
    stride: 1
    pad: 1
  }
}
layer {
  name: "fc6_682"
  type: "Convolution"
  bottom: "pool5"
  top: "fc6_682"
  param {
    lr_mult: 1
    decay_mult: 1
  }
  param {
    lr_mult: 2
    decay_mult: 0
  }
  convolution_param {
    num_output: 682
    pad: 6
    kernel_size: 3
    weight_filler {
      type: "xavier"
    }
    bias_filler {
      type: "constant"
      value: 0
    }
    dilation: 6
  }
}
layer {
  name: "relu6"
  type: "ReLU"
  bottom: "fc6_682"
  top: "fc6_682"
}
layer {
  name: "fc7_682"
  type: "Convolution"
  bottom: "fc6_682"
  top: "fc7_682"
  param {
    lr_mult: 1
    decay_mult: 1
  }
  param {
    lr_mult: 2
    decay_mult: 0
  }
  convolution_param {
    num_output: 1024
    kernel_size: 1
    weight_filler {
      type: "xavier"
    }
    bias_filler {
      type: "constant"
      value: 0
    }
  }
}
layer {
  name: "relu7"
  type: "ReLU"
  bottom: "fc7_682"
  top: "fc7_682"
}
layer {
  name: "conv6_1"
  type: "Convolution"
  bottom: "fc7_682"
  top: "conv6_1"
  param {
    lr_mult: 1
    decay_mult: 1
  }
  param {
    lr_mult: 2
    decay_mult: 0
  }
  convolution_param {
    num_output: 256
    pad: 0
    kernel_size: 1
    stride: 1
    weight_filler {
      type: "xavier"
    }
    bias_filler {
      type: "constant"
      value: 0
    }
  }
}
layer {
  name: "conv6_1_relu"
  type: "ReLU"
  bottom: "conv6_1"
  top: "conv6_1"
}
layer {
  name: "conv6_2"
  type: "Convolution"
  bottom: "conv6_1"
  top: "conv6_2"
  param {
    lr_mult: 1
    decay_mult: 1
  }
  param {
    lr_mult: 2
    decay_mult: 0
  }
  convolution_param {
    num_output: 512
    pad: 1
    kernel_size: 3
    stride: 2
    weight_filler {
      type: "xavier"
    }
    bias_filler {
      type: "constant"
      value: 0
    }
  }
}
layer {
  name: "conv6_2_relu"
  type: "ReLU"
  bottom: "conv6_2"
  top: "conv6_2"
}
layer {
  name: "conv7_1"
  type: "Convolution"
  bottom: "conv6_2"
  top: "conv7_1"
  param {
    lr_mult: 1
    decay_mult: 1
  }
  param {
    lr_mult: 2
    decay_mult: 0
  }
  convolution_param {
    num_output: 128
    pad: 0
    kernel_size: 1
    stride: 1
    weight_filler {
      type: "xavier"
    }
    bias_filler {
      type: "constant"
      value: 0
    }
  }
}
layer {
  name: "conv7_1_relu"
  type: "ReLU"
  bottom: "conv7_1"
  top: "conv7_1"
}
layer {
  name: "conv7_2"
  type: "Convolution"
  bottom: "conv7_1"
  top: "conv7_2"
  param {
    lr_mult: 1
    decay_mult: 1
  }
  param {
    lr_mult: 2
    decay_mult: 0
  }
  convolution_param {
    num_output: 256
    pad: 1
    kernel_size: 3
    stride: 2
    weight_filler {
      type: "xavier"
    }
    bias_filler {
      type: "constant"
      value: 0
    }
  }
}
layer {
  name: "conv7_2_relu"
  type: "ReLU"
  bottom: "conv7_2"
  top: "conv7_2"
}
layer {
  name: "conv8_1"
  type: "Convolution"
  bottom: "conv7_2"
  top: "conv8_1"
  param {
    lr_mult: 1
    decay_mult: 1
  }
  param {
    lr_mult: 2
    decay_mult: 0
  }
  convolution_param {
    num_output: 128
    pad: 0
    kernel_size: 1
    stride: 1
    weight_filler {
      type: "xavier"
    }
    bias_filler {
      type: "constant"
      value: 0
    }
  }
}
layer {
  name: "conv8_1_relu"
  type: "ReLU"
  bottom: "conv8_1"
  top: "conv8_1"
}
layer {
  name: "conv8_2"
  type: "Convolution"
  bottom: "conv8_1"
  top: "conv8_2"
  param {
    lr_mult: 1
    decay_mult: 1
  }
  param {
    lr_mult: 2
    decay_mult: 0
  }
  convolution_param {
    num_output: 256
    pad: 0
    kernel_size: 3
    stride: 1
    weight_filler {
      type: "xavier"
    }
    bias_filler {
      type: "constant"
      value: 0
    }
  }
}
layer {
  name: "conv8_2_relu"
  type: "ReLU"
  bottom: "conv8_2"
  top: "conv8_2"
}
layer {
  name: "conv9_1"
  type: "Convolution"
  bottom: "conv8_2"
  top: "conv9_1"
  param {
    lr_mult: 1
    decay_mult: 1
  }
  param {
    lr_mult: 2
    decay_mult: 0
  }
  convolution_param {
    num_output: 128
    pad: 0
    kernel_size: 1
    stride: 1
    weight_filler {
      type: "xavier"
    }
    bias_filler {
      type: "constant"
      value: 0
    }
  }
}
layer {
  name: "conv9_1_relu"
  type: "ReLU"
  bottom: "conv9_1"
  top: "conv9_1"
}
layer {
  name: "conv9_2"
  type: "Convolution"
  bottom: "conv9_1"
  top: "conv9_2"
  param {
    lr_mult: 1
    decay_mult: 1
  }
  param {
    lr_mult: 2
    decay_mult: 0
  }
  convolution_param {
    num_output: 256
    pad: 0
    kernel_size: 3
    stride: 1
    weight_filler {
      type: "xavier"
    }
    bias_filler {
      type: "constant"
      value: 0
    }
  }
}
layer {
  name: "conv9_2_relu"
  type: "ReLU"
  bottom: "conv9_2"
  top: "conv9_2"
}
layer {
  name: "conv4_3_norm_mbox_loc"
  type: "Convolution"
  bottom: "conv4_3"
  top: "conv4_3_norm_mbox_loc"
  param {
    lr_mult: 1
    decay_mult: 1
  }
  param {
    lr_mult: 2
    decay_mult: 0
  }
  convolution_param {
    num_output: 16
    pad: 1
    kernel_size: 3
    stride: 1
    weight_filler {
      type: "xavier"
    }
    bias_filler {
      type: "constant"
      value: 0
    }
  }
}
layer {
  name: "conv4_3_norm_mbox_loc_perm"
  type: "Permute"
  bottom: "conv4_3_norm_mbox_loc"
  top: "conv4_3_norm_mbox_loc_perm"
  permute_param {
    order: 0
    order: 2
    order: 3
    order: 1
  }
}
layer {
  name: "conv4_3_norm_mbox_loc_flat"
  type: "Flatten"
  bottom: "conv4_3_norm_mbox_loc_perm"
  top: "conv4_3_norm_mbox_loc_flat"
  flatten_param {
    axis: 1
  }
}
layer {
  name: "conv4_3_norm_mbox_conf"
  type: "Convolution"
  bottom: "conv4_3"
  top: "conv4_3_norm_mbox_conf"
  param {
    lr_mult: 1
    decay_mult: 1
  }
  param {
    lr_mult: 2
    decay_mult: 0
  }
  convolution_param {
    num_output: 84
    pad: 1
    kernel_size: 3
    stride: 1
    weight_filler {
      type: "xavier"
    }
    bias_filler {
      type: "constant"
      value: 0
    }
  }
}
layer {
  name: "conv4_3_norm_mbox_conf_perm"
  type: "Permute"
  bottom: "conv4_3_norm_mbox_conf"
  top: "conv4_3_norm_mbox_conf_perm"
  permute_param {
    order: 0
    order: 2
    order: 3
    order: 1
  }
}
layer {
  name: "conv4_3_norm_mbox_conf_flat"
  type: "Flatten"
  bottom: "conv4_3_norm_mbox_conf_perm"
  top: "conv4_3_norm_mbox_conf_flat"
  flatten_param {
    axis: 1
  }
}
layer {
  name: "conv4_3_norm_mbox_priorbox"
  type: "PriorBox"
  bottom: "conv4_3"
  bottom: "data"
  top: "conv4_3_norm_mbox_priorbox"
  prior_box_param {
    min_size: 30
    max_size: 60
    aspect_ratio: 2
    flip: true
    clip: false
    variance: 0.1
    variance: 0.1
    variance: 0.2
    variance: 0.2
    step: 8
    offset: 0.5
  }
}
layer {
  name: "fc7_mbox_loc"
  type: "Convolution"
  bottom: "fc7_682"
  top: "fc7_mbox_loc"
  param {
    lr_mult: 1
    decay_mult: 1
  }
  param {
    lr_mult: 2
    decay_mult: 0
  }
  convolution_param {
    num_output: 24
    pad: 1
    kernel_size: 3
    stride: 1
    weight_filler {
      type: "xavier"
    }
    bias_filler {
      type: "constant"
      value: 0
    }
  }
}
layer {
  name: "fc7_mbox_loc_perm"
  type: "Permute"
  bottom: "fc7_mbox_loc"
  top: "fc7_mbox_loc_perm"
  permute_param {
    order: 0
    order: 2
    order: 3
    order: 1
  }
}
layer {
  name: "fc7_mbox_loc_flat"
  type: "Flatten"
  bottom: "fc7_mbox_loc_perm"
  top: "fc7_mbox_loc_flat"
  flatten_param {
    axis: 1
  }
}
layer {
  name: "fc7_mbox_conf"
  type: "Convolution"
  bottom: "fc7_682"
  top: "fc7_mbox_conf"
  param {
    lr_mult: 1
    decay_mult: 1
  }
  param {
    lr_mult: 2
    decay_mult: 0
  }
  convolution_param {
    num_output: 126
    pad: 1
    kernel_size: 3
    stride: 1
    weight_filler {
      type: "xavier"
    }
    bias_filler {
      type: "constant"
      value: 0
    }
  }
}
layer {
  name: "fc7_mbox_conf_perm"
  type: "Permute"
  bottom: "fc7_mbox_conf"
  top: "fc7_mbox_conf_perm"
  permute_param {
    order: 0
    order: 2
    order: 3
    order: 1
  }
}
layer {
  name: "fc7_mbox_conf_flat"
  type: "Flatten"
  bottom: "fc7_mbox_conf_perm"
  top: "fc7_mbox_conf_flat"
  flatten_param {
    axis: 1
  }
}
layer {
  name: "fc7_mbox_priorbox"
  type: "PriorBox"
  bottom: "fc7_682"
  bottom: "data"
  top: "fc7_mbox_priorbox"
  prior_box_param {
    min_size: 60
    max_size: 111
    aspect_ratio: 2
    aspect_ratio: 3
    flip: true
    clip: false
    variance: 0.1
    variance: 0.1
    variance: 0.2
    variance: 0.2
    step: 16
    offset: 0.5
  }
}
layer {
  name: "conv6_2_mbox_loc"
  type: "Convolution"
  bottom: "conv6_2"
  top: "conv6_2_mbox_loc"
  param {
    lr_mult: 1
    decay_mult: 1
  }
  param {
    lr_mult: 2
    decay_mult: 0
  }
  convolution_param {
    num_output: 24
    pad: 1
    kernel_size: 3
    stride: 1
    weight_filler {
      type: "xavier"
    }
    bias_filler {
      type: "constant"
      value: 0
    }
  }
}
layer {
  name: "conv6_2_mbox_loc_perm"
  type: "Permute"
  bottom: "conv6_2_mbox_loc"
  top: "conv6_2_mbox_loc_perm"
  permute_param {
    order: 0
    order: 2
    order: 3
    order: 1
  }
}
layer {
  name: "conv6_2_mbox_loc_flat"
  type: "Flatten"
  bottom: "conv6_2_mbox_loc_perm"
  top: "conv6_2_mbox_loc_flat"
  flatten_param {
    axis: 1
  }
}
layer {
  name: "conv6_2_mbox_conf"
  type: "Convolution"
  bottom: "conv6_2"
  top: "conv6_2_mbox_conf"
  param {
    lr_mult: 1
    decay_mult: 1
  }
  param {
    lr_mult: 2
    decay_mult: 0
  }
  convolution_param {
    num_output: 126
    pad: 1
    kernel_size: 3
    stride: 1
    weight_filler {
      type: "xavier"
    }
    bias_filler {
      type: "constant"
      value: 0
    }
  }
}
layer {
  name: "conv6_2_mbox_conf_perm"
  type: "Permute"
  bottom: "conv6_2_mbox_conf"
  top: "conv6_2_mbox_conf_perm"
  permute_param {
    order: 0
    order: 2
    order: 3
    order: 1
  }
}
layer {
  name: "conv6_2_mbox_conf_flat"
  type: "Flatten"
  bottom: "conv6_2_mbox_conf_perm"
  top: "conv6_2_mbox_conf_flat"
  flatten_param {
    axis: 1
  }
}
layer {
  name: "conv6_2_mbox_priorbox"
  type: "PriorBox"
  bottom: "conv6_2"
  bottom: "data"
  top: "conv6_2_mbox_priorbox"
  prior_box_param {
    min_size: 111
    max_size: 162
    aspect_ratio: 2
    aspect_ratio: 3
    flip: true
    clip: false
    variance: 0.1
    variance: 0.1
    variance: 0.2
    variance: 0.2
    step: 32
    offset: 0.5
  }
}
layer {
  name: "conv7_2_mbox_loc"
  type: "Convolution"
  bottom: "conv7_2"
  top: "conv7_2_mbox_loc"
  param {
    lr_mult: 1
    decay_mult: 1
  }
  param {
    lr_mult: 2
    decay_mult: 0
  }
  convolution_param {
    num_output: 24
    pad: 1
    kernel_size: 3
    stride: 1
    weight_filler {
      type: "xavier"
    }
    bias_filler {
      type: "constant"
      value: 0
    }
  }
}
layer {
  name: "conv7_2_mbox_loc_perm"
  type: "Permute"
  bottom: "conv7_2_mbox_loc"
  top: "conv7_2_mbox_loc_perm"
  permute_param {
    order: 0
    order: 2
    order: 3
    order: 1
  }
}
layer {
  name: "conv7_2_mbox_loc_flat"
  type: "Flatten"
  bottom: "conv7_2_mbox_loc_perm"
  top: "conv7_2_mbox_loc_flat"
  flatten_param {
    axis: 1
  }
}
layer {
  name: "conv7_2_mbox_conf"
  type: "Convolution"
  bottom: "conv7_2"
  top: "conv7_2_mbox_conf"
  param {
    lr_mult: 1
    decay_mult: 1
  }
  param {
    lr_mult: 2
    decay_mult: 0
  }
  convolution_param {
    num_output: 126
    pad: 1
    kernel_size: 3
    stride: 1
    weight_filler {
      type: "xavier"
    }
    bias_filler {
      type: "constant"
      value: 0
    }
  }
}
layer {
  name: "conv7_2_mbox_conf_perm"
  type: "Permute"
  bottom: "conv7_2_mbox_conf"
  top: "conv7_2_mbox_conf_perm"
  permute_param {
    order: 0
    order: 2
    order: 3
    order: 1
  }
}
layer {
  name: "conv7_2_mbox_conf_flat"
  type: "Flatten"
  bottom: "conv7_2_mbox_conf_perm"
  top: "conv7_2_mbox_conf_flat"
  flatten_param {
    axis: 1
  }
}
layer {
  name: "conv7_2_mbox_priorbox"
  type: "PriorBox"
  bottom: "conv7_2"
  bottom: "data"
  top: "conv7_2_mbox_priorbox"
  prior_box_param {
    min_size: 162
    max_size: 213
    aspect_ratio: 2
    aspect_ratio: 3
    flip: true
    clip: false
    variance: 0.1
    variance: 0.1
    variance: 0.2
    variance: 0.2
    step: 64
    offset: 0.5
  }
}
layer {
  name: "conv8_2_mbox_loc"
  type: "Convolution"
  bottom: "conv8_2"
  top: "conv8_2_mbox_loc"
  param {
    lr_mult: 1
    decay_mult: 1
  }
  param {
    lr_mult: 2
    decay_mult: 0
  }
  convolution_param {
    num_output: 16
    pad: 1
    kernel_size: 3
    stride: 1
    weight_filler {
      type: "xavier"
    }
    bias_filler {
      type: "constant"
      value: 0
    }
  }
}
layer {
  name: "conv8_2_mbox_loc_perm"
  type: "Permute"
  bottom: "conv8_2_mbox_loc"
  top: "conv8_2_mbox_loc_perm"
  permute_param {
    order: 0
    order: 2
    order: 3
    order: 1
  }
}
layer {
  name: "conv8_2_mbox_loc_flat"
  type: "Flatten"
  bottom: "conv8_2_mbox_loc_perm"
  top: "conv8_2_mbox_loc_flat"
  flatten_param {
    axis: 1
  }
}
layer {
  name: "conv8_2_mbox_conf"
  type: "Convolution"
  bottom: "conv8_2"
  top: "conv8_2_mbox_conf"
  param {
    lr_mult: 1
    decay_mult: 1
  }
  param {
    lr_mult: 2
    decay_mult: 0
  }
  convolution_param {
    num_output: 84
    pad: 1
    kernel_size: 3
    stride: 1
    weight_filler {
      type: "xavier"
    }
    bias_filler {
      type: "constant"
      value: 0
    }
  }
}
layer {
  name: "conv8_2_mbox_conf_perm"
  type: "Permute"
  bottom: "conv8_2_mbox_conf"
  top: "conv8_2_mbox_conf_perm"
  permute_param {
    order: 0
    order: 2
    order: 3
    order: 1
  }
}
layer {
  name: "conv8_2_mbox_conf_flat"
  type: "Flatten"
  bottom: "conv8_2_mbox_conf_perm"
  top: "conv8_2_mbox_conf_flat"
  flatten_param {
    axis: 1
  }
}
layer {
  name: "conv8_2_mbox_priorbox"
  type: "PriorBox"
  bottom: "conv8_2"
  bottom: "data"
  top: "conv8_2_mbox_priorbox"
  prior_box_param {
    min_size: 213
    max_size: 264
    aspect_ratio: 2
    flip: true
    clip: false
    variance: 0.1
    variance: 0.1
    variance: 0.2
    variance: 0.2
    step: 100
    offset: 0.5
  }
}
layer {
  name: "conv9_2_mbox_loc"
  type: "Convolution"
  bottom: "conv9_2"
  top: "conv9_2_mbox_loc"
  param {
    lr_mult: 1
    decay_mult: 1
  }
  param {
    lr_mult: 2
    decay_mult: 0
  }
  convolution_param {
    num_output: 16
    pad: 1
    kernel_size: 3
    stride: 1
    weight_filler {
      type: "xavier"
    }
    bias_filler {
      type: "constant"
      value: 0
    }
  }
}
layer {
  name: "conv9_2_mbox_loc_perm"
  type: "Permute"
  bottom: "conv9_2_mbox_loc"
  top: "conv9_2_mbox_loc_perm"
  permute_param {
    order: 0
    order: 2
    order: 3
    order: 1
  }
}
layer {
  name: "conv9_2_mbox_loc_flat"
  type: "Flatten"
  bottom: "conv9_2_mbox_loc_perm"
  top: "conv9_2_mbox_loc_flat"
  flatten_param {
    axis: 1
  }
}
layer {
  name: "conv9_2_mbox_conf"
  type: "Convolution"
  bottom: "conv9_2"
  top: "conv9_2_mbox_conf"
  param {
    lr_mult: 1
    decay_mult: 1
  }
  param {
    lr_mult: 2
    decay_mult: 0
  }
  convolution_param {
    num_output: 84
    pad: 1
    kernel_size: 3
    stride: 1
    weight_filler {
      type: "xavier"
    }
    bias_filler {
      type: "constant"
      value: 0
    }
  }
}
layer {
  name: "conv9_2_mbox_conf_perm"
  type: "Permute"
  bottom: "conv9_2_mbox_conf"
  top: "conv9_2_mbox_conf_perm"
  permute_param {
    order: 0
    order: 2
    order: 3
    order: 1
  }
}
layer {
  name: "conv9_2_mbox_conf_flat"
  type: "Flatten"
  bottom: "conv9_2_mbox_conf_perm"
  top: "conv9_2_mbox_conf_flat"
  flatten_param {
    axis: 1
  }
}
layer {
  name: "conv9_2_mbox_priorbox"
  type: "PriorBox"
  bottom: "conv9_2"
  bottom: "data"
  top: "conv9_2_mbox_priorbox"
  prior_box_param {
    min_size: 264
    max_size: 315
    aspect_ratio: 2
    flip: true
    clip: false
    variance: 0.1
    variance: 0.1
    variance: 0.2
    variance: 0.2
    step: 300
    offset: 0.5
  }
}
layer {
  name: "mbox_loc"
  type: "Concat"
  bottom: "conv4_3_norm_mbox_loc_flat"
  bottom: "fc7_mbox_loc_flat"
  bottom: "conv6_2_mbox_loc_flat"
  bottom: "conv7_2_mbox_loc_flat"
  bottom: "conv8_2_mbox_loc_flat"
  bottom: "conv9_2_mbox_loc_flat"
  top: "mbox_loc"
  concat_param {
    axis: 1
  }
}
layer {
  name: "mbox_conf"
  type: "Concat"
  bottom: "conv4_3_norm_mbox_conf_flat"
  bottom: "fc7_mbox_conf_flat"
  bottom: "conv6_2_mbox_conf_flat"
  bottom: "conv7_2_mbox_conf_flat"
  bottom: "conv8_2_mbox_conf_flat"
  bottom: "conv9_2_mbox_conf_flat"
  top: "mbox_conf"
  concat_param {
    axis: 1
  }
}
layer {
  name: "mbox_priorbox"
  type: "Concat"
  bottom: "conv4_3_norm_mbox_priorbox"
  bottom: "fc7_mbox_priorbox"
  bottom: "conv6_2_mbox_priorbox"
  bottom: "conv7_2_mbox_priorbox"
  bottom: "conv8_2_mbox_priorbox"
  bottom: "conv9_2_mbox_priorbox"
  top: "mbox_priorbox"
  concat_param {
    axis: 2
  }
}
layer {
  name: "mbox_loss"
  type: "MultiBoxLoss"
  bottom: "mbox_loc"
  bottom: "mbox_conf"
  bottom: "mbox_priorbox"
  bottom: "label"
  top: "mbox_loss"
  include {
    phase: TRAIN
  }
  propagate_down: true
  propagate_down: true
  propagate_down: false
  propagate_down: false
  loss_param {
    normalization: VALID
  }
  multibox_loss_param {
    loc_loss_type: SMOOTH_L1
    conf_loss_type: SOFTMAX
    loc_weight: 1
    num_classes: 21
    share_location: true
    match_type: PER_PREDICTION
    overlap_threshold: 0.5
    use_prior_for_matching: true
    background_label_id: 0
    use_difficult_gt: true
    neg_pos_ratio: 3
    neg_overlap: 0.5
    code_type: CENTER_SIZE
    ignore_cross_boundary_bbox: false
    mining_type: MAX_NEGATIVE
  }
}
I0401 06:34:02.700814   127 layer_factory.hpp:93] Creating layer data
I0401 06:34:02.700861   127 internal_thread.cpp:43] Starting internal thread(s) on GPU 0
I0401 06:34:02.700995   127 net.cpp:110] Creating Layer data
I0401 06:34:02.701006   127 net.cpp:425] data -> data
I0401 06:34:02.701021   127 net.cpp:425] data -> label
I0401 06:34:02.702498   155 db_lmdb.cpp:51] Opened lmdb /workspace/SSD/data/VOCdevkit/VOC0712/lmdb/VOC0712_trainval_lmdb
I0401 06:34:02.702523   155 data_reader.cpp:140] TRAIN: reading data using 1 channel(s)
I0401 06:34:02.704365   127 annotated_data_layer.cpp:78] output data size: 32,3,300,300
I0401 06:34:02.854066   127 internal_thread.cpp:43] Starting internal thread(s) on GPU 0
I0401 06:34:02.854264   127 net.cpp:160] Setting up data
I0401 06:34:02.854276   127 net.cpp:167] Top shape: 32 3 300 300 (8640000)
I0401 06:34:02.854287   127 net.cpp:167] Top shape: 1 1 2 8 (16)
I0401 06:34:02.854292   127 net.cpp:175] Memory required for data: 34560064
I0401 06:34:02.854298   127 layer_factory.hpp:93] Creating layer data_data_0_split
I0401 06:34:02.854316   127 net.cpp:110] Creating Layer data_data_0_split
I0401 06:34:02.854322   127 net.cpp:451] data_data_0_split <- data
I0401 06:34:02.854331   127 net.cpp:425] data_data_0_split -> data_data_0_split_0
I0401 06:34:02.854341   127 net.cpp:425] data_data_0_split -> data_data_0_split_1
I0401 06:34:02.854348   127 net.cpp:425] data_data_0_split -> data_data_0_split_2
I0401 06:34:02.854357   127 net.cpp:425] data_data_0_split -> data_data_0_split_3
I0401 06:34:02.854365   127 net.cpp:425] data_data_0_split -> data_data_0_split_4
I0401 06:34:02.854372   127 net.cpp:425] data_data_0_split -> data_data_0_split_5
I0401 06:34:02.854382   127 net.cpp:425] data_data_0_split -> data_data_0_split_6
I0401 06:34:02.854555   127 net.cpp:160] Setting up data_data_0_split
I0401 06:34:02.854564   127 net.cpp:167] Top shape: 32 3 300 300 (8640000)
I0401 06:34:02.854570   127 net.cpp:167] Top shape: 32 3 300 300 (8640000)
I0401 06:34:02.854575   127 net.cpp:167] Top shape: 32 3 300 300 (8640000)
I0401 06:34:02.854580   127 net.cpp:167] Top shape: 32 3 300 300 (8640000)
I0401 06:34:02.854585   127 net.cpp:167] Top shape: 32 3 300 300 (8640000)
I0401 06:34:02.854590   127 net.cpp:167] Top shape: 32 3 300 300 (8640000)
I0401 06:34:02.854595   127 net.cpp:167] Top shape: 32 3 300 300 (8640000)
I0401 06:34:02.854599   127 net.cpp:175] Memory required for data: 276480064
I0401 06:34:02.854604   127 layer_factory.hpp:93] Creating layer conv1_1
I0401 06:34:02.854621   127 net.cpp:110] Creating Layer conv1_1
I0401 06:34:02.854627   127 net.cpp:451] conv1_1 <- data_data_0_split_0
I0401 06:34:02.854635   127 net.cpp:425] conv1_1 -> conv1_1
I0401 06:34:02.854952   127 net.cpp:160] Setting up conv1_1
I0401 06:34:02.854961   127 net.cpp:167] Top shape: 32 64 300 300 (184320000)
I0401 06:34:02.854967   127 net.cpp:175] Memory required for data: 1013760064
I0401 06:34:02.854982   127 layer_factory.hpp:93] Creating layer relu1_1
I0401 06:34:02.854990   127 net.cpp:110] Creating Layer relu1_1
I0401 06:34:02.854995   127 net.cpp:451] relu1_1 <- conv1_1
I0401 06:34:02.855000   127 net.cpp:412] relu1_1 -> conv1_1 (in-place)
I0401 06:34:02.855010   127 net.cpp:160] Setting up relu1_1
I0401 06:34:02.855015   127 net.cpp:167] Top shape: 32 64 300 300 (184320000)
I0401 06:34:02.855020   127 net.cpp:175] Memory required for data: 1751040064
I0401 06:34:02.855023   127 layer_factory.hpp:93] Creating layer conv1_2
I0401 06:34:02.855031   127 net.cpp:110] Creating Layer conv1_2
I0401 06:34:02.855036   127 net.cpp:451] conv1_2 <- conv1_1
I0401 06:34:02.855041   127 net.cpp:425] conv1_2 -> conv1_2
I0401 06:34:02.855543   127 net.cpp:160] Setting up conv1_2
I0401 06:34:02.855553   127 net.cpp:167] Top shape: 32 64 300 300 (184320000)
I0401 06:34:02.855559   127 net.cpp:175] Memory required for data: 2488320064
I0401 06:34:02.855567   127 layer_factory.hpp:93] Creating layer relu1_2
I0401 06:34:02.855573   127 net.cpp:110] Creating Layer relu1_2
I0401 06:34:02.855577   127 net.cpp:451] relu1_2 <- conv1_2
I0401 06:34:02.855582   127 net.cpp:412] relu1_2 -> conv1_2 (in-place)
I0401 06:34:02.855589   127 net.cpp:160] Setting up relu1_2
I0401 06:34:02.855592   127 net.cpp:167] Top shape: 32 64 300 300 (184320000)
I0401 06:34:02.855597   127 net.cpp:175] Memory required for data: 3225600064
I0401 06:34:02.855602   127 layer_factory.hpp:93] Creating layer pool1
I0401 06:34:02.855607   127 net.cpp:110] Creating Layer pool1
I0401 06:34:02.855612   127 net.cpp:451] pool1 <- conv1_2
I0401 06:34:02.855617   127 net.cpp:425] pool1 -> pool1
I0401 06:34:02.855662   127 net.cpp:160] Setting up pool1
I0401 06:34:02.855669   127 net.cpp:167] Top shape: 32 64 150 150 (46080000)
I0401 06:34:02.855674   127 net.cpp:175] Memory required for data: 3409920064
I0401 06:34:02.855679   127 layer_factory.hpp:93] Creating layer conv2_1
I0401 06:34:02.855686   127 net.cpp:110] Creating Layer conv2_1
I0401 06:34:02.855691   127 net.cpp:451] conv2_1 <- pool1
I0401 06:34:02.855696   127 net.cpp:425] conv2_1 -> conv2_1
I0401 06:34:02.856500   127 net.cpp:160] Setting up conv2_1
I0401 06:34:02.856509   127 net.cpp:167] Top shape: 32 128 150 150 (92160000)
I0401 06:34:02.856516   127 net.cpp:175] Memory required for data: 3778560064
I0401 06:34:02.856524   127 layer_factory.hpp:93] Creating layer relu2_1
I0401 06:34:02.856530   127 net.cpp:110] Creating Layer relu2_1
I0401 06:34:02.856534   127 net.cpp:451] relu2_1 <- conv2_1
I0401 06:34:02.856539   127 net.cpp:412] relu2_1 -> conv2_1 (in-place)
I0401 06:34:02.856546   127 net.cpp:160] Setting up relu2_1
I0401 06:34:02.856550   127 net.cpp:167] Top shape: 32 128 150 150 (92160000)
I0401 06:34:02.856555   127 net.cpp:175] Memory required for data: 4147200064
I0401 06:34:02.856559   127 layer_factory.hpp:93] Creating layer conv2_2
I0401 06:34:02.856566   127 net.cpp:110] Creating Layer conv2_2
I0401 06:34:02.856570   127 net.cpp:451] conv2_2 <- conv2_1
I0401 06:34:02.856575   127 net.cpp:425] conv2_2 -> conv2_2
I0401 06:34:02.858309   127 net.cpp:160] Setting up conv2_2
I0401 06:34:02.858320   127 net.cpp:167] Top shape: 32 128 150 150 (92160000)
I0401 06:34:02.858327   127 net.cpp:175] Memory required for data: 4515840064
I0401 06:34:02.858335   127 layer_factory.hpp:93] Creating layer relu2_2
I0401 06:34:02.858340   127 net.cpp:110] Creating Layer relu2_2
I0401 06:34:02.858345   127 net.cpp:451] relu2_2 <- conv2_2
I0401 06:34:02.858350   127 net.cpp:412] relu2_2 -> conv2_2 (in-place)
I0401 06:34:02.858357   127 net.cpp:160] Setting up relu2_2
I0401 06:34:02.858361   127 net.cpp:167] Top shape: 32 128 150 150 (92160000)
I0401 06:34:02.858366   127 net.cpp:175] Memory required for data: 4884480064
I0401 06:34:02.858371   127 layer_factory.hpp:93] Creating layer pool2
I0401 06:34:02.858376   127 net.cpp:110] Creating Layer pool2
I0401 06:34:02.858379   127 net.cpp:451] pool2 <- conv2_2
I0401 06:34:02.858384   127 net.cpp:425] pool2 -> pool2
I0401 06:34:02.858417   127 net.cpp:160] Setting up pool2
I0401 06:34:02.858423   127 net.cpp:167] Top shape: 32 128 75 75 (23040000)
I0401 06:34:02.858429   127 net.cpp:175] Memory required for data: 4976640064
I0401 06:34:02.858433   127 layer_factory.hpp:93] Creating layer conv3_1
I0401 06:34:02.858440   127 net.cpp:110] Creating Layer conv3_1
I0401 06:34:02.858444   127 net.cpp:451] conv3_1 <- pool2
I0401 06:34:02.858450   127 net.cpp:425] conv3_1 -> conv3_1
I0401 06:34:02.866626   127 net.cpp:160] Setting up conv3_1
I0401 06:34:02.866639   127 net.cpp:167] Top shape: 32 256 75 75 (46080000)
I0401 06:34:02.866647   127 net.cpp:175] Memory required for data: 5160960064
I0401 06:34:02.866655   127 layer_factory.hpp:93] Creating layer relu3_1
I0401 06:34:02.866673   127 net.cpp:110] Creating Layer relu3_1
I0401 06:34:02.866679   127 net.cpp:451] relu3_1 <- conv3_1
I0401 06:34:02.866684   127 net.cpp:412] relu3_1 -> conv3_1 (in-place)
I0401 06:34:02.866693   127 net.cpp:160] Setting up relu3_1
I0401 06:34:02.866696   127 net.cpp:167] Top shape: 32 256 75 75 (46080000)
I0401 06:34:02.866701   127 net.cpp:175] Memory required for data: 5345280064
I0401 06:34:02.866705   127 layer_factory.hpp:93] Creating layer conv3_2
I0401 06:34:02.866714   127 net.cpp:110] Creating Layer conv3_2
I0401 06:34:02.866717   127 net.cpp:451] conv3_2 <- conv3_1
I0401 06:34:02.866724   127 net.cpp:425] conv3_2 -> conv3_2
I0401 06:34:02.871942   127 net.cpp:160] Setting up conv3_2
I0401 06:34:02.871955   127 net.cpp:167] Top shape: 32 256 75 75 (46080000)
I0401 06:34:02.871963   127 net.cpp:175] Memory required for data: 5529600064
I0401 06:34:02.871970   127 layer_factory.hpp:93] Creating layer relu3_2
I0401 06:34:02.871978   127 net.cpp:110] Creating Layer relu3_2
I0401 06:34:02.871982   127 net.cpp:451] relu3_2 <- conv3_2
I0401 06:34:02.871989   127 net.cpp:412] relu3_2 -> conv3_2 (in-place)
I0401 06:34:02.871996   127 net.cpp:160] Setting up relu3_2
I0401 06:34:02.872000   127 net.cpp:167] Top shape: 32 256 75 75 (46080000)
I0401 06:34:02.872005   127 net.cpp:175] Memory required for data: 5713920064
I0401 06:34:02.872009   127 layer_factory.hpp:93] Creating layer conv3_3
I0401 06:34:02.872020   127 net.cpp:110] Creating Layer conv3_3
I0401 06:34:02.872025   127 net.cpp:451] conv3_3 <- conv3_2
I0401 06:34:02.872030   127 net.cpp:425] conv3_3 -> conv3_3
I0401 06:34:02.877362   127 net.cpp:160] Setting up conv3_3
I0401 06:34:02.877374   127 net.cpp:167] Top shape: 32 256 75 75 (46080000)
I0401 06:34:02.877382   127 net.cpp:175] Memory required for data: 5898240064
I0401 06:34:02.877390   127 layer_factory.hpp:93] Creating layer relu3_3
I0401 06:34:02.877396   127 net.cpp:110] Creating Layer relu3_3
I0401 06:34:02.877401   127 net.cpp:451] relu3_3 <- conv3_3
I0401 06:34:02.877408   127 net.cpp:412] relu3_3 -> conv3_3 (in-place)
I0401 06:34:02.877414   127 net.cpp:160] Setting up relu3_3
I0401 06:34:02.877419   127 net.cpp:167] Top shape: 32 256 75 75 (46080000)
I0401 06:34:02.877424   127 net.cpp:175] Memory required for data: 6082560064
I0401 06:34:02.877429   127 layer_factory.hpp:93] Creating layer pool3
I0401 06:34:02.877434   127 net.cpp:110] Creating Layer pool3
I0401 06:34:02.877439   127 net.cpp:451] pool3 <- conv3_3
I0401 06:34:02.877444   127 net.cpp:425] pool3 -> pool3
I0401 06:34:02.877478   127 net.cpp:160] Setting up pool3
I0401 06:34:02.877485   127 net.cpp:167] Top shape: 32 256 38 38 (11829248)
I0401 06:34:02.877491   127 net.cpp:175] Memory required for data: 6129877056
I0401 06:34:02.877496   127 layer_factory.hpp:93] Creating layer conv4_1
I0401 06:34:02.877504   127 net.cpp:110] Creating Layer conv4_1
I0401 06:34:02.877508   127 net.cpp:451] conv4_1 <- pool3
I0401 06:34:02.877516   127 net.cpp:425] conv4_1 -> conv4_1
I0401 06:34:02.887687   127 net.cpp:160] Setting up conv4_1
I0401 06:34:02.887701   127 net.cpp:167] Top shape: 32 512 38 38 (23658496)
I0401 06:34:02.887708   127 net.cpp:175] Memory required for data: 6224511040
I0401 06:34:02.887715   127 layer_factory.hpp:93] Creating layer relu4_1
I0401 06:34:02.887722   127 net.cpp:110] Creating Layer relu4_1
I0401 06:34:02.887727   127 net.cpp:451] relu4_1 <- conv4_1
I0401 06:34:02.887732   127 net.cpp:412] relu4_1 -> conv4_1 (in-place)
I0401 06:34:02.887739   127 net.cpp:160] Setting up relu4_1
I0401 06:34:02.887743   127 net.cpp:167] Top shape: 32 512 38 38 (23658496)
I0401 06:34:02.887748   127 net.cpp:175] Memory required for data: 6319145024
I0401 06:34:02.887753   127 layer_factory.hpp:93] Creating layer conv4_2
I0401 06:34:02.887760   127 net.cpp:110] Creating Layer conv4_2
I0401 06:34:02.887764   127 net.cpp:451] conv4_2 <- conv4_1
I0401 06:34:02.887770   127 net.cpp:425] conv4_2 -> conv4_2
I0401 06:34:02.910693   127 net.cpp:160] Setting up conv4_2
I0401 06:34:02.910713   127 net.cpp:167] Top shape: 32 512 38 38 (23658496)
I0401 06:34:02.910739   127 net.cpp:175] Memory required for data: 6413779008
I0401 06:34:02.910753   127 layer_factory.hpp:93] Creating layer relu4_2
I0401 06:34:02.910759   127 net.cpp:110] Creating Layer relu4_2
I0401 06:34:02.910764   127 net.cpp:451] relu4_2 <- conv4_2
I0401 06:34:02.910771   127 net.cpp:412] relu4_2 -> conv4_2 (in-place)
I0401 06:34:02.910782   127 net.cpp:160] Setting up relu4_2
I0401 06:34:02.910789   127 net.cpp:167] Top shape: 32 512 38 38 (23658496)
I0401 06:34:02.910794   127 net.cpp:175] Memory required for data: 6508412992
I0401 06:34:02.910799   127 layer_factory.hpp:93] Creating layer conv4_3
I0401 06:34:02.910806   127 net.cpp:110] Creating Layer conv4_3
I0401 06:34:02.910812   127 net.cpp:451] conv4_3 <- conv4_2
I0401 06:34:02.910818   127 net.cpp:425] conv4_3 -> conv4_3
I0401 06:34:02.929694   127 net.cpp:160] Setting up conv4_3
I0401 06:34:02.929718   127 net.cpp:167] Top shape: 32 512 38 38 (23658496)
I0401 06:34:02.929729   127 net.cpp:175] Memory required for data: 6603046976
I0401 06:34:02.929741   127 layer_factory.hpp:93] Creating layer conv4_3_bn
I0401 06:34:02.929754   127 net.cpp:110] Creating Layer conv4_3_bn
I0401 06:34:02.929759   127 net.cpp:451] conv4_3_bn <- conv4_3
I0401 06:34:02.929767   127 net.cpp:412] conv4_3_bn -> conv4_3 (in-place)
I0401 06:34:02.930296   127 net.cpp:160] Setting up conv4_3_bn
I0401 06:34:02.930320   127 net.cpp:167] Top shape: 32 512 38 38 (23658496)
I0401 06:34:02.930326   127 net.cpp:175] Memory required for data: 6697680960
I0401 06:34:02.930335   127 layer_factory.hpp:93] Creating layer relu4_3
I0401 06:34:02.930342   127 net.cpp:110] Creating Layer relu4_3
I0401 06:34:02.930346   127 net.cpp:451] relu4_3 <- conv4_3
I0401 06:34:02.930351   127 net.cpp:412] relu4_3 -> conv4_3 (in-place)
I0401 06:34:02.930359   127 net.cpp:160] Setting up relu4_3
I0401 06:34:02.930362   127 net.cpp:167] Top shape: 32 512 38 38 (23658496)
I0401 06:34:02.930367   127 net.cpp:175] Memory required for data: 6792314944
I0401 06:34:02.930371   127 layer_factory.hpp:93] Creating layer conv4_3_relu4_3_0_split
I0401 06:34:02.930378   127 net.cpp:110] Creating Layer conv4_3_relu4_3_0_split
I0401 06:34:02.930384   127 net.cpp:451] conv4_3_relu4_3_0_split <- conv4_3
I0401 06:34:02.930390   127 net.cpp:425] conv4_3_relu4_3_0_split -> conv4_3_relu4_3_0_split_0
I0401 06:34:02.930397   127 net.cpp:425] conv4_3_relu4_3_0_split -> conv4_3_relu4_3_0_split_1
I0401 06:34:02.930403   127 net.cpp:425] conv4_3_relu4_3_0_split -> conv4_3_relu4_3_0_split_2
I0401 06:34:02.930408   127 net.cpp:425] conv4_3_relu4_3_0_split -> conv4_3_relu4_3_0_split_3
I0401 06:34:02.930457   127 net.cpp:160] Setting up conv4_3_relu4_3_0_split
I0401 06:34:02.930464   127 net.cpp:167] Top shape: 32 512 38 38 (23658496)
I0401 06:34:02.930469   127 net.cpp:167] Top shape: 32 512 38 38 (23658496)
I0401 06:34:02.930474   127 net.cpp:167] Top shape: 32 512 38 38 (23658496)
I0401 06:34:02.930478   127 net.cpp:167] Top shape: 32 512 38 38 (23658496)
I0401 06:34:02.930483   127 net.cpp:175] Memory required for data: 7170850880
I0401 06:34:02.930487   127 layer_factory.hpp:93] Creating layer pool4
I0401 06:34:02.930493   127 net.cpp:110] Creating Layer pool4
I0401 06:34:02.930497   127 net.cpp:451] pool4 <- conv4_3_relu4_3_0_split_0
I0401 06:34:02.930503   127 net.cpp:425] pool4 -> pool4
I0401 06:34:02.930531   127 net.cpp:160] Setting up pool4
I0401 06:34:02.930537   127 net.cpp:167] Top shape: 32 512 19 19 (5914624)
I0401 06:34:02.930543   127 net.cpp:175] Memory required for data: 7194509376
I0401 06:34:02.930547   127 layer_factory.hpp:93] Creating layer conv5_1
I0401 06:34:02.930557   127 net.cpp:110] Creating Layer conv5_1
I0401 06:34:02.930562   127 net.cpp:451] conv5_1 <- pool4
I0401 06:34:02.930567   127 net.cpp:425] conv5_1 -> conv5_1
I0401 06:34:02.949261   127 net.cpp:160] Setting up conv5_1
I0401 06:34:02.949285   127 net.cpp:167] Top shape: 32 512 19 19 (5914624)
I0401 06:34:02.949296   127 net.cpp:175] Memory required for data: 7218167872
I0401 06:34:02.949307   127 layer_factory.hpp:93] Creating layer relu5_1
I0401 06:34:02.949339   127 net.cpp:110] Creating Layer relu5_1
I0401 06:34:02.949345   127 net.cpp:451] relu5_1 <- conv5_1
I0401 06:34:02.949352   127 net.cpp:412] relu5_1 -> conv5_1 (in-place)
I0401 06:34:02.949363   127 net.cpp:160] Setting up relu5_1
I0401 06:34:02.949368   127 net.cpp:167] Top shape: 32 512 19 19 (5914624)
I0401 06:34:02.949374   127 net.cpp:175] Memory required for data: 7241826368
I0401 06:34:02.949378   127 layer_factory.hpp:93] Creating layer conv5_2
I0401 06:34:02.949388   127 net.cpp:110] Creating Layer conv5_2
I0401 06:34:02.949394   127 net.cpp:451] conv5_2 <- conv5_1
I0401 06:34:02.949399   127 net.cpp:425] conv5_2 -> conv5_2
I0401 06:34:02.967404   127 net.cpp:160] Setting up conv5_2
I0401 06:34:02.967422   127 net.cpp:167] Top shape: 32 512 19 19 (5914624)
I0401 06:34:02.967429   127 net.cpp:175] Memory required for data: 7265484864
I0401 06:34:02.967438   127 layer_factory.hpp:93] Creating layer relu5_2
I0401 06:34:02.967445   127 net.cpp:110] Creating Layer relu5_2
I0401 06:34:02.967450   127 net.cpp:451] relu5_2 <- conv5_2
I0401 06:34:02.967456   127 net.cpp:412] relu5_2 -> conv5_2 (in-place)
I0401 06:34:02.967465   127 net.cpp:160] Setting up relu5_2
I0401 06:34:02.967469   127 net.cpp:167] Top shape: 32 512 19 19 (5914624)
I0401 06:34:02.967474   127 net.cpp:175] Memory required for data: 7289143360
I0401 06:34:02.967478   127 layer_factory.hpp:93] Creating layer conv5_3
I0401 06:34:02.967489   127 net.cpp:110] Creating Layer conv5_3
I0401 06:34:02.967495   127 net.cpp:451] conv5_3 <- conv5_2
I0401 06:34:02.967501   127 net.cpp:425] conv5_3 -> conv5_3
I0401 06:34:02.986121   127 net.cpp:160] Setting up conv5_3
I0401 06:34:02.986140   127 net.cpp:167] Top shape: 32 512 19 19 (5914624)
I0401 06:34:02.986148   127 net.cpp:175] Memory required for data: 7312801856
I0401 06:34:02.986156   127 layer_factory.hpp:93] Creating layer relu5_3
I0401 06:34:02.986163   127 net.cpp:110] Creating Layer relu5_3
I0401 06:34:02.986169   127 net.cpp:451] relu5_3 <- conv5_3
I0401 06:34:02.986176   127 net.cpp:412] relu5_3 -> conv5_3 (in-place)
I0401 06:34:02.986184   127 net.cpp:160] Setting up relu5_3
I0401 06:34:02.986188   127 net.cpp:167] Top shape: 32 512 19 19 (5914624)
I0401 06:34:02.986193   127 net.cpp:175] Memory required for data: 7336460352
I0401 06:34:02.986197   127 layer_factory.hpp:93] Creating layer pool5
I0401 06:34:02.986202   127 net.cpp:110] Creating Layer pool5
I0401 06:34:02.986207   127 net.cpp:451] pool5 <- conv5_3
I0401 06:34:02.986212   127 net.cpp:425] pool5 -> pool5
I0401 06:34:02.986248   127 net.cpp:160] Setting up pool5
I0401 06:34:02.986254   127 net.cpp:167] Top shape: 32 512 19 19 (5914624)
I0401 06:34:02.986260   127 net.cpp:175] Memory required for data: 7360118848
I0401 06:34:02.986264   127 layer_factory.hpp:93] Creating layer fc6_682
I0401 06:34:02.986274   127 net.cpp:110] Creating Layer fc6_682
I0401 06:34:02.986277   127 net.cpp:451] fc6_682 <- pool5
I0401 06:34:02.986282   127 net.cpp:425] fc6_682 -> fc6_682
I0401 06:34:03.010155   127 net.cpp:160] Setting up fc6_682
I0401 06:34:03.010185   127 net.cpp:167] Top shape: 32 682 19 19 (7878464)
I0401 06:34:03.010200   127 net.cpp:175] Memory required for data: 7391632704
I0401 06:34:03.010219   127 layer_factory.hpp:93] Creating layer relu6
I0401 06:34:03.010232   127 net.cpp:110] Creating Layer relu6
I0401 06:34:03.010239   127 net.cpp:451] relu6 <- fc6_682
I0401 06:34:03.010248   127 net.cpp:412] relu6 -> fc6_682 (in-place)
I0401 06:34:03.010267   127 net.cpp:160] Setting up relu6
I0401 06:34:03.010274   127 net.cpp:167] Top shape: 32 682 19 19 (7878464)
I0401 06:34:03.010283   127 net.cpp:175] Memory required for data: 7423146560
I0401 06:34:03.010289   127 layer_factory.hpp:93] Creating layer fc7_682
I0401 06:34:03.010304   127 net.cpp:110] Creating Layer fc7_682
I0401 06:34:03.010313   127 net.cpp:451] fc7_682 <- fc6_682
I0401 06:34:03.010322   127 net.cpp:425] fc7_682 -> fc7_682
I0401 06:34:03.016242   127 net.cpp:160] Setting up fc7_682
I0401 06:34:03.016261   127 net.cpp:167] Top shape: 32 1024 19 19 (11829248)
I0401 06:34:03.016283   127 net.cpp:175] Memory required for data: 7470463552
I0401 06:34:03.016292   127 layer_factory.hpp:93] Creating layer relu7
I0401 06:34:03.016300   127 net.cpp:110] Creating Layer relu7
I0401 06:34:03.016305   127 net.cpp:451] relu7 <- fc7_682
I0401 06:34:03.016310   127 net.cpp:412] relu7 -> fc7_682 (in-place)
I0401 06:34:03.016319   127 net.cpp:160] Setting up relu7
I0401 06:34:03.016322   127 net.cpp:167] Top shape: 32 1024 19 19 (11829248)
I0401 06:34:03.016328   127 net.cpp:175] Memory required for data: 7517780544
I0401 06:34:03.016332   127 layer_factory.hpp:93] Creating layer fc7_682_relu7_0_split
I0401 06:34:03.016340   127 net.cpp:110] Creating Layer fc7_682_relu7_0_split
I0401 06:34:03.016342   127 net.cpp:451] fc7_682_relu7_0_split <- fc7_682
I0401 06:34:03.016348   127 net.cpp:425] fc7_682_relu7_0_split -> fc7_682_relu7_0_split_0
I0401 06:34:03.016355   127 net.cpp:425] fc7_682_relu7_0_split -> fc7_682_relu7_0_split_1
I0401 06:34:03.016360   127 net.cpp:425] fc7_682_relu7_0_split -> fc7_682_relu7_0_split_2
I0401 06:34:03.016366   127 net.cpp:425] fc7_682_relu7_0_split -> fc7_682_relu7_0_split_3
I0401 06:34:03.016425   127 net.cpp:160] Setting up fc7_682_relu7_0_split
I0401 06:34:03.016433   127 net.cpp:167] Top shape: 32 1024 19 19 (11829248)
I0401 06:34:03.016438   127 net.cpp:167] Top shape: 32 1024 19 19 (11829248)
I0401 06:34:03.016443   127 net.cpp:167] Top shape: 32 1024 19 19 (11829248)
I0401 06:34:03.016448   127 net.cpp:167] Top shape: 32 1024 19 19 (11829248)
I0401 06:34:03.016453   127 net.cpp:175] Memory required for data: 7707048512
I0401 06:34:03.016456   127 layer_factory.hpp:93] Creating layer conv6_1
I0401 06:34:03.016465   127 net.cpp:110] Creating Layer conv6_1
I0401 06:34:03.016470   127 net.cpp:451] conv6_1 <- fc7_682_relu7_0_split_0
I0401 06:34:03.016477   127 net.cpp:425] conv6_1 -> conv6_1
I0401 06:34:03.018761   127 net.cpp:160] Setting up conv6_1
I0401 06:34:03.018774   127 net.cpp:167] Top shape: 32 256 19 19 (2957312)
I0401 06:34:03.018781   127 net.cpp:175] Memory required for data: 7718877760
I0401 06:34:03.018788   127 layer_factory.hpp:93] Creating layer conv6_1_relu
I0401 06:34:03.018795   127 net.cpp:110] Creating Layer conv6_1_relu
I0401 06:34:03.018800   127 net.cpp:451] conv6_1_relu <- conv6_1
I0401 06:34:03.018805   127 net.cpp:412] conv6_1_relu -> conv6_1 (in-place)
I0401 06:34:03.018811   127 net.cpp:160] Setting up conv6_1_relu
I0401 06:34:03.018815   127 net.cpp:167] Top shape: 32 256 19 19 (2957312)
I0401 06:34:03.018821   127 net.cpp:175] Memory required for data: 7730707008
I0401 06:34:03.018824   127 layer_factory.hpp:93] Creating layer conv6_2
I0401 06:34:03.018832   127 net.cpp:110] Creating Layer conv6_2
I0401 06:34:03.018836   127 net.cpp:451] conv6_2 <- conv6_1
I0401 06:34:03.018841   127 net.cpp:425] conv6_2 -> conv6_2
I0401 06:34:03.028069   127 net.cpp:160] Setting up conv6_2
I0401 06:34:03.028082   127 net.cpp:167] Top shape: 32 512 10 10 (1638400)
I0401 06:34:03.028090   127 net.cpp:175] Memory required for data: 7737260608
I0401 06:34:03.028096   127 layer_factory.hpp:93] Creating layer conv6_2_relu
I0401 06:34:03.028102   127 net.cpp:110] Creating Layer conv6_2_relu
I0401 06:34:03.028107   127 net.cpp:451] conv6_2_relu <- conv6_2
I0401 06:34:03.028112   127 net.cpp:412] conv6_2_relu -> conv6_2 (in-place)
I0401 06:34:03.028120   127 net.cpp:160] Setting up conv6_2_relu
I0401 06:34:03.028123   127 net.cpp:167] Top shape: 32 512 10 10 (1638400)
I0401 06:34:03.028129   127 net.cpp:175] Memory required for data: 7743814208
I0401 06:34:03.028132   127 layer_factory.hpp:93] Creating layer conv6_2_conv6_2_relu_0_split
I0401 06:34:03.028138   127 net.cpp:110] Creating Layer conv6_2_conv6_2_relu_0_split
I0401 06:34:03.028142   127 net.cpp:451] conv6_2_conv6_2_relu_0_split <- conv6_2
I0401 06:34:03.028147   127 net.cpp:425] conv6_2_conv6_2_relu_0_split -> conv6_2_conv6_2_relu_0_split_0
I0401 06:34:03.028154   127 net.cpp:425] conv6_2_conv6_2_relu_0_split -> conv6_2_conv6_2_relu_0_split_1
I0401 06:34:03.028172   127 net.cpp:425] conv6_2_conv6_2_relu_0_split -> conv6_2_conv6_2_relu_0_split_2
I0401 06:34:03.028183   127 net.cpp:425] conv6_2_conv6_2_relu_0_split -> conv6_2_conv6_2_relu_0_split_3
I0401 06:34:03.028240   127 net.cpp:160] Setting up conv6_2_conv6_2_relu_0_split
I0401 06:34:03.028244   127 net.cpp:167] Top shape: 32 512 10 10 (1638400)
I0401 06:34:03.028250   127 net.cpp:167] Top shape: 32 512 10 10 (1638400)
I0401 06:34:03.028255   127 net.cpp:167] Top shape: 32 512 10 10 (1638400)
I0401 06:34:03.028260   127 net.cpp:167] Top shape: 32 512 10 10 (1638400)
I0401 06:34:03.028265   127 net.cpp:175] Memory required for data: 7770028608
I0401 06:34:03.028268   127 layer_factory.hpp:93] Creating layer conv7_1
I0401 06:34:03.028277   127 net.cpp:110] Creating Layer conv7_1
I0401 06:34:03.028282   127 net.cpp:451] conv7_1 <- conv6_2_conv6_2_relu_0_split_0
I0401 06:34:03.028288   127 net.cpp:425] conv7_1 -> conv7_1
I0401 06:34:03.028903   127 net.cpp:160] Setting up conv7_1
I0401 06:34:03.028913   127 net.cpp:167] Top shape: 32 128 10 10 (409600)
I0401 06:34:03.028919   127 net.cpp:175] Memory required for data: 7771667008
I0401 06:34:03.028926   127 layer_factory.hpp:93] Creating layer conv7_1_relu
I0401 06:34:03.028931   127 net.cpp:110] Creating Layer conv7_1_relu
I0401 06:34:03.028936   127 net.cpp:451] conv7_1_relu <- conv7_1
I0401 06:34:03.028941   127 net.cpp:412] conv7_1_relu -> conv7_1 (in-place)
I0401 06:34:03.028949   127 net.cpp:160] Setting up conv7_1_relu
I0401 06:34:03.028955   127 net.cpp:167] Top shape: 32 128 10 10 (409600)
I0401 06:34:03.028960   127 net.cpp:175] Memory required for data: 7773305408
I0401 06:34:03.028964   127 layer_factory.hpp:93] Creating layer conv7_2
I0401 06:34:03.028971   127 net.cpp:110] Creating Layer conv7_2
I0401 06:34:03.028975   127 net.cpp:451] conv7_2 <- conv7_1
I0401 06:34:03.028981   127 net.cpp:425] conv7_2 -> conv7_2
I0401 06:34:03.032081   127 net.cpp:160] Setting up conv7_2
I0401 06:34:03.032094   127 net.cpp:167] Top shape: 32 256 5 5 (204800)
I0401 06:34:03.032100   127 net.cpp:175] Memory required for data: 7774124608
I0401 06:34:03.032107   127 layer_factory.hpp:93] Creating layer conv7_2_relu
I0401 06:34:03.032114   127 net.cpp:110] Creating Layer conv7_2_relu
I0401 06:34:03.032117   127 net.cpp:451] conv7_2_relu <- conv7_2
I0401 06:34:03.032124   127 net.cpp:412] conv7_2_relu -> conv7_2 (in-place)
I0401 06:34:03.032130   127 net.cpp:160] Setting up conv7_2_relu
I0401 06:34:03.032135   127 net.cpp:167] Top shape: 32 256 5 5 (204800)
I0401 06:34:03.032140   127 net.cpp:175] Memory required for data: 7774943808
I0401 06:34:03.032142   127 layer_factory.hpp:93] Creating layer conv7_2_conv7_2_relu_0_split
I0401 06:34:03.032148   127 net.cpp:110] Creating Layer conv7_2_conv7_2_relu_0_split
I0401 06:34:03.032152   127 net.cpp:451] conv7_2_conv7_2_relu_0_split <- conv7_2
I0401 06:34:03.032157   127 net.cpp:425] conv7_2_conv7_2_relu_0_split -> conv7_2_conv7_2_relu_0_split_0
I0401 06:34:03.032163   127 net.cpp:425] conv7_2_conv7_2_relu_0_split -> conv7_2_conv7_2_relu_0_split_1
I0401 06:34:03.032169   127 net.cpp:425] conv7_2_conv7_2_relu_0_split -> conv7_2_conv7_2_relu_0_split_2
I0401 06:34:03.032176   127 net.cpp:425] conv7_2_conv7_2_relu_0_split -> conv7_2_conv7_2_relu_0_split_3
I0401 06:34:03.032233   127 net.cpp:160] Setting up conv7_2_conv7_2_relu_0_split
I0401 06:34:03.032240   127 net.cpp:167] Top shape: 32 256 5 5 (204800)
I0401 06:34:03.032245   127 net.cpp:167] Top shape: 32 256 5 5 (204800)
I0401 06:34:03.032250   127 net.cpp:167] Top shape: 32 256 5 5 (204800)
I0401 06:34:03.032255   127 net.cpp:167] Top shape: 32 256 5 5 (204800)
I0401 06:34:03.032260   127 net.cpp:175] Memory required for data: 7778220608
I0401 06:34:03.032264   127 layer_factory.hpp:93] Creating layer conv8_1
I0401 06:34:03.032272   127 net.cpp:110] Creating Layer conv8_1
I0401 06:34:03.032277   127 net.cpp:451] conv8_1 <- conv7_2_conv7_2_relu_0_split_0
I0401 06:34:03.032284   127 net.cpp:425] conv8_1 -> conv8_1
I0401 06:34:03.032691   127 net.cpp:160] Setting up conv8_1
I0401 06:34:03.032711   127 net.cpp:167] Top shape: 32 128 5 5 (102400)
I0401 06:34:03.032717   127 net.cpp:175] Memory required for data: 7778630208
I0401 06:34:03.032724   127 layer_factory.hpp:93] Creating layer conv8_1_relu
I0401 06:34:03.032730   127 net.cpp:110] Creating Layer conv8_1_relu
I0401 06:34:03.032734   127 net.cpp:451] conv8_1_relu <- conv8_1
I0401 06:34:03.032739   127 net.cpp:412] conv8_1_relu -> conv8_1 (in-place)
I0401 06:34:03.032747   127 net.cpp:160] Setting up conv8_1_relu
I0401 06:34:03.032750   127 net.cpp:167] Top shape: 32 128 5 5 (102400)
I0401 06:34:03.032755   127 net.cpp:175] Memory required for data: 7779039808
I0401 06:34:03.032759   127 layer_factory.hpp:93] Creating layer conv8_2
I0401 06:34:03.032766   127 net.cpp:110] Creating Layer conv8_2
I0401 06:34:03.032770   127 net.cpp:451] conv8_2 <- conv8_1
I0401 06:34:03.032775   127 net.cpp:425] conv8_2 -> conv8_2
I0401 06:34:03.035857   127 net.cpp:160] Setting up conv8_2
I0401 06:34:03.035869   127 net.cpp:167] Top shape: 32 256 3 3 (73728)
I0401 06:34:03.035876   127 net.cpp:175] Memory required for data: 7779334720
I0401 06:34:03.035883   127 layer_factory.hpp:93] Creating layer conv8_2_relu
I0401 06:34:03.035889   127 net.cpp:110] Creating Layer conv8_2_relu
I0401 06:34:03.035894   127 net.cpp:451] conv8_2_relu <- conv8_2
I0401 06:34:03.035899   127 net.cpp:412] conv8_2_relu -> conv8_2 (in-place)
I0401 06:34:03.035907   127 net.cpp:160] Setting up conv8_2_relu
I0401 06:34:03.035910   127 net.cpp:167] Top shape: 32 256 3 3 (73728)
I0401 06:34:03.035915   127 net.cpp:175] Memory required for data: 7779629632
I0401 06:34:03.035919   127 layer_factory.hpp:93] Creating layer conv8_2_conv8_2_relu_0_split
I0401 06:34:03.035925   127 net.cpp:110] Creating Layer conv8_2_conv8_2_relu_0_split
I0401 06:34:03.035929   127 net.cpp:451] conv8_2_conv8_2_relu_0_split <- conv8_2
I0401 06:34:03.035934   127 net.cpp:425] conv8_2_conv8_2_relu_0_split -> conv8_2_conv8_2_relu_0_split_0
I0401 06:34:03.035940   127 net.cpp:425] conv8_2_conv8_2_relu_0_split -> conv8_2_conv8_2_relu_0_split_1
I0401 06:34:03.035946   127 net.cpp:425] conv8_2_conv8_2_relu_0_split -> conv8_2_conv8_2_relu_0_split_2
I0401 06:34:03.035953   127 net.cpp:425] conv8_2_conv8_2_relu_0_split -> conv8_2_conv8_2_relu_0_split_3
I0401 06:34:03.036001   127 net.cpp:160] Setting up conv8_2_conv8_2_relu_0_split
I0401 06:34:03.036008   127 net.cpp:167] Top shape: 32 256 3 3 (73728)
I0401 06:34:03.036015   127 net.cpp:167] Top shape: 32 256 3 3 (73728)
I0401 06:34:03.036020   127 net.cpp:167] Top shape: 32 256 3 3 (73728)
I0401 06:34:03.036023   127 net.cpp:167] Top shape: 32 256 3 3 (73728)
I0401 06:34:03.036028   127 net.cpp:175] Memory required for data: 7780809280
I0401 06:34:03.036032   127 layer_factory.hpp:93] Creating layer conv9_1
I0401 06:34:03.036041   127 net.cpp:110] Creating Layer conv9_1
I0401 06:34:03.036046   127 net.cpp:451] conv9_1 <- conv8_2_conv8_2_relu_0_split_0
I0401 06:34:03.036052   127 net.cpp:425] conv9_1 -> conv9_1
I0401 06:34:03.036474   127 net.cpp:160] Setting up conv9_1
I0401 06:34:03.036484   127 net.cpp:167] Top shape: 32 128 3 3 (36864)
I0401 06:34:03.036491   127 net.cpp:175] Memory required for data: 7780956736
I0401 06:34:03.036497   127 layer_factory.hpp:93] Creating layer conv9_1_relu
I0401 06:34:03.036504   127 net.cpp:110] Creating Layer conv9_1_relu
I0401 06:34:03.036507   127 net.cpp:451] conv9_1_relu <- conv9_1
I0401 06:34:03.036514   127 net.cpp:412] conv9_1_relu -> conv9_1 (in-place)
I0401 06:34:03.036520   127 net.cpp:160] Setting up conv9_1_relu
I0401 06:34:03.036523   127 net.cpp:167] Top shape: 32 128 3 3 (36864)
I0401 06:34:03.036528   127 net.cpp:175] Memory required for data: 7781104192
I0401 06:34:03.036533   127 layer_factory.hpp:93] Creating layer conv9_2
I0401 06:34:03.036541   127 net.cpp:110] Creating Layer conv9_2
I0401 06:34:03.036545   127 net.cpp:451] conv9_2 <- conv9_1
I0401 06:34:03.036550   127 net.cpp:425] conv9_2 -> conv9_2
I0401 06:34:03.039634   127 net.cpp:160] Setting up conv9_2
I0401 06:34:03.039646   127 net.cpp:167] Top shape: 32 256 1 1 (8192)
I0401 06:34:03.039664   127 net.cpp:175] Memory required for data: 7781136960
I0401 06:34:03.039672   127 layer_factory.hpp:93] Creating layer conv9_2_relu
I0401 06:34:03.039678   127 net.cpp:110] Creating Layer conv9_2_relu
I0401 06:34:03.039682   127 net.cpp:451] conv9_2_relu <- conv9_2
I0401 06:34:03.039688   127 net.cpp:412] conv9_2_relu -> conv9_2 (in-place)
I0401 06:34:03.039695   127 net.cpp:160] Setting up conv9_2_relu
I0401 06:34:03.039700   127 net.cpp:167] Top shape: 32 256 1 1 (8192)
I0401 06:34:03.039705   127 net.cpp:175] Memory required for data: 7781169728
I0401 06:34:03.039708   127 layer_factory.hpp:93] Creating layer conv9_2_conv9_2_relu_0_split
I0401 06:34:03.039714   127 net.cpp:110] Creating Layer conv9_2_conv9_2_relu_0_split
I0401 06:34:03.039718   127 net.cpp:451] conv9_2_conv9_2_relu_0_split <- conv9_2
I0401 06:34:03.039723   127 net.cpp:425] conv9_2_conv9_2_relu_0_split -> conv9_2_conv9_2_relu_0_split_0
I0401 06:34:03.039731   127 net.cpp:425] conv9_2_conv9_2_relu_0_split -> conv9_2_conv9_2_relu_0_split_1
I0401 06:34:03.039736   127 net.cpp:425] conv9_2_conv9_2_relu_0_split -> conv9_2_conv9_2_relu_0_split_2
I0401 06:34:03.039788   127 net.cpp:160] Setting up conv9_2_conv9_2_relu_0_split
I0401 06:34:03.039794   127 net.cpp:167] Top shape: 32 256 1 1 (8192)
I0401 06:34:03.039800   127 net.cpp:167] Top shape: 32 256 1 1 (8192)
I0401 06:34:03.039805   127 net.cpp:167] Top shape: 32 256 1 1 (8192)
I0401 06:34:03.039809   127 net.cpp:175] Memory required for data: 7781268032
I0401 06:34:03.039813   127 layer_factory.hpp:93] Creating layer conv4_3_norm_mbox_loc
I0401 06:34:03.039824   127 net.cpp:110] Creating Layer conv4_3_norm_mbox_loc
I0401 06:34:03.039829   127 net.cpp:451] conv4_3_norm_mbox_loc <- conv4_3_relu4_3_0_split_1
I0401 06:34:03.039834   127 net.cpp:425] conv4_3_norm_mbox_loc -> conv4_3_norm_mbox_loc
I0401 06:34:03.040499   127 net.cpp:160] Setting up conv4_3_norm_mbox_loc
I0401 06:34:03.040508   127 net.cpp:167] Top shape: 32 16 38 38 (739328)
I0401 06:34:03.040515   127 net.cpp:175] Memory required for data: 7784225344
I0401 06:34:03.040522   127 layer_factory.hpp:93] Creating layer conv4_3_norm_mbox_loc_perm
I0401 06:34:03.040535   127 net.cpp:110] Creating Layer conv4_3_norm_mbox_loc_perm
I0401 06:34:03.040540   127 net.cpp:451] conv4_3_norm_mbox_loc_perm <- conv4_3_norm_mbox_loc
I0401 06:34:03.040547   127 net.cpp:425] conv4_3_norm_mbox_loc_perm -> conv4_3_norm_mbox_loc_perm
I0401 06:34:03.040632   127 net.cpp:160] Setting up conv4_3_norm_mbox_loc_perm
I0401 06:34:03.040637   127 net.cpp:167] Top shape: 32 38 38 16 (739328)
I0401 06:34:03.040643   127 net.cpp:175] Memory required for data: 7787182656
I0401 06:34:03.040647   127 layer_factory.hpp:93] Creating layer conv4_3_norm_mbox_loc_flat
I0401 06:34:03.040657   127 net.cpp:110] Creating Layer conv4_3_norm_mbox_loc_flat
I0401 06:34:03.040661   127 net.cpp:451] conv4_3_norm_mbox_loc_flat <- conv4_3_norm_mbox_loc_perm
I0401 06:34:03.040666   127 net.cpp:425] conv4_3_norm_mbox_loc_flat -> conv4_3_norm_mbox_loc_flat
I0401 06:34:03.040686   127 net.cpp:160] Setting up conv4_3_norm_mbox_loc_flat
I0401 06:34:03.040693   127 net.cpp:167] Top shape: 32 23104 (739328)
I0401 06:34:03.040697   127 net.cpp:175] Memory required for data: 7790139968
I0401 06:34:03.040701   127 layer_factory.hpp:93] Creating layer conv4_3_norm_mbox_conf
I0401 06:34:03.040710   127 net.cpp:110] Creating Layer conv4_3_norm_mbox_conf
I0401 06:34:03.040714   127 net.cpp:451] conv4_3_norm_mbox_conf <- conv4_3_relu4_3_0_split_2
I0401 06:34:03.040721   127 net.cpp:425] conv4_3_norm_mbox_conf -> conv4_3_norm_mbox_conf
I0401 06:34:03.046013   127 net.cpp:160] Setting up conv4_3_norm_mbox_conf
I0401 06:34:03.046026   127 net.cpp:167] Top shape: 32 84 38 38 (3881472)
I0401 06:34:03.046033   127 net.cpp:175] Memory required for data: 7805665856
I0401 06:34:03.046041   127 layer_factory.hpp:93] Creating layer conv4_3_norm_mbox_conf_perm
I0401 06:34:03.046051   127 net.cpp:110] Creating Layer conv4_3_norm_mbox_conf_perm
I0401 06:34:03.046056   127 net.cpp:451] conv4_3_norm_mbox_conf_perm <- conv4_3_norm_mbox_conf
I0401 06:34:03.046075   127 net.cpp:425] conv4_3_norm_mbox_conf_perm -> conv4_3_norm_mbox_conf_perm
I0401 06:34:03.046161   127 net.cpp:160] Setting up conv4_3_norm_mbox_conf_perm
I0401 06:34:03.046169   127 net.cpp:167] Top shape: 32 38 38 84 (3881472)
I0401 06:34:03.046175   127 net.cpp:175] Memory required for data: 7821191744
I0401 06:34:03.046180   127 layer_factory.hpp:93] Creating layer conv4_3_norm_mbox_conf_flat
I0401 06:34:03.046185   127 net.cpp:110] Creating Layer conv4_3_norm_mbox_conf_flat
I0401 06:34:03.046190   127 net.cpp:451] conv4_3_norm_mbox_conf_flat <- conv4_3_norm_mbox_conf_perm
I0401 06:34:03.046195   127 net.cpp:425] conv4_3_norm_mbox_conf_flat -> conv4_3_norm_mbox_conf_flat
I0401 06:34:03.046214   127 net.cpp:160] Setting up conv4_3_norm_mbox_conf_flat
I0401 06:34:03.046221   127 net.cpp:167] Top shape: 32 121296 (3881472)
I0401 06:34:03.046226   127 net.cpp:175] Memory required for data: 7836717632
I0401 06:34:03.046231   127 layer_factory.hpp:93] Creating layer conv4_3_norm_mbox_priorbox
I0401 06:34:03.046237   127 net.cpp:110] Creating Layer conv4_3_norm_mbox_priorbox
I0401 06:34:03.046242   127 net.cpp:451] conv4_3_norm_mbox_priorbox <- conv4_3_relu4_3_0_split_3
I0401 06:34:03.046247   127 net.cpp:451] conv4_3_norm_mbox_priorbox <- data_data_0_split_1
I0401 06:34:03.046253   127 net.cpp:425] conv4_3_norm_mbox_priorbox -> conv4_3_norm_mbox_priorbox
I0401 06:34:03.046274   127 net.cpp:160] Setting up conv4_3_norm_mbox_priorbox
I0401 06:34:03.046280   127 net.cpp:167] Top shape: 1 2 23104 (46208)
I0401 06:34:03.046286   127 net.cpp:175] Memory required for data: 7836902464
I0401 06:34:03.046290   127 layer_factory.hpp:93] Creating layer fc7_mbox_loc
I0401 06:34:03.046298   127 net.cpp:110] Creating Layer fc7_mbox_loc
I0401 06:34:03.046303   127 net.cpp:451] fc7_mbox_loc <- fc7_682_relu7_0_split_1
I0401 06:34:03.046314   127 net.cpp:425] fc7_mbox_loc -> fc7_mbox_loc
I0401 06:34:03.047893   127 net.cpp:160] Setting up fc7_mbox_loc
I0401 06:34:03.047905   127 net.cpp:167] Top shape: 32 24 19 19 (277248)
I0401 06:34:03.047912   127 net.cpp:175] Memory required for data: 7838011456
I0401 06:34:03.047919   127 layer_factory.hpp:93] Creating layer fc7_mbox_loc_perm
I0401 06:34:03.047927   127 net.cpp:110] Creating Layer fc7_mbox_loc_perm
I0401 06:34:03.047931   127 net.cpp:451] fc7_mbox_loc_perm <- fc7_mbox_loc
I0401 06:34:03.047938   127 net.cpp:425] fc7_mbox_loc_perm -> fc7_mbox_loc_perm
I0401 06:34:03.048022   127 net.cpp:160] Setting up fc7_mbox_loc_perm
I0401 06:34:03.048028   127 net.cpp:167] Top shape: 32 19 19 24 (277248)
I0401 06:34:03.048033   127 net.cpp:175] Memory required for data: 7839120448
I0401 06:34:03.048038   127 layer_factory.hpp:93] Creating layer fc7_mbox_loc_flat
I0401 06:34:03.048043   127 net.cpp:110] Creating Layer fc7_mbox_loc_flat
I0401 06:34:03.048051   127 net.cpp:451] fc7_mbox_loc_flat <- fc7_mbox_loc_perm
I0401 06:34:03.048056   127 net.cpp:425] fc7_mbox_loc_flat -> fc7_mbox_loc_flat
I0401 06:34:03.048076   127 net.cpp:160] Setting up fc7_mbox_loc_flat
I0401 06:34:03.048085   127 net.cpp:167] Top shape: 32 8664 (277248)
I0401 06:34:03.048090   127 net.cpp:175] Memory required for data: 7840229440
I0401 06:34:03.048094   127 layer_factory.hpp:93] Creating layer fc7_mbox_conf
I0401 06:34:03.048102   127 net.cpp:110] Creating Layer fc7_mbox_conf
I0401 06:34:03.048107   127 net.cpp:451] fc7_mbox_conf <- fc7_682_relu7_0_split_2
I0401 06:34:03.048113   127 net.cpp:425] fc7_mbox_conf -> fc7_mbox_conf
I0401 06:34:03.057253   127 net.cpp:160] Setting up fc7_mbox_conf
I0401 06:34:03.057266   127 net.cpp:167] Top shape: 32 126 19 19 (1455552)
I0401 06:34:03.057274   127 net.cpp:175] Memory required for data: 7846051648
I0401 06:34:03.057281   127 layer_factory.hpp:93] Creating layer fc7_mbox_conf_perm
I0401 06:34:03.057288   127 net.cpp:110] Creating Layer fc7_mbox_conf_perm
I0401 06:34:03.057293   127 net.cpp:451] fc7_mbox_conf_perm <- fc7_mbox_conf
I0401 06:34:03.057299   127 net.cpp:425] fc7_mbox_conf_perm -> fc7_mbox_conf_perm
I0401 06:34:03.057399   127 net.cpp:160] Setting up fc7_mbox_conf_perm
I0401 06:34:03.057405   127 net.cpp:167] Top shape: 32 19 19 126 (1455552)
I0401 06:34:03.057411   127 net.cpp:175] Memory required for data: 7851873856
I0401 06:34:03.057415   127 layer_factory.hpp:93] Creating layer fc7_mbox_conf_flat
I0401 06:34:03.057421   127 net.cpp:110] Creating Layer fc7_mbox_conf_flat
I0401 06:34:03.057425   127 net.cpp:451] fc7_mbox_conf_flat <- fc7_mbox_conf_perm
I0401 06:34:03.057431   127 net.cpp:425] fc7_mbox_conf_flat -> fc7_mbox_conf_flat
I0401 06:34:03.057451   127 net.cpp:160] Setting up fc7_mbox_conf_flat
I0401 06:34:03.057466   127 net.cpp:167] Top shape: 32 45486 (1455552)
I0401 06:34:03.057471   127 net.cpp:175] Memory required for data: 7857696064
I0401 06:34:03.057476   127 layer_factory.hpp:93] Creating layer fc7_mbox_priorbox
I0401 06:34:03.057482   127 net.cpp:110] Creating Layer fc7_mbox_priorbox
I0401 06:34:03.057487   127 net.cpp:451] fc7_mbox_priorbox <- fc7_682_relu7_0_split_3
I0401 06:34:03.057492   127 net.cpp:451] fc7_mbox_priorbox <- data_data_0_split_2
I0401 06:34:03.057497   127 net.cpp:425] fc7_mbox_priorbox -> fc7_mbox_priorbox
I0401 06:34:03.057518   127 net.cpp:160] Setting up fc7_mbox_priorbox
I0401 06:34:03.057523   127 net.cpp:167] Top shape: 1 2 8664 (17328)
I0401 06:34:03.057529   127 net.cpp:175] Memory required for data: 7857765376
I0401 06:34:03.057533   127 layer_factory.hpp:93] Creating layer conv6_2_mbox_loc
I0401 06:34:03.057541   127 net.cpp:110] Creating Layer conv6_2_mbox_loc
I0401 06:34:03.057546   127 net.cpp:451] conv6_2_mbox_loc <- conv6_2_conv6_2_relu_0_split_1
I0401 06:34:03.057554   127 net.cpp:425] conv6_2_mbox_loc -> conv6_2_mbox_loc
I0401 06:34:03.058410   127 net.cpp:160] Setting up conv6_2_mbox_loc
I0401 06:34:03.058420   127 net.cpp:167] Top shape: 32 24 10 10 (76800)
I0401 06:34:03.058426   127 net.cpp:175] Memory required for data: 7858072576
I0401 06:34:03.058434   127 layer_factory.hpp:93] Creating layer conv6_2_mbox_loc_perm
I0401 06:34:03.058440   127 net.cpp:110] Creating Layer conv6_2_mbox_loc_perm
I0401 06:34:03.058444   127 net.cpp:451] conv6_2_mbox_loc_perm <- conv6_2_mbox_loc
I0401 06:34:03.058450   127 net.cpp:425] conv6_2_mbox_loc_perm -> conv6_2_mbox_loc_perm
I0401 06:34:03.058535   127 net.cpp:160] Setting up conv6_2_mbox_loc_perm
I0401 06:34:03.058542   127 net.cpp:167] Top shape: 32 10 10 24 (76800)
I0401 06:34:03.058547   127 net.cpp:175] Memory required for data: 7858379776
I0401 06:34:03.058552   127 layer_factory.hpp:93] Creating layer conv6_2_mbox_loc_flat
I0401 06:34:03.058557   127 net.cpp:110] Creating Layer conv6_2_mbox_loc_flat
I0401 06:34:03.058565   127 net.cpp:451] conv6_2_mbox_loc_flat <- conv6_2_mbox_loc_perm
I0401 06:34:03.058571   127 net.cpp:425] conv6_2_mbox_loc_flat -> conv6_2_mbox_loc_flat
I0401 06:34:03.058589   127 net.cpp:160] Setting up conv6_2_mbox_loc_flat
I0401 06:34:03.058593   127 net.cpp:167] Top shape: 32 2400 (76800)
I0401 06:34:03.058598   127 net.cpp:175] Memory required for data: 7858686976
I0401 06:34:03.058602   127 layer_factory.hpp:93] Creating layer conv6_2_mbox_conf
I0401 06:34:03.058610   127 net.cpp:110] Creating Layer conv6_2_mbox_conf
I0401 06:34:03.058615   127 net.cpp:451] conv6_2_mbox_conf <- conv6_2_conv6_2_relu_0_split_2
I0401 06:34:03.058621   127 net.cpp:425] conv6_2_mbox_conf -> conv6_2_mbox_conf
I0401 06:34:03.063410   127 net.cpp:160] Setting up conv6_2_mbox_conf
I0401 06:34:03.063422   127 net.cpp:167] Top shape: 32 126 10 10 (403200)
I0401 06:34:03.063429   127 net.cpp:175] Memory required for data: 7860299776
I0401 06:34:03.063436   127 layer_factory.hpp:93] Creating layer conv6_2_mbox_conf_perm
I0401 06:34:03.063443   127 net.cpp:110] Creating Layer conv6_2_mbox_conf_perm
I0401 06:34:03.063448   127 net.cpp:451] conv6_2_mbox_conf_perm <- conv6_2_mbox_conf
I0401 06:34:03.063454   127 net.cpp:425] conv6_2_mbox_conf_perm -> conv6_2_mbox_conf_perm
I0401 06:34:03.063534   127 net.cpp:160] Setting up conv6_2_mbox_conf_perm
I0401 06:34:03.063541   127 net.cpp:167] Top shape: 32 10 10 126 (403200)
I0401 06:34:03.063558   127 net.cpp:175] Memory required for data: 7861912576
I0401 06:34:03.063562   127 layer_factory.hpp:93] Creating layer conv6_2_mbox_conf_flat
I0401 06:34:03.063568   127 net.cpp:110] Creating Layer conv6_2_mbox_conf_flat
I0401 06:34:03.063572   127 net.cpp:451] conv6_2_mbox_conf_flat <- conv6_2_mbox_conf_perm
I0401 06:34:03.063580   127 net.cpp:425] conv6_2_mbox_conf_flat -> conv6_2_mbox_conf_flat
I0401 06:34:03.063601   127 net.cpp:160] Setting up conv6_2_mbox_conf_flat
I0401 06:34:03.063607   127 net.cpp:167] Top shape: 32 12600 (403200)
I0401 06:34:03.063612   127 net.cpp:175] Memory required for data: 7863525376
I0401 06:34:03.063616   127 layer_factory.hpp:93] Creating layer conv6_2_mbox_priorbox
I0401 06:34:03.063623   127 net.cpp:110] Creating Layer conv6_2_mbox_priorbox
I0401 06:34:03.063627   127 net.cpp:451] conv6_2_mbox_priorbox <- conv6_2_conv6_2_relu_0_split_3
I0401 06:34:03.063632   127 net.cpp:451] conv6_2_mbox_priorbox <- data_data_0_split_3
I0401 06:34:03.063638   127 net.cpp:425] conv6_2_mbox_priorbox -> conv6_2_mbox_priorbox
I0401 06:34:03.063661   127 net.cpp:160] Setting up conv6_2_mbox_priorbox
I0401 06:34:03.063671   127 net.cpp:167] Top shape: 1 2 2400 (4800)
I0401 06:34:03.063680   127 net.cpp:175] Memory required for data: 7863544576
I0401 06:34:03.063686   127 layer_factory.hpp:93] Creating layer conv7_2_mbox_loc
I0401 06:34:03.063699   127 net.cpp:110] Creating Layer conv7_2_mbox_loc
I0401 06:34:03.063711   127 net.cpp:451] conv7_2_mbox_loc <- conv7_2_conv7_2_relu_0_split_1
I0401 06:34:03.063722   127 net.cpp:425] conv7_2_mbox_loc -> conv7_2_mbox_loc
I0401 06:34:03.064302   127 net.cpp:160] Setting up conv7_2_mbox_loc
I0401 06:34:03.064311   127 net.cpp:167] Top shape: 32 24 5 5 (19200)
I0401 06:34:03.064318   127 net.cpp:175] Memory required for data: 7863621376
I0401 06:34:03.064329   127 layer_factory.hpp:93] Creating layer conv7_2_mbox_loc_perm
I0401 06:34:03.064337   127 net.cpp:110] Creating Layer conv7_2_mbox_loc_perm
I0401 06:34:03.064340   127 net.cpp:451] conv7_2_mbox_loc_perm <- conv7_2_mbox_loc
I0401 06:34:03.064347   127 net.cpp:425] conv7_2_mbox_loc_perm -> conv7_2_mbox_loc_perm
I0401 06:34:03.064424   127 net.cpp:160] Setting up conv7_2_mbox_loc_perm
I0401 06:34:03.064429   127 net.cpp:167] Top shape: 32 5 5 24 (19200)
I0401 06:34:03.064435   127 net.cpp:175] Memory required for data: 7863698176
I0401 06:34:03.064440   127 layer_factory.hpp:93] Creating layer conv7_2_mbox_loc_flat
I0401 06:34:03.064445   127 net.cpp:110] Creating Layer conv7_2_mbox_loc_flat
I0401 06:34:03.064450   127 net.cpp:451] conv7_2_mbox_loc_flat <- conv7_2_mbox_loc_perm
I0401 06:34:03.064455   127 net.cpp:425] conv7_2_mbox_loc_flat -> conv7_2_mbox_loc_flat
I0401 06:34:03.064473   127 net.cpp:160] Setting up conv7_2_mbox_loc_flat
I0401 06:34:03.064479   127 net.cpp:167] Top shape: 32 600 (19200)
I0401 06:34:03.064486   127 net.cpp:175] Memory required for data: 7863774976
I0401 06:34:03.064492   127 layer_factory.hpp:93] Creating layer conv7_2_mbox_conf
I0401 06:34:03.064505   127 net.cpp:110] Creating Layer conv7_2_mbox_conf
I0401 06:34:03.064512   127 net.cpp:451] conv7_2_mbox_conf <- conv7_2_conv7_2_relu_0_split_2
I0401 06:34:03.064523   127 net.cpp:425] conv7_2_mbox_conf -> conv7_2_mbox_conf
I0401 06:34:03.067620   127 net.cpp:160] Setting up conv7_2_mbox_conf
I0401 06:34:03.067633   127 net.cpp:167] Top shape: 32 126 5 5 (100800)
I0401 06:34:03.067641   127 net.cpp:175] Memory required for data: 7864178176
I0401 06:34:03.067647   127 layer_factory.hpp:93] Creating layer conv7_2_mbox_conf_perm
I0401 06:34:03.067656   127 net.cpp:110] Creating Layer conv7_2_mbox_conf_perm
I0401 06:34:03.067661   127 net.cpp:451] conv7_2_mbox_conf_perm <- conv7_2_mbox_conf
I0401 06:34:03.067667   127 net.cpp:425] conv7_2_mbox_conf_perm -> conv7_2_mbox_conf_perm
I0401 06:34:03.067746   127 net.cpp:160] Setting up conv7_2_mbox_conf_perm
I0401 06:34:03.067754   127 net.cpp:167] Top shape: 32 5 5 126 (100800)
I0401 06:34:03.067759   127 net.cpp:175] Memory required for data: 7864581376
I0401 06:34:03.067775   127 layer_factory.hpp:93] Creating layer conv7_2_mbox_conf_flat
I0401 06:34:03.067780   127 net.cpp:110] Creating Layer conv7_2_mbox_conf_flat
I0401 06:34:03.067785   127 net.cpp:451] conv7_2_mbox_conf_flat <- conv7_2_mbox_conf_perm
I0401 06:34:03.067790   127 net.cpp:425] conv7_2_mbox_conf_flat -> conv7_2_mbox_conf_flat
I0401 06:34:03.067816   127 net.cpp:160] Setting up conv7_2_mbox_conf_flat
I0401 06:34:03.067826   127 net.cpp:167] Top shape: 32 3150 (100800)
I0401 06:34:03.067836   127 net.cpp:175] Memory required for data: 7864984576
I0401 06:34:03.067842   127 layer_factory.hpp:93] Creating layer conv7_2_mbox_priorbox
I0401 06:34:03.067852   127 net.cpp:110] Creating Layer conv7_2_mbox_priorbox
I0401 06:34:03.067858   127 net.cpp:451] conv7_2_mbox_priorbox <- conv7_2_conv7_2_relu_0_split_3
I0401 06:34:03.067867   127 net.cpp:451] conv7_2_mbox_priorbox <- data_data_0_split_4
I0401 06:34:03.067876   127 net.cpp:425] conv7_2_mbox_priorbox -> conv7_2_mbox_priorbox
I0401 06:34:03.067900   127 net.cpp:160] Setting up conv7_2_mbox_priorbox
I0401 06:34:03.067907   127 net.cpp:167] Top shape: 1 2 600 (1200)
I0401 06:34:03.067912   127 net.cpp:175] Memory required for data: 7864989376
I0401 06:34:03.067916   127 layer_factory.hpp:93] Creating layer conv8_2_mbox_loc
I0401 06:34:03.067925   127 net.cpp:110] Creating Layer conv8_2_mbox_loc
I0401 06:34:03.067930   127 net.cpp:451] conv8_2_mbox_loc <- conv8_2_conv8_2_relu_0_split_1
I0401 06:34:03.067939   127 net.cpp:425] conv8_2_mbox_loc -> conv8_2_mbox_loc
I0401 06:34:03.068404   127 net.cpp:160] Setting up conv8_2_mbox_loc
I0401 06:34:03.068414   127 net.cpp:167] Top shape: 32 16 3 3 (4608)
I0401 06:34:03.068421   127 net.cpp:175] Memory required for data: 7865007808
I0401 06:34:03.068428   127 layer_factory.hpp:93] Creating layer conv8_2_mbox_loc_perm
I0401 06:34:03.068435   127 net.cpp:110] Creating Layer conv8_2_mbox_loc_perm
I0401 06:34:03.068439   127 net.cpp:451] conv8_2_mbox_loc_perm <- conv8_2_mbox_loc
I0401 06:34:03.068445   127 net.cpp:425] conv8_2_mbox_loc_perm -> conv8_2_mbox_loc_perm
I0401 06:34:03.068523   127 net.cpp:160] Setting up conv8_2_mbox_loc_perm
I0401 06:34:03.068531   127 net.cpp:167] Top shape: 32 3 3 16 (4608)
I0401 06:34:03.068536   127 net.cpp:175] Memory required for data: 7865026240
I0401 06:34:03.068539   127 layer_factory.hpp:93] Creating layer conv8_2_mbox_loc_flat
I0401 06:34:03.068544   127 net.cpp:110] Creating Layer conv8_2_mbox_loc_flat
I0401 06:34:03.068548   127 net.cpp:451] conv8_2_mbox_loc_flat <- conv8_2_mbox_loc_perm
I0401 06:34:03.068554   127 net.cpp:425] conv8_2_mbox_loc_flat -> conv8_2_mbox_loc_flat
I0401 06:34:03.068575   127 net.cpp:160] Setting up conv8_2_mbox_loc_flat
I0401 06:34:03.068585   127 net.cpp:167] Top shape: 32 144 (4608)
I0401 06:34:03.068593   127 net.cpp:175] Memory required for data: 7865044672
I0401 06:34:03.068599   127 layer_factory.hpp:93] Creating layer conv8_2_mbox_conf
I0401 06:34:03.068610   127 net.cpp:110] Creating Layer conv8_2_mbox_conf
I0401 06:34:03.068614   127 net.cpp:451] conv8_2_mbox_conf <- conv8_2_conv8_2_relu_0_split_2
I0401 06:34:03.068622   127 net.cpp:425] conv8_2_mbox_conf -> conv8_2_mbox_conf
I0401 06:34:03.069960   127 net.cpp:160] Setting up conv8_2_mbox_conf
I0401 06:34:03.069970   127 net.cpp:167] Top shape: 32 84 3 3 (24192)
I0401 06:34:03.069977   127 net.cpp:175] Memory required for data: 7865141440
I0401 06:34:03.069983   127 layer_factory.hpp:93] Creating layer conv8_2_mbox_conf_perm
I0401 06:34:03.069990   127 net.cpp:110] Creating Layer conv8_2_mbox_conf_perm
I0401 06:34:03.069995   127 net.cpp:451] conv8_2_mbox_conf_perm <- conv8_2_mbox_conf
I0401 06:34:03.070000   127 net.cpp:425] conv8_2_mbox_conf_perm -> conv8_2_mbox_conf_perm
I0401 06:34:03.070080   127 net.cpp:160] Setting up conv8_2_mbox_conf_perm
I0401 06:34:03.070087   127 net.cpp:167] Top shape: 32 3 3 84 (24192)
I0401 06:34:03.070093   127 net.cpp:175] Memory required for data: 7865238208
I0401 06:34:03.070097   127 layer_factory.hpp:93] Creating layer conv8_2_mbox_conf_flat
I0401 06:34:03.070102   127 net.cpp:110] Creating Layer conv8_2_mbox_conf_flat
I0401 06:34:03.070117   127 net.cpp:451] conv8_2_mbox_conf_flat <- conv8_2_mbox_conf_perm
I0401 06:34:03.070124   127 net.cpp:425] conv8_2_mbox_conf_flat -> conv8_2_mbox_conf_flat
I0401 06:34:03.070156   127 net.cpp:160] Setting up conv8_2_mbox_conf_flat
I0401 06:34:03.070166   127 net.cpp:167] Top shape: 32 756 (24192)
I0401 06:34:03.070171   127 net.cpp:175] Memory required for data: 7865334976
I0401 06:34:03.070175   127 layer_factory.hpp:93] Creating layer conv8_2_mbox_priorbox
I0401 06:34:03.070184   127 net.cpp:110] Creating Layer conv8_2_mbox_priorbox
I0401 06:34:03.070191   127 net.cpp:451] conv8_2_mbox_priorbox <- conv8_2_conv8_2_relu_0_split_3
I0401 06:34:03.070200   127 net.cpp:451] conv8_2_mbox_priorbox <- data_data_0_split_5
I0401 06:34:03.070209   127 net.cpp:425] conv8_2_mbox_priorbox -> conv8_2_mbox_priorbox
I0401 06:34:03.070233   127 net.cpp:160] Setting up conv8_2_mbox_priorbox
I0401 06:34:03.070240   127 net.cpp:167] Top shape: 1 2 144 (288)
I0401 06:34:03.070245   127 net.cpp:175] Memory required for data: 7865336128
I0401 06:34:03.070250   127 layer_factory.hpp:93] Creating layer conv9_2_mbox_loc
I0401 06:34:03.070258   127 net.cpp:110] Creating Layer conv9_2_mbox_loc
I0401 06:34:03.070262   127 net.cpp:451] conv9_2_mbox_loc <- conv9_2_conv9_2_relu_0_split_0
I0401 06:34:03.070268   127 net.cpp:425] conv9_2_mbox_loc -> conv9_2_mbox_loc
I0401 06:34:03.070724   127 net.cpp:160] Setting up conv9_2_mbox_loc
I0401 06:34:03.070734   127 net.cpp:167] Top shape: 32 16 1 1 (512)
I0401 06:34:03.070739   127 net.cpp:175] Memory required for data: 7865338176
I0401 06:34:03.070746   127 layer_factory.hpp:93] Creating layer conv9_2_mbox_loc_perm
I0401 06:34:03.070753   127 net.cpp:110] Creating Layer conv9_2_mbox_loc_perm
I0401 06:34:03.070757   127 net.cpp:451] conv9_2_mbox_loc_perm <- conv9_2_mbox_loc
I0401 06:34:03.070765   127 net.cpp:425] conv9_2_mbox_loc_perm -> conv9_2_mbox_loc_perm
I0401 06:34:03.070858   127 net.cpp:160] Setting up conv9_2_mbox_loc_perm
I0401 06:34:03.070866   127 net.cpp:167] Top shape: 32 1 1 16 (512)
I0401 06:34:03.070873   127 net.cpp:175] Memory required for data: 7865340224
I0401 06:34:03.070876   127 layer_factory.hpp:93] Creating layer conv9_2_mbox_loc_flat
I0401 06:34:03.070883   127 net.cpp:110] Creating Layer conv9_2_mbox_loc_flat
I0401 06:34:03.070886   127 net.cpp:451] conv9_2_mbox_loc_flat <- conv9_2_mbox_loc_perm
I0401 06:34:03.070892   127 net.cpp:425] conv9_2_mbox_loc_flat -> conv9_2_mbox_loc_flat
I0401 06:34:03.070912   127 net.cpp:160] Setting up conv9_2_mbox_loc_flat
I0401 06:34:03.070917   127 net.cpp:167] Top shape: 32 16 (512)
I0401 06:34:03.070922   127 net.cpp:175] Memory required for data: 7865342272
I0401 06:34:03.070925   127 layer_factory.hpp:93] Creating layer conv9_2_mbox_conf
I0401 06:34:03.070933   127 net.cpp:110] Creating Layer conv9_2_mbox_conf
I0401 06:34:03.070938   127 net.cpp:451] conv9_2_mbox_conf <- conv9_2_conv9_2_relu_0_split_1
I0401 06:34:03.070945   127 net.cpp:425] conv9_2_mbox_conf -> conv9_2_mbox_conf
I0401 06:34:03.072266   127 net.cpp:160] Setting up conv9_2_mbox_conf
I0401 06:34:03.072276   127 net.cpp:167] Top shape: 32 84 1 1 (2688)
I0401 06:34:03.072283   127 net.cpp:175] Memory required for data: 7865353024
I0401 06:34:03.072289   127 layer_factory.hpp:93] Creating layer conv9_2_mbox_conf_perm
I0401 06:34:03.072295   127 net.cpp:110] Creating Layer conv9_2_mbox_conf_perm
I0401 06:34:03.072300   127 net.cpp:451] conv9_2_mbox_conf_perm <- conv9_2_mbox_conf
I0401 06:34:03.072306   127 net.cpp:425] conv9_2_mbox_conf_perm -> conv9_2_mbox_conf_perm
I0401 06:34:03.072389   127 net.cpp:160] Setting up conv9_2_mbox_conf_perm
I0401 06:34:03.072401   127 net.cpp:167] Top shape: 32 1 1 84 (2688)
I0401 06:34:03.072409   127 net.cpp:175] Memory required for data: 7865363776
I0401 06:34:03.072415   127 layer_factory.hpp:93] Creating layer conv9_2_mbox_conf_flat
I0401 06:34:03.072423   127 net.cpp:110] Creating Layer conv9_2_mbox_conf_flat
I0401 06:34:03.072427   127 net.cpp:451] conv9_2_mbox_conf_flat <- conv9_2_mbox_conf_perm
I0401 06:34:03.072443   127 net.cpp:425] conv9_2_mbox_conf_flat -> conv9_2_mbox_conf_flat
I0401 06:34:03.072468   127 net.cpp:160] Setting up conv9_2_mbox_conf_flat
I0401 06:34:03.072474   127 net.cpp:167] Top shape: 32 84 (2688)
I0401 06:34:03.072479   127 net.cpp:175] Memory required for data: 7865374528
I0401 06:34:03.072482   127 layer_factory.hpp:93] Creating layer conv9_2_mbox_priorbox
I0401 06:34:03.072489   127 net.cpp:110] Creating Layer conv9_2_mbox_priorbox
I0401 06:34:03.072495   127 net.cpp:451] conv9_2_mbox_priorbox <- conv9_2_conv9_2_relu_0_split_2
I0401 06:34:03.072504   127 net.cpp:451] conv9_2_mbox_priorbox <- data_data_0_split_6
I0401 06:34:03.072512   127 net.cpp:425] conv9_2_mbox_priorbox -> conv9_2_mbox_priorbox
I0401 06:34:03.072546   127 net.cpp:160] Setting up conv9_2_mbox_priorbox
I0401 06:34:03.072556   127 net.cpp:167] Top shape: 1 2 16 (32)
I0401 06:34:03.072561   127 net.cpp:175] Memory required for data: 7865374656
I0401 06:34:03.072564   127 layer_factory.hpp:93] Creating layer mbox_loc
I0401 06:34:03.072576   127 net.cpp:110] Creating Layer mbox_loc
I0401 06:34:03.072582   127 net.cpp:451] mbox_loc <- conv4_3_norm_mbox_loc_flat
I0401 06:34:03.072587   127 net.cpp:451] mbox_loc <- fc7_mbox_loc_flat
I0401 06:34:03.072590   127 net.cpp:451] mbox_loc <- conv6_2_mbox_loc_flat
I0401 06:34:03.072595   127 net.cpp:451] mbox_loc <- conv7_2_mbox_loc_flat
I0401 06:34:03.072599   127 net.cpp:451] mbox_loc <- conv8_2_mbox_loc_flat
I0401 06:34:03.072604   127 net.cpp:451] mbox_loc <- conv9_2_mbox_loc_flat
I0401 06:34:03.072609   127 net.cpp:425] mbox_loc -> mbox_loc
I0401 06:34:03.072635   127 net.cpp:160] Setting up mbox_loc
I0401 06:34:03.072645   127 net.cpp:167] Top shape: 32 34928 (1117696)
I0401 06:34:03.072654   127 net.cpp:175] Memory required for data: 7869845440
I0401 06:34:03.072659   127 layer_factory.hpp:93] Creating layer mbox_conf
I0401 06:34:03.072669   127 net.cpp:110] Creating Layer mbox_conf
I0401 06:34:03.072676   127 net.cpp:451] mbox_conf <- conv4_3_norm_mbox_conf_flat
I0401 06:34:03.072685   127 net.cpp:451] mbox_conf <- fc7_mbox_conf_flat
I0401 06:34:03.072692   127 net.cpp:451] mbox_conf <- conv6_2_mbox_conf_flat
I0401 06:34:03.072700   127 net.cpp:451] mbox_conf <- conv7_2_mbox_conf_flat
I0401 06:34:03.072707   127 net.cpp:451] mbox_conf <- conv8_2_mbox_conf_flat
I0401 06:34:03.072713   127 net.cpp:451] mbox_conf <- conv9_2_mbox_conf_flat
I0401 06:34:03.072719   127 net.cpp:425] mbox_conf -> mbox_conf
I0401 06:34:03.072744   127 net.cpp:160] Setting up mbox_conf
I0401 06:34:03.072754   127 net.cpp:167] Top shape: 32 183372 (5867904)
I0401 06:34:03.072762   127 net.cpp:175] Memory required for data: 7893317056
I0401 06:34:03.072767   127 layer_factory.hpp:93] Creating layer mbox_priorbox
I0401 06:34:03.072777   127 net.cpp:110] Creating Layer mbox_priorbox
I0401 06:34:03.072783   127 net.cpp:451] mbox_priorbox <- conv4_3_norm_mbox_priorbox
I0401 06:34:03.072791   127 net.cpp:451] mbox_priorbox <- fc7_mbox_priorbox
I0401 06:34:03.072798   127 net.cpp:451] mbox_priorbox <- conv6_2_mbox_priorbox
I0401 06:34:03.072803   127 net.cpp:451] mbox_priorbox <- conv7_2_mbox_priorbox
I0401 06:34:03.072810   127 net.cpp:451] mbox_priorbox <- conv8_2_mbox_priorbox
I0401 06:34:03.072818   127 net.cpp:451] mbox_priorbox <- conv9_2_mbox_priorbox
I0401 06:34:03.072825   127 net.cpp:425] mbox_priorbox -> mbox_priorbox
I0401 06:34:03.072852   127 net.cpp:160] Setting up mbox_priorbox
I0401 06:34:03.072862   127 net.cpp:167] Top shape: 1 2 34928 (69856)
I0401 06:34:03.072872   127 net.cpp:175] Memory required for data: 7893596480
I0401 06:34:03.072877   127 layer_factory.hpp:93] Creating layer mbox_loss
I0401 06:34:03.072888   127 net.cpp:110] Creating Layer mbox_loss
I0401 06:34:03.072892   127 net.cpp:451] mbox_loss <- mbox_loc
I0401 06:34:03.072897   127 net.cpp:451] mbox_loss <- mbox_conf
I0401 06:34:03.072904   127 net.cpp:451] mbox_loss <- mbox_priorbox
…
  name: "data"
  type: "AnnotatedData"
  top: "data"
  top: "label"
  include {
    phase: TEST
  }
  transform_param {
    mean_value: 104
    mean_value: 117
    mean_value: 123
    resize_param {
      prob: 1
      resize_mode: WARP
      height: 300
      width: 300
      interp_mode: LINEAR
    }
  }
  data_param {
    source: "/workspace/SSD/data/VOCdevkit/VOC0712/lmdb/VOC0712_test_lmdb"
    batch_size: 8
    backend: LMDB
  }
  annotated_data_param {
    batch_sampler {
    }
    label_map_file: "/workspace/SSD/data/labelmap_voc.prototxt"
  }
}
layer {
  name: "conv1_1"
  type: "Convolution"
  bottom: "data"
  top: "conv1_1"
  param {
    lr_mult: 1
    decay_mult: 1
  }
  param {
    lr_mult: 2
    decay_mult: 0
  }
  convolution_param {
    num_output: 64
    pad: 1
    kernel_size: 3
    weight_filler {
      type: "xavier"
    }
    bias_filler {
      type: "constant"
      value: 0
    }
  }
}
layer {
  name: "relu1_1"
  type: "ReLU"
  bottom: "conv1_1"
  top: "conv1_1"
}
layer {
  name: "conv1_2"
  type: "Convolution"
  bottom: "conv1_1"
  top: "conv1_2"
  param {
    lr_mult: 1
    decay_mult: 1
  }
  param {
    lr_mult: 2
    decay_mult: 0
  }
  convolution_param {
    num_output: 64
    pad: 1
    kernel_size: 3
    weight_filler {
      type: "xavier"
    }
    bias_filler {
      type: "constant"
      value: 0
    }
  }
}
layer {
  name: "relu1_2"
  type: "ReLU"
  bottom: "conv1_2"
  top: "conv1_2"
}
layer {
  name: "pool1"
  type: "Pooling"
  bottom: "conv1_2"
  top: "pool1"
  pooling_param {
    pool: MAX
    kernel_size: 2
    stride: 2
  }
}
layer {
  name: "conv2_1"
  type: "Convolution"
  bottom: "pool1"
  top: "conv2_1"
  param {
    lr_mult: 1
    decay_mult: 1
  }
  param {
    lr_mult: 2
    decay_mult: 0
  }
  convolution_param {
    num_output: 128
    pad: 1
    kernel_size: 3
    weight_filler {
      type: "xavier"
    }
    bias_filler {
      type: "constant"
      value: 0
    }
  }
}
layer {
  name: "relu2_1"
  type: "ReLU"
  bottom: "conv2_1"
  top: "conv2_1"
}
layer {
  name: "conv2_2"
  type: "Convolution"
  bottom: "conv2_1"
  top: "conv2_2"
  param {
    lr_mult: 1
    decay_mult: 1
  }
  param {
    lr_mult: 2
    decay_mult: 0
  }
  convolution_param {
    num_output: 128
    pad: 1
    kernel_size: 3
    weight_filler {
      type: "xavier"
    }
    bias_filler {
      type: "constant"
      value: 0
    }
  }
}
layer {
  name: "relu2_2"
  type: "ReLU"
  bottom: "conv2_2"
  top: "conv2_2"
}
layer {
  name: "pool2"
  type: "Pooling"
  bottom: "conv2_2"
  top: "pool2"
  pooling_param {
    pool: MAX
    kernel_size: 2
    stride: 2
  }
}
layer {
  name: "conv3_1"
  type: "Convolution"
  bottom: "pool2"
  top: "conv3_1"
  param {
    lr_mult: 1
    decay_mult: 1
  }
  param {
    lr_mult: 2
    decay_mult: 0
  }
  convolution_param {
    num_output: 256
    pad: 1
    kernel_size: 3
    weight_filler {
      type: "xavier"
    }
    bias_filler {
      type: "constant"
      value: 0
    }
  }
}
layer {
  name: "relu3_1"
  type: "ReLU"
  bottom: "conv3_1"
  top: "conv3_1"
}
layer {
  name: "conv3_2"
  type: "Convolution"
  bottom: "conv3_1"
  top: "conv3_2"
  param {
    lr_mult: 1
    decay_mult: 1
  }
  param {
    lr_mult: 2
    decay_mult: 0
  }
  convolution_param {
    num_output: 256
    pad: 1
    kernel_size: 3
    weight_filler {
      type: "xavier"
    }
    bias_filler {
      type: "constant"
      value: 0
    }
  }
}
layer {
  name: "relu3_2"
  type: "ReLU"
  bottom: "conv3_2"
  top: "conv3_2"
}
layer {
  name: "conv3_3"
  type: "Convolution"
  bottom: "conv3_2"
  top: "conv3_3"
  param {
    lr_mult: 1
    decay_mult: 1
  }
  param {
    lr_mult: 2
    decay_mult: 0
  }
  convolution_param {
    num_output: 256
    pad: 1
    kernel_size: 3
    weight_filler {
      type: "xavier"
    }
    bias_filler {
      type: "constant"
      value: 0
    }
  }
}
layer {
  name: "relu3_3"
  type: "ReLU"
  bottom: "conv3_3"
  top: "conv3_3"
}
layer {
  name: "pool3"
  type: "Pooling"
  bottom: "conv3_3"
  top: "pool3"
  pooling_param {
    pool: MAX
    kernel_size: 2
    stride: 2
  }
}
layer {
  name: "conv4_1"
  type: "Convolution"
  bottom: "pool3"
  top: "conv4_1"
  param {
    lr_mult: 1
    decay_mult: 1
  }
  param {
    lr_mult: 2
    decay_mult: 0
  }
  convolution_param {
    num_output: 512
    pad: 1
    kernel_size: 3
    weight_filler {
      type: "xavier"
    }
    bias_filler {
      type: "constant"
      value: 0
    }
  }
}
layer {
  name: "relu4_1"
  type: "ReLU"
  bottom: "conv4_1"
  top: "conv4_1"
}
layer {
  name: "conv4_2"
  type: "Convolution"
  bottom: "conv4_1"
  top: "conv4_2"
  param {
    lr_mult: 1
    decay_mult: 1
  }
  param {
    lr_mult: 2
    decay_mult: 0
  }
  convolution_param {
    num_output: 512
    pad: 1
    kernel_size: 3
    weight_filler {
      type: "xavier"
    }
    bias_filler {
      type: "constant"
      value: 0
    }
  }
}
layer {
  name: "relu4_2"
  type: "ReLU"
  bottom: "conv4_2"
  top: "conv4_2"
}
layer {
  name: "conv4_3"
  type: "Convolution"
  bottom: "conv4_2"
  top: "conv4_3"
  param {
    lr_mult: 1
    decay_mult: 1
  }
  param {
    lr_mult: 2
    decay_mult: 0
  }
  convolution_param {
    num_output: 512
    pad: 1
    kernel_size: 3
    weight_filler {
      type: "xavier"
    }
    bias_filler {
      type: "constant"
      value: 0
    }
  }
}
layer {
  name: "conv4_3_bn"
  type: "BatchNorm"
  bottom: "conv4_3"
  top: "conv4_3"
  param {
    lr_mult: 1
    decay_mult: 0
  }
  param {
    lr_mult: 1
    decay_mult: 0
  }
  param {
    lr_mult: 0
    decay_mult: 0
  }
  param {
    lr_mult: 0
    decay_mult: 0
  }
  batch_norm_param {
    use_global_stats: true
    eps: 1e-05
    scale_filler {
      type: "constant"
      value: 1
    }
    bias_filler {
      type: "constant"
      value: 0
    }
  }
}
layer {
  name: "relu4_3"
  type: "ReLU"
  bottom: "conv4_3"
  top: "conv4_3"
}
layer {
  name: "pool4"
  type: "Pooling"
  bottom: "conv4_3"
  top: "pool4"
  pooling_param {
    pool: MAX
    kernel_size: 2
    stride: 2
  }
}
layer {
  name: "conv5_1"
  type: "Convolution"
  bottom: "pool4"
  top: "conv5_1"
  param {
    lr_mult: 1
    decay_mult: 1
  }
  param {
    lr_mult: 2
    decay_mult: 0
  }
  convolution_param {
    num_output: 512
    pad: 1
    kernel_size: 3
    weight_filler {
      type: "xavier"
    }
    bias_filler {
      type: "constant"
      value: 0
    }
    dilation: 1
  }
}
layer {
  name: "relu5_1"
  type: "ReLU"
  bottom: "conv5_1"
  top: "conv5_1"
}
layer {
  name: "conv5_2"
  type: "Convolution"
  bottom: "conv5_1"
  top: "conv5_2"
  param {
    lr_mult: 1
    decay_mult: 1
  }
  param {
    lr_mult: 2
    decay_mult: 0
  }
  convolution_param {
    num_output: 512
    pad: 1
    kernel_size: 3
    weight_filler {
      type: "xavier"
    }
    bias_filler {
      type: "constant"
      value: 0
    }
    dilation: 1
  }
}
layer {
  name: "relu5_2"
  type: "ReLU"
  bottom: "conv5_2"
  top: "conv5_2"
}
layer {
  name: "conv5_3"
  type: "Convolution"
  bottom: "conv5_2"
  top: "conv5_3"
  param {
    lr_mult: 1
    decay_mult: 1
  }
  param {
    lr_mult: 2
    decay_mult: 0
  }
  convolution_param {
    num_output: 512
    pad: 1
    kernel_size: 3
    weight_filler {
      type: "xavier"
    }
    bias_filler {
      type: "constant"
      value: 0
    }
    dilation: 1
  }
}
layer {
  name: "relu5_3"
  type: "ReLU"
  bottom: "conv5_3"
  top: "conv5_3"
}
layer {
  name: "pool5"
  type: "Pooling"
  bottom: "conv5_3"
  top: "pool5"
  pooling_param {
    pool: MAX
    kernel_size: 3
    stride: 1
    pad: 1
  }
}
layer {
  name: "fc6_682"
  type: "Convolution"
  bottom: "pool5"
  top: "fc6_682"
  param {
    lr_mult: 1
    decay_mult: 1
  }
  param {
    lr_mult: 2
    decay_mult: 0
  }
  convolution_param {
    num_output: 682
    pad: 6
    kernel_size: 3
    weight_filler {
      type: "xavier"
    }
    bias_filler {
      type: "constant"
      value: 0
    }
    dilation: 6
  }
}
layer {
  name: "relu6"
  type: "ReLU"
  bottom: "fc6_682"
  top: "fc6_682"
}
layer {
  name: "fc7_682"
  type: "Convolution"
  bottom: "fc6_682"
  top: "fc7_682"
  param {
    lr_mult: 1
    decay_mult: 1
  }
  param {
    lr_mult: 2
    decay_mult: 0
  }
  convolution_param {
    num_output: 1024
    kernel_size: 1
    weight_filler {
      type: "xavier"
    }
    bias_filler {
      type: "constant"
      value: 0
    }
  }
}
layer {
  name: "relu7"
  type: "ReLU"
  bottom: "fc7_682"
  top: "fc7_682"
}
layer {
  name: "conv6_1"
  type: "Convolution"
  bottom: "fc7_682"
  top: "conv6_1"
  param {
    lr_mult: 1
    decay_mult: 1
  }
  param {
    lr_mult: 2
    decay_mult: 0
  }
  convolution_param {
    num_output: 256
    pad: 0
    kernel_size: 1
    stride: 1
    weight_filler {
      type: "xavier"
    }
    bias_filler {
      type: "constant"
      value: 0
    }
  }
}
layer {
  name: "conv6_1_relu"
  type: "ReLU"
  bottom: "conv6_1"
  top: "conv6_1"
}
layer {
  name: "conv6_2"
  type: "Convolution"
  bottom: "conv6_1"
  top: "conv6_2"
  param {
    lr_mult: 1
    decay_mult: 1
  }
  param {
    lr_mult: 2
    decay_mult: 0
  }
  convolution_param {
    num_output: 512
    pad: 1
    kernel_size: 3
    stride: 2
    weight_filler {
      type: "xavier"
    }
    bias_filler {
      type: "constant"
      value: 0
    }
  }
}
layer {
  name: "conv6_2_relu"
  type: "ReLU"
  bottom: "conv6_2"
  top: "conv6_2"
}
layer {
  name: "conv7_1"
  type: "Convolution"
  bottom: "conv6_2"
  top: "conv7_1"
  param {
    lr_mult: 1
    decay_mult: 1
  }
  param {
    lr_mult: 2
    decay_mult: 0
  }
  convolution_param {
    num_output: 128
    pad: 0
    kernel_size: 1
    stride: 1
    weight_filler {
      type: "xavier"
    }
    bias_filler {
      type: "constant"
      value: 0
    }
  }
}
layer {
  name: "conv7_1_relu"
  type: "ReLU"
  bottom: "conv7_1"
  top: "conv7_1"
}
layer {
  name: "conv7_2"
  type: "Convolution"
  bottom: "conv7_1"
  top: "conv7_2"
  param {
    lr_mult: 1
    decay_mult: 1
  }
  param {
    lr_mult: 2
    decay_mult: 0
  }
  convolution_param {
    num_output: 256
    pad: 1
    kernel_size: 3
    stride: 2
    weight_filler {
      type: "xavier"
    }
    bias_filler {
      type: "constant"
      value: 0
    }
  }
}
layer {
  name: "conv7_2_relu"
  type: "ReLU"
  bottom: "conv7_2"
  top: "conv7_2"
}
layer {
  name: "conv8_1"
  type: "Convolution"
  bottom: "conv7_2"
  top: "conv8_1"
  param {
    lr_mult: 1
    decay_mult: 1
  }
  param {
    lr_mult: 2
    decay_mult: 0
  }
  convolution_param {
    num_output: 128
    pad: 0
    kernel_size: 1
    stride: 1
    weight_filler {
      type: "xavier"
    }
    bias_filler {
      type: "constant"
      value: 0
    }
  }
}
layer {
  name: "conv8_1_relu"
  type: "ReLU"
  bottom: "conv8_1"
  top: "conv8_1"
}
layer {
  name: "conv8_2"
  type: "Convolution"
  bottom: "conv8_1"
  top: "conv8_2"
  param {
    lr_mult: 1
    decay_mult: 1
  }
  param {
    lr_mult: 2
    decay_mult: 0
  }
  convolution_param {
    num_output: 256
    pad: 0
    kernel_size: 3
    stride: 1
    weight_filler {
      type: "xavier"
    }
    bias_filler {
      type: "constant"
      value: 0
    }
  }
}
layer {
  name: "conv8_2_relu"
  type: "ReLU"
  bottom: "conv8_2"
  top: "conv8_2"
}
layer {
  name: "conv9_1"
  type: "Convolution"
  bottom: "conv8_2"
  top: "conv9_1"
  param {
    lr_mult: 1
    decay_mult: 1
  }
  param {
    lr_mult: 2
    decay_mult: 0
  }
  convolution_param {
    num_output: 128
    pad: 0
    kernel_size: 1
    stride: 1
    weight_filler {
      type: "xavier"
    }
    bias_filler {
      type: "constant"
      value: 0
    }
  }
}
layer {
  name: "conv9_1_relu"
  type: "ReLU"
  bottom: "conv9_1"
  top: "conv9_1"
}
layer {
  name: "conv9_2"
  type: "Convolution"
  bottom: "conv9_1"
  top: "conv9_2"
  param {
    lr_mult: 1
    decay_mult: 1
  }
  param {
    lr_mult: 2
    decay_mult: 0
  }
  convolution_param {
    num_output: 256
    pad: 0
    kernel_size: 3
    stride: 1
    weight_filler {
      type: "xavier"
    }
    bias_filler {
      type: "constant"
      value: 0
    }
  }
}
layer {
  name: "conv9_2_relu"
  type: "ReLU"
  bottom: "conv9_2"
  top: "conv9_2"
}
layer {
  name: "conv4_3_norm_mbox_loc"
  type: "Convolution"
  bottom: "conv4_3"
  top: "conv4_3_norm_mbox_loc"
  param {
    lr_mult: 1
    decay_mult: 1
  }
  param {
    lr_mult: 2
    decay_mult: 0
  }
  convolution_param {
    num_output: 16
    pad: 1
    kernel_size: 3
    stride: 1
    weight_filler {
      type: "xavier"
    }
    bias_filler {
      type: "constant"
      value: 0
    }
  }
}
layer {
  name: "conv4_3_norm_mbox_loc_perm"
  type: "Permute"
  bottom: "conv4_3_norm_mbox_loc"
  top: "conv4_3_norm_mbox_loc_perm"
  permute_param {
    order: 0
    order: 2
    order: 3
    order: 1
  }
}
layer {
  name: "conv4_3_norm_mbox_loc_flat"
  type: "Flatten"
  bottom: "conv4_3_norm_mbox_loc_perm"
  top: "conv4_3_norm_mbox_loc_flat"
  flatten_param {
    axis: 1
  }
}
layer {
  name: "conv4_3_norm_mbox_conf"
  type: "Convolution"
  bottom: "conv4_3"
  top: "conv4_3_norm_mbox_conf"
  param {
    lr_mult: 1
    decay_mult: 1
  }
  param {
    lr_mult: 2
    decay_mult: 0
  }
  convolution_param {
    num_output: 84
    pad: 1
    kernel_size: 3
    stride: 1
    weight_filler {
      type: "xavier"
    }
    bias_filler {
      type: "constant"
      value: 0
    }
  }
}
layer {
  name: "conv4_3_norm_mbox_conf_perm"
  type: "Permute"
  bottom: "conv4_3_norm_mbox_conf"
  top: "conv4_3_norm_mbox_conf_perm"
  permute_param {
    order: 0
    order: 2
    order: 3
    order: 1
  }
}
layer {
  name: "conv4_3_norm_mbox_conf_flat"
  type: "Flatten"
  bottom: "conv4_3_norm_mbox_conf_perm"
  top: "conv4_3_norm_mbox_conf_flat"
  flatten_param {
    axis: 1
  }
}
layer {
  name: "conv4_3_norm_mbox_priorbox"
  type: "PriorBox"
  bottom: "conv4_3"
  bottom: "data"
  top: "conv4_3_norm_mbox_priorbox"
  prior_box_param {
    min_size: 30
    max_size: 60
    aspect_ratio: 2
    flip: true
    clip: false
    variance: 0.1
    variance: 0.1
    variance: 0.2
    variance: 0.2
    step: 8
    offset: 0.5
  }
}
layer {
  name: "fc7_mbox_loc"
  type: "Convolution"
  bottom: "fc7_682"
  top: "fc7_mbox_loc"
  param {
    lr_mult: 1
    decay_mult: 1
  }
  param {
    lr_mult: 2
    decay_mult: 0
  }
  convolution_param {
    num_output: 24
    pad: 1
    kernel_size: 3
    stride: 1
    weight_filler {
      type: "xavier"
    }
    bias_filler {
      type: "constant"
      value: 0
    }
  }
}
layer {
  name: "fc7_mbox_loc_perm"
  type: "Permute"
  bottom: "fc7_mbox_loc"
  top: "fc7_mbox_loc_perm"
  permute_param {
    order: 0
    order: 2
    order: 3
    order: 1
  }
}
layer {
  name: "fc7_mbox_loc_flat"
  type: "Flatten"
  bottom: "fc7_mbox_loc_perm"
  top: "fc7_mbox_loc_flat"
  flatten_param {
    axis: 1
  }
}
layer {
  name: "fc7_mbox_conf"
  type: "Convolution"
  bottom: "fc7_682"
  top: "fc7_mbox_conf"
  param {
    lr_mult: 1
    decay_mult: 1
  }
  param {
    lr_mult: 2
    decay_mult: 0
  }
  convolution_param {
    num_output: 126
    pad: 1
    kernel_size: 3
    stride: 1
    weight_filler {
      type: "xavier"
    }
    bias_filler {
      type: "constant"
      value: 0
    }
  }
}
layer {
  name: "fc7_mbox_conf_perm"
  type: "Permute"
  bottom: "fc7_mbox_conf"
  top: "fc7_mbox_conf_perm"
  permute_param {
    order: 0
    order: 2
    order: 3
    order: 1
  }
}
layer {
  name: "fc7_mbox_conf_flat"
  type: "Flatten"
  bottom: "fc7_mbox_conf_perm"
  top: "fc7_mbox_conf_flat"
  flatten_param {
    axis: 1
  }
}
layer {
  name: "fc7_mbox_priorbox"
  type: "PriorBox"
  bottom: "fc7_682"
  bottom: "data"
  top: "fc7_mbox_priorbox"
  prior_box_param {
    min_size: 60
    max_size: 111
    aspect_ratio: 2
    aspect_ratio: 3
    flip: true
    clip: false
    variance: 0.1
    variance: 0.1
    variance: 0.2
    variance: 0.2
    step: 16
    offset: 0.5
  }
}
layer {
  name: "conv6_2_mbox_loc"
  type: "Convolution"
  bottom: "conv6_2"
  top: "conv6_2_mbox_loc"
  param {
    lr_mult: 1
    decay_mult: 1
  }
  param {
    lr_mult: 2
    decay_mult: 0
  }
  convolution_param {
    num_output: 24
    pad: 1
    kernel_size: 3
    stride: 1
    weight_filler {
      type: "xavier"
    }
    bias_filler {
      type: "constant"
      value: 0
    }
  }
}
layer {
  name: "conv6_2_mbox_loc_perm"
  type: "Permute"
  bottom: "conv6_2_mbox_loc"
  top: "conv6_2_mbox_loc_perm"
  permute_param {
    order: 0
    order: 2
    order: 3
    order: 1
  }
}
layer {
  name: "conv6_2_mbox_loc_flat"
  type: "Flatten"
  bottom: "conv6_2_mbox_loc_perm"
  top: "conv6_2_mbox_loc_flat"
  flatten_param {
    axis: 1
  }
}
layer {
  name: "conv6_2_mbox_conf"
  type: "Convolution"
  bottom: "conv6_2"
  top: "conv6_2_mbox_conf"
  param {
    lr_mult: 1
    decay_mult: 1
  }
  param {
    lr_mult: 2
    decay_mult: 0
  }
  convolution_param {
    num_output: 126
    pad: 1
    kernel_size: 3
    stride: 1
    weight_filler {
      type: "xavier"
    }
    bias_filler {
      type: "constant"
      value: 0
    }
  }
}
layer {
  name: "conv6_2_mbox_conf_perm"
  type: "Permute"
  bottom: "conv6_2_mbox_conf"
  top: "conv6_2_mbox_conf_perm"
  permute_param {
    order: 0
    order: 2
    order: 3
    order: 1
  }
}
layer {
  name: "conv6_2_mbox_conf_flat"
  type: "Flatten"
  bottom: "conv6_2_mbox_conf_perm"
  top: "conv6_2_mbox_conf_flat"
  flatten_param {
    axis: 1
  }
}
layer {
  name: "conv6_2_mbox_priorbox"
  type: "PriorBox"
  bottom: "conv6_2"
  bottom: "data"
  top: "conv6_2_mbox_priorbox"
  prior_box_param {
    min_size: 111
    max_size: 162
    aspect_ratio: 2
    aspect_ratio: 3
    flip: true
    clip: false
    variance: 0.1
    variance: 0.1
    variance: 0.2
    variance: 0.2
    step: 32
    offset: 0.5
  }
}
layer {
  name: "conv7_2_mbox_loc"
  type: "Convolution"
  bottom: "conv7_2"
  top: "conv7_2_mbox_loc"
  param {
    lr_mult: 1
    decay_mult: 1
  }
  param {
    lr_mult: 2
    decay_mult: 0
  }
  convolution_param {
    num_output: 24
    pad: 1
    kernel_size: 3
    stride: 1
    weight_filler {
      type: "xavier"
    }
    bias_filler {
      type: "constant"
      value: 0
    }
  }
}
layer {
  name: "conv7_2_mbox_loc_perm"
  type: "Permute"
  bottom: "conv7_2_mbox_loc"
  top: "conv7_2_mbox_loc_perm"
  permute_param {
    order: 0
    order: 2
    order: 3
    order: 1
  }
}
layer {
  name: "conv7_2_mbox_loc_flat"
  type: "Flatten"
  bottom: "conv7_2_mbox_loc_perm"
  top: "conv7_2_mbox_loc_flat"
  flatten_param {
    axis: 1
  }
}
layer {
  name: "conv7_2_mbox_conf"
  type: "Convolution"
  bottom: "conv7_2"
  top: "conv7_2_mbox_conf"
  param {
    lr_mult: 1
    decay_mult: 1
  }
  param {
    lr_mult: 2
    decay_mult: 0
  }
  convolution_param {
    num_output: 126
    pad: 1
    kernel_size: 3
    stride: 1
    weight_filler {
      type: "xavier"
    }
    bias_filler {
      type: "constant"
      value: 0
    }
  }
}
layer {
  name: "conv7_2_mbox_conf_perm"
  type: "Permute"
  bottom: "conv7_2_mbox_conf"
  top: "conv7_2_mbox_conf_perm"
  permute_param {
    order: 0
    order: 2
    order: 3
    order: 1
  }
}
layer {
  name: "conv7_2_mbox_conf_flat"
  type: "Flatten"
  bottom: "conv7_2_mbox_conf_perm"
  top: "conv7_2_mbox_conf_flat"
  flatten_param {
    axis: 1
  }
}
layer {
  name: "conv7_2_mbox_priorbox"
  type: "PriorBox"
  bottom: "conv7_2"
  bottom: "data"
  top: "conv7_2_mbox_priorbox"
  prior_box_param {
    min_size: 162
    max_size: 213
    aspect_ratio: 2
    aspect_ratio: 3
    flip: true
    clip: false
    variance: 0.1
    variance: 0.1
    variance: 0.2
    variance: 0.2
    step: 64
    offset: 0.5
  }
}
layer {
  name: "conv8_2_mbox_loc"
  type: "Convolution"
  bottom: "conv8_2"
  top: "conv8_2_mbox_loc"
  param {
    lr_mult: 1
    decay_mult: 1
  }
  param {
    lr_mult: 2
    decay_mult: 0
  }
  convolution_param {
    num_output: 16
    pad: 1
    kernel_size: 3
    stride: 1
    weight_filler {
      type: "xavier"
    }
    bias_filler {
      type: "constant"
      value: 0
    }
  }
}
layer {
  name: "conv8_2_mbox_loc_perm"
  type: "Permute"
  bottom: "conv8_2_mbox_loc"
  top: "conv8_2_mbox_loc_perm"
  permute_param {
    order: 0
    order: 2
    order: 3
    order: 1
  }
}
layer {
  name: "conv8_2_mbox_loc_flat"
  type: "Flatten"
  bottom: "conv8_2_mbox_loc_perm"
  top: "conv8_2_mbox_loc_flat"
  flatten_param {
    axis: 1
  }
}
layer {
  name: "conv8_2_mbox_conf"
  type: "Convolution"
  bottom: "conv8_2"
  top: "conv8_2_mbox_conf"
  param {
    lr_mult: 1
    decay_mult: 1
  }
  param {
    lr_mult: 2
    decay_mult: 0
  }
  convolution_param {
    num_output: 84
    pad: 1
    kernel_size: 3
    stride: 1
    weight_filler {
      type: "xavier"
    }
    bias_filler {
      type: "constant"
      value: 0
    }
  }
}
layer {
  name: "conv8_2_mbox_conf_perm"
  type: "Permute"
  bottom: "conv8_2_mbox_conf"
  top: "conv8_2_mbox_conf_perm"
  permute_param {
    order: 0
    order: 2
    order: 3
    order: 1
  }
}
layer {
  name: "conv8_2_mbox_conf_flat"
  type: "Flatten"
  bottom: "conv8_2_mbox_conf_perm"
  top: "conv8_2_mbox_conf_flat"
  flatten_param {
    axis: 1
  }
}
layer {
  name: "conv8_2_mbox_priorbox"
  type: "PriorBox"
  bottom: "conv8_2"
  bottom: "data"
  top: "conv8_2_mbox_priorbox"
  prior_box_param {
    min_size: 213
    max_size: 264
    aspect_ratio: 2
    flip: true
    clip: false
    variance: 0.1
    variance: 0.1
    variance: 0.2
    variance: 0.2
    step: 100
    offset: 0.5
  }
}
layer {
  name: "conv9_2_mbox_loc"
  type: "Convolution"
  bottom: "conv9_2"
  top: "conv9_2_mbox_loc"
  param {
    lr_mult: 1
    decay_mult: 1
  }
  param {
    lr_mult: 2
    decay_mult: 0
  }
  convolution_param {
    num_output: 16
    pad: 1
    kernel_size: 3
    stride: 1
    weight_filler {
      type: "xavier"
    }
    bias_filler {
      type: "constant"
      value: 0
    }
  }
}
layer {
  name: "conv9_2_mbox_loc_perm"
  type: "Permute"
  bottom: "conv9_2_mbox_loc"
  top: "conv9_2_mbox_loc_perm"
  permute_param {
    order: 0
    order: 2
    order: 3
    order: 1
  }
}
layer {
  name: "conv9_2_mbox_loc_flat"
  type: "Flatten"
  bottom: "conv9_2_mbox_loc_perm"
  top: "conv9_2_mbox_loc_flat"
  flatten_param {
    axis: 1
  }
}
layer {
  name: "conv9_2_mbox_conf"
  type: "Convolution"
  bottom: "conv9_2"
  top: "conv9_2_mbox_conf"
  param {
    lr_mult: 1
    decay_mult: 1
  }
  param {
    lr_mult: 2
    decay_mult: 0
  }
  convolution_param {
    num_output: 84
    pad: 1
    kernel_size: 3
    stride: 1
    weight_filler {
      type: "xavier"
    }
    bias_filler {
      type: "constant"
      value: 0
    }
  }
}
layer {
  name: "conv9_2_mbox_conf_perm"
  type: "Permute"
  bottom: "conv9_2_mbox_conf"
  top: "conv9_2_mbox_conf_perm"
  permute_param {
    order: 0
    order: 2
    order: 3
    order: 1
  }
}
layer {
  name: "conv9_2_mbox_conf_flat"
  type: "Flatten"
  bottom: "conv9_2_mbox_conf_perm"
  top: "conv9_2_mbox_conf_flat"
  flatten_param {
    axis: 1
  }
}
layer {
  name: "conv9_2_mbox_priorbox"
  type: "PriorBox"
  bottom: "conv9_2"
  bottom: "data"
  top: "conv9_2_mbox_priorbox"
  prior_box_param {
    min_size: 264
    max_size: 315
    aspect_ratio: 2
    flip: true
    clip: false
    variance: 0.1
    variance: 0.1
    variance: 0.2
    variance: 0.2
    step: 300
    offset: 0.5
  }
}
layer {
  name: "mbox_loc"
  type: "Concat"
  bottom: "conv4_3_norm_mbox_loc_flat"
  bottom: "fc7_mbox_loc_flat"
  bottom: "conv6_2_mbox_loc_flat"
  bottom: "conv7_2_mbox_loc_flat"
  bottom: "conv8_2_mbox_loc_flat"
  bottom: "conv9_2_mbox_loc_flat"
  top: "mbox_loc"
  concat_param {
    axis: 1
  }
}
layer {
  name: "mbox_conf"
  type: "Concat"
  bottom: "conv4_3_norm_mbox_conf_flat"
  bottom: "fc7_mbox_conf_flat"
  bottom: "conv6_2_mbox_conf_flat"
  bottom: "conv7_2_mbox_conf_flat"
  bottom: "conv8_2_mbox_conf_flat"
  bottom: "conv9_2_mbox_conf_flat"
  top: "mbox_conf"
  concat_param {
    axis: 1
  }
}
layer {
  name: "mbox_priorbox"
  type: "Concat"
  bottom: "conv4_3_norm_mbox_priorbox"
  bottom: "fc7_mbox_priorbox"
  bottom: "conv6_2_mbox_priorbox"
  bottom: "conv7_2_mbox_priorbox"
  bottom: "conv8_2_mbox_priorbox"
  bottom: "conv9_2_mbox_priorbox"
  top: "mbox_priorbox"
  concat_param {
    axis: 2
  }
}
layer {
  name: "mbox_conf_reshape"
  type: "Reshape"
  bottom: "mbox_conf"
  top: "mbox_conf_reshape"
  include {
    phase: TEST
  }
  reshape_param {
    shape {
      dim: 0
      dim: -1
      dim: 21
    }
  }
}
layer {
  name: "mbox_conf_softmax"
  type: "Softmax"
  bottom: "mbox_conf_reshape"
  top: "mbox_conf_softmax"
  include {
    phase: TEST
  }
  softmax_param {
    axis: 2
  }
}
layer {
  name: "mbox_conf_flatten"
  type: "Flatten"
  bottom: "mbox_conf_softmax"
  top: "mbox_conf_flatten"
  include {
    phase: TEST
  }
  flatten_param {
    axis: 1
  }
}
layer {
  name: "detection_out"
  type: "DetectionOutput"
  bottom: "mbox_loc"
  bottom: "mbox_conf_flatten"
  bottom: "mbox_priorbox"
  top: "detection_out"
  include {
    phase: TEST
  }
  detection_output_param {
    num_classes: 21
    share_location: true
    background_label_id: 0
    nms_param {
      nms_threshold: 0.45
      top_k: 400
    }
    save_output_param {
      output_directory: "snapshots/test_results"
      output_name_prefix: "comp4_det_test_"
      output_format: "VOC"
      label_map_file: "/workspace/SSD/data/labelmap_voc.prototxt"
      name_size_file: "/workspace/SSD/data/test_name_size.txt"
      num_test_image: 4952
    }
    code_type: CENTER_SIZE
    keep_top_k: 200
    confidence_threshold: 0.01
  }
}
layer {
  name: "detection_eval"
  type: "DetectionEvaluate"
  bottom: "detection_out"
  bottom: "label"
  top: "detection_eval"
  include {
    phase: TEST
  }
  detection_evaluate_param {
    num_classes: 21
    background_label_id: 0
    overlap_threshold: 0.5
    evaluate_difficult_gt: false
    name_size_file: "/workspace/SSD/data/test_name_size.txt"
  }
}
I0401 06:34:03.076267   127 layer_factory.hpp:93] Creating layer data
I0401 06:34:03.076306   127 internal_thread.cpp:43] Starting internal thread(s) on GPU 0
I0401 06:34:03.076428   127 net.cpp:110] Creating Layer data
I0401 06:34:03.076442   127 net.cpp:425] data -> data
I0401 06:34:03.076453   127 net.cpp:425] data -> label
I0401 06:34:03.078858   180 db_lmdb.cpp:51] Opened lmdb /workspace/SSD/data/VOCdevkit/VOC0712/lmdb/VOC0712_test_lmdb
I0401 06:34:03.078892   180 data_reader.cpp:140] TEST: reading data using 1 channel(s)
I0401 06:34:03.082721   127 annotated_data_layer.cpp:78] output data size: 8,3,300,300
I0401 06:34:03.118129   127 internal_thread.cpp:43] Starting internal thread(s) on GPU 0
I0401 06:34:03.118311   127 net.cpp:160] Setting up data
I0401 06:34:03.118350   127 net.cpp:167] Top shape: 8 3 300 300 (2160000)
I0401 06:34:03.118393   127 net.cpp:167] Top shape: 1 1 2 8 (16)
I0401 06:34:03.118428   127 net.cpp:175] Memory required for data: 8640064
I0401 06:34:03.118463   127 layer_factory.hpp:93] Creating layer data_data_0_split
I0401 06:34:03.118505   127 net.cpp:110] Creating Layer data_data_0_split
I0401 06:34:03.118539   127 net.cpp:451] data_data_0_split <- data
I0401 06:34:03.118582   127 net.cpp:425] data_data_0_split -> data_data_0_split_0
I0401 06:34:03.118625   127 net.cpp:425] data_data_0_split -> data_data_0_split_1
I0401 06:34:03.118666   127 net.cpp:425] data_data_0_split -> data_data_0_split_2
I0401 06:34:03.118712   127 net.cpp:425] data_data_0_split -> data_data_0_split_3
I0401 06:34:03.118750   127 net.cpp:425] data_data_0_split -> data_data_0_split_4
I0401 06:34:03.118790   127 net.cpp:425] data_data_0_split -> data_data_0_split_5
I0401 06:34:03.118829   127 net.cpp:425] data_data_0_split -> data_data_0_split_6
I0401 06:34:03.118980   127 net.cpp:160] Setting up data_data_0_split
I0401 06:34:03.119017   127 net.cpp:167] Top shape: 8 3 300 300 (2160000)
I0401 06:34:03.119051   127 net.cpp:167] Top shape: 8 3 300 300 (2160000)
I0401 06:34:03.119086   127 net.cpp:167] Top shape: 8 3 300 300 (2160000)
I0401 06:34:03.119119   127 net.cpp:167] Top shape: 8 3 300 300 (2160000)
I0401 06:34:03.119153   127 net.cpp:167] Top shape: 8 3 300 300 (2160000)
I0401 06:34:03.119186   127 net.cpp:167] Top shape: 8 3 300 300 (2160000)
I0401 06:34:03.119220   127 net.cpp:167] Top shape: 8 3 300 300 (2160000)
I0401 06:34:03.119253   127 net.cpp:175] Memory required for data: 69120064
I0401 06:34:03.119283   127 layer_factory.hpp:93] Creating layer conv1_1
I0401 06:34:03.119325   127 net.cpp:110] Creating Layer conv1_1
I0401 06:34:03.119356   127 net.cpp:451] conv1_1 <- data_data_0_split_0
I0401 06:34:03.119392   127 net.cpp:425] conv1_1 -> conv1_1
I0401 06:34:03.119803   127 net.cpp:160] Setting up conv1_1
I0401 06:34:03.119841   127 net.cpp:167] Top shape: 8 64 300 300 (46080000)
I0401 06:34:03.119875   127 net.cpp:175] Memory required for data: 253440064
I0401 06:34:03.119917   127 layer_factory.hpp:93] Creating layer relu1_1
I0401 06:34:03.119951   127 net.cpp:110] Creating Layer relu1_1
I0401 06:34:03.119989   127 net.cpp:451] relu1_1 <- conv1_1
I0401 06:34:03.120003   127 net.cpp:412] relu1_1 -> conv1_1 (in-place)
I0401 06:34:03.120014   127 net.cpp:160] Setting up relu1_1
I0401 06:34:03.120020   127 net.cpp:167] Top shape: 8 64 300 300 (46080000)
I0401 06:34:03.120028   127 net.cpp:175] Memory required for data: 437760064
I0401 06:34:03.120034   127 layer_factory.hpp:93] Creating layer conv1_2
I0401 06:34:03.120046   127 net.cpp:110] Creating Layer conv1_2
I0401 06:34:03.120052   127 net.cpp:451] conv1_2 <- conv1_1
I0401 06:34:03.120059   127 net.cpp:425] conv1_2 -> conv1_2
I0401 06:34:03.120875   127 net.cpp:160] Setting up conv1_2
I0401 06:34:03.120890   127 net.cpp:167] Top shape: 8 64 300 300 (46080000)
I0401 06:34:03.120899   127 net.cpp:175] Memory required for data: 622080064
I0401 06:34:03.120910   127 layer_factory.hpp:93] Creating layer relu1_2
I0401 06:34:03.120918   127 net.cpp:110] Creating Layer relu1_2
I0401 06:34:03.120924   127 net.cpp:451] relu1_2 <- conv1_2
I0401 06:34:03.120931   127 net.cpp:412] relu1_2 -> conv1_2 (in-place)
I0401 06:34:03.120941   127 net.cpp:160] Setting up relu1_2
I0401 06:34:03.120946   127 net.cpp:167] Top shape: 8 64 300 300 (46080000)
I0401 06:34:03.120954   127 net.cpp:175] Memory required for data: 806400064
I0401 06:34:03.120959   127 layer_factory.hpp:93] Creating layer pool1
I0401 06:34:03.120967   127 net.cpp:110] Creating Layer pool1
I0401 06:34:03.120972   127 net.cpp:451] pool1 <- conv1_2
I0401 06:34:03.120980   127 net.cpp:425] pool1 -> pool1
I0401 06:34:03.121021   127 net.cpp:160] Setting up pool1
I0401 06:34:03.121027   127 net.cpp:167] Top shape: 8 64 150 150 (11520000)
I0401 06:34:03.121035   127 net.cpp:175] Memory required for data: 852480064
I0401 06:34:03.121053   127 layer_factory.hpp:93] Creating layer conv2_1
I0401 06:34:03.121064   127 net.cpp:110] Creating Layer conv2_1
I0401 06:34:03.121070   127 net.cpp:451] conv2_1 <- pool1
I0401 06:34:03.121078   127 net.cpp:425] conv2_1 -> conv2_1
I0401 06:34:03.123040   127 net.cpp:160] Setting up conv2_1
I0401 06:34:03.123082   127 net.cpp:167] Top shape: 8 128 150 150 (23040000)
I0401 06:34:03.123117   127 net.cpp:175] Memory required for data: 944640064
I0401 06:34:03.123152   127 layer_factory.hpp:93] Creating layer relu2_1
I0401 06:34:03.123186   127 net.cpp:110] Creating Layer relu2_1
I0401 06:34:03.123215   127 net.cpp:451] relu2_1 <- conv2_1
I0401 06:34:03.123250   127 net.cpp:412] relu2_1 -> conv2_1 (in-place)
I0401 06:34:03.123283   127 net.cpp:160] Setting up relu2_1
I0401 06:34:03.123312   127 net.cpp:167] Top shape: 8 128 150 150 (23040000)
I0401 06:34:03.123347   127 net.cpp:175] Memory required for data: 1036800064
I0401 06:34:03.123373   127 layer_factory.hpp:93] Creating layer conv2_2
I0401 06:34:03.123414   127 net.cpp:110] Creating Layer conv2_2
I0401 06:34:03.123445   127 net.cpp:451] conv2_2 <- conv2_1
I0401 06:34:03.123481   127 net.cpp:425] conv2_2 -> conv2_2
I0401 06:34:03.125313   127 net.cpp:160] Setting up conv2_2
I0401 06:34:03.125353   127 net.cpp:167] Top shape: 8 128 150 150 (23040000)
I0401 06:34:03.125388   127 net.cpp:175] Memory required for data: 1128960064
I0401 06:34:03.125424   127 layer_factory.hpp:93] Creating layer relu2_2
I0401 06:34:03.125458   127 net.cpp:110] Creating Layer relu2_2
I0401 06:34:03.125494   127 net.cpp:451] relu2_2 <- conv2_2
I0401 06:34:03.125524   127 net.cpp:412] relu2_2 -> conv2_2 (in-place)
I0401 06:34:03.125560   127 net.cpp:160] Setting up relu2_2
I0401 06:34:03.125592   127 net.cpp:167] Top shape: 8 128 150 150 (23040000)
I0401 06:34:03.125625   127 net.cpp:175] Memory required for data: 1221120064
I0401 06:34:03.125656   127 layer_factory.hpp:93] Creating layer pool2
I0401 06:34:03.125689   127 net.cpp:110] Creating Layer pool2
I0401 06:34:03.125721   127 net.cpp:451] pool2 <- conv2_2
I0401 06:34:03.125756   127 net.cpp:425] pool2 -> pool2
I0401 06:34:03.125828   127 net.cpp:160] Setting up pool2
I0401 06:34:03.125869   127 net.cpp:167] Top shape: 8 128 75 75 (5760000)
I0401 06:34:03.125905   127 net.cpp:175] Memory required for data: 1244160064
I0401 06:34:03.125932   127 layer_factory.hpp:93] Creating layer conv3_1
I0401 06:34:03.125967   127 net.cpp:110] Creating Layer conv3_1
I0401 06:34:03.125998   127 net.cpp:451] conv3_1 <- pool2
I0401 06:34:03.126034   127 net.cpp:425] conv3_1 -> conv3_1
I0401 06:34:03.132328   127 net.cpp:160] Setting up conv3_1
I0401 06:34:03.132345   127 net.cpp:167] Top shape: 8 256 75 75 (11520000)
I0401 06:34:03.132356   127 net.cpp:175] Memory required for data: 1290240064
I0401 06:34:03.132369   127 layer_factory.hpp:93] Creating layer relu3_1
I0401 06:34:03.132380   127 net.cpp:110] Creating Layer relu3_1
I0401 06:34:03.132385   127 net.cpp:451] relu3_1 <- conv3_1
I0401 06:34:03.132393   127 net.cpp:412] relu3_1 -> conv3_1 (in-place)
I0401 06:34:03.132408   127 net.cpp:160] Setting up relu3_1
I0401 06:34:03.132416   127 net.cpp:167] Top shape: 8 256 75 75 (11520000)
I0401 06:34:03.132426   127 net.cpp:175] Memory required for data: 1336320064
I0401 06:34:03.132431   127 layer_factory.hpp:93] Creating layer conv3_2
I0401 06:34:03.132443   127 net.cpp:110] Creating Layer conv3_2
I0401 06:34:03.132450   127 net.cpp:451] conv3_2 <- conv3_1
I0401 06:34:03.132459   127 net.cpp:425] conv3_2 -> conv3_2
I0401 06:34:03.140869   127 net.cpp:160] Setting up conv3_2
I0401 06:34:03.140885   127 net.cpp:167] Top shape: 8 256 75 75 (11520000)
I0401 06:34:03.140895   127 net.cpp:175] Memory required for data: 1382400064
I0401 06:34:03.140905   127 layer_factory.hpp:93] Creating layer relu3_2
I0401 06:34:03.140916   127 net.cpp:110] Creating Layer relu3_2
I0401 06:34:03.140924   127 net.cpp:451] relu3_2 <- conv3_2
I0401 06:34:03.140933   127 net.cpp:412] relu3_2 -> conv3_2 (in-place)
I0401 06:34:03.140942   127 net.cpp:160] Setting up relu3_2
I0401 06:34:03.140967   127 net.cpp:167] Top shape: 8 256 75 75 (11520000)
I0401 06:34:03.140978   127 net.cpp:175] Memory required for data: 1428480064
I0401 06:34:03.140985   127 layer_factory.hpp:93] Creating layer conv3_3
I0401 06:34:03.140997   127 net.cpp:110] Creating Layer conv3_3
I0401 06:34:03.141005   127 net.cpp:451] conv3_3 <- conv3_2
I0401 06:34:03.141013   127 net.cpp:425] conv3_3 -> conv3_3
I0401 06:34:03.149333   127 net.cpp:160] Setting up conv3_3
I0401 06:34:03.149349   127 net.cpp:167] Top shape: 8 256 75 75 (11520000)
I0401 06:34:03.149359   127 net.cpp:175] Memory required for data: 1474560064
I0401 06:34:03.149370   127 layer_factory.hpp:93] Creating layer relu3_3
I0401 06:34:03.149381   127 net.cpp:110] Creating Layer relu3_3
I0401 06:34:03.149389   127 net.cpp:451] relu3_3 <- conv3_3
I0401 06:34:03.149397   127 net.cpp:412] relu3_3 -> conv3_3 (in-place)
I0401 06:34:03.149410   127 net.cpp:160] Setting up relu3_3
I0401 06:34:03.149416   127 net.cpp:167] Top shape: 8 256 75 75 (11520000)
I0401 06:34:03.149426   127 net.cpp:175] Memory required for data: 1520640064
I0401 06:34:03.149432   127 layer_factory.hpp:93] Creating layer pool3
I0401 06:34:03.149443   127 net.cpp:110] Creating Layer pool3
I0401 06:34:03.149451   127 net.cpp:451] pool3 <- conv3_3
I0401 06:34:03.149459   127 net.cpp:425] pool3 -> pool3
I0401 06:34:03.149507   127 net.cpp:160] Setting up pool3
I0401 06:34:03.149515   127 net.cpp:167] Top shape: 8 256 38 38 (2957312)
I0401 06:34:03.149525   127 net.cpp:175] Memory required for data: 1532469312
I0401 06:34:03.149531   127 layer_factory.hpp:93] Creating layer conv4_1
I0401 06:34:03.149544   127 net.cpp:110] Creating Layer conv4_1
I0401 06:34:03.149552   127 net.cpp:451] conv4_1 <- pool3
I0401 06:34:03.149561   127 net.cpp:425] conv4_1 -> conv4_1
I0401 06:34:03.165431   127 net.cpp:160] Setting up conv4_1
I0401 06:34:03.165446   127 net.cpp:167] Top shape: 8 512 38 38 (5914624)
I0401 06:34:03.165457   127 net.cpp:175] Memory required for data: 1556127808
I0401 06:34:03.165467   127 layer_factory.hpp:93] Creating layer relu4_1
I0401 06:34:03.165477   127 net.cpp:110] Creating Layer relu4_1
I0401 06:34:03.165485   127 net.cpp:451] relu4_1 <- conv4_1
I0401 06:34:03.165494   127 net.cpp:412] relu4_1 -> conv4_1 (in-place)
I0401 06:34:03.165506   127 net.cpp:160] Setting up relu4_1
I0401 06:34:03.165513   127 net.cpp:167] Top shape: 8 512 38 38 (5914624)
I0401 06:34:03.165524   127 net.cpp:175] Memory required for data: 1579786304
I0401 06:34:03.165529   127 layer_factory.hpp:93] Creating layer conv4_2
I0401 06:34:03.165544   127 net.cpp:110] Creating Layer conv4_2
I0401 06:34:03.165551   127 net.cpp:451] conv4_2 <- conv4_1
I0401 06:34:03.165560   127 net.cpp:425] conv4_2 -> conv4_2
I0401 06:34:03.192086   127 net.cpp:160] Setting up conv4_2
I0401 06:34:03.192147   127 net.cpp:167] Top shape: 8 512 38 38 (5914624)
I0401 06:34:03.192191   127 net.cpp:175] Memory required for data: 1603444800
I0401 06:34:03.192242   127 layer_factory.hpp:93] Creating layer relu4_2
I0401 06:34:03.192278   127 net.cpp:110] Creating Layer relu4_2
I0401 06:34:03.192310   127 net.cpp:451] relu4_2 <- conv4_2
I0401 06:34:03.192345   127 net.cpp:412] relu4_2 -> conv4_2 (in-place)
I0401 06:34:03.192394   127 net.cpp:160] Setting up relu4_2
I0401 06:34:03.192422   127 net.cpp:167] Top shape: 8 512 38 38 (5914624)
I0401 06:34:03.192456   127 net.cpp:175] Memory required for data: 1627103296
I0401 06:34:03.192487   127 layer_factory.hpp:93] Creating layer conv4_3
I0401 06:34:03.192524   127 net.cpp:110] Creating Layer conv4_3
I0401 06:34:03.192556   127 net.cpp:451] conv4_3 <- conv4_2
I0401 06:34:03.192591   127 net.cpp:425] conv4_3 -> conv4_3
I0401 06:34:03.212491   127 net.cpp:160] Setting up conv4_3
I0401 06:34:03.212517   127 net.cpp:167] Top shape: 8 512 38 38 (5914624)
I0401 06:34:03.212527   127 net.cpp:175] Memory required for data: 1650761792
I0401 06:34:03.212538   127 layer_factory.hpp:93] Creating layer conv4_3_bn
I0401 06:34:03.212549   127 net.cpp:110] Creating Layer conv4_3_bn
I0401 06:34:03.212574   127 net.cpp:451] conv4_3_bn <- conv4_3
I0401 06:34:03.212582   127 net.cpp:412] conv4_3_bn -> conv4_3 (in-place)
I0401 06:34:03.213117   127 net.cpp:160] Setting up conv4_3_bn
I0401 06:34:03.213126   127 net.cpp:167] Top shape: 8 512 38 38 (5914624)
I0401 06:34:03.213133   127 net.cpp:175] Memory required for data: 1674420288
I0401 06:34:03.213142   127 layer_factory.hpp:93] Creating layer relu4_3
I0401 06:34:03.213148   127 net.cpp:110] Creating Layer relu4_3
I0401 06:34:03.213152   127 net.cpp:451] relu4_3 <- conv4_3
I0401 06:34:03.213158   127 net.cpp:412] relu4_3 -> conv4_3 (in-place)
I0401 06:34:03.213165   127 net.cpp:160] Setting up relu4_3
I0401 06:34:03.213169   127 net.cpp:167] Top shape: 8 512 38 38 (5914624)
I0401 06:34:03.213174   127 net.cpp:175] Memory required for data: 1698078784
I0401 06:34:03.213178   127 layer_factory.hpp:93] Creating layer conv4_3_relu4_3_0_split
I0401 06:34:03.213184   127 net.cpp:110] Creating Layer conv4_3_relu4_3_0_split
I0401 06:34:03.213188   127 net.cpp:451] conv4_3_relu4_3_0_split <- conv4_3
I0401 06:34:03.213194   127 net.cpp:425] conv4_3_relu4_3_0_split -> conv4_3_relu4_3_0_split_0
I0401 06:34:03.213201   127 net.cpp:425] conv4_3_relu4_3_0_split -> conv4_3_relu4_3_0_split_1
I0401 06:34:03.213207   127 net.cpp:425] conv4_3_relu4_3_0_split -> conv4_3_relu4_3_0_split_2
I0401 06:34:03.213213   127 net.cpp:425] conv4_3_relu4_3_0_split -> conv4_3_relu4_3_0_split_3
I0401 06:34:03.213259   127 net.cpp:160] Setting up conv4_3_relu4_3_0_split
I0401 06:34:03.213265   127 net.cpp:167] Top shape: 8 512 38 38 (5914624)
I0401 06:34:03.213271   127 net.cpp:167] Top shape: 8 512 38 38 (5914624)
I0401 06:34:03.213276   127 net.cpp:167] Top shape: 8 512 38 38 (5914624)
I0401 06:34:03.213280   127 net.cpp:167] Top shape: 8 512 38 38 (5914624)
I0401 06:34:03.213285   127 net.cpp:175] Memory required for data: 1792712768
I0401 06:34:03.213289   127 layer_factory.hpp:93] Creating layer pool4
I0401 06:34:03.213296   127 net.cpp:110] Creating Layer pool4
I0401 06:34:03.213301   127 net.cpp:451] pool4 <- conv4_3_relu4_3_0_split_0
I0401 06:34:03.213306   127 net.cpp:425] pool4 -> pool4
I0401 06:34:03.213335   127 net.cpp:160] Setting up pool4
I0401 06:34:03.213341   127 net.cpp:167] Top shape: 8 512 19 19 (1478656)
I0401 06:34:03.213347   127 net.cpp:175] Memory required for data: 1798627392
I0401 06:34:03.213351   127 layer_factory.hpp:93] Creating layer conv5_1
I0401 06:34:03.213361   127 net.cpp:110] Creating Layer conv5_1
I0401 06:34:03.213364   127 net.cpp:451] conv5_1 <- pool4
I0401 06:34:03.213371   127 net.cpp:425] conv5_1 -> conv5_1
I0401 06:34:03.231606   127 net.cpp:160] Setting up conv5_1
I0401 06:34:03.231628   127 net.cpp:167] Top shape: 8 512 19 19 (1478656)
I0401 06:34:03.231638   127 net.cpp:175] Memory required for data: 1804542016
I0401 06:34:03.231650   127 layer_factory.hpp:93] Creating layer relu5_1
I0401 06:34:03.231658   127 net.cpp:110] Creating Layer relu5_1
I0401 06:34:03.231664   127 net.cpp:451] relu5_1 <- conv5_1
I0401 06:34:03.231673   127 net.cpp:412] relu5_1 -> conv5_1 (in-place)
I0401 06:34:03.231683   127 net.cpp:160] Setting up relu5_1
I0401 06:34:03.231688   127 net.cpp:167] Top shape: 8 512 19 19 (1478656)
I0401 06:34:03.231693   127 net.cpp:175] Memory required for data: 1810456640
I0401 06:34:03.231698   127 layer_factory.hpp:93] Creating layer conv5_2
I0401 06:34:03.231707   127 net.cpp:110] Creating Layer conv5_2
I0401 06:34:03.231712   127 net.cpp:451] conv5_2 <- conv5_1
I0401 06:34:03.231719   127 net.cpp:425] conv5_2 -> conv5_2
I0401 06:34:03.249853   127 net.cpp:160] Setting up conv5_2
I0401 06:34:03.249871   127 net.cpp:167] Top shape: 8 512 19 19 (1478656)
I0401 06:34:03.249881   127 net.cpp:175] Memory required for data: 1816371264
I0401 06:34:03.249889   127 layer_factory.hpp:93] Creating layer relu5_2
I0401 06:34:03.249897   127 net.cpp:110] Creating Layer relu5_2
I0401 06:34:03.249903   127 net.cpp:451] relu5_2 <- conv5_2
I0401 06:34:03.249910   127 net.cpp:412] relu5_2 -> conv5_2 (in-place)
I0401 06:34:03.249919   127 net.cpp:160] Setting up relu5_2
I0401 06:34:03.249940   127 net.cpp:167] Top shape: 8 512 19 19 (1478656)
I0401 06:34:03.249946   127 net.cpp:175] Memory required for data: 1822285888
I0401 06:34:03.249950   127 layer_factory.hpp:93] Creating layer conv5_3
I0401 06:34:03.249963   127 net.cpp:110] Creating Layer conv5_3
I0401 06:34:03.249969   127 net.cpp:451] conv5_3 <- conv5_2
I0401 06:34:03.249974   127 net.cpp:425] conv5_3 -> conv5_3
I0401 06:34:03.267925   127 net.cpp:160] Setting up conv5_3
I0401 06:34:03.267942   127 net.cpp:167] Top shape: 8 512 19 19 (1478656)
I0401 06:34:03.267951   127 net.cpp:175] Memory required for data: 1828200512
I0401 06:34:03.267961   127 layer_factory.hpp:93] Creating layer relu5_3
I0401 06:34:03.267968   127 net.cpp:110] Creating Layer relu5_3
I0401 06:34:03.267973   127 net.cpp:451] relu5_3 <- conv5_3
I0401 06:34:03.267979   127 net.cpp:412] relu5_3 -> conv5_3 (in-place)
I0401 06:34:03.267988   127 net.cpp:160] Setting up relu5_3
I0401 06:34:03.267994   127 net.cpp:167] Top shape: 8 512 19 19 (1478656)
I0401 06:34:03.267999   127 net.cpp:175] Memory required for data: 1834115136
I0401 06:34:03.268003   127 layer_factory.hpp:93] Creating layer pool5
I0401 06:34:03.268009   127 net.cpp:110] Creating Layer pool5
I0401 06:34:03.268013   127 net.cpp:451] pool5 <- conv5_3
I0401 06:34:03.268019   127 net.cpp:425] pool5 -> pool5
I0401 06:34:03.268057   127 net.cpp:160] Setting up pool5
I0401 06:34:03.268064   127 net.cpp:167] Top shape: 8 512 19 19 (1478656)
I0401 06:34:03.268069   127 net.cpp:175] Memory required for data: 1840029760
I0401 06:34:03.268074   127 layer_factory.hpp:93] Creating layer fc6_682
I0401 06:34:03.268082   127 net.cpp:110] Creating Layer fc6_682
I0401 06:34:03.268087   127 net.cpp:451] fc6_682 <- pool5
I0401 06:34:03.268093   127 net.cpp:425] fc6_682 -> fc6_682
I0401 06:34:03.291879   127 net.cpp:160] Setting up fc6_682
I0401 06:34:03.291899   127 net.cpp:167] Top shape: 8 682 19 19 (1969616)
I0401 06:34:03.291910   127 net.cpp:175] Memory required for data: 1847908224
I0401 06:34:03.291926   127 layer_factory.hpp:93] Creating layer relu6
I0401 06:34:03.291935   127 net.cpp:110] Creating Layer relu6
I0401 06:34:03.291940   127 net.cpp:451] relu6 <- fc6_682
I0401 06:34:03.291949   127 net.cpp:412] relu6 -> fc6_682 (in-place)
I0401 06:34:03.291960   127 net.cpp:160] Setting up relu6
I0401 06:34:03.291965   127 net.cpp:167] Top shape: 8 682 19 19 (1969616)
I0401 06:34:03.291970   127 net.cpp:175] Memory required for data: 1855786688
I0401 06:34:03.291975   127 layer_factory.hpp:93] Creating layer fc7_682
I0401 06:34:03.291983   127 net.cpp:110] Creating Layer fc7_682
I0401 06:34:03.291987   127 net.cpp:451] fc7_682 <- fc6_682
I0401 06:34:03.291993   127 net.cpp:425] fc7_682 -> fc7_682
I0401 06:34:03.297690   127 net.cpp:160] Setting up fc7_682
I0401 06:34:03.297703   127 net.cpp:167] Top shape: 8 1024 19 19 (2957312)
I0401 06:34:03.297709   127 net.cpp:175] Memory required for data: 1867615936
I0401 06:34:03.297717   127 layer_factory.hpp:93] Creating layer relu7
I0401 06:34:03.297724   127 net.cpp:110] Creating Layer relu7
I0401 06:34:03.297729   127 net.cpp:451] relu7 <- fc7_682
I0401 06:34:03.297734   127 net.cpp:412] relu7 -> fc7_682 (in-place)
I0401 06:34:03.297741   127 net.cpp:160] Setting up relu7
I0401 06:34:03.297745   127 net.cpp:167] Top shape: 8 1024 19 19 (2957312)
I0401 06:34:03.297750   127 net.cpp:175] Memory required for data: 1879445184
I0401 06:34:03.297755   127 layer_factory.hpp:93] Creating layer fc7_682_relu7_0_split
I0401 06:34:03.297761   127 net.cpp:110] Creating Layer fc7_682_relu7_0_split
I0401 06:34:03.297765   127 net.cpp:451] fc7_682_relu7_0_split <- fc7_682
I0401 06:34:03.297770   127 net.cpp:425] fc7_682_relu7_0_split -> fc7_682_relu7_0_split_0
I0401 06:34:03.297777   127 net.cpp:425] fc7_682_relu7_0_split -> fc7_682_relu7_0_split_1
I0401 06:34:03.297782   127 net.cpp:425] fc7_682_relu7_0_split -> fc7_682_relu7_0_split_2
I0401 06:34:03.297788   127 net.cpp:425] fc7_682_relu7_0_split -> fc7_682_relu7_0_split_3
I0401 06:34:03.297843   127 net.cpp:160] Setting up fc7_682_relu7_0_split
I0401 06:34:03.297863   127 net.cpp:167] Top shape: 8 1024 19 19 (2957312)
I0401 06:34:03.297869   127 net.cpp:167] Top shape: 8 1024 19 19 (2957312)
I0401 06:34:03.297874   127 net.cpp:167] Top shape: 8 1024 19 19 (2957312)
I0401 06:34:03.297879   127 net.cpp:167] Top shape: 8 1024 19 19 (2957312)
I0401 06:34:03.297884   127 net.cpp:175] Memory required for data: 1926762176
I0401 06:34:03.297888   127 layer_factory.hpp:93] Creating layer conv6_1
I0401 06:34:03.297897   127 net.cpp:110] Creating Layer conv6_1
I0401 06:34:03.297904   127 net.cpp:451] conv6_1 <- fc7_682_relu7_0_split_0
I0401 06:34:03.297910   127 net.cpp:425] conv6_1 -> conv6_1
I0401 06:34:03.300501   127 net.cpp:160] Setting up conv6_1
I0401 06:34:03.300513   127 net.cpp:167] Top shape: 8 256 19 19 (739328)
I0401 06:34:03.300521   127 net.cpp:175] Memory required for data: 1929719488
I0401 06:34:03.300529   127 layer_factory.hpp:93] Creating layer conv6_1_relu
I0401 06:34:03.300534   127 net.cpp:110] Creating Layer conv6_1_relu
I0401 06:34:03.300539   127 net.cpp:451] conv6_1_relu <- conv6_1
I0401 06:34:03.300545   127 net.cpp:412] conv6_1_relu -> conv6_1 (in-place)
I0401 06:34:03.300552   127 net.cpp:160] Setting up conv6_1_relu
I0401 06:34:03.300559   127 net.cpp:167] Top shape: 8 256 19 19 (739328)
I0401 06:34:03.300565   127 net.cpp:175] Memory required for data: 1932676800
I0401 06:34:03.300570   127 layer_factory.hpp:93] Creating layer conv6_2
I0401 06:34:03.300576   127 net.cpp:110] Creating Layer conv6_2
I0401 06:34:03.300583   127 net.cpp:451] conv6_2 <- conv6_1
I0401 06:34:03.300590   127 net.cpp:425] conv6_2 -> conv6_2
I0401 06:34:03.309828   127 net.cpp:160] Setting up conv6_2
I0401 06:34:03.309841   127 net.cpp:167] Top shape: 8 512 10 10 (409600)
I0401 06:34:03.309849   127 net.cpp:175] Memory required for data: 1934315200
I0401 06:34:03.309856   127 layer_factory.hpp:93] Creating layer conv6_2_relu
I0401 06:34:03.309862   127 net.cpp:110] Creating Layer conv6_2_relu
I0401 06:34:03.309867   127 net.cpp:451] conv6_2_relu <- conv6_2
I0401 06:34:03.309873   127 net.cpp:412] conv6_2_relu -> conv6_2 (in-place)
I0401 06:34:03.309882   127 net.cpp:160] Setting up conv6_2_relu
I0401 06:34:03.309885   127 net.cpp:167] Top shape: 8 512 10 10 (409600)
I0401 06:34:03.309890   127 net.cpp:175] Memory required for data: 1935953600
I0401 06:34:03.309895   127 layer_factory.hpp:93] Creating layer conv6_2_conv6_2_relu_0_split
I0401 06:34:03.309901   127 net.cpp:110] Creating Layer conv6_2_conv6_2_relu_0_split
I0401 06:34:03.309906   127 net.cpp:451] conv6_2_conv6_2_relu_0_split <- conv6_2
I0401 06:34:03.309911   127 net.cpp:425] conv6_2_conv6_2_relu_0_split -> conv6_2_conv6_2_relu_0_split_0
I0401 06:34:03.309917   127 net.cpp:425] conv6_2_conv6_2_relu_0_split -> conv6_2_conv6_2_relu_0_split_1
I0401 06:34:03.309923   127 net.cpp:425] conv6_2_conv6_2_relu_0_split -> conv6_2_conv6_2_relu_0_split_2
I0401 06:34:03.309929   127 net.cpp:425] conv6_2_conv6_2_relu_0_split -> conv6_2_conv6_2_relu_0_split_3
I0401 06:34:03.309986   127 net.cpp:160] Setting up conv6_2_conv6_2_relu_0_split
I0401 06:34:03.309993   127 net.cpp:167] Top shape: 8 512 10 10 (409600)
I0401 06:34:03.309998   127 net.cpp:167] Top shape: 8 512 10 10 (409600)
I0401 06:34:03.310003   127 net.cpp:167] Top shape: 8 512 10 10 (409600)
I0401 06:34:03.310009   127 net.cpp:167] Top shape: 8 512 10 10 (409600)
I0401 06:34:03.310014   127 net.cpp:175] Memory required for data: 1942507200
I0401 06:34:03.310017   127 layer_factory.hpp:93] Creating layer conv7_1
I0401 06:34:03.310026   127 net.cpp:110] Creating Layer conv7_1
I0401 06:34:03.310034   127 net.cpp:451] conv7_1 <- conv6_2_conv6_2_relu_0_split_0
I0401 06:34:03.310039   127 net.cpp:425] conv7_1 -> conv7_1
I0401 06:34:03.310642   127 net.cpp:160] Setting up conv7_1
I0401 06:34:03.310652   127 net.cpp:167] Top shape: 8 128 10 10 (102400)
I0401 06:34:03.310657   127 net.cpp:175] Memory required for data: 1942916800
I0401 06:34:03.310663   127 layer_factory.hpp:93] Creating layer conv7_1_relu
I0401 06:34:03.310683   127 net.cpp:110] Creating Layer conv7_1_relu
I0401 06:34:03.310686   127 net.cpp:451] conv7_1_relu <- conv7_1
I0401 06:34:03.310693   127 net.cpp:412] conv7_1_relu -> conv7_1 (in-place)
I0401 06:34:03.310699   127 net.cpp:160] Setting up conv7_1_relu
I0401 06:34:03.310703   127 net.cpp:167] Top shape: 8 128 10 10 (102400)
I0401 06:34:03.310708   127 net.cpp:175] Memory required for data: 1943326400
I0401 06:34:03.310712   127 layer_factory.hpp:93] Creating layer conv7_2
I0401 06:34:03.310719   127 net.cpp:110] Creating Layer conv7_2
I0401 06:34:03.310724   127 net.cpp:451] conv7_2 <- conv7_1
I0401 06:34:03.310729   127 net.cpp:425] conv7_2 -> conv7_2
I0401 06:34:03.313838   127 net.cpp:160] Setting up conv7_2
I0401 06:34:03.313850   127 net.cpp:167] Top shape: 8 256 5 5 (51200)
I0401 06:34:03.313858   127 net.cpp:175] Memory required for data: 1943531200
I0401 06:34:03.313864   127 layer_factory.hpp:93] Creating layer conv7_2_relu
I0401 06:34:03.313870   127 net.cpp:110] Creating Layer conv7_2_relu
I0401 06:34:03.313875   127 net.cpp:451] conv7_2_relu <- conv7_2
I0401 06:34:03.313880   127 net.cpp:412] conv7_2_relu -> conv7_2 (in-place)
I0401 06:34:03.313887   127 net.cpp:160] Setting up conv7_2_relu
I0401 06:34:03.313891   127 net.cpp:167] Top shape: 8 256 5 5 (51200)
I0401 06:34:03.313896   127 net.cpp:175] Memory required for data: 1943736000
I0401 06:34:03.313900   127 layer_factory.hpp:93] Creating layer conv7_2_conv7_2_relu_0_split
I0401 06:34:03.313907   127 net.cpp:110] Creating Layer conv7_2_conv7_2_relu_0_split
I0401 06:34:03.313911   127 net.cpp:451] conv7_2_conv7_2_relu_0_split <- conv7_2
I0401 06:34:03.313916   127 net.cpp:425] conv7_2_conv7_2_relu_0_split -> conv7_2_conv7_2_relu_0_split_0
I0401 06:34:03.313923   127 net.cpp:425] conv7_2_conv7_2_relu_0_split -> conv7_2_conv7_2_relu_0_split_1
I0401 06:34:03.313930   127 net.cpp:425] conv7_2_conv7_2_relu_0_split -> conv7_2_conv7_2_relu_0_split_2
I0401 06:34:03.313935   127 net.cpp:425] conv7_2_conv7_2_relu_0_split -> conv7_2_conv7_2_relu_0_split_3
I0401 06:34:03.313989   127 net.cpp:160] Setting up conv7_2_conv7_2_relu_0_split
I0401 06:34:03.313997   127 net.cpp:167] Top shape: 8 256 5 5 (51200)
I0401 06:34:03.314007   127 net.cpp:167] Top shape: 8 256 5 5 (51200)
I0401 06:34:03.314013   127 net.cpp:167] Top shape: 8 256 5 5 (51200)
I0401 06:34:03.314018   127 net.cpp:167] Top shape: 8 256 5 5 (51200)
I0401 06:34:03.314021   127 net.cpp:175] Memory required for data: 1944555200
I0401 06:34:03.314026   127 layer_factory.hpp:93] Creating layer conv8_1
I0401 06:34:03.314034   127 net.cpp:110] Creating Layer conv8_1
I0401 06:34:03.314041   127 net.cpp:451] conv8_1 <- conv7_2_conv7_2_relu_0_split_0
I0401 06:34:03.314049   127 net.cpp:425] conv8_1 -> conv8_1
I0401 06:34:03.314458   127 net.cpp:160] Setting up conv8_1
I0401 06:34:03.314466   127 net.cpp:167] Top shape: 8 128 5 5 (25600)
I0401 06:34:03.314473   127 net.cpp:175] Memory required for data: 1944657600
I0401 06:34:03.314479   127 layer_factory.hpp:93] Creating layer conv8_1_relu
I0401 06:34:03.314486   127 net.cpp:110] Creating Layer conv8_1_relu
I0401 06:34:03.314489   127 net.cpp:451] conv8_1_relu <- conv8_1
I0401 06:34:03.314494   127 net.cpp:412] conv8_1_relu -> conv8_1 (in-place)
I0401 06:34:03.314502   127 net.cpp:160] Setting up conv8_1_relu
I0401 06:34:03.314504   127 net.cpp:167] Top shape: 8 128 5 5 (25600)
I0401 06:34:03.314509   127 net.cpp:175] Memory required for data: 1944760000
I0401 06:34:03.314513   127 layer_factory.hpp:93] Creating layer conv8_2
I0401 06:34:03.314522   127 net.cpp:110] Creating Layer conv8_2
I0401 06:34:03.314525   127 net.cpp:451] conv8_2 <- conv8_1
I0401 06:34:03.314530   127 net.cpp:425] conv8_2 -> conv8_2
I0401 06:34:03.317629   127 net.cpp:160] Setting up conv8_2
I0401 06:34:03.317641   127 net.cpp:167] Top shape: 8 256 3 3 (18432)
I0401 06:34:03.317648   127 net.cpp:175] Memory required for data: 1944833728
I0401 06:34:03.317656   127 layer_factory.hpp:93] Creating layer conv8_2_relu
I0401 06:34:03.317662   127 net.cpp:110] Creating Layer conv8_2_relu
I0401 06:34:03.317677   127 net.cpp:451] conv8_2_relu <- conv8_2
I0401 06:34:03.317683   127 net.cpp:412] conv8_2_relu -> conv8_2 (in-place)
I0401 06:34:03.317690   127 net.cpp:160] Setting up conv8_2_relu
I0401 06:34:03.317694   127 net.cpp:167] Top shape: 8 256 3 3 (18432)
I0401 06:34:03.317699   127 net.cpp:175] Memory required for data: 1944907456
I0401 06:34:03.317703   127 layer_factory.hpp:93] Creating layer conv8_2_conv8_2_relu_0_split
I0401 06:34:03.317710   127 net.cpp:110] Creating Layer conv8_2_conv8_2_relu_0_split
I0401 06:34:03.317713   127 net.cpp:451] conv8_2_conv8_2_relu_0_split <- conv8_2
I0401 06:34:03.317719   127 net.cpp:425] conv8_2_conv8_2_relu_0_split -> conv8_2_conv8_2_relu_0_split_0
I0401 06:34:03.317726   127 net.cpp:425] conv8_2_conv8_2_relu_0_split -> conv8_2_conv8_2_relu_0_split_1
I0401 06:34:03.317732   127 net.cpp:425] conv8_2_conv8_2_relu_0_split -> conv8_2_conv8_2_relu_0_split_2
I0401 06:34:03.317739   127 net.cpp:425] conv8_2_conv8_2_relu_0_split -> conv8_2_conv8_2_relu_0_split_3
I0401 06:34:03.317795   127 net.cpp:160] Setting up conv8_2_conv8_2_relu_0_split
I0401 06:34:03.317800   127 net.cpp:167] Top shape: 8 256 3 3 (18432)
I0401 06:34:03.317806   127 net.cpp:167] Top shape: 8 256 3 3 (18432)
I0401 06:34:03.317811   127 net.cpp:167] Top shape: 8 256 3 3 (18432)
I0401 06:34:03.317816   127 net.cpp:167] Top shape: 8 256 3 3 (18432)
I0401 06:34:03.317821   127 net.cpp:175] Memory required for data: 1945202368
I0401 06:34:03.317824   127 layer_factory.hpp:93] Creating layer conv9_1
I0401 06:34:03.317833   127 net.cpp:110] Creating Layer conv9_1
I0401 06:34:03.317842   127 net.cpp:451] conv9_1 <- conv8_2_conv8_2_relu_0_split_0
I0401 06:34:03.317847   127 net.cpp:425] conv9_1 -> conv9_1
I0401 06:34:03.318250   127 net.cpp:160] Setting up conv9_1
I0401 06:34:03.318259   127 net.cpp:167] Top shape: 8 128 3 3 (9216)
I0401 06:34:03.318264   127 net.cpp:175] Memory required for data: 1945239232
I0401 06:34:03.318270   127 layer_factory.hpp:93] Creating layer conv9_1_relu
I0401 06:34:03.318276   127 net.cpp:110] Creating Layer conv9_1_relu
I0401 06:34:03.318280   127 net.cpp:451] conv9_1_relu <- conv9_1
I0401 06:34:03.318286   127 net.cpp:412] conv9_1_relu -> conv9_1 (in-place)
I0401 06:34:03.318292   127 net.cpp:160] Setting up conv9_1_relu
I0401 06:34:03.318296   127 net.cpp:167] Top shape: 8 128 3 3 (9216)
I0401 06:34:03.318301   127 net.cpp:175] Memory required for data: 1945276096
I0401 06:34:03.318305   127 layer_factory.hpp:93] Creating layer conv9_2
I0401 06:34:03.318312   127 net.cpp:110] Creating Layer conv9_2
I0401 06:34:03.318316   127 net.cpp:451] conv9_2 <- conv9_1
I0401 06:34:03.318321   127 net.cpp:425] conv9_2 -> conv9_2
I0401 06:34:03.321400   127 net.cpp:160] Setting up conv9_2
I0401 06:34:03.321413   127 net.cpp:167] Top shape: 8 256 1 1 (2048)
I0401 06:34:03.321419   127 net.cpp:175] Memory required for data: 1945284288
I0401 06:34:03.321426   127 layer_factory.hpp:93] Creating layer conv9_2_relu
I0401 06:34:03.321432   127 net.cpp:110] Creating Layer conv9_2_relu
I0401 06:34:03.321436   127 net.cpp:451] conv9_2_relu <- conv9_2
I0401 06:34:03.321442   127 net.cpp:412] conv9_2_relu -> conv9_2 (in-place)
I0401 06:34:03.321449   127 net.cpp:160] Setting up conv9_2_relu
I0401 06:34:03.321453   127 net.cpp:167] Top shape: 8 256 1 1 (2048)
I0401 06:34:03.321458   127 net.cpp:175] Memory required for data: 1945292480
I0401 06:34:03.321462   127 layer_factory.hpp:93] Creating layer conv9_2_conv9_2_relu_0_split
I0401 06:34:03.321467   127 net.cpp:110] Creating Layer conv9_2_conv9_2_relu_0_split
I0401 06:34:03.321471   127 net.cpp:451] conv9_2_conv9_2_relu_0_split <- conv9_2
I0401 06:34:03.321477   127 net.cpp:425] conv9_2_conv9_2_relu_0_split -> conv9_2_conv9_2_relu_0_split_0
I0401 06:34:03.321483   127 net.cpp:425] conv9_2_conv9_2_relu_0_split -> conv9_2_conv9_2_relu_0_split_1
I0401 06:34:03.321489   127 net.cpp:425] conv9_2_conv9_2_relu_0_split -> conv9_2_conv9_2_relu_0_split_2
I0401 06:34:03.321532   127 net.cpp:160] Setting up conv9_2_conv9_2_relu_0_split
I0401 06:34:03.321538   127 net.cpp:167] Top shape: 8 256 1 1 (2048)
I0401 06:34:03.321555   127 net.cpp:167] Top shape: 8 256 1 1 (2048)
I0401 06:34:03.321561   127 net.cpp:167] Top shape: 8 256 1 1 (2048)
I0401 06:34:03.321566   127 net.cpp:175] Memory required for data: 1945317056
I0401 06:34:03.321570   127 layer_factory.hpp:93] Creating layer conv4_3_norm_mbox_loc
I0401 06:34:03.321579   127 net.cpp:110] Creating Layer conv4_3_norm_mbox_loc
I0401 06:34:03.321584   127 net.cpp:451] conv4_3_norm_mbox_loc <- conv4_3_relu4_3_0_split_1
I0401 06:34:03.321590   127 net.cpp:425] conv4_3_norm_mbox_loc -> conv4_3_norm_mbox_loc
I0401 06:34:03.322244   127 net.cpp:160] Setting up conv4_3_norm_mbox_loc
I0401 06:34:03.322253   127 net.cpp:167] Top shape: 8 16 38 38 (184832)
I0401 06:34:03.322259   127 net.cpp:175] Memory required for data: 1946056384
I0401 06:34:03.322266   127 layer_factory.hpp:93] Creating layer conv4_3_norm_mbox_loc_perm
I0401 06:34:03.322273   127 net.cpp:110] Creating Layer conv4_3_norm_mbox_loc_perm
I0401 06:34:03.322278   127 net.cpp:451] conv4_3_norm_mbox_loc_perm <- conv4_3_norm_mbox_loc
I0401 06:34:03.322283   127 net.cpp:425] conv4_3_norm_mbox_loc_perm -> conv4_3_norm_mbox_loc_perm
I0401 06:34:03.322365   127 net.cpp:160] Setting up conv4_3_norm_mbox_loc_perm
I0401 06:34:03.322372   127 net.cpp:167] Top shape: 8 38 38 16 (184832)
I0401 06:34:03.322378   127 net.cpp:175] Memory required for data: 1946795712
I0401 06:34:03.322382   127 layer_factory.hpp:93] Creating layer conv4_3_norm_mbox_loc_flat
I0401 06:34:03.322388   127 net.cpp:110] Creating Layer conv4_3_norm_mbox_loc_flat
I0401 06:34:03.322393   127 net.cpp:451] conv4_3_norm_mbox_loc_flat <- conv4_3_norm_mbox_loc_perm
I0401 06:34:03.322398   127 net.cpp:425] conv4_3_norm_mbox_loc_flat -> conv4_3_norm_mbox_loc_flat
I0401 06:34:03.322418   127 net.cpp:160] Setting up conv4_3_norm_mbox_loc_flat
I0401 06:34:03.322423   127 net.cpp:167] Top shape: 8 23104 (184832)
I0401 06:34:03.322429   127 net.cpp:175] Memory required for data: 1947535040
I0401 06:34:03.322432   127 layer_factory.hpp:93] Creating layer conv4_3_norm_mbox_conf
I0401 06:34:03.322440   127 net.cpp:110] Creating Layer conv4_3_norm_mbox_conf
I0401 06:34:03.322444   127 net.cpp:451] conv4_3_norm_mbox_conf <- conv4_3_relu4_3_0_split_2
I0401 06:34:03.322450   127 net.cpp:425] conv4_3_norm_mbox_conf -> conv4_3_norm_mbox_conf
I0401 06:34:03.326090   127 net.cpp:160] Setting up conv4_3_norm_mbox_conf
I0401 06:34:03.326103   127 net.cpp:167] Top shape: 8 84 38 38 (970368)
I0401 06:34:03.326110   127 net.cpp:175] Memory required for data: 1951416512
I0401 06:34:03.326117   127 layer_factory.hpp:93] Creating layer conv4_3_norm_mbox_conf_perm
I0401 06:34:03.326128   127 net.cpp:110] Creating Layer conv4_3_norm_mbox_conf_perm
I0401 06:34:03.326134   127 net.cpp:451] conv4_3_norm_mbox_conf_perm <- conv4_3_norm_mbox_conf
I0401 06:34:03.326140   127 net.cpp:425] conv4_3_norm_mbox_conf_perm -> conv4_3_norm_mbox_conf_perm
I0401 06:34:03.326226   127 net.cpp:160] Setting up conv4_3_norm_mbox_conf_perm
I0401 06:34:03.326233   127 net.cpp:167] Top shape: 8 38 38 84 (970368)
I0401 06:34:03.326239   127 net.cpp:175] Memory required for data: 1955297984
I0401 06:34:03.326243   127 layer_factory.hpp:93] Creating layer conv4_3_norm_mbox_conf_flat
I0401 06:34:03.326248   127 net.cpp:110] Creating Layer conv4_3_norm_mbox_conf_flat
I0401 06:34:03.326252   127 net.cpp:451] conv4_3_norm_mbox_conf_flat <- conv4_3_norm_mbox_conf_perm
I0401 06:34:03.326258   127 net.cpp:425] conv4_3_norm_mbox_conf_flat -> conv4_3_norm_mbox_conf_flat
I0401 06:34:03.326278   127 net.cpp:160] Setting up conv4_3_norm_mbox_conf_flat
I0401 06:34:03.326284   127 net.cpp:167] Top shape: 8 121296 (970368)
I0401 06:34:03.326289   127 net.cpp:175] Memory required for data: 1959179456
I0401 06:34:03.326293   127 layer_factory.hpp:93] Creating layer conv4_3_norm_mbox_priorbox
I0401 06:34:03.326300   127 net.cpp:110] Creating Layer conv4_3_norm_mbox_priorbox
I0401 06:34:03.326304   127 net.cpp:451] conv4_3_norm_mbox_priorbox <- conv4_3_relu4_3_0_split_3
I0401 06:34:03.326309   127 net.cpp:451] conv4_3_norm_mbox_priorbox <- data_data_0_split_1
I0401 06:34:03.326329   127 net.cpp:425] conv4_3_norm_mbox_priorbox -> conv4_3_norm_mbox_priorbox
I0401 06:34:03.326354   127 net.cpp:160] Setting up conv4_3_norm_mbox_priorbox
I0401 06:34:03.326360   127 net.cpp:167] Top shape: 1 2 23104 (46208)
I0401 06:34:03.326366   127 net.cpp:175] Memory required for data: 1959364288
I0401 06:34:03.326370   127 layer_factory.hpp:93] Creating layer fc7_mbox_loc
I0401 06:34:03.326380   127 net.cpp:110] Creating Layer fc7_mbox_loc
I0401 06:34:03.326385   127 net.cpp:451] fc7_mbox_loc <- fc7_682_relu7_0_split_1
I0401 06:34:03.326390   127 net.cpp:425] fc7_mbox_loc -> fc7_mbox_loc
I0401 06:34:03.327860   127 net.cpp:160] Setting up fc7_mbox_loc
I0401 06:34:03.327869   127 net.cpp:167] Top shape: 8 24 19 19 (69312)
I0401 06:34:03.327875   127 net.cpp:175] Memory required for data: 1959641536
I0401 06:34:03.327883   127 layer_factory.hpp:93] Creating layer fc7_mbox_loc_perm
I0401 06:34:03.327889   127 net.cpp:110] Creating Layer fc7_mbox_loc_perm
I0401 06:34:03.327893   127 net.cpp:451] fc7_mbox_loc_perm <- fc7_mbox_loc
I0401 06:34:03.327899   127 net.cpp:425] fc7_mbox_loc_perm -> fc7_mbox_loc_perm
I0401 06:34:03.327982   127 net.cpp:160] Setting up fc7_mbox_loc_perm
I0401 06:34:03.327989   127 net.cpp:167] Top shape: 8 19 19 24 (69312)
I0401 06:34:03.327996   127 net.cpp:175] Memory required for data: 1959918784
I0401 06:34:03.327999   127 layer_factory.hpp:93] Creating layer fc7_mbox_loc_flat
I0401 06:34:03.328006   127 net.cpp:110] Creating Layer fc7_mbox_loc_flat
I0401 06:34:03.328009   127 net.cpp:451] fc7_mbox_loc_flat <- fc7_mbox_loc_perm
I0401 06:34:03.328014   127 net.cpp:425] fc7_mbox_loc_flat -> fc7_mbox_loc_flat
I0401 06:34:03.328034   127 net.cpp:160] Setting up fc7_mbox_loc_flat
I0401 06:34:03.328039   127 net.cpp:167] Top shape: 8 8664 (69312)
I0401 06:34:03.328044   127 net.cpp:175] Memory required for data: 1960196032
I0401 06:34:03.328048   127 layer_factory.hpp:93] Creating layer fc7_mbox_conf
I0401 06:34:03.328056   127 net.cpp:110] Creating Layer fc7_mbox_conf
I0401 06:34:03.328061   127 net.cpp:451] fc7_mbox_conf <- fc7_682_relu7_0_split_2
I0401 06:34:03.328068   127 net.cpp:425] fc7_mbox_conf -> fc7_mbox_conf
I0401 06:34:03.337179   127 net.cpp:160] Setting up fc7_mbox_conf
I0401 06:34:03.337193   127 net.cpp:167] Top shape: 8 126 19 19 (363888)
I0401 06:34:03.337200   127 net.cpp:175] Memory required for data: 1961651584
I0401 06:34:03.337208   127 layer_factory.hpp:93] Creating layer fc7_mbox_conf_perm
I0401 06:34:03.337216   127 net.cpp:110] Creating Layer fc7_mbox_conf_perm
I0401 06:34:03.337224   127 net.cpp:451] fc7_mbox_conf_perm <- fc7_mbox_conf
I0401 06:34:03.337229   127 net.cpp:425] fc7_mbox_conf_perm -> fc7_mbox_conf_perm
I0401 06:34:03.337318   127 net.cpp:160] Setting up fc7_mbox_conf_perm
I0401 06:34:03.337325   127 net.cpp:167] Top shape: 8 19 19 126 (363888)
I0401 06:34:03.337332   127 net.cpp:175] Memory required for data: 1963107136
I0401 06:34:03.337335   127 layer_factory.hpp:93] Creating layer fc7_mbox_conf_flat
I0401 06:34:03.337342   127 net.cpp:110] Creating Layer fc7_mbox_conf_flat
I0401 06:34:03.337345   127 net.cpp:451] fc7_mbox_conf_flat <- fc7_mbox_conf_perm
I0401 06:34:03.337352   127 net.cpp:425] fc7_mbox_conf_flat -> fc7_mbox_conf_flat
I0401 06:34:03.337373   127 net.cpp:160] Setting up fc7_mbox_conf_flat
I0401 06:34:03.337378   127 net.cpp:167] Top shape: 8 45486 (363888)
I0401 06:34:03.337383   127 net.cpp:175] Memory required for data: 1964562688
I0401 06:34:03.337388   127 layer_factory.hpp:93] Creating layer fc7_mbox_priorbox
I0401 06:34:03.337394   127 net.cpp:110] Creating Layer fc7_mbox_priorbox
I0401 06:34:03.337399   127 net.cpp:451] fc7_mbox_priorbox <- fc7_682_relu7_0_split_3
I0401 06:34:03.337404   127 net.cpp:451] fc7_mbox_priorbox <- data_data_0_split_2
I0401 06:34:03.337409   127 net.cpp:425] fc7_mbox_priorbox -> fc7_mbox_priorbox
I0401 06:34:03.337433   127 net.cpp:160] Setting up fc7_mbox_priorbox
I0401 06:34:03.337440   127 net.cpp:167] Top shape: 1 2 8664 (17328)
I0401 06:34:03.337457   127 net.cpp:175] Memory required for data: 1964632000
I0401 06:34:03.337462   127 layer_factory.hpp:93] Creating layer conv6_2_mbox_loc
I0401 06:34:03.337471   127 net.cpp:110] Creating Layer conv6_2_mbox_loc
I0401 06:34:03.337479   127 net.cpp:451] conv6_2_mbox_loc <- conv6_2_conv6_2_relu_0_split_1
I0401 06:34:03.337486   127 net.cpp:425] conv6_2_mbox_loc -> conv6_2_mbox_loc
I0401 06:34:03.338330   127 net.cpp:160] Setting up conv6_2_mbox_loc
I0401 06:34:03.338340   127 net.cpp:167] Top shape: 8 24 10 10 (19200)
I0401 06:34:03.338346   127 net.cpp:175] Memory required for data: 1964708800
I0401 06:34:03.338352   127 layer_factory.hpp:93] Creating layer conv6_2_mbox_loc_perm
I0401 06:34:03.338358   127 net.cpp:110] Creating Layer conv6_2_mbox_loc_perm
I0401 06:34:03.338363   127 net.cpp:451] conv6_2_mbox_loc_perm <- conv6_2_mbox_loc
I0401 06:34:03.338368   127 net.cpp:425] conv6_2_mbox_loc_perm -> conv6_2_mbox_loc_perm
I0401 06:34:03.338451   127 net.cpp:160] Setting up conv6_2_mbox_loc_perm
I0401 06:34:03.338457   127 net.cpp:167] Top shape: 8 10 10 24 (19200)
I0401 06:34:03.338464   127 net.cpp:175] Memory required for data: 1964785600
I0401 06:34:03.338467   127 layer_factory.hpp:93] Creating layer conv6_2_mbox_loc_flat
I0401 06:34:03.338474   127 net.cpp:110] Creating Layer conv6_2_mbox_loc_flat
I0401 06:34:03.338477   127 net.cpp:451] conv6_2_mbox_loc_flat <- conv6_2_mbox_loc_perm
I0401 06:34:03.338483   127 net.cpp:425] conv6_2_mbox_loc_flat -> conv6_2_mbox_loc_flat
I0401 06:34:03.338502   127 net.cpp:160] Setting up conv6_2_mbox_loc_flat
I0401 06:34:03.338508   127 net.cpp:167] Top shape: 8 2400 (19200)
I0401 06:34:03.338512   127 net.cpp:175] Memory required for data: 1964862400
I0401 06:34:03.338516   127 layer_factory.hpp:93] Creating layer conv6_2_mbox_conf
I0401 06:34:03.338524   127 net.cpp:110] Creating Layer conv6_2_mbox_conf
I0401 06:34:03.338528   127 net.cpp:451] conv6_2_mbox_conf <- conv6_2_conv6_2_relu_0_split_2
I0401 06:34:03.338534   127 net.cpp:425] conv6_2_mbox_conf -> conv6_2_mbox_conf
I0401 06:34:03.343313   127 net.cpp:160] Setting up conv6_2_mbox_conf
I0401 06:34:03.343325   127 net.cpp:167] Top shape: 8 126 10 10 (100800)
I0401 06:34:03.343333   127 net.cpp:175] Memory required for data: 1965265600
I0401 06:34:03.343339   127 layer_factory.hpp:93] Creating layer conv6_2_mbox_conf_perm
I0401 06:34:03.343348   127 net.cpp:110] Creating Layer conv6_2_mbox_conf_perm
I0401 06:34:03.343353   127 net.cpp:451] conv6_2_mbox_conf_perm <- conv6_2_mbox_conf
I0401 06:34:03.343358   127 net.cpp:425] conv6_2_mbox_conf_perm -> conv6_2_mbox_conf_perm
I0401 06:34:03.343441   127 net.cpp:160] Setting up conv6_2_mbox_conf_perm
I0401 06:34:03.343447   127 net.cpp:167] Top shape: 8 10 10 126 (100800)
I0401 06:34:03.343453   127 net.cpp:175] Memory required for data: 1965668800
I0401 06:34:03.343457   127 layer_factory.hpp:93] Creating layer conv6_2_mbox_conf_flat
I0401 06:34:03.343463   127 net.cpp:110] Creating Layer conv6_2_mbox_conf_flat
I0401 06:34:03.343467   127 net.cpp:451] conv6_2_mbox_conf_flat <- conv6_2_mbox_conf_perm
I0401 06:34:03.343472   127 net.cpp:425] conv6_2_mbox_conf_flat -> conv6_2_mbox_conf_flat
I0401 06:34:03.343492   127 net.cpp:160] Setting up conv6_2_mbox_conf_flat
I0401 06:34:03.343497   127 net.cpp:167] Top shape: 8 12600 (100800)
I0401 06:34:03.343503   127 net.cpp:175] Memory required for data: 1966072000
I0401 06:34:03.343506   127 layer_factory.hpp:93] Creating layer conv6_2_mbox_priorbox
I0401 06:34:03.343513   127 net.cpp:110] Creating Layer conv6_2_mbox_priorbox
I0401 06:34:03.343518   127 net.cpp:451] conv6_2_mbox_priorbox <- conv6_2_conv6_2_relu_0_split_3
I0401 06:34:03.343523   127 net.cpp:451] conv6_2_mbox_priorbox <- data_data_0_split_3
I0401 06:34:03.343528   127 net.cpp:425] conv6_2_mbox_priorbox -> conv6_2_mbox_priorbox
I0401 06:34:03.343549   127 net.cpp:160] Setting up conv6_2_mbox_priorbox
I0401 06:34:03.343555   127 net.cpp:167] Top shape: 1 2 2400 (4800)
I0401 06:34:03.343560   127 net.cpp:175] Memory required for data: 1966091200
I0401 06:34:03.343577   127 layer_factory.hpp:93] Creating layer conv7_2_mbox_loc
I0401 06:34:03.343586   127 net.cpp:110] Creating Layer conv7_2_mbox_loc
I0401 06:34:03.343591   127 net.cpp:451] conv7_2_mbox_loc <- conv7_2_conv7_2_relu_0_split_1
I0401 06:34:03.343597   127 net.cpp:425] conv7_2_mbox_loc -> conv7_2_mbox_loc
I0401 06:34:03.344173   127 net.cpp:160] Setting up conv7_2_mbox_loc
I0401 06:34:03.344188   127 net.cpp:167] Top shape: 8 24 5 5 (4800)
I0401 06:34:03.344194   127 net.cpp:175] Memory required for data: 1966110400
I0401 06:34:03.344204   127 layer_factory.hpp:93] Creating layer conv7_2_mbox_loc_perm
I0401 06:34:03.344213   127 net.cpp:110] Creating Layer conv7_2_mbox_loc_perm
I0401 06:34:03.344218   127 net.cpp:451] conv7_2_mbox_loc_perm <- conv7_2_mbox_loc
I0401 06:34:03.344223   127 net.cpp:425] conv7_2_mbox_loc_perm -> conv7_2_mbox_loc_perm
I0401 06:34:03.344305   127 net.cpp:160] Setting up conv7_2_mbox_loc_perm
I0401 06:34:03.344311   127 net.cpp:167] Top shape: 8 5 5 24 (4800)
I0401 06:34:03.344316   127 net.cpp:175] Memory required for data: 1966129600
I0401 06:34:03.344321   127 layer_factory.hpp:93] Creating layer conv7_2_mbox_loc_flat
I0401 06:34:03.344326   127 net.cpp:110] Creating Layer conv7_2_mbox_loc_flat
I0401 06:34:03.344331   127 net.cpp:451] conv7_2_mbox_loc_flat <- conv7_2_mbox_loc_perm
I0401 06:34:03.344336   127 net.cpp:425] conv7_2_mbox_loc_flat -> conv7_2_mbox_loc_flat
I0401 06:34:03.344354   127 net.cpp:160] Setting up conv7_2_mbox_loc_flat
I0401 06:34:03.344360   127 net.cpp:167] Top shape: 8 600 (4800)
I0401 06:34:03.344365   127 net.cpp:175] Memory required for data: 1966148800
I0401 06:34:03.344369   127 layer_factory.hpp:93] Creating layer conv7_2_mbox_conf
I0401 06:34:03.344377   127 net.cpp:110] Creating Layer conv7_2_mbox_conf
I0401 06:34:03.344381   127 net.cpp:451] conv7_2_mbox_conf <- conv7_2_conv7_2_relu_0_split_2
I0401 06:34:03.344388   127 net.cpp:425] conv7_2_mbox_conf -> conv7_2_mbox_conf
I0401 06:34:03.347463   127 net.cpp:160] Setting up conv7_2_mbox_conf
I0401 06:34:03.347476   127 net.cpp:167] Top shape: 8 126 5 5 (25200)
I0401 06:34:03.347482   127 net.cpp:175] Memory required for data: 1966249600
I0401 06:34:03.347489   127 layer_factory.hpp:93] Creating layer conv7_2_mbox_conf_perm
I0401 06:34:03.347497   127 net.cpp:110] Creating Layer conv7_2_mbox_conf_perm
I0401 06:34:03.347502   127 net.cpp:451] conv7_2_mbox_conf_perm <- conv7_2_mbox_conf
I0401 06:34:03.347508   127 net.cpp:425] conv7_2_mbox_conf_perm -> conv7_2_mbox_conf_perm
I0401 06:34:03.347594   127 net.cpp:160] Setting up conv7_2_mbox_conf_perm
I0401 06:34:03.347600   127 net.cpp:167] Top shape: 8 5 5 126 (25200)
I0401 06:34:03.347606   127 net.cpp:175] Memory required for data: 1966350400
I0401 06:34:03.347610   127 layer_factory.hpp:93] Creating layer conv7_2_mbox_conf_flat
I0401 06:34:03.347615   127 net.cpp:110] Creating Layer conv7_2_mbox_conf_flat
I0401 06:34:03.347620   127 net.cpp:451] conv7_2_mbox_conf_flat <- conv7_2_mbox_conf_perm
I0401 06:34:03.347625   127 net.cpp:425] conv7_2_mbox_conf_flat -> conv7_2_mbox_conf_flat
I0401 06:34:03.347645   127 net.cpp:160] Setting up conv7_2_mbox_conf_flat
I0401 06:34:03.347653   127 net.cpp:167] Top shape: 8 3150 (25200)
I0401 06:34:03.347658   127 net.cpp:175] Memory required for data: 1966451200
I0401 06:34:03.347662   127 layer_factory.hpp:93] Creating layer conv7_2_mbox_priorbox
I0401 06:34:03.347669   127 net.cpp:110] Creating Layer conv7_2_mbox_priorbox
I0401 06:34:03.347673   127 net.cpp:451] conv7_2_mbox_priorbox <- conv7_2_conv7_2_relu_0_split_3
I0401 06:34:03.347678   127 net.cpp:451] conv7_2_mbox_priorbox <- data_data_0_split_4
I0401 06:34:03.347683   127 net.cpp:425] conv7_2_mbox_priorbox -> conv7_2_mbox_priorbox
I0401 06:34:03.347704   127 net.cpp:160] Setting up conv7_2_mbox_priorbox
I0401 06:34:03.347709   127 net.cpp:167] Top shape: 1 2 600 (1200)
I0401 06:34:03.347714   127 net.cpp:175] Memory required for data: 1966456000
I0401 06:34:03.347718   127 layer_factory.hpp:93] Creating layer conv8_2_mbox_loc
I0401 06:34:03.347726   127 net.cpp:110] Creating Layer conv8_2_mbox_loc
I0401 06:34:03.347743   127 net.cpp:451] conv8_2_mbox_loc <- conv8_2_conv8_2_relu_0_split_1
I0401 06:34:03.347749   127 net.cpp:425] conv8_2_mbox_loc -> conv8_2_mbox_loc
I0401 06:34:03.348204   127 net.cpp:160] Setting up conv8_2_mbox_loc
I0401 06:34:03.348213   127 net.cpp:167] Top shape: 8 16 3 3 (1152)
I0401 06:34:03.348219   127 net.cpp:175] Memory required for data: 1966460608
I0401 06:34:03.348227   127 layer_factory.hpp:93] Creating layer conv8_2_mbox_loc_perm
I0401 06:34:03.348232   127 net.cpp:110] Creating Layer conv8_2_mbox_loc_perm
I0401 06:34:03.348237   127 net.cpp:451] conv8_2_mbox_loc_perm <- conv8_2_mbox_loc
I0401 06:34:03.348243   127 net.cpp:425] conv8_2_mbox_loc_perm -> conv8_2_mbox_loc_perm
I0401 06:34:03.348330   127 net.cpp:160] Setting up conv8_2_mbox_loc_perm
I0401 06:34:03.348336   127 net.cpp:167] Top shape: 8 3 3 16 (1152)
I0401 06:34:03.348342   127 net.cpp:175] Memory required for data: 1966465216
I0401 06:34:03.348345   127 layer_factory.hpp:93] Creating layer conv8_2_mbox_loc_flat
I0401 06:34:03.348351   127 net.cpp:110] Creating Layer conv8_2_mbox_loc_flat
I0401 06:34:03.348356   127 net.cpp:451] conv8_2_mbox_loc_flat <- conv8_2_mbox_loc_perm
I0401 06:34:03.348361   127 net.cpp:425] conv8_2_mbox_loc_flat -> conv8_2_mbox_loc_flat
I0401 06:34:03.348381   127 net.cpp:160] Setting up conv8_2_mbox_loc_flat
I0401 06:34:03.348387   127 net.cpp:167] Top shape: 8 144 (1152)
I0401 06:34:03.348392   127 net.cpp:175] Memory required for data: 1966469824
I0401 06:34:03.348395   127 layer_factory.hpp:93] Creating layer conv8_2_mbox_conf
I0401 06:34:03.348403   127 net.cpp:110] Creating Layer conv8_2_mbox_conf
I0401 06:34:03.348408   127 net.cpp:451] conv8_2_mbox_conf <- conv8_2_conv8_2_relu_0_split_2
I0401 06:34:03.348413   127 net.cpp:425] conv8_2_mbox_conf -> conv8_2_mbox_conf
I0401 06:34:03.349740   127 net.cpp:160] Setting up conv8_2_mbox_conf
I0401 06:34:03.349748   127 net.cpp:167] Top shape: 8 84 3 3 (6048)
I0401 06:34:03.349753   127 net.cpp:175] Memory required for data: 1966494016
I0401 06:34:03.349761   127 layer_factory.hpp:93] Creating layer conv8_2_mbox_conf_perm
I0401 06:34:03.349767   127 net.cpp:110] Creating Layer conv8_2_mbox_conf_perm
I0401 06:34:03.349771   127 net.cpp:451] conv8_2_mbox_conf_perm <- conv8_2_mbox_conf
I0401 06:34:03.349777   127 net.cpp:425] conv8_2_mbox_conf_perm -> conv8_2_mbox_conf_perm
I0401 06:34:03.349859   127 net.cpp:160] Setting up conv8_2_mbox_conf_perm
I0401 06:34:03.349865   127 net.cpp:167] Top shape: 8 3 3 84 (6048)
I0401 06:34:03.349870   127 net.cpp:175] Memory required for data: 1966518208
I0401 06:34:03.349874   127 layer_factory.hpp:93] Creating layer conv8_2_mbox_conf_flat
I0401 06:34:03.349880   127 net.cpp:110] Creating Layer conv8_2_mbox_conf_flat
I0401 06:34:03.349884   127 net.cpp:451] conv8_2_mbox_conf_flat <- conv8_2_mbox_conf_perm
I0401 06:34:03.349890   127 net.cpp:425] conv8_2_mbox_conf_flat -> conv8_2_mbox_conf_flat
I0401 06:34:03.349908   127 net.cpp:160] Setting up conv8_2_mbox_conf_flat
I0401 06:34:03.349915   127 net.cpp:167] Top shape: 8 756 (6048)
I0401 06:34:03.349920   127 net.cpp:175] Memory required for data: 1966542400
I0401 06:34:03.349922   127 layer_factory.hpp:93] Creating layer conv8_2_mbox_priorbox
I0401 06:34:03.349929   127 net.cpp:110] Creating Layer conv8_2_mbox_priorbox
I0401 06:34:03.349933   127 net.cpp:451] conv8_2_mbox_priorbox <- conv8_2_conv8_2_relu_0_split_3
I0401 06:34:03.349938   127 net.cpp:451] conv8_2_mbox_priorbox <- data_data_0_split_5
I0401 06:34:03.349944   127 net.cpp:425] conv8_2_mbox_priorbox -> conv8_2_mbox_priorbox
I0401 06:34:03.349964   127 net.cpp:160] Setting up conv8_2_mbox_priorbox
I0401 06:34:03.349968   127 net.cpp:167] Top shape: 1 2 144 (288)
I0401 06:34:03.349973   127 net.cpp:175] Memory required for data: 1966543552
I0401 06:34:03.349977   127 layer_factory.hpp:93] Creating layer conv9_2_mbox_loc
I0401 06:34:03.349985   127 net.cpp:110] Creating Layer conv9_2_mbox_loc
I0401 06:34:03.349990   127 net.cpp:451] conv9_2_mbox_loc <- conv9_2_conv9_2_relu_0_split_0
I0401 06:34:03.350005   127 net.cpp:425] conv9_2_mbox_loc -> conv9_2_mbox_loc
I0401 06:34:03.350438   127 net.cpp:160] Setting up conv9_2_mbox_loc
I0401 06:34:03.350447   127 net.cpp:167] Top shape: 8 16 1 1 (128)
I0401 06:34:03.350453   127 net.cpp:175] Memory required for data: 1966544064
I0401 06:34:03.350459   127 layer_factory.hpp:93] Creating layer conv9_2_mbox_loc_perm
I0401 06:34:03.350466   127 net.cpp:110] Creating Layer conv9_2_mbox_loc_perm
I0401 06:34:03.350471   127 net.cpp:451] conv9_2_mbox_loc_perm <- conv9_2_mbox_loc
I0401 06:34:03.350477   127 net.cpp:425] conv9_2_mbox_loc_perm -> conv9_2_mbox_loc_perm
I0401 06:34:03.350558   127 net.cpp:160] Setting up conv9_2_mbox_loc_perm
I0401 06:34:03.350564   127 net.cpp:167] Top shape: 8 1 1 16 (128)
I0401 06:34:03.350569   127 net.cpp:175] Memory required for data: 1966544576
I0401 06:34:03.350574   127 layer_factory.hpp:93] Creating layer conv9_2_mbox_loc_flat
I0401 06:34:03.350579   127 net.cpp:110] Creating Layer conv9_2_mbox_loc_flat
I0401 06:34:03.350584   127 net.cpp:451] conv9_2_mbox_loc_flat <- conv9_2_mbox_loc_perm
I0401 06:34:03.350589   127 net.cpp:425] conv9_2_mbox_loc_flat -> conv9_2_mbox_loc_flat
I0401 06:34:03.350607   127 net.cpp:160] Setting up conv9_2_mbox_loc_flat
I0401 06:34:03.350615   127 net.cpp:167] Top shape: 8 16 (128)
I0401 06:34:03.350620   127 net.cpp:175] Memory required for data: 1966545088
I0401 06:34:03.350625   127 layer_factory.hpp:93] Creating layer conv9_2_mbox_conf
I0401 06:34:03.350631   127 net.cpp:110] Creating Layer conv9_2_mbox_conf
I0401 06:34:03.350636   127 net.cpp:451] conv9_2_mbox_conf <- conv9_2_conv9_2_relu_0_split_1
I0401 06:34:03.350642   127 net.cpp:425] conv9_2_mbox_conf -> conv9_2_mbox_conf
I0401 06:34:03.351949   127 net.cpp:160] Setting up conv9_2_mbox_conf
I0401 06:34:03.351958   127 net.cpp:167] Top shape: 8 84 1 1 (672)
I0401 06:34:03.351963   127 net.cpp:175] Memory required for data: 1966547776
I0401 06:34:03.351969   127 layer_factory.hpp:93] Creating layer conv9_2_mbox_conf_perm
I0401 06:34:03.351975   127 net.cpp:110] Creating Layer conv9_2_mbox_conf_perm
I0401 06:34:03.351980   127 net.cpp:451] conv9_2_mbox_conf_perm <- conv9_2_mbox_conf
I0401 06:34:03.351985   127 net.cpp:425] conv9_2_mbox_conf_perm -> conv9_2_mbox_conf_perm
I0401 06:34:03.352066   127 net.cpp:160] Setting up conv9_2_mbox_conf_perm
I0401 06:34:03.352072   127 net.cpp:167] Top shape: 8 1 1 84 (672)
I0401 06:34:03.352077   127 net.cpp:175] Memory required for data: 1966550464
I0401 06:34:03.352082   127 layer_factory.hpp:93] Creating layer conv9_2_mbox_conf_flat
I0401 06:34:03.352087   127 net.cpp:110] Creating Layer conv9_2_mbox_conf_flat
I0401 06:34:03.352092   127 net.cpp:451] conv9_2_mbox_conf_flat <- conv9_2_mbox_conf_perm
I0401 06:34:03.352097   127 net.cpp:425] conv9_2_mbox_conf_flat -> conv9_2_mbox_conf_flat
I0401 06:34:03.352115   127 net.cpp:160] Setting up conv9_2_mbox_conf_flat
I0401 06:34:03.352119   127 net.cpp:167] Top shape: 8 84 (672)
I0401 06:34:03.352123   127 net.cpp:175] Memory required for data: 1966553152
I0401 06:34:03.352128   127 layer_factory.hpp:93] Creating layer conv9_2_mbox_priorbox
I0401 06:34:03.352134   127 net.cpp:110] Creating Layer conv9_2_mbox_priorbox
I0401 06:34:03.352138   127 net.cpp:451] conv9_2_mbox_priorbox <- conv9_2_conv9_2_relu_0_split_2
I0401 06:34:03.352144   127 net.cpp:451] conv9_2_mbox_priorbox <- data_data_0_split_6
I0401 06:34:03.352149   127 net.cpp:425] conv9_2_mbox_priorbox -> conv9_2_mbox_priorbox
I0401 06:34:03.352167   127 net.cpp:160] Setting up conv9_2_mbox_priorbox
I0401 06:34:03.352172   127 net.cpp:167] Top shape: 1 2 16 (32)
I0401 06:34:03.352181   127 net.cpp:175] Memory required for data: 1966553280
I0401 06:34:03.352186   127 layer_factory.hpp:93] Creating layer mbox_loc
I0401 06:34:03.352192   127 net.cpp:110] Creating Layer mbox_loc
I0401 06:34:03.352197   127 net.cpp:451] mbox_loc <- conv4_3_norm_mbox_loc_flat
I0401 06:34:03.352202   127 net.cpp:451] mbox_loc <- fc7_mbox_loc_flat
I0401 06:34:03.352207   127 net.cpp:451] mbox_loc <- conv6_2_mbox_loc_flat
I0401 06:34:03.352221   127 net.cpp:451] mbox_loc <- conv7_2_mbox_loc_flat
I0401 06:34:03.352226   127 net.cpp:451] mbox_loc <- conv8_2_mbox_loc_flat
I0401 06:34:03.352229   127 net.cpp:451] mbox_loc <- conv9_2_mbox_loc_flat
I0401 06:34:03.352234   127 net.cpp:425] mbox_loc -> mbox_loc
I0401 06:34:03.352257   127 net.cpp:160] Setting up mbox_loc
I0401 06:34:03.352262   127 net.cpp:167] Top shape: 8 34928 (279424)
I0401 06:34:03.352268   127 net.cpp:175] Memory required for data: 1967670976
I0401 06:34:03.352272   127 layer_factory.hpp:93] Creating layer mbox_conf
I0401 06:34:03.352277   127 net.cpp:110] Creating Layer mbox_conf
I0401 06:34:03.352282   127 net.cpp:451] mbox_conf <- conv4_3_norm_mbox_conf_flat
I0401 06:34:03.352288   127 net.cpp:451] mbox_conf <- fc7_mbox_conf_flat
I0401 06:34:03.352293   127 net.cpp:451] mbox_conf <- conv6_2_mbox_conf_flat
I0401 06:34:03.352296   127 net.cpp:451] mbox_conf <- conv7_2_mbox_conf_flat
I0401 06:34:03.352300   127 net.cpp:451] mbox_conf <- conv8_2_mbox_conf_flat
I0401 06:34:03.352305   127 net.cpp:451] mbox_conf <- conv9_2_mbox_conf_flat
I0401 06:34:03.352310   127 net.cpp:425] mbox_conf -> mbox_conf
I0401 06:34:03.352329   127 net.cpp:160] Setting up mbox_conf
I0401 06:34:03.352334   127 net.cpp:167] Top shape: 8 183372 (1466976)
I0401 06:34:03.352339   127 net.cpp:175] Memory required for data: 1973538880
I0401 06:34:03.352342   127 layer_factory.hpp:93] Creating layer mbox_priorbox
I0401 06:34:03.352347   127 net.cpp:110] Creating Layer mbox_priorbox
I0401 06:34:03.352352   127 net.cpp:451] mbox_priorbox <- conv4_3_norm_mbox_priorbox
I0401 06:34:03.352357   127 net.cpp:451] mbox_priorbox <- fc7_mbox_priorbox
I0401 06:34:03.352361   127 net.cpp:451] mbox_priorbox <- conv6_2_mbox_priorbox
I0401 06:34:03.352366   127 net.cpp:451] mbox_priorbox <- conv7_2_mbox_priorbox
I0401 06:34:03.352370   127 net.cpp:451] mbox_priorbox <- conv8_2_mbox_priorbox
I0401 06:34:03.352375   127 net.cpp:451] mbox_priorbox <- conv9_2_mbox_priorbox
I0401 06:34:03.352380   127 net.cpp:425] mbox_priorbox -> mbox_priorbox
I0401 06:34:03.352397   127 net.cpp:160] Setting up mbox_priorbox
I0401 06:34:03.352401   127 net.cpp:167] Top shape: 1 2 34928 (69856)
I0401 06:34:03.352406   127 net.cpp:175] Memory required for data: 1973818304
I0401 06:34:03.352411   127 layer_factory.hpp:93] Creating layer mbox_conf_reshape
I0401 06:34:03.352423   127 net.cpp:110] Creating Layer mbox_conf_reshape
I0401 06:34:03.352427   127 net.cpp:451] mbox_conf_reshape <- mbox_conf
I0401 06:34:03.352433   127 net.cpp:425] mbox_conf_reshape -> mbox_conf_reshape
I0401 06:34:03.352455   127 net.cpp:160] Setting up mbox_conf_reshape
I0401 06:34:03.352459   127 net.cpp:167] Top shape: 8 8732 21 (1466976)
I0401 06:34:03.352464   127 net.cpp:175] Memory required for data: 1979686208
I0401 06:34:03.352468   127 layer_factory.hpp:93] Creating layer mbox_conf_softmax
I0401 06:34:03.352475   127 net.cpp:110] Creating Layer mbox_conf_softmax
I0401 06:34:03.352479   127 net.cpp:451] mbox_conf_softmax <- mbox_conf_reshape
I0401 06:34:03.352485   127 net.cpp:425] mbox_conf_softmax -> mbox_conf_softmax
I0401 06:34:03.352540   127 net.cpp:160] Setting up mbox_conf_softmax
I0401 06:34:03.352547   127 net.cpp:167] Top shape: 8 8732 21 (1466976)
I0401 06:34:03.352553   127 net.cpp:175] Memory required for data: 1985554112
I0401 06:34:03.352557   127 layer_factory.hpp:93] Creating layer mbox_conf_flatten
I0401 06:34:03.352563   127 net.cpp:110] Creating Layer mbox_conf_flatten
I0401 06:34:03.352567   127 net.cpp:451] mbox_conf_flatten <- mbox_conf_softmax
I0401 06:34:03.352573   127 net.cpp:425] mbox_conf_flatten -> mbox_conf_flatten
I0401 06:34:03.352592   127 net.cpp:160] Setting up mbox_conf_flatten
I0401 06:34:03.352597   127 net.cpp:167] Top shape: 8 183372 (1466976)
I0401 06:34:03.352602   127 net.cpp:175] Memory required for data: 1991422016
I0401 06:34:03.352607   127 layer_factory.hpp:93] Creating layer detection_out
I0401 06:34:03.352619   127 net.cpp:110] Creating Layer detection_out
I0401 06:34:03.352623   127 net.cpp:451] detection_out <- mbox_loc
I0401 06:34:03.352636   127 net.cpp:451] detection_out <- mbox_conf_flatten
I0401 06:34:03.352640   127 net.cpp:451] detection_out <- mbox_priorbox
I0401 06:34:03.352646   127 net.cpp:425] detection_out -> detection_out
I0401 06:34:03.354909   127 net.cpp:160] Setting up detection_out
I0401 06:34:03.354920   127 net.cpp:167] Top shape: 1 1 1 7 (7)
I0401 06:34:03.354926   127 net.cpp:175] Memory required for data: 1991422044
I0401 06:34:03.354930   127 layer_factory.hpp:93] Creating layer detection_eval
I0401 06:34:03.354943   127 net.cpp:110] Creating Layer detection_eval
I0401 06:34:03.354948   127 net.cpp:451] detection_eval <- detection_out
I0401 06:34:03.354952   127 net.cpp:451] detection_eval <- label
I0401 06:34:03.354959   127 net.cpp:425] detection_eval -> detection_eval
I0401 06:34:03.356536   127 net.cpp:160] Setting up detection_eval
I0401 06:34:03.356544   127 net.cpp:167] Top shape: 1 1 21 5 (105)
I0401 06:34:03.356550   127 net.cpp:175] Memory required for data: 1991422464
I0401 06:34:03.356554   127 net.cpp:238] detection_eval does not need backward computation.
I0401 06:34:03.356559   127 net.cpp:238] detection_out does not need backward computation.
I0401 06:34:03.356564   127 net.cpp:238] mbox_conf_flatten does not need backward computation.
I0401 06:34:03.356568   127 net.cpp:238] mbox_conf_softmax does not need backward computation.
…
