…
I0630 08:32:42.371438   421 net.cpp:323] The NetState phase (0) differed from the phase (1) specified by a rule in layer accuracy-top1
I0630 08:32:42.371441   421 net.cpp:52] Initializing net from parameters: 
name: "alexnetBNnoLRN m2 (as m3 but less DROP and less BN)"
state {
  phase: TRAIN
}
layer {
  name: "data"
  type: "Data"
  top: "data"
  top: "label"
  include {
    phase: TRAIN
  }
  transform_param {
    mirror: true
    crop_size: 227
    mean_value: 106
    mean_value: 116
    mean_value: 124
  }
  data_param {
    source: "input/lmdb/train_lmdb"
    batch_size: 256
    backend: LMDB
  }
}
layer {
  name: "conv1"
  type: "Convolution"
  bottom: "data"
  top: "conv1"
  param {
    lr_mult: 1
    decay_mult: 1
  }
  param {
    lr_mult: 2
    decay_mult: 0
  }
  convolution_param {
    num_output: 96
    pad: 1
    kernel_size: 11
    stride: 4
    weight_filler {
      type: "gaussian"
      std: 0.01
    }
    bias_filler {
      type: "constant"
      value: 0
    }
  }
}
layer {
  name: "bn1"
  type: "BatchNorm"
  bottom: "conv1"
  top: "bn1"
  param {
    lr_mult: 0
  }
  param {
    lr_mult: 0
  }
  param {
    lr_mult: 0
  }
  batch_norm_param {
    use_global_stats: false
  }
}
layer {
  name: "relu1"
  type: "ReLU"
  bottom: "bn1"
  top: "relu1"
}
layer {
  name: "pool1"
  type: "Pooling"
  bottom: "relu1"
  top: "pool1"
  pooling_param {
    pool: MAX
    kernel_size: 3
    stride: 2
  }
}
layer {
  name: "conv2"
  type: "Convolution"
  bottom: "pool1"
  top: "conv2"
  param {
    lr_mult: 1
    decay_mult: 1
  }
  param {
    lr_mult: 2
    decay_mult: 0
  }
  convolution_param {
    num_output: 256
    pad: 2
    kernel_size: 5
    group: 1
    weight_filler {
      type: "gaussian"
      std: 0.01
    }
    bias_filler {
      type: "constant"
      value: 1
    }
  }
}
layer {
  name: "bn2"
  type: "BatchNorm"
  bottom: "conv2"
  top: "bn2"
  param {
    lr_mult: 0
  }
  param {
    lr_mult: 0
  }
  param {
    lr_mult: 0
  }
  batch_norm_param {
    use_global_stats: false
  }
}
layer {
  name: "relu2"
  type: "ReLU"
  bottom: "bn2"
  top: "relu2"
}
layer {
  name: "pool2"
  type: "Pooling"
  bottom: "relu2"
  top: "pool2"
  pooling_param {
    pool: MAX
    kernel_size: 3
    stride: 2
  }
}
layer {
  name: "conv3"
  type: "Convolution"
  bottom: "pool2"
  top: "conv3"
  param {
    lr_mult: 1
    decay_mult: 1
  }
  param {
    lr_mult: 2
    decay_mult: 0
  }
  convolution_param {
    num_output: 384
    pad: 1
    kernel_size: 3
    weight_filler {
      type: "gaussian"
      std: 0.01
    }
    bias_filler {
      type: "constant"
      value: 0
    }
  }
}
layer {
  name: "relu3"
  type: "ReLU"
  bottom: "conv3"
  top: "relu3"
}
layer {
  name: "conv4"
  type: "Convolution"
  bottom: "relu3"
  top: "conv4"
  param {
    lr_mult: 1
    decay_mult: 1
  }
  param {
    lr_mult: 2
    decay_mult: 0
  }
  convolution_param {
    num_output: 384
    pad: 1
    kernel_size: 3
    group: 1
    weight_filler {
      type: "gaussian"
      std: 0.01
    }
    bias_filler {
      type: "constant"
      value: 1
    }
  }
}
layer {
  name: "relu4"
  type: "ReLU"
  bottom: "conv4"
  top: "relu4"
}
layer {
  name: "conv5"
  type: "Convolution"
  bottom: "relu4"
  top: "conv5"
  param {
    lr_mult: 1
    decay_mult: 1
  }
  param {
    lr_mult: 2
    decay_mult: 0
  }
  convolution_param {
    num_output: 256
    pad: 1
    kernel_size: 3
    group: 1
    weight_filler {
      type: "gaussian"
      std: 0.01
    }
    bias_filler {
      type: "constant"
      value: 1
    }
  }
}
layer {
  name: "relu5"
  type: "ReLU"
  bottom: "conv5"
  top: "relu5"
}
layer {
  name: "pool5"
  type: "Pooling"
  bottom: "relu5"
  top: "pool5"
  pooling_param {
    pool: MAX
    kernel_size: 3
    stride: 2
  }
}
layer {
  name: "fc6"
  type: "InnerProduct"
  bottom: "pool5"
  top: "fc6"
  param {
    lr_mult: 1
    decay_mult: 1
  }
  param {
    lr_mult: 2
    decay_mult: 0
  }
  inner_product_param {
    num_output: 4096
    weight_filler {
      type: "gaussian"
      std: 0.005
    }
    bias_filler {
      type: "constant"
      value: 1
    }
  }
}
layer {
  name: "relu6"
  type: "ReLU"
  bottom: "fc6"
  top: "relu6"
}
layer {
  name: "drop6"
  type: "Dropout"
  bottom: "relu6"
  top: "drop6"
  dropout_param {
    dropout_ratio: 0.5
  }
}
layer {
  name: "fc7"
  type: "InnerProduct"
  bottom: "drop6"
  top: "fc7"
  param {
    lr_mult: 1
    decay_mult: 1
  }
  param {
    lr_mult: 2
    decay_mult: 0
  }
  inner_product_param {
    num_output: 4096
    weight_filler {
      type: "gaussian"
      std: 0.005
    }
    bias_filler {
      type: "constant"
      value: 1
    }
  }
}
layer {
  name: "bn7"
  type: "BatchNorm"
  bottom: "fc7"
  top: "bn7"
  param {
    lr_mult: 0
  }
  param {
    lr_mult: 0
  }
  param {
    lr_mult: 0
  }
  batch_norm_param {
    use_global_stats: false
  }
}
layer {
  name: "relu7"
  type: "ReLU"
  bottom: "bn7"
  top: "relu7"
}
layer {
  name: "drop7"
  type: "Dropout"
  bottom: "relu7"
  top: "drop7"
  dropout_param {
    dropout_ratio: 0.5
  }
}
layer {
  name: "fc8"
  type: "InnerProduct"
  bottom: "drop7"
  top: "fc8"
  param {
    lr_mult: 1
    decay_mult: 1
  }
  param {
    lr_mult: 2
    decay_mult: 0
  }
  inner_product_param {
    num_output: 2
    weight_filler {
      type: "gaussian"
      std: 0.01
    }
    bias_filler {
      type: "constant"
      value: 0
    }
  }
}
layer {
  name: "loss"
  type: "SoftmaxWithLoss"
  bottom: "fc8"
  bottom: "label"
  top: "loss"
}
I0630 08:32:42.371620   421 layer_factory.hpp:77] Creating layer data
I0630 08:32:42.371743   421 internal_thread.cpp:27] Starting internal thread(s) on GPU 0
I0630 08:32:42.373153   421 net.cpp:94] Creating Layer data
I0630 08:32:42.373165   421 net.cpp:409] data -> data
I0630 08:32:42.373176   421 net.cpp:409] data -> label
I0630 08:32:42.375329   453 db_lmdb.cpp:35] Opened lmdb input/lmdb/train_lmdb
I0630 08:32:42.375363   453 db_lmdb.cpp:38] Items count: 20000
I0630 08:32:42.376106   453 data_reader.cpp:124] TRAIN: reading data using 1 channel(s)
I0630 08:32:42.377669   421 data_layer.cpp:78] ReshapePrefetch 256, 3, 227, 227
I0630 08:32:42.377743   421 data_layer.cpp:83] output data size: 256,3,227,227
I0630 08:32:42.853139   421 internal_thread.cpp:27] Starting internal thread(s) on GPU 0
I0630 08:32:42.853235   421 net.cpp:144] Setting up data
I0630 08:32:42.853240   421 net.cpp:151] Top shape: 256 3 227 227 (39574272)
I0630 08:32:42.853250   421 net.cpp:151] Top shape: 256 (256)
I0630 08:32:42.853253   421 net.cpp:159] Memory required for data: 158298112
I0630 08:32:42.853258   421 layer_factory.hpp:77] Creating layer conv1
I0630 08:32:42.853274   421 net.cpp:94] Creating Layer conv1
I0630 08:32:42.853284   421 net.cpp:435] conv1 <- data
I0630 08:32:42.853291   421 net.cpp:409] conv1 -> conv1
I0630 08:32:42.853946   421 net.cpp:144] Setting up conv1
I0630 08:32:42.853955   421 net.cpp:151] Top shape: 256 96 55 55 (74342400)
I0630 08:32:42.853963   421 net.cpp:159] Memory required for data: 455667712
I0630 08:32:42.853974   421 layer_factory.hpp:77] Creating layer bn1
I0630 08:32:42.853999   421 net.cpp:94] Creating Layer bn1
I0630 08:32:42.854003   421 net.cpp:435] bn1 <- conv1
I0630 08:32:42.854008   421 net.cpp:409] bn1 -> bn1
I0630 08:32:42.854526   421 net.cpp:144] Setting up bn1
I0630 08:32:42.854533   421 net.cpp:151] Top shape: 256 96 55 55 (74342400)
I0630 08:32:42.854539   421 net.cpp:159] Memory required for data: 753037312
I0630 08:32:42.854548   421 layer_factory.hpp:77] Creating layer relu1
I0630 08:32:42.854554   421 net.cpp:94] Creating Layer relu1
I0630 08:32:42.854558   421 net.cpp:435] relu1 <- bn1
I0630 08:32:42.854562   421 net.cpp:409] relu1 -> relu1
I0630 08:32:42.854581   421 net.cpp:144] Setting up relu1
I0630 08:32:42.854588   421 net.cpp:151] Top shape: 256 96 55 55 (74342400)
I0630 08:32:42.854593   421 net.cpp:159] Memory required for data: 1050406912
I0630 08:32:42.854595   421 layer_factory.hpp:77] Creating layer pool1
I0630 08:32:42.854601   421 net.cpp:94] Creating Layer pool1
I0630 08:32:42.854605   421 net.cpp:435] pool1 <- relu1
I0630 08:32:42.854610   421 net.cpp:409] pool1 -> pool1
I0630 08:32:42.854636   421 net.cpp:144] Setting up pool1
I0630 08:32:42.854641   421 net.cpp:151] Top shape: 256 96 27 27 (17915904)
I0630 08:32:42.854646   421 net.cpp:159] Memory required for data: 1122070528
I0630 08:32:42.854650   421 layer_factory.hpp:77] Creating layer conv2
I0630 08:32:42.854658   421 net.cpp:94] Creating Layer conv2
I0630 08:32:42.854666   421 net.cpp:435] conv2 <- pool1
I0630 08:32:42.854673   421 net.cpp:409] conv2 -> conv2
I0630 08:32:42.870038   421 net.cpp:144] Setting up conv2
I0630 08:32:42.870064   421 net.cpp:151] Top shape: 256 256 27 27 (47775744)
I0630 08:32:42.870074   421 net.cpp:159] Memory required for data: 1313173504
I0630 08:32:42.870085   421 layer_factory.hpp:77] Creating layer bn2
I0630 08:32:42.870095   421 net.cpp:94] Creating Layer bn2
I0630 08:32:42.870098   421 net.cpp:435] bn2 <- conv2
I0630 08:32:42.870105   421 net.cpp:409] bn2 -> bn2
I0630 08:32:42.870599   421 net.cpp:144] Setting up bn2
I0630 08:32:42.870607   421 net.cpp:151] Top shape: 256 256 27 27 (47775744)
I0630 08:32:42.870613   421 net.cpp:159] Memory required for data: 1504276480
I0630 08:32:42.870621   421 layer_factory.hpp:77] Creating layer relu2
I0630 08:32:42.870628   421 net.cpp:94] Creating Layer relu2
I0630 08:32:42.870631   421 net.cpp:435] relu2 <- bn2
I0630 08:32:42.870636   421 net.cpp:409] relu2 -> relu2
I0630 08:32:42.870654   421 net.cpp:144] Setting up relu2
I0630 08:32:42.870661   421 net.cpp:151] Top shape: 256 256 27 27 (47775744)
I0630 08:32:42.870666   421 net.cpp:159] Memory required for data: 1695379456
I0630 08:32:42.870669   421 layer_factory.hpp:77] Creating layer pool2
I0630 08:32:42.870676   421 net.cpp:94] Creating Layer pool2
I0630 08:32:42.870680   421 net.cpp:435] pool2 <- relu2
I0630 08:32:42.870685   421 net.cpp:409] pool2 -> pool2
I0630 08:32:42.870710   421 net.cpp:144] Setting up pool2
I0630 08:32:42.870715   421 net.cpp:151] Top shape: 256 256 13 13 (11075584)
I0630 08:32:42.870720   421 net.cpp:159] Memory required for data: 1739681792
I0630 08:32:42.870724   421 layer_factory.hpp:77] Creating layer conv3
I0630 08:32:42.870733   421 net.cpp:94] Creating Layer conv3
I0630 08:32:42.870735   421 net.cpp:435] conv3 <- pool2
I0630 08:32:42.870740   421 net.cpp:409] conv3 -> conv3
I0630 08:32:42.879232   482 blocking_queue.cpp:50] Waiting for data
I0630 08:32:42.881603   421 net.cpp:144] Setting up conv3
I0630 08:32:42.881623   421 net.cpp:151] Top shape: 256 384 13 13 (16613376)
I0630 08:32:42.881634   421 net.cpp:159] Memory required for data: 1806135296
I0630 08:32:42.881645   421 layer_factory.hpp:77] Creating layer relu3
I0630 08:32:42.881655   421 net.cpp:94] Creating Layer relu3
I0630 08:32:42.881661   421 net.cpp:435] relu3 <- conv3
I0630 08:32:42.881669   421 net.cpp:409] relu3 -> relu3
I0630 08:32:42.881700   421 net.cpp:144] Setting up relu3
I0630 08:32:42.881705   421 net.cpp:151] Top shape: 256 384 13 13 (16613376)
I0630 08:32:42.881711   421 net.cpp:159] Memory required for data: 1872588800
I0630 08:32:42.881731   421 layer_factory.hpp:77] Creating layer conv4
I0630 08:32:42.881742   421 net.cpp:94] Creating Layer conv4
I0630 08:32:42.881745   421 net.cpp:435] conv4 <- relu3
I0630 08:32:42.881752   421 net.cpp:409] conv4 -> conv4
I0630 08:32:42.895478   421 net.cpp:144] Setting up conv4
I0630 08:32:42.895496   421 net.cpp:151] Top shape: 256 384 13 13 (16613376)
I0630 08:32:42.895505   421 net.cpp:159] Memory required for data: 1939042304
I0630 08:32:42.895534   421 layer_factory.hpp:77] Creating layer relu4
I0630 08:32:42.895541   421 net.cpp:94] Creating Layer relu4
I0630 08:32:42.895550   421 net.cpp:435] relu4 <- conv4
I0630 08:32:42.895556   421 net.cpp:409] relu4 -> relu4
I0630 08:32:42.895578   421 net.cpp:144] Setting up relu4
I0630 08:32:42.895581   421 net.cpp:151] Top shape: 256 384 13 13 (16613376)
I0630 08:32:42.895586   421 net.cpp:159] Memory required for data: 2005495808
I0630 08:32:42.895589   421 layer_factory.hpp:77] Creating layer conv5
I0630 08:32:42.895597   421 net.cpp:94] Creating Layer conv5
I0630 08:32:42.895601   421 net.cpp:435] conv5 <- relu4
I0630 08:32:42.895606   421 net.cpp:409] conv5 -> conv5
I0630 08:32:42.903977   421 net.cpp:144] Setting up conv5
I0630 08:32:42.903995   421 net.cpp:151] Top shape: 256 256 13 13 (11075584)
I0630 08:32:42.904002   421 net.cpp:159] Memory required for data: 2049798144
I0630 08:32:42.904027   421 layer_factory.hpp:77] Creating layer relu5
I0630 08:32:42.904034   421 net.cpp:94] Creating Layer relu5
I0630 08:32:42.904039   421 net.cpp:435] relu5 <- conv5
I0630 08:32:42.904044   421 net.cpp:409] relu5 -> relu5
I0630 08:32:42.904064   421 net.cpp:144] Setting up relu5
I0630 08:32:42.904067   421 net.cpp:151] Top shape: 256 256 13 13 (11075584)
I0630 08:32:42.904070   421 net.cpp:159] Memory required for data: 2094100480
I0630 08:32:42.904073   421 layer_factory.hpp:77] Creating layer pool5
I0630 08:32:42.904078   421 net.cpp:94] Creating Layer pool5
I0630 08:32:42.904081   421 net.cpp:435] pool5 <- relu5
I0630 08:32:42.904085   421 net.cpp:409] pool5 -> pool5
I0630 08:32:42.904106   421 net.cpp:144] Setting up pool5
I0630 08:32:42.904110   421 net.cpp:151] Top shape: 256 256 6 6 (2359296)
I0630 08:32:42.904114   421 net.cpp:159] Memory required for data: 2103537664
I0630 08:32:42.904117   421 layer_factory.hpp:77] Creating layer fc6
I0630 08:32:42.904130   421 net.cpp:94] Creating Layer fc6
I0630 08:32:42.904134   421 net.cpp:435] fc6 <- pool5
I0630 08:32:42.904139   421 net.cpp:409] fc6 -> fc6
I0630 08:32:43.218415   421 net.cpp:144] Setting up fc6
I0630 08:32:43.218436   421 net.cpp:151] Top shape: 256 4096 (1048576)
I0630 08:32:43.218446   421 net.cpp:159] Memory required for data: 2107731968
I0630 08:32:43.218456   421 layer_factory.hpp:77] Creating layer relu6
I0630 08:32:43.218463   421 net.cpp:94] Creating Layer relu6
I0630 08:32:43.218468   421 net.cpp:435] relu6 <- fc6
I0630 08:32:43.218475   421 net.cpp:409] relu6 -> relu6
I0630 08:32:43.218492   421 net.cpp:144] Setting up relu6
I0630 08:32:43.218497   421 net.cpp:151] Top shape: 256 4096 (1048576)
I0630 08:32:43.218500   421 net.cpp:159] Memory required for data: 2111926272
I0630 08:32:43.218503   421 layer_factory.hpp:77] Creating layer drop6
I0630 08:32:43.218516   421 net.cpp:94] Creating Layer drop6
I0630 08:32:43.218520   421 net.cpp:435] drop6 <- relu6
I0630 08:32:43.218524   421 net.cpp:409] drop6 -> drop6
I0630 08:32:43.218544   421 net.cpp:144] Setting up drop6
I0630 08:32:43.218547   421 net.cpp:151] Top shape: 256 4096 (1048576)
I0630 08:32:43.218551   421 net.cpp:159] Memory required for data: 2116120576
I0630 08:32:43.218554   421 layer_factory.hpp:77] Creating layer fc7
I0630 08:32:43.218560   421 net.cpp:94] Creating Layer fc7
I0630 08:32:43.218564   421 net.cpp:435] fc7 <- drop6
I0630 08:32:43.218567   421 net.cpp:409] fc7 -> fc7
I0630 08:32:43.358603   421 net.cpp:144] Setting up fc7
I0630 08:32:43.358628   421 net.cpp:151] Top shape: 256 4096 (1048576)
I0630 08:32:43.358635   421 net.cpp:159] Memory required for data: 2120314880
I0630 08:32:43.358682   421 layer_factory.hpp:77] Creating layer bn7
I0630 08:32:43.358693   421 net.cpp:94] Creating Layer bn7
I0630 08:32:43.358698   421 net.cpp:435] bn7 <- fc7
I0630 08:32:43.358705   421 net.cpp:409] bn7 -> bn7
I0630 08:32:43.359164   421 net.cpp:144] Setting up bn7
I0630 08:32:43.359172   421 net.cpp:151] Top shape: 256 4096 (1048576)
I0630 08:32:43.359177   421 net.cpp:159] Memory required for data: 2124509184
I0630 08:32:43.359186   421 layer_factory.hpp:77] Creating layer relu7
I0630 08:32:43.359192   421 net.cpp:94] Creating Layer relu7
I0630 08:32:43.359195   421 net.cpp:435] relu7 <- bn7
I0630 08:32:43.359201   421 net.cpp:409] relu7 -> relu7
I0630 08:32:43.359216   421 net.cpp:144] Setting up relu7
I0630 08:32:43.359222   421 net.cpp:151] Top shape: 256 4096 (1048576)
I0630 08:32:43.359226   421 net.cpp:159] Memory required for data: 2128703488
I0630 08:32:43.359230   421 layer_factory.hpp:77] Creating layer drop7
I0630 08:32:43.359236   421 net.cpp:94] Creating Layer drop7
I0630 08:32:43.359238   421 net.cpp:435] drop7 <- relu7
I0630 08:32:43.359242   421 net.cpp:409] drop7 -> drop7
I0630 08:32:43.359262   421 net.cpp:144] Setting up drop7
I0630 08:32:43.359267   421 net.cpp:151] Top shape: 256 4096 (1048576)
I0630 08:32:43.359272   421 net.cpp:159] Memory required for data: 2132897792
I0630 08:32:43.359275   421 layer_factory.hpp:77] Creating layer fc8
I0630 08:32:43.359282   421 net.cpp:94] Creating Layer fc8
I0630 08:32:43.359284   421 net.cpp:435] fc8 <- drop7
I0630 08:32:43.359288   421 net.cpp:409] fc8 -> fc8
I0630 08:32:43.359455   421 net.cpp:144] Setting up fc8
I0630 08:32:43.359462   421 net.cpp:151] Top shape: 256 2 (512)
I0630 08:32:43.359467   421 net.cpp:159] Memory required for data: 2132899840
I0630 08:32:43.359472   421 layer_factory.hpp:77] Creating layer loss
I0630 08:32:43.359484   421 net.cpp:94] Creating Layer loss
I0630 08:32:43.359490   421 net.cpp:435] loss <- fc8
I0630 08:32:43.359494   421 net.cpp:435] loss <- label
I0630 08:32:43.359498   421 net.cpp:409] loss -> loss
I0630 08:32:43.359508   421 layer_factory.hpp:77] Creating layer loss
…
I0630 08:32:43.360110   421 net.cpp:323] The NetState phase (1) differed from the phase (0) specified by a rule in layer data
I0630 08:32:43.360123   421 net.cpp:52] Initializing net from parameters: 
name: "alexnetBNnoLRN m2 (as m3 but less DROP and less BN)"
state {
  phase: TEST
}
layer {
  name: "data"
  type: "Data"
  top: "data"
  top: "label"
  include {
    phase: TEST
  }
  transform_param {
    mirror: false
    crop_size: 227
    mean_value: 106
    mean_value: 116
    mean_value: 124
  }
  data_param {
    source: "input/lmdb/valid_lmdb"
    batch_size: 50
    backend: LMDB
  }
}
layer {
  name: "conv1"
  type: "Convolution"
  bottom: "data"
  top: "conv1"
  param {
    lr_mult: 1
    decay_mult: 1
  }
  param {
    lr_mult: 2
    decay_mult: 0
  }
  convolution_param {
    num_output: 96
    pad: 1
    kernel_size: 11
    stride: 4
    weight_filler {
      type: "gaussian"
      std: 0.01
    }
    bias_filler {
      type: "constant"
      value: 0
    }
  }
}
layer {
  name: "bn1"
  type: "BatchNorm"
  bottom: "conv1"
  top: "bn1"
  param {
    lr_mult: 0
  }
  param {
    lr_mult: 0
  }
  param {
    lr_mult: 0
  }
  batch_norm_param {
    use_global_stats: false
  }
}
layer {
  name: "relu1"
  type: "ReLU"
  bottom: "bn1"
  top: "relu1"
}
layer {
  name: "pool1"
  type: "Pooling"
  bottom: "relu1"
  top: "pool1"
  pooling_param {
    pool: MAX
    kernel_size: 3
    stride: 2
  }
}
layer {
  name: "conv2"
  type: "Convolution"
  bottom: "pool1"
  top: "conv2"
  param {
    lr_mult: 1
    decay_mult: 1
  }
  param {
    lr_mult: 2
    decay_mult: 0
  }
  convolution_param {
    num_output: 256
    pad: 2
    kernel_size: 5
    group: 1
    weight_filler {
      type: "gaussian"
      std: 0.01
    }
    bias_filler {
      type: "constant"
      value: 1
    }
  }
}
layer {
  name: "bn2"
  type: "BatchNorm"
  bottom: "conv2"
  top: "bn2"
  param {
    lr_mult: 0
  }
  param {
    lr_mult: 0
  }
  param {
    lr_mult: 0
  }
  batch_norm_param {
    use_global_stats: false
  }
}
layer {
  name: "relu2"
  type: "ReLU"
  bottom: "bn2"
  top: "relu2"
}
layer {
  name: "pool2"
  type: "Pooling"
  bottom: "relu2"
  top: "pool2"
  pooling_param {
    pool: MAX
    kernel_size: 3
    stride: 2
  }
}
layer {
  name: "conv3"
  type: "Convolution"
  bottom: "pool2"
  top: "conv3"
  param {
    lr_mult: 1
    decay_mult: 1
  }
  param {
    lr_mult: 2
    decay_mult: 0
  }
  convolution_param {
    num_output: 384
    pad: 1
    kernel_size: 3
    weight_filler {
      type: "gaussian"
      std: 0.01
    }
    bias_filler {
      type: "constant"
      value: 0
    }
  }
}
layer {
  name: "relu3"
  type: "ReLU"
  bottom: "conv3"
  top: "relu3"
}
layer {
  name: "conv4"
  type: "Convolution"
  bottom: "relu3"
  top: "conv4"
  param {
    lr_mult: 1
    decay_mult: 1
  }
  param {
    lr_mult: 2
    decay_mult: 0
  }
  convolution_param {
    num_output: 384
    pad: 1
    kernel_size: 3
    group: 1
    weight_filler {
      type: "gaussian"
      std: 0.01
    }
    bias_filler {
      type: "constant"
      value: 1
    }
  }
}
layer {
  name: "relu4"
  type: "ReLU"
  bottom: "conv4"
  top: "relu4"
}
layer {
  name: "conv5"
  type: "Convolution"
  bottom: "relu4"
  top: "conv5"
  param {
    lr_mult: 1
    decay_mult: 1
  }
  param {
    lr_mult: 2
    decay_mult: 0
  }
  convolution_param {
    num_output: 256
    pad: 1
    kernel_size: 3
    group: 1
    weight_filler {
      type: "gaussian"
      std: 0.01
    }
    bias_filler {
      type: "constant"
      value: 1
    }
  }
}
layer {
  name: "relu5"
  type: "ReLU"
  bottom: "conv5"
  top: "relu5"
}
layer {
  name: "pool5"
  type: "Pooling"
  bottom: "relu5"
  top: "pool5"
  pooling_param {
    pool: MAX
    kernel_size: 3
    stride: 2
  }
}
layer {
  name: "fc6"
  type: "InnerProduct"
  bottom: "pool5"
  top: "fc6"
  param {
    lr_mult: 1
    decay_mult: 1
  }
  param {
    lr_mult: 2
    decay_mult: 0
  }
  inner_product_param {
    num_output: 4096
    weight_filler {
      type: "gaussian"
      std: 0.005
    }
    bias_filler {
      type: "constant"
      value: 1
    }
  }
}
layer {
  name: "relu6"
  type: "ReLU"
  bottom: "fc6"
  top: "relu6"
}
layer {
  name: "drop6"
  type: "Dropout"
  bottom: "relu6"
  top: "drop6"
  dropout_param {
    dropout_ratio: 0.5
  }
}
layer {
  name: "fc7"
  type: "InnerProduct"
  bottom: "drop6"
  top: "fc7"
  param {
    lr_mult: 1
    decay_mult: 1
  }
  param {
    lr_mult: 2
    decay_mult: 0
  }
  inner_product_param {
    num_output: 4096
    weight_filler {
      type: "gaussian"
      std: 0.005
    }
    bias_filler {
      type: "constant"
      value: 1
    }
  }
}
layer {
  name: "bn7"
  type: "BatchNorm"
  bottom: "fc7"
  top: "bn7"
  param {
    lr_mult: 0
  }
  param {
    lr_mult: 0
  }
  param {
    lr_mult: 0
  }
  batch_norm_param {
    use_global_stats: false
  }
}
layer {
  name: "relu7"
  type: "ReLU"
  bottom: "bn7"
  top: "relu7"
}
layer {
  name: "drop7"
  type: "Dropout"
  bottom: "relu7"
  top: "drop7"
  dropout_param {
    dropout_ratio: 0.5
  }
}
layer {
  name: "fc8"
  type: "InnerProduct"
  bottom: "drop7"
  top: "fc8"
  param {
    lr_mult: 1
    decay_mult: 1
  }
  param {
    lr_mult: 2
    decay_mult: 0
  }
  inner_product_param {
    num_output: 2
    weight_filler {
      type: "gaussian"
      std: 0.01
    }
    bias_filler {
      type: "constant"
      value: 0
    }
  }
}
layer {
  name: "accuracy"
  type: "Accuracy"
  bottom: "fc8"
  bottom: "label"
  top: "accuracy"
  include {
    phase: TEST
  }
}
layer {
  name: "loss"
  type: "SoftmaxWithLoss"
  bottom: "fc8"
  bottom: "label"
  top: "loss"
}
layer {
  name: "accuracy-top1"
  type: "Accuracy"
  bottom: "fc8"
  bottom: "label"
  top: "top-1"
  include {
    phase: TEST
  }
}
I0630 08:32:43.360342   421 layer_factory.hpp:77] Creating layer data
I0630 08:32:43.360383   421 internal_thread.cpp:27] Starting internal thread(s) on GPU 0
I0630 08:32:43.361969   421 net.cpp:94] Creating Layer data
I0630 08:32:43.361982   421 net.cpp:409] data -> data
I0630 08:32:43.361994   421 net.cpp:409] data -> label
I0630 08:32:43.364181   483 db_lmdb.cpp:35] Opened lmdb input/lmdb/valid_lmdb
I0630 08:32:43.364203   483 db_lmdb.cpp:38] Items count: 4000
I0630 08:32:43.364224   483 data_reader.cpp:124] TEST: reading data using 1 channel(s)
I0630 08:32:43.364516   421 data_layer.cpp:78] ReshapePrefetch 50, 3, 227, 227
I0630 08:32:43.364609   421 data_layer.cpp:83] output data size: 50,3,227,227
I0630 08:32:43.464387   421 internal_thread.cpp:27] Starting internal thread(s) on GPU 0
I0630 08:32:43.464465   421 net.cpp:144] Setting up data
I0630 08:32:43.464473   421 net.cpp:151] Top shape: 50 3 227 227 (7729350)
I0630 08:32:43.464483   421 net.cpp:151] Top shape: 50 (50)
I0630 08:32:43.464486   421 net.cpp:159] Memory required for data: 30917600
I0630 08:32:43.464493   421 layer_factory.hpp:77] Creating layer label_data_1_split
I0630 08:32:43.464504   421 net.cpp:94] Creating Layer label_data_1_split
I0630 08:32:43.464507   421 net.cpp:435] label_data_1_split <- label
I0630 08:32:43.464530   421 net.cpp:409] label_data_1_split -> label_data_1_split_0
I0630 08:32:43.464540   421 net.cpp:409] label_data_1_split -> label_data_1_split_1
I0630 08:32:43.464546   421 net.cpp:409] label_data_1_split -> label_data_1_split_2
I0630 08:32:43.464612   421 net.cpp:144] Setting up label_data_1_split
I0630 08:32:43.464617   421 net.cpp:151] Top shape: 50 (50)
I0630 08:32:43.464622   421 net.cpp:151] Top shape: 50 (50)
I0630 08:32:43.464624   421 net.cpp:151] Top shape: 50 (50)
I0630 08:32:43.464628   421 net.cpp:159] Memory required for data: 30918200
I0630 08:32:43.464632   421 layer_factory.hpp:77] Creating layer conv1
I0630 08:32:43.464656   421 net.cpp:94] Creating Layer conv1
I0630 08:32:43.464663   421 net.cpp:435] conv1 <- data
I0630 08:32:43.464666   421 net.cpp:409] conv1 -> conv1
I0630 08:32:43.465235   421 net.cpp:144] Setting up conv1
I0630 08:32:43.465245   421 net.cpp:151] Top shape: 50 96 55 55 (14520000)
I0630 08:32:43.465252   421 net.cpp:159] Memory required for data: 88998200
I0630 08:32:43.465261   421 layer_factory.hpp:77] Creating layer bn1
I0630 08:32:43.465270   421 net.cpp:94] Creating Layer bn1
I0630 08:32:43.465273   421 net.cpp:435] bn1 <- conv1
I0630 08:32:43.465279   421 net.cpp:409] bn1 -> bn1
I0630 08:32:43.465816   421 net.cpp:144] Setting up bn1
I0630 08:32:43.465823   421 net.cpp:151] Top shape: 50 96 55 55 (14520000)
I0630 08:32:43.465829   421 net.cpp:159] Memory required for data: 147078200
I0630 08:32:43.465838   421 layer_factory.hpp:77] Creating layer relu1
I0630 08:32:43.465845   421 net.cpp:94] Creating Layer relu1
I0630 08:32:43.465849   421 net.cpp:435] relu1 <- bn1
I0630 08:32:43.465853   421 net.cpp:409] relu1 -> relu1
I0630 08:32:43.465870   421 net.cpp:144] Setting up relu1
I0630 08:32:43.465875   421 net.cpp:151] Top shape: 50 96 55 55 (14520000)
I0630 08:32:43.465880   421 net.cpp:159] Memory required for data: 205158200
I0630 08:32:43.465884   421 layer_factory.hpp:77] Creating layer pool1
I0630 08:32:43.465890   421 net.cpp:94] Creating Layer pool1
I0630 08:32:43.465893   421 net.cpp:435] pool1 <- relu1
I0630 08:32:43.465898   421 net.cpp:409] pool1 -> pool1
I0630 08:32:43.465921   421 net.cpp:144] Setting up pool1
I0630 08:32:43.465926   421 net.cpp:151] Top shape: 50 96 27 27 (3499200)
I0630 08:32:43.465931   421 net.cpp:159] Memory required for data: 219155000
I0630 08:32:43.465934   421 layer_factory.hpp:77] Creating layer conv2
I0630 08:32:43.465943   421 net.cpp:94] Creating Layer conv2
I0630 08:32:43.465947   421 net.cpp:435] conv2 <- pool1
I0630 08:32:43.465955   421 net.cpp:409] conv2 -> conv2
I0630 08:32:43.475447   421 net.cpp:144] Setting up conv2
I0630 08:32:43.475466   421 net.cpp:151] Top shape: 50 256 27 27 (9331200)
I0630 08:32:43.475476   421 net.cpp:159] Memory required for data: 256479800
I0630 08:32:43.475487   421 layer_factory.hpp:77] Creating layer bn2
I0630 08:32:43.475499   421 net.cpp:94] Creating Layer bn2
I0630 08:32:43.475503   421 net.cpp:435] bn2 <- conv2
I0630 08:32:43.475512   421 net.cpp:409] bn2 -> bn2
I0630 08:32:43.486677   421 net.cpp:144] Setting up bn2
I0630 08:32:43.486686   421 net.cpp:151] Top shape: 50 256 27 27 (9331200)
I0630 08:32:43.486692   421 net.cpp:159] Memory required for data: 293804600
I0630 08:32:43.486701   421 layer_factory.hpp:77] Creating layer relu2
I0630 08:32:43.486708   421 net.cpp:94] Creating Layer relu2
I0630 08:32:43.486712   421 net.cpp:435] relu2 <- bn2
I0630 08:32:43.486717   421 net.cpp:409] relu2 -> relu2
I0630 08:32:43.486734   421 net.cpp:144] Setting up relu2
I0630 08:32:43.486740   421 net.cpp:151] Top shape: 50 256 27 27 (9331200)
I0630 08:32:43.486747   421 net.cpp:159] Memory required for data: 331129400
I0630 08:32:43.486749   421 layer_factory.hpp:77] Creating layer pool2
I0630 08:32:43.486754   421 net.cpp:94] Creating Layer pool2
I0630 08:32:43.486757   421 net.cpp:435] pool2 <- relu2
I0630 08:32:43.486762   421 net.cpp:409] pool2 -> pool2
I0630 08:32:43.501312   421 net.cpp:144] Setting up pool2
I0630 08:32:43.501333   421 net.cpp:151] Top shape: 50 256 13 13 (2163200)
I0630 08:32:43.501344   421 net.cpp:159] Memory required for data: 339782200
I0630 08:32:43.501350   421 layer_factory.hpp:77] Creating layer conv3
I0630 08:32:43.501366   421 net.cpp:94] Creating Layer conv3
I0630 08:32:43.501372   421 net.cpp:435] conv3 <- pool2
I0630 08:32:43.501381   421 net.cpp:409] conv3 -> conv3
I0630 08:32:43.511909   421 net.cpp:144] Setting up conv3
I0630 08:32:43.511932   421 net.cpp:151] Top shape: 50 384 13 13 (3244800)
I0630 08:32:43.511943   421 net.cpp:159] Memory required for data: 352761400
I0630 08:32:43.511953   421 layer_factory.hpp:77] Creating layer relu3
I0630 08:32:43.511963   421 net.cpp:94] Creating Layer relu3
I0630 08:32:43.511989   421 net.cpp:435] relu3 <- conv3
I0630 08:32:43.511997   421 net.cpp:409] relu3 -> relu3
I0630 08:32:43.512023   421 net.cpp:144] Setting up relu3
I0630 08:32:43.512027   421 net.cpp:151] Top shape: 50 384 13 13 (3244800)
I0630 08:32:43.512032   421 net.cpp:159] Memory required for data: 365740600
I0630 08:32:43.512037   421 layer_factory.hpp:77] Creating layer conv4
I0630 08:32:43.512049   421 net.cpp:94] Creating Layer conv4
I0630 08:32:43.512059   421 net.cpp:435] conv4 <- relu3
I0630 08:32:43.512064   421 net.cpp:409] conv4 -> conv4
I0630 08:32:43.525939   421 net.cpp:144] Setting up conv4
I0630 08:32:43.525967   421 net.cpp:151] Top shape: 50 384 13 13 (3244800)
I0630 08:32:43.525990   421 net.cpp:159] Memory required for data: 378719800
I0630 08:32:43.526003   421 layer_factory.hpp:77] Creating layer relu4
I0630 08:32:43.526029   421 net.cpp:94] Creating Layer relu4
I0630 08:32:43.526036   421 net.cpp:435] relu4 <- conv4
I0630 08:32:43.526062   421 net.cpp:409] relu4 -> relu4
I0630 08:32:43.526089   421 net.cpp:144] Setting up relu4
I0630 08:32:43.526095   421 net.cpp:151] Top shape: 50 384 13 13 (3244800)
I0630 08:32:43.526116   421 net.cpp:159] Memory required for data: 391699000
I0630 08:32:43.526119   421 layer_factory.hpp:77] Creating layer conv5
I0630 08:32:43.526129   421 net.cpp:94] Creating Layer conv5
I0630 08:32:43.526137   421 net.cpp:435] conv5 <- relu4
I0630 08:32:43.526154   421 net.cpp:409] conv5 -> conv5
I0630 08:32:43.538123   421 net.cpp:144] Setting up conv5
I0630 08:32:43.538144   421 net.cpp:151] Top shape: 50 256 13 13 (2163200)
I0630 08:32:43.538154   421 net.cpp:159] Memory required for data: 400351800
I0630 08:32:43.538182   421 layer_factory.hpp:77] Creating layer relu5
I0630 08:32:43.538192   421 net.cpp:94] Creating Layer relu5
I0630 08:32:43.538197   421 net.cpp:435] relu5 <- conv5
I0630 08:32:43.538208   421 net.cpp:409] relu5 -> relu5
I0630 08:32:43.538254   421 net.cpp:144] Setting up relu5
I0630 08:32:43.538257   421 net.cpp:151] Top shape: 50 256 13 13 (2163200)
I0630 08:32:43.538262   421 net.cpp:159] Memory required for data: 409004600
I0630 08:32:43.538265   421 layer_factory.hpp:77] Creating layer pool5
I0630 08:32:43.538275   421 net.cpp:94] Creating Layer pool5
I0630 08:32:43.538278   421 net.cpp:435] pool5 <- relu5
I0630 08:32:43.538285   421 net.cpp:409] pool5 -> pool5
I0630 08:32:43.538316   421 net.cpp:144] Setting up pool5
I0630 08:32:43.538323   421 net.cpp:151] Top shape: 50 256 6 6 (460800)
I0630 08:32:43.538331   421 net.cpp:159] Memory required for data: 410847800
I0630 08:32:43.538336   421 layer_factory.hpp:77] Creating layer fc6
I0630 08:32:43.538348   421 net.cpp:94] Creating Layer fc6
I0630 08:32:43.538353   421 net.cpp:435] fc6 <- pool5
I0630 08:32:43.538360   421 net.cpp:409] fc6 -> fc6
I0630 08:32:43.858247   421 net.cpp:144] Setting up fc6
I0630 08:32:43.858268   421 net.cpp:151] Top shape: 50 4096 (204800)
I0630 08:32:43.858275   421 net.cpp:159] Memory required for data: 411667000
I0630 08:32:43.858301   421 layer_factory.hpp:77] Creating layer relu6
I0630 08:32:43.858310   421 net.cpp:94] Creating Layer relu6
I0630 08:32:43.858315   421 net.cpp:435] relu6 <- fc6
I0630 08:32:43.858323   421 net.cpp:409] relu6 -> relu6
I0630 08:32:43.858350   421 net.cpp:144] Setting up relu6
I0630 08:32:43.858352   421 net.cpp:151] Top shape: 50 4096 (204800)
I0630 08:32:43.858355   421 net.cpp:159] Memory required for data: 412486200
I0630 08:32:43.858359   421 layer_factory.hpp:77] Creating layer drop6
I0630 08:32:43.858364   421 net.cpp:94] Creating Layer drop6
I0630 08:32:43.858368   421 net.cpp:435] drop6 <- relu6
I0630 08:32:43.858372   421 net.cpp:409] drop6 -> drop6
I0630 08:32:43.858395   421 net.cpp:144] Setting up drop6
I0630 08:32:43.858400   421 net.cpp:151] Top shape: 50 4096 (204800)
I0630 08:32:43.858405   421 net.cpp:159] Memory required for data: 413305400
I0630 08:32:43.858410   421 layer_factory.hpp:77] Creating layer fc7
I0630 08:32:43.858419   421 net.cpp:94] Creating Layer fc7
I0630 08:32:43.858422   421 net.cpp:435] fc7 <- drop6
I0630 08:32:43.858464   421 net.cpp:409] fc7 -> fc7
I0630 08:32:44.010402   421 net.cpp:144] Setting up fc7
I0630 08:32:44.010426   421 net.cpp:151] Top shape: 50 4096 (204800)
I0630 08:32:44.010435   421 net.cpp:159] Memory required for data: 414124600
I0630 08:32:44.010445   421 layer_factory.hpp:77] Creating layer bn7
I0630 08:32:44.010457   421 net.cpp:94] Creating Layer bn7
I0630 08:32:44.010462   421 net.cpp:435] bn7 <- fc7
I0630 08:32:44.010468   421 net.cpp:409] bn7 -> bn7
I0630 08:32:44.010955   421 net.cpp:144] Setting up bn7
I0630 08:32:44.010964   421 net.cpp:151] Top shape: 50 4096 (204800)
I0630 08:32:44.010970   421 net.cpp:159] Memory required for data: 414943800
I0630 08:32:44.010978   421 layer_factory.hpp:77] Creating layer relu7
I0630 08:32:44.010983   421 net.cpp:94] Creating Layer relu7
I0630 08:32:44.010987   421 net.cpp:435] relu7 <- bn7
I0630 08:32:44.010993   421 net.cpp:409] relu7 -> relu7
I0630 08:32:44.011009   421 net.cpp:144] Setting up relu7
I0630 08:32:44.011014   421 net.cpp:151] Top shape: 50 4096 (204800)
I0630 08:32:44.011018   421 net.cpp:159] Memory required for data: 415763000
I0630 08:32:44.011023   421 layer_factory.hpp:77] Creating layer drop7
I0630 08:32:44.011029   421 net.cpp:94] Creating Layer drop7
I0630 08:32:44.011034   421 net.cpp:435] drop7 <- relu7
I0630 08:32:44.011041   421 net.cpp:409] drop7 -> drop7
I0630 08:32:44.011071   421 net.cpp:144] Setting up drop7
I0630 08:32:44.011078   421 net.cpp:151] Top shape: 50 4096 (204800)
I0630 08:32:44.011083   421 net.cpp:159] Memory required for data: 416582200
I0630 08:32:44.011088   421 layer_factory.hpp:77] Creating layer fc8
I0630 08:32:44.011097   421 net.cpp:94] Creating Layer fc8
I0630 08:32:44.011102   421 net.cpp:435] fc8 <- drop7
I0630 08:32:44.011111   421 net.cpp:409] fc8 -> fc8
I0630 08:32:44.011301   421 net.cpp:144] Setting up fc8
I0630 08:32:44.011308   421 net.cpp:151] Top shape: 50 2 (100)
I0630 08:32:44.011313   421 net.cpp:159] Memory required for data: 416582600
I0630 08:32:44.011319   421 layer_factory.hpp:77] Creating layer fc8_fc8_0_split
I0630 08:32:44.011325   421 net.cpp:94] Creating Layer fc8_fc8_0_split
I0630 08:32:44.011328   421 net.cpp:435] fc8_fc8_0_split <- fc8
I0630 08:32:44.011333   421 net.cpp:409] fc8_fc8_0_split -> fc8_fc8_0_split_0
I0630 08:32:44.011339   421 net.cpp:409] fc8_fc8_0_split -> fc8_fc8_0_split_1
I0630 08:32:44.011344   421 net.cpp:409] fc8_fc8_0_split -> fc8_fc8_0_split_2
I0630 08:32:44.011380   421 net.cpp:144] Setting up fc8_fc8_0_split
I0630 08:32:44.011387   421 net.cpp:151] Top shape: 50 2 (100)
I0630 08:32:44.011394   421 net.cpp:151] Top shape: 50 2 (100)
I0630 08:32:44.011399   421 net.cpp:151] Top shape: 50 2 (100)
I0630 08:32:44.011405   421 net.cpp:159] Memory required for data: 416583800
I0630 08:32:44.011410   421 layer_factory.hpp:77] Creating layer accuracy
I0630 08:32:44.011420   421 net.cpp:94] Creating Layer accuracy
I0630 08:32:44.011425   421 net.cpp:435] accuracy <- fc8_fc8_0_split_0
I0630 08:32:44.011432   421 net.cpp:435] accuracy <- label_data_1_split_0
I0630 08:32:44.011440   421 net.cpp:409] accuracy -> accuracy
…
