…
I0318 06:03:20.571985   633 net.cpp:369] The NetState phase (0) differed from the phase (1) specified by a rule in layer accuracy-top1
I0318 06:03:20.571990   633 net.cpp:98] Initializing net from parameters: 
name: "alexnetBNnoLRN m2 (as m3 but less DROP and less BN)"
state {
  phase: TRAIN
}
layer {
  name: "data"
  type: "Data"
  top: "data"
  top: "label"
  include {
    phase: TRAIN
  }
  transform_param {
    mirror: true
    crop_size: 227
    mean_value: 106
    mean_value: 116
    mean_value: 124
  }
  data_param {
    source: "input/lmdb/train_lmdb"
    batch_size: 256
    backend: LMDB
  }
}
layer {
  name: "conv1"
  type: "Convolution"
  bottom: "data"
  top: "conv1"
  param {
    lr_mult: 1
    decay_mult: 1
  }
  param {
    lr_mult: 2
    decay_mult: 0
  }
  convolution_param {
    num_output: 96
    pad: 1
    kernel_size: 11
    stride: 4
    weight_filler {
      type: "gaussian"
      std: 0.01
    }
    bias_filler {
      type: "constant"
      value: 0
    }
  }
}
layer {
  name: "bn1"
  type: "BatchNorm"
  bottom: "conv1"
  top: "bn1"
  param {
    lr_mult: 0
  }
  param {
    lr_mult: 0
  }
  param {
    lr_mult: 0
  }
  batch_norm_param {
    use_global_stats: false
  }
}
layer {
  name: "relu1"
  type: "ReLU"
  bottom: "bn1"
  top: "relu1"
}
layer {
  name: "pool1"
  type: "Pooling"
  bottom: "relu1"
  top: "pool1"
  pooling_param {
    pool: MAX
    kernel_size: 3
    stride: 2
  }
}
layer {
  name: "conv2"
  type: "Convolution"
  bottom: "pool1"
  top: "conv2"
  param {
    lr_mult: 1
    decay_mult: 1
  }
  param {
    lr_mult: 2
    decay_mult: 0
  }
  convolution_param {
    num_output: 256
    pad: 2
    kernel_size: 5
    group: 1
    weight_filler {
      type: "gaussian"
      std: 0.01
    }
    bias_filler {
      type: "constant"
      value: 1
    }
  }
}
layer {
  name: "bn2"
  type: "BatchNorm"
  bottom: "conv2"
  top: "bn2"
  param {
    lr_mult: 0
  }
  param {
    lr_mult: 0
  }
  param {
    lr_mult: 0
  }
  batch_norm_param {
    use_global_stats: false
  }
}
layer {
  name: "relu2"
  type: "ReLU"
  bottom: "bn2"
  top: "relu2"
}
layer {
  name: "pool2"
  type: "Pooling"
  bottom: "relu2"
  top: "pool2"
  pooling_param {
    pool: MAX
    kernel_size: 3
    stride: 2
  }
}
layer {
  name: "conv3"
  type: "Convolution"
  bottom: "pool2"
  top: "conv3"
  param {
    lr_mult: 1
    decay_mult: 1
  }
  param {
    lr_mult: 2
    decay_mult: 0
  }
  convolution_param {
    num_output: 384
    pad: 1
    kernel_size: 3
    weight_filler {
      type: "gaussian"
      std: 0.01
    }
    bias_filler {
      type: "constant"
      value: 0
    }
  }
}
layer {
  name: "relu3"
  type: "ReLU"
  bottom: "conv3"
  top: "relu3"
}
layer {
  name: "conv4"
  type: "Convolution"
  bottom: "relu3"
  top: "conv4"
  param {
    lr_mult: 1
    decay_mult: 1
  }
  param {
    lr_mult: 2
    decay_mult: 0
  }
  convolution_param {
    num_output: 384
    pad: 1
    kernel_size: 3
    group: 1
    weight_filler {
      type: "gaussian"
      std: 0.01
    }
    bias_filler {
      type: "constant"
      value: 1
    }
  }
}
layer {
  name: "relu4"
  type: "ReLU"
  bottom: "conv4"
  top: "relu4"
}
layer {
  name: "conv5"
  type: "Convolution"
  bottom: "relu4"
  top: "conv5"
  param {
    lr_mult: 1
    decay_mult: 1
  }
  param {
    lr_mult: 2
    decay_mult: 0
  }
  convolution_param {
    num_output: 256
    pad: 1
    kernel_size: 3
    group: 1
    weight_filler {
      type: "gaussian"
      std: 0.01
    }
    bias_filler {
      type: "constant"
      value: 1
    }
  }
}
layer {
  name: "relu5"
  type: "ReLU"
  bottom: "conv5"
  top: "relu5"
}
layer {
  name: "pool5"
  type: "Pooling"
  bottom: "relu5"
  top: "pool5"
  pooling_param {
    pool: MAX
    kernel_size: 3
    stride: 2
  }
}
layer {
  name: "fc6"
  type: "InnerProduct"
  bottom: "pool5"
  top: "fc6"
  param {
    lr_mult: 1
    decay_mult: 1
  }
  param {
    lr_mult: 2
    decay_mult: 0
  }
  inner_product_param {
    num_output: 4096
    weight_filler {
      type: "gaussian"
      std: 0.005
    }
    bias_filler {
      type: "constant"
      value: 1
    }
  }
}
layer {
  name: "relu6"
  type: "ReLU"
  bottom: "fc6"
  top: "relu6"
}
layer {
  name: "drop6"
  type: "Dropout"
  bottom: "relu6"
  top: "drop6"
  dropout_param {
    dropout_ratio: 0.5
  }
}
layer {
  name: "fc7"
  type: "InnerProduct"
  bottom: "drop6"
  top: "fc7"
  param {
    lr_mult: 1
    decay_mult: 1
  }
  param {
    lr_mult: 2
    decay_mult: 0
  }
  inner_product_param {
    num_output: 4096
    weight_filler {
      type: "gaussian"
      std: 0.005
    }
    bias_filler {
      type: "constant"
      value: 1
    }
  }
}
layer {
  name: "bn7"
  type: "BatchNorm"
  bottom: "fc7"
  top: "bn7"
  param {
    lr_mult: 0
  }
  param {
    lr_mult: 0
  }
  param {
    lr_mult: 0
  }
  batch_norm_param {
    use_global_stats: false
  }
}
layer {
  name: "relu7"
  type: "ReLU"
  bottom: "bn7"
  top: "relu7"
}
layer {
  name: "drop7"
  type: "Dropout"
  bottom: "relu7"
  top: "drop7"
  dropout_param {
    dropout_ratio: 0.5
  }
}
layer {
  name: "fc8"
  type: "InnerProduct"
  bottom: "drop7"
  top: "fc8"
  param {
    lr_mult: 1
    decay_mult: 1
  }
  param {
    lr_mult: 2
    decay_mult: 0
  }
  inner_product_param {
    num_output: 2
    weight_filler {
      type: "gaussian"
      std: 0.01
    }
    bias_filler {
      type: "constant"
      value: 0
    }
  }
}
layer {
  name: "loss"
  type: "SoftmaxWithLoss"
  bottom: "fc8"
  bottom: "label"
  top: "loss"
}
I0318 06:03:20.572187   633 layer_factory.hpp:123] Creating layer data
I0318 06:03:20.572307   633 internal_thread.cpp:73] Starting internal thread(s) on GPU 0
I0318 06:03:20.573729   633 net.cpp:140] Creating Layer data
I0318 06:03:20.573743   633 net.cpp:455] data -> data
I0318 06:03:20.573758   633 net.cpp:455] data -> label
I0318 06:03:20.575168   665 db_lmdb.cpp:81] Opened lmdb input/lmdb/train_lmdb
I0318 06:03:20.575203   665 data_reader.cpp:170] TRAIN: reading data using 1 channel(s)
I0318 06:03:20.575544   633 data_layer.cpp:124] ReshapePrefetch 256, 3, 227, 227
I0318 06:03:20.575629   633 data_layer.cpp:129] output data size: 256,3,227,227
I0318 06:03:20.957983   633 internal_thread.cpp:73] Starting internal thread(s) on GPU 0
I0318 06:03:20.958081   633 net.cpp:190] Setting up data
I0318 06:03:20.958091   633 net.cpp:197] Top shape: 256 3 227 227 (39574272)
I0318 06:03:20.958102   633 net.cpp:197] Top shape: 256 (256)
I0318 06:03:20.958106   633 net.cpp:205] Memory required for data: 158298112
I0318 06:03:20.958110   633 layer_factory.hpp:123] Creating layer conv1
I0318 06:03:20.958127   633 net.cpp:140] Creating Layer conv1
I0318 06:03:20.958132   633 net.cpp:481] conv1 <- data
I0318 06:03:20.958137   633 net.cpp:455] conv1 -> conv1
I0318 06:03:20.958758   633 net.cpp:190] Setting up conv1
I0318 06:03:20.958767   633 net.cpp:197] Top shape: 256 96 55 55 (74342400)
I0318 06:03:20.958773   633 net.cpp:205] Memory required for data: 455667712
I0318 06:03:20.958783   633 layer_factory.hpp:123] Creating layer bn1
I0318 06:03:20.958806   633 net.cpp:140] Creating Layer bn1
I0318 06:03:20.958811   633 net.cpp:481] bn1 <- conv1
I0318 06:03:20.958817   633 net.cpp:455] bn1 -> bn1
I0318 06:03:20.959333   633 net.cpp:190] Setting up bn1
I0318 06:03:20.959340   633 net.cpp:197] Top shape: 256 96 55 55 (74342400)
I0318 06:03:20.959345   633 net.cpp:205] Memory required for data: 753037312
I0318 06:03:20.959354   633 layer_factory.hpp:123] Creating layer relu1
I0318 06:03:20.959359   633 net.cpp:140] Creating Layer relu1
I0318 06:03:20.959362   633 net.cpp:481] relu1 <- bn1
I0318 06:03:20.959367   633 net.cpp:455] relu1 -> relu1
I0318 06:03:20.959386   633 net.cpp:190] Setting up relu1
I0318 06:03:20.959391   633 net.cpp:197] Top shape: 256 96 55 55 (74342400)
I0318 06:03:20.959395   633 net.cpp:205] Memory required for data: 1050406912
I0318 06:03:20.959398   633 layer_factory.hpp:123] Creating layer pool1
I0318 06:03:20.959404   633 net.cpp:140] Creating Layer pool1
I0318 06:03:20.959408   633 net.cpp:481] pool1 <- relu1
I0318 06:03:20.959411   633 net.cpp:455] pool1 -> pool1
I0318 06:03:20.959434   633 net.cpp:190] Setting up pool1
I0318 06:03:20.959439   633 net.cpp:197] Top shape: 256 96 27 27 (17915904)
I0318 06:03:20.959442   633 net.cpp:205] Memory required for data: 1122070528
I0318 06:03:20.959446   633 layer_factory.hpp:123] Creating layer conv2
I0318 06:03:20.959452   633 net.cpp:140] Creating Layer conv2
I0318 06:03:20.959455   633 net.cpp:481] conv2 <- pool1
I0318 06:03:20.959460   633 net.cpp:455] conv2 -> conv2
I0318 06:03:20.974953   633 net.cpp:190] Setting up conv2
I0318 06:03:20.974972   633 net.cpp:197] Top shape: 256 256 27 27 (47775744)
I0318 06:03:20.974982   633 net.cpp:205] Memory required for data: 1313173504
I0318 06:03:20.974993   633 layer_factory.hpp:123] Creating layer bn2
I0318 06:03:20.975005   633 net.cpp:140] Creating Layer bn2
I0318 06:03:20.975010   633 net.cpp:481] bn2 <- conv2
I0318 06:03:20.975018   633 net.cpp:455] bn2 -> bn2
I0318 06:03:20.976245   633 net.cpp:190] Setting up bn2
I0318 06:03:20.976269   633 net.cpp:197] Top shape: 256 256 27 27 (47775744)
I0318 06:03:20.976286   633 net.cpp:205] Memory required for data: 1504276480
I0318 06:03:20.976307   633 layer_factory.hpp:123] Creating layer relu2
I0318 06:03:20.976325   633 net.cpp:140] Creating Layer relu2
I0318 06:03:20.976341   633 net.cpp:481] relu2 <- bn2
I0318 06:03:20.976351   633 net.cpp:455] relu2 -> relu2
I0318 06:03:20.976472   633 net.cpp:190] Setting up relu2
I0318 06:03:20.976490   633 net.cpp:197] Top shape: 256 256 27 27 (47775744)
I0318 06:03:20.976505   633 net.cpp:205] Memory required for data: 1695379456
I0318 06:03:20.976514   633 layer_factory.hpp:123] Creating layer pool2
I0318 06:03:20.976529   633 net.cpp:140] Creating Layer pool2
I0318 06:03:20.976539   633 net.cpp:481] pool2 <- relu2
I0318 06:03:20.976548   633 net.cpp:455] pool2 -> pool2
I0318 06:03:20.976606   633 net.cpp:190] Setting up pool2
I0318 06:03:20.976616   633 net.cpp:197] Top shape: 256 256 13 13 (11075584)
I0318 06:03:20.976630   633 net.cpp:205] Memory required for data: 1739681792
I0318 06:03:20.976644   633 layer_factory.hpp:123] Creating layer conv3
I0318 06:03:20.976675   633 net.cpp:140] Creating Layer conv3
I0318 06:03:20.976688   633 net.cpp:481] conv3 <- pool2
I0318 06:03:20.976702   633 net.cpp:455] conv3 -> conv3
I0318 06:03:21.010231   633 net.cpp:190] Setting up conv3
I0318 06:03:21.010270   633 net.cpp:197] Top shape: 256 384 13 13 (16613376)
I0318 06:03:21.010285   633 net.cpp:205] Memory required for data: 1806135296
I0318 06:03:21.010299   633 layer_factory.hpp:123] Creating layer relu3
I0318 06:03:21.010309   633 net.cpp:140] Creating Layer relu3
I0318 06:03:21.010314   633 net.cpp:481] relu3 <- conv3
I0318 06:03:21.010324   633 net.cpp:455] relu3 -> relu3
I0318 06:03:21.010356   633 net.cpp:190] Setting up relu3
I0318 06:03:21.010365   633 net.cpp:197] Top shape: 256 384 13 13 (16613376)
I0318 06:03:21.010371   633 net.cpp:205] Memory required for data: 1872588800
I0318 06:03:21.010375   633 layer_factory.hpp:123] Creating layer conv4
I0318 06:03:21.010417   633 net.cpp:140] Creating Layer conv4
I0318 06:03:21.010421   633 net.cpp:481] conv4 <- relu3
I0318 06:03:21.010427   633 net.cpp:455] conv4 -> conv4
I0318 06:03:21.042814   633 net.cpp:190] Setting up conv4
I0318 06:03:21.042870   633 net.cpp:197] Top shape: 256 384 13 13 (16613376)
I0318 06:03:21.042894   633 net.cpp:205] Memory required for data: 1939042304
I0318 06:03:21.042927   633 layer_factory.hpp:123] Creating layer relu4
I0318 06:03:21.042946   633 net.cpp:140] Creating Layer relu4
I0318 06:03:21.042963   633 net.cpp:481] relu4 <- conv4
I0318 06:03:21.042979   633 net.cpp:455] relu4 -> relu4
I0318 06:03:21.043052   633 net.cpp:190] Setting up relu4
I0318 06:03:21.043063   633 net.cpp:197] Top shape: 256 384 13 13 (16613376)
I0318 06:03:21.043076   633 net.cpp:205] Memory required for data: 2005495808
I0318 06:03:21.043082   633 layer_factory.hpp:123] Creating layer conv5
I0318 06:03:21.043098   633 net.cpp:140] Creating Layer conv5
I0318 06:03:21.043104   633 net.cpp:481] conv5 <- relu4
I0318 06:03:21.043112   633 net.cpp:455] conv5 -> conv5
I0318 06:03:21.056991   633 net.cpp:190] Setting up conv5
I0318 06:03:21.057026   633 net.cpp:197] Top shape: 256 256 13 13 (11075584)
I0318 06:03:21.057039   633 net.cpp:205] Memory required for data: 2049798144
I0318 06:03:21.057050   633 layer_factory.hpp:123] Creating layer relu5
I0318 06:03:21.057063   633 net.cpp:140] Creating Layer relu5
I0318 06:03:21.057070   633 net.cpp:481] relu5 <- conv5
I0318 06:03:21.057081   633 net.cpp:455] relu5 -> relu5
I0318 06:03:21.057116   633 net.cpp:190] Setting up relu5
I0318 06:03:21.057124   633 net.cpp:197] Top shape: 256 256 13 13 (11075584)
I0318 06:03:21.057130   633 net.cpp:205] Memory required for data: 2094100480
I0318 06:03:21.057134   633 layer_factory.hpp:123] Creating layer pool5
I0318 06:03:21.057142   633 net.cpp:140] Creating Layer pool5
I0318 06:03:21.057144   633 net.cpp:481] pool5 <- relu5
I0318 06:03:21.057148   633 net.cpp:455] pool5 -> pool5
I0318 06:03:21.057191   633 net.cpp:190] Setting up pool5
I0318 06:03:21.057194   633 net.cpp:197] Top shape: 256 256 6 6 (2359296)
I0318 06:03:21.057199   633 net.cpp:205] Memory required for data: 2103537664
I0318 06:03:21.057201   633 layer_factory.hpp:123] Creating layer fc6
I0318 06:03:21.057222   633 net.cpp:140] Creating Layer fc6
I0318 06:03:21.057230   633 net.cpp:481] fc6 <- pool5
I0318 06:03:21.057240   633 net.cpp:455] fc6 -> fc6
I0318 06:03:21.374402   633 net.cpp:190] Setting up fc6
I0318 06:03:21.374424   633 net.cpp:197] Top shape: 256 4096 (1048576)
I0318 06:03:21.374433   633 net.cpp:205] Memory required for data: 2107731968
I0318 06:03:21.374460   633 layer_factory.hpp:123] Creating layer relu6
I0318 06:03:21.374469   633 net.cpp:140] Creating Layer relu6
I0318 06:03:21.374472   633 net.cpp:481] relu6 <- fc6
I0318 06:03:21.374480   633 net.cpp:455] relu6 -> relu6
I0318 06:03:21.374495   633 net.cpp:190] Setting up relu6
I0318 06:03:21.374498   633 net.cpp:197] Top shape: 256 4096 (1048576)
I0318 06:03:21.374501   633 net.cpp:205] Memory required for data: 2111926272
I0318 06:03:21.374503   633 layer_factory.hpp:123] Creating layer drop6
I0318 06:03:21.374508   633 net.cpp:140] Creating Layer drop6
I0318 06:03:21.374511   633 net.cpp:481] drop6 <- relu6
I0318 06:03:21.374516   633 net.cpp:455] drop6 -> drop6
I0318 06:03:21.374534   633 net.cpp:190] Setting up drop6
I0318 06:03:21.374539   633 net.cpp:197] Top shape: 256 4096 (1048576)
I0318 06:03:21.374542   633 net.cpp:205] Memory required for data: 2116120576
I0318 06:03:21.374545   633 layer_factory.hpp:123] Creating layer fc7
I0318 06:03:21.374552   633 net.cpp:140] Creating Layer fc7
I0318 06:03:21.374554   633 net.cpp:481] fc7 <- drop6
I0318 06:03:21.374557   633 net.cpp:455] fc7 -> fc7
I0318 06:03:21.510963   633 net.cpp:190] Setting up fc7
I0318 06:03:21.510988   633 net.cpp:197] Top shape: 256 4096 (1048576)
I0318 06:03:21.510998   633 net.cpp:205] Memory required for data: 2120314880
I0318 06:03:21.511024   633 layer_factory.hpp:123] Creating layer bn7
I0318 06:03:21.511035   633 net.cpp:140] Creating Layer bn7
I0318 06:03:21.511059   633 net.cpp:481] bn7 <- fc7
I0318 06:03:21.511065   633 net.cpp:455] bn7 -> bn7
I0318 06:03:21.511515   633 net.cpp:190] Setting up bn7
I0318 06:03:21.511521   633 net.cpp:197] Top shape: 256 4096 (1048576)
I0318 06:03:21.511526   633 net.cpp:205] Memory required for data: 2124509184
I0318 06:03:21.511535   633 layer_factory.hpp:123] Creating layer relu7
I0318 06:03:21.511541   633 net.cpp:140] Creating Layer relu7
I0318 06:03:21.511544   633 net.cpp:481] relu7 <- bn7
I0318 06:03:21.511548   633 net.cpp:455] relu7 -> relu7
I0318 06:03:21.511562   633 net.cpp:190] Setting up relu7
I0318 06:03:21.511566   633 net.cpp:197] Top shape: 256 4096 (1048576)
I0318 06:03:21.511570   633 net.cpp:205] Memory required for data: 2128703488
I0318 06:03:21.511574   633 layer_factory.hpp:123] Creating layer drop7
I0318 06:03:21.511581   633 net.cpp:140] Creating Layer drop7
I0318 06:03:21.511585   633 net.cpp:481] drop7 <- relu7
I0318 06:03:21.511588   633 net.cpp:455] drop7 -> drop7
I0318 06:03:21.511611   633 net.cpp:190] Setting up drop7
I0318 06:03:21.511615   633 net.cpp:197] Top shape: 256 4096 (1048576)
I0318 06:03:21.511620   633 net.cpp:205] Memory required for data: 2132897792
I0318 06:03:21.511623   633 layer_factory.hpp:123] Creating layer fc8
I0318 06:03:21.511628   633 net.cpp:140] Creating Layer fc8
I0318 06:03:21.511631   633 net.cpp:481] fc8 <- drop7
I0318 06:03:21.511636   633 net.cpp:455] fc8 -> fc8
I0318 06:03:21.511790   633 net.cpp:190] Setting up fc8
I0318 06:03:21.511795   633 net.cpp:197] Top shape: 256 2 (512)
I0318 06:03:21.511799   633 net.cpp:205] Memory required for data: 2132899840
I0318 06:03:21.511806   633 layer_factory.hpp:123] Creating layer loss
I0318 06:03:21.511816   633 net.cpp:140] Creating Layer loss
I0318 06:03:21.511821   633 net.cpp:481] loss <- fc8
I0318 06:03:21.511824   633 net.cpp:481] loss <- label
I0318 06:03:21.511828   633 net.cpp:455] loss -> loss
I0318 06:03:21.511870   633 layer_factory.hpp:123] Creating layer loss
…
I0318 06:03:21.512480   633 net.cpp:369] The NetState phase (1) differed from the phase (0) specified by a rule in layer data
I0318 06:03:21.512495   633 net.cpp:98] Initializing net from parameters: 
name: "alexnetBNnoLRN m2 (as m3 but less DROP and less BN)"
state {
  phase: TEST
}
layer {
  name: "data"
  type: "Data"
  top: "data"
  top: "label"
  include {
    phase: TEST
  }
  transform_param {
    mirror: false
    crop_size: 227
    mean_value: 106
    mean_value: 116
    mean_value: 124
  }
  data_param {
    source: "input/lmdb/valid_lmdb"
    batch_size: 50
    backend: LMDB
  }
}
layer {
  name: "conv1"
  type: "Convolution"
  bottom: "data"
  top: "conv1"
  param {
    lr_mult: 1
    decay_mult: 1
  }
  param {
    lr_mult: 2
    decay_mult: 0
  }
  convolution_param {
    num_output: 96
    pad: 1
    kernel_size: 11
    stride: 4
    weight_filler {
      type: "gaussian"
      std: 0.01
    }
    bias_filler {
      type: "constant"
      value: 0
    }
  }
}
layer {
  name: "bn1"
  type: "BatchNorm"
  bottom: "conv1"
  top: "bn1"
  param {
    lr_mult: 0
  }
  param {
    lr_mult: 0
  }
  param {
    lr_mult: 0
  }
  batch_norm_param {
    use_global_stats: false
  }
}
layer {
  name: "relu1"
  type: "ReLU"
  bottom: "bn1"
  top: "relu1"
}
layer {
  name: "pool1"
  type: "Pooling"
  bottom: "relu1"
  top: "pool1"
  pooling_param {
    pool: MAX
    kernel_size: 3
    stride: 2
  }
}
layer {
  name: "conv2"
  type: "Convolution"
  bottom: "pool1"
  top: "conv2"
  param {
    lr_mult: 1
    decay_mult: 1
  }
  param {
    lr_mult: 2
    decay_mult: 0
  }
  convolution_param {
    num_output: 256
    pad: 2
    kernel_size: 5
    group: 1
    weight_filler {
      type: "gaussian"
      std: 0.01
    }
    bias_filler {
      type: "constant"
      value: 1
    }
  }
}
layer {
  name: "bn2"
  type: "BatchNorm"
  bottom: "conv2"
  top: "bn2"
  param {
    lr_mult: 0
  }
  param {
    lr_mult: 0
  }
  param {
    lr_mult: 0
  }
  batch_norm_param {
    use_global_stats: false
  }
}
layer {
  name: "relu2"
  type: "ReLU"
  bottom: "bn2"
  top: "relu2"
}
layer {
  name: "pool2"
  type: "Pooling"
  bottom: "relu2"
  top: "pool2"
  pooling_param {
    pool: MAX
    kernel_size: 3
    stride: 2
  }
}
layer {
  name: "conv3"
  type: "Convolution"
  bottom: "pool2"
  top: "conv3"
  param {
    lr_mult: 1
    decay_mult: 1
  }
  param {
    lr_mult: 2
    decay_mult: 0
  }
  convolution_param {
    num_output: 384
    pad: 1
    kernel_size: 3
    weight_filler {
      type: "gaussian"
      std: 0.01
    }
    bias_filler {
      type: "constant"
      value: 0
    }
  }
}
layer {
  name: "relu3"
  type: "ReLU"
  bottom: "conv3"
  top: "relu3"
}
layer {
  name: "conv4"
  type: "Convolution"
  bottom: "relu3"
  top: "conv4"
  param {
    lr_mult: 1
    decay_mult: 1
  }
  param {
    lr_mult: 2
    decay_mult: 0
  }
  convolution_param {
    num_output: 384
    pad: 1
    kernel_size: 3
    group: 1
    weight_filler {
      type: "gaussian"
      std: 0.01
    }
    bias_filler {
      type: "constant"
      value: 1
    }
  }
}
layer {
  name: "relu4"
  type: "ReLU"
  bottom: "conv4"
  top: "relu4"
}
layer {
  name: "conv5"
  type: "Convolution"
  bottom: "relu4"
  top: "conv5"
  param {
    lr_mult: 1
    decay_mult: 1
  }
  param {
    lr_mult: 2
    decay_mult: 0
  }
  convolution_param {
    num_output: 256
    pad: 1
    kernel_size: 3
    group: 1
    weight_filler {
      type: "gaussian"
      std: 0.01
    }
    bias_filler {
      type: "constant"
      value: 1
    }
  }
}
layer {
  name: "relu5"
  type: "ReLU"
  bottom: "conv5"
  top: "relu5"
}
layer {
  name: "pool5"
  type: "Pooling"
  bottom: "relu5"
  top: "pool5"
  pooling_param {
    pool: MAX
    kernel_size: 3
    stride: 2
  }
}
layer {
  name: "fc6"
  type: "InnerProduct"
  bottom: "pool5"
  top: "fc6"
  param {
    lr_mult: 1
    decay_mult: 1
  }
  param {
    lr_mult: 2
    decay_mult: 0
  }
  inner_product_param {
    num_output: 4096
    weight_filler {
      type: "gaussian"
      std: 0.005
    }
    bias_filler {
      type: "constant"
      value: 1
    }
  }
}
layer {
  name: "relu6"
  type: "ReLU"
  bottom: "fc6"
  top: "relu6"
}
layer {
  name: "drop6"
  type: "Dropout"
  bottom: "relu6"
  top: "drop6"
  dropout_param {
    dropout_ratio: 0.5
  }
}
layer {
  name: "fc7"
  type: "InnerProduct"
  bottom: "drop6"
  top: "fc7"
  param {
    lr_mult: 1
    decay_mult: 1
  }
  param {
    lr_mult: 2
    decay_mult: 0
  }
  inner_product_param {
    num_output: 4096
    weight_filler {
      type: "gaussian"
      std: 0.005
    }
    bias_filler {
      type: "constant"
      value: 1
    }
  }
}
layer {
  name: "bn7"
  type: "BatchNorm"
  bottom: "fc7"
  top: "bn7"
  param {
    lr_mult: 0
  }
  param {
    lr_mult: 0
  }
  param {
    lr_mult: 0
  }
  batch_norm_param {
    use_global_stats: false
  }
}
layer {
  name: "relu7"
  type: "ReLU"
  bottom: "bn7"
  top: "relu7"
}
layer {
  name: "drop7"
  type: "Dropout"
  bottom: "relu7"
  top: "drop7"
  dropout_param {
    dropout_ratio: 0.5
  }
}
layer {
  name: "fc8"
  type: "InnerProduct"
  bottom: "drop7"
  top: "fc8"
  param {
    lr_mult: 1
    decay_mult: 1
  }
  param {
    lr_mult: 2
    decay_mult: 0
  }
  inner_product_param {
    num_output: 2
    weight_filler {
      type: "gaussian"
      std: 0.01
    }
    bias_filler {
      type: "constant"
      value: 0
    }
  }
}
layer {
  name: "accuracy"
  type: "Accuracy"
  bottom: "fc8"
  bottom: "label"
  top: "accuracy"
  include {
    phase: TEST
  }
}
layer {
  name: "loss"
  type: "SoftmaxWithLoss"
  bottom: "fc8"
  bottom: "label"
  top: "loss"
}
layer {
  name: "accuracy-top1"
  type: "Accuracy"
  bottom: "fc8"
  bottom: "label"
  top: "top-1"
  include {
    phase: TEST
  }
}
I0318 06:03:21.512723   633 layer_factory.hpp:123] Creating layer data
I0318 06:03:21.512768   633 internal_thread.cpp:73] Starting internal thread(s) on GPU 0
I0318 06:03:21.514192   633 net.cpp:140] Creating Layer data
I0318 06:03:21.514206   633 net.cpp:455] data -> data
I0318 06:03:21.514215   633 net.cpp:455] data -> label
I0318 06:03:21.515951   695 db_lmdb.cpp:81] Opened lmdb input/lmdb/valid_lmdb
I0318 06:03:21.515987   695 data_reader.cpp:170] TEST: reading data using 1 channel(s)
I0318 06:03:21.516304   633 data_layer.cpp:124] ReshapePrefetch 50, 3, 227, 227
I0318 06:03:21.516389   633 data_layer.cpp:129] output data size: 50,3,227,227
I0318 06:03:21.596020   633 internal_thread.cpp:73] Starting internal thread(s) on GPU 0
I0318 06:03:21.596117   633 net.cpp:190] Setting up data
I0318 06:03:21.596124   633 net.cpp:197] Top shape: 50 3 227 227 (7729350)
I0318 06:03:21.596134   633 net.cpp:197] Top shape: 50 (50)
I0318 06:03:21.596138   633 net.cpp:205] Memory required for data: 30917600
I0318 06:03:21.596143   633 layer_factory.hpp:123] Creating layer label_data_1_split
I0318 06:03:21.596153   633 net.cpp:140] Creating Layer label_data_1_split
I0318 06:03:21.596158   633 net.cpp:481] label_data_1_split <- label
I0318 06:03:21.596164   633 net.cpp:455] label_data_1_split -> label_data_1_split_0
I0318 06:03:21.596172   633 net.cpp:455] label_data_1_split -> label_data_1_split_1
I0318 06:03:21.596176   633 net.cpp:455] label_data_1_split -> label_data_1_split_2
I0318 06:03:21.596248   633 net.cpp:190] Setting up label_data_1_split
I0318 06:03:21.596253   633 net.cpp:197] Top shape: 50 (50)
I0318 06:03:21.596257   633 net.cpp:197] Top shape: 50 (50)
I0318 06:03:21.596261   633 net.cpp:197] Top shape: 50 (50)
I0318 06:03:21.596263   633 net.cpp:205] Memory required for data: 30918200
I0318 06:03:21.596266   633 layer_factory.hpp:123] Creating layer conv1
I0318 06:03:21.596277   633 net.cpp:140] Creating Layer conv1
I0318 06:03:21.596282   633 net.cpp:481] conv1 <- data
I0318 06:03:21.596287   633 net.cpp:455] conv1 -> conv1
I0318 06:03:21.596895   633 net.cpp:190] Setting up conv1
I0318 06:03:21.596902   633 net.cpp:197] Top shape: 50 96 55 55 (14520000)
I0318 06:03:21.596909   633 net.cpp:205] Memory required for data: 88998200
I0318 06:03:21.596920   633 layer_factory.hpp:123] Creating layer bn1
I0318 06:03:21.596928   633 net.cpp:140] Creating Layer bn1
I0318 06:03:21.596932   633 net.cpp:481] bn1 <- conv1
I0318 06:03:21.596937   633 net.cpp:455] bn1 -> bn1
I0318 06:03:21.597477   633 net.cpp:190] Setting up bn1
I0318 06:03:21.597483   633 net.cpp:197] Top shape: 50 96 55 55 (14520000)
I0318 06:03:21.597488   633 net.cpp:205] Memory required for data: 147078200
I0318 06:03:21.597496   633 layer_factory.hpp:123] Creating layer relu1
I0318 06:03:21.597503   633 net.cpp:140] Creating Layer relu1
I0318 06:03:21.597506   633 net.cpp:481] relu1 <- bn1
I0318 06:03:21.597510   633 net.cpp:455] relu1 -> relu1
I0318 06:03:21.597527   633 net.cpp:190] Setting up relu1
I0318 06:03:21.597532   633 net.cpp:197] Top shape: 50 96 55 55 (14520000)
I0318 06:03:21.597537   633 net.cpp:205] Memory required for data: 205158200
I0318 06:03:21.597539   633 layer_factory.hpp:123] Creating layer pool1
I0318 06:03:21.597548   633 net.cpp:140] Creating Layer pool1
I0318 06:03:21.597561   633 net.cpp:481] pool1 <- relu1
I0318 06:03:21.597565   633 net.cpp:455] pool1 -> pool1
I0318 06:03:21.597591   633 net.cpp:190] Setting up pool1
I0318 06:03:21.597596   633 net.cpp:197] Top shape: 50 96 27 27 (3499200)
I0318 06:03:21.597600   633 net.cpp:205] Memory required for data: 219155000
I0318 06:03:21.597604   633 layer_factory.hpp:123] Creating layer conv2
I0318 06:03:21.597611   633 net.cpp:140] Creating Layer conv2
I0318 06:03:21.597633   633 net.cpp:481] conv2 <- pool1
I0318 06:03:21.597637   633 net.cpp:455] conv2 -> conv2
I0318 06:03:21.603732   633 net.cpp:190] Setting up conv2
I0318 06:03:21.603749   633 net.cpp:197] Top shape: 50 256 27 27 (9331200)
I0318 06:03:21.603757   633 net.cpp:205] Memory required for data: 256479800
I0318 06:03:21.603767   633 layer_factory.hpp:123] Creating layer bn2
I0318 06:03:21.603776   633 net.cpp:140] Creating Layer bn2
I0318 06:03:21.603781   633 net.cpp:481] bn2 <- conv2
I0318 06:03:21.603787   633 net.cpp:455] bn2 -> bn2
I0318 06:03:21.604353   633 net.cpp:190] Setting up bn2
I0318 06:03:21.604359   633 net.cpp:197] Top shape: 50 256 27 27 (9331200)
I0318 06:03:21.604364   633 net.cpp:205] Memory required for data: 293804600
I0318 06:03:21.604379   633 layer_factory.hpp:123] Creating layer relu2
I0318 06:03:21.604385   633 net.cpp:140] Creating Layer relu2
I0318 06:03:21.604389   633 net.cpp:481] relu2 <- bn2
I0318 06:03:21.604393   633 net.cpp:455] relu2 -> relu2
I0318 06:03:21.604408   633 net.cpp:190] Setting up relu2
I0318 06:03:21.604414   633 net.cpp:197] Top shape: 50 256 27 27 (9331200)
I0318 06:03:21.604441   633 net.cpp:205] Memory required for data: 331129400
I0318 06:03:21.604445   633 layer_factory.hpp:123] Creating layer pool2
I0318 06:03:21.604450   633 net.cpp:140] Creating Layer pool2
I0318 06:03:21.604454   633 net.cpp:481] pool2 <- relu2
I0318 06:03:21.604457   633 net.cpp:455] pool2 -> pool2
I0318 06:03:21.604539   633 net.cpp:190] Setting up pool2
I0318 06:03:21.604547   633 net.cpp:197] Top shape: 50 256 13 13 (2163200)
I0318 06:03:21.604552   633 net.cpp:205] Memory required for data: 339782200
I0318 06:03:21.604557   633 layer_factory.hpp:123] Creating layer conv3
I0318 06:03:21.604600   633 net.cpp:140] Creating Layer conv3
I0318 06:03:21.604605   633 net.cpp:481] conv3 <- pool2
I0318 06:03:21.604610   633 net.cpp:455] conv3 -> conv3
I0318 06:03:21.623586   633 net.cpp:190] Setting up conv3
I0318 06:03:21.623621   633 net.cpp:197] Top shape: 50 384 13 13 (3244800)
I0318 06:03:21.623641   633 net.cpp:205] Memory required for data: 352761400
I0318 06:03:21.623662   633 layer_factory.hpp:123] Creating layer relu3
I0318 06:03:21.623679   633 net.cpp:140] Creating Layer relu3
I0318 06:03:21.623687   633 net.cpp:481] relu3 <- conv3
I0318 06:03:21.623698   633 net.cpp:455] relu3 -> relu3
I0318 06:03:21.623770   633 net.cpp:190] Setting up relu3
I0318 06:03:21.623777   633 net.cpp:197] Top shape: 50 384 13 13 (3244800)
I0318 06:03:21.623785   633 net.cpp:205] Memory required for data: 365740600
I0318 06:03:21.623788   633 layer_factory.hpp:123] Creating layer conv4
I0318 06:03:21.623801   633 net.cpp:140] Creating Layer conv4
I0318 06:03:21.623807   633 net.cpp:481] conv4 <- relu3
I0318 06:03:21.623817   633 net.cpp:455] conv4 -> conv4
I0318 06:03:21.639737   633 net.cpp:190] Setting up conv4
I0318 06:03:21.639775   633 net.cpp:197] Top shape: 50 384 13 13 (3244800)
I0318 06:03:21.639791   633 net.cpp:205] Memory required for data: 378719800
I0318 06:03:21.639812   633 layer_factory.hpp:123] Creating layer relu4
I0318 06:03:21.639827   633 net.cpp:140] Creating Layer relu4
I0318 06:03:21.639832   633 net.cpp:481] relu4 <- conv4
I0318 06:03:21.639840   633 net.cpp:455] relu4 -> relu4
I0318 06:03:21.639871   633 net.cpp:190] Setting up relu4
I0318 06:03:21.639878   633 net.cpp:197] Top shape: 50 384 13 13 (3244800)
I0318 06:03:21.639881   633 net.cpp:205] Memory required for data: 391699000
I0318 06:03:21.639884   633 layer_factory.hpp:123] Creating layer conv5
I0318 06:03:21.639895   633 net.cpp:140] Creating Layer conv5
I0318 06:03:21.639899   633 net.cpp:481] conv5 <- relu4
I0318 06:03:21.639902   633 net.cpp:455] conv5 -> conv5
I0318 06:03:21.648635   633 net.cpp:190] Setting up conv5
I0318 06:03:21.648667   633 net.cpp:197] Top shape: 50 256 13 13 (2163200)
I0318 06:03:21.648682   633 net.cpp:205] Memory required for data: 400351800
I0318 06:03:21.648708   633 layer_factory.hpp:123] Creating layer relu5
I0318 06:03:21.648722   633 net.cpp:140] Creating Layer relu5
I0318 06:03:21.648728   633 net.cpp:481] relu5 <- conv5
I0318 06:03:21.648736   633 net.cpp:455] relu5 -> relu5
I0318 06:03:21.648768   633 net.cpp:190] Setting up relu5
I0318 06:03:21.648785   633 net.cpp:197] Top shape: 50 256 13 13 (2163200)
I0318 06:03:21.648789   633 net.cpp:205] Memory required for data: 409004600
I0318 06:03:21.648792   633 layer_factory.hpp:123] Creating layer pool5
I0318 06:03:21.648802   633 net.cpp:140] Creating Layer pool5
I0318 06:03:21.648806   633 net.cpp:481] pool5 <- relu5
I0318 06:03:21.648810   633 net.cpp:455] pool5 -> pool5
I0318 06:03:21.648849   633 net.cpp:190] Setting up pool5
I0318 06:03:21.648866   633 net.cpp:197] Top shape: 50 256 6 6 (460800)
I0318 06:03:21.648870   633 net.cpp:205] Memory required for data: 410847800
I0318 06:03:21.648872   633 layer_factory.hpp:123] Creating layer fc6
I0318 06:03:21.648880   633 net.cpp:140] Creating Layer fc6
I0318 06:03:21.648900   633 net.cpp:481] fc6 <- pool5
I0318 06:03:21.648905   633 net.cpp:455] fc6 -> fc6
I0318 06:03:21.947528   633 net.cpp:190] Setting up fc6
I0318 06:03:21.947548   633 net.cpp:197] Top shape: 50 4096 (204800)
I0318 06:03:21.947557   633 net.cpp:205] Memory required for data: 411667000
I0318 06:03:21.947582   633 layer_factory.hpp:123] Creating layer relu6
I0318 06:03:21.947592   633 net.cpp:140] Creating Layer relu6
I0318 06:03:21.947595   633 net.cpp:481] relu6 <- fc6
I0318 06:03:21.947604   633 net.cpp:455] relu6 -> relu6
I0318 06:03:21.947630   633 net.cpp:190] Setting up relu6
I0318 06:03:21.947633   633 net.cpp:197] Top shape: 50 4096 (204800)
I0318 06:03:21.947636   633 net.cpp:205] Memory required for data: 412486200
I0318 06:03:21.947639   633 layer_factory.hpp:123] Creating layer drop6
I0318 06:03:21.947643   633 net.cpp:140] Creating Layer drop6
I0318 06:03:21.947646   633 net.cpp:481] drop6 <- relu6
I0318 06:03:21.947667   633 net.cpp:455] drop6 -> drop6
I0318 06:03:21.947688   633 net.cpp:190] Setting up drop6
I0318 06:03:21.947692   633 net.cpp:197] Top shape: 50 4096 (204800)
I0318 06:03:21.947695   633 net.cpp:205] Memory required for data: 413305400
I0318 06:03:21.947698   633 layer_factory.hpp:123] Creating layer fc7
I0318 06:03:21.947706   633 net.cpp:140] Creating Layer fc7
I0318 06:03:21.947708   633 net.cpp:481] fc7 <- drop6
I0318 06:03:21.947712   633 net.cpp:455] fc7 -> fc7
I0318 06:03:22.083649   633 net.cpp:190] Setting up fc7
I0318 06:03:22.083691   633 net.cpp:197] Top shape: 50 4096 (204800)
I0318 06:03:22.083700   633 net.cpp:205] Memory required for data: 414124600
I0318 06:03:22.083726   633 layer_factory.hpp:123] Creating layer bn7
I0318 06:03:22.083737   633 net.cpp:140] Creating Layer bn7
I0318 06:03:22.083741   633 net.cpp:481] bn7 <- fc7
I0318 06:03:22.083747   633 net.cpp:455] bn7 -> bn7
I0318 06:03:22.084264   633 net.cpp:190] Setting up bn7
I0318 06:03:22.084273   633 net.cpp:197] Top shape: 50 4096 (204800)
I0318 06:03:22.084278   633 net.cpp:205] Memory required for data: 414943800
I0318 06:03:22.084287   633 layer_factory.hpp:123] Creating layer relu7
I0318 06:03:22.084292   633 net.cpp:140] Creating Layer relu7
I0318 06:03:22.084295   633 net.cpp:481] relu7 <- bn7
I0318 06:03:22.084300   633 net.cpp:455] relu7 -> relu7
I0318 06:03:22.084317   633 net.cpp:190] Setting up relu7
I0318 06:03:22.084322   633 net.cpp:197] Top shape: 50 4096 (204800)
I0318 06:03:22.084326   633 net.cpp:205] Memory required for data: 415763000
I0318 06:03:22.084329   633 layer_factory.hpp:123] Creating layer drop7
I0318 06:03:22.084334   633 net.cpp:140] Creating Layer drop7
I0318 06:03:22.084337   633 net.cpp:481] drop7 <- relu7
I0318 06:03:22.084340   633 net.cpp:455] drop7 -> drop7
I0318 06:03:22.084363   633 net.cpp:190] Setting up drop7
I0318 06:03:22.084367   633 net.cpp:197] Top shape: 50 4096 (204800)
I0318 06:03:22.084372   633 net.cpp:205] Memory required for data: 416582200
I0318 06:03:22.084375   633 layer_factory.hpp:123] Creating layer fc8
I0318 06:03:22.084381   633 net.cpp:140] Creating Layer fc8
I0318 06:03:22.084384   633 net.cpp:481] fc8 <- drop7
I0318 06:03:22.084389   633 net.cpp:455] fc8 -> fc8
I0318 06:03:22.084564   633 net.cpp:190] Setting up fc8
I0318 06:03:22.084570   633 net.cpp:197] Top shape: 50 2 (100)
I0318 06:03:22.084574   633 net.cpp:205] Memory required for data: 416582600
I0318 06:03:22.084578   633 layer_factory.hpp:123] Creating layer fc8_fc8_0_split
I0318 06:03:22.084584   633 net.cpp:140] Creating Layer fc8_fc8_0_split
I0318 06:03:22.084586   633 net.cpp:481] fc8_fc8_0_split <- fc8
I0318 06:03:22.084591   633 net.cpp:455] fc8_fc8_0_split -> fc8_fc8_0_split_0
I0318 06:03:22.084597   633 net.cpp:455] fc8_fc8_0_split -> fc8_fc8_0_split_1
I0318 06:03:22.084602   633 net.cpp:455] fc8_fc8_0_split -> fc8_fc8_0_split_2
I0318 06:03:22.084632   633 net.cpp:190] Setting up fc8_fc8_0_split
I0318 06:03:22.084636   633 net.cpp:197] Top shape: 50 2 (100)
I0318 06:03:22.084640   633 net.cpp:197] Top shape: 50 2 (100)
I0318 06:03:22.084643   633 net.cpp:197] Top shape: 50 2 (100)
I0318 06:03:22.084647   633 net.cpp:205] Memory required for data: 416583800
I0318 06:03:22.084650   633 layer_factory.hpp:123] Creating layer accuracy
I0318 06:03:22.084656   633 net.cpp:140] Creating Layer accuracy
I0318 06:03:22.084661   633 net.cpp:481] accuracy <- fc8_fc8_0_split_0
I0318 06:03:22.084666   633 net.cpp:481] accuracy <- label_data_1_split_0
I0318 06:03:22.084669   633 net.cpp:455] accuracy -> accuracy
…
