…
s written to STDERR
I0318 07:57:26.790895  1025 gpu_memory.cpp:99] GPUMemory::Manager initialized with Caching (CUB) GPU Allocator
I0318 07:57:26.790922  1025 gpu_memory.cpp:101] Total memory: 25620447232, Free: 24507449344, dev_info[0]: total=25620447232 free=24507449344
I0318 07:57:26.792433  1025 net.cpp:98] Initializing net from parameters: 
name: "AlexNet_BNnoLRN m2 deploy"
state {
  phase: TEST
}
layer {
  name: "data"
  type: "Input"
  top: "data"
  input_param {
    shape {
      dim: 1
      dim: 3
      dim: 227
      dim: 227
    }
  }
}
layer {
  name: "conv1"
  type: "Convolution"
  bottom: "data"
  top: "conv1"
  param {
    lr_mult: 1
    decay_mult: 1
  }
  param {
    lr_mult: 2
    decay_mult: 0
  }
  convolution_param {
    num_output: 96
    pad: 1
    kernel_size: 11
    stride: 4
    weight_filler {
      type: "gaussian"
      std: 0.01
    }
    bias_filler {
      type: "constant"
      value: 0
    }
  }
}
layer {
  name: "bn1"
  type: "BatchNorm"
  bottom: "conv1"
  top: "bn1"
  param {
    lr_mult: 0
  }
  param {
    lr_mult: 0
  }
  param {
    lr_mult: 0
  }
  batch_norm_param {
    use_global_stats: true
  }
}
layer {
  name: "relu1"
  type: "ReLU"
  bottom: "bn1"
  top: "relu1"
}
layer {
  name: "pool1"
  type: "Pooling"
  bottom: "relu1"
  top: "pool1"
  pooling_param {
    pool: MAX
    kernel_size: 3
    stride: 2
  }
}
layer {
  name: "conv2"
  type: "Convolution"
  bottom: "pool1"
  top: "conv2"
  param {
    lr_mult: 1
    decay_mult: 1
  }
  param {
    lr_mult: 2
    decay_mult: 0
  }
  convolution_param {
    num_output: 256
    pad: 2
    kernel_size: 5
    group: 1
    weight_filler {
      type: "gaussian"
      std: 0.01
    }
    bias_filler {
      type: "constant"
      value: 1
    }
  }
}
layer {
  name: "bn2"
  type: "BatchNorm"
  bottom: "conv2"
  top: "bn2"
  param {
    lr_mult: 0
  }
  param {
    lr_mult: 0
  }
  param {
    lr_mult: 0
  }
  batch_norm_param {
    use_global_stats: true
  }
}
layer {
  name: "relu2"
  type: "ReLU"
  bottom: "bn2"
  top: "relu2"
}
layer {
  name: "pool2"
  type: "Pooling"
  bottom: "relu2"
  top: "pool2"
  pooling_param {
    pool: MAX
    kernel_size: 3
    stride: 2
  }
}
layer {
  name: "conv3"
  type: "Convolution"
  bottom: "pool2"
  top: "conv3"
  param {
    lr_mult: 1
    decay_mult: 1
  }
  param {
    lr_mult: 2
    decay_mult: 0
  }
  convolution_param {
    num_output: 384
    pad: 1
    kernel_size: 3
    weight_filler {
      type: "gaussian"
      std: 0.01
    }
    bias_filler {
      type: "constant"
      value: 0
    }
  }
}
layer {
  name: "relu3"
  type: "ReLU"
  bottom: "conv3"
  top: "relu3"
}
layer {
  name: "conv4"
  type: "Convolution"
  bottom: "relu3"
  top: "conv4"
  param {
    lr_mult: 1
    decay_mult: 1
  }
  param {
    lr_mult: 2
    decay_mult: 0
  }
  convolution_param {
    num_output: 384
    pad: 1
    kernel_size: 3
    group: 1
    weight_filler {
      type: "gaussian"
      std: 0.01
    }
    bias_filler {
      type: "constant"
      value: 1
    }
  }
}
layer {
  name: "relu4"
  type: "ReLU"
  bottom: "conv4"
  top: "relu4"
}
layer {
  name: "conv5"
  type: "Convolution"
  bottom: "relu4"
  top: "conv5"
  param {
    lr_mult: 1
    decay_mult: 1
  }
  param {
    lr_mult: 2
    decay_mult: 0
  }
  convolution_param {
    num_output: 256
    pad: 1
    kernel_size: 3
    group: 1
    weight_filler {
      type: "gaussian"
      std: 0.01
    }
    bias_filler {
      type: "constant"
      value: 1
    }
  }
}
layer {
  name: "relu5"
  type: "ReLU"
  bottom: "conv5"
  top: "relu5"
}
layer {
  name: "pool5"
  type: "Pooling"
  bottom: "relu5"
  top: "pool5"
  pooling_param {
    pool: MAX
    kernel_size: 3
    stride: 2
  }
}
layer {
  name: "fc6"
  type: "InnerProduct"
  bottom: "pool5"
  top: "fc6"
  param {
    lr_mult: 1
    decay_mult: 1
  }
  param {
    lr_mult: 2
    decay_mult: 0
  }
  inner_product_param {
    num_output: 4096
    weight_filler {
      type: "gaussian"
      std: 0.005
    }
    bias_filler {
      type: "constant"
      value: 1
    }
  }
}
layer {
  name: "relu6"
  type: "ReLU"
  bottom: "fc6"
  top: "relu6"
}
layer {
  name: "drop6"
  type: "Dropout"
  bottom: "relu6"
  top: "drop6"
  dropout_param {
    dropout_ratio: 0.5
  }
}
layer {
  name: "fc7"
  type: "InnerProduct"
  bottom: "drop6"
  top: "fc7"
  param {
    lr_mult: 1
    decay_mult: 1
  }
  param {
    lr_mult: 2
    decay_mult: 0
  }
  inner_product_param {
    num_output: 4096
    weight_filler {
      type: "gaussian"
      std: 0.005
    }
    bias_filler {
      type: "constant"
      value: 1
    }
  }
}
layer {
  name: "bn7"
  type: "BatchNorm"
  bottom: "fc7"
  top: "bn7"
  param {
    lr_mult: 0
  }
  param {
    lr_mult: 0
  }
  param {
    lr_mult: 0
  }
  batch_norm_param {
    use_global_stats: true
  }
}
layer {
  name: "relu7"
  type: "ReLU"
  bottom: "bn7"
  top: "relu7"
}
layer {
  name: "drop7"
  type: "Dropout"
  bottom: "relu7"
  top: "drop7"
  dropout_param {
    dropout_ratio: 0.5
  }
}
layer {
  name: "fc8"
  type: "InnerProduct"
  bottom: "drop7"
  top: "fc8"
  param {
    lr_mult: 1
    decay_mult: 1
  }
  param {
    lr_mult: 2
    decay_mult: 0
  }
  inner_product_param {
    num_output: 2
    weight_filler {
      type: "gaussian"
      std: 0.01
    }
    bias_filler {
      type: "constant"
      value: 0
    }
  }
}
layer {
  name: "prob"
  type: "Softmax"
  bottom: "fc8"
  top: "prob"
}
I0318 07:57:26.792608  1025 layer_factory.hpp:123] Creating layer data
I0318 07:57:26.792618  1025 net.cpp:140] Creating Layer data
I0318 07:57:26.792623  1025 net.cpp:455] data -> data
I0318 07:57:26.792672  1025 net.cpp:190] Setting up data
I0318 07:57:26.792675  1025 net.cpp:197] Top shape: 1 3 227 227 (154587)
I0318 07:57:26.792681  1025 net.cpp:205] Memory required for data: 618348
I0318 07:57:26.792685  1025 layer_factory.hpp:123] Creating layer conv1
I0318 07:57:26.792693  1025 net.cpp:140] Creating Layer conv1
I0318 07:57:26.792696  1025 net.cpp:481] conv1 <- data
I0318 07:57:26.792701  1025 net.cpp:455] conv1 -> conv1
I0318 07:57:26.793558  1025 net.cpp:190] Setting up conv1
I0318 07:57:26.793566  1025 net.cpp:197] Top shape: 1 96 55 55 (290400)
I0318 07:57:26.793570  1025 net.cpp:205] Memory required for data: 1779948
I0318 07:57:26.793581  1025 layer_factory.hpp:123] Creating layer bn1
I0318 07:57:26.793586  1025 net.cpp:140] Creating Layer bn1
I0318 07:57:26.793588  1025 net.cpp:481] bn1 <- conv1
I0318 07:57:26.793592  1025 net.cpp:455] bn1 -> bn1
I0318 07:57:26.794107  1025 net.cpp:190] Setting up bn1
I0318 07:57:26.794113  1025 net.cpp:197] Top shape: 1 96 55 55 (290400)
I0318 07:57:26.794118  1025 net.cpp:205] Memory required for data: 2941548
I0318 07:57:26.794126  1025 layer_factory.hpp:123] Creating layer relu1
I0318 07:57:26.794131  1025 net.cpp:140] Creating Layer relu1
I0318 07:57:26.794133  1025 net.cpp:481] relu1 <- bn1
I0318 07:57:26.794137  1025 net.cpp:455] relu1 -> relu1
I0318 07:57:26.794154  1025 net.cpp:190] Setting up relu1
I0318 07:57:26.794159  1025 net.cpp:197] Top shape: 1 96 55 55 (290400)
I0318 07:57:26.794163  1025 net.cpp:205] Memory required for data: 4103148
I0318 07:57:26.794165  1025 layer_factory.hpp:123] Creating layer pool1
I0318 07:57:26.794171  1025 net.cpp:140] Creating Layer pool1
I0318 07:57:26.794174  1025 net.cpp:481] pool1 <- relu1
I0318 07:57:26.794178  1025 net.cpp:455] pool1 -> pool1
I0318 07:57:26.794205  1025 net.cpp:190] Setting up pool1
I0318 07:57:26.794209  1025 net.cpp:197] Top shape: 1 96 27 27 (69984)
I0318 07:57:26.794214  1025 net.cpp:205] Memory required for data: 4383084
I0318 07:57:26.794216  1025 layer_factory.hpp:123] Creating layer conv2
I0318 07:57:26.794221  1025 net.cpp:140] Creating Layer conv2
I0318 07:57:26.794224  1025 net.cpp:481] conv2 <- pool1
I0318 07:57:26.794229  1025 net.cpp:455] conv2 -> conv2
I0318 07:57:26.800496  1025 net.cpp:190] Setting up conv2
I0318 07:57:26.800509  1025 net.cpp:197] Top shape: 1 256 27 27 (186624)
I0318 07:57:26.800515  1025 net.cpp:205] Memory required for data: 5129580
I0318 07:57:26.800523  1025 layer_factory.hpp:123] Creating layer bn2
I0318 07:57:26.800530  1025 net.cpp:140] Creating Layer bn2
I0318 07:57:26.800534  1025 net.cpp:481] bn2 <- conv2
I0318 07:57:26.800539  1025 net.cpp:455] bn2 -> bn2
I0318 07:57:26.801005  1025 net.cpp:190] Setting up bn2
I0318 07:57:26.801010  1025 net.cpp:197] Top shape: 1 256 27 27 (186624)
I0318 07:57:26.801015  1025 net.cpp:205] Memory required for data: 5876076
I0318 07:57:26.801023  1025 layer_factory.hpp:123] Creating layer relu2
I0318 07:57:26.801025  1025 net.cpp:140] Creating Layer relu2
I0318 07:57:26.801028  1025 net.cpp:481] relu2 <- bn2
I0318 07:57:26.801033  1025 net.cpp:455] relu2 -> relu2
I0318 07:57:26.801046  1025 net.cpp:190] Setting up relu2
I0318 07:57:26.801051  1025 net.cpp:197] Top shape: 1 256 27 27 (186624)
I0318 07:57:26.801054  1025 net.cpp:205] Memory required for data: 6622572
I0318 07:57:26.801057  1025 layer_factory.hpp:123] Creating layer pool2
I0318 07:57:26.801064  1025 net.cpp:140] Creating Layer pool2
I0318 07:57:26.801066  1025 net.cpp:481] pool2 <- relu2
I0318 07:57:26.801069  1025 net.cpp:455] pool2 -> pool2
I0318 07:57:26.801093  1025 net.cpp:190] Setting up pool2
I0318 07:57:26.801098  1025 net.cpp:197] Top shape: 1 256 13 13 (43264)
I0318 07:57:26.801102  1025 net.cpp:205] Memory required for data: 6795628
I0318 07:57:26.801105  1025 layer_factory.hpp:123] Creating layer conv3
I0318 07:57:26.801112  1025 net.cpp:140] Creating Layer conv3
I0318 07:57:26.801115  1025 net.cpp:481] conv3 <- pool2
I0318 07:57:26.801120  1025 net.cpp:455] conv3 -> conv3
I0318 07:57:26.809418  1025 net.cpp:190] Setting up conv3
I0318 07:57:26.809429  1025 net.cpp:197] Top shape: 1 384 13 13 (64896)
I0318 07:57:26.809434  1025 net.cpp:205] Memory required for data: 7055212
I0318 07:57:26.809442  1025 layer_factory.hpp:123] Creating layer relu3
I0318 07:57:26.809463  1025 net.cpp:140] Creating Layer relu3
I0318 07:57:26.809465  1025 net.cpp:481] relu3 <- conv3
I0318 07:57:26.809469  1025 net.cpp:455] relu3 -> relu3
I0318 07:57:26.809490  1025 net.cpp:190] Setting up relu3
I0318 07:57:26.809494  1025 net.cpp:197] Top shape: 1 384 13 13 (64896)
I0318 07:57:26.809497  1025 net.cpp:205] Memory required for data: 7314796
I0318 07:57:26.809499  1025 layer_factory.hpp:123] Creating layer conv4
I0318 07:57:26.809505  1025 net.cpp:140] Creating Layer conv4
I0318 07:57:26.809509  1025 net.cpp:481] conv4 <- relu3
I0318 07:57:26.809511  1025 net.cpp:455] conv4 -> conv4
I0318 07:57:26.821228  1025 net.cpp:190] Setting up conv4
I0318 07:57:26.821242  1025 net.cpp:197] Top shape: 1 384 13 13 (64896)
I0318 07:57:26.821249  1025 net.cpp:205] Memory required for data: 7574380
I0318 07:57:26.821256  1025 layer_factory.hpp:123] Creating layer relu4
I0318 07:57:26.821262  1025 net.cpp:140] Creating Layer relu4
I0318 07:57:26.821264  1025 net.cpp:481] relu4 <- conv4
I0318 07:57:26.821269  1025 net.cpp:455] relu4 -> relu4
I0318 07:57:26.821286  1025 net.cpp:190] Setting up relu4
I0318 07:57:26.821290  1025 net.cpp:197] Top shape: 1 384 13 13 (64896)
I0318 07:57:26.821292  1025 net.cpp:205] Memory required for data: 7833964
I0318 07:57:26.821295  1025 layer_factory.hpp:123] Creating layer conv5
I0318 07:57:26.821301  1025 net.cpp:140] Creating Layer conv5
I0318 07:57:26.821303  1025 net.cpp:481] conv5 <- relu4
I0318 07:57:26.821306  1025 net.cpp:455] conv5 -> conv5
I0318 07:57:26.829174  1025 net.cpp:190] Setting up conv5
I0318 07:57:26.829187  1025 net.cpp:197] Top shape: 1 256 13 13 (43264)
I0318 07:57:26.829193  1025 net.cpp:205] Memory required for data: 8007020
I0318 07:57:26.829200  1025 layer_factory.hpp:123] Creating layer relu5
I0318 07:57:26.829205  1025 net.cpp:140] Creating Layer relu5
I0318 07:57:26.829208  1025 net.cpp:481] relu5 <- conv5
I0318 07:57:26.829212  1025 net.cpp:455] relu5 -> relu5
I0318 07:57:26.829229  1025 net.cpp:190] Setting up relu5
I0318 07:57:26.829234  1025 net.cpp:197] Top shape: 1 256 13 13 (43264)
I0318 07:57:26.829237  1025 net.cpp:205] Memory required for data: 8180076
I0318 07:57:26.829239  1025 layer_factory.hpp:123] Creating layer pool5
I0318 07:57:26.829243  1025 net.cpp:140] Creating Layer pool5
I0318 07:57:26.829246  1025 net.cpp:481] pool5 <- relu5
I0318 07:57:26.829248  1025 net.cpp:455] pool5 -> pool5
I0318 07:57:26.829285  1025 net.cpp:190] Setting up pool5
I0318 07:57:26.829288  1025 net.cpp:197] Top shape: 1 256 6 6 (9216)
I0318 07:57:26.829290  1025 net.cpp:205] Memory required for data: 8216940
I0318 07:57:26.829293  1025 layer_factory.hpp:123] Creating layer fc6
I0318 07:57:26.829304  1025 net.cpp:140] Creating Layer fc6
I0318 07:57:26.829311  1025 net.cpp:481] fc6 <- pool5
I0318 07:57:26.829315  1025 net.cpp:455] fc6 -> fc6
I0318 07:57:27.129700  1025 net.cpp:190] Setting up fc6
I0318 07:57:27.129720  1025 net.cpp:197] Top shape: 1 4096 (4096)
I0318 07:57:27.129726  1025 net.cpp:205] Memory required for data: 8233324
I0318 07:57:27.129739  1025 layer_factory.hpp:123] Creating layer relu6
I0318 07:57:27.129746  1025 net.cpp:140] Creating Layer relu6
I0318 07:57:27.129750  1025 net.cpp:481] relu6 <- fc6
I0318 07:57:27.129755  1025 net.cpp:455] relu6 -> relu6
I0318 07:57:27.129791  1025 net.cpp:190] Setting up relu6
I0318 07:57:27.129796  1025 net.cpp:197] Top shape: 1 4096 (4096)
I0318 07:57:27.129798  1025 net.cpp:205] Memory required for data: 8249708
I0318 07:57:27.129801  1025 layer_factory.hpp:123] Creating layer drop6
I0318 07:57:27.129806  1025 net.cpp:140] Creating Layer drop6
I0318 07:57:27.129807  1025 net.cpp:481] drop6 <- relu6
I0318 07:57:27.129810  1025 net.cpp:455] drop6 -> drop6
I0318 07:57:27.129830  1025 net.cpp:190] Setting up drop6
I0318 07:57:27.129834  1025 net.cpp:197] Top shape: 1 4096 (4096)
I0318 07:57:27.129837  1025 net.cpp:205] Memory required for data: 8266092
I0318 07:57:27.129839  1025 layer_factory.hpp:123] Creating layer fc7
I0318 07:57:27.129845  1025 net.cpp:140] Creating Layer fc7
I0318 07:57:27.129848  1025 net.cpp:481] fc7 <- drop6
I0318 07:57:27.129853  1025 net.cpp:455] fc7 -> fc7
I0318 07:57:27.264552  1025 net.cpp:190] Setting up fc7
I0318 07:57:27.264575  1025 net.cpp:197] Top shape: 1 4096 (4096)
I0318 07:57:27.264581  1025 net.cpp:205] Memory required for data: 8282476
I0318 07:57:27.264592  1025 layer_factory.hpp:123] Creating layer bn7
I0318 07:57:27.264603  1025 net.cpp:140] Creating Layer bn7
I0318 07:57:27.264606  1025 net.cpp:481] bn7 <- fc7
I0318 07:57:27.264612  1025 net.cpp:455] bn7 -> bn7
I0318 07:57:27.265076  1025 net.cpp:190] Setting up bn7
I0318 07:57:27.265082  1025 net.cpp:197] Top shape: 1 4096 (4096)
I0318 07:57:27.265085  1025 net.cpp:205] Memory required for data: 8298860
I0318 07:57:27.265092  1025 layer_factory.hpp:123] Creating layer relu7
I0318 07:57:27.265097  1025 net.cpp:140] Creating Layer relu7
I0318 07:57:27.265100  1025 net.cpp:481] relu7 <- bn7
I0318 07:57:27.265103  1025 net.cpp:455] relu7 -> relu7
I0318 07:57:27.265117  1025 net.cpp:190] Setting up relu7
I0318 07:57:27.265122  1025 net.cpp:197] Top shape: 1 4096 (4096)
I0318 07:57:27.265125  1025 net.cpp:205] Memory required for data: 8315244
I0318 07:57:27.265127  1025 layer_factory.hpp:123] Creating layer drop7
I0318 07:57:27.265133  1025 net.cpp:140] Creating Layer drop7
I0318 07:57:27.265136  1025 net.cpp:481] drop7 <- relu7
I0318 07:57:27.265139  1025 net.cpp:455] drop7 -> drop7
I0318 07:57:27.265177  1025 net.cpp:190] Setting up drop7
I0318 07:57:27.265182  1025 net.cpp:197] Top shape: 1 4096 (4096)
I0318 07:57:27.265185  1025 net.cpp:205] Memory required for data: 8331628
I0318 07:57:27.265187  1025 layer_factory.hpp:123] Creating layer fc8
I0318 07:57:27.265193  1025 net.cpp:140] Creating Layer fc8
I0318 07:57:27.265197  1025 net.cpp:481] fc8 <- drop7
I0318 07:57:27.265199  1025 net.cpp:455] fc8 -> fc8
I0318 07:57:27.265352  1025 net.cpp:190] Setting up fc8
I0318 07:57:27.265357  1025 net.cpp:197] Top shape: 1 2 (2)
I0318 07:57:27.265359  1025 net.cpp:205] Memory required for data: 8331636
I0318 07:57:27.265364  1025 layer_factory.hpp:123] Creating layer prob
I0318 07:57:27.265368  1025 net.cpp:140] Creating Layer prob
I0318 07:57:27.265372  1025 net.cpp:481] prob <- fc8
I0318 07:57:27.265374  1025 net.cpp:455] prob -> prob
I0318 07:57:27.265425  1025 net.cpp:190] Setting up prob
I0318 07:57:27.265430  1025 net.cpp:197] Top shape: 1 2 (2)
I0318 07:57:27.265434  1025 net.cpp:205] Memory required for data: 8331644
I0318 07:57:27.265436  1025 net.cpp:268] prob does not need backward computation.
I0318 07:57:27.265439  1025 net.cpp:268] fc8 does not need backward computation.
I0318 07:57:27.265441  1025 net.cpp:268] drop7 does not need backward computation.
I0318 07:57:27.265444  1025 net.cpp:268] relu7 does not need backward computation.
…
