…
        min_scale: 0.3
        max_scale: 1
        min_aspect_ratio: 0.5
        max_aspect_ratio: 2
      }
      sample_constraint {
        min_jaccard_overlap: 0.9
      }
      max_sample: 1
      max_trials: 50
    }
    batch_sampler {
      sampler {
        min_scale: 0.3
        max_scale: 1
        min_aspect_ratio: 0.5
        max_aspect_ratio: 2
      }
      sample_constraint {
        max_jaccard_overlap: 1
      }
      max_sample: 1
      max_trials: 50
    }
    label_map_file: "/workspace/SSD/data/labelmap_voc.prototxt"
  }
}
layer {
  name: "data_fixed"
  type: "FixedNeuron"
  bottom: "data"
  top: "data"
  param {
    lr_mult: 0
    decay_mult: 0
  }
  fixed_param {
    fixed_method: OVER_FLOW
    bit_width: 8
    follow_data_layer: true
  }
}
layer {
  name: "conv1"
  type: "ConvolutionFixed"
  bottom: "data"
  top: "conv1/bn"
  param {
    lr_mult: 1
    decay_mult: 1
  }
  param {
    lr_mult: 1
    decay_mult: 0
  }
  convolution_param {
    num_output: 32
    bias_term: true
    pad: 1
    kernel_size: 3
    stride: 2
    weight_filler {
      type: "msra"
    }
  }
  fixed_param {
    fixed_method: DIFF_S
    bit_width: 8
  }
}
layer {
  name: "relu1"
  type: "ReLU"
  bottom: "conv1/bn"
  top: "conv1/bn"
}
layer {
  name: "conv1/bn_fixed"
  type: "FixedNeuron"
  bottom: "conv1/bn"
  top: "conv1/bn"
  param {
    lr_mult: 0
    decay_mult: 0
  }
  fixed_param {
    fixed_method: DIFF_S
    bit_width: 8
  }
}
layer {
  name: "conv2_1/expand"
  type: "ConvolutionFixed"
  bottom: "conv1/bn"
  top: "conv2_1/expand/bn"
  param {
    lr_mult: 1
    decay_mult: 1
  }
  param {
    lr_mult: 1
    decay_mult: 0
  }
  convolution_param {
    num_output: 32
    bias_term: true
    kernel_size: 1
    weight_filler {
      type: "msra"
    }
  }
  fixed_param {
    fixed_method: DIFF_S
    bit_width: 8
  }
}
layer {
  name: "relu2_1/expand"
  type: "ReLU"
  bottom: "conv2_1/expand/bn"
  top: "conv2_1/expand/bn"
}
layer {
  name: "conv2_1/expand/bn_fixed"
  type: "FixedNeuron"
  bottom: "conv2_1/expand/bn"
  top: "conv2_1/expand/bn"
  param {
    lr_mult: 0
    decay_mult: 0
  }
  fixed_param {
    fixed_method: DIFF_S
    bit_width: 8
  }
}
layer {
  name: "conv2_1/dwise"
  type: "ConvolutionFixed"
  bottom: "conv2_1/expand/bn"
  top: "conv2_1/dwise/bn"
  param {
    lr_mult: 1
    decay_mult: 1
  }
  param {
    lr_mult: 1
    decay_mult: 0
  }
  convolution_param {
    num_output: 32
    bias_term: true
    pad: 1
    kernel_size: 3
    group: 32
    weight_filler {
      type: "msra"
    }
    engine: CAFFE
  }
  fixed_param {
    fixed_method: DIFF_S
    bit_width: 8
  }
}
layer {
  name: "relu2_1/dwise"
  type: "ReLU"
  bottom: "conv2_1/dwise/bn"
  top: "conv2_1/dwise/bn"
}
layer {
  name: "conv2_1/dwise/bn_fixed"
  type: "FixedNeuron"
  bottom: "conv2_1/dwise/bn"
  top: "conv2_1/dwise/bn"
  param {
    lr_mult: 0
    decay_mult: 0
  }
  fixed_param {
    fixed_method: DIFF_S
    bit_width: 8
  }
}
layer {
  name: "conv2_1/linear"
  type: "ConvolutionFixed"
  bottom: "conv2_1/dwise/bn"
  top: "conv2_1/linear/bn"
  param {
    lr_mult: 1
    decay_mult: 1
  }
  param {
    lr_mult: 1
    decay_mult: 0
  }
  convolution_param {
    num_output: 16
    bias_term: true
    kernel_size: 1
    weight_filler {
      type: "msra"
    }
  }
  fixed_param {
    fixed_method: DIFF_S
    bit_width: 8
  }
}
layer {
  name: "conv2_1/linear/bn_fixed"
  type: "FixedNeuron"
  bottom: "conv2_1/linear/bn"
  top: "conv2_1/linear/bn"
  param {
    lr_mult: 0
    decay_mult: 0
  }
  fixed_param {
    fixed_method: DIFF_S
    bit_width: 8
  }
}
layer {
  name: "conv2_2/expand"
  type: "ConvolutionFixed"
  bottom: "conv2_1/linear/bn"
  top: "conv2_2/expand/bn"
  param {
    lr_mult: 1
    decay_mult: 1
  }
  param {
    lr_mult: 1
    decay_mult: 0
  }
  convolution_param {
    num_output: 96
    bias_term: true
    kernel_size: 1
    weight_filler {
      type: "msra"
    }
  }
  fixed_param {
    fixed_method: DIFF_S
    bit_width: 8
  }
}
layer {
  name: "relu2_2/expand"
  type: "ReLU"
  bottom: "conv2_2/expand/bn"
  top: "conv2_2/expand/bn"
}
layer {
  name: "conv2_2/expand/bn_fixed"
  type: "FixedNeuron"
  bottom: "conv2_2/expand/bn"
  top: "conv2_2/expand/bn"
  param {
    lr_mult: 0
    decay_mult: 0
  }
  fixed_param {
    fixed_method: DIFF_S
    bit_width: 8
  }
}
layer {
  name: "conv2_2/dwise"
  type: "ConvolutionFixed"
  bottom: "conv2_2/expand/bn"
  top: "conv2_2/dwise/bn"
  param {
    lr_mult: 1
    decay_mult: 1
  }
  param {
    lr_mult: 1
    decay_mult: 0
  }
  convolution_param {
    num_output: 96
    bias_term: true
    pad: 1
    kernel_size: 3
    group: 96
    stride: 2
    weight_filler {
      type: "msra"
    }
    engine: CAFFE
  }
  fixed_param {
    fixed_method: DIFF_S
    bit_width: 8
  }
}
layer {
  name: "relu2_2/dwise"
  type: "ReLU"
  bottom: "conv2_2/dwise/bn"
  top: "conv2_2/dwise/bn"
}
layer {
  name: "conv2_2/dwise/bn_fixed"
  type: "FixedNeuron"
  bottom: "conv2_2/dwise/bn"
  top: "conv2_2/dwise/bn"
  param {
    lr_mult: 0
    decay_mult: 0
  }
  fixed_param {
    fixed_method: DIFF_S
    bit_width: 8
  }
}
layer {
  name: "conv2_2/linear"
  type: "ConvolutionFixed"
  bottom: "conv2_2/dwise/bn"
  top: "conv2_2/linear/bn"
  param {
    lr_mult: 1
    decay_mult: 1
  }
  param {
    lr_mult: 1
    decay_mult: 0
  }
  convolution_param {
    num_output: 24
    bias_term: true
    kernel_size: 1
    weight_filler {
      type: "msra"
    }
  }
  fixed_param {
    fixed_method: DIFF_S
    bit_width: 8
  }
}
layer {
  name: "conv2_2/linear/bn_fixed"
  type: "FixedNeuron"
  bottom: "conv2_2/linear/bn"
  top: "conv2_2/linear/bn"
  param {
    lr_mult: 0
    decay_mult: 0
  }
  fixed_param {
    fixed_method: DIFF_S
    bit_width: 8
  }
}
layer {
  name: "conv3_1/expand"
  type: "ConvolutionFixed"
  bottom: "conv2_2/linear/bn"
  top: "conv3_1/expand/bn"
  param {
    lr_mult: 1
    decay_mult: 1
  }
  param {
    lr_mult: 1
    decay_mult: 0
  }
  convolution_param {
    num_output: 144
    bias_term: true
    kernel_size: 1
    weight_filler {
      type: "msra"
    }
  }
  fixed_param {
    fixed_method: DIFF_S
    bit_width: 8
  }
}
layer {
  name: "relu3_1/expand"
  type: "ReLU"
  bottom: "conv3_1/expand/bn"
  top: "conv3_1/expand/bn"
}
layer {
  name: "conv3_1/expand/bn_fixed"
  type: "FixedNeuron"
  bottom: "conv3_1/expand/bn"
  top: "conv3_1/expand/bn"
  param {
    lr_mult: 0
    decay_mult: 0
  }
  fixed_param {
    fixed_method: DIFF_S
    bit_width: 8
  }
}
layer {
  name: "conv3_1/dwise"
  type: "ConvolutionFixed"
  bottom: "conv3_1/expand/bn"
  top: "conv3_1/dwise/bn"
  param {
    lr_mult: 1
    decay_mult: 1
  }
  param {
    lr_mult: 1
    decay_mult: 0
  }
  convolution_param {
    num_output: 144
    bias_term: true
    pad: 1
    kernel_size: 3
    group: 144
    weight_filler {
      type: "msra"
    }
    engine: CAFFE
  }
  fixed_param {
    fixed_method: DIFF_S
    bit_width: 8
  }
}
layer {
  name: "relu3_1/dwise"
  type: "ReLU"
  bottom: "conv3_1/dwise/bn"
  top: "conv3_1/dwise/bn"
}
layer {
  name: "conv3_1/dwise/bn_fixed"
  type: "FixedNeuron"
  bottom: "conv3_1/dwise/bn"
  top: "conv3_1/dwise/bn"
  param {
    lr_mult: 0
    decay_mult: 0
  }
  fixed_param {
    fixed_method: DIFF_S
    bit_width: 8
  }
}
layer {
  name: "conv3_1/linear"
  type: "ConvolutionFixed"
  bottom: "conv3_1/dwise/bn"
  top: "conv3_1/linear/bn"
  param {
    lr_mult: 1
    decay_mult: 1
  }
  param {
    lr_mult: 1
    decay_mult: 0
  }
  convolution_param {
    num_output: 24
    bias_term: true
    kernel_size: 1
    weight_filler {
      type: "msra"
    }
  }
  fixed_param {
    fixed_method: DIFF_S
    bit_width: 8
  }
}
layer {
  name: "conv3_1/linear/bn_fixed"
  type: "FixedNeuron"
  bottom: "conv3_1/linear/bn"
  top: "conv3_1/linear/bn"
  param {
    lr_mult: 0
    decay_mult: 0
  }
  fixed_param {
    fixed_method: DIFF_S
    bit_width: 8
  }
}
layer {
  name: "block_3_1"
  type: "Eltwise"
  bottom: "conv2_2/linear/bn"
  bottom: "conv3_1/linear/bn"
  top: "block_3_1"
}
layer {
  name: "block_3_1_fixed"
  type: "FixedNeuron"
  bottom: "block_3_1"
  top: "block_3_1"
  param {
    lr_mult: 0
    decay_mult: 0
  }
  fixed_param {
    fixed_method: DIFF_S
    bit_width: 8
  }
}
layer {
  name: "conv3_2/expand"
  type: "ConvolutionFixed"
  bottom: "block_3_1"
  top: "conv3_2/expand/bn"
  param {
    lr_mult: 1
    decay_mult: 1
  }
  param {
    lr_mult: 1
    decay_mult: 0
  }
  convolution_param {
    num_output: 144
    bias_term: true
    kernel_size: 1
    weight_filler {
      type: "msra"
    }
  }
  fixed_param {
    fixed_method: DIFF_S
    bit_width: 8
  }
}
layer {
  name: "relu3_2/expand"
  type: "ReLU"
  bottom: "conv3_2/expand/bn"
  top: "conv3_2/expand/bn"
}
layer {
  name: "conv3_2/expand/bn_fixed"
  type: "FixedNeuron"
  bottom: "conv3_2/expand/bn"
  top: "conv3_2/expand/bn"
  param {
    lr_mult: 0
    decay_mult: 0
  }
  fixed_param {
    fixed_method: DIFF_S
    bit_width: 8
  }
}
layer {
  name: "conv3_2/dwise"
  type: "ConvolutionFixed"
  bottom: "conv3_2/expand/bn"
  top: "conv3_2/dwise/bn"
  param {
    lr_mult: 1
    decay_mult: 1
  }
  param {
    lr_mult: 1
    decay_mult: 0
  }
  convolution_param {
    num_output: 144
    bias_term: true
    pad: 1
    kernel_size: 3
    group: 144
    stride: 2
    weight_filler {
      type: "msra"
    }
    engine: CAFFE
  }
  fixed_param {
    fixed_method: DIFF_S
    bit_width: 8
  }
}
layer {
  name: "relu3_2/dwise"
  type: "ReLU"
  bottom: "conv3_2/dwise/bn"
  top: "conv3_2/dwise/bn"
}
layer {
  name: "conv3_2/dwise/bn_fixed"
  type: "FixedNeuron"
  bottom: "conv3_2/dwise/bn"
  top: "conv3_2/dwise/bn"
  param {
    lr_mult: 0
    decay_mult: 0
  }
  fixed_param {
    fixed_method: DIFF_S
    bit_width: 8
  }
}
layer {
  name: "conv3_2/linear"
  type: "ConvolutionFixed"
  bottom: "conv3_2/dwise/bn"
  top: "conv3_2/linear/bn"
  param {
    lr_mult: 1
    decay_mult: 1
  }
  param {
    lr_mult: 1
    decay_mult: 0
  }
  convolution_param {
    num_output: 32
    bias_term: true
    kernel_size: 1
    weight_filler {
      type: "msra"
    }
  }
  fixed_param {
    fixed_method: DIFF_S
    bit_width: 8
  }
}
layer {
  name: "conv3_2/linear/bn_fixed"
  type: "FixedNeuron"
  bottom: "conv3_2/linear/bn"
  top: "conv3_2/linear/bn"
  param {
    lr_mult: 0
    decay_mult: 0
  }
  fixed_param {
    fixed_method: DIFF_S
    bit_width: 8
  }
}
layer {
  name: "conv4_1/expand"
  type: "ConvolutionFixed"
  bottom: "conv3_2/linear/bn"
  top: "conv4_1/expand/bn"
  param {
    lr_mult: 1
    decay_mult: 1
  }
  param {
    lr_mult: 1
    decay_mult: 0
  }
  convolution_param {
    num_output: 192
    bias_term: true
    kernel_size: 1
    weight_filler {
      type: "msra"
    }
  }
  fixed_param {
    fixed_method: DIFF_S
    bit_width: 8
  }
}
layer {
  name: "relu4_1/expand"
  type: "ReLU"
  bottom: "conv4_1/expand/bn"
  top: "conv4_1/expand/bn"
}
layer {
  name: "conv4_1/expand/bn_fixed"
  type: "FixedNeuron"
  bottom: "conv4_1/expand/bn"
  top: "conv4_1/expand/bn"
  param {
    lr_mult: 0
    decay_mult: 0
  }
  fixed_param {
    fixed_method: DIFF_S
    bit_width: 8
  }
}
layer {
  name: "conv4_1/dwise"
  type: "ConvolutionFixed"
  bottom: "conv4_1/expand/bn"
  top: "conv4_1/dwise/bn"
  param {
    lr_mult: 1
    decay_mult: 1
  }
  param {
    lr_mult: 1
    decay_mult: 0
  }
  convolution_param {
    num_output: 192
    bias_term: true
    pad: 1
    kernel_size: 3
    group: 192
    weight_filler {
      type: "msra"
    }
    engine: CAFFE
  }
  fixed_param {
    fixed_method: DIFF_S
    bit_width: 8
  }
}
layer {
  name: "relu4_1/dwise"
  type: "ReLU"
  bottom: "conv4_1/dwise/bn"
  top: "conv4_1/dwise/bn"
}
layer {
  name: "conv4_1/dwise/bn_fixed"
  type: "FixedNeuron"
  bottom: "conv4_1/dwise/bn"
  top: "conv4_1/dwise/bn"
  param {
    lr_mult: 0
    decay_mult: 0
  }
  fixed_param {
    fixed_method: DIFF_S
    bit_width: 8
  }
}
layer {
  name: "conv4_1/linear"
  type: "ConvolutionFixed"
  bottom: "conv4_1/dwise/bn"
  top: "conv4_1/linear/bn"
  param {
    lr_mult: 1
    decay_mult: 1
  }
  param {
    lr_mult: 1
    decay_mult: 0
  }
  convolution_param {
    num_output: 32
    bias_term: true
    kernel_size: 1
    weight_filler {
      type: "msra"
    }
  }
  fixed_param {
    fixed_method: DIFF_S
    bit_width: 8
  }
}
layer {
  name: "conv4_1/linear/bn_fixed"
  type: "FixedNeuron"
  bottom: "conv4_1/linear/bn"
  top: "conv4_1/linear/bn"
  param {
    lr_mult: 0
    decay_mult: 0
  }
  fixed_param {
    fixed_method: DIFF_S
    bit_width: 8
  }
}
layer {
  name: "block_4_1"
  type: "Eltwise"
  bottom: "conv3_2/linear/bn"
  bottom: "conv4_1/linear/bn"
  top: "block_4_1"
}
layer {
  name: "block_4_1_fixed"
  type: "FixedNeuron"
  bottom: "block_4_1"
  top: "block_4_1"
  param {
    lr_mult: 0
    decay_mult: 0
  }
  fixed_param {
    fixed_method: DIFF_S
    bit_width: 8
  }
}
layer {
  name: "conv4_2/expand"
  type: "ConvolutionFixed"
  bottom: "block_4_1"
  top: "conv4_2/expand/bn"
  param {
    lr_mult: 1
    decay_mult: 1
  }
  param {
    lr_mult: 1
    decay_mult: 0
  }
  convolution_param {
    num_output: 192
    bias_term: true
    kernel_size: 1
    weight_filler {
      type: "msra"
    }
  }
  fixed_param {
    fixed_method: DIFF_S
    bit_width: 8
  }
}
layer {
  name: "relu4_2/expand"
  type: "ReLU"
  bottom: "conv4_2/expand/bn"
  top: "conv4_2/expand/bn"
}
layer {
  name: "conv4_2/expand/bn_fixed"
  type: "FixedNeuron"
  bottom: "conv4_2/expand/bn"
  top: "conv4_2/expand/bn"
  param {
    lr_mult: 0
    decay_mult: 0
  }
  fixed_param {
    fixed_method: DIFF_S
    bit_width: 8
  }
}
layer {
  name: "conv4_2/dwise"
  type: "ConvolutionFixed"
  bottom: "conv4_2/expand/bn"
  top: "conv4_2/dwise/bn"
  param {
    lr_mult: 1
    decay_mult: 1
  }
  param {
    lr_mult: 1
    decay_mult: 0
  }
  convolution_param {
    num_output: 192
    bias_term: true
    pad: 1
    kernel_size: 3
    group: 192
    weight_filler {
      type: "msra"
    }
    engine: CAFFE
  }
  fixed_param {
    fixed_method: DIFF_S
    bit_width: 8
  }
}
layer {
  name: "relu4_2/dwise"
  type: "ReLU"
  bottom: "conv4_2/dwise/bn"
  top: "conv4_2/dwise/bn"
}
layer {
  name: "conv4_2/dwise/bn_fixed"
  type: "FixedNeuron"
  bottom: "conv4_2/dwise/bn"
  top: "conv4_2/dwise/bn"
  param {
    lr_mult: 0
    decay_mult: 0
  }
  fixed_param {
    fixed_method: DIFF_S
    bit_width: 8
  }
}
layer {
  name: "conv4_2/linear"
  type: "ConvolutionFixed"
  bottom: "conv4_2/dwise/bn"
  top: "conv4_2/linear/bn"
  param {
    lr_mult: 1
    decay_mult: 1
  }
  param {
    lr_mult: 1
    decay_mult: 0
  }
  convolution_param {
    num_output: 32
    bias_term: true
    kernel_size: 1
    weight_filler {
      type: "msra"
    }
  }
  fixed_param {
    fixed_method: DIFF_S
    bit_width: 8
  }
}
layer {
  name: "conv4_2/linear/bn_fixed"
  type: "FixedNeuron"
  bottom: "conv4_2/linear/bn"
  top: "conv4_2/linear/bn"
  param {
    lr_mult: 0
    decay_mult: 0
  }
  fixed_param {
    fixed_method: DIFF_S
    bit_width: 8
  }
}
layer {
  name: "block_4_2"
  type: "Eltwise"
  bottom: "block_4_1"
  bottom: "conv4_2/linear/bn"
  top: "block_4_2"
}
layer {
  name: "block_4_2_fixed"
  type: "FixedNeuron"
  bottom: "block_4_2"
  top: "block_4_2"
  param {
    lr_mult: 0
    decay_mult: 0
  }
  fixed_param {
    fixed_method: DIFF_S
    bit_width: 8
  }
}
layer {
  name: "conv4_3/expand"
  type: "ConvolutionFixed"
  bottom: "block_4_2"
  top: "conv4_3/expand/bn"
  param {
    lr_mult: 1
    decay_mult: 1
  }
  param {
    lr_mult: 1
    decay_mult: 0
  }
  convolution_param {
    num_output: 192
    bias_term: true
    kernel_size: 1
    weight_filler {
      type: "msra"
    }
  }
  fixed_param {
    fixed_method: DIFF_S
    bit_width: 8
  }
}
layer {
  name: "relu4_3/expand"
  type: "ReLU"
  bottom: "conv4_3/expand/bn"
  top: "conv4_3/expand/bn"
}
layer {
  name: "conv4_3/expand/bn_fixed"
  type: "FixedNeuron"
  bottom: "conv4_3/expand/bn"
  top: "conv4_3/expand/bn"
  param {
    lr_mult: 0
    decay_mult: 0
  }
  fixed_param {
    fixed_method: DIFF_S
    bit_width: 8
  }
}
layer {
  name: "conv4_3/dwise"
  type: "ConvolutionFixed"
  bottom: "conv4_3/expand/bn"
  top: "conv4_3/dwise/bn"
  param {
    lr_mult: 1
    decay_mult: 1
  }
  param {
    lr_mult: 1
    decay_mult: 0
  }
  convolution_param {
    num_output: 192
    bias_term: true
    pad: 1
    kernel_size: 3
    group: 192
    weight_filler {
      type: "msra"
    }
    engine: CAFFE
  }
  fixed_param {
    fixed_method: DIFF_S
    bit_width: 8
  }
}
layer {
  name: "relu4_3/dwise"
  type: "ReLU"
  bottom: "conv4_3/dwise/bn"
  top: "conv4_3/dwise/bn"
}
layer {
  name: "conv4_3/dwise/bn_fixed"
  type: "FixedNeuron"
  bottom: "conv4_3/dwise/bn"
  top: "conv4_3/dwise/bn"
  param {
    lr_mult: 0
    decay_mult: 0
  }
  fixed_param {
    fixed_method: DIFF_S
    bit_width: 8
  }
}
layer {
  name: "conv4_3/linear"
  type: "ConvolutionFixed"
  bottom: "conv4_3/dwise/bn"
  top: "conv4_3/linear/bn"
  param {
    lr_mult: 1
    decay_mult: 1
  }
  param {
    lr_mult: 1
    decay_mult: 0
  }
  convolution_param {
    num_output: 64
    bias_term: true
    kernel_size: 1
    weight_filler {
      type: "msra"
    }
  }
  fixed_param {
    fixed_method: DIFF_S
    bit_width: 8
  }
}
layer {
  name: "conv4_3/linear/bn_fixed"
  type: "FixedNeuron"
  bottom: "conv4_3/linear/bn"
  top: "conv4_3/linear/bn"
  param {
    lr_mult: 0
    decay_mult: 0
  }
  fixed_param {
    fixed_method: DIFF_S
    bit_width: 8
  }
}
layer {
  name: "conv4_4/expand"
  type: "ConvolutionFixed"
  bottom: "conv4_3/linear/bn"
  top: "conv4_4/expand/bn"
  param {
    lr_mult: 1
    decay_mult: 1
  }
  param {
    lr_mult: 1
    decay_mult: 0
  }
  convolution_param {
    num_output: 384
    bias_term: true
    kernel_size: 1
    weight_filler {
      type: "msra"
    }
  }
  fixed_param {
    fixed_method: DIFF_S
    bit_width: 8
  }
}
layer {
  name: "relu4_4/expand"
  type: "ReLU"
  bottom: "conv4_4/expand/bn"
  top: "conv4_4/expand/bn"
}
layer {
  name: "conv4_4/expand/bn_fixed"
  type: "FixedNeuron"
  bottom: "conv4_4/expand/bn"
  top: "conv4_4/expand/bn"
  param {
    lr_mult: 0
    decay_mult: 0
  }
  fixed_param {
    fixed_method: DIFF_S
    bit_width: 8
  }
}
layer {
  name: "conv4_4/dwise"
  type: "ConvolutionFixed"
  bottom: "conv4_4/expand/bn"
  top: "conv4_4/dwise/bn"
  param {
    lr_mult: 1
    decay_mult: 1
  }
  param {
    lr_mult: 1
    decay_mult: 0
  }
  convolution_param {
    num_output: 384
    bias_term: true
    pad: 1
    kernel_size: 3
    group: 384
    weight_filler {
      type: "msra"
    }
    engine: CAFFE
  }
  fixed_param {
    fixed_method: DIFF_S
    bit_width: 8
  }
}
layer {
  name: "relu4_4/dwise"
  type: "ReLU"
  bottom: "conv4_4/dwise/bn"
  top: "conv4_4/dwise/bn"
}
layer {
  name: "conv4_4/dwise/bn_fixed"
  type: "FixedNeuron"
  bottom: "conv4_4/dwise/bn"
  top: "conv4_4/dwise/bn"
  param {
    lr_mult: 0
    decay_mult: 0
  }
  fixed_param {
    fixed_method: DIFF_S
    bit_width: 8
  }
}
layer {
  name: "conv4_4/linear"
  type: "ConvolutionFixed"
  bottom: "conv4_4/dwise/bn"
  top: "conv4_4/linear/bn"
  param {
    lr_mult: 1
    decay_mult: 1
  }
  param {
    lr_mult: 1
    decay_mult: 0
  }
  convolution_param {
    num_output: 64
    bias_term: true
    kernel_size: 1
    weight_filler {
      type: "msra"
    }
  }
  fixed_param {
    fixed_method: DIFF_S
    bit_width: 8
  }
}
layer {
  name: "conv4_4/linear/bn_fixed"
  type: "FixedNeuron"
  bottom: "conv4_4/linear/bn"
  top: "conv4_4/linear/bn"
  param {
    lr_mult: 0
    decay_mult: 0
  }
  fixed_param {
    fixed_method: DIFF_S
    bit_width: 8
  }
}
layer {
  name: "block_4_4"
  type: "Eltwise"
  bottom: "conv4_3/linear/bn"
  bottom: "conv4_4/linear/bn"
  top: "block_4_4"
}
layer {
  name: "block_4_4_fixed"
  type: "FixedNeuron"
  bottom: "block_4_4"
  top: "block_4_4"
  param {
    lr_mult: 0
    decay_mult: 0
  }
  fixed_param {
    fixed_method: DIFF_S
    bit_width: 8
  }
}
layer {
  name: "conv4_5/expand"
  type: "ConvolutionFixed"
  bottom: "block_4_4"
  top: "conv4_5/expand/bn"
  param {
    lr_mult: 1
    decay_mult: 1
  }
  param {
    lr_mult: 1
    decay_mult: 0
  }
  convolution_param {
    num_output: 384
    bias_term: true
    kernel_size: 1
    weight_filler {
      type: "msra"
    }
  }
  fixed_param {
    fixed_method: DIFF_S
    bit_width: 8
  }
}
layer {
  name: "relu4_5/expand"
  type: "ReLU"
  bottom: "conv4_5/expand/bn"
  top: "conv4_5/expand/bn"
}
layer {
  name: "conv4_5/expand/bn_fixed"
  type: "FixedNeuron"
  bottom: "conv4_5/expand/bn"
  top: "conv4_5/expand/bn"
  param {
    lr_mult: 0
    decay_mult: 0
  }
  fixed_param {
    fixed_method: DIFF_S
    bit_width: 8
  }
}
layer {
  name: "conv4_5/dwise"
  type: "ConvolutionFixed"
  bottom: "conv4_5/expand/bn"
  top: "conv4_5/dwise/bn"
  param {
    lr_mult: 1
    decay_mult: 1
  }
  param {
    lr_mult: 1
    decay_mult: 0
  }
  convolution_param {
    num_output: 384
    bias_term: true
    pad: 1
    kernel_size: 3
    group: 384
    weight_filler {
      type: "msra"
    }
    engine: CAFFE
  }
  fixed_param {
    fixed_method: DIFF_S
    bit_width: 8
  }
}
layer {
  name: "relu4_5/dwise"
  type: "ReLU"
  bottom: "conv4_5/dwise/bn"
  top: "conv4_5/dwise/bn"
}
layer {
  name: "conv4_5/dwise/bn_fixed"
  type: "FixedNeuron"
  bottom: "conv4_5/dwise/bn"
  top: "conv4_5/dwise/bn"
  param {
    lr_mult: 0
    decay_mult: 0
  }
  fixed_param {
    fixed_method: DIFF_S
    bit_width: 8
  }
}
layer {
  name: "conv4_5/linear"
  type: "ConvolutionFixed"
  bottom: "conv4_5/dwise/bn"
  top: "conv4_5/linear/bn"
  param {
    lr_mult: 1
    decay_mult: 1
  }
  param {
    lr_mult: 1
    decay_mult: 0
  }
  convolution_param {
    num_output: 64
    bias_term: true
    kernel_size: 1
    weight_filler {
      type: "msra"
    }
  }
  fixed_param {
    fixed_method: DIFF_S
    bit_width: 8
  }
}
layer {
  name: "conv4_5/linear/bn_fixed"
  type: "FixedNeuron"
  bottom: "conv4_5/linear/bn"
  top: "conv4_5/linear/bn"
  param {
    lr_mult: 0
    decay_mult: 0
  }
  fixed_param {
    fixed_method: DIFF_S
    bit_width: 8
  }
}
layer {
  name: "block_4_5"
  type: "Eltwise"
  bottom: "block_4_4"
  bottom: "conv4_5/linear/bn"
  top: "block_4_5"
}
layer {
  name: "block_4_5_fixed"
  type: "FixedNeuron"
  bottom: "block_4_5"
  top: "block_4_5"
  param {
    lr_mult: 0
    decay_mult: 0
  }
  fixed_param {
    fixed_method: DIFF_S
    bit_width: 8
  }
}
layer {
  name: "conv4_6/expand"
  type: "ConvolutionFixed"
  bottom: "block_4_5"
  top: "conv4_6/expand/bn"
  param {
    lr_mult: 1
    decay_mult: 1
  }
  param {
    lr_mult: 1
    decay_mult: 0
  }
  convolution_param {
    num_output: 384
    bias_term: true
    kernel_size: 1
    weight_filler {
      type: "msra"
    }
  }
  fixed_param {
    fixed_method: DIFF_S
    bit_width: 8
  }
}
layer {
  name: "relu4_6/expand"
  type: "ReLU"
  bottom: "conv4_6/expand/bn"
  top: "conv4_6/expand/bn"
}
layer {
  name: "conv4_6/expand/bn_fixed"
  type: "FixedNeuron"
  bottom: "conv4_6/expand/bn"
  top: "conv4_6/expand/bn"
  param {
    lr_mult: 0
    decay_mult: 0
  }
  fixed_param {
    fixed_method: DIFF_S
    bit_width: 8
  }
}
layer {
  name: "conv4_6/dwise"
  type: "ConvolutionFixed"
  bottom: "conv4_6/expand/bn"
  top: "conv4_6/dwise/bn"
  param {
    lr_mult: 1
    decay_mult: 1
  }
  param {
    lr_mult: 1
    decay_mult: 0
  }
  convolution_param {
    num_output: 384
    bias_term: true
    pad: 1
    kernel_size: 3
    group: 384
    weight_filler {
      type: "msra"
    }
    engine: CAFFE
  }
  fixed_param {
    fixed_method: DIFF_S
    bit_width: 8
  }
}
layer {
  name: "relu4_6/dwise"
  type: "ReLU"
  bottom: "conv4_6/dwise/bn"
  top: "conv4_6/dwise/bn"
}
layer {
  name: "conv4_6/dwise/bn_fixed"
  type: "FixedNeuron"
  bottom: "conv4_6/dwise/bn"
  top: "conv4_6/dwise/bn"
  param {
    lr_mult: 0
    decay_mult: 0
  }
  fixed_param {
    fixed_method: DIFF_S
    bit_width: 8
  }
}
layer {
  name: "conv4_6/linear"
  type: "ConvolutionFixed"
  bottom: "conv4_6/dwise/bn"
  top: "conv4_6/linear/bn"
  param {
    lr_mult: 1
    decay_mult: 1
  }
  param {
    lr_mult: 1
    decay_mult: 0
  }
  convolution_param {
    num_output: 64
    bias_term: true
    kernel_size: 1
    weight_filler {
      type: "msra"
    }
  }
  fixed_param {
    fixed_method: DIFF_S
    bit_width: 8
  }
}
layer {
  name: "conv4_6/linear/bn_fixed"
  type: "FixedNeuron"
  bottom: "conv4_6/linear/bn"
  top: "conv4_6/linear/bn"
  param {
    lr_mult: 0
    decay_mult: 0
  }
  fixed_param {
    fixed_method: DIFF_S
    bit_width: 8
  }
}
layer {
  name: "block_4_6"
  type: "Eltwise"
  bottom: "block_4_5"
  bottom: "conv4_6/linear/bn"
  top: "block_4_6"
}
layer {
  name: "block_4_6_fixed"
  type: "FixedNeuron"
  bottom: "block_4_6"
  top: "block_4_6"
  param {
    lr_mult: 0
    decay_mult: 0
  }
  fixed_param {
    fixed_method: DIFF_S
    bit_width: 8
  }
}
layer {
  name: "conv4_7/expand"
  type: "ConvolutionFixed"
  bottom: "block_4_6"
  top: "conv4_7/expand/bn"
  param {
    lr_mult: 1
    decay_mult: 1
  }
  param {
    lr_mult: 1
    decay_mult: 0
  }
  convolution_param {
    num_output: 384
    bias_term: true
    kernel_size: 1
    weight_filler {
      type: "msra"
    }
  }
  fixed_param {
    fixed_method: DIFF_S
    bit_width: 8
  }
}
layer {
  name: "relu4_7/expand"
  type: "ReLU"
  bottom: "conv4_7/expand/bn"
  top: "conv4_7/expand/bn"
}
layer {
  name: "conv4_7/expand/bn_fixed"
  type: "FixedNeuron"
  bottom: "conv4_7/expand/bn"
  top: "conv4_7/expand/bn"
  param {
    lr_mult: 0
    decay_mult: 0
  }
  fixed_param {
    fixed_method: DIFF_S
    bit_width: 8
  }
}
layer {
  name: "conv4_7/dwise"
  type: "ConvolutionFixed"
  bottom: "conv4_7/expand/bn"
  top: "conv4_7/dwise/bn"
  param {
    lr_mult: 1
    decay_mult: 1
  }
  param {
    lr_mult: 1
    decay_mult: 0
  }
  convolution_param {
    num_output: 384
    bias_term: true
    pad: 1
    kernel_size: 3
    group: 384
    stride: 2
    weight_filler {
      type: "msra"
    }
    engine: CAFFE
  }
  fixed_param {
    fixed_method: DIFF_S
    bit_width: 8
  }
}
layer {
  name: "relu4_7/dwise"
  type: "ReLU"
  bottom: "conv4_7/dwise/bn"
  top: "conv4_7/dwise/bn"
}
layer {
  name: "conv4_7/dwise/bn_fixed"
  type: "FixedNeuron"
  bottom: "conv4_7/dwise/bn"
  top: "conv4_7/dwise/bn"
  param {
    lr_mult: 0
    decay_mult: 0
  }
  fixed_param {
    fixed_method: DIFF_S
    bit_width: 8
  }
}
layer {
  name: "conv4_7/linear"
  type: "ConvolutionFixed"
  bottom: "conv4_7/dwise/bn"
  top: "conv4_7/linear/bn"
  param {
    lr_mult: 1
    decay_mult: 1
  }
  param {
    lr_mult: 1
    decay_mult: 0
  }
  convolution_param {
    num_output: 96
    bias_term: true
    kernel_size: 1
    weight_filler {
      type: "msra"
    }
  }
  fixed_param {
    fixed_method: DIFF_S
    bit_width: 8
  }
}
layer {
  name: "conv4_7/linear/bn_fixed"
  type: "FixedNeuron"
  bottom: "conv4_7/linear/bn"
  top: "conv4_7/linear/bn"
  param {
    lr_mult: 0
    decay_mult: 0
  }
  fixed_param {
    fixed_method: DIFF_S
    bit_width: 8
  }
}
layer {
  name: "conv5_1/expand"
  type: "ConvolutionFixed"
  bottom: "conv4_7/linear/bn"
  top: "conv5_1/expand/bn"
  param {
    lr_mult: 1
    decay_mult: 1
  }
  param {
    lr_mult: 1
    decay_mult: 0
  }
  convolution_param {
    num_output: 576
    bias_term: true
    kernel_size: 1
    weight_filler {
      type: "msra"
    }
  }
  fixed_param {
    fixed_method: DIFF_S
    bit_width: 8
  }
}
layer {
  name: "relu5_1/expand"
  type: "ReLU"
  bottom: "conv5_1/expand/bn"
  top: "conv5_1/expand/bn"
}
layer {
  name: "conv5_1/expand/b
I0407 06:51:17.123374  1652 layer_factory.hpp:93] Creating layer data
I0407 06:51:17.123405  1652 internal_thread.cpp:43] Starting internal thread(s) on GPU 0
I0407 06:51:17.123587  1652 net.cpp:110] Creating Layer data
I0407 06:51:17.123597  1652 net.cpp:425] data -> data
I0407 06:51:17.123630  1652 net.cpp:425] data -> label
I0407 06:51:17.125514  1682 db_lmdb.cpp:51] Opened lmdb /workspace/SSD/data/VOCdevkit/VOC0712/lmdb/VOC0712_trainval_lmdb
I0407 06:51:17.125542  1682 data_reader.cpp:140] TRAIN: reading data using 2 channel(s)
I0407 06:51:17.127387  1652 annotated_data_layer.cpp:78] output data size: 5,3,360,480
I0407 06:51:17.170998  1652 internal_thread.cpp:43] Starting internal thread(s) on GPU 0
I0407 06:51:17.171099  1652 net.cpp:160] Setting up data
I0407 06:51:17.171106  1652 net.cpp:167] Top shape: 5 3 360 480 (2592000)
I0407 06:51:17.171118  1652 net.cpp:167] Top shape: 1 1 2 8 (16)
I0407 06:51:17.171123  1652 net.cpp:175] Memory required for data: 10368064
I0407 06:51:17.171128  1652 layer_factory.hpp:93] Creating layer data_fixed
I0407 06:51:17.171145  1652 net.cpp:110] Creating Layer data_fixed
I0407 06:51:17.171151  1652 net.cpp:451] data_fixed <- data
I0407 06:51:17.171167  1652 net.cpp:412] data_fixed -> data (in-place)
I0407 06:51:17.171231  1652 net.cpp:160] Setting up data_fixed
I0407 06:51:17.171236  1652 net.cpp:167] Top shape: 5 3 360 480 (2592000)
I0407 06:51:17.171242  1652 net.cpp:175] Memory required for data: 20736064
I0407 06:51:17.171262  1652 layer_factory.hpp:93] Creating layer data_data_fixed_0_split
I0407 06:51:17.171273  1652 net.cpp:110] Creating Layer data_data_fixed_0_split
I0407 06:51:17.171277  1652 net.cpp:451] data_data_fixed_0_split <- data
I0407 06:51:17.171281  1652 net.cpp:425] data_data_fixed_0_split -> data_data_fixed_0_split_0
I0407 06:51:17.171288  1652 net.cpp:425] data_data_fixed_0_split -> data_data_fixed_0_split_1
I0407 06:51:17.171293  1652 net.cpp:425] data_data_fixed_0_split -> data_data_fixed_0_split_2
I0407 06:51:17.171299  1652 net.cpp:425] data_data_fixed_0_split -> data_data_fixed_0_split_3
I0407 06:51:17.171303  1652 net.cpp:425] data_data_fixed_0_split -> data_data_fixed_0_split_4
I0407 06:51:17.171308  1652 net.cpp:425] data_data_fixed_0_split -> data_data_fixed_0_split_5
I0407 06:51:17.171509  1652 net.cpp:160] Setting up data_data_fixed_0_split
I0407 06:51:17.171515  1652 net.cpp:167] Top shape: 5 3 360 480 (2592000)
I0407 06:51:17.171521  1652 net.cpp:167] Top shape: 5 3 360 480 (2592000)
I0407 06:51:17.171525  1652 net.cpp:167] Top shape: 5 3 360 480 (2592000)
I0407 06:51:17.171530  1652 net.cpp:167] Top shape: 5 3 360 480 (2592000)
I0407 06:51:17.171533  1652 net.cpp:167] Top shape: 5 3 360 480 (2592000)
I0407 06:51:17.171536  1652 net.cpp:167] Top shape: 5 3 360 480 (2592000)
I0407 06:51:17.171540  1652 net.cpp:175] Memory required for data: 82944064
I0407 06:51:17.171545  1652 layer_factory.hpp:93] Creating layer conv1
I0407 06:51:17.171557  1652 net.cpp:110] Creating Layer conv1
I0407 06:51:17.171561  1652 net.cpp:451] conv1 <- data_data_fixed_0_split_0
I0407 06:51:17.171566  1652 net.cpp:425] conv1 -> conv1/bn
I0407 06:51:17.171819  1652 layer_factory.hpp:93] Creating layer conv1
I0407 06:51:17.172340  1652 net.cpp:160] Setting up conv1
I0407 06:51:17.172350  1652 net.cpp:167] Top shape: 5 32 180 240 (6912000)
I0407 06:51:17.172355  1652 net.cpp:175] Memory required for data: 110592064
I0407 06:51:17.172363  1652 layer_factory.hpp:93] Creating layer relu1
I0407 06:51:17.172369  1652 net.cpp:110] Creating Layer relu1
I0407 06:51:17.172374  1652 net.cpp:451] relu1 <- conv1/bn
I0407 06:51:17.172377  1652 net.cpp:412] relu1 -> conv1/bn (in-place)
I0407 06:51:17.172385  1652 net.cpp:160] Setting up relu1
I0407 06:51:17.172389  1652 net.cpp:167] Top shape: 5 32 180 240 (6912000)
I0407 06:51:17.172392  1652 net.cpp:175] Memory required for data: 138240064
I0407 06:51:17.172395  1652 layer_factory.hpp:93] Creating layer conv1/bn_fixed
I0407 06:51:17.172400  1652 net.cpp:110] Creating Layer conv1/bn_fixed
I0407 06:51:17.172403  1652 net.cpp:451] conv1/bn_fixed <- conv1/bn
I0407 06:51:17.172407  1652 net.cpp:412] conv1/bn_fixed -> conv1/bn (in-place)
I0407 06:51:17.172454  1652 net.cpp:160] Setting up conv1/bn_fixed
I0407 06:51:17.172459  1652 net.cpp:167] Top shape: 5 32 180 240 (6912000)
I0407 06:51:17.172464  1652 net.cpp:175] Memory required for data: 165888064
I0407 06:51:17.172468  1652 layer_factory.hpp:93] Creating layer conv2_1/expand
I0407 06:51:17.172477  1652 net.cpp:110] Creating Layer conv2_1/expand
I0407 06:51:17.172480  1652 net.cpp:451] conv2_1/expand <- conv1/bn
I0407 06:51:17.172485  1652 net.cpp:425] conv2_1/expand -> conv2_1/expand/bn
I0407 06:51:17.172859  1652 layer_factory.hpp:93] Creating layer conv2_1/expand
I0407 06:51:17.173666  1652 net.cpp:160] Setting up conv2_1/expand
I0407 06:51:17.173674  1652 net.cpp:167] Top shape: 5 32 180 240 (6912000)
I0407 06:51:17.173681  1652 net.cpp:175] Memory required for data: 193536064
I0407 06:51:17.173687  1652 layer_factory.hpp:93] Creating layer relu2_1/expand
I0407 06:51:17.173692  1652 net.cpp:110] Creating Layer relu2_1/expand
I0407 06:51:17.173696  1652 net.cpp:451] relu2_1/expand <- conv2_1/expand/bn
I0407 06:51:17.173700  1652 net.cpp:412] relu2_1/expand -> conv2_1/expand/bn (in-place)
I0407 06:51:17.173707  1652 net.cpp:160] Setting up relu2_1/expand
I0407 06:51:17.173709  1652 net.cpp:167] Top shape: 5 32 180 240 (6912000)
I0407 06:51:17.173713  1652 net.cpp:175] Memory required for data: 221184064
I0407 06:51:17.173717  1652 layer_factory.hpp:93] Creating layer conv2_1/expand/bn_fixed
I0407 06:51:17.173722  1652 net.cpp:110] Creating Layer conv2_1/expand/bn_fixed
I0407 06:51:17.173725  1652 net.cpp:451] conv2_1/expand/bn_fixed <- conv2_1/expand/bn
I0407 06:51:17.173729  1652 net.cpp:412] conv2_1/expand/bn_fixed -> conv2_1/expand/bn (in-place)
I0407 06:51:17.173774  1652 net.cpp:160] Setting up conv2_1/expand/bn_fixed
I0407 06:51:17.173780  1652 net.cpp:167] Top shape: 5 32 180 240 (6912000)
I0407 06:51:17.173784  1652 net.cpp:175] Memory required for data: 248832064
I0407 06:51:17.173789  1652 layer_factory.hpp:93] Creating layer conv2_1/dwise
I0407 06:51:17.173797  1652 net.cpp:110] Creating Layer conv2_1/dwise
I0407 06:51:17.173802  1652 net.cpp:451] conv2_1/dwise <- conv2_1/expand/bn
I0407 06:51:17.173812  1652 net.cpp:425] conv2_1/dwise -> conv2_1/dwise/bn
I0407 06:51:17.174065  1652 layer_factory.hpp:93] Creating layer conv2_1/dwise
I0407 06:51:17.174543  1652 net.cpp:160] Setting up conv2_1/dwise
I0407 06:51:17.174551  1652 net.cpp:167] Top shape: 5 32 180 240 (6912000)
I0407 06:51:17.174556  1652 net.cpp:175] Memory required for data: 276480064
I0407 06:51:17.174563  1652 layer_factory.hpp:93] Creating layer relu2_1/dwise
I0407 06:51:17.174568  1652 net.cpp:110] Creating Layer relu2_1/dwise
I0407 06:51:17.174572  1652 net.cpp:451] relu2_1/dwise <- conv2_1/dwise/bn
I0407 06:51:17.174576  1652 net.cpp:412] relu2_1/dwise -> conv2_1/dwise/bn (in-place)
I0407 06:51:17.174582  1652 net.cpp:160] Setting up relu2_1/dwise
I0407 06:51:17.174585  1652 net.cpp:167] Top shape: 5 32 180 240 (6912000)
I0407 06:51:17.174589  1652 net.cpp:175] Memory required for data: 304128064
I0407 06:51:17.174592  1652 layer_factory.hpp:93] Creating layer conv2_1/dwise/bn_fixed
I0407 06:51:17.174597  1652 net.cpp:110] Creating Layer conv2_1/dwise/bn_fixed
I0407 06:51:17.174600  1652 net.cpp:451] conv2_1/dwise/bn_fixed <- conv2_1/dwise/bn
I0407 06:51:17.174604  1652 net.cpp:412] conv2_1/dwise/bn_fixed -> conv2_1/dwise/bn (in-place)
I0407 06:51:17.174650  1652 net.cpp:160] Setting up conv2_1/dwise/bn_fixed
I0407 06:51:17.174655  1652 net.cpp:167] Top shape: 5 32 180 240 (6912000)
I0407 06:51:17.174660  1652 net.cpp:175] Memory required for data: 331776064
I0407 06:51:17.174665  1652 layer_factory.hpp:93] Creating layer conv2_1/linear
I0407 06:51:17.174671  1652 net.cpp:110] Creating Layer conv2_1/linear
I0407 06:51:17.174675  1652 net.cpp:451] conv2_1/linear <- conv2_1/dwise/bn
I0407 06:51:17.174681  1652 net.cpp:425] conv2_1/linear -> conv2_1/linear/bn
I0407 06:51:17.174911  1652 layer_factory.hpp:93] Creating layer conv2_1/linear
I0407 06:51:17.175369  1652 net.cpp:160] Setting up conv2_1/linear
I0407 06:51:17.175376  1652 net.cpp:167] Top shape: 5 16 180 240 (3456000)
I0407 06:51:17.175381  1652 net.cpp:175] Memory required for data: 345600064
I0407 06:51:17.175387  1652 layer_factory.hpp:93] Creating layer conv2_1/linear/bn_fixed
I0407 06:51:17.175392  1652 net.cpp:110] Creating Layer conv2_1/linear/bn_fixed
I0407 06:51:17.175396  1652 net.cpp:451] conv2_1/linear/bn_fixed <- conv2_1/linear/bn
I0407 06:51:17.175402  1652 net.cpp:412] conv2_1/linear/bn_fixed -> conv2_1/linear/bn (in-place)
I0407 06:51:17.175447  1652 net.cpp:160] Setting up conv2_1/linear/bn_fixed
I0407 06:51:17.175453  1652 net.cpp:167] Top shape: 5 16 180 240 (3456000)
I0407 06:51:17.175457  1652 net.cpp:175] Memory required for data: 359424064
I0407 06:51:17.175462  1652 layer_factory.hpp:93] Creating layer conv2_2/expand
I0407 06:51:17.175470  1652 net.cpp:110] Creating Layer conv2_2/expand
I0407 06:51:17.175474  1652 net.cpp:451] conv2_2/expand <- conv2_1/linear/bn
I0407 06:51:17.175478  1652 net.cpp:425] conv2_2/expand -> conv2_2/expand/bn
I0407 06:51:17.175717  1652 layer_factory.hpp:93] Creating layer conv2_2/expand
I0407 06:51:17.176203  1652 net.cpp:160] Setting up conv2_2/expand
I0407 06:51:17.176211  1652 net.cpp:167] Top shape: 5 96 180 240 (20736000)
I0407 06:51:17.176216  1652 net.cpp:175] Memory required for data: 442368064
I0407 06:51:17.176223  1652 layer_factory.hpp:93] Creating layer relu2_2/expand
I0407 06:51:17.176228  1652 net.cpp:110] Creating Layer relu2_2/expand
I0407 06:51:17.176230  1652 net.cpp:451] relu2_2/expand <- conv2_2/expand/bn
I0407 06:51:17.176235  1652 net.cpp:412] relu2_2/expand -> conv2_2/expand/bn (in-place)
I0407 06:51:17.176241  1652 net.cpp:160] Setting up relu2_2/expand
I0407 06:51:17.176244  1652 net.cpp:167] Top shape: 5 96 180 240 (20736000)
I0407 06:51:17.176249  1652 net.cpp:175] Memory required for data: 525312064
I0407 06:51:17.176251  1652 layer_factory.hpp:93] Creating layer conv2_2/expand/bn_fixed
I0407 06:51:17.176257  1652 net.cpp:110] Creating Layer conv2_2/expand/bn_fixed
I0407 06:51:17.176260  1652 net.cpp:451] conv2_2/expand/bn_fixed <- conv2_2/expand/bn
I0407 06:51:17.176265  1652 net.cpp:412] conv2_2/expand/bn_fixed -> conv2_2/expand/bn (in-place)
I0407 06:51:17.176311  1652 net.cpp:160] Setting up conv2_2/expand/bn_fixed
I0407 06:51:17.176317  1652 net.cpp:167] Top shape: 5 96 180 240 (20736000)
I0407 06:51:17.176322  1652 net.cpp:175] Memory required for data: 608256064
I0407 06:51:17.176326  1652 layer_factory.hpp:93] Creating layer conv2_2/dwise
I0407 06:51:17.176334  1652 net.cpp:110] Creating Layer conv2_2/dwise
I0407 06:51:17.176339  1652 net.cpp:451] conv2_2/dwise <- conv2_2/expand/bn
I0407 06:51:17.176344  1652 net.cpp:425] conv2_2/dwise -> conv2_2/dwise/bn
I0407 06:51:17.176591  1652 layer_factory.hpp:93] Creating layer conv2_2/dwise
I0407 06:51:17.177048  1652 net.cpp:160] Setting up conv2_2/dwise
I0407 06:51:17.177055  1652 net.cpp:167] Top shape: 5 96 90 120 (5184000)
I0407 06:51:17.177060  1652 net.cpp:175] Memory required for data: 628992064
I0407 06:51:17.177067  1652 layer_factory.hpp:93] Creating layer relu2_2/dwise
I0407 06:51:17.177073  1652 net.cpp:110] Creating Layer relu2_2/dwise
I0407 06:51:17.177075  1652 net.cpp:451] relu2_2/dwise <- conv2_2/dwise/bn
I0407 06:51:17.177079  1652 net.cpp:412] relu2_2/dwise -> conv2_2/dwise/bn (in-place)
I0407 06:51:17.177085  1652 net.cpp:160] Setting up relu2_2/dwise
I0407 06:51:17.177088  1652 net.cpp:167] Top shape: 5 96 90 120 (5184000)
I0407 06:51:17.177093  1652 net.cpp:175] Memory required for data: 649728064
I0407 06:51:17.177095  1652 layer_factory.hpp:93] Creating layer conv2_2/dwise/bn_fixed
I0407 06:51:17.177100  1652 net.cpp:110] Creating Layer conv2_2/dwise/bn_fixed
I0407 06:51:17.177103  1652 net.cpp:451] conv2_2/dwise/bn_fixed <- conv2_2/dwise/bn
I0407 06:51:17.177107  1652 net.cpp:412] conv2_2/dwise/bn_fixed -> conv2_2/dwise/bn (in-place)
I0407 06:51:17.177150  1652 net.cpp:160] Setting up conv2_2/dwise/bn_fixed
I0407 06:51:17.177155  1652 net.cpp:167] Top shape: 5 96 90 120 (5184000)
I0407 06:51:17.177160  1652 net.cpp:175] Memory required for data: 670464064
I0407 06:51:17.177165  1652 layer_factory.hpp:93] Creating layer conv2_2/linear
I0407 06:51:17.177173  1652 net.cpp:110] Creating Layer conv2_2/linear
I0407 06:51:17.177177  1652 net.cpp:451] conv2_2/linear <- conv2_2/dwise/bn
I0407 06:51:17.177181  1652 net.cpp:425] conv2_2/linear -> conv2_2/linear/bn
I0407 06:51:17.177445  1652 layer_factory.hpp:93] Creating layer conv2_2/linear
I0407 06:51:17.180202  1652 net.cpp:160] Setting up conv2_2/linear
I0407 06:51:17.180213  1652 net.cpp:167] Top shape: 5 24 90 120 (1296000)
I0407 06:51:17.180219  1652 net.cpp:175] Memory required for data: 675648064
I0407 06:51:17.180227  1652 layer_factory.hpp:93] Creating layer conv2_2/linear/bn_fixed
I0407 06:51:17.180233  1652 net.cpp:110] Creating Layer conv2_2/linear/bn_fixed
I0407 06:51:17.180236  1652 net.cpp:451] conv2_2/linear/bn_fixed <- conv2_2/linear/bn
I0407 06:51:17.180243  1652 net.cpp:412] conv2_2/linear/bn_fixed -> conv2_2/linear/bn (in-place)
I0407 06:51:17.180294  1652 net.cpp:160] Setting up conv2_2/linear/bn_fixed
I0407 06:51:17.180300  1652 net.cpp:167] Top shape: 5 24 90 120 (1296000)
I0407 06:51:17.180305  1652 net.cpp:175] Memory required for data: 680832064
I0407 06:51:17.180310  1652 layer_factory.hpp:93] Creating layer conv2_2/linear/bn_conv2_2/linear/bn_fixed_0_split
I0407 06:51:17.180315  1652 net.cpp:110] Creating Layer conv2_2/linear/bn_conv2_2/linear/bn_fixed_0_split
I0407 06:51:17.180317  1652 net.cpp:451] conv2_2/linear/bn_conv2_2/linear/bn_fixed_0_split <- conv2_2/linear/bn
I0407 06:51:17.180322  1652 net.cpp:425] conv2_2/linear/bn_conv2_2/linear/bn_fixed_0_split -> conv2_2/linear/bn_conv2_2/linear/bn_fixed_0_split_0
I0407 06:51:17.180328  1652 net.cpp:425] conv2_2/linear/bn_conv2_2/linear/bn_fixed_0_split -> conv2_2/linear/bn_conv2_2/linear/bn_fixed_0_split_1
I0407 06:51:17.180377  1652 net.cpp:160] Setting up conv2_2/linear/bn_conv2_2/linear/bn_fixed_0_split
I0407 06:51:17.180382  1652 net.cpp:167] Top shape: 5 24 90 120 (1296000)
I0407 06:51:17.180387  1652 net.cpp:167] Top shape: 5 24 90 120 (1296000)
I0407 06:51:17.180390  1652 net.cpp:175] Memory required for data: 691200064
I0407 06:51:17.180393  1652 layer_factory.hpp:93] Creating layer conv3_1/expand
I0407 06:51:17.180402  1652 net.cpp:110] Creating Layer conv3_1/expand
I0407 06:51:17.180404  1652 net.cpp:451] conv3_1/expand <- conv2_2/linear/bn_conv2_2/linear/bn_fixed_0_split_0
I0407 06:51:17.180411  1652 net.cpp:425] conv3_1/expand -> conv3_1/expand/bn
I0407 06:51:17.180692  1652 layer_factory.hpp:93] Creating layer conv3_1/expand
I0407 06:51:17.181167  1652 net.cpp:160] Setting up conv3_1/expand
I0407 06:51:17.181174  1652 net.cpp:167] Top shape: 5 144 90 120 (7776000)
I0407 06:51:17.181180  1652 net.cpp:175] Memory required for data: 722304064
I0407 06:51:17.181185  1652 layer_factory.hpp:93] Creating layer relu3_1/expand
I0407 06:51:17.181191  1652 net.cpp:110] Creating Layer relu3_1/expand
I0407 06:51:17.181195  1652 net.cpp:451] relu3_1/expand <- conv3_1/expand/bn
I0407 06:51:17.181198  1652 net.cpp:412] relu3_1/expand -> conv3_1/expand/bn (in-place)
I0407 06:51:17.181205  1652 net.cpp:160] Setting up relu3_1/expand
I0407 06:51:17.181207  1652 net.cpp:167] Top shape: 5 144 90 120 (7776000)
I0407 06:51:17.181211  1652 net.cpp:175] Memory required for data: 753408064
I0407 06:51:17.181214  1652 layer_factory.hpp:93] Creating layer conv3_1/expand/bn_fixed
I0407 06:51:17.181219  1652 net.cpp:110] Creating Layer conv3_1/expand/bn_fixed
I0407 06:51:17.181222  1652 net.cpp:451] conv3_1/expand/bn_fixed <- conv3_1/expand/bn
I0407 06:51:17.181227  1652 net.cpp:412] conv3_1/expand/bn_fixed -> conv3_1/expand/bn (in-place)
I0407 06:51:17.181275  1652 net.cpp:160] Setting up conv3_1/expand/bn_fixed
I0407 06:51:17.181280  1652 net.cpp:167] Top shape: 5 144 90 120 (7776000)
I0407 06:51:17.181285  1652 net.cpp:175] Memory required for data: 784512064
I0407 06:51:17.181289  1652 layer_factory.hpp:93] Creating layer conv3_1/dwise
I0407 06:51:17.181296  1652 net.cpp:110] Creating Layer conv3_1/dwise
I0407 06:51:17.181299  1652 net.cpp:451] conv3_1/dwise <- conv3_1/expand/bn
I0407 06:51:17.181304  1652 net.cpp:425] conv3_1/dwise -> conv3_1/dwise/bn
I0407 06:51:17.181560  1652 layer_factory.hpp:93] Creating layer conv3_1/dwise
I0407 06:51:17.182013  1652 net.cpp:160] Setting up conv3_1/dwise
I0407 06:51:17.182019  1652 net.cpp:167] Top shape: 5 144 90 120 (7776000)
I0407 06:51:17.182024  1652 net.cpp:175] Memory required for data: 815616064
I0407 06:51:17.182029  1652 layer_factory.hpp:93] Creating layer relu3_1/dwise
I0407 06:51:17.182034  1652 net.cpp:110] Creating Layer relu3_1/dwise
I0407 06:51:17.182037  1652 net.cpp:451] relu3_1/dwise <- conv3_1/dwise/bn
I0407 06:51:17.182041  1652 net.cpp:412] relu3_1/dwise -> conv3_1/dwise/bn (in-place)
I0407 06:51:17.182047  1652 net.cpp:160] Setting up relu3_1/dwise
I0407 06:51:17.182050  1652 net.cpp:167] Top shape: 5 144 90 120 (7776000)
I0407 06:51:17.182054  1652 net.cpp:175] Memory required for data: 846720064
I0407 06:51:17.182057  1652 layer_factory.hpp:93] Creating layer conv3_1/dwise/bn_fixed
I0407 06:51:17.182062  1652 net.cpp:110] Creating Layer conv3_1/dwise/bn_fixed
I0407 06:51:17.182065  1652 net.cpp:451] conv3_1/dwise/bn_fixed <- conv3_1/dwise/bn
I0407 06:51:17.182070  1652 net.cpp:412] conv3_1/dwise/bn_fixed -> conv3_1/dwise/bn (in-place)
I0407 06:51:17.182116  1652 net.cpp:160] Setting up conv3_1/dwise/bn_fixed
I0407 06:51:17.182121  1652 net.cpp:167] Top shape: 5 144 90 120 (7776000)
I0407 06:51:17.182126  1652 net.cpp:175] Memory required for data: 877824064
I0407 06:51:17.182129  1652 layer_factory.hpp:93] Creating layer conv3_1/linear
I0407 06:51:17.182137  1652 net.cpp:110] Creating Layer conv3_1/linear
I0407 06:51:17.182139  1652 net.cpp:451] conv3_1/linear <- conv3_1/dwise/bn
I0407 06:51:17.182147  1652 net.cpp:425] conv3_1/linear -> conv3_1/linear/bn
I0407 06:51:17.182408  1652 layer_factory.hpp:93] Creating layer conv3_1/linear
I0407 06:51:17.182876  1652 net.cpp:160] Setting up conv3_1/linear
I0407 06:51:17.182884  1652 net.cpp:167] Top shape: 5 24 90 120 (1296000)
I0407 06:51:17.182889  1652 net.cpp:175] Memory required for data: 883008064
I0407 06:51:17.182895  1652 layer_factory.hpp:93] Creating layer conv3_1/linear/bn_fixed
I0407 06:51:17.182902  1652 net.cpp:110] Creating Layer conv3_1/linear/bn_fixed
I0407 06:51:17.182905  1652 net.cpp:451] conv3_1/linear/bn_fixed <- conv3_1/linear/bn
I0407 06:51:17.182910  1652 net.cpp:412] conv3_1/linear/bn_fixed -> conv3_1/linear/bn (in-place)
I0407 06:51:17.182956  1652 net.cpp:160] Setting up conv3_1/linear/bn_fixed
I0407 06:51:17.182961  1652 net.cpp:167] Top shape: 5 24 90 120 (1296000)
I0407 06:51:17.182966  1652 net.cpp:175] Memory required for data: 888192064
I0407 06:51:17.182971  1652 layer_factory.hpp:93] Creating layer block_3_1
I0407 06:51:17.182978  1652 net.cpp:110] Creating Layer block_3_1
I0407 06:51:17.182983  1652 net.cpp:451] block_3_1 <- conv2_2/linear/bn_conv2_2/linear/bn_fixed_0_split_1
I0407 06:51:17.182987  1652 net.cpp:451] block_3_1 <- conv3_1/linear/bn
I0407 06:51:17.182991  1652 net.cpp:425] block_3_1 -> block_3_1
I0407 06:51:17.183017  1652 net.cpp:160] Setting up block_3_1
I0407 06:51:17.183022  1652 net.cpp:167] Top shape: 5 24 90 120 (1296000)
I0407 06:51:17.183027  1652 net.cpp:175] Memory required for data: 893376064
I0407 06:51:17.183029  1652 layer_factory.hpp:93] Creating layer block_3_1_fixed
I0407 06:51:17.183037  1652 net.cpp:110] Creating Layer block_3_1_fixed
I0407 06:51:17.183043  1652 net.cpp:451] block_3_1_fixed <- block_3_1
I0407 06:51:17.183048  1652 net.cpp:412] block_3_1_fixed -> block_3_1 (in-place)
I0407 06:51:17.183090  1652 net.cpp:160] Setting up block_3_1_fixed
I0407 06:51:17.183095  1652 net.cpp:167] Top shape: 5 24 90 120 (1296000)
I0407 06:51:17.183099  1652 net.cpp:175] Memory required for data: 898560064
I0407 06:51:17.183104  1652 layer_factory.hpp:93] Creating layer conv3_2/expand
I0407 06:51:17.183112  1652 net.cpp:110] Creating Layer conv3_2/expand
I0407 06:51:17.183117  1652 net.cpp:451] conv3_2/expand <- block_3_1
I0407 06:51:17.183122  1652 net.cpp:425] conv3_2/expand -> conv3_2/expand/bn
I0407 06:51:17.183384  1652 layer_factory.hpp:93] Creating layer conv3_2/expand
I0407 06:51:17.183859  1652 net.cpp:160] Setting up conv3_2/expand
I0407 06:51:17.183866  1652 net.cpp:167] Top shape: 5 144 90 120 (7776000)
I0407 06:51:17.183872  1652 net.cpp:175] Memory required for data: 929664064
I0407 06:51:17.183879  1652 layer_factory.hpp:93] Creating layer relu3_2/expand
I0407 06:51:17.183887  1652 net.cpp:110] Creating Layer relu3_2/expand
I0407 06:51:17.183892  1652 net.cpp:451] relu3_2/expand <- conv3_2/expand/bn
I0407 06:51:17.183897  1652 net.cpp:412] relu3_2/expand -> conv3_2/expand/bn (in-place)
I0407 06:51:17.183902  1652 net.cpp:160] Setting up relu3_2/expand
I0407 06:51:17.183904  1652 net.cpp:167] Top shape: 5 144 90 120 (7776000)
I0407 06:51:17.183909  1652 net.cpp:175] Memory required for data: 960768064
I0407 06:51:17.183912  1652 layer_factory.hpp:93] Creating layer conv3_2/expand/bn_fixed
I0407 06:51:17.183917  1652 net.cpp:110] Creating Layer conv3_2/expand/bn_fixed
I0407 06:51:17.183920  1652 net.cpp:451] conv3_2/expand/bn_fixed <- conv3_2/expand/bn
I0407 06:51:17.183925  1652 net.cpp:412] conv3_2/expand/bn_fixed -> conv3_2/expand/bn (in-place)
I0407 06:51:17.183971  1652 net.cpp:160] Setting up conv3_2/expand/bn_fixed
I0407 06:51:17.183977  1652 net.cpp:167] Top shape: 5 144 90 120 (7776000)
I0407 06:51:17.183981  1652 net.cpp:175] Memory required for data: 991872064
I0407 06:51:17.183986  1652 layer_factory.hpp:93] Creating layer conv3_2/dwise
I0407 06:51:17.183993  1652 net.cpp:110] Creating Layer conv3_2/dwise
I0407 06:51:17.183996  1652 net.cpp:451] conv3_2/dwise <- conv3_2/expand/bn
I0407 06:51:17.184001  1652 net.cpp:425] conv3_2/dwise -> conv3_2/dwise/bn
I0407 06:51:17.184270  1652 layer_factory.hpp:93] Creating layer conv3_2/dwise
I0407 06:51:17.184731  1652 net.cpp:160] Setting up conv3_2/dwise
I0407 06:51:17.184738  1652 net.cpp:167] Top shape: 5 144 45 60 (1944000)
I0407 06:51:17.184743  1652 net.cpp:175] Memory required for data: 999648064
I0407 06:51:17.184749  1652 layer_factory.hpp:93] Creating layer relu3_2/dwise
I0407 06:51:17.184754  1652 net.cpp:110] Creating Layer relu3_2/dwise
I0407 06:51:17.184757  1652 net.cpp:451] relu3_2/dwise <- conv3_2/dwise/bn
I0407 06:51:17.184762  1652 net.cpp:412] relu3_2/dwise -> conv3_2/dwise/bn (in-place)
I0407 06:51:17.184767  1652 net.cpp:160] Setting up relu3_2/dwise
I0407 06:51:17.184770  1652 net.cpp:167] Top shape: 5 144 45 60 (1944000)
I0407 06:51:17.184774  1652 net.cpp:175] Memory required for data: 1007424064
I0407 06:51:17.184777  1652 layer_factory.hpp:93] Creating layer conv3_2/dwise/bn_fixed
I0407 06:51:17.184782  1652 net.cpp:110] Creating Layer conv3_2/dwise/bn_fixed
I0407 06:51:17.184785  1652 net.cpp:451] conv3_2/dwise/bn_fixed <- conv3_2/dwise/bn
I0407 06:51:17.184789  1652 net.cpp:412] conv3_2/dwise/bn_fixed -> conv3_2/dwise/bn (in-place)
I0407 06:51:17.184835  1652 net.cpp:160] Setting up conv3_2/dwise/bn_fixed
I0407 06:51:17.184840  1652 net.cpp:167] Top shape: 5 144 45 60 (1944000)
I0407 06:51:17.184845  1652 net.cpp:175] Memory required for data: 1015200064
I0407 06:51:17.184849  1652 layer_factory.hpp:93] Creating layer conv3_2/linear
I0407 06:51:17.184857  1652 net.cpp:110] Creating Layer conv3_2/linear
I0407 06:51:17.184861  1652 net.cpp:451] conv3_2/linear <- conv3_2/dwise/bn
I0407 06:51:17.184866  1652 net.cpp:425] conv3_2/linear -> conv3_2/linear/bn
I0407 06:51:17.185144  1652 layer_factory.hpp:93] Creating layer conv3_2/linear
I0407 06:51:17.185636  1652 net.cpp:160] Setting up conv3_2/linear
I0407 06:51:17.185642  1652 net.cpp:167] Top shape: 5 32 45 60 (432000)
I0407 06:51:17.185648  1652 net.cpp:175] Memory required for data: 1016928064
I0407 06:51:17.185653  1652 layer_factory.hpp:93] Creating layer conv3_2/linear/bn_fixed
I0407 06:51:17.185658  1652 net.cpp:110] Creating Layer conv3_2/linear/bn_fixed
I0407 06:51:17.185662  1652 net.cpp:451] conv3_2/linear/bn_fixed <- conv3_2/linear/bn
I0407 06:51:17.185667  1652 net.cpp:412] conv3_2/linear/bn_fixed -> conv3_2/linear/bn (in-place)
I0407 06:51:17.185714  1652 net.cpp:160] Setting up conv3_2/linear/bn_fixed
I0407 06:51:17.185720  1652 net.cpp:167] Top shape: 5 32 45 60 (432000)
I0407 06:51:17.185725  1652 net.cpp:175] Memory required for data: 1018656064
I0407 06:51:17.185729  1652 layer_factory.hpp:93] Creating layer conv3_2/linear/bn_conv3_2/linear/bn_fixed_0_split
I0407 06:51:17.185735  1652 net.cpp:110] Creating Layer conv3_2/linear/bn_conv3_2/linear/bn_fixed_0_split
I0407 06:51:17.185739  1652 net.cpp:451] conv3_2/linear/bn_conv3_2/linear/bn_fixed_0_split <- conv3_2/linear/bn
I0407 06:51:17.185742  1652 net.cpp:425] conv3_2/linear/bn_conv3_2/linear/bn_fixed_0_split -> conv3_2/linear/bn_conv3_2/linear/bn_fixed_0_split_0
I0407 06:51:17.185748  1652 net.cpp:425] conv3_2/linear/bn_conv3_2/linear/bn_fixed_0_split -> conv3_2/linear/bn_conv3_2/linear/bn_fixed_0_split_1
I0407 06:51:17.185796  1652 net.cpp:160] Setting up conv3_2/linear/bn_conv3_2/linear/bn_fixed_0_split
I0407 06:51:17.185801  1652 net.cpp:167] Top shape: 5 32 45 60 (432000)
I0407 06:51:17.185806  1652 net.cpp:167] Top shape: 5 32 45 60 (432000)
I0407 06:51:17.185809  1652 net.cpp:175] Memory required for data: 1022112064
I0407 06:51:17.185812  1652 layer_factory.hpp:93] Creating layer conv4_1/expand
I0407 06:51:17.185819  1652 net.cpp:110] Creating Layer conv4_1/expand
I0407 06:51:17.185823  1652 net.cpp:451] conv4_1/expand <- conv3_2/linear/bn_conv3_2/linear/bn_fixed_0_split_0
I0407 06:51:17.185829  1652 net.cpp:425] conv4_1/expand -> conv4_1/expand/bn
I0407 06:51:17.186120  1652 layer_factory.hpp:93] Creating layer conv4_1/expand
I0407 06:51:17.186622  1652 net.cpp:160] Setting up conv4_1/expand
I0407 06:51:17.186630  1652 net.cpp:167] Top shape: 5 192 45 60 (2592000)
I0407 06:51:17.186635  1652 net.cpp:175] Memory required for data: 1032480064
I0407 06:51:17.186640  1652 layer_factory.hpp:93] Creating layer relu4_1/expand
I0407 06:51:17.186647  1652 net.cpp:110] Creating Layer relu4_1/expand
I0407 06:51:17.186650  1652 net.cpp:451] relu4_1/expand <- conv4_1/expand/bn
I0407 06:51:17.186655  1652 net.cpp:412] relu4_1/expand -> conv4_1/expand/bn (in-place)
I0407 06:51:17.186661  1652 net.cpp:160] Setting up relu4_1/expand
I0407 06:51:17.186663  1652 net.cpp:167] Top shape: 5 192 45 60 (2592000)
I0407 06:51:17.186668  1652 net.cpp:175] Memory required for data: 1042848064
I0407 06:51:17.186671  1652 layer_factory.hpp:93] Creating layer conv4_1/expand/bn_fixed
I0407 06:51:17.186676  1652 net.cpp:110] Creating Layer conv4_1/expand/bn_fixed
I0407 06:51:17.186679  1652 net.cpp:451] conv4_1/expand/bn_fixed <- conv4_1/expand/bn
I0407 06:51:17.186683  1652 net.cpp:412] conv4_1/expand/bn_fixed -> conv4_1/expand/bn (in-place)
I0407 06:51:17.186729  1652 net.cpp:160] Setting up conv4_1/expand/bn_fixed
I0407 06:51:17.186734  1652 net.cpp:167] Top shape: 5 192 45 60 (2592000)
I0407 06:51:17.186739  1652 net.cpp:175] Memory required for data: 1053216064
I0407 06:51:17.186743  1652 layer_factory.hpp:93] Creating layer conv4_1/dwise
I0407 06:51:17.186749  1652 net.cpp:110] Creating Layer conv4_1/dwise
I0407 06:51:17.186754  1652 net.cpp:451] conv4_1/dwise <- conv4_1/expand/bn
I0407 06:51:17.186759  1652 net.cpp:425] conv4_1/dwise -> conv4_1/dwise/bn
I0407 06:51:17.187024  1652 layer_factory.hpp:93] Creating layer conv4_1/dwise
I0407 06:51:17.187494  1652 net.cpp:160] Setting up conv4_1/dwise
I0407 06:51:17.187500  1652 net.cpp:167] Top shape: 5 192 45 60 (2592000)
I0407 06:51:17.187505  1652 net.cpp:175] Memory required for data: 1063584064
I0407 06:51:17.187510  1652 layer_factory.hpp:93] Creating layer relu4_1/dwise
I0407 06:51:17.187515  1652 net.cpp:110] Creating Layer relu4_1/dwise
I0407 06:51:17.187518  1652 net.cpp:451] relu4_1/dwise <- conv4_1/dwise/bn
I0407 06:51:17.187522  1652 net.cpp:412] relu4_1/dwise -> conv4_1/dwise/bn (in-place)
I0407 06:51:17.187528  1652 net.cpp:160] Setting up relu4_1/dwise
I0407 06:51:17.187531  1652 net.cpp:167] Top shape: 5 192 45 60 (2592000)
I0407 06:51:17.187536  1652 net.cpp:175] Memory required for data: 1073952064
I0407 06:51:17.187538  1652 layer_factory.hpp:93] Creating layer conv4_1/dwise/bn_fixed
I0407 06:51:17.187543  1652 net.cpp:110] Creating Layer conv4_1/dwise/bn_fixed
I0407 06:51:17.187546  1652 net.cpp:451] conv4_1/dwise/bn_fixed <- conv4_1/dwise/bn
I0407 06:51:17.187552  1652 net.cpp:412] conv4_1/dwise/bn_fixed -> conv4_1/dwise/bn (in-place)
I0407 06:51:17.187597  1652 net.cpp:160] Setting up conv4_1/dwise/bn_fixed
I0407 06:51:17.187603  1652 net.cpp:167] Top shape: 5 192 45 60 (2592000)
I0407 06:51:17.187608  1652 net.cpp:175] Memory required for data: 1084320064
I0407 06:51:17.187613  1652 layer_factory.hpp:93] Creating layer conv4_1/linear
I0407 06:51:17.187620  1652 net.cpp:110] Creating Layer conv4_1/linear
I0407 06:51:17.187623  1652 net.cpp:451] conv4_1/linear <- conv4_1/dwise/bn
I0407 06:51:17.187628  1652 net.cpp:425] conv4_1/linear -> conv4_1/linear/bn
I0407 06:51:17.187923  1652 layer_factory.hpp:93] Creating layer conv4_1/linear
I0407 06:51:17.188443  1652 net.cpp:160] Setting up conv4_1/linear
I0407 06:51:17.188452  1652 net.cpp:167] Top shape: 5 32 45 60 (432000)
I0407 06:51:17.188457  1652 net.cpp:175] Memory required for data: 1086048064
I0407 06:51:17.188462  1652 layer_factory.hpp:93] Creating layer conv4_1/linear/bn_fixed
I0407 06:51:17.188468  1652 net.cpp:110] Creating Layer conv4_1/linear/bn_fixed
I0407 06:51:17.188472  1652 net.cpp:451] conv4_1/linear/bn_fixed <- conv4_1/linear/bn
I0407 06:51:17.188477  1652 net.cpp:412] conv4_1/linear/bn_fixed -> conv4_1/linear/bn (in-place)
I0407 06:51:17.188526  1652 net.cpp:160] Setting up conv4_1/linear/bn_fixed
I0407 06:51:17.188532  1652 net.cpp:167] Top shape: 5 32 45 60 (432000)
I0407 06:51:17.188536  1652 net.cpp:175] Memory required for data: 1087776064
I0407 06:51:17.188541  1652 layer_factory.hpp:93] Creating layer block_4_1
I0407 06:51:17.188546  1652 net.cpp:110] Creating Layer block_4_1
I0407 06:51:17.188560  1652 net.cpp:451] block_4_1 <- conv3_2/linear/bn_conv3_2/linear/bn_fixed_0_split_1
I0407 06:51:17.188563  1652 net.cpp:451] block_4_1 <- conv4_1/linear/bn
I0407 06:51:17.188567  1652 net.cpp:425] block_4_1 -> block_4_1
I0407 06:51:17.188596  1652 net.cpp:160] Setting up block_4_1
I0407 06:51:17.188601  1652 net.cpp:167] Top shape: 5 32 45 60 (432000)
I0407 06:51:17.188606  1652 net.cpp:175] Memory required for data: 1089504064
I0407 06:51:17.188608  1652 layer_factory.hpp:93] Creating layer block_4_1_fixed
I0407 06:51:17.188613  1652 net.cpp:110] Creating Layer block_4_1_fixed
I0407 06:51:17.188617  1652 net.cpp:451] block_4_1_fixed <- block_4_1
I0407 06:51:17.188621  1652 net.cpp:412] block_4_1_fixed -> block_4_1 (in-place)
I0407 06:51:17.188666  1652 net.cpp:160] Setting up block_4_1_fixed
I0407 06:51:17.188671  1652 net.cpp:167] Top shape: 5 32 45 60 (432000)
I0407 06:51:17.188676  1652 net.cpp:175] Memory required for data: 1091232064
I0407 06:51:17.188680  1652 layer_factory.hpp:93] Creating layer block_4_1_block_4_1_fixed_0_split
I0407 06:51:17.188685  1652 net.cpp:110] Creating Layer block_4_1_block_4_1_fixed_0_split
I0407 06:51:17.188688  1652 net.cpp:451] block_4_1_block_4_1_fixed_0_split <- block_4_1
I0407 06:51:17.188694  1652 net.cpp:425] block_4_1_block_4_1_fixed_0_split -> block_4_1_block_4_1_fixed_0_split_0
I0407 06:51:17.188699  1652 net.cpp:425] block_4_1_block_4_1_fixed_0_split -> block_4_1_block_4_1_fixed_0_split_1
I0407 06:51:17.188741  1652 net.cpp:160] Setting up block_4_1_block_4_1_fixed_0_split
I0407 06:51:17.188746  1652 net.cpp:167] Top shape: 5 32 45 60 (432000)
I0407 06:51:17.188751  1652 net.cpp:167] Top shape: 5 32 45 60 (432000)
I0407 06:51:17.188755  1652 net.cpp:175] Memory required for data: 1094688064
I0407 06:51:17.188758  1652 layer_factory.hpp:93] Creating layer conv4_2/expand
I0407 06:51:17.188766  1652 net.cpp:110] Creating Layer conv4_2/expand
I0407 06:51:17.188769  1652 net.cpp:451] conv4_2/expand <- block_4_1_block_4_1_fixed_0_split_0
I0407 06:51:17.188776  1652 net.cpp:425] conv4_2/expand -> conv4_2/expand/bn
I0407 06:51:17.189074  1652 layer_factory.hpp:93] Creating layer conv4_2/expand
I0407 06:51:17.189595  1652 net.cpp:160] Setting up conv4_2/expand
I0407 06:51:17.189602  1652 net.cpp:167] Top shape: 5 192 45 60 (2592000)
I0407 06:51:17.189607  1652 net.cpp:175] Memory required for data: 1105056064
I0407 06:51:17.189613  1652 layer_factory.hpp:93] Creating layer relu4_2/expand
I0407 06:51:17.189618  1652 net.cpp:110] Creating Layer relu4_2/expand
I0407 06:51:17.189622  1652 net.cpp:451] relu4_2/expand <- conv4_2/expand/bn
I0407 06:51:17.189626  1652 net.cpp:412] relu4_2/expand -> conv4_2/expand/bn (in-place)
I0407 06:51:17.189632  1652 net.cpp:160] Setting up relu4_2/expand
I0407 06:51:17.189635  1652 net.cpp:167] Top shape: 5 192 45 60 (2592000)
I0407 06:51:17.189640  1652 net.cpp:175] Memory required for data: 1115424064
I0407 06:51:17.189642  1652 layer_factory.hpp:93] Creating layer conv4_2/expand/bn_fixed
I0407 06:51:17.189649  1652 net.cpp:110] Creating Layer conv4_2/expand/bn_fixed
I0407 06:51:17.189653  1652 net.cpp:451] conv4_2/expand/bn_fixed <- conv4_2/expand/bn
I0407 06:51:17.189657  1652 net.cpp:412] conv4_2/expand/bn_fixed -> conv4_2/expand/bn (in-place)
I0407 06:51:17.189703  1652 net.cpp:160] Setting up conv4_2/expand/bn_fixed
I0407 06:51:17.189708  1652 net.cpp:167] Top shape: 5 192 45 60 (2592000)
I0407 06:51:17.189713  1652 net.cpp:175] Memory required for data: 1125792064
I0407 06:51:17.189718  1652 layer_factory.hpp:93] Creating layer conv4_2/dwise
I0407 06:51:17.189726  1652 net.cpp:110] Creating Layer conv4_2/dwise
I0407 06:51:17.189729  1652 net.cpp:451] conv4_2/dwise <- conv4_2/expand/bn
I0407 06:51:17.189734  1652 net.cpp:425] conv4_2/dwise -> conv4_2/dwise/bn
I0407 06:51:17.190006  1652 layer_factory.hpp:93] Creating layer conv4_2/dwise
I0407 06:51:17.190495  1652 net.cpp:160] Setting up conv4_2/dwise
I0407 06:51:17.190502  1652 net.cpp:167] Top shape: 5 192 45 60 (2592000)
I0407 06:51:17.190507  1652 net.cpp:175] Memory required for data: 1136160064
I0407 06:51:17.190513  1652 layer_factory.hpp:93] Creating layer relu4_2/dwise
I0407 06:51:17.190521  1652 net.cpp:110] Creating Layer relu4_2/dwise
I0407 06:51:17.190524  1652 net.cpp:451] relu4_2/dwise <- conv4_2/dwise/bn
I0407 06:51:17.190528  1652 net.cpp:412] relu4_2/dwise -> conv4_2/dwise/bn (in-place)
I0407 06:51:17.190534  1652 net.cpp:160] Setting up relu4_2/dwise
I0407 06:51:17.190537  1652 net.cpp:167] Top shape: 5 192 45 60 (2592000)
I0407 06:51:17.190541  1652 net.cpp:175] Memory required for data: 1146528064
I0407 06:51:17.190544  1652 layer_factory.hpp:93] Creating layer conv4_2/dwise/bn_fixed
I0407 06:51:17.190549  1652 net.cpp:110] Creating Layer conv4_2/dwise/bn_fixed
I0407 06:51:17.190552  1652 net.cpp:451] conv4_2/dwise/bn_fixed <- conv4_2/dwise/bn
I0407 06:51:17.190557  1652 net.cpp:412] conv4_2/dwise/bn_fixed -> conv4_2/dwise/bn (in-place)
I0407 06:51:17.190608  1652 net.cpp:160] Setting up conv4_2/dwise/bn_fixed
I0407 06:51:17.190613  1652 net.cpp:167] Top shape: 5 192 45 60 (2592000)
I0407 06:51:17.190618  1652 net.cpp:175] Memory required for data: 1156896064
I0407 06:51:17.190623  1652 layer_factory.hpp:93] Creating layer conv4_2/linear
I0407 06:51:17.190629  1652 net.cpp:110] Creating Layer conv4_2/linear
I0407 06:51:17.190632  1652 net.cpp:451] conv4_2/linear <- conv4_2/dwise/bn
I0407 06:51:17.190639  1652 net.cpp:425] conv4_2/linear -> conv4_2/linear/bn
I0407 06:51:17.190940  1652 layer_factory.hpp:93] Creating layer conv4_2/linear
I0407 06:51:17.191459  1652 net.cpp:160] Setting up conv4_2/linear
I0407 06:51:17.191467  1652 net.cpp:167] Top shape: 5 32 45 60 (432000)
I0407 06:51:17.191471  1652 net.cpp:175] Memory required for data: 1158624064
I0407 06:51:17.191478  1652 layer_factory.hpp:93] Creating layer conv4_2/linear/bn_fixed
I0407 06:51:17.191484  1652 net.cpp:110] Creating Layer conv4_2/linear/bn_fixed
I0407 06:51:17.191488  1652 net.cpp:451] conv4_2/linear/bn_fixed <- conv4_2/linear/bn
I0407 06:51:17.191493  1652 net.cpp:412] conv4_2/linear/bn_fixed -> conv4_2/linear/bn (in-place)
I0407 06:51:17.191540  1652 net.cpp:160] Setting up conv4_2/linear/bn_fixed
I0407 06:51:17.191545  1652 net.cpp:167] Top shape: 5 32 45 60 (432000)
I0407 06:51:17.191550  1652 net.cpp:175] Memory required for data: 1160352064
I0407 06:51:17.191555  1652 layer_factory.hpp:93] Creating layer block_4_2
I0407 06:51:17.191560  1652 net.cpp:110] Creating Layer block_4_2
I0407 06:51:17.191565  1652 net.cpp:451] block_4_2 <- block_4_1_block_4_1_fixed_0_split_1
I0407 06:51:17.191568  1652 net.cpp:451] block_4_2 <- conv4_2/linear/bn
I0407 06:51:17.191572  1652 net.cpp:425] block_4_2 -> block_4_2
I0407 06:51:17.191598  1652 net.cpp:160] Setting up block_4_2
I0407 06:51:17.191604  1652 net.cpp:167] Top shape: 5 32 45 60 (432000)
I0407 06:51:17.191608  1652 net.cpp:175] Memory required for data: 1162080064
I0407 06:51:17.191612  1652 layer_factory.hpp:93] Creating layer block_4_2_fixed
I0407 06:51:17.191617  1652 net.cpp:110] Creating Layer block_4_2_fixed
I0407 06:51:17.191619  1652 net.cpp:451] block_4_2_fixed <- block_4_2
I0407 06:51:17.191623  1652 net.cpp:412] block_4_2_fixed -> block_4_2 (in-place)
I0407 06:51:17.191668  1652 net.cpp:160] Setting up block_4_2_fixed
I0407 06:51:17.191673  1652 net.cpp:167] Top shape: 5 32 45 60 (432000)
I0407 06:51:17.191676  1652 net.cpp:175] Memory required for data: 1163808064
I0407 06:51:17.191680  1652 layer_factory.hpp:93] Creating layer conv4_3/expand
I0407 06:51:17.191689  1652 net.cpp:110] Creating Layer conv4_3/expand
I0407 06:51:17.191692  1652 net.cpp:451] conv4_3/expand <- block_4_2
I0407 06:51:17.191697  1652 net.cpp:425] conv4_3/expand -> conv4_3/expand/bn
I0407 06:51:17.191998  1652 layer_factory.hpp:93] Creating layer conv4_3/expand
I0407 06:51:17.192524  1652 net.cpp:160] Setting up conv4_3/expand
I0407 06:51:17.192533  1652 net.cpp:167] Top shape: 5 192 45 60 (2592000)
I0407 06:51:17.192538  1652 net.cpp:175] Memory required for data: 1174176064
I0407 06:51:17.192543  1652 layer_factory.hpp:93] Creating layer relu4_3/expand
I0407 06:51:17.192553  1652 net.cpp:110] Creating Layer relu4_3/expand
I0407 06:51:17.192556  1652 net.cpp:451] relu4_3/expand <- conv4_3/expand/bn
I0407 06:51:17.192561  1652 net.cpp:412] relu4_3/expand -> conv4_3/expand/bn (in-place)
I0407 06:51:17.192567  1652 net.cpp:160] Setting up relu4_3/expand
I0407 06:51:17.192570  1652 net.cpp:167] Top shape: 5 192 45 60 (2592000)
I0407 06:51:17.192574  1652 net.cpp:175] Memory required for data: 1184544064
I0407 06:51:17.192577  1652 layer_factory.hpp:93] Creating layer conv4_3/expand/bn_fixed
I0407 06:51:17.192582  1652 net.cpp:110] Creating Layer conv4_3/expand/bn_fixed
I0407 06:51:17.192585  1652 net.cpp:451] conv4_3/expand/bn_fixed <- conv4_3/expand/bn
I0407 06:51:17.192589  1652 net.cpp:412] conv4_3/expand/bn_fixed -> conv4_3/expand/bn (in-place)
I0407 06:51:17.192636  1652 net.cpp:160] Setting up conv4_3/expand/bn_fixed
I0407 06:51:17.192641  1652 net.cpp:167] Top shape: 5 192 45 60 (2592000)
I0407 06:51:17.192646  1652 net.cpp:175] Memory required for data: 1194912064
I0407 06:51:17.192651  1652 layer_factory.hpp:93] Creating layer conv4_3/dwise
I0407 06:51:17.192658  1652 net.cpp:110] Creating Layer conv4_3/dwise
I0407 06:51:17.192662  1652 net.cpp:451] conv4_3/dwise <- conv4_3/expand/bn
I0407 06:51:17.192667  1652 net.cpp:425] conv4_3/dwise -> conv4_3/dwise/bn
I0407 06:51:17.192943  1652 layer_factory.hpp:93] Creating layer conv4_3/dwise
I0407 06:51:17.193424  1652 net.cpp:160] Setting up conv4_3/dwise
I0407 06:51:17.193431  1652 net.cpp:167] Top shape: 5 192 45 60 (2592000)
I0407 06:51:17.193436  1652 net.cpp:175] Memory required for data: 1205280064
I0407 06:51:17.193449  1652 layer_factory.hpp:93] Creating layer relu4_3/dwise
I0407 06:51:17.193454  1652 net.cpp:110] Creating Layer relu4_3/dwise
I0407 06:51:17.193456  1652 net.cpp:451] relu4_3/dwise <- conv4_3/dwise/bn
I0407 06:51:17.193460  1652 net.cpp:412] relu4_3/dwise -> conv4_3/dwise/bn (in-place)
I0407 06:51:17.193467  1652 net.cpp:160] Setting up relu4_3/dwise
I0407 06:51:17.193470  1652 net.cpp:167] Top shape: 5 192 45 60 (2592000)
I0407 06:51:17.193475  1652 net.cpp:175] Memory required for data: 1215648064
I0407 06:51:17.193477  1652 layer_factory.hpp:93] Creating layer conv4_3/dwise/bn_fixed
I0407 06:51:17.193482  1652 net.cpp:110] Creating Layer conv4_3/dwise/bn_fixed
I0407 06:51:17.193485  1652 net.cpp:451] conv4_3/dwise/bn_fixed <- conv4_3/dwise/bn
I0407 06:51:17.193490  1652 net.cpp:412] conv4_3/dwise/bn_fixed -> conv4_3/dwise/bn (in-place)
I0407 06:51:17.193537  1652 net.cpp:160] Setting up conv4_3/dwise/bn_fixed
I0407 06:51:17.193543  1652 net.cpp:167] Top shape: 5 192 45 60 (2592000)
I0407 06:51:17.193547  1652 net.cpp:175] Memory required for data: 1226016064
I0407 06:51:17.193552  1652 layer_factory.hpp:93] Creating layer conv4_3/linear
I0407 06:51:17.193562  1652 net.cpp:110] Creating Layer conv4_3/linear
I0407 06:51:17.193564  1652 net.cpp:451] conv4_3/linear <- conv4_3/dwise/bn
I0407 06:51:17.193569  1652 net.cpp:425] conv4_3/linear -> conv4_3/linear/bn
I0407 06:51:17.193925  1652 layer_factory.hpp:93] Creating layer conv4_3/linear
I0407 06:51:17.194499  1652 net.cpp:160] Setting up conv4_3/linear
I0407 06:51:17.194506  1652 net.cpp:167] Top shape: 5 64 45 60 (864000)
I0407 06:51:17.194511  1652 net.cpp:175] Memory required for data: 1229472064
I0407 06:51:17.194517  1652 layer_factory.hpp:93] Creating layer conv4_3/linear/bn_fixed
I0407 06:51:17.194522  1652 net.cpp:110] Creating Layer conv4_3/linear/bn_fixed
I0407 06:51:17.194526  1652 net.cpp:451] conv4_3/linear/bn_fixed <- conv4_3/linear/bn
I0407 06:51:17.194530  1652 net.cpp:412] conv4_3/linear/bn_fixed -> conv4_3/linear/bn (in-place)
I0407 06:51:17.194577  1652 net.cpp:160] Setting up conv4_3/linear/bn_fixed
I0407 06:51:17.194583  1652 net.cpp:167] Top shape: 5 64 45 60 (864000)
I0407 06:51:17.194591  1652 net.cpp:175] Memory required for data: 1232928064
I0407 06:51:17.194594  1652 layer_factory.hpp:93] Creating layer conv4_3/linear/bn_conv4_3/linear/bn_fixed_0_split
I0407 06:51:17.194599  1652 net.cpp:110] Creating Layer conv4_3/linear/bn_conv4_3/linear/bn_fixed_0_split
I0407 06:51:17.194603  1652 net.cpp:451] conv4_3/linear/bn_conv4_3/linear/bn_fixed_0_split <- conv4_3/linear/bn
I0407 06:51:17.194608  1652 net.cpp:425] conv4_3/linear/bn_conv4_3/linear/bn_fixed_0_split -> conv4_3/linear/bn_conv4_3/linear/bn_fixed_0_split_0
I0407 06:51:17.194613  1652 net.cpp:425] conv4_3/linear/bn_conv4_3/linear/bn_fixed_0_split -> conv4_3/linear/bn_conv4_3/linear/bn_fixed_0_split_1
I0407 06:51:17.194659  1652 net.cpp:160] Setting up conv4_3/linear/bn_conv4_3/linear/bn_fixed_0_split
I0407 06:51:17.194665  1652 net.cpp:167] Top shape: 5 64 45 60 (864000)
I0407 06:51:17.194669  1652 net.cpp:167] Top shape: 5 64 45 60 (864000)
I0407 06:51:17.194674  1652 net.cpp:175] Memory required for data: 1239840064
I0407 06:51:17.194676  1652 layer_factory.hpp:93] Creating layer conv4_4/expand
I0407 06:51:17.194684  1652 net.cpp:110] Creating Layer conv4_4/expand
I0407 06:51:17.194686  1652 net.cpp:451] conv4_4/expand <- conv4_3/linear/bn_conv4_3/linear/bn_fixed_0_split_0
I0407 06:51:17.194691  1652 net.cpp:425] conv4_4/expand -> conv4_4/expand/bn
I0407 06:51:17.195914  1652 layer_factory.hpp:93] Creating layer conv4_4/expand
I0407 06:51:17.196607  1652 net.cpp:160] Setting up conv4_4/expand
I0407 06:51:17.196616  1652 net.cpp:167] Top shape: 5 384 45 60 (5184000)
I0407 06:51:17.196622  1652 net.cpp:175] Memory required for data: 1260576064
I0407 06:51:17.196630  1652 layer_factory.hpp:93] Creating layer relu4_4/expand
I0407 06:51:17.196636  1652 net.cpp:110] Creating Layer relu4_4/expand
I0407 06:51:17.196640  1652 net.cpp:451] relu4_4/expand <- conv4_4/expand/bn
I0407 06:51:17.196645  1652 net.cpp:412] relu4_4/expand -> conv4_4/expand/bn (in-place)
I0407 06:51:17.196651  1652 net.cpp:160] Setting up relu4_4/expand
I0407 06:51:17.196655  1652 net.cpp:167] Top shape: 5 384 45 60 (5184000)
I0407 06:51:17.196658  1652 net.cpp:175] Memory required for data: 1281312064
I0407 06:51:17.196661  1652 layer_factory.hpp:93] Creating layer conv4_4/expand/bn_fixed
I0407 06:51:17.196666  1652 net.cpp:110] Creating Layer conv4_4/expand/bn_fixed
I0407 06:51:17.196669  1652 net.cpp:451] conv4_4/expand/bn_fixed <- conv4_4/expand/bn
I0407 06:51:17.196673  1652 net.cpp:412] conv4_4/expand/bn_fixed -> conv4_4/expand/bn (in-place)
I0407 06:51:17.196724  1652 net.cpp:160] Setting up conv4_4/expand/bn_fixed
I0407 06:51:17.196730  1652 net.cpp:167] Top shape: 5 384 45 60 (5184000)
I0407 06:51:17.196735  1652 net.cpp:175] Memory required for data: 1302048064
I0407 06:51:17.196740  1652 layer_factory.hpp:93] Creating layer conv4_4/dwise
I0407 06:51:17.196746  1652 net.cpp:110] Creating Layer conv4_4/dwise
I0407 06:51:17.196750  1652 net.cpp:451] conv4_4/dwise <- conv4_4/expand/bn
I0407 06:51:17.196754  1652 net.cpp:425] conv4_4/dwise -> conv4_4/dwise/bn
I0407 06:51:17.197028  1652 layer_factory.hpp:93] Creating layer conv4_4/dwise
I0407 06:51:17.197494  1652 net.cpp:160] Setting up conv4_4/dwise
I0407 06:51:17.197501  1652 net.cpp:167] Top shape: 5 384 45 60 (5184000)
I0407 06:51:17.197506  1652 net.cpp:175] Memory required for data: 1322784064
I0407 06:51:17.197512  1652 layer_factory.hpp:93] Creating layer relu4_4/dwise
I0407 06:51:17.197518  1652 net.cpp:110] Creating Layer relu4_4/dwise
I0407 06:51:17.197521  1652 net.cpp:451] relu4_4/dwise <- conv4_4/dwise/bn
I0407 06:51:17.197526  1652 net.cpp:412] relu4_4/dwise -> conv4_4/dwise/bn (in-place)
I0407 06:51:17.197531  1652 net.cpp:160] Setting up relu4_4/dwise
I0407 06:51:17.197535  1652 net.cpp:167] Top shape: 5 384 45 60 (5184000)
I0407 06:51:17.197538  1652 net.cpp:175] Memory required for data: 1343520064
I0407 06:51:17.197541  1652 layer_factory.hpp:93] Creating layer conv4_4/dwise/bn_fixed
I0407 06:51:17.197547  1652 net.cpp:110] Creating Layer conv4_4/dwise/bn_fixed
I0407 06:51:17.197551  1652 net.cpp:451] conv4_4/dwise/bn_fixed <- conv4_4/dwise/bn
I0407 06:51:17.197554  1652 net.cpp:412] conv4_4/dwise/bn_fixed -> conv4_4/dwise/bn (in-place)
I0407 06:51:17.197603  1652 net.cpp:160] Setting up conv4_4/dwise/bn_fixed
I0407 06:51:17.197609  1652 net.cpp:167] Top shape: 5 384 45 60 (5184000)
I0407 06:51:17.197613  1652 net.cpp:175] Memory required for data: 1364256064
I0407 06:51:17.197618  1652 layer_factory.hpp:93] Creating layer conv4_4/linear
I0407 06:51:17.197624  1652 net.cpp:110] Creating Layer conv4_4/linear
I0407 06:51:17.197628  1652 net.cpp:451] conv4_4/linear <- conv4_4/dwise/bn
I0407 06:51:17.197634  1652 net.cpp:425] conv4_4/linear -> conv4_4/linear/bn
I0407 06:51:17.198096  1652 layer_factory.hpp:93] Creating layer conv4_4/linear
I0407 06:51:17.198779  1652 net.cpp:160] Setting up conv4_4/linear
I0407 06:51:17.198786  1652 net.cpp:167] Top shape: 5 64 45 60 (864000)
I0407 06:51:17.198792  1652 net.cpp:175] Memory required for data: 1367712064
I0407 06:51:17.198797  1652 layer_factory.hpp:93] Creating layer conv4_4/linear/bn_fixed
I0407 06:51:17.198805  1652 net.cpp:110] Creating Layer conv4_4/linear/bn_fixed
I0407 06:51:17.198808  1652 net.cpp:451] conv4_4/linear/bn_fixed <- conv4_4/linear/bn
I0407 06:51:17.198813  1652 net.cpp:412] conv4_4/linear/bn_fixed -> conv4_4/linear/bn (in-place)
I0407 06:51:17.198860  1652 net.cpp:160] Setting up conv4_4/linear/bn_fixed
I0407 06:51:17.198866  1652 net.cpp:167] Top shape: 5 64 45 60 (864000)
I0407 06:51:17.198870  1652 net.cpp:175] Memory required for data: 1371168064
I0407 06:51:17.198875  1652 layer_factory.hpp:93] Creating layer block_4_4
I0407 06:51:17.198881  1652 net.cpp:110] Creating Layer block_4_4
I0407 06:51:17.198885  1652 net.cpp:451] block_4_4 <- conv4_3/linear/bn_conv4_3/linear/bn_fixed_0_split_1
I0407 06:51:17.198889  1652 net.cpp:451] block_4_4 <- conv4_4/linear/bn
I0407 06:51:17.198894  1652 net.cpp:425] block_4_4 -> block_4_4
I0407 06:51:17.198920  1652 net.cpp:160] Setting up block_4_4
I0407 06:51:17.198926  1652 net.cpp:167] Top shape: 5 64 45 60 (864000)
I0407 06:51:17.198930  1652 net.cpp:175] Memory required for data: 1374624064
I0407 06:51:17.198933  1652 layer_factory.hpp:93] Creating layer block_4_4_fixed
I0407 06:51:17.198938  1652 net.cpp:110] Creating Layer block_4_4_fixed
I0407 06:51:17.198942  1652 net.cpp:451] block_4_4_fixed <- block_4_4
I0407 06:51:17.198946  1652 net.cpp:412] block_4_4_fixed -> block_4_4 (in-place)
I0407 06:51:17.198990  1652 net.cpp:160] Setting up block_4_4_fixed
I0407 06:51:17.198997  1652 net.cpp:167] Top shape: 5 64 45 60 (864000)
I0407 06:51:17.199000  1652 net.cpp:175] Memory required for data: 1378080064
I0407 06:51:17.199005  1652 layer_factory.hpp:93] Creating layer block_4_4_block_4_4_fixed_0_split
I0407 06:51:17.199012  1652 net.cpp:110] Creating Layer block_4_4_block_4_4_fixed_0_split
I0407 06:51:17.199016  1652 net.cpp:451] block_4_4_block_4_4_fixed_0_split <- block_4_4
I0407 06:51:17.199020  1652 net.cpp:425] block_4_4_block_4_4_fixed_0_split -> block_4_4_block_4_4_fixed_0_split_0
I0407 06:51:17.199026  1652 net.cpp:425] block_4_4_block_4_4_fixed_0_split -> block_4_4_block_4_4_fixed_0_split_1
I0407 06:51:17.199071  1652 net.cpp:160] Setting up block_4_4_block_4_4_fixed_0_split
I0407 06:51:17.199076  1652 net.cpp:167] Top shape: 5 64 45 60 (864000)
I0407 06:51:17.199081  1652 net.cpp:167] Top shape: 5 64 45 60 (864000)
I0407 06:51:17.199085  1652 net.cpp:175] Memory required for data: 1384992064
I0407 06:51:17.199088  1652 layer_factory.hpp:93] Creating layer conv4_5/expand
I0407 06:51:17.199095  1652 net.cpp:110] Creating Layer conv4_5/expand
I0407 06:51:17.199105  1652 net.cpp:451] conv4_5/expand <- block_4_4_block_4_4_fixed_0_split_0
I0407 06:51:17.199110  1652 net.cpp:425] conv4_5/expand -> conv4_5/expand/bn
I0407 06:51:17.199563  1652 layer_factory.hpp:93] Creating layer conv4_5/expand
I0407 06:51:17.200232  1652 net.cpp:160] Setting up conv4_5/expand
I0407 06:51:17.200240  1652 net.cpp:167] Top shape: 5 384 45 60 (5184000)
I0407 06:51:17.200245  1652 net.cpp:175] Memory required for data: 1405728064
I0407 06:51:17.200251  1652 layer_factory.hpp:93] Creating layer relu4_5/expand
I0407 06:51:17.200258  1652 net.cpp:110] Creating Layer relu4_5/expand
I0407 06:51:17.200263  1652 net.cpp:451] relu4_5/expand <- conv4_5/expand/bn
I0407 06:51:17.200266  1652 net.cpp:412] relu4_5/expand -> conv4_5/expand/bn (in-place)
I0407 06:51:17.200273  1652 net.cpp:160] Setting up relu4_5/expand
I0407 06:51:17.200275  1652 net.cpp:167] Top shape: 5 384 45 60 (5184000)
I0407 06:51:17.200280  1652 net.cpp:175] Memory required for data: 1426464064
I0407 06:51:17.200284  1652 layer_factory.hpp:93] Creating layer conv4_5/expand/bn_fixed
I0407 06:51:17.200287  1652 net.cpp:110] Creating Layer conv4_5/expand/bn_fixed
I0407 06:51:17.200291  1652 net.cpp:451] conv4_5/expand/bn_fixed <- conv4_5/expand/bn
I0407 06:51:17.200295  1652 net.cpp:412] conv4_5/expand/bn_fixed -> conv4_5/expand/bn (in-place)
I0407 06:51:17.200343  1652 net.cpp:160] Setting up conv4_5/expand/bn_fixed
I0407 06:51:17.200350  1652 net.cpp:167] Top shape: 5 384 45 60 (5184000)
I0407 06:51:17.200353  1652 net.cpp:175] Memory required for data: 1447200064
I0407 06:51:17.200358  1652 layer_factory.hpp:93] Creating layer conv4_5/dwise
I0407 06:51:17.200366  1652 net.cpp:110] Creating Layer conv4_5/dwise
I0407 06:51:17.200368  1652 net.cpp:451] conv4_5/dwise <- conv4_5/expand/bn
I0407 06:51:17.200373  1652 net.cpp:425] conv4_5/dwise -> conv4_5/dwise/bn
I0407 06:51:17.200637  1652 layer_factory.hpp:93] Creating layer conv4_5/dwise
I0407 06:51:17.201102  1652 net.cpp:160] Setting up conv4_5/dwise
I0407 06:51:17.201109  1652 net.cpp:167] Top shape: 5 384 45 60 (5184000)
I0407 06:51:17.201114  1652 net.cpp:175] Memory required for data: 1467936064
I0407 06:51:17.201119  1652 layer_factory.hpp:93] Creating layer relu4_5/dwise
I0407 06:51:17.201124  1652 net.cpp:110] Creating Layer relu4_5/dwise
I0407 06:51:17.201128  1652 net.cpp:451] relu4_5/dwise <- conv4_5/dwise/bn
I0407 06:51:17.201133  1652 net.cpp:412] relu4_5/dwise -> conv4_5/dwise/bn (in-place)
I0407 06:51:17.201138  1652 net.cpp:160] Setting up relu4_5/dwise
I0407 06:51:17.201140  1652 net.cpp:167] Top shape: 5 384 45 60 (5184000)
I0407 06:51:17.201144  1652 net.cpp:175] Memory required for data: 1488672064
I0407 06:51:17.201148  1652 layer_factory.hpp:93] Creating layer conv4_5/dwise/bn_fixed
I0407 06:51:17.201153  1652 net.cpp:110] Creating Layer conv4_5/dwise/bn_fixed
I0407 06:51:17.201155  1652 net.cpp:451] conv4_5/dwise/bn_fixed <- conv4_5/dwise/bn
I0407 06:51:17.201159  1652 net.cpp:412] conv4_5/dwise/bn_fixed -> conv4_5/dwise/bn (in-place)
I0407 06:51:17.201206  1652 net.cpp:160] Setting up conv4_5/dwise/bn_fixed
I0407 06:51:17.201212  1652 net.cpp:167] Top shape: 5 384 45 60 (5184000)
I0407 06:51:17.201217  1652 net.cpp:175] Memory required for data: 1509408064
I0407 06:51:17.201221  1652 layer_factory.hpp:93] Creating layer conv4_5/linear
I0407 06:51:17.201229  1652 net.cpp:110] Creating Layer conv4_5/linear
I0407 06:51:17.201232  1652 net.cpp:451] conv4_5/linear <- conv4_5/dwise/bn
I0407 06:51:17.201237  1652 net.cpp:425] conv4_5/linear -> conv4_5/linear/bn
I0407 06:51:17.201704  1652 layer_factory.hpp:93] Creating layer conv4_5/linear
I0407 06:51:17.202395  1652 net.cpp:160] Setting up conv4_5/linear
I0407 06:51:17.202402  1652 net.cpp:167] Top shape: 5 64 45 60 (864000)
I0407 06:51:17.202423  1652 net.cpp:175] Memory required for data: 1512864064
I0407 06:51:17.202430  1652 layer_factory.hpp:93] Creating layer conv4_5/linear/bn_fixed
I0407 06:51:17.202435  1652 net.cpp:110] Creating Layer conv4_5/linear/bn_fixed
I0407 06:51:17.202438  1652 net.cpp:451] conv4_5/linear/bn_fixed <- conv4_5/linear/bn
I0407 06:51:17.202442  1652 net.cpp:412] conv4_5/linear/bn_fixed -> conv4_5/linear/bn (in-place)
I0407 06:51:17.202488  1652 net.cpp:160] Setting up conv4_5/linear/bn_fixed
I0407 06:51:17.202494  1652 net.cpp:167] Top shape: 5 64 45 60 (864000)
I0407 06:51:17.202499  1652 net.cpp:175] Memory required for data: 1516320064
I0407 06:51:17.202504  1652 layer_factory.hpp:93] Creating layer block_4_5
I0407 06:51:17.202510  1652 net.cpp:110] Creating Layer block_4_5
I0407 06:51:17.202514  1652 net.cpp:451] block_4_5 <- block_4_4_block_4_4_fixed_0_split_1
I0407 06:51:17.202518  1652 net.cpp:451] block_4_5 <- conv4_5/linear/bn
I0407 06:51:17.202522  1652 net.cpp:425] block_4_5 -> block_4_5
I0407 06:51:17.202550  1652 net.cpp:160] Setting up block_4_5
I0407 06:51:17.202555  1652 net.cpp:167] Top shape: 5 64 45 60 (864000)
I0407 06:51:17.202559  1652 net.cpp:175] Memory required for data: 1519776064
I0407 06:51:17.202564  1652 layer_factory.hpp:93] Creating layer block_4_5_fixed
I0407 06:51:17.202569  1652 net.cpp:110] Creating Layer block_4_5_fixed
I0407 06:51:17.202571  1652 net.cpp:451] block_4_5_fixed <- block_4_5
I0407 06:51:17.202576  1652 net.cpp:412] block_4_5_fixed -> block_4_5 (in-place)
I0407 06:51:17.202622  1652 net.cpp:160] Setting up block_4_5_fixed
I0407 06:51:17.202627  1652 net.cpp:167] Top shape: 5 64 45 60 (864000)
I0407 06:51:17.202631  1652 net.cpp:175] Memory required for data: 1523232064
I0407 06:51:17.202636  1652 layer_factory.hpp:93] Creating layer block_4_5_block_4_5_fixed_0_split
I0407 06:51:17.202641  1652 net.cpp:110] Creating Layer block_4_5_block_4_5_fixed_0_split
I0407 06:51:17.202644  1652 net.cpp:451] block_4_5_block_4_5_fixed_0_split <- block_4_5
I0407 06:51:17.202649  1652 net.cpp:425] block_4_5_block_4_5_fixed_0_split -> block_4_5_block_4_5_fixed_0_split_0
I0407 06:51:17.202654  1652 net.cpp:425] block_4_5_block_4_5_fixed_0_split -> block_4_5_block_4_5_fixed_0_split_1
I0407 06:51:17.202699  1652 net.cpp:160] Setting up block_4_5_block_4_5_fixed_0_split
I0407 06:51:17.202704  1652 net.cpp:167] Top shape: 5 64 45 60 (864000)
I0407 06:51:17.202709  1652 net.cpp:167] Top shape: 5 64 45 60 (864000)
I0407 06:51:17.202713  1652 net.cpp:175] Memory required for data: 1530144064
I0407 06:51:17.202716  1652 layer_factory.hpp:93] Creating layer conv4_6/expand
I0407 06:51:17.202723  1652 net.cpp:110] Creating Layer conv4_6/expand
I0407 06:51:17.202726  1652 net.cpp:451] conv4_6/expand <- block_4_5_block_4_5_fixed_0_split_0
I0407 06:51:17.202733  1652 net.cpp:425] conv4_6/expand -> conv4_6/expand/bn
I0407 06:51:17.203186  1652 layer_factory.hpp:93] Creating layer conv4_6/expand
I0407 06:51:17.204603  1652 net.cpp:160] Setting up conv4_6/expand
I0407 06:51:17.204614  1652 net.cpp:167] Top shape: 5 384 45 60 (5184000)
I0407 06:51:17.204620  1652 net.cpp:175] Memory required for data: 1550880064
I0407 06:51:17.204627  1652 layer_factory.hpp:93] Creating layer relu4_6/expand
I0407 06:51:17.204632  1652 net.cpp:110] Creating Layer relu4_6/expand
I0407 06:51:17.204638  1652 net.cpp:451] relu4_6/expand <- conv4_6/expand/bn
I0407 06:51:17.204643  1652 net.cpp:412] relu4_6/expand -> conv4_6/expand/bn (in-place)
I0407 06:51:17.204650  1652 net.cpp:160] Setting up relu4_6/expand
I0407 06:51:17.204653  1652 net.cpp:167] Top shape: 5 384 45 60 (5184000)
I0407 06:51:17.204658  1652 net.cpp:175] Memory required for data: 1571616064
I0407 06:51:17.204660  1652 layer_factory.hpp:93] Creating layer conv4_6/expand/bn_fixed
I0407 06:51:17.204665  1652 net.cpp:110] Creating Layer conv4_6/expand/bn_fixed
I0407 06:51:17.204668  1652 net.cpp:451] conv4_6/expand/bn_fixed <- conv4_6/expand/bn
I0407 06:51:17.204674  1652 net.cpp:412] conv4_6/expand/bn_fixed -> conv4_6/expand/bn (in-place)
I0407 06:51:17.204722  1652 net.cpp:160] Setting up conv4_6/expand/bn_fixed
I0407 06:51:17.204728  1652 net.cpp:167] Top shape: 5 384 45 60 (5184000)
I0407 06:51:17.204733  1652 net.cpp:175] Memory required for data: 1592352064
I0407 06:51:17.204737  1652 layer_factory.hpp:93] Creating layer conv4_6/dwise
I0407 06:51:17.204744  1652 net.cpp:110] Creating Layer conv4_6/dwise
I0407 06:51:17.204748  1652 net.cpp:451] conv4_6/dwise <- conv4_6/expand/bn
I0407 06:51:17.204753  1652 net.cpp:425] conv4_6/dwise -> conv4_6/dwise/bn
I0407 06:51:17.205039  1652 layer_factory.hpp:93] Creating layer conv4_6/dwise
I0407 06:51:17.205504  1652 net.cpp:160] Setting up conv4_6/dwise
I0407 06:51:17.205510  1652 net.cpp:167] Top shape: 5 384 45 60 (5184000)
I0407 06:51:17.205515  1652 net.cpp:175] Memory required for data: 1613088064
I0407 06:51:17.205521  1652 layer_factory.hpp:93] Creating layer relu4_6/dwise
I0407 06:51:17.205526  1652 net.cpp:110] Creating Layer relu4_6/dwise
I0407 06:51:17.205530  1652 net.cpp:451] relu4_6/dwise <- conv4_6/dwise/bn
I0407 06:51:17.205534  1652 net.cpp:412] relu4_6/dwise -> conv4_6/dwise/bn (in-place)
I0407 06:51:17.205539  1652 net.cpp:160] Setting up relu4_6/dwise
I0407 06:51:17.205543  1652 net.cpp:167] Top shape: 5 384 45 60 (5184000)
I0407 06:51:17.205546  1652 net.cpp:175] Memory required for data: 1633824064
I0407 06:51:17.205550  1652 layer_factory.hpp:93] Creating layer conv4_6/dwise/bn_fixed
I0407 06:51:17.205554  1652 net.cpp:110] Creating Layer conv4_6/dwise/bn_fixed
I0407 06:51:17.205557  1652 net.cpp:451] conv4_6/dwise/bn_fixed <- conv4_6/dwise/bn
I0407 06:51:17.205562  1652 net.cpp:412] conv4_6/dwise/bn_fixed -> conv4_6/dwise/bn (in-place)
I0407 06:51:17.205610  1652 net.cpp:160] Setting up conv4_6/dwise/bn_fixed
I0407 06:51:17.205616  1652 net.cpp:167] Top shape: 5 384 45 60 (5184000)
I0407 06:51:17.205621  1652 net.cpp:175] Memory required for data: 1654560064
I0407 06:51:17.205626  1652 layer_factory.hpp:93] Creating layer conv4_6/linear
I0407 06:51:17.205631  1652 net.cpp:110] Creating Layer conv4_6/linear
I0407 06:51:17.205636  1652 net.cpp:451] conv4_6/linear <- conv4_6/dwise/bn
I0407 06:51:17.205641  1652 net.cpp:425] conv4_6/linear -> conv4_6/linear/bn
I0407 06:51:17.206116  1652 layer_factory.hpp:93] Creating layer conv4_6/linear
I0407 06:51:17.206817  1652 net.cpp:160] Setting up conv4_6/linear
I0407 06:51:17.206825  1652 net.cpp:167] Top shape: 5 64 45 60 (864000)
I0407 06:51:17.206845  1652 net.cpp:175] Memory required for data: 1658016064
I0407 06:51:17.206851  1652 layer_factory.hpp:93] Creating layer conv4_6/linear/bn_fixed
I0407 06:51:17.206856  1652 net.cpp:110] Creating Layer conv4_6/linear/bn_fixed
I0407 06:51:17.206861  1652 net.cpp:451] conv4_6/linear/bn_fixed <- conv4_6/linear/bn
I0407 06:51:17.206866  1652 net.cpp:412] conv4_6/linear/bn_fixed -> conv4_6/linear/bn (in-place)
I0407 06:51:17.206913  1652 net.cpp:160] Setting up conv4_6/linear/bn_fixed
I0407 06:51:17.206919  1652 net.cpp:167] Top shape: 5 64 45 60 (864000)
I0407 06:51:17.206923  1652 net.cpp:175] Memory required for data: 1661472064
I0407 06:51:17.206928  1652 layer_factory.hpp:93] Creating layer block_4_6
I0407 06:51:17.206936  1652 net.cpp:110] Creating Layer block_4_6
I0407 06:51:17.206939  1652 net.cpp:451] block_4_6 <- block_4_5_block_4_5_fixed_0_split_1
I0407 06:51:17.206943  1652 net.cpp:451] block_4_6 <- conv4_6/linear/bn
I0407 06:51:17.206948  1652 net.cpp:425] block_4_6 -> block_4_6
I0407 06:51:17.206976  1652 net.cpp:160] Setting up block_4_6
I0407 06:51:17.206982  1652 net.cpp:167] Top shape: 5 64 45 60 (864000)
I0407 06:51:17.206986  1652 net.cpp:175] Memory required for data: 1664928064
I0407 06:51:17.206990  1652 layer_factory.hpp:93] Creating layer block_4_6_fixed
I0407 06:51:17.206995  1652 net.cpp:110] Creating Layer block_4_6_fixed
I0407 06:51:17.206998  1652 net.cpp:451] block_4_6_fixed <- block_4_6
I0407 06:51:17.207002  1652 net.cpp:412] block_4_6_fixed -> block_4_6 (in-place)
I0407 06:51:17.207049  1652 net.cpp:160] Setting up block_4_6_fixed
I0407 06:51:17.207054  1652 net.cpp:167] Top shape: 5 64 45 60 (864000)
I0407 06:51:17.207059  1652 net.cpp:175] Memory required for data: 1668384064
I0407 06:51:17.207063  1652 layer_factory.hpp:93] Creating layer conv4_7/expand
I0407 06:51:17.207070  1652 net.cpp:110] Creating Layer conv4_7/expand
I0407 06:51:17.207073  1652 net.cpp:451] conv4_7/expand <- block_4_6
I0407 06:51:17.207078  1652 net.cpp:425] conv4_7/expand -> conv4_7/expand/bn
I0407 06:51:17.207535  1652 layer_factory.hpp:93] Creating layer conv4_7/expand
I0407 06:51:17.208209  1652 net.cpp:160] Setting up conv4_7/expand
I0407 06:51:17.208217  1652 net.cpp:167] Top shape: 5 384 45 60 (5184000)
I0407 06:51:17.208223  1652 net.cpp:175] Memory required for data: 1689120064
I0407 06:51:17.208230  1652 layer_factory.hpp:93] Creating layer relu4_7/expand
I0407 06:51:17.208235  1652 net.cpp:110] Creating Layer relu4_7/expand
I0407 06:51:17.208237  1652 net.cpp:451] relu4_7/expand <- conv4_7/expand/bn
I0407 06:51:17.208243  1652 net.cpp:412] relu4_7/expand -> conv4_7/expand/bn (in-place)
I0407 06:51:17.208250  1652 net.cpp:160] Setting up relu4_7/expand
I0407 06:51:17.208252  1652 net.cpp:167] Top shape: 5 384 45 60 (5184000)
I0407 06:51:17.208256  1652 net.cpp:175] Memory required for data: 1709856064
I0407 06:51:17.208259  1652 layer_factory.hpp:93] Creating layer conv4_7/expand/bn_fixed
I0407 06:51:17.208266  1652 net.cpp:110] Creating Layer conv4_7/expand/bn_fixed
I0407 06:51:17.208268  1652 net.cpp:451] conv4_7/expand/bn_fixed <- conv4_7/expand/bn
I0407 06:51:17.208272  1652 net.cpp:412] conv4_7/expand/bn_fixed -> conv4_7/expand/bn (in-place)
I0407 06:51:17.208323  1652 net.cpp:160] Setting up conv4_7/expand/bn_fixed
I0407 06:51:17.208328  1652 net.cpp:167] Top shape: 5 384 45 60 (5184000)
I0407 06:51:17.208333  1652 net.cpp:175] Memory required for data: 1730592064
I0407 06:51:17.208338  1652 layer_factory.hpp:93] Creating layer conv4_7/expand/bn_conv4_7/expand/bn_fixed_0_split
I0407 06:51:17.208343  1652 net.cpp:110] Creating Layer conv4_7/expand/bn_conv4_7/expand/bn_fixed_0_split
I0407 06:51:17.208345  1652 net.cpp:451] conv4_7/expand/bn_conv4_7/expand/bn_fixed_0_split <- conv4_7/expand/bn
I0407 06:51:17.208350  1652 net.cpp:425] conv4_7/expand/bn_conv4_7/expand/bn_fixed_0_split -> conv4_7/expand/bn_conv4_7/expand/bn_fixed_0_split_0
I0407 06:51:17.208356  1652 net.cpp:425] conv4_7/expand/bn_conv4_7/expand/bn_fixed_0_split -> conv4_7/expand/bn_conv4_7/expand/bn_fixed_0_split_1
I0407 06:51:17.208361  1652 net.cpp:425] conv4_7/expand/bn_conv4_7/expand/bn_fixed_0_split -> conv4_7/expand/bn_conv4_7/expand/bn_fixed_0_split_2
I0407 06:51:17.208366  1652 net.cpp:425] conv4_7/expand/bn_conv4_7/expand/bn_fixed_0_split -> conv4_7/expand/bn_conv4_7/expand/bn_fixed_0_split_3
I0407 06:51:17.208451  1652 net.cpp:160] Setting up conv4_7/expand/bn_conv4_7/expand/bn_fixed_0_split
I0407 06:51:17.208457  1652 net.cpp:167] Top shape: 5 384 45 60 (5184000)
I0407 06:51:17.208463  1652 net.cpp:167] Top shape: 5 384 45 60 (5184000)
I0407 06:51:17.208467  1652 net.cpp:167] Top shape: 5 384 45 60 (5184000)
I0407 06:51:17.208472  1652 net.cpp:167] Top shape: 5 384 45 60 (5184000)
I0407 06:51:17.208475  1652 net.cpp:175] Memory required for data: 1813536064
I0407 06:51:17.208478  1652 layer_factory.hpp:93] Creating layer conv4_7/dwise
I0407 06:51:17.208487  1652 net.cpp:110] Creating Layer conv4_7/dwise
I0407 06:51:17.208489  1652 net.cpp:451] conv4_7/dwise <- conv4_7/expand/bn_conv4_7/expand/bn_fixed_0_split_0
I0407 06:51:17.208494  1652 net.cpp:425] conv4_7/dwise -> conv4_7/dwise/bn
I0407 06:51:17.208770  1652 layer_factory.hpp:93] Creating layer conv4_7/dwise
I0407 06:51:17.209230  1652 net.cpp:160] Setting up conv4_7/dwise
I0407 06:51:17.209236  1652 net.cpp:167] Top shape: 5 384 23 30 (1324800)
I0407 06:51:17.209241  1652 net.cpp:175] Memory required for data: 1818835264
I0407 06:51:17.209247  1652 layer_factory.hpp:93] Creating layer relu4_7/dwise
I0407 06:51:17.209251  1652 net.cpp:110] Creating Layer relu4_7/dwise
I0407 06:51:17.209255  1652 net.cpp:451] relu4_7/dwise <- conv4_7/dwise/bn
I0407 06:51:17.209259  1652 net.cpp:412] relu4_7/dwise -> conv4_7/dwise/bn (in-place)
I0407 06:51:17.209265  1652 net.cpp:160] Setting up relu4_7/dwise
I0407 06:51:17.209267  1652 net.cpp:167] Top shape: 5 384 23 30 (1324800)
I0407 06:51:17.209272  1652 net.cpp:175] Memory required for data: 1824134464
I0407 06:51:17.209275  1652 layer_factory.hpp:93] Creating layer conv4_7/dwise/bn_fixed
I0407 06:51:17.209280  1652 net.cpp:110] Creating Layer conv4_7/dwise/bn_fixed
I0407 06:51:17.209282  1652 net.cpp:451] conv4_7/dwise/bn_fixed <- conv4_7/dwise/bn
I0407 06:51:17.209287  1652 net.cpp:412] conv4_7/dwise/bn_fixed -> conv4_7/dwise/bn (in-place)
I0407 06:51:17.209334  1652 net.cpp:160] Setting up conv4_7/dwise/bn_fixed
I0407 06:51:17.209340  1652 net.cpp:167] Top shape: 5 384 23 30 (1324800)
I0407 06:51:17.209344  1652 net.cpp:175] Memory required for data: 1829433664
I0407 06:51:17.209349  1652 layer_factory.hpp:93] Creating layer conv4_7/linear
I0407 06:51:17.209357  1652 net.cpp:110] Creating Layer conv4_7/linear
I0407 06:51:17.209360  1652 net.cpp:451] conv4_7/linear <- conv4_7/dwise/bn
I0407 06:51:17.209365  1652 net.cpp:425] conv4_7/linear -> conv4_7/linear/bn
I0407 06:51:17.209940  1652 layer_factory.hpp:93] Creating layer conv4_7/linear
I0407 06:51:17.210741  1652 net.cpp:160] Setting up conv4_7/linear
I0407 06:51:17.210747  1652 net.cpp:167] Top shape: 5 96 23 30 (331200)
I0407 06:51:17.210752  1652 net.cpp:175] Memory required for data: 1830758464
I0407 06:51:17.210758  1652 layer_factory.hpp:93] Creating layer conv4_7/linear/bn_fixed
I0407 06:51:17.210764  1652 net.cpp:110] Creating Layer conv4_7/linear/bn_fixed
I0407 06:51:17.210767  1652 net.cpp:451] conv4_7/linear/bn_fixed <- conv4_7/linear/bn
I0407 06:51:17.210772  1652 net.cpp:412] conv4_7/linear/bn_fixed -> conv4_7/linear/bn (in-place)
I0407 06:51:17.210819  1652 net.cpp:160] Setting up conv4_7/linear/bn_fixed
I0407 06:51:17.210825  1652 net.cpp:167] Top shape: 5 96 23 30 (331200)
I0407 06:51:17.210829  1652 net.cpp:175] Memory required for data: 1832083264
I0407 06:51:17.210834  1652 layer_factory.hpp:93] Creating layer conv4_7/linear/bn_conv4_7/linear/bn_fixed_0_split
I0407 06:51:17.210841  1652 net.cpp:110] Creating Layer conv4_7/linear/bn_conv4_7/linear/bn_fixed_0_split
I0407 06:51:17.210844  1652 net.cpp:451] conv4_7/linear/bn_conv4_7/linear/bn_fixed_0_split <- conv4_7/linear/bn
I0407 06:51:17.210850  1652 net.cpp:425] conv4_7/linear/bn_conv4_7/linear/bn_fixed_0_split -> conv4_7/linear/bn_conv4_7/linear/bn_fixed_0_split_0
I0407 06:51:17.210858  1652 net.cpp:425] conv4_7/linear/bn_conv4_7/linear/bn_fixed_0_split -> conv4_7/linear/bn_conv4_7/linear/bn_fixed_0_split_1
I0407 06:51:17.210907  1652 net.cpp:160] Setting up conv4_7/linear/bn_conv4_7/linear/bn_fixed_0_split
I0407 06:51:17.210913  1652 net.cpp:167] Top shape: 5 96 23 30 (331200)
I0407 06:51:17.210918  1652 net.cpp:167] Top shape: 5 96 23 30 (331200)
I0407 06:51:17.210922  1652 net.cpp:175] Memory required for data: 1834732864
I0407 06:51:17.210925  1652 layer_factory.hpp:93] Creating layer conv5_1/expand
I0407 06:51:17.210932  1652 net.cpp:110] Creating Layer conv5_1/expand
I0407 06:51:17.210937  1652 net.cpp:451] conv5_1/expand <- conv4_7/linear/bn_conv4_7/linear/bn_fixed_0_split_0
I0407 06:51:17.210942  1652 net.cpp:425] conv5_1/expand -> conv5_1/expand/bn
I0407 06:51:17.212425  1652 layer_factory.hpp:93] Creating layer conv5_1/expand
I0407 06:51:17.213410  1652 net.cpp:160] Setting up conv5_1/expand
I0407 06:51:17.213418  1652 net.cpp:167] Top shape: 5 576 23 30 (1987200)
I0407 06:51:17.213424  1652 net.cpp:175] Memory required for data: 1842681664
I0407 06:51:17.213431  1652 layer_factory.hpp:93] Creating layer relu5_1/expand
I0407 06:51:17.213438  1652 net.cpp:110] Creating Layer relu5_1/expand
I0407 06:51:17.213443  1652 net.cpp:451] relu5_1/expand <- conv5_1/expand/bn
I0407 06:51:17.213446  1652 net.cpp:412] relu5_1/expand -> conv5_1/expand/bn (in-place)
I0407 06:51:17.213454  1652 net.cpp:160] Setting up relu5_1/expand
I0407 06:51:17.213456  1652 net.cpp:167] Top shape: 5 576 23 30 (1987200)
I0407 06:51:17.213461  1652 net.cpp:175] Memory required for data: 1850630464
I0407 06:51:17.213464  1652 layer_factory.hpp:93] Creating layer conv5_1/expand/bn_fixed
I0407 06:51:17.213469  1652 net.cpp:110] Creating Layer conv5_1/expand/bn_fixed
I0407 06:51:17.213472  1652 net.cpp:451] conv5_1/expand/bn_fixed <- conv5_1/expand/bn
I0407 06:51:17.213477  1652 net.cpp:412] conv5_1/expand/bn_fixed -> conv5_1/expand/bn (in-place)
I0407 06:51:17.213526  1652 net.cpp:160] Setting up conv5_1/expand/bn_fixed
I0407 06:51:17.213531  1652 net.cpp:167] Top shape: 5 576 23 30 (1987200)
I0407 06:51:17.213536  1652 net.cpp:175] Memory required for data: 1858579264
I0407 06:51:17.213541  1652 layer_factory.hpp:93] Creating layer conv5_1/dwise
I0407 06:51:17.213547  1652 net.cpp:110] Creating Layer conv5_1/dwise
I0407 06:51:17.213551  1652 net.cpp:451] conv5_1/dwise <- conv5_1/expand/bn
I0407 06:51:17.213557  1652 net.cpp:425] conv5_1/dwise -> conv5_1/dwise/bn
I0407 06:51:17.213876  1652 layer_factory.hpp:93] Creating layer conv5_1/dwise
I0407 06:51:17.214395  1652 net.cpp:160] Setting up conv5_1/dwise
I0407 06:51:17.214402  1652 net.cpp:167] Top shape: 5 576 23 30 (1987200)
I0407 06:51:17.214407  1652 net.cpp:175] Memory required for data: 1866528064
I0407 06:51:17.214413  1652 layer_factory.hpp:93] Creating layer relu5_1/dwise
I0407 06:51:17.214418  1652 net.cpp:110] Creating Layer relu5_1/dwise
I0407 06:51:17.214422  1652 net.cpp:451] relu5_1/dwise <- conv5_1/dwise/bn
I0407 06:51:17.214426  1652 net.cpp:412] relu5_1/dwise -> conv5_1/dwise/bn (in-place)
I0407 06:51:17.214432  1652 net.cpp:160] Setting up relu5_1/dwise
I0407 06:51:17.214434  1652 net.cpp:167] Top shape: 5 576 23 30 (1987200)
I0407 06:51:17.214439  1652 net.cpp:175] Memory required for data: 1874476864
I0407 06:51:17.214442  1652 layer_factory.hpp:93] Creating layer conv5_1/dwise/bn_fixed
I0407 06:51:17.214447  1652 net.cpp:110] Creating Layer conv5_1/dwise/bn_fixed
I0407 06:51:17.214450  1652 net.cpp:451] conv5_1/dwise/bn_fixed <- conv5_1/dwise/bn
I0407 06:51:17.214455  1652 net.cpp:412] conv5_1/dwise/bn_fixed -> conv5_1/dwise/bn (in-place)
I0407 06:51:17.214501  1652 net.cpp:160] Setting up conv5_1/dwise/bn_fixed
I0407 06:51:17.214507  1652 net.cpp:167] Top shape: 5 576 23 30 (1987200)
I0407 06:51:17.214512  1652 net.cpp:175] Memory required for data: 1882425664
I0407 06:51:17.214516  1652 layer_factory.hpp:93] Creating layer conv5_1/linear
I0407 06:51:17.214525  1652 net.cpp:110] Creating Layer conv5_1/linear
I0407 06:51:17.214529  1652 net.cpp:451] conv5_1/linear <- conv5_1/dwise/bn
I0407 06:51:17.214534  1652 net.cpp:425] conv5_1/linear -> conv5_1/linear/bn
I0407 06:51:17.215270  1652 layer_factory.hpp:93] Creating layer conv5_1/linear
I0407 06:51:17.216238  1652 net.cpp:160] Setting up conv5_1/linear
I0407 06:51:17.216248  1652 net.cpp:167] Top shape: 5 96 23 30 (331200)
I0407 06:51:17.216253  1652 net.cpp:175] Memory required for data: 1883750464
I0407 06:51:17.216259  1652 layer_factory.hpp:93] Creating layer conv5_1/linear/bn_fixed
I0407 06:51:17.216264  1652 net.cpp:110] Creating Layer conv5_1/linear/bn_fixed
I0407 06:51:17.216269  1652 net.cpp:451] conv5_1/linear/bn_fixed <- conv5_1/linear/bn
I0407 06:51:17.216272  1652 net.cpp:412] conv5_1/linear/bn_fixed -> conv5_1/linear/bn (in-place)
I0407 06:51:17.216323  1652 net.cpp:160] Setting up conv5_1/linear/bn_fixed
I0407 06:51:17.216329  1652 net.cpp:167] Top shape: 5 96 23 30 (331200)
I0407 06:51:17.216334  1652 net.cpp:175] Memory required for data: 1885075264
I0407 06:51:17.216338  1652 layer_factory.hpp:93] Creating layer block_5_1
I0407 06:51:17.216344  1652 net.cpp:110] Creating Layer block_5_1
I0407 06:51:17.216347  1652 net.cpp:451] block_5_1 <- conv4_7/linear/bn_conv4_7/linear/bn_fixed_0_split_1
I0407 06:51:17.216351  1652 net.cpp:451] block_5_1 <- conv5_1/linear/bn
I0407 06:51:17.216356  1652 net.cpp:425] block_5_1 -> block_5_1
I0407 06:51:17.216385  1652 net.cpp:160] Setting up block_5_1
I0407 06:51:17.216392  1652 net.cpp:167] Top shape: 5 96 23 30 (331200)
I0407 06:51:17.216395  1652 net.cpp:175] Memory required for data: 1886400064
I0407 06:51:17.216399  1652 layer_factory.hpp:93] Creating layer block_5_1_fixed
I0407 06:51:17.216403  1652 net.cpp:110] Creating Layer block_5_1_fixed
I0407 06:51:17.216408  1652 net.cpp:451] block_5_1_fixed <- block_5_1
I0407 06:51:17.216411  1652 net.cpp:412] block_5_1_fixed -> block_5_1 (in-place)
I0407 06:51:17.216457  1652 net.cpp:160] Setting up block_5_1_fixed
I0407 06:51:17.216464  1652 net.cpp:167] Top shape: 5 96 23 30 (331200)
I0407 06:51:17.216467  1652 net.cpp:175] Memory required for data: 1887724864
I0407 06:51:17.216472  1652 layer_factory.hpp:93] Creating layer block_5_1_block_5_1_fixed_0_split
I0407 06:51:17.216476  1652 net.cpp:110] Creating Layer block_5_1_block_5_1_fixed_0_split
I0407 06:51:17.216480  1652 net.cpp:451] block_5_1_block_5_1_fixed_0_split <- block_5_1
I0407 06:51:17.216485  1652 net.cpp:425] block_5_1_block_5_1_fixed_0_split -> block_5_1_block_5_1_fixed_0_split_0
I0407 06:51:17.216490  1652 net.cpp:425] block_5_1_block_5_1_fixed_0_split -> block_5_1_block_5_1_fixed_0_split_1
I0407 06:51:17.216536  1652 net.cpp:160] Setting up block_5_1_block_5_1_fixed_0_split
I0407 06:51:17.216542  1652 net.cpp:167] Top shape: 5 96 23 30 (331200)
I0407 06:51:17.216547  1652 net.cpp:167] Top shape: 5 96 23 30 (331200)
I0407 06:51:17.216550  1652 net.cpp:175] Memory required for data: 1890374464
I0407 06:51:17.216553  1652 layer_factory.hpp:93] Creating layer conv5_2/expand
I0407 06:51:17.216562  1652 net.cpp:110] Creating Layer conv5_2/expand
I0407 06:51:17.216565  1652 net.cpp:451] conv5_2/expand <- block_5_1_block_5_1_fixed_0_split_0
I0407 06:51:17.216570  1652 net.cpp:425] conv5_2/expand -> conv5_2/expand/bn
I0407 06:51:17.218044  1652 layer_factory.hpp:93] Creating layer conv5_2/expand
I0407 06:51:17.219013  1652 net.cpp:160] Setting up conv5_2/expand
I0407 06:51:17.219022  1652 net.cpp:167] Top shape: 5 576 23 30 (1987200)
I0407 06:51:17.219028  1652 net.cpp:175] Memory required for data: 1898323264
I0407 06:51:17.219035  1652 layer_factory.hpp:93] Creating layer relu5_2/expand
I0407 06:51:17.219040  1652 net.cpp:110] Creating Layer relu5_2/expand
I0407 06:51:17.219044  1652 net.cpp:451] relu5_2/expand <- conv5_2/expand/bn
I0407 06:51:17.219048  1652 net.cpp:412] relu5_2/expand -> conv5_2/expand/bn (in-place)
I0407 06:51:17.219055  1652 net.cpp:160] Setting up relu5_2/expand
I0407 06:51:17.219058  1652 net.cpp:167] Top shape: 5 576 23 30 (1987200)
I0407 06:51:17.219063  1652 net.cpp:175] Memory required for data: 1906272064
I0407 06:51:17.219065  1652 layer_factory.hpp:93] Creating layer conv5_2/expand/bn_fixed
I0407 06:51:17.219070  1652 net.cpp:110] Creating Layer conv5_2/expand/bn_fixed
I0407 06:51:17.219074  1652 net.cpp:451] conv5_2/expand/bn_fixed <- conv5_2/expand/bn
I0407 06:51:17.219077  1652 net.cpp:412] conv5_2/expand/bn_fixed -> conv5_2/expand/bn (in-place)
I0407 06:51:17.219136  1652 net.cpp:160] Setting up conv5_2/expand/bn_fixed
I0407 06:51:17.219141  1652 net.cpp:167] Top shape: 5 576 23 30 (1987200)
I0407 06:51:17.219146  1652 net.cpp:175] Memory required for data: 1914220864
I0407 06:51:17.219151  1652 layer_factory.hpp:93] Creating layer conv5_2/dwise
I0407 06:51:17.219164  1652 net.cpp:110] Creating Layer conv5_2/dwise
I0407 06:51:17.219171  1652 net.cpp:451] conv5_2/dwise <- conv5_2/expand/bn
I0407 06:51:17.219175  1652 net.cpp:425] conv5_2/dwise -> conv5_2/dwise/bn
I0407 06:51:17.219498  1652 layer_factory.hpp:93] Creating layer conv5_2/dwise
I0407 06:51:17.220036  1652 net.cpp:160] Setting up conv5_2/dwise
I0407 06:51:17.220042  1652 net.cpp:167] Top shape: 5 576 23 30 (1987200)
I0407 06:51:17.220047  1652 net.cpp:175] Memory required for data: 1922169664
I0407 06:51:17.220053  1652 layer_factory.hpp:93] Creating layer relu5_2/dwise
I0407 06:51:17.220058  1652 net.cpp:110] Creating Layer relu5_2/dwise
I0407 06:51:17.220062  1652 net.cpp:451] relu5_2/dwise <- conv5_2/dwise/bn
I0407 06:51:17.220065  1652 net.cpp:412] relu5_2/dwise -> conv5_2/dwise/bn (in-place)
I0407 06:51:17.220072  1652 net.cpp:160] Setting up relu5_2/dwise
I0407 06:51:17.220074  1652 net.cpp:167] Top shape: 5 576 23 30 (1987200)
I0407 06:51:17.220078  1652 net.cpp:175] Memory required for data: 1930118464
I0407 06:51:17.220082  1652 layer_factory.hpp:93] Creating layer conv5_2/dwise/bn_fixed
I0407 06:51:17.220088  1652 net.cpp:110] Creating Layer conv5_2/dwise/bn_fixed
I0407 06:51:17.220091  1652 net.cpp:451] conv5_2/dwise/bn_fixed <- conv5_2/dwise/bn
I0407 06:51:17.220095  1652 net.cpp:412] conv5_2/dwise/bn_fixed -> conv5_2/dwise/bn (in-place)
I0407 06:51:17.220144  1652 net.cpp:160] Setting up conv5_2/dwise/bn_fixed
I0407 06:51:17.220150  1652 net.cpp:167] Top shape: 5 576 23 30 (1987200)
I0407 06:51:17.220155  1652 net.cpp:175] Memory required for data: 1938067264
I0407 06:51:17.220160  1652 layer_factory.hpp:93] Creating layer conv5_2/linear
I0407 06:51:17.220168  1652 net.cpp:110] Creating Layer conv5_2/linear
I0407 06:51:17.220171  1652 net.cpp:451] conv5_2/linear <- conv5_2/dwise/bn
I0407 06:51:17.220183  1652 net.cpp:425] conv5_2/linear -> conv5_2/linear/bn
I0407 06:51:17.220932  1652 layer_factory.hpp:93] Creating layer conv5_2/linear
I0407 06:51:17.221916  1652 net.cpp:160] Setting up conv5_2/linear
I0407 06:51:17.221925  1652 net.cpp:167] Top shape: 5 96 23 30 (331200)
I0407 06:51:17.221930  1652 net.cpp:175] Memory required for data: 1939392064
I0407 06:51:17.221935  1652 layer_factory.hpp:93] Creating layer conv5_2/linear/bn_fixed
I0407 06:51:17.221941  1652 net.cpp:110] Creating Layer conv5_2/linear/bn_fixed
I0407 06:51:17.221946  1652 net.cpp:451] conv5_2/linear/bn_fixed <- conv5_2/linear/bn
I0407 06:51:17.221949  1652 net.cpp:412] conv5_2/linear/bn_fixed -> conv5_2/linear/bn (in-place)
I0407 06:51:17.222002  1652 net.cpp:160] Setting up conv5_2/linear/bn_fixed
I0407 06:51:17.222008  1652 net.cpp:167] Top shape: 5 96 23 30 (331200)
I0407 06:51:17.222012  1652 net.cpp:175] Memory required for data: 1940716864
I0407 06:51:17.222018  1652 layer_factory.hpp:93] Creating layer block_5_2
I0407 06:51:17.222023  1652 net.cpp:110] Creating Layer block_5_2
I0407 06:51:17.222026  1652 net.cpp:451] block_5_2 <- block_5_1_block_5_1_fixed_0_split_1
I0407 06:51:17.222030  1652 net.cpp:451] block_5_2 <- conv5_2/linear/bn
I0407 06:51:17.222034  1652 net.cpp:425] block_5_2 -> block_5_2
I0407 06:51:17.222064  1652 net.cpp:160] Setting up block_5_2
I0407 06:51:17.222069  1652 net.cpp:167] Top shape: 5 96 23 30 (331200)
I0407 06:51:17.222074  1652 net.cpp:175] Memory required for data: 1942041664
I0407 06:51:17.222077  1652 layer_factory.hpp:93] Creating layer block_5_2_fixed
I0407 06:51:17.222082  1652 net.cpp:110] Creating Layer block_5_2_fixed
I0407 06:51:17.222085  1652 net.cpp:451] block_5_2_fixed <- block_5_2
I0407 06:51:17.222090  1652 net.cpp:412] block_5_2_fixed -> block_5_2 (in-place)
I0407 06:51:17.222137  1652 net.cpp:160] Setting up block_5_2_fixed
I0407 06:51:17.222142  1652 net.cpp:167] Top shape: 5 96 23 30 (331200)
I0407 06:51:17.222147  1652 net.cpp:175] Memory required for data: 1943366464
I0407 06:51:17.222159  1652 layer_factory.hpp:93] Creating layer conv5_3/expand
I0407 06:51:17.222168  1652 net.cpp:110] Creating Layer conv5_3/expand
I0407 06:51:17.222172  1652 net.cpp:451] conv5_3/expand <- block_5_2
I0407 06:51:17.222177  1652 net.cpp:425] conv5_3/expand -> conv5_3/expand/bn
I0407 06:51:17.222916  1652 layer_factory.hpp:93] Creating layer conv5_3/expand
I0407 06:51:17.224678  1652 net.cpp:160] Setting up conv5_3/expand
I0407 06:51:17.224689  1652 net.cpp:167] Top shape: 5 576 23 30 (1987200)
I0407 06:51:17.224695  1652 net.cpp:175] Memory required for data: 1951315264
I0407 06:51:17.224702  1652 layer_factory.hpp:93] Creating layer relu5_3/expand
I0407 06:51:17.224710  1652 net.cpp:110] Creating Layer relu5_3/expand
I0407 06:51:17.224715  1652 net.cpp:451] relu5_3/expand <- conv5_3/expand/bn
I0407 06:51:17.224720  1652 net.cpp:412] relu5_3/expand -> conv5_3/expand/bn (in-place)
I0407 06:51:17.224726  1652 net.cpp:160] Setting up relu5_3/expand
I0407 06:51:17.224730  1652 net.cpp:167] Top shape: 5 576 23 30 (1987200)
I0407 06:51:17.224733  1652 net.cpp:175] Memory required for data: 1959264064
I0407 06:51:17.224736  1652 layer_factory.hpp:93] Creating layer conv5_3/expand/bn_fixed
I0407 06:51:17.224741  1652 net.cpp:110] Creating Layer conv5_3/expand/bn_fixed
I0407 06:51:17.224745  1652 net.cpp:451] conv5_3/expand/bn_fixed <- conv5_3/expand/bn
I0407 06:51:17.224750  1652 net.cpp:412] conv5_3/expand/bn_fixed -> conv5_3/expand/bn (in-place)
I0407 06:51:17.224799  1652 net.cpp:160] Setting up conv5_3/expand/bn_fixed
I0407 06:51:17.224804  1652 net.cpp:167] Top shape: 5 576 23 30 (1987200)
I0407 06:51:17.224809  1652 net.cpp:175] Memory required for data: 1967212864
I0407 06:51:17.224813  1652 layer_factory.hpp:93] Creating layer conv5_3/expand/bn_conv5_3/expand/bn_fixed_0_split
I0407 06:51:17.224819  1652 net.cpp:110] Creating Layer conv5_3/expand/bn_conv5_3/expand/bn_fixed_0_split
I0407 06:51:17.224822  1652 net.cpp:451] conv5_3/expand/bn_conv5_3/expand/bn_fixed_0_split <- conv5_3/expand/bn
I0407 06:51:17.224828  1652 net.cpp:425] conv5_3/expand/bn_conv5_3/expand/bn_fixed_0_split -> conv5_3/expand/bn_conv5_3/expand/bn_fixed_0_split_0
I0407 06:51:17.224833  1652 net.cpp:425] conv5_3/expand/bn_conv5_3/expand/bn_fixed_0_split -> conv5_3/expand/bn_conv5_3/expand/bn_fixed_0_split_1
I0407 06:51:17.224839  1652 net.cpp:425] conv5_3/expand/bn_conv5_3/expand/bn_fixed_0_split -> conv5_3/expand/bn_conv5_3/expand/bn_fixed_0_split_2
I0407 06:51:17.224845  1652 net.cpp:425] conv5_3/expand/bn_conv5_3/expand/bn_fixed_0_split -> conv5_3/expand/bn_conv5_3/expand/bn_fixed_0_split_3
I0407 06:51:17.224927  1652 net.cpp:160] Setting up conv5_3/expand/bn_conv5_3/expand/bn_fixed_0_split
I0407 06:51:17.224932  1652 net.cpp:167] Top shape: 5 576 23 30 (1987200)
I0407 06:51:17.224937  1652 net.cpp:167] Top shape: 5 576 23 30 (1987200)
I0407 06:51:17.224941  1652 net.cpp:167] Top shape: 5 576 23 30 (1987200)
I0407 06:51:17.224946  1652 net.cpp:167] Top shape: 5 576 23 30 (1987200)
I0407 06:51:17.224949  1652 net.cpp:175] Memory required for data: 1999008064
I0407 06:51:17.224952  1652 layer_factory.hpp:93] Creating layer conv5_3/dwise
I0407 06:51:17.224961  1652 net.cpp:110] Creating Layer conv5_3/dwise
I0407 06:51:17.224964  1652 net.cpp:451] conv5_3/dwise <- conv5_3/expand/bn_conv5_3/expand/bn_fixed_0_split_0
I0407 06:51:17.224969  1652 net.cpp:425] conv5_3/dwise -> conv5_3/dwise/bn
I0407 06:51:17.225296  1652 layer_factory.hpp:93] Creating layer conv5_3/dwise
I0407 06:51:17.225832  1652 net.cpp:160] Setting up conv5_3/dwise
I0407 06:51:17.225839  1652 net.cpp:167] Top shape: 5 576 12 15 (518400)
I0407 06:51:17.225844  1652 net.cpp:175] Memory required for data: 2001081664
I0407 06:51:17.225850  1652 layer_factory.hpp:93] Creating layer relu5_3/dwise
I0407 06:51:17.225857  1652 net.cpp:110] Creating Layer relu5_3/dwise
I0407 06:51:17.225860  1652 net.cpp:451] relu5_3/dwise <- conv5_3/dwise/bn
I0407 06:51:17.225865  1652 net.cpp:412] relu5_3/dwise -> conv5_3/dwise/bn (in-place)
I0407 06:51:17.225872  1652 net.cpp:160] Setting up relu5_3/dwise
I0407 06:51:17.225874  1652 net.cpp:167] Top shape: 5 576 12 15 (518400)
I0407 06:51:17.225878  1652 net.cpp:175] Memory required for data: 2003155264
I0407 06:51:17.225881  1652 layer_factory.hpp:93] Creating layer conv5_3/dwise/bn_fixed
I0407 06:51:17.225886  1652 net.cpp:110] Creating Layer conv5_3/dwise/bn_fixed
I0407 06:51:17.225889  1652 net.cpp:451] conv5_3/dwise/bn_fixed <- conv5_3/dwise/bn
I0407 06:51:17.225893  1652 net.cpp:412] conv5_3/dwise/bn_fixed -> conv5_3/dwise/bn (in-place)
I0407 06:51:17.225944  1652 net.cpp:160] Setting up conv5_3/dwise/bn_fixed
I0407 06:51:17.225950  1652 net.cpp:167] Top shape: 5 576 12 15 (518400)
I0407 06:51:17.225953  1652 net.cpp:175] Memory required for data: 2005228864
I0407 06:51:17.225958  1652 layer_factory.hpp:93] Creating layer conv5_3/linear
I0407 06:51:17.225965  1652 net.cpp:110] Creating Layer conv5_3/linear
I0407 06:51:17.225968  1652 net.cpp:451] conv5_3/linear <- conv5_3/dwise/bn
I0407 06:51:17.225975  1652 net.cpp:425] conv5_3/linear -> conv5_3/linear/bn
I0407 06:51:17.227026  1652 layer_factory.hpp:93] Creating layer conv5_3/linear
I0407 06:51:17.228323  1652 net.cpp:160] Setting up conv5_3/linear
I0407 06:51:17.228332  1652 net.cpp:167] Top shape: 5 160 12 15 (144000)
I0407 06:51:17.228338  1652 net.cpp:175] Memory required for data: 2005804864
I0407 06:51:17.228343  1652 layer_factory.hpp:93] Creating layer conv5_3/linear/bn_fixed
I0407 06:51:17.228350  1652 net.cpp:110] Creating Layer conv5_3/linear/bn_fixed
I0407 06:51:17.228354  1652 net.cpp:451] conv5_3/linear/bn_fixed <- conv5_3/linear/bn
I0407 06:51:17.228359  1652 net.cpp:412] conv5_3/linear/bn_fixed -> conv5_3/linear/bn (in-place)
I0407 06:51:17.228410  1652 net.cpp:160] Setting up conv5_3/linear/bn_fixed
I0407 06:51:17.228415  1652 net.cpp:167] Top shape: 5 160 12 15 (144000)
I0407 06:51:17.228420  1652 net.cpp:175] Memory required for data: 2006380864
I0407 06:51:17.228425  1652 layer_factory.hpp:93] Creating layer conv5_3/linear/bn_conv5_3/linear/bn_fixed_0_split
I0407 06:51:17.228430  1652 net.cpp:110] Creating Layer conv5_3/linear/bn_conv5_3/linear/bn_fixed_0_split
I0407 06:51:17.228435  1652 net.cpp:451] conv5_3/linear/bn_conv5_3/linear/bn_fixed_0_split <- conv5_3/linear/bn
I0407 06:51:17.228440  1652 net.cpp:425] conv5_3/linear/bn_conv5_3/linear/bn_fixed_0_split -> conv5_3/linear/bn_conv5_3/linear/bn_fixed_0_split_0
I0407 06:51:17.228444  1652 net.cpp:425] conv5_3/linear/bn_conv5_3/linear/bn_fixed_0_split -> conv5_3/linear/bn_conv5_3/linear/bn_fixed_0_split_1
I0407 06:51:17.228492  1652 net.cpp:160] Setting up conv5_3/linear/bn_conv5_3/linear/bn_fixed_0_split
I0407 06:51:17.228497  1652 net.cpp:167] Top shape: 5 160 12 15 (144000)
I0407 06:51:17.228502  1652 net.cpp:167] Top shape: 5 160 12 15 (144000)
I0407 06:51:17.228507  1652 net.cpp:175] Memory required for data: 2007532864
I0407 06:51:17.228509  1652 layer_factory.hpp:93] Creating layer conv6_1/expand
I0407 06:51:17.228518  1652 net.cpp:110] Creating Layer conv6_1/expand
I0407 06:51:17.228521  1652 net.cpp:451] conv6_1/expand <- conv5_3/linear/bn_conv5_3/linear/bn_fixed_0_split_0
I0407 06:51:17.228526  1652 net.cpp:425] conv6_1/expand -> conv6_1/expand/bn
I0407 06:51:17.230866  1652 layer_factory.hpp:93] Creating layer conv6_1/expand
I0407 06:51:17.233510  1652 net.cpp:160] Setting up conv6_1/expand
I0407 06:51:17.233521  1652 net.cpp:167] Top shape: 5 960 12 15 (864000)
I0407 06:51:17.233527  1652 net.cpp:175] Memory required for data: 2010988864
I0407 06:51:17.233533  1652 layer_factory.hpp:93] Creating layer relu6_1/expand
I0407 06:51:17.233539  1652 net.cpp:110] Creating Layer relu6_1/expand
I0407 06:51:17.233543  1652 net.cpp:451] relu6_1/expand <- conv6_1/expand/bn
I0407 06:51:17.233548  1652 net.cpp:412] relu6_1/expand -> conv6_1/expand/bn (in-place)
I0407 06:51:17.233556  1652 net.cpp:160] Setting up relu6_1/expand
I0407 06:51:17.233558  1652 net.cpp:167] Top shape: 5 960 12 15 (864000)
I0407 06:51:17.233562  1652 net.cpp:175] Memory required for data: 2014444864
I0407 06:51:17.233566  1652 layer_factory.hpp:93] Creating layer conv6_1/expand/bn_fixed
I0407 06:51:17.233572  1652 net.cpp:110] Creating Layer conv6_1/expand/bn_fixed
I0407 06:51:17.233575  1652 net.cpp:451] conv6_1/expand/bn_fixed <- conv6_1/expand/bn
I0407 06:51:17.233580  1652 net.cpp:412] conv6_1/expand/bn_fixed -> conv6_1/expand/bn (in-place)
I0407 06:51:17.233639  1652 net.cpp:160] Setting up conv6_1/expand/bn_fixed
I0407 06:51:17.233645  1652 net.cpp:167] Top shape: 5 960 12 15 (864000)
I0407 06:51:17.233650  1652 net.cpp:175] Memory required for data: 2017900864
I0407 06:51:17.233654  1652 layer_factory.hpp:93] Creating layer conv6_1/dwise
I0407 06:51:17.233664  1652 net.cpp:110] Creating Layer conv6_1/dwise
I0407 06:51:17.233667  1652 net.cpp:451] conv6_1/dwise <- conv6_1/expand/bn
I0407 06:51:17.233671  1652 net.cpp:425] conv6_1/dwise -> conv6_1/dwise/bn
I0407 06:51:17.234026  1652 layer_factory.hpp:93] Creating layer conv6_1/dwise
I0407 06:51:17.234606  1652 net.cpp:160] Setting up conv6_1/dwise
I0407 06:51:17.234613  1652 net.cpp:167] Top shape: 5 960 12 15 (864000)
I0407 06:51:17.234618  1652 net.cpp:175] Memory required for data: 2021356864
I0407 06:51:17.234624  1652 layer_factory.hpp:93] Creating layer relu6_1/dwise
I0407 06:51:17.234629  1652 net.cpp:110] Creating Layer relu6_1/dwise
I0407 06:51:17.234632  1652 net.cpp:451] relu6_1/dwise <- conv6_1/dwise/bn
I0407 06:51:17.234638  1652 net.cpp:412] relu6_1/dwise -> conv6_1/dwise/bn (in-place)
I0407 06:51:17.234644  1652 net.cpp:160] Setting up relu6_1/dwise
I0407 06:51:17.234647  1652 net.cpp:167] Top shape: 5 960 12 15 (864000)
I0407 06:51:17.234652  1652 net.cpp:175] Memory required for data: 2024812864
I0407 06:51:17.234654  1652 layer_factory.hpp:93] Creating layer conv6_1/dwise/bn_fixed
I0407 06:51:17.234659  1652 net.cpp:110] Creating Layer conv6_1/dwise/bn_fixed
I0407 06:51:17.234663  1652 net.cpp:451] conv6_1/dwise/bn_fixed <- conv6_1/dwise/bn
I0407 06:51:17.234666  1652 net.cpp:412] conv6_1/dwise/bn_fixed -> conv6_1/dwise/bn (in-place)
I0407 06:51:17.234716  1652 net.cpp:160] Setting up conv6_1/dwise/bn_fixed
I0407 06:51:17.234722  1652 net.cpp:167] Top shape: 5 960 12 15 (864000)
I0407 06:51:17.234726  1652 net.cpp:175] Memory required for data: 2028268864
I0407 06:51:17.234731  1652 layer_factory.hpp:93] Creating layer conv6_1/linear
I0407 06:51:17.234738  1652 net.cpp:110] Creating Layer conv6_1/linear
I0407 06:51:17.234741  1652 net.cpp:451] conv6_1/linear <- conv6_1/dwise/bn
I0407 06:51:17.234746  1652 net.cpp:425] conv6_1/linear -> conv6_1/linear/bn
I0407 06:51:17.236348  1652 layer_factory.hpp:93] Creating layer conv6_1/linear
I0407 06:51:17.238915  1652 net.cpp:160] Setting up conv6_1/linear
I0407 06:51:17.238925  1652 net.cpp:167] Top shape: 5 160 12 15 (144000)
I0407 06:51:17.238932  1652 net.cpp:175] Memory required for data: 2028844864
I0407 06:51:17.238939  1652 layer_factory.hpp:93] Creating layer conv6_1/linear/bn_fixed
I0407 06:51:17.238945  1652 net.cpp:110] Creating Layer conv6_1/linear/bn_fixed
I0407 06:51:17.238948  1652 net.cpp:451] conv6_1/linear/bn_fixed <- conv6_1/linear/bn
I0407 06:51:17.238957  1652 net.cpp:412] conv6_1/linear/bn_fixed -> conv6_1/linear/bn (in-place)
I0407 06:51:17.239007  1652 net.cpp:160] Setting up conv6_1/linear/bn_fixed
I0407 06:51:17.239013  1652 net.cpp:167] Top shape: 5 160 12 15 (144000)
I0407 06:51:17.239018  1652 net.cpp:175] Memory required for data: 2029420864
I0407 06:51:17.239022  1652 layer_factory.hpp:93] Creating layer block_6_1
I0407 06:51:17.239028  1652 net.cpp:110] Creating Layer block_6_1
I0407 06:51:17.239032  1652 net.cpp:451] block_6_1 <- conv5_3/linear/bn_conv5_3/linear/bn_fixed_0_split_1
I0407 06:51:17.239037  1652 net.cpp:451] block_6_1 <- conv6_1/linear/bn
I0407 06:51:17.239042  1652 net.cpp:425] block_6_1 -> block_6_1
I0407 06:51:17.239070  1652 net.cpp:160] Setting up block_6_1
I0407 06:51:17.239076  1652 net.cpp:167] Top shape: 5 160 12 15 (144000)
I0407 06:51:17.239080  1652 net.cpp:175] Memory required for data: 2029996864
I0407 06:51:17.239084  1652 layer_factory.hpp:93] Creating layer block_6_1_fixed
I0407 06:51:17.239090  1652 net.cpp:110] Creating Layer block_6_1_fixed
I0407 06:51:17.239094  1652 net.cpp:451] block_6_1_fixed <- block_6_1
I0407 06:51:17.239099  1652 net.cpp:412] block_6_1_fixed -> block_6_1 (in-place)
I0407 06:51:17.239145  1652 net.cpp:160] Setting up block_6_1_fixed
I0407 06:51:17.239151  1652 net.cpp:167] Top shape: 5 160 12 15 (144000)
I0407 06:51:17.239156  1652 net.cpp:175] Memory required for data: 2030572864
I0407 06:51:17.239161  1652 layer_factory.hpp:93] Creating layer block_6_1_block_6_1_fixed_0_split
I0407 06:51:17.239166  1652 net.cpp:110] Creating Layer block_6_1_block_6_1_fixed_0_split
I0407 06:51:17.239168  1652 net.cpp:451] block_6_1_block_6_1_fixed_0_split <- block_6_1
I0407 06:51:17.239176  1652 net.cpp:425] block_6_1_block_6_1_fixed_0_split -> block_6_1_block_6_1_fixed_0_split_0
I0407 06:51:17.239192  1652 net.cpp:425] block_6_1_block_6_1_fixed_0_split -> block_6_1_block_6_1_fixed_0_split_1
I0407 06:51:17.239238  1652 net.cpp:160] Setting up block_6_1_block_6_1_fixed_0_split
I0407 06:51:17.239244  1652 net.cpp:167] Top shape: 5 160 12 15 (144000)
I0407 06:51:17.239249  1652 net.cpp:167] Top shape: 5 160 12 15 (144000)
I0407 06:51:17.239253  1652 net.cpp:175] Memory required for data: 2031724864
I0407 06:51:17.239256  1652 layer_factory.hpp:93] Creating layer conv6_2/expand
I0407 06:51:17.239265  1652 net.cpp:110] Creating Layer conv6_2/expand
I0407 06:51:17.239269  1652 net.cpp:451] conv6_2/expand <- block_6_1_block_6_1_fixed_0_split_0
I0407 06:51:17.239274  1652 net.cpp:425] conv6_2/expand -> conv6_2/expand/bn
I0407 06:51:17.241593  1652 layer_factory.hpp:93] Creating layer conv6_2/expand
I0407 06:51:17.243403  1652 net.cpp:160] Setting up conv6_2/expand
I0407 06:51:17.243412  1652 net.cpp:167] Top shape: 5 960 12 15 (864000)
I0407 06:51:17.243418  1652 net.cpp:175] Memory required for data: 2035180864
I0407 06:51:17.243425  1652 layer_factory.hpp:93] Creating layer relu6_2/expand
I0407 06:51:17.243430  1652 net.cpp:110] Creating Layer relu6_2/expand
I0407 06:51:17.243434  1652 net.cpp:451] relu6_2/expand <- conv6_2/expand/bn
I0407 06:51:17.243438  1652 net.cpp:412] relu6_2/expand -> conv6_2/expand/bn (in-place)
I0407 06:51:17.243445  1652 net.cpp:160] Setting up relu6_2/expand
I0407 06:51:17.243448  1652 net.cpp:167] Top shape: 5 960 12 15 (864000)
I0407 06:51:17.243453  1652 net.cpp:175] Memory required for data: 2038636864
I0407 06:51:17.243466  1652 layer_factory.hpp:93] Creating layer conv6_2/expand/bn_fixed
I0407 06:51:17.243474  1652 net.cpp:110] Creating Layer conv6_2/expand/bn_fixed
I0407 06:51:17.243476  1652 net.cpp:451] conv6_2/expand/bn_fixed <- conv6_2/expand/bn
I0407 06:51:17.243480  1652 net.cpp:412] conv6_2/expand/bn_fixed -> conv6_2/expand/bn (in-place)
I0407 06:51:17.243530  1652 net.cpp:160] Setting up conv6_2/expand/bn_fixed
I0407 06:51:17.243535  1652 net.cpp:167] Top shape: 5 960 12 15 (864000)
I0407 06:51:17.243539  1652 net.cpp:175] Memory required for data: 2042092864
I0407 06:51:17.243544  1652 layer_factory.hpp:93] Creating layer conv6_2/dwise
I0407 06:51:17.243553  1652 net.cpp:110] Creating Layer conv6_2/dwise
I0407 06:51:17.243556  1652 net.cpp:451] conv6_2/dwise <- conv6_2/expand/bn
I0407 06:51:17.243561  1652 net.cpp:425] conv6_2/dwise -> conv6_2/dwise/bn
I0407 06:51:17.243908  1652 layer_factory.hpp:93] Creating layer conv6_2/dwise
I0407 06:51:17.244467  1652 net.cpp:160] Setting up conv6_2/dwise
I0407 06:51:17.244475  1652 net.cpp:167] Top shape: 5 960 12 15 (864000)
I0407 06:51:17.244480  1652 net.cpp:175] Memory required for data: 2045548864
I0407 06:51:17.244487  1652 layer_factory.hpp:93] Creating layer relu6_2/dwise
I0407 06:51:17.244490  1652 net.cpp:110] Creating Layer relu6_2/dwise
I0407 06:51:17.244494  1652 net.cpp:451] relu6_2/dwise <- conv6_2/dwise/bn
I0407 06:51:17.244498  1652 net.cpp:412] relu6_2/dwise -> conv6_2/dwise/bn (in-place)
I0407 06:51:17.244504  1652 net.cpp:160] Setting up relu6_2/dwise
I0407 06:51:17.244508  1652 net.cpp:167] Top shape: 5 960 12 15 (864000)
I0407 06:51:17.244511  1652 net.cpp:175] Memory required for data: 2049004864
I0407 06:51:17.244514  1652 layer_factory.hpp:93] Creating layer conv6_2/dwise/bn_fixed
I0407 06:51:17.244521  1652 net.cpp:110] Creating Layer conv6_2/dwise/bn_fixed
I0407 06:51:17.244524  1652 net.cpp:451] conv6_2/dwise/bn_fixed <- conv6_2/dwise/bn
I0407 06:51:17.244529  1652 net.cpp:412] conv6_2/dwise/bn_fixed -> conv6_2/dwise/bn (in-place)
I0407 06:51:17.244582  1652 net.cpp:160] Setting up conv6_2/dwise/bn_fixed
I0407 06:51:17.244588  1652 net.cpp:167] Top shape: 5 960 12 15 (864000)
I0407 06:51:17.244593  1652 net.cpp:175] Memory required for data: 2052460864
I0407 06:51:17.244598  1652 layer_factory.hpp:93] Creating layer conv6_2/linear
I0407 06:51:17.244606  1652 net.cpp:110] Creating Layer conv6_2/linear
I0407 06:51:17.244611  1652 net.cpp:451] conv6_2/linear <- conv6_2/dwise/bn
I0407 06:51:17.244614  1652 net.cpp:425] conv6_2/linear -> conv6_2/linear/bn
I0407 06:51:17.246945  1652 layer_factory.hpp:93] Creating layer conv6_2/linear
I0407 06:51:17.249513  1652 net.cpp:160] Setting up conv6_2/linear
I0407 06:51:17.249524  1652 net.cpp:167] Top shape: 5 160 12 15 (144000)
I0407 06:51:17.249531  1652 net.cpp:175] Memory required for data: 2053036864
I0407 06:51:17.249537  1652 layer_factory.hpp:93] Creating layer conv6_2/linear/bn_fixed
I0407 06:51:17.249543  1652 net.cpp:110] Creating Layer conv6_2/linear/bn_fixed
I0407 06:51:17.249547  1652 net.cpp:451] conv6_2/linear/bn_fixed <- conv6_2/linear/bn
I0407 06:51:17.249552  1652 net.cpp:412] conv6_2/linear/bn_fixed -> conv6_2/linear/bn (in-place)
I0407 06:51:17.249606  1652 net.cpp:160] Setting up conv6_2/linear/bn_fixed
I0407 06:51:17.249611  1652 net.cpp:167] Top shape: 5 160 12 15 (144000)
I0407 06:51:17.249616  1652 net.cpp:175] Memory required for data: 2053612864
I0407 06:51:17.249621  1652 layer_factory.hpp:93] Creating layer block_6_2
I0407 06:51:17.249626  1652 net.cpp:110] Creating Layer block_6_2
I0407 06:51:17.249630  1652 net.cpp:451] block_6_2 <- block_6_1_block_6_1_fixed_0_split_1
I0407 06:51:17.249634  1652 net.cpp:451] block_6_2 <- conv6_2/linear/bn
I0407 06:51:17.249639  1652 net.cpp:425] block_6_2 -> block_6_2
I0407 06:51:17.249668  1652 net.cpp:160] Setting up block_6_2
I0407 06:51:17.249673  1652 net.cpp:167] Top shape: 5 160 12 15 (144000)
I0407 06:51:17.249678  1652 net.cpp:175] Memory required for data: 2054188864
I0407 06:51:17.249693  1652 layer_factory.hpp:93] Creating layer block_6_2_fixed
I0407 06:51:17.249698  1652 net.cpp:110] Creating Layer block_6_2_fixed
I0407 06:51:17.249702  1652 net.cpp:451] block_6_2_fixed <- block_6_2
I0407 06:51:17.249706  1652 net.cpp:412] block_6_2_fixed -> block_6_2 (in-place)
I0407 06:51:17.249756  1652 net.cpp:160] Setting up block_6_2_fixed
I0407 06:51:17.249763  1652 net.cpp:167] Top shape: 5 160 12 15 (144000)
I0407 06:51:17.249768  1652 net.cpp:175] Memory required for data: 2054764864
I0407 06:51:17.249771  1652 layer_factory.hpp:93] Creating layer conv6_3/expand
I0407 06:51:17.249779  1652 net.cpp:110] Creating Layer conv6_3/expand
I0407 06:51:17.249783  1652 net.cpp:451] conv6_3/expand <- block_6_2
I0407 06:51:17.249788  1652 net.cpp:425] conv6_3/expand -> conv6_3/expand/bn
I0407 06:51:17.251371  1652 layer_factory.hpp:93] Creating layer conv6_3/expand
I0407 06:51:17.253944  1652 net.cpp:160] Setting up conv6_3/expand
I0407 06:51:17.253955  1652 net.cpp:167] Top shape: 5 960 12 15 (864000)
I0407 06:51:17.253962  1652 net.cpp:175] Memory required for data: 2058220864
I0407 06:51:17.253968  1652 layer_factory.hpp:93] Creating layer relu6_3/expand
I0407 06:51:17.253973  1652 net.cpp:110] Creating Layer relu6_3/expand
I0407 06:51:17.253978  1652 net.cpp:451] relu6_3/expand <- conv6_3/expand/bn
I0407 06:51:17.253983  1652 net.cpp:412] relu6_3/expand -> conv6_3/expand/bn (in-place)
I0407 06:51:17.253988  1652 net.cpp:160] Setting up relu6_3/expand
I0407 06:51:17.253991  1652 net.cpp:167] Top shape: 5 960 12 15 (864000)
I0407 06:51:17.253995  1652 net.cpp:175] Memory required for data: 2061676864
I0407 06:51:17.253998  1652 layer_factory.hpp:93] Creating layer conv6_3/expand/bn_fixed
I0407 06:51:17.254004  1652 net.cpp:110] Creating Layer conv6_3/expand/bn_fixed
I0407 06:51:17.254007  1652 net.cpp:451] conv6_3/expand/bn_fixed <- conv6_3/expand/bn
I0407 06:51:17.254011  1652 net.cpp:412] conv6_3/expand/bn_fixed -> conv6_3/expand/bn (in-place)
I0407 06:51:17.254063  1652 net.cpp:160] Setting up conv6_3/expand/bn_fixed
I0407 06:51:17.254070  1652 net.cpp:167] Top shape: 5 960 12 15 (864000)
I0407 06:51:17.254073  1652 net.cpp:175] Memory required for data: 2065132864
I0407 06:51:17.254078  1652 layer_factory.hpp:93] Creating layer conv6_3/dwise
I0407 06:51:17.254087  1652 net.cpp:110] Creating Layer conv6_3/dwise
I0407 06:51:17.254091  1652 net.cpp:451] conv6_3/dwise <- conv6_3/expand/bn
I0407 06:51:17.254096  1652 net.cpp:425] conv6_3/dwise -> conv6_3/dwise/bn
I0407 06:51:17.254463  1652 layer_factory.hpp:93] Creating layer conv6_3/dwise
I0407 06:51:17.255035  1652 net.cpp:160] Setting up conv6_3/dwise
I0407 06:51:17.255043  1652 net.cpp:167] Top shape: 5 960 12 15 (864000)
I0407 06:51:17.255048  1652 net.cpp:175] Memory required for data: 2068588864
I0407 06:51:17.255053  1652 layer_factory.hpp:93] Creating layer relu6_3/dwise
I0407 06:51:17.255059  1652 net.cpp:110] Creating Layer relu6_3/dwise
I0407 06:51:17.255061  1652 net.cpp:451] relu6_3/dwise <- conv6_3/dwise/bn
I0407 06:51:17.255066  1652 net.cpp:412] relu6_3/dwise -> conv6_3/dwise/bn (in-place)
I0407 06:51:17.255071  1652 net.cpp:160] Setting up relu6_3/dwise
I0407 06:51:17.255074  1652 net.cpp:167] Top shape: 5 960 12 15 (864000)
I0407 06:51:17.255079  1652 net.cpp:175] Memory required for data: 2072044864
I0407 06:51:17.255082  1652 layer_factory.hpp:93] Creating layer conv6_3/dwise/bn_fixed
I0407 06:51:17.255086  1652 net.cpp:110] Creating Layer conv6_3/dwise/bn_fixed
I0407 06:51:17.255090  1652 net.cpp:451] conv6_3/dwise/bn_fixed <- conv6_3/dwise/bn
I0407 06:51:17.255095  1652 net.cpp:412] conv6_3/dwise/bn_fixed -> conv6_3/dwise/bn (in-place)
I0407 06:51:17.255143  1652 net.cpp:160] Setting up conv6_3/dwise/bn_fixed
I0407 06:51:17.255149  1652 net.cpp:167] Top shape: 5 960 12 15 (864000)
I0407 06:51:17.255154  1652 net.cpp:175] Memory required for data: 2075500864
I0407 06:51:17.255158  1652 layer_factory.hpp:93] Creating layer conv6_3/linear
I0407 06:51:17.255167  1652 net.cpp:110] Creating Layer conv6_3/linear
I0407 06:51:17.255170  1652 net.cpp:451] conv6_3/linear <- conv6_3/dwise/bn
I0407 06:51:17.255175  1652 net.cpp:425] conv6_3/linear -> conv6_3/linear/bn
I0407 06:51:17.259527  1652 layer_factory.hpp:93] Creating layer conv6_3/linear
I0407 06:51:17.264106  1652 net.cpp:160] Setting up conv6_3/linear
I0407 06:51:17.264117  1652 net.cpp:167] Top shape: 5 320 12 15 (288000)
I0407 06:51:17.264124  1652 net.cpp:175] Memory required for data: 2076652864
I0407 06:51:17.264130  1652 layer_factory.hpp:93] Creating layer conv6_3/linear/bn_fixed
I0407 06:51:17.264137  1652 net.cpp:110] Creating Layer conv6_3/linear/bn_fixed
I0407 06:51:17.264142  1652 net.cpp:451] conv6_3/linear/bn_fixed <- conv6_3/linear/bn
I0407 06:51:17.264147  1652 net.cpp:412] conv6_3/linear/bn_fixed -> conv6_3/linear/bn (in-place)
I0407 06:51:17.264204  1652 net.cpp:160] Setting up conv6_3/linear/bn_fixed
I0407 06:51:17.264210  1652 net.cpp:167] Top shape: 5 320 12 15 (288000)
I0407 06:51:17.264215  1652 net.cpp:175] Memory required for data: 2077804864
I0407 06:51:17.264220  1652 layer_factory.hpp:93] Creating layer conv6_4
I0407 06:51:17.264232  1652 net.cpp:110] Creating Layer conv6_4
I0407 06:51:17.264236  1652 net.cpp:451] conv6_4 <- conv6_3/linear/bn
I0407 06:51:17.264241  1652 net.cpp:425] conv6_4 -> conv6_4/bn
I0407 06:51:17.269448  1652 layer_factory.hpp:93] Creating layer conv6_4
I0407 06:51:17.274931  1652 net.cpp:160] Setting up conv6_4
I0407 06:51:17.274945  1652 net.cpp:167] Top shape: 5 1280 12 15 (1152000)
I0407 06:51:17.274951  1652 net.cpp:175] Memory required for data: 2082412864
I0407 06:51:17.274958  1652 layer_factory.hpp:93] Creating layer relu7
I0407 06:51:17.274964  1652 net.cpp:110] Creating Layer relu7
I0407 06:51:17.274969  1652 net.cpp:451] relu7 <- conv6_4/bn
I0407 06:51:17.274977  1652 net.cpp:425] relu7 -> fc7
I0407 06:51:17.275089  1652 net.cpp:160] Setting up relu7
I0407 06:51:17.275099  1652 net.cpp:167] Top shape: 5 1280 12 15 (1152000)
I0407 06:51:17.275107  1652 net.cpp:175] Memory required for data: 2087020864
I0407 06:51:17.275112  1652 layer_factory.hpp:93] Creating layer fc7_fixed
I0407 06:51:17.275188  1652 net.cpp:110] Creating Layer fc7_fixed
I0407 06:51:17.275221  1652 net.cpp:451] fc7_fixed <- fc7
I0407 06:51:17.275259  1652 net.cpp:412] fc7_fixed -> fc7 (in-place)
I0407 06:51:17.275367  1652 net.cpp:160] Setting up fc7_fixed
I0407 06:51:17.275403  1652 net.cpp:167] Top shape: 5 1280 12 15 (1152000)
I0407 06:51:17.275444  1652 net.cpp:175] Memory required for data: 2091628864
I0407 06:51:17.275475  1652 layer_factory.hpp:93] Creating layer fc7_fc7_fixed_0_split
I0407 06:51:17.275511  1652 net.cpp:110] Creating Layer fc7_fc7_fixed_0_split
I0407 06:51:17.275547  1652 net.cpp:451] fc7_fc7_fixed_0_split <- fc7
I0407 06:51:17.275584  1652 net.cpp:425] fc7_fc7_fixed_0_split -> fc7_fc7_fixed_0_split_0
I0407 06:51:17.275621  1652 net.cpp:425] fc7_fc7_fixed_0_split -> fc7_fc7_fixed_0_split_1
I0407 06:51:17.275657  1652 net.cpp:425] fc7_fc7_fixed_0_split -> fc7_fc7_fixed_0_split_2
I0407 06:51:17.275692  1652 net.cpp:425] fc7_fc7_fixed_0_split -> fc7_fc7_fixed_0_split_3
I0407 06:51:17.275826  1652 net.cpp:160] Setting up fc7_fc7_fixed_0_split
I0407 06:51:17.275861  1652 net.cpp:167] Top shape: 5 1280 12 15 (1152000)
I0407 06:51:17.275892  1652 net.cpp:167] Top shape: 5 1280 12 15 (1152000)
I0407 06:51:17.275923  1652 net.cpp:167] Top shape: 5 1280 12 15 (1152000)
I0407 06:51:17.275952  1652 net.cpp:167] Top shape: 5 1280 12 15 (1152000)
I0407 06:51:17.275980  1652 net.cpp:175] Memory required for data: 2110060864
I0407 06:51:17.276007  1652 layer_factory.hpp:93] Creating layer conv6_1
I0407 06:51:17.276062  1652 net.cpp:110] Creating Layer conv6_1
I0407 06:51:17.276175  1652 net.cpp:451] conv6_1 <- fc7_fc7_fixed_0_split_0
I0407 06:51:17.276316  1652 net.cpp:425] conv6_1 -> conv6_1
I0407 06:51:17.280759  1652 layer_factory.hpp:93] Creating layer conv6_1
I0407 06:51:17.284574  1652 net.cpp:160] Setting up conv6_1
I0407 06:51:17.284617  1652 net.cpp:167] Top shape: 5 256 12 15 (230400)
I0407 06:51:17.284651  1652 net.cpp:175] Memory required for data: 2110982464
I0407 06:51:17.284684  1652 layer_factory.hpp:93] Creating layer conv6_1_relu
I0407 06:51:17.284718  1652 net.cpp:110] Creating Layer conv6_1_relu
I0407 06:51:17.284747  1652 net.cpp:451] conv6_1_relu <- conv6_1
I0407 06:51:17.284785  1652 net.cpp:412] conv6_1_relu -> conv6_1 (in-place)
I0407 06:51:17.284819  1652 net.cpp:160] Setting up conv6_1_relu
I0407 06:51:17.284848  1652 net.cpp:167] Top shape: 5 256 12 15 (230400)
I0407 06:51:17.284878  1652 net.cpp:175] Memory required for data: 2111904064
I0407 06:51:17.284904  1652 layer_factory.hpp:93] Creating layer conv6_1_fixed
I0407 06:51:17.284943  1652 net.cpp:110] Creating Layer conv6_1_fixed
I0407 06:51:17.284973  1652 net.cpp:451] conv6_1_fixed <- conv6_1
I0407 06:51:17.285008  1652 net.cpp:412] conv6_1_fixed -> conv6_1 (in-place)
I0407 06:51:17.285112  1652 net.cpp:160] Setting up conv6_1_fixed
I0407 06:51:17.285146  1652 net.cpp:167] Top shape: 5 256 12 15 (230400)
I0407 06:51:17.285177  1652 net.cpp:175] Memory required for data: 2112825664
I0407 06:51:17.285209  1652 layer_factory.hpp:93] Creating layer conv6_2
I0407 06:51:17.285248  1652 net.cpp:110] Creating Layer conv6_2
I0407 06:51:17.285279  1652 net.cpp:451] conv6_2 <- conv6_1
I0407 06:51:17.285313  1652 net.cpp:425] conv6_2 -> conv6_2
I0407 06:51:17.288480  1683 blocking_queue.cpp:66] Waiting for data
I0407 06:51:17.294829  1652 layer_factory.hpp:93] Creating layer conv6_2
I0407 06:51:17.304503  1652 net.cpp:160] Setting up conv6_2
I0407 06:51:17.304517  1652 net.cpp:167] Top shape: 5 512 6 8 (122880)
I0407 06:51:17.304541  1652 net.cpp:175] Memory required for data: 2113317184
I0407 06:51:17.304551  1652 layer_factory.hpp:93] Creating layer conv6_2_relu
I0407 06:51:17.304574  1652 net.cpp:110] Creating Layer conv6_2_relu
I0407 06:51:17.304595  1652 net.cpp:451] conv6_2_relu <- conv6_2
I0407 06:51:17.304613  1652 net.cpp:412] conv6_2_relu -> conv6_2 (in-place)
I0407 06:51:17.304620  1652 net.cpp:160] Setting up conv6_2_relu
I0407 06:51:17.304623  1652 net.cpp:167] Top shape: 5 512 6 8 (122880)
I0407 06:51:17.304628  1652 net.cpp:175] Memory required for data: 2113808704
I0407 06:51:17.304631  1652 layer_factory.hpp:93] Creating layer conv6_2_fixed
I0407 06:51:17.304638  1652 net.cpp:110] Creating Layer conv6_2_fixed
I0407 06:51:17.304642  1652 net.cpp:451] conv6_2_fixed <- conv6_2
I0407 06:51:17.304646  1652 net.cpp:412] conv6_2_fixed -> conv6_2 (in-place)
I0407 06:51:17.304697  1652 net.cpp:160] Setting up conv6_2_fixed
I0407 06:51:17.304703  1652 net.cpp:167] Top shape: 5 512 6 8 (122880)
I0407 06:51:17.304708  1652 net.cpp:175] Memory required for data: 2114300224
I0407 06:51:17.304713  1652 layer_factory.hpp:93] Creating layer conv6_2_conv6_2_fixed_0_split
I0407 06:51:17.304720  1652 net.cpp:110] Creating Layer conv6_2_conv6_2_fixed_0_split
I0407 06:51:17.304723  1652 net.cpp:451] conv6_2_conv6_2_fixed_0_split <- conv6_2
I0407 06:51:17.304728  1652 net.cpp:425] conv6_2_conv6_2_fixed_0_split -> conv6_2_conv6_2_fixed_0_split_0
I0407 06:51:17.304735  1652 net.cpp:425] conv6_2_conv6_2_fixed_0_split -> conv6_2_conv6_2_fixed_0_split_1
I0407 06:51:17.304740  1652 net.cpp:425] conv6_2_conv6_2_fixed_0_split -> conv6_2_conv6_2_fixed_0_split_2
I0407 06:51:17.304745  1652 net.cpp:425] conv6_2_conv6_2_fixed_0_split -> conv6_2_conv6_2_fixed_0_split_3
I0407 06:51:17.304832  1652 net.cpp:160] Setting up conv6_2_conv6_2_fixed_0_split
I0407 06:51:17.304837  1652 net.cpp:167] Top shape: 5 512 6 8 (122880)
I0407 06:51:17.304842  1652 net.cpp:167] Top shape: 5 512 6 8 (122880)
I0407 06:51:17.304847  1652 net.cpp:167] Top shape: 5 512 6 8 (122880)
I0407 06:51:17.304850  1652 net.cpp:167] Top shape: 5 512 6 8 (122880)
I0407 06:51:17.304854  1652 net.cpp:175] Memory required for data: 2116266304
I0407 06:51:17.304857  1652 layer_factory.hpp:93] Creating layer conv7_1
I0407 06:51:17.304868  1652 net.cpp:110] Creating Layer conv7_1
I0407 06:51:17.304873  1652 net.cpp:451] conv7_1 <- conv6_2_conv6_2_fixed_0_split_0
I0407 06:51:17.304878  1652 net.cpp:425] conv7_1 -> conv7_1
I0407 06:51:17.305546  1652 layer_factory.hpp:93] Creating layer conv7_1
I0407 06:51:17.306396  1652 net.cpp:160] Setting up conv7_1
I0407 06:51:17.306406  1652 net.cpp:167] Top shape: 5 128 6 8 (30720)
I0407 06:51:17.306411  1652 net.cpp:175] Memory required for data: 2116389184
I0407 06:51:17.306416  1652 layer_factory.hpp:93] Creating layer conv7_1_relu
I0407 06:51:17.306422  1652 net.cpp:110] Creating Layer conv7_1_relu
I0407 06:51:17.306425  1652 net.cpp:451] conv7_1_relu <- conv7_1
I0407 06:51:17.306430  1652 net.cpp:412] conv7_1_relu -> conv7_1 (in-place)
I0407 06:51:17.306437  1652 net.cpp:160] Setting up conv7_1_relu
I0407 06:51:17.306439  1652 net.cpp:167] Top shape: 5 128 6 8 (30720)
I0407 06:51:17.306443  1652 net.cpp:175] Memory required for data: 2116512064
I0407 06:51:17.306447  1652 layer_factory.hpp:93] Creating layer conv7_1_fixed
I0407 06:51:17.306452  1652 net.cpp:110] Creating Layer conv7_1_fixed
I0407 06:51:17.306454  1652 net.cpp:451] conv7_1_fixed <- conv7_1
I0407 06:51:17.306461  1652 net.cpp:412] conv7_1_fixed -> conv7_1 (in-place)
I0407 06:51:17.306511  1652 net.cpp:160] Setting up conv7_1_fixed
I0407 06:51:17.306517  1652 net.cpp:167] Top shape: 5 128 6 8 (30720)
I0407 06:51:17.306521  1652 net.cpp:175] Memory required for data: 2116634944
I0407 06:51:17.306526  1652 layer_factory.hpp:93] Creating layer conv7_2
I0407 06:51:17.306535  1652 net.cpp:110] Creating Layer conv7_2
I0407 06:51:17.306538  1652 net.cpp:451] conv7_2 <- conv7_1
I0407 06:51:17.306543  1652 net.cpp:425] conv7_2 -> conv7_2
I0407 06:51:17.309873  1652 layer_factory.hpp:93] Creating layer conv7_2
I0407 06:51:17.313421  1652 net.cpp:160] Setting up conv7_2
I0407 06:51:17.313432  1652 net.cpp:167] Top shape: 5 256 3 4 (15360)
I0407 06:51:17.313439  1652 net.cpp:175] Memory required for data: 2116696384
I0407 06:51:17.313446  1652 layer_factory.hpp:93] Creating layer conv7_2_relu
I0407 06:51:17.313452  1652 net.cpp:110] Creating Layer conv7_2_relu
I0407 06:51:17.313455  1652 net.cpp:451] conv7_2_relu <- conv7_2
I0407 06:51:17.313460  1652 net.cpp:412] conv7_2_relu -> conv7_2 (in-place)
I0407 06:51:17.313467  1652 net.cpp:160] Setting up conv7_2_relu
I0407 06:51:17.313470  1652 net.cpp:167] Top shape: 5 256 3 4 (15360)
I0407 06:51:17.313474  1652 net.cpp:175] Memory required for data: 2116757824
I0407 06:51:17.313477  1652 layer_factory.hpp:93] Creating layer conv7_2_fixed
I0407 06:51:17.313484  1652 net.cpp:110] Creating Layer conv7_2_fixed
I0407 06:51:17.313488  1652 net.cpp:451] conv7_2_fixed <- conv7_2
I0407 06:51:17.313493  1652 net.cpp:412] conv7_2_fixed -> conv7_2 (in-place)
I0407 06:51:17.313542  1652 net.cpp:160] Setting up conv7_2_fixed
I0407 06:51:17.313549  1652 net.cpp:167] Top shape: 5 256 3 4 (15360)
I0407 06:51:17.313552  1652 net.cpp:175] Memory required for data: 2116819264
I0407 06:51:17.313557  1652 layer_factory.hpp:93] Creating layer conv7_2_conv7_2_fixed_0_split
I0407 06:51:17.313563  1652 net.cpp:110] Creating Layer conv7_2_conv7_2_fixed_0_split
I0407 06:51:17.313567  1652 net.cpp:451] conv7_2_conv7_2_fixed_0_split <- conv7_2
I0407 06:51:17.313571  1652 net.cpp:425] conv7_2_conv7_2_fixed_0_split -> conv7_2_conv7_2_fixed_0_split_0
I0407 06:51:17.313578  1652 net.cpp:425] conv7_2_conv7_2_fixed_0_split -> conv7_2_conv7_2_fixed_0_split_1
I0407 06:51:17.313585  1652 net.cpp:425] conv7_2_conv7_2_fixed_0_split -> conv7_2_conv7_2_fixed_0_split_2
I0407 06:51:17.313650  1652 net.cpp:160] Setting up conv7_2_conv7_2_fixed_0_split
I0407 06:51:17.313657  1652 net.cpp:167] Top shape: 5 256 3 4 (15360)
I0407 06:51:17.313661  1652 net.cpp:167] Top shape: 5 256 3 4 (15360)
I0407 06:51:17.313664  1652 net.cpp:167] Top shape: 5 256 3 4 (15360)
I0407 06:51:17.313668  1652 net.cpp:175] Memory required for data: 2117003584
I0407 06:51:17.313671  1652 layer_factory.hpp:93] Creating layer conv4_3_norm_mbox_loc
I0407 06:51:17.313681  1652 net.cpp:110] Creating Layer conv4_3_norm_mbox_loc
I0407 06:51:17.313688  1652 net.cpp:451] conv4_3_norm_mbox_loc <- conv4_7/expand/bn_conv4_7/expand/bn_fixed_0_split_1
I0407 06:51:17.313694  1652 net.cpp:425] conv4_3_norm_mbox_loc -> conv4_3_norm_mbox_loc
I0407 06:51:17.314610  1652 layer_factory.hpp:93] Creating layer conv4_3_norm_mbox_loc
I0407 06:51:17.315757  1652 net.cpp:160] Setting up conv4_3_norm_mbox_loc
I0407 06:51:17.315766  1652 net.cpp:167] Top shape: 5 32 45 60 (432000)
I0407 06:51:17.315771  1652 net.cpp:175] Memory required for data: 2118731584
I0407 06:51:17.315778  1652 layer_factory.hpp:93] Creating layer conv4_3_norm_mbox_loc_perm
I0407 06:51:17.315784  1652 net.cpp:110] Creating Layer conv4_3_norm_mbox_loc_perm
I0407 06:51:17.315788  1652 net.cpp:451] conv4_3_norm_mbox_loc_perm <- conv4_3_norm_mbox_loc
I0407 06:51:17.315793  1652 net.cpp:425] conv4_3_norm_mbox_loc_perm -> conv4_3_norm_mbox_loc_perm
I0407 06:51:17.315948  1652 net.cpp:160] Setting up conv4_3_norm_mbox_loc_perm
I0407 06:51:17.315953  1652 net.cpp:167] Top shape: 5 45 60 32 (432000)
I0407 06:51:17.315958  1652 net.cpp:175] Memory required for data: 2120459584
I0407 06:51:17.315961  1652 layer_factory.hpp:93] Creating layer conv4_3_norm_mbox_loc_flat
I0407 06:51:17.315974  1652 net.cpp:110] Creating Layer conv4_3_norm_mbox_loc_flat
I0407 06:51:17.315979  1652 net.cpp:451] conv4_3_norm_mbox_loc_flat <- conv4_3_norm_mbox_loc_perm
I0407 06:51:17.315984  1652 net.cpp:425] conv4_3_norm_mbox_loc_flat -> conv4_3_norm_mbox_loc_flat
I0407 06:51:17.316015  1652 net.cpp:160] Setting up conv4_3_norm_mbox_loc_flat
I0407 06:51:17.316020  1652 net.cpp:167] Top shape: 5 86400 (432000)
I0407 06:51:17.316025  1652 net.cpp:175] Memory required for data: 2122187584
I0407 06:51:17.316028  1652 layer_factory.hpp:93] Creating layer conv4_3_norm_mbox_conf_new
I0407 06:51:17.316035  1652 net.cpp:110] Creating Layer conv4_3_norm_mbox_conf_new
I0407 06:51:17.316040  1652 net.cpp:451] conv4_3_norm_mbox_conf_new <- conv4_7/expand/bn_conv4_7/expand/bn_fixed_0_split_2
I0407 06:51:17.316047  1652 net.cpp:425] conv4_3_norm_mbox_conf_new -> conv4_3_norm_mbox_conf_new
I0407 06:51:17.321067  1652 layer_factory.hpp:93] Creating layer conv4_3_norm_mbox_conf_new
I0407 06:51:17.326315  1652 net.cpp:160] Setting up conv4_3_norm_mbox_conf_new
I0407 06:51:17.326326  1652 net.cpp:167] Top shape: 5 168 45 60 (2268000)
I0407 06:51:17.326333  1652 net.cpp:175] Memory required for data: 2131259584
I0407 06:51:17.326339  1652 layer_factory.hpp:93] Creating layer conv4_3_norm_mbox_conf_perm
I0407 06:51:17.326346  1652 net.cpp:110] Creating Layer conv4_3_norm_mbox_conf_perm
I0407 06:51:17.326350  1652 net.cpp:451] conv4_3_norm_mbox_conf_perm <- conv4_3_norm_mbox_conf_new
I0407 06:51:17.326356  1652 net.cpp:425] conv4_3_norm_mbox_conf_perm -> conv4_3_norm_mbox_conf_perm
I0407 06:51:17.326503  1652 net.cpp:160] Setting up conv4_3_norm_mbox_conf_perm
I0407 06:51:17.326510  1652 net.cpp:167] Top shape: 5 45 60 168 (2268000)
I0407 06:51:17.326515  1652 net.cpp:175] Memory required for data: 2140331584
I0407 06:51:17.326519  1652 layer_factory.hpp:93] Creating layer conv4_3_norm_mbox_conf_flat
I0407 06:51:17.326524  1652 net.cpp:110] Creating Layer conv4_3_norm_mbox_conf_flat
I0407 06:51:17.326527  1652 net.cpp:451] conv4_3_norm_mbox_conf_flat <- conv4_3_norm_mbox_conf_perm
I0407 06:51:17.326534  1652 net.cpp:425] conv4_3_norm_mbox_conf_flat -> conv4_3_norm_mbox_conf_flat
I0407 06:51:17.326561  1652 net.cpp:160] Setting up conv4_3_norm_mbox_conf_flat
I0407 06:51:17.326566  1652 net.cpp:167] Top shape: 5 453600 (2268000)
I0407 06:51:17.326570  1652 net.cpp:175] Memory required for data: 2149403584
I0407 06:51:17.326575  1652 layer_factory.hpp:93] Creating layer conv4_3_norm_mbox_priorbox
I0407 06:51:17.326583  1652 net.cpp:110] Creating Layer conv4_3_norm_mbox_priorbox
I0407 06:51:17.326586  1652 net.cpp:451] conv4_3_norm_mbox_priorbox <- conv4_7/expand/bn_conv4_7/expand/bn_fixed_0_split_3
I0407 06:51:17.326591  1652 net.cpp:451] conv4_3_norm_mbox_priorbox <- data_data_fixed_0_split_1
I0407 06:51:17.326596  1652 net.cpp:425] conv4_3_norm_mbox_priorbox -> conv4_3_norm_mbox_priorbox
I0407 06:51:17.326629  1652 net.cpp:160] Setting up conv4_3_norm_mbox_priorbox
I0407 06:51:17.326635  1652 net.cpp:167] Top shape: 1 2 86400 (172800)
I0407 06:51:17.326639  1652 net.cpp:175] Memory required for data: 2150094784
I0407 06:51:17.326642  1652 layer_factory.hpp:93] Creating layer fc7_mbox_loc
I0407 06:51:17.326663  1652 net.cpp:110] Creating Layer fc7_mbox_loc
I0407 06:51:17.326666  1652 net.cpp:451] fc7_mbox_loc <- conv5_3/expand/bn_conv5_3/expand/bn_fixed_0_split_1
I0407 06:51:17.326675  1652 net.cpp:425] fc7_mbox_loc -> fc7_mbox_loc
I0407 06:51:17.327672  1652 layer_factory.hpp:93] Creating layer fc7_mbox_loc
I0407 06:51:17.328905  1652 net.cpp:160] Setting up fc7_mbox_loc
I0407 06:51:17.328914  1652 net.cpp:167] Top shape: 5 24 23 30 (82800)
I0407 06:51:17.328920  1652 net.cpp:175] Memory required for data: 2150425984
I0407 06:51:17.328927  1652 layer_factory.hpp:93] Creating layer fc7_mbox_loc_perm
I0407 06:51:17.328934  1652 net.cpp:110] Creating Layer fc7_mbox_loc_perm
I0407 06:51:17.328938  1652 net.cpp:451] fc7_mbox_loc_perm <- fc7_mbox_loc
I0407 06:51:17.328943  1652 net.cpp:425] fc7_mbox_loc_perm -> fc7_mbox_loc_perm
I0407 06:51:17.329084  1652 net.cpp:160] Setting up fc7_mbox_loc_perm
I0407 06:51:17.329089  1652 net.cpp:167] Top shape: 5 23 30 24 (82800)
I0407 06:51:17.329094  1652 net.cpp:175] Memory required for data: 2150757184
I0407 06:51:17.329098  1652 layer_factory.hpp:93] Creating layer fc7_mbox_loc_flat
I0407 06:51:17.329103  1652 net.cpp:110] Creating Layer fc7_mbox_loc_flat
…
I0407 06:51:17.511961  1652 net.cpp:425] block_6_1_block_6_1_fixed_0_split -> block_6_1_block_6_1_fixed_0_split_0
I0407 06:51:17.511967  1652 net.cpp:425] block_6_1_block_6_1_fixed_0_split -> block_6_1_block_6_1_fixed_0_split_1
I0407 06:51:17.512027  1652 net.cpp:160] Setting up block_6_1_block_6_1_fixed_0_split
I0407 06:51:17.512037  1652 net.cpp:167] Top shape: 4 160 12 15 (115200)
I0407 06:51:17.512042  1652 net.cpp:167] Top shape: 4 160 12 15 (115200)
I0407 06:51:17.512046  1652 net.cpp:175] Memory required for data: 1625379904
I0407 06:51:17.512050  1652 layer_factory.hpp:93] Creating layer conv6_2/expand
I0407 06:51:17.512063  1652 net.cpp:110] Creating Layer conv6_2/expand
I0407 06:51:17.512068  1652 net.cpp:451] conv6_2/expand <- block_6_1_block_6_1_fixed_0_split_0
I0407 06:51:17.512073  1652 net.cpp:425] conv6_2/expand -> conv6_2/expand/bn
I0407 06:51:17.513685  1652 layer_factory.hpp:93] Creating layer conv6_2/expand
I0407 06:51:17.516283  1652 net.cpp:160] Setting up conv6_2/expand
I0407 06:51:17.516294  1652 net.cpp:167] Top shape: 4 960 12 15 (691200)
I0407 06:51:17.516299  1652 net.cpp:175] Memory required for data: 1628144704
I0407 06:51:17.516306  1652 layer_factory.hpp:93] Creating layer relu6_2/expand
I0407 06:51:17.516312  1652 net.cpp:110] Creating Layer relu6_2/expand
I0407 06:51:17.516316  1652 net.cpp:451] relu6_2/expand <- conv6_2/expand/bn
I0407 06:51:17.516321  1652 net.cpp:412] relu6_2/expand -> conv6_2/expand/bn (in-place)
I0407 06:51:17.516327  1652 net.cpp:160] Setting up relu6_2/expand
I0407 06:51:17.516331  1652 net.cpp:167] Top shape: 4 960 12 15 (691200)
I0407 06:51:17.516335  1652 net.cpp:175] Memory required for data: 1630909504
I0407 06:51:17.516338  1652 layer_factory.hpp:93] Creating layer conv6_2/expand/bn_fixed
I0407 06:51:17.516343  1652 net.cpp:110] Creating Layer conv6_2/expand/bn_fixed
I0407 06:51:17.516347  1652 net.cpp:451] conv6_2/expand/bn_fixed <- conv6_2/expand/bn
I0407 06:51:17.516351  1652 net.cpp:412] conv6_2/expand/bn_fixed -> conv6_2/expand/bn (in-place)
I0407 06:51:17.516415  1652 net.cpp:160] Setting up conv6_2/expand/bn_fixed
I0407 06:51:17.516419  1652 net.cpp:167] Top shape: 4 960 12 15 (691200)
I0407 06:51:17.516423  1652 net.cpp:175] Memory required for data: 1633674304
I0407 06:51:17.516428  1652 layer_factory.hpp:93] Creating layer conv6_2/dwise
I0407 06:51:17.516436  1652 net.cpp:110] Creating Layer conv6_2/dwise
I0407 06:51:17.516440  1652 net.cpp:451] conv6_2/dwise <- conv6_2/expand/bn
I0407 06:51:17.516445  1652 net.cpp:425] conv6_2/dwise -> conv6_2/dwise/bn
I0407 06:51:17.516847  1652 layer_factory.hpp:93] Creating layer conv6_2/dwise
I0407 06:51:17.517485  1652 net.cpp:160] Setting up conv6_2/dwise
I0407 06:51:17.517493  1652 net.cpp:167] Top shape: 4 960 12 15 (691200)
I0407 06:51:17.517499  1652 net.cpp:175] Memory required for data: 1636439104
I0407 06:51:17.517504  1652 layer_factory.hpp:93] Creating layer relu6_2/dwise
I0407 06:51:17.517510  1652 net.cpp:110] Creating Layer relu6_2/dwise
I0407 06:51:17.517514  1652 net.cpp:451] relu6_2/dwise <- conv6_2/dwise/bn
I0407 06:51:17.517518  1652 net.cpp:412] relu6_2/dwise -> conv6_2/dwise/bn (in-place)
I0407 06:51:17.517525  1652 net.cpp:160] Setting up relu6_2/dwise
I0407 06:51:17.517529  1652 net.cpp:167] Top shape: 4 960 12 15 (691200)
I0407 06:51:17.517532  1652 net.cpp:175] Memory required for data: 1639203904
I0407 06:51:17.517535  1652 layer_factory.hpp:93] Creating layer conv6_2/dwise/bn_fixed
I0407 06:51:17.517540  1652 net.cpp:110] Creating Layer conv6_2/dwise/bn_fixed
I0407 06:51:17.517544  1652 net.cpp:451] conv6_2/dwise/bn_fixed <- conv6_2/dwise/bn
I0407 06:51:17.517549  1652 net.cpp:412] conv6_2/dwise/bn_fixed -> conv6_2/dwise/bn (in-place)
I0407 06:51:17.517604  1652 net.cpp:160] Setting up conv6_2/dwise/bn_fixed
I0407 06:51:17.517611  1652 net.cpp:167] Top shape: 4 960 12 15 (691200)
I0407 06:51:17.517616  1652 net.cpp:175] Memory required for data: 1641968704
I0407 06:51:17.517619  1652 layer_factory.hpp:93] Creating layer conv6_2/linear
I0407 06:51:17.517627  1652 net.cpp:110] Creating Layer conv6_2/linear
I0407 06:51:17.517632  1652 net.cpp:451] conv6_2/linear <- conv6_2/dwise/bn
I0407 06:51:17.517637  1652 net.cpp:425] conv6_2/linear -> conv6_2/linear/bn
I0407 06:51:17.519978  1652 layer_factory.hpp:93] Creating layer conv6_2/linear
I0407 06:51:17.521864  1652 net.cpp:160] Setting up conv6_2/linear
I0407 06:51:17.521874  1652 net.cpp:167] Top shape: 4 160 12 15 (115200)
I0407 06:51:17.521880  1652 net.cpp:175] Memory required for data: 1642429504
I0407 06:51:17.521888  1652 layer_factory.hpp:93] Creating layer conv6_2/linear/bn_fixed
I0407 06:51:17.521893  1652 net.cpp:110] Creating Layer conv6_2/linear/bn_fixed
I0407 06:51:17.521898  1652 net.cpp:451] conv6_2/linear/bn_fixed <- conv6_2/linear/bn
I0407 06:51:17.521903  1652 net.cpp:412] conv6_2/linear/bn_fixed -> conv6_2/linear/bn (in-place)
I0407 06:51:17.521958  1652 net.cpp:160] Setting up conv6_2/linear/bn_fixed
I0407 06:51:17.521965  1652 net.cpp:167] Top shape: 4 160 12 15 (115200)
I0407 06:51:17.521970  1652 net.cpp:175] Memory required for data: 1642890304
I0407 06:51:17.521973  1652 layer_factory.hpp:93] Creating layer block_6_2
I0407 06:51:17.521978  1652 net.cpp:110] Creating Layer block_6_2
I0407 06:51:17.521982  1652 net.cpp:451] block_6_2 <- block_6_1_block_6_1_fixed_0_split_1
I0407 06:51:17.521986  1652 net.cpp:451] block_6_2 <- conv6_2/linear/bn
I0407 06:51:17.521991  1652 net.cpp:425] block_6_2 -> block_6_2
I0407 06:51:17.522023  1652 net.cpp:160] Setting up block_6_2
I0407 06:51:17.522029  1652 net.cpp:167] Top shape: 4 160 12 15 (115200)
I0407 06:51:17.522033  1652 net.cpp:175] Memory required for data: 1643351104
I0407 06:51:17.522037  1652 layer_factory.hpp:93] Creating layer block_6_2_fixed
I0407 06:51:17.522042  1652 net.cpp:110] Creating Layer block_6_2_fixed
I0407 06:51:17.522045  1652 net.cpp:451] block_6_2_fixed <- block_6_2
I0407 06:51:17.522049  1652 net.cpp:412] block_6_2_fixed -> block_6_2 (in-place)
I0407 06:51:17.522100  1652 net.cpp:160] Setting up block_6_2_fixed
I0407 06:51:17.522106  1652 net.cpp:167] Top shape: 4 160 12 15 (115200)
I0407 06:51:17.522110  1652 net.cpp:175] Memory required for data: 1643811904
I0407 06:51:17.522115  1652 layer_factory.hpp:93] Creating layer conv6_3/expand
I0407 06:51:17.522121  1652 net.cpp:110] Creating Layer conv6_3/expand
I0407 06:51:17.522125  1652 net.cpp:451] conv6_3/expand <- block_6_2
I0407 06:51:17.522130  1652 net.cpp:425] conv6_3/expand -> conv6_3/expand/bn
I0407 06:51:17.524466  1652 layer_factory.hpp:93] Creating layer conv6_3/expand
I0407 06:51:17.527058  1652 net.cpp:160] Setting up conv6_3/expand
I0407 06:51:17.527070  1652 net.cpp:167] Top shape: 4 960 12 15 (691200)
I0407 06:51:17.527076  1652 net.cpp:175] Memory required for data: 1646576704
I0407 06:51:17.527082  1652 layer_factory.hpp:93] Creating layer relu6_3/expand
I0407 06:51:17.527091  1652 net.cpp:110] Creating Layer relu6_3/expand
I0407 06:51:17.527094  1652 net.cpp:451] relu6_3/expand <- conv6_3/expand/bn
I0407 06:51:17.527099  1652 net.cpp:412] relu6_3/expand -> conv6_3/expand/bn (in-place)
I0407 06:51:17.527107  1652 net.cpp:160] Setting up relu6_3/expand
I0407 06:51:17.527109  1652 net.cpp:167] Top shape: 4 960 12 15 (691200)
I0407 06:51:17.527113  1652 net.cpp:175] Memory required for data: 1649341504
I0407 06:51:17.527117  1652 layer_factory.hpp:93] Creating layer conv6_3/expand/bn_fixed
I0407 06:51:17.527122  1652 net.cpp:110] Creating Layer conv6_3/expand/bn_fixed
I0407 06:51:17.527125  1652 net.cpp:451] conv6_3/expand/bn_fixed <- conv6_3/expand/bn
I0407 06:51:17.527129  1652 net.cpp:412] conv6_3/expand/bn_fixed -> conv6_3/expand/bn (in-place)
I0407 06:51:17.527186  1652 net.cpp:160] Setting up conv6_3/expand/bn_fixed
I0407 06:51:17.527191  1652 net.cpp:167] Top shape: 4 960 12 15 (691200)
I0407 06:51:17.527196  1652 net.cpp:175] Memory required for data: 1652106304
I0407 06:51:17.527201  1652 layer_factory.hpp:93] Creating layer conv6_3/dwise
I0407 06:51:17.527209  1652 net.cpp:110] Creating Layer conv6_3/dwise
I0407 06:51:17.527212  1652 net.cpp:451] conv6_3/dwise <- conv6_3/expand/bn
I0407 06:51:17.527216  1652 net.cpp:425] conv6_3/dwise -> conv6_3/dwise/bn
I0407 06:51:17.527587  1652 layer_factory.hpp:93] Creating layer conv6_3/dwise
I0407 06:51:17.528198  1652 net.cpp:160] Setting up conv6_3/dwise
I0407 06:51:17.528208  1652 net.cpp:167] Top shape: 4 960 12 15 (691200)
I0407 06:51:17.528213  1652 net.cpp:175] Memory required for data: 1654871104
I0407 06:51:17.528218  1652 layer_factory.hpp:93] Creating layer relu6_3/dwise
I0407 06:51:17.528225  1652 net.cpp:110] Creating Layer relu6_3/dwise
I0407 06:51:17.528228  1652 net.cpp:451] relu6_3/dwise <- conv6_3/dwise/bn
I0407 06:51:17.528234  1652 net.cpp:412] relu6_3/dwise -> conv6_3/dwise/bn (in-place)
I0407 06:51:17.528239  1652 net.cpp:160] Setting up relu6_3/dwise
I0407 06:51:17.528242  1652 net.cpp:167] Top shape: 4 960 12 15 (691200)
I0407 06:51:17.528246  1652 net.cpp:175] Memory required for data: 1657635904
I0407 06:51:17.528249  1652 layer_factory.hpp:93] Creating layer conv6_3/dwise/bn_fixed
I0407 06:51:17.528254  1652 net.cpp:110] Creating Layer conv6_3/dwise/bn_fixed
I0407 06:51:17.528259  1652 net.cpp:451] conv6_3/dwise/bn_fixed <- conv6_3/dwise/bn
I0407 06:51:17.528262  1652 net.cpp:412] conv6_3/dwise/bn_fixed -> conv6_3/dwise/bn (in-place)
I0407 06:51:17.528316  1652 net.cpp:160] Setting up conv6_3/dwise/bn_fixed
I0407 06:51:17.528322  1652 net.cpp:167] Top shape: 4 960 12 15 (691200)
I0407 06:51:17.528326  1652 net.cpp:175] Memory required for data: 1660400704
I0407 06:51:17.528331  1652 layer_factory.hpp:93] Creating layer conv6_3/linear
I0407 06:51:17.528337  1652 net.cpp:110] Creating Layer conv6_3/linear
I0407 06:51:17.528342  1652 net.cpp:451] conv6_3/linear <- conv6_3/dwise/bn
I0407 06:51:17.528347  1652 net.cpp:425] conv6_3/linear -> conv6_3/linear/bn
I0407 06:51:17.532038  1652 layer_factory.hpp:93] Creating layer conv6_3/linear
I0407 06:51:17.536583  1652 net.cpp:160] Setting up conv6_3/linear
I0407 06:51:17.536594  1652 net.cpp:167] Top shape: 4 320 12 15 (230400)
I0407 06:51:17.536600  1652 net.cpp:175] Memory required for data: 1661322304
I0407 06:51:17.536607  1652 layer_factory.hpp:93] Creating layer conv6_3/linear/bn_fixed
I0407 06:51:17.536615  1652 net.cpp:110] Creating Layer conv6_3/linear/bn_fixed
I0407 06:51:17.536620  1652 net.cpp:451] conv6_3/linear/bn_fixed <- conv6_3/linear/bn
I0407 06:51:17.536625  1652 net.cpp:412] conv6_3/linear/bn_fixed -> conv6_3/linear/bn (in-place)
I0407 06:51:17.536681  1652 net.cpp:160] Setting up conv6_3/linear/bn_fixed
I0407 06:51:17.536687  1652 net.cpp:167] Top shape: 4 320 12 15 (230400)
I0407 06:51:17.536692  1652 net.cpp:175] Memory required for data: 1662243904
I0407 06:51:17.536696  1652 layer_factory.hpp:93] Creating layer conv6_4
I0407 06:51:17.536705  1652 net.cpp:110] Creating Layer conv6_4
I0407 06:51:17.536710  1652 net.cpp:451] conv6_4 <- conv6_3/linear/bn
I0407 06:51:17.536715  1652 net.cpp:425] conv6_4 -> conv6_4/bn
I0407 06:51:17.541855  1652 layer_factory.hpp:93] Creating layer conv6_4
I0407 06:51:17.547312  1652 net.cpp:160] Setting up conv6_4
I0407 06:51:17.547323  1652 net.cpp:167] Top shape: 4 1280 12 15 (921600)
I0407 06:51:17.547330  1652 net.cpp:175] Memory required for data: 1665930304
I0407 06:51:17.547336  1652 layer_factory.hpp:93] Creating layer relu7
I0407 06:51:17.547341  1652 net.cpp:110] Creating Layer relu7
I0407 06:51:17.547346  1652 net.cpp:451] relu7 <- conv6_4/bn
I0407 06:51:17.547351  1652 net.cpp:425] relu7 -> fc7
I0407 06:51:17.547389  1652 net.cpp:160] Setting up relu7
I0407 06:51:17.547394  1652 net.cpp:167] Top shape: 4 1280 12 15 (921600)
I0407 06:51:17.547397  1652 net.cpp:175] Memory required for data: 1669616704
I0407 06:51:17.547401  1652 layer_factory.hpp:93] Creating layer fc7_fixed
I0407 06:51:17.547406  1652 net.cpp:110] Creating Layer fc7_fixed
I0407 06:51:17.547410  1652 net.cpp:451] fc7_fixed <- fc7
I0407 06:51:17.547413  1652 net.cpp:412] fc7_fixed -> fc7 (in-place)
I0407 06:51:17.547466  1652 net.cpp:160] Setting up fc7_fixed
I0407 06:51:17.547472  1652 net.cpp:167] Top shape: 4 1280 12 15 (921600)
I0407 06:51:17.547477  1652 net.cpp:175] Memory required for data: 1673303104
I0407 06:51:17.547487  1652 layer_factory.hpp:93] Creating layer fc7_fc7_fixed_0_split
I0407 06:51:17.547492  1652 net.cpp:110] Creating Layer fc7_fc7_fixed_0_split
I0407 06:51:17.547495  1652 net.cpp:451] fc7_fc7_fixed_0_split <- fc7
I0407 06:51:17.547502  1652 net.cpp:425] fc7_fc7_fixed_0_split -> fc7_fc7_fixed_0_split_0
I0407 06:51:17.547508  1652 net.cpp:425] fc7_fc7_fixed_0_split -> fc7_fc7_fixed_0_split_1
I0407 06:51:17.547513  1652 net.cpp:425] fc7_fc7_fixed_0_split -> fc7_fc7_fixed_0_split_2
I0407 06:51:17.547518  1652 net.cpp:425] fc7_fc7_fixed_0_split -> fc7_fc7_fixed_0_split_3
I0407 06:51:17.547605  1652 net.cpp:160] Setting up fc7_fc7_fixed_0_split
I0407 06:51:17.547610  1652 net.cpp:167] Top shape: 4 1280 12 15 (921600)
I0407 06:51:17.547614  1652 net.cpp:167] Top shape: 4 1280 12 15 (921600)
I0407 06:51:17.547618  1652 net.cpp:167] Top shape: 4 1280 12 15 (921600)
I0407 06:51:17.547622  1652 net.cpp:167] Top shape: 4 1280 12 15 (921600)
I0407 06:51:17.547626  1652 net.cpp:175] Memory required for data: 1688048704
I0407 06:51:17.547629  1652 layer_factory.hpp:93] Creating layer conv6_1
I0407 06:51:17.547639  1652 net.cpp:110] Creating Layer conv6_1
I0407 06:51:17.547643  1652 net.cpp:451] conv6_1 <- fc7_fc7_fixed_0_split_0
I0407 06:51:17.547648  1652 net.cpp:425] conv6_1 -> conv6_1
I0407 06:51:17.551204  1652 layer_factory.hpp:93] Creating layer conv6_1
I0407 06:51:17.555346  1652 net.cpp:160] Setting up conv6_1
I0407 06:51:17.555357  1652 net.cpp:167] Top shape: 4 256 12 15 (184320)
I0407 06:51:17.555378  1652 net.cpp:175] Memory required for data: 1688785984
I0407 06:51:17.555385  1652 layer_factory.hpp:93] Creating layer conv6_1_relu
I0407 06:51:17.555392  1652 net.cpp:110] Creating Layer conv6_1_relu
I0407 06:51:17.555395  1652 net.cpp:451] conv6_1_relu <- conv6_1
I0407 06:51:17.555400  1652 net.cpp:412] conv6_1_relu -> conv6_1 (in-place)
I0407 06:51:17.555407  1652 net.cpp:160] Setting up conv6_1_relu
I0407 06:51:17.555409  1652 net.cpp:167] Top shape: 4 256 12 15 (184320)
I0407 06:51:17.555413  1652 net.cpp:175] Memory required for data: 1689523264
I0407 06:51:17.555416  1652 layer_factory.hpp:93] Creating layer conv6_1_fixed
I0407 06:51:17.555423  1652 net.cpp:110] Creating Layer conv6_1_fixed
I0407 06:51:17.555425  1652 net.cpp:451] conv6_1_fixed <- conv6_1
I0407 06:51:17.555429  1652 net.cpp:412] conv6_1_fixed -> conv6_1 (in-place)
I0407 06:51:17.555485  1652 net.cpp:160] Setting up conv6_1_fixed
I0407 06:51:17.555491  1652 net.cpp:167] Top shape: 4 256 12 15 (184320)
I0407 06:51:17.555496  1652 net.cpp:175] Memory required for data: 1690260544
I0407 06:51:17.555500  1652 layer_factory.hpp:93] Creating layer conv6_2
I0407 06:51:17.555507  1652 net.cpp:110] Creating Layer conv6_2
I0407 06:51:17.555511  1652 net.cpp:451] conv6_2 <- conv6_1
I0407 06:51:17.555518  1652 net.cpp:425] conv6_2 -> conv6_2
I0407 06:51:17.565058  1652 layer_factory.hpp:93] Creating layer conv6_2
I0407 06:51:17.574759  1652 net.cpp:160] Setting up conv6_2
I0407 06:51:17.574769  1652 net.cpp:167] Top shape: 4 512 6 8 (98304)
I0407 06:51:17.574792  1652 net.cpp:175] Memory required for data: 1690653760
I0407 06:51:17.574800  1652 layer_factory.hpp:93] Creating layer conv6_2_relu
I0407 06:51:17.574805  1652 net.cpp:110] Creating Layer conv6_2_relu
I0407 06:51:17.574810  1652 net.cpp:451] conv6_2_relu <- conv6_2
I0407 06:51:17.574816  1652 net.cpp:412] conv6_2_relu -> conv6_2 (in-place)
I0407 06:51:17.574822  1652 net.cpp:160] Setting up conv6_2_relu
I0407 06:51:17.574826  1652 net.cpp:167] Top shape: 4 512 6 8 (98304)
I0407 06:51:17.574831  1652 net.cpp:175] Memory required for data: 1691046976
I0407 06:51:17.574833  1652 layer_factory.hpp:93] Creating layer conv6_2_fixed
I0407 06:51:17.574838  1652 net.cpp:110] Creating Layer conv6_2_fixed
I0407 06:51:17.574841  1652 net.cpp:451] conv6_2_fixed <- conv6_2
I0407 06:51:17.574846  1652 net.cpp:412] conv6_2_fixed -> conv6_2 (in-place)
I0407 06:51:17.574901  1652 net.cpp:160] Setting up conv6_2_fixed
I0407 06:51:17.574905  1652 net.cpp:167] Top shape: 4 512 6 8 (98304)
I0407 06:51:17.574910  1652 net.cpp:175] Memory required for data: 1691440192
I0407 06:51:17.574914  1652 layer_factory.hpp:93] Creating layer conv6_2_conv6_2_fixed_0_split
I0407 06:51:17.574920  1652 net.cpp:110] Creating Layer conv6_2_conv6_2_fixed_0_split
I0407 06:51:17.574924  1652 net.cpp:451] conv6_2_conv6_2_fixed_0_split <- conv6_2
I0407 06:51:17.574929  1652 net.cpp:425] conv6_2_conv6_2_fixed_0_split -> conv6_2_conv6_2_fixed_0_split_0
I0407 06:51:17.574935  1652 net.cpp:425] conv6_2_conv6_2_fixed_0_split -> conv6_2_conv6_2_fixed_0_split_1
I0407 06:51:17.574942  1652 net.cpp:425] conv6_2_conv6_2_fixed_0_split -> conv6_2_conv6_2_fixed_0_split_2
I0407 06:51:17.574947  1652 net.cpp:425] conv6_2_conv6_2_fixed_0_split -> conv6_2_conv6_2_fixed_0_split_3
I0407 06:51:17.575038  1652 net.cpp:160] Setting up conv6_2_conv6_2_fixed_0_split
I0407 06:51:17.575044  1652 net.cpp:167] Top shape: 4 512 6 8 (98304)
I0407 06:51:17.575049  1652 net.cpp:167] Top shape: 4 512 6 8 (98304)
I0407 06:51:17.575053  1652 net.cpp:167] Top shape: 4 512 6 8 (98304)
I0407 06:51:17.575057  1652 net.cpp:167] Top shape: 4 512 6 8 (98304)
I0407 06:51:17.575060  1652 net.cpp:175] Memory required for data: 1693013056
I0407 06:51:17.575064  1652 layer_factory.hpp:93] Creating layer conv7_1
I0407 06:51:17.575073  1652 net.cpp:110] Creating Layer conv7_1
I0407 06:51:17.575075  1652 net.cpp:451] conv7_1 <- conv6_2_conv6_2_fixed_0_split_0
I0407 06:51:17.575083  1652 net.cpp:425] conv7_1 -> conv7_1
I0407 06:51:17.575772  1652 layer_factory.hpp:93] Creating layer conv7_1
I0407 06:51:17.576690  1652 net.cpp:160] Setting up conv7_1
I0407 06:51:17.576699  1652 net.cpp:167] Top shape: 4 128 6 8 (24576)
I0407 06:51:17.576704  1652 net.cpp:175] Memory required for data: 1693111360
I0407 06:51:17.576710  1652 layer_factory.hpp:93] Creating layer conv7_1_relu
I0407 06:51:17.576715  1652 net.cpp:110] Creating Layer conv7_1_relu
I0407 06:51:17.576720  1652 net.cpp:451] conv7_1_relu <- conv7_1
I0407 06:51:17.576725  1652 net.cpp:412] conv7_1_relu -> conv7_1 (in-place)
I0407 06:51:17.576730  1652 net.cpp:160] Setting up conv7_1_relu
I0407 06:51:17.576733  1652 net.cpp:167] Top shape: 4 128 6 8 (24576)
I0407 06:51:17.576737  1652 net.cpp:175] Memory required for data: 1693209664
I0407 06:51:17.576740  1652 layer_factory.hpp:93] Creating layer conv7_1_fixed
I0407 06:51:17.576747  1652 net.cpp:110] Creating Layer conv7_1_fixed
I0407 06:51:17.576750  1652 net.cpp:451] conv7_1_fixed <- conv7_1
I0407 06:51:17.576755  1652 net.cpp:412] conv7_1_fixed -> conv7_1 (in-place)
I0407 06:51:17.576807  1652 net.cpp:160] Setting up conv7_1_fixed
I0407 06:51:17.576812  1652 net.cpp:167] Top shape: 4 128 6 8 (24576)
I0407 06:51:17.576817  1652 net.cpp:175] Memory required for data: 1693307968
I0407 06:51:17.576822  1652 layer_factory.hpp:93] Creating layer conv7_2
I0407 06:51:17.576829  1652 net.cpp:110] Creating Layer conv7_2
I0407 06:51:17.576833  1652 net.cpp:451] conv7_2 <- conv7_1
I0407 06:51:17.576838  1652 net.cpp:425] conv7_2 -> conv7_2
I0407 06:51:17.580188  1652 layer_factory.hpp:93] Creating layer conv7_2
I0407 06:51:17.583784  1652 net.cpp:160] Setting up conv7_2
I0407 06:51:17.583796  1652 net.cpp:167] Top shape: 4 256 3 4 (12288)
I0407 06:51:17.583802  1652 net.cpp:175] Memory required for data: 1693357120
I0407 06:51:17.583808  1652 layer_factory.hpp:93] Creating layer conv7_2_relu
I0407 06:51:17.583813  1652 net.cpp:110] Creating Layer conv7_2_relu
I0407 06:51:17.583817  1652 net.cpp:451] conv7_2_relu <- conv7_2
I0407 06:51:17.583822  1652 net.cpp:412] conv7_2_relu -> conv7_2 (in-place)
I0407 06:51:17.583828  1652 net.cpp:160] Setting up conv7_2_relu
I0407 06:51:17.583832  1652 net.cpp:167] Top shape: 4 256 3 4 (12288)
I0407 06:51:17.583837  1652 net.cpp:175] Memory required for data: 1693406272
I0407 06:51:17.583839  1652 layer_factory.hpp:93] Creating layer conv7_2_fixed
I0407 06:51:17.583847  1652 net.cpp:110] Creating Layer conv7_2_fixed
I0407 06:51:17.583849  1652 net.cpp:451] conv7_2_fixed <- conv7_2
I0407 06:51:17.583853  1652 net.cpp:412] conv7_2_fixed -> conv7_2 (in-place)
I0407 06:51:17.583906  1652 net.cpp:160] Setting up conv7_2_fixed
I0407 06:51:17.583912  1652 net.cpp:167] Top shape: 4 256 3 4 (12288)
I0407 06:51:17.583917  1652 net.cpp:175] Memory required for data: 1693455424
I0407 06:51:17.583921  1652 layer_factory.hpp:93] Creating layer conv7_2_conv7_2_fixed_0_split
I0407 06:51:17.583928  1652 net.cpp:110] Creating Layer conv7_2_conv7_2_fixed_0_split
I0407 06:51:17.583932  1652 net.cpp:451] conv7_2_conv7_2_fixed_0_split <- conv7_2
I0407 06:51:17.583937  1652 net.cpp:425] conv7_2_conv7_2_fixed_0_split -> conv7_2_conv7_2_fixed_0_split_0
I0407 06:51:17.583943  1652 net.cpp:425] conv7_2_conv7_2_fixed_0_split -> conv7_2_conv7_2_fixed_0_split_1
I0407 06:51:17.583948  1652 net.cpp:425] conv7_2_conv7_2_fixed_0_split -> conv7_2_conv7_2_fixed_0_split_2
I0407 06:51:17.584018  1652 net.cpp:160] Setting up conv7_2_conv7_2_fixed_0_split
I0407 06:51:17.584024  1652 net.cpp:167] Top shape: 4 256 3 4 (12288)
I0407 06:51:17.584029  1652 net.cpp:167] Top shape: 4 256 3 4 (12288)
I0407 06:51:17.584033  1652 net.cpp:167] Top shape: 4 256 3 4 (12288)
I0407 06:51:17.584036  1652 net.cpp:175] Memory required for data: 1693602880
I0407 06:51:17.584040  1652 layer_factory.hpp:93] Creating layer conv4_3_norm_mbox_loc
I0407 06:51:17.584050  1652 net.cpp:110] Creating Layer conv4_3_norm_mbox_loc
I0407 06:51:17.584064  1652 net.cpp:451] conv4_3_norm_mbox_loc <- conv4_7/expand/bn_conv4_7/expand/bn_fixed_0_split_1
I0407 06:51:17.584070  1652 net.cpp:425] conv4_3_norm_mbox_loc -> conv4_3_norm_mbox_loc
I0407 06:51:17.585021  1652 layer_factory.hpp:93] Creating layer conv4_3_norm_mbox_loc
I0407 06:51:17.586235  1652 net.cpp:160] Setting up conv4_3_norm_mbox_loc
I0407 06:51:17.586243  1652 net.cpp:167] Top shape: 4 32 45 60 (345600)
I0407 06:51:17.586249  1652 net.cpp:175] Memory required for data: 1694985280
I0407 06:51:17.586254  1652 layer_factory.hpp:93] Creating layer conv4_3_norm_mbox_loc_perm
I0407 06:51:17.586261  1652 net.cpp:110] Creating Layer conv4_3_norm_mbox_loc_perm
I0407 06:51:17.586266  1652 net.cpp:451] conv4_3_norm_mbox_loc_perm <- conv4_3_norm_mbox_loc
I0407 06:51:17.586270  1652 net.cpp:425] conv4_3_norm_mbox_loc_perm -> conv4_3_norm_mbox_loc_perm
I0407 06:51:17.586443  1652 net.cpp:160] Setting up conv4_3_norm_mbox_loc_perm
I0407 06:51:17.586450  1652 net.cpp:167] Top shape: 4 45 60 32 (345600)
I0407 06:51:17.586455  1652 net.cpp:175] Memory required for data: 1696367680
I0407 06:51:17.586458  1652 layer_factory.hpp:93] Creating layer conv4_3_norm_mbox_loc_flat
I0407 06:51:17.586464  1652 net.cpp:110] Creating Layer conv4_3_norm_mbox_loc_flat
I0407 06:51:17.586467  1652 net.cpp:451] conv4_3_norm_mbox_loc_flat <- conv4_3_norm_mbox_loc_perm
I0407 06:51:17.586472  1652 net.cpp:425] conv4_3_norm_mbox_loc_flat -> conv4_3_norm_mbox_loc_flat
I0407 06:51:17.586505  1652 net.cpp:160] Setting up conv4_3_norm_mbox_loc_flat
I0407 06:51:17.586510  1652 net.cpp:167] Top shape: 4 86400 (345600)
I0407 06:51:17.586515  1652 net.cpp:175] Memory required for data: 1697750080
I0407 06:51:17.586519  1652 layer_factory.hpp:93] Creating layer conv4_3_norm_mbox_conf_new
I0407 06:51:17.586527  1652 net.cpp:110] Creating Layer conv4_3_norm_mbox_conf_new
I0407 06:51:17.586531  1652 net.cpp:451] conv4_3_norm_mbox_conf_new <- conv4_7/expand/bn_conv4_7/expand/bn_fixed_0_split_2
I0407 06:51:17.586537  1652 net.cpp:425] conv4_3_norm_mbox_conf_new -> conv4_3_norm_mbox_conf_new
I0407 06:51:17.591675  1652 layer_factory.hpp:93] Creating layer conv4_3_norm_mbox_conf_new
I0407 06:51:17.596968  1652 net.cpp:160] Setting up conv4_3_norm_mbox_conf_new
I0407 06:51:17.596979  1652 net.cpp:167] Top shape: 4 168 45 60 (1814400)
I0407 06:51:17.596987  1652 net.cpp:175] Memory required for data: 1705007680
I0407 06:51:17.596992  1652 layer_factory.hpp:93] Creating layer conv4_3_norm_mbox_conf_perm
I0407 06:51:17.597002  1652 net.cpp:110] Creating Layer conv4_3_norm_mbox_conf_perm
I0407 06:51:17.597005  1652 net.cpp:451] conv4_3_norm_mbox_conf_perm <- conv4_3_norm_mbox_conf_new
I0407 06:51:17.597012  1652 net.cpp:425] conv4_3_norm_mbox_conf_perm -> conv4_3_norm_mbox_conf_perm
I0407 06:51:17.597172  1652 net.cpp:160] Setting up conv4_3_norm_mbox_conf_perm
I0407 06:51:17.597177  1652 net.cpp:167] Top shape: 4 45 60 168 (1814400)
I0407 06:51:17.597182  1652 net.cpp:175] Memory required for data: 1712265280
I0407 06:51:17.597187  1652 layer_factory.hpp:93] Creating layer conv4_3_norm_mbox_conf_flat
I0407 06:51:17.597191  1652 net.cpp:110] Creating Layer conv4_3_norm_mbox_conf_flat
I0407 06:51:17.597194  1652 net.cpp:451] conv4_3_norm_mbox_conf_flat <- conv4_3_norm_mbox_conf_perm
I0407 06:51:17.597199  1652 net.cpp:425] conv4_3_norm_mbox_conf_flat -> conv4_3_norm_mbox_conf_flat
I0407 06:51:17.597231  1652 net.cpp:160] Setting up conv4_3_norm_mbox_conf_flat
I0407 06:51:17.597237  1652 net.cpp:167] Top shape: 4 453600 (1814400)
I0407 06:51:17.597241  1652 net.cpp:175] Memory required for data: 1719522880
I0407 06:51:17.597244  1652 layer_factory.hpp:93] Creating layer conv4_3_norm_mbox_priorbox
I0407 06:51:17.597252  1652 net.cpp:110] Creating Layer conv4_3_norm_mbox_priorbox
I0407 06:51:17.597256  1652 net.cpp:451] conv4_3_norm_mbox_priorbox <- conv4_7/expand/bn_conv4_7/expand/bn_fixed_0_split_3
I0407 06:51:17.597261  1652 net.cpp:451] conv4_3_norm_mbox_priorbox <- data_data_fixed_0_split_1
I0407 06:51:17.597266  1652 net.cpp:425] conv4_3_norm_mbox_priorbox -> conv4_3_norm_mbox_priorbox
I0407 06:51:17.597302  1652 net.cpp:160] Setting up conv4_3_norm_mbox_priorbox
I0407 06:51:17.597307  1652 net.cpp:167] Top shape: 1 2 86400 (172800)
I0407 06:51:17.597312  1652 net.cpp:175] Memory required for data: 1720214080
I0407 06:51:17.597316  1652 layer_factory.hpp:93] Creating layer fc7_mbox_loc
I0407 06:51:17.597324  1652 net.cpp:110] Creating Layer fc7_mbox_loc
I0407 06:51:17.597328  1652 net.cpp:451] fc7_mbox_loc <- conv5_3/expand/bn_conv5_3/expand/bn_fixed_0_split_1
I0407 06:51:17.597334  1652 net.cpp:425] fc7_mbox_loc -> fc7_mbox_loc
I0407 06:51:17.598366  1652 layer_factory.hpp:93] Creating layer fc7_mbox_loc
I0407 06:51:17.599637  1652 net.cpp:160] Setting up fc7_mbox_loc
I0407 06:51:17.599645  1652 net.cpp:167] Top shape: 4 24 23 30 (66240)
I0407 06:51:17.599651  1652 net.cpp:175] Memory required for data: 1720479040
I0407 06:51:17.599658  1652 layer_factory.hpp:93] Creating layer fc7_mbox_loc_perm
I0407 06:51:17.599665  1652 net.cpp:110] Creating Layer fc7_mbox_loc_perm
I0407 06:51:17.599669  1652 net.cpp:451] fc7_mbox_loc_perm <- fc7_mbox_loc
I0407 06:51:17.599674  1652 net.cpp:425] fc7_mbox_loc_perm -> fc7_mbox_loc_perm
I0407 06:51:17.599829  1652 net.cpp:160] Setting up fc7_mbox_loc_perm
I0407 06:51:17.599835  1652 net.cpp:167] Top shape: 4 23 30 24 (66240)
I0407 06:51:17.599840  1652 net.cpp:175] Memory required for data: 1720744000
I0407 06:51:17.599843  1652 layer_factory.hpp:93] Creating layer fc7_mbox_loc_flat
I0407 06:51:17.599848  1652 net.cpp:110] Creating Layer fc7_mbox_loc_flat
I0407 06:51:17.599853  1652 net.cpp:451] fc7_mbox_loc_flat <- fc7_mbox_loc_perm
I0407 06:51:17.599856  1652 net.cpp:425] fc7_mbox_loc_flat -> fc7_mbox_loc_flat
I0407 06:51:17.599889  1652 net.cpp:160] Setting up fc7_mbox_loc_flat
I0407 06:51:17.599891  1652 net.cpp:167] Top shape: 4 16560 (66240)
I0407 06:51:17.599896  1652 net.cpp:175] Memory required for data: 1721008960
I0407 06:51:17.599900  1652 layer_factory.hpp:93] Creating layer fc7_mbox_conf_new
I0407 06:51:17.599908  1652 net.cpp:110] Creating Layer fc7_mbox_conf_new
I0407 06:51:17.599912  1652 net.cpp:451] fc7_mbox_conf_new <- conv5_3/expand/bn_conv5_3/expand/bn_fixed_0_split_2
I0407 06:51:17.599917  1652 net.cpp:425] fc7_mbox_conf_new -> fc7_mbox_conf_new
I0407 06:51:17.605891  1652 layer_factory.hpp:93] Creating layer fc7_mbox_conf_new
I0407 06:51:17.611728  1652 net.cpp:160] Setting up fc7_mbox_conf_new
I0407 06:51:17.611739  1652 net.cpp:167] Top shape: 4 126 23 30 (347760)
I0407 06:51:17.611763  1652 net.cpp:175] Memory required for data: 1722400000
I0407 06:51:17.611769  1652 layer_factory.hpp:93] Creating layer fc7_mbox_conf_perm
I0407 06:51:17.611776  1652 net.cpp:110] Creating Layer fc7_mbox_conf_perm
I0407 06:51:17.611783  1652 net.cpp:451] fc7_mbox_conf_perm <- fc7_mbox_conf_new
I0407 06:51:17.611789  1652 net.cpp:425] fc7_mbox_conf_perm -> fc7_mbox_conf_perm
I0407 06:51:17.611949  1652 net.cpp:160] Setting up fc7_mbox_conf_perm
I0407 06:51:17.611955  1652 net.cpp:167] Top shape: 4 23 30 126 (347760)
I0407 06:51:17.611960  1652 net.cpp:175] Memory required for data: 1723791040
I0407 06:51:17.611964  1652 layer_factory.hpp:93] Creating layer fc7_mbox_conf_flat
I0407 06:51:17.611969  1652 net.cpp:110] Creating Layer fc7_mbox_conf_flat
I0407 06:51:17.611973  1652 net.cpp:451] fc7_mbox_conf_flat <- fc7_mbox_conf_perm
I0407 06:51:17.611977  1652 net.cpp:425] fc7_mbox_conf_flat -> fc7_mbox_conf_flat
I0407 06:51:17.612010  1652 net.cpp:160] Setting up fc7_mbox_conf_flat
I0407 06:51:17.612015  1652 net.cpp:167] Top shape: 4 86940 (347760)
I0407 06:51:17.612020  1652 net.cpp:175] Memory required for data: 1725182080
I0407 06:51:17.612023  1652 layer_factory.hpp:93] Creating layer fc7_mbox_priorbox
I0407 06:51:17.612030  1652 net.cpp:110] Creating Layer fc7_mbox_priorbox
I0407 06:51:17.612033  1652 net.cpp:451] fc7_mbox_priorbox <- conv5_3/expand/bn_conv5_3/expand/bn_fixed_0_split_3
I0407 06:51:17.612037  1652 net.cpp:451] fc7_mbox_priorbox <- data_data_fixed_0_split_2
I0407 06:51:17.612042  1652 net.cpp:425] fc7_mbox_priorbox -> fc7_mbox_priorbox
I0407 06:51:17.612084  1652 net.cpp:160] Setting up fc7_mbox_priorbox
I0407 06:51:17.612092  1652 net.cpp:167] Top shape: 1 2 16560 (33120)
I0407 06:51:17.612097  1652 net.cpp:175] Memory required for data: 1725314560
I0407 06:51:17.612107  1652 layer_factory.hpp:93] Creating layer conv6_2_mbox_loc
I0407 06:51:17.612121  1652 net.cpp:110] Creating Layer conv6_2_mbox_loc
I0407 06:51:17.612126  1652 net.cpp:451] conv6_2_mbox_loc <- fc7_fc7_fixed_0_split_1
I0407 06:51:17.612133  1652 net.cpp:425] conv6_2_mbox_loc -> conv6_2_mbox_loc
I0407 06:51:17.615454  1652 layer_factory.hpp:93] Creating layer conv6_2_mbox_loc
I0407 06:51:17.618993  1652 net.cpp:160] Setting up conv6_2_mbox_loc
I0407 06:51:17.619004  1652 net.cpp:167] Top shape: 4 24 12 15 (17280)
I0407 06:51:17.619011  1652 net.cpp:175] Memory required for data: 1725383680
I0407 06:51:17.619019  1652 layer_factory.hpp:93] Creating layer conv6_2_mbox_loc_perm
I0407 06:51:17.619025  1652 net.cpp:110] Creating Layer conv6_2_mbox_loc_perm
I0407 06:51:17.619029  1652 net.cpp:451] conv6_2_mbox_loc_perm <- conv6_2_mbox_loc
I0407 06:51:17.619035  1652 net.cpp:425] conv6_2_mbox_loc_perm -> conv6_2_mbox_loc_perm
I0407 06:51:17.619192  1652 net.cpp:160] Setting up conv6_2_mbox_loc_perm
I0407 06:51:17.619199  1652 net.cpp:167] Top shape: 4 12 15 24 (17280)
I0407 06:51:17.619204  1652 net.cpp:175] Memory required for data: 1725452800
I0407 06:51:17.619206  1652 layer_factory.hpp:93] Creating layer conv6_2_mbox_loc_flat
I0407 06:51:17.619215  1652 net.cpp:110] Creating Layer conv6_2_mbox_loc_flat
I0407 06:51:17.619218  1652 net.cpp:451] conv6_2_mbox_loc_flat <- conv6_2_mbox_loc_perm
I0407 06:51:17.619222  1652 net.cpp:425] conv6_2_mbox_loc_flat -> conv6_2_mbox_loc_flat
I0407 06:51:17.619256  1652 net.cpp:160] Setting up conv6_2_mbox_loc_flat
I0407 06:51:17.619259  1652 net.cpp:167] Top shape: 4 4320 (17280)
I0407 06:51:17.619263  1652 net.cpp:175] Memory required for data: 1725521920
I0407 06:51:17.619266  1652 layer_factory.hpp:93] Creating layer conv6_2_mbox_conf_new
I0407 06:51:17.619274  1652 net.cpp:110] Creating Layer conv6_2_mbox_conf_new
I0407 06:51:17.619278  1652 net.cpp:451] conv6_2_mbox_conf_new <- fc7_fc7_fixed_0_split_2
I0407 06:51:17.619283  1652 net.cpp:425] conv6_2_mbox_conf_new -> conv6_2_mbox_conf_new
I0407 06:51:17.631417  1652 layer_factory.hpp:93] Creating layer conv6_2_mbox_conf_new
I0407 06:51:17.643380  1652 net.cpp:160] Setting up conv6_2_mbox_conf_new
I0407 06:51:17.643394  1652 net.cpp:167] Top shape: 4 126 12 15 (90720)
I0407 06:51:17.643404  1652 net.cpp:175] Memory required for data: 1725884800
I0407 06:51:17.643414  1652 layer_factory.hpp:93] Creating layer conv6_2_mbox_conf_perm
I0407 06:51:17.643421  1652 net.cpp:110] Creating Layer conv6_2_mbox_conf_perm
I0407 06:51:17.643427  1652 net.cpp:451] conv6_2_mbox_conf_perm <- conv6_2_mbox_conf_new
I0407 06:51:17.643435  1652 net.cpp:425] conv6_2_mbox_conf_perm -> conv6_2_mbox_conf_perm
I0407 06:51:17.643595  1652 net.cpp:160] Setting up conv6_2_mbox_conf_perm
I0407 06:51:17.643604  1652 net.cpp:167] Top shape: 4 12 15 126 (90720)
I0407 06:51:17.643611  1652 net.cpp:175] Memory required for data: 1726247680
I0407 06:51:17.643617  1652 layer_factory.hpp:93] Creating layer conv6_2_mbox_conf_flat
I0407 06:51:17.643635  1652 net.cpp:110] Creating Layer conv6_2_mbox_conf_flat
I0407 06:51:17.643640  1652 net.cpp:451] conv6_2_mbox_conf_flat <- conv6_2_mbox_conf_perm
I0407 06:51:17.643656  1652 net.cpp:425] conv6_2_mbox_conf_flat -> conv6_2_mbox_conf_flat
I0407 06:51:17.643704  1652 net.cpp:160] Setting up conv6_2_mbox_conf_flat
I0407 06:51:17.643712  1652 net.cpp:167] Top shape: 4 22680 (90720)
I0407 06:51:17.643716  1652 net.cpp:175] Memory required for data: 1726610560
I0407 06:51:17.643719  1652 layer_factory.hpp:93] Creating layer conv6_2_mbox_priorbox
I0407 06:51:17.643731  1652 net.cpp:110] Creating Layer conv6_2_mbox_priorbox
I0407 06:51:17.643736  1652 net.cpp:451] conv6_2_mbox_priorbox <- fc7_fc7_fixed_0_split_3
I0407 06:51:17.643741  1652 net.cpp:451] conv6_2_mbox_priorbox <- data_data_fixed_0_split_3
I0407 06:51:17.643746  1652 net.cpp:425] conv6_2_mbox_priorbox -> conv6_2_mbox_priorbox
I0407 06:51:17.643786  1652 net.cpp:160] Setting up conv6_2_mbox_priorbox
I0407 06:51:17.643792  1652 net.cpp:167] Top shape: 1 2 4320 (8640)
I0407 06:51:17.643796  1652 net.cpp:175] Memory required for data: 1726645120
I0407 06:51:17.643800  1652 layer_factory.hpp:93] Creating layer conv7_2_mbox_loc
I0407 06:51:17.643808  1652 net.cpp:110] Creating Layer conv7_2_mbox_loc
I0407 06:51:17.643812  1652 net.cpp:451] conv7_2_mbox_loc <- conv6_2_conv6_2_fixed_0_split_1
I0407 06:51:17.643820  1652 net.cpp:425] conv7_2_mbox_loc -> conv7_2_mbox_loc
I0407 06:51:17.644788  1652 layer_factory.hpp:93] Creating layer conv7_2_mbox_loc
I0407 06:51:17.646000  1652 net.cpp:160] Setting up conv7_2_mbox_loc
I0407 06:51:17.646008  1652 net.cpp:167] Top shape: 4 24 6 8 (4608)
I0407 06:51:17.646013  1652 net.cpp:175] Memory required for data: 1726663552
I0407 06:51:17.646019  1652 layer_factory.hpp:93] Creating layer conv7_2_mbox_loc_perm
I0407 06:51:17.646028  1652 net.cpp:110] Creating Layer conv7_2_mbox_loc_perm
I0407 06:51:17.646031  1652 net.cpp:451] conv7_2_mbox_loc_perm <- conv7_2_mbox_loc
I0407 06:51:17.646037  1652 net.cpp:425] conv7_2_mbox_loc_perm -> conv7_2_mbox_loc_perm
I0407 06:51:17.646275  1652 net.cpp:160] Setting up conv7_2_mbox_loc_perm
I0407 06:51:17.646293  1652 net.cpp:167] Top shape: 4 6 8 24 (4608)
I0407 06:51:17.646304  1652 net.cpp:175] Memory required for data: 1726681984
I0407 06:51:17.646311  1652 layer_factory.hpp:93] Creating layer conv7_2_mbox_loc_flat
I0407 06:51:17.646340  1652 net.cpp:110] Creating Layer conv7_2_mbox_loc_flat
I0407 06:51:17.646349  1652 net.cpp:451] conv7_2_mbox_loc_flat <- conv7_2_mbox_loc_perm
I0407 06:51:17.646360  1652 net.cpp:425] conv7_2_mbox_loc_flat -> conv7_2_mbox_loc_flat
I0407 06:51:17.646443  1652 net.cpp:160] Setting up conv7_2_mbox_loc_flat
I0407 06:51:17.646453  1652 net.cpp:167] Top shape: 4 1152 (4608)
I0407 06:51:17.646461  1652 net.cpp:175] Memory required for data: 1726700416
I0407 06:51:17.646467  1652 layer_factory.hpp:93] Creating layer conv7_2_mbox_conf_new
I0407 06:51:17.646486  1652 net.cpp:110] Creating Layer conv7_2_mbox_conf_new
I0407 06:51:17.646494  1652 net.cpp:451] conv7_2_mbox_conf_new <- conv6_2_conv6_2_fixed_0_split_2
I0407 06:51:17.646505  1652 net.cpp:425] conv7_2_mbox_conf_new -> conv7_2_mbox_conf_new
I0407 06:51:17.656998  1652 layer_factory.hpp:93] Creating layer conv7_2_mbox_conf_new
I0407 06:51:17.664218  1652 net.cpp:160] Setting up conv7_2_mbox_conf_new
I0407 06:51:17.664232  1652 net.cpp:167] Top shape: 4 126 6 8 (24192)
I0407 06:51:17.664240  1652 net.cpp:175] Memory required for data: 1726797184
I0407 06:51:17.664249  1652 layer_factory.hpp:93] Creating layer conv7_2_mbox_conf_perm
I0407 06:51:17.664258  1652 net.cpp:110] Creating Layer conv7_2_mbox_conf_perm
I0407 06:51:17.664263  1652 net.cpp:451] conv7_2_mbox_conf_perm <- conv7_2_mbox_conf_new
I0407 06:51:17.664270  1652 net.cpp:425] conv7_2_mbox_conf_perm -> conv7_2_mbox_conf_perm
I0407 06:51:17.664435  1652 net.cpp:160] Setting up conv7_2_mbox_conf_perm
I0407 06:51:17.664443  1652 net.cpp:167] Top shape: 4 6 8 126 (24192)
I0407 06:51:17.664448  1652 net.cpp:175] Memory required for data: 1726893952
I0407 06:51:17.664450  1652 layer_factory.hpp:93] Creating layer conv7_2_mbox_conf_flat
I0407 06:51:17.664456  1652 net.cpp:110] Creating Layer conv7_2_mbox_conf_flat
I0407 06:51:17.664460  1652 net.cpp:451] conv7_2_mbox_conf_flat <- conv7_2_mbox_conf_perm
I0407 06:51:17.664465  1652 net.cpp:425] conv7_2_mbox_conf_flat -> conv7_2_mbox_conf_flat
I0407 06:51:17.664505  1652 net.cpp:160] Setting up conv7_2_mbox_conf_flat
I0407 06:51:17.664515  1652 net.cpp:167] Top shape: 4 6048 (24192)
I0407 06:51:17.664521  1652 net.cpp:175] Memory required for data: 1726990720
I0407 06:51:17.664525  1652 layer_factory.hpp:93] Creating layer conv7_2_mbox_priorbox
I0407 06:51:17.664532  1652 net.cpp:110] Creating Layer conv7_2_mbox_priorbox
I0407 06:51:17.664536  1652 net.cpp:451] conv7_2_mbox_priorbox <- conv6_2_conv6_2_fixed_0_split_3
I0407 06:51:17.664541  1652 net.cpp:451] conv7_2_mbox_priorbox <- data_data_fixed_0_split_4
I0407 06:51:17.664547  1652 net.cpp:425] conv7_2_mbox_priorbox -> conv7_2_mbox_priorbox
I0407 06:51:17.664590  1652 net.cpp:160] Setting up conv7_2_mbox_priorbox
I0407 06:51:17.664597  1652 net.cpp:167] Top shape: 1 2 1152 (2304)
I0407 06:51:17.664602  1652 net.cpp:175] Memory required for data: 1726999936
I0407 06:51:17.664605  1652 layer_factory.hpp:93] Creating layer conv8_2_mbox_loc
I0407 06:51:17.664616  1652 net.cpp:110] Creating Layer conv8_2_mbox_loc
I0407 06:51:17.664620  1652 net.cpp:451] conv8_2_mbox_loc <- conv7_2_conv7_2_fixed_0_split_0
I0407 06:51:17.664626  1652 net.cpp:425] conv8_2_mbox_loc -> conv8_2_mbox_loc
I0407 06:51:17.665218  1652 layer_factory.hpp:93] Creating layer conv8_2_mbox_loc
I0407 06:51:17.666070  1652 net.cpp:160] Setting up conv8_2_mbox_loc
I0407 06:51:17.666079  1652 net.cpp:167] Top shape: 4 16 3 4 (768)
I0407 06:51:17.666085  1652 net.cpp:175] Memory required for data: 1727003008
I0407 06:51:17.666091  1652 layer_factory.hpp:93] Creating layer conv8_2_mbox_loc_perm
I0407 06:51:17.666100  1652 net.cpp:110] Creating Layer conv8_2_mbox_loc_perm
I0407 06:51:17.666105  1652 net.cpp:451] conv8_2_mbox_loc_perm <- conv8_2_mbox_loc
I0407 06:51:17.666110  1652 net.cpp:425] conv8_2_mbox_loc_perm -> conv8_2_mbox_loc_perm
I0407 06:51:17.666270  1652 net.cpp:160] Setting up conv8_2_mbox_loc_perm
I0407 06:51:17.666275  1652 net.cpp:167] Top shape: 4 3 4 16 (768)
I0407 06:51:17.666280  1652 net.cpp:175] Memory required for data: 1727006080
I0407 06:51:17.666283  1652 layer_factory.hpp:93] Creating layer conv8_2_mbox_loc_flat
I0407 06:51:17.666288  1652 net.cpp:110] Creating Layer conv8_2_mbox_loc_flat
I0407 06:51:17.666292  1652 net.cpp:451] conv8_2_mbox_loc_flat <- conv8_2_mbox_loc_perm
I0407 06:51:17.666297  1652 net.cpp:425] conv8_2_mbox_loc_flat -> conv8_2_mbox_loc_flat
I0407 06:51:17.666334  1652 net.cpp:160] Setting up conv8_2_mbox_loc_flat
I0407 06:51:17.666342  1652 net.cpp:167] Top shape: 4 192 (768)
I0407 06:51:17.666350  1652 net.cpp:175] Memory required for data: 1727009152
I0407 06:51:17.666355  1652 layer_factory.hpp:93] Creating layer conv8_2_mbox_conf_new
I0407 06:51:17.666368  1652 net.cpp:110] Creating Layer conv8_2_mbox_conf_new
I0407 06:51:17.666371  1652 net.cpp:451] conv8_2_mbox_conf_new <- conv7_2_conv7_2_fixed_0_split_1
I0407 06:51:17.666380  1652 net.cpp:425] conv8_2_mbox_conf_new -> conv8_2_mbox_conf_new
I0407 06:51:17.667953  1652 layer_factory.hpp:93] Creating layer conv8_2_mbox_conf_new
I0407 06:51:17.669783  1652 net.cpp:160] Setting up conv8_2_mbox_conf_new
I0407 06:51:17.669793  1652 net.cpp:167] Top shape: 4 84 3 4 (4032)
I0407 06:51:17.669800  1652 net.cpp:175] Memory required for data: 1727025280
I0407 06:51:17.669806  1652 layer_factory.hpp:93] Creating layer conv8_2_mbox_conf_perm
I0407 06:51:17.669812  1652 net.cpp:110] Creating Layer conv8_2_mbox_conf_perm
I0407 06:51:17.669817  1652 net.cpp:451] conv8_2_mbox_conf_perm <- conv8_2_mbox_conf_new
I0407 06:51:17.669822  1652 net.cpp:425] conv8_2_mbox_conf_perm -> conv8_2_mbox_conf_perm
I0407 06:51:17.670030  1652 net.cpp:160] Setting up conv8_2_mbox_conf_perm
I0407 06:51:17.670040  1652 net.cpp:167] Top shape: 4 3 4 84 (4032)
I0407 06:51:17.670047  1652 net.cpp:175] Memory required for data: 1727041408
I0407 06:51:17.670053  1652 layer_factory.hpp:93] Creating layer conv8_2_mbox_conf_flat
I0407 06:51:17.670060  1652 net.cpp:110] Creating Layer conv8_2_mbox_conf_flat
I0407 06:51:17.670064  1652 net.cpp:451] conv8_2_mbox_conf_flat <- conv8_2_mbox_conf_perm
I0407 06:51:17.670069  1652 net.cpp:425] conv8_2_mbox_conf_flat -> conv8_2_mbox_conf_flat
I0407 06:51:17.670120  1652 net.cpp:160] Setting up conv8_2_mbox_conf_flat
I0407 06:51:17.670130  1652 net.cpp:167] Top shape: 4 1008 (4032)
I0407 06:51:17.670137  1652 net.cpp:175] Memory required for data: 1727057536
I0407 06:51:17.670142  1652 layer_factory.hpp:93] Creating layer conv8_2_mbox_priorbox
I0407 06:51:17.670151  1652 net.cpp:110] Creating Layer conv8_2_mbox_priorbox
I0407 06:51:17.670156  1652 net.cpp:451] conv8_2_mbox_priorbox <- conv7_2_conv7_2_fixed_0_split_2
I0407 06:51:17.670161  1652 net.cpp:451] conv8_2_mbox_priorbox <- data_data_fixed_0_split_5
I0407 06:51:17.670166  1652 net.cpp:425] conv8_2_mbox_priorbox -> conv8_2_mbox_priorbox
I0407 06:51:17.670207  1652 net.cpp:160] Setting up conv8_2_mbox_priorbox
I0407 06:51:17.670213  1652 net.cpp:167] Top shape: 1 2 192 (384)
I0407 06:51:17.670218  1652 net.cpp:175] Memory required for data: 1727059072
I0407 06:51:17.670222  1652 layer_factory.hpp:93] Creating layer mbox_loc
I0407 06:51:17.670228  1652 net.cpp:110] Creating Layer mbox_loc
I0407 06:51:17.670233  1652 net.cpp:451] mbox_loc <- conv4_3_norm_mbox_loc_flat
I0407 06:51:17.670238  1652 net.cpp:451] mbox_loc <- fc7_mbox_loc_flat
I0407 06:51:17.670241  1652 net.cpp:451] mbox_loc <- conv6_2_mbox_loc_flat
I0407 06:51:17.670245  1652 net.cpp:451] mbox_loc <- conv7_2_mbox_loc_flat
I0407 06:51:17.670249  1652 net.cpp:451] mbox_loc <- conv8_2_mbox_loc_flat
I0407 06:51:17.670255  1652 net.cpp:425] mbox_loc -> mbox_loc
I0407 06:51:17.670308  1652 net.cpp:160] Setting up mbox_loc
I0407 06:51:17.670318  1652 net.cpp:167] Top shape: 4 108624 (434496)
I0407 06:51:17.670328  1652 net.cpp:175] Memory required for data: 1728797056
I0407 06:51:17.670334  1652 layer_factory.hpp:93] Creating layer mbox_loc_fixed
I0407 06:51:17.670343  1652 net.cpp:110] Creating Layer mbox_loc_fixed
I0407 06:51:17.670349  1652 net.cpp:451] mbox_loc_fixed <- mbox_loc
I0407 06:51:17.670358  1652 net.cpp:412] mbox_loc_fixed -> mbox_loc (in-place)
I0407 06:51:17.670436  1652 net.cpp:160] Setting up mbox_loc_fixed
I0407 06:51:17.670446  1652 net.cpp:167] Top shape: 4 108624 (434496)
I0407 06:51:17.670454  1652 net.cpp:175] Memory required for data: 1730535040
I0407 06:51:17.670460  1652 layer_factory.hpp:93] Creating layer mbox_conf
I0407 06:51:17.670465  1652 net.cpp:110] Creating Layer mbox_conf
I0407 06:51:17.670470  1652 net.cpp:451] mbox_conf <- conv4_3_norm_mbox_conf_flat
I0407 06:51:17.670475  1652 net.cpp:451] mbox_conf <- fc7_mbox_conf_flat
I0407 06:51:17.670480  1652 net.cpp:451] mbox_conf <- conv6_2_mbox_conf_flat
I0407 06:51:17.670485  1652 net.cpp:451] mbox_conf <- conv7_2_mbox_conf_flat
I0407 06:51:17.670487  1652 net.cpp:451] mbox_conf <- conv8_2_mbox_conf_flat
I0407 06:51:17.670495  1652 net.cpp:425] mbox_conf -> mbox_conf
I0407 06:51:17.670537  1652 net.cpp:160] Setting up mbox_conf
I0407 06:51:17.670544  1652 net.cpp:167] Top shape: 4 570276 (2281104)
I0407 06:51:17.670549  1652 net.cpp:175] Memory required for data: 1739659456
I0407 06:51:17.670553  1652 layer_factory.hpp:93] Creating layer mbox_conf_fixed
I0407 06:51:17.670560  1652 net.cpp:110] Creating Layer mbox_conf_fixed
I0407 06:51:17.670564  1652 net.cpp:451] mbox_conf_fixed <- mbox_conf
I0407 06:51:17.670569  1652 net.cpp:412] mbox_conf_fixed -> mbox_conf (in-place)
I0407 06:51:17.670640  1652 net.cpp:160] Setting up mbox_conf_fixed
I0407 06:51:17.670647  1652 net.cpp:167] Top shape: 4 570276 (2281104)
I0407 06:51:17.670652  1652 net.cpp:175] Memory required for data: 1748783872
I0407 06:51:17.670657  1652 layer_factory.hpp:93] Creating layer mbox_priorbox
I0407 06:51:17.670662  1652 net.cpp:110] Creating Layer mbox_priorbox
I0407 06:51:17.670667  1652 net.cpp:451] mbox_priorbox <- conv4_3_norm_mbox_priorbox
I0407 06:51:17.670673  1652 net.cpp:451] mbox_priorbox <- fc7_mbox_priorbox
I0407 06:51:17.670677  1652 net.cpp:451] mbox_priorbox <- conv6_2_mbox_priorbox
I0407 06:51:17.670681  1652 net.cpp:451] mbox_priorbox <- conv7_2_mbox_priorbox
I0407 06:51:17.670686  1652 net.cpp:451] mbox_priorbox <- conv8_2_mbox_priorbox
I0407 06:51:17.670691  1652 net.cpp:425] mbox_priorbox -> mbox_priorbox
I0407 06:51:17.670723  1652 net.cpp:160] Setting up mbox_priorbox
I0407 06:51:17.670728  1652 net.cpp:167] Top shape: 1 2 108624 (217248)
I0407 06:51:17.670733  1652 net.cpp:175] Memory required for data: 1749652864
I0407 06:51:17.670737  1652 layer_factory.hpp:93] Creating layer mbox_priorbox_fixed
I0407 06:51:17.670744  1652 net.cpp:110] Creating Layer mbox_priorbox_fixed
I0407 06:51:17.670748  1652 net.cpp:451] mbox_priorbox_fixed <- mbox_priorbox
I0407 06:51:17.670753  1652 net.cpp:412] mbox_priorbox_fixed -> mbox_priorbox (in-place)
I0407 06:51:17.670807  1652 net.cpp:160] Setting up mbox_priorbox_fixed
I0407 06:51:17.670812  1652 net.cpp:167] Top shape: 1 2 108624 (217248)
I0407 06:51:17.670817  1652 net.cpp:175] Memory required for data: 1750521856
I0407 06:51:17.670822  1652 layer_factory.hpp:93] Creating layer mbox_conf_reshape
I0407 06:51:17.670837  1652 net.cpp:110] Creating Layer mbox_conf_reshape
I0407 06:51:17.670841  1652 net.cpp:451] mbox_conf_reshape <- mbox_conf
I0407 06:51:17.670847  1652 net.cpp:425] mbox_conf_reshape -> mbox_conf_reshape
I0407 06:51:17.670889  1652 net.cpp:160] Setting up mbox_conf_reshape
I0407 06:51:17.670895  1652 net.cpp:167] Top shape: 4 27156 21 (2281104)
I0407 06:51:17.670900  1652 net.cpp:175] Memory required for data: 1759646272
I0407 06:51:17.670903  1652 layer_factory.hpp:93] Creating layer mbox_conf_softmax
I0407 06:51:17.670909  1652 net.cpp:110] Creating Layer mbox_conf_softmax
I0407 06:51:17.670913  1652 net.cpp:451] mbox_conf_softmax <- mbox_conf_reshape
I0407 06:51:17.670918  1652 net.cpp:425] mbox_conf_softmax -> mbox_conf_softmax
I0407 06:51:17.671033  1652 net.cpp:160] Setting up mbox_conf_softmax
I0407 06:51:17.671041  1652 net.cpp:167] Top shape: 4 27156 21 (2281104)
I0407 06:51:17.671046  1652 net.cpp:175] Memory required for data: 1768770688
I0407 06:51:17.671048  1652 layer_factory.hpp:93] Creating layer mbox_conf_flatten
I0407 06:51:17.671054  1652 net.cpp:110] Creating Layer mbox_conf_flatten
I0407 06:51:17.671058  1652 net.cpp:451] mbox_conf_flatten <- mbox_conf_softmax
I0407 06:51:17.671066  1652 net.cpp:425] mbox_conf_flatten -> mbox_conf_flatten
I0407 06:51:17.671098  1652 net.cpp:160] Setting up mbox_conf_flatten
I0407 06:51:17.671103  1652 net.cpp:167] Top shape: 4 570276 (2281104)
I0407 06:51:17.671108  1652 net.cpp:175] Memory required for data: 1777895104
I0407 06:51:17.671111  1652 layer_factory.hpp:93] Creating layer detection_out
I0407 06:51:17.671128  1652 net.cpp:110] Creating Layer detection_out
I0407 06:51:17.671139  1652 net.cpp:451] detection_out <- mbox_loc
I0407 06:51:17.671145  1652 net.cpp:451] detection_out <- mbox_conf_flatten
I0407 06:51:17.671151  1652 net.cpp:451] detection_out <- mbox_priorbox
I0407 06:51:17.671159  1652 net.cpp:425] detection_out -> detection_out
I0407 06:51:17.671265  1652 net.cpp:160] Setting up detection_out
I0407 06:51:17.671274  1652 net.cpp:167] Top shape: 1 1 1 7 (7)
I0407 06:51:17.671279  1652 net.cpp:175] Memory required for data: 1777895132
I0407 06:51:17.671283  1652 layer_factory.hpp:93] Creating layer detection_eval
I0407 06:51:17.671291  1652 net.cpp:110] Creating Layer detection_eval
I0407 06:51:17.671295  1652 net.cpp:451] detection_eval <- detection_out
I0407 06:51:17.671300  1652 net.cpp:451] detection_eval <- label
I0407 06:51:17.671305  1652 net.cpp:425] detection_eval -> detection_eval
I0407 06:51:17.673139  1652 net.cpp:160] Setting up detection_eval
I0407 06:51:17.673148  1652 net.cpp:167] Top shape: 1 1 21 5 (105)
I0407 06:51:17.673153  1652 net.cpp:175] Memory required for data: 1777895552
I0407 06:51:17.673157  1652 net.cpp:238] detection_eval does not need backward computation.
I0407 06:51:17.673161  1652 net.cpp:238] detection_out does not need backward computation.
I0407 06:51:17.673166  1652 net.cpp:238] mbox_conf_flatten does not need backward computation.
I0407 06:51:17.673169  1652 net.cpp:238] mbox_conf_softmax does not need backward computation.
…
