…
I0614 09:42:23.058143   290 net.cpp:323] The NetState phase (0) differed from the phase (1) specified by a rule in layer accuracy-top1
I0614 09:42:23.058157   290 net.cpp:52] Initializing net from parameters: 
name: "alexnetBNnoLRN m2 (as m3 but less DROP and less BN)"
state {
  phase: TRAIN
}
layer {
  name: "data"
  type: "Data"
  top: "data"
  top: "label"
  include {
    phase: TRAIN
  }
  transform_param {
    mirror: true
    crop_size: 227
    mean_value: 106
    mean_value: 116
    mean_value: 124
  }
  data_param {
    source: "input/lmdb/train_lmdb"
    batch_size: 256
    backend: LMDB
  }
}
layer {
  name: "conv1"
  type: "Convolution"
  bottom: "data"
  top: "conv1"
  param {
    lr_mult: 1
    decay_mult: 1
  }
  param {
    lr_mult: 2
    decay_mult: 0
  }
  convolution_param {
    num_output: 96
    pad: 0
    kernel_size: 8
    stride: 4
    weight_filler {
      type: "gaussian"
      std: 0.01
    }
    bias_filler {
      type: "constant"
      value: 0
    }
  }
}
layer {
  name: "bn1"
  type: "BatchNorm"
  bottom: "conv1"
  top: "bn1"
  param {
    lr_mult: 0
  }
  param {
    lr_mult: 0
  }
  param {
    lr_mult: 0
  }
  batch_norm_param {
    use_global_stats: false
  }
}
layer {
  name: "relu1"
  type: "ReLU"
  bottom: "bn1"
  top: "relu1"
}
layer {
  name: "pool1"
  type: "Pooling"
  bottom: "relu1"
  top: "pool1"
  pooling_param {
    pool: MAX
    kernel_size: 3
    stride: 2
  }
}
layer {
  name: "conv2"
  type: "Convolution"
  bottom: "pool1"
  top: "conv2"
  param {
    lr_mult: 1
    decay_mult: 1
  }
  param {
    lr_mult: 2
    decay_mult: 0
  }
  convolution_param {
    num_output: 256
    pad: 2
    kernel_size: 5
    group: 1
    weight_filler {
      type: "gaussian"
      std: 0.01
    }
    bias_filler {
      type: "constant"
      value: 1
    }
  }
}
layer {
  name: "bn2"
  type: "BatchNorm"
  bottom: "conv2"
  top: "bn2"
  param {
    lr_mult: 0
  }
  param {
    lr_mult: 0
  }
  param {
    lr_mult: 0
  }
  batch_norm_param {
    use_global_stats: false
  }
}
layer {
  name: "relu2"
  type: "ReLU"
  bottom: "bn2"
  top: "relu2"
}
layer {
  name: "pool2"
  type: "Pooling"
  bottom: "relu2"
  top: "pool2"
  pooling_param {
    pool: MAX
    kernel_size: 3
    stride: 2
  }
}
layer {
  name: "conv3"
  type: "Convolution"
  bottom: "pool2"
  top: "conv3"
  param {
    lr_mult: 1
    decay_mult: 1
  }
  param {
    lr_mult: 2
    decay_mult: 0
  }
  convolution_param {
    num_output: 384
    pad: 1
    kernel_size: 3
    weight_filler {
      type: "gaussian"
      std: 0.01
    }
    bias_filler {
      type: "constant"
      value: 0
    }
  }
}
layer {
  name: "relu3"
  type: "ReLU"
  bottom: "conv3"
  top: "relu3"
}
layer {
  name: "conv4"
  type: "Convolution"
  bottom: "relu3"
  top: "conv4"
  param {
    lr_mult: 1
    decay_mult: 1
  }
  param {
    lr_mult: 2
    decay_mult: 0
  }
  convolution_param {
    num_output: 384
    pad: 1
    kernel_size: 3
    group: 1
    weight_filler {
      type: "gaussian"
      std: 0.01
    }
    bias_filler {
      type: "constant"
      value: 1
    }
  }
}
layer {
  name: "relu4"
  type: "ReLU"
  bottom: "conv4"
  top: "relu4"
}
layer {
  name: "conv5"
  type: "Convolution"
  bottom: "relu4"
  top: "conv5"
  param {
    lr_mult: 1
    decay_mult: 1
  }
  param {
    lr_mult: 2
    decay_mult: 0
  }
  convolution_param {
    num_output: 256
    pad: 1
    kernel_size: 3
    group: 1
    weight_filler {
      type: "gaussian"
      std: 0.01
    }
    bias_filler {
      type: "constant"
      value: 1
    }
  }
}
layer {
  name: "relu5"
  type: "ReLU"
  bottom: "conv5"
  top: "relu5"
}
layer {
  name: "pool5"
  type: "Pooling"
  bottom: "relu5"
  top: "pool5"
  pooling_param {
    pool: MAX
    kernel_size: 3
    stride: 2
  }
}
layer {
  name: "fc6"
  type: "InnerProduct"
  bottom: "pool5"
  top: "fc6"
  param {
    lr_mult: 1
    decay_mult: 1
  }
  param {
    lr_mult: 2
    decay_mult: 0
  }
  inner_product_param {
    num_output: 4096
    weight_filler {
      type: "gaussian"
      std: 0.005
    }
    bias_filler {
      type: "constant"
      value: 1
    }
  }
}
layer {
  name: "relu6"
  type: "ReLU"
  bottom: "fc6"
  top: "relu6"
}
layer {
  name: "drop6"
  type: "Dropout"
  bottom: "relu6"
  top: "drop6"
  dropout_param {
    dropout_ratio: 0.5
  }
}
layer {
  name: "fc7"
  type: "InnerProduct"
  bottom: "drop6"
  top: "fc7"
  param {
    lr_mult: 1
    decay_mult: 1
  }
  param {
    lr_mult: 2
    decay_mult: 0
  }
  inner_product_param {
    num_output: 4096
    weight_filler {
      type: "gaussian"
      std: 0.005
    }
    bias_filler {
      type: "constant"
      value: 1
    }
  }
}
layer {
  name: "bn7"
  type: "BatchNorm"
  bottom: "fc7"
  top: "bn7"
  param {
    lr_mult: 0
  }
  param {
    lr_mult: 0
  }
  param {
    lr_mult: 0
  }
  batch_norm_param {
    use_global_stats: false
  }
}
layer {
  name: "relu7"
  type: "ReLU"
  bottom: "bn7"
  top: "relu7"
}
layer {
  name: "drop7"
  type: "Dropout"
  bottom: "relu7"
  top: "drop7"
  dropout_param {
    dropout_ratio: 0.5
  }
}
layer {
  name: "fc8"
  type: "InnerProduct"
  bottom: "drop7"
  top: "fc8"
  param {
    lr_mult: 1
    decay_mult: 1
  }
  param {
    lr_mult: 2
    decay_mult: 0
  }
  inner_product_param {
    num_output: 2
    weight_filler {
      type: "gaussian"
      std: 0.01
    }
    bias_filler {
      type: "constant"
      value: 0
    }
  }
}
layer {
  name: "loss"
  type: "SoftmaxWithLoss"
  bottom: "fc8"
  bottom: "label"
  top: "loss"
}
I0614 09:42:23.058853   290 layer_factory.hpp:77] Creating layer data
I0614 09:42:23.059751   290 internal_thread.cpp:27] Starting internal thread(s) on GPU 0
I0614 09:42:23.062798   290 net.cpp:94] Creating Layer data
I0614 09:42:23.062830   290 net.cpp:409] data -> data
I0614 09:42:23.062860   290 net.cpp:409] data -> label
I0614 09:42:23.064149   322 db_lmdb.cpp:35] Opened lmdb input/lmdb/train_lmdb
I0614 09:42:23.064180   322 db_lmdb.cpp:38] Items count: 20000
I0614 09:42:23.064220   322 data_reader.cpp:124] TRAIN: reading data using 1 channel(s)
I0614 09:42:23.065183   290 data_layer.cpp:78] ReshapePrefetch 256, 3, 227, 227
I0614 09:42:23.065392   290 data_layer.cpp:83] output data size: 256,3,227,227
I0614 09:42:23.595611   290 internal_thread.cpp:27] Starting internal thread(s) on GPU 0
I0614 09:42:23.595762   290 net.cpp:144] Setting up data
I0614 09:42:23.595767   290 net.cpp:151] Top shape: 256 3 227 227 (39574272)
I0614 09:42:23.595777   290 net.cpp:151] Top shape: 256 (256)
I0614 09:42:23.595780   290 net.cpp:159] Memory required for data: 158298112
I0614 09:42:23.595785   290 layer_factory.hpp:77] Creating layer conv1
I0614 09:42:23.595804   290 net.cpp:94] Creating Layer conv1
I0614 09:42:23.595808   290 net.cpp:435] conv1 <- data
I0614 09:42:23.595815   290 net.cpp:409] conv1 -> conv1
I0614 09:42:23.598014   290 net.cpp:144] Setting up conv1
I0614 09:42:23.598023   290 net.cpp:151] Top shape: 256 96 55 55 (74342400)
I0614 09:42:23.598029   290 net.cpp:159] Memory required for data: 455667712
I0614 09:42:23.598038   290 layer_factory.hpp:77] Creating layer bn1
I0614 09:42:23.598062   290 net.cpp:94] Creating Layer bn1
I0614 09:42:23.598065   290 net.cpp:435] bn1 <- conv1
I0614 09:42:23.598070   290 net.cpp:409] bn1 -> bn1
I0614 09:42:23.598767   290 net.cpp:144] Setting up bn1
I0614 09:42:23.598774   290 net.cpp:151] Top shape: 256 96 55 55 (74342400)
I0614 09:42:23.598780   290 net.cpp:159] Memory required for data: 753037312
I0614 09:42:23.598790   290 layer_factory.hpp:77] Creating layer relu1
I0614 09:42:23.598796   290 net.cpp:94] Creating Layer relu1
I0614 09:42:23.598799   290 net.cpp:435] relu1 <- bn1
I0614 09:42:23.598804   290 net.cpp:409] relu1 -> relu1
I0614 09:42:23.599009   290 net.cpp:144] Setting up relu1
I0614 09:42:23.599014   290 net.cpp:151] Top shape: 256 96 55 55 (74342400)
I0614 09:42:23.599020   290 net.cpp:159] Memory required for data: 1050406912
I0614 09:42:23.599023   290 layer_factory.hpp:77] Creating layer pool1
I0614 09:42:23.599030   290 net.cpp:94] Creating Layer pool1
I0614 09:42:23.599033   290 net.cpp:435] pool1 <- relu1
I0614 09:42:23.599037   290 net.cpp:409] pool1 -> pool1
I0614 09:42:23.599053   290 net.cpp:144] Setting up pool1
I0614 09:42:23.599057   290 net.cpp:151] Top shape: 256 96 27 27 (17915904)
I0614 09:42:23.599061   290 net.cpp:159] Memory required for data: 1122070528
I0614 09:42:23.599066   290 layer_factory.hpp:77] Creating layer conv2
I0614 09:42:23.599072   290 net.cpp:94] Creating Layer conv2
I0614 09:42:23.599076   290 net.cpp:435] conv2 <- pool1
I0614 09:42:23.599081   290 net.cpp:409] conv2 -> conv2
I0614 09:42:23.613579   290 net.cpp:144] Setting up conv2
I0614 09:42:23.613596   290 net.cpp:151] Top shape: 256 256 27 27 (47775744)
I0614 09:42:23.613605   290 net.cpp:159] Memory required for data: 1313173504
I0614 09:42:23.613615   290 layer_factory.hpp:77] Creating layer bn2
I0614 09:42:23.613626   290 net.cpp:94] Creating Layer bn2
I0614 09:42:23.613631   290 net.cpp:435] bn2 <- conv2
I0614 09:42:23.613637   290 net.cpp:409] bn2 -> bn2
I0614 09:42:23.613916   290 net.cpp:144] Setting up bn2
I0614 09:42:23.613922   290 net.cpp:151] Top shape: 256 256 27 27 (47775744)
I0614 09:42:23.613929   290 net.cpp:159] Memory required for data: 1504276480
I0614 09:42:23.613937   290 layer_factory.hpp:77] Creating layer relu2
I0614 09:42:23.613942   290 net.cpp:94] Creating Layer relu2
I0614 09:42:23.613946   290 net.cpp:435] relu2 <- bn2
I0614 09:42:23.613951   290 net.cpp:409] relu2 -> relu2
I0614 09:42:23.613965   290 net.cpp:144] Setting up relu2
I0614 09:42:23.613968   290 net.cpp:151] Top shape: 256 256 27 27 (47775744)
I0614 09:42:23.613973   290 net.cpp:159] Memory required for data: 1695379456
I0614 09:42:23.613977   290 layer_factory.hpp:77] Creating layer pool2
I0614 09:42:23.613983   290 net.cpp:94] Creating Layer pool2
I0614 09:42:23.613987   290 net.cpp:435] pool2 <- relu2
I0614 09:42:23.613992   290 net.cpp:409] pool2 -> pool2
I0614 09:42:23.614007   290 net.cpp:144] Setting up pool2
I0614 09:42:23.614012   290 net.cpp:151] Top shape: 256 256 13 13 (11075584)
I0614 09:42:23.614017   290 net.cpp:159] Memory required for data: 1739681792
I0614 09:42:23.614020   290 layer_factory.hpp:77] Creating layer conv3
I0614 09:42:23.614027   290 net.cpp:94] Creating Layer conv3
I0614 09:42:23.614032   290 net.cpp:435] conv3 <- pool2
I0614 09:42:23.614037   290 net.cpp:409] conv3 -> conv3
I0614 09:42:23.627271   290 net.cpp:144] Setting up conv3
I0614 09:42:23.627298   290 net.cpp:151] Top shape: 256 384 13 13 (16613376)
I0614 09:42:23.627310   290 net.cpp:159] Memory required for data: 1806135296
I0614 09:42:23.627324   290 layer_factory.hpp:77] Creating layer relu3
I0614 09:42:23.627336   290 net.cpp:94] Creating Layer relu3
I0614 09:42:23.627341   290 net.cpp:435] relu3 <- conv3
I0614 09:42:23.627349   290 net.cpp:409] relu3 -> relu3
I0614 09:42:23.627372   290 net.cpp:144] Setting up relu3
I0614 09:42:23.627377   290 net.cpp:151] Top shape: 256 384 13 13 (16613376)
I0614 09:42:23.627382   290 net.cpp:159] Memory required for data: 1872588800
I0614 09:42:23.627384   290 layer_factory.hpp:77] Creating layer conv4
I0614 09:42:23.627416   290 net.cpp:94] Creating Layer conv4
I0614 09:42:23.627420   290 net.cpp:435] conv4 <- relu3
I0614 09:42:23.627425   290 net.cpp:409] conv4 -> conv4
I0614 09:42:23.655006   290 net.cpp:144] Setting up conv4
I0614 09:42:23.655084   290 net.cpp:151] Top shape: 256 384 13 13 (16613376)
I0614 09:42:23.655102   290 net.cpp:159] Memory required for data: 1939042304
I0614 09:42:23.655124   290 layer_factory.hpp:77] Creating layer relu4
I0614 09:42:23.655139   290 net.cpp:94] Creating Layer relu4
I0614 09:42:23.655149   290 net.cpp:435] relu4 <- conv4
I0614 09:42:23.655164   290 net.cpp:409] relu4 -> relu4
I0614 09:42:23.655220   290 net.cpp:144] Setting up relu4
I0614 09:42:23.655227   290 net.cpp:151] Top shape: 256 384 13 13 (16613376)
I0614 09:42:23.655237   290 net.cpp:159] Memory required for data: 2005495808
I0614 09:42:23.655244   290 layer_factory.hpp:77] Creating layer conv5
I0614 09:42:23.655261   290 net.cpp:94] Creating Layer conv5
I0614 09:42:23.655267   290 net.cpp:435] conv5 <- relu4
I0614 09:42:23.655277   290 net.cpp:409] conv5 -> conv5
I0614 09:42:23.692849   290 net.cpp:144] Setting up conv5
I0614 09:42:23.692881   290 net.cpp:151] Top shape: 256 256 13 13 (11075584)
I0614 09:42:23.692895   290 net.cpp:159] Memory required for data: 2049798144
I0614 09:42:23.692910   290 layer_factory.hpp:77] Creating layer relu5
I0614 09:42:23.692922   290 net.cpp:94] Creating Layer relu5
I0614 09:42:23.692931   290 net.cpp:435] relu5 <- conv5
I0614 09:42:23.692941   290 net.cpp:409] relu5 -> relu5
I0614 09:42:23.692973   290 net.cpp:144] Setting up relu5
I0614 09:42:23.692981   290 net.cpp:151] Top shape: 256 256 13 13 (11075584)
I0614 09:42:23.692987   290 net.cpp:159] Memory required for data: 2094100480
I0614 09:42:23.692993   290 layer_factory.hpp:77] Creating layer pool5
I0614 09:42:23.693002   290 net.cpp:94] Creating Layer pool5
I0614 09:42:23.693008   290 net.cpp:435] pool5 <- relu5
I0614 09:42:23.693015   290 net.cpp:409] pool5 -> pool5
I0614 09:42:23.693059   290 net.cpp:144] Setting up pool5
I0614 09:42:23.693073   290 net.cpp:151] Top shape: 256 256 6 6 (2359296)
I0614 09:42:23.693087   290 net.cpp:159] Memory required for data: 2103537664
I0614 09:42:23.693096   290 layer_factory.hpp:77] Creating layer fc6
I0614 09:42:23.694622   290 net.cpp:94] Creating Layer fc6
I0614 09:42:23.694679   290 net.cpp:435] fc6 <- pool5
I0614 09:42:23.694711   290 net.cpp:409] fc6 -> fc6
I0614 09:42:24.061004   290 net.cpp:144] Setting up fc6
I0614 09:42:24.061028   290 net.cpp:151] Top shape: 256 4096 (1048576)
I0614 09:42:24.061036   290 net.cpp:159] Memory required for data: 2107731968
I0614 09:42:24.061048   290 layer_factory.hpp:77] Creating layer relu6
I0614 09:42:24.061055   290 net.cpp:94] Creating Layer relu6
I0614 09:42:24.061059   290 net.cpp:435] relu6 <- fc6
I0614 09:42:24.061066   290 net.cpp:409] relu6 -> relu6
I0614 09:42:24.061082   290 net.cpp:144] Setting up relu6
I0614 09:42:24.061085   290 net.cpp:151] Top shape: 256 4096 (1048576)
I0614 09:42:24.061089   290 net.cpp:159] Memory required for data: 2111926272
I0614 09:42:24.061092   290 layer_factory.hpp:77] Creating layer drop6
I0614 09:42:24.061162   290 net.cpp:94] Creating Layer drop6
I0614 09:42:24.061167   290 net.cpp:435] drop6 <- relu6
I0614 09:42:24.061170   290 net.cpp:409] drop6 -> drop6
I0614 09:42:24.061185   290 net.cpp:144] Setting up drop6
I0614 09:42:24.061189   290 net.cpp:151] Top shape: 256 4096 (1048576)
I0614 09:42:24.061192   290 net.cpp:159] Memory required for data: 2116120576
I0614 09:42:24.061195   290 layer_factory.hpp:77] Creating layer fc7
I0614 09:42:24.061203   290 net.cpp:94] Creating Layer fc7
I0614 09:42:24.061205   290 net.cpp:435] fc7 <- drop6
I0614 09:42:24.061209   290 net.cpp:409] fc7 -> fc7
I0614 09:42:24.203449   290 net.cpp:144] Setting up fc7
I0614 09:42:24.203471   290 net.cpp:151] Top shape: 256 4096 (1048576)
I0614 09:42:24.203480   290 net.cpp:159] Memory required for data: 2120314880
I0614 09:42:24.203490   290 layer_factory.hpp:77] Creating layer bn7
I0614 09:42:24.203526   290 net.cpp:94] Creating Layer bn7
I0614 09:42:24.203531   290 net.cpp:435] bn7 <- fc7
I0614 09:42:24.203537   290 net.cpp:409] bn7 -> bn7
I0614 09:42:24.203799   290 net.cpp:144] Setting up bn7
I0614 09:42:24.203802   290 net.cpp:151] Top shape: 256 4096 (1048576)
I0614 09:42:24.203806   290 net.cpp:159] Memory required for data: 2124509184
I0614 09:42:24.203814   290 layer_factory.hpp:77] Creating layer relu7
I0614 09:42:24.203819   290 net.cpp:94] Creating Layer relu7
I0614 09:42:24.203822   290 net.cpp:435] relu7 <- bn7
I0614 09:42:24.203826   290 net.cpp:409] relu7 -> relu7
I0614 09:42:24.203837   290 net.cpp:144] Setting up relu7
I0614 09:42:24.203856   290 net.cpp:151] Top shape: 256 4096 (1048576)
I0614 09:42:24.203860   290 net.cpp:159] Memory required for data: 2128703488
I0614 09:42:24.203864   290 layer_factory.hpp:77] Creating layer drop7
I0614 09:42:24.203869   290 net.cpp:94] Creating Layer drop7
I0614 09:42:24.203872   290 net.cpp:435] drop7 <- relu7
I0614 09:42:24.203877   290 net.cpp:409] drop7 -> drop7
I0614 09:42:24.203891   290 net.cpp:144] Setting up drop7
I0614 09:42:24.203895   290 net.cpp:151] Top shape: 256 4096 (1048576)
I0614 09:42:24.203899   290 net.cpp:159] Memory required for data: 2132897792
I0614 09:42:24.203902   290 layer_factory.hpp:77] Creating layer fc8
I0614 09:42:24.203908   290 net.cpp:94] Creating Layer fc8
I0614 09:42:24.203912   290 net.cpp:435] fc8 <- drop7
I0614 09:42:24.203917   290 net.cpp:409] fc8 -> fc8
I0614 09:42:24.204032   290 net.cpp:144] Setting up fc8
I0614 09:42:24.204036   290 net.cpp:151] Top shape: 256 2 (512)
I0614 09:42:24.204041   290 net.cpp:159] Memory required for data: 2132899840
I0614 09:42:24.204046   290 layer_factory.hpp:77] Creating layer loss
I0614 09:42:24.205945   290 net.cpp:94] Creating Layer loss
I0614 09:42:24.205986   290 net.cpp:435] loss <- fc8
I0614 09:42:24.206003   290 net.cpp:435] loss <- label
I0614 09:42:24.206019   290 net.cpp:409] loss -> loss
I0614 09:42:24.206053   290 layer_factory.hpp:77] Creating layer loss
…
I0614 09:42:24.208214   290 net.cpp:323] The NetState phase (1) differed from the phase (0) specified by a rule in layer data
I0614 09:42:24.208258   290 net.cpp:52] Initializing net from parameters: 
name: "alexnetBNnoLRN m2 (as m3 but less DROP and less BN)"
state {
  phase: TEST
}
layer {
  name: "data"
  type: "Data"
  top: "data"
  top: "label"
  include {
    phase: TEST
  }
  transform_param {
    mirror: false
    crop_size: 227
    mean_value: 106
    mean_value: 116
    mean_value: 124
  }
  data_param {
    source: "input/lmdb/valid_lmdb"
    batch_size: 50
    backend: LMDB
  }
}
layer {
  name: "conv1"
  type: "Convolution"
  bottom: "data"
  top: "conv1"
  param {
    lr_mult: 1
    decay_mult: 1
  }
  param {
    lr_mult: 2
    decay_mult: 0
  }
  convolution_param {
    num_output: 96
    pad: 0
    kernel_size: 8
    stride: 4
    weight_filler {
      type: "gaussian"
      std: 0.01
    }
    bias_filler {
      type: "constant"
      value: 0
    }
  }
}
layer {
  name: "bn1"
  type: "BatchNorm"
  bottom: "conv1"
  top: "bn1"
  param {
    lr_mult: 0
  }
  param {
    lr_mult: 0
  }
  param {
    lr_mult: 0
  }
  batch_norm_param {
    use_global_stats: false
  }
}
layer {
  name: "relu1"
  type: "ReLU"
  bottom: "bn1"
  top: "relu1"
}
layer {
  name: "pool1"
  type: "Pooling"
  bottom: "relu1"
  top: "pool1"
  pooling_param {
    pool: MAX
    kernel_size: 3
    stride: 2
  }
}
layer {
  name: "conv2"
  type: "Convolution"
  bottom: "pool1"
  top: "conv2"
  param {
    lr_mult: 1
    decay_mult: 1
  }
  param {
    lr_mult: 2
    decay_mult: 0
  }
  convolution_param {
    num_output: 256
    pad: 2
    kernel_size: 5
    group: 1
    weight_filler {
      type: "gaussian"
      std: 0.01
    }
    bias_filler {
      type: "constant"
      value: 1
    }
  }
}
layer {
  name: "bn2"
  type: "BatchNorm"
  bottom: "conv2"
  top: "bn2"
  param {
    lr_mult: 0
  }
  param {
    lr_mult: 0
  }
  param {
    lr_mult: 0
  }
  batch_norm_param {
    use_global_stats: false
  }
}
layer {
  name: "relu2"
  type: "ReLU"
  bottom: "bn2"
  top: "relu2"
}
layer {
  name: "pool2"
  type: "Pooling"
  bottom: "relu2"
  top: "pool2"
  pooling_param {
    pool: MAX
    kernel_size: 3
    stride: 2
  }
}
layer {
  name: "conv3"
  type: "Convolution"
  bottom: "pool2"
  top: "conv3"
  param {
    lr_mult: 1
    decay_mult: 1
  }
  param {
    lr_mult: 2
    decay_mult: 0
  }
  convolution_param {
    num_output: 384
    pad: 1
    kernel_size: 3
    weight_filler {
      type: "gaussian"
      std: 0.01
    }
    bias_filler {
      type: "constant"
      value: 0
    }
  }
}
layer {
  name: "relu3"
  type: "ReLU"
  bottom: "conv3"
  top: "relu3"
}
layer {
  name: "conv4"
  type: "Convolution"
  bottom: "relu3"
  top: "conv4"
  param {
    lr_mult: 1
    decay_mult: 1
  }
  param {
    lr_mult: 2
    decay_mult: 0
  }
  convolution_param {
    num_output: 384
    pad: 1
    kernel_size: 3
    group: 1
    weight_filler {
      type: "gaussian"
      std: 0.01
    }
    bias_filler {
      type: "constant"
      value: 1
    }
  }
}
layer {
  name: "relu4"
  type: "ReLU"
  bottom: "conv4"
  top: "relu4"
}
layer {
  name: "conv5"
  type: "Convolution"
  bottom: "relu4"
  top: "conv5"
  param {
    lr_mult: 1
    decay_mult: 1
  }
  param {
    lr_mult: 2
    decay_mult: 0
  }
  convolution_param {
    num_output: 256
    pad: 1
    kernel_size: 3
    group: 1
    weight_filler {
      type: "gaussian"
      std: 0.01
    }
    bias_filler {
      type: "constant"
      value: 1
    }
  }
}
layer {
  name: "relu5"
  type: "ReLU"
  bottom: "conv5"
  top: "relu5"
}
layer {
  name: "pool5"
  type: "Pooling"
  bottom: "relu5"
  top: "pool5"
  pooling_param {
    pool: MAX
    kernel_size: 3
    stride: 2
  }
}
layer {
  name: "fc6"
  type: "InnerProduct"
  bottom: "pool5"
  top: "fc6"
  param {
    lr_mult: 1
    decay_mult: 1
  }
  param {
    lr_mult: 2
    decay_mult: 0
  }
  inner_product_param {
    num_output: 4096
    weight_filler {
      type: "gaussian"
      std: 0.005
    }
    bias_filler {
      type: "constant"
      value: 1
    }
  }
}
layer {
  name: "relu6"
  type: "ReLU"
  bottom: "fc6"
  top: "relu6"
}
layer {
  name: "drop6"
  type: "Dropout"
  bottom: "relu6"
  top: "drop6"
  dropout_param {
    dropout_ratio: 0.5
  }
}
layer {
  name: "fc7"
  type: "InnerProduct"
  bottom: "drop6"
  top: "fc7"
  param {
    lr_mult: 1
    decay_mult: 1
  }
  param {
    lr_mult: 2
    decay_mult: 0
  }
  inner_product_param {
    num_output: 4096
    weight_filler {
      type: "gaussian"
      std: 0.005
    }
    bias_filler {
      type: "constant"
      value: 1
    }
  }
}
layer {
  name: "bn7"
  type: "BatchNorm"
  bottom: "fc7"
  top: "bn7"
  param {
    lr_mult: 0
  }
  param {
    lr_mult: 0
  }
  param {
    lr_mult: 0
  }
  batch_norm_param {
    use_global_stats: false
  }
}
layer {
  name: "relu7"
  type: "ReLU"
  bottom: "bn7"
  top: "relu7"
}
layer {
  name: "drop7"
  type: "Dropout"
  bottom: "relu7"
  top: "drop7"
  dropout_param {
    dropout_ratio: 0.5
  }
}
layer {
  name: "fc8"
  type: "InnerProduct"
  bottom: "drop7"
  top: "fc8"
  param {
    lr_mult: 1
    decay_mult: 1
  }
  param {
    lr_mult: 2
    decay_mult: 0
  }
  inner_product_param {
    num_output: 2
    weight_filler {
      type: "gaussian"
      std: 0.01
    }
    bias_filler {
      type: "constant"
      value: 0
    }
  }
}
layer {
  name: "accuracy"
  type: "Accuracy"
  bottom: "fc8"
  bottom: "label"
  top: "accuracy"
  include {
    phase: TEST
  }
}
layer {
  name: "loss"
  type: "SoftmaxWithLoss"
  bottom: "fc8"
  bottom: "label"
  top: "loss"
}
layer {
  name: "accuracy-top1"
  type: "Accuracy"
  bottom: "fc8"
  bottom: "label"
  top: "top-1"
  include {
    phase: TEST
  }
}
I0614 09:42:24.208881   290 layer_factory.hpp:77] Creating layer data
I0614 09:42:24.209030   290 internal_thread.cpp:27] Starting internal thread(s) on GPU 0
I0614 09:42:24.211669   290 net.cpp:94] Creating Layer data
I0614 09:42:24.211704   290 net.cpp:409] data -> data
I0614 09:42:24.211730   290 net.cpp:409] data -> label
I0614 09:42:24.213414   352 db_lmdb.cpp:35] Opened lmdb input/lmdb/valid_lmdb
I0614 09:42:24.213447   352 db_lmdb.cpp:38] Items count: 4000
I0614 09:42:24.213486   352 data_reader.cpp:124] TEST: reading data using 1 channel(s)
I0614 09:42:24.213897   290 data_layer.cpp:78] ReshapePrefetch 50, 3, 227, 227
I0614 09:42:24.214063   290 data_layer.cpp:83] output data size: 50,3,227,227
I0614 09:42:24.336346   290 internal_thread.cpp:27] Starting internal thread(s) on GPU 0
I0614 09:42:24.336573   290 net.cpp:144] Setting up data
I0614 09:42:24.336582   290 net.cpp:151] Top shape: 50 3 227 227 (7729350)
I0614 09:42:24.336608   290 net.cpp:151] Top shape: 50 (50)
I0614 09:42:24.336612   290 net.cpp:159] Memory required for data: 30917600
I0614 09:42:24.336618   290 layer_factory.hpp:77] Creating layer label_data_1_split
I0614 09:42:24.336630   290 net.cpp:94] Creating Layer label_data_1_split
I0614 09:42:24.336635   290 net.cpp:435] label_data_1_split <- label
I0614 09:42:24.336642   290 net.cpp:409] label_data_1_split -> label_data_1_split_0
I0614 09:42:24.336652   290 net.cpp:409] label_data_1_split -> label_data_1_split_1
I0614 09:42:24.336658   290 net.cpp:409] label_data_1_split -> label_data_1_split_2
I0614 09:42:24.336700   290 net.cpp:144] Setting up label_data_1_split
I0614 09:42:24.336704   290 net.cpp:151] Top shape: 50 (50)
I0614 09:42:24.336709   290 net.cpp:151] Top shape: 50 (50)
I0614 09:42:24.336711   290 net.cpp:151] Top shape: 50 (50)
I0614 09:42:24.336715   290 net.cpp:159] Memory required for data: 30918200
I0614 09:42:24.336719   290 layer_factory.hpp:77] Creating layer conv1
I0614 09:42:24.336730   290 net.cpp:94] Creating Layer conv1
I0614 09:42:24.336761   290 net.cpp:435] conv1 <- data
I0614 09:42:24.336768   290 net.cpp:409] conv1 -> conv1
I0614 09:42:24.337412   290 net.cpp:144] Setting up conv1
I0614 09:42:24.337432   290 net.cpp:151] Top shape: 50 96 55 55 (14520000)
I0614 09:42:24.337443   290 net.cpp:159] Memory required for data: 88998200
I0614 09:42:24.337460   290 layer_factory.hpp:77] Creating layer bn1
I0614 09:42:24.337472   290 net.cpp:94] Creating Layer bn1
I0614 09:42:24.337478   290 net.cpp:435] bn1 <- conv1
I0614 09:42:24.337487   290 net.cpp:409] bn1 -> bn1
I0614 09:42:24.338073   290 net.cpp:144] Setting up bn1
I0614 09:42:24.338089   290 net.cpp:151] Top shape: 50 96 55 55 (14520000)
I0614 09:42:24.338101   290 net.cpp:159] Memory required for data: 147078200
I0614 09:42:24.338120   290 layer_factory.hpp:77] Creating layer relu1
I0614 09:42:24.338133   290 net.cpp:94] Creating Layer relu1
I0614 09:42:24.338141   290 net.cpp:435] relu1 <- bn1
I0614 09:42:24.338151   290 net.cpp:409] relu1 -> relu1
I0614 09:42:24.338176   290 net.cpp:144] Setting up relu1
I0614 09:42:24.338184   290 net.cpp:151] Top shape: 50 96 55 55 (14520000)
I0614 09:42:24.338194   290 net.cpp:159] Memory required for data: 205158200
I0614 09:42:24.338202   290 layer_factory.hpp:77] Creating layer pool1
I0614 09:42:24.338213   290 net.cpp:94] Creating Layer pool1
I0614 09:42:24.338223   290 net.cpp:435] pool1 <- relu1
I0614 09:42:24.338238   290 net.cpp:409] pool1 -> pool1
I0614 09:42:24.338276   290 net.cpp:144] Setting up pool1
I0614 09:42:24.338286   290 net.cpp:151] Top shape: 50 96 27 27 (3499200)
I0614 09:42:24.338296   290 net.cpp:159] Memory required for data: 219155000
I0614 09:42:24.338306   290 layer_factory.hpp:77] Creating layer conv2
I0614 09:42:24.338325   290 net.cpp:94] Creating Layer conv2
I0614 09:42:24.338332   290 net.cpp:435] conv2 <- pool1
I0614 09:42:24.338343   290 net.cpp:409] conv2 -> conv2
I0614 09:42:24.355237   290 net.cpp:144] Setting up conv2
I0614 09:42:24.355295   290 net.cpp:151] Top shape: 50 256 27 27 (9331200)
I0614 09:42:24.355325   290 net.cpp:159] Memory required for data: 256479800
I0614 09:42:24.355362   290 layer_factory.hpp:77] Creating layer bn2
I0614 09:42:24.355396   290 net.cpp:94] Creating Layer bn2
I0614 09:42:24.355417   290 net.cpp:435] bn2 <- conv2
I0614 09:42:24.355441   290 net.cpp:409] bn2 -> bn2
I0614 09:42:24.356727   290 net.cpp:144] Setting up bn2
I0614 09:42:24.356766   290 net.cpp:151] Top shape: 50 256 27 27 (9331200)
I0614 09:42:24.356793   290 net.cpp:159] Memory required for data: 293804600
I0614 09:42:24.356833   290 layer_factory.hpp:77] Creating layer relu2
I0614 09:42:24.356860   290 net.cpp:94] Creating Layer relu2
I0614 09:42:24.356878   290 net.cpp:435] relu2 <- bn2
I0614 09:42:24.356900   290 net.cpp:409] relu2 -> relu2
I0614 09:42:24.356951   290 net.cpp:144] Setting up relu2
I0614 09:42:24.356968   290 net.cpp:151] Top shape: 50 256 27 27 (9331200)
I0614 09:42:24.356990   290 net.cpp:159] Memory required for data: 331129400
I0614 09:42:24.357007   290 layer_factory.hpp:77] Creating layer pool2
I0614 09:42:24.357028   290 net.cpp:94] Creating Layer pool2
I0614 09:42:24.357045   290 net.cpp:435] pool2 <- relu2
I0614 09:42:24.357065   290 net.cpp:409] pool2 -> pool2
I0614 09:42:24.357133   290 net.cpp:144] Setting up pool2
I0614 09:42:24.357149   290 net.cpp:151] Top shape: 50 256 13 13 (2163200)
I0614 09:42:24.357172   290 net.cpp:159] Memory required for data: 339782200
I0614 09:42:24.357188   290 layer_factory.hpp:77] Creating layer conv3
I0614 09:42:24.357220   290 net.cpp:94] Creating Layer conv3
I0614 09:42:24.357234   290 net.cpp:435] conv3 <- pool2
I0614 09:42:24.357254   290 net.cpp:409] conv3 -> conv3
I0614 09:42:24.382601   290 net.cpp:144] Setting up conv3
I0614 09:42:24.382637   290 net.cpp:151] Top shape: 50 384 13 13 (3244800)
I0614 09:42:24.382653   290 net.cpp:159] Memory required for data: 352761400
I0614 09:42:24.382670   290 layer_factory.hpp:77] Creating layer relu3
I0614 09:42:24.382683   290 net.cpp:94] Creating Layer relu3
I0614 09:42:24.382694   290 net.cpp:435] relu3 <- conv3
I0614 09:42:24.382741   290 net.cpp:409] relu3 -> relu3
I0614 09:42:24.382787   290 net.cpp:144] Setting up relu3
I0614 09:42:24.382794   290 net.cpp:151] Top shape: 50 384 13 13 (3244800)
I0614 09:42:24.382805   290 net.cpp:159] Memory required for data: 365740600
I0614 09:42:24.382812   290 layer_factory.hpp:77] Creating layer conv4
I0614 09:42:24.382828   290 net.cpp:94] Creating Layer conv4
I0614 09:42:24.382835   290 net.cpp:435] conv4 <- relu3
I0614 09:42:24.382844   290 net.cpp:409] conv4 -> conv4
I0614 09:42:24.399967   290 net.cpp:144] Setting up conv4
I0614 09:42:24.399996   290 net.cpp:151] Top shape: 50 384 13 13 (3244800)
I0614 09:42:24.400007   290 net.cpp:159] Memory required for data: 378719800
I0614 09:42:24.400020   290 layer_factory.hpp:77] Creating layer relu4
I0614 09:42:24.400036   290 net.cpp:94] Creating Layer relu4
I0614 09:42:24.400045   290 net.cpp:435] relu4 <- conv4
I0614 09:42:24.400058   290 net.cpp:409] relu4 -> relu4
I0614 09:42:24.400099   290 net.cpp:144] Setting up relu4
I0614 09:42:24.400106   290 net.cpp:151] Top shape: 50 384 13 13 (3244800)
I0614 09:42:24.400113   290 net.cpp:159] Memory required for data: 391699000
I0614 09:42:24.400120   290 layer_factory.hpp:77] Creating layer conv5
I0614 09:42:24.400130   290 net.cpp:94] Creating Layer conv5
I0614 09:42:24.400139   290 net.cpp:435] conv5 <- relu4
I0614 09:42:24.400148   290 net.cpp:409] conv5 -> conv5
I0614 09:42:24.410166   290 net.cpp:144] Setting up conv5
I0614 09:42:24.410187   290 net.cpp:151] Top shape: 50 256 13 13 (2163200)
I0614 09:42:24.410197   290 net.cpp:159] Memory required for data: 400351800
I0614 09:42:24.410209   290 layer_factory.hpp:77] Creating layer relu5
I0614 09:42:24.410223   290 net.cpp:94] Creating Layer relu5
I0614 09:42:24.410231   290 net.cpp:435] relu5 <- conv5
I0614 09:42:24.410241   290 net.cpp:409] relu5 -> relu5
I0614 09:42:24.410264   290 net.cpp:144] Setting up relu5
I0614 09:42:24.410269   290 net.cpp:151] Top shape: 50 256 13 13 (2163200)
I0614 09:42:24.410276   290 net.cpp:159] Memory required for data: 409004600
I0614 09:42:24.410280   290 layer_factory.hpp:77] Creating layer pool5
I0614 09:42:24.410287   290 net.cpp:94] Creating Layer pool5
I0614 09:42:24.410291   290 net.cpp:435] pool5 <- relu5
I0614 09:42:24.410296   290 net.cpp:409] pool5 -> pool5
I0614 09:42:24.410315   290 net.cpp:144] Setting up pool5
I0614 09:42:24.410318   290 net.cpp:151] Top shape: 50 256 6 6 (460800)
I0614 09:42:24.410323   290 net.cpp:159] Memory required for data: 410847800
I0614 09:42:24.410327   290 layer_factory.hpp:77] Creating layer fc6
I0614 09:42:24.410334   290 net.cpp:94] Creating Layer fc6
I0614 09:42:24.410338   290 net.cpp:435] fc6 <- pool5
I0614 09:42:24.410343   290 net.cpp:409] fc6 -> fc6
I0614 09:42:24.733614   290 net.cpp:144] Setting up fc6
I0614 09:42:24.733639   290 net.cpp:151] Top shape: 50 4096 (204800)
I0614 09:42:24.733649   290 net.cpp:159] Memory required for data: 411667000
I0614 09:42:24.733659   290 layer_factory.hpp:77] Creating layer relu6
I0614 09:42:24.733667   290 net.cpp:94] Creating Layer relu6
I0614 09:42:24.733673   290 net.cpp:435] relu6 <- fc6
I0614 09:42:24.733680   290 net.cpp:409] relu6 -> relu6
I0614 09:42:24.733711   290 net.cpp:144] Setting up relu6
I0614 09:42:24.733716   290 net.cpp:151] Top shape: 50 4096 (204800)
I0614 09:42:24.733721   290 net.cpp:159] Memory required for data: 412486200
I0614 09:42:24.733723   290 layer_factory.hpp:77] Creating layer drop6
I0614 09:42:24.733729   290 net.cpp:94] Creating Layer drop6
I0614 09:42:24.733732   290 net.cpp:435] drop6 <- relu6
I0614 09:42:24.733736   290 net.cpp:409] drop6 -> drop6
I0614 09:42:24.733752   290 net.cpp:144] Setting up drop6
I0614 09:42:24.733754   290 net.cpp:151] Top shape: 50 4096 (204800)
I0614 09:42:24.733757   290 net.cpp:159] Memory required for data: 413305400
I0614 09:42:24.733760   290 layer_factory.hpp:77] Creating layer fc7
I0614 09:42:24.733768   290 net.cpp:94] Creating Layer fc7
I0614 09:42:24.733772   290 net.cpp:435] fc7 <- drop6
I0614 09:42:24.733778   290 net.cpp:409] fc7 -> fc7
I0614 09:42:24.875452   290 net.cpp:144] Setting up fc7
I0614 09:42:24.875478   290 net.cpp:151] Top shape: 50 4096 (204800)
I0614 09:42:24.875488   290 net.cpp:159] Memory required for data: 414124600
I0614 09:42:24.875500   290 layer_factory.hpp:77] Creating layer bn7
I0614 09:42:24.875516   290 net.cpp:94] Creating Layer bn7
I0614 09:42:24.875524   290 net.cpp:435] bn7 <- fc7
I0614 09:42:24.875531   290 net.cpp:409] bn7 -> bn7
I0614 09:42:24.875841   290 net.cpp:144] Setting up bn7
I0614 09:42:24.875846   290 net.cpp:151] Top shape: 50 4096 (204800)
I0614 09:42:24.875852   290 net.cpp:159] Memory required for data: 414943800
I0614 09:42:24.875860   290 layer_factory.hpp:77] Creating layer relu7
I0614 09:42:24.875866   290 net.cpp:94] Creating Layer relu7
I0614 09:42:24.875869   290 net.cpp:435] relu7 <- bn7
I0614 09:42:24.875874   290 net.cpp:409] relu7 -> relu7
I0614 09:42:24.875903   290 net.cpp:144] Setting up relu7
I0614 09:42:24.875910   290 net.cpp:151] Top shape: 50 4096 (204800)
I0614 09:42:24.875916   290 net.cpp:159] Memory required for data: 415763000
I0614 09:42:24.875921   290 layer_factory.hpp:77] Creating layer drop7
I0614 09:42:24.875927   290 net.cpp:94] Creating Layer drop7
I0614 09:42:24.875931   290 net.cpp:435] drop7 <- relu7
I0614 09:42:24.875936   290 net.cpp:409] drop7 -> drop7
I0614 09:42:24.875954   290 net.cpp:144] Setting up drop7
I0614 09:42:24.875958   290 net.cpp:151] Top shape: 50 4096 (204800)
I0614 09:42:24.875963   290 net.cpp:159] Memory required for data: 416582200
I0614 09:42:24.875967   290 layer_factory.hpp:77] Creating layer fc8
I0614 09:42:24.875973   290 net.cpp:94] Creating Layer fc8
I0614 09:42:24.875977   290 net.cpp:435] fc8 <- drop7
I0614 09:42:24.875982   290 net.cpp:409] fc8 -> fc8
I0614 09:42:24.876113   290 net.cpp:144] Setting up fc8
I0614 09:42:24.876118   290 net.cpp:151] Top shape: 50 2 (100)
I0614 09:42:24.876123   290 net.cpp:159] Memory required for data: 416582600
I0614 09:42:24.876129   290 layer_factory.hpp:77] Creating layer fc8_fc8_0_split
I0614 09:42:24.876137   290 net.cpp:94] Creating Layer fc8_fc8_0_split
I0614 09:42:24.876140   290 net.cpp:435] fc8_fc8_0_split <- fc8
I0614 09:42:24.876145   290 net.cpp:409] fc8_fc8_0_split -> fc8_fc8_0_split_0
I0614 09:42:24.876152   290 net.cpp:409] fc8_fc8_0_split -> fc8_fc8_0_split_1
I0614 09:42:24.876156   290 net.cpp:409] fc8_fc8_0_split -> fc8_fc8_0_split_2
I0614 09:42:24.876176   290 net.cpp:144] Setting up fc8_fc8_0_split
I0614 09:42:24.876179   290 net.cpp:151] Top shape: 50 2 (100)
I0614 09:42:24.876184   290 net.cpp:151] Top shape: 50 2 (100)
I0614 09:42:24.876189   290 net.cpp:151] Top shape: 50 2 (100)
I0614 09:42:24.876195   290 net.cpp:159] Memory required for data: 416583800
I0614 09:42:24.876200   290 layer_factory.hpp:77] Creating layer accuracy
I0614 09:42:24.876209   290 net.cpp:94] Creating Layer accuracy
I0614 09:42:24.876212   290 net.cpp:435] accuracy <- fc8_fc8_0_split_0
I0614 09:42:24.876216   290 net.cpp:435] accuracy <- label_data_1_split_0
I0614 09:42:24.876221   290 net.cpp:409] accuracy -> accuracy
…
WARNING: Logging before InitGoogleLogging() is written to STDERR
I0614 11:07:42.122509   413 gpu_memory.cpp:53] GPUMemory::Manager initialized with Caching (CUB) GPU Allocator
I0614 11:07:42.122534   413 gpu_memory.cpp:55] Total memory: 25635127296, Free: 24673189888, dev_info[0]: total=25635127296 free=24673189888
I0614 11:07:42.127949   413 net.cpp:52] Initializing net from parameters: 
name: "AlexNet_BNnoLRN m2 deploy"
state {
  phase: TEST
}
layer {
  name: "data"
  type: "Input"
  top: "data"
  input_param {
    shape {
      dim: 1
      dim: 3
      dim: 227
      dim: 227
    }
  }
}
layer {
  name: "conv1"
  type: "Convolution"
  bottom: "data"
  top: "conv1"
  param {
    lr_mult: 1
    decay_mult: 1
  }
  param {
    lr_mult: 2
    decay_mult: 0
  }
  convolution_param {
    num_output: 96
    pad: 0
    kernel_size: 8
    stride: 4
    weight_filler {
      type: "gaussian"
      std: 0.01
    }
    bias_filler {
      type: "constant"
      value: 0
    }
  }
}
layer {
  name: "bn1"
  type: "BatchNorm"
  bottom: "conv1"
  top: "bn1"
  param {
    lr_mult: 0
  }
  param {
    lr_mult: 0
  }
  param {
    lr_mult: 0
  }
  batch_norm_param {
    use_global_stats: true
  }
}
layer {
  name: "relu1"
  type: "ReLU"
  bottom: "bn1"
  top: "relu1"
}
layer {
  name: "pool1"
  type: "Pooling"
  bottom: "relu1"
  top: "pool1"
  pooling_param {
    pool: MAX
    kernel_size: 3
    stride: 2
  }
}
layer {
  name: "conv2"
  type: "Convolution"
  bottom: "pool1"
  top: "conv2"
  param {
    lr_mult: 1
    decay_mult: 1
  }
  param {
    lr_mult: 2
    decay_mult: 0
  }
  convolution_param {
    num_output: 256
    pad: 2
    kernel_size: 5
    group: 1
    weight_filler {
      type: "gaussian"
      std: 0.01
    }
    bias_filler {
      type: "constant"
      value: 1
    }
  }
}
layer {
  name: "bn2"
  type: "BatchNorm"
  bottom: "conv2"
  top: "bn2"
  param {
    lr_mult: 0
  }
  param {
    lr_mult: 0
  }
  param {
    lr_mult: 0
  }
  batch_norm_param {
    use_global_stats: true
  }
}
layer {
  name: "relu2"
  type: "ReLU"
  bottom: "bn2"
  top: "relu2"
}
layer {
  name: "pool2"
  type: "Pooling"
  bottom: "relu2"
  top: "pool2"
  pooling_param {
    pool: MAX
    kernel_size: 3
    stride: 2
  }
}
layer {
  name: "conv3"
  type: "Convolution"
  bottom: "pool2"
  top: "conv3"
  param {
    lr_mult: 1
    decay_mult: 1
  }
  param {
    lr_mult: 2
    decay_mult: 0
  }
  convolution_param {
    num_output: 384
    pad: 1
    kernel_size: 3
    weight_filler {
      type: "gaussian"
      std: 0.01
    }
    bias_filler {
      type: "constant"
      value: 0
    }
  }
}
layer {
  name: "relu3"
  type: "ReLU"
  bottom: "conv3"
  top: "relu3"
}
layer {
  name: "conv4"
  type: "Convolution"
  bottom: "relu3"
  top: "conv4"
  param {
    lr_mult: 1
    decay_mult: 1
  }
  param {
    lr_mult: 2
    decay_mult: 0
  }
  convolution_param {
    num_output: 384
    pad: 1
    kernel_size: 3
    group: 1
    weight_filler {
      type: "gaussian"
      std: 0.01
    }
    bias_filler {
      type: "constant"
      value: 1
    }
  }
}
layer {
  name: "relu4"
  type: "ReLU"
  bottom: "conv4"
  top: "relu4"
}
layer {
  name: "conv5"
  type: "Convolution"
  bottom: "relu4"
  top: "conv5"
  param {
    lr_mult: 1
    decay_mult: 1
  }
  param {
    lr_mult: 2
    decay_mult: 0
  }
  convolution_param {
    num_output: 256
    pad: 1
    kernel_size: 3
    group: 1
    weight_filler {
      type: "gaussian"
      std: 0.01
    }
    bias_filler {
      type: "constant"
      value: 1
    }
  }
}
layer {
  name: "relu5"
  type: "ReLU"
  bottom: "conv5"
  top: "relu5"
}
layer {
  name: "pool5"
  type: "Pooling"
  bottom: "relu5"
  top: "pool5"
  pooling_param {
    pool: MAX
    kernel_size: 3
    stride: 2
  }
}
layer {
  name: "fc6"
  type: "InnerProduct"
  bottom: "pool5"
  top: "fc6"
  param {
    lr_mult: 1
    decay_mult: 1
  }
  param {
    lr_mult: 2
    decay_mult: 0
  }
  inner_product_param {
    num_output: 4096
    weight_filler {
      type: "gaussian"
      std: 0.005
    }
    bias_filler {
      type: "constant"
      value: 1
    }
  }
}
layer {
  name: "relu6"
  type: "ReLU"
  bottom: "fc6"
  top: "relu6"
}
layer {
  name: "drop6"
  type: "Dropout"
  bottom: "relu6"
  top: "drop6"
  dropout_param {
    dropout_ratio: 0.5
  }
}
layer {
  name: "fc7"
  type: "InnerProduct"
  bottom: "drop6"
  top: "fc7"
  param {
    lr_mult: 1
    decay_mult: 1
  }
  param {
    lr_mult: 2
    decay_mult: 0
  }
  inner_product_param {
    num_output: 4096
    weight_filler {
      type: "gaussian"
      std: 0.005
    }
    bias_filler {
      type: "constant"
      value: 1
    }
  }
}
layer {
  name: "bn7"
  type: "BatchNorm"
  bottom: "fc7"
  top: "bn7"
  param {
    lr_mult: 0
  }
  param {
    lr_mult: 0
  }
  param {
    lr_mult: 0
  }
  batch_norm_param {
    use_global_stats: true
  }
}
layer {
  name: "relu7"
  type: "ReLU"
  bottom: "bn7"
  top: "relu7"
}
layer {
  name: "drop7"
  type: "Dropout"
  bottom: "relu7"
  top: "drop7"
  dropout_param {
    dropout_ratio: 0.5
  }
}
layer {
  name: "fc8"
  type: "InnerProduct"
  bottom: "drop7"
  top: "fc8"
  param {
    lr_mult: 1
    decay_mult: 1
  }
  param {
    lr_mult: 2
    decay_mult: 0
  }
  inner_product_param {
    num_output: 2
    weight_filler {
      type: "gaussian"
      std: 0.01
    }
    bias_filler {
      type: "constant"
      value: 0
    }
  }
}
layer {
  name: "prob"
  type: "Softmax"
  bottom: "fc8"
  top: "prob"
}
I0614 11:07:42.128103   413 layer_factory.hpp:77] Creating layer data
I0614 11:07:42.128113   413 net.cpp:94] Creating Layer data
I0614 11:07:42.128118   413 net.cpp:409] data -> data
I0614 11:07:42.128152   413 net.cpp:144] Setting up data
I0614 11:07:42.128155   413 net.cpp:151] Top shape: 1 3 227 227 (154587)
I0614 11:07:42.128161   413 net.cpp:159] Memory required for data: 618348
I0614 11:07:42.128165   413 layer_factory.hpp:77] Creating layer conv1
I0614 11:07:42.128173   413 net.cpp:94] Creating Layer conv1
I0614 11:07:42.128175   413 net.cpp:435] conv1 <- data
I0614 11:07:42.128180   413 net.cpp:409] conv1 -> conv1
I0614 11:07:42.128504   413 net.cpp:144] Setting up conv1
I0614 11:07:42.128508   413 net.cpp:151] Top shape: 1 96 55 55 (290400)
I0614 11:07:42.128513   413 net.cpp:159] Memory required for data: 1779948
I0614 11:07:42.128521   413 layer_factory.hpp:77] Creating layer bn1
I0614 11:07:42.128528   413 net.cpp:94] Creating Layer bn1
I0614 11:07:42.128531   413 net.cpp:435] bn1 <- conv1
I0614 11:07:42.128535   413 net.cpp:409] bn1 -> bn1
I0614 11:07:42.128824   413 net.cpp:144] Setting up bn1
I0614 11:07:42.128831   413 net.cpp:151] Top shape: 1 96 55 55 (290400)
I0614 11:07:42.128836   413 net.cpp:159] Memory required for data: 2941548
I0614 11:07:42.128844   413 layer_factory.hpp:77] Creating layer relu1
I0614 11:07:42.128849   413 net.cpp:94] Creating Layer relu1
I0614 11:07:42.128852   413 net.cpp:435] relu1 <- bn1
I0614 11:07:42.128856   413 net.cpp:409] relu1 -> relu1
I0614 11:07:42.128875   413 net.cpp:144] Setting up relu1
I0614 11:07:42.128877   413 net.cpp:151] Top shape: 1 96 55 55 (290400)
I0614 11:07:42.128881   413 net.cpp:159] Memory required for data: 4103148
I0614 11:07:42.128885   413 layer_factory.hpp:77] Creating layer pool1
I0614 11:07:42.128890   413 net.cpp:94] Creating Layer pool1
I0614 11:07:42.128892   413 net.cpp:435] pool1 <- relu1
I0614 11:07:42.128895   413 net.cpp:409] pool1 -> pool1
I0614 11:07:42.128913   413 net.cpp:144] Setting up pool1
I0614 11:07:42.128916   413 net.cpp:151] Top shape: 1 96 27 27 (69984)
I0614 11:07:42.128921   413 net.cpp:159] Memory required for data: 4383084
I0614 11:07:42.128923   413 layer_factory.hpp:77] Creating layer conv2
I0614 11:07:42.128930   413 net.cpp:94] Creating Layer conv2
I0614 11:07:42.128933   413 net.cpp:435] conv2 <- pool1
I0614 11:07:42.128937   413 net.cpp:409] conv2 -> conv2
I0614 11:07:42.135273   413 net.cpp:144] Setting up conv2
I0614 11:07:42.135285   413 net.cpp:151] Top shape: 1 256 27 27 (186624)
I0614 11:07:42.135293   413 net.cpp:159] Memory required for data: 5129580
I0614 11:07:42.135300   413 layer_factory.hpp:77] Creating layer bn2
I0614 11:07:42.135308   413 net.cpp:94] Creating Layer bn2
I0614 11:07:42.135311   413 net.cpp:435] bn2 <- conv2
I0614 11:07:42.135316   413 net.cpp:409] bn2 -> bn2
I0614 11:07:42.135572   413 net.cpp:144] Setting up bn2
I0614 11:07:42.135576   413 net.cpp:151] Top shape: 1 256 27 27 (186624)
I0614 11:07:42.135581   413 net.cpp:159] Memory required for data: 5876076
I0614 11:07:42.135587   413 layer_factory.hpp:77] Creating layer relu2
I0614 11:07:42.135592   413 net.cpp:94] Creating Layer relu2
I0614 11:07:42.135596   413 net.cpp:435] relu2 <- bn2
I0614 11:07:42.135599   413 net.cpp:409] relu2 -> relu2
I0614 11:07:42.135608   413 net.cpp:144] Setting up relu2
I0614 11:07:42.135612   413 net.cpp:151] Top shape: 1 256 27 27 (186624)
I0614 11:07:42.135617   413 net.cpp:159] Memory required for data: 6622572
I0614 11:07:42.135619   413 layer_factory.hpp:77] Creating layer pool2
I0614 11:07:42.135625   413 net.cpp:94] Creating Layer pool2
I0614 11:07:42.135628   413 net.cpp:435] pool2 <- relu2
I0614 11:07:42.135632   413 net.cpp:409] pool2 -> pool2
I0614 11:07:42.135648   413 net.cpp:144] Setting up pool2
I0614 11:07:42.135650   413 net.cpp:151] Top shape: 1 256 13 13 (43264)
I0614 11:07:42.135654   413 net.cpp:159] Memory required for data: 6795628
I0614 11:07:42.135658   413 layer_factory.hpp:77] Creating layer conv3
I0614 11:07:42.135665   413 net.cpp:94] Creating Layer conv3
I0614 11:07:42.135668   413 net.cpp:435] conv3 <- pool2
I0614 11:07:42.135672   413 net.cpp:409] conv3 -> conv3
I0614 11:07:42.144655   413 net.cpp:144] Setting up conv3
I0614 11:07:42.144666   413 net.cpp:151] Top shape: 1 384 13 13 (64896)
I0614 11:07:42.144672   413 net.cpp:159] Memory required for data: 7055212
I0614 11:07:42.144678   413 layer_factory.hpp:77] Creating layer relu3
I0614 11:07:42.144686   413 net.cpp:94] Creating Layer relu3
I0614 11:07:42.144690   413 net.cpp:435] relu3 <- conv3
I0614 11:07:42.144695   413 net.cpp:409] relu3 -> relu3
I0614 11:07:42.144707   413 net.cpp:144] Setting up relu3
I0614 11:07:42.144711   413 net.cpp:151] Top shape: 1 384 13 13 (64896)
I0614 11:07:42.144714   413 net.cpp:159] Memory required for data: 7314796
I0614 11:07:42.144716   413 layer_factory.hpp:77] Creating layer conv4
I0614 11:07:42.144723   413 net.cpp:94] Creating Layer conv4
I0614 11:07:42.144726   413 net.cpp:435] conv4 <- relu3
I0614 11:07:42.144730   413 net.cpp:409] conv4 -> conv4
I0614 11:07:42.156183   413 net.cpp:144] Setting up conv4
I0614 11:07:42.156193   413 net.cpp:151] Top shape: 1 384 13 13 (64896)
I0614 11:07:42.156199   413 net.cpp:159] Memory required for data: 7574380
I0614 11:07:42.156208   413 layer_factory.hpp:77] Creating layer relu4
I0614 11:07:42.156214   413 net.cpp:94] Creating Layer relu4
I0614 11:07:42.156219   413 net.cpp:435] relu4 <- conv4
I0614 11:07:42.156221   413 net.cpp:409] relu4 -> relu4
I0614 11:07:42.156234   413 net.cpp:144] Setting up relu4
I0614 11:07:42.156236   413 net.cpp:151] Top shape: 1 384 13 13 (64896)
I0614 11:07:42.156240   413 net.cpp:159] Memory required for data: 7833964
I0614 11:07:42.156242   413 layer_factory.hpp:77] Creating layer conv5
I0614 11:07:42.156250   413 net.cpp:94] Creating Layer conv5
I0614 11:07:42.156253   413 net.cpp:435] conv5 <- relu4
I0614 11:07:42.156256   413 net.cpp:409] conv5 -> conv5
I0614 11:07:42.164125   413 net.cpp:144] Setting up conv5
I0614 11:07:42.164136   413 net.cpp:151] Top shape: 1 256 13 13 (43264)
I0614 11:07:42.164142   413 net.cpp:159] Memory required for data: 8007020
I0614 11:07:42.164147   413 layer_factory.hpp:77] Creating layer relu5
I0614 11:07:42.164153   413 net.cpp:94] Creating Layer relu5
I0614 11:07:42.164156   413 net.cpp:435] relu5 <- conv5
I0614 11:07:42.164160   413 net.cpp:409] relu5 -> relu5
I0614 11:07:42.164172   413 net.cpp:144] Setting up relu5
I0614 11:07:42.164175   413 net.cpp:151] Top shape: 1 256 13 13 (43264)
I0614 11:07:42.164178   413 net.cpp:159] Memory required for data: 8180076
I0614 11:07:42.164181   413 layer_factory.hpp:77] Creating layer pool5
I0614 11:07:42.164187   413 net.cpp:94] Creating Layer pool5
I0614 11:07:42.164191   413 net.cpp:435] pool5 <- relu5
I0614 11:07:42.164193   413 net.cpp:409] pool5 -> pool5
I0614 11:07:42.164207   413 net.cpp:144] Setting up pool5
I0614 11:07:42.164211   413 net.cpp:151] Top shape: 1 256 6 6 (9216)
I0614 11:07:42.164213   413 net.cpp:159] Memory required for data: 8216940
I0614 11:07:42.164216   413 layer_factory.hpp:77] Creating layer fc6
I0614 11:07:42.164223   413 net.cpp:94] Creating Layer fc6
I0614 11:07:42.164227   413 net.cpp:435] fc6 <- pool5
I0614 11:07:42.164229   413 net.cpp:409] fc6 -> fc6
I0614 11:07:42.486274   413 net.cpp:144] Setting up fc6
I0614 11:07:42.486294   413 net.cpp:151] Top shape: 1 4096 (4096)
I0614 11:07:42.486300   413 net.cpp:159] Memory required for data: 8233324
I0614 11:07:42.486311   413 layer_factory.hpp:77] Creating layer relu6
I0614 11:07:42.486320   413 net.cpp:94] Creating Layer relu6
I0614 11:07:42.486325   413 net.cpp:435] relu6 <- fc6
I0614 11:07:42.486330   413 net.cpp:409] relu6 -> relu6
I0614 11:07:42.486346   413 net.cpp:144] Setting up relu6
I0614 11:07:42.486348   413 net.cpp:151] Top shape: 1 4096 (4096)
I0614 11:07:42.486351   413 net.cpp:159] Memory required for data: 8249708
I0614 11:07:42.486354   413 layer_factory.hpp:77] Creating layer drop6
I0614 11:07:42.486359   413 net.cpp:94] Creating Layer drop6
I0614 11:07:42.486361   413 net.cpp:435] drop6 <- relu6
I0614 11:07:42.486366   413 net.cpp:409] drop6 -> drop6
I0614 11:07:42.486379   413 net.cpp:144] Setting up drop6
I0614 11:07:42.486382   413 net.cpp:151] Top shape: 1 4096 (4096)
I0614 11:07:42.486384   413 net.cpp:159] Memory required for data: 8266092
I0614 11:07:42.486387   413 layer_factory.hpp:77] Creating layer fc7
I0614 11:07:42.486393   413 net.cpp:94] Creating Layer fc7
I0614 11:07:42.486397   413 net.cpp:435] fc7 <- drop6
I0614 11:07:42.486399   413 net.cpp:409] fc7 -> fc7
I0614 11:07:42.629344   413 net.cpp:144] Setting up fc7
I0614 11:07:42.629367   413 net.cpp:151] Top shape: 1 4096 (4096)
I0614 11:07:42.629374   413 net.cpp:159] Memory required for data: 8282476
I0614 11:07:42.629392   413 layer_factory.hpp:77] Creating layer bn7
I0614 11:07:42.629403   413 net.cpp:94] Creating Layer bn7
I0614 11:07:42.629407   413 net.cpp:435] bn7 <- fc7
I0614 11:07:42.629412   413 net.cpp:409] bn7 -> bn7
I0614 11:07:42.629703   413 net.cpp:144] Setting up bn7
I0614 11:07:42.629709   413 net.cpp:151] Top shape: 1 4096 (4096)
I0614 11:07:42.629714   413 net.cpp:159] Memory required for data: 8298860
I0614 11:07:42.629720   413 layer_factory.hpp:77] Creating layer relu7
I0614 11:07:42.629725   413 net.cpp:94] Creating Layer relu7
I0614 11:07:42.629729   413 net.cpp:435] relu7 <- bn7
I0614 11:07:42.629732   413 net.cpp:409] relu7 -> relu7
I0614 11:07:42.629745   413 net.cpp:144] Setting up relu7
I0614 11:07:42.629747   413 net.cpp:151] Top shape: 1 4096 (4096)
I0614 11:07:42.629751   413 net.cpp:159] Memory required for data: 8315244
I0614 11:07:42.629753   413 layer_factory.hpp:77] Creating layer drop7
I0614 11:07:42.629758   413 net.cpp:94] Creating Layer drop7
I0614 11:07:42.629761   413 net.cpp:435] drop7 <- relu7
I0614 11:07:42.629765   413 net.cpp:409] drop7 -> drop7
I0614 11:07:42.629778   413 net.cpp:144] Setting up drop7
I0614 11:07:42.629781   413 net.cpp:151] Top shape: 1 4096 (4096)
I0614 11:07:42.629786   413 net.cpp:159] Memory required for data: 8331628
I0614 11:07:42.629787   413 layer_factory.hpp:77] Creating layer fc8
I0614 11:07:42.629796   413 net.cpp:94] Creating Layer fc8
I0614 11:07:42.629798   413 net.cpp:435] fc8 <- drop7
I0614 11:07:42.629801   413 net.cpp:409] fc8 -> fc8
I0614 11:07:42.629910   413 net.cpp:144] Setting up fc8
I0614 11:07:42.629913   413 net.cpp:151] Top shape: 1 2 (2)
I0614 11:07:42.629917   413 net.cpp:159] Memory required for data: 8331636
I0614 11:07:42.629921   413 layer_factory.hpp:77] Creating layer prob
I0614 11:07:42.629927   413 net.cpp:94] Creating Layer prob
I0614 11:07:42.629930   413 net.cpp:435] prob <- fc8
I0614 11:07:42.629935   413 net.cpp:409] prob -> prob
I0614 11:07:42.629981   413 net.cpp:144] Setting up prob
I0614 11:07:42.629984   413 net.cpp:151] Top shape: 1 2 (2)
I0614 11:07:42.629987   413 net.cpp:159] Memory required for data: 8331644
I0614 11:07:42.629990   413 net.cpp:222] prob does not need backward computation.
I0614 11:07:42.629994   413 net.cpp:222] fc8 does not need backward computation.
I0614 11:07:42.629997   413 net.cpp:222] drop7 does not need backward computation.
I0614 11:07:42.630000   413 net.cpp:222] relu7 does not need backward computation.
…
I0614 12:33:29.190819   543 net.cpp:323] The NetState phase (0) differed from the phase (1) specified by a rule in layer accuracy-top1
I0614 12:33:29.190822   543 net.cpp:52] Initializing net from parameters: 
state {
  phase: TRAIN
}
layer {
  name: "data"
  type: "ImageData"
  top: "data"
  top: "label"
  include {
    phase: TRAIN
  }
  transform_param {
    crop_size: 227
    mean_value: 106
    mean_value: 116
    mean_value: 124
  }
  image_data_param {
    source: "deploy/alexnetBNnoLRN/quantiz/data/calib/calibration.txt"
    batch_size: 10
    shuffle: true
    root_folder: "deploy/alexnetBNnoLRN/quantiz/data/calib/"
  }
}
layer {
  name: "conv1"
  type: "Convolution"
  bottom: "data"
  top: "conv1"
  param {
    lr_mult: 1
    decay_mult: 1
  }
  param {
    lr_mult: 2
    decay_mult: 0
  }
  convolution_param {
    num_output: 96
    pad: 0
    kernel_size: 8
    stride: 4
    weight_filler {
      type: "gaussian"
      std: 0.01
    }
    bias_filler {
      type: "constant"
      value: 0
    }
  }
}
layer {
  name: "bn1"
  type: "BatchNorm"
  bottom: "conv1"
  top: "bn1"
  param {
    lr_mult: 0
  }
  param {
    lr_mult: 0
  }
  param {
    lr_mult: 0
  }
  batch_norm_param {
    use_global_stats: false
  }
}
layer {
  name: "relu1"
  type: "ReLU"
  bottom: "bn1"
  top: "relu1"
}
layer {
  name: "pool1"
  type: "Pooling"
  bottom: "relu1"
  top: "pool1"
  pooling_param {
    pool: MAX
    kernel_size: 3
    stride: 2
  }
}
layer {
  name: "conv2"
  type: "Convolution"
  bottom: "pool1"
  top: "conv2"
  param {
    lr_mult: 1
    decay_mult: 1
  }
  param {
    lr_mult: 2
    decay_mult: 0
  }
  convolution_param {
    num_output: 256
    pad: 2
    kernel_size: 5
    group: 1
    weight_filler {
      type: "gaussian"
      std: 0.01
    }
    bias_filler {
      type: "constant"
      value: 1
    }
  }
}
layer {
  name: "bn2"
  type: "BatchNorm"
  bottom: "conv2"
  top: "bn2"
  param {
    lr_mult: 0
  }
  param {
    lr_mult: 0
  }
  param {
    lr_mult: 0
  }
  batch_norm_param {
    use_global_stats: false
  }
}
layer {
  name: "relu2"
  type: "ReLU"
  bottom: "bn2"
  top: "relu2"
}
layer {
  name: "pool2"
  type: "Pooling"
  bottom: "relu2"
  top: "pool2"
  pooling_param {
    pool: MAX
    kernel_size: 3
    stride: 2
  }
}
layer {
  name: "conv3"
  type: "Convolution"
  bottom: "pool2"
  top: "conv3"
  param {
    lr_mult: 1
    decay_mult: 1
  }
  param {
    lr_mult: 2
    decay_mult: 0
  }
  convolution_param {
    num_output: 384
    pad: 1
    kernel_size: 3
    weight_filler {
      type: "gaussian"
      std: 0.01
    }
    bias_filler {
      type: "constant"
      value: 0
    }
  }
}
layer {
  name: "relu3"
  type: "ReLU"
  bottom: "conv3"
  top: "relu3"
}
layer {
  name: "conv4"
  type: "Convolution"
  bottom: "relu3"
  top: "conv4"
  param {
    lr_mult: 1
    decay_mult: 1
  }
  param {
    lr_mult: 2
    decay_mult: 0
  }
  convolution_param {
    num_output: 384
    pad: 1
    kernel_size: 3
    group: 1
    weight_filler {
      type: "gaussian"
      std: 0.01
    }
    bias_filler {
      type: "constant"
      value: 1
    }
  }
}
layer {
  name: "relu4"
  type: "ReLU"
  bottom: "conv4"
  top: "relu4"
}
layer {
  name: "conv5"
  type: "Convolution"
  bottom: "relu4"
  top: "conv5"
  param {
    lr_mult: 1
    decay_mult: 1
  }
  param {
    lr_mult: 2
    decay_mult: 0
  }
  convolution_param {
    num_output: 256
    pad: 1
    kernel_size: 3
    group: 1
    weight_filler {
      type: "gaussian"
      std: 0.01
    }
    bias_filler {
      type: "constant"
      value: 1
    }
  }
}
layer {
  name: "relu5"
  type: "ReLU"
  bottom: "conv5"
  top: "relu5"
}
layer {
  name: "pool5"
  type: "Pooling"
  bottom: "relu5"
  top: "pool5"
  pooling_param {
    pool: MAX
    kernel_size: 3
    stride: 2
  }
}
layer {
  name: "fc6"
  type: "InnerProduct"
  bottom: "pool5"
  top: "fc6"
  param {
    lr_mult: 1
    decay_mult: 1
  }
  param {
    lr_mult: 2
    decay_mult: 0
  }
  inner_product_param {
    num_output: 4096
    weight_filler {
      type: "gaussian"
      std: 0.005
    }
    bias_filler {
      type: "constant"
      value: 1
    }
  }
}
layer {
  name: "relu6"
  type: "ReLU"
  bottom: "fc6"
  top: "relu6"
}
layer {
  name: "fc7"
  type: "InnerProduct"
  bottom: "relu6"
  top: "fc7"
  param {
    lr_mult: 1
    decay_mult: 1
  }
  param {
    lr_mult: 2
    decay_mult: 0
  }
  inner_product_param {
    num_output: 4096
    weight_filler {
      type: "gaussian"
      std: 0.005
    }
    bias_filler {
      type: "constant"
      value: 1
    }
  }
}
layer {
  name: "bn7"
  type: "BatchNorm"
  bottom: "fc7"
  top: "bn7"
  param {
    lr_mult: 0
  }
  param {
    lr_mult: 0
  }
  param {
    lr_mult: 0
  }
  batch_norm_param {
    use_global_stats: false
  }
}
layer {
  name: "relu7"
  type: "ReLU"
  bottom: "bn7"
  top: "relu7"
}
layer {
  name: "fc8"
  type: "InnerProduct"
  bottom: "relu7"
  top: "fc8"
  param {
    lr_mult: 1
    decay_mult: 1
  }
  param {
    lr_mult: 2
    decay_mult: 0
  }
  inner_product_param {
    num_output: 2
    weight_filler {
      type: "gaussian"
      std: 0.01
    }
    bias_filler {
      type: "constant"
      value: 0
    }
  }
}
layer {
  name: "loss"
  type: "SoftmaxWithLoss"
  bottom: "fc8"
  bottom: "label"
  top: "loss"
}
I0614 12:33:29.191020   543 layer_factory.hpp:77] Creating layer data
I0614 12:33:29.191040   543 net.cpp:94] Creating Layer data
I0614 12:33:29.191044   543 net.cpp:409] data -> data
I0614 12:33:29.191052   543 net.cpp:409] data -> label
I0614 12:33:29.191120   543 image_data_layer.cpp:41] Opening file deploy/alexnetBNnoLRN/quantiz/data/calib/calibration.txt
I0614 12:33:29.192238   543 image_data_layer.cpp:51] Shuffling data
I0614 12:33:29.192257   543 image_data_layer.cpp:56] A total of 200 images.
I0614 12:33:29.200052   543 image_data_layer.cpp:84] output data size: 10,3,227,227
I0614 12:33:29.235939   543 internal_thread.cpp:27] Starting internal thread(s) on GPU 0
I0614 12:33:29.236012   543 net.cpp:144] Setting up data
I0614 12:33:29.236017   543 net.cpp:151] Top shape: 10 3 227 227 (1545870)
I0614 12:33:29.236027   543 net.cpp:151] Top shape: 10 (10)
I0614 12:33:29.236030   543 net.cpp:159] Memory required for data: 6183520
I0614 12:33:29.236034   543 layer_factory.hpp:77] Creating layer conv1
I0614 12:33:29.236053   543 net.cpp:94] Creating Layer conv1
I0614 12:33:29.236057   543 net.cpp:435] conv1 <- data
I0614 12:33:29.236063   543 net.cpp:409] conv1 -> conv1
I0614 12:33:29.236505   543 net.cpp:144] Setting up conv1
I0614 12:33:29.236510   543 net.cpp:151] Top shape: 10 96 55 55 (2904000)
I0614 12:33:29.236515   543 net.cpp:159] Memory required for data: 17799520
I0614 12:33:29.236538   543 layer_factory.hpp:77] Creating layer bn1
I0614 12:33:29.236547   543 net.cpp:94] Creating Layer bn1
I0614 12:33:29.236550   543 net.cpp:435] bn1 <- conv1
I0614 12:33:29.236555   543 net.cpp:409] bn1 -> bn1
I0614 12:33:29.236852   543 net.cpp:144] Setting up bn1
I0614 12:33:29.236858   543 net.cpp:151] Top shape: 10 96 55 55 (2904000)
I0614 12:33:29.236863   543 net.cpp:159] Memory required for data: 29415520
I0614 12:33:29.236871   543 layer_factory.hpp:77] Creating layer relu1
I0614 12:33:29.236877   543 net.cpp:94] Creating Layer relu1
I0614 12:33:29.236881   543 net.cpp:435] relu1 <- bn1
I0614 12:33:29.236883   543 net.cpp:409] relu1 -> relu1
I0614 12:33:29.236907   543 net.cpp:144] Setting up relu1
I0614 12:33:29.236909   543 net.cpp:151] Top shape: 10 96 55 55 (2904000)
I0614 12:33:29.236913   543 net.cpp:159] Memory required for data: 41031520
I0614 12:33:29.236917   543 layer_factory.hpp:77] Creating layer pool1
I0614 12:33:29.236922   543 net.cpp:94] Creating Layer pool1
I0614 12:33:29.236925   543 net.cpp:435] pool1 <- relu1
I0614 12:33:29.236929   543 net.cpp:409] pool1 -> pool1
I0614 12:33:29.236945   543 net.cpp:144] Setting up pool1
I0614 12:33:29.236948   543 net.cpp:151] Top shape: 10 96 27 27 (699840)
I0614 12:33:29.236953   543 net.cpp:159] Memory required for data: 43830880
I0614 12:33:29.236955   543 layer_factory.hpp:77] Creating layer conv2
I0614 12:33:29.236963   543 net.cpp:94] Creating Layer conv2
I0614 12:33:29.236965   543 net.cpp:435] conv2 <- pool1
I0614 12:33:29.236969   543 net.cpp:409] conv2 -> conv2
I0614 12:33:29.243165   543 net.cpp:144] Setting up conv2
I0614 12:33:29.243177   543 net.cpp:151] Top shape: 10 256 27 27 (1866240)
I0614 12:33:29.243183   543 net.cpp:159] Memory required for data: 51295840
I0614 12:33:29.243191   543 layer_factory.hpp:77] Creating layer bn2
I0614 12:33:29.243199   543 net.cpp:94] Creating Layer bn2
I0614 12:33:29.243202   543 net.cpp:435] bn2 <- conv2
I0614 12:33:29.243208   543 net.cpp:409] bn2 -> bn2
I0614 12:33:29.243464   543 net.cpp:144] Setting up bn2
I0614 12:33:29.243469   543 net.cpp:151] Top shape: 10 256 27 27 (1866240)
I0614 12:33:29.243474   543 net.cpp:159] Memory required for data: 58760800
I0614 12:33:29.243481   543 layer_factory.hpp:77] Creating layer relu2
I0614 12:33:29.243486   543 net.cpp:94] Creating Layer relu2
I0614 12:33:29.243489   543 net.cpp:435] relu2 <- bn2
I0614 12:33:29.243492   543 net.cpp:409] relu2 -> relu2
I0614 12:33:29.243503   543 net.cpp:144] Setting up relu2
I0614 12:33:29.243506   543 net.cpp:151] Top shape: 10 256 27 27 (1866240)
I0614 12:33:29.243510   543 net.cpp:159] Memory required for data: 66225760
I0614 12:33:29.243513   543 layer_factory.hpp:77] Creating layer pool2
I0614 12:33:29.243520   543 net.cpp:94] Creating Layer pool2
I0614 12:33:29.243522   543 net.cpp:435] pool2 <- relu2
I0614 12:33:29.243526   543 net.cpp:409] pool2 -> pool2
I0614 12:33:29.243539   543 net.cpp:144] Setting up pool2
I0614 12:33:29.243542   543 net.cpp:151] Top shape: 10 256 13 13 (432640)
I0614 12:33:29.243546   543 net.cpp:159] Memory required for data: 67956320
I0614 12:33:29.243549   543 layer_factory.hpp:77] Creating layer conv3
I0614 12:33:29.243556   543 net.cpp:94] Creating Layer conv3
I0614 12:33:29.243558   543 net.cpp:435] conv3 <- pool2
I0614 12:33:29.243562   543 net.cpp:409] conv3 -> conv3
I0614 12:33:29.252367   543 net.cpp:144] Setting up conv3
I0614 12:33:29.252382   543 net.cpp:151] Top shape: 10 384 13 13 (648960)
I0614 12:33:29.252388   543 net.cpp:159] Memory required for data: 70552160
I0614 12:33:29.252394   543 layer_factory.hpp:77] Creating layer relu3
I0614 12:33:29.252401   543 net.cpp:94] Creating Layer relu3
I0614 12:33:29.252404   543 net.cpp:435] relu3 <- conv3
I0614 12:33:29.252409   543 net.cpp:409] relu3 -> relu3
I0614 12:33:29.252424   543 net.cpp:144] Setting up relu3
I0614 12:33:29.252426   543 net.cpp:151] Top shape: 10 384 13 13 (648960)
I0614 12:33:29.252429   543 net.cpp:159] Memory required for data: 73148000
I0614 12:33:29.252432   543 layer_factory.hpp:77] Creating layer conv4
I0614 12:33:29.252440   543 net.cpp:94] Creating Layer conv4
I0614 12:33:29.252444   543 net.cpp:435] conv4 <- relu3
I0614 12:33:29.252447   543 net.cpp:409] conv4 -> conv4
I0614 12:33:29.264554   543 net.cpp:144] Setting up conv4
I0614 12:33:29.264567   543 net.cpp:151] Top shape: 10 384 13 13 (648960)
I0614 12:33:29.264573   543 net.cpp:159] Memory required for data: 75743840
I0614 12:33:29.264581   543 layer_factory.hpp:77] Creating layer relu4
I0614 12:33:29.264586   543 net.cpp:94] Creating Layer relu4
I0614 12:33:29.264590   543 net.cpp:435] relu4 <- conv4
I0614 12:33:29.264595   543 net.cpp:409] relu4 -> relu4
I0614 12:33:29.264623   543 net.cpp:144] Setting up relu4
I0614 12:33:29.264626   543 net.cpp:151] Top shape: 10 384 13 13 (648960)
I0614 12:33:29.264631   543 net.cpp:159] Memory required for data: 78339680
I0614 12:33:29.264633   543 layer_factory.hpp:77] Creating layer conv5
I0614 12:33:29.264640   543 net.cpp:94] Creating Layer conv5
I0614 12:33:29.264643   543 net.cpp:435] conv5 <- relu4
I0614 12:33:29.264647   543 net.cpp:409] conv5 -> conv5
I0614 12:33:29.272593   543 net.cpp:144] Setting up conv5
I0614 12:33:29.272604   543 net.cpp:151] Top shape: 10 256 13 13 (432640)
I0614 12:33:29.272610   543 net.cpp:159] Memory required for data: 80070240
I0614 12:33:29.272616   543 layer_factory.hpp:77] Creating layer relu5
I0614 12:33:29.272621   543 net.cpp:94] Creating Layer relu5
I0614 12:33:29.272625   543 net.cpp:435] relu5 <- conv5
I0614 12:33:29.272629   543 net.cpp:409] relu5 -> relu5
I0614 12:33:29.272642   543 net.cpp:144] Setting up relu5
I0614 12:33:29.272644   543 net.cpp:151] Top shape: 10 256 13 13 (432640)
I0614 12:33:29.272647   543 net.cpp:159] Memory required for data: 81800800
I0614 12:33:29.272650   543 layer_factory.hpp:77] Creating layer pool5
I0614 12:33:29.272655   543 net.cpp:94] Creating Layer pool5
I0614 12:33:29.272657   543 net.cpp:435] pool5 <- relu5
I0614 12:33:29.272660   543 net.cpp:409] pool5 -> pool5
I0614 12:33:29.272675   543 net.cpp:144] Setting up pool5
I0614 12:33:29.272677   543 net.cpp:151] Top shape: 10 256 6 6 (92160)
I0614 12:33:29.272681   543 net.cpp:159] Memory required for data: 82169440
I0614 12:33:29.272683   543 layer_factory.hpp:77] Creating layer fc6
I0614 12:33:29.272696   543 net.cpp:94] Creating Layer fc6
I0614 12:33:29.272699   543 net.cpp:435] fc6 <- pool5
I0614 12:33:29.272702   543 net.cpp:409] fc6 -> fc6
I0614 12:33:29.592342   543 net.cpp:144] Setting up fc6
I0614 12:33:29.592362   543 net.cpp:151] Top shape: 10 4096 (40960)
I0614 12:33:29.592370   543 net.cpp:159] Memory required for data: 82333280
I0614 12:33:29.592379   543 layer_factory.hpp:77] Creating layer relu6
I0614 12:33:29.592386   543 net.cpp:94] Creating Layer relu6
I0614 12:33:29.592391   543 net.cpp:435] relu6 <- fc6
I0614 12:33:29.592412   543 net.cpp:409] relu6 -> relu6
I0614 12:33:29.592429   543 net.cpp:144] Setting up relu6
I0614 12:33:29.592432   543 net.cpp:151] Top shape: 10 4096 (40960)
I0614 12:33:29.592435   543 net.cpp:159] Memory required for data: 82497120
I0614 12:33:29.592437   543 layer_factory.hpp:77] Creating layer fc7
I0614 12:33:29.592443   543 net.cpp:94] Creating Layer fc7
I0614 12:33:29.592447   543 net.cpp:435] fc7 <- relu6
I0614 12:33:29.592450   543 net.cpp:409] fc7 -> fc7
I0614 12:33:29.727209   543 net.cpp:144] Setting up fc7
I0614 12:33:29.727236   543 net.cpp:151] Top shape: 10 4096 (40960)
I0614 12:33:29.727242   543 net.cpp:159] Memory required for data: 82660960
I0614 12:33:29.727252   543 layer_factory.hpp:77] Creating layer bn7
I0614 12:33:29.727262   543 net.cpp:94] Creating Layer bn7
I0614 12:33:29.727267   543 net.cpp:435] bn7 <- fc7
I0614 12:33:29.727272   543 net.cpp:409] bn7 -> bn7
I0614 12:33:29.727536   543 net.cpp:144] Setting up bn7
I0614 12:33:29.727540   543 net.cpp:151] Top shape: 10 4096 (40960)
I0614 12:33:29.727543   543 net.cpp:159] Memory required for data: 82824800
I0614 12:33:29.727548   543 layer_factory.hpp:77] Creating layer relu7
I0614 12:33:29.727552   543 net.cpp:94] Creating Layer relu7
I0614 12:33:29.727555   543 net.cpp:435] relu7 <- bn7
I0614 12:33:29.727560   543 net.cpp:409] relu7 -> relu7
I0614 12:33:29.727568   543 net.cpp:144] Setting up relu7
I0614 12:33:29.727571   543 net.cpp:151] Top shape: 10 4096 (40960)
I0614 12:33:29.727574   543 net.cpp:159] Memory required for data: 82988640
I0614 12:33:29.727576   543 layer_factory.hpp:77] Creating layer fc8
I0614 12:33:29.727581   543 net.cpp:94] Creating Layer fc8
I0614 12:33:29.727584   543 net.cpp:435] fc8 <- relu7
I0614 12:33:29.727588   543 net.cpp:409] fc8 -> fc8
I0614 12:33:29.727720   543 net.cpp:144] Setting up fc8
I0614 12:33:29.727725   543 net.cpp:151] Top shape: 10 2 (20)
I0614 12:33:29.727727   543 net.cpp:159] Memory required for data: 82988720
I0614 12:33:29.727732   543 layer_factory.hpp:77] Creating layer loss
I0614 12:33:29.727746   543 net.cpp:94] Creating Layer loss
I0614 12:33:29.727749   543 net.cpp:435] loss <- fc8
I0614 12:33:29.727752   543 net.cpp:435] loss <- label
I0614 12:33:29.727756   543 net.cpp:409] loss -> loss
I0614 12:33:29.727764   543 layer_factory.hpp:77] Creating layer loss
…
I0614 12:33:30.629258   543 net.cpp:323] The NetState phase (0) differed from the phase (1) specified by a rule in layer accuracy-top1
I0614 12:33:30.629261   543 net.cpp:52] Initializing net from parameters: 
state {
  phase: TRAIN
}
layer {
  name: "data"
  type: "ImageData"
  top: "data"
  top: "label"
  include {
    phase: TRAIN
  }
  transform_param {
    crop_size: 227
    mean_value: 106
    mean_value: 116
    mean_value: 124
  }
  image_data_param {
    source: "deploy/alexnetBNnoLRN/quantiz/data/calib/calibration.txt"
    batch_size: 10
    shuffle: true
    root_folder: "deploy/alexnetBNnoLRN/quantiz/data/calib/"
  }
}
layer {
  name: "data_fixed"
  type: "FixedNeuron"
  bottom: "data"
  top: "data"
  param {
    lr_mult: 0
    decay_mult: 0
  }
  fixed_param {
    fixed_method: OVER_FLOW
    bit_width: 8
    follow_data_layer: true
  }
}
layer {
  name: "conv1"
  type: "ConvolutionFixed"
  bottom: "data"
  top: "bn1"
  param {
    lr_mult: 1
    decay_mult: 1
  }
  param {
    lr_mult: 1
    decay_mult: 0
  }
  convolution_param {
    num_output: 96
    bias_term: true
    pad: 0
    kernel_size: 8
    stride: 4
    weight_filler {
      type: "gaussian"
      std: 0.01
    }
    bias_filler {
      type: "constant"
      value: 0
    }
  }
  fixed_param {
    fixed_method: DIFF_S
    bit_width: 8
  }
}
layer {
  name: "relu1"
  type: "ReLU"
  bottom: "bn1"
  top: "relu1"
}
layer {
  name: "pool1"
  type: "Pooling"
  bottom: "relu1"
  top: "pool1"
  pooling_param {
    pool: MAX
    kernel_size: 3
    stride: 2
  }
}
layer {
  name: "pool1_fixed"
  type: "FixedNeuron"
  bottom: "pool1"
  top: "pool1"
  param {
    lr_mult: 0
    decay_mult: 0
  }
  fixed_param {
    fixed_method: DIFF_S
    bit_width: 8
  }
}
layer {
  name: "conv2"
  type: "ConvolutionFixed"
  bottom: "pool1"
  top: "bn2"
  param {
    lr_mult: 1
    decay_mult: 1
  }
  param {
    lr_mult: 1
    decay_mult: 0
  }
  convolution_param {
    num_output: 256
    bias_term: true
    pad: 2
    kernel_size: 5
    group: 1
    weight_filler {
      type: "gaussian"
      std: 0.01
    }
    bias_filler {
      type: "constant"
      value: 1
    }
  }
  fixed_param {
    fixed_method: DIFF_S
    bit_width: 8
  }
}
layer {
  name: "relu2"
  type: "ReLU"
  bottom: "bn2"
  top: "relu2"
}
layer {
  name: "pool2"
  type: "Pooling"
  bottom: "relu2"
  top: "pool2"
  pooling_param {
    pool: MAX
    kernel_size: 3
    stride: 2
  }
}
layer {
  name: "pool2_fixed"
  type: "FixedNeuron"
  bottom: "pool2"
  top: "pool2"
  param {
    lr_mult: 0
    decay_mult: 0
  }
  fixed_param {
    fixed_method: DIFF_S
    bit_width: 8
  }
}
layer {
  name: "conv3"
  type: "ConvolutionFixed"
  bottom: "pool2"
  top: "conv3"
  param {
    lr_mult: 1
    decay_mult: 1
  }
  param {
    lr_mult: 2
    decay_mult: 0
  }
  convolution_param {
    num_output: 384
    pad: 1
    kernel_size: 3
    weight_filler {
      type: "gaussian"
      std: 0.01
    }
    bias_filler {
      type: "constant"
      value: 0
    }
  }
  fixed_param {
    fixed_method: DIFF_S
    bit_width: 8
  }
}
layer {
  name: "relu3"
  type: "ReLU"
  bottom: "conv3"
  top: "relu3"
}
layer {
  name: "relu3_fixed"
  type: "FixedNeuron"
  bottom: "relu3"
  top: "relu3"
  param {
    lr_mult: 0
    decay_mult: 0
  }
  fixed_param {
    fixed_method: DIFF_S
    bit_width: 8
  }
}
layer {
  name: "conv4"
  type: "ConvolutionFixed"
  bottom: "relu3"
  top: "conv4"
  param {
    lr_mult: 1
    decay_mult: 1
  }
  param {
    lr_mult: 2
    decay_mult: 0
  }
  convolution_param {
    num_output: 384
    pad: 1
    kernel_size: 3
    group: 1
    weight_filler {
      type: "gaussian"
      std: 0.01
    }
    bias_filler {
      type: "constant"
      value: 1
    }
  }
  fixed_param {
    fixed_method: DIFF_S
    bit_width: 8
  }
}
layer {
  name: "relu4"
  type: "ReLU"
  bottom: "conv4"
  top: "relu4"
}
layer {
  name: "relu4_fixed"
  type: "FixedNeuron"
  bottom: "relu4"
  top: "relu4"
  param {
    lr_mult: 0
    decay_mult: 0
  }
  fixed_param {
    fixed_method: DIFF_S
    bit_width: 8
  }
}
layer {
  name: "conv5"
  type: "ConvolutionFixed"
  bottom: "relu4"
  top: "conv5"
  param {
    lr_mult: 1
    decay_mult: 1
  }
  param {
    lr_mult: 2
    decay_mult: 0
  }
  convolution_param {
    num_output: 256
    pad: 1
    kernel_size: 3
    group: 1
    weight_filler {
      type: "gaussian"
      std: 0.01
    }
    bias_filler {
      type: "constant"
      value: 1
    }
  }
  fixed_param {
    fixed_method: DIFF_S
    bit_width: 8
  }
}
layer {
  name: "relu5"
  type: "ReLU"
  bottom: "conv5"
  top: "relu5"
}
layer {
  name: "pool5"
  type: "Pooling"
  bottom: "relu5"
  top: "pool5"
  pooling_param {
    pool: MAX
    kernel_size: 3
    stride: 2
  }
}
layer {
  name: "pool5_fixed"
  type: "FixedNeuron"
  bottom: "pool5"
  top: "pool5"
  param {
    lr_mult: 0
    decay_mult: 0
  }
  fixed_param {
    fixed_method: DIFF_S
    bit_width: 8
  }
}
layer {
  name: "fc6"
  type: "InnerProductFixed"
  bottom: "pool5"
  top: "fc6"
  param {
    lr_mult: 1
    decay_mult: 1
  }
  param {
    lr_mult: 2
    decay_mult: 0
  }
  inner_product_param {
    num_output: 4096
    weight_filler {
      type: "gaussian"
      std: 0.005
    }
    bias_filler {
      type: "constant"
      value: 1
    }
  }
  fixed_param {
    fixed_method: DIFF_S
    bit_width: 8
  }
}
layer {
  name: "relu6"
  type: "ReLU"
  bottom: "fc6"
  top: "relu6"
}
layer {
  name: "relu6_fixed"
  type: "FixedNeuron"
  bottom: "relu6"
  top: "relu6"
  param {
    lr_mult: 0
    decay_mult: 0
  }
  fixed_param {
    fixed_method: DIFF_S
    bit_width: 8
  }
}
layer {
  name: "fc7"
  type: "InnerProductFixed"
  bottom: "relu6"
  top: "bn7"
  param {
    lr_mult: 1
    decay_mult: 1
  }
  param {
    lr_mult: 1
    decay_mult: 0
  }
  inner_product_param {
    num_output: 4096
    bias_term: true
    weight_filler {
      type: "gaussian"
      std: 0.005
    }
    bias_filler {
      type: "constant"
      value: 1
    }
  }
  fixed_param {
    fixed_method: DIFF_S
    bit_width: 8
  }
}
layer {
  name: "relu7"
  type: "ReLU"
  bottom: "bn7"
  top: "relu7"
}
layer {
  name: "relu7_fixed"
  type: "FixedNeuron"
  bottom: "relu7"
  top: "relu7"
  param {
    lr_mult: 0
    decay_mult: 0
  }
  fixed_param {
    fixed_method: DIFF_S
    bit_width: 8
  }
}
layer {
  name: "fc8"
  type: "InnerProductFixed"
  bottom: "relu7"
  top: "fc8"
  param {
    lr_mult: 1
    decay_mult: 1
  }
  param {
    lr_mult: 2
    decay_mult: 0
  }
  inner_product_param {
    num_output: 2
    weight_filler {
      type: "gaussian"
      std: 0.01
    }
    bias_filler {
      type: "constant"
      value: 0
    }
  }
  fixed_param {
    fixed_method: DIFF_S
    bit_width: 8
  }
}
layer {
  name: "fc8_fixed"
  type: "FixedNeuron"
  bottom: "fc8"
  top: "fc8"
  param {
    lr_mult: 0
    decay_mult: 0
  }
  fixed_param {
    fixed_method: DIFF_S
    bit_width: 8
  }
}
layer {
  name: "loss"
  type: "SoftmaxWithLoss"
  bottom: "fc8"
  bottom: "label"
  top: "loss"
}
I0614 12:33:30.629431   543 layer_factory.hpp:77] Creating layer data
I0614 12:33:30.629444   543 net.cpp:94] Creating Layer data
I0614 12:33:30.629448   543 net.cpp:409] data -> data
I0614 12:33:30.629456   543 net.cpp:409] data -> label
I0614 12:33:30.629464   543 image_data_layer.cpp:41] Opening file deploy/alexnetBNnoLRN/quantiz/data/calib/calibration.txt
I0614 12:33:30.630156   543 image_data_layer.cpp:51] Shuffling data
I0614 12:33:30.630170   543 image_data_layer.cpp:56] A total of 200 images.
I0614 12:33:30.632896   543 image_data_layer.cpp:84] output data size: 10,3,227,227
I0614 12:33:30.654491   543 internal_thread.cpp:27] Starting internal thread(s) on GPU 0
I0614 12:33:30.654551   543 net.cpp:144] Setting up data
I0614 12:33:30.654556   543 net.cpp:151] Top shape: 10 3 227 227 (1545870)
I0614 12:33:30.654563   543 net.cpp:151] Top shape: 10 (10)
I0614 12:33:30.654567   543 net.cpp:159] Memory required for data: 6183520
I0614 12:33:30.654572   543 layer_factory.hpp:77] Creating layer data_fixed
I0614 12:33:30.654588   543 net.cpp:94] Creating Layer data_fixed
I0614 12:33:30.654608   543 net.cpp:435] data_fixed <- data
I0614 12:33:30.654614   543 net.cpp:396] data_fixed -> data (in-place)
I0614 12:33:30.654647   543 net.cpp:144] Setting up data_fixed
I0614 12:33:30.654650   543 net.cpp:151] Top shape: 10 3 227 227 (1545870)
I0614 12:33:30.654654   543 net.cpp:159] Memory required for data: 12367000
I0614 12:33:30.654661   543 layer_factory.hpp:77] Creating layer conv1
I0614 12:33:30.654675   543 net.cpp:94] Creating Layer conv1
I0614 12:33:30.654680   543 net.cpp:435] conv1 <- data
I0614 12:33:30.654685   543 net.cpp:409] conv1 -> bn1
I0614 12:33:30.655015   543 layer_factory.hpp:77] Creating layer conv1
I0614 12:33:30.655303   543 net.cpp:144] Setting up conv1
I0614 12:33:30.655309   543 net.cpp:151] Top shape: 10 96 55 55 (2904000)
I0614 12:33:30.655315   543 net.cpp:159] Memory required for data: 23983000
I0614 12:33:30.655323   543 layer_factory.hpp:77] Creating layer relu1
I0614 12:33:30.655328   543 net.cpp:94] Creating Layer relu1
I0614 12:33:30.655330   543 net.cpp:435] relu1 <- bn1
I0614 12:33:30.655334   543 net.cpp:409] relu1 -> relu1
I0614 12:33:30.655346   543 net.cpp:144] Setting up relu1
I0614 12:33:30.655349   543 net.cpp:151] Top shape: 10 96 55 55 (2904000)
I0614 12:33:30.655354   543 net.cpp:159] Memory required for data: 35599000
I0614 12:33:30.655356   543 layer_factory.hpp:77] Creating layer pool1
I0614 12:33:30.655362   543 net.cpp:94] Creating Layer pool1
I0614 12:33:30.655365   543 net.cpp:435] pool1 <- relu1
I0614 12:33:30.655369   543 net.cpp:409] pool1 -> pool1
I0614 12:33:30.655385   543 net.cpp:144] Setting up pool1
I0614 12:33:30.655387   543 net.cpp:151] Top shape: 10 96 27 27 (699840)
I0614 12:33:30.655391   543 net.cpp:159] Memory required for data: 38398360
I0614 12:33:30.655395   543 layer_factory.hpp:77] Creating layer pool1_fixed
I0614 12:33:30.655400   543 net.cpp:94] Creating Layer pool1_fixed
I0614 12:33:30.655402   543 net.cpp:435] pool1_fixed <- pool1
I0614 12:33:30.655406   543 net.cpp:396] pool1_fixed -> pool1 (in-place)
I0614 12:33:30.655421   543 net.cpp:144] Setting up pool1_fixed
I0614 12:33:30.655423   543 net.cpp:151] Top shape: 10 96 27 27 (699840)
I0614 12:33:30.655426   543 net.cpp:159] Memory required for data: 41197720
I0614 12:33:30.655431   543 layer_factory.hpp:77] Creating layer conv2
I0614 12:33:30.655436   543 net.cpp:94] Creating Layer conv2
I0614 12:33:30.655439   543 net.cpp:435] conv2 <- pool1
I0614 12:33:30.655443   543 net.cpp:409] conv2 -> bn2
I0614 12:33:30.661667   543 layer_factory.hpp:77] Creating layer conv2
I0614 12:33:30.667696   543 net.cpp:144] Setting up conv2
I0614 12:33:30.667708   543 net.cpp:151] Top shape: 10 256 27 27 (1866240)
I0614 12:33:30.667716   543 net.cpp:159] Memory required for data: 48662680
I0614 12:33:30.667723   543 layer_factory.hpp:77] Creating layer relu2
I0614 12:33:30.667728   543 net.cpp:94] Creating Layer relu2
I0614 12:33:30.667732   543 net.cpp:435] relu2 <- bn2
I0614 12:33:30.667737   543 net.cpp:409] relu2 -> relu2
I0614 12:33:30.667747   543 net.cpp:144] Setting up relu2
I0614 12:33:30.667764   543 net.cpp:151] Top shape: 10 256 27 27 (1866240)
I0614 12:33:30.667768   543 net.cpp:159] Memory required for data: 56127640
I0614 12:33:30.667771   543 layer_factory.hpp:77] Creating layer pool2
I0614 12:33:30.667778   543 net.cpp:94] Creating Layer pool2
I0614 12:33:30.667780   543 net.cpp:435] pool2 <- relu2
I0614 12:33:30.667783   543 net.cpp:409] pool2 -> pool2
I0614 12:33:30.667798   543 net.cpp:144] Setting up pool2
I0614 12:33:30.667800   543 net.cpp:151] Top shape: 10 256 13 13 (432640)
I0614 12:33:30.667804   543 net.cpp:159] Memory required for data: 57858200
I0614 12:33:30.667807   543 layer_factory.hpp:77] Creating layer pool2_fixed
I0614 12:33:30.667812   543 net.cpp:94] Creating Layer pool2_fixed
I0614 12:33:30.667815   543 net.cpp:435] pool2_fixed <- pool2
I0614 12:33:30.667819   543 net.cpp:396] pool2_fixed -> pool2 (in-place)
I0614 12:33:30.667831   543 net.cpp:144] Setting up pool2_fixed
I0614 12:33:30.667834   543 net.cpp:151] Top shape: 10 256 13 13 (432640)
I0614 12:33:30.667838   543 net.cpp:159] Memory required for data: 59588760
I0614 12:33:30.667841   543 layer_factory.hpp:77] Creating layer conv3
I0614 12:33:30.667848   543 net.cpp:94] Creating Layer conv3
I0614 12:33:30.667850   543 net.cpp:435] conv3 <- pool2
I0614 12:33:30.667855   543 net.cpp:409] conv3 -> conv3
I0614 12:33:30.676079   543 layer_factory.hpp:77] Creating layer conv3
I0614 12:33:30.684182   543 net.cpp:144] Setting up conv3
I0614 12:33:30.684195   543 net.cpp:151] Top shape: 10 384 13 13 (648960)
I0614 12:33:30.684201   543 net.cpp:159] Memory required for data: 62184600
I0614 12:33:30.684211   543 layer_factory.hpp:77] Creating layer relu3
I0614 12:33:30.684216   543 net.cpp:94] Creating Layer relu3
I0614 12:33:30.684219   543 net.cpp:435] relu3 <- conv3
I0614 12:33:30.684224   543 net.cpp:409] relu3 -> relu3
I0614 12:33:30.684235   543 net.cpp:144] Setting up relu3
I0614 12:33:30.684238   543 net.cpp:151] Top shape: 10 384 13 13 (648960)
I0614 12:33:30.684242   543 net.cpp:159] Memory required for data: 64780440
I0614 12:33:30.684243   543 layer_factory.hpp:77] Creating layer relu3_fixed
I0614 12:33:30.684249   543 net.cpp:94] Creating Layer relu3_fixed
I0614 12:33:30.684252   543 net.cpp:435] relu3_fixed <- relu3
I0614 12:33:30.684255   543 net.cpp:396] relu3_fixed -> relu3 (in-place)
I0614 12:33:30.684267   543 net.cpp:144] Setting up relu3_fixed
I0614 12:33:30.684269   543 net.cpp:151] Top shape: 10 384 13 13 (648960)
I0614 12:33:30.684273   543 net.cpp:159] Memory required for data: 67376280
I0614 12:33:30.684276   543 layer_factory.hpp:77] Creating layer conv4
I0614 12:33:30.684283   543 net.cpp:94] Creating Layer conv4
I0614 12:33:30.684284   543 net.cpp:435] conv4 <- relu3
I0614 12:33:30.684288   543 net.cpp:409] conv4 -> conv4
I0614 12:33:30.695799   543 layer_factory.hpp:77] Creating layer conv4
I0614 12:33:30.707671   543 net.cpp:144] Setting up conv4
I0614 12:33:30.707684   543 net.cpp:151] Top shape: 10 384 13 13 (648960)
I0614 12:33:30.707691   543 net.cpp:159] Memory required for data: 69972120
I0614 12:33:30.707700   543 layer_factory.hpp:77] Creating layer relu4
I0614 12:33:30.707705   543 net.cpp:94] Creating Layer relu4
I0614 12:33:30.707710   543 net.cpp:435] relu4 <- conv4
I0614 12:33:30.707715   543 net.cpp:409] relu4 -> relu4
I0614 12:33:30.707726   543 net.cpp:144] Setting up relu4
I0614 12:33:30.707728   543 net.cpp:151] Top shape: 10 384 13 13 (648960)
I0614 12:33:30.707731   543 net.cpp:159] Memory required for data: 72567960
I0614 12:33:30.707734   543 layer_factory.hpp:77] Creating layer relu4_fixed
I0614 12:33:30.707739   543 net.cpp:94] Creating Layer relu4_fixed
I0614 12:33:30.707742   543 net.cpp:435] relu4_fixed <- relu4
I0614 12:33:30.707746   543 net.cpp:396] relu4_fixed -> relu4 (in-place)
I0614 12:33:30.707757   543 net.cpp:144] Setting up relu4_fixed
I0614 12:33:30.707759   543 net.cpp:151] Top shape: 10 384 13 13 (648960)
I0614 12:33:30.707763   543 net.cpp:159] Memory required for data: 75163800
I0614 12:33:30.707767   543 layer_factory.hpp:77] Creating layer conv5
I0614 12:33:30.707773   543 net.cpp:94] Creating Layer conv5
I0614 12:33:30.707775   543 net.cpp:435] conv5 <- relu4
I0614 12:33:30.707779   543 net.cpp:409] conv5 -> conv5
I0614 12:33:30.716024   543 layer_factory.hpp:77] Creating layer conv5
I0614 12:33:30.724192   543 net.cpp:144] Setting up conv5
I0614 12:33:30.724205   543 net.cpp:151] Top shape: 10 256 13 13 (432640)
I0614 12:33:30.724213   543 net.cpp:159] Memory required for data: 76894360
I0614 12:33:30.724221   543 layer_factory.hpp:77] Creating layer relu5
I0614 12:33:30.724226   543 net.cpp:94] Creating Layer relu5
I0614 12:33:30.724231   543 net.cpp:435] relu5 <- conv5
I0614 12:33:30.724236   543 net.cpp:409] relu5 -> relu5
I0614 12:33:30.724246   543 net.cpp:144] Setting up relu5
I0614 12:33:30.724249   543 net.cpp:151] Top shape: 10 256 13 13 (432640)
I0614 12:33:30.724252   543 net.cpp:159] Memory required for data: 78624920
I0614 12:33:30.724256   543 layer_factory.hpp:77] Creating layer pool5
I0614 12:33:30.724259   543 net.cpp:94] Creating Layer pool5
I0614 12:33:30.724262   543 net.cpp:435] pool5 <- relu5
I0614 12:33:30.724265   543 net.cpp:409] pool5 -> pool5
I0614 12:33:30.724277   543 net.cpp:144] Setting up pool5
I0614 12:33:30.724280   543 net.cpp:151] Top shape: 10 256 6 6 (92160)
I0614 12:33:30.724283   543 net.cpp:159] Memory required for data: 78993560
I0614 12:33:30.724287   543 layer_factory.hpp:77] Creating layer pool5_fixed
I0614 12:33:30.724292   543 net.cpp:94] Creating Layer pool5_fixed
I0614 12:33:30.724293   543 net.cpp:435] pool5_fixed <- pool5
I0614 12:33:30.724296   543 net.cpp:396] pool5_fixed -> pool5 (in-place)
I0614 12:33:30.724324   543 net.cpp:144] Setting up pool5_fixed
I0614 12:33:30.724328   543 net.cpp:151] Top shape: 10 256 6 6 (92160)
I0614 12:33:30.724330   543 net.cpp:159] Memory required for data: 79362200
I0614 12:33:30.724335   543 layer_factory.hpp:77] Creating layer fc6
I0614 12:33:30.724342   543 net.cpp:94] Creating Layer fc6
I0614 12:33:30.724346   543 net.cpp:435] fc6 <- pool5
I0614 12:33:30.724352   543 net.cpp:409] fc6 -> fc6
I0614 12:33:31.047943   543 layer_factory.hpp:77] Creating layer fc6
I0614 12:33:31.363417   543 net.cpp:144] Setting up fc6
I0614 12:33:31.363438   543 net.cpp:151] Top shape: 10 4096 (40960)
I0614 12:33:31.363445   543 net.cpp:159] Memory required for data: 79526040
I0614 12:33:31.363471   543 layer_factory.hpp:77] Creating layer relu6
I0614 12:33:31.363477   543 net.cpp:94] Creating Layer relu6
I0614 12:33:31.363481   543 net.cpp:435] relu6 <- fc6
I0614 12:33:31.363487   543 net.cpp:409] relu6 -> relu6
I0614 12:33:31.363502   543 net.cpp:144] Setting up relu6
I0614 12:33:31.363504   543 net.cpp:151] Top shape: 10 4096 (40960)
I0614 12:33:31.363507   543 net.cpp:159] Memory required for data: 79689880
I0614 12:33:31.363509   543 layer_factory.hpp:77] Creating layer relu6_fixed
I0614 12:33:31.363516   543 net.cpp:94] Creating Layer relu6_fixed
I0614 12:33:31.363518   543 net.cpp:435] relu6_fixed <- relu6
I0614 12:33:31.363523   543 net.cpp:396] relu6_fixed -> relu6 (in-place)
I0614 12:33:31.363534   543 net.cpp:144] Setting up relu6_fixed
I0614 12:33:31.363536   543 net.cpp:151] Top shape: 10 4096 (40960)
I0614 12:33:31.363539   543 net.cpp:159] Memory required for data: 79853720
I0614 12:33:31.363543   543 layer_factory.hpp:77] Creating layer fc7
I0614 12:33:31.363548   543 net.cpp:94] Creating Layer fc7
I0614 12:33:31.363550   543 net.cpp:435] fc7 <- relu6
I0614 12:33:31.363554   543 net.cpp:409] fc7 -> bn7
I0614 12:33:31.499435   543 layer_factory.hpp:77] Creating layer fc7
I0614 12:33:31.639513   543 net.cpp:144] Setting up fc7
I0614 12:33:31.639539   543 net.cpp:151] Top shape: 10 4096 (40960)
I0614 12:33:31.639546   543 net.cpp:159] Memory required for data: 80017560
I0614 12:33:31.639557   543 layer_factory.hpp:77] Creating layer relu7
I0614 12:33:31.639565   543 net.cpp:94] Creating Layer relu7
I0614 12:33:31.639569   543 net.cpp:435] relu7 <- bn7
I0614 12:33:31.639575   543 net.cpp:409] relu7 -> relu7
I0614 12:33:31.639605   543 net.cpp:144] Setting up relu7
I0614 12:33:31.639607   543 net.cpp:151] Top shape: 10 4096 (40960)
I0614 12:33:31.639611   543 net.cpp:159] Memory required for data: 80181400
I0614 12:33:31.639613   543 layer_factory.hpp:77] Creating layer relu7_fixed
I0614 12:33:31.639621   543 net.cpp:94] Creating Layer relu7_fixed
I0614 12:33:31.639622   543 net.cpp:435] relu7_fixed <- relu7
I0614 12:33:31.639626   543 net.cpp:396] relu7_fixed -> relu7 (in-place)
I0614 12:33:31.639638   543 net.cpp:144] Setting up relu7_fixed
I0614 12:33:31.639642   543 net.cpp:151] Top shape: 10 4096 (40960)
I0614 12:33:31.639644   543 net.cpp:159] Memory required for data: 80345240
I0614 12:33:31.639647   543 layer_factory.hpp:77] Creating layer fc8
I0614 12:33:31.639653   543 net.cpp:94] Creating Layer fc8
I0614 12:33:31.639655   543 net.cpp:435] fc8 <- relu7
I0614 12:33:31.639659   543 net.cpp:409] fc8 -> fc8
I0614 12:33:31.639746   543 layer_factory.hpp:77] Creating layer fc8
I0614 12:33:31.639876   543 net.cpp:144] Setting up fc8
I0614 12:33:31.639883   543 net.cpp:151] Top shape: 10 2 (20)
I0614 12:33:31.639885   543 net.cpp:159] Memory required for data: 80345320
I0614 12:33:31.639890   543 layer_factory.hpp:77] Creating layer fc8_fixed
I0614 12:33:31.639895   543 net.cpp:94] Creating Layer fc8_fixed
I0614 12:33:31.639897   543 net.cpp:435] fc8_fixed <- fc8
I0614 12:33:31.639901   543 net.cpp:396] fc8_fixed -> fc8 (in-place)
I0614 12:33:31.639914   543 net.cpp:144] Setting up fc8_fixed
I0614 12:33:31.639917   543 net.cpp:151] Top shape: 10 2 (20)
I0614 12:33:31.639920   543 net.cpp:159] Memory required for data: 80345400
I0614 12:33:31.639925   543 layer_factory.hpp:77] Creating layer loss
I0614 12:33:31.639928   543 net.cpp:94] Creating Layer loss
I0614 12:33:31.639931   543 net.cpp:435] loss <- fc8
I0614 12:33:31.639935   543 net.cpp:435] loss <- label
I0614 12:33:31.639938   543 net.cpp:409] loss -> loss
I0614 12:33:31.639945   543 layer_factory.hpp:77] Creating layer loss
…
I0614 12:33:37.779990   543 net.cpp:284] Network initialization done.
I0614 12:33:37.883412   543 net.cpp:323] The NetState phase (1) differed from the phase (0) specified by a rule in layer data
I0614 12:33:37.883440   543 net.cpp:52] Initializing net from parameters: 
layer {
  name: "data"
  type: "Data"
  top: "data"
  top: "label"
  include {
    phase: TEST
  }
  transform_param {
    mirror: false
    crop_size: 227
    mean_value: 106
    mean_value: 116
    mean_value: 124
  }
  data_param {
    source: "input/lmdb/valid_lmdb"
    batch_size: 50
    backend: LMDB
  }
}
layer {
  name: "data_fixed"
  type: "FixedNeuron"
  bottom: "data"
  top: "data"
  param {
    lr_mult: 0
    decay_mult: 0
  }
  fixed_param {
    fixed_method: OVER_FLOW
    bit_width: 8
    follow_data_layer: true
  }
}
layer {
  name: "conv1"
  type: "ConvolutionFixed"
  bottom: "data"
  top: "bn1"
  param {
    lr_mult: 1
    decay_mult: 1
  }
  param {
    lr_mult: 1
    decay_mult: 0
  }
  convolution_param {
    num_output: 96
    bias_term: true
    pad: 0
    kernel_size: 8
    stride: 4
    weight_filler {
      type: "gaussian"
      std: 0.01
    }
    bias_filler {
      type: "constant"
      value: 0
    }
  }
  fixed_param {
    fixed_method: DIFF_S
    bit_width: 8
  }
}
layer {
  name: "relu1"
  type: "ReLU"
  bottom: "bn1"
  top: "relu1"
}
layer {
  name: "pool1"
  type: "Pooling"
  bottom: "relu1"
  top: "pool1"
  pooling_param {
    pool: MAX
    kernel_size: 3
    stride: 2
  }
}
layer {
  name: "pool1_fixed"
  type: "FixedNeuron"
  bottom: "pool1"
  top: "pool1"
  param {
    lr_mult: 0
    decay_mult: 0
  }
  fixed_param {
    fixed_method: DIFF_S
    bit_width: 8
  }
}
layer {
  name: "conv2"
  type: "ConvolutionFixed"
  bottom: "pool1"
  top: "bn2"
  param {
    lr_mult: 1
    decay_mult: 1
  }
  param {
    lr_mult: 1
    decay_mult: 0
  }
  convolution_param {
    num_output: 256
    bias_term: true
    pad: 2
    kernel_size: 5
    group: 1
    weight_filler {
      type: "gaussian"
      std: 0.01
    }
    bias_filler {
      type: "constant"
      value: 1
    }
  }
  fixed_param {
    fixed_method: DIFF_S
    bit_width: 8
  }
}
layer {
  name: "relu2"
  type: "ReLU"
  bottom: "bn2"
  top: "relu2"
}
layer {
  name: "pool2"
  type: "Pooling"
  bottom: "relu2"
  top: "pool2"
  pooling_param {
    pool: MAX
    kernel_size: 3
    stride: 2
  }
}
layer {
  name: "pool2_fixed"
  type: "FixedNeuron"
  bottom: "pool2"
  top: "pool2"
  param {
    lr_mult: 0
    decay_mult: 0
  }
  fixed_param {
    fixed_method: DIFF_S
    bit_width: 8
  }
}
layer {
  name: "conv3"
  type: "ConvolutionFixed"
  bottom: "pool2"
  top: "conv3"
  param {
    lr_mult: 1
    decay_mult: 1
  }
  param {
    lr_mult: 2
    decay_mult: 0
  }
  convolution_param {
    num_output: 384
    pad: 1
    kernel_size: 3
    weight_filler {
      type: "gaussian"
      std: 0.01
    }
    bias_filler {
      type: "constant"
      value: 0
    }
  }
  fixed_param {
    fixed_method: DIFF_S
    bit_width: 8
  }
}
layer {
  name: "relu3"
  type: "ReLU"
  bottom: "conv3"
  top: "relu3"
}
layer {
  name: "relu3_fixed"
  type: "FixedNeuron"
  bottom: "relu3"
  top: "relu3"
  param {
    lr_mult: 0
    decay_mult: 0
  }
  fixed_param {
    fixed_method: DIFF_S
    bit_width: 8
  }
}
layer {
  name: "conv4"
  type: "ConvolutionFixed"
  bottom: "relu3"
  top: "conv4"
  param {
    lr_mult: 1
    decay_mult: 1
  }
  param {
    lr_mult: 2
    decay_mult: 0
  }
  convolution_param {
    num_output: 384
    pad: 1
    kernel_size: 3
    group: 1
    weight_filler {
      type: "gaussian"
      std: 0.01
    }
    bias_filler {
      type: "constant"
      value: 1
    }
  }
  fixed_param {
    fixed_method: DIFF_S
    bit_width: 8
  }
}
layer {
  name: "relu4"
  type: "ReLU"
  bottom: "conv4"
  top: "relu4"
}
layer {
  name: "relu4_fixed"
  type: "FixedNeuron"
  bottom: "relu4"
  top: "relu4"
  param {
    lr_mult: 0
    decay_mult: 0
  }
  fixed_param {
    fixed_method: DIFF_S
    bit_width: 8
  }
}
layer {
  name: "conv5"
  type: "ConvolutionFixed"
  bottom: "relu4"
  top: "conv5"
  param {
    lr_mult: 1
    decay_mult: 1
  }
  param {
    lr_mult: 2
    decay_mult: 0
  }
  convolution_param {
    num_output: 256
    pad: 1
    kernel_size: 3
    group: 1
    weight_filler {
      type: "gaussian"
      std: 0.01
    }
    bias_filler {
      type: "constant"
      value: 1
    }
  }
  fixed_param {
    fixed_method: DIFF_S
    bit_width: 8
  }
}
layer {
  name: "relu5"
  type: "ReLU"
  bottom: "conv5"
  top: "relu5"
}
layer {
  name: "pool5"
  type: "Pooling"
  bottom: "relu5"
  top: "pool5"
  pooling_param {
    pool: MAX
    kernel_size: 3
    stride: 2
  }
}
layer {
  name: "pool5_fixed"
  type: "FixedNeuron"
  bottom: "pool5"
  top: "pool5"
  param {
    lr_mult: 0
    decay_mult: 0
  }
  fixed_param {
    fixed_method: DIFF_S
    bit_width: 8
  }
}
layer {
  name: "fc6"
  type: "InnerProductFixed"
  bottom: "pool5"
  top: "fc6"
  param {
    lr_mult: 1
    decay_mult: 1
  }
  param {
    lr_mult: 2
    decay_mult: 0
  }
  inner_product_param {
    num_output: 4096
    weight_filler {
      type: "gaussian"
      std: 0.005
    }
    bias_filler {
      type: "constant"
      value: 1
    }
  }
  fixed_param {
    fixed_method: DIFF_S
    bit_width: 8
  }
}
layer {
  name: "relu6"
  type: "ReLU"
  bottom: "fc6"
  top: "relu6"
}
layer {
  name: "relu6_fixed"
  type: "FixedNeuron"
  bottom: "relu6"
  top: "relu6"
  param {
    lr_mult: 0
    decay_mult: 0
  }
  fixed_param {
    fixed_method: DIFF_S
    bit_width: 8
  }
}
layer {
  name: "fc7"
  type: "InnerProductFixed"
  bottom: "relu6"
  top: "bn7"
  param {
    lr_mult: 1
    decay_mult: 1
  }
  param {
    lr_mult: 1
    decay_mult: 0
  }
  inner_product_param {
    num_output: 4096
    bias_term: true
    weight_filler {
      type: "gaussian"
      std: 0.005
    }
    bias_filler {
      type: "constant"
      value: 1
    }
  }
  fixed_param {
    fixed_method: DIFF_S
    bit_width: 8
  }
}
layer {
  name: "relu7"
  type: "ReLU"
  bottom: "bn7"
  top: "relu7"
}
layer {
  name: "relu7_fixed"
  type: "FixedNeuron"
  bottom: "relu7"
  top: "relu7"
  param {
    lr_mult: 0
    decay_mult: 0
  }
  fixed_param {
    fixed_method: DIFF_S
    bit_width: 8
  }
}
layer {
  name: "fc8"
  type: "InnerProductFixed"
  bottom: "relu7"
  top: "fc8"
  param {
    lr_mult: 1
    decay_mult: 1
  }
  param {
    lr_mult: 2
    decay_mult: 0
  }
  inner_product_param {
    num_output: 2
    weight_filler {
      type: "gaussian"
      std: 0.01
    }
    bias_filler {
      type: "constant"
      value: 0
    }
  }
  fixed_param {
    fixed_method: DIFF_S
    bit_width: 8
  }
}
layer {
  name: "fc8_fixed"
  type: "FixedNeuron"
  bottom: "fc8"
  top: "fc8"
  param {
    lr_mult: 0
    decay_mult: 0
  }
  fixed_param {
    fixed_method: DIFF_S
    bit_width: 8
  }
}
layer {
  name: "accuracy"
  type: "Accuracy"
  bottom: "fc8"
  bottom: "label"
  top: "accuracy"
  include {
    phase: TEST
  }
}
layer {
  name: "loss"
  type: "SoftmaxWithLoss"
  bottom: "fc8"
  bottom: "label"
  top: "loss"
}
layer {
  name: "accuracy-top1"
  type: "Accuracy"
  bottom: "fc8"
  bottom: "label"
  top: "top-1"
  include {
    phase: TEST
  }
}
I0614 12:33:37.883881   543 layer_factory.hpp:77] Creating layer data
I0614 12:33:37.883919   543 internal_thread.cpp:27] Starting internal thread(s) on GPU 0
I0614 12:33:37.886004   543 net.cpp:94] Creating Layer data
I0614 12:33:37.886044   543 net.cpp:409] data -> data
I0614 12:33:37.886072   543 net.cpp:409] data -> label
I0614 12:33:37.886901   577 db_lmdb.cpp:35] Opened lmdb input/lmdb/valid_lmdb
I0614 12:33:37.886924   577 db_lmdb.cpp:38] Items count: 4000
I0614 12:33:37.886955   577 data_reader.cpp:124] TEST: reading data using 1 channel(s)
I0614 12:33:37.887213   543 data_layer.cpp:78] ReshapePrefetch 50, 3, 227, 227
I0614 12:33:37.887482   543 data_layer.cpp:83] output data size: 50,3,227,227
I0614 12:33:38.013212   543 internal_thread.cpp:27] Starting internal thread(s) on GPU 0
I0614 12:33:38.013453   543 net.cpp:144] Setting up data
I0614 12:33:38.013463   543 net.cpp:151] Top shape: 50 3 227 227 (7729350)
I0614 12:33:38.013489   543 net.cpp:151] Top shape: 50 (50)
I0614 12:33:38.013495   543 net.cpp:159] Memory required for data: 30917600
I0614 12:33:38.013501   543 layer_factory.hpp:77] Creating layer label_data_1_split
I0614 12:33:38.013515   543 net.cpp:94] Creating Layer label_data_1_split
I0614 12:33:38.013520   543 net.cpp:435] label_data_1_split <- label
I0614 12:33:38.013527   543 net.cpp:409] label_data_1_split -> label_data_1_split_0
I0614 12:33:38.013536   543 net.cpp:409] label_data_1_split -> label_data_1_split_1
I0614 12:33:38.013540   543 net.cpp:409] label_data_1_split -> label_data_1_split_2
I0614 12:33:38.013597   543 net.cpp:144] Setting up label_data_1_split
I0614 12:33:38.013600   543 net.cpp:151] Top shape: 50 (50)
I0614 12:33:38.013604   543 net.cpp:151] Top shape: 50 (50)
I0614 12:33:38.013608   543 net.cpp:151] Top shape: 50 (50)
I0614 12:33:38.013612   543 net.cpp:159] Memory required for data: 30918200
I0614 12:33:38.013614   543 layer_factory.hpp:77] Creating layer data_fixed
I0614 12:33:38.013621   543 net.cpp:94] Creating Layer data_fixed
I0614 12:33:38.013624   543 net.cpp:435] data_fixed <- data
I0614 12:33:38.013629   543 net.cpp:396] data_fixed -> data (in-place)
I0614 12:33:38.013646   543 net.cpp:144] Setting up data_fixed
I0614 12:33:38.013650   543 net.cpp:151] Top shape: 50 3 227 227 (7729350)
I0614 12:33:38.013654   543 net.cpp:159] Memory required for data: 61835600
I0614 12:33:38.013662   543 layer_factory.hpp:77] Creating layer conv1
I0614 12:33:38.013674   543 net.cpp:94] Creating Layer conv1
I0614 12:33:38.013677   543 net.cpp:435] conv1 <- data
I0614 12:33:38.013682   543 net.cpp:409] conv1 -> bn1
I0614 12:33:38.014007   543 layer_factory.hpp:77] Creating layer conv1
I0614 12:33:38.014298   543 net.cpp:144] Setting up conv1
I0614 12:33:38.014304   543 net.cpp:151] Top shape: 50 96 55 55 (14520000)
I0614 12:33:38.014309   543 net.cpp:159] Memory required for data: 119915600
I0614 12:33:38.014317   543 layer_factory.hpp:77] Creating layer relu1
I0614 12:33:38.014322   543 net.cpp:94] Creating Layer relu1
I0614 12:33:38.014326   543 net.cpp:435] relu1 <- bn1
I0614 12:33:38.014330   543 net.cpp:409] relu1 -> relu1
I0614 12:33:38.014343   543 net.cpp:144] Setting up relu1
I0614 12:33:38.014345   543 net.cpp:151] Top shape: 50 96 55 55 (14520000)
I0614 12:33:38.014349   543 net.cpp:159] Memory required for data: 177995600
I0614 12:33:38.014353   543 layer_factory.hpp:77] Creating layer pool1
I0614 12:33:38.014358   543 net.cpp:94] Creating Layer pool1
I0614 12:33:38.014361   543 net.cpp:435] pool1 <- relu1
I0614 12:33:38.014365   543 net.cpp:409] pool1 -> pool1
I0614 12:33:38.014381   543 net.cpp:144] Setting up pool1
I0614 12:33:38.014384   543 net.cpp:151] Top shape: 50 96 27 27 (3499200)
I0614 12:33:38.014389   543 net.cpp:159] Memory required for data: 191992400
I0614 12:33:38.014391   543 layer_factory.hpp:77] Creating layer pool1_fixed
I0614 12:33:38.014396   543 net.cpp:94] Creating Layer pool1_fixed
I0614 12:33:38.014400   543 net.cpp:435] pool1_fixed <- pool1
I0614 12:33:38.014403   543 net.cpp:396] pool1_fixed -> pool1 (in-place)
I0614 12:33:38.014416   543 net.cpp:144] Setting up pool1_fixed
I0614 12:33:38.014420   543 net.cpp:151] Top shape: 50 96 27 27 (3499200)
I0614 12:33:38.014423   543 net.cpp:159] Memory required for data: 205989200
I0614 12:33:38.014427   543 layer_factory.hpp:77] Creating layer conv2
I0614 12:33:38.014434   543 net.cpp:94] Creating Layer conv2
I0614 12:33:38.014437   543 net.cpp:435] conv2 <- pool1
I0614 12:33:38.014442   543 net.cpp:409] conv2 -> bn2
I0614 12:33:38.020854   543 layer_factory.hpp:77] Creating layer conv2
I0614 12:33:38.032392   543 net.cpp:144] Setting up conv2
I0614 12:33:38.032410   543 net.cpp:151] Top shape: 50 256 27 27 (9331200)
I0614 12:33:38.032419   543 net.cpp:159] Memory required for data: 243314000
I0614 12:33:38.032429   543 layer_factory.hpp:77] Creating layer relu2
I0614 12:33:38.032439   543 net.cpp:94] Creating Layer relu2
I0614 12:33:38.032444   543 net.cpp:435] relu2 <- bn2
I0614 12:33:38.032450   543 net.cpp:409] relu2 -> relu2
I0614 12:33:38.032469   543 net.cpp:144] Setting up relu2
I0614 12:33:38.032472   543 net.cpp:151] Top shape: 50 256 27 27 (9331200)
I0614 12:33:38.032480   543 net.cpp:159] Memory required for data: 280638800
I0614 12:33:38.032485   543 layer_factory.hpp:77] Creating layer pool2
I0614 12:33:38.032493   543 net.cpp:94] Creating Layer pool2
I0614 12:33:38.032498   543 net.cpp:435] pool2 <- relu2
I0614 12:33:38.032505   543 net.cpp:409] pool2 -> pool2
I0614 12:33:38.032531   543 net.cpp:144] Setting up pool2
I0614 12:33:38.032537   543 net.cpp:151] Top shape: 50 256 13 13 (2163200)
I0614 12:33:38.032544   543 net.cpp:159] Memory required for data: 289291600
I0614 12:33:38.032548   543 layer_factory.hpp:77] Creating layer pool2_fixed
I0614 12:33:38.032557   543 net.cpp:94] Creating Layer pool2_fixed
I0614 12:33:38.032562   543 net.cpp:435] pool2_fixed <- pool2
I0614 12:33:38.032569   543 net.cpp:396] pool2_fixed -> pool2 (in-place)
I0614 12:33:38.032598   543 net.cpp:144] Setting up pool2_fixed
I0614 12:33:38.032601   543 net.cpp:151] Top shape: 50 256 13 13 (2163200)
I0614 12:33:38.032608   543 net.cpp:159] Memory required for data: 297944400
I0614 12:33:38.032613   543 layer_factory.hpp:77] Creating layer conv3
I0614 12:33:38.032626   543 net.cpp:94] Creating Layer conv3
I0614 12:33:38.032631   543 net.cpp:435] conv3 <- pool2
I0614 12:33:38.032641   543 net.cpp:409] conv3 -> conv3
I0614 12:33:38.043054   543 layer_factory.hpp:77] Creating layer conv3
I0614 12:33:38.052911   543 net.cpp:144] Setting up conv3
I0614 12:33:38.052930   543 net.cpp:151] Top shape: 50 384 13 13 (3244800)
I0614 12:33:38.052939   543 net.cpp:159] Memory required for data: 310923600
I0614 12:33:38.052949   543 layer_factory.hpp:77] Creating layer relu3
I0614 12:33:38.052958   543 net.cpp:94] Creating Layer relu3
I0614 12:33:38.052961   543 net.cpp:435] relu3 <- conv3
I0614 12:33:38.052968   543 net.cpp:409] relu3 -> relu3
I0614 12:33:38.052979   543 net.cpp:144] Setting up relu3
I0614 12:33:38.052982   543 net.cpp:151] Top shape: 50 384 13 13 (3244800)
I0614 12:33:38.052985   543 net.cpp:159] Memory required for data: 323902800
I0614 12:33:38.052989   543 layer_factory.hpp:77] Creating layer relu3_fixed
I0614 12:33:38.052994   543 net.cpp:94] Creating Layer relu3_fixed
I0614 12:33:38.052996   543 net.cpp:435] relu3_fixed <- relu3
I0614 12:33:38.053000   543 net.cpp:396] relu3_fixed -> relu3 (in-place)
I0614 12:33:38.053012   543 net.cpp:144] Setting up relu3_fixed
I0614 12:33:38.053015   543 net.cpp:151] Top shape: 50 384 13 13 (3244800)
I0614 12:33:38.053018   543 net.cpp:159] Memory required for data: 336882000
I0614 12:33:38.053021   543 layer_factory.hpp:77] Creating layer conv4
I0614 12:33:38.053030   543 net.cpp:94] Creating Layer conv4
I0614 12:33:38.053032   543 net.cpp:435] conv4 <- relu3
I0614 12:33:38.053035   543 net.cpp:409] conv4 -> conv4
I0614 12:33:38.067070   543 layer_factory.hpp:77] Creating layer conv4
I0614 12:33:38.082947   543 net.cpp:144] Setting up conv4
I0614 12:33:38.082988   543 net.cpp:151] Top shape: 50 384 13 13 (3244800)
I0614 12:33:38.083005   543 net.cpp:159] Memory required for data: 349861200
I0614 12:33:38.083019   543 layer_factory.hpp:77] Creating layer relu4
I0614 12:33:38.083031   543 net.cpp:94] Creating Layer relu4
I0614 12:33:38.083040   543 net.cpp:435] relu4 <- conv4
I0614 12:33:38.083050   543 net.cpp:409] relu4 -> relu4
I0614 12:33:38.083083   543 net.cpp:144] Setting up relu4
I0614 12:33:38.083087   543 net.cpp:151] Top shape: 50 384 13 13 (3244800)
I0614 12:33:38.083094   543 net.cpp:159] Memory required for data: 362840400
I0614 12:33:38.083099   543 layer_factory.hpp:77] Creating layer relu4_fixed
I0614 12:33:38.083110   543 net.cpp:94] Creating Layer relu4_fixed
I0614 12:33:38.083115   543 net.cpp:435] relu4_fixed <- relu4
I0614 12:33:38.083122   543 net.cpp:396] relu4_fixed -> relu4 (in-place)
I0614 12:33:38.083148   543 net.cpp:144] Setting up relu4_fixed
I0614 12:33:38.083153   543 net.cpp:151] Top shape: 50 384 13 13 (3244800)
I0614 12:33:38.083158   543 net.cpp:159] Memory required for data: 375819600
I0614 12:33:38.083164   543 layer_factory.hpp:77] Creating layer conv5
I0614 12:33:38.083178   543 net.cpp:94] Creating Layer conv5
I0614 12:33:38.083181   543 net.cpp:435] conv5 <- relu4
I0614 12:33:38.083189   543 net.cpp:409] conv5 -> conv5
I0614 12:33:38.093142   543 layer_factory.hpp:77] Creating layer conv5
I0614 12:33:38.103549   543 net.cpp:144] Setting up conv5
I0614 12:33:38.103567   543 net.cpp:151] Top shape: 50 256 13 13 (2163200)
I0614 12:33:38.103575   543 net.cpp:159] Memory required for data: 384472400
I0614 12:33:38.103585   543 layer_factory.hpp:77] Creating layer relu5
I0614 12:33:38.103592   543 net.cpp:94] Creating Layer relu5
I0614 12:33:38.103596   543 net.cpp:435] relu5 <- conv5
I0614 12:33:38.103601   543 net.cpp:409] relu5 -> relu5
I0614 12:33:38.103614   543 net.cpp:144] Setting up relu5
I0614 12:33:38.103617   543 net.cpp:151] Top shape: 50 256 13 13 (2163200)
I0614 12:33:38.103621   543 net.cpp:159] Memory required for data: 393125200
I0614 12:33:38.103623   543 layer_factory.hpp:77] Creating layer pool5
I0614 12:33:38.103627   543 net.cpp:94] Creating Layer pool5
I0614 12:33:38.103631   543 net.cpp:435] pool5 <- relu5
I0614 12:33:38.103634   543 net.cpp:409] pool5 -> pool5
I0614 12:33:38.103647   543 net.cpp:144] Setting up pool5
I0614 12:33:38.103649   543 net.cpp:151] Top shape: 50 256 6 6 (460800)
I0614 12:33:38.103653   543 net.cpp:159] Memory required for data: 394968400
I0614 12:33:38.103655   543 layer_factory.hpp:77] Creating layer pool5_fixed
I0614 12:33:38.103677   543 net.cpp:94] Creating Layer pool5_fixed
I0614 12:33:38.103679   543 net.cpp:435] pool5_fixed <- pool5
I0614 12:33:38.103683   543 net.cpp:396] pool5_fixed -> pool5 (in-place)
I0614 12:33:38.103698   543 net.cpp:144] Setting up pool5_fixed
I0614 12:33:38.103700   543 net.cpp:151] Top shape: 50 256 6 6 (460800)
I0614 12:33:38.103704   543 net.cpp:159] Memory required for data: 396811600
I0614 12:33:38.103708   543 layer_factory.hpp:77] Creating layer fc6
I0614 12:33:38.103714   543 net.cpp:94] Creating Layer fc6
I0614 12:33:38.103718   543 net.cpp:435] fc6 <- pool5
I0614 12:33:38.103721   543 net.cpp:409] fc6 -> fc6
I0614 12:33:38.426295   543 layer_factory.hpp:77] Creating layer fc6
I0614 12:33:38.748303   543 net.cpp:144] Setting up fc6
I0614 12:33:38.748330   543 net.cpp:151] Top shape: 50 4096 (204800)
I0614 12:33:38.748339   543 net.cpp:159] Memory required for data: 397630800
I0614 12:33:38.748350   543 layer_factory.hpp:77] Creating layer relu6
I0614 12:33:38.748358   543 net.cpp:94] Creating Layer relu6
I0614 12:33:38.748361   543 net.cpp:435] relu6 <- fc6
I0614 12:33:38.748368   543 net.cpp:409] relu6 -> relu6
I0614 12:33:38.748382   543 net.cpp:144] Setting up relu6
I0614 12:33:38.748385   543 net.cpp:151] Top shape: 50 4096 (204800)
I0614 12:33:38.748389   543 net.cpp:159] Memory required for data: 398450000
I0614 12:33:38.748390   543 layer_factory.hpp:77] Creating layer relu6_fixed
I0614 12:33:38.748397   543 net.cpp:94] Creating Layer relu6_fixed
I0614 12:33:38.748399   543 net.cpp:435] relu6_fixed <- relu6
I0614 12:33:38.748404   543 net.cpp:396] relu6_fixed -> relu6 (in-place)
I0614 12:33:38.748418   543 net.cpp:144] Setting up relu6_fixed
I0614 12:33:38.748420   543 net.cpp:151] Top shape: 50 4096 (204800)
I0614 12:33:38.748425   543 net.cpp:159] Memory required for data: 399269200
I0614 12:33:38.748427   543 layer_factory.hpp:77] Creating layer fc7
I0614 12:33:38.748435   543 net.cpp:94] Creating Layer fc7
I0614 12:33:38.748437   543 net.cpp:435] fc7 <- relu6
I0614 12:33:38.748441   543 net.cpp:409] fc7 -> bn7
I0614 12:33:38.889650   543 layer_factory.hpp:77] Creating layer fc7
I0614 12:33:39.031711   543 net.cpp:144] Setting up fc7
I0614 12:33:39.031738   543 net.cpp:151] Top shape: 50 4096 (204800)
I0614 12:33:39.031745   543 net.cpp:159] Memory required for data: 400088400
I0614 12:33:39.031754   543 layer_factory.hpp:77] Creating layer relu7
I0614 12:33:39.031761   543 net.cpp:94] Creating Layer relu7
I0614 12:33:39.031765   543 net.cpp:435] relu7 <- bn7
I0614 12:33:39.031771   543 net.cpp:409] relu7 -> relu7
I0614 12:33:39.031786   543 net.cpp:144] Setting up relu7
I0614 12:33:39.031790   543 net.cpp:151] Top shape: 50 4096 (204800)
I0614 12:33:39.031792   543 net.cpp:159] Memory required for data: 400907600
I0614 12:33:39.031795   543 layer_factory.hpp:77] Creating layer relu7_fixed
I0614 12:33:39.031802   543 net.cpp:94] Creating Layer relu7_fixed
I0614 12:33:39.031805   543 net.cpp:435] relu7_fixed <- relu7
I0614 12:33:39.031808   543 net.cpp:396] relu7_fixed -> relu7 (in-place)
I0614 12:33:39.031822   543 net.cpp:144] Setting up relu7_fixed
I0614 12:33:39.031824   543 net.cpp:151] Top shape: 50 4096 (204800)
I0614 12:33:39.031828   543 net.cpp:159] Memory required for data: 401726800
I0614 12:33:39.031831   543 layer_factory.hpp:77] Creating layer fc8
I0614 12:33:39.031838   543 net.cpp:94] Creating Layer fc8
I0614 12:33:39.031841   543 net.cpp:435] fc8 <- relu7
I0614 12:33:39.031845   543 net.cpp:409] fc8 -> fc8
I0614 12:33:39.031935   543 layer_factory.hpp:77] Creating layer fc8
I0614 12:33:39.032063   543 net.cpp:144] Setting up fc8
I0614 12:33:39.032065   543 net.cpp:151] Top shape: 50 2 (100)
I0614 12:33:39.032069   543 net.cpp:159] Memory required for data: 401727200
I0614 12:33:39.032073   543 layer_factory.hpp:77] Creating layer fc8_fixed
I0614 12:33:39.032078   543 net.cpp:94] Creating Layer fc8_fixed
I0614 12:33:39.032081   543 net.cpp:435] fc8_fixed <- fc8
I0614 12:33:39.032085   543 net.cpp:396] fc8_fixed -> fc8 (in-place)
I0614 12:33:39.032099   543 net.cpp:144] Setting up fc8_fixed
I0614 12:33:39.032100   543 net.cpp:151] Top shape: 50 2 (100)
I0614 12:33:39.032104   543 net.cpp:159] Memory required for data: 401727600
I0614 12:33:39.032107   543 layer_factory.hpp:77] Creating layer fc8_fc8_fixed_0_split
I0614 12:33:39.032114   543 net.cpp:94] Creating Layer fc8_fc8_fixed_0_split
I0614 12:33:39.032115   543 net.cpp:435] fc8_fc8_fixed_0_split <- fc8
I0614 12:33:39.032119   543 net.cpp:409] fc8_fc8_fixed_0_split -> fc8_fc8_fixed_0_split_0
I0614 12:33:39.032124   543 net.cpp:409] fc8_fc8_fixed_0_split -> fc8_fc8_fixed_0_split_1
I0614 12:33:39.032130   543 net.cpp:409] fc8_fc8_fixed_0_split -> fc8_fc8_fixed_0_split_2
I0614 12:33:39.032162   543 net.cpp:144] Setting up fc8_fc8_fixed_0_split
I0614 12:33:39.032166   543 net.cpp:151] Top shape: 50 2 (100)
I0614 12:33:39.032169   543 net.cpp:151] Top shape: 50 2 (100)
I0614 12:33:39.032172   543 net.cpp:151] Top shape: 50 2 (100)
I0614 12:33:39.032176   543 net.cpp:159] Memory required for data: 401728800
I0614 12:33:39.032179   543 layer_factory.hpp:77] Creating layer accuracy
I0614 12:33:39.032186   543 net.cpp:94] Creating Layer accuracy
I0614 12:33:39.032189   543 net.cpp:435] accuracy <- fc8_fc8_fixed_0_split_0
I0614 12:33:39.032193   543 net.cpp:435] accuracy <- label_data_1_split_0
I0614 12:33:39.032197   543 net.cpp:409] accuracy -> accuracy
…
(c) Copyright 2016–2019 Xilinx, Inc. All rights reserved.

I0614 19:49:36.637374 13952 net.cpp:323] The NetState phase (1) differed from the phase (0) specified by a rule in layer data
I0614 19:49:36.637624 13952 net.cpp:52] Initializing net from parameters: 
state {
  phase: TEST
}
layer {
  name: "data"
  type: "Data"
  top: "data"
  top: "label"
  include {
    phase: TEST
  }
  transform_param {
    mirror: false
    crop_size: 227
    mean_value: 106
    mean_value: 116
    mean_value: 124
  }
  data_param {
    source: "input/lmdb/valid_lmdb"
    batch_size: 50
    backend: LMDB
  }
}
layer {
  name: "conv1"
  type: "Convolution"
  bottom: "data"
  top: "conv1"
  param {
    lr_mult: 1
    decay_mult: 1
  }
  param {
    lr_mult: 2
    decay_mult: 0
  }
  convolution_param {
    num_output: 78
    pad: 0
    kernel_size: 8
    stride: 4
    weight_filler {
      type: "gaussian"
      std: 0.01
    }
    bias_filler {
      type: "constant"
      value: 0
    }
  }
}
layer {
  name: "bn1"
  type: "BatchNorm"
  bottom: "conv1"
  top: "bn1"
  param {
    lr_mult: 0
  }
  param {
    lr_mult: 0
  }
  param {
    lr_mult: 0
  }
  batch_norm_param {
    use_global_stats: false
  }
}
layer {
  name: "relu1"
  type: "ReLU"
  bottom: "bn1"
  top: "relu1"
}
layer {
  name: "pool1"
  type: "Pooling"
  bottom: "relu1"
  top: "pool1"
  pooling_param {
    pool: MAX
    kernel_size: 3
    stride: 2
  }
}
layer {
  name: "conv2"
  type: "Convolution"
  bottom: "pool1"
  top: "conv2"
  param {
    lr_mult: 1
    decay_mult: 1
  }
  param {
    lr_mult: 2
    decay_mult: 0
  }
  convolution_param {
    num_output: 180
    pad: 2
    kernel_size: 5
    group: 1
    weight_filler {
      type: "gaussian"
      std: 0.01
    }
    bias_filler {
      type: "constant"
      value: 1
    }
  }
}
layer {
  name: "bn2"
  type: "BatchNorm"
  bottom: "conv2"
  top: "bn2"
  param {
    lr_mult: 0
  }
  param {
    lr_mult: 0
  }
  param {
    lr_mult: 0
  }
  batch_norm_param {
    use_global_stats: false
  }
}
layer {
  name: "relu2"
  type: "ReLU"
  bottom: "bn2"
  top: "relu2"
}
layer {
  name: "pool2"
  type: "Pooling"
  bottom: "relu2"
  top: "pool2"
  pooling_param {
    pool: MAX
    kernel_size: 3
    stride: 2
  }
}
layer {
  name: "conv3"
  type: "Convolution"
  bottom: "pool2"
  top: "conv3"
  param {
    lr_mult: 1
    decay_mult: 1
  }
  param {
    lr_mult: 2
    decay_mult: 0
  }
  convolution_param {
    num_output: 40
    pad: 1
    kernel_size: 3
    weight_filler {
      type: "gaussian"
      std: 0.01
    }
    bias_filler {
      type: "constant"
      value: 0
    }
  }
}
layer {
  name: "relu3"
  type: "ReLU"
  bottom: "conv3"
  top: "relu3"
}
layer {
  name: "conv4"
  type: "Convolution"
  bottom: "relu3"
  top: "conv4"
  param {
    lr_mult: 1
    decay_mult: 1
  }
  param {
    lr_mult: 2
    decay_mult: 0
  }
  convolution_param {
    num_output: 40
    pad: 1
    kernel_size: 3
    group: 1
    weight_filler {
      type: "gaussian"
      std: 0.01
    }
    bias_filler {
      type: "constant"
      value: 1
    }
  }
}
layer {
  name: "relu4"
  type: "ReLU"
  bottom: "conv4"
  top: "relu4"
}
layer {
  name: "conv5"
  type: "Convolution"
  bottom: "relu4"
  top: "conv5"
  param {
    lr_mult: 1
    decay_mult: 1
  }
  param {
    lr_mult: 2
    decay_mult: 0
  }
  convolution_param {
    num_output: 26
    pad: 1
    kernel_size: 3
    group: 1
    weight_filler {
      type: "gaussian"
      std: 0.01
    }
    bias_filler {
      type: "constant"
      value: 1
    }
  }
}
layer {
  name: "relu5"
  type: "ReLU"
  bottom: "conv5"
  top: "relu5"
}
layer {
  name: "pool5"
  type: "Pooling"
  bottom: "relu5"
  top: "pool5"
  pooling_param {
    pool: MAX
    kernel_size: 3
    stride: 2
  }
}
layer {
  name: "fc6"
  type: "InnerProduct"
  bottom: "pool5"
  top: "fc6"
  param {
    lr_mult: 1
    decay_mult: 1
  }
  param {
    lr_mult: 2
    decay_mult: 0
  }
  inner_product_param {
    num_output: 4096
    weight_filler {
      type: "gaussian"
      std: 0.005
    }
    bias_filler {
      type: "constant"
      value: 1
    }
  }
}
layer {
  name: "relu6"
  type: "ReLU"
  bottom: "fc6"
  top: "relu6"
}
layer {
  name: "drop6"
  type: "Dropout"
  bottom: "relu6"
  top: "drop6"
  dropout_param {
    dropout_ratio: 0.5
  }
}
layer {
  name: "fc7"
  type: "InnerProduct"
  bottom: "drop6"
  top: "fc7"
  param {
    lr_mult: 1
    decay_mult: 1
  }
  param {
    lr_mult: 2
    decay_mult: 0
  }
  inner_product_param {
    num_output: 4096
    weight_filler {
      type: "gaussian"
      std: 0.005
    }
    bias_filler {
      type: "constant"
      value: 1
    }
  }
}
layer {
  name: "bn7"
  type: "BatchNorm"
  bottom: "fc7"
  top: "bn7"
  param {
    lr_mult: 0
  }
  param {
    lr_mult: 0
  }
  param {
    lr_mult: 0
  }
  batch_norm_param {
    use_global_stats: false
  }
}
layer {
  name: "relu7"
  type: "ReLU"
  bottom: "bn7"
  top: "relu7"
}
layer {
  name: "drop7"
  type: "Dropout"
  bottom: "relu7"
  top: "drop7"
  dropout_param {
    dropout_ratio: 0.5
  }
}
layer {
  name: "fc8"
  type: "InnerProduct"
  bottom: "drop7"
  top: "fc8"
  param {
    lr_mult: 1
    decay_mult: 1
  }
  param {
    lr_mult: 2
    decay_mult: 0
  }
  inner_product_param {
    num_output: 2
    weight_filler {
      type: "gaussian"
      std: 0.01
    }
    bias_filler {
      type: "constant"
      value: 0
    }
  }
}
layer {
  name: "accuracy"
  type: "Accuracy"
  bottom: "fc8"
  bottom: "label"
  top: "accuracy"
  include {
    phase: TEST
  }
}
layer {
  name: "loss"
  type: "SoftmaxWithLoss"
  bottom: "fc8"
  bottom: "label"
  top: "loss"
}
layer {
  name: "accuracy-top1"
  type: "Accuracy"
  bottom: "fc8"
  bottom: "label"
  top: "top-1"
  include {
    phase: TEST
  }
}
I0614 19:49:36.637877 13952 layer_factory.hpp:77] Creating layer data
I0614 19:49:36.638754 13952 internal_thread.cpp:27] Starting internal thread(s) on GPU 0
I0614 19:49:36.639032 13952 net.cpp:94] Creating Layer data
I0614 19:49:36.639042 13952 net.cpp:409] data -> data
I0614 19:49:36.639053 13952 net.cpp:409] data -> label
I0614 19:49:36.642335 13985 db_lmdb.cpp:35] Opened lmdb input/lmdb/valid_lmdb
I0614 19:49:36.642369 13985 db_lmdb.cpp:38] Items count: 4000
I0614 19:49:36.642410 13985 data_reader.cpp:124] TEST: reading data using 1 channel(s)
I0614 19:49:36.642751 13952 data_layer.cpp:78] ReshapePrefetch 50, 3, 227, 227
I0614 19:49:36.642762 13952 data_layer.cpp:83] output data size: 50,3,227,227
I0614 19:49:36.754844 13952 internal_thread.cpp:27] Starting internal thread(s) on GPU 0
I0614 19:49:36.754966 13952 net.cpp:144] Setting up data
I0614 19:49:36.754976 13952 net.cpp:151] Top shape: 50 3 227 227 (7729350)
I0614 19:49:36.754985 13952 net.cpp:151] Top shape: 50 (50)
I0614 19:49:36.754990 13952 net.cpp:159] Memory required for data: 30917600
I0614 19:49:36.754995 13952 layer_factory.hpp:77] Creating layer label_data_1_split
I0614 19:49:36.755005 13952 net.cpp:94] Creating Layer label_data_1_split
I0614 19:49:36.755009 13952 net.cpp:435] label_data_1_split <- label
I0614 19:49:36.755015 13952 net.cpp:409] label_data_1_split -> label_data_1_split_0
I0614 19:49:36.755024 13952 net.cpp:409] label_data_1_split -> label_data_1_split_1
I0614 19:49:36.755029 13952 net.cpp:409] label_data_1_split -> label_data_1_split_2
I0614 19:49:36.755038 13952 net.cpp:144] Setting up label_data_1_split
I0614 19:49:36.755041 13952 net.cpp:151] Top shape: 50 (50)
I0614 19:49:36.755045 13952 net.cpp:151] Top shape: 50 (50)
I0614 19:49:36.755048 13952 net.cpp:151] Top shape: 50 (50)
I0614 19:49:36.755053 13952 net.cpp:159] Memory required for data: 30918200
I0614 19:49:36.755056 13952 layer_factory.hpp:77] Creating layer conv1
I0614 19:49:36.755065 13952 net.cpp:94] Creating Layer conv1
I0614 19:49:36.755069 13952 net.cpp:435] conv1 <- data
I0614 19:49:36.755074 13952 net.cpp:409] conv1 -> conv1
I0614 19:49:36.755270 13952 net.cpp:144] Setting up conv1
I0614 19:49:36.755273 13952 net.cpp:151] Top shape: 50 78 55 55 (11797500)
I0614 19:49:36.755278 13952 net.cpp:159] Memory required for data: 78108200
I0614 19:49:36.755288 13952 layer_factory.hpp:77] Creating layer bn1
I0614 19:49:36.755295 13952 net.cpp:94] Creating Layer bn1
I0614 19:49:36.755298 13952 net.cpp:435] bn1 <- conv1
I0614 19:49:36.755302 13952 net.cpp:409] bn1 -> bn1
I0614 19:49:36.755331 13952 net.cpp:144] Setting up bn1
I0614 19:49:36.755352 13952 net.cpp:151] Top shape: 50 78 55 55 (11797500)
I0614 19:49:36.755357 13952 net.cpp:159] Memory required for data: 125298200
I0614 19:49:36.755367 13952 layer_factory.hpp:77] Creating layer relu1
I0614 19:49:36.755373 13952 net.cpp:94] Creating Layer relu1
I0614 19:49:36.755375 13952 net.cpp:435] relu1 <- bn1
I0614 19:49:36.755380 13952 net.cpp:409] relu1 -> relu1
I0614 19:49:36.755386 13952 net.cpp:144] Setting up relu1
I0614 19:49:36.755390 13952 net.cpp:151] Top shape: 50 78 55 55 (11797500)
I0614 19:49:36.755395 13952 net.cpp:159] Memory required for data: 172488200
I0614 19:49:36.755398 13952 layer_factory.hpp:77] Creating layer pool1
I0614 19:49:36.755403 13952 net.cpp:94] Creating Layer pool1
I0614 19:49:36.755407 13952 net.cpp:435] pool1 <- relu1
I0614 19:49:36.755411 13952 net.cpp:409] pool1 -> pool1
I0614 19:49:36.755421 13952 net.cpp:144] Setting up pool1
I0614 19:49:36.755425 13952 net.cpp:151] Top shape: 50 78 27 27 (2843100)
I0614 19:49:36.755429 13952 net.cpp:159] Memory required for data: 183860600
I0614 19:49:36.755434 13952 layer_factory.hpp:77] Creating layer conv2
I0614 19:49:36.755439 13952 net.cpp:94] Creating Layer conv2
I0614 19:49:36.755443 13952 net.cpp:435] conv2 <- pool1
I0614 19:49:36.755448 13952 net.cpp:409] conv2 -> conv2
I0614 19:49:36.759459 13952 net.cpp:144] Setting up conv2
I0614 19:49:36.759470 13952 net.cpp:151] Top shape: 50 180 27 27 (6561000)
I0614 19:49:36.759476 13952 net.cpp:159] Memory required for data: 210104600
I0614 19:49:36.759485 13952 layer_factory.hpp:77] Creating layer bn2
I0614 19:49:36.759493 13952 net.cpp:94] Creating Layer bn2
I0614 19:49:36.759497 13952 net.cpp:435] bn2 <- conv2
I0614 19:49:36.759502 13952 net.cpp:409] bn2 -> bn2
I0614 19:49:36.759531 13952 net.cpp:144] Setting up bn2
I0614 19:49:36.759533 13952 net.cpp:151] Top shape: 50 180 27 27 (6561000)
I0614 19:49:36.759538 13952 net.cpp:159] Memory required for data: 236348600
I0614 19:49:36.759544 13952 layer_factory.hpp:77] Creating layer relu2
I0614 19:49:36.759549 13952 net.cpp:94] Creating Layer relu2
I0614 19:49:36.759553 13952 net.cpp:435] relu2 <- bn2
I0614 19:49:36.759558 13952 net.cpp:409] relu2 -> relu2
I0614 19:49:36.759564 13952 net.cpp:144] Setting up relu2
I0614 19:49:36.759568 13952 net.cpp:151] Top shape: 50 180 27 27 (6561000)
I0614 19:49:36.759589 13952 net.cpp:159] Memory required for data: 262592600
I0614 19:49:36.759593 13952 layer_factory.hpp:77] Creating layer pool2
I0614 19:49:36.759598 13952 net.cpp:94] Creating Layer pool2
I0614 19:49:36.759600 13952 net.cpp:435] pool2 <- relu2
I0614 19:49:36.759605 13952 net.cpp:409] pool2 -> pool2
I0614 19:49:36.759613 13952 net.cpp:144] Setting up pool2
I0614 19:49:36.759615 13952 net.cpp:151] Top shape: 50 180 13 13 (1521000)
I0614 19:49:36.759620 13952 net.cpp:159] Memory required for data: 268676600
I0614 19:49:36.759624 13952 layer_factory.hpp:77] Creating layer conv3
I0614 19:49:36.759630 13952 net.cpp:94] Creating Layer conv3
I0614 19:49:36.759634 13952 net.cpp:435] conv3 <- pool2
I0614 19:49:36.759639 13952 net.cpp:409] conv3 -> conv3
I0614 19:49:36.760447 13952 net.cpp:144] Setting up conv3
I0614 19:49:36.760452 13952 net.cpp:151] Top shape: 50 40 13 13 (338000)
I0614 19:49:36.760458 13952 net.cpp:159] Memory required for data: 270028600
I0614 19:49:36.760463 13952 layer_factory.hpp:77] Creating layer relu3
I0614 19:49:36.760468 13952 net.cpp:94] Creating Layer relu3
I0614 19:49:36.760471 13952 net.cpp:435] relu3 <- conv3
I0614 19:49:36.760476 13952 net.cpp:409] relu3 -> relu3
I0614 19:49:36.760483 13952 net.cpp:144] Setting up relu3
I0614 19:49:36.760485 13952 net.cpp:151] Top shape: 50 40 13 13 (338000)
I0614 19:49:36.760490 13952 net.cpp:159] Memory required for data: 271380600
I0614 19:49:36.760493 13952 layer_factory.hpp:77] Creating layer conv4
I0614 19:49:36.760500 13952 net.cpp:94] Creating Layer conv4
I0614 19:49:36.760504 13952 net.cpp:435] conv4 <- relu3
I0614 19:49:36.760509 13952 net.cpp:409] conv4 -> conv4
I0614 19:49:36.760704 13952 net.cpp:144] Setting up conv4
I0614 19:49:36.760707 13952 net.cpp:151] Top shape: 50 40 13 13 (338000)
I0614 19:49:36.760722 13952 net.cpp:159] Memory required for data: 272732600
I0614 19:49:36.760728 13952 layer_factory.hpp:77] Creating layer relu4
I0614 19:49:36.760733 13952 net.cpp:94] Creating Layer relu4
I0614 19:49:36.760737 13952 net.cpp:435] relu4 <- conv4
I0614 19:49:36.760741 13952 net.cpp:409] relu4 -> relu4
I0614 19:49:36.760748 13952 net.cpp:144] Setting up relu4
I0614 19:49:36.760754 13952 net.cpp:151] Top shape: 50 40 13 13 (338000)
I0614 19:49:36.760759 13952 net.cpp:159] Memory required for data: 274084600
I0614 19:49:36.760763 13952 layer_factory.hpp:77] Creating layer conv5
I0614 19:49:36.760768 13952 net.cpp:94] Creating Layer conv5
I0614 19:49:36.760772 13952 net.cpp:435] conv5 <- relu4
I0614 19:49:36.760777 13952 net.cpp:409] conv5 -> conv5
I0614 19:49:36.760910 13952 net.cpp:144] Setting up conv5
I0614 19:49:36.760913 13952 net.cpp:151] Top shape: 50 26 13 13 (219700)
I0614 19:49:36.760918 13952 net.cpp:159] Memory required for data: 274963400
I0614 19:49:36.760922 13952 layer_factory.hpp:77] Creating layer relu5
I0614 19:49:36.760927 13952 net.cpp:94] Creating Layer relu5
I0614 19:49:36.760931 13952 net.cpp:435] relu5 <- conv5
I0614 19:49:36.760936 13952 net.cpp:409] relu5 -> relu5
I0614 19:49:36.760941 13952 net.cpp:144] Setting up relu5
I0614 19:49:36.760946 13952 net.cpp:151] Top shape: 50 26 13 13 (219700)
I0614 19:49:36.760949 13952 net.cpp:159] Memory required for data: 275842200
I0614 19:49:36.760953 13952 layer_factory.hpp:77] Creating layer pool5
I0614 19:49:36.760957 13952 net.cpp:94] Creating Layer pool5
I0614 19:49:36.760962 13952 net.cpp:435] pool5 <- relu5
I0614 19:49:36.760965 13952 net.cpp:409] pool5 -> pool5
I0614 19:49:36.760972 13952 net.cpp:144] Setting up pool5
I0614 19:49:36.760977 13952 net.cpp:151] Top shape: 50 26 6 6 (46800)
I0614 19:49:36.760980 13952 net.cpp:159] Memory required for data: 276029400
I0614 19:49:36.760984 13952 layer_factory.hpp:77] Creating layer fc6
I0614 19:49:36.760990 13952 net.cpp:94] Creating Layer fc6
I0614 19:49:36.760993 13952 net.cpp:435] fc6 <- pool5
I0614 19:49:36.760998 13952 net.cpp:409] fc6 -> fc6
I0614 19:49:36.801414 13952 net.cpp:144] Setting up fc6
I0614 19:49:36.801429 13952 net.cpp:151] Top shape: 50 4096 (204800)
I0614 19:49:36.801436 13952 net.cpp:159] Memory required for data: 276848600
I0614 19:49:36.801443 13952 layer_factory.hpp:77] Creating layer relu6
I0614 19:49:36.801450 13952 net.cpp:94] Creating Layer relu6
I0614 19:49:36.801455 13952 net.cpp:435] relu6 <- fc6
I0614 19:49:36.801460 13952 net.cpp:409] relu6 -> relu6
I0614 19:49:36.801470 13952 net.cpp:144] Setting up relu6
I0614 19:49:36.801473 13952 net.cpp:151] Top shape: 50 4096 (204800)
I0614 19:49:36.801478 13952 net.cpp:159] Memory required for data: 277667800
I0614 19:49:36.801481 13952 layer_factory.hpp:77] Creating layer drop6
I0614 19:49:36.801487 13952 net.cpp:94] Creating Layer drop6
I0614 19:49:36.801491 13952 net.cpp:435] drop6 <- relu6
I0614 19:49:36.801496 13952 net.cpp:409] drop6 -> drop6
I0614 19:49:36.801501 13952 net.cpp:144] Setting up drop6
I0614 19:49:36.801504 13952 net.cpp:151] Top shape: 50 4096 (204800)
I0614 19:49:36.801509 13952 net.cpp:159] Memory required for data: 278487000
I0614 19:49:36.801512 13952 layer_factory.hpp:77] Creating layer fc7
I0614 19:49:36.801518 13952 net.cpp:94] Creating Layer fc7
I0614 19:49:36.801522 13952 net.cpp:435] fc7 <- drop6
I0614 19:49:36.801527 13952 net.cpp:409] fc7 -> fc7
I0614 19:49:36.971494 13952 net.cpp:144] Setting up fc7
I0614 19:49:36.971519 13952 net.cpp:151] Top shape: 50 4096 (204800)
I0614 19:49:36.971527 13952 net.cpp:159] Memory required for data: 279306200
I0614 19:49:36.971535 13952 layer_factory.hpp:77] Creating layer bn7
I0614 19:49:36.971544 13952 net.cpp:94] Creating Layer bn7
I0614 19:49:36.971547 13952 net.cpp:435] bn7 <- fc7
I0614 19:49:36.971555 13952 net.cpp:409] bn7 -> bn7
I0614 19:49:36.971678 13952 net.cpp:144] Setting up bn7
I0614 19:49:36.971683 13952 net.cpp:151] Top shape: 50 4096 (204800)
I0614 19:49:36.971686 13952 net.cpp:159] Memory required for data: 280125400
I0614 19:49:36.971711 13952 layer_factory.hpp:77] Creating layer relu7
I0614 19:49:36.971717 13952 net.cpp:94] Creating Layer relu7
I0614 19:49:36.971720 13952 net.cpp:435] relu7 <- bn7
I0614 19:49:36.971725 13952 net.cpp:409] relu7 -> relu7
I0614 19:49:36.971732 13952 net.cpp:144] Setting up relu7
I0614 19:49:36.971735 13952 net.cpp:151] Top shape: 50 4096 (204800)
I0614 19:49:36.971740 13952 net.cpp:159] Memory required for data: 280944600
I0614 19:49:36.971743 13952 layer_factory.hpp:77] Creating layer drop7
I0614 19:49:36.971750 13952 net.cpp:94] Creating Layer drop7
I0614 19:49:36.971752 13952 net.cpp:435] drop7 <- relu7
I0614 19:49:36.971756 13952 net.cpp:409] drop7 -> drop7
I0614 19:49:36.971763 13952 net.cpp:144] Setting up drop7
I0614 19:49:36.971766 13952 net.cpp:151] Top shape: 50 4096 (204800)
I0614 19:49:36.971771 13952 net.cpp:159] Memory required for data: 281763800
I0614 19:49:36.971773 13952 layer_factory.hpp:77] Creating layer fc8
I0614 19:49:36.971779 13952 net.cpp:94] Creating Layer fc8
I0614 19:49:36.971783 13952 net.cpp:435] fc8 <- drop7
I0614 19:49:36.971789 13952 net.cpp:409] fc8 -> fc8
I0614 19:49:36.971915 13952 net.cpp:144] Setting up fc8
I0614 19:49:36.971920 13952 net.cpp:151] Top shape: 50 2 (100)
I0614 19:49:36.971923 13952 net.cpp:159] Memory required for data: 281764200
I0614 19:49:36.971928 13952 layer_factory.hpp:77] Creating layer fc8_fc8_0_split
I0614 19:49:36.971935 13952 net.cpp:94] Creating Layer fc8_fc8_0_split
I0614 19:49:36.971938 13952 net.cpp:435] fc8_fc8_0_split <- fc8
I0614 19:49:36.971944 13952 net.cpp:409] fc8_fc8_0_split -> fc8_fc8_0_split_0
I0614 19:49:36.971951 13952 net.cpp:409] fc8_fc8_0_split -> fc8_fc8_0_split_1
I0614 19:49:36.971956 13952 net.cpp:409] fc8_fc8_0_split -> fc8_fc8_0_split_2
I0614 19:49:36.971962 13952 net.cpp:144] Setting up fc8_fc8_0_split
I0614 19:49:36.971966 13952 net.cpp:151] Top shape: 50 2 (100)
I0614 19:49:36.971971 13952 net.cpp:151] Top shape: 50 2 (100)
I0614 19:49:36.971974 13952 net.cpp:151] Top shape: 50 2 (100)
I0614 19:49:36.971978 13952 net.cpp:159] Memory required for data: 281765400
I0614 19:49:36.971982 13952 layer_factory.hpp:77] Creating layer accuracy
I0614 19:49:36.971992 13952 net.cpp:94] Creating Layer accuracy
I0614 19:49:36.971995 13952 net.cpp:435] accuracy <- fc8_fc8_0_split_0
I0614 19:49:36.972000 13952 net.cpp:435] accuracy <- label_data_1_split_0
I0614 19:49:36.972007 13952 net.cpp:409] accuracy -> accuracy
…
I0614 19:49:45.165118 14053 net.cpp:323] The NetState phase (0) differed from the phase (1) specified by a rule in layer accuracy-top1
I0614 19:49:45.165138 14053 net.cpp:52] Initializing net from parameters: 
state {
  phase: TRAIN
}
layer {
  name: "data"
  type: "ImageData"
  top: "data"
  top: "label"
  include {
    phase: TRAIN
  }
  transform_param {
    crop_size: 227
    mean_value: 106
    mean_value: 116
    mean_value: 124
  }
  image_data_param {
    source: "deploy/alexnetBNnoLRN/pruned/data/calib/calibration.txt"
    batch_size: 10
    shuffle: true
    root_folder: "deploy/alexnetBNnoLRN/pruned/data/calib/"
  }
}
layer {
  name: "conv1"
  type: "Convolution"
  bottom: "data"
  top: "conv1"
  param {
    lr_mult: 1
    decay_mult: 1
  }
  param {
    lr_mult: 2
    decay_mult: 0
  }
  convolution_param {
    num_output: 78
    pad: 0
    kernel_size: 8
    stride: 4
    weight_filler {
      type: "gaussian"
      std: 0.01
    }
    bias_filler {
      type: "constant"
      value: 0
    }
  }
}
layer {
  name: "bn1"
  type: "BatchNorm"
  bottom: "conv1"
  top: "bn1"
  param {
    lr_mult: 0
  }
  param {
    lr_mult: 0
  }
  param {
    lr_mult: 0
  }
  batch_norm_param {
    use_global_stats: false
  }
}
layer {
  name: "relu1"
  type: "ReLU"
  bottom: "bn1"
  top: "relu1"
}
layer {
  name: "pool1"
  type: "Pooling"
  bottom: "relu1"
  top: "pool1"
  pooling_param {
    pool: MAX
    kernel_size: 3
    stride: 2
  }
}
layer {
  name: "conv2"
  type: "Convolution"
  bottom: "pool1"
  top: "conv2"
  param {
    lr_mult: 1
    decay_mult: 1
  }
  param {
    lr_mult: 2
    decay_mult: 0
  }
  convolution_param {
    num_output: 180
    pad: 2
    kernel_size: 5
    group: 1
    weight_filler {
      type: "gaussian"
      std: 0.01
    }
    bias_filler {
      type: "constant"
      value: 1
    }
  }
}
layer {
  name: "bn2"
  type: "BatchNorm"
  bottom: "conv2"
  top: "bn2"
  param {
    lr_mult: 0
  }
  param {
    lr_mult: 0
  }
  param {
    lr_mult: 0
  }
  batch_norm_param {
    use_global_stats: false
  }
}
layer {
  name: "relu2"
  type: "ReLU"
  bottom: "bn2"
  top: "relu2"
}
layer {
  name: "pool2"
  type: "Pooling"
  bottom: "relu2"
  top: "pool2"
  pooling_param {
    pool: MAX
    kernel_size: 3
    stride: 2
  }
}
layer {
  name: "conv3"
  type: "Convolution"
  bottom: "pool2"
  top: "conv3"
  param {
    lr_mult: 1
    decay_mult: 1
  }
  param {
    lr_mult: 2
    decay_mult: 0
  }
  convolution_param {
    num_output: 40
    pad: 1
    kernel_size: 3
    weight_filler {
      type: "gaussian"
      std: 0.01
    }
    bias_filler {
      type: "constant"
      value: 0
    }
  }
}
layer {
  name: "relu3"
  type: "ReLU"
  bottom: "conv3"
  top: "relu3"
}
layer {
  name: "conv4"
  type: "Convolution"
  bottom: "relu3"
  top: "conv4"
  param {
    lr_mult: 1
    decay_mult: 1
  }
  param {
    lr_mult: 2
    decay_mult: 0
  }
  convolution_param {
    num_output: 40
    pad: 1
    kernel_size: 3
    group: 1
    weight_filler {
      type: "gaussian"
      std: 0.01
    }
    bias_filler {
      type: "constant"
      value: 1
    }
  }
}
layer {
  name: "relu4"
  type: "ReLU"
  bottom: "conv4"
  top: "relu4"
}
layer {
  name: "conv5"
  type: "Convolution"
  bottom: "relu4"
  top: "conv5"
  param {
    lr_mult: 1
    decay_mult: 1
  }
  param {
    lr_mult: 2
    decay_mult: 0
  }
  convolution_param {
    num_output: 26
    pad: 1
    kernel_size: 3
    group: 1
    weight_filler {
      type: "gaussian"
      std: 0.01
    }
    bias_filler {
      type: "constant"
      value: 1
    }
  }
}
layer {
  name: "relu5"
  type: "ReLU"
  bottom: "conv5"
  top: "relu5"
}
layer {
  name: "pool5"
  type: "Pooling"
  bottom: "relu5"
  top: "pool5"
  pooling_param {
    pool: MAX
    kernel_size: 3
    stride: 2
  }
}
layer {
  name: "fc6"
  type: "InnerProduct"
  bottom: "pool5"
  top: "fc6"
  param {
    lr_mult: 1
    decay_mult: 1
  }
  param {
    lr_mult: 2
    decay_mult: 0
  }
  inner_product_param {
    num_output: 4096
    weight_filler {
      type: "gaussian"
      std: 0.005
    }
    bias_filler {
      type: "constant"
      value: 1
    }
  }
}
layer {
  name: "relu6"
  type: "ReLU"
  bottom: "fc6"
  top: "relu6"
}
layer {
  name: "fc7"
  type: "InnerProduct"
  bottom: "relu6"
  top: "fc7"
  param {
    lr_mult: 1
    decay_mult: 1
  }
  param {
    lr_mult: 2
    decay_mult: 0
  }
  inner_product_param {
    num_output: 4096
    weight_filler {
      type: "gaussian"
      std: 0.005
    }
    bias_filler {
      type: "constant"
      value: 1
    }
  }
}
layer {
  name: "bn7"
  type: "BatchNorm"
  bottom: "fc7"
  top: "bn7"
  param {
    lr_mult: 0
  }
  param {
    lr_mult: 0
  }
  param {
    lr_mult: 0
  }
  batch_norm_param {
    use_global_stats: false
  }
}
layer {
  name: "relu7"
  type: "ReLU"
  bottom: "bn7"
  top: "relu7"
}
layer {
  name: "fc8"
  type: "InnerProduct"
  bottom: "relu7"
  top: "fc8"
  param {
    lr_mult: 1
    decay_mult: 1
  }
  param {
    lr_mult: 2
    decay_mult: 0
  }
  inner_product_param {
    num_output: 2
    weight_filler {
      type: "gaussian"
      std: 0.01
    }
    bias_filler {
      type: "constant"
      value: 0
    }
  }
}
layer {
  name: "loss"
  type: "SoftmaxWithLoss"
  bottom: "fc8"
  bottom: "label"
  top: "loss"
}
I0614 19:49:45.165372 14053 layer_factory.hpp:77] Creating layer data
I0614 19:49:45.165868 14053 net.cpp:94] Creating Layer data
I0614 19:49:45.165879 14053 net.cpp:409] data -> data
I0614 19:49:45.165894 14053 net.cpp:409] data -> label
I0614 19:49:45.166783 14053 image_data_layer.cpp:41] Opening file deploy/alexnetBNnoLRN/pruned/data/calib/calibration.txt
I0614 19:49:45.167733 14053 image_data_layer.cpp:51] Shuffling data
I0614 19:49:45.167752 14053 image_data_layer.cpp:56] A total of 200 images.
I0614 19:49:45.172610 14053 image_data_layer.cpp:84] output data size: 10,3,227,227
I0614 19:49:45.195580 14053 internal_thread.cpp:27] Starting internal thread(s) on GPU 0
I0614 19:49:45.195657 14053 net.cpp:144] Setting up data
I0614 19:49:45.195660 14053 net.cpp:151] Top shape: 10 3 227 227 (1545870)
I0614 19:49:45.195668 14053 net.cpp:151] Top shape: 10 (10)
I0614 19:49:45.195672 14053 net.cpp:159] Memory required for data: 6183520
I0614 19:49:45.195677 14053 layer_factory.hpp:77] Creating layer conv1
I0614 19:49:45.195696 14053 net.cpp:94] Creating Layer conv1
I0614 19:49:45.195700 14053 net.cpp:435] conv1 <- data
I0614 19:49:45.195706 14053 net.cpp:409] conv1 -> conv1
I0614 19:49:45.196995 14053 net.cpp:144] Setting up conv1
I0614 19:49:45.197005 14053 net.cpp:151] Top shape: 10 78 55 55 (2359500)
I0614 19:49:45.197010 14053 net.cpp:159] Memory required for data: 15621520
I0614 19:49:45.197031 14053 layer_factory.hpp:77] Creating layer bn1
I0614 19:49:45.197044 14053 net.cpp:94] Creating Layer bn1
I0614 19:49:45.197048 14053 net.cpp:435] bn1 <- conv1
I0614 19:49:45.197053 14053 net.cpp:409] bn1 -> bn1
I0614 19:49:45.197623 14053 net.cpp:144] Setting up bn1
I0614 19:49:45.197629 14053 net.cpp:151] Top shape: 10 78 55 55 (2359500)
I0614 19:49:45.197635 14053 net.cpp:159] Memory required for data: 25059520
I0614 19:49:45.197644 14053 layer_factory.hpp:77] Creating layer relu1
I0614 19:49:45.197649 14053 net.cpp:94] Creating Layer relu1
I0614 19:49:45.197654 14053 net.cpp:435] relu1 <- bn1
I0614 19:49:45.197657 14053 net.cpp:409] relu1 -> relu1
I0614 19:49:45.197698 14053 net.cpp:144] Setting up relu1
I0614 19:49:45.197701 14053 net.cpp:151] Top shape: 10 78 55 55 (2359500)
I0614 19:49:45.197705 14053 net.cpp:159] Memory required for data: 34497520
I0614 19:49:45.197708 14053 layer_factory.hpp:77] Creating layer pool1
I0614 19:49:45.197715 14053 net.cpp:94] Creating Layer pool1
I0614 19:49:45.197717 14053 net.cpp:435] pool1 <- relu1
I0614 19:49:45.197721 14053 net.cpp:409] pool1 -> pool1
I0614 19:49:45.197757 14053 net.cpp:144] Setting up pool1
I0614 19:49:45.197759 14053 net.cpp:151] Top shape: 10 78 27 27 (568620)
I0614 19:49:45.197764 14053 net.cpp:159] Memory required for data: 36772000
I0614 19:49:45.197768 14053 layer_factory.hpp:77] Creating layer conv2
I0614 19:49:45.197778 14053 net.cpp:94] Creating Layer conv2
I0614 19:49:45.197783 14053 net.cpp:435] conv2 <- pool1
I0614 19:49:45.197788 14053 net.cpp:409] conv2 -> conv2
I0614 19:49:45.201357 14053 net.cpp:144] Setting up conv2
I0614 19:49:45.201368 14053 net.cpp:151] Top shape: 10 180 27 27 (1312200)
I0614 19:49:45.201375 14053 net.cpp:159] Memory required for data: 42020800
I0614 19:49:45.201388 14053 layer_factory.hpp:77] Creating layer bn2
I0614 19:49:45.201396 14053 net.cpp:94] Creating Layer bn2
I0614 19:49:45.201400 14053 net.cpp:435] bn2 <- conv2
I0614 19:49:45.201404 14053 net.cpp:409] bn2 -> bn2
I0614 19:49:45.201712 14053 net.cpp:144] Setting up bn2
I0614 19:49:45.201719 14053 net.cpp:151] Top shape: 10 180 27 27 (1312200)
I0614 19:49:45.201725 14053 net.cpp:159] Memory required for data: 47269600
I0614 19:49:45.201733 14053 layer_factory.hpp:77] Creating layer relu2
I0614 19:49:45.201740 14053 net.cpp:94] Creating Layer relu2
I0614 19:49:45.201745 14053 net.cpp:435] relu2 <- bn2
I0614 19:49:45.201750 14053 net.cpp:409] relu2 -> relu2
I0614 19:49:45.201762 14053 net.cpp:144] Setting up relu2
I0614 19:49:45.201766 14053 net.cpp:151] Top shape: 10 180 27 27 (1312200)
I0614 19:49:45.201769 14053 net.cpp:159] Memory required for data: 52518400
I0614 19:49:45.201772 14053 layer_factory.hpp:77] Creating layer pool2
I0614 19:49:45.201778 14053 net.cpp:94] Creating Layer pool2
I0614 19:49:45.201781 14053 net.cpp:435] pool2 <- relu2
I0614 19:49:45.201786 14053 net.cpp:409] pool2 -> pool2
I0614 19:49:45.201798 14053 net.cpp:144] Setting up pool2
I0614 19:49:45.201802 14053 net.cpp:151] Top shape: 10 180 13 13 (304200)
I0614 19:49:45.201805 14053 net.cpp:159] Memory required for data: 53735200
I0614 19:49:45.201808 14053 layer_factory.hpp:77] Creating layer conv3
I0614 19:49:45.201815 14053 net.cpp:94] Creating Layer conv3
I0614 19:49:45.201818 14053 net.cpp:435] conv3 <- pool2
I0614 19:49:45.201822 14053 net.cpp:409] conv3 -> conv3
I0614 19:49:45.202474 14053 net.cpp:144] Setting up conv3
I0614 19:49:45.202482 14053 net.cpp:151] Top shape: 10 40 13 13 (67600)
I0614 19:49:45.202487 14053 net.cpp:159] Memory required for data: 54005600
I0614 19:49:45.202492 14053 layer_factory.hpp:77] Creating layer relu3
I0614 19:49:45.202497 14053 net.cpp:94] Creating Layer relu3
I0614 19:49:45.202500 14053 net.cpp:435] relu3 <- conv3
I0614 19:49:45.202505 14053 net.cpp:409] relu3 -> relu3
I0614 19:49:45.202515 14053 net.cpp:144] Setting up relu3
I0614 19:49:45.202518 14053 net.cpp:151] Top shape: 10 40 13 13 (67600)
I0614 19:49:45.202522 14053 net.cpp:159] Memory required for data: 54276000
I0614 19:49:45.202524 14053 layer_factory.hpp:77] Creating layer conv4
I0614 19:49:45.202530 14053 net.cpp:94] Creating Layer conv4
I0614 19:49:45.202533 14053 net.cpp:435] conv4 <- relu3
I0614 19:49:45.202538 14053 net.cpp:409] conv4 -> conv4
I0614 19:49:45.202772 14053 net.cpp:144] Setting up conv4
I0614 19:49:45.202778 14053 net.cpp:151] Top shape: 10 40 13 13 (67600)
I0614 19:49:45.202785 14053 net.cpp:159] Memory required for data: 54546400
I0614 19:49:45.202790 14053 layer_factory.hpp:77] Creating layer relu4
I0614 19:49:45.202795 14053 net.cpp:94] Creating Layer relu4
I0614 19:49:45.202797 14053 net.cpp:435] relu4 <- conv4
I0614 19:49:45.202801 14053 net.cpp:409] relu4 -> relu4
I0614 19:49:45.202811 14053 net.cpp:144] Setting up relu4
I0614 19:49:45.202814 14053 net.cpp:151] Top shape: 10 40 13 13 (67600)
I0614 19:49:45.202818 14053 net.cpp:159] Memory required for data: 54816800
I0614 19:49:45.202821 14053 layer_factory.hpp:77] Creating layer conv5
I0614 19:49:45.202827 14053 net.cpp:94] Creating Layer conv5
I0614 19:49:45.202831 14053 net.cpp:435] conv5 <- relu4
I0614 19:49:45.202834 14053 net.cpp:409] conv5 -> conv5
I0614 19:49:45.203022 14053 net.cpp:144] Setting up conv5
I0614 19:49:45.203027 14053 net.cpp:151] Top shape: 10 26 13 13 (43940)
I0614 19:49:45.203032 14053 net.cpp:159] Memory required for data: 54992560
I0614 19:49:45.203040 14053 layer_factory.hpp:77] Creating layer relu5
I0614 19:49:45.203044 14053 net.cpp:94] Creating Layer relu5
I0614 19:49:45.203047 14053 net.cpp:435] relu5 <- conv5
I0614 19:49:45.203052 14053 net.cpp:409] relu5 -> relu5
I0614 19:49:45.203063 14053 net.cpp:144] Setting up relu5
I0614 19:49:45.203065 14053 net.cpp:151] Top shape: 10 26 13 13 (43940)
I0614 19:49:45.203069 14053 net.cpp:159] Memory required for data: 55168320
I0614 19:49:45.203073 14053 layer_factory.hpp:77] Creating layer pool5
I0614 19:49:45.203078 14053 net.cpp:94] Creating Layer pool5
I0614 19:49:45.203080 14053 net.cpp:435] pool5 <- relu5
I0614 19:49:45.203083 14053 net.cpp:409] pool5 -> pool5
I0614 19:49:45.203099 14053 net.cpp:144] Setting up pool5
I0614 19:49:45.203101 14053 net.cpp:151] Top shape: 10 26 6 6 (9360)
I0614 19:49:45.203105 14053 net.cpp:159] Memory required for data: 55205760
I0614 19:49:45.203109 14053 layer_factory.hpp:77] Creating layer fc6
I0614 19:49:45.203378 14053 net.cpp:94] Creating Layer fc6
I0614 19:49:45.203385 14053 net.cpp:435] fc6 <- pool5
I0614 19:49:45.203390 14053 net.cpp:409] fc6 -> fc6
I0614 19:49:45.240401 14053 net.cpp:144] Setting up fc6
I0614 19:49:45.240422 14053 net.cpp:151] Top shape: 10 4096 (40960)
I0614 19:49:45.240429 14053 net.cpp:159] Memory required for data: 55369600
I0614 19:49:45.240439 14053 layer_factory.hpp:77] Creating layer relu6
I0614 19:49:45.240448 14053 net.cpp:94] Creating Layer relu6
I0614 19:49:45.240453 14053 net.cpp:435] relu6 <- fc6
I0614 19:49:45.240458 14053 net.cpp:409] relu6 -> relu6
I0614 19:49:45.240479 14053 net.cpp:144] Setting up relu6
I0614 19:49:45.240482 14053 net.cpp:151] Top shape: 10 4096 (40960)
I0614 19:49:45.240485 14053 net.cpp:159] Memory required for data: 55533440
I0614 19:49:45.240489 14053 layer_factory.hpp:77] Creating layer fc7
I0614 19:49:45.240495 14053 net.cpp:94] Creating Layer fc7
I0614 19:49:45.240499 14053 net.cpp:435] fc7 <- relu6
I0614 19:49:45.240502 14053 net.cpp:409] fc7 -> fc7
I0614 19:49:45.399355 14053 net.cpp:144] Setting up fc7
I0614 19:49:45.399376 14053 net.cpp:151] Top shape: 10 4096 (40960)
I0614 19:49:45.399382 14053 net.cpp:159] Memory required for data: 55697280
I0614 19:49:45.399394 14053 layer_factory.hpp:77] Creating layer bn7
I0614 19:49:45.399405 14053 net.cpp:94] Creating Layer bn7
I0614 19:49:45.399410 14053 net.cpp:435] bn7 <- fc7
I0614 19:49:45.399415 14053 net.cpp:409] bn7 -> bn7
I0614 19:49:45.399698 14053 net.cpp:144] Setting up bn7
I0614 19:49:45.399701 14053 net.cpp:151] Top shape: 10 4096 (40960)
I0614 19:49:45.399705 14053 net.cpp:159] Memory required for data: 55861120
I0614 19:49:45.399711 14053 layer_factory.hpp:77] Creating layer relu7
I0614 19:49:45.399716 14053 net.cpp:94] Creating Layer relu7
I0614 19:49:45.399719 14053 net.cpp:435] relu7 <- bn7
I0614 19:49:45.399724 14053 net.cpp:409] relu7 -> relu7
I0614 19:49:45.399734 14053 net.cpp:144] Setting up relu7
I0614 19:49:45.399737 14053 net.cpp:151] Top shape: 10 4096 (40960)
I0614 19:49:45.399740 14053 net.cpp:159] Memory required for data: 56024960
I0614 19:49:45.399744 14053 layer_factory.hpp:77] Creating layer fc8
I0614 19:49:45.399750 14053 net.cpp:94] Creating Layer fc8
I0614 19:49:45.399755 14053 net.cpp:435] fc8 <- relu7
I0614 19:49:45.399760 14053 net.cpp:409] fc8 -> fc8
I0614 19:49:45.399906 14053 net.cpp:144] Setting up fc8
I0614 19:49:45.399912 14053 net.cpp:151] Top shape: 10 2 (20)
I0614 19:49:45.399917 14053 net.cpp:159] Memory required for data: 56025040
I0614 19:49:45.399924 14053 layer_factory.hpp:77] Creating layer loss
I0614 19:49:45.401674 14053 net.cpp:94] Creating Layer loss
I0614 19:49:45.401680 14053 net.cpp:435] loss <- fc8
I0614 19:49:45.401684 14053 net.cpp:435] loss <- label
I0614 19:49:45.401690 14053 net.cpp:409] loss -> loss
I0614 19:49:45.401697 14053 layer_factory.hpp:77] Creating layer loss
…
I0614 19:49:45.847398 14053 net.cpp:323] The NetState phase (0) differed from the phase (1) specified by a rule in layer accuracy-top1
I0614 19:49:45.847401 14053 net.cpp:52] Initializing net from parameters: 
state {
  phase: TRAIN
}
layer {
  name: "data"
  type: "ImageData"
  top: "data"
  top: "label"
  include {
    phase: TRAIN
  }
  transform_param {
    crop_size: 227
    mean_value: 106
    mean_value: 116
    mean_value: 124
  }
  image_data_param {
    source: "deploy/alexnetBNnoLRN/pruned/data/calib/calibration.txt"
    batch_size: 10
    shuffle: true
    root_folder: "deploy/alexnetBNnoLRN/pruned/data/calib/"
  }
}
layer {
  name: "data_fixed"
  type: "FixedNeuron"
  bottom: "data"
  top: "data"
  param {
    lr_mult: 0
    decay_mult: 0
  }
  fixed_param {
    fixed_method: OVER_FLOW
    bit_width: 8
    follow_data_layer: true
  }
}
layer {
  name: "conv1"
  type: "ConvolutionFixed"
  bottom: "data"
  top: "bn1"
  param {
    lr_mult: 1
    decay_mult: 1
  }
  param {
    lr_mult: 1
    decay_mult: 0
  }
  convolution_param {
    num_output: 78
    bias_term: true
    pad: 0
    kernel_size: 8
    stride: 4
    weight_filler {
      type: "gaussian"
      std: 0.01
    }
    bias_filler {
      type: "constant"
      value: 0
    }
  }
  fixed_param {
    fixed_method: DIFF_S
    bit_width: 8
  }
}
layer {
  name: "relu1"
  type: "ReLU"
  bottom: "bn1"
  top: "relu1"
}
layer {
  name: "pool1"
  type: "Pooling"
  bottom: "relu1"
  top: "pool1"
  pooling_param {
    pool: MAX
    kernel_size: 3
    stride: 2
  }
}
layer {
  name: "pool1_fixed"
  type: "FixedNeuron"
  bottom: "pool1"
  top: "pool1"
  param {
    lr_mult: 0
    decay_mult: 0
  }
  fixed_param {
    fixed_method: DIFF_S
    bit_width: 8
  }
}
layer {
  name: "conv2"
  type: "ConvolutionFixed"
  bottom: "pool1"
  top: "bn2"
  param {
    lr_mult: 1
    decay_mult: 1
  }
  param {
    lr_mult: 1
    decay_mult: 0
  }
  convolution_param {
    num_output: 180
    bias_term: true
    pad: 2
    kernel_size: 5
    group: 1
    weight_filler {
      type: "gaussian"
      std: 0.01
    }
    bias_filler {
      type: "constant"
      value: 1
    }
  }
  fixed_param {
    fixed_method: DIFF_S
    bit_width: 8
  }
}
layer {
  name: "relu2"
  type: "ReLU"
  bottom: "bn2"
  top: "relu2"
}
layer {
  name: "pool2"
  type: "Pooling"
  bottom: "relu2"
  top: "pool2"
  pooling_param {
    pool: MAX
    kernel_size: 3
    stride: 2
  }
}
layer {
  name: "pool2_fixed"
  type: "FixedNeuron"
  bottom: "pool2"
  top: "pool2"
  param {
    lr_mult: 0
    decay_mult: 0
  }
  fixed_param {
    fixed_method: DIFF_S
    bit_width: 8
  }
}
layer {
  name: "conv3"
  type: "ConvolutionFixed"
  bottom: "pool2"
  top: "conv3"
  param {
    lr_mult: 1
    decay_mult: 1
  }
  param {
    lr_mult: 2
    decay_mult: 0
  }
  convolution_param {
    num_output: 40
    pad: 1
    kernel_size: 3
    weight_filler {
      type: "gaussian"
      std: 0.01
    }
    bias_filler {
      type: "constant"
      value: 0
    }
  }
  fixed_param {
    fixed_method: DIFF_S
    bit_width: 8
  }
}
layer {
  name: "relu3"
  type: "ReLU"
  bottom: "conv3"
  top: "relu3"
}
layer {
  name: "relu3_fixed"
  type: "FixedNeuron"
  bottom: "relu3"
  top: "relu3"
  param {
    lr_mult: 0
    decay_mult: 0
  }
  fixed_param {
    fixed_method: DIFF_S
    bit_width: 8
  }
}
layer {
  name: "conv4"
  type: "ConvolutionFixed"
  bottom: "relu3"
  top: "conv4"
  param {
    lr_mult: 1
    decay_mult: 1
  }
  param {
    lr_mult: 2
    decay_mult: 0
  }
  convolution_param {
    num_output: 40
    pad: 1
    kernel_size: 3
    group: 1
    weight_filler {
      type: "gaussian"
      std: 0.01
    }
    bias_filler {
      type: "constant"
      value: 1
    }
  }
  fixed_param {
    fixed_method: DIFF_S
    bit_width: 8
  }
}
layer {
  name: "relu4"
  type: "ReLU"
  bottom: "conv4"
  top: "relu4"
}
layer {
  name: "relu4_fixed"
  type: "FixedNeuron"
  bottom: "relu4"
  top: "relu4"
  param {
    lr_mult: 0
    decay_mult: 0
  }
  fixed_param {
    fixed_method: DIFF_S
    bit_width: 8
  }
}
layer {
  name: "conv5"
  type: "ConvolutionFixed"
  bottom: "relu4"
  top: "conv5"
  param {
    lr_mult: 1
    decay_mult: 1
  }
  param {
    lr_mult: 2
    decay_mult: 0
  }
  convolution_param {
    num_output: 26
    pad: 1
    kernel_size: 3
    group: 1
    weight_filler {
      type: "gaussian"
      std: 0.01
    }
    bias_filler {
      type: "constant"
      value: 1
    }
  }
  fixed_param {
    fixed_method: DIFF_S
    bit_width: 8
  }
}
layer {
  name: "relu5"
  type: "ReLU"
  bottom: "conv5"
  top: "relu5"
}
layer {
  name: "pool5"
  type: "Pooling"
  bottom: "relu5"
  top: "pool5"
  pooling_param {
    pool: MAX
    kernel_size: 3
    stride: 2
  }
}
layer {
  name: "pool5_fixed"
  type: "FixedNeuron"
  bottom: "pool5"
  top: "pool5"
  param {
    lr_mult: 0
    decay_mult: 0
  }
  fixed_param {
    fixed_method: DIFF_S
    bit_width: 8
  }
}
layer {
  name: "fc6"
  type: "InnerProductFixed"
  bottom: "pool5"
  top: "fc6"
  param {
    lr_mult: 1
    decay_mult: 1
  }
  param {
    lr_mult: 2
    decay_mult: 0
  }
  inner_product_param {
    num_output: 4096
    weight_filler {
      type: "gaussian"
      std: 0.005
    }
    bias_filler {
      type: "constant"
      value: 1
    }
  }
  fixed_param {
    fixed_method: DIFF_S
    bit_width: 8
  }
}
layer {
  name: "relu6"
  type: "ReLU"
  bottom: "fc6"
  top: "relu6"
}
layer {
  name: "relu6_fixed"
  type: "FixedNeuron"
  bottom: "relu6"
  top: "relu6"
  param {
    lr_mult: 0
    decay_mult: 0
  }
  fixed_param {
    fixed_method: DIFF_S
    bit_width: 8
  }
}
layer {
  name: "fc7"
  type: "InnerProductFixed"
  bottom: "relu6"
  top: "bn7"
  param {
    lr_mult: 1
    decay_mult: 1
  }
  param {
    lr_mult: 1
    decay_mult: 0
  }
  inner_product_param {
    num_output: 4096
    bias_term: true
    weight_filler {
      type: "gaussian"
      std: 0.005
    }
    bias_filler {
      type: "constant"
      value: 1
    }
  }
  fixed_param {
    fixed_method: DIFF_S
    bit_width: 8
  }
}
layer {
  name: "relu7"
  type: "ReLU"
  bottom: "bn7"
  top: "relu7"
}
layer {
  name: "relu7_fixed"
  type: "FixedNeuron"
  bottom: "relu7"
  top: "relu7"
  param {
    lr_mult: 0
    decay_mult: 0
  }
  fixed_param {
    fixed_method: DIFF_S
    bit_width: 8
  }
}
layer {
  name: "fc8"
  type: "InnerProductFixed"
  bottom: "relu7"
  top: "fc8"
  param {
    lr_mult: 1
    decay_mult: 1
  }
  param {
    lr_mult: 2
    decay_mult: 0
  }
  inner_product_param {
    num_output: 2
    weight_filler {
      type: "gaussian"
      std: 0.01
    }
    bias_filler {
      type: "constant"
      value: 0
    }
  }
  fixed_param {
    fixed_method: DIFF_S
    bit_width: 8
  }
}
layer {
  name: "fc8_fixed"
  type: "FixedNeuron"
  bottom: "fc8"
  top: "fc8"
  param {
    lr_mult: 0
    decay_mult: 0
  }
  fixed_param {
    fixed_method: DIFF_S
    bit_width: 8
  }
}
layer {
  name: "loss"
  type: "SoftmaxWithLoss"
  bottom: "fc8"
  bottom: "label"
  top: "loss"
}
I0614 19:49:45.847563 14053 layer_factory.hpp:77] Creating layer data
I0614 19:49:45.847582 14053 net.cpp:94] Creating Layer data
I0614 19:49:45.847586 14053 net.cpp:409] data -> data
I0614 19:49:45.847594 14053 net.cpp:409] data -> label
I0614 19:49:45.847602 14053 image_data_layer.cpp:41] Opening file deploy/alexnetBNnoLRN/pruned/data/calib/calibration.txt
I0614 19:49:45.848206 14053 image_data_layer.cpp:51] Shuffling data
I0614 19:49:45.848223 14053 image_data_layer.cpp:56] A total of 200 images.
I0614 19:49:45.850840 14053 image_data_layer.cpp:84] output data size: 10,3,227,227
I0614 19:49:45.873731 14053 internal_thread.cpp:27] Starting internal thread(s) on GPU 0
I0614 19:49:45.873807 14053 net.cpp:144] Setting up data
I0614 19:49:45.873812 14053 net.cpp:151] Top shape: 10 3 227 227 (1545870)
I0614 19:49:45.873821 14053 net.cpp:151] Top shape: 10 (10)
I0614 19:49:45.873826 14053 net.cpp:159] Memory required for data: 6183520
I0614 19:49:45.873829 14053 layer_factory.hpp:77] Creating layer data_fixed
I0614 19:49:45.875543 14053 net.cpp:94] Creating Layer data_fixed
I0614 19:49:45.875551 14053 net.cpp:435] data_fixed <- data
I0614 19:49:45.875559 14053 net.cpp:396] data_fixed -> data (in-place)
I0614 19:49:45.875598 14053 net.cpp:144] Setting up data_fixed
I0614 19:49:45.875602 14053 net.cpp:151] Top shape: 10 3 227 227 (1545870)
I0614 19:49:45.875605 14053 net.cpp:159] Memory required for data: 12367000
I0614 19:49:45.875613 14053 layer_factory.hpp:77] Creating layer conv1
I0614 19:49:45.875623 14053 net.cpp:94] Creating Layer conv1
I0614 19:49:45.875627 14053 net.cpp:435] conv1 <- data
I0614 19:49:45.875630 14053 net.cpp:409] conv1 -> bn1
I0614 19:49:45.875844 14053 layer_factory.hpp:77] Creating layer conv1
I0614 19:49:45.876140 14053 net.cpp:144] Setting up conv1
I0614 19:49:45.876148 14053 net.cpp:151] Top shape: 10 78 55 55 (2359500)
I0614 19:49:45.876153 14053 net.cpp:159] Memory required for data: 21805000
I0614 19:49:45.876160 14053 layer_factory.hpp:77] Creating layer relu1
I0614 19:49:45.876165 14053 net.cpp:94] Creating Layer relu1
I0614 19:49:45.876168 14053 net.cpp:435] relu1 <- bn1
I0614 19:49:45.876173 14053 net.cpp:409] relu1 -> relu1
I0614 19:49:45.876185 14053 net.cpp:144] Setting up relu1
I0614 19:49:45.876188 14053 net.cpp:151] Top shape: 10 78 55 55 (2359500)
I0614 19:49:45.876192 14053 net.cpp:159] Memory required for data: 31243000
I0614 19:49:45.876195 14053 layer_factory.hpp:77] Creating layer pool1
I0614 19:49:45.876200 14053 net.cpp:94] Creating Layer pool1
I0614 19:49:45.876204 14053 net.cpp:435] pool1 <- relu1
I0614 19:49:45.876207 14053 net.cpp:409] pool1 -> pool1
I0614 19:49:45.876222 14053 net.cpp:144] Setting up pool1
I0614 19:49:45.876225 14053 net.cpp:151] Top shape: 10 78 27 27 (568620)
I0614 19:49:45.876230 14053 net.cpp:159] Memory required for data: 33517480
I0614 19:49:45.876232 14053 layer_factory.hpp:77] Creating layer pool1_fixed
I0614 19:49:45.876237 14053 net.cpp:94] Creating Layer pool1_fixed
I0614 19:49:45.876240 14053 net.cpp:435] pool1_fixed <- pool1
I0614 19:49:45.876245 14053 net.cpp:396] pool1_fixed -> pool1 (in-place)
I0614 19:49:45.876257 14053 net.cpp:144] Setting up pool1_fixed
I0614 19:49:45.876260 14053 net.cpp:151] Top shape: 10 78 27 27 (568620)
I0614 19:49:45.876263 14053 net.cpp:159] Memory required for data: 35791960
I0614 19:49:45.876267 14053 layer_factory.hpp:77] Creating layer conv2
I0614 19:49:45.876276 14053 net.cpp:94] Creating Layer conv2
I0614 19:49:45.876279 14053 net.cpp:435] conv2 <- pool1
I0614 19:49:45.876286 14053 net.cpp:409] conv2 -> bn2
I0614 19:49:45.879748 14053 layer_factory.hpp:77] Creating layer conv2
I0614 19:49:45.883868 14053 net.cpp:144] Setting up conv2
I0614 19:49:45.883882 14053 net.cpp:151] Top shape: 10 180 27 27 (1312200)
I0614 19:49:45.883889 14053 net.cpp:159] Memory required for data: 41040760
I0614 19:49:45.883898 14053 layer_factory.hpp:77] Creating layer relu2
I0614 19:49:45.883904 14053 net.cpp:94] Creating Layer relu2
I0614 19:49:45.883908 14053 net.cpp:435] relu2 <- bn2
I0614 19:49:45.883913 14053 net.cpp:409] relu2 -> relu2
I0614 19:49:45.883924 14053 net.cpp:144] Setting up relu2
I0614 19:49:45.883926 14053 net.cpp:151] Top shape: 10 180 27 27 (1312200)
I0614 19:49:45.883930 14053 net.cpp:159] Memory required for data: 46289560
I0614 19:49:45.883934 14053 layer_factory.hpp:77] Creating layer pool2
I0614 19:49:45.883939 14053 net.cpp:94] Creating Layer pool2
I0614 19:49:45.883941 14053 net.cpp:435] pool2 <- relu2
I0614 19:49:45.883945 14053 net.cpp:409] pool2 -> pool2
I0614 19:49:45.883960 14053 net.cpp:144] Setting up pool2
I0614 19:49:45.883961 14053 net.cpp:151] Top shape: 10 180 13 13 (304200)
I0614 19:49:45.883965 14053 net.cpp:159] Memory required for data: 47506360
I0614 19:49:45.883968 14053 layer_factory.hpp:77] Creating layer pool2_fixed
I0614 19:49:45.883973 14053 net.cpp:94] Creating Layer pool2_fixed
I0614 19:49:45.883976 14053 net.cpp:435] pool2_fixed <- pool2
I0614 19:49:45.883980 14053 net.cpp:396] pool2_fixed -> pool2 (in-place)
I0614 19:49:45.883992 14053 net.cpp:144] Setting up pool2_fixed
I0614 19:49:45.883996 14053 net.cpp:151] Top shape: 10 180 13 13 (304200)
I0614 19:49:45.883999 14053 net.cpp:159] Memory required for data: 48723160
I0614 19:49:45.884002 14053 layer_factory.hpp:77] Creating layer conv3
I0614 19:49:45.884009 14053 net.cpp:94] Creating Layer conv3
I0614 19:49:45.884012 14053 net.cpp:435] conv3 <- pool2
I0614 19:49:45.884016 14053 net.cpp:409] conv3 -> conv3
I0614 19:49:45.884660 14053 layer_factory.hpp:77] Creating layer conv3
I0614 19:49:45.885336 14053 net.cpp:144] Setting up conv3
I0614 19:49:45.885345 14053 net.cpp:151] Top shape: 10 40 13 13 (67600)
I0614 19:49:45.885351 14053 net.cpp:159] Memory required for data: 48993560
I0614 19:49:45.885358 14053 layer_factory.hpp:77] Creating layer relu3
I0614 19:49:45.885363 14053 net.cpp:94] Creating Layer relu3
I0614 19:49:45.885366 14053 net.cpp:435] relu3 <- conv3
I0614 19:49:45.885371 14053 net.cpp:409] relu3 -> relu3
I0614 19:49:45.885388 14053 net.cpp:144] Setting up relu3
I0614 19:49:45.885392 14053 net.cpp:151] Top shape: 10 40 13 13 (67600)
I0614 19:49:45.885396 14053 net.cpp:159] Memory required for data: 49263960
I0614 19:49:45.885399 14053 layer_factory.hpp:77] Creating layer relu3_fixed
I0614 19:49:45.885404 14053 net.cpp:94] Creating Layer relu3_fixed
I0614 19:49:45.885406 14053 net.cpp:435] relu3_fixed <- relu3
I0614 19:49:45.885411 14053 net.cpp:396] relu3_fixed -> relu3 (in-place)
I0614 19:49:45.885423 14053 net.cpp:144] Setting up relu3_fixed
I0614 19:49:45.885426 14053 net.cpp:151] Top shape: 10 40 13 13 (67600)
I0614 19:49:45.885430 14053 net.cpp:159] Memory required for data: 49534360
I0614 19:49:45.885434 14053 layer_factory.hpp:77] Creating layer conv4
I0614 19:49:45.885440 14053 net.cpp:94] Creating Layer conv4
I0614 19:49:45.885443 14053 net.cpp:435] conv4 <- relu3
I0614 19:49:45.885447 14053 net.cpp:409] conv4 -> conv4
I0614 19:49:45.885654 14053 layer_factory.hpp:77] Creating layer conv4
I0614 19:49:45.885906 14053 net.cpp:144] Setting up conv4
I0614 19:49:45.885913 14053 net.cpp:151] Top shape: 10 40 13 13 (67600)
I0614 19:49:45.885918 14053 net.cpp:159] Memory required for data: 49804760
I0614 19:49:45.885923 14053 layer_factory.hpp:77] Creating layer relu4
I0614 19:49:45.885927 14053 net.cpp:94] Creating Layer relu4
I0614 19:49:45.885931 14053 net.cpp:435] relu4 <- conv4
I0614 19:49:45.885934 14053 net.cpp:409] relu4 -> relu4
I0614 19:49:45.885944 14053 net.cpp:144] Setting up relu4
I0614 19:49:45.885947 14053 net.cpp:151] Top shape: 10 40 13 13 (67600)
I0614 19:49:45.885951 14053 net.cpp:159] Memory required for data: 50075160
I0614 19:49:45.885953 14053 layer_factory.hpp:77] Creating layer relu4_fixed
I0614 19:49:45.885958 14053 net.cpp:94] Creating Layer relu4_fixed
I0614 19:49:45.885962 14053 net.cpp:435] relu4_fixed <- relu4
I0614 19:49:45.885965 14053 net.cpp:396] relu4_fixed -> relu4 (in-place)
I0614 19:49:45.885977 14053 net.cpp:144] Setting up relu4_fixed
I0614 19:49:45.885980 14053 net.cpp:151] Top shape: 10 40 13 13 (67600)
I0614 19:49:45.885984 14053 net.cpp:159] Memory required for data: 50345560
I0614 19:49:45.885988 14053 layer_factory.hpp:77] Creating layer conv5
I0614 19:49:45.885994 14053 net.cpp:94] Creating Layer conv5
I0614 19:49:45.885998 14053 net.cpp:435] conv5 <- relu4
I0614 19:49:45.886001 14053 net.cpp:409] conv5 -> conv5
I0614 19:49:45.886159 14053 layer_factory.hpp:77] Creating layer conv5
I0614 19:49:45.886368 14053 net.cpp:144] Setting up conv5
I0614 19:49:45.886374 14053 net.cpp:151] Top shape: 10 26 13 13 (43940)
I0614 19:49:45.886379 14053 net.cpp:159] Memory required for data: 50521320
I0614 19:49:45.886384 14053 layer_factory.hpp:77] Creating layer relu5
I0614 19:49:45.886387 14053 net.cpp:94] Creating Layer relu5
I0614 19:49:45.886391 14053 net.cpp:435] relu5 <- conv5
I0614 19:49:45.886395 14053 net.cpp:409] relu5 -> relu5
I0614 19:49:45.886407 14053 net.cpp:144] Setting up relu5
I0614 19:49:45.886411 14053 net.cpp:151] Top shape: 10 26 13 13 (43940)
I0614 19:49:45.886418 14053 net.cpp:159] Memory required for data: 50697080
I0614 19:49:45.886422 14053 layer_factory.hpp:77] Creating layer pool5
I0614 19:49:45.886426 14053 net.cpp:94] Creating Layer pool5
I0614 19:49:45.886430 14053 net.cpp:435] pool5 <- relu5
I0614 19:49:45.886433 14053 net.cpp:409] pool5 -> pool5
I0614 19:49:45.886448 14053 net.cpp:144] Setting up pool5
I0614 19:49:45.886451 14053 net.cpp:151] Top shape: 10 26 6 6 (9360)
I0614 19:49:45.886456 14053 net.cpp:159] Memory required for data: 50734520
I0614 19:49:45.886458 14053 layer_factory.hpp:77] Creating layer pool5_fixed
I0614 19:49:45.886463 14053 net.cpp:94] Creating Layer pool5_fixed
I0614 19:49:45.886466 14053 net.cpp:435] pool5_fixed <- pool5
I0614 19:49:45.886469 14053 net.cpp:396] pool5_fixed -> pool5 (in-place)
I0614 19:49:45.886482 14053 net.cpp:144] Setting up pool5_fixed
I0614 19:49:45.886485 14053 net.cpp:151] Top shape: 10 26 6 6 (9360)
I0614 19:49:45.886490 14053 net.cpp:159] Memory required for data: 50771960
I0614 19:49:45.886495 14053 layer_factory.hpp:77] Creating layer fc6
I0614 19:49:45.886504 14053 net.cpp:94] Creating Layer fc6
I0614 19:49:45.886508 14053 net.cpp:435] fc6 <- pool5
I0614 19:49:45.886513 14053 net.cpp:409] fc6 -> fc6
I0614 19:49:45.923547 14053 layer_factory.hpp:77] Creating layer fc6
I0614 19:49:45.960563 14053 net.cpp:144] Setting up fc6
I0614 19:49:45.960582 14053 net.cpp:151] Top shape: 10 4096 (40960)
I0614 19:49:45.960589 14053 net.cpp:159] Memory required for data: 50935800
I0614 19:49:45.960601 14053 layer_factory.hpp:77] Creating layer relu6
I0614 19:49:45.960609 14053 net.cpp:94] Creating Layer relu6
I0614 19:49:45.960613 14053 net.cpp:435] relu6 <- fc6
I0614 19:49:45.960619 14053 net.cpp:409] relu6 -> relu6
I0614 19:49:45.960637 14053 net.cpp:144] Setting up relu6
I0614 19:49:45.960640 14053 net.cpp:151] Top shape: 10 4096 (40960)
I0614 19:49:45.960644 14053 net.cpp:159] Memory required for data: 51099640
I0614 19:49:45.960646 14053 layer_factory.hpp:77] Creating layer relu6_fixed
I0614 19:49:45.960654 14053 net.cpp:94] Creating Layer relu6_fixed
I0614 19:49:45.960656 14053 net.cpp:435] relu6_fixed <- relu6
I0614 19:49:45.960660 14053 net.cpp:396] relu6_fixed -> relu6 (in-place)
I0614 19:49:45.960675 14053 net.cpp:144] Setting up relu6_fixed
I0614 19:49:45.960676 14053 net.cpp:151] Top shape: 10 4096 (40960)
I0614 19:49:45.960680 14053 net.cpp:159] Memory required for data: 51263480
I0614 19:49:45.960683 14053 layer_factory.hpp:77] Creating layer fc7
I0614 19:49:45.960690 14053 net.cpp:94] Creating Layer fc7
I0614 19:49:45.960692 14053 net.cpp:435] fc7 <- relu6
I0614 19:49:45.960696 14053 net.cpp:409] fc7 -> bn7
I0614 19:49:46.104620 14053 layer_factory.hpp:77] Creating layer fc7
I0614 19:49:46.248054 14053 net.cpp:144] Setting up fc7
I0614 19:49:46.248077 14053 net.cpp:151] Top shape: 10 4096 (40960)
I0614 19:49:46.248083 14053 net.cpp:159] Memory required for data: 51427320
I0614 19:49:46.248108 14053 layer_factory.hpp:77] Creating layer relu7
I0614 19:49:46.248117 14053 net.cpp:94] Creating Layer relu7
I0614 19:49:46.248121 14053 net.cpp:435] relu7 <- bn7
I0614 19:49:46.248128 14053 net.cpp:409] relu7 -> relu7
I0614 19:49:46.248143 14053 net.cpp:144] Setting up relu7
I0614 19:49:46.248145 14053 net.cpp:151] Top shape: 10 4096 (40960)
I0614 19:49:46.248148 14053 net.cpp:159] Memory required for data: 51591160
I0614 19:49:46.248152 14053 layer_factory.hpp:77] Creating layer relu7_fixed
I0614 19:49:46.248157 14053 net.cpp:94] Creating Layer relu7_fixed
I0614 19:49:46.248160 14053 net.cpp:435] relu7_fixed <- relu7
I0614 19:49:46.248163 14053 net.cpp:396] relu7_fixed -> relu7 (in-place)
I0614 19:49:46.248176 14053 net.cpp:144] Setting up relu7_fixed
I0614 19:49:46.248178 14053 net.cpp:151] Top shape: 10 4096 (40960)
I0614 19:49:46.248181 14053 net.cpp:159] Memory required for data: 51755000
I0614 19:49:46.248184 14053 layer_factory.hpp:77] Creating layer fc8
I0614 19:49:46.248191 14053 net.cpp:94] Creating Layer fc8
I0614 19:49:46.248193 14053 net.cpp:435] fc8 <- relu7
I0614 19:49:46.248198 14053 net.cpp:409] fc8 -> fc8
I0614 19:49:46.248286 14053 layer_factory.hpp:77] Creating layer fc8
I0614 19:49:46.248425 14053 net.cpp:144] Setting up fc8
I0614 19:49:46.248430 14053 net.cpp:151] Top shape: 10 2 (20)
I0614 19:49:46.248433 14053 net.cpp:159] Memory required for data: 51755080
I0614 19:49:46.248437 14053 layer_factory.hpp:77] Creating layer fc8_fixed
I0614 19:49:46.248442 14053 net.cpp:94] Creating Layer fc8_fixed
I0614 19:49:46.248445 14053 net.cpp:435] fc8_fixed <- fc8
I0614 19:49:46.248450 14053 net.cpp:396] fc8_fixed -> fc8 (in-place)
I0614 19:49:46.248462 14053 net.cpp:144] Setting up fc8_fixed
I0614 19:49:46.248466 14053 net.cpp:151] Top shape: 10 2 (20)
I0614 19:49:46.248468 14053 net.cpp:159] Memory required for data: 51755160
I0614 19:49:46.248471 14053 layer_factory.hpp:77] Creating layer loss
I0614 19:49:46.248476 14053 net.cpp:94] Creating Layer loss
I0614 19:49:46.248479 14053 net.cpp:435] loss <- fc8
I0614 19:49:46.248482 14053 net.cpp:435] loss <- label
I0614 19:49:46.248486 14053 net.cpp:409] loss -> loss
I0614 19:49:46.248492 14053 layer_factory.hpp:77] Creating layer loss
…
I0614 19:49:50.143874 14053 net.cpp:284] Network initialization done.
I0614 19:49:50.206009 14053 net.cpp:323] The NetState phase (1) differed from the phase (0) specified by a rule in layer data
I0614 19:49:50.206035 14053 net.cpp:52] Initializing net from parameters: 
layer {
  name: "data"
  type: "Data"
  top: "data"
  top: "label"
  include {
    phase: TEST
  }
  transform_param {
    mirror: false
    crop_size: 227
    mean_value: 106
    mean_value: 116
    mean_value: 124
  }
  data_param {
    source: "input/lmdb/valid_lmdb"
    batch_size: 50
    backend: LMDB
  }
}
layer {
  name: "data_fixed"
  type: "FixedNeuron"
  bottom: "data"
  top: "data"
  param {
    lr_mult: 0
    decay_mult: 0
  }
  fixed_param {
    fixed_method: OVER_FLOW
    bit_width: 8
    follow_data_layer: true
  }
}
layer {
  name: "conv1"
  type: "ConvolutionFixed"
  bottom: "data"
  top: "bn1"
  param {
    lr_mult: 1
    decay_mult: 1
  }
  param {
    lr_mult: 1
    decay_mult: 0
  }
  convolution_param {
    num_output: 78
    bias_term: true
    pad: 0
    kernel_size: 8
    stride: 4
    weight_filler {
      type: "gaussian"
      std: 0.01
    }
    bias_filler {
      type: "constant"
      value: 0
    }
  }
  fixed_param {
    fixed_method: DIFF_S
    bit_width: 8
  }
}
layer {
  name: "relu1"
  type: "ReLU"
  bottom: "bn1"
  top: "relu1"
}
layer {
  name: "pool1"
  type: "Pooling"
  bottom: "relu1"
  top: "pool1"
  pooling_param {
    pool: MAX
    kernel_size: 3
    stride: 2
  }
}
layer {
  name: "pool1_fixed"
  type: "FixedNeuron"
  bottom: "pool1"
  top: "pool1"
  param {
    lr_mult: 0
    decay_mult: 0
  }
  fixed_param {
    fixed_method: DIFF_S
    bit_width: 8
  }
}
layer {
  name: "conv2"
  type: "ConvolutionFixed"
  bottom: "pool1"
  top: "bn2"
  param {
    lr_mult: 1
    decay_mult: 1
  }
  param {
    lr_mult: 1
    decay_mult: 0
  }
  convolution_param {
    num_output: 180
    bias_term: true
    pad: 2
    kernel_size: 5
    group: 1
    weight_filler {
      type: "gaussian"
      std: 0.01
    }
    bias_filler {
      type: "constant"
      value: 1
    }
  }
  fixed_param {
    fixed_method: DIFF_S
    bit_width: 8
  }
}
layer {
  name: "relu2"
  type: "ReLU"
  bottom: "bn2"
  top: "relu2"
}
layer {
  name: "pool2"
  type: "Pooling"
  bottom: "relu2"
  top: "pool2"
  pooling_param {
    pool: MAX
    kernel_size: 3
    stride: 2
  }
}
layer {
  name: "pool2_fixed"
  type: "FixedNeuron"
  bottom: "pool2"
  top: "pool2"
  param {
    lr_mult: 0
    decay_mult: 0
  }
  fixed_param {
    fixed_method: DIFF_S
    bit_width: 8
  }
}
layer {
  name: "conv3"
  type: "ConvolutionFixed"
  bottom: "pool2"
  top: "conv3"
  param {
    lr_mult: 1
    decay_mult: 1
  }
  param {
    lr_mult: 2
    decay_mult: 0
  }
  convolution_param {
    num_output: 40
    pad: 1
    kernel_size: 3
    weight_filler {
      type: "gaussian"
      std: 0.01
    }
    bias_filler {
      type: "constant"
      value: 0
    }
  }
  fixed_param {
    fixed_method: DIFF_S
    bit_width: 8
  }
}
layer {
  name: "relu3"
  type: "ReLU"
  bottom: "conv3"
  top: "relu3"
}
layer {
  name: "relu3_fixed"
  type: "FixedNeuron"
  bottom: "relu3"
  top: "relu3"
  param {
    lr_mult: 0
    decay_mult: 0
  }
  fixed_param {
    fixed_method: DIFF_S
    bit_width: 8
  }
}
layer {
  name: "conv4"
  type: "ConvolutionFixed"
  bottom: "relu3"
  top: "conv4"
  param {
    lr_mult: 1
    decay_mult: 1
  }
  param {
    lr_mult: 2
    decay_mult: 0
  }
  convolution_param {
    num_output: 40
    pad: 1
    kernel_size: 3
    group: 1
    weight_filler {
      type: "gaussian"
      std: 0.01
    }
    bias_filler {
      type: "constant"
      value: 1
    }
  }
  fixed_param {
    fixed_method: DIFF_S
    bit_width: 8
  }
}
layer {
  name: "relu4"
  type: "ReLU"
  bottom: "conv4"
  top: "relu4"
}
layer {
  name: "relu4_fixed"
  type: "FixedNeuron"
  bottom: "relu4"
  top: "relu4"
  param {
    lr_mult: 0
    decay_mult: 0
  }
  fixed_param {
    fixed_method: DIFF_S
    bit_width: 8
  }
}
layer {
  name: "conv5"
  type: "ConvolutionFixed"
  bottom: "relu4"
  top: "conv5"
  param {
    lr_mult: 1
    decay_mult: 1
  }
  param {
    lr_mult: 2
    decay_mult: 0
  }
  convolution_param {
    num_output: 26
    pad: 1
    kernel_size: 3
    group: 1
    weight_filler {
      type: "gaussian"
      std: 0.01
    }
    bias_filler {
      type: "constant"
      value: 1
    }
  }
  fixed_param {
    fixed_method: DIFF_S
    bit_width: 8
  }
}
layer {
  name: "relu5"
  type: "ReLU"
  bottom: "conv5"
  top: "relu5"
}
layer {
  name: "pool5"
  type: "Pooling"
  bottom: "relu5"
  top: "pool5"
  pooling_param {
    pool: MAX
    kernel_size: 3
    stride: 2
  }
}
layer {
  name: "pool5_fixed"
  type: "FixedNeuron"
  bottom: "pool5"
  top: "pool5"
  param {
    lr_mult: 0
    decay_mult: 0
  }
  fixed_param {
    fixed_method: DIFF_S
    bit_width: 8
  }
}
layer {
  name: "fc6"
  type: "InnerProductFixed"
  bottom: "pool5"
  top: "fc6"
  param {
    lr_mult: 1
    decay_mult: 1
  }
  param {
    lr_mult: 2
    decay_mult: 0
  }
  inner_product_param {
    num_output: 4096
    weight_filler {
      type: "gaussian"
      std: 0.005
    }
    bias_filler {
      type: "constant"
      value: 1
    }
  }
  fixed_param {
    fixed_method: DIFF_S
    bit_width: 8
  }
}
layer {
  name: "relu6"
  type: "ReLU"
  bottom: "fc6"
  top: "relu6"
}
layer {
  name: "relu6_fixed"
  type: "FixedNeuron"
  bottom: "relu6"
  top: "relu6"
  param {
    lr_mult: 0
    decay_mult: 0
  }
  fixed_param {
    fixed_method: DIFF_S
    bit_width: 8
  }
}
layer {
  name: "fc7"
  type: "InnerProductFixed"
  bottom: "relu6"
  top: "bn7"
  param {
    lr_mult: 1
    decay_mult: 1
  }
  param {
    lr_mult: 1
    decay_mult: 0
  }
  inner_product_param {
    num_output: 4096
    bias_term: true
    weight_filler {
      type: "gaussian"
      std: 0.005
    }
    bias_filler {
      type: "constant"
      value: 1
    }
  }
  fixed_param {
    fixed_method: DIFF_S
    bit_width: 8
  }
}
layer {
  name: "relu7"
  type: "ReLU"
  bottom: "bn7"
  top: "relu7"
}
layer {
  name: "relu7_fixed"
  type: "FixedNeuron"
  bottom: "relu7"
  top: "relu7"
  param {
    lr_mult: 0
    decay_mult: 0
  }
  fixed_param {
    fixed_method: DIFF_S
    bit_width: 8
  }
}
layer {
  name: "fc8"
  type: "InnerProductFixed"
  bottom: "relu7"
  top: "fc8"
  param {
    lr_mult: 1
    decay_mult: 1
  }
  param {
    lr_mult: 2
    decay_mult: 0
  }
  inner_product_param {
    num_output: 2
    weight_filler {
      type: "gaussian"
      std: 0.01
    }
    bias_filler {
      type: "constant"
      value: 0
    }
  }
  fixed_param {
    fixed_method: DIFF_S
    bit_width: 8
  }
}
layer {
  name: "fc8_fixed"
  type: "FixedNeuron"
  bottom: "fc8"
  top: "fc8"
  param {
    lr_mult: 0
    decay_mult: 0
  }
  fixed_param {
    fixed_method: DIFF_S
    bit_width: 8
  }
}
layer {
  name: "accuracy"
  type: "Accuracy"
  bottom: "fc8"
  bottom: "label"
  top: "accuracy"
  include {
    phase: TEST
  }
}
layer {
  name: "loss"
  type: "SoftmaxWithLoss"
  bottom: "fc8"
  bottom: "label"
  top: "loss"
}
layer {
  name: "accuracy-top1"
  type: "Accuracy"
  bottom: "fc8"
  bottom: "label"
  top: "top-1"
  include {
    phase: TEST
  }
}
I0614 19:49:50.206477 14053 layer_factory.hpp:77] Creating layer data
I0614 19:49:50.206512 14053 internal_thread.cpp:27] Starting internal thread(s) on GPU 0
I0614 19:49:50.207352 14053 net.cpp:94] Creating Layer data
I0614 19:49:50.207365 14053 net.cpp:409] data -> data
I0614 19:49:50.207374 14053 net.cpp:409] data -> label
I0614 19:49:50.209172 14087 db_lmdb.cpp:35] Opened lmdb input/lmdb/valid_lmdb
I0614 19:49:50.209199 14087 db_lmdb.cpp:38] Items count: 4000
I0614 19:49:50.209228 14087 data_reader.cpp:124] TEST: reading data using 1 channel(s)
I0614 19:49:50.209393 14053 data_layer.cpp:78] ReshapePrefetch 50, 3, 227, 227
I0614 19:49:50.209447 14053 data_layer.cpp:83] output data size: 50,3,227,227
I0614 19:49:50.324445 14053 internal_thread.cpp:27] Starting internal thread(s) on GPU 0
I0614 19:49:50.324695 14053 net.cpp:144] Setting up data
I0614 19:49:50.324704 14053 net.cpp:151] Top shape: 50 3 227 227 (7729350)
I0614 19:49:50.324714 14053 net.cpp:151] Top shape: 50 (50)
I0614 19:49:50.324718 14053 net.cpp:159] Memory required for data: 30917600
I0614 19:49:50.324723 14053 layer_factory.hpp:77] Creating layer label_data_1_split
I0614 19:49:50.324736 14053 net.cpp:94] Creating Layer label_data_1_split
I0614 19:49:50.324740 14053 net.cpp:435] label_data_1_split <- label
I0614 19:49:50.324748 14053 net.cpp:409] label_data_1_split -> label_data_1_split_0
I0614 19:49:50.324774 14053 net.cpp:409] label_data_1_split -> label_data_1_split_1
I0614 19:49:50.324781 14053 net.cpp:409] label_data_1_split -> label_data_1_split_2
I0614 19:49:50.324826 14053 net.cpp:144] Setting up label_data_1_split
I0614 19:49:50.324831 14053 net.cpp:151] Top shape: 50 (50)
I0614 19:49:50.324834 14053 net.cpp:151] Top shape: 50 (50)
I0614 19:49:50.324838 14053 net.cpp:151] Top shape: 50 (50)
I0614 19:49:50.324841 14053 net.cpp:159] Memory required for data: 30918200
I0614 19:49:50.324844 14053 layer_factory.hpp:77] Creating layer data_fixed
I0614 19:49:50.324851 14053 net.cpp:94] Creating Layer data_fixed
I0614 19:49:50.324854 14053 net.cpp:435] data_fixed <- data
I0614 19:49:50.324860 14053 net.cpp:396] data_fixed -> data (in-place)
I0614 19:49:50.324879 14053 net.cpp:144] Setting up data_fixed
I0614 19:49:50.324882 14053 net.cpp:151] Top shape: 50 3 227 227 (7729350)
I0614 19:49:50.324888 14053 net.cpp:159] Memory required for data: 61835600
I0614 19:49:50.324898 14053 layer_factory.hpp:77] Creating layer conv1
I0614 19:49:50.324908 14053 net.cpp:94] Creating Layer conv1
I0614 19:49:50.324911 14053 net.cpp:435] conv1 <- data
I0614 19:49:50.324915 14053 net.cpp:409] conv1 -> bn1
I0614 19:49:50.325240 14053 layer_factory.hpp:77] Creating layer conv1
I0614 19:49:50.325531 14053 net.cpp:144] Setting up conv1
I0614 19:49:50.325538 14053 net.cpp:151] Top shape: 50 78 55 55 (11797500)
I0614 19:49:50.325544 14053 net.cpp:159] Memory required for data: 109025600
I0614 19:49:50.325551 14053 layer_factory.hpp:77] Creating layer relu1
I0614 19:49:50.325557 14053 net.cpp:94] Creating Layer relu1
I0614 19:49:50.325560 14053 net.cpp:435] relu1 <- bn1
I0614 19:49:50.325564 14053 net.cpp:409] relu1 -> relu1
I0614 19:49:50.325577 14053 net.cpp:144] Setting up relu1
I0614 19:49:50.325582 14053 net.cpp:151] Top shape: 50 78 55 55 (11797500)
I0614 19:49:50.325587 14053 net.cpp:159] Memory required for data: 156215600
I0614 19:49:50.325592 14053 layer_factory.hpp:77] Creating layer pool1
I0614 19:49:50.325598 14053 net.cpp:94] Creating Layer pool1
I0614 19:49:50.325603 14053 net.cpp:435] pool1 <- relu1
I0614 19:49:50.325608 14053 net.cpp:409] pool1 -> pool1
I0614 19:49:50.325626 14053 net.cpp:144] Setting up pool1
I0614 19:49:50.325630 14053 net.cpp:151] Top shape: 50 78 27 27 (2843100)
I0614 19:49:50.325636 14053 net.cpp:159] Memory required for data: 167588000
I0614 19:49:50.325639 14053 layer_factory.hpp:77] Creating layer pool1_fixed
I0614 19:49:50.325644 14053 net.cpp:94] Creating Layer pool1_fixed
I0614 19:49:50.325647 14053 net.cpp:435] pool1_fixed <- pool1
I0614 19:49:50.325651 14053 net.cpp:396] pool1_fixed -> pool1 (in-place)
I0614 19:49:50.325667 14053 net.cpp:144] Setting up pool1_fixed
I0614 19:49:50.325670 14053 net.cpp:151] Top shape: 50 78 27 27 (2843100)
I0614 19:49:50.325675 14053 net.cpp:159] Memory required for data: 178960400
I0614 19:49:50.325680 14053 layer_factory.hpp:77] Creating layer conv2
I0614 19:49:50.325687 14053 net.cpp:94] Creating Layer conv2
I0614 19:49:50.325692 14053 net.cpp:435] conv2 <- pool1
I0614 19:49:50.325698 14053 net.cpp:409] conv2 -> bn2
I0614 19:49:50.331473 14053 layer_factory.hpp:77] Creating layer conv2
I0614 19:49:50.335889 14053 net.cpp:144] Setting up conv2
I0614 19:49:50.335904 14053 net.cpp:151] Top shape: 50 180 27 27 (6561000)
I0614 19:49:50.335911 14053 net.cpp:159] Memory required for data: 205204400
I0614 19:49:50.335922 14053 layer_factory.hpp:77] Creating layer relu2
I0614 19:49:50.335929 14053 net.cpp:94] Creating Layer relu2
I0614 19:49:50.335933 14053 net.cpp:435] relu2 <- bn2
I0614 19:49:50.335939 14053 net.cpp:409] relu2 -> relu2
I0614 19:49:50.335952 14053 net.cpp:144] Setting up relu2
I0614 19:49:50.335955 14053 net.cpp:151] Top shape: 50 180 27 27 (6561000)
I0614 19:49:50.335959 14053 net.cpp:159] Memory required for data: 231448400
I0614 19:49:50.335963 14053 layer_factory.hpp:77] Creating layer pool2
I0614 19:49:50.335968 14053 net.cpp:94] Creating Layer pool2
I0614 19:49:50.335973 14053 net.cpp:435] pool2 <- relu2
I0614 19:49:50.335976 14053 net.cpp:409] pool2 -> pool2
I0614 19:49:50.335992 14053 net.cpp:144] Setting up pool2
I0614 19:49:50.335995 14053 net.cpp:151] Top shape: 50 180 13 13 (1521000)
I0614 19:49:50.335999 14053 net.cpp:159] Memory required for data: 237532400
I0614 19:49:50.336002 14053 layer_factory.hpp:77] Creating layer pool2_fixed
I0614 19:49:50.336009 14053 net.cpp:94] Creating Layer pool2_fixed
I0614 19:49:50.336011 14053 net.cpp:435] pool2_fixed <- pool2
I0614 19:49:50.336015 14053 net.cpp:396] pool2_fixed -> pool2 (in-place)
I0614 19:49:50.336030 14053 net.cpp:144] Setting up pool2_fixed
I0614 19:49:50.336033 14053 net.cpp:151] Top shape: 50 180 13 13 (1521000)
I0614 19:49:50.336036 14053 net.cpp:159] Memory required for data: 243616400
I0614 19:49:50.336040 14053 layer_factory.hpp:77] Creating layer conv3
I0614 19:49:50.336048 14053 net.cpp:94] Creating Layer conv3
I0614 19:49:50.336051 14053 net.cpp:435] conv3 <- pool2
I0614 19:49:50.336056 14053 net.cpp:409] conv3 -> conv3
I0614 19:49:50.336845 14053 layer_factory.hpp:77] Creating layer conv3
I0614 19:49:50.337797 14053 net.cpp:144] Setting up conv3
I0614 19:49:50.337811 14053 net.cpp:151] Top shape: 50 40 13 13 (338000)
I0614 19:49:50.337821 14053 net.cpp:159] Memory required for data: 244968400
I0614 19:49:50.337832 14053 layer_factory.hpp:77] Creating layer relu3
I0614 19:49:50.337841 14053 net.cpp:94] Creating Layer relu3
I0614 19:49:50.337846 14053 net.cpp:435] relu3 <- conv3
I0614 19:49:50.337853 14053 net.cpp:409] relu3 -> relu3
I0614 19:49:50.337872 14053 net.cpp:144] Setting up relu3
I0614 19:49:50.337877 14053 net.cpp:151] Top shape: 50 40 13 13 (338000)
I0614 19:49:50.337883 14053 net.cpp:159] Memory required for data: 246320400
I0614 19:49:50.337888 14053 layer_factory.hpp:77] Creating layer relu3_fixed
I0614 19:49:50.337895 14053 net.cpp:94] Creating Layer relu3_fixed
I0614 19:49:50.337900 14053 net.cpp:435] relu3_fixed <- relu3
I0614 19:49:50.337906 14053 net.cpp:396] relu3_fixed -> relu3 (in-place)
I0614 19:49:50.337926 14053 net.cpp:144] Setting up relu3_fixed
I0614 19:49:50.337931 14053 net.cpp:151] Top shape: 50 40 13 13 (338000)
I0614 19:49:50.337939 14053 net.cpp:159] Memory required for data: 247672400
I0614 19:49:50.337944 14053 layer_factory.hpp:77] Creating layer conv4
I0614 19:49:50.337953 14053 net.cpp:94] Creating Layer conv4
I0614 19:49:50.337956 14053 net.cpp:435] conv4 <- relu3
I0614 19:49:50.337962 14053 net.cpp:409] conv4 -> conv4
I0614 19:49:50.338238 14053 layer_factory.hpp:77] Creating layer conv4
I0614 19:49:50.338534 14053 net.cpp:144] Setting up conv4
I0614 19:49:50.338541 14053 net.cpp:151] Top shape: 50 40 13 13 (338000)
I0614 19:49:50.338547 14053 net.cpp:159] Memory required for data: 249024400
I0614 19:49:50.338552 14053 layer_factory.hpp:77] Creating layer relu4
I0614 19:49:50.338557 14053 net.cpp:94] Creating Layer relu4
I0614 19:49:50.338562 14053 net.cpp:435] relu4 <- conv4
I0614 19:49:50.338568 14053 net.cpp:409] relu4 -> relu4
I0614 19:49:50.338583 14053 net.cpp:144] Setting up relu4
I0614 19:49:50.338588 14053 net.cpp:151] Top shape: 50 40 13 13 (338000)
I0614 19:49:50.338595 14053 net.cpp:159] Memory required for data: 250376400
I0614 19:49:50.338600 14053 layer_factory.hpp:77] Creating layer relu4_fixed
I0614 19:49:50.338609 14053 net.cpp:94] Creating Layer relu4_fixed
I0614 19:49:50.338614 14053 net.cpp:435] relu4_fixed <- relu4
I0614 19:49:50.338620 14053 net.cpp:396] relu4_fixed -> relu4 (in-place)
I0614 19:49:50.338640 14053 net.cpp:144] Setting up relu4_fixed
I0614 19:49:50.338645 14053 net.cpp:151] Top shape: 50 40 13 13 (338000)
I0614 19:49:50.338651 14053 net.cpp:159] Memory required for data: 251728400
I0614 19:49:50.338657 14053 layer_factory.hpp:77] Creating layer conv5
I0614 19:49:50.338667 14053 net.cpp:94] Creating Layer conv5
I0614 19:49:50.338672 14053 net.cpp:435] conv5 <- relu4
I0614 19:49:50.338680 14053 net.cpp:409] conv5 -> conv5
I0614 19:49:50.338892 14053 layer_factory.hpp:77] Creating layer conv5
I0614 19:49:50.339166 14053 net.cpp:144] Setting up conv5
I0614 19:49:50.339174 14053 net.cpp:151] Top shape: 50 26 13 13 (219700)
I0614 19:49:50.339179 14053 net.cpp:159] Memory required for data: 252607200
I0614 19:49:50.339183 14053 layer_factory.hpp:77] Creating layer relu5
I0614 19:49:50.339188 14053 net.cpp:94] Creating Layer relu5
I0614 19:49:50.339193 14053 net.cpp:435] relu5 <- conv5
I0614 19:49:50.339200 14053 net.cpp:409] relu5 -> relu5
I0614 19:49:50.339216 14053 net.cpp:144] Setting up relu5
I0614 19:49:50.339221 14053 net.cpp:151] Top shape: 50 26 13 13 (219700)
I0614 19:49:50.339228 14053 net.cpp:159] Memory required for data: 253486000
I0614 19:49:50.339232 14053 layer_factory.hpp:77] Creating layer pool5
I0614 19:49:50.339241 14053 net.cpp:94] Creating Layer pool5
I0614 19:49:50.339246 14053 net.cpp:435] pool5 <- relu5
I0614 19:49:50.339252 14053 net.cpp:409] pool5 -> pool5
I0614 19:49:50.339274 14053 net.cpp:144] Setting up pool5
I0614 19:49:50.339278 14053 net.cpp:151] Top shape: 50 26 6 6 (46800)
I0614 19:49:50.339283 14053 net.cpp:159] Memory required for data: 253673200
I0614 19:49:50.339287 14053 layer_factory.hpp:77] Creating layer pool5_fixed
I0614 19:49:50.339294 14053 net.cpp:94] Creating Layer pool5_fixed
I0614 19:49:50.339299 14053 net.cpp:435] pool5_fixed <- pool5
I0614 19:49:50.339305 14053 net.cpp:396] pool5_fixed -> pool5 (in-place)
I0614 19:49:50.339327 14053 net.cpp:144] Setting up pool5_fixed
I0614 19:49:50.339335 14053 net.cpp:151] Top shape: 50 26 6 6 (46800)
I0614 19:49:50.339341 14053 net.cpp:159] Memory required for data: 253860400
I0614 19:49:50.339347 14053 layer_factory.hpp:77] Creating layer fc6
I0614 19:49:50.339355 14053 net.cpp:94] Creating Layer fc6
I0614 19:49:50.339360 14053 net.cpp:435] fc6 <- pool5
I0614 19:49:50.339367 14053 net.cpp:409] fc6 -> fc6
I0614 19:49:50.379976 14053 layer_factory.hpp:77] Creating layer fc6
I0614 19:49:50.417871 14053 net.cpp:144] Setting up fc6
I0614 19:49:50.417896 14053 net.cpp:151] Top shape: 50 4096 (204800)
I0614 19:49:50.417907 14053 net.cpp:159] Memory required for data: 254679600
I0614 19:49:50.417920 14053 layer_factory.hpp:77] Creating layer relu6
I0614 19:49:50.417928 14053 net.cpp:94] Creating Layer relu6
I0614 19:49:50.417933 14053 net.cpp:435] relu6 <- fc6
I0614 19:49:50.417940 14053 net.cpp:409] relu6 -> relu6
I0614 19:49:50.417958 14053 net.cpp:144] Setting up relu6
I0614 19:49:50.417960 14053 net.cpp:151] Top shape: 50 4096 (204800)
I0614 19:49:50.417964 14053 net.cpp:159] Memory required for data: 255498800
I0614 19:49:50.417968 14053 layer_factory.hpp:77] Creating layer relu6_fixed
I0614 19:49:50.417973 14053 net.cpp:94] Creating Layer relu6_fixed
I0614 19:49:50.417976 14053 net.cpp:435] relu6_fixed <- relu6
I0614 19:49:50.417980 14053 net.cpp:396] relu6_fixed -> relu6 (in-place)
I0614 19:49:50.417994 14053 net.cpp:144] Setting up relu6_fixed
I0614 19:49:50.417997 14053 net.cpp:151] Top shape: 50 4096 (204800)
I0614 19:49:50.418001 14053 net.cpp:159] Memory required for data: 256318000
I0614 19:49:50.418004 14053 layer_factory.hpp:77] Creating layer fc7
I0614 19:49:50.418011 14053 net.cpp:94] Creating Layer fc7
I0614 19:49:50.418015 14053 net.cpp:435] fc7 <- relu6
I0614 19:49:50.418020 14053 net.cpp:409] fc7 -> bn7
I0614 19:49:50.561466 14053 layer_factory.hpp:77] Creating layer fc7
I0614 19:49:50.704478 14053 net.cpp:144] Setting up fc7
I0614 19:49:50.704502 14053 net.cpp:151] Top shape: 50 4096 (204800)
I0614 19:49:50.704510 14053 net.cpp:159] Memory required for data: 257137200
I0614 19:49:50.704535 14053 layer_factory.hpp:77] Creating layer relu7
I0614 19:49:50.704545 14053 net.cpp:94] Creating Layer relu7
I0614 19:49:50.704548 14053 net.cpp:435] relu7 <- bn7
I0614 19:49:50.704555 14053 net.cpp:409] relu7 -> relu7
I0614 19:49:50.704571 14053 net.cpp:144] Setting up relu7
I0614 19:49:50.704572 14053 net.cpp:151] Top shape: 50 4096 (204800)
I0614 19:49:50.704576 14053 net.cpp:159] Memory required for data: 257956400
I0614 19:49:50.704578 14053 layer_factory.hpp:77] Creating layer relu7_fixed
I0614 19:49:50.704584 14053 net.cpp:94] Creating Layer relu7_fixed
I0614 19:49:50.704587 14053 net.cpp:435] relu7_fixed <- relu7
I0614 19:49:50.704591 14053 net.cpp:396] relu7_fixed -> relu7 (in-place)
I0614 19:49:50.704603 14053 net.cpp:144] Setting up relu7_fixed
I0614 19:49:50.704607 14053 net.cpp:151] Top shape: 50 4096 (204800)
I0614 19:49:50.704609 14053 net.cpp:159] Memory required for data: 258775600
I0614 19:49:50.704612 14053 layer_factory.hpp:77] Creating layer fc8
I0614 19:49:50.704618 14053 net.cpp:94] Creating Layer fc8
I0614 19:49:50.704620 14053 net.cpp:435] fc8 <- relu7
I0614 19:49:50.704624 14053 net.cpp:409] fc8 -> fc8
I0614 19:49:50.704716 14053 layer_factory.hpp:77] Creating layer fc8
I0614 19:49:50.704859 14053 net.cpp:144] Setting up fc8
I0614 19:49:50.704865 14053 net.cpp:151] Top shape: 50 2 (100)
I0614 19:49:50.704870 14053 net.cpp:159] Memory required for data: 258776000
I0614 19:49:50.704874 14053 layer_factory.hpp:77] Creating layer fc8_fixed
I0614 19:49:50.704879 14053 net.cpp:94] Creating Layer fc8_fixed
I0614 19:49:50.704882 14053 net.cpp:435] fc8_fixed <- fc8
I0614 19:49:50.704886 14053 net.cpp:396] fc8_fixed -> fc8 (in-place)
I0614 19:49:50.704900 14053 net.cpp:144] Setting up fc8_fixed
I0614 19:49:50.704903 14053 net.cpp:151] Top shape: 50 2 (100)
I0614 19:49:50.704906 14053 net.cpp:159] Memory required for data: 258776400
I0614 19:49:50.704910 14053 layer_factory.hpp:77] Creating layer fc8_fc8_fixed_0_split
I0614 19:49:50.704916 14053 net.cpp:94] Creating Layer fc8_fc8_fixed_0_split
I0614 19:49:50.704918 14053 net.cpp:435] fc8_fc8_fixed_0_split <- fc8
I0614 19:49:50.704921 14053 net.cpp:409] fc8_fc8_fixed_0_split -> fc8_fc8_fixed_0_split_0
I0614 19:49:50.704942 14053 net.cpp:409] fc8_fc8_fixed_0_split -> fc8_fc8_fixed_0_split_1
I0614 19:49:50.704948 14053 net.cpp:409] fc8_fc8_fixed_0_split -> fc8_fc8_fixed_0_split_2
I0614 19:49:50.704967 14053 net.cpp:144] Setting up fc8_fc8_fixed_0_split
I0614 19:49:50.704970 14053 net.cpp:151] Top shape: 50 2 (100)
I0614 19:49:50.704974 14053 net.cpp:151] Top shape: 50 2 (100)
I0614 19:49:50.704977 14053 net.cpp:151] Top shape: 50 2 (100)
I0614 19:49:50.704980 14053 net.cpp:159] Memory required for data: 258777600
I0614 19:49:50.704983 14053 layer_factory.hpp:77] Creating layer accuracy
I0614 19:49:50.704991 14053 net.cpp:94] Creating Layer accuracy
I0614 19:49:50.704994 14053 net.cpp:435] accuracy <- fc8_fc8_fixed_0_split_0
I0614 19:49:50.704998 14053 net.cpp:435] accuracy <- label_data_1_split_0
I0614 19:49:50.705003 14053 net.cpp:409] accuracy -> accuracy
…
