…
}
layer {
  name: "data"
  type: "ImageData"
  top: "data"
  top: "label"
  include {
    phase: TRAIN
  }
  transform_param {
    scale: 0.022
    mean_value: 73
    mean_value: 82
    mean_value: 72
    resize_param {
      prob: 1
      resize_mode: WARP
      height: 256
      width: 512
    }
  }
  image_data_param {
    source: "/workspace/Segment/VAI/data/cityscapes/calibration.txt"
    batch_size: 1
    shuffle: true
    new_height: 256
    new_width: 512
    root_folder: "/workspace/Segment/VAI/data/cityscapes/calibration_images/"
  }
}
layer {
  name: "ConvNd_1"
  type: "Convolution"
  bottom: "data"
  top: "ConvNd_1"
  convolution_param {
    num_output: 16
    bias_term: false
    pad: 1
    kernel_size: 3
    group: 1
    stride: 2
    dilation: 1
  }
}
layer {
  name: "BatchNorm_1"
  type: "BatchNorm"
  bottom: "ConvNd_1"
  top: "BatchNorm_1"
  param {
    lr_mult: 1
    decay_mult: 0
  }
  param {
    lr_mult: 1
    decay_mult: 0
  }
  param {
    lr_mult: 0
    decay_mult: 0
  }
  param {
    lr_mult: 0
    decay_mult: 0
  }
  batch_norm_param {
    use_global_stats: true
    eps: 1e-05
    scale_filler {
      type: "constant"
      value: 1
    }
    bias_filler {
      type: "constant"
      value: 0
    }
  }
}
layer {
  name: "Threshold_1"
  type: "ReLU"
  bottom: "BatchNorm_1"
  top: "BatchNorm_1"
}
layer {
  name: "AvgPool2d_1"
  type: "Pooling"
  bottom: "data"
  top: "AvgPool2d_1"
  pooling_param {
    pool: AVE
    kernel_size: 3
    stride: 2
    pad: 0
  }
}
layer {
  name: "Concat_1"
  type: "Concat"
  bottom: "BatchNorm_1"
  bottom: "AvgPool2d_1"
  top: "Concat_1"
  concat_param {
    axis: 1
  }
}
layer {
  name: "BatchNorm_2"
  type: "BatchNorm"
  bottom: "Concat_1"
  top: "BatchNorm_2"
  param {
    lr_mult: 1
    decay_mult: 0
  }
  param {
    lr_mult: 1
    decay_mult: 0
  }
  param {
    lr_mult: 0
    decay_mult: 0
  }
  param {
    lr_mult: 0
    decay_mult: 0
  }
  batch_norm_param {
    use_global_stats: true
    eps: 1e-05
    scale_filler {
      type: "constant"
      value: 1
    }
    bias_filler {
      type: "constant"
      value: 0
    }
  }
}
layer {
  name: "Threshold_2"
  type: "ReLU"
  bottom: "BatchNorm_2"
  top: "BatchNorm_2"
}
layer {
  name: "ConvNd_2"
  type: "Convolution"
  bottom: "BatchNorm_2"
  top: "ConvNd_2"
  convolution_param {
    num_output: 12
    bias_term: false
    pad: 1
    kernel_size: 3
    group: 1
    stride: 2
    weight_filler {
      type: "msra"
    }
    dilation: 1
  }
}
layer {
  name: "ConvNd_3"
  type: "Convolution"
  bottom: "ConvNd_2"
  top: "ConvNd_3"
  convolution_param {
    num_output: 16
    bias_term: false
    pad: 1
    kernel_size: 3
    group: 1
    stride: 1
    weight_filler {
      type: "msra"
    }
    dilation: 1
  }
}
layer {
  name: "ConvNd_4"
  type: "Convolution"
  bottom: "ConvNd_2"
  top: "ConvNd_4"
  convolution_param {
    num_output: 12
    bias_term: false
    pad: 2
    kernel_size: 3
    group: 1
    stride: 1
    weight_filler {
      type: "msra"
    }
    dilation: 2
  }
}
layer {
  name: "ConvNd_5"
  type: "Convolution"
  bottom: "ConvNd_2"
  top: "ConvNd_5"
  convolution_param {
    num_output: 12
    bias_term: false
    pad: 4
    kernel_size: 3
    group: 1
    stride: 1
    weight_filler {
      type: "msra"
    }
    dilation: 4
  }
}
layer {
  name: "Add_1"
  type: "Eltwise"
  bottom: "ConvNd_4"
  bottom: "ConvNd_5"
  top: "Add_1"
}
layer {
  name: "ConvNd_6"
  type: "Convolution"
  bottom: "ConvNd_2"
  top: "ConvNd_6"
  convolution_param {
    num_output: 12
    bias_term: false
    pad: 8
    kernel_size: 3
    group: 1
    stride: 1
    weight_filler {
      type: "msra"
    }
    dilation: 8
  }
}
layer {
  name: "Add_2"
  type: "Eltwise"
  bottom: "Add_1"
  bottom: "ConvNd_6"
  top: "Add_2"
}
layer {
  name: "ConvNd_7"
  type: "Convolution"
  bottom: "ConvNd_2"
  top: "ConvNd_7"
  convolution_param {
    num_output: 12
    bias_term: false
    pad: 16
    kernel_size: 3
    group: 1
    stride: 1
    weight_filler {
      type: "msra"
    }
    dilation: 16
  }
}
layer {
  name: "Add_3"
  type: "Eltwise"
  bottom: "Add_2"
  bottom: "ConvNd_7"
  top: "Add_3"
}
layer {
  name: "Concat_2"
  type: "Concat"
  bottom: "ConvNd_3"
  bottom: "ConvNd_4"
  bottom: "Add_1"
  bottom: "Add_2"
  bottom: "Add_3"
  top: "Concat_2"
  concat_param {
    axis: 1
  }
}
layer {
  name: "BatchNorm_3"
  type: "BatchNorm"
  bottom: "Concat_2"
  top: "BatchNorm_3"
  param {
    lr_mult: 1
    decay_mult: 0
  }
  param {
    lr_mult: 1
    decay_mult: 0
  }
  param {
    lr_mult: 0
    decay_mult: 0
  }
  param {
    lr_mult: 0
    decay_mult: 0
  }
  batch_norm_param {
    use_global_stats: true
    eps: 1e-05
    scale_filler {
      type: "constant"
      value: 1
    }
    bias_filler {
      type: "constant"
      value: 0
    }
  }
}
layer {
  name: "Threshold_3"
  type: "ReLU"
  bottom: "BatchNorm_3"
  top: "BatchNorm_3"
}
layer {
  name: "ConvNd_8"
  type: "Convolution"
  bottom: "BatchNorm_3"
  top: "ConvNd_8"
  convolution_param {
    num_output: 12
    bias_term: false
    pad: 0
    kernel_size: 1
    group: 1
    stride: 1
    weight_filler {
      type: "msra"
    }
    dilation: 1
  }
}
layer {
  name: "ConvNd_9"
  type: "Convolution"
  bottom: "ConvNd_8"
  top: "ConvNd_9"
  convolution_param {
    num_output: 16
    bias_term: false
    pad: 1
    kernel_size: 3
    group: 1
    stride: 1
    weight_filler {
      type: "msra"
    }
    dilation: 1
  }
}
layer {
  name: "ConvNd_10"
  type: "Convolution"
  bottom: "ConvNd_8"
  top: "ConvNd_10"
  convolution_param {
    num_output: 12
    bias_term: false
    pad: 2
    kernel_size: 3
    group: 1
    stride: 1
    weight_filler {
      type: "msra"
    }
    dilation: 2
  }
}
layer {
  name: "ConvNd_11"
  type: "Convolution"
  bottom: "ConvNd_8"
  top: "ConvNd_11"
  convolution_param {
    num_output: 12
    bias_term: false
    pad: 4
    kernel_size: 3
    group: 1
    stride: 1
    weight_filler {
      type: "msra"
    }
    dilation: 4
  }
}
layer {
  name: "Add_4"
  type: "Eltwise"
  bottom: "ConvNd_10"
  bottom: "ConvNd_11"
  top: "Add_4"
}
layer {
  name: "ConvNd_12"
  type: "Convolution"
  bottom: "ConvNd_8"
  top: "ConvNd_12"
  convolution_param {
    num_output: 12
    bias_term: false
    pad: 8
    kernel_size: 3
    group: 1
    stride: 1
    weight_filler {
      type: "msra"
    }
    dilation: 8
  }
}
layer {
  name: "Add_5"
  type: "Eltwise"
  bottom: "Add_4"
  bottom: "ConvNd_12"
  top: "Add_5"
}
layer {
  name: "ConvNd_13"
  type: "Convolution"
  bottom: "ConvNd_8"
  top: "ConvNd_13"
  convolution_param {
    num_output: 12
    bias_term: false
    pad: 16
    kernel_size: 3
    group: 1
    stride: 1
    weight_filler {
      type: "msra"
    }
    dilation: 16
  }
}
layer {
  name: "Add_6"
  type: "Eltwise"
  bottom: "Add_5"
  bottom: "ConvNd_13"
  top: "Add_6"
}
layer {
  name: "Concat_3"
  type: "Concat"
  bottom: "ConvNd_9"
  bottom: "ConvNd_10"
  bottom: "Add_4"
  bottom: "Add_5"
  bottom: "Add_6"
  top: "Concat_3"
  concat_param {
    axis: 1
  }
}
layer {
  name: "Add_7"
  type: "Eltwise"
  bottom: "BatchNorm_3"
  bottom: "Concat_3"
  top: "Add_7"
}
layer {
  name: "BatchNorm_4"
  type: "BatchNorm"
  bottom: "Add_7"
  top: "BatchNorm_4"
  param {
    lr_mult: 1
    decay_mult: 0
  }
  param {
    lr_mult: 1
    decay_mult: 0
  }
  param {
    lr_mult: 0
    decay_mult: 0
  }
  param {
    lr_mult: 0
    decay_mult: 0
  }
  batch_norm_param {
    use_global_stats: true
    eps: 1e-05
    scale_filler {
      type: "constant"
      value: 1
    }
    bias_filler {
      type: "constant"
      value: 0
    }
  }
}
layer {
  name: "Threshold_4"
  type: "ReLU"
  bottom: "BatchNorm_4"
  top: "BatchNorm_4"
}
layer {
  name: "ConvNd_14"
  type: "Convolution"
  bottom: "BatchNorm_4"
  top: "ConvNd_14"
  convolution_param {
    num_output: 12
    bias_term: false
    pad: 0
    kernel_size: 1
    group: 1
    stride: 1
    weight_filler {
      type: "msra"
    }
    dilation: 1
  }
}
layer {
  name: "ConvNd_15"
  type: "Convolution"
  bottom: "ConvNd_14"
  top: "ConvNd_15"
  convolution_param {
    num_output: 16
    bias_term: false
    pad: 1
    kernel_size: 3
    group: 1
    stride: 1
    weight_filler {
      type: "msra"
    }
    dilation: 1
  }
}
layer {
  name: "ConvNd_16"
  type: "Convolution"
  bottom: "ConvNd_14"
  top: "ConvNd_16"
  convolution_param {
    num_output: 12
    bias_term: false
    pad: 2
    kernel_size: 3
    group: 1
    stride: 1
    weight_filler {
      type: "msra"
    }
    dilation: 2
  }
}
layer {
  name: "ConvNd_17"
  type: "Convolution"
  bottom: "ConvNd_14"
  top: "ConvNd_17"
  convolution_param {
    num_output: 12
    bias_term: false
    pad: 4
    kernel_size: 3
    group: 1
    stride: 1
    weight_filler {
      type: "msra"
    }
    dilation: 4
  }
}
layer {
  name: "Add_8"
  type: "Eltwise"
  bottom: "ConvNd_16"
  bottom: "ConvNd_17"
  top: "Add_8"
}
layer {
  name: "ConvNd_18"
  type: "Convolution"
  bottom: "ConvNd_14"
  top: "ConvNd_18"
  convolution_param {
    num_output: 12
    bias_term: false
    pad: 8
    kernel_size: 3
    group: 1
    stride: 1
    weight_filler {
      type: "msra"
    }
    dilation: 8
  }
}
layer {
  name: "Add_9"
  type: "Eltwise"
  bottom: "Add_8"
  bottom: "ConvNd_18"
  top: "Add_9"
}
layer {
  name: "ConvNd_19"
  type: "Convolution"
  bottom: "ConvNd_14"
  top: "ConvNd_19"
  convolution_param {
    num_output: 12
    bias_term: false
    pad: 16
    kernel_size: 3
    group: 1
    stride: 1
    weight_filler {
      type: "msra"
    }
    dilation: 16
  }
}
layer {
  name: "Add_10"
  type: "Eltwise"
  bottom: "Add_9"
  bottom: "ConvNd_19"
  top: "Add_10"
}
layer {
  name: "Concat_4"
  type: "Concat"
  bottom: "ConvNd_15"
  bottom: "ConvNd_16"
  bottom: "Add_8"
  bottom: "Add_9"
  bottom: "Add_10"
  top: "Concat_4"
  concat_param {
    axis: 1
  }
}
layer {
  name: "Add_11"
  type: "Eltwise"
  bottom: "BatchNorm_4"
  bottom: "Concat_4"
  top: "Add_11"
}
layer {
  name: "BatchNorm_5"
  type: "BatchNorm"
  bottom: "Add_11"
  top: "BatchNorm_5"
  param {
    lr_mult: 1
    decay_mult: 0
  }
  param {
    lr_mult: 1
    decay_mult: 0
  }
  param {
    lr_mult: 0
    decay_mult: 0
  }
  param {
    lr_mult: 0
    decay_mult: 0
  }
  batch_norm_param {
    use_global_stats: true
    eps: 1e-05
    scale_filler {
      type: "constant"
      value: 1
    }
    bias_filler {
      type: "constant"
      value: 0
    }
  }
}
layer {
  name: "Threshold_5"
  type: "ReLU"
  bottom: "BatchNorm_5"
  top: "BatchNorm_5"
}
layer {
  name: "AvgPool2d_2"
  type: "Pooling"
  bottom: "data"
  top: "AvgPool2d_2"
  pooling_param {
    pool: AVE
    kernel_size: 3
    stride: 2
    pad: 0
  }
}
layer {
  name: "AvgPool2d_3"
  type: "Pooling"
  bottom: "AvgPool2d_2"
  top: "AvgPool2d_3"
  pooling_param {
    pool: AVE
    kernel_size: 3
    stride: 2
    pad: 0
  }
}
layer {
  name: "Concat_5"
  type: "Concat"
  bottom: "BatchNorm_5"
  bottom: "BatchNorm_3"
  bottom: "AvgPool2d_3"
  top: "Concat_5"
  concat_param {
    axis: 1
  }
}
layer {
  name: "BatchNorm_6"
  type: "BatchNorm"
  bottom: "Concat_5"
  top: "BatchNorm_6"
  param {
    lr_mult: 1
    decay_mult: 0
  }
  param {
    lr_mult: 1
    decay_mult: 0
  }
  param {
    lr_mult: 0
    decay_mult: 0
  }
  param {
    lr_mult: 0
    decay_mult: 0
  }
  batch_norm_param {
    use_global_stats: true
    eps: 1e-05
    scale_filler {
      type: "constant"
      value: 1
    }
    bias_filler {
      type: "constant"
      value: 0
    }
  }
}
layer {
  name: "Threshold_6"
  type: "ReLU"
  bottom: "BatchNorm_6"
  top: "BatchNorm_6"
}
layer {
  name: "ConvNd_20"
  type: "Convolution"
  bottom: "BatchNorm_6"
  top: "ConvNd_20"
  convolution_param {
    num_output: 19
    bias_term: false
    pad: 0
    kernel_size: 1
    group: 1
    stride: 1
    weight_filler {
      type: "msra"
    }
    dilation: 1
  }
}
layer {
  name: "ConvNd_21"
  type: "Convolution"
  bottom: "BatchNorm_6"
  top: "ConvNd_21"
  convolution_param {
    num_output: 25
    bias_term: false
    pad: 1
    kernel_size: 3
    group: 1
    stride: 2
    weight_filler {
      type: "msra"
    }
    dilation: 1
  }
}
layer {
  name: "ConvNd_22"
  type: "Convolution"
  bottom: "ConvNd_21"
  top: "ConvNd_22"
  convolution_param {
    num_output: 28
    bias_term: false
    pad: 1
    kernel_size: 3
    group: 1
    stride: 1
    weight_filler {
      type: "msra"
    }
    dilation: 1
  }
}
layer {
  name: "ConvNd_23"
  type: "Convolution"
  bottom: "ConvNd_21"
  top: "ConvNd_23"
  convolution_param {
    num_output: 25
    bias_term: false
    pad: 2
    kernel_size: 3
    group: 1
    stride: 1
    weight_filler {
      type: "msra"
    }
    dilation: 2
  }
}
layer {
  name: "ConvNd_24"
  type: "Convolution"
  bottom: "ConvNd_21"
  top: "ConvNd_24"
  convolution_param {
    num_output: 25
    bias_term: false
    pad: 4
    kernel_size: 3
    group: 1
    stride: 1
    weight_filler {
      type: "msra"
    }
    dilation: 4
  }
}
layer {
  name: "Add_12"
  type: "Eltwise"
  bottom: "ConvNd_23"
  bottom: "ConvNd_24"
  top: "Add_12"
}
layer {
  name: "ConvNd_25"
  type: "Convolution"
  bottom: "ConvNd_21"
  top: "ConvNd_25"
  convolution_param {
    num_output: 25
    bias_term: false
    pad: 8
    kernel_size: 3
    group: 1
    stride: 1
    weight_filler {
      type: "msra"
    }
    dilation: 8
  }
}
layer {
  name: "Add_13"
  type: "Eltwise"
  bottom: "Add_12"
  bottom: "ConvNd_25"
  top: "Add_13"
}
layer {
  name: "ConvNd_26"
  type: "Convolution"
  bottom: "ConvNd_21"
  top: "ConvNd_26"
  convolution_param {
    num_output: 25
    bias_term: false
    pad: 16
    kernel_size: 3
    group: 1
    stride: 1
    weight_filler {
      type: "msra"
    }
    dilation: 16
  }
}
layer {
  name: "Add_14"
  type: "Eltwise"
  bottom: "Add_13"
  bottom: "ConvNd_26"
  top: "Add_14"
}
layer {
  name: "Concat_6"
  type: "Concat"
  bottom: "ConvNd_22"
  bottom: "ConvNd_23"
  bottom: "Add_12"
  bottom: "Add_13"
  bottom: "Add_14"
  top: "Concat_6"
  concat_param {
    axis: 1
  }
}
layer {
  name: "BatchNorm_7"
  type: "BatchNorm"
  bottom: "Concat_6"
  top: "BatchNorm_7"
  param {
    lr_mult: 1
    decay_mult: 0
  }
  param {
    lr_mult: 1
    decay_mult: 0
  }
  param {
    lr_mult: 0
    decay_mult: 0
  }
  param {
    lr_mult: 0
    decay_mult: 0
  }
  batch_norm_param {
    use_global_stats: true
    eps: 1e-05
    scale_filler {
      type: "constant"
      value: 1
    }
    bias_filler {
      type: "constant"
      value: 0
    }
  }
}
layer {
  name: "Threshold_7"
  type: "ReLU"
  bottom: "BatchNorm_7"
  top: "BatchNorm_7"
}
layer {
  name: "ConvNd_27"
  type: "Convolution"
  bottom: "BatchNorm_7"
  top: "ConvNd_27"
  convolution_param {
    num_output: 25
    bias_term: false
    pad: 0
    kernel_size: 1
    group: 1
    stride: 1
    weight_filler {
      type: "msra"
    }
    dilation: 1
  }
}
layer {
  name: "ConvNd_28"
  type: "Convolution"
  bottom: "ConvNd_27"
  top: "ConvNd_28"
  convolution_param {
    num_output: 28
    bias_term: false
    pad: 1
    kernel_size: 3
    group: 1
    stride: 1
    weight_filler {
      type: "msra"
    }
    dilation: 1
  }
}
layer {
  name: "ConvNd_29"
  type: "Convolution"
  bottom: "ConvNd_27"
  top: "ConvNd_29"
  convolution_param {
    num_output: 25
    bias_term: false
    pad: 2
    kernel_size: 3
    group: 1
    stride: 1
    weight_filler {
      type: "msra"
    }
    dilation: 2
  }
}
layer {
  name: "ConvNd_30"
  type: "Convolution"
  bottom: "ConvNd_27"
  top: "ConvNd_30"
  convolution_param {
    num_output: 25
    bias_term: false
    pad: 4
    kernel_size: 3
    group: 1
    stride: 1
    weight_filler {
      type: "msra"
    }
    dilation: 4
  }
}
layer {
  name: "Add_15"
  type: "Eltwise"
  bottom: "ConvNd_29"
  bottom: "ConvNd_30"
  top: "Add_15"
}
layer {
  name: "ConvNd_31"
  type: "Convolution"
  bottom: "ConvNd_27"
  top: "ConvNd_31"
  convolution_param {
    num_output: 25
    bias_term: false
    pad: 8
    kernel_size: 3
    group: 1
    stride: 1
    weight_filler {
      type: "msra"
    }
    dilation: 8
  }
}
layer {
  name: "Add_16"
  type: "Eltwise"
  bottom: "Add_15"
  bottom: "ConvNd_31"
  top: "Add_16"
}
layer {
  name: "ConvNd_32"
  type: "Convolution"
  bottom: "ConvNd_27"
  top: "ConvNd_32"
  convolution_param {
    num_output: 25
    bias_term: false
    pad: 16
    kernel_size: 3
    group: 1
    stride: 1
    weight_filler {
      type: "msra"
    }
    dilation: 16
  }
}
layer {
  name: "Add_17"
  type: "Eltwise"
  bottom: "Add_16"
  bottom: "ConvNd_32"
  top: "Add_17"
}
layer {
  name: "Concat_7"
  type: "Concat"
  bottom: "ConvNd_28"
  bottom: "ConvNd_29"
  bottom: "Add_15"
  bottom: "Add_16"
  bottom: "Add_17"
  top: "Concat_7"
  concat_param {
    axis: 1
  }
}
layer {
  name: "Add_18"
  type: "Eltwise"
  bottom: "BatchNorm_7"
  bottom: "Concat_7"
  top: "Add_18"
}
layer {
  name: "BatchNorm_8"
  type: "BatchNorm"
  bottom: "Add_18"
  top: "BatchNorm_8"
  param {
    lr_mult: 1
    decay_mult: 0
  }
  param {
    lr_mult: 1
    decay_mult: 0
  }
  param {
    lr_mult: 0
    decay_mult: 0
  }
  param {
    lr_mult: 0
    decay_mult: 0
  }
  batch_norm_param {
    use_global_stats: true
    eps: 1e-05
    scale_filler {
      type: "constant"
      value: 1
    }
    bias_filler {
      type: "constant"
      value: 0
    }
  }
}
layer {
  name: "Threshold_8"
  type: "ReLU"
  bottom: "BatchNorm_8"
  top: "BatchNorm_8"
}
layer {
  name: "ConvNd_33"
  type: "Convolution"
  bottom: "BatchNorm_8"
  top: "ConvNd_33"
  convolution_param {
    num_output: 25
    bias_term: false
    pad: 0
    kernel_size: 1
    group: 1
    stride: 1
    weight_filler {
      type: "msra"
    }
    dilation: 1
  }
}
layer {
  name: "ConvNd_34"
  type: "Convolution"
  bottom: "ConvNd_33"
  top: "ConvNd_34"
  convolution_param {
    num_output: 28
    bias_term: false
    pad: 1
    kernel_size: 3
    group: 1
    stride: 1
    weight_filler {
      type: "msra"
    }
    dilation: 1
  }
}
layer {
  name: "ConvNd_35"
  type: "Convolution"
  bottom: "ConvNd_33"
  top: "ConvNd_35"
  convolution_param {
    num_output: 25
    bias_term: false
    pad: 2
    kernel_size: 3
    group: 1
    stride: 1
    weight_filler {
      type: "msra"
    }
    dilation: 2
  }
}
layer {
  name: "ConvNd_36"
  type: "Convolution"
  bottom: "ConvNd_33"
  top: "ConvNd_36"
  convolution_param {
    num_output: 25
    bias_term: false
    pad: 4
    kernel_size: 3
    group: 1
    stride: 1
    weight_filler {
      type: "msra"
    }
    dilation: 4
  }
}
layer {
  name: "Add_19"
  type: "Eltwise"
  bottom: "ConvNd_35"
  bottom: "ConvNd_36"
  top: "Add_19"
}
layer {
  name: "ConvNd_37"
  type: "Convolution"
  bottom: "ConvNd_33"
  top: "ConvNd_37"
  convolution_param {
    num_output: 25
    bias_term: false
    pad: 8
    kernel_size: 3
    group: 1
    stride: 1
    weight_filler {
      type: "msra"
    }
    dilation: 8
  }
}
layer {
  name: "Add_20"
  type: "Eltwise"
  bottom: "Add_19"
  bottom: "ConvNd_37"
  top: "Add_20"
}
layer {
  name: "ConvNd_38"
  type: "Convolution"
  bottom: "ConvNd_33"
  top: "ConvNd_38"
  convolution_param {
    num_output: 25
    bias_term: false
    pad: 16
    kernel_size: 3
    group: 1
    stride: 1
    weight_filler {
      type: "msra"
    }
    dilation: 16
  }
}
layer {
  name: "Add_21"
  type: "Eltwise"
  bottom: "Add_20"
  bottom: "ConvNd_38"
  top: "Add_21"
}
layer {
  name: "Concat_8"
  type: "Concat"
  bottom: "ConvNd_34"
  bottom: "ConvNd_35"
  bottom: "Add_19"
  bottom: "Add_20"
  bottom: "Add_21"
  top: "Concat_8"
  concat_param {
    axis: 1
  }
}
layer {
  name: "Add_22"
  type: "Eltwise"
  bottom: "BatchNorm_8"
  bottom: "Concat_8"
  top: "Add_22"
}
layer {
  name: "BatchNorm_9"
  type: "BatchNorm"
  bottom: "Add_22"
  top: "BatchNorm_9"
  param {
    lr_mult: 1
    decay_mult: 0
  }
  param {
    lr_mult: 1
    decay_mult: 0
  }
  param {
    lr_mult: 0
    decay_mult: 0
  }
  param {
    lr_mult: 0
    decay_mult: 0
  }
  batch_norm_param {
    use_global_stats: true
    eps: 1e-05
    scale_filler {
      type: "constant"
      value: 1
    }
    bias_filler {
      type: "constant"
      value: 0
    }
  }
}
layer {
  name: "Threshold_9"
  type: "ReLU"
  bottom: "BatchNorm_9"
  top: "BatchNorm_9"
}
layer {
  name: "ConvNd_39"
  type: "Convolution"
  bottom: "BatchNorm_9"
  top: "ConvNd_39"
  convolution_param {
    num_output: 25
    bias_term: false
    pad: 0
    kernel_size: 1
    group: 1
    stride: 1
    weight_filler {
      type: "msra"
    }
    dilation: 1
  }
}
layer {
  name: "ConvNd_40"
  type: "Convolution"
  bottom: "ConvNd_39"
  top: "ConvNd_40"
  convolution_param {
    num_output: 28
    bias_term: false
    pad: 1
    kernel_size: 3
    group: 1
    stride: 1
    weight_filler {
      type: "msra"
    }
    dilation: 1
  }
}
layer {
  name: "ConvNd_41"
  type: "Convolution"
  bottom: "ConvNd_39"
  top: "ConvNd_41"
  convolution_param {
    num_output: 25
    bias_term: false
    pad: 2
    kernel_size: 3
    group: 1
    stride: 1
    weight_filler {
      type: "msra"
    }
    dilation: 2
  }
}
layer {
  name: "ConvNd_42"
  type: "Convolution"
  bottom: "ConvNd_39"
  top: "ConvNd_42"
  convolution_param {
    num_output: 25
    bias_term: false
    pad: 4
    kernel_size: 3
    group: 1
    stride: 1
    weight_filler {
      type: "msra"
    }
    dilation: 4
  }
}
layer {
  name: "Add_23"
  type: "Eltwise"
  bottom: "ConvNd_41"
  bottom: "ConvNd_42"
  top: "Add_23"
}
layer {
  name: "ConvNd_43"
  type: "Convolution"
  bottom: "ConvNd_39"
  top: "ConvNd_43"
  convolution_param {
    num_output: 25
    bias_term: false
    pad: 8
    kernel_size: 3
    group: 1
    stride: 1
    weight_filler {
      type: "msra"
    }
    dilation: 8
  }
}
layer {
  name: "Add_24"
  type: "Eltwise"
  bottom: "Add_23"
  bottom: "ConvNd_43"
  top: "Add_24"
}
layer {
  name: "ConvNd_44"
  type: "Convolution"
  bottom: "ConvNd_39"
  top: "ConvNd_44"
  convolution_param {
    num_output: 25
    bias_term: false
    pad: 16
    kernel_size: 3
    group: 1
    stride: 1
    weight_filler {
      type: "msra"
    }
    dilation: 16
  }
}
layer {
  name: "Add_25"
  type: "Eltwise"
  bottom: "Add_24"
  bottom: "ConvNd_44"
  top: "Add_25"
}
layer {
  name: "Concat_9"
  type: "Concat"
  bottom: "ConvNd_40"
  bottom: "ConvNd_41"
  bottom: "Add_23"
  bottom: "Add_24"
  bottom: "Add_25"
  top: "Concat_9"
  concat_param {
    axis: 1
  }
}
layer {
  name: "Add_26"
  type: "Eltwise"
  bottom: "BatchNorm_9"
  bottom: "Concat_9"
  top: "Add_26"
}
layer {
  name: "BatchNorm_10"
  type: "BatchNorm"
  bottom: "Add_26"
  top: "BatchNorm_10"
  param {
    lr_mult: 1
    decay_mult: 0
  }
  param {
    lr_mult: 1
    decay_mult: 0
  }
  param {
    lr_mult: 0
    decay_mult: 0
  }
  param {
    lr_mult: 0
    decay_mult: 0
  }
  batch_norm_param {
    use_global_stats: true
    eps: 1e-05
    scale_filler {
      type: "constant"
      value: 1
    }
    bias_filler {
      type: "constant"
      value: 0
    }
  }
}
layer {
  name: "Threshold_10"
  type: "ReLU"
  bottom: "BatchNorm_10"
  top: "BatchNorm_10"
}
layer {
  name: "ConvNd_45"
  type: "Convolution"
  bottom: "BatchNorm_10"
  top: "ConvNd_45"
  convolution_param {
    num_output: 25
    bias_term: false
    pad: 0
    kernel_size: 1
    group: 1
    stride: 1
    weight_filler {
      type: "msra"
    }
    dilation: 1
  }
}
layer {
  name: "ConvNd_46"
  type: "Convolution"
  bottom: "ConvNd_45"
  top: "ConvNd_46"
  convolution_param {
    num_output: 28
    bias_term: false
    pad: 1
    kernel_size: 3
    group: 1
    stride: 1
    weight_filler {
      type: "msra"
    }
    dilation: 1
  }
}
layer {
  name: "ConvNd_47"
  type: "Convolution"
  bottom: "ConvNd_45"
  top: "ConvNd_47"
  convolution_param {
    num_output: 25
    bias_term: false
    pad: 2
    kernel_size: 3
    group: 1
    stride: 1
    weight_filler {
      type: "msra"
    }
    dilation: 2
  }
}
layer {
  name: "ConvNd_48"
  type: "Convolution"
  bottom: "ConvNd_45"
  top: "ConvNd_48"
  convolution_param {
    num_output: 25
    bias_term: false
    pad: 4
    kernel_size: 3
    group: 1
    stride: 1
    weight_filler {
      type: "msra"
    }
    dilation: 4
  }
}
layer {
  name: "Add_27"
  type: "Eltwise"
  bottom: "ConvNd_47"
  bottom: "ConvNd_48"
  top: "Add_27"
}
layer {
  name: "ConvNd_49"
  type: "Convolution"
  bottom: "ConvNd_45"
  top: "ConvNd_49"
  convolution_param {
    num_output: 25
    bias_term: false
    pad: 8
    kernel_size: 3
    group: 1
    stride: 1
    weight_filler {
      type: "msra"
    }
    dilation: 8
  }
}
layer {
  name: "Add_28"
  type: "Eltwise"
  bottom: "Add_27"
  bottom: "ConvNd_49"
  top: "Add_28"
}
layer {
  name: "ConvNd_50"
  type: "Convolution"
  bottom: "ConvNd_45"
  top: "ConvNd_50"
  convolution_param {
    num_output: 25
    bias_term: false
    pad: 16
    kernel_size: 3
    group: 1
    stride: 1
    weight_filler {
      type: "msra"
    }
    dilation: 16
  }
}
layer {
  name: "Add_29"
  type: "Eltwise"
  bottom: "Add_28"
  bottom: "ConvNd_50"
  top: "Add_29"
}
layer {
  name: "Concat_10"
  type: "Concat"
  bottom: "ConvNd_46"
  bottom: "ConvNd_47"
  bottom: "Add_27"
  bottom: "Add_28"
  bottom: "Add_29"
  top: "Concat_10"
  concat_param {
    axis: 1
  }
}
layer {
  name: "Add_30"
  type: "Eltwise"
  bottom: "BatchNorm_10"
  bottom: "Concat_10"
  top: "Add_30"
}
layer {
  name: "BatchNorm_11"
  type: "BatchNorm"
  bottom: "Add_30"
  top: "BatchNorm_11"
  param {
    lr_mult: 1
    decay_mult: 0
  }
  param {
    lr_mult: 1
    decay_mult: 0
  }
  param {
    lr_mult: 0
    decay_mult: 0
  }
  param {
    lr_mult: 0
    decay_mult: 0
  }
  batch_norm_param {
    use_global_stats: true
    eps: 1e-05
    scale_filler {
      type: "constant"
      value: 1
    }
    bias_filler {
      type: "constant"
      value: 0
    }
  }
}
layer {
  name: "Threshold_11"
  type: "ReLU"
  bottom: "BatchNorm_11"
  top: "BatchNorm_11"
}
layer {
  name: "ConvNd_51"
  type: "Convolution"
  bottom: "BatchNorm_11"
  top: "ConvNd_51"
  convolution_param {
    num_output: 25
    bias_term: false
    pad: 0
    kernel_size: 1
    group: 1
    stride: 1
    weight_filler {
      type: "msra"
    }
    dilation: 1
  }
}
layer {
  name: "ConvNd_52"
  type: "Convolution"
  bottom: "ConvNd_51"
  top: "ConvNd_52"
  convolution_param {
    num_output: 28
    bias_term: false
    pad: 1
    kernel_size: 3
    group: 1
    stride: 1
    weight_filler {
      type: "msra"
    }
    dilation: 1
  }
}
layer {
  name: "ConvNd_53"
  type: "Convolution"
  bottom: "ConvNd_51"
  top: "ConvNd_53"
  convolution_param {
    num_output: 25
    bias_term: false
    pad: 2
    kernel_size: 3
    group: 1
    stride: 1
    weight_filler {
      type: "msra"
    }
    dilation: 2
  }
}
layer {
  name: "ConvNd_54"
  type: "Convolution"
  bottom: "ConvNd_51"
  top: "ConvNd_54"
  convolution_param {
    num_output: 25
    bias_term: false
    pad: 4
    kernel_size: 3
    group: 1
    stride: 1
    weight_filler {
      type: "msra"
    }
    dilation: 4
  }
}
layer {
  name: "Add_31"
  type: "Eltwise"
  bottom: "ConvNd_53"
  bottom: "ConvNd_54"
  top: "Add_31"
}
layer {
  name: "ConvNd_55"
  type: "Convolution"
  bottom: "ConvNd_51"
  top: "ConvNd_55"
  convolution_param {
    num_output: 25
    bias_term: false
    pad: 8
    kernel_size: 3
    group: 1
    stride: 1
    weight_filler {
      type: "msra"
    }
    dilation: 8
  }
}
layer {
  name: "Add_32"
  type: "Eltwise"
  bottom: "Add_31"
  bottom: "ConvNd_55"
  top: "Add_32"
}
layer {
  name: "ConvNd_56"
  type: "Convolution"
  bottom: "ConvNd_51"
  top: "ConvNd_56"
  convolution_param {
    num_output: 25
    bias_term: false
    pad: 16
    kernel_size: 3
    group: 1
    stride: 1
    weight_filler {
      type: "msra"
    }
    dilation: 16
  }
}
layer {
  name: "Add_33"
  type: "Eltwise"
  bottom: "Add_32"
  bottom: "ConvNd_56"
  top: "Add_33"
}
layer {
  name: "Concat_11"
  type: "Concat"
  bottom: "ConvNd_52"
  bottom: "ConvNd_53"
  bottom: "Add_31"
  bottom: "Add_32"
  bottom: "Add_33"
  top: "Concat_11"
  concat_param {
    axis: 1
  }
}
layer {
  name: "Add_34"
  type: "Eltwise"
  bottom: "BatchNorm_11"
  bottom: "Concat_11"
  top: "Add_34"
}
layer {
  name: "BatchNorm_12"
  type: "BatchNorm"
  bottom: "Add_34"
  top: "BatchNorm_12"
  param {
    lr_mult: 1
    decay_mult: 0
  }
  param {
    lr_mult: 1
    decay_mult: 0
  }
  param {
    lr_mult: 0
    decay_mult: 0
  }
  param {
    lr_mult: 0
    decay_mult: 0
  }
  batch_norm_param {
    use_global_stats: true
    eps: 1e-05
    scale_filler {
      type: "constant"
      value: 1
    }
    bias_filler {
      type: "constant"
      value: 0
    }
  }
}
layer {
  name: "Threshold_12"
  type: "ReLU"
  bottom: "BatchNorm_12"
  top: "BatchNorm_12"
}
layer {
  name: "ConvNd_57"
  type: "Convolution"
  bottom: "BatchNorm_12"
  top: "ConvNd_57"
  convolution_param {
    num_output: 25
    bias_term: false
    pad: 0
    kernel_size: 1
    group: 1
    stride: 1
    weight_filler {
      type: "msra"
    }
    dilation: 1
  }
}
layer {
  name: "ConvNd_58"
  type: "Convolution"
  bottom: "ConvNd_57"
  top: "ConvNd_58"
  convolution_param {
    num_output: 28
    bias_term: false
    pad: 1
    kernel_size: 3
    group: 1
    stride: 1
    weight_filler {
      type: "msra"
    }
    dilation: 1
  }
}
layer {
  name: "ConvNd_59"
  type: "Convolution"
  bottom: "ConvNd_57"
  top: "ConvNd_59"
  convolution_param {
    num_output: 25
    bias_term: false
    pad: 2
    kernel_size: 3
    group: 1
    stride: 1
    weight_filler {
      type: "msra"
    }
    dilation: 2
  }
}
layer {
  name: "ConvNd_60"
  type: "Convolution"
  bottom: "ConvNd_57"
  top: "ConvNd_60"
  convolution_param {
    num_output: 25
    bias_term: fa
I0224 07:18:15.707501  1142 layer_factory.hpp:123] Creating layer data
I0224 07:18:15.707522  1142 net.cpp:140] Creating Layer data
I0224 07:18:15.707528  1142 net.cpp:455] data -> data
I0224 07:18:15.707542  1142 net.cpp:455] data -> label
I0224 07:18:15.707554  1142 image_data_layer.cpp:87] Opening file /workspace/Segment/VAI/data/cityscapes/calibration.txt
I0224 07:18:15.707875  1142 image_data_layer.cpp:97] Shuffling data
I0224 07:18:15.707948  1142 image_data_layer.cpp:102] A total of 1000 images.
I0224 07:18:15.774811  1142 image_data_layer.cpp:130] output data size: 1,3,256,512
I0224 07:18:15.786813  1142 internal_thread.cpp:73] Starting internal thread(s) on GPU 0
I0224 07:18:15.786893  1142 net.cpp:190] Setting up data
I0224 07:18:15.786901  1142 net.cpp:197] Top shape: 1 3 256 512 (393216)
I0224 07:18:15.786911  1142 net.cpp:197] Top shape: 1 (1)
I0224 07:18:15.786916  1142 net.cpp:205] Memory required for data: 1572868
I0224 07:18:15.786921  1142 layer_factory.hpp:123] Creating layer data_data_0_split
I0224 07:18:15.786936  1142 net.cpp:140] Creating Layer data_data_0_split
I0224 07:18:15.786940  1142 net.cpp:481] data_data_0_split <- data
I0224 07:18:15.786948  1142 net.cpp:455] data_data_0_split -> data_data_0_split_0
I0224 07:18:15.786959  1142 net.cpp:455] data_data_0_split -> data_data_0_split_1
I0224 07:18:15.786965  1142 net.cpp:455] data_data_0_split -> data_data_0_split_2
I0224 07:18:15.787016  1142 net.cpp:190] Setting up data_data_0_split
I0224 07:18:15.787024  1142 net.cpp:197] Top shape: 1 3 256 512 (393216)
I0224 07:18:15.787029  1142 net.cpp:197] Top shape: 1 3 256 512 (393216)
I0224 07:18:15.787032  1142 net.cpp:197] Top shape: 1 3 256 512 (393216)
I0224 07:18:15.787037  1142 net.cpp:205] Memory required for data: 6291460
I0224 07:18:15.787040  1142 layer_factory.hpp:123] Creating layer ConvNd_1
I0224 07:18:15.787050  1142 net.cpp:140] Creating Layer ConvNd_1
I0224 07:18:15.787055  1142 net.cpp:481] ConvNd_1 <- data_data_0_split_0
I0224 07:18:15.787060  1142 net.cpp:455] ConvNd_1 -> ConvNd_1
I0224 07:18:15.787318  1142 net.cpp:190] Setting up ConvNd_1
I0224 07:18:15.787324  1142 net.cpp:197] Top shape: 1 16 128 256 (524288)
I0224 07:18:15.787330  1142 net.cpp:205] Memory required for data: 8388612
I0224 07:18:15.787348  1142 layer_factory.hpp:123] Creating layer BatchNorm_1
I0224 07:18:15.787360  1142 net.cpp:140] Creating Layer BatchNorm_1
I0224 07:18:15.787364  1142 net.cpp:481] BatchNorm_1 <- ConvNd_1
I0224 07:18:15.787369  1142 net.cpp:455] BatchNorm_1 -> BatchNorm_1
I0224 07:18:15.787956  1142 net.cpp:190] Setting up BatchNorm_1
I0224 07:18:15.787963  1142 net.cpp:197] Top shape: 1 16 128 256 (524288)
I0224 07:18:15.787969  1142 net.cpp:205] Memory required for data: 10485764
I0224 07:18:15.787979  1142 layer_factory.hpp:123] Creating layer Threshold_1
I0224 07:18:15.787989  1142 net.cpp:140] Creating Layer Threshold_1
I0224 07:18:15.787993  1142 net.cpp:481] Threshold_1 <- BatchNorm_1
I0224 07:18:15.787997  1142 net.cpp:442] Threshold_1 -> BatchNorm_1 (in-place)
I0224 07:18:15.788008  1142 net.cpp:190] Setting up Threshold_1
I0224 07:18:15.788014  1142 net.cpp:197] Top shape: 1 16 128 256 (524288)
I0224 07:18:15.788018  1142 net.cpp:205] Memory required for data: 12582916
I0224 07:18:15.788022  1142 layer_factory.hpp:123] Creating layer BatchNorm_1_Threshold_1_0_split
I0224 07:18:15.788028  1142 net.cpp:140] Creating Layer BatchNorm_1_Threshold_1_0_split
I0224 07:18:15.788030  1142 net.cpp:481] BatchNorm_1_Threshold_1_0_split <- BatchNorm_1
I0224 07:18:15.788034  1142 net.cpp:455] BatchNorm_1_Threshold_1_0_split -> BatchNorm_1_Threshold_1_0_split_0
I0224 07:18:15.788040  1142 net.cpp:455] BatchNorm_1_Threshold_1_0_split -> BatchNorm_1_Threshold_1_0_split_1
I0224 07:18:15.788090  1142 net.cpp:190] Setting up BatchNorm_1_Threshold_1_0_split
I0224 07:18:15.788095  1142 net.cpp:197] Top shape: 1 16 128 256 (524288)
I0224 07:18:15.788101  1142 net.cpp:197] Top shape: 1 16 128 256 (524288)
I0224 07:18:15.788105  1142 net.cpp:205] Memory required for data: 16777220
I0224 07:18:15.788108  1142 layer_factory.hpp:123] Creating layer AvgPool2d_1
I0224 07:18:15.788115  1142 net.cpp:140] Creating Layer AvgPool2d_1
I0224 07:18:15.788120  1142 net.cpp:481] AvgPool2d_1 <- data_data_0_split_1
I0224 07:18:15.788123  1142 net.cpp:455] AvgPool2d_1 -> AvgPool2d_1
I0224 07:18:15.788151  1142 net.cpp:190] Setting up AvgPool2d_1
I0224 07:18:15.788157  1142 net.cpp:197] Top shape: 1 3 128 256 (98304)
I0224 07:18:15.788162  1142 net.cpp:205] Memory required for data: 17170436
I0224 07:18:15.788166  1142 layer_factory.hpp:123] Creating layer Concat_1
I0224 07:18:15.788174  1142 net.cpp:140] Creating Layer Concat_1
I0224 07:18:15.788177  1142 net.cpp:481] Concat_1 <- BatchNorm_1_Threshold_1_0_split_0
I0224 07:18:15.788182  1142 net.cpp:481] Concat_1 <- AvgPool2d_1
I0224 07:18:15.788187  1142 net.cpp:455] Concat_1 -> Concat_1
I0224 07:18:15.788206  1142 net.cpp:190] Setting up Concat_1
I0224 07:18:15.788211  1142 net.cpp:197] Top shape: 1 19 128 256 (622592)
I0224 07:18:15.788215  1142 net.cpp:205] Memory required for data: 19660804
I0224 07:18:15.788219  1142 layer_factory.hpp:123] Creating layer BatchNorm_2
I0224 07:18:15.788226  1142 net.cpp:140] Creating Layer BatchNorm_2
I0224 07:18:15.788229  1142 net.cpp:481] BatchNorm_2 <- Concat_1
I0224 07:18:15.788235  1142 net.cpp:455] BatchNorm_2 -> BatchNorm_2
I0224 07:18:15.788844  1142 net.cpp:190] Setting up BatchNorm_2
I0224 07:18:15.788852  1142 net.cpp:197] Top shape: 1 19 128 256 (622592)
I0224 07:18:15.788857  1142 net.cpp:205] Memory required for data: 22151172
I0224 07:18:15.788866  1142 layer_factory.hpp:123] Creating layer Threshold_2
I0224 07:18:15.788872  1142 net.cpp:140] Creating Layer Threshold_2
I0224 07:18:15.788875  1142 net.cpp:481] Threshold_2 <- BatchNorm_2
I0224 07:18:15.788879  1142 net.cpp:442] Threshold_2 -> BatchNorm_2 (in-place)
I0224 07:18:15.788885  1142 net.cpp:190] Setting up Threshold_2
I0224 07:18:15.788888  1142 net.cpp:197] Top shape: 1 19 128 256 (622592)
I0224 07:18:15.788893  1142 net.cpp:205] Memory required for data: 24641540
I0224 07:18:15.788897  1142 layer_factory.hpp:123] Creating layer ConvNd_2
I0224 07:18:15.788904  1142 net.cpp:140] Creating Layer ConvNd_2
I0224 07:18:15.788908  1142 net.cpp:481] ConvNd_2 <- BatchNorm_2
I0224 07:18:15.788913  1142 net.cpp:455] ConvNd_2 -> ConvNd_2
I0224 07:18:15.789110  1142 net.cpp:190] Setting up ConvNd_2
I0224 07:18:15.789117  1142 net.cpp:197] Top shape: 1 12 64 128 (98304)
I0224 07:18:15.789122  1142 net.cpp:205] Memory required for data: 25034756
I0224 07:18:15.789127  1142 layer_factory.hpp:123] Creating layer ConvNd_2_ConvNd_2_0_split
I0224 07:18:15.789134  1142 net.cpp:140] Creating Layer ConvNd_2_ConvNd_2_0_split
I0224 07:18:15.789137  1142 net.cpp:481] ConvNd_2_ConvNd_2_0_split <- ConvNd_2
I0224 07:18:15.789144  1142 net.cpp:455] ConvNd_2_ConvNd_2_0_split -> ConvNd_2_ConvNd_2_0_split_0
I0224 07:18:15.789149  1142 net.cpp:455] ConvNd_2_ConvNd_2_0_split -> ConvNd_2_ConvNd_2_0_split_1
I0224 07:18:15.789155  1142 net.cpp:455] ConvNd_2_ConvNd_2_0_split -> ConvNd_2_ConvNd_2_0_split_2
I0224 07:18:15.789160  1142 net.cpp:455] ConvNd_2_ConvNd_2_0_split -> ConvNd_2_ConvNd_2_0_split_3
I0224 07:18:15.789166  1142 net.cpp:455] ConvNd_2_ConvNd_2_0_split -> ConvNd_2_ConvNd_2_0_split_4
I0224 07:18:15.789220  1142 net.cpp:190] Setting up ConvNd_2_ConvNd_2_0_split
I0224 07:18:15.789227  1142 net.cpp:197] Top shape: 1 12 64 128 (98304)
I0224 07:18:15.789230  1142 net.cpp:197] Top shape: 1 12 64 128 (98304)
I0224 07:18:15.789235  1142 net.cpp:197] Top shape: 1 12 64 128 (98304)
I0224 07:18:15.789239  1142 net.cpp:197] Top shape: 1 12 64 128 (98304)
I0224 07:18:15.789243  1142 net.cpp:197] Top shape: 1 12 64 128 (98304)
I0224 07:18:15.789247  1142 net.cpp:205] Memory required for data: 27000836
I0224 07:18:15.789252  1142 layer_factory.hpp:123] Creating layer ConvNd_3
I0224 07:18:15.789258  1142 net.cpp:140] Creating Layer ConvNd_3
I0224 07:18:15.789263  1142 net.cpp:481] ConvNd_3 <- ConvNd_2_ConvNd_2_0_split_0
I0224 07:18:15.789268  1142 net.cpp:455] ConvNd_3 -> ConvNd_3
I0224 07:18:15.789469  1142 net.cpp:190] Setting up ConvNd_3
I0224 07:18:15.789475  1142 net.cpp:197] Top shape: 1 16 64 128 (131072)
I0224 07:18:15.789480  1142 net.cpp:205] Memory required for data: 27525124
I0224 07:18:15.789485  1142 layer_factory.hpp:123] Creating layer ConvNd_4
I0224 07:18:15.789492  1142 net.cpp:140] Creating Layer ConvNd_4
I0224 07:18:15.789495  1142 net.cpp:481] ConvNd_4 <- ConvNd_2_ConvNd_2_0_split_1
I0224 07:18:15.789500  1142 net.cpp:455] ConvNd_4 -> ConvNd_4
I0224 07:18:15.789664  1142 net.cpp:190] Setting up ConvNd_4
I0224 07:18:15.789669  1142 net.cpp:197] Top shape: 1 12 64 128 (98304)
I0224 07:18:15.789674  1142 net.cpp:205] Memory required for data: 27918340
I0224 07:18:15.789678  1142 layer_factory.hpp:123] Creating layer ConvNd_4_ConvNd_4_0_split
I0224 07:18:15.789685  1142 net.cpp:140] Creating Layer ConvNd_4_ConvNd_4_0_split
I0224 07:18:15.789687  1142 net.cpp:481] ConvNd_4_ConvNd_4_0_split <- ConvNd_4
I0224 07:18:15.789692  1142 net.cpp:455] ConvNd_4_ConvNd_4_0_split -> ConvNd_4_ConvNd_4_0_split_0
I0224 07:18:15.789698  1142 net.cpp:455] ConvNd_4_ConvNd_4_0_split -> ConvNd_4_ConvNd_4_0_split_1
I0224 07:18:15.789724  1142 net.cpp:190] Setting up ConvNd_4_ConvNd_4_0_split
I0224 07:18:15.789729  1142 net.cpp:197] Top shape: 1 12 64 128 (98304)
I0224 07:18:15.789734  1142 net.cpp:197] Top shape: 1 12 64 128 (98304)
I0224 07:18:15.789738  1142 net.cpp:205] Memory required for data: 28704772
I0224 07:18:15.789741  1142 layer_factory.hpp:123] Creating layer ConvNd_5
I0224 07:18:15.789747  1142 net.cpp:140] Creating Layer ConvNd_5
I0224 07:18:15.789752  1142 net.cpp:481] ConvNd_5 <- ConvNd_2_ConvNd_2_0_split_2
I0224 07:18:15.789757  1142 net.cpp:455] ConvNd_5 -> ConvNd_5
I0224 07:18:15.789918  1142 net.cpp:190] Setting up ConvNd_5
I0224 07:18:15.789924  1142 net.cpp:197] Top shape: 1 12 64 128 (98304)
I0224 07:18:15.789928  1142 net.cpp:205] Memory required for data: 29097988
I0224 07:18:15.789933  1142 layer_factory.hpp:123] Creating layer Add_1
I0224 07:18:15.789939  1142 net.cpp:140] Creating Layer Add_1
I0224 07:18:15.789943  1142 net.cpp:481] Add_1 <- ConvNd_4_ConvNd_4_0_split_0
I0224 07:18:15.789947  1142 net.cpp:481] Add_1 <- ConvNd_5
I0224 07:18:15.789952  1142 net.cpp:455] Add_1 -> Add_1
I0224 07:18:15.789975  1142 net.cpp:190] Setting up Add_1
I0224 07:18:15.789980  1142 net.cpp:197] Top shape: 1 12 64 128 (98304)
I0224 07:18:15.789985  1142 net.cpp:205] Memory required for data: 29491204
I0224 07:18:15.789988  1142 layer_factory.hpp:123] Creating layer Add_1_Add_1_0_split
I0224 07:18:15.789994  1142 net.cpp:140] Creating Layer Add_1_Add_1_0_split
I0224 07:18:15.789996  1142 net.cpp:481] Add_1_Add_1_0_split <- Add_1
I0224 07:18:15.790001  1142 net.cpp:455] Add_1_Add_1_0_split -> Add_1_Add_1_0_split_0
I0224 07:18:15.790006  1142 net.cpp:455] Add_1_Add_1_0_split -> Add_1_Add_1_0_split_1
I0224 07:18:15.790032  1142 net.cpp:190] Setting up Add_1_Add_1_0_split
I0224 07:18:15.790037  1142 net.cpp:197] Top shape: 1 12 64 128 (98304)
I0224 07:18:15.790041  1142 net.cpp:197] Top shape: 1 12 64 128 (98304)
I0224 07:18:15.790045  1142 net.cpp:205] Memory required for data: 30277636
I0224 07:18:15.790050  1142 layer_factory.hpp:123] Creating layer ConvNd_6
I0224 07:18:15.790055  1142 net.cpp:140] Creating Layer ConvNd_6
I0224 07:18:15.790058  1142 net.cpp:481] ConvNd_6 <- ConvNd_2_ConvNd_2_0_split_3
I0224 07:18:15.790063  1142 net.cpp:455] ConvNd_6 -> ConvNd_6
I0224 07:18:15.790227  1142 net.cpp:190] Setting up ConvNd_6
I0224 07:18:15.790232  1142 net.cpp:197] Top shape: 1 12 64 128 (98304)
I0224 07:18:15.790237  1142 net.cpp:205] Memory required for data: 30670852
I0224 07:18:15.790241  1142 layer_factory.hpp:123] Creating layer Add_2
I0224 07:18:15.790246  1142 net.cpp:140] Creating Layer Add_2
I0224 07:18:15.790251  1142 net.cpp:481] Add_2 <- Add_1_Add_1_0_split_0
I0224 07:18:15.790254  1142 net.cpp:481] Add_2 <- ConvNd_6
I0224 07:18:15.790259  1142 net.cpp:455] Add_2 -> Add_2
I0224 07:18:15.790277  1142 net.cpp:190] Setting up Add_2
I0224 07:18:15.790282  1142 net.cpp:197] Top shape: 1 12 64 128 (98304)
I0224 07:18:15.790287  1142 net.cpp:205] Memory required for data: 31064068
I0224 07:18:15.790289  1142 layer_factory.hpp:123] Creating layer Add_2_Add_2_0_split
I0224 07:18:15.790294  1142 net.cpp:140] Creating Layer Add_2_Add_2_0_split
I0224 07:18:15.790297  1142 net.cpp:481] Add_2_Add_2_0_split <- Add_2
I0224 07:18:15.790302  1142 net.cpp:455] Add_2_Add_2_0_split -> Add_2_Add_2_0_split_0
I0224 07:18:15.790307  1142 net.cpp:455] Add_2_Add_2_0_split -> Add_2_Add_2_0_split_1
I0224 07:18:15.790333  1142 net.cpp:190] Setting up Add_2_Add_2_0_split
I0224 07:18:15.790338  1142 net.cpp:197] Top shape: 1 12 64 128 (98304)
I0224 07:18:15.790343  1142 net.cpp:197] Top shape: 1 12 64 128 (98304)
I0224 07:18:15.790346  1142 net.cpp:205] Memory required for data: 31850500
I0224 07:18:15.790349  1142 layer_factory.hpp:123] Creating layer ConvNd_7
I0224 07:18:15.790356  1142 net.cpp:140] Creating Layer ConvNd_7
I0224 07:18:15.790359  1142 net.cpp:481] ConvNd_7 <- ConvNd_2_ConvNd_2_0_split_4
I0224 07:18:15.790364  1142 net.cpp:455] ConvNd_7 -> ConvNd_7
I0224 07:18:15.790526  1142 net.cpp:190] Setting up ConvNd_7
I0224 07:18:15.790532  1142 net.cpp:197] Top shape: 1 12 64 128 (98304)
I0224 07:18:15.790536  1142 net.cpp:205] Memory required for data: 32243716
I0224 07:18:15.790542  1142 layer_factory.hpp:123] Creating layer Add_3
I0224 07:18:15.790547  1142 net.cpp:140] Creating Layer Add_3
I0224 07:18:15.790550  1142 net.cpp:481] Add_3 <- Add_2_Add_2_0_split_0
I0224 07:18:15.790555  1142 net.cpp:481] Add_3 <- ConvNd_7
I0224 07:18:15.790560  1142 net.cpp:455] Add_3 -> Add_3
I0224 07:18:15.790576  1142 net.cpp:190] Setting up Add_3
I0224 07:18:15.790581  1142 net.cpp:197] Top shape: 1 12 64 128 (98304)
I0224 07:18:15.790585  1142 net.cpp:205] Memory required for data: 32636932
I0224 07:18:15.790589  1142 layer_factory.hpp:123] Creating layer Concat_2
I0224 07:18:15.790594  1142 net.cpp:140] Creating Layer Concat_2
I0224 07:18:15.790597  1142 net.cpp:481] Concat_2 <- ConvNd_3
I0224 07:18:15.790601  1142 net.cpp:481] Concat_2 <- ConvNd_4_ConvNd_4_0_split_1
I0224 07:18:15.790606  1142 net.cpp:481] Concat_2 <- Add_1_Add_1_0_split_1
I0224 07:18:15.790608  1142 net.cpp:481] Concat_2 <- Add_2_Add_2_0_split_1
I0224 07:18:15.790612  1142 net.cpp:481] Concat_2 <- Add_3
I0224 07:18:15.790617  1142 net.cpp:455] Concat_2 -> Concat_2
I0224 07:18:15.790635  1142 net.cpp:190] Setting up Concat_2
I0224 07:18:15.790640  1142 net.cpp:197] Top shape: 1 64 64 128 (524288)
I0224 07:18:15.790645  1142 net.cpp:205] Memory required for data: 34734084
I0224 07:18:15.790648  1142 layer_factory.hpp:123] Creating layer BatchNorm_3
I0224 07:18:15.790655  1142 net.cpp:140] Creating Layer BatchNorm_3
I0224 07:18:15.790658  1142 net.cpp:481] BatchNorm_3 <- Concat_2
I0224 07:18:15.790663  1142 net.cpp:455] BatchNorm_3 -> BatchNorm_3
I0224 07:18:15.791208  1142 net.cpp:190] Setting up BatchNorm_3
I0224 07:18:15.791215  1142 net.cpp:197] Top shape: 1 64 64 128 (524288)
I0224 07:18:15.791220  1142 net.cpp:205] Memory required for data: 36831236
I0224 07:18:15.791229  1142 layer_factory.hpp:123] Creating layer Threshold_3
I0224 07:18:15.791234  1142 net.cpp:140] Creating Layer Threshold_3
I0224 07:18:15.791239  1142 net.cpp:481] Threshold_3 <- BatchNorm_3
I0224 07:18:15.791244  1142 net.cpp:442] Threshold_3 -> BatchNorm_3 (in-place)
I0224 07:18:15.791249  1142 net.cpp:190] Setting up Threshold_3
I0224 07:18:15.791252  1142 net.cpp:197] Top shape: 1 64 64 128 (524288)
I0224 07:18:15.791257  1142 net.cpp:205] Memory required for data: 38928388
I0224 07:18:15.791260  1142 layer_factory.hpp:123] Creating layer BatchNorm_3_Threshold_3_0_split
I0224 07:18:15.791265  1142 net.cpp:140] Creating Layer BatchNorm_3_Threshold_3_0_split
I0224 07:18:15.791268  1142 net.cpp:481] BatchNorm_3_Threshold_3_0_split <- BatchNorm_3
I0224 07:18:15.791273  1142 net.cpp:455] BatchNorm_3_Threshold_3_0_split -> BatchNorm_3_Threshold_3_0_split_0
I0224 07:18:15.791280  1142 net.cpp:455] BatchNorm_3_Threshold_3_0_split -> BatchNorm_3_Threshold_3_0_split_1
I0224 07:18:15.791285  1142 net.cpp:455] BatchNorm_3_Threshold_3_0_split -> BatchNorm_3_Threshold_3_0_split_2
I0224 07:18:15.791321  1142 net.cpp:190] Setting up BatchNorm_3_Threshold_3_0_split
I0224 07:18:15.791326  1142 net.cpp:197] Top shape: 1 64 64 128 (524288)
I0224 07:18:15.791330  1142 net.cpp:197] Top shape: 1 64 64 128 (524288)
I0224 07:18:15.791334  1142 net.cpp:197] Top shape: 1 64 64 128 (524288)
I0224 07:18:15.791339  1142 net.cpp:205] Memory required for data: 45219844
I0224 07:18:15.791342  1142 layer_factory.hpp:123] Creating layer ConvNd_8
I0224 07:18:15.791349  1142 net.cpp:140] Creating Layer ConvNd_8
I0224 07:18:15.791352  1142 net.cpp:481] ConvNd_8 <- BatchNorm_3_Threshold_3_0_split_0
I0224 07:18:15.791358  1142 net.cpp:455] ConvNd_8 -> ConvNd_8
I0224 07:18:15.791520  1142 net.cpp:190] Setting up ConvNd_8
I0224 07:18:15.791527  1142 net.cpp:197] Top shape: 1 12 64 128 (98304)
I0224 07:18:15.791532  1142 net.cpp:205] Memory required for data: 45613060
I0224 07:18:15.791537  1142 layer_factory.hpp:123] Creating layer ConvNd_8_ConvNd_8_0_split
I0224 07:18:15.791541  1142 net.cpp:140] Creating Layer ConvNd_8_ConvNd_8_0_split
I0224 07:18:15.791546  1142 net.cpp:481] ConvNd_8_ConvNd_8_0_split <- ConvNd_8
I0224 07:18:15.791551  1142 net.cpp:455] ConvNd_8_ConvNd_8_0_split -> ConvNd_8_ConvNd_8_0_split_0
I0224 07:18:15.791558  1142 net.cpp:455] ConvNd_8_ConvNd_8_0_split -> ConvNd_8_ConvNd_8_0_split_1
I0224 07:18:15.791563  1142 net.cpp:455] ConvNd_8_ConvNd_8_0_split -> ConvNd_8_ConvNd_8_0_split_2
I0224 07:18:15.791568  1142 net.cpp:455] ConvNd_8_ConvNd_8_0_split -> ConvNd_8_ConvNd_8_0_split_3
I0224 07:18:15.791574  1142 net.cpp:455] ConvNd_8_ConvNd_8_0_split -> ConvNd_8_ConvNd_8_0_split_4
I0224 07:18:15.791626  1142 net.cpp:190] Setting up ConvNd_8_ConvNd_8_0_split
I0224 07:18:15.791632  1142 net.cpp:197] Top shape: 1 12 64 128 (98304)
I0224 07:18:15.791636  1142 net.cpp:197] Top shape: 1 12 64 128 (98304)
I0224 07:18:15.791640  1142 net.cpp:197] Top shape: 1 12 64 128 (98304)
I0224 07:18:15.791651  1142 net.cpp:197] Top shape: 1 12 64 128 (98304)
I0224 07:18:15.791654  1142 net.cpp:197] Top shape: 1 12 64 128 (98304)
I0224 07:18:15.791658  1142 net.cpp:205] Memory required for data: 47579140
I0224 07:18:15.791661  1142 layer_factory.hpp:123] Creating layer ConvNd_9
I0224 07:18:15.791668  1142 net.cpp:140] Creating Layer ConvNd_9
I0224 07:18:15.791672  1142 net.cpp:481] ConvNd_9 <- ConvNd_8_ConvNd_8_0_split_0
I0224 07:18:15.791677  1142 net.cpp:455] ConvNd_9 -> ConvNd_9
I0224 07:18:15.791858  1142 net.cpp:190] Setting up ConvNd_9
I0224 07:18:15.791864  1142 net.cpp:197] Top shape: 1 16 64 128 (131072)
I0224 07:18:15.791869  1142 net.cpp:205] Memory required for data: 48103428
I0224 07:18:15.791874  1142 layer_factory.hpp:123] Creating layer ConvNd_10
I0224 07:18:15.791882  1142 net.cpp:140] Creating Layer ConvNd_10
I0224 07:18:15.791884  1142 net.cpp:481] ConvNd_10 <- ConvNd_8_ConvNd_8_0_split_1
I0224 07:18:15.791889  1142 net.cpp:455] ConvNd_10 -> ConvNd_10
I0224 07:18:15.792062  1142 net.cpp:190] Setting up ConvNd_10
I0224 07:18:15.792066  1142 net.cpp:197] Top shape: 1 12 64 128 (98304)
I0224 07:18:15.792071  1142 net.cpp:205] Memory required for data: 48496644
I0224 07:18:15.792076  1142 layer_factory.hpp:123] Creating layer ConvNd_10_ConvNd_10_0_split
I0224 07:18:15.792081  1142 net.cpp:140] Creating Layer ConvNd_10_ConvNd_10_0_split
I0224 07:18:15.792084  1142 net.cpp:481] ConvNd_10_ConvNd_10_0_split <- ConvNd_10
I0224 07:18:15.792089  1142 net.cpp:455] ConvNd_10_ConvNd_10_0_split -> ConvNd_10_ConvNd_10_0_split_0
I0224 07:18:15.792095  1142 net.cpp:455] ConvNd_10_ConvNd_10_0_split -> ConvNd_10_ConvNd_10_0_split_1
I0224 07:18:15.792121  1142 net.cpp:190] Setting up ConvNd_10_ConvNd_10_0_split
I0224 07:18:15.792126  1142 net.cpp:197] Top shape: 1 12 64 128 (98304)
I0224 07:18:15.792131  1142 net.cpp:197] Top shape: 1 12 64 128 (98304)
I0224 07:18:15.792135  1142 net.cpp:205] Memory required for data: 49283076
I0224 07:18:15.792138  1142 layer_factory.hpp:123] Creating layer ConvNd_11
I0224 07:18:15.792156  1142 net.cpp:140] Creating Layer ConvNd_11
I0224 07:18:15.792160  1142 net.cpp:481] ConvNd_11 <- ConvNd_8_ConvNd_8_0_split_2
I0224 07:18:15.792165  1142 net.cpp:455] ConvNd_11 -> ConvNd_11
I0224 07:18:15.792326  1142 net.cpp:190] Setting up ConvNd_11
I0224 07:18:15.792331  1142 net.cpp:197] Top shape: 1 12 64 128 (98304)
I0224 07:18:15.792336  1142 net.cpp:205] Memory required for data: 49676292
I0224 07:18:15.792340  1142 layer_factory.hpp:123] Creating layer Add_4
I0224 07:18:15.792346  1142 net.cpp:140] Creating Layer Add_4
I0224 07:18:15.792349  1142 net.cpp:481] Add_4 <- ConvNd_10_ConvNd_10_0_split_0
I0224 07:18:15.792353  1142 net.cpp:481] Add_4 <- ConvNd_11
I0224 07:18:15.792358  1142 net.cpp:455] Add_4 -> Add_4
I0224 07:18:15.792376  1142 net.cpp:190] Setting up Add_4
I0224 07:18:15.792380  1142 net.cpp:197] Top shape: 1 12 64 128 (98304)
I0224 07:18:15.792385  1142 net.cpp:205] Memory required for data: 50069508
I0224 07:18:15.792388  1142 layer_factory.hpp:123] Creating layer Add_4_Add_4_0_split
I0224 07:18:15.792393  1142 net.cpp:140] Creating Layer Add_4_Add_4_0_split
I0224 07:18:15.792397  1142 net.cpp:481] Add_4_Add_4_0_split <- Add_4
I0224 07:18:15.792402  1142 net.cpp:455] Add_4_Add_4_0_split -> Add_4_Add_4_0_split_0
I0224 07:18:15.792407  1142 net.cpp:455] Add_4_Add_4_0_split -> Add_4_Add_4_0_split_1
I0224 07:18:15.792433  1142 net.cpp:190] Setting up Add_4_Add_4_0_split
I0224 07:18:15.792438  1142 net.cpp:197] Top shape: 1 12 64 128 (98304)
I0224 07:18:15.792443  1142 net.cpp:197] Top shape: 1 12 64 128 (98304)
I0224 07:18:15.792446  1142 net.cpp:205] Memory required for data: 50855940
I0224 07:18:15.792450  1142 layer_factory.hpp:123] Creating layer ConvNd_12
I0224 07:18:15.792457  1142 net.cpp:140] Creating Layer ConvNd_12
I0224 07:18:15.792460  1142 net.cpp:481] ConvNd_12 <- ConvNd_8_ConvNd_8_0_split_3
I0224 07:18:15.792465  1142 net.cpp:455] ConvNd_12 -> ConvNd_12
I0224 07:18:15.792629  1142 net.cpp:190] Setting up ConvNd_12
I0224 07:18:15.792634  1142 net.cpp:197] Top shape: 1 12 64 128 (98304)
I0224 07:18:15.792639  1142 net.cpp:205] Memory required for data: 51249156
I0224 07:18:15.792644  1142 layer_factory.hpp:123] Creating layer Add_5
I0224 07:18:15.792649  1142 net.cpp:140] Creating Layer Add_5
I0224 07:18:15.792652  1142 net.cpp:481] Add_5 <- Add_4_Add_4_0_split_0
I0224 07:18:15.792656  1142 net.cpp:481] Add_5 <- ConvNd_12
I0224 07:18:15.792661  1142 net.cpp:455] Add_5 -> Add_5
I0224 07:18:15.792683  1142 net.cpp:190] Setting up Add_5
I0224 07:18:15.792688  1142 net.cpp:197] Top shape: 1 12 64 128 (98304)
I0224 07:18:15.792693  1142 net.cpp:205] Memory required for data: 51642372
I0224 07:18:15.792696  1142 layer_factory.hpp:123] Creating layer Add_5_Add_5_0_split
I0224 07:18:15.792701  1142 net.cpp:140] Creating Layer Add_5_Add_5_0_split
I0224 07:18:15.792706  1142 net.cpp:481] Add_5_Add_5_0_split <- Add_5
I0224 07:18:15.792709  1142 net.cpp:455] Add_5_Add_5_0_split -> Add_5_Add_5_0_split_0
I0224 07:18:15.792716  1142 net.cpp:455] Add_5_Add_5_0_split -> Add_5_Add_5_0_split_1
I0224 07:18:15.792740  1142 net.cpp:190] Setting up Add_5_Add_5_0_split
I0224 07:18:15.792745  1142 net.cpp:197] Top shape: 1 12 64 128 (98304)
I0224 07:18:15.792749  1142 net.cpp:197] Top shape: 1 12 64 128 (98304)
I0224 07:18:15.792753  1142 net.cpp:205] Memory required for data: 52428804
I0224 07:18:15.792757  1142 layer_factory.hpp:123] Creating layer ConvNd_13
I0224 07:18:15.792762  1142 net.cpp:140] Creating Layer ConvNd_13
I0224 07:18:15.792766  1142 net.cpp:481] ConvNd_13 <- ConvNd_8_ConvNd_8_0_split_4
I0224 07:18:15.792771  1142 net.cpp:455] ConvNd_13 -> ConvNd_13
I0224 07:18:15.792933  1142 net.cpp:190] Setting up ConvNd_13
I0224 07:18:15.792938  1142 net.cpp:197] Top shape: 1 12 64 128 (98304)
I0224 07:18:15.792943  1142 net.cpp:205] Memory required for data: 52822020
I0224 07:18:15.792948  1142 layer_factory.hpp:123] Creating layer Add_6
I0224 07:18:15.792953  1142 net.cpp:140] Creating Layer Add_6
I0224 07:18:15.792956  1142 net.cpp:481] Add_6 <- Add_5_Add_5_0_split_0
I0224 07:18:15.792960  1142 net.cpp:481] Add_6 <- ConvNd_13
I0224 07:18:15.792964  1142 net.cpp:455] Add_6 -> Add_6
I0224 07:18:15.792982  1142 net.cpp:190] Setting up Add_6
I0224 07:18:15.792987  1142 net.cpp:197] Top shape: 1 12 64 128 (98304)
I0224 07:18:15.792991  1142 net.cpp:205] Memory required for data: 53215236
I0224 07:18:15.792994  1142 layer_factory.hpp:123] Creating layer Concat_3
I0224 07:18:15.793000  1142 net.cpp:140] Creating Layer Concat_3
I0224 07:18:15.793004  1142 net.cpp:481] Concat_3 <- ConvNd_9
I0224 07:18:15.793007  1142 net.cpp:481] Concat_3 <- ConvNd_10_ConvNd_10_0_split_1
I0224 07:18:15.793011  1142 net.cpp:481] Concat_3 <- Add_4_Add_4_0_split_1
I0224 07:18:15.793015  1142 net.cpp:481] Concat_3 <- Add_5_Add_5_0_split_1
I0224 07:18:15.793018  1142 net.cpp:481] Concat_3 <- Add_6
I0224 07:18:15.793023  1142 net.cpp:455] Concat_3 -> Concat_3
I0224 07:18:15.793040  1142 net.cpp:190] Setting up Concat_3
I0224 07:18:15.793045  1142 net.cpp:197] Top shape: 1 64 64 128 (524288)
I0224 07:18:15.793049  1142 net.cpp:205] Memory required for data: 55312388
I0224 07:18:15.793052  1142 layer_factory.hpp:123] Creating layer Add_7
I0224 07:18:15.793057  1142 net.cpp:140] Creating Layer Add_7
I0224 07:18:15.793061  1142 net.cpp:481] Add_7 <- BatchNorm_3_Threshold_3_0_split_1
I0224 07:18:15.793064  1142 net.cpp:481] Add_7 <- Concat_3
I0224 07:18:15.793069  1142 net.cpp:455] Add_7 -> Add_7
I0224 07:18:15.793085  1142 net.cpp:190] Setting up Add_7
I0224 07:18:15.793089  1142 net.cpp:197] Top shape: 1 64 64 128 (524288)
I0224 07:18:15.793093  1142 net.cpp:205] Memory required for data: 57409540
I0224 07:18:15.793097  1142 layer_factory.hpp:123] Creating layer BatchNorm_4
I0224 07:18:15.793103  1142 net.cpp:140] Creating Layer BatchNorm_4
I0224 07:18:15.793107  1142 net.cpp:481] BatchNorm_4 <- Add_7
I0224 07:18:15.793112  1142 net.cpp:455] BatchNorm_4 -> BatchNorm_4
I0224 07:18:15.793661  1142 net.cpp:190] Setting up BatchNorm_4
I0224 07:18:15.793668  1142 net.cpp:197] Top shape: 1 64 64 128 (524288)
I0224 07:18:15.793674  1142 net.cpp:205] Memory required for data: 59506692
I0224 07:18:15.793685  1142 layer_factory.hpp:123] Creating layer Threshold_4
I0224 07:18:15.793700  1142 net.cpp:140] Creating Layer Threshold_4
I0224 07:18:15.793704  1142 net.cpp:481] Threshold_4 <- BatchNorm_4
I0224 07:18:15.793709  1142 net.cpp:442] Threshold_4 -> BatchNorm_4 (in-place)
I0224 07:18:15.793715  1142 net.cpp:190] Setting up Threshold_4
I0224 07:18:15.793718  1142 net.cpp:197] Top shape: 1 64 64 128 (524288)
I0224 07:18:15.793723  1142 net.cpp:205] Memory required for data: 61603844
I0224 07:18:15.793726  1142 layer_factory.hpp:123] Creating layer BatchNorm_4_Threshold_4_0_split
I0224 07:18:15.793731  1142 net.cpp:140] Creating Layer BatchNorm_4_Threshold_4_0_split
I0224 07:18:15.793735  1142 net.cpp:481] BatchNorm_4_Threshold_4_0_split <- BatchNorm_4
I0224 07:18:15.793740  1142 net.cpp:455] BatchNorm_4_Threshold_4_0_split -> BatchNorm_4_Threshold_4_0_split_0
I0224 07:18:15.793745  1142 net.cpp:455] BatchNorm_4_Threshold_4_0_split -> BatchNorm_4_Threshold_4_0_split_1
I0224 07:18:15.793772  1142 net.cpp:190] Setting up BatchNorm_4_Threshold_4_0_split
I0224 07:18:15.793777  1142 net.cpp:197] Top shape: 1 64 64 128 (524288)
I0224 07:18:15.793782  1142 net.cpp:197] Top shape: 1 64 64 128 (524288)
I0224 07:18:15.793787  1142 net.cpp:205] Memory required for data: 65798148
I0224 07:18:15.793789  1142 layer_factory.hpp:123] Creating layer ConvNd_14
I0224 07:18:15.793797  1142 net.cpp:140] Creating Layer ConvNd_14
I0224 07:18:15.793800  1142 net.cpp:481] ConvNd_14 <- BatchNorm_4_Threshold_4_0_split_0
I0224 07:18:15.793805  1142 net.cpp:455] ConvNd_14 -> ConvNd_14
I0224 07:18:15.793965  1142 net.cpp:190] Setting up ConvNd_14
I0224 07:18:15.793972  1142 net.cpp:197] Top shape: 1 12 64 128 (98304)
I0224 07:18:15.793977  1142 net.cpp:205] Memory required for data: 66191364
I0224 07:18:15.793982  1142 layer_factory.hpp:123] Creating layer ConvNd_14_ConvNd_14_0_split
I0224 07:18:15.793987  1142 net.cpp:140] Creating Layer ConvNd_14_ConvNd_14_0_split
I0224 07:18:15.793992  1142 net.cpp:481] ConvNd_14_ConvNd_14_0_split <- ConvNd_14
I0224 07:18:15.793996  1142 net.cpp:455] ConvNd_14_ConvNd_14_0_split -> ConvNd_14_ConvNd_14_0_split_0
I0224 07:18:15.794003  1142 net.cpp:455] ConvNd_14_ConvNd_14_0_split -> ConvNd_14_ConvNd_14_0_split_1
I0224 07:18:15.794010  1142 net.cpp:455] ConvNd_14_ConvNd_14_0_split -> ConvNd_14_ConvNd_14_0_split_2
I0224 07:18:15.794015  1142 net.cpp:455] ConvNd_14_ConvNd_14_0_split -> ConvNd_14_ConvNd_14_0_split_3
I0224 07:18:15.794020  1142 net.cpp:455] ConvNd_14_ConvNd_14_0_split -> ConvNd_14_ConvNd_14_0_split_4
I0224 07:18:15.794076  1142 net.cpp:190] Setting up ConvNd_14_ConvNd_14_0_split
I0224 07:18:15.794081  1142 net.cpp:197] Top shape: 1 12 64 128 (98304)
I0224 07:18:15.794086  1142 net.cpp:197] Top shape: 1 12 64 128 (98304)
I0224 07:18:15.794090  1142 net.cpp:197] Top shape: 1 12 64 128 (98304)
I0224 07:18:15.794095  1142 net.cpp:197] Top shape: 1 12 64 128 (98304)
I0224 07:18:15.794098  1142 net.cpp:197] Top shape: 1 12 64 128 (98304)
I0224 07:18:15.794102  1142 net.cpp:205] Memory required for data: 68157444
I0224 07:18:15.794106  1142 layer_factory.hpp:123] Creating layer ConvNd_15
I0224 07:18:15.794112  1142 net.cpp:140] Creating Layer ConvNd_15
I0224 07:18:15.794116  1142 net.cpp:481] ConvNd_15 <- ConvNd_14_ConvNd_14_0_split_0
I0224 07:18:15.794121  1142 net.cpp:455] ConvNd_15 -> ConvNd_15
I0224 07:18:15.794296  1142 net.cpp:190] Setting up ConvNd_15
I0224 07:18:15.794301  1142 net.cpp:197] Top shape: 1 16 64 128 (131072)
I0224 07:18:15.794306  1142 net.cpp:205] Memory required for data: 68681732
I0224 07:18:15.794312  1142 layer_factory.hpp:123] Creating layer ConvNd_16
I0224 07:18:15.794317  1142 net.cpp:140] Creating Layer ConvNd_16
I0224 07:18:15.794322  1142 net.cpp:481] ConvNd_16 <- ConvNd_14_ConvNd_14_0_split_1
I0224 07:18:15.794327  1142 net.cpp:455] ConvNd_16 -> ConvNd_16
I0224 07:18:15.794492  1142 net.cpp:190] Setting up ConvNd_16
I0224 07:18:15.794497  1142 net.cpp:197] Top shape: 1 12 64 128 (98304)
I0224 07:18:15.794502  1142 net.cpp:205] Memory required for data: 69074948
I0224 07:18:15.794507  1142 layer_factory.hpp:123] Creating layer ConvNd_16_ConvNd_16_0_split
I0224 07:18:15.794512  1142 net.cpp:140] Creating Layer ConvNd_16_ConvNd_16_0_split
I0224 07:18:15.794515  1142 net.cpp:481] ConvNd_16_ConvNd_16_0_split <- ConvNd_16
I0224 07:18:15.794520  1142 net.cpp:455] ConvNd_16_ConvNd_16_0_split -> ConvNd_16_ConvNd_16_0_split_0
I0224 07:18:15.794528  1142 net.cpp:455] ConvNd_16_ConvNd_16_0_split -> ConvNd_16_ConvNd_16_0_split_1
I0224 07:18:15.794553  1142 net.cpp:190] Setting up ConvNd_16_ConvNd_16_0_split
I0224 07:18:15.794559  1142 net.cpp:197] Top shape: 1 12 64 128 (98304)
I0224 07:18:15.794564  1142 net.cpp:197] Top shape: 1 12 64 128 (98304)
I0224 07:18:15.794567  1142 net.cpp:205] Memory required for data: 69861380
I0224 07:18:15.794570  1142 layer_factory.hpp:123] Creating layer ConvNd_17
I0224 07:18:15.794576  1142 net.cpp:140] Creating Layer ConvNd_17
I0224 07:18:15.794580  1142 net.cpp:481] ConvNd_17 <- ConvNd_14_ConvNd_14_0_split_2
I0224 07:18:15.794585  1142 net.cpp:455] ConvNd_17 -> ConvNd_17
I0224 07:18:15.794751  1142 net.cpp:190] Setting up ConvNd_17
I0224 07:18:15.794756  1142 net.cpp:197] Top shape: 1 12 64 128 (98304)
I0224 07:18:15.794761  1142 net.cpp:205] Memory required for data: 70254596
I0224 07:18:15.794765  1142 layer_factory.hpp:123] Creating layer Add_8
I0224 07:18:15.794770  1142 net.cpp:140] Creating Layer Add_8
I0224 07:18:15.794775  1142 net.cpp:481] Add_8 <- ConvNd_16_ConvNd_16_0_split_0
I0224 07:18:15.794778  1142 net.cpp:481] Add_8 <- ConvNd_17
I0224 07:18:15.794783  1142 net.cpp:455] Add_8 -> Add_8
I0224 07:18:15.794800  1142 net.cpp:190] Setting up Add_8
I0224 07:18:15.794806  1142 net.cpp:197] Top shape: 1 12 64 128 (98304)
I0224 07:18:15.794811  1142 net.cpp:205] Memory required for data: 70647812
I0224 07:18:15.794813  1142 layer_factory.hpp:123] Creating layer Add_8_Add_8_0_split
I0224 07:18:15.794818  1142 net.cpp:140] Creating Layer Add_8_Add_8_0_split
I0224 07:18:15.794822  1142 net.cpp:481] Add_8_Add_8_0_split <- Add_8
I0224 07:18:15.794826  1142 net.cpp:455] Add_8_Add_8_0_split -> Add_8_Add_8_0_split_0
I0224 07:18:15.794832  1142 net.cpp:455] Add_8_Add_8_0_split -> Add_8_Add_8_0_split_1
I0224 07:18:15.794857  1142 net.cpp:190] Setting up Add_8_Add_8_0_split
I0224 07:18:15.794862  1142 net.cpp:197] Top shape: 1 12 64 128 (98304)
I0224 07:18:15.794867  1142 net.cpp:197] Top shape: 1 12 64 128 (98304)
I0224 07:18:15.794870  1142 net.cpp:205] Memory required for data: 71434244
I0224 07:18:15.794874  1142 layer_factory.hpp:123] Creating layer ConvNd_18
I0224 07:18:15.794880  1142 net.cpp:140] Creating Layer ConvNd_18
I0224 07:18:15.794883  1142 net.cpp:481] ConvNd_18 <- ConvNd_14_ConvNd_14_0_split_3
I0224 07:18:15.794888  1142 net.cpp:455] ConvNd_18 -> ConvNd_18
I0224 07:18:15.795051  1142 net.cpp:190] Setting up ConvNd_18
I0224 07:18:15.795056  1142 net.cpp:197] Top shape: 1 12 64 128 (98304)
I0224 07:18:15.795060  1142 net.cpp:205] Memory required for data: 71827460
I0224 07:18:15.795065  1142 layer_factory.hpp:123] Creating layer Add_9
I0224 07:18:15.795070  1142 net.cpp:140] Creating Layer Add_9
I0224 07:18:15.795073  1142 net.cpp:481] Add_9 <- Add_8_Add_8_0_split_0
I0224 07:18:15.795078  1142 net.cpp:481] Add_9 <- ConvNd_18
I0224 07:18:15.795083  1142 net.cpp:455] Add_9 -> Add_9
I0224 07:18:15.795099  1142 net.cpp:190] Setting up Add_9
I0224 07:18:15.795104  1142 net.cpp:197] Top shape: 1 12 64 128 (98304)
I0224 07:18:15.795109  1142 net.cpp:205] Memory required for data: 72220676
I0224 07:18:15.795112  1142 layer_factory.hpp:123] Creating layer Add_9_Add_9_0_split
I0224 07:18:15.795116  1142 net.cpp:140] Creating Layer Add_9_Add_9_0_split
I0224 07:18:15.795120  1142 net.cpp:481] Add_9_Add_9_0_split <- Add_9
I0224 07:18:15.795125  1142 net.cpp:455] Add_9_Add_9_0_split -> Add_9_Add_9_0_split_0
I0224 07:18:15.795130  1142 net.cpp:455] Add_9_Add_9_0_split -> Add_9_Add_9_0_split_1
I0224 07:18:15.795156  1142 net.cpp:190] Setting up Add_9_Add_9_0_split
I0224 07:18:15.795161  1142 net.cpp:197] Top shape: 1 12 64 128 (98304)
I0224 07:18:15.795166  1142 net.cpp:197] Top shape: 1 12 64 128 (98304)
I0224 07:18:15.795169  1142 net.cpp:205] Memory required for data: 73007108
I0224 07:18:15.795172  1142 layer_factory.hpp:123] Creating layer ConvNd_19
I0224 07:18:15.795179  1142 net.cpp:140] Creating Layer ConvNd_19
I0224 07:18:15.795183  1142 net.cpp:481] ConvNd_19 <- ConvNd_14_ConvNd_14_0_split_4
I0224 07:18:15.795187  1142 net.cpp:455] ConvNd_19 -> ConvNd_19
I0224 07:18:15.795349  1142 net.cpp:190] Setting up ConvNd_19
I0224 07:18:15.795356  1142 net.cpp:197] Top shape: 1 12 64 128 (98304)
I0224 07:18:15.795359  1142 net.cpp:205] Memory required for data: 73400324
I0224 07:18:15.795364  1142 layer_factory.hpp:123] Creating layer Add_10
I0224 07:18:15.795369  1142 net.cpp:140] Creating Layer Add_10
I0224 07:18:15.795373  1142 net.cpp:481] Add_10 <- Add_9_Add_9_0_split_0
I0224 07:18:15.795377  1142 net.cpp:481] Add_10 <- ConvNd_19
I0224 07:18:15.795382  1142 net.cpp:455] Add_10 -> Add_10
I0224 07:18:15.795398  1142 net.cpp:190] Setting up Add_10
I0224 07:18:15.795403  1142 net.cpp:197] Top shape: 1 12 64 128 (98304)
I0224 07:18:15.795408  1142 net.cpp:205] Memory required for data: 73793540
I0224 07:18:15.795411  1142 layer_factory.hpp:123] Creating layer Concat_4
I0224 07:18:15.795416  1142 net.cpp:140] Creating Layer Concat_4
I0224 07:18:15.795420  1142 net.cpp:481] Concat_4 <- ConvNd_15
I0224 07:18:15.795424  1142 net.cpp:481] Concat_4 <- ConvNd_16_ConvNd_16_0_split_1
I0224 07:18:15.795428  1142 net.cpp:481] Concat_4 <- Add_8_Add_8_0_split_1
I0224 07:18:15.795431  1142 net.cpp:481] Concat_4 <- Add_9_Add_9_0_split_1
I0224 07:18:15.795434  1142 net.cpp:481] Concat_4 <- Add_10
I0224 07:18:15.795439  1142 net.cpp:455] Concat_4 -> Concat_4
I0224 07:18:15.795456  1142 net.cpp:190] Setting up Concat_4
I0224 07:18:15.795464  1142 net.cpp:197] Top shape: 1 64 64 128 (524288)
I0224 07:18:15.795469  1142 net.cpp:205] Memory required for data: 75890692
I0224 07:18:15.795471  1142 layer_factory.hpp:123] Creating layer Add_11
I0224 07:18:15.795476  1142 net.cpp:140] Creating Layer Add_11
I0224 07:18:15.795480  1142 net.cpp:481] Add_11 <- BatchNorm_4_Threshold_4_0_split_1
I0224 07:18:15.795485  1142 net.cpp:481] Add_11 <- Concat_4
I0224 07:18:15.795488  1142 net.cpp:455] Add_11 -> Add_11
I0224 07:18:15.795505  1142 net.cpp:190] Setting up Add_11
I0224 07:18:15.795508  1142 net.cpp:197] Top shape: 1 64 64 128 (524288)
I0224 07:18:15.795512  1142 net.cpp:205] Memory required for data: 77987844
I0224 07:18:15.795516  1142 layer_factory.hpp:123] Creating layer BatchNorm_5
I0224 07:18:15.795521  1142 net.cpp:140] Creating Layer BatchNorm_5
I0224 07:18:15.795526  1142 net.cpp:481] BatchNorm_5 <- Add_11
I0224 07:18:15.795531  1142 net.cpp:455] BatchNorm_5 -> BatchNorm_5
I0224 07:18:15.796080  1142 net.cpp:190] Setting up BatchNorm_5
I0224 07:18:15.796087  1142 net.cpp:197] Top shape: 1 64 64 128 (524288)
I0224 07:18:15.796092  1142 net.cpp:205] Memory required for data: 80084996
I0224 07:18:15.796100  1142 layer_factory.hpp:123] Creating layer Threshold_5
I0224 07:18:15.796105  1142 net.cpp:140] Creating Layer Threshold_5
I0224 07:18:15.796109  1142 net.cpp:481] Threshold_5 <- BatchNorm_5
I0224 07:18:15.796113  1142 net.cpp:442] Threshold_5 -> BatchNorm_5 (in-place)
I0224 07:18:15.796119  1142 net.cpp:190] Setting up Threshold_5
I0224 07:18:15.796123  1142 net.cpp:197] Top shape: 1 64 64 128 (524288)
I0224 07:18:15.796126  1142 net.cpp:205] Memory required for data: 82182148
I0224 07:18:15.796129  1142 layer_factory.hpp:123] Creating layer AvgPool2d_2
I0224 07:18:15.796135  1142 net.cpp:140] Creating Layer AvgPool2d_2
I0224 07:18:15.796139  1142 net.cpp:481] AvgPool2d_2 <- data_data_0_split_2
I0224 07:18:15.796144  1142 net.cpp:455] AvgPool2d_2 -> AvgPool2d_2
I0224 07:18:15.796162  1142 net.cpp:190] Setting up AvgPool2d_2
I0224 07:18:15.796169  1142 net.cpp:197] Top shape: 1 3 128 256 (98304)
I0224 07:18:15.796173  1142 net.cpp:205] Memory required for data: 82575364
I0224 07:18:15.796176  1142 layer_factory.hpp:123] Creating layer AvgPool2d_3
I0224 07:18:15.796180  1142 net.cpp:140] Creating Layer AvgPool2d_3
I0224 07:18:15.796185  1142 net.cpp:481] AvgPool2d_3 <- AvgPool2d_2
I0224 07:18:15.796190  1142 net.cpp:455] AvgPool2d_3 -> AvgPool2d_3
I0224 07:18:15.796206  1142 net.cpp:190] Setting up AvgPool2d_3
I0224 07:18:15.796211  1142 net.cpp:197] Top shape: 1 3 64 128 (24576)
I0224 07:18:15.796216  1142 net.cpp:205] Memory required for data: 82673668
I0224 07:18:15.796219  1142 layer_factory.hpp:123] Creating layer Concat_5
I0224 07:18:15.796226  1142 net.cpp:140] Creating Layer Concat_5
I0224 07:18:15.796229  1142 net.cpp:481] Concat_5 <- BatchNorm_5
I0224 07:18:15.796233  1142 net.cpp:481] Concat_5 <- BatchNorm_3_Threshold_3_0_split_2
I0224 07:18:15.796237  1142 net.cpp:481] Concat_5 <- AvgPool2d_3
I0224 07:18:15.796241  1142 net.cpp:455] Concat_5 -> Concat_5
I0224 07:18:15.796259  1142 net.cpp:190] Setting up Concat_5
I0224 07:18:15.796264  1142 net.cpp:197] Top shape: 1 131 64 128 (1073152)
I0224 07:18:15.796269  1142 net.cpp:205] Memory required for data: 86966276
I0224 07:18:15.796272  1142 layer_factory.hpp:123] Creating layer BatchNorm_6
I0224 07:18:15.796279  1142 net.cpp:140] Creating Layer BatchNorm_6
I0224 07:18:15.796283  1142 net.cpp:481] BatchNorm_6 <- Concat_5
I0224 07:18:15.796288  1142 net.cpp:455] BatchNorm_6 -> BatchNorm_6
I0224 07:18:15.796834  1142 net.cpp:190] Setting up BatchNorm_6
I0224 07:18:15.796841  1142 net.cpp:197] Top shape: 1 131 64 128 (1073152)
I0224 07:18:15.796846  1142 net.cpp:205] Memory required for data: 91258884
I0224 07:18:15.796854  1142 layer_factory.hpp:123] Creating layer Threshold_6
I0224 07:18:15.796859  1142 net.cpp:140] Creating Layer Threshold_6
I0224 07:18:15.796864  1142 net.cpp:481] Threshold_6 <- BatchNorm_6
I0224 07:18:15.796867  1142 net.cpp:442] Threshold_6 -> BatchNorm_6 (in-place)
I0224 07:18:15.796874  1142 net.cpp:190] Setting up Threshold_6
I0224 07:18:15.796876  1142 net.cpp:197] Top shape: 1 131 64 128 (1073152)
I0224 07:18:15.796880  1142 net.cpp:205] Memory required for data: 95551492
I0224 07:18:15.796883  1142 layer_factory.hpp:123] Creating layer BatchNorm_6_Threshold_6_0_split
I0224 07:18:15.796888  1142 net.cpp:140] Creating Layer BatchNorm_6_Threshold_6_0_split
I0224 07:18:15.796892  1142 net.cpp:481] BatchNorm_6_Threshold_6_0_split <- BatchNorm_6
I0224 07:18:15.796896  1142 net.cpp:455] BatchNorm_6_Threshold_6_0_split -> BatchNorm_6_Threshold_6_0_split_0
I0224 07:18:15.796902  1142 net.cpp:455] BatchNorm_6_Threshold_6_0_split -> BatchNorm_6_Threshold_6_0_split_1
I0224 07:18:15.796928  1142 net.cpp:190] Setting up BatchNorm_6_Threshold_6_0_split
I0224 07:18:15.796933  1142 net.cpp:197] Top shape: 1 131 64 128 (1073152)
I0224 07:18:15.796938  1142 net.cpp:197] Top shape: 1 131 64 128 (1073152)
I0224 07:18:15.796942  1142 net.cpp:205] Memory required for data: 104136708
I0224 07:18:15.796945  1142 layer_factory.hpp:123] Creating layer ConvNd_20
I0224 07:18:15.796952  1142 net.cpp:140] Creating Layer ConvNd_20
I0224 07:18:15.796957  1142 net.cpp:481] ConvNd_20 <- BatchNorm_6_Threshold_6_0_split_0
I0224 07:18:15.796962  1142 net.cpp:455] ConvNd_20 -> ConvNd_20
I0224 07:18:15.797147  1142 net.cpp:190] Setting up ConvNd_20
I0224 07:18:15.797153  1142 net.cpp:197] Top shape: 1 19 64 128 (155648)
I0224 07:18:15.797158  1142 net.cpp:205] Memory required for data: 104759300
I0224 07:18:15.797163  1142 layer_factory.hpp:123] Creating layer ConvNd_21
I0224 07:18:15.797170  1142 net.cpp:140] Creating Layer ConvNd_21
I0224 07:18:15.797174  1142 net.cpp:481] ConvNd_21 <- BatchNorm_6_Threshold_6_0_split_1
I0224 07:18:15.797178  1142 net.cpp:455] ConvNd_21 -> ConvNd_21
I0224 07:18:15.797629  1142 net.cpp:190] Setting up ConvNd_21
I0224 07:18:15.797637  1142 net.cpp:197] Top shape: 1 25 32 64 (51200)
I0224 07:18:15.797642  1142 net.cpp:205] Memory required for data: 104964100
I0224 07:18:15.797647  1142 layer_factory.hpp:123] Creating layer ConvNd_21_ConvNd_21_0_split
I0224 07:18:15.797653  1142 net.cpp:140] Creating Layer ConvNd_21_ConvNd_21_0_split
I0224 07:18:15.797657  1142 net.cpp:481] ConvNd_21_ConvNd_21_0_split <- ConvNd_21
I0224 07:18:15.797662  1142 net.cpp:455] ConvNd_21_ConvNd_21_0_split -> ConvNd_21_ConvNd_21_0_split_0
I0224 07:18:15.797668  1142 net.cpp:455] ConvNd_21_ConvNd_21_0_split -> ConvNd_21_ConvNd_21_0_split_1
I0224 07:18:15.797674  1142 net.cpp:455] ConvNd_21_ConvNd_21_0_split -> ConvNd_21_ConvNd_21_0_split_2
I0224 07:18:15.797679  1142 net.cpp:455] ConvNd_21_ConvNd_21_0_split -> ConvNd_21_ConvNd_21_0_split_3
I0224 07:18:15.797684  1142 net.cpp:455] ConvNd_21_ConvNd_21_0_split -> ConvNd_21_ConvNd_21_0_split_4
I0224 07:18:15.797741  1142 net.cpp:190] Setting up ConvNd_21_ConvNd_21_0_split
I0224 07:18:15.797746  1142 net.cpp:197] Top shape: 1 25 32 64 (51200)
I0224 07:18:15.797751  1142 net.cpp:197] Top shape: 1 25 32 64 (51200)
I0224 07:18:15.797755  1142 net.cpp:197] Top shape: 1 25 32 64 (51200)
I0224 07:18:15.797760  1142 net.cpp:197] Top shape: 1 25 32 64 (51200)
I0224 07:18:15.797765  1142 net.cpp:197] Top shape: 1 25 32 64 (51200)
I0224 07:18:15.797768  1142 net.cpp:205] Memory required for data: 105988100
I0224 07:18:15.797771  1142 layer_factory.hpp:123] Creating layer ConvNd_22
I0224 07:18:15.797778  1142 net.cpp:140] Creating Layer ConvNd_22
I0224 07:18:15.797782  1142 net.cpp:481] ConvNd_22 <- ConvNd_21_ConvNd_21_0_split_0
I0224 07:18:15.797787  1142 net.cpp:455] ConvNd_22 -> ConvNd_22
I0224 07:18:15.798018  1142 net.cpp:190] Setting up ConvNd_22
I0224 07:18:15.798024  1142 net.cpp:197] Top shape: 1 28 32 64 (57344)
I0224 07:18:15.798029  1142 net.cpp:205] Memory required for data: 106217476
I0224 07:18:15.798034  1142 layer_factory.hpp:123] Creating layer ConvNd_23
I0224 07:18:15.798041  1142 net.cpp:140] Creating Layer ConvNd_23
I0224 07:18:15.798045  1142 net.cpp:481] ConvNd_23 <- ConvNd_21_ConvNd_21_0_split_1
I0224 07:18:15.798050  1142 net.cpp:455] ConvNd_23 -> ConvNd_23
I0224 07:18:15.798269  1142 net.cpp:190] Setting up ConvNd_23
I0224 07:18:15.798274  1142 net.cpp:197] Top shape: 1 25 32 64 (51200)
I0224 07:18:15.798279  1142 net.cpp:205] Memory required for data: 106422276
I0224 07:18:15.798283  1142 layer_factory.hpp:123] Creating layer ConvNd_23_ConvNd_23_0_split
I0224 07:18:15.798288  1142 net.cpp:140] Creating Layer ConvNd_23_ConvNd_23_0_split
I0224 07:18:15.798291  1142 net.cpp:481] ConvNd_23_ConvNd_23_0_split <- ConvNd_23
I0224 07:18:15.798296  1142 net.cpp:455] ConvNd_23_ConvNd_23_0_split -> ConvNd_23_ConvNd_23_0_split_0
I0224 07:18:15.798302  1142 net.cpp:455] ConvNd_23_ConvNd_23_0_split -> ConvNd_23_ConvNd_23_0_split_1
I0224 07:18:15.798329  1142 net.cpp:190] Setting up ConvNd_23_ConvNd_23_0_split
I0224 07:18:15.798334  1142 net.cpp:197] Top shape: 1 25 32 64 (51200)
I0224 07:18:15.798339  1142 net.cpp:197] Top shape: 1 25 32 64 (51200)
I0224 07:18:15.798343  1142 net.cpp:205] Memory required for data: 106831876
I0224 07:18:15.798346  1142 layer_factory.hpp:123] Creating layer ConvNd_24
I0224 07:18:15.798353  1142 net.cpp:140] Creating Layer ConvNd_24
I0224 07:18:15.798357  1142 net.cpp:481] ConvNd_24 <- ConvNd_21_ConvNd_21_0_split_2
I0224 07:18:15.798362  1142 net.cpp:455] ConvNd_24 -> ConvNd_24
I0224 07:18:15.798578  1142 net.cpp:190] Setting up ConvNd_24
I0224 07:18:15.798583  1142 net.cpp:197] Top shape: 1 25 32 64 (51200)
I0224 07:18:15.798588  1142 net.cpp:205] Memory required for data: 107036676
I0224 07:18:15.798593  1142 layer_factory.hpp:123] Creating layer Add_12
I0224 07:18:15.798597  1142 net.cpp:140] Creating Layer Add_12
I0224 07:18:15.798601  1142 net.cpp:481] Add_12 <- ConvNd_23_ConvNd_23_0_split_0
I0224 07:18:15.798605  1142 net.cpp:481] Add_12 <- ConvNd_24
I0224 07:18:15.798610  1142 net.cpp:455] Add_12 -> Add_12
I0224 07:18:15.798629  1142 net.cpp:190] Setting up Add_12
I0224 07:18:15.798633  1142 net.cpp:197] Top shape: 1 25 32 64 (51200)
I0224 07:18:15.798638  1142 net.cpp:205] Memory required for data: 107241476
I0224 07:18:15.798641  1142 layer_factory.hpp:123] Creating layer Add_12_Add_12_0_split
I0224 07:18:15.798646  1142 net.cpp:140] Creating Layer Add_12_Add_12_0_split
I0224 07:18:15.798650  1142 net.cpp:481] Add_12_Add_12_0_split <- Add_12
I0224 07:18:15.798655  1142 net.cpp:455] Add_12_Add_12_0_split -> Add_12_Add_12_0_split_0
I0224 07:18:15.798660  1142 net.cpp:455] Add_12_Add_12_0_split -> Add_12_Add_12_0_split_1
I0224 07:18:15.798688  1142 net.cpp:190] Setting up Add_12_Add_12_0_split
I0224 07:18:15.798693  1142 net.cpp:197] Top shape: 1 25 32 64 (51200)
I0224 07:18:15.798697  1142 net.cpp:197] Top shape: 1 25 32 64 (51200)
I0224 07:18:15.798702  1142 net.cpp:205] Memory required for data: 107651076
I0224 07:18:15.798705  1142 layer_factory.hpp:123] Creating layer ConvNd_25
I0224 07:18:15.798712  1142 net.cpp:140] Creating Layer ConvNd_25
I0224 07:18:15.798714  1142 net.cpp:481] ConvNd_25 <- ConvNd_21_ConvNd_21_0_split_3
I0224 07:18:15.798719  1142 net.cpp:455] ConvNd_25 -> ConvNd_25
I0224 07:18:15.798933  1142 net.cpp:190] Setting up ConvNd_25
I0224 07:18:15.798939  1142 net.cpp:197] Top shape: 1 25 32 64 (51200)
I0224 07:18:15.798943  1142 net.cpp:205] Memory required for data: 107855876
I0224 07:18:15.798949  1142 layer_factory.hpp:123] Creating layer Add_13
I0224 07:18:15.798954  1142 net.cpp:140] Creating Layer Add_13
I0224 07:18:15.798956  1142 net.cpp:481] Add_13 <- Add_12_Add_12_0_split_0
I0224 07:18:15.798961  1142 net.cpp:481] Add_13 <- ConvNd_25
I0224 07:18:15.798965  1142 net.cpp:455] Add_13 -> Add_13
I0224 07:18:15.798983  1142 net.cpp:190] Setting up Add_13
I0224 07:18:15.798988  1142 net.cpp:197] Top shape: 1 25 32 64 (51200)
I0224 07:18:15.798993  1142 net.cpp:205] Memory required for data: 108060676
I0224 07:18:15.798996  1142 layer_factory.hpp:123] Creating layer Add_13_Add_13_0_split
I0224 07:18:15.799001  1142 net.cpp:140] Creating Layer Add_13_Add_13_0_split
I0224 07:18:15.799005  1142 net.cpp:481] Add_13_Add_13_0_split <- Add_13
I0224 07:18:15.799010  1142 net.cpp:455] Add_13_Add_13_0_split -> Add_13_Add_13_0_split_0
I0224 07:18:15.799015  1142 net.cpp:455] Add_13_Add_13_0_split -> Add_13_Add_13_0_split_1
I0224 07:18:15.799041  1142 net.cpp:190] Setting up Add_13_Add_13_0_split
I0224 07:18:15.799046  1142 net.cpp:197] Top shape: 1 25 32 64 (51200)
I0224 07:18:15.799051  1142 net.cpp:197] Top shape: 1 25 32 64 (51200)
I0224 07:18:15.799054  1142 net.cpp:205] Memory required for data: 108470276
I0224 07:18:15.799058  1142 layer_factory.hpp:123] Creating layer ConvNd_26
I0224 07:18:15.799064  1142 net.cpp:140] Creating Layer ConvNd_26
I0224 07:18:15.799067  1142 net.cpp:481] ConvNd_26 <- ConvNd_21_ConvNd_21_0_split_4
I0224 07:18:15.799072  1142 net.cpp:455] ConvNd_26 -> ConvNd_26
I0224 07:18:15.799290  1142 net.cpp:190] Setting up ConvNd_26
I0224 07:18:15.799296  1142 net.cpp:197] Top shape: 1 25 32 64 (51200)
I0224 07:18:15.799300  1142 net.cpp:205] Memory required for data: 108675076
I0224 07:18:15.799305  1142 layer_factory.hpp:123] Creating layer Add_14
I0224 07:18:15.799310  1142 net.cpp:140] Creating Layer Add_14
I0224 07:18:15.799314  1142 net.cpp:481] Add_14 <- Add_13_Add_13_0_split_0
I0224 07:18:15.799319  1142 net.cpp:481] Add_14 <- ConvNd_26
I0224 07:18:15.799322  1142 net.cpp:455] Add_14 -> Add_14
I0224 07:18:15.799340  1142 net.cpp:190] Setting up Add_14
I0224 07:18:15.799345  1142 net.cpp:197] Top shape: 1 25 32 64 (51200)
I0224 07:18:15.799350  1142 net.cpp:205] Memory required for data: 108879876
I0224 07:18:15.799353  1142 layer_factory.hpp:123] Creating layer Concat_6
I0224 07:18:15.799358  1142 net.cpp:140] Creating Layer Concat_6
I0224 07:18:15.799361  1142 net.cpp:481] Concat_6 <- ConvNd_22
I0224 07:18:15.799365  1142 net.cpp:481] Concat_6 <- ConvNd_23_ConvNd_23_0_split_1
I0224 07:18:15.799369  1142 net.cpp:481] Concat_6 <- Add_12_Add_12_0_split_1
I0224 07:18:15.799372  1142 net.cpp:481] Concat_6 <- Add_13_Add_13_0_split_1
I0224 07:18:15.799376  1142 net.cpp:481] Concat_6 <- Add_14
I0224 07:18:15.799381  1142 net.cpp:455] Concat_6 -> Concat_6
I0224 07:18:15.799398  1142 net.cpp:190] Setting up Concat_6
I0224 07:18:15.799401  1142 net.cpp:197] Top shape: 1 128 32 64 (262144)
I0224 07:18:15.799407  1142 net.cpp:205] Memory required for data: 109928452
I0224 07:18:15.799409  1142 layer_factory.hpp:123] Creating layer BatchNorm_7
I0224 07:18:15.799415  1142 net.cpp:140] Creating Layer BatchNorm_7
I0224 07:18:15.799419  1142 net.cpp:481] BatchNorm_7 <- Concat_6
I0224 07:18:15.799424  1142 net.cpp:455] BatchNorm_7 -> BatchNorm_7
I0224 07:18:15.799907  1142 net.cpp:190] Setting up BatchNorm_7
I0224 07:18:15.799914  1142 net.cpp:197] Top shape: 1 128 32 64 (262144)
I0224 07:18:15.799918  1142 net.cpp:205] Memory required for data: 110977028
I0224 07:18:15.799926  1142 layer_factory.hpp:123] Creating layer Threshold_7
I0224 07:18:15.799932  1142 net.cpp:140] Creating Layer Threshold_7
I0224 07:18:15.799935  1142 net.cpp:481] Threshold_7 <- BatchNorm_7
I0224 07:18:15.799940  1142 net.cpp:442] Threshold_7 -> BatchNorm_7 (in-place)
I0224 07:18:15.799945  1142 net.cpp:190] Setting up Threshold_7
I0224 07:18:15.799948  1142 net.cpp:197] Top shape: 1 128 32 64 (262144)
I0224 07:18:15.799952  1142 net.cpp:205] Memory required for data: 112025604
I0224 07:18:15.799957  1142 layer_factory.hpp:123] Creating layer BatchNorm_7_Threshold_7_0_split
I0224 07:18:15.799960  1142 net.cpp:140] Creating Layer BatchNorm_7_Threshold_7_0_split
I0224 07:18:15.799964  1142 net.cpp:481] BatchNorm_7_Threshold_7_0_split <- BatchNorm_7
I0224 07:18:15.799969  1142 net.cpp:455] BatchNorm_7_Threshold_7_0_split -> BatchNorm_7_Threshold_7_0_split_0
I0224 07:18:15.799974  1142 net.cpp:455] BatchNorm_7_Threshold_7_0_split -> BatchNorm_7_Threshold_7_0_split_1
I0224 07:18:15.799980  1142 net.cpp:455] BatchNorm_7_Threshold_7_0_split -> BatchNorm_7_Threshold_7_0_split_2
I0224 07:18:15.800017  1142 net.cpp:190] Setting up BatchNorm_7_Threshold_7_0_split
I0224 07:18:15.800024  1142 net.cpp:197] Top shape: 1 128 32 64 (262144)
I0224 07:18:15.800029  1142 net.cpp:197] Top shape: 1 128 32 64 (262144)
I0224 07:18:15.800032  1142 net.cpp:197] Top shape: 1 128 32 64 (262144)
I0224 07:18:15.800036  1142 net.cpp:205] Memory required for data: 115171332
I0224 07:18:15.800040  1142 layer_factory.hpp:123] Creating layer ConvNd_27
I0224 07:18:15.800046  1142 net.cpp:140] Creating Layer ConvNd_27
I0224 07:18:15.800050  1142 net.cpp:481] ConvNd_27 <- BatchNorm_7_Threshold_7_0_split_0
I0224 07:18:15.800055  1142 net.cpp:455] ConvNd_27 -> ConvNd_27
I0224 07:18:15.800246  1142 net.cpp:190] Setting up ConvNd_27
I0224 07:18:15.800252  1142 net.cpp:197] Top shape: 1 25 32 64 (51200)
I0224 07:18:15.800257  1142 net.cpp:205] Memory required for data: 115376132
I0224 07:18:15.800262  1142 layer_factory.hpp:123] Creating layer ConvNd_27_ConvNd_27_0_split
I0224 07:18:15.800268  1142 net.cpp:140] Creating Layer ConvNd_27_ConvNd_27_0_split
I0224 07:18:15.800272  1142 net.cpp:481] ConvNd_27_ConvNd_27_0_split <- ConvNd_27
I0224 07:18:15.800277  1142 net.cpp:455] ConvNd_27_ConvNd_27_0_split -> ConvNd_27_ConvNd_27_0_split_0
I0224 07:18:15.800283  1142 net.cpp:455] ConvNd_27_ConvNd_27_0_split -> ConvNd_27_ConvNd_27_0_split_1
I0224 07:18:15.800289  1142 net.cpp:455] ConvNd_27_ConvNd_27_0_split -> ConvNd_27_ConvNd_27_0_split_2
I0224 07:18:15.800294  1142 net.cpp:455] ConvNd_27_ConvNd_27_0_split -> ConvNd_27_ConvNd_27_0_split_3
I0224 07:18:15.800299  1142 net.cpp:455] ConvNd_27_ConvNd_27_0_split -> ConvNd_27_ConvNd_27_0_split_4
I0224 07:18:15.800356  1142 net.cpp:190] Setting up ConvNd_27_ConvNd_27_0_split
I0224 07:18:15.800361  1142 net.cpp:197] Top shape: 1 25 32 64 (51200)
I0224 07:18:15.800366  1142 net.cpp:197] Top shape: 1 25 32 64 (51200)
I0224 07:18:15.800370  1142 net.cpp:197] Top shape: 1 25 32 64 (51200)
I0224 07:18:15.800374  1142 net.cpp:197] Top shape: 1 25 32 64 (51200)
I0224 07:18:15.800379  1142 net.cpp:197] Top shape: 1 25 32 64 (51200)
I0224 07:18:15.800382  1142 net.cpp:205] Memory required for data: 116400132
I0224 07:18:15.800385  1142 layer_factory.hpp:123] Creating layer ConvNd_28
I0224 07:18:15.800392  1142 net.cpp:140] Creating Layer ConvNd_28
I0224 07:18:15.800396  1142 net.cpp:481] ConvNd_28 <- ConvNd_27_ConvNd_27_0_split_0
I0224 07:18:15.800401  1142 net.cpp:455] ConvNd_28 -> ConvNd_28
I0224 07:18:15.800628  1142 net.cpp:190] Setting up ConvNd_28
I0224 07:18:15.800635  1142 net.cpp:197] Top shape: 1 28 32 64 (57344)
I0224 07:18:15.800640  1142 net.cpp:205] Memory required for data: 116629508
I0224 07:18:15.800644  1142 layer_factory.hpp:123] Creating layer ConvNd_29
I0224 07:18:15.800652  1142 net.cpp:140] Creating Layer ConvNd_29
I0224 07:18:15.800655  1142 net.cpp:481] ConvNd_29 <- ConvNd_27_ConvNd_27_0_split_1
I0224 07:18:15.800660  1142 net.cpp:455] ConvNd_29 -> ConvNd_29
I0224 07:18:15.800887  1142 net.cpp:190] Setting up ConvNd_29
I0224 07:18:15.800894  1142 net.cpp:197] Top shape: 1 25 32 64 (51200)
I0224 07:18:15.800899  1142 net.cpp:205] Memory required for data: 116834308
I0224 07:18:15.800902  1142 layer_factory.hpp:123] Creating layer ConvNd_29_ConvNd_29_0_split
I0224 07:18:15.800909  1142 net.cpp:140] Creating Layer ConvNd_29_ConvNd_29_0_split
I0224 07:18:15.800912  1142 net.cpp:481] ConvNd_29_ConvNd_29_0_split <- ConvNd_29
I0224 07:18:15.800917  1142 net.cpp:455] ConvNd_29_ConvNd_29_0_split -> ConvNd_29_ConvNd_29_0_split_0
I0224 07:18:15.800923  1142 net.cpp:455] ConvNd_29_ConvNd_29_0_split -> ConvNd_29_ConvNd_29_0_split_1
I0224 07:18:15.800952  1142 net.cpp:190] Setting up ConvNd_29_ConvNd_29_0_split
I0224 07:18:15.800958  1142 net.cpp:197] Top shape: 1 25 32 64 (51200)
I0224 07:18:15.800962  1142 net.cpp:197] Top shape: 1 25 32 64 (51200)
I0224 07:18:15.800966  1142 net.cpp:205] Memory required for data: 117243908
I0224 07:18:15.800971  1142 layer_factory.hpp:123] Creating layer ConvNd_30
I0224 07:18:15.800977  1142 net.cpp:140] Creating Layer ConvNd_30
I0224 07:18:15.800981  1142 net.cpp:481] ConvNd_30 <- ConvNd_27_ConvNd_27_0_split_2
I0224 07:18:15.800985  1142 net.cpp:455] ConvNd_30 -> ConvNd_30
I0224 07:18:15.801206  1142 net.cpp:190] Setting up ConvNd_30
I0224 07:18:15.801213  1142 net.cpp:197] Top shape: 1 25 32 64 (51200)
I0224 07:18:15.801216  1142 net.cpp:205] Memory required for data: 117448708
I0224 07:18:15.801224  1142 layer_factory.hpp:123] Creating layer Add_15
I0224 07:18:15.801229  1142 net.cpp:140] Creating Layer Add_15
I0224 07:18:15.801234  1142 net.cpp:481] Add_15 <- ConvNd_29_ConvNd_29_0_split_0
I0224 07:18:15.801237  1142 net.cpp:481] Add_15 <- ConvNd_30
I0224 07:18:15.801242  1142 net.cpp:455] Add_15 -> Add_15
I0224 07:18:15.801265  1142 net.cpp:190] Setting up Add_15
I0224 07:18:15.801270  1142 net.cpp:197] Top shape: 1 25 32 64 (51200)
I0224 07:18:15.801275  1142 net.cpp:205] Memory required for data: 117653508
I0224 07:18:15.801278  1142 layer_factory.hpp:123] Creating layer Add_15_Add_15_0_split
I0224 07:18:15.801282  1142 net.cpp:140] Creating Layer Add_15_Add_15_0_split
I0224 07:18:15.801286  1142 net.cpp:481] Add_15_Add_15_0_split <- Add_15
I0224 07:18:15.801290  1142 net.cpp:455] Add_15_Add_15_0_split -> Add_15_Add_15_0_split_0
I0224 07:18:15.801296  1142 net.cpp:455] Add_15_Add_15_0_split -> Add_15_Add_15_0_split_1
I0224 07:18:15.801331  1142 net.cpp:190] Setting up Add_15_Add_15_0_split
I0224 07:18:15.801335  1142 net.cpp:197] Top shape: 1 25 32 64 (51200)
I0224 07:18:15.801339  1142 net.cpp:197] Top shape: 1 25 32 64 (51200)
I0224 07:18:15.801343  1142 net.cpp:205] Memory required for data: 118063108
I0224 07:18:15.801347  1142 layer_factory.hpp:123] Creating layer ConvNd_31
I0224 07:18:15.801353  1142 net.cpp:140] Creating Layer ConvNd_31
I0224 07:18:15.801357  1142 net.cpp:481] ConvNd_31 <- ConvNd_27_ConvNd_27_0_split_3
I0224 07:18:15.801362  1142 net.cpp:455] ConvNd_31 -> ConvNd_31
I0224 07:18:15.801575  1142 net.cpp:190] Setting up ConvNd_31
I0224 07:18:15.801581  1142 net.cpp:197] Top shape: 1 25 32 64 (51200)
I0224 07:18:15.801586  1142 net.cpp:205] Memory required for data: 118267908
I0224 07:18:15.801591  1142 layer_factory.hpp:123] Creating layer Add_16
I0224 07:18:15.801597  1142 net.cpp:140] Creating Layer Add_16
I0224 07:18:15.801600  1142 net.cpp:481] Add_16 <- Add_15_Add_15_0_split_0
I0224 07:18:15.801605  1142 net.cpp:481] Add_16 <- ConvNd_31
I0224 07:18:15.801609  1142 net.cpp:455] Add_16 -> Add_16
I0224 07:18:15.801627  1142 net.cpp:190] Setting up Add_16
I0224 07:18:15.801632  1142 net.cpp:197] Top shape: 1 25 32 64 (51200)
I0224 07:18:15.801637  1142 net.cpp:205] Memory required for data: 118472708
I0224 07:18:15.801640  1142 layer_factory.hpp:123] Creating layer Add_16_Add_16_0_split
I0224 07:18:15.801645  1142 net.cpp:140] Creating Layer Add_16_Add_16_0_split
I0224 07:18:15.801648  1142 net.cpp:481] Add_16_Add_16_0_split <- Add_16
I0224 07:18:15.801653  1142 net.cpp:455] Add_16_Add_16_0_split -> Add_16_Add_16_0_split_0
I0224 07:18:15.801658  1142 net.cpp:455] Add_16_Add_16_0_split -> Add_16_Add_16_0_split_1
I0224 07:18:15.801685  1142 net.cpp:190] Setting up Add_16_Add_16_0_split
I0224 07:18:15.801692  1142 net.cpp:197] Top shape: 1 25 32 64 (51200)
I0224 07:18:15.801697  1142 net.cpp:197] Top shape: 1 25 32 64 (51200)
I0224 07:18:15.801702  1142 net.cpp:205] Memory required for data: 118882308
I0224 07:18:15.801704  1142 layer_factory.hpp:123] Creating layer ConvNd_32
I0224 07:18:15.801710  1142 net.cpp:140] Creating Layer ConvNd_32
I0224 07:18:15.801714  1142 net.cpp:481] ConvNd_32 <- ConvNd_27_ConvNd_27_0_split_4
I0224 07:18:15.801718  1142 net.cpp:455] ConvNd_32 -> ConvNd_32
I0224 07:18:15.801930  1142 net.cpp:190] Setting up ConvNd_32
I0224 07:18:15.801936  1142 net.cpp:197] Top shape: 1 25 32 64 (51200)
I0224 07:18:15.801940  1142 net.cpp:205] Memory required for data: 119087108
I0224 07:18:15.801945  1142 layer_factory.hpp:123] Creating layer Add_17
I0224 07:18:15.801951  1142 net.cpp:140] Creating Layer Add_17
I0224 07:18:15.801954  1142 net.cpp:481] Add_17 <- Add_16_Add_16_0_split_0
I0224 07:18:15.801959  1142 net.cpp:481] Add_17 <- ConvNd_32
I0224 07:18:15.801964  1142 net.cpp:455] Add_17 -> Add_17
I0224 07:18:15.801981  1142 net.cpp:190] Setting up Add_17
I0224 07:18:15.801986  1142 net.cpp:197] Top shape: 1 25 32 64 (51200)
I0224 07:18:15.801991  1142 net.cpp:205] Memory required for data: 119291908
I0224 07:18:15.801995  1142 layer_factory.hpp:123] Creating layer Concat_7
I0224 07:18:15.802000  1142 net.cpp:140] Creating Layer Concat_7
I0224 07:18:15.802003  1142 net.cpp:481] Concat_7 <- ConvNd_28
I0224 07:18:15.802006  1142 net.cpp:481] Concat_7 <- ConvNd_29_ConvNd_29_0_split_1
I0224 07:18:15.802011  1142 net.cpp:481] Concat_7 <- Add_15_Add_15_0_split_1
I0224 07:18:15.802014  1142 net.cpp:481] Concat_7 <- Add_16_Add_16_0_split_1
I0224 07:18:15.802018  1142 net.cpp:481] Concat_7 <- Add_17
I0224 07:18:15.802022  1142 net.cpp:455] Concat_7 -> Concat_7
I0224 07:18:15.802040  1142 net.cpp:190] Setting up Concat_7
I0224 07:18:15.802045  1142 net.cpp:197] Top shape: 1 128 32 64 (262144)
I0224 07:18:15.802049  1142 net.cpp:205] Memory required for data: 120340484
I0224 07:18:15.802053  1142 layer_factory.hpp:123] Creating layer Add_18
I0224 07:18:15.802058  1142 net.cpp:140] Creating Layer Add_18
I0224 07:18:15.802062  1142 net.cpp:481] Add_18 <- BatchNorm_7_Threshold_7_0_split_1
I0224 07:18:15.802065  1142 net.cpp:481] Add_18 <- Concat_7
I0224 07:18:15.802070  1142 net.cpp:455] Add_18 -> Add_18
I0224 07:18:15.802088  1142 net.cpp:190] Setting up Add_18
I0224 07:18:15.802090  1142 net.cpp:197] Top shape: 1 128 32 64 (262144)
I0224 07:18:15.802095  1142 net.cpp:205] Memory required for data: 121389060
I0224 07:18:15.802098  1142 layer_factory.hpp:123] Creating layer BatchNorm_8
I0224 07:18:15.802104  1142 net.cpp:140] Creating Layer BatchNorm_8
I0224 07:18:15.802107  1142 net.cpp:481] BatchNorm_8 <- Add_18
I0224 07:18:15.802112  1142 net.cpp:455] BatchNorm_8 -> BatchNorm_8
I0224 07:18:15.802594  1142 net.cpp:190] Setting up BatchNorm_8
I0224 07:18:15.802601  1142 net.cpp:197] Top shape: 1 128 32 64 (262144)
I0224 07:18:15.802606  1142 net.cpp:205] Memory required for data: 122437636
I0224 07:18:15.802614  1142 layer_factory.hpp:123] Creating layer Threshold_8
I0224 07:18:15.802619  1142 net.cpp:140] Creating Layer Threshold_8
I0224 07:18:15.802623  1142 net.cpp:481] Threshold_8 <- BatchNorm_8
I0224 07:18:15.802628  1142 net.cpp:442] Threshold_8 -> BatchNorm_8 (in-place)
I0224 07:18:15.802634  1142 net.cpp:190] Setting up Threshold_8
I0224 07:18:15.802636  1142 net.cpp:197] Top shape: 1 128 32 64 (262144)
I0224 07:18:15.802641  1142 net.cpp:205] Memory required for data: 123486212
I0224 07:18:15.802644  1142 layer_factory.hpp:123] Creating layer BatchNorm_8_Threshold_8_0_split
I0224 07:18:15.802649  1142 net.cpp:140] Creating Layer BatchNorm_8_Threshold_8_0_split
I0224 07:18:15.802654  1142 net.cpp:481] BatchNorm_8_Threshold_8_0_split <- BatchNorm_8
I0224 07:18:15.802657  1142 net.cpp:455] BatchNorm_8_Threshold_8_0_split -> BatchNorm_8_Threshold_8_0_split_0
I0224 07:18:15.802664  1142 net.cpp:455] BatchNorm_8_Threshold_8_0_split -> BatchNorm_8_Threshold_8_0_split_1
I0224 07:18:15.802692  1142 net.cpp:190] Setting up BatchNorm_8_Threshold_8_0_split
I0224 07:18:15.802697  1142 net.cpp:197] Top shape: 1 128 32 64 (262144)
I0224 07:18:15.802702  1142 net.cpp:197] Top shape: 1 128 32 64 (262144)
I0224 07:18:15.802706  1142 net.cpp:205] Memory required for data: 125583364
I0224 07:18:15.802709  1142 layer_factory.hpp:123] Creating layer ConvNd_33
I0224 07:18:15.802716  1142 net.cpp:140] Creating Layer ConvNd_33
I0224 07:18:15.802719  1142 net.cpp:481] ConvNd_33 <- BatchNorm_8_Threshold_8_0_split_0
I0224 07:18:15.802724  1142 net.cpp:455] ConvNd_33 -> ConvNd_33
I0224 07:18:15.802914  1142 net.cpp:190] Setting up ConvNd_33
I0224 07:18:15.802922  1142 net.cpp:197] Top shape: 1 25 32 64 (51200)
I0224 07:18:15.802925  1142 net.cpp:205] Memory required for data: 125788164
I0224 07:18:15.802930  1142 layer_factory.hpp:123] Creating layer ConvNd_33_ConvNd_33_0_split
I0224 07:18:15.802937  1142 net.cpp:140] Creating Layer ConvNd_33_ConvNd_33_0_split
I0224 07:18:15.802940  1142 net.cpp:481] ConvNd_33_ConvNd_33_0_split <- ConvNd_33
I0224 07:18:15.802945  1142 net.cpp:455] ConvNd_33_ConvNd_33_0_split -> ConvNd_33_ConvNd_33_0_split_0
I0224 07:18:15.802951  1142 net.cpp:455] ConvNd_33_ConvNd_33_0_split -> ConvNd_33_ConvNd_33_0_split_1
I0224 07:18:15.802958  1142 net.cpp:455] ConvNd_33_ConvNd_33_0_split -> ConvNd_33_ConvNd_33_0_split_2
I0224 07:18:15.802963  1142 net.cpp:455] ConvNd_33_ConvNd_33_0_split -> ConvNd_33_ConvNd_33_0_split_3
I0224 07:18:15.802968  1142 net.cpp:455] ConvNd_33_ConvNd_33_0_split -> ConvNd_33_ConvNd_33_0_split_4
I0224 07:18:15.803025  1142 net.cpp:190] Setting up ConvNd_33_ConvNd_33_0_split
I0224 07:18:15.803031  1142 net.cpp:197] Top shape: 1 25 32 64 (51200)
I0224 07:18:15.803035  1142 net.cpp:197] Top shape: 1 25 32 64 (51200)
I0224 07:18:15.803040  1142 net.cpp:197] Top shape: 1 25 32 64 (51200)
I0224 07:18:15.803043  1142 net.cpp:197] Top shape: 1 25 32 64 (51200)
I0224 07:18:15.803047  1142 net.cpp:197] Top shape: 1 25 32 64 (51200)
I0224 07:18:15.803051  1142 net.cpp:205] Memory required for data: 126812164
I0224 07:18:15.803056  1142 layer_factory.hpp:123] Creating layer ConvNd_34
I0224 07:18:15.803062  1142 net.cpp:140] Creating Layer ConvNd_34
I0224 07:18:15.803066  1142 net.cpp:481] ConvNd_34 <- ConvNd_33_ConvNd_33_0_split_0
I0224 07:18:15.803071  1142 net.cpp:455] ConvNd_34 -> ConvNd_34
I0224 07:18:15.803297  1142 net.cpp:190] Setting up ConvNd_34
I0224 07:18:15.803303  1142 net.cpp:197] Top shape: 1 28 32 64 (57344)
I0224 07:18:15.803308  1142 net.cpp:205] Memory required for data: 127041540
I0224 07:18:15.803311  1142 layer_factory.hpp:123] Creating layer ConvNd_35
I0224 07:18:15.803318  1142 net.cpp:140] Creating Layer ConvNd_35
I0224 07:18:15.803323  1142 net.cpp:481] ConvNd_35 <- ConvNd_33_ConvNd_33_0_split_1
I0224 07:18:15.803326  1142 net.cpp:455] ConvNd_35 -> ConvNd_35
I0224 07:18:15.803540  1142 net.cpp:190] Setting up ConvNd_35
I0224 07:18:15.803546  1142 net.cpp:197] Top shape: 1 25 32 64 (51200)
I0224 07:18:15.803550  1142 net.cpp:205] Memory required for data: 127246340
I0224 07:18:15.803555  1142 layer_factory.hpp:123] Creating layer ConvNd_35_ConvNd_35_0_split
I0224 07:18:15.803560  1142 net.cpp:140] Creating Layer ConvNd_35_ConvNd_35_0_split
I0224 07:18:15.803565  1142 net.cpp:481] ConvNd_35_ConvNd_35_0_split <- ConvNd_35
I0224 07:18:15.803568  1142 net.cpp:455] ConvNd_35_ConvNd_35_0_split -> ConvNd_35_ConvNd_35_0_split_0
I0224 07:18:15.803575  1142 net.cpp:455] ConvNd_35_ConvNd_35_0_split -> ConvNd_35_ConvNd_35_0_split_1
I0224 07:18:15.803602  1142 net.cpp:190] Setting up ConvNd_35_ConvNd_35_0_split
I0224 07:18:15.803607  1142 net.cpp:197] Top shape: 1 25 32 64 (51200)
I0224 07:18:15.803611  1142 net.cpp:197] Top shape: 1 25 32 64 (51200)
I0224 07:18:15.803617  1142 net.cpp:205] Memory required for data: 127655940
I0224 07:18:15.803619  1142 layer_factory.hpp:123] Creating layer ConvNd_36
I0224 07:18:15.803625  1142 net.cpp:140] Creating Layer ConvNd_36
I0224 07:18:15.803629  1142 net.cpp:481] ConvNd_36 <- ConvNd_33_ConvNd_33_0_split_2
I0224 07:18:15.803634  1142 net.cpp:455] ConvNd_36 -> ConvNd_36
I0224 07:18:15.803846  1142 net.cpp:190] Setting up ConvNd_36
I0224 07:18:15.803853  1142 net.cpp:197] Top shape: 1 25 32 64 (51200)
I0224 07:18:15.803856  1142 net.cpp:205] Memory required for data: 127860740
I0224 07:18:15.803861  1142 layer_factory.hpp:123] Creating layer Add_19
I0224 07:18:15.803866  1142 net.cpp:140] Creating Layer Add_19
I0224 07:18:15.803870  1142 net.cpp:481] Add_19 <- ConvNd_35_ConvNd_35_0_split_0
I0224 07:18:15.803874  1142 net.cpp:481] Add_19 <- ConvNd_36
I0224 07:18:15.803879  1142 net.cpp:455] Add_19 -> Add_19
I0224 07:18:15.803897  1142 net.cpp:190] Setting up Add_19
I0224 07:18:15.803902  1142 net.cpp:197] Top shape: 1 25 32 64 (51200)
I0224 07:18:15.803907  1142 net.cpp:205] Memory required for data: 128065540
I0224 07:18:15.803910  1142 layer_factory.hpp:123] Creating layer Add_19_Add_19_0_split
I0224 07:18:15.803916  1142 net.cpp:140] Creating Layer Add_19_Add_19_0_split
I0224 07:18:15.803920  1142 net.cpp:481] Add_19_Add_19_0_split <- Add_19
I0224 07:18:15.803925  1142 net.cpp:455] Add_19_Add_19_0_split -> Add_19_Add_19_0_split_0
I0224 07:18:15.803930  1142 net.cpp:455] Add_19_Add_19_0_split -> Add_19_Add_19_0_split_1
I0224 07:18:15.803957  1142 net.cpp:190] Setting up Add_19_Add_19_0_split
I0224 07:18:15.803962  1142 net.cpp:197] Top shape: 1 25 32 64 (51200)
I0224 07:18:15.803967  1142 net.cpp:197] Top shape: 1 25 32 64 (51200)
I0224 07:18:15.803972  1142 net.cpp:205] Memory required for data: 128475140
I0224 07:18:15.803974  1142 layer_factory.hpp:123] Creating layer ConvNd_37
I0224 07:18:15.803982  1142 net.cpp:140] Creating Layer ConvNd_37
I0224 07:18:15.803984  1142 net.cpp:481] ConvNd_37 <- ConvNd_33_ConvNd_33_0_split_3
I0224 07:18:15.803989  1142 net.cpp:455] ConvNd_37 -> ConvNd_37
I0224 07:18:15.804201  1142 net.cpp:190] Setting up ConvNd_37
I0224 07:18:15.804208  1142 net.cpp:197] Top shape: 1 25 32 64 (51200)
I0224 07:18:15.804211  1142 net.cpp:205] Memory required for data: 128679940
I0224 07:18:15.804216  1142 layer_factory.hpp:123] Creating layer Add_20
I0224 07:18:15.804221  1142 net.cpp:140] Creating Layer Add_20
I0224 07:18:15.804225  1142 net.cpp:481] Add_20 <- Add_19_Add_19_0_split_0
I0224 07:18:15.804229  1142 net.cpp:481] Add_20 <- ConvNd_37
I0224 07:18:15.804234  1142 net.cpp:455] Add_20 -> Add_20
I0224 07:18:15.804252  1142 net.cpp:190] Setting up Add_20
I0224 07:18:15.804257  1142 net.cpp:197] Top shape: 1 25 32 64 (51200)
I0224 07:18:15.804262  1142 net.cpp:205] Memory required for data: 128884740
I0224 07:18:15.804265  1142 layer_factory.hpp:123] Creating layer Add_20_Add_20_0_split
I0224 07:18:15.804270  1142 net.cpp:140] Creating Layer Add_20_Add_20_0_split
I0224 07:18:15.804273  1142 net.cpp:481] Add_20_Add_20_0_split <- Add_20
I0224 07:18:15.804278  1142 net.cpp:455] Add_20_Add_20_0_split -> Add_20_Add_20_0_split_0
I0224 07:18:15.804283  1142 net.cpp:455] Add_20_Add_20_0_split -> Add_20_Add_20_0_split_1
I0224 07:18:15.804311  1142 net.cpp:190] Setting up Add_20_Add_20_0_split
I0224 07:18:15.804316  1142 net.cpp:197] Top shape: 1 25 32 64 (51200)
I0224 07:18:15.804322  1142 net.cpp:197] Top shape: 1 25 32 64 (51200)
I0224 07:18:15.804325  1142 net.cpp:205] Memory required for data: 129294340
I0224 07:18:15.804329  1142 layer_factory.hpp:123] Creating layer ConvNd_38
I0224 07:18:15.804335  1142 net.cpp:140] Creating Layer ConvNd_38
I0224 07:18:15.804338  1142 net.cpp:481] ConvNd_38 <- ConvNd_33_ConvNd_33_0_split_4
I0224 07:18:15.804343  1142 net.cpp:455] ConvNd_38 -> ConvNd_38
I0224 07:18:15.804559  1142 net.cpp:190] Setting up ConvNd_38
I0224 07:18:15.804564  1142 net.cpp:197] Top shape: 1 25 32 64 (51200)
I0224 07:18:15.804569  1142 net.cpp:205] Memory required for data: 129499140
I0224 07:18:15.804574  1142 layer_factory.hpp:123] Creating layer Add_21
I0224 07:18:15.804579  1142 net.cpp:140] Creating Layer Add_21
I0224 07:18:15.804582  1142 net.cpp:481] Add_21 <- Add_20_Add_20_0_split_0
I0224 07:18:15.804587  1142 net.cpp:481] Add_21 <- ConvNd_38
I0224 07:18:15.804591  1142 net.cpp:455] Add_21 -> Add_21
I0224 07:18:15.804610  1142 net.cpp:190] Setting up Add_21
I0224 07:18:15.804615  1142 net.cpp:197] Top shape: 1 25 32 64 (51200)
I0224 07:18:15.804618  1142 net.cpp:205] Memory required for data: 129703940
I0224 07:18:15.804622  1142 layer_factory.hpp:123] Creating layer Concat_8
I0224 07:18:15.804627  1142 net.cpp:140] Creating Layer Concat_8
I0224 07:18:15.804630  1142 net.cpp:481] Concat_8 <- ConvNd_34
I0224 07:18:15.804634  1142 net.cpp:481] Concat_8 <- ConvNd_35_ConvNd_35_0_split_1
I0224 07:18:15.804638  1142 net.cpp:481] Concat_8 <- Add_19_Add_19_0_split_1
I0224 07:18:15.804642  1142 net.cpp:481] Concat_8 <- Add_20_Add_20_0_split_1
I0224 07:18:15.804646  1142 net.cpp:481] Concat_8 <- Add_21
I0224 07:18:15.804651  1142 net.cpp:455] Concat_8 -> Concat_8
I0224 07:18:15.804669  1142 net.cpp:190] Setting up Concat_8
I0224 07:18:15.804674  1142 net.cpp:197] Top shape: 1 128 32 64 (262144)
I0224 07:18:15.804679  1142 net.cpp:205] Memory required for data: 130752516
I0224 07:18:15.804682  1142 layer_factory.hpp:123] Creating layer Add_22
I0224 07:18:15.804687  1142 net.cpp:140] Creating Layer Add_22
I0224 07:18:15.804692  1142 net.cpp:481] Add_22 <- BatchNorm_8_Threshold_8_0_split_1
I0224 07:18:15.804695  1142 net.cpp:481] Add_22 <- Concat_8
I0224 07:18:15.804700  1142 net.cpp:455] Add_22 -> Add_22
I0224 07:18:15.804718  1142 net.cpp:190] Setting up Add_22
I0224 07:18:15.804723  1142 net.cpp:197] Top shape: 1 128 32 64 (262144)
I0224 07:18:15.804728  1142 net.cpp:205] Memory required for data: 131801092
I0224 07:18:15.804731  1142 layer_factory.hpp:123] Creating layer BatchNorm_9
I0224 07:18:15.804738  1142 net.cpp:140] Creating Layer BatchNorm_9
I0224 07:18:15.804741  1142 net.cpp:481] BatchNorm_9 <- Add_22
I0224 07:18:15.804745  1142 net.cpp:455] BatchNorm_9 -> BatchNorm_9
I0224 07:18:15.805243  1142 net.cpp:190] Setting up BatchNorm_9
I0224 07:18:15.805250  1142 net.cpp:197] Top shape: 1 128 32 64 (262144)
I0224 07:18:15.805255  1142 net.cpp:205] Memory required for data: 132849668
I0224 07:18:15.805263  1142 layer_factory.hpp:123] Creating layer Threshold_9
I0224 07:18:15.805269  1142 net.cpp:140] Creating Layer Threshold_9
I0224 07:18:15.805272  1142 net.cpp:481] Threshold_9 <- BatchNorm_9
I0224 07:18:15.805276  1142 net.cpp:442] Threshold_9 -> BatchNorm_9 (in-place)
I0224 07:18:15.805282  1142 net.cpp:190] Setting up Threshold_9
I0224 07:18:15.805285  1142 net.cpp:197] Top shape: 1 128 32 64 (262144)
I0224 07:18:15.805289  1142 net.cpp:205] Memory required for data: 133898244
I0224 07:18:15.805294  1142 layer_factory.hpp:123] Creating layer BatchNorm_9_Threshold_9_0_split
I0224 07:18:15.805297  1142 net.cpp:140] Creating Layer BatchNorm_9_Threshold_9_0_split
I0224 07:18:15.805301  1142 net.cpp:481] BatchNorm_9_Threshold_9_0_split <- BatchNorm_9
I0224 07:18:15.805305  1142 net.cpp:455] BatchNorm_9_Threshold_9_0_split -> BatchNorm_9_Threshold_9_0_split_0
I0224 07:18:15.805311  1142 net.cpp:455] BatchNorm_9_Threshold_9_0_split -> BatchNorm_9_Threshold_9_0_split_1
I0224 07:18:15.805347  1142 net.cpp:190] Setting up BatchNorm_9_Threshold_9_0_split
I0224 07:18:15.805353  1142 net.cpp:197] Top shape: 1 128 32 64 (262144)
I0224 07:18:15.805357  1142 net.cpp:197] Top shape: 1 128 32 64 (262144)
I0224 07:18:15.805361  1142 net.cpp:205] Memory required for data: 135995396
I0224 07:18:15.805366  1142 layer_factory.hpp:123] Creating layer ConvNd_39
I0224 07:18:15.805372  1142 net.cpp:140] Creating Layer ConvNd_39
I0224 07:18:15.805377  1142 net.cpp:481] ConvNd_39 <- BatchNorm_9_Threshold_9_0_split_0
I0224 07:18:15.805382  1142 net.cpp:455] ConvNd_39 -> ConvNd_39
I0224 07:18:15.805580  1142 net.cpp:190] Setting up ConvNd_39
I0224 07:18:15.805588  1142 net.cpp:197] Top shape: 1 25 32 64 (51200)
I0224 07:18:15.805591  1142 net.cpp:205] Memory required for data: 136200196
I0224 07:18:15.805596  1142 layer_factory.hpp:123] Creating layer ConvNd_39_ConvNd_39_0_split
I0224 07:18:15.805603  1142 net.cpp:140] Creating Layer ConvNd_39_ConvNd_39_0_split
I0224 07:18:15.805606  1142 net.cpp:481] ConvNd_39_ConvNd_39_0_split <- ConvNd_39
I0224 07:18:15.805611  1142 net.cpp:455] ConvNd_39_ConvNd_39_0_split -> ConvNd_39_ConvNd_39_0_split_0
I0224 07:18:15.805617  1142 net.cpp:455] ConvNd_39_ConvNd_39_0_split -> ConvNd_39_ConvNd_39_0_split_1
I0224 07:18:15.805624  1142 net.cpp:455] ConvNd_39_ConvNd_39_0_split -> ConvNd_39_ConvNd_39_0_split_2
I0224 07:18:15.805629  1142 net.cpp:455] ConvNd_39_ConvNd_39_0_split -> ConvNd_39_ConvNd_39_0_split_3
I0224 07:18:15.805634  1142 net.cpp:455] ConvNd_39_ConvNd_39_0_split -> ConvNd_39_ConvNd_39_0_split_4
I0224 07:18:15.805699  1142 net.cpp:190] Setting up ConvNd_39_ConvNd_39_0_split
I0224 07:18:15.805704  1142 net.cpp:197] Top shape: 1 25 32 64 (51200)
I0224 07:18:15.805709  1142 net.cpp:197] Top shape: 1 25 32 64 (51200)
I0224 07:18:15.805713  1142 net.cpp:197] Top shape: 1 25 32 64 (51200)
I0224 07:18:15.805717  1142 net.cpp:197] Top shape: 1 25 32 64 (51200)
I0224 07:18:15.805721  1142 net.cpp:197] Top shape: 1 25 32 64 (51200)
I0224 07:18:15.805725  1142 net.cpp:205] Memory required for data: 137224196
I0224 07:18:15.805728  1142 layer_factory.hpp:123] Creating layer ConvNd_40
I0224 07:18:15.805735  1142 net.cpp:140] Creating Layer ConvNd_40
I0224 07:18:15.805739  1142 net.cpp:481] ConvNd_40 <- ConvNd_39_ConvNd_39_0_split_0
I0224 07:18:15.805744  1142 net.cpp:455] ConvNd_40 -> ConvNd_40
I0224 07:18:15.805974  1142 net.cpp:190] Setting up ConvNd_40
I0224 07:18:15.805980  1142 net.cpp:197] Top shape: 1 28 32 64 (57344)
I0224 07:18:15.805985  1142 net.cpp:205] Memory required for data: 137453572
I0224 07:18:15.805990  1142 layer_factory.hpp:123] Creating layer ConvNd_41
I0224 07:18:15.805996  1142 net.cpp:140] Creating Layer ConvNd_41
I0224 07:18:15.806000  1142 net.cpp:481] ConvNd_41 <- ConvNd_39_ConvNd_39_0_split_1
I0224 07:18:15.806005  1142 net.cpp:455] ConvNd_41 -> ConvNd_41
I0224 07:18:15.806217  1142 net.cpp:190] Setting up ConvNd_41
I0224 07:18:15.806223  1142 net.cpp:197] Top shape: 1 25 32 64 (51200)
I0224 07:18:15.806227  1142 net.cpp:205] Memory required for data: 137658372
I0224 07:18:15.806232  1142 layer_factory.hpp:123] Creating layer ConvNd_41_ConvNd_41_0_split
I0224 07:18:15.806237  1142 net.cpp:140] Creating Layer ConvNd_41_ConvNd_41_0_split
I0224 07:18:15.806241  1142 net.cpp:481] ConvNd_41_ConvNd_41_0_split <- ConvNd_41
I0224 07:18:15.806246  1142 net.cpp:455] ConvNd_41_ConvNd_41_0_split -> ConvNd_41_ConvNd_41_0_split_0
I0224 07:18:15.806252  1142 net.cpp:455] ConvNd_41_ConvNd_41_0_split -> ConvNd_41_ConvNd_41_0_split_1
I0224 07:18:15.806282  1142 net.cpp:190] Setting up ConvNd_41_ConvNd_41_0_split
I0224 07:18:15.806286  1142 net.cpp:197] Top shape: 1 25 32 64 (51200)
I0224 07:18:15.806291  1142 net.cpp:197] Top shape: 1 25 32 64 (51200)
I0224 07:18:15.806295  1142 net.cpp:205] Memory required for data: 138067972
I0224 07:18:15.806298  1142 layer_factory.hpp:123] Creating layer ConvNd_42
I0224 07:18:15.806305  1142 net.cpp:140] Creating Layer ConvNd_42
I0224 07:18:15.806308  1142 net.cpp:481] ConvNd_42 <- ConvNd_39_ConvNd_39_0_split_2
I0224 07:18:15.806313  1142 net.cpp:455] ConvNd_42 -> ConvNd_42
I0224 07:18:15.806527  1142 net.cpp:190] Setting up ConvNd_42
I0224 07:18:15.806533  1142 net.cpp:197] Top shape: 1 25 32 64 (51200)
I0224 07:18:15.806538  1142 net.cpp:205] Memory required for data: 138272772
I0224 07:18:15.806542  1142 layer_factory.hpp:123] Creating layer Add_23
I0224 07:18:15.806551  1142 net.cpp:140] Creating Layer Add_23
I0224 07:18:15.806555  1142 net.cpp:481] Add_23 <- ConvNd_41_ConvNd_41_0_split_0
I0224 07:18:15.806560  1142 net.cpp:481] Add_23 <- ConvNd_42
I0224 07:18:15.806565  1142 net.cpp:455] Add_23 -> Add_23
I0224 07:18:15.806582  1142 net.cpp:190] Setting up Add_23
I0224 07:18:15.806588  1142 net.cpp:197] Top shape: 1 25 32 64 (51200)
I0224 07:18:15.806592  1142 net.cpp:205] Memory required for data: 138477572
I0224 07:18:15.806596  1142 layer_factory.hpp:123] Creating layer Add_23_Add_23_0_split
I0224 07:18:15.806601  1142 net.cpp:140] Creating Layer Add_23_Add_23_0_split
I0224 07:18:15.806604  1142 net.cpp:481] Add_23_Add_23_0_split <- Add_23
I0224 07:18:15.806608  1142 net.cpp:455] Add_23_Add_23_0_split -> Add_23_Add_23_0_split_0
I0224 07:18:15.806614  1142 net.cpp:455] Add_23_Add_23_0_split -> Add_23_Add_23_0_split_1
I0224 07:18:15.806643  1142 net.cpp:190] Setting up Add_23_Add_23_0_split
I0224 07:18:15.806648  1142 net.cpp:197] Top shape: 1 25 32 64 (51200)
I0224 07:18:15.806651  1142 net.cpp:197] Top shape: 1 25 32 64 (51200)
I0224 07:18:15.806655  1142 net.cpp:205] Memory required for data: 138887172
I0224 07:18:15.806659  1142 layer_factory.hpp:123] Creating layer ConvNd_43
I0224 07:18:15.806665  1142 net.cpp:140] Creating Layer ConvNd_43
I0224 07:18:15.806669  1142 net.cpp:481] ConvNd_43 <- ConvNd_39_ConvNd_39_0_split_3
I0224 07:18:15.806674  1142 net.cpp:455] ConvNd_43 -> ConvNd_43
I0224 07:18:15.806888  1142 net.cpp:190] Setting up ConvNd_43
I0224 07:18:15.806895  1142 net.cpp:197] Top shape: 1 25 32 64 (51200)
I0224 07:18:15.806898  1142 net.cpp:205] Memory required for data: 139091972
I0224 07:18:15.806903  1142 layer_factory.hpp:123] Creating layer Add_24
I0224 07:18:15.806908  1142 net.cpp:140] Creating Layer Add_24
I0224 07:18:15.806912  1142 net.cpp:481] Add_24 <- Add_23_Add_23_0_split_0
I0224 07:18:15.806916  1142 net.cpp:481] Add_24 <- ConvNd_43
I0224 07:18:15.806921  1142 net.cpp:455] Add_24 -> Add_24
I0224 07:18:15.806939  1142 net.cpp:190] Setting up Add_24
I0224 07:18:15.806944  1142 net.cpp:197] Top shape: 1 25 32 64 (51200)
I0224 07:18:15.806949  1142 net.cpp:205] Memory required for data: 139296772
I0224 07:18:15.806952  1142 layer_factory.hpp:123] Creating layer Add_24_Add_24_0_split
I0224 07:18:15.806957  1142 net.cpp:140] Creating Layer Add_24_Add_24_0_split
I0224 07:18:15.806962  1142 net.cpp:481] Add_24_Add_24_0_split <- Add_24
I0224 07:18:15.806965  1142 net.cpp:455] Add_24_Add_24_0_split -> Add_24_Add_24_0_split_0
I0224 07:18:15.806972  1142 net.cpp:455] Add_24_Add_24_0_split -> Add_24_Add_24_0_split_1
I0224 07:18:15.806998  1142 net.cpp:190] Setting up Add_24_Add_24_0_split
I0224 07:18:15.807003  1142 net.cpp:197] Top shape: 1 25 32 64 (51200)
I0224 07:18:15.807008  1142 net.cpp:197] Top shape: 1 25 32 64 (51200)
I0224 07:18:15.807013  1142 net.cpp:205] Memory required for data: 139706372
I0224 07:18:15.807015  1142 layer_factory.hpp:123] Creating layer ConvNd_44
I0224 07:18:15.807022  1142 net.cpp:140] Creating Layer ConvNd_44
I0224 07:18:15.807025  1142 net.cpp:481] ConvNd_44 <- ConvNd_39_ConvNd_39_0_split_4
I0224 07:18:15.807030  1142 net.cpp:455] ConvNd_44 -> ConvNd_44
I0224 07:18:15.807243  1142 net.cpp:190] Setting up ConvNd_44
I0224 07:18:15.807248  1142 net.cpp:197] Top shape: 1 25 32 64 (51200)
I0224 07:18:15.807253  1142 net.cpp:205] Memory required for data: 139911172
I0224 07:18:15.807257  1142 layer_factory.hpp:123] Creating layer Add_25
I0224 07:18:15.807262  1142 net.cpp:140] Creating Layer Add_25
I0224 07:18:15.807266  1142 net.cpp:481] Add_25 <- Add_24_Add_24_0_split_0
I0224 07:18:15.807271  1142 net.cpp:481] Add_25 <- ConvNd_44
I0224 07:18:15.807276  1142 net.cpp:455] Add_25 -> Add_25
I0224 07:18:15.807293  1142 net.cpp:190] Setting up Add_25
I0224 07:18:15.807298  1142 net.cpp:197] Top shape: 1 25 32 64 (51200)
I0224 07:18:15.807302  1142 net.cpp:205] Memory required for data: 140115972
I0224 07:18:15.807307  1142 layer_factory.hpp:123] Creating layer Concat_9
I0224 07:18:15.807310  1142 net.cpp:140] Creating Layer Concat_9
I0224 07:18:15.807314  1142 net.cpp:481] Concat_9 <- ConvNd_40
I0224 07:18:15.807318  1142 net.cpp:481] Concat_9 <- ConvNd_41_ConvNd_41_0_split_1
I0224 07:18:15.807322  1142 net.cpp:481] Concat_9 <- Add_23_Add_23_0_split_1
I0224 07:18:15.807325  1142 net.cpp:481] Concat_9 <- Add_24_Add_24_0_split_1
I0224 07:18:15.807329  1142 net.cpp:481] Concat_9 <- Add_25
I0224 07:18:15.807334  1142 net.cpp:455] Concat_9 -> Concat_9
I0224 07:18:15.807353  1142 net.cpp:190] Setting up Concat_9
I0224 07:18:15.807358  1142 net.cpp:197] Top shape: 1 128 32 64 (262144)
I0224 07:18:15.807361  1142 net.cpp:205] Memory required for data: 141164548
I0224 07:18:15.807364  1142 layer_factory.hpp:123] Creating layer Add_26
I0224 07:18:15.807369  1142 net.cpp:140] Creating Layer Add_26
I0224 07:18:15.807374  1142 net.cpp:481] Add_26 <- BatchNorm_9_Threshold_9_0_split_1
I0224 07:18:15.807377  1142 net.cpp:481] Add_26 <- Concat_9
I0224 07:18:15.807381  1142 net.cpp:455] Add_26 -> Add_26
I0224 07:18:15.807399  1142 net.cpp:190] Setting up Add_26
I0224 07:18:15.807406  1142 net.cpp:197] Top shape: 1 128 32 64 (262144)
I0224 07:18:15.807410  1142 net.cpp:205] Memory required for data: 142213124
I0224 07:18:15.807413  1142 layer_factory.hpp:123] Creating layer BatchNorm_10
I0224 07:18:15.807420  1142 net.cpp:140] Creating Layer BatchNorm_10
I0224 07:18:15.807423  1142 net.cpp:481] BatchNorm_10 <- Add_26
I0224 07:18:15.807430  1142 net.cpp:455] BatchNorm_10 -> BatchNorm_10
I0224 07:18:15.807917  1142 net.cpp:190] Setting up BatchNorm_10
I0224 07:18:15.807924  1142 net.cpp:197] Top shape: 1 128 32 64 (262144)
I0224 07:18:15.807929  1142 net.cpp:205] Memory required for data: 143261700
I0224 07:18:15.807937  1142 layer_factory.hpp:123] Creating layer Threshold_10
I0224 07:18:15.807942  1142 net.cpp:140] Creating Layer Threshold_10
I0224 07:18:15.807946  1142 net.cpp:481] Threshold_10 <- BatchNorm_10
I0224 07:18:15.807951  1142 net.cpp:442] Threshold_10 -> BatchNorm_10 (in-place)
I0224 07:18:15.807957  1142 net.cpp:190] Setting up Threshold_10
I0224 07:18:15.807960  1142 net.cpp:197] Top shape: 1 128 32 64 (262144)
I0224 07:18:15.807965  1142 net.cpp:205] Memory required for data: 144310276
I0224 07:18:15.807968  1142 layer_factory.hpp:123] Creating layer BatchNorm_10_Threshold_10_0_split
I0224 07:18:15.807973  1142 net.cpp:140] Creating Layer BatchNorm_10_Threshold_10_0_split
I0224 07:18:15.807976  1142 net.cpp:481] BatchNorm_10_Threshold_10_0_split <- BatchNorm_10
I0224 07:18:15.807981  1142 net.cpp:455] BatchNorm_10_Threshold_10_0_split -> BatchNorm_10_Threshold_10_0_split_0
I0224 07:18:15.807986  1142 net.cpp:455] BatchNorm_10_Threshold_10_0_split -> BatchNorm_10_Threshold_10_0_split_1
I0224 07:18:15.808015  1142 net.cpp:190] Setting up BatchNorm_10_Threshold_10_0_split
I0224 07:18:15.808022  1142 net.cpp:197] Top shape: 1 128 32 64 (262144)
I0224 07:18:15.808025  1142 net.cpp:197] Top shape: 1 128 32 64 (262144)
I0224 07:18:15.808030  1142 net.cpp:205] Memory required for data: 146407428
I0224 07:18:15.808034  1142 layer_factory.hpp:123] Creating layer ConvNd_45
I0224 07:18:15.808040  1142 net.cpp:140] Creating Layer ConvNd_45
I0224 07:18:15.808044  1142 net.cpp:481] ConvNd_45 <- BatchNorm_10_Threshold_10_0_split_0
I0224 07:18:15.808050  1142 net.cpp:455] ConvNd_45 -> ConvNd_45
I0224 07:18:15.808243  1142 net.cpp:190] Setting up ConvNd_45
I0224 07:18:15.808249  1142 net.cpp:197] Top shape: 1 25 32 64 (51200)
I0224 07:18:15.808254  1142 net.cpp:205] Memory required for data: 146612228
I0224 07:18:15.808259  1142 layer_factory.hpp:123] Creating layer ConvNd_45_ConvNd_45_0_split
I0224 07:18:15.808264  1142 net.cpp:140] Creating Layer ConvNd_45_ConvNd_45_0_split
I0224 07:18:15.808269  1142 net.cpp:481] ConvNd_45_ConvNd_45_0_split <- ConvNd_45
I0224 07:18:15.808274  1142 net.cpp:455] ConvNd_45_ConvNd_45_0_split -> ConvNd_45_ConvNd_45_0_split_0
I0224 07:18:15.808280  1142 net.cpp:455] ConvNd_45_ConvNd_45_0_split -> ConvNd_45_ConvNd_45_0_split_1
I0224 07:18:15.808286  1142 net.cpp:455] ConvNd_45_ConvNd_45_0_split -> ConvNd_45_ConvNd_45_0_split_2
I0224 07:18:15.808291  1142 net.cpp:455] ConvNd_45_ConvNd_45_0_split -> ConvNd_45_ConvNd_45_0_split_3
I0224 07:18:15.808296  1142 net.cpp:455] ConvNd_45_ConvNd_45_0_split -> ConvNd_45_ConvNd_45_0_split_4
I0224 07:18:15.808356  1142 net.cpp:190] Setting up ConvNd_45_ConvNd_45_0_split
I0224 07:18:15.808360  1142 net.cpp:197] Top shape: 1 25 32 64 (51200)
I0224 07:18:15.808365  1142 net.cpp:197] Top shape: 1 25 32 64 (51200)
I0224 07:18:15.808369  1142 net.cpp:197] Top shape: 1 25 32 64 (51200)
I0224 07:18:15.808373  1142 net.cpp:197] Top shape: 1 25 32 64 (51200)
I0224 07:18:15.808377  1142 net.cpp:197] Top shape: 1 25 32 64 (51200)
I0224 07:18:15.808382  1142 net.cpp:205] Memory required for data: 147636228
I0224 07:18:15.808385  1142 layer_factory.hpp:123] Creating layer ConvNd_46
I0224 07:18:15.808393  1142 net.cpp:140] Creating Layer ConvNd_46
I0224 07:18:15.808396  1142 net.cpp:481] ConvNd_46 <- ConvNd_45_ConvNd_45_0_split_0
I0224 07:18:15.808401  1142 net.cpp:455] ConvNd_46 -> ConvNd_46
I0224 07:18:15.808629  1142 net.cpp:190] Setting up ConvNd_46
I0224 07:18:15.808634  1142 net.cpp:197] Top shape: 1 28 32 64 (57344)
I0224 07:18:15.808640  1142 net.cpp:205] Memory required for data: 147865604
I0224 07:18:15.808643  1142 layer_factory.hpp:123] Creating layer ConvNd_47
I0224 07:18:15.808650  1142 net.cpp:140] Creating Layer ConvNd_47
I0224 07:18:15.808655  1142 net.cpp:481] ConvNd_47 <- ConvNd_45_ConvNd_45_0_split_1
I0224 07:18:15.808660  1142 net.cpp:455] ConvNd_47 -> ConvNd_47
I0224 07:18:15.808876  1142 net.cpp:190] Setting up ConvNd_47
I0224 07:18:15.808883  1142 net.cpp:197] Top shape: 1 25 32 64 (51200)
I0224 07:18:15.808887  1142 net.cpp:205] Memory required for data: 148070404
I0224 07:18:15.808892  1142 layer_factory.hpp:123] Creating layer ConvNd_47_ConvNd_47_0_split
I0224 07:18:15.808897  1142 net.cpp:140] Creating Layer ConvNd_47_ConvNd_47_0_split
I0224 07:18:15.808900  1142 net.cpp:481] ConvNd_47_ConvNd_47_0_split <- ConvNd_47
I0224 07:18:15.808905  1142 net.cpp:455] ConvNd_47_ConvNd_47_0_split -> ConvNd_47_ConvNd_47_0_split_0
I0224 07:18:15.808912  1142 net.cpp:455] ConvNd_47_ConvNd_47_0_split -> ConvNd_47_ConvNd_47_0_split_1
I0224 07:18:15.808941  1142 net.cpp:190] Setting up ConvNd_47_ConvNd_47_0_split
I0224 07:18:15.808946  1142 net.cpp:197] Top shape: 1 25 32 64 (51200)
I0224 07:18:15.808951  1142 net.cpp:197] Top shape: 1 25 32 64 (51200)
I0224 07:18:15.808955  1142 net.cpp:205] Memory required for data: 148480004
I0224 07:18:15.808959  1142 layer_factory.hpp:123] Creating layer ConvNd_48
I0224 07:18:15.808965  1142 net.cpp:140] Creating Layer ConvNd_48
I0224 07:18:15.808969  1142 net.cpp:481] ConvNd_48 <- ConvNd_45_ConvNd_45_0_split_2
I0224 07:18:15.808974  1142 net.cpp:455] ConvNd_48 -> ConvNd_48
I0224 07:18:15.809186  1142 net.cpp:190] Setting up ConvNd_48
I0224 07:18:15.809192  1142 net.cpp:197] Top shape: 1 25 32 64 (51200)
I0224 07:18:15.809197  1142 net.cpp:205] Memory required for data: 148684804
I0224 07:18:15.809201  1142 layer_factory.hpp:123] Creating layer Add_27
I0224 07:18:15.809206  1142 net.cpp:140] Creating Layer Add_27
I0224 07:18:15.809211  1142 net.cpp:481] Add_27 <- ConvNd_47_ConvNd_47_0_split_0
I0224 07:18:15.809214  1142 net.cpp:481] Add_27 <- ConvNd_48
I0224 07:18:15.809219  1142 net.cpp:455] Add_27 -> Add_27
I0224 07:18:15.809238  1142 net.cpp:190] Setting up Add_27
I0224 07:18:15.809244  1142 net.cpp:197] Top shape: 1 25 32 64 (51200)
I0224 07:18:15.809248  1142 net.cpp:205] Memory required for data: 148889604
I0224 07:18:15.809252  1142 layer_factory.hpp:123] Creating layer Add_27_Add_27_0_split
I0224 07:18:15.809257  1142 net.cpp:140] Creating Layer Add_27_Add_27_0_split
I0224 07:18:15.809262  1142 net.cpp:481] Add_27_Add_27_0_split <- Add_27
I0224 07:18:15.809265  1142 net.cpp:455] Add_27_Add_27_0_split -> Add_27_Add_27_0_split_0
I0224 07:18:15.809271  1142 net.cpp:455] Add_27_Add_27_0_split -> Add_27_Add_27_0_split_1
I0224 07:18:15.809299  1142 net.cpp:190] Setting up Add_27_Add_27_0_split
I0224 07:18:15.809304  1142 net.cpp:197] Top shape: 1 25 32 64 (51200)
I0224 07:18:15.809309  1142 net.cpp:197] Top shape: 1 25 32 64 (51200)
I0224 07:18:15.809312  1142 net.cpp:205] Memory required for data: 149299204
I0224 07:18:15.809322  1142 layer_factory.hpp:123] Creating layer ConvNd_49
I0224 07:18:15.809330  1142 net.cpp:140] Creating Layer ConvNd_49
I0224 07:18:15.809334  1142 net.cpp:481] ConvNd_49 <- ConvNd_45_ConvNd_45_0_split_3
I0224 07:18:15.809339  1142 net.cpp:455] ConvNd_49 -> ConvNd_49
I0224 07:18:15.809558  1142 net.cpp:190] Setting up ConvNd_49
I0224 07:18:15.809564  1142 net.cpp:197] Top shape: 1 25 32 64 (51200)
I0224 07:18:15.809569  1142 net.cpp:205] Memory required for data: 149504004
I0224 07:18:15.809574  1142 layer_factory.hpp:123] Creating layer Add_28
I0224 07:18:15.809579  1142 net.cpp:140] Creating Layer Add_28
I0224 07:18:15.809583  1142 net.cpp:481] Add_28 <- Add_27_Add_27_0_split_0
I0224 07:18:15.809587  1142 net.cpp:481] Add_28 <- ConvNd_49
I0224 07:18:15.809592  1142 net.cpp:455] Add_28 -> Add_28
I0224 07:18:15.809610  1142 net.cpp:190] Setting up Add_28
I0224 07:18:15.809615  1142 net.cpp:197] Top shape: 1 25 32 64 (51200)
I0224 07:18:15.809620  1142 net.cpp:205] Memory required for data: 149708804
I0224 07:18:15.809623  1142 layer_factory.hpp:123] Creating layer Add_28_Add_28_0_split
I0224 07:18:15.809628  1142 net.cpp:140] Creating Layer Add_28_Add_28_0_split
I0224 07:18:15.809633  1142 net.cpp:481] Add_28_Add_28_0_split <- Add_28
I0224 07:18:15.809636  1142 net.cpp:455] Add_28_Add_28_0_split -> Add_28_Add_28_0_split_0
I0224 07:18:15.809643  1142 net.cpp:455] Add_28_Add_28_0_split -> Add_28_Add_28_0_split_1
I0224 07:18:15.809670  1142 net.cpp:190] Setting up Add_28_Add_28_0_split
I0224 07:18:15.809675  1142 net.cpp:197] Top shape: 1 25 32 64 (51200)
I0224 07:18:15.809680  1142 net.cpp:197] Top shape: 1 25 32 64 (51200)
I0224 07:18:15.809684  1142 net.cpp:205] Memory required for data: 150118404
I0224 07:18:15.809687  1142 layer_factory.hpp:123] Creating layer ConvNd_50
I0224 07:18:15.809693  1142 net.cpp:140] Creating Layer ConvNd_50
I0224 07:18:15.809697  1142 net.cpp:481] ConvNd_50 <- ConvNd_45_ConvNd_45_0_split_4
I0224 07:18:15.809702  1142 net.cpp:455] ConvNd_50 -> ConvNd_50
I0224 07:18:15.809927  1142 net.cpp:190] Setting up ConvNd_50
I0224 07:18:15.809934  1142 net.cpp:197] Top shape: 1 25 32 64 (51200)
I0224 07:18:15.809938  1142 net.cpp:205] Memory required for data: 150323204
I0224 07:18:15.809943  1142 layer_factory.hpp:123] Creating layer Add_29
I0224 07:18:15.809948  1142 net.cpp:140] Creating Layer Add_29
I0224 07:18:15.809952  1142 net.cpp:481] Add_29 <- Add_28_Add_28_0_split_0
I0224 07:18:15.809957  1142 net.cpp:481] Add_29 <- ConvNd_50
I0224 07:18:15.809962  1142 net.cpp:455] Add_29 -> Add_29
I0224 07:18:15.809979  1142 net.cpp:190] Setting up Add_29
I0224 07:18:15.809983  1142 net.cpp:197] Top shape: 1 25 32 64 (51200)
I0224 07:18:15.809988  1142 net.cpp:205] Memory required for data: 150528004
I0224 07:18:15.809990  1142 layer_factory.hpp:123] Creating layer Concat_10
I0224 07:18:15.809996  1142 net.cpp:140] Creating Layer Concat_10
I0224 07:18:15.809999  1142 net.cpp:481] Concat_10 <- ConvNd_46
I0224 07:18:15.810003  1142 net.cpp:481] Concat_10 <- ConvNd_47_ConvNd_47_0_split_1
I0224 07:18:15.810007  1142 net.cpp:481] Concat_10 <- Add_27_Add_27_0_split_1
I0224 07:18:15.810010  1142 net.cpp:481] Concat_10 <- Add_28_Add_28_0_split_1
I0224 07:18:15.810014  1142 net.cpp:481] Concat_10 <- Add_29
I0224 07:18:15.810019  1142 net.cpp:455] Concat_10 -> Concat_10
I0224 07:18:15.810037  1142 net.cpp:190] Setting up Concat_10
I0224 07:18:15.810040  1142 net.cpp:197] Top shape: 1 128 32 64 (262144)
I0224 07:18:15.810045  1142 net.cpp:205] Memory required for data: 151576580
I0224 07:18:15.810048  1142 layer_factory.hpp:123] Creating layer Add_30
I0224 07:18:15.810053  1142 net.cpp:140] Creating Layer Add_30
I0224 07:18:15.810056  1142 net.cpp:481] Add_30 <- BatchNorm_10_Threshold_10_0_split_1
I0224 07:18:15.810061  1142 net.cpp:481] Add_30 <- Concat_10
I0224 07:18:15.810065  1142 net.cpp:455] Add_30 -> Add_30
I0224 07:18:15.810082  1142 net.cpp:190] Setting up Add_30
I0224 07:18:15.810086  1142 net.cpp:197] Top shape: 1 128 32 64 (262144)
I0224 07:18:15.810091  1142 net.cpp:205] Memory required for data: 152625156
I0224 07:18:15.810093  1142 layer_factory.hpp:123] Creating layer BatchNorm_11
I0224 07:18:15.810099  1142 net.cpp:140] Creating Layer BatchNorm_11
I0224 07:18:15.810103  1142 net.cpp:481] BatchNorm_11 <- Add_30
I0224 07:18:15.810108  1142 net.cpp:455] BatchNorm_11 -> BatchNorm_11
I0224 07:18:15.810595  1142 net.cpp:190] Setting up BatchNorm_11
I0224 07:18:15.810603  1142 net.cpp:197] Top shape: 1 128 32 64 (262144)
I0224 07:18:15.810608  1142 net.cpp:205] Memory required for data: 153673732
I0224 07:18:15.810616  1142 layer_factory.hpp:123] Creating layer Threshold_11
I0224 07:18:15.810621  1142 net.cpp:140] Creating Layer Threshold_11
I0224 07:18:15.810626  1142 net.cpp:481] Threshold_11 <- BatchNorm_11
I0224 07:18:15.810629  1142 net.cpp:442] Threshold_11 -> BatchNorm_11 (in-place)
I0224 07:18:15.810636  1142 net.cpp:190] Setting up Threshold_11
I0224 07:18:15.810638  1142 net.cpp:197] Top shape: 1 128 32 64 (262144)
I0224 07:18:15.810642  1142 net.cpp:205] Memory required for data: 154722308
I0224 07:18:15.810647  1142 layer_factory.hpp:123] Creating layer BatchNorm_11_Threshold_11_0_split
I0224 07:18:15.810652  1142 net.cpp:140] Creating Layer BatchNorm_11_Threshold_11_0_split
I0224 07:18:15.810654  1142 net.cpp:481] BatchNorm_11_Threshold_11_0_split <- BatchNorm_11
I0224 07:18:15.810659  1142 net.cpp:455] BatchNorm_11_Threshold_11_0_split -> BatchNorm_11_Threshold_11_0_split_0
I0224 07:18:15.810665  1142 net.cpp:455] BatchNorm_11_Threshold_11_0_split -> BatchNorm_11_Threshold_11_0_split_1
I0224 07:18:15.810694  1142 net.cpp:190] Setting up BatchNorm_11_Threshold_11_0_split
I0224 07:18:15.810699  1142 net.cpp:197] Top shape: 1 128 32 64 (262144)
I0224 07:18:15.810704  1142 net.cpp:197] Top shape: 1 128 32 64 (262144)
I0224 07:18:15.810708  1142 net.cpp:205] Memory required for data: 156819460
I0224 07:18:15.810711  1142 layer_factory.hpp:123] Creating layer ConvNd_51
I0224 07:18:15.810719  1142 net.cpp:140] Creating Layer ConvNd_51
I0224 07:18:15.810722  1142 net.cpp:481] ConvNd_51 <- BatchNorm_11_Threshold_11_0_split_0
I0224 07:18:15.810727  1142 net.cpp:455] ConvNd_51 -> ConvNd_51
I0224 07:18:15.810920  1142 net.cpp:190] Setting up ConvNd_51
I0224 07:18:15.810925  1142 net.cpp:197] Top shape: 1 25 32 64 (51200)
I0224 07:18:15.810930  1142 net.cpp:205] Memory required for data: 157024260
I0224 07:18:15.810935  1142 layer_factory.hpp:123] Creating layer ConvNd_51_ConvNd_51_0_split
I0224 07:18:15.810940  1142 net.cpp:140] Creating Layer ConvNd_51_ConvNd_51_0_split
I0224 07:18:15.810945  1142 net.cpp:481] ConvNd_51_ConvNd_51_0_split <- ConvNd_51
I0224 07:18:15.810950  1142 net.cpp:455] ConvNd_51_ConvNd_51_0_split -> ConvNd_51_ConvNd_51_0_split_0
I0224 07:18:15.810956  1142 net.cpp:455] ConvNd_51_ConvNd_51_0_split -> ConvNd_51_ConvNd_51_0_split_1
I0224 07:18:15.810961  1142 net.cpp:455] ConvNd_51_ConvNd_51_0_split -> ConvNd_51_ConvNd_51_0_split_2
I0224 07:18:15.810966  1142 net.cpp:455] ConvNd_51_ConvNd_51_0_split -> ConvNd_51_ConvNd_51_0_split_3
I0224 07:18:15.810971  1142 net.cpp:455] ConvNd_51_ConvNd_51_0_split -> ConvNd_51_ConvNd_51_0_split_4
I0224 07:18:15.811030  1142 net.cpp:190] Setting up ConvNd_51_ConvNd_51_0_split
I0224 07:18:15.811036  1142 net.cpp:197] Top shape: 1 25 32 64 (51200)
I0224 07:18:15.811040  1142 net.cpp:197] Top shape: 1 25 32 64 (51200)
I0224 07:18:15.811044  1142 net.cpp:197] Top shape: 1 25 32 64 (51200)
I0224 07:18:15.811049  1142 net.cpp:197] Top shape: 1 25 32 64 (51200)
I0224 07:18:15.811053  1142 net.cpp:197] Top shape: 1 25 32 64 (51200)
I0224 07:18:15.811058  1142 net.cpp:205] Memory required for data: 158048260
I0224 07:18:15.811060  1142 layer_factory.hpp:123] Creating layer ConvNd_52
I0224 07:18:15.811067  1142 net.cpp:140] Creating Layer ConvNd_52
I0224 07:18:15.811071  1142 net.cpp:481] ConvNd_52 <- ConvNd_51_ConvNd_51_0_split_0
I0224 07:18:15.811076  1142 net.cpp:455] ConvNd_52 -> ConvNd_52
I0224 07:18:15.811305  1142 net.cpp:190] Setting up ConvNd_52
I0224 07:18:15.811311  1142 net.cpp:197] Top shape: 1 28 32 64 (57344)
I0224 07:18:15.811316  1142 net.cpp:205] Memory required for data: 158277636
I0224 07:18:15.811321  1142 layer_factory.hpp:123] Creating layer ConvNd_53
I0224 07:18:15.811327  1142 net.cpp:140] Creating Layer ConvNd_53
I0224 07:18:15.811331  1142 net.cpp:481] ConvNd_53 <- ConvNd_51_ConvNd_51_0_split_1
I0224 07:18:15.811336  1142 net.cpp:455] ConvNd_53 -> ConvNd_53
I0224 07:18:15.811550  1142 net.cpp:190] Setting up ConvNd_53
I0224 07:18:15.811556  1142 net.cpp:197] Top shape: 1 25 32 64 (51200)
I0224 07:18:15.811561  1142 net.cpp:205] Memory required for data: 158482436
I0224 07:18:15.811565  1142 layer_factory.hpp:123] Creating layer ConvNd_53_ConvNd_53_0_split
I0224 07:18:15.811570  1142 net.cpp:140] Creating Layer ConvNd_53_ConvNd_53_0_split
I0224 07:18:15.811574  1142 net.cpp:481] ConvNd_53_ConvNd_53_0_split <- ConvNd_53
I0224 07:18:15.811579  1142 net.cpp:455] ConvNd_53_ConvNd_53_0_split -> ConvNd_53_ConvNd_53_0_split_0
I0224 07:18:15.811584  1142 net.cpp:455] ConvNd_53_ConvNd_53_0_split -> ConvNd_53_ConvNd_53_0_split_1
I0224 07:18:15.811614  1142 net.cpp:190] Setting up ConvNd_53_ConvNd_53_0_split
I0224 07:18:15.811619  1142 net.cpp:197] Top shape: 1 25 32 64 (51200)
I0224 07:18:15.811623  1142 net.cpp:197] Top shape: 1 25 32 64 (51200)
I0224 07:18:15.811627  1142 net.cpp:205] Memory required for data: 158892036
I0224 07:18:15.811630  1142 layer_factory.hpp:123] Creating layer ConvNd_54
I0224 07:18:15.811637  1142 net.cpp:140] Creating Layer ConvNd_54
I0224 07:18:15.811641  1142 net.cpp:481] ConvNd_54 <- ConvNd_51_ConvNd_51_0_split_2
I0224 07:18:15.811646  1142 net.cpp:455] ConvNd_54 -> ConvNd_54
I0224 07:18:15.811864  1142 net.cpp:190] Setting up ConvNd_54
I0224 07:18:15.811870  1142 net.cpp:197] Top shape: 1 25 32 64 (51200)
I0224 07:18:15.811874  1142 net.cpp:205] Memory required for data: 159096836
I0224 07:18:15.811879  1142 layer_factory.hpp:123] Creating layer Add_31
I0224 07:18:15.811884  1142 net.cpp:140] Creating Layer Add_31
I0224 07:18:15.811887  1142 net.cpp:481] Add_31 <- ConvNd_53_ConvNd_53_0_split_0
I0224 07:18:15.811892  1142 net.cpp:481] Add_31 <- ConvNd_54
I0224 07:18:15.811897  1142 net.cpp:455] Add_31 -> Add_31
I0224 07:18:15.811915  1142 net.cpp:190] Setting up Add_31
I0224 07:18:15.811920  1142 net.cpp:197] Top shape: 1 25 32 64 (51200)
I0224 07:18:15.811925  1142 net.cpp:205] Memory required for data: 159301636
I0224 07:18:15.811928  1142 layer_factory.hpp:123] Creating layer Add_31_Add_31_0_split
I0224 07:18:15.811933  1142 net.cpp:140] Creating Layer Add_31_Add_31_0_split
I0224 07:18:15.811938  1142 net.cpp:481] Add_31_Add_31_0_split <- Add_31
I0224 07:18:15.811941  1142 net.cpp:455] Add_31_Add_31_0_split -> Add_31_Add_31_0_split_0
I0224 07:18:15.811947  1142 net.cpp:455] Add_31_Add_31_0_split -> Add_31_Add_31_0_split_1
I0224 07:18:15.811975  1142 net.cpp:190] Setting up Add_31_Add_31_0_split
I0224 07:18:15.811980  1142 net.cpp:197] Top shape: 1 25 32 64 (51200)
I0224 07:18:15.811985  1142 net.cpp:197] Top shape: 1 25 32 64 (51200)
I0224 07:18:15.811988  1142 net.cpp:205] Memory required for data: 159711236
I0224 07:18:15.811991  1142 layer_factory.hpp:123] Creating layer ConvNd_55
I0224 07:18:15.811997  1142 net.cpp:140] Creating Layer ConvNd_55
I0224 07:18:15.812001  1142 net.cpp:481] ConvNd_55 <- ConvNd_51_ConvNd_51_0_split_3
I0224 07:18:15.812006  1142 net.cpp:455] ConvNd_55 -> ConvNd_55
I0224 07:18:15.812216  1142 net.cpp:190] Setting up ConvNd_55
I0224 07:18:15.812222  1142 net.cpp:197] Top shape: 1 25 32 64 (51200)
I0224 07:18:15.812225  1142 net.cpp:205] Memory required for data: 159916036
I0224 07:18:15.812230  1142 layer_factory.hpp:123] Creating layer Add_32
I0224 07:18:15.812235  1142 net.cpp:140] Creating Layer Add_32
I0224 07:18:15.812239  1142 net.cpp:481] Add_32 <- Add_31_Add_31_0_split_0
I0224 07:18:15.812243  1142 net.cpp:481] Add_32 <- ConvNd_55
I0224 07:18:15.812247  1142 net.cpp:455] Add_32 -> Add_32
I0224 07:18:15.812266  1142 net.cpp:190] Setting up Add_32
I0224 07:18:15.812269  1142 net.cpp:197] Top shape: 1 25 32 64 (51200)
I0224 07:18:15.812274  1142 net.cpp:205] Memory required for data: 160120836
I0224 07:18:15.812278  1142 layer_factory.hpp:123] Creating layer Add_32_Add_32_0_split
I0224 07:18:15.812283  1142 net.cpp:140] Creating Layer Add_32_Add_32_0_split
I0224 07:18:15.812285  1142 net.cpp:481] Add_32_Add_32_0_split <- Add_32
I0224 07:18:15.812290  1142 net.cpp:455] Add_32_Add_32_0_split -> Add_32_Add_32_0_split_0
I0224 07:18:15.812295  1142 net.cpp:455] Add_32_Add_32_0_split -> Add_32_Add_32_0_split_1
I0224 07:18:15.812322  1142 net.cpp:190] Setting up Add_32_Add_32_0_split
I0224 07:18:15.812327  1142 net.cpp:197] Top shape: 1 25 32 64 (51200)
I0224 07:18:15.812332  1142 net.cpp:197] Top shape: 1 25 32 64 (51200)
I0224 07:18:15.812336  1142 net.cpp:205] Memory required for data: 160530436
I0224 07:18:15.812340  1142 layer_factory.hpp:123] Creating layer ConvNd_56
I0224 07:18:15.812345  1142 net.cpp:140] Creating Layer ConvNd_56
I0224 07:18:15.812350  1142 net.cpp:481] ConvNd_56 <- ConvNd_51_ConvNd_51_0_split_4
I0224 07:18:15.812355  1142 net.cpp:455] ConvNd_56 -> ConvNd_56
I0224 07:18:15.812574  1142 net.cpp:190] Setting up ConvNd_56
I0224 07:18:15.812580  1142 net.cpp:197] Top shape: 1 25 32 64 (51200)
I0224 07:18:15.812585  1142 net.cpp:205] Memory required for data: 160735236
I0224 07:18:15.812589  1142 layer_factory.hpp:123] Creating layer Add_33
I0224 07:18:15.812594  1142 net.cpp:140] Creating Layer Add_33
I0224 07:18:15.812598  1142 net.cpp:481] Add_33 <- Add_32_Add_32_0_split_0
I0224 07:18:15.812602  1142 net.cpp:481] Add_33 <- ConvNd_56
I0224 07:18:15.812608  1142 net.cpp:455] Add_33 -> Add_33
I0224 07:18:15.812624  1142 net.cpp:190] Setting up Add_33
I0224 07:18:15.812629  1142 net.cpp:197] Top shape: 1 25 32 64 (51200)
I0224 07:18:15.812634  1142 net.cpp:205] Memory required for data: 160940036
I0224 07:18:15.812638  1142 layer_factory.hpp:123] Creating layer Concat_11
I0224 07:18:15.812642  1142 net.cpp:140] Creating Layer Concat_11
I0224 07:18:15.812646  1142 net.cpp:481] Concat_11 <- ConvNd_52
I0224 07:18:15.812650  1142 net.cpp:481] Concat_11 <- ConvNd_53_ConvNd_53_0_split_1
I0224 07:18:15.812654  1142 net.cpp:481] Concat_11 <- Add_31_Add_31_0_split_1
I0224 07:18:15.812659  1142 net.cpp:481] Concat_11 <- Add_32_Add_32_0_split_1
I0224 07:18:15.812661  1142 net.cpp:481] Concat_11 <- Add_33
I0224 07:18:15.812666  1142 net.cpp:455] Concat_11 -> Concat_11
I0224 07:18:15.812685  1142 net.cpp:190] Setting up Concat_11
I0224 07:18:15.812690  1142 net.cpp:197] Top shape: 1 128 32 64 (262144)
I0224 07:18:15.812695  1142 net.cpp:205] Memory required for data: 161988612
I0224 07:18:15.812697  1142 layer_factory.hpp:123] Creating layer Add_34
I0224 07:18:15.812702  1142 net.cpp:140] Creating Layer Add_34
I0224 07:18:15.812706  1142 net.cpp:481] Add_34 <- BatchNorm_11_Threshold_11_0_split_1
I0224 07:18:15.812711  1142 net.cpp:481] Add_34 <- Concat_11
I0224 07:18:15.812716  1142 net.cpp:455] Add_34 -> Add_34
I0224 07:18:15.812732  1142 net.cpp:190] Setting up Add_34
I0224 07:18:15.812738  1142 net.cpp:197] Top shape: 1 128 32 64 (262144)
I0224 07:18:15.812743  1142 net.cpp:205] Memory required for data: 163037188
I0224 07:18:15.812747  1142 layer_factory.hpp:123] Creating layer BatchNorm_12
I0224 07:18:15.812752  1142 net.cpp:140] Creating Layer BatchNorm_12
I0224 07:18:15.812757  1142 net.cpp:481] BatchNorm_12 <- Add_34
I0224 07:18:15.812760  1142 net.cpp:455] BatchNorm_12 -> BatchNorm_12
I0224 07:18:15.813246  1142 net.cpp:190] Setting up BatchNorm_12
I0224 07:18:15.813253  1142 net.cpp:197] Top shape: 1 128 32 64 (262144)
I0224 07:18:15.813258  1142 net.cpp:205] Memory required for data: 164085764
I0224 07:18:15.813266  1142 layer_factory.hpp:123] Creating layer Threshold_12
I0224 07:18:15.813271  1142 net.cpp:140] Creating Layer Threshold_12
I0224 07:18:15.813275  1142 net.cpp:481] Threshold_12 <- BatchNorm_12
I0224 07:18:15.813279  1142 net.cpp:442] Threshold_12 -> BatchNorm_12 (in-place)
I0224 07:18:15.813285  1142 net.cpp:190] Setting up Threshold_12
I0224 07:18:15.813288  1142 net.cpp:197] Top shape: 1 128 32 64 (262144)
I0224 07:18:15.813292  1142 net.cpp:205] Memory required for data: 165134340
I0224 07:18:15.813297  1142 layer_factory.hpp:123] Creating layer BatchNorm_12_Threshold_12_0_split
I0224 07:18:15.813300  1142 net.cpp:140] Creating Layer BatchNorm_12_Threshold_12_0_split
I0224 07:18:15.813304  1142 net.cpp:481] BatchNorm_12_Threshold_12_0_split <- BatchNorm_12
I0224 07:18:15.813308  1142 net.cpp:455] BatchNorm_12_Threshold_12_0_split -> BatchNorm_12_Threshold_12_0_split_0
I0224 07:18:15.813319  1142 net.cpp:455] BatchNorm_12_Threshold_12_0_split -> BatchNorm_12_Threshold_12_0_split_1
I0224 07:18:15.813350  1142 net.cpp:190] Setting up BatchNorm_12_Threshold_12_0_split
I0224 07:18:15.813355  1142 net.cpp:197] Top shape: 1 128 32 64 (262144)
I0224 07:18:15.813360  1142 net.cpp:197] Top shape: 1 128 32 64 (262144)
I0224 07:18:15.813364  1142 net.cpp:205] Memory required for data: 167231492
I0224 07:18:15.813367  1142 layer_factory.hpp:123] Creating layer ConvNd_57
I0224 07:18:15.813374  1142 net.cpp:140] Creating Layer ConvNd_57
I0224 07:18:15.813378  1142 net.cpp:481] ConvNd_57 <- BatchNorm_12_Threshold_12_0_split_0
I0224 07:18:15.813385  1142 net.cpp:455] ConvNd_57 -> ConvNd_57
I0224 07:18:15.813581  1142 net.cpp:190] Setting up ConvNd_57
I0224 07:18:15.813588  1142 net.cpp:197] Top shape: 1 25 32 64 (51200)
I0224 07:18:15.813593  1142 net.cpp:205] Memory required for data: 167436292
I0224 07:18:15.813598  1142 layer_factory.hpp:123] Creating layer ConvNd_57_ConvNd_57_0_split
I0224 07:18:15.813603  1142 net.cpp:140] Creating Layer ConvNd_57_ConvNd_57_0_split
I0224 07:18:15.813607  1142 net.cpp:481] ConvNd_57_ConvNd_57_0_split <- ConvNd_57
I0224 07:18:15.813613  1142 net.cpp:455] ConvNd_57_ConvNd_57_0_split -> ConvNd_57_ConvNd_57_0_split_0
I0224 07:18:15.813619  1142 net.cpp:455] ConvNd_57_ConvNd_57_0_split -> ConvNd_57_ConvNd_57_0_split_1
I0224 07:18:15.813624  1142 net.cpp:455] ConvNd_57_ConvNd_57_0_split -> ConvNd_57_ConvNd_57_0_split_2
I0224 07:18:15.813630  1142 net.cpp:455] ConvNd_57_ConvNd_57_0_split -> ConvNd_57_ConvNd_57_0_split_3
I0224 07:18:15.813635  1142 net.cpp:455] ConvNd_57_ConvNd_57_0_split -> ConvNd_57_ConvNd_57_0_split_4
I0224 07:18:15.813695  1142 net.cpp:190] Setting up ConvNd_57_ConvNd_57_0_split
I0224 07:18:15.813700  1142 net.cpp:197] Top shape: 1 25 32 64 (51200)
I0224 07:18:15.813705  1142 net.cpp:197] Top shape: 1 25 32 64 (51200)
I0224 07:18:15.813709  1142 net.cpp:197] Top shape: 1 25 32 64 (51200)
I0224 07:18:15.813714  1142 net.cpp:197] Top shape: 1 25 32 64 (51200)
I0224 07:18:15.813716  1142 net.cpp:197] Top shape: 1 25 32 64 (51200)
I0224 07:18:15.813721  1142 net.cpp:205] Memory required for data: 168460292
I0224 07:18:15.813724  1142 layer_factory.hpp:123] Creating layer ConvNd_58
I0224 07:18:15.813731  1142 net.cpp:140] Creating Layer ConvNd_58
I0224 07:18:15.813735  1142 net.cpp:481] ConvNd_58 <- ConvNd_57_ConvNd_57_0_split_0
I0224 07:18:15.813740  1142 net.cpp:455] ConvNd_58 -> ConvNd_58
I0224 07:18:15.813968  1142 net.cpp:190] Setting up ConvNd_58
I0224 07:18:15.813975  1142 net.cpp:197] Top shape: 1 28 32 64 (57344)
I0224 07:18:15.813979  1142 net.cpp:205] Memory required for data: 168689668
I0224 07:18:15.813984  1142 layer_factory.hpp:123] Creating layer ConvNd_59
I0224 07:18:15.813992  1142 net.cpp:140] Creating Layer ConvNd_59
I0224 07:18:15.813995  1142 net.cpp:481] ConvNd_59 <- ConvNd_57_ConvNd_57_0_split_1
I0224 07:18:15.814000  1142 net.cpp:455] ConvNd_59 -> ConvNd_59
I0224 07:18:15.814222  1142 net.cpp:190] Setting up ConvNd_59
I0224 07:18:15.814229  1142 net.cpp:197] Top shape: 1 25 32 64 (51200)
I0224 07:18:15.814234  1142 net.cpp:205] Memory required for data: 168894468
I0224 07:18:15.814237  1142 layer_factory.hpp:123] Creating layer ConvNd_59_ConvNd_59_0_split
I0224 07:18:15.814242  1142 net.cpp:140] Creating Layer ConvNd_59_ConvNd_59_0_split
I0224 07:18:15.814246  1142 net.cpp:481] ConvNd_59_ConvNd_59_0_split <- ConvNd_59
I0224 07:18:15.814251  1142 net.cpp:455] ConvNd_59_ConvNd_59_0_split -> ConvNd_59_ConvNd_59_0_split_0
I0224 07:18:15.814257  1142 net.cpp:455] ConvNd_59_ConvNd_59_0_split -> ConvNd_59_ConvNd_59_0_split_1
I0224 07:18:15.814286  1142 net.cpp:190] Setting up ConvNd_59_ConvNd_59_0_split
I0224 07:18:15.814291  1142 net.cpp:197] Top shape: 1 25 32 64 (51200)
I0224 07:18:15.814296  1142 net.cpp:197] Top shape: 1 25 32 64 (51200)
I0224 07:18:15.814299  1142 net.cpp:205] Memory required for data: 169304068
I0224 07:18:15.814303  1142 layer_factory.hpp:123] Creating layer ConvNd_60
I0224 07:18:15.814311  1142 net.cpp:140] Creating Layer ConvNd_60
I0224 07:18:15.814313  1142 net.cpp:481] ConvNd_60 <- ConvNd_57_ConvNd_57_0_split_2
I0224 07:18:15.814319  1142 net.cpp:455] ConvNd_60 -> ConvNd_60
I0224 07:18:15.814541  1142 net.cpp:190] Setting up ConvNd_60
I0224 07:18:15.814548  1142 net.cpp:197] Top shape: 1 25 32 64 (51200)
I0224 07:18:15.814551  1142 net.cpp:205] Memory required for data: 169508868
I0224 07:18:15.814556  1142 layer_factory.hpp:123] Creating layer Add_35
I0224 07:18:15.814561  1142 net.cpp:140] Creating Layer Add_35
I0224 07:18:15.814565  1142 net.cpp:481] Add_35 <- ConvNd_59_ConvNd_59_0_split_0
I0224 07:18:15.814569  1142 net.cpp:481] Add_35 <- ConvNd_60
I0224 07:18:15.814574  1142 net.cpp:455] Add_35 -> Add_35
I0224 07:18:15.814594  1142 net.cpp:190] Setting up Add_35
I0224 07:18:15.814599  1142 net.cpp:197] Top shape: 1 25 32 64 (51200)
I0224 07:18:15.814604  1142 net.cpp:205] Memory required for data: 169713668
I0224 07:18:15.814607  1142 layer_factory.hpp:123] Creating layer Add_35_Add_35_0_split
I0224 07:18:15.814611  1142 net.cpp:140] Creating Layer Add_35_Add_35_0_split
I0224 07:18:15.814615  1142 net.cpp:481] Add_35_Add_35_0_split <- Add_35
I0224 07:18:15.814620  1142 net.cpp:455] Add_35_Add_35_0_split -> Add_35_Add_35_0_split_0
I0224 07:18:15.814626  1142 net.cpp:455] Add_35_Add_35_0_split -> Add_35_Add_35_0_split_1
I0224 07:18:15.814654  1142 net.cpp:190] Setting up Add_35_Add_35_0_split
I0224 07:18:15.814659  1142 net.cpp:197] Top shape: 1 25 32 64 (51200)
I0224 07:18:15.814663  1142 net.cpp:197] Top shape: 1 25 32 64 (51200)
I0224 07:18:15.814667  1142 net.cpp:205] Memory required for data: 170123268
I0224 07:18:15.814671  1142 layer_factory.hpp:123] Creating layer ConvNd_61
I0224 07:18:15.814677  1142 net.cpp:140] Creating Layer ConvNd_61
I0224 07:18:15.814680  1142 net.cpp:481] ConvNd_61 <- ConvNd_57_ConvNd_57_0_split_3
I0224 07:18:15.814685  1142 net.cpp:455] ConvNd_61 -> ConvNd_61
I0224 07:18:15.814910  1142 net.cpp:190] Setting up ConvNd_61
I0224 07:18:15.814918  1142 net.cpp:197] Top shape: 1 25 32 64 (51200)
I0224 07:18:15.814921  1142 net.cpp:205] Memory required for data: 170328068
I0224 07:18:15.814926  1142 layer_factory.hpp:123] Creating layer Add_36
I0224 07:18:15.814931  1142 net.cpp:140] Creating Layer Add_36
I0224 07:18:15.814935  1142 net.cpp:481] Add_36 <- Add_35_Add_35_0_split_0
I0224 07:18:15.814939  1142 net.cpp:481] Add_36 <- ConvNd_61
I0224 07:18:15.814944  1142 net.cpp:455] Add_36 -> Add_36
I0224 07:18:15.814963  1142 net.cpp:190] Setting up Add_36
I0224 07:18:15.814968  1142 net.cpp:197] Top shape: 1 25 32 64 (51200)
I0224 07:18:15.814972  1142 net.cpp:205] Memory required for data: 170532868
I0224 07:18:15.814976  1142 layer_factory.hpp:123] Creating layer Add_36_Add_36_0_split
I0224 07:18:15.814981  1142 net.cpp:140] Creating Layer Add_36_Add_36_0_split
I0224 07:18:15.814985  1142 net.cpp:481] Add_36_Add_36_0_split <- Add_36
I0224 07:18:15.814990  1142 net.cpp:455] Add_36_Add_36_0_split -> Add_36_Add_36_0_split_0
I0224 07:18:15.814996  1142 net.cpp:455] Add_36_Add_36_0_split -> Add_36_Add_36_0_split_1
I0224 07:18:15.815023  1142 net.cpp:190] Setting up Add_36_Add_36_0_split
I0224 07:18:15.815028  1142 net.cpp:197] Top shape: 1 25 32 64 (51200)
I0224 07:18:15.815033  1142 net.cpp:197] Top shape: 1 25 32 64 (51200)
I0224 07:18:15.815037  1142 net.cpp:205] Memory required for data: 170942468
I0224 07:18:15.815042  1142 layer_factory.hpp:123] Creating layer ConvNd_62
I0224 07:18:15.815047  1142 net.cpp:140] Creating Layer ConvNd_62
I0224 07:18:15.815052  1142 net.cpp:481] ConvNd_62 <- ConvNd_57_ConvNd_57_0_split_4
I0224 07:18:15.815057  1142 net.cpp:455] ConvNd_62 -> ConvNd_62
I0224 07:18:15.815274  1142 net.cpp:190] Setting up ConvNd_62
I0224 07:18:15.815280  1142 net.cpp:197] Top shape: 1 25 32 64 (51200)
I0224 07:18:15.815284  1142 net.cpp:205] Memory required for data: 171147268
I0224 07:18:15.815289  1142 layer_factory.hpp:123] Creating layer Add_37
I0224 07:18:15.815294  1142 net.cpp:140] Creating Layer Add_37
I0224 07:18:15.815297  1142 net.cpp:481] Add_37 <- Add_36_Add_36_0_split_0
I0224 07:18:15.815302  1142 net.cpp:481] Add_37 <- ConvNd_62
I0224 07:18:15.815306  1142 net.cpp:455] Add_37 -> Add_37
I0224 07:18:15.815325  1142 net.cpp:190] Setting up Add_37
I0224 07:18:15.815331  1142 net.cpp:197] Top shape: 1 25 32 64 (51200)
I0224 07:18:15.815335  1142 net.cpp:205] Memory required for data: 171352068
I0224 07:18:15.815340  1142 layer_factory.hpp:123] Creating layer Concat_12
I0224 07:18:15.815344  1142 net.cpp:140] Creating Layer Concat_12
I0224 07:18:15.815348  1142 net.cpp:481] Concat_12 <- ConvNd_58
I0224 07:18:15.815352  1142 net.cpp:481] Concat_12 <- ConvNd_59_ConvNd_59_0_split_1
I0224 07:18:15.815356  1142 net.cpp:481] Concat_12 <- Add_35_Add_35_0_split_1
I0224 07:18:15.815359  1142 net.cpp:481] Concat_12 <- Add_36_Add_36_0_split_1
I0224 07:18:15.815363  1142 net.cpp:481] Concat_12 <- Add_37
I0224 07:18:15.815368  1142 net.cpp:455] Concat_12 -> Concat_12
I0224 07:18:15.815387  1142 net.cpp:190] Setting up Concat_12
I0224 07:18:15.815392  1142 net.cpp:197] Top shape: 1 128 32 64 (262144)
I0224 07:18:15.815397  1142 net.cpp:205] Memory required for data: 172400644
I0224 07:18:15.815399  1142 layer_factory.hpp:123] Creating layer Add_38
I0224 07:18:15.815404  1142 net.cpp:140] Creating Layer Add_38
I0224 07:18:15.815408  1142 net.cpp:481] Add_38 <- BatchNorm_12_Threshold_12_0_split_1
I0224 07:18:15.815412  1142 net.cpp:481] Add_38 <- Concat_12
I0224 07:18:15.815418  1142 net.cpp:455] Add_38 -> Add_38
I0224 07:18:15.815434  1142 net.cpp:190] Setting up Add_38
I0224 07:18:15.815439  1142 net.cpp:197] Top shape: 1 128 32 64 (262144)
I0224 07:18:15.815444  1142 net.cpp:205] Memory required for data: 173449220
I0224 07:18:15.815448  1142 layer_factory.hpp:123] Creating layer BatchNorm_13
I0224 07:18:15.815454  1142 net.cpp:140] Creating Layer BatchNorm_13
I0224 07:18:15.815457  1142 net.cpp:481] BatchNorm_13 <- Add_38
I0224 07:18:15.815462  1142 net.cpp:455] BatchNorm_13 -> BatchNorm_13
I0224 07:18:15.815959  1142 net.cpp:190] Setting up BatchNorm_13
I0224 07:18:15.815966  1142 net.cpp:197] Top shape: 1 128 32 64 (262144)
I0224 07:18:15.815971  1142 net.cpp:205] Memory required for data: 174497796
I0224 07:18:15.815979  1142 layer_factory.hpp:123] Creating layer Threshold_13
I0224 07:18:15.815984  1142 net.cpp:140] Creating Layer Threshold_13
I0224 07:18:15.815989  1142 net.cpp:481] Threshold_13 <- BatchNorm_13
I0224 07:18:15.815992  1142 net.cpp:442] Threshold_13 -> BatchNorm_13 (in-place)
I0224 07:18:15.815999  1142 net.cpp:190] Setting up Threshold_13
I0224 07:18:15.816001  1142 net.cpp:197] Top shape: 1 128 32 64 (262144)
I0224 07:18:15.816006  1142 net.cpp:205] Memory required for data: 175546372
I0224 07:18:15.816009  1142 layer_factory.hpp:123] Creating layer BatchNorm_13_Threshold_13_0_split
I0224 07:18:15.816015  1142 net.cpp:140] Creating Layer BatchNorm_13_Threshold_13_0_split
I0224 07:18:15.816017  1142 net.cpp:481] BatchNorm_13_Threshold_13_0_split <- BatchNorm_13
I0224 07:18:15.816022  1142 net.cpp:455] BatchNorm_13_Threshold_13_0_split -> BatchNorm_13_Threshold_13_0_split_0
…
I0224 07:18:16.089687  1142 net.cpp:481] Add_41 <- Add_40_Add_40_fixed_0_split_0
I0224 07:18:16.089691  1142 net.cpp:481] Add_41 <- ConvNd_68
I0224 07:18:16.089696  1142 net.cpp:455] Add_41 -> Add_41
I0224 07:18:16.089718  1142 net.cpp:190] Setting up Add_41
I0224 07:18:16.089727  1142 net.cpp:197] Top shape: 1 25 32 64 (51200)
I0224 07:18:16.089735  1142 net.cpp:205] Memory required for data: 252674052
I0224 07:18:16.089740  1142 layer_factory.hpp:123] Creating layer Concat_13
I0224 07:18:16.089745  1142 net.cpp:140] Creating Layer Concat_13
I0224 07:18:16.089749  1142 net.cpp:481] Concat_13 <- ConvNd_64
I0224 07:18:16.089754  1142 net.cpp:481] Concat_13 <- ConvNd_65_ConvNd_65_fixed_0_split_1
I0224 07:18:16.089758  1142 net.cpp:481] Concat_13 <- Add_39_Add_39_fixed_0_split_1
I0224 07:18:16.089762  1142 net.cpp:481] Concat_13 <- Add_40_Add_40_fixed_0_split_1
I0224 07:18:16.089766  1142 net.cpp:481] Concat_13 <- Add_41
I0224 07:18:16.089771  1142 net.cpp:455] Concat_13 -> Concat_13
I0224 07:18:16.089792  1142 net.cpp:190] Setting up Concat_13
I0224 07:18:16.089798  1142 net.cpp:197] Top shape: 1 128 32 64 (262144)
I0224 07:18:16.089802  1142 net.cpp:205] Memory required for data: 253722628
I0224 07:18:16.089807  1142 layer_factory.hpp:123] Creating layer Concat_13_fixed
I0224 07:18:16.089812  1142 net.cpp:140] Creating Layer Concat_13_fixed
I0224 07:18:16.089814  1142 net.cpp:481] Concat_13_fixed <- Concat_13
I0224 07:18:16.089819  1142 net.cpp:442] Concat_13_fixed -> Concat_13 (in-place)
I0224 07:18:16.089860  1142 net.cpp:190] Setting up Concat_13_fixed
I0224 07:18:16.089866  1142 net.cpp:197] Top shape: 1 128 32 64 (262144)
I0224 07:18:16.089871  1142 net.cpp:205] Memory required for data: 254771204
I0224 07:18:16.089876  1142 layer_factory.hpp:123] Creating layer Add_42
I0224 07:18:16.089881  1142 net.cpp:140] Creating Layer Add_42
I0224 07:18:16.089885  1142 net.cpp:481] Add_42 <- BatchNorm_13_BatchNorm_13_fixed_0_split_1
I0224 07:18:16.089890  1142 net.cpp:481] Add_42 <- Concat_13
I0224 07:18:16.089895  1142 net.cpp:455] Add_42 -> Add_42
I0224 07:18:16.089918  1142 net.cpp:190] Setting up Add_42
I0224 07:18:16.089928  1142 net.cpp:197] Top shape: 1 128 32 64 (262144)
I0224 07:18:16.089936  1142 net.cpp:205] Memory required for data: 255819780
I0224 07:18:16.089939  1142 layer_factory.hpp:123] Creating layer Add_42_fixed
I0224 07:18:16.089944  1142 net.cpp:140] Creating Layer Add_42_fixed
I0224 07:18:16.089947  1142 net.cpp:481] Add_42_fixed <- Add_42
I0224 07:18:16.089952  1142 net.cpp:442] Add_42_fixed -> Add_42 (in-place)
I0224 07:18:16.089984  1142 net.cpp:190] Setting up Add_42_fixed
I0224 07:18:16.089993  1142 net.cpp:197] Top shape: 1 128 32 64 (262144)
I0224 07:18:16.090001  1142 net.cpp:205] Memory required for data: 256868356
I0224 07:18:16.090009  1142 layer_factory.hpp:123] Creating layer BatchNorm_14
I0224 07:18:16.090016  1142 net.cpp:140] Creating Layer BatchNorm_14
I0224 07:18:16.090020  1142 net.cpp:481] BatchNorm_14 <- Add_42
I0224 07:18:16.090029  1142 net.cpp:455] BatchNorm_14 -> BatchNorm_14
I0224 07:18:16.090068  1142 layer_factory.hpp:123] Creating layer BatchNorm_14
I0224 07:18:16.090140  1142 layer_factory.hpp:123] Creating layer BatchNorm_14
I0224 07:18:16.090181  1142 layer_factory.hpp:123] Creating layer BatchNorm_14
I0224 07:18:16.090307  1142 net.cpp:190] Setting up BatchNorm_14
I0224 07:18:16.090314  1142 net.cpp:197] Top shape: 1 128 32 64 (262144)
I0224 07:18:16.090319  1142 net.cpp:205] Memory required for data: 257916932
I0224 07:18:16.090325  1142 layer_factory.hpp:123] Creating layer Threshold_14
I0224 07:18:16.090330  1142 net.cpp:140] Creating Layer Threshold_14
I0224 07:18:16.090334  1142 net.cpp:481] Threshold_14 <- BatchNorm_14
I0224 07:18:16.090338  1142 net.cpp:442] Threshold_14 -> BatchNorm_14 (in-place)
I0224 07:18:16.090344  1142 net.cpp:190] Setting up Threshold_14
I0224 07:18:16.090348  1142 net.cpp:197] Top shape: 1 128 32 64 (262144)
I0224 07:18:16.090353  1142 net.cpp:205] Memory required for data: 258965508
I0224 07:18:16.090355  1142 layer_factory.hpp:123] Creating layer BatchNorm_14_fixed
I0224 07:18:16.090360  1142 net.cpp:140] Creating Layer BatchNorm_14_fixed
I0224 07:18:16.090364  1142 net.cpp:481] BatchNorm_14_fixed <- BatchNorm_14
I0224 07:18:16.090368  1142 net.cpp:442] BatchNorm_14_fixed -> BatchNorm_14 (in-place)
I0224 07:18:16.090392  1142 net.cpp:190] Setting up BatchNorm_14_fixed
I0224 07:18:16.090399  1142 net.cpp:197] Top shape: 1 128 32 64 (262144)
I0224 07:18:16.090402  1142 net.cpp:205] Memory required for data: 260014084
I0224 07:18:16.090406  1142 layer_factory.hpp:123] Creating layer BatchNorm_14_BatchNorm_14_fixed_0_split
I0224 07:18:16.090411  1142 net.cpp:140] Creating Layer BatchNorm_14_BatchNorm_14_fixed_0_split
I0224 07:18:16.090415  1142 net.cpp:481] BatchNorm_14_BatchNorm_14_fixed_0_split <- BatchNorm_14
I0224 07:18:16.090420  1142 net.cpp:455] BatchNorm_14_BatchNorm_14_fixed_0_split -> BatchNorm_14_BatchNorm_14_fixed_0_split_0
I0224 07:18:16.090425  1142 net.cpp:455] BatchNorm_14_BatchNorm_14_fixed_0_split -> BatchNorm_14_BatchNorm_14_fixed_0_split_1
I0224 07:18:16.090456  1142 net.cpp:190] Setting up BatchNorm_14_BatchNorm_14_fixed_0_split
I0224 07:18:16.090461  1142 net.cpp:197] Top shape: 1 128 32 64 (262144)
I0224 07:18:16.090466  1142 net.cpp:197] Top shape: 1 128 32 64 (262144)
I0224 07:18:16.090469  1142 net.cpp:205] Memory required for data: 262111236
I0224 07:18:16.090472  1142 layer_factory.hpp:123] Creating layer ConvNd_69
I0224 07:18:16.090479  1142 net.cpp:140] Creating Layer ConvNd_69
I0224 07:18:16.090482  1142 net.cpp:481] ConvNd_69 <- BatchNorm_14_BatchNorm_14_fixed_0_split_0
I0224 07:18:16.090488  1142 net.cpp:455] ConvNd_69 -> ConvNd_69
I0224 07:18:16.090669  1142 layer_factory.hpp:123] Creating layer ConvNd_69
I0224 07:18:16.090912  1142 net.cpp:190] Setting up ConvNd_69
I0224 07:18:16.090920  1142 net.cpp:197] Top shape: 1 25 32 64 (51200)
I0224 07:18:16.090925  1142 net.cpp:205] Memory required for data: 262316036
I0224 07:18:16.090930  1142 layer_factory.hpp:123] Creating layer ConvNd_69_fixed
I0224 07:18:16.090936  1142 net.cpp:140] Creating Layer ConvNd_69_fixed
I0224 07:18:16.090940  1142 net.cpp:481] ConvNd_69_fixed <- ConvNd_69
I0224 07:18:16.090945  1142 net.cpp:442] ConvNd_69_fixed -> ConvNd_69 (in-place)
I0224 07:18:16.090975  1142 net.cpp:190] Setting up ConvNd_69_fixed
I0224 07:18:16.090981  1142 net.cpp:197] Top shape: 1 25 32 64 (51200)
I0224 07:18:16.090986  1142 net.cpp:205] Memory required for data: 262520836
I0224 07:18:16.090991  1142 layer_factory.hpp:123] Creating layer ConvNd_69_ConvNd_69_fixed_0_split
I0224 07:18:16.090996  1142 net.cpp:140] Creating Layer ConvNd_69_ConvNd_69_fixed_0_split
I0224 07:18:16.090999  1142 net.cpp:481] ConvNd_69_ConvNd_69_fixed_0_split <- ConvNd_69
I0224 07:18:16.091004  1142 net.cpp:455] ConvNd_69_ConvNd_69_fixed_0_split -> ConvNd_69_ConvNd_69_fixed_0_split_0
I0224 07:18:16.091012  1142 net.cpp:455] ConvNd_69_ConvNd_69_fixed_0_split -> ConvNd_69_ConvNd_69_fixed_0_split_1
I0224 07:18:16.091017  1142 net.cpp:455] ConvNd_69_ConvNd_69_fixed_0_split -> ConvNd_69_ConvNd_69_fixed_0_split_2
I0224 07:18:16.091022  1142 net.cpp:455] ConvNd_69_ConvNd_69_fixed_0_split -> ConvNd_69_ConvNd_69_fixed_0_split_3
I0224 07:18:16.091029  1142 net.cpp:455] ConvNd_69_ConvNd_69_fixed_0_split -> ConvNd_69_ConvNd_69_fixed_0_split_4
I0224 07:18:16.091111  1142 net.cpp:190] Setting up ConvNd_69_ConvNd_69_fixed_0_split
I0224 07:18:16.091117  1142 net.cpp:197] Top shape: 1 25 32 64 (51200)
I0224 07:18:16.091122  1142 net.cpp:197] Top shape: 1 25 32 64 (51200)
I0224 07:18:16.091126  1142 net.cpp:197] Top shape: 1 25 32 64 (51200)
I0224 07:18:16.091132  1142 net.cpp:197] Top shape: 1 25 32 64 (51200)
I0224 07:18:16.091140  1142 net.cpp:197] Top shape: 1 25 32 64 (51200)
I0224 07:18:16.091146  1142 net.cpp:205] Memory required for data: 263544836
I0224 07:18:16.091153  1142 layer_factory.hpp:123] Creating layer ConvNd_70
I0224 07:18:16.091162  1142 net.cpp:140] Creating Layer ConvNd_70
I0224 07:18:16.091167  1142 net.cpp:481] ConvNd_70 <- ConvNd_69_ConvNd_69_fixed_0_split_0
I0224 07:18:16.091172  1142 net.cpp:455] ConvNd_70 -> ConvNd_70
I0224 07:18:16.091436  1142 layer_factory.hpp:123] Creating layer ConvNd_70
I0224 07:18:16.091820  1142 net.cpp:190] Setting up ConvNd_70
I0224 07:18:16.091830  1142 net.cpp:197] Top shape: 1 28 32 64 (57344)
I0224 07:18:16.091837  1142 net.cpp:205] Memory required for data: 263774212
I0224 07:18:16.091845  1142 layer_factory.hpp:123] Creating layer ConvNd_71
I0224 07:18:16.091856  1142 net.cpp:140] Creating Layer ConvNd_71
I0224 07:18:16.091861  1142 net.cpp:481] ConvNd_71 <- ConvNd_69_ConvNd_69_fixed_0_split_1
I0224 07:18:16.091871  1142 net.cpp:455] ConvNd_71 -> ConvNd_71
I0224 07:18:16.092130  1142 layer_factory.hpp:123] Creating layer ConvNd_71
I0224 07:18:16.092494  1142 net.cpp:190] Setting up ConvNd_71
I0224 07:18:16.092504  1142 net.cpp:197] Top shape: 1 25 32 64 (51200)
I0224 07:18:16.092510  1142 net.cpp:205] Memory required for data: 263979012
I0224 07:18:16.092517  1142 layer_factory.hpp:123] Creating layer ConvNd_71_fixed
I0224 07:18:16.092525  1142 net.cpp:140] Creating Layer ConvNd_71_fixed
I0224 07:18:16.092531  1142 net.cpp:481] ConvNd_71_fixed <- ConvNd_71
I0224 07:18:16.092540  1142 net.cpp:442] ConvNd_71_fixed -> ConvNd_71 (in-place)
I0224 07:18:16.092579  1142 net.cpp:190] Setting up ConvNd_71_fixed
I0224 07:18:16.092587  1142 net.cpp:197] Top shape: 1 25 32 64 (51200)
I0224 07:18:16.092594  1142 net.cpp:205] Memory required for data: 264183812
I0224 07:18:16.092602  1142 layer_factory.hpp:123] Creating layer ConvNd_71_ConvNd_71_fixed_0_split
I0224 07:18:16.092608  1142 net.cpp:140] Creating Layer ConvNd_71_ConvNd_71_fixed_0_split
I0224 07:18:16.092614  1142 net.cpp:481] ConvNd_71_ConvNd_71_fixed_0_split <- ConvNd_71
I0224 07:18:16.092622  1142 net.cpp:455] ConvNd_71_ConvNd_71_fixed_0_split -> ConvNd_71_ConvNd_71_fixed_0_split_0
I0224 07:18:16.092631  1142 net.cpp:455] ConvNd_71_ConvNd_71_fixed_0_split -> ConvNd_71_ConvNd_71_fixed_0_split_1
I0224 07:18:16.092674  1142 net.cpp:190] Setting up ConvNd_71_ConvNd_71_fixed_0_split
I0224 07:18:16.092681  1142 net.cpp:197] Top shape: 1 25 32 64 (51200)
I0224 07:18:16.092689  1142 net.cpp:197] Top shape: 1 25 32 64 (51200)
I0224 07:18:16.092696  1142 net.cpp:205] Memory required for data: 264593412
I0224 07:18:16.092701  1142 layer_factory.hpp:123] Creating layer ConvNd_72
I0224 07:18:16.092711  1142 net.cpp:140] Creating Layer ConvNd_72
I0224 07:18:16.092717  1142 net.cpp:481] ConvNd_72 <- ConvNd_69_ConvNd_69_fixed_0_split_2
I0224 07:18:16.092725  1142 net.cpp:455] ConvNd_72 -> ConvNd_72
I0224 07:18:16.092969  1142 layer_factory.hpp:123] Creating layer ConvNd_72
I0224 07:18:16.093350  1142 net.cpp:190] Setting up ConvNd_72
I0224 07:18:16.093360  1142 net.cpp:197] Top shape: 1 25 32 64 (51200)
I0224 07:18:16.093367  1142 net.cpp:205] Memory required for data: 264798212
I0224 07:18:16.093374  1142 layer_factory.hpp:123] Creating layer ConvNd_72_fixed
I0224 07:18:16.093382  1142 net.cpp:140] Creating Layer ConvNd_72_fixed
I0224 07:18:16.093389  1142 net.cpp:481] ConvNd_72_fixed <- ConvNd_72
I0224 07:18:16.093396  1142 net.cpp:442] ConvNd_72_fixed -> ConvNd_72 (in-place)
I0224 07:18:16.093437  1142 net.cpp:190] Setting up ConvNd_72_fixed
I0224 07:18:16.093446  1142 net.cpp:197] Top shape: 1 25 32 64 (51200)
I0224 07:18:16.093453  1142 net.cpp:205] Memory required for data: 265003012
I0224 07:18:16.093461  1142 layer_factory.hpp:123] Creating layer Add_43
I0224 07:18:16.093468  1142 net.cpp:140] Creating Layer Add_43
I0224 07:18:16.093473  1142 net.cpp:481] Add_43 <- ConvNd_71_ConvNd_71_fixed_0_split_0
I0224 07:18:16.093480  1142 net.cpp:481] Add_43 <- ConvNd_72
I0224 07:18:16.093487  1142 net.cpp:455] Add_43 -> Add_43
I0224 07:18:16.093513  1142 net.cpp:190] Setting up Add_43
I0224 07:18:16.093520  1142 net.cpp:197] Top shape: 1 25 32 64 (51200)
I0224 07:18:16.093528  1142 net.cpp:205] Memory required for data: 265207812
I0224 07:18:16.093533  1142 layer_factory.hpp:123] Creating layer Add_43_fixed
I0224 07:18:16.093540  1142 net.cpp:140] Creating Layer Add_43_fixed
I0224 07:18:16.093546  1142 net.cpp:481] Add_43_fixed <- Add_43
I0224 07:18:16.093554  1142 net.cpp:442] Add_43_fixed -> Add_43 (in-place)
I0224 07:18:16.093596  1142 net.cpp:190] Setting up Add_43_fixed
I0224 07:18:16.093605  1142 net.cpp:197] Top shape: 1 25 32 64 (51200)
I0224 07:18:16.093612  1142 net.cpp:205] Memory required for data: 265412612
I0224 07:18:16.093621  1142 layer_factory.hpp:123] Creating layer Add_43_Add_43_fixed_0_split
I0224 07:18:16.093627  1142 net.cpp:140] Creating Layer Add_43_Add_43_fixed_0_split
I0224 07:18:16.093633  1142 net.cpp:481] Add_43_Add_43_fixed_0_split <- Add_43
I0224 07:18:16.093641  1142 net.cpp:455] Add_43_Add_43_fixed_0_split -> Add_43_Add_43_fixed_0_split_0
I0224 07:18:16.093649  1142 net.cpp:455] Add_43_Add_43_fixed_0_split -> Add_43_Add_43_fixed_0_split_1
I0224 07:18:16.093689  1142 net.cpp:190] Setting up Add_43_Add_43_fixed_0_split
I0224 07:18:16.093698  1142 net.cpp:197] Top shape: 1 25 32 64 (51200)
I0224 07:18:16.093705  1142 net.cpp:197] Top shape: 1 25 32 64 (51200)
I0224 07:18:16.093713  1142 net.cpp:205] Memory required for data: 265822212
I0224 07:18:16.093717  1142 layer_factory.hpp:123] Creating layer ConvNd_73
I0224 07:18:16.093729  1142 net.cpp:140] Creating Layer ConvNd_73
I0224 07:18:16.093734  1142 net.cpp:481] ConvNd_73 <- ConvNd_69_ConvNd_69_fixed_0_split_3
I0224 07:18:16.093742  1142 net.cpp:455] ConvNd_73 -> ConvNd_73
I0224 07:18:16.093989  1142 layer_factory.hpp:123] Creating layer ConvNd_73
I0224 07:18:16.094338  1142 net.cpp:190] Setting up ConvNd_73
I0224 07:18:16.094347  1142 net.cpp:197] Top shape: 1 25 32 64 (51200)
I0224 07:18:16.094354  1142 net.cpp:205] Memory required for data: 266027012
I0224 07:18:16.094362  1142 layer_factory.hpp:123] Creating layer ConvNd_73_fixed
I0224 07:18:16.094370  1142 net.cpp:140] Creating Layer ConvNd_73_fixed
I0224 07:18:16.094375  1142 net.cpp:481] ConvNd_73_fixed <- ConvNd_73
I0224 07:18:16.094383  1142 net.cpp:442] ConvNd_73_fixed -> ConvNd_73 (in-place)
I0224 07:18:16.094421  1142 net.cpp:190] Setting up ConvNd_73_fixed
I0224 07:18:16.094429  1142 net.cpp:197] Top shape: 1 25 32 64 (51200)
I0224 07:18:16.094436  1142 net.cpp:205] Memory required for data: 266231812
I0224 07:18:16.094444  1142 layer_factory.hpp:123] Creating layer Add_44
I0224 07:18:16.094451  1142 net.cpp:140] Creating Layer Add_44
I0224 07:18:16.094457  1142 net.cpp:481] Add_44 <- Add_43_Add_43_fixed_0_split_0
I0224 07:18:16.094463  1142 net.cpp:481] Add_44 <- ConvNd_73
I0224 07:18:16.094471  1142 net.cpp:455] Add_44 -> Add_44
I0224 07:18:16.094496  1142 net.cpp:190] Setting up Add_44
I0224 07:18:16.094504  1142 net.cpp:197] Top shape: 1 25 32 64 (51200)
I0224 07:18:16.094511  1142 net.cpp:205] Memory required for data: 266436612
I0224 07:18:16.094517  1142 layer_factory.hpp:123] Creating layer Add_44_fixed
I0224 07:18:16.094524  1142 net.cpp:140] Creating Layer Add_44_fixed
I0224 07:18:16.094529  1142 net.cpp:481] Add_44_fixed <- Add_44
I0224 07:18:16.094537  1142 net.cpp:442] Add_44_fixed -> Add_44 (in-place)
I0224 07:18:16.094575  1142 net.cpp:190] Setting up Add_44_fixed
I0224 07:18:16.094583  1142 net.cpp:197] Top shape: 1 25 32 64 (51200)
I0224 07:18:16.094590  1142 net.cpp:205] Memory required for data: 266641412
I0224 07:18:16.094597  1142 layer_factory.hpp:123] Creating layer Add_44_Add_44_fixed_0_split
I0224 07:18:16.094605  1142 net.cpp:140] Creating Layer Add_44_Add_44_fixed_0_split
I0224 07:18:16.094610  1142 net.cpp:481] Add_44_Add_44_fixed_0_split <- Add_44
I0224 07:18:16.094617  1142 net.cpp:455] Add_44_Add_44_fixed_0_split -> Add_44_Add_44_fixed_0_split_0
I0224 07:18:16.094626  1142 net.cpp:455] Add_44_Add_44_fixed_0_split -> Add_44_Add_44_fixed_0_split_1
I0224 07:18:16.094666  1142 net.cpp:190] Setting up Add_44_Add_44_fixed_0_split
I0224 07:18:16.094673  1142 net.cpp:197] Top shape: 1 25 32 64 (51200)
I0224 07:18:16.094681  1142 net.cpp:197] Top shape: 1 25 32 64 (51200)
I0224 07:18:16.094687  1142 net.cpp:205] Memory required for data: 267051012
I0224 07:18:16.094692  1142 layer_factory.hpp:123] Creating layer ConvNd_74
I0224 07:18:16.094703  1142 net.cpp:140] Creating Layer ConvNd_74
I0224 07:18:16.094709  1142 net.cpp:481] ConvNd_74 <- ConvNd_69_ConvNd_69_fixed_0_split_4
I0224 07:18:16.094717  1142 net.cpp:455] ConvNd_74 -> ConvNd_74
I0224 07:18:16.094960  1142 layer_factory.hpp:123] Creating layer ConvNd_74
I0224 07:18:16.096266  1142 net.cpp:190] Setting up ConvNd_74
I0224 07:18:16.096279  1142 net.cpp:197] Top shape: 1 25 32 64 (51200)
I0224 07:18:16.096288  1142 net.cpp:205] Memory required for data: 267255812
I0224 07:18:16.096297  1142 layer_factory.hpp:123] Creating layer ConvNd_74_fixed
I0224 07:18:16.096305  1142 net.cpp:140] Creating Layer ConvNd_74_fixed
I0224 07:18:16.096312  1142 net.cpp:481] ConvNd_74_fixed <- ConvNd_74
I0224 07:18:16.096319  1142 net.cpp:442] ConvNd_74_fixed -> ConvNd_74 (in-place)
I0224 07:18:16.096362  1142 net.cpp:190] Setting up ConvNd_74_fixed
I0224 07:18:16.096371  1142 net.cpp:197] Top shape: 1 25 32 64 (51200)
I0224 07:18:16.096379  1142 net.cpp:205] Memory required for data: 267460612
I0224 07:18:16.096386  1142 layer_factory.hpp:123] Creating layer Add_45
I0224 07:18:16.096393  1142 net.cpp:140] Creating Layer Add_45
I0224 07:18:16.096400  1142 net.cpp:481] Add_45 <- Add_44_Add_44_fixed_0_split_0
I0224 07:18:16.096406  1142 net.cpp:481] Add_45 <- ConvNd_74
I0224 07:18:16.096413  1142 net.cpp:455] Add_45 -> Add_45
I0224 07:18:16.096439  1142 net.cpp:190] Setting up Add_45
I0224 07:18:16.096447  1142 net.cpp:197] Top shape: 1 25 32 64 (51200)
I0224 07:18:16.096454  1142 net.cpp:205] Memory required for data: 267665412
I0224 07:18:16.096460  1142 layer_factory.hpp:123] Creating layer Concat_14
I0224 07:18:16.096468  1142 net.cpp:140] Creating Layer Concat_14
I0224 07:18:16.096474  1142 net.cpp:481] Concat_14 <- ConvNd_70
I0224 07:18:16.096480  1142 net.cpp:481] Concat_14 <- ConvNd_71_ConvNd_71_fixed_0_split_1
I0224 07:18:16.096487  1142 net.cpp:481] Concat_14 <- Add_43_Add_43_fixed_0_split_1
I0224 07:18:16.096493  1142 net.cpp:481] Concat_14 <- Add_44_Add_44_fixed_0_split_1
I0224 07:18:16.096498  1142 net.cpp:481] Concat_14 <- Add_45
I0224 07:18:16.096505  1142 net.cpp:455] Concat_14 -> Concat_14
I0224 07:18:16.096532  1142 net.cpp:190] Setting up Concat_14
I0224 07:18:16.096540  1142 net.cpp:197] Top shape: 1 128 32 64 (262144)
I0224 07:18:16.096547  1142 net.cpp:205] Memory required for data: 268713988
I0224 07:18:16.096552  1142 layer_factory.hpp:123] Creating layer Concat_14_fixed
I0224 07:18:16.096560  1142 net.cpp:140] Creating Layer Concat_14_fixed
I0224 07:18:16.096565  1142 net.cpp:481] Concat_14_fixed <- Concat_14
I0224 07:18:16.096572  1142 net.cpp:442] Concat_14_fixed -> Concat_14 (in-place)
I0224 07:18:16.096611  1142 net.cpp:190] Setting up Concat_14_fixed
I0224 07:18:16.096618  1142 net.cpp:197] Top shape: 1 128 32 64 (262144)
I0224 07:18:16.096626  1142 net.cpp:205] Memory required for data: 269762564
I0224 07:18:16.096633  1142 layer_factory.hpp:123] Creating layer Add_46
I0224 07:18:16.096640  1142 net.cpp:140] Creating Layer Add_46
I0224 07:18:16.096647  1142 net.cpp:481] Add_46 <- BatchNorm_14_BatchNorm_14_fixed_0_split_1
I0224 07:18:16.096652  1142 net.cpp:481] Add_46 <- Concat_14
I0224 07:18:16.096660  1142 net.cpp:455] Add_46 -> Add_46
I0224 07:18:16.096684  1142 net.cpp:190] Setting up Add_46
I0224 07:18:16.096693  1142 net.cpp:197] Top shape: 1 128 32 64 (262144)
I0224 07:18:16.096700  1142 net.cpp:205] Memory required for data: 270811140
I0224 07:18:16.096705  1142 layer_factory.hpp:123] Creating layer Add_46_fixed
I0224 07:18:16.096712  1142 net.cpp:140] Creating Layer Add_46_fixed
I0224 07:18:16.096717  1142 net.cpp:481] Add_46_fixed <- Add_46
I0224 07:18:16.096724  1142 net.cpp:442] Add_46_fixed -> Add_46 (in-place)
I0224 07:18:16.096762  1142 net.cpp:190] Setting up Add_46_fixed
I0224 07:18:16.096771  1142 net.cpp:197] Top shape: 1 128 32 64 (262144)
I0224 07:18:16.096778  1142 net.cpp:205] Memory required for data: 271859716
I0224 07:18:16.096786  1142 layer_factory.hpp:123] Creating layer BatchNorm_15
I0224 07:18:16.096797  1142 net.cpp:140] Creating Layer BatchNorm_15
I0224 07:18:16.096803  1142 net.cpp:481] BatchNorm_15 <- Add_46
I0224 07:18:16.096812  1142 net.cpp:455] BatchNorm_15 -> BatchNorm_15
I0224 07:18:16.096853  1142 layer_factory.hpp:123] Creating layer BatchNorm_15
I0224 07:18:16.096932  1142 layer_factory.hpp:123] Creating layer BatchNorm_15
I0224 07:18:16.096971  1142 layer_factory.hpp:123] Creating layer BatchNorm_15
I0224 07:18:16.097100  1142 net.cpp:190] Setting up BatchNorm_15
I0224 07:18:16.097108  1142 net.cpp:197] Top shape: 1 128 32 64 (262144)
I0224 07:18:16.097116  1142 net.cpp:205] Memory required for data: 272908292
I0224 07:18:16.097126  1142 layer_factory.hpp:123] Creating layer Threshold_15
I0224 07:18:16.097133  1142 net.cpp:140] Creating Layer Threshold_15
I0224 07:18:16.097138  1142 net.cpp:481] Threshold_15 <- BatchNorm_15
I0224 07:18:16.097146  1142 net.cpp:442] Threshold_15 -> BatchNorm_15 (in-place)
I0224 07:18:16.097154  1142 net.cpp:190] Setting up Threshold_15
I0224 07:18:16.097159  1142 net.cpp:197] Top shape: 1 128 32 64 (262144)
I0224 07:18:16.097167  1142 net.cpp:205] Memory required for data: 273956868
I0224 07:18:16.097172  1142 layer_factory.hpp:123] Creating layer Concat_15
I0224 07:18:16.097178  1142 net.cpp:140] Creating Layer Concat_15
I0224 07:18:16.097184  1142 net.cpp:481] Concat_15 <- BatchNorm_7_BatchNorm_7_fixed_0_split_2
I0224 07:18:16.097190  1142 net.cpp:481] Concat_15 <- BatchNorm_15
I0224 07:18:16.097198  1142 net.cpp:455] Concat_15 -> Concat_15
I0224 07:18:16.097218  1142 net.cpp:190] Setting up Concat_15
I0224 07:18:16.097226  1142 net.cpp:197] Top shape: 1 256 32 64 (524288)
I0224 07:18:16.097234  1142 net.cpp:205] Memory required for data: 276054020
I0224 07:18:16.097239  1142 layer_factory.hpp:123] Creating layer Concat_15_fixed
I0224 07:18:16.097246  1142 net.cpp:140] Creating Layer Concat_15_fixed
I0224 07:18:16.097251  1142 net.cpp:481] Concat_15_fixed <- Concat_15
I0224 07:18:16.097259  1142 net.cpp:442] Concat_15_fixed -> Concat_15 (in-place)
I0224 07:18:16.097297  1142 net.cpp:190] Setting up Concat_15_fixed
I0224 07:18:16.097306  1142 net.cpp:197] Top shape: 1 256 32 64 (524288)
I0224 07:18:16.097312  1142 net.cpp:205] Memory required for data: 278151172
I0224 07:18:16.097333  1142 layer_factory.hpp:123] Creating layer BatchNorm_16
I0224 07:18:16.097342  1142 net.cpp:140] Creating Layer BatchNorm_16
I0224 07:18:16.097347  1142 net.cpp:481] BatchNorm_16 <- Concat_15
I0224 07:18:16.097355  1142 net.cpp:455] BatchNorm_16 -> BatchNorm_16
I0224 07:18:16.097398  1142 layer_factory.hpp:123] Creating layer BatchNorm_16
I0224 07:18:16.097474  1142 layer_factory.hpp:123] Creating layer BatchNorm_16
I0224 07:18:16.097513  1142 layer_factory.hpp:123] Creating layer BatchNorm_16
I0224 07:18:16.097645  1142 net.cpp:190] Setting up BatchNorm_16
I0224 07:18:16.097653  1142 net.cpp:197] Top shape: 1 256 32 64 (524288)
I0224 07:18:16.097661  1142 net.cpp:205] Memory required for data: 280248324
I0224 07:18:16.097669  1142 layer_factory.hpp:123] Creating layer Threshold_16
I0224 07:18:16.097676  1142 net.cpp:140] Creating Layer Threshold_16
I0224 07:18:16.097682  1142 net.cpp:481] Threshold_16 <- BatchNorm_16
I0224 07:18:16.097689  1142 net.cpp:442] Threshold_16 -> BatchNorm_16 (in-place)
I0224 07:18:16.097697  1142 net.cpp:190] Setting up Threshold_16
I0224 07:18:16.097702  1142 net.cpp:197] Top shape: 1 256 32 64 (524288)
I0224 07:18:16.097709  1142 net.cpp:205] Memory required for data: 282345476
I0224 07:18:16.097714  1142 layer_factory.hpp:123] Creating layer BatchNorm_16_fixed
I0224 07:18:16.097721  1142 net.cpp:140] Creating Layer BatchNorm_16_fixed
I0224 07:18:16.097728  1142 net.cpp:481] BatchNorm_16_fixed <- BatchNorm_16
I0224 07:18:16.097734  1142 net.cpp:442] BatchNorm_16_fixed -> BatchNorm_16 (in-place)
I0224 07:18:16.097766  1142 net.cpp:190] Setting up BatchNorm_16_fixed
I0224 07:18:16.097774  1142 net.cpp:197] Top shape: 1 256 32 64 (524288)
I0224 07:18:16.097781  1142 net.cpp:205] Memory required for data: 284442628
I0224 07:18:16.097788  1142 layer_factory.hpp:123] Creating layer ConvNd_75
I0224 07:18:16.097798  1142 net.cpp:140] Creating Layer ConvNd_75
I0224 07:18:16.097805  1142 net.cpp:481] ConvNd_75 <- BatchNorm_16
I0224 07:18:16.097812  1142 net.cpp:455] ConvNd_75 -> BatchNorm_17
I0224 07:18:16.098088  1142 layer_factory.hpp:123] Creating layer ConvNd_75
I0224 07:18:16.098511  1142 net.cpp:190] Setting up ConvNd_75
I0224 07:18:16.098521  1142 net.cpp:197] Top shape: 1 19 32 64 (38912)
I0224 07:18:16.098529  1142 net.cpp:205] Memory required for data: 284598276
I0224 07:18:16.098539  1142 layer_factory.hpp:123] Creating layer BatchNorm_17_fixed
I0224 07:18:16.098547  1142 net.cpp:140] Creating Layer BatchNorm_17_fixed
I0224 07:18:16.098554  1142 net.cpp:481] BatchNorm_17_fixed <- BatchNorm_17
I0224 07:18:16.098562  1142 net.cpp:442] BatchNorm_17_fixed -> BatchNorm_17 (in-place)
I0224 07:18:16.098595  1142 net.cpp:190] Setting up BatchNorm_17_fixed
I0224 07:18:16.098603  1142 net.cpp:197] Top shape: 1 19 32 64 (38912)
I0224 07:18:16.098610  1142 net.cpp:205] Memory required for data: 284753924
I0224 07:18:16.098618  1142 layer_factory.hpp:123] Creating layer ConvNd_76
I0224 07:18:16.098628  1142 net.cpp:140] Creating Layer ConvNd_76
I0224 07:18:16.098632  1142 net.cpp:481] ConvNd_76 <- BatchNorm_17
I0224 07:18:16.098641  1142 net.cpp:455] ConvNd_76 -> ConvNd_76
I0224 07:18:16.098824  1142 layer_factory.hpp:123] Creating layer ConvNd_76
I0224 07:18:16.099104  1142 net.cpp:190] Setting up ConvNd_76
I0224 07:18:16.099112  1142 net.cpp:197] Top shape: 1 19 64 128 (155648)
I0224 07:18:16.099120  1142 net.cpp:205] Memory required for data: 285376516
I0224 07:18:16.099128  1142 layer_factory.hpp:123] Creating layer 
I0224 07:18:16.099134  1142 net.cpp:140] Creating Layer 
I0224 07:18:16.099140  1142 net.cpp:481]  <- ConvNd_20
I0224 07:18:16.099146  1142 net.cpp:481]  <- ConvNd_76
I0224 07:18:16.099153  1142 net.cpp:455]  -> 
I0224 07:18:16.099179  1142 net.cpp:190] Setting up 
I0224 07:18:16.099186  1142 net.cpp:197] Top shape: 1 38 64 128 (311296)
I0224 07:18:16.099195  1142 net.cpp:205] Memory required for data: 286621700
I0224 07:18:16.099200  1142 layer_factory.hpp:123] Creating layer _fixed
I0224 07:18:16.099206  1142 net.cpp:140] Creating Layer _fixed
I0224 07:18:16.099211  1142 net.cpp:481] _fixed <- 
I0224 07:18:16.099218  1142 net.cpp:442] _fixed ->  (in-place)
I0224 07:18:16.099256  1142 net.cpp:190] Setting up _fixed
I0224 07:18:16.099264  1142 net.cpp:197] Top shape: 1 38 64 128 (311296)
I0224 07:18:16.099272  1142 net.cpp:205] Memory required for data: 287866884
I0224 07:18:16.099278  1142 layer_factory.hpp:123] Creating layer BatchNorm_18
I0224 07:18:16.099287  1142 net.cpp:140] Creating Layer BatchNorm_18
I0224 07:18:16.099292  1142 net.cpp:481] BatchNorm_18 <- 
I0224 07:18:16.099300  1142 net.cpp:455] BatchNorm_18 -> BatchNorm_18
I0224 07:18:16.099345  1142 layer_factory.hpp:123] Creating layer BatchNorm_18
I0224 07:18:16.099436  1142 layer_factory.hpp:123] Creating layer BatchNorm_18
I0224 07:18:16.099478  1142 layer_factory.hpp:123] Creating layer BatchNorm_18
I0224 07:18:16.099629  1142 net.cpp:190] Setting up BatchNorm_18
I0224 07:18:16.099638  1142 net.cpp:197] Top shape: 1 38 64 128 (311296)
I0224 07:18:16.099647  1142 net.cpp:205] Memory required for data: 289112068
I0224 07:18:16.099655  1142 layer_factory.hpp:123] Creating layer Threshold_17
I0224 07:18:16.099663  1142 net.cpp:140] Creating Layer Threshold_17
I0224 07:18:16.099668  1142 net.cpp:481] Threshold_17 <- BatchNorm_18
I0224 07:18:16.099674  1142 net.cpp:442] Threshold_17 -> BatchNorm_18 (in-place)
I0224 07:18:16.099684  1142 net.cpp:190] Setting up Threshold_17
I0224 07:18:16.099689  1142 net.cpp:197] Top shape: 1 38 64 128 (311296)
I0224 07:18:16.099695  1142 net.cpp:205] Memory required for data: 290357252
I0224 07:18:16.099700  1142 layer_factory.hpp:123] Creating layer BatchNorm_18_fixed
I0224 07:18:16.099707  1142 net.cpp:140] Creating Layer BatchNorm_18_fixed
I0224 07:18:16.099712  1142 net.cpp:481] BatchNorm_18_fixed <- BatchNorm_18
I0224 07:18:16.099720  1142 net.cpp:442] BatchNorm_18_fixed -> BatchNorm_18 (in-place)
I0224 07:18:16.099752  1142 net.cpp:190] Setting up BatchNorm_18_fixed
I0224 07:18:16.099761  1142 net.cpp:197] Top shape: 1 38 64 128 (311296)
I0224 07:18:16.099767  1142 net.cpp:205] Memory required for data: 291602436
I0224 07:18:16.099774  1142 layer_factory.hpp:123] Creating layer ConvNd_77
I0224 07:18:16.099783  1142 net.cpp:140] Creating Layer ConvNd_77
I0224 07:18:16.099789  1142 net.cpp:481] ConvNd_77 <- BatchNorm_18
I0224 07:18:16.099797  1142 net.cpp:455] ConvNd_77 -> ConvNd_77
I0224 07:18:16.099961  1142 layer_factory.hpp:123] Creating layer ConvNd_77
I0224 07:18:16.100231  1142 net.cpp:190] Setting up ConvNd_77
I0224 07:18:16.100240  1142 net.cpp:197] Top shape: 1 4 64 128 (32768)
I0224 07:18:16.100248  1142 net.cpp:205] Memory required for data: 291733508
I0224 07:18:16.100256  1142 layer_factory.hpp:123] Creating layer ConvNd_77_fixed
I0224 07:18:16.100265  1142 net.cpp:140] Creating Layer ConvNd_77_fixed
I0224 07:18:16.100270  1142 net.cpp:481] ConvNd_77_fixed <- ConvNd_77
I0224 07:18:16.100277  1142 net.cpp:442] ConvNd_77_fixed -> ConvNd_77 (in-place)
I0224 07:18:16.100317  1142 net.cpp:190] Setting up ConvNd_77_fixed
I0224 07:18:16.100324  1142 net.cpp:197] Top shape: 1 4 64 128 (32768)
I0224 07:18:16.100332  1142 net.cpp:205] Memory required for data: 291864580
I0224 07:18:16.100339  1142 layer_factory.hpp:123] Creating layer ConvNd_77_ConvNd_77_fixed_0_split
I0224 07:18:16.100347  1142 net.cpp:140] Creating Layer ConvNd_77_ConvNd_77_fixed_0_split
I0224 07:18:16.100353  1142 net.cpp:481] ConvNd_77_ConvNd_77_fixed_0_split <- ConvNd_77
I0224 07:18:16.100361  1142 net.cpp:455] ConvNd_77_ConvNd_77_fixed_0_split -> ConvNd_77_ConvNd_77_fixed_0_split_0
I0224 07:18:16.100370  1142 net.cpp:455] ConvNd_77_ConvNd_77_fixed_0_split -> ConvNd_77_ConvNd_77_fixed_0_split_1
I0224 07:18:16.100379  1142 net.cpp:455] ConvNd_77_ConvNd_77_fixed_0_split -> ConvNd_77_ConvNd_77_fixed_0_split_2
I0224 07:18:16.100389  1142 net.cpp:455] ConvNd_77_ConvNd_77_fixed_0_split -> ConvNd_77_ConvNd_77_fixed_0_split_3
I0224 07:18:16.100396  1142 net.cpp:455] ConvNd_77_ConvNd_77_fixed_0_split -> ConvNd_77_ConvNd_77_fixed_0_split_4
I0224 07:18:16.100473  1142 net.cpp:190] Setting up ConvNd_77_ConvNd_77_fixed_0_split
I0224 07:18:16.100481  1142 net.cpp:197] Top shape: 1 4 64 128 (32768)
I0224 07:18:16.100488  1142 net.cpp:197] Top shape: 1 4 64 128 (32768)
I0224 07:18:16.100495  1142 net.cpp:197] Top shape: 1 4 64 128 (32768)
I0224 07:18:16.100502  1142 net.cpp:197] Top shape: 1 4 64 128 (32768)
I0224 07:18:16.100509  1142 net.cpp:197] Top shape: 1 4 64 128 (32768)
I0224 07:18:16.100517  1142 net.cpp:205] Memory required for data: 292519940
I0224 07:18:16.100522  1142 layer_factory.hpp:123] Creating layer ConvNd_78
I0224 07:18:16.100533  1142 net.cpp:140] Creating Layer ConvNd_78
I0224 07:18:16.100538  1142 net.cpp:481] ConvNd_78 <- ConvNd_77_ConvNd_77_fixed_0_split_0
I0224 07:18:16.100546  1142 net.cpp:455] ConvNd_78 -> ConvNd_78
I0224 07:18:16.100723  1142 layer_factory.hpp:123] Creating layer ConvNd_78
I0224 07:18:16.100994  1142 net.cpp:190] Setting up ConvNd_78
I0224 07:18:16.101002  1142 net.cpp:197] Top shape: 1 4 64 128 (32768)
I0224 07:18:16.101011  1142 net.cpp:205] Memory required for data: 292651012
I0224 07:18:16.101018  1142 layer_factory.hpp:123] Creating layer ConvNd_79
I0224 07:18:16.101028  1142 net.cpp:140] Creating Layer ConvNd_79
I0224 07:18:16.101034  1142 net.cpp:481] ConvNd_79 <- ConvNd_77_ConvNd_77_fixed_0_split_1
I0224 07:18:16.101042  1142 net.cpp:455] ConvNd_79 -> ConvNd_79
I0224 07:18:16.101215  1142 layer_factory.hpp:123] Creating layer ConvNd_79
I0224 07:18:16.101488  1142 net.cpp:190] Setting up ConvNd_79
I0224 07:18:16.101498  1142 net.cpp:197] Top shape: 1 4 64 128 (32768)
I0224 07:18:16.101506  1142 net.cpp:205] Memory required for data: 292782084
I0224 07:18:16.101513  1142 layer_factory.hpp:123] Creating layer ConvNd_79_fixed
I0224 07:18:16.101521  1142 net.cpp:140] Creating Layer ConvNd_79_fixed
I0224 07:18:16.101527  1142 net.cpp:481] ConvNd_79_fixed <- ConvNd_79
I0224 07:18:16.101534  1142 net.cpp:442] ConvNd_79_fixed -> ConvNd_79 (in-place)
I0224 07:18:16.101573  1142 net.cpp:190] Setting up ConvNd_79_fixed
I0224 07:18:16.101581  1142 net.cpp:197] Top shape: 1 4 64 128 (32768)
I0224 07:18:16.101588  1142 net.cpp:205] Memory required for data: 292913156
I0224 07:18:16.101595  1142 layer_factory.hpp:123] Creating layer ConvNd_79_ConvNd_79_fixed_0_split
I0224 07:18:16.101603  1142 net.cpp:140] Creating Layer ConvNd_79_ConvNd_79_fixed_0_split
I0224 07:18:16.101608  1142 net.cpp:481] ConvNd_79_ConvNd_79_fixed_0_split <- ConvNd_79
I0224 07:18:16.101616  1142 net.cpp:455] ConvNd_79_ConvNd_79_fixed_0_split -> ConvNd_79_ConvNd_79_fixed_0_split_0
I0224 07:18:16.101625  1142 net.cpp:455] ConvNd_79_ConvNd_79_fixed_0_split -> ConvNd_79_ConvNd_79_fixed_0_split_1
I0224 07:18:16.101665  1142 net.cpp:190] Setting up ConvNd_79_ConvNd_79_fixed_0_split
I0224 07:18:16.101672  1142 net.cpp:197] Top shape: 1 4 64 128 (32768)
I0224 07:18:16.101680  1142 net.cpp:197] Top shape: 1 4 64 128 (32768)
I0224 07:18:16.101687  1142 net.cpp:205] Memory required for data: 293175300
I0224 07:18:16.101692  1142 layer_factory.hpp:123] Creating layer ConvNd_80
I0224 07:18:16.101702  1142 net.cpp:140] Creating Layer ConvNd_80
I0224 07:18:16.101708  1142 net.cpp:481] ConvNd_80 <- ConvNd_77_ConvNd_77_fixed_0_split_2
I0224 07:18:16.101716  1142 net.cpp:455] ConvNd_80 -> ConvNd_80
I0224 07:18:16.101891  1142 layer_factory.hpp:123] Creating layer ConvNd_80
I0224 07:18:16.102171  1142 net.cpp:190] Setting up ConvNd_80
I0224 07:18:16.102180  1142 net.cpp:197] Top shape: 1 4 64 128 (32768)
I0224 07:18:16.102187  1142 net.cpp:205] Memory required for data: 293306372
I0224 07:18:16.102195  1142 layer_factory.hpp:123] Creating layer ConvNd_80_fixed
I0224 07:18:16.102202  1142 net.cpp:140] Creating Layer ConvNd_80_fixed
I0224 07:18:16.102208  1142 net.cpp:481] ConvNd_80_fixed <- ConvNd_80
I0224 07:18:16.102216  1142 net.cpp:442] ConvNd_80_fixed -> ConvNd_80 (in-place)
I0224 07:18:16.102255  1142 net.cpp:190] Setting up ConvNd_80_fixed
I0224 07:18:16.102263  1142 net.cpp:197] Top shape: 1 4 64 128 (32768)
I0224 07:18:16.102272  1142 net.cpp:205] Memory required for data: 293437444
I0224 07:18:16.102277  1142 layer_factory.hpp:123] Creating layer Add_47
I0224 07:18:16.102285  1142 net.cpp:140] Creating Layer Add_47
I0224 07:18:16.102291  1142 net.cpp:481] Add_47 <- ConvNd_79_ConvNd_79_fixed_0_split_0
I0224 07:18:16.102298  1142 net.cpp:481] Add_47 <- ConvNd_80
I0224 07:18:16.102304  1142 net.cpp:455] Add_47 -> Add_47
I0224 07:18:16.102329  1142 net.cpp:190] Setting up Add_47
I0224 07:18:16.102335  1142 net.cpp:197] Top shape: 1 4 64 128 (32768)
I0224 07:18:16.102342  1142 net.cpp:205] Memory required for data: 293568516
I0224 07:18:16.102349  1142 layer_factory.hpp:123] Creating layer Add_47_fixed
I0224 07:18:16.102356  1142 net.cpp:140] Creating Layer Add_47_fixed
I0224 07:18:16.102361  1142 net.cpp:481] Add_47_fixed <- Add_47
I0224 07:18:16.102368  1142 net.cpp:442] Add_47_fixed -> Add_47 (in-place)
I0224 07:18:16.102409  1142 net.cpp:190] Setting up Add_47_fixed
I0224 07:18:16.102417  1142 net.cpp:197] Top shape: 1 4 64 128 (32768)
I0224 07:18:16.102424  1142 net.cpp:205] Memory required for data: 293699588
I0224 07:18:16.102432  1142 layer_factory.hpp:123] Creating layer Add_47_Add_47_fixed_0_split
I0224 07:18:16.102439  1142 net.cpp:140] Creating Layer Add_47_Add_47_fixed_0_split
I0224 07:18:16.102445  1142 net.cpp:481] Add_47_Add_47_fixed_0_split <- Add_47
I0224 07:18:16.102452  1142 net.cpp:455] Add_47_Add_47_fixed_0_split -> Add_47_Add_47_fixed_0_split_0
I0224 07:18:16.102461  1142 net.cpp:455] Add_47_Add_47_fixed_0_split -> Add_47_Add_47_fixed_0_split_1
I0224 07:18:16.102500  1142 net.cpp:190] Setting up Add_47_Add_47_fixed_0_split
I0224 07:18:16.102509  1142 net.cpp:197] Top shape: 1 4 64 128 (32768)
I0224 07:18:16.102515  1142 net.cpp:197] Top shape: 1 4 64 128 (32768)
I0224 07:18:16.102522  1142 net.cpp:205] Memory required for data: 293961732
I0224 07:18:16.102528  1142 layer_factory.hpp:123] Creating layer ConvNd_81
I0224 07:18:16.102538  1142 net.cpp:140] Creating Layer ConvNd_81
I0224 07:18:16.102543  1142 net.cpp:481] ConvNd_81 <- ConvNd_77_ConvNd_77_fixed_0_split_3
I0224 07:18:16.102551  1142 net.cpp:455] ConvNd_81 -> ConvNd_81
I0224 07:18:16.102720  1142 layer_factory.hpp:123] Creating layer ConvNd_81
I0224 07:18:16.102985  1142 net.cpp:190] Setting up ConvNd_81
I0224 07:18:16.102993  1142 net.cpp:197] Top shape: 1 4 64 128 (32768)
I0224 07:18:16.103001  1142 net.cpp:205] Memory required for data: 294092804
I0224 07:18:16.103008  1142 layer_factory.hpp:123] Creating layer ConvNd_81_fixed
I0224 07:18:16.103016  1142 net.cpp:140] Creating Layer ConvNd_81_fixed
I0224 07:18:16.103021  1142 net.cpp:481] ConvNd_81_fixed <- ConvNd_81
I0224 07:18:16.103029  1142 net.cpp:442] ConvNd_81_fixed -> ConvNd_81 (in-place)
I0224 07:18:16.103067  1142 net.cpp:190] Setting up ConvNd_81_fixed
I0224 07:18:16.103075  1142 net.cpp:197] Top shape: 1 4 64 128 (32768)
I0224 07:18:16.103082  1142 net.cpp:205] Memory required for data: 294223876
I0224 07:18:16.103089  1142 layer_factory.hpp:123] Creating layer Add_48
I0224 07:18:16.103096  1142 net.cpp:140] Creating Layer Add_48
I0224 07:18:16.103102  1142 net.cpp:481] Add_48 <- Add_47_Add_47_fixed_0_split_0
I0224 07:18:16.103108  1142 net.cpp:481] Add_48 <- ConvNd_81
I0224 07:18:16.103116  1142 net.cpp:455] Add_48 -> Add_48
I0224 07:18:16.103140  1142 net.cpp:190] Setting up Add_48
I0224 07:18:16.103147  1142 net.cpp:197] Top shape: 1 4 64 128 (32768)
I0224 07:18:16.103153  1142 net.cpp:205] Memory required for data: 294354948
I0224 07:18:16.103158  1142 layer_factory.hpp:123] Creating layer Add_48_fixed
I0224 07:18:16.103166  1142 net.cpp:140] Creating Layer Add_48_fixed
I0224 07:18:16.103171  1142 net.cpp:481] Add_48_fixed <- Add_48
I0224 07:18:16.103178  1142 net.cpp:442] Add_48_fixed -> Add_48 (in-place)
I0224 07:18:16.103215  1142 net.cpp:190] Setting up Add_48_fixed
I0224 07:18:16.103224  1142 net.cpp:197] Top shape: 1 4 64 128 (32768)
I0224 07:18:16.103230  1142 net.cpp:205] Memory required for data: 294486020
I0224 07:18:16.103237  1142 layer_factory.hpp:123] Creating layer Add_48_Add_48_fixed_0_split
I0224 07:18:16.103245  1142 net.cpp:140] Creating Layer Add_48_Add_48_fixed_0_split
I0224 07:18:16.103250  1142 net.cpp:481] Add_48_Add_48_fixed_0_split <- Add_48
I0224 07:18:16.103258  1142 net.cpp:455] Add_48_Add_48_fixed_0_split -> Add_48_Add_48_fixed_0_split_0
I0224 07:18:16.103266  1142 net.cpp:455] Add_48_Add_48_fixed_0_split -> Add_48_Add_48_fixed_0_split_1
I0224 07:18:16.103307  1142 net.cpp:190] Setting up Add_48_Add_48_fixed_0_split
I0224 07:18:16.103313  1142 net.cpp:197] Top shape: 1 4 64 128 (32768)
I0224 07:18:16.103322  1142 net.cpp:197] Top shape: 1 4 64 128 (32768)
I0224 07:18:16.103327  1142 net.cpp:205] Memory required for data: 294748164
I0224 07:18:16.103333  1142 layer_factory.hpp:123] Creating layer ConvNd_82
I0224 07:18:16.103343  1142 net.cpp:140] Creating Layer ConvNd_82
I0224 07:18:16.103348  1142 net.cpp:481] ConvNd_82 <- ConvNd_77_ConvNd_77_fixed_0_split_4
I0224 07:18:16.103356  1142 net.cpp:455] ConvNd_82 -> ConvNd_82
I0224 07:18:16.103523  1142 layer_factory.hpp:123] Creating layer ConvNd_82
I0224 07:18:16.103787  1142 net.cpp:190] Setting up ConvNd_82
I0224 07:18:16.103796  1142 net.cpp:197] Top shape: 1 4 64 128 (32768)
I0224 07:18:16.103803  1142 net.cpp:205] Memory required for data: 294879236
I0224 07:18:16.103811  1142 layer_factory.hpp:123] Creating layer ConvNd_82_fixed
I0224 07:18:16.103818  1142 net.cpp:140] Creating Layer ConvNd_82_fixed
I0224 07:18:16.103823  1142 net.cpp:481] ConvNd_82_fixed <- ConvNd_82
I0224 07:18:16.103832  1142 net.cpp:442] ConvNd_82_fixed -> ConvNd_82 (in-place)
I0224 07:18:16.103868  1142 net.cpp:190] Setting up ConvNd_82_fixed
I0224 07:18:16.103876  1142 net.cpp:197] Top shape: 1 4 64 128 (32768)
I0224 07:18:16.103884  1142 net.cpp:205] Memory required for data: 295010308
I0224 07:18:16.103890  1142 layer_factory.hpp:123] Creating layer Add_49
I0224 07:18:16.103899  1142 net.cpp:140] Creating Layer Add_49
I0224 07:18:16.103904  1142 net.cpp:481] Add_49 <- Add_48_Add_48_fixed_0_split_0
I0224 07:18:16.103910  1142 net.cpp:481] Add_49 <- ConvNd_82
I0224 07:18:16.103917  1142 net.cpp:455] Add_49 -> Add_49
I0224 07:18:16.103942  1142 net.cpp:190] Setting up Add_49
I0224 07:18:16.103950  1142 net.cpp:197] Top shape: 1 4 64 128 (32768)
I0224 07:18:16.103957  1142 net.cpp:205] Memory required for data: 295141380
I0224 07:18:16.103962  1142 layer_factory.hpp:123] Creating layer Concat_17
I0224 07:18:16.103971  1142 net.cpp:140] Creating Layer Concat_17
I0224 07:18:16.103976  1142 net.cpp:481] Concat_17 <- ConvNd_78
I0224 07:18:16.103981  1142 net.cpp:481] Concat_17 <- ConvNd_79_ConvNd_79_fixed_0_split_1
I0224 07:18:16.103987  1142 net.cpp:481] Concat_17 <- Add_47_Add_47_fixed_0_split_1
I0224 07:18:16.103993  1142 net.cpp:481] Concat_17 <- Add_48_Add_48_fixed_0_split_1
I0224 07:18:16.103999  1142 net.cpp:481] Concat_17 <- Add_49
I0224 07:18:16.104007  1142 net.cpp:455] Concat_17 -> Concat_17
I0224 07:18:16.104032  1142 net.cpp:190] Setting up Concat_17
I0224 07:18:16.104038  1142 net.cpp:197] Top shape: 1 20 64 128 (163840)
I0224 07:18:16.104045  1142 net.cpp:205] Memory required for data: 295796740
I0224 07:18:16.104050  1142 layer_factory.hpp:123] Creating layer Concat_17_fixed
I0224 07:18:16.104058  1142 net.cpp:140] Creating Layer Concat_17_fixed
I0224 07:18:16.104063  1142 net.cpp:481] Concat_17_fixed <- Concat_17
I0224 07:18:16.104069  1142 net.cpp:442] Concat_17_fixed -> Concat_17 (in-place)
I0224 07:18:16.104106  1142 net.cpp:190] Setting up Concat_17_fixed
I0224 07:18:16.104113  1142 net.cpp:197] Top shape: 1 20 64 128 (163840)
I0224 07:18:16.104121  1142 net.cpp:205] Memory required for data: 296452100
I0224 07:18:16.104127  1142 layer_factory.hpp:123] Creating layer BatchNorm_19
I0224 07:18:16.104136  1142 net.cpp:140] Creating Layer BatchNorm_19
I0224 07:18:16.104141  1142 net.cpp:481] BatchNorm_19 <- Concat_17
I0224 07:18:16.104148  1142 net.cpp:455] BatchNorm_19 -> BatchNorm_19
I0224 07:18:16.104192  1142 layer_factory.hpp:123] Creating layer BatchNorm_19
I0224 07:18:16.104285  1142 layer_factory.hpp:123] Creating layer BatchNorm_19
I0224 07:18:16.104326  1142 layer_factory.hpp:123] Creating layer BatchNorm_19
I0224 07:18:16.104487  1142 net.cpp:190] Setting up BatchNorm_19
I0224 07:18:16.104496  1142 net.cpp:197] Top shape: 1 20 64 128 (163840)
I0224 07:18:16.104503  1142 net.cpp:205] Memory required for data: 297107460
I0224 07:18:16.104512  1142 layer_factory.hpp:123] Creating layer Threshold_18
I0224 07:18:16.104519  1142 net.cpp:140] Creating Layer Threshold_18
I0224 07:18:16.104524  1142 net.cpp:481] Threshold_18 <- BatchNorm_19
I0224 07:18:16.104532  1142 net.cpp:442] Threshold_18 -> BatchNorm_19 (in-place)
I0224 07:18:16.104540  1142 net.cpp:190] Setting up Threshold_18
I0224 07:18:16.104545  1142 net.cpp:197] Top shape: 1 20 64 128 (163840)
I0224 07:18:16.104552  1142 net.cpp:205] Memory required for data: 297762820
I0224 07:18:16.104557  1142 layer_factory.hpp:123] Creating layer BatchNorm_19_fixed
I0224 07:18:16.104564  1142 net.cpp:140] Creating Layer BatchNorm_19_fixed
I0224 07:18:16.104569  1142 net.cpp:481] BatchNorm_19_fixed <- BatchNorm_19
I0224 07:18:16.104576  1142 net.cpp:442] BatchNorm_19_fixed -> BatchNorm_19 (in-place)
I0224 07:18:16.104612  1142 net.cpp:190] Setting up BatchNorm_19_fixed
I0224 07:18:16.104619  1142 net.cpp:197] Top shape: 1 20 64 128 (163840)
I0224 07:18:16.104627  1142 net.cpp:205] Memory required for data: 298418180
I0224 07:18:16.104634  1142 layer_factory.hpp:123] Creating layer ConvNd_83
I0224 07:18:16.104642  1142 net.cpp:140] Creating Layer ConvNd_83
I0224 07:18:16.104648  1142 net.cpp:481] ConvNd_83 <- BatchNorm_19
I0224 07:18:16.104656  1142 net.cpp:455] ConvNd_83 -> BatchNorm_20
I0224 07:18:16.105113  1142 layer_factory.hpp:123] Creating layer ConvNd_83
I0224 07:18:16.105542  1142 net.cpp:190] Setting up ConvNd_83
I0224 07:18:16.105553  1142 net.cpp:197] Top shape: 1 19 128 256 (622592)
I0224 07:18:16.105561  1142 net.cpp:205] Memory required for data: 300908548
I0224 07:18:16.105581  1142 layer_factory.hpp:123] Creating layer Threshold_19
I0224 07:18:16.105590  1142 net.cpp:140] Creating Layer Threshold_19
I0224 07:18:16.105597  1142 net.cpp:481] Threshold_19 <- BatchNorm_20
I0224 07:18:16.105603  1142 net.cpp:442] Threshold_19 -> BatchNorm_20 (in-place)
I0224 07:18:16.105612  1142 net.cpp:190] Setting up Threshold_19
I0224 07:18:16.105618  1142 net.cpp:197] Top shape: 1 19 128 256 (622592)
I0224 07:18:16.105625  1142 net.cpp:205] Memory required for data: 303398916
I0224 07:18:16.105630  1142 layer_factory.hpp:123] Creating layer Concat_18
I0224 07:18:16.105638  1142 net.cpp:140] Creating Layer Concat_18
I0224 07:18:16.105643  1142 net.cpp:481] Concat_18 <- BatchNorm_20
I0224 07:18:16.105648  1142 net.cpp:481] Concat_18 <- BatchNorm_1_BatchNorm_1_fixed_0_split_1
I0224 07:18:16.105655  1142 net.cpp:455] Concat_18 -> Concat_18
I0224 07:18:16.105679  1142 net.cpp:190] Setting up Concat_18
I0224 07:18:16.105685  1142 net.cpp:197] Top shape: 1 35 128 256 (1146880)
I0224 07:18:16.105693  1142 net.cpp:205] Memory required for data: 307986436
I0224 07:18:16.105698  1142 layer_factory.hpp:123] Creating layer Concat_18_fixed
I0224 07:18:16.105705  1142 net.cpp:140] Creating Layer Concat_18_fixed
I0224 07:18:16.105711  1142 net.cpp:481] Concat_18_fixed <- Concat_18
I0224 07:18:16.105718  1142 net.cpp:442] Concat_18_fixed -> Concat_18 (in-place)
I0224 07:18:16.105758  1142 net.cpp:190] Setting up Concat_18_fixed
I0224 07:18:16.105765  1142 net.cpp:197] Top shape: 1 35 128 256 (1146880)
I0224 07:18:16.105773  1142 net.cpp:205] Memory required for data: 312573956
I0224 07:18:16.105780  1142 layer_factory.hpp:123] Creating layer ConvNd_84
I0224 07:18:16.105790  1142 net.cpp:140] Creating Layer ConvNd_84
I0224 07:18:16.105795  1142 net.cpp:481] ConvNd_84 <- Concat_18
I0224 07:18:16.105804  1142 net.cpp:455] ConvNd_84 -> BatchNorm_21
I0224 07:18:16.106098  1142 layer_factory.hpp:123] Creating layer ConvNd_84
I0224 07:18:16.106585  1142 net.cpp:190] Setting up ConvNd_84
I0224 07:18:16.106595  1142 net.cpp:197] Top shape: 1 19 128 256 (622592)
I0224 07:18:16.106603  1142 net.cpp:205] Memory required for data: 315064324
I0224 07:18:16.106612  1142 layer_factory.hpp:123] Creating layer Threshold_20
I0224 07:18:16.106619  1142 net.cpp:140] Creating Layer Threshold_20
I0224 07:18:16.106626  1142 net.cpp:481] Threshold_20 <- BatchNorm_21
I0224 07:18:16.106632  1142 net.cpp:442] Threshold_20 -> BatchNorm_21 (in-place)
I0224 07:18:16.106640  1142 net.cpp:190] Setting up Threshold_20
I0224 07:18:16.106645  1142 net.cpp:197] Top shape: 1 19 128 256 (622592)
I0224 07:18:16.106652  1142 net.cpp:205] Memory required for data: 317554692
I0224 07:18:16.106657  1142 layer_factory.hpp:123] Creating layer BatchNorm_21_fixed
I0224 07:18:16.106664  1142 net.cpp:140] Creating Layer BatchNorm_21_fixed
I0224 07:18:16.106669  1142 net.cpp:481] BatchNorm_21_fixed <- BatchNorm_21
I0224 07:18:16.106676  1142 net.cpp:442] BatchNorm_21_fixed -> BatchNorm_21 (in-place)
I0224 07:18:16.106711  1142 net.cpp:190] Setting up BatchNorm_21_fixed
I0224 07:18:16.106719  1142 net.cpp:197] Top shape: 1 19 128 256 (622592)
I0224 07:18:16.106726  1142 net.cpp:205] Memory required for data: 320045060
I0224 07:18:16.106734  1142 layer_factory.hpp:123] Creating layer ConvNd_85
I0224 07:18:16.106741  1142 net.cpp:140] Creating Layer ConvNd_85
I0224 07:18:16.106747  1142 net.cpp:481] ConvNd_85 <- BatchNorm_21
I0224 07:18:16.106755  1142 net.cpp:455] ConvNd_85 -> ConvNd_85
I0224 07:18:16.106940  1142 layer_factory.hpp:123] Creating layer ConvNd_85
I0224 07:18:16.107226  1142 net.cpp:190] Setting up ConvNd_85
I0224 07:18:16.107235  1142 net.cpp:197] Top shape: 1 19 256 512 (2490368)
I0224 07:18:16.107244  1142 net.cpp:205] Memory required for data: 330006532
I0224 07:18:16.107250  1142 layer_factory.hpp:123] Creating layer ConvNd_85_fixed
I0224 07:18:16.107257  1142 net.cpp:140] Creating Layer ConvNd_85_fixed
I0224 07:18:16.107264  1142 net.cpp:481] ConvNd_85_fixed <- ConvNd_85
I0224 07:18:16.107270  1142 net.cpp:442] ConvNd_85_fixed -> ConvNd_85 (in-place)
I0224 07:18:16.107309  1142 net.cpp:190] Setting up ConvNd_85_fixed
I0224 07:18:16.107316  1142 net.cpp:197] Top shape: 1 19 256 512 (2490368)
I0224 07:18:16.107324  1142 net.cpp:205] Memory required for data: 339968004
I0224 07:18:16.107331  1142 layer_factory.hpp:123] Creating layer score
I0224 07:18:16.107338  1142 net.cpp:140] Creating Layer score
I0224 07:18:16.107343  1142 net.cpp:481] score <- ConvNd_85
I0224 07:18:16.107350  1142 net.cpp:455] score -> score
I0224 07:18:16.107421  1142 net.cpp:190] Setting up score
I0224 07:18:16.107430  1142 net.cpp:197] Top shape: 1 19 256 512 (2490368)
I0224 07:18:16.107437  1142 net.cpp:205] Memory required for data: 349929476
I0224 07:18:16.107443  1142 net.cpp:268] score does not need backward computation.
I0224 07:18:16.107448  1142 net.cpp:268] ConvNd_85_fixed does not need backward computation.
I0224 07:18:16.107453  1142 net.cpp:268] ConvNd_85 does not need backward computation.
I0224 07:18:16.107460  1142 net.cpp:268] BatchNorm_21_fixed does not need backward computation.
…
