…
I0403 09:14:48.572422 26429 solver.cpp:102] Creating training net from net file: /data2/caffe/Segment/workspace/model/espnet/train_val_encoder.prototxt
I0403 09:14:48.574221 26429 net.cpp:53] Initializing net from parameters: 
state {
  phase: TRAIN
  level: 0
  stage: ""
}
layer {
  name: "data"
  type: "ImageSegData"
  top: "data"
  top: "label"
  include {
    phase: TRAIN
  }
  transform_param {
    scale: 0.022
    crop_size: 512
    mean_value: 73
    mean_value: 82
    mean_value: 72
  }
  image_data_param {
    source: "../workspace/data/cityscapes/img_seg.txt"
    batch_size: 5
    mirror: true
    shuffle: true
  }
}
layer {
  name: "ConvNd_1"
  type: "Convolution"
  bottom: "data"
  top: "ConvNd_1"
  convolution_param {
    num_output: 16
    bias_term: false
    pad: 1
    kernel_size: 3
    group: 1
    stride: 2
    weight_filler {
      type: "msra"
    }
    dilation: 1
  }
}
layer {
  name: "BatchNorm_1"
  type: "BatchNorm"
  bottom: "ConvNd_1"
  top: "BatchNorm_1"
  batch_norm_param {
    use_global_stats: false
    eps: 0.001
  }
}
layer {
  name: "BatchNorm_1_scale"
  type: "Scale"
  bottom: "BatchNorm_1"
  top: "BatchNorm_1"
  scale_param {
    bias_term: true
  }
}
layer {
  name: "Threshold_1"
  type: "ReLU"
  bottom: "BatchNorm_1"
  top: "BatchNorm_1"
}
layer {
  name: "AvgPool2d_1"
  type: "Pooling"
  bottom: "data"
  top: "AvgPool2d_1"
  pooling_param {
    pool: AVE
    kernel_size: 3
    stride: 2
    pad: 0
  }
}
layer {
  name: "Concat_1"
  type: "Concat"
  bottom: "BatchNorm_1"
  bottom: "AvgPool2d_1"
  top: "Concat_1"
  concat_param {
    axis: 1
  }
}
layer {
  name: "BatchNorm_2"
  type: "BatchNorm"
  bottom: "Concat_1"
  top: "BatchNorm_2"
  batch_norm_param {
    use_global_stats: false
    eps: 0.001
  }
}
layer {
  name: "BatchNorm_2_scale"
  type: "Scale"
  bottom: "BatchNorm_2"
  top: "BatchNorm_2"
  scale_param {
    bias_term: true
  }
}
layer {
  name: "Threshold_2"
  type: "ReLU"
  bottom: "BatchNorm_2"
  top: "BatchNorm_2"
}
layer {
  name: "ConvNd_2"
  type: "Convolution"
  bottom: "BatchNorm_2"
  top: "ConvNd_2"
  convolution_param {
    num_output: 12
    bias_term: false
    pad: 1
    kernel_size: 3
    group: 1
    stride: 2
    weight_filler {
      type: "msra"
    }
    dilation: 1
  }
}
layer {
  name: "ConvNd_3"
  type: "Convolution"
  bottom: "ConvNd_2"
  top: "ConvNd_3"
  convolution_param {
    num_output: 16
    bias_term: false
    pad: 1
    kernel_size: 3
    group: 1
    stride: 1
    weight_filler {
      type: "msra"
    }
    dilation: 1
  }
}
layer {
  name: "ConvNd_4"
  type: "Convolution"
  bottom: "ConvNd_2"
  top: "ConvNd_4"
  convolution_param {
    num_output: 12
    bias_term: false
    pad: 2
    kernel_size: 3
    group: 1
    stride: 1
    weight_filler {
      type: "msra"
    }
    dilation: 2
  }
}
layer {
  name: "ConvNd_5"
  type: "Convolution"
  bottom: "ConvNd_2"
  top: "ConvNd_5"
  convolution_param {
    num_output: 12
    bias_term: false
    pad: 4
    kernel_size: 3
    group: 1
    stride: 1
    weight_filler {
      type: "msra"
    }
    dilation: 4
  }
}
layer {
  name: "Add_1"
  type: "Eltwise"
  bottom: "ConvNd_4"
  bottom: "ConvNd_5"
  top: "Add_1"
}
layer {
  name: "ConvNd_6"
  type: "Convolution"
  bottom: "ConvNd_2"
  top: "ConvNd_6"
  convolution_param {
    num_output: 12
    bias_term: false
    pad: 8
    kernel_size: 3
    group: 1
    stride: 1
    weight_filler {
      type: "msra"
    }
    dilation: 8
  }
}
layer {
  name: "Add_2"
  type: "Eltwise"
  bottom: "Add_1"
  bottom: "ConvNd_6"
  top: "Add_2"
}
layer {
  name: "ConvNd_7"
  type: "Convolution"
  bottom: "ConvNd_2"
  top: "ConvNd_7"
  convolution_param {
    num_output: 12
    bias_term: false
    pad: 16
    kernel_size: 3
    group: 1
    stride: 1
    weight_filler {
      type: "msra"
    }
    dilation: 16
  }
}
layer {
  name: "Add_3"
  type: "Eltwise"
  bottom: "Add_2"
  bottom: "ConvNd_7"
  top: "Add_3"
}
layer {
  name: "Concat_2"
  type: "Concat"
  bottom: "ConvNd_3"
  bottom: "ConvNd_4"
  bottom: "Add_1"
  bottom: "Add_2"
  bottom: "Add_3"
  top: "Concat_2"
  concat_param {
    axis: 1
  }
}
layer {
  name: "BatchNorm_3"
  type: "BatchNorm"
  bottom: "Concat_2"
  top: "BatchNorm_3"
  batch_norm_param {
    use_global_stats: false
    eps: 0.001
  }
}
layer {
  name: "BatchNorm_3_scale"
  type: "Scale"
  bottom: "BatchNorm_3"
  top: "BatchNorm_3"
  scale_param {
    bias_term: true
  }
}
layer {
  name: "Threshold_3"
  type: "ReLU"
  bottom: "BatchNorm_3"
  top: "BatchNorm_3"
}
layer {
  name: "ConvNd_8"
  type: "Convolution"
  bottom: "BatchNorm_3"
  top: "ConvNd_8"
  convolution_param {
    num_output: 12
    bias_term: false
    pad: 0
    kernel_size: 1
    group: 1
    stride: 1
    weight_filler {
      type: "msra"
    }
    dilation: 1
  }
}
layer {
  name: "ConvNd_9"
  type: "Convolution"
  bottom: "ConvNd_8"
  top: "ConvNd_9"
  convolution_param {
    num_output: 16
    bias_term: false
    pad: 1
    kernel_size: 3
    group: 1
    stride: 1
    weight_filler {
      type: "msra"
    }
    dilation: 1
  }
}
layer {
  name: "ConvNd_10"
  type: "Convolution"
  bottom: "ConvNd_8"
  top: "ConvNd_10"
  convolution_param {
    num_output: 12
    bias_term: false
    pad: 2
    kernel_size: 3
    group: 1
    stride: 1
    weight_filler {
      type: "msra"
    }
    dilation: 2
  }
}
layer {
  name: "ConvNd_11"
  type: "Convolution"
  bottom: "ConvNd_8"
  top: "ConvNd_11"
  convolution_param {
    num_output: 12
    bias_term: false
    pad: 4
    kernel_size: 3
    group: 1
    stride: 1
    weight_filler {
      type: "msra"
    }
    dilation: 4
  }
}
layer {
  name: "Add_4"
  type: "Eltwise"
  bottom: "ConvNd_10"
  bottom: "ConvNd_11"
  top: "Add_4"
}
layer {
  name: "ConvNd_12"
  type: "Convolution"
  bottom: "ConvNd_8"
  top: "ConvNd_12"
  convolution_param {
    num_output: 12
    bias_term: false
    pad: 8
    kernel_size: 3
    group: 1
    stride: 1
    weight_filler {
      type: "msra"
    }
    dilation: 8
  }
}
layer {
  name: "Add_5"
  type: "Eltwise"
  bottom: "Add_4"
  bottom: "ConvNd_12"
  top: "Add_5"
}
layer {
  name: "ConvNd_13"
  type: "Convolution"
  bottom: "ConvNd_8"
  top: "ConvNd_13"
  convolution_param {
    num_output: 12
    bias_term: false
    pad: 16
    kernel_size: 3
    group: 1
    stride: 1
    weight_filler {
      type: "msra"
    }
    dilation: 16
  }
}
layer {
  name: "Add_6"
  type: "Eltwise"
  bottom: "Add_5"
  bottom: "ConvNd_13"
  top: "Add_6"
}
layer {
  name: "Concat_3"
  type: "Concat"
  bottom: "ConvNd_9"
  bottom: "ConvNd_10"
  bottom: "Add_4"
  bottom: "Add_5"
  bottom: "Add_6"
  top: "Concat_3"
  concat_param {
    axis: 1
  }
}
layer {
  name: "Add_7"
  type: "Eltwise"
  bottom: "BatchNorm_3"
  bottom: "Concat_3"
  top: "Add_7"
}
layer {
  name: "BatchNorm_4"
  type: "BatchNorm"
  bottom: "Add_7"
  top: "BatchNorm_4"
  batch_norm_param {
    use_global_stats: false
    eps: 0.001
  }
}
layer {
  name: "BatchNorm_4_scale"
  type: "Scale"
  bottom: "BatchNorm_4"
  top: "BatchNorm_4"
  scale_param {
    bias_term: true
  }
}
layer {
  name: "Threshold_4"
  type: "ReLU"
  bottom: "BatchNorm_4"
  top: "BatchNorm_4"
}
layer {
  name: "ConvNd_14"
  type: "Convolution"
  bottom: "BatchNorm_4"
  top: "ConvNd_14"
  convolution_param {
    num_output: 12
    bias_term: false
    pad: 0
    kernel_size: 1
    group: 1
    stride: 1
    weight_filler {
      type: "msra"
    }
    dilation: 1
  }
}
layer {
  name: "ConvNd_15"
  type: "Convolution"
  bottom: "ConvNd_14"
  top: "ConvNd_15"
  convolution_param {
    num_output: 16
    bias_term: false
    pad: 1
    kernel_size: 3
    group: 1
    stride: 1
    weight_filler {
      type: "msra"
    }
    dilation: 1
  }
}
layer {
  name: "ConvNd_16"
  type: "Convolution"
  bottom: "ConvNd_14"
  top: "ConvNd_16"
  convolution_param {
    num_output: 12
    bias_term: false
    pad: 2
    kernel_size: 3
    group: 1
    stride: 1
    weight_filler {
      type: "msra"
    }
    dilation: 2
  }
}
layer {
  name: "ConvNd_17"
  type: "Convolution"
  bottom: "ConvNd_14"
  top: "ConvNd_17"
  convolution_param {
    num_output: 12
    bias_term: false
    pad: 4
    kernel_size: 3
    group: 1
    stride: 1
    weight_filler {
      type: "msra"
    }
    dilation: 4
  }
}
layer {
  name: "Add_8"
  type: "Eltwise"
  bottom: "ConvNd_16"
  bottom: "ConvNd_17"
  top: "Add_8"
}
layer {
  name: "ConvNd_18"
  type: "Convolution"
  bottom: "ConvNd_14"
  top: "ConvNd_18"
  convolution_param {
    num_output: 12
    bias_term: false
    pad: 8
    kernel_size: 3
    group: 1
    stride: 1
    weight_filler {
      type: "msra"
    }
    dilation: 8
  }
}
layer {
  name: "Add_9"
  type: "Eltwise"
  bottom: "Add_8"
  bottom: "ConvNd_18"
  top: "Add_9"
}
layer {
  name: "ConvNd_19"
  type: "Convolution"
  bottom: "ConvNd_14"
  top: "ConvNd_19"
  convolution_param {
    num_output: 12
    bias_term: false
    pad: 16
    kernel_size: 3
    group: 1
    stride: 1
    weight_filler {
      type: "msra"
    }
    dilation: 16
  }
}
layer {
  name: "Add_10"
  type: "Eltwise"
  bottom: "Add_9"
  bottom: "ConvNd_19"
  top: "Add_10"
}
layer {
  name: "Concat_4"
  type: "Concat"
  bottom: "ConvNd_15"
  bottom: "ConvNd_16"
  bottom: "Add_8"
  bottom: "Add_9"
  bottom: "Add_10"
  top: "Concat_4"
  concat_param {
    axis: 1
  }
}
layer {
  name: "Add_11"
  type: "Eltwise"
  bottom: "BatchNorm_4"
  bottom: "Concat_4"
  top: "Add_11"
}
layer {
  name: "BatchNorm_5"
  type: "BatchNorm"
  bottom: "Add_11"
  top: "BatchNorm_5"
  batch_norm_param {
    use_global_stats: false
    eps: 0.001
  }
}
layer {
  name: "BatchNorm_5_scale"
  type: "Scale"
  bottom: "BatchNorm_5"
  top: "BatchNorm_5"
  scale_param {
    bias_term: true
  }
}
layer {
  name: "Threshold_5"
  type: "ReLU"
  bottom: "BatchNorm_5"
  top: "BatchNorm_5"
}
layer {
  name: "AvgPool2d_2"
  type: "Pooling"
  bottom: "data"
  top: "AvgPool2d_2"
  pooling_param {
    pool: AVE
    kernel_size: 3
    stride: 2
    pad: 0
  }
}
layer {
  name: "AvgPool2d_3"
  type: "Pooling"
  bottom: "AvgPool2d_2"
  top: "AvgPool2d_3"
  pooling_param {
    pool: AVE
    kernel_size: 3
    stride: 2
    pad: 0
  }
}
layer {
  name: "Concat_5"
  type: "Concat"
  bottom: "BatchNorm_5"
  bottom: "BatchNorm_3"
  bottom: "AvgPool2d_3"
  top: "Concat_5"
  concat_param {
    axis: 1
  }
}
layer {
  name: "BatchNorm_6"
  type: "BatchNorm"
  bottom: "Concat_5"
  top: "BatchNorm_6"
  batch_norm_param {
    use_global_stats: false
    eps: 0.001
  }
}
layer {
  name: "BatchNorm_6_scale"
  type: "Scale"
  bottom: "BatchNorm_6"
  top: "BatchNorm_6"
  scale_param {
    bias_term: true
  }
}
layer {
  name: "Threshold_6"
  type: "ReLU"
  bottom: "BatchNorm_6"
  top: "BatchNorm_6"
}
layer {
  name: "ConvNd_21"
  type: "Convolution"
  bottom: "BatchNorm_6"
  top: "ConvNd_21"
  convolution_param {
    num_output: 25
    bias_term: false
    pad: 1
    kernel_size: 3
    group: 1
    stride: 2
    weight_filler {
      type: "msra"
    }
    dilation: 1
  }
}
layer {
  name: "ConvNd_22"
  type: "Convolution"
  bottom: "ConvNd_21"
  top: "ConvNd_22"
  convolution_param {
    num_output: 28
    bias_term: false
    pad: 1
    kernel_size: 3
    group: 1
    stride: 1
    weight_filler {
      type: "msra"
    }
    dilation: 1
  }
}
layer {
  name: "ConvNd_23"
  type: "Convolution"
  bottom: "ConvNd_21"
  top: "ConvNd_23"
  convolution_param {
    num_output: 25
    bias_term: false
    pad: 2
    kernel_size: 3
    group: 1
    stride: 1
    weight_filler {
      type: "msra"
    }
    dilation: 2
  }
}
layer {
  name: "ConvNd_24"
  type: "Convolution"
  bottom: "ConvNd_21"
  top: "ConvNd_24"
  convolution_param {
    num_output: 25
    bias_term: false
    pad: 4
    kernel_size: 3
    group: 1
    stride: 1
    weight_filler {
      type: "msra"
    }
    dilation: 4
  }
}
layer {
  name: "Add_12"
  type: "Eltwise"
  bottom: "ConvNd_23"
  bottom: "ConvNd_24"
  top: "Add_12"
}
layer {
  name: "ConvNd_25"
  type: "Convolution"
  bottom: "ConvNd_21"
  top: "ConvNd_25"
  convolution_param {
    num_output: 25
    bias_term: false
    pad: 8
    kernel_size: 3
    group: 1
    stride: 1
    weight_filler {
      type: "msra"
    }
    dilation: 8
  }
}
layer {
  name: "Add_13"
  type: "Eltwise"
  bottom: "Add_12"
  bottom: "ConvNd_25"
  top: "Add_13"
}
layer {
  name: "ConvNd_26"
  type: "Convolution"
  bottom: "ConvNd_21"
  top: "ConvNd_26"
  convolution_param {
    num_output: 25
    bias_term: false
    pad: 16
    kernel_size: 3
    group: 1
    stride: 1
    weight_filler {
      type: "msra"
    }
    dilation: 16
  }
}
layer {
  name: "Add_14"
  type: "Eltwise"
  bottom: "Add_13"
  bottom: "ConvNd_26"
  top: "Add_14"
}
layer {
  name: "Concat_6"
  type: "Concat"
  bottom: "ConvNd_22"
  bottom: "ConvNd_23"
  bottom: "Add_12"
  bottom: "Add_13"
  bottom: "Add_14"
  top: "Concat_6"
  concat_param {
    axis: 1
  }
}
layer {
  name: "BatchNorm_7"
  type: "BatchNorm"
  bottom: "Concat_6"
  top: "BatchNorm_7"
  batch_norm_param {
    use_global_stats: false
    eps: 0.001
  }
}
layer {
  name: "BatchNorm_7_scale"
  type: "Scale"
  bottom: "BatchNorm_7"
  top: "BatchNorm_7"
  scale_param {
    bias_term: true
  }
}
layer {
  name: "Threshold_7"
  type: "ReLU"
  bottom: "BatchNorm_7"
  top: "BatchNorm_7"
}
layer {
  name: "ConvNd_27"
  type: "Convolution"
  bottom: "BatchNorm_7"
  top: "ConvNd_27"
  convolution_param {
    num_output: 25
    bias_term: false
    pad: 0
    kernel_size: 1
    group: 1
    stride: 1
    weight_filler {
      type: "msra"
    }
    dilation: 1
  }
}
layer {
  name: "ConvNd_28"
  type: "Convolution"
  bottom: "ConvNd_27"
  top: "ConvNd_28"
  convolution_param {
    num_output: 28
    bias_term: false
    pad: 1
    kernel_size: 3
    group: 1
    stride: 1
    weight_filler {
      type: "msra"
    }
    dilation: 1
  }
}
layer {
  name: "ConvNd_29"
  type: "Convolution"
  bottom: "ConvNd_27"
  top: "ConvNd_29"
  convolution_param {
    num_output: 25
    bias_term: false
    pad: 2
    kernel_size: 3
    group: 1
    stride: 1
    weight_filler {
      type: "msra"
    }
    dilation: 2
  }
}
layer {
  name: "ConvNd_30"
  type: "Convolution"
  bottom: "ConvNd_27"
  top: "ConvNd_30"
  convolution_param {
    num_output: 25
    bias_term: false
    pad: 4
    kernel_size: 3
    group: 1
    stride: 1
    weight_filler {
      type: "msra"
    }
    dilation: 4
  }
}
layer {
  name: "Add_15"
  type: "Eltwise"
  bottom: "ConvNd_29"
  bottom: "ConvNd_30"
  top: "Add_15"
}
layer {
  name: "ConvNd_31"
  type: "Convolution"
  bottom: "ConvNd_27"
  top: "ConvNd_31"
  convolution_param {
    num_output: 25
    bias_term: false
    pad: 8
    kernel_size: 3
    group: 1
    stride: 1
    weight_filler {
      type: "msra"
    }
    dilation: 8
  }
}
layer {
  name: "Add_16"
  type: "Eltwise"
  bottom: "Add_15"
  bottom: "ConvNd_31"
  top: "Add_16"
}
layer {
  name: "ConvNd_32"
  type: "Convolution"
  bottom: "ConvNd_27"
  top: "ConvNd_32"
  convolution_param {
    num_output: 25
    bias_term: false
    pad: 16
    kernel_size: 3
    group: 1
    stride: 1
    weight_filler {
      type: "msra"
    }
    dilation: 16
  }
}
layer {
  name: "Add_17"
  type: "Eltwise"
  bottom: "Add_16"
  bottom: "ConvNd_32"
  top: "Add_17"
}
layer {
  name: "Concat_7"
  type: "Concat"
  bottom: "ConvNd_28"
  bottom: "ConvNd_29"
  bottom: "Add_15"
  bottom: "Add_16"
  bottom: "Add_17"
  top: "Concat_7"
  concat_param {
    axis: 1
  }
}
layer {
  name: "Add_18"
  type: "Eltwise"
  bottom: "BatchNorm_7"
  bottom: "Concat_7"
  top: "Add_18"
}
layer {
  name: "BatchNorm_8"
  type: "BatchNorm"
  bottom: "Add_18"
  top: "BatchNorm_8"
  batch_norm_param {
    use_global_stats: false
    eps: 0.001
  }
}
layer {
  name: "BatchNorm_8_scale"
  type: "Scale"
  bottom: "BatchNorm_8"
  top: "BatchNorm_8"
  scale_param {
    bias_term: true
  }
}
layer {
  name: "Threshold_8"
  type: "ReLU"
  bottom: "BatchNorm_8"
  top: "BatchNorm_8"
}
layer {
  name: "ConvNd_33"
  type: "Convolution"
  bottom: "BatchNorm_8"
  top: "ConvNd_33"
  convolution_param {
    num_output: 25
    bias_term: false
    pad: 0
    kernel_size: 1
    group: 1
    stride: 1
    weight_filler {
      type: "msra"
    }
    dilation: 1
  }
}
layer {
  name: "ConvNd_34"
  type: "Convolution"
  bottom: "ConvNd_33"
  top: "ConvNd_34"
  convolution_param {
    num_output: 28
    bias_term: false
    pad: 1
    kernel_size: 3
    group: 1
    stride: 1
    weight_filler {
      type: "msra"
    }
    dilation: 1
  }
}
layer {
  name: "ConvNd_35"
  type: "Convolution"
  bottom: "ConvNd_33"
  top: "ConvNd_35"
  convolution_param {
    num_output: 25
    bias_term: false
    pad: 2
    kernel_size: 3
    group: 1
    stride: 1
    weight_filler {
      type: "msra"
    }
    dilation: 2
  }
}
layer {
  name: "ConvNd_36"
  type: "Convolution"
  bottom: "ConvNd_33"
  top: "ConvNd_36"
  convolution_param {
    num_output: 25
    bias_term: false
    pad: 4
    kernel_size: 3
    group: 1
    stride: 1
    weight_filler {
      type: "msra"
    }
    dilation: 4
  }
}
layer {
  name: "Add_19"
  type: "Eltwise"
  bottom: "ConvNd_35"
  bottom: "ConvNd_36"
  top: "Add_19"
}
layer {
  name: "ConvNd_37"
  type: "Convolution"
  bottom: "ConvNd_33"
  top: "ConvNd_37"
  convolution_param {
    num_output: 25
    bias_term: false
    pad: 8
    kernel_size: 3
    group: 1
    stride: 1
    weight_filler {
      type: "msra"
    }
    dilation: 8
  }
}
layer {
  name: "Add_20"
  type: "Eltwise"
  bottom: "Add_19"
  bottom: "ConvNd_37"
  top: "Add_20"
}
layer {
  name: "ConvNd_38"
  type: "Convolution"
  bottom: "ConvNd_33"
  top: "ConvNd_38"
  convolution_param {
    num_output: 25
    bias_term: false
    pad: 16
    kernel_size: 3
    group: 1
    stride: 1
    weight_filler {
      type: "msra"
    }
    dilation: 16
  }
}
layer {
  name: "Add_21"
  type: "Eltwise"
  bottom: "Add_20"
  bottom: "ConvNd_38"
  top: "Add_21"
}
layer {
  name: "Concat_8"
  type: "Concat"
  bottom: "ConvNd_34"
  bottom: "ConvNd_35"
  bottom: "Add_19"
  bottom: "Add_20"
  bottom: "Add_21"
  top: "Concat_8"
  concat_param {
    axis: 1
  }
}
layer {
  name: "Add_22"
  type: "Eltwise"
  bottom: "BatchNorm_8"
  bottom: "Concat_8"
  top: "Add_22"
}
layer {
  name: "BatchNorm_9"
  type: "BatchNorm"
  bottom: "Add_22"
  top: "BatchNorm_9"
  batch_norm_param {
    use_global_stats: false
    eps: 0.001
  }
}
layer {
  name: "BatchNorm_9_scale"
  type: "Scale"
  bottom: "BatchNorm_9"
  top: "BatchNorm_9"
  scale_param {
    bias_term: true
  }
}
layer {
  name: "Threshold_9"
  type: "ReLU"
  bottom: "BatchNorm_9"
  top: "BatchNorm_9"
}
layer {
  name: "ConvNd_39"
  type: "Convolution"
  bottom: "BatchNorm_9"
  top: "ConvNd_39"
  convolution_param {
    num_output: 25
    bias_term: false
    pad: 0
    kernel_size: 1
    group: 1
    stride: 1
    weight_filler {
      type: "msra"
    }
    dilation: 1
  }
}
layer {
  name: "ConvNd_40"
  type: "Convolution"
  bottom: "ConvNd_39"
  top: "ConvNd_40"
  convolution_param {
    num_output: 28
    bias_term: false
    pad: 1
    kernel_size: 3
    group: 1
    stride: 1
    weight_filler {
      type: "msra"
    }
    dilation: 1
  }
}
layer {
  name: "ConvNd_41"
  type: "Convolution"
  bottom: "ConvNd_39"
  top: "ConvNd_41"
  convolution_param {
    num_output: 25
    bias_term: false
    pad: 2
    kernel_size: 3
    group: 1
    stride: 1
    weight_filler {
      type: "msra"
    }
    dilation: 2
  }
}
layer {
  name: "ConvNd_42"
  type: "Convolution"
  bottom: "ConvNd_39"
  top: "ConvNd_42"
  convolution_param {
    num_output: 25
    bias_term: false
    pad: 4
    kernel_size: 3
    group: 1
    stride: 1
    weight_filler {
      type: "msra"
    }
    dilation: 4
  }
}
layer {
  name: "Add_23"
  type: "Eltwise"
  bottom: "ConvNd_41"
  bottom: "ConvNd_42"
  top: "Add_23"
}
layer {
  name: "ConvNd_43"
  type: "Convolution"
  bottom: "ConvNd_39"
  top: "ConvNd_43"
  convolution_param {
    num_output: 25
    bias_term: false
    pad: 8
    kernel_size: 3
    group: 1
    stride: 1
    weight_filler {
      type: "msra"
    }
    dilation: 8
  }
}
layer {
  name: "Add_24"
  type: "Eltwise"
  bottom: "Add_23"
  bottom: "ConvNd_43"
  top: "Add_24"
}
layer {
  name: "ConvNd_44"
  type: "Convolution"
  bottom: "ConvNd_39"
  top: "ConvNd_44"
  convolution_param {
    num_output: 25
    bias_term: false
    pad: 16
    kernel_size: 3
    group: 1
    stride: 1
    weight_filler {
      type: "msra"
    }
    dilation: 16
  }
}
layer {
  name: "Add_25"
  type: "Eltwise"
  bottom: "Add_24"
  bottom: "ConvNd_44"
  top: "Add_25"
}
layer {
  name: "Concat_9"
  type: "Concat"
  bottom: "ConvNd_40"
  bottom: "ConvNd_41"
  bottom: "Add_23"
  bottom: "Add_24"
  bottom: "Add_25"
  top: "Concat_9"
  concat_param {
    axis: 1
  }
}
layer {
  name: "Add_26"
  type: "Eltwise"
  bottom: "BatchNorm_9"
  bottom: "Concat_9"
  top: "Add_26"
}
layer {
  name: "BatchNorm_10"
  type: "BatchNorm"
  bottom: "Add_26"
  top: "BatchNorm_10"
  batch_norm_param {
    use_global_stats: false
    eps: 0.001
  }
}
layer {
  name: "BatchNorm_10_scale"
  type: "Scale"
  bottom: "BatchNorm_10"
  top: "BatchNorm_10"
  scale_param {
    bias_term: true
  }
}
layer {
  name: "Threshold_10"
  type: "ReLU"
  bottom: "BatchNorm_10"
  top: "BatchNorm_10"
}
layer {
  name: "ConvNd_45"
  type: "Convolution"
  bottom: "BatchNorm_10"
  top: "ConvNd_45"
  convolution_param {
    num_output: 25
    bias_term: false
    pad: 0
    kernel_size: 1
    group: 1
    stride: 1
    weight_filler {
      type: "msra"
    }
    dilation: 1
  }
}
layer {
  name: "ConvNd_46"
  type: "Convolution"
  bottom: "ConvNd_45"
  top: "ConvNd_46"
  convolution_param {
    num_output: 28
    bias_term: false
    pad: 1
    kernel_size: 3
    group: 1
    stride: 1
    weight_filler {
      type: "msra"
    }
    dilation: 1
  }
}
layer {
  name: "ConvNd_47"
  type: "Convolution"
  bottom: "ConvNd_45"
  top: "ConvNd_47"
  convolution_param {
    num_output: 25
    bias_term: false
    pad: 2
    kernel_size: 3
    group: 1
    stride: 1
    weight_filler {
      type: "msra"
    }
    dilation: 2
  }
}
layer {
  name: "ConvNd_48"
  type: "Convolution"
  bottom: "ConvNd_45"
  top: "ConvNd_48"
  convolution_param {
    num_output: 25
    bias_term: false
    pad: 4
    kernel_size: 3
    group: 1
    stride: 1
    weight_filler {
      type: "msra"
    }
    dilation: 4
  }
}
layer {
  name: "Add_27"
  type: "Eltwise"
  bottom: "ConvNd_47"
  bottom: "ConvNd_48"
  top: "Add_27"
}
layer {
  name: "ConvNd_49"
  type: "Convolution"
  bottom: "ConvNd_45"
  top: "ConvNd_49"
  convolution_param {
    num_output: 25
    bias_term: false
    pad: 8
    kernel_size: 3
    group: 1
    stride: 1
    weight_filler {
      type: "msra"
    }
    dilation: 8
  }
}
layer {
  name: "Add_28"
  type: "Eltwise"
  bottom: "Add_27"
  bottom: "ConvNd_49"
  top: "Add_28"
}
layer {
  name: "ConvNd_50"
  type: "Convolution"
  bottom: "ConvNd_45"
  top: "ConvNd_50"
  convolution_param {
    num_output: 25
    bias_term: false
    pad: 16
    kernel_size: 3
    group: 1
    stride: 1
    weight_filler {
      type: "msra"
    }
    dilation: 16
  }
}
layer {
  name: "Add_29"
  type: "Eltwise"
  bottom: "Add_28"
  bottom: "ConvNd_50"
  top: "Add_29"
}
layer {
  name: "Concat_10"
  type: "Concat"
  bottom: "ConvNd_46"
  bottom: "ConvNd_47"
  bottom: "Add_27"
  bottom: "Add_28"
  bottom: "Add_29"
  top: "Concat_10"
  concat_param {
    axis: 1
  }
}
layer {
  name: "Add_30"
  type: "Eltwise"
  bottom: "BatchNorm_10"
  bottom: "Concat_10"
  top: "Add_30"
}
layer {
  name: "BatchNorm_11"
  type: "BatchNorm"
  bottom: "Add_30"
  top: "BatchNorm_11"
  batch_norm_param {
    use_global_stats: false
    eps: 0.001
  }
}
layer {
  name: "BatchNorm_11_scale"
  type: "Scale"
  bottom: "BatchNorm_11"
  top: "BatchNorm_11"
  scale_param {
    bias_term: true
  }
}
layer {
  name: "Threshold_11"
  type: "ReLU"
  bottom: "BatchNorm_11"
  top: "BatchNorm_11"
}
layer {
  name: "ConvNd_51"
  type: "Convolution"
  bottom: "BatchNorm_11"
  top: "ConvNd_51"
  convolution_param {
    num_output: 25
    bias_term: false
    pad: 0
    kernel_size: 1
    group: 1
    stride: 1
    weight_filler {
      type: "msra"
    }
    dilation: 1
  }
}
layer {
  name: "ConvNd_52"
  type: "Convolution"
  bottom: "ConvNd_51"
  top: "ConvNd_52"
  convolution_param {
    num_output: 28
    bias_term: false
    pad: 1
    kernel_size: 3
    group: 1
    stride: 1
    weight_filler {
      type: "msra"
    }
    dilation: 1
  }
}
layer {
  name: "ConvNd_53"
  type: "Convolution"
  bottom: "ConvNd_51"
  top: "ConvNd_53"
  convolution_param {
    num_output: 25
    bias_term: false
    pad: 2
    kernel_size: 3
    group: 1
    stride: 1
    weight_filler {
      type: "msra"
    }
    dilation: 2
  }
}
layer {
  name: "ConvNd_54"
  type: "Convolution"
  bottom: "ConvNd_51"
  top: "ConvNd_54"
  convolution_param {
    num_output: 25
    bias_term: false
    pad: 4
    kernel_size: 3
    group: 1
    stride: 1
    weight_filler {
      type: "msra"
    }
    dilation: 4
  }
}
layer {
  name: "Add_31"
  type: "Eltwise"
  bottom: "ConvNd_53"
  bottom: "ConvNd_54"
  top: "Add_31"
}
layer {
  name: "ConvNd_55"
  type: "Convolution"
  bottom: "ConvNd_51"
  top: "ConvNd_55"
  convolution_param {
    num_output: 25
    bias_term: false
    pad: 8
    kernel_size: 3
    group: 1
    stride: 1
    weight_filler {
      type: "msra"
    }
    dilation: 8
  }
}
layer {
  name: "Add_32"
  type: "Eltwise"
  bottom: "Add_31"
  bottom: "ConvNd_55"
  top: "Add_32"
}
layer {
  name: "ConvNd_56"
  type: "Convolution"
  bottom: "ConvNd_51"
  top: "ConvNd_56"
  convolution_param {
    num_output: 25
    bias_term: false
    pad: 16
    kernel_size: 3
    group: 1
    stride: 1
    weight_filler {
      type: "msra"
    }
    dilation: 16
  }
}
layer {
  name: "Add_33"
  type: "Eltwise"
  bottom: "Add_32"
  bottom: "ConvNd_56"
  top: "Add_33"
}
layer {
  name: "Concat_11"
  type: "Concat"
  bottom: "ConvNd_52"
  bottom: "ConvNd_53"
  bottom: "Add_31"
  bottom: "Add_32"
  bottom: "Add_33"
  top: "Concat_11"
  concat_param {
    axis: 1
  }
}
layer {
  name: "Add_34"
  type: "Eltwise"
  bottom: "BatchNorm_11"
  bottom: "Concat_11"
  top: "Add_34"
}
layer {
  name: "BatchNorm_12"
  type: "BatchNorm"
  bottom: "Add_34"
  top: "BatchNorm_12"
  batch_norm_param {
    use_global_stats: false
    eps: 0.001
  }
}
layer {
  name: "BatchNorm_12_scale"
  type: "Scale"
  bottom: "BatchNorm_12"
  top: "BatchNorm_12"
  scale_param {
    bias_term: true
  }
}
layer {
  name: "Threshold_12"
  type: "ReLU"
  bottom: "BatchNorm_12"
  top: "BatchNorm_12"
}
layer {
  name: "ConvNd_57"
  type: "Convolution"
  bottom: "BatchNorm_12"
  top: "ConvNd_57"
  convolution_param {
    num_output: 25
    bias_term: false
    pad: 0
    kernel_size: 1
    group: 1
    stride: 1
    weight_filler {
      type: "msra"
    }
    dilation: 1
  }
}
layer {
  name: "ConvNd_58"
  type: "Convolution"
  bottom: "ConvNd_57"
  top: "ConvNd_58"
  convolution_param {
    num_output: 28
    bias_term: false
    pad: 1
    kernel_size: 3
    group: 1
    stride: 1
    weight_filler {
      type: "msra"
    }
    dilation: 1
  }
}
layer {
  name: "ConvNd_59"
  type: "Convolution"
  bottom: "ConvNd_57"
  top: "ConvNd_59"
  convolution_param {
    num_output: 25
    bias_term: false
    pad: 2
    kernel_size: 3
    group: 1
    stride: 1
    weight_filler {
      type: "msra"
    }
    dilation: 2
  }
}
layer {
  name: "ConvNd_60"
  type: "Convolution"
  bottom: "ConvNd_57"
  top: "ConvNd_60"
  convolution_param {
    num_output: 25
    bias_term: false
    pad: 4
    kernel_size: 3
    group: 1
    stride: 1
    weight_filler {
      type: "msra"
    }
    dilation: 4
  }
}
layer {
  name: "Add_35"
  type: "Eltwise"
  bottom: "ConvNd_59"
  bottom: "ConvNd_60"
  top: "Add_35"
}
layer {
  name: "ConvNd_61"
  type: "Convolution"
  bottom: "ConvNd_57"
  top: "ConvNd_61"
  convolution_param {
    num_output: 25
    bias_term: false
    pad: 8
    kernel_size: 3
    group: 1
    stride: 1
    weight_filler {
      type: "msra"
    }
    dilation: 8
  }
}
layer {
  name: "Add_36"
  type: "Eltwise"
  bottom: "Add_35"
  bottom: "ConvNd_61"
  top: "Add_36"
}
layer {
  name: "ConvNd_62"
  type: "Convolution"
  bottom: "ConvNd_57"
  top: "ConvNd_62"
  convolution_param {
    num_output: 25
    bias_term: false
    pad: 16
    kernel_size: 3
    group: 1
    stride: 1
    weight_filler {
      type: "msra"
    }
    dilation: 16
  }
}
layer {
  name: "Add_37"
  type: "Eltwise"
  bottom: "Add_36"
  bottom: "ConvNd_62"
  top: "Add_37"
}
layer {
  name: "Concat_12"
  type: "Concat"
  bottom: "ConvNd_58"
  bottom: "ConvNd_59"
  bottom: "Add_35"
  bottom: "Add_36"
  bottom: "Add_37"
  top: "Concat_12"
  concat_param {
    axis: 1
  }
}
layer {
  name: "Add_38"
  type: "Eltwise"
  bottom: "BatchNorm_12"
  bottom: "Concat_12"
  top: "Add_38"
}
layer {
  name: "BatchNorm_13"
  type: "BatchNorm"
  bottom: "Add_38"
  top: "BatchNorm_13"
  batch_norm_param {
    use_global_stats: false
    eps: 0.001
  }
}
layer {
  name: "BatchNorm_13_scale"
  type: "Scale"
  bottom: "BatchNorm_13"
  top: "BatchNorm_13"
  scale_param {
    bias_term: true
  }
}
layer {
  name: "Threshold_13"
  type: "ReLU"
  bottom: "BatchNorm_13"
  top: "BatchNorm_13"
}
layer {
  name: "ConvNd_63"
  type: "Convolution"
  bottom: "BatchNorm_13"
  top: "ConvNd_63"
  convolution_param {
    num_output: 25
    bias_term: false
    pad: 0
    kernel_size: 1
    group: 1
    stride: 1
    weight_filler {
      type: "msra"
    }
    dilation: 1
  }
}
layer {
  name: "ConvNd_64"
  type: "Convolution"
  bottom: "ConvNd_63"
  top: "ConvNd_64"
  convolution_param {
    num_output: 28
    bias_term: false
    pad: 1
    kernel_size: 3
    group: 1
    stride: 1
    weight_filler {
      type: "msra"
    }
    dilation: 1
  }
}
layer {
  name: "ConvNd_65"
  type: "Convolution"
  bottom: "ConvNd_63"
  top: "ConvNd_65"
  convolution_param {
    num_output: 25
    bias_term: false
    pad: 2
    kernel_size: 3
    group: 1
    stride: 1
 
I0403 09:14:48.575388 26429 layer_factory.hpp:77] Creating layer data
I0403 09:14:48.575420 26429 net.cpp:86] Creating Layer data
I0403 09:14:48.575428 26429 net.cpp:382] data -> data
I0403 09:14:48.575448 26429 net.cpp:382] data -> label
I0403 09:14:48.575510 26429 image_seg_data_layer.cpp:43] Opening file ../workspace/data/cityscapes/img_seg.txt
I0403 09:14:48.580641 26429 image_seg_data_layer.cpp:62] Shuffling data
I0403 09:14:48.581701 26429 image_seg_data_layer.cpp:67] A total of 2975 images.
I0403 09:14:48.652781 26429 image_seg_data_layer.cpp:94] output data size: 5,3,512,512
I0403 09:14:48.652845 26429 image_seg_data_layer.cpp:103] output label size: 5,1,512,512
I0403 09:14:48.694082 26429 net.cpp:124] Setting up data
I0403 09:14:48.694110 26429 net.cpp:131] Top shape: 5 3 512 512 (3932160)
I0403 09:14:48.694115 26429 net.cpp:131] Top shape: 5 1 512 512 (1310720)
I0403 09:14:48.694118 26429 net.cpp:139] Memory required for data: 20971520
I0403 09:14:48.694128 26429 layer_factory.hpp:77] Creating layer data_data_0_split
I0403 09:14:48.694141 26429 net.cpp:86] Creating Layer data_data_0_split
I0403 09:14:48.694149 26429 net.cpp:408] data_data_0_split <- data
I0403 09:14:48.694164 26429 net.cpp:382] data_data_0_split -> data_data_0_split_0
I0403 09:14:48.694181 26429 net.cpp:382] data_data_0_split -> data_data_0_split_1
I0403 09:14:48.694192 26429 net.cpp:382] data_data_0_split -> data_data_0_split_2
I0403 09:14:48.694277 26429 net.cpp:124] Setting up data_data_0_split
I0403 09:14:48.694284 26429 net.cpp:131] Top shape: 5 3 512 512 (3932160)
I0403 09:14:48.694288 26429 net.cpp:131] Top shape: 5 3 512 512 (3932160)
I0403 09:14:48.694291 26429 net.cpp:131] Top shape: 5 3 512 512 (3932160)
I0403 09:14:48.694296 26429 net.cpp:139] Memory required for data: 68157440
I0403 09:14:48.694300 26429 layer_factory.hpp:77] Creating layer label_data_1_split
I0403 09:14:48.694308 26429 net.cpp:86] Creating Layer label_data_1_split
I0403 09:14:48.694334 26429 net.cpp:408] label_data_1_split <- label
I0403 09:14:48.694345 26429 net.cpp:382] label_data_1_split -> label_data_1_split_0
I0403 09:14:48.694356 26429 net.cpp:382] label_data_1_split -> label_data_1_split_1
I0403 09:14:48.694401 26429 net.cpp:124] Setting up label_data_1_split
I0403 09:14:48.694407 26429 net.cpp:131] Top shape: 5 1 512 512 (1310720)
I0403 09:14:48.694411 26429 net.cpp:131] Top shape: 5 1 512 512 (1310720)
I0403 09:14:48.694413 26429 net.cpp:139] Memory required for data: 78643200
I0403 09:14:48.694417 26429 layer_factory.hpp:77] Creating layer ConvNd_1
I0403 09:14:48.694439 26429 net.cpp:86] Creating Layer ConvNd_1
I0403 09:14:48.694453 26429 net.cpp:408] ConvNd_1 <- data_data_0_split_0
I0403 09:14:48.694460 26429 net.cpp:382] ConvNd_1 -> ConvNd_1
I0403 09:14:49.391419 26429 net.cpp:124] Setting up ConvNd_1
I0403 09:14:49.391448 26429 net.cpp:131] Top shape: 5 16 256 256 (5242880)
I0403 09:14:49.391451 26429 net.cpp:139] Memory required for data: 99614720
I0403 09:14:49.391466 26429 layer_factory.hpp:77] Creating layer BatchNorm_1
I0403 09:14:49.391477 26429 net.cpp:86] Creating Layer BatchNorm_1
I0403 09:14:49.391481 26429 net.cpp:408] BatchNorm_1 <- ConvNd_1
I0403 09:14:49.391489 26429 net.cpp:382] BatchNorm_1 -> BatchNorm_1
I0403 09:14:49.392467 26429 net.cpp:124] Setting up BatchNorm_1
I0403 09:14:49.392480 26429 net.cpp:131] Top shape: 5 16 256 256 (5242880)
I0403 09:14:49.392483 26429 net.cpp:139] Memory required for data: 120586240
I0403 09:14:49.392494 26429 layer_factory.hpp:77] Creating layer BatchNorm_1_scale
I0403 09:14:49.392503 26429 net.cpp:86] Creating Layer BatchNorm_1_scale
I0403 09:14:49.392506 26429 net.cpp:408] BatchNorm_1_scale <- BatchNorm_1
I0403 09:14:49.392511 26429 net.cpp:369] BatchNorm_1_scale -> BatchNorm_1 (in-place)
I0403 09:14:49.392573 26429 layer_factory.hpp:77] Creating layer BatchNorm_1_scale
I0403 09:14:49.392771 26429 net.cpp:124] Setting up BatchNorm_1_scale
I0403 09:14:49.392781 26429 net.cpp:131] Top shape: 5 16 256 256 (5242880)
I0403 09:14:49.392783 26429 net.cpp:139] Memory required for data: 141557760
I0403 09:14:49.392792 26429 layer_factory.hpp:77] Creating layer Threshold_1
I0403 09:14:49.392802 26429 net.cpp:86] Creating Layer Threshold_1
I0403 09:14:49.392808 26429 net.cpp:408] Threshold_1 <- BatchNorm_1
I0403 09:14:49.392815 26429 net.cpp:369] Threshold_1 -> BatchNorm_1 (in-place)
I0403 09:14:49.393030 26429 net.cpp:124] Setting up Threshold_1
I0403 09:14:49.393040 26429 net.cpp:131] Top shape: 5 16 256 256 (5242880)
I0403 09:14:49.393043 26429 net.cpp:139] Memory required for data: 162529280
I0403 09:14:49.393045 26429 layer_factory.hpp:77] Creating layer AvgPool2d_1
I0403 09:14:49.393054 26429 net.cpp:86] Creating Layer AvgPool2d_1
I0403 09:14:49.393061 26429 net.cpp:408] AvgPool2d_1 <- data_data_0_split_1
I0403 09:14:49.393069 26429 net.cpp:382] AvgPool2d_1 -> AvgPool2d_1
I0403 09:14:49.393301 26429 net.cpp:124] Setting up AvgPool2d_1
I0403 09:14:49.393312 26429 net.cpp:131] Top shape: 5 3 256 256 (983040)
I0403 09:14:49.393314 26429 net.cpp:139] Memory required for data: 166461440
I0403 09:14:49.393318 26429 layer_factory.hpp:77] Creating layer Concat_1
I0403 09:14:49.393328 26429 net.cpp:86] Creating Layer Concat_1
I0403 09:14:49.393335 26429 net.cpp:408] Concat_1 <- BatchNorm_1
I0403 09:14:49.393342 26429 net.cpp:408] Concat_1 <- AvgPool2d_1
I0403 09:14:49.393347 26429 net.cpp:382] Concat_1 -> Concat_1
I0403 09:14:49.393386 26429 net.cpp:124] Setting up Concat_1
I0403 09:14:49.393394 26429 net.cpp:131] Top shape: 5 19 256 256 (6225920)
I0403 09:14:49.393396 26429 net.cpp:139] Memory required for data: 191365120
I0403 09:14:49.393399 26429 layer_factory.hpp:77] Creating layer BatchNorm_2
I0403 09:14:49.393405 26429 net.cpp:86] Creating Layer BatchNorm_2
I0403 09:14:49.393410 26429 net.cpp:408] BatchNorm_2 <- Concat_1
I0403 09:14:49.393417 26429 net.cpp:382] BatchNorm_2 -> BatchNorm_2
I0403 09:14:49.393646 26429 net.cpp:124] Setting up BatchNorm_2
I0403 09:14:49.393653 26429 net.cpp:131] Top shape: 5 19 256 256 (6225920)
I0403 09:14:49.393676 26429 net.cpp:139] Memory required for data: 216268800
I0403 09:14:49.393690 26429 layer_factory.hpp:77] Creating layer BatchNorm_2_scale
I0403 09:14:49.393700 26429 net.cpp:86] Creating Layer BatchNorm_2_scale
I0403 09:14:49.393707 26429 net.cpp:408] BatchNorm_2_scale <- BatchNorm_2
I0403 09:14:49.393714 26429 net.cpp:369] BatchNorm_2_scale -> BatchNorm_2 (in-place)
I0403 09:14:49.393766 26429 layer_factory.hpp:77] Creating layer BatchNorm_2_scale
I0403 09:14:49.393944 26429 net.cpp:124] Setting up BatchNorm_2_scale
I0403 09:14:49.393952 26429 net.cpp:131] Top shape: 5 19 256 256 (6225920)
I0403 09:14:49.393955 26429 net.cpp:139] Memory required for data: 241172480
I0403 09:14:49.393961 26429 layer_factory.hpp:77] Creating layer Threshold_2
I0403 09:14:49.393970 26429 net.cpp:86] Creating Layer Threshold_2
I0403 09:14:49.393975 26429 net.cpp:408] Threshold_2 <- BatchNorm_2
I0403 09:14:49.393980 26429 net.cpp:369] Threshold_2 -> BatchNorm_2 (in-place)
I0403 09:14:49.394356 26429 net.cpp:124] Setting up Threshold_2
I0403 09:14:49.394367 26429 net.cpp:131] Top shape: 5 19 256 256 (6225920)
I0403 09:14:49.394371 26429 net.cpp:139] Memory required for data: 266076160
I0403 09:14:49.394376 26429 layer_factory.hpp:77] Creating layer ConvNd_2
I0403 09:14:49.394388 26429 net.cpp:86] Creating Layer ConvNd_2
I0403 09:14:49.394395 26429 net.cpp:408] ConvNd_2 <- BatchNorm_2
I0403 09:14:49.394404 26429 net.cpp:382] ConvNd_2 -> ConvNd_2
I0403 09:14:49.396114 26429 net.cpp:124] Setting up ConvNd_2
I0403 09:14:49.396129 26429 net.cpp:131] Top shape: 5 12 128 128 (983040)
I0403 09:14:49.396132 26429 net.cpp:139] Memory required for data: 270008320
I0403 09:14:49.396138 26429 layer_factory.hpp:77] Creating layer ConvNd_2_ConvNd_2_0_split
I0403 09:14:49.396147 26429 net.cpp:86] Creating Layer ConvNd_2_ConvNd_2_0_split
I0403 09:14:49.396154 26429 net.cpp:408] ConvNd_2_ConvNd_2_0_split <- ConvNd_2
I0403 09:14:49.396164 26429 net.cpp:382] ConvNd_2_ConvNd_2_0_split -> ConvNd_2_ConvNd_2_0_split_0
I0403 09:14:49.396178 26429 net.cpp:382] ConvNd_2_ConvNd_2_0_split -> ConvNd_2_ConvNd_2_0_split_1
I0403 09:14:49.396191 26429 net.cpp:382] ConvNd_2_ConvNd_2_0_split -> ConvNd_2_ConvNd_2_0_split_2
I0403 09:14:49.396203 26429 net.cpp:382] ConvNd_2_ConvNd_2_0_split -> ConvNd_2_ConvNd_2_0_split_3
I0403 09:14:49.396222 26429 net.cpp:382] ConvNd_2_ConvNd_2_0_split -> ConvNd_2_ConvNd_2_0_split_4
I0403 09:14:49.396311 26429 net.cpp:124] Setting up ConvNd_2_ConvNd_2_0_split
I0403 09:14:49.396322 26429 net.cpp:131] Top shape: 5 12 128 128 (983040)
I0403 09:14:49.396325 26429 net.cpp:131] Top shape: 5 12 128 128 (983040)
I0403 09:14:49.396329 26429 net.cpp:131] Top shape: 5 12 128 128 (983040)
I0403 09:14:49.396334 26429 net.cpp:131] Top shape: 5 12 128 128 (983040)
I0403 09:14:49.396340 26429 net.cpp:131] Top shape: 5 12 128 128 (983040)
I0403 09:14:49.396343 26429 net.cpp:139] Memory required for data: 289669120
I0403 09:14:49.396348 26429 layer_factory.hpp:77] Creating layer ConvNd_3
I0403 09:14:49.396363 26429 net.cpp:86] Creating Layer ConvNd_3
I0403 09:14:49.396370 26429 net.cpp:408] ConvNd_3 <- ConvNd_2_ConvNd_2_0_split_0
I0403 09:14:49.396379 26429 net.cpp:382] ConvNd_3 -> ConvNd_3
I0403 09:14:49.397429 26429 net.cpp:124] Setting up ConvNd_3
I0403 09:14:49.397442 26429 net.cpp:131] Top shape: 5 16 128 128 (1310720)
I0403 09:14:49.397445 26429 net.cpp:139] Memory required for data: 294912000
I0403 09:14:49.397451 26429 layer_factory.hpp:77] Creating layer ConvNd_4
I0403 09:14:49.397467 26429 net.cpp:86] Creating Layer ConvNd_4
I0403 09:14:49.397475 26429 net.cpp:408] ConvNd_4 <- ConvNd_2_ConvNd_2_0_split_1
I0403 09:14:49.397486 26429 net.cpp:382] ConvNd_4 -> ConvNd_4
I0403 09:14:49.397702 26429 net.cpp:124] Setting up ConvNd_4
I0403 09:14:49.397711 26429 net.cpp:131] Top shape: 5 12 128 128 (983040)
I0403 09:14:49.397713 26429 net.cpp:139] Memory required for data: 298844160
I0403 09:14:49.397718 26429 layer_factory.hpp:77] Creating layer ConvNd_4_ConvNd_4_0_split
I0403 09:14:49.397729 26429 net.cpp:86] Creating Layer ConvNd_4_ConvNd_4_0_split
I0403 09:14:49.397749 26429 net.cpp:408] ConvNd_4_ConvNd_4_0_split <- ConvNd_4
I0403 09:14:49.397758 26429 net.cpp:382] ConvNd_4_ConvNd_4_0_split -> ConvNd_4_ConvNd_4_0_split_0
I0403 09:14:49.397771 26429 net.cpp:382] ConvNd_4_ConvNd_4_0_split -> ConvNd_4_ConvNd_4_0_split_1
I0403 09:14:49.397823 26429 net.cpp:124] Setting up ConvNd_4_ConvNd_4_0_split
I0403 09:14:49.397831 26429 net.cpp:131] Top shape: 5 12 128 128 (983040)
I0403 09:14:49.397835 26429 net.cpp:131] Top shape: 5 12 128 128 (983040)
I0403 09:14:49.397837 26429 net.cpp:139] Memory required for data: 306708480
I0403 09:14:49.397840 26429 layer_factory.hpp:77] Creating layer ConvNd_5
I0403 09:14:49.397853 26429 net.cpp:86] Creating Layer ConvNd_5
I0403 09:14:49.397859 26429 net.cpp:408] ConvNd_5 <- ConvNd_2_ConvNd_2_0_split_2
I0403 09:14:49.397871 26429 net.cpp:382] ConvNd_5 -> ConvNd_5
I0403 09:14:49.398075 26429 net.cpp:124] Setting up ConvNd_5
I0403 09:14:49.398083 26429 net.cpp:131] Top shape: 5 12 128 128 (983040)
I0403 09:14:49.398087 26429 net.cpp:139] Memory required for data: 310640640
I0403 09:14:49.398092 26429 layer_factory.hpp:77] Creating layer Add_1
I0403 09:14:49.398098 26429 net.cpp:86] Creating Layer Add_1
I0403 09:14:49.398104 26429 net.cpp:408] Add_1 <- ConvNd_4_ConvNd_4_0_split_0
I0403 09:14:49.398110 26429 net.cpp:408] Add_1 <- ConvNd_5
I0403 09:14:49.398118 26429 net.cpp:382] Add_1 -> Add_1
I0403 09:14:49.398156 26429 net.cpp:124] Setting up Add_1
I0403 09:14:49.398164 26429 net.cpp:131] Top shape: 5 12 128 128 (983040)
I0403 09:14:49.398165 26429 net.cpp:139] Memory required for data: 314572800
I0403 09:14:49.398169 26429 layer_factory.hpp:77] Creating layer Add_1_Add_1_0_split
I0403 09:14:49.398175 26429 net.cpp:86] Creating Layer Add_1_Add_1_0_split
I0403 09:14:49.398180 26429 net.cpp:408] Add_1_Add_1_0_split <- Add_1
I0403 09:14:49.398186 26429 net.cpp:382] Add_1_Add_1_0_split -> Add_1_Add_1_0_split_0
I0403 09:14:49.398198 26429 net.cpp:382] Add_1_Add_1_0_split -> Add_1_Add_1_0_split_1
I0403 09:14:49.398249 26429 net.cpp:124] Setting up Add_1_Add_1_0_split
I0403 09:14:49.398257 26429 net.cpp:131] Top shape: 5 12 128 128 (983040)
I0403 09:14:49.398259 26429 net.cpp:131] Top shape: 5 12 128 128 (983040)
I0403 09:14:49.398262 26429 net.cpp:139] Memory required for data: 322437120
I0403 09:14:49.398267 26429 layer_factory.hpp:77] Creating layer ConvNd_6
I0403 09:14:49.398277 26429 net.cpp:86] Creating Layer ConvNd_6
I0403 09:14:49.398284 26429 net.cpp:408] ConvNd_6 <- ConvNd_2_ConvNd_2_0_split_3
I0403 09:14:49.398293 26429 net.cpp:382] ConvNd_6 -> ConvNd_6
I0403 09:14:49.398499 26429 net.cpp:124] Setting up ConvNd_6
I0403 09:14:49.398506 26429 net.cpp:131] Top shape: 5 12 128 128 (983040)
I0403 09:14:49.398509 26429 net.cpp:139] Memory required for data: 326369280
I0403 09:14:49.398514 26429 layer_factory.hpp:77] Creating layer Add_2
I0403 09:14:49.398520 26429 net.cpp:86] Creating Layer Add_2
I0403 09:14:49.398526 26429 net.cpp:408] Add_2 <- Add_1_Add_1_0_split_0
I0403 09:14:49.398532 26429 net.cpp:408] Add_2 <- ConvNd_6
I0403 09:14:49.398540 26429 net.cpp:382] Add_2 -> Add_2
I0403 09:14:49.398577 26429 net.cpp:124] Setting up Add_2
I0403 09:14:49.398584 26429 net.cpp:131] Top shape: 5 12 128 128 (983040)
I0403 09:14:49.398586 26429 net.cpp:139] Memory required for data: 330301440
I0403 09:14:49.398589 26429 layer_factory.hpp:77] Creating layer Add_2_Add_2_0_split
I0403 09:14:49.398596 26429 net.cpp:86] Creating Layer Add_2_Add_2_0_split
I0403 09:14:49.398599 26429 net.cpp:408] Add_2_Add_2_0_split <- Add_2
I0403 09:14:49.398607 26429 net.cpp:382] Add_2_Add_2_0_split -> Add_2_Add_2_0_split_0
I0403 09:14:49.398618 26429 net.cpp:382] Add_2_Add_2_0_split -> Add_2_Add_2_0_split_1
I0403 09:14:49.398667 26429 net.cpp:124] Setting up Add_2_Add_2_0_split
I0403 09:14:49.398674 26429 net.cpp:131] Top shape: 5 12 128 128 (983040)
I0403 09:14:49.398677 26429 net.cpp:131] Top shape: 5 12 128 128 (983040)
I0403 09:14:49.398680 26429 net.cpp:139] Memory required for data: 338165760
I0403 09:14:49.398684 26429 layer_factory.hpp:77] Creating layer ConvNd_7
I0403 09:14:49.398710 26429 net.cpp:86] Creating Layer ConvNd_7
I0403 09:14:49.398717 26429 net.cpp:408] ConvNd_7 <- ConvNd_2_ConvNd_2_0_split_4
I0403 09:14:49.398727 26429 net.cpp:382] ConvNd_7 -> ConvNd_7
I0403 09:14:49.398928 26429 net.cpp:124] Setting up ConvNd_7
I0403 09:14:49.398936 26429 net.cpp:131] Top shape: 5 12 128 128 (983040)
I0403 09:14:49.398938 26429 net.cpp:139] Memory required for data: 342097920
I0403 09:14:49.398947 26429 layer_factory.hpp:77] Creating layer Add_3
I0403 09:14:49.398957 26429 net.cpp:86] Creating Layer Add_3
I0403 09:14:49.398960 26429 net.cpp:408] Add_3 <- Add_2_Add_2_0_split_0
I0403 09:14:49.398967 26429 net.cpp:408] Add_3 <- ConvNd_7
I0403 09:14:49.398978 26429 net.cpp:382] Add_3 -> Add_3
I0403 09:14:49.399013 26429 net.cpp:124] Setting up Add_3
I0403 09:14:49.399019 26429 net.cpp:131] Top shape: 5 12 128 128 (983040)
I0403 09:14:49.399022 26429 net.cpp:139] Memory required for data: 346030080
I0403 09:14:49.399026 26429 layer_factory.hpp:77] Creating layer Concat_2
I0403 09:14:49.399034 26429 net.cpp:86] Creating Layer Concat_2
I0403 09:14:49.399039 26429 net.cpp:408] Concat_2 <- ConvNd_3
I0403 09:14:49.399045 26429 net.cpp:408] Concat_2 <- ConvNd_4_ConvNd_4_0_split_1
I0403 09:14:49.399051 26429 net.cpp:408] Concat_2 <- Add_1_Add_1_0_split_1
I0403 09:14:49.399057 26429 net.cpp:408] Concat_2 <- Add_2_Add_2_0_split_1
I0403 09:14:49.399061 26429 net.cpp:408] Concat_2 <- Add_3
I0403 09:14:49.399068 26429 net.cpp:382] Concat_2 -> Concat_2
I0403 09:14:49.399113 26429 net.cpp:124] Setting up Concat_2
I0403 09:14:49.399121 26429 net.cpp:131] Top shape: 5 64 128 128 (5242880)
I0403 09:14:49.399122 26429 net.cpp:139] Memory required for data: 367001600
I0403 09:14:49.399125 26429 layer_factory.hpp:77] Creating layer BatchNorm_3
I0403 09:14:49.399134 26429 net.cpp:86] Creating Layer BatchNorm_3
I0403 09:14:49.399139 26429 net.cpp:408] BatchNorm_3 <- Concat_2
I0403 09:14:49.399147 26429 net.cpp:382] BatchNorm_3 -> BatchNorm_3
I0403 09:14:49.400060 26429 net.cpp:124] Setting up BatchNorm_3
I0403 09:14:49.400074 26429 net.cpp:131] Top shape: 5 64 128 128 (5242880)
I0403 09:14:49.400075 26429 net.cpp:139] Memory required for data: 387973120
I0403 09:14:49.400084 26429 layer_factory.hpp:77] Creating layer BatchNorm_3_scale
I0403 09:14:49.400096 26429 net.cpp:86] Creating Layer BatchNorm_3_scale
I0403 09:14:49.400104 26429 net.cpp:408] BatchNorm_3_scale <- BatchNorm_3
I0403 09:14:49.400111 26429 net.cpp:369] BatchNorm_3_scale -> BatchNorm_3 (in-place)
I0403 09:14:49.400168 26429 layer_factory.hpp:77] Creating layer BatchNorm_3_scale
I0403 09:14:49.400312 26429 net.cpp:124] Setting up BatchNorm_3_scale
I0403 09:14:49.400321 26429 net.cpp:131] Top shape: 5 64 128 128 (5242880)
I0403 09:14:49.400323 26429 net.cpp:139] Memory required for data: 408944640
I0403 09:14:49.400329 26429 layer_factory.hpp:77] Creating layer Threshold_3
I0403 09:14:49.400337 26429 net.cpp:86] Creating Layer Threshold_3
I0403 09:14:49.400344 26429 net.cpp:408] Threshold_3 <- BatchNorm_3
I0403 09:14:49.400353 26429 net.cpp:369] Threshold_3 -> BatchNorm_3 (in-place)
I0403 09:14:49.400590 26429 net.cpp:124] Setting up Threshold_3
I0403 09:14:49.400601 26429 net.cpp:131] Top shape: 5 64 128 128 (5242880)
I0403 09:14:49.400605 26429 net.cpp:139] Memory required for data: 429916160
I0403 09:14:49.400609 26429 layer_factory.hpp:77] Creating layer BatchNorm_3_Threshold_3_0_split
I0403 09:14:49.400616 26429 net.cpp:86] Creating Layer BatchNorm_3_Threshold_3_0_split
I0403 09:14:49.400620 26429 net.cpp:408] BatchNorm_3_Threshold_3_0_split <- BatchNorm_3
I0403 09:14:49.400631 26429 net.cpp:382] BatchNorm_3_Threshold_3_0_split -> BatchNorm_3_Threshold_3_0_split_0
I0403 09:14:49.400643 26429 net.cpp:382] BatchNorm_3_Threshold_3_0_split -> BatchNorm_3_Threshold_3_0_split_1
I0403 09:14:49.400655 26429 net.cpp:382] BatchNorm_3_Threshold_3_0_split -> BatchNorm_3_Threshold_3_0_split_2
I0403 09:14:49.400725 26429 net.cpp:124] Setting up BatchNorm_3_Threshold_3_0_split
I0403 09:14:49.400733 26429 net.cpp:131] Top shape: 5 64 128 128 (5242880)
I0403 09:14:49.400749 26429 net.cpp:131] Top shape: 5 64 128 128 (5242880)
I0403 09:14:49.400761 26429 net.cpp:131] Top shape: 5 64 128 128 (5242880)
I0403 09:14:49.400765 26429 net.cpp:139] Memory required for data: 492830720
I0403 09:14:49.400770 26429 layer_factory.hpp:77] Creating layer ConvNd_8
I0403 09:14:49.400784 26429 net.cpp:86] Creating Layer ConvNd_8
I0403 09:14:49.400790 26429 net.cpp:408] ConvNd_8 <- BatchNorm_3_Threshold_3_0_split_0
I0403 09:14:49.400800 26429 net.cpp:382] ConvNd_8 -> ConvNd_8
I0403 09:14:49.401871 26429 net.cpp:124] Setting up ConvNd_8
I0403 09:14:49.401885 26429 net.cpp:131] Top shape: 5 12 128 128 (983040)
I0403 09:14:49.401890 26429 net.cpp:139] Memory required for data: 496762880
I0403 09:14:49.401896 26429 layer_factory.hpp:77] Creating layer ConvNd_8_ConvNd_8_0_split
I0403 09:14:49.401909 26429 net.cpp:86] Creating Layer ConvNd_8_ConvNd_8_0_split
I0403 09:14:49.401937 26429 net.cpp:408] ConvNd_8_ConvNd_8_0_split <- ConvNd_8
I0403 09:14:49.401947 26429 net.cpp:382] ConvNd_8_ConvNd_8_0_split -> ConvNd_8_ConvNd_8_0_split_0
I0403 09:14:49.401960 26429 net.cpp:382] ConvNd_8_ConvNd_8_0_split -> ConvNd_8_ConvNd_8_0_split_1
I0403 09:14:49.401990 26429 net.cpp:382] ConvNd_8_ConvNd_8_0_split -> ConvNd_8_ConvNd_8_0_split_2
I0403 09:14:49.402001 26429 net.cpp:382] ConvNd_8_ConvNd_8_0_split -> ConvNd_8_ConvNd_8_0_split_3
I0403 09:14:49.402024 26429 net.cpp:382] ConvNd_8_ConvNd_8_0_split -> ConvNd_8_ConvNd_8_0_split_4
I0403 09:14:49.402134 26429 net.cpp:124] Setting up ConvNd_8_ConvNd_8_0_split
I0403 09:14:49.402145 26429 net.cpp:131] Top shape: 5 12 128 128 (983040)
I0403 09:14:49.402151 26429 net.cpp:131] Top shape: 5 12 128 128 (983040)
I0403 09:14:49.402156 26429 net.cpp:131] Top shape: 5 12 128 128 (983040)
I0403 09:14:49.402163 26429 net.cpp:131] Top shape: 5 12 128 128 (983040)
I0403 09:14:49.402169 26429 net.cpp:131] Top shape: 5 12 128 128 (983040)
I0403 09:14:49.402173 26429 net.cpp:139] Memory required for data: 516423680
I0403 09:14:49.402179 26429 layer_factory.hpp:77] Creating layer ConvNd_9
I0403 09:14:49.402200 26429 net.cpp:86] Creating Layer ConvNd_9
I0403 09:14:49.402207 26429 net.cpp:408] ConvNd_9 <- ConvNd_8_ConvNd_8_0_split_0
I0403 09:14:49.402216 26429 net.cpp:382] ConvNd_9 -> ConvNd_9
I0403 09:14:49.403703 26429 net.cpp:124] Setting up ConvNd_9
I0403 09:14:49.403719 26429 net.cpp:131] Top shape: 5 16 128 128 (1310720)
I0403 09:14:49.403726 26429 net.cpp:139] Memory required for data: 521666560
I0403 09:14:49.403733 26429 layer_factory.hpp:77] Creating layer ConvNd_10
I0403 09:14:49.403748 26429 net.cpp:86] Creating Layer ConvNd_10
I0403 09:14:49.403754 26429 net.cpp:408] ConvNd_10 <- ConvNd_8_ConvNd_8_0_split_1
I0403 09:14:49.403765 26429 net.cpp:382] ConvNd_10 -> ConvNd_10
I0403 09:14:49.404072 26429 net.cpp:124] Setting up ConvNd_10
I0403 09:14:49.404084 26429 net.cpp:131] Top shape: 5 12 128 128 (983040)
I0403 09:14:49.404088 26429 net.cpp:139] Memory required for data: 525598720
I0403 09:14:49.404095 26429 layer_factory.hpp:77] Creating layer ConvNd_10_ConvNd_10_0_split
I0403 09:14:49.404105 26429 net.cpp:86] Creating Layer ConvNd_10_ConvNd_10_0_split
I0403 09:14:49.404112 26429 net.cpp:408] ConvNd_10_ConvNd_10_0_split <- ConvNd_10
I0403 09:14:49.404119 26429 net.cpp:382] ConvNd_10_ConvNd_10_0_split -> ConvNd_10_ConvNd_10_0_split_0
I0403 09:14:49.404132 26429 net.cpp:382] ConvNd_10_ConvNd_10_0_split -> ConvNd_10_ConvNd_10_0_split_1
I0403 09:14:49.404188 26429 net.cpp:124] Setting up ConvNd_10_ConvNd_10_0_split
I0403 09:14:49.404197 26429 net.cpp:131] Top shape: 5 12 128 128 (983040)
I0403 09:14:49.404203 26429 net.cpp:131] Top shape: 5 12 128 128 (983040)
I0403 09:14:49.404209 26429 net.cpp:139] Memory required for data: 533463040
I0403 09:14:49.404213 26429 layer_factory.hpp:77] Creating layer ConvNd_11
I0403 09:14:49.404224 26429 net.cpp:86] Creating Layer ConvNd_11
I0403 09:14:49.404230 26429 net.cpp:408] ConvNd_11 <- ConvNd_8_ConvNd_8_0_split_2
I0403 09:14:49.404240 26429 net.cpp:382] ConvNd_11 -> ConvNd_11
I0403 09:14:49.404472 26429 net.cpp:124] Setting up ConvNd_11
I0403 09:14:49.404497 26429 net.cpp:131] Top shape: 5 12 128 128 (983040)
I0403 09:14:49.404503 26429 net.cpp:139] Memory required for data: 537395200
I0403 09:14:49.404511 26429 layer_factory.hpp:77] Creating layer Add_4
I0403 09:14:49.404518 26429 net.cpp:86] Creating Layer Add_4
I0403 09:14:49.404525 26429 net.cpp:408] Add_4 <- ConvNd_10_ConvNd_10_0_split_0
I0403 09:14:49.404531 26429 net.cpp:408] Add_4 <- ConvNd_11
I0403 09:14:49.404538 26429 net.cpp:382] Add_4 -> Add_4
I0403 09:14:49.404578 26429 net.cpp:124] Setting up Add_4
I0403 09:14:49.404588 26429 net.cpp:131] Top shape: 5 12 128 128 (983040)
I0403 09:14:49.404592 26429 net.cpp:139] Memory required for data: 541327360
I0403 09:14:49.404597 26429 layer_factory.hpp:77] Creating layer Add_4_Add_4_0_split
I0403 09:14:49.404603 26429 net.cpp:86] Creating Layer Add_4_Add_4_0_split
I0403 09:14:49.404608 26429 net.cpp:408] Add_4_Add_4_0_split <- Add_4
I0403 09:14:49.404614 26429 net.cpp:382] Add_4_Add_4_0_split -> Add_4_Add_4_0_split_0
I0403 09:14:49.404626 26429 net.cpp:382] Add_4_Add_4_0_split -> Add_4_Add_4_0_split_1
I0403 09:14:49.404687 26429 net.cpp:124] Setting up Add_4_Add_4_0_split
I0403 09:14:49.404700 26429 net.cpp:131] Top shape: 5 12 128 128 (983040)
I0403 09:14:49.404706 26429 net.cpp:131] Top shape: 5 12 128 128 (983040)
I0403 09:14:49.404711 26429 net.cpp:139] Memory required for data: 549191680
I0403 09:14:49.404716 26429 layer_factory.hpp:77] Creating layer ConvNd_12
I0403 09:14:49.404728 26429 net.cpp:86] Creating Layer ConvNd_12
I0403 09:14:49.404736 26429 net.cpp:408] ConvNd_12 <- ConvNd_8_ConvNd_8_0_split_3
I0403 09:14:49.404748 26429 net.cpp:382] ConvNd_12 -> ConvNd_12
I0403 09:14:49.404999 26429 net.cpp:124] Setting up ConvNd_12
I0403 09:14:49.405009 26429 net.cpp:131] Top shape: 5 12 128 128 (983040)
I0403 09:14:49.405012 26429 net.cpp:139] Memory required for data: 553123840
I0403 09:14:49.405017 26429 layer_factory.hpp:77] Creating layer Add_5
I0403 09:14:49.405025 26429 net.cpp:86] Creating Layer Add_5
I0403 09:14:49.405030 26429 net.cpp:408] Add_5 <- Add_4_Add_4_0_split_0
I0403 09:14:49.405036 26429 net.cpp:408] Add_5 <- ConvNd_12
I0403 09:14:49.405043 26429 net.cpp:382] Add_5 -> Add_5
I0403 09:14:49.405082 26429 net.cpp:124] Setting up Add_5
I0403 09:14:49.405089 26429 net.cpp:131] Top shape: 5 12 128 128 (983040)
I0403 09:14:49.405092 26429 net.cpp:139] Memory required for data: 557056000
I0403 09:14:49.405095 26429 layer_factory.hpp:77] Creating layer Add_5_Add_5_0_split
I0403 09:14:49.405102 26429 net.cpp:86] Creating Layer Add_5_Add_5_0_split
I0403 09:14:49.405107 26429 net.cpp:408] Add_5_Add_5_0_split <- Add_5
I0403 09:14:49.405120 26429 net.cpp:382] Add_5_Add_5_0_split -> Add_5_Add_5_0_split_0
I0403 09:14:49.405130 26429 net.cpp:382] Add_5_Add_5_0_split -> Add_5_Add_5_0_split_1
I0403 09:14:49.405184 26429 net.cpp:124] Setting up Add_5_Add_5_0_split
I0403 09:14:49.405190 26429 net.cpp:131] Top shape: 5 12 128 128 (983040)
I0403 09:14:49.405194 26429 net.cpp:131] Top shape: 5 12 128 128 (983040)
I0403 09:14:49.405196 26429 net.cpp:139] Memory required for data: 564920320
I0403 09:14:49.405200 26429 layer_factory.hpp:77] Creating layer ConvNd_13
I0403 09:14:49.405211 26429 net.cpp:86] Creating Layer ConvNd_13
I0403 09:14:49.405217 26429 net.cpp:408] ConvNd_13 <- ConvNd_8_ConvNd_8_0_split_4
I0403 09:14:49.405228 26429 net.cpp:382] ConvNd_13 -> ConvNd_13
I0403 09:14:49.405436 26429 net.cpp:124] Setting up ConvNd_13
I0403 09:14:49.405443 26429 net.cpp:131] Top shape: 5 12 128 128 (983040)
I0403 09:14:49.405445 26429 net.cpp:139] Memory required for data: 568852480
I0403 09:14:49.405449 26429 layer_factory.hpp:77] Creating layer Add_6
I0403 09:14:49.405457 26429 net.cpp:86] Creating Layer Add_6
I0403 09:14:49.405460 26429 net.cpp:408] Add_6 <- Add_5_Add_5_0_split_0
I0403 09:14:49.405467 26429 net.cpp:408] Add_6 <- ConvNd_13
I0403 09:14:49.405475 26429 net.cpp:382] Add_6 -> Add_6
I0403 09:14:49.405508 26429 net.cpp:124] Setting up Add_6
I0403 09:14:49.405515 26429 net.cpp:131] Top shape: 5 12 128 128 (983040)
I0403 09:14:49.405519 26429 net.cpp:139] Memory required for data: 572784640
I0403 09:14:49.405535 26429 layer_factory.hpp:77] Creating layer Concat_3
I0403 09:14:49.405544 26429 net.cpp:86] Creating Layer Concat_3
I0403 09:14:49.405550 26429 net.cpp:408] Concat_3 <- ConvNd_9
I0403 09:14:49.405556 26429 net.cpp:408] Concat_3 <- ConvNd_10_ConvNd_10_0_split_1
I0403 09:14:49.405562 26429 net.cpp:408] Concat_3 <- Add_4_Add_4_0_split_1
I0403 09:14:49.405570 26429 net.cpp:408] Concat_3 <- Add_5_Add_5_0_split_1
I0403 09:14:49.405575 26429 net.cpp:408] Concat_3 <- Add_6
I0403 09:14:49.405582 26429 net.cpp:382] Concat_3 -> Concat_3
I0403 09:14:49.405622 26429 net.cpp:124] Setting up Concat_3
I0403 09:14:49.405629 26429 net.cpp:131] Top shape: 5 64 128 128 (5242880)
I0403 09:14:49.405632 26429 net.cpp:139] Memory required for data: 593756160
I0403 09:14:49.405634 26429 layer_factory.hpp:77] Creating layer Add_7
I0403 09:14:49.405642 26429 net.cpp:86] Creating Layer Add_7
I0403 09:14:49.405645 26429 net.cpp:408] Add_7 <- BatchNorm_3_Threshold_3_0_split_1
I0403 09:14:49.405652 26429 net.cpp:408] Add_7 <- Concat_3
I0403 09:14:49.405659 26429 net.cpp:382] Add_7 -> Add_7
I0403 09:14:49.405695 26429 net.cpp:124] Setting up Add_7
I0403 09:14:49.405702 26429 net.cpp:131] Top shape: 5 64 128 128 (5242880)
I0403 09:14:49.405704 26429 net.cpp:139] Memory required for data: 614727680
I0403 09:14:49.405707 26429 layer_factory.hpp:77] Creating layer BatchNorm_4
I0403 09:14:49.405716 26429 net.cpp:86] Creating Layer BatchNorm_4
I0403 09:14:49.405725 26429 net.cpp:408] BatchNorm_4 <- Add_7
I0403 09:14:49.405731 26429 net.cpp:382] BatchNorm_4 -> BatchNorm_4
I0403 09:14:49.405944 26429 net.cpp:124] Setting up BatchNorm_4
I0403 09:14:49.405952 26429 net.cpp:131] Top shape: 5 64 128 128 (5242880)
I0403 09:14:49.405956 26429 net.cpp:139] Memory required for data: 635699200
I0403 09:14:49.405963 26429 layer_factory.hpp:77] Creating layer BatchNorm_4_scale
I0403 09:14:49.405972 26429 net.cpp:86] Creating Layer BatchNorm_4_scale
I0403 09:14:49.405979 26429 net.cpp:408] BatchNorm_4_scale <- BatchNorm_4
I0403 09:14:49.405985 26429 net.cpp:369] BatchNorm_4_scale -> BatchNorm_4 (in-place)
I0403 09:14:49.406039 26429 layer_factory.hpp:77] Creating layer BatchNorm_4_scale
I0403 09:14:49.406183 26429 net.cpp:124] Setting up BatchNorm_4_scale
I0403 09:14:49.406190 26429 net.cpp:131] Top shape: 5 64 128 128 (5242880)
I0403 09:14:49.406193 26429 net.cpp:139] Memory required for data: 656670720
I0403 09:14:49.406206 26429 layer_factory.hpp:77] Creating layer Threshold_4
I0403 09:14:49.406219 26429 net.cpp:86] Creating Layer Threshold_4
I0403 09:14:49.406225 26429 net.cpp:408] Threshold_4 <- BatchNorm_4
I0403 09:14:49.406232 26429 net.cpp:369] Threshold_4 -> BatchNorm_4 (in-place)
I0403 09:14:49.406467 26429 net.cpp:124] Setting up Threshold_4
I0403 09:14:49.406477 26429 net.cpp:131] Top shape: 5 64 128 128 (5242880)
I0403 09:14:49.406481 26429 net.cpp:139] Memory required for data: 677642240
I0403 09:14:49.406483 26429 layer_factory.hpp:77] Creating layer BatchNorm_4_Threshold_4_0_split
I0403 09:14:49.406491 26429 net.cpp:86] Creating Layer BatchNorm_4_Threshold_4_0_split
I0403 09:14:49.406497 26429 net.cpp:408] BatchNorm_4_Threshold_4_0_split <- BatchNorm_4
I0403 09:14:49.406507 26429 net.cpp:382] BatchNorm_4_Threshold_4_0_split -> BatchNorm_4_Threshold_4_0_split_0
I0403 09:14:49.406519 26429 net.cpp:382] BatchNorm_4_Threshold_4_0_split -> BatchNorm_4_Threshold_4_0_split_1
I0403 09:14:49.406576 26429 net.cpp:124] Setting up BatchNorm_4_Threshold_4_0_split
I0403 09:14:49.406584 26429 net.cpp:131] Top shape: 5 64 128 128 (5242880)
I0403 09:14:49.406587 26429 net.cpp:131] Top shape: 5 64 128 128 (5242880)
I0403 09:14:49.406589 26429 net.cpp:139] Memory required for data: 719585280
I0403 09:14:49.406594 26429 layer_factory.hpp:77] Creating layer ConvNd_14
I0403 09:14:49.406605 26429 net.cpp:86] Creating Layer ConvNd_14
I0403 09:14:49.406612 26429 net.cpp:408] ConvNd_14 <- BatchNorm_4_Threshold_4_0_split_0
I0403 09:14:49.406621 26429 net.cpp:382] ConvNd_14 -> ConvNd_14
I0403 09:14:49.407696 26429 net.cpp:124] Setting up ConvNd_14
I0403 09:14:49.407719 26429 net.cpp:131] Top shape: 5 12 128 128 (983040)
I0403 09:14:49.407722 26429 net.cpp:139] Memory required for data: 723517440
I0403 09:14:49.407728 26429 layer_factory.hpp:77] Creating layer ConvNd_14_ConvNd_14_0_split
I0403 09:14:49.407739 26429 net.cpp:86] Creating Layer ConvNd_14_ConvNd_14_0_split
I0403 09:14:49.407745 26429 net.cpp:408] ConvNd_14_ConvNd_14_0_split <- ConvNd_14
I0403 09:14:49.407757 26429 net.cpp:382] ConvNd_14_ConvNd_14_0_split -> ConvNd_14_ConvNd_14_0_split_0
I0403 09:14:49.407770 26429 net.cpp:382] ConvNd_14_ConvNd_14_0_split -> ConvNd_14_ConvNd_14_0_split_1
I0403 09:14:49.407797 26429 net.cpp:382] ConvNd_14_ConvNd_14_0_split -> ConvNd_14_ConvNd_14_0_split_2
I0403 09:14:49.407810 26429 net.cpp:382] ConvNd_14_ConvNd_14_0_split -> ConvNd_14_ConvNd_14_0_split_3
I0403 09:14:49.407824 26429 net.cpp:382] ConvNd_14_ConvNd_14_0_split -> ConvNd_14_ConvNd_14_0_split_4
I0403 09:14:49.407915 26429 net.cpp:124] Setting up ConvNd_14_ConvNd_14_0_split
I0403 09:14:49.407922 26429 net.cpp:131] Top shape: 5 12 128 128 (983040)
I0403 09:14:49.407927 26429 net.cpp:131] Top shape: 5 12 128 128 (983040)
I0403 09:14:49.407932 26429 net.cpp:131] Top shape: 5 12 128 128 (983040)
I0403 09:14:49.407936 26429 net.cpp:131] Top shape: 5 12 128 128 (983040)
I0403 09:14:49.407940 26429 net.cpp:131] Top shape: 5 12 128 128 (983040)
I0403 09:14:49.407944 26429 net.cpp:139] Memory required for data: 743178240
I0403 09:14:49.407949 26429 layer_factory.hpp:77] Creating layer ConvNd_15
I0403 09:14:49.407963 26429 net.cpp:86] Creating Layer ConvNd_15
I0403 09:14:49.407969 26429 net.cpp:408] ConvNd_15 <- ConvNd_14_ConvNd_14_0_split_0
I0403 09:14:49.407980 26429 net.cpp:382] ConvNd_15 -> ConvNd_15
I0403 09:14:49.409090 26429 net.cpp:124] Setting up ConvNd_15
I0403 09:14:49.409102 26429 net.cpp:131] Top shape: 5 16 128 128 (1310720)
I0403 09:14:49.409104 26429 net.cpp:139] Memory required for data: 748421120
I0403 09:14:49.409111 26429 layer_factory.hpp:77] Creating layer ConvNd_16
I0403 09:14:49.409127 26429 net.cpp:86] Creating Layer ConvNd_16
I0403 09:14:49.409134 26429 net.cpp:408] ConvNd_16 <- ConvNd_14_ConvNd_14_0_split_1
I0403 09:14:49.409147 26429 net.cpp:382] ConvNd_16 -> ConvNd_16
I0403 09:14:49.409370 26429 net.cpp:124] Setting up ConvNd_16
I0403 09:14:49.409379 26429 net.cpp:131] Top shape: 5 12 128 128 (983040)
I0403 09:14:49.409381 26429 net.cpp:139] Memory required for data: 752353280
I0403 09:14:49.409386 26429 layer_factory.hpp:77] Creating layer ConvNd_16_ConvNd_16_0_split
I0403 09:14:49.409394 26429 net.cpp:86] Creating Layer ConvNd_16_ConvNd_16_0_split
I0403 09:14:49.409399 26429 net.cpp:408] ConvNd_16_ConvNd_16_0_split <- ConvNd_16
I0403 09:14:49.409407 26429 net.cpp:382] ConvNd_16_ConvNd_16_0_split -> ConvNd_16_ConvNd_16_0_split_0
I0403 09:14:49.409420 26429 net.cpp:382] ConvNd_16_ConvNd_16_0_split -> ConvNd_16_ConvNd_16_0_split_1
I0403 09:14:49.409472 26429 net.cpp:124] Setting up ConvNd_16_ConvNd_16_0_split
I0403 09:14:49.409481 26429 net.cpp:131] Top shape: 5 12 128 128 (983040)
I0403 09:14:49.409483 26429 net.cpp:131] Top shape: 5 12 128 128 (983040)
I0403 09:14:49.409485 26429 net.cpp:139] Memory required for data: 760217600
I0403 09:14:49.409488 26429 layer_factory.hpp:77] Creating layer ConvNd_17
I0403 09:14:49.409502 26429 net.cpp:86] Creating Layer ConvNd_17
I0403 09:14:49.409507 26429 net.cpp:408] ConvNd_17 <- ConvNd_14_ConvNd_14_0_split_2
I0403 09:14:49.409518 26429 net.cpp:382] ConvNd_17 -> ConvNd_17
I0403 09:14:49.409729 26429 net.cpp:124] Setting up ConvNd_17
I0403 09:14:49.409736 26429 net.cpp:131] Top shape: 5 12 128 128 (983040)
I0403 09:14:49.409739 26429 net.cpp:139] Memory required for data: 764149760
I0403 09:14:49.409744 26429 layer_factory.hpp:77] Creating layer Add_8
I0403 09:14:49.409750 26429 net.cpp:86] Creating Layer Add_8
I0403 09:14:49.409755 26429 net.cpp:408] Add_8 <- ConvNd_16_ConvNd_16_0_split_0
I0403 09:14:49.409761 26429 net.cpp:408] Add_8 <- ConvNd_17
I0403 09:14:49.409770 26429 net.cpp:382] Add_8 -> Add_8
I0403 09:14:49.409821 26429 net.cpp:124] Setting up Add_8
I0403 09:14:49.409829 26429 net.cpp:131] Top shape: 5 12 128 128 (983040)
I0403 09:14:49.409832 26429 net.cpp:139] Memory required for data: 768081920
I0403 09:14:49.409834 26429 layer_factory.hpp:77] Creating layer Add_8_Add_8_0_split
I0403 09:14:49.409840 26429 net.cpp:86] Creating Layer Add_8_Add_8_0_split
I0403 09:14:49.409845 26429 net.cpp:408] Add_8_Add_8_0_split <- Add_8
I0403 09:14:49.409853 26429 net.cpp:382] Add_8_Add_8_0_split -> Add_8_Add_8_0_split_0
I0403 09:14:49.409862 26429 net.cpp:382] Add_8_Add_8_0_split -> Add_8_Add_8_0_split_1
I0403 09:14:49.409914 26429 net.cpp:124] Setting up Add_8_Add_8_0_split
I0403 09:14:49.409922 26429 net.cpp:131] Top shape: 5 12 128 128 (983040)
I0403 09:14:49.409925 26429 net.cpp:131] Top shape: 5 12 128 128 (983040)
I0403 09:14:49.409927 26429 net.cpp:139] Memory required for data: 775946240
I0403 09:14:49.409931 26429 layer_factory.hpp:77] Creating layer ConvNd_18
I0403 09:14:49.409945 26429 net.cpp:86] Creating Layer ConvNd_18
I0403 09:14:49.409951 26429 net.cpp:408] ConvNd_18 <- ConvNd_14_ConvNd_14_0_split_3
I0403 09:14:49.409961 26429 net.cpp:382] ConvNd_18 -> ConvNd_18
I0403 09:14:49.410174 26429 net.cpp:124] Setting up ConvNd_18
I0403 09:14:49.410182 26429 net.cpp:131] Top shape: 5 12 128 128 (983040)
I0403 09:14:49.410184 26429 net.cpp:139] Memory required for data: 779878400
I0403 09:14:49.410188 26429 layer_factory.hpp:77] Creating layer Add_9
I0403 09:14:49.410195 26429 net.cpp:86] Creating Layer Add_9
I0403 09:14:49.410200 26429 net.cpp:408] Add_9 <- Add_8_Add_8_0_split_0
I0403 09:14:49.410207 26429 net.cpp:408] Add_9 <- ConvNd_18
I0403 09:14:49.410212 26429 net.cpp:382] Add_9 -> Add_9
I0403 09:14:49.410249 26429 net.cpp:124] Setting up Add_9
I0403 09:14:49.410257 26429 net.cpp:131] Top shape: 5 12 128 128 (983040)
I0403 09:14:49.410259 26429 net.cpp:139] Memory required for data: 783810560
I0403 09:14:49.410262 26429 layer_factory.hpp:77] Creating layer Add_9_Add_9_0_split
I0403 09:14:49.410269 26429 net.cpp:86] Creating Layer Add_9_Add_9_0_split
I0403 09:14:49.410274 26429 net.cpp:408] Add_9_Add_9_0_split <- Add_9
I0403 09:14:49.410280 26429 net.cpp:382] Add_9_Add_9_0_split -> Add_9_Add_9_0_split_0
I0403 09:14:49.410291 26429 net.cpp:382] Add_9_Add_9_0_split -> Add_9_Add_9_0_split_1
I0403 09:14:49.410343 26429 net.cpp:124] Setting up Add_9_Add_9_0_split
I0403 09:14:49.410351 26429 net.cpp:131] Top shape: 5 12 128 128 (983040)
I0403 09:14:49.410354 26429 net.cpp:131] Top shape: 5 12 128 128 (983040)
I0403 09:14:49.410357 26429 net.cpp:139] Memory required for data: 791674880
I0403 09:14:49.410362 26429 layer_factory.hpp:77] Creating layer ConvNd_19
I0403 09:14:49.410373 26429 net.cpp:86] Creating Layer ConvNd_19
I0403 09:14:49.410380 26429 net.cpp:408] ConvNd_19 <- ConvNd_14_ConvNd_14_0_split_4
I0403 09:14:49.410390 26429 net.cpp:382] ConvNd_19 -> ConvNd_19
I0403 09:14:49.410603 26429 net.cpp:124] Setting up ConvNd_19
I0403 09:14:49.410610 26429 net.cpp:131] Top shape: 5 12 128 128 (983040)
I0403 09:14:49.410612 26429 net.cpp:139] Memory required for data: 795607040
I0403 09:14:49.410617 26429 layer_factory.hpp:77] Creating layer Add_10
I0403 09:14:49.410624 26429 net.cpp:86] Creating Layer Add_10
I0403 09:14:49.410630 26429 net.cpp:408] Add_10 <- Add_9_Add_9_0_split_0
I0403 09:14:49.410636 26429 net.cpp:408] Add_10 <- ConvNd_19
I0403 09:14:49.410642 26429 net.cpp:382] Add_10 -> Add_10
I0403 09:14:49.410677 26429 net.cpp:124] Setting up Add_10
I0403 09:14:49.410684 26429 net.cpp:131] Top shape: 5 12 128 128 (983040)
I0403 09:14:49.410687 26429 net.cpp:139] Memory required for data: 799539200
I0403 09:14:49.410689 26429 layer_factory.hpp:77] Creating layer Concat_4
I0403 09:14:49.410697 26429 net.cpp:86] Creating Layer Concat_4
I0403 09:14:49.410704 26429 net.cpp:408] Concat_4 <- ConvNd_15
I0403 09:14:49.410709 26429 net.cpp:408] Concat_4 <- ConvNd_16_ConvNd_16_0_split_1
I0403 09:14:49.410715 26429 net.cpp:408] Concat_4 <- Add_8_Add_8_0_split_1
I0403 09:14:49.410720 26429 net.cpp:408] Concat_4 <- Add_9_Add_9_0_split_1
I0403 09:14:49.410738 26429 net.cpp:408] Concat_4 <- Add_10
I0403 09:14:49.410748 26429 net.cpp:382] Concat_4 -> Concat_4
I0403 09:14:49.410787 26429 net.cpp:124] Setting up Concat_4
I0403 09:14:49.410794 26429 net.cpp:131] Top shape: 5 64 128 128 (5242880)
I0403 09:14:49.410796 26429 net.cpp:139] Memory required for data: 820510720
I0403 09:14:49.410799 26429 layer_factory.hpp:77] Creating layer Add_11
I0403 09:14:49.410805 26429 net.cpp:86] Creating Layer Add_11
I0403 09:14:49.410810 26429 net.cpp:408] Add_11 <- BatchNorm_4_Threshold_4_0_split_1
I0403 09:14:49.410816 26429 net.cpp:408] Add_11 <- Concat_4
I0403 09:14:49.410825 26429 net.cpp:382] Add_11 -> Add_11
I0403 09:14:49.410859 26429 net.cpp:124] Setting up Add_11
I0403 09:14:49.410866 26429 net.cpp:131] Top shape: 5 64 128 128 (5242880)
I0403 09:14:49.410869 26429 net.cpp:139] Memory required for data: 841482240
I0403 09:14:49.410872 26429 layer_factory.hpp:77] Creating layer BatchNorm_5
I0403 09:14:49.410892 26429 net.cpp:86] Creating Layer BatchNorm_5
I0403 09:14:49.410899 26429 net.cpp:408] BatchNorm_5 <- Add_11
I0403 09:14:49.410907 26429 net.cpp:382] BatchNorm_5 -> BatchNorm_5
I0403 09:14:49.411131 26429 net.cpp:124] Setting up BatchNorm_5
I0403 09:14:49.411139 26429 net.cpp:131] Top shape: 5 64 128 128 (5242880)
I0403 09:14:49.411141 26429 net.cpp:139] Memory required for data: 862453760
I0403 09:14:49.411151 26429 layer_factory.hpp:77] Creating layer BatchNorm_5_scale
I0403 09:14:49.411159 26429 net.cpp:86] Creating Layer BatchNorm_5_scale
I0403 09:14:49.411164 26429 net.cpp:408] BatchNorm_5_scale <- BatchNorm_5
I0403 09:14:49.411171 26429 net.cpp:369] BatchNorm_5_scale -> BatchNorm_5 (in-place)
I0403 09:14:49.411232 26429 layer_factory.hpp:77] Creating layer BatchNorm_5_scale
I0403 09:14:49.411378 26429 net.cpp:124] Setting up BatchNorm_5_scale
I0403 09:14:49.411386 26429 net.cpp:131] Top shape: 5 64 128 128 (5242880)
I0403 09:14:49.411388 26429 net.cpp:139] Memory required for data: 883425280
I0403 09:14:49.411396 26429 layer_factory.hpp:77] Creating layer Threshold_5
I0403 09:14:49.411401 26429 net.cpp:86] Creating Layer Threshold_5
I0403 09:14:49.411406 26429 net.cpp:408] Threshold_5 <- BatchNorm_5
I0403 09:14:49.411417 26429 net.cpp:369] Threshold_5 -> BatchNorm_5 (in-place)
I0403 09:14:49.411821 26429 net.cpp:124] Setting up Threshold_5
I0403 09:14:49.411834 26429 net.cpp:131] Top shape: 5 64 128 128 (5242880)
I0403 09:14:49.411836 26429 net.cpp:139] Memory required for data: 904396800
I0403 09:14:49.411840 26429 layer_factory.hpp:77] Creating layer AvgPool2d_2
I0403 09:14:49.411852 26429 net.cpp:86] Creating Layer AvgPool2d_2
I0403 09:14:49.411859 26429 net.cpp:408] AvgPool2d_2 <- data_data_0_split_2
I0403 09:14:49.411868 26429 net.cpp:382] AvgPool2d_2 -> AvgPool2d_2
I0403 09:14:49.412132 26429 net.cpp:124] Setting up AvgPool2d_2
I0403 09:14:49.412143 26429 net.cpp:131] Top shape: 5 3 256 256 (983040)
I0403 09:14:49.412147 26429 net.cpp:139] Memory required for data: 908328960
I0403 09:14:49.412149 26429 layer_factory.hpp:77] Creating layer AvgPool2d_3
I0403 09:14:49.412155 26429 net.cpp:86] Creating Layer AvgPool2d_3
I0403 09:14:49.412159 26429 net.cpp:408] AvgPool2d_3 <- AvgPool2d_2
I0403 09:14:49.412165 26429 net.cpp:382] AvgPool2d_3 -> AvgPool2d_3
I0403 09:14:49.412420 26429 net.cpp:124] Setting up AvgPool2d_3
I0403 09:14:49.412431 26429 net.cpp:131] Top shape: 5 3 128 128 (245760)
I0403 09:14:49.412433 26429 net.cpp:139] Memory required for data: 909312000
I0403 09:14:49.412436 26429 layer_factory.hpp:77] Creating layer Concat_5
I0403 09:14:49.412441 26429 net.cpp:86] Creating Layer Concat_5
I0403 09:14:49.412446 26429 net.cpp:408] Concat_5 <- BatchNorm_5
I0403 09:14:49.412452 26429 net.cpp:408] Concat_5 <- BatchNorm_3_Threshold_3_0_split_2
I0403 09:14:49.412457 26429 net.cpp:408] Concat_5 <- AvgPool2d_3
I0403 09:14:49.412467 26429 net.cpp:382] Concat_5 -> Concat_5
I0403 09:14:49.412504 26429 net.cpp:124] Setting up Concat_5
I0403 09:14:49.412511 26429 net.cpp:131] Top shape: 5 131 128 128 (10731520)
I0403 09:14:49.412514 26429 net.cpp:139] Memory required for data: 952238080
I0403 09:14:49.412530 26429 layer_factory.hpp:77] Creating layer BatchNorm_6
I0403 09:14:49.412540 26429 net.cpp:86] Creating Layer BatchNorm_6
I0403 09:14:49.412547 26429 net.cpp:408] BatchNorm_6 <- Concat_5
I0403 09:14:49.412557 26429 net.cpp:382] BatchNorm_6 -> BatchNorm_6
I0403 09:14:49.412797 26429 net.cpp:124] Setting up BatchNorm_6
I0403 09:14:49.412806 26429 net.cpp:131] Top shape: 5 131 128 128 (10731520)
I0403 09:14:49.412809 26429 net.cpp:139] Memory required for data: 995164160
I0403 09:14:49.412818 26429 layer_factory.hpp:77] Creating layer BatchNorm_6_scale
I0403 09:14:49.412827 26429 net.cpp:86] Creating Layer BatchNorm_6_scale
I0403 09:14:49.412834 26429 net.cpp:408] BatchNorm_6_scale <- BatchNorm_6
I0403 09:14:49.412842 26429 net.cpp:369] BatchNorm_6_scale -> BatchNorm_6 (in-place)
I0403 09:14:49.412899 26429 layer_factory.hpp:77] Creating layer BatchNorm_6_scale
I0403 09:14:49.413051 26429 net.cpp:124] Setting up BatchNorm_6_scale
I0403 09:14:49.413059 26429 net.cpp:131] Top shape: 5 131 128 128 (10731520)
I0403 09:14:49.413062 26429 net.cpp:139] Memory required for data: 1038090240
I0403 09:14:49.413069 26429 layer_factory.hpp:77] Creating layer Threshold_6
I0403 09:14:49.413079 26429 net.cpp:86] Creating Layer Threshold_6
I0403 09:14:49.413084 26429 net.cpp:408] Threshold_6 <- BatchNorm_6
I0403 09:14:49.413092 26429 net.cpp:369] Threshold_6 -> BatchNorm_6 (in-place)
I0403 09:14:49.413328 26429 net.cpp:124] Setting up Threshold_6
I0403 09:14:49.413338 26429 net.cpp:131] Top shape: 5 131 128 128 (10731520)
I0403 09:14:49.413341 26429 net.cpp:139] Memory required for data: 1081016320
I0403 09:14:49.413344 26429 layer_factory.hpp:77] Creating layer ConvNd_21
I0403 09:14:49.413358 26429 net.cpp:86] Creating Layer ConvNd_21
I0403 09:14:49.413365 26429 net.cpp:408] ConvNd_21 <- BatchNorm_6
I0403 09:14:49.413374 26429 net.cpp:382] ConvNd_21 -> ConvNd_21
I0403 09:14:49.414850 26429 net.cpp:124] Setting up ConvNd_21
I0403 09:14:49.414863 26429 net.cpp:131] Top shape: 5 25 64 64 (512000)
I0403 09:14:49.414866 26429 net.cpp:139] Memory required for data: 1083064320
I0403 09:14:49.414872 26429 layer_factory.hpp:77] Creating layer ConvNd_21_ConvNd_21_0_split
I0403 09:14:49.414883 26429 net.cpp:86] Creating Layer ConvNd_21_ConvNd_21_0_split
I0403 09:14:49.414891 26429 net.cpp:408] ConvNd_21_ConvNd_21_0_split <- ConvNd_21
I0403 09:14:49.414899 26429 net.cpp:382] ConvNd_21_ConvNd_21_0_split -> ConvNd_21_ConvNd_21_0_split_0
I0403 09:14:49.414916 26429 net.cpp:382] ConvNd_21_ConvNd_21_0_split -> ConvNd_21_ConvNd_21_0_split_1
I0403 09:14:49.414929 26429 net.cpp:382] ConvNd_21_ConvNd_21_0_split -> ConvNd_21_ConvNd_21_0_split_2
I0403 09:14:49.414940 26429 net.cpp:382] ConvNd_21_ConvNd_21_0_split -> ConvNd_21_ConvNd_21_0_split_3
I0403 09:14:49.414950 26429 net.cpp:382] ConvNd_21_ConvNd_21_0_split -> ConvNd_21_ConvNd_21_0_split_4
I0403 09:14:49.415053 26429 net.cpp:124] Setting up ConvNd_21_ConvNd_21_0_split
I0403 09:14:49.415062 26429 net.cpp:131] Top shape: 5 25 64 64 (512000)
I0403 09:14:49.415066 26429 net.cpp:131] Top shape: 5 25 64 64 (512000)
I0403 09:14:49.415069 26429 net.cpp:131] Top shape: 5 25 64 64 (512000)
I0403 09:14:49.415074 26429 net.cpp:131] Top shape: 5 25 64 64 (512000)
I0403 09:14:49.415081 26429 net.cpp:131] Top shape: 5 25 64 64 (512000)
I0403 09:14:49.415083 26429 net.cpp:139] Memory required for data: 1093304320
I0403 09:14:49.415087 26429 layer_factory.hpp:77] Creating layer ConvNd_22
I0403 09:14:49.415100 26429 net.cpp:86] Creating Layer ConvNd_22
I0403 09:14:49.415108 26429 net.cpp:408] ConvNd_22 <- ConvNd_21_ConvNd_21_0_split_0
I0403 09:14:49.415117 26429 net.cpp:382] ConvNd_22 -> ConvNd_22
I0403 09:14:49.416249 26429 net.cpp:124] Setting up ConvNd_22
I0403 09:14:49.416262 26429 net.cpp:131] Top shape: 5 28 64 64 (573440)
I0403 09:14:49.416265 26429 net.cpp:139] Memory required for data: 1095598080
I0403 09:14:49.416271 26429 layer_factory.hpp:77] Creating layer ConvNd_23
I0403 09:14:49.416285 26429 net.cpp:86] Creating Layer ConvNd_23
I0403 09:14:49.416292 26429 net.cpp:408] ConvNd_23 <- ConvNd_21_ConvNd_21_0_split_1
I0403 09:14:49.416321 26429 net.cpp:382] ConvNd_23 -> ConvNd_23
I0403 09:14:49.416589 26429 net.cpp:124] Setting up ConvNd_23
I0403 09:14:49.416597 26429 net.cpp:131] Top shape: 5 25 64 64 (512000)
I0403 09:14:49.416599 26429 net.cpp:139] Memory required for data: 1097646080
I0403 09:14:49.416604 26429 layer_factory.hpp:77] Creating layer ConvNd_23_ConvNd_23_0_split
I0403 09:14:49.416610 26429 net.cpp:86] Creating Layer ConvNd_23_ConvNd_23_0_split
I0403 09:14:49.416615 26429 net.cpp:408] ConvNd_23_ConvNd_23_0_split <- ConvNd_23
I0403 09:14:49.416620 26429 net.cpp:382] ConvNd_23_ConvNd_23_0_split -> ConvNd_23_ConvNd_23_0_split_0
I0403 09:14:49.416630 26429 net.cpp:382] ConvNd_23_ConvNd_23_0_split -> ConvNd_23_ConvNd_23_0_split_1
I0403 09:14:49.416680 26429 net.cpp:124] Setting up ConvNd_23_ConvNd_23_0_split
I0403 09:14:49.416687 26429 net.cpp:131] Top shape: 5 25 64 64 (512000)
I0403 09:14:49.416692 26429 net.cpp:131] Top shape: 5 25 64 64 (512000)
I0403 09:14:49.416694 26429 net.cpp:139] Memory required for data: 1101742080
I0403 09:14:49.416698 26429 layer_factory.hpp:77] Creating layer ConvNd_24
I0403 09:14:49.416708 26429 net.cpp:86] Creating Layer ConvNd_24
I0403 09:14:49.416715 26429 net.cpp:408] ConvNd_24 <- ConvNd_21_ConvNd_21_0_split_2
I0403 09:14:49.416728 26429 net.cpp:382] ConvNd_24 -> ConvNd_24
I0403 09:14:49.416997 26429 net.cpp:124] Setting up ConvNd_24
I0403 09:14:49.417006 26429 net.cpp:131] Top shape: 5 25 64 64 (512000)
I0403 09:14:49.417008 26429 net.cpp:139] Memory required for data: 1103790080
I0403 09:14:49.417014 26429 layer_factory.hpp:77] Creating layer Add_12
I0403 09:14:49.417024 26429 net.cpp:86] Creating Layer Add_12
I0403 09:14:49.417029 26429 net.cpp:408] Add_12 <- ConvNd_23_ConvNd_23_0_split_0
I0403 09:14:49.417034 26429 net.cpp:408] Add_12 <- ConvNd_24
I0403 09:14:49.417044 26429 net.cpp:382] Add_12 -> Add_12
I0403 09:14:49.417079 26429 net.cpp:124] Setting up Add_12
I0403 09:14:49.417109 26429 net.cpp:131] Top shape: 5 25 64 64 (512000)
I0403 09:14:49.417114 26429 net.cpp:139] Memory required for data: 1105838080
I0403 09:14:49.417119 26429 layer_factory.hpp:77] Creating layer Add_12_Add_12_0_split
I0403 09:14:49.417127 26429 net.cpp:86] Creating Layer Add_12_Add_12_0_split
I0403 09:14:49.417152 26429 net.cpp:408] Add_12_Add_12_0_split <- Add_12
I0403 09:14:49.417160 26429 net.cpp:382] Add_12_Add_12_0_split -> Add_12_Add_12_0_split_0
I0403 09:14:49.417172 26429 net.cpp:382] Add_12_Add_12_0_split -> Add_12_Add_12_0_split_1
I0403 09:14:49.417249 26429 net.cpp:124] Setting up Add_12_Add_12_0_split
I0403 09:14:49.417261 26429 net.cpp:131] Top shape: 5 25 64 64 (512000)
I0403 09:14:49.417284 26429 net.cpp:131] Top shape: 5 25 64 64 (512000)
I0403 09:14:49.417290 26429 net.cpp:139] Memory required for data: 1109934080
I0403 09:14:49.417294 26429 layer_factory.hpp:77] Creating layer ConvNd_25
I0403 09:14:49.417309 26429 net.cpp:86] Creating Layer ConvNd_25
I0403 09:14:49.417316 26429 net.cpp:408] ConvNd_25 <- ConvNd_21_ConvNd_21_0_split_3
I0403 09:14:49.417337 26429 net.cpp:382] ConvNd_25 -> ConvNd_25
I0403 09:14:49.417755 26429 net.cpp:124] Setting up ConvNd_25
I0403 09:14:49.417768 26429 net.cpp:131] Top shape: 5 25 64 64 (512000)
I0403 09:14:49.417770 26429 net.cpp:139] Memory required for data: 1111982080
I0403 09:14:49.417778 26429 layer_factory.hpp:77] Creating layer Add_13
I0403 09:14:49.417786 26429 net.cpp:86] Creating Layer Add_13
I0403 09:14:49.417791 26429 net.cpp:408] Add_13 <- Add_12_Add_12_0_split_0
I0403 09:14:49.417796 26429 net.cpp:408] Add_13 <- ConvNd_25
I0403 09:14:49.417806 26429 net.cpp:382] Add_13 -> Add_13
I0403 09:14:49.417840 26429 net.cpp:124] Setting up Add_13
I0403 09:14:49.417850 26429 net.cpp:131] Top shape: 5 25 64 64 (512000)
I0403 09:14:49.417853 26429 net.cpp:139] Memory required for data: 1114030080
I0403 09:14:49.417858 26429 layer_factory.hpp:77] Creating layer Add_13_Add_13_0_split
I0403 09:14:49.417867 26429 net.cpp:86] Creating Layer Add_13_Add_13_0_split
I0403 09:14:49.417871 26429 net.cpp:408] Add_13_Add_13_0_split <- Add_13
I0403 09:14:49.417892 26429 net.cpp:382] Add_13_Add_13_0_split -> Add_13_Add_13_0_split_0
I0403 09:14:49.417906 26429 net.cpp:382] Add_13_Add_13_0_split -> Add_13_Add_13_0_split_1
I0403 09:14:49.417961 26429 net.cpp:124] Setting up Add_13_Add_13_0_split
I0403 09:14:49.417971 26429 net.cpp:131] Top shape: 5 25 64 64 (512000)
I0403 09:14:49.417978 26429 net.cpp:131] Top shape: 5 25 64 64 (512000)
I0403 09:14:49.417984 26429 net.cpp:139] Memory required for data: 1118126080
I0403 09:14:49.417987 26429 layer_factory.hpp:77] Creating layer ConvNd_26
I0403 09:14:49.417999 26429 net.cpp:86] Creating Layer ConvNd_26
I0403 09:14:49.418005 26429 net.cpp:408] ConvNd_26 <- ConvNd_21_ConvNd_21_0_split_4
I0403 09:14:49.418016 26429 net.cpp:382] ConvNd_26 -> ConvNd_26
I0403 09:14:49.418375 26429 net.cpp:124] Setting up ConvNd_26
I0403 09:14:49.418385 26429 net.cpp:131] Top shape: 5 25 64 64 (512000)
I0403 09:14:49.418390 26429 net.cpp:139] Memory required for data: 1120174080
I0403 09:14:49.418396 26429 layer_factory.hpp:77] Creating layer Add_14
I0403 09:14:49.418406 26429 net.cpp:86] Creating Layer Add_14
I0403 09:14:49.418411 26429 net.cpp:408] Add_14 <- Add_13_Add_13_0_split_0
I0403 09:14:49.418417 26429 net.cpp:408] Add_14 <- ConvNd_26
I0403 09:14:49.418426 26429 net.cpp:382] Add_14 -> Add_14
I0403 09:14:49.418459 26429 net.cpp:124] Setting up Add_14
I0403 09:14:49.418467 26429 net.cpp:131] Top shape: 5 25 64 64 (512000)
I0403 09:14:49.418471 26429 net.cpp:139] Memory required for data: 1122222080
I0403 09:14:49.418476 26429 layer_factory.hpp:77] Creating layer Concat_6
I0403 09:14:49.418486 26429 net.cpp:86] Creating Layer Concat_6
I0403 09:14:49.418493 26429 net.cpp:408] Concat_6 <- ConvNd_22
I0403 09:14:49.418498 26429 net.cpp:408] Concat_6 <- ConvNd_23_ConvNd_23_0_split_1
I0403 09:14:49.418504 26429 net.cpp:408] Concat_6 <- Add_12_Add_12_0_split_1
I0403 09:14:49.418509 26429 net.cpp:408] Concat_6 <- Add_13_Add_13_0_split_1
I0403 09:14:49.418514 26429 net.cpp:408] Concat_6 <- Add_14
I0403 09:14:49.418521 26429 net.cpp:382] Concat_6 -> Concat_6
I0403 09:14:49.418556 26429 net.cpp:124] Setting up Concat_6
I0403 09:14:49.418565 26429 net.cpp:131] Top shape: 5 128 64 64 (2621440)
I0403 09:14:49.418570 26429 net.cpp:139] Memory required for data: 1132707840
I0403 09:14:49.418573 26429 layer_factory.hpp:77] Creating layer BatchNorm_7
I0403 09:14:49.418581 26429 net.cpp:86] Creating Layer BatchNorm_7
I0403 09:14:49.418586 26429 net.cpp:408] BatchNorm_7 <- Concat_6
I0403 09:14:49.418594 26429 net.cpp:382] BatchNorm_7 -> BatchNorm_7
I0403 09:14:49.418889 26429 net.cpp:124] Setting up BatchNorm_7
I0403 09:14:49.418900 26429 net.cpp:131] Top shape: 5 128 64 64 (2621440)
I0403 09:14:49.418905 26429 net.cpp:139] Memory required for data: 1143193600
I0403 09:14:49.418915 26429 layer_factory.hpp:77] Creating layer BatchNorm_7_scale
I0403 09:14:49.418922 26429 net.cpp:86] Creating Layer BatchNorm_7_scale
I0403 09:14:49.418929 26429 net.cpp:408] BatchNorm_7_scale <- BatchNorm_7
I0403 09:14:49.418936 26429 net.cpp:369] BatchNorm_7_scale -> BatchNorm_7 (in-place)
I0403 09:14:49.418994 26429 layer_factory.hpp:77] Creating layer BatchNorm_7_scale
I0403 09:14:49.419149 26429 net.cpp:124] Setting up BatchNorm_7_scale
I0403 09:14:49.419160 26429 net.cpp:131] Top shape: 5 128 64 64 (2621440)
I0403 09:14:49.419164 26429 net.cpp:139] Memory required for data: 1153679360
I0403 09:14:49.419172 26429 layer_factory.hpp:77] Creating layer Threshold_7
I0403 09:14:49.419178 26429 net.cpp:86] Creating Layer Threshold_7
I0403 09:14:49.419185 26429 net.cpp:408] Threshold_7 <- BatchNorm_7
I0403 09:14:49.419191 26429 net.cpp:369] Threshold_7 -> BatchNorm_7 (in-place)
I0403 09:14:49.419749 26429 net.cpp:124] Setting up Threshold_7
I0403 09:14:49.419765 26429 net.cpp:131] Top shape: 5 128 64 64 (2621440)
I0403 09:14:49.419770 26429 net.cpp:139] Memory required for data: 1164165120
I0403 09:14:49.419775 26429 layer_factory.hpp:77] Creating layer BatchNorm_7_Threshold_7_0_split
I0403 09:14:49.419785 26429 net.cpp:86] Creating Layer BatchNorm_7_Threshold_7_0_split
I0403 09:14:49.419802 26429 net.cpp:408] BatchNorm_7_Threshold_7_0_split <- BatchNorm_7
I0403 09:14:49.419814 26429 net.cpp:382] BatchNorm_7_Threshold_7_0_split -> BatchNorm_7_Threshold_7_0_split_0
I0403 09:14:49.419827 26429 net.cpp:382] BatchNorm_7_Threshold_7_0_split -> BatchNorm_7_Threshold_7_0_split_1
I0403 09:14:49.419837 26429 net.cpp:382] BatchNorm_7_Threshold_7_0_split -> BatchNorm_7_Threshold_7_0_split_2
I0403 09:14:49.419916 26429 net.cpp:124] Setting up BatchNorm_7_Threshold_7_0_split
I0403 09:14:49.419927 26429 net.cpp:131] Top shape: 5 128 64 64 (2621440)
I0403 09:14:49.419934 26429 net.cpp:131] Top shape: 5 128 64 64 (2621440)
I0403 09:14:49.419939 26429 net.cpp:131] Top shape: 5 128 64 64 (2621440)
I0403 09:14:49.419942 26429 net.cpp:139] Memory required for data: 1195622400
I0403 09:14:49.419947 26429 layer_factory.hpp:77] Creating layer ConvNd_27
I0403 09:14:49.419963 26429 net.cpp:86] Creating Layer ConvNd_27
I0403 09:14:49.419970 26429 net.cpp:408] ConvNd_27 <- BatchNorm_7_Threshold_7_0_split_0
I0403 09:14:49.419977 26429 net.cpp:382] ConvNd_27 -> ConvNd_27
I0403 09:14:49.421511 26429 net.cpp:124] Setting up ConvNd_27
I0403 09:14:49.421535 26429 net.cpp:131] Top shape: 5 25 64 64 (512000)
I0403 09:14:49.421542 26429 net.cpp:139] Memory required for data: 1197670400
I0403 09:14:49.421550 26429 layer_factory.hpp:77] Creating layer ConvNd_27_ConvNd_27_0_split
I0403 09:14:49.421558 26429 net.cpp:86] Creating Layer ConvNd_27_ConvNd_27_0_split
I0403 09:14:49.421564 26429 net.cpp:408] ConvNd_27_ConvNd_27_0_split <- ConvNd_27
I0403 09:14:49.421576 26429 net.cpp:382] ConvNd_27_ConvNd_27_0_split -> ConvNd_27_ConvNd_27_0_split_0
I0403 09:14:49.421588 26429 net.cpp:382] ConvNd_27_ConvNd_27_0_split -> ConvNd_27_ConvNd_27_0_split_1
I0403 09:14:49.421600 26429 net.cpp:382] ConvNd_27_ConvNd_27_0_split -> ConvNd_27_ConvNd_27_0_split_2
I0403 09:14:49.421612 26429 net.cpp:382] ConvNd_27_ConvNd_27_0_split -> ConvNd_27_ConvNd_27_0_split_3
I0403 09:14:49.421622 26429 net.cpp:382] ConvNd_27_ConvNd_27_0_split -> ConvNd_27_ConvNd_27_0_split_4
I0403 09:14:49.421743 26429 net.cpp:124] Setting up ConvNd_27_ConvNd_27_0_split
I0403 09:14:49.421756 26429 net.cpp:131] Top shape: 5 25 64 64 (512000)
I0403 09:14:49.421761 26429 net.cpp:131] Top shape: 5 25 64 64 (512000)
I0403 09:14:49.421766 26429 net.cpp:131] Top shape: 5 25 64 64 (512000)
I0403 09:14:49.421772 26429 net.cpp:131] Top shape: 5 25 64 64 (512000)
I0403 09:14:49.421777 26429 net.cpp:131] Top shape: 5 25 64 64 (512000)
I0403 09:14:49.421780 26429 net.cpp:139] Memory required for data: 1207910400
I0403 09:14:49.421784 26429 layer_factory.hpp:77] Creating layer ConvNd_28
I0403 09:14:49.421798 26429 net.cpp:86] Creating Layer ConvNd_28
I0403 09:14:49.421806 26429 net.cpp:408] ConvNd_28 <- ConvNd_27_ConvNd_27_0_split_0
I0403 09:14:49.421816 26429 net.cpp:382] ConvNd_28 -> ConvNd_28
I0403 09:14:49.423187 26429 net.cpp:124] Setting up ConvNd_28
I0403 09:14:49.423202 26429 net.cpp:131] Top shape: 5 28 64 64 (573440)
I0403 09:14:49.423204 26429 net.cpp:139] Memory required for data: 1210204160
I0403 09:14:49.423209 26429 layer_factory.hpp:77] Creating layer ConvNd_29
I0403 09:14:49.423229 26429 net.cpp:86] Creating Layer ConvNd_29
I0403 09:14:49.423238 26429 net.cpp:408] ConvNd_29 <- ConvNd_27_ConvNd_27_0_split_1
I0403 09:14:49.423249 26429 net.cpp:382] ConvNd_29 -> ConvNd_29
I0403 09:14:49.423512 26429 net.cpp:124] Setting up ConvNd_29
I0403 09:14:49.423521 26429 net.cpp:131] Top shape: 5 25 64 64 (512000)
I0403 09:14:49.423523 26429 net.cpp:139] Memory required for data: 1212252160
I0403 09:14:49.423528 26429 layer_factory.hpp:77] Creating layer ConvNd_29_ConvNd_29_0_split
I0403 09:14:49.423535 26429 net.cpp:86] Creating Layer ConvNd_29_ConvNd_29_0_split
I0403 09:14:49.423542 26429 net.cpp:408] ConvNd_29_ConvNd_29_0_split <- ConvNd_29
I0403 09:14:49.423549 26429 net.cpp:382] ConvNd_29_ConvNd_29_0_split -> ConvNd_29_ConvNd_29_0_split_0
I0403 09:14:49.423563 26429 net.cpp:382] ConvNd_29_ConvNd_29_0_split -> ConvNd_29_ConvNd_29_0_split_1
I0403 09:14:49.423624 26429 net.cpp:124] Setting up ConvNd_29_ConvNd_29_0_split
I0403 09:14:49.423643 26429 net.cpp:131] Top shape: 5 25 64 64 (512000)
I0403 09:14:49.423647 26429 net.cpp:131] Top shape: 5 25 64 64 (512000)
I0403 09:14:49.423650 26429 net.cpp:139] Memory required for data: 1216348160
I0403 09:14:49.423655 26429 layer_factory.hpp:77] Creating layer ConvNd_30
I0403 09:14:49.423667 26429 net.cpp:86] Creating Layer ConvNd_30
I0403 09:14:49.423673 26429 net.cpp:408] ConvNd_30 <- ConvNd_27_ConvNd_27_0_split_2
I0403 09:14:49.423686 26429 net.cpp:382] ConvNd_30 -> ConvNd_30
I0403 09:14:49.423952 26429 net.cpp:124] Setting up ConvNd_30
I0403 09:14:49.423960 26429 net.cpp:131] Top shape: 5 25 64 64 (512000)
I0403 09:14:49.423964 26429 net.cpp:139] Memory required for data: 1218396160
I0403 09:14:49.423969 26429 layer_factory.hpp:77] Creating layer Add_15
I0403 09:14:49.423975 26429 net.cpp:86] Creating Layer Add_15
I0403 09:14:49.423982 26429 net.cpp:408] Add_15 <- ConvNd_29_ConvNd_29_0_split_0
I0403 09:14:49.423988 26429 net.cpp:408] Add_15 <- ConvNd_30
I0403 09:14:49.423998 26429 net.cpp:382] Add_15 -> Add_15
I0403 09:14:49.424038 26429 net.cpp:124] Setting up Add_15
I0403 09:14:49.424046 26429 net.cpp:131] Top shape: 5 25 64 64 (512000)
I0403 09:14:49.424048 26429 net.cpp:139] Memory required for data: 1220444160
I0403 09:14:49.424052 26429 layer_factory.hpp:77] Creating layer Add_15_Add_15_0_split
I0403 09:14:49.424057 26429 net.cpp:86] Creating Layer Add_15_Add_15_0_split
I0403 09:14:49.424062 26429 net.cpp:408] Add_15_Add_15_0_split <- Add_15
I0403 09:14:49.424068 26429 net.cpp:382] Add_15_Add_15_0_split -> Add_15_Add_15_0_split_0
I0403 09:14:49.424079 26429 net.cpp:382] Add_15_Add_15_0_split -> Add_15_Add_15_0_split_1
I0403 09:14:49.424131 26429 net.cpp:124] Setting up Add_15_Add_15_0_split
I0403 09:14:49.424139 26429 net.cpp:131] Top shape: 5 25 64 64 (512000)
I0403 09:14:49.424141 26429 net.cpp:131] Top shape: 5 25 64 64 (512000)
I0403 09:14:49.424145 26429 net.cpp:139] Memory required for data: 1224540160
I0403 09:14:49.424149 26429 layer_factory.hpp:77] Creating layer ConvNd_31
I0403 09:14:49.424160 26429 net.cpp:86] Creating Layer ConvNd_31
I0403 09:14:49.424167 26429 net.cpp:408] ConvNd_31 <- ConvNd_27_ConvNd_27_0_split_3
I0403 09:14:49.424176 26429 net.cpp:382] ConvNd_31 -> ConvNd_31
I0403 09:14:49.424445 26429 net.cpp:124] Setting up ConvNd_31
I0403 09:14:49.424454 26429 net.cpp:131] Top shape: 5 25 64 64 (512000)
I0403 09:14:49.424456 26429 net.cpp:139] Memory required for data: 1226588160
I0403 09:14:49.424477 26429 layer_factory.hpp:77] Creating layer Add_16
I0403 09:14:49.424487 26429 net.cpp:86] Creating Layer Add_16
I0403 09:14:49.424492 26429 net.cpp:408] Add_16 <- Add_15_Add_15_0_split_0
I0403 09:14:49.424499 26429 net.cpp:408] Add_16 <- ConvNd_31
I0403 09:14:49.424511 26429 net.cpp:382] Add_16 -> Add_16
I0403 09:14:49.424549 26429 net.cpp:124] Setting up Add_16
I0403 09:14:49.424556 26429 net.cpp:131] Top shape: 5 25 64 64 (512000)
I0403 09:14:49.424558 26429 net.cpp:139] Memory required for data: 1228636160
I0403 09:14:49.424562 26429 layer_factory.hpp:77] Creating layer Add_16_Add_16_0_split
I0403 09:14:49.424569 26429 net.cpp:86] Creating Layer Add_16_Add_16_0_split
I0403 09:14:49.424573 26429 net.cpp:408] Add_16_Add_16_0_split <- Add_16
I0403 09:14:49.424582 26429 net.cpp:382] Add_16_Add_16_0_split -> Add_16_Add_16_0_split_0
I0403 09:14:49.424595 26429 net.cpp:382] Add_16_Add_16_0_split -> Add_16_Add_16_0_split_1
I0403 09:14:49.424649 26429 net.cpp:124] Setting up Add_16_Add_16_0_split
I0403 09:14:49.424657 26429 net.cpp:131] Top shape: 5 25 64 64 (512000)
I0403 09:14:49.424660 26429 net.cpp:131] Top shape: 5 25 64 64 (512000)
I0403 09:14:49.424664 26429 net.cpp:139] Memory required for data: 1232732160
I0403 09:14:49.424667 26429 layer_factory.hpp:77] Creating layer ConvNd_32
I0403 09:14:49.424677 26429 net.cpp:86] Creating Layer ConvNd_32
I0403 09:14:49.424684 26429 net.cpp:408] ConvNd_32 <- ConvNd_27_ConvNd_27_0_split_4
I0403 09:14:49.424695 26429 net.cpp:382] ConvNd_32 -> ConvNd_32
I0403 09:14:49.424959 26429 net.cpp:124] Setting up ConvNd_32
I0403 09:14:49.424978 26429 net.cpp:131] Top shape: 5 25 64 64 (512000)
I0403 09:14:49.424980 26429 net.cpp:139] Memory required for data: 1234780160
I0403 09:14:49.424985 26429 layer_factory.hpp:77] Creating layer Add_17
I0403 09:14:49.424993 26429 net.cpp:86] Creating Layer Add_17
I0403 09:14:49.424999 26429 net.cpp:408] Add_17 <- Add_16_Add_16_0_split_0
I0403 09:14:49.425005 26429 net.cpp:408] Add_17 <- ConvNd_32
I0403 09:14:49.425016 26429 net.cpp:382] Add_17 -> Add_17
I0403 09:14:49.425050 26429 net.cpp:124] Setting up Add_17
I0403 09:14:49.425056 26429 net.cpp:131] Top shape: 5 25 64 64 (512000)
I0403 09:14:49.425060 26429 net.cpp:139] Memory required for data: 1236828160
I0403 09:14:49.425062 26429 layer_factory.hpp:77] Creating layer Concat_7
I0403 09:14:49.425074 26429 net.cpp:86] Creating Layer Concat_7
I0403 09:14:49.425081 26429 net.cpp:408] Concat_7 <- ConvNd_28
I0403 09:14:49.425087 26429 net.cpp:408] Concat_7 <- ConvNd_29_ConvNd_29_0_split_1
I0403 09:14:49.425096 26429 net.cpp:408] Concat_7 <- Add_15_Add_15_0_split_1
I0403 09:14:49.425102 26429 net.cpp:408] Concat_7 <- Add_16_Add_16_0_split_1
I0403 09:14:49.425107 26429 net.cpp:408] Concat_7 <- Add_17
I0403 09:14:49.425114 26429 net.cpp:382] Concat_7 -> Concat_7
I0403 09:14:49.425153 26429 net.cpp:124] Setting up Concat_7
I0403 09:14:49.425160 26429 net.cpp:131] Top shape: 5 128 64 64 (2621440)
I0403 09:14:49.425163 26429 net.cpp:139] Memory required for data: 1247313920
I0403 09:14:49.425165 26429 layer_factory.hpp:77] Creating layer Add_18
I0403 09:14:49.425175 26429 net.cpp:86] Creating Layer Add_18
I0403 09:14:49.425181 26429 net.cpp:408] Add_18 <- BatchNorm_7_Threshold_7_0_split_1
I0403 09:14:49.425187 26429 net.cpp:408] Add_18 <- Concat_7
I0403 09:14:49.425194 26429 net.cpp:382] Add_18 -> Add_18
I0403 09:14:49.425235 26429 net.cpp:124] Setting up Add_18
I0403 09:14:49.425240 26429 net.cpp:131] Top shape: 5 128 64 64 (2621440)
I0403 09:14:49.425243 26429 net.cpp:139] Memory required for data: 1257799680
I0403 09:14:49.425246 26429 layer_factory.hpp:77] Creating layer BatchNorm_8
I0403 09:14:49.425253 26429 net.cpp:86] Creating Layer BatchNorm_8
I0403 09:14:49.425257 26429 net.cpp:408] BatchNorm_8 <- Add_18
I0403 09:14:49.425266 26429 net.cpp:382] BatchNorm_8 -> BatchNorm_8
I0403 09:14:49.425484 26429 net.cpp:124] Setting up BatchNorm_8
I0403 09:14:49.425493 26429 net.cpp:131] Top shape: 5 128 64 64 (2621440)
I0403 09:14:49.425494 26429 net.cpp:139] Memory required for data: 1268285440
I0403 09:14:49.425503 26429 layer_factory.hpp:77] Creating layer BatchNorm_8_scale
I0403 09:14:49.425514 26429 net.cpp:86] Creating Layer BatchNorm_8_scale
I0403 09:14:49.425521 26429 net.cpp:408] BatchNorm_8_scale <- BatchNorm_8
I0403 09:14:49.425529 26429 net.cpp:369] BatchNorm_8_scale -> BatchNorm_8 (in-place)
I0403 09:14:49.425586 26429 layer_factory.hpp:77] Creating layer BatchNorm_8_scale
I0403 09:14:49.425709 26429 net.cpp:124] Setting up BatchNorm_8_scale
I0403 09:14:49.425720 26429 net.cpp:131] Top shape: 5 128 64 64 (2621440)
I0403 09:14:49.425722 26429 net.cpp:139] Memory required for data: 1278771200
I0403 09:14:49.425729 26429 layer_factory.hpp:77] Creating layer Threshold_8
I0403 09:14:49.425735 26429 net.cpp:86] Creating Layer Threshold_8
I0403 09:14:49.425742 26429 net.cpp:408] Threshold_8 <- BatchNorm_8
I0403 09:14:49.425748 26429 net.cpp:369] Threshold_8 -> BatchNorm_8 (in-place)
I0403 09:14:49.425997 26429 net.cpp:124] Setting up Threshold_8
I0403 09:14:49.426007 26429 net.cpp:131] Top shape: 5 128 64 64 (2621440)
I0403 09:14:49.426012 26429 net.cpp:139] Memory required for data: 1289256960
I0403 09:14:49.426015 26429 layer_factory.hpp:77] Creating layer BatchNorm_8_Threshold_8_0_split
I0403 09:14:49.426024 26429 net.cpp:86] Creating Layer BatchNorm_8_Threshold_8_0_split
I0403 09:14:49.426030 26429 net.cpp:408] BatchNorm_8_Threshold_8_0_split <- BatchNorm_8
I0403 09:14:49.426039 26429 net.cpp:382] BatchNorm_8_Threshold_8_0_split -> BatchNorm_8_Threshold_8_0_split_0
I0403 09:14:49.426050 26429 net.cpp:382] BatchNorm_8_Threshold_8_0_split -> BatchNorm_8_Threshold_8_0_split_1
I0403 09:14:49.426124 26429 net.cpp:124] Setting up BatchNorm_8_Threshold_8_0_split
I0403 09:14:49.426131 26429 net.cpp:131] Top shape: 5 128 64 64 (2621440)
I0403 09:14:49.426136 26429 net.cpp:131] Top shape: 5 128 64 64 (2621440)
I0403 09:14:49.426137 26429 net.cpp:139] Memory required for data: 1310228480
I0403 09:14:49.426141 26429 layer_factory.hpp:77] Creating layer ConvNd_33
I0403 09:14:49.426153 26429 net.cpp:86] Creating Layer ConvNd_33
I0403 09:14:49.426160 26429 net.cpp:408] ConvNd_33 <- BatchNorm_8_Threshold_8_0_split_0
I0403 09:14:49.426170 26429 net.cpp:382] ConvNd_33 -> ConvNd_33
I0403 09:14:49.427357 26429 net.cpp:124] Setting up ConvNd_33
I0403 09:14:49.427369 26429 net.cpp:131] Top shape: 5 25 64 64 (512000)
I0403 09:14:49.427372 26429 net.cpp:139] Memory required for data: 1312276480
I0403 09:14:49.427377 26429 layer_factory.hpp:77] Creating layer ConvNd_33_ConvNd_33_0_split
I0403 09:14:49.427388 26429 net.cpp:86] Creating Layer ConvNd_33_ConvNd_33_0_split
I0403 09:14:49.427394 26429 net.cpp:408] ConvNd_33_ConvNd_33_0_split <- ConvNd_33
I0403 09:14:49.427404 26429 net.cpp:382] ConvNd_33_ConvNd_33_0_split -> ConvNd_33_ConvNd_33_0_split_0
I0403 09:14:49.427419 26429 net.cpp:382] ConvNd_33_ConvNd_33_0_split -> ConvNd_33_ConvNd_33_0_split_1
I0403 09:14:49.427433 26429 net.cpp:382] ConvNd_33_ConvNd_33_0_split -> ConvNd_33_ConvNd_33_0_split_2
I0403 09:14:49.427443 26429 net.cpp:382] ConvNd_33_ConvNd_33_0_split -> ConvNd_33_ConvNd_33_0_split_3
I0403 09:14:49.427455 26429 net.cpp:382] ConvNd_33_ConvNd_33_0_split -> ConvNd_33_ConvNd_33_0_split_4
I0403 09:14:49.427553 26429 net.cpp:124] Setting up ConvNd_33_ConvNd_33_0_split
I0403 09:14:49.427561 26429 net.cpp:131] Top shape: 5 25 64 64 (512000)
I0403 09:14:49.427563 26429 net.cpp:131] Top shape: 5 25 64 64 (512000)
I0403 09:14:49.427569 26429 net.cpp:131] Top shape: 5 25 64 64 (512000)
I0403 09:14:49.427573 26429 net.cpp:131] Top shape: 5 25 64 64 (512000)
I0403 09:14:49.427578 26429 net.cpp:131] Top shape: 5 25 64 64 (512000)
I0403 09:14:49.427582 26429 net.cpp:139] Memory required for data: 1322516480
I0403 09:14:49.427587 26429 layer_factory.hpp:77] Creating layer ConvNd_34
I0403 09:14:49.427600 26429 net.cpp:86] Creating Layer ConvNd_34
I0403 09:14:49.427608 26429 net.cpp:408] ConvNd_34 <- ConvNd_33_ConvNd_33_0_split_0
I0403 09:14:49.427616 26429 net.cpp:382] ConvNd_34 -> ConvNd_34
I0403 09:14:49.428836 26429 net.cpp:124] Setting up ConvNd_34
I0403 09:14:49.428851 26429 net.cpp:131] Top shape: 5 28 64 64 (573440)
I0403 09:14:49.428855 26429 net.cpp:139] Memory required for data: 1324810240
I0403 09:14:49.428863 26429 layer_factory.hpp:77] Creating layer ConvNd_35
I0403 09:14:49.428877 26429 net.cpp:86] Creating Layer ConvNd_35
I0403 09:14:49.428884 26429 net.cpp:408] ConvNd_35 <- ConvNd_33_ConvNd_33_0_split_1
I0403 09:14:49.428894 26429 net.cpp:382] ConvNd_35 -> ConvNd_35
I0403 09:14:49.429174 26429 net.cpp:124] Setting up ConvNd_35
I0403 09:14:49.429183 26429 net.cpp:131] Top shape: 5 25 64 64 (512000)
I0403 09:14:49.429185 26429 net.cpp:139] Memory required for data: 1326858240
I0403 09:14:49.429190 26429 layer_factory.hpp:77] Creating layer ConvNd_35_ConvNd_35_0_split
I0403 09:14:49.429198 26429 net.cpp:86] Creating Layer ConvNd_35_ConvNd_35_0_split
I0403 09:14:49.429204 26429 net.cpp:408] ConvNd_35_ConvNd_35_0_split <- ConvNd_35
I0403 09:14:49.429211 26429 net.cpp:382] ConvNd_35_ConvNd_35_0_split -> ConvNd_35_ConvNd_35_0_split_0
I0403 09:14:49.429224 26429 net.cpp:382] ConvNd_35_ConvNd_35_0_split -> ConvNd_35_ConvNd_35_0_split_1
I0403 09:14:49.429276 26429 net.cpp:124] Setting up ConvNd_35_ConvNd_35_0_split
I0403 09:14:49.429284 26429 net.cpp:131] Top shape: 5 25 64 64 (512000)
I0403 09:14:49.429287 26429 net.cpp:131] Top shape: 5 25 64 64 (512000)
I0403 09:14:49.429291 26429 net.cpp:139] Memory required for data: 1330954240
I0403 09:14:49.429294 26429 layer_factory.hpp:77] Creating layer ConvNd_36
I0403 09:14:49.429306 26429 net.cpp:86] Creating Layer ConvNd_36
I0403 09:14:49.429311 26429 net.cpp:408] ConvNd_36 <- ConvNd_33_ConvNd_33_0_split_2
I0403 09:14:49.429335 26429 net.cpp:382] ConvNd_36 -> ConvNd_36
I0403 09:14:49.429595 26429 net.cpp:124] Setting up ConvNd_36
I0403 09:14:49.429603 26429 net.cpp:131] Top shape: 5 25 64 64 (512000)
I0403 09:14:49.429605 26429 net.cpp:139] Memory required for data: 1333002240
I0403 09:14:49.429610 26429 layer_factory.hpp:77] Creating layer Add_19
I0403 09:14:49.429616 26429 net.cpp:86] Creating Layer Add_19
I0403 09:14:49.429625 26429 net.cpp:408] Add_19 <- ConvNd_35_ConvNd_35_0_split_0
I0403 09:14:49.429630 26429 net.cpp:408] Add_19 <- ConvNd_36
I0403 09:14:49.429637 26429 net.cpp:382] Add_19 -> Add_19
I0403 09:14:49.429675 26429 net.cpp:124] Setting up Add_19
I0403 09:14:49.429682 26429 net.cpp:131] Top shape: 5 25 64 64 (512000)
I0403 09:14:49.429685 26429 net.cpp:139] Memory required for data: 1335050240
I0403 09:14:49.429688 26429 layer_factory.hpp:77] Creating layer Add_19_Add_19_0_split
I0403 09:14:49.429699 26429 net.cpp:86] Creating Layer Add_19_Add_19_0_split
I0403 09:14:49.429708 26429 net.cpp:408] Add_19_Add_19_0_split <- Add_19
I0403 09:14:49.429714 26429 net.cpp:382] Add_19_Add_19_0_split -> Add_19_Add_19_0_split_0
I0403 09:14:49.429724 26429 net.cpp:382] Add_19_Add_19_0_split -> Add_19_Add_19_0_split_1
I0403 09:14:49.429776 26429 net.cpp:124] Setting up Add_19_Add_19_0_split
I0403 09:14:49.429785 26429 net.cpp:131] Top shape: 5 25 64 64 (512000)
I0403 09:14:49.429788 26429 net.cpp:131] Top shape: 5 25 64 64 (512000)
I0403 09:14:49.429791 26429 net.cpp:139] Memory required for data: 1339146240
I0403 09:14:49.429795 26429 layer_factory.hpp:77] Creating layer ConvNd_37
I0403 09:14:49.429805 26429 net.cpp:86] Creating Layer ConvNd_37
I0403 09:14:49.429812 26429 net.cpp:408] ConvNd_37 <- ConvNd_33_ConvNd_33_0_split_3
I0403 09:14:49.429823 26429 net.cpp:382] ConvNd_37 -> ConvNd_37
I0403 09:14:49.430088 26429 net.cpp:124] Setting up ConvNd_37
I0403 09:14:49.430097 26429 net.cpp:131] Top shape: 5 25 64 64 (512000)
I0403 09:14:49.430099 26429 net.cpp:139] Memory required for data: 1341194240
I0403 09:14:49.430104 26429 layer_factory.hpp:77] Creating layer Add_20
I0403 09:14:49.430110 26429 net.cpp:86] Creating Layer Add_20
I0403 09:14:49.430117 26429 net.cpp:408] Add_20 <- Add_19_Add_19_0_split_0
I0403 09:14:49.430124 26429 net.cpp:408] Add_20 <- ConvNd_37
I0403 09:14:49.430131 26429 net.cpp:382] Add_20 -> Add_20
I0403 09:14:49.430168 26429 net.cpp:124] Setting up Add_20
I0403 09:14:49.430176 26429 net.cpp:131] Top shape: 5 25 64 64 (512000)
I0403 09:14:49.430178 26429 net.cpp:139] Memory required for data: 1343242240
I0403 09:14:49.430181 26429 layer_factory.hpp:77] Creating layer Add_20_Add_20_0_split
I0403 09:14:49.430189 26429 net.cpp:86] Creating Layer Add_20_Add_20_0_split
I0403 09:14:49.430194 26429 net.cpp:408] Add_20_Add_20_0_split <- Add_20
I0403 09:14:49.430202 26429 net.cpp:382] Add_20_Add_20_0_split -> Add_20_Add_20_0_split_0
I0403 09:14:49.430212 26429 net.cpp:382] Add_20_Add_20_0_split -> Add_20_Add_20_0_split_1
I0403 09:14:49.430270 26429 net.cpp:124] Setting up Add_20_Add_20_0_split
I0403 09:14:49.430285 26429 net.cpp:131] Top shape: 5 25 64 64 (512000)
I0403 09:14:49.430292 26429 net.cpp:131] Top shape: 5 25 64 64 (512000)
I0403 09:14:49.430296 26429 net.cpp:139] Memory required for data: 1347338240
I0403 09:14:49.430300 26429 layer_factory.hpp:77] Creating layer ConvNd_38
I0403 09:14:49.430311 26429 net.cpp:86] Creating Layer ConvNd_38
I0403 09:14:49.430317 26429 net.cpp:408] ConvNd_38 <- ConvNd_33_ConvNd_33_0_split_4
I0403 09:14:49.430330 26429 net.cpp:382] ConvNd_38 -> ConvNd_38
I0403 09:14:49.430588 26429 net.cpp:124] Setting up ConvNd_38
I0403 09:14:49.430598 26429 net.cpp:131] Top shape: 5 25 64 64 (512000)
I0403 09:14:49.430599 26429 net.cpp:139] Memory required for data: 1349386240
I0403 09:14:49.430603 26429 layer_factory.hpp:77] Creating layer Add_21
I0403 09:14:49.430610 26429 net.cpp:86] Creating Layer Add_21
I0403 09:14:49.430615 26429 net.cpp:408] Add_21 <- Add_20_Add_20_0_split_0
I0403 09:14:49.430620 26429 net.cpp:408] Add_21 <- ConvNd_38
I0403 09:14:49.430640 26429 net.cpp:382] Add_21 -> Add_21
I0403 09:14:49.430680 26429 net.cpp:124] Setting up Add_21
I0403 09:14:49.430687 26429 net.cpp:131] Top shape: 5 25 64 64 (512000)
I0403 09:14:49.430689 26429 net.cpp:139] Memory required for data: 1351434240
I0403 09:14:49.430691 26429 layer_factory.hpp:77] Creating layer Concat_8
I0403 09:14:49.430702 26429 net.cpp:86] Creating Layer Concat_8
I0403 09:14:49.430709 26429 net.cpp:408] Concat_8 <- ConvNd_34
I0403 09:14:49.430716 26429 net.cpp:408] Concat_8 <- ConvNd_35_ConvNd_35_0_split_1
I0403 09:14:49.430721 26429 net.cpp:408] Concat_8 <- Add_19_Add_19_0_split_1
I0403 09:14:49.430727 26429 net.cpp:408] Concat_8 <- Add_20_Add_20_0_split_1
I0403 09:14:49.430732 26429 net.cpp:408] Concat_8 <- Add_21
I0403 09:14:49.430739 26429 net.cpp:382] Concat_8 -> Concat_8
I0403 09:14:49.430778 26429 net.cpp:124] Setting up Concat_8
I0403 09:14:49.430784 26429 net.cpp:131] Top shape: 5 128 64 64 (2621440)
I0403 09:14:49.430788 26429 net.cpp:139] Memory required for data: 1361920000
I0403 09:14:49.430789 26429 layer_factory.hpp:77] Creating layer Add_22
I0403 09:14:49.430796 26429 net.cpp:86] Creating Layer Add_22
I0403 09:14:49.430800 26429 net.cpp:408] Add_22 <- BatchNorm_8_Threshold_8_0_split_1
I0403 09:14:49.430807 26429 net.cpp:408] Add_22 <- Concat_8
I0403 09:14:49.430816 26429 net.cpp:382] Add_22 -> Add_22
I0403 09:14:49.430855 26429 net.cpp:124] Setting up Add_22
I0403 09:14:49.430860 26429 net.cpp:131] Top shape: 5 128 64 64 (2621440)
I0403 09:14:49.430863 26429 net.cpp:139] Memory required for data: 1372405760
I0403 09:14:49.430866 26429 layer_factory.hpp:77] Creating layer BatchNorm_9
I0403 09:14:49.430873 26429 net.cpp:86] Creating Layer BatchNorm_9
I0403 09:14:49.430877 26429 net.cpp:408] BatchNorm_9 <- Add_22
I0403 09:14:49.430887 26429 net.cpp:382] BatchNorm_9 -> BatchNorm_9
I0403 09:14:49.431102 26429 net.cpp:124] Setting up BatchNorm_9
I0403 09:14:49.431109 26429 net.cpp:131] Top shape: 5 128 64 64 (2621440)
I0403 09:14:49.431111 26429 net.cpp:139] Memory required for data: 1382891520
I0403 09:14:49.431120 26429 layer_factory.hpp:77] Creating layer BatchNorm_9_scale
I0403 09:14:49.431131 26429 net.cpp:86] Creating Layer BatchNorm_9_scale
I0403 09:14:49.431138 26429 net.cpp:408] BatchNorm_9_scale <- BatchNorm_9
I0403 09:14:49.431145 26429 net.cpp:369] BatchNorm_9_scale -> BatchNorm_9 (in-place)
I0403 09:14:49.431207 26429 layer_factory.hpp:77] Creating layer BatchNorm_9_scale
I0403 09:14:49.431331 26429 net.cpp:124] Setting up BatchNorm_9_scale
I0403 09:14:49.431339 26429 net.cpp:131] Top shape: 5 128 64 64 (2621440)
I0403 09:14:49.431342 26429 net.cpp:139] Memory required for data: 1393377280
I0403 09:14:49.431350 26429 layer_factory.hpp:77] Creating layer Threshold_9
I0403 09:14:49.431357 26429 net.cpp:86] Creating Layer Threshold_9
I0403 09:14:49.431363 26429 net.cpp:408] Threshold_9 <- BatchNorm_9
I0403 09:14:49.431370 26429 net.cpp:369] Threshold_9 -> BatchNorm_9 (in-place)
I0403 09:14:49.431620 26429 net.cpp:124] Setting up Threshold_9
I0403 09:14:49.431629 26429 net.cpp:131] Top shape: 5 128 64 64 (2621440)
I0403 09:14:49.431632 26429 net.cpp:139] Memory required for data: 1403863040
I0403 09:14:49.431635 26429 layer_factory.hpp:77] Creating layer BatchNorm_9_Threshold_9_0_split
I0403 09:14:49.431669 26429 net.cpp:86] Creating Layer BatchNorm_9_Threshold_9_0_split
I0403 09:14:49.431676 26429 net.cpp:408] BatchNorm_9_Threshold_9_0_split <- BatchNorm_9
I0403 09:14:49.431682 26429 net.cpp:382] BatchNorm_9_Threshold_9_0_split -> BatchNorm_9_Threshold_9_0_split_0
I0403 09:14:49.431691 26429 net.cpp:382] BatchNorm_9_Threshold_9_0_split -> BatchNorm_9_Threshold_9_0_split_1
I0403 09:14:49.431748 26429 net.cpp:124] Setting up BatchNorm_9_Threshold_9_0_split
I0403 09:14:49.431756 26429 net.cpp:131] Top shape: 5 128 64 64 (2621440)
I0403 09:14:49.431759 26429 net.cpp:131] Top shape: 5 128 64 64 (2621440)
I0403 09:14:49.431761 26429 net.cpp:139] Memory required for data: 1424834560
I0403 09:14:49.431766 26429 layer_factory.hpp:77] Creating layer ConvNd_39
I0403 09:14:49.431793 26429 net.cpp:86] Creating Layer ConvNd_39
I0403 09:14:49.431800 26429 net.cpp:408] ConvNd_39 <- BatchNorm_9_Threshold_9_0_split_0
I0403 09:14:49.431809 26429 net.cpp:382] ConvNd_39 -> ConvNd_39
I0403 09:14:49.434098 26429 net.cpp:124] Setting up ConvNd_39
I0403 09:14:49.434110 26429 net.cpp:131] Top shape: 5 25 64 64 (512000)
I0403 09:14:49.434113 26429 net.cpp:139] Memory required for data: 1426882560
I0403 09:14:49.434118 26429 layer_factory.hpp:77] Creating layer ConvNd_39_ConvNd_39_0_split
I0403 09:14:49.434128 26429 net.cpp:86] Creating Layer ConvNd_39_ConvNd_39_0_split
I0403 09:14:49.434135 26429 net.cpp:408] ConvNd_39_ConvNd_39_0_split <- ConvNd_39
I0403 09:14:49.434144 26429 net.cpp:382] ConvNd_39_ConvNd_39_0_split -> ConvNd_39_ConvNd_39_0_split_0
I0403 09:14:49.434159 26429 net.cpp:382] ConvNd_39_ConvNd_39_0_split -> ConvNd_39_ConvNd_39_0_split_1
I0403 09:14:49.434172 26429 net.cpp:382] ConvNd_39_ConvNd_39_0_split -> ConvNd_39_ConvNd_39_0_split_2
I0403 09:14:49.434185 26429 net.cpp:382] ConvNd_39_ConvNd_39_0_split -> ConvNd_39_ConvNd_39_0_split_3
I0403 09:14:49.434195 26429 net.cpp:382] ConvNd_39_ConvNd_39_0_split -> ConvNd_39_ConvNd_39_0_split_4
I0403 09:14:49.434293 26429 net.cpp:124] Setting up ConvNd_39_ConvNd_39_0_split
I0403 09:14:49.434301 26429 net.cpp:131] Top shape: 5 25 64 64 (512000)
I0403 09:14:49.434304 26429 net.cpp:131] Top shape: 5 25 64 64 (512000)
I0403 09:14:49.434309 26429 net.cpp:131] Top shape: 5 25 64 64 (512000)
I0403 09:14:49.434314 26429 net.cpp:131] Top shape: 5 25 64 64 (512000)
I0403 09:14:49.434319 26429 net.cpp:131] Top shape: 5 25 64 64 (512000)
I0403 09:14:49.434324 26429 net.cpp:139] Memory required for data: 1437122560
I0403 09:14:49.434327 26429 layer_factory.hpp:77] Creating layer ConvNd_40
I0403 09:14:49.434341 26429 net.cpp:86] Creating Layer ConvNd_40
I0403 09:14:49.434348 26429 net.cpp:408] ConvNd_40 <- ConvNd_39_ConvNd_39_0_split_0
I0403 09:14:49.434357 26429 net.cpp:382] ConvNd_40 -> ConvNd_40
I0403 09:14:49.440738 26429 net.cpp:124] Setting up ConvNd_40
I0403 09:14:49.440759 26429 net.cpp:131] Top shape: 5 28 64 64 (573440)
I0403 09:14:49.440762 26429 net.cpp:139] Memory required for data: 1439416320
I0403 09:14:49.440768 26429 layer_factory.hpp:77] Creating layer ConvNd_41
I0403 09:14:49.440778 26429 net.cpp:86] Creating Layer ConvNd_41
I0403 09:14:49.440784 26429 net.cpp:408] ConvNd_41 <- ConvNd_39_ConvNd_39_0_split_1
I0403 09:14:49.440793 26429 net.cpp:382] ConvNd_41 -> ConvNd_41
I0403 09:14:49.441067 26429 net.cpp:124] Setting up ConvNd_41
I0403 09:14:49.441076 26429 net.cpp:131] Top shape: 5 25 64 64 (512000)
I0403 09:14:49.441078 26429 net.cpp:139] Memory required for data: 1441464320
I0403 09:14:49.441082 26429 layer_factory.hpp:77] Creating layer ConvNd_41_ConvNd_41_0_split
I0403 09:14:49.441087 26429 net.cpp:86] Creating Layer ConvNd_41_ConvNd_41_0_split
I0403 09:14:49.441092 26429 net.cpp:408] ConvNd_41_ConvNd_41_0_split <- ConvNd_41
I0403 09:14:49.441099 26429 net.cpp:382] ConvNd_41_ConvNd_41_0_split -> ConvNd_41_ConvNd_41_0_split_0
I0403 09:14:49.441107 26429 net.cpp:382] ConvNd_41_ConvNd_41_0_split -> ConvNd_41_ConvNd_41_0_split_1
I0403 09:14:49.441172 26429 net.cpp:124] Setting up ConvNd_41_ConvNd_41_0_split
I0403 09:14:49.441179 26429 net.cpp:131] Top shape: 5 25 64 64 (512000)
I0403 09:14:49.441182 26429 net.cpp:131] Top shape: 5 25 64 64 (512000)
I0403 09:14:49.441186 26429 net.cpp:139] Memory required for data: 1445560320
I0403 09:14:49.441190 26429 layer_factory.hpp:77] Creating layer ConvNd_42
I0403 09:14:49.441203 26429 net.cpp:86] Creating Layer ConvNd_42
I0403 09:14:49.441210 26429 net.cpp:408] ConvNd_42 <- ConvNd_39_ConvNd_39_0_split_2
I0403 09:14:49.441220 26429 net.cpp:382] ConvNd_42 -> ConvNd_42
I0403 09:14:49.441524 26429 net.cpp:124] Setting up ConvNd_42
I0403 09:14:49.441534 26429 net.cpp:131] Top shape: 5 25 64 64 (512000)
I0403 09:14:49.441536 26429 net.cpp:139] Memory required for data: 1447608320
I0403 09:14:49.441541 26429 layer_factory.hpp:77] Creating layer Add_23
I0403 09:14:49.441547 26429 net.cpp:86] Creating Layer Add_23
I0403 09:14:49.441565 26429 net.cpp:408] Add_23 <- ConvNd_41_ConvNd_41_0_split_0
I0403 09:14:49.441568 26429 net.cpp:408] Add_23 <- ConvNd_42
I0403 09:14:49.441578 26429 net.cpp:382] Add_23 -> Add_23
I0403 09:14:49.441617 26429 net.cpp:124] Setting up Add_23
I0403 09:14:49.441623 26429 net.cpp:131] Top shape: 5 25 64 64 (512000)
I0403 09:14:49.441627 26429 net.cpp:139] Memory required for data: 1449656320
I0403 09:14:49.441630 26429 layer_factory.hpp:77] Creating layer Add_23_Add_23_0_split
I0403 09:14:49.441637 26429 net.cpp:86] Creating Layer Add_23_Add_23_0_split
I0403 09:14:49.441643 26429 net.cpp:408] Add_23_Add_23_0_split <- Add_23
I0403 09:14:49.441650 26429 net.cpp:382] Add_23_Add_23_0_split -> Add_23_Add_23_0_split_0
I0403 09:14:49.441668 26429 net.cpp:382] Add_23_Add_23_0_split -> Add_23_Add_23_0_split_1
I0403 09:14:49.441722 26429 net.cpp:124] Setting up Add_23_Add_23_0_split
I0403 09:14:49.441730 26429 net.cpp:131] Top shape: 5 25 64 64 (512000)
I0403 09:14:49.441733 26429 net.cpp:131] Top shape: 5 25 64 64 (512000)
I0403 09:14:49.441735 26429 net.cpp:139] Memory required for data: 1453752320
I0403 09:14:49.441740 26429 layer_factory.hpp:77] Creating layer ConvNd_43
I0403 09:14:49.441753 26429 net.cpp:86] Creating Layer ConvNd_43
I0403 09:14:49.441761 26429 net.cpp:408] ConvNd_43 <- ConvNd_39_ConvNd_39_0_split_3
I0403 09:14:49.441771 26429 net.cpp:382] ConvNd_43 -> ConvNd_43
I0403 09:14:49.442024 26429 net.cpp:124] Setting up ConvNd_43
I0403 09:14:49.442032 26429 net.cpp:131] Top shape: 5 25 64 64 (512000)
I0403 09:14:49.442034 26429 net.cpp:139] Memory required for data: 1455800320
I0403 09:14:49.442040 26429 layer_factory.hpp:77] Creating layer Add_24
I0403 09:14:49.442046 26429 net.cpp:86] Creating Layer Add_24
I0403 09:14:49.442052 26429 net.cpp:408] Add_24 <- Add_23_Add_23_0_split_0
I0403 09:14:49.442059 26429 net.cpp:408] Add_24 <- ConvNd_43
I0403 09:14:49.442068 26429 net.cpp:382] Add_24 -> Add_24
I0403 09:14:49.442106 26429 net.cpp:124] Setting up Add_24
I0403 09:14:49.442113 26429 net.cpp:131] Top shape: 5 25 64 64 (512000)
I0403 09:14:49.442116 26429 net.cpp:139] Memory required for data: 1457848320
I0403 09:14:49.442119 26429 layer_factory.hpp:77] Creating layer Add_24_Add_24_0_split
I0403 09:14:49.442126 26429 net.cpp:86] Creating Layer Add_24_Add_24_0_split
I0403 09:14:49.442131 26429 net.cpp:408] Add_24_Add_24_0_split <- Add_24
I0403 09:14:49.442137 26429 net.cpp:382] Add_24_Add_24_0_split -> Add_24_Add_24_0_split_0
I0403 09:14:49.442150 26429 net.cpp:382] Add_24_Add_24_0_split -> Add_24_Add_24_0_split_1
I0403 09:14:49.442204 26429 net.cpp:124] Setting up Add_24_Add_24_0_split
I0403 09:14:49.442211 26429 net.cpp:131] Top shape: 5 25 64 64 (512000)
I0403 09:14:49.442214 26429 net.cpp:131] Top shape: 5 25 64 64 (512000)
I0403 09:14:49.442216 26429 net.cpp:139] Memory required for data: 1461944320
I0403 09:14:49.442220 26429 layer_factory.hpp:77] Creating layer ConvNd_44
I0403 09:14:49.442232 26429 net.cpp:86] Creating Layer ConvNd_44
I0403 09:14:49.442239 26429 net.cpp:408] ConvNd_44 <- ConvNd_39_ConvNd_39_0_split_4
I0403 09:14:49.442248 26429 net.cpp:382] ConvNd_44 -> ConvNd_44
I0403 09:14:49.442504 26429 net.cpp:124] Setting up ConvNd_44
I0403 09:14:49.442513 26429 net.cpp:131] Top shape: 5 25 64 64 (512000)
I0403 09:14:49.442515 26429 net.cpp:139] Memory required for data: 1463992320
I0403 09:14:49.442519 26429 layer_factory.hpp:77] Creating layer Add_25
I0403 09:14:49.442526 26429 net.cpp:86] Creating Layer Add_25
I0403 09:14:49.442531 26429 net.cpp:408] Add_25 <- Add_24_Add_24_0_split_0
I0403 09:14:49.442536 26429 net.cpp:408] Add_25 <- ConvNd_44
I0403 09:14:49.442543 26429 net.cpp:382] Add_25 -> Add_25
I0403 09:14:49.442582 26429 net.cpp:124] Setting up Add_25
I0403 09:14:49.442589 26429 net.cpp:131] Top shape: 5 25 64 64 (512000)
I0403 09:14:49.442591 26429 net.cpp:139] Memory required for data: 1466040320
I0403 09:14:49.442593 26429 layer_factory.hpp:77] Creating layer Concat_9
I0403 09:14:49.442602 26429 net.cpp:86] Creating Layer Concat_9
I0403 09:14:49.442606 26429 net.cpp:408] Concat_9 <- ConvNd_40
I0403 09:14:49.442625 26429 net.cpp:408] Concat_9 <- ConvNd_41_ConvNd_41_0_split_1
I0403 09:14:49.442633 26429 net.cpp:408] Concat_9 <- Add_23_Add_23_0_split_1
I0403 09:14:49.442641 26429 net.cpp:408] Concat_9 <- Add_24_Add_24_0_split_1
I0403 09:14:49.442644 26429 net.cpp:408] Concat_9 <- Add_25
I0403 09:14:49.442652 26429 net.cpp:382] Concat_9 -> Concat_9
I0403 09:14:49.442693 26429 net.cpp:124] Setting up Concat_9
I0403 09:14:49.442701 26429 net.cpp:131] Top shape: 5 128 64 64 (2621440)
I0403 09:14:49.442703 26429 net.cpp:139] Memory required for data: 1476526080
I0403 09:14:49.442706 26429 layer_factory.hpp:77] Creating layer Add_26
I0403 09:14:49.442713 26429 net.cpp:86] Creating Layer Add_26
I0403 09:14:49.442718 26429 net.cpp:408] Add_26 <- BatchNorm_9_Threshold_9_0_split_1
I0403 09:14:49.442723 26429 net.cpp:408] Add_26 <- Concat_9
I0403 09:14:49.442732 26429 net.cpp:382] Add_26 -> Add_26
I0403 09:14:49.442770 26429 net.cpp:124] Setting up Add_26
I0403 09:14:49.442776 26429 net.cpp:131] Top shape: 5 128 64 64 (2621440)
I0403 09:14:49.442778 26429 net.cpp:139] Memory required for data: 1487011840
I0403 09:14:49.442781 26429 layer_factory.hpp:77] Creating layer BatchNorm_10
I0403 09:14:49.442790 26429 net.cpp:86] Creating Layer BatchNorm_10
I0403 09:14:49.442796 26429 net.cpp:408] BatchNorm_10 <- Add_26
I0403 09:14:49.442806 26429 net.cpp:382] BatchNorm_10 -> BatchNorm_10
I0403 09:14:49.443022 26429 net.cpp:124] Setting up BatchNorm_10
I0403 09:14:49.443029 26429 net.cpp:131] Top shape: 5 128 64 64 (2621440)
I0403 09:14:49.443032 26429 net.cpp:139] Memory required for data: 1497497600
I0403 09:14:49.443042 26429 layer_factory.hpp:77] Creating layer BatchNorm_10_scale
I0403 09:14:49.443050 26429 net.cpp:86] Creating Layer BatchNorm_10_scale
I0403 09:14:49.443056 26429 net.cpp:408] BatchNorm_10_scale <- BatchNorm_10
I0403 09:14:49.443064 26429 net.cpp:369] BatchNorm_10_scale -> BatchNorm_10 (in-place)
I0403 09:14:49.443125 26429 layer_factory.hpp:77] Creating layer BatchNorm_10_scale
I0403 09:14:49.443253 26429 net.cpp:124] Setting up BatchNorm_10_scale
I0403 09:14:49.443260 26429 net.cpp:131] Top shape: 5 128 64 64 (2621440)
I0403 09:14:49.443264 26429 net.cpp:139] Memory required for data: 1507983360
I0403 09:14:49.443269 26429 layer_factory.hpp:77] Creating layer Threshold_10
I0403 09:14:49.443280 26429 net.cpp:86] Creating Layer Threshold_10
I0403 09:14:49.443286 26429 net.cpp:408] Threshold_10 <- BatchNorm_10
I0403 09:14:49.443294 26429 net.cpp:369] Threshold_10 -> BatchNorm_10 (in-place)
I0403 09:14:49.443745 26429 net.cpp:124] Setting up Threshold_10
I0403 09:14:49.443758 26429 net.cpp:131] Top shape: 5 128 64 64 (2621440)
I0403 09:14:49.443760 26429 net.cpp:139] Memory required for data: 1518469120
I0403 09:14:49.443764 26429 layer_factory.hpp:77] Creating layer BatchNorm_10_Threshold_10_0_split
I0403 09:14:49.443771 26429 net.cpp:86] Creating Layer BatchNorm_10_Threshold_10_0_split
I0403 09:14:49.443778 26429 net.cpp:408] BatchNorm_10_Threshold_10_0_split <- BatchNorm_10
I0403 09:14:49.443789 26429 net.cpp:382] BatchNorm_10_Threshold_10_0_split -> BatchNorm_10_Threshold_10_0_split_0
I0403 09:14:49.443801 26429 net.cpp:382] BatchNorm_10_Threshold_10_0_split -> BatchNorm_10_Threshold_10_0_split_1
I0403 09:14:49.443861 26429 net.cpp:124] Setting up BatchNorm_10_Threshold_10_0_split
I0403 09:14:49.443868 26429 net.cpp:131] Top shape: 5 128 64 64 (2621440)
I0403 09:14:49.443872 26429 net.cpp:131] Top shape: 5 128 64 64 (2621440)
I0403 09:14:49.443876 26429 net.cpp:139] Memory required for data: 1539440640
I0403 09:14:49.443879 26429 layer_factory.hpp:77] Creating layer ConvNd_45
I0403 09:14:49.443892 26429 net.cpp:86] Creating Layer ConvNd_45
I0403 09:14:49.443898 26429 net.cpp:408] ConvNd_45 <- BatchNorm_10_Threshold_10_0_split_0
I0403 09:14:49.443907 26429 net.cpp:382] ConvNd_45 -> ConvNd_45
I0403 09:14:49.449535 26429 net.cpp:124] Setting up ConvNd_45
I0403 09:14:49.449548 26429 net.cpp:131] Top shape: 5 25 64 64 (512000)
I0403 09:14:49.449550 26429 net.cpp:139] Memory required for data: 1541488640
I0403 09:14:49.449571 26429 layer_factory.hpp:77] Creating layer ConvNd_45_ConvNd_45_0_split
I0403 09:14:49.449586 26429 net.cpp:86] Creating Layer ConvNd_45_ConvNd_45_0_split
I0403 09:14:49.449594 26429 net.cpp:408] ConvNd_45_ConvNd_45_0_split <- ConvNd_45
I0403 09:14:49.449602 26429 net.cpp:382] ConvNd_45_ConvNd_45_0_split -> ConvNd_45_ConvNd_45_0_split_0
I0403 09:14:49.449617 26429 net.cpp:382] ConvNd_45_ConvNd_45_0_split -> ConvNd_45_ConvNd_45_0_split_1
I0403 09:14:49.449631 26429 net.cpp:382] ConvNd_45_ConvNd_45_0_split -> ConvNd_45_ConvNd_45_0_split_2
I0403 09:14:49.449643 26429 net.cpp:382] ConvNd_45_ConvNd_45_0_split -> ConvNd_45_ConvNd_45_0_split_3
I0403 09:14:49.449654 26429 net.cpp:382] ConvNd_45_ConvNd_45_0_split -> ConvNd_45_ConvNd_45_0_split_4
I0403 09:14:49.449753 26429 net.cpp:124] Setting up ConvNd_45_ConvNd_45_0_split
I0403 09:14:49.449760 26429 net.cpp:131] Top shape: 5 25 64 64 (512000)
I0403 09:14:49.449764 26429 net.cpp:131] Top shape: 5 25 64 64 (512000)
I0403 09:14:49.449767 26429 net.cpp:131] Top shape: 5 25 64 64 (512000)
I0403 09:14:49.449770 26429 net.cpp:131] Top shape: 5 25 64 64 (512000)
I0403 09:14:49.449775 26429 net.cpp:131] Top shape: 5 25 64 64 (512000)
I0403 09:14:49.449779 26429 net.cpp:139] Memory required for data: 1551728640
I0403 09:14:49.449782 26429 layer_factory.hpp:77] Creating layer ConvNd_46
I0403 09:14:49.449797 26429 net.cpp:86] Creating Layer ConvNd_46
I0403 09:14:49.449805 26429 net.cpp:408] ConvNd_46 <- ConvNd_45_ConvNd_45_0_split_0
I0403 09:14:49.449815 26429 net.cpp:382] ConvNd_46 -> ConvNd_46
I0403 09:14:49.456151 26429 net.cpp:124] Setting up ConvNd_46
I0403 09:14:49.456168 26429 net.cpp:131] Top shape: 5 28 64 64 (573440)
I0403 09:14:49.456173 26429 net.cpp:139] Memory required for data: 1554022400
I0403 09:14:49.456180 26429 layer_factory.hpp:77] Creating layer ConvNd_47
I0403 09:14:49.456193 26429 net.cpp:86] Creating Layer ConvNd_47
I0403 09:14:49.456202 26429 net.cpp:408] ConvNd_47 <- ConvNd_45_ConvNd_45_0_split_1
I0403 09:14:49.456213 26429 net.cpp:382] ConvNd_47 -> ConvNd_47
I0403 09:14:49.456601 26429 net.cpp:124] Setting up ConvNd_47
I0403 09:14:49.456614 26429 net.cpp:131] Top shape: 5 25 64 64 (512000)
I0403 09:14:49.456619 26429 net.cpp:139] Memory required for data: 1556070400
I0403 09:14:49.456624 26429 layer_factory.hpp:77] Creating layer ConvNd_47_ConvNd_47_0_split
I0403 09:14:49.456632 26429 net.cpp:86] Creating Layer ConvNd_47_ConvNd_47_0_split
I0403 09:14:49.456638 26429 net.cpp:408] ConvNd_47_ConvNd_47_0_split <- ConvNd_47
I0403 09:14:49.456648 26429 net.cpp:382] ConvNd_47_ConvNd_47_0_split -> ConvNd_47_ConvNd_47_0_split_0
I0403 09:14:49.456660 26429 net.cpp:382] ConvNd_47_ConvNd_47_0_split -> ConvNd_47_ConvNd_47_0_split_1
I0403 09:14:49.456714 26429 net.cpp:124] Setting up ConvNd_47_ConvNd_47_0_split
I0403 09:14:49.456723 26429 net.cpp:131] Top shape: 5 25 64 64 (512000)
I0403 09:14:49.456730 26429 net.cpp:131] Top shape: 5 25 64 64 (512000)
I0403 09:14:49.456737 26429 net.cpp:139] Memory required for data: 1560166400
I0403 09:14:49.456740 26429 layer_factory.hpp:77] Creating layer ConvNd_48
I0403 09:14:49.456758 26429 net.cpp:86] Creating Layer ConvNd_48
I0403 09:14:49.456768 26429 net.cpp:408] ConvNd_48 <- ConvNd_45_ConvNd_45_0_split_2
I0403 09:14:49.456777 26429 net.cpp:382] ConvNd_48 -> ConvNd_48
I0403 09:14:49.457159 26429 net.cpp:124] Setting up ConvNd_48
I0403 09:14:49.457175 26429 net.cpp:131] Top shape: 5 25 64 64 (512000)
I0403 09:14:49.457180 26429 net.cpp:139] Memory required for data: 1562214400
I0403 09:14:49.457186 26429 layer_factory.hpp:77] Creating layer Add_27
I0403 09:14:49.457195 26429 net.cpp:86] Creating Layer Add_27
I0403 09:14:49.457198 26429 net.cpp:408] Add_27 <- ConvNd_47_ConvNd_47_0_split_0
I0403 09:14:49.457207 26429 net.cpp:408] Add_27 <- ConvNd_48
I0403 09:14:49.457216 26429 net.cpp:382] Add_27 -> Add_27
I0403 09:14:49.457252 26429 net.cpp:124] Setting up Add_27
I0403 09:14:49.457262 26429 net.cpp:131] Top shape: 5 25 64 64 (512000)
I0403 09:14:49.457265 26429 net.cpp:139] Memory required for data: 1564262400
I0403 09:14:49.457281 26429 layer_factory.hpp:77] Creating layer Add_27_Add_27_0_split
I0403 09:14:49.457289 26429 net.cpp:86] Creating Layer Add_27_Add_27_0_split
I0403 09:14:49.457294 26429 net.cpp:408] Add_27_Add_27_0_split <- Add_27
I0403 09:14:49.457305 26429 net.cpp:382] Add_27_Add_27_0_split -> Add_27_Add_27_0_split_0
I0403 09:14:49.457319 26429 net.cpp:382] Add_27_Add_27_0_split -> Add_27_Add_27_0_split_1
I0403 09:14:49.457376 26429 net.cpp:124] Setting up Add_27_Add_27_0_split
I0403 09:14:49.457386 26429 net.cpp:131] Top shape: 5 25 64 64 (512000)
I0403 09:14:49.457392 26429 net.cpp:131] Top shape: 5 25 64 64 (512000)
I0403 09:14:49.457398 26429 net.cpp:139] Memory required for data: 1568358400
I0403 09:14:49.457402 26429 layer_factory.hpp:77] Creating layer ConvNd_49
I0403 09:14:49.457414 26429 net.cpp:86] Creating Layer ConvNd_49
I0403 09:14:49.457422 26429 net.cpp:408] ConvNd_49 <- ConvNd_45_ConvNd_45_0_split_3
I0403 09:14:49.457432 26429 net.cpp:382] ConvNd_49 -> ConvNd_49
I0403 09:14:49.457794 26429 net.cpp:124] Setting up ConvNd_49
I0403 09:14:49.457804 26429 net.cpp:131] Top shape: 5 25 64 64 (512000)
I0403 09:14:49.457809 26429 net.cpp:139] Memory required for data: 1570406400
I0403 09:14:49.457815 26429 layer_factory.hpp:77] Creating layer Add_28
I0403 09:14:49.457823 26429 net.cpp:86] Creating Layer Add_28
I0403 09:14:49.457828 26429 net.cpp:408] Add_28 <- Add_27_Add_27_0_split_0
I0403 09:14:49.457835 26429 net.cpp:408] Add_28 <- ConvNd_49
I0403 09:14:49.457844 26429 net.cpp:382] Add_28 -> Add_28
I0403 09:14:49.457878 26429 net.cpp:124] Setting up Add_28
I0403 09:14:49.457887 26429 net.cpp:131] Top shape: 5 25 64 64 (512000)
I0403 09:14:49.457892 26429 net.cpp:139] Memory required for data: 1572454400
I0403 09:14:49.457896 26429 layer_factory.hpp:77] Creating layer Add_28_Add_28_0_split
I0403 09:14:49.457903 26429 net.cpp:86] Creating Layer Add_28_Add_28_0_split
I0403 09:14:49.457907 26429 net.cpp:408] Add_28_Add_28_0_split <- Add_28
I0403 09:14:49.457916 26429 net.cpp:382] Add_28_Add_28_0_split -> Add_28_Add_28_0_split_0
I0403 09:14:49.457926 26429 net.cpp:382] Add_28_Add_28_0_split -> Add_28_Add_28_0_split_1
I0403 09:14:49.457980 26429 net.cpp:124] Setting up Add_28_Add_28_0_split
I0403 09:14:49.457989 26429 net.cpp:131] Top shape: 5 25 64 64 (512000)
I0403 09:14:49.457996 26429 net.cpp:131] Top shape: 5 25 64 64 (512000)
I0403 09:14:49.458003 26429 net.cpp:139] Memory required for data: 1576550400
I0403 09:14:49.458006 26429 layer_factory.hpp:77] Creating layer ConvNd_50
I0403 09:14:49.458019 26429 net.cpp:86] Creating Layer ConvNd_50
I0403 09:14:49.458025 26429 net.cpp:408] ConvNd_50 <- ConvNd_45_ConvNd_45_0_split_4
I0403 09:14:49.458035 26429 net.cpp:382] ConvNd_50 -> ConvNd_50
I0403 09:14:49.458393 26429 net.cpp:124] Setting up ConvNd_50
I0403 09:14:49.458405 26429 net.cpp:131] Top shape: 5 25 64 64 (512000)
I0403 09:14:49.458410 26429 net.cpp:139] Memory required for data: 1578598400
I0403 09:14:49.458415 26429 layer_factory.hpp:77] Creating layer Add_29
I0403 09:14:49.458421 26429 net.cpp:86] Creating Layer Add_29
I0403 09:14:49.458428 26429 net.cpp:408] Add_29 <- Add_28_Add_28_0_split_0
I0403 09:14:49.458436 26429 net.cpp:408] Add_29 <- ConvNd_50
I0403 09:14:49.458441 26429 net.cpp:382] Add_29 -> Add_29
I0403 09:14:49.458478 26429 net.cpp:124] Setting up Add_29
I0403 09:14:49.458487 26429 net.cpp:131] Top shape: 5 25 64 64 (512000)
I0403 09:14:49.458494 26429 net.cpp:139] Memory required for data: 1580646400
I0403 09:14:49.458501 26429 layer_factory.hpp:77] Creating layer Concat_10
I0403 09:14:49.458509 26429 net.cpp:86] Creating Layer Concat_10
I0403 09:14:49.458515 26429 net.cpp:408] Concat_10 <- ConvNd_46
I0403 09:14:49.458523 26429 net.cpp:408] Concat_10 <- ConvNd_47_ConvNd_47_0_split_1
I0403 09:14:49.458528 26429 net.cpp:408] Concat_10 <- Add_27_Add_27_0_split_1
I0403 09:14:49.458534 26429 net.cpp:408] Concat_10 <- Add_28_Add_28_0_split_1
I0403 09:14:49.458539 26429 net.cpp:408] Concat_10 <- Add_29
I0403 09:14:49.458546 26429 net.cpp:382] Concat_10 -> Concat_10
I0403 09:14:49.458600 26429 net.cpp:124] Setting up Concat_10
I0403 09:14:49.458609 26429 net.cpp:131] Top shape: 5 128 64 64 (2621440)
I0403 09:14:49.458613 26429 net.cpp:139] Memory required for data: 1591132160
I0403 09:14:49.458618 26429 layer_factory.hpp:77] Creating layer Add_30
I0403 09:14:49.458626 26429 net.cpp:86] Creating Layer Add_30
I0403 09:14:49.458631 26429 net.cpp:408] Add_30 <- BatchNorm_10_Threshold_10_0_split_1
I0403 09:14:49.458636 26429 net.cpp:408] Add_30 <- Concat_10
I0403 09:14:49.458647 26429 net.cpp:382] Add_30 -> Add_30
I0403 09:14:49.458685 26429 net.cpp:124] Setting up Add_30
I0403 09:14:49.458694 26429 net.cpp:131] Top shape: 5 128 64 64 (2621440)
I0403 09:14:49.458698 26429 net.cpp:139] Memory required for data: 1601617920
I0403 09:14:49.458703 26429 layer_factory.hpp:77] Creating layer BatchNorm_11
I0403 09:14:49.458712 26429 net.cpp:86] Creating Layer BatchNorm_11
I0403 09:14:49.458719 26429 net.cpp:408] BatchNorm_11 <- Add_30
I0403 09:14:49.458727 26429 net.cpp:382] BatchNorm_11 -> BatchNorm_11
I0403 09:14:49.459028 26429 net.cpp:124] Setting up BatchNorm_11
I0403 09:14:49.459039 26429 net.cpp:131] Top shape: 5 128 64 64 (2621440)
I0403 09:14:49.459043 26429 net.cpp:139] Memory required for data: 1612103680
I0403 09:14:49.459053 26429 layer_factory.hpp:77] Creating layer BatchNorm_11_scale
I0403 09:14:49.459064 26429 net.cpp:86] Creating Layer BatchNorm_11_scale
I0403 09:14:49.459067 26429 net.cpp:408] BatchNorm_11_scale <- BatchNorm_11
I0403 09:14:49.459074 26429 net.cpp:369] BatchNorm_11_scale -> BatchNorm_11 (in-place)
I0403 09:14:49.459136 26429 layer_factory.hpp:77] Creating layer BatchNorm_11_scale
I0403 09:14:49.459295 26429 net.cpp:124] Setting up BatchNorm_11_scale
I0403 09:14:49.459306 26429 net.cpp:131] Top shape: 5 128 64 64 (2621440)
I0403 09:14:49.459311 26429 net.cpp:139] Memory required for data: 1622589440
I0403 09:14:49.459318 26429 layer_factory.hpp:77] Creating layer Threshold_11
I0403 09:14:49.459328 26429 net.cpp:86] Creating Layer Threshold_11
I0403 09:14:49.459334 26429 net.cpp:408] Threshold_11 <- BatchNorm_11
I0403 09:14:49.459340 26429 net.cpp:369] Threshold_11 -> BatchNorm_11 (in-place)
I0403 09:14:49.459659 26429 net.cpp:124] Setting up Threshold_11
I0403 09:14:49.459672 26429 net.cpp:131] Top shape: 5 128 64 64 (2621440)
I0403 09:14:49.459676 26429 net.cpp:139] Memory required for data: 1633075200
I0403 09:14:49.459681 26429 layer_factory.hpp:77] Creating layer BatchNorm_11_Threshold_11_0_split
I0403 09:14:49.459688 26429 net.cpp:86] Creating Layer BatchNorm_11_Threshold_11_0_split
I0403 09:14:49.459695 26429 net.cpp:408] BatchNorm_11_Threshold_11_0_split <- BatchNorm_11
I0403 09:14:49.459704 26429 net.cpp:382] BatchNorm_11_Threshold_11_0_split -> BatchNorm_11_Threshold_11_0_split_0
I0403 09:14:49.459717 26429 net.cpp:382] BatchNorm_11_Threshold_11_0_split -> BatchNorm_11_Threshold_11_0_split_1
I0403 09:14:49.459779 26429 net.cpp:124] Setting up BatchNorm_11_Threshold_11_0_split
I0403 09:14:49.459789 26429 net.cpp:131] Top shape: 5 128 64 64 (2621440)
I0403 09:14:49.459794 26429 net.cpp:131] Top shape: 5 128 64 64 (2621440)
I0403 09:14:49.459798 26429 net.cpp:139] Memory required for data: 1654046720
I0403 09:14:49.459802 26429 layer_factory.hpp:77] Creating layer ConvNd_51
I0403 09:14:49.459815 26429 net.cpp:86] Creating Layer ConvNd_51
I0403 09:14:49.459821 26429 net.cpp:408] ConvNd_51 <- BatchNorm_11_Threshold_11_0_split_0
I0403 09:14:49.459830 26429 net.cpp:382] ConvNd_51 -> ConvNd_51
I0403 09:14:49.465477 26429 net.cpp:124] Setting up ConvNd_51
I0403 09:14:49.465497 26429 net.cpp:131] Top shape: 5 25 64 64 (512000)
I0403 09:14:49.465502 26429 net.cpp:139] Memory required for data: 1656094720
I0403 09:14:49.465510 26429 layer_factory.hpp:77] Creating layer ConvNd_51_ConvNd_51_0_split
I0403 09:14:49.465519 26429 net.cpp:86] Creating Layer ConvNd_51_ConvNd_51_0_split
I0403 09:14:49.465526 26429 net.cpp:408] ConvNd_51_ConvNd_51_0_split <- ConvNd_51
I0403 09:14:49.465536 26429 net.cpp:382] ConvNd_51_ConvNd_51_0_split -> ConvNd_51_ConvNd_51_0_split_0
I0403 09:14:49.465548 26429 net.cpp:382] ConvNd_51_ConvNd_51_0_split -> ConvNd_51_ConvNd_51_0_split_1
I0403 09:14:49.465576 26429 net.cpp:382] ConvNd_51_ConvNd_51_0_split -> ConvNd_51_ConvNd_51_0_split_2
I0403 09:14:49.465590 26429 net.cpp:382] ConvNd_51_ConvNd_51_0_split -> ConvNd_51_ConvNd_51_0_split_3
I0403 09:14:49.465600 26429 net.cpp:382] ConvNd_51_ConvNd_51_0_split -> ConvNd_51_ConvNd_51_0_split_4
I0403 09:14:49.465701 26429 net.cpp:124] Setting up ConvNd_51_ConvNd_51_0_split
I0403 09:14:49.465708 26429 net.cpp:131] Top shape: 5 25 64 64 (512000)
I0403 09:14:49.465713 26429 net.cpp:131] Top shape: 5 25 64 64 (512000)
I0403 09:14:49.465716 26429 net.cpp:131] Top shape: 5 25 64 64 (512000)
I0403 09:14:49.465723 26429 net.cpp:131] Top shape: 5 25 64 64 (512000)
I0403 09:14:49.465728 26429 net.cpp:131] Top shape: 5 25 64 64 (512000)
I0403 09:14:49.465732 26429 net.cpp:139] Memory required for data: 1666334720
I0403 09:14:49.465736 26429 layer_factory.hpp:77] Creating layer ConvNd_52
I0403 09:14:49.465749 26429 net.cpp:86] Creating Layer ConvNd_52
I0403 09:14:49.465759 26429 net.cpp:408] ConvNd_52 <- ConvNd_51_ConvNd_51_0_split_0
I0403 09:14:49.465768 26429 net.cpp:382] ConvNd_52 -> ConvNd_52
I0403 09:14:49.472216 26429 net.cpp:124] Setting up ConvNd_52
I0403 09:14:49.472229 26429 net.cpp:131] Top shape: 5 28 64 64 (573440)
I0403 09:14:49.472232 26429 net.cpp:139] Memory required for data: 1668628480
I0403 09:14:49.472239 26429 layer_factory.hpp:77] Creating layer ConvNd_53
I0403 09:14:49.472251 26429 net.cpp:86] Creating Layer ConvNd_53
I0403 09:14:49.472259 26429 net.cpp:408] ConvNd_53 <- ConvNd_51_ConvNd_51_0_split_1
I0403 09:14:49.472270 26429 net.cpp:382] ConvNd_53 -> ConvNd_53
I0403 09:14:49.472549 26429 net.cpp:124] Setting up ConvNd_53
I0403 09:14:49.472558 26429 net.cpp:131] Top shape: 5 25 64 64 (512000)
I0403 09:14:49.472560 26429 net.cpp:139] Memory required for data: 1670676480
I0403 09:14:49.472564 26429 layer_factory.hpp:77] Creating layer ConvNd_53_ConvNd_53_0_split
I0403 09:14:49.472573 26429 net.cpp:86] Creating Layer ConvNd_53_ConvNd_53_0_split
I0403 09:14:49.472579 26429 net.cpp:408] ConvNd_53_ConvNd_53_0_split <- ConvNd_53
I0403 09:14:49.472586 26429 net.cpp:382] ConvNd_53_ConvNd_53_0_split -> ConvNd_53_ConvNd_53_0_split_0
I0403 09:14:49.472599 26429 net.cpp:382] ConvNd_53_ConvNd_53_0_split -> ConvNd_53_ConvNd_53_0_split_1
I0403 09:14:49.472656 26429 net.cpp:124] Setting up ConvNd_53_ConvNd_53_0_split
I0403 09:14:49.472662 26429 net.cpp:131] Top shape: 5 25 64 64 (512000)
I0403 09:14:49.472666 26429 net.cpp:131] Top shape: 5 25 64 64 (512000)
I0403 09:14:49.472668 26429 net.cpp:139] Memory required for data: 1674772480
I0403 09:14:49.472671 26429 layer_factory.hpp:77] Creating layer ConvNd_54
I0403 09:14:49.472683 26429 net.cpp:86] Creating Layer ConvNd_54
I0403 09:14:49.472690 26429 net.cpp:408] ConvNd_54 <- ConvNd_51_ConvNd_51_0_split_2
I0403 09:14:49.472700 26429 net.cpp:382] ConvNd_54 -> ConvNd_54
I0403 09:14:49.472970 26429 net.cpp:124] Setting up ConvNd_54
I0403 09:14:49.472980 26429 net.cpp:131] Top shape: 5 25 64 64 (512000)
I0403 09:14:49.472982 26429 net.cpp:139] Memory required for data: 1676820480
I0403 09:14:49.472986 26429 layer_factory.hpp:77] Creating layer Add_31
I0403 09:14:49.472993 26429 net.cpp:86] Creating Layer Add_31
I0403 09:14:49.472997 26429 net.cpp:408] Add_31 <- ConvNd_53_ConvNd_53_0_split_0
I0403 09:14:49.473003 26429 net.cpp:408] Add_31 <- ConvNd_54
I0403 09:14:49.473012 26429 net.cpp:382] Add_31 -> Add_31
I0403 09:14:49.473050 26429 net.cpp:124] Setting up Add_31
I0403 09:14:49.473057 26429 net.cpp:131] Top shape: 5 25 64 64 (512000)
I0403 09:14:49.473059 26429 net.cpp:139] Memory required for data: 1678868480
I0403 09:14:49.473062 26429 layer_factory.hpp:77] Creating layer Add_31_Add_31_0_split
I0403 09:14:49.473069 26429 net.cpp:86] Creating Layer Add_31_Add_31_0_split
I0403 09:14:49.473073 26429 net.cpp:408] Add_31_Add_31_0_split <- Add_31
I0403 09:14:49.473080 26429 net.cpp:382] Add_31_Add_31_0_split -> Add_31_Add_31_0_split_0
I0403 09:14:49.473090 26429 net.cpp:382] Add_31_Add_31_0_split -> Add_31_Add_31_0_split_1
I0403 09:14:49.473163 26429 net.cpp:124] Setting up Add_31_Add_31_0_split
I0403 09:14:49.473170 26429 net.cpp:131] Top shape: 5 25 64 64 (512000)
I0403 09:14:49.473173 26429 net.cpp:131] Top shape: 5 25 64 64 (512000)
I0403 09:14:49.473176 26429 net.cpp:139] Memory required for data: 1682964480
I0403 09:14:49.473181 26429 layer_factory.hpp:77] Creating layer ConvNd_55
I0403 09:14:49.473192 26429 net.cpp:86] Creating Layer ConvNd_55
I0403 09:14:49.473199 26429 net.cpp:408] ConvNd_55 <- ConvNd_51_ConvNd_51_0_split_3
I0403 09:14:49.473210 26429 net.cpp:382] ConvNd_55 -> ConvNd_55
I0403 09:14:49.473472 26429 net.cpp:124] Setting up ConvNd_55
I0403 09:14:49.473479 26429 net.cpp:131] Top shape: 5 25 64 64 (512000)
I0403 09:14:49.473482 26429 net.cpp:139] Memory required for data: 1685012480
I0403 09:14:49.473486 26429 layer_factory.hpp:77] Creating layer Add_32
I0403 09:14:49.473495 26429 net.cpp:86] Creating Layer Add_32
I0403 09:14:49.473501 26429 net.cpp:408] Add_32 <- Add_31_Add_31_0_split_0
I0403 09:14:49.473507 26429 net.cpp:408] Add_32 <- ConvNd_55
I0403 09:14:49.473516 26429 net.cpp:382] Add_32 -> Add_32
I0403 09:14:49.473557 26429 net.cpp:124] Setting up Add_32
I0403 09:14:49.473564 26429 net.cpp:131] Top shape: 5 25 64 64 (512000)
I0403 09:14:49.473567 26429 net.cpp:139] Memory required for data: 1687060480
I0403 09:14:49.473569 26429 layer_factory.hpp:77] Creating layer Add_32_Add_32_0_split
I0403 09:14:49.473577 26429 net.cpp:86] Creating Layer Add_32_Add_32_0_split
I0403 09:14:49.473580 26429 net.cpp:408] Add_32_Add_32_0_split <- Add_32
I0403 09:14:49.473587 26429 net.cpp:382] Add_32_Add_32_0_split -> Add_32_Add_32_0_split_0
I0403 09:14:49.473596 26429 net.cpp:382] Add_32_Add_32_0_split -> Add_32_Add_32_0_split_1
I0403 09:14:49.473654 26429 net.cpp:124] Setting up Add_32_Add_32_0_split
I0403 09:14:49.473661 26429 net.cpp:131] Top shape: 5 25 64 64 (512000)
I0403 09:14:49.473664 26429 net.cpp:131] Top shape: 5 25 64 64 (512000)
I0403 09:14:49.473666 26429 net.cpp:139] Memory required for data: 1691156480
I0403 09:14:49.473670 26429 layer_factory.hpp:77] Creating layer ConvNd_56
I0403 09:14:49.473682 26429 net.cpp:86] Creating Layer ConvNd_56
I0403 09:14:49.473688 26429 net.cpp:408] ConvNd_56 <- ConvNd_51_ConvNd_51_0_split_4
I0403 09:14:49.473700 26429 net.cpp:382] ConvNd_56 -> ConvNd_56
I0403 09:14:49.473958 26429 net.cpp:124] Setting up ConvNd_56
I0403 09:14:49.473965 26429 net.cpp:131] Top shape: 5 25 64 64 (512000)
I0403 09:14:49.473968 26429 net.cpp:139] Memory required for data: 1693204480
I0403 09:14:49.473973 26429 layer_factory.hpp:77] Creating layer Add_33
I0403 09:14:49.473979 26429 net.cpp:86] Creating Layer Add_33
I0403 09:14:49.473984 26429 net.cpp:408] Add_33 <- Add_32_Add_32_0_split_0
I0403 09:14:49.473989 26429 net.cpp:408] Add_33 <- ConvNd_56
I0403 09:14:49.473996 26429 net.cpp:382] Add_33 -> Add_33
I0403 09:14:49.474035 26429 net.cpp:124] Setting up Add_33
I0403 09:14:49.474042 26429 net.cpp:131] Top shape: 5 25 64 64 (512000)
I0403 09:14:49.474045 26429 net.cpp:139] Memory required for data: 1695252480
I0403 09:14:49.474047 26429 layer_factory.hpp:77] Creating layer Concat_11
I0403 09:14:49.474056 26429 net.cpp:86] Creating Layer Concat_11
I0403 09:14:49.474062 26429 net.cpp:408] Concat_11 <- ConvNd_52
I0403 09:14:49.474068 26429 net.cpp:408] Concat_11 <- ConvNd_53_ConvNd_53_0_split_1
I0403 09:14:49.474073 26429 net.cpp:408] Concat_11 <- Add_31_Add_31_0_split_1
I0403 09:14:49.474079 26429 net.cpp:408] Concat_11 <- Add_32_Add_32_0_split_1
I0403 09:14:49.474084 26429 net.cpp:408] Concat_11 <- Add_33
I0403 09:14:49.474092 26429 net.cpp:382] Concat_11 -> Concat_11
I0403 09:14:49.474130 26429 net.cpp:124] Setting up Concat_11
I0403 09:14:49.474138 26429 net.cpp:131] Top shape: 5 128 64 64 (2621440)
I0403 09:14:49.474139 26429 net.cpp:139] Memory required for data: 1705738240
I0403 09:14:49.474143 26429 layer_factory.hpp:77] Creating layer Add_34
I0403 09:14:49.474148 26429 net.cpp:86] Creating Layer Add_34
I0403 09:14:49.474153 26429 net.cpp:408] Add_34 <- BatchNorm_11_Threshold_11_0_split_1
I0403 09:14:49.474172 26429 net.cpp:408] Add_34 <- Concat_11
I0403 09:14:49.474184 26429 net.cpp:382] Add_34 -> Add_34
I0403 09:14:49.474222 26429 net.cpp:124] Setting up Add_34
I0403 09:14:49.474229 26429 net.cpp:131] Top shape: 5 128 64 64 (2621440)
I0403 09:14:49.474232 26429 net.cpp:139] Memory required for data: 1716224000
I0403 09:14:49.474234 26429 layer_factory.hpp:77] Creating layer BatchNorm_12
I0403 09:14:49.474243 26429 net.cpp:86] Creating Layer BatchNorm_12
I0403 09:14:49.474251 26429 net.cpp:408] BatchNorm_12 <- Add_34
I0403 09:14:49.474259 26429 net.cpp:382] BatchNorm_12 -> BatchNorm_12
I0403 09:14:49.474481 26429 net.cpp:124] Setting up BatchNorm_12
I0403 09:14:49.474488 26429 net.cpp:131] Top shape: 5 128 64 64 (2621440)
I0403 09:14:49.474491 26429 net.cpp:139] Memory required for data: 1726709760
I0403 09:14:49.474499 26429 layer_factory.hpp:77] Creating layer BatchNorm_12_scale
I0403 09:14:49.474509 26429 net.cpp:86] Creating Layer BatchNorm_12_scale
I0403 09:14:49.474515 26429 net.cpp:408] BatchNorm_12_scale <- BatchNorm_12
I0403 09:14:49.474522 26429 net.cpp:369] BatchNorm_12_scale -> BatchNorm_12 (in-place)
I0403 09:14:49.474579 26429 layer_factory.hpp:77] Creating layer BatchNorm_12_scale
I0403 09:14:49.474709 26429 net.cpp:124] Setting up BatchNorm_12_scale
I0403 09:14:49.474715 26429 net.cpp:131] Top shape: 5 128 64 64 (2621440)
I0403 09:14:49.474719 26429 net.cpp:139] Memory required for data: 1737195520
I0403 09:14:49.474725 26429 layer_factory.hpp:77] Creating layer Threshold_12
I0403 09:14:49.474732 26429 net.cpp:86] Creating Layer Threshold_12
I0403 09:14:49.474737 26429 net.cpp:408] Threshold_12 <- BatchNorm_12
I0403 09:14:49.474746 26429 net.cpp:369] Threshold_12 -> BatchNorm_12 (in-place)
I0403 09:14:49.474992 26429 net.cpp:124] Setting up Threshold_12
I0403 09:14:49.475001 26429 net.cpp:131] Top shape: 5 128 64 64 (2621440)
I0403 09:14:49.475004 26429 net.cpp:139] Memory required for data: 1747681280
I0403 09:14:49.475008 26429 layer_factory.hpp:77] Creating layer BatchNorm_12_Threshold_12_0_split
I0403 09:14:49.475014 26429 net.cpp:86] Creating Layer BatchNorm_12_Threshold_12_0_split
I0403 09:14:49.475018 26429 net.cpp:408] BatchNorm_12_Threshold_12_0_split <- BatchNorm_12
I0403 09:14:49.475028 26429 net.cpp:382] BatchNorm_12_Threshold_12_0_split -> BatchNorm_12_Threshold_12_0_split_0
I0403 09:14:49.475041 26429 net.cpp:382] BatchNorm_12_Threshold_12_0_split -> BatchNorm_12_Threshold_12_0_split_1
I0403 09:14:49.475103 26429 net.cpp:124] Setting up BatchNorm_12_Threshold_12_0_split
I0403 09:14:49.475111 26429 net.cpp:131] Top shape: 5 128 64 64 (2621440)
I0403 09:14:49.475114 26429 net.cpp:131] Top shape: 5 128 64 64 (2621440)
I0403 09:14:49.475117 26429 net.cpp:139] Memory required for data: 1768652800
I0403 09:14:49.475121 26429 layer_factory.hpp:77] Creating layer ConvNd_57
I0403 09:14:49.475142 26429 net.cpp:86] Creating Layer ConvNd_57
I0403 09:14:49.475149 26429 net.cpp:408] ConvNd_57 <- BatchNorm_12_Threshold_12_0_split_0
I0403 09:14:49.475159 26429 net.cpp:382] ConvNd_57 -> ConvNd_57
I0403 09:14:49.480965 26429 net.cpp:124] Setting up ConvNd_57
I0403 09:14:49.480978 26429 net.cpp:131] Top shape: 5 25 64 64 (512000)
I0403 09:14:49.480981 26429 net.cpp:139] Memory required for data: 1770700800
I0403 09:14:49.480986 26429 layer_factory.hpp:77] Creating layer ConvNd_57_ConvNd_57_0_split
I0403 09:14:49.480995 26429 net.cpp:86] Creating Layer ConvNd_57_ConvNd_57_0_split
I0403 09:14:49.481001 26429 net.cpp:408] ConvNd_57_ConvNd_57_0_split <- ConvNd_57
I0403 09:14:49.481012 26429 net.cpp:382] ConvNd_57_ConvNd_57_0_split -> ConvNd_57_ConvNd_57_0_split_0
I0403 09:14:49.481027 26429 net.cpp:382] ConvNd_57_ConvNd_57_0_split -> ConvNd_57_ConvNd_57_0_split_1
I0403 09:14:49.481040 26429 net.cpp:382] ConvNd_57_ConvNd_57_0_split -> ConvNd_57_ConvNd_57_0_split_2
I0403 09:14:49.481052 26429 net.cpp:382] ConvNd_57_ConvNd_57_0_split -> ConvNd_57_ConvNd_57_0_split_3
I0403 09:14:49.481068 26429 net.cpp:382] ConvNd_57_ConvNd_57_0_split -> ConvNd_57_ConvNd_57_0_split_4
I0403 09:14:49.481184 26429 net.cpp:124] Setting up ConvNd_57_ConvNd_57_0_split
I0403 09:14:49.481191 26429 net.cpp:131] Top shape: 5 25 64 64 (512000)
I0403 09:14:49.481194 26429 net.cpp:131] Top shape: 5 25 64 64 (512000)
I0403 09:14:49.481199 26429 net.cpp:131] Top shape: 5 25 64 64 (512000)
I0403 09:14:49.481204 26429 net.cpp:131] Top shape: 5 25 64 64 (512000)
I0403 09:14:49.481209 26429 net.cpp:131] Top shape: 5 25 64 64 (512000)
I0403 09:14:49.481212 26429 net.cpp:139] Memory required for data: 1780940800
I0403 09:14:49.481216 26429 layer_factory.hpp:77] Creating layer ConvNd_58
I0403 09:14:49.481230 26429 net.cpp:86] Creating Layer ConvNd_58
I0403 09:14:49.481237 26429 net.cpp:408] ConvNd_58 <- ConvNd_57_ConvNd_57_0_split_0
I0403 09:14:49.481248 26429 net.cpp:382] ConvNd_58 -> ConvNd_58
I0403 09:14:49.487555 26429 net.cpp:124] Setting up ConvNd_58
I0403 09:14:49.487570 26429 net.cpp:131] Top shape: 5 28 64 64 (573440)
I0403 09:14:49.487572 26429 net.cpp:139] Memory required for data: 1783234560
I0403 09:14:49.487576 26429 layer_factory.hpp:77] Creating layer ConvNd_59
I0403 09:14:49.487586 26429 net.cpp:86] Creating Layer ConvNd_59
I0403 09:14:49.487591 26429 net.cpp:408] ConvNd_59 <- ConvNd_57_ConvNd_57_0_split_1
I0403 09:14:49.487597 26429 net.cpp:382] ConvNd_59 -> ConvNd_59
I0403 09:14:49.487880 26429 net.cpp:124] Setting up ConvNd_59
I0403 09:14:49.487888 26429 net.cpp:131] Top shape: 5 25 64 64 (512000)
I0403 09:14:49.487891 26429 net.cpp:139] Memory required for data: 1785282560
I0403 09:14:49.487896 26429 layer_factory.hpp:77] Creating layer ConvNd_59_ConvNd_59_0_split
I0403 09:14:49.487901 26429 net.cpp:86] Creating Layer ConvNd_59_ConvNd_59_0_split
I0403 09:14:49.487905 26429 net.cpp:408] ConvNd_59_ConvNd_59_0_split <- ConvNd_59
I0403 09:14:49.487910 26429 net.cpp:382] ConvNd_59_ConvNd_59_0_split -> ConvNd_59_ConvNd_59_0_split_0
I0403 09:14:49.487916 26429 net.cpp:382] ConvNd_59_ConvNd_59_0_split -> ConvNd_59_ConvNd_59_0_split_1
I0403 09:14:49.487970 26429 net.cpp:124] Setting up ConvNd_59_ConvNd_59_0_split
I0403 09:14:49.487978 26429 net.cpp:131] Top shape: 5 25 64 64 (512000)
I0403 09:14:49.487982 26429 net.cpp:131] Top shape: 5 25 64 64 (512000)
I0403 09:14:49.487984 26429 net.cpp:139] Memory required for data: 1789378560
I0403 09:14:49.487988 26429 layer_factory.hpp:77] Creating layer ConvNd_60
I0403 09:14:49.488000 26429 net.cpp:86] Creating Layer ConvNd_60
I0403 09:14:49.488008 26429 net.cpp:408] ConvNd_60 <- ConvNd_57_ConvNd_57_0_split_2
I0403 09:14:49.488018 26429 net.cpp:382] ConvNd_60 -> ConvNd_60
I0403 09:14:49.488286 26429 net.cpp:124] Setting up ConvNd_60
I0403 09:14:49.488293 26429 net.cpp:131] Top shape: 5 25 64 64 (512000)
I0403 09:14:49.488296 26429 net.cpp:139] Memory required for data: 1791426560
I0403 09:14:49.488301 26429 layer_factory.hpp:77] Creating layer Add_35
I0403 09:14:49.488307 26429 net.cpp:86] Creating Layer Add_35
I0403 09:14:49.488314 26429 net.cpp:408] Add_35 <- ConvNd_59_ConvNd_59_0_split_0
I0403 09:14:49.488322 26429 net.cpp:408] Add_35 <- ConvNd_60
I0403 09:14:49.488328 26429 net.cpp:382] Add_35 -> Add_35
I0403 09:14:49.488370 26429 net.cpp:124] Setting up Add_35
I0403 09:14:49.488379 26429 net.cpp:131] Top shape: 5 25 64 64 (512000)
I0403 09:14:49.488381 26429 net.cpp:139] Memory required for data: 1793474560
I0403 09:14:49.488384 26429 layer_factory.hpp:77] Creating layer Add_35_Add_35_0_split
I0403 09:14:49.488389 26429 net.cpp:86] Creating Layer Add_35_Add_35_0_split
I0403 09:14:49.488394 26429 net.cpp:408] Add_35_Add_35_0_split <- Add_35
I0403 09:14:49.488401 26429 net.cpp:382] Add_35_Add_35_0_split -> Add_35_Add_35_0_split_0
I0403 09:14:49.488411 26429 net.cpp:382] Add_35_Add_35_0_split -> Add_35_Add_35_0_split_1
I0403 09:14:49.488468 26429 net.cpp:124] Setting up Add_35_Add_35_0_split
I0403 09:14:49.488476 26429 net.cpp:131] Top shape: 5 25 64 64 (512000)
I0403 09:14:49.488479 26429 net.cpp:131] Top shape: 5 25 64 64 (512000)
I0403 09:14:49.488481 26429 net.cpp:139] Memory required for data: 1797570560
I0403 09:14:49.488485 26429 layer_factory.hpp:77] Creating layer ConvNd_61
I0403 09:14:49.488512 26429 net.cpp:86] Creating Layer ConvNd_61
I0403 09:14:49.488521 26429 net.cpp:408] ConvNd_61 <- ConvNd_57_ConvNd_57_0_split_3
I0403 09:14:49.488533 26429 net.cpp:382] ConvNd_61 -> ConvNd_61
I0403 09:14:49.488806 26429 net.cpp:124] Setting up ConvNd_61
I0403 09:14:49.488814 26429 net.cpp:131] Top shape: 5 25 64 64 (512000)
I0403 09:14:49.488817 26429 net.cpp:139] Memory required for data: 1799618560
I0403 09:14:49.488821 26429 layer_factory.hpp:77] Creating layer Add_36
I0403 09:14:49.488828 26429 net.cpp:86] Creating Layer Add_36
I0403 09:14:49.488832 26429 net.cpp:408] Add_36 <- Add_35_Add_35_0_split_0
I0403 09:14:49.488839 26429 net.cpp:408] Add_36 <- ConvNd_61
I0403 09:14:49.488847 26429 net.cpp:382] Add_36 -> Add_36
I0403 09:14:49.488886 26429 net.cpp:124] Setting up Add_36
I0403 09:14:49.488893 26429 net.cpp:131] Top shape: 5 25 64 64 (512000)
I0403 09:14:49.488896 26429 net.cpp:139] Memory required for data: 1801666560
I0403 09:14:49.488898 26429 layer_factory.hpp:77] Creating layer Add_36_Add_36_0_split
I0403 09:14:49.488905 26429 net.cpp:86] Creating Layer Add_36_Add_36_0_split
I0403 09:14:49.488909 26429 net.cpp:408] Add_36_Add_36_0_split <- Add_36
I0403 09:14:49.488917 26429 net.cpp:382] Add_36_Add_36_0_split -> Add_36_Add_36_0_split_0
I0403 09:14:49.488929 26429 net.cpp:382] Add_36_Add_36_0_split -> Add_36_Add_36_0_split_1
I0403 09:14:49.489017 26429 net.cpp:124] Setting up Add_36_Add_36_0_split
I0403 09:14:49.489025 26429 net.cpp:131] Top shape: 5 25 64 64 (512000)
I0403 09:14:49.489029 26429 net.cpp:131] Top shape: 5 25 64 64 (512000)
I0403 09:14:49.489033 26429 net.cpp:139] Memory required for data: 1805762560
I0403 09:14:49.489037 26429 layer_factory.hpp:77] Creating layer ConvNd_62
I0403 09:14:49.489048 26429 net.cpp:86] Creating Layer ConvNd_62
I0403 09:14:49.489054 26429 net.cpp:408] ConvNd_62 <- ConvNd_57_ConvNd_57_0_split_4
I0403 09:14:49.489063 26429 net.cpp:382] ConvNd_62 -> ConvNd_62
I0403 09:14:49.489329 26429 net.cpp:124] Setting up ConvNd_62
I0403 09:14:49.489337 26429 net.cpp:131] Top shape: 5 25 64 64 (512000)
I0403 09:14:49.489341 26429 net.cpp:139] Memory required for data: 1807810560
I0403 09:14:49.489346 26429 layer_factory.hpp:77] Creating layer Add_37
I0403 09:14:49.489352 26429 net.cpp:86] Creating Layer Add_37
I0403 09:14:49.489358 26429 net.cpp:408] Add_37 <- Add_36_Add_36_0_split_0
I0403 09:14:49.489365 26429 net.cpp:408] Add_37 <- ConvNd_62
I0403 09:14:49.489377 26429 net.cpp:382] Add_37 -> Add_37
I0403 09:14:49.489415 26429 net.cpp:124] Setting up Add_37
I0403 09:14:49.489421 26429 net.cpp:131] Top shape: 5 25 64 64 (512000)
I0403 09:14:49.489424 26429 net.cpp:139] Memory required for data: 1809858560
I0403 09:14:49.489428 26429 layer_factory.hpp:77] Creating layer Concat_12
I0403 09:14:49.489434 26429 net.cpp:86] Creating Layer Concat_12
I0403 09:14:49.489439 26429 net.cpp:408] Concat_12 <- ConvNd_58
I0403 09:14:49.489445 26429 net.cpp:408] Concat_12 <- ConvNd_59_ConvNd_59_0_split_1
I0403 09:14:49.489450 26429 net.cpp:408] Concat_12 <- Add_35_Add_35_0_split_1
I0403 09:14:49.489455 26429 net.cpp:408] Concat_12 <- Add_36_Add_36_0_split_1
I0403 09:14:49.489460 26429 net.cpp:408] Concat_12 <- Add_37
I0403 09:14:49.489471 26429 net.cpp:382] Concat_12 -> Concat_12
I0403 09:14:49.489511 26429 net.cpp:124] Setting up Concat_12
I0403 09:14:49.489519 26429 net.cpp:131] Top shape: 5 128 64 64 (2621440)
I0403 09:14:49.489521 26429 net.cpp:139] Memory required for data: 1820344320
I0403 09:14:49.489526 26429 layer_factory.hpp:77] Creating layer Add_38
I0403 09:14:49.489531 26429 net.cpp:86] Creating Layer Add_38
I0403 09:14:49.489538 26429 net.cpp:408] Add_38 <- BatchNorm_12_Threshold_12_0_split_1
I0403 09:14:49.489545 26429 net.cpp:408] Add_38 <- Concat_12
I0403 09:14:49.489552 26429 net.cpp:382] Add_38 -> Add_38
I0403 09:14:49.489591 26429 net.cpp:124] Setting up Add_38
I0403 09:14:49.489598 26429 net.cpp:131] Top shape: 5 128 64 64 (2621440)
I0403 09:14:49.489601 26429 net.cpp:139] Memory required for data: 1830830080
I0403 09:14:49.489604 26429 layer_factory.hpp:77] Creating layer BatchNorm_13
I0403 09:14:49.489624 26429 net.cpp:86] Creating Layer BatchNorm_13
I0403 09:14:49.489630 26429 net.cpp:408] BatchNorm_13 <- Add_38
I0403 09:14:49.489639 26429 net.cpp:382] BatchNorm_13 -> BatchNorm_13
I0403 09:14:49.489866 26429 net.cpp:124] Setting up BatchNorm_13
I0403 09:14:49.489874 26429 net.cpp:131] Top shape: 5 128 64 64 (2621440)
I0403 09:14:49.489876 26429 net.cpp:139] Memory required for data: 1841315840
I0403 09:14:49.489884 26429 layer_factory.hpp:77] Creating layer BatchNorm_13_scale
I0403 09:14:49.489893 26429 net.cpp:86] Creating Layer BatchNorm_13_scale
I0403 09:14:49.489898 26429 net.cpp:408] BatchNorm_13_scale <- BatchNorm_13
I0403 09:14:49.489904 26429 net.cpp:369] BatchNorm_13_scale -> BatchNorm_13 (in-place)
I0403 09:14:49.489961 26429 layer_factory.hpp:77] Creating layer BatchNorm_13_scale
I0403 09:14:49.490094 26429 net.cpp:124] Setting up BatchNorm_13_scale
I0403 09:14:49.490103 26429 net.cpp:131] Top shape: 5 128 64 64 (2621440)
I0403 09:14:49.490104 26429 net.cpp:139] Memory required for data: 1851801600
I0403 09:14:49.490110 26429 layer_factory.hpp:77] Creating layer Threshold_13
I0403 09:14:49.490121 26429 net.cpp:86] Creating Layer Threshold_13
I0403 09:14:49.490128 26429 net.cpp:408] Threshold_13 <- BatchNorm_13
I0403 09:14:49.490134 26429 net.cpp:369] Threshold_13 -> BatchNorm_13 (in-place)
I0403 09:14:49.490542 26429 net.cpp:124] Setting up Threshold_13
I0403 09:14:49.490556 26429 net.cpp:131] Top shape: 5 128 64 64 (2621440)
I0403 09:14:49.490558 26429 net.cpp:139] Memory required for data: 1862287360
I0403 09:14:49.490561 26429 layer_factory.hpp:77] Creating layer BatchNorm_13_Threshold_13_0_split
I0403 09:14:49.490568 26429 net.cpp:86] Creating Layer BatchNorm_13_Threshold_13_0_split
I0403 09:14:49.490573 26429 net.cpp:408] BatchNorm_13_Threshold_13_0_split <- BatchNorm_13
I0403 09:14:49.490579 26429 net.cpp:382] BatchNorm_13_Threshold_13_0_split -> BatchNorm_13_Threshold_13_0_split_0
I0403 09:14:49.490586 26429 net.cpp:382] BatchNorm_13_Threshold_13_0_split -> BatchNorm_13_Threshold_13_0_split_1
I0403 09:14:49.490651 26429 net.cpp:124] Setting up BatchNorm_13_Threshold_13_0_split
I0403 09:14:49.490660 26429 net.cpp:131] Top shape: 5 128 64 64 (2621440)
I0403 09:14:49.490664 26429 net.cpp:131] Top shape: 5 128 64 64 (2621440)
I0403 09:14:49.490666 26429 net.cpp:139] Memory required for data: 1883258880
I0403 09:14:49.490669 26429 layer_factory.hpp:77] Creating layer ConvNd_63
I0403 09:14:49.490682 26429 net.cpp:86] Creating Layer ConvNd_63
I0403 09:14:49.490689 26429 net.cpp:408] ConvNd_63 <- BatchNorm_13_Threshold_13_0_split_0
I0403 09:14:49.490700 26429 net.cpp:382] ConvNd_63 -> ConvNd_63
I0403 09:14:49.495425 26429 net.cpp:124] Setting up ConvNd_63
I0403 09:14:49.495440 26429 net.cpp:131] Top shape: 5 25 64 64 (512000)
I0403 09:14:49.495442 26429 net.cpp:139] Memory required for data: 1885306880
I0403 09:14:49.495446 26429 layer_factory.hpp:77] Creating layer ConvNd_63_ConvNd_63_0_split
I0403 09:14:49.495455 26429 net.cpp:86] Creating Layer ConvNd_63_ConvNd_63_0_split
I0403 09:14:49.495460 26429 net.cpp:408] ConvNd_63_ConvNd_63_0_split <- ConvNd_63
I0403 09:14:49.495466 26429 net.cpp:382] ConvNd_63_ConvNd_63_0_split -> ConvNd_63_ConvNd_63_0_split_0
I0403 09:14:49.495481 26429 net.cpp:382] ConvNd_63_ConvNd_63_0_split -> ConvNd_63_ConvNd_63_0_split_1
I0403 09:14:49.495492 26429 net.cpp:382] ConvNd_63_ConvNd_63_0_split -> ConvNd_63_ConvNd_63_0_split_2
I0403 09:14:49.495524 26429 net.cpp:382] ConvNd_63_ConvNd_63_0_split -> ConvNd_63_ConvNd_63_0_split_3
I0403 09:14:49.495535 26429 net.cpp:382] ConvNd_63_ConvNd_63_0_split -> ConvNd_63_ConvNd_63_0_split_4
I0403 09:14:49.495659 26429 net.cpp:124] Setting up ConvNd_63_ConvNd_63_0_split
I0403 09:14:49.495681 26429 net.cpp:131] Top shape: 5 25 64 64 (512000)
I0403 09:14:49.495692 26429 net.cpp:131] Top shape: 5 25 64 64 (512000)
I0403 09:14:49.495697 26429 net.cpp:131] Top shape: 5 25 64 64 (512000)
I0403 09:14:49.495702 26429 net.cpp:131] Top shape: 5 25 64 64 (512000)
I0403 09:14:49.495728 26429 net.cpp:131] Top shape: 5 25 64 64 (512000)
I0403 09:14:49.495749 26429 net.cpp:139] Memory required for data: 1895546880
I0403 09:14:49.495755 26429 layer_factory.hpp:77] Creating layer ConvNd_64
I0403 09:14:49.495767 26429 net.cpp:86] Creating Layer ConvNd_64
I0403 09:14:49.495774 26429 net.cpp:408] ConvNd_64 <- ConvNd_63_ConvNd_63_0_split_0
I0403 09:14:49.495784 26429 net.cpp:382] ConvNd_64 -> ConvNd_64
I0403 09:14:49.497917 26429 net.cpp:124] Setting up ConvNd_64
I0403 09:14:49.497934 26429 net.cpp:131] Top shape: 5 28 64 64 (573440)
I0403 09:14:49.497938 26429 net.cpp:139] Memory required for data: 1897840640
I0403 09:14:49.497947 26429 layer_factory.hpp:77] Creating layer ConvNd_65
I0403 09:14:49.497962 26429 net.cpp:86] Creating Layer ConvNd_65
I0403 09:14:49.497969 26429 net.cpp:408] ConvNd_65 <- ConvNd_63_ConvNd_63_0_split_1
I0403 09:14:49.497980 26429 net.cpp:382] ConvNd_65 -> ConvNd_65
I0403 09:14:49.498373 26429 net.cpp:124] Setting up ConvNd_65
I0403 09:14:49.498384 26429 net.cpp:131] Top shape: 5 25 64 64 (512000)
I0403 09:14:49.498389 26429 net.cpp:139] Memory required for data: 1899888640
I0403 09:14:49.498412 26429 layer_factory.hpp:77] Creating layer ConvNd_65_ConvNd_65_0_split
I0403 09:14:49.498422 26429 net.cpp:86] Creating Layer ConvNd_65_ConvNd_65_0_split
I0403 09:14:49.498427 26429 net.cpp:408] ConvNd_65_ConvNd_65_0_split <- ConvNd_65
I0403 09:14:49.498435 26429 net.cpp:382] ConvNd_65_ConvNd_65_0_split -> ConvNd_65_ConvNd_65_0_split_0
I0403 09:14:49.498446 26429 net.cpp:382] ConvNd_65_ConvNd_65_0_split -> ConvNd_65_ConvNd_65_0_split_1
I0403 09:14:49.498509 26429 net.cpp:124] Setting up ConvNd_65_ConvNd_65_0_split
I0403 09:14:49.498520 26429 net.cpp:131] Top shape: 5 25 64 64 (512000)
I0403 09:14:49.498528 26429 net.cpp:131] Top shape: 5 25 64 64 (512000)
I0403 09:14:49.498533 26429 net.cpp:139] Memory required for data: 1903984640
I0403 09:14:49.498538 26429 layer_factory.hpp:77] Creating layer ConvNd_66
I0403 09:14:49.498548 26429 net.cpp:86] Creating Layer ConvNd_66
I0403 09:14:49.498554 26429 net.cpp:408] ConvNd_66 <- ConvNd_63_ConvNd_63_0_split_2
I0403 09:14:49.498562 26429 net.cpp:382] ConvNd_66 -> ConvNd_66
I0403 09:14:49.498932 26429 net.cpp:124] Setting up ConvNd_66
I0403 09:14:49.498942 26429 net.cpp:131] Top shape: 5 25 64 64 (512000)
I0403 09:14:49.498946 26429 net.cpp:139] Memory required for data: 1906032640
I0403 09:14:49.498952 26429 layer_factory.hpp:77] Creating layer Add_39
I0403 09:14:49.498960 26429 net.cpp:86] Creating Layer Add_39
I0403 09:14:49.498967 26429 net.cpp:408] Add_39 <- ConvNd_65_ConvNd_65_0_split_0
I0403 09:14:49.498973 26429 net.cpp:408] Add_39 <- ConvNd_66
I0403 09:14:49.498980 26429 net.cpp:382] Add_39 -> Add_39
I0403 09:14:49.499017 26429 net.cpp:124] Setting up Add_39
I0403 09:14:49.499025 26429 net.cpp:131] Top shape: 5 25 64 64 (512000)
I0403 09:14:49.499029 26429 net.cpp:139] Memory required for data: 1908080640
I0403 09:14:49.499033 26429 layer_factory.hpp:77] Creating layer Add_39_Add_39_0_split
I0403 09:14:49.499043 26429 net.cpp:86] Creating Layer Add_39_Add_39_0_split
I0403 09:14:49.499050 26429 net.cpp:408] Add_39_Add_39_0_split <- Add_39
I0403 09:14:49.499058 26429 net.cpp:382] Add_39_Add_39_0_split -> Add_39_Add_39_0_split_0
I0403 09:14:49.499068 26429 net.cpp:382] Add_39_Add_39_0_split -> Add_39_Add_39_0_split_1
I0403 09:14:49.499128 26429 net.cpp:124] Setting up Add_39_Add_39_0_split
I0403 09:14:49.499141 26429 net.cpp:131] Top shape: 5 25 64 64 (512000)
I0403 09:14:49.499148 26429 net.cpp:131] Top shape: 5 25 64 64 (512000)
I0403 09:14:49.499152 26429 net.cpp:139] Memory required for data: 1912176640
I0403 09:14:49.499158 26429 layer_factory.hpp:77] Creating layer ConvNd_67
I0403 09:14:49.499168 26429 net.cpp:86] Creating Layer ConvNd_67
I0403 09:14:49.499176 26429 net.cpp:408] ConvNd_67 <- ConvNd_63_ConvNd_63_0_split_3
I0403 09:14:49.499191 26429 net.cpp:382] ConvNd_67 -> ConvNd_67
I0403 09:14:49.499594 26429 net.cpp:124] Setting up ConvNd_67
I0403 09:14:49.499606 26429 net.cpp:131] Top shape: 5 25 64 64 (512000)
I0403 09:14:49.499610 26429 net.cpp:139] Memory required for data: 1914224640
I0403 09:14:49.499632 26429 layer_factory.hpp:77] Creating layer Add_40
I0403 09:14:49.499642 26429 net.cpp:86] Creating Layer Add_40
I0403 09:14:49.499647 26429 net.cpp:408] Add_40 <- Add_39_Add_39_0_split_0
I0403 09:14:49.499652 26429 net.cpp:408] Add_40 <- ConvNd_67
I0403 09:14:49.499656 26429 net.cpp:382] Add_40 -> Add_40
I0403 09:14:49.499691 26429 net.cpp:124] Setting up Add_40
I0403 09:14:49.499698 26429 net.cpp:131] Top shape: 5 25 64 64 (512000)
I0403 09:14:49.499701 26429 net.cpp:139] Memory required for data: 1916272640
I0403 09:14:49.499703 26429 layer_factory.hpp:77] Creating layer Add_40_Add_40_0_split
I0403 09:14:49.499711 26429 net.cpp:86] Creating Layer Add_40_Add_40_0_split
I0403 09:14:49.499714 26429 net.cpp:408] Add_40_Add_40_0_split <- Add_40
I0403 09:14:49.499722 26429 net.cpp:382] Add_40_Add_40_0_split -> Add_40_Add_40_0_split_0
I0403 09:14:49.499732 26429 net.cpp:382] Add_40_Add_40_0_split -> Add_40_Add_40_0_split_1
I0403 09:14:49.499794 26429 net.cpp:124] Setting up Add_40_Add_40_0_split
I0403 09:14:49.499807 26429 net.cpp:131] Top shape: 5 25 64 64 (512000)
I0403 09:14:49.499814 26429 net.cpp:131] Top shape: 5 25 64 64 (512000)
I0403 09:14:49.499817 26429 net.cpp:139] Memory required for data: 1920368640
I0403 09:14:49.499822 26429 layer_factory.hpp:77] Creating layer ConvNd_68
I0403 09:14:49.499833 26429 net.cpp:86] Creating Layer ConvNd_68
I0403 09:14:49.499840 26429 net.cpp:408] ConvNd_68 <- ConvNd_63_ConvNd_63_0_split_4
I0403 09:14:49.499851 26429 net.cpp:382] ConvNd_68 -> ConvNd_68
I0403 09:14:49.500278 26429 net.cpp:124] Setting up ConvNd_68
I0403 09:14:49.500294 26429 net.cpp:131] Top shape: 5 25 64 64 (512000)
I0403 09:14:49.500300 26429 net.cpp:139] Memory required for data: 1922416640
I0403 09:14:49.500308 26429 layer_factory.hpp:77] Creating layer Add_41
I0403 09:14:49.500319 26429 net.cpp:86] Creating Layer Add_41
I0403 09:14:49.500324 26429 net.cpp:408] Add_41 <- Add_40_Add_40_0_split_0
I0403 09:14:49.500329 26429 net.cpp:408] Add_41 <- ConvNd_68
I0403 09:14:49.500334 26429 net.cpp:382] Add_41 -> Add_41
I0403 09:14:49.500365 26429 net.cpp:124] Setting up Add_41
I0403 09:14:49.500372 26429 net.cpp:131] Top shape: 5 25 64 64 (512000)
I0403 09:14:49.500375 26429 net.cpp:139] Memory required for data: 1924464640
I0403 09:14:49.500377 26429 layer_factory.hpp:77] Creating layer Concat_13
I0403 09:14:49.500385 26429 net.cpp:86] Creating Layer Concat_13
I0403 09:14:49.500388 26429 net.cpp:408] Concat_13 <- ConvNd_64
I0403 09:14:49.500392 26429 net.cpp:408] Concat_13 <- ConvNd_65_ConvNd_65_0_split_1
I0403 09:14:49.500396 26429 net.cpp:408] Concat_13 <- Add_39_Add_39_0_split_1
I0403 09:14:49.500401 26429 net.cpp:408] Concat_13 <- Add_40_Add_40_0_split_1
I0403 09:14:49.500403 26429 net.cpp:408] Concat_13 <- Add_41
I0403 09:14:49.500408 26429 net.cpp:382] Concat_13 -> Concat_13
I0403 09:14:49.500435 26429 net.cpp:124] Setting up Concat_13
I0403 09:14:49.500442 26429 net.cpp:131] Top shape: 5 128 64 64 (2621440)
I0403 09:14:49.500444 26429 net.cpp:139] Memory required for data: 1934950400
I0403 09:14:49.500447 26429 layer_factory.hpp:77] Creating layer Add_42
I0403 09:14:49.500452 26429 net.cpp:86] Creating Layer Add_42
I0403 09:14:49.500455 26429 net.cpp:408] Add_42 <- BatchNorm_13_Threshold_13_0_split_1
I0403 09:14:49.500458 26429 net.cpp:408] Add_42 <- Concat_13
I0403 09:14:49.500464 26429 net.cpp:382] Add_42 -> Add_42
I0403 09:14:49.500489 26429 net.cpp:124] Setting up Add_42
I0403 09:14:49.500495 26429 net.cpp:131] Top shape: 5 128 64 64 (2621440)
I0403 09:14:49.500499 26429 net.cpp:139] Memory required for data: 1945436160
I0403 09:14:49.500500 26429 layer_factory.hpp:77] Creating layer BatchNorm_14
I0403 09:14:49.500504 26429 net.cpp:86] Creating Layer BatchNorm_14
I0403 09:14:49.500509 26429 net.cpp:408] BatchNorm_14 <- Add_42
I0403 09:14:49.500514 26429 net.cpp:382] BatchNorm_14 -> BatchNorm_14
I0403 09:14:49.500720 26429 net.cpp:124] Setting up BatchNorm_14
I0403 09:14:49.500725 26429 net.cpp:131] Top shape: 5 128 64 64 (2621440)
I0403 09:14:49.500728 26429 net.cpp:139] Memory required for data: 1955921920
I0403 09:14:49.500746 26429 layer_factory.hpp:77] Creating layer BatchNorm_14_scale
I0403 09:14:49.500758 26429 net.cpp:86] Creating Layer BatchNorm_14_scale
I0403 09:14:49.500761 26429 net.cpp:408] BatchNorm_14_scale <- BatchNorm_14
I0403 09:14:49.500766 26429 net.cpp:369] BatchNorm_14_scale -> BatchNorm_14 (in-place)
I0403 09:14:49.500813 26429 layer_factory.hpp:77] Creating layer BatchNorm_14_scale
I0403 09:14:49.500926 26429 net.cpp:124] Setting up BatchNorm_14_scale
I0403 09:14:49.500933 26429 net.cpp:131] Top shape: 5 128 64 64 (2621440)
I0403 09:14:49.500936 26429 net.cpp:139] Memory required for data: 1966407680
I0403 09:14:49.500941 26429 layer_factory.hpp:77] Creating layer Threshold_14
I0403 09:14:49.500946 26429 net.cpp:86] Creating Layer Threshold_14
I0403 09:14:49.500948 26429 net.cpp:408] Threshold_14 <- BatchNorm_14
I0403 09:14:49.500953 26429 net.cpp:369] Threshold_14 -> BatchNorm_14 (in-place)
I0403 09:14:49.501256 26429 net.cpp:124] Setting up Threshold_14
I0403 09:14:49.501269 26429 net.cpp:131] Top shape: 5 128 64 64 (2621440)
I0403 09:14:49.501271 26429 net.cpp:139] Memory required for data: 1976893440
I0403 09:14:49.501276 26429 layer_factory.hpp:77] Creating layer BatchNorm_14_Threshold_14_0_split
I0403 09:14:49.501281 26429 net.cpp:86] Creating Layer BatchNorm_14_Threshold_14_0_split
I0403 09:14:49.501286 26429 net.cpp:408] BatchNorm_14_Threshold_14_0_split <- BatchNorm_14
I0403 09:14:49.501296 26429 net.cpp:382] BatchNorm_14_Threshold_14_0_split -> BatchNorm_14_Threshold_14_0_split_0
I0403 09:14:49.501309 26429 net.cpp:382] BatchNorm_14_Threshold_14_0_split -> BatchNorm_14_Threshold_14_0_split_1
I0403 09:14:49.501372 26429 net.cpp:124] Setting up BatchNorm_14_Threshold_14_0_split
I0403 09:14:49.501379 26429 net.cpp:131] Top shape: 5 128 64 64 (2621440)
I0403 09:14:49.501384 26429 net.cpp:131] Top shape: 5 128 64 64 (2621440)
I0403 09:14:49.501386 26429 net.cpp:139] Memory required for data: 1997864960
I0403 09:14:49.501390 26429 layer_factory.hpp:77] Creating layer ConvNd_69
I0403 09:14:49.501405 26429 net.cpp:86] Creating Layer ConvNd_69
I0403 09:14:49.501412 26429 net.cpp:408] ConvNd_69 <- BatchNorm_14_Threshold_14_0_split_0
I0403 09:14:49.501425 26429 net.cpp:382] ConvNd_69 -> ConvNd_69
I0403 09:14:49.503242 26429 net.cpp:124] Setting up ConvNd_69
I0403 09:14:49.503255 26429 net.cpp:131] Top shape: 5 25 64 64 (512000)
I0403 09:14:49.503258 26429 net.cpp:139] Memory required for data: 1999912960
I0403 09:14:49.503263 26429 layer_factory.hpp:77] Creating layer ConvNd_69_ConvNd_69_0_split
I0403 09:14:49.503270 26429 net.cpp:86] Creating Layer ConvNd_69_ConvNd_69_0_split
I0403 09:14:49.503274 26429 net.cpp:408] ConvNd_69_ConvNd_69_0_split <- ConvNd_69
I0403 09:14:49.503285 26429 net.cpp:382] ConvNd_69_ConvNd_69_0_split -> ConvNd_69_ConvNd_69_0_split_0
I0403 09:14:49.503299 26429 net.cpp:382] ConvNd_69_ConvNd_69_0_split -> ConvNd_69_ConvNd_69_0_split_1
I0403 09:14:49.503314 26429 net.cpp:382] ConvNd_69_ConvNd_69_0_split -> ConvNd_69_ConvNd_69_0_split_2
I0403 09:14:49.503326 26429 net.cpp:382] ConvNd_69_ConvNd_69_0_split -> ConvNd_69_ConvNd_69_0_split_3
I0403 09:14:49.503336 26429 net.cpp:382] ConvNd_69_ConvNd_69_0_split -> ConvNd_69_ConvNd_69_0_split_4
I0403 09:14:49.503439 26429 net.cpp:124] Setting up ConvNd_69_ConvNd_69_0_split
I0403 09:14:49.503448 26429 net.cpp:131] Top shape: 5 25 64 64 (512000)
I0403 09:14:49.503450 26429 net.cpp:131] Top shape: 5 25 64 64 (512000)
I0403 09:14:49.503454 26429 net.cpp:131] Top shape: 5 25 64 64 (512000)
I0403 09:14:49.503459 26429 net.cpp:131] Top shape: 5 25 64 64 (512000)
I0403 09:14:49.503464 26429 net.cpp:131] Top shape: 5 25 64 64 (512000)
I0403 09:14:49.503468 26429 net.cpp:139] Memory required for data: 2010152960
I0403 09:14:49.503471 26429 layer_factory.hpp:77] Creating layer ConvNd_70
I0403 09:14:49.503484 26429 net.cpp:86] Creating Layer ConvNd_70
I0403 09:14:49.503489 26429 net.cpp:408] ConvNd_70 <- ConvNd_69_ConvNd_69_0_split_0
I0403 09:14:49.503496 26429 net.cpp:382] ConvNd_70 -> ConvNd_70
I0403 09:14:49.510094 26429 net.cpp:124] Setting up ConvNd_70
I0403 09:14:49.510108 26429 net.cpp:131] Top shape: 5 28 64 64 (573440)
I0403 09:14:49.510112 26429 net.cpp:139] Memory required for data: 2012446720
I0403 09:14:49.510116 26429 layer_factory.hpp:77] Creating layer ConvNd_71
I0403 09:14:49.510128 26429 net.cpp:86] Creating Layer ConvNd_71
I0403 09:14:49.510135 26429 net.cpp:408] ConvNd_71 <- ConvNd_69_ConvNd_69_0_split_1
I0403 09:14:49.510152 26429 net.cpp:382] ConvNd_71 -> ConvNd_71
I0403 09:14:49.510437 26429 net.cpp:124] Setting up ConvNd_71
I0403 09:14:49.510444 26429 net.cpp:131] Top shape: 5 25 64 64 (512000)
I0403 09:14:49.510447 26429 net.cpp:139] Memory required for data: 2014494720
I0403 09:14:49.510452 26429 layer_factory.hpp:77] Creating layer ConvNd_71_ConvNd_71_0_split
I0403 09:14:49.510462 26429 net.cpp:86] Creating Layer ConvNd_71_ConvNd_71_0_split
I0403 09:14:49.510465 26429 net.cpp:408] ConvNd_71_ConvNd_71_0_split <- ConvNd_71
I0403 09:14:49.510474 26429 net.cpp:382] ConvNd_71_ConvNd_71_0_split -> ConvNd_71_ConvNd_71_0_split_0
I0403 09:14:49.510485 26429 net.cpp:382] ConvNd_71_ConvNd_71_0_split -> ConvNd_71_ConvNd_71_0_split_1
I0403 09:14:49.510541 26429 net.cpp:124] Setting up ConvNd_71_ConvNd_71_0_split
I0403 09:14:49.510548 26429 net.cpp:131] Top shape: 5 25 64 64 (512000)
I0403 09:14:49.510552 26429 net.cpp:131] Top shape: 5 25 64 64 (512000)
I0403 09:14:49.510555 26429 net.cpp:139] Memory required for data: 2018590720
I0403 09:14:49.510560 26429 layer_factory.hpp:77] Creating layer ConvNd_72
I0403 09:14:49.510569 26429 net.cpp:86] Creating Layer ConvNd_72
I0403 09:14:49.510576 26429 net.cpp:408] ConvNd_72 <- ConvNd_69_ConvNd_69_0_split_2
I0403 09:14:49.510587 26429 net.cpp:382] ConvNd_72 -> ConvNd_72
I0403 09:14:49.510864 26429 net.cpp:124] Setting up ConvNd_72
I0403 09:14:49.510871 26429 net.cpp:131] Top shape: 5 25 64 64 (512000)
I0403 09:14:49.510874 26429 net.cpp:139] Memory required for data: 2020638720
I0403 09:14:49.510879 26429 layer_factory.hpp:77] Creating layer Add_43
I0403 09:14:49.510884 26429 net.cpp:86] Creating Layer Add_43
I0403 09:14:49.510886 26429 net.cpp:408] Add_43 <- ConvNd_71_ConvNd_71_0_split_0
I0403 09:14:49.510890 26429 net.cpp:408] Add_43 <- ConvNd_72
I0403 09:14:49.510895 26429 net.cpp:382] Add_43 -> Add_43
I0403 09:14:49.510923 26429 net.cpp:124] Setting up Add_43
I0403 09:14:49.510932 26429 net.cpp:131] Top shape: 5 25 64 64 (512000)
I0403 09:14:49.510937 26429 net.cpp:139] Memory required for data: 2022686720
I0403 09:14:49.510941 26429 layer_factory.hpp:77] Creating layer Add_43_Add_43_0_split
I0403 09:14:49.510951 26429 net.cpp:86] Creating Layer Add_43_Add_43_0_split
I0403 09:14:49.510957 26429 net.cpp:408] Add_43_Add_43_0_split <- Add_43
I0403 09:14:49.510964 26429 net.cpp:382] Add_43_Add_43_0_split -> Add_43_Add_43_0_split_0
I0403 09:14:49.510977 26429 net.cpp:382] Add_43_Add_43_0_split -> Add_43_Add_43_0_split_1
I0403 09:14:49.511030 26429 net.cpp:124] Setting up Add_43_Add_43_0_split
I0403 09:14:49.511039 26429 net.cpp:131] Top shape: 5 25 64 64 (512000)
I0403 09:14:49.511042 26429 net.cpp:131] Top shape: 5 25 64 64 (512000)
I0403 09:14:49.511045 26429 net.cpp:139] Memory required for data: 2026782720
I0403 09:14:49.511049 26429 layer_factory.hpp:77] Creating layer ConvNd_73
I0403 09:14:49.511059 26429 net.cpp:86] Creating Layer ConvNd_73
I0403 09:14:49.511066 26429 net.cpp:408] ConvNd_73 <- ConvNd_69_ConvNd_69_0_split_3
I0403 09:14:49.511078 26429 net.cpp:382] ConvNd_73 -> ConvNd_73
I0403 09:14:49.511346 26429 net.cpp:124] Setting up ConvNd_73
I0403 09:14:49.511353 26429 net.cpp:131] Top shape: 5 25 64 64 (512000)
I0403 09:14:49.511356 26429 net.cpp:139] Memory required for data: 2028830720
I0403 09:14:49.511361 26429 layer_factory.hpp:77] Creating layer Add_44
I0403 09:14:49.511368 26429 net.cpp:86] Creating Layer Add_44
I0403 09:14:49.511373 26429 net.cpp:408] Add_44 <- Add_43_Add_43_0_split_0
I0403 09:14:49.511379 26429 net.cpp:408] Add_44 <- ConvNd_73
I0403 09:14:49.511385 26429 net.cpp:382] Add_44 -> Add_44
I0403 09:14:49.511422 26429 net.cpp:124] Setting up Add_44
I0403 09:14:49.511440 26429 net.cpp:131] Top shape: 5 25 64 64 (512000)
I0403 09:14:49.511443 26429 net.cpp:139] Memory required for data: 2030878720
I0403 09:14:49.511445 26429 layer_factory.hpp:77] Creating layer Add_44_Add_44_0_split
I0403 09:14:49.511453 26429 net.cpp:86] Creating Layer Add_44_Add_44_0_split
I0403 09:14:49.511459 26429 net.cpp:408] Add_44_Add_44_0_split <- Add_44
I0403 09:14:49.511467 26429 net.cpp:382] Add_44_Add_44_0_split -> Add_44_Add_44_0_split_0
I0403 09:14:49.511476 26429 net.cpp:382] Add_44_Add_44_0_split -> Add_44_Add_44_0_split_1
I0403 09:14:49.511531 26429 net.cpp:124] Setting up Add_44_Add_44_0_split
I0403 09:14:49.511538 26429 net.cpp:131] Top shape: 5 25 64 64 (512000)
I0403 09:14:49.511541 26429 net.cpp:131] Top shape: 5 25 64 64 (512000)
I0403 09:14:49.511544 26429 net.cpp:139] Memory required for data: 2034974720
I0403 09:14:49.511548 26429 layer_factory.hpp:77] Creating layer ConvNd_74
I0403 09:14:49.511559 26429 net.cpp:86] Creating Layer ConvNd_74
I0403 09:14:49.511566 26429 net.cpp:408] ConvNd_74 <- ConvNd_69_ConvNd_69_0_split_4
I0403 09:14:49.511577 26429 net.cpp:382] ConvNd_74 -> ConvNd_74
I0403 09:14:49.511844 26429 net.cpp:124] Setting up ConvNd_74
I0403 09:14:49.511852 26429 net.cpp:131] Top shape: 5 25 64 64 (512000)
I0403 09:14:49.511855 26429 net.cpp:139] Memory required for data: 2037022720
I0403 09:14:49.511859 26429 layer_factory.hpp:77] Creating layer Add_45
I0403 09:14:49.511865 26429 net.cpp:86] Creating Layer Add_45
I0403 09:14:49.511868 26429 net.cpp:408] Add_45 <- Add_44_Add_44_0_split_0
I0403 09:14:49.511873 26429 net.cpp:408] Add_45 <- ConvNd_74
I0403 09:14:49.511878 26429 net.cpp:382] Add_45 -> Add_45
I0403 09:14:49.511904 26429 net.cpp:124] Setting up Add_45
I0403 09:14:49.511911 26429 net.cpp:131] Top shape: 5 25 64 64 (512000)
I0403 09:14:49.511916 26429 net.cpp:139] Memory required for data: 2039070720
I0403 09:14:49.511919 26429 layer_factory.hpp:77] Creating layer Concat_14
I0403 09:14:49.511929 26429 net.cpp:86] Creating Layer Concat_14
I0403 09:14:49.511936 26429 net.cpp:408] Concat_14 <- ConvNd_70
I0403 09:14:49.511943 26429 net.cpp:408] Concat_14 <- ConvNd_71_ConvNd_71_0_split_1
I0403 09:14:49.511950 26429 net.cpp:408] Concat_14 <- Add_43_Add_43_0_split_1
I0403 09:14:49.511955 26429 net.cpp:408] Concat_14 <- Add_44_Add_44_0_split_1
I0403 09:14:49.511960 26429 net.cpp:408] Concat_14 <- Add_45
I0403 09:14:49.511967 26429 net.cpp:382] Concat_14 -> Concat_14
I0403 09:14:49.512007 26429 net.cpp:124] Setting up Concat_14
I0403 09:14:49.512014 26429 net.cpp:131] Top shape: 5 128 64 64 (2621440)
I0403 09:14:49.512017 26429 net.cpp:139] Memory required for data: 2049556480
I0403 09:14:49.512019 26429 layer_factory.hpp:77] Creating layer Add_46
I0403 09:14:49.512025 26429 net.cpp:86] Creating Layer Add_46
I0403 09:14:49.512030 26429 net.cpp:408] Add_46 <- BatchNorm_14_Threshold_14_0_split_1
I0403 09:14:49.512037 26429 net.cpp:408] Add_46 <- Concat_14
I0403 09:14:49.512048 26429 net.cpp:382] Add_46 -> Add_46
I0403 09:14:49.512087 26429 net.cpp:124] Setting up Add_46
I0403 09:14:49.512094 26429 net.cpp:131] Top shape: 5 128 64 64 (2621440)
I0403 09:14:49.512096 26429 net.cpp:139] Memory required for data: 2060042240
I0403 09:14:49.512099 26429 layer_factory.hpp:77] Creating layer BatchNorm_15
I0403 09:14:49.512105 26429 net.cpp:86] Creating Layer BatchNorm_15
I0403 09:14:49.512109 26429 net.cpp:408] BatchNorm_15 <- Add_46
I0403 09:14:49.512118 26429 net.cpp:382] BatchNorm_15 -> BatchNorm_15
I0403 09:14:49.512343 26429 net.cpp:124] Setting up BatchNorm_15
I0403 09:14:49.512351 26429 net.cpp:131] Top shape: 5 128 64 64 (2621440)
I0403 09:14:49.512353 26429 net.cpp:139] Memory required for data: 2070528000
I0403 09:14:49.512362 26429 layer_factory.hpp:77] Creating layer BatchNorm_15_scale
I0403 09:14:49.512372 26429 net.cpp:86] Creating Layer BatchNorm_15_scale
I0403 09:14:49.512379 26429 net.cpp:408] BatchNorm_15_scale <- BatchNorm_15
I0403 09:14:49.512385 26429 net.cpp:369] BatchNorm_15_scale -> BatchNorm_15 (in-place)
I0403 09:14:49.512444 26429 layer_factory.hpp:77] Creating layer BatchNorm_15_scale
I0403 09:14:49.512586 26429 net.cpp:124] Setting up BatchNorm_15_scale
I0403 09:14:49.512594 26429 net.cpp:131] Top shape: 5 128 64 64 (2621440)
I0403 09:14:49.512598 26429 net.cpp:139] Memory required for data: 2081013760
I0403 09:14:49.512603 26429 layer_factory.hpp:77] Creating layer Threshold_15
I0403 09:14:49.512614 26429 net.cpp:86] Creating Layer Threshold_15
I0403 09:14:49.512619 26429 net.cpp:408] Threshold_15 <- BatchNorm_15
I0403 09:14:49.512625 26429 net.cpp:369] Threshold_15 -> BatchNorm_15 (in-place)
I0403 09:14:49.512881 26429 net.cpp:124] Setting up Threshold_15
I0403 09:14:49.512892 26429 net.cpp:131] Top shape: 5 128 64 64 (2621440)
I0403 09:14:49.512895 26429 net.cpp:139] Memory required for data: 2091499520
I0403 09:14:49.512898 26429 layer_factory.hpp:77] Creating layer Concat_15
I0403 09:14:49.512905 26429 net.cpp:86] Creating Layer Concat_15
I0403 09:14:49.512913 26429 net.cpp:408] Concat_15 <- BatchNorm_7_Threshold_7_0_split_2
I0403 09:14:49.512923 26429 net.cpp:408] Concat_15 <- BatchNorm_15
I0403 09:14:49.512933 26429 net.cpp:382] Concat_15 -> Concat_15
I0403 09:14:49.512975 26429 net.cpp:124] Setting up Concat_15
I0403 09:14:49.512984 26429 net.cpp:131] Top shape: 5 256 64 64 (5242880)
I0403 09:14:49.512985 26429 net.cpp:139] Memory required for data: 2112471040
I0403 09:14:49.512989 26429 layer_factory.hpp:77] Creating layer deconv_encoder6_0_0
I0403 09:14:49.513000 26429 net.cpp:86] Creating Layer deconv_encoder6_0_0
I0403 09:14:49.513010 26429 net.cpp:408] deconv_encoder6_0_0 <- Concat_15
I0403 09:14:49.513018 26429 net.cpp:382] deconv_encoder6_0_0 -> deconv_encoder6_0_0
I0403 09:14:49.519942 26429 net.cpp:124] Setting up deconv_encoder6_0_0
I0403 09:14:49.519959 26429 net.cpp:131] Top shape: 5 19 512 512 (24903680)
I0403 09:14:49.519963 26429 net.cpp:139] Memory required for data: 2212085760
I0403 09:14:49.519970 26429 layer_factory.hpp:77] Creating layer deconv_encoder6_0_0_deconv_encoder6_0_0_0_split
I0403 09:14:49.519979 26429 net.cpp:86] Creating Layer deconv_encoder6_0_0_deconv_encoder6_0_0_0_split
I0403 09:14:49.519985 26429 net.cpp:408] deconv_encoder6_0_0_deconv_encoder6_0_0_0_split <- deconv_encoder6_0_0
I0403 09:14:49.519994 26429 net.cpp:382] deconv_encoder6_0_0_deconv_encoder6_0_0_0_split -> deconv_encoder6_0_0_deconv_encoder6_0_0_0_split_0
I0403 09:14:49.520005 26429 net.cpp:382] deconv_encoder6_0_0_deconv_encoder6_0_0_0_split -> deconv_encoder6_0_0_deconv_encoder6_0_0_0_split_1
I0403 09:14:49.520076 26429 net.cpp:124] Setting up deconv_encoder6_0_0_deconv_encoder6_0_0_0_split
I0403 09:14:49.520084 26429 net.cpp:131] Top shape: 5 19 512 512 (24903680)
I0403 09:14:49.520088 26429 net.cpp:131] Top shape: 5 19 512 512 (24903680)
I0403 09:14:49.520092 26429 net.cpp:139] Memory required for data: 2411315200
I0403 09:14:49.520095 26429 layer_factory.hpp:77] Creating layer loss
I0403 09:14:49.520104 26429 net.cpp:86] Creating Layer loss
I0403 09:14:49.520112 26429 net.cpp:408] loss <- deconv_encoder6_0_0_deconv_encoder6_0_0_0_split_0
I0403 09:14:49.520121 26429 net.cpp:408] loss <- label_data_1_split_0
I0403 09:14:49.520133 26429 net.cpp:382] loss -> loss
I0403 09:14:49.520150 26429 layer_factory.hpp:77] Creating layer loss
I0403 09:14:49.567939 26429 net.cpp:124] Setting up loss
I0403 09:14:49.567963 26429 net.cpp:131] Top shape: (1)
I0403 09:14:49.567965 26429 net.cpp:134]     with loss weight 1
I0403 09:14:49.567986 26429 net.cpp:139] Memory required for data: 2411315204
I0403 09:14:49.567993 26429 layer_factory.hpp:77] Creating layer acc
I0403 09:14:49.568007 26429 net.cpp:86] Creating Layer acc
I0403 09:14:49.568017 26429 net.cpp:408] acc <- deconv_encoder6_0_0_deconv_encoder6_0_0_0_split_1
I0403 09:14:49.568027 26429 net.cpp:408] acc <- label_data_1_split_1
I0403 09:14:49.568042 26429 net.cpp:382] acc -> acc
I0403 09:14:49.568058 26429 net.cpp:382] acc -> per_acc
I0403 09:14:49.568127 26429 net.cpp:124] Setting up acc
I0403 09:14:49.568133 26429 net.cpp:131] Top shape: (1)
I0403 09:14:49.568137 26429 net.cpp:131] Top shape: 19 (19)
I0403 09:14:49.568158 26429 net.cpp:139] Memory required for data: 2411315284
I0403 09:14:49.568164 26429 net.cpp:202] acc does not need backward computation.
I0403 09:14:49.568176 26429 net.cpp:200] loss needs backward computation.
I0403 09:14:49.568183 26429 net.cpp:200] deconv_encoder6_0_0_deconv_encoder6_0_0_0_split needs backward computation.
I0403 09:14:49.568189 26429 net.cpp:200] deconv_encoder6_0_0 needs backward computation.
…
