…
I0224 07:26:57.669754   180 decent_q.cpp:616] GPU device name: GeForce GTX 1080 Ti
I0224 07:26:58.496536   180 net.cpp:369] The NetState phase (1) differed from the phase (0) specified by a rule in layer data
I0224 07:26:58.496690   180 net.cpp:98] Initializing net from parameters: 
layer {
  name: "data"
  type: "ImageSegData"
  top: "data"
  top: "label"
  include {
    phase: TEST
  }
  transform_param {
    scale: 0.022
    mean_value: 73
    mean_value: 82
    mean_value: 72
  }
  image_data_param {
    source: "../data/val_img_seg_nomap.txt"
    batch_size: 1
    shuffle: false
  }
}
layer {
  name: "resize_down"
  type: "DeephiResize"
  bottom: "data"
  top: "data"
  include {
    phase: TEST
  }
  deephi_resize_param {
    resize_type: BILINEAR
    new_height: 512
    new_width: 1024
  }
}
layer {
  name: "conv1/7x7_s2"
  type: "Convolution"
  bottom: "data"
  top: "conv1/7x7_s2_raw"
  param {
    lr_mult: 1
    decay_mult: 1
  }
  convolution_param {
    num_output: 64
    pad: 3
    kernel_size: 7
    stride: 2
    weight_filler {
      type: "msra"
    }
    bias_filler {
      type: "constant"
      value: 0.2
    }
  }
}
layer {
  name: "conv1/7x7_s2_BatchNorm"
  type: "BatchNorm"
  bottom: "conv1/7x7_s2_raw"
  top: "conv1/7x7_s2"
  param {
    lr_mult: 1
    decay_mult: 0
  }
  param {
    lr_mult: 1
    decay_mult: 0
  }
  param {
    lr_mult: 0
    decay_mult: 0
  }
  param {
    lr_mult: 0
    decay_mult: 0
  }
  batch_norm_param {
    use_global_stats: false
    eps: 1e-05
    scale_filler {
      type: "constant"
      value: 1
    }
    bias_filler {
      type: "constant"
      value: 0
    }
  }
}
layer {
  name: "conv1/relu_7x7"
  type: "ReLU"
  bottom: "conv1/7x7_s2"
  top: "conv1/7x7_s2"
}
layer {
  name: "pool1/3x3_s2"
  type: "Pooling"
  bottom: "conv1/7x7_s2"
  top: "pool1/3x3_s2"
  pooling_param {
    pool: MAX
    kernel_size: 3
    stride: 2
  }
}
layer {
  name: "conv2/3x3_reduce"
  type: "Convolution"
  bottom: "pool1/3x3_s2"
  top: "conv2/3x3_reduce_raw"
  param {
    lr_mult: 1
    decay_mult: 1
  }
  convolution_param {
    num_output: 64
    kernel_size: 1
    weight_filler {
      type: "msra"
    }
    bias_filler {
      type: "constant"
      value: 0.2
    }
  }
}
layer {
  name: "conv2/3x3_reduce_BatchNorm"
  type: "BatchNorm"
  bottom: "conv2/3x3_reduce_raw"
  top: "conv2/3x3_reduce"
  param {
    lr_mult: 1
    decay_mult: 0
  }
  param {
    lr_mult: 1
    decay_mult: 0
  }
  param {
    lr_mult: 0
    decay_mult: 0
  }
  param {
    lr_mult: 0
    decay_mult: 0
  }
  batch_norm_param {
    use_global_stats: false
    eps: 1e-05
    scale_filler {
      type: "constant"
      value: 1
    }
    bias_filler {
      type: "constant"
      value: 0
    }
  }
}
layer {
  name: "conv2/relu_3x3_reduce"
  type: "ReLU"
  bottom: "conv2/3x3_reduce"
  top: "conv2/3x3_reduce"
}
layer {
  name: "conv2/3x3"
  type: "Convolution"
  bottom: "conv2/3x3_reduce"
  top: "conv2/3x3_raw"
  param {
    lr_mult: 1
    decay_mult: 1
  }
  convolution_param {
    num_output: 192
    pad: 1
    kernel_size: 3
    weight_filler {
      type: "msra"
    }
    bias_filler {
      type: "constant"
      value: 0.2
    }
  }
}
layer {
  name: "conv2/3x3_BatchNorm"
  type: "BatchNorm"
  bottom: "conv2/3x3_raw"
  top: "conv2/3x3"
  param {
    lr_mult: 1
    decay_mult: 0
  }
  param {
    lr_mult: 1
    decay_mult: 0
  }
  param {
    lr_mult: 0
    decay_mult: 0
  }
  param {
    lr_mult: 0
    decay_mult: 0
  }
  batch_norm_param {
    use_global_stats: false
    eps: 1e-05
    scale_filler {
      type: "constant"
      value: 1
    }
    bias_filler {
      type: "constant"
      value: 0
    }
  }
}
layer {
  name: "conv2/relu_3x3"
  type: "ReLU"
  bottom: "conv2/3x3"
  top: "conv2/3x3"
}
layer {
  name: "pool2/3x3_s2"
  type: "Pooling"
  bottom: "conv2/3x3"
  top: "pool2/3x3_s2"
  pooling_param {
    pool: MAX
    kernel_size: 3
    stride: 2
  }
}
layer {
  name: "inception_3a/1x1"
  type: "Convolution"
  bottom: "pool2/3x3_s2"
  top: "inception_3a/1x1_raw"
  param {
    lr_mult: 1
    decay_mult: 1
  }
  convolution_param {
    num_output: 64
    kernel_size: 1
    weight_filler {
      type: "msra"
    }
    bias_filler {
      type: "constant"
      value: 0.2
    }
  }
}
layer {
  name: "inception_3a/1x1_BatchNorm"
  type: "BatchNorm"
  bottom: "inception_3a/1x1_raw"
  top: "inception_3a/1x1"
  param {
    lr_mult: 1
    decay_mult: 0
  }
  param {
    lr_mult: 1
    decay_mult: 0
  }
  param {
    lr_mult: 0
    decay_mult: 0
  }
  param {
    lr_mult: 0
    decay_mult: 0
  }
  batch_norm_param {
    use_global_stats: false
    eps: 1e-05
    scale_filler {
      type: "constant"
      value: 1
    }
    bias_filler {
      type: "constant"
      value: 0
    }
  }
}
layer {
  name: "inception_3a/relu_1x1"
  type: "ReLU"
  bottom: "inception_3a/1x1"
  top: "inception_3a/1x1"
}
layer {
  name: "inception_3a/3x3_reduce"
  type: "Convolution"
  bottom: "pool2/3x3_s2"
  top: "inception_3a/3x3_reduce_raw"
  param {
    lr_mult: 1
    decay_mult: 1
  }
  convolution_param {
    num_output: 96
    kernel_size: 1
    weight_filler {
      type: "msra"
    }
    bias_filler {
      type: "constant"
      value: 0.2
    }
  }
}
layer {
  name: "inception_3a/3x3_reduce_BatchNorm"
  type: "BatchNorm"
  bottom: "inception_3a/3x3_reduce_raw"
  top: "inception_3a/3x3_reduce"
  param {
    lr_mult: 1
    decay_mult: 0
  }
  param {
    lr_mult: 1
    decay_mult: 0
  }
  param {
    lr_mult: 0
    decay_mult: 0
  }
  param {
    lr_mult: 0
    decay_mult: 0
  }
  batch_norm_param {
    use_global_stats: false
    eps: 1e-05
    scale_filler {
      type: "constant"
      value: 1
    }
    bias_filler {
      type: "constant"
      value: 0
    }
  }
}
layer {
  name: "inception_3a/relu_3x3_reduce"
  type: "ReLU"
  bottom: "inception_3a/3x3_reduce"
  top: "inception_3a/3x3_reduce"
}
layer {
  name: "inception_3a/3x3"
  type: "Convolution"
  bottom: "inception_3a/3x3_reduce"
  top: "inception_3a/3x3_raw"
  param {
    lr_mult: 1
    decay_mult: 1
  }
  convolution_param {
    num_output: 128
    pad: 1
    kernel_size: 3
    weight_filler {
      type: "msra"
    }
    bias_filler {
      type: "constant"
      value: 0.2
    }
  }
}
layer {
  name: "inception_3a/3x3_BatchNorm"
  type: "BatchNorm"
  bottom: "inception_3a/3x3_raw"
  top: "inception_3a/3x3"
  param {
    lr_mult: 1
    decay_mult: 0
  }
  param {
    lr_mult: 1
    decay_mult: 0
  }
  param {
    lr_mult: 0
    decay_mult: 0
  }
  param {
    lr_mult: 0
    decay_mult: 0
  }
  batch_norm_param {
    use_global_stats: false
    eps: 1e-05
    scale_filler {
      type: "constant"
      value: 1
    }
    bias_filler {
      type: "constant"
      value: 0
    }
  }
}
layer {
  name: "inception_3a/relu_3x3"
  type: "ReLU"
  bottom: "inception_3a/3x3"
  top: "inception_3a/3x3"
}
layer {
  name: "inception_3a/5x5_reduce"
  type: "Convolution"
  bottom: "pool2/3x3_s2"
  top: "inception_3a/5x5_reduce_raw"
  param {
    lr_mult: 1
    decay_mult: 1
  }
  convolution_param {
    num_output: 16
    kernel_size: 1
    weight_filler {
      type: "msra"
    }
    bias_filler {
      type: "constant"
      value: 0.2
    }
  }
}
layer {
  name: "inception_3a/5x5_reduce_BatchNorm"
  type: "BatchNorm"
  bottom: "inception_3a/5x5_reduce_raw"
  top: "inception_3a/5x5_reduce"
  param {
    lr_mult: 1
    decay_mult: 0
  }
  param {
    lr_mult: 1
    decay_mult: 0
  }
  param {
    lr_mult: 0
    decay_mult: 0
  }
  param {
    lr_mult: 0
    decay_mult: 0
  }
  batch_norm_param {
    use_global_stats: false
    eps: 1e-05
    scale_filler {
      type: "constant"
      value: 1
    }
    bias_filler {
      type: "constant"
      value: 0
    }
  }
}
layer {
  name: "inception_3a/relu_5x5_reduce"
  type: "ReLU"
  bottom: "inception_3a/5x5_reduce"
  top: "inception_3a/5x5_reduce"
}
layer {
  name: "inception_3a/5x5"
  type: "Convolution"
  bottom: "inception_3a/5x5_reduce"
  top: "inception_3a/5x5_raw"
  param {
    lr_mult: 1
    decay_mult: 1
  }
  convolution_param {
    num_output: 32
    pad: 2
    kernel_size: 5
    weight_filler {
      type: "msra"
    }
    bias_filler {
      type: "constant"
      value: 0.2
    }
  }
}
layer {
  name: "inception_3a/5x5_BatchNorm"
  type: "BatchNorm"
  bottom: "inception_3a/5x5_raw"
  top: "inception_3a/5x5"
  param {
    lr_mult: 1
    decay_mult: 0
  }
  param {
    lr_mult: 1
    decay_mult: 0
  }
  param {
    lr_mult: 0
    decay_mult: 0
  }
  param {
    lr_mult: 0
    decay_mult: 0
  }
  batch_norm_param {
    use_global_stats: false
    eps: 1e-05
    scale_filler {
      type: "constant"
      value: 1
    }
    bias_filler {
      type: "constant"
      value: 0
    }
  }
}
layer {
  name: "inception_3a/relu_5x5"
  type: "ReLU"
  bottom: "inception_3a/5x5"
  top: "inception_3a/5x5"
}
layer {
  name: "inception_3a/pool"
  type: "Pooling"
  bottom: "pool2/3x3_s2"
  top: "inception_3a/pool"
  pooling_param {
    pool: MAX
    kernel_size: 3
    stride: 1
    pad: 1
  }
}
layer {
  name: "inception_3a/pool_proj"
  type: "Convolution"
  bottom: "inception_3a/pool"
  top: "inception_3a/pool_proj_raw"
  param {
    lr_mult: 1
    decay_mult: 1
  }
  convolution_param {
    num_output: 32
    kernel_size: 1
    weight_filler {
      type: "msra"
    }
    bias_filler {
      type: "constant"
      value: 0.2
    }
  }
}
layer {
  name: "inception_3a/pool_proj_BatchNorm"
  type: "BatchNorm"
  bottom: "inception_3a/pool_proj_raw"
  top: "inception_3a/pool_proj"
  param {
    lr_mult: 1
    decay_mult: 0
  }
  param {
    lr_mult: 1
    decay_mult: 0
  }
  param {
    lr_mult: 0
    decay_mult: 0
  }
  param {
    lr_mult: 0
    decay_mult: 0
  }
  batch_norm_param {
    use_global_stats: false
    eps: 1e-05
    scale_filler {
      type: "constant"
      value: 1
    }
    bias_filler {
      type: "constant"
      value: 0
    }
  }
}
layer {
  name: "inception_3a/relu_pool_proj"
  type: "ReLU"
  bottom: "inception_3a/pool_proj"
  top: "inception_3a/pool_proj"
}
layer {
  name: "inception_3a/output"
  type: "Concat"
  bottom: "inception_3a/1x1"
  bottom: "inception_3a/3x3"
  bottom: "inception_3a/5x5"
  bottom: "inception_3a/pool_proj"
  top: "inception_3a/output"
}
layer {
  name: "inception_3b/1x1"
  type: "Convolution"
  bottom: "inception_3a/output"
  top: "inception_3b/1x1_raw"
  param {
    lr_mult: 1
    decay_mult: 1
  }
  convolution_param {
    num_output: 128
    kernel_size: 1
    weight_filler {
      type: "msra"
    }
    bias_filler {
      type: "constant"
      value: 0.2
    }
  }
}
layer {
  name: "inception_3b/1x1_BatchNorm"
  type: "BatchNorm"
  bottom: "inception_3b/1x1_raw"
  top: "inception_3b/1x1"
  param {
    lr_mult: 1
    decay_mult: 0
  }
  param {
    lr_mult: 1
    decay_mult: 0
  }
  param {
    lr_mult: 0
    decay_mult: 0
  }
  param {
    lr_mult: 0
    decay_mult: 0
  }
  batch_norm_param {
    use_global_stats: false
    eps: 1e-05
    scale_filler {
      type: "constant"
      value: 1
    }
    bias_filler {
      type: "constant"
      value: 0
    }
  }
}
layer {
  name: "inception_3b/relu_1x1"
  type: "ReLU"
  bottom: "inception_3b/1x1"
  top: "inception_3b/1x1"
}
layer {
  name: "inception_3b/3x3_reduce"
  type: "Convolution"
  bottom: "inception_3a/output"
  top: "inception_3b/3x3_reduce_raw"
  param {
    lr_mult: 1
    decay_mult: 1
  }
  convolution_param {
    num_output: 128
    kernel_size: 1
    weight_filler {
      type: "msra"
    }
    bias_filler {
      type: "constant"
      value: 0.2
    }
  }
}
layer {
  name: "inception_3b/3x3_reduce_BatchNorm"
  type: "BatchNorm"
  bottom: "inception_3b/3x3_reduce_raw"
  top: "inception_3b/3x3_reduce"
  param {
    lr_mult: 1
    decay_mult: 0
  }
  param {
    lr_mult: 1
    decay_mult: 0
  }
  param {
    lr_mult: 0
    decay_mult: 0
  }
  param {
    lr_mult: 0
    decay_mult: 0
  }
  batch_norm_param {
    use_global_stats: false
    eps: 1e-05
    scale_filler {
      type: "constant"
      value: 1
    }
    bias_filler {
      type: "constant"
      value: 0
    }
  }
}
layer {
  name: "inception_3b/relu_3x3_reduce"
  type: "ReLU"
  bottom: "inception_3b/3x3_reduce"
  top: "inception_3b/3x3_reduce"
}
layer {
  name: "inception_3b/3x3"
  type: "Convolution"
  bottom: "inception_3b/3x3_reduce"
  top: "inception_3b/3x3_raw"
  param {
    lr_mult: 1
    decay_mult: 1
  }
  convolution_param {
    num_output: 192
    pad: 1
    kernel_size: 3
    weight_filler {
      type: "msra"
    }
    bias_filler {
      type: "constant"
      value: 0.2
    }
  }
}
layer {
  name: "inception_3b/3x3_BatchNorm"
  type: "BatchNorm"
  bottom: "inception_3b/3x3_raw"
  top: "inception_3b/3x3"
  param {
    lr_mult: 1
    decay_mult: 0
  }
  param {
    lr_mult: 1
    decay_mult: 0
  }
  param {
    lr_mult: 0
    decay_mult: 0
  }
  param {
    lr_mult: 0
    decay_mult: 0
  }
  batch_norm_param {
    use_global_stats: false
    eps: 1e-05
    scale_filler {
      type: "constant"
      value: 1
    }
    bias_filler {
      type: "constant"
      value: 0
    }
  }
}
layer {
  name: "inception_3b/relu_3x3"
  type: "ReLU"
  bottom: "inception_3b/3x3"
  top: "inception_3b/3x3"
}
layer {
  name: "inception_3b/5x5_reduce"
  type: "Convolution"
  bottom: "inception_3a/output"
  top: "inception_3b/5x5_reduce_raw"
  param {
    lr_mult: 1
    decay_mult: 1
  }
  convolution_param {
    num_output: 32
    kernel_size: 1
    weight_filler {
      type: "msra"
    }
    bias_filler {
      type: "constant"
      value: 0.2
    }
  }
}
layer {
  name: "inception_3b/5x5_reduce_BatchNorm"
  type: "BatchNorm"
  bottom: "inception_3b/5x5_reduce_raw"
  top: "inception_3b/5x5_reduce"
  param {
    lr_mult: 1
    decay_mult: 0
  }
  param {
    lr_mult: 1
    decay_mult: 0
  }
  param {
    lr_mult: 0
    decay_mult: 0
  }
  param {
    lr_mult: 0
    decay_mult: 0
  }
  batch_norm_param {
    use_global_stats: false
    eps: 1e-05
    scale_filler {
      type: "constant"
      value: 1
    }
    bias_filler {
      type: "constant"
      value: 0
    }
  }
}
layer {
  name: "inception_3b/relu_5x5_reduce"
  type: "ReLU"
  bottom: "inception_3b/5x5_reduce"
  top: "inception_3b/5x5_reduce"
}
layer {
  name: "inception_3b/5x5"
  type: "Convolution"
  bottom: "inception_3b/5x5_reduce"
  top: "inception_3b/5x5_raw"
  param {
    lr_mult: 1
    decay_mult: 1
  }
  convolution_param {
    num_output: 96
    pad: 2
    kernel_size: 5
    weight_filler {
      type: "msra"
    }
    bias_filler {
      type: "constant"
      value: 0.2
    }
  }
}
layer {
  name: "inception_3b/5x5_BatchNorm"
  type: "BatchNorm"
  bottom: "inception_3b/5x5_raw"
  top: "inception_3b/5x5"
  param {
    lr_mult: 1
    decay_mult: 0
  }
  param {
    lr_mult: 1
    decay_mult: 0
  }
  param {
    lr_mult: 0
    decay_mult: 0
  }
  param {
    lr_mult: 0
    decay_mult: 0
  }
  batch_norm_param {
    use_global_stats: false
    eps: 1e-05
    scale_filler {
      type: "constant"
      value: 1
    }
    bias_filler {
      type: "constant"
      value: 0
    }
  }
}
layer {
  name: "inception_3b/relu_5x5"
  type: "ReLU"
  bottom: "inception_3b/5x5"
  top: "inception_3b/5x5"
}
layer {
  name: "inception_3b/pool"
  type: "Pooling"
  bottom: "inception_3a/output"
  top: "inception_3b/pool"
  pooling_param {
    pool: MAX
    kernel_size: 3
    stride: 1
    pad: 1
  }
}
layer {
  name: "inception_3b/pool_proj"
  type: "Convolution"
  bottom: "inception_3b/pool"
  top: "inception_3b/pool_proj_raw"
  param {
    lr_mult: 1
    decay_mult: 1
  }
  convolution_param {
    num_output: 64
    kernel_size: 1
    weight_filler {
      type: "msra"
    }
    bias_filler {
      type: "constant"
      value: 0.2
    }
  }
}
layer {
  name: "inception_3b/pool_proj_BatchNorm"
  type: "BatchNorm"
  bottom: "inception_3b/pool_proj_raw"
  top: "inception_3b/pool_proj"
  param {
    lr_mult: 1
    decay_mult: 0
  }
  param {
    lr_mult: 1
    decay_mult: 0
  }
  param {
    lr_mult: 0
    decay_mult: 0
  }
  param {
    lr_mult: 0
    decay_mult: 0
  }
  batch_norm_param {
    use_global_stats: false
    eps: 1e-05
    scale_filler {
      type: "constant"
      value: 1
    }
    bias_filler {
      type: "constant"
      value: 0
    }
  }
}
layer {
  name: "inception_3b/relu_pool_proj"
  type: "ReLU"
  bottom: "inception_3b/pool_proj"
  top: "inception_3b/pool_proj"
}
layer {
  name: "inception_3b/output"
  type: "Concat"
  bottom: "inception_3b/1x1"
  bottom: "inception_3b/3x3"
  bottom: "inception_3b/5x5"
  bottom: "inception_3b/pool_proj"
  top: "inception_3b/output"
}
layer {
  name: "pool3/3x3_s2"
  type: "Pooling"
  bottom: "inception_3b/output"
  top: "pool3/3x3_s2"
  pooling_param {
    pool: MAX
    kernel_size: 3
    stride: 2
  }
}
layer {
  name: "inception_4a/1x1"
  type: "Convolution"
  bottom: "pool3/3x3_s2"
  top: "inception_4a/1x1_raw"
  param {
    lr_mult: 1
    decay_mult: 1
  }
  convolution_param {
    num_output: 192
    kernel_size: 1
    weight_filler {
      type: "msra"
    }
    bias_filler {
      type: "constant"
      value: 0.2
    }
  }
}
layer {
  name: "inception_4a/1x1_BatchNorm"
  type: "BatchNorm"
  bottom: "inception_4a/1x1_raw"
  top: "inception_4a/1x1"
  param {
    lr_mult: 1
    decay_mult: 0
  }
  param {
    lr_mult: 1
    decay_mult: 0
  }
  param {
    lr_mult: 0
    decay_mult: 0
  }
  param {
    lr_mult: 0
    decay_mult: 0
  }
  batch_norm_param {
    use_global_stats: false
    eps: 1e-05
    scale_filler {
      type: "constant"
      value: 1
    }
    bias_filler {
      type: "constant"
      value: 0
    }
  }
}
layer {
  name: "inception_4a/relu_1x1"
  type: "ReLU"
  bottom: "inception_4a/1x1"
  top: "inception_4a/1x1"
}
layer {
  name: "inception_4a/3x3_reduce"
  type: "Convolution"
  bottom: "pool3/3x3_s2"
  top: "inception_4a/3x3_reduce_raw"
  param {
    lr_mult: 1
    decay_mult: 1
  }
  convolution_param {
    num_output: 96
    kernel_size: 1
    weight_filler {
      type: "msra"
    }
    bias_filler {
      type: "constant"
      value: 0.2
    }
  }
}
layer {
  name: "inception_4a/3x3_reduce_BatchNorm"
  type: "BatchNorm"
  bottom: "inception_4a/3x3_reduce_raw"
  top: "inception_4a/3x3_reduce"
  param {
    lr_mult: 1
    decay_mult: 0
  }
  param {
    lr_mult: 1
    decay_mult: 0
  }
  param {
    lr_mult: 0
    decay_mult: 0
  }
  param {
    lr_mult: 0
    decay_mult: 0
  }
  batch_norm_param {
    use_global_stats: false
    eps: 1e-05
    scale_filler {
      type: "constant"
      value: 1
    }
    bias_filler {
      type: "constant"
      value: 0
    }
  }
}
layer {
  name: "inception_4a/relu_3x3_reduce"
  type: "ReLU"
  bottom: "inception_4a/3x3_reduce"
  top: "inception_4a/3x3_reduce"
}
layer {
  name: "inception_4a/3x3"
  type: "Convolution"
  bottom: "inception_4a/3x3_reduce"
  top: "inception_4a/3x3_raw"
  param {
    lr_mult: 1
    decay_mult: 1
  }
  convolution_param {
    num_output: 208
    pad: 1
    kernel_size: 3
    weight_filler {
      type: "msra"
    }
    bias_filler {
      type: "constant"
      value: 0.2
    }
  }
}
layer {
  name: "inception_4a/3x3_BatchNorm"
  type: "BatchNorm"
  bottom: "inception_4a/3x3_raw"
  top: "inception_4a/3x3"
  param {
    lr_mult: 1
    decay_mult: 0
  }
  param {
    lr_mult: 1
    decay_mult: 0
  }
  param {
    lr_mult: 0
    decay_mult: 0
  }
  param {
    lr_mult: 0
    decay_mult: 0
  }
  batch_norm_param {
    use_global_stats: false
    eps: 1e-05
    scale_filler {
      type: "constant"
      value: 1
    }
    bias_filler {
      type: "constant"
      value: 0
    }
  }
}
layer {
  name: "inception_4a/relu_3x3"
  type: "ReLU"
  bottom: "inception_4a/3x3"
  top: "inception_4a/3x3"
}
layer {
  name: "inception_4a/5x5_reduce"
  type: "Convolution"
  bottom: "pool3/3x3_s2"
  top: "inception_4a/5x5_reduce_raw"
  param {
    lr_mult: 1
    decay_mult: 1
  }
  convolution_param {
    num_output: 16
    kernel_size: 1
    weight_filler {
      type: "msra"
    }
    bias_filler {
      type: "constant"
      value: 0.2
    }
  }
}
layer {
  name: "inception_4a/5x5_reduce_BatchNorm"
  type: "BatchNorm"
  bottom: "inception_4a/5x5_reduce_raw"
  top: "inception_4a/5x5_reduce"
  param {
    lr_mult: 1
    decay_mult: 0
  }
  param {
    lr_mult: 1
    decay_mult: 0
  }
  param {
    lr_mult: 0
    decay_mult: 0
  }
  param {
    lr_mult: 0
    decay_mult: 0
  }
  batch_norm_param {
    use_global_stats: false
    eps: 1e-05
    scale_filler {
      type: "constant"
      value: 1
    }
    bias_filler {
      type: "constant"
      value: 0
    }
  }
}
layer {
  name: "inception_4a/relu_5x5_reduce"
  type: "ReLU"
  bottom: "inception_4a/5x5_reduce"
  top: "inception_4a/5x5_reduce"
}
layer {
  name: "inception_4a/5x5"
  type: "Convolution"
  bottom: "inception_4a/5x5_reduce"
  top: "inception_4a/5x5_raw"
  param {
    lr_mult: 1
    decay_mult: 1
  }
  convolution_param {
    num_output: 48
    pad: 2
    kernel_size: 5
    weight_filler {
      type: "msra"
    }
    bias_filler {
      type: "constant"
      value: 0.2
    }
  }
}
layer {
  name: "inception_4a/5x5_BatchNorm"
  type: "BatchNorm"
  bottom: "inception_4a/5x5_raw"
  top: "inception_4a/5x5"
  param {
    lr_mult: 1
    decay_mult: 0
  }
  param {
    lr_mult: 1
    decay_mult: 0
  }
  param {
    lr_mult: 0
    decay_mult: 0
  }
  param {
    lr_mult: 0
    decay_mult: 0
  }
  batch_norm_param {
    use_global_stats: false
    eps: 1e-05
    scale_filler {
      type: "constant"
      value: 1
    }
    bias_filler {
      type: "constant"
      value: 0
    }
  }
}
layer {
  name: "inception_4a/relu_5x5"
  type: "ReLU"
  bottom: "inception_4a/5x5"
  top: "inception_4a/5x5"
}
layer {
  name: "inception_4a/pool"
  type: "Pooling"
  bottom: "pool3/3x3_s2"
  top: "inception_4a/pool"
  pooling_param {
    pool: MAX
    kernel_size: 3
    stride: 1
    pad: 1
  }
}
layer {
  name: "inception_4a/pool_proj"
  type: "Convolution"
  bottom: "inception_4a/pool"
  top: "inception_4a/pool_proj_raw"
  param {
    lr_mult: 1
    decay_mult: 1
  }
  convolution_param {
    num_output: 64
    kernel_size: 1
    weight_filler {
      type: "msra"
    }
    bias_filler {
      type: "constant"
      value: 0.2
    }
  }
}
layer {
  name: "inception_4a/pool_proj_BatchNorm"
  type: "BatchNorm"
  bottom: "inception_4a/pool_proj_raw"
  top: "inception_4a/pool_proj"
  param {
    lr_mult: 1
    decay_mult: 0
  }
  param {
    lr_mult: 1
    decay_mult: 0
  }
  param {
    lr_mult: 0
    decay_mult: 0
  }
  param {
    lr_mult: 0
    decay_mult: 0
  }
  batch_norm_param {
    use_global_stats: false
    eps: 1e-05
    scale_filler {
      type: "constant"
      value: 1
    }
    bias_filler {
      type: "constant"
      value: 0
    }
  }
}
layer {
  name: "inception_4a/relu_pool_proj"
  type: "ReLU"
  bottom: "inception_4a/pool_proj"
  top: "inception_4a/pool_proj"
}
layer {
  name: "inception_4a/output"
  type: "Concat"
  bottom: "inception_4a/1x1"
  bottom: "inception_4a/3x3"
  bottom: "inception_4a/5x5"
  bottom: "inception_4a/pool_proj"
  top: "inception_4a/output"
}
layer {
  name: "inception_4b/1x1"
  type: "Convolution"
  bottom: "inception_4a/output"
  top: "inception_4b/1x1_raw"
  param {
    lr_mult: 1
    decay_mult: 1
  }
  convolution_param {
    num_output: 160
    kernel_size: 1
    weight_filler {
      type: "msra"
    }
    bias_filler {
      type: "constant"
      value: 0.2
    }
  }
}
layer {
  name: "inception_4b/1x1_BatchNorm"
  type: "BatchNorm"
  bottom: "inception_4b/1x1_raw"
  top: "inception_4b/1x1"
  param {
    lr_mult: 1
    decay_mult: 0
  }
  param {
    lr_mult: 1
    decay_mult: 0
  }
  param {
    lr_mult: 0
    decay_mult: 0
  }
  param {
    lr_mult: 0
    decay_mult: 0
  }
  batch_norm_param {
    use_global_stats: false
    eps: 1e-05
    scale_filler {
      type: "constant"
      value: 1
    }
    bias_filler {
      type: "constant"
      value: 0
    }
  }
}
layer {
  name: "inception_4b/relu_1x1"
  type: "ReLU"
  bottom: "inception_4b/1x1"
  top: "inception_4b/1x1"
}
layer {
  name: "inception_4b/3x3_reduce"
  type: "Convolution"
  bottom: "inception_4a/output"
  top: "inception_4b/3x3_reduce_raw"
  param {
    lr_mult: 1
    decay_mult: 1
  }
  convolution_param {
    num_output: 112
    kernel_size: 1
    weight_filler {
      type: "msra"
    }
    bias_filler {
      type: "constant"
      value: 0.2
    }
  }
}
layer {
  name: "inception_4b/3x3_reduce_BatchNorm"
  type: "BatchNorm"
  bottom: "inception_4b/3x3_reduce_raw"
  top: "inception_4b/3x3_reduce"
  param {
    lr_mult: 1
    decay_mult: 0
  }
  param {
    lr_mult: 1
    decay_mult: 0
  }
  param {
    lr_mult: 0
    decay_mult: 0
  }
  param {
    lr_mult: 0
    decay_mult: 0
  }
  batch_norm_param {
    use_global_stats: false
    eps: 1e-05
    scale_filler {
      type: "constant"
      value: 1
    }
    bias_filler {
      type: "constant"
      value: 0
    }
  }
}
layer {
  name: "inception_4b/relu_3x3_reduce"
  type: "ReLU"
  bottom: "inception_4b/3x3_reduce"
  top: "inception_4b/3x3_reduce"
}
layer {
  name: "inception_4b/3x3"
  type: "Convolution"
  bottom: "inception_4b/3x3_reduce"
  top: "inception_4b/3x3_raw"
  param {
    lr_mult: 1
    decay_mult: 1
  }
  convolution_param {
    num_output: 224
    pad: 1
    kernel_size: 3
    weight_filler {
      type: "msra"
    }
    bias_filler {
      type: "constant"
      value: 0.2
    }
  }
}
layer {
  name: "inception_4b/3x3_BatchNorm"
  type: "BatchNorm"
  bottom: "inception_4b/3x3_raw"
  top: "inception_4b/3x3"
  param {
    lr_mult: 1
    decay_mult: 0
  }
  param {
    lr_mult: 1
    decay_mult: 0
  }
  param {
    lr_mult: 0
    decay_mult: 0
  }
  param {
    lr_mult: 0
    decay_mult: 0
  }
  batch_norm_param {
    use_global_stats: false
    eps: 1e-05
    scale_filler {
      type: "constant"
      value: 1
    }
    bias_filler {
      type: "constant"
      value: 0
    }
  }
}
layer {
  name: "inception_4b/relu_3x3"
  type: "ReLU"
  bottom: "inception_4b/3x3"
  top: "inception_4b/3x3"
}
layer {
  name: "inception_4b/5x5_reduce"
  type: "Convolution"
  bottom: "inception_4a/output"
  top: "inception_4b/5x5_reduce_raw"
  param {
    lr_mult: 1
    decay_mult: 1
  }
  convolution_param {
    num_output: 24
    kernel_size: 1
    weight_filler {
      type: "msra"
    }
    bias_filler {
      type: "constant"
      value: 0.2
    }
  }
}
layer {
  name: "inception_4b/5x5_reduce_BatchNorm"
  type: "BatchNorm"
  bottom: "inception_4b/5x5_reduce_raw"
  top: "inception_4b/5x5_reduce"
  param {
    lr_mult: 1
    decay_mult: 0
  }
  param {
    lr_mult: 1
    decay_mult: 0
  }
  param {
    lr_mult: 0
    decay_mult: 0
  }
  param {
    lr_mult: 0
    decay_mult: 0
  }
  batch_norm_param {
    use_global_stats: false
    eps: 1e-05
    scale_filler {
      type: "constant"
      value: 1
    }
    bias_filler {
      type: "constant"
      value: 0
    }
  }
}
layer {
  name: "inception_4b/relu_5x5_reduce"
  type: "ReLU"
  bottom: "inception_4b/5x5_reduce"
  top: "inception_4b/5x5_reduce"
}
layer {
  name: "inception_4b/5x5"
  type: "Convolution"
  bottom: "inception_4b/5x5_reduce"
  top: "inception_4b/5x5_raw"
  param {
    lr_mult: 1
    decay_mult: 1
  }
  convolution_param {
    num_output: 64
    pad: 2
    kernel_size: 5
    weight_filler {
      type: "msra"
    }
    bias_filler {
      type: "constant"
      value: 0.2
    }
  }
}
layer {
  name: "inception_4b/5x5_BatchNorm"
  type: "BatchNorm"
  bottom: "inception_4b/5x5_raw"
  top: "inception_4b/5x5"
  param {
    lr_mult: 1
    decay_mult: 0
  }
  param {
    lr_mult: 1
    decay_mult: 0
  }
  param {
    lr_mult: 0
    decay_mult: 0
  }
  param {
    lr_mult: 0
    decay_mult: 0
  }
  batch_norm_param {
    use_global_stats: false
    eps: 1e-05
    scale_filler {
      type: "constant"
      value: 1
    }
    bias_filler {
      type: "constant"
      value: 0
    }
  }
}
layer {
  name: "inception_4b/relu_5x5"
  type: "ReLU"
  bottom: "inception_4b/5x5"
  top: "inception_4b/5x5"
}
layer {
  name: "inception_4b/pool"
  type: "Pooling"
  bottom: "inception_4a/output"
  top: "inception_4b/pool"
  pooling_param {
    pool: MAX
    kernel_size: 3
    stride: 1
    pad: 1
  }
}
layer {
  name: "inception_4b/pool_proj"
  type: "Convolution"
  bottom: "inception_4b/pool"
  top: "inception_4b/pool_proj_raw"
  param {
    lr_mult: 1
    decay_mult: 1
  }
  convolution_param {
    num_output: 64
    kernel_size: 1
    weight_filler {
      type: "msra"
    }
    bias_filler {
      type: "constant"
      value: 0.2
    }
  }
}
layer {
  name: "inception_4b/pool_proj_BatchNorm"
  type: "BatchNorm"
  bottom: "inception_4b/pool_proj_raw"
  top: "inception_4b/pool_proj"
  param {
    lr_mult: 1
    decay_mult: 0
  }
  param {
    lr_mult: 1
    decay_mult: 0
  }
  param {
    lr_mult: 0
    decay_mult: 0
  }
  param {
    lr_mult: 0
    decay_mult: 0
  }
  batch_norm_param {
    use_global_stats: false
    eps: 1e-05
    scale_filler {
      type: "constant"
      value: 1
    }
    bias_filler {
      type: "constant"
      value: 0
    }
  }
}
layer {
  name: "inception_4b/relu_pool_proj"
  type: "ReLU"
  bottom: "inception_4b/pool_proj"
  top: "inception_4b/pool_proj"
}
layer {
  name: "inception_4b/output"
  type: "Concat"
  bottom: "inception_4b/1x1"
  bottom: "inception_4b/3x3"
  bottom: "inception_4b/5x5"
  bottom: "inception_4b/pool_proj"
  top: "inception_4b/output"
}
layer {
  name: "inception_4c/1x1"
  type: "Convolution"
  bottom: "inception_4b/output"
  top: "inception_4c/1x1_raw"
  param {
    lr_mult: 1
    decay_mult: 1
  }
  convolution_param {
    num_output: 128
    kernel_size: 1
    weight_filler {
      type: "msra"
    }
    bias_filler {
      type: "constant"
      value: 0.2
    }
  }
}
layer {
  name: "inception_4c/1x1_BatchNorm"
  type: "BatchNorm"
  bottom: "inception_4c/1x1_raw"
  top: "inception_4c/1x1"
  param {
    lr_mult: 1
    decay_mult: 0
  }
  param {
    lr_mult: 1
    decay_mult: 0
  }
  param {
    lr_mult: 0
    decay_mult: 0
  }
  param {
    lr_mult: 0
    decay_mult: 0
  }
  batch_norm_param {
    use_global_stats: false
    eps: 1e-05
    scale_filler 
I0224 07:26:58.498592   180 layer_factory.hpp:123] Creating layer data
I0224 07:26:58.498620   180 net.cpp:140] Creating Layer data
I0224 07:26:58.498625   180 net.cpp:455] data -> data
I0224 07:26:58.498636   180 net.cpp:455] data -> label
I0224 07:26:58.498646   180 image_seg_data_layer.cpp:46] Opening file ../data/val_img_seg_nomap.txt
I0224 07:26:58.499197   180 image_seg_data_layer.cpp:68] A total of 500 images.
I0224 07:26:58.561162   180 image_seg_data_layer.cpp:97] output data size: 1,3,1024,2048
I0224 07:26:58.691501   180 internal_thread.cpp:73] Starting internal thread(s) on GPU 0
I0224 07:26:58.691707   180 net.cpp:190] Setting up data
I0224 07:26:58.691720   180 net.cpp:197] Top shape: 1 3 1024 2048 (6291456)
I0224 07:26:58.691732   180 net.cpp:197] Top shape: 1 1 1024 2048 (2097152)
I0224 07:26:58.691736   180 net.cpp:205] Memory required for data: 33554432
I0224 07:26:58.691741   180 layer_factory.hpp:123] Creating layer resize_down
I0224 07:26:58.691758   180 net.cpp:140] Creating Layer resize_down
I0224 07:26:58.691763   180 net.cpp:481] resize_down <- data
I0224 07:26:58.691771   180 net.cpp:442] resize_down -> data (in-place)
I0224 07:26:58.691782   180 net.cpp:190] Setting up resize_down
I0224 07:26:58.691785   180 net.cpp:197] Top shape: 1 3 512 1024 (1572864)
I0224 07:26:58.691789   180 net.cpp:205] Memory required for data: 39845888
I0224 07:26:58.691793   180 layer_factory.hpp:123] Creating layer conv1/7x7_s2
I0224 07:26:58.691810   180 net.cpp:140] Creating Layer conv1/7x7_s2
I0224 07:26:58.691813   180 net.cpp:481] conv1/7x7_s2 <- data
I0224 07:26:58.691818   180 net.cpp:455] conv1/7x7_s2 -> conv1/7x7_s2_raw
I0224 07:26:58.692333   180 net.cpp:190] Setting up conv1/7x7_s2
I0224 07:26:58.692342   180 net.cpp:197] Top shape: 1 64 256 512 (8388608)
I0224 07:26:58.692348   180 net.cpp:205] Memory required for data: 73400320
I0224 07:26:58.692371   180 layer_factory.hpp:123] Creating layer conv1/7x7_s2_BatchNorm
I0224 07:26:58.692380   180 net.cpp:140] Creating Layer conv1/7x7_s2_BatchNorm
I0224 07:26:58.692384   180 net.cpp:481] conv1/7x7_s2_BatchNorm <- conv1/7x7_s2_raw
I0224 07:26:58.692390   180 net.cpp:455] conv1/7x7_s2_BatchNorm -> conv1/7x7_s2
I0224 07:26:58.692981   180 net.cpp:190] Setting up conv1/7x7_s2_BatchNorm
I0224 07:26:58.692991   180 net.cpp:197] Top shape: 1 64 256 512 (8388608)
I0224 07:26:58.692998   180 net.cpp:205] Memory required for data: 106954752
I0224 07:26:58.693008   180 layer_factory.hpp:123] Creating layer conv1/relu_7x7
I0224 07:26:58.693015   180 net.cpp:140] Creating Layer conv1/relu_7x7
I0224 07:26:58.693018   180 net.cpp:481] conv1/relu_7x7 <- conv1/7x7_s2
I0224 07:26:58.693023   180 net.cpp:442] conv1/relu_7x7 -> conv1/7x7_s2 (in-place)
I0224 07:26:58.693033   180 net.cpp:190] Setting up conv1/relu_7x7
I0224 07:26:58.693037   180 net.cpp:197] Top shape: 1 64 256 512 (8388608)
I0224 07:26:58.693040   180 net.cpp:205] Memory required for data: 140509184
I0224 07:26:58.693043   180 layer_factory.hpp:123] Creating layer pool1/3x3_s2
I0224 07:26:58.693049   180 net.cpp:140] Creating Layer pool1/3x3_s2
I0224 07:26:58.693053   180 net.cpp:481] pool1/3x3_s2 <- conv1/7x7_s2
I0224 07:26:58.693056   180 net.cpp:455] pool1/3x3_s2 -> pool1/3x3_s2
I0224 07:26:58.693090   180 net.cpp:190] Setting up pool1/3x3_s2
I0224 07:26:58.693096   180 net.cpp:197] Top shape: 1 64 128 256 (2097152)
I0224 07:26:58.693101   180 net.cpp:205] Memory required for data: 148897792
I0224 07:26:58.693104   180 layer_factory.hpp:123] Creating layer conv2/3x3_reduce
I0224 07:26:58.693111   180 net.cpp:140] Creating Layer conv2/3x3_reduce
I0224 07:26:58.693115   180 net.cpp:481] conv2/3x3_reduce <- pool1/3x3_s2
I0224 07:26:58.693120   180 net.cpp:455] conv2/3x3_reduce -> conv2/3x3_reduce_raw
I0224 07:26:58.693387   180 net.cpp:190] Setting up conv2/3x3_reduce
I0224 07:26:58.693395   180 net.cpp:197] Top shape: 1 64 128 256 (2097152)
I0224 07:26:58.693400   180 net.cpp:205] Memory required for data: 157286400
I0224 07:26:58.693406   180 layer_factory.hpp:123] Creating layer conv2/3x3_reduce_BatchNorm
I0224 07:26:58.693414   180 net.cpp:140] Creating Layer conv2/3x3_reduce_BatchNorm
I0224 07:26:58.693418   180 net.cpp:481] conv2/3x3_reduce_BatchNorm <- conv2/3x3_reduce_raw
I0224 07:26:58.693423   180 net.cpp:455] conv2/3x3_reduce_BatchNorm -> conv2/3x3_reduce
I0224 07:26:58.694147   180 net.cpp:190] Setting up conv2/3x3_reduce_BatchNorm
I0224 07:26:58.694155   180 net.cpp:197] Top shape: 1 64 128 256 (2097152)
I0224 07:26:58.694160   180 net.cpp:205] Memory required for data: 165675008
I0224 07:26:58.694169   180 layer_factory.hpp:123] Creating layer conv2/relu_3x3_reduce
I0224 07:26:58.694175   180 net.cpp:140] Creating Layer conv2/relu_3x3_reduce
I0224 07:26:58.694178   180 net.cpp:481] conv2/relu_3x3_reduce <- conv2/3x3_reduce
I0224 07:26:58.694183   180 net.cpp:442] conv2/relu_3x3_reduce -> conv2/3x3_reduce (in-place)
I0224 07:26:58.694190   180 net.cpp:190] Setting up conv2/relu_3x3_reduce
I0224 07:26:58.694195   180 net.cpp:197] Top shape: 1 64 128 256 (2097152)
I0224 07:26:58.694200   180 net.cpp:205] Memory required for data: 174063616
I0224 07:26:58.694203   180 layer_factory.hpp:123] Creating layer conv2/3x3
I0224 07:26:58.694211   180 net.cpp:140] Creating Layer conv2/3x3
I0224 07:26:58.694213   180 net.cpp:481] conv2/3x3 <- conv2/3x3_reduce
I0224 07:26:58.694218   180 net.cpp:455] conv2/3x3 -> conv2/3x3_raw
I0224 07:26:58.696105   180 net.cpp:190] Setting up conv2/3x3
I0224 07:26:58.696115   180 net.cpp:197] Top shape: 1 192 128 256 (6291456)
I0224 07:26:58.696135   180 net.cpp:205] Memory required for data: 199229440
I0224 07:26:58.696141   180 layer_factory.hpp:123] Creating layer conv2/3x3_BatchNorm
I0224 07:26:58.696148   180 net.cpp:140] Creating Layer conv2/3x3_BatchNorm
I0224 07:26:58.696152   180 net.cpp:481] conv2/3x3_BatchNorm <- conv2/3x3_raw
I0224 07:26:58.696157   180 net.cpp:455] conv2/3x3_BatchNorm -> conv2/3x3
I0224 07:26:58.696674   180 net.cpp:190] Setting up conv2/3x3_BatchNorm
I0224 07:26:58.696682   180 net.cpp:197] Top shape: 1 192 128 256 (6291456)
I0224 07:26:58.696688   180 net.cpp:205] Memory required for data: 224395264
I0224 07:26:58.696697   180 layer_factory.hpp:123] Creating layer conv2/relu_3x3
I0224 07:26:58.696702   180 net.cpp:140] Creating Layer conv2/relu_3x3
I0224 07:26:58.696707   180 net.cpp:481] conv2/relu_3x3 <- conv2/3x3
I0224 07:26:58.696710   180 net.cpp:442] conv2/relu_3x3 -> conv2/3x3 (in-place)
I0224 07:26:58.696717   180 net.cpp:190] Setting up conv2/relu_3x3
I0224 07:26:58.696719   180 net.cpp:197] Top shape: 1 192 128 256 (6291456)
I0224 07:26:58.696723   180 net.cpp:205] Memory required for data: 249561088
I0224 07:26:58.696727   180 layer_factory.hpp:123] Creating layer conv2/3x3_conv2/relu_3x3_0_split
I0224 07:26:58.696736   180 net.cpp:140] Creating Layer conv2/3x3_conv2/relu_3x3_0_split
I0224 07:26:58.696740   180 net.cpp:481] conv2/3x3_conv2/relu_3x3_0_split <- conv2/3x3
I0224 07:26:58.696744   180 net.cpp:455] conv2/3x3_conv2/relu_3x3_0_split -> conv2/3x3_conv2/relu_3x3_0_split_0
I0224 07:26:58.696749   180 net.cpp:455] conv2/3x3_conv2/relu_3x3_0_split -> conv2/3x3_conv2/relu_3x3_0_split_1
I0224 07:26:58.696776   180 net.cpp:190] Setting up conv2/3x3_conv2/relu_3x3_0_split
I0224 07:26:58.696781   180 net.cpp:197] Top shape: 1 192 128 256 (6291456)
I0224 07:26:58.696786   180 net.cpp:197] Top shape: 1 192 128 256 (6291456)
I0224 07:26:58.696790   180 net.cpp:205] Memory required for data: 299892736
I0224 07:26:58.696794   180 layer_factory.hpp:123] Creating layer pool2/3x3_s2
I0224 07:26:58.696799   180 net.cpp:140] Creating Layer pool2/3x3_s2
I0224 07:26:58.696804   180 net.cpp:481] pool2/3x3_s2 <- conv2/3x3_conv2/relu_3x3_0_split_0
I0224 07:26:58.696807   180 net.cpp:455] pool2/3x3_s2 -> pool2/3x3_s2
I0224 07:26:58.696832   180 net.cpp:190] Setting up pool2/3x3_s2
I0224 07:26:58.696837   180 net.cpp:197] Top shape: 1 192 64 128 (1572864)
I0224 07:26:58.696842   180 net.cpp:205] Memory required for data: 306184192
I0224 07:26:58.696854   180 layer_factory.hpp:123] Creating layer pool2/3x3_s2_pool2/3x3_s2_0_split
I0224 07:26:58.696859   180 net.cpp:140] Creating Layer pool2/3x3_s2_pool2/3x3_s2_0_split
I0224 07:26:58.696862   180 net.cpp:481] pool2/3x3_s2_pool2/3x3_s2_0_split <- pool2/3x3_s2
I0224 07:26:58.696866   180 net.cpp:455] pool2/3x3_s2_pool2/3x3_s2_0_split -> pool2/3x3_s2_pool2/3x3_s2_0_split_0
I0224 07:26:58.696872   180 net.cpp:455] pool2/3x3_s2_pool2/3x3_s2_0_split -> pool2/3x3_s2_pool2/3x3_s2_0_split_1
I0224 07:26:58.696877   180 net.cpp:455] pool2/3x3_s2_pool2/3x3_s2_0_split -> pool2/3x3_s2_pool2/3x3_s2_0_split_2
I0224 07:26:58.696882   180 net.cpp:455] pool2/3x3_s2_pool2/3x3_s2_0_split -> pool2/3x3_s2_pool2/3x3_s2_0_split_3
I0224 07:26:58.696925   180 net.cpp:190] Setting up pool2/3x3_s2_pool2/3x3_s2_0_split
I0224 07:26:58.696931   180 net.cpp:197] Top shape: 1 192 64 128 (1572864)
I0224 07:26:58.696936   180 net.cpp:197] Top shape: 1 192 64 128 (1572864)
I0224 07:26:58.696939   180 net.cpp:197] Top shape: 1 192 64 128 (1572864)
I0224 07:26:58.696943   180 net.cpp:197] Top shape: 1 192 64 128 (1572864)
I0224 07:26:58.696947   180 net.cpp:205] Memory required for data: 331350016
I0224 07:26:58.696950   180 layer_factory.hpp:123] Creating layer inception_3a/1x1
I0224 07:26:58.696959   180 net.cpp:140] Creating Layer inception_3a/1x1
I0224 07:26:58.696961   180 net.cpp:481] inception_3a/1x1 <- pool2/3x3_s2_pool2/3x3_s2_0_split_0
I0224 07:26:58.696966   180 net.cpp:455] inception_3a/1x1 -> inception_3a/1x1_raw
I0224 07:26:58.697268   180 net.cpp:190] Setting up inception_3a/1x1
I0224 07:26:58.697275   180 net.cpp:197] Top shape: 1 64 64 128 (524288)
I0224 07:26:58.697280   180 net.cpp:205] Memory required for data: 333447168
I0224 07:26:58.697286   180 layer_factory.hpp:123] Creating layer inception_3a/1x1_BatchNorm
I0224 07:26:58.697294   180 net.cpp:140] Creating Layer inception_3a/1x1_BatchNorm
I0224 07:26:58.697297   180 net.cpp:481] inception_3a/1x1_BatchNorm <- inception_3a/1x1_raw
I0224 07:26:58.697302   180 net.cpp:455] inception_3a/1x1_BatchNorm -> inception_3a/1x1
I0224 07:26:58.697815   180 net.cpp:190] Setting up inception_3a/1x1_BatchNorm
I0224 07:26:58.697824   180 net.cpp:197] Top shape: 1 64 64 128 (524288)
I0224 07:26:58.697829   180 net.cpp:205] Memory required for data: 335544320
I0224 07:26:58.697836   180 layer_factory.hpp:123] Creating layer inception_3a/relu_1x1
I0224 07:26:58.697841   180 net.cpp:140] Creating Layer inception_3a/relu_1x1
I0224 07:26:58.697845   180 net.cpp:481] inception_3a/relu_1x1 <- inception_3a/1x1
I0224 07:26:58.697849   180 net.cpp:442] inception_3a/relu_1x1 -> inception_3a/1x1 (in-place)
I0224 07:26:58.697855   180 net.cpp:190] Setting up inception_3a/relu_1x1
I0224 07:26:58.697858   180 net.cpp:197] Top shape: 1 64 64 128 (524288)
I0224 07:26:58.697862   180 net.cpp:205] Memory required for data: 337641472
I0224 07:26:58.697865   180 layer_factory.hpp:123] Creating layer inception_3a/3x3_reduce
I0224 07:26:58.697872   180 net.cpp:140] Creating Layer inception_3a/3x3_reduce
I0224 07:26:58.697875   180 net.cpp:481] inception_3a/3x3_reduce <- pool2/3x3_s2_pool2/3x3_s2_0_split_1
I0224 07:26:58.697880   180 net.cpp:455] inception_3a/3x3_reduce -> inception_3a/3x3_reduce_raw
I0224 07:26:58.698240   180 net.cpp:190] Setting up inception_3a/3x3_reduce
I0224 07:26:58.698248   180 net.cpp:197] Top shape: 1 96 64 128 (786432)
I0224 07:26:58.698253   180 net.cpp:205] Memory required for data: 340787200
I0224 07:26:58.698258   180 layer_factory.hpp:123] Creating layer inception_3a/3x3_reduce_BatchNorm
I0224 07:26:58.698266   180 net.cpp:140] Creating Layer inception_3a/3x3_reduce_BatchNorm
I0224 07:26:58.698269   180 net.cpp:481] inception_3a/3x3_reduce_BatchNorm <- inception_3a/3x3_reduce_raw
I0224 07:26:58.698274   180 net.cpp:455] inception_3a/3x3_reduce_BatchNorm -> inception_3a/3x3_reduce
I0224 07:26:58.698797   180 net.cpp:190] Setting up inception_3a/3x3_reduce_BatchNorm
I0224 07:26:58.698803   180 net.cpp:197] Top shape: 1 96 64 128 (786432)
I0224 07:26:58.698808   180 net.cpp:205] Memory required for data: 343932928
I0224 07:26:58.698832   180 layer_factory.hpp:123] Creating layer inception_3a/relu_3x3_reduce
I0224 07:26:58.698838   180 net.cpp:140] Creating Layer inception_3a/relu_3x3_reduce
I0224 07:26:58.698843   180 net.cpp:481] inception_3a/relu_3x3_reduce <- inception_3a/3x3_reduce
I0224 07:26:58.698846   180 net.cpp:442] inception_3a/relu_3x3_reduce -> inception_3a/3x3_reduce (in-place)
I0224 07:26:58.698853   180 net.cpp:190] Setting up inception_3a/relu_3x3_reduce
I0224 07:26:58.698855   180 net.cpp:197] Top shape: 1 96 64 128 (786432)
I0224 07:26:58.698859   180 net.cpp:205] Memory required for data: 347078656
I0224 07:26:58.698877   180 layer_factory.hpp:123] Creating layer inception_3a/3x3
I0224 07:26:58.698884   180 net.cpp:140] Creating Layer inception_3a/3x3
I0224 07:26:58.698887   180 net.cpp:481] inception_3a/3x3 <- inception_3a/3x3_reduce
I0224 07:26:58.698892   180 net.cpp:455] inception_3a/3x3 -> inception_3a/3x3_raw
I0224 07:26:58.700007   180 net.cpp:190] Setting up inception_3a/3x3
I0224 07:26:58.700014   180 net.cpp:197] Top shape: 1 128 64 128 (1048576)
I0224 07:26:58.700034   180 net.cpp:205] Memory required for data: 351272960
I0224 07:26:58.700039   180 layer_factory.hpp:123] Creating layer inception_3a/3x3_BatchNorm
I0224 07:26:58.700047   180 net.cpp:140] Creating Layer inception_3a/3x3_BatchNorm
I0224 07:26:58.700049   180 net.cpp:481] inception_3a/3x3_BatchNorm <- inception_3a/3x3_raw
I0224 07:26:58.700054   180 net.cpp:455] inception_3a/3x3_BatchNorm -> inception_3a/3x3
I0224 07:26:58.700489   180 net.cpp:190] Setting up inception_3a/3x3_BatchNorm
I0224 07:26:58.700496   180 net.cpp:197] Top shape: 1 128 64 128 (1048576)
I0224 07:26:58.700501   180 net.cpp:205] Memory required for data: 355467264
I0224 07:26:58.700508   180 layer_factory.hpp:123] Creating layer inception_3a/relu_3x3
I0224 07:26:58.700513   180 net.cpp:140] Creating Layer inception_3a/relu_3x3
I0224 07:26:58.700517   180 net.cpp:481] inception_3a/relu_3x3 <- inception_3a/3x3
I0224 07:26:58.700521   180 net.cpp:442] inception_3a/relu_3x3 -> inception_3a/3x3 (in-place)
I0224 07:26:58.700528   180 net.cpp:190] Setting up inception_3a/relu_3x3
I0224 07:26:58.700531   180 net.cpp:197] Top shape: 1 128 64 128 (1048576)
I0224 07:26:58.700536   180 net.cpp:205] Memory required for data: 359661568
I0224 07:26:58.700538   180 layer_factory.hpp:123] Creating layer inception_3a/5x5_reduce
I0224 07:26:58.700546   180 net.cpp:140] Creating Layer inception_3a/5x5_reduce
I0224 07:26:58.700548   180 net.cpp:481] inception_3a/5x5_reduce <- pool2/3x3_s2_pool2/3x3_s2_0_split_2
I0224 07:26:58.700553   180 net.cpp:455] inception_3a/5x5_reduce -> inception_3a/5x5_reduce_raw
I0224 07:26:58.700778   180 net.cpp:190] Setting up inception_3a/5x5_reduce
I0224 07:26:58.700786   180 net.cpp:197] Top shape: 1 16 64 128 (131072)
I0224 07:26:58.700790   180 net.cpp:205] Memory required for data: 360185856
I0224 07:26:58.700796   180 layer_factory.hpp:123] Creating layer inception_3a/5x5_reduce_BatchNorm
I0224 07:26:58.700803   180 net.cpp:140] Creating Layer inception_3a/5x5_reduce_BatchNorm
I0224 07:26:58.700806   180 net.cpp:481] inception_3a/5x5_reduce_BatchNorm <- inception_3a/5x5_reduce_raw
I0224 07:26:58.700811   180 net.cpp:455] inception_3a/5x5_reduce_BatchNorm -> inception_3a/5x5_reduce
I0224 07:26:58.701328   180 net.cpp:190] Setting up inception_3a/5x5_reduce_BatchNorm
I0224 07:26:58.701335   180 net.cpp:197] Top shape: 1 16 64 128 (131072)
I0224 07:26:58.701340   180 net.cpp:205] Memory required for data: 360710144
I0224 07:26:58.701349   180 layer_factory.hpp:123] Creating layer inception_3a/relu_5x5_reduce
I0224 07:26:58.701354   180 net.cpp:140] Creating Layer inception_3a/relu_5x5_reduce
I0224 07:26:58.701356   180 net.cpp:481] inception_3a/relu_5x5_reduce <- inception_3a/5x5_reduce
I0224 07:26:58.701361   180 net.cpp:442] inception_3a/relu_5x5_reduce -> inception_3a/5x5_reduce (in-place)
I0224 07:26:58.701367   180 net.cpp:190] Setting up inception_3a/relu_5x5_reduce
I0224 07:26:58.701370   180 net.cpp:197] Top shape: 1 16 64 128 (131072)
I0224 07:26:58.701375   180 net.cpp:205] Memory required for data: 361234432
I0224 07:26:58.701377   180 layer_factory.hpp:123] Creating layer inception_3a/5x5
I0224 07:26:58.701385   180 net.cpp:140] Creating Layer inception_3a/5x5
I0224 07:26:58.701387   180 net.cpp:481] inception_3a/5x5 <- inception_3a/5x5_reduce
I0224 07:26:58.701392   180 net.cpp:455] inception_3a/5x5 -> inception_3a/5x5_raw
I0224 07:26:58.702356   180 net.cpp:190] Setting up inception_3a/5x5
I0224 07:26:58.702366   180 net.cpp:197] Top shape: 1 32 64 128 (262144)
I0224 07:26:58.702373   180 net.cpp:205] Memory required for data: 362283008
I0224 07:26:58.702378   180 layer_factory.hpp:123] Creating layer inception_3a/5x5_BatchNorm
I0224 07:26:58.702385   180 net.cpp:140] Creating Layer inception_3a/5x5_BatchNorm
I0224 07:26:58.702390   180 net.cpp:481] inception_3a/5x5_BatchNorm <- inception_3a/5x5_raw
I0224 07:26:58.702396   180 net.cpp:455] inception_3a/5x5_BatchNorm -> inception_3a/5x5
I0224 07:26:58.702924   180 net.cpp:190] Setting up inception_3a/5x5_BatchNorm
I0224 07:26:58.702932   180 net.cpp:197] Top shape: 1 32 64 128 (262144)
I0224 07:26:58.702937   180 net.cpp:205] Memory required for data: 363331584
I0224 07:26:58.702945   180 layer_factory.hpp:123] Creating layer inception_3a/relu_5x5
I0224 07:26:58.702950   180 net.cpp:140] Creating Layer inception_3a/relu_5x5
I0224 07:26:58.702955   180 net.cpp:481] inception_3a/relu_5x5 <- inception_3a/5x5
I0224 07:26:58.702958   180 net.cpp:442] inception_3a/relu_5x5 -> inception_3a/5x5 (in-place)
I0224 07:26:58.702965   180 net.cpp:190] Setting up inception_3a/relu_5x5
I0224 07:26:58.702967   180 net.cpp:197] Top shape: 1 32 64 128 (262144)
I0224 07:26:58.702971   180 net.cpp:205] Memory required for data: 364380160
I0224 07:26:58.702975   180 layer_factory.hpp:123] Creating layer inception_3a/pool
I0224 07:26:58.702980   180 net.cpp:140] Creating Layer inception_3a/pool
I0224 07:26:58.702983   180 net.cpp:481] inception_3a/pool <- pool2/3x3_s2_pool2/3x3_s2_0_split_3
I0224 07:26:58.702988   180 net.cpp:455] inception_3a/pool -> inception_3a/pool
I0224 07:26:58.703016   180 net.cpp:190] Setting up inception_3a/pool
I0224 07:26:58.703022   180 net.cpp:197] Top shape: 1 192 64 128 (1572864)
I0224 07:26:58.703027   180 net.cpp:205] Memory required for data: 370671616
I0224 07:26:58.703030   180 layer_factory.hpp:123] Creating layer inception_3a/pool_proj
I0224 07:26:58.703037   180 net.cpp:140] Creating Layer inception_3a/pool_proj
I0224 07:26:58.703040   180 net.cpp:481] inception_3a/pool_proj <- inception_3a/pool
I0224 07:26:58.703045   180 net.cpp:455] inception_3a/pool_proj -> inception_3a/pool_proj_raw
I0224 07:26:58.703306   180 net.cpp:190] Setting up inception_3a/pool_proj
I0224 07:26:58.703313   180 net.cpp:197] Top shape: 1 32 64 128 (262144)
I0224 07:26:58.703318   180 net.cpp:205] Memory required for data: 371720192
I0224 07:26:58.703323   180 layer_factory.hpp:123] Creating layer inception_3a/pool_proj_BatchNorm
I0224 07:26:58.703332   180 net.cpp:140] Creating Layer inception_3a/pool_proj_BatchNorm
I0224 07:26:58.703336   180 net.cpp:481] inception_3a/pool_proj_BatchNorm <- inception_3a/pool_proj_raw
I0224 07:26:58.703341   180 net.cpp:455] inception_3a/pool_proj_BatchNorm -> inception_3a/pool_proj
I0224 07:26:58.703850   180 net.cpp:190] Setting up inception_3a/pool_proj_BatchNorm
I0224 07:26:58.703856   180 net.cpp:197] Top shape: 1 32 64 128 (262144)
I0224 07:26:58.703861   180 net.cpp:205] Memory required for data: 372768768
I0224 07:26:58.703868   180 layer_factory.hpp:123] Creating layer inception_3a/relu_pool_proj
I0224 07:26:58.703873   180 net.cpp:140] Creating Layer inception_3a/relu_pool_proj
I0224 07:26:58.703877   180 net.cpp:481] inception_3a/relu_pool_proj <- inception_3a/pool_proj
I0224 07:26:58.703881   180 net.cpp:442] inception_3a/relu_pool_proj -> inception_3a/pool_proj (in-place)
I0224 07:26:58.703887   180 net.cpp:190] Setting up inception_3a/relu_pool_proj
I0224 07:26:58.703891   180 net.cpp:197] Top shape: 1 32 64 128 (262144)
I0224 07:26:58.703894   180 net.cpp:205] Memory required for data: 373817344
I0224 07:26:58.703897   180 layer_factory.hpp:123] Creating layer inception_3a/output
I0224 07:26:58.703907   180 net.cpp:140] Creating Layer inception_3a/output
I0224 07:26:58.703910   180 net.cpp:481] inception_3a/output <- inception_3a/1x1
I0224 07:26:58.703913   180 net.cpp:481] inception_3a/output <- inception_3a/3x3
I0224 07:26:58.703917   180 net.cpp:481] inception_3a/output <- inception_3a/5x5
I0224 07:26:58.703920   180 net.cpp:481] inception_3a/output <- inception_3a/pool_proj
I0224 07:26:58.703924   180 net.cpp:455] inception_3a/output -> inception_3a/output
I0224 07:26:58.703943   180 net.cpp:190] Setting up inception_3a/output
I0224 07:26:58.703953   180 net.cpp:197] Top shape: 1 256 64 128 (2097152)
I0224 07:26:58.703956   180 net.cpp:205] Memory required for data: 382205952
I0224 07:26:58.703960   180 layer_factory.hpp:123] Creating layer inception_3a/output_inception_3a/output_0_split
I0224 07:26:58.703965   180 net.cpp:140] Creating Layer inception_3a/output_inception_3a/output_0_split
I0224 07:26:58.703969   180 net.cpp:481] inception_3a/output_inception_3a/output_0_split <- inception_3a/output
I0224 07:26:58.703972   180 net.cpp:455] inception_3a/output_inception_3a/output_0_split -> inception_3a/output_inception_3a/output_0_split_0
I0224 07:26:58.703979   180 net.cpp:455] inception_3a/output_inception_3a/output_0_split -> inception_3a/output_inception_3a/output_0_split_1
I0224 07:26:58.703984   180 net.cpp:455] inception_3a/output_inception_3a/output_0_split -> inception_3a/output_inception_3a/output_0_split_2
I0224 07:26:58.703989   180 net.cpp:455] inception_3a/output_inception_3a/output_0_split -> inception_3a/output_inception_3a/output_0_split_3
I0224 07:26:58.704033   180 net.cpp:190] Setting up inception_3a/output_inception_3a/output_0_split
I0224 07:26:58.704038   180 net.cpp:197] Top shape: 1 256 64 128 (2097152)
I0224 07:26:58.704042   180 net.cpp:197] Top shape: 1 256 64 128 (2097152)
I0224 07:26:58.704047   180 net.cpp:197] Top shape: 1 256 64 128 (2097152)
I0224 07:26:58.704051   180 net.cpp:197] Top shape: 1 256 64 128 (2097152)
I0224 07:26:58.704054   180 net.cpp:205] Memory required for data: 415760384
I0224 07:26:58.704058   180 layer_factory.hpp:123] Creating layer inception_3b/1x1
I0224 07:26:58.704066   180 net.cpp:140] Creating Layer inception_3b/1x1
I0224 07:26:58.704068   180 net.cpp:481] inception_3b/1x1 <- inception_3a/output_inception_3a/output_0_split_0
I0224 07:26:58.704073   180 net.cpp:455] inception_3b/1x1 -> inception_3b/1x1_raw
I0224 07:26:58.704547   180 net.cpp:190] Setting up inception_3b/1x1
I0224 07:26:58.704555   180 net.cpp:197] Top shape: 1 128 64 128 (1048576)
I0224 07:26:58.704560   180 net.cpp:205] Memory required for data: 419954688
I0224 07:26:58.704567   180 layer_factory.hpp:123] Creating layer inception_3b/1x1_BatchNorm
I0224 07:26:58.704574   180 net.cpp:140] Creating Layer inception_3b/1x1_BatchNorm
I0224 07:26:58.704577   180 net.cpp:481] inception_3b/1x1_BatchNorm <- inception_3b/1x1_raw
I0224 07:26:58.704582   180 net.cpp:455] inception_3b/1x1_BatchNorm -> inception_3b/1x1
I0224 07:26:58.705036   180 net.cpp:190] Setting up inception_3b/1x1_BatchNorm
I0224 07:26:58.705044   180 net.cpp:197] Top shape: 1 128 64 128 (1048576)
I0224 07:26:58.705049   180 net.cpp:205] Memory required for data: 424148992
I0224 07:26:58.705056   180 layer_factory.hpp:123] Creating layer inception_3b/relu_1x1
I0224 07:26:58.705060   180 net.cpp:140] Creating Layer inception_3b/relu_1x1
I0224 07:26:58.705065   180 net.cpp:481] inception_3b/relu_1x1 <- inception_3b/1x1
I0224 07:26:58.705070   180 net.cpp:442] inception_3b/relu_1x1 -> inception_3b/1x1 (in-place)
I0224 07:26:58.705075   180 net.cpp:190] Setting up inception_3b/relu_1x1
I0224 07:26:58.705077   180 net.cpp:197] Top shape: 1 128 64 128 (1048576)
I0224 07:26:58.705081   180 net.cpp:205] Memory required for data: 428343296
I0224 07:26:58.705085   180 layer_factory.hpp:123] Creating layer inception_3b/3x3_reduce
I0224 07:26:58.705091   180 net.cpp:140] Creating Layer inception_3b/3x3_reduce
I0224 07:26:58.705096   180 net.cpp:481] inception_3b/3x3_reduce <- inception_3a/output_inception_3a/output_0_split_1
I0224 07:26:58.705101   180 net.cpp:455] inception_3b/3x3_reduce -> inception_3b/3x3_reduce_raw
I0224 07:26:58.705582   180 net.cpp:190] Setting up inception_3b/3x3_reduce
I0224 07:26:58.705592   180 net.cpp:197] Top shape: 1 128 64 128 (1048576)
I0224 07:26:58.705597   180 net.cpp:205] Memory required for data: 432537600
I0224 07:26:58.705602   180 layer_factory.hpp:123] Creating layer inception_3b/3x3_reduce_BatchNorm
I0224 07:26:58.705610   180 net.cpp:140] Creating Layer inception_3b/3x3_reduce_BatchNorm
I0224 07:26:58.705613   180 net.cpp:481] inception_3b/3x3_reduce_BatchNorm <- inception_3b/3x3_reduce_raw
I0224 07:26:58.705619   180 net.cpp:455] inception_3b/3x3_reduce_BatchNorm -> inception_3b/3x3_reduce
I0224 07:26:58.706066   180 net.cpp:190] Setting up inception_3b/3x3_reduce_BatchNorm
I0224 07:26:58.706073   180 net.cpp:197] Top shape: 1 128 64 128 (1048576)
I0224 07:26:58.706079   180 net.cpp:205] Memory required for data: 436731904
I0224 07:26:58.706086   180 layer_factory.hpp:123] Creating layer inception_3b/relu_3x3_reduce
I0224 07:26:58.706091   180 net.cpp:140] Creating Layer inception_3b/relu_3x3_reduce
I0224 07:26:58.706095   180 net.cpp:481] inception_3b/relu_3x3_reduce <- inception_3b/3x3_reduce
I0224 07:26:58.706099   180 net.cpp:442] inception_3b/relu_3x3_reduce -> inception_3b/3x3_reduce (in-place)
I0224 07:26:58.706105   180 net.cpp:190] Setting up inception_3b/relu_3x3_reduce
I0224 07:26:58.706109   180 net.cpp:197] Top shape: 1 128 64 128 (1048576)
I0224 07:26:58.706112   180 net.cpp:205] Memory required for data: 440926208
I0224 07:26:58.706115   180 layer_factory.hpp:123] Creating layer inception_3b/3x3
I0224 07:26:58.706122   180 net.cpp:140] Creating Layer inception_3b/3x3
I0224 07:26:58.706126   180 net.cpp:481] inception_3b/3x3 <- inception_3b/3x3_reduce
I0224 07:26:58.706130   180 net.cpp:455] inception_3b/3x3 -> inception_3b/3x3_raw
I0224 07:26:58.708858   180 net.cpp:190] Setting up inception_3b/3x3
I0224 07:26:58.708868   180 net.cpp:197] Top shape: 1 192 64 128 (1572864)
I0224 07:26:58.708873   180 net.cpp:205] Memory required for data: 447217664
I0224 07:26:58.708878   180 layer_factory.hpp:123] Creating layer inception_3b/3x3_BatchNorm
I0224 07:26:58.708886   180 net.cpp:140] Creating Layer inception_3b/3x3_BatchNorm
I0224 07:26:58.708890   180 net.cpp:481] inception_3b/3x3_BatchNorm <- inception_3b/3x3_raw
I0224 07:26:58.708895   180 net.cpp:455] inception_3b/3x3_BatchNorm -> inception_3b/3x3
I0224 07:26:58.709421   180 net.cpp:190] Setting up inception_3b/3x3_BatchNorm
I0224 07:26:58.709429   180 net.cpp:197] Top shape: 1 192 64 128 (1572864)
I0224 07:26:58.709434   180 net.cpp:205] Memory required for data: 453509120
I0224 07:26:58.709442   180 layer_factory.hpp:123] Creating layer inception_3b/relu_3x3
I0224 07:26:58.709448   180 net.cpp:140] Creating Layer inception_3b/relu_3x3
I0224 07:26:58.709452   180 net.cpp:481] inception_3b/relu_3x3 <- inception_3b/3x3
I0224 07:26:58.709456   180 net.cpp:442] inception_3b/relu_3x3 -> inception_3b/3x3 (in-place)
I0224 07:26:58.709462   180 net.cpp:190] Setting up inception_3b/relu_3x3
I0224 07:26:58.709466   180 net.cpp:197] Top shape: 1 192 64 128 (1572864)
I0224 07:26:58.709471   180 net.cpp:205] Memory required for data: 459800576
I0224 07:26:58.709475   180 layer_factory.hpp:123] Creating layer inception_3b/5x5_reduce
I0224 07:26:58.709481   180 net.cpp:140] Creating Layer inception_3b/5x5_reduce
I0224 07:26:58.709484   180 net.cpp:481] inception_3b/5x5_reduce <- inception_3a/output_inception_3a/output_0_split_2
I0224 07:26:58.709491   180 net.cpp:455] inception_3b/5x5_reduce -> inception_3b/5x5_reduce_raw
I0224 07:26:58.709764   180 net.cpp:190] Setting up inception_3b/5x5_reduce
I0224 07:26:58.709770   180 net.cpp:197] Top shape: 1 32 64 128 (262144)
I0224 07:26:58.709775   180 net.cpp:205] Memory required for data: 460849152
I0224 07:26:58.709780   180 layer_factory.hpp:123] Creating layer inception_3b/5x5_reduce_BatchNorm
I0224 07:26:58.709789   180 net.cpp:140] Creating Layer inception_3b/5x5_reduce_BatchNorm
I0224 07:26:58.709792   180 net.cpp:481] inception_3b/5x5_reduce_BatchNorm <- inception_3b/5x5_reduce_raw
I0224 07:26:58.709797   180 net.cpp:455] inception_3b/5x5_reduce_BatchNorm -> inception_3b/5x5_reduce
I0224 07:26:58.710312   180 net.cpp:190] Setting up inception_3b/5x5_reduce_BatchNorm
I0224 07:26:58.710319   180 net.cpp:197] Top shape: 1 32 64 128 (262144)
I0224 07:26:58.710325   180 net.cpp:205] Memory required for data: 461897728
I0224 07:26:58.710332   180 layer_factory.hpp:123] Creating layer inception_3b/relu_5x5_reduce
I0224 07:26:58.710336   180 net.cpp:140] Creating Layer inception_3b/relu_5x5_reduce
I0224 07:26:58.710340   180 net.cpp:481] inception_3b/relu_5x5_reduce <- inception_3b/5x5_reduce
I0224 07:26:58.710345   180 net.cpp:442] inception_3b/relu_5x5_reduce -> inception_3b/5x5_reduce (in-place)
I0224 07:26:58.710350   180 net.cpp:190] Setting up inception_3b/relu_5x5_reduce
I0224 07:26:58.710353   180 net.cpp:197] Top shape: 1 32 64 128 (262144)
I0224 07:26:58.710358   180 net.cpp:205] Memory required for data: 462946304
I0224 07:26:58.710361   180 layer_factory.hpp:123] Creating layer inception_3b/5x5
I0224 07:26:58.710368   180 net.cpp:140] Creating Layer inception_3b/5x5
I0224 07:26:58.710371   180 net.cpp:481] inception_3b/5x5 <- inception_3b/5x5_reduce
I0224 07:26:58.710376   180 net.cpp:455] inception_3b/5x5 -> inception_3b/5x5_raw
I0224 07:26:58.711241   180 net.cpp:190] Setting up inception_3b/5x5
I0224 07:26:58.711247   180 net.cpp:197] Top shape: 1 96 64 128 (786432)
I0224 07:26:58.711267   180 net.cpp:205] Memory required for data: 466092032
I0224 07:26:58.711272   180 layer_factory.hpp:123] Creating layer inception_3b/5x5_BatchNorm
I0224 07:26:58.711279   180 net.cpp:140] Creating Layer inception_3b/5x5_BatchNorm
I0224 07:26:58.711283   180 net.cpp:481] inception_3b/5x5_BatchNorm <- inception_3b/5x5_raw
I0224 07:26:58.711288   180 net.cpp:455] inception_3b/5x5_BatchNorm -> inception_3b/5x5
I0224 07:26:58.711804   180 net.cpp:190] Setting up inception_3b/5x5_BatchNorm
I0224 07:26:58.711812   180 net.cpp:197] Top shape: 1 96 64 128 (786432)
I0224 07:26:58.711817   180 net.cpp:205] Memory required for data: 469237760
I0224 07:26:58.711823   180 layer_factory.hpp:123] Creating layer inception_3b/relu_5x5
I0224 07:26:58.711828   180 net.cpp:140] Creating Layer inception_3b/relu_5x5
I0224 07:26:58.711833   180 net.cpp:481] inception_3b/relu_5x5 <- inception_3b/5x5
I0224 07:26:58.711836   180 net.cpp:442] inception_3b/relu_5x5 -> inception_3b/5x5 (in-place)
I0224 07:26:58.711843   180 net.cpp:190] Setting up inception_3b/relu_5x5
I0224 07:26:58.711845   180 net.cpp:197] Top shape: 1 96 64 128 (786432)
I0224 07:26:58.711849   180 net.cpp:205] Memory required for data: 472383488
I0224 07:26:58.711853   180 layer_factory.hpp:123] Creating layer inception_3b/pool
I0224 07:26:58.711858   180 net.cpp:140] Creating Layer inception_3b/pool
I0224 07:26:58.711861   180 net.cpp:481] inception_3b/pool <- inception_3a/output_inception_3a/output_0_split_3
I0224 07:26:58.711866   180 net.cpp:455] inception_3b/pool -> inception_3b/pool
I0224 07:26:58.711894   180 net.cpp:190] Setting up inception_3b/pool
I0224 07:26:58.711899   180 net.cpp:197] Top shape: 1 256 64 128 (2097152)
I0224 07:26:58.711902   180 net.cpp:205] Memory required for data: 480772096
I0224 07:26:58.711905   180 layer_factory.hpp:123] Creating layer inception_3b/pool_proj
I0224 07:26:58.711912   180 net.cpp:140] Creating Layer inception_3b/pool_proj
I0224 07:26:58.711915   180 net.cpp:481] inception_3b/pool_proj <- inception_3b/pool
I0224 07:26:58.711920   180 net.cpp:455] inception_3b/pool_proj -> inception_3b/pool_proj_raw
I0224 07:26:58.712263   180 net.cpp:190] Setting up inception_3b/pool_proj
I0224 07:26:58.712270   180 net.cpp:197] Top shape: 1 64 64 128 (524288)
I0224 07:26:58.712275   180 net.cpp:205] Memory required for data: 482869248
I0224 07:26:58.712280   180 layer_factory.hpp:123] Creating layer inception_3b/pool_proj_BatchNorm
I0224 07:26:58.712286   180 net.cpp:140] Creating Layer inception_3b/pool_proj_BatchNorm
I0224 07:26:58.712291   180 net.cpp:481] inception_3b/pool_proj_BatchNorm <- inception_3b/pool_proj_raw
I0224 07:26:58.712296   180 net.cpp:455] inception_3b/pool_proj_BatchNorm -> inception_3b/pool_proj
I0224 07:26:58.712828   180 net.cpp:190] Setting up inception_3b/pool_proj_BatchNorm
I0224 07:26:58.712836   180 net.cpp:197] Top shape: 1 64 64 128 (524288)
I0224 07:26:58.712841   180 net.cpp:205] Memory required for data: 484966400
I0224 07:26:58.712863   180 layer_factory.hpp:123] Creating layer inception_3b/relu_pool_proj
I0224 07:26:58.712868   180 net.cpp:140] Creating Layer inception_3b/relu_pool_proj
I0224 07:26:58.712872   180 net.cpp:481] inception_3b/relu_pool_proj <- inception_3b/pool_proj
I0224 07:26:58.712877   180 net.cpp:442] inception_3b/relu_pool_proj -> inception_3b/pool_proj (in-place)
I0224 07:26:58.712882   180 net.cpp:190] Setting up inception_3b/relu_pool_proj
I0224 07:26:58.712885   180 net.cpp:197] Top shape: 1 64 64 128 (524288)
I0224 07:26:58.712889   180 net.cpp:205] Memory required for data: 487063552
I0224 07:26:58.712893   180 layer_factory.hpp:123] Creating layer inception_3b/output
I0224 07:26:58.712898   180 net.cpp:140] Creating Layer inception_3b/output
I0224 07:26:58.712900   180 net.cpp:481] inception_3b/output <- inception_3b/1x1
I0224 07:26:58.712904   180 net.cpp:481] inception_3b/output <- inception_3b/3x3
I0224 07:26:58.712908   180 net.cpp:481] inception_3b/output <- inception_3b/5x5
I0224 07:26:58.712910   180 net.cpp:481] inception_3b/output <- inception_3b/pool_proj
I0224 07:26:58.712915   180 net.cpp:455] inception_3b/output -> inception_3b/output
I0224 07:26:58.712934   180 net.cpp:190] Setting up inception_3b/output
I0224 07:26:58.712937   180 net.cpp:197] Top shape: 1 480 64 128 (3932160)
I0224 07:26:58.712941   180 net.cpp:205] Memory required for data: 502792192
I0224 07:26:58.712944   180 layer_factory.hpp:123] Creating layer inception_3b/output_inception_3b/output_0_split
I0224 07:26:58.712949   180 net.cpp:140] Creating Layer inception_3b/output_inception_3b/output_0_split
I0224 07:26:58.712952   180 net.cpp:481] inception_3b/output_inception_3b/output_0_split <- inception_3b/output
I0224 07:26:58.712956   180 net.cpp:455] inception_3b/output_inception_3b/output_0_split -> inception_3b/output_inception_3b/output_0_split_0
I0224 07:26:58.712961   180 net.cpp:455] inception_3b/output_inception_3b/output_0_split -> inception_3b/output_inception_3b/output_0_split_1
I0224 07:26:58.712986   180 net.cpp:190] Setting up inception_3b/output_inception_3b/output_0_split
I0224 07:26:58.712990   180 net.cpp:197] Top shape: 1 480 64 128 (3932160)
I0224 07:26:58.712994   180 net.cpp:197] Top shape: 1 480 64 128 (3932160)
I0224 07:26:58.712998   180 net.cpp:205] Memory required for data: 534249472
I0224 07:26:58.713001   180 layer_factory.hpp:123] Creating layer pool3/3x3_s2
I0224 07:26:58.713006   180 net.cpp:140] Creating Layer pool3/3x3_s2
I0224 07:26:58.713009   180 net.cpp:481] pool3/3x3_s2 <- inception_3b/output_inception_3b/output_0_split_0
I0224 07:26:58.713014   180 net.cpp:455] pool3/3x3_s2 -> pool3/3x3_s2
I0224 07:26:58.713040   180 net.cpp:190] Setting up pool3/3x3_s2
I0224 07:26:58.713047   180 net.cpp:197] Top shape: 1 480 32 64 (983040)
I0224 07:26:58.713050   180 net.cpp:205] Memory required for data: 538181632
I0224 07:26:58.713053   180 layer_factory.hpp:123] Creating layer pool3/3x3_s2_pool3/3x3_s2_0_split
I0224 07:26:58.713058   180 net.cpp:140] Creating Layer pool3/3x3_s2_pool3/3x3_s2_0_split
I0224 07:26:58.713063   180 net.cpp:481] pool3/3x3_s2_pool3/3x3_s2_0_split <- pool3/3x3_s2
I0224 07:26:58.713066   180 net.cpp:455] pool3/3x3_s2_pool3/3x3_s2_0_split -> pool3/3x3_s2_pool3/3x3_s2_0_split_0
I0224 07:26:58.713073   180 net.cpp:455] pool3/3x3_s2_pool3/3x3_s2_0_split -> pool3/3x3_s2_pool3/3x3_s2_0_split_1
I0224 07:26:58.713078   180 net.cpp:455] pool3/3x3_s2_pool3/3x3_s2_0_split -> pool3/3x3_s2_pool3/3x3_s2_0_split_2
I0224 07:26:58.713083   180 net.cpp:455] pool3/3x3_s2_pool3/3x3_s2_0_split -> pool3/3x3_s2_pool3/3x3_s2_0_split_3
I0224 07:26:58.713125   180 net.cpp:190] Setting up pool3/3x3_s2_pool3/3x3_s2_0_split
I0224 07:26:58.713130   180 net.cpp:197] Top shape: 1 480 32 64 (983040)
I0224 07:26:58.713135   180 net.cpp:197] Top shape: 1 480 32 64 (983040)
I0224 07:26:58.713140   180 net.cpp:197] Top shape: 1 480 32 64 (983040)
I0224 07:26:58.713143   180 net.cpp:197] Top shape: 1 480 32 64 (983040)
I0224 07:26:58.713146   180 net.cpp:205] Memory required for data: 553910272
I0224 07:26:58.713150   180 layer_factory.hpp:123] Creating layer inception_4a/1x1
I0224 07:26:58.713157   180 net.cpp:140] Creating Layer inception_4a/1x1
I0224 07:26:58.713160   180 net.cpp:481] inception_4a/1x1 <- pool3/3x3_s2_pool3/3x3_s2_0_split_0
I0224 07:26:58.713165   180 net.cpp:455] inception_4a/1x1 -> inception_4a/1x1_raw
I0224 07:26:58.714817   180 net.cpp:190] Setting up inception_4a/1x1
I0224 07:26:58.714828   180 net.cpp:197] Top shape: 1 192 32 64 (393216)
I0224 07:26:58.714833   180 net.cpp:205] Memory required for data: 555483136
I0224 07:26:58.714839   180 layer_factory.hpp:123] Creating layer inception_4a/1x1_BatchNorm
I0224 07:26:58.714848   180 net.cpp:140] Creating Layer inception_4a/1x1_BatchNorm
I0224 07:26:58.714851   180 net.cpp:481] inception_4a/1x1_BatchNorm <- inception_4a/1x1_raw
I0224 07:26:58.714857   180 net.cpp:455] inception_4a/1x1_BatchNorm -> inception_4a/1x1
I0224 07:26:58.715382   180 net.cpp:190] Setting up inception_4a/1x1_BatchNorm
I0224 07:26:58.715390   180 net.cpp:197] Top shape: 1 192 32 64 (393216)
I0224 07:26:58.715395   180 net.cpp:205] Memory required for data: 557056000
I0224 07:26:58.715404   180 layer_factory.hpp:123] Creating layer inception_4a/relu_1x1
I0224 07:26:58.715409   180 net.cpp:140] Creating Layer inception_4a/relu_1x1
I0224 07:26:58.715412   180 net.cpp:481] inception_4a/relu_1x1 <- inception_4a/1x1
I0224 07:26:58.715417   180 net.cpp:442] inception_4a/relu_1x1 -> inception_4a/1x1 (in-place)
I0224 07:26:58.715423   180 net.cpp:190] Setting up inception_4a/relu_1x1
I0224 07:26:58.715426   180 net.cpp:197] Top shape: 1 192 32 64 (393216)
I0224 07:26:58.715430   180 net.cpp:205] Memory required for data: 558628864
I0224 07:26:58.715433   180 layer_factory.hpp:123] Creating layer inception_4a/3x3_reduce
I0224 07:26:58.715440   180 net.cpp:140] Creating Layer inception_4a/3x3_reduce
I0224 07:26:58.715443   180 net.cpp:481] inception_4a/3x3_reduce <- pool3/3x3_s2_pool3/3x3_s2_0_split_1
I0224 07:26:58.715449   180 net.cpp:455] inception_4a/3x3_reduce -> inception_4a/3x3_reduce_raw
I0224 07:26:58.716056   180 net.cpp:190] Setting up inception_4a/3x3_reduce
I0224 07:26:58.716063   180 net.cpp:197] Top shape: 1 96 32 64 (196608)
I0224 07:26:58.716068   180 net.cpp:205] Memory required for data: 559415296
I0224 07:26:58.716073   180 layer_factory.hpp:123] Creating layer inception_4a/3x3_reduce_BatchNorm
I0224 07:26:58.716081   180 net.cpp:140] Creating Layer inception_4a/3x3_reduce_BatchNorm
I0224 07:26:58.716085   180 net.cpp:481] inception_4a/3x3_reduce_BatchNorm <- inception_4a/3x3_reduce_raw
I0224 07:26:58.716094   180 net.cpp:455] inception_4a/3x3_reduce_BatchNorm -> inception_4a/3x3_reduce
I0224 07:26:58.716627   180 net.cpp:190] Setting up inception_4a/3x3_reduce_BatchNorm
I0224 07:26:58.716634   180 net.cpp:197] Top shape: 1 96 32 64 (196608)
I0224 07:26:58.716639   180 net.cpp:205] Memory required for data: 560201728
I0224 07:26:58.716647   180 layer_factory.hpp:123] Creating layer inception_4a/relu_3x3_reduce
I0224 07:26:58.716655   180 net.cpp:140] Creating Layer inception_4a/relu_3x3_reduce
I0224 07:26:58.716658   180 net.cpp:481] inception_4a/relu_3x3_reduce <- inception_4a/3x3_reduce
I0224 07:26:58.716663   180 net.cpp:442] inception_4a/relu_3x3_reduce -> inception_4a/3x3_reduce (in-place)
I0224 07:26:58.716670   180 net.cpp:190] Setting up inception_4a/relu_3x3_reduce
I0224 07:26:58.716672   180 net.cpp:197] Top shape: 1 96 32 64 (196608)
I0224 07:26:58.716676   180 net.cpp:205] Memory required for data: 560988160
I0224 07:26:58.716679   180 layer_factory.hpp:123] Creating layer inception_4a/3x3
I0224 07:26:58.716686   180 net.cpp:140] Creating Layer inception_4a/3x3
I0224 07:26:58.716689   180 net.cpp:481] inception_4a/3x3 <- inception_4a/3x3_reduce
I0224 07:26:58.716693   180 net.cpp:455] inception_4a/3x3 -> inception_4a/3x3_raw
I0224 07:26:58.719101   180 net.cpp:190] Setting up inception_4a/3x3
I0224 07:26:58.719112   180 net.cpp:197] Top shape: 1 208 32 64 (425984)
I0224 07:26:58.719118   180 net.cpp:205] Memory required for data: 562692096
I0224 07:26:58.719125   180 layer_factory.hpp:123] Creating layer inception_4a/3x3_BatchNorm
I0224 07:26:58.719131   180 net.cpp:140] Creating Layer inception_4a/3x3_BatchNorm
I0224 07:26:58.719136   180 net.cpp:481] inception_4a/3x3_BatchNorm <- inception_4a/3x3_raw
I0224 07:26:58.719141   180 net.cpp:455] inception_4a/3x3_BatchNorm -> inception_4a/3x3
I0224 07:26:58.719673   180 net.cpp:190] Setting up inception_4a/3x3_BatchNorm
I0224 07:26:58.719681   180 net.cpp:197] Top shape: 1 208 32 64 (425984)
I0224 07:26:58.719686   180 net.cpp:205] Memory required for data: 564396032
I0224 07:26:58.719693   180 layer_factory.hpp:123] Creating layer inception_4a/relu_3x3
I0224 07:26:58.719698   180 net.cpp:140] Creating Layer inception_4a/relu_3x3
I0224 07:26:58.719702   180 net.cpp:481] inception_4a/relu_3x3 <- inception_4a/3x3
I0224 07:26:58.719707   180 net.cpp:442] inception_4a/relu_3x3 -> inception_4a/3x3 (in-place)
I0224 07:26:58.719712   180 net.cpp:190] Setting up inception_4a/relu_3x3
I0224 07:26:58.719715   180 net.cpp:197] Top shape: 1 208 32 64 (425984)
I0224 07:26:58.719719   180 net.cpp:205] Memory required for data: 566099968
I0224 07:26:58.719722   180 layer_factory.hpp:123] Creating layer inception_4a/5x5_reduce
I0224 07:26:58.719729   180 net.cpp:140] Creating Layer inception_4a/5x5_reduce
I0224 07:26:58.719733   180 net.cpp:481] inception_4a/5x5_reduce <- pool3/3x3_s2_pool3/3x3_s2_0_split_2
I0224 07:26:58.719738   180 net.cpp:455] inception_4a/5x5_reduce -> inception_4a/5x5_reduce_raw
I0224 07:26:58.720016   180 net.cpp:190] Setting up inception_4a/5x5_reduce
I0224 07:26:58.720023   180 net.cpp:197] Top shape: 1 16 32 64 (32768)
I0224 07:26:58.720028   180 net.cpp:205] Memory required for data: 566231040
I0224 07:26:58.720033   180 layer_factory.hpp:123] Creating layer inception_4a/5x5_reduce_BatchNorm
I0224 07:26:58.720041   180 net.cpp:140] Creating Layer inception_4a/5x5_reduce_BatchNorm
I0224 07:26:58.720044   180 net.cpp:481] inception_4a/5x5_reduce_BatchNorm <- inception_4a/5x5_reduce_raw
I0224 07:26:58.720049   180 net.cpp:455] inception_4a/5x5_reduce_BatchNorm -> inception_4a/5x5_reduce
I0224 07:26:58.720579   180 net.cpp:190] Setting up inception_4a/5x5_reduce_BatchNorm
I0224 07:26:58.720587   180 net.cpp:197] Top shape: 1 16 32 64 (32768)
I0224 07:26:58.720592   180 net.cpp:205] Memory required for data: 566362112
I0224 07:26:58.720602   180 layer_factory.hpp:123] Creating layer inception_4a/relu_5x5_reduce
I0224 07:26:58.720608   180 net.cpp:140] Creating Layer inception_4a/relu_5x5_reduce
I0224 07:26:58.720611   180 net.cpp:481] inception_4a/relu_5x5_reduce <- inception_4a/5x5_reduce
I0224 07:26:58.720616   180 net.cpp:442] inception_4a/relu_5x5_reduce -> inception_4a/5x5_reduce (in-place)
I0224 07:26:58.720623   180 net.cpp:190] Setting up inception_4a/relu_5x5_reduce
I0224 07:26:58.720626   180 net.cpp:197] Top shape: 1 16 32 64 (32768)
I0224 07:26:58.720630   180 net.cpp:205] Memory required for data: 566493184
I0224 07:26:58.720633   180 layer_factory.hpp:123] Creating layer inception_4a/5x5
I0224 07:26:58.720639   180 net.cpp:140] Creating Layer inception_4a/5x5
I0224 07:26:58.720643   180 net.cpp:481] inception_4a/5x5 <- inception_4a/5x5_reduce
I0224 07:26:58.720647   180 net.cpp:455] inception_4a/5x5 -> inception_4a/5x5_raw
I0224 07:26:58.721033   180 net.cpp:190] Setting up inception_4a/5x5
I0224 07:26:58.721040   180 net.cpp:197] Top shape: 1 48 32 64 (98304)
I0224 07:26:58.721045   180 net.cpp:205] Memory required for data: 566886400
I0224 07:26:58.721050   180 layer_factory.hpp:123] Creating layer inception_4a/5x5_BatchNorm
I0224 07:26:58.721056   180 net.cpp:140] Creating Layer inception_4a/5x5_BatchNorm
I0224 07:26:58.721060   180 net.cpp:481] inception_4a/5x5_BatchNorm <- inception_4a/5x5_raw
I0224 07:26:58.721066   180 net.cpp:455] inception_4a/5x5_BatchNorm -> inception_4a/5x5
I0224 07:26:58.721601   180 net.cpp:190] Setting up inception_4a/5x5_BatchNorm
I0224 07:26:58.721608   180 net.cpp:197] Top shape: 1 48 32 64 (98304)
I0224 07:26:58.721613   180 net.cpp:205] Memory required for data: 567279616
I0224 07:26:58.721621   180 layer_factory.hpp:123] Creating layer inception_4a/relu_5x5
I0224 07:26:58.721626   180 net.cpp:140] Creating Layer inception_4a/relu_5x5
I0224 07:26:58.721629   180 net.cpp:481] inception_4a/relu_5x5 <- inception_4a/5x5
I0224 07:26:58.721634   180 net.cpp:442] inception_4a/relu_5x5 -> inception_4a/5x5 (in-place)
I0224 07:26:58.721639   180 net.cpp:190] Setting up inception_4a/relu_5x5
I0224 07:26:58.721642   180 net.cpp:197] Top shape: 1 48 32 64 (98304)
I0224 07:26:58.721648   180 net.cpp:205] Memory required for data: 567672832
I0224 07:26:58.721652   180 layer_factory.hpp:123] Creating layer inception_4a/pool
I0224 07:26:58.721657   180 net.cpp:140] Creating Layer inception_4a/pool
I0224 07:26:58.721659   180 net.cpp:481] inception_4a/pool <- pool3/3x3_s2_pool3/3x3_s2_0_split_3
I0224 07:26:58.721664   180 net.cpp:455] inception_4a/pool -> inception_4a/pool
I0224 07:26:58.721693   180 net.cpp:190] Setting up inception_4a/pool
I0224 07:26:58.721696   180 net.cpp:197] Top shape: 1 480 32 64 (983040)
I0224 07:26:58.721700   180 net.cpp:205] Memory required for data: 571604992
I0224 07:26:58.721704   180 layer_factory.hpp:123] Creating layer inception_4a/pool_proj
I0224 07:26:58.721709   180 net.cpp:140] Creating Layer inception_4a/pool_proj
I0224 07:26:58.721712   180 net.cpp:481] inception_4a/pool_proj <- inception_4a/pool
I0224 07:26:58.721717   180 net.cpp:455] inception_4a/pool_proj -> inception_4a/pool_proj_raw
I0224 07:26:58.722188   180 net.cpp:190] Setting up inception_4a/pool_proj
I0224 07:26:58.722195   180 net.cpp:197] Top shape: 1 64 32 64 (131072)
I0224 07:26:58.722200   180 net.cpp:205] Memory required for data: 572129280
I0224 07:26:58.722205   180 layer_factory.hpp:123] Creating layer inception_4a/pool_proj_BatchNorm
I0224 07:26:58.722213   180 net.cpp:140] Creating Layer inception_4a/pool_proj_BatchNorm
I0224 07:26:58.722216   180 net.cpp:481] inception_4a/pool_proj_BatchNorm <- inception_4a/pool_proj_raw
I0224 07:26:58.722221   180 net.cpp:455] inception_4a/pool_proj_BatchNorm -> inception_4a/pool_proj
I0224 07:26:58.722749   180 net.cpp:190] Setting up inception_4a/pool_proj_BatchNorm
I0224 07:26:58.722755   180 net.cpp:197] Top shape: 1 64 32 64 (131072)
I0224 07:26:58.722760   180 net.cpp:205] Memory required for data: 572653568
I0224 07:26:58.722769   180 layer_factory.hpp:123] Creating layer inception_4a/relu_pool_proj
I0224 07:26:58.722772   180 net.cpp:140] Creating Layer inception_4a/relu_pool_proj
I0224 07:26:58.722776   180 net.cpp:481] inception_4a/relu_pool_proj <- inception_4a/pool_proj
I0224 07:26:58.722780   180 net.cpp:442] inception_4a/relu_pool_proj -> inception_4a/pool_proj (in-place)
I0224 07:26:58.722786   180 net.cpp:190] Setting up inception_4a/relu_pool_proj
I0224 07:26:58.722790   180 net.cpp:197] Top shape: 1 64 32 64 (131072)
I0224 07:26:58.722793   180 net.cpp:205] Memory required for data: 573177856
I0224 07:26:58.722796   180 layer_factory.hpp:123] Creating layer inception_4a/output
I0224 07:26:58.722801   180 net.cpp:140] Creating Layer inception_4a/output
I0224 07:26:58.722805   180 net.cpp:481] inception_4a/output <- inception_4a/1x1
I0224 07:26:58.722808   180 net.cpp:481] inception_4a/output <- inception_4a/3x3
I0224 07:26:58.722811   180 net.cpp:481] inception_4a/output <- inception_4a/5x5
I0224 07:26:58.722815   180 net.cpp:481] inception_4a/output <- inception_4a/pool_proj
I0224 07:26:58.722820   180 net.cpp:455] inception_4a/output -> inception_4a/output
I0224 07:26:58.722837   180 net.cpp:190] Setting up inception_4a/output
I0224 07:26:58.722841   180 net.cpp:197] Top shape: 1 512 32 64 (1048576)
I0224 07:26:58.722846   180 net.cpp:205] Memory required for data: 577372160
I0224 07:26:58.722848   180 layer_factory.hpp:123] Creating layer inception_4a/output_inception_4a/output_0_split
I0224 07:26:58.722853   180 net.cpp:140] Creating Layer inception_4a/output_inception_4a/output_0_split
I0224 07:26:58.722856   180 net.cpp:481] inception_4a/output_inception_4a/output_0_split <- inception_4a/output
I0224 07:26:58.722862   180 net.cpp:455] inception_4a/output_inception_4a/output_0_split -> inception_4a/output_inception_4a/output_0_split_0
I0224 07:26:58.722867   180 net.cpp:455] inception_4a/output_inception_4a/output_0_split -> inception_4a/output_inception_4a/output_0_split_1
I0224 07:26:58.722872   180 net.cpp:455] inception_4a/output_inception_4a/output_0_split -> inception_4a/output_inception_4a/output_0_split_2
I0224 07:26:58.722877   180 net.cpp:455] inception_4a/output_inception_4a/output_0_split -> inception_4a/output_inception_4a/output_0_split_3
I0224 07:26:58.722919   180 net.cpp:190] Setting up inception_4a/output_inception_4a/output_0_split
I0224 07:26:58.722924   180 net.cpp:197] Top shape: 1 512 32 64 (1048576)
I0224 07:26:58.722929   180 net.cpp:197] Top shape: 1 512 32 64 (1048576)
I0224 07:26:58.722934   180 net.cpp:197] Top shape: 1 512 32 64 (1048576)
I0224 07:26:58.722936   180 net.cpp:197] Top shape: 1 512 32 64 (1048576)
I0224 07:26:58.722940   180 net.cpp:205] Memory required for data: 594149376
I0224 07:26:58.722944   180 layer_factory.hpp:123] Creating layer inception_4b/1x1
I0224 07:26:58.722950   180 net.cpp:140] Creating Layer inception_4b/1x1
I0224 07:26:58.722954   180 net.cpp:481] inception_4b/1x1 <- inception_4a/output_inception_4a/output_0_split_0
I0224 07:26:58.722959   180 net.cpp:455] inception_4b/1x1 -> inception_4b/1x1_raw
I0224 07:26:58.723866   180 net.cpp:190] Setting up inception_4b/1x1
I0224 07:26:58.723872   180 net.cpp:197] Top shape: 1 160 32 64 (327680)
I0224 07:26:58.723877   180 net.cpp:205] Memory required for data: 595460096
I0224 07:26:58.723882   180 layer_factory.hpp:123] Creating layer inception_4b/1x1_BatchNorm
I0224 07:26:58.723889   180 net.cpp:140] Creating Layer inception_4b/1x1_BatchNorm
I0224 07:26:58.723892   180 net.cpp:481] inception_4b/1x1_BatchNorm <- inception_4b/1x1_raw
I0224 07:26:58.723897   180 net.cpp:455] inception_4b/1x1_BatchNorm -> inception_4b/1x1
I0224 07:26:58.724418   180 net.cpp:190] Setting up inception_4b/1x1_BatchNorm
I0224 07:26:58.724426   180 net.cpp:197] Top shape: 1 160 32 64 (327680)
I0224 07:26:58.724431   180 net.cpp:205] Memory required for data: 596770816
I0224 07:26:58.724438   180 layer_factory.hpp:123] Creating layer inception_4b/relu_1x1
I0224 07:26:58.724443   180 net.cpp:140] Creating Layer inception_4b/relu_1x1
I0224 07:26:58.724447   180 net.cpp:481] inception_4b/relu_1x1 <- inception_4b/1x1
I0224 07:26:58.724452   180 net.cpp:442] inception_4b/relu_1x1 -> inception_4b/1x1 (in-place)
I0224 07:26:58.724457   180 net.cpp:190] Setting up inception_4b/relu_1x1
I0224 07:26:58.724460   180 net.cpp:197] Top shape: 1 160 32 64 (327680)
I0224 07:26:58.724464   180 net.cpp:205] Memory required for data: 598081536
I0224 07:26:58.724467   180 layer_factory.hpp:123] Creating layer inception_4b/3x3_reduce
I0224 07:26:58.724476   180 net.cpp:140] Creating Layer inception_4b/3x3_reduce
I0224 07:26:58.724479   180 net.cpp:481] inception_4b/3x3_reduce <- inception_4a/output_inception_4a/output_0_split_1
I0224 07:26:58.724484   180 net.cpp:455] inception_4b/3x3_reduce -> inception_4b/3x3_reduce_raw
I0224 07:26:58.725823   180 net.cpp:190] Setting up inception_4b/3x3_reduce
I0224 07:26:58.725834   180 net.cpp:197] Top shape: 1 112 32 64 (229376)
I0224 07:26:58.725839   180 net.cpp:205] Memory required for data: 598999040
I0224 07:26:58.725845   180 layer_factory.hpp:123] Creating layer inception_4b/3x3_reduce_BatchNorm
I0224 07:26:58.725853   180 net.cpp:140] Creating Layer inception_4b/3x3_reduce_BatchNorm
I0224 07:26:58.725857   180 net.cpp:481] inception_4b/3x3_reduce_BatchNorm <- inception_4b/3x3_reduce_raw
I0224 07:26:58.725862   180 net.cpp:455] inception_4b/3x3_reduce_BatchNorm -> inception_4b/3x3_reduce
I0224 07:26:58.726418   180 net.cpp:190] Setting up inception_4b/3x3_reduce_BatchNorm
I0224 07:26:58.726425   180 net.cpp:197] Top shape: 1 112 32 64 (229376)
I0224 07:26:58.726430   180 net.cpp:205] Memory required for data: 599916544
I0224 07:26:58.726438   180 layer_factory.hpp:123] Creating layer inception_4b/relu_3x3_reduce
I0224 07:26:58.726444   180 net.cpp:140] Creating Layer inception_4b/relu_3x3_reduce
I0224 07:26:58.726447   180 net.cpp:481] inception_4b/relu_3x3_reduce <- inception_4b/3x3_reduce
I0224 07:26:58.726452   180 net.cpp:442] inception_4b/relu_3x3_reduce -> inception_4b/3x3_reduce (in-place)
I0224 07:26:58.726459   180 net.cpp:190] Setting up inception_4b/relu_3x3_reduce
I0224 07:26:58.726461   180 net.cpp:197] Top shape: 1 112 32 64 (229376)
I0224 07:26:58.726465   180 net.cpp:205] Memory required for data: 600834048
I0224 07:26:58.726469   180 layer_factory.hpp:123] Creating layer inception_4b/3x3
I0224 07:26:58.726476   180 net.cpp:140] Creating Layer inception_4b/3x3
I0224 07:26:58.726480   180 net.cpp:481] inception_4b/3x3 <- inception_4b/3x3_reduce
I0224 07:26:58.726483   180 net.cpp:455] inception_4b/3x3 -> inception_4b/3x3_raw
I0224 07:26:58.728534   180 net.cpp:190] Setting up inception_4b/3x3
I0224 07:26:58.728541   180 net.cpp:197] Top shape: 1 224 32 64 (458752)
I0224 07:26:58.728560   180 net.cpp:205] Memory required for data: 602669056
I0224 07:26:58.728566   180 layer_factory.hpp:123] Creating layer inception_4b/3x3_BatchNorm
I0224 07:26:58.728574   180 net.cpp:140] Creating Layer inception_4b/3x3_BatchNorm
I0224 07:26:58.728576   180 net.cpp:481] inception_4b/3x3_BatchNorm <- inception_4b/3x3_raw
I0224 07:26:58.728583   180 net.cpp:455] inception_4b/3x3_BatchNorm -> inception_4b/3x3
I0224 07:26:58.729128   180 net.cpp:190] Setting up inception_4b/3x3_BatchNorm
I0224 07:26:58.729135   180 net.cpp:197] Top shape: 1 224 32 64 (458752)
I0224 07:26:58.729140   180 net.cpp:205] Memory required for data: 604504064
I0224 07:26:58.729147   180 layer_factory.hpp:123] Creating layer inception_4b/relu_3x3
I0224 07:26:58.729152   180 net.cpp:140] Creating Layer inception_4b/relu_3x3
I0224 07:26:58.729156   180 net.cpp:481] inception_4b/relu_3x3 <- inception_4b/3x3
I0224 07:26:58.729161   180 net.cpp:442] inception_4b/relu_3x3 -> inception_4b/3x3 (in-place)
I0224 07:26:58.729166   180 net.cpp:190] Setting up inception_4b/relu_3x3
I0224 07:26:58.729169   180 net.cpp:197] Top shape: 1 224 32 64 (458752)
I0224 07:26:58.729187   180 net.cpp:205] Memory required for data: 606339072
I0224 07:26:58.729190   180 layer_factory.hpp:123] Creating layer inception_4b/5x5_reduce
I0224 07:26:58.729197   180 net.cpp:140] Creating Layer inception_4b/5x5_reduce
I0224 07:26:58.729200   180 net.cpp:481] inception_4b/5x5_reduce <- inception_4a/output_inception_4a/output_0_split_2
I0224 07:26:58.729220   180 net.cpp:455] inception_4b/5x5_reduce -> inception_4b/5x5_reduce_raw
I0224 07:26:58.729555   180 net.cpp:190] Setting up inception_4b/5x5_reduce
I0224 07:26:58.729562   180 net.cpp:197] Top shape: 1 24 32 64 (49152)
I0224 07:26:58.729568   180 net.cpp:205] Memory required for data: 606535680
I0224 07:26:58.729573   180 layer_factory.hpp:123] Creating layer inception_4b/5x5_reduce_BatchNorm
I0224 07:26:58.729580   180 net.cpp:140] Creating Layer inception_4b/5x5_reduce_BatchNorm
I0224 07:26:58.729583   180 net.cpp:481] inception_4b/5x5_reduce_BatchNorm <- inception_4b/5x5_reduce_raw
I0224 07:26:58.729589   180 net.cpp:455] inception_4b/5x5_reduce_BatchNorm -> inception_4b/5x5_reduce
I0224 07:26:58.730134   180 net.cpp:190] Setting up inception_4b/5x5_reduce_BatchNorm
I0224 07:26:58.730140   180 net.cpp:197] Top shape: 1 24 32 64 (49152)
I0224 07:26:58.730160   180 net.cpp:205] Memory required for data: 606732288
I0224 07:26:58.730168   180 layer_factory.hpp:123] Creating layer inception_4b/relu_5x5_reduce
I0224 07:26:58.730173   180 net.cpp:140] Creating Layer inception_4b/relu_5x5_reduce
I0224 07:26:58.730177   180 net.cpp:481] inception_4b/relu_5x5_reduce <- inception_4b/5x5_reduce
I0224 07:26:58.730181   180 net.cpp:442] inception_4b/relu_5x5_reduce -> inception_4b/5x5_reduce (in-place)
I0224 07:26:58.730187   180 net.cpp:190] Setting up inception_4b/relu_5x5_reduce
I0224 07:26:58.730190   180 net.cpp:197] Top shape: 1 24 32 64 (49152)
I0224 07:26:58.730195   180 net.cpp:205] Memory required for data: 606928896
I0224 07:26:58.730197   180 layer_factory.hpp:123] Creating layer inception_4b/5x5
I0224 07:26:58.730204   180 net.cpp:140] Creating Layer inception_4b/5x5
I0224 07:26:58.730208   180 net.cpp:481] inception_4b/5x5 <- inception_4b/5x5_reduce
I0224 07:26:58.730212   180 net.cpp:455] inception_4b/5x5 -> inception_4b/5x5_raw
I0224 07:26:58.731402   180 net.cpp:190] Setting up inception_4b/5x5
I0224 07:26:58.731412   180 net.cpp:197] Top shape: 1 64 32 64 (131072)
I0224 07:26:58.731418   180 net.cpp:205] Memory required for data: 607453184
I0224 07:26:58.731425   180 layer_factory.hpp:123] Creating layer inception_4b/5x5_BatchNorm
I0224 07:26:58.731432   180 net.cpp:140] Creating Layer inception_4b/5x5_BatchNorm
I0224 07:26:58.731436   180 net.cpp:481] inception_4b/5x5_BatchNorm <- inception_4b/5x5_raw
I0224 07:26:58.731441   180 net.cpp:455] inception_4b/5x5_BatchNorm -> inception_4b/5x5
I0224 07:26:58.731977   180 net.cpp:190] Setting up inception_4b/5x5_BatchNorm
I0224 07:26:58.731984   180 net.cpp:197] Top shape: 1 64 32 64 (131072)
I0224 07:26:58.731989   180 net.cpp:205] Memory required for data: 607977472
I0224 07:26:58.731997   180 layer_factory.hpp:123] Creating layer inception_4b/relu_5x5
I0224 07:26:58.732002   180 net.cpp:140] Creating Layer inception_4b/relu_5x5
I0224 07:26:58.732007   180 net.cpp:481] inception_4b/relu_5x5 <- inception_4b/5x5
I0224 07:26:58.732010   180 net.cpp:442] inception_4b/relu_5x5 -> inception_4b/5x5 (in-place)
I0224 07:26:58.732017   180 net.cpp:190] Setting up inception_4b/relu_5x5
I0224 07:26:58.732019   180 net.cpp:197] Top shape: 1 64 32 64 (131072)
I0224 07:26:58.732023   180 net.cpp:205] Memory required for data: 608501760
I0224 07:26:58.732026   180 layer_factory.hpp:123] Creating layer inception_4b/pool
I0224 07:26:58.732031   180 net.cpp:140] Creating Layer inception_4b/pool
I0224 07:26:58.732034   180 net.cpp:481] inception_4b/pool <- inception_4a/output_inception_4a/output_0_split_3
I0224 07:26:58.732039   180 net.cpp:455] inception_4b/pool -> inception_4b/pool
I0224 07:26:58.732069   180 net.cpp:190] Setting up inception_4b/pool
I0224 07:26:58.732072   180 net.cpp:197] Top shape: 1 512 32 64 (1048576)
I0224 07:26:58.732076   180 net.cpp:205] Memory required for data: 612696064
I0224 07:26:58.732079   180 layer_factory.hpp:123] Creating layer inception_4b/pool_proj
I0224 07:26:58.732086   180 net.cpp:140] Creating Layer inception_4b/pool_proj
I0224 07:26:58.732089   180 net.cpp:481] inception_4b/pool_proj <- inception_4b/pool
I0224 07:26:58.732095   180 net.cpp:455] inception_4b/pool_proj -> inception_4b/pool_proj_raw
I0224 07:26:58.732583   180 net.cpp:190] Setting up inception_4b/pool_proj
I0224 07:26:58.732590   180 net.cpp:197] Top shape: 1 64 32 64 (131072)
I0224 07:26:58.732595   180 net.cpp:205] Memory required for data: 613220352
I0224 07:26:58.732600   180 layer_factory.hpp:123] Creating layer inception_4b/pool_proj_BatchNorm
I0224 07:26:58.732607   180 net.cpp:140] Creating Layer inception_4b/pool_proj_BatchNorm
I0224 07:26:58.732611   180 net.cpp:481] inception_4b/pool_proj_BatchNorm <- inception_4b/pool_proj_raw
I0224 07:26:58.732616   180 net.cpp:455] inception_4b/pool_proj_BatchNorm -> inception_4b/pool_proj
I0224 07:26:58.733145   180 net.cpp:190] Setting up inception_4b/pool_proj_BatchNorm
I0224 07:26:58.733152   180 net.cpp:197] Top shape: 1 64 32 64 (131072)
I0224 07:26:58.733157   180 net.cpp:205] Memory required for data: 613744640
I0224 07:26:58.733165   180 layer_factory.hpp:123] Creating layer inception_4b/relu_pool_proj
I0224 07:26:58.733170   180 net.cpp:140] Creating Layer inception_4b/relu_pool_proj
I0224 07:26:58.733173   180 net.cpp:481] inception_4b/relu_pool_proj <- inception_4b/pool_proj
I0224 07:26:58.733178   180 net.cpp:442] inception_4b/relu_pool_proj -> inception_4b/pool_proj (in-place)
I0224 07:26:58.733184   180 net.cpp:190] Setting up inception_4b/relu_pool_proj
I0224 07:26:58.733186   180 net.cpp:197] Top shape: 1 64 32 64 (131072)
I0224 07:26:58.733191   180 net.cpp:205] Memory required for data: 614268928
I0224 07:26:58.733194   180 layer_factory.hpp:123] Creating layer inception_4b/output
I0224 07:26:58.733198   180 net.cpp:140] Creating Layer inception_4b/output
I0224 07:26:58.733202   180 net.cpp:481] inception_4b/output <- inception_4b/1x1
I0224 07:26:58.733206   180 net.cpp:481] inception_4b/output <- inception_4b/3x3
I0224 07:26:58.733208   180 net.cpp:481] inception_4b/output <- inception_4b/5x5
I0224 07:26:58.733212   180 net.cpp:481] inception_4b/output <- inception_4b/pool_proj
I0224 07:26:58.733217   180 net.cpp:455] inception_4b/output -> inception_4b/output
I0224 07:26:58.733234   180 net.cpp:190] Setting up inception_4b/output
I0224 07:26:58.733238   180 net.cpp:197] Top shape: 1 512 32 64 (1048576)
I0224 07:26:58.733242   180 net.cpp:205] Memory required for data: 618463232
I0224 07:26:58.733245   180 layer_factory.hpp:123] Creating layer inception_4b/output_inception_4b/output_0_split
I0224 07:26:58.733250   180 net.cpp:140] Creating Layer inception_4b/output_inception_4b/output_0_split
I0224 07:26:58.733253   180 net.cpp:481] inception_4b/output_inception_4b/output_0_split <- inception_4b/output
I0224 07:26:58.733258   180 net.cpp:455] inception_4b/output_inception_4b/output_0_split -> inception_4b/output_inception_4b/output_0_split_0
I0224 07:26:58.733263   180 net.cpp:455] inception_4b/output_inception_4b/output_0_split -> inception_4b/output_inception_4b/output_0_split_1
I0224 07:26:58.733269   180 net.cpp:455] inception_4b/output_inception_4b/output_0_split -> inception_4b/output_inception_4b/output_0_split_2
I0224 07:26:58.733273   180 net.cpp:455] inception_4b/output_inception_4b/output_0_split -> inception_4b/output_inception_4b/output_0_split_3
I0224 07:26:58.733323   180 net.cpp:190] Setting up inception_4b/output_inception_4b/output_0_split
I0224 07:26:58.733330   180 net.cpp:197] Top shape: 1 512 32 64 (1048576)
I0224 07:26:58.733335   180 net.cpp:197] Top shape: 1 512 32 64 (1048576)
I0224 07:26:58.733338   180 net.cpp:197] Top shape: 1 512 32 64 (1048576)
I0224 07:26:58.733342   180 net.cpp:197] Top shape: 1 512 32 64 (1048576)
I0224 07:26:58.733346   180 net.cpp:205] Memory required for data: 635240448
I0224 07:26:58.733350   180 layer_factory.hpp:123] Creating layer inception_4c/1x1
I0224 07:26:58.733356   180 net.cpp:140] Creating Layer inception_4c/1x1
I0224 07:26:58.733361   180 net.cpp:481] inception_4c/1x1 <- inception_4b/output_inception_4b/output_0_split_0
I0224 07:26:58.733366   180 net.cpp:455] inception_4c/1x1 -> inception_4c/1x1_raw
I0224 07:26:58.734124   180 net.cpp:190] Setting up inception_4c/1x1
I0224 07:26:58.734133   180 net.cpp:197] Top shape: 1 128 32 64 (262144)
I0224 07:26:58.734136   180 net.cpp:205] Memory required for data: 636289024
I0224 07:26:58.734143   180 layer_factory.hpp:123] Creating layer inception_4c/1x1_BatchNorm
I0224 07:26:58.734148   180 net.cpp:140] Creating Layer inception_4c/1x1_BatchNorm
I0224 07:26:58.734153   180 net.cpp:481] inception_4c/1x1_BatchNorm <- inception_4c/1x1_raw
I0224 07:26:58.734158   180 net.cpp:455] inception_4c/1x1_BatchNorm -> inception_4c/1x1
I0224 07:26:58.734601   180 net.cpp:190] Setting up inception_4c/1x1_BatchNorm
I0224 07:26:58.734607   180 net.cpp:197] Top shape: 1 128 32 64 (262144)
I0224 07:26:58.734612   180 net.cpp:205] Memory required for data: 637337600
I0224 07:26:58.734619   180 layer_factory.hpp:123] Creating layer inception_4c/relu_1x1
I0224 07:26:58.734624   180 net.cpp:140] Creating Layer inception_4c/relu_1x1
I0224 07:26:58.734628   180 net.cpp:481] inception_4c/relu_1x1 <- inception_4c/1x1
I0224 07:26:58.734632   180 net.cpp:442] inception_4c/relu_1x1 -> inception_4c/1x1 (in-place)
I0224 07:26:58.734638   180 net.cpp:190] Setting up inception_4c/relu_1x1
I0224 07:26:58.734642   180 net.cpp:197] Top shape: 1 128 32 64 (262144)
I0224 07:26:58.734645   180 net.cpp:205] Memory required for data: 638386176
I0224 07:26:58.734648   180 layer_factory.hpp:123] Creating layer inception_4c/3x3_reduce
I0224 07:26:58.734655   180 net.cpp:140] Creating Layer inception_4c/3x3_reduce
I0224 07:26:58.734658   180 net.cpp:481] inception_4c/3x3_reduce <- inception_4b/output_inception_4b/output_0_split_1
I0224 07:26:58.734664   180 net.cpp:455] inception_4c/3x3_reduce -> inception_4c/3x3_reduce_raw
I0224 07:26:58.735419   180 net.cpp:190] Setting up inception_4c/3x3_reduce
I0224 07:26:58.735426   180 net.cpp:197] Top shape: 1 128 32 64 (262144)
I0224 07:26:58.735431   180 net.cpp:205] Memory required for data: 639434752
I0224 07:26:58.735436   180 layer_factory.hpp:123] Creating layer inception_4c/3x3_reduce_BatchNorm
I0224 07:26:58.735443   180 net.cpp:140] Creating Layer inception_4c/3x3_reduce_BatchNorm
I0224 07:26:58.735446   180 net.cpp:481] inception_4c/3x3_reduce_BatchNorm <- inception_4c/3x3_reduce_raw
I0224 07:26:58.735451   180 net.cpp:455] inception_4c/3x3_reduce_BatchNorm -> inception_4c/3x3_reduce
I0224 07:26:58.735896   180 net.cpp:190] Setting up inception_4c/3x3_reduce_BatchNorm
I0224 07:26:58.735903   180 net.cpp:197] Top shape: 1 128 32 64 (262144)
I0224 07:26:58.735908   180 net.cpp:205] Memory required for data: 640483328
I0224 07:26:58.735916   180 layer_factory.hpp:123] Creating layer inception_4c/relu_3x3_reduce
I0224 07:26:58.735920   180 net.cpp:140] Creating Layer inception_4c/relu_3x3_reduce
I0224 07:26:58.735924   180 net.cpp:481] inception_4c/relu_3x3_reduce <- inception_4c/3x3_reduce
I0224 07:26:58.735929   180 net.cpp:442] inception_4c/relu_3x3_reduce -> inception_4c/3x3_reduce (in-place)
I0224 07:26:58.735934   180 net.cpp:190] Setting up inception_4c/relu_3x3_reduce
I0224 07:26:58.735937   180 net.cpp:197] Top shape: 1 128 32 64 (262144)
I0224 07:26:58.735942   180 net.cpp:205] Memory required for data: 641531904
I0224 07:26:58.735945   180 layer_factory.hpp:123] Creating layer inception_4c/3x3
I0224 07:26:58.735952   180 net.cpp:140] Creating Layer inception_4c/3x3
I0224 07:26:58.735955   180 net.cpp:481] inception_4c/3x3 <- inception_4c/3x3_reduce
I0224 07:26:58.735960   180 net.cpp:455] inception_4c/3x3 -> inception_4c/3x3_raw
I0224 07:26:58.739806   180 net.cpp:190] Setting up inception_4c/3x3
I0224 07:26:58.739816   180 net.cpp:197] Top shape: 1 256 32 64 (524288)
I0224 07:26:58.739837   180 net.cpp:205] Memory required for data: 643629056
I0224 07:26:58.739843   180 layer_factory.hpp:123] Creating layer inception_4c/3x3_BatchNorm
I0224 07:26:58.739850   180 net.cpp:140] Creating Layer inception_4c/3x3_BatchNorm
I0224 07:26:58.739854   180 net.cpp:481] inception_4c/3x3_BatchNorm <- inception_4c/3x3_raw
I0224 07:26:58.739861   180 net.cpp:455] inception_4c/3x3_BatchNorm -> inception_4c/3x3
I0224 07:26:58.740331   180 net.cpp:190] Setting up inception_4c/3x3_BatchNorm
I0224 07:26:58.740339   180 net.cpp:197] Top shape: 1 256 32 64 (524288)
I0224 07:26:58.740344   180 net.cpp:205] Memory required for data: 645726208
I0224 07:26:58.740350   180 layer_factory.hpp:123] Creating layer inception_4c/relu_3x3
I0224 07:26:58.740356   180 net.cpp:140] Creating Layer inception_4c/relu_3x3
I0224 07:26:58.740360   180 net.cpp:481] inception_4c/relu_3x3 <- inception_4c/3x3
I0224 07:26:58.740365   180 net.cpp:442] inception_4c/relu_3x3 -> inception_4c/3x3 (in-place)
I0224 07:26:58.740370   180 net.cpp:190] Setting up inception_4c/relu_3x3
I0224 07:26:58.740373   180 net.cpp:197] Top shape: 1 256 32 64 (524288)
I0224 07:26:58.740377   180 net.cpp:205] Memory required for data: 647823360
I0224 07:26:58.740381   180 layer_factory.hpp:123] Creating layer inception_4c/5x5_reduce
I0224 07:26:58.740387   180 net.cpp:140] Creating Layer inception_4c/5x5_reduce
I0224 07:26:58.740391   180 net.cpp:481] inception_4c/5x5_reduce <- inception_4b/output_inception_4b/output_0_split_2
I0224 07:26:58.740396   180 net.cpp:455] inception_4c/5x5_reduce -> inception_4c/5x5_reduce_raw
I0224 07:26:58.740712   180 net.cpp:190] Setting up inception_4c/5x5_reduce
I0224 07:26:58.740720   180 net.cpp:197] Top shape: 1 24 32 64 (49152)
I0224 07:26:58.740723   180 net.cpp:205] Memory required for data: 648019968
I0224 07:26:58.740730   180 layer_factory.hpp:123] Creating layer inception_4c/5x5_reduce_BatchNorm
I0224 07:26:58.740736   180 net.cpp:140] Creating Layer inception_4c/5x5_reduce_BatchNorm
I0224 07:26:58.740739   180 net.cpp:481] inception_4c/5x5_reduce_BatchNorm <- inception_4c/5x5_reduce_raw
I0224 07:26:58.740744   180 net.cpp:455] inception_4c/5x5_reduce_BatchNorm -> inception_4c/5x5_reduce
I0224 07:26:58.741292   180 net.cpp:190] Setting up inception_4c/5x5_reduce_BatchNorm
I0224 07:26:58.741298   180 net.cpp:197] Top shape: 1 24 32 64 (49152)
I0224 07:26:58.741324   180 net.cpp:205] Memory required for data: 648216576
I0224 07:26:58.741333   180 layer_factory.hpp:123] Creating layer inception_4c/relu_5x5_reduce
I0224 07:26:58.741338   180 net.cpp:140] Creating Layer inception_4c/relu_5x5_reduce
I0224 07:26:58.741343   180 net.cpp:481] inception_4c/relu_5x5_reduce <- inception_4c/5x5_reduce
I0224 07:26:58.741346   180 net.cpp:442] inception_4c/relu_5x5_reduce -> inception_4c/5x5_reduce (in-place)
I0224 07:26:58.741353   180 net.cpp:190] Setting up inception_4c/relu_5x5_reduce
I0224 07:26:58.741355   180 net.cpp:197] Top shape: 1 24 32 64 (49152)
I0224 07:26:58.741360   180 net.cpp:205] Memory required for data: 648413184
I0224 07:26:58.741364   180 layer_factory.hpp:123] Creating layer inception_4c/5x5
I0224 07:26:58.741370   180 net.cpp:140] Creating Layer inception_4c/5x5
I0224 07:26:58.741374   180 net.cpp:481] inception_4c/5x5 <- inception_4c/5x5_reduce
I0224 07:26:58.741379   180 net.cpp:455] inception_4c/5x5 -> inception_4c/5x5_raw
I0224 07:26:58.741920   180 net.cpp:190] Setting up inception_4c/5x5
I0224 07:26:58.741927   180 net.cpp:197] Top shape: 1 64 32 64 (131072)
I0224 07:26:58.741932   180 net.cpp:205] Memory required for data: 648937472
I0224 07:26:58.741937   180 layer_factory.hpp:123] Creating layer inception_4c/5x5_BatchNorm
I0224 07:26:58.741945   180 net.cpp:140] Creating Layer inception_4c/5x5_BatchNorm
I0224 07:26:58.741948   180 net.cpp:481] inception_4c/5x5_BatchNorm <- inception_4c/5x5_raw
I0224 07:26:58.741953   180 net.cpp:455] inception_4c/5x5_BatchNorm -> inception_4c/5x5
I0224 07:26:58.742493   180 net.cpp:190] Setting up inception_4c/5x5_BatchNorm
I0224 07:26:58.742501   180 net.cpp:197] Top shape: 1 64 32 64 (131072)
I0224 07:26:58.742504   180 net.cpp:205] Memory required for data: 649461760
I0224 07:26:58.742512   180 layer_factory.hpp:123] Creating layer inception_4c/relu_5x5
I0224 07:26:58.742517   180 net.cpp:140] Creating Layer inception_4c/relu_5x5
I0224 07:26:58.742521   180 net.cpp:481] inception_4c/relu_5x5 <- inception_4c/5x5
I0224 07:26:58.742525   180 net.cpp:442] inception_4c/relu_5x5 -> inception_4c/5x5 (in-place)
I0224 07:26:58.742530   180 net.cpp:190] Setting up inception_4c/relu_5x5
I0224 07:26:58.742533   180 net.cpp:197] Top shape: 1 64 32 64 (131072)
I0224 07:26:58.742538   180 net.cpp:205] Memory required for data: 649986048
I0224 07:26:58.742542   180 layer_factory.hpp:123] Creating layer inception_4c/pool
I0224 07:26:58.742547   180 net.cpp:140] Creating Layer inception_4c/pool
I0224 07:26:58.742549   180 net.cpp:481] inception_4c/pool <- inception_4b/output_inception_4b/output_0_split_3
I0224 07:26:58.742554   180 net.cpp:455] inception_4c/pool -> inception_4c/pool
I0224 07:26:58.742581   180 net.cpp:190] Setting up inception_4c/pool
I0224 07:26:58.742584   180 net.cpp:197] Top shape: 1 512 32 64 (1048576)
I0224 07:26:58.742589   180 net.cpp:205] Memory required for data: 654180352
I0224 07:26:58.742592   180 layer_factory.hpp:123] Creating layer inception_4c/pool_proj
I0224 07:26:58.742599   180 net.cpp:140] Creating Layer inception_4c/pool_proj
I0224 07:26:58.742602   180 net.cpp:481] inception_4c/pool_proj <- inception_4c/pool
I0224 07:26:58.742607   180 net.cpp:455] inception_4c/pool_proj -> inception_4c/pool_proj_raw
I0224 07:26:58.743104   180 net.cpp:190] Setting up inception_4c/pool_proj
I0224 07:26:58.743111   180 net.cpp:197] Top shape: 1 64 32 64 (131072)
I0224 07:26:58.743116   180 net.cpp:205] Memory required for data: 654704640
I0224 07:26:58.743121   180 layer_factory.hpp:123] Creating layer inception_4c/pool_proj_BatchNorm
I0224 07:26:58.743129   180 net.cpp:140] Creating Layer inception_4c/pool_proj_BatchNorm
I0224 07:26:58.743131   180 net.cpp:481] inception_4c/pool_proj_BatchNorm <- inception_4c/pool_proj_raw
I0224 07:26:58.743136   180 net.cpp:455] inception_4c/pool_proj_BatchNorm -> inception_4c/pool_proj
I0224 07:26:58.743670   180 net.cpp:190] Setting up inception_4c/pool_proj_BatchNorm
I0224 07:26:58.743676   180 net.cpp:197] Top shape: 1 64 32 64 (131072)
I0224 07:26:58.743681   180 net.cpp:205] Memory required for data: 655228928
I0224 07:26:58.743688   180 layer_factory.hpp:123] Creating layer inception_4c/relu_pool_proj
I0224 07:26:58.743693   180 net.cpp:140] Creating Layer inception_4c/relu_pool_proj
I0224 07:26:58.743697   180 net.cpp:481] inception_4c/relu_pool_proj <- inception_4c/pool_proj
I0224 07:26:58.743701   180 net.cpp:442] inception_4c/relu_pool_proj -> inception_4c/pool_proj (in-place)
I0224 07:26:58.743707   180 net.cpp:190] Setting up inception_4c/relu_pool_proj
I0224 07:26:58.743710   180 net.cpp:197] Top shape: 1 64 32 64 (131072)
I0224 07:26:58.743714   180 net.cpp:205] Memory required for data: 655753216
I0224 07:26:58.743717   180 layer_factory.hpp:123] Creating layer inception_4c/output
I0224 07:26:58.743722   180 net.cpp:140] Creating Layer inception_4c/output
I0224 07:26:58.743726   180 net.cpp:481] inception_4c/output <- inception_4c/1x1
I0224 07:26:58.743729   180 net.cpp:481] inception_4c/output <- inception_4c/3x3
I0224 07:26:58.743732   180 net.cpp:481] inception_4c/output <- inception_4c/5x5
I0224 07:26:58.743736   180 net.cpp:481] inception_4c/output <- inception_4c/pool_proj
I0224 07:26:58.743741   180 net.cpp:455] inception_4c/output -> inception_4c/output
I0224 07:26:58.743758   180 net.cpp:190] Setting up inception_4c/output
I0224 07:26:58.743762   180 net.cpp:197] Top shape: 1 512 32 64 (1048576)
I0224 07:26:58.743767   180 net.cpp:205] Memory required for data: 659947520
I0224 07:26:58.743769   180 layer_factory.hpp:123] Creating layer inception_4c/output_inception_4c/output_0_split
I0224 07:26:58.743774   180 net.cpp:140] Creating Layer inception_4c/output_inception_4c/output_0_split
I0224 07:26:58.743778   180 net.cpp:481] inception_4c/output_inception_4c/output_0_split <- inception_4c/output
I0224 07:26:58.743782   180 net.cpp:455] inception_4c/output_inception_4c/output_0_split -> inception_4c/output_inception_4c/output_0_split_0
I0224 07:26:58.743788   180 net.cpp:455] inception_4c/output_inception_4c/output_0_split -> inception_4c/output_inception_4c/output_0_split_1
I0224 07:26:58.743793   180 net.cpp:455] inception_4c/output_inception_4c/output_0_split -> inception_4c/output_inception_4c/output_0_split_2
I0224 07:26:58.743798   180 net.cpp:455] inception_4c/output_inception_4c/output_0_split -> inception_4c/output_inception_4c/output_0_split_3
I0224 07:26:58.743842   180 net.cpp:190] Setting up inception_4c/output_inception_4c/output_0_split
I0224 07:26:58.743849   180 net.cpp:197] Top shape: 1 512 32 64 (1048576)
I0224 07:26:58.743852   180 net.cpp:197] Top shape: 1 512 32 64 (1048576)
I0224 07:26:58.743856   180 net.cpp:197] Top shape: 1 512 32 64 (1048576)
I0224 07:26:58.743860   180 net.cpp:197] Top shape: 1 512 32 64 (1048576)
I0224 07:26:58.743865   180 net.cpp:205] Memory required for data: 676724736
I0224 07:26:58.743867   180 layer_factory.hpp:123] Creating layer inception_4d/1x1
I0224 07:26:58.743875   180 net.cpp:140] Creating Layer inception_4d/1x1
I0224 07:26:58.743878   180 net.cpp:481] inception_4d/1x1 <- inception_4c/output_inception_4c/output_0_split_0
I0224 07:26:58.743883   180 net.cpp:455] inception_4d/1x1 -> inception_4d/1x1_raw
I0224 07:26:58.744594   180 net.cpp:190] Setting up inception_4d/1x1
I0224 07:26:58.744601   180 net.cpp:197] Top shape: 1 112 32 64 (229376)
I0224 07:26:58.744621   180 net.cpp:205] Memory required for data: 677642240
I0224 07:26:58.744626   180 layer_factory.hpp:123] Creating layer inception_4d/1x1_BatchNorm
I0224 07:26:58.744633   180 net.cpp:140] Creating Layer inception_4d/1x1_BatchNorm
I0224 07:26:58.744637   180 net.cpp:481] inception_4d/1x1_BatchNorm <- inception_4d/1x1_raw
I0224 07:26:58.744642   180 net.cpp:455] inception_4d/1x1_BatchNorm -> inception_4d/1x1
I0224 07:26:58.745182   180 net.cpp:190] Setting up inception_4d/1x1_BatchNorm
I0224 07:26:58.745189   180 net.cpp:197] Top shape: 1 112 32 64 (229376)
I0224 07:26:58.745194   180 net.cpp:205] Memory required for data: 678559744
I0224 07:26:58.745201   180 layer_factory.hpp:123] Creating layer inception_4d/relu_1x1
I0224 07:26:58.745206   180 net.cpp:140] Creating Layer inception_4d/relu_1x1
I0224 07:26:58.745210   180 net.cpp:481] inception_4d/relu_1x1 <- inception_4d/1x1
I0224 07:26:58.745215   180 net.cpp:442] inception_4d/relu_1x1 -> inception_4d/1x1 (in-place)
I0224 07:26:58.745220   180 net.cpp:190] Setting up inception_4d/relu_1x1
I0224 07:26:58.745223   180 net.cpp:197] Top shape: 1 112 32 64 (229376)
I0224 07:26:58.745227   180 net.cpp:205] Memory required for data: 679477248
I0224 07:26:58.745231   180 layer_factory.hpp:123] Creating layer inception_4d/3x3_reduce
I0224 07:26:58.745237   180 net.cpp:140] Creating Layer inception_4d/3x3_reduce
I0224 07:26:58.745241   180 net.cpp:481] inception_4d/3x3_reduce <- inception_4c/output_inception_4c/output_0_split_1
I0224 07:26:58.745246   180 net.cpp:455] inception_4d/3x3_reduce -> inception_4d/3x3_reduce_raw
I0224 07:26:58.746127   180 net.cpp:190] Setting up inception_4d/3x3_reduce
I0224 07:26:58.746135   180 net.cpp:197] Top shape: 1 144 32 64 (294912)
I0224 07:26:58.746155   180 net.cpp:205] Memory required for data: 680656896
I0224 07:26:58.746160   180 layer_factory.hpp:123] Creating layer inception_4d/3x3_reduce_BatchNorm
I0224 07:26:58.746167   180 net.cpp:140] Creating Layer inception_4d/3x3_reduce_BatchNorm
I0224 07:26:58.746171   180 net.cpp:481] inception_4d/3x3_reduce_BatchNorm <- inception_4d/3x3_reduce_raw
I0224 07:26:58.746187   180 net.cpp:455] inception_4d/3x3_reduce_BatchNorm -> inception_4d/3x3_reduce
I0224 07:26:58.746732   180 net.cpp:190] Setting up inception_4d/3x3_reduce_BatchNorm
I0224 07:26:58.746740   180 net.cpp:197] Top shape: 1 144 32 64 (294912)
I0224 07:26:58.746744   180 net.cpp:205] Memory required for data: 681836544
I0224 07:26:58.746752   180 layer_factory.hpp:123] Creating layer inception_4d/relu_3x3_reduce
I0224 07:26:58.746757   180 net.cpp:140] Creating Layer inception_4d/relu_3x3_reduce
I0224 07:26:58.746762   180 net.cpp:481] inception_4d/relu_3x3_reduce <- inception_4d/3x3_reduce
I0224 07:26:58.746767   180 net.cpp:442] inception_4d/relu_3x3_reduce -> inception_4d/3x3_reduce (in-place)
I0224 07:26:58.746773   180 net.cpp:190] Setting up inception_4d/relu_3x3_reduce
I0224 07:26:58.746774   180 net.cpp:197] Top shape: 1 144 32 64 (294912)
I0224 07:26:58.746779   180 net.cpp:205] Memory required for data: 683016192
I0224 07:26:58.746783   180 layer_factory.hpp:123] Creating layer inception_4d/3x3
I0224 07:26:58.746793   180 net.cpp:140] Creating Layer inception_4d/3x3
I0224 07:26:58.746795   180 net.cpp:481] inception_4d/3x3 <- inception_4d/3x3_reduce
I0224 07:26:58.746800   180 net.cpp:455] inception_4d/3x3 -> inception_4d/3x3_raw
I0224 07:26:58.751411   180 net.cpp:190] Setting up inception_4d/3x3
I0224 07:26:58.751421   180 net.cpp:197] Top shape: 1 288 32 64 (589824)
I0224 07:26:58.751442   180 net.cpp:205] Memory required for data: 685375488
I0224 07:26:58.751449   180 layer_factory.hpp:123] Creating layer inception_4d/3x3_BatchNorm
I0224 07:26:58.751457   180 net.cpp:140] Creating Layer inception_4d/3x3_BatchNorm
I0224 07:26:58.751462   180 net.cpp:481] inception_4d/3x3_BatchNorm <- inception_4d/3x3_raw
I0224 07:26:58.751468   180 net.cpp:455] inception_4d/3x3_BatchNorm -> inception_4d/3x3
I0224 07:26:58.752013   180 net.cpp:190] Setting up inception_4d/3x3_BatchNorm
I0224 07:26:58.752020   180 net.cpp:197] Top shape: 1 288 32 64 (589824)
I0224 07:26:58.752025   180 net.cpp:205] Memory required for data: 687734784
I0224 07:26:58.752032   180 layer_factory.hpp:123] Creating layer inception_4d/relu_3x3
I0224 07:26:58.752038   180 net.cpp:140] Creating Layer inception_4d/relu_3x3
I0224 07:26:58.752041   180 net.cpp:481] inception_4d/relu_3x3 <- inception_4d/3x3
I0224 07:26:58.752045   180 net.cpp:442] inception_4d/relu_3x3 -> inception_4d/3x3 (in-place)
I0224 07:26:58.752051   180 net.cpp:190] Setting up inception_4d/relu_3x3
I0224 07:26:58.752054   180 net.cpp:197] Top shape: 1 288 32 64 (589824)
I0224 07:26:58.752058   180 net.cpp:205] Memory required for data: 690094080
I0224 07:26:58.752063   180 layer_factory.hpp:123] Creating layer inception_4d/5x5_reduce
I0224 07:26:58.752070   180 net.cpp:140] Creating Layer inception_4d/5x5_reduce
I0224 07:26:58.752074   180 net.cpp:481] inception_4d/5x5_reduce <- inception_4c/output_inception_4c/output_0_split_2
I0224 07:26:58.752079   180 net.cpp:455] inception_4d/5x5_reduce -> inception_4d/5x5_reduce_raw
I0224 07:26:58.752442   180 net.cpp:190] Setting up inception_4d/5x5_reduce
I0224 07:26:58.752449   180 net.cpp:197] Top shape: 1 32 32 64 (65536)
I0224 07:26:58.752454   180 net.cpp:205] Memory required for data: 690356224
I0224 07:26:58.752460   180 layer_factory.hpp:123] Creating layer inception_4d/5x5_reduce_BatchNorm
I0224 07:26:58.752466   180 net.cpp:140] Creating Layer inception_4d/5x5_reduce_BatchNorm
I0224 07:26:58.752470   180 net.cpp:481] inception_4d/5x5_reduce_BatchNorm <- inception_4d/5x5_reduce_raw
I0224 07:26:58.752475   180 net.cpp:455] inception_4d/5x5_reduce_BatchNorm -> inception_4d/5x5_reduce
I0224 07:26:58.753008   180 net.cpp:190] Setting up inception_4d/5x5_reduce_BatchNorm
I0224 07:26:58.753015   180 net.cpp:197] Top shape: 1 32 32 64 (65536)
I0224 07:26:58.753021   180 net.cpp:205] Memory required for data: 690618368
I0224 07:26:58.753036   180 layer_factory.hpp:123] Creating layer inception_4d/relu_5x5_reduce
I0224 07:26:58.753041   180 net.cpp:140] Creating Layer inception_4d/relu_5x5_reduce
I0224 07:26:58.753044   180 net.cpp:481] inception_4d/relu_5x5_reduce <- inception_4d/5x5_reduce
I0224 07:26:58.753048   180 net.cpp:442] inception_4d/relu_5x5_reduce -> inception_4d/5x5_reduce (in-place)
I0224 07:26:58.753054   180 net.cpp:190] Setting up inception_4d/relu_5x5_reduce
I0224 07:26:58.753058   180 net.cpp:197] Top shape: 1 32 32 64 (65536)
I0224 07:26:58.753062   180 net.cpp:205] Memory required for data: 690880512
I0224 07:26:58.753065   180 layer_factory.hpp:123] Creating layer inception_4d/5x5
I0224 07:26:58.753072   180 net.cpp:140] Creating Layer inception_4d/5x5
I0224 07:26:58.753075   180 net.cpp:481] inception_4d/5x5 <- inception_4d/5x5_reduce
I0224 07:26:58.753080   180 net.cpp:455] inception_4d/5x5 -> inception_4d/5x5_raw
I0224 07:26:58.753744   180 net.cpp:190] Setting up inception_4d/5x5
I0224 07:26:58.753752   180 net.cpp:197] Top shape: 1 64 32 64 (131072)
I0224 07:26:58.753772   180 net.cpp:205] Memory required for data: 691404800
I0224 07:26:58.753777   180 layer_factory.hpp:123] Creating layer inception_4d/5x5_BatchNorm
I0224 07:26:58.753784   180 net.cpp:140] Creating Layer inception_4d/5x5_BatchNorm
I0224 07:26:58.753788   180 net.cpp:481] inception_4d/5x5_BatchNorm <- inception_4d/5x5_raw
I0224 07:26:58.753794   180 net.cpp:455] inception_4d/5x5_BatchNorm -> inception_4d/5x5
I0224 07:26:58.754338   180 net.cpp:190] Setting up inception_4d/5x5_BatchNorm
I0224 07:26:58.754344   180 net.cpp:197] Top shape: 1 64 32 64 (131072)
I0224 07:26:58.754349   180 net.cpp:205] Memory required for data: 691929088
I0224 07:26:58.754356   180 layer_factory.hpp:123] Creating layer inception_4d/relu_5x5
I0224 07:26:58.754361   180 net.cpp:140] Creating Layer inception_4d/relu_5x5
I0224 07:26:58.754365   180 net.cpp:481] inception_4d/relu_5x5 <- inception_4d/5x5
I0224 07:26:58.754369   180 net.cpp:442] inception_4d/relu_5x5 -> inception_4d/5x5 (in-place)
I0224 07:26:58.754374   180 net.cpp:190] Setting up inception_4d/relu_5x5
I0224 07:26:58.754377   180 net.cpp:197] Top shape: 1 64 32 64 (131072)
I0224 07:26:58.754382   180 net.cpp:205] Memory required for data: 692453376
I0224 07:26:58.754385   180 layer_factory.hpp:123] Creating layer inception_4d/pool
I0224 07:26:58.754390   180 net.cpp:140] Creating Layer inception_4d/pool
I0224 07:26:58.754395   180 net.cpp:481] inception_4d/pool <- inception_4c/output_inception_4c/output_0_split_3
I0224 07:26:58.754398   180 net.cpp:455] inception_4d/pool -> inception_4d/pool
I0224 07:26:58.754427   180 net.cpp:190] Setting up inception_4d/pool
I0224 07:26:58.754431   180 net.cpp:197] Top shape: 1 512 32 64 (1048576)
I0224 07:26:58.754436   180 net.cpp:205] Memory required for data: 696647680
I0224 07:26:58.754438   180 layer_factory.hpp:123] Creating layer inception_4d/pool_proj
I0224 07:26:58.754444   180 net.cpp:140] Creating Layer inception_4d/pool_proj
I0224 07:26:58.754448   180 net.cpp:481] inception_4d/pool_proj <- inception_4d/pool
I0224 07:26:58.754453   180 net.cpp:455] inception_4d/pool_proj -> inception_4d/pool_proj_raw
I0224 07:26:58.754945   180 net.cpp:190] Setting up inception_4d/pool_proj
I0224 07:26:58.754952   180 net.cpp:197] Top shape: 1 64 32 64 (131072)
I0224 07:26:58.754956   180 net.cpp:205] Memory required for data: 697171968
I0224 07:26:58.754961   180 layer_factory.hpp:123] Creating layer inception_4d/pool_proj_BatchNorm
I0224 07:26:58.754968   180 net.cpp:140] Creating Layer inception_4d/pool_proj_BatchNorm
I0224 07:26:58.754972   180 net.cpp:481] inception_4d/pool_proj_BatchNorm <- inception_4d/pool_proj_raw
I0224 07:26:58.754977   180 net.cpp:455] inception_4d/pool_proj_BatchNorm -> inception_4d/pool_proj
I0224 07:26:58.755511   180 net.cpp:190] Setting up inception_4d/pool_proj_BatchNorm
I0224 07:26:58.755518   180 net.cpp:197] Top shape: 1 64 32 64 (131072)
I0224 07:26:58.755523   180 net.cpp:205] Memory required for data: 697696256
I0224 07:26:58.755530   180 layer_factory.hpp:123] Creating layer inception_4d/relu_pool_proj
I0224 07:26:58.755535   180 net.cpp:140] Creating Layer inception_4d/relu_pool_proj
I0224 07:26:58.755539   180 net.cpp:481] inception_4d/relu_pool_proj <- inception_4d/pool_proj
I0224 07:26:58.755543   180 net.cpp:442] inception_4d/relu_pool_proj -> inception_4d/pool_proj (in-place)
I0224 07:26:58.755549   180 net.cpp:190] Setting up inception_4d/relu_pool_proj
I0224 07:26:58.755553   180 net.cpp:197] Top shape: 1 64 32 64 (131072)
I0224 07:26:58.755556   180 net.cpp:205] Memory required for data: 698220544
I0224 07:26:58.755559   180 layer_factory.hpp:123] Creating layer inception_4d/output
I0224 07:26:58.755564   180 net.cpp:140] Creating Layer inception_4d/output
I0224 07:26:58.755568   180 net.cpp:481] inception_4d/output <- inception_4d/1x1
I0224 07:26:58.755571   180 net.cpp:481] inception_4d/output <- inception_4d/3x3
I0224 07:26:58.755575   180 net.cpp:481] inception_4d/output <- inception_4d/5x5
I0224 07:26:58.755578   180 net.cpp:481] inception_4d/output <- inception_4d/pool_proj
I0224 07:26:58.755582   180 net.cpp:455] inception_4d/output -> inception_4d/output
I0224 07:26:58.755601   180 net.cpp:190] Setting up inception_4d/output
I0224 07:26:58.755605   180 net.cpp:197] Top shape: 1 528 32 64 (1081344)
I0224 07:26:58.755609   180 net.cpp:205] Memory required for data: 702545920
I0224 07:26:58.755612   180 layer_factory.hpp:123] Creating layer inception_4d/output_inception_4d/output_0_split
I0224 07:26:58.755617   180 net.cpp:140] Creating Layer inception_4d/output_inception_4d/output_0_split
I0224 07:26:58.755621   180 net.cpp:481] inception_4d/output_inception_4d/output_0_split <- inception_4d/output
I0224 07:26:58.755625   180 net.cpp:455] inception_4d/output_inception_4d/output_0_split -> inception_4d/output_inception_4d/output_0_split_0
I0224 07:26:58.755631   180 net.cpp:455] inception_4d/output_inception_4d/output_0_split -> inception_4d/output_inception_4d/output_0_split_1
I0224 07:26:58.755636   180 net.cpp:455] inception_4d/output_inception_4d/output_0_split -> inception_4d/output_inception_4d/output_0_split_2
I0224 07:26:58.755640   180 net.cpp:455] inception_4d/output_inception_4d/output_0_split -> inception_4d/output_inception_4d/output_0_split_3
I0224 07:26:58.755684   180 net.cpp:190] Setting up inception_4d/output_inception_4d/output_0_split
I0224 07:26:58.755690   180 net.cpp:197] Top shape: 1 528 32 64 (1081344)
I0224 07:26:58.755694   180 net.cpp:197] Top shape: 1 528 32 64 (1081344)
I0224 07:26:58.755698   180 net.cpp:197] Top shape: 1 528 32 64 (1081344)
I0224 07:26:58.755702   180 net.cpp:197] Top shape: 1 528 32 64 (1081344)
I0224 07:26:58.755707   180 net.cpp:205] Memory required for data: 719847424
I0224 07:26:58.755709   180 layer_factory.hpp:123] Creating layer inception_4e/1x1
I0224 07:26:58.755717   180 net.cpp:140] Creating Layer inception_4e/1x1
I0224 07:26:58.755720   180 net.cpp:481] inception_4e/1x1 <- inception_4d/output_inception_4d/output_0_split_0
I0224 07:26:58.755725   180 net.cpp:455] inception_4e/1x1 -> inception_4e/1x1_raw
I0224 07:26:58.757711   180 net.cpp:190] Setting up inception_4e/1x1
I0224 07:26:58.757721   180 net.cpp:197] Top shape: 1 256 32 64 (524288)
I0224 07:26:58.757727   180 net.cpp:205] Memory required for data: 721944576
I0224 07:26:58.757733   180 layer_factory.hpp:123] Creating layer inception_4e/1x1_BatchNorm
I0224 07:26:58.757741   180 net.cpp:140] Creating Layer inception_4e/1x1_BatchNorm
I0224 07:26:58.757745   180 net.cpp:481] inception_4e/1x1_BatchNorm <- inception_4e/1x1_raw
I0224 07:26:58.757751   180 net.cpp:455] inception_4e/1x1_BatchNorm -> inception_4e/1x1
I0224 07:26:58.758214   180 net.cpp:190] Setting up inception_4e/1x1_BatchNorm
I0224 07:26:58.758221   180 net.cpp:197] Top shape: 1 256 32 64 (524288)
I0224 07:26:58.758226   180 net.cpp:205] Memory required for data: 724041728
I0224 07:26:58.758234   180 layer_factory.hpp:123] Creating layer inception_4e/relu_1x1
I0224 07:26:58.758239   180 net.cpp:140] Creating Layer inception_4e/relu_1x1
I0224 07:26:58.758242   180 net.cpp:481] inception_4e/relu_1x1 <- inception_4e/1x1
I0224 07:26:58.758247   180 net.cpp:442] inception_4e/relu_1x1 -> inception_4e/1x1 (in-place)
I0224 07:26:58.758253   180 net.cpp:190] Setting up inception_4e/relu_1x1
I0224 07:26:58.758256   180 net.cpp:197] Top shape: 1 256 32 64 (524288)
I0224 07:26:58.758260   180 net.cpp:205] Memory required for data: 726138880
I0224 07:26:58.758263   180 layer_factory.hpp:123] Creating layer inception_4e/3x3_reduce
I0224 07:26:58.758270   180 net.cpp:140] Creating Layer inception_4e/3x3_reduce
I0224 07:26:58.758273   180 net.cpp:481] inception_4e/3x3_reduce <- inception_4d/output_inception_4d/output_0_split_1
I0224 07:26:58.758278   180 net.cpp:455] inception_4e/3x3_reduce -> inception_4e/3x3_reduce_raw
I0224 07:26:58.759213   180 net.cpp:190] Setting up inception_4e/3x3_reduce
I0224 07:26:58.759222   180 net.cpp:197] Top shape: 1 160 32 64 (327680)
I0224 07:26:58.759225   180 net.cpp:205] Memory required for data: 727449600
I0224 07:26:58.759232   180 layer_factory.hpp:123] Creating layer inception_4e/3x3_reduce_BatchNorm
I0224 07:26:58.759238   180 net.cpp:140] Creating Layer inception_4e/3x3_reduce_BatchNorm
I0224 07:26:58.759241   180 net.cpp:481] inception_4e/3x3_reduce_BatchNorm <- inception_4e/3x3_reduce_raw
I0224 07:26:58.759246   180 net.cpp:455] inception_4e/3x3_reduce_BatchNorm -> inception_4e/3x3_reduce
I0224 07:26:58.759778   180 net.cpp:190] Setting up inception_4e/3x3_reduce_BatchNorm
I0224 07:26:58.759785   180 net.cpp:197] Top shape: 1 160 32 64 (327680)
I0224 07:26:58.759790   180 net.cpp:205] Memory required for data: 728760320
I0224 07:26:58.759797   180 layer_factory.hpp:123] Creating layer inception_4e/relu_3x3_reduce
I0224 07:26:58.759802   180 net.cpp:140] Creating Layer inception_4e/relu_3x3_reduce
I0224 07:26:58.759806   180 net.cpp:481] inception_4e/relu_3x3_reduce <- inception_4e/3x3_reduce
I0224 07:26:58.759810   180 net.cpp:442] inception_4e/relu_3x3_reduce -> inception_4e/3x3_reduce (in-place)
I0224 07:26:58.759816   180 net.cpp:190] Setting up inception_4e/relu_3x3_reduce
I0224 07:26:58.759819   180 net.cpp:197] Top shape: 1 160 32 64 (327680)
I0224 07:26:58.759824   180 net.cpp:205] Memory required for data: 730071040
I0224 07:26:58.759826   180 layer_factory.hpp:123] Creating layer inception_4e/3x3
I0224 07:26:58.759833   180 net.cpp:140] Creating Layer inception_4e/3x3
I0224 07:26:58.759836   180 net.cpp:481] inception_4e/3x3 <- inception_4e/3x3_reduce
I0224 07:26:58.759841   180 net.cpp:455] inception_4e/3x3 -> inception_4e/3x3_raw
I0224 07:26:58.765162   180 net.cpp:190] Setting up inception_4e/3x3
I0224 07:26:58.765173   180 net.cpp:197] Top shape: 1 320 32 64 (655360)
I0224 07:26:58.765179   180 net.cpp:205] Memory required for data: 732692480
I0224 07:26:58.765187   180 layer_factory.hpp:123] Creating layer inception_4e/3x3_BatchNorm
I0224 07:26:58.765193   180 net.cpp:140] Creating Layer inception_4e/3x3_BatchNorm
I0224 07:26:58.765198   180 net.cpp:481] inception_4e/3x3_BatchNorm <- inception_4e/3x3_raw
I0224 07:26:58.765203   180 net.cpp:455] inception_4e/3x3_BatchNorm -> inception_4e/3x3
I0224 07:26:58.765741   180 net.cpp:190] Setting up inception_4e/3x3_BatchNorm
I0224 07:26:58.765749   180 net.cpp:197] Top shape: 1 320 32 64 (655360)
I0224 07:26:58.765754   180 net.cpp:205] Memory required for data: 735313920
I0224 07:26:58.765763   180 layer_factory.hpp:123] Creating layer inception_4e/relu_3x3
I0224 07:26:58.765767   180 net.cpp:140] Creating Layer inception_4e/relu_3x3
I0224 07:26:58.765771   180 net.cpp:481] inception_4e/relu_3x3 <- inception_4e/3x3
I0224 07:26:58.765775   180 net.cpp:442] inception_4e/relu_3x3 -> inception_4e/3x3 (in-place)
I0224 07:26:58.765781   180 net.cpp:190] Setting up inception_4e/relu_3x3
I0224 07:26:58.765785   180 net.cpp:197] Top shape: 1 320 32 64 (655360)
I0224 07:26:58.765789   180 net.cpp:205] Memory required for data: 737935360
I0224 07:26:58.765792   180 layer_factory.hpp:123] Creating layer inception_4e/5x5_reduce
I0224 07:26:58.765799   180 net.cpp:140] Creating Layer inception_4e/5x5_reduce
I0224 07:26:58.765802   180 net.cpp:481] inception_4e/5x5_reduce <- inception_4d/output_inception_4d/output_0_split_2
I0224 07:26:58.765807   180 net.cpp:455] inception_4e/5x5_reduce -> inception_4e/5x5_reduce_raw
I0224 07:26:58.766173   180 net.cpp:190] Setting up inception_4e/5x5_reduce
I0224 07:26:58.766180   180 net.cpp:197] Top shape: 1 32 32 64 (65536)
I0224 07:26:58.766185   180 net.cpp:205] Memory required for data: 738197504
I0224 07:26:58.766191   180 layer_factory.hpp:123] Creating layer inception_4e/5x5_reduce_BatchNorm
I0224 07:26:58.766198   180 net.cpp:140] Creating Layer inception_4e/5x5_reduce_BatchNorm
I0224 07:26:58.766201   180 net.cpp:481] inception_4e/5x5_reduce_BatchNorm <- inception_4e/5x5_reduce_raw
I0224 07:26:58.766207   180 net.cpp:455] inception_4e/5x5_reduce_BatchNorm -> inception_4e/5x5_reduce
I0224 07:26:58.766754   180 net.cpp:190] Setting up inception_4e/5x5_reduce_BatchNorm
I0224 07:26:58.766762   180 net.cpp:197] Top shape: 1 32 32 64 (65536)
I0224 07:26:58.766767   180 net.cpp:205] Memory required for data: 738459648
I0224 07:26:58.766774   180 layer_factory.hpp:123] Creating layer inception_4e/relu_5x5_reduce
I0224 07:26:58.766779   180 net.cpp:140] Creating Layer inception_4e/relu_5x5_reduce
I0224 07:26:58.766783   180 net.cpp:481] inception_4e/relu_5x5_reduce <- inception_4e/5x5_reduce
I0224 07:26:58.766788   180 net.cpp:442] inception_4e/relu_5x5_reduce -> inception_4e/5x5_reduce (in-place)
I0224 07:26:58.766794   180 net.cpp:190] Setting up inception_4e/relu_5x5_reduce
I0224 07:26:58.766798   180 net.cpp:197] Top shape: 1 32 32 64 (65536)
I0224 07:26:58.766801   180 net.cpp:205] Memory required for data: 738721792
I0224 07:26:58.766804   180 layer_factory.hpp:123] Creating layer inception_4e/5x5
I0224 07:26:58.766811   180 net.cpp:140] Creating Layer inception_4e/5x5
I0224 07:26:58.766814   180 net.cpp:481] inception_4e/5x5 <- inception_4e/5x5_reduce
I0224 07:26:58.766819   180 net.cpp:455] inception_4e/5x5 -> inception_4e/5x5_raw
I0224 07:26:58.768517   180 net.cpp:190] Setting up inception_4e/5x5
I0224 07:26:58.768527   180 net.cpp:197] Top shape: 1 128 32 64 (262144)
I0224 07:26:58.768548   180 net.cpp:205] Memory required for data: 739770368
I0224 07:26:58.768553   180 layer_factory.hpp:123] Creating layer inception_4e/5x5_BatchNorm
I0224 07:26:58.768561   180 net.cpp:140] Creating Layer inception_4e/5x5_BatchNorm
I0224 07:26:58.768568   180 net.cpp:481] inception_4e/5x5_BatchNorm <- inception_4e/5x5_raw
I0224 07:26:58.768573   180 net.cpp:455] inception_4e/5x5_BatchNorm -> inception_4e/5x5
I0224 07:26:58.769030   180 net.cpp:190] Setting up inception_4e/5x5_BatchNorm
I0224 07:26:58.769037   180 net.cpp:197] Top shape: 1 128 32 64 (262144)
I0224 07:26:58.769042   180 net.cpp:205] Memory required for data: 740818944
I0224 07:26:58.769050   180 layer_factory.hpp:123] Creating layer inception_4e/relu_5x5
I0224 07:26:58.769055   180 net.cpp:140] Creating Layer inception_4e/relu_5x5
I0224 07:26:58.769059   180 net.cpp:481] inception_4e/relu_5x5 <- inception_4e/5x5
I0224 07:26:58.769063   180 net.cpp:442] inception_4e/relu_5x5 -> inception_4e/5x5 (in-place)
I0224 07:26:58.769069   180 net.cpp:190] Setting up inception_4e/relu_5x5
I0224 07:26:58.769073   180 net.cpp:197] Top shape: 1 128 32 64 (262144)
I0224 07:26:58.769076   180 net.cpp:205] Memory required for data: 741867520
I0224 07:26:58.769079   180 layer_factory.hpp:123] Creating layer inception_4e/pool
I0224 07:26:58.769085   180 net.cpp:140] Creating Layer inception_4e/pool
I0224 07:26:58.769088   180 net.cpp:481] inception_4e/pool <- inception_4d/output_inception_4d/output_0_split_3
I0224 07:26:58.769093   180 net.cpp:455] inception_4e/pool -> inception_4e/pool
I0224 07:26:58.769122   180 net.cpp:190] Setting up inception_4e/pool
I0224 07:26:58.769126   180 net.cpp:197] Top shape: 1 528 32 64 (1081344)
I0224 07:26:58.769131   180 net.cpp:205] Memory required for data: 746192896
I0224 07:26:58.769134   180 layer_factory.hpp:123] Creating layer inception_4e/pool_proj
I0224 07:26:58.769141   180 net.cpp:140] Creating Layer inception_4e/pool_proj
I0224 07:26:58.769145   180 net.cpp:481] inception_4e/pool_proj <- inception_4e/pool
I0224 07:26:58.769150   180 net.cpp:455] inception_4e/pool_proj -> inception_4e/pool_proj_raw
I0224 07:26:58.769953   180 net.cpp:190] Setting up inception_4e/pool_proj
I0224 07:26:58.769960   180 net.cpp:197] Top shape: 1 128 32 64 (262144)
I0224 07:26:58.769980   180 net.cpp:205] Memory required for data: 747241472
I0224 07:26:58.769985   180 layer_factory.hpp:123] Creating layer inception_4e/pool_proj_BatchNorm
I0224 07:26:58.769992   180 net.cpp:140] Creating Layer inception_4e/pool_proj_BatchNorm
I0224 07:26:58.769996   180 net.cpp:481] inception_4e/pool_proj_BatchNorm <- inception_4e/pool_proj_raw
I0224 07:26:58.770004   180 net.cpp:455] inception_4e/pool_proj_BatchNorm -> inception_4e/pool_proj
I0224 07:26:58.770471   180 net.cpp:190] Setting up inception_4e/pool_proj_BatchNorm
I0224 07:26:58.770478   180 net.cpp:197] Top shape: 1 128 32 64 (262144)
I0224 07:26:58.770483   180 net.cpp:205] Memory required for data: 748290048
I0224 07:26:58.770490   180 layer_factory.hpp:123] Creating layer inception_4e/relu_pool_proj
I0224 07:26:58.770495   180 net.cpp:140] Creating Layer inception_4e/relu_pool_proj
I0224 07:26:58.770499   180 net.cpp:481] inception_4e/relu_pool_proj <- inception_4e/pool_proj
I0224 07:26:58.770504   180 net.cpp:442] inception_4e/relu_pool_proj -> inception_4e/pool_proj (in-place)
I0224 07:26:58.770509   180 net.cpp:190] Setting up inception_4e/relu_pool_proj
I0224 07:26:58.770512   180 net.cpp:197] Top shape: 1 128 32 64 (262144)
I0224 07:26:58.770516   180 net.cpp:205] Memory required for data: 749338624
I0224 07:26:58.770520   180 layer_factory.hpp:123] Creating layer inception_4e/output
I0224 07:26:58.770525   180 net.cpp:140] Creating Layer inception_4e/output
I0224 07:26:58.770529   180 net.cpp:481] inception_4e/output <- inception_4e/1x1
I0224 07:26:58.770531   180 net.cpp:481] inception_4e/output <- inception_4e/3x3
I0224 07:26:58.770535   180 net.cpp:481] inception_4e/output <- inception_4e/5x5
I0224 07:26:58.770539   180 net.cpp:481] inception_4e/output <- inception_4e/pool_proj
I0224 07:26:58.770542   180 net.cpp:455] inception_4e/output -> inception_4e/output
I0224 07:26:58.770561   180 net.cpp:190] Setting up inception_4e/output
I0224 07:26:58.770565   180 net.cpp:197] Top shape: 1 832 32 64 (1703936)
I0224 07:26:58.770570   180 net.cpp:205] Memory required for data: 756154368
I0224 07:26:58.770572   180 layer_factory.hpp:123] Creating layer inception_4e/output_inception_4e/output_0_split
I0224 07:26:58.770577   180 net.cpp:140] Creating Layer inception_4e/output_inception_4e/output_0_split
I0224 07:26:58.770581   180 net.cpp:481] inception_4e/output_inception_4e/output_0_split <- inception_4e/output
I0224 07:26:58.770584   180 net.cpp:455] inception_4e/output_inception_4e/output_0_split -> inception_4e/output_inception_4e/output_0_split_0
I0224 07:26:58.770591   180 net.cpp:455] inception_4e/output_inception_4e/output_0_split -> inception_4e/output_inception_4e/output_0_split_1
I0224 07:26:58.770615   180 net.cpp:190] Setting up inception_4e/output_inception_4e/output_0_split
I0224 07:26:58.770622   180 net.cpp:197] Top shape: 1 832 32 64 (1703936)
I0224 07:26:58.770625   180 net.cpp:197] Top shape: 1 832 32 64 (1703936)
I0224 07:26:58.770629   180 net.cpp:205] Memory required for data: 769785856
I0224 07:26:58.770632   180 layer_factory.hpp:123] Creating layer pool4/3x3_s2
I0224 07:26:58.770638   180 net.cpp:140] Creating Layer pool4/3x3_s2
I0224 07:26:58.770642   180 net.cpp:481] pool4/3x3_s2 <- inception_4e/output_inception_4e/output_0_split_0
I0224 07:26:58.770646   180 net.cpp:455] pool4/3x3_s2 -> pool4/3x3_s2
I0224 07:26:58.770673   180 net.cpp:190] Setting up pool4/3x3_s2
I0224 07:26:58.770678   180 net.cpp:197] Top shape: 1 832 16 32 (425984)
I0224 07:26:58.770682   180 net.cpp:205] Memory required for data: 771489792
I0224 07:26:58.770685   180 layer_factory.hpp:123] Creating layer pool4/3x3_s2_pool4/3x3_s2_0_split
I0224 07:26:58.770690   180 net.cpp:140] Creating Layer pool4/3x3_s2_pool4/3x3_s2_0_split
I0224 07:26:58.770694   180 net.cpp:481] pool4/3x3_s2_pool4/3x3_s2_0_split <- pool4/3x3_s2
I0224 07:26:58.770699   180 net.cpp:455] pool4/3x3_s2_pool4/3x3_s2_0_split -> pool4/3x3_s2_pool4/3x3_s2_0_split_0
I0224 07:26:58.770704   180 net.cpp:455] pool4/3x3_s2_pool4/3x3_s2_0_split -> pool4/3x3_s2_pool4/3x3_s2_0_split_1
I0224 07:26:58.770709   180 net.cpp:455] pool4/3x3_s2_pool4/3x3_s2_0_split -> pool4/3x3_s2_pool4/3x3_s2_0_split_2
I0224 07:26:58.770714   180 net.cpp:455] pool4/3x3_s2_pool4/3x3_s2_0_split -> pool4/3x3_s2_pool4/3x3_s2_0_split_3
I0224 07:26:58.770757   180 net.cpp:190] Setting up pool4/3x3_s2_pool4/3x3_s2_0_split
I0224 07:26:58.770762   180 net.cpp:197] Top shape: 1 832 16 32 (425984)
I0224 07:26:58.770767   180 net.cpp:197] Top shape: 1 832 16 32 (425984)
I0224 07:26:58.770771   180 net.cpp:197] Top shape: 1 832 16 32 (425984)
I0224 07:26:58.770776   180 net.cpp:197] Top shape: 1 832 16 32 (425984)
I0224 07:26:58.770778   180 net.cpp:205] Memory required for data: 778305536
I0224 07:26:58.770782   180 layer_factory.hpp:123] Creating layer inception_5a/1x1
I0224 07:26:58.770788   180 net.cpp:140] Creating Layer inception_5a/1x1
I0224 07:26:58.770792   180 net.cpp:481] inception_5a/1x1 <- pool4/3x3_s2_pool4/3x3_s2_0_split_0
I0224 07:26:58.770798   180 net.cpp:455] inception_5a/1x1 -> inception_5a/1x1_raw
I0224 07:26:58.778602   180 net.cpp:190] Setting up inception_5a/1x1
I0224 07:26:58.778614   180 net.cpp:197] Top shape: 1 256 16 32 (131072)
I0224 07:26:58.778620   180 net.cpp:205] Memory required for data: 778829824
I0224 07:26:58.778625   180 layer_factory.hpp:123] Creating layer inception_5a/1x1_BatchNorm
I0224 07:26:58.778633   180 net.cpp:140] Creating Layer inception_5a/1x1_BatchNorm
I0224 07:26:58.778638   180 net.cpp:481] inception_5a/1x1_BatchNorm <- inception_5a/1x1_raw
I0224 07:26:58.778643   180 net.cpp:455] inception_5a/1x1_BatchNorm -> inception_5a/1x1
I0224 07:26:58.779095   180 net.cpp:190] Setting up inception_5a/1x1_BatchNorm
I0224 07:26:58.779103   180 net.cpp:197] Top shape: 1 256 16 32 (131072)
I0224 07:26:58.779108   180 net.cpp:205] Memory required for data: 779354112
I0224 07:26:58.779115   180 layer_factory.hpp:123] Creating layer inception_5a/relu_1x1
I0224 07:26:58.779120   180 net.cpp:140] Creating Layer inception_5a/relu_1x1
I0224 07:26:58.779124   180 net.cpp:481] inception_5a/relu_1x1 <- inception_5a/1x1
I0224 07:26:58.779129   180 net.cpp:442] inception_5a/relu_1x1 -> inception_5a/1x1 (in-place)
I0224 07:26:58.779134   180 net.cpp:190] Setting up inception_5a/relu_1x1
I0224 07:26:58.779137   180 net.cpp:197] Top shape: 1 256 16 32 (131072)
I0224 07:26:58.779141   180 net.cpp:205] Memory required for data: 779878400
I0224 07:26:58.779145   180 layer_factory.hpp:123] Creating layer inception_5a/3x3_reduce
I0224 07:26:58.779153   180 net.cpp:140] Creating Layer inception_5a/3x3_reduce
I0224 07:26:58.779156   180 net.cpp:481] inception_5a/3x3_reduce <- pool4/3x3_s2_pool4/3x3_s2_0_split_1
I0224 07:26:58.779161   180 net.cpp:455] inception_5a/3x3_reduce -> inception_5a/3x3_reduce_raw
I0224 07:26:58.780481   180 net.cpp:190] Setting up inception_5a/3x3_reduce
I0224 07:26:58.780488   180 net.cpp:197] Top shape: 1 160 16 32 (81920)
I0224 07:26:58.780508   180 net.cpp:205] Memory required for data: 780206080
I0224 07:26:58.780512   180 layer_factory.hpp:123] Creating layer inception_5a/3x3_reduce_BatchNorm
I0224 07:26:58.780519   180 net.cpp:140] Creating Layer inception_5a/3x3_reduce_BatchNorm
I0224 07:26:58.780522   180 net.cpp:481] inception_5a/3x3_reduce_BatchNorm <- inception_5a/3x3_reduce_raw
I0224 07:26:58.780527   180 net.cpp:455] inception_5a/3x3_reduce_BatchNorm -> inception_5a/3x3_reduce
I0224 07:26:58.781076   180 net.cpp:190] Setting up inception_5a/3x3_reduce_BatchNorm
I0224 07:26:58.781083   180 net.cpp:197] Top shape: 1 160 16 32 (81920)
I0224 07:26:58.781088   180 net.cpp:205] Memory required for data: 780533760
I0224 07:26:58.781096   180 layer_factory.hpp:123] Creating layer inception_5a/relu_3x3_reduce
I0224 07:26:58.781100   180 net.cpp:140] Creating Layer inception_5a/relu_3x3_reduce
I0224 07:26:58.781105   180 net.cpp:481] inception_5a/relu_3x3_reduce <- inception_5a/3x3_reduce
I0224 07:26:58.781109   180 net.cpp:442] inception_5a/relu_3x3_reduce -> inception_5a/3x3_reduce (in-place)
I0224 07:26:58.781116   180 net.cpp:190] Setting up inception_5a/relu_3x3_reduce
I0224 07:26:58.781118   180 net.cpp:197] Top shape: 1 160 16 32 (81920)
I0224 07:26:58.781122   180 net.cpp:205] Memory required for data: 780861440
I0224 07:26:58.781126   180 layer_factory.hpp:123] Creating layer inception_5a/3x3
I0224 07:26:58.781132   180 net.cpp:140] Creating Layer inception_5a/3x3
I0224 07:26:58.781136   180 net.cpp:481] inception_5a/3x3 <- inception_5a/3x3_reduce
I0224 07:26:58.781141   180 net.cpp:455] inception_5a/3x3 -> inception_5a/3x3_raw
I0224 07:26:58.787135   180 net.cpp:190] Setting up inception_5a/3x3
I0224 07:26:58.787147   180 net.cpp:197] Top shape: 1 320 16 32 (163840)
I0224 07:26:58.787153   180 net.cpp:205] Memory required for data: 781516800
I0224 07:26:58.787160   180 layer_factory.hpp:123] Creating layer inception_5a/3x3_BatchNorm
I0224 07:26:58.787169   180 net.cpp:140] Creating Layer inception_5a/3x3_BatchNorm
I0224 07:26:58.787174   180 net.cpp:481] inception_5a/3x3_BatchNorm <- inception_5a/3x3_raw
I0224 07:26:58.787180   180 net.cpp:455] inception_5a/3x3_BatchNorm -> inception_5a/3x3
I0224 07:26:58.787801   180 net.cpp:190] Setting up inception_5a/3x3_BatchNorm
I0224 07:26:58.787808   180 net.cpp:197] Top shape: 1 320 16 32 (163840)
I0224 07:26:58.787814   180 net.cpp:205] Memory required for data: 782172160
I0224 07:26:58.787822   180 layer_factory.hpp:123] Creating layer inception_5a/relu_3x3
I0224 07:26:58.787828   180 net.cpp:140] Creating Layer inception_5a/relu_3x3
I0224 07:26:58.787832   180 net.cpp:481] inception_5a/relu_3x3 <- inception_5a/3x3
I0224 07:26:58.787837   180 net.cpp:442] inception_5a/relu_3x3 -> inception_5a/3x3 (in-place)
I0224 07:26:58.787844   180 net.cpp:190] Setting up inception_5a/relu_3x3
I0224 07:26:58.787847   180 net.cpp:197] Top shape: 1 320 16 32 (163840)
I0224 07:26:58.787853   180 net.cpp:205] Memory required for data: 782827520
I0224 07:26:58.787855   180 layer_factory.hpp:123] Creating layer inception_5a/5x5_reduce
I0224 07:26:58.787863   180 net.cpp:140] Creating Layer inception_5a/5x5_reduce
I0224 07:26:58.787868   180 net.cpp:481] inception_5a/5x5_reduce <- pool4/3x3_s2_pool4/3x3_s2_0_split_2
I0224 07:26:58.787873   180 net.cpp:455] inception_5a/5x5_reduce -> inception_5a/5x5_reduce_raw
I0224 07:26:58.788384   180 net.cpp:190] Setting up inception_5a/5x5_reduce
I0224 07:26:58.788393   180 net.cpp:197] Top shape: 1 32 16 32 (16384)
I0224 07:26:58.788398   180 net.cpp:205] Memory required for data: 782893056
I0224 07:26:58.788403   180 layer_factory.hpp:123] Creating layer inception_5a/5x5_reduce_BatchNorm
I0224 07:26:58.788411   180 net.cpp:140] Creating Layer inception_5a/5x5_reduce_BatchNorm
I0224 07:26:58.788415   180 net.cpp:481] inception_5a/5x5_reduce_BatchNorm <- inception_5a/5x5_reduce_raw
I0224 07:26:58.788421   180 net.cpp:455] inception_5a/5x5_reduce_BatchNorm -> inception_5a/5x5_reduce
I0224 07:26:58.789026   180 net.cpp:190] Setting up inception_5a/5x5_reduce_BatchNorm
I0224 07:26:58.789034   180 net.cpp:197] Top shape: 1 32 16 32 (16384)
I0224 07:26:58.789041   180 net.cpp:205] Memory required for data: 782958592
I0224 07:26:58.789048   180 layer_factory.hpp:123] Creating layer inception_5a/relu_5x5_reduce
I0224 07:26:58.789053   180 net.cpp:140] Creating Layer inception_5a/relu_5x5_reduce
I0224 07:26:58.789058   180 net.cpp:481] inception_5a/relu_5x5_reduce <- inception_5a/5x5_reduce
I0224 07:26:58.789063   180 net.cpp:442] inception_5a/relu_5x5_reduce -> inception_5a/5x5_reduce (in-place)
I0224 07:26:58.789069   180 net.cpp:190] Setting up inception_5a/relu_5x5_reduce
I0224 07:26:58.789073   180 net.cpp:197] Top shape: 1 32 16 32 (16384)
I0224 07:26:58.789077   180 net.cpp:205] Memory required for data: 783024128
I0224 07:26:58.789081   180 layer_factory.hpp:123] Creating layer inception_5a/5x5
I0224 07:26:58.789088   180 net.cpp:140] Creating Layer inception_5a/5x5
I0224 07:26:58.789093   180 net.cpp:481] inception_5a/5x5 <- inception_5a/5x5_reduce
I0224 07:26:58.789098   180 net.cpp:455] inception_5a/5x5 -> inception_5a/5x5_raw
I0224 07:26:58.791009   180 net.cpp:190] Setting up inception_5a/5x5
I0224 07:26:58.791020   180 net.cpp:197] Top shape: 1 128 16 32 (65536)
I0224 07:26:58.791026   180 net.cpp:205] Memory required for data: 783286272
I0224 07:26:58.791033   180 layer_factory.hpp:123] Creating layer inception_5a/5x5_BatchNorm
I0224 07:26:58.791041   180 net.cpp:140] Creating Layer inception_5a/5x5_BatchNorm
I0224 07:26:58.791046   180 net.cpp:481] inception_5a/5x5_BatchNorm <- inception_5a/5x5_raw
I0224 07:26:58.791052   180 net.cpp:455] inception_5a/5x5_BatchNorm -> inception_5a/5x5
I0224 07:26:58.791570   180 net.cpp:190] Setting up inception_5a/5x5_BatchNorm
I0224 07:26:58.791579   180 net.cpp:197] Top shape: 1 128 16 32 (65536)
I0224 07:26:58.791584   180 net.cpp:205] Memory required for data: 783548416
I0224 07:26:58.791592   180 layer_factory.hpp:123] Creating layer inception_5a/relu_5x5
I0224 07:26:58.791597   180 net.cpp:140] Creating Layer inception_5a/relu_5x5
I0224 07:26:58.791601   180 net.cpp:481] inception_5a/relu_5x5 <- inception_5a/5x5
I0224 07:26:58.791606   180 net.cpp:442] inception_5a/relu_5x5 -> inception_5a/5x5 (in-place)
I0224 07:26:58.791613   180 net.cpp:190] Setting up inception_5a/relu_5x5
I0224 07:26:58.791616   180 net.cpp:197] Top shape: 1 128 16 32 (65536)
I0224 07:26:58.791621   180 net.cpp:205] Memory required for data: 783810560
I0224 07:26:58.791625   180 layer_factory.hpp:123] Creating layer inception_5a/pool
I0224 07:26:58.791630   180 net.cpp:140] Creating Layer inception_5a/pool
I0224 07:26:58.791635   180 net.cpp:481] inception_5a/pool <- pool4/3x3_s2_pool4/3x3_s2_0_split_3
I0224 07:26:58.791640   180 net.cpp:455] inception_5a/pool -> inception_5a/pool
I0224 07:26:58.791672   180 net.cpp:190] Setting up inception_5a/pool
I0224 07:26:58.791678   180 net.cpp:197] Top shape: 1 832 16 32 (425984)
I0224 07:26:58.791683   180 net.cpp:205] Memory required for data: 785514496
I0224 07:26:58.791687   180 layer_factory.hpp:123] Creating layer inception_5a/pool_proj
I0224 07:26:58.791694   180 net.cpp:140] Creating Layer inception_5a/pool_proj
I0224 07:26:58.791698   180 net.cpp:481] inception_5a/pool_proj <- inception_5a/pool
I0224 07:26:58.791704   180 net.cpp:455] inception_5a/pool_proj -> inception_5a/pool_proj_raw
I0224 07:26:58.792969   180 net.cpp:190] Setting up inception_5a/pool_proj
I0224 07:26:58.792977   180 net.cpp:197] Top shape: 1 128 16 32 (65536)
I0224 07:26:58.792982   180 net.cpp:205] Memory required for data: 785776640
I0224 07:26:58.792989   180 layer_factory.hpp:123] Creating layer inception_5a/pool_proj_BatchNorm
I0224 07:26:58.792996   180 net.cpp:140] Creating Layer inception_5a/pool_proj_BatchNorm
I0224 07:26:58.793000   180 net.cpp:481] inception_5a/pool_proj_BatchNorm <- inception_5a/pool_proj_raw
I0224 07:26:58.793006   180 net.cpp:455] inception_5a/pool_proj_BatchNorm -> inception_5a/pool_proj
I0224 07:26:58.793542   180 net.cpp:190] Setting up inception_5a/pool_proj_BatchNorm
I0224 07:26:58.793550   180 net.cpp:197] Top shape: 1 128 16 32 (65536)
I0224 07:26:58.793555   180 net.cpp:205] Memory required for data: 786038784
I0224 07:26:58.793562   180 layer_factory.hpp:123] Creating layer inception_5a/relu_pool_proj
I0224 07:26:58.793567   180 net.cpp:140] Creating Layer inception_5a/relu_pool_proj
I0224 07:26:58.793571   180 net.cpp:481] inception_5a/relu_pool_proj <- inception_5a/pool_proj
I0224 07:26:58.793576   180 net.cpp:442] inception_5a/relu_pool_proj -> inception_5a/pool_proj (in-place)
I0224 07:26:58.793582   180 net.cpp:190] Setting up inception_5a/relu_pool_proj
I0224 07:26:58.793586   180 net.cpp:197] Top shape: 1 128 16 32 (65536)
I0224 07:26:58.793589   180 net.cpp:205] Memory required for data: 786300928
I0224 07:26:58.793592   180 layer_factory.hpp:123] Creating layer inception_5a/output
I0224 07:26:58.793597   180 net.cpp:140] Creating Layer inception_5a/output
I0224 07:26:58.793601   180 net.cpp:481] inception_5a/output <- inception_5a/1x1
I0224 07:26:58.793604   180 net.cpp:481] inception_5a/output <- inception_5a/3x3
I0224 07:26:58.793607   180 net.cpp:481] inception_5a/output <- inception_5a/5x5
I0224 07:26:58.793610   180 net.cpp:481] inception_5a/output <- inception_5a/pool_proj
I0224 07:26:58.793615   180 net.cpp:455] inception_5a/output -> inception_5a/output
I0224 07:26:58.793634   180 net.cpp:190] Setting up inception_5a/output
I0224 07:26:58.793638   180 net.cpp:197] Top shape: 1 832 16 32 (425984)
I0224 07:26:58.793642   180 net.cpp:205] Memory required for data: 788004864
I0224 07:26:58.793645   180 layer_factory.hpp:123] Creating layer inception_5a/output_inception_5a/output_0_split
I0224 07:26:58.793650   180 net.cpp:140] Creating Layer inception_5a/output_inception_5a/output_0_split
I0224 07:26:58.793653   180 net.cpp:481] inception_5a/output_inception_5a/output_0_split <- inception_5a/output
I0224 07:26:58.793658   180 net.cpp:455] inception_5a/output_inception_5a/output_0_split -> inception_5a/output_inception_5a/output_0_split_0
I0224 07:26:58.793663   180 net.cpp:455] inception_5a/output_inception_5a/output_0_split -> inception_5a/output_inception_5a/output_0_split_1
I0224 07:26:58.793668   180 net.cpp:455] inception_5a/output_inception_5a/output_0_split -> inception_5a/output_inception_5a/output_0_split_2
I0224 07:26:58.793673   180 net.cpp:455] inception_5a/output_inception_5a/output_0_split -> inception_5a/output_inception_5a/output_0_split_3
I0224 07:26:58.793718   180 net.cpp:190] Setting up inception_5a/output_inception_5a/output_0_split
I0224 07:26:58.793725   180 net.cpp:197] Top shape: 1 832 16 32 (425984)
I0224 07:26:58.793728   180 net.cpp:197] Top shape: 1 832 16 32 (425984)
I0224 07:26:58.793732   180 net.cpp:197] Top shape: 1 832 16 32 (425984)
I0224 07:26:58.793736   180 net.cpp:197] Top shape: 1 832 16 32 (425984)
I0224 07:26:58.793741   180 net.cpp:205] Memory required for data: 794820608
I0224 07:26:58.793745   180 layer_factory.hpp:123] Creating layer inception_5b/1x1
I0224 07:26:58.793751   180 net.cpp:140] Creating Layer inception_5b/1x1
I0224 07:26:58.793754   180 net.cpp:481] inception_5b/1x1 <- inception_5a/output_inception_5a/output_0_split_0
I0224 07:26:58.793759   180 net.cpp:455] inception_5b/1x1 -> inception_5b/1x1_raw
I0224 07:26:58.797889   180 net.cpp:190] Setting up inception_5b/1x1
I0224 07:26:58.797900   180 net.cpp:197] Top shape: 1 384 16 32 (196608)
I0224 07:26:58.797906   180 net.cpp:205] Memory required for data: 795607040
I0224 07:26:58.797912   180 layer_factory.hpp:123] Creating layer inception_5b/1x1_BatchNorm
I0224 07:26:58.797920   180 net.cpp:140] Creating Layer inception_5b/1x1_BatchNorm
I0224 07:26:58.797924   180 net.cpp:481] inception_5b/1x1_BatchNorm <- inception_5b/1x1_raw
I0224 07:26:58.797930   180 net.cpp:455] inception_5b/1x1_BatchNorm -> inception_5b/1x1
I0224 07:26:58.798403   180 net.cpp:190] Setting up inception_5b/1x1_BatchNorm
I0224 07:26:58.798410   180 net.cpp:197] Top shape: 1 384 16 32 (196608)
I0224 07:26:58.798415   180 net.cpp:205] Memory required for data: 796393472
I0224 07:26:58.798422   180 layer_factory.hpp:123] Creating layer inception_5b/relu_1x1
I0224 07:26:58.798429   180 net.cpp:140] Creating Layer inception_5b/relu_1x1
I0224 07:26:58.798431   180 net.cpp:481] inception_5b/relu_1x1 <- inception_5b/1x1
I0224 07:26:58.798436   180 net.cpp:442] inception_5b/relu_1x1 -> inception_5b/1x1 (in-place)
I0224 07:26:58.798442   180 net.cpp:190] Setting up inception_5b/relu_1x1
I0224 07:26:58.798445   180 net.cpp:197] Top shape: 1 384 16 32 (196608)
I0224 07:26:58.798449   180 net.cpp:205] Memory required for data: 797179904
I0224 07:26:58.798452   180 layer_factory.hpp:123] Creating layer inception_5b/3x3_reduce
I0224 07:26:58.798460   180 net.cpp:140] Creating Layer inception_5b/3x3_reduce
I0224 07:26:58.798463   180 net.cpp:481] inception_5b/3x3_reduce <- inception_5a/output_inception_5a/output_0_split_1
I0224 07:26:58.798468   180 net.cpp:455] inception_5b/3x3_reduce -> inception_5b/3x3_reduce_raw
I0224 07:26:58.800038   180 net.cpp:190] Setting up inception_5b/3x3_reduce
I0224 07:26:58.800045   180 net.cpp:197] Top shape: 1 192 16 32 (98304)
I0224 07:26:58.800050   180 net.cpp:205] Memory required for data: 797573120
I0224 07:26:58.800055   180 layer_factory.hpp:123] Creating layer inception_5b/3x3_reduce_BatchNorm
I0224 07:26:58.800062   180 net.cpp:140] Creating Layer inception_5b/3x3_reduce_BatchNorm
I0224 07:26:58.800066   180 net.cpp:481] inception_5b/3x3_reduce_BatchNorm <- inception_5b/3x3_reduce_raw
I0224 07:26:58.800071   180 net.cpp:455] inception_5b/3x3_reduce_BatchNorm -> inception_5b/3x3_reduce
I0224 07:26:58.800618   180 net.cpp:190] Setting up inception_5b/3x3_reduce_BatchNorm
I0224 07:26:58.800626   180 net.cpp:197] Top shape: 1 192 16 32 (98304)
I0224 07:26:58.800631   180 net.cpp:205] Memory required for data: 797966336
I0224 07:26:58.800637   180 layer_factory.hpp:123] Creating layer inception_5b/relu_3x3_reduce
I0224 07:26:58.800643   180 net.cpp:140] Creating Layer inception_5b/relu_3x3_reduce
I0224 07:26:58.800647   180 net.cpp:481] inception_5b/relu_3x3_reduce <- inception_5b/3x3_reduce
I0224 07:26:58.800652   180 net.cpp:442] inception_5b/relu_3x3_reduce -> inception_5b/3x3_reduce (in-place)
I0224 07:26:58.800657   180 net.cpp:190] Setting up inception_5b/relu_3x3_reduce
I0224 07:26:58.800660   180 net.cpp:197] Top shape: 1 192 16 32 (98304)
I0224 07:26:58.800664   180 net.cpp:205] Memory required for data: 798359552
I0224 07:26:58.800668   180 layer_factory.hpp:123] Creating layer inception_5b/3x3
I0224 07:26:58.800674   180 net.cpp:140] Creating Layer inception_5b/3x3
I0224 07:26:58.800678   180 net.cpp:481] inception_5b/3x3 <- inception_5b/3x3_reduce
I0224 07:26:58.800683   180 net.cpp:455] inception_5b/3x3 -> inception_5b/3x3_raw
I0224 07:26:58.808049   180 net.cpp:190] Setting up inception_5b/3x3
I0224 07:26:58.808059   180 net.cpp:197] Top shape: 1 384 16 32 (196608)
I0224 07:26:58.808080   180 net.cpp:205] Memory required for data: 799145984
I0224 07:26:58.808086   180 layer_factory.hpp:123] Creating layer inception_5b/3x3_BatchNorm
I0224 07:26:58.808094   180 net.cpp:140] Creating Layer inception_5b/3x3_BatchNorm
I0224 07:26:58.808099   180 net.cpp:481] inception_5b/3x3_BatchNorm <- inception_5b/3x3_raw
I0224 07:26:58.808104   180 net.cpp:455] inception_5b/3x3_BatchNorm -> inception_5b/3x3
I0224 07:26:58.808588   180 net.cpp:190] Setting up inception_5b/3x3_BatchNorm
I0224 07:26:58.808595   180 net.cpp:197] Top shape: 1 384 16 32 (196608)
I0224 07:26:58.808600   180 net.cpp:205] Memory required for data: 799932416
I0224 07:26:58.808607   180 layer_factory.hpp:123] Creating layer inception_5b/relu_3x3
I0224 07:26:58.808612   180 net.cpp:140] Creating Layer inception_5b/relu_3x3
I0224 07:26:58.808616   180 net.cpp:481] inception_5b/relu_3x3 <- inception_5b/3x3
I0224 07:26:58.808621   180 net.cpp:442] inception_5b/relu_3x3 -> inception_5b/3x3 (in-place)
I0224 07:26:58.808627   180 net.cpp:190] Setting up inception_5b/relu_3x3
I0224 07:26:58.808630   180 net.cpp:197] Top shape: 1 384 16 32 (196608)
I0224 07:26:58.808634   180 net.cpp:205] Memory required for data: 800718848
I0224 07:26:58.808637   180 layer_factory.hpp:123] Creating layer inception_5b/5x5_reduce
I0224 07:26:58.808645   180 net.cpp:140] Creating Layer inception_5b/5x5_reduce
I0224 07:26:58.808647   180 net.cpp:481] inception_5b/5x5_reduce <- inception_5a/output_inception_5a/output_0_split_2
I0224 07:26:58.808653   180 net.cpp:455] inception_5b/5x5_reduce -> inception_5b/5x5_reduce_raw
I0224 07:26:58.809226   180 net.cpp:190] Setting up inception_5b/5x5_reduce
I0224 07:26:58.809232   180 net.cpp:197] Top shape: 1 48 16 32 (24576)
I0224 07:26:58.809237   180 net.cpp:205] Memory required for data: 800817152
I0224 07:26:58.809242   180 layer_factory.hpp:123] Creating layer inception_5b/5x5_reduce_BatchNorm
I0224 07:26:58.809249   180 net.cpp:140] Creating Layer inception_5b/5x5_reduce_BatchNorm
I0224 07:26:58.809252   180 net.cpp:481] inception_5b/5x5_reduce_BatchNorm <- inception_5b/5x5_reduce_raw
I0224 07:26:58.809257   180 net.cpp:455] inception_5b/5x5_reduce_BatchNorm -> inception_5b/5x5_reduce
I0224 07:26:58.809818   180 net.cpp:190] Setting up inception_5b/5x5_reduce_BatchNorm
I0224 07:26:58.809825   180 net.cpp:197] Top shape: 1 48 16 32 (24576)
I0224 07:26:58.809830   180 net.cpp:205] Memory required for data: 800915456
I0224 07:26:58.809839   180 layer_factory.hpp:123] Creating layer inception_5b/relu_5x5_reduce
I0224 07:26:58.809844   180 net.cpp:140] Creating Layer inception_5b/relu_5x5_reduce
I0224 07:26:58.809847   180 net.cpp:481] inception_5b/relu_5x5_reduce <- inception_5b/5x5_reduce
I0224 07:26:58.809851   180 net.cpp:442] inception_5b/relu_5x5_reduce -> inception_5b/5x5_reduce (in-place)
I0224 07:26:58.809857   180 net.cpp:190] Setting up inception_5b/relu_5x5_reduce
I0224 07:26:58.809860   180 net.cpp:197] Top shape: 1 48 16 32 (24576)
I0224 07:26:58.809864   180 net.cpp:205] Memory required for data: 801013760
I0224 07:26:58.809867   180 layer_factory.hpp:123] Creating layer inception_5b/5x5
I0224 07:26:58.809875   180 net.cpp:140] Creating Layer inception_5b/5x5
I0224 07:26:58.809877   180 net.cpp:481] inception_5b/5x5 <- inception_5b/5x5_reduce
I0224 07:26:58.809882   180 net.cpp:455] inception_5b/5x5 -> inception_5b/5x5_raw
I0224 07:26:58.811985   180 net.cpp:190] Setting up inception_5b/5x5
I0224 07:26:58.811995   180 net.cpp:197] Top shape: 1 128 16 32 (65536)
I0224 07:26:58.812016   180 net.cpp:205] Memory required for data: 801275904
I0224 07:26:58.812021   180 layer_factory.hpp:123] Creating layer inception_5b/5x5_BatchNorm
I0224 07:26:58.812031   180 net.cpp:140] Creating Layer inception_5b/5x5_BatchNorm
I0224 07:26:58.812036   180 net.cpp:481] inception_5b/5x5_BatchNorm <- inception_5b/5x5_raw
I0224 07:26:58.812041   180 net.cpp:455] inception_5b/5x5_BatchNorm -> inception_5b/5x5
I0224 07:26:58.812510   180 net.cpp:190] Setting up inception_5b/5x5_BatchNorm
I0224 07:26:58.812516   180 net.cpp:197] Top shape: 1 128 16 32 (65536)
I0224 07:26:58.812521   180 net.cpp:205] Memory required for data: 801538048
I0224 07:26:58.812530   180 layer_factory.hpp:123] Creating layer inception_5b/relu_5x5
I0224 07:26:58.812535   180 net.cpp:140] Creating Layer inception_5b/relu_5x5
I0224 07:26:58.812538   180 net.cpp:481] inception_5b/relu_5x5 <- inception_5b/5x5
I0224 07:26:58.812542   180 net.cpp:442] inception_5b/relu_5x5 -> inception_5b/5x5 (in-place)
I0224 07:26:58.812548   180 net.cpp:190] Setting up inception_5b/relu_5x5
I0224 07:26:58.812551   180 net.cpp:197] Top shape: 1 128 16 32 (65536)
I0224 07:26:58.812556   180 net.cpp:205] Memory required for data: 801800192
I0224 07:26:58.812559   180 layer_factory.hpp:123] Creating layer inception_5b/pool
I0224 07:26:58.812564   180 net.cpp:140] Creating Layer inception_5b/pool
I0224 07:26:58.812568   180 net.cpp:481] inception_5b/pool <- inception_5a/output_inception_5a/output_0_split_3
I0224 07:26:58.812573   180 net.cpp:455] inception_5b/pool -> inception_5b/pool
I0224 07:26:58.812602   180 net.cpp:190] Setting up inception_5b/pool
I0224 07:26:58.812611   180 net.cpp:197] Top shape: 1 832 16 32 (425984)
I0224 07:26:58.812616   180 net.cpp:205] Memory required for data: 803504128
I0224 07:26:58.812619   180 layer_factory.hpp:123] Creating layer inception_5b/pool_proj
I0224 07:26:58.812626   180 net.cpp:140] Creating Layer inception_5b/pool_proj
I0224 07:26:58.812629   180 net.cpp:481] inception_5b/pool_proj <- inception_5b/pool
I0224 07:26:58.812634   180 net.cpp:455] inception_5b/pool_proj -> inception_5b/pool_proj_raw
I0224 07:26:58.813783   180 net.cpp:190] Setting up inception_5b/pool_proj
I0224 07:26:58.813791   180 net.cpp:197] Top shape: 1 128 16 32 (65536)
I0224 07:26:58.813812   180 net.cpp:205] Memory required for data: 803766272
I0224 07:26:58.813817   180 layer_factory.hpp:123] Creating layer inception_5b/pool_proj_BatchNorm
I0224 07:26:58.813838   180 net.cpp:140] Creating Layer inception_5b/pool_proj_BatchNorm
I0224 07:26:58.813843   180 net.cpp:481] inception_5b/pool_proj_BatchNorm <- inception_5b/pool_proj_raw
I0224 07:26:58.813848   180 net.cpp:455] inception_5b/pool_proj_BatchNorm -> inception_5b/pool_proj
I0224 07:26:58.814327   180 net.cpp:190] Setting up inception_5b/pool_proj_BatchNorm
I0224 07:26:58.814333   180 net.cpp:197] Top shape: 1 128 16 32 (65536)
I0224 07:26:58.814338   180 net.cpp:205] Memory required for data: 804028416
I0224 07:26:58.814347   180 layer_factory.hpp:123] Creating layer inception_5b/relu_pool_proj
I0224 07:26:58.814352   180 net.cpp:140] Creating Layer inception_5b/relu_pool_proj
I0224 07:26:58.814354   180 net.cpp:481] inception_5b/relu_pool_proj <- inception_5b/pool_proj
I0224 07:26:58.814359   180 net.cpp:442] inception_5b/relu_pool_proj -> inception_5b/pool_proj (in-place)
I0224 07:26:58.814365   180 net.cpp:190] Setting up inception_5b/relu_pool_proj
I0224 07:26:58.814368   180 net.cpp:197] Top shape: 1 128 16 32 (65536)
I0224 07:26:58.814373   180 net.cpp:205] Memory required for data: 804290560
I0224 07:26:58.814375   180 layer_factory.hpp:123] Creating layer inception_5b/output
I0224 07:26:58.814380   180 net.cpp:140] Creating Layer inception_5b/output
I0224 07:26:58.814383   180 net.cpp:481] inception_5b/output <- inception_5b/1x1
I0224 07:26:58.814388   180 net.cpp:481] inception_5b/output <- inception_5b/3x3
I0224 07:26:58.814390   180 net.cpp:481] inception_5b/output <- inception_5b/5x5
I0224 07:26:58.814393   180 net.cpp:481] inception_5b/output <- inception_5b/pool_proj
I0224 07:26:58.814397   180 net.cpp:455] inception_5b/output -> inception_5b/output
I0224 07:26:58.814416   180 net.cpp:190] Setting up inception_5b/output
I0224 07:26:58.814420   180 net.cpp:197] Top shape: 1 1024 16 32 (524288)
I0224 07:26:58.814424   180 net.cpp:205] Memory required for data: 806387712
I0224 07:26:58.814427   180 layer_factory.hpp:123] Creating layer p5
I0224 07:26:58.814435   180 net.cpp:140] Creating Layer p5
I0224 07:26:58.814438   180 net.cpp:481] p5 <- inception_5b/output
I0224 07:26:58.814442   180 net.cpp:455] p5 -> p5
I0224 07:26:58.814949   180 net.cpp:190] Setting up p5
I0224 07:26:58.814956   180 net.cpp:197] Top shape: 1 32 16 32 (16384)
I0224 07:26:58.814961   180 net.cpp:205] Memory required for data: 806453248
I0224 07:26:58.814966   180 layer_factory.hpp:123] Creating layer latlayer_4f
I0224 07:26:58.814973   180 net.cpp:140] Creating Layer latlayer_4f
I0224 07:26:58.814977   180 net.cpp:481] latlayer_4f <- inception_4e/output_inception_4e/output_0_split_1
I0224 07:26:58.814982   180 net.cpp:455] latlayer_4f -> latlayer_4f
I0224 07:26:58.815430   180 net.cpp:190] Setting up latlayer_4f
I0224 07:26:58.815438   180 net.cpp:197] Top shape: 1 32 32 64 (65536)
I0224 07:26:58.815443   180 net.cpp:205] Memory required for data: 806715392
I0224 07:26:58.815448   180 layer_factory.hpp:123] Creating layer upsample_p5
I0224 07:26:58.815454   180 net.cpp:140] Creating Layer upsample_p5
I0224 07:26:58.815459   180 net.cpp:481] upsample_p5 <- p5
I0224 07:26:58.815464   180 net.cpp:455] upsample_p5 -> upsample_p5
I0224 07:26:58.815766   180 net.cpp:190] Setting up upsample_p5
I0224 07:26:58.815773   180 net.cpp:197] Top shape: 1 32 32 64 (65536)
I0224 07:26:58.815778   180 net.cpp:205] Memory required for data: 806977536
I0224 07:26:58.815781   180 layer_factory.hpp:123] Creating layer add_p4
I0224 07:26:58.815786   180 net.cpp:140] Creating Layer add_p4
I0224 07:26:58.815790   180 net.cpp:481] add_p4 <- upsample_p5
I0224 07:26:58.815794   180 net.cpp:481] add_p4 <- latlayer_4f
I0224 07:26:58.815799   180 net.cpp:455] add_p4 -> add_p4
I0224 07:26:58.815819   180 net.cpp:190] Setting up add_p4
I0224 07:26:58.815822   180 net.cpp:197] Top shape: 1 32 32 64 (65536)
I0224 07:26:58.815826   180 net.cpp:205] Memory required for data: 807239680
I0224 07:26:58.815829   180 layer_factory.hpp:123] Creating layer toplayer_p4
I0224 07:26:58.815835   180 net.cpp:140] Creating Layer toplayer_p4
I0224 07:26:58.815840   180 net.cpp:481] toplayer_p4 <- add_p4
I0224 07:26:58.815843   180 net.cpp:455] toplayer_p4 -> p4
I0224 07:26:58.816131   180 net.cpp:190] Setting up toplayer_p4
I0224 07:26:58.816138   180 net.cpp:197] Top shape: 1 32 32 64 (65536)
I0224 07:26:58.816143   180 net.cpp:205] Memory required for data: 807501824
I0224 07:26:58.816148   180 layer_factory.hpp:123] Creating layer latlayer_3d
I0224 07:26:58.816154   180 net.cpp:140] Creating Layer latlayer_3d
I0224 07:26:58.816157   180 net.cpp:481] latlayer_3d <- inception_3b/output_inception_3b/output_0_split_1
I0224 07:26:58.816162   180 net.cpp:455] latlayer_3d -> latlayer_3d
I0224 07:26:58.816529   180 net.cpp:190] Setting up latlayer_3d
I0224 07:26:58.816535   180 net.cpp:197] Top shape: 1 32 64 128 (262144)
I0224 07:26:58.816540   180 net.cpp:205] Memory required for data: 808550400
I0224 07:26:58.816545   180 layer_factory.hpp:123] Creating layer upsample_p4
I0224 07:26:58.816550   180 net.cpp:140] Creating Layer upsample_p4
I0224 07:26:58.816555   180 net.cpp:481] upsample_p4 <- p4
I0224 07:26:58.816560   180 net.cpp:455] upsample_p4 -> upsample_p4
I0224 07:26:58.816865   180 net.cpp:190] Setting up upsample_p4
I0224 07:26:58.816872   180 net.cpp:197] Top shape: 1 32 64 128 (262144)
I0224 07:26:58.816877   180 net.cpp:205] Memory required for data: 809598976
I0224 07:26:58.816881   180 layer_factory.hpp:123] Creating layer add_p3
I0224 07:26:58.816886   180 net.cpp:140] Creating Layer add_p3
I0224 07:26:58.816890   180 net.cpp:481] add_p3 <- upsample_p4
I0224 07:26:58.816895   180 net.cpp:481] add_p3 <- latlayer_3d
I0224 07:26:58.816900   180 net.cpp:455] add_p3 -> add_p3
I0224 07:26:58.816917   180 net.cpp:190] Setting up add_p3
I0224 07:26:58.816921   180 net.cpp:197] Top shape: 1 32 64 128 (262144)
I0224 07:26:58.816926   180 net.cpp:205] Memory required for data: 810647552
I0224 07:26:58.816929   180 layer_factory.hpp:123] Creating layer toplayer_p3
I0224 07:26:58.816936   180 net.cpp:140] Creating Layer toplayer_p3
I0224 07:26:58.816939   180 net.cpp:481] toplayer_p3 <- add_p3
I0224 07:26:58.816944   180 net.cpp:455] toplayer_p3 -> p3
I0224 07:26:58.817236   180 net.cpp:190] Setting up toplayer_p3
I0224 07:26:58.817243   180 net.cpp:197] Top shape: 1 32 64 128 (262144)
I0224 07:26:58.817247   180 net.cpp:205] Memory required for data: 811696128
I0224 07:26:58.817252   180 layer_factory.hpp:123] Creating layer latlayer_2c
I0224 07:26:58.817260   180 net.cpp:140] Creating Layer latlayer_2c
I0224 07:26:58.817263   180 net.cpp:481] latlayer_2c <- conv2/3x3_conv2/relu_3x3_0_split_1
I0224 07:26:58.817268   180 net.cpp:455] latlayer_2c -> latlayer_2c
I0224 07:26:58.817555   180 net.cpp:190] Setting up latlayer_2c
I0224 07:26:58.817564   180 net.cpp:197] Top shape: 1 32 128 256 (1048576)
I0224 07:26:58.817569   180 net.cpp:205] Memory required for data: 815890432
I0224 07:26:58.817574   180 layer_factory.hpp:123] Creating layer upsample_p3
I0224 07:26:58.817579   180 net.cpp:140] Creating Layer upsample_p3
I0224 07:26:58.817582   180 net.cpp:481] upsample_p3 <- p3
I0224 07:26:58.817589   180 net.cpp:455] upsample_p3 -> upsample_p3
I0224 07:26:58.818508   180 net.cpp:190] Setting up upsample_p3
I0224 07:26:58.818518   180 net.cpp:197] Top shape: 1 32 128 256 (1048576)
I0224 07:26:58.818534   180 net.cpp:205] Memory required for data: 820084736
I0224 07:26:58.818539   180 layer_factory.hpp:123] Creating layer add_p2
I0224 07:26:58.818545   180 net.cpp:140] Creating Layer add_p2
I0224 07:26:58.818548   180 net.cpp:481] add_p2 <- upsample_p3
I0224 07:26:58.818553   180 net.cpp:481] add_p2 <- latlayer_2c
I0224 07:26:58.818557   180 net.cpp:455] add_p2 -> add_p2
I0224 07:26:58.818578   180 net.cpp:190] Setting up add_p2
I0224 07:26:58.818584   180 net.cpp:197] Top shape: 1 32 128 256 (1048576)
I0224 07:26:58.818588   180 net.cpp:205] Memory required for data: 824279040
I0224 07:26:58.818591   180 layer_factory.hpp:123] Creating layer toplayer_p2
I0224 07:26:58.818598   180 net.cpp:140] Creating Layer toplayer_p2
I0224 07:26:58.818600   180 net.cpp:481] toplayer_p2 <- add_p2
I0224 07:26:58.818605   180 net.cpp:455] toplayer_p2 -> pred
I0224 07:26:58.819682   180 net.cpp:190] Setting up toplayer_p2
I0224 07:26:58.819692   180 net.cpp:197] Top shape: 1 19 512 1024 (9961472)
I0224 07:26:58.819708   180 net.cpp:205] Memory required for data: 864124928
I0224 07:26:58.819715   180 layer_factory.hpp:123] Creating layer score
I0224 07:26:58.819721   180 net.cpp:140] Creating Layer score
I0224 07:26:58.819725   180 net.cpp:481] score <- pred
I0224 07:26:58.819730   180 net.cpp:455] score -> score
I0224 07:26:58.819794   180 net.cpp:190] Setting up score
I0224 07:26:58.819802   180 net.cpp:197] Top shape: 1 19 512 1024 (9961472)
I0224 07:26:58.819806   180 net.cpp:205] Memory required for data: 903970816
I0224 07:26:58.819809   180 layer_factory.hpp:123] Creating layer accuracy
I0224 07:26:58.819820   180 net.cpp:140] Creating Layer accuracy
I0224 07:26:58.819824   180 net.cpp:481] accuracy <- score
I0224 07:26:58.819828   180 net.cpp:481] accuracy <- label
I0224 07:26:58.819833   180 net.cpp:455] accuracy -> segmentation_eval
I0224 07:26:58.819854   180 net.cpp:190] Setting up accuracy
I0224 07:26:58.819859   180 net.cpp:197] Top shape: 3 19 (57)
I0224 07:26:58.819864   180 net.cpp:205] Memory required for data: 903971044
I0224 07:26:58.819867   180 net.cpp:268] accuracy does not need backward computation.
I0224 07:26:58.819871   180 net.cpp:268] score does not need backward computation.
I0224 07:26:58.819875   180 net.cpp:268] toplayer_p2 does not need backward computation.
I0224 07:26:58.819877   180 net.cpp:268] add_p2 does not need backward computation.
…
