…
layer {
  name: "data"
  type: "ImageData"
  top: "data"
  top: "label"
  include {
    phase: TRAIN
  }
  transform_param {
    scale: 0.022
    mean_value: 73
    mean_value: 82
    mean_value: 72
    resize_param {
      prob: 1
      resize_mode: WARP
      height: 512
      width: 1024
    }
  }
  image_data_param {
    source: "/workspace/Segment/VAI/data/cityscapes/calibration.txt"
    batch_size: 1
    shuffle: true
    new_height: 512
    new_width: 1024
    root_folder: "/workspace/Segment/VAI/data/cityscapes/calibration_images/"
  }
}
layer {
  name: "conv1/7x7_s2"
  type: "Convolution"
  bottom: "data"
  top: "conv1/7x7_s2_raw"
  param {
    lr_mult: 1
    decay_mult: 1
  }
  convolution_param {
    num_output: 64
    pad: 3
    kernel_size: 7
    stride: 2
    weight_filler {
      type: "msra"
    }
    bias_filler {
      type: "constant"
      value: 0.2
    }
  }
}
layer {
  name: "conv1/7x7_s2_BatchNorm"
  type: "BatchNorm"
  bottom: "conv1/7x7_s2_raw"
  top: "conv1/7x7_s2"
  param {
    lr_mult: 1
    decay_mult: 0
  }
  param {
    lr_mult: 1
    decay_mult: 0
  }
  param {
    lr_mult: 0
    decay_mult: 0
  }
  param {
    lr_mult: 0
    decay_mult: 0
  }
  batch_norm_param {
    use_global_stats: false
    eps: 1e-05
    scale_filler {
      type: "constant"
      value: 1
    }
    bias_filler {
      type: "constant"
      value: 0
    }
  }
}
layer {
  name: "conv1/relu_7x7"
  type: "ReLU"
  bottom: "conv1/7x7_s2"
  top: "conv1/7x7_s2"
}
layer {
  name: "pool1/3x3_s2"
  type: "Pooling"
  bottom: "conv1/7x7_s2"
  top: "pool1/3x3_s2"
  pooling_param {
    pool: MAX
    kernel_size: 3
    stride: 2
  }
}
layer {
  name: "conv2/3x3_reduce"
  type: "Convolution"
  bottom: "pool1/3x3_s2"
  top: "conv2/3x3_reduce_raw"
  param {
    lr_mult: 1
    decay_mult: 1
  }
  convolution_param {
    num_output: 64
    kernel_size: 1
    weight_filler {
      type: "msra"
    }
    bias_filler {
      type: "constant"
      value: 0.2
    }
  }
}
layer {
  name: "conv2/3x3_reduce_BatchNorm"
  type: "BatchNorm"
  bottom: "conv2/3x3_reduce_raw"
  top: "conv2/3x3_reduce"
  param {
    lr_mult: 1
    decay_mult: 0
  }
  param {
    lr_mult: 1
    decay_mult: 0
  }
  param {
    lr_mult: 0
    decay_mult: 0
  }
  param {
    lr_mult: 0
    decay_mult: 0
  }
  batch_norm_param {
    use_global_stats: false
    eps: 1e-05
    scale_filler {
      type: "constant"
      value: 1
    }
    bias_filler {
      type: "constant"
      value: 0
    }
  }
}
layer {
  name: "conv2/relu_3x3_reduce"
  type: "ReLU"
  bottom: "conv2/3x3_reduce"
  top: "conv2/3x3_reduce"
}
layer {
  name: "conv2/3x3"
  type: "Convolution"
  bottom: "conv2/3x3_reduce"
  top: "conv2/3x3_raw"
  param {
    lr_mult: 1
    decay_mult: 1
  }
  convolution_param {
    num_output: 192
    pad: 1
    kernel_size: 3
    weight_filler {
      type: "msra"
    }
    bias_filler {
      type: "constant"
      value: 0.2
    }
  }
}
layer {
  name: "conv2/3x3_BatchNorm"
  type: "BatchNorm"
  bottom: "conv2/3x3_raw"
  top: "conv2/3x3"
  param {
    lr_mult: 1
    decay_mult: 0
  }
  param {
    lr_mult: 1
    decay_mult: 0
  }
  param {
    lr_mult: 0
    decay_mult: 0
  }
  param {
    lr_mult: 0
    decay_mult: 0
  }
  batch_norm_param {
    use_global_stats: false
    eps: 1e-05
    scale_filler {
      type: "constant"
      value: 1
    }
    bias_filler {
      type: "constant"
      value: 0
    }
  }
}
layer {
  name: "conv2/relu_3x3"
  type: "ReLU"
  bottom: "conv2/3x3"
  top: "conv2/3x3"
}
layer {
  name: "pool2/3x3_s2"
  type: "Pooling"
  bottom: "conv2/3x3"
  top: "pool2/3x3_s2"
  pooling_param {
    pool: MAX
    kernel_size: 3
    stride: 2
  }
}
layer {
  name: "inception_3a/1x1"
  type: "Convolution"
  bottom: "pool2/3x3_s2"
  top: "inception_3a/1x1_raw"
  param {
    lr_mult: 1
    decay_mult: 1
  }
  convolution_param {
    num_output: 64
    kernel_size: 1
    weight_filler {
      type: "msra"
    }
    bias_filler {
      type: "constant"
      value: 0.2
    }
  }
}
layer {
  name: "inception_3a/1x1_BatchNorm"
  type: "BatchNorm"
  bottom: "inception_3a/1x1_raw"
  top: "inception_3a/1x1"
  param {
    lr_mult: 1
    decay_mult: 0
  }
  param {
    lr_mult: 1
    decay_mult: 0
  }
  param {
    lr_mult: 0
    decay_mult: 0
  }
  param {
    lr_mult: 0
    decay_mult: 0
  }
  batch_norm_param {
    use_global_stats: false
    eps: 1e-05
    scale_filler {
      type: "constant"
      value: 1
    }
    bias_filler {
      type: "constant"
      value: 0
    }
  }
}
layer {
  name: "inception_3a/relu_1x1"
  type: "ReLU"
  bottom: "inception_3a/1x1"
  top: "inception_3a/1x1"
}
layer {
  name: "inception_3a/3x3_reduce"
  type: "Convolution"
  bottom: "pool2/3x3_s2"
  top: "inception_3a/3x3_reduce_raw"
  param {
    lr_mult: 1
    decay_mult: 1
  }
  convolution_param {
    num_output: 96
    kernel_size: 1
    weight_filler {
      type: "msra"
    }
    bias_filler {
      type: "constant"
      value: 0.2
    }
  }
}
layer {
  name: "inception_3a/3x3_reduce_BatchNorm"
  type: "BatchNorm"
  bottom: "inception_3a/3x3_reduce_raw"
  top: "inception_3a/3x3_reduce"
  param {
    lr_mult: 1
    decay_mult: 0
  }
  param {
    lr_mult: 1
    decay_mult: 0
  }
  param {
    lr_mult: 0
    decay_mult: 0
  }
  param {
    lr_mult: 0
    decay_mult: 0
  }
  batch_norm_param {
    use_global_stats: false
    eps: 1e-05
    scale_filler {
      type: "constant"
      value: 1
    }
    bias_filler {
      type: "constant"
      value: 0
    }
  }
}
layer {
  name: "inception_3a/relu_3x3_reduce"
  type: "ReLU"
  bottom: "inception_3a/3x3_reduce"
  top: "inception_3a/3x3_reduce"
}
layer {
  name: "inception_3a/3x3"
  type: "Convolution"
  bottom: "inception_3a/3x3_reduce"
  top: "inception_3a/3x3_raw"
  param {
    lr_mult: 1
    decay_mult: 1
  }
  convolution_param {
    num_output: 128
    pad: 1
    kernel_size: 3
    weight_filler {
      type: "msra"
    }
    bias_filler {
      type: "constant"
      value: 0.2
    }
  }
}
layer {
  name: "inception_3a/3x3_BatchNorm"
  type: "BatchNorm"
  bottom: "inception_3a/3x3_raw"
  top: "inception_3a/3x3"
  param {
    lr_mult: 1
    decay_mult: 0
  }
  param {
    lr_mult: 1
    decay_mult: 0
  }
  param {
    lr_mult: 0
    decay_mult: 0
  }
  param {
    lr_mult: 0
    decay_mult: 0
  }
  batch_norm_param {
    use_global_stats: false
    eps: 1e-05
    scale_filler {
      type: "constant"
      value: 1
    }
    bias_filler {
      type: "constant"
      value: 0
    }
  }
}
layer {
  name: "inception_3a/relu_3x3"
  type: "ReLU"
  bottom: "inception_3a/3x3"
  top: "inception_3a/3x3"
}
layer {
  name: "inception_3a/5x5_reduce"
  type: "Convolution"
  bottom: "pool2/3x3_s2"
  top: "inception_3a/5x5_reduce_raw"
  param {
    lr_mult: 1
    decay_mult: 1
  }
  convolution_param {
    num_output: 16
    kernel_size: 1
    weight_filler {
      type: "msra"
    }
    bias_filler {
      type: "constant"
      value: 0.2
    }
  }
}
layer {
  name: "inception_3a/5x5_reduce_BatchNorm"
  type: "BatchNorm"
  bottom: "inception_3a/5x5_reduce_raw"
  top: "inception_3a/5x5_reduce"
  param {
    lr_mult: 1
    decay_mult: 0
  }
  param {
    lr_mult: 1
    decay_mult: 0
  }
  param {
    lr_mult: 0
    decay_mult: 0
  }
  param {
    lr_mult: 0
    decay_mult: 0
  }
  batch_norm_param {
    use_global_stats: false
    eps: 1e-05
    scale_filler {
      type: "constant"
      value: 1
    }
    bias_filler {
      type: "constant"
      value: 0
    }
  }
}
layer {
  name: "inception_3a/relu_5x5_reduce"
  type: "ReLU"
  bottom: "inception_3a/5x5_reduce"
  top: "inception_3a/5x5_reduce"
}
layer {
  name: "inception_3a/5x5"
  type: "Convolution"
  bottom: "inception_3a/5x5_reduce"
  top: "inception_3a/5x5_raw"
  param {
    lr_mult: 1
    decay_mult: 1
  }
  convolution_param {
    num_output: 32
    pad: 2
    kernel_size: 5
    weight_filler {
      type: "msra"
    }
    bias_filler {
      type: "constant"
      value: 0.2
    }
  }
}
layer {
  name: "inception_3a/5x5_BatchNorm"
  type: "BatchNorm"
  bottom: "inception_3a/5x5_raw"
  top: "inception_3a/5x5"
  param {
    lr_mult: 1
    decay_mult: 0
  }
  param {
    lr_mult: 1
    decay_mult: 0
  }
  param {
    lr_mult: 0
    decay_mult: 0
  }
  param {
    lr_mult: 0
    decay_mult: 0
  }
  batch_norm_param {
    use_global_stats: false
    eps: 1e-05
    scale_filler {
      type: "constant"
      value: 1
    }
    bias_filler {
      type: "constant"
      value: 0
    }
  }
}
layer {
  name: "inception_3a/relu_5x5"
  type: "ReLU"
  bottom: "inception_3a/5x5"
  top: "inception_3a/5x5"
}
layer {
  name: "inception_3a/pool"
  type: "Pooling"
  bottom: "pool2/3x3_s2"
  top: "inception_3a/pool"
  pooling_param {
    pool: MAX
    kernel_size: 3
    stride: 1
    pad: 1
  }
}
layer {
  name: "inception_3a/pool_proj"
  type: "Convolution"
  bottom: "inception_3a/pool"
  top: "inception_3a/pool_proj_raw"
  param {
    lr_mult: 1
    decay_mult: 1
  }
  convolution_param {
    num_output: 32
    kernel_size: 1
    weight_filler {
      type: "msra"
    }
    bias_filler {
      type: "constant"
      value: 0.2
    }
  }
}
layer {
  name: "inception_3a/pool_proj_BatchNorm"
  type: "BatchNorm"
  bottom: "inception_3a/pool_proj_raw"
  top: "inception_3a/pool_proj"
  param {
    lr_mult: 1
    decay_mult: 0
  }
  param {
    lr_mult: 1
    decay_mult: 0
  }
  param {
    lr_mult: 0
    decay_mult: 0
  }
  param {
    lr_mult: 0
    decay_mult: 0
  }
  batch_norm_param {
    use_global_stats: false
    eps: 1e-05
    scale_filler {
      type: "constant"
      value: 1
    }
    bias_filler {
      type: "constant"
      value: 0
    }
  }
}
layer {
  name: "inception_3a/relu_pool_proj"
  type: "ReLU"
  bottom: "inception_3a/pool_proj"
  top: "inception_3a/pool_proj"
}
layer {
  name: "inception_3a/output"
  type: "Concat"
  bottom: "inception_3a/1x1"
  bottom: "inception_3a/3x3"
  bottom: "inception_3a/5x5"
  bottom: "inception_3a/pool_proj"
  top: "inception_3a/output"
}
layer {
  name: "inception_3b/1x1"
  type: "Convolution"
  bottom: "inception_3a/output"
  top: "inception_3b/1x1_raw"
  param {
    lr_mult: 1
    decay_mult: 1
  }
  convolution_param {
    num_output: 128
    kernel_size: 1
    weight_filler {
      type: "msra"
    }
    bias_filler {
      type: "constant"
      value: 0.2
    }
  }
}
layer {
  name: "inception_3b/1x1_BatchNorm"
  type: "BatchNorm"
  bottom: "inception_3b/1x1_raw"
  top: "inception_3b/1x1"
  param {
    lr_mult: 1
    decay_mult: 0
  }
  param {
    lr_mult: 1
    decay_mult: 0
  }
  param {
    lr_mult: 0
    decay_mult: 0
  }
  param {
    lr_mult: 0
    decay_mult: 0
  }
  batch_norm_param {
    use_global_stats: false
    eps: 1e-05
    scale_filler {
      type: "constant"
      value: 1
    }
    bias_filler {
      type: "constant"
      value: 0
    }
  }
}
layer {
  name: "inception_3b/relu_1x1"
  type: "ReLU"
  bottom: "inception_3b/1x1"
  top: "inception_3b/1x1"
}
layer {
  name: "inception_3b/3x3_reduce"
  type: "Convolution"
  bottom: "inception_3a/output"
  top: "inception_3b/3x3_reduce_raw"
  param {
    lr_mult: 1
    decay_mult: 1
  }
  convolution_param {
    num_output: 128
    kernel_size: 1
    weight_filler {
      type: "msra"
    }
    bias_filler {
      type: "constant"
      value: 0.2
    }
  }
}
layer {
  name: "inception_3b/3x3_reduce_BatchNorm"
  type: "BatchNorm"
  bottom: "inception_3b/3x3_reduce_raw"
  top: "inception_3b/3x3_reduce"
  param {
    lr_mult: 1
    decay_mult: 0
  }
  param {
    lr_mult: 1
    decay_mult: 0
  }
  param {
    lr_mult: 0
    decay_mult: 0
  }
  param {
    lr_mult: 0
    decay_mult: 0
  }
  batch_norm_param {
    use_global_stats: false
    eps: 1e-05
    scale_filler {
      type: "constant"
      value: 1
    }
    bias_filler {
      type: "constant"
      value: 0
    }
  }
}
layer {
  name: "inception_3b/relu_3x3_reduce"
  type: "ReLU"
  bottom: "inception_3b/3x3_reduce"
  top: "inception_3b/3x3_reduce"
}
layer {
  name: "inception_3b/3x3"
  type: "Convolution"
  bottom: "inception_3b/3x3_reduce"
  top: "inception_3b/3x3_raw"
  param {
    lr_mult: 1
    decay_mult: 1
  }
  convolution_param {
    num_output: 192
    pad: 1
    kernel_size: 3
    weight_filler {
      type: "msra"
    }
    bias_filler {
      type: "constant"
      value: 0.2
    }
  }
}
layer {
  name: "inception_3b/3x3_BatchNorm"
  type: "BatchNorm"
  bottom: "inception_3b/3x3_raw"
  top: "inception_3b/3x3"
  param {
    lr_mult: 1
    decay_mult: 0
  }
  param {
    lr_mult: 1
    decay_mult: 0
  }
  param {
    lr_mult: 0
    decay_mult: 0
  }
  param {
    lr_mult: 0
    decay_mult: 0
  }
  batch_norm_param {
    use_global_stats: false
    eps: 1e-05
    scale_filler {
      type: "constant"
      value: 1
    }
    bias_filler {
      type: "constant"
      value: 0
    }
  }
}
layer {
  name: "inception_3b/relu_3x3"
  type: "ReLU"
  bottom: "inception_3b/3x3"
  top: "inception_3b/3x3"
}
layer {
  name: "inception_3b/5x5_reduce"
  type: "Convolution"
  bottom: "inception_3a/output"
  top: "inception_3b/5x5_reduce_raw"
  param {
    lr_mult: 1
    decay_mult: 1
  }
  convolution_param {
    num_output: 32
    kernel_size: 1
    weight_filler {
      type: "msra"
    }
    bias_filler {
      type: "constant"
      value: 0.2
    }
  }
}
layer {
  name: "inception_3b/5x5_reduce_BatchNorm"
  type: "BatchNorm"
  bottom: "inception_3b/5x5_reduce_raw"
  top: "inception_3b/5x5_reduce"
  param {
    lr_mult: 1
    decay_mult: 0
  }
  param {
    lr_mult: 1
    decay_mult: 0
  }
  param {
    lr_mult: 0
    decay_mult: 0
  }
  param {
    lr_mult: 0
    decay_mult: 0
  }
  batch_norm_param {
    use_global_stats: false
    eps: 1e-05
    scale_filler {
      type: "constant"
      value: 1
    }
    bias_filler {
      type: "constant"
      value: 0
    }
  }
}
layer {
  name: "inception_3b/relu_5x5_reduce"
  type: "ReLU"
  bottom: "inception_3b/5x5_reduce"
  top: "inception_3b/5x5_reduce"
}
layer {
  name: "inception_3b/5x5"
  type: "Convolution"
  bottom: "inception_3b/5x5_reduce"
  top: "inception_3b/5x5_raw"
  param {
    lr_mult: 1
    decay_mult: 1
  }
  convolution_param {
    num_output: 96
    pad: 2
    kernel_size: 5
    weight_filler {
      type: "msra"
    }
    bias_filler {
      type: "constant"
      value: 0.2
    }
  }
}
layer {
  name: "inception_3b/5x5_BatchNorm"
  type: "BatchNorm"
  bottom: "inception_3b/5x5_raw"
  top: "inception_3b/5x5"
  param {
    lr_mult: 1
    decay_mult: 0
  }
  param {
    lr_mult: 1
    decay_mult: 0
  }
  param {
    lr_mult: 0
    decay_mult: 0
  }
  param {
    lr_mult: 0
    decay_mult: 0
  }
  batch_norm_param {
    use_global_stats: false
    eps: 1e-05
    scale_filler {
      type: "constant"
      value: 1
    }
    bias_filler {
      type: "constant"
      value: 0
    }
  }
}
layer {
  name: "inception_3b/relu_5x5"
  type: "ReLU"
  bottom: "inception_3b/5x5"
  top: "inception_3b/5x5"
}
layer {
  name: "inception_3b/pool"
  type: "Pooling"
  bottom: "inception_3a/output"
  top: "inception_3b/pool"
  pooling_param {
    pool: MAX
    kernel_size: 3
    stride: 1
    pad: 1
  }
}
layer {
  name: "inception_3b/pool_proj"
  type: "Convolution"
  bottom: "inception_3b/pool"
  top: "inception_3b/pool_proj_raw"
  param {
    lr_mult: 1
    decay_mult: 1
  }
  convolution_param {
    num_output: 64
    kernel_size: 1
    weight_filler {
      type: "msra"
    }
    bias_filler {
      type: "constant"
      value: 0.2
    }
  }
}
layer {
  name: "inception_3b/pool_proj_BatchNorm"
  type: "BatchNorm"
  bottom: "inception_3b/pool_proj_raw"
  top: "inception_3b/pool_proj"
  param {
    lr_mult: 1
    decay_mult: 0
  }
  param {
    lr_mult: 1
    decay_mult: 0
  }
  param {
    lr_mult: 0
    decay_mult: 0
  }
  param {
    lr_mult: 0
    decay_mult: 0
  }
  batch_norm_param {
    use_global_stats: false
    eps: 1e-05
    scale_filler {
      type: "constant"
      value: 1
    }
    bias_filler {
      type: "constant"
      value: 0
    }
  }
}
layer {
  name: "inception_3b/relu_pool_proj"
  type: "ReLU"
  bottom: "inception_3b/pool_proj"
  top: "inception_3b/pool_proj"
}
layer {
  name: "inception_3b/output"
  type: "Concat"
  bottom: "inception_3b/1x1"
  bottom: "inception_3b/3x3"
  bottom: "inception_3b/5x5"
  bottom: "inception_3b/pool_proj"
  top: "inception_3b/output"
}
layer {
  name: "pool3/3x3_s2"
  type: "Pooling"
  bottom: "inception_3b/output"
  top: "pool3/3x3_s2"
  pooling_param {
    pool: MAX
    kernel_size: 3
    stride: 2
  }
}
layer {
  name: "inception_4a/1x1"
  type: "Convolution"
  bottom: "pool3/3x3_s2"
  top: "inception_4a/1x1_raw"
  param {
    lr_mult: 1
    decay_mult: 1
  }
  convolution_param {
    num_output: 192
    kernel_size: 1
    weight_filler {
      type: "msra"
    }
    bias_filler {
      type: "constant"
      value: 0.2
    }
  }
}
layer {
  name: "inception_4a/1x1_BatchNorm"
  type: "BatchNorm"
  bottom: "inception_4a/1x1_raw"
  top: "inception_4a/1x1"
  param {
    lr_mult: 1
    decay_mult: 0
  }
  param {
    lr_mult: 1
    decay_mult: 0
  }
  param {
    lr_mult: 0
    decay_mult: 0
  }
  param {
    lr_mult: 0
    decay_mult: 0
  }
  batch_norm_param {
    use_global_stats: false
    eps: 1e-05
    scale_filler {
      type: "constant"
      value: 1
    }
    bias_filler {
      type: "constant"
      value: 0
    }
  }
}
layer {
  name: "inception_4a/relu_1x1"
  type: "ReLU"
  bottom: "inception_4a/1x1"
  top: "inception_4a/1x1"
}
layer {
  name: "inception_4a/3x3_reduce"
  type: "Convolution"
  bottom: "pool3/3x3_s2"
  top: "inception_4a/3x3_reduce_raw"
  param {
    lr_mult: 1
    decay_mult: 1
  }
  convolution_param {
    num_output: 96
    kernel_size: 1
    weight_filler {
      type: "msra"
    }
    bias_filler {
      type: "constant"
      value: 0.2
    }
  }
}
layer {
  name: "inception_4a/3x3_reduce_BatchNorm"
  type: "BatchNorm"
  bottom: "inception_4a/3x3_reduce_raw"
  top: "inception_4a/3x3_reduce"
  param {
    lr_mult: 1
    decay_mult: 0
  }
  param {
    lr_mult: 1
    decay_mult: 0
  }
  param {
    lr_mult: 0
    decay_mult: 0
  }
  param {
    lr_mult: 0
    decay_mult: 0
  }
  batch_norm_param {
    use_global_stats: false
    eps: 1e-05
    scale_filler {
      type: "constant"
      value: 1
    }
    bias_filler {
      type: "constant"
      value: 0
    }
  }
}
layer {
  name: "inception_4a/relu_3x3_reduce"
  type: "ReLU"
  bottom: "inception_4a/3x3_reduce"
  top: "inception_4a/3x3_reduce"
}
layer {
  name: "inception_4a/3x3"
  type: "Convolution"
  bottom: "inception_4a/3x3_reduce"
  top: "inception_4a/3x3_raw"
  param {
    lr_mult: 1
    decay_mult: 1
  }
  convolution_param {
    num_output: 208
    pad: 1
    kernel_size: 3
    weight_filler {
      type: "msra"
    }
    bias_filler {
      type: "constant"
      value: 0.2
    }
  }
}
layer {
  name: "inception_4a/3x3_BatchNorm"
  type: "BatchNorm"
  bottom: "inception_4a/3x3_raw"
  top: "inception_4a/3x3"
  param {
    lr_mult: 1
    decay_mult: 0
  }
  param {
    lr_mult: 1
    decay_mult: 0
  }
  param {
    lr_mult: 0
    decay_mult: 0
  }
  param {
    lr_mult: 0
    decay_mult: 0
  }
  batch_norm_param {
    use_global_stats: false
    eps: 1e-05
    scale_filler {
      type: "constant"
      value: 1
    }
    bias_filler {
      type: "constant"
      value: 0
    }
  }
}
layer {
  name: "inception_4a/relu_3x3"
  type: "ReLU"
  bottom: "inception_4a/3x3"
  top: "inception_4a/3x3"
}
layer {
  name: "inception_4a/5x5_reduce"
  type: "Convolution"
  bottom: "pool3/3x3_s2"
  top: "inception_4a/5x5_reduce_raw"
  param {
    lr_mult: 1
    decay_mult: 1
  }
  convolution_param {
    num_output: 16
    kernel_size: 1
    weight_filler {
      type: "msra"
    }
    bias_filler {
      type: "constant"
      value: 0.2
    }
  }
}
layer {
  name: "inception_4a/5x5_reduce_BatchNorm"
  type: "BatchNorm"
  bottom: "inception_4a/5x5_reduce_raw"
  top: "inception_4a/5x5_reduce"
  param {
    lr_mult: 1
    decay_mult: 0
  }
  param {
    lr_mult: 1
    decay_mult: 0
  }
  param {
    lr_mult: 0
    decay_mult: 0
  }
  param {
    lr_mult: 0
    decay_mult: 0
  }
  batch_norm_param {
    use_global_stats: false
    eps: 1e-05
    scale_filler {
      type: "constant"
      value: 1
    }
    bias_filler {
      type: "constant"
      value: 0
    }
  }
}
layer {
  name: "inception_4a/relu_5x5_reduce"
  type: "ReLU"
  bottom: "inception_4a/5x5_reduce"
  top: "inception_4a/5x5_reduce"
}
layer {
  name: "inception_4a/5x5"
  type: "Convolution"
  bottom: "inception_4a/5x5_reduce"
  top: "inception_4a/5x5_raw"
  param {
    lr_mult: 1
    decay_mult: 1
  }
  convolution_param {
    num_output: 48
    pad: 2
    kernel_size: 5
    weight_filler {
      type: "msra"
    }
    bias_filler {
      type: "constant"
      value: 0.2
    }
  }
}
layer {
  name: "inception_4a/5x5_BatchNorm"
  type: "BatchNorm"
  bottom: "inception_4a/5x5_raw"
  top: "inception_4a/5x5"
  param {
    lr_mult: 1
    decay_mult: 0
  }
  param {
    lr_mult: 1
    decay_mult: 0
  }
  param {
    lr_mult: 0
    decay_mult: 0
  }
  param {
    lr_mult: 0
    decay_mult: 0
  }
  batch_norm_param {
    use_global_stats: false
    eps: 1e-05
    scale_filler {
      type: "constant"
      value: 1
    }
    bias_filler {
      type: "constant"
      value: 0
    }
  }
}
layer {
  name: "inception_4a/relu_5x5"
  type: "ReLU"
  bottom: "inception_4a/5x5"
  top: "inception_4a/5x5"
}
layer {
  name: "inception_4a/pool"
  type: "Pooling"
  bottom: "pool3/3x3_s2"
  top: "inception_4a/pool"
  pooling_param {
    pool: MAX
    kernel_size: 3
    stride: 1
    pad: 1
  }
}
layer {
  name: "inception_4a/pool_proj"
  type: "Convolution"
  bottom: "inception_4a/pool"
  top: "inception_4a/pool_proj_raw"
  param {
    lr_mult: 1
    decay_mult: 1
  }
  convolution_param {
    num_output: 64
    kernel_size: 1
    weight_filler {
      type: "msra"
    }
    bias_filler {
      type: "constant"
      value: 0.2
    }
  }
}
layer {
  name: "inception_4a/pool_proj_BatchNorm"
  type: "BatchNorm"
  bottom: "inception_4a/pool_proj_raw"
  top: "inception_4a/pool_proj"
  param {
    lr_mult: 1
    decay_mult: 0
  }
  param {
    lr_mult: 1
    decay_mult: 0
  }
  param {
    lr_mult: 0
    decay_mult: 0
  }
  param {
    lr_mult: 0
    decay_mult: 0
  }
  batch_norm_param {
    use_global_stats: false
    eps: 1e-05
    scale_filler {
      type: "constant"
      value: 1
    }
    bias_filler {
      type: "constant"
      value: 0
    }
  }
}
layer {
  name: "inception_4a/relu_pool_proj"
  type: "ReLU"
  bottom: "inception_4a/pool_proj"
  top: "inception_4a/pool_proj"
}
layer {
  name: "inception_4a/output"
  type: "Concat"
  bottom: "inception_4a/1x1"
  bottom: "inception_4a/3x3"
  bottom: "inception_4a/5x5"
  bottom: "inception_4a/pool_proj"
  top: "inception_4a/output"
}
layer {
  name: "inception_4b/1x1"
  type: "Convolution"
  bottom: "inception_4a/output"
  top: "inception_4b/1x1_raw"
  param {
    lr_mult: 1
    decay_mult: 1
  }
  convolution_param {
    num_output: 160
    kernel_size: 1
    weight_filler {
      type: "msra"
    }
    bias_filler {
      type: "constant"
      value: 0.2
    }
  }
}
layer {
  name: "inception_4b/1x1_BatchNorm"
  type: "BatchNorm"
  bottom: "inception_4b/1x1_raw"
  top: "inception_4b/1x1"
  param {
    lr_mult: 1
    decay_mult: 0
  }
  param {
    lr_mult: 1
    decay_mult: 0
  }
  param {
    lr_mult: 0
    decay_mult: 0
  }
  param {
    lr_mult: 0
    decay_mult: 0
  }
  batch_norm_param {
    use_global_stats: false
    eps: 1e-05
    scale_filler {
      type: "constant"
      value: 1
    }
    bias_filler {
      type: "constant"
      value: 0
    }
  }
}
layer {
  name: "inception_4b/relu_1x1"
  type: "ReLU"
  bottom: "inception_4b/1x1"
  top: "inception_4b/1x1"
}
layer {
  name: "inception_4b/3x3_reduce"
  type: "Convolution"
  bottom: "inception_4a/output"
  top: "inception_4b/3x3_reduce_raw"
  param {
    lr_mult: 1
    decay_mult: 1
  }
  convolution_param {
    num_output: 112
    kernel_size: 1
    weight_filler {
      type: "msra"
    }
    bias_filler {
      type: "constant"
      value: 0.2
    }
  }
}
layer {
  name: "inception_4b/3x3_reduce_BatchNorm"
  type: "BatchNorm"
  bottom: "inception_4b/3x3_reduce_raw"
  top: "inception_4b/3x3_reduce"
  param {
    lr_mult: 1
    decay_mult: 0
  }
  param {
    lr_mult: 1
    decay_mult: 0
  }
  param {
    lr_mult: 0
    decay_mult: 0
  }
  param {
    lr_mult: 0
    decay_mult: 0
  }
  batch_norm_param {
    use_global_stats: false
    eps: 1e-05
    scale_filler {
      type: "constant"
      value: 1
    }
    bias_filler {
      type: "constant"
      value: 0
    }
  }
}
layer {
  name: "inception_4b/relu_3x3_reduce"
  type: "ReLU"
  bottom: "inception_4b/3x3_reduce"
  top: "inception_4b/3x3_reduce"
}
layer {
  name: "inception_4b/3x3"
  type: "Convolution"
  bottom: "inception_4b/3x3_reduce"
  top: "inception_4b/3x3_raw"
  param {
    lr_mult: 1
    decay_mult: 1
  }
  convolution_param {
    num_output: 224
    pad: 1
    kernel_size: 3
    weight_filler {
      type: "msra"
    }
    bias_filler {
      type: "constant"
      value: 0.2
    }
  }
}
layer {
  name: "inception_4b/3x3_BatchNorm"
  type: "BatchNorm"
  bottom: "inception_4b/3x3_raw"
  top: "inception_4b/3x3"
  param {
    lr_mult: 1
    decay_mult: 0
  }
  param {
    lr_mult: 1
    decay_mult: 0
  }
  param {
    lr_mult: 0
    decay_mult: 0
  }
  param {
    lr_mult: 0
    decay_mult: 0
  }
  batch_norm_param {
    use_global_stats: false
    eps: 1e-05
    scale_filler {
      type: "constant"
      value: 1
    }
    bias_filler {
      type: "constant"
      value: 0
    }
  }
}
layer {
  name: "inception_4b/relu_3x3"
  type: "ReLU"
  bottom: "inception_4b/3x3"
  top: "inception_4b/3x3"
}
layer {
  name: "inception_4b/5x5_reduce"
  type: "Convolution"
  bottom: "inception_4a/output"
  top: "inception_4b/5x5_reduce_raw"
  param {
    lr_mult: 1
    decay_mult: 1
  }
  convolution_param {
    num_output: 24
    kernel_size: 1
    weight_filler {
      type: "msra"
    }
    bias_filler {
      type: "constant"
      value: 0.2
    }
  }
}
layer {
  name: "inception_4b/5x5_reduce_BatchNorm"
  type: "BatchNorm"
  bottom: "inception_4b/5x5_reduce_raw"
  top: "inception_4b/5x5_reduce"
  param {
    lr_mult: 1
    decay_mult: 0
  }
  param {
    lr_mult: 1
    decay_mult: 0
  }
  param {
    lr_mult: 0
    decay_mult: 0
  }
  param {
    lr_mult: 0
    decay_mult: 0
  }
  batch_norm_param {
    use_global_stats: false
    eps: 1e-05
    scale_filler {
      type: "constant"
      value: 1
    }
    bias_filler {
      type: "constant"
      value: 0
    }
  }
}
layer {
  name: "inception_4b/relu_5x5_reduce"
  type: "ReLU"
  bottom: "inception_4b/5x5_reduce"
  top: "inception_4b/5x5_reduce"
}
layer {
  name: "inception_4b/5x5"
  type: "Convolution"
  bottom: "inception_4b/5x5_reduce"
  top: "inception_4b/5x5_raw"
  param {
    lr_mult: 1
    decay_mult: 1
  }
  convolution_param {
    num_output: 64
    pad: 2
    kernel_size: 5
    weight_filler {
      type: "msra"
    }
    bias_filler {
      type: "constant"
      value: 0.2
    }
  }
}
layer {
  name: "inception_4b/5x5_BatchNorm"
  type: "BatchNorm"
  bottom: "inception_4b/5x5_raw"
  top: "inception_4b/5x5"
  param {
    lr_mult: 1
    decay_mult: 0
  }
  param {
    lr_mult: 1
    decay_mult: 0
  }
  param {
    lr_mult: 0
    decay_mult: 0
  }
  param {
    lr_mult: 0
    decay_mult: 0
  }
  batch_norm_param {
    use_global_stats: false
    eps: 1e-05
    scale_filler {
      type: "constant"
      value: 1
    }
    bias_filler {
      type: "constant"
      value: 0
    }
  }
}
layer {
  name: "inception_4b/relu_5x5"
  type: "ReLU"
  bottom: "inception_4b/5x5"
  top: "inception_4b/5x5"
}
layer {
  name: "inception_4b/pool"
  type: "Pooling"
  bottom: "inception_4a/output"
  top: "inception_4b/pool"
  pooling_param {
    pool: MAX
    kernel_size: 3
    stride: 1
    pad: 1
  }
}
layer {
  name: "inception_4b/pool_proj"
  type: "Convolution"
  bottom: "inception_4b/pool"
  top: "inception_4b/pool_proj_raw"
  param {
    lr_mult: 1
    decay_mult: 1
  }
  convolution_param {
    num_output: 64
    kernel_size: 1
    weight_filler {
      type: "msra"
    }
    bias_filler {
      type: "constant"
      value: 0.2
    }
  }
}
layer {
  name: "inception_4b/pool_proj_BatchNorm"
  type: "BatchNorm"
  bottom: "inception_4b/pool_proj_raw"
  top: "inception_4b/pool_proj"
  param {
    lr_mult: 1
    decay_mult: 0
  }
  param {
    lr_mult: 1
    decay_mult: 0
  }
  param {
    lr_mult: 0
    decay_mult: 0
  }
  param {
    lr_mult: 0
    decay_mult: 0
  }
  batch_norm_param {
    use_global_stats: false
    eps: 1e-05
    scale_filler {
      type: "constant"
      value: 1
    }
    bias_filler {
      type: "constant"
      value: 0
    }
  }
}
layer {
  name: "inception_4b/relu_pool_proj"
  type: "ReLU"
  bottom: "inception_4b/pool_proj"
  top: "inception_4b/pool_proj"
}
layer {
  name: "inception_4b/output"
  type: "Concat"
  bottom: "inception_4b/1x1"
  bottom: "inception_4b/3x3"
  bottom: "inception_4b/5x5"
  bottom: "inception_4b/pool_proj"
  top: "inception_4b/output"
}
layer {
  name: "inception_4c/1x1"
  type: "Convolution"
  bottom: "inception_4b/output"
  top: "inception_4c/1x1_raw"
  param {
    lr_mult: 1
    decay_mult: 1
  }
  convolution_param {
    num_output: 128
    kernel_size: 1
    weight_filler {
      type: "msra"
    }
    bias_filler {
      type: "constant"
      value: 0.2
    }
  }
}
layer {
  name: "inception_4c/1x1_BatchNorm"
  type: "BatchNorm"
  bottom: "inception_4c/1x1_raw"
  top: "inception_4c/1x1"
  param {
    lr_mult: 1
    decay_mult: 0
  }
  param {
    lr_mult: 1
    decay_mult: 0
  }
  param {
    lr_mult: 0
    decay_mult: 0
  }
  param {
    lr_mult: 0
    decay_mult: 0
  }
  batch_norm_param {
    use_
I0224 07:34:42.048935   233 layer_factory.hpp:123] Creating layer data
I0224 07:34:42.048964   233 net.cpp:140] Creating Layer data
I0224 07:34:42.048972   233 net.cpp:455] data -> data
I0224 07:34:42.048985   233 net.cpp:455] data -> label
I0224 07:34:42.049003   233 image_data_layer.cpp:87] Opening file /workspace/Segment/VAI/data/cityscapes/calibration.txt
I0224 07:34:42.049387   233 image_data_layer.cpp:97] Shuffling data
I0224 07:34:42.049468   233 image_data_layer.cpp:102] A total of 1000 images.
I0224 07:34:42.117553   233 image_data_layer.cpp:130] output data size: 1,3,512,1024
I0224 07:34:42.143860   233 internal_thread.cpp:73] Starting internal thread(s) on GPU 0
I0224 07:34:42.143965   233 net.cpp:190] Setting up data
I0224 07:34:42.143972   233 net.cpp:197] Top shape: 1 3 512 1024 (1572864)
I0224 07:34:42.143982   233 net.cpp:197] Top shape: 1 (1)
I0224 07:34:42.143986   233 net.cpp:205] Memory required for data: 6291460
I0224 07:34:42.143991   233 layer_factory.hpp:123] Creating layer conv1/7x7_s2
I0224 07:34:42.144014   233 net.cpp:140] Creating Layer conv1/7x7_s2
I0224 07:34:42.144018   233 net.cpp:481] conv1/7x7_s2 <- data
I0224 07:34:42.144026   233 net.cpp:455] conv1/7x7_s2 -> conv1/7x7_s2_raw
I0224 07:34:42.144527   233 net.cpp:190] Setting up conv1/7x7_s2
I0224 07:34:42.144536   233 net.cpp:197] Top shape: 1 64 256 512 (8388608)
I0224 07:34:42.144541   233 net.cpp:205] Memory required for data: 39845892
I0224 07:34:42.144564   233 layer_factory.hpp:123] Creating layer conv1/7x7_s2_BatchNorm
I0224 07:34:42.144573   233 net.cpp:140] Creating Layer conv1/7x7_s2_BatchNorm
I0224 07:34:42.144577   233 net.cpp:481] conv1/7x7_s2_BatchNorm <- conv1/7x7_s2_raw
I0224 07:34:42.144582   233 net.cpp:455] conv1/7x7_s2_BatchNorm -> conv1/7x7_s2
I0224 07:34:42.145171   233 net.cpp:190] Setting up conv1/7x7_s2_BatchNorm
I0224 07:34:42.145180   233 net.cpp:197] Top shape: 1 64 256 512 (8388608)
I0224 07:34:42.145185   233 net.cpp:205] Memory required for data: 73400324
I0224 07:34:42.145195   233 layer_factory.hpp:123] Creating layer conv1/relu_7x7
I0224 07:34:42.145201   233 net.cpp:140] Creating Layer conv1/relu_7x7
I0224 07:34:42.145205   233 net.cpp:481] conv1/relu_7x7 <- conv1/7x7_s2
I0224 07:34:42.145210   233 net.cpp:442] conv1/relu_7x7 -> conv1/7x7_s2 (in-place)
I0224 07:34:42.145218   233 net.cpp:190] Setting up conv1/relu_7x7
I0224 07:34:42.145221   233 net.cpp:197] Top shape: 1 64 256 512 (8388608)
I0224 07:34:42.145226   233 net.cpp:205] Memory required for data: 106954756
I0224 07:34:42.145228   233 layer_factory.hpp:123] Creating layer pool1/3x3_s2
I0224 07:34:42.145236   233 net.cpp:140] Creating Layer pool1/3x3_s2
I0224 07:34:42.145238   233 net.cpp:481] pool1/3x3_s2 <- conv1/7x7_s2
I0224 07:34:42.145243   233 net.cpp:455] pool1/3x3_s2 -> pool1/3x3_s2
I0224 07:34:42.145272   233 net.cpp:190] Setting up pool1/3x3_s2
I0224 07:34:42.145275   233 net.cpp:197] Top shape: 1 64 128 256 (2097152)
I0224 07:34:42.145280   233 net.cpp:205] Memory required for data: 115343364
I0224 07:34:42.145283   233 layer_factory.hpp:123] Creating layer conv2/3x3_reduce
I0224 07:34:42.145290   233 net.cpp:140] Creating Layer conv2/3x3_reduce
I0224 07:34:42.145293   233 net.cpp:481] conv2/3x3_reduce <- pool1/3x3_s2
I0224 07:34:42.145298   233 net.cpp:455] conv2/3x3_reduce -> conv2/3x3_reduce_raw
I0224 07:34:42.145560   233 net.cpp:190] Setting up conv2/3x3_reduce
I0224 07:34:42.145567   233 net.cpp:197] Top shape: 1 64 128 256 (2097152)
I0224 07:34:42.145572   233 net.cpp:205] Memory required for data: 123731972
I0224 07:34:42.145579   233 layer_factory.hpp:123] Creating layer conv2/3x3_reduce_BatchNorm
I0224 07:34:42.145587   233 net.cpp:140] Creating Layer conv2/3x3_reduce_BatchNorm
I0224 07:34:42.145591   233 net.cpp:481] conv2/3x3_reduce_BatchNorm <- conv2/3x3_reduce_raw
I0224 07:34:42.145596   233 net.cpp:455] conv2/3x3_reduce_BatchNorm -> conv2/3x3_reduce
I0224 07:34:42.146387   233 net.cpp:190] Setting up conv2/3x3_reduce_BatchNorm
I0224 07:34:42.146394   233 net.cpp:197] Top shape: 1 64 128 256 (2097152)
I0224 07:34:42.146399   233 net.cpp:205] Memory required for data: 132120580
I0224 07:34:42.146407   233 layer_factory.hpp:123] Creating layer conv2/relu_3x3_reduce
I0224 07:34:42.146414   233 net.cpp:140] Creating Layer conv2/relu_3x3_reduce
I0224 07:34:42.146416   233 net.cpp:481] conv2/relu_3x3_reduce <- conv2/3x3_reduce
I0224 07:34:42.146421   233 net.cpp:442] conv2/relu_3x3_reduce -> conv2/3x3_reduce (in-place)
I0224 07:34:42.146427   233 net.cpp:190] Setting up conv2/relu_3x3_reduce
I0224 07:34:42.146430   233 net.cpp:197] Top shape: 1 64 128 256 (2097152)
I0224 07:34:42.146435   233 net.cpp:205] Memory required for data: 140509188
I0224 07:34:42.146438   233 layer_factory.hpp:123] Creating layer conv2/3x3
I0224 07:34:42.146445   233 net.cpp:140] Creating Layer conv2/3x3
I0224 07:34:42.146450   233 net.cpp:481] conv2/3x3 <- conv2/3x3_reduce
I0224 07:34:42.146453   233 net.cpp:455] conv2/3x3 -> conv2/3x3_raw
I0224 07:34:42.148425   233 net.cpp:190] Setting up conv2/3x3
I0224 07:34:42.148435   233 net.cpp:197] Top shape: 1 192 128 256 (6291456)
I0224 07:34:42.148442   233 net.cpp:205] Memory required for data: 165675012
I0224 07:34:42.148448   233 layer_factory.hpp:123] Creating layer conv2/3x3_BatchNorm
I0224 07:34:42.148456   233 net.cpp:140] Creating Layer conv2/3x3_BatchNorm
I0224 07:34:42.148459   233 net.cpp:481] conv2/3x3_BatchNorm <- conv2/3x3_raw
I0224 07:34:42.148465   233 net.cpp:455] conv2/3x3_BatchNorm -> conv2/3x3
I0224 07:34:42.149008   233 net.cpp:190] Setting up conv2/3x3_BatchNorm
I0224 07:34:42.149014   233 net.cpp:197] Top shape: 1 192 128 256 (6291456)
I0224 07:34:42.149019   233 net.cpp:205] Memory required for data: 190840836
I0224 07:34:42.149029   233 layer_factory.hpp:123] Creating layer conv2/relu_3x3
I0224 07:34:42.149034   233 net.cpp:140] Creating Layer conv2/relu_3x3
I0224 07:34:42.149037   233 net.cpp:481] conv2/relu_3x3 <- conv2/3x3
I0224 07:34:42.149042   233 net.cpp:442] conv2/relu_3x3 -> conv2/3x3 (in-place)
I0224 07:34:42.149047   233 net.cpp:190] Setting up conv2/relu_3x3
I0224 07:34:42.149050   233 net.cpp:197] Top shape: 1 192 128 256 (6291456)
I0224 07:34:42.149055   233 net.cpp:205] Memory required for data: 216006660
I0224 07:34:42.149058   233 layer_factory.hpp:123] Creating layer conv2/3x3_conv2/relu_3x3_0_split
I0224 07:34:42.149067   233 net.cpp:140] Creating Layer conv2/3x3_conv2/relu_3x3_0_split
I0224 07:34:42.149071   233 net.cpp:481] conv2/3x3_conv2/relu_3x3_0_split <- conv2/3x3
I0224 07:34:42.149075   233 net.cpp:455] conv2/3x3_conv2/relu_3x3_0_split -> conv2/3x3_conv2/relu_3x3_0_split_0
I0224 07:34:42.149080   233 net.cpp:455] conv2/3x3_conv2/relu_3x3_0_split -> conv2/3x3_conv2/relu_3x3_0_split_1
I0224 07:34:42.149107   233 net.cpp:190] Setting up conv2/3x3_conv2/relu_3x3_0_split
I0224 07:34:42.149111   233 net.cpp:197] Top shape: 1 192 128 256 (6291456)
I0224 07:34:42.149116   233 net.cpp:197] Top shape: 1 192 128 256 (6291456)
I0224 07:34:42.149119   233 net.cpp:205] Memory required for data: 266338308
I0224 07:34:42.149122   233 layer_factory.hpp:123] Creating layer pool2/3x3_s2
I0224 07:34:42.149128   233 net.cpp:140] Creating Layer pool2/3x3_s2
I0224 07:34:42.149132   233 net.cpp:481] pool2/3x3_s2 <- conv2/3x3_conv2/relu_3x3_0_split_0
I0224 07:34:42.149137   233 net.cpp:455] pool2/3x3_s2 -> pool2/3x3_s2
I0224 07:34:42.149161   233 net.cpp:190] Setting up pool2/3x3_s2
I0224 07:34:42.149165   233 net.cpp:197] Top shape: 1 192 64 128 (1572864)
I0224 07:34:42.149170   233 net.cpp:205] Memory required for data: 272629764
I0224 07:34:42.149173   233 layer_factory.hpp:123] Creating layer pool2/3x3_s2_pool2/3x3_s2_0_split
I0224 07:34:42.149178   233 net.cpp:140] Creating Layer pool2/3x3_s2_pool2/3x3_s2_0_split
I0224 07:34:42.149181   233 net.cpp:481] pool2/3x3_s2_pool2/3x3_s2_0_split <- pool2/3x3_s2
I0224 07:34:42.149186   233 net.cpp:455] pool2/3x3_s2_pool2/3x3_s2_0_split -> pool2/3x3_s2_pool2/3x3_s2_0_split_0
I0224 07:34:42.149191   233 net.cpp:455] pool2/3x3_s2_pool2/3x3_s2_0_split -> pool2/3x3_s2_pool2/3x3_s2_0_split_1
I0224 07:34:42.149196   233 net.cpp:455] pool2/3x3_s2_pool2/3x3_s2_0_split -> pool2/3x3_s2_pool2/3x3_s2_0_split_2
I0224 07:34:42.149200   233 net.cpp:455] pool2/3x3_s2_pool2/3x3_s2_0_split -> pool2/3x3_s2_pool2/3x3_s2_0_split_3
I0224 07:34:42.149242   233 net.cpp:190] Setting up pool2/3x3_s2_pool2/3x3_s2_0_split
I0224 07:34:42.149248   233 net.cpp:197] Top shape: 1 192 64 128 (1572864)
I0224 07:34:42.149253   233 net.cpp:197] Top shape: 1 192 64 128 (1572864)
I0224 07:34:42.149257   233 net.cpp:197] Top shape: 1 192 64 128 (1572864)
I0224 07:34:42.149261   233 net.cpp:197] Top shape: 1 192 64 128 (1572864)
I0224 07:34:42.149264   233 net.cpp:205] Memory required for data: 297795588
I0224 07:34:42.149267   233 layer_factory.hpp:123] Creating layer inception_3a/1x1
I0224 07:34:42.149276   233 net.cpp:140] Creating Layer inception_3a/1x1
I0224 07:34:42.149279   233 net.cpp:481] inception_3a/1x1 <- pool2/3x3_s2_pool2/3x3_s2_0_split_0
I0224 07:34:42.149283   233 net.cpp:455] inception_3a/1x1 -> inception_3a/1x1_raw
I0224 07:34:42.149611   233 net.cpp:190] Setting up inception_3a/1x1
I0224 07:34:42.149619   233 net.cpp:197] Top shape: 1 64 64 128 (524288)
I0224 07:34:42.149624   233 net.cpp:205] Memory required for data: 299892740
I0224 07:34:42.149631   233 layer_factory.hpp:123] Creating layer inception_3a/1x1_BatchNorm
I0224 07:34:42.149637   233 net.cpp:140] Creating Layer inception_3a/1x1_BatchNorm
I0224 07:34:42.149641   233 net.cpp:481] inception_3a/1x1_BatchNorm <- inception_3a/1x1_raw
I0224 07:34:42.149646   233 net.cpp:455] inception_3a/1x1_BatchNorm -> inception_3a/1x1
I0224 07:34:42.150185   233 net.cpp:190] Setting up inception_3a/1x1_BatchNorm
I0224 07:34:42.150195   233 net.cpp:197] Top shape: 1 64 64 128 (524288)
I0224 07:34:42.150202   233 net.cpp:205] Memory required for data: 301989892
I0224 07:34:42.150209   233 layer_factory.hpp:123] Creating layer inception_3a/relu_1x1
I0224 07:34:42.150216   233 net.cpp:140] Creating Layer inception_3a/relu_1x1
I0224 07:34:42.150219   233 net.cpp:481] inception_3a/relu_1x1 <- inception_3a/1x1
I0224 07:34:42.150224   233 net.cpp:442] inception_3a/relu_1x1 -> inception_3a/1x1 (in-place)
I0224 07:34:42.150230   233 net.cpp:190] Setting up inception_3a/relu_1x1
I0224 07:34:42.150233   233 net.cpp:197] Top shape: 1 64 64 128 (524288)
I0224 07:34:42.150238   233 net.cpp:205] Memory required for data: 304087044
I0224 07:34:42.150240   233 layer_factory.hpp:123] Creating layer inception_3a/3x3_reduce
I0224 07:34:42.150247   233 net.cpp:140] Creating Layer inception_3a/3x3_reduce
I0224 07:34:42.150251   233 net.cpp:481] inception_3a/3x3_reduce <- pool2/3x3_s2_pool2/3x3_s2_0_split_1
I0224 07:34:42.150256   233 net.cpp:455] inception_3a/3x3_reduce -> inception_3a/3x3_reduce_raw
I0224 07:34:42.150630   233 net.cpp:190] Setting up inception_3a/3x3_reduce
I0224 07:34:42.150638   233 net.cpp:197] Top shape: 1 96 64 128 (786432)
I0224 07:34:42.150643   233 net.cpp:205] Memory required for data: 307232772
I0224 07:34:42.150648   233 layer_factory.hpp:123] Creating layer inception_3a/3x3_reduce_BatchNorm
I0224 07:34:42.150655   233 net.cpp:140] Creating Layer inception_3a/3x3_reduce_BatchNorm
I0224 07:34:42.150660   233 net.cpp:481] inception_3a/3x3_reduce_BatchNorm <- inception_3a/3x3_reduce_raw
I0224 07:34:42.150665   233 net.cpp:455] inception_3a/3x3_reduce_BatchNorm -> inception_3a/3x3_reduce
I0224 07:34:42.151192   233 net.cpp:190] Setting up inception_3a/3x3_reduce_BatchNorm
I0224 07:34:42.151201   233 net.cpp:197] Top shape: 1 96 64 128 (786432)
I0224 07:34:42.151206   233 net.cpp:205] Memory required for data: 310378500
I0224 07:34:42.151216   233 layer_factory.hpp:123] Creating layer inception_3a/relu_3x3_reduce
I0224 07:34:42.151221   233 net.cpp:140] Creating Layer inception_3a/relu_3x3_reduce
I0224 07:34:42.151224   233 net.cpp:481] inception_3a/relu_3x3_reduce <- inception_3a/3x3_reduce
I0224 07:34:42.151229   233 net.cpp:442] inception_3a/relu_3x3_reduce -> inception_3a/3x3_reduce (in-place)
I0224 07:34:42.151235   233 net.cpp:190] Setting up inception_3a/relu_3x3_reduce
I0224 07:34:42.151238   233 net.cpp:197] Top shape: 1 96 64 128 (786432)
I0224 07:34:42.151242   233 net.cpp:205] Memory required for data: 313524228
I0224 07:34:42.151245   233 layer_factory.hpp:123] Creating layer inception_3a/3x3
I0224 07:34:42.151252   233 net.cpp:140] Creating Layer inception_3a/3x3
I0224 07:34:42.151255   233 net.cpp:481] inception_3a/3x3 <- inception_3a/3x3_reduce
I0224 07:34:42.151260   233 net.cpp:455] inception_3a/3x3 -> inception_3a/3x3_raw
I0224 07:34:42.152402   233 net.cpp:190] Setting up inception_3a/3x3
I0224 07:34:42.152410   233 net.cpp:197] Top shape: 1 128 64 128 (1048576)
I0224 07:34:42.152415   233 net.cpp:205] Memory required for data: 317718532
I0224 07:34:42.152421   233 layer_factory.hpp:123] Creating layer inception_3a/3x3_BatchNorm
I0224 07:34:42.152428   233 net.cpp:140] Creating Layer inception_3a/3x3_BatchNorm
I0224 07:34:42.152432   233 net.cpp:481] inception_3a/3x3_BatchNorm <- inception_3a/3x3_raw
I0224 07:34:42.152437   233 net.cpp:455] inception_3a/3x3_BatchNorm -> inception_3a/3x3
I0224 07:34:42.152889   233 net.cpp:190] Setting up inception_3a/3x3_BatchNorm
I0224 07:34:42.152896   233 net.cpp:197] Top shape: 1 128 64 128 (1048576)
I0224 07:34:42.152901   233 net.cpp:205] Memory required for data: 321912836
I0224 07:34:42.152909   233 layer_factory.hpp:123] Creating layer inception_3a/relu_3x3
I0224 07:34:42.152920   233 net.cpp:140] Creating Layer inception_3a/relu_3x3
I0224 07:34:42.152923   233 net.cpp:481] inception_3a/relu_3x3 <- inception_3a/3x3
I0224 07:34:42.152927   233 net.cpp:442] inception_3a/relu_3x3 -> inception_3a/3x3 (in-place)
I0224 07:34:42.152933   233 net.cpp:190] Setting up inception_3a/relu_3x3
I0224 07:34:42.152936   233 net.cpp:197] Top shape: 1 128 64 128 (1048576)
I0224 07:34:42.152940   233 net.cpp:205] Memory required for data: 326107140
I0224 07:34:42.152945   233 layer_factory.hpp:123] Creating layer inception_3a/5x5_reduce
I0224 07:34:42.152951   233 net.cpp:140] Creating Layer inception_3a/5x5_reduce
I0224 07:34:42.152956   233 net.cpp:481] inception_3a/5x5_reduce <- pool2/3x3_s2_pool2/3x3_s2_0_split_2
I0224 07:34:42.152961   233 net.cpp:455] inception_3a/5x5_reduce -> inception_3a/5x5_reduce_raw
I0224 07:34:42.153192   233 net.cpp:190] Setting up inception_3a/5x5_reduce
I0224 07:34:42.153198   233 net.cpp:197] Top shape: 1 16 64 128 (131072)
I0224 07:34:42.153203   233 net.cpp:205] Memory required for data: 326631428
I0224 07:34:42.153209   233 layer_factory.hpp:123] Creating layer inception_3a/5x5_reduce_BatchNorm
I0224 07:34:42.153218   233 net.cpp:140] Creating Layer inception_3a/5x5_reduce_BatchNorm
I0224 07:34:42.153223   233 net.cpp:481] inception_3a/5x5_reduce_BatchNorm <- inception_3a/5x5_reduce_raw
I0224 07:34:42.153231   233 net.cpp:455] inception_3a/5x5_reduce_BatchNorm -> inception_3a/5x5_reduce
I0224 07:34:42.153771   233 net.cpp:190] Setting up inception_3a/5x5_reduce_BatchNorm
I0224 07:34:42.153779   233 net.cpp:197] Top shape: 1 16 64 128 (131072)
I0224 07:34:42.153784   233 net.cpp:205] Memory required for data: 327155716
I0224 07:34:42.153792   233 layer_factory.hpp:123] Creating layer inception_3a/relu_5x5_reduce
I0224 07:34:42.153797   233 net.cpp:140] Creating Layer inception_3a/relu_5x5_reduce
I0224 07:34:42.153801   233 net.cpp:481] inception_3a/relu_5x5_reduce <- inception_3a/5x5_reduce
I0224 07:34:42.153806   233 net.cpp:442] inception_3a/relu_5x5_reduce -> inception_3a/5x5_reduce (in-place)
I0224 07:34:42.153811   233 net.cpp:190] Setting up inception_3a/relu_5x5_reduce
I0224 07:34:42.153815   233 net.cpp:197] Top shape: 1 16 64 128 (131072)
I0224 07:34:42.153818   233 net.cpp:205] Memory required for data: 327680004
I0224 07:34:42.153822   233 layer_factory.hpp:123] Creating layer inception_3a/5x5
I0224 07:34:42.153829   233 net.cpp:140] Creating Layer inception_3a/5x5
I0224 07:34:42.153832   233 net.cpp:481] inception_3a/5x5 <- inception_3a/5x5_reduce
I0224 07:34:42.153838   233 net.cpp:455] inception_3a/5x5 -> inception_3a/5x5_raw
I0224 07:34:42.154811   233 net.cpp:190] Setting up inception_3a/5x5
I0224 07:34:42.154821   233 net.cpp:197] Top shape: 1 32 64 128 (262144)
I0224 07:34:42.154827   233 net.cpp:205] Memory required for data: 328728580
I0224 07:34:42.154834   233 layer_factory.hpp:123] Creating layer inception_3a/5x5_BatchNorm
I0224 07:34:42.154841   233 net.cpp:140] Creating Layer inception_3a/5x5_BatchNorm
I0224 07:34:42.154845   233 net.cpp:481] inception_3a/5x5_BatchNorm <- inception_3a/5x5_raw
I0224 07:34:42.154850   233 net.cpp:455] inception_3a/5x5_BatchNorm -> inception_3a/5x5
I0224 07:34:42.155390   233 net.cpp:190] Setting up inception_3a/5x5_BatchNorm
I0224 07:34:42.155397   233 net.cpp:197] Top shape: 1 32 64 128 (262144)
I0224 07:34:42.155402   233 net.cpp:205] Memory required for data: 329777156
I0224 07:34:42.155411   233 layer_factory.hpp:123] Creating layer inception_3a/relu_5x5
I0224 07:34:42.155416   233 net.cpp:140] Creating Layer inception_3a/relu_5x5
I0224 07:34:42.155419   233 net.cpp:481] inception_3a/relu_5x5 <- inception_3a/5x5
I0224 07:34:42.155424   233 net.cpp:442] inception_3a/relu_5x5 -> inception_3a/5x5 (in-place)
I0224 07:34:42.155429   233 net.cpp:190] Setting up inception_3a/relu_5x5
I0224 07:34:42.155432   233 net.cpp:197] Top shape: 1 32 64 128 (262144)
I0224 07:34:42.155436   233 net.cpp:205] Memory required for data: 330825732
I0224 07:34:42.155439   233 layer_factory.hpp:123] Creating layer inception_3a/pool
I0224 07:34:42.155445   233 net.cpp:140] Creating Layer inception_3a/pool
I0224 07:34:42.155448   233 net.cpp:481] inception_3a/pool <- pool2/3x3_s2_pool2/3x3_s2_0_split_3
I0224 07:34:42.155453   233 net.cpp:455] inception_3a/pool -> inception_3a/pool
I0224 07:34:42.155481   233 net.cpp:190] Setting up inception_3a/pool
I0224 07:34:42.155485   233 net.cpp:197] Top shape: 1 192 64 128 (1572864)
I0224 07:34:42.155489   233 net.cpp:205] Memory required for data: 337117188
I0224 07:34:42.155493   233 layer_factory.hpp:123] Creating layer inception_3a/pool_proj
I0224 07:34:42.155500   233 net.cpp:140] Creating Layer inception_3a/pool_proj
I0224 07:34:42.155503   233 net.cpp:481] inception_3a/pool_proj <- inception_3a/pool
I0224 07:34:42.155508   233 net.cpp:455] inception_3a/pool_proj -> inception_3a/pool_proj_raw
I0224 07:34:42.155758   233 net.cpp:190] Setting up inception_3a/pool_proj
I0224 07:34:42.155766   233 net.cpp:197] Top shape: 1 32 64 128 (262144)
I0224 07:34:42.155771   233 net.cpp:205] Memory required for data: 338165764
I0224 07:34:42.155776   233 layer_factory.hpp:123] Creating layer inception_3a/pool_proj_BatchNorm
I0224 07:34:42.155782   233 net.cpp:140] Creating Layer inception_3a/pool_proj_BatchNorm
I0224 07:34:42.155786   233 net.cpp:481] inception_3a/pool_proj_BatchNorm <- inception_3a/pool_proj_raw
I0224 07:34:42.155791   233 net.cpp:455] inception_3a/pool_proj_BatchNorm -> inception_3a/pool_proj
I0224 07:34:42.156312   233 net.cpp:190] Setting up inception_3a/pool_proj_BatchNorm
I0224 07:34:42.156319   233 net.cpp:197] Top shape: 1 32 64 128 (262144)
I0224 07:34:42.156324   233 net.cpp:205] Memory required for data: 339214340
I0224 07:34:42.156332   233 layer_factory.hpp:123] Creating layer inception_3a/relu_pool_proj
I0224 07:34:42.156338   233 net.cpp:140] Creating Layer inception_3a/relu_pool_proj
I0224 07:34:42.156342   233 net.cpp:481] inception_3a/relu_pool_proj <- inception_3a/pool_proj
I0224 07:34:42.156347   233 net.cpp:442] inception_3a/relu_pool_proj -> inception_3a/pool_proj (in-place)
I0224 07:34:42.156352   233 net.cpp:190] Setting up inception_3a/relu_pool_proj
I0224 07:34:42.156356   233 net.cpp:197] Top shape: 1 32 64 128 (262144)
I0224 07:34:42.156360   233 net.cpp:205] Memory required for data: 340262916
I0224 07:34:42.156363   233 layer_factory.hpp:123] Creating layer inception_3a/output
I0224 07:34:42.156373   233 net.cpp:140] Creating Layer inception_3a/output
I0224 07:34:42.156376   233 net.cpp:481] inception_3a/output <- inception_3a/1x1
I0224 07:34:42.156380   233 net.cpp:481] inception_3a/output <- inception_3a/3x3
I0224 07:34:42.156383   233 net.cpp:481] inception_3a/output <- inception_3a/5x5
I0224 07:34:42.156388   233 net.cpp:481] inception_3a/output <- inception_3a/pool_proj
I0224 07:34:42.156391   233 net.cpp:455] inception_3a/output -> inception_3a/output
I0224 07:34:42.156410   233 net.cpp:190] Setting up inception_3a/output
I0224 07:34:42.156414   233 net.cpp:197] Top shape: 1 256 64 128 (2097152)
I0224 07:34:42.156419   233 net.cpp:205] Memory required for data: 348651524
I0224 07:34:42.156422   233 layer_factory.hpp:123] Creating layer inception_3a/output_inception_3a/output_0_split
I0224 07:34:42.156428   233 net.cpp:140] Creating Layer inception_3a/output_inception_3a/output_0_split
I0224 07:34:42.156432   233 net.cpp:481] inception_3a/output_inception_3a/output_0_split <- inception_3a/output
I0224 07:34:42.156437   233 net.cpp:455] inception_3a/output_inception_3a/output_0_split -> inception_3a/output_inception_3a/output_0_split_0
I0224 07:34:42.156442   233 net.cpp:455] inception_3a/output_inception_3a/output_0_split -> inception_3a/output_inception_3a/output_0_split_1
I0224 07:34:42.156447   233 net.cpp:455] inception_3a/output_inception_3a/output_0_split -> inception_3a/output_inception_3a/output_0_split_2
I0224 07:34:42.156453   233 net.cpp:455] inception_3a/output_inception_3a/output_0_split -> inception_3a/output_inception_3a/output_0_split_3
I0224 07:34:42.156495   233 net.cpp:190] Setting up inception_3a/output_inception_3a/output_0_split
I0224 07:34:42.156500   233 net.cpp:197] Top shape: 1 256 64 128 (2097152)
I0224 07:34:42.156505   233 net.cpp:197] Top shape: 1 256 64 128 (2097152)
I0224 07:34:42.156509   233 net.cpp:197] Top shape: 1 256 64 128 (2097152)
I0224 07:34:42.156513   233 net.cpp:197] Top shape: 1 256 64 128 (2097152)
I0224 07:34:42.156517   233 net.cpp:205] Memory required for data: 382205956
I0224 07:34:42.156520   233 layer_factory.hpp:123] Creating layer inception_3b/1x1
I0224 07:34:42.156527   233 net.cpp:140] Creating Layer inception_3b/1x1
I0224 07:34:42.156531   233 net.cpp:481] inception_3b/1x1 <- inception_3a/output_inception_3a/output_0_split_0
I0224 07:34:42.156535   233 net.cpp:455] inception_3b/1x1 -> inception_3b/1x1_raw
I0224 07:34:42.157019   233 net.cpp:190] Setting up inception_3b/1x1
I0224 07:34:42.157025   233 net.cpp:197] Top shape: 1 128 64 128 (1048576)
I0224 07:34:42.157030   233 net.cpp:205] Memory required for data: 386400260
I0224 07:34:42.157039   233 layer_factory.hpp:123] Creating layer inception_3b/1x1_BatchNorm
I0224 07:34:42.157045   233 net.cpp:140] Creating Layer inception_3b/1x1_BatchNorm
I0224 07:34:42.157049   233 net.cpp:481] inception_3b/1x1_BatchNorm <- inception_3b/1x1_raw
I0224 07:34:42.157054   233 net.cpp:455] inception_3b/1x1_BatchNorm -> inception_3b/1x1
I0224 07:34:42.157511   233 net.cpp:190] Setting up inception_3b/1x1_BatchNorm
I0224 07:34:42.157519   233 net.cpp:197] Top shape: 1 128 64 128 (1048576)
I0224 07:34:42.157524   233 net.cpp:205] Memory required for data: 390594564
I0224 07:34:42.157532   233 layer_factory.hpp:123] Creating layer inception_3b/relu_1x1
I0224 07:34:42.157538   233 net.cpp:140] Creating Layer inception_3b/relu_1x1
I0224 07:34:42.157541   233 net.cpp:481] inception_3b/relu_1x1 <- inception_3b/1x1
I0224 07:34:42.157546   233 net.cpp:442] inception_3b/relu_1x1 -> inception_3b/1x1 (in-place)
I0224 07:34:42.157552   233 net.cpp:190] Setting up inception_3b/relu_1x1
I0224 07:34:42.157555   233 net.cpp:197] Top shape: 1 128 64 128 (1048576)
I0224 07:34:42.157559   233 net.cpp:205] Memory required for data: 394788868
I0224 07:34:42.157562   233 layer_factory.hpp:123] Creating layer inception_3b/3x3_reduce
I0224 07:34:42.157569   233 net.cpp:140] Creating Layer inception_3b/3x3_reduce
I0224 07:34:42.157572   233 net.cpp:481] inception_3b/3x3_reduce <- inception_3a/output_inception_3a/output_0_split_1
I0224 07:34:42.157588   233 net.cpp:455] inception_3b/3x3_reduce -> inception_3b/3x3_reduce_raw
I0224 07:34:42.158063   233 net.cpp:190] Setting up inception_3b/3x3_reduce
I0224 07:34:42.158071   233 net.cpp:197] Top shape: 1 128 64 128 (1048576)
I0224 07:34:42.158075   233 net.cpp:205] Memory required for data: 398983172
I0224 07:34:42.158080   233 layer_factory.hpp:123] Creating layer inception_3b/3x3_reduce_BatchNorm
I0224 07:34:42.158087   233 net.cpp:140] Creating Layer inception_3b/3x3_reduce_BatchNorm
I0224 07:34:42.158090   233 net.cpp:481] inception_3b/3x3_reduce_BatchNorm <- inception_3b/3x3_reduce_raw
I0224 07:34:42.158095   233 net.cpp:455] inception_3b/3x3_reduce_BatchNorm -> inception_3b/3x3_reduce
I0224 07:34:42.158547   233 net.cpp:190] Setting up inception_3b/3x3_reduce_BatchNorm
I0224 07:34:42.158555   233 net.cpp:197] Top shape: 1 128 64 128 (1048576)
I0224 07:34:42.158560   233 net.cpp:205] Memory required for data: 403177476
I0224 07:34:42.158567   233 layer_factory.hpp:123] Creating layer inception_3b/relu_3x3_reduce
I0224 07:34:42.158573   233 net.cpp:140] Creating Layer inception_3b/relu_3x3_reduce
I0224 07:34:42.158577   233 net.cpp:481] inception_3b/relu_3x3_reduce <- inception_3b/3x3_reduce
I0224 07:34:42.158581   233 net.cpp:442] inception_3b/relu_3x3_reduce -> inception_3b/3x3_reduce (in-place)
I0224 07:34:42.158587   233 net.cpp:190] Setting up inception_3b/relu_3x3_reduce
I0224 07:34:42.158591   233 net.cpp:197] Top shape: 1 128 64 128 (1048576)
I0224 07:34:42.158594   233 net.cpp:205] Memory required for data: 407371780
I0224 07:34:42.158597   233 layer_factory.hpp:123] Creating layer inception_3b/3x3
I0224 07:34:42.158604   233 net.cpp:140] Creating Layer inception_3b/3x3
I0224 07:34:42.158607   233 net.cpp:481] inception_3b/3x3 <- inception_3b/3x3_reduce
I0224 07:34:42.158612   233 net.cpp:455] inception_3b/3x3 -> inception_3b/3x3_raw
I0224 07:34:42.161360   233 net.cpp:190] Setting up inception_3b/3x3
I0224 07:34:42.161370   233 net.cpp:197] Top shape: 1 192 64 128 (1572864)
I0224 07:34:42.161375   233 net.cpp:205] Memory required for data: 413663236
I0224 07:34:42.161382   233 layer_factory.hpp:123] Creating layer inception_3b/3x3_BatchNorm
I0224 07:34:42.161391   233 net.cpp:140] Creating Layer inception_3b/3x3_BatchNorm
I0224 07:34:42.161394   233 net.cpp:481] inception_3b/3x3_BatchNorm <- inception_3b/3x3_raw
I0224 07:34:42.161399   233 net.cpp:455] inception_3b/3x3_BatchNorm -> inception_3b/3x3
I0224 07:34:42.161928   233 net.cpp:190] Setting up inception_3b/3x3_BatchNorm
I0224 07:34:42.161936   233 net.cpp:197] Top shape: 1 192 64 128 (1572864)
I0224 07:34:42.161942   233 net.cpp:205] Memory required for data: 419954692
I0224 07:34:42.161949   233 layer_factory.hpp:123] Creating layer inception_3b/relu_3x3
I0224 07:34:42.161954   233 net.cpp:140] Creating Layer inception_3b/relu_3x3
I0224 07:34:42.161957   233 net.cpp:481] inception_3b/relu_3x3 <- inception_3b/3x3
I0224 07:34:42.161962   233 net.cpp:442] inception_3b/relu_3x3 -> inception_3b/3x3 (in-place)
I0224 07:34:42.161968   233 net.cpp:190] Setting up inception_3b/relu_3x3
I0224 07:34:42.161972   233 net.cpp:197] Top shape: 1 192 64 128 (1572864)
I0224 07:34:42.161975   233 net.cpp:205] Memory required for data: 426246148
I0224 07:34:42.161978   233 layer_factory.hpp:123] Creating layer inception_3b/5x5_reduce
I0224 07:34:42.161985   233 net.cpp:140] Creating Layer inception_3b/5x5_reduce
I0224 07:34:42.161988   233 net.cpp:481] inception_3b/5x5_reduce <- inception_3a/output_inception_3a/output_0_split_2
I0224 07:34:42.161993   233 net.cpp:455] inception_3b/5x5_reduce -> inception_3b/5x5_reduce_raw
I0224 07:34:42.162268   233 net.cpp:190] Setting up inception_3b/5x5_reduce
I0224 07:34:42.162276   233 net.cpp:197] Top shape: 1 32 64 128 (262144)
I0224 07:34:42.162281   233 net.cpp:205] Memory required for data: 427294724
I0224 07:34:42.162286   233 layer_factory.hpp:123] Creating layer inception_3b/5x5_reduce_BatchNorm
I0224 07:34:42.162294   233 net.cpp:140] Creating Layer inception_3b/5x5_reduce_BatchNorm
I0224 07:34:42.162297   233 net.cpp:481] inception_3b/5x5_reduce_BatchNorm <- inception_3b/5x5_reduce_raw
I0224 07:34:42.162302   233 net.cpp:455] inception_3b/5x5_reduce_BatchNorm -> inception_3b/5x5_reduce
I0224 07:34:42.162839   233 net.cpp:190] Setting up inception_3b/5x5_reduce_BatchNorm
I0224 07:34:42.162847   233 net.cpp:197] Top shape: 1 32 64 128 (262144)
I0224 07:34:42.162851   233 net.cpp:205] Memory required for data: 428343300
I0224 07:34:42.162859   233 layer_factory.hpp:123] Creating layer inception_3b/relu_5x5_reduce
I0224 07:34:42.162863   233 net.cpp:140] Creating Layer inception_3b/relu_5x5_reduce
I0224 07:34:42.162868   233 net.cpp:481] inception_3b/relu_5x5_reduce <- inception_3b/5x5_reduce
I0224 07:34:42.162873   233 net.cpp:442] inception_3b/relu_5x5_reduce -> inception_3b/5x5_reduce (in-place)
I0224 07:34:42.162878   233 net.cpp:190] Setting up inception_3b/relu_5x5_reduce
I0224 07:34:42.162881   233 net.cpp:197] Top shape: 1 32 64 128 (262144)
I0224 07:34:42.162885   233 net.cpp:205] Memory required for data: 429391876
I0224 07:34:42.162889   233 layer_factory.hpp:123] Creating layer inception_3b/5x5
I0224 07:34:42.162895   233 net.cpp:140] Creating Layer inception_3b/5x5
I0224 07:34:42.162899   233 net.cpp:481] inception_3b/5x5 <- inception_3b/5x5_reduce
I0224 07:34:42.162904   233 net.cpp:455] inception_3b/5x5 -> inception_3b/5x5_raw
I0224 07:34:42.163776   233 net.cpp:190] Setting up inception_3b/5x5
I0224 07:34:42.163784   233 net.cpp:197] Top shape: 1 96 64 128 (786432)
I0224 07:34:42.163789   233 net.cpp:205] Memory required for data: 432537604
I0224 07:34:42.163794   233 layer_factory.hpp:123] Creating layer inception_3b/5x5_BatchNorm
I0224 07:34:42.163801   233 net.cpp:140] Creating Layer inception_3b/5x5_BatchNorm
I0224 07:34:42.163805   233 net.cpp:481] inception_3b/5x5_BatchNorm <- inception_3b/5x5_raw
I0224 07:34:42.163810   233 net.cpp:455] inception_3b/5x5_BatchNorm -> inception_3b/5x5
I0224 07:34:42.164352   233 net.cpp:190] Setting up inception_3b/5x5_BatchNorm
I0224 07:34:42.164360   233 net.cpp:197] Top shape: 1 96 64 128 (786432)
I0224 07:34:42.164364   233 net.cpp:205] Memory required for data: 435683332
I0224 07:34:42.164372   233 layer_factory.hpp:123] Creating layer inception_3b/relu_5x5
I0224 07:34:42.164377   233 net.cpp:140] Creating Layer inception_3b/relu_5x5
I0224 07:34:42.164381   233 net.cpp:481] inception_3b/relu_5x5 <- inception_3b/5x5
I0224 07:34:42.164386   233 net.cpp:442] inception_3b/relu_5x5 -> inception_3b/5x5 (in-place)
I0224 07:34:42.164391   233 net.cpp:190] Setting up inception_3b/relu_5x5
I0224 07:34:42.164394   233 net.cpp:197] Top shape: 1 96 64 128 (786432)
I0224 07:34:42.164398   233 net.cpp:205] Memory required for data: 438829060
I0224 07:34:42.164402   233 layer_factory.hpp:123] Creating layer inception_3b/pool
I0224 07:34:42.164407   233 net.cpp:140] Creating Layer inception_3b/pool
I0224 07:34:42.164409   233 net.cpp:481] inception_3b/pool <- inception_3a/output_inception_3a/output_0_split_3
I0224 07:34:42.164414   233 net.cpp:455] inception_3b/pool -> inception_3b/pool
I0224 07:34:42.164443   233 net.cpp:190] Setting up inception_3b/pool
I0224 07:34:42.164446   233 net.cpp:197] Top shape: 1 256 64 128 (2097152)
I0224 07:34:42.164451   233 net.cpp:205] Memory required for data: 447217668
I0224 07:34:42.164454   233 layer_factory.hpp:123] Creating layer inception_3b/pool_proj
I0224 07:34:42.164461   233 net.cpp:140] Creating Layer inception_3b/pool_proj
I0224 07:34:42.164464   233 net.cpp:481] inception_3b/pool_proj <- inception_3b/pool
I0224 07:34:42.164469   233 net.cpp:455] inception_3b/pool_proj -> inception_3b/pool_proj_raw
I0224 07:34:42.164815   233 net.cpp:190] Setting up inception_3b/pool_proj
I0224 07:34:42.164822   233 net.cpp:197] Top shape: 1 64 64 128 (524288)
I0224 07:34:42.164827   233 net.cpp:205] Memory required for data: 449314820
I0224 07:34:42.164834   233 layer_factory.hpp:123] Creating layer inception_3b/pool_proj_BatchNorm
I0224 07:34:42.164840   233 net.cpp:140] Creating Layer inception_3b/pool_proj_BatchNorm
I0224 07:34:42.164844   233 net.cpp:481] inception_3b/pool_proj_BatchNorm <- inception_3b/pool_proj_raw
I0224 07:34:42.164849   233 net.cpp:455] inception_3b/pool_proj_BatchNorm -> inception_3b/pool_proj
I0224 07:34:42.165397   233 net.cpp:190] Setting up inception_3b/pool_proj_BatchNorm
I0224 07:34:42.165405   233 net.cpp:197] Top shape: 1 64 64 128 (524288)
I0224 07:34:42.165410   233 net.cpp:205] Memory required for data: 451411972
I0224 07:34:42.165417   233 layer_factory.hpp:123] Creating layer inception_3b/relu_pool_proj
I0224 07:34:42.165422   233 net.cpp:140] Creating Layer inception_3b/relu_pool_proj
I0224 07:34:42.165426   233 net.cpp:481] inception_3b/relu_pool_proj <- inception_3b/pool_proj
I0224 07:34:42.165431   233 net.cpp:442] inception_3b/relu_pool_proj -> inception_3b/pool_proj (in-place)
I0224 07:34:42.165436   233 net.cpp:190] Setting up inception_3b/relu_pool_proj
I0224 07:34:42.165439   233 net.cpp:197] Top shape: 1 64 64 128 (524288)
I0224 07:34:42.165443   233 net.cpp:205] Memory required for data: 453509124
I0224 07:34:42.165446   233 layer_factory.hpp:123] Creating layer inception_3b/output
I0224 07:34:42.165452   233 net.cpp:140] Creating Layer inception_3b/output
I0224 07:34:42.165454   233 net.cpp:481] inception_3b/output <- inception_3b/1x1
I0224 07:34:42.165458   233 net.cpp:481] inception_3b/output <- inception_3b/3x3
I0224 07:34:42.165462   233 net.cpp:481] inception_3b/output <- inception_3b/5x5
I0224 07:34:42.165464   233 net.cpp:481] inception_3b/output <- inception_3b/pool_proj
I0224 07:34:42.165469   233 net.cpp:455] inception_3b/output -> inception_3b/output
I0224 07:34:42.165488   233 net.cpp:190] Setting up inception_3b/output
I0224 07:34:42.165491   233 net.cpp:197] Top shape: 1 480 64 128 (3932160)
I0224 07:34:42.165495   233 net.cpp:205] Memory required for data: 469237764
I0224 07:34:42.165498   233 layer_factory.hpp:123] Creating layer inception_3b/output_inception_3b/output_0_split
I0224 07:34:42.165503   233 net.cpp:140] Creating Layer inception_3b/output_inception_3b/output_0_split
I0224 07:34:42.165506   233 net.cpp:481] inception_3b/output_inception_3b/output_0_split <- inception_3b/output
I0224 07:34:42.165510   233 net.cpp:455] inception_3b/output_inception_3b/output_0_split -> inception_3b/output_inception_3b/output_0_split_0
I0224 07:34:42.165515   233 net.cpp:455] inception_3b/output_inception_3b/output_0_split -> inception_3b/output_inception_3b/output_0_split_1
I0224 07:34:42.165540   233 net.cpp:190] Setting up inception_3b/output_inception_3b/output_0_split
I0224 07:34:42.165544   233 net.cpp:197] Top shape: 1 480 64 128 (3932160)
I0224 07:34:42.165549   233 net.cpp:197] Top shape: 1 480 64 128 (3932160)
I0224 07:34:42.165552   233 net.cpp:205] Memory required for data: 500695044
I0224 07:34:42.165555   233 layer_factory.hpp:123] Creating layer pool3/3x3_s2
I0224 07:34:42.165561   233 net.cpp:140] Creating Layer pool3/3x3_s2
I0224 07:34:42.165565   233 net.cpp:481] pool3/3x3_s2 <- inception_3b/output_inception_3b/output_0_split_0
I0224 07:34:42.165570   233 net.cpp:455] pool3/3x3_s2 -> pool3/3x3_s2
I0224 07:34:42.165596   233 net.cpp:190] Setting up pool3/3x3_s2
I0224 07:34:42.165606   233 net.cpp:197] Top shape: 1 480 32 64 (983040)
I0224 07:34:42.165609   233 net.cpp:205] Memory required for data: 504627204
I0224 07:34:42.165613   233 layer_factory.hpp:123] Creating layer pool3/3x3_s2_pool3/3x3_s2_0_split
I0224 07:34:42.165618   233 net.cpp:140] Creating Layer pool3/3x3_s2_pool3/3x3_s2_0_split
I0224 07:34:42.165621   233 net.cpp:481] pool3/3x3_s2_pool3/3x3_s2_0_split <- pool3/3x3_s2
I0224 07:34:42.165627   233 net.cpp:455] pool3/3x3_s2_pool3/3x3_s2_0_split -> pool3/3x3_s2_pool3/3x3_s2_0_split_0
I0224 07:34:42.165632   233 net.cpp:455] pool3/3x3_s2_pool3/3x3_s2_0_split -> pool3/3x3_s2_pool3/3x3_s2_0_split_1
I0224 07:34:42.165637   233 net.cpp:455] pool3/3x3_s2_pool3/3x3_s2_0_split -> pool3/3x3_s2_pool3/3x3_s2_0_split_2
I0224 07:34:42.165642   233 net.cpp:455] pool3/3x3_s2_pool3/3x3_s2_0_split -> pool3/3x3_s2_pool3/3x3_s2_0_split_3
I0224 07:34:42.165685   233 net.cpp:190] Setting up pool3/3x3_s2_pool3/3x3_s2_0_split
I0224 07:34:42.165690   233 net.cpp:197] Top shape: 1 480 32 64 (983040)
I0224 07:34:42.165694   233 net.cpp:197] Top shape: 1 480 32 64 (983040)
I0224 07:34:42.165699   233 net.cpp:197] Top shape: 1 480 32 64 (983040)
I0224 07:34:42.165702   233 net.cpp:197] Top shape: 1 480 32 64 (983040)
I0224 07:34:42.165706   233 net.cpp:205] Memory required for data: 520355844
I0224 07:34:42.165710   233 layer_factory.hpp:123] Creating layer inception_4a/1x1
I0224 07:34:42.165717   233 net.cpp:140] Creating Layer inception_4a/1x1
I0224 07:34:42.165720   233 net.cpp:481] inception_4a/1x1 <- pool3/3x3_s2_pool3/3x3_s2_0_split_0
I0224 07:34:42.165726   233 net.cpp:455] inception_4a/1x1 -> inception_4a/1x1_raw
I0224 07:34:42.167372   233 net.cpp:190] Setting up inception_4a/1x1
I0224 07:34:42.167382   233 net.cpp:197] Top shape: 1 192 32 64 (393216)
I0224 07:34:42.167388   233 net.cpp:205] Memory required for data: 521928708
I0224 07:34:42.167395   233 layer_factory.hpp:123] Creating layer inception_4a/1x1_BatchNorm
I0224 07:34:42.167402   233 net.cpp:140] Creating Layer inception_4a/1x1_BatchNorm
I0224 07:34:42.167407   233 net.cpp:481] inception_4a/1x1_BatchNorm <- inception_4a/1x1_raw
I0224 07:34:42.167412   233 net.cpp:455] inception_4a/1x1_BatchNorm -> inception_4a/1x1
I0224 07:34:42.167944   233 net.cpp:190] Setting up inception_4a/1x1_BatchNorm
I0224 07:34:42.167951   233 net.cpp:197] Top shape: 1 192 32 64 (393216)
I0224 07:34:42.167956   233 net.cpp:205] Memory required for data: 523501572
I0224 07:34:42.167964   233 layer_factory.hpp:123] Creating layer inception_4a/relu_1x1
I0224 07:34:42.167969   233 net.cpp:140] Creating Layer inception_4a/relu_1x1
I0224 07:34:42.167973   233 net.cpp:481] inception_4a/relu_1x1 <- inception_4a/1x1
I0224 07:34:42.167977   233 net.cpp:442] inception_4a/relu_1x1 -> inception_4a/1x1 (in-place)
I0224 07:34:42.167984   233 net.cpp:190] Setting up inception_4a/relu_1x1
I0224 07:34:42.167986   233 net.cpp:197] Top shape: 1 192 32 64 (393216)
I0224 07:34:42.167990   233 net.cpp:205] Memory required for data: 525074436
I0224 07:34:42.167994   233 layer_factory.hpp:123] Creating layer inception_4a/3x3_reduce
I0224 07:34:42.168001   233 net.cpp:140] Creating Layer inception_4a/3x3_reduce
I0224 07:34:42.168004   233 net.cpp:481] inception_4a/3x3_reduce <- pool3/3x3_s2_pool3/3x3_s2_0_split_1
I0224 07:34:42.168010   233 net.cpp:455] inception_4a/3x3_reduce -> inception_4a/3x3_reduce_raw
I0224 07:34:42.168622   233 net.cpp:190] Setting up inception_4a/3x3_reduce
I0224 07:34:42.168629   233 net.cpp:197] Top shape: 1 96 32 64 (196608)
I0224 07:34:42.168634   233 net.cpp:205] Memory required for data: 525860868
I0224 07:34:42.168639   233 layer_factory.hpp:123] Creating layer inception_4a/3x3_reduce_BatchNorm
I0224 07:34:42.168646   233 net.cpp:140] Creating Layer inception_4a/3x3_reduce_BatchNorm
I0224 07:34:42.168650   233 net.cpp:481] inception_4a/3x3_reduce_BatchNorm <- inception_4a/3x3_reduce_raw
I0224 07:34:42.168655   233 net.cpp:455] inception_4a/3x3_reduce_BatchNorm -> inception_4a/3x3_reduce
I0224 07:34:42.169183   233 net.cpp:190] Setting up inception_4a/3x3_reduce_BatchNorm
I0224 07:34:42.169190   233 net.cpp:197] Top shape: 1 96 32 64 (196608)
I0224 07:34:42.169195   233 net.cpp:205] Memory required for data: 526647300
I0224 07:34:42.169203   233 layer_factory.hpp:123] Creating layer inception_4a/relu_3x3_reduce
I0224 07:34:42.169209   233 net.cpp:140] Creating Layer inception_4a/relu_3x3_reduce
I0224 07:34:42.169211   233 net.cpp:481] inception_4a/relu_3x3_reduce <- inception_4a/3x3_reduce
I0224 07:34:42.169216   233 net.cpp:442] inception_4a/relu_3x3_reduce -> inception_4a/3x3_reduce (in-place)
I0224 07:34:42.169222   233 net.cpp:190] Setting up inception_4a/relu_3x3_reduce
I0224 07:34:42.169225   233 net.cpp:197] Top shape: 1 96 32 64 (196608)
I0224 07:34:42.169229   233 net.cpp:205] Memory required for data: 527433732
I0224 07:34:42.169232   233 layer_factory.hpp:123] Creating layer inception_4a/3x3
I0224 07:34:42.169241   233 net.cpp:140] Creating Layer inception_4a/3x3
I0224 07:34:42.169245   233 net.cpp:481] inception_4a/3x3 <- inception_4a/3x3_reduce
I0224 07:34:42.169250   233 net.cpp:455] inception_4a/3x3 -> inception_4a/3x3_raw
I0224 07:34:42.171645   233 net.cpp:190] Setting up inception_4a/3x3
I0224 07:34:42.171655   233 net.cpp:197] Top shape: 1 208 32 64 (425984)
I0224 07:34:42.171661   233 net.cpp:205] Memory required for data: 529137668
I0224 07:34:42.171669   233 layer_factory.hpp:123] Creating layer inception_4a/3x3_BatchNorm
I0224 07:34:42.171675   233 net.cpp:140] Creating Layer inception_4a/3x3_BatchNorm
I0224 07:34:42.171679   233 net.cpp:481] inception_4a/3x3_BatchNorm <- inception_4a/3x3_raw
I0224 07:34:42.171685   233 net.cpp:455] inception_4a/3x3_BatchNorm -> inception_4a/3x3
I0224 07:34:42.172220   233 net.cpp:190] Setting up inception_4a/3x3_BatchNorm
I0224 07:34:42.172227   233 net.cpp:197] Top shape: 1 208 32 64 (425984)
I0224 07:34:42.172232   233 net.cpp:205] Memory required for data: 530841604
I0224 07:34:42.172240   233 layer_factory.hpp:123] Creating layer inception_4a/relu_3x3
I0224 07:34:42.172245   233 net.cpp:140] Creating Layer inception_4a/relu_3x3
I0224 07:34:42.172250   233 net.cpp:481] inception_4a/relu_3x3 <- inception_4a/3x3
I0224 07:34:42.172253   233 net.cpp:442] inception_4a/relu_3x3 -> inception_4a/3x3 (in-place)
I0224 07:34:42.172260   233 net.cpp:190] Setting up inception_4a/relu_3x3
I0224 07:34:42.172262   233 net.cpp:197] Top shape: 1 208 32 64 (425984)
I0224 07:34:42.172266   233 net.cpp:205] Memory required for data: 532545540
I0224 07:34:42.172269   233 layer_factory.hpp:123] Creating layer inception_4a/5x5_reduce
I0224 07:34:42.172277   233 net.cpp:140] Creating Layer inception_4a/5x5_reduce
I0224 07:34:42.172281   233 net.cpp:481] inception_4a/5x5_reduce <- pool3/3x3_s2_pool3/3x3_s2_0_split_2
I0224 07:34:42.172286   233 net.cpp:455] inception_4a/5x5_reduce -> inception_4a/5x5_reduce_raw
I0224 07:34:42.172559   233 net.cpp:190] Setting up inception_4a/5x5_reduce
I0224 07:34:42.172567   233 net.cpp:197] Top shape: 1 16 32 64 (32768)
I0224 07:34:42.172571   233 net.cpp:205] Memory required for data: 532676612
I0224 07:34:42.172577   233 layer_factory.hpp:123] Creating layer inception_4a/5x5_reduce_BatchNorm
I0224 07:34:42.172585   233 net.cpp:140] Creating Layer inception_4a/5x5_reduce_BatchNorm
I0224 07:34:42.172588   233 net.cpp:481] inception_4a/5x5_reduce_BatchNorm <- inception_4a/5x5_reduce_raw
I0224 07:34:42.172593   233 net.cpp:455] inception_4a/5x5_reduce_BatchNorm -> inception_4a/5x5_reduce
I0224 07:34:42.173125   233 net.cpp:190] Setting up inception_4a/5x5_reduce_BatchNorm
I0224 07:34:42.173132   233 net.cpp:197] Top shape: 1 16 32 64 (32768)
I0224 07:34:42.173136   233 net.cpp:205] Memory required for data: 532807684
I0224 07:34:42.173148   233 layer_factory.hpp:123] Creating layer inception_4a/relu_5x5_reduce
I0224 07:34:42.173154   233 net.cpp:140] Creating Layer inception_4a/relu_5x5_reduce
I0224 07:34:42.173158   233 net.cpp:481] inception_4a/relu_5x5_reduce <- inception_4a/5x5_reduce
I0224 07:34:42.173162   233 net.cpp:442] inception_4a/relu_5x5_reduce -> inception_4a/5x5_reduce (in-place)
I0224 07:34:42.173168   233 net.cpp:190] Setting up inception_4a/relu_5x5_reduce
I0224 07:34:42.173171   233 net.cpp:197] Top shape: 1 16 32 64 (32768)
I0224 07:34:42.173175   233 net.cpp:205] Memory required for data: 532938756
I0224 07:34:42.173178   233 layer_factory.hpp:123] Creating layer inception_4a/5x5
I0224 07:34:42.173185   233 net.cpp:140] Creating Layer inception_4a/5x5
I0224 07:34:42.173188   233 net.cpp:481] inception_4a/5x5 <- inception_4a/5x5_reduce
I0224 07:34:42.173193   233 net.cpp:455] inception_4a/5x5 -> inception_4a/5x5_raw
I0224 07:34:42.173576   233 net.cpp:190] Setting up inception_4a/5x5
I0224 07:34:42.173584   233 net.cpp:197] Top shape: 1 48 32 64 (98304)
I0224 07:34:42.173589   233 net.cpp:205] Memory required for data: 533331972
I0224 07:34:42.173595   233 layer_factory.hpp:123] Creating layer inception_4a/5x5_BatchNorm
I0224 07:34:42.173602   233 net.cpp:140] Creating Layer inception_4a/5x5_BatchNorm
I0224 07:34:42.173606   233 net.cpp:481] inception_4a/5x5_BatchNorm <- inception_4a/5x5_raw
I0224 07:34:42.173611   233 net.cpp:455] inception_4a/5x5_BatchNorm -> inception_4a/5x5
I0224 07:34:42.174149   233 net.cpp:190] Setting up inception_4a/5x5_BatchNorm
I0224 07:34:42.174156   233 net.cpp:197] Top shape: 1 48 32 64 (98304)
I0224 07:34:42.174161   233 net.cpp:205] Memory required for data: 533725188
I0224 07:34:42.174170   233 layer_factory.hpp:123] Creating layer inception_4a/relu_5x5
I0224 07:34:42.174175   233 net.cpp:140] Creating Layer inception_4a/relu_5x5
I0224 07:34:42.174177   233 net.cpp:481] inception_4a/relu_5x5 <- inception_4a/5x5
I0224 07:34:42.174182   233 net.cpp:442] inception_4a/relu_5x5 -> inception_4a/5x5 (in-place)
I0224 07:34:42.174187   233 net.cpp:190] Setting up inception_4a/relu_5x5
I0224 07:34:42.174191   233 net.cpp:197] Top shape: 1 48 32 64 (98304)
I0224 07:34:42.174196   233 net.cpp:205] Memory required for data: 534118404
I0224 07:34:42.174198   233 layer_factory.hpp:123] Creating layer inception_4a/pool
I0224 07:34:42.174203   233 net.cpp:140] Creating Layer inception_4a/pool
I0224 07:34:42.174207   233 net.cpp:481] inception_4a/pool <- pool3/3x3_s2_pool3/3x3_s2_0_split_3
I0224 07:34:42.174211   233 net.cpp:455] inception_4a/pool -> inception_4a/pool
I0224 07:34:42.174239   233 net.cpp:190] Setting up inception_4a/pool
I0224 07:34:42.174243   233 net.cpp:197] Top shape: 1 480 32 64 (983040)
I0224 07:34:42.174247   233 net.cpp:205] Memory required for data: 538050564
I0224 07:34:42.174252   233 layer_factory.hpp:123] Creating layer inception_4a/pool_proj
I0224 07:34:42.174257   233 net.cpp:140] Creating Layer inception_4a/pool_proj
I0224 07:34:42.174260   233 net.cpp:481] inception_4a/pool_proj <- inception_4a/pool
I0224 07:34:42.174265   233 net.cpp:455] inception_4a/pool_proj -> inception_4a/pool_proj_raw
I0224 07:34:42.174741   233 net.cpp:190] Setting up inception_4a/pool_proj
I0224 07:34:42.174747   233 net.cpp:197] Top shape: 1 64 32 64 (131072)
I0224 07:34:42.174752   233 net.cpp:205] Memory required for data: 538574852
I0224 07:34:42.174757   233 layer_factory.hpp:123] Creating layer inception_4a/pool_proj_BatchNorm
I0224 07:34:42.174764   233 net.cpp:140] Creating Layer inception_4a/pool_proj_BatchNorm
I0224 07:34:42.174768   233 net.cpp:481] inception_4a/pool_proj_BatchNorm <- inception_4a/pool_proj_raw
I0224 07:34:42.174773   233 net.cpp:455] inception_4a/pool_proj_BatchNorm -> inception_4a/pool_proj
I0224 07:34:42.175312   233 net.cpp:190] Setting up inception_4a/pool_proj_BatchNorm
I0224 07:34:42.175319   233 net.cpp:197] Top shape: 1 64 32 64 (131072)
I0224 07:34:42.175324   233 net.cpp:205] Memory required for data: 539099140
I0224 07:34:42.175333   233 layer_factory.hpp:123] Creating layer inception_4a/relu_pool_proj
I0224 07:34:42.175338   233 net.cpp:140] Creating Layer inception_4a/relu_pool_proj
I0224 07:34:42.175341   233 net.cpp:481] inception_4a/relu_pool_proj <- inception_4a/pool_proj
I0224 07:34:42.175345   233 net.cpp:442] inception_4a/relu_pool_proj -> inception_4a/pool_proj (in-place)
I0224 07:34:42.175351   233 net.cpp:190] Setting up inception_4a/relu_pool_proj
I0224 07:34:42.175354   233 net.cpp:197] Top shape: 1 64 32 64 (131072)
I0224 07:34:42.175359   233 net.cpp:205] Memory required for data: 539623428
I0224 07:34:42.175361   233 layer_factory.hpp:123] Creating layer inception_4a/output
I0224 07:34:42.175366   233 net.cpp:140] Creating Layer inception_4a/output
I0224 07:34:42.175369   233 net.cpp:481] inception_4a/output <- inception_4a/1x1
I0224 07:34:42.175374   233 net.cpp:481] inception_4a/output <- inception_4a/3x3
I0224 07:34:42.175376   233 net.cpp:481] inception_4a/output <- inception_4a/5x5
I0224 07:34:42.175379   233 net.cpp:481] inception_4a/output <- inception_4a/pool_proj
I0224 07:34:42.175384   233 net.cpp:455] inception_4a/output -> inception_4a/output
I0224 07:34:42.175402   233 net.cpp:190] Setting up inception_4a/output
I0224 07:34:42.175406   233 net.cpp:197] Top shape: 1 512 32 64 (1048576)
I0224 07:34:42.175410   233 net.cpp:205] Memory required for data: 543817732
I0224 07:34:42.175413   233 layer_factory.hpp:123] Creating layer inception_4a/output_inception_4a/output_0_split
I0224 07:34:42.175418   233 net.cpp:140] Creating Layer inception_4a/output_inception_4a/output_0_split
I0224 07:34:42.175421   233 net.cpp:481] inception_4a/output_inception_4a/output_0_split <- inception_4a/output
I0224 07:34:42.175426   233 net.cpp:455] inception_4a/output_inception_4a/output_0_split -> inception_4a/output_inception_4a/output_0_split_0
I0224 07:34:42.175431   233 net.cpp:455] inception_4a/output_inception_4a/output_0_split -> inception_4a/output_inception_4a/output_0_split_1
I0224 07:34:42.175436   233 net.cpp:455] inception_4a/output_inception_4a/output_0_split -> inception_4a/output_inception_4a/output_0_split_2
I0224 07:34:42.175441   233 net.cpp:455] inception_4a/output_inception_4a/output_0_split -> inception_4a/output_inception_4a/output_0_split_3
I0224 07:34:42.175487   233 net.cpp:190] Setting up inception_4a/output_inception_4a/output_0_split
I0224 07:34:42.175491   233 net.cpp:197] Top shape: 1 512 32 64 (1048576)
I0224 07:34:42.175496   233 net.cpp:197] Top shape: 1 512 32 64 (1048576)
I0224 07:34:42.175500   233 net.cpp:197] Top shape: 1 512 32 64 (1048576)
I0224 07:34:42.175504   233 net.cpp:197] Top shape: 1 512 32 64 (1048576)
I0224 07:34:42.175508   233 net.cpp:205] Memory required for data: 560594948
I0224 07:34:42.175511   233 layer_factory.hpp:123] Creating layer inception_4b/1x1
I0224 07:34:42.175518   233 net.cpp:140] Creating Layer inception_4b/1x1
I0224 07:34:42.175523   233 net.cpp:481] inception_4b/1x1 <- inception_4a/output_inception_4a/output_0_split_0
I0224 07:34:42.175526   233 net.cpp:455] inception_4b/1x1 -> inception_4b/1x1_raw
I0224 07:34:42.176445   233 net.cpp:190] Setting up inception_4b/1x1
I0224 07:34:42.176451   233 net.cpp:197] Top shape: 1 160 32 64 (327680)
I0224 07:34:42.176456   233 net.cpp:205] Memory required for data: 561905668
I0224 07:34:42.176462   233 layer_factory.hpp:123] Creating layer inception_4b/1x1_BatchNorm
I0224 07:34:42.176470   233 net.cpp:140] Creating Layer inception_4b/1x1_BatchNorm
I0224 07:34:42.176473   233 net.cpp:481] inception_4b/1x1_BatchNorm <- inception_4b/1x1_raw
I0224 07:34:42.176478   233 net.cpp:455] inception_4b/1x1_BatchNorm -> inception_4b/1x1
I0224 07:34:42.177017   233 net.cpp:190] Setting up inception_4b/1x1_BatchNorm
I0224 07:34:42.177024   233 net.cpp:197] Top shape: 1 160 32 64 (327680)
I0224 07:34:42.177029   233 net.cpp:205] Memory required for data: 563216388
I0224 07:34:42.177037   233 layer_factory.hpp:123] Creating layer inception_4b/relu_1x1
I0224 07:34:42.177042   233 net.cpp:140] Creating Layer inception_4b/relu_1x1
I0224 07:34:42.177047   233 net.cpp:481] inception_4b/relu_1x1 <- inception_4b/1x1
I0224 07:34:42.177050   233 net.cpp:442] inception_4b/relu_1x1 -> inception_4b/1x1 (in-place)
I0224 07:34:42.177057   233 net.cpp:190] Setting up inception_4b/relu_1x1
I0224 07:34:42.177059   233 net.cpp:197] Top shape: 1 160 32 64 (327680)
I0224 07:34:42.177063   233 net.cpp:205] Memory required for data: 564527108
I0224 07:34:42.177067   233 layer_factory.hpp:123] Creating layer inception_4b/3x3_reduce
I0224 07:34:42.177073   233 net.cpp:140] Creating Layer inception_4b/3x3_reduce
I0224 07:34:42.177076   233 net.cpp:481] inception_4b/3x3_reduce <- inception_4a/output_inception_4a/output_0_split_1
I0224 07:34:42.177081   233 net.cpp:455] inception_4b/3x3_reduce -> inception_4b/3x3_reduce_raw
I0224 07:34:42.178428   233 net.cpp:190] Setting up inception_4b/3x3_reduce
I0224 07:34:42.178439   233 net.cpp:197] Top shape: 1 112 32 64 (229376)
I0224 07:34:42.178445   233 net.cpp:205] Memory required for data: 565444612
I0224 07:34:42.178452   233 layer_factory.hpp:123] Creating layer inception_4b/3x3_reduce_BatchNorm
I0224 07:34:42.178459   233 net.cpp:140] Creating Layer inception_4b/3x3_reduce_BatchNorm
I0224 07:34:42.178462   233 net.cpp:481] inception_4b/3x3_reduce_BatchNorm <- inception_4b/3x3_reduce_raw
I0224 07:34:42.178468   233 net.cpp:455] inception_4b/3x3_reduce_BatchNorm -> inception_4b/3x3_reduce
I0224 07:34:42.179020   233 net.cpp:190] Setting up inception_4b/3x3_reduce_BatchNorm
I0224 07:34:42.179028   233 net.cpp:197] Top shape: 1 112 32 64 (229376)
I0224 07:34:42.179033   233 net.cpp:205] Memory required for data: 566362116
I0224 07:34:42.179040   233 layer_factory.hpp:123] Creating layer inception_4b/relu_3x3_reduce
I0224 07:34:42.179045   233 net.cpp:140] Creating Layer inception_4b/relu_3x3_reduce
I0224 07:34:42.179049   233 net.cpp:481] inception_4b/relu_3x3_reduce <- inception_4b/3x3_reduce
I0224 07:34:42.179054   233 net.cpp:442] inception_4b/relu_3x3_reduce -> inception_4b/3x3_reduce (in-place)
I0224 07:34:42.179059   233 net.cpp:190] Setting up inception_4b/relu_3x3_reduce
I0224 07:34:42.179062   233 net.cpp:197] Top shape: 1 112 32 64 (229376)
I0224 07:34:42.179066   233 net.cpp:205] Memory required for data: 567279620
I0224 07:34:42.179069   233 layer_factory.hpp:123] Creating layer inception_4b/3x3
I0224 07:34:42.179076   233 net.cpp:140] Creating Layer inception_4b/3x3
I0224 07:34:42.179080   233 net.cpp:481] inception_4b/3x3 <- inception_4b/3x3_reduce
I0224 07:34:42.179085   233 net.cpp:455] inception_4b/3x3 -> inception_4b/3x3_raw
I0224 07:34:42.181214   233 net.cpp:190] Setting up inception_4b/3x3
I0224 07:34:42.181222   233 net.cpp:197] Top shape: 1 224 32 64 (458752)
I0224 07:34:42.181227   233 net.cpp:205] Memory required for data: 569114628
I0224 07:34:42.181232   233 layer_factory.hpp:123] Creating layer inception_4b/3x3_BatchNorm
I0224 07:34:42.181239   233 net.cpp:140] Creating Layer inception_4b/3x3_BatchNorm
I0224 07:34:42.181243   233 net.cpp:481] inception_4b/3x3_BatchNorm <- inception_4b/3x3_raw
I0224 07:34:42.181248   233 net.cpp:455] inception_4b/3x3_BatchNorm -> inception_4b/3x3
I0224 07:34:42.181805   233 net.cpp:190] Setting up inception_4b/3x3_BatchNorm
I0224 07:34:42.181813   233 net.cpp:197] Top shape: 1 224 32 64 (458752)
I0224 07:34:42.181818   233 net.cpp:205] Memory required for data: 570949636
I0224 07:34:42.181825   233 layer_factory.hpp:123] Creating layer inception_4b/relu_3x3
I0224 07:34:42.181831   233 net.cpp:140] Creating Layer inception_4b/relu_3x3
I0224 07:34:42.181834   233 net.cpp:481] inception_4b/relu_3x3 <- inception_4b/3x3
I0224 07:34:42.181839   233 net.cpp:442] inception_4b/relu_3x3 -> inception_4b/3x3 (in-place)
I0224 07:34:42.181845   233 net.cpp:190] Setting up inception_4b/relu_3x3
I0224 07:34:42.181849   233 net.cpp:197] Top shape: 1 224 32 64 (458752)
I0224 07:34:42.181854   233 net.cpp:205] Memory required for data: 572784644
I0224 07:34:42.181856   233 layer_factory.hpp:123] Creating layer inception_4b/5x5_reduce
I0224 07:34:42.181864   233 net.cpp:140] Creating Layer inception_4b/5x5_reduce
I0224 07:34:42.181866   233 net.cpp:481] inception_4b/5x5_reduce <- inception_4a/output_inception_4a/output_0_split_2
I0224 07:34:42.181872   233 net.cpp:455] inception_4b/5x5_reduce -> inception_4b/5x5_reduce_raw
I0224 07:34:42.182207   233 net.cpp:190] Setting up inception_4b/5x5_reduce
I0224 07:34:42.182214   233 net.cpp:197] Top shape: 1 24 32 64 (49152)
I0224 07:34:42.182219   233 net.cpp:205] Memory required for data: 572981252
I0224 07:34:42.182225   233 layer_factory.hpp:123] Creating layer inception_4b/5x5_reduce_BatchNorm
I0224 07:34:42.182232   233 net.cpp:140] Creating Layer inception_4b/5x5_reduce_BatchNorm
I0224 07:34:42.182235   233 net.cpp:481] inception_4b/5x5_reduce_BatchNorm <- inception_4b/5x5_reduce_raw
I0224 07:34:42.182241   233 net.cpp:455] inception_4b/5x5_reduce_BatchNorm -> inception_4b/5x5_reduce
I0224 07:34:42.182783   233 net.cpp:190] Setting up inception_4b/5x5_reduce_BatchNorm
I0224 07:34:42.182790   233 net.cpp:197] Top shape: 1 24 32 64 (49152)
I0224 07:34:42.182796   233 net.cpp:205] Memory required for data: 573177860
I0224 07:34:42.182803   233 layer_factory.hpp:123] Creating layer inception_4b/relu_5x5_reduce
I0224 07:34:42.182808   233 net.cpp:140] Creating Layer inception_4b/relu_5x5_reduce
I0224 07:34:42.182812   233 net.cpp:481] inception_4b/relu_5x5_reduce <- inception_4b/5x5_reduce
I0224 07:34:42.182816   233 net.cpp:442] inception_4b/relu_5x5_reduce -> inception_4b/5x5_reduce (in-place)
I0224 07:34:42.182822   233 net.cpp:190] Setting up inception_4b/relu_5x5_reduce
I0224 07:34:42.182826   233 net.cpp:197] Top shape: 1 24 32 64 (49152)
I0224 07:34:42.182829   233 net.cpp:205] Memory required for data: 573374468
I0224 07:34:42.182832   233 layer_factory.hpp:123] Creating layer inception_4b/5x5
I0224 07:34:42.182839   233 net.cpp:140] Creating Layer inception_4b/5x5
I0224 07:34:42.182843   233 net.cpp:481] inception_4b/5x5 <- inception_4b/5x5_reduce
I0224 07:34:42.182848   233 net.cpp:455] inception_4b/5x5 -> inception_4b/5x5_raw
I0224 07:34:42.184026   233 net.cpp:190] Setting up inception_4b/5x5
I0224 07:34:42.184036   233 net.cpp:197] Top shape: 1 64 32 64 (131072)
I0224 07:34:42.184041   233 net.cpp:205] Memory required for data: 573898756
I0224 07:34:42.184047   233 layer_factory.hpp:123] Creating layer inception_4b/5x5_BatchNorm
I0224 07:34:42.184056   233 net.cpp:140] Creating Layer inception_4b/5x5_BatchNorm
I0224 07:34:42.184059   233 net.cpp:481] inception_4b/5x5_BatchNorm <- inception_4b/5x5_raw
I0224 07:34:42.184064   233 net.cpp:455] inception_4b/5x5_BatchNorm -> inception_4b/5x5
I0224 07:34:42.184610   233 net.cpp:190] Setting up inception_4b/5x5_BatchNorm
I0224 07:34:42.184617   233 net.cpp:197] Top shape: 1 64 32 64 (131072)
I0224 07:34:42.184623   233 net.cpp:205] Memory required for data: 574423044
I0224 07:34:42.184629   233 layer_factory.hpp:123] Creating layer inception_4b/relu_5x5
I0224 07:34:42.184635   233 net.cpp:140] Creating Layer inception_4b/relu_5x5
I0224 07:34:42.184639   233 net.cpp:481] inception_4b/relu_5x5 <- inception_4b/5x5
I0224 07:34:42.184643   233 net.cpp:442] inception_4b/relu_5x5 -> inception_4b/5x5 (in-place)
I0224 07:34:42.184649   233 net.cpp:190] Setting up inception_4b/relu_5x5
I0224 07:34:42.184653   233 net.cpp:197] Top shape: 1 64 32 64 (131072)
I0224 07:34:42.184656   233 net.cpp:205] Memory required for data: 574947332
I0224 07:34:42.184659   233 layer_factory.hpp:123] Creating layer inception_4b/pool
I0224 07:34:42.184665   233 net.cpp:140] Creating Layer inception_4b/pool
I0224 07:34:42.184669   233 net.cpp:481] inception_4b/pool <- inception_4a/output_inception_4a/output_0_split_3
I0224 07:34:42.184674   233 net.cpp:455] inception_4b/pool -> inception_4b/pool
I0224 07:34:42.184702   233 net.cpp:190] Setting up inception_4b/pool
I0224 07:34:42.184705   233 net.cpp:197] Top shape: 1 512 32 64 (1048576)
I0224 07:34:42.184710   233 net.cpp:205] Memory required for data: 579141636
I0224 07:34:42.184713   233 layer_factory.hpp:123] Creating layer inception_4b/pool_proj
I0224 07:34:42.184720   233 net.cpp:140] Creating Layer inception_4b/pool_proj
I0224 07:34:42.184725   233 net.cpp:481] inception_4b/pool_proj <- inception_4b/pool
I0224 07:34:42.184729   233 net.cpp:455] inception_4b/pool_proj -> inception_4b/pool_proj_raw
I0224 07:34:42.185220   233 net.cpp:190] Setting up inception_4b/pool_proj
I0224 07:34:42.185226   233 net.cpp:197] Top shape: 1 64 32 64 (131072)
I0224 07:34:42.185231   233 net.cpp:205] Memory required for data: 579665924
I0224 07:34:42.185236   233 layer_factory.hpp:123] Creating layer inception_4b/pool_proj_BatchNorm
I0224 07:34:42.185243   233 net.cpp:140] Creating Layer inception_4b/pool_proj_BatchNorm
I0224 07:34:42.185247   233 net.cpp:481] inception_4b/pool_proj_BatchNorm <- inception_4b/pool_proj_raw
I0224 07:34:42.185252   233 net.cpp:455] inception_4b/pool_proj_BatchNorm -> inception_4b/pool_proj
I0224 07:34:42.185822   233 net.cpp:190] Setting up inception_4b/pool_proj_BatchNorm
I0224 07:34:42.185830   233 net.cpp:197] Top shape: 1 64 32 64 (131072)
I0224 07:34:42.185835   233 net.cpp:205] Memory required for data: 580190212
I0224 07:34:42.185842   233 layer_factory.hpp:123] Creating layer inception_4b/relu_pool_proj
I0224 07:34:42.185848   233 net.cpp:140] Creating Layer inception_4b/relu_pool_proj
I0224 07:34:42.185853   233 net.cpp:481] inception_4b/relu_pool_proj <- inception_4b/pool_proj
I0224 07:34:42.185856   233 net.cpp:442] inception_4b/relu_pool_proj -> inception_4b/pool_proj (in-place)
I0224 07:34:42.185863   233 net.cpp:190] Setting up inception_4b/relu_pool_proj
I0224 07:34:42.185865   233 net.cpp:197] Top shape: 1 64 32 64 (131072)
I0224 07:34:42.185869   233 net.cpp:205] Memory required for data: 580714500
I0224 07:34:42.185873   233 layer_factory.hpp:123] Creating layer inception_4b/output
I0224 07:34:42.185878   233 net.cpp:140] Creating Layer inception_4b/output
I0224 07:34:42.185881   233 net.cpp:481] inception_4b/output <- inception_4b/1x1
I0224 07:34:42.185884   233 net.cpp:481] inception_4b/output <- inception_4b/3x3
I0224 07:34:42.185889   233 net.cpp:481] inception_4b/output <- inception_4b/5x5
I0224 07:34:42.185891   233 net.cpp:481] inception_4b/output <- inception_4b/pool_proj
I0224 07:34:42.185895   233 net.cpp:455] inception_4b/output -> inception_4b/output
I0224 07:34:42.185914   233 net.cpp:190] Setting up inception_4b/output
I0224 07:34:42.185919   233 net.cpp:197] Top shape: 1 512 32 64 (1048576)
I0224 07:34:42.185922   233 net.cpp:205] Memory required for data: 584908804
I0224 07:34:42.185925   233 layer_factory.hpp:123] Creating layer inception_4b/output_inception_4b/output_0_split
I0224 07:34:42.185930   233 net.cpp:140] Creating Layer inception_4b/output_inception_4b/output_0_split
I0224 07:34:42.185935   233 net.cpp:481] inception_4b/output_inception_4b/output_0_split <- inception_4b/output
I0224 07:34:42.185938   233 net.cpp:455] inception_4b/output_inception_4b/output_0_split -> inception_4b/output_inception_4b/output_0_split_0
I0224 07:34:42.185945   233 net.cpp:455] inception_4b/output_inception_4b/output_0_split -> inception_4b/output_inception_4b/output_0_split_1
I0224 07:34:42.185950   233 net.cpp:455] inception_4b/output_inception_4b/output_0_split -> inception_4b/output_inception_4b/output_0_split_2
I0224 07:34:42.185953   233 net.cpp:455] inception_4b/output_inception_4b/output_0_split -> inception_4b/output_inception_4b/output_0_split_3
I0224 07:34:42.185999   233 net.cpp:190] Setting up inception_4b/output_inception_4b/output_0_split
I0224 07:34:42.186004   233 net.cpp:197] Top shape: 1 512 32 64 (1048576)
I0224 07:34:42.186009   233 net.cpp:197] Top shape: 1 512 32 64 (1048576)
I0224 07:34:42.186013   233 net.cpp:197] Top shape: 1 512 32 64 (1048576)
I0224 07:34:42.186017   233 net.cpp:197] Top shape: 1 512 32 64 (1048576)
I0224 07:34:42.186022   233 net.cpp:205] Memory required for data: 601686020
I0224 07:34:42.186024   233 layer_factory.hpp:123] Creating layer inception_4c/1x1
I0224 07:34:42.186033   233 net.cpp:140] Creating Layer inception_4c/1x1
I0224 07:34:42.186035   233 net.cpp:481] inception_4c/1x1 <- inception_4b/output_inception_4b/output_0_split_0
I0224 07:34:42.186041   233 net.cpp:455] inception_4c/1x1 -> inception_4c/1x1_raw
I0224 07:34:42.186808   233 net.cpp:190] Setting up inception_4c/1x1
I0224 07:34:42.186816   233 net.cpp:197] Top shape: 1 128 32 64 (262144)
I0224 07:34:42.186821   233 net.cpp:205] Memory required for data: 602734596
I0224 07:34:42.186827   233 layer_factory.hpp:123] Creating layer inception_4c/1x1_BatchNorm
I0224 07:34:42.186834   233 net.cpp:140] Creating Layer inception_4c/1x1_BatchNorm
I0224 07:34:42.186837   233 net.cpp:481] inception_4c/1x1_BatchNorm <- inception_4c/1x1_raw
I0224 07:34:42.186843   233 net.cpp:455] inception_4c/1x1_BatchNorm -> inception_4c/1x1
I0224 07:34:42.187302   233 net.cpp:190] Setting up inception_4c/1x1_BatchNorm
I0224 07:34:42.187309   233 net.cpp:197] Top shape: 1 128 32 64 (262144)
I0224 07:34:42.187314   233 net.cpp:205] Memory required for data: 603783172
I0224 07:34:42.187322   233 layer_factory.hpp:123] Creating layer inception_4c/relu_1x1
I0224 07:34:42.187327   233 net.cpp:140] Creating Layer inception_4c/relu_1x1
I0224 07:34:42.187331   233 net.cpp:481] inception_4c/relu_1x1 <- inception_4c/1x1
I0224 07:34:42.187336   233 net.cpp:442] inception_4c/relu_1x1 -> inception_4c/1x1 (in-place)
I0224 07:34:42.187341   233 net.cpp:190] Setting up inception_4c/relu_1x1
I0224 07:34:42.187345   233 net.cpp:197] Top shape: 1 128 32 64 (262144)
I0224 07:34:42.187348   233 net.cpp:205] Memory required for data: 604831748
I0224 07:34:42.187351   233 layer_factory.hpp:123] Creating layer inception_4c/3x3_reduce
I0224 07:34:42.187358   233 net.cpp:140] Creating Layer inception_4c/3x3_reduce
I0224 07:34:42.187361   233 net.cpp:481] inception_4c/3x3_reduce <- inception_4b/output_inception_4b/output_0_split_1
I0224 07:34:42.187367   233 net.cpp:455] inception_4c/3x3_reduce -> inception_4c/3x3_reduce_raw
I0224 07:34:42.188155   233 net.cpp:190] Setting up inception_4c/3x3_reduce
I0224 07:34:42.188164   233 net.cpp:197] Top shape: 1 128 32 64 (262144)
I0224 07:34:42.188169   233 net.cpp:205] Memory required for data: 605880324
I0224 07:34:42.188175   233 layer_factory.hpp:123] Creating layer inception_4c/3x3_reduce_BatchNorm
I0224 07:34:42.188182   233 net.cpp:140] Creating Layer inception_4c/3x3_reduce_BatchNorm
I0224 07:34:42.188186   233 net.cpp:481] inception_4c/3x3_reduce_BatchNorm <- inception_4c/3x3_reduce_raw
I0224 07:34:42.188192   233 net.cpp:455] inception_4c/3x3_reduce_BatchNorm -> inception_4c/3x3_reduce
I0224 07:34:42.188659   233 net.cpp:190] Setting up inception_4c/3x3_reduce_BatchNorm
I0224 07:34:42.188666   233 net.cpp:197] Top shape: 1 128 32 64 (262144)
I0224 07:34:42.188670   233 net.cpp:205] Memory required for data: 606928900
I0224 07:34:42.188678   233 layer_factory.hpp:123] Creating layer inception_4c/relu_3x3_reduce
I0224 07:34:42.188683   233 net.cpp:140] Creating Layer inception_4c/relu_3x3_reduce
I0224 07:34:42.188688   233 net.cpp:481] inception_4c/relu_3x3_reduce <- inception_4c/3x3_reduce
I0224 07:34:42.188691   233 net.cpp:442] inception_4c/relu_3x3_reduce -> inception_4c/3x3_reduce (in-place)
I0224 07:34:42.188697   233 net.cpp:190] Setting up inception_4c/relu_3x3_reduce
I0224 07:34:42.188700   233 net.cpp:197] Top shape: 1 128 32 64 (262144)
I0224 07:34:42.188704   233 net.cpp:205] Memory required for data: 607977476
I0224 07:34:42.188707   233 layer_factory.hpp:123] Creating layer inception_4c/3x3
I0224 07:34:42.188714   233 net.cpp:140] Creating Layer inception_4c/3x3
I0224 07:34:42.188719   233 net.cpp:481] inception_4c/3x3 <- inception_4c/3x3_reduce
I0224 07:34:42.188724   233 net.cpp:455] inception_4c/3x3 -> inception_4c/3x3_raw
I0224 07:34:42.192684   233 net.cpp:190] Setting up inception_4c/3x3
I0224 07:34:42.192695   233 net.cpp:197] Top shape: 1 256 32 64 (524288)
I0224 07:34:42.192700   233 net.cpp:205] Memory required for data: 610074628
I0224 07:34:42.192708   233 layer_factory.hpp:123] Creating layer inception_4c/3x3_BatchNorm
I0224 07:34:42.192715   233 net.cpp:140] Creating Layer inception_4c/3x3_BatchNorm
I0224 07:34:42.192719   233 net.cpp:481] inception_4c/3x3_BatchNorm <- inception_4c/3x3_raw
I0224 07:34:42.192724   233 net.cpp:455] inception_4c/3x3_BatchNorm -> inception_4c/3x3
I0224 07:34:42.193198   233 net.cpp:190] Setting up inception_4c/3x3_BatchNorm
I0224 07:34:42.193205   233 net.cpp:197] Top shape: 1 256 32 64 (524288)
I0224 07:34:42.193210   233 net.cpp:205] Memory required for data: 612171780
I0224 07:34:42.193217   233 layer_factory.hpp:123] Creating layer inception_4c/relu_3x3
I0224 07:34:42.193222   233 net.cpp:140] Creating Layer inception_4c/relu_3x3
I0224 07:34:42.193226   233 net.cpp:481] inception_4c/relu_3x3 <- inception_4c/3x3
I0224 07:34:42.193231   233 net.cpp:442] inception_4c/relu_3x3 -> inception_4c/3x3 (in-place)
I0224 07:34:42.193238   233 net.cpp:190] Setting up inception_4c/relu_3x3
I0224 07:34:42.193240   233 net.cpp:197] Top shape: 1 256 32 64 (524288)
I0224 07:34:42.193244   233 net.cpp:205] Memory required for data: 614268932
I0224 07:34:42.193248   233 layer_factory.hpp:123] Creating layer inception_4c/5x5_reduce
I0224 07:34:42.193254   233 net.cpp:140] Creating Layer inception_4c/5x5_reduce
I0224 07:34:42.193259   233 net.cpp:481] inception_4c/5x5_reduce <- inception_4b/output_inception_4b/output_0_split_2
I0224 07:34:42.193264   233 net.cpp:455] inception_4c/5x5_reduce -> inception_4c/5x5_reduce_raw
I0224 07:34:42.193591   233 net.cpp:190] Setting up inception_4c/5x5_reduce
I0224 07:34:42.193598   233 net.cpp:197] Top shape: 1 24 32 64 (49152)
I0224 07:34:42.193603   233 net.cpp:205] Memory required for data: 614465540
I0224 07:34:42.193609   233 layer_factory.hpp:123] Creating layer inception_4c/5x5_reduce_BatchNorm
I0224 07:34:42.193616   233 net.cpp:140] Creating Layer inception_4c/5x5_reduce_BatchNorm
I0224 07:34:42.193619   233 net.cpp:481] inception_4c/5x5_reduce_BatchNorm <- inception_4c/5x5_reduce_raw
I0224 07:34:42.193625   233 net.cpp:455] inception_4c/5x5_reduce_BatchNorm -> inception_4c/5x5_reduce
I0224 07:34:42.194171   233 net.cpp:190] Setting up inception_4c/5x5_reduce_BatchNorm
I0224 07:34:42.194178   233 net.cpp:197] Top shape: 1 24 32 64 (49152)
I0224 07:34:42.194183   233 net.cpp:205] Memory required for data: 614662148
I0224 07:34:42.194191   233 layer_factory.hpp:123] Creating layer inception_4c/relu_5x5_reduce
I0224 07:34:42.194196   233 net.cpp:140] Creating Layer inception_4c/relu_5x5_reduce
I0224 07:34:42.194200   233 net.cpp:481] inception_4c/relu_5x5_reduce <- inception_4c/5x5_reduce
I0224 07:34:42.194205   233 net.cpp:442] inception_4c/relu_5x5_reduce -> inception_4c/5x5_reduce (in-place)
I0224 07:34:42.194211   233 net.cpp:190] Setting up inception_4c/relu_5x5_reduce
I0224 07:34:42.194213   233 net.cpp:197] Top shape: 1 24 32 64 (49152)
I0224 07:34:42.194217   233 net.cpp:205] Memory required for data: 614858756
I0224 07:34:42.194221   233 layer_factory.hpp:123] Creating layer inception_4c/5x5
I0224 07:34:42.194228   233 net.cpp:140] Creating Layer inception_4c/5x5
I0224 07:34:42.194231   233 net.cpp:481] inception_4c/5x5 <- inception_4c/5x5_reduce
I0224 07:34:42.194236   233 net.cpp:455] inception_4c/5x5 -> inception_4c/5x5_raw
I0224 07:34:42.194784   233 net.cpp:190] Setting up inception_4c/5x5
I0224 07:34:42.194790   233 net.cpp:197] Top shape: 1 64 32 64 (131072)
I0224 07:34:42.194795   233 net.cpp:205] Memory required for data: 615383044
I0224 07:34:42.194802   233 layer_factory.hpp:123] Creating layer inception_4c/5x5_BatchNorm
I0224 07:34:42.194808   233 net.cpp:140] Creating Layer inception_4c/5x5_BatchNorm
I0224 07:34:42.194811   233 net.cpp:481] inception_4c/5x5_BatchNorm <- inception_4c/5x5_raw
I0224 07:34:42.194816   233 net.cpp:455] inception_4c/5x5_BatchNorm -> inception_4c/5x5
I0224 07:34:42.195366   233 net.cpp:190] Setting up inception_4c/5x5_BatchNorm
I0224 07:34:42.195374   233 net.cpp:197] Top shape: 1 64 32 64 (131072)
I0224 07:34:42.195379   233 net.cpp:205] Memory required for data: 615907332
I0224 07:34:42.195385   233 layer_factory.hpp:123] Creating layer inception_4c/relu_5x5
I0224 07:34:42.195391   233 net.cpp:140] Creating Layer inception_4c/relu_5x5
I0224 07:34:42.195394   233 net.cpp:481] inception_4c/relu_5x5 <- inception_4c/5x5
I0224 07:34:42.195399   233 net.cpp:442] inception_4c/relu_5x5 -> inception_4c/5x5 (in-place)
I0224 07:34:42.195405   233 net.cpp:190] Setting up inception_4c/relu_5x5
I0224 07:34:42.195407   233 net.cpp:197] Top shape: 1 64 32 64 (131072)
I0224 07:34:42.195411   233 net.cpp:205] Memory required for data: 616431620
I0224 07:34:42.195415   233 layer_factory.hpp:123] Creating layer inception_4c/pool
I0224 07:34:42.195421   233 net.cpp:140] Creating Layer inception_4c/pool
I0224 07:34:42.195425   233 net.cpp:481] inception_4c/pool <- inception_4b/output_inception_4b/output_0_split_3
I0224 07:34:42.195430   233 net.cpp:455] inception_4c/pool -> inception_4c/pool
I0224 07:34:42.195458   233 net.cpp:190] Setting up inception_4c/pool
I0224 07:34:42.195462   233 net.cpp:197] Top shape: 1 512 32 64 (1048576)
I0224 07:34:42.195466   233 net.cpp:205] Memory required for data: 620625924
I0224 07:34:42.195469   233 layer_factory.hpp:123] Creating layer inception_4c/pool_proj
I0224 07:34:42.195477   233 net.cpp:140] Creating Layer inception_4c/pool_proj
I0224 07:34:42.195480   233 net.cpp:481] inception_4c/pool_proj <- inception_4c/pool
I0224 07:34:42.195485   233 net.cpp:455] inception_4c/pool_proj -> inception_4c/pool_proj_raw
I0224 07:34:42.195986   233 net.cpp:190] Setting up inception_4c/pool_proj
I0224 07:34:42.195992   233 net.cpp:197] Top shape: 1 64 32 64 (131072)
I0224 07:34:42.195997   233 net.cpp:205] Memory required for data: 621150212
I0224 07:34:42.196002   233 layer_factory.hpp:123] Creating layer inception_4c/pool_proj_BatchNorm
I0224 07:34:42.196009   233 net.cpp:140] Creating Layer inception_4c/pool_proj_BatchNorm
I0224 07:34:42.196013   233 net.cpp:481] inception_4c/pool_proj_BatchNorm <- inception_4c/pool_proj_raw
I0224 07:34:42.196018   233 net.cpp:455] inception_4c/pool_proj_BatchNorm -> inception_4c/pool_proj
I0224 07:34:42.196571   233 net.cpp:190] Setting up inception_4c/pool_proj_BatchNorm
I0224 07:34:42.196578   233 net.cpp:197] Top shape: 1 64 32 64 (131072)
I0224 07:34:42.196583   233 net.cpp:205] Memory required for data: 621674500
I0224 07:34:42.196590   233 layer_factory.hpp:123] Creating layer inception_4c/relu_pool_proj
I0224 07:34:42.196595   233 net.cpp:140] Creating Layer inception_4c/relu_pool_proj
I0224 07:34:42.196599   233 net.cpp:481] inception_4c/relu_pool_proj <- inception_4c/pool_proj
I0224 07:34:42.196604   233 net.cpp:442] inception_4c/relu_pool_proj -> inception_4c/pool_proj (in-place)
I0224 07:34:42.196610   233 net.cpp:190] Setting up inception_4c/relu_pool_proj
I0224 07:34:42.196612   233 net.cpp:197] Top shape: 1 64 32 64 (131072)
I0224 07:34:42.196617   233 net.cpp:205] Memory required for data: 622198788
I0224 07:34:42.196620   233 layer_factory.hpp:123] Creating layer inception_4c/output
I0224 07:34:42.196624   233 net.cpp:140] Creating Layer inception_4c/output
I0224 07:34:42.196629   233 net.cpp:481] inception_4c/output <- inception_4c/1x1
I0224 07:34:42.196631   233 net.cpp:481] inception_4c/output <- inception_4c/3x3
I0224 07:34:42.196635   233 net.cpp:481] inception_4c/output <- inception_4c/5x5
I0224 07:34:42.196638   233 net.cpp:481] inception_4c/output <- inception_4c/pool_proj
I0224 07:34:42.196642   233 net.cpp:455] inception_4c/output -> inception_4c/output
I0224 07:34:42.196660   233 net.cpp:190] Setting up inception_4c/output
I0224 07:34:42.196664   233 net.cpp:197] Top shape: 1 512 32 64 (1048576)
I0224 07:34:42.196668   233 net.cpp:205] Memory required for data: 626393092
I0224 07:34:42.196672   233 layer_factory.hpp:123] Creating layer inception_4c/output_inception_4c/output_0_split
I0224 07:34:42.196677   233 net.cpp:140] Creating Layer inception_4c/output_inception_4c/output_0_split
I0224 07:34:42.196681   233 net.cpp:481] inception_4c/output_inception_4c/output_0_split <- inception_4c/output
I0224 07:34:42.196686   233 net.cpp:455] inception_4c/output_inception_4c/output_0_split -> inception_4c/output_inception_4c/output_0_split_0
I0224 07:34:42.196691   233 net.cpp:455] inception_4c/output_inception_4c/output_0_split -> inception_4c/output_inception_4c/output_0_split_1
I0224 07:34:42.196696   233 net.cpp:455] inception_4c/output_inception_4c/output_0_split -> inception_4c/output_inception_4c/output_0_split_2
I0224 07:34:42.196700   233 net.cpp:455] inception_4c/output_inception_4c/output_0_split -> inception_4c/output_inception_4c/output_0_split_3
I0224 07:34:42.196745   233 net.cpp:190] Setting up inception_4c/output_inception_4c/output_0_split
I0224 07:34:42.196751   233 net.cpp:197] Top shape: 1 512 32 64 (1048576)
I0224 07:34:42.196755   233 net.cpp:197] Top shape: 1 512 32 64 (1048576)
I0224 07:34:42.196759   233 net.cpp:197] Top shape: 1 512 32 64 (1048576)
I0224 07:34:42.196763   233 net.cpp:197] Top shape: 1 512 32 64 (1048576)
I0224 07:34:42.196768   233 net.cpp:205] Memory required for data: 643170308
I0224 07:34:42.196770   233 layer_factory.hpp:123] Creating layer inception_4d/1x1
I0224 07:34:42.196777   233 net.cpp:140] Creating Layer inception_4d/1x1
I0224 07:34:42.196781   233 net.cpp:481] inception_4d/1x1 <- inception_4c/output_inception_4c/output_0_split_0
I0224 07:34:42.196786   233 net.cpp:455] inception_4d/1x1 -> inception_4d/1x1_raw
I0224 07:34:42.197507   233 net.cpp:190] Setting up inception_4d/1x1
I0224 07:34:42.197515   233 net.cpp:197] Top shape: 1 112 32 64 (229376)
I0224 07:34:42.197520   233 net.cpp:205] Memory required for data: 644087812
I0224 07:34:42.197526   233 layer_factory.hpp:123] Creating layer inception_4d/1x1_BatchNorm
I0224 07:34:42.197535   233 net.cpp:140] Creating Layer inception_4d/1x1_BatchNorm
I0224 07:34:42.197538   233 net.cpp:481] inception_4d/1x1_BatchNorm <- inception_4d/1x1_raw
I0224 07:34:42.197543   233 net.cpp:455] inception_4d/1x1_BatchNorm -> inception_4d/1x1
I0224 07:34:42.198096   233 net.cpp:190] Setting up inception_4d/1x1_BatchNorm
I0224 07:34:42.198102   233 net.cpp:197] Top shape: 1 112 32 64 (229376)
I0224 07:34:42.198107   233 net.cpp:205] Memory required for data: 645005316
I0224 07:34:42.198115   233 layer_factory.hpp:123] Creating layer inception_4d/relu_1x1
I0224 07:34:42.198120   233 net.cpp:140] Creating Layer inception_4d/relu_1x1
I0224 07:34:42.198124   233 net.cpp:481] inception_4d/relu_1x1 <- inception_4d/1x1
I0224 07:34:42.198129   233 net.cpp:442] inception_4d/relu_1x1 -> inception_4d/1x1 (in-place)
I0224 07:34:42.198135   233 net.cpp:190] Setting up inception_4d/relu_1x1
I0224 07:34:42.198137   233 net.cpp:197] Top shape: 1 112 32 64 (229376)
I0224 07:34:42.198143   233 net.cpp:205] Memory required for data: 645922820
I0224 07:34:42.198145   233 layer_factory.hpp:123] Creating layer inception_4d/3x3_reduce
I0224 07:34:42.198153   233 net.cpp:140] Creating Layer inception_4d/3x3_reduce
I0224 07:34:42.198156   233 net.cpp:481] inception_4d/3x3_reduce <- inception_4c/output_inception_4c/output_0_split_1
I0224 07:34:42.198160   233 net.cpp:455] inception_4d/3x3_reduce -> inception_4d/3x3_reduce_raw
I0224 07:34:42.199010   233 net.cpp:190] Setting up inception_4d/3x3_reduce
I0224 07:34:42.199018   233 net.cpp:197] Top shape: 1 144 32 64 (294912)
I0224 07:34:42.199023   233 net.cpp:205] Memory required for data: 647102468
I0224 07:34:42.199028   233 layer_factory.hpp:123] Creating layer inception_4d/3x3_reduce_BatchNorm
I0224 07:34:42.199036   233 net.cpp:140] Creating Layer inception_4d/3x3_reduce_BatchNorm
I0224 07:34:42.199040   233 net.cpp:481] inception_4d/3x3_reduce_BatchNorm <- inception_4d/3x3_reduce_raw
I0224 07:34:42.199045   233 net.cpp:455] inception_4d/3x3_reduce_BatchNorm -> inception_4d/3x3_reduce
I0224 07:34:42.199594   233 net.cpp:190] Setting up inception_4d/3x3_reduce_BatchNorm
I0224 07:34:42.199600   233 net.cpp:197] Top shape: 1 144 32 64 (294912)
I0224 07:34:42.199605   233 net.cpp:205] Memory required for data: 648282116
I0224 07:34:42.199612   233 layer_factory.hpp:123] Creating layer inception_4d/relu_3x3_reduce
I0224 07:34:42.199617   233 net.cpp:140] Creating Layer inception_4d/relu_3x3_reduce
I0224 07:34:42.199621   233 net.cpp:481] inception_4d/relu_3x3_reduce <- inception_4d/3x3_reduce
I0224 07:34:42.199625   233 net.cpp:442] inception_4d/relu_3x3_reduce -> inception_4d/3x3_reduce (in-place)
I0224 07:34:42.199631   233 net.cpp:190] Setting up inception_4d/relu_3x3_reduce
I0224 07:34:42.199635   233 net.cpp:197] Top shape: 1 144 32 64 (294912)
I0224 07:34:42.199638   233 net.cpp:205] Memory required for data: 649461764
I0224 07:34:42.199641   233 layer_factory.hpp:123] Creating layer inception_4d/3x3
I0224 07:34:42.199648   233 net.cpp:140] Creating Layer inception_4d/3x3
I0224 07:34:42.199652   233 net.cpp:481] inception_4d/3x3 <- inception_4d/3x3_reduce
I0224 07:34:42.199656   233 net.cpp:455] inception_4d/3x3 -> inception_4d/3x3_raw
I0224 07:34:42.204310   233 net.cpp:190] Setting up inception_4d/3x3
I0224 07:34:42.204321   233 net.cpp:197] Top shape: 1 288 32 64 (589824)
I0224 07:34:42.204327   233 net.cpp:205] Memory required for data: 651821060
I0224 07:34:42.204334   233 layer_factory.hpp:123] Creating layer inception_4d/3x3_BatchNorm
I0224 07:34:42.204345   233 net.cpp:140] Creating Layer inception_4d/3x3_BatchNorm
I0224 07:34:42.204350   233 net.cpp:481] inception_4d/3x3_BatchNorm <- inception_4d/3x3_raw
I0224 07:34:42.204355   233 net.cpp:455] inception_4d/3x3_BatchNorm -> inception_4d/3x3
I0224 07:34:42.204913   233 net.cpp:190] Setting up inception_4d/3x3_BatchNorm
I0224 07:34:42.204921   233 net.cpp:197] Top shape: 1 288 32 64 (589824)
I0224 07:34:42.204926   233 net.cpp:205] Memory required for data: 654180356
I0224 07:34:42.204933   233 layer_factory.hpp:123] Creating layer inception_4d/relu_3x3
I0224 07:34:42.204939   233 net.cpp:140] Creating Layer inception_4d/relu_3x3
I0224 07:34:42.204943   233 net.cpp:481] inception_4d/relu_3x3 <- inception_4d/3x3
I0224 07:34:42.204947   233 net.cpp:442] inception_4d/relu_3x3 -> inception_4d/3x3 (in-place)
I0224 07:34:42.204953   233 net.cpp:190] Setting up inception_4d/relu_3x3
I0224 07:34:42.204957   233 net.cpp:197] Top shape: 1 288 32 64 (589824)
I0224 07:34:42.204960   233 net.cpp:205] Memory required for data: 656539652
I0224 07:34:42.204963   233 layer_factory.hpp:123] Creating layer inception_4d/5x5_reduce
I0224 07:34:42.204970   233 net.cpp:140] Creating Layer inception_4d/5x5_reduce
I0224 07:34:42.204974   233 net.cpp:481] inception_4d/5x5_reduce <- inception_4c/output_inception_4c/output_0_split_2
I0224 07:34:42.204979   233 net.cpp:455] inception_4d/5x5_reduce -> inception_4d/5x5_reduce_raw
I0224 07:34:42.205355   233 net.cpp:190] Setting up inception_4d/5x5_reduce
I0224 07:34:42.205363   233 net.cpp:197] Top shape: 1 32 32 64 (65536)
I0224 07:34:42.205368   233 net.cpp:205] Memory required for data: 656801796
I0224 07:34:42.205374   233 layer_factory.hpp:123] Creating layer inception_4d/5x5_reduce_BatchNorm
I0224 07:34:42.205381   233 net.cpp:140] Creating Layer inception_4d/5x5_reduce_BatchNorm
I0224 07:34:42.205385   233 net.cpp:481] inception_4d/5x5_reduce_BatchNorm <- inception_4d/5x5_reduce_raw
I0224 07:34:42.205391   233 net.cpp:455] inception_4d/5x5_reduce_BatchNorm -> inception_4d/5x5_reduce
I0224 07:34:42.205938   233 net.cpp:190] Setting up inception_4d/5x5_reduce_BatchNorm
I0224 07:34:42.205945   233 net.cpp:197] Top shape: 1 32 32 64 (65536)
I0224 07:34:42.205950   233 net.cpp:205] Memory required for data: 657063940
I0224 07:34:42.205967   233 layer_factory.hpp:123] Creating layer inception_4d/relu_5x5_reduce
I0224 07:34:42.205973   233 net.cpp:140] Creating Layer inception_4d/relu_5x5_reduce
I0224 07:34:42.205977   233 net.cpp:481] inception_4d/relu_5x5_reduce <- inception_4d/5x5_reduce
I0224 07:34:42.205981   233 net.cpp:442] inception_4d/relu_5x5_reduce -> inception_4d/5x5_reduce (in-place)
I0224 07:34:42.205987   233 net.cpp:190] Setting up inception_4d/relu_5x5_reduce
I0224 07:34:42.205991   233 net.cpp:197] Top shape: 1 32 32 64 (65536)
I0224 07:34:42.205994   233 net.cpp:205] Memory required for data: 657326084
I0224 07:34:42.205997   233 layer_factory.hpp:123] Creating layer inception_4d/5x5
I0224 07:34:42.206004   233 net.cpp:140] Creating Layer inception_4d/5x5
I0224 07:34:42.206007   233 net.cpp:481] inception_4d/5x5 <- inception_4d/5x5_reduce
I0224 07:34:42.206012   233 net.cpp:455] inception_4d/5x5 -> inception_4d/5x5_raw
I0224 07:34:42.206677   233 net.cpp:190] Setting up inception_4d/5x5
I0224 07:34:42.206684   233 net.cpp:197] Top shape: 1 64 32 64 (131072)
I0224 07:34:42.206689   233 net.cpp:205] Memory required for data: 657850372
I0224 07:34:42.206696   233 layer_factory.hpp:123] Creating layer inception_4d/5x5_BatchNorm
I0224 07:34:42.206702   233 net.cpp:140] Creating Layer inception_4d/5x5_BatchNorm
I0224 07:34:42.206707   233 net.cpp:481] inception_4d/5x5_BatchNorm <- inception_4d/5x5_raw
I0224 07:34:42.206712   233 net.cpp:455] inception_4d/5x5_BatchNorm -> inception_4d/5x5
I0224 07:34:42.207279   233 net.cpp:190] Setting up inception_4d/5x5_BatchNorm
I0224 07:34:42.207286   233 net.cpp:197] Top shape: 1 64 32 64 (131072)
I0224 07:34:42.207291   233 net.cpp:205] Memory required for data: 658374660
I0224 07:34:42.207298   233 layer_factory.hpp:123] Creating layer inception_4d/relu_5x5
I0224 07:34:42.207304   233 net.cpp:140] Creating Layer inception_4d/relu_5x5
I0224 07:34:42.207309   233 net.cpp:481] inception_4d/relu_5x5 <- inception_4d/5x5
I0224 07:34:42.207312   233 net.cpp:442] inception_4d/relu_5x5 -> inception_4d/5x5 (in-place)
I0224 07:34:42.207319   233 net.cpp:190] Setting up inception_4d/relu_5x5
I0224 07:34:42.207321   233 net.cpp:197] Top shape: 1 64 32 64 (131072)
I0224 07:34:42.207325   233 net.cpp:205] Memory required for data: 658898948
I0224 07:34:42.207329   233 layer_factory.hpp:123] Creating layer inception_4d/pool
I0224 07:34:42.207334   233 net.cpp:140] Creating Layer inception_4d/pool
I0224 07:34:42.207337   233 net.cpp:481] inception_4d/pool <- inception_4c/output_inception_4c/output_0_split_3
I0224 07:34:42.207342   233 net.cpp:455] inception_4d/pool -> inception_4d/pool
I0224 07:34:42.207371   233 net.cpp:190] Setting up inception_4d/pool
I0224 07:34:42.207376   233 net.cpp:197] Top shape: 1 512 32 64 (1048576)
I0224 07:34:42.207379   233 net.cpp:205] Memory required for data: 663093252
I0224 07:34:42.207383   233 layer_factory.hpp:123] Creating layer inception_4d/pool_proj
I0224 07:34:42.207391   233 net.cpp:140] Creating Layer inception_4d/pool_proj
I0224 07:34:42.207393   233 net.cpp:481] inception_4d/pool_proj <- inception_4d/pool
I0224 07:34:42.207398   233 net.cpp:455] inception_4d/pool_proj -> inception_4d/pool_proj_raw
I0224 07:34:42.207901   233 net.cpp:190] Setting up inception_4d/pool_proj
I0224 07:34:42.207908   233 net.cpp:197] Top shape: 1 64 32 64 (131072)
I0224 07:34:42.207913   233 net.cpp:205] Memory required for data: 663617540
I0224 07:34:42.207918   233 layer_factory.hpp:123] Creating layer inception_4d/pool_proj_BatchNorm
I0224 07:34:42.207926   233 net.cpp:140] Creating Layer inception_4d/pool_proj_BatchNorm
I0224 07:34:42.207929   233 net.cpp:481] inception_4d/pool_proj_BatchNorm <- inception_4d/pool_proj_raw
I0224 07:34:42.207934   233 net.cpp:455] inception_4d/pool_proj_BatchNorm -> inception_4d/pool_proj
I0224 07:34:42.208487   233 net.cpp:190] Setting up inception_4d/pool_proj_BatchNorm
I0224 07:34:42.208493   233 net.cpp:197] Top shape: 1 64 32 64 (131072)
I0224 07:34:42.208498   233 net.cpp:205] Memory required for data: 664141828
I0224 07:34:42.208506   233 layer_factory.hpp:123] Creating layer inception_4d/relu_pool_proj
I0224 07:34:42.208511   233 net.cpp:140] Creating Layer inception_4d/relu_pool_proj
I0224 07:34:42.208515   233 net.cpp:481] inception_4d/relu_pool_proj <- inception_4d/pool_proj
I0224 07:34:42.208519   233 net.cpp:442] inception_4d/relu_pool_proj -> inception_4d/pool_proj (in-place)
I0224 07:34:42.208525   233 net.cpp:190] Setting up inception_4d/relu_pool_proj
I0224 07:34:42.208528   233 net.cpp:197] Top shape: 1 64 32 64 (131072)
I0224 07:34:42.208532   233 net.cpp:205] Memory required for data: 664666116
I0224 07:34:42.208535   233 layer_factory.hpp:123] Creating layer inception_4d/output
I0224 07:34:42.208540   233 net.cpp:140] Creating Layer inception_4d/output
I0224 07:34:42.208544   233 net.cpp:481] inception_4d/output <- inception_4d/1x1
I0224 07:34:42.208547   233 net.cpp:481] inception_4d/output <- inception_4d/3x3
I0224 07:34:42.208551   233 net.cpp:481] inception_4d/output <- inception_4d/5x5
I0224 07:34:42.208554   233 net.cpp:481] inception_4d/output <- inception_4d/pool_proj
I0224 07:34:42.208559   233 net.cpp:455] inception_4d/output -> inception_4d/output
I0224 07:34:42.208577   233 net.cpp:190] Setting up inception_4d/output
I0224 07:34:42.208581   233 net.cpp:197] Top shape: 1 528 32 64 (1081344)
I0224 07:34:42.208585   233 net.cpp:205] Memory required for data: 668991492
I0224 07:34:42.208590   233 layer_factory.hpp:123] Creating layer inception_4d/output_inception_4d/output_0_split
I0224 07:34:42.208595   233 net.cpp:140] Creating Layer inception_4d/output_inception_4d/output_0_split
I0224 07:34:42.208597   233 net.cpp:481] inception_4d/output_inception_4d/output_0_split <- inception_4d/output
I0224 07:34:42.208602   233 net.cpp:455] inception_4d/output_inception_4d/output_0_split -> inception_4d/output_inception_4d/output_0_split_0
I0224 07:34:42.208607   233 net.cpp:455] inception_4d/output_inception_4d/output_0_split -> inception_4d/output_inception_4d/output_0_split_1
I0224 07:34:42.208613   233 net.cpp:455] inception_4d/output_inception_4d/output_0_split -> inception_4d/output_inception_4d/output_0_split_2
I0224 07:34:42.208618   233 net.cpp:455] inception_4d/output_inception_4d/output_0_split -> inception_4d/output_inception_4d/output_0_split_3
I0224 07:34:42.208664   233 net.cpp:190] Setting up inception_4d/output_inception_4d/output_0_split
I0224 07:34:42.208670   233 net.cpp:197] Top shape: 1 528 32 64 (1081344)
I0224 07:34:42.208675   233 net.cpp:197] Top shape: 1 528 32 64 (1081344)
I0224 07:34:42.208679   233 net.cpp:197] Top shape: 1 528 32 64 (1081344)
I0224 07:34:42.208683   233 net.cpp:197] Top shape: 1 528 32 64 (1081344)
I0224 07:34:42.208686   233 net.cpp:205] Memory required for data: 686292996
I0224 07:34:42.208690   233 layer_factory.hpp:123] Creating layer inception_4e/1x1
I0224 07:34:42.208698   233 net.cpp:140] Creating Layer inception_4e/1x1
I0224 07:34:42.208701   233 net.cpp:481] inception_4e/1x1 <- inception_4d/output_inception_4d/output_0_split_0
I0224 07:34:42.208706   233 net.cpp:455] inception_4e/1x1 -> inception_4e/1x1_raw
I0224 07:34:42.210749   233 net.cpp:190] Setting up inception_4e/1x1
I0224 07:34:42.210762   233 net.cpp:197] Top shape: 1 256 32 64 (524288)
I0224 07:34:42.210767   233 net.cpp:205] Memory required for data: 688390148
I0224 07:34:42.210774   233 layer_factory.hpp:123] Creating layer inception_4e/1x1_BatchNorm
I0224 07:34:42.210783   233 net.cpp:140] Creating Layer inception_4e/1x1_BatchNorm
I0224 07:34:42.210786   233 net.cpp:481] inception_4e/1x1_BatchNorm <- inception_4e/1x1_raw
I0224 07:34:42.210791   233 net.cpp:455] inception_4e/1x1_BatchNorm -> inception_4e/1x1
I0224 07:34:42.211264   233 net.cpp:190] Setting up inception_4e/1x1_BatchNorm
I0224 07:34:42.211272   233 net.cpp:197] Top shape: 1 256 32 64 (524288)
I0224 07:34:42.211277   233 net.cpp:205] Memory required for data: 690487300
I0224 07:34:42.211285   233 layer_factory.hpp:123] Creating layer inception_4e/relu_1x1
I0224 07:34:42.211290   233 net.cpp:140] Creating Layer inception_4e/relu_1x1
I0224 07:34:42.211294   233 net.cpp:481] inception_4e/relu_1x1 <- inception_4e/1x1
I0224 07:34:42.211299   233 net.cpp:442] inception_4e/relu_1x1 -> inception_4e/1x1 (in-place)
I0224 07:34:42.211305   233 net.cpp:190] Setting up inception_4e/relu_1x1
I0224 07:34:42.211308   233 net.cpp:197] Top shape: 1 256 32 64 (524288)
I0224 07:34:42.211313   233 net.cpp:205] Memory required for data: 692584452
I0224 07:34:42.211316   233 layer_factory.hpp:123] Creating layer inception_4e/3x3_reduce
I0224 07:34:42.211323   233 net.cpp:140] Creating Layer inception_4e/3x3_reduce
I0224 07:34:42.211326   233 net.cpp:481] inception_4e/3x3_reduce <- inception_4d/output_inception_4d/output_0_split_1
I0224 07:34:42.211331   233 net.cpp:455] inception_4e/3x3_reduce -> inception_4e/3x3_reduce_raw
I0224 07:34:42.212272   233 net.cpp:190] Setting up inception_4e/3x3_reduce
I0224 07:34:42.212280   233 net.cpp:197] Top shape: 1 160 32 64 (327680)
I0224 07:34:42.212285   233 net.cpp:205] Memory required for data: 693895172
I0224 07:34:42.212291   233 layer_factory.hpp:123] Creating layer inception_4e/3x3_reduce_BatchNorm
I0224 07:34:42.212298   233 net.cpp:140] Creating Layer inception_4e/3x3_reduce_BatchNorm
I0224 07:34:42.212302   233 net.cpp:481] inception_4e/3x3_reduce_BatchNorm <- inception_4e/3x3_reduce_raw
I0224 07:34:42.212307   233 net.cpp:455] inception_4e/3x3_reduce_BatchNorm -> inception_4e/3x3_reduce
I0224 07:34:42.212853   233 net.cpp:190] Setting up inception_4e/3x3_reduce_BatchNorm
I0224 07:34:42.212859   233 net.cpp:197] Top shape: 1 160 32 64 (327680)
I0224 07:34:42.212864   233 net.cpp:205] Memory required for data: 695205892
I0224 07:34:42.212872   233 layer_factory.hpp:123] Creating layer inception_4e/relu_3x3_reduce
I0224 07:34:42.212877   233 net.cpp:140] Creating Layer inception_4e/relu_3x3_reduce
I0224 07:34:42.212882   233 net.cpp:481] inception_4e/relu_3x3_reduce <- inception_4e/3x3_reduce
I0224 07:34:42.212885   233 net.cpp:442] inception_4e/relu_3x3_reduce -> inception_4e/3x3_reduce (in-place)
I0224 07:34:42.212891   233 net.cpp:190] Setting up inception_4e/relu_3x3_reduce
I0224 07:34:42.212894   233 net.cpp:197] Top shape: 1 160 32 64 (327680)
I0224 07:34:42.212898   233 net.cpp:205] Memory required for data: 696516612
I0224 07:34:42.212901   233 layer_factory.hpp:123] Creating layer inception_4e/3x3
I0224 07:34:42.212908   233 net.cpp:140] Creating Layer inception_4e/3x3
I0224 07:34:42.212913   233 net.cpp:481] inception_4e/3x3 <- inception_4e/3x3_reduce
I0224 07:34:42.212918   233 net.cpp:455] inception_4e/3x3 -> inception_4e/3x3_raw
I0224 07:34:42.218333   233 net.cpp:190] Setting up inception_4e/3x3
I0224 07:34:42.218344   233 net.cpp:197] Top shape: 1 320 32 64 (655360)
I0224 07:34:42.218350   233 net.cpp:205] Memory required for data: 699138052
I0224 07:34:42.218358   233 layer_factory.hpp:123] Creating layer inception_4e/3x3_BatchNorm
I0224 07:34:42.218365   233 net.cpp:140] Creating Layer inception_4e/3x3_BatchNorm
I0224 07:34:42.218370   233 net.cpp:481] inception_4e/3x3_BatchNorm <- inception_4e/3x3_raw
I0224 07:34:42.218376   233 net.cpp:455] inception_4e/3x3_BatchNorm -> inception_4e/3x3
I0224 07:34:42.218937   233 net.cpp:190] Setting up inception_4e/3x3_BatchNorm
I0224 07:34:42.218945   233 net.cpp:197] Top shape: 1 320 32 64 (655360)
I0224 07:34:42.218950   233 net.cpp:205] Memory required for data: 701759492
I0224 07:34:42.218957   233 layer_factory.hpp:123] Creating layer inception_4e/relu_3x3
I0224 07:34:42.218963   233 net.cpp:140] Creating Layer inception_4e/relu_3x3
I0224 07:34:42.218967   233 net.cpp:481] inception_4e/relu_3x3 <- inception_4e/3x3
I0224 07:34:42.218971   233 net.cpp:442] inception_4e/relu_3x3 -> inception_4e/3x3 (in-place)
I0224 07:34:42.218977   233 net.cpp:190] Setting up inception_4e/relu_3x3
I0224 07:34:42.218981   233 net.cpp:197] Top shape: 1 320 32 64 (655360)
I0224 07:34:42.218984   233 net.cpp:205] Memory required for data: 704380932
I0224 07:34:42.218987   233 layer_factory.hpp:123] Creating layer inception_4e/5x5_reduce
I0224 07:34:42.218994   233 net.cpp:140] Creating Layer inception_4e/5x5_reduce
I0224 07:34:42.218998   233 net.cpp:481] inception_4e/5x5_reduce <- inception_4d/output_inception_4d/output_0_split_2
I0224 07:34:42.219003   233 net.cpp:455] inception_4e/5x5_reduce -> inception_4e/5x5_reduce_raw
I0224 07:34:42.219374   233 net.cpp:190] Setting up inception_4e/5x5_reduce
I0224 07:34:42.219381   233 net.cpp:197] Top shape: 1 32 32 64 (65536)
I0224 07:34:42.219386   233 net.cpp:205] Memory required for data: 704643076
I0224 07:34:42.219393   233 layer_factory.hpp:123] Creating layer inception_4e/5x5_reduce_BatchNorm
I0224 07:34:42.219399   233 net.cpp:140] Creating Layer inception_4e/5x5_reduce_BatchNorm
I0224 07:34:42.219403   233 net.cpp:481] inception_4e/5x5_reduce_BatchNorm <- inception_4e/5x5_reduce_raw
I0224 07:34:42.219408   233 net.cpp:455] inception_4e/5x5_reduce_BatchNorm -> inception_4e/5x5_reduce
I0224 07:34:42.219967   233 net.cpp:190] Setting up inception_4e/5x5_reduce_BatchNorm
I0224 07:34:42.219974   233 net.cpp:197] Top shape: 1 32 32 64 (65536)
I0224 07:34:42.219978   233 net.cpp:205] Memory required for data: 704905220
I0224 07:34:42.219986   233 layer_factory.hpp:123] Creating layer inception_4e/relu_5x5_reduce
I0224 07:34:42.219991   233 net.cpp:140] Creating Layer inception_4e/relu_5x5_reduce
I0224 07:34:42.219995   233 net.cpp:481] inception_4e/relu_5x5_reduce <- inception_4e/5x5_reduce
I0224 07:34:42.220000   233 net.cpp:442] inception_4e/relu_5x5_reduce -> inception_4e/5x5_reduce (in-place)
I0224 07:34:42.220005   233 net.cpp:190] Setting up inception_4e/relu_5x5_reduce
I0224 07:34:42.220008   233 net.cpp:197] Top shape: 1 32 32 64 (65536)
I0224 07:34:42.220012   233 net.cpp:205] Memory required for data: 705167364
I0224 07:34:42.220016   233 layer_factory.hpp:123] Creating layer inception_4e/5x5
I0224 07:34:42.220022   233 net.cpp:140] Creating Layer inception_4e/5x5
I0224 07:34:42.220026   233 net.cpp:481] inception_4e/5x5 <- inception_4e/5x5_reduce
I0224 07:34:42.220031   233 net.cpp:455] inception_4e/5x5 -> inception_4e/5x5_raw
I0224 07:34:42.222375   233 net.cpp:190] Setting up inception_4e/5x5
I0224 07:34:42.222390   233 net.cpp:197] Top shape: 1 128 32 64 (262144)
I0224 07:34:42.222398   233 net.cpp:205] Memory required for data: 706215940
I0224 07:34:42.222409   233 layer_factory.hpp:123] Creating layer inception_4e/5x5_BatchNorm
I0224 07:34:42.222419   233 net.cpp:140] Creating Layer inception_4e/5x5_BatchNorm
I0224 07:34:42.222424   233 net.cpp:481] inception_4e/5x5_BatchNorm <- inception_4e/5x5_raw
I0224 07:34:42.222434   233 net.cpp:455] inception_4e/5x5_BatchNorm -> inception_4e/5x5
I0224 07:34:42.223037   233 net.cpp:190] Setting up inception_4e/5x5_BatchNorm
I0224 07:34:42.223044   233 net.cpp:197] Top shape: 1 128 32 64 (262144)
I0224 07:34:42.223052   233 net.cpp:205] Memory required for data: 707264516
I0224 07:34:42.223063   233 layer_factory.hpp:123] Creating layer inception_4e/relu_5x5
I0224 07:34:42.223070   233 net.cpp:140] Creating Layer inception_4e/relu_5x5
I0224 07:34:42.223075   233 net.cpp:481] inception_4e/relu_5x5 <- inception_4e/5x5
I0224 07:34:42.223083   233 net.cpp:442] inception_4e/relu_5x5 -> inception_4e/5x5 (in-place)
I0224 07:34:42.223090   233 net.cpp:190] Setting up inception_4e/relu_5x5
I0224 07:34:42.223094   233 net.cpp:197] Top shape: 1 128 32 64 (262144)
I0224 07:34:42.223100   233 net.cpp:205] Memory required for data: 708313092
I0224 07:34:42.223104   233 layer_factory.hpp:123] Creating layer inception_4e/pool
I0224 07:34:42.223112   233 net.cpp:140] Creating Layer inception_4e/pool
I0224 07:34:42.223117   233 net.cpp:481] inception_4e/pool <- inception_4d/output_inception_4d/output_0_split_3
I0224 07:34:42.223124   233 net.cpp:455] inception_4e/pool -> inception_4e/pool
I0224 07:34:42.223162   233 net.cpp:190] Setting up inception_4e/pool
I0224 07:34:42.223168   233 net.cpp:197] Top shape: 1 528 32 64 (1081344)
I0224 07:34:42.223174   233 net.cpp:205] Memory required for data: 712638468
I0224 07:34:42.223179   233 layer_factory.hpp:123] Creating layer inception_4e/pool_proj
I0224 07:34:42.223188   233 net.cpp:140] Creating Layer inception_4e/pool_proj
I0224 07:34:42.223192   233 net.cpp:481] inception_4e/pool_proj <- inception_4e/pool
I0224 07:34:42.223201   233 net.cpp:455] inception_4e/pool_proj -> inception_4e/pool_proj_raw
I0224 07:34:42.224297   233 net.cpp:190] Setting up inception_4e/pool_proj
I0224 07:34:42.224310   233 net.cpp:197] Top shape: 1 128 32 64 (262144)
I0224 07:34:42.224323   233 net.cpp:205] Memory required for data: 713687044
I0224 07:34:42.224334   233 layer_factory.hpp:123] Creating layer inception_4e/pool_proj_BatchNorm
I0224 07:34:42.224344   233 net.cpp:140] Creating Layer inception_4e/pool_proj_BatchNorm
I0224 07:34:42.224351   233 net.cpp:481] inception_4e/pool_proj_BatchNorm <- inception_4e/pool_proj_raw
I0224 07:34:42.224360   233 net.cpp:455] inception_4e/pool_proj_BatchNorm -> inception_4e/pool_proj
I0224 07:34:42.224886   233 net.cpp:190] Setting up inception_4e/pool_proj_BatchNorm
I0224 07:34:42.224898   233 net.cpp:197] Top shape: 1 128 32 64 (262144)
I0224 07:34:42.224906   233 net.cpp:205] Memory required for data: 714735620
I0224 07:34:42.224920   233 layer_factory.hpp:123] Creating layer inception_4e/relu_pool_proj
I0224 07:34:42.224936   233 net.cpp:140] Creating Layer inception_4e/relu_pool_proj
I0224 07:34:42.224942   233 net.cpp:481] inception_4e/relu_pool_proj <- inception_4e/pool_proj
I0224 07:34:42.224949   233 net.cpp:442] inception_4e/relu_pool_proj -> inception_4e/pool_proj (in-place)
I0224 07:34:42.224959   233 net.cpp:190] Setting up inception_4e/relu_pool_proj
I0224 07:34:42.224965   233 net.cpp:197] Top shape: 1 128 32 64 (262144)
I0224 07:34:42.224972   233 net.cpp:205] Memory required for data: 715784196
I0224 07:34:42.224977   233 layer_factory.hpp:123] Creating layer inception_4e/output
I0224 07:34:42.224983   233 net.cpp:140] Creating Layer inception_4e/output
I0224 07:34:42.224992   233 net.cpp:481] inception_4e/output <- inception_4e/1x1
I0224 07:34:42.225003   233 net.cpp:481] inception_4e/output <- inception_4e/3x3
I0224 07:34:42.225008   233 net.cpp:481] inception_4e/output <- inception_4e/5x5
I0224 07:34:42.225019   233 net.cpp:481] inception_4e/output <- inception_4e/pool_proj
I0224 07:34:42.225033   233 net.cpp:455] inception_4e/output -> inception_4e/output
I0224 07:34:42.225072   233 net.cpp:190] Setting up inception_4e/output
I0224 07:34:42.225080   233 net.cpp:197] Top shape: 1 832 32 64 (1703936)
I0224 07:34:42.225087   233 net.cpp:205] Memory required for data: 722599940
I0224 07:34:42.225093   233 layer_factory.hpp:123] Creating layer inception_4e/output_inception_4e/output_0_split
I0224 07:34:42.225108   233 net.cpp:140] Creating Layer inception_4e/output_inception_4e/output_0_split
I0224 07:34:42.225119   233 net.cpp:481] inception_4e/output_inception_4e/output_0_split <- inception_4e/output
I0224 07:34:42.225134   233 net.cpp:455] inception_4e/output_inception_4e/output_0_split -> inception_4e/output_inception_4e/output_0_split_0
I0224 07:34:42.225147   233 net.cpp:455] inception_4e/output_inception_4e/output_0_split -> inception_4e/output_inception_4e/output_0_split_1
I0224 07:34:42.225215   233 net.cpp:190] Setting up inception_4e/output_inception_4e/output_0_split
I0224 07:34:42.225226   233 net.cpp:197] Top shape: 1 832 32 64 (1703936)
I0224 07:34:42.225235   233 net.cpp:197] Top shape: 1 832 32 64 (1703936)
I0224 07:34:42.225242   233 net.cpp:205] Memory required for data: 736231428
I0224 07:34:42.225248   233 layer_factory.hpp:123] Creating layer pool4/3x3_s2
I0224 07:34:42.225257   233 net.cpp:140] Creating Layer pool4/3x3_s2
I0224 07:34:42.225263   233 net.cpp:481] pool4/3x3_s2 <- inception_4e/output_inception_4e/output_0_split_0
I0224 07:34:42.225272   233 net.cpp:455] pool4/3x3_s2 -> pool4/3x3_s2
I0224 07:34:42.225333   233 net.cpp:190] Setting up pool4/3x3_s2
I0224 07:34:42.225347   233 net.cpp:197] Top shape: 1 832 16 32 (425984)
I0224 07:34:42.225360   233 net.cpp:205] Memory required for data: 737935364
I0224 07:34:42.225368   233 layer_factory.hpp:123] Creating layer pool4/3x3_s2_pool4/3x3_s2_0_split
I0224 07:34:42.225381   233 net.cpp:140] Creating Layer pool4/3x3_s2_pool4/3x3_s2_0_split
I0224 07:34:42.225389   233 net.cpp:481] pool4/3x3_s2_pool4/3x3_s2_0_split <- pool4/3x3_s2
I0224 07:34:42.225399   233 net.cpp:455] pool4/3x3_s2_pool4/3x3_s2_0_split -> pool4/3x3_s2_pool4/3x3_s2_0_split_0
I0224 07:34:42.225409   233 net.cpp:455] pool4/3x3_s2_pool4/3x3_s2_0_split -> pool4/3x3_s2_pool4/3x3_s2_0_split_1
I0224 07:34:42.225417   233 net.cpp:455] pool4/3x3_s2_pool4/3x3_s2_0_split -> pool4/3x3_s2_pool4/3x3_s2_0_split_2
I0224 07:34:42.225426   233 net.cpp:455] pool4/3x3_s2_pool4/3x3_s2_0_split -> pool4/3x3_s2_pool4/3x3_s2_0_split_3
I0224 07:34:42.225507   233 net.cpp:190] Setting up pool4/3x3_s2_pool4/3x3_s2_0_split
I0224 07:34:42.225519   233 net.cpp:197] Top shape: 1 832 16 32 (425984)
I0224 07:34:42.225529   233 net.cpp:197] Top shape: 1 832 16 32 (425984)
I0224 07:34:42.225536   233 net.cpp:197] Top shape: 1 832 16 32 (425984)
I0224 07:34:42.225543   233 net.cpp:197] Top shape: 1 832 16 32 (425984)
I0224 07:34:42.225548   233 net.cpp:205] Memory required for data: 744751108
I0224 07:34:42.225553   233 layer_factory.hpp:123] Creating layer inception_5a/1x1
I0224 07:34:42.225565   233 net.cpp:140] Creating Layer inception_5a/1x1
I0224 07:34:42.225571   233 net.cpp:481] inception_5a/1x1 <- pool4/3x3_s2_pool4/3x3_s2_0_split_0
I0224 07:34:42.225580   233 net.cpp:455] inception_5a/1x1 -> inception_5a/1x1_raw
I0224 07:34:42.229602   233 net.cpp:190] Setting up inception_5a/1x1
I0224 07:34:42.229619   233 net.cpp:197] Top shape: 1 256 16 32 (131072)
I0224 07:34:42.229631   233 net.cpp:205] Memory required for data: 745275396
I0224 07:34:42.229643   233 layer_factory.hpp:123] Creating layer inception_5a/1x1_BatchNorm
I0224 07:34:42.229660   233 net.cpp:140] Creating Layer inception_5a/1x1_BatchNorm
I0224 07:34:42.229667   233 net.cpp:481] inception_5a/1x1_BatchNorm <- inception_5a/1x1_raw
I0224 07:34:42.229678   233 net.cpp:455] inception_5a/1x1_BatchNorm -> inception_5a/1x1
I0224 07:34:42.230216   233 net.cpp:190] Setting up inception_5a/1x1_BatchNorm
I0224 07:34:42.230228   233 net.cpp:197] Top shape: 1 256 16 32 (131072)
I0224 07:34:42.230242   233 net.cpp:205] Memory required for data: 745799684
I0224 07:34:42.230257   233 layer_factory.hpp:123] Creating layer inception_5a/relu_1x1
I0224 07:34:42.230268   233 net.cpp:140] Creating Layer inception_5a/relu_1x1
I0224 07:34:42.230278   233 net.cpp:481] inception_5a/relu_1x1 <- inception_5a/1x1
I0224 07:34:42.230284   233 net.cpp:442] inception_5a/relu_1x1 -> inception_5a/1x1 (in-place)
I0224 07:34:42.230298   233 net.cpp:190] Setting up inception_5a/relu_1x1
I0224 07:34:42.230304   233 net.cpp:197] Top shape: 1 256 16 32 (131072)
I0224 07:34:42.230311   233 net.cpp:205] Memory required for data: 746323972
I0224 07:34:42.230316   233 layer_factory.hpp:123] Creating layer inception_5a/3x3_reduce
I0224 07:34:42.230329   233 net.cpp:140] Creating Layer inception_5a/3x3_reduce
I0224 07:34:42.230336   233 net.cpp:481] inception_5a/3x3_reduce <- pool4/3x3_s2_pool4/3x3_s2_0_split_1
I0224 07:34:42.230345   233 net.cpp:455] inception_5a/3x3_reduce -> inception_5a/3x3_reduce_raw
I0224 07:34:42.231734   233 net.cpp:190] Setting up inception_5a/3x3_reduce
I0224 07:34:42.231743   233 net.cpp:197] Top shape: 1 160 16 32 (81920)
I0224 07:34:42.231751   233 net.cpp:205] Memory required for data: 746651652
I0224 07:34:42.231760   233 layer_factory.hpp:123] Creating layer inception_5a/3x3_reduce_BatchNorm
I0224 07:34:42.231773   233 net.cpp:140] Creating Layer inception_5a/3x3_reduce_BatchNorm
I0224 07:34:42.231781   233 net.cpp:481] inception_5a/3x3_reduce_BatchNorm <- inception_5a/3x3_reduce_raw
I0224 07:34:42.231789   233 net.cpp:455] inception_5a/3x3_reduce_BatchNorm -> inception_5a/3x3_reduce
I0224 07:34:42.232357   233 net.cpp:190] Setting up inception_5a/3x3_reduce_BatchNorm
I0224 07:34:42.232364   233 net.cpp:197] Top shape: 1 160 16 32 (81920)
I0224 07:34:42.232372   233 net.cpp:205] Memory required for data: 746979332
I0224 07:34:42.232385   233 layer_factory.hpp:123] Creating layer inception_5a/relu_3x3_reduce
I0224 07:34:42.232394   233 net.cpp:140] Creating Layer inception_5a/relu_3x3_reduce
I0224 07:34:42.232400   233 net.cpp:481] inception_5a/relu_3x3_reduce <- inception_5a/3x3_reduce
I0224 07:34:42.232409   233 net.cpp:442] inception_5a/relu_3x3_reduce -> inception_5a/3x3_reduce (in-place)
I0224 07:34:42.232420   233 net.cpp:190] Setting up inception_5a/relu_3x3_reduce
I0224 07:34:42.232426   233 net.cpp:197] Top shape: 1 160 16 32 (81920)
I0224 07:34:42.232434   233 net.cpp:205] Memory required for data: 747307012
I0224 07:34:42.232439   233 layer_factory.hpp:123] Creating layer inception_5a/3x3
I0224 07:34:42.232450   233 net.cpp:140] Creating Layer inception_5a/3x3
I0224 07:34:42.232455   233 net.cpp:481] inception_5a/3x3 <- inception_5a/3x3_reduce
I0224 07:34:42.232465   233 net.cpp:455] inception_5a/3x3 -> inception_5a/3x3_raw
I0224 07:34:42.238847   233 net.cpp:190] Setting up inception_5a/3x3
I0224 07:34:42.238936   233 net.cpp:197] Top shape: 1 320 16 32 (163840)
I0224 07:34:42.239006   233 net.cpp:205] Memory required for data: 747962372
I0224 07:34:42.239084   233 layer_factory.hpp:123] Creating layer inception_5a/3x3_BatchNorm
I0224 07:34:42.239163   233 net.cpp:140] Creating Layer inception_5a/3x3_BatchNorm
I0224 07:34:42.239238   233 net.cpp:481] inception_5a/3x3_BatchNorm <- inception_5a/3x3_raw
I0224 07:34:42.239318   233 net.cpp:455] inception_5a/3x3_BatchNorm -> inception_5a/3x3
I0224 07:34:42.240007   233 net.cpp:190] Setting up inception_5a/3x3_BatchNorm
I0224 07:34:42.240022   233 net.cpp:197] Top shape: 1 320 16 32 (163840)
I0224 07:34:42.240034   233 net.cpp:205] Memory required for data: 748617732
I0224 07:34:42.240049   233 layer_factory.hpp:123] Creating layer inception_5a/relu_3x3
I0224 07:34:42.240058   233 net.cpp:140] Creating Layer inception_5a/relu_3x3
I0224 07:34:42.240064   233 net.cpp:481] inception_5a/relu_3x3 <- inception_5a/3x3
I0224 07:34:42.240072   233 net.cpp:442] inception_5a/relu_3x3 -> inception_5a/3x3 (in-place)
I0224 07:34:42.240082   233 net.cpp:190] Setting up inception_5a/relu_3x3
I0224 07:34:42.240092   233 net.cpp:197] Top shape: 1 320 16 32 (163840)
I0224 07:34:42.240098   233 net.cpp:205] Memory required for data: 749273092
I0224 07:34:42.240106   233 layer_factory.hpp:123] Creating layer inception_5a/5x5_reduce
I0224 07:34:42.240124   233 net.cpp:140] Creating Layer inception_5a/5x5_reduce
I0224 07:34:42.240134   233 net.cpp:481] inception_5a/5x5_reduce <- pool4/3x3_s2_pool4/3x3_s2_0_split_2
I0224 07:34:42.240142   233 net.cpp:455] inception_5a/5x5_reduce -> inception_5a/5x5_reduce_raw
I0224 07:34:42.240679   233 net.cpp:190] Setting up inception_5a/5x5_reduce
I0224 07:34:42.240692   233 net.cpp:197] Top shape: 1 32 16 32 (16384)
I0224 07:34:42.240703   233 net.cpp:205] Memory required for data: 749338628
I0224 07:34:42.240715   233 layer_factory.hpp:123] Creating layer inception_5a/5x5_reduce_BatchNorm
I0224 07:34:42.240727   233 net.cpp:140] Creating Layer inception_5a/5x5_reduce_BatchNorm
I0224 07:34:42.240736   233 net.cpp:481] inception_5a/5x5_reduce_BatchNorm <- inception_5a/5x5_reduce_raw
I0224 07:34:42.240744   233 net.cpp:455] inception_5a/5x5_reduce_BatchNorm -> inception_5a/5x5_reduce
I0224 07:34:42.241354   233 net.cpp:190] Setting up inception_5a/5x5_reduce_BatchNorm
I0224 07:34:42.241370   233 net.cpp:197] Top shape: 1 32 16 32 (16384)
I0224 07:34:42.241381   233 net.cpp:205] Memory required for data: 749404164
I0224 07:34:42.241397   233 layer_factory.hpp:123] Creating layer inception_5a/relu_5x5_reduce
I0224 07:34:42.241407   233 net.cpp:140] Creating Layer inception_5a/relu_5x5_reduce
I0224 07:34:42.241413   233 net.cpp:481] inception_5a/relu_5x5_reduce <- inception_5a/5x5_reduce
I0224 07:34:42.241421   233 net.cpp:442] inception_5a/relu_5x5_reduce -> inception_5a/5x5_reduce (in-place)
I0224 07:34:42.241433   233 net.cpp:190] Setting up inception_5a/relu_5x5_reduce
I0224 07:34:42.241439   233 net.cpp:197] Top shape: 1 32 16 32 (16384)
I0224 07:34:42.241447   233 net.cpp:205] Memory required for data: 749469700
I0224 07:34:42.241452   233 layer_factory.hpp:123] Creating layer inception_5a/5x5
I0224 07:34:42.241464   233 net.cpp:140] Creating Layer inception_5a/5x5
I0224 07:34:42.241472   233 net.cpp:481] inception_5a/5x5 <- inception_5a/5x5_reduce
I0224 07:34:42.241479   233 net.cpp:455] inception_5a/5x5 -> inception_5a/5x5_raw
I0224 07:34:42.243227   233 net.cpp:190] Setting up inception_5a/5x5
I0224 07:34:42.243238   233 net.cpp:197] Top shape: 1 128 16 32 (65536)
I0224 07:34:42.243247   233 net.cpp:205] Memory required for data: 749731844
I0224 07:34:42.243257   233 layer_factory.hpp:123] Creating layer inception_5a/5x5_BatchNorm
I0224 07:34:42.243268   233 net.cpp:140] Creating Layer inception_5a/5x5_BatchNorm
I0224 07:34:42.243278   233 net.cpp:481] inception_5a/5x5_BatchNorm <- inception_5a/5x5_raw
I0224 07:34:42.243286   233 net.cpp:455] inception_5a/5x5_BatchNorm -> inception_5a/5x5
I0224 07:34:42.243767   233 net.cpp:190] Setting up inception_5a/5x5_BatchNorm
I0224 07:34:42.243775   233 net.cpp:197] Top shape: 1 128 16 32 (65536)
I0224 07:34:42.243783   233 net.cpp:205] Memory required for data: 749993988
I0224 07:34:42.243798   233 layer_factory.hpp:123] Creating layer inception_5a/relu_5x5
I0224 07:34:42.243808   233 net.cpp:140] Creating Layer inception_5a/relu_5x5
I0224 07:34:42.243814   233 net.cpp:481] inception_5a/relu_5x5 <- inception_5a/5x5
I0224 07:34:42.243822   233 net.cpp:442] inception_5a/relu_5x5 -> inception_5a/5x5 (in-place)
I0224 07:34:42.243832   233 net.cpp:190] Setting up inception_5a/relu_5x5
I0224 07:34:42.243839   233 net.cpp:197] Top shape: 1 128 16 32 (65536)
I0224 07:34:42.243845   233 net.cpp:205] Memory required for data: 750256132
I0224 07:34:42.243850   233 layer_factory.hpp:123] Creating layer inception_5a/pool
I0224 07:34:42.243860   233 net.cpp:140] Creating Layer inception_5a/pool
I0224 07:34:42.243868   233 net.cpp:481] inception_5a/pool <- pool4/3x3_s2_pool4/3x3_s2_0_split_3
I0224 07:34:42.243876   233 net.cpp:455] inception_5a/pool -> inception_5a/pool
I0224 07:34:42.243914   233 net.cpp:190] Setting up inception_5a/pool
I0224 07:34:42.243919   233 net.cpp:197] Top shape: 1 832 16 32 (425984)
I0224 07:34:42.243927   233 net.cpp:205] Memory required for data: 751960068
I0224 07:34:42.243932   233 layer_factory.hpp:123] Creating layer inception_5a/pool_proj
I0224 07:34:42.243943   233 net.cpp:140] Creating Layer inception_5a/pool_proj
I0224 07:34:42.243950   233 net.cpp:481] inception_5a/pool_proj <- inception_5a/pool
I0224 07:34:42.243958   233 net.cpp:455] inception_5a/pool_proj -> inception_5a/pool_proj_raw
I0224 07:34:42.245090   233 net.cpp:190] Setting up inception_5a/pool_proj
I0224 07:34:42.245097   233 net.cpp:197] Top shape: 1 128 16 32 (65536)
I0224 07:34:42.245105   233 net.cpp:205] Memory required for data: 752222212
I0224 07:34:42.245115   233 layer_factory.hpp:123] Creating layer inception_5a/pool_proj_BatchNorm
I0224 07:34:42.245127   233 net.cpp:140] Creating Layer inception_5a/pool_proj_BatchNorm
I0224 07:34:42.245136   233 net.cpp:481] inception_5a/pool_proj_BatchNorm <- inception_5a/pool_proj_raw
I0224 07:34:42.245143   233 net.cpp:455] inception_5a/pool_proj_BatchNorm -> inception_5a/pool_proj
I0224 07:34:42.245627   233 net.cpp:190] Setting up inception_5a/pool_proj_BatchNorm
I0224 07:34:42.245635   233 net.cpp:197] Top shape: 1 128 16 32 (65536)
I0224 07:34:42.245643   233 net.cpp:205] Memory required for data: 752484356
I0224 07:34:42.245656   233 layer_factory.hpp:123] Creating layer inception_5a/relu_pool_proj
I0224 07:34:42.245666   233 net.cpp:140] Creating Layer inception_5a/relu_pool_proj
I0224 07:34:42.245671   233 net.cpp:481] inception_5a/relu_pool_proj <- inception_5a/pool_proj
I0224 07:34:42.245679   233 net.cpp:442] inception_5a/relu_pool_proj -> inception_5a/pool_proj (in-place)
I0224 07:34:42.245692   233 net.cpp:190] Setting up inception_5a/relu_pool_proj
I0224 07:34:42.245697   233 net.cpp:197] Top shape: 1 128 16 32 (65536)
I0224 07:34:42.245705   233 net.cpp:205] Memory required for data: 752746500
I0224 07:34:42.245710   233 layer_factory.hpp:123] Creating layer inception_5a/output
I0224 07:34:42.245719   233 net.cpp:140] Creating Layer inception_5a/output
I0224 07:34:42.245725   233 net.cpp:481] inception_5a/output <- inception_5a/1x1
I0224 07:34:42.245731   233 net.cpp:481] inception_5a/output <- inception_5a/3x3
I0224 07:34:42.245738   233 net.cpp:481] inception_5a/output <- inception_5a/5x5
I0224 07:34:42.245743   233 net.cpp:481] inception_5a/output <- inception_5a/pool_proj
I0224 07:34:42.245749   233 net.cpp:455] inception_5a/output -> inception_5a/output
I0224 07:34:42.245779   233 net.cpp:190] Setting up inception_5a/output
I0224 07:34:42.245784   233 net.cpp:197] Top shape: 1 832 16 32 (425984)
I0224 07:34:42.245791   233 net.cpp:205] Memory required for data: 754450436
I0224 07:34:42.245796   233 layer_factory.hpp:123] Creating layer inception_5a/output_inception_5a/output_0_split
I0224 07:34:42.245805   233 net.cpp:140] Creating Layer inception_5a/output_inception_5a/output_0_split
I0224 07:34:42.245812   233 net.cpp:481] inception_5a/output_inception_5a/output_0_split <- inception_5a/output
I0224 07:34:42.245820   233 net.cpp:455] inception_5a/output_inception_5a/output_0_split -> inception_5a/output_inception_5a/output_0_split_0
I0224 07:34:42.245829   233 net.cpp:455] inception_5a/output_inception_5a/output_0_split -> inception_5a/output_inception_5a/output_0_split_1
I0224 07:34:42.245839   233 net.cpp:455] inception_5a/output_inception_5a/output_0_split -> inception_5a/output_inception_5a/output_0_split_2
I0224 07:34:42.245851   233 net.cpp:455] inception_5a/output_inception_5a/output_0_split -> inception_5a/output_inception_5a/output_0_split_3
I0224 07:34:42.245908   233 net.cpp:190] Setting up inception_5a/output_inception_5a/output_0_split
I0224 07:34:42.245913   233 net.cpp:197] Top shape: 1 832 16 32 (425984)
I0224 07:34:42.245920   233 net.cpp:197] Top shape: 1 832 16 32 (425984)
I0224 07:34:42.245927   233 net.cpp:197] Top shape: 1 832 16 32 (425984)
I0224 07:34:42.245934   233 net.cpp:197] Top shape: 1 832 16 32 (425984)
I0224 07:34:42.245941   233 net.cpp:205] Memory required for data: 761266180
I0224 07:34:42.245945   233 layer_factory.hpp:123] Creating layer inception_5b/1x1
I0224 07:34:42.245957   233 net.cpp:140] Creating Layer inception_5b/1x1
I0224 07:34:42.245965   233 net.cpp:481] inception_5b/1x1 <- inception_5a/output_inception_5a/output_0_split_0
I0224 07:34:42.245980   233 net.cpp:455] inception_5b/1x1 -> inception_5b/1x1_raw
I0224 07:34:42.250226   233 net.cpp:190] Setting up inception_5b/1x1
I0224 07:34:42.250237   233 net.cpp:197] Top shape: 1 384 16 32 (196608)
I0224 07:34:42.250247   233 net.cpp:205] Memory required for data: 762052612
I0224 07:34:42.250257   233 layer_factory.hpp:123] Creating layer inception_5b/1x1_BatchNorm
I0224 07:34:42.250272   233 net.cpp:140] Creating Layer inception_5b/1x1_BatchNorm
I0224 07:34:42.250279   233 net.cpp:481] inception_5b/1x1_BatchNorm <- inception_5b/1x1_raw
I0224 07:34:42.250290   233 net.cpp:455] inception_5b/1x1_BatchNorm -> inception_5b/1x1
I0224 07:34:42.250774   233 net.cpp:190] Setting up inception_5b/1x1_BatchNorm
I0224 07:34:42.250782   233 net.cpp:197] Top shape: 1 384 16 32 (196608)
I0224 07:34:42.250790   233 net.cpp:205] Memory required for data: 762839044
I0224 07:34:42.250803   233 layer_factory.hpp:123] Creating layer inception_5b/relu_1x1
I0224 07:34:42.250813   233 net.cpp:140] Creating Layer inception_5b/relu_1x1
I0224 07:34:42.250819   233 net.cpp:481] inception_5b/relu_1x1 <- inception_5b/1x1
I0224 07:34:42.250826   233 net.cpp:442] inception_5b/relu_1x1 -> inception_5b/1x1 (in-place)
I0224 07:34:42.250838   233 net.cpp:190] Setting up inception_5b/relu_1x1
I0224 07:34:42.250844   233 net.cpp:197] Top shape: 1 384 16 32 (196608)
I0224 07:34:42.250852   233 net.cpp:205] Memory required for data: 763625476
I0224 07:34:42.250857   233 layer_factory.hpp:123] Creating layer inception_5b/3x3_reduce
…
I0224 07:37:02.040436   233 net.cpp:481] inception_4e/3x3_reduce <- inception_4d/output_inception_4d/output_fixed_0_split_1
I0224 07:37:02.040441   233 net.cpp:455] inception_4e/3x3_reduce -> inception_4e/3x3_reduce
I0224 07:37:02.042119   233 layer_factory.hpp:123] Creating layer inception_4e/3x3_reduce
I0224 07:37:02.043269   233 net.cpp:190] Setting up inception_4e/3x3_reduce
I0224 07:37:02.043277   233 net.cpp:197] Top shape: 1 160 32 64 (327680)
I0224 07:37:02.043284   233 net.cpp:205] Memory required for data: 706478080
I0224 07:37:02.043292   233 layer_factory.hpp:123] Creating layer inception_4e/relu_3x3_reduce
I0224 07:37:02.043298   233 net.cpp:140] Creating Layer inception_4e/relu_3x3_reduce
I0224 07:37:02.043301   233 net.cpp:481] inception_4e/relu_3x3_reduce <- inception_4e/3x3_reduce
I0224 07:37:02.043308   233 net.cpp:442] inception_4e/relu_3x3_reduce -> inception_4e/3x3_reduce (in-place)
I0224 07:37:02.043314   233 net.cpp:190] Setting up inception_4e/relu_3x3_reduce
I0224 07:37:02.043318   233 net.cpp:197] Top shape: 1 160 32 64 (327680)
I0224 07:37:02.043323   233 net.cpp:205] Memory required for data: 707788800
I0224 07:37:02.043325   233 layer_factory.hpp:123] Creating layer inception_4e/3x3_reduce_fixed
I0224 07:37:02.043331   233 net.cpp:140] Creating Layer inception_4e/3x3_reduce_fixed
I0224 07:37:02.043334   233 net.cpp:481] inception_4e/3x3_reduce_fixed <- inception_4e/3x3_reduce
I0224 07:37:02.043339   233 net.cpp:442] inception_4e/3x3_reduce_fixed -> inception_4e/3x3_reduce (in-place)
I0224 07:37:02.043370   233 net.cpp:190] Setting up inception_4e/3x3_reduce_fixed
I0224 07:37:02.043380   233 net.cpp:197] Top shape: 1 160 32 64 (327680)
I0224 07:37:02.043386   233 net.cpp:205] Memory required for data: 709099520
I0224 07:37:02.043390   233 layer_factory.hpp:123] Creating layer inception_4e/3x3
I0224 07:37:02.043398   233 net.cpp:140] Creating Layer inception_4e/3x3
I0224 07:37:02.043402   233 net.cpp:481] inception_4e/3x3 <- inception_4e/3x3_reduce
I0224 07:37:02.043408   233 net.cpp:455] inception_4e/3x3 -> inception_4e/3x3
I0224 07:37:02.048966   233 layer_factory.hpp:123] Creating layer inception_4e/3x3
I0224 07:37:02.054416   233 net.cpp:190] Setting up inception_4e/3x3
I0224 07:37:02.054426   233 net.cpp:197] Top shape: 1 320 32 64 (655360)
I0224 07:37:02.054432   233 net.cpp:205] Memory required for data: 711720960
I0224 07:37:02.054440   233 layer_factory.hpp:123] Creating layer inception_4e/relu_3x3
I0224 07:37:02.054445   233 net.cpp:140] Creating Layer inception_4e/relu_3x3
I0224 07:37:02.054450   233 net.cpp:481] inception_4e/relu_3x3 <- inception_4e/3x3
I0224 07:37:02.054455   233 net.cpp:442] inception_4e/relu_3x3 -> inception_4e/3x3 (in-place)
I0224 07:37:02.054461   233 net.cpp:190] Setting up inception_4e/relu_3x3
I0224 07:37:02.054463   233 net.cpp:197] Top shape: 1 320 32 64 (655360)
I0224 07:37:02.054467   233 net.cpp:205] Memory required for data: 714342400
I0224 07:37:02.054471   233 layer_factory.hpp:123] Creating layer inception_4e/5x5_reduce
I0224 07:37:02.054478   233 net.cpp:140] Creating Layer inception_4e/5x5_reduce
I0224 07:37:02.054482   233 net.cpp:481] inception_4e/5x5_reduce <- inception_4d/output_inception_4d/output_fixed_0_split_2
I0224 07:37:02.054487   233 net.cpp:455] inception_4e/5x5_reduce -> inception_4e/5x5_reduce
I0224 07:37:02.054795   233 layer_factory.hpp:123] Creating layer inception_4e/5x5_reduce
I0224 07:37:02.055229   233 net.cpp:190] Setting up inception_4e/5x5_reduce
I0224 07:37:02.055236   233 net.cpp:197] Top shape: 1 32 32 64 (65536)
I0224 07:37:02.055241   233 net.cpp:205] Memory required for data: 714604544
I0224 07:37:02.055248   233 layer_factory.hpp:123] Creating layer inception_4e/relu_5x5_reduce
I0224 07:37:02.055253   233 net.cpp:140] Creating Layer inception_4e/relu_5x5_reduce
I0224 07:37:02.055256   233 net.cpp:481] inception_4e/relu_5x5_reduce <- inception_4e/5x5_reduce
I0224 07:37:02.055261   233 net.cpp:442] inception_4e/relu_5x5_reduce -> inception_4e/5x5_reduce (in-place)
I0224 07:37:02.055267   233 net.cpp:190] Setting up inception_4e/relu_5x5_reduce
I0224 07:37:02.055270   233 net.cpp:197] Top shape: 1 32 32 64 (65536)
I0224 07:37:02.055274   233 net.cpp:205] Memory required for data: 714866688
I0224 07:37:02.055277   233 layer_factory.hpp:123] Creating layer inception_4e/5x5_reduce_fixed
I0224 07:37:02.055282   233 net.cpp:140] Creating Layer inception_4e/5x5_reduce_fixed
I0224 07:37:02.055285   233 net.cpp:481] inception_4e/5x5_reduce_fixed <- inception_4e/5x5_reduce
I0224 07:37:02.055289   233 net.cpp:442] inception_4e/5x5_reduce_fixed -> inception_4e/5x5_reduce (in-place)
I0224 07:37:02.055315   233 net.cpp:190] Setting up inception_4e/5x5_reduce_fixed
I0224 07:37:02.055317   233 net.cpp:197] Top shape: 1 32 32 64 (65536)
I0224 07:37:02.055322   233 net.cpp:205] Memory required for data: 715128832
I0224 07:37:02.055326   233 layer_factory.hpp:123] Creating layer inception_4e/5x5
I0224 07:37:02.055333   233 net.cpp:140] Creating Layer inception_4e/5x5
I0224 07:37:02.055336   233 net.cpp:481] inception_4e/5x5 <- inception_4e/5x5_reduce
I0224 07:37:02.055341   233 net.cpp:455] inception_4e/5x5 -> inception_4e/5x5
I0224 07:37:02.056366   233 layer_factory.hpp:123] Creating layer inception_4e/5x5
I0224 07:37:02.058318   233 net.cpp:190] Setting up inception_4e/5x5
I0224 07:37:02.058331   233 net.cpp:197] Top shape: 1 128 32 64 (262144)
I0224 07:37:02.058336   233 net.cpp:205] Memory required for data: 716177408
I0224 07:37:02.058342   233 layer_factory.hpp:123] Creating layer inception_4e/relu_5x5
I0224 07:37:02.058348   233 net.cpp:140] Creating Layer inception_4e/relu_5x5
I0224 07:37:02.058352   233 net.cpp:481] inception_4e/relu_5x5 <- inception_4e/5x5
I0224 07:37:02.058357   233 net.cpp:442] inception_4e/relu_5x5 -> inception_4e/5x5 (in-place)
I0224 07:37:02.058363   233 net.cpp:190] Setting up inception_4e/relu_5x5
I0224 07:37:02.058367   233 net.cpp:197] Top shape: 1 128 32 64 (262144)
I0224 07:37:02.058372   233 net.cpp:205] Memory required for data: 717225984
I0224 07:37:02.058375   233 layer_factory.hpp:123] Creating layer inception_4e/pool
I0224 07:37:02.058382   233 net.cpp:140] Creating Layer inception_4e/pool
I0224 07:37:02.058384   233 net.cpp:481] inception_4e/pool <- inception_4d/output_inception_4d/output_fixed_0_split_3
I0224 07:37:02.058389   233 net.cpp:455] inception_4e/pool -> inception_4e/pool
I0224 07:37:02.058420   233 net.cpp:190] Setting up inception_4e/pool
I0224 07:37:02.058424   233 net.cpp:197] Top shape: 1 528 32 64 (1081344)
I0224 07:37:02.058429   233 net.cpp:205] Memory required for data: 721551360
I0224 07:37:02.058431   233 layer_factory.hpp:123] Creating layer inception_4e/pool_proj
I0224 07:37:02.058439   233 net.cpp:140] Creating Layer inception_4e/pool_proj
I0224 07:37:02.058442   233 net.cpp:481] inception_4e/pool_proj <- inception_4e/pool
I0224 07:37:02.058447   233 net.cpp:455] inception_4e/pool_proj -> inception_4e/pool_proj
I0224 07:37:02.059185   233 layer_factory.hpp:123] Creating layer inception_4e/pool_proj
I0224 07:37:02.060026   233 net.cpp:190] Setting up inception_4e/pool_proj
I0224 07:37:02.060034   233 net.cpp:197] Top shape: 1 128 32 64 (262144)
I0224 07:37:02.060039   233 net.cpp:205] Memory required for data: 722599936
I0224 07:37:02.060045   233 layer_factory.hpp:123] Creating layer inception_4e/relu_pool_proj
I0224 07:37:02.060050   233 net.cpp:140] Creating Layer inception_4e/relu_pool_proj
I0224 07:37:02.060053   233 net.cpp:481] inception_4e/relu_pool_proj <- inception_4e/pool_proj
I0224 07:37:02.060057   233 net.cpp:442] inception_4e/relu_pool_proj -> inception_4e/pool_proj (in-place)
I0224 07:37:02.060063   233 net.cpp:190] Setting up inception_4e/relu_pool_proj
I0224 07:37:02.060066   233 net.cpp:197] Top shape: 1 128 32 64 (262144)
I0224 07:37:02.060070   233 net.cpp:205] Memory required for data: 723648512
I0224 07:37:02.060073   233 layer_factory.hpp:123] Creating layer inception_4e/output
I0224 07:37:02.060079   233 net.cpp:140] Creating Layer inception_4e/output
I0224 07:37:02.060082   233 net.cpp:481] inception_4e/output <- inception_4e/1x1
I0224 07:37:02.060086   233 net.cpp:481] inception_4e/output <- inception_4e/3x3
I0224 07:37:02.060089   233 net.cpp:481] inception_4e/output <- inception_4e/5x5
I0224 07:37:02.060092   233 net.cpp:481] inception_4e/output <- inception_4e/pool_proj
I0224 07:37:02.060097   233 net.cpp:455] inception_4e/output -> inception_4e/output
I0224 07:37:02.060112   233 net.cpp:190] Setting up inception_4e/output
I0224 07:37:02.060117   233 net.cpp:197] Top shape: 1 832 32 64 (1703936)
I0224 07:37:02.060120   233 net.cpp:205] Memory required for data: 730464256
I0224 07:37:02.060124   233 layer_factory.hpp:123] Creating layer inception_4e/output_fixed
I0224 07:37:02.060128   233 net.cpp:140] Creating Layer inception_4e/output_fixed
I0224 07:37:02.060132   233 net.cpp:481] inception_4e/output_fixed <- inception_4e/output
I0224 07:37:02.060137   233 net.cpp:442] inception_4e/output_fixed -> inception_4e/output (in-place)
I0224 07:37:02.060165   233 net.cpp:190] Setting up inception_4e/output_fixed
I0224 07:37:02.060171   233 net.cpp:197] Top shape: 1 832 32 64 (1703936)
I0224 07:37:02.060175   233 net.cpp:205] Memory required for data: 737280000
I0224 07:37:02.060180   233 layer_factory.hpp:123] Creating layer inception_4e/output_inception_4e/output_fixed_0_split
I0224 07:37:02.060185   233 net.cpp:140] Creating Layer inception_4e/output_inception_4e/output_fixed_0_split
I0224 07:37:02.060189   233 net.cpp:481] inception_4e/output_inception_4e/output_fixed_0_split <- inception_4e/output
I0224 07:37:02.060192   233 net.cpp:455] inception_4e/output_inception_4e/output_fixed_0_split -> inception_4e/output_inception_4e/output_fixed_0_split_0
I0224 07:37:02.060199   233 net.cpp:455] inception_4e/output_inception_4e/output_fixed_0_split -> inception_4e/output_inception_4e/output_fixed_0_split_1
I0224 07:37:02.060225   233 net.cpp:190] Setting up inception_4e/output_inception_4e/output_fixed_0_split
I0224 07:37:02.060240   233 net.cpp:197] Top shape: 1 832 32 64 (1703936)
I0224 07:37:02.060245   233 net.cpp:197] Top shape: 1 832 32 64 (1703936)
I0224 07:37:02.060250   233 net.cpp:205] Memory required for data: 750911488
I0224 07:37:02.060252   233 layer_factory.hpp:123] Creating layer pool4/3x3_s2
I0224 07:37:02.060257   233 net.cpp:140] Creating Layer pool4/3x3_s2
I0224 07:37:02.060261   233 net.cpp:481] pool4/3x3_s2 <- inception_4e/output_inception_4e/output_fixed_0_split_0
I0224 07:37:02.060266   233 net.cpp:455] pool4/3x3_s2 -> pool4/3x3_s2
I0224 07:37:02.060294   233 net.cpp:190] Setting up pool4/3x3_s2
I0224 07:37:02.060298   233 net.cpp:197] Top shape: 1 832 16 32 (425984)
I0224 07:37:02.060303   233 net.cpp:205] Memory required for data: 752615424
I0224 07:37:02.060307   233 layer_factory.hpp:123] Creating layer pool4/3x3_s2_pool4/3x3_s2_0_split
I0224 07:37:02.060312   233 net.cpp:140] Creating Layer pool4/3x3_s2_pool4/3x3_s2_0_split
I0224 07:37:02.060314   233 net.cpp:481] pool4/3x3_s2_pool4/3x3_s2_0_split <- pool4/3x3_s2
I0224 07:37:02.060319   233 net.cpp:455] pool4/3x3_s2_pool4/3x3_s2_0_split -> pool4/3x3_s2_pool4/3x3_s2_0_split_0
I0224 07:37:02.060324   233 net.cpp:455] pool4/3x3_s2_pool4/3x3_s2_0_split -> pool4/3x3_s2_pool4/3x3_s2_0_split_1
I0224 07:37:02.060329   233 net.cpp:455] pool4/3x3_s2_pool4/3x3_s2_0_split -> pool4/3x3_s2_pool4/3x3_s2_0_split_2
I0224 07:37:02.060334   233 net.cpp:455] pool4/3x3_s2_pool4/3x3_s2_0_split -> pool4/3x3_s2_pool4/3x3_s2_0_split_3
I0224 07:37:02.060381   233 net.cpp:190] Setting up pool4/3x3_s2_pool4/3x3_s2_0_split
I0224 07:37:02.060386   233 net.cpp:197] Top shape: 1 832 16 32 (425984)
I0224 07:37:02.060391   233 net.cpp:197] Top shape: 1 832 16 32 (425984)
I0224 07:37:02.060395   233 net.cpp:197] Top shape: 1 832 16 32 (425984)
I0224 07:37:02.060400   233 net.cpp:197] Top shape: 1 832 16 32 (425984)
I0224 07:37:02.060403   233 net.cpp:205] Memory required for data: 759431168
I0224 07:37:02.060406   233 layer_factory.hpp:123] Creating layer inception_5a/1x1
I0224 07:37:02.060415   233 net.cpp:140] Creating Layer inception_5a/1x1
I0224 07:37:02.060417   233 net.cpp:481] inception_5a/1x1 <- pool4/3x3_s2_pool4/3x3_s2_0_split_0
I0224 07:37:02.060422   233 net.cpp:455] inception_5a/1x1 -> inception_5a/1x1
I0224 07:37:02.063035   233 layer_factory.hpp:123] Creating layer inception_5a/1x1
I0224 07:37:02.065737   233 net.cpp:190] Setting up inception_5a/1x1
I0224 07:37:02.065747   233 net.cpp:197] Top shape: 1 256 16 32 (131072)
I0224 07:37:02.065753   233 net.cpp:205] Memory required for data: 759955456
I0224 07:37:02.065759   233 layer_factory.hpp:123] Creating layer inception_5a/relu_1x1
I0224 07:37:02.065765   233 net.cpp:140] Creating Layer inception_5a/relu_1x1
I0224 07:37:02.065769   233 net.cpp:481] inception_5a/relu_1x1 <- inception_5a/1x1
I0224 07:37:02.065774   233 net.cpp:442] inception_5a/relu_1x1 -> inception_5a/1x1 (in-place)
I0224 07:37:02.065780   233 net.cpp:190] Setting up inception_5a/relu_1x1
I0224 07:37:02.065783   233 net.cpp:197] Top shape: 1 256 16 32 (131072)
I0224 07:37:02.065788   233 net.cpp:205] Memory required for data: 760479744
I0224 07:37:02.065790   233 layer_factory.hpp:123] Creating layer inception_5a/3x3_reduce
I0224 07:37:02.065798   233 net.cpp:140] Creating Layer inception_5a/3x3_reduce
I0224 07:37:02.065801   233 net.cpp:481] inception_5a/3x3_reduce <- pool4/3x3_s2_pool4/3x3_s2_0_split_1
I0224 07:37:02.065806   233 net.cpp:455] inception_5a/3x3_reduce -> inception_5a/3x3_reduce
I0224 07:37:02.067714   233 layer_factory.hpp:123] Creating layer inception_5a/3x3_reduce
I0224 07:37:02.069761   233 net.cpp:190] Setting up inception_5a/3x3_reduce
I0224 07:37:02.069770   233 net.cpp:197] Top shape: 1 160 16 32 (81920)
I0224 07:37:02.069777   233 net.cpp:205] Memory required for data: 760807424
I0224 07:37:02.069782   233 layer_factory.hpp:123] Creating layer inception_5a/relu_3x3_reduce
I0224 07:37:02.069787   233 net.cpp:140] Creating Layer inception_5a/relu_3x3_reduce
I0224 07:37:02.069792   233 net.cpp:481] inception_5a/relu_3x3_reduce <- inception_5a/3x3_reduce
I0224 07:37:02.069797   233 net.cpp:442] inception_5a/relu_3x3_reduce -> inception_5a/3x3_reduce (in-place)
I0224 07:37:02.069802   233 net.cpp:190] Setting up inception_5a/relu_3x3_reduce
I0224 07:37:02.069805   233 net.cpp:197] Top shape: 1 160 16 32 (81920)
I0224 07:37:02.069809   233 net.cpp:205] Memory required for data: 761135104
I0224 07:37:02.069813   233 layer_factory.hpp:123] Creating layer inception_5a/3x3_reduce_fixed
I0224 07:37:02.069818   233 net.cpp:140] Creating Layer inception_5a/3x3_reduce_fixed
I0224 07:37:02.069820   233 net.cpp:481] inception_5a/3x3_reduce_fixed <- inception_5a/3x3_reduce
I0224 07:37:02.069825   233 net.cpp:442] inception_5a/3x3_reduce_fixed -> inception_5a/3x3_reduce (in-place)
I0224 07:37:02.069851   233 net.cpp:190] Setting up inception_5a/3x3_reduce_fixed
I0224 07:37:02.069855   233 net.cpp:197] Top shape: 1 160 16 32 (81920)
I0224 07:37:02.069859   233 net.cpp:205] Memory required for data: 761462784
I0224 07:37:02.069864   233 layer_factory.hpp:123] Creating layer inception_5a/3x3
I0224 07:37:02.069871   233 net.cpp:140] Creating Layer inception_5a/3x3
I0224 07:37:02.069875   233 net.cpp:481] inception_5a/3x3 <- inception_5a/3x3_reduce
I0224 07:37:02.069880   233 net.cpp:455] inception_5a/3x3 -> inception_5a/3x3
I0224 07:37:02.075153   233 layer_factory.hpp:123] Creating layer inception_5a/3x3
I0224 07:37:02.080567   233 net.cpp:190] Setting up inception_5a/3x3
I0224 07:37:02.080577   233 net.cpp:197] Top shape: 1 320 16 32 (163840)
I0224 07:37:02.080583   233 net.cpp:205] Memory required for data: 762118144
I0224 07:37:02.080590   233 layer_factory.hpp:123] Creating layer inception_5a/relu_3x3
I0224 07:37:02.080595   233 net.cpp:140] Creating Layer inception_5a/relu_3x3
I0224 07:37:02.080600   233 net.cpp:481] inception_5a/relu_3x3 <- inception_5a/3x3
I0224 07:37:02.080605   233 net.cpp:442] inception_5a/relu_3x3 -> inception_5a/3x3 (in-place)
I0224 07:37:02.080610   233 net.cpp:190] Setting up inception_5a/relu_3x3
I0224 07:37:02.080615   233 net.cpp:197] Top shape: 1 320 16 32 (163840)
I0224 07:37:02.080619   233 net.cpp:205] Memory required for data: 762773504
I0224 07:37:02.080622   233 layer_factory.hpp:123] Creating layer inception_5a/5x5_reduce
I0224 07:37:02.080629   233 net.cpp:140] Creating Layer inception_5a/5x5_reduce
I0224 07:37:02.080632   233 net.cpp:481] inception_5a/5x5_reduce <- pool4/3x3_s2_pool4/3x3_s2_0_split_2
I0224 07:37:02.080637   233 net.cpp:455] inception_5a/5x5_reduce -> inception_5a/5x5_reduce
I0224 07:37:02.081038   233 layer_factory.hpp:123] Creating layer inception_5a/5x5_reduce
I0224 07:37:02.081571   233 net.cpp:190] Setting up inception_5a/5x5_reduce
I0224 07:37:02.081579   233 net.cpp:197] Top shape: 1 32 16 32 (16384)
I0224 07:37:02.081584   233 net.cpp:205] Memory required for data: 762839040
I0224 07:37:02.081590   233 layer_factory.hpp:123] Creating layer inception_5a/relu_5x5_reduce
I0224 07:37:02.081595   233 net.cpp:140] Creating Layer inception_5a/relu_5x5_reduce
I0224 07:37:02.081599   233 net.cpp:481] inception_5a/relu_5x5_reduce <- inception_5a/5x5_reduce
I0224 07:37:02.081604   233 net.cpp:442] inception_5a/relu_5x5_reduce -> inception_5a/5x5_reduce (in-place)
I0224 07:37:02.081609   233 net.cpp:190] Setting up inception_5a/relu_5x5_reduce
I0224 07:37:02.081612   233 net.cpp:197] Top shape: 1 32 16 32 (16384)
I0224 07:37:02.081616   233 net.cpp:205] Memory required for data: 762904576
I0224 07:37:02.081619   233 layer_factory.hpp:123] Creating layer inception_5a/5x5_reduce_fixed
I0224 07:37:02.081624   233 net.cpp:140] Creating Layer inception_5a/5x5_reduce_fixed
I0224 07:37:02.081627   233 net.cpp:481] inception_5a/5x5_reduce_fixed <- inception_5a/5x5_reduce
I0224 07:37:02.081632   233 net.cpp:442] inception_5a/5x5_reduce_fixed -> inception_5a/5x5_reduce (in-place)
I0224 07:37:02.081657   233 net.cpp:190] Setting up inception_5a/5x5_reduce_fixed
I0224 07:37:02.081663   233 net.cpp:197] Top shape: 1 32 16 32 (16384)
I0224 07:37:02.081667   233 net.cpp:205] Memory required for data: 762970112
I0224 07:37:02.081672   233 layer_factory.hpp:123] Creating layer inception_5a/5x5
I0224 07:37:02.081679   233 net.cpp:140] Creating Layer inception_5a/5x5
I0224 07:37:02.081682   233 net.cpp:481] inception_5a/5x5 <- inception_5a/5x5_reduce
I0224 07:37:02.081687   233 net.cpp:455] inception_5a/5x5 -> inception_5a/5x5
I0224 07:37:02.082717   233 layer_factory.hpp:123] Creating layer inception_5a/5x5
I0224 07:37:02.083860   233 net.cpp:190] Setting up inception_5a/5x5
I0224 07:37:02.083868   233 net.cpp:197] Top shape: 1 128 16 32 (65536)
I0224 07:37:02.083873   233 net.cpp:205] Memory required for data: 763232256
I0224 07:37:02.083878   233 layer_factory.hpp:123] Creating layer inception_5a/relu_5x5
I0224 07:37:02.083884   233 net.cpp:140] Creating Layer inception_5a/relu_5x5
I0224 07:37:02.083887   233 net.cpp:481] inception_5a/relu_5x5 <- inception_5a/5x5
I0224 07:37:02.083891   233 net.cpp:442] inception_5a/relu_5x5 -> inception_5a/5x5 (in-place)
I0224 07:37:02.083897   233 net.cpp:190] Setting up inception_5a/relu_5x5
I0224 07:37:02.083900   233 net.cpp:197] Top shape: 1 128 16 32 (65536)
I0224 07:37:02.083905   233 net.cpp:205] Memory required for data: 763494400
I0224 07:37:02.083909   233 layer_factory.hpp:123] Creating layer inception_5a/pool
I0224 07:37:02.083914   233 net.cpp:140] Creating Layer inception_5a/pool
I0224 07:37:02.083917   233 net.cpp:481] inception_5a/pool <- pool4/3x3_s2_pool4/3x3_s2_0_split_3
I0224 07:37:02.083922   233 net.cpp:455] inception_5a/pool -> inception_5a/pool
I0224 07:37:02.083950   233 net.cpp:190] Setting up inception_5a/pool
I0224 07:37:02.083954   233 net.cpp:197] Top shape: 1 832 16 32 (425984)
I0224 07:37:02.083958   233 net.cpp:205] Memory required for data: 765198336
I0224 07:37:02.083961   233 layer_factory.hpp:123] Creating layer inception_5a/pool_proj
I0224 07:37:02.083968   233 net.cpp:140] Creating Layer inception_5a/pool_proj
I0224 07:37:02.083972   233 net.cpp:481] inception_5a/pool_proj <- inception_5a/pool
I0224 07:37:02.083977   233 net.cpp:455] inception_5a/pool_proj -> inception_5a/pool_proj
I0224 07:37:02.085669   233 layer_factory.hpp:123] Creating layer inception_5a/pool_proj
I0224 07:37:02.086863   233 net.cpp:190] Setting up inception_5a/pool_proj
I0224 07:37:02.086870   233 net.cpp:197] Top shape: 1 128 16 32 (65536)
I0224 07:37:02.086876   233 net.cpp:205] Memory required for data: 765460480
I0224 07:37:02.086889   233 layer_factory.hpp:123] Creating layer inception_5a/relu_pool_proj
I0224 07:37:02.086894   233 net.cpp:140] Creating Layer inception_5a/relu_pool_proj
I0224 07:37:02.086899   233 net.cpp:481] inception_5a/relu_pool_proj <- inception_5a/pool_proj
I0224 07:37:02.086903   233 net.cpp:442] inception_5a/relu_pool_proj -> inception_5a/pool_proj (in-place)
I0224 07:37:02.086910   233 net.cpp:190] Setting up inception_5a/relu_pool_proj
I0224 07:37:02.086913   233 net.cpp:197] Top shape: 1 128 16 32 (65536)
I0224 07:37:02.086917   233 net.cpp:205] Memory required for data: 765722624
I0224 07:37:02.086920   233 layer_factory.hpp:123] Creating layer inception_5a/output
I0224 07:37:02.086926   233 net.cpp:140] Creating Layer inception_5a/output
I0224 07:37:02.086930   233 net.cpp:481] inception_5a/output <- inception_5a/1x1
I0224 07:37:02.086933   233 net.cpp:481] inception_5a/output <- inception_5a/3x3
I0224 07:37:02.086936   233 net.cpp:481] inception_5a/output <- inception_5a/5x5
I0224 07:37:02.086941   233 net.cpp:481] inception_5a/output <- inception_5a/pool_proj
I0224 07:37:02.086944   233 net.cpp:455] inception_5a/output -> inception_5a/output
I0224 07:37:02.086961   233 net.cpp:190] Setting up inception_5a/output
I0224 07:37:02.086964   233 net.cpp:197] Top shape: 1 832 16 32 (425984)
I0224 07:37:02.086969   233 net.cpp:205] Memory required for data: 767426560
I0224 07:37:02.086972   233 layer_factory.hpp:123] Creating layer inception_5a/output_fixed
I0224 07:37:02.086977   233 net.cpp:140] Creating Layer inception_5a/output_fixed
I0224 07:37:02.086980   233 net.cpp:481] inception_5a/output_fixed <- inception_5a/output
I0224 07:37:02.086985   233 net.cpp:442] inception_5a/output_fixed -> inception_5a/output (in-place)
I0224 07:37:02.087013   233 net.cpp:190] Setting up inception_5a/output_fixed
I0224 07:37:02.087019   233 net.cpp:197] Top shape: 1 832 16 32 (425984)
I0224 07:37:02.087023   233 net.cpp:205] Memory required for data: 769130496
I0224 07:37:02.087028   233 layer_factory.hpp:123] Creating layer inception_5a/output_inception_5a/output_fixed_0_split
I0224 07:37:02.087034   233 net.cpp:140] Creating Layer inception_5a/output_inception_5a/output_fixed_0_split
I0224 07:37:02.087038   233 net.cpp:481] inception_5a/output_inception_5a/output_fixed_0_split <- inception_5a/output
I0224 07:37:02.087041   233 net.cpp:455] inception_5a/output_inception_5a/output_fixed_0_split -> inception_5a/output_inception_5a/output_fixed_0_split_0
I0224 07:37:02.087047   233 net.cpp:455] inception_5a/output_inception_5a/output_fixed_0_split -> inception_5a/output_inception_5a/output_fixed_0_split_1
I0224 07:37:02.087052   233 net.cpp:455] inception_5a/output_inception_5a/output_fixed_0_split -> inception_5a/output_inception_5a/output_fixed_0_split_2
I0224 07:37:02.087057   233 net.cpp:455] inception_5a/output_inception_5a/output_fixed_0_split -> inception_5a/output_inception_5a/output_fixed_0_split_3
I0224 07:37:02.087105   233 net.cpp:190] Setting up inception_5a/output_inception_5a/output_fixed_0_split
I0224 07:37:02.087110   233 net.cpp:197] Top shape: 1 832 16 32 (425984)
I0224 07:37:02.087116   233 net.cpp:197] Top shape: 1 832 16 32 (425984)
I0224 07:37:02.087119   233 net.cpp:197] Top shape: 1 832 16 32 (425984)
I0224 07:37:02.087122   233 net.cpp:197] Top shape: 1 832 16 32 (425984)
I0224 07:37:02.087127   233 net.cpp:205] Memory required for data: 775946240
I0224 07:37:02.087131   233 layer_factory.hpp:123] Creating layer inception_5b/1x1
I0224 07:37:02.087137   233 net.cpp:140] Creating Layer inception_5b/1x1
I0224 07:37:02.087141   233 net.cpp:481] inception_5b/1x1 <- inception_5a/output_inception_5a/output_fixed_0_split_0
I0224 07:37:02.087146   233 net.cpp:455] inception_5b/1x1 -> inception_5b/1x1
I0224 07:37:02.091279   233 layer_factory.hpp:123] Creating layer inception_5b/1x1
I0224 07:37:02.095510   233 net.cpp:190] Setting up inception_5b/1x1
I0224 07:37:02.095520   233 net.cpp:197] Top shape: 1 384 16 32 (196608)
I0224 07:37:02.095527   233 net.cpp:205] Memory required for data: 776732672
I0224 07:37:02.095533   233 layer_factory.hpp:123] Creating layer inception_5b/relu_1x1
I0224 07:37:02.095540   233 net.cpp:140] Creating Layer inception_5b/relu_1x1
I0224 07:37:02.095544   233 net.cpp:481] inception_5b/relu_1x1 <- inception_5b/1x1
I0224 07:37:02.095548   233 net.cpp:442] inception_5b/relu_1x1 -> inception_5b/1x1 (in-place)
I0224 07:37:02.095556   233 net.cpp:190] Setting up inception_5b/relu_1x1
I0224 07:37:02.095558   233 net.cpp:197] Top shape: 1 384 16 32 (196608)
I0224 07:37:02.095562   233 net.cpp:205] Memory required for data: 777519104
I0224 07:37:02.095566   233 layer_factory.hpp:123] Creating layer inception_5b/3x3_reduce
I0224 07:37:02.095573   233 net.cpp:140] Creating Layer inception_5b/3x3_reduce
I0224 07:37:02.095577   233 net.cpp:481] inception_5b/3x3_reduce <- inception_5a/output_inception_5a/output_fixed_0_split_1
I0224 07:37:02.095583   233 net.cpp:455] inception_5b/3x3_reduce -> inception_5b/3x3_reduce
I0224 07:37:02.097110   233 layer_factory.hpp:123] Creating layer inception_5b/3x3_reduce
I0224 07:37:02.098763   233 net.cpp:190] Setting up inception_5b/3x3_reduce
I0224 07:37:02.098771   233 net.cpp:197] Top shape: 1 192 16 32 (98304)
I0224 07:37:02.098776   233 net.cpp:205] Memory required for data: 777912320
I0224 07:37:02.098783   233 layer_factory.hpp:123] Creating layer inception_5b/relu_3x3_reduce
I0224 07:37:02.098788   233 net.cpp:140] Creating Layer inception_5b/relu_3x3_reduce
I0224 07:37:02.098791   233 net.cpp:481] inception_5b/relu_3x3_reduce <- inception_5b/3x3_reduce
I0224 07:37:02.098796   233 net.cpp:442] inception_5b/relu_3x3_reduce -> inception_5b/3x3_reduce (in-place)
I0224 07:37:02.098803   233 net.cpp:190] Setting up inception_5b/relu_3x3_reduce
I0224 07:37:02.098805   233 net.cpp:197] Top shape: 1 192 16 32 (98304)
I0224 07:37:02.098809   233 net.cpp:205] Memory required for data: 778305536
I0224 07:37:02.098812   233 layer_factory.hpp:123] Creating layer inception_5b/3x3_reduce_fixed
I0224 07:37:02.098817   233 net.cpp:140] Creating Layer inception_5b/3x3_reduce_fixed
I0224 07:37:02.098820   233 net.cpp:481] inception_5b/3x3_reduce_fixed <- inception_5b/3x3_reduce
I0224 07:37:02.098824   233 net.cpp:442] inception_5b/3x3_reduce_fixed -> inception_5b/3x3_reduce (in-place)
I0224 07:37:02.098850   233 net.cpp:190] Setting up inception_5b/3x3_reduce_fixed
I0224 07:37:02.098853   233 net.cpp:197] Top shape: 1 192 16 32 (98304)
I0224 07:37:02.098857   233 net.cpp:205] Memory required for data: 778698752
I0224 07:37:02.098861   233 layer_factory.hpp:123] Creating layer inception_5b/3x3
I0224 07:37:02.098870   233 net.cpp:140] Creating Layer inception_5b/3x3
I0224 07:37:02.098872   233 net.cpp:481] inception_5b/3x3 <- inception_5b/3x3_reduce
I0224 07:37:02.098877   233 net.cpp:455] inception_5b/3x3 -> inception_5b/3x3
I0224 07:37:02.106220   233 layer_factory.hpp:123] Creating layer inception_5b/3x3
I0224 07:37:02.113780   233 net.cpp:190] Setting up inception_5b/3x3
I0224 07:37:02.113795   233 net.cpp:197] Top shape: 1 384 16 32 (196608)
I0224 07:37:02.113802   233 net.cpp:205] Memory required for data: 779485184
I0224 07:37:02.113814   233 layer_factory.hpp:123] Creating layer inception_5b/relu_3x3
I0224 07:37:02.113822   233 net.cpp:140] Creating Layer inception_5b/relu_3x3
I0224 07:37:02.113828   233 net.cpp:481] inception_5b/relu_3x3 <- inception_5b/3x3
I0224 07:37:02.113834   233 net.cpp:442] inception_5b/relu_3x3 -> inception_5b/3x3 (in-place)
I0224 07:37:02.113842   233 net.cpp:190] Setting up inception_5b/relu_3x3
I0224 07:37:02.113845   233 net.cpp:197] Top shape: 1 384 16 32 (196608)
I0224 07:37:02.113850   233 net.cpp:205] Memory required for data: 780271616
I0224 07:37:02.113853   233 layer_factory.hpp:123] Creating layer inception_5b/5x5_reduce
I0224 07:37:02.113862   233 net.cpp:140] Creating Layer inception_5b/5x5_reduce
I0224 07:37:02.113867   233 net.cpp:481] inception_5b/5x5_reduce <- inception_5a/output_inception_5a/output_fixed_0_split_2
I0224 07:37:02.113873   233 net.cpp:455] inception_5b/5x5_reduce -> inception_5b/5x5_reduce
I0224 07:37:02.114404   233 layer_factory.hpp:123] Creating layer inception_5b/5x5_reduce
I0224 07:37:02.115048   233 net.cpp:190] Setting up inception_5b/5x5_reduce
I0224 07:37:02.115056   233 net.cpp:197] Top shape: 1 48 16 32 (24576)
I0224 07:37:02.115061   233 net.cpp:205] Memory required for data: 780369920
I0224 07:37:02.115067   233 layer_factory.hpp:123] Creating layer inception_5b/relu_5x5_reduce
I0224 07:37:02.115072   233 net.cpp:140] Creating Layer inception_5b/relu_5x5_reduce
I0224 07:37:02.115075   233 net.cpp:481] inception_5b/relu_5x5_reduce <- inception_5b/5x5_reduce
I0224 07:37:02.115080   233 net.cpp:442] inception_5b/relu_5x5_reduce -> inception_5b/5x5_reduce (in-place)
I0224 07:37:02.115085   233 net.cpp:190] Setting up inception_5b/relu_5x5_reduce
I0224 07:37:02.115088   233 net.cpp:197] Top shape: 1 48 16 32 (24576)
I0224 07:37:02.115093   233 net.cpp:205] Memory required for data: 780468224
I0224 07:37:02.115097   233 layer_factory.hpp:123] Creating layer inception_5b/5x5_reduce_fixed
I0224 07:37:02.115103   233 net.cpp:140] Creating Layer inception_5b/5x5_reduce_fixed
I0224 07:37:02.115105   233 net.cpp:481] inception_5b/5x5_reduce_fixed <- inception_5b/5x5_reduce
I0224 07:37:02.115109   233 net.cpp:442] inception_5b/5x5_reduce_fixed -> inception_5b/5x5_reduce (in-place)
I0224 07:37:02.115135   233 net.cpp:190] Setting up inception_5b/5x5_reduce_fixed
I0224 07:37:02.115139   233 net.cpp:197] Top shape: 1 48 16 32 (24576)
I0224 07:37:02.115144   233 net.cpp:205] Memory required for data: 780566528
I0224 07:37:02.115149   233 layer_factory.hpp:123] Creating layer inception_5b/5x5
I0224 07:37:02.115155   233 net.cpp:140] Creating Layer inception_5b/5x5
I0224 07:37:02.115159   233 net.cpp:481] inception_5b/5x5 <- inception_5b/5x5_reduce
I0224 07:37:02.115164   233 net.cpp:455] inception_5b/5x5 -> inception_5b/5x5
I0224 07:37:02.117311   233 layer_factory.hpp:123] Creating layer inception_5b/5x5
I0224 07:37:02.119608   233 net.cpp:190] Setting up inception_5b/5x5
I0224 07:37:02.119619   233 net.cpp:197] Top shape: 1 128 16 32 (65536)
I0224 07:37:02.119626   233 net.cpp:205] Memory required for data: 780828672
I0224 07:37:02.119633   233 layer_factory.hpp:123] Creating layer inception_5b/relu_5x5
I0224 07:37:02.119638   233 net.cpp:140] Creating Layer inception_5b/relu_5x5
I0224 07:37:02.119643   233 net.cpp:481] inception_5b/relu_5x5 <- inception_5b/5x5
I0224 07:37:02.119648   233 net.cpp:442] inception_5b/relu_5x5 -> inception_5b/5x5 (in-place)
I0224 07:37:02.119654   233 net.cpp:190] Setting up inception_5b/relu_5x5
I0224 07:37:02.119657   233 net.cpp:197] Top shape: 1 128 16 32 (65536)
I0224 07:37:02.119662   233 net.cpp:205] Memory required for data: 781090816
I0224 07:37:02.119664   233 layer_factory.hpp:123] Creating layer inception_5b/pool
I0224 07:37:02.119671   233 net.cpp:140] Creating Layer inception_5b/pool
I0224 07:37:02.119675   233 net.cpp:481] inception_5b/pool <- inception_5a/output_inception_5a/output_fixed_0_split_3
I0224 07:37:02.119680   233 net.cpp:455] inception_5b/pool -> inception_5b/pool
I0224 07:37:02.119710   233 net.cpp:190] Setting up inception_5b/pool
I0224 07:37:02.119714   233 net.cpp:197] Top shape: 1 832 16 32 (425984)
I0224 07:37:02.119719   233 net.cpp:205] Memory required for data: 782794752
I0224 07:37:02.119721   233 layer_factory.hpp:123] Creating layer inception_5b/pool_proj
I0224 07:37:02.119729   233 net.cpp:140] Creating Layer inception_5b/pool_proj
I0224 07:37:02.119731   233 net.cpp:481] inception_5b/pool_proj <- inception_5b/pool
I0224 07:37:02.119736   233 net.cpp:455] inception_5b/pool_proj -> inception_5b/pool_proj
I0224 07:37:02.120811   233 layer_factory.hpp:123] Creating layer inception_5b/pool_proj
I0224 07:37:02.122795   233 net.cpp:190] Setting up inception_5b/pool_proj
I0224 07:37:02.122807   233 net.cpp:197] Top shape: 1 128 16 32 (65536)
I0224 07:37:02.122813   233 net.cpp:205] Memory required for data: 783056896
I0224 07:37:02.122820   233 layer_factory.hpp:123] Creating layer inception_5b/relu_pool_proj
I0224 07:37:02.122825   233 net.cpp:140] Creating Layer inception_5b/relu_pool_proj
I0224 07:37:02.122830   233 net.cpp:481] inception_5b/relu_pool_proj <- inception_5b/pool_proj
I0224 07:37:02.122835   233 net.cpp:442] inception_5b/relu_pool_proj -> inception_5b/pool_proj (in-place)
I0224 07:37:02.122843   233 net.cpp:190] Setting up inception_5b/relu_pool_proj
I0224 07:37:02.122845   233 net.cpp:197] Top shape: 1 128 16 32 (65536)
I0224 07:37:02.122849   233 net.cpp:205] Memory required for data: 783319040
I0224 07:37:02.122853   233 layer_factory.hpp:123] Creating layer inception_5b/output
I0224 07:37:02.122858   233 net.cpp:140] Creating Layer inception_5b/output
I0224 07:37:02.122861   233 net.cpp:481] inception_5b/output <- inception_5b/1x1
I0224 07:37:02.122864   233 net.cpp:481] inception_5b/output <- inception_5b/3x3
I0224 07:37:02.122869   233 net.cpp:481] inception_5b/output <- inception_5b/5x5
I0224 07:37:02.122872   233 net.cpp:481] inception_5b/output <- inception_5b/pool_proj
I0224 07:37:02.122876   233 net.cpp:455] inception_5b/output -> inception_5b/output
I0224 07:37:02.122895   233 net.cpp:190] Setting up inception_5b/output
I0224 07:37:02.122903   233 net.cpp:197] Top shape: 1 1024 16 32 (524288)
I0224 07:37:02.122907   233 net.cpp:205] Memory required for data: 785416192
I0224 07:37:02.122910   233 layer_factory.hpp:123] Creating layer inception_5b/output_fixed
I0224 07:37:02.122916   233 net.cpp:140] Creating Layer inception_5b/output_fixed
I0224 07:37:02.122920   233 net.cpp:481] inception_5b/output_fixed <- inception_5b/output
I0224 07:37:02.122925   233 net.cpp:442] inception_5b/output_fixed -> inception_5b/output (in-place)
I0224 07:37:02.122954   233 net.cpp:190] Setting up inception_5b/output_fixed
I0224 07:37:02.122959   233 net.cpp:197] Top shape: 1 1024 16 32 (524288)
I0224 07:37:02.122964   233 net.cpp:205] Memory required for data: 787513344
I0224 07:37:02.122968   233 layer_factory.hpp:123] Creating layer p5
I0224 07:37:02.122977   233 net.cpp:140] Creating Layer p5
I0224 07:37:02.122980   233 net.cpp:481] p5 <- inception_5b/output
I0224 07:37:02.122984   233 net.cpp:455] p5 -> p5
I0224 07:37:02.123450   233 layer_factory.hpp:123] Creating layer p5
I0224 07:37:02.124030   233 net.cpp:190] Setting up p5
I0224 07:37:02.124038   233 net.cpp:197] Top shape: 1 32 16 32 (16384)
I0224 07:37:02.124043   233 net.cpp:205] Memory required for data: 787578880
I0224 07:37:02.124048   233 layer_factory.hpp:123] Creating layer p5_fixed
I0224 07:37:02.124053   233 net.cpp:140] Creating Layer p5_fixed
I0224 07:37:02.124058   233 net.cpp:481] p5_fixed <- p5
I0224 07:37:02.124063   233 net.cpp:442] p5_fixed -> p5 (in-place)
I0224 07:37:02.124092   233 net.cpp:190] Setting up p5_fixed
I0224 07:37:02.124096   233 net.cpp:197] Top shape: 1 32 16 32 (16384)
I0224 07:37:02.124100   233 net.cpp:205] Memory required for data: 787644416
I0224 07:37:02.124105   233 layer_factory.hpp:123] Creating layer latlayer_4f
I0224 07:37:02.124111   233 net.cpp:140] Creating Layer latlayer_4f
I0224 07:37:02.124116   233 net.cpp:481] latlayer_4f <- inception_4e/output_inception_4e/output_fixed_0_split_1
I0224 07:37:02.124120   233 net.cpp:455] latlayer_4f -> latlayer_4f
I0224 07:37:02.124522   233 layer_factory.hpp:123] Creating layer latlayer_4f
I0224 07:37:02.125047   233 net.cpp:190] Setting up latlayer_4f
I0224 07:37:02.125054   233 net.cpp:197] Top shape: 1 32 32 64 (65536)
I0224 07:37:02.125059   233 net.cpp:205] Memory required for data: 787906560
I0224 07:37:02.125064   233 layer_factory.hpp:123] Creating layer latlayer_4f_fixed
I0224 07:37:02.125070   233 net.cpp:140] Creating Layer latlayer_4f_fixed
I0224 07:37:02.125073   233 net.cpp:481] latlayer_4f_fixed <- latlayer_4f
I0224 07:37:02.125078   233 net.cpp:442] latlayer_4f_fixed -> latlayer_4f (in-place)
I0224 07:37:02.125108   233 net.cpp:190] Setting up latlayer_4f_fixed
I0224 07:37:02.125111   233 net.cpp:197] Top shape: 1 32 32 64 (65536)
I0224 07:37:02.125116   233 net.cpp:205] Memory required for data: 788168704
I0224 07:37:02.125120   233 layer_factory.hpp:123] Creating layer upsample_p5
I0224 07:37:02.125128   233 net.cpp:140] Creating Layer upsample_p5
I0224 07:37:02.125130   233 net.cpp:481] upsample_p5 <- p5
I0224 07:37:02.125135   233 net.cpp:455] upsample_p5 -> upsample_p5
I0224 07:37:02.125442   233 layer_factory.hpp:123] Creating layer upsample_p5
I0224 07:37:02.125804   233 net.cpp:190] Setting up upsample_p5
I0224 07:37:02.125810   233 net.cpp:197] Top shape: 1 32 32 64 (65536)
I0224 07:37:02.125815   233 net.cpp:205] Memory required for data: 788430848
I0224 07:37:02.125819   233 layer_factory.hpp:123] Creating layer upsample_p5_fixed
I0224 07:37:02.125824   233 net.cpp:140] Creating Layer upsample_p5_fixed
I0224 07:37:02.125828   233 net.cpp:481] upsample_p5_fixed <- upsample_p5
I0224 07:37:02.125833   233 net.cpp:442] upsample_p5_fixed -> upsample_p5 (in-place)
I0224 07:37:02.125861   233 net.cpp:190] Setting up upsample_p5_fixed
I0224 07:37:02.125865   233 net.cpp:197] Top shape: 1 32 32 64 (65536)
I0224 07:37:02.125869   233 net.cpp:205] Memory required for data: 788692992
I0224 07:37:02.125874   233 layer_factory.hpp:123] Creating layer add_p4
I0224 07:37:02.125880   233 net.cpp:140] Creating Layer add_p4
I0224 07:37:02.125883   233 net.cpp:481] add_p4 <- upsample_p5
I0224 07:37:02.125887   233 net.cpp:481] add_p4 <- latlayer_4f
I0224 07:37:02.125891   233 net.cpp:455] add_p4 -> add_p4
I0224 07:37:02.125910   233 net.cpp:190] Setting up add_p4
I0224 07:37:02.125916   233 net.cpp:197] Top shape: 1 32 32 64 (65536)
I0224 07:37:02.125921   233 net.cpp:205] Memory required for data: 788955136
I0224 07:37:02.125924   233 layer_factory.hpp:123] Creating layer add_p4_fixed
I0224 07:37:02.125928   233 net.cpp:140] Creating Layer add_p4_fixed
I0224 07:37:02.125932   233 net.cpp:481] add_p4_fixed <- add_p4
I0224 07:37:02.125936   233 net.cpp:442] add_p4_fixed -> add_p4 (in-place)
I0224 07:37:02.125963   233 net.cpp:190] Setting up add_p4_fixed
I0224 07:37:02.125968   233 net.cpp:197] Top shape: 1 32 32 64 (65536)
I0224 07:37:02.125973   233 net.cpp:205] Memory required for data: 789217280
I0224 07:37:02.125977   233 layer_factory.hpp:123] Creating layer toplayer_p4
I0224 07:37:02.125983   233 net.cpp:140] Creating Layer toplayer_p4
I0224 07:37:02.125988   233 net.cpp:481] toplayer_p4 <- add_p4
I0224 07:37:02.125991   233 net.cpp:455] toplayer_p4 -> p4
I0224 07:37:02.126227   233 layer_factory.hpp:123] Creating layer toplayer_p4
I0224 07:37:02.126587   233 net.cpp:190] Setting up toplayer_p4
I0224 07:37:02.126593   233 net.cpp:197] Top shape: 1 32 32 64 (65536)
I0224 07:37:02.126598   233 net.cpp:205] Memory required for data: 789479424
I0224 07:37:02.126603   233 layer_factory.hpp:123] Creating layer p4_fixed
I0224 07:37:02.126608   233 net.cpp:140] Creating Layer p4_fixed
I0224 07:37:02.126612   233 net.cpp:481] p4_fixed <- p4
I0224 07:37:02.126616   233 net.cpp:442] p4_fixed -> p4 (in-place)
I0224 07:37:02.126646   233 net.cpp:190] Setting up p4_fixed
I0224 07:37:02.126649   233 net.cpp:197] Top shape: 1 32 32 64 (65536)
I0224 07:37:02.126654   233 net.cpp:205] Memory required for data: 789741568
I0224 07:37:02.126658   233 layer_factory.hpp:123] Creating layer latlayer_3d
I0224 07:37:02.126665   233 net.cpp:140] Creating Layer latlayer_3d
I0224 07:37:02.126669   233 net.cpp:481] latlayer_3d <- inception_3b/output_inception_3b/output_fixed_0_split_1
I0224 07:37:02.126674   233 net.cpp:455] latlayer_3d -> latlayer_3d
I0224 07:37:02.126976   233 layer_factory.hpp:123] Creating layer latlayer_3d
I0224 07:37:02.127401   233 net.cpp:190] Setting up latlayer_3d
I0224 07:37:02.127408   233 net.cpp:197] Top shape: 1 32 64 128 (262144)
I0224 07:37:02.127413   233 net.cpp:205] Memory required for data: 790790144
I0224 07:37:02.127418   233 layer_factory.hpp:123] Creating layer latlayer_3d_fixed
I0224 07:37:02.127424   233 net.cpp:140] Creating Layer latlayer_3d_fixed
I0224 07:37:02.127427   233 net.cpp:481] latlayer_3d_fixed <- latlayer_3d
I0224 07:37:02.127432   233 net.cpp:442] latlayer_3d_fixed -> latlayer_3d (in-place)
I0224 07:37:02.127458   233 net.cpp:190] Setting up latlayer_3d_fixed
I0224 07:37:02.127465   233 net.cpp:197] Top shape: 1 32 64 128 (262144)
I0224 07:37:02.127468   233 net.cpp:205] Memory required for data: 791838720
I0224 07:37:02.127473   233 layer_factory.hpp:123] Creating layer upsample_p4
I0224 07:37:02.127480   233 net.cpp:140] Creating Layer upsample_p4
I0224 07:37:02.127483   233 net.cpp:481] upsample_p4 <- p4
I0224 07:37:02.127488   233 net.cpp:455] upsample_p4 -> upsample_p4
I0224 07:37:02.127751   233 layer_factory.hpp:123] Creating layer upsample_p4
I0224 07:37:02.128106   233 net.cpp:190] Setting up upsample_p4
I0224 07:37:02.128113   233 net.cpp:197] Top shape: 1 32 64 128 (262144)
I0224 07:37:02.128118   233 net.cpp:205] Memory required for data: 792887296
I0224 07:37:02.128123   233 layer_factory.hpp:123] Creating layer upsample_p4_fixed
I0224 07:37:02.128127   233 net.cpp:140] Creating Layer upsample_p4_fixed
I0224 07:37:02.128130   233 net.cpp:481] upsample_p4_fixed <- upsample_p4
I0224 07:37:02.128135   233 net.cpp:442] upsample_p4_fixed -> upsample_p4 (in-place)
I0224 07:37:02.128165   233 net.cpp:190] Setting up upsample_p4_fixed
I0224 07:37:02.128170   233 net.cpp:197] Top shape: 1 32 64 128 (262144)
I0224 07:37:02.128175   233 net.cpp:205] Memory required for data: 793935872
I0224 07:37:02.128178   233 layer_factory.hpp:123] Creating layer add_p3
I0224 07:37:02.128183   233 net.cpp:140] Creating Layer add_p3
I0224 07:37:02.128187   233 net.cpp:481] add_p3 <- upsample_p4
I0224 07:37:02.128190   233 net.cpp:481] add_p3 <- latlayer_3d
I0224 07:37:02.128196   233 net.cpp:455] add_p3 -> add_p3
I0224 07:37:02.128213   233 net.cpp:190] Setting up add_p3
I0224 07:37:02.128217   233 net.cpp:197] Top shape: 1 32 64 128 (262144)
I0224 07:37:02.128222   233 net.cpp:205] Memory required for data: 794984448
I0224 07:37:02.128226   233 layer_factory.hpp:123] Creating layer add_p3_fixed
I0224 07:37:02.128229   233 net.cpp:140] Creating Layer add_p3_fixed
I0224 07:37:02.128232   233 net.cpp:481] add_p3_fixed <- add_p3
I0224 07:37:02.128237   233 net.cpp:442] add_p3_fixed -> add_p3 (in-place)
I0224 07:37:02.128263   233 net.cpp:190] Setting up add_p3_fixed
I0224 07:37:02.128268   233 net.cpp:197] Top shape: 1 32 64 128 (262144)
I0224 07:37:02.128271   233 net.cpp:205] Memory required for data: 796033024
I0224 07:37:02.128276   233 layer_factory.hpp:123] Creating layer toplayer_p3
I0224 07:37:02.128283   233 net.cpp:140] Creating Layer toplayer_p3
I0224 07:37:02.128285   233 net.cpp:481] toplayer_p3 <- add_p3
I0224 07:37:02.128290   233 net.cpp:455] toplayer_p3 -> p3
I0224 07:37:02.128527   233 layer_factory.hpp:123] Creating layer toplayer_p3
I0224 07:37:02.128892   233 net.cpp:190] Setting up toplayer_p3
I0224 07:37:02.128899   233 net.cpp:197] Top shape: 1 32 64 128 (262144)
I0224 07:37:02.128904   233 net.cpp:205] Memory required for data: 797081600
I0224 07:37:02.128911   233 layer_factory.hpp:123] Creating layer p3_fixed
I0224 07:37:02.128916   233 net.cpp:140] Creating Layer p3_fixed
I0224 07:37:02.128919   233 net.cpp:481] p3_fixed <- p3
I0224 07:37:02.128923   233 net.cpp:442] p3_fixed -> p3 (in-place)
I0224 07:37:02.128953   233 net.cpp:190] Setting up p3_fixed
I0224 07:37:02.128958   233 net.cpp:197] Top shape: 1 32 64 128 (262144)
I0224 07:37:02.128963   233 net.cpp:205] Memory required for data: 798130176
I0224 07:37:02.128968   233 layer_factory.hpp:123] Creating layer latlayer_2c
I0224 07:37:02.128974   233 net.cpp:140] Creating Layer latlayer_2c
I0224 07:37:02.128978   233 net.cpp:481] latlayer_2c <- conv2/3x3_conv2/3x3_fixed_0_split_1
I0224 07:37:02.128983   233 net.cpp:455] latlayer_2c -> latlayer_2c
I0224 07:37:02.129200   233 layer_factory.hpp:123] Creating layer latlayer_2c
I0224 07:37:02.129568   233 net.cpp:190] Setting up latlayer_2c
I0224 07:37:02.129575   233 net.cpp:197] Top shape: 1 32 128 256 (1048576)
I0224 07:37:02.129580   233 net.cpp:205] Memory required for data: 802324480
I0224 07:37:02.129586   233 layer_factory.hpp:123] Creating layer latlayer_2c_fixed
I0224 07:37:02.129591   233 net.cpp:140] Creating Layer latlayer_2c_fixed
I0224 07:37:02.129595   233 net.cpp:481] latlayer_2c_fixed <- latlayer_2c
I0224 07:37:02.129601   233 net.cpp:442] latlayer_2c_fixed -> latlayer_2c (in-place)
I0224 07:37:02.129631   233 net.cpp:190] Setting up latlayer_2c_fixed
I0224 07:37:02.129637   233 net.cpp:197] Top shape: 1 32 128 256 (1048576)
I0224 07:37:02.129640   233 net.cpp:205] Memory required for data: 806518784
I0224 07:37:02.129645   233 layer_factory.hpp:123] Creating layer upsample_p3
I0224 07:37:02.129652   233 net.cpp:140] Creating Layer upsample_p3
I0224 07:37:02.129654   233 net.cpp:481] upsample_p3 <- p3
I0224 07:37:02.129659   233 net.cpp:455] upsample_p3 -> upsample_p3
I0224 07:37:02.129917   233 layer_factory.hpp:123] Creating layer upsample_p3
I0224 07:37:02.130281   233 net.cpp:190] Setting up upsample_p3
I0224 07:37:02.130287   233 net.cpp:197] Top shape: 1 32 128 256 (1048576)
I0224 07:37:02.130292   233 net.cpp:205] Memory required for data: 810713088
I0224 07:37:02.130297   233 layer_factory.hpp:123] Creating layer upsample_p3_fixed
I0224 07:37:02.130302   233 net.cpp:140] Creating Layer upsample_p3_fixed
I0224 07:37:02.130306   233 net.cpp:481] upsample_p3_fixed <- upsample_p3
I0224 07:37:02.130311   233 net.cpp:442] upsample_p3_fixed -> upsample_p3 (in-place)
I0224 07:37:02.130337   233 net.cpp:190] Setting up upsample_p3_fixed
I0224 07:37:02.130347   233 net.cpp:197] Top shape: 1 32 128 256 (1048576)
I0224 07:37:02.130350   233 net.cpp:205] Memory required for data: 814907392
I0224 07:37:02.130354   233 layer_factory.hpp:123] Creating layer add_p2
I0224 07:37:02.130359   233 net.cpp:140] Creating Layer add_p2
I0224 07:37:02.130363   233 net.cpp:481] add_p2 <- upsample_p3
I0224 07:37:02.130367   233 net.cpp:481] add_p2 <- latlayer_2c
I0224 07:37:02.130372   233 net.cpp:455] add_p2 -> add_p2
I0224 07:37:02.130389   233 net.cpp:190] Setting up add_p2
I0224 07:37:02.130393   233 net.cpp:197] Top shape: 1 32 128 256 (1048576)
I0224 07:37:02.130398   233 net.cpp:205] Memory required for data: 819101696
I0224 07:37:02.130401   233 layer_factory.hpp:123] Creating layer add_p2_fixed
I0224 07:37:02.130406   233 net.cpp:140] Creating Layer add_p2_fixed
I0224 07:37:02.130409   233 net.cpp:481] add_p2_fixed <- add_p2
I0224 07:37:02.130414   233 net.cpp:442] add_p2_fixed -> add_p2 (in-place)
I0224 07:37:02.130441   233 net.cpp:190] Setting up add_p2_fixed
I0224 07:37:02.130445   233 net.cpp:197] Top shape: 1 32 128 256 (1048576)
I0224 07:37:02.130450   233 net.cpp:205] Memory required for data: 823296000
I0224 07:37:02.130455   233 layer_factory.hpp:123] Creating layer toplayer_p2
I0224 07:37:02.130460   233 net.cpp:140] Creating Layer toplayer_p2
I0224 07:37:02.130463   233 net.cpp:481] toplayer_p2 <- add_p2
I0224 07:37:02.130467   233 net.cpp:455] toplayer_p2 -> pred
I0224 07:37:02.130710   233 layer_factory.hpp:123] Creating layer toplayer_p2
I0224 07:37:02.132831   233 net.cpp:190] Setting up toplayer_p2
I0224 07:37:02.132844   233 net.cpp:197] Top shape: 1 19 512 1024 (9961472)
I0224 07:37:02.132850   233 net.cpp:205] Memory required for data: 863141888
I0224 07:37:02.132858   233 layer_factory.hpp:123] Creating layer pred_fixed
I0224 07:37:02.132864   233 net.cpp:140] Creating Layer pred_fixed
I0224 07:37:02.132869   233 net.cpp:481] pred_fixed <- pred
I0224 07:37:02.132874   233 net.cpp:442] pred_fixed -> pred (in-place)
I0224 07:37:02.132915   233 net.cpp:190] Setting up pred_fixed
I0224 07:37:02.132920   233 net.cpp:197] Top shape: 1 19 512 1024 (9961472)
I0224 07:37:02.132925   233 net.cpp:205] Memory required for data: 902987776
I0224 07:37:02.132930   233 layer_factory.hpp:123] Creating layer score
I0224 07:37:02.132936   233 net.cpp:140] Creating Layer score
I0224 07:37:02.132939   233 net.cpp:481] score <- pred
I0224 07:37:02.132944   233 net.cpp:455] score -> score
I0224 07:37:02.133002   233 net.cpp:190] Setting up score
I0224 07:37:02.133008   233 net.cpp:197] Top shape: 1 19 512 1024 (9961472)
I0224 07:37:02.133013   233 net.cpp:205] Memory required for data: 942833664
I0224 07:37:02.133016   233 layer_factory.hpp:123] Creating layer accuracy
I0224 07:37:02.133034   233 net.cpp:140] Creating Layer accuracy
I0224 07:37:02.133038   233 net.cpp:481] accuracy <- score
I0224 07:37:02.133042   233 net.cpp:481] accuracy <- label
I0224 07:37:02.133047   233 net.cpp:455] accuracy -> segmentation_eval
I0224 07:37:02.133071   233 net.cpp:190] Setting up accuracy
I0224 07:37:02.133076   233 net.cpp:197] Top shape: 3 19 (57)
I0224 07:37:02.133081   233 net.cpp:205] Memory required for data: 942833892
I0224 07:37:02.133085   233 net.cpp:268] accuracy does not need backward computation.
I0224 07:37:02.133088   233 net.cpp:268] score does not need backward computation.
I0224 07:37:02.133091   233 net.cpp:268] pred_fixed does not need backward computation.
I0224 07:37:02.133095   233 net.cpp:268] toplayer_p2 does not need backward computation.
…
