…
 conv1_relu (Activation)        (None, 112, 112, 64  0           ['conv1_bn[0][0]']               
                                )                                                                 
                                                                                                  
 pool1_pad (ZeroPadding2D)      (None, 114, 114, 64  0           ['conv1_relu[0][0]']             
                                )                                                                 
                                                                                                  
 pool1_pool (MaxPooling2D)      (None, 56, 56, 64)   0           ['pool1_pad[0][0]']              
                                                                                                  
 conv2_block1_1_conv (Conv2D)   (None, 56, 56, 64)   4160        ['pool1_pool[0][0]']             
                                                                                                  
 conv2_block1_1_bn (BatchNormal  (None, 56, 56, 64)  256         ['conv2_block1_1_conv[0][0]']    
 ization)                                                                                         
                                                                                                  
 conv2_block1_1_relu (Activatio  (None, 56, 56, 64)  0           ['conv2_block1_1_bn[0][0]']      
 n)                                                                                               
                                                                                                  
 conv2_block1_2_conv (Conv2D)   (None, 56, 56, 64)   36928       ['conv2_block1_1_relu[0][0]']    
                                                                                                  
 conv2_block1_2_bn (BatchNormal  (None, 56, 56, 64)  256         ['conv2_block1_2_conv[0][0]']    
 ization)                                                                                         
                                                                                                  
 conv2_block1_2_relu (Activatio  (None, 56, 56, 64)  0           ['conv2_block1_2_bn[0][0]']      
 n)                                                                                               
                                                                                                  
 conv2_block1_0_conv (Conv2D)   (None, 56, 56, 256)  16640       ['pool1_pool[0][0]']             
                                                                                                  
 conv2_block1_3_conv (Conv2D)   (None, 56, 56, 256)  16640       ['conv2_block1_2_relu[0][0]']    
                                                                                                  
 conv2_block1_0_bn (BatchNormal  (None, 56, 56, 256)  1024       ['conv2_block1_0_conv[0][0]']    
 ization)                                                                                         
                                                                                                  
 conv2_block1_3_bn (BatchNormal  (None, 56, 56, 256)  1024       ['conv2_block1_3_conv[0][0]']    
 ization)                                                                                         
                                                                                                  
 conv2_block1_add (Add)         (None, 56, 56, 256)  0           ['conv2_block1_0_bn[0][0]',      
                                                                  'conv2_block1_3_bn[0][0]']      
                                                                                                  
 conv2_block1_out (Activation)  (None, 56, 56, 256)  0           ['conv2_block1_add[0][0]']       
                                                                                                  
 conv2_block2_1_conv (Conv2D)   (None, 56, 56, 64)   16448       ['conv2_block1_out[0][0]']       
                                                                                                  
 conv2_block2_1_bn (BatchNormal  (None, 56, 56, 64)  256         ['conv2_block2_1_conv[0][0]']    
 ization)                                                                                         
                                                                                                  
 conv2_block2_1_relu (Activatio  (None, 56, 56, 64)  0           ['conv2_block2_1_bn[0][0]']      
 n)                                                                                               
                                                                                                  
 conv2_block2_2_conv (Conv2D)   (None, 56, 56, 64)   36928       ['conv2_block2_1_relu[0][0]']    
                                                                                                  
 conv2_block2_2_bn (BatchNormal  (None, 56, 56, 64)  256         ['conv2_block2_2_conv[0][0]']    
 ization)                                                                                         
                                                                                                  
 conv2_block2_2_relu (Activatio  (None, 56, 56, 64)  0           ['conv2_block2_2_bn[0][0]']      
 n)                                                                                               
                                                                                                  
 conv2_block2_3_conv (Conv2D)   (None, 56, 56, 256)  16640       ['conv2_block2_2_relu[0][0]']    
                                                                                                  
 conv2_block2_3_bn (BatchNormal  (None, 56, 56, 256)  1024       ['conv2_block2_3_conv[0][0]']    
 ization)                                                                                         
                                                                                                  
 conv2_block2_add (Add)         (None, 56, 56, 256)  0           ['conv2_block1_out[0][0]',       
                                                                  'conv2_block2_3_bn[0][0]']      
                                                                                                  
 conv2_block2_out (Activation)  (None, 56, 56, 256)  0           ['conv2_block2_add[0][0]']       
                                                                                                  
 conv2_block3_1_conv (Conv2D)   (None, 56, 56, 64)   16448       ['conv2_block2_out[0][0]']       
                                                                                                  
 conv2_block3_1_bn (BatchNormal  (None, 56, 56, 64)  256         ['conv2_block3_1_conv[0][0]']    
 ization)                                                                                         
                                                                                                  
 conv2_block3_1_relu (Activatio  (None, 56, 56, 64)  0           ['conv2_block3_1_bn[0][0]']      
 n)                                                                                               
                                                                                                  
 conv2_block3_2_conv (Conv2D)   (None, 56, 56, 64)   36928       ['conv2_block3_1_relu[0][0]']    
                                                                                                  
 conv2_block3_2_bn (BatchNormal  (None, 56, 56, 64)  256         ['conv2_block3_2_conv[0][0]']    
 ization)                                                                                         
                                                                                                  
 conv2_block3_2_relu (Activatio  (None, 56, 56, 64)  0           ['conv2_block3_2_bn[0][0]']      
 n)                                                                                               
                                                                                                  
 conv2_block3_3_conv (Conv2D)   (None, 56, 56, 256)  16640       ['conv2_block3_2_relu[0][0]']    
                                                                                                  
 conv2_block3_3_bn (BatchNormal  (None, 56, 56, 256)  1024       ['conv2_block3_3_conv[0][0]']    
 ization)                                                                                         
                                                                                                  
 conv2_block3_add (Add)         (None, 56, 56, 256)  0           ['conv2_block2_out[0][0]',       
                                                                  'conv2_block3_3_bn[0][0]']      
                                                                                                  
 conv2_block3_out (Activation)  (None, 56, 56, 256)  0           ['conv2_block3_add[0][0]']       
                                                                                                  
 conv3_block1_1_conv (Conv2D)   (None, 28, 28, 128)  32896       ['conv2_block3_out[0][0]']       
                                                                                                  
 conv3_block1_1_bn (BatchNormal  (None, 28, 28, 128)  512        ['conv3_block1_1_conv[0][0]']    
 ization)                                                                                         
                                                                                                  
 conv3_block1_1_relu (Activatio  (None, 28, 28, 128)  0          ['conv3_block1_1_bn[0][0]']      
 n)                                                                                               
                                                                                                  
 conv3_block1_2_conv (Conv2D)   (None, 28, 28, 128)  147584      ['conv3_block1_1_relu[0][0]']    
                                                                                                  
 conv3_block1_2_bn (BatchNormal  (None, 28, 28, 128)  512        ['conv3_block1_2_conv[0][0]']    
 ization)                                                                                         
                                                                                                  
 conv3_block1_2_relu (Activatio  (None, 28, 28, 128)  0          ['conv3_block1_2_bn[0][0]']      
 n)                                                                                               
                                                                                                  
 conv3_block1_0_conv (Conv2D)   (None, 28, 28, 512)  131584      ['conv2_block3_out[0][0]']       
                                                                                                  
 conv3_block1_3_conv (Conv2D)   (None, 28, 28, 512)  66048       ['conv3_block1_2_relu[0][0]']    
                                                                                                  
 conv3_block1_0_bn (BatchNormal  (None, 28, 28, 512)  2048       ['conv3_block1_0_conv[0][0]']    
 ization)                                                                                         
                                                                                                  
 conv3_block1_3_bn (BatchNormal  (None, 28, 28, 512)  2048       ['conv3_block1_3_conv[0][0]']    
 ization)                                                                                         
                                                                                                  
 conv3_block1_add (Add)         (None, 28, 28, 512)  0           ['conv3_block1_0_bn[0][0]',      
                                                                  'conv3_block1_3_bn[0][0]']      
                                                                                                  
 conv3_block1_out (Activation)  (None, 28, 28, 512)  0           ['conv3_block1_add[0][0]']       
                                                                                                  
 conv3_block2_1_conv (Conv2D)   (None, 28, 28, 128)  65664       ['conv3_block1_out[0][0]']       
                                                                                                  
 conv3_block2_1_bn (BatchNormal  (None, 28, 28, 128)  512        ['conv3_block2_1_conv[0][0]']    
 ization)                                                                                         
                                                                                                  
 conv3_block2_1_relu (Activatio  (None, 28, 28, 128)  0          ['conv3_block2_1_bn[0][0]']      
 n)                                                                                               
                                                                                                  
 conv3_block2_2_conv (Conv2D)   (None, 28, 28, 128)  147584      ['conv3_block2_1_relu[0][0]']    
                                                                                                  
 conv3_block2_2_bn (BatchNormal  (None, 28, 28, 128)  512        ['conv3_block2_2_conv[0][0]']    
 ization)                                                                                         
                                                                                                  
 conv3_block2_2_relu (Activatio  (None, 28, 28, 128)  0          ['conv3_block2_2_bn[0][0]']      
 n)                                                                                               
                                                                                                  
 conv3_block2_3_conv (Conv2D)   (None, 28, 28, 512)  66048       ['conv3_block2_2_relu[0][0]']    
                                                                                                  
 conv3_block2_3_bn (BatchNormal  (None, 28, 28, 512)  2048       ['conv3_block2_3_conv[0][0]']    
 ization)                                                                                         
                                                                                                  
 conv3_block2_add (Add)         (None, 28, 28, 512)  0           ['conv3_block1_out[0][0]',       
                                                                  'conv3_block2_3_bn[0][0]']      
                                                                                                  
 conv3_block2_out (Activation)  (None, 28, 28, 512)  0           ['conv3_block2_add[0][0]']       
                                                                                                  
 conv3_block3_1_conv (Conv2D)   (None, 28, 28, 128)  65664       ['conv3_block2_out[0][0]']       
                                                                                                  
 conv3_block3_1_bn (BatchNormal  (None, 28, 28, 128)  512        ['conv3_block3_1_conv[0][0]']    
 ization)                                                                                         
                                                                                                  
 conv3_block3_1_relu (Activatio  (None, 28, 28, 128)  0          ['conv3_block3_1_bn[0][0]']      
 n)                                                                                               
                                                                                                  
 conv3_block3_2_conv (Conv2D)   (None, 28, 28, 128)  147584      ['conv3_block3_1_relu[0][0]']    
                                                                                                  
 conv3_block3_2_bn (BatchNormal  (None, 28, 28, 128)  512        ['conv3_block3_2_conv[0][0]']    
 ization)                                                                                         
                                                                                                  
 conv3_block3_2_relu (Activatio  (None, 28, 28, 128)  0          ['conv3_block3_2_bn[0][0]']      
 n)                                                                                               
                                                                                                  
 conv3_block3_3_conv (Conv2D)   (None, 28, 28, 512)  66048       ['conv3_block3_2_relu[0][0]']    
                                                                                                  
 conv3_block3_3_bn (BatchNormal  (None, 28, 28, 512)  2048       ['conv3_block3_3_conv[0][0]']    
 ization)                                                                                         
                                                                                                  
 conv3_block3_add (Add)         (None, 28, 28, 512)  0           ['conv3_block2_out[0][0]',       
                                                                  'conv3_block3_3_bn[0][0]']      
                                                                                                  
 conv3_block3_out (Activation)  (None, 28, 28, 512)  0           ['conv3_block3_add[0][0]']       
                                                                                                  
 conv3_block4_1_conv (Conv2D)   (None, 28, 28, 128)  65664       ['conv3_block3_out[0][0]']       
                                                                                                  
 conv3_block4_1_bn (BatchNormal  (None, 28, 28, 128)  512        ['conv3_block4_1_conv[0][0]']    
 ization)                                                                                         
                                                                                                  
 conv3_block4_1_relu (Activatio  (None, 28, 28, 128)  0          ['conv3_block4_1_bn[0][0]']      
 n)                                                                                               
                                                                                                  
 conv3_block4_2_conv (Conv2D)   (None, 28, 28, 128)  147584      ['conv3_block4_1_relu[0][0]']    
                                                                                                  
 conv3_block4_2_bn (BatchNormal  (None, 28, 28, 128)  512        ['conv3_block4_2_conv[0][0]']    
 ization)                                                                                         
                                                                                                  
 conv3_block4_2_relu (Activatio  (None, 28, 28, 128)  0          ['conv3_block4_2_bn[0][0]']      
 n)                                                                                               
                                                                                                  
 conv3_block4_3_conv (Conv2D)   (None, 28, 28, 512)  66048       ['conv3_block4_2_relu[0][0]']    
                                                                                                  
 conv3_block4_3_bn (BatchNormal  (None, 28, 28, 512)  2048       ['conv3_block4_3_conv[0][0]']    
 ization)                                                                                         
                                                                                                  
 conv3_block4_add (Add)         (None, 28, 28, 512)  0           ['conv3_block3_out[0][0]',       
                                                                  'conv3_block4_3_bn[0][0]']      
                                                                                                  
 conv3_block4_out (Activation)  (None, 28, 28, 512)  0           ['conv3_block4_add[0][0]']       
                                                                                                  
 conv4_block1_1_conv (Conv2D)   (None, 14, 14, 256)  131328      ['conv3_block4_out[0][0]']       
                                                                                                  
 conv4_block1_1_bn (BatchNormal  (None, 14, 14, 256)  1024       ['conv4_block1_1_conv[0][0]']    
 ization)                                                                                         
                                                                                                  
 conv4_block1_1_relu (Activatio  (None, 14, 14, 256)  0          ['conv4_block1_1_bn[0][0]']      
 n)                                                                                               
                                                                                                  
 conv4_block1_2_conv (Conv2D)   (None, 14, 14, 256)  590080      ['conv4_block1_1_relu[0][0]']    
                                                                                                  
 conv4_block1_2_bn (BatchNormal  (None, 14, 14, 256)  1024       ['conv4_block1_2_conv[0][0]']    
 ization)                                                                                         
                                                                                                  
 conv4_block1_2_relu (Activatio  (None, 14, 14, 256)  0          ['conv4_block1_2_bn[0][0]']      
 n)                                                                                               
                                                                                                  
 conv4_block1_0_conv (Conv2D)   (None, 14, 14, 1024  525312      ['conv3_block4_out[0][0]']       
                                )                                                                 
…
 conv4_block1_add (Add)         (None, 14, 14, 1024  0           ['conv4_block1_0_bn[0][0]',      
                                )                                 'conv4_block1_3_bn[0][0]']      
                                                                                                  
 conv4_block1_out (Activation)  (None, 14, 14, 1024  0           ['conv4_block1_add[0][0]']       
                                )                                                                 
                                                                                                  
 conv4_block2_1_conv (Conv2D)   (None, 14, 14, 256)  262400      ['conv4_block1_out[0][0]']       
                                                                                                  
 conv4_block2_1_bn (BatchNormal  (None, 14, 14, 256)  1024       ['conv4_block2_1_conv[0][0]']    
 ization)                                                                                         
                                                                                                  
 conv4_block2_1_relu (Activatio  (None, 14, 14, 256)  0          ['conv4_block2_1_bn[0][0]']      
 n)                                                                                               
                                                                                                  
 conv4_block2_2_conv (Conv2D)   (None, 14, 14, 256)  590080      ['conv4_block2_1_relu[0][0]']    
                                                                                                  
 conv4_block2_2_bn (BatchNormal  (None, 14, 14, 256)  1024       ['conv4_block2_2_conv[0][0]']    
 ization)                                                                                         
                                                                                                  
 conv4_block2_2_relu (Activatio  (None, 14, 14, 256)  0          ['conv4_block2_2_bn[0][0]']      
 n)                                                                                               
                                                                                                  
 conv4_block2_3_conv (Conv2D)   (None, 14, 14, 1024  263168      ['conv4_block2_2_relu[0][0]']    
                                )                                                                 
…
 conv4_block6_add (Add)         (None, 14, 14, 1024  0           ['conv4_block5_out[0][0]',       
                                )                                 'conv4_block6_3_bn[0][0]']      
                                                                                                  
 conv4_block6_out (Activation)  (None, 14, 14, 1024  0           ['conv4_block6_add[0][0]']       
                                )                                                                 
                                                                                                  
 conv5_block1_1_conv (Conv2D)   (None, 7, 7, 512)    524800      ['conv4_block6_out[0][0]']       
                                                                                                  
 conv5_block1_1_bn (BatchNormal  (None, 7, 7, 512)   2048        ['conv5_block1_1_conv[0][0]']    
 ization)                                                                                         
                                                                                                  
 conv5_block1_1_relu (Activatio  (None, 7, 7, 512)   0           ['conv5_block1_1_bn[0][0]']      
 n)                                                                                               
                                                                                                  
 conv5_block1_2_conv (Conv2D)   (None, 7, 7, 512)    2359808     ['conv5_block1_1_relu[0][0]']    
                                                                                                  
 conv5_block1_2_bn (BatchNormal  (None, 7, 7, 512)   2048        ['conv5_block1_2_conv[0][0]']    
 ization)                                                                                         
                                                                                                  
 conv5_block1_2_relu (Activatio  (None, 7, 7, 512)   0           ['conv5_block1_2_bn[0][0]']      
 n)                                                                                               
                                                                                                  
 conv5_block1_0_conv (Conv2D)   (None, 7, 7, 2048)   2099200     ['conv4_block6_out[0][0]']       
                                                                                                  
 conv5_block1_3_conv (Conv2D)   (None, 7, 7, 2048)   1050624     ['conv5_block1_2_relu[0][0]']    
                                                                                                  
 conv5_block1_0_bn (BatchNormal  (None, 7, 7, 2048)  8192        ['conv5_block1_0_conv[0][0]']    
 ization)                                                                                         
                                                                                                  
 conv5_block1_3_bn (BatchNormal  (None, 7, 7, 2048)  8192        ['conv5_block1_3_conv[0][0]']    
 ization)                                                                                         
                                                                                                  
 conv5_block1_add (Add)         (None, 7, 7, 2048)   0           ['conv5_block1_0_bn[0][0]',      
                                                                  'conv5_block1_3_bn[0][0]']      
                                                                                                  
 conv5_block1_out (Activation)  (None, 7, 7, 2048)   0           ['conv5_block1_add[0][0]']       
                                                                                                  
 conv5_block2_1_conv (Conv2D)   (None, 7, 7, 512)    1049088     ['conv5_block1_out[0][0]']       
                                                                                                  
 conv5_block2_1_bn (BatchNormal  (None, 7, 7, 512)   2048        ['conv5_block2_1_conv[0][0]']    
 ization)                                                                                         
                                                                                                  
 conv5_block2_1_relu (Activatio  (None, 7, 7, 512)   0           ['conv5_block2_1_bn[0][0]']      
 n)                                                                                               
                                                                                                  
 conv5_block2_2_conv (Conv2D)   (None, 7, 7, 512)    2359808     ['conv5_block2_1_relu[0][0]']    
                                                                                                  
 conv5_block2_2_bn (BatchNormal  (None, 7, 7, 512)   2048        ['conv5_block2_2_conv[0][0]']    
 ization)                                                                                         
                                                                                                  
 conv5_block2_2_relu (Activatio  (None, 7, 7, 512)   0           ['conv5_block2_2_bn[0][0]']      
 n)                                                                                               
                                                                                                  
 conv5_block2_3_conv (Conv2D)   (None, 7, 7, 2048)   1050624     ['conv5_block2_2_relu[0][0]']    
                                                                                                  
 conv5_block2_3_bn (BatchNormal  (None, 7, 7, 2048)  8192        ['conv5_block2_3_conv[0][0]']    
 ization)                                                                                         
                                                                                                  
 conv5_block2_add (Add)         (None, 7, 7, 2048)   0           ['conv5_block1_out[0][0]',       
                                                                  'conv5_block2_3_bn[0][0]']      
                                                                                                  
 conv5_block2_out (Activation)  (None, 7, 7, 2048)   0           ['conv5_block2_add[0][0]']       
                                                                                                  
 conv5_block3_1_conv (Conv2D)   (None, 7, 7, 512)    1049088     ['conv5_block2_out[0][0]']       
                                                                                                  
 conv5_block3_1_bn (BatchNormal  (None, 7, 7, 512)   2048        ['conv5_block3_1_conv[0][0]']    
 ization)                                                                                         
                                                                                                  
 conv5_block3_1_relu (Activatio  (None, 7, 7, 512)   0           ['conv5_block3_1_bn[0][0]']      
 n)                                                                                               
                                                                                                  
 conv5_block3_2_conv (Conv2D)   (None, 7, 7, 512)    2359808     ['conv5_block3_1_relu[0][0]']    
                                                                                                  
 conv5_block3_2_bn (BatchNormal  (None, 7, 7, 512)   2048        ['conv5_block3_2_conv[0][0]']    
 ization)                                                                                         
                                                                                                  
 conv5_block3_2_relu (Activatio  (None, 7, 7, 512)   0           ['conv5_block3_2_bn[0][0]']      
 n)                                                                                               
                                                                                                  
 conv5_block3_3_conv (Conv2D)   (None, 7, 7, 2048)   1050624     ['conv5_block3_2_relu[0][0]']    
                                                                                                  
 conv5_block3_3_bn (BatchNormal  (None, 7, 7, 2048)  8192        ['conv5_block3_3_conv[0][0]']    
 ization)                                                                                         
                                                                                                  
 conv5_block3_add (Add)         (None, 7, 7, 2048)   0           ['conv5_block2_out[0][0]',       
                                                                  'conv5_block3_3_bn[0][0]']      
                                                                                                  
 conv5_block3_out (Activation)  (None, 7, 7, 2048)   0           ['conv5_block3_add[0][0]']       
                                                                                                  
 avg_pool (GlobalAveragePooling  (None, 2048)        0           ['conv5_block3_out[0][0]']       
 2D)                                                                                              
                                                                                                  
 predictions (Dense)            (None, 1000)         2049000     ['avg_pool[0][0]']               
                                                                                                  
==================================================================================================
Total params: 25,636,712
Trainable params: 25,583,592
Non-trainable params: 53,120
__________________________________________________________________________________________________
…
 relu0 (Activation)             (None, 112, 112, 64  0           ['bn0[0][0]']                    
                                )                                                                 
                                                                                                  
 zero_padding2d_1 (ZeroPadding2  (None, 114, 114, 64  0          ['relu0[0][0]']                  
 D)                             )                                                                 
                                                                                                  
 pooling0 (MaxPooling2D)        (None, 56, 56, 64)   0           ['zero_padding2d_1[0][0]']       
                                                                                                  
 stage1_unit1_bn1 (BatchNormali  (None, 56, 56, 64)  256         ['pooling0[0][0]']               
 zation)                                                                                          
                                                                                                  
 stage1_unit1_relu1 (Activation  (None, 56, 56, 64)  0           ['stage1_unit1_bn1[0][0]']       
 )                                                                                                
                                                                                                  
 zero_padding2d_2 (ZeroPadding2  (None, 58, 58, 64)  0           ['stage1_unit1_relu1[0][0]']     
 D)                                                                                               
                                                                                                  
 stage1_unit1_conv1 (Conv2D)    (None, 56, 56, 64)   36864       ['zero_padding2d_2[0][0]']       
                                                                                                  
 stage1_unit1_bn2 (BatchNormali  (None, 56, 56, 64)  256         ['stage1_unit1_conv1[0][0]']     
 zation)                                                                                          
                                                                                                  
 stage1_unit1_relu2 (Activation  (None, 56, 56, 64)  0           ['stage1_unit1_bn2[0][0]']       
 )                                                                                                
                                                                                                  
 zero_padding2d_3 (ZeroPadding2  (None, 58, 58, 64)  0           ['stage1_unit1_relu2[0][0]']     
 D)                                                                                               
                                                                                                  
 stage1_unit1_conv2 (Conv2D)    (None, 56, 56, 64)   36864       ['zero_padding2d_3[0][0]']       
                                                                                                  
 stage1_unit1_sc (Conv2D)       (None, 56, 56, 64)   4096        ['stage1_unit1_relu1[0][0]']     
                                                                                                  
 add (Add)                      (None, 56, 56, 64)   0           ['stage1_unit1_conv2[0][0]',     
                                                                  'stage1_unit1_sc[0][0]']        
                                                                                                  
 stage1_unit2_bn1 (BatchNormali  (None, 56, 56, 64)  256         ['add[0][0]']                    
 zation)                                                                                          
                                                                                                  
 stage1_unit2_relu1 (Activation  (None, 56, 56, 64)  0           ['stage1_unit2_bn1[0][0]']       
 )                                                                                                
                                                                                                  
 zero_padding2d_4 (ZeroPadding2  (None, 58, 58, 64)  0           ['stage1_unit2_relu1[0][0]']     
 D)                                                                                               
                                                                                                  
 stage1_unit2_conv1 (Conv2D)    (None, 56, 56, 64)   36864       ['zero_padding2d_4[0][0]']       
                                                                                                  
 stage1_unit2_bn2 (BatchNormali  (None, 56, 56, 64)  256         ['stage1_unit2_conv1[0][0]']     
 zation)                                                                                          
                                                                                                  
 stage1_unit2_relu2 (Activation  (None, 56, 56, 64)  0           ['stage1_unit2_bn2[0][0]']       
 )                                                                                                
                                                                                                  
 zero_padding2d_5 (ZeroPadding2  (None, 58, 58, 64)  0           ['stage1_unit2_relu2[0][0]']     
 D)                                                                                               
                                                                                                  
 stage1_unit2_conv2 (Conv2D)    (None, 56, 56, 64)   36864       ['zero_padding2d_5[0][0]']       
                                                                                                  
 add_1 (Add)                    (None, 56, 56, 64)   0           ['stage1_unit2_conv2[0][0]',     
                                                                  'add[0][0]']                    
                                                                                                  
 stage2_unit1_bn1 (BatchNormali  (None, 56, 56, 64)  256         ['add_1[0][0]']                  
 zation)                                                                                          
                                                                                                  
 stage2_unit1_relu1 (Activation  (None, 56, 56, 64)  0           ['stage2_unit1_bn1[0][0]']       
 )                                                                                                
                                                                                                  
 zero_padding2d_6 (ZeroPadding2  (None, 58, 58, 64)  0           ['stage2_unit1_relu1[0][0]']     
 D)                                                                                               
                                                                                                  
 stage2_unit1_conv1 (Conv2D)    (None, 28, 28, 128)  73728       ['zero_padding2d_6[0][0]']       
                                                                                                  
 stage2_unit1_bn2 (BatchNormali  (None, 28, 28, 128)  512        ['stage2_unit1_conv1[0][0]']     
 zation)                                                                                          
                                                                                                  
 stage2_unit1_relu2 (Activation  (None, 28, 28, 128)  0          ['stage2_unit1_bn2[0][0]']       
 )                                                                                                
                                                                                                  
 zero_padding2d_7 (ZeroPadding2  (None, 30, 30, 128)  0          ['stage2_unit1_relu2[0][0]']     
 D)                                                                                               
                                                                                                  
 stage2_unit1_conv2 (Conv2D)    (None, 28, 28, 128)  147456      ['zero_padding2d_7[0][0]']       
                                                                                                  
 stage2_unit1_sc (Conv2D)       (None, 28, 28, 128)  8192        ['stage2_unit1_relu1[0][0]']     
                                                                                                  
 add_2 (Add)                    (None, 28, 28, 128)  0           ['stage2_unit1_conv2[0][0]',     
                                                                  'stage2_unit1_sc[0][0]']        
                                                                                                  
 stage2_unit2_bn1 (BatchNormali  (None, 28, 28, 128)  512        ['add_2[0][0]']                  
 zation)                                                                                          
                                                                                                  
 stage2_unit2_relu1 (Activation  (None, 28, 28, 128)  0          ['stage2_unit2_bn1[0][0]']       
 )                                                                                                
                                                                                                  
 zero_padding2d_8 (ZeroPadding2  (None, 30, 30, 128)  0          ['stage2_unit2_relu1[0][0]']     
 D)                                                                                               
                                                                                                  
 stage2_unit2_conv1 (Conv2D)    (None, 28, 28, 128)  147456      ['zero_padding2d_8[0][0]']       
                                                                                                  
 stage2_unit2_bn2 (BatchNormali  (None, 28, 28, 128)  512        ['stage2_unit2_conv1[0][0]']     
 zation)                                                                                          
                                                                                                  
 stage2_unit2_relu2 (Activation  (None, 28, 28, 128)  0          ['stage2_unit2_bn2[0][0]']       
 )                                                                                                
                                                                                                  
 zero_padding2d_9 (ZeroPadding2  (None, 30, 30, 128)  0          ['stage2_unit2_relu2[0][0]']     
 D)                                                                                               
                                                                                                  
 stage2_unit2_conv2 (Conv2D)    (None, 28, 28, 128)  147456      ['zero_padding2d_9[0][0]']       
                                                                                                  
 add_3 (Add)                    (None, 28, 28, 128)  0           ['stage2_unit2_conv2[0][0]',     
                                                                  'add_2[0][0]']                  
                                                                                                  
 stage3_unit1_bn1 (BatchNormali  (None, 28, 28, 128)  512        ['add_3[0][0]']                  
 zation)                                                                                          
                                                                                                  
 stage3_unit1_relu1 (Activation  (None, 28, 28, 128)  0          ['stage3_unit1_bn1[0][0]']       
 )                                                                                                
                                                                                                  
 zero_padding2d_10 (ZeroPadding  (None, 30, 30, 128)  0          ['stage3_unit1_relu1[0][0]']     
 2D)                                                                                              
                                                                                                  
 stage3_unit1_conv1 (Conv2D)    (None, 14, 14, 256)  294912      ['zero_padding2d_10[0][0]']      
                                                                                                  
 stage3_unit1_bn2 (BatchNormali  (None, 14, 14, 256)  1024       ['stage3_unit1_conv1[0][0]']     
 zation)                                                                                          
                                                                                                  
 stage3_unit1_relu2 (Activation  (None, 14, 14, 256)  0          ['stage3_unit1_bn2[0][0]']       
 )                                                                                                
                                                                                                  
 zero_padding2d_11 (ZeroPadding  (None, 16, 16, 256)  0          ['stage3_unit1_relu2[0][0]']     
 2D)                                                                                              
                                                                                                  
 stage3_unit1_conv2 (Conv2D)    (None, 14, 14, 256)  589824      ['zero_padding2d_11[0][0]']      
                                                                                                  
 stage3_unit1_sc (Conv2D)       (None, 14, 14, 256)  32768       ['stage3_unit1_relu1[0][0]']     
                                                                                                  
 add_4 (Add)                    (None, 14, 14, 256)  0           ['stage3_unit1_conv2[0][0]',     
                                                                  'stage3_unit1_sc[0][0]']        
                                                                                                  
 stage3_unit2_bn1 (BatchNormali  (None, 14, 14, 256)  1024       ['add_4[0][0]']                  
 zation)                                                                                          
                                                                                                  
 stage3_unit2_relu1 (Activation  (None, 14, 14, 256)  0          ['stage3_unit2_bn1[0][0]']       
 )                                                                                                
                                                                                                  
 zero_padding2d_12 (ZeroPadding  (None, 16, 16, 256)  0          ['stage3_unit2_relu1[0][0]']     
 2D)                                                                                              
                                                                                                  
 stage3_unit2_conv1 (Conv2D)    (None, 14, 14, 256)  589824      ['zero_padding2d_12[0][0]']      
                                                                                                  
 stage3_unit2_bn2 (BatchNormali  (None, 14, 14, 256)  1024       ['stage3_unit2_conv1[0][0]']     
 zation)                                                                                          
                                                                                                  
 stage3_unit2_relu2 (Activation  (None, 14, 14, 256)  0          ['stage3_unit2_bn2[0][0]']       
 )                                                                                                
                                                                                                  
 zero_padding2d_13 (ZeroPadding  (None, 16, 16, 256)  0          ['stage3_unit2_relu2[0][0]']     
 2D)                                                                                              
                                                                                                  
 stage3_unit2_conv2 (Conv2D)    (None, 14, 14, 256)  589824      ['zero_padding2d_13[0][0]']      
                                                                                                  
 add_5 (Add)                    (None, 14, 14, 256)  0           ['stage3_unit2_conv2[0][0]',     
                                                                  'add_4[0][0]']                  
                                                                                                  
 stage4_unit1_bn1 (BatchNormali  (None, 14, 14, 256)  1024       ['add_5[0][0]']                  
 zation)                                                                                          
                                                                                                  
 stage4_unit1_relu1 (Activation  (None, 14, 14, 256)  0          ['stage4_unit1_bn1[0][0]']       
 )                                                                                                
                                                                                                  
 zero_padding2d_14 (ZeroPadding  (None, 16, 16, 256)  0          ['stage4_unit1_relu1[0][0]']     
 2D)                                                                                              
                                                                                                  
 stage4_unit1_conv1 (Conv2D)    (None, 7, 7, 512)    1179648     ['zero_padding2d_14[0][0]']      
                                                                                                  
 stage4_unit1_bn2 (BatchNormali  (None, 7, 7, 512)   2048        ['stage4_unit1_conv1[0][0]']     
 zation)                                                                                          
                                                                                                  
 stage4_unit1_relu2 (Activation  (None, 7, 7, 512)   0           ['stage4_unit1_bn2[0][0]']       
 )                                                                                                
                                                                                                  
 zero_padding2d_15 (ZeroPadding  (None, 9, 9, 512)   0           ['stage4_unit1_relu2[0][0]']     
 2D)                                                                                              
                                                                                                  
 stage4_unit1_conv2 (Conv2D)    (None, 7, 7, 512)    2359296     ['zero_padding2d_15[0][0]']      
                                                                                                  
 stage4_unit1_sc (Conv2D)       (None, 7, 7, 512)    131072      ['stage4_unit1_relu1[0][0]']     
                                                                                                  
 add_6 (Add)                    (None, 7, 7, 512)    0           ['stage4_unit1_conv2[0][0]',     
                                                                  'stage4_unit1_sc[0][0]']        
                                                                                                  
 stage4_unit2_bn1 (BatchNormali  (None, 7, 7, 512)   2048        ['add_6[0][0]']                  
 zation)                                                                                          
                                                                                                  
 stage4_unit2_relu1 (Activation  (None, 7, 7, 512)   0           ['stage4_unit2_bn1[0][0]']       
 )                                                                                                
                                                                                                  
 zero_padding2d_16 (ZeroPadding  (None, 9, 9, 512)   0           ['stage4_unit2_relu1[0][0]']     
 2D)                                                                                              
                                                                                                  
 stage4_unit2_conv1 (Conv2D)    (None, 7, 7, 512)    2359296     ['zero_padding2d_16[0][0]']      
                                                                                                  
 stage4_unit2_bn2 (BatchNormali  (None, 7, 7, 512)   2048        ['stage4_unit2_conv1[0][0]']     
 zation)                                                                                          
                                                                                                  
 stage4_unit2_relu2 (Activation  (None, 7, 7, 512)   0           ['stage4_unit2_bn2[0][0]']       
 )                                                                                                
                                                                                                  
 zero_padding2d_17 (ZeroPadding  (None, 9, 9, 512)   0           ['stage4_unit2_relu2[0][0]']     
 2D)                                                                                              
                                                                                                  
 stage4_unit2_conv2 (Conv2D)    (None, 7, 7, 512)    2359296     ['zero_padding2d_17[0][0]']      
                                                                                                  
 add_7 (Add)                    (None, 7, 7, 512)    0           ['stage4_unit2_conv2[0][0]',     
                                                                  'add_6[0][0]']                  
                                                                                                  
 bn1 (BatchNormalization)       (None, 7, 7, 512)    2048        ['add_7[0][0]']                  
                                                                                                  
 relu1 (Activation)             (None, 7, 7, 512)    0           ['bn1[0][0]']                    
                                                                                                  
 pool1 (GlobalAveragePooling2D)  (None, 512)         0           ['relu1[0][0]']                  
                                                                                                  
 fc1 (Dense)                    (None, 1000)         513000      ['pool1[0][0]']                  
                                                                                                  
 softmax (Activation)           (None, 1000)         0           ['fc1[0][0]']                    
                                                                                                  
==================================================================================================
Total params: 11,699,889
Trainable params: 11,691,947
Non-trainable params: 7,942
__________________________________________________________________________________________________
…
