…
  name: "data"
  type: "AnnotatedData"
  top: "data"
  top: "label"
  include {
    phase: TEST
  }
  transform_param {
    mean_value: 104
    mean_value: 117
    mean_value: 123
    resize_param {
      prob: 1
      resize_mode: WARP
      height: 360
      width: 480
      interp_mode: LINEAR
    }
  }
  data_param {
    source: "/workspace/SSD/data/VOCdevkit/VOC0712/lmdb/VOC0712_test_lmdb"
    batch_size: 1
    backend: LMDB
  }
  annotated_data_param {
    batch_sampler {
    }
    label_map_file: "/workspace/SSD/data/labelmap_voc.prototxt"
  }
}
layer {
  name: "conv1"
  type: "Convolution"
  bottom: "data"
  top: "conv1"
  param {
    lr_mult: 1
    decay_mult: 1
  }
  convolution_param {
    num_output: 32
    bias_term: false
    pad: 1
    kernel_size: 3
    stride: 2
    weight_filler {
      type: "msra"
    }
  }
}
layer {
  name: "conv1/bn"
  type: "BatchNorm"
  bottom: "conv1"
  top: "conv1/bn"
  param {
    lr_mult: 1
    decay_mult: 0
  }
  param {
    lr_mult: 1
    decay_mult: 0
  }
  param {
    lr_mult: 0
    decay_mult: 0
  }
  param {
    lr_mult: 0
    decay_mult: 0
  }
  batch_norm_param {
    use_global_stats: true
    eps: 1e-05
    scale_filler {
      type: "constant"
      value: 1
    }
    bias_filler {
      type: "constant"
      value: 0
    }
  }
}
layer {
  name: "relu1"
  type: "ReLU"
  bottom: "conv1/bn"
  top: "conv1/bn"
}
layer {
  name: "conv2_1/expand"
  type: "Convolution"
  bottom: "conv1/bn"
  top: "conv2_1/expand"
  param {
    lr_mult: 1
    decay_mult: 1
  }
  convolution_param {
    num_output: 32
    bias_term: false
    kernel_size: 1
    weight_filler {
      type: "msra"
    }
  }
}
layer {
  name: "conv2_1/expand/bn"
  type: "BatchNorm"
  bottom: "conv2_1/expand"
  top: "conv2_1/expand/bn"
  param {
    lr_mult: 1
    decay_mult: 0
  }
  param {
    lr_mult: 1
    decay_mult: 0
  }
  param {
    lr_mult: 0
    decay_mult: 0
  }
  param {
    lr_mult: 0
    decay_mult: 0
  }
  batch_norm_param {
    use_global_stats: true
    eps: 1e-05
    scale_filler {
      type: "constant"
      value: 1
    }
    bias_filler {
      type: "constant"
      value: 0
    }
  }
}
layer {
  name: "relu2_1/expand"
  type: "ReLU"
  bottom: "conv2_1/expand/bn"
  top: "conv2_1/expand/bn"
}
layer {
  name: "conv2_1/dwise"
  type: "Convolution"
  bottom: "conv2_1/expand/bn"
  top: "conv2_1/dwise"
  param {
    lr_mult: 1
    decay_mult: 1
  }
  convolution_param {
    num_output: 32
    bias_term: false
    pad: 1
    kernel_size: 3
    group: 32
    weight_filler {
      type: "msra"
    }
    engine: CAFFE
  }
}
layer {
  name: "conv2_1/dwise/bn"
  type: "BatchNorm"
  bottom: "conv2_1/dwise"
  top: "conv2_1/dwise/bn"
  param {
    lr_mult: 1
    decay_mult: 0
  }
  param {
    lr_mult: 1
    decay_mult: 0
  }
  param {
    lr_mult: 0
    decay_mult: 0
  }
  param {
    lr_mult: 0
    decay_mult: 0
  }
  batch_norm_param {
    use_global_stats: true
    eps: 1e-05
    scale_filler {
      type: "constant"
      value: 1
    }
    bias_filler {
      type: "constant"
      value: 0
    }
  }
}
layer {
  name: "relu2_1/dwise"
  type: "ReLU"
  bottom: "conv2_1/dwise/bn"
  top: "conv2_1/dwise/bn"
}
layer {
  name: "conv2_1/linear"
  type: "Convolution"
  bottom: "conv2_1/dwise/bn"
  top: "conv2_1/linear"
  param {
    lr_mult: 1
    decay_mult: 1
  }
  convolution_param {
    num_output: 16
    bias_term: false
    kernel_size: 1
    weight_filler {
      type: "msra"
    }
  }
}
layer {
  name: "conv2_1/linear/bn"
  type: "BatchNorm"
  bottom: "conv2_1/linear"
  top: "conv2_1/linear/bn"
  param {
    lr_mult: 1
    decay_mult: 0
  }
  param {
    lr_mult: 1
    decay_mult: 0
  }
  param {
    lr_mult: 0
    decay_mult: 0
  }
  param {
    lr_mult: 0
    decay_mult: 0
  }
  batch_norm_param {
    use_global_stats: true
    eps: 1e-05
    scale_filler {
      type: "constant"
      value: 1
    }
    bias_filler {
      type: "constant"
      value: 0
    }
  }
}
layer {
  name: "conv2_2/expand"
  type: "Convolution"
  bottom: "conv2_1/linear/bn"
  top: "conv2_2/expand"
  param {
    lr_mult: 1
    decay_mult: 1
  }
  convolution_param {
    num_output: 96
    bias_term: false
    kernel_size: 1
    weight_filler {
      type: "msra"
    }
  }
}
layer {
  name: "conv2_2/expand/bn"
  type: "BatchNorm"
  bottom: "conv2_2/expand"
  top: "conv2_2/expand/bn"
  param {
    lr_mult: 1
    decay_mult: 0
  }
  param {
    lr_mult: 1
    decay_mult: 0
  }
  param {
    lr_mult: 0
    decay_mult: 0
  }
  param {
    lr_mult: 0
    decay_mult: 0
  }
  batch_norm_param {
    use_global_stats: true
    eps: 1e-05
    scale_filler {
      type: "constant"
      value: 1
    }
    bias_filler {
      type: "constant"
      value: 0
    }
  }
}
layer {
  name: "relu2_2/expand"
  type: "ReLU"
  bottom: "conv2_2/expand/bn"
  top: "conv2_2/expand/bn"
}
layer {
  name: "conv2_2/dwise"
  type: "Convolution"
  bottom: "conv2_2/expand/bn"
  top: "conv2_2/dwise"
  param {
    lr_mult: 1
    decay_mult: 1
  }
  convolution_param {
    num_output: 96
    bias_term: false
    pad: 1
    kernel_size: 3
    group: 96
    stride: 2
    weight_filler {
      type: "msra"
    }
    engine: CAFFE
  }
}
layer {
  name: "conv2_2/dwise/bn"
  type: "BatchNorm"
  bottom: "conv2_2/dwise"
  top: "conv2_2/dwise/bn"
  param {
    lr_mult: 1
    decay_mult: 0
  }
  param {
    lr_mult: 1
    decay_mult: 0
  }
  param {
    lr_mult: 0
    decay_mult: 0
  }
  param {
    lr_mult: 0
    decay_mult: 0
  }
  batch_norm_param {
    use_global_stats: true
    eps: 1e-05
    scale_filler {
      type: "constant"
      value: 1
    }
    bias_filler {
      type: "constant"
      value: 0
    }
  }
}
layer {
  name: "relu2_2/dwise"
  type: "ReLU"
  bottom: "conv2_2/dwise/bn"
  top: "conv2_2/dwise/bn"
}
layer {
  name: "conv2_2/linear"
  type: "Convolution"
  bottom: "conv2_2/dwise/bn"
  top: "conv2_2/linear"
  param {
    lr_mult: 1
    decay_mult: 1
  }
  convolution_param {
    num_output: 24
    bias_term: false
    kernel_size: 1
    weight_filler {
      type: "msra"
    }
  }
}
layer {
  name: "conv2_2/linear/bn"
  type: "BatchNorm"
  bottom: "conv2_2/linear"
  top: "conv2_2/linear/bn"
  param {
    lr_mult: 1
    decay_mult: 0
  }
  param {
    lr_mult: 1
    decay_mult: 0
  }
  param {
    lr_mult: 0
    decay_mult: 0
  }
  param {
    lr_mult: 0
    decay_mult: 0
  }
  batch_norm_param {
    use_global_stats: true
    eps: 1e-05
    scale_filler {
      type: "constant"
      value: 1
    }
    bias_filler {
      type: "constant"
      value: 0
    }
  }
}
layer {
  name: "conv3_1/expand"
  type: "Convolution"
  bottom: "conv2_2/linear/bn"
  top: "conv3_1/expand"
  param {
    lr_mult: 1
    decay_mult: 1
  }
  convolution_param {
    num_output: 144
    bias_term: false
    kernel_size: 1
    weight_filler {
      type: "msra"
    }
  }
}
layer {
  name: "conv3_1/expand/bn"
  type: "BatchNorm"
  bottom: "conv3_1/expand"
  top: "conv3_1/expand/bn"
  param {
    lr_mult: 1
    decay_mult: 0
  }
  param {
    lr_mult: 1
    decay_mult: 0
  }
  param {
    lr_mult: 0
    decay_mult: 0
  }
  param {
    lr_mult: 0
    decay_mult: 0
  }
  batch_norm_param {
    use_global_stats: true
    eps: 1e-05
    scale_filler {
      type: "constant"
      value: 1
    }
    bias_filler {
      type: "constant"
      value: 0
    }
  }
}
layer {
  name: "relu3_1/expand"
  type: "ReLU"
  bottom: "conv3_1/expand/bn"
  top: "conv3_1/expand/bn"
}
layer {
  name: "conv3_1/dwise"
  type: "Convolution"
  bottom: "conv3_1/expand/bn"
  top: "conv3_1/dwise"
  param {
    lr_mult: 1
    decay_mult: 1
  }
  convolution_param {
    num_output: 144
    bias_term: false
    pad: 1
    kernel_size: 3
    group: 144
    weight_filler {
      type: "msra"
    }
    engine: CAFFE
  }
}
layer {
  name: "conv3_1/dwise/bn"
  type: "BatchNorm"
  bottom: "conv3_1/dwise"
  top: "conv3_1/dwise/bn"
  param {
    lr_mult: 1
    decay_mult: 0
  }
  param {
    lr_mult: 1
    decay_mult: 0
  }
  param {
    lr_mult: 0
    decay_mult: 0
  }
  param {
    lr_mult: 0
    decay_mult: 0
  }
  batch_norm_param {
    use_global_stats: true
    eps: 1e-05
    scale_filler {
      type: "constant"
      value: 1
    }
    bias_filler {
      type: "constant"
      value: 0
    }
  }
}
layer {
  name: "relu3_1/dwise"
  type: "ReLU"
  bottom: "conv3_1/dwise/bn"
  top: "conv3_1/dwise/bn"
}
layer {
  name: "conv3_1/linear"
  type: "Convolution"
  bottom: "conv3_1/dwise/bn"
  top: "conv3_1/linear"
  param {
    lr_mult: 1
    decay_mult: 1
  }
  convolution_param {
    num_output: 24
    bias_term: false
    kernel_size: 1
    weight_filler {
      type: "msra"
    }
  }
}
layer {
  name: "conv3_1/linear/bn"
  type: "BatchNorm"
  bottom: "conv3_1/linear"
  top: "conv3_1/linear/bn"
  param {
    lr_mult: 1
    decay_mult: 0
  }
  param {
    lr_mult: 1
    decay_mult: 0
  }
  param {
    lr_mult: 0
    decay_mult: 0
  }
  param {
    lr_mult: 0
    decay_mult: 0
  }
  batch_norm_param {
    use_global_stats: true
    eps: 1e-05
    scale_filler {
      type: "constant"
      value: 1
    }
    bias_filler {
      type: "constant"
      value: 0
    }
  }
}
layer {
  name: "block_3_1"
  type: "Eltwise"
  bottom: "conv2_2/linear/bn"
  bottom: "conv3_1/linear/bn"
  top: "block_3_1"
}
layer {
  name: "conv3_2/expand"
  type: "Convolution"
  bottom: "block_3_1"
  top: "conv3_2/expand"
  param {
    lr_mult: 1
    decay_mult: 1
  }
  convolution_param {
    num_output: 144
    bias_term: false
    kernel_size: 1
    weight_filler {
      type: "msra"
    }
  }
}
layer {
  name: "conv3_2/expand/bn"
  type: "BatchNorm"
  bottom: "conv3_2/expand"
  top: "conv3_2/expand/bn"
  param {
    lr_mult: 1
    decay_mult: 0
  }
  param {
    lr_mult: 1
    decay_mult: 0
  }
  param {
    lr_mult: 0
    decay_mult: 0
  }
  param {
    lr_mult: 0
    decay_mult: 0
  }
  batch_norm_param {
    use_global_stats: true
    eps: 1e-05
    scale_filler {
      type: "constant"
      value: 1
    }
    bias_filler {
      type: "constant"
      value: 0
    }
  }
}
layer {
  name: "relu3_2/expand"
  type: "ReLU"
  bottom: "conv3_2/expand/bn"
  top: "conv3_2/expand/bn"
}
layer {
  name: "conv3_2/dwise"
  type: "Convolution"
  bottom: "conv3_2/expand/bn"
  top: "conv3_2/dwise"
  param {
    lr_mult: 1
    decay_mult: 1
  }
  convolution_param {
    num_output: 144
    bias_term: false
    pad: 1
    kernel_size: 3
    group: 144
    stride: 2
    weight_filler {
      type: "msra"
    }
    engine: CAFFE
  }
}
layer {
  name: "conv3_2/dwise/bn"
  type: "BatchNorm"
  bottom: "conv3_2/dwise"
  top: "conv3_2/dwise/bn"
  param {
    lr_mult: 1
    decay_mult: 0
  }
  param {
    lr_mult: 1
    decay_mult: 0
  }
  param {
    lr_mult: 0
    decay_mult: 0
  }
  param {
    lr_mult: 0
    decay_mult: 0
  }
  batch_norm_param {
    use_global_stats: true
    eps: 1e-05
    scale_filler {
      type: "constant"
      value: 1
    }
    bias_filler {
      type: "constant"
      value: 0
    }
  }
}
layer {
  name: "relu3_2/dwise"
  type: "ReLU"
  bottom: "conv3_2/dwise/bn"
  top: "conv3_2/dwise/bn"
}
layer {
  name: "conv3_2/linear"
  type: "Convolution"
  bottom: "conv3_2/dwise/bn"
  top: "conv3_2/linear"
  param {
    lr_mult: 1
    decay_mult: 1
  }
  convolution_param {
    num_output: 32
    bias_term: false
    kernel_size: 1
    weight_filler {
      type: "msra"
    }
  }
}
layer {
  name: "conv3_2/linear/bn"
  type: "BatchNorm"
  bottom: "conv3_2/linear"
  top: "conv3_2/linear/bn"
  param {
    lr_mult: 1
    decay_mult: 0
  }
  param {
    lr_mult: 1
    decay_mult: 0
  }
  param {
    lr_mult: 0
    decay_mult: 0
  }
  param {
    lr_mult: 0
    decay_mult: 0
  }
  batch_norm_param {
    use_global_stats: true
    eps: 1e-05
    scale_filler {
      type: "constant"
      value: 1
    }
    bias_filler {
      type: "constant"
      value: 0
    }
  }
}
layer {
  name: "conv4_1/expand"
  type: "Convolution"
  bottom: "conv3_2/linear/bn"
  top: "conv4_1/expand"
  param {
    lr_mult: 1
    decay_mult: 1
  }
  convolution_param {
    num_output: 192
    bias_term: false
    kernel_size: 1
    weight_filler {
      type: "msra"
    }
  }
}
layer {
  name: "conv4_1/expand/bn"
  type: "BatchNorm"
  bottom: "conv4_1/expand"
  top: "conv4_1/expand/bn"
  param {
    lr_mult: 1
    decay_mult: 0
  }
  param {
    lr_mult: 1
    decay_mult: 0
  }
  param {
    lr_mult: 0
    decay_mult: 0
  }
  param {
    lr_mult: 0
    decay_mult: 0
  }
  batch_norm_param {
    use_global_stats: true
    eps: 1e-05
    scale_filler {
      type: "constant"
      value: 1
    }
    bias_filler {
      type: "constant"
      value: 0
    }
  }
}
layer {
  name: "relu4_1/expand"
  type: "ReLU"
  bottom: "conv4_1/expand/bn"
  top: "conv4_1/expand/bn"
}
layer {
  name: "conv4_1/dwise"
  type: "Convolution"
  bottom: "conv4_1/expand/bn"
  top: "conv4_1/dwise"
  param {
    lr_mult: 1
    decay_mult: 1
  }
  convolution_param {
    num_output: 192
    bias_term: false
    pad: 1
    kernel_size: 3
    group: 192
    weight_filler {
      type: "msra"
    }
    engine: CAFFE
  }
}
layer {
  name: "conv4_1/dwise/bn"
  type: "BatchNorm"
  bottom: "conv4_1/dwise"
  top: "conv4_1/dwise/bn"
  param {
    lr_mult: 1
    decay_mult: 0
  }
  param {
    lr_mult: 1
    decay_mult: 0
  }
  param {
    lr_mult: 0
    decay_mult: 0
  }
  param {
    lr_mult: 0
    decay_mult: 0
  }
  batch_norm_param {
    use_global_stats: true
    eps: 1e-05
    scale_filler {
      type: "constant"
      value: 1
    }
    bias_filler {
      type: "constant"
      value: 0
    }
  }
}
layer {
  name: "relu4_1/dwise"
  type: "ReLU"
  bottom: "conv4_1/dwise/bn"
  top: "conv4_1/dwise/bn"
}
layer {
  name: "conv4_1/linear"
  type: "Convolution"
  bottom: "conv4_1/dwise/bn"
  top: "conv4_1/linear"
  param {
    lr_mult: 1
    decay_mult: 1
  }
  convolution_param {
    num_output: 32
    bias_term: false
    kernel_size: 1
    weight_filler {
      type: "msra"
    }
  }
}
layer {
  name: "conv4_1/linear/bn"
  type: "BatchNorm"
  bottom: "conv4_1/linear"
  top: "conv4_1/linear/bn"
  param {
    lr_mult: 1
    decay_mult: 0
  }
  param {
    lr_mult: 1
    decay_mult: 0
  }
  param {
    lr_mult: 0
    decay_mult: 0
  }
  param {
    lr_mult: 0
    decay_mult: 0
  }
  batch_norm_param {
    use_global_stats: true
    eps: 1e-05
    scale_filler {
      type: "constant"
      value: 1
    }
    bias_filler {
      type: "constant"
      value: 0
    }
  }
}
layer {
  name: "block_4_1"
  type: "Eltwise"
  bottom: "conv3_2/linear/bn"
  bottom: "conv4_1/linear/bn"
  top: "block_4_1"
}
layer {
  name: "conv4_2/expand"
  type: "Convolution"
  bottom: "block_4_1"
  top: "conv4_2/expand"
  param {
    lr_mult: 1
    decay_mult: 1
  }
  convolution_param {
    num_output: 192
    bias_term: false
    kernel_size: 1
    weight_filler {
      type: "msra"
    }
  }
}
layer {
  name: "conv4_2/expand/bn"
  type: "BatchNorm"
  bottom: "conv4_2/expand"
  top: "conv4_2/expand/bn"
  param {
    lr_mult: 1
    decay_mult: 0
  }
  param {
    lr_mult: 1
    decay_mult: 0
  }
  param {
    lr_mult: 0
    decay_mult: 0
  }
  param {
    lr_mult: 0
    decay_mult: 0
  }
  batch_norm_param {
    use_global_stats: true
    eps: 1e-05
    scale_filler {
      type: "constant"
      value: 1
    }
    bias_filler {
      type: "constant"
      value: 0
    }
  }
}
layer {
  name: "relu4_2/expand"
  type: "ReLU"
  bottom: "conv4_2/expand/bn"
  top: "conv4_2/expand/bn"
}
layer {
  name: "conv4_2/dwise"
  type: "Convolution"
  bottom: "conv4_2/expand/bn"
  top: "conv4_2/dwise"
  param {
    lr_mult: 1
    decay_mult: 1
  }
  convolution_param {
    num_output: 192
    bias_term: false
    pad: 1
    kernel_size: 3
    group: 192
    weight_filler {
      type: "msra"
    }
    engine: CAFFE
  }
}
layer {
  name: "conv4_2/dwise/bn"
  type: "BatchNorm"
  bottom: "conv4_2/dwise"
  top: "conv4_2/dwise/bn"
  param {
    lr_mult: 1
    decay_mult: 0
  }
  param {
    lr_mult: 1
    decay_mult: 0
  }
  param {
    lr_mult: 0
    decay_mult: 0
  }
  param {
    lr_mult: 0
    decay_mult: 0
  }
  batch_norm_param {
    use_global_stats: true
    eps: 1e-05
    scale_filler {
      type: "constant"
      value: 1
    }
    bias_filler {
      type: "constant"
      value: 0
    }
  }
}
layer {
  name: "relu4_2/dwise"
  type: "ReLU"
  bottom: "conv4_2/dwise/bn"
  top: "conv4_2/dwise/bn"
}
layer {
  name: "conv4_2/linear"
  type: "Convolution"
  bottom: "conv4_2/dwise/bn"
  top: "conv4_2/linear"
  param {
    lr_mult: 1
    decay_mult: 1
  }
  convolution_param {
    num_output: 32
    bias_term: false
    kernel_size: 1
    weight_filler {
      type: "msra"
    }
  }
}
layer {
  name: "conv4_2/linear/bn"
  type: "BatchNorm"
  bottom: "conv4_2/linear"
  top: "conv4_2/linear/bn"
  param {
    lr_mult: 1
    decay_mult: 0
  }
  param {
    lr_mult: 1
    decay_mult: 0
  }
  param {
    lr_mult: 0
    decay_mult: 0
  }
  param {
    lr_mult: 0
    decay_mult: 0
  }
  batch_norm_param {
    use_global_stats: true
    eps: 1e-05
    scale_filler {
      type: "constant"
      value: 1
    }
    bias_filler {
      type: "constant"
      value: 0
    }
  }
}
layer {
  name: "block_4_2"
  type: "Eltwise"
  bottom: "block_4_1"
  bottom: "conv4_2/linear/bn"
  top: "block_4_2"
}
layer {
  name: "conv4_3/expand"
  type: "Convolution"
  bottom: "block_4_2"
  top: "conv4_3/expand"
  param {
    lr_mult: 1
    decay_mult: 1
  }
  convolution_param {
    num_output: 192
    bias_term: false
    kernel_size: 1
    weight_filler {
      type: "msra"
    }
  }
}
layer {
  name: "conv4_3/expand/bn"
  type: "BatchNorm"
  bottom: "conv4_3/expand"
  top: "conv4_3/expand/bn"
  param {
    lr_mult: 1
    decay_mult: 0
  }
  param {
    lr_mult: 1
    decay_mult: 0
  }
  param {
    lr_mult: 0
    decay_mult: 0
  }
  param {
    lr_mult: 0
    decay_mult: 0
  }
  batch_norm_param {
    use_global_stats: true
    eps: 1e-05
    scale_filler {
      type: "constant"
      value: 1
    }
    bias_filler {
      type: "constant"
      value: 0
    }
  }
}
layer {
  name: "relu4_3/expand"
  type: "ReLU"
  bottom: "conv4_3/expand/bn"
  top: "conv4_3/expand/bn"
}
layer {
  name: "conv4_3/dwise"
  type: "Convolution"
  bottom: "conv4_3/expand/bn"
  top: "conv4_3/dwise"
  param {
    lr_mult: 1
    decay_mult: 1
  }
  convolution_param {
    num_output: 192
    bias_term: false
    pad: 1
    kernel_size: 3
    group: 192
    weight_filler {
      type: "msra"
    }
    engine: CAFFE
  }
}
layer {
  name: "conv4_3/dwise/bn"
  type: "BatchNorm"
  bottom: "conv4_3/dwise"
  top: "conv4_3/dwise/bn"
  param {
    lr_mult: 1
    decay_mult: 0
  }
  param {
    lr_mult: 1
    decay_mult: 0
  }
  param {
    lr_mult: 0
    decay_mult: 0
  }
  param {
    lr_mult: 0
    decay_mult: 0
  }
  batch_norm_param {
    use_global_stats: true
    eps: 1e-05
    scale_filler {
      type: "constant"
      value: 1
    }
    bias_filler {
      type: "constant"
      value: 0
    }
  }
}
layer {
  name: "relu4_3/dwise"
  type: "ReLU"
  bottom: "conv4_3/dwise/bn"
  top: "conv4_3/dwise/bn"
}
layer {
  name: "conv4_3/linear"
  type: "Convolution"
  bottom: "conv4_3/dwise/bn"
  top: "conv4_3/linear"
  param {
    lr_mult: 1
    decay_mult: 1
  }
  convolution_param {
    num_output: 64
    bias_term: false
    kernel_size: 1
    weight_filler {
      type: "msra"
    }
  }
}
layer {
  name: "conv4_3/linear/bn"
  type: "BatchNorm"
  bottom: "conv4_3/linear"
  top: "conv4_3/linear/bn"
  param {
    lr_mult: 1
    decay_mult: 0
  }
  param {
    lr_mult: 1
    decay_mult: 0
  }
  param {
    lr_mult: 0
    decay_mult: 0
  }
  param {
    lr_mult: 0
    decay_mult: 0
  }
  batch_norm_param {
    use_global_stats: true
    eps: 1e-05
    scale_filler {
      type: "constant"
      value: 1
    }
    bias_filler {
      type: "constant"
      value: 0
    }
  }
}
layer {
  name: "conv4_4/expand"
  type: "Convolution"
  bottom: "conv4_3/linear/bn"
  top: "conv4_4/expand"
  param {
    lr_mult: 1
    decay_mult: 1
  }
  convolution_param {
    num_output: 384
    bias_term: false
    kernel_size: 1
    weight_filler {
      type: "msra"
    }
  }
}
layer {
  name: "conv4_4/expand/bn"
  type: "BatchNorm"
  bottom: "conv4_4/expand"
  top: "conv4_4/expand/bn"
  param {
    lr_mult: 1
    decay_mult: 0
  }
  param {
    lr_mult: 1
    decay_mult: 0
  }
  param {
    lr_mult: 0
    decay_mult: 0
  }
  param {
    lr_mult: 0
    decay_mult: 0
  }
  batch_norm_param {
    use_global_stats: true
    eps: 1e-05
    scale_filler {
      type: "constant"
      value: 1
    }
    bias_filler {
      type: "constant"
      value: 0
    }
  }
}
layer {
  name: "relu4_4/expand"
  type: "ReLU"
  bottom: "conv4_4/expand/bn"
  top: "conv4_4/expand/bn"
}
layer {
  name: "conv4_4/dwise"
  type: "Convolution"
  bottom: "conv4_4/expand/bn"
  top: "conv4_4/dwise"
  param {
    lr_mult: 1
    decay_mult: 1
  }
  convolution_param {
    num_output: 384
    bias_term: false
    pad: 1
    kernel_size: 3
    group: 384
    weight_filler {
      type: "msra"
    }
    engine: CAFFE
  }
}
layer {
  name: "conv4_4/dwise/bn"
  type: "BatchNorm"
  bottom: "conv4_4/dwise"
  top: "conv4_4/dwise/bn"
  param {
    lr_mult: 1
    decay_mult: 0
  }
  param {
    lr_mult: 1
    decay_mult: 0
  }
  param {
    lr_mult: 0
    decay_mult: 0
  }
  param {
    lr_mult: 0
    decay_mult: 0
  }
  batch_norm_param {
    use_global_stats: true
    eps: 1e-05
    scale_filler {
      type: "constant"
      value: 1
    }
    bias_filler {
      type: "constant"
      value: 0
    }
  }
}
layer {
  name: "relu4_4/dwise"
  type: "ReLU"
  bottom: "conv4_4/dwise/bn"
  top: "conv4_4/dwise/bn"
}
layer {
  name: "conv4_4/linear"
  type: "Convolution"
  bottom: "conv4_4/dwise/bn"
  top: "conv4_4/linear"
  param {
    lr_mult: 1
    decay_mult: 1
  }
  convolution_param {
    num_output: 64
    bias_term: false
    kernel_size: 1
    weight_filler {
      type: "msra"
    }
  }
}
layer {
  name: "conv4_4/linear/bn"
  type: "BatchNorm"
  bottom: "conv4_4/linear"
  top: "conv4_4/linear/bn"
  param {
    lr_mult: 1
    decay_mult: 0
  }
  param {
    lr_mult: 1
    decay_mult: 0
  }
  param {
    lr_mult: 0
    decay_mult: 0
  }
  param {
    lr_mult: 0
    decay_mult: 0
  }
  batch_norm_param {
    use_global_stats: true
    eps: 1e-05
    scale_filler {
      type: "constant"
      value: 1
    }
    bias_filler {
      type: "constant"
      value: 0
    }
  }
}
layer {
  name: "block_4_4"
  type: "Eltwise"
  bottom: "conv4_3/linear/bn"
  bottom: "conv4_4/linear/bn"
  top: "block_4_4"
}
layer {
  name: "conv4_5/expand"
  type: "Convolution"
  bottom: "block_4_4"
  top: "conv4_5/expand"
  param {
    lr_mult: 1
    decay_mult: 1
  }
  convolution_param {
    num_output: 384
    bias_term: false
    kernel_size: 1
    weight_filler {
      type: "msra"
    }
  }
}
layer {
  name: "conv4_5/expand/bn"
  type: "BatchNorm"
  bottom: "conv4_5/expand"
  top: "conv4_5/expand/bn"
  param {
    lr_mult: 1
    decay_mult: 0
  }
  param {
    lr_mult: 1
    decay_mult: 0
  }
  param {
    lr_mult: 0
    decay_mult: 0
  }
  param {
    lr_mult: 0
    decay_mult: 0
  }
  batch_norm_param {
    use_global_stats: true
    eps: 1e-05
    scale_filler {
      type: "constant"
      value: 1
    }
    bias_filler {
      type: "constant"
      value: 0
    }
  }
}
layer {
  name: "relu4_5/expand"
  type: "ReLU"
  bottom: "conv4_5/expand/bn"
  top: "conv4_5/expand/bn"
}
layer {
  name: "conv4_5/dwise"
  type: "Convolution"
  bottom: "conv4_5/expand/bn"
  top: "conv4_5/dwise"
  param {
    lr_mult: 1
    decay_mult: 1
  }
  convolution_param {
    num_output: 384
    bias_term: false
    pad: 1
    kernel_size: 3
    group: 384
    weight_filler {
      type: "msra"
    }
    engine: CAFFE
  }
}
layer {
  name: "conv4_5/dwise/bn"
  type: "BatchNorm"
  bottom: "conv4_5/dwise"
  top: "conv4_5/dwise/bn"
  param {
    lr_mult: 1
    decay_mult: 0
  }
  param {
    lr_mult: 1
    decay_mult: 0
  }
  param {
    lr_mult: 0
    decay_mult: 0
  }
  param {
    lr_mult: 0
    decay_mult: 0
  }
  batch_norm_param {
    use_global_stats: true
    eps: 1e-05
    scale_filler {
      type: "constant"
      value: 1
    }
    bias_filler {
      type: "constant"
      value: 0
    }
  }
}
layer {
  name: "relu4_5/dwise"
  type: "ReLU"
  bottom: "conv4_5/dwise/bn"
  top: "conv4_5/dwise/bn"
}
layer {
  name: "conv4_5/linear"
  type: "Convolution"
  bottom: "conv4_5/dwise/bn"
  top: "conv4_5/linear"
  param {
    lr_mult: 1
    decay_mult: 1
  }
  convolution_param {
    num_output: 64
    bias_term: false
    kernel_size: 1
    weight_filler {
      type: "msra"
    }
  }
}
layer {
  name: "conv4_5/linear/bn"
  type: "BatchNorm"
  bottom: "conv4_5/linear"
  top: "conv4_5/linear/bn"
  param {
    lr_mult: 1
    decay_mult: 0
  }
  param {
    lr_mult: 1
    decay_mult: 0
  }
  param {
    lr_mult: 0
    decay_mult: 0
  }
  param {
    lr_mult: 0
    decay_mult: 0
  }
  batch_norm_param {
    use_global_stats: true
    eps: 1e-05
    scale_filler {
      type: "constant"
      value: 1
    }
    bias_filler {
      type: "constant"
      value: 0
    }
  }
}
layer {
  name: "block_4_5"
  type: "Eltwise"
  bottom: "block_4_4"
  bottom: "conv4_5/linear/bn"
  top: "block_4_5"
}
layer {
  name: "conv4_6/expand"
  type: "Convolution"
  bottom: "block_4_5"
  top: "conv4_6/expand"
  param {
    lr_mult: 1
    decay_mult: 1
  }
  convolution_param {
    num_output: 384
    bias_term: false
    kernel_size: 1
    weight_filler {
      type: "msra"
    }
  }
}
layer {
  name: "conv4_6/expand/bn"
  type: "BatchNorm"
  bottom: "conv4_6/expand"
  top: "conv4_6/expand/bn"
  param {
    lr_mult: 1
    decay_mult: 0
  }
  param {
    lr_mult: 1
    decay_mult: 0
  }
  param {
    lr_mult: 0
    decay_mult: 0
  }
  param {
    lr_mult: 0
    decay_mult: 0
  }
  batch_norm_param {
    use_global_stats: true
    eps: 1e-05
    scale_filler {
      type: "constant"
      value: 1
    }
    bias_filler {
      type: "constant"
      value: 0
    }
  }
}
layer {
  name: "relu4_6/expand"
  type: "ReLU"
  bottom: "conv4_6/expand/bn"
  top: "conv4_6/expand/bn"
}
layer {
  name: "conv4_6/dwise"
  type: "Convolution"
  bottom: "conv4_6/expand/bn"
  top: "conv4_6/dwise"
  param {
    lr_mult: 1
    decay_mult: 1
  }
  convolution_param {
    num_output: 384
    bias_term: false
    pad: 1
    kernel_size: 3
    group: 384
    weight_filler {
      type: "msra"
    }
    engine: CAFFE
  }
}
layer {
  name: "conv4_6/dwise/bn"
  type: "BatchNorm"
  bottom: "conv4_6/dwise"
  top: "conv4_6/dwise/bn"
  param {
    lr_mult: 1
    decay_mult: 0
  }
  param {
    lr_mult: 1
    decay_mult: 0
  }
  param {
    lr_mult: 0
    decay_mult: 0
  }
  param {
    lr_mult: 0
    decay_mult: 0
  }
  batch_norm_param {
    use_global_stats: true
    eps: 1e-05
    scale_filler {
      type: "constant"
      value: 1
    }
    bias_filler {
      type: "constant"
      value: 0
    }
  }
}
layer {
  name: "relu4_6/dwise"
  type: "ReLU"
  bottom: "conv4_6/dwise/bn"
  top: "conv4_6/dwise/bn"
}
layer {
  name: "conv4_6/linear"
  type: "Convolution"
  bottom: "conv4_6/dwise/bn"
  top: "conv4_6/linear"
  param {
    lr_mult: 1
    decay_mult: 1
  }
  convolution_param {
    num_output: 64
    bias_term: false
    kernel_size: 1
    weight_filler {
      type: "msra"
    }
  }
}
layer {
  name: "conv4_6/linear/bn"
  type: "BatchNorm"
  bottom: "conv4_6/linear"
  top: "conv4_6/linear/bn"
  param {
    lr_mult: 1
    decay_mult: 0
  }
  param {
    lr_mult: 1
    decay_mult: 0
  }
  param {
    lr_mult: 0
    decay_mult: 0
  }
  param {
    lr_mult: 0
    decay_mult: 0
  }
  batch_norm_param {
    use_global_stats: true
    eps: 1e-05
    scale_filler {
      type: "constant"
      value: 1
    }
    bias_filler {
      type: "constant"
      value: 0
    }
  }
}
layer {
  name: "block_4_6"
  type: "Eltwise"
  bottom: "block_4_5"
  bottom: "conv4_6/linear/bn"
  top: "block_4_6"
}
layer {
  name: "conv4_7/expand"
  type: "Convolution"
  bottom: "block_4_6"
  top: "conv4_7/expand"
  param {
    lr_mult: 1
    decay_mult: 1
  }
  convolution_param {
    num_output: 384
    bias_term: false
    kernel_size: 1
    weight_filler {
      type: "msra"
    }
  }
}
layer {
  name: "conv4_7/expand/bn"
  type: "BatchNorm"
  bottom: "conv4_7/expand"
  top: "conv4_7/expand/bn"
  param {
    lr_mult: 1
    decay_mult: 0
  }
  param {
    lr_mult: 1
    decay_mult: 0
  }
  param {
    lr_mult: 0
    decay_mult: 0
  }
  param {
    lr_mult: 0
    decay_mult: 0
  }
  batch_norm_param {
    use_global_stats: true
    eps: 1e-05
    scale_filler {
      type: "constant"
      value: 1
    }
    bias_filler {
      type: "constant"
      value: 0
    }
  }
}
layer {
  name: "relu4_7/expand"
  type: "ReLU"
  bottom: "conv4_7/expand/bn"
  top: "conv4_7/expand/bn"
}
layer {
  name: "conv4_7/dwise"
  type: "Convolution"
  bottom: "conv4_7/expand/bn"
  top: "conv4_7/dwise"
  param {
    lr_mult: 1
    decay_mult: 1
  }
  convolution_param {
    num_output: 384
    bias_term: false
    pad: 1
    kernel_size: 3
    group: 384
    stride: 2
    weight_filler {
      type: "msra"
    }
    engine: CAFFE
  }
}
layer {
  name: "conv4_7/dwise/bn"
  type: "BatchNorm"
  bottom: "conv4_7/dwise"
  top: "conv4_7/dwise/bn"
  param {
    lr_mult: 1
    decay_mult: 0
  }
  param {
    lr_mult: 1
    decay_mult: 0
  }
  param {
    lr_mult: 0
    decay_mult: 0
  }
  param {
    lr_mult: 0
    decay_mult: 0
  }
  batch_norm_param {
    use_global_stats: true
    eps: 1e-05
    scale_filler {
      type: "constant"
      value: 1
    }
    bias_filler {
      type: "constant"
      value: 0
    }
  }
}
layer {
  name: "relu4_7/dwise"
  type: "ReLU"
  bottom: "conv4_7/dwise/bn"
  top: "conv4_7/dwise/bn"
}
layer {
  name: "conv4_7/linear"
  type: "Convolution"
  bottom: "conv4_7/dwise/bn"
  top:
I0410 05:45:49.805680    48 layer_factory.hpp:93] Creating layer data
I0410 05:45:49.806903    48 internal_thread.cpp:43] Starting internal thread(s) on GPU 0
I0410 05:45:49.807535    48 net.cpp:110] Creating Layer data
I0410 05:45:49.807555    48 net.cpp:425] data -> data
I0410 05:45:49.807574    48 net.cpp:425] data -> label
I0410 05:45:49.916024    76 db_lmdb.cpp:51] Opened lmdb /workspace/SSD/data/VOCdevkit/VOC0712/lmdb/VOC0712_test_lmdb
I0410 05:45:49.922257    76 data_reader.cpp:140] TEST: reading data using 1 channel(s)
I0410 05:45:49.933826    48 annotated_data_layer.cpp:78] output data size: 1,3,360,480
I0410 05:45:49.945926    48 internal_thread.cpp:43] Starting internal thread(s) on GPU 0
I0410 05:45:49.946051    48 net.cpp:160] Setting up data
I0410 05:45:49.946063    48 net.cpp:167] Top shape: 1 3 360 480 (518400)
I0410 05:45:49.946071    48 net.cpp:167] Top shape: 1 1 2 8 (16)
I0410 05:45:49.946077    48 net.cpp:175] Memory required for data: 2073664
I0410 05:45:49.946082    48 layer_factory.hpp:93] Creating layer data_data_0_split
I0410 05:45:49.946877    48 net.cpp:110] Creating Layer data_data_0_split
I0410 05:45:49.946893    48 net.cpp:451] data_data_0_split <- data
I0410 05:45:49.946902    48 net.cpp:425] data_data_0_split -> data_data_0_split_0
I0410 05:45:49.946913    48 net.cpp:425] data_data_0_split -> data_data_0_split_1
I0410 05:45:49.946919    48 net.cpp:425] data_data_0_split -> data_data_0_split_2
I0410 05:45:49.946925    48 net.cpp:425] data_data_0_split -> data_data_0_split_3
I0410 05:45:49.946931    48 net.cpp:425] data_data_0_split -> data_data_0_split_4
I0410 05:45:49.946936    48 net.cpp:425] data_data_0_split -> data_data_0_split_5
I0410 05:45:49.947017    48 net.cpp:160] Setting up data_data_0_split
I0410 05:45:49.947026    48 net.cpp:167] Top shape: 1 3 360 480 (518400)
I0410 05:45:49.947033    48 net.cpp:167] Top shape: 1 3 360 480 (518400)
I0410 05:45:49.947038    48 net.cpp:167] Top shape: 1 3 360 480 (518400)
I0410 05:45:49.947043    48 net.cpp:167] Top shape: 1 3 360 480 (518400)
I0410 05:45:49.947047    48 net.cpp:167] Top shape: 1 3 360 480 (518400)
I0410 05:45:49.947052    48 net.cpp:167] Top shape: 1 3 360 480 (518400)
I0410 05:45:49.947057    48 net.cpp:175] Memory required for data: 14515264
I0410 05:45:49.947060    48 layer_factory.hpp:93] Creating layer conv1
I0410 05:45:49.947079    48 net.cpp:110] Creating Layer conv1
I0410 05:45:49.947084    48 net.cpp:451] conv1 <- data_data_0_split_0
I0410 05:45:49.947090    48 net.cpp:425] conv1 -> conv1
I0410 05:45:49.949466    48 net.cpp:160] Setting up conv1
I0410 05:45:49.949481    48 net.cpp:167] Top shape: 1 32 180 240 (1382400)
I0410 05:45:49.949488    48 net.cpp:175] Memory required for data: 20044864
I0410 05:45:49.949520    48 layer_factory.hpp:93] Creating layer conv1/bn
I0410 05:45:49.949532    48 net.cpp:110] Creating Layer conv1/bn
I0410 05:45:49.949535    48 net.cpp:451] conv1/bn <- conv1
I0410 05:45:49.949543    48 net.cpp:425] conv1/bn -> conv1/bn
I0410 05:45:49.951129    48 net.cpp:160] Setting up conv1/bn
I0410 05:45:49.951143    48 net.cpp:167] Top shape: 1 32 180 240 (1382400)
I0410 05:45:49.951149    48 net.cpp:175] Memory required for data: 25574464
I0410 05:45:49.951162    48 layer_factory.hpp:93] Creating layer relu1
I0410 05:45:49.951170    48 net.cpp:110] Creating Layer relu1
I0410 05:45:49.951175    48 net.cpp:451] relu1 <- conv1/bn
I0410 05:45:49.951181    48 net.cpp:412] relu1 -> conv1/bn (in-place)
I0410 05:45:49.951190    48 net.cpp:160] Setting up relu1
I0410 05:45:49.951195    48 net.cpp:167] Top shape: 1 32 180 240 (1382400)
I0410 05:45:49.951200    48 net.cpp:175] Memory required for data: 31104064
I0410 05:45:49.951202    48 layer_factory.hpp:93] Creating layer conv2_1/expand
I0410 05:45:49.951211    48 net.cpp:110] Creating Layer conv2_1/expand
I0410 05:45:49.951215    48 net.cpp:451] conv2_1/expand <- conv1/bn
I0410 05:45:49.951220    48 net.cpp:425] conv2_1/expand -> conv2_1/expand
I0410 05:45:49.951406    48 net.cpp:160] Setting up conv2_1/expand
I0410 05:45:49.951416    48 net.cpp:167] Top shape: 1 32 180 240 (1382400)
I0410 05:45:49.951421    48 net.cpp:175] Memory required for data: 36633664
I0410 05:45:49.951428    48 layer_factory.hpp:93] Creating layer conv2_1/expand/bn
I0410 05:45:49.951440    48 net.cpp:110] Creating Layer conv2_1/expand/bn
I0410 05:45:49.951447    48 net.cpp:451] conv2_1/expand/bn <- conv2_1/expand
I0410 05:45:49.951452    48 net.cpp:425] conv2_1/expand/bn -> conv2_1/expand/bn
I0410 05:45:49.952030    48 net.cpp:160] Setting up conv2_1/expand/bn
I0410 05:45:49.952042    48 net.cpp:167] Top shape: 1 32 180 240 (1382400)
I0410 05:45:49.952049    48 net.cpp:175] Memory required for data: 42163264
I0410 05:45:49.952060    48 layer_factory.hpp:93] Creating layer relu2_1/expand
I0410 05:45:49.952067    48 net.cpp:110] Creating Layer relu2_1/expand
I0410 05:45:49.952071    48 net.cpp:451] relu2_1/expand <- conv2_1/expand/bn
I0410 05:45:49.952077    48 net.cpp:412] relu2_1/expand -> conv2_1/expand/bn (in-place)
I0410 05:45:49.952085    48 net.cpp:160] Setting up relu2_1/expand
I0410 05:45:49.952088    48 net.cpp:167] Top shape: 1 32 180 240 (1382400)
I0410 05:45:49.952093    48 net.cpp:175] Memory required for data: 47692864
I0410 05:45:49.952097    48 layer_factory.hpp:93] Creating layer conv2_1/dwise
I0410 05:45:49.952105    48 net.cpp:110] Creating Layer conv2_1/dwise
I0410 05:45:49.952109    48 net.cpp:451] conv2_1/dwise <- conv2_1/expand/bn
I0410 05:45:49.952114    48 net.cpp:425] conv2_1/dwise -> conv2_1/dwise
I0410 05:45:49.952280    48 net.cpp:160] Setting up conv2_1/dwise
I0410 05:45:49.952289    48 net.cpp:167] Top shape: 1 32 180 240 (1382400)
I0410 05:45:49.952296    48 net.cpp:175] Memory required for data: 53222464
I0410 05:45:49.952301    48 layer_factory.hpp:93] Creating layer conv2_1/dwise/bn
I0410 05:45:49.952309    48 net.cpp:110] Creating Layer conv2_1/dwise/bn
I0410 05:45:49.952313    48 net.cpp:451] conv2_1/dwise/bn <- conv2_1/dwise
I0410 05:45:49.952320    48 net.cpp:425] conv2_1/dwise/bn -> conv2_1/dwise/bn
I0410 05:45:49.952920    48 net.cpp:160] Setting up conv2_1/dwise/bn
I0410 05:45:49.952932    48 net.cpp:167] Top shape: 1 32 180 240 (1382400)
I0410 05:45:49.952939    48 net.cpp:175] Memory required for data: 58752064
I0410 05:45:49.952950    48 layer_factory.hpp:93] Creating layer relu2_1/dwise
I0410 05:45:49.952956    48 net.cpp:110] Creating Layer relu2_1/dwise
I0410 05:45:49.952961    48 net.cpp:451] relu2_1/dwise <- conv2_1/dwise/bn
I0410 05:45:49.952967    48 net.cpp:412] relu2_1/dwise -> conv2_1/dwise/bn (in-place)
I0410 05:45:49.952975    48 net.cpp:160] Setting up relu2_1/dwise
I0410 05:45:49.952978    48 net.cpp:167] Top shape: 1 32 180 240 (1382400)
I0410 05:45:49.952983    48 net.cpp:175] Memory required for data: 64281664
I0410 05:45:49.952986    48 layer_factory.hpp:93] Creating layer conv2_1/linear
I0410 05:45:49.952993    48 net.cpp:110] Creating Layer conv2_1/linear
I0410 05:45:49.952997    48 net.cpp:451] conv2_1/linear <- conv2_1/dwise/bn
I0410 05:45:49.953003    48 net.cpp:425] conv2_1/linear -> conv2_1/linear
I0410 05:45:49.953171    48 net.cpp:160] Setting up conv2_1/linear
I0410 05:45:49.953182    48 net.cpp:167] Top shape: 1 16 180 240 (691200)
I0410 05:45:49.953191    48 net.cpp:175] Memory required for data: 67046464
I0410 05:45:49.953197    48 layer_factory.hpp:93] Creating layer conv2_1/linear/bn
I0410 05:45:49.953205    48 net.cpp:110] Creating Layer conv2_1/linear/bn
I0410 05:45:49.953210    48 net.cpp:451] conv2_1/linear/bn <- conv2_1/linear
I0410 05:45:49.953217    48 net.cpp:425] conv2_1/linear/bn -> conv2_1/linear/bn
I0410 05:45:49.953814    48 net.cpp:160] Setting up conv2_1/linear/bn
I0410 05:45:49.953825    48 net.cpp:167] Top shape: 1 16 180 240 (691200)
I0410 05:45:49.953832    48 net.cpp:175] Memory required for data: 69811264
I0410 05:45:49.953841    48 layer_factory.hpp:93] Creating layer conv2_2/expand
I0410 05:45:49.953850    48 net.cpp:110] Creating Layer conv2_2/expand
I0410 05:45:49.953855    48 net.cpp:451] conv2_2/expand <- conv2_1/linear/bn
I0410 05:45:49.953861    48 net.cpp:425] conv2_2/expand -> conv2_2/expand
I0410 05:45:49.954043    48 net.cpp:160] Setting up conv2_2/expand
I0410 05:45:49.954053    48 net.cpp:167] Top shape: 1 96 180 240 (4147200)
I0410 05:45:49.954061    48 net.cpp:175] Memory required for data: 86400064
I0410 05:45:49.954066    48 layer_factory.hpp:93] Creating layer conv2_2/expand/bn
I0410 05:45:49.954078    48 net.cpp:110] Creating Layer conv2_2/expand/bn
I0410 05:45:49.954084    48 net.cpp:451] conv2_2/expand/bn <- conv2_2/expand
I0410 05:45:49.954090    48 net.cpp:425] conv2_2/expand/bn -> conv2_2/expand/bn
I0410 05:45:49.954694    48 net.cpp:160] Setting up conv2_2/expand/bn
I0410 05:45:49.954704    48 net.cpp:167] Top shape: 1 96 180 240 (4147200)
I0410 05:45:49.954710    48 net.cpp:175] Memory required for data: 102988864
I0410 05:45:49.954720    48 layer_factory.hpp:93] Creating layer relu2_2/expand
I0410 05:45:49.954726    48 net.cpp:110] Creating Layer relu2_2/expand
I0410 05:45:49.954730    48 net.cpp:451] relu2_2/expand <- conv2_2/expand/bn
I0410 05:45:49.954735    48 net.cpp:412] relu2_2/expand -> conv2_2/expand/bn (in-place)
I0410 05:45:49.954743    48 net.cpp:160] Setting up relu2_2/expand
I0410 05:45:49.954746    48 net.cpp:167] Top shape: 1 96 180 240 (4147200)
I0410 05:45:49.954751    48 net.cpp:175] Memory required for data: 119577664
I0410 05:45:49.954756    48 layer_factory.hpp:93] Creating layer conv2_2/dwise
I0410 05:45:49.954766    48 net.cpp:110] Creating Layer conv2_2/dwise
I0410 05:45:49.954769    48 net.cpp:451] conv2_2/dwise <- conv2_2/expand/bn
I0410 05:45:49.954774    48 net.cpp:425] conv2_2/dwise -> conv2_2/dwise
I0410 05:45:49.954952    48 net.cpp:160] Setting up conv2_2/dwise
I0410 05:45:49.954962    48 net.cpp:167] Top shape: 1 96 90 120 (1036800)
I0410 05:45:49.954967    48 net.cpp:175] Memory required for data: 123724864
I0410 05:45:49.954973    48 layer_factory.hpp:93] Creating layer conv2_2/dwise/bn
I0410 05:45:49.954982    48 net.cpp:110] Creating Layer conv2_2/dwise/bn
I0410 05:45:49.954986    48 net.cpp:451] conv2_2/dwise/bn <- conv2_2/dwise
I0410 05:45:49.954993    48 net.cpp:425] conv2_2/dwise/bn -> conv2_2/dwise/bn
I0410 05:45:49.955577    48 net.cpp:160] Setting up conv2_2/dwise/bn
I0410 05:45:49.955587    48 net.cpp:167] Top shape: 1 96 90 120 (1036800)
I0410 05:45:49.955595    48 net.cpp:175] Memory required for data: 127872064
I0410 05:45:49.955606    48 layer_factory.hpp:93] Creating layer relu2_2/dwise
I0410 05:45:49.955613    48 net.cpp:110] Creating Layer relu2_2/dwise
I0410 05:45:49.955617    48 net.cpp:451] relu2_2/dwise <- conv2_2/dwise/bn
I0410 05:45:49.955623    48 net.cpp:412] relu2_2/dwise -> conv2_2/dwise/bn (in-place)
I0410 05:45:49.955631    48 net.cpp:160] Setting up relu2_2/dwise
I0410 05:45:49.955634    48 net.cpp:167] Top shape: 1 96 90 120 (1036800)
I0410 05:45:49.955639    48 net.cpp:175] Memory required for data: 132019264
I0410 05:45:49.955642    48 layer_factory.hpp:93] Creating layer conv2_2/linear
I0410 05:45:49.955651    48 net.cpp:110] Creating Layer conv2_2/linear
I0410 05:45:49.955654    48 net.cpp:451] conv2_2/linear <- conv2_2/dwise/bn
I0410 05:45:49.955659    48 net.cpp:425] conv2_2/linear -> conv2_2/linear
I0410 05:45:49.955854    48 net.cpp:160] Setting up conv2_2/linear
I0410 05:45:49.955864    48 net.cpp:167] Top shape: 1 24 90 120 (259200)
I0410 05:45:49.955870    48 net.cpp:175] Memory required for data: 133056064
I0410 05:45:49.955876    48 layer_factory.hpp:93] Creating layer conv2_2/linear/bn
I0410 05:45:49.955885    48 net.cpp:110] Creating Layer conv2_2/linear/bn
I0410 05:45:49.955889    48 net.cpp:451] conv2_2/linear/bn <- conv2_2/linear
I0410 05:45:49.955895    48 net.cpp:425] conv2_2/linear/bn -> conv2_2/linear/bn
I0410 05:45:49.956475    48 net.cpp:160] Setting up conv2_2/linear/bn
I0410 05:45:49.956486    48 net.cpp:167] Top shape: 1 24 90 120 (259200)
I0410 05:45:49.956492    48 net.cpp:175] Memory required for data: 134092864
I0410 05:45:49.956501    48 layer_factory.hpp:93] Creating layer conv2_2/linear/bn_conv2_2/linear/bn_0_split
I0410 05:45:49.956508    48 net.cpp:110] Creating Layer conv2_2/linear/bn_conv2_2/linear/bn_0_split
I0410 05:45:49.956513    48 net.cpp:451] conv2_2/linear/bn_conv2_2/linear/bn_0_split <- conv2_2/linear/bn
I0410 05:45:49.956518    48 net.cpp:425] conv2_2/linear/bn_conv2_2/linear/bn_0_split -> conv2_2/linear/bn_conv2_2/linear/bn_0_split_0
I0410 05:45:49.956526    48 net.cpp:425] conv2_2/linear/bn_conv2_2/linear/bn_0_split -> conv2_2/linear/bn_conv2_2/linear/bn_0_split_1
I0410 05:45:49.956555    48 net.cpp:160] Setting up conv2_2/linear/bn_conv2_2/linear/bn_0_split
I0410 05:45:49.956563    48 net.cpp:167] Top shape: 1 24 90 120 (259200)
I0410 05:45:49.956569    48 net.cpp:167] Top shape: 1 24 90 120 (259200)
I0410 05:45:49.956573    48 net.cpp:175] Memory required for data: 136166464
I0410 05:45:49.956578    48 layer_factory.hpp:93] Creating layer conv3_1/expand
I0410 05:45:49.956586    48 net.cpp:110] Creating Layer conv3_1/expand
I0410 05:45:49.956599    48 net.cpp:451] conv3_1/expand <- conv2_2/linear/bn_conv2_2/linear/bn_0_split_0
I0410 05:45:49.956605    48 net.cpp:425] conv3_1/expand -> conv3_1/expand
I0410 05:45:49.956804    48 net.cpp:160] Setting up conv3_1/expand
I0410 05:45:49.956815    48 net.cpp:167] Top shape: 1 144 90 120 (1555200)
I0410 05:45:49.956825    48 net.cpp:175] Memory required for data: 142387264
I0410 05:45:49.956830    48 layer_factory.hpp:93] Creating layer conv3_1/expand/bn
I0410 05:45:49.956838    48 net.cpp:110] Creating Layer conv3_1/expand/bn
I0410 05:45:49.956843    48 net.cpp:451] conv3_1/expand/bn <- conv3_1/expand
I0410 05:45:49.956851    48 net.cpp:425] conv3_1/expand/bn -> conv3_1/expand/bn
I0410 05:45:49.957425    48 net.cpp:160] Setting up conv3_1/expand/bn
I0410 05:45:49.957437    48 net.cpp:167] Top shape: 1 144 90 120 (1555200)
I0410 05:45:49.957442    48 net.cpp:175] Memory required for data: 148608064
I0410 05:45:49.957451    48 layer_factory.hpp:93] Creating layer relu3_1/expand
I0410 05:45:49.957458    48 net.cpp:110] Creating Layer relu3_1/expand
I0410 05:45:49.957463    48 net.cpp:451] relu3_1/expand <- conv3_1/expand/bn
I0410 05:45:49.957468    48 net.cpp:412] relu3_1/expand -> conv3_1/expand/bn (in-place)
I0410 05:45:49.957474    48 net.cpp:160] Setting up relu3_1/expand
I0410 05:45:49.957479    48 net.cpp:167] Top shape: 1 144 90 120 (1555200)
I0410 05:45:49.957482    48 net.cpp:175] Memory required for data: 154828864
I0410 05:45:49.957486    48 layer_factory.hpp:93] Creating layer conv3_1/dwise
I0410 05:45:49.957494    48 net.cpp:110] Creating Layer conv3_1/dwise
I0410 05:45:49.957499    48 net.cpp:451] conv3_1/dwise <- conv3_1/expand/bn
I0410 05:45:49.957504    48 net.cpp:425] conv3_1/dwise -> conv3_1/dwise
I0410 05:45:49.957689    48 net.cpp:160] Setting up conv3_1/dwise
I0410 05:45:49.957697    48 net.cpp:167] Top shape: 1 144 90 120 (1555200)
I0410 05:45:49.957703    48 net.cpp:175] Memory required for data: 161049664
I0410 05:45:49.957710    48 layer_factory.hpp:93] Creating layer conv3_1/dwise/bn
I0410 05:45:49.957717    48 net.cpp:110] Creating Layer conv3_1/dwise/bn
I0410 05:45:49.957721    48 net.cpp:451] conv3_1/dwise/bn <- conv3_1/dwise
I0410 05:45:49.957728    48 net.cpp:425] conv3_1/dwise/bn -> conv3_1/dwise/bn
I0410 05:45:49.958298    48 net.cpp:160] Setting up conv3_1/dwise/bn
I0410 05:45:49.958309    48 net.cpp:167] Top shape: 1 144 90 120 (1555200)
I0410 05:45:49.958317    48 net.cpp:175] Memory required for data: 167270464
I0410 05:45:49.958325    48 layer_factory.hpp:93] Creating layer relu3_1/dwise
I0410 05:45:49.958331    48 net.cpp:110] Creating Layer relu3_1/dwise
I0410 05:45:49.958336    48 net.cpp:451] relu3_1/dwise <- conv3_1/dwise/bn
I0410 05:45:49.958341    48 net.cpp:412] relu3_1/dwise -> conv3_1/dwise/bn (in-place)
I0410 05:45:49.958348    48 net.cpp:160] Setting up relu3_1/dwise
I0410 05:45:49.958353    48 net.cpp:167] Top shape: 1 144 90 120 (1555200)
I0410 05:45:49.958357    48 net.cpp:175] Memory required for data: 173491264
I0410 05:45:49.958360    48 layer_factory.hpp:93] Creating layer conv3_1/linear
I0410 05:45:49.958369    48 net.cpp:110] Creating Layer conv3_1/linear
I0410 05:45:49.958372    48 net.cpp:451] conv3_1/linear <- conv3_1/dwise/bn
I0410 05:45:49.958379    48 net.cpp:425] conv3_1/linear -> conv3_1/linear
I0410 05:45:49.958580    48 net.cpp:160] Setting up conv3_1/linear
I0410 05:45:49.958588    48 net.cpp:167] Top shape: 1 24 90 120 (259200)
I0410 05:45:49.958595    48 net.cpp:175] Memory required for data: 174528064
I0410 05:45:49.958601    48 layer_factory.hpp:93] Creating layer conv3_1/linear/bn
I0410 05:45:49.958609    48 net.cpp:110] Creating Layer conv3_1/linear/bn
I0410 05:45:49.958613    48 net.cpp:451] conv3_1/linear/bn <- conv3_1/linear
I0410 05:45:49.958619    48 net.cpp:425] conv3_1/linear/bn -> conv3_1/linear/bn
I0410 05:45:49.959190    48 net.cpp:160] Setting up conv3_1/linear/bn
I0410 05:45:49.959201    48 net.cpp:167] Top shape: 1 24 90 120 (259200)
I0410 05:45:49.959208    48 net.cpp:175] Memory required for data: 175564864
I0410 05:45:49.959216    48 layer_factory.hpp:93] Creating layer block_3_1
I0410 05:45:49.959224    48 net.cpp:110] Creating Layer block_3_1
I0410 05:45:49.959228    48 net.cpp:451] block_3_1 <- conv2_2/linear/bn_conv2_2/linear/bn_0_split_1
I0410 05:45:49.959234    48 net.cpp:451] block_3_1 <- conv3_1/linear/bn
I0410 05:45:49.959239    48 net.cpp:425] block_3_1 -> block_3_1
I0410 05:45:49.959262    48 net.cpp:160] Setting up block_3_1
I0410 05:45:49.959267    48 net.cpp:167] Top shape: 1 24 90 120 (259200)
I0410 05:45:49.959272    48 net.cpp:175] Memory required for data: 176601664
I0410 05:45:49.959276    48 layer_factory.hpp:93] Creating layer conv3_2/expand
I0410 05:45:49.959285    48 net.cpp:110] Creating Layer conv3_2/expand
I0410 05:45:49.959287    48 net.cpp:451] conv3_2/expand <- block_3_1
I0410 05:45:49.959293    48 net.cpp:425] conv3_2/expand -> conv3_2/expand
I0410 05:45:49.959498    48 net.cpp:160] Setting up conv3_2/expand
I0410 05:45:49.959511    48 net.cpp:167] Top shape: 1 144 90 120 (1555200)
I0410 05:45:49.959517    48 net.cpp:175] Memory required for data: 182822464
I0410 05:45:49.959522    48 layer_factory.hpp:93] Creating layer conv3_2/expand/bn
I0410 05:45:49.959533    48 net.cpp:110] Creating Layer conv3_2/expand/bn
I0410 05:45:49.959537    48 net.cpp:451] conv3_2/expand/bn <- conv3_2/expand
I0410 05:45:49.959544    48 net.cpp:425] conv3_2/expand/bn -> conv3_2/expand/bn
I0410 05:45:49.960122    48 net.cpp:160] Setting up conv3_2/expand/bn
I0410 05:45:49.960134    48 net.cpp:167] Top shape: 1 144 90 120 (1555200)
I0410 05:45:49.960140    48 net.cpp:175] Memory required for data: 189043264
I0410 05:45:49.960153    48 layer_factory.hpp:93] Creating layer relu3_2/expand
I0410 05:45:49.960160    48 net.cpp:110] Creating Layer relu3_2/expand
I0410 05:45:49.960165    48 net.cpp:451] relu3_2/expand <- conv3_2/expand/bn
I0410 05:45:49.960170    48 net.cpp:412] relu3_2/expand -> conv3_2/expand/bn (in-place)
I0410 05:45:49.960178    48 net.cpp:160] Setting up relu3_2/expand
I0410 05:45:49.960181    48 net.cpp:167] Top shape: 1 144 90 120 (1555200)
I0410 05:45:49.960186    48 net.cpp:175] Memory required for data: 195264064
I0410 05:45:49.960191    48 layer_factory.hpp:93] Creating layer conv3_2/dwise
I0410 05:45:49.960198    48 net.cpp:110] Creating Layer conv3_2/dwise
I0410 05:45:49.960201    48 net.cpp:451] conv3_2/dwise <- conv3_2/expand/bn
I0410 05:45:49.960207    48 net.cpp:425] conv3_2/dwise -> conv3_2/dwise
I0410 05:45:49.960393    48 net.cpp:160] Setting up conv3_2/dwise
I0410 05:45:49.960404    48 net.cpp:167] Top shape: 1 144 45 60 (388800)
I0410 05:45:49.960410    48 net.cpp:175] Memory required for data: 196819264
I0410 05:45:49.960417    48 layer_factory.hpp:93] Creating layer conv3_2/dwise/bn
I0410 05:45:49.960424    48 net.cpp:110] Creating Layer conv3_2/dwise/bn
I0410 05:45:49.960429    48 net.cpp:451] conv3_2/dwise/bn <- conv3_2/dwise
I0410 05:45:49.960435    48 net.cpp:425] conv3_2/dwise/bn -> conv3_2/dwise/bn
I0410 05:45:49.961040    48 net.cpp:160] Setting up conv3_2/dwise/bn
I0410 05:45:49.961050    48 net.cpp:167] Top shape: 1 144 45 60 (388800)
I0410 05:45:49.961055    48 net.cpp:175] Memory required for data: 198374464
I0410 05:45:49.961066    48 layer_factory.hpp:93] Creating layer relu3_2/dwise
I0410 05:45:49.961071    48 net.cpp:110] Creating Layer relu3_2/dwise
I0410 05:45:49.961076    48 net.cpp:451] relu3_2/dwise <- conv3_2/dwise/bn
I0410 05:45:49.961081    48 net.cpp:412] relu3_2/dwise -> conv3_2/dwise/bn (in-place)
I0410 05:45:49.961089    48 net.cpp:160] Setting up relu3_2/dwise
I0410 05:45:49.961092    48 net.cpp:167] Top shape: 1 144 45 60 (388800)
I0410 05:45:49.961097    48 net.cpp:175] Memory required for data: 199929664
I0410 05:45:49.961102    48 layer_factory.hpp:93] Creating layer conv3_2/linear
I0410 05:45:49.961109    48 net.cpp:110] Creating Layer conv3_2/linear
I0410 05:45:49.961112    48 net.cpp:451] conv3_2/linear <- conv3_2/dwise/bn
I0410 05:45:49.961118    48 net.cpp:425] conv3_2/linear -> conv3_2/linear
I0410 05:45:49.961603    48 net.cpp:160] Setting up conv3_2/linear
I0410 05:45:49.961613    48 net.cpp:167] Top shape: 1 32 45 60 (86400)
I0410 05:45:49.961619    48 net.cpp:175] Memory required for data: 200275264
I0410 05:45:49.961627    48 layer_factory.hpp:93] Creating layer conv3_2/linear/bn
I0410 05:45:49.961634    48 net.cpp:110] Creating Layer conv3_2/linear/bn
I0410 05:45:49.961639    48 net.cpp:451] conv3_2/linear/bn <- conv3_2/linear
I0410 05:45:49.961645    48 net.cpp:425] conv3_2/linear/bn -> conv3_2/linear/bn
I0410 05:45:49.962222    48 net.cpp:160] Setting up conv3_2/linear/bn
I0410 05:45:49.962232    48 net.cpp:167] Top shape: 1 32 45 60 (86400)
I0410 05:45:49.962239    48 net.cpp:175] Memory required for data: 200620864
I0410 05:45:49.962249    48 layer_factory.hpp:93] Creating layer conv3_2/linear/bn_conv3_2/linear/bn_0_split
I0410 05:45:49.962255    48 net.cpp:110] Creating Layer conv3_2/linear/bn_conv3_2/linear/bn_0_split
I0410 05:45:49.962260    48 net.cpp:451] conv3_2/linear/bn_conv3_2/linear/bn_0_split <- conv3_2/linear/bn
I0410 05:45:49.962265    48 net.cpp:425] conv3_2/linear/bn_conv3_2/linear/bn_0_split -> conv3_2/linear/bn_conv3_2/linear/bn_0_split_0
I0410 05:45:49.962273    48 net.cpp:425] conv3_2/linear/bn_conv3_2/linear/bn_0_split -> conv3_2/linear/bn_conv3_2/linear/bn_0_split_1
I0410 05:45:49.962303    48 net.cpp:160] Setting up conv3_2/linear/bn_conv3_2/linear/bn_0_split
I0410 05:45:49.962309    48 net.cpp:167] Top shape: 1 32 45 60 (86400)
I0410 05:45:49.962316    48 net.cpp:167] Top shape: 1 32 45 60 (86400)
I0410 05:45:49.962319    48 net.cpp:175] Memory required for data: 201312064
I0410 05:45:49.962323    48 layer_factory.hpp:93] Creating layer conv4_1/expand
I0410 05:45:49.962332    48 net.cpp:110] Creating Layer conv4_1/expand
I0410 05:45:49.962335    48 net.cpp:451] conv4_1/expand <- conv3_2/linear/bn_conv3_2/linear/bn_0_split_0
I0410 05:45:49.962342    48 net.cpp:425] conv4_1/expand -> conv4_1/expand
I0410 05:45:49.962570    48 net.cpp:160] Setting up conv4_1/expand
I0410 05:45:49.962580    48 net.cpp:167] Top shape: 1 192 45 60 (518400)
I0410 05:45:49.962586    48 net.cpp:175] Memory required for data: 203385664
I0410 05:45:49.962592    48 layer_factory.hpp:93] Creating layer conv4_1/expand/bn
I0410 05:45:49.962600    48 net.cpp:110] Creating Layer conv4_1/expand/bn
I0410 05:45:49.962605    48 net.cpp:451] conv4_1/expand/bn <- conv4_1/expand
I0410 05:45:49.962612    48 net.cpp:425] conv4_1/expand/bn -> conv4_1/expand/bn
I0410 05:45:49.963186    48 net.cpp:160] Setting up conv4_1/expand/bn
I0410 05:45:49.963196    48 net.cpp:167] Top shape: 1 192 45 60 (518400)
I0410 05:45:49.963203    48 net.cpp:175] Memory required for data: 205459264
I0410 05:45:49.963212    48 layer_factory.hpp:93] Creating layer relu4_1/expand
I0410 05:45:49.963222    48 net.cpp:110] Creating Layer relu4_1/expand
I0410 05:45:49.963227    48 net.cpp:451] relu4_1/expand <- conv4_1/expand/bn
I0410 05:45:49.963232    48 net.cpp:412] relu4_1/expand -> conv4_1/expand/bn (in-place)
I0410 05:45:49.963239    48 net.cpp:160] Setting up relu4_1/expand
I0410 05:45:49.963243    48 net.cpp:167] Top shape: 1 192 45 60 (518400)
I0410 05:45:49.963248    48 net.cpp:175] Memory required for data: 207532864
I0410 05:45:49.963251    48 layer_factory.hpp:93] Creating layer conv4_1/dwise
I0410 05:45:49.963259    48 net.cpp:110] Creating Layer conv4_1/dwise
I0410 05:45:49.963263    48 net.cpp:451] conv4_1/dwise <- conv4_1/expand/bn
I0410 05:45:49.963269    48 net.cpp:425] conv4_1/dwise -> conv4_1/dwise
I0410 05:45:49.963460    48 net.cpp:160] Setting up conv4_1/dwise
I0410 05:45:49.963469    48 net.cpp:167] Top shape: 1 192 45 60 (518400)
I0410 05:45:49.963475    48 net.cpp:175] Memory required for data: 209606464
I0410 05:45:49.963480    48 layer_factory.hpp:93] Creating layer conv4_1/dwise/bn
I0410 05:45:49.963490    48 net.cpp:110] Creating Layer conv4_1/dwise/bn
I0410 05:45:49.963495    48 net.cpp:451] conv4_1/dwise/bn <- conv4_1/dwise
I0410 05:45:49.963500    48 net.cpp:425] conv4_1/dwise/bn -> conv4_1/dwise/bn
I0410 05:45:49.964066    48 net.cpp:160] Setting up conv4_1/dwise/bn
I0410 05:45:49.964076    48 net.cpp:167] Top shape: 1 192 45 60 (518400)
I0410 05:45:49.964082    48 net.cpp:175] Memory required for data: 211680064
I0410 05:45:49.964090    48 layer_factory.hpp:93] Creating layer relu4_1/dwise
I0410 05:45:49.964099    48 net.cpp:110] Creating Layer relu4_1/dwise
I0410 05:45:49.964104    48 net.cpp:451] relu4_1/dwise <- conv4_1/dwise/bn
I0410 05:45:49.964109    48 net.cpp:412] relu4_1/dwise -> conv4_1/dwise/bn (in-place)
I0410 05:45:49.964116    48 net.cpp:160] Setting up relu4_1/dwise
I0410 05:45:49.964120    48 net.cpp:167] Top shape: 1 192 45 60 (518400)
I0410 05:45:49.964125    48 net.cpp:175] Memory required for data: 213753664
I0410 05:45:49.964128    48 layer_factory.hpp:93] Creating layer conv4_1/linear
I0410 05:45:49.964136    48 net.cpp:110] Creating Layer conv4_1/linear
I0410 05:45:49.964139    48 net.cpp:451] conv4_1/linear <- conv4_1/dwise/bn
I0410 05:45:49.964145    48 net.cpp:425] conv4_1/linear -> conv4_1/linear
I0410 05:45:49.964372    48 net.cpp:160] Setting up conv4_1/linear
I0410 05:45:49.964385    48 net.cpp:167] Top shape: 1 32 45 60 (86400)
I0410 05:45:49.964392    48 net.cpp:175] Memory required for data: 214099264
I0410 05:45:49.964399    48 layer_factory.hpp:93] Creating layer conv4_1/linear/bn
I0410 05:45:49.964408    48 net.cpp:110] Creating Layer conv4_1/linear/bn
I0410 05:45:49.964412    48 net.cpp:451] conv4_1/linear/bn <- conv4_1/linear
I0410 05:45:49.964419    48 net.cpp:425] conv4_1/linear/bn -> conv4_1/linear/bn
I0410 05:45:49.965004    48 net.cpp:160] Setting up conv4_1/linear/bn
I0410 05:45:49.965014    48 net.cpp:167] Top shape: 1 32 45 60 (86400)
I0410 05:45:49.965021    48 net.cpp:175] Memory required for data: 214444864
I0410 05:45:49.965030    48 layer_factory.hpp:93] Creating layer block_4_1
I0410 05:45:49.965037    48 net.cpp:110] Creating Layer block_4_1
I0410 05:45:49.965045    48 net.cpp:451] block_4_1 <- conv3_2/linear/bn_conv3_2/linear/bn_0_split_1
I0410 05:45:49.965050    48 net.cpp:451] block_4_1 <- conv4_1/linear/bn
I0410 05:45:49.965056    48 net.cpp:425] block_4_1 -> block_4_1
I0410 05:45:49.965080    48 net.cpp:160] Setting up block_4_1
I0410 05:45:49.965085    48 net.cpp:167] Top shape: 1 32 45 60 (86400)
I0410 05:45:49.965091    48 net.cpp:175] Memory required for data: 214790464
I0410 05:45:49.965095    48 layer_factory.hpp:93] Creating layer block_4_1_block_4_1_0_split
I0410 05:45:49.965101    48 net.cpp:110] Creating Layer block_4_1_block_4_1_0_split
I0410 05:45:49.965104    48 net.cpp:451] block_4_1_block_4_1_0_split <- block_4_1
I0410 05:45:49.965111    48 net.cpp:425] block_4_1_block_4_1_0_split -> block_4_1_block_4_1_0_split_0
I0410 05:45:49.965116    48 net.cpp:425] block_4_1_block_4_1_0_split -> block_4_1_block_4_1_0_split_1
I0410 05:45:49.965144    48 net.cpp:160] Setting up block_4_1_block_4_1_0_split
I0410 05:45:49.965153    48 net.cpp:167] Top shape: 1 32 45 60 (86400)
I0410 05:45:49.965160    48 net.cpp:167] Top shape: 1 32 45 60 (86400)
I0410 05:45:49.965165    48 net.cpp:175] Memory required for data: 215481664
I0410 05:45:49.965169    48 layer_factory.hpp:93] Creating layer conv4_2/expand
I0410 05:45:49.965178    48 net.cpp:110] Creating Layer conv4_2/expand
I0410 05:45:49.965181    48 net.cpp:451] conv4_2/expand <- block_4_1_block_4_1_0_split_0
I0410 05:45:49.965188    48 net.cpp:425] conv4_2/expand -> conv4_2/expand
I0410 05:45:49.965420    48 net.cpp:160] Setting up conv4_2/expand
I0410 05:45:49.965428    48 net.cpp:167] Top shape: 1 192 45 60 (518400)
I0410 05:45:49.965435    48 net.cpp:175] Memory required for data: 217555264
I0410 05:45:49.965440    48 layer_factory.hpp:93] Creating layer conv4_2/expand/bn
I0410 05:45:49.965448    48 net.cpp:110] Creating Layer conv4_2/expand/bn
I0410 05:45:49.965453    48 net.cpp:451] conv4_2/expand/bn <- conv4_2/expand
I0410 05:45:49.965459    48 net.cpp:425] conv4_2/expand/bn -> conv4_2/expand/bn
I0410 05:45:49.966028    48 net.cpp:160] Setting up conv4_2/expand/bn
I0410 05:45:49.966038    48 net.cpp:167] Top shape: 1 192 45 60 (518400)
I0410 05:45:49.966044    48 net.cpp:175] Memory required for data: 219628864
I0410 05:45:49.966053    48 layer_factory.hpp:93] Creating layer relu4_2/expand
I0410 05:45:49.966061    48 net.cpp:110] Creating Layer relu4_2/expand
I0410 05:45:49.966066    48 net.cpp:451] relu4_2/expand <- conv4_2/expand/bn
I0410 05:45:49.966071    48 net.cpp:412] relu4_2/expand -> conv4_2/expand/bn (in-place)
I0410 05:45:49.966079    48 net.cpp:160] Setting up relu4_2/expand
I0410 05:45:49.966082    48 net.cpp:167] Top shape: 1 192 45 60 (518400)
I0410 05:45:49.966087    48 net.cpp:175] Memory required for data: 221702464
I0410 05:45:49.966091    48 layer_factory.hpp:93] Creating layer conv4_2/dwise
I0410 05:45:49.966099    48 net.cpp:110] Creating Layer conv4_2/dwise
I0410 05:45:49.966104    48 net.cpp:451] conv4_2/dwise <- conv4_2/expand/bn
I0410 05:45:49.966109    48 net.cpp:425] conv4_2/dwise -> conv4_2/dwise
I0410 05:45:49.966297    48 net.cpp:160] Setting up conv4_2/dwise
I0410 05:45:49.966307    48 net.cpp:167] Top shape: 1 192 45 60 (518400)
I0410 05:45:49.966320    48 net.cpp:175] Memory required for data: 223776064
I0410 05:45:49.966325    48 layer_factory.hpp:93] Creating layer conv4_2/dwise/bn
I0410 05:45:49.966333    48 net.cpp:110] Creating Layer conv4_2/dwise/bn
I0410 05:45:49.966338    48 net.cpp:451] conv4_2/dwise/bn <- conv4_2/dwise
I0410 05:45:49.966344    48 net.cpp:425] conv4_2/dwise/bn -> conv4_2/dwise/bn
I0410 05:45:49.966961    48 net.cpp:160] Setting up conv4_2/dwise/bn
I0410 05:45:49.966971    48 net.cpp:167] Top shape: 1 192 45 60 (518400)
I0410 05:45:49.966977    48 net.cpp:175] Memory required for data: 225849664
I0410 05:45:49.966987    48 layer_factory.hpp:93] Creating layer relu4_2/dwise
I0410 05:45:49.966996    48 net.cpp:110] Creating Layer relu4_2/dwise
I0410 05:45:49.967001    48 net.cpp:451] relu4_2/dwise <- conv4_2/dwise/bn
I0410 05:45:49.967007    48 net.cpp:412] relu4_2/dwise -> conv4_2/dwise/bn (in-place)
I0410 05:45:49.967015    48 net.cpp:160] Setting up relu4_2/dwise
I0410 05:45:49.967021    48 net.cpp:167] Top shape: 1 192 45 60 (518400)
I0410 05:45:49.967026    48 net.cpp:175] Memory required for data: 227923264
I0410 05:45:49.967031    48 layer_factory.hpp:93] Creating layer conv4_2/linear
I0410 05:45:49.967038    48 net.cpp:110] Creating Layer conv4_2/linear
I0410 05:45:49.967044    48 net.cpp:451] conv4_2/linear <- conv4_2/dwise/bn
I0410 05:45:49.967051    48 net.cpp:425] conv4_2/linear -> conv4_2/linear
I0410 05:45:49.967284    48 net.cpp:160] Setting up conv4_2/linear
I0410 05:45:49.967293    48 net.cpp:167] Top shape: 1 32 45 60 (86400)
I0410 05:45:49.967299    48 net.cpp:175] Memory required for data: 228268864
I0410 05:45:49.967305    48 layer_factory.hpp:93] Creating layer conv4_2/linear/bn
I0410 05:45:49.967314    48 net.cpp:110] Creating Layer conv4_2/linear/bn
I0410 05:45:49.967319    48 net.cpp:451] conv4_2/linear/bn <- conv4_2/linear
I0410 05:45:49.967325    48 net.cpp:425] conv4_2/linear/bn -> conv4_2/linear/bn
I0410 05:45:49.967929    48 net.cpp:160] Setting up conv4_2/linear/bn
I0410 05:45:49.967939    48 net.cpp:167] Top shape: 1 32 45 60 (86400)
I0410 05:45:49.967945    48 net.cpp:175] Memory required for data: 228614464
I0410 05:45:49.967954    48 layer_factory.hpp:93] Creating layer block_4_2
I0410 05:45:49.967963    48 net.cpp:110] Creating Layer block_4_2
I0410 05:45:49.967967    48 net.cpp:451] block_4_2 <- block_4_1_block_4_1_0_split_1
I0410 05:45:49.967972    48 net.cpp:451] block_4_2 <- conv4_2/linear/bn
I0410 05:45:49.967978    48 net.cpp:425] block_4_2 -> block_4_2
I0410 05:45:49.968000    48 net.cpp:160] Setting up block_4_2
I0410 05:45:49.968008    48 net.cpp:167] Top shape: 1 32 45 60 (86400)
I0410 05:45:49.968014    48 net.cpp:175] Memory required for data: 228960064
I0410 05:45:49.968016    48 layer_factory.hpp:93] Creating layer conv4_3/expand
I0410 05:45:49.968024    48 net.cpp:110] Creating Layer conv4_3/expand
I0410 05:45:49.968030    48 net.cpp:451] conv4_3/expand <- block_4_2
I0410 05:45:49.968036    48 net.cpp:425] conv4_3/expand -> conv4_3/expand
I0410 05:45:49.968266    48 net.cpp:160] Setting up conv4_3/expand
I0410 05:45:49.968274    48 net.cpp:167] Top shape: 1 192 45 60 (518400)
I0410 05:45:49.968281    48 net.cpp:175] Memory required for data: 231033664
I0410 05:45:49.968287    48 layer_factory.hpp:93] Creating layer conv4_3/expand/bn
I0410 05:45:49.968295    48 net.cpp:110] Creating Layer conv4_3/expand/bn
I0410 05:45:49.968300    48 net.cpp:451] conv4_3/expand/bn <- conv4_3/expand
I0410 05:45:49.968307    48 net.cpp:425] conv4_3/expand/bn -> conv4_3/expand/bn
I0410 05:45:49.968909    48 net.cpp:160] Setting up conv4_3/expand/bn
I0410 05:45:49.968921    48 net.cpp:167] Top shape: 1 192 45 60 (518400)
I0410 05:45:49.968927    48 net.cpp:175] Memory required for data: 233107264
I0410 05:45:49.968937    48 layer_factory.hpp:93] Creating layer relu4_3/expand
I0410 05:45:49.968943    48 net.cpp:110] Creating Layer relu4_3/expand
I0410 05:45:49.968948    48 net.cpp:451] relu4_3/expand <- conv4_3/expand/bn
I0410 05:45:49.968955    48 net.cpp:412] relu4_3/expand -> conv4_3/expand/bn (in-place)
I0410 05:45:49.968961    48 net.cpp:160] Setting up relu4_3/expand
I0410 05:45:49.968969    48 net.cpp:167] Top shape: 1 192 45 60 (518400)
I0410 05:45:49.968974    48 net.cpp:175] Memory required for data: 235180864
I0410 05:45:49.968978    48 layer_factory.hpp:93] Creating layer conv4_3/dwise
I0410 05:45:49.968986    48 net.cpp:110] Creating Layer conv4_3/dwise
I0410 05:45:49.968991    48 net.cpp:451] conv4_3/dwise <- conv4_3/expand/bn
I0410 05:45:49.968995    48 net.cpp:425] conv4_3/dwise -> conv4_3/dwise
I0410 05:45:49.969213    48 net.cpp:160] Setting up conv4_3/dwise
I0410 05:45:49.969221    48 net.cpp:167] Top shape: 1 192 45 60 (518400)
I0410 05:45:49.969230    48 net.cpp:175] Memory required for data: 237254464
I0410 05:45:49.969238    48 layer_factory.hpp:93] Creating layer conv4_3/dwise/bn
I0410 05:45:49.969247    48 net.cpp:110] Creating Layer conv4_3/dwise/bn
I0410 05:45:49.969252    48 net.cpp:451] conv4_3/dwise/bn <- conv4_3/dwise
I0410 05:45:49.969259    48 net.cpp:425] conv4_3/dwise/bn -> conv4_3/dwise/bn
I0410 05:45:49.969825    48 net.cpp:160] Setting up conv4_3/dwise/bn
I0410 05:45:49.969835    48 net.cpp:167] Top shape: 1 192 45 60 (518400)
I0410 05:45:49.969841    48 net.cpp:175] Memory required for data: 239328064
I0410 05:45:49.969849    48 layer_factory.hpp:93] Creating layer relu4_3/dwise
I0410 05:45:49.969858    48 net.cpp:110] Creating Layer relu4_3/dwise
I0410 05:45:49.969863    48 net.cpp:451] relu4_3/dwise <- conv4_3/dwise/bn
I0410 05:45:49.969869    48 net.cpp:412] relu4_3/dwise -> conv4_3/dwise/bn (in-place)
I0410 05:45:49.969877    48 net.cpp:160] Setting up relu4_3/dwise
I0410 05:45:49.969880    48 net.cpp:167] Top shape: 1 192 45 60 (518400)
I0410 05:45:49.969885    48 net.cpp:175] Memory required for data: 241401664
I0410 05:45:49.969889    48 layer_factory.hpp:93] Creating layer conv4_3/linear
I0410 05:45:49.969897    48 net.cpp:110] Creating Layer conv4_3/linear
I0410 05:45:49.969900    48 net.cpp:451] conv4_3/linear <- conv4_3/dwise/bn
I0410 05:45:49.969905    48 net.cpp:425] conv4_3/linear -> conv4_3/linear
I0410 05:45:49.971004    48 net.cpp:160] Setting up conv4_3/linear
I0410 05:45:49.971016    48 net.cpp:167] Top shape: 1 64 45 60 (172800)
I0410 05:45:49.971024    48 net.cpp:175] Memory required for data: 242092864
I0410 05:45:49.971030    48 layer_factory.hpp:93] Creating layer conv4_3/linear/bn
I0410 05:45:49.971040    48 net.cpp:110] Creating Layer conv4_3/linear/bn
I0410 05:45:49.971045    48 net.cpp:451] conv4_3/linear/bn <- conv4_3/linear
I0410 05:45:49.971052    48 net.cpp:425] conv4_3/linear/bn -> conv4_3/linear/bn
I0410 05:45:49.971654    48 net.cpp:160] Setting up conv4_3/linear/bn
I0410 05:45:49.971664    48 net.cpp:167] Top shape: 1 64 45 60 (172800)
I0410 05:45:49.971671    48 net.cpp:175] Memory required for data: 242784064
I0410 05:45:49.971685    48 layer_factory.hpp:93] Creating layer conv4_3/linear/bn_conv4_3/linear/bn_0_split
I0410 05:45:49.971694    48 net.cpp:110] Creating Layer conv4_3/linear/bn_conv4_3/linear/bn_0_split
I0410 05:45:49.971699    48 net.cpp:451] conv4_3/linear/bn_conv4_3/linear/bn_0_split <- conv4_3/linear/bn
I0410 05:45:49.971704    48 net.cpp:425] conv4_3/linear/bn_conv4_3/linear/bn_0_split -> conv4_3/linear/bn_conv4_3/linear/bn_0_split_0
I0410 05:45:49.971712    48 net.cpp:425] conv4_3/linear/bn_conv4_3/linear/bn_0_split -> conv4_3/linear/bn_conv4_3/linear/bn_0_split_1
I0410 05:45:49.971745    48 net.cpp:160] Setting up conv4_3/linear/bn_conv4_3/linear/bn_0_split
I0410 05:45:49.971751    48 net.cpp:167] Top shape: 1 64 45 60 (172800)
I0410 05:45:49.971756    48 net.cpp:167] Top shape: 1 64 45 60 (172800)
I0410 05:45:49.971760    48 net.cpp:175] Memory required for data: 244166464
I0410 05:45:49.971765    48 layer_factory.hpp:93] Creating layer conv4_4/expand
I0410 05:45:49.971772    48 net.cpp:110] Creating Layer conv4_4/expand
I0410 05:45:49.971776    48 net.cpp:451] conv4_4/expand <- conv4_3/linear/bn_conv4_3/linear/bn_0_split_0
I0410 05:45:49.971783    48 net.cpp:425] conv4_4/expand -> conv4_4/expand
I0410 05:45:49.972196    48 net.cpp:160] Setting up conv4_4/expand
I0410 05:45:49.972206    48 net.cpp:167] Top shape: 1 384 45 60 (1036800)
I0410 05:45:49.972213    48 net.cpp:175] Memory required for data: 248313664
I0410 05:45:49.972218    48 layer_factory.hpp:93] Creating layer conv4_4/expand/bn
I0410 05:45:49.972227    48 net.cpp:110] Creating Layer conv4_4/expand/bn
I0410 05:45:49.972234    48 net.cpp:451] conv4_4/expand/bn <- conv4_4/expand
I0410 05:45:49.972240    48 net.cpp:425] conv4_4/expand/bn -> conv4_4/expand/bn
I0410 05:45:49.972754    48 net.cpp:160] Setting up conv4_4/expand/bn
I0410 05:45:49.972764    48 net.cpp:167] Top shape: 1 384 45 60 (1036800)
I0410 05:45:49.972770    48 net.cpp:175] Memory required for data: 252460864
I0410 05:45:49.972780    48 layer_factory.hpp:93] Creating layer relu4_4/expand
I0410 05:45:49.972786    48 net.cpp:110] Creating Layer relu4_4/expand
I0410 05:45:49.972791    48 net.cpp:451] relu4_4/expand <- conv4_4/expand/bn
I0410 05:45:49.972796    48 net.cpp:412] relu4_4/expand -> conv4_4/expand/bn (in-place)
I0410 05:45:49.972805    48 net.cpp:160] Setting up relu4_4/expand
I0410 05:45:49.972807    48 net.cpp:167] Top shape: 1 384 45 60 (1036800)
I0410 05:45:49.972812    48 net.cpp:175] Memory required for data: 256608064
I0410 05:45:49.972816    48 layer_factory.hpp:93] Creating layer conv4_4/dwise
I0410 05:45:49.972824    48 net.cpp:110] Creating Layer conv4_4/dwise
I0410 05:45:49.972828    48 net.cpp:451] conv4_4/dwise <- conv4_4/expand/bn
I0410 05:45:49.972833    48 net.cpp:425] conv4_4/dwise -> conv4_4/dwise
I0410 05:45:49.973035    48 net.cpp:160] Setting up conv4_4/dwise
I0410 05:45:49.973043    48 net.cpp:167] Top shape: 1 384 45 60 (1036800)
I0410 05:45:49.973049    48 net.cpp:175] Memory required for data: 260755264
I0410 05:45:49.973055    48 layer_factory.hpp:93] Creating layer conv4_4/dwise/bn
I0410 05:45:49.973063    48 net.cpp:110] Creating Layer conv4_4/dwise/bn
I0410 05:45:49.973069    48 net.cpp:451] conv4_4/dwise/bn <- conv4_4/dwise
I0410 05:45:49.973078    48 net.cpp:425] conv4_4/dwise/bn -> conv4_4/dwise/bn
I0410 05:45:49.973579    48 net.cpp:160] Setting up conv4_4/dwise/bn
I0410 05:45:49.973589    48 net.cpp:167] Top shape: 1 384 45 60 (1036800)
I0410 05:45:49.973595    48 net.cpp:175] Memory required for data: 264902464
I0410 05:45:49.973604    48 layer_factory.hpp:93] Creating layer relu4_4/dwise
I0410 05:45:49.973613    48 net.cpp:110] Creating Layer relu4_4/dwise
I0410 05:45:49.973618    48 net.cpp:451] relu4_4/dwise <- conv4_4/dwise/bn
I0410 05:45:49.973624    48 net.cpp:412] relu4_4/dwise -> conv4_4/dwise/bn (in-place)
I0410 05:45:49.973631    48 net.cpp:160] Setting up relu4_4/dwise
I0410 05:45:49.973634    48 net.cpp:167] Top shape: 1 384 45 60 (1036800)
I0410 05:45:49.973640    48 net.cpp:175] Memory required for data: 269049664
I0410 05:45:49.973644    48 layer_factory.hpp:93] Creating layer conv4_4/linear
I0410 05:45:49.973651    48 net.cpp:110] Creating Layer conv4_4/linear
I0410 05:45:49.973655    48 net.cpp:451] conv4_4/linear <- conv4_4/dwise/bn
I0410 05:45:49.973661    48 net.cpp:425] conv4_4/linear -> conv4_4/linear
I0410 05:45:49.974062    48 net.cpp:160] Setting up conv4_4/linear
I0410 05:45:49.974071    48 net.cpp:167] Top shape: 1 64 45 60 (172800)
I0410 05:45:49.974077    48 net.cpp:175] Memory required for data: 269740864
I0410 05:45:49.974083    48 layer_factory.hpp:93] Creating layer conv4_4/linear/bn
I0410 05:45:49.974092    48 net.cpp:110] Creating Layer conv4_4/linear/bn
I0410 05:45:49.974097    48 net.cpp:451] conv4_4/linear/bn <- conv4_4/linear
I0410 05:45:49.974103    48 net.cpp:425] conv4_4/linear/bn -> conv4_4/linear/bn
I0410 05:45:49.974684    48 net.cpp:160] Setting up conv4_4/linear/bn
I0410 05:45:49.974694    48 net.cpp:167] Top shape: 1 64 45 60 (172800)
I0410 05:45:49.974700    48 net.cpp:175] Memory required for data: 270432064
I0410 05:45:49.974709    48 layer_factory.hpp:93] Creating layer block_4_4
I0410 05:45:49.974720    48 net.cpp:110] Creating Layer block_4_4
I0410 05:45:49.974723    48 net.cpp:451] block_4_4 <- conv4_3/linear/bn_conv4_3/linear/bn_0_split_1
I0410 05:45:49.974728    48 net.cpp:451] block_4_4 <- conv4_4/linear/bn
I0410 05:45:49.974735    48 net.cpp:425] block_4_4 -> block_4_4
I0410 05:45:49.974756    48 net.cpp:160] Setting up block_4_4
I0410 05:45:49.974762    48 net.cpp:167] Top shape: 1 64 45 60 (172800)
I0410 05:45:49.974767    48 net.cpp:175] Memory required for data: 271123264
I0410 05:45:49.974771    48 layer_factory.hpp:93] Creating layer block_4_4_block_4_4_0_split
I0410 05:45:49.974777    48 net.cpp:110] Creating Layer block_4_4_block_4_4_0_split
I0410 05:45:49.974781    48 net.cpp:451] block_4_4_block_4_4_0_split <- block_4_4
I0410 05:45:49.974786    48 net.cpp:425] block_4_4_block_4_4_0_split -> block_4_4_block_4_4_0_split_0
I0410 05:45:49.974793    48 net.cpp:425] block_4_4_block_4_4_0_split -> block_4_4_block_4_4_0_split_1
I0410 05:45:49.974822    48 net.cpp:160] Setting up block_4_4_block_4_4_0_split
I0410 05:45:49.974830    48 net.cpp:167] Top shape: 1 64 45 60 (172800)
I0410 05:45:49.974838    48 net.cpp:167] Top shape: 1 64 45 60 (172800)
I0410 05:45:49.974841    48 net.cpp:175] Memory required for data: 272505664
I0410 05:45:49.974845    48 layer_factory.hpp:93] Creating layer conv4_5/expand
I0410 05:45:49.974854    48 net.cpp:110] Creating Layer conv4_5/expand
I0410 05:45:49.974859    48 net.cpp:451] conv4_5/expand <- block_4_4_block_4_4_0_split_0
I0410 05:45:49.974865    48 net.cpp:425] conv4_5/expand -> conv4_5/expand
I0410 05:45:49.975270    48 net.cpp:160] Setting up conv4_5/expand
I0410 05:45:49.975281    48 net.cpp:167] Top shape: 1 384 45 60 (1036800)
I0410 05:45:49.975286    48 net.cpp:175] Memory required for data: 276652864
I0410 05:45:49.975292    48 layer_factory.hpp:93] Creating layer conv4_5/expand/bn
I0410 05:45:49.975301    48 net.cpp:110] Creating Layer conv4_5/expand/bn
I0410 05:45:49.975306    48 net.cpp:451] conv4_5/expand/bn <- conv4_5/expand
I0410 05:45:49.975311    48 net.cpp:425] conv4_5/expand/bn -> conv4_5/expand/bn
I0410 05:45:49.975806    48 net.cpp:160] Setting up conv4_5/expand/bn
I0410 05:45:49.975817    48 net.cpp:167] Top shape: 1 384 45 60 (1036800)
I0410 05:45:49.975823    48 net.cpp:175] Memory required for data: 280800064
I0410 05:45:49.975832    48 layer_factory.hpp:93] Creating layer relu4_5/expand
I0410 05:45:49.975838    48 net.cpp:110] Creating Layer relu4_5/expand
I0410 05:45:49.975842    48 net.cpp:451] relu4_5/expand <- conv4_5/expand/bn
I0410 05:45:49.975848    48 net.cpp:412] relu4_5/expand -> conv4_5/expand/bn (in-place)
I0410 05:45:49.975855    48 net.cpp:160] Setting up relu4_5/expand
I0410 05:45:49.975859    48 net.cpp:167] Top shape: 1 384 45 60 (1036800)
I0410 05:45:49.975863    48 net.cpp:175] Memory required for data: 284947264
I0410 05:45:49.975867    48 layer_factory.hpp:93] Creating layer conv4_5/dwise
I0410 05:45:49.975875    48 net.cpp:110] Creating Layer conv4_5/dwise
I0410 05:45:49.975878    48 net.cpp:451] conv4_5/dwise <- conv4_5/expand/bn
I0410 05:45:49.975884    48 net.cpp:425] conv4_5/dwise -> conv4_5/dwise
I0410 05:45:49.976086    48 net.cpp:160] Setting up conv4_5/dwise
I0410 05:45:49.976094    48 net.cpp:167] Top shape: 1 384 45 60 (1036800)
I0410 05:45:49.976100    48 net.cpp:175] Memory required for data: 289094464
I0410 05:45:49.976106    48 layer_factory.hpp:93] Creating layer conv4_5/dwise/bn
I0410 05:45:49.976115    48 net.cpp:110] Creating Layer conv4_5/dwise/bn
I0410 05:45:49.976119    48 net.cpp:451] conv4_5/dwise/bn <- conv4_5/dwise
I0410 05:45:49.976126    48 net.cpp:425] conv4_5/dwise/bn -> conv4_5/dwise/bn
I0410 05:45:49.976637    48 net.cpp:160] Setting up conv4_5/dwise/bn
I0410 05:45:49.976647    48 net.cpp:167] Top shape: 1 384 45 60 (1036800)
I0410 05:45:49.976653    48 net.cpp:175] Memory required for data: 293241664
I0410 05:45:49.976662    48 layer_factory.hpp:93] Creating layer relu4_5/dwise
I0410 05:45:49.976670    48 net.cpp:110] Creating Layer relu4_5/dwise
I0410 05:45:49.976673    48 net.cpp:451] relu4_5/dwise <- conv4_5/dwise/bn
I0410 05:45:49.976680    48 net.cpp:412] relu4_5/dwise -> conv4_5/dwise/bn (in-place)
I0410 05:45:49.976686    48 net.cpp:160] Setting up relu4_5/dwise
I0410 05:45:49.976691    48 net.cpp:167] Top shape: 1 384 45 60 (1036800)
I0410 05:45:49.976694    48 net.cpp:175] Memory required for data: 297388864
I0410 05:45:49.976698    48 layer_factory.hpp:93] Creating layer conv4_5/linear
I0410 05:45:49.976706    48 net.cpp:110] Creating Layer conv4_5/linear
I0410 05:45:49.976709    48 net.cpp:451] conv4_5/linear <- conv4_5/dwise/bn
I0410 05:45:49.976714    48 net.cpp:425] conv4_5/linear -> conv4_5/linear
I0410 05:45:49.977120    48 net.cpp:160] Setting up conv4_5/linear
I0410 05:45:49.977131    48 net.cpp:167] Top shape: 1 64 45 60 (172800)
I0410 05:45:49.977138    48 net.cpp:175] Memory required for data: 298080064
I0410 05:45:49.977144    48 layer_factory.hpp:93] Creating layer conv4_5/linear/bn
I0410 05:45:49.977151    48 net.cpp:110] Creating Layer conv4_5/linear/bn
I0410 05:45:49.977159    48 net.cpp:451] conv4_5/linear/bn <- conv4_5/linear
I0410 05:45:49.977166    48 net.cpp:425] conv4_5/linear/bn -> conv4_5/linear/bn
I0410 05:45:49.977748    48 net.cpp:160] Setting up conv4_5/linear/bn
I0410 05:45:49.977758    48 net.cpp:167] Top shape: 1 64 45 60 (172800)
I0410 05:45:49.977764    48 net.cpp:175] Memory required for data: 298771264
I0410 05:45:49.977772    48 layer_factory.hpp:93] Creating layer block_4_5
I0410 05:45:49.977779    48 net.cpp:110] Creating Layer block_4_5
I0410 05:45:49.977784    48 net.cpp:451] block_4_5 <- block_4_4_block_4_4_0_split_1
I0410 05:45:49.977789    48 net.cpp:451] block_4_5 <- conv4_5/linear/bn
I0410 05:45:49.977794    48 net.cpp:425] block_4_5 -> block_4_5
I0410 05:45:49.977816    48 net.cpp:160] Setting up block_4_5
I0410 05:45:49.977823    48 net.cpp:167] Top shape: 1 64 45 60 (172800)
I0410 05:45:49.977829    48 net.cpp:175] Memory required for data: 299462464
I0410 05:45:49.977833    48 layer_factory.hpp:93] Creating layer block_4_5_block_4_5_0_split
I0410 05:45:49.977838    48 net.cpp:110] Creating Layer block_4_5_block_4_5_0_split
I0410 05:45:49.977843    48 net.cpp:451] block_4_5_block_4_5_0_split <- block_4_5
I0410 05:45:49.977849    48 net.cpp:425] block_4_5_block_4_5_0_split -> block_4_5_block_4_5_0_split_0
I0410 05:45:49.977854    48 net.cpp:425] block_4_5_block_4_5_0_split -> block_4_5_block_4_5_0_split_1
I0410 05:45:49.977885    48 net.cpp:160] Setting up block_4_5_block_4_5_0_split
I0410 05:45:49.977893    48 net.cpp:167] Top shape: 1 64 45 60 (172800)
I0410 05:45:49.977900    48 net.cpp:167] Top shape: 1 64 45 60 (172800)
I0410 05:45:49.977905    48 net.cpp:175] Memory required for data: 300844864
I0410 05:45:49.977908    48 layer_factory.hpp:93] Creating layer conv4_6/expand
I0410 05:45:49.977916    48 net.cpp:110] Creating Layer conv4_6/expand
I0410 05:45:49.977921    48 net.cpp:451] conv4_6/expand <- block_4_5_block_4_5_0_split_0
I0410 05:45:49.977926    48 net.cpp:425] conv4_6/expand -> conv4_6/expand
I0410 05:45:49.978360    48 net.cpp:160] Setting up conv4_6/expand
I0410 05:45:49.978371    48 net.cpp:167] Top shape: 1 384 45 60 (1036800)
I0410 05:45:49.978377    48 net.cpp:175] Memory required for data: 304992064
I0410 05:45:49.978384    48 layer_factory.hpp:93] Creating layer conv4_6/expand/bn
I0410 05:45:49.978392    48 net.cpp:110] Creating Layer conv4_6/expand/bn
I0410 05:45:49.978397    48 net.cpp:451] conv4_6/expand/bn <- conv4_6/expand
I0410 05:45:49.978404    48 net.cpp:425] conv4_6/expand/bn -> conv4_6/expand/bn
I0410 05:45:49.978901    48 net.cpp:160] Setting up conv4_6/expand/bn
I0410 05:45:49.978911    48 net.cpp:167] Top shape: 1 384 45 60 (1036800)
I0410 05:45:49.978919    48 net.cpp:175] Memory required for data: 309139264
I0410 05:45:49.978926    48 layer_factory.hpp:93] Creating layer relu4_6/expand
I0410 05:45:49.978935    48 net.cpp:110] Creating Layer relu4_6/expand
I0410 05:45:49.978940    48 net.cpp:451] relu4_6/expand <- conv4_6/expand/bn
I0410 05:45:49.978947    48 net.cpp:412] relu4_6/expand -> conv4_6/expand/bn (in-place)
I0410 05:45:49.978955    48 net.cpp:160] Setting up relu4_6/expand
I0410 05:45:49.978957    48 net.cpp:167] Top shape: 1 384 45 60 (1036800)
I0410 05:45:49.978962    48 net.cpp:175] Memory required for data: 313286464
I0410 05:45:49.978966    48 layer_factory.hpp:93] Creating layer conv4_6/dwise
I0410 05:45:49.978974    48 net.cpp:110] Creating Layer conv4_6/dwise
I0410 05:45:49.978978    48 net.cpp:451] conv4_6/dwise <- conv4_6/expand/bn
I0410 05:45:49.978983    48 net.cpp:425] conv4_6/dwise -> conv4_6/dwise
I0410 05:45:49.979190    48 net.cpp:160] Setting up conv4_6/dwise
I0410 05:45:49.979198    48 net.cpp:167] Top shape: 1 384 45 60 (1036800)
I0410 05:45:49.979204    48 net.cpp:175] Memory required for data: 317433664
I0410 05:45:49.979210    48 layer_factory.hpp:93] Creating layer conv4_6/dwise/bn
I0410 05:45:49.979219    48 net.cpp:110] Creating Layer conv4_6/dwise/bn
I0410 05:45:49.979223    48 net.cpp:451] conv4_6/dwise/bn <- conv4_6/dwise
I0410 05:45:49.979230    48 net.cpp:425] conv4_6/dwise/bn -> conv4_6/dwise/bn
I0410 05:45:49.979722    48 net.cpp:160] Setting up conv4_6/dwise/bn
I0410 05:45:49.979732    48 net.cpp:167] Top shape: 1 384 45 60 (1036800)
I0410 05:45:49.979738    48 net.cpp:175] Memory required for data: 321580864
I0410 05:45:49.979748    48 layer_factory.hpp:93] Creating layer relu4_6/dwise
I0410 05:45:49.979756    48 net.cpp:110] Creating Layer relu4_6/dwise
I0410 05:45:49.979760    48 net.cpp:451] relu4_6/dwise <- conv4_6/dwise/bn
I0410 05:45:49.979766    48 net.cpp:412] relu4_6/dwise -> conv4_6/dwise/bn (in-place)
I0410 05:45:49.979773    48 net.cpp:160] Setting up relu4_6/dwise
I0410 05:45:49.979776    48 net.cpp:167] Top shape: 1 384 45 60 (1036800)
I0410 05:45:49.979781    48 net.cpp:175] Memory required for data: 325728064
I0410 05:45:49.979785    48 layer_factory.hpp:93] Creating layer conv4_6/linear
I0410 05:45:49.979792    48 net.cpp:110] Creating Layer conv4_6/linear
I0410 05:45:49.979796    48 net.cpp:451] conv4_6/linear <- conv4_6/dwise/bn
I0410 05:45:49.979801    48 net.cpp:425] conv4_6/linear -> conv4_6/linear
I0410 05:45:49.980206    48 net.cpp:160] Setting up conv4_6/linear
I0410 05:45:49.980216    48 net.cpp:167] Top shape: 1 64 45 60 (172800)
I0410 05:45:49.980222    48 net.cpp:175] Memory required for data: 326419264
I0410 05:45:49.980228    48 layer_factory.hpp:93] Creating layer conv4_6/linear/bn
I0410 05:45:49.980237    48 net.cpp:110] Creating Layer conv4_6/linear/bn
I0410 05:45:49.980244    48 net.cpp:451] conv4_6/linear/bn <- conv4_6/linear
I0410 05:45:49.980252    48 net.cpp:425] conv4_6/linear/bn -> conv4_6/linear/bn
I0410 05:45:49.981000    48 net.cpp:160] Setting up conv4_6/linear/bn
I0410 05:45:49.981012    48 net.cpp:167] Top shape: 1 64 45 60 (172800)
I0410 05:45:49.981019    48 net.cpp:175] Memory required for data: 327110464
I0410 05:45:49.981029    48 layer_factory.hpp:93] Creating layer block_4_6
I0410 05:45:49.981039    48 net.cpp:110] Creating Layer block_4_6
I0410 05:45:49.981043    48 net.cpp:451] block_4_6 <- block_4_5_block_4_5_0_split_1
I0410 05:45:49.981048    48 net.cpp:451] block_4_6 <- conv4_6/linear/bn
I0410 05:45:49.981055    48 net.cpp:425] block_4_6 -> block_4_6
I0410 05:45:49.981077    48 net.cpp:160] Setting up block_4_6
I0410 05:45:49.981083    48 net.cpp:167] Top shape: 1 64 45 60 (172800)
I0410 05:45:49.981089    48 net.cpp:175] Memory required for data: 327801664
I0410 05:45:49.981092    48 layer_factory.hpp:93] Creating layer conv4_7/expand
I0410 05:45:49.981101    48 net.cpp:110] Creating Layer conv4_7/expand
I0410 05:45:49.981104    48 net.cpp:451] conv4_7/expand <- block_4_6
I0410 05:45:49.981110    48 net.cpp:425] conv4_7/expand -> conv4_7/expand
I0410 05:45:49.981513    48 net.cpp:160] Setting up conv4_7/expand
I0410 05:45:49.981521    48 net.cpp:167] Top shape: 1 384 45 60 (1036800)
I0410 05:45:49.981528    48 net.cpp:175] Memory required for data: 331948864
I0410 05:45:49.981534    48 layer_factory.hpp:93] Creating layer conv4_7/expand/bn
I0410 05:45:49.981542    48 net.cpp:110] Creating Layer conv4_7/expand/bn
I0410 05:45:49.981550    48 net.cpp:451] conv4_7/expand/bn <- conv4_7/expand
I0410 05:45:49.981556    48 net.cpp:425] conv4_7/expand/bn -> conv4_7/expand/bn
I0410 05:45:49.982064    48 net.cpp:160] Setting up conv4_7/expand/bn
I0410 05:45:49.982074    48 net.cpp:167] Top shape: 1 384 45 60 (1036800)
I0410 05:45:49.982080    48 net.cpp:175] Memory required for data: 336096064
I0410 05:45:49.982089    48 layer_factory.hpp:93] Creating layer relu4_7/expand
I0410 05:45:49.982095    48 net.cpp:110] Creating Layer relu4_7/expand
I0410 05:45:49.982100    48 net.cpp:451] relu4_7/expand <- conv4_7/expand/bn
I0410 05:45:49.982105    48 net.cpp:412] relu4_7/expand -> conv4_7/expand/bn (in-place)
I0410 05:45:49.982112    48 net.cpp:160] Setting up relu4_7/expand
I0410 05:45:49.982116    48 net.cpp:167] Top shape: 1 384 45 60 (1036800)
I0410 05:45:49.982121    48 net.cpp:175] Memory required for data: 340243264
I0410 05:45:49.982125    48 layer_factory.hpp:93] Creating layer conv4_7/expand/bn_relu4_7/expand_0_split
I0410 05:45:49.982131    48 net.cpp:110] Creating Layer conv4_7/expand/bn_relu4_7/expand_0_split
I0410 05:45:49.982134    48 net.cpp:451] conv4_7/expand/bn_relu4_7/expand_0_split <- conv4_7/expand/bn
I0410 05:45:49.982139    48 net.cpp:425] conv4_7/expand/bn_relu4_7/expand_0_split -> conv4_7/expand/bn_relu4_7/expand_0_split_0
I0410 05:45:49.982146    48 net.cpp:425] conv4_7/expand/bn_relu4_7/expand_0_split -> conv4_7/expand/bn_relu4_7/expand_0_split_1
I0410 05:45:49.982151    48 net.cpp:425] conv4_7/expand/bn_relu4_7/expand_0_split -> conv4_7/expand/bn_relu4_7/expand_0_split_2
I0410 05:45:49.982157    48 net.cpp:425] conv4_7/expand/bn_relu4_7/expand_0_split -> conv4_7/expand/bn_relu4_7/expand_0_split_3
I0410 05:45:49.982210    48 net.cpp:160] Setting up conv4_7/expand/bn_relu4_7/expand_0_split
I0410 05:45:49.982218    48 net.cpp:167] Top shape: 1 384 45 60 (1036800)
I0410 05:45:49.982224    48 net.cpp:167] Top shape: 1 384 45 60 (1036800)
I0410 05:45:49.982228    48 net.cpp:167] Top shape: 1 384 45 60 (1036800)
I0410 05:45:49.982234    48 net.cpp:167] Top shape: 1 384 45 60 (1036800)
I0410 05:45:49.982239    48 net.cpp:175] Memory required for data: 356832064
I0410 05:45:49.982241    48 layer_factory.hpp:93] Creating layer conv4_7/dwise
I0410 05:45:49.982250    48 net.cpp:110] Creating Layer conv4_7/dwise
I0410 05:45:49.982255    48 net.cpp:451] conv4_7/dwise <- conv4_7/expand/bn_relu4_7/expand_0_split_0
I0410 05:45:49.982261    48 net.cpp:425] conv4_7/dwise -> conv4_7/dwise
I0410 05:45:49.982465    48 net.cpp:160] Setting up conv4_7/dwise
I0410 05:45:49.982473    48 net.cpp:167] Top shape: 1 384 23 30 (264960)
I0410 05:45:49.982479    48 net.cpp:175] Memory required for data: 357891904
I0410 05:45:49.982484    48 layer_factory.hpp:93] Creating layer conv4_7/dwise/bn
I0410 05:45:49.982492    48 net.cpp:110] Creating Layer conv4_7/dwise/bn
I0410 05:45:49.982497    48 net.cpp:451] conv4_7/dwise/bn <- conv4_7/dwise
I0410 05:45:49.982507    48 net.cpp:425] conv4_7/dwise/bn -> conv4_7/dwise/bn
I0410 05:45:49.983011    48 net.cpp:160] Setting up conv4_7/dwise/bn
I0410 05:45:49.983021    48 net.cpp:167] Top shape: 1 384 23 30 (264960)
I0410 05:45:49.983027    48 net.cpp:175] Memory required for data: 358951744
I0410 05:45:49.983036    48 layer_factory.hpp:93] Creating layer relu4_7/dwise
I0410 05:45:49.983042    48 net.cpp:110] Creating Layer relu4_7/dwise
I0410 05:45:49.983047    48 net.cpp:451] relu4_7/dwise <- conv4_7/dwise/bn
I0410 05:45:49.983052    48 net.cpp:412] relu4_7/dwise -> conv4_7/dwise/bn (in-place)
I0410 05:45:49.983059    48 net.cpp:160] Setting up relu4_7/dwise
I0410 05:45:49.983063    48 net.cpp:167] Top shape: 1 384 23 30 (264960)
I0410 05:45:49.983067    48 net.cpp:175] Memory required for data: 360011584
I0410 05:45:49.983072    48 layer_factory.hpp:93] Creating layer conv4_7/linear
I0410 05:45:49.983079    48 net.cpp:110] Creating Layer conv4_7/linear
I0410 05:45:49.983083    48 net.cpp:451] conv4_7/linear <- conv4_7/dwise/bn
I0410 05:45:49.983088    48 net.cpp:425] conv4_7/linear -> conv4_7/linear
I0410 05:45:49.984359    48 net.cpp:160] Setting up conv4_7/linear
I0410 05:45:49.984371    48 net.cpp:167] Top shape: 1 96 23 30 (66240)
I0410 05:45:49.984378    48 net.cpp:175] Memory required for data: 360276544
I0410 05:45:49.984385    48 layer_factory.hpp:93] Creating layer conv4_7/linear/bn
I0410 05:45:49.984395    48 net.cpp:110] Creating Layer conv4_7/linear/bn
I0410 05:45:49.984400    48 net.cpp:451] conv4_7/linear/bn <- conv4_7/linear
I0410 05:45:49.984407    48 net.cpp:425] conv4_7/linear/bn -> conv4_7/linear/bn
I0410 05:45:49.985034    48 net.cpp:160] Setting up conv4_7/linear/bn
I0410 05:45:49.985044    48 net.cpp:167] Top shape: 1 96 23 30 (66240)
I0410 05:45:49.985051    48 net.cpp:175] Memory required for data: 360541504
I0410 05:45:49.985060    48 layer_factory.hpp:93] Creating layer conv4_7/linear/bn_conv4_7/linear/bn_0_split
I0410 05:45:49.985067    48 net.cpp:110] Creating Layer conv4_7/linear/bn_conv4_7/linear/bn_0_split
I0410 05:45:49.985074    48 net.cpp:451] conv4_7/linear/bn_conv4_7/linear/bn_0_split <- conv4_7/linear/bn
I0410 05:45:49.985080    48 net.cpp:425] conv4_7/linear/bn_conv4_7/linear/bn_0_split -> conv4_7/linear/bn_conv4_7/linear/bn_0_split_0
I0410 05:45:49.985088    48 net.cpp:425] conv4_7/linear/bn_conv4_7/linear/bn_0_split -> conv4_7/linear/bn_conv4_7/linear/bn_0_split_1
I0410 05:45:49.985119    48 net.cpp:160] Setting up conv4_7/linear/bn_conv4_7/linear/bn_0_split
I0410 05:45:49.985126    48 net.cpp:167] Top shape: 1 96 23 30 (66240)
I0410 05:45:49.985131    48 net.cpp:167] Top shape: 1 96 23 30 (66240)
I0410 05:45:49.985136    48 net.cpp:175] Memory required for data: 361071424
I0410 05:45:49.985141    48 layer_factory.hpp:93] Creating layer conv5_1/expand
I0410 05:45:49.985148    48 net.cpp:110] Creating Layer conv5_1/expand
I0410 05:45:49.985152    48 net.cpp:451] conv5_1/expand <- conv4_7/linear/bn_conv4_7/linear/bn_0_split_0
I0410 05:45:49.985159    48 net.cpp:425] conv5_1/expand -> conv5_1/expand
I0410 05:45:49.985850    48 net.cpp:160] Setting up conv5_1/expand
I0410 05:45:49.985860    48 net.cpp:167] Top shape: 1 576 23 30 (397440)
I0410 05:45:49.985867    48 net.cpp:175] Memory required for data: 362661184
I0410 05:45:49.985872    48 layer_factory.hpp:93] Creating layer conv5_1/expand/bn
I0410 05:45:49.985880    48 net.cpp:110] Creating Layer conv5_1/expand/bn
I0410 05:45:49.985885    48 net.cpp:451] conv5_1/expand/bn <- conv5_1/expand
I0410 05:45:49.985891    48 net.cpp:425] conv5_1/expand/bn -> conv5_1/expand/bn
I0410 05:45:49.986511    48 net.cpp:160] Setting up conv5_1/expand/bn
I0410 05:45:49.986522    48 net.cpp:167] Top shape: 1 576 23 30 (397440)
I0410 05:45:49.986528    48 net.cpp:175] Memory required for data: 364250944
I0410 05:45:49.986538    48 layer_factory.hpp:93] Creating layer relu5_1/expand
I0410 05:45:49.986544    48 net.cpp:110] Creating Layer relu5_1/expand
I0410 05:45:49.986552    48 net.cpp:451] relu5_1/expand <- conv5_1/expand/bn
I0410 05:45:49.986557    48 net.cpp:412] relu5_1/expand -> conv5_1/expand/bn (in-place)
I0410 05:45:49.986568    48 net.cpp:160] Setting up relu5_1/expand
I0410 05:45:49.986573    48 net.cpp:167] Top shape: 1 576 23 30 (397440)
I0410 05:45:49.986578    48 net.cpp:175] Memory required for data: 365840704
I0410 05:45:49.986582    48 layer_factory.hpp:93] Creating layer conv5_1/dwise
I0410 05:45:49.986590    48 net.cpp:110] Creating Layer conv5_1/dwise
I0410 05:45:49.986594    48 net.cpp:451] conv5_1/dwise <- conv5_1/expand/bn
I0410 05:45:49.986599    48 net.cpp:425] conv5_1/dwise -> conv5_1/dwise
I0410 05:45:49.986829    48 net.cpp:160] Setting up conv5_1/dwise
I0410 05:45:49.986836    48 net.cpp:167] Top shape: 1 576 23 30 (397440)
I0410 05:45:49.986842    48 net.cpp:175] Memory required for data: 367430464
I0410 05:45:49.986848    48 layer_factory.hpp:93] Creating layer conv5_1/dwise/bn
I0410 05:45:49.986856    48 net.cpp:110] Creating Layer conv5_1/dwise/bn
I0410 05:45:49.986862    48 net.cpp:451] conv5_1/dwise/bn <- conv5_1/dwise
I0410 05:45:49.986872    48 net.cpp:425] conv5_1/dwise/bn -> conv5_1/dwise/bn
I0410 05:45:49.987529    48 net.cpp:160] Setting up conv5_1/dwise/bn
I0410 05:45:49.987540    48 net.cpp:167] Top shape: 1 576 23 30 (397440)
I0410 05:45:49.987547    48 net.cpp:175] Memory required for data: 369020224
I0410 05:45:49.987557    48 layer_factory.hpp:93] Creating layer relu5_1/dwise
I0410 05:45:49.987563    48 net.cpp:110] Creating Layer relu5_1/dwise
I0410 05:45:49.987568    48 net.cpp:451] relu5_1/dwise <- conv5_1/dwise/bn
I0410 05:45:49.987574    48 net.cpp:412] relu5_1/dwise -> conv5_1/dwise/bn (in-place)
I0410 05:45:49.987581    48 net.cpp:160] Setting up relu5_1/dwise
I0410 05:45:49.987584    48 net.cpp:167] Top shape: 1 576 23 30 (397440)
I0410 05:45:49.987591    48 net.cpp:175] Memory required for data: 370609984
I0410 05:45:49.987593    48 layer_factory.hpp:93] Creating layer conv5_1/linear
I0410 05:45:49.987601    48 net.cpp:110] Creating Layer conv5_1/linear
I0410 05:45:49.987604    48 net.cpp:451] conv5_1/linear <- conv5_1/dwise/bn
I0410 05:45:49.987610    48 net.cpp:425] conv5_1/linear -> conv5_1/linear
I0410 05:45:49.988283    48 net.cpp:160] Setting up conv5_1/linear
I0410 05:45:49.988292    48 net.cpp:167] Top shape: 1 96 23 30 (66240)
I0410 05:45:49.988298    48 net.cpp:175] Memory required for data: 370874944
I0410 05:45:49.988304    48 layer_factory.hpp:93] Creating layer conv5_1/linear/bn
I0410 05:45:49.988312    48 net.cpp:110] Creating Layer conv5_1/linear/bn
I0410 05:45:49.988317    48 net.cpp:451] conv5_1/linear/bn <- conv5_1/linear
I0410 05:45:49.988323    48 net.cpp:425] conv5_1/linear/bn -> conv5_1/linear/bn
I0410 05:45:49.988973    48 net.cpp:160] Setting up conv5_1/linear/bn
I0410 05:45:49.988986    48 net.cpp:167] Top shape: 1 96 23 30 (66240)
I0410 05:45:49.988992    48 net.cpp:175] Memory required for data: 371139904
I0410 05:45:49.989001    48 layer_factory.hpp:93] Creating layer block_5_1
I0410 05:45:49.989010    48 net.cpp:110] Creating Layer block_5_1
I0410 05:45:49.989017    48 net.cpp:451] block_5_1 <- conv4_7/linear/bn_conv4_7/linear/bn_0_split_1
I0410 05:45:49.989024    48 net.cpp:451] block_5_1 <- conv5_1/linear/bn
I0410 05:45:49.989038    48 net.cpp:425] block_5_1 -> block_5_1
I0410 05:45:49.989078    48 net.cpp:160] Setting up block_5_1
I0410 05:45:49.989087    48 net.cpp:167] Top shape: 1 96 23 30 (66240)
I0410 05:45:49.989095    48 net.cpp:175] Memory required for data: 371404864
I0410 05:45:49.989099    48 layer_factory.hpp:93] Creating layer block_5_1_block_5_1_0_split
I0410 05:45:49.989109    48 net.cpp:110] Creating Layer block_5_1_block_5_1_0_split
I0410 05:45:49.989116    48 net.cpp:451] block_5_1_block_5_1_0_split <- block_5_1
I0410 05:45:49.989125    48 net.cpp:425] block_5_1_block_5_1_0_split -> block_5_1_block_5_1_0_split_0
I0410 05:45:49.989135    48 net.cpp:425] block_5_1_block_5_1_0_split -> block_5_1_block_5_1_0_split_1
I0410 05:45:49.989181    48 net.cpp:160] Setting up block_5_1_block_5_1_0_split
I0410 05:45:49.989187    48 net.cpp:167] Top shape: 1 96 23 30 (66240)
I0410 05:45:49.989193    48 net.cpp:167] Top shape: 1 96 23 30 (66240)
I0410 05:45:49.989198    48 net.cpp:175] Memory required for data: 371934784
I0410 05:45:49.989203    48 layer_factory.hpp:93] Creating layer conv5_2/expand
I0410 05:45:49.989215    48 net.cpp:110] Creating Layer conv5_2/expand
I0410 05:45:49.989223    48 net.cpp:451] conv5_2/expand <- block_5_1_block_5_1_0_split_0
I0410 05:45:49.989233    48 net.cpp:425] conv5_2/expand -> conv5_2/expand
I0410 05:45:49.989919    48 net.cpp:160] Setting up conv5_2/expand
I0410 05:45:49.989929    48 net.cpp:167] Top shape: 1 576 23 30 (397440)
I0410 05:45:49.989936    48 net.cpp:175] Memory required for data: 373524544
I0410 05:45:49.989943    48 layer_factory.hpp:93] Creating layer conv5_2/expand/bn
I0410 05:45:49.989955    48 net.cpp:110] Creating Layer conv5_2/expand/bn
I0410 05:45:49.989964    48 net.cpp:451] conv5_2/expand/bn <- conv5_2/expand
I0410 05:45:49.989974    48 net.cpp:425] conv5_2/expand/bn -> conv5_2/expand/bn
I0410 05:45:49.990566    48 net.cpp:160] Setting up conv5_2/expand/bn
I0410 05:45:49.990576    48 net.cpp:167] Top shape: 1 576 23 30 (397440)
I0410 05:45:49.990582    48 net.cpp:175] Memory required for data: 375114304
I0410 05:45:49.990594    48 layer_factory.hpp:93] Creating layer relu5_2/expand
I0410 05:45:49.990604    48 net.cpp:110] Creating Layer relu5_2/expand
I0410 05:45:49.990610    48 net.cpp:451] relu5_2/expand <- conv5_2/expand/bn
I0410 05:45:49.990617    48 net.cpp:412] relu5_2/expand -> conv5_2/expand/bn (in-place)
I0410 05:45:49.990623    48 net.cpp:160] Setting up relu5_2/expand
I0410 05:45:49.990628    48 net.cpp:167] Top shape: 1 576 23 30 (397440)
I0410 05:45:49.990633    48 net.cpp:175] Memory required for data: 376704064
I0410 05:45:49.990639    48 layer_factory.hpp:93] Creating layer conv5_2/dwise
I0410 05:45:49.990650    48 net.cpp:110] Creating Layer conv5_2/dwise
I0410 05:45:49.990656    48 net.cpp:451] conv5_2/dwise <- conv5_2/expand/bn
I0410 05:45:49.990664    48 net.cpp:425] conv5_2/dwise -> conv5_2/dwise
I0410 05:45:49.990901    48 net.cpp:160] Setting up conv5_2/dwise
I0410 05:45:49.990911    48 net.cpp:167] Top shape: 1 576 23 30 (397440)
I0410 05:45:49.990916    48 net.cpp:175] Memory required for data: 378293824
I0410 05:45:49.990922    48 layer_factory.hpp:93] Creating layer conv5_2/dwise/bn
I0410 05:45:49.990932    48 net.cpp:110] Creating Layer conv5_2/dwise/bn
I0410 05:45:49.990962    48 net.cpp:451] conv5_2/dwise/bn <- conv5_2/dwise
I0410 05:45:49.990972    48 net.cpp:425] conv5_2/dwise/bn -> conv5_2/dwise/bn
I0410 05:45:49.991605    48 net.cpp:160] Setting up conv5_2/dwise/bn
I0410 05:45:49.991616    48 net.cpp:167] Top shape: 1 576 23 30 (397440)
I0410 05:45:49.991621    48 net.cpp:175] Memory required for data: 379883584
I0410 05:45:49.991631    48 layer_factory.hpp:93] Creating layer relu5_2/dwise
I0410 05:45:49.991636    48 net.cpp:110] Creating Layer relu5_2/dwise
I0410 05:45:49.991641    48 net.cpp:451] relu5_2/dwise <- conv5_2/dwise/bn
I0410 05:45:49.991648    48 net.cpp:412] relu5_2/dwise -> conv5_2/dwise/bn (in-place)
I0410 05:45:49.991659    48 net.cpp:160] Setting up relu5_2/dwise
I0410 05:45:49.991664    48 net.cpp:167] Top shape: 1 576 23 30 (397440)
I0410 05:45:49.991672    48 net.cpp:175] Memory required for data: 381473344
I0410 05:45:49.991678    48 layer_factory.hpp:93] Creating layer conv5_2/linear
I0410 05:45:49.991688    48 net.cpp:110] Creating Layer conv5_2/linear
I0410 05:45:49.991696    48 net.cpp:451] conv5_2/linear <- conv5_2/dwise/bn
I0410 05:45:49.991705    48 net.cpp:425] conv5_2/linear -> conv5_2/linear
I0410 05:45:49.993685    48 net.cpp:160] Setting up conv5_2/linear
I0410 05:45:49.993703    48 net.cpp:167] Top shape: 1 96 23 30 (66240)
I0410 05:45:49.993712    48 net.cpp:175] Memory required for data: 381738304
I0410 05:45:49.993721    48 layer_factory.hpp:93] Creating layer conv5_2/linear/bn
I0410 05:45:49.993732    48 net.cpp:110] Creating Layer conv5_2/linear/bn
I0410 05:45:49.993739    48 net.cpp:451] conv5_2/linear/bn <- conv5_2/linear
I0410 05:45:49.993748    48 net.cpp:425] conv5_2/linear/bn -> conv5_2/linear/bn
I0410 05:45:49.994374    48 net.cpp:160] Setting up conv5_2/linear/bn
I0410 05:45:49.994381    48 net.cpp:167] Top shape: 1 96 23 30 (66240)
I0410 05:45:49.994387    48 net.cpp:175] Memory required for data: 382003264
I0410 05:45:49.994395    48 layer_factory.hpp:93] Creating layer block_5_2
I0410 05:45:49.994402    48 net.cpp:110] Creating Layer block_5_2
I0410 05:45:49.994407    48 net.cpp:451] block_5_2 <- block_5_1_block_5_1_0_split_1
I0410 05:45:49.994412    48 net.cpp:451] block_5_2 <- conv5_2/linear/bn
I0410 05:45:49.994417    48 net.cpp:425] block_5_2 -> block_5_2
I0410 05:45:49.994438    48 net.cpp:160] Setting up block_5_2
I0410 05:45:49.994443    48 net.cpp:167] Top shape: 1 96 23 30 (66240)
I0410 05:45:49.994448    48 net.cpp:175] Memory required for data: 382268224
I0410 05:45:49.994451    48 layer_factory.hpp:93] Creating layer conv5_3/expand
I0410 05:45:49.994459    48 net.cpp:110] Creating Layer conv5_3/expand
I0410 05:45:49.994463    48 net.cpp:451] conv5_3/expand <- block_5_2
I0410 05:45:49.994468    48 net.cpp:425] conv5_3/expand -> conv5_3/expand
I0410 05:45:49.995285    48 net.cpp:160] Setting up conv5_3/expand
I0410 05:45:49.995294    48 net.cpp:167] Top shape: 1 576 23 30 (397440)
I0410 05:45:49.995302    48 net.cpp:175] Memory required for data: 383857984
I0410 05:45:49.995311    48 layer_factory.hpp:93] Creating layer conv5_3/expand/bn
I0410 05:45:49.995321    48 net.cpp:110] Creating Layer conv5_3/expand/bn
I0410 05:45:49.995326    48 net.cpp:451] conv5_3/expand/bn <- conv5_3/expand
I0410 05:45:49.995335    48 net.cpp:425] conv5_3/expand/bn -> conv5_3/expand/bn
I0410 05:45:49.996043    48 net.cpp:160] Setting up conv5_3/expand/bn
I0410 05:45:49.996052    48 net.cpp:167] Top shape: 1 576 23 30 (397440)
I0410 05:45:49.996060    48 net.cpp:175] Memory required for data: 385447744
I0410 05:45:49.996073    48 layer_factory.hpp:93] Creating layer relu5_3/expand
I0410 05:45:49.996084    48 net.cpp:110] Creating Layer relu5_3/expand
I0410 05:45:49.996090    48 net.cpp:451] relu5_3/expand <- conv5_3/expand/bn
I0410 05:45:49.996098    48 net.cpp:412] relu5_3/expand -> conv5_3/expand/bn (in-place)
I0410 05:45:49.996107    48 net.cpp:160] Setting up relu5_3/expand
I0410 05:45:49.996111    48 net.cpp:167] Top shape: 1 576 23 30 (397440)
I0410 05:45:49.996119    48 net.cpp:175] Memory required for data: 387037504
I0410 05:45:49.996124    48 layer_factory.hpp:93] Creating layer conv5_3/expand/bn_relu5_3/expand_0_split
I0410 05:45:49.996131    48 net.cpp:110] Creating Layer conv5_3/expand/bn_relu5_3/expand_0_split
I0410 05:45:49.996137    48 net.cpp:451] conv5_3/expand/bn_relu5_3/expand_0_split <- conv5_3/expand/bn
I0410 05:45:49.996145    48 net.cpp:425] conv5_3/expand/bn_relu5_3/expand_0_split -> conv5_3/expand/bn_relu5_3/expand_0_split_0
I0410 05:45:49.996152    48 net.cpp:425] conv5_3/expand/bn_relu5_3/expand_0_split -> conv5_3/expand/bn_relu5_3/expand_0_split_1
I0410 05:45:49.996160    48 net.cpp:425] conv5_3/expand/bn_relu5_3/expand_0_split -> conv5_3/expand/bn_relu5_3/expand_0_split_2
I0410 05:45:49.996168    48 net.cpp:425] conv5_3/expand/bn_relu5_3/expand_0_split -> conv5_3/expand/bn_relu5_3/expand_0_split_3
I0410 05:45:49.996230    48 net.cpp:160] Setting up conv5_3/expand/bn_relu5_3/expand_0_split
I0410 05:45:49.996237    48 net.cpp:167] Top shape: 1 576 23 30 (397440)
I0410 05:45:49.996243    48 net.cpp:167] Top shape: 1 576 23 30 (397440)
I0410 05:45:49.996250    48 net.cpp:167] Top shape: 1 576 23 30 (397440)
I0410 05:45:49.996258    48 net.cpp:167] Top shape: 1 576 23 30 (397440)
I0410 05:45:49.996265    48 net.cpp:175] Memory required for data: 393396544
I0410 05:45:49.996270    48 layer_factory.hpp:93] Creating layer conv5_3/dwise
I0410 05:45:49.996280    48 net.cpp:110] Creating Layer conv5_3/dwise
I0410 05:45:49.996286    48 net.cpp:451] conv5_3/dwise <- conv5_3/expand/bn_relu5_3/expand_0_split_0
I0410 05:45:49.996294    48 net.cpp:425] conv5_3/dwise -> conv5_3/dwise
I0410 05:45:49.996768    48 net.cpp:160] Setting up conv5_3/dwise
I0410 05:45:49.997758    48 net.cpp:167] Top shape: 1 576 12 15 (103680)
I0410 05:45:49.997786    48 net.cpp:175] Memory required for data: 393811264
I0410 05:45:49.997798    48 layer_factory.hpp:93] Creating layer conv5_3/dwise/bn
I0410 05:45:49.997814    48 net.cpp:110] Creating Layer conv5_3/dwise/bn
I0410 05:45:49.997824    48 net.cpp:451] conv5_3/dwise/bn <- conv5_3/dwise
I0410 05:45:49.997838    48 net.cpp:425] conv5_3/dwise/bn -> conv5_3/dwise/bn
I0410 05:45:49.998870    48 net.cpp:160] Setting up conv5_3/dwise/bn
I0410 05:45:49.998886    48 net.cpp:167] Top shape: 1 576 12 15 (103680)
I0410 05:45:49.998898    48 net.cpp:175] Memory required for data: 394225984
I0410 05:45:49.998914    48 layer_factory.hpp:93] Creating layer relu5_3/dwise
I0410 05:45:49.998925    48 net.cpp:110] Creating Layer relu5_3/dwise
I0410 05:45:49.998934    48 net.cpp:451] relu5_3/dwise <- conv5_3/dwise/bn
I0410 05:45:49.998948    48 net.cpp:412] relu5_3/dwise -> conv5_3/dwise/bn (in-place)
I0410 05:45:49.998961    48 net.cpp:160] Setting up relu5_3/dwise
I0410 05:45:49.998970    48 net.cpp:167] Top shape: 1 576 12 15 (103680)
I0410 05:45:49.998983    48 net.cpp:175] Memory required for data: 394640704
I0410 05:45:49.998991    48 layer_factory.hpp:93] Creating layer conv5_3/linear
I0410 05:45:49.999003    48 net.cpp:110] Creating Layer conv5_3/linear
I0410 05:45:49.999012    48 net.cpp:451] conv5_3/linear <- conv5_3/dwise/bn
I0410 05:45:49.999020    48 net.cpp:425] conv5_3/linear -> conv5_3/linear
I0410 05:45:50.000387    48 net.cpp:160] Setting up conv5_3/linear
I0410 05:45:50.000398    48 net.cpp:167] Top shape: 1 160 12 15 (28800)
I0410 05:45:50.000406    48 net.cpp:175] Memory required for data: 394755904
I0410 05:45:50.000413    48 layer_factory.hpp:93] Creating layer conv5_3/linear/bn
I0410 05:45:50.000423    48 net.cpp:110] Creating Layer conv5_3/linear/bn
I0410 05:45:50.000430    48 net.cpp:451] conv5_3/linear/bn <- conv5_3/linear
I0410 05:45:50.000442    48 net.cpp:425] conv5_3/linear/bn -> conv5_3/linear/bn
I0410 05:45:50.001626    48 net.cpp:160] Setting up conv5_3/linear/bn
I0410 05:45:50.001638    48 net.cpp:167] Top shape: 1 160 12 15 (28800)
I0410 05:45:50.001646    48 net.cpp:175] Memory required for data: 394871104
I0410 05:45:50.001668    48 layer_factory.hpp:93] Creating layer conv5_3/linear/bn_conv5_3/linear/bn_0_split
I0410 05:45:50.001680    48 net.cpp:110] Creating Layer conv5_3/linear/bn_conv5_3/linear/bn_0_split
I0410 05:45:50.001686    48 net.cpp:451] conv5_3/linear/bn_conv5_3/linear/bn_0_split <- conv5_3/linear/bn
I0410 05:45:50.001694    48 net.cpp:425] conv5_3/linear/bn_conv5_3/linear/bn_0_split -> conv5_3/linear/bn_conv5_3/linear/bn_0_split_0
I0410 05:45:50.001704    48 net.cpp:425] conv5_3/linear/bn_conv5_3/linear/bn_0_split -> conv5_3/linear/bn_conv5_3/linear/bn_0_split_1
I0410 05:45:50.001746    48 net.cpp:160] Setting up conv5_3/linear/bn_conv5_3/linear/bn_0_split
I0410 05:45:50.001754    48 net.cpp:167] Top shape: 1 160 12 15 (28800)
I0410 05:45:50.001762    48 net.cpp:167] Top shape: 1 160 12 15 (28800)
I0410 05:45:50.001768    48 net.cpp:175] Memory required for data: 395101504
I0410 05:45:50.001773    48 layer_factory.hpp:93] Creating layer conv6_1/expand
I0410 05:45:50.001783    48 net.cpp:110] Creating Layer conv6_1/expand
I0410 05:45:50.001791    48 net.cpp:451] conv6_1/expand <- conv5_3/linear/bn_conv5_3/linear/bn_0_split_0
I0410 05:45:50.001801    48 net.cpp:425] conv6_1/expand -> conv6_1/expand
I0410 05:45:50.004791    48 net.cpp:160] Setting up conv6_1/expand
I0410 05:45:50.004818    48 net.cpp:167] Top shape: 1 960 12 15 (172800)
I0410 05:45:50.004825    48 net.cpp:175] Memory required for data: 395792704
I0410 05:45:50.004832    48 layer_factory.hpp:93] Creating layer conv6_1/expand/bn
I0410 05:45:50.004842    48 net.cpp:110] Creating Layer conv6_1/expand/bn
I0410 05:45:50.004849    48 net.cpp:451] conv6_1/expand/bn <- conv6_1/expand
I0410 05:45:50.004858    48 net.cpp:425] conv6_1/expand/bn -> conv6_1/expand/bn
I0410 05:45:50.005491    48 net.cpp:160] Setting up conv6_1/expand/bn
I0410 05:45:50.005501    48 net.cpp:167] Top shape: 1 960 12 15 (172800)
I0410 05:45:50.005506    48 net.cpp:175] Memory required for data: 396483904
I0410 05:45:50.005515    48 layer_factory.hpp:93] Creating layer relu6_1/expand
I0410 05:45:50.005522    48 net.cpp:110] Creating Layer relu6_1/expand
I0410 05:45:50.005527    48 net.cpp:451] relu6_1/expand <- conv6_1/expand/bn
I0410 05:45:50.005532    48 net.cpp:412] relu6_1/expand -> conv6_1/expand/bn (in-place)
I0410 05:45:50.005539    48 net.cpp:160] Setting up relu6_1/expand
I0410 05:45:50.005543    48 net.cpp:167] Top shape: 1 960 12 15 (172800)
I0410 05:45:50.005548    48 net.cpp:175] Memory required for data: 397175104
I0410 05:45:50.005553    48 layer_factory.hpp:93] Creating layer conv6_1/dwise
I0410 05:45:50.005560    48 net.cpp:110] Creating Layer conv6_1/dwise
I0410 05:45:50.005568    48 net.cpp:451] conv6_1/dwise <- conv6_1/expand/bn
I0410 05:45:50.005573    48 net.cpp:425] conv6_1/dwise -> conv6_1/dwise
I0410 05:45:50.005841    48 net.cpp:160] Setting up conv6_1/dwise
I0410 05:45:50.005849    48 net.cpp:167] Top shape: 1 960 12 15 (172800)
I0410 05:45:50.005856    48 net.cpp:175] Memory required for data: 397866304
I0410 05:45:50.005861    48 layer_factory.hpp:93] Creating layer conv6_1/dwise/bn
I0410 05:45:50.005868    48 net.cpp:110] Creating Layer conv6_1/dwise/bn
I0410 05:45:50.005873    48 net.cpp:451] conv6_1/dwise/bn <- conv6_1/dwise
I0410 05:45:50.005880    48 net.cpp:425] conv6_1/dwise/bn -> conv6_1/dwise/bn
I0410 05:45:50.006487    48 net.cpp:160] Setting up conv6_1/dwise/bn
I0410 05:45:50.006496    48 net.cpp:167] Top shape: 1 960 12 15 (172800)
I0410 05:45:50.006502    48 net.cpp:175] Memory required for data: 398557504
I0410 05:45:50.006511    48 layer_factory.hpp:93] Creating layer relu6_1/dwise
I0410 05:45:50.006517    48 net.cpp:110] Creating Layer relu6_1/dwise
I0410 05:45:50.006522    48 net.cpp:451] relu6_1/dwise <- conv6_1/dwise/bn
I0410 05:45:50.006528    48 net.cpp:412] relu6_1/dwise -> conv6_1/dwise/bn (in-place)
I0410 05:45:50.006536    48 net.cpp:160] Setting up relu6_1/dwise
I0410 05:45:50.006538    48 net.cpp:167] Top shape: 1 960 12 15 (172800)
I0410 05:45:50.006543    48 net.cpp:175] Memory required for data: 399248704
I0410 05:45:50.006547    48 layer_factory.hpp:93] Creating layer conv6_1/linear
I0410 05:45:50.006556    48 net.cpp:110] Creating Layer conv6_1/linear
I0410 05:45:50.006559    48 net.cpp:451] conv6_1/linear <- conv6_1/dwise/bn
I0410 05:45:50.006565    48 net.cpp:425] conv6_1/linear -> conv6_1/linear
I0410 05:45:50.008893    48 net.cpp:160] Setting up conv6_1/linear
I0410 05:45:50.008906    48 net.cpp:167] Top shape: 1 160 12 15 (28800)
I0410 05:45:50.008913    48 net.cpp:175] Memory required for data: 399363904
I0410 05:45:50.008919    48 layer_factory.hpp:93] Creating layer conv6_1/linear/bn
I0410 05:45:50.008929    48 net.cpp:110] Creating Layer conv6_1/linear/bn
I0410 05:45:50.008934    48 net.cpp:451] conv6_1/linear/bn <- conv6_1/linear
I0410 05:45:50.008941    48 net.cpp:425] conv6_1/linear/bn -> conv6_1/linear/bn
I0410 05:45:50.009573    48 net.cpp:160] Setting up conv6_1/linear/bn
I0410 05:45:50.009582    48 net.cpp:167] Top shape: 1 160 12 15 (28800)
I0410 05:45:50.009589    48 net.cpp:175] Memory required for data: 399479104
I0410 05:45:50.009598    48 layer_factory.hpp:93] Creating layer block_6_1
I0410 05:45:50.009605    48 net.cpp:110] Creating Layer block_6_1
I0410 05:45:50.009610    48 net.cpp:451] block_6_1 <- conv5_3/linear/bn_conv5_3/linear/bn_0_split_1
I0410 05:45:50.009615    48 net.cpp:451] block_6_1 <- conv6_1/linear/bn
I0410 05:45:50.009621    48 net.cpp:425] block_6_1 -> block_6_1
I0410 05:45:50.009645    48 net.cpp:160] Setting up block_6_1
I0410 05:45:50.009651    48 net.cpp:167] Top shape: 1 160 12 15 (28800)
I0410 05:45:50.009657    48 net.cpp:175] Memory required for data: 399594304
I0410 05:45:50.009661    48 layer_factory.hpp:93] Creating layer block_6_1_block_6_1_0_split
I0410 05:45:50.009667    48 net.cpp:110] Creating Layer block_6_1_block_6_1_0_split
I0410 05:45:50.009671    48 net.cpp:451] block_6_1_block_6_1_0_split <- block_6_1
I0410 05:45:50.009677    48 net.cpp:425] block_6_1_block_6_1_0_split -> block_6_1_block_6_1_0_split_0
I0410 05:45:50.009685    48 net.cpp:425] block_6_1_block_6_1_0_split -> block_6_1_block_6_1_0_split_1
I0410 05:45:50.009716    48 net.cpp:160] Setting up block_6_1_block_6_1_0_split
I0410 05:45:50.009722    48 net.cpp:167] Top shape: 1 160 12 15 (28800)
I0410 05:45:50.009727    48 net.cpp:167] Top shape: 1 160 12 15 (28800)
I0410 05:45:50.009732    48 net.cpp:175] Memory required for data: 399824704
I0410 05:45:50.009737    48 layer_factory.hpp:93] Creating layer conv6_2/expand
I0410 05:45:50.009744    48 net.cpp:110] Creating Layer conv6_2/expand
I0410 05:45:50.009749    48 net.cpp:451] conv6_2/expand <- block_6_1_block_6_1_0_split_0
I0410 05:45:50.009755    48 net.cpp:425] conv6_2/expand -> conv6_2/expand
I0410 05:45:50.011379    48 net.cpp:160] Setting up conv6_2/expand
I0410 05:45:50.011389    48 net.cpp:167] Top shape: 1 960 12 15 (172800)
I0410 05:45:50.011395    48 net.cpp:175] Memory required for data: 400515904
I0410 05:45:50.011400    48 layer_factory.hpp:93] Creating layer conv6_2/expand/bn
I0410 05:45:50.011409    48 net.cpp:110] Creating Layer conv6_2/expand/bn
I0410 05:45:50.011413    48 net.cpp:451] conv6_2/expand/bn <- conv6_2/expand
I0410 05:45:50.011420    48 net.cpp:425] conv6_2/expand/bn -> conv6_2/expand/bn
I0410 05:45:50.012039    48 net.cpp:160] Setting up conv6_2/expand/bn
I0410 05:45:50.012048    48 net.cpp:167] Top shape: 1 960 12 15 (172800)
I0410 05:45:50.012054    48 net.cpp:175] Memory required for data: 401207104
I0410 05:45:50.012063    48 layer_factory.hpp:93] Creating layer relu6_2/expand
I0410 05:45:50.012069    48 net.cpp:110] Creating Layer relu6_2/expand
I0410 05:45:50.012074    48 net.cpp:451] relu6_2/expand <- conv6_2/expand/bn
I0410 05:45:50.012080    48 net.cpp:412] relu6_2/expand -> conv6_2/expand/bn (in-place)
I0410 05:45:50.012087    48 net.cpp:160] Setting up relu6_2/expand
I0410 05:45:50.012092    48 net.cpp:167] Top shape: 1 960 12 15 (172800)
I0410 05:45:50.012099    48 net.cpp:175] Memory required for data: 401898304
I0410 05:45:50.012101    48 layer_factory.hpp:93] Creating layer conv6_2/dwise
I0410 05:45:50.012109    48 net.cpp:110] Creating Layer conv6_2/dwise
I0410 05:45:50.012113    48 net.cpp:451] conv6_2/dwise <- conv6_2/expand/bn
I0410 05:45:50.012120    48 net.cpp:425] conv6_2/dwise -> conv6_2/dwise
I0410 05:45:50.012382    48 net.cpp:160] Setting up conv6_2/dwise
I0410 05:45:50.012390    48 net.cpp:167] Top shape: 1 960 12 15 (172800)
I0410 05:45:50.012396    48 net.cpp:175] Memory required for data: 402589504
I0410 05:45:50.012401    48 layer_factory.hpp:93] Creating layer conv6_2/dwise/bn
I0410 05:45:50.012409    48 net.cpp:110] Creating Layer conv6_2/dwise/bn
I0410 05:45:50.012414    48 net.cpp:451] conv6_2/dwise/bn <- conv6_2/dwise
I0410 05:45:50.012420    48 net.cpp:425] conv6_2/dwise/bn -> conv6_2/dwise/bn
I0410 05:45:50.013068    48 net.cpp:160] Setting up conv6_2/dwise/bn
I0410 05:45:50.013077    48 net.cpp:167] Top shape: 1 960 12 15 (172800)
I0410 05:45:50.013084    48 net.cpp:175] Memory required for data: 403280704
I0410 05:45:50.013098    48 layer_factory.hpp:93] Creating layer relu6_2/dwise
I0410 05:45:50.013103    48 net.cpp:110] Creating Layer relu6_2/dwise
I0410 05:45:50.013108    48 net.cpp:451] relu6_2/dwise <- conv6_2/dwise/bn
I0410 05:45:50.013113    48 net.cpp:412] relu6_2/dwise -> conv6_2/dwise/bn (in-place)
I0410 05:45:50.013120    48 net.cpp:160] Setting up relu6_2/dwise
I0410 05:45:50.013132    48 net.cpp:167] Top shape: 1 960 12 15 (172800)
I0410 05:45:50.013137    48 net.cpp:175] Memory required for data: 403971904
I0410 05:45:50.013140    48 layer_factory.hpp:93] Creating layer conv6_2/linear
I0410 05:45:50.013149    48 net.cpp:110] Creating Layer conv6_2/linear
I0410 05:45:50.013152    48 net.cpp:451] conv6_2/linear <- conv6_2/dwise/bn
I0410 05:45:50.013159    48 net.cpp:425] conv6_2/linear -> conv6_2/linear
I0410 05:45:50.015494    48 net.cpp:160] Setting up conv6_2/linear
I0410 05:45:50.015506    48 net.cpp:167] Top shape: 1 160 12 15 (28800)
I0410 05:45:50.015513    48 net.cpp:175] Memory required for data: 404087104
I0410 05:45:50.015527    48 layer_factory.hpp:93] Creating layer conv6_2/linear/bn
I0410 05:45:50.015537    48 net.cpp:110] Creating Layer conv6_2/linear/bn
I0410 05:45:50.015542    48 net.cpp:451] conv6_2/linear/bn <- conv6_2/linear
I0410 05:45:50.015549    48 net.cpp:425] conv6_2/linear/bn -> conv6_2/linear/bn
I0410 05:45:50.016183    48 net.cpp:160] Setting up conv6_2/linear/bn
I0410 05:45:50.016191    48 net.cpp:167] Top shape: 1 160 12 15 (28800)
I0410 05:45:50.016197    48 net.cpp:175] Memory required for data: 404202304
I0410 05:45:50.016213    48 layer_factory.hpp:93] Creating layer block_6_2
I0410 05:45:50.016221    48 net.cpp:110] Creating Layer block_6_2
I0410 05:45:50.016225    48 net.cpp:451] block_6_2 <- block_6_1_block_6_1_0_split_1
I0410 05:45:50.016230    48 net.cpp:451] block_6_2 <- conv6_2/linear/bn
I0410 05:45:50.016237    48 net.cpp:425] block_6_2 -> block_6_2
I0410 05:45:50.016258    48 net.cpp:160] Setting up block_6_2
I0410 05:45:50.016264    48 net.cpp:167] Top shape: 1 160 12 15 (28800)
I0410 05:45:50.016270    48 net.cpp:175] Memory required for data: 404317504
I0410 05:45:50.016274    48 layer_factory.hpp:93] Creating layer conv6_3/expand
I0410 05:45:50.016283    48 net.cpp:110] Creating Layer conv6_3/expand
I0410 05:45:50.016286    48 net.cpp:451] conv6_3/expand <- block_6_2
I0410 05:45:50.016292    48 net.cpp:425] conv6_3/expand -> conv6_3/expand
I0410 05:45:50.018600    48 net.cpp:160] Setting up conv6_3/expand
I0410 05:45:50.018613    48 net.cpp:167] Top shape: 1 960 12 15 (172800)
I0410 05:45:50.018620    48 net.cpp:175] Memory required for data: 405008704
I0410 05:45:50.018626    48 layer_factory.hpp:93] Creating layer conv6_3/expand/bn
I0410 05:45:50.018635    48 net.cpp:110] Creating Layer conv6_3/expand/bn
I0410 05:45:50.018640    48 net.cpp:451] conv6_3/expand/bn <- conv6_3/expand
I0410 05:45:50.018647    48 net.cpp:425] conv6_3/expand/bn -> conv6_3/expand/bn
I0410 05:45:50.019268    48 net.cpp:160] Setting up conv6_3/expand/bn
I0410 05:45:50.019276    48 net.cpp:167] Top shape: 1 960 12 15 (172800)
I0410 05:45:50.019282    48 net.cpp:175] Memory required for data: 405699904
I0410 05:45:50.019291    48 layer_factory.hpp:93] Creating layer relu6_3/expand
I0410 05:45:50.019297    48 net.cpp:110] Creating Layer relu6_3/expand
I0410 05:45:50.019302    48 net.cpp:451] relu6_3/expand <- conv6_3/expand/bn
I0410 05:45:50.019307    48 net.cpp:412] relu6_3/expand -> conv6_3/expand/bn (in-place)
I0410 05:45:50.019315    48 net.cpp:160] Setting up relu6_3/expand
I0410 05:45:50.019320    48 net.cpp:167] Top shape: 1 960 12 15 (172800)
I0410 05:45:50.019323    48 net.cpp:175] Memory required for data: 406391104
I0410 05:45:50.019328    48 layer_factory.hpp:93] Creating layer conv6_3/dwise
I0410 05:45:50.019336    48 net.cpp:110] Creating Layer conv6_3/dwise
I0410 05:45:50.019340    48 net.cpp:451] conv6_3/dwise <- conv6_3/expand/bn
I0410 05:45:50.019346    48 net.cpp:425] conv6_3/dwise -> conv6_3/dwise
I0410 05:45:50.019609    48 net.cpp:160] Setting up conv6_3/dwise
I0410 05:45:50.019618    48 net.cpp:167] Top shape: 1 960 12 15 (172800)
I0410 05:45:50.019623    48 net.cpp:175] Memory required for data: 407082304
I0410 05:45:50.019629    48 layer_factory.hpp:93] Creating layer conv6_3/dwise/bn
I0410 05:45:50.019636    48 net.cpp:110] Creating Layer conv6_3/dwise/bn
I0410 05:45:50.019640    48 net.cpp:451] conv6_3/dwise/bn <- conv6_3/dwise
I0410 05:45:50.019646    48 net.cpp:425] conv6_3/dwise/bn -> conv6_3/dwise/bn
I0410 05:45:50.020259    48 net.cpp:160] Setting up conv6_3/dwise/bn
I0410 05:45:50.020268    48 net.cpp:167] Top shape: 1 960 12 15 (172800)
I0410 05:45:50.020274    48 net.cpp:175] Memory required for data: 407773504
I0410 05:45:50.020287    48 layer_factory.hpp:93] Creating layer relu6_3/dwise
I0410 05:45:50.020292    48 net.cpp:110] Creating Layer relu6_3/dwise
I0410 05:45:50.020296    48 net.cpp:451] relu6_3/dwise <- conv6_3/dwise/bn
I0410 05:45:50.020303    48 net.cpp:412] relu6_3/dwise -> conv6_3/dwise/bn (in-place)
I0410 05:45:50.020315    48 net.cpp:160] Setting up relu6_3/dwise
I0410 05:45:50.020318    48 net.cpp:167] Top shape: 1 960 12 15 (172800)
I0410 05:45:50.020323    48 net.cpp:175] Memory required for data: 408464704
I0410 05:45:50.020328    48 layer_factory.hpp:93] Creating layer conv6_3/linear
I0410 05:45:50.020335    48 net.cpp:110] Creating Layer conv6_3/linear
I0410 05:45:50.020339    48 net.cpp:451] conv6_3/linear <- conv6_3/dwise/bn
I0410 05:45:50.020344    48 net.cpp:425] conv6_3/linear -> conv6_3/linear
I0410 05:45:50.025058    48 net.cpp:160] Setting up conv6_3/linear
I0410 05:45:50.025107    48 net.cpp:167] Top shape: 1 320 12 15 (57600)
I0410 05:45:50.025146    48 net.cpp:175] Memory required for data: 408695104
I0410 05:45:50.025182    48 layer_factory.hpp:93] Creating layer conv6_3/linear/bn
I0410 05:45:50.025220    48 net.cpp:110] Creating Layer conv6_3/linear/bn
I0410 05:45:50.025255    48 net.cpp:451] conv6_3/linear/bn <- conv6_3/linear
I0410 05:45:50.025293    48 net.cpp:425] conv6_3/linear/bn -> conv6_3/linear/bn
I0410 05:45:50.026075    48 net.cpp:160] Setting up conv6_3/linear/bn
I0410 05:45:50.026119    48 net.cpp:167] Top shape: 1 320 12 15 (57600)
I0410 05:45:50.026156    48 net.cpp:175] Memory required for data: 408925504
I0410 05:45:50.026196    48 layer_factory.hpp:93] Creating layer conv6_4
I0410 05:45:50.026237    48 net.cpp:110] Creating Layer conv6_4
I0410 05:45:50.026270    48 net.cpp:451] conv6_4 <- conv6_3/linear/bn
I0410 05:45:50.026306    48 net.cpp:425] conv6_4 -> conv6_4
I0410 05:45:50.032547    48 net.cpp:160] Setting up conv6_4
I0410 05:45:50.032560    48 net.cpp:167] Top shape: 1 1280 12 15 (230400)
I0410 05:45:50.032567    48 net.cpp:175] Memory required for data: 409847104
I0410 05:45:50.032579    48 layer_factory.hpp:93] Creating layer conv6_4/bn
I0410 05:45:50.032588    48 net.cpp:110] Creating Layer conv6_4/bn
I0410 05:45:50.032608    48 net.cpp:451] conv6_4/bn <- conv6_4
I0410 05:45:50.032615    48 net.cpp:425] conv6_4/bn -> conv6_4/bn
I0410 05:45:50.033157    48 net.cpp:160] Setting up conv6_4/bn
I0410 05:45:50.033166    48 net.cpp:167] Top shape: 1 1280 12 15 (230400)
I0410 05:45:50.033172    48 net.cpp:175] Memory required for data: 410768704
I0410 05:45:50.033181    48 layer_factory.hpp:93] Creating layer relu7
I0410 05:45:50.033187    48 net.cpp:110] Creating Layer relu7
I0410 05:45:50.033192    48 net.cpp:451] relu7 <- conv6_4/bn
I0410 05:45:50.033197    48 net.cpp:425] relu7 -> fc7
I0410 05:45:50.033221    48 net.cpp:160] Setting up relu7
I0410 05:45:50.033227    48 net.cpp:167] Top shape: 1 1280 12 15 (230400)
I0410 05:45:50.033232    48 net.cpp:175] Memory required for data: 411690304
I0410 05:45:50.033237    48 layer_factory.hpp:93] Creating layer fc7_relu7_0_split
I0410 05:45:50.033243    48 net.cpp:110] Creating Layer fc7_relu7_0_split
I0410 05:45:50.033247    48 net.cpp:451] fc7_relu7_0_split <- fc7
I0410 05:45:50.033252    48 net.cpp:425] fc7_relu7_0_split -> fc7_relu7_0_split_0
I0410 05:45:50.033259    48 net.cpp:425] fc7_relu7_0_split -> fc7_relu7_0_split_1
I0410 05:45:50.033265    48 net.cpp:425] fc7_relu7_0_split -> fc7_relu7_0_split_2
I0410 05:45:50.033272    48 net.cpp:425] fc7_relu7_0_split -> fc7_relu7_0_split_3
I0410 05:45:50.033330    48 net.cpp:160] Setting up fc7_relu7_0_split
I0410 05:45:50.033336    48 net.cpp:167] Top shape: 1 1280 12 15 (230400)
I0410 05:45:50.033342    48 net.cpp:167] Top shape: 1 1280 12 15 (230400)
I0410 05:45:50.033346    48 net.cpp:167] Top shape: 1 1280 12 15 (230400)
I0410 05:45:50.033351    48 net.cpp:167] Top shape: 1 1280 12 15 (230400)
I0410 05:45:50.033356    48 net.cpp:175] Memory required for data: 415376704
I0410 05:45:50.033360    48 layer_factory.hpp:93] Creating layer conv6_1
I0410 05:45:50.033370    48 net.cpp:110] Creating Layer conv6_1
I0410 05:45:50.033373    48 net.cpp:451] conv6_1 <- fc7_relu7_0_split_0
I0410 05:45:50.033381    48 net.cpp:425] conv6_1 -> conv6_1
I0410 05:45:50.036895    48 net.cpp:160] Setting up conv6_1
I0410 05:45:50.036906    48 net.cpp:167] Top shape: 1 256 12 15 (46080)
I0410 05:45:50.036913    48 net.cpp:175] Memory required for data: 415561024
I0410 05:45:50.036921    48 layer_factory.hpp:93] Creating layer conv6_1_bn
I0410 05:45:50.036929    48 net.cpp:110] Creating Layer conv6_1_bn
I0410 05:45:50.036934    48 net.cpp:451] conv6_1_bn <- conv6_1
I0410 05:45:50.036940    48 net.cpp:412] conv6_1_bn -> conv6_1 (in-place)
I0410 05:45:50.037488    48 net.cpp:160] Setting up conv6_1_bn
I0410 05:45:50.037497    48 net.cpp:167] Top shape: 1 256 12 15 (46080)
I0410 05:45:50.037503    48 net.cpp:175] Memory required for data: 415745344
I0410 05:45:50.037511    48 layer_factory.hpp:93] Creating layer conv6_1_relu
I0410 05:45:50.037518    48 net.cpp:110] Creating Layer conv6_1_relu
I0410 05:45:50.037523    48 net.cpp:451] conv6_1_relu <- conv6_1
I0410 05:45:50.037528    48 net.cpp:412] conv6_1_relu -> conv6_1 (in-place)
I0410 05:45:50.037534    48 net.cpp:160] Setting up conv6_1_relu
I0410 05:45:50.037539    48 net.cpp:167] Top shape: 1 256 12 15 (46080)
I0410 05:45:50.037544    48 net.cpp:175] Memory required for data: 415929664
I0410 05:45:50.037547    48 layer_factory.hpp:93] Creating layer conv6_2
I0410 05:45:50.037555    48 net.cpp:110] Creating Layer conv6_2
I0410 05:45:50.037559    48 net.cpp:451] conv6_2 <- conv6_1
I0410 05:45:50.037565    48 net.cpp:425] conv6_2 -> conv6_2
I0410 05:45:50.047508    48 net.cpp:160] Setting up conv6_2
I0410 05:45:50.047520    48 net.cpp:167] Top shape: 1 512 6 8 (24576)
I0410 05:45:50.047528    48 net.cpp:175] Memory required for data: 416027968
I0410 05:45:50.047534    48 layer_factory.hpp:93] Creating layer conv6_2_bn
I0410 05:45:50.047544    48 net.cpp:110] Creating Layer conv6_2_bn
I0410 05:45:50.047549    48 net.cpp:451] conv6_2_bn <- conv6_2
I0410 05:45:50.047555    48 net.cpp:412] conv6_2_bn -> conv6_2 (in-place)
I0410 05:45:50.048099    48 net.cpp:160] Setting up conv6_2_bn
I0410 05:45:50.048107    48 net.cpp:167] Top shape: 1 512 6 8 (24576)
I0410 05:45:50.048113    48 net.cpp:175] Memory required for data: 416126272
I0410 05:45:50.048121    48 layer_factory.hpp:93] Creating layer conv6_2_relu
I0410 05:45:50.048127    48 net.cpp:110] Creating Layer conv6_2_relu
I0410 05:45:50.048132    48 net.cpp:451] conv6_2_relu <- conv6_2
I0410 05:45:50.048137    48 net.cpp:412] conv6_2_relu -> conv6_2 (in-place)
I0410 05:45:50.048144    48 net.cpp:160] Setting up conv6_2_relu
I0410 05:45:50.048148    48 net.cpp:167] Top shape: 1 512 6 8 (24576)
I0410 05:45:50.048153    48 net.cpp:175] Memory required for data: 416224576
I0410 05:45:50.048157    48 layer_factory.hpp:93] Creating layer conv6_2_conv6_2_relu_0_split
I0410 05:45:50.048162    48 net.cpp:110] Creating Layer conv6_2_conv6_2_relu_0_split
I0410 05:45:50.048166    48 net.cpp:451] conv6_2_conv6_2_relu_0_split <- conv6_2
I0410 05:45:50.048172    48 net.cpp:425] conv6_2_conv6_2_relu_0_split -> conv6_2_conv6_2_relu_0_split_0
I0410 05:45:50.048179    48 net.cpp:425] conv6_2_conv6_2_relu_0_split -> conv6_2_conv6_2_relu_0_split_1
I0410 05:45:50.048185    48 net.cpp:425] conv6_2_conv6_2_relu_0_split -> conv6_2_conv6_2_relu_0_split_2
I0410 05:45:50.048192    48 net.cpp:425] conv6_2_conv6_2_relu_0_split -> conv6_2_conv6_2_relu_0_split_3
I0410 05:45:50.048241    48 net.cpp:160] Setting up conv6_2_conv6_2_relu_0_split
I0410 05:45:50.048249    48 net.cpp:167] Top shape: 1 512 6 8 (24576)
I0410 05:45:50.048254    48 net.cpp:167] Top shape: 1 512 6 8 (24576)
I0410 05:45:50.048259    48 net.cpp:167] Top shape: 1 512 6 8 (24576)
I0410 05:45:50.048264    48 net.cpp:167] Top shape: 1 512 6 8 (24576)
I0410 05:45:50.048269    48 net.cpp:175] Memory required for data: 416617792
I0410 05:45:50.048272    48 layer_factory.hpp:93] Creating layer conv7_1
I0410 05:45:50.048281    48 net.cpp:110] Creating Layer conv7_1
I0410 05:45:50.048285    48 net.cpp:451] conv7_1 <- conv6_2_conv6_2_relu_0_split_0
I0410 05:45:50.048292    48 net.cpp:425] conv7_1 -> conv7_1
I0410 05:45:50.048962    48 net.cpp:160] Setting up conv7_1
I0410 05:45:50.048971    48 net.cpp:167] Top shape: 1 128 6 8 (6144)
I0410 05:45:50.048977    48 net.cpp:175] Memory required for data: 416642368
I0410 05:45:50.048985    48 layer_factory.hpp:93] Creating layer conv7_1_bn
I0410 05:45:50.048991    48 net.cpp:110] Creating Layer conv7_1_bn
I0410 05:45:50.048996    48 net.cpp:451] conv7_1_bn <- conv7_1
I0410 05:45:50.049003    48 net.cpp:412] conv7_1_bn -> conv7_1 (in-place)
I0410 05:45:50.049546    48 net.cpp:160] Setting up conv7_1_bn
I0410 05:45:50.049553    48 net.cpp:167] Top shape: 1 128 6 8 (6144)
I0410 05:45:50.049559    48 net.cpp:175] Memory required for data: 416666944
I0410 05:45:50.049568    48 layer_factory.hpp:93] Creating layer conv7_1_relu
I0410 05:45:50.049573    48 net.cpp:110] Creating Layer conv7_1_relu
I0410 05:45:50.049578    48 net.cpp:451] conv7_1_relu <- conv7_1
I0410 05:45:50.049583    48 net.cpp:412] conv7_1_relu -> conv7_1 (in-place)
I0410 05:45:50.049590    48 net.cpp:160] Setting up conv7_1_relu
I0410 05:45:50.049593    48 net.cpp:167] Top shape: 1 128 6 8 (6144)
I0410 05:45:50.049598    48 net.cpp:175] Memory required for data: 416691520
I0410 05:45:50.049602    48 layer_factory.hpp:93] Creating layer conv7_2
I0410 05:45:50.049610    48 net.cpp:110] Creating Layer conv7_2
I0410 05:45:50.049614    48 net.cpp:451] conv7_2 <- conv7_1
I0410 05:45:50.049620    48 net.cpp:425] conv7_2 -> conv7_2
I0410 05:45:50.052948    48 net.cpp:160] Setting up conv7_2
I0410 05:45:50.052960    48 net.cpp:167] Top shape: 1 256 3 4 (3072)
I0410 05:45:50.052968    48 net.cpp:175] Memory required for data: 416703808
I0410 05:45:50.052974    48 layer_factory.hpp:93] Creating layer conv7_2_bn
I0410 05:45:50.052983    48 net.cpp:110] Creating Layer conv7_2_bn
I0410 05:45:50.052987    48 net.cpp:451] conv7_2_bn <- conv7_2
I0410 05:45:50.052994    48 net.cpp:412] conv7_2_bn -> conv7_2 (in-place)
I0410 05:45:50.053542    48 net.cpp:160] Setting up conv7_2_bn
I0410 05:45:50.053551    48 net.cpp:167] Top shape: 1 256 3 4 (3072)
I0410 05:45:50.053556    48 net.cpp:175] Memory required for data: 416716096
I0410 05:45:50.053570    48 layer_factory.hpp:93] Creating layer conv7_2_relu
I0410 05:45:50.053575    48 net.cpp:110] Creating Layer conv7_2_relu
I0410 05:45:50.053580    48 net.cpp:451] conv7_2_relu <- conv7_2
I0410 05:45:50.053586    48 net.cpp:412] conv7_2_relu -> conv7_2 (in-place)
I0410 05:45:50.053592    48 net.cpp:160] Setting up conv7_2_relu
I0410 05:45:50.053596    48 net.cpp:167] Top shape: 1 256 3 4 (3072)
I0410 05:45:50.053601    48 net.cpp:175] Memory required for data: 416728384
I0410 05:45:50.053604    48 layer_factory.hpp:93] Creating layer conv7_2_conv7_2_relu_0_split
I0410 05:45:50.053611    48 net.cpp:110] Creating Layer conv7_2_conv7_2_relu_0_split
I0410 05:45:50.053614    48 net.cpp:451] conv7_2_conv7_2_relu_0_split <- conv7_2
I0410 05:45:50.053619    48 net.cpp:425] conv7_2_conv7_2_relu_0_split -> conv7_2_conv7_2_relu_0_split_0
I0410 05:45:50.053627    48 net.cpp:425] conv7_2_conv7_2_relu_0_split -> conv7_2_conv7_2_relu_0_split_1
I0410 05:45:50.053632    48 net.cpp:425] conv7_2_conv7_2_relu_0_split -> conv7_2_conv7_2_relu_0_split_2
I0410 05:45:50.053674    48 net.cpp:160] Setting up conv7_2_conv7_2_relu_0_split
I0410 05:45:50.053680    48 net.cpp:167] Top shape: 1 256 3 4 (3072)
I0410 05:45:50.053685    48 net.cpp:167] Top shape: 1 256 3 4 (3072)
I0410 05:45:50.053690    48 net.cpp:167] Top shape: 1 256 3 4 (3072)
I0410 05:45:50.053695    48 net.cpp:175] Memory required for data: 416765248
I0410 05:45:50.053699    48 layer_factory.hpp:93] Creating layer conv4_3_norm_mbox_loc
I0410 05:45:50.053709    48 net.cpp:110] Creating Layer conv4_3_norm_mbox_loc
I0410 05:45:50.053714    48 net.cpp:451] conv4_3_norm_mbox_loc <- conv4_7/expand/bn_relu4_7/expand_0_split_1
I0410 05:45:50.053721    48 net.cpp:425] conv4_3_norm_mbox_loc -> conv4_3_norm_mbox_loc
I0410 05:45:50.054626    48 net.cpp:160] Setting up conv4_3_norm_mbox_loc
I0410 05:45:50.054636    48 net.cpp:167] Top shape: 1 32 45 60 (86400)
I0410 05:45:50.054641    48 net.cpp:175] Memory required for data: 417110848
I0410 05:45:50.054647    48 layer_factory.hpp:93] Creating layer conv4_3_norm_mbox_loc_bn
I0410 05:45:50.054656    48 net.cpp:110] Creating Layer conv4_3_norm_mbox_loc_bn
I0410 05:45:50.054659    48 net.cpp:451] conv4_3_norm_mbox_loc_bn <- conv4_3_norm_mbox_loc
I0410 05:45:50.054666    48 net.cpp:412] conv4_3_norm_mbox_loc_bn -> conv4_3_norm_mbox_loc (in-place)
I0410 05:45:50.055459    48 net.cpp:160] Setting up conv4_3_norm_mbox_loc_bn
I0410 05:45:50.055503    48 net.cpp:167] Top shape: 1 32 45 60 (86400)
I0410 05:45:50.055541    48 net.cpp:175] Memory required for data: 417456448
I0410 05:45:50.055580    48 layer_factory.hpp:93] Creating layer conv4_3_norm_mbox_loc_perm
I0410 05:45:50.055619    48 net.cpp:110] Creating Layer conv4_3_norm_mbox_loc_perm
I0410 05:45:50.055652    48 net.cpp:451] conv4_3_norm_mbox_loc_perm <- conv4_3_norm_mbox_loc
I0410 05:45:50.055689    48 net.cpp:425] conv4_3_norm_mbox_loc_perm -> conv4_3_norm_mbox_loc_perm
I0410 05:45:50.056766    48 net.cpp:160] Setting up conv4_3_norm_mbox_loc_perm
I0410 05:45:50.056818    48 net.cpp:167] Top shape: 1 45 60 32 (86400)
I0410 05:45:50.056852    48 net.cpp:175] Memory required for data: 417802048
I0410 05:45:50.056880    48 layer_factory.hpp:93] Creating layer conv4_3_norm_mbox_loc_flat
I0410 05:45:50.057958    48 net.cpp:110] Creating Layer conv4_3_norm_mbox_loc_flat
I0410 05:45:50.058001    48 net.cpp:451] conv4_3_norm_mbox_loc_flat <- conv4_3_norm_mbox_loc_perm
I0410 05:45:50.058041    48 net.cpp:425] conv4_3_norm_mbox_loc_flat -> conv4_3_norm_mbox_loc_flat
I0410 05:45:50.058110    48 net.cpp:160] Setting up conv4_3_norm_mbox_loc_flat
I0410 05:45:50.058154    48 net.cpp:167] Top shape: 1 86400 (86400)
I0410 05:45:50.058169    48 net.cpp:175] Memory required for data: 418147648
I0410 05:45:50.058176    48 layer_factory.hpp:93] Creating layer conv4_3_norm_mbox_conf_new
I0410 05:45:50.058190    48 net.cpp:110] Creating Layer conv4_3_norm_mbox_conf_new
I0410 05:45:50.058197    48 net.cpp:451] conv4_3_norm_mbox_conf_new <- conv4_7/expand/bn_relu4_7/expand_0_split_2
I0410 05:45:50.058207    48 net.cpp:425] conv4_3_norm_mbox_conf_new -> conv4_3_norm_mbox_conf_new
I0410 05:45:50.063638    48 net.cpp:160] Setting up conv4_3_norm_mbox_conf_new
I0410 05:45:50.063652    48 net.cpp:167] Top shape: 1 168 45 60 (453600)
I0410 05:45:50.063658    48 net.cpp:175] Memory required for data: 419962048
I0410 05:45:50.063666    48 layer_factory.hpp:93] Creating layer conv4_3_norm_mbox_conf_bn
I0410 05:45:50.063679    48 net.cpp:110] Creating Layer conv4_3_norm_mbox_conf_bn
I0410 05:45:50.063688    48 net.cpp:451] conv4_3_norm_mbox_conf_bn <- conv4_3_norm_mbox_conf_new
I0410 05:45:50.063696    48 net.cpp:412] conv4_3_norm_mbox_conf_bn -> conv4_3_norm_mbox_conf_new (in-place)
I0410 05:45:50.064374    48 net.cpp:160] Setting up conv4_3_norm_mbox_conf_bn
I0410 05:45:50.064385    48 net.cpp:167] Top shape: 1 168 45 60 (453600)
I0410 05:45:50.064393    48 net.cpp:175] Memory required for data: 421776448
I0410 05:45:50.064404    48 layer_factory.hpp:93] Creating layer conv4_3_norm_mbox_conf_perm
I0410 05:45:50.064415    48 net.cpp:110] Creating Layer conv4_3_norm_mbox_conf_perm
I0410 05:45:50.064424    48 net.cpp:451] conv4_3_norm_mbox_conf_perm <- conv4_3_norm_mbox_conf_new
I0410 05:45:50.064431    48 net.cpp:425] conv4_3_norm_mbox_conf_perm -> conv4_3_norm_mbox_conf_perm
I0410 05:45:50.064522    48 net.cpp:160] Setting up conv4_3_norm_mbox_conf_perm
I0410 05:45:50.064527    48 net.cpp:167] Top shape: 1 45 60 168 (453600)
I0410 05:45:50.064533    48 net.cpp:175] Memory required for data: 423590848
I0410 05:45:50.064538    48 layer_factory.hpp:93] Creating layer conv4_3_norm_mbox_conf_flat
I0410 05:45:50.064545    48 net.cpp:110] Creating Layer conv4_3_norm_mbox_conf_flat
I0410 05:45:50.064551    48 net.cpp:451] conv4_3_norm_mbox_conf_flat <- conv4_3_norm_mbox_conf_perm
I0410 05:45:50.064559    48 net.cpp:425] conv4_3_norm_mbox_conf_flat -> conv4_3_norm_mbox_conf_flat
I0410 05:45:50.064584    48 net.cpp:160] Setting up conv4_3_norm_mbox_conf_flat
I0410 05:45:50.064600    48 net.cpp:167] Top shape: 1 453600 (453600)
I0410 05:45:50.064607    48 net.cpp:175] Memory required for data: 425405248
I0410 05:45:50.064611    48 layer_factory.hpp:93] Creating layer conv4_3_norm_mbox_priorbox
I0410 05:45:50.064620    48 net.cpp:110] Creating Layer conv4_3_norm_mbox_priorbox
I0410 05:45:50.064625    48 net.cpp:451] conv4_3_norm_mbox_priorbox <- conv4_7/expand/bn_relu4_7/expand_0_split_3
I0410 05:45:50.064632    48 net.cpp:451] conv4_3_norm_mbox_priorbox <- data_data_0_split_1
I0410 05:45:50.064640    48 net.cpp:425] conv4_3_norm_mbox_priorbox -> conv4_3_norm_mbox_priorbox
I0410 05:45:50.064699    48 net.cpp:160] Setting up conv4_3_norm_mbox_priorbox
I0410 05:45:50.064710    48 net.cpp:167] Top shape: 1 2 86400 (172800)
I0410 05:45:50.064718    48 net.cpp:175] Memory required for data: 426096448
I0410 05:45:50.064721    48 layer_factory.hpp:93] Creating layer fc7_mbox_loc
I0410 05:45:50.064731    48 net.cpp:110] Creating Layer fc7_mbox_loc
I0410 05:45:50.064736    48 net.cpp:451] fc7_mbox_loc <- conv5_3/expand/bn_relu5_3/expand_0_split_1
I0410 05:45:50.064743    48 net.cpp:425] fc7_mbox_loc -> fc7_mbox_loc
I0410 05:45:50.065745    48 net.cpp:160] Setting up fc7_mbox_loc
I0410 05:45:50.065755    48 net.cpp:167] Top shape: 1 24 23 30 (16560)
I0410 05:45:50.065762    48 net.cpp:175] Memory required for data: 426162688
I0410 05:45:50.065768    48 layer_factory.hpp:93] Creating layer fc7_mbox_loc_bn
I0410 05:45:50.065775    48 net.cpp:110] Creating Layer fc7_mbox_loc_bn
I0410 05:45:50.065780    48 net.cpp:451] fc7_mbox_loc_bn <- fc7_mbox_loc
I0410 05:45:50.065786    48 net.cpp:412] fc7_mbox_loc_bn -> fc7_mbox_loc (in-place)
I0410 05:45:50.066403    48 net.cpp:160] Setting up fc7_mbox_loc_bn
I0410 05:45:50.066412    48 net.cpp:167] Top shape: 1 24 23 30 (16560)
I0410 05:45:50.066418    48 net.cpp:175] Memory required for data: 426228928
I0410 05:45:50.066427    48 layer_factory.hpp:93] Creating layer fc7_mbox_loc_perm
I0410 05:45:50.066435    48 net.cpp:110] Creating Layer fc7_mbox_loc_perm
I0410 05:45:50.066439    48 net.cpp:451] fc7_mbox_loc_perm <- fc7_mbox_loc
I0410 05:45:50.066447    48 net.cpp:425] fc7_mbox_loc_perm -> fc7_mbox_loc_perm
I0410 05:45:50.066529    48 net.cpp:160] Setting up fc7_mbox_loc_perm
I0410 05:45:50.066537    48 net.cpp:167] Top shape: 1 23 30 24 (16560)
I0410 05:45:50.066543    48 net.cpp:175] Memory required for data: 426295168
I0410 05:45:50.066547    48 layer_factory.hpp:93] Creating layer fc7_mbox_loc_flat
I0410 05:45:50.066553    48 net.cpp:110] Creating Layer fc7_mbox_loc_flat
I0410 05:45:50.066557    48 net.cpp:451] fc7_mbox_loc_flat <- fc7_mbox_loc_perm
I0410 05:45:50.066562    48 net.cpp:425] fc7_mbox_loc_flat -> fc7_mbox_loc_flat
I0410 05:45:50.066587    48 net.cpp:160] Setting up fc7_mbox_loc_flat
I0410 05:45:50.066592    48 net.cpp:167] Top shape: 1 16560 (16560)
I0410 05:45:50.066597    48 net.cpp:175] Memory required for data: 426361408
I0410 05:45:50.066601    48 layer_factory.hpp:93] Creating layer fc7_mbox_conf_new
I0410 05:45:50.066609    48 net.cpp:110] Creating Layer fc7_mbox_conf_new
I0410 05:45:50.066613    48 net.cpp:451] fc7_mbox_conf_new <- conv5_3/expand/bn_relu5_3/expand_0_split_2
I0410 05:45:50.066620    48 net.cpp:425] fc7_mbox_conf_new -> fc7_mbox_conf_new
I0410 05:45:50.072258    48 net.cpp:160] Setting up fc7_mbox_conf_new
I0410 05:45:50.072270    48 net.cpp:167] Top shape: 1 126 23 30 (86940)
I0410 05:45:50.072278    48 net.cpp:175] Memory required for data: 426709168
I0410 05:45:50.072284    48 layer_factory.hpp:93] Creating layer fc7_mbox_conf_bn
I0410 05:45:50.072293    48 net.cpp:110] Creating Layer fc7_mbox_conf_bn
I0410 05:45:50.072299    48 net.cpp:451] fc7_mbox_conf_bn <- fc7_mbox_conf_new
I0410 05:45:50.072305    48 net.cpp:412] fc7_mbox_conf_bn -> fc7_mbox_conf_new (in-place)
I0410 05:45:50.072959    48 net.cpp:160] Setting up fc7_mbox_conf_bn
I0410 05:45:50.072969    48 net.cpp:167] Top shape: 1 126 23 30 (86940)
I0410 05:45:50.072975    48 net.cpp:175] Memory required for data: 427056928
I0410 05:45:50.072983    48 layer_factory.hpp:93] Creating layer fc7_mbox_conf_perm
I0410 05:45:50.072991    48 net.cpp:110] Creating Layer fc7_mbox_conf_perm
I0410 05:45:50.072996    48 net.cpp:451] fc7_mbox_conf_perm <- fc7_mbox_conf_new
I0410 05:45:50.073002    48 net.cpp:425] fc7_mbox_conf_perm -> fc7_mbox_conf_perm
I0410 05:45:50.073087    48 net.cpp:160] Setting up fc7_mbox_conf_perm
I0410 05:45:50.073093    48 net.cpp:167] Top shape: 1 23 30 126 (86940)
I0410 05:45:50.073099    48 net.cpp:175] Memory required for data: 427404688
I0410 05:45:50.073102    48 layer_factory.hpp:93] Creating layer fc7_mbox_conf_flat
I0410 05:45:50.073108    48 net.cpp:110] Creating Layer fc7_mbox_conf_flat
I0410 05:45:50.073112    48 net.cpp:451] fc7_mbox_conf_flat <- fc7_mbox_conf_perm
I0410 05:45:50.073118    48 net.cpp:425] fc7_mbox_conf_flat -> fc7_mbox_conf_flat
I0410 05:45:50.073138    48 net.cpp:160] Setting up fc7_mbox_conf_flat
I0410 05:45:50.073144    48 net.cpp:167] Top shape: 1 86940 (86940)
I0410 05:45:50.073149    48 net.cpp:175] Memory required for data: 427752448
I0410 05:45:50.073153    48 layer_factory.hpp:93] Creating layer fc7_mbox_priorbox
I0410 05:45:50.073160    48 net.cpp:110] Creating Layer fc7_mbox_priorbox
I0410 05:45:50.073165    48 net.cpp:451] fc7_mbox_priorbox <- conv5_3/expand/bn_relu5_3/expand_0_split_3
I0410 05:45:50.073170    48 net.cpp:451] fc7_mbox_priorbox <- data_data_0_split_2
I0410 05:45:50.073176    48 net.cpp:425] fc7_mbox_priorbox -> fc7_mbox_priorbox
I0410 05:45:50.073199    48 net.cpp:160] Setting up fc7_mbox_priorbox
I0410 05:45:50.073215    48 net.cpp:167] Top shape: 1 2 16560 (33120)
I0410 05:45:50.073220    48 net.cpp:175] Memory required for data: 427884928
I0410 05:45:50.073225    48 layer_factory.hpp:93] Creating layer conv6_2_mbox_loc
I0410 05:45:50.073235    48 net.cpp:110] Creating Layer conv6_2_mbox_loc
I0410 05:45:50.073241    48 net.cpp:451] conv6_2_mbox_loc <- fc7_relu7_0_split_1
I0410 05:45:50.073248    48 net.cpp:425] conv6_2_mbox_loc -> conv6_2_mbox_loc
I0410 05:45:50.076413    48 net.cpp:160] Setting up conv6_2_mbox_loc
I0410 05:45:50.076426    48 net.cpp:167] Top shape: 1 24 12 15 (4320)
I0410 05:45:50.076432    48 net.cpp:175] Memory required for data: 427902208
I0410 05:45:50.076439    48 layer_factory.hpp:93] Creating layer conv6_2_mbox_loc__bn
I0410 05:45:50.076448    48 net.cpp:110] Creating Layer conv6_2_mbox_loc__bn
I0410 05:45:50.076453    48 net.cpp:451] conv6_2_mbox_loc__bn <- conv6_2_mbox_loc
I0410 05:45:50.076463    48 net.cpp:412] conv6_2_mbox_loc__bn -> conv6_2_mbox_loc (in-place)
I0410 05:45:50.077103    48 net.cpp:160] Setting up conv6_2_mbox_loc__bn
I0410 05:45:50.077113    48 net.cpp:167] Top shape: 1 24 12 15 (4320)
I0410 05:45:50.077119    48 net.cpp:175] Memory required for data: 427919488
I0410 05:45:50.077128    48 layer_factory.hpp:93] Creating layer conv6_2_mbox_loc_perm
I0410 05:45:50.077136    48 net.cpp:110] Creating Layer conv6_2_mbox_loc_perm
I0410 05:45:50.077141    48 net.cpp:451] conv6_2_mbox_loc_perm <- conv6_2_mbox_loc
I0410 05:45:50.077147    48 net.cpp:425] conv6_2_mbox_loc_perm -> conv6_2_mbox_loc_perm
I0410 05:45:50.077236    48 net.cpp:160] Setting up conv6_2_mbox_loc_perm
I0410 05:45:50.077244    48 net.cpp:167] Top shape: 1 12 15 24 (4320)
I0410 05:45:50.077248    48 net.cpp:175] Memory required for data: 427936768
I0410 05:45:50.077252    48 layer_factory.hpp:93] Creating layer conv6_2_mbox_loc_flat
I0410 05:45:50.077258    48 net.cpp:110] Creating Layer conv6_2_mbox_loc_flat
I0410 05:45:50.077262    48 net.cpp:451] conv6_2_mbox_loc_flat <- conv6_2_mbox_loc_perm
I0410 05:45:50.077268    48 net.cpp:425] conv6_2_mbox_loc_flat -> conv6_2_mbox_loc_flat
I0410 05:45:50.077289    48 net.cpp:160] Setting up conv6_2_mbox_loc_flat
I0410 05:45:50.077296    48 net.cpp:167] Top shape: 1 4320 (4320)
I0410 05:45:50.077301    48 net.cpp:175] Memory required for data: 427954048
I0410 05:45:50.077306    48 layer_factory.hpp:93] Creating layer conv6_2_mbox_conf_new
I0410 05:45:50.077317    48 net.cpp:110] Creating Layer conv6_2_mbox_conf_new
I0410 05:45:50.077323    48 net.cpp:451] conv6_2_mbox_conf_new <- fc7_relu7_0_split_2
I0410 05:45:50.077329    48 net.cpp:425] conv6_2_mbox_conf_new -> conv6_2_mbox_conf_new
I0410 05:45:50.091667    48 net.cpp:160] Setting up conv6_2_mbox_conf_new
I0410 05:45:50.091681    48 net.cpp:167] Top shape: 1 126 12 15 (22680)
I0410 05:45:50.091688    48 net.cpp:175] Memory required for data: 428044768
I0410 05:45:50.091696    48 layer_factory.hpp:93] Creating layer conv6_2_mbox_conf_bn
I0410 05:45:50.091704    48 net.cpp:110] Creating Layer conv6_2_mbox_conf_bn
I0410 05:45:50.091711    48 net.cpp:451] conv6_2_mbox_conf_bn <- conv6_2_mbox_conf_new
I0410 05:45:50.091717    48 net.cpp:412] conv6_2_mbox_conf_bn -> conv6_2_mbox_conf_new (in-place)
I0410 05:45:50.092401    48 net.cpp:160] Setting up conv6_2_mbox_conf_bn
I0410 05:45:50.092411    48 net.cpp:167] Top shape: 1 126 12 15 (22680)
I0410 05:45:50.092417    48 net.cpp:175] Memory required for data: 428135488
I0410 05:45:50.092425    48 layer_factory.hpp:93] Creating layer conv6_2_mbox_conf_perm
I0410 05:45:50.092433    48 net.cpp:110] Creating Layer conv6_2_mbox_conf_perm
I0410 05:45:50.092437    48 net.cpp:451] conv6_2_mbox_conf_perm <- conv6_2_mbox_conf_new
I0410 05:45:50.092444    48 net.cpp:425] conv6_2_mbox_conf_perm -> conv6_2_mbox_conf_perm
I0410 05:45:50.092530    48 net.cpp:160] Setting up conv6_2_mbox_conf_perm
I0410 05:45:50.092536    48 net.cpp:167] Top shape: 1 12 15 126 (22680)
I0410 05:45:50.092542    48 net.cpp:175] Memory required for data: 428226208
I0410 05:45:50.092546    48 layer_factory.hpp:93] Creating layer conv6_2_mbox_conf_flat
I0410 05:45:50.092551    48 net.cpp:110] Creating Layer conv6_2_mbox_conf_flat
I0410 05:45:50.092556    48 net.cpp:451] conv6_2_mbox_conf_flat <- conv6_2_mbox_conf_perm
I0410 05:45:50.092561    48 net.cpp:425] conv6_2_mbox_conf_flat -> conv6_2_mbox_conf_flat
I0410 05:45:50.092582    48 net.cpp:160] Setting up conv6_2_mbox_conf_flat
I0410 05:45:50.092587    48 net.cpp:167] Top shape: 1 22680 (22680)
I0410 05:45:50.092598    48 net.cpp:175] Memory required for data: 428316928
I0410 05:45:50.092602    48 layer_factory.hpp:93] Creating layer conv6_2_mbox_priorbox
I0410 05:45:50.092609    48 net.cpp:110] Creating Layer conv6_2_mbox_priorbox
I0410 05:45:50.092614    48 net.cpp:451] conv6_2_mbox_priorbox <- fc7_relu7_0_split_3
I0410 05:45:50.092618    48 net.cpp:451] conv6_2_mbox_priorbox <- data_data_0_split_3
I0410 05:45:50.092624    48 net.cpp:425] conv6_2_mbox_priorbox -> conv6_2_mbox_priorbox
I0410 05:45:50.092648    48 net.cpp:160] Setting up conv6_2_mbox_priorbox
I0410 05:45:50.092654    48 net.cpp:167] Top shape: 1 2 4320 (8640)
I0410 05:45:50.092659    48 net.cpp:175] Memory required for data: 428351488
I0410 05:45:50.092664    48 layer_factory.hpp:93] Creating layer conv7_2_mbox_loc
I0410 05:45:50.092672    48 net.cpp:110] Creating Layer conv7_2_mbox_loc
I0410 05:45:50.092676    48 net.cpp:451] conv7_2_mbox_loc <- conv6_2_conv6_2_relu_0_split_1
I0410 05:45:50.092684    48 net.cpp:425] conv7_2_mbox_loc -> conv7_2_mbox_loc
I0410 05:45:50.093729    48 net.cpp:160] Setting up conv7_2_mbox_loc
I0410 05:45:50.093737    48 net.cpp:167] Top shape: 1 24 6 8 (1152)
I0410 05:45:50.093744    48 net.cpp:175] Memory required for data: 428356096
I0410 05:45:50.093750    48 layer_factory.hpp:93] Creating layer conv7_2_mbox_loc_bn
I0410 05:45:50.093760    48 net.cpp:110] Creating Layer conv7_2_mbox_loc_bn
I0410 05:45:50.093763    48 net.cpp:451] conv7_2_mbox_loc_bn <- conv7_2_mbox_loc
I0410 05:45:50.093770    48 net.cpp:412] conv7_2_mbox_loc_bn -> conv7_2_mbox_loc (in-place)
I0410 05:45:50.094413    48 net.cpp:160] Setting up conv7_2_mbox_loc_bn
I0410 05:45:50.094422    48 net.cpp:167] Top shape: 1 24 6 8 (1152)
I0410 05:45:50.094427    48 net.cpp:175] Memory required for data: 428360704
I0410 05:45:50.094436    48 layer_factory.hpp:93] Creating layer conv7_2_mbox_loc_perm
I0410 05:45:50.094444    48 net.cpp:110] Creating Layer conv7_2_mbox_loc_perm
I0410 05:45:50.094449    48 net.cpp:451] conv7_2_mbox_loc_perm <- conv7_2_mbox_loc
I0410 05:45:50.094455    48 net.cpp:425] conv7_2_mbox_loc_perm -> conv7_2_mbox_loc_perm
I0410 05:45:50.094537    48 net.cpp:160] Setting up conv7_2_mbox_loc_perm
I0410 05:45:50.094543    48 net.cpp:167] Top shape: 1 6 8 24 (1152)
I0410 05:45:50.094548    48 net.cpp:175] Memory required for data: 428365312
I0410 05:45:50.094552    48 layer_factory.hpp:93] Creating layer conv7_2_mbox_loc_flat
I0410 05:45:50.094558    48 net.cpp:110] Creating Layer conv7_2_mbox_loc_flat
I0410 05:45:50.094563    48 net.cpp:451] conv7_2_mbox_loc_flat <- conv7_2_mbox_loc_perm
I0410 05:45:50.094568    48 net.cpp:425] conv7_2_mbox_loc_flat -> conv7_2_mbox_loc_flat
I0410 05:45:50.094588    48 net.cpp:160] Setting up conv7_2_mbox_loc_flat
I0410 05:45:50.094594    48 net.cpp:167] Top shape: 1 1152 (1152)
I0410 05:45:50.094599    48 net.cpp:175] Memory required for data: 428369920
I0410 05:45:50.094604    48 layer_factory.hpp:93] Creating layer conv7_2_mbox_conf_new
I0410 05:45:50.094611    48 net.cpp:110] Creating Layer conv7_2_mbox_conf_new
I0410 05:45:50.094616    48 net.cpp:451] conv7_2_mbox_conf_new <- conv6_2_conv6_2_relu_0_split_2
I0410 05:45:50.094622    48 net.cpp:425] conv7_2_mbox_conf_new -> conv7_2_mbox_conf_new
I0410 05:45:50.099661    48 net.cpp:160] Setting up conv7_2_mbox_conf_new
I0410 05:45:50.099673    48 net.cpp:167] Top shape: 1 126 6 8 (6048)
I0410 05:45:50.099679    48 net.cpp:175] Memory required for data: 428394112
I0410 05:45:50.099687    48 layer_factory.hpp:93] Creating layer conv7_2_mbox_conf_bn
I0410 05:45:50.099696    48 net.cpp:110] Creating Layer conv7_2_mbox_conf_bn
I0410 05:45:50.099701    48 net.cpp:451] conv7_2_mbox_conf_bn <- conv7_2_mbox_conf_new
I0410 05:45:50.099707    48 net.cpp:412] conv7_2_mbox_conf_bn -> conv7_2_mbox_conf_new (in-place)
I0410 05:45:50.100361    48 net.cpp:160] Setting up conv7_2_mbox_conf_bn
I0410 05:45:50.100370    48 net.cpp:167] Top shape: 1 126 6 8 (6048)
I0410 05:45:50.100376    48 net.cpp:175] Memory required for data: 428418304
I0410 05:45:50.100385    48 layer_factory.hpp:93] Creating layer conv7_2_mbox_conf_perm
I0410 05:45:50.100394    48 net.cpp:110] Creating Layer conv7_2_mbox_conf_perm
I0410 05:45:50.100397    48 net.cpp:451] conv7_2_mbox_conf_perm <- conv7_2_mbox_conf_new
I0410 05:45:50.100404    48 net.cpp:425] conv7_2_mbox_conf_perm -> conv7_2_mbox_conf_perm
I0410 05:45:50.100488    48 net.cpp:160] Setting up conv7_2_mbox_conf_perm
I0410 05:45:50.100494    48 net.cpp:167] Top shape: 1 6 8 126 (6048)
I0410 05:45:50.100500    48 net.cpp:175] Memory required for data: 428442496
I0410 05:45:50.100504    48 layer_factory.hpp:93] Creating layer conv7_2_mbox_conf_flat
I0410 05:45:50.100509    48 net.cpp:110] Creating Layer conv7_2_mbox_conf_flat
I0410 05:45:50.100513    48 net.cpp:451] conv7_2_mbox_conf_flat <- conv7_2_mbox_conf_perm
I0410 05:45:50.100519    48 net.cpp:425] conv7_2_mbox_conf_flat -> conv7_2_mbox_conf_flat
I0410 05:45:50.100540    48 net.cpp:160] Setting up conv7_2_mbox_conf_flat
I0410 05:45:50.100546    48 net.cpp:167] Top shape: 1 6048 (6048)
I0410 05:45:50.100551    48 net.cpp:175] Memory required for data: 428466688
I0410 05:45:50.100555    48 layer_factory.hpp:93] Creating layer conv7_2_mbox_priorbox
I0410 05:45:50.100562    48 net.cpp:110] Creating Layer conv7_2_mbox_priorbox
I0410 05:45:50.100567    48 net.cpp:451] conv7_2_mbox_priorbox <- conv6_2_conv6_2_relu_0_split_3
I0410 05:45:50.100571    48 net.cpp:451] conv7_2_mbox_priorbox <- data_data_0_split_4
I0410 05:45:50.100577    48 net.cpp:425] conv7_2_mbox_priorbox -> conv7_2_mbox_priorbox
I0410 05:45:50.100605    48 net.cpp:160] Setting up conv7_2_mbox_priorbox
I0410 05:45:50.100615    48 net.cpp:167] Top shape: 1 2 1152 (2304)
I0410 05:45:50.100620    48 net.cpp:175] Memory required for data: 428475904
I0410 05:45:50.100622    48 layer_factory.hpp:93] Creating layer conv8_2_mbox_loc
I0410 05:45:50.100631    48 net.cpp:110] Creating Layer conv8_2_mbox_loc
I0410 05:45:50.100636    48 net.cpp:451] conv8_2_mbox_loc <- conv7_2_conv7_2_relu_0_split_0
I0410 05:45:50.100642    48 net.cpp:425] conv8_2_mbox_loc -> conv8_2_mbox_loc
I0410 05:45:50.101140    48 net.cpp:160] Setting up conv8_2_mbox_loc
I0410 05:45:50.101148    48 net.cpp:167] Top shape: 1 16 3 4 (192)
I0410 05:45:50.101153    48 net.cpp:175] Memory required for data: 428476672
I0410 05:45:50.101161    48 layer_factory.hpp:93] Creating layer conv8_2_mbox_loc_bn
I0410 05:45:50.101169    48 net.cpp:110] Creating Layer conv8_2_mbox_loc_bn
I0410 05:45:50.101173    48 net.cpp:451] conv8_2_mbox_loc_bn <- conv8_2_mbox_loc
I0410 05:45:50.101179    48 net.cpp:412] conv8_2_mbox_loc_bn -> conv8_2_mbox_loc (in-place)
I0410 05:45:50.101814    48 net.cpp:160] Setting up conv8_2_mbox_loc_bn
I0410 05:45:50.101824    48 net.cpp:167] Top shape: 1 16 3 4 (192)
I0410 05:45:50.101830    48 net.cpp:175] Memory required for data: 428477440
I0410 05:45:50.101838    48 layer_factory.hpp:93] Creating layer conv8_2_mbox_loc_perm
I0410 05:45:50.101845    48 net.cpp:110] Creating Layer conv8_2_mbox_loc_perm
I0410 05:45:50.101850    48 net.cpp:451] conv8_2_mbox_loc_perm <- conv8_2_mbox_loc
I0410 05:45:50.101856    48 net.cpp:425] conv8_2_mbox_loc_perm -> conv8_2_mbox_loc_perm
I0410 05:45:50.101939    48 net.cpp:160] Setting up conv8_2_mbox_loc_perm
I0410 05:45:50.101945    48 net.cpp:167] Top shape: 1 3 4 16 (192)
I0410 05:45:50.101950    48 net.cpp:175] Memory required for data: 428478208
I0410 05:45:50.101954    48 layer_factory.hpp:93] Creating layer conv8_2_mbox_loc_flat
I0410 05:45:50.101960    48 net.cpp:110] Creating Layer conv8_2_mbox_loc_flat
I0410 05:45:50.101964    48 net.cpp:451] conv8_2_mbox_loc_flat <- conv8_2_mbox_loc_perm
I0410 05:45:50.101970    48 net.cpp:425] conv8_2_mbox_loc_flat -> conv8_2_mbox_loc_flat
I0410 05:45:50.101990    48 net.cpp:160] Setting up conv8_2_mbox_loc_flat
I0410 05:45:50.101999    48 net.cpp:167] Top shape: 1 192 (192)
I0410 05:45:50.102005    48 net.cpp:175] Memory required for data: 428478976
I0410 05:45:50.102007    48 layer_factory.hpp:93] Creating layer conv8_2_mbox_conf_new
I0410 05:45:50.102016    48 net.cpp:110] Creating Layer conv8_2_mbox_conf_new
I0410 05:45:50.102020    48 net.cpp:451] conv8_2_mbox_conf_new <- conv7_2_conv7_2_relu_0_split_1
I0410 05:45:50.102026    48 net.cpp:425] conv8_2_mbox_conf_new -> conv8_2_mbox_conf_new
I0410 05:45:50.103442    48 net.cpp:160] Setting up conv8_2_mbox_conf_new
I0410 05:45:50.103452    48 net.cpp:167] Top shape: 1 84 3 4 (1008)
I0410 05:45:50.103457    48 net.cpp:175] Memory required for data: 428483008
I0410 05:45:50.103464    48 layer_factory.hpp:93] Creating layer conv8_2_mbox_conf_bn
I0410 05:45:50.103472    48 net.cpp:110] Creating Layer conv8_2_mbox_conf_bn
I0410 05:45:50.103477    48 net.cpp:451] conv8_2_mbox_conf_bn <- conv8_2_mbox_conf_new
I0410 05:45:50.103483    48 net.cpp:412] conv8_2_mbox_conf_bn -> conv8_2_mbox_conf_new (in-place)
I0410 05:45:50.104125    48 net.cpp:160] Setting up conv8_2_mbox_conf_bn
I0410 05:45:50.104135    48 net.cpp:167] Top shape: 1 84 3 4 (1008)
I0410 05:45:50.104140    48 net.cpp:175] Memory required for data: 428487040
I0410 05:45:50.104148    48 layer_factory.hpp:93] Creating layer conv8_2_mbox_conf_perm
I0410 05:45:50.104156    48 net.cpp:110] Creating Layer conv8_2_mbox_conf_perm
I0410 05:45:50.104161    48 net.cpp:451] conv8_2_mbox_conf_perm <- conv8_2_mbox_conf_new
I0410 05:45:50.104167    48 net.cpp:425] conv8_2_mbox_conf_perm -> conv8_2_mbox_conf_perm
I0410 05:45:50.104250    48 net.cpp:160] Setting up conv8_2_mbox_conf_perm
I0410 05:45:50.104257    48 net.cpp:167] Top shape: 1 3 4 84 (1008)
I0410 05:45:50.104262    48 net.cpp:175] Memory required for data: 428491072
I0410 05:45:50.104266    48 layer_factory.hpp:93] Creating layer conv8_2_mbox_conf_flat
I0410 05:45:50.104271    48 net.cpp:110] Creating Layer conv8_2_mbox_conf_flat
I0410 05:45:50.104276    48 net.cpp:451] conv8_2_mbox_conf_flat <- conv8_2_mbox_conf_perm
I0410 05:45:50.104281    48 net.cpp:425] conv8_2_mbox_conf_flat -> conv8_2_mbox_conf_flat
I0410 05:45:50.104302    48 net.cpp:160] Setting up conv8_2_mbox_conf_flat
I0410 05:45:50.104307    48 net.cpp:167] Top shape: 1 1008 (1008)
I0410 05:45:50.104312    48 net.cpp:175] Memory required for data: 428495104
I0410 05:45:50.104316    48 layer_factory.hpp:93] Creating layer conv8_2_mbox_priorbox
I0410 05:45:50.104323    48 net.cpp:110] Creating Layer conv8_2_mbox_priorbox
I0410 05:45:50.104327    48 net.cpp:451] conv8_2_mbox_priorbox <- conv7_2_conv7_2_relu_0_split_2
I0410 05:45:50.104332    48 net.cpp:451] conv8_2_mbox_priorbox <- data_data_0_split_5
I0410 05:45:50.104338    48 net.cpp:425] conv8_2_mbox_priorbox -> conv8_2_mbox_priorbox
I0410 05:45:50.104360    48 net.cpp:160] Setting up conv8_2_mbox_priorbox
I0410 05:45:50.104367    48 net.cpp:167] Top shape: 1 2 192 (384)
I0410 05:45:50.104372    48 net.cpp:175] Memory required for data: 428496640
I0410 05:45:50.104375    48 layer_factory.hpp:93] Creating layer mbox_loc
I0410 05:45:50.104387    48 net.cpp:110] Creating Layer mbox_loc
I0410 05:45:50.104395    48 net.cpp:451] mbox_loc <- conv4_3_norm_mbox_loc_flat
I0410 05:45:50.104400    48 net.cpp:451] mbox_loc <- fc7_mbox_loc_flat
I0410 05:45:50.104405    48 net.cpp:451] mbox_loc <- conv6_2_mbox_loc_flat
I0410 05:45:50.104409    48 net.cpp:451] mbox_loc <- conv7_2_mbox_loc_flat
I0410 05:45:50.104413    48 net.cpp:451] mbox_loc <- conv8_2_mbox_loc_flat
I0410 05:45:50.104419    48 net.cpp:425] mbox_loc -> mbox_loc
I0410 05:45:50.104725    48 net.cpp:160] Setting up mbox_loc
I0410 05:45:50.104734    48 net.cpp:167] Top shape: 1 108624 (108624)
I0410 05:45:50.104740    48 net.cpp:175] Memory required for data: 428931136
I0410 05:45:50.104744    48 layer_factory.hpp:93] Creating layer mbox_conf
I0410 05:45:50.104750    48 net.cpp:110] Creating Layer mbox_conf
I0410 05:45:50.104755    48 net.cpp:451] mbox_conf <- conv4_3_norm_mbox_conf_flat
I0410 05:45:50.104760    48 net.cpp:451] mbox_conf <- fc7_mbox_conf_flat
I0410 05:45:50.104765    48 net.cpp:451] mbox_conf <- conv6_2_mbox_conf_flat
I0410 05:45:50.104769    48 net.cpp:451] mbox_conf <- conv7_2_mbox_conf_flat
I0410 05:45:50.104774    48 net.cpp:451] mbox_conf <- conv8_2_mbox_conf_flat
I0410 05:45:50.104779    48 net.cpp:425] mbox_conf -> mbox_conf
I0410 05:45:50.104802    48 net.cpp:160] Setting up mbox_conf
I0410 05:45:50.104806    48 net.cpp:167] Top shape: 1 570276 (570276)
I0410 05:45:50.104811    48 net.cpp:175] Memory required for data: 431212240
I0410 05:45:50.104815    48 layer_factory.hpp:93] Creating layer mbox_priorbox
I0410 05:45:50.104820    48 net.cpp:110] Creating Layer mbox_priorbox
I0410 05:45:50.104825    48 net.cpp:451] mbox_priorbox <- conv4_3_norm_mbox_priorbox
I0410 05:45:50.104830    48 net.cpp:451] mbox_priorbox <- fc7_mbox_priorbox
I0410 05:45:50.104833    48 net.cpp:451] mbox_priorbox <- conv6_2_mbox_priorbox
I0410 05:45:50.104837    48 net.cpp:451] mbox_priorbox <- conv7_2_mbox_priorbox
I0410 05:45:50.104841    48 net.cpp:451] mbox_priorbox <- conv8_2_mbox_priorbox
I0410 05:45:50.104846    48 net.cpp:425] mbox_priorbox -> mbox_priorbox
I0410 05:45:50.104866    48 net.cpp:160] Setting up mbox_priorbox
I0410 05:45:50.104873    48 net.cpp:167] Top shape: 1 2 108624 (217248)
I0410 05:45:50.104878    48 net.cpp:175] Memory required for data: 432081232
I0410 05:45:50.104882    48 layer_factory.hpp:93] Creating layer mbox_conf_reshape
I0410 05:45:50.104893    48 net.cpp:110] Creating Layer mbox_conf_reshape
I0410 05:45:50.104897    48 net.cpp:451] mbox_conf_reshape <- mbox_conf
I0410 05:45:50.104903    48 net.cpp:425] mbox_conf_reshape -> mbox_conf_reshape
I0410 05:45:50.104926    48 net.cpp:160] Setting up mbox_conf_reshape
I0410 05:45:50.104933    48 net.cpp:167] Top shape: 1 27156 21 (570276)
I0410 05:45:50.104938    48 net.cpp:175] Memory required for data: 434362336
I0410 05:45:50.104941    48 layer_factory.hpp:93] Creating layer mbox_conf_softmax
I0410 05:45:50.104948    48 net.cpp:110] Creating Layer mbox_conf_softmax
I0410 05:45:50.104952    48 net.cpp:451] mbox_conf_softmax <- mbox_conf_reshape
I0410 05:45:50.104959    48 net.cpp:425] mbox_conf_softmax -> mbox_conf_softmax
I0410 05:45:50.105034    48 net.cpp:160] Setting up mbox_conf_softmax
I0410 05:45:50.105043    48 net.cpp:167] Top shape: 1 27156 21 (570276)
I0410 05:45:50.105052    48 net.cpp:175] Memory required for data: 436643440
I0410 05:45:50.105058    48 layer_factory.hpp:93] Creating layer mbox_conf_flatten
I0410 05:45:50.105068    48 net.cpp:110] Creating Layer mbox_conf_flatten
I0410 05:45:50.105073    48 net.cpp:451] mbox_conf_flatten <- mbox_conf_softmax
I0410 05:45:50.105080    48 net.cpp:425] mbox_conf_flatten -> mbox_conf_flatten
I0410 05:45:50.105103    48 net.cpp:160] Setting up mbox_conf_flatten
I0410 05:45:50.105109    48 net.cpp:167] Top shape: 1 570276 (570276)
I0410 05:45:50.105114    48 net.cpp:175] Memory required for data: 438924544
I0410 05:45:50.105118    48 layer_factory.hpp:93] Creating layer detection_out
I0410 05:45:50.105131    48 net.cpp:110] Creating Layer detection_out
I0410 05:45:50.105139    48 net.cpp:451] detection_out <- mbox_loc
I0410 05:45:50.105144    48 net.cpp:451] detection_out <- mbox_conf_flatten
I0410 05:45:50.105147    48 net.cpp:451] detection_out <- mbox_priorbox
I0410 05:45:50.105154    48 net.cpp:425] detection_out -> detection_out
I0410 05:45:50.316231    48 net.cpp:160] Setting up detection_out
I0410 05:45:50.316243    48 net.cpp:167] Top shape: 1 1 1 7 (7)
I0410 05:45:50.316248    48 net.cpp:175] Memory required for data: 438924572
I0410 05:45:50.316252    48 layer_factory.hpp:93] Creating layer detection_eval
I0410 05:45:50.316264    48 net.cpp:110] Creating Layer detection_eval
I0410 05:45:50.316269    48 net.cpp:451] detection_eval <- detection_out
I0410 05:45:50.316274    48 net.cpp:451] detection_eval <- label
I0410 05:45:50.316280    48 net.cpp:425] detection_eval -> detection_eval
I0410 05:45:50.317916    48 net.cpp:160] Setting up detection_eval
I0410 05:45:50.317927    48 net.cpp:167] Top shape: 1 1 21 5 (105)
I0410 05:45:50.317948    48 net.cpp:175] Memory required for data: 438924992
I0410 05:45:50.317952    48 net.cpp:238] detection_eval does not need backward computation.
I0410 05:45:50.317960    48 net.cpp:238] detection_out does not need backward computation.
I0410 05:45:50.317965    48 net.cpp:238] mbox_conf_flatten does not need backward computation.
I0410 05:45:50.317970    48 net.cpp:238] mbox_conf_softmax does not need backward computation.
…
