…
  top: "label"
  include {
    phase: TRAIN
  }
  transform_param {
    mean_value: 104
    mean_value: 117
    mean_value: 123
    resize_param {
      prob: 1
      resize_mode: WARP
      height: 360
      width: 480
      interp_mode: LINEAR
      interp_mode: AREA
      interp_mode: NEAREST
      interp_mode: CUBIC
      interp_mode: LANCZOS4
    }
  }
  image_data_param {
    source: "../calibration.txt"
    batch_size: 1
    shuffle: true
    new_height: 360
    new_width: 480
    root_folder: "/workspace/SSD/data/VOCdevkit/VOC2007/JPEGImages/"
  }
}
layer {
  name: "conv1"
  type: "Convolution"
  bottom: "data"
  top: "conv1"
  param {
    lr_mult: 1
    decay_mult: 1
  }
  convolution_param {
    num_output: 32
    bias_term: false
    pad: 1
    kernel_size: 3
    stride: 2
    weight_filler {
      type: "msra"
    }
  }
}
layer {
  name: "conv1/bn"
  type: "BatchNorm"
  bottom: "conv1"
  top: "conv1/bn"
  param {
    lr_mult: 1
    decay_mult: 0
  }
  param {
    lr_mult: 1
    decay_mult: 0
  }
  param {
    lr_mult: 0
    decay_mult: 0
  }
  param {
    lr_mult: 0
    decay_mult: 0
  }
  batch_norm_param {
    use_global_stats: true
    eps: 1e-05
    scale_filler {
      type: "constant"
      value: 1
    }
    bias_filler {
      type: "constant"
      value: 0
    }
  }
}
layer {
  name: "relu1"
  type: "ReLU"
  bottom: "conv1/bn"
  top: "conv1/bn"
}
layer {
  name: "conv2_1/expand"
  type: "Convolution"
  bottom: "conv1/bn"
  top: "conv2_1/expand"
  param {
    lr_mult: 1
    decay_mult: 1
  }
  convolution_param {
    num_output: 32
    bias_term: false
    kernel_size: 1
    weight_filler {
      type: "msra"
    }
  }
}
layer {
  name: "conv2_1/expand/bn"
  type: "BatchNorm"
  bottom: "conv2_1/expand"
  top: "conv2_1/expand/bn"
  param {
    lr_mult: 1
    decay_mult: 0
  }
  param {
    lr_mult: 1
    decay_mult: 0
  }
  param {
    lr_mult: 0
    decay_mult: 0
  }
  param {
    lr_mult: 0
    decay_mult: 0
  }
  batch_norm_param {
    use_global_stats: true
    eps: 1e-05
    scale_filler {
      type: "constant"
      value: 1
    }
    bias_filler {
      type: "constant"
      value: 0
    }
  }
}
layer {
  name: "relu2_1/expand"
  type: "ReLU"
  bottom: "conv2_1/expand/bn"
  top: "conv2_1/expand/bn"
}
layer {
  name: "conv2_1/dwise"
  type: "Convolution"
  bottom: "conv2_1/expand/bn"
  top: "conv2_1/dwise"
  param {
    lr_mult: 1
    decay_mult: 1
  }
  convolution_param {
    num_output: 32
    bias_term: false
    pad: 1
    kernel_size: 3
    group: 32
    weight_filler {
      type: "msra"
    }
    engine: CAFFE
  }
}
layer {
  name: "conv2_1/dwise/bn"
  type: "BatchNorm"
  bottom: "conv2_1/dwise"
  top: "conv2_1/dwise/bn"
  param {
    lr_mult: 1
    decay_mult: 0
  }
  param {
    lr_mult: 1
    decay_mult: 0
  }
  param {
    lr_mult: 0
    decay_mult: 0
  }
  param {
    lr_mult: 0
    decay_mult: 0
  }
  batch_norm_param {
    use_global_stats: true
    eps: 1e-05
    scale_filler {
      type: "constant"
      value: 1
    }
    bias_filler {
      type: "constant"
      value: 0
    }
  }
}
layer {
  name: "relu2_1/dwise"
  type: "ReLU"
  bottom: "conv2_1/dwise/bn"
  top: "conv2_1/dwise/bn"
}
layer {
  name: "conv2_1/linear"
  type: "Convolution"
  bottom: "conv2_1/dwise/bn"
  top: "conv2_1/linear"
  param {
    lr_mult: 1
    decay_mult: 1
  }
  convolution_param {
    num_output: 16
    bias_term: false
    kernel_size: 1
    weight_filler {
      type: "msra"
    }
  }
}
layer {
  name: "conv2_1/linear/bn"
  type: "BatchNorm"
  bottom: "conv2_1/linear"
  top: "conv2_1/linear/bn"
  param {
    lr_mult: 1
    decay_mult: 0
  }
  param {
    lr_mult: 1
    decay_mult: 0
  }
  param {
    lr_mult: 0
    decay_mult: 0
  }
  param {
    lr_mult: 0
    decay_mult: 0
  }
  batch_norm_param {
    use_global_stats: true
    eps: 1e-05
    scale_filler {
      type: "constant"
      value: 1
    }
    bias_filler {
      type: "constant"
      value: 0
    }
  }
}
layer {
  name: "conv2_2/expand"
  type: "Convolution"
  bottom: "conv2_1/linear/bn"
  top: "conv2_2/expand"
  param {
    lr_mult: 1
    decay_mult: 1
  }
  convolution_param {
    num_output: 96
    bias_term: false
    kernel_size: 1
    weight_filler {
      type: "msra"
    }
  }
}
layer {
  name: "conv2_2/expand/bn"
  type: "BatchNorm"
  bottom: "conv2_2/expand"
  top: "conv2_2/expand/bn"
  param {
    lr_mult: 1
    decay_mult: 0
  }
  param {
    lr_mult: 1
    decay_mult: 0
  }
  param {
    lr_mult: 0
    decay_mult: 0
  }
  param {
    lr_mult: 0
    decay_mult: 0
  }
  batch_norm_param {
    use_global_stats: true
    eps: 1e-05
    scale_filler {
      type: "constant"
      value: 1
    }
    bias_filler {
      type: "constant"
      value: 0
    }
  }
}
layer {
  name: "relu2_2/expand"
  type: "ReLU"
  bottom: "conv2_2/expand/bn"
  top: "conv2_2/expand/bn"
}
layer {
  name: "conv2_2/dwise"
  type: "Convolution"
  bottom: "conv2_2/expand/bn"
  top: "conv2_2/dwise"
  param {
    lr_mult: 1
    decay_mult: 1
  }
  convolution_param {
    num_output: 96
    bias_term: false
    pad: 1
    kernel_size: 3
    group: 96
    stride: 2
    weight_filler {
      type: "msra"
    }
    engine: CAFFE
  }
}
layer {
  name: "conv2_2/dwise/bn"
  type: "BatchNorm"
  bottom: "conv2_2/dwise"
  top: "conv2_2/dwise/bn"
  param {
    lr_mult: 1
    decay_mult: 0
  }
  param {
    lr_mult: 1
    decay_mult: 0
  }
  param {
    lr_mult: 0
    decay_mult: 0
  }
  param {
    lr_mult: 0
    decay_mult: 0
  }
  batch_norm_param {
    use_global_stats: true
    eps: 1e-05
    scale_filler {
      type: "constant"
      value: 1
    }
    bias_filler {
      type: "constant"
      value: 0
    }
  }
}
layer {
  name: "relu2_2/dwise"
  type: "ReLU"
  bottom: "conv2_2/dwise/bn"
  top: "conv2_2/dwise/bn"
}
layer {
  name: "conv2_2/linear"
  type: "Convolution"
  bottom: "conv2_2/dwise/bn"
  top: "conv2_2/linear"
  param {
    lr_mult: 1
    decay_mult: 1
  }
  convolution_param {
    num_output: 24
    bias_term: false
    kernel_size: 1
    weight_filler {
      type: "msra"
    }
  }
}
layer {
  name: "conv2_2/linear/bn"
  type: "BatchNorm"
  bottom: "conv2_2/linear"
  top: "conv2_2/linear/bn"
  param {
    lr_mult: 1
    decay_mult: 0
  }
  param {
    lr_mult: 1
    decay_mult: 0
  }
  param {
    lr_mult: 0
    decay_mult: 0
  }
  param {
    lr_mult: 0
    decay_mult: 0
  }
  batch_norm_param {
    use_global_stats: true
    eps: 1e-05
    scale_filler {
      type: "constant"
      value: 1
    }
    bias_filler {
      type: "constant"
      value: 0
    }
  }
}
layer {
  name: "conv3_1/expand"
  type: "Convolution"
  bottom: "conv2_2/linear/bn"
  top: "conv3_1/expand"
  param {
    lr_mult: 1
    decay_mult: 1
  }
  convolution_param {
    num_output: 144
    bias_term: false
    kernel_size: 1
    weight_filler {
      type: "msra"
    }
  }
}
layer {
  name: "conv3_1/expand/bn"
  type: "BatchNorm"
  bottom: "conv3_1/expand"
  top: "conv3_1/expand/bn"
  param {
    lr_mult: 1
    decay_mult: 0
  }
  param {
    lr_mult: 1
    decay_mult: 0
  }
  param {
    lr_mult: 0
    decay_mult: 0
  }
  param {
    lr_mult: 0
    decay_mult: 0
  }
  batch_norm_param {
    use_global_stats: true
    eps: 1e-05
    scale_filler {
      type: "constant"
      value: 1
    }
    bias_filler {
      type: "constant"
      value: 0
    }
  }
}
layer {
  name: "relu3_1/expand"
  type: "ReLU"
  bottom: "conv3_1/expand/bn"
  top: "conv3_1/expand/bn"
}
layer {
  name: "conv3_1/dwise"
  type: "Convolution"
  bottom: "conv3_1/expand/bn"
  top: "conv3_1/dwise"
  param {
    lr_mult: 1
    decay_mult: 1
  }
  convolution_param {
    num_output: 144
    bias_term: false
    pad: 1
    kernel_size: 3
    group: 144
    weight_filler {
      type: "msra"
    }
    engine: CAFFE
  }
}
layer {
  name: "conv3_1/dwise/bn"
  type: "BatchNorm"
  bottom: "conv3_1/dwise"
  top: "conv3_1/dwise/bn"
  param {
    lr_mult: 1
    decay_mult: 0
  }
  param {
    lr_mult: 1
    decay_mult: 0
  }
  param {
    lr_mult: 0
    decay_mult: 0
  }
  param {
    lr_mult: 0
    decay_mult: 0
  }
  batch_norm_param {
    use_global_stats: true
    eps: 1e-05
    scale_filler {
      type: "constant"
      value: 1
    }
    bias_filler {
      type: "constant"
      value: 0
    }
  }
}
layer {
  name: "relu3_1/dwise"
  type: "ReLU"
  bottom: "conv3_1/dwise/bn"
  top: "conv3_1/dwise/bn"
}
layer {
  name: "conv3_1/linear"
  type: "Convolution"
  bottom: "conv3_1/dwise/bn"
  top: "conv3_1/linear"
  param {
    lr_mult: 1
    decay_mult: 1
  }
  convolution_param {
    num_output: 24
    bias_term: false
    kernel_size: 1
    weight_filler {
      type: "msra"
    }
  }
}
layer {
  name: "conv3_1/linear/bn"
  type: "BatchNorm"
  bottom: "conv3_1/linear"
  top: "conv3_1/linear/bn"
  param {
    lr_mult: 1
    decay_mult: 0
  }
  param {
    lr_mult: 1
    decay_mult: 0
  }
  param {
    lr_mult: 0
    decay_mult: 0
  }
  param {
    lr_mult: 0
    decay_mult: 0
  }
  batch_norm_param {
    use_global_stats: true
    eps: 1e-05
    scale_filler {
      type: "constant"
      value: 1
    }
    bias_filler {
      type: "constant"
      value: 0
    }
  }
}
layer {
  name: "block_3_1"
  type: "Eltwise"
  bottom: "conv2_2/linear/bn"
  bottom: "conv3_1/linear/bn"
  top: "block_3_1"
}
layer {
  name: "conv3_2/expand"
  type: "Convolution"
  bottom: "block_3_1"
  top: "conv3_2/expand"
  param {
    lr_mult: 1
    decay_mult: 1
  }
  convolution_param {
    num_output: 144
    bias_term: false
    kernel_size: 1
    weight_filler {
      type: "msra"
    }
  }
}
layer {
  name: "conv3_2/expand/bn"
  type: "BatchNorm"
  bottom: "conv3_2/expand"
  top: "conv3_2/expand/bn"
  param {
    lr_mult: 1
    decay_mult: 0
  }
  param {
    lr_mult: 1
    decay_mult: 0
  }
  param {
    lr_mult: 0
    decay_mult: 0
  }
  param {
    lr_mult: 0
    decay_mult: 0
  }
  batch_norm_param {
    use_global_stats: true
    eps: 1e-05
    scale_filler {
      type: "constant"
      value: 1
    }
    bias_filler {
      type: "constant"
      value: 0
    }
  }
}
layer {
  name: "relu3_2/expand"
  type: "ReLU"
  bottom: "conv3_2/expand/bn"
  top: "conv3_2/expand/bn"
}
layer {
  name: "conv3_2/dwise"
  type: "Convolution"
  bottom: "conv3_2/expand/bn"
  top: "conv3_2/dwise"
  param {
    lr_mult: 1
    decay_mult: 1
  }
  convolution_param {
    num_output: 144
    bias_term: false
    pad: 1
    kernel_size: 3
    group: 144
    stride: 2
    weight_filler {
      type: "msra"
    }
    engine: CAFFE
  }
}
layer {
  name: "conv3_2/dwise/bn"
  type: "BatchNorm"
  bottom: "conv3_2/dwise"
  top: "conv3_2/dwise/bn"
  param {
    lr_mult: 1
    decay_mult: 0
  }
  param {
    lr_mult: 1
    decay_mult: 0
  }
  param {
    lr_mult: 0
    decay_mult: 0
  }
  param {
    lr_mult: 0
    decay_mult: 0
  }
  batch_norm_param {
    use_global_stats: true
    eps: 1e-05
    scale_filler {
      type: "constant"
      value: 1
    }
    bias_filler {
      type: "constant"
      value: 0
    }
  }
}
layer {
  name: "relu3_2/dwise"
  type: "ReLU"
  bottom: "conv3_2/dwise/bn"
  top: "conv3_2/dwise/bn"
}
layer {
  name: "conv3_2/linear"
  type: "Convolution"
  bottom: "conv3_2/dwise/bn"
  top: "conv3_2/linear"
  param {
    lr_mult: 1
    decay_mult: 1
  }
  convolution_param {
    num_output: 32
    bias_term: false
    kernel_size: 1
    weight_filler {
      type: "msra"
    }
  }
}
layer {
  name: "conv3_2/linear/bn"
  type: "BatchNorm"
  bottom: "conv3_2/linear"
  top: "conv3_2/linear/bn"
  param {
    lr_mult: 1
    decay_mult: 0
  }
  param {
    lr_mult: 1
    decay_mult: 0
  }
  param {
    lr_mult: 0
    decay_mult: 0
  }
  param {
    lr_mult: 0
    decay_mult: 0
  }
  batch_norm_param {
    use_global_stats: true
    eps: 1e-05
    scale_filler {
      type: "constant"
      value: 1
    }
    bias_filler {
      type: "constant"
      value: 0
    }
  }
}
layer {
  name: "conv4_1/expand"
  type: "Convolution"
  bottom: "conv3_2/linear/bn"
  top: "conv4_1/expand"
  param {
    lr_mult: 1
    decay_mult: 1
  }
  convolution_param {
    num_output: 192
    bias_term: false
    kernel_size: 1
    weight_filler {
      type: "msra"
    }
  }
}
layer {
  name: "conv4_1/expand/bn"
  type: "BatchNorm"
  bottom: "conv4_1/expand"
  top: "conv4_1/expand/bn"
  param {
    lr_mult: 1
    decay_mult: 0
  }
  param {
    lr_mult: 1
    decay_mult: 0
  }
  param {
    lr_mult: 0
    decay_mult: 0
  }
  param {
    lr_mult: 0
    decay_mult: 0
  }
  batch_norm_param {
    use_global_stats: true
    eps: 1e-05
    scale_filler {
      type: "constant"
      value: 1
    }
    bias_filler {
      type: "constant"
      value: 0
    }
  }
}
layer {
  name: "relu4_1/expand"
  type: "ReLU"
  bottom: "conv4_1/expand/bn"
  top: "conv4_1/expand/bn"
}
layer {
  name: "conv4_1/dwise"
  type: "Convolution"
  bottom: "conv4_1/expand/bn"
  top: "conv4_1/dwise"
  param {
    lr_mult: 1
    decay_mult: 1
  }
  convolution_param {
    num_output: 192
    bias_term: false
    pad: 1
    kernel_size: 3
    group: 192
    weight_filler {
      type: "msra"
    }
    engine: CAFFE
  }
}
layer {
  name: "conv4_1/dwise/bn"
  type: "BatchNorm"
  bottom: "conv4_1/dwise"
  top: "conv4_1/dwise/bn"
  param {
    lr_mult: 1
    decay_mult: 0
  }
  param {
    lr_mult: 1
    decay_mult: 0
  }
  param {
    lr_mult: 0
    decay_mult: 0
  }
  param {
    lr_mult: 0
    decay_mult: 0
  }
  batch_norm_param {
    use_global_stats: true
    eps: 1e-05
    scale_filler {
      type: "constant"
      value: 1
    }
    bias_filler {
      type: "constant"
      value: 0
    }
  }
}
layer {
  name: "relu4_1/dwise"
  type: "ReLU"
  bottom: "conv4_1/dwise/bn"
  top: "conv4_1/dwise/bn"
}
layer {
  name: "conv4_1/linear"
  type: "Convolution"
  bottom: "conv4_1/dwise/bn"
  top: "conv4_1/linear"
  param {
    lr_mult: 1
    decay_mult: 1
  }
  convolution_param {
    num_output: 32
    bias_term: false
    kernel_size: 1
    weight_filler {
      type: "msra"
    }
  }
}
layer {
  name: "conv4_1/linear/bn"
  type: "BatchNorm"
  bottom: "conv4_1/linear"
  top: "conv4_1/linear/bn"
  param {
    lr_mult: 1
    decay_mult: 0
  }
  param {
    lr_mult: 1
    decay_mult: 0
  }
  param {
    lr_mult: 0
    decay_mult: 0
  }
  param {
    lr_mult: 0
    decay_mult: 0
  }
  batch_norm_param {
    use_global_stats: true
    eps: 1e-05
    scale_filler {
      type: "constant"
      value: 1
    }
    bias_filler {
      type: "constant"
      value: 0
    }
  }
}
layer {
  name: "block_4_1"
  type: "Eltwise"
  bottom: "conv3_2/linear/bn"
  bottom: "conv4_1/linear/bn"
  top: "block_4_1"
}
layer {
  name: "conv4_2/expand"
  type: "Convolution"
  bottom: "block_4_1"
  top: "conv4_2/expand"
  param {
    lr_mult: 1
    decay_mult: 1
  }
  convolution_param {
    num_output: 192
    bias_term: false
    kernel_size: 1
    weight_filler {
      type: "msra"
    }
  }
}
layer {
  name: "conv4_2/expand/bn"
  type: "BatchNorm"
  bottom: "conv4_2/expand"
  top: "conv4_2/expand/bn"
  param {
    lr_mult: 1
    decay_mult: 0
  }
  param {
    lr_mult: 1
    decay_mult: 0
  }
  param {
    lr_mult: 0
    decay_mult: 0
  }
  param {
    lr_mult: 0
    decay_mult: 0
  }
  batch_norm_param {
    use_global_stats: true
    eps: 1e-05
    scale_filler {
      type: "constant"
      value: 1
    }
    bias_filler {
      type: "constant"
      value: 0
    }
  }
}
layer {
  name: "relu4_2/expand"
  type: "ReLU"
  bottom: "conv4_2/expand/bn"
  top: "conv4_2/expand/bn"
}
layer {
  name: "conv4_2/dwise"
  type: "Convolution"
  bottom: "conv4_2/expand/bn"
  top: "conv4_2/dwise"
  param {
    lr_mult: 1
    decay_mult: 1
  }
  convolution_param {
    num_output: 192
    bias_term: false
    pad: 1
    kernel_size: 3
    group: 192
    weight_filler {
      type: "msra"
    }
    engine: CAFFE
  }
}
layer {
  name: "conv4_2/dwise/bn"
  type: "BatchNorm"
  bottom: "conv4_2/dwise"
  top: "conv4_2/dwise/bn"
  param {
    lr_mult: 1
    decay_mult: 0
  }
  param {
    lr_mult: 1
    decay_mult: 0
  }
  param {
    lr_mult: 0
    decay_mult: 0
  }
  param {
    lr_mult: 0
    decay_mult: 0
  }
  batch_norm_param {
    use_global_stats: true
    eps: 1e-05
    scale_filler {
      type: "constant"
      value: 1
    }
    bias_filler {
      type: "constant"
      value: 0
    }
  }
}
layer {
  name: "relu4_2/dwise"
  type: "ReLU"
  bottom: "conv4_2/dwise/bn"
  top: "conv4_2/dwise/bn"
}
layer {
  name: "conv4_2/linear"
  type: "Convolution"
  bottom: "conv4_2/dwise/bn"
  top: "conv4_2/linear"
  param {
    lr_mult: 1
    decay_mult: 1
  }
  convolution_param {
    num_output: 32
    bias_term: false
    kernel_size: 1
    weight_filler {
      type: "msra"
    }
  }
}
layer {
  name: "conv4_2/linear/bn"
  type: "BatchNorm"
  bottom: "conv4_2/linear"
  top: "conv4_2/linear/bn"
  param {
    lr_mult: 1
    decay_mult: 0
  }
  param {
    lr_mult: 1
    decay_mult: 0
  }
  param {
    lr_mult: 0
    decay_mult: 0
  }
  param {
    lr_mult: 0
    decay_mult: 0
  }
  batch_norm_param {
    use_global_stats: true
    eps: 1e-05
    scale_filler {
      type: "constant"
      value: 1
    }
    bias_filler {
      type: "constant"
      value: 0
    }
  }
}
layer {
  name: "block_4_2"
  type: "Eltwise"
  bottom: "block_4_1"
  bottom: "conv4_2/linear/bn"
  top: "block_4_2"
}
layer {
  name: "conv4_3/expand"
  type: "Convolution"
  bottom: "block_4_2"
  top: "conv4_3/expand"
  param {
    lr_mult: 1
    decay_mult: 1
  }
  convolution_param {
    num_output: 192
    bias_term: false
    kernel_size: 1
    weight_filler {
      type: "msra"
    }
  }
}
layer {
  name: "conv4_3/expand/bn"
  type: "BatchNorm"
  bottom: "conv4_3/expand"
  top: "conv4_3/expand/bn"
  param {
    lr_mult: 1
    decay_mult: 0
  }
  param {
    lr_mult: 1
    decay_mult: 0
  }
  param {
    lr_mult: 0
    decay_mult: 0
  }
  param {
    lr_mult: 0
    decay_mult: 0
  }
  batch_norm_param {
    use_global_stats: true
    eps: 1e-05
    scale_filler {
      type: "constant"
      value: 1
    }
    bias_filler {
      type: "constant"
      value: 0
    }
  }
}
layer {
  name: "relu4_3/expand"
  type: "ReLU"
  bottom: "conv4_3/expand/bn"
  top: "conv4_3/expand/bn"
}
layer {
  name: "conv4_3/dwise"
  type: "Convolution"
  bottom: "conv4_3/expand/bn"
  top: "conv4_3/dwise"
  param {
    lr_mult: 1
    decay_mult: 1
  }
  convolution_param {
    num_output: 192
    bias_term: false
    pad: 1
    kernel_size: 3
    group: 192
    weight_filler {
      type: "msra"
    }
    engine: CAFFE
  }
}
layer {
  name: "conv4_3/dwise/bn"
  type: "BatchNorm"
  bottom: "conv4_3/dwise"
  top: "conv4_3/dwise/bn"
  param {
    lr_mult: 1
    decay_mult: 0
  }
  param {
    lr_mult: 1
    decay_mult: 0
  }
  param {
    lr_mult: 0
    decay_mult: 0
  }
  param {
    lr_mult: 0
    decay_mult: 0
  }
  batch_norm_param {
    use_global_stats: true
    eps: 1e-05
    scale_filler {
      type: "constant"
      value: 1
    }
    bias_filler {
      type: "constant"
      value: 0
    }
  }
}
layer {
  name: "relu4_3/dwise"
  type: "ReLU"
  bottom: "conv4_3/dwise/bn"
  top: "conv4_3/dwise/bn"
}
layer {
  name: "conv4_3/linear"
  type: "Convolution"
  bottom: "conv4_3/dwise/bn"
  top: "conv4_3/linear"
  param {
    lr_mult: 1
    decay_mult: 1
  }
  convolution_param {
    num_output: 64
    bias_term: false
    kernel_size: 1
    weight_filler {
      type: "msra"
    }
  }
}
layer {
  name: "conv4_3/linear/bn"
  type: "BatchNorm"
  bottom: "conv4_3/linear"
  top: "conv4_3/linear/bn"
  param {
    lr_mult: 1
    decay_mult: 0
  }
  param {
    lr_mult: 1
    decay_mult: 0
  }
  param {
    lr_mult: 0
    decay_mult: 0
  }
  param {
    lr_mult: 0
    decay_mult: 0
  }
  batch_norm_param {
    use_global_stats: true
    eps: 1e-05
    scale_filler {
      type: "constant"
      value: 1
    }
    bias_filler {
      type: "constant"
      value: 0
    }
  }
}
layer {
  name: "conv4_4/expand"
  type: "Convolution"
  bottom: "conv4_3/linear/bn"
  top: "conv4_4/expand"
  param {
    lr_mult: 1
    decay_mult: 1
  }
  convolution_param {
    num_output: 384
    bias_term: false
    kernel_size: 1
    weight_filler {
      type: "msra"
    }
  }
}
layer {
  name: "conv4_4/expand/bn"
  type: "BatchNorm"
  bottom: "conv4_4/expand"
  top: "conv4_4/expand/bn"
  param {
    lr_mult: 1
    decay_mult: 0
  }
  param {
    lr_mult: 1
    decay_mult: 0
  }
  param {
    lr_mult: 0
    decay_mult: 0
  }
  param {
    lr_mult: 0
    decay_mult: 0
  }
  batch_norm_param {
    use_global_stats: true
    eps: 1e-05
    scale_filler {
      type: "constant"
      value: 1
    }
    bias_filler {
      type: "constant"
      value: 0
    }
  }
}
layer {
  name: "relu4_4/expand"
  type: "ReLU"
  bottom: "conv4_4/expand/bn"
  top: "conv4_4/expand/bn"
}
layer {
  name: "conv4_4/dwise"
  type: "Convolution"
  bottom: "conv4_4/expand/bn"
  top: "conv4_4/dwise"
  param {
    lr_mult: 1
    decay_mult: 1
  }
  convolution_param {
    num_output: 384
    bias_term: false
    pad: 1
    kernel_size: 3
    group: 384
    weight_filler {
      type: "msra"
    }
    engine: CAFFE
  }
}
layer {
  name: "conv4_4/dwise/bn"
  type: "BatchNorm"
  bottom: "conv4_4/dwise"
  top: "conv4_4/dwise/bn"
  param {
    lr_mult: 1
    decay_mult: 0
  }
  param {
    lr_mult: 1
    decay_mult: 0
  }
  param {
    lr_mult: 0
    decay_mult: 0
  }
  param {
    lr_mult: 0
    decay_mult: 0
  }
  batch_norm_param {
    use_global_stats: true
    eps: 1e-05
    scale_filler {
      type: "constant"
      value: 1
    }
    bias_filler {
      type: "constant"
      value: 0
    }
  }
}
layer {
  name: "relu4_4/dwise"
  type: "ReLU"
  bottom: "conv4_4/dwise/bn"
  top: "conv4_4/dwise/bn"
}
layer {
  name: "conv4_4/linear"
  type: "Convolution"
  bottom: "conv4_4/dwise/bn"
  top: "conv4_4/linear"
  param {
    lr_mult: 1
    decay_mult: 1
  }
  convolution_param {
    num_output: 64
    bias_term: false
    kernel_size: 1
    weight_filler {
      type: "msra"
    }
  }
}
layer {
  name: "conv4_4/linear/bn"
  type: "BatchNorm"
  bottom: "conv4_4/linear"
  top: "conv4_4/linear/bn"
  param {
    lr_mult: 1
    decay_mult: 0
  }
  param {
    lr_mult: 1
    decay_mult: 0
  }
  param {
    lr_mult: 0
    decay_mult: 0
  }
  param {
    lr_mult: 0
    decay_mult: 0
  }
  batch_norm_param {
    use_global_stats: true
    eps: 1e-05
    scale_filler {
      type: "constant"
      value: 1
    }
    bias_filler {
      type: "constant"
      value: 0
    }
  }
}
layer {
  name: "block_4_4"
  type: "Eltwise"
  bottom: "conv4_3/linear/bn"
  bottom: "conv4_4/linear/bn"
  top: "block_4_4"
}
layer {
  name: "conv4_5/expand"
  type: "Convolution"
  bottom: "block_4_4"
  top: "conv4_5/expand"
  param {
    lr_mult: 1
    decay_mult: 1
  }
  convolution_param {
    num_output: 384
    bias_term: false
    kernel_size: 1
    weight_filler {
      type: "msra"
    }
  }
}
layer {
  name: "conv4_5/expand/bn"
  type: "BatchNorm"
  bottom: "conv4_5/expand"
  top: "conv4_5/expand/bn"
  param {
    lr_mult: 1
    decay_mult: 0
  }
  param {
    lr_mult: 1
    decay_mult: 0
  }
  param {
    lr_mult: 0
    decay_mult: 0
  }
  param {
    lr_mult: 0
    decay_mult: 0
  }
  batch_norm_param {
    use_global_stats: true
    eps: 1e-05
    scale_filler {
      type: "constant"
      value: 1
    }
    bias_filler {
      type: "constant"
      value: 0
    }
  }
}
layer {
  name: "relu4_5/expand"
  type: "ReLU"
  bottom: "conv4_5/expand/bn"
  top: "conv4_5/expand/bn"
}
layer {
  name: "conv4_5/dwise"
  type: "Convolution"
  bottom: "conv4_5/expand/bn"
  top: "conv4_5/dwise"
  param {
    lr_mult: 1
    decay_mult: 1
  }
  convolution_param {
    num_output: 384
    bias_term: false
    pad: 1
    kernel_size: 3
    group: 384
    weight_filler {
      type: "msra"
    }
    engine: CAFFE
  }
}
layer {
  name: "conv4_5/dwise/bn"
  type: "BatchNorm"
  bottom: "conv4_5/dwise"
  top: "conv4_5/dwise/bn"
  param {
    lr_mult: 1
    decay_mult: 0
  }
  param {
    lr_mult: 1
    decay_mult: 0
  }
  param {
    lr_mult: 0
    decay_mult: 0
  }
  param {
    lr_mult: 0
    decay_mult: 0
  }
  batch_norm_param {
    use_global_stats: true
    eps: 1e-05
    scale_filler {
      type: "constant"
      value: 1
    }
    bias_filler {
      type: "constant"
      value: 0
    }
  }
}
layer {
  name: "relu4_5/dwise"
  type: "ReLU"
  bottom: "conv4_5/dwise/bn"
  top: "conv4_5/dwise/bn"
}
layer {
  name: "conv4_5/linear"
  type: "Convolution"
  bottom: "conv4_5/dwise/bn"
  top: "conv4_5/linear"
  param {
    lr_mult: 1
    decay_mult: 1
  }
  convolution_param {
    num_output: 64
    bias_term: false
    kernel_size: 1
    weight_filler {
      type: "msra"
    }
  }
}
layer {
  name: "conv4_5/linear/bn"
  type: "BatchNorm"
  bottom: "conv4_5/linear"
  top: "conv4_5/linear/bn"
  param {
    lr_mult: 1
    decay_mult: 0
  }
  param {
    lr_mult: 1
    decay_mult: 0
  }
  param {
    lr_mult: 0
    decay_mult: 0
  }
  param {
    lr_mult: 0
    decay_mult: 0
  }
  batch_norm_param {
    use_global_stats: true
    eps: 1e-05
    scale_filler {
      type: "constant"
      value: 1
    }
    bias_filler {
      type: "constant"
      value: 0
    }
  }
}
layer {
  name: "block_4_5"
  type: "Eltwise"
  bottom: "block_4_4"
  bottom: "conv4_5/linear/bn"
  top: "block_4_5"
}
layer {
  name: "conv4_6/expand"
  type: "Convolution"
  bottom: "block_4_5"
  top: "conv4_6/expand"
  param {
    lr_mult: 1
    decay_mult: 1
  }
  convolution_param {
    num_output: 384
    bias_term: false
    kernel_size: 1
    weight_filler {
      type: "msra"
    }
  }
}
layer {
  name: "conv4_6/expand/bn"
  type: "BatchNorm"
  bottom: "conv4_6/expand"
  top: "conv4_6/expand/bn"
  param {
    lr_mult: 1
    decay_mult: 0
  }
  param {
    lr_mult: 1
    decay_mult: 0
  }
  param {
    lr_mult: 0
    decay_mult: 0
  }
  param {
    lr_mult: 0
    decay_mult: 0
  }
  batch_norm_param {
    use_global_stats: true
    eps: 1e-05
    scale_filler {
      type: "constant"
      value: 1
    }
    bias_filler {
      type: "constant"
      value: 0
    }
  }
}
layer {
  name: "relu4_6/expand"
  type: "ReLU"
  bottom: "conv4_6/expand/bn"
  top: "conv4_6/expand/bn"
}
layer {
  name: "conv4_6/dwise"
  type: "Convolution"
  bottom: "conv4_6/expand/bn"
  top: "conv4_6/dwise"
  param {
    lr_mult: 1
    decay_mult: 1
  }
  convolution_param {
    num_output: 384
    bias_term: false
    pad: 1
    kernel_size: 3
    group: 384
    weight_filler {
      type: "msra"
    }
    engine: CAFFE
  }
}
layer {
  name: "conv4_6/dwise/bn"
  type: "BatchNorm"
  bottom: "conv4_6/dwise"
  top: "conv4_6/dwise/bn"
  param {
    lr_mult: 1
    decay_mult: 0
  }
  param {
    lr_mult: 1
    decay_mult: 0
  }
  param {
    lr_mult: 0
    decay_mult: 0
  }
  param {
    lr_mult: 0
    decay_mult: 0
  }
  batch_norm_param {
    use_global_stats: true
    eps: 1e-05
    scale_filler {
      type: "constant"
      value: 1
    }
    bias_filler {
      type: "constant"
      value: 0
    }
  }
}
layer {
  name: "relu4_6/dwise"
  type: "ReLU"
  bottom: "conv4_6/dwise/bn"
  top: "conv4_6/dwise/bn"
}
layer {
  name: "conv4_6/linear"
  type: "Convolution"
  bottom: "conv4_6/dwise/bn"
  top: "conv4_6/linear"
  param {
    lr_mult: 1
    decay_mult: 1
  }
  convolution_param {
    num_output: 64
    bias_term: false
    kernel_size: 1
    weight_filler {
      type: "msra"
    }
  }
}
layer {
  name: "conv4_6/linear/bn"
  type: "BatchNorm"
  bottom: "conv4_6/linear"
  top: "conv4_6/linear/bn"
  param {
    lr_mult: 1
    decay_mult: 0
  }
  param {
    lr_mult: 1
    decay_mult: 0
  }
  param {
    lr_mult: 0
    decay_mult: 0
  }
  param {
    lr_mult: 0
    decay_mult: 0
  }
  batch_norm_param {
    use_global_stats: true
    eps: 1e-05
    scale_filler {
      type: "constant"
      value: 1
    }
    bias_filler {
      type: "constant"
      value: 0
    }
  }
}
layer {
  name: "block_4_6"
  type: "Eltwise"
  bottom: "block_4_5"
  bottom: "conv4_6/linear/bn"
  top: "block_4_6"
}
layer {
  name: "conv4_7/expand"
  type: "Convolution"
  bottom: "block_4_6"
  top: "conv4_7/expand"
  param {
    lr_mult: 1
    decay_mult: 1
  }
  convolution_param {
    num_output: 384
    bias_term: false
    kernel_size: 1
    weight_filler {
      type: "msra"
    }
  }
}
layer {
  name: "conv4_7/expand/bn"
  type: "BatchNorm"
  bottom: "conv4_7/expand"
  top: "conv4_7/expand/bn"
  param {
    lr_mult: 1
    decay_mult: 0
  }
  param {
    lr_mult: 1
    decay_mult: 0
  }
  param {
    lr_mult: 0
    decay_mult: 0
  }
  param {
    lr_mult: 0
    decay_mult: 0
  }
  batch_norm_param {
    use_global_stats: true
    eps: 1e-05
    scale_filler {
      type: "constant"
      value: 1
    }
    bias_filler {
      type: "constant"
      value: 0
    }
  }
}
layer {
  name: "relu4_7/expand"
  type: "ReLU"
  bottom: "conv4_7/expand/bn"
  top: "conv4_7/expand/bn"
}
layer {
  name: "conv4_7/dwise"
  type: "Convolution"
  bottom: "conv4_7/expand/bn"
  top: "conv4_7/dwise"
  param {
    lr_mult: 1
    decay_mult: 1
  }
  convolution_param {
    num_output: 384
    bias_term: false
    pad: 1
    kernel_size: 3
    group: 384
    stride: 2
    weight_filler {
      type: "msra"
    }
    engine: CAFFE
  }
}
layer {
  name: "conv4_7/dwise/bn"
  type: "BatchNorm"
  bottom: "conv4_7/dwise"
  top: "conv4_7/dwise/bn"
  param {
    lr_mult: 1
    decay_mult: 0
  }
  param {
    lr_mult: 1
    decay_mult: 0
  }
  param {
    lr_mult: 0
    decay_mult: 0
  }
  param {
    lr_mult: 0
    decay_mult: 0
  }
  batch_norm_param {
    use_global_stats: true
    eps: 1e-05
    scale_filler {
      type: "constant"
      value: 1
    }
    bias_filler {
      type: "constant"
      value: 0
    }
  }
}
layer {
  name: "relu4_7/dwise"
  type: "ReLU"
  bottom: "conv4_7/dwise/bn"
  top: "conv4_7/dwise/bn"
}
layer {
  n
I0410 05:49:29.741094   102 layer_factory.hpp:93] Creating layer data
I0410 05:49:29.741114   102 net.cpp:110] Creating Layer data
I0410 05:49:29.741120   102 net.cpp:425] data -> data
I0410 05:49:29.741130   102 net.cpp:425] data -> label
I0410 05:49:29.741145   102 image_data_layer.cpp:57] Opening file ../calibration.txt
I0410 05:49:29.760502   102 image_data_layer.cpp:67] Shuffling data
I0410 05:49:29.760640   102 image_data_layer.cpp:72] A total of 1000 images.
I0410 05:49:29.810856   102 image_data_layer.cpp:100] output data size: 1,3,360,480
I0410 05:49:29.820438   102 internal_thread.cpp:43] Starting internal thread(s) on GPU 0
I0410 05:49:29.820550   102 net.cpp:160] Setting up data
I0410 05:49:29.820557   102 net.cpp:167] Top shape: 1 3 360 480 (518400)
I0410 05:49:29.820571   102 net.cpp:167] Top shape: 1 (1)
I0410 05:49:29.820575   102 net.cpp:175] Memory required for data: 2073604
I0410 05:49:29.820580   102 layer_factory.hpp:93] Creating layer data_data_0_split
I0410 05:49:29.820617   102 net.cpp:110] Creating Layer data_data_0_split
I0410 05:49:29.820626   102 net.cpp:451] data_data_0_split <- data
I0410 05:49:29.820632   102 net.cpp:425] data_data_0_split -> data_data_0_split_0
I0410 05:49:29.820642   102 net.cpp:425] data_data_0_split -> data_data_0_split_1
I0410 05:49:29.820647   102 net.cpp:425] data_data_0_split -> data_data_0_split_2
I0410 05:49:29.820653   102 net.cpp:425] data_data_0_split -> data_data_0_split_3
I0410 05:49:29.820657   102 net.cpp:425] data_data_0_split -> data_data_0_split_4
I0410 05:49:29.820662   102 net.cpp:425] data_data_0_split -> data_data_0_split_5
I0410 05:49:29.820801   102 net.cpp:160] Setting up data_data_0_split
I0410 05:49:29.820807   102 net.cpp:167] Top shape: 1 3 360 480 (518400)
I0410 05:49:29.820812   102 net.cpp:167] Top shape: 1 3 360 480 (518400)
I0410 05:49:29.820816   102 net.cpp:167] Top shape: 1 3 360 480 (518400)
I0410 05:49:29.820821   102 net.cpp:167] Top shape: 1 3 360 480 (518400)
I0410 05:49:29.820824   102 net.cpp:167] Top shape: 1 3 360 480 (518400)
I0410 05:49:29.820828   102 net.cpp:167] Top shape: 1 3 360 480 (518400)
I0410 05:49:29.820832   102 net.cpp:175] Memory required for data: 14515204
I0410 05:49:29.820835   102 layer_factory.hpp:93] Creating layer conv1
I0410 05:49:29.820849   102 net.cpp:110] Creating Layer conv1
I0410 05:49:29.820858   102 net.cpp:451] conv1 <- data_data_0_split_0
I0410 05:49:29.820863   102 net.cpp:425] conv1 -> conv1
I0410 05:49:29.821158   102 net.cpp:160] Setting up conv1
I0410 05:49:29.821166   102 net.cpp:167] Top shape: 1 32 180 240 (1382400)
I0410 05:49:29.821171   102 net.cpp:175] Memory required for data: 20044804
I0410 05:49:29.821190   102 layer_factory.hpp:93] Creating layer conv1/bn
I0410 05:49:29.821199   102 net.cpp:110] Creating Layer conv1/bn
I0410 05:49:29.821203   102 net.cpp:451] conv1/bn <- conv1
I0410 05:49:29.821208   102 net.cpp:425] conv1/bn -> conv1/bn
I0410 05:49:29.822423   102 net.cpp:160] Setting up conv1/bn
I0410 05:49:29.822433   102 net.cpp:167] Top shape: 1 32 180 240 (1382400)
I0410 05:49:29.822439   102 net.cpp:175] Memory required for data: 25574404
I0410 05:49:29.822450   102 layer_factory.hpp:93] Creating layer relu1
I0410 05:49:29.822458   102 net.cpp:110] Creating Layer relu1
I0410 05:49:29.822461   102 net.cpp:451] relu1 <- conv1/bn
I0410 05:49:29.822465   102 net.cpp:412] relu1 -> conv1/bn (in-place)
I0410 05:49:29.822477   102 net.cpp:160] Setting up relu1
I0410 05:49:29.822480   102 net.cpp:167] Top shape: 1 32 180 240 (1382400)
I0410 05:49:29.822485   102 net.cpp:175] Memory required for data: 31104004
I0410 05:49:29.822489   102 layer_factory.hpp:93] Creating layer conv2_1/expand
I0410 05:49:29.822495   102 net.cpp:110] Creating Layer conv2_1/expand
I0410 05:49:29.822499   102 net.cpp:451] conv2_1/expand <- conv1/bn
I0410 05:49:29.822504   102 net.cpp:425] conv2_1/expand -> conv2_1/expand
I0410 05:49:29.822664   102 net.cpp:160] Setting up conv2_1/expand
I0410 05:49:29.822672   102 net.cpp:167] Top shape: 1 32 180 240 (1382400)
I0410 05:49:29.822677   102 net.cpp:175] Memory required for data: 36633604
I0410 05:49:29.822682   102 layer_factory.hpp:93] Creating layer conv2_1/expand/bn
I0410 05:49:29.822700   102 net.cpp:110] Creating Layer conv2_1/expand/bn
I0410 05:49:29.822703   102 net.cpp:451] conv2_1/expand/bn <- conv2_1/expand
I0410 05:49:29.822708   102 net.cpp:425] conv2_1/expand/bn -> conv2_1/expand/bn
I0410 05:49:29.823472   102 net.cpp:160] Setting up conv2_1/expand/bn
I0410 05:49:29.823478   102 net.cpp:167] Top shape: 1 32 180 240 (1382400)
I0410 05:49:29.823484   102 net.cpp:175] Memory required for data: 42163204
I0410 05:49:29.823493   102 layer_factory.hpp:93] Creating layer relu2_1/expand
I0410 05:49:29.823498   102 net.cpp:110] Creating Layer relu2_1/expand
I0410 05:49:29.823503   102 net.cpp:451] relu2_1/expand <- conv2_1/expand/bn
I0410 05:49:29.823508   102 net.cpp:412] relu2_1/expand -> conv2_1/expand/bn (in-place)
I0410 05:49:29.823513   102 net.cpp:160] Setting up relu2_1/expand
I0410 05:49:29.823516   102 net.cpp:167] Top shape: 1 32 180 240 (1382400)
I0410 05:49:29.823520   102 net.cpp:175] Memory required for data: 47692804
I0410 05:49:29.823524   102 layer_factory.hpp:93] Creating layer conv2_1/dwise
I0410 05:49:29.823531   102 net.cpp:110] Creating Layer conv2_1/dwise
I0410 05:49:29.823534   102 net.cpp:451] conv2_1/dwise <- conv2_1/expand/bn
I0410 05:49:29.823539   102 net.cpp:425] conv2_1/dwise -> conv2_1/dwise
I0410 05:49:29.824252   102 net.cpp:160] Setting up conv2_1/dwise
I0410 05:49:29.824277   102 net.cpp:167] Top shape: 1 32 180 240 (1382400)
I0410 05:49:29.824292   102 net.cpp:175] Memory required for data: 53222404
I0410 05:49:29.824306   102 layer_factory.hpp:93] Creating layer conv2_1/dwise/bn
I0410 05:49:29.824326   102 net.cpp:110] Creating Layer conv2_1/dwise/bn
I0410 05:49:29.824334   102 net.cpp:451] conv2_1/dwise/bn <- conv2_1/dwise
I0410 05:49:29.824348   102 net.cpp:425] conv2_1/dwise/bn -> conv2_1/dwise/bn
I0410 05:49:29.825449   102 net.cpp:160] Setting up conv2_1/dwise/bn
I0410 05:49:29.825462   102 net.cpp:167] Top shape: 1 32 180 240 (1382400)
I0410 05:49:29.825470   102 net.cpp:175] Memory required for data: 58752004
I0410 05:49:29.825485   102 layer_factory.hpp:93] Creating layer relu2_1/dwise
I0410 05:49:29.825493   102 net.cpp:110] Creating Layer relu2_1/dwise
I0410 05:49:29.825500   102 net.cpp:451] relu2_1/dwise <- conv2_1/dwise/bn
I0410 05:49:29.825507   102 net.cpp:412] relu2_1/dwise -> conv2_1/dwise/bn (in-place)
I0410 05:49:29.825517   102 net.cpp:160] Setting up relu2_1/dwise
I0410 05:49:29.825522   102 net.cpp:167] Top shape: 1 32 180 240 (1382400)
I0410 05:49:29.825528   102 net.cpp:175] Memory required for data: 64281604
I0410 05:49:29.825533   102 layer_factory.hpp:93] Creating layer conv2_1/linear
I0410 05:49:29.825543   102 net.cpp:110] Creating Layer conv2_1/linear
I0410 05:49:29.825548   102 net.cpp:451] conv2_1/linear <- conv2_1/dwise/bn
I0410 05:49:29.825556   102 net.cpp:425] conv2_1/linear -> conv2_1/linear
I0410 05:49:29.825784   102 net.cpp:160] Setting up conv2_1/linear
I0410 05:49:29.825794   102 net.cpp:167] Top shape: 1 16 180 240 (691200)
I0410 05:49:29.825803   102 net.cpp:175] Memory required for data: 67046404
I0410 05:49:29.825809   102 layer_factory.hpp:93] Creating layer conv2_1/linear/bn
I0410 05:49:29.825819   102 net.cpp:110] Creating Layer conv2_1/linear/bn
I0410 05:49:29.825825   102 net.cpp:451] conv2_1/linear/bn <- conv2_1/linear
I0410 05:49:29.825834   102 net.cpp:425] conv2_1/linear/bn -> conv2_1/linear/bn
I0410 05:49:29.826678   102 net.cpp:160] Setting up conv2_1/linear/bn
I0410 05:49:29.826689   102 net.cpp:167] Top shape: 1 16 180 240 (691200)
I0410 05:49:29.826697   102 net.cpp:175] Memory required for data: 69811204
I0410 05:49:29.826709   102 layer_factory.hpp:93] Creating layer conv2_2/expand
I0410 05:49:29.826720   102 net.cpp:110] Creating Layer conv2_2/expand
I0410 05:49:29.826726   102 net.cpp:451] conv2_2/expand <- conv2_1/linear/bn
I0410 05:49:29.826735   102 net.cpp:425] conv2_2/expand -> conv2_2/expand
I0410 05:49:29.826997   102 net.cpp:160] Setting up conv2_2/expand
I0410 05:49:29.827008   102 net.cpp:167] Top shape: 1 96 180 240 (4147200)
I0410 05:49:29.827015   102 net.cpp:175] Memory required for data: 86400004
I0410 05:49:29.827023   102 layer_factory.hpp:93] Creating layer conv2_2/expand/bn
I0410 05:49:29.827033   102 net.cpp:110] Creating Layer conv2_2/expand/bn
I0410 05:49:29.827039   102 net.cpp:451] conv2_2/expand/bn <- conv2_2/expand
I0410 05:49:29.827047   102 net.cpp:425] conv2_2/expand/bn -> conv2_2/expand/bn
I0410 05:49:29.827888   102 net.cpp:160] Setting up conv2_2/expand/bn
I0410 05:49:29.827898   102 net.cpp:167] Top shape: 1 96 180 240 (4147200)
I0410 05:49:29.827905   102 net.cpp:175] Memory required for data: 102988804
I0410 05:49:29.827917   102 layer_factory.hpp:93] Creating layer relu2_2/expand
I0410 05:49:29.827925   102 net.cpp:110] Creating Layer relu2_2/expand
I0410 05:49:29.827930   102 net.cpp:451] relu2_2/expand <- conv2_2/expand/bn
I0410 05:49:29.827937   102 net.cpp:412] relu2_2/expand -> conv2_2/expand/bn (in-place)
I0410 05:49:29.827946   102 net.cpp:160] Setting up relu2_2/expand
I0410 05:49:29.827950   102 net.cpp:167] Top shape: 1 96 180 240 (4147200)
I0410 05:49:29.827957   102 net.cpp:175] Memory required for data: 119577604
I0410 05:49:29.827962   102 layer_factory.hpp:93] Creating layer conv2_2/dwise
I0410 05:49:29.827973   102 net.cpp:110] Creating Layer conv2_2/dwise
I0410 05:49:29.827983   102 net.cpp:451] conv2_2/dwise <- conv2_2/expand/bn
I0410 05:49:29.827991   102 net.cpp:425] conv2_2/dwise -> conv2_2/dwise
I0410 05:49:29.828236   102 net.cpp:160] Setting up conv2_2/dwise
I0410 05:49:29.828245   102 net.cpp:167] Top shape: 1 96 90 120 (1036800)
I0410 05:49:29.828253   102 net.cpp:175] Memory required for data: 123724804
I0410 05:49:29.828259   102 layer_factory.hpp:93] Creating layer conv2_2/dwise/bn
I0410 05:49:29.828269   102 net.cpp:110] Creating Layer conv2_2/dwise/bn
I0410 05:49:29.828277   102 net.cpp:451] conv2_2/dwise/bn <- conv2_2/dwise
I0410 05:49:29.828285   102 net.cpp:425] conv2_2/dwise/bn -> conv2_2/dwise/bn
I0410 05:49:29.829123   102 net.cpp:160] Setting up conv2_2/dwise/bn
I0410 05:49:29.829134   102 net.cpp:167] Top shape: 1 96 90 120 (1036800)
I0410 05:49:29.829143   102 net.cpp:175] Memory required for data: 127872004
I0410 05:49:29.829157   102 layer_factory.hpp:93] Creating layer relu2_2/dwise
I0410 05:49:29.829165   102 net.cpp:110] Creating Layer relu2_2/dwise
I0410 05:49:29.829170   102 net.cpp:451] relu2_2/dwise <- conv2_2/dwise/bn
I0410 05:49:29.829178   102 net.cpp:412] relu2_2/dwise -> conv2_2/dwise/bn (in-place)
I0410 05:49:29.829186   102 net.cpp:160] Setting up relu2_2/dwise
I0410 05:49:29.829191   102 net.cpp:167] Top shape: 1 96 90 120 (1036800)
I0410 05:49:29.829202   102 net.cpp:175] Memory required for data: 132019204
I0410 05:49:29.829207   102 layer_factory.hpp:93] Creating layer conv2_2/linear
I0410 05:49:29.829216   102 net.cpp:110] Creating Layer conv2_2/linear
I0410 05:49:29.829224   102 net.cpp:451] conv2_2/linear <- conv2_2/dwise/bn
I0410 05:49:29.829231   102 net.cpp:425] conv2_2/linear -> conv2_2/linear
I0410 05:49:29.829491   102 net.cpp:160] Setting up conv2_2/linear
I0410 05:49:29.829500   102 net.cpp:167] Top shape: 1 24 90 120 (259200)
I0410 05:49:29.829509   102 net.cpp:175] Memory required for data: 133056004
I0410 05:49:29.829515   102 layer_factory.hpp:93] Creating layer conv2_2/linear/bn
I0410 05:49:29.829525   102 net.cpp:110] Creating Layer conv2_2/linear/bn
I0410 05:49:29.829531   102 net.cpp:451] conv2_2/linear/bn <- conv2_2/linear
I0410 05:49:29.829540   102 net.cpp:425] conv2_2/linear/bn -> conv2_2/linear/bn
I0410 05:49:29.830356   102 net.cpp:160] Setting up conv2_2/linear/bn
I0410 05:49:29.830366   102 net.cpp:167] Top shape: 1 24 90 120 (259200)
I0410 05:49:29.830374   102 net.cpp:175] Memory required for data: 134092804
I0410 05:49:29.830385   102 layer_factory.hpp:93] Creating layer conv2_2/linear/bn_conv2_2/linear/bn_0_split
I0410 05:49:29.830394   102 net.cpp:110] Creating Layer conv2_2/linear/bn_conv2_2/linear/bn_0_split
I0410 05:49:29.830399   102 net.cpp:451] conv2_2/linear/bn_conv2_2/linear/bn_0_split <- conv2_2/linear/bn
I0410 05:49:29.830407   102 net.cpp:425] conv2_2/linear/bn_conv2_2/linear/bn_0_split -> conv2_2/linear/bn_conv2_2/linear/bn_0_split_0
I0410 05:49:29.830416   102 net.cpp:425] conv2_2/linear/bn_conv2_2/linear/bn_0_split -> conv2_2/linear/bn_conv2_2/linear/bn_0_split_1
I0410 05:49:29.830454   102 net.cpp:160] Setting up conv2_2/linear/bn_conv2_2/linear/bn_0_split
I0410 05:49:29.830462   102 net.cpp:167] Top shape: 1 24 90 120 (259200)
I0410 05:49:29.830469   102 net.cpp:167] Top shape: 1 24 90 120 (259200)
I0410 05:49:29.830476   102 net.cpp:175] Memory required for data: 136166404
I0410 05:49:29.830480   102 layer_factory.hpp:93] Creating layer conv3_1/expand
I0410 05:49:29.830492   102 net.cpp:110] Creating Layer conv3_1/expand
I0410 05:49:29.830497   102 net.cpp:451] conv3_1/expand <- conv2_2/linear/bn_conv2_2/linear/bn_0_split_0
I0410 05:49:29.830505   102 net.cpp:425] conv3_1/expand -> conv3_1/expand
I0410 05:49:29.830777   102 net.cpp:160] Setting up conv3_1/expand
I0410 05:49:29.830786   102 net.cpp:167] Top shape: 1 144 90 120 (1555200)
I0410 05:49:29.830794   102 net.cpp:175] Memory required for data: 142387204
I0410 05:49:29.830801   102 layer_factory.hpp:93] Creating layer conv3_1/expand/bn
I0410 05:49:29.830811   102 net.cpp:110] Creating Layer conv3_1/expand/bn
I0410 05:49:29.830816   102 net.cpp:451] conv3_1/expand/bn <- conv3_1/expand
I0410 05:49:29.830824   102 net.cpp:425] conv3_1/expand/bn -> conv3_1/expand/bn
I0410 05:49:29.831634   102 net.cpp:160] Setting up conv3_1/expand/bn
I0410 05:49:29.831643   102 net.cpp:167] Top shape: 1 144 90 120 (1555200)
I0410 05:49:29.831651   102 net.cpp:175] Memory required for data: 148608004
I0410 05:49:29.831663   102 layer_factory.hpp:93] Creating layer relu3_1/expand
I0410 05:49:29.831670   102 net.cpp:110] Creating Layer relu3_1/expand
I0410 05:49:29.831676   102 net.cpp:451] relu3_1/expand <- conv3_1/expand/bn
I0410 05:49:29.831683   102 net.cpp:412] relu3_1/expand -> conv3_1/expand/bn (in-place)
I0410 05:49:29.831692   102 net.cpp:160] Setting up relu3_1/expand
I0410 05:49:29.831697   102 net.cpp:167] Top shape: 1 144 90 120 (1555200)
I0410 05:49:29.831703   102 net.cpp:175] Memory required for data: 154828804
I0410 05:49:29.831708   102 layer_factory.hpp:93] Creating layer conv3_1/dwise
I0410 05:49:29.831718   102 net.cpp:110] Creating Layer conv3_1/dwise
I0410 05:49:29.831727   102 net.cpp:451] conv3_1/dwise <- conv3_1/expand/bn
I0410 05:49:29.831734   102 net.cpp:425] conv3_1/dwise -> conv3_1/dwise
I0410 05:49:29.831977   102 net.cpp:160] Setting up conv3_1/dwise
I0410 05:49:29.831986   102 net.cpp:167] Top shape: 1 144 90 120 (1555200)
I0410 05:49:29.831993   102 net.cpp:175] Memory required for data: 161049604
I0410 05:49:29.832001   102 layer_factory.hpp:93] Creating layer conv3_1/dwise/bn
I0410 05:49:29.832010   102 net.cpp:110] Creating Layer conv3_1/dwise/bn
I0410 05:49:29.832018   102 net.cpp:451] conv3_1/dwise/bn <- conv3_1/dwise
I0410 05:49:29.832026   102 net.cpp:425] conv3_1/dwise/bn -> conv3_1/dwise/bn
I0410 05:49:29.832836   102 net.cpp:160] Setting up conv3_1/dwise/bn
I0410 05:49:29.832847   102 net.cpp:167] Top shape: 1 144 90 120 (1555200)
I0410 05:49:29.832855   102 net.cpp:175] Memory required for data: 167270404
I0410 05:49:29.832867   102 layer_factory.hpp:93] Creating layer relu3_1/dwise
I0410 05:49:29.832875   102 net.cpp:110] Creating Layer relu3_1/dwise
I0410 05:49:29.832880   102 net.cpp:451] relu3_1/dwise <- conv3_1/dwise/bn
I0410 05:49:29.832887   102 net.cpp:412] relu3_1/dwise -> conv3_1/dwise/bn (in-place)
I0410 05:49:29.832896   102 net.cpp:160] Setting up relu3_1/dwise
I0410 05:49:29.832901   102 net.cpp:167] Top shape: 1 144 90 120 (1555200)
I0410 05:49:29.832907   102 net.cpp:175] Memory required for data: 173491204
I0410 05:49:29.832912   102 layer_factory.hpp:93] Creating layer conv3_1/linear
I0410 05:49:29.832922   102 net.cpp:110] Creating Layer conv3_1/linear
I0410 05:49:29.832927   102 net.cpp:451] conv3_1/linear <- conv3_1/dwise/bn
I0410 05:49:29.832935   102 net.cpp:425] conv3_1/linear -> conv3_1/linear
I0410 05:49:29.833209   102 net.cpp:160] Setting up conv3_1/linear
I0410 05:49:29.833217   102 net.cpp:167] Top shape: 1 24 90 120 (259200)
I0410 05:49:29.833225   102 net.cpp:175] Memory required for data: 174528004
I0410 05:49:29.833232   102 layer_factory.hpp:93] Creating layer conv3_1/linear/bn
I0410 05:49:29.833241   102 net.cpp:110] Creating Layer conv3_1/linear/bn
I0410 05:49:29.833247   102 net.cpp:451] conv3_1/linear/bn <- conv3_1/linear
I0410 05:49:29.833256   102 net.cpp:425] conv3_1/linear/bn -> conv3_1/linear/bn
I0410 05:49:29.834075   102 net.cpp:160] Setting up conv3_1/linear/bn
I0410 05:49:29.834087   102 net.cpp:167] Top shape: 1 24 90 120 (259200)
I0410 05:49:29.834095   102 net.cpp:175] Memory required for data: 175564804
I0410 05:49:29.834107   102 layer_factory.hpp:93] Creating layer block_3_1
I0410 05:49:29.834117   102 net.cpp:110] Creating Layer block_3_1
I0410 05:49:29.834123   102 net.cpp:451] block_3_1 <- conv2_2/linear/bn_conv2_2/linear/bn_0_split_1
I0410 05:49:29.834129   102 net.cpp:451] block_3_1 <- conv3_1/linear/bn
I0410 05:49:29.834137   102 net.cpp:425] block_3_1 -> block_3_1
I0410 05:49:29.834165   102 net.cpp:160] Setting up block_3_1
I0410 05:49:29.834172   102 net.cpp:167] Top shape: 1 24 90 120 (259200)
I0410 05:49:29.834180   102 net.cpp:175] Memory required for data: 176601604
I0410 05:49:29.834185   102 layer_factory.hpp:93] Creating layer conv3_2/expand
I0410 05:49:29.834194   102 net.cpp:110] Creating Layer conv3_2/expand
I0410 05:49:29.834199   102 net.cpp:451] conv3_2/expand <- block_3_1
I0410 05:49:29.834208   102 net.cpp:425] conv3_2/expand -> conv3_2/expand
I0410 05:49:29.834481   102 net.cpp:160] Setting up conv3_2/expand
I0410 05:49:29.834491   102 net.cpp:167] Top shape: 1 144 90 120 (1555200)
I0410 05:49:29.834498   102 net.cpp:175] Memory required for data: 182822404
I0410 05:49:29.834506   102 layer_factory.hpp:93] Creating layer conv3_2/expand/bn
I0410 05:49:29.834517   102 net.cpp:110] Creating Layer conv3_2/expand/bn
I0410 05:49:29.834522   102 net.cpp:451] conv3_2/expand/bn <- conv3_2/expand
I0410 05:49:29.834532   102 net.cpp:425] conv3_2/expand/bn -> conv3_2/expand/bn
I0410 05:49:29.835366   102 net.cpp:160] Setting up conv3_2/expand/bn
I0410 05:49:29.835378   102 net.cpp:167] Top shape: 1 144 90 120 (1555200)
I0410 05:49:29.835386   102 net.cpp:175] Memory required for data: 189043204
I0410 05:49:29.835402   102 layer_factory.hpp:93] Creating layer relu3_2/expand
I0410 05:49:29.835409   102 net.cpp:110] Creating Layer relu3_2/expand
I0410 05:49:29.835415   102 net.cpp:451] relu3_2/expand <- conv3_2/expand/bn
I0410 05:49:29.835422   102 net.cpp:412] relu3_2/expand -> conv3_2/expand/bn (in-place)
I0410 05:49:29.835431   102 net.cpp:160] Setting up relu3_2/expand
I0410 05:49:29.835436   102 net.cpp:167] Top shape: 1 144 90 120 (1555200)
I0410 05:49:29.835448   102 net.cpp:175] Memory required for data: 195264004
I0410 05:49:29.835453   102 layer_factory.hpp:93] Creating layer conv3_2/dwise
I0410 05:49:29.835461   102 net.cpp:110] Creating Layer conv3_2/dwise
I0410 05:49:29.835467   102 net.cpp:451] conv3_2/dwise <- conv3_2/expand/bn
I0410 05:49:29.835475   102 net.cpp:425] conv3_2/dwise -> conv3_2/dwise
I0410 05:49:29.836081   102 net.cpp:160] Setting up conv3_2/dwise
I0410 05:49:29.836088   102 net.cpp:167] Top shape: 1 144 45 60 (388800)
I0410 05:49:29.836093   102 net.cpp:175] Memory required for data: 196819204
I0410 05:49:29.836098   102 layer_factory.hpp:93] Creating layer conv3_2/dwise/bn
I0410 05:49:29.836107   102 net.cpp:110] Creating Layer conv3_2/dwise/bn
I0410 05:49:29.836110   102 net.cpp:451] conv3_2/dwise/bn <- conv3_2/dwise
I0410 05:49:29.836115   102 net.cpp:425] conv3_2/dwise/bn -> conv3_2/dwise/bn
I0410 05:49:29.836674   102 net.cpp:160] Setting up conv3_2/dwise/bn
I0410 05:49:29.836683   102 net.cpp:167] Top shape: 1 144 45 60 (388800)
I0410 05:49:29.836688   102 net.cpp:175] Memory required for data: 198374404
I0410 05:49:29.836696   102 layer_factory.hpp:93] Creating layer relu3_2/dwise
I0410 05:49:29.836701   102 net.cpp:110] Creating Layer relu3_2/dwise
I0410 05:49:29.836705   102 net.cpp:451] relu3_2/dwise <- conv3_2/dwise/bn
I0410 05:49:29.836710   102 net.cpp:412] relu3_2/dwise -> conv3_2/dwise/bn (in-place)
I0410 05:49:29.836716   102 net.cpp:160] Setting up relu3_2/dwise
I0410 05:49:29.836719   102 net.cpp:167] Top shape: 1 144 45 60 (388800)
I0410 05:49:29.836724   102 net.cpp:175] Memory required for data: 199929604
I0410 05:49:29.836727   102 layer_factory.hpp:93] Creating layer conv3_2/linear
I0410 05:49:29.836735   102 net.cpp:110] Creating Layer conv3_2/linear
I0410 05:49:29.836738   102 net.cpp:451] conv3_2/linear <- conv3_2/dwise/bn
I0410 05:49:29.836743   102 net.cpp:425] conv3_2/linear -> conv3_2/linear
I0410 05:49:29.836944   102 net.cpp:160] Setting up conv3_2/linear
I0410 05:49:29.836951   102 net.cpp:167] Top shape: 1 32 45 60 (86400)
I0410 05:49:29.836956   102 net.cpp:175] Memory required for data: 200275204
I0410 05:49:29.836962   102 layer_factory.hpp:93] Creating layer conv3_2/linear/bn
I0410 05:49:29.836968   102 net.cpp:110] Creating Layer conv3_2/linear/bn
I0410 05:49:29.836972   102 net.cpp:451] conv3_2/linear/bn <- conv3_2/linear
I0410 05:49:29.836978   102 net.cpp:425] conv3_2/linear/bn -> conv3_2/linear/bn
I0410 05:49:29.837540   102 net.cpp:160] Setting up conv3_2/linear/bn
I0410 05:49:29.837548   102 net.cpp:167] Top shape: 1 32 45 60 (86400)
I0410 05:49:29.837553   102 net.cpp:175] Memory required for data: 200620804
I0410 05:49:29.837561   102 layer_factory.hpp:93] Creating layer conv3_2/linear/bn_conv3_2/linear/bn_0_split
I0410 05:49:29.837568   102 net.cpp:110] Creating Layer conv3_2/linear/bn_conv3_2/linear/bn_0_split
I0410 05:49:29.837571   102 net.cpp:451] conv3_2/linear/bn_conv3_2/linear/bn_0_split <- conv3_2/linear/bn
I0410 05:49:29.837576   102 net.cpp:425] conv3_2/linear/bn_conv3_2/linear/bn_0_split -> conv3_2/linear/bn_conv3_2/linear/bn_0_split_0
I0410 05:49:29.837582   102 net.cpp:425] conv3_2/linear/bn_conv3_2/linear/bn_0_split -> conv3_2/linear/bn_conv3_2/linear/bn_0_split_1
I0410 05:49:29.837610   102 net.cpp:160] Setting up conv3_2/linear/bn_conv3_2/linear/bn_0_split
I0410 05:49:29.837615   102 net.cpp:167] Top shape: 1 32 45 60 (86400)
I0410 05:49:29.837620   102 net.cpp:167] Top shape: 1 32 45 60 (86400)
I0410 05:49:29.837625   102 net.cpp:175] Memory required for data: 201312004
I0410 05:49:29.837628   102 layer_factory.hpp:93] Creating layer conv4_1/expand
I0410 05:49:29.837635   102 net.cpp:110] Creating Layer conv4_1/expand
I0410 05:49:29.837640   102 net.cpp:451] conv4_1/expand <- conv3_2/linear/bn_conv3_2/linear/bn_0_split_0
I0410 05:49:29.837646   102 net.cpp:425] conv4_1/expand -> conv4_1/expand
I0410 05:49:29.837857   102 net.cpp:160] Setting up conv4_1/expand
I0410 05:49:29.837862   102 net.cpp:167] Top shape: 1 192 45 60 (518400)
I0410 05:49:29.837868   102 net.cpp:175] Memory required for data: 203385604
I0410 05:49:29.837873   102 layer_factory.hpp:93] Creating layer conv4_1/expand/bn
I0410 05:49:29.837879   102 net.cpp:110] Creating Layer conv4_1/expand/bn
I0410 05:49:29.837883   102 net.cpp:451] conv4_1/expand/bn <- conv4_1/expand
I0410 05:49:29.837889   102 net.cpp:425] conv4_1/expand/bn -> conv4_1/expand/bn
I0410 05:49:29.838438   102 net.cpp:160] Setting up conv4_1/expand/bn
I0410 05:49:29.838445   102 net.cpp:167] Top shape: 1 192 45 60 (518400)
I0410 05:49:29.838450   102 net.cpp:175] Memory required for data: 205459204
I0410 05:49:29.838459   102 layer_factory.hpp:93] Creating layer relu4_1/expand
I0410 05:49:29.838464   102 net.cpp:110] Creating Layer relu4_1/expand
I0410 05:49:29.838467   102 net.cpp:451] relu4_1/expand <- conv4_1/expand/bn
I0410 05:49:29.838472   102 net.cpp:412] relu4_1/expand -> conv4_1/expand/bn (in-place)
I0410 05:49:29.838479   102 net.cpp:160] Setting up relu4_1/expand
I0410 05:49:29.838482   102 net.cpp:167] Top shape: 1 192 45 60 (518400)
I0410 05:49:29.838486   102 net.cpp:175] Memory required for data: 207532804
I0410 05:49:29.838490   102 layer_factory.hpp:93] Creating layer conv4_1/dwise
I0410 05:49:29.838497   102 net.cpp:110] Creating Layer conv4_1/dwise
I0410 05:49:29.838501   102 net.cpp:451] conv4_1/dwise <- conv4_1/expand/bn
I0410 05:49:29.838506   102 net.cpp:425] conv4_1/dwise -> conv4_1/dwise
I0410 05:49:29.838685   102 net.cpp:160] Setting up conv4_1/dwise
I0410 05:49:29.838691   102 net.cpp:167] Top shape: 1 192 45 60 (518400)
I0410 05:49:29.838696   102 net.cpp:175] Memory required for data: 209606404
I0410 05:49:29.838701   102 layer_factory.hpp:93] Creating layer conv4_1/dwise/bn
I0410 05:49:29.838707   102 net.cpp:110] Creating Layer conv4_1/dwise/bn
I0410 05:49:29.838711   102 net.cpp:451] conv4_1/dwise/bn <- conv4_1/dwise
I0410 05:49:29.838716   102 net.cpp:425] conv4_1/dwise/bn -> conv4_1/dwise/bn
I0410 05:49:29.839263   102 net.cpp:160] Setting up conv4_1/dwise/bn
I0410 05:49:29.839272   102 net.cpp:167] Top shape: 1 192 45 60 (518400)
I0410 05:49:29.839277   102 net.cpp:175] Memory required for data: 211680004
I0410 05:49:29.839284   102 layer_factory.hpp:93] Creating layer relu4_1/dwise
I0410 05:49:29.839289   102 net.cpp:110] Creating Layer relu4_1/dwise
I0410 05:49:29.839294   102 net.cpp:451] relu4_1/dwise <- conv4_1/dwise/bn
I0410 05:49:29.839299   102 net.cpp:412] relu4_1/dwise -> conv4_1/dwise/bn (in-place)
I0410 05:49:29.839305   102 net.cpp:160] Setting up relu4_1/dwise
I0410 05:49:29.839308   102 net.cpp:167] Top shape: 1 192 45 60 (518400)
I0410 05:49:29.839313   102 net.cpp:175] Memory required for data: 213753604
I0410 05:49:29.839316   102 layer_factory.hpp:93] Creating layer conv4_1/linear
I0410 05:49:29.839323   102 net.cpp:110] Creating Layer conv4_1/linear
I0410 05:49:29.839325   102 net.cpp:451] conv4_1/linear <- conv4_1/dwise/bn
I0410 05:49:29.839331   102 net.cpp:425] conv4_1/linear -> conv4_1/linear
I0410 05:49:29.839545   102 net.cpp:160] Setting up conv4_1/linear
I0410 05:49:29.839551   102 net.cpp:167] Top shape: 1 32 45 60 (86400)
I0410 05:49:29.839556   102 net.cpp:175] Memory required for data: 214099204
I0410 05:49:29.839561   102 layer_factory.hpp:93] Creating layer conv4_1/linear/bn
I0410 05:49:29.839568   102 net.cpp:110] Creating Layer conv4_1/linear/bn
I0410 05:49:29.839572   102 net.cpp:451] conv4_1/linear/bn <- conv4_1/linear
I0410 05:49:29.839577   102 net.cpp:425] conv4_1/linear/bn -> conv4_1/linear/bn
I0410 05:49:29.840137   102 net.cpp:160] Setting up conv4_1/linear/bn
I0410 05:49:29.840143   102 net.cpp:167] Top shape: 1 32 45 60 (86400)
I0410 05:49:29.840148   102 net.cpp:175] Memory required for data: 214444804
I0410 05:49:29.840157   102 layer_factory.hpp:93] Creating layer block_4_1
I0410 05:49:29.840162   102 net.cpp:110] Creating Layer block_4_1
I0410 05:49:29.840167   102 net.cpp:451] block_4_1 <- conv3_2/linear/bn_conv3_2/linear/bn_0_split_1
I0410 05:49:29.840170   102 net.cpp:451] block_4_1 <- conv4_1/linear/bn
I0410 05:49:29.840175   102 net.cpp:425] block_4_1 -> block_4_1
I0410 05:49:29.840194   102 net.cpp:160] Setting up block_4_1
I0410 05:49:29.840198   102 net.cpp:167] Top shape: 1 32 45 60 (86400)
I0410 05:49:29.840204   102 net.cpp:175] Memory required for data: 214790404
I0410 05:49:29.840206   102 layer_factory.hpp:93] Creating layer block_4_1_block_4_1_0_split
I0410 05:49:29.840211   102 net.cpp:110] Creating Layer block_4_1_block_4_1_0_split
I0410 05:49:29.840215   102 net.cpp:451] block_4_1_block_4_1_0_split <- block_4_1
I0410 05:49:29.840220   102 net.cpp:425] block_4_1_block_4_1_0_split -> block_4_1_block_4_1_0_split_0
I0410 05:49:29.840225   102 net.cpp:425] block_4_1_block_4_1_0_split -> block_4_1_block_4_1_0_split_1
I0410 05:49:29.840250   102 net.cpp:160] Setting up block_4_1_block_4_1_0_split
I0410 05:49:29.840256   102 net.cpp:167] Top shape: 1 32 45 60 (86400)
I0410 05:49:29.840261   102 net.cpp:167] Top shape: 1 32 45 60 (86400)
I0410 05:49:29.840265   102 net.cpp:175] Memory required for data: 215481604
I0410 05:49:29.840272   102 layer_factory.hpp:93] Creating layer conv4_2/expand
I0410 05:49:29.840279   102 net.cpp:110] Creating Layer conv4_2/expand
I0410 05:49:29.840283   102 net.cpp:451] conv4_2/expand <- block_4_1_block_4_1_0_split_0
I0410 05:49:29.840288   102 net.cpp:425] conv4_2/expand -> conv4_2/expand
I0410 05:49:29.840499   102 net.cpp:160] Setting up conv4_2/expand
I0410 05:49:29.840507   102 net.cpp:167] Top shape: 1 192 45 60 (518400)
I0410 05:49:29.840512   102 net.cpp:175] Memory required for data: 217555204
I0410 05:49:29.840517   102 layer_factory.hpp:93] Creating layer conv4_2/expand/bn
I0410 05:49:29.840523   102 net.cpp:110] Creating Layer conv4_2/expand/bn
I0410 05:49:29.840526   102 net.cpp:451] conv4_2/expand/bn <- conv4_2/expand
I0410 05:49:29.840533   102 net.cpp:425] conv4_2/expand/bn -> conv4_2/expand/bn
I0410 05:49:29.841105   102 net.cpp:160] Setting up conv4_2/expand/bn
I0410 05:49:29.841114   102 net.cpp:167] Top shape: 1 192 45 60 (518400)
I0410 05:49:29.841120   102 net.cpp:175] Memory required for data: 219628804
I0410 05:49:29.841127   102 layer_factory.hpp:93] Creating layer relu4_2/expand
I0410 05:49:29.841132   102 net.cpp:110] Creating Layer relu4_2/expand
I0410 05:49:29.841138   102 net.cpp:451] relu4_2/expand <- conv4_2/expand/bn
I0410 05:49:29.841143   102 net.cpp:412] relu4_2/expand -> conv4_2/expand/bn (in-place)
I0410 05:49:29.841150   102 net.cpp:160] Setting up relu4_2/expand
I0410 05:49:29.841152   102 net.cpp:167] Top shape: 1 192 45 60 (518400)
I0410 05:49:29.841156   102 net.cpp:175] Memory required for data: 221702404
I0410 05:49:29.841161   102 layer_factory.hpp:93] Creating layer conv4_2/dwise
I0410 05:49:29.841166   102 net.cpp:110] Creating Layer conv4_2/dwise
I0410 05:49:29.841171   102 net.cpp:451] conv4_2/dwise <- conv4_2/expand/bn
I0410 05:49:29.841176   102 net.cpp:425] conv4_2/dwise -> conv4_2/dwise
I0410 05:49:29.841359   102 net.cpp:160] Setting up conv4_2/dwise
I0410 05:49:29.841367   102 net.cpp:167] Top shape: 1 192 45 60 (518400)
I0410 05:49:29.841372   102 net.cpp:175] Memory required for data: 223776004
I0410 05:49:29.841377   102 layer_factory.hpp:93] Creating layer conv4_2/dwise/bn
I0410 05:49:29.841383   102 net.cpp:110] Creating Layer conv4_2/dwise/bn
I0410 05:49:29.841387   102 net.cpp:451] conv4_2/dwise/bn <- conv4_2/dwise
I0410 05:49:29.841393   102 net.cpp:425] conv4_2/dwise/bn -> conv4_2/dwise/bn
I0410 05:49:29.841960   102 net.cpp:160] Setting up conv4_2/dwise/bn
I0410 05:49:29.841969   102 net.cpp:167] Top shape: 1 192 45 60 (518400)
I0410 05:49:29.841974   102 net.cpp:175] Memory required for data: 225849604
I0410 05:49:29.841981   102 layer_factory.hpp:93] Creating layer relu4_2/dwise
I0410 05:49:29.841986   102 net.cpp:110] Creating Layer relu4_2/dwise
I0410 05:49:29.841990   102 net.cpp:451] relu4_2/dwise <- conv4_2/dwise/bn
I0410 05:49:29.841995   102 net.cpp:412] relu4_2/dwise -> conv4_2/dwise/bn (in-place)
I0410 05:49:29.842001   102 net.cpp:160] Setting up relu4_2/dwise
I0410 05:49:29.842005   102 net.cpp:167] Top shape: 1 192 45 60 (518400)
I0410 05:49:29.842010   102 net.cpp:175] Memory required for data: 227923204
I0410 05:49:29.842012   102 layer_factory.hpp:93] Creating layer conv4_2/linear
I0410 05:49:29.842020   102 net.cpp:110] Creating Layer conv4_2/linear
I0410 05:49:29.842022   102 net.cpp:451] conv4_2/linear <- conv4_2/dwise/bn
I0410 05:49:29.842027   102 net.cpp:425] conv4_2/linear -> conv4_2/linear
I0410 05:49:29.842242   102 net.cpp:160] Setting up conv4_2/linear
I0410 05:49:29.842249   102 net.cpp:167] Top shape: 1 32 45 60 (86400)
I0410 05:49:29.842254   102 net.cpp:175] Memory required for data: 228268804
I0410 05:49:29.842259   102 layer_factory.hpp:93] Creating layer conv4_2/linear/bn
I0410 05:49:29.842267   102 net.cpp:110] Creating Layer conv4_2/linear/bn
I0410 05:49:29.842270   102 net.cpp:451] conv4_2/linear/bn <- conv4_2/linear
I0410 05:49:29.842276   102 net.cpp:425] conv4_2/linear/bn -> conv4_2/linear/bn
I0410 05:49:29.842839   102 net.cpp:160] Setting up conv4_2/linear/bn
I0410 05:49:29.842846   102 net.cpp:167] Top shape: 1 32 45 60 (86400)
I0410 05:49:29.842851   102 net.cpp:175] Memory required for data: 228614404
I0410 05:49:29.842859   102 layer_factory.hpp:93] Creating layer block_4_2
I0410 05:49:29.842865   102 net.cpp:110] Creating Layer block_4_2
I0410 05:49:29.842869   102 net.cpp:451] block_4_2 <- block_4_1_block_4_1_0_split_1
I0410 05:49:29.842873   102 net.cpp:451] block_4_2 <- conv4_2/linear/bn
I0410 05:49:29.842878   102 net.cpp:425] block_4_2 -> block_4_2
I0410 05:49:29.842896   102 net.cpp:160] Setting up block_4_2
I0410 05:49:29.842903   102 net.cpp:167] Top shape: 1 32 45 60 (86400)
I0410 05:49:29.842908   102 net.cpp:175] Memory required for data: 228960004
I0410 05:49:29.842911   102 layer_factory.hpp:93] Creating layer conv4_3/expand
I0410 05:49:29.842918   102 net.cpp:110] Creating Layer conv4_3/expand
I0410 05:49:29.842922   102 net.cpp:451] conv4_3/expand <- block_4_2
I0410 05:49:29.842927   102 net.cpp:425] conv4_3/expand -> conv4_3/expand
I0410 05:49:29.843140   102 net.cpp:160] Setting up conv4_3/expand
I0410 05:49:29.843147   102 net.cpp:167] Top shape: 1 192 45 60 (518400)
I0410 05:49:29.843152   102 net.cpp:175] Memory required for data: 231033604
I0410 05:49:29.843158   102 layer_factory.hpp:93] Creating layer conv4_3/expand/bn
I0410 05:49:29.843165   102 net.cpp:110] Creating Layer conv4_3/expand/bn
I0410 05:49:29.843168   102 net.cpp:451] conv4_3/expand/bn <- conv4_3/expand
I0410 05:49:29.843174   102 net.cpp:425] conv4_3/expand/bn -> conv4_3/expand/bn
I0410 05:49:29.843730   102 net.cpp:160] Setting up conv4_3/expand/bn
I0410 05:49:29.843737   102 net.cpp:167] Top shape: 1 192 45 60 (518400)
I0410 05:49:29.843742   102 net.cpp:175] Memory required for data: 233107204
I0410 05:49:29.843750   102 layer_factory.hpp:93] Creating layer relu4_3/expand
I0410 05:49:29.843755   102 net.cpp:110] Creating Layer relu4_3/expand
I0410 05:49:29.843760   102 net.cpp:451] relu4_3/expand <- conv4_3/expand/bn
I0410 05:49:29.843765   102 net.cpp:412] relu4_3/expand -> conv4_3/expand/bn (in-place)
I0410 05:49:29.843770   102 net.cpp:160] Setting up relu4_3/expand
I0410 05:49:29.843773   102 net.cpp:167] Top shape: 1 192 45 60 (518400)
I0410 05:49:29.843778   102 net.cpp:175] Memory required for data: 235180804
I0410 05:49:29.843782   102 layer_factory.hpp:93] Creating layer conv4_3/dwise
I0410 05:49:29.843788   102 net.cpp:110] Creating Layer conv4_3/dwise
I0410 05:49:29.843792   102 net.cpp:451] conv4_3/dwise <- conv4_3/expand/bn
I0410 05:49:29.843798   102 net.cpp:425] conv4_3/dwise -> conv4_3/dwise
I0410 05:49:29.843973   102 net.cpp:160] Setting up conv4_3/dwise
I0410 05:49:29.843981   102 net.cpp:167] Top shape: 1 192 45 60 (518400)
I0410 05:49:29.843986   102 net.cpp:175] Memory required for data: 237254404
I0410 05:49:29.843991   102 layer_factory.hpp:93] Creating layer conv4_3/dwise/bn
I0410 05:49:29.843997   102 net.cpp:110] Creating Layer conv4_3/dwise/bn
I0410 05:49:29.844002   102 net.cpp:451] conv4_3/dwise/bn <- conv4_3/dwise
I0410 05:49:29.844007   102 net.cpp:425] conv4_3/dwise/bn -> conv4_3/dwise/bn
I0410 05:49:29.844573   102 net.cpp:160] Setting up conv4_3/dwise/bn
I0410 05:49:29.844580   102 net.cpp:167] Top shape: 1 192 45 60 (518400)
I0410 05:49:29.844586   102 net.cpp:175] Memory required for data: 239328004
I0410 05:49:29.844600   102 layer_factory.hpp:93] Creating layer relu4_3/dwise
I0410 05:49:29.844607   102 net.cpp:110] Creating Layer relu4_3/dwise
I0410 05:49:29.844611   102 net.cpp:451] relu4_3/dwise <- conv4_3/dwise/bn
I0410 05:49:29.844627   102 net.cpp:412] relu4_3/dwise -> conv4_3/dwise/bn (in-place)
I0410 05:49:29.844633   102 net.cpp:160] Setting up relu4_3/dwise
I0410 05:49:29.844636   102 net.cpp:167] Top shape: 1 192 45 60 (518400)
I0410 05:49:29.844641   102 net.cpp:175] Memory required for data: 241401604
I0410 05:49:29.844645   102 layer_factory.hpp:93] Creating layer conv4_3/linear
I0410 05:49:29.844650   102 net.cpp:110] Creating Layer conv4_3/linear
I0410 05:49:29.844655   102 net.cpp:451] conv4_3/linear <- conv4_3/dwise/bn
I0410 05:49:29.844660   102 net.cpp:425] conv4_3/linear -> conv4_3/linear
I0410 05:49:29.845623   102 net.cpp:160] Setting up conv4_3/linear
I0410 05:49:29.845634   102 net.cpp:167] Top shape: 1 64 45 60 (172800)
I0410 05:49:29.845640   102 net.cpp:175] Memory required for data: 242092804
I0410 05:49:29.845646   102 layer_factory.hpp:93] Creating layer conv4_3/linear/bn
I0410 05:49:29.845654   102 net.cpp:110] Creating Layer conv4_3/linear/bn
I0410 05:49:29.845659   102 net.cpp:451] conv4_3/linear/bn <- conv4_3/linear
I0410 05:49:29.845664   102 net.cpp:425] conv4_3/linear/bn -> conv4_3/linear/bn
I0410 05:49:29.846401   102 net.cpp:160] Setting up conv4_3/linear/bn
I0410 05:49:29.846408   102 net.cpp:167] Top shape: 1 64 45 60 (172800)
I0410 05:49:29.846415   102 net.cpp:175] Memory required for data: 242784004
I0410 05:49:29.846427   102 layer_factory.hpp:93] Creating layer conv4_3/linear/bn_conv4_3/linear/bn_0_split
I0410 05:49:29.846434   102 net.cpp:110] Creating Layer conv4_3/linear/bn_conv4_3/linear/bn_0_split
I0410 05:49:29.846438   102 net.cpp:451] conv4_3/linear/bn_conv4_3/linear/bn_0_split <- conv4_3/linear/bn
I0410 05:49:29.846443   102 net.cpp:425] conv4_3/linear/bn_conv4_3/linear/bn_0_split -> conv4_3/linear/bn_conv4_3/linear/bn_0_split_0
I0410 05:49:29.846451   102 net.cpp:425] conv4_3/linear/bn_conv4_3/linear/bn_0_split -> conv4_3/linear/bn_conv4_3/linear/bn_0_split_1
I0410 05:49:29.846477   102 net.cpp:160] Setting up conv4_3/linear/bn_conv4_3/linear/bn_0_split
I0410 05:49:29.846483   102 net.cpp:167] Top shape: 1 64 45 60 (172800)
I0410 05:49:29.846488   102 net.cpp:167] Top shape: 1 64 45 60 (172800)
I0410 05:49:29.846493   102 net.cpp:175] Memory required for data: 244166404
I0410 05:49:29.846496   102 layer_factory.hpp:93] Creating layer conv4_4/expand
I0410 05:49:29.846503   102 net.cpp:110] Creating Layer conv4_4/expand
I0410 05:49:29.846508   102 net.cpp:451] conv4_4/expand <- conv4_3/linear/bn_conv4_3/linear/bn_0_split_0
I0410 05:49:29.846513   102 net.cpp:425] conv4_4/expand -> conv4_4/expand
I0410 05:49:29.846909   102 net.cpp:160] Setting up conv4_4/expand
I0410 05:49:29.846916   102 net.cpp:167] Top shape: 1 384 45 60 (1036800)
I0410 05:49:29.846921   102 net.cpp:175] Memory required for data: 248313604
I0410 05:49:29.846926   102 layer_factory.hpp:93] Creating layer conv4_4/expand/bn
I0410 05:49:29.846933   102 net.cpp:110] Creating Layer conv4_4/expand/bn
I0410 05:49:29.846938   102 net.cpp:451] conv4_4/expand/bn <- conv4_4/expand
I0410 05:49:29.846943   102 net.cpp:425] conv4_4/expand/bn -> conv4_4/expand/bn
I0410 05:49:29.847427   102 net.cpp:160] Setting up conv4_4/expand/bn
I0410 05:49:29.847435   102 net.cpp:167] Top shape: 1 384 45 60 (1036800)
I0410 05:49:29.847440   102 net.cpp:175] Memory required for data: 252460804
I0410 05:49:29.847450   102 layer_factory.hpp:93] Creating layer relu4_4/expand
I0410 05:49:29.847455   102 net.cpp:110] Creating Layer relu4_4/expand
I0410 05:49:29.847458   102 net.cpp:451] relu4_4/expand <- conv4_4/expand/bn
I0410 05:49:29.847463   102 net.cpp:412] relu4_4/expand -> conv4_4/expand/bn (in-place)
I0410 05:49:29.847470   102 net.cpp:160] Setting up relu4_4/expand
I0410 05:49:29.847472   102 net.cpp:167] Top shape: 1 384 45 60 (1036800)
I0410 05:49:29.847477   102 net.cpp:175] Memory required for data: 256608004
I0410 05:49:29.847481   102 layer_factory.hpp:93] Creating layer conv4_4/dwise
I0410 05:49:29.847487   102 net.cpp:110] Creating Layer conv4_4/dwise
I0410 05:49:29.847491   102 net.cpp:451] conv4_4/dwise <- conv4_4/expand/bn
I0410 05:49:29.847496   102 net.cpp:425] conv4_4/dwise -> conv4_4/dwise
I0410 05:49:29.847677   102 net.cpp:160] Setting up conv4_4/dwise
I0410 05:49:29.847683   102 net.cpp:167] Top shape: 1 384 45 60 (1036800)
I0410 05:49:29.847689   102 net.cpp:175] Memory required for data: 260755204
I0410 05:49:29.847694   102 layer_factory.hpp:93] Creating layer conv4_4/dwise/bn
I0410 05:49:29.847700   102 net.cpp:110] Creating Layer conv4_4/dwise/bn
I0410 05:49:29.847704   102 net.cpp:451] conv4_4/dwise/bn <- conv4_4/dwise
I0410 05:49:29.847710   102 net.cpp:425] conv4_4/dwise/bn -> conv4_4/dwise/bn
I0410 05:49:29.848184   102 net.cpp:160] Setting up conv4_4/dwise/bn
I0410 05:49:29.848191   102 net.cpp:167] Top shape: 1 384 45 60 (1036800)
I0410 05:49:29.848196   102 net.cpp:175] Memory required for data: 264902404
I0410 05:49:29.848206   102 layer_factory.hpp:93] Creating layer relu4_4/dwise
I0410 05:49:29.848210   102 net.cpp:110] Creating Layer relu4_4/dwise
I0410 05:49:29.848214   102 net.cpp:451] relu4_4/dwise <- conv4_4/dwise/bn
I0410 05:49:29.848219   102 net.cpp:412] relu4_4/dwise -> conv4_4/dwise/bn (in-place)
I0410 05:49:29.848225   102 net.cpp:160] Setting up relu4_4/dwise
I0410 05:49:29.848228   102 net.cpp:167] Top shape: 1 384 45 60 (1036800)
I0410 05:49:29.848233   102 net.cpp:175] Memory required for data: 269049604
I0410 05:49:29.848237   102 layer_factory.hpp:93] Creating layer conv4_4/linear
I0410 05:49:29.848242   102 net.cpp:110] Creating Layer conv4_4/linear
I0410 05:49:29.848246   102 net.cpp:451] conv4_4/linear <- conv4_4/dwise/bn
I0410 05:49:29.848251   102 net.cpp:425] conv4_4/linear -> conv4_4/linear
I0410 05:49:29.848652   102 net.cpp:160] Setting up conv4_4/linear
I0410 05:49:29.848660   102 net.cpp:167] Top shape: 1 64 45 60 (172800)
I0410 05:49:29.848666   102 net.cpp:175] Memory required for data: 269740804
I0410 05:49:29.848671   102 layer_factory.hpp:93] Creating layer conv4_4/linear/bn
I0410 05:49:29.848678   102 net.cpp:110] Creating Layer conv4_4/linear/bn
I0410 05:49:29.848682   102 net.cpp:451] conv4_4/linear/bn <- conv4_4/linear
I0410 05:49:29.848688   102 net.cpp:425] conv4_4/linear/bn -> conv4_4/linear/bn
I0410 05:49:29.849257   102 net.cpp:160] Setting up conv4_4/linear/bn
I0410 05:49:29.849263   102 net.cpp:167] Top shape: 1 64 45 60 (172800)
I0410 05:49:29.849269   102 net.cpp:175] Memory required for data: 270432004
I0410 05:49:29.849277   102 layer_factory.hpp:93] Creating layer block_4_4
I0410 05:49:29.849283   102 net.cpp:110] Creating Layer block_4_4
I0410 05:49:29.849287   102 net.cpp:451] block_4_4 <- conv4_3/linear/bn_conv4_3/linear/bn_0_split_1
I0410 05:49:29.849292   102 net.cpp:451] block_4_4 <- conv4_4/linear/bn
I0410 05:49:29.849297   102 net.cpp:425] block_4_4 -> block_4_4
I0410 05:49:29.849315   102 net.cpp:160] Setting up block_4_4
I0410 05:49:29.849319   102 net.cpp:167] Top shape: 1 64 45 60 (172800)
I0410 05:49:29.849324   102 net.cpp:175] Memory required for data: 271123204
I0410 05:49:29.849328   102 layer_factory.hpp:93] Creating layer block_4_4_block_4_4_0_split
I0410 05:49:29.849332   102 net.cpp:110] Creating Layer block_4_4_block_4_4_0_split
I0410 05:49:29.849336   102 net.cpp:451] block_4_4_block_4_4_0_split <- block_4_4
I0410 05:49:29.849341   102 net.cpp:425] block_4_4_block_4_4_0_split -> block_4_4_block_4_4_0_split_0
I0410 05:49:29.849347   102 net.cpp:425] block_4_4_block_4_4_0_split -> block_4_4_block_4_4_0_split_1
I0410 05:49:29.849372   102 net.cpp:160] Setting up block_4_4_block_4_4_0_split
I0410 05:49:29.849377   102 net.cpp:167] Top shape: 1 64 45 60 (172800)
I0410 05:49:29.849382   102 net.cpp:167] Top shape: 1 64 45 60 (172800)
I0410 05:49:29.849386   102 net.cpp:175] Memory required for data: 272505604
I0410 05:49:29.849390   102 layer_factory.hpp:93] Creating layer conv4_5/expand
I0410 05:49:29.849397   102 net.cpp:110] Creating Layer conv4_5/expand
I0410 05:49:29.849400   102 net.cpp:451] conv4_5/expand <- block_4_4_block_4_4_0_split_0
I0410 05:49:29.849406   102 net.cpp:425] conv4_5/expand -> conv4_5/expand
I0410 05:49:29.849792   102 net.cpp:160] Setting up conv4_5/expand
I0410 05:49:29.849798   102 net.cpp:167] Top shape: 1 384 45 60 (1036800)
I0410 05:49:29.849803   102 net.cpp:175] Memory required for data: 276652804
I0410 05:49:29.849809   102 layer_factory.hpp:93] Creating layer conv4_5/expand/bn
I0410 05:49:29.849815   102 net.cpp:110] Creating Layer conv4_5/expand/bn
I0410 05:49:29.849819   102 net.cpp:451] conv4_5/expand/bn <- conv4_5/expand
I0410 05:49:29.849825   102 net.cpp:425] conv4_5/expand/bn -> conv4_5/expand/bn
I0410 05:49:29.850301   102 net.cpp:160] Setting up conv4_5/expand/bn
I0410 05:49:29.850307   102 net.cpp:167] Top shape: 1 384 45 60 (1036800)
I0410 05:49:29.850312   102 net.cpp:175] Memory required for data: 280800004
I0410 05:49:29.850320   102 layer_factory.hpp:93] Creating layer relu4_5/expand
I0410 05:49:29.850327   102 net.cpp:110] Creating Layer relu4_5/expand
I0410 05:49:29.850330   102 net.cpp:451] relu4_5/expand <- conv4_5/expand/bn
I0410 05:49:29.850335   102 net.cpp:412] relu4_5/expand -> conv4_5/expand/bn (in-place)
I0410 05:49:29.850340   102 net.cpp:160] Setting up relu4_5/expand
I0410 05:49:29.850344   102 net.cpp:167] Top shape: 1 384 45 60 (1036800)
I0410 05:49:29.850348   102 net.cpp:175] Memory required for data: 284947204
I0410 05:49:29.850353   102 layer_factory.hpp:93] Creating layer conv4_5/dwise
I0410 05:49:29.850358   102 net.cpp:110] Creating Layer conv4_5/dwise
I0410 05:49:29.850363   102 net.cpp:451] conv4_5/dwise <- conv4_5/expand/bn
I0410 05:49:29.850368   102 net.cpp:425] conv4_5/dwise -> conv4_5/dwise
I0410 05:49:29.850551   102 net.cpp:160] Setting up conv4_5/dwise
I0410 05:49:29.850558   102 net.cpp:167] Top shape: 1 384 45 60 (1036800)
I0410 05:49:29.850564   102 net.cpp:175] Memory required for data: 289094404
I0410 05:49:29.850569   102 layer_factory.hpp:93] Creating layer conv4_5/dwise/bn
I0410 05:49:29.850575   102 net.cpp:110] Creating Layer conv4_5/dwise/bn
I0410 05:49:29.850579   102 net.cpp:451] conv4_5/dwise/bn <- conv4_5/dwise
I0410 05:49:29.850585   102 net.cpp:425] conv4_5/dwise/bn -> conv4_5/dwise/bn
I0410 05:49:29.851065   102 net.cpp:160] Setting up conv4_5/dwise/bn
I0410 05:49:29.851073   102 net.cpp:167] Top shape: 1 384 45 60 (1036800)
I0410 05:49:29.851078   102 net.cpp:175] Memory required for data: 293241604
I0410 05:49:29.851085   102 layer_factory.hpp:93] Creating layer relu4_5/dwise
I0410 05:49:29.851090   102 net.cpp:110] Creating Layer relu4_5/dwise
I0410 05:49:29.851094   102 net.cpp:451] relu4_5/dwise <- conv4_5/dwise/bn
I0410 05:49:29.851099   102 net.cpp:412] relu4_5/dwise -> conv4_5/dwise/bn (in-place)
I0410 05:49:29.851105   102 net.cpp:160] Setting up relu4_5/dwise
I0410 05:49:29.851109   102 net.cpp:167] Top shape: 1 384 45 60 (1036800)
I0410 05:49:29.851112   102 net.cpp:175] Memory required for data: 297388804
I0410 05:49:29.851116   102 layer_factory.hpp:93] Creating layer conv4_5/linear
I0410 05:49:29.851122   102 net.cpp:110] Creating Layer conv4_5/linear
I0410 05:49:29.851126   102 net.cpp:451] conv4_5/linear <- conv4_5/dwise/bn
I0410 05:49:29.851131   102 net.cpp:425] conv4_5/linear -> conv4_5/linear
I0410 05:49:29.851521   102 net.cpp:160] Setting up conv4_5/linear
I0410 05:49:29.851527   102 net.cpp:167] Top shape: 1 64 45 60 (172800)
I0410 05:49:29.851532   102 net.cpp:175] Memory required for data: 298080004
I0410 05:49:29.851538   102 layer_factory.hpp:93] Creating layer conv4_5/linear/bn
I0410 05:49:29.851545   102 net.cpp:110] Creating Layer conv4_5/linear/bn
I0410 05:49:29.851549   102 net.cpp:451] conv4_5/linear/bn <- conv4_5/linear
I0410 05:49:29.851554   102 net.cpp:425] conv4_5/linear/bn -> conv4_5/linear/bn
I0410 05:49:29.852115   102 net.cpp:160] Setting up conv4_5/linear/bn
I0410 05:49:29.852123   102 net.cpp:167] Top shape: 1 64 45 60 (172800)
I0410 05:49:29.852128   102 net.cpp:175] Memory required for data: 298771204
I0410 05:49:29.852135   102 layer_factory.hpp:93] Creating layer block_4_5
I0410 05:49:29.852141   102 net.cpp:110] Creating Layer block_4_5
I0410 05:49:29.852145   102 net.cpp:451] block_4_5 <- block_4_4_block_4_4_0_split_1
I0410 05:49:29.852150   102 net.cpp:451] block_4_5 <- conv4_5/linear/bn
I0410 05:49:29.852155   102 net.cpp:425] block_4_5 -> block_4_5
I0410 05:49:29.852174   102 net.cpp:160] Setting up block_4_5
I0410 05:49:29.852178   102 net.cpp:167] Top shape: 1 64 45 60 (172800)
I0410 05:49:29.852183   102 net.cpp:175] Memory required for data: 299462404
I0410 05:49:29.852187   102 layer_factory.hpp:93] Creating layer block_4_5_block_4_5_0_split
I0410 05:49:29.852192   102 net.cpp:110] Creating Layer block_4_5_block_4_5_0_split
I0410 05:49:29.852195   102 net.cpp:451] block_4_5_block_4_5_0_split <- block_4_5
I0410 05:49:29.852200   102 net.cpp:425] block_4_5_block_4_5_0_split -> block_4_5_block_4_5_0_split_0
I0410 05:49:29.852206   102 net.cpp:425] block_4_5_block_4_5_0_split -> block_4_5_block_4_5_0_split_1
I0410 05:49:29.852232   102 net.cpp:160] Setting up block_4_5_block_4_5_0_split
I0410 05:49:29.852237   102 net.cpp:167] Top shape: 1 64 45 60 (172800)
I0410 05:49:29.852242   102 net.cpp:167] Top shape: 1 64 45 60 (172800)
I0410 05:49:29.852246   102 net.cpp:175] Memory required for data: 300844804
I0410 05:49:29.852249   102 layer_factory.hpp:93] Creating layer conv4_6/expand
I0410 05:49:29.852257   102 net.cpp:110] Creating Layer conv4_6/expand
I0410 05:49:29.852260   102 net.cpp:451] conv4_6/expand <- block_4_5_block_4_5_0_split_0
I0410 05:49:29.852265   102 net.cpp:425] conv4_6/expand -> conv4_6/expand
I0410 05:49:29.852659   102 net.cpp:160] Setting up conv4_6/expand
I0410 05:49:29.852666   102 net.cpp:167] Top shape: 1 384 45 60 (1036800)
I0410 05:49:29.852672   102 net.cpp:175] Memory required for data: 304992004
I0410 05:49:29.852677   102 layer_factory.hpp:93] Creating layer conv4_6/expand/bn
I0410 05:49:29.852684   102 net.cpp:110] Creating Layer conv4_6/expand/bn
I0410 05:49:29.852689   102 net.cpp:451] conv4_6/expand/bn <- conv4_6/expand
I0410 05:49:29.852694   102 net.cpp:425] conv4_6/expand/bn -> conv4_6/expand/bn
I0410 05:49:29.853165   102 net.cpp:160] Setting up conv4_6/expand/bn
I0410 05:49:29.853173   102 net.cpp:167] Top shape: 1 384 45 60 (1036800)
I0410 05:49:29.853178   102 net.cpp:175] Memory required for data: 309139204
I0410 05:49:29.853185   102 layer_factory.hpp:93] Creating layer relu4_6/expand
I0410 05:49:29.853190   102 net.cpp:110] Creating Layer relu4_6/expand
I0410 05:49:29.853194   102 net.cpp:451] relu4_6/expand <- conv4_6/expand/bn
I0410 05:49:29.853199   102 net.cpp:412] relu4_6/expand -> conv4_6/expand/bn (in-place)
I0410 05:49:29.853205   102 net.cpp:160] Setting up relu4_6/expand
I0410 05:49:29.853209   102 net.cpp:167] Top shape: 1 384 45 60 (1036800)
I0410 05:49:29.853214   102 net.cpp:175] Memory required for data: 313286404
I0410 05:49:29.853216   102 layer_factory.hpp:93] Creating layer conv4_6/dwise
I0410 05:49:29.853224   102 net.cpp:110] Creating Layer conv4_6/dwise
I0410 05:49:29.853227   102 net.cpp:451] conv4_6/dwise <- conv4_6/expand/bn
I0410 05:49:29.853232   102 net.cpp:425] conv4_6/dwise -> conv4_6/dwise
I0410 05:49:29.853415   102 net.cpp:160] Setting up conv4_6/dwise
I0410 05:49:29.853420   102 net.cpp:167] Top shape: 1 384 45 60 (1036800)
I0410 05:49:29.853425   102 net.cpp:175] Memory required for data: 317433604
I0410 05:49:29.853430   102 layer_factory.hpp:93] Creating layer conv4_6/dwise/bn
I0410 05:49:29.853438   102 net.cpp:110] Creating Layer conv4_6/dwise/bn
I0410 05:49:29.853442   102 net.cpp:451] conv4_6/dwise/bn <- conv4_6/dwise
I0410 05:49:29.853448   102 net.cpp:425] conv4_6/dwise/bn -> conv4_6/dwise/bn
I0410 05:49:29.853921   102 net.cpp:160] Setting up conv4_6/dwise/bn
I0410 05:49:29.853929   102 net.cpp:167] Top shape: 1 384 45 60 (1036800)
I0410 05:49:29.853933   102 net.cpp:175] Memory required for data: 321580804
I0410 05:49:29.853942   102 layer_factory.hpp:93] Creating layer relu4_6/dwise
I0410 05:49:29.853947   102 net.cpp:110] Creating Layer relu4_6/dwise
I0410 05:49:29.853951   102 net.cpp:451] relu4_6/dwise <- conv4_6/dwise/bn
I0410 05:49:29.853956   102 net.cpp:412] relu4_6/dwise -> conv4_6/dwise/bn (in-place)
I0410 05:49:29.853962   102 net.cpp:160] Setting up relu4_6/dwise
I0410 05:49:29.853966   102 net.cpp:167] Top shape: 1 384 45 60 (1036800)
I0410 05:49:29.853971   102 net.cpp:175] Memory required for data: 325728004
I0410 05:49:29.853973   102 layer_factory.hpp:93] Creating layer conv4_6/linear
I0410 05:49:29.853981   102 net.cpp:110] Creating Layer conv4_6/linear
I0410 05:49:29.853983   102 net.cpp:451] conv4_6/linear <- conv4_6/dwise/bn
I0410 05:49:29.853988   102 net.cpp:425] conv4_6/linear -> conv4_6/linear
I0410 05:49:29.854375   102 net.cpp:160] Setting up conv4_6/linear
I0410 05:49:29.854382   102 net.cpp:167] Top shape: 1 64 45 60 (172800)
I0410 05:49:29.854387   102 net.cpp:175] Memory required for data: 326419204
I0410 05:49:29.854393   102 layer_factory.hpp:93] Creating layer conv4_6/linear/bn
I0410 05:49:29.854399   102 net.cpp:110] Creating Layer conv4_6/linear/bn
I0410 05:49:29.854403   102 net.cpp:451] conv4_6/linear/bn <- conv4_6/linear
I0410 05:49:29.854409   102 net.cpp:425] conv4_6/linear/bn -> conv4_6/linear/bn
I0410 05:49:29.854972   102 net.cpp:160] Setting up conv4_6/linear/bn
I0410 05:49:29.854979   102 net.cpp:167] Top shape: 1 64 45 60 (172800)
I0410 05:49:29.854984   102 net.cpp:175] Memory required for data: 327110404
I0410 05:49:29.854992   102 layer_factory.hpp:93] Creating layer block_4_6
I0410 05:49:29.854998   102 net.cpp:110] Creating Layer block_4_6
I0410 05:49:29.855002   102 net.cpp:451] block_4_6 <- block_4_5_block_4_5_0_split_1
I0410 05:49:29.855006   102 net.cpp:451] block_4_6 <- conv4_6/linear/bn
I0410 05:49:29.855011   102 net.cpp:425] block_4_6 -> block_4_6
I0410 05:49:29.855031   102 net.cpp:160] Setting up block_4_6
I0410 05:49:29.855039   102 net.cpp:167] Top shape: 1 64 45 60 (172800)
I0410 05:49:29.855044   102 net.cpp:175] Memory required for data: 327801604
I0410 05:49:29.855047   102 layer_factory.hpp:93] Creating layer conv4_7/expand
I0410 05:49:29.855054   102 net.cpp:110] Creating Layer conv4_7/expand
I0410 05:49:29.855057   102 net.cpp:451] conv4_7/expand <- block_4_6
I0410 05:49:29.855063   102 net.cpp:425] conv4_7/expand -> conv4_7/expand
I0410 05:49:29.855451   102 net.cpp:160] Setting up conv4_7/expand
I0410 05:49:29.855458   102 net.cpp:167] Top shape: 1 384 45 60 (1036800)
I0410 05:49:29.855463   102 net.cpp:175] Memory required for data: 331948804
I0410 05:49:29.855468   102 layer_factory.hpp:93] Creating layer conv4_7/expand/bn
I0410 05:49:29.855475   102 net.cpp:110] Creating Layer conv4_7/expand/bn
I0410 05:49:29.855479   102 net.cpp:451] conv4_7/expand/bn <- conv4_7/expand
I0410 05:49:29.855484   102 net.cpp:425] conv4_7/expand/bn -> conv4_7/expand/bn
I0410 05:49:29.855965   102 net.cpp:160] Setting up conv4_7/expand/bn
I0410 05:49:29.855973   102 net.cpp:167] Top shape: 1 384 45 60 (1036800)
I0410 05:49:29.855978   102 net.cpp:175] Memory required for data: 336096004
I0410 05:49:29.855985   102 layer_factory.hpp:93] Creating layer relu4_7/expand
I0410 05:49:29.855991   102 net.cpp:110] Creating Layer relu4_7/expand
I0410 05:49:29.855995   102 net.cpp:451] relu4_7/expand <- conv4_7/expand/bn
I0410 05:49:29.855999   102 net.cpp:412] relu4_7/expand -> conv4_7/expand/bn (in-place)
I0410 05:49:29.856005   102 net.cpp:160] Setting up relu4_7/expand
I0410 05:49:29.856009   102 net.cpp:167] Top shape: 1 384 45 60 (1036800)
I0410 05:49:29.856014   102 net.cpp:175] Memory required for data: 340243204
I0410 05:49:29.856017   102 layer_factory.hpp:93] Creating layer conv4_7/expand/bn_relu4_7/expand_0_split
I0410 05:49:29.856022   102 net.cpp:110] Creating Layer conv4_7/expand/bn_relu4_7/expand_0_split
I0410 05:49:29.856026   102 net.cpp:451] conv4_7/expand/bn_relu4_7/expand_0_split <- conv4_7/expand/bn
I0410 05:49:29.856030   102 net.cpp:425] conv4_7/expand/bn_relu4_7/expand_0_split -> conv4_7/expand/bn_relu4_7/expand_0_split_0
I0410 05:49:29.856036   102 net.cpp:425] conv4_7/expand/bn_relu4_7/expand_0_split -> conv4_7/expand/bn_relu4_7/expand_0_split_1
I0410 05:49:29.856041   102 net.cpp:425] conv4_7/expand/bn_relu4_7/expand_0_split -> conv4_7/expand/bn_relu4_7/expand_0_split_2
I0410 05:49:29.856047   102 net.cpp:425] conv4_7/expand/bn_relu4_7/expand_0_split -> conv4_7/expand/bn_relu4_7/expand_0_split_3
I0410 05:49:29.856093   102 net.cpp:160] Setting up conv4_7/expand/bn_relu4_7/expand_0_split
I0410 05:49:29.856099   102 net.cpp:167] Top shape: 1 384 45 60 (1036800)
I0410 05:49:29.856103   102 net.cpp:167] Top shape: 1 384 45 60 (1036800)
I0410 05:49:29.856108   102 net.cpp:167] Top shape: 1 384 45 60 (1036800)
I0410 05:49:29.856112   102 net.cpp:167] Top shape: 1 384 45 60 (1036800)
I0410 05:49:29.856117   102 net.cpp:175] Memory required for data: 356832004
I0410 05:49:29.856120   102 layer_factory.hpp:93] Creating layer conv4_7/dwise
I0410 05:49:29.856132   102 net.cpp:110] Creating Layer conv4_7/dwise
I0410 05:49:29.856135   102 net.cpp:451] conv4_7/dwise <- conv4_7/expand/bn_relu4_7/expand_0_split_0
I0410 05:49:29.856142   102 net.cpp:425] conv4_7/dwise -> conv4_7/dwise
I0410 05:49:29.856323   102 net.cpp:160] Setting up conv4_7/dwise
I0410 05:49:29.856328   102 net.cpp:167] Top shape: 1 384 23 30 (264960)
I0410 05:49:29.856333   102 net.cpp:175] Memory required for data: 357891844
I0410 05:49:29.856338   102 layer_factory.hpp:93] Creating layer conv4_7/dwise/bn
I0410 05:49:29.856345   102 net.cpp:110] Creating Layer conv4_7/dwise/bn
I0410 05:49:29.856349   102 net.cpp:451] conv4_7/dwise/bn <- conv4_7/dwise
I0410 05:49:29.856354   102 net.cpp:425] conv4_7/dwise/bn -> conv4_7/dwise/bn
I0410 05:49:29.856846   102 net.cpp:160] Setting up conv4_7/dwise/bn
I0410 05:49:29.856855   102 net.cpp:167] Top shape: 1 384 23 30 (264960)
I0410 05:49:29.856860   102 net.cpp:175] Memory required for data: 358951684
I0410 05:49:29.856869   102 layer_factory.hpp:93] Creating layer relu4_7/dwise
I0410 05:49:29.856874   102 net.cpp:110] Creating Layer relu4_7/dwise
I0410 05:49:29.856878   102 net.cpp:451] relu4_7/dwise <- conv4_7/dwise/bn
I0410 05:49:29.856884   102 net.cpp:412] relu4_7/dwise -> conv4_7/dwise/bn (in-place)
I0410 05:49:29.856889   102 net.cpp:160] Setting up relu4_7/dwise
I0410 05:49:29.856894   102 net.cpp:167] Top shape: 1 384 23 30 (264960)
I0410 05:49:29.856897   102 net.cpp:175] Memory required for data: 360011524
I0410 05:49:29.856901   102 layer_factory.hpp:93] Creating layer conv4_7/linear
I0410 05:49:29.856907   102 net.cpp:110] Creating Layer conv4_7/linear
I0410 05:49:29.856911   102 net.cpp:451] conv4_7/linear <- conv4_7/dwise/bn
I0410 05:49:29.856916   102 net.cpp:425] conv4_7/linear -> conv4_7/linear
I0410 05:49:29.858111   102 net.cpp:160] Setting up conv4_7/linear
I0410 05:49:29.858122   102 net.cpp:167] Top shape: 1 96 23 30 (66240)
I0410 05:49:29.858129   102 net.cpp:175] Memory required for data: 360276484
I0410 05:49:29.858134   102 layer_factory.hpp:93] Creating layer conv4_7/linear/bn
I0410 05:49:29.858142   102 net.cpp:110] Creating Layer conv4_7/linear/bn
I0410 05:49:29.858147   102 net.cpp:451] conv4_7/linear/bn <- conv4_7/linear
I0410 05:49:29.858153   102 net.cpp:425] conv4_7/linear/bn -> conv4_7/linear/bn
I0410 05:49:29.858729   102 net.cpp:160] Setting up conv4_7/linear/bn
I0410 05:49:29.858737   102 net.cpp:167] Top shape: 1 96 23 30 (66240)
I0410 05:49:29.858742   102 net.cpp:175] Memory required for data: 360541444
I0410 05:49:29.858752   102 layer_factory.hpp:93] Creating layer conv4_7/linear/bn_conv4_7/linear/bn_0_split
I0410 05:49:29.858757   102 net.cpp:110] Creating Layer conv4_7/linear/bn_conv4_7/linear/bn_0_split
I0410 05:49:29.858760   102 net.cpp:451] conv4_7/linear/bn_conv4_7/linear/bn_0_split <- conv4_7/linear/bn
I0410 05:49:29.858767   102 net.cpp:425] conv4_7/linear/bn_conv4_7/linear/bn_0_split -> conv4_7/linear/bn_conv4_7/linear/bn_0_split_0
I0410 05:49:29.858773   102 net.cpp:425] conv4_7/linear/bn_conv4_7/linear/bn_0_split -> conv4_7/linear/bn_conv4_7/linear/bn_0_split_1
I0410 05:49:29.858800   102 net.cpp:160] Setting up conv4_7/linear/bn_conv4_7/linear/bn_0_split
I0410 05:49:29.858804   102 net.cpp:167] Top shape: 1 96 23 30 (66240)
I0410 05:49:29.858809   102 net.cpp:167] Top shape: 1 96 23 30 (66240)
I0410 05:49:29.858814   102 net.cpp:175] Memory required for data: 361071364
I0410 05:49:29.858817   102 layer_factory.hpp:93] Creating layer conv5_1/expand
I0410 05:49:29.858825   102 net.cpp:110] Creating Layer conv5_1/expand
I0410 05:49:29.858829   102 net.cpp:451] conv5_1/expand <- conv4_7/linear/bn_conv4_7/linear/bn_0_split_0
I0410 05:49:29.858835   102 net.cpp:425] conv5_1/expand -> conv5_1/expand
I0410 05:49:29.859519   102 net.cpp:160] Setting up conv5_1/expand
I0410 05:49:29.859525   102 net.cpp:167] Top shape: 1 576 23 30 (397440)
I0410 05:49:29.859531   102 net.cpp:175] Memory required for data: 362661124
I0410 05:49:29.859536   102 layer_factory.hpp:93] Creating layer conv5_1/expand/bn
I0410 05:49:29.859544   102 net.cpp:110] Creating Layer conv5_1/expand/bn
I0410 05:49:29.859549   102 net.cpp:451] conv5_1/expand/bn <- conv5_1/expand
I0410 05:49:29.859555   102 net.cpp:425] conv5_1/expand/bn -> conv5_1/expand/bn
I0410 05:49:29.860124   102 net.cpp:160] Setting up conv5_1/expand/bn
I0410 05:49:29.860132   102 net.cpp:167] Top shape: 1 576 23 30 (397440)
I0410 05:49:29.860137   102 net.cpp:175] Memory required for data: 364250884
I0410 05:49:29.860146   102 layer_factory.hpp:93] Creating layer relu5_1/expand
I0410 05:49:29.860152   102 net.cpp:110] Creating Layer relu5_1/expand
I0410 05:49:29.860157   102 net.cpp:451] relu5_1/expand <- conv5_1/expand/bn
I0410 05:49:29.860162   102 net.cpp:412] relu5_1/expand -> conv5_1/expand/bn (in-place)
I0410 05:49:29.860167   102 net.cpp:160] Setting up relu5_1/expand
I0410 05:49:29.860170   102 net.cpp:167] Top shape: 1 576 23 30 (397440)
I0410 05:49:29.860175   102 net.cpp:175] Memory required for data: 365840644
I0410 05:49:29.860178   102 layer_factory.hpp:93] Creating layer conv5_1/dwise
I0410 05:49:29.860185   102 net.cpp:110] Creating Layer conv5_1/dwise
I0410 05:49:29.860189   102 net.cpp:451] conv5_1/dwise <- conv5_1/expand/bn
I0410 05:49:29.860194   102 net.cpp:425] conv5_1/dwise -> conv5_1/dwise
I0410 05:49:29.860405   102 net.cpp:160] Setting up conv5_1/dwise
I0410 05:49:29.860412   102 net.cpp:167] Top shape: 1 576 23 30 (397440)
I0410 05:49:29.860417   102 net.cpp:175] Memory required for data: 367430404
I0410 05:49:29.860424   102 layer_factory.hpp:93] Creating layer conv5_1/dwise/bn
I0410 05:49:29.860430   102 net.cpp:110] Creating Layer conv5_1/dwise/bn
I0410 05:49:29.860435   102 net.cpp:451] conv5_1/dwise/bn <- conv5_1/dwise
I0410 05:49:29.860440   102 net.cpp:425] conv5_1/dwise/bn -> conv5_1/dwise/bn
I0410 05:49:29.861025   102 net.cpp:160] Setting up conv5_1/dwise/bn
I0410 05:49:29.861033   102 net.cpp:167] Top shape: 1 576 23 30 (397440)
I0410 05:49:29.861039   102 net.cpp:175] Memory required for data: 369020164
I0410 05:49:29.861047   102 layer_factory.hpp:93] Creating layer relu5_1/dwise
I0410 05:49:29.861053   102 net.cpp:110] Creating Layer relu5_1/dwise
I0410 05:49:29.861058   102 net.cpp:451] relu5_1/dwise <- conv5_1/dwise/bn
I0410 05:49:29.861063   102 net.cpp:412] relu5_1/dwise -> conv5_1/dwise/bn (in-place)
I0410 05:49:29.861069   102 net.cpp:160] Setting up relu5_1/dwise
I0410 05:49:29.861073   102 net.cpp:167] Top shape: 1 576 23 30 (397440)
I0410 05:49:29.861076   102 net.cpp:175] Memory required for data: 370609924
I0410 05:49:29.861080   102 layer_factory.hpp:93] Creating layer conv5_1/linear
I0410 05:49:29.861088   102 net.cpp:110] Creating Layer conv5_1/linear
I0410 05:49:29.861090   102 net.cpp:451] conv5_1/linear <- conv5_1/dwise/bn
I0410 05:49:29.861096   102 net.cpp:425] conv5_1/linear -> conv5_1/linear
I0410 05:49:29.861780   102 net.cpp:160] Setting up conv5_1/linear
I0410 05:49:29.861788   102 net.cpp:167] Top shape: 1 96 23 30 (66240)
I0410 05:49:29.861793   102 net.cpp:175] Memory required for data: 370874884
I0410 05:49:29.861799   102 layer_factory.hpp:93] Creating layer conv5_1/linear/bn
I0410 05:49:29.861806   102 net.cpp:110] Creating Layer conv5_1/linear/bn
I0410 05:49:29.861810   102 net.cpp:451] conv5_1/linear/bn <- conv5_1/linear
I0410 05:49:29.861816   102 net.cpp:425] conv5_1/linear/bn -> conv5_1/linear/bn
I0410 05:49:29.862391   102 net.cpp:160] Setting up conv5_1/linear/bn
I0410 05:49:29.862398   102 net.cpp:167] Top shape: 1 96 23 30 (66240)
I0410 05:49:29.862404   102 net.cpp:175] Memory required for data: 371139844
I0410 05:49:29.862412   102 layer_factory.hpp:93] Creating layer block_5_1
I0410 05:49:29.862418   102 net.cpp:110] Creating Layer block_5_1
I0410 05:49:29.862422   102 net.cpp:451] block_5_1 <- conv4_7/linear/bn_conv4_7/linear/bn_0_split_1
I0410 05:49:29.862427   102 net.cpp:451] block_5_1 <- conv5_1/linear/bn
I0410 05:49:29.862432   102 net.cpp:425] block_5_1 -> block_5_1
I0410 05:49:29.862452   102 net.cpp:160] Setting up block_5_1
I0410 05:49:29.862455   102 net.cpp:167] Top shape: 1 96 23 30 (66240)
I0410 05:49:29.862460   102 net.cpp:175] Memory required for data: 371404804
I0410 05:49:29.862464   102 layer_factory.hpp:93] Creating layer block_5_1_block_5_1_0_split
I0410 05:49:29.862469   102 net.cpp:110] Creating Layer block_5_1_block_5_1_0_split
I0410 05:49:29.862473   102 net.cpp:451] block_5_1_block_5_1_0_split <- block_5_1
I0410 05:49:29.862478   102 net.cpp:425] block_5_1_block_5_1_0_split -> block_5_1_block_5_1_0_split_0
I0410 05:49:29.862483   102 net.cpp:425] block_5_1_block_5_1_0_split -> block_5_1_block_5_1_0_split_1
I0410 05:49:29.862509   102 net.cpp:160] Setting up block_5_1_block_5_1_0_split
I0410 05:49:29.862515   102 net.cpp:167] Top shape: 1 96 23 30 (66240)
I0410 05:49:29.862520   102 net.cpp:167] Top shape: 1 96 23 30 (66240)
I0410 05:49:29.862524   102 net.cpp:175] Memory required for data: 371934724
I0410 05:49:29.862529   102 layer_factory.hpp:93] Creating layer conv5_2/expand
I0410 05:49:29.862535   102 net.cpp:110] Creating Layer conv5_2/expand
I0410 05:49:29.862538   102 net.cpp:451] conv5_2/expand <- block_5_1_block_5_1_0_split_0
I0410 05:49:29.862545   102 net.cpp:425] conv5_2/expand -> conv5_2/expand
I0410 05:49:29.863217   102 net.cpp:160] Setting up conv5_2/expand
I0410 05:49:29.863224   102 net.cpp:167] Top shape: 1 576 23 30 (397440)
I0410 05:49:29.863230   102 net.cpp:175] Memory required for data: 373524484
I0410 05:49:29.863235   102 layer_factory.hpp:93] Creating layer conv5_2/expand/bn
I0410 05:49:29.863242   102 net.cpp:110] Creating Layer conv5_2/expand/bn
I0410 05:49:29.863247   102 net.cpp:451] conv5_2/expand/bn <- conv5_2/expand
I0410 05:49:29.863252   102 net.cpp:425] conv5_2/expand/bn -> conv5_2/expand/bn
I0410 05:49:29.863832   102 net.cpp:160] Setting up conv5_2/expand/bn
I0410 05:49:29.863839   102 net.cpp:167] Top shape: 1 576 23 30 (397440)
I0410 05:49:29.863844   102 net.cpp:175] Memory required for data: 375114244
I0410 05:49:29.863852   102 layer_factory.hpp:93] Creating layer relu5_2/expand
I0410 05:49:29.863858   102 net.cpp:110] Creating Layer relu5_2/expand
I0410 05:49:29.863862   102 net.cpp:451] relu5_2/expand <- conv5_2/expand/bn
I0410 05:49:29.863867   102 net.cpp:412] relu5_2/expand -> conv5_2/expand/bn (in-place)
I0410 05:49:29.863873   102 net.cpp:160] Setting up relu5_2/expand
I0410 05:49:29.863876   102 net.cpp:167] Top shape: 1 576 23 30 (397440)
I0410 05:49:29.863881   102 net.cpp:175] Memory required for data: 376704004
I0410 05:49:29.863884   102 layer_factory.hpp:93] Creating layer conv5_2/dwise
I0410 05:49:29.863891   102 net.cpp:110] Creating Layer conv5_2/dwise
I0410 05:49:29.863894   102 net.cpp:451] conv5_2/dwise <- conv5_2/expand/bn
I0410 05:49:29.863900   102 net.cpp:425] conv5_2/dwise -> conv5_2/dwise
I0410 05:49:29.864114   102 net.cpp:160] Setting up conv5_2/dwise
I0410 05:49:29.864120   102 net.cpp:167] Top shape: 1 576 23 30 (397440)
I0410 05:49:29.864125   102 net.cpp:175] Memory required for data: 378293764
I0410 05:49:29.864131   102 layer_factory.hpp:93] Creating layer conv5_2/dwise/bn
I0410 05:49:29.864138   102 net.cpp:110] Creating Layer conv5_2/dwise/bn
I0410 05:49:29.864142   102 net.cpp:451] conv5_2/dwise/bn <- conv5_2/dwise
I0410 05:49:29.864148   102 net.cpp:425] conv5_2/dwise/bn -> conv5_2/dwise/bn
I0410 05:49:29.864718   102 net.cpp:160] Setting up conv5_2/dwise/bn
I0410 05:49:29.864725   102 net.cpp:167] Top shape: 1 576 23 30 (397440)
I0410 05:49:29.864732   102 net.cpp:175] Memory required for data: 379883524
I0410 05:49:29.864739   102 layer_factory.hpp:93] Creating layer relu5_2/dwise
I0410 05:49:29.864745   102 net.cpp:110] Creating Layer relu5_2/dwise
I0410 05:49:29.864749   102 net.cpp:451] relu5_2/dwise <- conv5_2/dwise/bn
I0410 05:49:29.864754   102 net.cpp:412] relu5_2/dwise -> conv5_2/dwise/bn (in-place)
I0410 05:49:29.864760   102 net.cpp:160] Setting up relu5_2/dwise
I0410 05:49:29.864763   102 net.cpp:167] Top shape: 1 576 23 30 (397440)
I0410 05:49:29.864768   102 net.cpp:175] Memory required for data: 381473284
I0410 05:49:29.864771   102 layer_factory.hpp:93] Creating layer conv5_2/linear
I0410 05:49:29.864778   102 net.cpp:110] Creating Layer conv5_2/linear
I0410 05:49:29.864782   102 net.cpp:451] conv5_2/linear <- conv5_2/dwise/bn
I0410 05:49:29.864787   102 net.cpp:425] conv5_2/linear -> conv5_2/linear
I0410 05:49:29.866127   102 net.cpp:160] Setting up conv5_2/linear
I0410 05:49:29.866137   102 net.cpp:167] Top shape: 1 96 23 30 (66240)
I0410 05:49:29.866142   102 net.cpp:175] Memory required for data: 381738244
I0410 05:49:29.866148   102 layer_factory.hpp:93] Creating layer conv5_2/linear/bn
I0410 05:49:29.866156   102 net.cpp:110] Creating Layer conv5_2/linear/bn
I0410 05:49:29.866161   102 net.cpp:451] conv5_2/linear/bn <- conv5_2/linear
I0410 05:49:29.866168   102 net.cpp:425] conv5_2/linear/bn -> conv5_2/linear/bn
I0410 05:49:29.866752   102 net.cpp:160] Setting up conv5_2/linear/bn
I0410 05:49:29.866760   102 net.cpp:167] Top shape: 1 96 23 30 (66240)
I0410 05:49:29.866765   102 net.cpp:175] Memory required for data: 382003204
I0410 05:49:29.866775   102 layer_factory.hpp:93] Creating layer block_5_2
I0410 05:49:29.866780   102 net.cpp:110] Creating Layer block_5_2
I0410 05:49:29.866784   102 net.cpp:451] block_5_2 <- block_5_1_block_5_1_0_split_1
I0410 05:49:29.866788   102 net.cpp:451] block_5_2 <- conv5_2/linear/bn
I0410 05:49:29.866793   102 net.cpp:425] block_5_2 -> block_5_2
I0410 05:49:29.866813   102 net.cpp:160] Setting up block_5_2
I0410 05:49:29.866816   102 net.cpp:167] Top shape: 1 96 23 30 (66240)
I0410 05:49:29.866822   102 net.cpp:175] Memory required for data: 382268164
I0410 05:49:29.866825   102 layer_factory.hpp:93] Creating layer conv5_3/expand
I0410 05:49:29.866832   102 net.cpp:110] Creating Layer conv5_3/expand
I0410 05:49:29.866835   102 net.cpp:451] conv5_3/expand <- block_5_2
I0410 05:49:29.866842   102 net.cpp:425] conv5_3/expand -> conv5_3/expand
I0410 05:49:29.867511   102 net.cpp:160] Setting up conv5_3/expand
I0410 05:49:29.867518   102 net.cpp:167] Top shape: 1 576 23 30 (397440)
I0410 05:49:29.867523   102 net.cpp:175] Memory required for data: 383857924
I0410 05:49:29.867528   102 layer_factory.hpp:93] Creating layer conv5_3/expand/bn
I0410 05:49:29.867535   102 net.cpp:110] Creating Layer conv5_3/expand/bn
I0410 05:49:29.867540   102 net.cpp:451] conv5_3/expand/bn <- conv5_3/expand
I0410 05:49:29.867545   102 net.cpp:425] conv5_3/expand/bn -> conv5_3/expand/bn
I0410 05:49:29.868122   102 net.cpp:160] Setting up conv5_3/expand/bn
I0410 05:49:29.868129   102 net.cpp:167] Top shape: 1 576 23 30 (397440)
I0410 05:49:29.868135   102 net.cpp:175] Memory required for data: 385447684
I0410 05:49:29.868144   102 layer_factory.hpp:93] Creating layer relu5_3/expand
I0410 05:49:29.868152   102 net.cpp:110] Creating Layer relu5_3/expand
I0410 05:49:29.868156   102 net.cpp:451] relu5_3/expand <- conv5_3/expand/bn
I0410 05:49:29.868166   102 net.cpp:412] relu5_3/expand -> conv5_3/expand/bn (in-place)
I0410 05:49:29.868172   102 net.cpp:160] Setting up relu5_3/expand
I0410 05:49:29.868176   102 net.cpp:167] Top shape: 1 576 23 30 (397440)
I0410 05:49:29.868180   102 net.cpp:175] Memory required for data: 387037444
I0410 05:49:29.868185   102 layer_factory.hpp:93] Creating layer conv5_3/expand/bn_relu5_3/expand_0_split
I0410 05:49:29.868191   102 net.cpp:110] Creating Layer conv5_3/expand/bn_relu5_3/expand_0_split
I0410 05:49:29.868194   102 net.cpp:451] conv5_3/expand/bn_relu5_3/expand_0_split <- conv5_3/expand/bn
I0410 05:49:29.868198   102 net.cpp:425] conv5_3/expand/bn_relu5_3/expand_0_split -> conv5_3/expand/bn_relu5_3/expand_0_split_0
I0410 05:49:29.868204   102 net.cpp:425] conv5_3/expand/bn_relu5_3/expand_0_split -> conv5_3/expand/bn_relu5_3/expand_0_split_1
I0410 05:49:29.868211   102 net.cpp:425] conv5_3/expand/bn_relu5_3/expand_0_split -> conv5_3/expand/bn_relu5_3/expand_0_split_2
I0410 05:49:29.868216   102 net.cpp:425] conv5_3/expand/bn_relu5_3/expand_0_split -> conv5_3/expand/bn_relu5_3/expand_0_split_3
I0410 05:49:29.868263   102 net.cpp:160] Setting up conv5_3/expand/bn_relu5_3/expand_0_split
I0410 05:49:29.868268   102 net.cpp:167] Top shape: 1 576 23 30 (397440)
I0410 05:49:29.868273   102 net.cpp:167] Top shape: 1 576 23 30 (397440)
I0410 05:49:29.868278   102 net.cpp:167] Top shape: 1 576 23 30 (397440)
I0410 05:49:29.868283   102 net.cpp:167] Top shape: 1 576 23 30 (397440)
I0410 05:49:29.868286   102 net.cpp:175] Memory required for data: 393396484
I0410 05:49:29.868290   102 layer_factory.hpp:93] Creating layer conv5_3/dwise
I0410 05:49:29.868299   102 net.cpp:110] Creating Layer conv5_3/dwise
I0410 05:49:29.868301   102 net.cpp:451] conv5_3/dwise <- conv5_3/expand/bn_relu5_3/expand_0_split_0
I0410 05:49:29.868307   102 net.cpp:425] conv5_3/dwise -> conv5_3/dwise
I0410 05:49:29.868520   102 net.cpp:160] Setting up conv5_3/dwise
I0410 05:49:29.868526   102 net.cpp:167] Top shape: 1 576 12 15 (103680)
I0410 05:49:29.868531   102 net.cpp:175] Memory required for data: 393811204
I0410 05:49:29.868536   102 layer_factory.hpp:93] Creating layer conv5_3/dwise/bn
I0410 05:49:29.868543   102 net.cpp:110] Creating Layer conv5_3/dwise/bn
I0410 05:49:29.868547   102 net.cpp:451] conv5_3/dwise/bn <- conv5_3/dwise
I0410 05:49:29.868553   102 net.cpp:425] conv5_3/dwise/bn -> conv5_3/dwise/bn
I0410 05:49:29.869143   102 net.cpp:160] Setting up conv5_3/dwise/bn
I0410 05:49:29.869151   102 net.cpp:167] Top shape: 1 576 12 15 (103680)
I0410 05:49:29.869156   102 net.cpp:175] Memory required for data: 394225924
I0410 05:49:29.869165   102 layer_factory.hpp:93] Creating layer relu5_3/dwise
I0410 05:49:29.869171   102 net.cpp:110] Creating Layer relu5_3/dwise
I0410 05:49:29.869175   102 net.cpp:451] relu5_3/dwise <- conv5_3/dwise/bn
I0410 05:49:29.869180   102 net.cpp:412] relu5_3/dwise -> conv5_3/dwise/bn (in-place)
I0410 05:49:29.869187   102 net.cpp:160] Setting up relu5_3/dwise
I0410 05:49:29.869190   102 net.cpp:167] Top shape: 1 576 12 15 (103680)
I0410 05:49:29.869194   102 net.cpp:175] Memory required for data: 394640644
I0410 05:49:29.869199   102 layer_factory.hpp:93] Creating layer conv5_3/linear
I0410 05:49:29.869204   102 net.cpp:110] Creating Layer conv5_3/linear
I0410 05:49:29.869208   102 net.cpp:451] conv5_3/linear <- conv5_3/dwise/bn
I0410 05:49:29.869213   102 net.cpp:425] conv5_3/linear -> conv5_3/linear
I0410 05:49:29.870221   102 net.cpp:160] Setting up conv5_3/linear
I0410 05:49:29.870229   102 net.cpp:167] Top shape: 1 160 12 15 (28800)
I0410 05:49:29.870234   102 net.cpp:175] Memory required for data: 394755844
I0410 05:49:29.870239   102 layer_factory.hpp:93] Creating layer conv5_3/linear/bn
I0410 05:49:29.870247   102 net.cpp:110] Creating Layer conv5_3/linear/bn
I0410 05:49:29.870251   102 net.cpp:451] conv5_3/linear/bn <- conv5_3/linear
I0410 05:49:29.870257   102 net.cpp:425] conv5_3/linear/bn -> conv5_3/linear/bn
I0410 05:49:29.870826   102 net.cpp:160] Setting up conv5_3/linear/bn
I0410 05:49:29.870833   102 net.cpp:167] Top shape: 1 160 12 15 (28800)
I0410 05:49:29.870838   102 net.cpp:175] Memory required for data: 394871044
I0410 05:49:29.870854   102 layer_factory.hpp:93] Creating layer conv5_3/linear/bn_conv5_3/linear/bn_0_split
I0410 05:49:29.870860   102 net.cpp:110] Creating Layer conv5_3/linear/bn_conv5_3/linear/bn_0_split
I0410 05:49:29.870864   102 net.cpp:451] conv5_3/linear/bn_conv5_3/linear/bn_0_split <- conv5_3/linear/bn
I0410 05:49:29.870870   102 net.cpp:425] conv5_3/linear/bn_conv5_3/linear/bn_0_split -> conv5_3/linear/bn_conv5_3/linear/bn_0_split_0
I0410 05:49:29.870877   102 net.cpp:425] conv5_3/linear/bn_conv5_3/linear/bn_0_split -> conv5_3/linear/bn_conv5_3/linear/bn_0_split_1
I0410 05:49:29.870904   102 net.cpp:160] Setting up conv5_3/linear/bn_conv5_3/linear/bn_0_split
I0410 05:49:29.870908   102 net.cpp:167] Top shape: 1 160 12 15 (28800)
I0410 05:49:29.870913   102 net.cpp:167] Top shape: 1 160 12 15 (28800)
I0410 05:49:29.870918   102 net.cpp:175] Memory required for data: 395101444
I0410 05:49:29.870921   102 layer_factory.hpp:93] Creating layer conv6_1/expand
I0410 05:49:29.870929   102 net.cpp:110] Creating Layer conv6_1/expand
I0410 05:49:29.870932   102 net.cpp:451] conv6_1/expand <- conv5_3/linear/bn_conv5_3/linear/bn_0_split_0
I0410 05:49:29.870937   102 net.cpp:425] conv6_1/expand -> conv6_1/expand
I0410 05:49:29.873183   102 net.cpp:160] Setting up conv6_1/expand
I0410 05:49:29.873193   102 net.cpp:167] Top shape: 1 960 12 15 (172800)
I0410 05:49:29.873199   102 net.cpp:175] Memory required for data: 395792644
I0410 05:49:29.873205   102 layer_factory.hpp:93] Creating layer conv6_1/expand/bn
I0410 05:49:29.873214   102 net.cpp:110] Creating Layer conv6_1/expand/bn
I0410 05:49:29.873219   102 net.cpp:451] conv6_1/expand/bn <- conv6_1/expand
I0410 05:49:29.873224   102 net.cpp:425] conv6_1/expand/bn -> conv6_1/expand/bn
I0410 05:49:29.873829   102 net.cpp:160] Setting up conv6_1/expand/bn
I0410 05:49:29.873838   102 net.cpp:167] Top shape: 1 960 12 15 (172800)
I0410 05:49:29.873844   102 net.cpp:175] Memory required for data: 396483844
I0410 05:49:29.873852   102 layer_factory.hpp:93] Creating layer relu6_1/expand
I0410 05:49:29.873857   102 net.cpp:110] Creating Layer relu6_1/expand
I0410 05:49:29.873862   102 net.cpp:451] relu6_1/expand <- conv6_1/expand/bn
I0410 05:49:29.873867   102 net.cpp:412] relu6_1/expand -> conv6_1/expand/bn (in-place)
I0410 05:49:29.873873   102 net.cpp:160] Setting up relu6_1/expand
I0410 05:49:29.873876   102 net.cpp:167] Top shape: 1 960 12 15 (172800)
I0410 05:49:29.873881   102 net.cpp:175] Memory required for data: 397175044
I0410 05:49:29.873884   102 layer_factory.hpp:93] Creating layer conv6_1/dwise
I0410 05:49:29.873891   102 net.cpp:110] Creating Layer conv6_1/dwise
I0410 05:49:29.873895   102 net.cpp:451] conv6_1/dwise <- conv6_1/expand/bn
I0410 05:49:29.873900   102 net.cpp:425] conv6_1/dwise -> conv6_1/dwise
I0410 05:49:29.874505   102 net.cpp:160] Setting up conv6_1/dwise
I0410 05:49:29.874511   102 net.cpp:167] Top shape: 1 960 12 15 (172800)
I0410 05:49:29.874518   102 net.cpp:175] Memory required for data: 397866244
I0410 05:49:29.874524   102 layer_factory.hpp:93] Creating layer conv6_1/dwise/bn
I0410 05:49:29.874531   102 net.cpp:110] Creating Layer conv6_1/dwise/bn
I0410 05:49:29.874536   102 net.cpp:451] conv6_1/dwise/bn <- conv6_1/dwise
I0410 05:49:29.874542   102 net.cpp:425] conv6_1/dwise/bn -> conv6_1/dwise/bn
I0410 05:49:29.875135   102 net.cpp:160] Setting up conv6_1/dwise/bn
I0410 05:49:29.875144   102 net.cpp:167] Top shape: 1 960 12 15 (172800)
I0410 05:49:29.875149   102 net.cpp:175] Memory required for data: 398557444
I0410 05:49:29.875157   102 layer_factory.hpp:93] Creating layer relu6_1/dwise
I0410 05:49:29.875162   102 net.cpp:110] Creating Layer relu6_1/dwise
I0410 05:49:29.875166   102 net.cpp:451] relu6_1/dwise <- conv6_1/dwise/bn
I0410 05:49:29.875175   102 net.cpp:412] relu6_1/dwise -> conv6_1/dwise/bn (in-place)
I0410 05:49:29.875181   102 net.cpp:160] Setting up relu6_1/dwise
I0410 05:49:29.875185   102 net.cpp:167] Top shape: 1 960 12 15 (172800)
I0410 05:49:29.875190   102 net.cpp:175] Memory required for data: 399248644
I0410 05:49:29.875192   102 layer_factory.hpp:93] Creating layer conv6_1/linear
I0410 05:49:29.875200   102 net.cpp:110] Creating Layer conv6_1/linear
I0410 05:49:29.875202   102 net.cpp:451] conv6_1/linear <- conv6_1/dwise/bn
I0410 05:49:29.875208   102 net.cpp:425] conv6_1/linear -> conv6_1/linear
I0410 05:49:29.877447   102 net.cpp:160] Setting up conv6_1/linear
I0410 05:49:29.877458   102 net.cpp:167] Top shape: 1 160 12 15 (28800)
I0410 05:49:29.877465   102 net.cpp:175] Memory required for data: 399363844
I0410 05:49:29.877473   102 layer_factory.hpp:93] Creating layer conv6_1/linear/bn
I0410 05:49:29.877485   102 net.cpp:110] Creating Layer conv6_1/linear/bn
I0410 05:49:29.877490   102 net.cpp:451] conv6_1/linear/bn <- conv6_1/linear
I0410 05:49:29.877499   102 net.cpp:425] conv6_1/linear/bn -> conv6_1/linear/bn
I0410 05:49:29.878290   102 net.cpp:160] Setting up conv6_1/linear/bn
I0410 05:49:29.878299   102 net.cpp:167] Top shape: 1 160 12 15 (28800)
I0410 05:49:29.878305   102 net.cpp:175] Memory required for data: 399479044
I0410 05:49:29.878314   102 layer_factory.hpp:93] Creating layer block_6_1
I0410 05:49:29.878321   102 net.cpp:110] Creating Layer block_6_1
I0410 05:49:29.878325   102 net.cpp:451] block_6_1 <- conv5_3/linear/bn_conv5_3/linear/bn_0_split_1
I0410 05:49:29.878330   102 net.cpp:451] block_6_1 <- conv6_1/linear/bn
I0410 05:49:29.878335   102 net.cpp:425] block_6_1 -> block_6_1
I0410 05:49:29.878357   102 net.cpp:160] Setting up block_6_1
I0410 05:49:29.878361   102 net.cpp:167] Top shape: 1 160 12 15 (28800)
I0410 05:49:29.878366   102 net.cpp:175] Memory required for data: 399594244
I0410 05:49:29.878370   102 layer_factory.hpp:93] Creating layer block_6_1_block_6_1_0_split
I0410 05:49:29.878374   102 net.cpp:110] Creating Layer block_6_1_block_6_1_0_split
I0410 05:49:29.878378   102 net.cpp:451] block_6_1_block_6_1_0_split <- block_6_1
I0410 05:49:29.878383   102 net.cpp:425] block_6_1_block_6_1_0_split -> block_6_1_block_6_1_0_split_0
I0410 05:49:29.878389   102 net.cpp:425] block_6_1_block_6_1_0_split -> block_6_1_block_6_1_0_split_1
I0410 05:49:29.878423   102 net.cpp:160] Setting up block_6_1_block_6_1_0_split
I0410 05:49:29.878432   102 net.cpp:167] Top shape: 1 160 12 15 (28800)
I0410 05:49:29.878437   102 net.cpp:167] Top shape: 1 160 12 15 (28800)
I0410 05:49:29.878440   102 net.cpp:175] Memory required for data: 399824644
I0410 05:49:29.878444   102 layer_factory.hpp:93] Creating layer conv6_2/expand
I0410 05:49:29.878451   102 net.cpp:110] Creating Layer conv6_2/expand
I0410 05:49:29.878455   102 net.cpp:451] conv6_2/expand <- block_6_1_block_6_1_0_split_0
I0410 05:49:29.878461   102 net.cpp:425] conv6_2/expand -> conv6_2/expand
I0410 05:49:29.880048   102 net.cpp:160] Setting up conv6_2/expand
I0410 05:49:29.880056   102 net.cpp:167] Top shape: 1 960 12 15 (172800)
I0410 05:49:29.880061   102 net.cpp:175] Memory required for data: 400515844
I0410 05:49:29.880067   102 layer_factory.hpp:93] Creating layer conv6_2/expand/bn
I0410 05:49:29.880074   102 net.cpp:110] Creating Layer conv6_2/expand/bn
I0410 05:49:29.880079   102 net.cpp:451] conv6_2/expand/bn <- conv6_2/expand
I0410 05:49:29.880084   102 net.cpp:425] conv6_2/expand/bn -> conv6_2/expand/bn
I0410 05:49:29.880733   102 net.cpp:160] Setting up conv6_2/expand/bn
I0410 05:49:29.880740   102 net.cpp:167] Top shape: 1 960 12 15 (172800)
I0410 05:49:29.880746   102 net.cpp:175] Memory required for data: 401207044
I0410 05:49:29.880756   102 layer_factory.hpp:93] Creating layer relu6_2/expand
I0410 05:49:29.880762   102 net.cpp:110] Creating Layer relu6_2/expand
I0410 05:49:29.880766   102 net.cpp:451] relu6_2/expand <- conv6_2/expand/bn
I0410 05:49:29.880771   102 net.cpp:412] relu6_2/expand -> conv6_2/expand/bn (in-place)
I0410 05:49:29.880779   102 net.cpp:160] Setting up relu6_2/expand
I0410 05:49:29.880781   102 net.cpp:167] Top shape: 1 960 12 15 (172800)
I0410 05:49:29.880785   102 net.cpp:175] Memory required for data: 401898244
I0410 05:49:29.880789   102 layer_factory.hpp:93] Creating layer conv6_2/dwise
I0410 05:49:29.880796   102 net.cpp:110] Creating Layer conv6_2/dwise
I0410 05:49:29.880800   102 net.cpp:451] conv6_2/dwise <- conv6_2/expand/bn
I0410 05:49:29.880805   102 net.cpp:425] conv6_2/dwise -> conv6_2/dwise
I0410 05:49:29.881060   102 net.cpp:160] Setting up conv6_2/dwise
I0410 05:49:29.881068   102 net.cpp:167] Top shape: 1 960 12 15 (172800)
I0410 05:49:29.881073   102 net.cpp:175] Memory required for data: 402589444
I0410 05:49:29.881078   102 layer_factory.hpp:93] Creating layer conv6_2/dwise/bn
I0410 05:49:29.881086   102 net.cpp:110] Creating Layer conv6_2/dwise/bn
I0410 05:49:29.881090   102 net.cpp:451] conv6_2/dwise/bn <- conv6_2/dwise
I0410 05:49:29.881096   102 net.cpp:425] conv6_2/dwise/bn -> conv6_2/dwise/bn
I0410 05:49:29.881708   102 net.cpp:160] Setting up conv6_2/dwise/bn
I0410 05:49:29.881716   102 net.cpp:167] Top shape: 1 960 12 15 (172800)
I0410 05:49:29.881722   102 net.cpp:175] Memory required for data: 403280644
I0410 05:49:29.881731   102 layer_factory.hpp:93] Creating layer relu6_2/dwise
I0410 05:49:29.881736   102 net.cpp:110] Creating Layer relu6_2/dwise
I0410 05:49:29.881741   102 net.cpp:451] relu6_2/dwise <- conv6_2/dwise/bn
I0410 05:49:29.881744   102 net.cpp:412] relu6_2/dwise -> conv6_2/dwise/bn (in-place)
I0410 05:49:29.881752   102 net.cpp:160] Setting up relu6_2/dwise
I0410 05:49:29.881754   102 net.cpp:167] Top shape: 1 960 12 15 (172800)
I0410 05:49:29.881758   102 net.cpp:175] Memory required for data: 403971844
I0410 05:49:29.881762   102 layer_factory.hpp:93] Creating layer conv6_2/linear
I0410 05:49:29.881769   102 net.cpp:110] Creating Layer conv6_2/linear
I0410 05:49:29.881772   102 net.cpp:451] conv6_2/linear <- conv6_2/dwise/bn
I0410 05:49:29.881778   102 net.cpp:425] conv6_2/linear -> conv6_2/linear
I0410 05:49:29.884027   102 net.cpp:160] Setting up conv6_2/linear
I0410 05:49:29.884037   102 net.cpp:167] Top shape: 1 160 12 15 (28800)
I0410 05:49:29.884043   102 net.cpp:175] Memory required for data: 404087044
I0410 05:49:29.884049   102 layer_factory.hpp:93] Creating layer conv6_2/linear/bn
I0410 05:49:29.884057   102 net.cpp:110] Creating Layer conv6_2/linear/bn
I0410 05:49:29.884063   102 net.cpp:451] conv6_2/linear/bn <- conv6_2/linear
I0410 05:49:29.884068   102 net.cpp:425] conv6_2/linear/bn -> conv6_2/linear/bn
I0410 05:49:29.884690   102 net.cpp:160] Setting up conv6_2/linear/bn
I0410 05:49:29.884698   102 net.cpp:167] Top shape: 1 160 12 15 (28800)
I0410 05:49:29.884704   102 net.cpp:175] Memory required for data: 404202244
I0410 05:49:29.884713   102 layer_factory.hpp:93] Creating layer block_6_2
I0410 05:49:29.884721   102 net.cpp:110] Creating Layer block_6_2
I0410 05:49:29.884724   102 net.cpp:451] block_6_2 <- block_6_1_block_6_1_0_split_1
I0410 05:49:29.884729   102 net.cpp:451] block_6_2 <- conv6_2/linear/bn
I0410 05:49:29.884734   102 net.cpp:425] block_6_2 -> block_6_2
I0410 05:49:29.884755   102 net.cpp:160] Setting up block_6_2
I0410 05:49:29.884759   102 net.cpp:167] Top shape: 1 160 12 15 (28800)
I0410 05:49:29.884764   102 net.cpp:175] Memory required for data: 404317444
I0410 05:49:29.884768   102 layer_factory.hpp:93] Creating layer conv6_3/expand
I0410 05:49:29.884774   102 net.cpp:110] Creating Layer conv6_3/expand
I0410 05:49:29.884778   102 net.cpp:451] conv6_3/expand <- block_6_2
I0410 05:49:29.884783   102 net.cpp:425] conv6_3/expand -> conv6_3/expand
I0410 05:49:29.887001   102 net.cpp:160] Setting up conv6_3/expand
I0410 05:49:29.887012   102 net.cpp:167] Top shape: 1 960 12 15 (172800)
I0410 05:49:29.887017   102 net.cpp:175] Memory required for data: 405008644
I0410 05:49:29.887023   102 layer_factory.hpp:93] Creating layer conv6_3/expand/bn
I0410 05:49:29.887035   102 net.cpp:110] Creating Layer conv6_3/expand/bn
I0410 05:49:29.887039   102 net.cpp:451] conv6_3/expand/bn <- conv6_3/expand
I0410 05:49:29.887045   102 net.cpp:425] conv6_3/expand/bn -> conv6_3/expand/bn
I0410 05:49:29.887662   102 net.cpp:160] Setting up conv6_3/expand/bn
I0410 05:49:29.887670   102 net.cpp:167] Top shape: 1 960 12 15 (172800)
I0410 05:49:29.887676   102 net.cpp:175] Memory required for data: 405699844
I0410 05:49:29.887684   102 layer_factory.hpp:93] Creating layer relu6_3/expand
I0410 05:49:29.887691   102 net.cpp:110] Creating Layer relu6_3/expand
I0410 05:49:29.887694   102 net.cpp:451] relu6_3/expand <- conv6_3/expand/bn
I0410 05:49:29.887699   102 net.cpp:412] relu6_3/expand -> conv6_3/expand/bn (in-place)
I0410 05:49:29.887706   102 net.cpp:160] Setting up relu6_3/expand
I0410 05:49:29.887709   102 net.cpp:167] Top shape: 1 960 12 15 (172800)
I0410 05:49:29.887714   102 net.cpp:175] Memory required for data: 406391044
I0410 05:49:29.887717   102 layer_factory.hpp:93] Creating layer conv6_3/dwise
I0410 05:49:29.887724   102 net.cpp:110] Creating Layer conv6_3/dwise
I0410 05:49:29.887728   102 net.cpp:451] conv6_3/dwise <- conv6_3/expand/bn
I0410 05:49:29.887733   102 net.cpp:425] conv6_3/dwise -> conv6_3/dwise
I0410 05:49:29.887986   102 net.cpp:160] Setting up conv6_3/dwise
I0410 05:49:29.887995   102 net.cpp:167] Top shape: 1 960 12 15 (172800)
I0410 05:49:29.888000   102 net.cpp:175] Memory required for data: 407082244
I0410 05:49:29.888006   102 layer_factory.hpp:93] Creating layer conv6_3/dwise/bn
I0410 05:49:29.888013   102 net.cpp:110] Creating Layer conv6_3/dwise/bn
I0410 05:49:29.888018   102 net.cpp:451] conv6_3/dwise/bn <- conv6_3/dwise
I0410 05:49:29.888025   102 net.cpp:425] conv6_3/dwise/bn -> conv6_3/dwise/bn
I0410 05:49:29.888648   102 net.cpp:160] Setting up conv6_3/dwise/bn
I0410 05:49:29.888662   102 net.cpp:167] Top shape: 1 960 12 15 (172800)
I0410 05:49:29.888667   102 net.cpp:175] Memory required for data: 407773444
I0410 05:49:29.888676   102 layer_factory.hpp:93] Creating layer relu6_3/dwise
I0410 05:49:29.888681   102 net.cpp:110] Creating Layer relu6_3/dwise
I0410 05:49:29.888686   102 net.cpp:451] relu6_3/dwise <- conv6_3/dwise/bn
I0410 05:49:29.888691   102 net.cpp:412] relu6_3/dwise -> conv6_3/dwise/bn (in-place)
I0410 05:49:29.888697   102 net.cpp:160] Setting up relu6_3/dwise
I0410 05:49:29.888700   102 net.cpp:167] Top shape: 1 960 12 15 (172800)
I0410 05:49:29.888705   102 net.cpp:175] Memory required for data: 408464644
I0410 05:49:29.888708   102 layer_factory.hpp:93] Creating layer conv6_3/linear
I0410 05:49:29.888715   102 net.cpp:110] Creating Layer conv6_3/linear
I0410 05:49:29.888718   102 net.cpp:451] conv6_3/linear <- conv6_3/dwise/bn
I0410 05:49:29.888725   102 net.cpp:425] conv6_3/linear -> conv6_3/linear
I0410 05:49:29.892345   102 net.cpp:160] Setting up conv6_3/linear
I0410 05:49:29.892355   102 net.cpp:167] Top shape: 1 320 12 15 (57600)
I0410 05:49:29.892361   102 net.cpp:175] Memory required for data: 408695044
I0410 05:49:29.892369   102 layer_factory.hpp:93] Creating layer conv6_3/linear/bn
I0410 05:49:29.892376   102 net.cpp:110] Creating Layer conv6_3/linear/bn
I0410 05:49:29.892381   102 net.cpp:451] conv6_3/linear/bn <- conv6_3/linear
I0410 05:49:29.892387   102 net.cpp:425] conv6_3/linear/bn -> conv6_3/linear/bn
I0410 05:49:29.893008   102 net.cpp:160] Setting up conv6_3/linear/bn
I0410 05:49:29.893026   102 net.cpp:167] Top shape: 1 320 12 15 (57600)
I0410 05:49:29.893033   102 net.cpp:175] Memory required for data: 408925444
I0410 05:49:29.893041   102 layer_factory.hpp:93] Creating layer conv6_4
I0410 05:49:29.893054   102 net.cpp:110] Creating Layer conv6_4
I0410 05:49:29.893059   102 net.cpp:451] conv6_4 <- conv6_3/linear/bn
I0410 05:49:29.893064   102 net.cpp:425] conv6_4 -> conv6_4
I0410 05:49:29.898524   102 net.cpp:160] Setting up conv6_4
I0410 05:49:29.898535   102 net.cpp:167] Top shape: 1 1280 12 15 (230400)
I0410 05:49:29.898541   102 net.cpp:175] Memory required for data: 409847044
I0410 05:49:29.898547   102 layer_factory.hpp:93] Creating layer conv6_4/bn
I0410 05:49:29.898555   102 net.cpp:110] Creating Layer conv6_4/bn
I0410 05:49:29.898560   102 net.cpp:451] conv6_4/bn <- conv6_4
I0410 05:49:29.898566   102 net.cpp:425] conv6_4/bn -> conv6_4/bn
I0410 05:49:29.899104   102 net.cpp:160] Setting up conv6_4/bn
I0410 05:49:29.899112   102 net.cpp:167] Top shape: 1 1280 12 15 (230400)
I0410 05:49:29.899118   102 net.cpp:175] Memory required for data: 410768644
I0410 05:49:29.899127   102 layer_factory.hpp:93] Creating layer relu7
I0410 05:49:29.899132   102 net.cpp:110] Creating Layer relu7
I0410 05:49:29.899137   102 net.cpp:451] relu7 <- conv6_4/bn
I0410 05:49:29.899142   102 net.cpp:425] relu7 -> fc7
I0410 05:49:29.899163   102 net.cpp:160] Setting up relu7
I0410 05:49:29.899168   102 net.cpp:167] Top shape: 1 1280 12 15 (230400)
I0410 05:49:29.899171   102 net.cpp:175] Memory required for data: 411690244
I0410 05:49:29.899175   102 layer_factory.hpp:93] Creating layer fc7_relu7_0_split
I0410 05:49:29.899180   102 net.cpp:110] Creating Layer fc7_relu7_0_split
I0410 05:49:29.899184   102 net.cpp:451] fc7_relu7_0_split <- fc7
I0410 05:49:29.899189   102 net.cpp:425] fc7_relu7_0_split -> fc7_relu7_0_split_0
I0410 05:49:29.899195   102 net.cpp:425] fc7_relu7_0_split -> fc7_relu7_0_split_1
I0410 05:49:29.899200   102 net.cpp:425] fc7_relu7_0_split -> fc7_relu7_0_split_2
I0410 05:49:29.899205   102 net.cpp:425] fc7_relu7_0_split -> fc7_relu7_0_split_3
I0410 05:49:29.899253   102 net.cpp:160] Setting up fc7_relu7_0_split
I0410 05:49:29.899260   102 net.cpp:167] Top shape: 1 1280 12 15 (230400)
I0410 05:49:29.899264   102 net.cpp:167] Top shape: 1 1280 12 15 (230400)
I0410 05:49:29.899268   102 net.cpp:167] Top shape: 1 1280 12 15 (230400)
I0410 05:49:29.899272   102 net.cpp:167] Top shape: 1 1280 12 15 (230400)
I0410 05:49:29.899277   102 net.cpp:175] Memory required for data: 415376644
I0410 05:49:29.899281   102 layer_factory.hpp:93] Creating layer conv6_1
I0410 05:49:29.899289   102 net.cpp:110] Creating Layer conv6_1
I0410 05:49:29.899293   102 net.cpp:451] conv6_1 <- fc7_relu7_0_split_0
I0410 05:49:29.899298   102 net.cpp:425] conv6_1 -> conv6_1
I0410 05:49:29.903024   102 net.cpp:160] Setting up conv6_1
I0410 05:49:29.903036   102 net.cpp:167] Top shape: 1 256 12 15 (46080)
I0410 05:49:29.903043   102 net.cpp:175] Memory required for data: 415560964
I0410 05:49:29.903049   102 layer_factory.hpp:93] Creating layer conv6_1_bn
I0410 05:49:29.903057   102 net.cpp:110] Creating Layer conv6_1_bn
I0410 05:49:29.903061   102 net.cpp:451] conv6_1_bn <- conv6_1
I0410 05:49:29.903077   102 net.cpp:412] conv6_1_bn -> conv6_1 (in-place)
I0410 05:49:29.903813   102 net.cpp:160] Setting up conv6_1_bn
I0410 05:49:29.903820   102 net.cpp:167] Top shape: 1 256 12 15 (46080)
I0410 05:49:29.903826   102 net.cpp:175] Memory required for data: 415745284
I0410 05:49:29.903834   102 layer_factory.hpp:93] Creating layer conv6_1_relu
I0410 05:49:29.903841   102 net.cpp:110] Creating Layer conv6_1_relu
I0410 05:49:29.903844   102 net.cpp:451] conv6_1_relu <- conv6_1
I0410 05:49:29.903849   102 net.cpp:412] conv6_1_relu -> conv6_1 (in-place)
I0410 05:49:29.903856   102 net.cpp:160] Setting up conv6_1_relu
I0410 05:49:29.903858   102 net.cpp:167] Top shape: 1 256 12 15 (46080)
I0410 05:49:29.903863   102 net.cpp:175] Memory required for data: 415929604
I0410 05:49:29.903867   102 layer_factory.hpp:93] Creating layer conv6_2
I0410 05:49:29.903874   102 net.cpp:110] Creating Layer conv6_2
I0410 05:49:29.903877   102 net.cpp:451] conv6_2 <- conv6_1
I0410 05:49:29.903893   102 net.cpp:425] conv6_2 -> conv6_2
I0410 05:49:29.913661   102 net.cpp:160] Setting up conv6_2
I0410 05:49:29.913672   102 net.cpp:167] Top shape: 1 512 6 8 (24576)
I0410 05:49:29.913678   102 net.cpp:175] Memory required for data: 416027908
I0410 05:49:29.913686   102 layer_factory.hpp:93] Creating layer conv6_2_bn
I0410 05:49:29.913693   102 net.cpp:110] Creating Layer conv6_2_bn
I0410 05:49:29.913697   102 net.cpp:451] conv6_2_bn <- conv6_2
I0410 05:49:29.913703   102 net.cpp:412] conv6_2_bn -> conv6_2 (in-place)
I0410 05:49:29.914250   102 net.cpp:160] Setting up conv6_2_bn
I0410 05:49:29.914258   102 net.cpp:167] Top shape: 1 512 6 8 (24576)
I0410 05:49:29.914263   102 net.cpp:175] Memory required for data: 416126212
I0410 05:49:29.914273   102 layer_factory.hpp:93] Creating layer conv6_2_relu
I0410 05:49:29.914278   102 net.cpp:110] Creating Layer conv6_2_relu
I0410 05:49:29.914281   102 net.cpp:451] conv6_2_relu <- conv6_2
I0410 05:49:29.914288   102 net.cpp:412] conv6_2_relu -> conv6_2 (in-place)
I0410 05:49:29.914294   102 net.cpp:160] Setting up conv6_2_relu
I0410 05:49:29.914296   102 net.cpp:167] Top shape: 1 512 6 8 (24576)
I0410 05:49:29.914300   102 net.cpp:175] Memory required for data: 416224516
I0410 05:49:29.914304   102 layer_factory.hpp:93] Creating layer conv6_2_conv6_2_relu_0_split
I0410 05:49:29.914310   102 net.cpp:110] Creating Layer conv6_2_conv6_2_relu_0_split
I0410 05:49:29.914314   102 net.cpp:451] conv6_2_conv6_2_relu_0_split <- conv6_2
I0410 05:49:29.914319   102 net.cpp:425] conv6_2_conv6_2_relu_0_split -> conv6_2_conv6_2_relu_0_split_0
I0410 05:49:29.914324   102 net.cpp:425] conv6_2_conv6_2_relu_0_split -> conv6_2_conv6_2_relu_0_split_1
I0410 05:49:29.914330   102 net.cpp:425] conv6_2_conv6_2_relu_0_split -> conv6_2_conv6_2_relu_0_split_2
I0410 05:49:29.914335   102 net.cpp:425] conv6_2_conv6_2_relu_0_split -> conv6_2_conv6_2_relu_0_split_3
I0410 05:49:29.914386   102 net.cpp:160] Setting up conv6_2_conv6_2_relu_0_split
I0410 05:49:29.914391   102 net.cpp:167] Top shape: 1 512 6 8 (24576)
I0410 05:49:29.914395   102 net.cpp:167] Top shape: 1 512 6 8 (24576)
I0410 05:49:29.914399   102 net.cpp:167] Top shape: 1 512 6 8 (24576)
I0410 05:49:29.914404   102 net.cpp:167] Top shape: 1 512 6 8 (24576)
I0410 05:49:29.914408   102 net.cpp:175] Memory required for data: 416617732
I0410 05:49:29.914412   102 layer_factory.hpp:93] Creating layer conv7_1
I0410 05:49:29.914419   102 net.cpp:110] Creating Layer conv7_1
I0410 05:49:29.914423   102 net.cpp:451] conv7_1 <- conv6_2_conv6_2_relu_0_split_0
I0410 05:49:29.914429   102 net.cpp:425] conv7_1 -> conv7_1
I0410 05:49:29.915069   102 net.cpp:160] Setting up conv7_1
I0410 05:49:29.915077   102 net.cpp:167] Top shape: 1 128 6 8 (6144)
I0410 05:49:29.915082   102 net.cpp:175] Memory required for data: 416642308
I0410 05:49:29.915088   102 layer_factory.hpp:93] Creating layer conv7_1_bn
I0410 05:49:29.915096   102 net.cpp:110] Creating Layer conv7_1_bn
I0410 05:49:29.915099   102 net.cpp:451] conv7_1_bn <- conv7_1
I0410 05:49:29.915104   102 net.cpp:412] conv7_1_bn -> conv7_1 (in-place)
I0410 05:49:29.915680   102 net.cpp:160] Setting up conv7_1_bn
I0410 05:49:29.915693   102 net.cpp:167] Top shape: 1 128 6 8 (6144)
I0410 05:49:29.915699   102 net.cpp:175] Memory required for data: 416666884
I0410 05:49:29.915707   102 layer_factory.hpp:93] Creating layer conv7_1_relu
I0410 05:49:29.915712   102 net.cpp:110] Creating Layer conv7_1_relu
I0410 05:49:29.915717   102 net.cpp:451] conv7_1_relu <- conv7_1
I0410 05:49:29.915724   102 net.cpp:412] conv7_1_relu -> conv7_1 (in-place)
I0410 05:49:29.915729   102 net.cpp:160] Setting up conv7_1_relu
I0410 05:49:29.915733   102 net.cpp:167] Top shape: 1 128 6 8 (6144)
I0410 05:49:29.915737   102 net.cpp:175] Memory required for data: 416691460
I0410 05:49:29.915740   102 layer_factory.hpp:93] Creating layer conv7_2
I0410 05:49:29.915750   102 net.cpp:110] Creating Layer conv7_2
I0410 05:49:29.915752   102 net.cpp:451] conv7_2 <- conv7_1
I0410 05:49:29.915758   102 net.cpp:425] conv7_2 -> conv7_2
I0410 05:49:29.919024   102 net.cpp:160] Setting up conv7_2
I0410 05:49:29.919036   102 net.cpp:167] Top shape: 1 256 3 4 (3072)
I0410 05:49:29.919042   102 net.cpp:175] Memory required for data: 416703748
I0410 05:49:29.919049   102 layer_factory.hpp:93] Creating layer conv7_2_bn
I0410 05:49:29.919057   102 net.cpp:110] Creating Layer conv7_2_bn
I0410 05:49:29.919061   102 net.cpp:451] conv7_2_bn <- conv7_2
I0410 05:49:29.919067   102 net.cpp:412] conv7_2_bn -> conv7_2 (in-place)
I0410 05:49:29.919649   102 net.cpp:160] Setting up conv7_2_bn
I0410 05:49:29.919661   102 net.cpp:167] Top shape: 1 256 3 4 (3072)
I0410 05:49:29.919667   102 net.cpp:175] Memory required for data: 416716036
I0410 05:49:29.919675   102 layer_factory.hpp:93] Creating layer conv7_2_relu
I0410 05:49:29.919680   102 net.cpp:110] Creating Layer conv7_2_relu
I0410 05:49:29.919685   102 net.cpp:451] conv7_2_relu <- conv7_2
I0410 05:49:29.919690   102 net.cpp:412] conv7_2_relu -> conv7_2 (in-place)
I0410 05:49:29.919697   102 net.cpp:160] Setting up conv7_2_relu
I0410 05:49:29.919700   102 net.cpp:167] Top shape: 1 256 3 4 (3072)
I0410 05:49:29.919705   102 net.cpp:175] Memory required for data: 416728324
I0410 05:49:29.919708   102 layer_factory.hpp:93] Creating layer conv7_2_conv7_2_relu_0_split
I0410 05:49:29.919713   102 net.cpp:110] Creating Layer conv7_2_conv7_2_relu_0_split
I0410 05:49:29.919718   102 net.cpp:451] conv7_2_conv7_2_relu_0_split <- conv7_2
I0410 05:49:29.919723   102 net.cpp:425] conv7_2_conv7_2_relu_0_split -> conv7_2_conv7_2_relu_0_split_0
I0410 05:49:29.919728   102 net.cpp:425] conv7_2_conv7_2_relu_0_split -> conv7_2_conv7_2_relu_0_split_1
I0410 05:49:29.919734   102 net.cpp:425] conv7_2_conv7_2_relu_0_split -> conv7_2_conv7_2_relu_0_split_2
I0410 05:49:29.919775   102 net.cpp:160] Setting up conv7_2_conv7_2_relu_0_split
I0410 05:49:29.919781   102 net.cpp:167] Top shape: 1 256 3 4 (3072)
I0410 05:49:29.919786   102 net.cpp:167] Top shape: 1 256 3 4 (3072)
I0410 05:49:29.919790   102 net.cpp:167] Top shape: 1 256 3 4 (3072)
I0410 05:49:29.919795   102 net.cpp:175] Memory required for data: 416765188
I0410 05:49:29.919798   102 layer_factory.hpp:93] Creating layer conv4_3_norm_mbox_loc
I0410 05:49:29.919806   102 net.cpp:110] Creating Layer conv4_3_norm_mbox_loc
I0410 05:49:29.919811   102 net.cpp:451] conv4_3_norm_mbox_loc <- conv4_7/expand/bn_relu4_7/expand_0_split_1
I0410 05:49:29.919817   102 net.cpp:425] conv4_3_norm_mbox_loc -> conv4_3_norm_mbox_loc
I0410 05:49:29.920805   102 net.cpp:160] Setting up conv4_3_norm_mbox_loc
I0410 05:49:29.920820   102 net.cpp:167] Top shape: 1 32 45 60 (86400)
I0410 05:49:29.920830   102 net.cpp:175] Memory required for data: 417110788
I0410 05:49:29.920841   102 layer_factory.hpp:93] Creating layer conv4_3_norm_mbox_loc_bn
I0410 05:49:29.920852   102 net.cpp:110] Creating Layer conv4_3_norm_mbox_loc_bn
I0410 05:49:29.920859   102 net.cpp:451] conv4_3_norm_mbox_loc_bn <- conv4_3_norm_mbox_loc
I0410 05:49:29.920868   102 net.cpp:412] conv4_3_norm_mbox_loc_bn -> conv4_3_norm_mbox_loc (in-place)
I0410 05:49:29.921681   102 net.cpp:160] Setting up conv4_3_norm_mbox_loc_bn
I0410 05:49:29.921689   102 net.cpp:167] Top shape: 1 32 45 60 (86400)
I0410 05:49:29.921695   102 net.cpp:175] Memory required for data: 417456388
I0410 05:49:29.921705   102 layer_factory.hpp:93] Creating layer conv4_3_norm_mbox_loc_perm
I0410 05:49:29.921711   102 net.cpp:110] Creating Layer conv4_3_norm_mbox_loc_perm
I0410 05:49:29.921715   102 net.cpp:451] conv4_3_norm_mbox_loc_perm <- conv4_3_norm_mbox_loc
I0410 05:49:29.921721   102 net.cpp:425] conv4_3_norm_mbox_loc_perm -> conv4_3_norm_mbox_loc_perm
I0410 05:49:29.921811   102 net.cpp:160] Setting up conv4_3_norm_mbox_loc_perm
I0410 05:49:29.921818   102 net.cpp:167] Top shape: 1 45 60 32 (86400)
I0410 05:49:29.921823   102 net.cpp:175] Memory required for data: 417801988
I0410 05:49:29.921826   102 layer_factory.hpp:93] Creating layer conv4_3_norm_mbox_loc_flat
I0410 05:49:29.921838   102 net.cpp:110] Creating Layer conv4_3_norm_mbox_loc_flat
I0410 05:49:29.921841   102 net.cpp:451] conv4_3_norm_mbox_loc_flat <- conv4_3_norm_mbox_loc_perm
I0410 05:49:29.921846   102 net.cpp:425] conv4_3_norm_mbox_loc_flat -> conv4_3_norm_mbox_loc_flat
I0410 05:49:29.921869   102 net.cpp:160] Setting up conv4_3_norm_mbox_loc_flat
I0410 05:49:29.921872   102 net.cpp:167] Top shape: 1 86400 (86400)
I0410 05:49:29.921877   102 net.cpp:175] Memory required for data: 418147588
I0410 05:49:29.921881   102 layer_factory.hpp:93] Creating layer conv4_3_norm_mbox_conf_new
I0410 05:49:29.921890   102 net.cpp:110] Creating Layer conv4_3_norm_mbox_conf_new
I0410 05:49:29.921893   102 net.cpp:451] conv4_3_norm_mbox_conf_new <- conv4_7/expand/bn_relu4_7/expand_0_split_2
I0410 05:49:29.921900   102 net.cpp:425] conv4_3_norm_mbox_conf_new -> conv4_3_norm_mbox_conf_new
I0410 05:49:29.926903   102 net.cpp:160] Setting up conv4_3_norm_mbox_conf_new
I0410 05:49:29.926915   102 net.cpp:167] Top shape: 1 168 45 60 (453600)
I0410 05:49:29.926921   102 net.cpp:175] Memory required for data: 419961988
I0410 05:49:29.926928   102 layer_factory.hpp:93] Creating layer conv4_3_norm_mbox_conf_bn
I0410 05:49:29.926936   102 net.cpp:110] Creating Layer conv4_3_norm_mbox_conf_bn
I0410 05:49:29.926941   102 net.cpp:451] conv4_3_norm_mbox_conf_bn <- conv4_3_norm_mbox_conf_new
I0410 05:49:29.926947   102 net.cpp:412] conv4_3_norm_mbox_conf_bn -> conv4_3_norm_mbox_conf_new (in-place)
I0410 05:49:29.927575   102 net.cpp:160] Setting up conv4_3_norm_mbox_conf_bn
I0410 05:49:29.927583   102 net.cpp:167] Top shape: 1 168 45 60 (453600)
I0410 05:49:29.927589   102 net.cpp:175] Memory required for data: 421776388
I0410 05:49:29.927597   102 layer_factory.hpp:93] Creating layer conv4_3_norm_mbox_conf_perm
I0410 05:49:29.927604   102 net.cpp:110] Creating Layer conv4_3_norm_mbox_conf_perm
I0410 05:49:29.927608   102 net.cpp:451] conv4_3_norm_mbox_conf_perm <- conv4_3_norm_mbox_conf_new
I0410 05:49:29.927614   102 net.cpp:425] conv4_3_norm_mbox_conf_perm -> conv4_3_norm_mbox_conf_perm
I0410 05:49:29.927696   102 net.cpp:160] Setting up conv4_3_norm_mbox_conf_perm
I0410 05:49:29.927702   102 net.cpp:167] Top shape: 1 45 60 168 (453600)
I0410 05:49:29.927707   102 net.cpp:175] Memory required for data: 423590788
I0410 05:49:29.927711   102 layer_factory.hpp:93] Creating layer conv4_3_norm_mbox_conf_flat
I0410 05:49:29.927716   102 net.cpp:110] Creating Layer conv4_3_norm_mbox_conf_flat
I0410 05:49:29.927719   102 net.cpp:451] conv4_3_norm_mbox_conf_flat <- conv4_3_norm_mbox_conf_perm
I0410 05:49:29.927724   102 net.cpp:425] conv4_3_norm_mbox_conf_flat -> conv4_3_norm_mbox_conf_flat
I0410 05:49:29.927743   102 net.cpp:160] Setting up conv4_3_norm_mbox_conf_flat
I0410 05:49:29.927748   102 net.cpp:167] Top shape: 1 453600 (453600)
I0410 05:49:29.927752   102 net.cpp:175] Memory required for data: 425405188
I0410 05:49:29.927757   102 layer_factory.hpp:93] Creating layer conv4_3_norm_mbox_priorbox
I0410 05:49:29.927763   102 net.cpp:110] Creating Layer conv4_3_norm_mbox_priorbox
I0410 05:49:29.927767   102 net.cpp:451] conv4_3_norm_mbox_priorbox <- conv4_7/expand/bn_relu4_7/expand_0_split_3
I0410 05:49:29.927772   102 net.cpp:451] conv4_3_norm_mbox_priorbox <- data_data_0_split_1
I0410 05:49:29.927778   102 net.cpp:425] conv4_3_norm_mbox_priorbox -> conv4_3_norm_mbox_priorbox
I0410 05:49:29.927800   102 net.cpp:160] Setting up conv4_3_norm_mbox_priorbox
I0410 05:49:29.927806   102 net.cpp:167] Top shape: 1 2 86400 (172800)
I0410 05:49:29.927811   102 net.cpp:175] Memory required for data: 426096388
I0410 05:49:29.927814   102 layer_factory.hpp:93] Creating layer fc7_mbox_loc
I0410 05:49:29.927822   102 net.cpp:110] Creating Layer fc7_mbox_loc
I0410 05:49:29.927826   102 net.cpp:451] fc7_mbox_loc <- conv5_3/expand/bn_relu5_3/expand_0_split_1
I0410 05:49:29.927831   102 net.cpp:425] fc7_mbox_loc -> fc7_mbox_loc
I0410 05:49:29.928827   102 net.cpp:160] Setting up fc7_mbox_loc
I0410 05:49:29.928835   102 net.cpp:167] Top shape: 1 24 23 30 (16560)
I0410 05:49:29.928841   102 net.cpp:175] Memory required for data: 426162628
I0410 05:49:29.928848   102 layer_factory.hpp:93] Creating layer fc7_mbox_loc_bn
I0410 05:49:29.928854   102 net.cpp:110] Creating Layer fc7_mbox_loc_bn
I0410 05:49:29.928858   102 net.cpp:451] fc7_mbox_loc_bn <- fc7_mbox_loc
I0410 05:49:29.928864   102 net.cpp:412] fc7_mbox_loc_bn -> fc7_mbox_loc (in-place)
I0410 05:49:29.929483   102 net.cpp:160] Setting up fc7_mbox_loc_bn
I0410 05:49:29.929491   102 net.cpp:167] Top shape: 1 24 23 30 (16560)
I0410 05:49:29.929497   102 net.cpp:175] Memory required for data: 426228868
I0410 05:49:29.929505   102 layer_factory.hpp:93] Creating layer fc7_mbox_loc_perm
I0410 05:49:29.929512   102 net.cpp:110] Creating Layer fc7_mbox_loc_perm
I0410 05:49:29.929515   102 net.cpp:451] fc7_mbox_loc_perm <- fc7_mbox_loc
I0410 05:49:29.929522   102 net.cpp:425] fc7_mbox_loc_perm -> fc7_mbox_loc_perm
I0410 05:49:29.929601   102 net.cpp:160] Setting up fc7_mbox_loc_perm
I0410 05:49:29.929607   102 net.cpp:167] Top shape: 1 23 30 24 (16560)
I0410 05:49:29.929612   102 net.cpp:175] Memory required for data: 426295108
I0410 05:49:29.929616   102 layer_factory.hpp:93] Creating layer fc7_mbox_loc_flat
I0410 05:49:29.929621   102 net.cpp:110] Creating Layer fc7_mbox_loc_flat
I0410 05:49:29.929625   102 net.cpp:451] fc7_mbox_loc_flat <- fc7_mbox_loc_perm
I0410 05:49:29.929630   102 net.cpp:425] fc7_mbox_loc_flat -> fc7_mbox_loc_flat
I0410 05:49:29.929648   102 net.cpp:160] Setting up fc7_mbox_loc_flat
I0410 05:49:29.929654   102 net.cpp:167] Top shape: 1 16560 (16560)
I0410 05:49:29.929658   102 net.cpp:175] Memory required for data: 426361348
I0410 05:49:29.929661   102 layer_factory.hpp:93] Creating layer fc7_mbox_conf_new
I0410 05:49:29.929670   102 net.cpp:110] Creating Layer fc7_mbox_conf_new
I0410 05:49:29.929674   102 net.cpp:451] fc7_mbox_conf_new <- conv5_3/expand/bn_relu5_3/expand_0_split_2
I0410 05:49:29.929679   102 net.cpp:425] fc7_mbox_conf_new -> fc7_mbox_conf_new
I0410 05:49:29.935225   102 net.cpp:160] Setting up fc7_mbox_conf_new
I0410 05:49:29.935236   102 net.cpp:167] Top shape: 1 126 23 30 (86940)
I0410 05:49:29.935242   102 net.cpp:175] Memory required for data: 426709108
I0410 05:49:29.935250   102 layer_factory.hpp:93] Creating layer fc7_mbox_conf_bn
I0410 05:49:29.935257   102 net.cpp:110] Creating Layer fc7_mbox_conf_bn
I0410 05:49:29.935262   102 net.cpp:451] fc7_mbox_conf_bn <- fc7_mbox_conf_new
I0410 05:49:29.935267   102 net.cpp:412] fc7_mbox_conf_bn -> fc7_mbox_conf_new (in-place)
I0410 05:49:29.935897   102 net.cpp:160] Setting up fc7_mbox_conf_bn
I0410 05:49:29.935904   102 net.cpp:167] Top shape: 1 126 23 30 (86940)
I0410 05:49:29.935910   102 net.cpp:175] Memory required for data: 427056868
I0410 05:49:29.935919   102 layer_factory.hpp:93] Creating layer fc7_mbox_conf_perm
I0410 05:49:29.935925   102 net.cpp:110] Creating Layer fc7_mbox_conf_perm
I0410 05:49:29.935930   102 net.cpp:451] fc7_mbox_conf_perm <- fc7_mbox_conf_new
I0410 05:49:29.935935   102 net.cpp:425] fc7_mbox_conf_perm -> fc7_mbox_conf_perm
I0410 05:49:29.936017   102 net.cpp:160] Setting up fc7_mbox_conf_perm
I0410 05:49:29.936022   102 net.cpp:167] Top shape: 1 23 30 126 (86940)
I0410 05:49:29.936028   102 net.cpp:175] Memory required for data: 427404628
I0410 05:49:29.936030   102 layer_factory.hpp:93] Creating layer fc7_mbox_conf_flat
I0410 05:49:29.936035   102 net.cpp:110] Creating Layer fc7_mbox_conf_flat
I0410 05:49:29.936039   102 net.cpp:451] fc7_mbox_conf_flat <- fc7_mbox_conf_perm
I0410 05:49:29.936044   102 net.cpp:425] fc7_mbox_conf_flat -> fc7_mbox_conf_flat
I0410 05:49:29.936064   102 net.cpp:160] Setting up fc7_mbox_conf_flat
I0410 05:49:29.936069   102 net.cpp:167] Top shape: 1 86940 (86940)
I0410 05:49:29.936074   102 net.cpp:175] Memory required for data: 427752388
I0410 05:49:29.936077   102 layer_factory.hpp:93] Creating layer fc7_mbox_priorbox
I0410 05:49:29.936084   102 net.cpp:110] Creating Layer fc7_mbox_priorbox
I0410 05:49:29.936087   102 net.cpp:451] fc7_mbox_priorbox <- conv5_3/expand/bn_relu5_3/expand_0_split_3
I0410 05:49:29.936091   102 net.cpp:451] fc7_mbox_priorbox <- data_data_0_split_2
I0410 05:49:29.936097   102 net.cpp:425] fc7_mbox_priorbox -> fc7_mbox_priorbox
I0410 05:49:29.936118   102 net.cpp:160] Setting up fc7_mbox_priorbox
I0410 05:49:29.936122   102 net.cpp:167] Top shape: 1 2 16560 (33120)
I0410 05:49:29.936126   102 net.cpp:175] Memory required for data: 427884868
I0410 05:49:29.936131   102 layer_factory.hpp:93] Creating layer conv6_2_mbox_loc
I0410 05:49:29.936138   102 net.cpp:110] Creating Layer conv6_2_mbox_loc
I0410 05:49:29.936142   102 net.cpp:451] conv6_2_mbox_loc <- fc7_relu7_0_split_1
I0410 05:49:29.936148   102 net.cpp:425] conv6_2_mbox_loc -> conv6_2_mbox_loc
I0410 05:49:29.939260   102 net.cpp:160] Setting up conv6_2_mbox_loc
I0410 05:49:29.939271   102 net.cpp:167] Top shape: 1 24 12 15 (4320)
I0410 05:49:29.939277   102 net.cpp:175] Memory required for data: 427902148
I0410 05:49:29.939285   102 layer_factory.hpp:93] Creating layer conv6_2_mbox_loc__bn
I0410 05:49:29.939292   102 net.cpp:110] Creating Layer conv6_2_mbox_loc__bn
I0410 05:49:29.939297   102 net.cpp:451] conv6_2_mbox_loc__bn <- conv6_2_mbox_loc
I0410 05:49:29.939303   102 net.cpp:412] conv6_2_mbox_loc__bn -> conv6_2_mbox_loc (in-place)
I0410 05:49:29.939918   102 net.cpp:160] Setting up conv6_2_mbox_loc__bn
I0410 05:49:29.939926   102 net.cpp:167] Top shape: 1 24 12 15 (4320)
I0410 05:49:29.939931   102 net.cpp:175] Memory required for data: 427919428
I0410 05:49:29.939939   102 layer_factory.hpp:93] Creating layer conv6_2_mbox_loc_perm
I0410 05:49:29.939946   102 net.cpp:110] Creating Layer conv6_2_mbox_loc_perm
I0410 05:49:29.939950   102 net.cpp:451] conv6_2_mbox_loc_perm <- conv6_2_mbox_loc
I0410 05:49:29.939956   102 net.cpp:425] conv6_2_mbox_loc_perm -> conv6_2_mbox_loc_perm
I0410 05:49:29.940042   102 net.cpp:160] Setting up conv6_2_mbox_loc_perm
I0410 05:49:29.940047   102 net.cpp:167] Top shape: 1 12 15 24 (4320)
I0410 05:49:29.940052   102 net.cpp:175] Memory required for data: 427936708
I0410 05:49:29.940057   102 layer_factory.hpp:93] Creating layer conv6_2_mbox_loc_flat
I0410 05:49:29.940062   102 net.cpp:110] Creating Layer conv6_2_mbox_loc_flat
I0410 05:49:29.940065   102 net.cpp:451] conv6_2_mbox_loc_flat <- conv6_2_mbox_loc_perm
I0410 05:49:29.940070   102 net.cpp:425] conv6_2_mbox_loc_flat -> conv6_2_mbox_loc_flat
I0410 05:49:29.940089   102 net.cpp:160] Setting up conv6_2_mbox_loc_flat
I0410 05:49:29.940098   102 net.cpp:167] Top shape: 1 4320 (4320)
I0410 05:49:29.940102   102 net.cpp:175] Memory required for data: 427953988
I0410 05:49:29.940105   102 layer_factory.hpp:93] Creating layer conv6_2_mbox_conf_new
I0410 05:49:29.940114   102 net.cpp:110] Creating Layer conv6_2_mbox_conf_new
I0410 05:49:29.940117   102 net.cpp:451] conv6_2_mbox_conf_new <- fc7_relu7_0_split_2
I0410 05:49:29.940124   102 net.cpp:425] conv6_2_mbox_conf_new -> conv6_2_mbox_conf_new
I0410 05:49:29.952260   102 net.cpp:160] Setting up conv6_2_mbox_conf_new
I0410 05:49:29.952272   102 net.cpp:167] Top shape: 1 126 12 15 (22680)
I0410 05:49:29.952278   102 net.cpp:175] Memory required for data: 428044708
I0410 05:49:29.952294   102 layer_factory.hpp:93] Creating layer conv6_2_mbox_conf_bn
I0410 05:49:29.952303   102 net.cpp:110] Creating Layer conv6_2_mbox_conf_bn
I0410 05:49:29.952308   102 net.cpp:451] conv6_2_mbox_conf_bn <- conv6_2_mbox_conf_new
I0410 05:49:29.952314   102 net.cpp:412] conv6_2_mbox_conf_bn -> conv6_2_mbox_conf_new (in-place)
I0410 05:49:29.952957   102 net.cpp:160] Setting up conv6_2_mbox_conf_bn
I0410 05:49:29.952965   102 net.cpp:167] Top shape: 1 126 12 15 (22680)
I0410 05:49:29.952971   102 net.cpp:175] Memory required for data: 428135428
I0410 05:49:29.952980   102 layer_factory.hpp:93] Creating layer conv6_2_mbox_conf_perm
I0410 05:49:29.952986   102 net.cpp:110] Creating Layer conv6_2_mbox_conf_perm
I0410 05:49:29.952991   102 net.cpp:451] conv6_2_mbox_conf_perm <- conv6_2_mbox_conf_new
I0410 05:49:29.952996   102 net.cpp:425] conv6_2_mbox_conf_perm -> conv6_2_mbox_conf_perm
I0410 05:49:29.953081   102 net.cpp:160] Setting up conv6_2_mbox_conf_perm
I0410 05:49:29.953088   102 net.cpp:167] Top shape: 1 12 15 126 (22680)
I0410 05:49:29.953092   102 net.cpp:175] Memory required for data: 428226148
I0410 05:49:29.953095   102 layer_factory.hpp:93] Creating layer conv6_2_mbox_conf_flat
I0410 05:49:29.953101   102 net.cpp:110] Creating Layer conv6_2_mbox_conf_flat
I0410 05:49:29.953104   102 net.cpp:451] conv6_2_mbox_conf_flat <- conv6_2_mbox_conf_perm
I0410 05:49:29.953109   102 net.cpp:425] conv6_2_mbox_conf_flat -> conv6_2_mbox_conf_flat
I0410 05:49:29.953130   102 net.cpp:160] Setting up conv6_2_mbox_conf_flat
I0410 05:49:29.953135   102 net.cpp:167] Top shape: 1 22680 (22680)
I0410 05:49:29.953140   102 net.cpp:175] Memory required for data: 428316868
I0410 05:49:29.953142   102 layer_factory.hpp:93] Creating layer conv6_2_mbox_priorbox
I0410 05:49:29.953150   102 net.cpp:110] Creating Layer conv6_2_mbox_priorbox
I0410 05:49:29.953153   102 net.cpp:451] conv6_2_mbox_priorbox <- fc7_relu7_0_split_3
I0410 05:49:29.953157   102 net.cpp:451] conv6_2_mbox_priorbox <- data_data_0_split_3
I0410 05:49:29.953162   102 net.cpp:425] conv6_2_mbox_priorbox -> conv6_2_mbox_priorbox
I0410 05:49:29.953186   102 net.cpp:160] Setting up conv6_2_mbox_priorbox
I0410 05:49:29.953192   102 net.cpp:167] Top shape: 1 2 4320 (8640)
I0410 05:49:29.953197   102 net.cpp:175] Memory required for data: 428351428
I0410 05:49:29.953200   102 layer_factory.hpp:93] Creating layer conv7_2_mbox_loc
I0410 05:49:29.953208   102 net.cpp:110] Creating Layer conv7_2_mbox_loc
I0410 05:49:29.953212   102 net.cpp:451] conv7_2_mbox_loc <- conv6_2_conv6_2_relu_0_split_1
I0410 05:49:29.953218   102 net.cpp:425] conv7_2_mbox_loc -> conv7_2_mbox_loc
I0410 05:49:29.954133   102 net.cpp:160] Setting up conv7_2_mbox_loc
I0410 05:49:29.954143   102 net.cpp:167] Top shape: 1 24 6 8 (1152)
I0410 05:49:29.954147   102 net.cpp:175] Memory required for data: 428356036
I0410 05:49:29.954154   102 layer_factory.hpp:93] Creating layer conv7_2_mbox_loc_bn
I0410 05:49:29.954160   102 net.cpp:110] Creating Layer conv7_2_mbox_loc_bn
I0410 05:49:29.954164   102 net.cpp:451] conv7_2_mbox_loc_bn <- conv7_2_mbox_loc
I0410 05:49:29.954170   102 net.cpp:412] conv7_2_mbox_loc_bn -> conv7_2_mbox_loc (in-place)
I0410 05:49:29.954794   102 net.cpp:160] Setting up conv7_2_mbox_loc_bn
I0410 05:49:29.954802   102 net.cpp:167] Top shape: 1 24 6 8 (1152)
I0410 05:49:29.954807   102 net.cpp:175] Memory required for data: 428360644
I0410 05:49:29.954816   102 layer_factory.hpp:93] Creating layer conv7_2_mbox_loc_perm
I0410 05:49:29.954823   102 net.cpp:110] Creating Layer conv7_2_mbox_loc_perm
I0410 05:49:29.954826   102 net.cpp:451] conv7_2_mbox_loc_perm <- conv7_2_mbox_loc
I0410 05:49:29.954833   102 net.cpp:425] conv7_2_mbox_loc_perm -> conv7_2_mbox_loc_perm
I0410 05:49:29.954917   102 net.cpp:160] Setting up conv7_2_mbox_loc_perm
I0410 05:49:29.954923   102 net.cpp:167] Top shape: 1 6 8 24 (1152)
I0410 05:49:29.954928   102 net.cpp:175] Memory required for data: 428365252
I0410 05:49:29.954931   102 layer_factory.hpp:93] Creating layer conv7_2_mbox_loc_flat
I0410 05:49:29.954936   102 net.cpp:110] Creating Layer conv7_2_mbox_loc_flat
I0410 05:49:29.954941   102 net.cpp:451] conv7_2_mbox_loc_flat <- conv7_2_mbox_loc_perm
I0410 05:49:29.954946   102 net.cpp:425] conv7_2_mbox_loc_flat -> conv7_2_mbox_loc_flat
I0410 05:49:29.954965   102 net.cpp:160] Setting up conv7_2_mbox_loc_flat
I0410 05:49:29.954970   102 net.cpp:167] Top shape: 1 1152 (1152)
I0410 05:49:29.954974   102 net.cpp:175] Memory required for data: 428369860
I0410 05:49:29.954978   102 layer_factory.hpp:93] Creating layer conv7_2_mbox_conf_new
…
I0410 05:50:48.442469   102 net.cpp:451] block_6_1_block_6_1_fixed_0_split <- block_6_1
I0410 05:50:48.442474   102 net.cpp:425] block_6_1_block_6_1_fixed_0_split -> block_6_1_block_6_1_fixed_0_split_0
I0410 05:50:48.442481   102 net.cpp:425] block_6_1_block_6_1_fixed_0_split -> block_6_1_block_6_1_fixed_0_split_1
I0410 05:50:48.442507   102 net.cpp:160] Setting up block_6_1_block_6_1_fixed_0_split
I0410 05:50:48.442512   102 net.cpp:167] Top shape: 1 160 12 15 (28800)
I0410 05:50:48.442517   102 net.cpp:167] Top shape: 1 160 12 15 (28800)
I0410 05:50:48.442520   102 net.cpp:175] Memory required for data: 406345024
I0410 05:50:48.442523   102 layer_factory.hpp:93] Creating layer conv6_2/expand
I0410 05:50:48.442530   102 net.cpp:110] Creating Layer conv6_2/expand
I0410 05:50:48.442534   102 net.cpp:451] conv6_2/expand <- block_6_1_block_6_1_fixed_0_split_0
I0410 05:50:48.442539   102 net.cpp:425] conv6_2/expand -> conv6_2/expand/bn
I0410 05:50:48.444623   102 layer_factory.hpp:93] Creating layer conv6_2/expand
I0410 05:50:48.446215   102 net.cpp:160] Setting up conv6_2/expand
I0410 05:50:48.446223   102 net.cpp:167] Top shape: 1 960 12 15 (172800)
I0410 05:50:48.446228   102 net.cpp:175] Memory required for data: 407036224
I0410 05:50:48.446235   102 layer_factory.hpp:93] Creating layer relu6_2/expand
I0410 05:50:48.446240   102 net.cpp:110] Creating Layer relu6_2/expand
I0410 05:50:48.446244   102 net.cpp:451] relu6_2/expand <- conv6_2/expand/bn
I0410 05:50:48.446249   102 net.cpp:412] relu6_2/expand -> conv6_2/expand/bn (in-place)
I0410 05:50:48.446254   102 net.cpp:160] Setting up relu6_2/expand
I0410 05:50:48.446257   102 net.cpp:167] Top shape: 1 960 12 15 (172800)
I0410 05:50:48.446262   102 net.cpp:175] Memory required for data: 407727424
I0410 05:50:48.446265   102 layer_factory.hpp:93] Creating layer conv6_2/expand/bn_fixed
I0410 05:50:48.446270   102 net.cpp:110] Creating Layer conv6_2/expand/bn_fixed
I0410 05:50:48.446274   102 net.cpp:451] conv6_2/expand/bn_fixed <- conv6_2/expand/bn
I0410 05:50:48.446278   102 net.cpp:412] conv6_2/expand/bn_fixed -> conv6_2/expand/bn (in-place)
I0410 05:50:48.446306   102 net.cpp:160] Setting up conv6_2/expand/bn_fixed
I0410 05:50:48.446310   102 net.cpp:167] Top shape: 1 960 12 15 (172800)
I0410 05:50:48.446314   102 net.cpp:175] Memory required for data: 408418624
I0410 05:50:48.446319   102 layer_factory.hpp:93] Creating layer conv6_2/dwise
I0410 05:50:48.446326   102 net.cpp:110] Creating Layer conv6_2/dwise
I0410 05:50:48.446329   102 net.cpp:451] conv6_2/dwise <- conv6_2/expand/bn
I0410 05:50:48.446336   102 net.cpp:425] conv6_2/dwise -> conv6_2/dwise/bn
I0410 05:50:48.446560   102 layer_factory.hpp:93] Creating layer conv6_2/dwise
I0410 05:50:48.446904   102 net.cpp:160] Setting up conv6_2/dwise
I0410 05:50:48.446911   102 net.cpp:167] Top shape: 1 960 12 15 (172800)
I0410 05:50:48.446916   102 net.cpp:175] Memory required for data: 409109824
I0410 05:50:48.446921   102 layer_factory.hpp:93] Creating layer relu6_2/dwise
I0410 05:50:48.446926   102 net.cpp:110] Creating Layer relu6_2/dwise
I0410 05:50:48.446929   102 net.cpp:451] relu6_2/dwise <- conv6_2/dwise/bn
I0410 05:50:48.446934   102 net.cpp:412] relu6_2/dwise -> conv6_2/dwise/bn (in-place)
I0410 05:50:48.446939   102 net.cpp:160] Setting up relu6_2/dwise
I0410 05:50:48.446943   102 net.cpp:167] Top shape: 1 960 12 15 (172800)
I0410 05:50:48.446946   102 net.cpp:175] Memory required for data: 409801024
I0410 05:50:48.446949   102 layer_factory.hpp:93] Creating layer conv6_2/dwise/bn_fixed
I0410 05:50:48.446954   102 net.cpp:110] Creating Layer conv6_2/dwise/bn_fixed
I0410 05:50:48.446959   102 net.cpp:451] conv6_2/dwise/bn_fixed <- conv6_2/dwise/bn
I0410 05:50:48.446962   102 net.cpp:412] conv6_2/dwise/bn_fixed -> conv6_2/dwise/bn (in-place)
I0410 05:50:48.446990   102 net.cpp:160] Setting up conv6_2/dwise/bn_fixed
I0410 05:50:48.446995   102 net.cpp:167] Top shape: 1 960 12 15 (172800)
I0410 05:50:48.446998   102 net.cpp:175] Memory required for data: 410492224
I0410 05:50:48.447003   102 layer_factory.hpp:93] Creating layer conv6_2/linear
I0410 05:50:48.447010   102 net.cpp:110] Creating Layer conv6_2/linear
I0410 05:50:48.447012   102 net.cpp:451] conv6_2/linear <- conv6_2/dwise/bn
I0410 05:50:48.447018   102 net.cpp:425] conv6_2/linear -> conv6_2/linear/bn
I0410 05:50:48.449182   102 layer_factory.hpp:93] Creating layer conv6_2/linear
I0410 05:50:48.451442   102 net.cpp:160] Setting up conv6_2/linear
I0410 05:50:48.451453   102 net.cpp:167] Top shape: 1 160 12 15 (28800)
I0410 05:50:48.451458   102 net.cpp:175] Memory required for data: 410607424
I0410 05:50:48.451465   102 layer_factory.hpp:93] Creating layer conv6_2/linear/bn_fixed
I0410 05:50:48.451472   102 net.cpp:110] Creating Layer conv6_2/linear/bn_fixed
I0410 05:50:48.451475   102 net.cpp:451] conv6_2/linear/bn_fixed <- conv6_2/linear/bn
I0410 05:50:48.451481   102 net.cpp:412] conv6_2/linear/bn_fixed -> conv6_2/linear/bn (in-place)
I0410 05:50:48.451521   102 net.cpp:160] Setting up conv6_2/linear/bn_fixed
I0410 05:50:48.451525   102 net.cpp:167] Top shape: 1 160 12 15 (28800)
I0410 05:50:48.451530   102 net.cpp:175] Memory required for data: 410722624
I0410 05:50:48.451535   102 layer_factory.hpp:93] Creating layer block_6_2
I0410 05:50:48.451540   102 net.cpp:110] Creating Layer block_6_2
I0410 05:50:48.451545   102 net.cpp:451] block_6_2 <- block_6_1_block_6_1_fixed_0_split_1
I0410 05:50:48.451548   102 net.cpp:451] block_6_2 <- conv6_2/linear/bn
I0410 05:50:48.451553   102 net.cpp:425] block_6_2 -> block_6_2
I0410 05:50:48.451570   102 net.cpp:160] Setting up block_6_2
I0410 05:50:48.451575   102 net.cpp:167] Top shape: 1 160 12 15 (28800)
I0410 05:50:48.451578   102 net.cpp:175] Memory required for data: 410837824
I0410 05:50:48.451581   102 layer_factory.hpp:93] Creating layer block_6_2_fixed
I0410 05:50:48.451586   102 net.cpp:110] Creating Layer block_6_2_fixed
I0410 05:50:48.451591   102 net.cpp:451] block_6_2_fixed <- block_6_2
I0410 05:50:48.451594   102 net.cpp:412] block_6_2_fixed -> block_6_2 (in-place)
I0410 05:50:48.451622   102 net.cpp:160] Setting up block_6_2_fixed
I0410 05:50:48.451628   102 net.cpp:167] Top shape: 1 160 12 15 (28800)
I0410 05:50:48.451633   102 net.cpp:175] Memory required for data: 410953024
I0410 05:50:48.451637   102 layer_factory.hpp:93] Creating layer conv6_3/expand
I0410 05:50:48.451644   102 net.cpp:110] Creating Layer conv6_3/expand
I0410 05:50:48.451648   102 net.cpp:451] conv6_3/expand <- block_6_2
I0410 05:50:48.451653   102 net.cpp:425] conv6_3/expand -> conv6_3/expand/bn
I0410 05:50:48.453155   102 layer_factory.hpp:93] Creating layer conv6_3/expand
I0410 05:50:48.455395   102 net.cpp:160] Setting up conv6_3/expand
I0410 05:50:48.455406   102 net.cpp:167] Top shape: 1 960 12 15 (172800)
I0410 05:50:48.455412   102 net.cpp:175] Memory required for data: 411644224
I0410 05:50:48.455418   102 layer_factory.hpp:93] Creating layer relu6_3/expand
I0410 05:50:48.455425   102 net.cpp:110] Creating Layer relu6_3/expand
I0410 05:50:48.455428   102 net.cpp:451] relu6_3/expand <- conv6_3/expand/bn
I0410 05:50:48.455433   102 net.cpp:412] relu6_3/expand -> conv6_3/expand/bn (in-place)
I0410 05:50:48.455440   102 net.cpp:160] Setting up relu6_3/expand
I0410 05:50:48.455442   102 net.cpp:167] Top shape: 1 960 12 15 (172800)
I0410 05:50:48.455447   102 net.cpp:175] Memory required for data: 412335424
I0410 05:50:48.455451   102 layer_factory.hpp:93] Creating layer conv6_3/expand/bn_fixed
I0410 05:50:48.455456   102 net.cpp:110] Creating Layer conv6_3/expand/bn_fixed
I0410 05:50:48.455459   102 net.cpp:451] conv6_3/expand/bn_fixed <- conv6_3/expand/bn
I0410 05:50:48.455463   102 net.cpp:412] conv6_3/expand/bn_fixed -> conv6_3/expand/bn (in-place)
I0410 05:50:48.455493   102 net.cpp:160] Setting up conv6_3/expand/bn_fixed
I0410 05:50:48.455497   102 net.cpp:167] Top shape: 1 960 12 15 (172800)
I0410 05:50:48.455502   102 net.cpp:175] Memory required for data: 413026624
I0410 05:50:48.455507   102 layer_factory.hpp:93] Creating layer conv6_3/dwise
I0410 05:50:48.455513   102 net.cpp:110] Creating Layer conv6_3/dwise
I0410 05:50:48.455516   102 net.cpp:451] conv6_3/dwise <- conv6_3/expand/bn
I0410 05:50:48.455523   102 net.cpp:425] conv6_3/dwise -> conv6_3/dwise/bn
I0410 05:50:48.455798   102 layer_factory.hpp:93] Creating layer conv6_3/dwise
I0410 05:50:48.456163   102 net.cpp:160] Setting up conv6_3/dwise
I0410 05:50:48.456171   102 net.cpp:167] Top shape: 1 960 12 15 (172800)
I0410 05:50:48.456178   102 net.cpp:175] Memory required for data: 413717824
I0410 05:50:48.456183   102 layer_factory.hpp:93] Creating layer relu6_3/dwise
I0410 05:50:48.456188   102 net.cpp:110] Creating Layer relu6_3/dwise
I0410 05:50:48.456192   102 net.cpp:451] relu6_3/dwise <- conv6_3/dwise/bn
I0410 05:50:48.456197   102 net.cpp:412] relu6_3/dwise -> conv6_3/dwise/bn (in-place)
I0410 05:50:48.456203   102 net.cpp:160] Setting up relu6_3/dwise
I0410 05:50:48.456207   102 net.cpp:167] Top shape: 1 960 12 15 (172800)
I0410 05:50:48.456210   102 net.cpp:175] Memory required for data: 414409024
I0410 05:50:48.456214   102 layer_factory.hpp:93] Creating layer conv6_3/dwise/bn_fixed
I0410 05:50:48.456219   102 net.cpp:110] Creating Layer conv6_3/dwise/bn_fixed
I0410 05:50:48.456223   102 net.cpp:451] conv6_3/dwise/bn_fixed <- conv6_3/dwise/bn
I0410 05:50:48.456226   102 net.cpp:412] conv6_3/dwise/bn_fixed -> conv6_3/dwise/bn (in-place)
I0410 05:50:48.456256   102 net.cpp:160] Setting up conv6_3/dwise/bn_fixed
I0410 05:50:48.456262   102 net.cpp:167] Top shape: 1 960 12 15 (172800)
I0410 05:50:48.456267   102 net.cpp:175] Memory required for data: 415100224
I0410 05:50:48.456271   102 layer_factory.hpp:93] Creating layer conv6_3/linear
I0410 05:50:48.456279   102 net.cpp:110] Creating Layer conv6_3/linear
I0410 05:50:48.456281   102 net.cpp:451] conv6_3/linear <- conv6_3/dwise/bn
I0410 05:50:48.456287   102 net.cpp:425] conv6_3/linear -> conv6_3/linear/bn
I0410 05:50:48.460294   102 layer_factory.hpp:93] Creating layer conv6_3/linear
I0410 05:50:48.464478   102 net.cpp:160] Setting up conv6_3/linear
I0410 05:50:48.464489   102 net.cpp:167] Top shape: 1 320 12 15 (57600)
I0410 05:50:48.464495   102 net.cpp:175] Memory required for data: 415330624
I0410 05:50:48.464502   102 layer_factory.hpp:93] Creating layer conv6_3/linear/bn_fixed
I0410 05:50:48.464509   102 net.cpp:110] Creating Layer conv6_3/linear/bn_fixed
I0410 05:50:48.464512   102 net.cpp:451] conv6_3/linear/bn_fixed <- conv6_3/linear/bn
I0410 05:50:48.464519   102 net.cpp:412] conv6_3/linear/bn_fixed -> conv6_3/linear/bn (in-place)
I0410 05:50:48.464550   102 net.cpp:160] Setting up conv6_3/linear/bn_fixed
I0410 05:50:48.464555   102 net.cpp:167] Top shape: 1 320 12 15 (57600)
I0410 05:50:48.464560   102 net.cpp:175] Memory required for data: 415561024
I0410 05:50:48.464563   102 layer_factory.hpp:93] Creating layer conv6_4
I0410 05:50:48.464570   102 net.cpp:110] Creating Layer conv6_4
I0410 05:50:48.464574   102 net.cpp:451] conv6_4 <- conv6_3/linear/bn
I0410 05:50:48.464579   102 net.cpp:425] conv6_4 -> conv6_4/bn
I0410 05:50:48.469681   102 layer_factory.hpp:93] Creating layer conv6_4
I0410 05:50:48.474659   102 net.cpp:160] Setting up conv6_4
I0410 05:50:48.474670   102 net.cpp:167] Top shape: 1 1280 12 15 (230400)
I0410 05:50:48.474691   102 net.cpp:175] Memory required for data: 416482624
I0410 05:50:48.474699   102 layer_factory.hpp:93] Creating layer relu7
I0410 05:50:48.474704   102 net.cpp:110] Creating Layer relu7
I0410 05:50:48.474707   102 net.cpp:451] relu7 <- conv6_4/bn
I0410 05:50:48.474714   102 net.cpp:425] relu7 -> fc7
I0410 05:50:48.474735   102 net.cpp:160] Setting up relu7
I0410 05:50:48.474740   102 net.cpp:167] Top shape: 1 1280 12 15 (230400)
I0410 05:50:48.474745   102 net.cpp:175] Memory required for data: 417404224
I0410 05:50:48.474747   102 layer_factory.hpp:93] Creating layer fc7_fixed
I0410 05:50:48.474752   102 net.cpp:110] Creating Layer fc7_fixed
I0410 05:50:48.474756   102 net.cpp:451] fc7_fixed <- fc7
I0410 05:50:48.474761   102 net.cpp:412] fc7_fixed -> fc7 (in-place)
I0410 05:50:48.474788   102 net.cpp:160] Setting up fc7_fixed
I0410 05:50:48.474795   102 net.cpp:167] Top shape: 1 1280 12 15 (230400)
I0410 05:50:48.474799   102 net.cpp:175] Memory required for data: 418325824
I0410 05:50:48.474804   102 layer_factory.hpp:93] Creating layer fc7_fc7_fixed_0_split
I0410 05:50:48.474810   102 net.cpp:110] Creating Layer fc7_fc7_fixed_0_split
I0410 05:50:48.474813   102 net.cpp:451] fc7_fc7_fixed_0_split <- fc7
I0410 05:50:48.474818   102 net.cpp:425] fc7_fc7_fixed_0_split -> fc7_fc7_fixed_0_split_0
I0410 05:50:48.474824   102 net.cpp:425] fc7_fc7_fixed_0_split -> fc7_fc7_fixed_0_split_1
I0410 05:50:48.474829   102 net.cpp:425] fc7_fc7_fixed_0_split -> fc7_fc7_fixed_0_split_2
I0410 05:50:48.474834   102 net.cpp:425] fc7_fc7_fixed_0_split -> fc7_fc7_fixed_0_split_3
I0410 05:50:48.474894   102 net.cpp:160] Setting up fc7_fc7_fixed_0_split
I0410 05:50:48.474902   102 net.cpp:167] Top shape: 1 1280 12 15 (230400)
I0410 05:50:48.474911   102 net.cpp:167] Top shape: 1 1280 12 15 (230400)
I0410 05:50:48.474920   102 net.cpp:167] Top shape: 1 1280 12 15 (230400)
I0410 05:50:48.474926   102 net.cpp:167] Top shape: 1 1280 12 15 (230400)
I0410 05:50:48.474933   102 net.cpp:175] Memory required for data: 422012224
I0410 05:50:48.474939   102 layer_factory.hpp:93] Creating layer conv6_1
I0410 05:50:48.474952   102 net.cpp:110] Creating Layer conv6_1
I0410 05:50:48.474958   102 net.cpp:451] conv6_1 <- fc7_fc7_fixed_0_split_0
I0410 05:50:48.474968   102 net.cpp:425] conv6_1 -> conv6_1
I0410 05:50:48.478178   102 layer_factory.hpp:93] Creating layer conv6_1
I0410 05:50:48.481701   102 net.cpp:160] Setting up conv6_1
I0410 05:50:48.481712   102 net.cpp:167] Top shape: 1 256 12 15 (46080)
I0410 05:50:48.481719   102 net.cpp:175] Memory required for data: 422196544
I0410 05:50:48.481724   102 layer_factory.hpp:93] Creating layer conv6_1_relu
I0410 05:50:48.481730   102 net.cpp:110] Creating Layer conv6_1_relu
I0410 05:50:48.481734   102 net.cpp:451] conv6_1_relu <- conv6_1
I0410 05:50:48.481739   102 net.cpp:412] conv6_1_relu -> conv6_1 (in-place)
I0410 05:50:48.481746   102 net.cpp:160] Setting up conv6_1_relu
I0410 05:50:48.481750   102 net.cpp:167] Top shape: 1 256 12 15 (46080)
I0410 05:50:48.481753   102 net.cpp:175] Memory required for data: 422380864
I0410 05:50:48.481757   102 layer_factory.hpp:93] Creating layer conv6_1_fixed
I0410 05:50:48.481762   102 net.cpp:110] Creating Layer conv6_1_fixed
I0410 05:50:48.481765   102 net.cpp:451] conv6_1_fixed <- conv6_1
I0410 05:50:48.481770   102 net.cpp:412] conv6_1_fixed -> conv6_1 (in-place)
I0410 05:50:48.481815   102 net.cpp:160] Setting up conv6_1_fixed
I0410 05:50:48.481820   102 net.cpp:167] Top shape: 1 256 12 15 (46080)
I0410 05:50:48.481824   102 net.cpp:175] Memory required for data: 422565184
I0410 05:50:48.481829   102 layer_factory.hpp:93] Creating layer conv6_2
I0410 05:50:48.481837   102 net.cpp:110] Creating Layer conv6_2
I0410 05:50:48.481842   102 net.cpp:451] conv6_2 <- conv6_1
I0410 05:50:48.481846   102 net.cpp:425] conv6_2 -> conv6_2
I0410 05:50:48.491539   102 layer_factory.hpp:93] Creating layer conv6_2
I0410 05:50:48.500910   102 net.cpp:160] Setting up conv6_2
I0410 05:50:48.500921   102 net.cpp:167] Top shape: 1 512 6 8 (24576)
I0410 05:50:48.500927   102 net.cpp:175] Memory required for data: 422663488
I0410 05:50:48.500936   102 layer_factory.hpp:93] Creating layer conv6_2_relu
I0410 05:50:48.500941   102 net.cpp:110] Creating Layer conv6_2_relu
I0410 05:50:48.500946   102 net.cpp:451] conv6_2_relu <- conv6_2
I0410 05:50:48.500952   102 net.cpp:412] conv6_2_relu -> conv6_2 (in-place)
I0410 05:50:48.500958   102 net.cpp:160] Setting up conv6_2_relu
I0410 05:50:48.500962   102 net.cpp:167] Top shape: 1 512 6 8 (24576)
I0410 05:50:48.500965   102 net.cpp:175] Memory required for data: 422761792
I0410 05:50:48.500968   102 layer_factory.hpp:93] Creating layer conv6_2_fixed
I0410 05:50:48.500973   102 net.cpp:110] Creating Layer conv6_2_fixed
I0410 05:50:48.500977   102 net.cpp:451] conv6_2_fixed <- conv6_2
I0410 05:50:48.500982   102 net.cpp:412] conv6_2_fixed -> conv6_2 (in-place)
I0410 05:50:48.501013   102 net.cpp:160] Setting up conv6_2_fixed
I0410 05:50:48.501018   102 net.cpp:167] Top shape: 1 512 6 8 (24576)
I0410 05:50:48.501021   102 net.cpp:175] Memory required for data: 422860096
I0410 05:50:48.501025   102 layer_factory.hpp:93] Creating layer conv6_2_conv6_2_fixed_0_split
I0410 05:50:48.501031   102 net.cpp:110] Creating Layer conv6_2_conv6_2_fixed_0_split
I0410 05:50:48.501035   102 net.cpp:451] conv6_2_conv6_2_fixed_0_split <- conv6_2
I0410 05:50:48.501040   102 net.cpp:425] conv6_2_conv6_2_fixed_0_split -> conv6_2_conv6_2_fixed_0_split_0
I0410 05:50:48.501046   102 net.cpp:425] conv6_2_conv6_2_fixed_0_split -> conv6_2_conv6_2_fixed_0_split_1
I0410 05:50:48.501051   102 net.cpp:425] conv6_2_conv6_2_fixed_0_split -> conv6_2_conv6_2_fixed_0_split_2
I0410 05:50:48.501056   102 net.cpp:425] conv6_2_conv6_2_fixed_0_split -> conv6_2_conv6_2_fixed_0_split_3
I0410 05:50:48.501108   102 net.cpp:160] Setting up conv6_2_conv6_2_fixed_0_split
I0410 05:50:48.501113   102 net.cpp:167] Top shape: 1 512 6 8 (24576)
I0410 05:50:48.501118   102 net.cpp:167] Top shape: 1 512 6 8 (24576)
I0410 05:50:48.501122   102 net.cpp:167] Top shape: 1 512 6 8 (24576)
I0410 05:50:48.501127   102 net.cpp:167] Top shape: 1 512 6 8 (24576)
I0410 05:50:48.501130   102 net.cpp:175] Memory required for data: 423253312
I0410 05:50:48.501133   102 layer_factory.hpp:93] Creating layer conv7_1
I0410 05:50:48.501142   102 net.cpp:110] Creating Layer conv7_1
I0410 05:50:48.501145   102 net.cpp:451] conv7_1 <- conv6_2_conv6_2_fixed_0_split_0
I0410 05:50:48.501152   102 net.cpp:425] conv7_1 -> conv7_1
I0410 05:50:48.501689   102 layer_factory.hpp:93] Creating layer conv7_1
I0410 05:50:48.502347   102 net.cpp:160] Setting up conv7_1
I0410 05:50:48.502355   102 net.cpp:167] Top shape: 1 128 6 8 (6144)
I0410 05:50:48.502362   102 net.cpp:175] Memory required for data: 423277888
I0410 05:50:48.502367   102 layer_factory.hpp:93] Creating layer conv7_1_relu
I0410 05:50:48.502372   102 net.cpp:110] Creating Layer conv7_1_relu
I0410 05:50:48.502375   102 net.cpp:451] conv7_1_relu <- conv7_1
I0410 05:50:48.502380   102 net.cpp:412] conv7_1_relu -> conv7_1 (in-place)
I0410 05:50:48.502387   102 net.cpp:160] Setting up conv7_1_relu
I0410 05:50:48.502389   102 net.cpp:167] Top shape: 1 128 6 8 (6144)
I0410 05:50:48.502394   102 net.cpp:175] Memory required for data: 423302464
I0410 05:50:48.502398   102 layer_factory.hpp:93] Creating layer conv7_1_fixed
I0410 05:50:48.502403   102 net.cpp:110] Creating Layer conv7_1_fixed
I0410 05:50:48.502405   102 net.cpp:451] conv7_1_fixed <- conv7_1
I0410 05:50:48.502409   102 net.cpp:412] conv7_1_fixed -> conv7_1 (in-place)
I0410 05:50:48.502439   102 net.cpp:160] Setting up conv7_1_fixed
I0410 05:50:48.502442   102 net.cpp:167] Top shape: 1 128 6 8 (6144)
I0410 05:50:48.502447   102 net.cpp:175] Memory required for data: 423327040
I0410 05:50:48.502451   102 layer_factory.hpp:93] Creating layer conv7_2
I0410 05:50:48.502458   102 net.cpp:110] Creating Layer conv7_2
I0410 05:50:48.502462   102 net.cpp:451] conv7_2 <- conv7_1
I0410 05:50:48.502467   102 net.cpp:425] conv7_2 -> conv7_2
I0410 05:50:48.505528   102 layer_factory.hpp:93] Creating layer conv7_2
I0410 05:50:48.508566   102 net.cpp:160] Setting up conv7_2
I0410 05:50:48.508576   102 net.cpp:167] Top shape: 1 256 3 4 (3072)
I0410 05:50:48.508605   102 net.cpp:175] Memory required for data: 423339328
I0410 05:50:48.508611   102 layer_factory.hpp:93] Creating layer conv7_2_relu
I0410 05:50:48.508617   102 net.cpp:110] Creating Layer conv7_2_relu
I0410 05:50:48.508621   102 net.cpp:451] conv7_2_relu <- conv7_2
I0410 05:50:48.508626   102 net.cpp:412] conv7_2_relu -> conv7_2 (in-place)
I0410 05:50:48.508632   102 net.cpp:160] Setting up conv7_2_relu
I0410 05:50:48.508635   102 net.cpp:167] Top shape: 1 256 3 4 (3072)
I0410 05:50:48.508639   102 net.cpp:175] Memory required for data: 423351616
I0410 05:50:48.508642   102 layer_factory.hpp:93] Creating layer conv7_2_fixed
I0410 05:50:48.508647   102 net.cpp:110] Creating Layer conv7_2_fixed
I0410 05:50:48.508651   102 net.cpp:451] conv7_2_fixed <- conv7_2
I0410 05:50:48.508656   102 net.cpp:412] conv7_2_fixed -> conv7_2 (in-place)
I0410 05:50:48.508687   102 net.cpp:160] Setting up conv7_2_fixed
I0410 05:50:48.508693   102 net.cpp:167] Top shape: 1 256 3 4 (3072)
I0410 05:50:48.508697   102 net.cpp:175] Memory required for data: 423363904
I0410 05:50:48.508702   102 layer_factory.hpp:93] Creating layer conv7_2_conv7_2_fixed_0_split
I0410 05:50:48.508708   102 net.cpp:110] Creating Layer conv7_2_conv7_2_fixed_0_split
I0410 05:50:48.508710   102 net.cpp:451] conv7_2_conv7_2_fixed_0_split <- conv7_2
I0410 05:50:48.508715   102 net.cpp:425] conv7_2_conv7_2_fixed_0_split -> conv7_2_conv7_2_fixed_0_split_0
I0410 05:50:48.508723   102 net.cpp:425] conv7_2_conv7_2_fixed_0_split -> conv7_2_conv7_2_fixed_0_split_1
I0410 05:50:48.508728   102 net.cpp:425] conv7_2_conv7_2_fixed_0_split -> conv7_2_conv7_2_fixed_0_split_2
I0410 05:50:48.508765   102 net.cpp:160] Setting up conv7_2_conv7_2_fixed_0_split
I0410 05:50:48.508770   102 net.cpp:167] Top shape: 1 256 3 4 (3072)
I0410 05:50:48.508775   102 net.cpp:167] Top shape: 1 256 3 4 (3072)
I0410 05:50:48.508780   102 net.cpp:167] Top shape: 1 256 3 4 (3072)
I0410 05:50:48.508783   102 net.cpp:175] Memory required for data: 423400768
I0410 05:50:48.508786   102 layer_factory.hpp:93] Creating layer conv4_3_norm_mbox_loc
I0410 05:50:48.508795   102 net.cpp:110] Creating Layer conv4_3_norm_mbox_loc
I0410 05:50:48.508798   102 net.cpp:451] conv4_3_norm_mbox_loc <- conv4_7/expand/bn_conv4_7/expand/bn_fixed_0_split_1
I0410 05:50:48.508805   102 net.cpp:425] conv4_3_norm_mbox_loc -> conv4_3_norm_mbox_loc
I0410 05:50:48.509600   102 layer_factory.hpp:93] Creating layer conv4_3_norm_mbox_loc
I0410 05:50:48.510504   102 net.cpp:160] Setting up conv4_3_norm_mbox_loc
I0410 05:50:48.510511   102 net.cpp:167] Top shape: 1 32 45 60 (86400)
I0410 05:50:48.510517   102 net.cpp:175] Memory required for data: 423746368
I0410 05:50:48.510524   102 layer_factory.hpp:93] Creating layer conv4_3_norm_mbox_loc_perm
I0410 05:50:48.510529   102 net.cpp:110] Creating Layer conv4_3_norm_mbox_loc_perm
I0410 05:50:48.510533   102 net.cpp:451] conv4_3_norm_mbox_loc_perm <- conv4_3_norm_mbox_loc
I0410 05:50:48.510540   102 net.cpp:425] conv4_3_norm_mbox_loc_perm -> conv4_3_norm_mbox_loc_perm
I0410 05:50:48.510620   102 net.cpp:160] Setting up conv4_3_norm_mbox_loc_perm
I0410 05:50:48.510627   102 net.cpp:167] Top shape: 1 45 60 32 (86400)
I0410 05:50:48.510632   102 net.cpp:175] Memory required for data: 424091968
I0410 05:50:48.510634   102 layer_factory.hpp:93] Creating layer conv4_3_norm_mbox_loc_flat
I0410 05:50:48.510639   102 net.cpp:110] Creating Layer conv4_3_norm_mbox_loc_flat
I0410 05:50:48.510643   102 net.cpp:451] conv4_3_norm_mbox_loc_flat <- conv4_3_norm_mbox_loc_perm
I0410 05:50:48.510648   102 net.cpp:425] conv4_3_norm_mbox_loc_flat -> conv4_3_norm_mbox_loc_flat
I0410 05:50:48.510665   102 net.cpp:160] Setting up conv4_3_norm_mbox_loc_flat
I0410 05:50:48.510669   102 net.cpp:167] Top shape: 1 86400 (86400)
I0410 05:50:48.510673   102 net.cpp:175] Memory required for data: 424437568
I0410 05:50:48.510676   102 layer_factory.hpp:93] Creating layer conv4_3_norm_mbox_conf_new
I0410 05:50:48.510684   102 net.cpp:110] Creating Layer conv4_3_norm_mbox_conf_new
I0410 05:50:48.510689   102 net.cpp:451] conv4_3_norm_mbox_conf_new <- conv4_7/expand/bn_conv4_7/expand/bn_fixed_0_split_2
I0410 05:50:48.510694   102 net.cpp:425] conv4_3_norm_mbox_conf_new -> conv4_3_norm_mbox_conf_new
I0410 05:50:48.515309   102 layer_factory.hpp:93] Creating layer conv4_3_norm_mbox_conf_new
I0410 05:50:48.520522   102 net.cpp:160] Setting up conv4_3_norm_mbox_conf_new
I0410 05:50:48.520534   102 net.cpp:167] Top shape: 1 168 45 60 (453600)
I0410 05:50:48.520539   102 net.cpp:175] Memory required for data: 426251968
I0410 05:50:48.520546   102 layer_factory.hpp:93] Creating layer conv4_3_norm_mbox_conf_perm
I0410 05:50:48.520556   102 net.cpp:110] Creating Layer conv4_3_norm_mbox_conf_perm
I0410 05:50:48.520560   102 net.cpp:451] conv4_3_norm_mbox_conf_perm <- conv4_3_norm_mbox_conf_new
I0410 05:50:48.520567   102 net.cpp:425] conv4_3_norm_mbox_conf_perm -> conv4_3_norm_mbox_conf_perm
I0410 05:50:48.520665   102 net.cpp:160] Setting up conv4_3_norm_mbox_conf_perm
I0410 05:50:48.520679   102 net.cpp:167] Top shape: 1 45 60 168 (453600)
I0410 05:50:48.520689   102 net.cpp:175] Memory required for data: 428066368
I0410 05:50:48.520694   102 layer_factory.hpp:93] Creating layer conv4_3_norm_mbox_conf_flat
I0410 05:50:48.520701   102 net.cpp:110] Creating Layer conv4_3_norm_mbox_conf_flat
I0410 05:50:48.520706   102 net.cpp:451] conv4_3_norm_mbox_conf_flat <- conv4_3_norm_mbox_conf_perm
I0410 05:50:48.520714   102 net.cpp:425] conv4_3_norm_mbox_conf_flat -> conv4_3_norm_mbox_conf_flat
I0410 05:50:48.520745   102 net.cpp:160] Setting up conv4_3_norm_mbox_conf_flat
I0410 05:50:48.520752   102 net.cpp:167] Top shape: 1 453600 (453600)
I0410 05:50:48.520759   102 net.cpp:175] Memory required for data: 429880768
I0410 05:50:48.520764   102 layer_factory.hpp:93] Creating layer conv4_3_norm_mbox_priorbox
I0410 05:50:48.520773   102 net.cpp:110] Creating Layer conv4_3_norm_mbox_priorbox
I0410 05:50:48.520777   102 net.cpp:451] conv4_3_norm_mbox_priorbox <- conv4_7/expand/bn_conv4_7/expand/bn_fixed_0_split_3
I0410 05:50:48.520782   102 net.cpp:451] conv4_3_norm_mbox_priorbox <- data_data_fixed_0_split_1
I0410 05:50:48.520787   102 net.cpp:425] conv4_3_norm_mbox_priorbox -> conv4_3_norm_mbox_priorbox
I0410 05:50:48.520812   102 net.cpp:160] Setting up conv4_3_norm_mbox_priorbox
I0410 05:50:48.520815   102 net.cpp:167] Top shape: 1 2 86400 (172800)
I0410 05:50:48.520820   102 net.cpp:175] Memory required for data: 430571968
I0410 05:50:48.520823   102 layer_factory.hpp:93] Creating layer fc7_mbox_loc
I0410 05:50:48.520831   102 net.cpp:110] Creating Layer fc7_mbox_loc
I0410 05:50:48.520838   102 net.cpp:451] fc7_mbox_loc <- conv5_3/expand/bn_conv5_3/expand/bn_fixed_0_split_1
I0410 05:50:48.520848   102 net.cpp:425] fc7_mbox_loc -> fc7_mbox_loc
I0410 05:50:48.522305   102 layer_factory.hpp:93] Creating layer fc7_mbox_loc
I0410 05:50:48.523660   102 net.cpp:160] Setting up fc7_mbox_loc
I0410 05:50:48.523671   102 net.cpp:167] Top shape: 1 24 23 30 (16560)
I0410 05:50:48.523677   102 net.cpp:175] Memory required for data: 430638208
I0410 05:50:48.523684   102 layer_factory.hpp:93] Creating layer fc7_mbox_loc_perm
I0410 05:50:48.523691   102 net.cpp:110] Creating Layer fc7_mbox_loc_perm
I0410 05:50:48.523695   102 net.cpp:451] fc7_mbox_loc_perm <- fc7_mbox_loc
I0410 05:50:48.523701   102 net.cpp:425] fc7_mbox_loc_perm -> fc7_mbox_loc_perm
I0410 05:50:48.523784   102 net.cpp:160] Setting up fc7_mbox_loc_perm
I0410 05:50:48.523790   102 net.cpp:167] Top shape: 1 23 30 24 (16560)
I0410 05:50:48.523795   102 net.cpp:175] Memory required for data: 430704448
I0410 05:50:48.523798   102 layer_factory.hpp:93] Creating layer fc7_mbox_loc_flat
I0410 05:50:48.523803   102 net.cpp:110] Creating Layer fc7_mbox_loc_flat
I0410 05:50:48.523808   102 net.cpp:451] fc7_mbox_loc_flat <- fc7_mbox_loc_perm
I0410 05:50:48.523811   102 net.cpp:425] fc7_mbox_loc_flat -> fc7_mbox_loc_flat
I0410 05:50:48.523829   102 net.cpp:160] Setting up fc7_mbox_loc_flat
I0410 05:50:48.523833   102 net.cpp:167] Top shape: 1 16560 (16560)
I0410 05:50:48.523838   102 net.cpp:175] Memory required for data: 430770688
I0410 05:50:48.523840   102 layer_factory.hpp:93] Creating layer fc7_mbox_conf_new
I0410 05:50:48.523849   102 net.cpp:110] Creating Layer fc7_mbox_conf_new
I0410 05:50:48.523852   102 net.cpp:451] fc7_mbox_conf_new <- conv5_3/expand/bn_conv5_3/expand/bn_fixed_0_split_2
I0410 05:50:48.523857   102 net.cpp:425] fc7_mbox_conf_new -> fc7_mbox_conf_new
I0410 05:50:48.529086   102 layer_factory.hpp:93] Creating layer fc7_mbox_conf_new
I0410 05:50:48.534421   102 net.cpp:160] Setting up fc7_mbox_conf_new
I0410 05:50:48.534432   102 net.cpp:167] Top shape: 1 126 23 30 (86940)
I0410 05:50:48.534438   102 net.cpp:175] Memory required for data: 431118448
I0410 05:50:48.534446   102 layer_factory.hpp:93] Creating layer fc7_mbox_conf_perm
I0410 05:50:48.534452   102 net.cpp:110] Creating Layer fc7_mbox_conf_perm
I0410 05:50:48.534456   102 net.cpp:451] fc7_mbox_conf_perm <- fc7_mbox_conf_new
I0410 05:50:48.534462   102 net.cpp:425] fc7_mbox_conf_perm -> fc7_mbox_conf_perm
I0410 05:50:48.534545   102 net.cpp:160] Setting up fc7_mbox_conf_perm
I0410 05:50:48.534551   102 net.cpp:167] Top shape: 1 23 30 126 (86940)
I0410 05:50:48.534556   102 net.cpp:175] Memory required for data: 431466208
I0410 05:50:48.534559   102 layer_factory.hpp:93] Creating layer fc7_mbox_conf_flat
I0410 05:50:48.534564   102 net.cpp:110] Creating Layer fc7_mbox_conf_flat
I0410 05:50:48.534567   102 net.cpp:451] fc7_mbox_conf_flat <- fc7_mbox_conf_perm
I0410 05:50:48.534572   102 net.cpp:425] fc7_mbox_conf_flat -> fc7_mbox_conf_flat
I0410 05:50:48.534591   102 net.cpp:160] Setting up fc7_mbox_conf_flat
I0410 05:50:48.534595   102 net.cpp:167] Top shape: 1 86940 (86940)
I0410 05:50:48.534600   102 net.cpp:175] Memory required for data: 431813968
I0410 05:50:48.534602   102 layer_factory.hpp:93] Creating layer fc7_mbox_priorbox
I0410 05:50:48.534608   102 net.cpp:110] Creating Layer fc7_mbox_priorbox
I0410 05:50:48.534612   102 net.cpp:451] fc7_mbox_priorbox <- conv5_3/expand/bn_conv5_3/expand/bn_fixed_0_split_3
I0410 05:50:48.534616   102 net.cpp:451] fc7_mbox_priorbox <- data_data_fixed_0_split_2
I0410 05:50:48.534622   102 net.cpp:425] fc7_mbox_priorbox -> fc7_mbox_priorbox
I0410 05:50:48.534646   102 net.cpp:160] Setting up fc7_mbox_priorbox
I0410 05:50:48.534654   102 net.cpp:167] Top shape: 1 2 16560 (33120)
I0410 05:50:48.534659   102 net.cpp:175] Memory required for data: 431946448
I0410 05:50:48.534662   102 layer_factory.hpp:93] Creating layer conv6_2_mbox_loc
I0410 05:50:48.534670   102 net.cpp:110] Creating Layer conv6_2_mbox_loc
I0410 05:50:48.534674   102 net.cpp:451] conv6_2_mbox_loc <- fc7_fc7_fixed_0_split_1
I0410 05:50:48.534680   102 net.cpp:425] conv6_2_mbox_loc -> conv6_2_mbox_loc
I0410 05:50:48.537590   102 layer_factory.hpp:93] Creating layer conv6_2_mbox_loc
I0410 05:50:48.540765   102 net.cpp:160] Setting up conv6_2_mbox_loc
I0410 05:50:48.540776   102 net.cpp:167] Top shape: 1 24 12 15 (4320)
I0410 05:50:48.540781   102 net.cpp:175] Memory required for data: 431963728
I0410 05:50:48.540787   102 layer_factory.hpp:93] Creating layer conv6_2_mbox_loc_perm
I0410 05:50:48.540794   102 net.cpp:110] Creating Layer conv6_2_mbox_loc_perm
I0410 05:50:48.540799   102 net.cpp:451] conv6_2_mbox_loc_perm <- conv6_2_mbox_loc
I0410 05:50:48.540804   102 net.cpp:425] conv6_2_mbox_loc_perm -> conv6_2_mbox_loc_perm
I0410 05:50:48.540887   102 net.cpp:160] Setting up conv6_2_mbox_loc_perm
I0410 05:50:48.540894   102 net.cpp:167] Top shape: 1 12 15 24 (4320)
I0410 05:50:48.540899   102 net.cpp:175] Memory required for data: 431981008
I0410 05:50:48.540901   102 layer_factory.hpp:93] Creating layer conv6_2_mbox_loc_flat
I0410 05:50:48.540906   102 net.cpp:110] Creating Layer conv6_2_mbox_loc_flat
I0410 05:50:48.540910   102 net.cpp:451] conv6_2_mbox_loc_flat <- conv6_2_mbox_loc_perm
I0410 05:50:48.540915   102 net.cpp:425] conv6_2_mbox_loc_flat -> conv6_2_mbox_loc_flat
I0410 05:50:48.540933   102 net.cpp:160] Setting up conv6_2_mbox_loc_flat
I0410 05:50:48.540936   102 net.cpp:167] Top shape: 1 4320 (4320)
I0410 05:50:48.540940   102 net.cpp:175] Memory required for data: 431998288
I0410 05:50:48.540944   102 layer_factory.hpp:93] Creating layer conv6_2_mbox_conf_new
I0410 05:50:48.540952   102 net.cpp:110] Creating Layer conv6_2_mbox_conf_new
I0410 05:50:48.540956   102 net.cpp:451] conv6_2_mbox_conf_new <- fc7_fc7_fixed_0_split_2
I0410 05:50:48.540961   102 net.cpp:425] conv6_2_mbox_conf_new -> conv6_2_mbox_conf_new
I0410 05:50:48.552161   102 layer_factory.hpp:93] Creating layer conv6_2_mbox_conf_new
I0410 05:50:48.563468   102 net.cpp:160] Setting up conv6_2_mbox_conf_new
I0410 05:50:48.563480   102 net.cpp:167] Top shape: 1 126 12 15 (22680)
I0410 05:50:48.563488   102 net.cpp:175] Memory required for data: 432089008
I0410 05:50:48.563496   102 layer_factory.hpp:93] Creating layer conv6_2_mbox_conf_perm
I0410 05:50:48.563505   102 net.cpp:110] Creating Layer conv6_2_mbox_conf_perm
I0410 05:50:48.563510   102 net.cpp:451] conv6_2_mbox_conf_perm <- conv6_2_mbox_conf_new
I0410 05:50:48.563518   102 net.cpp:425] conv6_2_mbox_conf_perm -> conv6_2_mbox_conf_perm
I0410 05:50:48.563601   102 net.cpp:160] Setting up conv6_2_mbox_conf_perm
I0410 05:50:48.563606   102 net.cpp:167] Top shape: 1 12 15 126 (22680)
I0410 05:50:48.563611   102 net.cpp:175] Memory required for data: 432179728
I0410 05:50:48.563614   102 layer_factory.hpp:93] Creating layer conv6_2_mbox_conf_flat
I0410 05:50:48.563621   102 net.cpp:110] Creating Layer conv6_2_mbox_conf_flat
I0410 05:50:48.563623   102 net.cpp:451] conv6_2_mbox_conf_flat <- conv6_2_mbox_conf_perm
I0410 05:50:48.563628   102 net.cpp:425] conv6_2_mbox_conf_flat -> conv6_2_mbox_conf_flat
I0410 05:50:48.563647   102 net.cpp:160] Setting up conv6_2_mbox_conf_flat
I0410 05:50:48.563652   102 net.cpp:167] Top shape: 1 22680 (22680)
I0410 05:50:48.563655   102 net.cpp:175] Memory required for data: 432270448
I0410 05:50:48.563658   102 layer_factory.hpp:93] Creating layer conv6_2_mbox_priorbox
I0410 05:50:48.563665   102 net.cpp:110] Creating Layer conv6_2_mbox_priorbox
I0410 05:50:48.563669   102 net.cpp:451] conv6_2_mbox_priorbox <- fc7_fc7_fixed_0_split_3
I0410 05:50:48.563673   102 net.cpp:451] conv6_2_mbox_priorbox <- data_data_fixed_0_split_3
I0410 05:50:48.563679   102 net.cpp:425] conv6_2_mbox_priorbox -> conv6_2_mbox_priorbox
I0410 05:50:48.563699   102 net.cpp:160] Setting up conv6_2_mbox_priorbox
I0410 05:50:48.563705   102 net.cpp:167] Top shape: 1 2 4320 (8640)
I0410 05:50:48.563709   102 net.cpp:175] Memory required for data: 432305008
I0410 05:50:48.563712   102 layer_factory.hpp:93] Creating layer conv7_2_mbox_loc
I0410 05:50:48.563720   102 net.cpp:110] Creating Layer conv7_2_mbox_loc
I0410 05:50:48.563724   102 net.cpp:451] conv7_2_mbox_loc <- conv6_2_conv6_2_fixed_0_split_1
I0410 05:50:48.563730   102 net.cpp:425] conv7_2_mbox_loc -> conv7_2_mbox_loc
I0410 05:50:48.564525   102 layer_factory.hpp:93] Creating layer conv7_2_mbox_loc
I0410 05:50:48.565454   102 net.cpp:160] Setting up conv7_2_mbox_loc
I0410 05:50:48.565461   102 net.cpp:167] Top shape: 1 24 6 8 (1152)
I0410 05:50:48.565466   102 net.cpp:175] Memory required for data: 432309616
I0410 05:50:48.565472   102 layer_factory.hpp:93] Creating layer conv7_2_mbox_loc_perm
I0410 05:50:48.565479   102 net.cpp:110] Creating Layer conv7_2_mbox_loc_perm
I0410 05:50:48.565482   102 net.cpp:451] conv7_2_mbox_loc_perm <- conv7_2_mbox_loc
I0410 05:50:48.565487   102 net.cpp:425] conv7_2_mbox_loc_perm -> conv7_2_mbox_loc_perm
I0410 05:50:48.565568   102 net.cpp:160] Setting up conv7_2_mbox_loc_perm
I0410 05:50:48.565574   102 net.cpp:167] Top shape: 1 6 8 24 (1152)
I0410 05:50:48.565578   102 net.cpp:175] Memory required for data: 432314224
I0410 05:50:48.565582   102 layer_factory.hpp:93] Creating layer conv7_2_mbox_loc_flat
I0410 05:50:48.565587   102 net.cpp:110] Creating Layer conv7_2_mbox_loc_flat
I0410 05:50:48.565590   102 net.cpp:451] conv7_2_mbox_loc_flat <- conv7_2_mbox_loc_perm
I0410 05:50:48.565595   102 net.cpp:425] conv7_2_mbox_loc_flat -> conv7_2_mbox_loc_flat
I0410 05:50:48.565613   102 net.cpp:160] Setting up conv7_2_mbox_loc_flat
I0410 05:50:48.565616   102 net.cpp:167] Top shape: 1 1152 (1152)
I0410 05:50:48.565620   102 net.cpp:175] Memory required for data: 432318832
I0410 05:50:48.565623   102 layer_factory.hpp:93] Creating layer conv7_2_mbox_conf_new
I0410 05:50:48.565630   102 net.cpp:110] Creating Layer conv7_2_mbox_conf_new
I0410 05:50:48.565634   102 net.cpp:451] conv7_2_mbox_conf_new <- conv6_2_conv6_2_fixed_0_split_2
I0410 05:50:48.565640   102 net.cpp:425] conv7_2_mbox_conf_new -> conv7_2_mbox_conf_new
I0410 05:50:48.570322   102 layer_factory.hpp:93] Creating layer conv7_2_mbox_conf_new
I0410 05:50:48.575327   102 net.cpp:160] Setting up conv7_2_mbox_conf_new
I0410 05:50:48.575338   102 net.cpp:167] Top shape: 1 126 6 8 (6048)
I0410 05:50:48.575359   102 net.cpp:175] Memory required for data: 432343024
I0410 05:50:48.575366   102 layer_factory.hpp:93] Creating layer conv7_2_mbox_conf_perm
I0410 05:50:48.575372   102 net.cpp:110] Creating Layer conv7_2_mbox_conf_perm
I0410 05:50:48.575377   102 net.cpp:451] conv7_2_mbox_conf_perm <- conv7_2_mbox_conf_new
I0410 05:50:48.575382   102 net.cpp:425] conv7_2_mbox_conf_perm -> conv7_2_mbox_conf_perm
I0410 05:50:48.575484   102 net.cpp:160] Setting up conv7_2_mbox_conf_perm
I0410 05:50:48.575490   102 net.cpp:167] Top shape: 1 6 8 126 (6048)
I0410 05:50:48.575496   102 net.cpp:175] Memory required for data: 432367216
I0410 05:50:48.575500   102 layer_factory.hpp:93] Creating layer conv7_2_mbox_conf_flat
I0410 05:50:48.575505   102 net.cpp:110] Creating Layer conv7_2_mbox_conf_flat
I0410 05:50:48.575508   102 net.cpp:451] conv7_2_mbox_conf_flat <- conv7_2_mbox_conf_perm
I0410 05:50:48.575513   102 net.cpp:425] conv7_2_mbox_conf_flat -> conv7_2_mbox_conf_flat
I0410 05:50:48.575536   102 net.cpp:160] Setting up conv7_2_mbox_conf_flat
I0410 05:50:48.575539   102 net.cpp:167] Top shape: 1 6048 (6048)
I0410 05:50:48.575543   102 net.cpp:175] Memory required for data: 432391408
I0410 05:50:48.575546   102 layer_factory.hpp:93] Creating layer conv7_2_mbox_priorbox
I0410 05:50:48.575553   102 net.cpp:110] Creating Layer conv7_2_mbox_priorbox
I0410 05:50:48.575556   102 net.cpp:451] conv7_2_mbox_priorbox <- conv6_2_conv6_2_fixed_0_split_3
I0410 05:50:48.575562   102 net.cpp:451] conv7_2_mbox_priorbox <- data_data_fixed_0_split_4
I0410 05:50:48.575567   102 net.cpp:425] conv7_2_mbox_priorbox -> conv7_2_mbox_priorbox
I0410 05:50:48.575587   102 net.cpp:160] Setting up conv7_2_mbox_priorbox
I0410 05:50:48.575590   102 net.cpp:167] Top shape: 1 2 1152 (2304)
I0410 05:50:48.575595   102 net.cpp:175] Memory required for data: 432400624
I0410 05:50:48.575598   102 layer_factory.hpp:93] Creating layer conv8_2_mbox_loc
I0410 05:50:48.575606   102 net.cpp:110] Creating Layer conv8_2_mbox_loc
I0410 05:50:48.575610   102 net.cpp:451] conv8_2_mbox_loc <- conv7_2_conv7_2_fixed_0_split_0
I0410 05:50:48.575616   102 net.cpp:425] conv8_2_mbox_loc -> conv8_2_mbox_loc
I0410 05:50:48.575994   102 layer_factory.hpp:93] Creating layer conv8_2_mbox_loc
I0410 05:50:48.576514   102 net.cpp:160] Setting up conv8_2_mbox_loc
I0410 05:50:48.576521   102 net.cpp:167] Top shape: 1 16 3 4 (192)
I0410 05:50:48.576525   102 net.cpp:175] Memory required for data: 432401392
I0410 05:50:48.576531   102 layer_factory.hpp:93] Creating layer conv8_2_mbox_loc_perm
I0410 05:50:48.576539   102 net.cpp:110] Creating Layer conv8_2_mbox_loc_perm
I0410 05:50:48.576542   102 net.cpp:451] conv8_2_mbox_loc_perm <- conv8_2_mbox_loc
I0410 05:50:48.576547   102 net.cpp:425] conv8_2_mbox_loc_perm -> conv8_2_mbox_loc_perm
I0410 05:50:48.576637   102 net.cpp:160] Setting up conv8_2_mbox_loc_perm
I0410 05:50:48.576644   102 net.cpp:167] Top shape: 1 3 4 16 (192)
I0410 05:50:48.576649   102 net.cpp:175] Memory required for data: 432402160
I0410 05:50:48.576653   102 layer_factory.hpp:93] Creating layer conv8_2_mbox_loc_flat
I0410 05:50:48.576658   102 net.cpp:110] Creating Layer conv8_2_mbox_loc_flat
I0410 05:50:48.576660   102 net.cpp:451] conv8_2_mbox_loc_flat <- conv8_2_mbox_loc_perm
I0410 05:50:48.576665   102 net.cpp:425] conv8_2_mbox_loc_flat -> conv8_2_mbox_loc_flat
I0410 05:50:48.576684   102 net.cpp:160] Setting up conv8_2_mbox_loc_flat
I0410 05:50:48.576689   102 net.cpp:167] Top shape: 1 192 (192)
I0410 05:50:48.576692   102 net.cpp:175] Memory required for data: 432402928
I0410 05:50:48.576696   102 layer_factory.hpp:93] Creating layer conv8_2_mbox_conf_new
I0410 05:50:48.576704   102 net.cpp:110] Creating Layer conv8_2_mbox_conf_new
I0410 05:50:48.576707   102 net.cpp:451] conv8_2_mbox_conf_new <- conv7_2_conv7_2_fixed_0_split_1
I0410 05:50:48.576712   102 net.cpp:425] conv8_2_mbox_conf_new -> conv8_2_mbox_conf_new
I0410 05:50:48.577967   102 layer_factory.hpp:93] Creating layer conv8_2_mbox_conf_new
I0410 05:50:48.579342   102 net.cpp:160] Setting up conv8_2_mbox_conf_new
I0410 05:50:48.579349   102 net.cpp:167] Top shape: 1 84 3 4 (1008)
I0410 05:50:48.579355   102 net.cpp:175] Memory required for data: 432406960
I0410 05:50:48.579360   102 layer_factory.hpp:93] Creating layer conv8_2_mbox_conf_perm
I0410 05:50:48.579367   102 net.cpp:110] Creating Layer conv8_2_mbox_conf_perm
I0410 05:50:48.579371   102 net.cpp:451] conv8_2_mbox_conf_perm <- conv8_2_mbox_conf_new
I0410 05:50:48.579376   102 net.cpp:425] conv8_2_mbox_conf_perm -> conv8_2_mbox_conf_perm
I0410 05:50:48.579457   102 net.cpp:160] Setting up conv8_2_mbox_conf_perm
I0410 05:50:48.579463   102 net.cpp:167] Top shape: 1 3 4 84 (1008)
I0410 05:50:48.579466   102 net.cpp:175] Memory required for data: 432410992
I0410 05:50:48.579469   102 layer_factory.hpp:93] Creating layer conv8_2_mbox_conf_flat
I0410 05:50:48.579474   102 net.cpp:110] Creating Layer conv8_2_mbox_conf_flat
I0410 05:50:48.579478   102 net.cpp:451] conv8_2_mbox_conf_flat <- conv8_2_mbox_conf_perm
I0410 05:50:48.579483   102 net.cpp:425] conv8_2_mbox_conf_flat -> conv8_2_mbox_conf_flat
I0410 05:50:48.579500   102 net.cpp:160] Setting up conv8_2_mbox_conf_flat
I0410 05:50:48.579504   102 net.cpp:167] Top shape: 1 1008 (1008)
I0410 05:50:48.579509   102 net.cpp:175] Memory required for data: 432415024
I0410 05:50:48.579511   102 layer_factory.hpp:93] Creating layer conv8_2_mbox_priorbox
I0410 05:50:48.579517   102 net.cpp:110] Creating Layer conv8_2_mbox_priorbox
I0410 05:50:48.579521   102 net.cpp:451] conv8_2_mbox_priorbox <- conv7_2_conv7_2_fixed_0_split_2
I0410 05:50:48.579525   102 net.cpp:451] conv8_2_mbox_priorbox <- data_data_fixed_0_split_5
I0410 05:50:48.579530   102 net.cpp:425] conv8_2_mbox_priorbox -> conv8_2_mbox_priorbox
I0410 05:50:48.579550   102 net.cpp:160] Setting up conv8_2_mbox_priorbox
I0410 05:50:48.579555   102 net.cpp:167] Top shape: 1 2 192 (384)
I0410 05:50:48.579560   102 net.cpp:175] Memory required for data: 432416560
I0410 05:50:48.579563   102 layer_factory.hpp:93] Creating layer mbox_loc
I0410 05:50:48.579568   102 net.cpp:110] Creating Layer mbox_loc
I0410 05:50:48.579572   102 net.cpp:451] mbox_loc <- conv4_3_norm_mbox_loc_flat
I0410 05:50:48.579577   102 net.cpp:451] mbox_loc <- fc7_mbox_loc_flat
I0410 05:50:48.579581   102 net.cpp:451] mbox_loc <- conv6_2_mbox_loc_flat
I0410 05:50:48.579586   102 net.cpp:451] mbox_loc <- conv7_2_mbox_loc_flat
I0410 05:50:48.579588   102 net.cpp:451] mbox_loc <- conv8_2_mbox_loc_flat
I0410 05:50:48.579593   102 net.cpp:425] mbox_loc -> mbox_loc
I0410 05:50:48.579612   102 net.cpp:160] Setting up mbox_loc
I0410 05:50:48.579615   102 net.cpp:167] Top shape: 1 108624 (108624)
I0410 05:50:48.579620   102 net.cpp:175] Memory required for data: 432851056
I0410 05:50:48.579623   102 layer_factory.hpp:93] Creating layer mbox_loc_fixed
I0410 05:50:48.579628   102 net.cpp:110] Creating Layer mbox_loc_fixed
I0410 05:50:48.579632   102 net.cpp:451] mbox_loc_fixed <- mbox_loc
I0410 05:50:48.579636   102 net.cpp:412] mbox_loc_fixed -> mbox_loc (in-place)
I0410 05:50:48.579665   102 net.cpp:160] Setting up mbox_loc_fixed
I0410 05:50:48.579671   102 net.cpp:167] Top shape: 1 108624 (108624)
I0410 05:50:48.579675   102 net.cpp:175] Memory required for data: 433285552
I0410 05:50:48.579680   102 layer_factory.hpp:93] Creating layer mbox_conf
I0410 05:50:48.579685   102 net.cpp:110] Creating Layer mbox_conf
I0410 05:50:48.579689   102 net.cpp:451] mbox_conf <- conv4_3_norm_mbox_conf_flat
I0410 05:50:48.579694   102 net.cpp:451] mbox_conf <- fc7_mbox_conf_flat
I0410 05:50:48.579697   102 net.cpp:451] mbox_conf <- conv6_2_mbox_conf_flat
I0410 05:50:48.579701   102 net.cpp:451] mbox_conf <- conv7_2_mbox_conf_flat
I0410 05:50:48.579704   102 net.cpp:451] mbox_conf <- conv8_2_mbox_conf_flat
I0410 05:50:48.579710   102 net.cpp:425] mbox_conf -> mbox_conf
I0410 05:50:48.579727   102 net.cpp:160] Setting up mbox_conf
I0410 05:50:48.579731   102 net.cpp:167] Top shape: 1 570276 (570276)
I0410 05:50:48.579735   102 net.cpp:175] Memory required for data: 435566656
I0410 05:50:48.579738   102 layer_factory.hpp:93] Creating layer mbox_conf_fixed
I0410 05:50:48.579743   102 net.cpp:110] Creating Layer mbox_conf_fixed
I0410 05:50:48.579747   102 net.cpp:451] mbox_conf_fixed <- mbox_conf
I0410 05:50:48.579751   102 net.cpp:412] mbox_conf_fixed -> mbox_conf (in-place)
I0410 05:50:48.579782   102 net.cpp:160] Setting up mbox_conf_fixed
I0410 05:50:48.579788   102 net.cpp:167] Top shape: 1 570276 (570276)
I0410 05:50:48.579792   102 net.cpp:175] Memory required for data: 437847760
I0410 05:50:48.579797   102 layer_factory.hpp:93] Creating layer mbox_priorbox
I0410 05:50:48.579802   102 net.cpp:110] Creating Layer mbox_priorbox
I0410 05:50:48.579805   102 net.cpp:451] mbox_priorbox <- conv4_3_norm_mbox_priorbox
I0410 05:50:48.579809   102 net.cpp:451] mbox_priorbox <- fc7_mbox_priorbox
I0410 05:50:48.579813   102 net.cpp:451] mbox_priorbox <- conv6_2_mbox_priorbox
I0410 05:50:48.579818   102 net.cpp:451] mbox_priorbox <- conv7_2_mbox_priorbox
I0410 05:50:48.579820   102 net.cpp:451] mbox_priorbox <- conv8_2_mbox_priorbox
I0410 05:50:48.579825   102 net.cpp:425] mbox_priorbox -> mbox_priorbox
I0410 05:50:48.579843   102 net.cpp:160] Setting up mbox_priorbox
I0410 05:50:48.579846   102 net.cpp:167] Top shape: 1 2 108624 (217248)
I0410 05:50:48.579850   102 net.cpp:175] Memory required for data: 438716752
I0410 05:50:48.579854   102 layer_factory.hpp:93] Creating layer mbox_priorbox_fixed
I0410 05:50:48.579859   102 net.cpp:110] Creating Layer mbox_priorbox_fixed
I0410 05:50:48.579862   102 net.cpp:451] mbox_priorbox_fixed <- mbox_priorbox
I0410 05:50:48.579866   102 net.cpp:412] mbox_priorbox_fixed -> mbox_priorbox (in-place)
I0410 05:50:48.579893   102 net.cpp:160] Setting up mbox_priorbox_fixed
I0410 05:50:48.579898   102 net.cpp:167] Top shape: 1 2 108624 (217248)
I0410 05:50:48.579903   102 net.cpp:175] Memory required for data: 439585744
I0410 05:50:48.579907   102 layer_factory.hpp:93] Creating layer mbox_conf_reshape
I0410 05:50:48.579921   102 net.cpp:110] Creating Layer mbox_conf_reshape
I0410 05:50:48.579924   102 net.cpp:451] mbox_conf_reshape <- mbox_conf
I0410 05:50:48.579929   102 net.cpp:425] mbox_conf_reshape -> mbox_conf_reshape
I0410 05:50:48.579950   102 net.cpp:160] Setting up mbox_conf_reshape
I0410 05:50:48.579958   102 net.cpp:167] Top shape: 1 27156 21 (570276)
I0410 05:50:48.579962   102 net.cpp:175] Memory required for data: 441866848
I0410 05:50:48.579967   102 layer_factory.hpp:93] Creating layer mbox_conf_softmax
I0410 05:50:48.579972   102 net.cpp:110] Creating Layer mbox_conf_softmax
I0410 05:50:48.579975   102 net.cpp:451] mbox_conf_softmax <- mbox_conf_reshape
I0410 05:50:48.579980   102 net.cpp:425] mbox_conf_softmax -> mbox_conf_softmax
I0410 05:50:48.580039   102 net.cpp:160] Setting up mbox_conf_softmax
I0410 05:50:48.580044   102 net.cpp:167] Top shape: 1 27156 21 (570276)
I0410 05:50:48.580049   102 net.cpp:175] Memory required for data: 444147952
I0410 05:50:48.580052   102 layer_factory.hpp:93] Creating layer mbox_conf_flatten
I0410 05:50:48.580057   102 net.cpp:110] Creating Layer mbox_conf_flatten
I0410 05:50:48.580061   102 net.cpp:451] mbox_conf_flatten <- mbox_conf_softmax
I0410 05:50:48.580066   102 net.cpp:425] mbox_conf_flatten -> mbox_conf_flatten
I0410 05:50:48.580083   102 net.cpp:160] Setting up mbox_conf_flatten
I0410 05:50:48.580090   102 net.cpp:167] Top shape: 1 570276 (570276)
I0410 05:50:48.580094   102 net.cpp:175] Memory required for data: 446429056
I0410 05:50:48.580097   102 layer_factory.hpp:93] Creating layer detection_out
I0410 05:50:48.580109   102 net.cpp:110] Creating Layer detection_out
I0410 05:50:48.580113   102 net.cpp:451] detection_out <- mbox_loc
I0410 05:50:48.580117   102 net.cpp:451] detection_out <- mbox_conf_flatten
I0410 05:50:48.580121   102 net.cpp:451] detection_out <- mbox_priorbox
I0410 05:50:48.580127   102 net.cpp:425] detection_out -> detection_out
I0410 05:50:48.585901   102 net.cpp:160] Setting up detection_out
I0410 05:50:48.585911   102 net.cpp:167] Top shape: 1 1 1 7 (7)
I0410 05:50:48.585916   102 net.cpp:175] Memory required for data: 446429084
I0410 05:50:48.585919   102 layer_factory.hpp:93] Creating layer detection_eval
I0410 05:50:48.585927   102 net.cpp:110] Creating Layer detection_eval
I0410 05:50:48.585932   102 net.cpp:451] detection_eval <- detection_out
I0410 05:50:48.585935   102 net.cpp:451] detection_eval <- label
I0410 05:50:48.585940   102 net.cpp:425] detection_eval -> detection_eval
I0410 05:50:48.587509   102 net.cpp:160] Setting up detection_eval
I0410 05:50:48.587517   102 net.cpp:167] Top shape: 1 1 21 5 (105)
I0410 05:50:48.587522   102 net.cpp:175] Memory required for data: 446429504
I0410 05:50:48.587524   102 net.cpp:238] detection_eval does not need backward computation.
I0410 05:50:48.587528   102 net.cpp:238] detection_out does not need backward computation.
I0410 05:50:48.587532   102 net.cpp:238] mbox_conf_flatten does not need backward computation.
I0410 05:50:48.587535   102 net.cpp:238] mbox_conf_softmax does not need backward computation.
…
