…
  name: "data"
  type: "AnnotatedData"
  top: "data"
  top: "label"
  include {
    phase: TEST
  }
  transform_param {
    mean_value: 104
    mean_value: 117
    mean_value: 123
    resize_param {
      prob: 1
      resize_mode: WARP
      height: 360
      width: 480
      interp_mode: LINEAR
    }
  }
  data_param {
    source: "/data2/datasets/VOCdevkit/VOC0712/lmdb/VOC0712_test_lmdb"
    batch_size: 1
    backend: LMDB
  }
  annotated_data_param {
    batch_sampler {
    }
    label_map_file: "/workspace/SSD/data/labelmap_voc.prototxt"
  }
}
layer {
  name: "conv1"
  type: "Convolution"
  bottom: "data"
  top: "conv1"
  param {
    lr_mult: 1
    decay_mult: 1
  }
  convolution_param {
    num_output: 32
    bias_term: false
    pad: 1
    kernel_size: 3
    stride: 2
    weight_filler {
      type: "msra"
    }
  }
}
layer {
  name: "conv1/bn"
  type: "BatchNorm"
  bottom: "conv1"
  top: "conv1/bn"
  param {
    lr_mult: 1
    decay_mult: 0
  }
  param {
    lr_mult: 1
    decay_mult: 0
  }
  param {
    lr_mult: 0
    decay_mult: 0
  }
  param {
    lr_mult: 0
    decay_mult: 0
  }
  batch_norm_param {
    use_global_stats: true
    eps: 1e-05
    scale_filler {
      type: "constant"
      value: 1
    }
    bias_filler {
      type: "constant"
      value: 0
    }
  }
}
layer {
  name: "relu1"
  type: "ReLU"
  bottom: "conv1/bn"
  top: "conv1/bn"
}
layer {
  name: "conv2_1/expand"
  type: "Convolution"
  bottom: "conv1/bn"
  top: "conv2_1/expand"
  param {
    lr_mult: 1
    decay_mult: 1
  }
  convolution_param {
    num_output: 32
    bias_term: false
    kernel_size: 1
    weight_filler {
      type: "msra"
    }
  }
}
layer {
  name: "conv2_1/expand/bn"
  type: "BatchNorm"
  bottom: "conv2_1/expand"
  top: "conv2_1/expand/bn"
  param {
    lr_mult: 1
    decay_mult: 0
  }
  param {
    lr_mult: 1
    decay_mult: 0
  }
  param {
    lr_mult: 0
    decay_mult: 0
  }
  param {
    lr_mult: 0
    decay_mult: 0
  }
  batch_norm_param {
    use_global_stats: true
    eps: 1e-05
    scale_filler {
      type: "constant"
      value: 1
    }
    bias_filler {
      type: "constant"
      value: 0
    }
  }
}
layer {
  name: "relu2_1/expand"
  type: "ReLU"
  bottom: "conv2_1/expand/bn"
  top: "conv2_1/expand/bn"
}
layer {
  name: "conv2_1/dwise"
  type: "Convolution"
  bottom: "conv2_1/expand/bn"
  top: "conv2_1/dwise"
  param {
    lr_mult: 1
    decay_mult: 1
  }
  convolution_param {
    num_output: 32
    bias_term: false
    pad: 1
    kernel_size: 3
    group: 32
    weight_filler {
      type: "msra"
    }
    engine: CAFFE
  }
}
layer {
  name: "conv2_1/dwise/bn"
  type: "BatchNorm"
  bottom: "conv2_1/dwise"
  top: "conv2_1/dwise/bn"
  param {
    lr_mult: 1
    decay_mult: 0
  }
  param {
    lr_mult: 1
    decay_mult: 0
  }
  param {
    lr_mult: 0
    decay_mult: 0
  }
  param {
    lr_mult: 0
    decay_mult: 0
  }
  batch_norm_param {
    use_global_stats: true
    eps: 1e-05
    scale_filler {
      type: "constant"
      value: 1
    }
    bias_filler {
      type: "constant"
      value: 0
    }
  }
}
layer {
  name: "relu2_1/dwise"
  type: "ReLU"
  bottom: "conv2_1/dwise/bn"
  top: "conv2_1/dwise/bn"
}
layer {
  name: "conv2_1/linear"
  type: "Convolution"
  bottom: "conv2_1/dwise/bn"
  top: "conv2_1/linear"
  param {
    lr_mult: 1
    decay_mult: 1
  }
  convolution_param {
    num_output: 16
    bias_term: false
    kernel_size: 1
    weight_filler {
      type: "msra"
    }
  }
}
layer {
  name: "conv2_1/linear/bn"
  type: "BatchNorm"
  bottom: "conv2_1/linear"
  top: "conv2_1/linear/bn"
  param {
    lr_mult: 1
    decay_mult: 0
  }
  param {
    lr_mult: 1
    decay_mult: 0
  }
  param {
    lr_mult: 0
    decay_mult: 0
  }
  param {
    lr_mult: 0
    decay_mult: 0
  }
  batch_norm_param {
    use_global_stats: true
    eps: 1e-05
    scale_filler {
      type: "constant"
      value: 1
    }
    bias_filler {
      type: "constant"
      value: 0
    }
  }
}
layer {
  name: "conv2_2/expand"
  type: "Convolution"
  bottom: "conv2_1/linear/bn"
  top: "conv2_2/expand"
  param {
    lr_mult: 1
    decay_mult: 1
  }
  convolution_param {
    num_output: 96
    bias_term: false
    kernel_size: 1
    weight_filler {
      type: "msra"
    }
  }
}
layer {
  name: "conv2_2/expand/bn"
  type: "BatchNorm"
  bottom: "conv2_2/expand"
  top: "conv2_2/expand/bn"
  param {
    lr_mult: 1
    decay_mult: 0
  }
  param {
    lr_mult: 1
    decay_mult: 0
  }
  param {
    lr_mult: 0
    decay_mult: 0
  }
  param {
    lr_mult: 0
    decay_mult: 0
  }
  batch_norm_param {
    use_global_stats: true
    eps: 1e-05
    scale_filler {
      type: "constant"
      value: 1
    }
    bias_filler {
      type: "constant"
      value: 0
    }
  }
}
layer {
  name: "relu2_2/expand"
  type: "ReLU"
  bottom: "conv2_2/expand/bn"
  top: "conv2_2/expand/bn"
}
layer {
  name: "conv2_2/dwise"
  type: "Convolution"
  bottom: "conv2_2/expand/bn"
  top: "conv2_2/dwise"
  param {
    lr_mult: 1
    decay_mult: 1
  }
  convolution_param {
    num_output: 96
    bias_term: false
    pad: 1
    kernel_size: 3
    group: 96
    stride: 2
    weight_filler {
      type: "msra"
    }
    engine: CAFFE
  }
}
layer {
  name: "conv2_2/dwise/bn"
  type: "BatchNorm"
  bottom: "conv2_2/dwise"
  top: "conv2_2/dwise/bn"
  param {
    lr_mult: 1
    decay_mult: 0
  }
  param {
    lr_mult: 1
    decay_mult: 0
  }
  param {
    lr_mult: 0
    decay_mult: 0
  }
  param {
    lr_mult: 0
    decay_mult: 0
  }
  batch_norm_param {
    use_global_stats: true
    eps: 1e-05
    scale_filler {
      type: "constant"
      value: 1
    }
    bias_filler {
      type: "constant"
      value: 0
    }
  }
}
layer {
  name: "relu2_2/dwise"
  type: "ReLU"
  bottom: "conv2_2/dwise/bn"
  top: "conv2_2/dwise/bn"
}
layer {
  name: "conv2_2/linear"
  type: "Convolution"
  bottom: "conv2_2/dwise/bn"
  top: "conv2_2/linear"
  param {
    lr_mult: 1
    decay_mult: 1
  }
  convolution_param {
    num_output: 24
    bias_term: false
    kernel_size: 1
    weight_filler {
      type: "msra"
    }
  }
}
layer {
  name: "conv2_2/linear/bn"
  type: "BatchNorm"
  bottom: "conv2_2/linear"
  top: "conv2_2/linear/bn"
  param {
    lr_mult: 1
    decay_mult: 0
  }
  param {
    lr_mult: 1
    decay_mult: 0
  }
  param {
    lr_mult: 0
    decay_mult: 0
  }
  param {
    lr_mult: 0
    decay_mult: 0
  }
  batch_norm_param {
    use_global_stats: true
    eps: 1e-05
    scale_filler {
      type: "constant"
      value: 1
    }
    bias_filler {
      type: "constant"
      value: 0
    }
  }
}
layer {
  name: "conv3_1/expand"
  type: "Convolution"
  bottom: "conv2_2/linear/bn"
  top: "conv3_1/expand"
  param {
    lr_mult: 1
    decay_mult: 1
  }
  convolution_param {
    num_output: 144
    bias_term: false
    kernel_size: 1
    weight_filler {
      type: "msra"
    }
  }
}
layer {
  name: "conv3_1/expand/bn"
  type: "BatchNorm"
  bottom: "conv3_1/expand"
  top: "conv3_1/expand/bn"
  param {
    lr_mult: 1
    decay_mult: 0
  }
  param {
    lr_mult: 1
    decay_mult: 0
  }
  param {
    lr_mult: 0
    decay_mult: 0
  }
  param {
    lr_mult: 0
    decay_mult: 0
  }
  batch_norm_param {
    use_global_stats: true
    eps: 1e-05
    scale_filler {
      type: "constant"
      value: 1
    }
    bias_filler {
      type: "constant"
      value: 0
    }
  }
}
layer {
  name: "relu3_1/expand"
  type: "ReLU"
  bottom: "conv3_1/expand/bn"
  top: "conv3_1/expand/bn"
}
layer {
  name: "conv3_1/dwise"
  type: "Convolution"
  bottom: "conv3_1/expand/bn"
  top: "conv3_1/dwise"
  param {
    lr_mult: 1
    decay_mult: 1
  }
  convolution_param {
    num_output: 144
    bias_term: false
    pad: 1
    kernel_size: 3
    group: 144
    weight_filler {
      type: "msra"
    }
    engine: CAFFE
  }
}
layer {
  name: "conv3_1/dwise/bn"
  type: "BatchNorm"
  bottom: "conv3_1/dwise"
  top: "conv3_1/dwise/bn"
  param {
    lr_mult: 1
    decay_mult: 0
  }
  param {
    lr_mult: 1
    decay_mult: 0
  }
  param {
    lr_mult: 0
    decay_mult: 0
  }
  param {
    lr_mult: 0
    decay_mult: 0
  }
  batch_norm_param {
    use_global_stats: true
    eps: 1e-05
    scale_filler {
      type: "constant"
      value: 1
    }
    bias_filler {
      type: "constant"
      value: 0
    }
  }
}
layer {
  name: "relu3_1/dwise"
  type: "ReLU"
  bottom: "conv3_1/dwise/bn"
  top: "conv3_1/dwise/bn"
}
layer {
  name: "conv3_1/linear"
  type: "Convolution"
  bottom: "conv3_1/dwise/bn"
  top: "conv3_1/linear"
  param {
    lr_mult: 1
    decay_mult: 1
  }
  convolution_param {
    num_output: 24
    bias_term: false
    kernel_size: 1
    weight_filler {
      type: "msra"
    }
  }
}
layer {
  name: "conv3_1/linear/bn"
  type: "BatchNorm"
  bottom: "conv3_1/linear"
  top: "conv3_1/linear/bn"
  param {
    lr_mult: 1
    decay_mult: 0
  }
  param {
    lr_mult: 1
    decay_mult: 0
  }
  param {
    lr_mult: 0
    decay_mult: 0
  }
  param {
    lr_mult: 0
    decay_mult: 0
  }
  batch_norm_param {
    use_global_stats: true
    eps: 1e-05
    scale_filler {
      type: "constant"
      value: 1
    }
    bias_filler {
      type: "constant"
      value: 0
    }
  }
}
layer {
  name: "block_3_1"
  type: "Eltwise"
  bottom: "conv2_2/linear/bn"
  bottom: "conv3_1/linear/bn"
  top: "block_3_1"
}
layer {
  name: "conv3_2/expand"
  type: "Convolution"
  bottom: "block_3_1"
  top: "conv3_2/expand"
  param {
    lr_mult: 1
    decay_mult: 1
  }
  convolution_param {
    num_output: 144
    bias_term: false
    kernel_size: 1
    weight_filler {
      type: "msra"
    }
  }
}
layer {
  name: "conv3_2/expand/bn"
  type: "BatchNorm"
  bottom: "conv3_2/expand"
  top: "conv3_2/expand/bn"
  param {
    lr_mult: 1
    decay_mult: 0
  }
  param {
    lr_mult: 1
    decay_mult: 0
  }
  param {
    lr_mult: 0
    decay_mult: 0
  }
  param {
    lr_mult: 0
    decay_mult: 0
  }
  batch_norm_param {
    use_global_stats: true
    eps: 1e-05
    scale_filler {
      type: "constant"
      value: 1
    }
    bias_filler {
      type: "constant"
      value: 0
    }
  }
}
layer {
  name: "relu3_2/expand"
  type: "ReLU"
  bottom: "conv3_2/expand/bn"
  top: "conv3_2/expand/bn"
}
layer {
  name: "conv3_2/dwise"
  type: "Convolution"
  bottom: "conv3_2/expand/bn"
  top: "conv3_2/dwise"
  param {
    lr_mult: 1
    decay_mult: 1
  }
  convolution_param {
    num_output: 144
    bias_term: false
    pad: 1
    kernel_size: 3
    group: 144
    stride: 2
    weight_filler {
      type: "msra"
    }
    engine: CAFFE
  }
}
layer {
  name: "conv3_2/dwise/bn"
  type: "BatchNorm"
  bottom: "conv3_2/dwise"
  top: "conv3_2/dwise/bn"
  param {
    lr_mult: 1
    decay_mult: 0
  }
  param {
    lr_mult: 1
    decay_mult: 0
  }
  param {
    lr_mult: 0
    decay_mult: 0
  }
  param {
    lr_mult: 0
    decay_mult: 0
  }
  batch_norm_param {
    use_global_stats: true
    eps: 1e-05
    scale_filler {
      type: "constant"
      value: 1
    }
    bias_filler {
      type: "constant"
      value: 0
    }
  }
}
layer {
  name: "relu3_2/dwise"
  type: "ReLU"
  bottom: "conv3_2/dwise/bn"
  top: "conv3_2/dwise/bn"
}
layer {
  name: "conv3_2/linear"
  type: "Convolution"
  bottom: "conv3_2/dwise/bn"
  top: "conv3_2/linear"
  param {
    lr_mult: 1
    decay_mult: 1
  }
  convolution_param {
    num_output: 32
    bias_term: false
    kernel_size: 1
    weight_filler {
      type: "msra"
    }
  }
}
layer {
  name: "conv3_2/linear/bn"
  type: "BatchNorm"
  bottom: "conv3_2/linear"
  top: "conv3_2/linear/bn"
  param {
    lr_mult: 1
    decay_mult: 0
  }
  param {
    lr_mult: 1
    decay_mult: 0
  }
  param {
    lr_mult: 0
    decay_mult: 0
  }
  param {
    lr_mult: 0
    decay_mult: 0
  }
  batch_norm_param {
    use_global_stats: true
    eps: 1e-05
    scale_filler {
      type: "constant"
      value: 1
    }
    bias_filler {
      type: "constant"
      value: 0
    }
  }
}
layer {
  name: "conv4_1/expand"
  type: "Convolution"
  bottom: "conv3_2/linear/bn"
  top: "conv4_1/expand"
  param {
    lr_mult: 1
    decay_mult: 1
  }
  convolution_param {
    num_output: 192
    bias_term: false
    kernel_size: 1
    weight_filler {
      type: "msra"
    }
  }
}
layer {
  name: "conv4_1/expand/bn"
  type: "BatchNorm"
  bottom: "conv4_1/expand"
  top: "conv4_1/expand/bn"
  param {
    lr_mult: 1
    decay_mult: 0
  }
  param {
    lr_mult: 1
    decay_mult: 0
  }
  param {
    lr_mult: 0
    decay_mult: 0
  }
  param {
    lr_mult: 0
    decay_mult: 0
  }
  batch_norm_param {
    use_global_stats: true
    eps: 1e-05
    scale_filler {
      type: "constant"
      value: 1
    }
    bias_filler {
      type: "constant"
      value: 0
    }
  }
}
layer {
  name: "relu4_1/expand"
  type: "ReLU"
  bottom: "conv4_1/expand/bn"
  top: "conv4_1/expand/bn"
}
layer {
  name: "conv4_1/dwise"
  type: "Convolution"
  bottom: "conv4_1/expand/bn"
  top: "conv4_1/dwise"
  param {
    lr_mult: 1
    decay_mult: 1
  }
  convolution_param {
    num_output: 192
    bias_term: false
    pad: 1
    kernel_size: 3
    group: 192
    weight_filler {
      type: "msra"
    }
    engine: CAFFE
  }
}
layer {
  name: "conv4_1/dwise/bn"
  type: "BatchNorm"
  bottom: "conv4_1/dwise"
  top: "conv4_1/dwise/bn"
  param {
    lr_mult: 1
    decay_mult: 0
  }
  param {
    lr_mult: 1
    decay_mult: 0
  }
  param {
    lr_mult: 0
    decay_mult: 0
  }
  param {
    lr_mult: 0
    decay_mult: 0
  }
  batch_norm_param {
    use_global_stats: true
    eps: 1e-05
    scale_filler {
      type: "constant"
      value: 1
    }
    bias_filler {
      type: "constant"
      value: 0
    }
  }
}
layer {
  name: "relu4_1/dwise"
  type: "ReLU"
  bottom: "conv4_1/dwise/bn"
  top: "conv4_1/dwise/bn"
}
layer {
  name: "conv4_1/linear"
  type: "Convolution"
  bottom: "conv4_1/dwise/bn"
  top: "conv4_1/linear"
  param {
    lr_mult: 1
    decay_mult: 1
  }
  convolution_param {
    num_output: 32
    bias_term: false
    kernel_size: 1
    weight_filler {
      type: "msra"
    }
  }
}
layer {
  name: "conv4_1/linear/bn"
  type: "BatchNorm"
  bottom: "conv4_1/linear"
  top: "conv4_1/linear/bn"
  param {
    lr_mult: 1
    decay_mult: 0
  }
  param {
    lr_mult: 1
    decay_mult: 0
  }
  param {
    lr_mult: 0
    decay_mult: 0
  }
  param {
    lr_mult: 0
    decay_mult: 0
  }
  batch_norm_param {
    use_global_stats: true
    eps: 1e-05
    scale_filler {
      type: "constant"
      value: 1
    }
    bias_filler {
      type: "constant"
      value: 0
    }
  }
}
layer {
  name: "block_4_1"
  type: "Eltwise"
  bottom: "conv3_2/linear/bn"
  bottom: "conv4_1/linear/bn"
  top: "block_4_1"
}
layer {
  name: "conv4_2/expand"
  type: "Convolution"
  bottom: "block_4_1"
  top: "conv4_2/expand"
  param {
    lr_mult: 1
    decay_mult: 1
  }
  convolution_param {
    num_output: 192
    bias_term: false
    kernel_size: 1
    weight_filler {
      type: "msra"
    }
  }
}
layer {
  name: "conv4_2/expand/bn"
  type: "BatchNorm"
  bottom: "conv4_2/expand"
  top: "conv4_2/expand/bn"
  param {
    lr_mult: 1
    decay_mult: 0
  }
  param {
    lr_mult: 1
    decay_mult: 0
  }
  param {
    lr_mult: 0
    decay_mult: 0
  }
  param {
    lr_mult: 0
    decay_mult: 0
  }
  batch_norm_param {
    use_global_stats: true
    eps: 1e-05
    scale_filler {
      type: "constant"
      value: 1
    }
    bias_filler {
      type: "constant"
      value: 0
    }
  }
}
layer {
  name: "relu4_2/expand"
  type: "ReLU"
  bottom: "conv4_2/expand/bn"
  top: "conv4_2/expand/bn"
}
layer {
  name: "conv4_2/dwise"
  type: "Convolution"
  bottom: "conv4_2/expand/bn"
  top: "conv4_2/dwise"
  param {
    lr_mult: 1
    decay_mult: 1
  }
  convolution_param {
    num_output: 192
    bias_term: false
    pad: 1
    kernel_size: 3
    group: 192
    weight_filler {
      type: "msra"
    }
    engine: CAFFE
  }
}
layer {
  name: "conv4_2/dwise/bn"
  type: "BatchNorm"
  bottom: "conv4_2/dwise"
  top: "conv4_2/dwise/bn"
  param {
    lr_mult: 1
    decay_mult: 0
  }
  param {
    lr_mult: 1
    decay_mult: 0
  }
  param {
    lr_mult: 0
    decay_mult: 0
  }
  param {
    lr_mult: 0
    decay_mult: 0
  }
  batch_norm_param {
    use_global_stats: true
    eps: 1e-05
    scale_filler {
      type: "constant"
      value: 1
    }
    bias_filler {
      type: "constant"
      value: 0
    }
  }
}
layer {
  name: "relu4_2/dwise"
  type: "ReLU"
  bottom: "conv4_2/dwise/bn"
  top: "conv4_2/dwise/bn"
}
layer {
  name: "conv4_2/linear"
  type: "Convolution"
  bottom: "conv4_2/dwise/bn"
  top: "conv4_2/linear"
  param {
    lr_mult: 1
    decay_mult: 1
  }
  convolution_param {
    num_output: 32
    bias_term: false
    kernel_size: 1
    weight_filler {
      type: "msra"
    }
  }
}
layer {
  name: "conv4_2/linear/bn"
  type: "BatchNorm"
  bottom: "conv4_2/linear"
  top: "conv4_2/linear/bn"
  param {
    lr_mult: 1
    decay_mult: 0
  }
  param {
    lr_mult: 1
    decay_mult: 0
  }
  param {
    lr_mult: 0
    decay_mult: 0
  }
  param {
    lr_mult: 0
    decay_mult: 0
  }
  batch_norm_param {
    use_global_stats: true
    eps: 1e-05
    scale_filler {
      type: "constant"
      value: 1
    }
    bias_filler {
      type: "constant"
      value: 0
    }
  }
}
layer {
  name: "block_4_2"
  type: "Eltwise"
  bottom: "block_4_1"
  bottom: "conv4_2/linear/bn"
  top: "block_4_2"
}
layer {
  name: "conv4_3/expand"
  type: "Convolution"
  bottom: "block_4_2"
  top: "conv4_3/expand"
  param {
    lr_mult: 1
    decay_mult: 1
  }
  convolution_param {
    num_output: 192
    bias_term: false
    kernel_size: 1
    weight_filler {
      type: "msra"
    }
  }
}
layer {
  name: "conv4_3/expand/bn"
  type: "BatchNorm"
  bottom: "conv4_3/expand"
  top: "conv4_3/expand/bn"
  param {
    lr_mult: 1
    decay_mult: 0
  }
  param {
    lr_mult: 1
    decay_mult: 0
  }
  param {
    lr_mult: 0
    decay_mult: 0
  }
  param {
    lr_mult: 0
    decay_mult: 0
  }
  batch_norm_param {
    use_global_stats: true
    eps: 1e-05
    scale_filler {
      type: "constant"
      value: 1
    }
    bias_filler {
      type: "constant"
      value: 0
    }
  }
}
layer {
  name: "relu4_3/expand"
  type: "ReLU"
  bottom: "conv4_3/expand/bn"
  top: "conv4_3/expand/bn"
}
layer {
  name: "conv4_3/dwise"
  type: "Convolution"
  bottom: "conv4_3/expand/bn"
  top: "conv4_3/dwise"
  param {
    lr_mult: 1
    decay_mult: 1
  }
  convolution_param {
    num_output: 192
    bias_term: false
    pad: 1
    kernel_size: 3
    group: 192
    weight_filler {
      type: "msra"
    }
    engine: CAFFE
  }
}
layer {
  name: "conv4_3/dwise/bn"
  type: "BatchNorm"
  bottom: "conv4_3/dwise"
  top: "conv4_3/dwise/bn"
  param {
    lr_mult: 1
    decay_mult: 0
  }
  param {
    lr_mult: 1
    decay_mult: 0
  }
  param {
    lr_mult: 0
    decay_mult: 0
  }
  param {
    lr_mult: 0
    decay_mult: 0
  }
  batch_norm_param {
    use_global_stats: true
    eps: 1e-05
    scale_filler {
      type: "constant"
      value: 1
    }
    bias_filler {
      type: "constant"
      value: 0
    }
  }
}
layer {
  name: "relu4_3/dwise"
  type: "ReLU"
  bottom: "conv4_3/dwise/bn"
  top: "conv4_3/dwise/bn"
}
layer {
  name: "conv4_3/linear"
  type: "Convolution"
  bottom: "conv4_3/dwise/bn"
  top: "conv4_3/linear"
  param {
    lr_mult: 1
    decay_mult: 1
  }
  convolution_param {
    num_output: 64
    bias_term: false
    kernel_size: 1
    weight_filler {
      type: "msra"
    }
  }
}
layer {
  name: "conv4_3/linear/bn"
  type: "BatchNorm"
  bottom: "conv4_3/linear"
  top: "conv4_3/linear/bn"
  param {
    lr_mult: 1
    decay_mult: 0
  }
  param {
    lr_mult: 1
    decay_mult: 0
  }
  param {
    lr_mult: 0
    decay_mult: 0
  }
  param {
    lr_mult: 0
    decay_mult: 0
  }
  batch_norm_param {
    use_global_stats: true
    eps: 1e-05
    scale_filler {
      type: "constant"
      value: 1
    }
    bias_filler {
      type: "constant"
      value: 0
    }
  }
}
layer {
  name: "conv4_4/expand"
  type: "Convolution"
  bottom: "conv4_3/linear/bn"
  top: "conv4_4/expand"
  param {
    lr_mult: 1
    decay_mult: 1
  }
  convolution_param {
    num_output: 384
    bias_term: false
    kernel_size: 1
    weight_filler {
      type: "msra"
    }
  }
}
layer {
  name: "conv4_4/expand/bn"
  type: "BatchNorm"
  bottom: "conv4_4/expand"
  top: "conv4_4/expand/bn"
  param {
    lr_mult: 1
    decay_mult: 0
  }
  param {
    lr_mult: 1
    decay_mult: 0
  }
  param {
    lr_mult: 0
    decay_mult: 0
  }
  param {
    lr_mult: 0
    decay_mult: 0
  }
  batch_norm_param {
    use_global_stats: true
    eps: 1e-05
    scale_filler {
      type: "constant"
      value: 1
    }
    bias_filler {
      type: "constant"
      value: 0
    }
  }
}
layer {
  name: "relu4_4/expand"
  type: "ReLU"
  bottom: "conv4_4/expand/bn"
  top: "conv4_4/expand/bn"
}
layer {
  name: "conv4_4/dwise"
  type: "Convolution"
  bottom: "conv4_4/expand/bn"
  top: "conv4_4/dwise"
  param {
    lr_mult: 1
    decay_mult: 1
  }
  convolution_param {
    num_output: 384
    bias_term: false
    pad: 1
    kernel_size: 3
    group: 384
    weight_filler {
      type: "msra"
    }
    engine: CAFFE
  }
}
layer {
  name: "conv4_4/dwise/bn"
  type: "BatchNorm"
  bottom: "conv4_4/dwise"
  top: "conv4_4/dwise/bn"
  param {
    lr_mult: 1
    decay_mult: 0
  }
  param {
    lr_mult: 1
    decay_mult: 0
  }
  param {
    lr_mult: 0
    decay_mult: 0
  }
  param {
    lr_mult: 0
    decay_mult: 0
  }
  batch_norm_param {
    use_global_stats: true
    eps: 1e-05
    scale_filler {
      type: "constant"
      value: 1
    }
    bias_filler {
      type: "constant"
      value: 0
    }
  }
}
layer {
  name: "relu4_4/dwise"
  type: "ReLU"
  bottom: "conv4_4/dwise/bn"
  top: "conv4_4/dwise/bn"
}
layer {
  name: "conv4_4/linear"
  type: "Convolution"
  bottom: "conv4_4/dwise/bn"
  top: "conv4_4/linear"
  param {
    lr_mult: 1
    decay_mult: 1
  }
  convolution_param {
    num_output: 64
    bias_term: false
    kernel_size: 1
    weight_filler {
      type: "msra"
    }
  }
}
layer {
  name: "conv4_4/linear/bn"
  type: "BatchNorm"
  bottom: "conv4_4/linear"
  top: "conv4_4/linear/bn"
  param {
    lr_mult: 1
    decay_mult: 0
  }
  param {
    lr_mult: 1
    decay_mult: 0
  }
  param {
    lr_mult: 0
    decay_mult: 0
  }
  param {
    lr_mult: 0
    decay_mult: 0
  }
  batch_norm_param {
    use_global_stats: true
    eps: 1e-05
    scale_filler {
      type: "constant"
      value: 1
    }
    bias_filler {
      type: "constant"
      value: 0
    }
  }
}
layer {
  name: "block_4_4"
  type: "Eltwise"
  bottom: "conv4_3/linear/bn"
  bottom: "conv4_4/linear/bn"
  top: "block_4_4"
}
layer {
  name: "conv4_5/expand"
  type: "Convolution"
  bottom: "block_4_4"
  top: "conv4_5/expand"
  param {
    lr_mult: 1
    decay_mult: 1
  }
  convolution_param {
    num_output: 384
    bias_term: false
    kernel_size: 1
    weight_filler {
      type: "msra"
    }
  }
}
layer {
  name: "conv4_5/expand/bn"
  type: "BatchNorm"
  bottom: "conv4_5/expand"
  top: "conv4_5/expand/bn"
  param {
    lr_mult: 1
    decay_mult: 0
  }
  param {
    lr_mult: 1
    decay_mult: 0
  }
  param {
    lr_mult: 0
    decay_mult: 0
  }
  param {
    lr_mult: 0
    decay_mult: 0
  }
  batch_norm_param {
    use_global_stats: true
    eps: 1e-05
    scale_filler {
      type: "constant"
      value: 1
    }
    bias_filler {
      type: "constant"
      value: 0
    }
  }
}
layer {
  name: "relu4_5/expand"
  type: "ReLU"
  bottom: "conv4_5/expand/bn"
  top: "conv4_5/expand/bn"
}
layer {
  name: "conv4_5/dwise"
  type: "Convolution"
  bottom: "conv4_5/expand/bn"
  top: "conv4_5/dwise"
  param {
    lr_mult: 1
    decay_mult: 1
  }
  convolution_param {
    num_output: 384
    bias_term: false
    pad: 1
    kernel_size: 3
    group: 384
    weight_filler {
      type: "msra"
    }
    engine: CAFFE
  }
}
layer {
  name: "conv4_5/dwise/bn"
  type: "BatchNorm"
  bottom: "conv4_5/dwise"
  top: "conv4_5/dwise/bn"
  param {
    lr_mult: 1
    decay_mult: 0
  }
  param {
    lr_mult: 1
    decay_mult: 0
  }
  param {
    lr_mult: 0
    decay_mult: 0
  }
  param {
    lr_mult: 0
    decay_mult: 0
  }
  batch_norm_param {
    use_global_stats: true
    eps: 1e-05
    scale_filler {
      type: "constant"
      value: 1
    }
    bias_filler {
      type: "constant"
      value: 0
    }
  }
}
layer {
  name: "relu4_5/dwise"
  type: "ReLU"
  bottom: "conv4_5/dwise/bn"
  top: "conv4_5/dwise/bn"
}
layer {
  name: "conv4_5/linear"
  type: "Convolution"
  bottom: "conv4_5/dwise/bn"
  top: "conv4_5/linear"
  param {
    lr_mult: 1
    decay_mult: 1
  }
  convolution_param {
    num_output: 64
    bias_term: false
    kernel_size: 1
    weight_filler {
      type: "msra"
    }
  }
}
layer {
  name: "conv4_5/linear/bn"
  type: "BatchNorm"
  bottom: "conv4_5/linear"
  top: "conv4_5/linear/bn"
  param {
    lr_mult: 1
    decay_mult: 0
  }
  param {
    lr_mult: 1
    decay_mult: 0
  }
  param {
    lr_mult: 0
    decay_mult: 0
  }
  param {
    lr_mult: 0
    decay_mult: 0
  }
  batch_norm_param {
    use_global_stats: true
    eps: 1e-05
    scale_filler {
      type: "constant"
      value: 1
    }
    bias_filler {
      type: "constant"
      value: 0
    }
  }
}
layer {
  name: "block_4_5"
  type: "Eltwise"
  bottom: "block_4_4"
  bottom: "conv4_5/linear/bn"
  top: "block_4_5"
}
layer {
  name: "conv4_6/expand"
  type: "Convolution"
  bottom: "block_4_5"
  top: "conv4_6/expand"
  param {
    lr_mult: 1
    decay_mult: 1
  }
  convolution_param {
    num_output: 384
    bias_term: false
    kernel_size: 1
    weight_filler {
      type: "msra"
    }
  }
}
layer {
  name: "conv4_6/expand/bn"
  type: "BatchNorm"
  bottom: "conv4_6/expand"
  top: "conv4_6/expand/bn"
  param {
    lr_mult: 1
    decay_mult: 0
  }
  param {
    lr_mult: 1
    decay_mult: 0
  }
  param {
    lr_mult: 0
    decay_mult: 0
  }
  param {
    lr_mult: 0
    decay_mult: 0
  }
  batch_norm_param {
    use_global_stats: true
    eps: 1e-05
    scale_filler {
      type: "constant"
      value: 1
    }
    bias_filler {
      type: "constant"
      value: 0
    }
  }
}
layer {
  name: "relu4_6/expand"
  type: "ReLU"
  bottom: "conv4_6/expand/bn"
  top: "conv4_6/expand/bn"
}
layer {
  name: "conv4_6/dwise"
  type: "Convolution"
  bottom: "conv4_6/expand/bn"
  top: "conv4_6/dwise"
  param {
    lr_mult: 1
    decay_mult: 1
  }
  convolution_param {
    num_output: 384
    bias_term: false
    pad: 1
    kernel_size: 3
    group: 384
    weight_filler {
      type: "msra"
    }
    engine: CAFFE
  }
}
layer {
  name: "conv4_6/dwise/bn"
  type: "BatchNorm"
  bottom: "conv4_6/dwise"
  top: "conv4_6/dwise/bn"
  param {
    lr_mult: 1
    decay_mult: 0
  }
  param {
    lr_mult: 1
    decay_mult: 0
  }
  param {
    lr_mult: 0
    decay_mult: 0
  }
  param {
    lr_mult: 0
    decay_mult: 0
  }
  batch_norm_param {
    use_global_stats: true
    eps: 1e-05
    scale_filler {
      type: "constant"
      value: 1
    }
    bias_filler {
      type: "constant"
      value: 0
    }
  }
}
layer {
  name: "relu4_6/dwise"
  type: "ReLU"
  bottom: "conv4_6/dwise/bn"
  top: "conv4_6/dwise/bn"
}
layer {
  name: "conv4_6/linear"
  type: "Convolution"
  bottom: "conv4_6/dwise/bn"
  top: "conv4_6/linear"
  param {
    lr_mult: 1
    decay_mult: 1
  }
  convolution_param {
    num_output: 64
    bias_term: false
    kernel_size: 1
    weight_filler {
      type: "msra"
    }
  }
}
layer {
  name: "conv4_6/linear/bn"
  type: "BatchNorm"
  bottom: "conv4_6/linear"
  top: "conv4_6/linear/bn"
  param {
    lr_mult: 1
    decay_mult: 0
  }
  param {
    lr_mult: 1
    decay_mult: 0
  }
  param {
    lr_mult: 0
    decay_mult: 0
  }
  param {
    lr_mult: 0
    decay_mult: 0
  }
  batch_norm_param {
    use_global_stats: true
    eps: 1e-05
    scale_filler {
      type: "constant"
      value: 1
    }
    bias_filler {
      type: "constant"
      value: 0
    }
  }
}
layer {
  name: "block_4_6"
  type: "Eltwise"
  bottom: "block_4_5"
  bottom: "conv4_6/linear/bn"
  top: "block_4_6"
}
layer {
  name: "conv4_7/expand"
  type: "Convolution"
  bottom: "block_4_6"
  top: "conv4_7/expand"
  param {
    lr_mult: 1
    decay_mult: 1
  }
  convolution_param {
    num_output: 384
    bias_term: false
    kernel_size: 1
    weight_filler {
      type: "msra"
    }
  }
}
layer {
  name: "conv4_7/expand/bn"
  type: "BatchNorm"
  bottom: "conv4_7/expand"
  top: "conv4_7/expand/bn"
  param {
    lr_mult: 1
    decay_mult: 0
  }
  param {
    lr_mult: 1
    decay_mult: 0
  }
  param {
    lr_mult: 0
    decay_mult: 0
  }
  param {
    lr_mult: 0
    decay_mult: 0
  }
  batch_norm_param {
    use_global_stats: true
    eps: 1e-05
    scale_filler {
      type: "constant"
      value: 1
    }
    bias_filler {
      type: "constant"
      value: 0
    }
  }
}
layer {
  name: "relu4_7/expand"
  type: "ReLU"
  bottom: "conv4_7/expand/bn"
  top: "conv4_7/expand/bn"
}
layer {
  name: "conv4_7/dwise"
  type: "Convolution"
  bottom: "conv4_7/expand/bn"
  top: "conv4_7/dwise"
  param {
    lr_mult: 1
    decay_mult: 1
  }
  convolution_param {
    num_output: 384
    bias_term: false
    pad: 1
    kernel_size: 3
    group: 384
    stride: 2
    weight_filler {
      type: "msra"
    }
    engine: CAFFE
  }
}
layer {
  name: "conv4_7/dwise/bn"
  type: "BatchNorm"
  bottom: "conv4_7/dwise"
  top: "conv4_7/dwise/bn"
  param {
    lr_mult: 1
    decay_mult: 0
  }
  param {
    lr_mult: 1
    decay_mult: 0
  }
  param {
    lr_mult: 0
    decay_mult: 0
  }
  param {
    lr_mult: 0
    decay_mult: 0
  }
  batch_norm_param {
    use_global_stats: true
    eps: 1e-05
    scale_filler {
      type: "constant"
      value: 1
    }
    bias_filler {
      type: "constant"
      value: 0
    }
  }
}
layer {
  name: "relu4_7/dwise"
  type: "ReLU"
  bottom: "conv4_7/dwise/bn"
  top: "conv4_7/dwise/bn"
}
layer {
  name: "conv4_7/linear"
  type: "Convolution"
  bottom: "conv4_7/dwise/bn"
  top: "co
I0104 20:48:53.015481  1475 layer_factory.hpp:77] Creating layer data
I0104 20:48:53.015542  1475 internal_thread.cpp:27] Starting internal thread(s) on GPU 0
I0104 20:48:53.015719  1475 net.cpp:94] Creating Layer data
I0104 20:48:53.015735  1475 net.cpp:409] data -> data
I0104 20:48:53.015775  1475 net.cpp:409] data -> label
I0104 20:48:53.018785  1503 db_lmdb.cpp:35] Opened lmdb /data2/datasets/VOCdevkit/VOC0712/lmdb/VOC0712_test_lmdb
I0104 20:48:53.018806  1503 db_lmdb.cpp:38] Items count: 4952
I0104 20:48:53.018836  1503 data_reader.cpp:124] TEST: reading data using 1 channel(s)
I0104 20:48:53.024061  1475 annotated_data_layer.cpp:65] output data size: 1,3,360,480
I0104 20:48:53.024075  1475 annotated_data_layer.cpp:92] annotation group size: 2
I0104 20:48:53.036682  1475 internal_thread.cpp:27] Starting internal thread(s) on GPU 0
I0104 20:48:53.036761  1475 net.cpp:144] Setting up data
I0104 20:48:53.036768  1475 net.cpp:151] Top shape: 1 3 360 480 (518400)
I0104 20:48:53.036777  1475 net.cpp:151] Top shape: 1 1 2 8 (16)
I0104 20:48:53.036782  1475 net.cpp:159] Memory required for data: 2073664
I0104 20:48:53.036787  1475 layer_factory.hpp:77] Creating layer data_data_0_split
I0104 20:48:53.036801  1475 net.cpp:94] Creating Layer data_data_0_split
I0104 20:48:53.036806  1475 net.cpp:435] data_data_0_split <- data
I0104 20:48:53.036813  1475 net.cpp:409] data_data_0_split -> data_data_0_split_0
I0104 20:48:53.036823  1475 net.cpp:409] data_data_0_split -> data_data_0_split_1
I0104 20:48:53.036828  1475 net.cpp:409] data_data_0_split -> data_data_0_split_2
I0104 20:48:53.036835  1475 net.cpp:409] data_data_0_split -> data_data_0_split_3
I0104 20:48:53.036840  1475 net.cpp:409] data_data_0_split -> data_data_0_split_4
I0104 20:48:53.036845  1475 net.cpp:409] data_data_0_split -> data_data_0_split_5
I0104 20:48:53.036964  1475 net.cpp:144] Setting up data_data_0_split
I0104 20:48:53.036973  1475 net.cpp:151] Top shape: 1 3 360 480 (518400)
I0104 20:48:53.036979  1475 net.cpp:151] Top shape: 1 3 360 480 (518400)
I0104 20:48:53.036983  1475 net.cpp:151] Top shape: 1 3 360 480 (518400)
I0104 20:48:53.036988  1475 net.cpp:151] Top shape: 1 3 360 480 (518400)
I0104 20:48:53.036991  1475 net.cpp:151] Top shape: 1 3 360 480 (518400)
I0104 20:48:53.036995  1475 net.cpp:151] Top shape: 1 3 360 480 (518400)
I0104 20:48:53.037000  1475 net.cpp:159] Memory required for data: 14515264
I0104 20:48:53.037003  1475 layer_factory.hpp:77] Creating layer conv1
I0104 20:48:53.037015  1475 net.cpp:94] Creating Layer conv1
I0104 20:48:53.037019  1475 net.cpp:435] conv1 <- data_data_0_split_0
I0104 20:48:53.037025  1475 net.cpp:409] conv1 -> conv1
I0104 20:48:53.037335  1475 net.cpp:144] Setting up conv1
I0104 20:48:53.037343  1475 net.cpp:151] Top shape: 1 32 180 240 (1382400)
I0104 20:48:53.037348  1475 net.cpp:159] Memory required for data: 20044864
I0104 20:48:53.037369  1475 layer_factory.hpp:77] Creating layer conv1/bn
I0104 20:48:53.037377  1475 net.cpp:94] Creating Layer conv1/bn
I0104 20:48:53.037381  1475 net.cpp:435] conv1/bn <- conv1
I0104 20:48:53.037386  1475 net.cpp:409] conv1/bn -> conv1/bn
I0104 20:48:53.038754  1475 net.cpp:144] Setting up conv1/bn
I0104 20:48:53.038764  1475 net.cpp:151] Top shape: 1 32 180 240 (1382400)
I0104 20:48:53.038770  1475 net.cpp:159] Memory required for data: 25574464
I0104 20:48:53.038782  1475 layer_factory.hpp:77] Creating layer relu1
I0104 20:48:53.038789  1475 net.cpp:94] Creating Layer relu1
I0104 20:48:53.038794  1475 net.cpp:435] relu1 <- conv1/bn
I0104 20:48:53.038798  1475 net.cpp:396] relu1 -> conv1/bn (in-place)
I0104 20:48:53.038812  1475 net.cpp:144] Setting up relu1
I0104 20:48:53.038815  1475 net.cpp:151] Top shape: 1 32 180 240 (1382400)
I0104 20:48:53.038844  1475 net.cpp:159] Memory required for data: 31104064
I0104 20:48:53.038851  1475 layer_factory.hpp:77] Creating layer conv2_1/expand
I0104 20:48:53.038859  1475 net.cpp:94] Creating Layer conv2_1/expand
I0104 20:48:53.038863  1475 net.cpp:435] conv2_1/expand <- conv1/bn
I0104 20:48:53.038868  1475 net.cpp:409] conv2_1/expand -> conv2_1/expand
I0104 20:48:53.039126  1475 net.cpp:144] Setting up conv2_1/expand
I0104 20:48:53.039134  1475 net.cpp:151] Top shape: 1 32 180 240 (1382400)
I0104 20:48:53.039139  1475 net.cpp:159] Memory required for data: 36633664
I0104 20:48:53.039145  1475 layer_factory.hpp:77] Creating layer conv2_1/expand/bn
I0104 20:48:53.039153  1475 net.cpp:94] Creating Layer conv2_1/expand/bn
I0104 20:48:53.039157  1475 net.cpp:435] conv2_1/expand/bn <- conv2_1/expand
I0104 20:48:53.039163  1475 net.cpp:409] conv2_1/expand/bn -> conv2_1/expand/bn
I0104 20:48:53.039947  1475 net.cpp:144] Setting up conv2_1/expand/bn
I0104 20:48:53.039955  1475 net.cpp:151] Top shape: 1 32 180 240 (1382400)
I0104 20:48:53.039961  1475 net.cpp:159] Memory required for data: 42163264
I0104 20:48:53.039971  1475 layer_factory.hpp:77] Creating layer relu2_1/expand
I0104 20:48:53.039978  1475 net.cpp:94] Creating Layer relu2_1/expand
I0104 20:48:53.039981  1475 net.cpp:435] relu2_1/expand <- conv2_1/expand/bn
I0104 20:48:53.039986  1475 net.cpp:396] relu2_1/expand -> conv2_1/expand/bn (in-place)
I0104 20:48:53.039992  1475 net.cpp:144] Setting up relu2_1/expand
I0104 20:48:53.039996  1475 net.cpp:151] Top shape: 1 32 180 240 (1382400)
I0104 20:48:53.040000  1475 net.cpp:159] Memory required for data: 47692864
I0104 20:48:53.040004  1475 layer_factory.hpp:77] Creating layer conv2_1/dwise
I0104 20:48:53.040012  1475 net.cpp:94] Creating Layer conv2_1/dwise
I0104 20:48:53.040015  1475 net.cpp:435] conv2_1/dwise <- conv2_1/expand/bn
I0104 20:48:53.040020  1475 net.cpp:409] conv2_1/dwise -> conv2_1/dwise
I0104 20:48:53.040239  1475 net.cpp:144] Setting up conv2_1/dwise
I0104 20:48:53.040254  1475 net.cpp:151] Top shape: 1 32 180 240 (1382400)
I0104 20:48:53.040263  1475 net.cpp:159] Memory required for data: 53222464
I0104 20:48:53.040272  1475 layer_factory.hpp:77] Creating layer conv2_1/dwise/bn
I0104 20:48:53.040285  1475 net.cpp:94] Creating Layer conv2_1/dwise/bn
I0104 20:48:53.040292  1475 net.cpp:435] conv2_1/dwise/bn <- conv2_1/dwise
I0104 20:48:53.040299  1475 net.cpp:409] conv2_1/dwise/bn -> conv2_1/dwise/bn
I0104 20:48:53.040940  1475 net.cpp:144] Setting up conv2_1/dwise/bn
I0104 20:48:53.040947  1475 net.cpp:151] Top shape: 1 32 180 240 (1382400)
I0104 20:48:53.040952  1475 net.cpp:159] Memory required for data: 58752064
I0104 20:48:53.040962  1475 layer_factory.hpp:77] Creating layer relu2_1/dwise
I0104 20:48:53.040968  1475 net.cpp:94] Creating Layer relu2_1/dwise
I0104 20:48:53.040971  1475 net.cpp:435] relu2_1/dwise <- conv2_1/dwise/bn
I0104 20:48:53.040977  1475 net.cpp:396] relu2_1/dwise -> conv2_1/dwise/bn (in-place)
I0104 20:48:53.040982  1475 net.cpp:144] Setting up relu2_1/dwise
I0104 20:48:53.040987  1475 net.cpp:151] Top shape: 1 32 180 240 (1382400)
I0104 20:48:53.040990  1475 net.cpp:159] Memory required for data: 64281664
I0104 20:48:53.040994  1475 layer_factory.hpp:77] Creating layer conv2_1/linear
I0104 20:48:53.041002  1475 net.cpp:94] Creating Layer conv2_1/linear
I0104 20:48:53.041004  1475 net.cpp:435] conv2_1/linear <- conv2_1/dwise/bn
I0104 20:48:53.041009  1475 net.cpp:409] conv2_1/linear -> conv2_1/linear
I0104 20:48:53.041169  1475 net.cpp:144] Setting up conv2_1/linear
I0104 20:48:53.041177  1475 net.cpp:151] Top shape: 1 16 180 240 (691200)
I0104 20:48:53.041182  1475 net.cpp:159] Memory required for data: 67046464
I0104 20:48:53.041188  1475 layer_factory.hpp:77] Creating layer conv2_1/linear/bn
I0104 20:48:53.041194  1475 net.cpp:94] Creating Layer conv2_1/linear/bn
I0104 20:48:53.041198  1475 net.cpp:435] conv2_1/linear/bn <- conv2_1/linear
I0104 20:48:53.041203  1475 net.cpp:409] conv2_1/linear/bn -> conv2_1/linear/bn
I0104 20:48:53.041776  1475 net.cpp:144] Setting up conv2_1/linear/bn
I0104 20:48:53.041783  1475 net.cpp:151] Top shape: 1 16 180 240 (691200)
I0104 20:48:53.041788  1475 net.cpp:159] Memory required for data: 69811264
I0104 20:48:53.041796  1475 layer_factory.hpp:77] Creating layer conv2_2/expand
I0104 20:48:53.041805  1475 net.cpp:94] Creating Layer conv2_2/expand
I0104 20:48:53.041808  1475 net.cpp:435] conv2_2/expand <- conv2_1/linear/bn
I0104 20:48:53.041813  1475 net.cpp:409] conv2_2/expand -> conv2_2/expand
I0104 20:48:53.041990  1475 net.cpp:144] Setting up conv2_2/expand
I0104 20:48:53.041997  1475 net.cpp:151] Top shape: 1 96 180 240 (4147200)
I0104 20:48:53.042002  1475 net.cpp:159] Memory required for data: 86400064
I0104 20:48:53.042007  1475 layer_factory.hpp:77] Creating layer conv2_2/expand/bn
I0104 20:48:53.042014  1475 net.cpp:94] Creating Layer conv2_2/expand/bn
I0104 20:48:53.042017  1475 net.cpp:435] conv2_2/expand/bn <- conv2_2/expand
I0104 20:48:53.042023  1475 net.cpp:409] conv2_2/expand/bn -> conv2_2/expand/bn
I0104 20:48:53.042753  1475 net.cpp:144] Setting up conv2_2/expand/bn
I0104 20:48:53.042762  1475 net.cpp:151] Top shape: 1 96 180 240 (4147200)
I0104 20:48:53.042768  1475 net.cpp:159] Memory required for data: 102988864
I0104 20:48:53.042776  1475 layer_factory.hpp:77] Creating layer relu2_2/expand
I0104 20:48:53.042783  1475 net.cpp:94] Creating Layer relu2_2/expand
I0104 20:48:53.042786  1475 net.cpp:435] relu2_2/expand <- conv2_2/expand/bn
I0104 20:48:53.042790  1475 net.cpp:396] relu2_2/expand -> conv2_2/expand/bn (in-place)
I0104 20:48:53.042798  1475 net.cpp:144] Setting up relu2_2/expand
I0104 20:48:53.042800  1475 net.cpp:151] Top shape: 1 96 180 240 (4147200)
I0104 20:48:53.042804  1475 net.cpp:159] Memory required for data: 119577664
I0104 20:48:53.042809  1475 layer_factory.hpp:77] Creating layer conv2_2/dwise
I0104 20:48:53.042816  1475 net.cpp:94] Creating Layer conv2_2/dwise
I0104 20:48:53.042819  1475 net.cpp:435] conv2_2/dwise <- conv2_2/expand/bn
I0104 20:48:53.042824  1475 net.cpp:409] conv2_2/dwise -> conv2_2/dwise
I0104 20:48:53.042990  1475 net.cpp:144] Setting up conv2_2/dwise
I0104 20:48:53.042996  1475 net.cpp:151] Top shape: 1 96 90 120 (1036800)
I0104 20:48:53.043001  1475 net.cpp:159] Memory required for data: 123724864
I0104 20:48:53.043006  1475 layer_factory.hpp:77] Creating layer conv2_2/dwise/bn
I0104 20:48:53.043013  1475 net.cpp:94] Creating Layer conv2_2/dwise/bn
I0104 20:48:53.043017  1475 net.cpp:435] conv2_2/dwise/bn <- conv2_2/dwise
I0104 20:48:53.043022  1475 net.cpp:409] conv2_2/dwise/bn -> conv2_2/dwise/bn
I0104 20:48:53.043570  1475 net.cpp:144] Setting up conv2_2/dwise/bn
I0104 20:48:53.043576  1475 net.cpp:151] Top shape: 1 96 90 120 (1036800)
I0104 20:48:53.043582  1475 net.cpp:159] Memory required for data: 127872064
I0104 20:48:53.043592  1475 layer_factory.hpp:77] Creating layer relu2_2/dwise
I0104 20:48:53.043598  1475 net.cpp:94] Creating Layer relu2_2/dwise
I0104 20:48:53.043602  1475 net.cpp:435] relu2_2/dwise <- conv2_2/dwise/bn
I0104 20:48:53.043607  1475 net.cpp:396] relu2_2/dwise -> conv2_2/dwise/bn (in-place)
I0104 20:48:53.043612  1475 net.cpp:144] Setting up relu2_2/dwise
I0104 20:48:53.043617  1475 net.cpp:151] Top shape: 1 96 90 120 (1036800)
I0104 20:48:53.043620  1475 net.cpp:159] Memory required for data: 132019264
I0104 20:48:53.043623  1475 layer_factory.hpp:77] Creating layer conv2_2/linear
I0104 20:48:53.043630  1475 net.cpp:94] Creating Layer conv2_2/linear
I0104 20:48:53.043633  1475 net.cpp:435] conv2_2/linear <- conv2_2/dwise/bn
I0104 20:48:53.043638  1475 net.cpp:409] conv2_2/linear -> conv2_2/linear
I0104 20:48:53.043836  1475 net.cpp:144] Setting up conv2_2/linear
I0104 20:48:53.043844  1475 net.cpp:151] Top shape: 1 24 90 120 (259200)
I0104 20:48:53.043849  1475 net.cpp:159] Memory required for data: 133056064
I0104 20:48:53.043855  1475 layer_factory.hpp:77] Creating layer conv2_2/linear/bn
I0104 20:48:53.043862  1475 net.cpp:94] Creating Layer conv2_2/linear/bn
I0104 20:48:53.043866  1475 net.cpp:435] conv2_2/linear/bn <- conv2_2/linear
I0104 20:48:53.043871  1475 net.cpp:409] conv2_2/linear/bn -> conv2_2/linear/bn
I0104 20:48:53.044443  1475 net.cpp:144] Setting up conv2_2/linear/bn
I0104 20:48:53.044450  1475 net.cpp:151] Top shape: 1 24 90 120 (259200)
I0104 20:48:53.044456  1475 net.cpp:159] Memory required for data: 134092864
I0104 20:48:53.044464  1475 layer_factory.hpp:77] Creating layer conv2_2/linear/bn_conv2_2/linear/bn_0_split
I0104 20:48:53.044471  1475 net.cpp:94] Creating Layer conv2_2/linear/bn_conv2_2/linear/bn_0_split
I0104 20:48:53.044473  1475 net.cpp:435] conv2_2/linear/bn_conv2_2/linear/bn_0_split <- conv2_2/linear/bn
I0104 20:48:53.044479  1475 net.cpp:409] conv2_2/linear/bn_conv2_2/linear/bn_0_split -> conv2_2/linear/bn_conv2_2/linear/bn_0_split_0
I0104 20:48:53.044486  1475 net.cpp:409] conv2_2/linear/bn_conv2_2/linear/bn_0_split -> conv2_2/linear/bn_conv2_2/linear/bn_0_split_1
I0104 20:48:53.044515  1475 net.cpp:144] Setting up conv2_2/linear/bn_conv2_2/linear/bn_0_split
I0104 20:48:53.044519  1475 net.cpp:151] Top shape: 1 24 90 120 (259200)
I0104 20:48:53.044524  1475 net.cpp:151] Top shape: 1 24 90 120 (259200)
I0104 20:48:53.044528  1475 net.cpp:159] Memory required for data: 136166464
I0104 20:48:53.044531  1475 layer_factory.hpp:77] Creating layer conv3_1/expand
I0104 20:48:53.044538  1475 net.cpp:94] Creating Layer conv3_1/expand
I0104 20:48:53.044543  1475 net.cpp:435] conv3_1/expand <- conv2_2/linear/bn_conv2_2/linear/bn_0_split_0
I0104 20:48:53.044548  1475 net.cpp:409] conv3_1/expand -> conv3_1/expand
I0104 20:48:53.044739  1475 net.cpp:144] Setting up conv3_1/expand
I0104 20:48:53.044745  1475 net.cpp:151] Top shape: 1 144 90 120 (1555200)
I0104 20:48:53.044750  1475 net.cpp:159] Memory required for data: 142387264
I0104 20:48:53.044755  1475 layer_factory.hpp:77] Creating layer conv3_1/expand/bn
I0104 20:48:53.044762  1475 net.cpp:94] Creating Layer conv3_1/expand/bn
I0104 20:48:53.044766  1475 net.cpp:435] conv3_1/expand/bn <- conv3_1/expand
I0104 20:48:53.044772  1475 net.cpp:409] conv3_1/expand/bn -> conv3_1/expand/bn
I0104 20:48:53.045326  1475 net.cpp:144] Setting up conv3_1/expand/bn
I0104 20:48:53.045333  1475 net.cpp:151] Top shape: 1 144 90 120 (1555200)
I0104 20:48:53.045338  1475 net.cpp:159] Memory required for data: 148608064
I0104 20:48:53.045346  1475 layer_factory.hpp:77] Creating layer relu3_1/expand
I0104 20:48:53.045352  1475 net.cpp:94] Creating Layer relu3_1/expand
I0104 20:48:53.045356  1475 net.cpp:435] relu3_1/expand <- conv3_1/expand/bn
I0104 20:48:53.045361  1475 net.cpp:396] relu3_1/expand -> conv3_1/expand/bn (in-place)
I0104 20:48:53.045367  1475 net.cpp:144] Setting up relu3_1/expand
I0104 20:48:53.045369  1475 net.cpp:151] Top shape: 1 144 90 120 (1555200)
I0104 20:48:53.045374  1475 net.cpp:159] Memory required for data: 154828864
I0104 20:48:53.045377  1475 layer_factory.hpp:77] Creating layer conv3_1/dwise
I0104 20:48:53.045384  1475 net.cpp:94] Creating Layer conv3_1/dwise
I0104 20:48:53.045387  1475 net.cpp:435] conv3_1/dwise <- conv3_1/expand/bn
I0104 20:48:53.045392  1475 net.cpp:409] conv3_1/dwise -> conv3_1/dwise
I0104 20:48:53.045567  1475 net.cpp:144] Setting up conv3_1/dwise
I0104 20:48:53.045572  1475 net.cpp:151] Top shape: 1 144 90 120 (1555200)
I0104 20:48:53.045578  1475 net.cpp:159] Memory required for data: 161049664
I0104 20:48:53.045583  1475 layer_factory.hpp:77] Creating layer conv3_1/dwise/bn
I0104 20:48:53.045589  1475 net.cpp:94] Creating Layer conv3_1/dwise/bn
I0104 20:48:53.045593  1475 net.cpp:435] conv3_1/dwise/bn <- conv3_1/dwise
I0104 20:48:53.045598  1475 net.cpp:409] conv3_1/dwise/bn -> conv3_1/dwise/bn
I0104 20:48:53.046144  1475 net.cpp:144] Setting up conv3_1/dwise/bn
I0104 20:48:53.046150  1475 net.cpp:151] Top shape: 1 144 90 120 (1555200)
I0104 20:48:53.046155  1475 net.cpp:159] Memory required for data: 167270464
I0104 20:48:53.046164  1475 layer_factory.hpp:77] Creating layer relu3_1/dwise
I0104 20:48:53.046169  1475 net.cpp:94] Creating Layer relu3_1/dwise
I0104 20:48:53.046172  1475 net.cpp:435] relu3_1/dwise <- conv3_1/dwise/bn
I0104 20:48:53.046177  1475 net.cpp:396] relu3_1/dwise -> conv3_1/dwise/bn (in-place)
I0104 20:48:53.046182  1475 net.cpp:144] Setting up relu3_1/dwise
I0104 20:48:53.046186  1475 net.cpp:151] Top shape: 1 144 90 120 (1555200)
I0104 20:48:53.046190  1475 net.cpp:159] Memory required for data: 173491264
I0104 20:48:53.046193  1475 layer_factory.hpp:77] Creating layer conv3_1/linear
I0104 20:48:53.046200  1475 net.cpp:94] Creating Layer conv3_1/linear
I0104 20:48:53.046203  1475 net.cpp:435] conv3_1/linear <- conv3_1/dwise/bn
I0104 20:48:53.046208  1475 net.cpp:409] conv3_1/linear -> conv3_1/linear
I0104 20:48:53.046396  1475 net.cpp:144] Setting up conv3_1/linear
I0104 20:48:53.046402  1475 net.cpp:151] Top shape: 1 24 90 120 (259200)
I0104 20:48:53.046407  1475 net.cpp:159] Memory required for data: 174528064
I0104 20:48:53.046412  1475 layer_factory.hpp:77] Creating layer conv3_1/linear/bn
I0104 20:48:53.046418  1475 net.cpp:94] Creating Layer conv3_1/linear/bn
I0104 20:48:53.046422  1475 net.cpp:435] conv3_1/linear/bn <- conv3_1/linear
I0104 20:48:53.046428  1475 net.cpp:409] conv3_1/linear/bn -> conv3_1/linear/bn
I0104 20:48:53.046988  1475 net.cpp:144] Setting up conv3_1/linear/bn
I0104 20:48:53.046993  1475 net.cpp:151] Top shape: 1 24 90 120 (259200)
I0104 20:48:53.046998  1475 net.cpp:159] Memory required for data: 175564864
I0104 20:48:53.047006  1475 layer_factory.hpp:77] Creating layer block_3_1
I0104 20:48:53.047013  1475 net.cpp:94] Creating Layer block_3_1
I0104 20:48:53.047017  1475 net.cpp:435] block_3_1 <- conv2_2/linear/bn_conv2_2/linear/bn_0_split_1
I0104 20:48:53.047021  1475 net.cpp:435] block_3_1 <- conv3_1/linear/bn
I0104 20:48:53.047026  1475 net.cpp:409] block_3_1 -> block_3_1
I0104 20:48:53.047044  1475 net.cpp:144] Setting up block_3_1
I0104 20:48:53.047049  1475 net.cpp:151] Top shape: 1 24 90 120 (259200)
I0104 20:48:53.047053  1475 net.cpp:159] Memory required for data: 176601664
I0104 20:48:53.047056  1475 layer_factory.hpp:77] Creating layer conv3_2/expand
I0104 20:48:53.047063  1475 net.cpp:94] Creating Layer conv3_2/expand
I0104 20:48:53.047067  1475 net.cpp:435] conv3_2/expand <- block_3_1
I0104 20:48:53.047072  1475 net.cpp:409] conv3_2/expand -> conv3_2/expand
I0104 20:48:53.047260  1475 net.cpp:144] Setting up conv3_2/expand
I0104 20:48:53.047266  1475 net.cpp:151] Top shape: 1 144 90 120 (1555200)
I0104 20:48:53.047271  1475 net.cpp:159] Memory required for data: 182822464
I0104 20:48:53.047276  1475 layer_factory.hpp:77] Creating layer conv3_2/expand/bn
I0104 20:48:53.047284  1475 net.cpp:94] Creating Layer conv3_2/expand/bn
I0104 20:48:53.047288  1475 net.cpp:435] conv3_2/expand/bn <- conv3_2/expand
I0104 20:48:53.047294  1475 net.cpp:409] conv3_2/expand/bn -> conv3_2/expand/bn
I0104 20:48:53.047868  1475 net.cpp:144] Setting up conv3_2/expand/bn
I0104 20:48:53.047876  1475 net.cpp:151] Top shape: 1 144 90 120 (1555200)
I0104 20:48:53.047881  1475 net.cpp:159] Memory required for data: 189043264
I0104 20:48:53.047894  1475 layer_factory.hpp:77] Creating layer relu3_2/expand
I0104 20:48:53.047899  1475 net.cpp:94] Creating Layer relu3_2/expand
I0104 20:48:53.047902  1475 net.cpp:435] relu3_2/expand <- conv3_2/expand/bn
I0104 20:48:53.047906  1475 net.cpp:396] relu3_2/expand -> conv3_2/expand/bn (in-place)
I0104 20:48:53.047912  1475 net.cpp:144] Setting up relu3_2/expand
I0104 20:48:53.047916  1475 net.cpp:151] Top shape: 1 144 90 120 (1555200)
I0104 20:48:53.047920  1475 net.cpp:159] Memory required for data: 195264064
I0104 20:48:53.047924  1475 layer_factory.hpp:77] Creating layer conv3_2/dwise
I0104 20:48:53.047930  1475 net.cpp:94] Creating Layer conv3_2/dwise
I0104 20:48:53.047935  1475 net.cpp:435] conv3_2/dwise <- conv3_2/expand/bn
I0104 20:48:53.047940  1475 net.cpp:409] conv3_2/dwise -> conv3_2/dwise
I0104 20:48:53.048120  1475 net.cpp:144] Setting up conv3_2/dwise
I0104 20:48:53.048126  1475 net.cpp:151] Top shape: 1 144 45 60 (388800)
I0104 20:48:53.048131  1475 net.cpp:159] Memory required for data: 196819264
I0104 20:48:53.048136  1475 layer_factory.hpp:77] Creating layer conv3_2/dwise/bn
I0104 20:48:53.048143  1475 net.cpp:94] Creating Layer conv3_2/dwise/bn
I0104 20:48:53.048147  1475 net.cpp:435] conv3_2/dwise/bn <- conv3_2/dwise
I0104 20:48:53.048152  1475 net.cpp:409] conv3_2/dwise/bn -> conv3_2/dwise/bn
I0104 20:48:53.049016  1475 net.cpp:144] Setting up conv3_2/dwise/bn
I0104 20:48:53.049024  1475 net.cpp:151] Top shape: 1 144 45 60 (388800)
I0104 20:48:53.049031  1475 net.cpp:159] Memory required for data: 198374464
I0104 20:48:53.049038  1475 layer_factory.hpp:77] Creating layer relu3_2/dwise
I0104 20:48:53.049043  1475 net.cpp:94] Creating Layer relu3_2/dwise
I0104 20:48:53.049047  1475 net.cpp:435] relu3_2/dwise <- conv3_2/dwise/bn
I0104 20:48:53.049052  1475 net.cpp:396] relu3_2/dwise -> conv3_2/dwise/bn (in-place)
I0104 20:48:53.049058  1475 net.cpp:144] Setting up relu3_2/dwise
I0104 20:48:53.049062  1475 net.cpp:151] Top shape: 1 144 45 60 (388800)
I0104 20:48:53.049065  1475 net.cpp:159] Memory required for data: 199929664
I0104 20:48:53.049068  1475 layer_factory.hpp:77] Creating layer conv3_2/linear
I0104 20:48:53.049074  1475 net.cpp:94] Creating Layer conv3_2/linear
I0104 20:48:53.049077  1475 net.cpp:435] conv3_2/linear <- conv3_2/dwise/bn
I0104 20:48:53.049082  1475 net.cpp:409] conv3_2/linear -> conv3_2/linear
I0104 20:48:53.049271  1475 net.cpp:144] Setting up conv3_2/linear
I0104 20:48:53.049278  1475 net.cpp:151] Top shape: 1 32 45 60 (86400)
I0104 20:48:53.049283  1475 net.cpp:159] Memory required for data: 200275264
I0104 20:48:53.049288  1475 layer_factory.hpp:77] Creating layer conv3_2/linear/bn
I0104 20:48:53.049294  1475 net.cpp:94] Creating Layer conv3_2/linear/bn
I0104 20:48:53.049299  1475 net.cpp:435] conv3_2/linear/bn <- conv3_2/linear
I0104 20:48:53.049304  1475 net.cpp:409] conv3_2/linear/bn -> conv3_2/linear/bn
I0104 20:48:53.049831  1475 net.cpp:144] Setting up conv3_2/linear/bn
I0104 20:48:53.049839  1475 net.cpp:151] Top shape: 1 32 45 60 (86400)
I0104 20:48:53.049844  1475 net.cpp:159] Memory required for data: 200620864
I0104 20:48:53.049850  1475 layer_factory.hpp:77] Creating layer conv3_2/linear/bn_conv3_2/linear/bn_0_split
I0104 20:48:53.049855  1475 net.cpp:94] Creating Layer conv3_2/linear/bn_conv3_2/linear/bn_0_split
I0104 20:48:53.049860  1475 net.cpp:435] conv3_2/linear/bn_conv3_2/linear/bn_0_split <- conv3_2/linear/bn
I0104 20:48:53.049863  1475 net.cpp:409] conv3_2/linear/bn_conv3_2/linear/bn_0_split -> conv3_2/linear/bn_conv3_2/linear/bn_0_split_0
I0104 20:48:53.049870  1475 net.cpp:409] conv3_2/linear/bn_conv3_2/linear/bn_0_split -> conv3_2/linear/bn_conv3_2/linear/bn_0_split_1
I0104 20:48:53.049894  1475 net.cpp:144] Setting up conv3_2/linear/bn_conv3_2/linear/bn_0_split
I0104 20:48:53.049898  1475 net.cpp:151] Top shape: 1 32 45 60 (86400)
I0104 20:48:53.049902  1475 net.cpp:151] Top shape: 1 32 45 60 (86400)
I0104 20:48:53.049906  1475 net.cpp:159] Memory required for data: 201312064
I0104 20:48:53.049909  1475 layer_factory.hpp:77] Creating layer conv4_1/expand
I0104 20:48:53.049916  1475 net.cpp:94] Creating Layer conv4_1/expand
I0104 20:48:53.049919  1475 net.cpp:435] conv4_1/expand <- conv3_2/linear/bn_conv3_2/linear/bn_0_split_0
I0104 20:48:53.049924  1475 net.cpp:409] conv4_1/expand -> conv4_1/expand
I0104 20:48:53.050122  1475 net.cpp:144] Setting up conv4_1/expand
I0104 20:48:53.050128  1475 net.cpp:151] Top shape: 1 192 45 60 (518400)
I0104 20:48:53.050133  1475 net.cpp:159] Memory required for data: 203385664
I0104 20:48:53.050138  1475 layer_factory.hpp:77] Creating layer conv4_1/expand/bn
I0104 20:48:53.050144  1475 net.cpp:94] Creating Layer conv4_1/expand/bn
I0104 20:48:53.050148  1475 net.cpp:435] conv4_1/expand/bn <- conv4_1/expand
I0104 20:48:53.050153  1475 net.cpp:409] conv4_1/expand/bn -> conv4_1/expand/bn
I0104 20:48:53.050683  1475 net.cpp:144] Setting up conv4_1/expand/bn
I0104 20:48:53.050688  1475 net.cpp:151] Top shape: 1 192 45 60 (518400)
I0104 20:48:53.050694  1475 net.cpp:159] Memory required for data: 205459264
I0104 20:48:53.050701  1475 layer_factory.hpp:77] Creating layer relu4_1/expand
I0104 20:48:53.050706  1475 net.cpp:94] Creating Layer relu4_1/expand
I0104 20:48:53.050710  1475 net.cpp:435] relu4_1/expand <- conv4_1/expand/bn
I0104 20:48:53.050714  1475 net.cpp:396] relu4_1/expand -> conv4_1/expand/bn (in-place)
I0104 20:48:53.050720  1475 net.cpp:144] Setting up relu4_1/expand
I0104 20:48:53.050722  1475 net.cpp:151] Top shape: 1 192 45 60 (518400)
I0104 20:48:53.050727  1475 net.cpp:159] Memory required for data: 207532864
I0104 20:48:53.050730  1475 layer_factory.hpp:77] Creating layer conv4_1/dwise
I0104 20:48:53.050737  1475 net.cpp:94] Creating Layer conv4_1/dwise
I0104 20:48:53.050740  1475 net.cpp:435] conv4_1/dwise <- conv4_1/expand/bn
I0104 20:48:53.050745  1475 net.cpp:409] conv4_1/dwise -> conv4_1/dwise
I0104 20:48:53.050912  1475 net.cpp:144] Setting up conv4_1/dwise
I0104 20:48:53.050918  1475 net.cpp:151] Top shape: 1 192 45 60 (518400)
I0104 20:48:53.050923  1475 net.cpp:159] Memory required for data: 209606464
I0104 20:48:53.050927  1475 layer_factory.hpp:77] Creating layer conv4_1/dwise/bn
I0104 20:48:53.050935  1475 net.cpp:94] Creating Layer conv4_1/dwise/bn
I0104 20:48:53.050938  1475 net.cpp:435] conv4_1/dwise/bn <- conv4_1/dwise
I0104 20:48:53.050943  1475 net.cpp:409] conv4_1/dwise/bn -> conv4_1/dwise/bn
I0104 20:48:53.051468  1475 net.cpp:144] Setting up conv4_1/dwise/bn
I0104 20:48:53.051474  1475 net.cpp:151] Top shape: 1 192 45 60 (518400)
I0104 20:48:53.051479  1475 net.cpp:159] Memory required for data: 211680064
I0104 20:48:53.051486  1475 layer_factory.hpp:77] Creating layer relu4_1/dwise
I0104 20:48:53.051491  1475 net.cpp:94] Creating Layer relu4_1/dwise
I0104 20:48:53.051494  1475 net.cpp:435] relu4_1/dwise <- conv4_1/dwise/bn
I0104 20:48:53.051499  1475 net.cpp:396] relu4_1/dwise -> conv4_1/dwise/bn (in-place)
I0104 20:48:53.051504  1475 net.cpp:144] Setting up relu4_1/dwise
I0104 20:48:53.051507  1475 net.cpp:151] Top shape: 1 192 45 60 (518400)
I0104 20:48:53.051512  1475 net.cpp:159] Memory required for data: 213753664
I0104 20:48:53.051515  1475 layer_factory.hpp:77] Creating layer conv4_1/linear
I0104 20:48:53.051522  1475 net.cpp:94] Creating Layer conv4_1/linear
I0104 20:48:53.051524  1475 net.cpp:435] conv4_1/linear <- conv4_1/dwise/bn
I0104 20:48:53.051529  1475 net.cpp:409] conv4_1/linear -> conv4_1/linear
I0104 20:48:53.051741  1475 net.cpp:144] Setting up conv4_1/linear
I0104 20:48:53.051748  1475 net.cpp:151] Top shape: 1 32 45 60 (86400)
I0104 20:48:53.051753  1475 net.cpp:159] Memory required for data: 214099264
I0104 20:48:53.051759  1475 layer_factory.hpp:77] Creating layer conv4_1/linear/bn
I0104 20:48:53.051765  1475 net.cpp:94] Creating Layer conv4_1/linear/bn
I0104 20:48:53.051769  1475 net.cpp:435] conv4_1/linear/bn <- conv4_1/linear
I0104 20:48:53.051774  1475 net.cpp:409] conv4_1/linear/bn -> conv4_1/linear/bn
I0104 20:48:53.052472  1475 net.cpp:144] Setting up conv4_1/linear/bn
I0104 20:48:53.052480  1475 net.cpp:151] Top shape: 1 32 45 60 (86400)
I0104 20:48:53.052485  1475 net.cpp:159] Memory required for data: 214444864
I0104 20:48:53.052493  1475 layer_factory.hpp:77] Creating layer block_4_1
I0104 20:48:53.052500  1475 net.cpp:94] Creating Layer block_4_1
I0104 20:48:53.052502  1475 net.cpp:435] block_4_1 <- conv3_2/linear/bn_conv3_2/linear/bn_0_split_1
I0104 20:48:53.052506  1475 net.cpp:435] block_4_1 <- conv4_1/linear/bn
I0104 20:48:53.052511  1475 net.cpp:409] block_4_1 -> block_4_1
I0104 20:48:53.052529  1475 net.cpp:144] Setting up block_4_1
I0104 20:48:53.052533  1475 net.cpp:151] Top shape: 1 32 45 60 (86400)
I0104 20:48:53.052537  1475 net.cpp:159] Memory required for data: 214790464
I0104 20:48:53.052541  1475 layer_factory.hpp:77] Creating layer block_4_1_block_4_1_0_split
I0104 20:48:53.052546  1475 net.cpp:94] Creating Layer block_4_1_block_4_1_0_split
I0104 20:48:53.052549  1475 net.cpp:435] block_4_1_block_4_1_0_split <- block_4_1
I0104 20:48:53.052553  1475 net.cpp:409] block_4_1_block_4_1_0_split -> block_4_1_block_4_1_0_split_0
I0104 20:48:53.052558  1475 net.cpp:409] block_4_1_block_4_1_0_split -> block_4_1_block_4_1_0_split_1
I0104 20:48:53.052583  1475 net.cpp:144] Setting up block_4_1_block_4_1_0_split
I0104 20:48:53.052587  1475 net.cpp:151] Top shape: 1 32 45 60 (86400)
I0104 20:48:53.052592  1475 net.cpp:151] Top shape: 1 32 45 60 (86400)
I0104 20:48:53.052595  1475 net.cpp:159] Memory required for data: 215481664
I0104 20:48:53.052598  1475 layer_factory.hpp:77] Creating layer conv4_2/expand
I0104 20:48:53.052605  1475 net.cpp:94] Creating Layer conv4_2/expand
I0104 20:48:53.052608  1475 net.cpp:435] conv4_2/expand <- block_4_1_block_4_1_0_split_0
I0104 20:48:53.052613  1475 net.cpp:409] conv4_2/expand -> conv4_2/expand
I0104 20:48:53.052819  1475 net.cpp:144] Setting up conv4_2/expand
I0104 20:48:53.052826  1475 net.cpp:151] Top shape: 1 192 45 60 (518400)
I0104 20:48:53.052831  1475 net.cpp:159] Memory required for data: 217555264
I0104 20:48:53.052836  1475 layer_factory.hpp:77] Creating layer conv4_2/expand/bn
I0104 20:48:53.052843  1475 net.cpp:94] Creating Layer conv4_2/expand/bn
I0104 20:48:53.052846  1475 net.cpp:435] conv4_2/expand/bn <- conv4_2/expand
I0104 20:48:53.052852  1475 net.cpp:409] conv4_2/expand/bn -> conv4_2/expand/bn
I0104 20:48:53.053385  1475 net.cpp:144] Setting up conv4_2/expand/bn
I0104 20:48:53.053390  1475 net.cpp:151] Top shape: 1 192 45 60 (518400)
I0104 20:48:53.053395  1475 net.cpp:159] Memory required for data: 219628864
I0104 20:48:53.053403  1475 layer_factory.hpp:77] Creating layer relu4_2/expand
I0104 20:48:53.053408  1475 net.cpp:94] Creating Layer relu4_2/expand
I0104 20:48:53.053411  1475 net.cpp:435] relu4_2/expand <- conv4_2/expand/bn
I0104 20:48:53.053416  1475 net.cpp:396] relu4_2/expand -> conv4_2/expand/bn (in-place)
I0104 20:48:53.053421  1475 net.cpp:144] Setting up relu4_2/expand
I0104 20:48:53.053424  1475 net.cpp:151] Top shape: 1 192 45 60 (518400)
I0104 20:48:53.053428  1475 net.cpp:159] Memory required for data: 221702464
I0104 20:48:53.053432  1475 layer_factory.hpp:77] Creating layer conv4_2/dwise
I0104 20:48:53.053438  1475 net.cpp:94] Creating Layer conv4_2/dwise
I0104 20:48:53.053442  1475 net.cpp:435] conv4_2/dwise <- conv4_2/expand/bn
I0104 20:48:53.053447  1475 net.cpp:409] conv4_2/dwise -> conv4_2/dwise
I0104 20:48:53.053614  1475 net.cpp:144] Setting up conv4_2/dwise
I0104 20:48:53.053620  1475 net.cpp:151] Top shape: 1 192 45 60 (518400)
I0104 20:48:53.053625  1475 net.cpp:159] Memory required for data: 223776064
I0104 20:48:53.053629  1475 layer_factory.hpp:77] Creating layer conv4_2/dwise/bn
I0104 20:48:53.053637  1475 net.cpp:94] Creating Layer conv4_2/dwise/bn
I0104 20:48:53.053640  1475 net.cpp:435] conv4_2/dwise/bn <- conv4_2/dwise
I0104 20:48:53.053645  1475 net.cpp:409] conv4_2/dwise/bn -> conv4_2/dwise/bn
I0104 20:48:53.054188  1475 net.cpp:144] Setting up conv4_2/dwise/bn
I0104 20:48:53.054195  1475 net.cpp:151] Top shape: 1 192 45 60 (518400)
I0104 20:48:53.054215  1475 net.cpp:159] Memory required for data: 225849664
I0104 20:48:53.054222  1475 layer_factory.hpp:77] Creating layer relu4_2/dwise
I0104 20:48:53.054227  1475 net.cpp:94] Creating Layer relu4_2/dwise
I0104 20:48:53.054230  1475 net.cpp:435] relu4_2/dwise <- conv4_2/dwise/bn
I0104 20:48:53.054235  1475 net.cpp:396] relu4_2/dwise -> conv4_2/dwise/bn (in-place)
I0104 20:48:53.054240  1475 net.cpp:144] Setting up relu4_2/dwise
I0104 20:48:53.054244  1475 net.cpp:151] Top shape: 1 192 45 60 (518400)
I0104 20:48:53.054247  1475 net.cpp:159] Memory required for data: 227923264
I0104 20:48:53.054250  1475 layer_factory.hpp:77] Creating layer conv4_2/linear
I0104 20:48:53.054256  1475 net.cpp:94] Creating Layer conv4_2/linear
I0104 20:48:53.054260  1475 net.cpp:435] conv4_2/linear <- conv4_2/dwise/bn
I0104 20:48:53.054265  1475 net.cpp:409] conv4_2/linear -> conv4_2/linear
I0104 20:48:53.054467  1475 net.cpp:144] Setting up conv4_2/linear
I0104 20:48:53.054473  1475 net.cpp:151] Top shape: 1 32 45 60 (86400)
I0104 20:48:53.054478  1475 net.cpp:159] Memory required for data: 228268864
I0104 20:48:53.054483  1475 layer_factory.hpp:77] Creating layer conv4_2/linear/bn
I0104 20:48:53.054491  1475 net.cpp:94] Creating Layer conv4_2/linear/bn
I0104 20:48:53.054493  1475 net.cpp:435] conv4_2/linear/bn <- conv4_2/linear
I0104 20:48:53.054499  1475 net.cpp:409] conv4_2/linear/bn -> conv4_2/linear/bn
I0104 20:48:53.055047  1475 net.cpp:144] Setting up conv4_2/linear/bn
I0104 20:48:53.055052  1475 net.cpp:151] Top shape: 1 32 45 60 (86400)
I0104 20:48:53.055073  1475 net.cpp:159] Memory required for data: 228614464
I0104 20:48:53.055080  1475 layer_factory.hpp:77] Creating layer block_4_2
I0104 20:48:53.055085  1475 net.cpp:94] Creating Layer block_4_2
I0104 20:48:53.055089  1475 net.cpp:435] block_4_2 <- block_4_1_block_4_1_0_split_1
I0104 20:48:53.055092  1475 net.cpp:435] block_4_2 <- conv4_2/linear/bn
I0104 20:48:53.055097  1475 net.cpp:409] block_4_2 -> block_4_2
I0104 20:48:53.055115  1475 net.cpp:144] Setting up block_4_2
I0104 20:48:53.055119  1475 net.cpp:151] Top shape: 1 32 45 60 (86400)
I0104 20:48:53.055124  1475 net.cpp:159] Memory required for data: 228960064
I0104 20:48:53.055126  1475 layer_factory.hpp:77] Creating layer conv4_3/expand
I0104 20:48:53.055133  1475 net.cpp:94] Creating Layer conv4_3/expand
I0104 20:48:53.055136  1475 net.cpp:435] conv4_3/expand <- block_4_2
I0104 20:48:53.055140  1475 net.cpp:409] conv4_3/expand -> conv4_3/expand
I0104 20:48:53.055344  1475 net.cpp:144] Setting up conv4_3/expand
I0104 20:48:53.055351  1475 net.cpp:151] Top shape: 1 192 45 60 (518400)
I0104 20:48:53.055356  1475 net.cpp:159] Memory required for data: 231033664
I0104 20:48:53.055361  1475 layer_factory.hpp:77] Creating layer conv4_3/expand/bn
I0104 20:48:53.055367  1475 net.cpp:94] Creating Layer conv4_3/expand/bn
I0104 20:48:53.055371  1475 net.cpp:435] conv4_3/expand/bn <- conv4_3/expand
I0104 20:48:53.055377  1475 net.cpp:409] conv4_3/expand/bn -> conv4_3/expand/bn
I0104 20:48:53.055927  1475 net.cpp:144] Setting up conv4_3/expand/bn
I0104 20:48:53.055934  1475 net.cpp:151] Top shape: 1 192 45 60 (518400)
I0104 20:48:53.055939  1475 net.cpp:159] Memory required for data: 233107264
I0104 20:48:53.055946  1475 layer_factory.hpp:77] Creating layer relu4_3/expand
I0104 20:48:53.055951  1475 net.cpp:94] Creating Layer relu4_3/expand
I0104 20:48:53.055955  1475 net.cpp:435] relu4_3/expand <- conv4_3/expand/bn
I0104 20:48:53.055959  1475 net.cpp:396] relu4_3/expand -> conv4_3/expand/bn (in-place)
I0104 20:48:53.055965  1475 net.cpp:144] Setting up relu4_3/expand
I0104 20:48:53.055968  1475 net.cpp:151] Top shape: 1 192 45 60 (518400)
I0104 20:48:53.055974  1475 net.cpp:159] Memory required for data: 235180864
I0104 20:48:53.055976  1475 layer_factory.hpp:77] Creating layer conv4_3/dwise
I0104 20:48:53.055982  1475 net.cpp:94] Creating Layer conv4_3/dwise
I0104 20:48:53.055985  1475 net.cpp:435] conv4_3/dwise <- conv4_3/expand/bn
I0104 20:48:53.055990  1475 net.cpp:409] conv4_3/dwise -> conv4_3/dwise
I0104 20:48:53.056161  1475 net.cpp:144] Setting up conv4_3/dwise
I0104 20:48:53.056169  1475 net.cpp:151] Top shape: 1 192 45 60 (518400)
I0104 20:48:53.056172  1475 net.cpp:159] Memory required for data: 237254464
I0104 20:48:53.056177  1475 layer_factory.hpp:77] Creating layer conv4_3/dwise/bn
I0104 20:48:53.056183  1475 net.cpp:94] Creating Layer conv4_3/dwise/bn
I0104 20:48:53.056186  1475 net.cpp:435] conv4_3/dwise/bn <- conv4_3/dwise
I0104 20:48:53.056191  1475 net.cpp:409] conv4_3/dwise/bn -> conv4_3/dwise/bn
I0104 20:48:53.056736  1475 net.cpp:144] Setting up conv4_3/dwise/bn
I0104 20:48:53.056742  1475 net.cpp:151] Top shape: 1 192 45 60 (518400)
I0104 20:48:53.056747  1475 net.cpp:159] Memory required for data: 239328064
I0104 20:48:53.056769  1475 layer_factory.hpp:77] Creating layer relu4_3/dwise
I0104 20:48:53.056777  1475 net.cpp:94] Creating Layer relu4_3/dwise
I0104 20:48:53.056780  1475 net.cpp:435] relu4_3/dwise <- conv4_3/dwise/bn
I0104 20:48:53.056787  1475 net.cpp:396] relu4_3/dwise -> conv4_3/dwise/bn (in-place)
I0104 20:48:53.056792  1475 net.cpp:144] Setting up relu4_3/dwise
I0104 20:48:53.056794  1475 net.cpp:151] Top shape: 1 192 45 60 (518400)
I0104 20:48:53.056798  1475 net.cpp:159] Memory required for data: 241401664
I0104 20:48:53.056802  1475 layer_factory.hpp:77] Creating layer conv4_3/linear
I0104 20:48:53.056807  1475 net.cpp:94] Creating Layer conv4_3/linear
I0104 20:48:53.056810  1475 net.cpp:435] conv4_3/linear <- conv4_3/dwise/bn
I0104 20:48:53.056814  1475 net.cpp:409] conv4_3/linear -> conv4_3/linear
I0104 20:48:53.057830  1475 net.cpp:144] Setting up conv4_3/linear
I0104 20:48:53.057840  1475 net.cpp:151] Top shape: 1 64 45 60 (172800)
I0104 20:48:53.057862  1475 net.cpp:159] Memory required for data: 242092864
I0104 20:48:53.057868  1475 layer_factory.hpp:77] Creating layer conv4_3/linear/bn
I0104 20:48:53.057875  1475 net.cpp:94] Creating Layer conv4_3/linear/bn
I0104 20:48:53.057879  1475 net.cpp:435] conv4_3/linear/bn <- conv4_3/linear
I0104 20:48:53.057885  1475 net.cpp:409] conv4_3/linear/bn -> conv4_3/linear/bn
I0104 20:48:53.058485  1475 net.cpp:144] Setting up conv4_3/linear/bn
I0104 20:48:53.058493  1475 net.cpp:151] Top shape: 1 64 45 60 (172800)
I0104 20:48:53.058498  1475 net.cpp:159] Memory required for data: 242784064
I0104 20:48:53.058511  1475 layer_factory.hpp:77] Creating layer conv4_3/linear/bn_conv4_3/linear/bn_0_split
I0104 20:48:53.058517  1475 net.cpp:94] Creating Layer conv4_3/linear/bn_conv4_3/linear/bn_0_split
I0104 20:48:53.058521  1475 net.cpp:435] conv4_3/linear/bn_conv4_3/linear/bn_0_split <- conv4_3/linear/bn
I0104 20:48:53.058526  1475 net.cpp:409] conv4_3/linear/bn_conv4_3/linear/bn_0_split -> conv4_3/linear/bn_conv4_3/linear/bn_0_split_0
I0104 20:48:53.058534  1475 net.cpp:409] conv4_3/linear/bn_conv4_3/linear/bn_0_split -> conv4_3/linear/bn_conv4_3/linear/bn_0_split_1
I0104 20:48:53.058562  1475 net.cpp:144] Setting up conv4_3/linear/bn_conv4_3/linear/bn_0_split
I0104 20:48:53.058565  1475 net.cpp:151] Top shape: 1 64 45 60 (172800)
I0104 20:48:53.058569  1475 net.cpp:151] Top shape: 1 64 45 60 (172800)
I0104 20:48:53.058573  1475 net.cpp:159] Memory required for data: 244166464
I0104 20:48:53.058576  1475 layer_factory.hpp:77] Creating layer conv4_4/expand
I0104 20:48:53.058583  1475 net.cpp:94] Creating Layer conv4_4/expand
I0104 20:48:53.058586  1475 net.cpp:435] conv4_4/expand <- conv4_3/linear/bn_conv4_3/linear/bn_0_split_0
I0104 20:48:53.058593  1475 net.cpp:409] conv4_4/expand -> conv4_4/expand
I0104 20:48:53.058960  1475 net.cpp:144] Setting up conv4_4/expand
I0104 20:48:53.058967  1475 net.cpp:151] Top shape: 1 384 45 60 (1036800)
I0104 20:48:53.058971  1475 net.cpp:159] Memory required for data: 248313664
I0104 20:48:53.058976  1475 layer_factory.hpp:77] Creating layer conv4_4/expand/bn
I0104 20:48:53.058984  1475 net.cpp:94] Creating Layer conv4_4/expand/bn
I0104 20:48:53.058987  1475 net.cpp:435] conv4_4/expand/bn <- conv4_4/expand
I0104 20:48:53.058992  1475 net.cpp:409] conv4_4/expand/bn -> conv4_4/expand/bn
I0104 20:48:53.059463  1475 net.cpp:144] Setting up conv4_4/expand/bn
I0104 20:48:53.059469  1475 net.cpp:151] Top shape: 1 384 45 60 (1036800)
I0104 20:48:53.059474  1475 net.cpp:159] Memory required for data: 252460864
I0104 20:48:53.059482  1475 layer_factory.hpp:77] Creating layer relu4_4/expand
I0104 20:48:53.059487  1475 net.cpp:94] Creating Layer relu4_4/expand
I0104 20:48:53.059490  1475 net.cpp:435] relu4_4/expand <- conv4_4/expand/bn
I0104 20:48:53.059495  1475 net.cpp:396] relu4_4/expand -> conv4_4/expand/bn (in-place)
I0104 20:48:53.059500  1475 net.cpp:144] Setting up relu4_4/expand
I0104 20:48:53.059504  1475 net.cpp:151] Top shape: 1 384 45 60 (1036800)
I0104 20:48:53.059509  1475 net.cpp:159] Memory required for data: 256608064
I0104 20:48:53.059511  1475 layer_factory.hpp:77] Creating layer conv4_4/dwise
I0104 20:48:53.059518  1475 net.cpp:94] Creating Layer conv4_4/dwise
I0104 20:48:53.059521  1475 net.cpp:435] conv4_4/dwise <- conv4_4/expand/bn
I0104 20:48:53.059525  1475 net.cpp:409] conv4_4/dwise -> conv4_4/dwise
I0104 20:48:53.059712  1475 net.cpp:144] Setting up conv4_4/dwise
I0104 20:48:53.059720  1475 net.cpp:151] Top shape: 1 384 45 60 (1036800)
I0104 20:48:53.059725  1475 net.cpp:159] Memory required for data: 260755264
I0104 20:48:53.059729  1475 layer_factory.hpp:77] Creating layer conv4_4/dwise/bn
I0104 20:48:53.059736  1475 net.cpp:94] Creating Layer conv4_4/dwise/bn
I0104 20:48:53.059739  1475 net.cpp:435] conv4_4/dwise/bn <- conv4_4/dwise
I0104 20:48:53.059744  1475 net.cpp:409] conv4_4/dwise/bn -> conv4_4/dwise/bn
I0104 20:48:53.060218  1475 net.cpp:144] Setting up conv4_4/dwise/bn
I0104 20:48:53.060225  1475 net.cpp:151] Top shape: 1 384 45 60 (1036800)
I0104 20:48:53.060245  1475 net.cpp:159] Memory required for data: 264902464
I0104 20:48:53.060253  1475 layer_factory.hpp:77] Creating layer relu4_4/dwise
I0104 20:48:53.060258  1475 net.cpp:94] Creating Layer relu4_4/dwise
I0104 20:48:53.060261  1475 net.cpp:435] relu4_4/dwise <- conv4_4/dwise/bn
I0104 20:48:53.060266  1475 net.cpp:396] relu4_4/dwise -> conv4_4/dwise/bn (in-place)
I0104 20:48:53.060271  1475 net.cpp:144] Setting up relu4_4/dwise
I0104 20:48:53.060274  1475 net.cpp:151] Top shape: 1 384 45 60 (1036800)
I0104 20:48:53.060278  1475 net.cpp:159] Memory required for data: 269049664
I0104 20:48:53.060281  1475 layer_factory.hpp:77] Creating layer conv4_4/linear
I0104 20:48:53.060287  1475 net.cpp:94] Creating Layer conv4_4/linear
I0104 20:48:53.060290  1475 net.cpp:435] conv4_4/linear <- conv4_4/dwise/bn
I0104 20:48:53.060295  1475 net.cpp:409] conv4_4/linear -> conv4_4/linear
I0104 20:48:53.060664  1475 net.cpp:144] Setting up conv4_4/linear
I0104 20:48:53.060670  1475 net.cpp:151] Top shape: 1 64 45 60 (172800)
I0104 20:48:53.060675  1475 net.cpp:159] Memory required for data: 269740864
I0104 20:48:53.060679  1475 layer_factory.hpp:77] Creating layer conv4_4/linear/bn
I0104 20:48:53.060686  1475 net.cpp:94] Creating Layer conv4_4/linear/bn
I0104 20:48:53.060689  1475 net.cpp:435] conv4_4/linear/bn <- conv4_4/linear
I0104 20:48:53.060694  1475 net.cpp:409] conv4_4/linear/bn -> conv4_4/linear/bn
I0104 20:48:53.061259  1475 net.cpp:144] Setting up conv4_4/linear/bn
I0104 20:48:53.061265  1475 net.cpp:151] Top shape: 1 64 45 60 (172800)
I0104 20:48:53.061280  1475 net.cpp:159] Memory required for data: 270432064
I0104 20:48:53.061288  1475 layer_factory.hpp:77] Creating layer block_4_4
I0104 20:48:53.061293  1475 net.cpp:94] Creating Layer block_4_4
I0104 20:48:53.061297  1475 net.cpp:435] block_4_4 <- conv4_3/linear/bn_conv4_3/linear/bn_0_split_1
I0104 20:48:53.061300  1475 net.cpp:435] block_4_4 <- conv4_4/linear/bn
I0104 20:48:53.061305  1475 net.cpp:409] block_4_4 -> block_4_4
I0104 20:48:53.061323  1475 net.cpp:144] Setting up block_4_4
I0104 20:48:53.061331  1475 net.cpp:151] Top shape: 1 64 45 60 (172800)
I0104 20:48:53.061334  1475 net.cpp:159] Memory required for data: 271123264
I0104 20:48:53.061337  1475 layer_factory.hpp:77] Creating layer block_4_4_block_4_4_0_split
I0104 20:48:53.061342  1475 net.cpp:94] Creating Layer block_4_4_block_4_4_0_split
I0104 20:48:53.061345  1475 net.cpp:435] block_4_4_block_4_4_0_split <- block_4_4
I0104 20:48:53.061350  1475 net.cpp:409] block_4_4_block_4_4_0_split -> block_4_4_block_4_4_0_split_0
I0104 20:48:53.061355  1475 net.cpp:409] block_4_4_block_4_4_0_split -> block_4_4_block_4_4_0_split_1
I0104 20:48:53.061380  1475 net.cpp:144] Setting up block_4_4_block_4_4_0_split
I0104 20:48:53.061384  1475 net.cpp:151] Top shape: 1 64 45 60 (172800)
I0104 20:48:53.061388  1475 net.cpp:151] Top shape: 1 64 45 60 (172800)
I0104 20:48:53.061393  1475 net.cpp:159] Memory required for data: 272505664
I0104 20:48:53.061395  1475 layer_factory.hpp:77] Creating layer conv4_5/expand
I0104 20:48:53.061401  1475 net.cpp:94] Creating Layer conv4_5/expand
I0104 20:48:53.061405  1475 net.cpp:435] conv4_5/expand <- block_4_4_block_4_4_0_split_0
I0104 20:48:53.061410  1475 net.cpp:409] conv4_5/expand -> conv4_5/expand
I0104 20:48:53.061920  1475 net.cpp:144] Setting up conv4_5/expand
I0104 20:48:53.061928  1475 net.cpp:151] Top shape: 1 384 45 60 (1036800)
I0104 20:48:53.061933  1475 net.cpp:159] Memory required for data: 276652864
I0104 20:48:53.061937  1475 layer_factory.hpp:77] Creating layer conv4_5/expand/bn
I0104 20:48:53.061945  1475 net.cpp:94] Creating Layer conv4_5/expand/bn
I0104 20:48:53.061949  1475 net.cpp:435] conv4_5/expand/bn <- conv4_5/expand
I0104 20:48:53.061954  1475 net.cpp:409] conv4_5/expand/bn -> conv4_5/expand/bn
I0104 20:48:53.062424  1475 net.cpp:144] Setting up conv4_5/expand/bn
I0104 20:48:53.062431  1475 net.cpp:151] Top shape: 1 384 45 60 (1036800)
I0104 20:48:53.062436  1475 net.cpp:159] Memory required for data: 280800064
I0104 20:48:53.062443  1475 layer_factory.hpp:77] Creating layer relu4_5/expand
I0104 20:48:53.062448  1475 net.cpp:94] Creating Layer relu4_5/expand
I0104 20:48:53.062453  1475 net.cpp:435] relu4_5/expand <- conv4_5/expand/bn
I0104 20:48:53.062458  1475 net.cpp:396] relu4_5/expand -> conv4_5/expand/bn (in-place)
I0104 20:48:53.062463  1475 net.cpp:144] Setting up relu4_5/expand
I0104 20:48:53.062465  1475 net.cpp:151] Top shape: 1 384 45 60 (1036800)
I0104 20:48:53.062470  1475 net.cpp:159] Memory required for data: 284947264
I0104 20:48:53.062474  1475 layer_factory.hpp:77] Creating layer conv4_5/dwise
I0104 20:48:53.062479  1475 net.cpp:94] Creating Layer conv4_5/dwise
I0104 20:48:53.062482  1475 net.cpp:435] conv4_5/dwise <- conv4_5/expand/bn
I0104 20:48:53.062487  1475 net.cpp:409] conv4_5/dwise -> conv4_5/dwise
I0104 20:48:53.062664  1475 net.cpp:144] Setting up conv4_5/dwise
I0104 20:48:53.062671  1475 net.cpp:151] Top shape: 1 384 45 60 (1036800)
I0104 20:48:53.062675  1475 net.cpp:159] Memory required for data: 289094464
I0104 20:48:53.062680  1475 layer_factory.hpp:77] Creating layer conv4_5/dwise/bn
I0104 20:48:53.062686  1475 net.cpp:94] Creating Layer conv4_5/dwise/bn
I0104 20:48:53.062690  1475 net.cpp:435] conv4_5/dwise/bn <- conv4_5/dwise
I0104 20:48:53.062695  1475 net.cpp:409] conv4_5/dwise/bn -> conv4_5/dwise/bn
I0104 20:48:53.063156  1475 net.cpp:144] Setting up conv4_5/dwise/bn
I0104 20:48:53.063163  1475 net.cpp:151] Top shape: 1 384 45 60 (1036800)
I0104 20:48:53.063169  1475 net.cpp:159] Memory required for data: 293241664
I0104 20:48:53.063175  1475 layer_factory.hpp:77] Creating layer relu4_5/dwise
I0104 20:48:53.063180  1475 net.cpp:94] Creating Layer relu4_5/dwise
I0104 20:48:53.063184  1475 net.cpp:435] relu4_5/dwise <- conv4_5/dwise/bn
I0104 20:48:53.063189  1475 net.cpp:396] relu4_5/dwise -> conv4_5/dwise/bn (in-place)
I0104 20:48:53.063194  1475 net.cpp:144] Setting up relu4_5/dwise
I0104 20:48:53.063196  1475 net.cpp:151] Top shape: 1 384 45 60 (1036800)
I0104 20:48:53.063201  1475 net.cpp:159] Memory required for data: 297388864
I0104 20:48:53.063205  1475 layer_factory.hpp:77] Creating layer conv4_5/linear
I0104 20:48:53.063210  1475 net.cpp:94] Creating Layer conv4_5/linear
I0104 20:48:53.063213  1475 net.cpp:435] conv4_5/linear <- conv4_5/dwise/bn
I0104 20:48:53.063218  1475 net.cpp:409] conv4_5/linear -> conv4_5/linear
I0104 20:48:53.063585  1475 net.cpp:144] Setting up conv4_5/linear
I0104 20:48:53.063591  1475 net.cpp:151] Top shape: 1 64 45 60 (172800)
I0104 20:48:53.063596  1475 net.cpp:159] Memory required for data: 298080064
I0104 20:48:53.063601  1475 layer_factory.hpp:77] Creating layer conv4_5/linear/bn
I0104 20:48:53.063608  1475 net.cpp:94] Creating Layer conv4_5/linear/bn
I0104 20:48:53.063611  1475 net.cpp:435] conv4_5/linear/bn <- conv4_5/linear
I0104 20:48:53.063616  1475 net.cpp:409] conv4_5/linear/bn -> conv4_5/linear/bn
I0104 20:48:53.064193  1475 net.cpp:144] Setting up conv4_5/linear/bn
I0104 20:48:53.064199  1475 net.cpp:151] Top shape: 1 64 45 60 (172800)
I0104 20:48:53.064219  1475 net.cpp:159] Memory required for data: 298771264
I0104 20:48:53.064226  1475 layer_factory.hpp:77] Creating layer block_4_5
I0104 20:48:53.064232  1475 net.cpp:94] Creating Layer block_4_5
I0104 20:48:53.064235  1475 net.cpp:435] block_4_5 <- block_4_4_block_4_4_0_split_1
I0104 20:48:53.064240  1475 net.cpp:435] block_4_5 <- conv4_5/linear/bn
I0104 20:48:53.064245  1475 net.cpp:409] block_4_5 -> block_4_5
I0104 20:48:53.064263  1475 net.cpp:144] Setting up block_4_5
I0104 20:48:53.064267  1475 net.cpp:151] Top shape: 1 64 45 60 (172800)
I0104 20:48:53.064271  1475 net.cpp:159] Memory required for data: 299462464
I0104 20:48:53.064275  1475 layer_factory.hpp:77] Creating layer block_4_5_block_4_5_0_split
I0104 20:48:53.064280  1475 net.cpp:94] Creating Layer block_4_5_block_4_5_0_split
I0104 20:48:53.064283  1475 net.cpp:435] block_4_5_block_4_5_0_split <- block_4_5
I0104 20:48:53.064287  1475 net.cpp:409] block_4_5_block_4_5_0_split -> block_4_5_block_4_5_0_split_0
I0104 20:48:53.064292  1475 net.cpp:409] block_4_5_block_4_5_0_split -> block_4_5_block_4_5_0_split_1
I0104 20:48:53.064317  1475 net.cpp:144] Setting up block_4_5_block_4_5_0_split
I0104 20:48:53.064324  1475 net.cpp:151] Top shape: 1 64 45 60 (172800)
I0104 20:48:53.064328  1475 net.cpp:151] Top shape: 1 64 45 60 (172800)
I0104 20:48:53.064332  1475 net.cpp:159] Memory required for data: 300844864
I0104 20:48:53.064335  1475 layer_factory.hpp:77] Creating layer conv4_6/expand
I0104 20:48:53.064342  1475 net.cpp:94] Creating Layer conv4_6/expand
I0104 20:48:53.064347  1475 net.cpp:435] conv4_6/expand <- block_4_5_block_4_5_0_split_0
I0104 20:48:53.064352  1475 net.cpp:409] conv4_6/expand -> conv4_6/expand
I0104 20:48:53.064714  1475 net.cpp:144] Setting up conv4_6/expand
I0104 20:48:53.064721  1475 net.cpp:151] Top shape: 1 384 45 60 (1036800)
I0104 20:48:53.064726  1475 net.cpp:159] Memory required for data: 304992064
I0104 20:48:53.064730  1475 layer_factory.hpp:77] Creating layer conv4_6/expand/bn
I0104 20:48:53.064738  1475 net.cpp:94] Creating Layer conv4_6/expand/bn
I0104 20:48:53.064740  1475 net.cpp:435] conv4_6/expand/bn <- conv4_6/expand
I0104 20:48:53.064745  1475 net.cpp:409] conv4_6/expand/bn -> conv4_6/expand/bn
I0104 20:48:53.065208  1475 net.cpp:144] Setting up conv4_6/expand/bn
I0104 20:48:53.065215  1475 net.cpp:151] Top shape: 1 384 45 60 (1036800)
I0104 20:48:53.065219  1475 net.cpp:159] Memory required for data: 309139264
I0104 20:48:53.065227  1475 layer_factory.hpp:77] Creating layer relu4_6/expand
I0104 20:48:53.065232  1475 net.cpp:94] Creating Layer relu4_6/expand
I0104 20:48:53.065235  1475 net.cpp:435] relu4_6/expand <- conv4_6/expand/bn
I0104 20:48:53.065240  1475 net.cpp:396] relu4_6/expand -> conv4_6/expand/bn (in-place)
I0104 20:48:53.065245  1475 net.cpp:144] Setting up relu4_6/expand
I0104 20:48:53.065248  1475 net.cpp:151] Top shape: 1 384 45 60 (1036800)
I0104 20:48:53.065253  1475 net.cpp:159] Memory required for data: 313286464
I0104 20:48:53.065255  1475 layer_factory.hpp:77] Creating layer conv4_6/dwise
I0104 20:48:53.065263  1475 net.cpp:94] Creating Layer conv4_6/dwise
I0104 20:48:53.065265  1475 net.cpp:435] conv4_6/dwise <- conv4_6/expand/bn
I0104 20:48:53.065269  1475 net.cpp:409] conv4_6/dwise -> conv4_6/dwise
I0104 20:48:53.065448  1475 net.cpp:144] Setting up conv4_6/dwise
I0104 20:48:53.065454  1475 net.cpp:151] Top shape: 1 384 45 60 (1036800)
I0104 20:48:53.065459  1475 net.cpp:159] Memory required for data: 317433664
I0104 20:48:53.065462  1475 layer_factory.hpp:77] Creating layer conv4_6/dwise/bn
I0104 20:48:53.065469  1475 net.cpp:94] Creating Layer conv4_6/dwise/bn
I0104 20:48:53.065472  1475 net.cpp:435] conv4_6/dwise/bn <- conv4_6/dwise
I0104 20:48:53.065477  1475 net.cpp:409] conv4_6/dwise/bn -> conv4_6/dwise/bn
I0104 20:48:53.065949  1475 net.cpp:144] Setting up conv4_6/dwise/bn
I0104 20:48:53.065955  1475 net.cpp:151] Top shape: 1 384 45 60 (1036800)
I0104 20:48:53.065959  1475 net.cpp:159] Memory required for data: 321580864
I0104 20:48:53.065982  1475 layer_factory.hpp:77] Creating layer relu4_6/dwise
I0104 20:48:53.065987  1475 net.cpp:94] Creating Layer relu4_6/dwise
I0104 20:48:53.065990  1475 net.cpp:435] relu4_6/dwise <- conv4_6/dwise/bn
I0104 20:48:53.065994  1475 net.cpp:396] relu4_6/dwise -> conv4_6/dwise/bn (in-place)
I0104 20:48:53.066000  1475 net.cpp:144] Setting up relu4_6/dwise
I0104 20:48:53.066004  1475 net.cpp:151] Top shape: 1 384 45 60 (1036800)
I0104 20:48:53.066007  1475 net.cpp:159] Memory required for data: 325728064
I0104 20:48:53.066010  1475 layer_factory.hpp:77] Creating layer conv4_6/linear
I0104 20:48:53.066016  1475 net.cpp:94] Creating Layer conv4_6/linear
I0104 20:48:53.066020  1475 net.cpp:435] conv4_6/linear <- conv4_6/dwise/bn
I0104 20:48:53.066025  1475 net.cpp:409] conv4_6/linear -> conv4_6/linear
I0104 20:48:53.066391  1475 net.cpp:144] Setting up conv4_6/linear
I0104 20:48:53.066397  1475 net.cpp:151] Top shape: 1 64 45 60 (172800)
I0104 20:48:53.066402  1475 net.cpp:159] Memory required for data: 326419264
I0104 20:48:53.066407  1475 layer_factory.hpp:77] Creating layer conv4_6/linear/bn
I0104 20:48:53.066414  1475 net.cpp:94] Creating Layer conv4_6/linear/bn
I0104 20:48:53.066417  1475 net.cpp:435] conv4_6/linear/bn <- conv4_6/linear
I0104 20:48:53.066422  1475 net.cpp:409] conv4_6/linear/bn -> conv4_6/linear/bn
I0104 20:48:53.066993  1475 net.cpp:144] Setting up conv4_6/linear/bn
I0104 20:48:53.066999  1475 net.cpp:151] Top shape: 1 64 45 60 (172800)
I0104 20:48:53.067004  1475 net.cpp:159] Memory required for data: 327110464
I0104 20:48:53.067026  1475 layer_factory.hpp:77] Creating layer block_4_6
I0104 20:48:53.067032  1475 net.cpp:94] Creating Layer block_4_6
I0104 20:48:53.067035  1475 net.cpp:435] block_4_6 <- block_4_5_block_4_5_0_split_1
I0104 20:48:53.067039  1475 net.cpp:435] block_4_6 <- conv4_6/linear/bn
I0104 20:48:53.067044  1475 net.cpp:409] block_4_6 -> block_4_6
I0104 20:48:53.067060  1475 net.cpp:144] Setting up block_4_6
I0104 20:48:53.067065  1475 net.cpp:151] Top shape: 1 64 45 60 (172800)
I0104 20:48:53.067068  1475 net.cpp:159] Memory required for data: 327801664
I0104 20:48:53.067071  1475 layer_factory.hpp:77] Creating layer conv4_7/expand
I0104 20:48:53.067078  1475 net.cpp:94] Creating Layer conv4_7/expand
I0104 20:48:53.067081  1475 net.cpp:435] conv4_7/expand <- block_4_6
I0104 20:48:53.067086  1475 net.cpp:409] conv4_7/expand -> conv4_7/expand
I0104 20:48:53.067452  1475 net.cpp:144] Setting up conv4_7/expand
I0104 20:48:53.067459  1475 net.cpp:151] Top shape: 1 384 45 60 (1036800)
I0104 20:48:53.067464  1475 net.cpp:159] Memory required for data: 331948864
I0104 20:48:53.067468  1475 layer_factory.hpp:77] Creating layer conv4_7/expand/bn
I0104 20:48:53.067476  1475 net.cpp:94] Creating Layer conv4_7/expand/bn
I0104 20:48:53.067479  1475 net.cpp:435] conv4_7/expand/bn <- conv4_7/expand
I0104 20:48:53.067484  1475 net.cpp:409] conv4_7/expand/bn -> conv4_7/expand/bn
I0104 20:48:53.067956  1475 net.cpp:144] Setting up conv4_7/expand/bn
I0104 20:48:53.067963  1475 net.cpp:151] Top shape: 1 384 45 60 (1036800)
I0104 20:48:53.067968  1475 net.cpp:159] Memory required for data: 336096064
I0104 20:48:53.067976  1475 layer_factory.hpp:77] Creating layer relu4_7/expand
I0104 20:48:53.067981  1475 net.cpp:94] Creating Layer relu4_7/expand
I0104 20:48:53.067986  1475 net.cpp:435] relu4_7/expand <- conv4_7/expand/bn
I0104 20:48:53.068013  1475 net.cpp:396] relu4_7/expand -> conv4_7/expand/bn (in-place)
I0104 20:48:53.068019  1475 net.cpp:144] Setting up relu4_7/expand
I0104 20:48:53.068022  1475 net.cpp:151] Top shape: 1 384 45 60 (1036800)
I0104 20:48:53.068027  1475 net.cpp:159] Memory required for data: 340243264
I0104 20:48:53.068030  1475 layer_factory.hpp:77] Creating layer conv4_7/expand/bn_relu4_7/expand_0_split
I0104 20:48:53.068037  1475 net.cpp:94] Creating Layer conv4_7/expand/bn_relu4_7/expand_0_split
I0104 20:48:53.068039  1475 net.cpp:435] conv4_7/expand/bn_relu4_7/expand_0_split <- conv4_7/expand/bn
I0104 20:48:53.068043  1475 net.cpp:409] conv4_7/expand/bn_relu4_7/expand_0_split -> conv4_7/expand/bn_relu4_7/expand_0_split_0
I0104 20:48:53.068049  1475 net.cpp:409] conv4_7/expand/bn_relu4_7/expand_0_split -> conv4_7/expand/bn_relu4_7/expand_0_split_1
I0104 20:48:53.068054  1475 net.cpp:409] conv4_7/expand/bn_relu4_7/expand_0_split -> conv4_7/expand/bn_relu4_7/expand_0_split_2
I0104 20:48:53.068059  1475 net.cpp:409] conv4_7/expand/bn_relu4_7/expand_0_split -> conv4_7/expand/bn_relu4_7/expand_0_split_3
I0104 20:48:53.068107  1475 net.cpp:144] Setting up conv4_7/expand/bn_relu4_7/expand_0_split
I0104 20:48:53.068112  1475 net.cpp:151] Top shape: 1 384 45 60 (1036800)
I0104 20:48:53.068117  1475 net.cpp:151] Top shape: 1 384 45 60 (1036800)
I0104 20:48:53.068121  1475 net.cpp:151] Top shape: 1 384 45 60 (1036800)
I0104 20:48:53.068125  1475 net.cpp:151] Top shape: 1 384 45 60 (1036800)
I0104 20:48:53.068130  1475 net.cpp:159] Memory required for data: 356832064
I0104 20:48:53.068132  1475 layer_factory.hpp:77] Creating layer conv4_7/dwise
I0104 20:48:53.068140  1475 net.cpp:94] Creating Layer conv4_7/dwise
I0104 20:48:53.068143  1475 net.cpp:435] conv4_7/dwise <- conv4_7/expand/bn_relu4_7/expand_0_split_0
I0104 20:48:53.068148  1475 net.cpp:409] conv4_7/dwise -> conv4_7/dwise
I0104 20:48:53.068327  1475 net.cpp:144] Setting up conv4_7/dwise
I0104 20:48:53.068333  1475 net.cpp:151] Top shape: 1 384 23 30 (264960)
I0104 20:48:53.068338  1475 net.cpp:159] Memory required for data: 357891904
I0104 20:48:53.068343  1475 layer_factory.hpp:77] Creating layer conv4_7/dwise/bn
I0104 20:48:53.068349  1475 net.cpp:94] Creating Layer conv4_7/dwise/bn
I0104 20:48:53.068353  1475 net.cpp:435] conv4_7/dwise/bn <- conv4_7/dwise
I0104 20:48:53.068358  1475 net.cpp:409] conv4_7/dwise/bn -> conv4_7/dwise/bn
I0104 20:48:53.068820  1475 net.cpp:144] Setting up conv4_7/dwise/bn
I0104 20:48:53.068827  1475 net.cpp:151] Top shape: 1 384 23 30 (264960)
I0104 20:48:53.068832  1475 net.cpp:159] Memory required for data: 358951744
I0104 20:48:53.068840  1475 layer_factory.hpp:77] Creating layer relu4_7/dwise
I0104 20:48:53.068845  1475 net.cpp:94] Creating Layer relu4_7/dwise
I0104 20:48:53.068848  1475 net.cpp:435] relu4_7/dwise <- conv4_7/dwise/bn
I0104 20:48:53.068852  1475 net.cpp:396] relu4_7/dwise -> conv4_7/dwise/bn (in-place)
I0104 20:48:53.068857  1475 net.cpp:144] Setting up relu4_7/dwise
I0104 20:48:53.068861  1475 net.cpp:151] Top shape: 1 384 23 30 (264960)
I0104 20:48:53.068864  1475 net.cpp:159] Memory required for data: 360011584
I0104 20:48:53.068868  1475 layer_factory.hpp:77] Creating layer conv4_7/linear
I0104 20:48:53.068873  1475 net.cpp:94] Creating Layer conv4_7/linear
I0104 20:48:53.068877  1475 net.cpp:435] conv4_7/linear <- conv4_7/dwise/bn
I0104 20:48:53.068881  1475 net.cpp:409] conv4_7/linear -> conv4_7/linear
I0104 20:48:53.070024  1475 net.cpp:144] Setting up conv4_7/linear
I0104 20:48:53.070034  1475 net.cpp:151] Top shape: 1 96 23 30 (66240)
I0104 20:48:53.070050  1475 net.cpp:159] Memory required for data: 360276544
I0104 20:48:53.070055  1475 layer_factory.hpp:77] Creating layer conv4_7/linear/bn
I0104 20:48:53.070062  1475 net.cpp:94] Creating Layer conv4_7/linear/bn
I0104 20:48:53.070066  1475 net.cpp:435] conv4_7/linear/bn <- conv4_7/linear
I0104 20:48:53.070072  1475 net.cpp:409] conv4_7/linear/bn -> conv4_7/linear/bn
I0104 20:48:53.070628  1475 net.cpp:144] Setting up conv4_7/linear/bn
I0104 20:48:53.070636  1475 net.cpp:151] Top shape: 1 96 23 30 (66240)
I0104 20:48:53.070641  1475 net.cpp:159] Memory required for data: 360541504
I0104 20:48:53.070648  1475 layer_factory.hpp:77] Creating layer conv4_7/linear/bn_conv4_7/linear/bn_0_split
I0104 20:48:53.070654  1475 net.cpp:94] Creating Layer conv4_7/linear/bn_conv4_7/linear/bn_0_split
I0104 20:48:53.070657  1475 net.cpp:435] conv4_7/linear/bn_conv4_7/linear/bn_0_split <- conv4_7/linear/bn
I0104 20:48:53.070662  1475 net.cpp:409] conv4_7/linear/bn_conv4_7/linear/bn_0_split -> conv4_7/linear/bn_conv4_7/linear/bn_0_split_0
I0104 20:48:53.070668  1475 net.cpp:409] conv4_7/linear/bn_conv4_7/linear/bn_0_split -> conv4_7/linear/bn_conv4_7/linear/bn_0_split_1
I0104 20:48:53.070695  1475 net.cpp:144] Setting up conv4_7/linear/bn_conv4_7/linear/bn_0_split
I0104 20:48:53.070701  1475 net.cpp:151] Top shape: 1 96 23 30 (66240)
I0104 20:48:53.070705  1475 net.cpp:151] Top shape: 1 96 23 30 (66240)
I0104 20:48:53.070709  1475 net.cpp:159] Memory required for data: 361071424
I0104 20:48:53.070713  1475 layer_factory.hpp:77] Creating layer conv5_1/expand
I0104 20:48:53.070719  1475 net.cpp:94] Creating Layer conv5_1/expand
I0104 20:48:53.070722  1475 net.cpp:435] conv5_1/expand <- conv4_7/linear/bn_conv4_7/linear/bn_0_split_0
I0104 20:48:53.070729  1475 net.cpp:409] conv5_1/expand -> conv5_1/expand
I0104 20:48:53.071375  1475 net.cpp:144] Setting up conv5_1/expand
I0104 20:48:53.071382  1475 net.cpp:151] Top shape: 1 576 23 30 (397440)
I0104 20:48:53.071398  1475 net.cpp:159] Memory required for data: 362661184
I0104 20:48:53.071403  1475 layer_factory.hpp:77] Creating layer conv5_1/expand/bn
I0104 20:48:53.071409  1475 net.cpp:94] Creating Layer conv5_1/expand/bn
I0104 20:48:53.071413  1475 net.cpp:435] conv5_1/expand/bn <- conv5_1/expand
I0104 20:48:53.071419  1475 net.cpp:409] conv5_1/expand/bn -> conv5_1/expand/bn
I0104 20:48:53.072121  1475 net.cpp:144] Setting up conv5_1/expand/bn
I0104 20:48:53.072144  1475 net.cpp:151] Top shape: 1 576 23 30 (397440)
I0104 20:48:53.072160  1475 net.cpp:159] Memory required for data: 364250944
I0104 20:48:53.072168  1475 layer_factory.hpp:77] Creating layer relu5_1/expand
I0104 20:48:53.072173  1475 net.cpp:94] Creating Layer relu5_1/expand
I0104 20:48:53.072177  1475 net.cpp:435] relu5_1/expand <- conv5_1/expand/bn
I0104 20:48:53.072182  1475 net.cpp:396] relu5_1/expand -> conv5_1/expand/bn (in-place)
I0104 20:48:53.072188  1475 net.cpp:144] Setting up relu5_1/expand
I0104 20:48:53.072191  1475 net.cpp:151] Top shape: 1 576 23 30 (397440)
I0104 20:48:53.072196  1475 net.cpp:159] Memory required for data: 365840704
I0104 20:48:53.072198  1475 layer_factory.hpp:77] Creating layer conv5_1/dwise
I0104 20:48:53.072206  1475 net.cpp:94] Creating Layer conv5_1/dwise
I0104 20:48:53.072208  1475 net.cpp:435] conv5_1/dwise <- conv5_1/expand/bn
I0104 20:48:53.072213  1475 net.cpp:409] conv5_1/dwise -> conv5_1/dwise
I0104 20:48:53.072417  1475 net.cpp:144] Setting up conv5_1/dwise
I0104 20:48:53.072423  1475 net.cpp:151] Top shape: 1 576 23 30 (397440)
I0104 20:48:53.072428  1475 net.cpp:159] Memory required for data: 367430464
I0104 20:48:53.072433  1475 layer_factory.hpp:77] Creating layer conv5_1/dwise/bn
I0104 20:48:53.072440  1475 net.cpp:94] Creating Layer conv5_1/dwise/bn
I0104 20:48:53.072443  1475 net.cpp:435] conv5_1/dwise/bn <- conv5_1/dwise
I0104 20:48:53.072449  1475 net.cpp:409] conv5_1/dwise/bn -> conv5_1/dwise/bn
I0104 20:48:53.073007  1475 net.cpp:144] Setting up conv5_1/dwise/bn
I0104 20:48:53.073015  1475 net.cpp:151] Top shape: 1 576 23 30 (397440)
I0104 20:48:53.073020  1475 net.cpp:159] Memory required for data: 369020224
I0104 20:48:53.073030  1475 layer_factory.hpp:77] Creating layer relu5_1/dwise
I0104 20:48:53.073038  1475 net.cpp:94] Creating Layer relu5_1/dwise
I0104 20:48:53.073043  1475 net.cpp:435] relu5_1/dwise <- conv5_1/dwise/bn
I0104 20:48:53.073050  1475 net.cpp:396] relu5_1/dwise -> conv5_1/dwise/bn (in-place)
I0104 20:48:53.073065  1475 net.cpp:144] Setting up relu5_1/dwise
I0104 20:48:53.073072  1475 net.cpp:151] Top shape: 1 576 23 30 (397440)
I0104 20:48:53.073079  1475 net.cpp:159] Memory required for data: 370609984
I0104 20:48:53.073084  1475 layer_factory.hpp:77] Creating layer conv5_1/linear
I0104 20:48:53.073093  1475 net.cpp:94] Creating Layer conv5_1/linear
I0104 20:48:53.073098  1475 net.cpp:435] conv5_1/linear <- conv5_1/dwise/bn
I0104 20:48:53.073107  1475 net.cpp:409] conv5_1/linear -> conv5_1/linear
I0104 20:48:53.074025  1475 net.cpp:144] Setting up conv5_1/linear
I0104 20:48:53.074039  1475 net.cpp:151] Top shape: 1 96 23 30 (66240)
I0104 20:48:53.074048  1475 net.cpp:159] Memory required for data: 370874944
I0104 20:48:53.074055  1475 layer_factory.hpp:77] Creating layer conv5_1/linear/bn
I0104 20:48:53.074065  1475 net.cpp:94] Creating Layer conv5_1/linear/bn
I0104 20:48:53.074071  1475 net.cpp:435] conv5_1/linear/bn <- conv5_1/linear
I0104 20:48:53.074079  1475 net.cpp:409] conv5_1/linear/bn -> conv5_1/linear/bn
I0104 20:48:53.074774  1475 net.cpp:144] Setting up conv5_1/linear/bn
I0104 20:48:53.074784  1475 net.cpp:151] Top shape: 1 96 23 30 (66240)
I0104 20:48:53.074790  1475 net.cpp:159] Memory required for data: 371139904
I0104 20:48:53.074802  1475 layer_factory.hpp:77] Creating layer block_5_1
I0104 20:48:53.074810  1475 net.cpp:94] Creating Layer block_5_1
I0104 20:48:53.074815  1475 net.cpp:435] block_5_1 <- conv4_7/linear/bn_conv4_7/linear/bn_0_split_1
I0104 20:48:53.074820  1475 net.cpp:435] block_5_1 <- conv5_1/linear/bn
I0104 20:48:53.074828  1475 net.cpp:409] block_5_1 -> block_5_1
I0104 20:48:53.074851  1475 net.cpp:144] Setting up block_5_1
I0104 20:48:53.074856  1475 net.cpp:151] Top shape: 1 96 23 30 (66240)
I0104 20:48:53.074863  1475 net.cpp:159] Memory required for data: 371404864
I0104 20:48:53.074867  1475 layer_factory.hpp:77] Creating layer block_5_1_block_5_1_0_split
I0104 20:48:53.074874  1475 net.cpp:94] Creating Layer block_5_1_block_5_1_0_split
I0104 20:48:53.074879  1475 net.cpp:435] block_5_1_block_5_1_0_split <- block_5_1
I0104 20:48:53.074885  1475 net.cpp:409] block_5_1_block_5_1_0_split -> block_5_1_block_5_1_0_split_0
I0104 20:48:53.074893  1475 net.cpp:409] block_5_1_block_5_1_0_split -> block_5_1_block_5_1_0_split_1
I0104 20:48:53.074926  1475 net.cpp:144] Setting up block_5_1_block_5_1_0_split
I0104 20:48:53.074931  1475 net.cpp:151] Top shape: 1 96 23 30 (66240)
I0104 20:48:53.074939  1475 net.cpp:151] Top shape: 1 96 23 30 (66240)
I0104 20:48:53.074944  1475 net.cpp:159] Memory required for data: 371934784
I0104 20:48:53.074949  1475 layer_factory.hpp:77] Creating layer conv5_2/expand
I0104 20:48:53.074957  1475 net.cpp:94] Creating Layer conv5_2/expand
I0104 20:48:53.074962  1475 net.cpp:435] conv5_2/expand <- block_5_1_block_5_1_0_split_0
I0104 20:48:53.074970  1475 net.cpp:409] conv5_2/expand -> conv5_2/expand
I0104 20:48:53.075755  1475 net.cpp:144] Setting up conv5_2/expand
I0104 20:48:53.075764  1475 net.cpp:151] Top shape: 1 576 23 30 (397440)
I0104 20:48:53.075773  1475 net.cpp:159] Memory required for data: 373524544
I0104 20:48:53.075779  1475 layer_factory.hpp:77] Creating layer conv5_2/expand/bn
I0104 20:48:53.075789  1475 net.cpp:94] Creating Layer conv5_2/expand/bn
I0104 20:48:53.075794  1475 net.cpp:435] conv5_2/expand/bn <- conv5_2/expand
I0104 20:48:53.075801  1475 net.cpp:409] conv5_2/expand/bn -> conv5_2/expand/bn
I0104 20:48:53.076488  1475 net.cpp:144] Setting up conv5_2/expand/bn
I0104 20:48:53.076498  1475 net.cpp:151] Top shape: 1 576 23 30 (397440)
I0104 20:48:53.076504  1475 net.cpp:159] Memory required for data: 375114304
I0104 20:48:53.076515  1475 layer_factory.hpp:77] Creating layer relu5_2/expand
I0104 20:48:53.076522  1475 net.cpp:94] Creating Layer relu5_2/expand
I0104 20:48:53.076527  1475 net.cpp:435] relu5_2/expand <- conv5_2/expand/bn
I0104 20:48:53.076534  1475 net.cpp:396] relu5_2/expand -> conv5_2/expand/bn (in-place)
I0104 20:48:53.076542  1475 net.cpp:144] Setting up relu5_2/expand
I0104 20:48:53.076546  1475 net.cpp:151] Top shape: 1 576 23 30 (397440)
I0104 20:48:53.076553  1475 net.cpp:159] Memory required for data: 376704064
I0104 20:48:53.076557  1475 layer_factory.hpp:77] Creating layer conv5_2/dwise
I0104 20:48:53.076566  1475 net.cpp:94] Creating Layer conv5_2/dwise
I0104 20:48:53.076570  1475 net.cpp:435] conv5_2/dwise <- conv5_2/expand/bn
I0104 20:48:53.076578  1475 net.cpp:409] conv5_2/dwise -> conv5_2/dwise
I0104 20:48:53.076838  1475 net.cpp:144] Setting up conv5_2/dwise
I0104 20:48:53.076844  1475 net.cpp:151] Top shape: 1 576 23 30 (397440)
I0104 20:48:53.076851  1475 net.cpp:159] Memory required for data: 378293824
I0104 20:48:53.076858  1475 layer_factory.hpp:77] Creating layer conv5_2/dwise/bn
I0104 20:48:53.076867  1475 net.cpp:94] Creating Layer conv5_2/dwise/bn
I0104 20:48:53.076872  1475 net.cpp:435] conv5_2/dwise/bn <- conv5_2/dwise
I0104 20:48:53.076879  1475 net.cpp:409] conv5_2/dwise/bn -> conv5_2/dwise/bn
I0104 20:48:53.077550  1475 net.cpp:144] Setting up conv5_2/dwise/bn
I0104 20:48:53.077558  1475 net.cpp:151] Top shape: 1 576 23 30 (397440)
I0104 20:48:53.077564  1475 net.cpp:159] Memory required for data: 379883584
I0104 20:48:53.077575  1475 layer_factory.hpp:77] Creating layer relu5_2/dwise
I0104 20:48:53.077582  1475 net.cpp:94] Creating Layer relu5_2/dwise
I0104 20:48:53.077587  1475 net.cpp:435] relu5_2/dwise <- conv5_2/dwise/bn
I0104 20:48:53.077594  1475 net.cpp:396] relu5_2/dwise -> conv5_2/dwise/bn (in-place)
I0104 20:48:53.077601  1475 net.cpp:144] Setting up relu5_2/dwise
I0104 20:48:53.077605  1475 net.cpp:151] Top shape: 1 576 23 30 (397440)
I0104 20:48:53.077611  1475 net.cpp:159] Memory required for data: 381473344
I0104 20:48:53.077616  1475 layer_factory.hpp:77] Creating layer conv5_2/linear
I0104 20:48:53.077625  1475 net.cpp:94] Creating Layer conv5_2/linear
I0104 20:48:53.077630  1475 net.cpp:435] conv5_2/linear <- conv5_2/dwise/bn
I0104 20:48:53.077636  1475 net.cpp:409] conv5_2/linear -> conv5_2/linear
I0104 20:48:53.079479  1475 net.cpp:144] Setting up conv5_2/linear
I0104 20:48:53.079493  1475 net.cpp:151] Top shape: 1 96 23 30 (66240)
I0104 20:48:53.079501  1475 net.cpp:159] Memory required for data: 381738304
I0104 20:48:53.079509  1475 layer_factory.hpp:77] Creating layer conv5_2/linear/bn
I0104 20:48:53.079520  1475 net.cpp:94] Creating Layer conv5_2/linear/bn
I0104 20:48:53.079525  1475 net.cpp:435] conv5_2/linear/bn <- conv5_2/linear
I0104 20:48:53.079533  1475 net.cpp:409] conv5_2/linear/bn -> conv5_2/linear/bn
I0104 20:48:53.080255  1475 net.cpp:144] Setting up conv5_2/linear/bn
I0104 20:48:53.080262  1475 net.cpp:151] Top shape: 1 96 23 30 (66240)
I0104 20:48:53.080271  1475 net.cpp:159] Memory required for data: 382003264
I0104 20:48:53.080281  1475 layer_factory.hpp:77] Creating layer block_5_2
I0104 20:48:53.080289  1475 net.cpp:94] Creating Layer block_5_2
I0104 20:48:53.080294  1475 net.cpp:435] block_5_2 <- block_5_1_block_5_1_0_split_1
I0104 20:48:53.080300  1475 net.cpp:435] block_5_2 <- conv5_2/linear/bn
I0104 20:48:53.080307  1475 net.cpp:409] block_5_2 -> block_5_2
I0104 20:48:53.080340  1475 net.cpp:144] Setting up block_5_2
I0104 20:48:53.080345  1475 net.cpp:151] Top shape: 1 96 23 30 (66240)
I0104 20:48:53.080351  1475 net.cpp:159] Memory required for data: 382268224
I0104 20:48:53.080356  1475 layer_factory.hpp:77] Creating layer conv5_3/expand
I0104 20:48:53.080365  1475 net.cpp:94] Creating Layer conv5_3/expand
I0104 20:48:53.080369  1475 net.cpp:435] conv5_3/expand <- block_5_2
I0104 20:48:53.080376  1475 net.cpp:409] conv5_3/expand -> conv5_3/expand
I0104 20:48:53.081094  1475 net.cpp:144] Setting up conv5_3/expand
I0104 20:48:53.081106  1475 net.cpp:151] Top shape: 1 576 23 30 (397440)
I0104 20:48:53.081118  1475 net.cpp:159] Memory required for data: 383857984
I0104 20:48:53.081127  1475 layer_factory.hpp:77] Creating layer conv5_3/expand/bn
I0104 20:48:53.081140  1475 net.cpp:94] Creating Layer conv5_3/expand/bn
I0104 20:48:53.081157  1475 net.cpp:435] conv5_3/expand/bn <- conv5_3/expand
I0104 20:48:53.081346  1475 net.cpp:409] conv5_3/expand/bn -> conv5_3/expand/bn
I0104 20:48:53.081993  1475 net.cpp:144] Setting up conv5_3/expand/bn
I0104 20:48:53.082005  1475 net.cpp:151] Top shape: 1 576 23 30 (397440)
I0104 20:48:53.082016  1475 net.cpp:159] Memory required for data: 385447744
I0104 20:48:53.082031  1475 layer_factory.hpp:77] Creating layer relu5_3/expand
I0104 20:48:53.082046  1475 net.cpp:94] Creating Layer relu5_3/expand
I0104 20:48:53.082053  1475 net.cpp:435] relu5_3/expand <- conv5_3/expand/bn
I0104 20:48:53.082062  1475 net.cpp:396] relu5_3/expand -> conv5_3/expand/bn (in-place)
I0104 20:48:53.082073  1475 net.cpp:144] Setting up relu5_3/expand
I0104 20:48:53.082079  1475 net.cpp:151] Top shape: 1 576 23 30 (397440)
I0104 20:48:53.082087  1475 net.cpp:159] Memory required for data: 387037504
I0104 20:48:53.082091  1475 layer_factory.hpp:77] Creating layer conv5_3/expand/bn_relu5_3/expand_0_split
I0104 20:48:53.082100  1475 net.cpp:94] Creating Layer conv5_3/expand/bn_relu5_3/expand_0_split
I0104 20:48:53.082105  1475 net.cpp:435] conv5_3/expand/bn_relu5_3/expand_0_split <- conv5_3/expand/bn
I0104 20:48:53.082113  1475 net.cpp:409] conv5_3/expand/bn_relu5_3/expand_0_split -> conv5_3/expand/bn_relu5_3/expand_0_split_0
I0104 20:48:53.082121  1475 net.cpp:409] conv5_3/expand/bn_relu5_3/expand_0_split -> conv5_3/expand/bn_relu5_3/expand_0_split_1
I0104 20:48:53.082130  1475 net.cpp:409] conv5_3/expand/bn_relu5_3/expand_0_split -> conv5_3/expand/bn_relu5_3/expand_0_split_2
I0104 20:48:53.082139  1475 net.cpp:409] conv5_3/expand/bn_relu5_3/expand_0_split -> conv5_3/expand/bn_relu5_3/expand_0_split_3
I0104 20:48:53.082206  1475 net.cpp:144] Setting up conv5_3/expand/bn_relu5_3/expand_0_split
I0104 20:48:53.082216  1475 net.cpp:151] Top shape: 1 576 23 30 (397440)
I0104 20:48:53.082229  1475 net.cpp:151] Top shape: 1 576 23 30 (397440)
I0104 20:48:53.082237  1475 net.cpp:151] Top shape: 1 576 23 30 (397440)
I0104 20:48:53.082243  1475 net.cpp:151] Top shape: 1 576 23 30 (397440)
I0104 20:48:53.082250  1475 net.cpp:159] Memory required for data: 393396544
I0104 20:48:53.082255  1475 layer_factory.hpp:77] Creating layer conv5_3/dwise
I0104 20:48:53.082267  1475 net.cpp:94] Creating Layer conv5_3/dwise
I0104 20:48:53.082275  1475 net.cpp:435] conv5_3/dwise <- conv5_3/expand/bn_relu5_3/expand_0_split_0
I0104 20:48:53.082285  1475 net.cpp:409] conv5_3/dwise -> conv5_3/dwise
I0104 20:48:53.082545  1475 net.cpp:144] Setting up conv5_3/dwise
I0104 20:48:53.082554  1475 net.cpp:151] Top shape: 1 576 12 15 (103680)
I0104 20:48:53.082567  1475 net.cpp:159] Memory required for data: 393811264
I0104 20:48:53.082577  1475 layer_factory.hpp:77] Creating layer conv5_3/dwise/bn
I0104 20:48:53.082589  1475 net.cpp:94] Creating Layer conv5_3/dwise/bn
I0104 20:48:53.082600  1475 net.cpp:435] conv5_3/dwise/bn <- conv5_3/dwise
I0104 20:48:53.082613  1475 net.cpp:409] conv5_3/dwise/bn -> conv5_3/dwise/bn
I0104 20:48:53.083215  1475 net.cpp:144] Setting up conv5_3/dwise/bn
I0104 20:48:53.083226  1475 net.cpp:151] Top shape: 1 576 12 15 (103680)
I0104 20:48:53.083240  1475 net.cpp:159] Memory required for data: 394225984
I0104 20:48:53.083256  1475 layer_factory.hpp:77] Creating layer relu5_3/dwise
I0104 20:48:53.083266  1475 net.cpp:94] Creating Layer relu5_3/dwise
I0104 20:48:53.083274  1475 net.cpp:435] relu5_3/dwise <- conv5_3/dwise/bn
I0104 20:48:53.083282  1475 net.cpp:396] relu5_3/dwise -> conv5_3/dwise/bn (in-place)
I0104 20:48:53.083293  1475 net.cpp:144] Setting up relu5_3/dwise
I0104 20:48:53.083299  1475 net.cpp:151] Top shape: 1 576 12 15 (103680)
I0104 20:48:53.083307  1475 net.cpp:159] Memory required for data: 394640704
I0104 20:48:53.083312  1475 layer_factory.hpp:77] Creating layer conv5_3/linear
I0104 20:48:53.083323  1475 net.cpp:94] Creating Layer conv5_3/linear
I0104 20:48:53.083328  1475 net.cpp:435] conv5_3/linear <- conv5_3/dwise/bn
I0104 20:48:53.083336  1475 net.cpp:409] conv5_3/linear -> conv5_3/linear
I0104 20:48:53.084308  1475 net.cpp:144] Setting up conv5_3/linear
I0104 20:48:53.084316  1475 net.cpp:151] Top shape: 1 160 12 15 (28800)
I0104 20:48:53.084326  1475 net.cpp:159] Memory required for data: 394755904
I0104 20:48:53.084332  1475 layer_factory.hpp:77] Creating layer conv5_3/linear/bn
I0104 20:48:53.084343  1475 net.cpp:94] Creating Layer conv5_3/linear/bn
I0104 20:48:53.084352  1475 net.cpp:435] conv5_3/linear/bn <- conv5_3/linear
I0104 20:48:53.084360  1475 net.cpp:409] conv5_3/linear/bn -> conv5_3/linear/bn
I0104 20:48:53.084925  1475 net.cpp:144] Setting up conv5_3/linear/bn
I0104 20:48:53.084933  1475 net.cpp:151] Top shape: 1 160 12 15 (28800)
I0104 20:48:53.084940  1475 net.cpp:159] Memory required for data: 394871104
I0104 20:48:53.084961  1475 layer_factory.hpp:77] Creating layer conv5_3/linear/bn_conv5_3/linear/bn_0_split
I0104 20:48:53.084970  1475 net.cpp:94] Creating Layer conv5_3/linear/bn_conv5_3/linear/bn_0_split
I0104 20:48:53.084976  1475 net.cpp:435] conv5_3/linear/bn_conv5_3/linear/bn_0_split <- conv5_3/linear/bn
I0104 20:48:53.084985  1475 net.cpp:409] conv5_3/linear/bn_conv5_3/linear/bn_0_split -> conv5_3/linear/bn_conv5_3/linear/bn_0_split_0
I0104 20:48:53.084995  1475 net.cpp:409] conv5_3/linear/bn_conv5_3/linear/bn_0_split -> conv5_3/linear/bn_conv5_3/linear/bn_0_split_1
I0104 20:48:53.085032  1475 net.cpp:144] Setting up conv5_3/linear/bn_conv5_3/linear/bn_0_split
I0104 20:48:53.085038  1475 net.cpp:151] Top shape: 1 160 12 15 (28800)
I0104 20:48:53.085045  1475 net.cpp:151] Top shape: 1 160 12 15 (28800)
I0104 20:48:53.085052  1475 net.cpp:159] Memory required for data: 395101504
I0104 20:48:53.085057  1475 layer_factory.hpp:77] Creating layer conv6_1/expand
I0104 20:48:53.085068  1475 net.cpp:94] Creating Layer conv6_1/expand
I0104 20:48:53.085075  1475 net.cpp:435] conv6_1/expand <- conv5_3/linear/bn_conv5_3/linear/bn_0_split_0
I0104 20:48:53.085084  1475 net.cpp:409] conv6_1/expand -> conv6_1/expand
I0104 20:48:53.087224  1475 net.cpp:144] Setting up conv6_1/expand
I0104 20:48:53.087235  1475 net.cpp:151] Top shape: 1 960 12 15 (172800)
I0104 20:48:53.087244  1475 net.cpp:159] Memory required for data: 395792704
I0104 20:48:53.087252  1475 layer_factory.hpp:77] Creating layer conv6_1/expand/bn
I0104 20:48:53.087265  1475 net.cpp:94] Creating Layer conv6_1/expand/bn
I0104 20:48:53.087271  1475 net.cpp:435] conv6_1/expand/bn <- conv6_1/expand
I0104 20:48:53.087280  1475 net.cpp:409] conv6_1/expand/bn -> conv6_1/expand/bn
I0104 20:48:53.087898  1475 net.cpp:144] Setting up conv6_1/expand/bn
I0104 20:48:53.087906  1475 net.cpp:151] Top shape: 1 960 12 15 (172800)
I0104 20:48:53.087914  1475 net.cpp:159] Memory required for data: 396483904
I0104 20:48:53.087929  1475 layer_factory.hpp:77] Creating layer relu6_1/expand
I0104 20:48:53.087937  1475 net.cpp:94] Creating Layer relu6_1/expand
I0104 20:48:53.087944  1475 net.cpp:435] relu6_1/expand <- conv6_1/expand/bn
I0104 20:48:53.087951  1475 net.cpp:396] relu6_1/expand -> conv6_1/expand/bn (in-place)
I0104 20:48:53.087961  1475 net.cpp:144] Setting up relu6_1/expand
I0104 20:48:53.087967  1475 net.cpp:151] Top shape: 1 960 12 15 (172800)
I0104 20:48:53.087975  1475 net.cpp:159] Memory required for data: 397175104
I0104 20:48:53.087980  1475 layer_factory.hpp:77] Creating layer conv6_1/dwise
I0104 20:48:53.087991  1475 net.cpp:94] Creating Layer conv6_1/dwise
I0104 20:48:53.087998  1475 net.cpp:435] conv6_1/dwise <- conv6_1/expand/bn
I0104 20:48:53.088007  1475 net.cpp:409] conv6_1/dwise -> conv6_1/dwise
I0104 20:48:53.088263  1475 net.cpp:144] Setting up conv6_1/dwise
I0104 20:48:53.088269  1475 net.cpp:151] Top shape: 1 960 12 15 (172800)
I0104 20:48:53.088276  1475 net.cpp:159] Memory required for data: 397866304
I0104 20:48:53.088284  1475 layer_factory.hpp:77] Creating layer conv6_1/dwise/bn
I0104 20:48:53.088295  1475 net.cpp:94] Creating Layer conv6_1/dwise/bn
I0104 20:48:53.088304  1475 net.cpp:435] conv6_1/dwise/bn <- conv6_1/dwise
I0104 20:48:53.088312  1475 net.cpp:409] conv6_1/dwise/bn -> conv6_1/dwise/bn
I0104 20:48:53.088871  1475 net.cpp:144] Setting up conv6_1/dwise/bn
I0104 20:48:53.088879  1475 net.cpp:151] Top shape: 1 960 12 15 (172800)
I0104 20:48:53.088887  1475 net.cpp:159] Memory required for data: 398557504
I0104 20:48:53.088901  1475 layer_factory.hpp:77] Creating layer relu6_1/dwise
I0104 20:48:53.088912  1475 net.cpp:94] Creating Layer relu6_1/dwise
I0104 20:48:53.088917  1475 net.cpp:435] relu6_1/dwise <- conv6_1/dwise/bn
I0104 20:48:53.088925  1475 net.cpp:396] relu6_1/dwise -> conv6_1/dwise/bn (in-place)
I0104 20:48:53.088937  1475 net.cpp:144] Setting up relu6_1/dwise
I0104 20:48:53.088943  1475 net.cpp:151] Top shape: 1 960 12 15 (172800)
I0104 20:48:53.088949  1475 net.cpp:159] Memory required for data: 399248704
I0104 20:48:53.088955  1475 layer_factory.hpp:77] Creating layer conv6_1/linear
I0104 20:48:53.088965  1475 net.cpp:94] Creating Layer conv6_1/linear
I0104 20:48:53.088970  1475 net.cpp:435] conv6_1/linear <- conv6_1/dwise/bn
I0104 20:48:53.088979  1475 net.cpp:409] conv6_1/linear -> conv6_1/linear
I0104 20:48:53.091310  1475 net.cpp:144] Setting up conv6_1/linear
I0104 20:48:53.091322  1475 net.cpp:151] Top shape: 1 160 12 15 (28800)
I0104 20:48:53.091336  1475 net.cpp:159] Memory required for data: 399363904
I0104 20:48:53.091346  1475 layer_factory.hpp:77] Creating layer conv6_1/linear/bn
I0104 20:48:53.091358  1475 net.cpp:94] Creating Layer conv6_1/linear/bn
I0104 20:48:53.091367  1475 net.cpp:435] conv6_1/linear/bn <- conv6_1/linear
I0104 20:48:53.091377  1475 net.cpp:409] conv6_1/linear/bn -> conv6_1/linear/bn
I0104 20:48:53.091964  1475 net.cpp:144] Setting up conv6_1/linear/bn
I0104 20:48:53.091972  1475 net.cpp:151] Top shape: 1 160 12 15 (28800)
I0104 20:48:53.091980  1475 net.cpp:159] Memory required for data: 399479104
I0104 20:48:53.091993  1475 layer_factory.hpp:77] Creating layer block_6_1
I0104 20:48:53.092003  1475 net.cpp:94] Creating Layer block_6_1
I0104 20:48:53.092012  1475 net.cpp:435] block_6_1 <- conv5_3/linear/bn_conv5_3/linear/bn_0_split_1
I0104 20:48:53.092020  1475 net.cpp:435] block_6_1 <- conv6_1/linear/bn
I0104 20:48:53.092027  1475 net.cpp:409] block_6_1 -> block_6_1
I0104 20:48:53.092056  1475 net.cpp:144] Setting up block_6_1
I0104 20:48:53.092062  1475 net.cpp:151] Top shape: 1 160 12 15 (28800)
I0104 20:48:53.092070  1475 net.cpp:159] Memory required for data: 399594304
I0104 20:48:53.092075  1475 layer_factory.hpp:77] Creating layer block_6_1_block_6_1_0_split
I0104 20:48:53.092083  1475 net.cpp:94] Creating Layer block_6_1_block_6_1_0_split
I0104 20:48:53.092089  1475 net.cpp:435] block_6_1_block_6_1_0_split <- block_6_1
I0104 20:48:53.092097  1475 net.cpp:409] block_6_1_block_6_1_0_split -> block_6_1_block_6_1_0_split_0
I0104 20:48:53.092106  1475 net.cpp:409] block_6_1_block_6_1_0_split -> block_6_1_block_6_1_0_split_1
I0104 20:48:53.092141  1475 net.cpp:144] Setting up block_6_1_block_6_1_0_split
I0104 20:48:53.092146  1475 net.cpp:151] Top shape: 1 160 12 15 (28800)
I0104 20:48:53.092154  1475 net.cpp:151] Top shape: 1 160 12 15 (28800)
I0104 20:48:53.092160  1475 net.cpp:159] Memory required for data: 399824704
I0104 20:48:53.092166  1475 layer_factory.hpp:77] Creating layer conv6_2/expand
I0104 20:48:53.092178  1475 net.cpp:94] Creating Layer conv6_2/expand
I0104 20:48:53.092185  1475 net.cpp:435] conv6_2/expand <- block_6_1_block_6_1_0_split_0
I0104 20:48:53.092195  1475 net.cpp:409] conv6_2/expand -> conv6_2/expand
I0104 20:48:53.093679  1475 net.cpp:144] Setting up conv6_2/expand
I0104 20:48:53.093688  1475 net.cpp:151] Top shape: 1 960 12 15 (172800)
I0104 20:48:53.093695  1475 net.cpp:159] Memory required for data: 400515904
I0104 20:48:53.093703  1475 layer_factory.hpp:77] Creating layer conv6_2/expand/bn
I0104 20:48:53.093716  1475 net.cpp:94] Creating Layer conv6_2/expand/bn
I0104 20:48:53.093724  1475 net.cpp:435] conv6_2/expand/bn <- conv6_2/expand
I0104 20:48:53.093732  1475 net.cpp:409] conv6_2/expand/bn -> conv6_2/expand/bn
I0104 20:48:53.094306  1475 net.cpp:144] Setting up conv6_2/expand/bn
I0104 20:48:53.094313  1475 net.cpp:151] Top shape: 1 960 12 15 (172800)
I0104 20:48:53.094321  1475 net.cpp:159] Memory required for data: 401207104
I0104 20:48:53.094336  1475 layer_factory.hpp:77] Creating layer relu6_2/expand
I0104 20:48:53.094343  1475 net.cpp:94] Creating Layer relu6_2/expand
I0104 20:48:53.094350  1475 net.cpp:435] relu6_2/expand <- conv6_2/expand/bn
I0104 20:48:53.094358  1475 net.cpp:396] relu6_2/expand -> conv6_2/expand/bn (in-place)
I0104 20:48:53.094368  1475 net.cpp:144] Setting up relu6_2/expand
I0104 20:48:53.094374  1475 net.cpp:151] Top shape: 1 960 12 15 (172800)
I0104 20:48:53.094383  1475 net.cpp:159] Memory required for data: 401898304
I0104 20:48:53.094386  1475 layer_factory.hpp:77] Creating layer conv6_2/dwise
I0104 20:48:53.094398  1475 net.cpp:94] Creating Layer conv6_2/dwise
I0104 20:48:53.094403  1475 net.cpp:435] conv6_2/dwise <- conv6_2/expand/bn
I0104 20:48:53.094411  1475 net.cpp:409] conv6_2/dwise -> conv6_2/dwise
I0104 20:48:53.094663  1475 net.cpp:144] Setting up conv6_2/dwise
I0104 20:48:53.094671  1475 net.cpp:151] Top shape: 1 960 12 15 (172800)
I0104 20:48:53.094677  1475 net.cpp:159] Memory required for data: 402589504
I0104 20:48:53.094684  1475 layer_factory.hpp:77] Creating layer conv6_2/dwise/bn
I0104 20:48:53.094696  1475 net.cpp:94] Creating Layer conv6_2/dwise/bn
I0104 20:48:53.094702  1475 net.cpp:435] conv6_2/dwise/bn <- conv6_2/dwise
I0104 20:48:53.094710  1475 net.cpp:409] conv6_2/dwise/bn -> conv6_2/dwise/bn
I0104 20:48:53.095273  1475 net.cpp:144] Setting up conv6_2/dwise/bn
I0104 20:48:53.095280  1475 net.cpp:151] Top shape: 1 960 12 15 (172800)
I0104 20:48:53.095288  1475 net.cpp:159] Memory required for data: 403280704
I0104 20:48:53.095300  1475 layer_factory.hpp:77] Creating layer relu6_2/dwise
I0104 20:48:53.095309  1475 net.cpp:94] Creating Layer relu6_2/dwise
I0104 20:48:53.095315  1475 net.cpp:435] relu6_2/dwise <- conv6_2/dwise/bn
I0104 20:48:53.095322  1475 net.cpp:396] relu6_2/dwise -> conv6_2/dwise/bn (in-place)
I0104 20:48:53.095331  1475 net.cpp:144] Setting up relu6_2/dwise
I0104 20:48:53.095337  1475 net.cpp:151] Top shape: 1 960 12 15 (172800)
I0104 20:48:53.095345  1475 net.cpp:159] Memory required for data: 403971904
I0104 20:48:53.095350  1475 layer_factory.hpp:77] Creating layer conv6_2/linear
I0104 20:48:53.095360  1475 net.cpp:94] Creating Layer conv6_2/linear
I0104 20:48:53.095366  1475 net.cpp:435] conv6_2/linear <- conv6_2/dwise/bn
I0104 20:48:53.095373  1475 net.cpp:409] conv6_2/linear -> conv6_2/linear
I0104 20:48:53.097545  1475 net.cpp:144] Setting up conv6_2/linear
I0104 20:48:53.097556  1475 net.cpp:151] Top shape: 1 160 12 15 (28800)
I0104 20:48:53.097565  1475 net.cpp:159] Memory required for data: 404087104
I0104 20:48:53.097574  1475 layer_factory.hpp:77] Creating layer conv6_2/linear/bn
I0104 20:48:53.097585  1475 net.cpp:94] Creating Layer conv6_2/linear/bn
I0104 20:48:53.097594  1475 net.cpp:435] conv6_2/linear/bn <- conv6_2/linear
I0104 20:48:53.097604  1475 net.cpp:409] conv6_2/linear/bn -> conv6_2/linear/bn
I0104 20:48:53.098177  1475 net.cpp:144] Setting up conv6_2/linear/bn
I0104 20:48:53.098186  1475 net.cpp:151] Top shape: 1 160 12 15 (28800)
I0104 20:48:53.098194  1475 net.cpp:159] Memory required for data: 404202304
I0104 20:48:53.098207  1475 layer_factory.hpp:77] Creating layer block_6_2
I0104 20:48:53.098217  1475 net.cpp:94] Creating Layer block_6_2
I0104 20:48:53.098224  1475 net.cpp:435] block_6_2 <- block_6_1_block_6_1_0_split_1
I0104 20:48:53.098232  1475 net.cpp:435] block_6_2 <- conv6_2/linear/bn
I0104 20:48:53.098242  1475 net.cpp:409] block_6_2 -> block_6_2
I0104 20:48:53.098268  1475 net.cpp:144] Setting up block_6_2
I0104 20:48:53.098274  1475 net.cpp:151] Top shape: 1 160 12 15 (28800)
I0104 20:48:53.098281  1475 net.cpp:159] Memory required for data: 404317504
I0104 20:48:53.098286  1475 layer_factory.hpp:77] Creating layer conv6_3/expand
I0104 20:48:53.098297  1475 net.cpp:94] Creating Layer conv6_3/expand
I0104 20:48:53.098304  1475 net.cpp:435] conv6_3/expand <- block_6_2
I0104 20:48:53.098311  1475 net.cpp:409] conv6_3/expand -> conv6_3/expand
I0104 20:48:53.100445  1475 net.cpp:144] Setting up conv6_3/expand
I0104 20:48:53.100455  1475 net.cpp:151] Top shape: 1 960 12 15 (172800)
I0104 20:48:53.100464  1475 net.cpp:159] Memory required for data: 405008704
I0104 20:48:53.100472  1475 layer_factory.hpp:77] Creating layer conv6_3/expand/bn
I0104 20:48:53.100483  1475 net.cpp:94] Creating Layer conv6_3/expand/bn
I0104 20:48:53.100492  1475 net.cpp:435] conv6_3/expand/bn <- conv6_3/expand
I0104 20:48:53.100500  1475 net.cpp:409] conv6_3/expand/bn -> conv6_3/expand/bn
I0104 20:48:53.101224  1475 net.cpp:144] Setting up conv6_3/expand/bn
I0104 20:48:53.101233  1475 net.cpp:151] Top shape: 1 960 12 15 (172800)
I0104 20:48:53.101241  1475 net.cpp:159] Memory required for data: 405699904
I0104 20:48:53.101255  1475 layer_factory.hpp:77] Creating layer relu6_3/expand
I0104 20:48:53.101264  1475 net.cpp:94] Creating Layer relu6_3/expand
I0104 20:48:53.101270  1475 net.cpp:435] relu6_3/expand <- conv6_3/expand/bn
I0104 20:48:53.101279  1475 net.cpp:396] relu6_3/expand -> conv6_3/expand/bn (in-place)
I0104 20:48:53.101290  1475 net.cpp:144] Setting up relu6_3/expand
I0104 20:48:53.101296  1475 net.cpp:151] Top shape: 1 960 12 15 (172800)
I0104 20:48:53.101305  1475 net.cpp:159] Memory required for data: 406391104
I0104 20:48:53.101308  1475 layer_factory.hpp:77] Creating layer conv6_3/dwise
I0104 20:48:53.101320  1475 net.cpp:94] Creating Layer conv6_3/dwise
I0104 20:48:53.101327  1475 net.cpp:435] conv6_3/dwise <- conv6_3/expand/bn
I0104 20:48:53.101336  1475 net.cpp:409] conv6_3/dwise -> conv6_3/dwise
I0104 20:48:53.101583  1475 net.cpp:144] Setting up conv6_3/dwise
I0104 20:48:53.101589  1475 net.cpp:151] Top shape: 1 960 12 15 (172800)
I0104 20:48:53.101598  1475 net.cpp:159] Memory required for data: 407082304
I0104 20:48:53.101604  1475 layer_factory.hpp:77] Creating layer conv6_3/dwise/bn
I0104 20:48:53.101615  1475 net.cpp:94] Creating Layer conv6_3/dwise/bn
I0104 20:48:53.101624  1475 net.cpp:435] conv6_3/dwise/bn <- conv6_3/dwise
I0104 20:48:53.101632  1475 net.cpp:409] conv6_3/dwise/bn -> conv6_3/dwise/bn
I0104 20:48:53.102195  1475 net.cpp:144] Setting up conv6_3/dwise/bn
I0104 20:48:53.102203  1475 net.cpp:151] Top shape: 1 960 12 15 (172800)
I0104 20:48:53.102211  1475 net.cpp:159] Memory required for data: 407773504
I0104 20:48:53.102226  1475 layer_factory.hpp:77] Creating layer relu6_3/dwise
I0104 20:48:53.102234  1475 net.cpp:94] Creating Layer relu6_3/dwise
I0104 20:48:53.102242  1475 net.cpp:435] relu6_3/dwise <- conv6_3/dwise/bn
I0104 20:48:53.102250  1475 net.cpp:396] relu6_3/dwise -> conv6_3/dwise/bn (in-place)
I0104 20:48:53.102260  1475 net.cpp:144] Setting up relu6_3/dwise
I0104 20:48:53.102265  1475 net.cpp:151] Top shape: 1 960 12 15 (172800)
I0104 20:48:53.102272  1475 net.cpp:159] Memory required for data: 408464704
I0104 20:48:53.102277  1475 layer_factory.hpp:77] Creating layer conv6_3/linear
I0104 20:48:53.102288  1475 net.cpp:94] Creating Layer conv6_3/linear
I0104 20:48:53.102294  1475 net.cpp:435] conv6_3/linear <- conv6_3/dwise/bn
I0104 20:48:53.102303  1475 net.cpp:409] conv6_3/linear -> conv6_3/linear
I0104 20:48:53.105738  1475 net.cpp:144] Setting up conv6_3/linear
I0104 20:48:53.105749  1475 net.cpp:151] Top shape: 1 320 12 15 (57600)
I0104 20:48:53.105757  1475 net.cpp:159] Memory required for data: 408695104
I0104 20:48:53.105767  1475 layer_factory.hpp:77] Creating layer conv6_3/linear/bn
I0104 20:48:53.105778  1475 net.cpp:94] Creating Layer conv6_3/linear/bn
I0104 20:48:53.105785  1475 net.cpp:435] conv6_3/linear/bn <- conv6_3/linear
I0104 20:48:53.105795  1475 net.cpp:409] conv6_3/linear/bn -> conv6_3/linear/bn
I0104 20:48:53.106364  1475 net.cpp:144] Setting up conv6_3/linear/bn
I0104 20:48:53.106372  1475 net.cpp:151] Top shape: 1 320 12 15 (57600)
I0104 20:48:53.106380  1475 net.cpp:159] Memory required for data: 408925504
I0104 20:48:53.106393  1475 layer_factory.hpp:77] Creating layer conv6_4
I0104 20:48:53.106431  1475 net.cpp:94] Creating Layer conv6_4
I0104 20:48:53.106437  1475 net.cpp:435] conv6_4 <- conv6_3/linear/bn
I0104 20:48:53.106446  1475 net.cpp:409] conv6_4 -> conv6_4
I0104 20:48:53.111558  1475 net.cpp:144] Setting up conv6_4
I0104 20:48:53.111570  1475 net.cpp:151] Top shape: 1 1280 12 15 (230400)
I0104 20:48:53.111585  1475 net.cpp:159] Memory required for data: 409847104
I0104 20:48:53.111594  1475 layer_factory.hpp:77] Creating layer conv6_4/bn
I0104 20:48:53.111606  1475 net.cpp:94] Creating Layer conv6_4/bn
I0104 20:48:53.111619  1475 net.cpp:435] conv6_4/bn <- conv6_4
I0104 20:48:53.111629  1475 net.cpp:409] conv6_4/bn -> conv6_4/bn
I0104 20:48:53.112264  1475 net.cpp:144] Setting up conv6_4/bn
I0104 20:48:53.112277  1475 net.cpp:151] Top shape: 1 1280 12 15 (230400)
I0104 20:48:53.112285  1475 net.cpp:159] Memory required for data: 410768704
I0104 20:48:53.112298  1475 layer_factory.hpp:77] Creating layer relu7
I0104 20:48:53.112305  1475 net.cpp:94] Creating Layer relu7
I0104 20:48:53.112310  1475 net.cpp:435] relu7 <- conv6_4/bn
I0104 20:48:53.112318  1475 net.cpp:409] relu7 -> fc7
I0104 20:48:53.112344  1475 net.cpp:144] Setting up relu7
I0104 20:48:53.112349  1475 net.cpp:151] Top shape: 1 1280 12 15 (230400)
I0104 20:48:53.112354  1475 net.cpp:159] Memory required for data: 411690304
I0104 20:48:53.112360  1475 layer_factory.hpp:77] Creating layer fc7_relu7_0_split
I0104 20:48:53.112366  1475 net.cpp:94] Creating Layer fc7_relu7_0_split
I0104 20:48:53.112371  1475 net.cpp:435] fc7_relu7_0_split <- fc7
I0104 20:48:53.112378  1475 net.cpp:409] fc7_relu7_0_split -> fc7_relu7_0_split_0
I0104 20:48:53.112385  1475 net.cpp:409] fc7_relu7_0_split -> fc7_relu7_0_split_1
I0104 20:48:53.112393  1475 net.cpp:409] fc7_relu7_0_split -> fc7_relu7_0_split_2
I0104 20:48:53.112401  1475 net.cpp:409] fc7_relu7_0_split -> fc7_relu7_0_split_3
I0104 20:48:53.112457  1475 net.cpp:144] Setting up fc7_relu7_0_split
I0104 20:48:53.112460  1475 net.cpp:151] Top shape: 1 1280 12 15 (230400)
I0104 20:48:53.112468  1475 net.cpp:151] Top shape: 1 1280 12 15 (230400)
I0104 20:48:53.112473  1475 net.cpp:151] Top shape: 1 1280 12 15 (230400)
I0104 20:48:53.112479  1475 net.cpp:151] Top shape: 1 1280 12 15 (230400)
I0104 20:48:53.112485  1475 net.cpp:159] Memory required for data: 415376704
I0104 20:48:53.112490  1475 layer_factory.hpp:77] Creating layer conv6_1
I0104 20:48:53.112500  1475 net.cpp:94] Creating Layer conv6_1
I0104 20:48:53.112505  1475 net.cpp:435] conv6_1 <- fc7_relu7_0_split_0
I0104 20:48:53.112514  1475 net.cpp:409] conv6_1 -> conv6_1
I0104 20:48:53.118508  1475 net.cpp:144] Setting up conv6_1
I0104 20:48:53.118523  1475 net.cpp:151] Top shape: 1 256 12 15 (46080)
I0104 20:48:53.118531  1475 net.cpp:159] Memory required for data: 415561024
I0104 20:48:53.118541  1475 layer_factory.hpp:77] Creating layer conv6_1_bn
I0104 20:48:53.118551  1475 net.cpp:94] Creating Layer conv6_1_bn
I0104 20:48:53.118556  1475 net.cpp:435] conv6_1_bn <- conv6_1
I0104 20:48:53.118564  1475 net.cpp:396] conv6_1_bn -> conv6_1 (in-place)
I0104 20:48:53.119355  1475 net.cpp:144] Setting up conv6_1_bn
I0104 20:48:53.119365  1475 net.cpp:151] Top shape: 1 256 12 15 (46080)
I0104 20:48:53.119374  1475 net.cpp:159] Memory required for data: 415745344
I0104 20:48:53.119385  1475 layer_factory.hpp:77] Creating layer conv6_1_relu
I0104 20:48:53.119392  1475 net.cpp:94] Creating Layer conv6_1_relu
I0104 20:48:53.119397  1475 net.cpp:435] conv6_1_relu <- conv6_1
I0104 20:48:53.119403  1475 net.cpp:396] conv6_1_relu -> conv6_1 (in-place)
I0104 20:48:53.119411  1475 net.cpp:144] Setting up conv6_1_relu
I0104 20:48:53.119415  1475 net.cpp:151] Top shape: 1 256 12 15 (46080)
I0104 20:48:53.119422  1475 net.cpp:159] Memory required for data: 415929664
I0104 20:48:53.119426  1475 layer_factory.hpp:77] Creating layer conv6_2
I0104 20:48:53.119437  1475 net.cpp:94] Creating Layer conv6_2
I0104 20:48:53.119441  1475 net.cpp:435] conv6_2 <- conv6_1
I0104 20:48:53.119448  1475 net.cpp:409] conv6_2 -> conv6_2
I0104 20:48:53.129101  1475 net.cpp:144] Setting up conv6_2
I0104 20:48:53.129113  1475 net.cpp:151] Top shape: 1 512 6 8 (24576)
I0104 20:48:53.129120  1475 net.cpp:159] Memory required for data: 416027968
I0104 20:48:53.129127  1475 layer_factory.hpp:77] Creating layer conv6_2_bn
I0104 20:48:53.129135  1475 net.cpp:94] Creating Layer conv6_2_bn
I0104 20:48:53.129139  1475 net.cpp:435] conv6_2_bn <- conv6_2
I0104 20:48:53.129145  1475 net.cpp:396] conv6_2_bn -> conv6_2 (in-place)
I0104 20:48:53.129693  1475 net.cpp:144] Setting up conv6_2_bn
I0104 20:48:53.129714  1475 net.cpp:151] Top shape: 1 512 6 8 (24576)
I0104 20:48:53.129734  1475 net.cpp:159] Memory required for data: 416126272
I0104 20:48:53.129743  1475 layer_factory.hpp:77] Creating layer conv6_2_relu
I0104 20:48:53.129786  1475 net.cpp:94] Creating Layer conv6_2_relu
I0104 20:48:53.129791  1475 net.cpp:435] conv6_2_relu <- conv6_2
I0104 20:48:53.129796  1475 net.cpp:396] conv6_2_relu -> conv6_2 (in-place)
I0104 20:48:53.129802  1475 net.cpp:144] Setting up conv6_2_relu
I0104 20:48:53.129804  1475 net.cpp:151] Top shape: 1 512 6 8 (24576)
I0104 20:48:53.129809  1475 net.cpp:159] Memory required for data: 416224576
I0104 20:48:53.129812  1475 layer_factory.hpp:77] Creating layer conv6_2_conv6_2_relu_0_split
I0104 20:48:53.129817  1475 net.cpp:94] Creating Layer conv6_2_conv6_2_relu_0_split
I0104 20:48:53.129820  1475 net.cpp:435] conv6_2_conv6_2_relu_0_split <- conv6_2
I0104 20:48:53.129825  1475 net.cpp:409] conv6_2_conv6_2_relu_0_split -> conv6_2_conv6_2_relu_0_split_0
I0104 20:48:53.129832  1475 net.cpp:409] conv6_2_conv6_2_relu_0_split -> conv6_2_conv6_2_relu_0_split_1
I0104 20:48:53.129837  1475 net.cpp:409] conv6_2_conv6_2_relu_0_split -> conv6_2_conv6_2_relu_0_split_2
I0104 20:48:53.129842  1475 net.cpp:409] conv6_2_conv6_2_relu_0_split -> conv6_2_conv6_2_relu_0_split_3
I0104 20:48:53.129889  1475 net.cpp:144] Setting up conv6_2_conv6_2_relu_0_split
I0104 20:48:53.129894  1475 net.cpp:151] Top shape: 1 512 6 8 (24576)
I0104 20:48:53.129899  1475 net.cpp:151] Top shape: 1 512 6 8 (24576)
I0104 20:48:53.129902  1475 net.cpp:151] Top shape: 1 512 6 8 (24576)
I0104 20:48:53.129906  1475 net.cpp:151] Top shape: 1 512 6 8 (24576)
I0104 20:48:53.129910  1475 net.cpp:159] Memory required for data: 416617792
I0104 20:48:53.129914  1475 layer_factory.hpp:77] Creating layer conv7_1
I0104 20:48:53.129921  1475 net.cpp:94] Creating Layer conv7_1
I0104 20:48:53.129925  1475 net.cpp:435] conv7_1 <- conv6_2_conv6_2_relu_0_split_0
I0104 20:48:53.129930  1475 net.cpp:409] conv7_1 -> conv7_1
I0104 20:48:53.130537  1475 net.cpp:144] Setting up conv7_1
I0104 20:48:53.130544  1475 net.cpp:151] Top shape: 1 128 6 8 (6144)
I0104 20:48:53.130549  1475 net.cpp:159] Memory required for data: 416642368
I0104 20:48:53.130554  1475 layer_factory.hpp:77] Creating layer conv7_1_bn
I0104 20:48:53.130561  1475 net.cpp:94] Creating Layer conv7_1_bn
I0104 20:48:53.130565  1475 net.cpp:435] conv7_1_bn <- conv7_1
I0104 20:48:53.130570  1475 net.cpp:396] conv7_1_bn -> conv7_1 (in-place)
I0104 20:48:53.131067  1475 net.cpp:144] Setting up conv7_1_bn
I0104 20:48:53.131072  1475 net.cpp:151] Top shape: 1 128 6 8 (6144)
I0104 20:48:53.131078  1475 net.cpp:159] Memory required for data: 416666944
I0104 20:48:53.131085  1475 layer_factory.hpp:77] Creating layer conv7_1_relu
I0104 20:48:53.131090  1475 net.cpp:94] Creating Layer conv7_1_relu
I0104 20:48:53.131093  1475 net.cpp:435] conv7_1_relu <- conv7_1
I0104 20:48:53.131098  1475 net.cpp:396] conv7_1_relu -> conv7_1 (in-place)
I0104 20:48:53.131103  1475 net.cpp:144] Setting up conv7_1_relu
I0104 20:48:53.131106  1475 net.cpp:151] Top shape: 1 128 6 8 (6144)
I0104 20:48:53.131110  1475 net.cpp:159] Memory required for data: 416691520
I0104 20:48:53.131114  1475 layer_factory.hpp:77] Creating layer conv7_2
I0104 20:48:53.131120  1475 net.cpp:94] Creating Layer conv7_2
I0104 20:48:53.131124  1475 net.cpp:435] conv7_2 <- conv7_1
I0104 20:48:53.131129  1475 net.cpp:409] conv7_2 -> conv7_2
I0104 20:48:53.134181  1475 net.cpp:144] Setting up conv7_2
I0104 20:48:53.134335  1475 net.cpp:151] Top shape: 1 256 3 4 (3072)
I0104 20:48:53.134357  1475 net.cpp:159] Memory required for data: 416703808
I0104 20:48:53.134364  1475 layer_factory.hpp:77] Creating layer conv7_2_bn
I0104 20:48:53.134373  1475 net.cpp:94] Creating Layer conv7_2_bn
I0104 20:48:53.134377  1475 net.cpp:435] conv7_2_bn <- conv7_2
I0104 20:48:53.134383  1475 net.cpp:396] conv7_2_bn -> conv7_2 (in-place)
I0104 20:48:53.134891  1475 net.cpp:144] Setting up conv7_2_bn
I0104 20:48:53.134899  1475 net.cpp:151] Top shape: 1 256 3 4 (3072)
I0104 20:48:53.134904  1475 net.cpp:159] Memory required for data: 416716096
I0104 20:48:53.134912  1475 layer_factory.hpp:77] Creating layer conv7_2_relu
I0104 20:48:53.134917  1475 net.cpp:94] Creating Layer conv7_2_relu
I0104 20:48:53.134920  1475 net.cpp:435] conv7_2_relu <- conv7_2
I0104 20:48:53.134925  1475 net.cpp:396] conv7_2_relu -> conv7_2 (in-place)
I0104 20:48:53.134932  1475 net.cpp:144] Setting up conv7_2_relu
I0104 20:48:53.134933  1475 net.cpp:151] Top shape: 1 256 3 4 (3072)
I0104 20:48:53.134938  1475 net.cpp:159] Memory required for data: 416728384
I0104 20:48:53.134941  1475 layer_factory.hpp:77] Creating layer conv7_2_conv7_2_relu_0_split
I0104 20:48:53.134946  1475 net.cpp:94] Creating Layer conv7_2_conv7_2_relu_0_split
I0104 20:48:53.134949  1475 net.cpp:435] conv7_2_conv7_2_relu_0_split <- conv7_2
I0104 20:48:53.134954  1475 net.cpp:409] conv7_2_conv7_2_relu_0_split -> conv7_2_conv7_2_relu_0_split_0
I0104 20:48:53.134960  1475 net.cpp:409] conv7_2_conv7_2_relu_0_split -> conv7_2_conv7_2_relu_0_split_1
I0104 20:48:53.134965  1475 net.cpp:409] conv7_2_conv7_2_relu_0_split -> conv7_2_conv7_2_relu_0_split_2
I0104 20:48:53.135005  1475 net.cpp:144] Setting up conv7_2_conv7_2_relu_0_split
I0104 20:48:53.135010  1475 net.cpp:151] Top shape: 1 256 3 4 (3072)
I0104 20:48:53.135015  1475 net.cpp:151] Top shape: 1 256 3 4 (3072)
I0104 20:48:53.135018  1475 net.cpp:151] Top shape: 1 256 3 4 (3072)
I0104 20:48:53.135022  1475 net.cpp:159] Memory required for data: 416765248
I0104 20:48:53.135025  1475 layer_factory.hpp:77] Creating layer conv4_3_norm_mbox_loc
I0104 20:48:53.135033  1475 net.cpp:94] Creating Layer conv4_3_norm_mbox_loc
I0104 20:48:53.135037  1475 net.cpp:435] conv4_3_norm_mbox_loc <- conv4_7/expand/bn_relu4_7/expand_0_split_1
I0104 20:48:53.135042  1475 net.cpp:409] conv4_3_norm_mbox_loc -> conv4_3_norm_mbox_loc
I0104 20:48:53.135896  1475 net.cpp:144] Setting up conv4_3_norm_mbox_loc
I0104 20:48:53.135903  1475 net.cpp:151] Top shape: 1 32 45 60 (86400)
I0104 20:48:53.135908  1475 net.cpp:159] Memory required for data: 417110848
I0104 20:48:53.135915  1475 layer_factory.hpp:77] Creating layer conv4_3_norm_mbox_loc_bn
I0104 20:48:53.135921  1475 net.cpp:94] Creating Layer conv4_3_norm_mbox_loc_bn
I0104 20:48:53.135926  1475 net.cpp:435] conv4_3_norm_mbox_loc_bn <- conv4_3_norm_mbox_loc
I0104 20:48:53.135939  1475 net.cpp:396] conv4_3_norm_mbox_loc_bn -> conv4_3_norm_mbox_loc (in-place)
I0104 20:48:53.136539  1475 net.cpp:144] Setting up conv4_3_norm_mbox_loc_bn
I0104 20:48:53.136545  1475 net.cpp:151] Top shape: 1 32 45 60 (86400)
I0104 20:48:53.136550  1475 net.cpp:159] Memory required for data: 417456448
I0104 20:48:53.136557  1475 layer_factory.hpp:77] Creating layer conv4_3_norm_mbox_loc_perm
I0104 20:48:53.136570  1475 net.cpp:94] Creating Layer conv4_3_norm_mbox_loc_perm
I0104 20:48:53.136574  1475 net.cpp:435] conv4_3_norm_mbox_loc_perm <- conv4_3_norm_mbox_loc
I0104 20:48:53.136579  1475 net.cpp:409] conv4_3_norm_mbox_loc_perm -> conv4_3_norm_mbox_loc_perm
I0104 20:48:53.136659  1475 net.cpp:144] Setting up conv4_3_norm_mbox_loc_perm
I0104 20:48:53.136665  1475 net.cpp:151] Top shape: 1 45 60 32 (86400)
I0104 20:48:53.136670  1475 net.cpp:159] Memory required for data: 417802048
I0104 20:48:53.136673  1475 layer_factory.hpp:77] Creating layer conv4_3_norm_mbox_loc_flat
I0104 20:48:53.136683  1475 net.cpp:94] Creating Layer conv4_3_norm_mbox_loc_flat
I0104 20:48:53.136687  1475 net.cpp:435] conv4_3_norm_mbox_loc_flat <- conv4_3_norm_mbox_loc_perm
I0104 20:48:53.136691  1475 net.cpp:409] conv4_3_norm_mbox_loc_flat -> conv4_3_norm_mbox_loc_flat
I0104 20:48:53.136710  1475 net.cpp:144] Setting up conv4_3_norm_mbox_loc_flat
I0104 20:48:53.136715  1475 net.cpp:151] Top shape: 1 86400 (86400)
I0104 20:48:53.136719  1475 net.cpp:159] Memory required for data: 418147648
I0104 20:48:53.136723  1475 layer_factory.hpp:77] Creating layer conv4_3_norm_mbox_conf_new
I0104 20:48:53.136730  1475 net.cpp:94] Creating Layer conv4_3_norm_mbox_conf_new
I0104 20:48:53.136734  1475 net.cpp:435] conv4_3_norm_mbox_conf_new <- conv4_7/expand/bn_relu4_7/expand_0_split_2
I0104 20:48:53.136739  1475 net.cpp:409] conv4_3_norm_mbox_conf_new -> conv4_3_norm_mbox_conf_new
I0104 20:48:53.141584  1475 net.cpp:144] Setting up conv4_3_norm_mbox_conf_new
I0104 20:48:53.141595  1475 net.cpp:151] Top shape: 1 168 45 60 (453600)
I0104 20:48:53.141602  1475 net.cpp:159] Memory required for data: 419962048
I0104 20:48:53.141607  1475 layer_factory.hpp:77] Creating layer conv4_3_norm_mbox_conf_bn
I0104 20:48:53.141616  1475 net.cpp:94] Creating Layer conv4_3_norm_mbox_conf_bn
I0104 20:48:53.141620  1475 net.cpp:435] conv4_3_norm_mbox_conf_bn <- conv4_3_norm_mbox_conf_new
I0104 20:48:53.141625  1475 net.cpp:396] conv4_3_norm_mbox_conf_bn -> conv4_3_norm_mbox_conf_new (in-place)
I0104 20:48:53.142259  1475 net.cpp:144] Setting up conv4_3_norm_mbox_conf_bn
I0104 20:48:53.142267  1475 net.cpp:151] Top shape: 1 168 45 60 (453600)
I0104 20:48:53.142272  1475 net.cpp:159] Memory required for data: 421776448
I0104 20:48:53.142280  1475 layer_factory.hpp:77] Creating layer conv4_3_norm_mbox_conf_perm
I0104 20:48:53.142287  1475 net.cpp:94] Creating Layer conv4_3_norm_mbox_conf_perm
I0104 20:48:53.142292  1475 net.cpp:435] conv4_3_norm_mbox_conf_perm <- conv4_3_norm_mbox_conf_new
I0104 20:48:53.142297  1475 net.cpp:409] conv4_3_norm_mbox_conf_perm -> conv4_3_norm_mbox_conf_perm
I0104 20:48:53.142374  1475 net.cpp:144] Setting up conv4_3_norm_mbox_conf_perm
I0104 20:48:53.142379  1475 net.cpp:151] Top shape: 1 45 60 168 (453600)
I0104 20:48:53.142385  1475 net.cpp:159] Memory required for data: 423590848
I0104 20:48:53.142387  1475 layer_factory.hpp:77] Creating layer conv4_3_norm_mbox_conf_flat
I0104 20:48:53.142392  1475 net.cpp:94] Creating Layer conv4_3_norm_mbox_conf_flat
I0104 20:48:53.142396  1475 net.cpp:435] conv4_3_norm_mbox_conf_flat <- conv4_3_norm_mbox_conf_perm
I0104 20:48:53.142401  1475 net.cpp:409] conv4_3_norm_mbox_conf_flat -> conv4_3_norm_mbox_conf_flat
I0104 20:48:53.142419  1475 net.cpp:144] Setting up conv4_3_norm_mbox_conf_flat
I0104 20:48:53.142424  1475 net.cpp:151] Top shape: 1 453600 (453600)
I0104 20:48:53.142428  1475 net.cpp:159] Memory required for data: 425405248
I0104 20:48:53.142431  1475 layer_factory.hpp:77] Creating layer conv4_3_norm_mbox_priorbox
I0104 20:48:53.142443  1475 net.cpp:94] Creating Layer conv4_3_norm_mbox_priorbox
I0104 20:48:53.142446  1475 net.cpp:435] conv4_3_norm_mbox_priorbox <- conv4_7/expand/bn_relu4_7/expand_0_split_3
I0104 20:48:53.142452  1475 net.cpp:435] conv4_3_norm_mbox_priorbox <- data_data_0_split_1
I0104 20:48:53.142457  1475 net.cpp:409] conv4_3_norm_mbox_priorbox -> conv4_3_norm_mbox_priorbox
I0104 20:48:53.142479  1475 net.cpp:144] Setting up conv4_3_norm_mbox_priorbox
I0104 20:48:53.142482  1475 net.cpp:151] Top shape: 1 2 86400 (172800)
I0104 20:48:53.142488  1475 net.cpp:159] Memory required for data: 426096448
I0104 20:48:53.142490  1475 layer_factory.hpp:77] Creating layer fc7_mbox_loc
I0104 20:48:53.142498  1475 net.cpp:94] Creating Layer fc7_mbox_loc
I0104 20:48:53.142503  1475 net.cpp:435] fc7_mbox_loc <- conv5_3/expand/bn_relu5_3/expand_0_split_1
I0104 20:48:53.142508  1475 net.cpp:409] fc7_mbox_loc -> fc7_mbox_loc
I0104 20:48:53.143430  1475 net.cpp:144] Setting up fc7_mbox_loc
I0104 20:48:53.143437  1475 net.cpp:151] Top shape: 1 24 23 30 (16560)
I0104 20:48:53.143442  1475 net.cpp:159] Memory required for data: 426162688
I0104 20:48:53.143447  1475 layer_factory.hpp:77] Creating layer fc7_mbox_loc_bn
I0104 20:48:53.143455  1475 net.cpp:94] Creating Layer fc7_mbox_loc_bn
I0104 20:48:53.143458  1475 net.cpp:435] fc7_mbox_loc_bn <- fc7_mbox_loc
I0104 20:48:53.143465  1475 net.cpp:396] fc7_mbox_loc_bn -> fc7_mbox_loc (in-place)
I0104 20:48:53.144042  1475 net.cpp:144] Setting up fc7_mbox_loc_bn
I0104 20:48:53.144048  1475 net.cpp:151] Top shape: 1 24 23 30 (16560)
I0104 20:48:53.144053  1475 net.cpp:159] Memory required for data: 426228928
I0104 20:48:53.144060  1475 layer_factory.hpp:77] Creating layer fc7_mbox_loc_perm
I0104 20:48:53.144066  1475 net.cpp:94] Creating Layer fc7_mbox_loc_perm
I0104 20:48:53.144070  1475 net.cpp:435] fc7_mbox_loc_perm <- fc7_mbox_loc
I0104 20:48:53.144075  1475 net.cpp:409] fc7_mbox_loc_perm -> fc7_mbox_loc_perm
I0104 20:48:53.144151  1475 net.cpp:144] Setting up fc7_mbox_loc_perm
I0104 20:48:53.144157  1475 net.cpp:151] Top shape: 1 23 30 24 (16560)
I0104 20:48:53.144161  1475 net.cpp:159] Memory required for data: 426295168
I0104 20:48:53.144165  1475 layer_factory.hpp:77] Creating layer fc7_mbox_loc_flat
I0104 20:48:53.144170  1475 net.cpp:94] Creating Layer fc7_mbox_loc_flat
I0104 20:48:53.144173  1475 net.cpp:435] fc7_mbox_loc_flat <- fc7_mbox_loc_perm
I0104 20:48:53.144178  1475 net.cpp:409] fc7_mbox_loc_flat -> fc7_mbox_loc_flat
I0104 20:48:53.144196  1475 net.cpp:144] Setting up fc7_mbox_loc_flat
I0104 20:48:53.144199  1475 net.cpp:151] Top shape: 1 16560 (16560)
I0104 20:48:53.144204  1475 net.cpp:159] Memory required for data: 426361408
I0104 20:48:53.144207  1475 layer_factory.hpp:77] Creating layer fc7_mbox_conf_new
I0104 20:48:53.144214  1475 net.cpp:94] Creating Layer fc7_mbox_conf_new
I0104 20:48:53.144218  1475 net.cpp:435] fc7_mbox_conf_new <- conv5_3/expand/bn_relu5_3/expand_0_split_2
I0104 20:48:53.144223  1475 net.cpp:409] fc7_mbox_conf_new -> fc7_mbox_conf_new
I0104 20:48:53.149695  1475 net.cpp:144] Setting up fc7_mbox_conf_new
I0104 20:48:53.149708  1475 net.cpp:151] Top shape: 1 126 23 30 (86940)
I0104 20:48:53.149713  1475 net.cpp:159] Memory required for data: 426709168
I0104 20:48:53.149719  1475 layer_factory.hpp:77] Creating layer fc7_mbox_conf_bn
I0104 20:48:53.149727  1475 net.cpp:94] Creating Layer fc7_mbox_conf_bn
I0104 20:48:53.149731  1475 net.cpp:435] fc7_mbox_conf_bn <- fc7_mbox_conf_new
I0104 20:48:53.149736  1475 net.cpp:396] fc7_mbox_conf_bn -> fc7_mbox_conf_new (in-place)
I0104 20:48:53.150514  1475 net.cpp:144] Setting up fc7_mbox_conf_bn
I0104 20:48:53.150529  1475 net.cpp:151] Top shape: 1 126 23 30 (86940)
I0104 20:48:53.150537  1475 net.cpp:159] Memory required for data: 427056928
I0104 20:48:53.150549  1475 layer_factory.hpp:77] Creating layer fc7_mbox_conf_perm
I0104 20:48:53.150558  1475 net.cpp:94] Creating Layer fc7_mbox_conf_perm
I0104 20:48:53.150564  1475 net.cpp:435] fc7_mbox_conf_perm <- fc7_mbox_conf_new
I0104 20:48:53.150573  1475 net.cpp:409] fc7_mbox_conf_perm -> fc7_mbox_conf_perm
I0104 20:48:53.150671  1475 net.cpp:144] Setting up fc7_mbox_conf_perm
I0104 20:48:53.150676  1475 net.cpp:151] Top shape: 1 23 30 126 (86940)
I0104 20:48:53.150682  1475 net.cpp:159] Memory required for data: 427404688
I0104 20:48:53.150687  1475 layer_factory.hpp:77] Creating layer fc7_mbox_conf_flat
I0104 20:48:53.150694  1475 net.cpp:94] Creating Layer fc7_mbox_conf_flat
I0104 20:48:53.150699  1475 net.cpp:435] fc7_mbox_conf_flat <- fc7_mbox_conf_perm
I0104 20:48:53.150705  1475 net.cpp:409] fc7_mbox_conf_flat -> fc7_mbox_conf_flat
I0104 20:48:53.150728  1475 net.cpp:144] Setting up fc7_mbox_conf_flat
I0104 20:48:53.150733  1475 net.cpp:151] Top shape: 1 86940 (86940)
I0104 20:48:53.150739  1475 net.cpp:159] Memory required for data: 427752448
I0104 20:48:53.150743  1475 layer_factory.hpp:77] Creating layer fc7_mbox_priorbox
I0104 20:48:53.150751  1475 net.cpp:94] Creating Layer fc7_mbox_priorbox
I0104 20:48:53.150756  1475 net.cpp:435] fc7_mbox_priorbox <- conv5_3/expand/bn_relu5_3/expand_0_split_3
I0104 20:48:53.150763  1475 net.cpp:435] fc7_mbox_priorbox <- data_data_0_split_2
I0104 20:48:53.150769  1475 net.cpp:409] fc7_mbox_priorbox -> fc7_mbox_priorbox
I0104 20:48:53.150794  1475 net.cpp:144] Setting up fc7_mbox_priorbox
I0104 20:48:53.150799  1475 net.cpp:151] Top shape: 1 2 16560 (33120)
I0104 20:48:53.150804  1475 net.cpp:159] Memory required for data: 427884928
I0104 20:48:53.150810  1475 layer_factory.hpp:77] Creating layer conv6_2_mbox_loc
I0104 20:48:53.150820  1475 net.cpp:94] Creating Layer conv6_2_mbox_loc
I0104 20:48:53.150825  1475 net.cpp:435] conv6_2_mbox_loc <- fc7_relu7_0_split_1
I0104 20:48:53.150832  1475 net.cpp:409] conv6_2_mbox_loc -> conv6_2_mbox_loc
I0104 20:48:53.155704  1475 net.cpp:144] Setting up conv6_2_mbox_loc
I0104 20:48:53.155725  1475 net.cpp:151] Top shape: 1 24 12 15 (4320)
I0104 20:48:53.155733  1475 net.cpp:159] Memory required for data: 427902208
I0104 20:48:53.155742  1475 layer_factory.hpp:77] Creating layer conv6_2_mbox_loc__bn
I0104 20:48:53.155753  1475 net.cpp:94] Creating Layer conv6_2_mbox_loc__bn
I0104 20:48:53.155758  1475 net.cpp:435] conv6_2_mbox_loc__bn <- conv6_2_mbox_loc
I0104 20:48:53.155763  1475 net.cpp:396] conv6_2_mbox_loc__bn -> conv6_2_mbox_loc (in-place)
I0104 20:48:53.156517  1475 net.cpp:144] Setting up conv6_2_mbox_loc__bn
I0104 20:48:53.156527  1475 net.cpp:151] Top shape: 1 24 12 15 (4320)
I0104 20:48:53.156531  1475 net.cpp:159] Memory required for data: 427919488
I0104 20:48:53.156541  1475 layer_factory.hpp:77] Creating layer conv6_2_mbox_loc_perm
I0104 20:48:53.156548  1475 net.cpp:94] Creating Layer conv6_2_mbox_loc_perm
I0104 20:48:53.156554  1475 net.cpp:435] conv6_2_mbox_loc_perm <- conv6_2_mbox_loc
I0104 20:48:53.156561  1475 net.cpp:409] conv6_2_mbox_loc_perm -> conv6_2_mbox_loc_perm
I0104 20:48:53.156653  1475 net.cpp:144] Setting up conv6_2_mbox_loc_perm
I0104 20:48:53.156661  1475 net.cpp:151] Top shape: 1 12 15 24 (4320)
I0104 20:48:53.156664  1475 net.cpp:159] Memory required for data: 427936768
I0104 20:48:53.156668  1475 layer_factory.hpp:77] Creating layer conv6_2_mbox_loc_flat
I0104 20:48:53.156673  1475 net.cpp:94] Creating Layer conv6_2_mbox_loc_flat
I0104 20:48:53.156677  1475 net.cpp:435] conv6_2_mbox_loc_flat <- conv6_2_mbox_loc_perm
I0104 20:48:53.156682  1475 net.cpp:409] conv6_2_mbox_loc_flat -> conv6_2_mbox_loc_flat
I0104 20:48:53.156706  1475 net.cpp:144] Setting up conv6_2_mbox_loc_flat
I0104 20:48:53.156713  1475 net.cpp:151] Top shape: 1 4320 (4320)
I0104 20:48:53.156718  1475 net.cpp:159] Memory required for data: 427954048
I0104 20:48:53.156721  1475 layer_factory.hpp:77] Creating layer conv6_2_mbox_conf_new
I0104 20:48:53.156731  1475 net.cpp:94] Creating Layer conv6_2_mbox_conf_new
I0104 20:48:53.156734  1475 net.cpp:435] conv6_2_mbox_conf_new <- fc7_relu7_0_split_2
I0104 20:48:53.156742  1475 net.cpp:409] conv6_2_mbox_conf_new -> conv6_2_mbox_conf_new
I0104 20:48:53.168272  1475 net.cpp:144] Setting up conv6_2_mbox_conf_new
I0104 20:48:53.168287  1475 net.cpp:151] Top shape: 1 126 12 15 (22680)
I0104 20:48:53.168292  1475 net.cpp:159] Memory required for data: 428044768
I0104 20:48:53.168300  1475 layer_factory.hpp:77] Creating layer conv6_2_mbox_conf_bn
I0104 20:48:53.168309  1475 net.cpp:94] Creating Layer conv6_2_mbox_conf_bn
I0104 20:48:53.168314  1475 net.cpp:435] conv6_2_mbox_conf_bn <- conv6_2_mbox_conf_new
I0104 20:48:53.168320  1475 net.cpp:396] conv6_2_mbox_conf_bn -> conv6_2_mbox_conf_new (in-place)
I0104 20:48:53.168922  1475 net.cpp:144] Setting up conv6_2_mbox_conf_bn
I0104 20:48:53.168932  1475 net.cpp:151] Top shape: 1 126 12 15 (22680)
I0104 20:48:53.168938  1475 net.cpp:159] Memory required for data: 428135488
I0104 20:48:53.168946  1475 layer_factory.hpp:77] Creating layer conv6_2_mbox_conf_perm
I0104 20:48:53.168953  1475 net.cpp:94] Creating Layer conv6_2_mbox_conf_perm
I0104 20:48:53.168957  1475 net.cpp:435] conv6_2_mbox_conf_perm <- conv6_2_mbox_conf_new
I0104 20:48:53.168963  1475 net.cpp:409] conv6_2_mbox_conf_perm -> conv6_2_mbox_conf_perm
I0104 20:48:53.169047  1475 net.cpp:144] Setting up conv6_2_mbox_conf_perm
I0104 20:48:53.169055  1475 net.cpp:151] Top shape: 1 12 15 126 (22680)
I0104 20:48:53.169059  1475 net.cpp:159] Memory required for data: 428226208
I0104 20:48:53.169064  1475 layer_factory.hpp:77] Creating layer conv6_2_mbox_conf_flat
I0104 20:48:53.169068  1475 net.cpp:94] Creating Layer conv6_2_mbox_conf_flat
I0104 20:48:53.169072  1475 net.cpp:435] conv6_2_mbox_conf_flat <- conv6_2_mbox_conf_perm
I0104 20:48:53.169077  1475 net.cpp:409] conv6_2_mbox_conf_flat -> conv6_2_mbox_conf_flat
I0104 20:48:53.169100  1475 net.cpp:144] Setting up conv6_2_mbox_conf_flat
I0104 20:48:53.169104  1475 net.cpp:151] Top shape: 1 22680 (22680)
I0104 20:48:53.169109  1475 net.cpp:159] Memory required for data: 428316928
I0104 20:48:53.169112  1475 layer_factory.hpp:77] Creating layer conv6_2_mbox_priorbox
I0104 20:48:53.169118  1475 net.cpp:94] Creating Layer conv6_2_mbox_priorbox
I0104 20:48:53.169122  1475 net.cpp:435] conv6_2_mbox_priorbox <- fc7_relu7_0_split_3
I0104 20:48:53.169126  1475 net.cpp:435] conv6_2_mbox_priorbox <- data_data_0_split_3
I0104 20:48:53.169131  1475 net.cpp:409] conv6_2_mbox_priorbox -> conv6_2_mbox_priorbox
I0104 20:48:53.169152  1475 net.cpp:144] Setting up conv6_2_mbox_priorbox
I0104 20:48:53.169157  1475 net.cpp:151] Top shape: 1 2 4320 (8640)
I0104 20:48:53.169162  1475 net.cpp:159] Memory required for data: 428351488
I0104 20:48:53.169164  1475 layer_factory.hpp:77] Creating layer conv7_2_mbox_loc
I0104 20:48:53.169173  1475 net.cpp:94] Creating Layer conv7_2_mbox_loc
I0104 20:48:53.169176  1475 net.cpp:435] conv7_2_mbox_loc <- conv6_2_conv6_2_relu_0_split_1
I0104 20:48:53.169183  1475 net.cpp:409] conv7_2_mbox_loc -> conv7_2_mbox_loc
I0104 20:48:53.170207  1475 net.cpp:144] Setting up conv7_2_mbox_loc
I0104 20:48:53.170214  1475 net.cpp:151] Top shape: 1 24 6 8 (1152)
I0104 20:48:53.170219  1475 net.cpp:159] Memory required for data: 428356096
I0104 20:48:53.170225  1475 layer_factory.hpp:77] Creating layer conv7_2_mbox_loc_bn
I0104 20:48:53.170233  1475 net.cpp:94] Creating Layer conv7_2_mbox_loc_bn
I0104 20:48:53.170236  1475 net.cpp:435] conv7_2_mbox_loc_bn <- conv7_2_mbox_loc
I0104 20:48:53.170243  1475 net.cpp:396] conv7_2_mbox_loc_bn -> conv7_2_mbox_loc (in-place)
I0104 20:48:53.170837  1475 net.cpp:144] Setting up conv7_2_mbox_loc_bn
I0104 20:48:53.170845  1475 net.cpp:151] Top shape: 1 24 6 8 (1152)
I0104 20:48:53.170850  1475 net.cpp:159] Memory required for data: 428360704
I0104 20:48:53.170857  1475 layer_factory.hpp:77] Creating layer conv7_2_mbox_loc_perm
I0104 20:48:53.170863  1475 net.cpp:94] Creating Layer conv7_2_mbox_loc_perm
I0104 20:48:53.170867  1475 net.cpp:435] conv7_2_mbox_loc_perm <- conv7_2_mbox_loc
I0104 20:48:53.170873  1475 net.cpp:409] conv7_2_mbox_loc_perm -> conv7_2_mbox_loc_perm
I0104 20:48:53.170951  1475 net.cpp:144] Setting up conv7_2_mbox_loc_perm
I0104 20:48:53.170959  1475 net.cpp:151] Top shape: 1 6 8 24 (1152)
I0104 20:48:53.170966  1475 net.cpp:159] Memory required for data: 428365312
I0104 20:48:53.170970  1475 layer_factory.hpp:77] Creating layer conv7_2_mbox_loc_flat
I0104 20:48:53.170975  1475 net.cpp:94] Creating Layer conv7_2_mbox_loc_flat
I0104 20:48:53.170979  1475 net.cpp:435] conv7_2_mbox_loc_flat <- conv7_2_mbox_loc_perm
I0104 20:48:53.170984  1475 net.cpp:409] conv7_2_mbox_loc_flat -> conv7_2_mbox_loc_flat
I0104 20:48:53.171006  1475 net.cpp:144] Setting up conv7_2_mbox_loc_flat
I0104 20:48:53.171012  1475 net.cpp:151] Top shape: 1 1152 (1152)
I0104 20:48:53.171018  1475 net.cpp:159] Memory required for data: 428369920
I0104 20:48:53.171022  1475 layer_factory.hpp:77] Creating layer conv7_2_mbox_conf_new
I0104 20:48:53.171032  1475 net.cpp:94] Creating Layer conv7_2_mbox_conf_new
I0104 20:48:53.171036  1475 net.cpp:435] conv7_2_mbox_conf_new <- conv6_2_conv6_2_relu_0_split_2
I0104 20:48:53.171043  1475 net.cpp:409] conv7_2_mbox_conf_new -> conv7_2_mbox_conf_new
I0104 20:48:53.175994  1475 net.cpp:144] Setting up conv7_2_mbox_conf_new
I0104 20:48:53.176004  1475 net.cpp:151] Top shape: 1 126 6 8 (6048)
I0104 20:48:53.176010  1475 net.cpp:159] Memory required for data: 428394112
I0104 20:48:53.176017  1475 layer_factory.hpp:77] Creating layer conv7_2_mbox_conf_bn
I0104 20:48:53.176025  1475 net.cpp:94] Creating Layer conv7_2_mbox_conf_bn
I0104 20:48:53.176029  1475 net.cpp:435] conv7_2_mbox_conf_bn <- conv7_2_mbox_conf_new
I0104 20:48:53.176035  1475 net.cpp:396] conv7_2_mbox_conf_bn -> conv7_2_mbox_conf_new (in-place)
I0104 20:48:53.176658  1475 net.cpp:144] Setting up conv7_2_mbox_conf_bn
I0104 20:48:53.176669  1475 net.cpp:151] Top shape: 1 126 6 8 (6048)
I0104 20:48:53.176674  1475 net.cpp:159] Memory required for data: 428418304
I0104 20:48:53.176683  1475 layer_factory.hpp:77] Creating layer conv7_2_mbox_conf_perm
I0104 20:48:53.176690  1475 net.cpp:94] Creating Layer conv7_2_mbox_conf_perm
I0104 20:48:53.176694  1475 net.cpp:435] conv7_2_mbox_conf_perm <- conv7_2_mbox_conf_new
I0104 20:48:53.176700  1475 net.cpp:409] conv7_2_mbox_conf_perm -> conv7_2_mbox_conf_perm
I0104 20:48:53.176784  1475 net.cpp:144] Setting up conv7_2_mbox_conf_perm
I0104 20:48:53.176791  1475 net.cpp:151] Top shape: 1 6 8 126 (6048)
I0104 20:48:53.176797  1475 net.cpp:159] Memory required for data: 428442496
I0104 20:48:53.176800  1475 layer_factory.hpp:77] Creating layer conv7_2_mbox_conf_flat
I0104 20:48:53.176806  1475 net.cpp:94] Creating Layer conv7_2_mbox_conf_flat
I0104 20:48:53.176810  1475 net.cpp:435] conv7_2_mbox_conf_flat <- conv7_2_mbox_conf_perm
I0104 20:48:53.176815  1475 net.cpp:409] conv7_2_mbox_conf_flat -> conv7_2_mbox_conf_flat
I0104 20:48:53.176841  1475 net.cpp:144] Setting up conv7_2_mbox_conf_flat
I0104 20:48:53.176847  1475 net.cpp:151] Top shape: 1 6048 (6048)
I0104 20:48:53.176853  1475 net.cpp:159] Memory required for data: 428466688
I0104 20:48:53.176856  1475 layer_factory.hpp:77] Creating layer conv7_2_mbox_priorbox
I0104 20:48:53.176862  1475 net.cpp:94] Creating Layer conv7_2_mbox_priorbox
I0104 20:48:53.176867  1475 net.cpp:435] conv7_2_mbox_priorbox <- conv6_2_conv6_2_relu_0_split_3
I0104 20:48:53.176870  1475 net.cpp:435] conv7_2_mbox_priorbox <- data_data_0_split_4
I0104 20:48:53.176875  1475 net.cpp:409] conv7_2_mbox_priorbox -> conv7_2_mbox_priorbox
I0104 20:48:53.176895  1475 net.cpp:144] Setting up conv7_2_mbox_priorbox
I0104 20:48:53.176900  1475 net.cpp:151] Top shape: 1 2 1152 (2304)
I0104 20:48:53.176904  1475 net.cpp:159] Memory required for data: 428475904
I0104 20:48:53.176908  1475 layer_factory.hpp:77] Creating layer conv8_2_mbox_loc
I0104 20:48:53.176916  1475 net.cpp:94] Creating Layer conv8_2_mbox_loc
I0104 20:48:53.176920  1475 net.cpp:435] conv8_2_mbox_loc <- conv7_2_conv7_2_relu_0_split_0
I0104 20:48:53.176925  1475 net.cpp:409] conv8_2_mbox_loc -> conv8_2_mbox_loc
I0104 20:48:53.177386  1475 net.cpp:144] Setting up conv8_2_mbox_loc
I0104 20:48:53.177393  1475 net.cpp:151] Top shape: 1 16 3 4 (192)
I0104 20:48:53.177397  1475 net.cpp:159] Memory required for data: 428476672
I0104 20:48:53.177403  1475 layer_factory.hpp:77] Creating layer conv8_2_mbox_loc_bn
I0104 20:48:53.177410  1475 net.cpp:94] Creating Layer conv8_2_mbox_loc_bn
I0104 20:48:53.177414  1475 net.cpp:435] conv8_2_mbox_loc_bn <- conv8_2_mbox_loc
I0104 20:48:53.177419  1475 net.cpp:396] conv8_2_mbox_loc_bn -> conv8_2_mbox_loc (in-place)
I0104 20:48:53.177999  1475 net.cpp:144] Setting up conv8_2_mbox_loc_bn
I0104 20:48:53.178005  1475 net.cpp:151] Top shape: 1 16 3 4 (192)
I0104 20:48:53.178010  1475 net.cpp:159] Memory required for data: 428477440
I0104 20:48:53.178017  1475 layer_factory.hpp:77] Creating layer conv8_2_mbox_loc_perm
I0104 20:48:53.178025  1475 net.cpp:94] Creating Layer conv8_2_mbox_loc_perm
I0104 20:48:53.178028  1475 net.cpp:435] conv8_2_mbox_loc_perm <- conv8_2_mbox_loc
I0104 20:48:53.178033  1475 net.cpp:409] conv8_2_mbox_loc_perm -> conv8_2_mbox_loc_perm
I0104 20:48:53.178112  1475 net.cpp:144] Setting up conv8_2_mbox_loc_perm
I0104 20:48:53.178117  1475 net.cpp:151] Top shape: 1 3 4 16 (192)
I0104 20:48:53.178122  1475 net.cpp:159] Memory required for data: 428478208
I0104 20:48:53.178128  1475 layer_factory.hpp:77] Creating layer conv8_2_mbox_loc_flat
I0104 20:48:53.178133  1475 net.cpp:94] Creating Layer conv8_2_mbox_loc_flat
I0104 20:48:53.178138  1475 net.cpp:435] conv8_2_mbox_loc_flat <- conv8_2_mbox_loc_perm
I0104 20:48:53.178146  1475 net.cpp:409] conv8_2_mbox_loc_flat -> conv8_2_mbox_loc_flat
I0104 20:48:53.178166  1475 net.cpp:144] Setting up conv8_2_mbox_loc_flat
I0104 20:48:53.178174  1475 net.cpp:151] Top shape: 1 192 (192)
I0104 20:48:53.178180  1475 net.cpp:159] Memory required for data: 428478976
I0104 20:48:53.178184  1475 layer_factory.hpp:77] Creating layer conv8_2_mbox_conf_new
I0104 20:48:53.178191  1475 net.cpp:94] Creating Layer conv8_2_mbox_conf_new
I0104 20:48:53.178194  1475 net.cpp:435] conv8_2_mbox_conf_new <- conv7_2_conv7_2_relu_0_split_1
I0104 20:48:53.178200  1475 net.cpp:409] conv8_2_mbox_conf_new -> conv8_2_mbox_conf_new
I0104 20:48:53.179538  1475 net.cpp:144] Setting up conv8_2_mbox_conf_new
I0104 20:48:53.179544  1475 net.cpp:151] Top shape: 1 84 3 4 (1008)
I0104 20:48:53.179549  1475 net.cpp:159] Memory required for data: 428483008
I0104 20:48:53.179554  1475 layer_factory.hpp:77] Creating layer conv8_2_mbox_conf_bn
I0104 20:48:53.179563  1475 net.cpp:94] Creating Layer conv8_2_mbox_conf_bn
I0104 20:48:53.179566  1475 net.cpp:435] conv8_2_mbox_conf_bn <- conv8_2_mbox_conf_new
I0104 20:48:53.179571  1475 net.cpp:396] conv8_2_mbox_conf_bn -> conv8_2_mbox_conf_new (in-place)
I0104 20:48:53.180188  1475 net.cpp:144] Setting up conv8_2_mbox_conf_bn
I0104 20:48:53.180195  1475 net.cpp:151] Top shape: 1 84 3 4 (1008)
I0104 20:48:53.180200  1475 net.cpp:159] Memory required for data: 428487040
I0104 20:48:53.180207  1475 layer_factory.hpp:77] Creating layer conv8_2_mbox_conf_perm
I0104 20:48:53.180214  1475 net.cpp:94] Creating Layer conv8_2_mbox_conf_perm
I0104 20:48:53.180217  1475 net.cpp:435] conv8_2_mbox_conf_perm <- conv8_2_mbox_conf_new
I0104 20:48:53.180223  1475 net.cpp:409] conv8_2_mbox_conf_perm -> conv8_2_mbox_conf_perm
I0104 20:48:53.180310  1475 net.cpp:144] Setting up conv8_2_mbox_conf_perm
I0104 20:48:53.180315  1475 net.cpp:151] Top shape: 1 3 4 84 (1008)
I0104 20:48:53.180320  1475 net.cpp:159] Memory required for data: 428491072
I0104 20:48:53.180323  1475 layer_factory.hpp:77] Creating layer conv8_2_mbox_conf_flat
I0104 20:48:53.180328  1475 net.cpp:94] Creating Layer conv8_2_mbox_conf_flat
I0104 20:48:53.180331  1475 net.cpp:435] conv8_2_mbox_conf_flat <- conv8_2_mbox_conf_perm
I0104 20:48:53.180336  1475 net.cpp:409] conv8_2_mbox_conf_flat -> conv8_2_mbox_conf_flat
I0104 20:48:53.180356  1475 net.cpp:144] Setting up conv8_2_mbox_conf_flat
I0104 20:48:53.180361  1475 net.cpp:151] Top shape: 1 1008 (1008)
I0104 20:48:53.180364  1475 net.cpp:159] Memory required for data: 428495104
I0104 20:48:53.180367  1475 layer_factory.hpp:77] Creating layer conv8_2_mbox_priorbox
I0104 20:48:53.180374  1475 net.cpp:94] Creating Layer conv8_2_mbox_priorbox
I0104 20:48:53.180377  1475 net.cpp:435] conv8_2_mbox_priorbox <- conv7_2_conv7_2_relu_0_split_2
I0104 20:48:53.180382  1475 net.cpp:435] conv8_2_mbox_priorbox <- data_data_0_split_5
I0104 20:48:53.180387  1475 net.cpp:409] conv8_2_mbox_priorbox -> conv8_2_mbox_priorbox
I0104 20:48:53.180408  1475 net.cpp:144] Setting up conv8_2_mbox_priorbox
I0104 20:48:53.180416  1475 net.cpp:151] Top shape: 1 2 192 (384)
I0104 20:48:53.180420  1475 net.cpp:159] Memory required for data: 428496640
I0104 20:48:53.180423  1475 layer_factory.hpp:77] Creating layer mbox_loc
I0104 20:48:53.180435  1475 net.cpp:94] Creating Layer mbox_loc
I0104 20:48:53.180441  1475 net.cpp:435] mbox_loc <- conv4_3_norm_mbox_loc_flat
I0104 20:48:53.180445  1475 net.cpp:435] mbox_loc <- fc7_mbox_loc_flat
I0104 20:48:53.180449  1475 net.cpp:435] mbox_loc <- conv6_2_mbox_loc_flat
I0104 20:48:53.180454  1475 net.cpp:435] mbox_loc <- conv7_2_mbox_loc_flat
I0104 20:48:53.180456  1475 net.cpp:435] mbox_loc <- conv8_2_mbox_loc_flat
I0104 20:48:53.180460  1475 net.cpp:409] mbox_loc -> mbox_loc
I0104 20:48:53.180485  1475 net.cpp:144] Setting up mbox_loc
I0104 20:48:53.180490  1475 net.cpp:151] Top shape: 1 108624 (108624)
I0104 20:48:53.180495  1475 net.cpp:159] Memory required for data: 428931136
I0104 20:48:53.180498  1475 layer_factory.hpp:77] Creating layer mbox_conf
I0104 20:48:53.180505  1475 net.cpp:94] Creating Layer mbox_conf
I0104 20:48:53.180510  1475 net.cpp:435] mbox_conf <- conv4_3_norm_mbox_conf_flat
I0104 20:48:53.180516  1475 net.cpp:435] mbox_conf <- fc7_mbox_conf_flat
I0104 20:48:53.180528  1475 net.cpp:435] mbox_conf <- conv6_2_mbox_conf_flat
I0104 20:48:53.180533  1475 net.cpp:435] mbox_conf <- conv7_2_mbox_conf_flat
I0104 20:48:53.180537  1475 net.cpp:435] mbox_conf <- conv8_2_mbox_conf_flat
I0104 20:48:53.180541  1475 net.cpp:409] mbox_conf -> mbox_conf
I0104 20:48:53.180563  1475 net.cpp:144] Setting up mbox_conf
I0104 20:48:53.180569  1475 net.cpp:151] Top shape: 1 570276 (570276)
I0104 20:48:53.180577  1475 net.cpp:159] Memory required for data: 431212240
I0104 20:48:53.180579  1475 layer_factory.hpp:77] Creating layer mbox_priorbox
I0104 20:48:53.180584  1475 net.cpp:94] Creating Layer mbox_priorbox
I0104 20:48:53.180588  1475 net.cpp:435] mbox_priorbox <- conv4_3_norm_mbox_priorbox
I0104 20:48:53.180591  1475 net.cpp:435] mbox_priorbox <- fc7_mbox_priorbox
I0104 20:48:53.180595  1475 net.cpp:435] mbox_priorbox <- conv6_2_mbox_priorbox
I0104 20:48:53.180600  1475 net.cpp:435] mbox_priorbox <- conv7_2_mbox_priorbox
I0104 20:48:53.180604  1475 net.cpp:435] mbox_priorbox <- conv8_2_mbox_priorbox
I0104 20:48:53.180611  1475 net.cpp:409] mbox_priorbox -> mbox_priorbox
I0104 20:48:53.180634  1475 net.cpp:144] Setting up mbox_priorbox
I0104 20:48:53.180641  1475 net.cpp:151] Top shape: 1 2 108624 (217248)
I0104 20:48:53.180646  1475 net.cpp:159] Memory required for data: 432081232
I0104 20:48:53.180649  1475 layer_factory.hpp:77] Creating layer mbox_conf_reshape
I0104 20:48:53.180662  1475 net.cpp:94] Creating Layer mbox_conf_reshape
I0104 20:48:53.180666  1475 net.cpp:435] mbox_conf_reshape <- mbox_conf
I0104 20:48:53.180671  1475 net.cpp:409] mbox_conf_reshape -> mbox_conf_reshape
I0104 20:48:53.180696  1475 net.cpp:144] Setting up mbox_conf_reshape
I0104 20:48:53.180703  1475 net.cpp:151] Top shape: 1 27156 21 (570276)
I0104 20:48:53.180709  1475 net.cpp:159] Memory required for data: 434362336
I0104 20:48:53.180713  1475 layer_factory.hpp:77] Creating layer mbox_conf_softmax
I0104 20:48:53.180719  1475 net.cpp:94] Creating Layer mbox_conf_softmax
I0104 20:48:53.180722  1475 net.cpp:435] mbox_conf_softmax <- mbox_conf_reshape
I0104 20:48:53.180728  1475 net.cpp:409] mbox_conf_softmax -> mbox_conf_softmax
I0104 20:48:53.180796  1475 net.cpp:144] Setting up mbox_conf_softmax
I0104 20:48:53.180802  1475 net.cpp:151] Top shape: 1 27156 21 (570276)
I0104 20:48:53.180806  1475 net.cpp:159] Memory required for data: 436643440
I0104 20:48:53.180809  1475 layer_factory.hpp:77] Creating layer mbox_conf_flatten
I0104 20:48:53.180815  1475 net.cpp:94] Creating Layer mbox_conf_flatten
I0104 20:48:53.180819  1475 net.cpp:435] mbox_conf_flatten <- mbox_conf_softmax
I0104 20:48:53.180824  1475 net.cpp:409] mbox_conf_flatten -> mbox_conf_flatten
I0104 20:48:53.180845  1475 net.cpp:144] Setting up mbox_conf_flatten
I0104 20:48:53.180850  1475 net.cpp:151] Top shape: 1 570276 (570276)
I0104 20:48:53.180857  1475 net.cpp:159] Memory required for data: 438924544
I0104 20:48:53.180860  1475 layer_factory.hpp:77] Creating layer detection_out
I0104 20:48:53.180873  1475 net.cpp:94] Creating Layer detection_out
I0104 20:48:53.180876  1475 net.cpp:435] detection_out <- mbox_loc
I0104 20:48:53.180881  1475 net.cpp:435] detection_out <- mbox_conf_flatten
I0104 20:48:53.180887  1475 net.cpp:435] detection_out <- mbox_priorbox
I0104 20:48:53.180893  1475 net.cpp:409] detection_out -> detection_out
I0104 20:48:53.180940  1475 net.cpp:144] Setting up detection_out
I0104 20:48:53.180948  1475 net.cpp:151] Top shape: 1 1 1 7 (7)
I0104 20:48:53.180954  1475 net.cpp:159] Memory required for data: 438924572
I0104 20:48:53.180958  1475 layer_factory.hpp:77] Creating layer detection_eval
I0104 20:48:53.180969  1475 net.cpp:94] Creating Layer detection_eval
I0104 20:48:53.180972  1475 net.cpp:435] detection_eval <- detection_out
I0104 20:48:53.180976  1475 net.cpp:435] detection_eval <- label
I0104 20:48:53.180981  1475 net.cpp:409] detection_eval -> detection_eval
I0104 20:48:53.182621  1475 net.cpp:144] Setting up detection_eval
I0104 20:48:53.182628  1475 net.cpp:151] Top shape: 1 1 21 5 (105)
I0104 20:48:53.182633  1475 net.cpp:159] Memory required for data: 438924992
I0104 20:48:53.182636  1475 net.cpp:222] detection_eval does not need backward computation.
I0104 20:48:53.182643  1475 net.cpp:222] detection_out does not need backward computation.
I0104 20:48:53.182647  1475 net.cpp:222] mbox_conf_flatten does not need backward computation.
I0104 20:48:53.182651  1475 net.cpp:222] mbox_conf_softmax does not need backward computation.
…
