…
  top: "label"
  include {
    phase: TRAIN
  }
  transform_param {
    mean_value: 104
    mean_value: 117
    mean_value: 123
    resize_param {
      prob: 1
      resize_mode: WARP
      height: 360
      width: 480
      interp_mode: LINEAR
      interp_mode: AREA
      interp_mode: NEAREST
      interp_mode: CUBIC
      interp_mode: LANCZOS4
    }
  }
  image_data_param {
    source: "../calibration.txt"
    batch_size: 1
    shuffle: true
    new_height: 360
    new_width: 480
    root_folder: "/data2/datasets/VOCdevkit/VOC2007/JPEGImages/"
  }
}
layer {
  name: "conv1"
  type: "Convolution"
  bottom: "data"
  top: "conv1"
  param {
    lr_mult: 1
    decay_mult: 1
  }
  convolution_param {
    num_output: 32
    bias_term: false
    pad: 1
    kernel_size: 3
    stride: 2
    weight_filler {
      type: "msra"
    }
  }
}
layer {
  name: "conv1/bn"
  type: "BatchNorm"
  bottom: "conv1"
  top: "conv1/bn"
  param {
    lr_mult: 1
    decay_mult: 0
  }
  param {
    lr_mult: 1
    decay_mult: 0
  }
  param {
    lr_mult: 0
    decay_mult: 0
  }
  param {
    lr_mult: 0
    decay_mult: 0
  }
  batch_norm_param {
    use_global_stats: true
    eps: 1e-05
    scale_filler {
      type: "constant"
      value: 1
    }
    bias_filler {
      type: "constant"
      value: 0
    }
  }
}
layer {
  name: "relu1"
  type: "ReLU"
  bottom: "conv1/bn"
  top: "conv1/bn"
}
layer {
  name: "conv2_1/expand"
  type: "Convolution"
  bottom: "conv1/bn"
  top: "conv2_1/expand"
  param {
    lr_mult: 1
    decay_mult: 1
  }
  convolution_param {
    num_output: 32
    bias_term: false
    kernel_size: 1
    weight_filler {
      type: "msra"
    }
  }
}
layer {
  name: "conv2_1/expand/bn"
  type: "BatchNorm"
  bottom: "conv2_1/expand"
  top: "conv2_1/expand/bn"
  param {
    lr_mult: 1
    decay_mult: 0
  }
  param {
    lr_mult: 1
    decay_mult: 0
  }
  param {
    lr_mult: 0
    decay_mult: 0
  }
  param {
    lr_mult: 0
    decay_mult: 0
  }
  batch_norm_param {
    use_global_stats: true
    eps: 1e-05
    scale_filler {
      type: "constant"
      value: 1
    }
    bias_filler {
      type: "constant"
      value: 0
    }
  }
}
layer {
  name: "relu2_1/expand"
  type: "ReLU"
  bottom: "conv2_1/expand/bn"
  top: "conv2_1/expand/bn"
}
layer {
  name: "conv2_1/dwise"
  type: "Convolution"
  bottom: "conv2_1/expand/bn"
  top: "conv2_1/dwise"
  param {
    lr_mult: 1
    decay_mult: 1
  }
  convolution_param {
    num_output: 32
    bias_term: false
    pad: 1
    kernel_size: 3
    group: 32
    weight_filler {
      type: "msra"
    }
    engine: CAFFE
  }
}
layer {
  name: "conv2_1/dwise/bn"
  type: "BatchNorm"
  bottom: "conv2_1/dwise"
  top: "conv2_1/dwise/bn"
  param {
    lr_mult: 1
    decay_mult: 0
  }
  param {
    lr_mult: 1
    decay_mult: 0
  }
  param {
    lr_mult: 0
    decay_mult: 0
  }
  param {
    lr_mult: 0
    decay_mult: 0
  }
  batch_norm_param {
    use_global_stats: true
    eps: 1e-05
    scale_filler {
      type: "constant"
      value: 1
    }
    bias_filler {
      type: "constant"
      value: 0
    }
  }
}
layer {
  name: "relu2_1/dwise"
  type: "ReLU"
  bottom: "conv2_1/dwise/bn"
  top: "conv2_1/dwise/bn"
}
layer {
  name: "conv2_1/linear"
  type: "Convolution"
  bottom: "conv2_1/dwise/bn"
  top: "conv2_1/linear"
  param {
    lr_mult: 1
    decay_mult: 1
  }
  convolution_param {
    num_output: 16
    bias_term: false
    kernel_size: 1
    weight_filler {
      type: "msra"
    }
  }
}
layer {
  name: "conv2_1/linear/bn"
  type: "BatchNorm"
  bottom: "conv2_1/linear"
  top: "conv2_1/linear/bn"
  param {
    lr_mult: 1
    decay_mult: 0
  }
  param {
    lr_mult: 1
    decay_mult: 0
  }
  param {
    lr_mult: 0
    decay_mult: 0
  }
  param {
    lr_mult: 0
    decay_mult: 0
  }
  batch_norm_param {
    use_global_stats: true
    eps: 1e-05
    scale_filler {
      type: "constant"
      value: 1
    }
    bias_filler {
      type: "constant"
      value: 0
    }
  }
}
layer {
  name: "conv2_2/expand"
  type: "Convolution"
  bottom: "conv2_1/linear/bn"
  top: "conv2_2/expand"
  param {
    lr_mult: 1
    decay_mult: 1
  }
  convolution_param {
    num_output: 96
    bias_term: false
    kernel_size: 1
    weight_filler {
      type: "msra"
    }
  }
}
layer {
  name: "conv2_2/expand/bn"
  type: "BatchNorm"
  bottom: "conv2_2/expand"
  top: "conv2_2/expand/bn"
  param {
    lr_mult: 1
    decay_mult: 0
  }
  param {
    lr_mult: 1
    decay_mult: 0
  }
  param {
    lr_mult: 0
    decay_mult: 0
  }
  param {
    lr_mult: 0
    decay_mult: 0
  }
  batch_norm_param {
    use_global_stats: true
    eps: 1e-05
    scale_filler {
      type: "constant"
      value: 1
    }
    bias_filler {
      type: "constant"
      value: 0
    }
  }
}
layer {
  name: "relu2_2/expand"
  type: "ReLU"
  bottom: "conv2_2/expand/bn"
  top: "conv2_2/expand/bn"
}
layer {
  name: "conv2_2/dwise"
  type: "Convolution"
  bottom: "conv2_2/expand/bn"
  top: "conv2_2/dwise"
  param {
    lr_mult: 1
    decay_mult: 1
  }
  convolution_param {
    num_output: 96
    bias_term: false
    pad: 1
    kernel_size: 3
    group: 96
    stride: 2
    weight_filler {
      type: "msra"
    }
    engine: CAFFE
  }
}
layer {
  name: "conv2_2/dwise/bn"
  type: "BatchNorm"
  bottom: "conv2_2/dwise"
  top: "conv2_2/dwise/bn"
  param {
    lr_mult: 1
    decay_mult: 0
  }
  param {
    lr_mult: 1
    decay_mult: 0
  }
  param {
    lr_mult: 0
    decay_mult: 0
  }
  param {
    lr_mult: 0
    decay_mult: 0
  }
  batch_norm_param {
    use_global_stats: true
    eps: 1e-05
    scale_filler {
      type: "constant"
      value: 1
    }
    bias_filler {
      type: "constant"
      value: 0
    }
  }
}
layer {
  name: "relu2_2/dwise"
  type: "ReLU"
  bottom: "conv2_2/dwise/bn"
  top: "conv2_2/dwise/bn"
}
layer {
  name: "conv2_2/linear"
  type: "Convolution"
  bottom: "conv2_2/dwise/bn"
  top: "conv2_2/linear"
  param {
    lr_mult: 1
    decay_mult: 1
  }
  convolution_param {
    num_output: 24
    bias_term: false
    kernel_size: 1
    weight_filler {
      type: "msra"
    }
  }
}
layer {
  name: "conv2_2/linear/bn"
  type: "BatchNorm"
  bottom: "conv2_2/linear"
  top: "conv2_2/linear/bn"
  param {
    lr_mult: 1
    decay_mult: 0
  }
  param {
    lr_mult: 1
    decay_mult: 0
  }
  param {
    lr_mult: 0
    decay_mult: 0
  }
  param {
    lr_mult: 0
    decay_mult: 0
  }
  batch_norm_param {
    use_global_stats: true
    eps: 1e-05
    scale_filler {
      type: "constant"
      value: 1
    }
    bias_filler {
      type: "constant"
      value: 0
    }
  }
}
layer {
  name: "conv3_1/expand"
  type: "Convolution"
  bottom: "conv2_2/linear/bn"
  top: "conv3_1/expand"
  param {
    lr_mult: 1
    decay_mult: 1
  }
  convolution_param {
    num_output: 144
    bias_term: false
    kernel_size: 1
    weight_filler {
      type: "msra"
    }
  }
}
layer {
  name: "conv3_1/expand/bn"
  type: "BatchNorm"
  bottom: "conv3_1/expand"
  top: "conv3_1/expand/bn"
  param {
    lr_mult: 1
    decay_mult: 0
  }
  param {
    lr_mult: 1
    decay_mult: 0
  }
  param {
    lr_mult: 0
    decay_mult: 0
  }
  param {
    lr_mult: 0
    decay_mult: 0
  }
  batch_norm_param {
    use_global_stats: true
    eps: 1e-05
    scale_filler {
      type: "constant"
      value: 1
    }
    bias_filler {
      type: "constant"
      value: 0
    }
  }
}
layer {
  name: "relu3_1/expand"
  type: "ReLU"
  bottom: "conv3_1/expand/bn"
  top: "conv3_1/expand/bn"
}
layer {
  name: "conv3_1/dwise"
  type: "Convolution"
  bottom: "conv3_1/expand/bn"
  top: "conv3_1/dwise"
  param {
    lr_mult: 1
    decay_mult: 1
  }
  convolution_param {
    num_output: 144
    bias_term: false
    pad: 1
    kernel_size: 3
    group: 144
    weight_filler {
      type: "msra"
    }
    engine: CAFFE
  }
}
layer {
  name: "conv3_1/dwise/bn"
  type: "BatchNorm"
  bottom: "conv3_1/dwise"
  top: "conv3_1/dwise/bn"
  param {
    lr_mult: 1
    decay_mult: 0
  }
  param {
    lr_mult: 1
    decay_mult: 0
  }
  param {
    lr_mult: 0
    decay_mult: 0
  }
  param {
    lr_mult: 0
    decay_mult: 0
  }
  batch_norm_param {
    use_global_stats: true
    eps: 1e-05
    scale_filler {
      type: "constant"
      value: 1
    }
    bias_filler {
      type: "constant"
      value: 0
    }
  }
}
layer {
  name: "relu3_1/dwise"
  type: "ReLU"
  bottom: "conv3_1/dwise/bn"
  top: "conv3_1/dwise/bn"
}
layer {
  name: "conv3_1/linear"
  type: "Convolution"
  bottom: "conv3_1/dwise/bn"
  top: "conv3_1/linear"
  param {
    lr_mult: 1
    decay_mult: 1
  }
  convolution_param {
    num_output: 24
    bias_term: false
    kernel_size: 1
    weight_filler {
      type: "msra"
    }
  }
}
layer {
  name: "conv3_1/linear/bn"
  type: "BatchNorm"
  bottom: "conv3_1/linear"
  top: "conv3_1/linear/bn"
  param {
    lr_mult: 1
    decay_mult: 0
  }
  param {
    lr_mult: 1
    decay_mult: 0
  }
  param {
    lr_mult: 0
    decay_mult: 0
  }
  param {
    lr_mult: 0
    decay_mult: 0
  }
  batch_norm_param {
    use_global_stats: true
    eps: 1e-05
    scale_filler {
      type: "constant"
      value: 1
    }
    bias_filler {
      type: "constant"
      value: 0
    }
  }
}
layer {
  name: "block_3_1"
  type: "Eltwise"
  bottom: "conv2_2/linear/bn"
  bottom: "conv3_1/linear/bn"
  top: "block_3_1"
}
layer {
  name: "conv3_2/expand"
  type: "Convolution"
  bottom: "block_3_1"
  top: "conv3_2/expand"
  param {
    lr_mult: 1
    decay_mult: 1
  }
  convolution_param {
    num_output: 144
    bias_term: false
    kernel_size: 1
    weight_filler {
      type: "msra"
    }
  }
}
layer {
  name: "conv3_2/expand/bn"
  type: "BatchNorm"
  bottom: "conv3_2/expand"
  top: "conv3_2/expand/bn"
  param {
    lr_mult: 1
    decay_mult: 0
  }
  param {
    lr_mult: 1
    decay_mult: 0
  }
  param {
    lr_mult: 0
    decay_mult: 0
  }
  param {
    lr_mult: 0
    decay_mult: 0
  }
  batch_norm_param {
    use_global_stats: true
    eps: 1e-05
    scale_filler {
      type: "constant"
      value: 1
    }
    bias_filler {
      type: "constant"
      value: 0
    }
  }
}
layer {
  name: "relu3_2/expand"
  type: "ReLU"
  bottom: "conv3_2/expand/bn"
  top: "conv3_2/expand/bn"
}
layer {
  name: "conv3_2/dwise"
  type: "Convolution"
  bottom: "conv3_2/expand/bn"
  top: "conv3_2/dwise"
  param {
    lr_mult: 1
    decay_mult: 1
  }
  convolution_param {
    num_output: 144
    bias_term: false
    pad: 1
    kernel_size: 3
    group: 144
    stride: 2
    weight_filler {
      type: "msra"
    }
    engine: CAFFE
  }
}
layer {
  name: "conv3_2/dwise/bn"
  type: "BatchNorm"
  bottom: "conv3_2/dwise"
  top: "conv3_2/dwise/bn"
  param {
    lr_mult: 1
    decay_mult: 0
  }
  param {
    lr_mult: 1
    decay_mult: 0
  }
  param {
    lr_mult: 0
    decay_mult: 0
  }
  param {
    lr_mult: 0
    decay_mult: 0
  }
  batch_norm_param {
    use_global_stats: true
    eps: 1e-05
    scale_filler {
      type: "constant"
      value: 1
    }
    bias_filler {
      type: "constant"
      value: 0
    }
  }
}
layer {
  name: "relu3_2/dwise"
  type: "ReLU"
  bottom: "conv3_2/dwise/bn"
  top: "conv3_2/dwise/bn"
}
layer {
  name: "conv3_2/linear"
  type: "Convolution"
  bottom: "conv3_2/dwise/bn"
  top: "conv3_2/linear"
  param {
    lr_mult: 1
    decay_mult: 1
  }
  convolution_param {
    num_output: 32
    bias_term: false
    kernel_size: 1
    weight_filler {
      type: "msra"
    }
  }
}
layer {
  name: "conv3_2/linear/bn"
  type: "BatchNorm"
  bottom: "conv3_2/linear"
  top: "conv3_2/linear/bn"
  param {
    lr_mult: 1
    decay_mult: 0
  }
  param {
    lr_mult: 1
    decay_mult: 0
  }
  param {
    lr_mult: 0
    decay_mult: 0
  }
  param {
    lr_mult: 0
    decay_mult: 0
  }
  batch_norm_param {
    use_global_stats: true
    eps: 1e-05
    scale_filler {
      type: "constant"
      value: 1
    }
    bias_filler {
      type: "constant"
      value: 0
    }
  }
}
layer {
  name: "conv4_1/expand"
  type: "Convolution"
  bottom: "conv3_2/linear/bn"
  top: "conv4_1/expand"
  param {
    lr_mult: 1
    decay_mult: 1
  }
  convolution_param {
    num_output: 192
    bias_term: false
    kernel_size: 1
    weight_filler {
      type: "msra"
    }
  }
}
layer {
  name: "conv4_1/expand/bn"
  type: "BatchNorm"
  bottom: "conv4_1/expand"
  top: "conv4_1/expand/bn"
  param {
    lr_mult: 1
    decay_mult: 0
  }
  param {
    lr_mult: 1
    decay_mult: 0
  }
  param {
    lr_mult: 0
    decay_mult: 0
  }
  param {
    lr_mult: 0
    decay_mult: 0
  }
  batch_norm_param {
    use_global_stats: true
    eps: 1e-05
    scale_filler {
      type: "constant"
      value: 1
    }
    bias_filler {
      type: "constant"
      value: 0
    }
  }
}
layer {
  name: "relu4_1/expand"
  type: "ReLU"
  bottom: "conv4_1/expand/bn"
  top: "conv4_1/expand/bn"
}
layer {
  name: "conv4_1/dwise"
  type: "Convolution"
  bottom: "conv4_1/expand/bn"
  top: "conv4_1/dwise"
  param {
    lr_mult: 1
    decay_mult: 1
  }
  convolution_param {
    num_output: 192
    bias_term: false
    pad: 1
    kernel_size: 3
    group: 192
    weight_filler {
      type: "msra"
    }
    engine: CAFFE
  }
}
layer {
  name: "conv4_1/dwise/bn"
  type: "BatchNorm"
  bottom: "conv4_1/dwise"
  top: "conv4_1/dwise/bn"
  param {
    lr_mult: 1
    decay_mult: 0
  }
  param {
    lr_mult: 1
    decay_mult: 0
  }
  param {
    lr_mult: 0
    decay_mult: 0
  }
  param {
    lr_mult: 0
    decay_mult: 0
  }
  batch_norm_param {
    use_global_stats: true
    eps: 1e-05
    scale_filler {
      type: "constant"
      value: 1
    }
    bias_filler {
      type: "constant"
      value: 0
    }
  }
}
layer {
  name: "relu4_1/dwise"
  type: "ReLU"
  bottom: "conv4_1/dwise/bn"
  top: "conv4_1/dwise/bn"
}
layer {
  name: "conv4_1/linear"
  type: "Convolution"
  bottom: "conv4_1/dwise/bn"
  top: "conv4_1/linear"
  param {
    lr_mult: 1
    decay_mult: 1
  }
  convolution_param {
    num_output: 32
    bias_term: false
    kernel_size: 1
    weight_filler {
      type: "msra"
    }
  }
}
layer {
  name: "conv4_1/linear/bn"
  type: "BatchNorm"
  bottom: "conv4_1/linear"
  top: "conv4_1/linear/bn"
  param {
    lr_mult: 1
    decay_mult: 0
  }
  param {
    lr_mult: 1
    decay_mult: 0
  }
  param {
    lr_mult: 0
    decay_mult: 0
  }
  param {
    lr_mult: 0
    decay_mult: 0
  }
  batch_norm_param {
    use_global_stats: true
    eps: 1e-05
    scale_filler {
      type: "constant"
      value: 1
    }
    bias_filler {
      type: "constant"
      value: 0
    }
  }
}
layer {
  name: "block_4_1"
  type: "Eltwise"
  bottom: "conv3_2/linear/bn"
  bottom: "conv4_1/linear/bn"
  top: "block_4_1"
}
layer {
  name: "conv4_2/expand"
  type: "Convolution"
  bottom: "block_4_1"
  top: "conv4_2/expand"
  param {
    lr_mult: 1
    decay_mult: 1
  }
  convolution_param {
    num_output: 192
    bias_term: false
    kernel_size: 1
    weight_filler {
      type: "msra"
    }
  }
}
layer {
  name: "conv4_2/expand/bn"
  type: "BatchNorm"
  bottom: "conv4_2/expand"
  top: "conv4_2/expand/bn"
  param {
    lr_mult: 1
    decay_mult: 0
  }
  param {
    lr_mult: 1
    decay_mult: 0
  }
  param {
    lr_mult: 0
    decay_mult: 0
  }
  param {
    lr_mult: 0
    decay_mult: 0
  }
  batch_norm_param {
    use_global_stats: true
    eps: 1e-05
    scale_filler {
      type: "constant"
      value: 1
    }
    bias_filler {
      type: "constant"
      value: 0
    }
  }
}
layer {
  name: "relu4_2/expand"
  type: "ReLU"
  bottom: "conv4_2/expand/bn"
  top: "conv4_2/expand/bn"
}
layer {
  name: "conv4_2/dwise"
  type: "Convolution"
  bottom: "conv4_2/expand/bn"
  top: "conv4_2/dwise"
  param {
    lr_mult: 1
    decay_mult: 1
  }
  convolution_param {
    num_output: 192
    bias_term: false
    pad: 1
    kernel_size: 3
    group: 192
    weight_filler {
      type: "msra"
    }
    engine: CAFFE
  }
}
layer {
  name: "conv4_2/dwise/bn"
  type: "BatchNorm"
  bottom: "conv4_2/dwise"
  top: "conv4_2/dwise/bn"
  param {
    lr_mult: 1
    decay_mult: 0
  }
  param {
    lr_mult: 1
    decay_mult: 0
  }
  param {
    lr_mult: 0
    decay_mult: 0
  }
  param {
    lr_mult: 0
    decay_mult: 0
  }
  batch_norm_param {
    use_global_stats: true
    eps: 1e-05
    scale_filler {
      type: "constant"
      value: 1
    }
    bias_filler {
      type: "constant"
      value: 0
    }
  }
}
layer {
  name: "relu4_2/dwise"
  type: "ReLU"
  bottom: "conv4_2/dwise/bn"
  top: "conv4_2/dwise/bn"
}
layer {
  name: "conv4_2/linear"
  type: "Convolution"
  bottom: "conv4_2/dwise/bn"
  top: "conv4_2/linear"
  param {
    lr_mult: 1
    decay_mult: 1
  }
  convolution_param {
    num_output: 32
    bias_term: false
    kernel_size: 1
    weight_filler {
      type: "msra"
    }
  }
}
layer {
  name: "conv4_2/linear/bn"
  type: "BatchNorm"
  bottom: "conv4_2/linear"
  top: "conv4_2/linear/bn"
  param {
    lr_mult: 1
    decay_mult: 0
  }
  param {
    lr_mult: 1
    decay_mult: 0
  }
  param {
    lr_mult: 0
    decay_mult: 0
  }
  param {
    lr_mult: 0
    decay_mult: 0
  }
  batch_norm_param {
    use_global_stats: true
    eps: 1e-05
    scale_filler {
      type: "constant"
      value: 1
    }
    bias_filler {
      type: "constant"
      value: 0
    }
  }
}
layer {
  name: "block_4_2"
  type: "Eltwise"
  bottom: "block_4_1"
  bottom: "conv4_2/linear/bn"
  top: "block_4_2"
}
layer {
  name: "conv4_3/expand"
  type: "Convolution"
  bottom: "block_4_2"
  top: "conv4_3/expand"
  param {
    lr_mult: 1
    decay_mult: 1
  }
  convolution_param {
    num_output: 192
    bias_term: false
    kernel_size: 1
    weight_filler {
      type: "msra"
    }
  }
}
layer {
  name: "conv4_3/expand/bn"
  type: "BatchNorm"
  bottom: "conv4_3/expand"
  top: "conv4_3/expand/bn"
  param {
    lr_mult: 1
    decay_mult: 0
  }
  param {
    lr_mult: 1
    decay_mult: 0
  }
  param {
    lr_mult: 0
    decay_mult: 0
  }
  param {
    lr_mult: 0
    decay_mult: 0
  }
  batch_norm_param {
    use_global_stats: true
    eps: 1e-05
    scale_filler {
      type: "constant"
      value: 1
    }
    bias_filler {
      type: "constant"
      value: 0
    }
  }
}
layer {
  name: "relu4_3/expand"
  type: "ReLU"
  bottom: "conv4_3/expand/bn"
  top: "conv4_3/expand/bn"
}
layer {
  name: "conv4_3/dwise"
  type: "Convolution"
  bottom: "conv4_3/expand/bn"
  top: "conv4_3/dwise"
  param {
    lr_mult: 1
    decay_mult: 1
  }
  convolution_param {
    num_output: 192
    bias_term: false
    pad: 1
    kernel_size: 3
    group: 192
    weight_filler {
      type: "msra"
    }
    engine: CAFFE
  }
}
layer {
  name: "conv4_3/dwise/bn"
  type: "BatchNorm"
  bottom: "conv4_3/dwise"
  top: "conv4_3/dwise/bn"
  param {
    lr_mult: 1
    decay_mult: 0
  }
  param {
    lr_mult: 1
    decay_mult: 0
  }
  param {
    lr_mult: 0
    decay_mult: 0
  }
  param {
    lr_mult: 0
    decay_mult: 0
  }
  batch_norm_param {
    use_global_stats: true
    eps: 1e-05
    scale_filler {
      type: "constant"
      value: 1
    }
    bias_filler {
      type: "constant"
      value: 0
    }
  }
}
layer {
  name: "relu4_3/dwise"
  type: "ReLU"
  bottom: "conv4_3/dwise/bn"
  top: "conv4_3/dwise/bn"
}
layer {
  name: "conv4_3/linear"
  type: "Convolution"
  bottom: "conv4_3/dwise/bn"
  top: "conv4_3/linear"
  param {
    lr_mult: 1
    decay_mult: 1
  }
  convolution_param {
    num_output: 64
    bias_term: false
    kernel_size: 1
    weight_filler {
      type: "msra"
    }
  }
}
layer {
  name: "conv4_3/linear/bn"
  type: "BatchNorm"
  bottom: "conv4_3/linear"
  top: "conv4_3/linear/bn"
  param {
    lr_mult: 1
    decay_mult: 0
  }
  param {
    lr_mult: 1
    decay_mult: 0
  }
  param {
    lr_mult: 0
    decay_mult: 0
  }
  param {
    lr_mult: 0
    decay_mult: 0
  }
  batch_norm_param {
    use_global_stats: true
    eps: 1e-05
    scale_filler {
      type: "constant"
      value: 1
    }
    bias_filler {
      type: "constant"
      value: 0
    }
  }
}
layer {
  name: "conv4_4/expand"
  type: "Convolution"
  bottom: "conv4_3/linear/bn"
  top: "conv4_4/expand"
  param {
    lr_mult: 1
    decay_mult: 1
  }
  convolution_param {
    num_output: 384
    bias_term: false
    kernel_size: 1
    weight_filler {
      type: "msra"
    }
  }
}
layer {
  name: "conv4_4/expand/bn"
  type: "BatchNorm"
  bottom: "conv4_4/expand"
  top: "conv4_4/expand/bn"
  param {
    lr_mult: 1
    decay_mult: 0
  }
  param {
    lr_mult: 1
    decay_mult: 0
  }
  param {
    lr_mult: 0
    decay_mult: 0
  }
  param {
    lr_mult: 0
    decay_mult: 0
  }
  batch_norm_param {
    use_global_stats: true
    eps: 1e-05
    scale_filler {
      type: "constant"
      value: 1
    }
    bias_filler {
      type: "constant"
      value: 0
    }
  }
}
layer {
  name: "relu4_4/expand"
  type: "ReLU"
  bottom: "conv4_4/expand/bn"
  top: "conv4_4/expand/bn"
}
layer {
  name: "conv4_4/dwise"
  type: "Convolution"
  bottom: "conv4_4/expand/bn"
  top: "conv4_4/dwise"
  param {
    lr_mult: 1
    decay_mult: 1
  }
  convolution_param {
    num_output: 384
    bias_term: false
    pad: 1
    kernel_size: 3
    group: 384
    weight_filler {
      type: "msra"
    }
    engine: CAFFE
  }
}
layer {
  name: "conv4_4/dwise/bn"
  type: "BatchNorm"
  bottom: "conv4_4/dwise"
  top: "conv4_4/dwise/bn"
  param {
    lr_mult: 1
    decay_mult: 0
  }
  param {
    lr_mult: 1
    decay_mult: 0
  }
  param {
    lr_mult: 0
    decay_mult: 0
  }
  param {
    lr_mult: 0
    decay_mult: 0
  }
  batch_norm_param {
    use_global_stats: true
    eps: 1e-05
    scale_filler {
      type: "constant"
      value: 1
    }
    bias_filler {
      type: "constant"
      value: 0
    }
  }
}
layer {
  name: "relu4_4/dwise"
  type: "ReLU"
  bottom: "conv4_4/dwise/bn"
  top: "conv4_4/dwise/bn"
}
layer {
  name: "conv4_4/linear"
  type: "Convolution"
  bottom: "conv4_4/dwise/bn"
  top: "conv4_4/linear"
  param {
    lr_mult: 1
    decay_mult: 1
  }
  convolution_param {
    num_output: 64
    bias_term: false
    kernel_size: 1
    weight_filler {
      type: "msra"
    }
  }
}
layer {
  name: "conv4_4/linear/bn"
  type: "BatchNorm"
  bottom: "conv4_4/linear"
  top: "conv4_4/linear/bn"
  param {
    lr_mult: 1
    decay_mult: 0
  }
  param {
    lr_mult: 1
    decay_mult: 0
  }
  param {
    lr_mult: 0
    decay_mult: 0
  }
  param {
    lr_mult: 0
    decay_mult: 0
  }
  batch_norm_param {
    use_global_stats: true
    eps: 1e-05
    scale_filler {
      type: "constant"
      value: 1
    }
    bias_filler {
      type: "constant"
      value: 0
    }
  }
}
layer {
  name: "block_4_4"
  type: "Eltwise"
  bottom: "conv4_3/linear/bn"
  bottom: "conv4_4/linear/bn"
  top: "block_4_4"
}
layer {
  name: "conv4_5/expand"
  type: "Convolution"
  bottom: "block_4_4"
  top: "conv4_5/expand"
  param {
    lr_mult: 1
    decay_mult: 1
  }
  convolution_param {
    num_output: 384
    bias_term: false
    kernel_size: 1
    weight_filler {
      type: "msra"
    }
  }
}
layer {
  name: "conv4_5/expand/bn"
  type: "BatchNorm"
  bottom: "conv4_5/expand"
  top: "conv4_5/expand/bn"
  param {
    lr_mult: 1
    decay_mult: 0
  }
  param {
    lr_mult: 1
    decay_mult: 0
  }
  param {
    lr_mult: 0
    decay_mult: 0
  }
  param {
    lr_mult: 0
    decay_mult: 0
  }
  batch_norm_param {
    use_global_stats: true
    eps: 1e-05
    scale_filler {
      type: "constant"
      value: 1
    }
    bias_filler {
      type: "constant"
      value: 0
    }
  }
}
layer {
  name: "relu4_5/expand"
  type: "ReLU"
  bottom: "conv4_5/expand/bn"
  top: "conv4_5/expand/bn"
}
layer {
  name: "conv4_5/dwise"
  type: "Convolution"
  bottom: "conv4_5/expand/bn"
  top: "conv4_5/dwise"
  param {
    lr_mult: 1
    decay_mult: 1
  }
  convolution_param {
    num_output: 384
    bias_term: false
    pad: 1
    kernel_size: 3
    group: 384
    weight_filler {
      type: "msra"
    }
    engine: CAFFE
  }
}
layer {
  name: "conv4_5/dwise/bn"
  type: "BatchNorm"
  bottom: "conv4_5/dwise"
  top: "conv4_5/dwise/bn"
  param {
    lr_mult: 1
    decay_mult: 0
  }
  param {
    lr_mult: 1
    decay_mult: 0
  }
  param {
    lr_mult: 0
    decay_mult: 0
  }
  param {
    lr_mult: 0
    decay_mult: 0
  }
  batch_norm_param {
    use_global_stats: true
    eps: 1e-05
    scale_filler {
      type: "constant"
      value: 1
    }
    bias_filler {
      type: "constant"
      value: 0
    }
  }
}
layer {
  name: "relu4_5/dwise"
  type: "ReLU"
  bottom: "conv4_5/dwise/bn"
  top: "conv4_5/dwise/bn"
}
layer {
  name: "conv4_5/linear"
  type: "Convolution"
  bottom: "conv4_5/dwise/bn"
  top: "conv4_5/linear"
  param {
    lr_mult: 1
    decay_mult: 1
  }
  convolution_param {
    num_output: 64
    bias_term: false
    kernel_size: 1
    weight_filler {
      type: "msra"
    }
  }
}
layer {
  name: "conv4_5/linear/bn"
  type: "BatchNorm"
  bottom: "conv4_5/linear"
  top: "conv4_5/linear/bn"
  param {
    lr_mult: 1
    decay_mult: 0
  }
  param {
    lr_mult: 1
    decay_mult: 0
  }
  param {
    lr_mult: 0
    decay_mult: 0
  }
  param {
    lr_mult: 0
    decay_mult: 0
  }
  batch_norm_param {
    use_global_stats: true
    eps: 1e-05
    scale_filler {
      type: "constant"
      value: 1
    }
    bias_filler {
      type: "constant"
      value: 0
    }
  }
}
layer {
  name: "block_4_5"
  type: "Eltwise"
  bottom: "block_4_4"
  bottom: "conv4_5/linear/bn"
  top: "block_4_5"
}
layer {
  name: "conv4_6/expand"
  type: "Convolution"
  bottom: "block_4_5"
  top: "conv4_6/expand"
  param {
    lr_mult: 1
    decay_mult: 1
  }
  convolution_param {
    num_output: 384
    bias_term: false
    kernel_size: 1
    weight_filler {
      type: "msra"
    }
  }
}
layer {
  name: "conv4_6/expand/bn"
  type: "BatchNorm"
  bottom: "conv4_6/expand"
  top: "conv4_6/expand/bn"
  param {
    lr_mult: 1
    decay_mult: 0
  }
  param {
    lr_mult: 1
    decay_mult: 0
  }
  param {
    lr_mult: 0
    decay_mult: 0
  }
  param {
    lr_mult: 0
    decay_mult: 0
  }
  batch_norm_param {
    use_global_stats: true
    eps: 1e-05
    scale_filler {
      type: "constant"
      value: 1
    }
    bias_filler {
      type: "constant"
      value: 0
    }
  }
}
layer {
  name: "relu4_6/expand"
  type: "ReLU"
  bottom: "conv4_6/expand/bn"
  top: "conv4_6/expand/bn"
}
layer {
  name: "conv4_6/dwise"
  type: "Convolution"
  bottom: "conv4_6/expand/bn"
  top: "conv4_6/dwise"
  param {
    lr_mult: 1
    decay_mult: 1
  }
  convolution_param {
    num_output: 384
    bias_term: false
    pad: 1
    kernel_size: 3
    group: 384
    weight_filler {
      type: "msra"
    }
    engine: CAFFE
  }
}
layer {
  name: "conv4_6/dwise/bn"
  type: "BatchNorm"
  bottom: "conv4_6/dwise"
  top: "conv4_6/dwise/bn"
  param {
    lr_mult: 1
    decay_mult: 0
  }
  param {
    lr_mult: 1
    decay_mult: 0
  }
  param {
    lr_mult: 0
    decay_mult: 0
  }
  param {
    lr_mult: 0
    decay_mult: 0
  }
  batch_norm_param {
    use_global_stats: true
    eps: 1e-05
    scale_filler {
      type: "constant"
      value: 1
    }
    bias_filler {
      type: "constant"
      value: 0
    }
  }
}
layer {
  name: "relu4_6/dwise"
  type: "ReLU"
  bottom: "conv4_6/dwise/bn"
  top: "conv4_6/dwise/bn"
}
layer {
  name: "conv4_6/linear"
  type: "Convolution"
  bottom: "conv4_6/dwise/bn"
  top: "conv4_6/linear"
  param {
    lr_mult: 1
    decay_mult: 1
  }
  convolution_param {
    num_output: 64
    bias_term: false
    kernel_size: 1
    weight_filler {
      type: "msra"
    }
  }
}
layer {
  name: "conv4_6/linear/bn"
  type: "BatchNorm"
  bottom: "conv4_6/linear"
  top: "conv4_6/linear/bn"
  param {
    lr_mult: 1
    decay_mult: 0
  }
  param {
    lr_mult: 1
    decay_mult: 0
  }
  param {
    lr_mult: 0
    decay_mult: 0
  }
  param {
    lr_mult: 0
    decay_mult: 0
  }
  batch_norm_param {
    use_global_stats: true
    eps: 1e-05
    scale_filler {
      type: "constant"
      value: 1
    }
    bias_filler {
      type: "constant"
      value: 0
    }
  }
}
layer {
  name: "block_4_6"
  type: "Eltwise"
  bottom: "block_4_5"
  bottom: "conv4_6/linear/bn"
  top: "block_4_6"
}
layer {
  name: "conv4_7/expand"
  type: "Convolution"
  bottom: "block_4_6"
  top: "conv4_7/expand"
  param {
    lr_mult: 1
    decay_mult: 1
  }
  convolution_param {
    num_output: 384
    bias_term: false
    kernel_size: 1
    weight_filler {
      type: "msra"
    }
  }
}
layer {
  name: "conv4_7/expand/bn"
  type: "BatchNorm"
  bottom: "conv4_7/expand"
  top: "conv4_7/expand/bn"
  param {
    lr_mult: 1
    decay_mult: 0
  }
  param {
    lr_mult: 1
    decay_mult: 0
  }
  param {
    lr_mult: 0
    decay_mult: 0
  }
  param {
    lr_mult: 0
    decay_mult: 0
  }
  batch_norm_param {
    use_global_stats: true
    eps: 1e-05
    scale_filler {
      type: "constant"
      value: 1
    }
    bias_filler {
      type: "constant"
      value: 0
    }
  }
}
layer {
  name: "relu4_7/expand"
  type: "ReLU"
  bottom: "conv4_7/expand/bn"
  top: "conv4_7/expand/bn"
}
layer {
  name: "conv4_7/dwise"
  type: "Convolution"
  bottom: "conv4_7/expand/bn"
  top: "conv4_7/dwise"
  param {
    lr_mult: 1
    decay_mult: 1
  }
  convolution_param {
    num_output: 384
    bias_term: false
    pad: 1
    kernel_size: 3
    group: 384
    stride: 2
    weight_filler {
      type: "msra"
    }
    engine: CAFFE
  }
}
layer {
  name: "conv4_7/dwise/bn"
  type: "BatchNorm"
  bottom: "conv4_7/dwise"
  top: "conv4_7/dwise/bn"
  param {
    lr_mult: 1
    decay_mult: 0
  }
  param {
    lr_mult: 1
    decay_mult: 0
  }
  param {
    lr_mult: 0
    decay_mult: 0
  }
  param {
    lr_mult: 0
    decay_mult: 0
  }
  batch_norm_param {
    use_global_stats: true
    eps: 1e-05
    scale_filler {
      type: "constant"
      value: 1
    }
    bias_filler {
      type: "constant"
      value: 0
    }
  }
}
layer {
  name: "relu4_7/dwise"
  type: "ReLU"
  bottom: "conv4_7/dwise/bn"
  top: "conv4_7/dwise/bn"
}
layer {
  name:
I0104 20:52:02.835551  1529 layer_factory.hpp:77] Creating layer data
I0104 20:52:02.835587  1529 net.cpp:94] Creating Layer data
I0104 20:52:02.835600  1529 net.cpp:409] data -> data
I0104 20:52:02.835623  1529 net.cpp:409] data -> label
I0104 20:52:02.835644  1529 image_data_layer.cpp:41] Opening file ../calibration.txt
I0104 20:52:02.835922  1529 image_data_layer.cpp:51] Shuffling data
I0104 20:52:02.836036  1529 image_data_layer.cpp:56] A total of 1000 images.
I0104 20:52:02.842823  1529 image_data_layer.cpp:84] output data size: 1,3,360,480
I0104 20:52:02.856101  1529 internal_thread.cpp:27] Starting internal thread(s) on GPU 0
I0104 20:52:02.856165  1529 net.cpp:144] Setting up data
I0104 20:52:02.856173  1529 net.cpp:151] Top shape: 1 3 360 480 (518400)
I0104 20:52:02.856180  1529 net.cpp:151] Top shape: 1 (1)
I0104 20:52:02.856185  1529 net.cpp:159] Memory required for data: 2073604
I0104 20:52:02.856189  1529 layer_factory.hpp:77] Creating layer data_data_0_split
I0104 20:52:02.856204  1529 net.cpp:94] Creating Layer data_data_0_split
I0104 20:52:02.856209  1529 net.cpp:435] data_data_0_split <- data
I0104 20:52:02.856217  1529 net.cpp:409] data_data_0_split -> data_data_0_split_0
I0104 20:52:02.856226  1529 net.cpp:409] data_data_0_split -> data_data_0_split_1
I0104 20:52:02.856233  1529 net.cpp:409] data_data_0_split -> data_data_0_split_2
I0104 20:52:02.856240  1529 net.cpp:409] data_data_0_split -> data_data_0_split_3
I0104 20:52:02.856245  1529 net.cpp:409] data_data_0_split -> data_data_0_split_4
I0104 20:52:02.856249  1529 net.cpp:409] data_data_0_split -> data_data_0_split_5
I0104 20:52:02.856348  1529 net.cpp:144] Setting up data_data_0_split
I0104 20:52:02.856356  1529 net.cpp:151] Top shape: 1 3 360 480 (518400)
I0104 20:52:02.856361  1529 net.cpp:151] Top shape: 1 3 360 480 (518400)
I0104 20:52:02.856365  1529 net.cpp:151] Top shape: 1 3 360 480 (518400)
I0104 20:52:02.856369  1529 net.cpp:151] Top shape: 1 3 360 480 (518400)
I0104 20:52:02.856372  1529 net.cpp:151] Top shape: 1 3 360 480 (518400)
I0104 20:52:02.856376  1529 net.cpp:151] Top shape: 1 3 360 480 (518400)
I0104 20:52:02.856380  1529 net.cpp:159] Memory required for data: 14515204
I0104 20:52:02.856384  1529 layer_factory.hpp:77] Creating layer conv1
I0104 20:52:02.856395  1529 net.cpp:94] Creating Layer conv1
I0104 20:52:02.856401  1529 net.cpp:435] conv1 <- data_data_0_split_0
I0104 20:52:02.856406  1529 net.cpp:409] conv1 -> conv1
I0104 20:52:02.856662  1529 net.cpp:144] Setting up conv1
I0104 20:52:02.856669  1529 net.cpp:151] Top shape: 1 32 180 240 (1382400)
I0104 20:52:02.856675  1529 net.cpp:159] Memory required for data: 20044804
I0104 20:52:02.856693  1529 layer_factory.hpp:77] Creating layer conv1/bn
I0104 20:52:02.856701  1529 net.cpp:94] Creating Layer conv1/bn
I0104 20:52:02.856709  1529 net.cpp:435] conv1/bn <- conv1
I0104 20:52:02.856715  1529 net.cpp:409] conv1/bn -> conv1/bn
I0104 20:52:02.858032  1529 net.cpp:144] Setting up conv1/bn
I0104 20:52:02.858042  1529 net.cpp:151] Top shape: 1 32 180 240 (1382400)
I0104 20:52:02.858047  1529 net.cpp:159] Memory required for data: 25574404
I0104 20:52:02.858059  1529 layer_factory.hpp:77] Creating layer relu1
I0104 20:52:02.858067  1529 net.cpp:94] Creating Layer relu1
I0104 20:52:02.858072  1529 net.cpp:435] relu1 <- conv1/bn
I0104 20:52:02.858076  1529 net.cpp:396] relu1 -> conv1/bn (in-place)
I0104 20:52:02.858093  1529 net.cpp:144] Setting up relu1
I0104 20:52:02.858098  1529 net.cpp:151] Top shape: 1 32 180 240 (1382400)
I0104 20:52:02.858101  1529 net.cpp:159] Memory required for data: 31104004
I0104 20:52:02.858105  1529 layer_factory.hpp:77] Creating layer conv2_1/expand
I0104 20:52:02.858112  1529 net.cpp:94] Creating Layer conv2_1/expand
I0104 20:52:02.858117  1529 net.cpp:435] conv2_1/expand <- conv1/bn
I0104 20:52:02.858124  1529 net.cpp:409] conv2_1/expand -> conv2_1/expand
I0104 20:52:02.858501  1529 net.cpp:144] Setting up conv2_1/expand
I0104 20:52:02.858508  1529 net.cpp:151] Top shape: 1 32 180 240 (1382400)
I0104 20:52:02.858513  1529 net.cpp:159] Memory required for data: 36633604
I0104 20:52:02.858518  1529 layer_factory.hpp:77] Creating layer conv2_1/expand/bn
I0104 20:52:02.858526  1529 net.cpp:94] Creating Layer conv2_1/expand/bn
I0104 20:52:02.858530  1529 net.cpp:435] conv2_1/expand/bn <- conv2_1/expand
I0104 20:52:02.858536  1529 net.cpp:409] conv2_1/expand/bn -> conv2_1/expand/bn
I0104 20:52:02.859127  1529 net.cpp:144] Setting up conv2_1/expand/bn
I0104 20:52:02.859135  1529 net.cpp:151] Top shape: 1 32 180 240 (1382400)
I0104 20:52:02.859140  1529 net.cpp:159] Memory required for data: 42163204
I0104 20:52:02.859149  1529 layer_factory.hpp:77] Creating layer relu2_1/expand
I0104 20:52:02.859155  1529 net.cpp:94] Creating Layer relu2_1/expand
I0104 20:52:02.859158  1529 net.cpp:435] relu2_1/expand <- conv2_1/expand/bn
I0104 20:52:02.859163  1529 net.cpp:396] relu2_1/expand -> conv2_1/expand/bn (in-place)
I0104 20:52:02.859169  1529 net.cpp:144] Setting up relu2_1/expand
I0104 20:52:02.859172  1529 net.cpp:151] Top shape: 1 32 180 240 (1382400)
I0104 20:52:02.859176  1529 net.cpp:159] Memory required for data: 47692804
I0104 20:52:02.859180  1529 layer_factory.hpp:77] Creating layer conv2_1/dwise
I0104 20:52:02.859189  1529 net.cpp:94] Creating Layer conv2_1/dwise
I0104 20:52:02.859194  1529 net.cpp:435] conv2_1/dwise <- conv2_1/expand/bn
I0104 20:52:02.859200  1529 net.cpp:409] conv2_1/dwise -> conv2_1/dwise
I0104 20:52:02.859360  1529 net.cpp:144] Setting up conv2_1/dwise
I0104 20:52:02.859366  1529 net.cpp:151] Top shape: 1 32 180 240 (1382400)
I0104 20:52:02.859371  1529 net.cpp:159] Memory required for data: 53222404
I0104 20:52:02.859376  1529 layer_factory.hpp:77] Creating layer conv2_1/dwise/bn
I0104 20:52:02.859383  1529 net.cpp:94] Creating Layer conv2_1/dwise/bn
I0104 20:52:02.859386  1529 net.cpp:435] conv2_1/dwise/bn <- conv2_1/dwise
I0104 20:52:02.859395  1529 net.cpp:409] conv2_1/dwise/bn -> conv2_1/dwise/bn
I0104 20:52:02.859951  1529 net.cpp:144] Setting up conv2_1/dwise/bn
I0104 20:52:02.859959  1529 net.cpp:151] Top shape: 1 32 180 240 (1382400)
I0104 20:52:02.859964  1529 net.cpp:159] Memory required for data: 58752004
I0104 20:52:02.859974  1529 layer_factory.hpp:77] Creating layer relu2_1/dwise
I0104 20:52:02.859979  1529 net.cpp:94] Creating Layer relu2_1/dwise
I0104 20:52:02.859983  1529 net.cpp:435] relu2_1/dwise <- conv2_1/dwise/bn
I0104 20:52:02.859987  1529 net.cpp:396] relu2_1/dwise -> conv2_1/dwise/bn (in-place)
I0104 20:52:02.859994  1529 net.cpp:144] Setting up relu2_1/dwise
I0104 20:52:02.859997  1529 net.cpp:151] Top shape: 1 32 180 240 (1382400)
I0104 20:52:02.860002  1529 net.cpp:159] Memory required for data: 64281604
I0104 20:52:02.860004  1529 layer_factory.hpp:77] Creating layer conv2_1/linear
I0104 20:52:02.860010  1529 net.cpp:94] Creating Layer conv2_1/linear
I0104 20:52:02.860014  1529 net.cpp:435] conv2_1/linear <- conv2_1/dwise/bn
I0104 20:52:02.860019  1529 net.cpp:409] conv2_1/linear -> conv2_1/linear
I0104 20:52:02.860173  1529 net.cpp:144] Setting up conv2_1/linear
I0104 20:52:02.860180  1529 net.cpp:151] Top shape: 1 16 180 240 (691200)
I0104 20:52:02.860185  1529 net.cpp:159] Memory required for data: 67046404
I0104 20:52:02.860190  1529 layer_factory.hpp:77] Creating layer conv2_1/linear/bn
I0104 20:52:02.860198  1529 net.cpp:94] Creating Layer conv2_1/linear/bn
I0104 20:52:02.860203  1529 net.cpp:435] conv2_1/linear/bn <- conv2_1/linear
I0104 20:52:02.860210  1529 net.cpp:409] conv2_1/linear/bn -> conv2_1/linear/bn
I0104 20:52:02.860783  1529 net.cpp:144] Setting up conv2_1/linear/bn
I0104 20:52:02.860790  1529 net.cpp:151] Top shape: 1 16 180 240 (691200)
I0104 20:52:02.860795  1529 net.cpp:159] Memory required for data: 69811204
I0104 20:52:02.860803  1529 layer_factory.hpp:77] Creating layer conv2_2/expand
I0104 20:52:02.860811  1529 net.cpp:94] Creating Layer conv2_2/expand
I0104 20:52:02.860814  1529 net.cpp:435] conv2_2/expand <- conv2_1/linear/bn
I0104 20:52:02.860821  1529 net.cpp:409] conv2_2/expand -> conv2_2/expand
I0104 20:52:02.861001  1529 net.cpp:144] Setting up conv2_2/expand
I0104 20:52:02.861007  1529 net.cpp:151] Top shape: 1 96 180 240 (4147200)
I0104 20:52:02.861012  1529 net.cpp:159] Memory required for data: 86400004
I0104 20:52:02.861017  1529 layer_factory.hpp:77] Creating layer conv2_2/expand/bn
I0104 20:52:02.861025  1529 net.cpp:94] Creating Layer conv2_2/expand/bn
I0104 20:52:02.861029  1529 net.cpp:435] conv2_2/expand/bn <- conv2_2/expand
I0104 20:52:02.861034  1529 net.cpp:409] conv2_2/expand/bn -> conv2_2/expand/bn
I0104 20:52:02.861591  1529 net.cpp:144] Setting up conv2_2/expand/bn
I0104 20:52:02.861599  1529 net.cpp:151] Top shape: 1 96 180 240 (4147200)
I0104 20:52:02.861604  1529 net.cpp:159] Memory required for data: 102988804
I0104 20:52:02.861613  1529 layer_factory.hpp:77] Creating layer relu2_2/expand
I0104 20:52:02.861618  1529 net.cpp:94] Creating Layer relu2_2/expand
I0104 20:52:02.861621  1529 net.cpp:435] relu2_2/expand <- conv2_2/expand/bn
I0104 20:52:02.861625  1529 net.cpp:396] relu2_2/expand -> conv2_2/expand/bn (in-place)
I0104 20:52:02.861631  1529 net.cpp:144] Setting up relu2_2/expand
I0104 20:52:02.861634  1529 net.cpp:151] Top shape: 1 96 180 240 (4147200)
I0104 20:52:02.861639  1529 net.cpp:159] Memory required for data: 119577604
I0104 20:52:02.861641  1529 layer_factory.hpp:77] Creating layer conv2_2/dwise
I0104 20:52:02.861649  1529 net.cpp:94] Creating Layer conv2_2/dwise
I0104 20:52:02.861652  1529 net.cpp:435] conv2_2/dwise <- conv2_2/expand/bn
I0104 20:52:02.861657  1529 net.cpp:409] conv2_2/dwise -> conv2_2/dwise
I0104 20:52:02.861824  1529 net.cpp:144] Setting up conv2_2/dwise
I0104 20:52:02.861831  1529 net.cpp:151] Top shape: 1 96 90 120 (1036800)
I0104 20:52:02.861836  1529 net.cpp:159] Memory required for data: 123724804
I0104 20:52:02.861840  1529 layer_factory.hpp:77] Creating layer conv2_2/dwise/bn
I0104 20:52:02.861856  1529 net.cpp:94] Creating Layer conv2_2/dwise/bn
I0104 20:52:02.861860  1529 net.cpp:435] conv2_2/dwise/bn <- conv2_2/dwise
I0104 20:52:02.861865  1529 net.cpp:409] conv2_2/dwise/bn -> conv2_2/dwise/bn
I0104 20:52:02.862394  1529 net.cpp:144] Setting up conv2_2/dwise/bn
I0104 20:52:02.862402  1529 net.cpp:151] Top shape: 1 96 90 120 (1036800)
I0104 20:52:02.862407  1529 net.cpp:159] Memory required for data: 127872004
I0104 20:52:02.862417  1529 layer_factory.hpp:77] Creating layer relu2_2/dwise
I0104 20:52:02.862423  1529 net.cpp:94] Creating Layer relu2_2/dwise
I0104 20:52:02.862426  1529 net.cpp:435] relu2_2/dwise <- conv2_2/dwise/bn
I0104 20:52:02.862432  1529 net.cpp:396] relu2_2/dwise -> conv2_2/dwise/bn (in-place)
I0104 20:52:02.862438  1529 net.cpp:144] Setting up relu2_2/dwise
I0104 20:52:02.862442  1529 net.cpp:151] Top shape: 1 96 90 120 (1036800)
I0104 20:52:02.862445  1529 net.cpp:159] Memory required for data: 132019204
I0104 20:52:02.862448  1529 layer_factory.hpp:77] Creating layer conv2_2/linear
I0104 20:52:02.862455  1529 net.cpp:94] Creating Layer conv2_2/linear
I0104 20:52:02.862458  1529 net.cpp:435] conv2_2/linear <- conv2_2/dwise/bn
I0104 20:52:02.862463  1529 net.cpp:409] conv2_2/linear -> conv2_2/linear
I0104 20:52:02.862649  1529 net.cpp:144] Setting up conv2_2/linear
I0104 20:52:02.862656  1529 net.cpp:151] Top shape: 1 24 90 120 (259200)
I0104 20:52:02.862661  1529 net.cpp:159] Memory required for data: 133056004
I0104 20:52:02.862666  1529 layer_factory.hpp:77] Creating layer conv2_2/linear/bn
I0104 20:52:02.862673  1529 net.cpp:94] Creating Layer conv2_2/linear/bn
I0104 20:52:02.862677  1529 net.cpp:435] conv2_2/linear/bn <- conv2_2/linear
I0104 20:52:02.862682  1529 net.cpp:409] conv2_2/linear/bn -> conv2_2/linear/bn
I0104 20:52:02.863237  1529 net.cpp:144] Setting up conv2_2/linear/bn
I0104 20:52:02.863245  1529 net.cpp:151] Top shape: 1 24 90 120 (259200)
I0104 20:52:02.863250  1529 net.cpp:159] Memory required for data: 134092804
I0104 20:52:02.863257  1529 layer_factory.hpp:77] Creating layer conv2_2/linear/bn_conv2_2/linear/bn_0_split
I0104 20:52:02.863263  1529 net.cpp:94] Creating Layer conv2_2/linear/bn_conv2_2/linear/bn_0_split
I0104 20:52:02.863267  1529 net.cpp:435] conv2_2/linear/bn_conv2_2/linear/bn_0_split <- conv2_2/linear/bn
I0104 20:52:02.863271  1529 net.cpp:409] conv2_2/linear/bn_conv2_2/linear/bn_0_split -> conv2_2/linear/bn_conv2_2/linear/bn_0_split_0
I0104 20:52:02.863277  1529 net.cpp:409] conv2_2/linear/bn_conv2_2/linear/bn_0_split -> conv2_2/linear/bn_conv2_2/linear/bn_0_split_1
I0104 20:52:02.863308  1529 net.cpp:144] Setting up conv2_2/linear/bn_conv2_2/linear/bn_0_split
I0104 20:52:02.863314  1529 net.cpp:151] Top shape: 1 24 90 120 (259200)
I0104 20:52:02.863319  1529 net.cpp:151] Top shape: 1 24 90 120 (259200)
I0104 20:52:02.863323  1529 net.cpp:159] Memory required for data: 136166404
I0104 20:52:02.863327  1529 layer_factory.hpp:77] Creating layer conv3_1/expand
I0104 20:52:02.863333  1529 net.cpp:94] Creating Layer conv3_1/expand
I0104 20:52:02.863339  1529 net.cpp:435] conv3_1/expand <- conv2_2/linear/bn_conv2_2/linear/bn_0_split_0
I0104 20:52:02.863344  1529 net.cpp:409] conv3_1/expand -> conv3_1/expand
I0104 20:52:02.863548  1529 net.cpp:144] Setting up conv3_1/expand
I0104 20:52:02.863554  1529 net.cpp:151] Top shape: 1 144 90 120 (1555200)
I0104 20:52:02.863559  1529 net.cpp:159] Memory required for data: 142387204
I0104 20:52:02.863564  1529 layer_factory.hpp:77] Creating layer conv3_1/expand/bn
I0104 20:52:02.863571  1529 net.cpp:94] Creating Layer conv3_1/expand/bn
I0104 20:52:02.863575  1529 net.cpp:435] conv3_1/expand/bn <- conv3_1/expand
I0104 20:52:02.863580  1529 net.cpp:409] conv3_1/expand/bn -> conv3_1/expand/bn
I0104 20:52:02.864557  1529 net.cpp:144] Setting up conv3_1/expand/bn
I0104 20:52:02.864564  1529 net.cpp:151] Top shape: 1 144 90 120 (1555200)
I0104 20:52:02.864570  1529 net.cpp:159] Memory required for data: 148608004
I0104 20:52:02.864578  1529 layer_factory.hpp:77] Creating layer relu3_1/expand
I0104 20:52:02.864583  1529 net.cpp:94] Creating Layer relu3_1/expand
I0104 20:52:02.864586  1529 net.cpp:435] relu3_1/expand <- conv3_1/expand/bn
I0104 20:52:02.864591  1529 net.cpp:396] relu3_1/expand -> conv3_1/expand/bn (in-place)
I0104 20:52:02.864598  1529 net.cpp:144] Setting up relu3_1/expand
I0104 20:52:02.864601  1529 net.cpp:151] Top shape: 1 144 90 120 (1555200)
I0104 20:52:02.864605  1529 net.cpp:159] Memory required for data: 154828804
I0104 20:52:02.864609  1529 layer_factory.hpp:77] Creating layer conv3_1/dwise
I0104 20:52:02.864614  1529 net.cpp:94] Creating Layer conv3_1/dwise
I0104 20:52:02.864619  1529 net.cpp:435] conv3_1/dwise <- conv3_1/expand/bn
I0104 20:52:02.864624  1529 net.cpp:409] conv3_1/dwise -> conv3_1/dwise
I0104 20:52:02.864794  1529 net.cpp:144] Setting up conv3_1/dwise
I0104 20:52:02.864801  1529 net.cpp:151] Top shape: 1 144 90 120 (1555200)
I0104 20:52:02.864809  1529 net.cpp:159] Memory required for data: 161049604
I0104 20:52:02.864814  1529 layer_factory.hpp:77] Creating layer conv3_1/dwise/bn
I0104 20:52:02.864820  1529 net.cpp:94] Creating Layer conv3_1/dwise/bn
I0104 20:52:02.864825  1529 net.cpp:435] conv3_1/dwise/bn <- conv3_1/dwise
I0104 20:52:02.864830  1529 net.cpp:409] conv3_1/dwise/bn -> conv3_1/dwise/bn
I0104 20:52:02.865360  1529 net.cpp:144] Setting up conv3_1/dwise/bn
I0104 20:52:02.865367  1529 net.cpp:151] Top shape: 1 144 90 120 (1555200)
I0104 20:52:02.865373  1529 net.cpp:159] Memory required for data: 167270404
I0104 20:52:02.865381  1529 layer_factory.hpp:77] Creating layer relu3_1/dwise
I0104 20:52:02.865386  1529 net.cpp:94] Creating Layer relu3_1/dwise
I0104 20:52:02.865389  1529 net.cpp:435] relu3_1/dwise <- conv3_1/dwise/bn
I0104 20:52:02.865394  1529 net.cpp:396] relu3_1/dwise -> conv3_1/dwise/bn (in-place)
I0104 20:52:02.865399  1529 net.cpp:144] Setting up relu3_1/dwise
I0104 20:52:02.865402  1529 net.cpp:151] Top shape: 1 144 90 120 (1555200)
I0104 20:52:02.865407  1529 net.cpp:159] Memory required for data: 173491204
I0104 20:52:02.865412  1529 layer_factory.hpp:77] Creating layer conv3_1/linear
I0104 20:52:02.865422  1529 net.cpp:94] Creating Layer conv3_1/linear
I0104 20:52:02.865427  1529 net.cpp:435] conv3_1/linear <- conv3_1/dwise/bn
I0104 20:52:02.865432  1529 net.cpp:409] conv3_1/linear -> conv3_1/linear
I0104 20:52:02.865620  1529 net.cpp:144] Setting up conv3_1/linear
I0104 20:52:02.865628  1529 net.cpp:151] Top shape: 1 24 90 120 (259200)
I0104 20:52:02.865633  1529 net.cpp:159] Memory required for data: 174528004
I0104 20:52:02.865638  1529 layer_factory.hpp:77] Creating layer conv3_1/linear/bn
I0104 20:52:02.865644  1529 net.cpp:94] Creating Layer conv3_1/linear/bn
I0104 20:52:02.865648  1529 net.cpp:435] conv3_1/linear/bn <- conv3_1/linear
I0104 20:52:02.865653  1529 net.cpp:409] conv3_1/linear/bn -> conv3_1/linear/bn
I0104 20:52:02.866190  1529 net.cpp:144] Setting up conv3_1/linear/bn
I0104 20:52:02.866199  1529 net.cpp:151] Top shape: 1 24 90 120 (259200)
I0104 20:52:02.866204  1529 net.cpp:159] Memory required for data: 175564804
I0104 20:52:02.866211  1529 layer_factory.hpp:77] Creating layer block_3_1
I0104 20:52:02.866217  1529 net.cpp:94] Creating Layer block_3_1
I0104 20:52:02.866220  1529 net.cpp:435] block_3_1 <- conv2_2/linear/bn_conv2_2/linear/bn_0_split_1
I0104 20:52:02.866225  1529 net.cpp:435] block_3_1 <- conv3_1/linear/bn
I0104 20:52:02.866230  1529 net.cpp:409] block_3_1 -> block_3_1
I0104 20:52:02.866247  1529 net.cpp:144] Setting up block_3_1
I0104 20:52:02.866252  1529 net.cpp:151] Top shape: 1 24 90 120 (259200)
I0104 20:52:02.866257  1529 net.cpp:159] Memory required for data: 176601604
I0104 20:52:02.866261  1529 layer_factory.hpp:77] Creating layer conv3_2/expand
I0104 20:52:02.866266  1529 net.cpp:94] Creating Layer conv3_2/expand
I0104 20:52:02.866271  1529 net.cpp:435] conv3_2/expand <- block_3_1
I0104 20:52:02.866276  1529 net.cpp:409] conv3_2/expand -> conv3_2/expand
I0104 20:52:02.866464  1529 net.cpp:144] Setting up conv3_2/expand
I0104 20:52:02.866470  1529 net.cpp:151] Top shape: 1 144 90 120 (1555200)
I0104 20:52:02.866477  1529 net.cpp:159] Memory required for data: 182822404
I0104 20:52:02.866482  1529 layer_factory.hpp:77] Creating layer conv3_2/expand/bn
I0104 20:52:02.866490  1529 net.cpp:94] Creating Layer conv3_2/expand/bn
I0104 20:52:02.866493  1529 net.cpp:435] conv3_2/expand/bn <- conv3_2/expand
I0104 20:52:02.866499  1529 net.cpp:409] conv3_2/expand/bn -> conv3_2/expand/bn
I0104 20:52:02.867029  1529 net.cpp:144] Setting up conv3_2/expand/bn
I0104 20:52:02.867036  1529 net.cpp:151] Top shape: 1 144 90 120 (1555200)
I0104 20:52:02.867041  1529 net.cpp:159] Memory required for data: 189043204
I0104 20:52:02.867053  1529 layer_factory.hpp:77] Creating layer relu3_2/expand
I0104 20:52:02.867058  1529 net.cpp:94] Creating Layer relu3_2/expand
I0104 20:52:02.867063  1529 net.cpp:435] relu3_2/expand <- conv3_2/expand/bn
I0104 20:52:02.867066  1529 net.cpp:396] relu3_2/expand -> conv3_2/expand/bn (in-place)
I0104 20:52:02.867072  1529 net.cpp:144] Setting up relu3_2/expand
I0104 20:52:02.867075  1529 net.cpp:151] Top shape: 1 144 90 120 (1555200)
I0104 20:52:02.867079  1529 net.cpp:159] Memory required for data: 195264004
I0104 20:52:02.867084  1529 layer_factory.hpp:77] Creating layer conv3_2/dwise
I0104 20:52:02.867089  1529 net.cpp:94] Creating Layer conv3_2/dwise
I0104 20:52:02.867094  1529 net.cpp:435] conv3_2/dwise <- conv3_2/expand/bn
I0104 20:52:02.867098  1529 net.cpp:409] conv3_2/dwise -> conv3_2/dwise
I0104 20:52:02.867267  1529 net.cpp:144] Setting up conv3_2/dwise
I0104 20:52:02.867274  1529 net.cpp:151] Top shape: 1 144 45 60 (388800)
I0104 20:52:02.867280  1529 net.cpp:159] Memory required for data: 196819204
I0104 20:52:02.867285  1529 layer_factory.hpp:77] Creating layer conv3_2/dwise/bn
I0104 20:52:02.867291  1529 net.cpp:94] Creating Layer conv3_2/dwise/bn
I0104 20:52:02.867295  1529 net.cpp:435] conv3_2/dwise/bn <- conv3_2/dwise
I0104 20:52:02.867300  1529 net.cpp:409] conv3_2/dwise/bn -> conv3_2/dwise/bn
I0104 20:52:02.867836  1529 net.cpp:144] Setting up conv3_2/dwise/bn
I0104 20:52:02.867844  1529 net.cpp:151] Top shape: 1 144 45 60 (388800)
I0104 20:52:02.867849  1529 net.cpp:159] Memory required for data: 198374404
I0104 20:52:02.867857  1529 layer_factory.hpp:77] Creating layer relu3_2/dwise
I0104 20:52:02.867862  1529 net.cpp:94] Creating Layer relu3_2/dwise
I0104 20:52:02.867866  1529 net.cpp:435] relu3_2/dwise <- conv3_2/dwise/bn
I0104 20:52:02.867871  1529 net.cpp:396] relu3_2/dwise -> conv3_2/dwise/bn (in-place)
I0104 20:52:02.867877  1529 net.cpp:144] Setting up relu3_2/dwise
I0104 20:52:02.867879  1529 net.cpp:151] Top shape: 1 144 45 60 (388800)
I0104 20:52:02.867883  1529 net.cpp:159] Memory required for data: 199929604
I0104 20:52:02.867887  1529 layer_factory.hpp:77] Creating layer conv3_2/linear
I0104 20:52:02.867894  1529 net.cpp:94] Creating Layer conv3_2/linear
I0104 20:52:02.867897  1529 net.cpp:435] conv3_2/linear <- conv3_2/dwise/bn
I0104 20:52:02.867902  1529 net.cpp:409] conv3_2/linear -> conv3_2/linear
I0104 20:52:02.868095  1529 net.cpp:144] Setting up conv3_2/linear
I0104 20:52:02.868103  1529 net.cpp:151] Top shape: 1 32 45 60 (86400)
I0104 20:52:02.868108  1529 net.cpp:159] Memory required for data: 200275204
I0104 20:52:02.868113  1529 layer_factory.hpp:77] Creating layer conv3_2/linear/bn
I0104 20:52:02.868119  1529 net.cpp:94] Creating Layer conv3_2/linear/bn
I0104 20:52:02.868122  1529 net.cpp:435] conv3_2/linear/bn <- conv3_2/linear
I0104 20:52:02.868127  1529 net.cpp:409] conv3_2/linear/bn -> conv3_2/linear/bn
I0104 20:52:02.868670  1529 net.cpp:144] Setting up conv3_2/linear/bn
I0104 20:52:02.868677  1529 net.cpp:151] Top shape: 1 32 45 60 (86400)
I0104 20:52:02.868683  1529 net.cpp:159] Memory required for data: 200620804
I0104 20:52:02.868691  1529 layer_factory.hpp:77] Creating layer conv3_2/linear/bn_conv3_2/linear/bn_0_split
I0104 20:52:02.868696  1529 net.cpp:94] Creating Layer conv3_2/linear/bn_conv3_2/linear/bn_0_split
I0104 20:52:02.868700  1529 net.cpp:435] conv3_2/linear/bn_conv3_2/linear/bn_0_split <- conv3_2/linear/bn
I0104 20:52:02.868705  1529 net.cpp:409] conv3_2/linear/bn_conv3_2/linear/bn_0_split -> conv3_2/linear/bn_conv3_2/linear/bn_0_split_0
I0104 20:52:02.868711  1529 net.cpp:409] conv3_2/linear/bn_conv3_2/linear/bn_0_split -> conv3_2/linear/bn_conv3_2/linear/bn_0_split_1
I0104 20:52:02.868736  1529 net.cpp:144] Setting up conv3_2/linear/bn_conv3_2/linear/bn_0_split
I0104 20:52:02.868741  1529 net.cpp:151] Top shape: 1 32 45 60 (86400)
I0104 20:52:02.868747  1529 net.cpp:151] Top shape: 1 32 45 60 (86400)
I0104 20:52:02.868753  1529 net.cpp:159] Memory required for data: 201312004
I0104 20:52:02.868757  1529 layer_factory.hpp:77] Creating layer conv4_1/expand
I0104 20:52:02.868764  1529 net.cpp:94] Creating Layer conv4_1/expand
I0104 20:52:02.868770  1529 net.cpp:435] conv4_1/expand <- conv3_2/linear/bn_conv3_2/linear/bn_0_split_0
I0104 20:52:02.868775  1529 net.cpp:409] conv4_1/expand -> conv4_1/expand
I0104 20:52:02.868986  1529 net.cpp:144] Setting up conv4_1/expand
I0104 20:52:02.868993  1529 net.cpp:151] Top shape: 1 192 45 60 (518400)
I0104 20:52:02.868999  1529 net.cpp:159] Memory required for data: 203385604
I0104 20:52:02.869004  1529 layer_factory.hpp:77] Creating layer conv4_1/expand/bn
I0104 20:52:02.869010  1529 net.cpp:94] Creating Layer conv4_1/expand/bn
I0104 20:52:02.869014  1529 net.cpp:435] conv4_1/expand/bn <- conv4_1/expand
I0104 20:52:02.869020  1529 net.cpp:409] conv4_1/expand/bn -> conv4_1/expand/bn
I0104 20:52:02.869561  1529 net.cpp:144] Setting up conv4_1/expand/bn
I0104 20:52:02.869570  1529 net.cpp:151] Top shape: 1 192 45 60 (518400)
I0104 20:52:02.869575  1529 net.cpp:159] Memory required for data: 205459204
I0104 20:52:02.869583  1529 layer_factory.hpp:77] Creating layer relu4_1/expand
I0104 20:52:02.869588  1529 net.cpp:94] Creating Layer relu4_1/expand
I0104 20:52:02.869591  1529 net.cpp:435] relu4_1/expand <- conv4_1/expand/bn
I0104 20:52:02.869597  1529 net.cpp:396] relu4_1/expand -> conv4_1/expand/bn (in-place)
I0104 20:52:02.869602  1529 net.cpp:144] Setting up relu4_1/expand
I0104 20:52:02.869606  1529 net.cpp:151] Top shape: 1 192 45 60 (518400)
I0104 20:52:02.869611  1529 net.cpp:159] Memory required for data: 207532804
I0104 20:52:02.869613  1529 layer_factory.hpp:77] Creating layer conv4_1/dwise
I0104 20:52:02.869621  1529 net.cpp:94] Creating Layer conv4_1/dwise
I0104 20:52:02.869623  1529 net.cpp:435] conv4_1/dwise <- conv4_1/expand/bn
I0104 20:52:02.869628  1529 net.cpp:409] conv4_1/dwise -> conv4_1/dwise
I0104 20:52:02.869809  1529 net.cpp:144] Setting up conv4_1/dwise
I0104 20:52:02.869815  1529 net.cpp:151] Top shape: 1 192 45 60 (518400)
I0104 20:52:02.869820  1529 net.cpp:159] Memory required for data: 209606404
I0104 20:52:02.869825  1529 layer_factory.hpp:77] Creating layer conv4_1/dwise/bn
I0104 20:52:02.869833  1529 net.cpp:94] Creating Layer conv4_1/dwise/bn
I0104 20:52:02.869839  1529 net.cpp:435] conv4_1/dwise/bn <- conv4_1/dwise
I0104 20:52:02.869845  1529 net.cpp:409] conv4_1/dwise/bn -> conv4_1/dwise/bn
I0104 20:52:02.870406  1529 net.cpp:144] Setting up conv4_1/dwise/bn
I0104 20:52:02.870412  1529 net.cpp:151] Top shape: 1 192 45 60 (518400)
I0104 20:52:02.870417  1529 net.cpp:159] Memory required for data: 211680004
I0104 20:52:02.870440  1529 layer_factory.hpp:77] Creating layer relu4_1/dwise
I0104 20:52:02.870446  1529 net.cpp:94] Creating Layer relu4_1/dwise
I0104 20:52:02.870450  1529 net.cpp:435] relu4_1/dwise <- conv4_1/dwise/bn
I0104 20:52:02.870455  1529 net.cpp:396] relu4_1/dwise -> conv4_1/dwise/bn (in-place)
I0104 20:52:02.870460  1529 net.cpp:144] Setting up relu4_1/dwise
I0104 20:52:02.870462  1529 net.cpp:151] Top shape: 1 192 45 60 (518400)
I0104 20:52:02.870467  1529 net.cpp:159] Memory required for data: 213753604
I0104 20:52:02.870471  1529 layer_factory.hpp:77] Creating layer conv4_1/linear
I0104 20:52:02.870476  1529 net.cpp:94] Creating Layer conv4_1/linear
I0104 20:52:02.870483  1529 net.cpp:435] conv4_1/linear <- conv4_1/dwise/bn
I0104 20:52:02.870488  1529 net.cpp:409] conv4_1/linear -> conv4_1/linear
I0104 20:52:02.870698  1529 net.cpp:144] Setting up conv4_1/linear
I0104 20:52:02.870705  1529 net.cpp:151] Top shape: 1 32 45 60 (86400)
I0104 20:52:02.870710  1529 net.cpp:159] Memory required for data: 214099204
I0104 20:52:02.870715  1529 layer_factory.hpp:77] Creating layer conv4_1/linear/bn
I0104 20:52:02.870721  1529 net.cpp:94] Creating Layer conv4_1/linear/bn
I0104 20:52:02.870725  1529 net.cpp:435] conv4_1/linear/bn <- conv4_1/linear
I0104 20:52:02.870730  1529 net.cpp:409] conv4_1/linear/bn -> conv4_1/linear/bn
I0104 20:52:02.871410  1529 net.cpp:144] Setting up conv4_1/linear/bn
I0104 20:52:02.871417  1529 net.cpp:151] Top shape: 1 32 45 60 (86400)
I0104 20:52:02.871421  1529 net.cpp:159] Memory required for data: 214444804
I0104 20:52:02.871429  1529 layer_factory.hpp:77] Creating layer block_4_1
I0104 20:52:02.871435  1529 net.cpp:94] Creating Layer block_4_1
I0104 20:52:02.871439  1529 net.cpp:435] block_4_1 <- conv3_2/linear/bn_conv3_2/linear/bn_0_split_1
I0104 20:52:02.871443  1529 net.cpp:435] block_4_1 <- conv4_1/linear/bn
I0104 20:52:02.871448  1529 net.cpp:409] block_4_1 -> block_4_1
I0104 20:52:02.871465  1529 net.cpp:144] Setting up block_4_1
I0104 20:52:02.871471  1529 net.cpp:151] Top shape: 1 32 45 60 (86400)
I0104 20:52:02.871476  1529 net.cpp:159] Memory required for data: 214790404
I0104 20:52:02.871479  1529 layer_factory.hpp:77] Creating layer block_4_1_block_4_1_0_split
I0104 20:52:02.871484  1529 net.cpp:94] Creating Layer block_4_1_block_4_1_0_split
I0104 20:52:02.871488  1529 net.cpp:435] block_4_1_block_4_1_0_split <- block_4_1
I0104 20:52:02.871493  1529 net.cpp:409] block_4_1_block_4_1_0_split -> block_4_1_block_4_1_0_split_0
I0104 20:52:02.871498  1529 net.cpp:409] block_4_1_block_4_1_0_split -> block_4_1_block_4_1_0_split_1
I0104 20:52:02.871526  1529 net.cpp:144] Setting up block_4_1_block_4_1_0_split
I0104 20:52:02.871532  1529 net.cpp:151] Top shape: 1 32 45 60 (86400)
I0104 20:52:02.871537  1529 net.cpp:151] Top shape: 1 32 45 60 (86400)
I0104 20:52:02.871541  1529 net.cpp:159] Memory required for data: 215481604
I0104 20:52:02.871544  1529 layer_factory.hpp:77] Creating layer conv4_2/expand
I0104 20:52:02.871551  1529 net.cpp:94] Creating Layer conv4_2/expand
I0104 20:52:02.871554  1529 net.cpp:435] conv4_2/expand <- block_4_1_block_4_1_0_split_0
I0104 20:52:02.871559  1529 net.cpp:409] conv4_2/expand -> conv4_2/expand
I0104 20:52:02.871780  1529 net.cpp:144] Setting up conv4_2/expand
I0104 20:52:02.871788  1529 net.cpp:151] Top shape: 1 192 45 60 (518400)
I0104 20:52:02.871793  1529 net.cpp:159] Memory required for data: 217555204
I0104 20:52:02.871798  1529 layer_factory.hpp:77] Creating layer conv4_2/expand/bn
I0104 20:52:02.871806  1529 net.cpp:94] Creating Layer conv4_2/expand/bn
I0104 20:52:02.871810  1529 net.cpp:435] conv4_2/expand/bn <- conv4_2/expand
I0104 20:52:02.871815  1529 net.cpp:409] conv4_2/expand/bn -> conv4_2/expand/bn
I0104 20:52:02.872361  1529 net.cpp:144] Setting up conv4_2/expand/bn
I0104 20:52:02.872368  1529 net.cpp:151] Top shape: 1 192 45 60 (518400)
I0104 20:52:02.872373  1529 net.cpp:159] Memory required for data: 219628804
I0104 20:52:02.872381  1529 layer_factory.hpp:77] Creating layer relu4_2/expand
I0104 20:52:02.872386  1529 net.cpp:94] Creating Layer relu4_2/expand
I0104 20:52:02.872390  1529 net.cpp:435] relu4_2/expand <- conv4_2/expand/bn
I0104 20:52:02.872395  1529 net.cpp:396] relu4_2/expand -> conv4_2/expand/bn (in-place)
I0104 20:52:02.872401  1529 net.cpp:144] Setting up relu4_2/expand
I0104 20:52:02.872404  1529 net.cpp:151] Top shape: 1 192 45 60 (518400)
I0104 20:52:02.872408  1529 net.cpp:159] Memory required for data: 221702404
I0104 20:52:02.872412  1529 layer_factory.hpp:77] Creating layer conv4_2/dwise
I0104 20:52:02.872418  1529 net.cpp:94] Creating Layer conv4_2/dwise
I0104 20:52:02.872422  1529 net.cpp:435] conv4_2/dwise <- conv4_2/expand/bn
I0104 20:52:02.872427  1529 net.cpp:409] conv4_2/dwise -> conv4_2/dwise
I0104 20:52:02.872603  1529 net.cpp:144] Setting up conv4_2/dwise
I0104 20:52:02.872611  1529 net.cpp:151] Top shape: 1 192 45 60 (518400)
I0104 20:52:02.872617  1529 net.cpp:159] Memory required for data: 223776004
I0104 20:52:02.872622  1529 layer_factory.hpp:77] Creating layer conv4_2/dwise/bn
I0104 20:52:02.872628  1529 net.cpp:94] Creating Layer conv4_2/dwise/bn
I0104 20:52:02.872632  1529 net.cpp:435] conv4_2/dwise/bn <- conv4_2/dwise
I0104 20:52:02.872637  1529 net.cpp:409] conv4_2/dwise/bn -> conv4_2/dwise/bn
I0104 20:52:02.873172  1529 net.cpp:144] Setting up conv4_2/dwise/bn
I0104 20:52:02.873179  1529 net.cpp:151] Top shape: 1 192 45 60 (518400)
I0104 20:52:02.873184  1529 net.cpp:159] Memory required for data: 225849604
I0104 20:52:02.873193  1529 layer_factory.hpp:77] Creating layer relu4_2/dwise
I0104 20:52:02.873198  1529 net.cpp:94] Creating Layer relu4_2/dwise
I0104 20:52:02.873200  1529 net.cpp:435] relu4_2/dwise <- conv4_2/dwise/bn
I0104 20:52:02.873205  1529 net.cpp:396] relu4_2/dwise -> conv4_2/dwise/bn (in-place)
I0104 20:52:02.873211  1529 net.cpp:144] Setting up relu4_2/dwise
I0104 20:52:02.873214  1529 net.cpp:151] Top shape: 1 192 45 60 (518400)
I0104 20:52:02.873219  1529 net.cpp:159] Memory required for data: 227923204
I0104 20:52:02.873221  1529 layer_factory.hpp:77] Creating layer conv4_2/linear
I0104 20:52:02.873229  1529 net.cpp:94] Creating Layer conv4_2/linear
I0104 20:52:02.873231  1529 net.cpp:435] conv4_2/linear <- conv4_2/dwise/bn
I0104 20:52:02.873236  1529 net.cpp:409] conv4_2/linear -> conv4_2/linear
I0104 20:52:02.873447  1529 net.cpp:144] Setting up conv4_2/linear
I0104 20:52:02.873454  1529 net.cpp:151] Top shape: 1 32 45 60 (86400)
I0104 20:52:02.873459  1529 net.cpp:159] Memory required for data: 228268804
I0104 20:52:02.873463  1529 layer_factory.hpp:77] Creating layer conv4_2/linear/bn
I0104 20:52:02.873471  1529 net.cpp:94] Creating Layer conv4_2/linear/bn
I0104 20:52:02.873474  1529 net.cpp:435] conv4_2/linear/bn <- conv4_2/linear
I0104 20:52:02.873482  1529 net.cpp:409] conv4_2/linear/bn -> conv4_2/linear/bn
I0104 20:52:02.874029  1529 net.cpp:144] Setting up conv4_2/linear/bn
I0104 20:52:02.874037  1529 net.cpp:151] Top shape: 1 32 45 60 (86400)
I0104 20:52:02.874042  1529 net.cpp:159] Memory required for data: 228614404
I0104 20:52:02.874049  1529 layer_factory.hpp:77] Creating layer block_4_2
I0104 20:52:02.874055  1529 net.cpp:94] Creating Layer block_4_2
I0104 20:52:02.874058  1529 net.cpp:435] block_4_2 <- block_4_1_block_4_1_0_split_1
I0104 20:52:02.874063  1529 net.cpp:435] block_4_2 <- conv4_2/linear/bn
I0104 20:52:02.874068  1529 net.cpp:409] block_4_2 -> block_4_2
I0104 20:52:02.874096  1529 net.cpp:144] Setting up block_4_2
I0104 20:52:02.874101  1529 net.cpp:151] Top shape: 1 32 45 60 (86400)
I0104 20:52:02.874106  1529 net.cpp:159] Memory required for data: 228960004
I0104 20:52:02.874109  1529 layer_factory.hpp:77] Creating layer conv4_3/expand
I0104 20:52:02.874116  1529 net.cpp:94] Creating Layer conv4_3/expand
I0104 20:52:02.874119  1529 net.cpp:435] conv4_3/expand <- block_4_2
I0104 20:52:02.874125  1529 net.cpp:409] conv4_3/expand -> conv4_3/expand
I0104 20:52:02.874336  1529 net.cpp:144] Setting up conv4_3/expand
I0104 20:52:02.874343  1529 net.cpp:151] Top shape: 1 192 45 60 (518400)
I0104 20:52:02.874351  1529 net.cpp:159] Memory required for data: 231033604
I0104 20:52:02.874357  1529 layer_factory.hpp:77] Creating layer conv4_3/expand/bn
I0104 20:52:02.874364  1529 net.cpp:94] Creating Layer conv4_3/expand/bn
I0104 20:52:02.874367  1529 net.cpp:435] conv4_3/expand/bn <- conv4_3/expand
I0104 20:52:02.874373  1529 net.cpp:409] conv4_3/expand/bn -> conv4_3/expand/bn
I0104 20:52:02.874912  1529 net.cpp:144] Setting up conv4_3/expand/bn
I0104 20:52:02.874919  1529 net.cpp:151] Top shape: 1 192 45 60 (518400)
I0104 20:52:02.874924  1529 net.cpp:159] Memory required for data: 233107204
I0104 20:52:02.874933  1529 layer_factory.hpp:77] Creating layer relu4_3/expand
I0104 20:52:02.874938  1529 net.cpp:94] Creating Layer relu4_3/expand
I0104 20:52:02.874941  1529 net.cpp:435] relu4_3/expand <- conv4_3/expand/bn
I0104 20:52:02.874946  1529 net.cpp:396] relu4_3/expand -> conv4_3/expand/bn (in-place)
I0104 20:52:02.874953  1529 net.cpp:144] Setting up relu4_3/expand
I0104 20:52:02.874955  1529 net.cpp:151] Top shape: 1 192 45 60 (518400)
I0104 20:52:02.874959  1529 net.cpp:159] Memory required for data: 235180804
I0104 20:52:02.874963  1529 layer_factory.hpp:77] Creating layer conv4_3/dwise
I0104 20:52:02.874969  1529 net.cpp:94] Creating Layer conv4_3/dwise
I0104 20:52:02.874974  1529 net.cpp:435] conv4_3/dwise <- conv4_3/expand/bn
I0104 20:52:02.874979  1529 net.cpp:409] conv4_3/dwise -> conv4_3/dwise
I0104 20:52:02.875150  1529 net.cpp:144] Setting up conv4_3/dwise
I0104 20:52:02.875159  1529 net.cpp:151] Top shape: 1 192 45 60 (518400)
I0104 20:52:02.875165  1529 net.cpp:159] Memory required for data: 237254404
I0104 20:52:02.875170  1529 layer_factory.hpp:77] Creating layer conv4_3/dwise/bn
I0104 20:52:02.875177  1529 net.cpp:94] Creating Layer conv4_3/dwise/bn
I0104 20:52:02.875181  1529 net.cpp:435] conv4_3/dwise/bn <- conv4_3/dwise
I0104 20:52:02.875186  1529 net.cpp:409] conv4_3/dwise/bn -> conv4_3/dwise/bn
I0104 20:52:02.875737  1529 net.cpp:144] Setting up conv4_3/dwise/bn
I0104 20:52:02.875746  1529 net.cpp:151] Top shape: 1 192 45 60 (518400)
I0104 20:52:02.875751  1529 net.cpp:159] Memory required for data: 239328004
I0104 20:52:02.875758  1529 layer_factory.hpp:77] Creating layer relu4_3/dwise
I0104 20:52:02.875766  1529 net.cpp:94] Creating Layer relu4_3/dwise
I0104 20:52:02.875769  1529 net.cpp:435] relu4_3/dwise <- conv4_3/dwise/bn
I0104 20:52:02.875774  1529 net.cpp:396] relu4_3/dwise -> conv4_3/dwise/bn (in-place)
I0104 20:52:02.875782  1529 net.cpp:144] Setting up relu4_3/dwise
I0104 20:52:02.875784  1529 net.cpp:151] Top shape: 1 192 45 60 (518400)
I0104 20:52:02.875788  1529 net.cpp:159] Memory required for data: 241401604
I0104 20:52:02.875792  1529 layer_factory.hpp:77] Creating layer conv4_3/linear
I0104 20:52:02.875797  1529 net.cpp:94] Creating Layer conv4_3/linear
I0104 20:52:02.875800  1529 net.cpp:435] conv4_3/linear <- conv4_3/dwise/bn
I0104 20:52:02.875805  1529 net.cpp:409] conv4_3/linear -> conv4_3/linear
I0104 20:52:02.876782  1529 net.cpp:144] Setting up conv4_3/linear
I0104 20:52:02.876791  1529 net.cpp:151] Top shape: 1 64 45 60 (172800)
I0104 20:52:02.876796  1529 net.cpp:159] Memory required for data: 242092804
I0104 20:52:02.876802  1529 layer_factory.hpp:77] Creating layer conv4_3/linear/bn
I0104 20:52:02.876811  1529 net.cpp:94] Creating Layer conv4_3/linear/bn
I0104 20:52:02.876814  1529 net.cpp:435] conv4_3/linear/bn <- conv4_3/linear
I0104 20:52:02.876821  1529 net.cpp:409] conv4_3/linear/bn -> conv4_3/linear/bn
I0104 20:52:02.877830  1529 net.cpp:144] Setting up conv4_3/linear/bn
I0104 20:52:02.877837  1529 net.cpp:151] Top shape: 1 64 45 60 (172800)
I0104 20:52:02.877842  1529 net.cpp:159] Memory required for data: 242784004
I0104 20:52:02.877854  1529 layer_factory.hpp:77] Creating layer conv4_3/linear/bn_conv4_3/linear/bn_0_split
I0104 20:52:02.877861  1529 net.cpp:94] Creating Layer conv4_3/linear/bn_conv4_3/linear/bn_0_split
I0104 20:52:02.877866  1529 net.cpp:435] conv4_3/linear/bn_conv4_3/linear/bn_0_split <- conv4_3/linear/bn
I0104 20:52:02.877871  1529 net.cpp:409] conv4_3/linear/bn_conv4_3/linear/bn_0_split -> conv4_3/linear/bn_conv4_3/linear/bn_0_split_0
I0104 20:52:02.877876  1529 net.cpp:409] conv4_3/linear/bn_conv4_3/linear/bn_0_split -> conv4_3/linear/bn_conv4_3/linear/bn_0_split_1
I0104 20:52:02.877904  1529 net.cpp:144] Setting up conv4_3/linear/bn_conv4_3/linear/bn_0_split
I0104 20:52:02.877909  1529 net.cpp:151] Top shape: 1 64 45 60 (172800)
I0104 20:52:02.877914  1529 net.cpp:151] Top shape: 1 64 45 60 (172800)
I0104 20:52:02.877918  1529 net.cpp:159] Memory required for data: 244166404
I0104 20:52:02.877921  1529 layer_factory.hpp:77] Creating layer conv4_4/expand
I0104 20:52:02.877928  1529 net.cpp:94] Creating Layer conv4_4/expand
I0104 20:52:02.877933  1529 net.cpp:435] conv4_4/expand <- conv4_3/linear/bn_conv4_3/linear/bn_0_split_0
I0104 20:52:02.877938  1529 net.cpp:409] conv4_4/expand -> conv4_4/expand
I0104 20:52:02.878324  1529 net.cpp:144] Setting up conv4_4/expand
I0104 20:52:02.878331  1529 net.cpp:151] Top shape: 1 384 45 60 (1036800)
I0104 20:52:02.878337  1529 net.cpp:159] Memory required for data: 248313604
I0104 20:52:02.878342  1529 layer_factory.hpp:77] Creating layer conv4_4/expand/bn
I0104 20:52:02.878350  1529 net.cpp:94] Creating Layer conv4_4/expand/bn
I0104 20:52:02.878352  1529 net.cpp:435] conv4_4/expand/bn <- conv4_4/expand
I0104 20:52:02.878358  1529 net.cpp:409] conv4_4/expand/bn -> conv4_4/expand/bn
I0104 20:52:02.878834  1529 net.cpp:144] Setting up conv4_4/expand/bn
I0104 20:52:02.878842  1529 net.cpp:151] Top shape: 1 384 45 60 (1036800)
I0104 20:52:02.878847  1529 net.cpp:159] Memory required for data: 252460804
I0104 20:52:02.878855  1529 layer_factory.hpp:77] Creating layer relu4_4/expand
I0104 20:52:02.878860  1529 net.cpp:94] Creating Layer relu4_4/expand
I0104 20:52:02.878865  1529 net.cpp:435] relu4_4/expand <- conv4_4/expand/bn
I0104 20:52:02.878868  1529 net.cpp:396] relu4_4/expand -> conv4_4/expand/bn (in-place)
I0104 20:52:02.878875  1529 net.cpp:144] Setting up relu4_4/expand
I0104 20:52:02.878878  1529 net.cpp:151] Top shape: 1 384 45 60 (1036800)
I0104 20:52:02.878882  1529 net.cpp:159] Memory required for data: 256608004
I0104 20:52:02.878885  1529 layer_factory.hpp:77] Creating layer conv4_4/dwise
I0104 20:52:02.878892  1529 net.cpp:94] Creating Layer conv4_4/dwise
I0104 20:52:02.878895  1529 net.cpp:435] conv4_4/dwise <- conv4_4/expand/bn
I0104 20:52:02.878901  1529 net.cpp:409] conv4_4/dwise -> conv4_4/dwise
I0104 20:52:02.879094  1529 net.cpp:144] Setting up conv4_4/dwise
I0104 20:52:02.879101  1529 net.cpp:151] Top shape: 1 384 45 60 (1036800)
I0104 20:52:02.879106  1529 net.cpp:159] Memory required for data: 260755204
I0104 20:52:02.879112  1529 layer_factory.hpp:77] Creating layer conv4_4/dwise/bn
I0104 20:52:02.879118  1529 net.cpp:94] Creating Layer conv4_4/dwise/bn
I0104 20:52:02.879122  1529 net.cpp:435] conv4_4/dwise/bn <- conv4_4/dwise
I0104 20:52:02.879127  1529 net.cpp:409] conv4_4/dwise/bn -> conv4_4/dwise/bn
I0104 20:52:02.879598  1529 net.cpp:144] Setting up conv4_4/dwise/bn
I0104 20:52:02.879606  1529 net.cpp:151] Top shape: 1 384 45 60 (1036800)
I0104 20:52:02.879611  1529 net.cpp:159] Memory required for data: 264902404
I0104 20:52:02.879618  1529 layer_factory.hpp:77] Creating layer relu4_4/dwise
I0104 20:52:02.879623  1529 net.cpp:94] Creating Layer relu4_4/dwise
I0104 20:52:02.879627  1529 net.cpp:435] relu4_4/dwise <- conv4_4/dwise/bn
I0104 20:52:02.879632  1529 net.cpp:396] relu4_4/dwise -> conv4_4/dwise/bn (in-place)
I0104 20:52:02.879637  1529 net.cpp:144] Setting up relu4_4/dwise
I0104 20:52:02.879640  1529 net.cpp:151] Top shape: 1 384 45 60 (1036800)
I0104 20:52:02.879644  1529 net.cpp:159] Memory required for data: 269049604
I0104 20:52:02.879648  1529 layer_factory.hpp:77] Creating layer conv4_4/linear
I0104 20:52:02.879654  1529 net.cpp:94] Creating Layer conv4_4/linear
I0104 20:52:02.879657  1529 net.cpp:435] conv4_4/linear <- conv4_4/dwise/bn
I0104 20:52:02.879662  1529 net.cpp:409] conv4_4/linear -> conv4_4/linear
I0104 20:52:02.880055  1529 net.cpp:144] Setting up conv4_4/linear
I0104 20:52:02.880064  1529 net.cpp:151] Top shape: 1 64 45 60 (172800)
I0104 20:52:02.880069  1529 net.cpp:159] Memory required for data: 269740804
I0104 20:52:02.880074  1529 layer_factory.hpp:77] Creating layer conv4_4/linear/bn
I0104 20:52:02.880081  1529 net.cpp:94] Creating Layer conv4_4/linear/bn
I0104 20:52:02.880085  1529 net.cpp:435] conv4_4/linear/bn <- conv4_4/linear
I0104 20:52:02.880090  1529 net.cpp:409] conv4_4/linear/bn -> conv4_4/linear/bn
I0104 20:52:02.880659  1529 net.cpp:144] Setting up conv4_4/linear/bn
I0104 20:52:02.880667  1529 net.cpp:151] Top shape: 1 64 45 60 (172800)
I0104 20:52:02.880672  1529 net.cpp:159] Memory required for data: 270432004
I0104 20:52:02.880681  1529 layer_factory.hpp:77] Creating layer block_4_4
I0104 20:52:02.880686  1529 net.cpp:94] Creating Layer block_4_4
I0104 20:52:02.880689  1529 net.cpp:435] block_4_4 <- conv4_3/linear/bn_conv4_3/linear/bn_0_split_1
I0104 20:52:02.880693  1529 net.cpp:435] block_4_4 <- conv4_4/linear/bn
I0104 20:52:02.880698  1529 net.cpp:409] block_4_4 -> block_4_4
I0104 20:52:02.880717  1529 net.cpp:144] Setting up block_4_4
I0104 20:52:02.880723  1529 net.cpp:151] Top shape: 1 64 45 60 (172800)
I0104 20:52:02.880728  1529 net.cpp:159] Memory required for data: 271123204
I0104 20:52:02.880738  1529 layer_factory.hpp:77] Creating layer block_4_4_block_4_4_0_split
I0104 20:52:02.880743  1529 net.cpp:94] Creating Layer block_4_4_block_4_4_0_split
I0104 20:52:02.880746  1529 net.cpp:435] block_4_4_block_4_4_0_split <- block_4_4
I0104 20:52:02.880750  1529 net.cpp:409] block_4_4_block_4_4_0_split -> block_4_4_block_4_4_0_split_0
I0104 20:52:02.880756  1529 net.cpp:409] block_4_4_block_4_4_0_split -> block_4_4_block_4_4_0_split_1
I0104 20:52:02.880781  1529 net.cpp:144] Setting up block_4_4_block_4_4_0_split
I0104 20:52:02.880786  1529 net.cpp:151] Top shape: 1 64 45 60 (172800)
I0104 20:52:02.880791  1529 net.cpp:151] Top shape: 1 64 45 60 (172800)
I0104 20:52:02.880795  1529 net.cpp:159] Memory required for data: 272505604
I0104 20:52:02.880798  1529 layer_factory.hpp:77] Creating layer conv4_5/expand
I0104 20:52:02.880805  1529 net.cpp:94] Creating Layer conv4_5/expand
I0104 20:52:02.880808  1529 net.cpp:435] conv4_5/expand <- block_4_4_block_4_4_0_split_0
I0104 20:52:02.880813  1529 net.cpp:409] conv4_5/expand -> conv4_5/expand
I0104 20:52:02.881194  1529 net.cpp:144] Setting up conv4_5/expand
I0104 20:52:02.881201  1529 net.cpp:151] Top shape: 1 384 45 60 (1036800)
I0104 20:52:02.881206  1529 net.cpp:159] Memory required for data: 276652804
I0104 20:52:02.881211  1529 layer_factory.hpp:77] Creating layer conv4_5/expand/bn
I0104 20:52:02.881218  1529 net.cpp:94] Creating Layer conv4_5/expand/bn
I0104 20:52:02.881222  1529 net.cpp:435] conv4_5/expand/bn <- conv4_5/expand
I0104 20:52:02.881227  1529 net.cpp:409] conv4_5/expand/bn -> conv4_5/expand/bn
I0104 20:52:02.881703  1529 net.cpp:144] Setting up conv4_5/expand/bn
I0104 20:52:02.881711  1529 net.cpp:151] Top shape: 1 384 45 60 (1036800)
I0104 20:52:02.881716  1529 net.cpp:159] Memory required for data: 280800004
I0104 20:52:02.881723  1529 layer_factory.hpp:77] Creating layer relu4_5/expand
I0104 20:52:02.881728  1529 net.cpp:94] Creating Layer relu4_5/expand
I0104 20:52:02.881732  1529 net.cpp:435] relu4_5/expand <- conv4_5/expand/bn
I0104 20:52:02.881736  1529 net.cpp:396] relu4_5/expand -> conv4_5/expand/bn (in-place)
I0104 20:52:02.881742  1529 net.cpp:144] Setting up relu4_5/expand
I0104 20:52:02.881747  1529 net.cpp:151] Top shape: 1 384 45 60 (1036800)
I0104 20:52:02.881750  1529 net.cpp:159] Memory required for data: 284947204
I0104 20:52:02.881753  1529 layer_factory.hpp:77] Creating layer conv4_5/dwise
I0104 20:52:02.881760  1529 net.cpp:94] Creating Layer conv4_5/dwise
I0104 20:52:02.881763  1529 net.cpp:435] conv4_5/dwise <- conv4_5/expand/bn
I0104 20:52:02.881768  1529 net.cpp:409] conv4_5/dwise -> conv4_5/dwise
I0104 20:52:02.881955  1529 net.cpp:144] Setting up conv4_5/dwise
I0104 20:52:02.881963  1529 net.cpp:151] Top shape: 1 384 45 60 (1036800)
I0104 20:52:02.881968  1529 net.cpp:159] Memory required for data: 289094404
I0104 20:52:02.881973  1529 layer_factory.hpp:77] Creating layer conv4_5/dwise/bn
I0104 20:52:02.881979  1529 net.cpp:94] Creating Layer conv4_5/dwise/bn
I0104 20:52:02.881983  1529 net.cpp:435] conv4_5/dwise/bn <- conv4_5/dwise
I0104 20:52:02.881989  1529 net.cpp:409] conv4_5/dwise/bn -> conv4_5/dwise/bn
I0104 20:52:02.882457  1529 net.cpp:144] Setting up conv4_5/dwise/bn
I0104 20:52:02.882464  1529 net.cpp:151] Top shape: 1 384 45 60 (1036800)
I0104 20:52:02.882469  1529 net.cpp:159] Memory required for data: 293241604
I0104 20:52:02.882477  1529 layer_factory.hpp:77] Creating layer relu4_5/dwise
I0104 20:52:02.882483  1529 net.cpp:94] Creating Layer relu4_5/dwise
I0104 20:52:02.882485  1529 net.cpp:435] relu4_5/dwise <- conv4_5/dwise/bn
I0104 20:52:02.882490  1529 net.cpp:396] relu4_5/dwise -> conv4_5/dwise/bn (in-place)
I0104 20:52:02.882496  1529 net.cpp:144] Setting up relu4_5/dwise
I0104 20:52:02.882498  1529 net.cpp:151] Top shape: 1 384 45 60 (1036800)
I0104 20:52:02.882503  1529 net.cpp:159] Memory required for data: 297388804
I0104 20:52:02.882506  1529 layer_factory.hpp:77] Creating layer conv4_5/linear
I0104 20:52:02.882513  1529 net.cpp:94] Creating Layer conv4_5/linear
I0104 20:52:02.882515  1529 net.cpp:435] conv4_5/linear <- conv4_5/dwise/bn
I0104 20:52:02.882521  1529 net.cpp:409] conv4_5/linear -> conv4_5/linear
I0104 20:52:02.882901  1529 net.cpp:144] Setting up conv4_5/linear
I0104 20:52:02.882910  1529 net.cpp:151] Top shape: 1 64 45 60 (172800)
I0104 20:52:02.882915  1529 net.cpp:159] Memory required for data: 298080004
I0104 20:52:02.882920  1529 layer_factory.hpp:77] Creating layer conv4_5/linear/bn
I0104 20:52:02.882926  1529 net.cpp:94] Creating Layer conv4_5/linear/bn
I0104 20:52:02.882930  1529 net.cpp:435] conv4_5/linear/bn <- conv4_5/linear
I0104 20:52:02.882936  1529 net.cpp:409] conv4_5/linear/bn -> conv4_5/linear/bn
I0104 20:52:02.883496  1529 net.cpp:144] Setting up conv4_5/linear/bn
I0104 20:52:02.883504  1529 net.cpp:151] Top shape: 1 64 45 60 (172800)
I0104 20:52:02.883509  1529 net.cpp:159] Memory required for data: 298771204
I0104 20:52:02.883517  1529 layer_factory.hpp:77] Creating layer block_4_5
I0104 20:52:02.883523  1529 net.cpp:94] Creating Layer block_4_5
I0104 20:52:02.883527  1529 net.cpp:435] block_4_5 <- block_4_4_block_4_4_0_split_1
I0104 20:52:02.883531  1529 net.cpp:435] block_4_5 <- conv4_5/linear/bn
I0104 20:52:02.883535  1529 net.cpp:409] block_4_5 -> block_4_5
I0104 20:52:02.883554  1529 net.cpp:144] Setting up block_4_5
I0104 20:52:02.883559  1529 net.cpp:151] Top shape: 1 64 45 60 (172800)
I0104 20:52:02.883564  1529 net.cpp:159] Memory required for data: 299462404
I0104 20:52:02.883567  1529 layer_factory.hpp:77] Creating layer block_4_5_block_4_5_0_split
I0104 20:52:02.883572  1529 net.cpp:94] Creating Layer block_4_5_block_4_5_0_split
I0104 20:52:02.883575  1529 net.cpp:435] block_4_5_block_4_5_0_split <- block_4_5
I0104 20:52:02.883579  1529 net.cpp:409] block_4_5_block_4_5_0_split -> block_4_5_block_4_5_0_split_0
I0104 20:52:02.883585  1529 net.cpp:409] block_4_5_block_4_5_0_split -> block_4_5_block_4_5_0_split_1
I0104 20:52:02.883610  1529 net.cpp:144] Setting up block_4_5_block_4_5_0_split
I0104 20:52:02.883615  1529 net.cpp:151] Top shape: 1 64 45 60 (172800)
I0104 20:52:02.883620  1529 net.cpp:151] Top shape: 1 64 45 60 (172800)
I0104 20:52:02.883625  1529 net.cpp:159] Memory required for data: 300844804
I0104 20:52:02.883627  1529 layer_factory.hpp:77] Creating layer conv4_6/expand
I0104 20:52:02.883633  1529 net.cpp:94] Creating Layer conv4_6/expand
I0104 20:52:02.883637  1529 net.cpp:435] conv4_6/expand <- block_4_5_block_4_5_0_split_0
I0104 20:52:02.883642  1529 net.cpp:409] conv4_6/expand -> conv4_6/expand
I0104 20:52:02.884035  1529 net.cpp:144] Setting up conv4_6/expand
I0104 20:52:02.884045  1529 net.cpp:151] Top shape: 1 384 45 60 (1036800)
I0104 20:52:02.884050  1529 net.cpp:159] Memory required for data: 304992004
I0104 20:52:02.884055  1529 layer_factory.hpp:77] Creating layer conv4_6/expand/bn
I0104 20:52:02.884063  1529 net.cpp:94] Creating Layer conv4_6/expand/bn
I0104 20:52:02.884068  1529 net.cpp:435] conv4_6/expand/bn <- conv4_6/expand
I0104 20:52:02.884073  1529 net.cpp:409] conv4_6/expand/bn -> conv4_6/expand/bn
I0104 20:52:02.884553  1529 net.cpp:144] Setting up conv4_6/expand/bn
I0104 20:52:02.884560  1529 net.cpp:151] Top shape: 1 384 45 60 (1036800)
I0104 20:52:02.884565  1529 net.cpp:159] Memory required for data: 309139204
I0104 20:52:02.884573  1529 layer_factory.hpp:77] Creating layer relu4_6/expand
I0104 20:52:02.884578  1529 net.cpp:94] Creating Layer relu4_6/expand
I0104 20:52:02.884582  1529 net.cpp:435] relu4_6/expand <- conv4_6/expand/bn
I0104 20:52:02.884588  1529 net.cpp:396] relu4_6/expand -> conv4_6/expand/bn (in-place)
I0104 20:52:02.884593  1529 net.cpp:144] Setting up relu4_6/expand
I0104 20:52:02.884596  1529 net.cpp:151] Top shape: 1 384 45 60 (1036800)
I0104 20:52:02.884600  1529 net.cpp:159] Memory required for data: 313286404
I0104 20:52:02.884603  1529 layer_factory.hpp:77] Creating layer conv4_6/dwise
I0104 20:52:02.884609  1529 net.cpp:94] Creating Layer conv4_6/dwise
I0104 20:52:02.884613  1529 net.cpp:435] conv4_6/dwise <- conv4_6/expand/bn
I0104 20:52:02.884618  1529 net.cpp:409] conv4_6/dwise -> conv4_6/dwise
I0104 20:52:02.884806  1529 net.cpp:144] Setting up conv4_6/dwise
I0104 20:52:02.884812  1529 net.cpp:151] Top shape: 1 384 45 60 (1036800)
I0104 20:52:02.884817  1529 net.cpp:159] Memory required for data: 317433604
I0104 20:52:02.884822  1529 layer_factory.hpp:77] Creating layer conv4_6/dwise/bn
I0104 20:52:02.884830  1529 net.cpp:94] Creating Layer conv4_6/dwise/bn
I0104 20:52:02.884836  1529 net.cpp:435] conv4_6/dwise/bn <- conv4_6/dwise
I0104 20:52:02.884842  1529 net.cpp:409] conv4_6/dwise/bn -> conv4_6/dwise/bn
I0104 20:52:02.885342  1529 net.cpp:144] Setting up conv4_6/dwise/bn
I0104 20:52:02.885351  1529 net.cpp:151] Top shape: 1 384 45 60 (1036800)
I0104 20:52:02.885357  1529 net.cpp:159] Memory required for data: 321580804
I0104 20:52:02.885365  1529 layer_factory.hpp:77] Creating layer relu4_6/dwise
I0104 20:52:02.885370  1529 net.cpp:94] Creating Layer relu4_6/dwise
I0104 20:52:02.885375  1529 net.cpp:435] relu4_6/dwise <- conv4_6/dwise/bn
I0104 20:52:02.885378  1529 net.cpp:396] relu4_6/dwise -> conv4_6/dwise/bn (in-place)
I0104 20:52:02.885385  1529 net.cpp:144] Setting up relu4_6/dwise
I0104 20:52:02.885388  1529 net.cpp:151] Top shape: 1 384 45 60 (1036800)
I0104 20:52:02.885392  1529 net.cpp:159] Memory required for data: 325728004
I0104 20:52:02.885396  1529 layer_factory.hpp:77] Creating layer conv4_6/linear
I0104 20:52:02.885402  1529 net.cpp:94] Creating Layer conv4_6/linear
I0104 20:52:02.885406  1529 net.cpp:435] conv4_6/linear <- conv4_6/dwise/bn
I0104 20:52:02.885411  1529 net.cpp:409] conv4_6/linear -> conv4_6/linear
I0104 20:52:02.885797  1529 net.cpp:144] Setting up conv4_6/linear
I0104 20:52:02.885805  1529 net.cpp:151] Top shape: 1 64 45 60 (172800)
I0104 20:52:02.885810  1529 net.cpp:159] Memory required for data: 326419204
I0104 20:52:02.885815  1529 layer_factory.hpp:77] Creating layer conv4_6/linear/bn
I0104 20:52:02.885823  1529 net.cpp:94] Creating Layer conv4_6/linear/bn
I0104 20:52:02.885828  1529 net.cpp:435] conv4_6/linear/bn <- conv4_6/linear
I0104 20:52:02.885833  1529 net.cpp:409] conv4_6/linear/bn -> conv4_6/linear/bn
I0104 20:52:02.886392  1529 net.cpp:144] Setting up conv4_6/linear/bn
I0104 20:52:02.886401  1529 net.cpp:151] Top shape: 1 64 45 60 (172800)
I0104 20:52:02.886406  1529 net.cpp:159] Memory required for data: 327110404
I0104 20:52:02.886413  1529 layer_factory.hpp:77] Creating layer block_4_6
I0104 20:52:02.886420  1529 net.cpp:94] Creating Layer block_4_6
I0104 20:52:02.886423  1529 net.cpp:435] block_4_6 <- block_4_5_block_4_5_0_split_1
I0104 20:52:02.886427  1529 net.cpp:435] block_4_6 <- conv4_6/linear/bn
I0104 20:52:02.886432  1529 net.cpp:409] block_4_6 -> block_4_6
I0104 20:52:02.886451  1529 net.cpp:144] Setting up block_4_6
I0104 20:52:02.886456  1529 net.cpp:151] Top shape: 1 64 45 60 (172800)
I0104 20:52:02.886461  1529 net.cpp:159] Memory required for data: 327801604
I0104 20:52:02.886464  1529 layer_factory.hpp:77] Creating layer conv4_7/expand
I0104 20:52:02.886471  1529 net.cpp:94] Creating Layer conv4_7/expand
I0104 20:52:02.886474  1529 net.cpp:435] conv4_7/expand <- block_4_6
I0104 20:52:02.886479  1529 net.cpp:409] conv4_7/expand -> conv4_7/expand
I0104 20:52:02.886899  1529 net.cpp:144] Setting up conv4_7/expand
I0104 20:52:02.886909  1529 net.cpp:151] Top shape: 1 384 45 60 (1036800)
I0104 20:52:02.886914  1529 net.cpp:159] Memory required for data: 331948804
I0104 20:52:02.886919  1529 layer_factory.hpp:77] Creating layer conv4_7/expand/bn
I0104 20:52:02.886926  1529 net.cpp:94] Creating Layer conv4_7/expand/bn
I0104 20:52:02.886930  1529 net.cpp:435] conv4_7/expand/bn <- conv4_7/expand
I0104 20:52:02.886935  1529 net.cpp:409] conv4_7/expand/bn -> conv4_7/expand/bn
I0104 20:52:02.887423  1529 net.cpp:144] Setting up conv4_7/expand/bn
I0104 20:52:02.887430  1529 net.cpp:151] Top shape: 1 384 45 60 (1036800)
I0104 20:52:02.887435  1529 net.cpp:159] Memory required for data: 336096004
I0104 20:52:02.887444  1529 layer_factory.hpp:77] Creating layer relu4_7/expand
I0104 20:52:02.887449  1529 net.cpp:94] Creating Layer relu4_7/expand
I0104 20:52:02.887452  1529 net.cpp:435] relu4_7/expand <- conv4_7/expand/bn
I0104 20:52:02.887457  1529 net.cpp:396] relu4_7/expand -> conv4_7/expand/bn (in-place)
I0104 20:52:02.887463  1529 net.cpp:144] Setting up relu4_7/expand
I0104 20:52:02.887466  1529 net.cpp:151] Top shape: 1 384 45 60 (1036800)
I0104 20:52:02.887471  1529 net.cpp:159] Memory required for data: 340243204
I0104 20:52:02.887475  1529 layer_factory.hpp:77] Creating layer conv4_7/expand/bn_relu4_7/expand_0_split
I0104 20:52:02.887480  1529 net.cpp:94] Creating Layer conv4_7/expand/bn_relu4_7/expand_0_split
I0104 20:52:02.887482  1529 net.cpp:435] conv4_7/expand/bn_relu4_7/expand_0_split <- conv4_7/expand/bn
I0104 20:52:02.887487  1529 net.cpp:409] conv4_7/expand/bn_relu4_7/expand_0_split -> conv4_7/expand/bn_relu4_7/expand_0_split_0
I0104 20:52:02.887492  1529 net.cpp:409] conv4_7/expand/bn_relu4_7/expand_0_split -> conv4_7/expand/bn_relu4_7/expand_0_split_1
I0104 20:52:02.887498  1529 net.cpp:409] conv4_7/expand/bn_relu4_7/expand_0_split -> conv4_7/expand/bn_relu4_7/expand_0_split_2
I0104 20:52:02.887503  1529 net.cpp:409] conv4_7/expand/bn_relu4_7/expand_0_split -> conv4_7/expand/bn_relu4_7/expand_0_split_3
I0104 20:52:02.887557  1529 net.cpp:144] Setting up conv4_7/expand/bn_relu4_7/expand_0_split
I0104 20:52:02.887565  1529 net.cpp:151] Top shape: 1 384 45 60 (1036800)
I0104 20:52:02.887573  1529 net.cpp:151] Top shape: 1 384 45 60 (1036800)
I0104 20:52:02.887580  1529 net.cpp:151] Top shape: 1 384 45 60 (1036800)
I0104 20:52:02.887588  1529 net.cpp:151] Top shape: 1 384 45 60 (1036800)
I0104 20:52:02.887594  1529 net.cpp:159] Memory required for data: 356832004
I0104 20:52:02.887600  1529 layer_factory.hpp:77] Creating layer conv4_7/dwise
I0104 20:52:02.887611  1529 net.cpp:94] Creating Layer conv4_7/dwise
I0104 20:52:02.887621  1529 net.cpp:435] conv4_7/dwise <- conv4_7/expand/bn_relu4_7/expand_0_split_0
I0104 20:52:02.887630  1529 net.cpp:409] conv4_7/dwise -> conv4_7/dwise
I0104 20:52:02.887861  1529 net.cpp:144] Setting up conv4_7/dwise
I0104 20:52:02.887867  1529 net.cpp:151] Top shape: 1 384 23 30 (264960)
I0104 20:52:02.887872  1529 net.cpp:159] Memory required for data: 357891844
I0104 20:52:02.887878  1529 layer_factory.hpp:77] Creating layer conv4_7/dwise/bn
I0104 20:52:02.887892  1529 net.cpp:94] Creating Layer conv4_7/dwise/bn
I0104 20:52:02.887897  1529 net.cpp:435] conv4_7/dwise/bn <- conv4_7/dwise
I0104 20:52:02.887902  1529 net.cpp:409] conv4_7/dwise/bn -> conv4_7/dwise/bn
I0104 20:52:02.888381  1529 net.cpp:144] Setting up conv4_7/dwise/bn
I0104 20:52:02.888388  1529 net.cpp:151] Top shape: 1 384 23 30 (264960)
I0104 20:52:02.888393  1529 net.cpp:159] Memory required for data: 358951684
I0104 20:52:02.888401  1529 layer_factory.hpp:77] Creating layer relu4_7/dwise
I0104 20:52:02.888406  1529 net.cpp:94] Creating Layer relu4_7/dwise
I0104 20:52:02.888411  1529 net.cpp:435] relu4_7/dwise <- conv4_7/dwise/bn
I0104 20:52:02.888414  1529 net.cpp:396] relu4_7/dwise -> conv4_7/dwise/bn (in-place)
I0104 20:52:02.888422  1529 net.cpp:144] Setting up relu4_7/dwise
I0104 20:52:02.888424  1529 net.cpp:151] Top shape: 1 384 23 30 (264960)
I0104 20:52:02.888428  1529 net.cpp:159] Memory required for data: 360011524
I0104 20:52:02.888432  1529 layer_factory.hpp:77] Creating layer conv4_7/linear
I0104 20:52:02.888437  1529 net.cpp:94] Creating Layer conv4_7/linear
I0104 20:52:02.888442  1529 net.cpp:435] conv4_7/linear <- conv4_7/dwise/bn
I0104 20:52:02.888447  1529 net.cpp:409] conv4_7/linear -> conv4_7/linear
I0104 20:52:02.889636  1529 net.cpp:144] Setting up conv4_7/linear
I0104 20:52:02.889647  1529 net.cpp:151] Top shape: 1 96 23 30 (66240)
I0104 20:52:02.889667  1529 net.cpp:159] Memory required for data: 360276484
I0104 20:52:02.889673  1529 layer_factory.hpp:77] Creating layer conv4_7/linear/bn
I0104 20:52:02.889681  1529 net.cpp:94] Creating Layer conv4_7/linear/bn
I0104 20:52:02.889685  1529 net.cpp:435] conv4_7/linear/bn <- conv4_7/linear
I0104 20:52:02.889691  1529 net.cpp:409] conv4_7/linear/bn -> conv4_7/linear/bn
I0104 20:52:02.890297  1529 net.cpp:144] Setting up conv4_7/linear/bn
I0104 20:52:02.890305  1529 net.cpp:151] Top shape: 1 96 23 30 (66240)
I0104 20:52:02.890311  1529 net.cpp:159] Memory required for data: 360541444
I0104 20:52:02.890334  1529 layer_factory.hpp:77] Creating layer conv4_7/linear/bn_conv4_7/linear/bn_0_split
I0104 20:52:02.890339  1529 net.cpp:94] Creating Layer conv4_7/linear/bn_conv4_7/linear/bn_0_split
I0104 20:52:02.890343  1529 net.cpp:435] conv4_7/linear/bn_conv4_7/linear/bn_0_split <- conv4_7/linear/bn
I0104 20:52:02.890348  1529 net.cpp:409] conv4_7/linear/bn_conv4_7/linear/bn_0_split -> conv4_7/linear/bn_conv4_7/linear/bn_0_split_0
I0104 20:52:02.890365  1529 net.cpp:409] conv4_7/linear/bn_conv4_7/linear/bn_0_split -> conv4_7/linear/bn_conv4_7/linear/bn_0_split_1
I0104 20:52:02.890394  1529 net.cpp:144] Setting up conv4_7/linear/bn_conv4_7/linear/bn_0_split
I0104 20:52:02.890399  1529 net.cpp:151] Top shape: 1 96 23 30 (66240)
I0104 20:52:02.890404  1529 net.cpp:151] Top shape: 1 96 23 30 (66240)
I0104 20:52:02.890408  1529 net.cpp:159] Memory required for data: 361071364
I0104 20:52:02.890411  1529 layer_factory.hpp:77] Creating layer conv5_1/expand
I0104 20:52:02.890419  1529 net.cpp:94] Creating Layer conv5_1/expand
I0104 20:52:02.890422  1529 net.cpp:435] conv5_1/expand <- conv4_7/linear/bn_conv4_7/linear/bn_0_split_0
I0104 20:52:02.890427  1529 net.cpp:409] conv5_1/expand -> conv5_1/expand
I0104 20:52:02.891140  1529 net.cpp:144] Setting up conv5_1/expand
I0104 20:52:02.891149  1529 net.cpp:151] Top shape: 1 576 23 30 (397440)
I0104 20:52:02.891170  1529 net.cpp:159] Memory required for data: 362661124
I0104 20:52:02.891175  1529 layer_factory.hpp:77] Creating layer conv5_1/expand/bn
I0104 20:52:02.891182  1529 net.cpp:94] Creating Layer conv5_1/expand/bn
I0104 20:52:02.891186  1529 net.cpp:435] conv5_1/expand/bn <- conv5_1/expand
I0104 20:52:02.891192  1529 net.cpp:409] conv5_1/expand/bn -> conv5_1/expand/bn
I0104 20:52:02.891788  1529 net.cpp:144] Setting up conv5_1/expand/bn
I0104 20:52:02.891795  1529 net.cpp:151] Top shape: 1 576 23 30 (397440)
I0104 20:52:02.891801  1529 net.cpp:159] Memory required for data: 364250884
I0104 20:52:02.891809  1529 layer_factory.hpp:77] Creating layer relu5_1/expand
I0104 20:52:02.891815  1529 net.cpp:94] Creating Layer relu5_1/expand
I0104 20:52:02.891819  1529 net.cpp:435] relu5_1/expand <- conv5_1/expand/bn
I0104 20:52:02.891824  1529 net.cpp:396] relu5_1/expand -> conv5_1/expand/bn (in-place)
I0104 20:52:02.891830  1529 net.cpp:144] Setting up relu5_1/expand
I0104 20:52:02.891834  1529 net.cpp:151] Top shape: 1 576 23 30 (397440)
I0104 20:52:02.891837  1529 net.cpp:159] Memory required for data: 365840644
I0104 20:52:02.891841  1529 layer_factory.hpp:77] Creating layer conv5_1/dwise
I0104 20:52:02.891849  1529 net.cpp:94] Creating Layer conv5_1/dwise
I0104 20:52:02.891851  1529 net.cpp:435] conv5_1/dwise <- conv5_1/expand/bn
I0104 20:52:02.891856  1529 net.cpp:409] conv5_1/dwise -> conv5_1/dwise
I0104 20:52:02.892098  1529 net.cpp:144] Setting up conv5_1/dwise
I0104 20:52:02.892107  1529 net.cpp:151] Top shape: 1 576 23 30 (397440)
I0104 20:52:02.892112  1529 net.cpp:159] Memory required for data: 367430404
I0104 20:52:02.892117  1529 layer_factory.hpp:77] Creating layer conv5_1/dwise/bn
I0104 20:52:02.892124  1529 net.cpp:94] Creating Layer conv5_1/dwise/bn
I0104 20:52:02.892128  1529 net.cpp:435] conv5_1/dwise/bn <- conv5_1/dwise
I0104 20:52:02.892133  1529 net.cpp:409] conv5_1/dwise/bn -> conv5_1/dwise/bn
I0104 20:52:02.893059  1529 net.cpp:144] Setting up conv5_1/dwise/bn
I0104 20:52:02.893069  1529 net.cpp:151] Top shape: 1 576 23 30 (397440)
I0104 20:52:02.893074  1529 net.cpp:159] Memory required for data: 369020164
I0104 20:52:02.893081  1529 layer_factory.hpp:77] Creating layer relu5_1/dwise
I0104 20:52:02.893087  1529 net.cpp:94] Creating Layer relu5_1/dwise
I0104 20:52:02.893090  1529 net.cpp:435] relu5_1/dwise <- conv5_1/dwise/bn
I0104 20:52:02.893095  1529 net.cpp:396] relu5_1/dwise -> conv5_1/dwise/bn (in-place)
I0104 20:52:02.893101  1529 net.cpp:144] Setting up relu5_1/dwise
I0104 20:52:02.893105  1529 net.cpp:151] Top shape: 1 576 23 30 (397440)
I0104 20:52:02.893110  1529 net.cpp:159] Memory required for data: 370609924
I0104 20:52:02.893112  1529 layer_factory.hpp:77] Creating layer conv5_1/linear
I0104 20:52:02.893119  1529 net.cpp:94] Creating Layer conv5_1/linear
I0104 20:52:02.893122  1529 net.cpp:435] conv5_1/linear <- conv5_1/dwise/bn
I0104 20:52:02.893127  1529 net.cpp:409] conv5_1/linear -> conv5_1/linear
I0104 20:52:02.893771  1529 net.cpp:144] Setting up conv5_1/linear
I0104 20:52:02.893779  1529 net.cpp:151] Top shape: 1 96 23 30 (66240)
I0104 20:52:02.893784  1529 net.cpp:159] Memory required for data: 370874884
I0104 20:52:02.893790  1529 layer_factory.hpp:77] Creating layer conv5_1/linear/bn
I0104 20:52:02.893796  1529 net.cpp:94] Creating Layer conv5_1/linear/bn
I0104 20:52:02.893800  1529 net.cpp:435] conv5_1/linear/bn <- conv5_1/linear
I0104 20:52:02.893805  1529 net.cpp:409] conv5_1/linear/bn -> conv5_1/linear/bn
I0104 20:52:02.894387  1529 net.cpp:144] Setting up conv5_1/linear/bn
I0104 20:52:02.894410  1529 net.cpp:151] Top shape: 1 96 23 30 (66240)
I0104 20:52:02.894415  1529 net.cpp:159] Memory required for data: 371139844
I0104 20:52:02.894439  1529 layer_factory.hpp:77] Creating layer block_5_1
I0104 20:52:02.894445  1529 net.cpp:94] Creating Layer block_5_1
I0104 20:52:02.894449  1529 net.cpp:435] block_5_1 <- conv4_7/linear/bn_conv4_7/linear/bn_0_split_1
I0104 20:52:02.894454  1529 net.cpp:435] block_5_1 <- conv5_1/linear/bn
I0104 20:52:02.894459  1529 net.cpp:409] block_5_1 -> block_5_1
I0104 20:52:02.894479  1529 net.cpp:144] Setting up block_5_1
I0104 20:52:02.894487  1529 net.cpp:151] Top shape: 1 96 23 30 (66240)
I0104 20:52:02.894491  1529 net.cpp:159] Memory required for data: 371404804
I0104 20:52:02.894495  1529 layer_factory.hpp:77] Creating layer block_5_1_block_5_1_0_split
I0104 20:52:02.894500  1529 net.cpp:94] Creating Layer block_5_1_block_5_1_0_split
I0104 20:52:02.894503  1529 net.cpp:435] block_5_1_block_5_1_0_split <- block_5_1
I0104 20:52:02.894507  1529 net.cpp:409] block_5_1_block_5_1_0_split -> block_5_1_block_5_1_0_split_0
I0104 20:52:02.894513  1529 net.cpp:409] block_5_1_block_5_1_0_split -> block_5_1_block_5_1_0_split_1
I0104 20:52:02.894539  1529 net.cpp:144] Setting up block_5_1_block_5_1_0_split
I0104 20:52:02.894546  1529 net.cpp:151] Top shape: 1 96 23 30 (66240)
I0104 20:52:02.894549  1529 net.cpp:151] Top shape: 1 96 23 30 (66240)
I0104 20:52:02.894553  1529 net.cpp:159] Memory required for data: 371934724
I0104 20:52:02.894556  1529 layer_factory.hpp:77] Creating layer conv5_2/expand
I0104 20:52:02.894563  1529 net.cpp:94] Creating Layer conv5_2/expand
I0104 20:52:02.894567  1529 net.cpp:435] conv5_2/expand <- block_5_1_block_5_1_0_split_0
I0104 20:52:02.894572  1529 net.cpp:409] conv5_2/expand -> conv5_2/expand
I0104 20:52:02.895231  1529 net.cpp:144] Setting up conv5_2/expand
I0104 20:52:02.895238  1529 net.cpp:151] Top shape: 1 576 23 30 (397440)
I0104 20:52:02.895259  1529 net.cpp:159] Memory required for data: 373524484
I0104 20:52:02.895264  1529 layer_factory.hpp:77] Creating layer conv5_2/expand/bn
I0104 20:52:02.895272  1529 net.cpp:94] Creating Layer conv5_2/expand/bn
I0104 20:52:02.895275  1529 net.cpp:435] conv5_2/expand/bn <- conv5_2/expand
I0104 20:52:02.895282  1529 net.cpp:409] conv5_2/expand/bn -> conv5_2/expand/bn
I0104 20:52:02.895843  1529 net.cpp:144] Setting up conv5_2/expand/bn
I0104 20:52:02.895851  1529 net.cpp:151] Top shape: 1 576 23 30 (397440)
I0104 20:52:02.895856  1529 net.cpp:159] Memory required for data: 375114244
I0104 20:52:02.895864  1529 layer_factory.hpp:77] Creating layer relu5_2/expand
I0104 20:52:02.895869  1529 net.cpp:94] Creating Layer relu5_2/expand
I0104 20:52:02.895874  1529 net.cpp:435] relu5_2/expand <- conv5_2/expand/bn
I0104 20:52:02.895877  1529 net.cpp:396] relu5_2/expand -> conv5_2/expand/bn (in-place)
I0104 20:52:02.895884  1529 net.cpp:144] Setting up relu5_2/expand
I0104 20:52:02.895887  1529 net.cpp:151] Top shape: 1 576 23 30 (397440)
I0104 20:52:02.895891  1529 net.cpp:159] Memory required for data: 376704004
I0104 20:52:02.895895  1529 layer_factory.hpp:77] Creating layer conv5_2/dwise
I0104 20:52:02.895901  1529 net.cpp:94] Creating Layer conv5_2/dwise
I0104 20:52:02.895905  1529 net.cpp:435] conv5_2/dwise <- conv5_2/expand/bn
I0104 20:52:02.895910  1529 net.cpp:409] conv5_2/dwise -> conv5_2/dwise
I0104 20:52:02.896169  1529 net.cpp:144] Setting up conv5_2/dwise
I0104 20:52:02.896178  1529 net.cpp:151] Top shape: 1 576 23 30 (397440)
I0104 20:52:02.896183  1529 net.cpp:159] Memory required for data: 378293764
I0104 20:52:02.896188  1529 layer_factory.hpp:77] Creating layer conv5_2/dwise/bn
I0104 20:52:02.896195  1529 net.cpp:94] Creating Layer conv5_2/dwise/bn
I0104 20:52:02.896199  1529 net.cpp:435] conv5_2/dwise/bn <- conv5_2/dwise
I0104 20:52:02.896205  1529 net.cpp:409] conv5_2/dwise/bn -> conv5_2/dwise/bn
I0104 20:52:02.896759  1529 net.cpp:144] Setting up conv5_2/dwise/bn
I0104 20:52:02.896767  1529 net.cpp:151] Top shape: 1 576 23 30 (397440)
I0104 20:52:02.896772  1529 net.cpp:159] Memory required for data: 379883524
I0104 20:52:02.896780  1529 layer_factory.hpp:77] Creating layer relu5_2/dwise
I0104 20:52:02.896786  1529 net.cpp:94] Creating Layer relu5_2/dwise
I0104 20:52:02.896790  1529 net.cpp:435] relu5_2/dwise <- conv5_2/dwise/bn
I0104 20:52:02.896795  1529 net.cpp:396] relu5_2/dwise -> conv5_2/dwise/bn (in-place)
I0104 20:52:02.896800  1529 net.cpp:144] Setting up relu5_2/dwise
I0104 20:52:02.896803  1529 net.cpp:151] Top shape: 1 576 23 30 (397440)
I0104 20:52:02.896807  1529 net.cpp:159] Memory required for data: 381473284
I0104 20:52:02.896811  1529 layer_factory.hpp:77] Creating layer conv5_2/linear
I0104 20:52:02.896817  1529 net.cpp:94] Creating Layer conv5_2/linear
I0104 20:52:02.896821  1529 net.cpp:435] conv5_2/linear <- conv5_2/dwise/bn
I0104 20:52:02.896826  1529 net.cpp:409] conv5_2/linear -> conv5_2/linear
I0104 20:52:02.898169  1529 net.cpp:144] Setting up conv5_2/linear
I0104 20:52:02.898180  1529 net.cpp:151] Top shape: 1 96 23 30 (66240)
I0104 20:52:02.898201  1529 net.cpp:159] Memory required for data: 381738244
I0104 20:52:02.898206  1529 layer_factory.hpp:77] Creating layer conv5_2/linear/bn
I0104 20:52:02.898214  1529 net.cpp:94] Creating Layer conv5_2/linear/bn
I0104 20:52:02.898218  1529 net.cpp:435] conv5_2/linear/bn <- conv5_2/linear
I0104 20:52:02.898224  1529 net.cpp:409] conv5_2/linear/bn -> conv5_2/linear/bn
I0104 20:52:02.898824  1529 net.cpp:144] Setting up conv5_2/linear/bn
I0104 20:52:02.898833  1529 net.cpp:151] Top shape: 1 96 23 30 (66240)
I0104 20:52:02.898839  1529 net.cpp:159] Memory required for data: 382003204
I0104 20:52:02.898847  1529 layer_factory.hpp:77] Creating layer block_5_2
I0104 20:52:02.898854  1529 net.cpp:94] Creating Layer block_5_2
I0104 20:52:02.898857  1529 net.cpp:435] block_5_2 <- block_5_1_block_5_1_0_split_1
I0104 20:52:02.898861  1529 net.cpp:435] block_5_2 <- conv5_2/linear/bn
I0104 20:52:02.898866  1529 net.cpp:409] block_5_2 -> block_5_2
I0104 20:52:02.898886  1529 net.cpp:144] Setting up block_5_2
I0104 20:52:02.898890  1529 net.cpp:151] Top shape: 1 96 23 30 (66240)
I0104 20:52:02.898895  1529 net.cpp:159] Memory required for data: 382268164
I0104 20:52:02.898897  1529 layer_factory.hpp:77] Creating layer conv5_3/expand
I0104 20:52:02.898905  1529 net.cpp:94] Creating Layer conv5_3/expand
I0104 20:52:02.898908  1529 net.cpp:435] conv5_3/expand <- block_5_2
I0104 20:52:02.898913  1529 net.cpp:409] conv5_3/expand -> conv5_3/expand
I0104 20:52:02.899580  1529 net.cpp:144] Setting up conv5_3/expand
I0104 20:52:02.899586  1529 net.cpp:151] Top shape: 1 576 23 30 (397440)
I0104 20:52:02.899591  1529 net.cpp:159] Memory required for data: 383857924
I0104 20:52:02.899612  1529 layer_factory.hpp:77] Creating layer conv5_3/expand/bn
I0104 20:52:02.899621  1529 net.cpp:94] Creating Layer conv5_3/expand/bn
I0104 20:52:02.899623  1529 net.cpp:435] conv5_3/expand/bn <- conv5_3/expand
I0104 20:52:02.899629  1529 net.cpp:409] conv5_3/expand/bn -> conv5_3/expand/bn
I0104 20:52:02.900238  1529 net.cpp:144] Setting up conv5_3/expand/bn
I0104 20:52:02.900246  1529 net.cpp:151] Top shape: 1 576 23 30 (397440)
I0104 20:52:02.900252  1529 net.cpp:159] Memory required for data: 385447684
I0104 20:52:02.900260  1529 layer_factory.hpp:77] Creating layer relu5_3/expand
I0104 20:52:02.900269  1529 net.cpp:94] Creating Layer relu5_3/expand
I0104 20:52:02.900274  1529 net.cpp:435] relu5_3/expand <- conv5_3/expand/bn
I0104 20:52:02.900290  1529 net.cpp:396] relu5_3/expand -> conv5_3/expand/bn (in-place)
I0104 20:52:02.900296  1529 net.cpp:144] Setting up relu5_3/expand
I0104 20:52:02.900300  1529 net.cpp:151] Top shape: 1 576 23 30 (397440)
I0104 20:52:02.900303  1529 net.cpp:159] Memory required for data: 387037444
I0104 20:52:02.900307  1529 layer_factory.hpp:77] Creating layer conv5_3/expand/bn_relu5_3/expand_0_split
I0104 20:52:02.900312  1529 net.cpp:94] Creating Layer conv5_3/expand/bn_relu5_3/expand_0_split
I0104 20:52:02.900315  1529 net.cpp:435] conv5_3/expand/bn_relu5_3/expand_0_split <- conv5_3/expand/bn
I0104 20:52:02.900321  1529 net.cpp:409] conv5_3/expand/bn_relu5_3/expand_0_split -> conv5_3/expand/bn_relu5_3/expand_0_split_0
I0104 20:52:02.900326  1529 net.cpp:409] conv5_3/expand/bn_relu5_3/expand_0_split -> conv5_3/expand/bn_relu5_3/expand_0_split_1
I0104 20:52:02.900331  1529 net.cpp:409] conv5_3/expand/bn_relu5_3/expand_0_split -> conv5_3/expand/bn_relu5_3/expand_0_split_2
I0104 20:52:02.900336  1529 net.cpp:409] conv5_3/expand/bn_relu5_3/expand_0_split -> conv5_3/expand/bn_relu5_3/expand_0_split_3
I0104 20:52:02.900382  1529 net.cpp:144] Setting up conv5_3/expand/bn_relu5_3/expand_0_split
I0104 20:52:02.900388  1529 net.cpp:151] Top shape: 1 576 23 30 (397440)
I0104 20:52:02.900393  1529 net.cpp:151] Top shape: 1 576 23 30 (397440)
I0104 20:52:02.900398  1529 net.cpp:151] Top shape: 1 576 23 30 (397440)
I0104 20:52:02.900400  1529 net.cpp:151] Top shape: 1 576 23 30 (397440)
I0104 20:52:02.900404  1529 net.cpp:159] Memory required for data: 393396484
I0104 20:52:02.900408  1529 layer_factory.hpp:77] Creating layer conv5_3/dwise
I0104 20:52:02.900415  1529 net.cpp:94] Creating Layer conv5_3/dwise
I0104 20:52:02.900419  1529 net.cpp:435] conv5_3/dwise <- conv5_3/expand/bn_relu5_3/expand_0_split_0
I0104 20:52:02.900424  1529 net.cpp:409] conv5_3/dwise -> conv5_3/dwise
I0104 20:52:02.900626  1529 net.cpp:144] Setting up conv5_3/dwise
I0104 20:52:02.900632  1529 net.cpp:151] Top shape: 1 576 12 15 (103680)
I0104 20:52:02.900637  1529 net.cpp:159] Memory required for data: 393811204
I0104 20:52:02.900642  1529 layer_factory.hpp:77] Creating layer conv5_3/dwise/bn
I0104 20:52:02.900648  1529 net.cpp:94] Creating Layer conv5_3/dwise/bn
I0104 20:52:02.900652  1529 net.cpp:435] conv5_3/dwise/bn <- conv5_3/dwise
I0104 20:52:02.900658  1529 net.cpp:409] conv5_3/dwise/bn -> conv5_3/dwise/bn
I0104 20:52:02.901202  1529 net.cpp:144] Setting up conv5_3/dwise/bn
I0104 20:52:02.901209  1529 net.cpp:151] Top shape: 1 576 12 15 (103680)
I0104 20:52:02.901214  1529 net.cpp:159] Memory required for data: 394225924
I0104 20:52:02.901221  1529 layer_factory.hpp:77] Creating layer relu5_3/dwise
I0104 20:52:02.901227  1529 net.cpp:94] Creating Layer relu5_3/dwise
I0104 20:52:02.901230  1529 net.cpp:435] relu5_3/dwise <- conv5_3/dwise/bn
I0104 20:52:02.901235  1529 net.cpp:396] relu5_3/dwise -> conv5_3/dwise/bn (in-place)
I0104 20:52:02.901240  1529 net.cpp:144] Setting up relu5_3/dwise
I0104 20:52:02.901244  1529 net.cpp:151] Top shape: 1 576 12 15 (103680)
I0104 20:52:02.901248  1529 net.cpp:159] Memory required for data: 394640644
I0104 20:52:02.901252  1529 layer_factory.hpp:77] Creating layer conv5_3/linear
I0104 20:52:02.901257  1529 net.cpp:94] Creating Layer conv5_3/linear
I0104 20:52:02.901260  1529 net.cpp:435] conv5_3/linear <- conv5_3/dwise/bn
I0104 20:52:02.901265  1529 net.cpp:409] conv5_3/linear -> conv5_3/linear
I0104 20:52:02.902222  1529 net.cpp:144] Setting up conv5_3/linear
I0104 20:52:02.902230  1529 net.cpp:151] Top shape: 1 160 12 15 (28800)
I0104 20:52:02.902235  1529 net.cpp:159] Memory required for data: 394755844
I0104 20:52:02.902240  1529 layer_factory.hpp:77] Creating layer conv5_3/linear/bn
I0104 20:52:02.902246  1529 net.cpp:94] Creating Layer conv5_3/linear/bn
I0104 20:52:02.902251  1529 net.cpp:435] conv5_3/linear/bn <- conv5_3/linear
I0104 20:52:02.902256  1529 net.cpp:409] conv5_3/linear/bn -> conv5_3/linear/bn
I0104 20:52:02.902803  1529 net.cpp:144] Setting up conv5_3/linear/bn
I0104 20:52:02.902810  1529 net.cpp:151] Top shape: 1 160 12 15 (28800)
I0104 20:52:02.902815  1529 net.cpp:159] Memory required for data: 394871044
I0104 20:52:02.902830  1529 layer_factory.hpp:77] Creating layer conv5_3/linear/bn_conv5_3/linear/bn_0_split
I0104 20:52:02.902837  1529 net.cpp:94] Creating Layer conv5_3/linear/bn_conv5_3/linear/bn_0_split
I0104 20:52:02.902840  1529 net.cpp:435] conv5_3/linear/bn_conv5_3/linear/bn_0_split <- conv5_3/linear/bn
I0104 20:52:02.902845  1529 net.cpp:409] conv5_3/linear/bn_conv5_3/linear/bn_0_split -> conv5_3/linear/bn_conv5_3/linear/bn_0_split_0
I0104 20:52:02.902851  1529 net.cpp:409] conv5_3/linear/bn_conv5_3/linear/bn_0_split -> conv5_3/linear/bn_conv5_3/linear/bn_0_split_1
I0104 20:52:02.902879  1529 net.cpp:144] Setting up conv5_3/linear/bn_conv5_3/linear/bn_0_split
I0104 20:52:02.902884  1529 net.cpp:151] Top shape: 1 160 12 15 (28800)
I0104 20:52:02.902889  1529 net.cpp:151] Top shape: 1 160 12 15 (28800)
I0104 20:52:02.902894  1529 net.cpp:159] Memory required for data: 395101444
I0104 20:52:02.902896  1529 layer_factory.hpp:77] Creating layer conv6_1/expand
I0104 20:52:02.902904  1529 net.cpp:94] Creating Layer conv6_1/expand
I0104 20:52:02.902906  1529 net.cpp:435] conv6_1/expand <- conv5_3/linear/bn_conv5_3/linear/bn_0_split_0
I0104 20:52:02.902911  1529 net.cpp:409] conv6_1/expand -> conv6_1/expand
I0104 20:52:02.905117  1529 net.cpp:144] Setting up conv6_1/expand
I0104 20:52:02.905126  1529 net.cpp:151] Top shape: 1 960 12 15 (172800)
I0104 20:52:02.905133  1529 net.cpp:159] Memory required for data: 395792644
I0104 20:52:02.905138  1529 layer_factory.hpp:77] Creating layer conv6_1/expand/bn
I0104 20:52:02.905146  1529 net.cpp:94] Creating Layer conv6_1/expand/bn
I0104 20:52:02.905150  1529 net.cpp:435] conv6_1/expand/bn <- conv6_1/expand
I0104 20:52:02.905156  1529 net.cpp:409] conv6_1/expand/bn -> conv6_1/expand/bn
I0104 20:52:02.906044  1529 net.cpp:144] Setting up conv6_1/expand/bn
I0104 20:52:02.906055  1529 net.cpp:151] Top shape: 1 960 12 15 (172800)
I0104 20:52:02.906061  1529 net.cpp:159] Memory required for data: 396483844
I0104 20:52:02.906069  1529 layer_factory.hpp:77] Creating layer relu6_1/expand
I0104 20:52:02.906075  1529 net.cpp:94] Creating Layer relu6_1/expand
I0104 20:52:02.906080  1529 net.cpp:435] relu6_1/expand <- conv6_1/expand/bn
I0104 20:52:02.906085  1529 net.cpp:396] relu6_1/expand -> conv6_1/expand/bn (in-place)
I0104 20:52:02.906091  1529 net.cpp:144] Setting up relu6_1/expand
I0104 20:52:02.906095  1529 net.cpp:151] Top shape: 1 960 12 15 (172800)
I0104 20:52:02.906100  1529 net.cpp:159] Memory required for data: 397175044
I0104 20:52:02.906102  1529 layer_factory.hpp:77] Creating layer conv6_1/dwise
I0104 20:52:02.906109  1529 net.cpp:94] Creating Layer conv6_1/dwise
I0104 20:52:02.906112  1529 net.cpp:435] conv6_1/dwise <- conv6_1/expand/bn
I0104 20:52:02.906118  1529 net.cpp:409] conv6_1/dwise -> conv6_1/dwise
I0104 20:52:02.906358  1529 net.cpp:144] Setting up conv6_1/dwise
I0104 20:52:02.906365  1529 net.cpp:151] Top shape: 1 960 12 15 (172800)
I0104 20:52:02.906370  1529 net.cpp:159] Memory required for data: 397866244
I0104 20:52:02.906375  1529 layer_factory.hpp:77] Creating layer conv6_1/dwise/bn
I0104 20:52:02.906383  1529 net.cpp:94] Creating Layer conv6_1/dwise/bn
I0104 20:52:02.906386  1529 net.cpp:435] conv6_1/dwise/bn <- conv6_1/dwise
I0104 20:52:02.906391  1529 net.cpp:409] conv6_1/dwise/bn -> conv6_1/dwise/bn
I0104 20:52:02.906949  1529 net.cpp:144] Setting up conv6_1/dwise/bn
I0104 20:52:02.906955  1529 net.cpp:151] Top shape: 1 960 12 15 (172800)
I0104 20:52:02.906960  1529 net.cpp:159] Memory required for data: 398557444
I0104 20:52:02.906968  1529 layer_factory.hpp:77] Creating layer relu6_1/dwise
I0104 20:52:02.906973  1529 net.cpp:94] Creating Layer relu6_1/dwise
I0104 20:52:02.906976  1529 net.cpp:435] relu6_1/dwise <- conv6_1/dwise/bn
I0104 20:52:02.906980  1529 net.cpp:396] relu6_1/dwise -> conv6_1/dwise/bn (in-place)
I0104 20:52:02.906986  1529 net.cpp:144] Setting up relu6_1/dwise
I0104 20:52:02.906989  1529 net.cpp:151] Top shape: 1 960 12 15 (172800)
I0104 20:52:02.906993  1529 net.cpp:159] Memory required for data: 399248644
I0104 20:52:02.906997  1529 layer_factory.hpp:77] Creating layer conv6_1/linear
I0104 20:52:02.907003  1529 net.cpp:94] Creating Layer conv6_1/linear
I0104 20:52:02.907006  1529 net.cpp:435] conv6_1/linear <- conv6_1/dwise/bn
I0104 20:52:02.907011  1529 net.cpp:409] conv6_1/linear -> conv6_1/linear
I0104 20:52:02.909186  1529 net.cpp:144] Setting up conv6_1/linear
I0104 20:52:02.909200  1529 net.cpp:151] Top shape: 1 160 12 15 (28800)
I0104 20:52:02.909209  1529 net.cpp:159] Memory required for data: 399363844
I0104 20:52:02.909217  1529 layer_factory.hpp:77] Creating layer conv6_1/linear/bn
I0104 20:52:02.909227  1529 net.cpp:94] Creating Layer conv6_1/linear/bn
I0104 20:52:02.909235  1529 net.cpp:435] conv6_1/linear/bn <- conv6_1/linear
I0104 20:52:02.909243  1529 net.cpp:409] conv6_1/linear/bn -> conv6_1/linear/bn
I0104 20:52:02.909947  1529 net.cpp:144] Setting up conv6_1/linear/bn
I0104 20:52:02.909957  1529 net.cpp:151] Top shape: 1 160 12 15 (28800)
I0104 20:52:02.909962  1529 net.cpp:159] Memory required for data: 399479044
I0104 20:52:02.909970  1529 layer_factory.hpp:77] Creating layer block_6_1
I0104 20:52:02.909977  1529 net.cpp:94] Creating Layer block_6_1
I0104 20:52:02.909981  1529 net.cpp:435] block_6_1 <- conv5_3/linear/bn_conv5_3/linear/bn_0_split_1
I0104 20:52:02.909986  1529 net.cpp:435] block_6_1 <- conv6_1/linear/bn
I0104 20:52:02.909991  1529 net.cpp:409] block_6_1 -> block_6_1
I0104 20:52:02.910010  1529 net.cpp:144] Setting up block_6_1
I0104 20:52:02.910014  1529 net.cpp:151] Top shape: 1 160 12 15 (28800)
I0104 20:52:02.910019  1529 net.cpp:159] Memory required for data: 399594244
I0104 20:52:02.910022  1529 layer_factory.hpp:77] Creating layer block_6_1_block_6_1_0_split
I0104 20:52:02.910027  1529 net.cpp:94] Creating Layer block_6_1_block_6_1_0_split
I0104 20:52:02.910030  1529 net.cpp:435] block_6_1_block_6_1_0_split <- block_6_1
I0104 20:52:02.910035  1529 net.cpp:409] block_6_1_block_6_1_0_split -> block_6_1_block_6_1_0_split_0
I0104 20:52:02.910041  1529 net.cpp:409] block_6_1_block_6_1_0_split -> block_6_1_block_6_1_0_split_1
I0104 20:52:02.910068  1529 net.cpp:144] Setting up block_6_1_block_6_1_0_split
I0104 20:52:02.910079  1529 net.cpp:151] Top shape: 1 160 12 15 (28800)
I0104 20:52:02.910082  1529 net.cpp:151] Top shape: 1 160 12 15 (28800)
I0104 20:52:02.910086  1529 net.cpp:159] Memory required for data: 399824644
I0104 20:52:02.910089  1529 layer_factory.hpp:77] Creating layer conv6_2/expand
I0104 20:52:02.910096  1529 net.cpp:94] Creating Layer conv6_2/expand
I0104 20:52:02.910100  1529 net.cpp:435] conv6_2/expand <- block_6_1_block_6_1_0_split_0
I0104 20:52:02.910105  1529 net.cpp:409] conv6_2/expand -> conv6_2/expand
I0104 20:52:02.911582  1529 net.cpp:144] Setting up conv6_2/expand
I0104 20:52:02.911590  1529 net.cpp:151] Top shape: 1 960 12 15 (172800)
I0104 20:52:02.911595  1529 net.cpp:159] Memory required for data: 400515844
I0104 20:52:02.911600  1529 layer_factory.hpp:77] Creating layer conv6_2/expand/bn
I0104 20:52:02.911607  1529 net.cpp:94] Creating Layer conv6_2/expand/bn
I0104 20:52:02.911612  1529 net.cpp:435] conv6_2/expand/bn <- conv6_2/expand
I0104 20:52:02.911617  1529 net.cpp:409] conv6_2/expand/bn -> conv6_2/expand/bn
I0104 20:52:02.912303  1529 net.cpp:144] Setting up conv6_2/expand/bn
I0104 20:52:02.912310  1529 net.cpp:151] Top shape: 1 960 12 15 (172800)
I0104 20:52:02.912315  1529 net.cpp:159] Memory required for data: 401207044
I0104 20:52:02.912323  1529 layer_factory.hpp:77] Creating layer relu6_2/expand
I0104 20:52:02.912328  1529 net.cpp:94] Creating Layer relu6_2/expand
I0104 20:52:02.912333  1529 net.cpp:435] relu6_2/expand <- conv6_2/expand/bn
I0104 20:52:02.912336  1529 net.cpp:396] relu6_2/expand -> conv6_2/expand/bn (in-place)
I0104 20:52:02.912343  1529 net.cpp:144] Setting up relu6_2/expand
I0104 20:52:02.912346  1529 net.cpp:151] Top shape: 1 960 12 15 (172800)
I0104 20:52:02.912350  1529 net.cpp:159] Memory required for data: 401898244
I0104 20:52:02.912353  1529 layer_factory.hpp:77] Creating layer conv6_2/dwise
I0104 20:52:02.912360  1529 net.cpp:94] Creating Layer conv6_2/dwise
I0104 20:52:02.912364  1529 net.cpp:435] conv6_2/dwise <- conv6_2/expand/bn
I0104 20:52:02.912369  1529 net.cpp:409] conv6_2/dwise -> conv6_2/dwise
I0104 20:52:02.912607  1529 net.cpp:144] Setting up conv6_2/dwise
I0104 20:52:02.912613  1529 net.cpp:151] Top shape: 1 960 12 15 (172800)
I0104 20:52:02.912618  1529 net.cpp:159] Memory required for data: 402589444
I0104 20:52:02.912623  1529 layer_factory.hpp:77] Creating layer conv6_2/dwise/bn
I0104 20:52:02.912629  1529 net.cpp:94] Creating Layer conv6_2/dwise/bn
I0104 20:52:02.912633  1529 net.cpp:435] conv6_2/dwise/bn <- conv6_2/dwise
I0104 20:52:02.912638  1529 net.cpp:409] conv6_2/dwise/bn -> conv6_2/dwise/bn
I0104 20:52:02.913338  1529 net.cpp:144] Setting up conv6_2/dwise/bn
I0104 20:52:02.913344  1529 net.cpp:151] Top shape: 1 960 12 15 (172800)
I0104 20:52:02.913349  1529 net.cpp:159] Memory required for data: 403280644
I0104 20:52:02.913357  1529 layer_factory.hpp:77] Creating layer relu6_2/dwise
I0104 20:52:02.913362  1529 net.cpp:94] Creating Layer relu6_2/dwise
I0104 20:52:02.913365  1529 net.cpp:435] relu6_2/dwise <- conv6_2/dwise/bn
I0104 20:52:02.913370  1529 net.cpp:396] relu6_2/dwise -> conv6_2/dwise/bn (in-place)
I0104 20:52:02.913375  1529 net.cpp:144] Setting up relu6_2/dwise
I0104 20:52:02.913378  1529 net.cpp:151] Top shape: 1 960 12 15 (172800)
I0104 20:52:02.913383  1529 net.cpp:159] Memory required for data: 403971844
I0104 20:52:02.913386  1529 layer_factory.hpp:77] Creating layer conv6_2/linear
I0104 20:52:02.913393  1529 net.cpp:94] Creating Layer conv6_2/linear
I0104 20:52:02.913395  1529 net.cpp:435] conv6_2/linear <- conv6_2/dwise/bn
I0104 20:52:02.913400  1529 net.cpp:409] conv6_2/linear -> conv6_2/linear
I0104 20:52:02.915511  1529 net.cpp:144] Setting up conv6_2/linear
I0104 20:52:02.915520  1529 net.cpp:151] Top shape: 1 160 12 15 (28800)
I0104 20:52:02.915542  1529 net.cpp:159] Memory required for data: 404087044
I0104 20:52:02.915547  1529 layer_factory.hpp:77] Creating layer conv6_2/linear/bn
I0104 20:52:02.915555  1529 net.cpp:94] Creating Layer conv6_2/linear/bn
I0104 20:52:02.915560  1529 net.cpp:435] conv6_2/linear/bn <- conv6_2/linear
I0104 20:52:02.915565  1529 net.cpp:409] conv6_2/linear/bn -> conv6_2/linear/bn
I0104 20:52:02.916169  1529 net.cpp:144] Setting up conv6_2/linear/bn
I0104 20:52:02.916177  1529 net.cpp:151] Top shape: 1 160 12 15 (28800)
I0104 20:52:02.916182  1529 net.cpp:159] Memory required for data: 404202244
I0104 20:52:02.916190  1529 layer_factory.hpp:77] Creating layer block_6_2
I0104 20:52:02.916196  1529 net.cpp:94] Creating Layer block_6_2
I0104 20:52:02.916200  1529 net.cpp:435] block_6_2 <- block_6_1_block_6_1_0_split_1
I0104 20:52:02.916204  1529 net.cpp:435] block_6_2 <- conv6_2/linear/bn
I0104 20:52:02.916209  1529 net.cpp:409] block_6_2 -> block_6_2
I0104 20:52:02.916230  1529 net.cpp:144] Setting up block_6_2
I0104 20:52:02.916234  1529 net.cpp:151] Top shape: 1 160 12 15 (28800)
I0104 20:52:02.916239  1529 net.cpp:159] Memory required for data: 404317444
I0104 20:52:02.916241  1529 layer_factory.hpp:77] Creating layer conv6_3/expand
I0104 20:52:02.916249  1529 net.cpp:94] Creating Layer conv6_3/expand
I0104 20:52:02.916252  1529 net.cpp:435] conv6_3/expand <- block_6_2
I0104 20:52:02.916256  1529 net.cpp:409] conv6_3/expand -> conv6_3/expand
I0104 20:52:02.918783  1529 net.cpp:144] Setting up conv6_3/expand
I0104 20:52:02.918795  1529 net.cpp:151] Top shape: 1 960 12 15 (172800)
I0104 20:52:02.918817  1529 net.cpp:159] Memory required for data: 405008644
I0104 20:52:02.918823  1529 layer_factory.hpp:77] Creating layer conv6_3/expand/bn
I0104 20:52:02.918831  1529 net.cpp:94] Creating Layer conv6_3/expand/bn
I0104 20:52:02.918836  1529 net.cpp:435] conv6_3/expand/bn <- conv6_3/expand
I0104 20:52:02.918843  1529 net.cpp:409] conv6_3/expand/bn -> conv6_3/expand/bn
I0104 20:52:02.919412  1529 net.cpp:144] Setting up conv6_3/expand/bn
I0104 20:52:02.919420  1529 net.cpp:151] Top shape: 1 960 12 15 (172800)
I0104 20:52:02.919425  1529 net.cpp:159] Memory required for data: 405699844
I0104 20:52:02.919433  1529 layer_factory.hpp:77] Creating layer relu6_3/expand
I0104 20:52:02.919438  1529 net.cpp:94] Creating Layer relu6_3/expand
I0104 20:52:02.919442  1529 net.cpp:435] relu6_3/expand <- conv6_3/expand/bn
I0104 20:52:02.919446  1529 net.cpp:396] relu6_3/expand -> conv6_3/expand/bn (in-place)
I0104 20:52:02.919452  1529 net.cpp:144] Setting up relu6_3/expand
I0104 20:52:02.919456  1529 net.cpp:151] Top shape: 1 960 12 15 (172800)
I0104 20:52:02.919459  1529 net.cpp:159] Memory required for data: 406391044
I0104 20:52:02.919463  1529 layer_factory.hpp:77] Creating layer conv6_3/dwise
I0104 20:52:02.919471  1529 net.cpp:94] Creating Layer conv6_3/dwise
I0104 20:52:02.919473  1529 net.cpp:435] conv6_3/dwise <- conv6_3/expand/bn
I0104 20:52:02.919478  1529 net.cpp:409] conv6_3/dwise -> conv6_3/dwise
I0104 20:52:02.919726  1529 net.cpp:144] Setting up conv6_3/dwise
I0104 20:52:02.919734  1529 net.cpp:151] Top shape: 1 960 12 15 (172800)
I0104 20:52:02.919739  1529 net.cpp:159] Memory required for data: 407082244
I0104 20:52:02.919744  1529 layer_factory.hpp:77] Creating layer conv6_3/dwise/bn
I0104 20:52:02.919751  1529 net.cpp:94] Creating Layer conv6_3/dwise/bn
I0104 20:52:02.919755  1529 net.cpp:435] conv6_3/dwise/bn <- conv6_3/dwise
I0104 20:52:02.919760  1529 net.cpp:409] conv6_3/dwise/bn -> conv6_3/dwise/bn
I0104 20:52:02.920331  1529 net.cpp:144] Setting up conv6_3/dwise/bn
I0104 20:52:02.920336  1529 net.cpp:151] Top shape: 1 960 12 15 (172800)
I0104 20:52:02.920341  1529 net.cpp:159] Memory required for data: 407773444
I0104 20:52:02.920365  1529 layer_factory.hpp:77] Creating layer relu6_3/dwise
I0104 20:52:02.920370  1529 net.cpp:94] Creating Layer relu6_3/dwise
I0104 20:52:02.920374  1529 net.cpp:435] relu6_3/dwise <- conv6_3/dwise/bn
I0104 20:52:02.920378  1529 net.cpp:396] relu6_3/dwise -> conv6_3/dwise/bn (in-place)
I0104 20:52:02.920384  1529 net.cpp:144] Setting up relu6_3/dwise
I0104 20:52:02.920387  1529 net.cpp:151] Top shape: 1 960 12 15 (172800)
I0104 20:52:02.920392  1529 net.cpp:159] Memory required for data: 408464644
I0104 20:52:02.920394  1529 layer_factory.hpp:77] Creating layer conv6_3/linear
I0104 20:52:02.920400  1529 net.cpp:94] Creating Layer conv6_3/linear
I0104 20:52:02.920404  1529 net.cpp:435] conv6_3/linear <- conv6_3/dwise/bn
I0104 20:52:02.920409  1529 net.cpp:409] conv6_3/linear -> conv6_3/linear
I0104 20:52:02.924062  1529 net.cpp:144] Setting up conv6_3/linear
I0104 20:52:02.924073  1529 net.cpp:151] Top shape: 1 320 12 15 (57600)
I0104 20:52:02.924079  1529 net.cpp:159] Memory required for data: 408695044
I0104 20:52:02.924085  1529 layer_factory.hpp:77] Creating layer conv6_3/linear/bn
I0104 20:52:02.924093  1529 net.cpp:94] Creating Layer conv6_3/linear/bn
I0104 20:52:02.924098  1529 net.cpp:435] conv6_3/linear/bn <- conv6_3/linear
I0104 20:52:02.924103  1529 net.cpp:409] conv6_3/linear/bn -> conv6_3/linear/bn
I0104 20:52:02.924664  1529 net.cpp:144] Setting up conv6_3/linear/bn
I0104 20:52:02.924672  1529 net.cpp:151] Top shape: 1 320 12 15 (57600)
I0104 20:52:02.924677  1529 net.cpp:159] Memory required for data: 408925444
I0104 20:52:02.924687  1529 layer_factory.hpp:77] Creating layer conv6_4
I0104 20:52:02.924695  1529 net.cpp:94] Creating Layer conv6_4
I0104 20:52:02.924698  1529 net.cpp:435] conv6_4 <- conv6_3/linear/bn
I0104 20:52:02.924703  1529 net.cpp:409] conv6_4 -> conv6_4
I0104 20:52:02.929973  1529 net.cpp:144] Setting up conv6_4
I0104 20:52:02.929982  1529 net.cpp:151] Top shape: 1 1280 12 15 (230400)
I0104 20:52:02.930004  1529 net.cpp:159] Memory required for data: 409847044
I0104 20:52:02.930009  1529 layer_factory.hpp:77] Creating layer conv6_4/bn
I0104 20:52:02.930017  1529 net.cpp:94] Creating Layer conv6_4/bn
I0104 20:52:02.930022  1529 net.cpp:435] conv6_4/bn <- conv6_4
I0104 20:52:02.930027  1529 net.cpp:409] conv6_4/bn -> conv6_4/bn
I0104 20:52:02.930531  1529 net.cpp:144] Setting up conv6_4/bn
I0104 20:52:02.930539  1529 net.cpp:151] Top shape: 1 1280 12 15 (230400)
I0104 20:52:02.930546  1529 net.cpp:159] Memory required for data: 410768644
I0104 20:52:02.930553  1529 layer_factory.hpp:77] Creating layer relu7
I0104 20:52:02.930558  1529 net.cpp:94] Creating Layer relu7
I0104 20:52:02.930562  1529 net.cpp:435] relu7 <- conv6_4/bn
I0104 20:52:02.930567  1529 net.cpp:409] relu7 -> fc7
I0104 20:52:02.930588  1529 net.cpp:144] Setting up relu7
I0104 20:52:02.930593  1529 net.cpp:151] Top shape: 1 1280 12 15 (230400)
I0104 20:52:02.930598  1529 net.cpp:159] Memory required for data: 411690244
I0104 20:52:02.930600  1529 layer_factory.hpp:77] Creating layer fc7_relu7_0_split
I0104 20:52:02.930606  1529 net.cpp:94] Creating Layer fc7_relu7_0_split
I0104 20:52:02.930609  1529 net.cpp:435] fc7_relu7_0_split <- fc7
I0104 20:52:02.930614  1529 net.cpp:409] fc7_relu7_0_split -> fc7_relu7_0_split_0
I0104 20:52:02.930620  1529 net.cpp:409] fc7_relu7_0_split -> fc7_relu7_0_split_1
I0104 20:52:02.930625  1529 net.cpp:409] fc7_relu7_0_split -> fc7_relu7_0_split_2
I0104 20:52:02.930630  1529 net.cpp:409] fc7_relu7_0_split -> fc7_relu7_0_split_3
I0104 20:52:02.930676  1529 net.cpp:144] Setting up fc7_relu7_0_split
I0104 20:52:02.930681  1529 net.cpp:151] Top shape: 1 1280 12 15 (230400)
I0104 20:52:02.930686  1529 net.cpp:151] Top shape: 1 1280 12 15 (230400)
I0104 20:52:02.930691  1529 net.cpp:151] Top shape: 1 1280 12 15 (230400)
I0104 20:52:02.930694  1529 net.cpp:151] Top shape: 1 1280 12 15 (230400)
I0104 20:52:02.930697  1529 net.cpp:159] Memory required for data: 415376644
I0104 20:52:02.930701  1529 layer_factory.hpp:77] Creating layer conv6_1
I0104 20:52:02.930709  1529 net.cpp:94] Creating Layer conv6_1
I0104 20:52:02.930712  1529 net.cpp:435] conv6_1 <- fc7_relu7_0_split_0
I0104 20:52:02.930717  1529 net.cpp:409] conv6_1 -> conv6_1
I0104 20:52:02.934280  1529 net.cpp:144] Setting up conv6_1
I0104 20:52:02.934291  1529 net.cpp:151] Top shape: 1 256 12 15 (46080)
I0104 20:52:02.934298  1529 net.cpp:159] Memory required for data: 415560964
I0104 20:52:02.934303  1529 layer_factory.hpp:77] Creating layer conv6_1_bn
I0104 20:52:02.934311  1529 net.cpp:94] Creating Layer conv6_1_bn
I0104 20:52:02.934315  1529 net.cpp:435] conv6_1_bn <- conv6_1
I0104 20:52:02.934321  1529 net.cpp:396] conv6_1_bn -> conv6_1 (in-place)
I0104 20:52:02.934832  1529 net.cpp:144] Setting up conv6_1_bn
I0104 20:52:02.934840  1529 net.cpp:151] Top shape: 1 256 12 15 (46080)
I0104 20:52:02.934845  1529 net.cpp:159] Memory required for data: 415745284
I0104 20:52:02.934854  1529 layer_factory.hpp:77] Creating layer conv6_1_relu
I0104 20:52:02.934859  1529 net.cpp:94] Creating Layer conv6_1_relu
I0104 20:52:02.934862  1529 net.cpp:435] conv6_1_relu <- conv6_1
I0104 20:52:02.934866  1529 net.cpp:396] conv6_1_relu -> conv6_1 (in-place)
I0104 20:52:02.934872  1529 net.cpp:144] Setting up conv6_1_relu
I0104 20:52:02.934875  1529 net.cpp:151] Top shape: 1 256 12 15 (46080)
I0104 20:52:02.934880  1529 net.cpp:159] Memory required for data: 415929604
I0104 20:52:02.934882  1529 layer_factory.hpp:77] Creating layer conv6_2
I0104 20:52:02.934890  1529 net.cpp:94] Creating Layer conv6_2
I0104 20:52:02.934892  1529 net.cpp:435] conv6_2 <- conv6_1
I0104 20:52:02.934897  1529 net.cpp:409] conv6_2 -> conv6_2
I0104 20:52:02.944468  1529 net.cpp:144] Setting up conv6_2
I0104 20:52:02.944494  1529 net.cpp:151] Top shape: 1 512 6 8 (24576)
I0104 20:52:02.944515  1529 net.cpp:159] Memory required for data: 416027908
I0104 20:52:02.944522  1529 layer_factory.hpp:77] Creating layer conv6_2_bn
I0104 20:52:02.944545  1529 net.cpp:94] Creating Layer conv6_2_bn
I0104 20:52:02.944550  1529 net.cpp:435] conv6_2_bn <- conv6_2
I0104 20:52:02.944555  1529 net.cpp:396] conv6_2_bn -> conv6_2 (in-place)
I0104 20:52:02.945091  1529 net.cpp:144] Setting up conv6_2_bn
I0104 20:52:02.945099  1529 net.cpp:151] Top shape: 1 512 6 8 (24576)
I0104 20:52:02.945104  1529 net.cpp:159] Memory required for data: 416126212
I0104 20:52:02.945112  1529 layer_factory.hpp:77] Creating layer conv6_2_relu
I0104 20:52:02.945118  1529 net.cpp:94] Creating Layer conv6_2_relu
I0104 20:52:02.945122  1529 net.cpp:435] conv6_2_relu <- conv6_2
I0104 20:52:02.945125  1529 net.cpp:396] conv6_2_relu -> conv6_2 (in-place)
I0104 20:52:02.945132  1529 net.cpp:144] Setting up conv6_2_relu
I0104 20:52:02.945135  1529 net.cpp:151] Top shape: 1 512 6 8 (24576)
I0104 20:52:02.945139  1529 net.cpp:159] Memory required for data: 416224516
I0104 20:52:02.945142  1529 layer_factory.hpp:77] Creating layer conv6_2_conv6_2_relu_0_split
I0104 20:52:02.945148  1529 net.cpp:94] Creating Layer conv6_2_conv6_2_relu_0_split
I0104 20:52:02.945152  1529 net.cpp:435] conv6_2_conv6_2_relu_0_split <- conv6_2
I0104 20:52:02.945156  1529 net.cpp:409] conv6_2_conv6_2_relu_0_split -> conv6_2_conv6_2_relu_0_split_0
I0104 20:52:02.945161  1529 net.cpp:409] conv6_2_conv6_2_relu_0_split -> conv6_2_conv6_2_relu_0_split_1
I0104 20:52:02.945168  1529 net.cpp:409] conv6_2_conv6_2_relu_0_split -> conv6_2_conv6_2_relu_0_split_2
I0104 20:52:02.945173  1529 net.cpp:409] conv6_2_conv6_2_relu_0_split -> conv6_2_conv6_2_relu_0_split_3
I0104 20:52:02.945219  1529 net.cpp:144] Setting up conv6_2_conv6_2_relu_0_split
I0104 20:52:02.945225  1529 net.cpp:151] Top shape: 1 512 6 8 (24576)
I0104 20:52:02.945228  1529 net.cpp:151] Top shape: 1 512 6 8 (24576)
I0104 20:52:02.945232  1529 net.cpp:151] Top shape: 1 512 6 8 (24576)
I0104 20:52:02.945236  1529 net.cpp:151] Top shape: 1 512 6 8 (24576)
I0104 20:52:02.945240  1529 net.cpp:159] Memory required for data: 416617732
I0104 20:52:02.945253  1529 layer_factory.hpp:77] Creating layer conv7_1
I0104 20:52:02.945261  1529 net.cpp:94] Creating Layer conv7_1
I0104 20:52:02.945266  1529 net.cpp:435] conv7_1 <- conv6_2_conv6_2_relu_0_split_0
I0104 20:52:02.945271  1529 net.cpp:409] conv7_1 -> conv7_1
I0104 20:52:02.945873  1529 net.cpp:144] Setting up conv7_1
I0104 20:52:02.945880  1529 net.cpp:151] Top shape: 1 128 6 8 (6144)
I0104 20:52:02.945885  1529 net.cpp:159] Memory required for data: 416642308
I0104 20:52:02.945891  1529 layer_factory.hpp:77] Creating layer conv7_1_bn
I0104 20:52:02.945900  1529 net.cpp:94] Creating Layer conv7_1_bn
I0104 20:52:02.945906  1529 net.cpp:435] conv7_1_bn <- conv7_1
I0104 20:52:02.945911  1529 net.cpp:396] conv7_1_bn -> conv7_1 (in-place)
I0104 20:52:02.946400  1529 net.cpp:144] Setting up conv7_1_bn
I0104 20:52:02.946408  1529 net.cpp:151] Top shape: 1 128 6 8 (6144)
I0104 20:52:02.946413  1529 net.cpp:159] Memory required for data: 416666884
I0104 20:52:02.946420  1529 layer_factory.hpp:77] Creating layer conv7_1_relu
I0104 20:52:02.946425  1529 net.cpp:94] Creating Layer conv7_1_relu
I0104 20:52:02.946429  1529 net.cpp:435] conv7_1_relu <- conv7_1
I0104 20:52:02.946434  1529 net.cpp:396] conv7_1_relu -> conv7_1 (in-place)
I0104 20:52:02.946439  1529 net.cpp:144] Setting up conv7_1_relu
I0104 20:52:02.946442  1529 net.cpp:151] Top shape: 1 128 6 8 (6144)
I0104 20:52:02.946446  1529 net.cpp:159] Memory required for data: 416691460
I0104 20:52:02.946449  1529 layer_factory.hpp:77] Creating layer conv7_2
I0104 20:52:02.946456  1529 net.cpp:94] Creating Layer conv7_2
I0104 20:52:02.946460  1529 net.cpp:435] conv7_2 <- conv7_1
I0104 20:52:02.946465  1529 net.cpp:409] conv7_2 -> conv7_2
I0104 20:52:02.949455  1529 net.cpp:144] Setting up conv7_2
I0104 20:52:02.949465  1529 net.cpp:151] Top shape: 1 256 3 4 (3072)
I0104 20:52:02.949486  1529 net.cpp:159] Memory required for data: 416703748
I0104 20:52:02.949493  1529 layer_factory.hpp:77] Creating layer conv7_2_bn
I0104 20:52:02.949501  1529 net.cpp:94] Creating Layer conv7_2_bn
I0104 20:52:02.949504  1529 net.cpp:435] conv7_2_bn <- conv7_2
I0104 20:52:02.949510  1529 net.cpp:396] conv7_2_bn -> conv7_2 (in-place)
I0104 20:52:02.950021  1529 net.cpp:144] Setting up conv7_2_bn
I0104 20:52:02.950027  1529 net.cpp:151] Top shape: 1 256 3 4 (3072)
I0104 20:52:02.950032  1529 net.cpp:159] Memory required for data: 416716036
I0104 20:52:02.950040  1529 layer_factory.hpp:77] Creating layer conv7_2_relu
I0104 20:52:02.950045  1529 net.cpp:94] Creating Layer conv7_2_relu
I0104 20:52:02.950049  1529 net.cpp:435] conv7_2_relu <- conv7_2
I0104 20:52:02.950053  1529 net.cpp:396] conv7_2_relu -> conv7_2 (in-place)
I0104 20:52:02.950059  1529 net.cpp:144] Setting up conv7_2_relu
I0104 20:52:02.950062  1529 net.cpp:151] Top shape: 1 256 3 4 (3072)
I0104 20:52:02.950067  1529 net.cpp:159] Memory required for data: 416728324
I0104 20:52:02.950070  1529 layer_factory.hpp:77] Creating layer conv7_2_conv7_2_relu_0_split
I0104 20:52:02.950075  1529 net.cpp:94] Creating Layer conv7_2_conv7_2_relu_0_split
I0104 20:52:02.950078  1529 net.cpp:435] conv7_2_conv7_2_relu_0_split <- conv7_2
I0104 20:52:02.950083  1529 net.cpp:409] conv7_2_conv7_2_relu_0_split -> conv7_2_conv7_2_relu_0_split_0
I0104 20:52:02.950088  1529 net.cpp:409] conv7_2_conv7_2_relu_0_split -> conv7_2_conv7_2_relu_0_split_1
I0104 20:52:02.950094  1529 net.cpp:409] conv7_2_conv7_2_relu_0_split -> conv7_2_conv7_2_relu_0_split_2
I0104 20:52:02.950134  1529 net.cpp:144] Setting up conv7_2_conv7_2_relu_0_split
I0104 20:52:02.950139  1529 net.cpp:151] Top shape: 1 256 3 4 (3072)
I0104 20:52:02.950147  1529 net.cpp:151] Top shape: 1 256 3 4 (3072)
I0104 20:52:02.950150  1529 net.cpp:151] Top shape: 1 256 3 4 (3072)
I0104 20:52:02.950155  1529 net.cpp:159] Memory required for data: 416765188
I0104 20:52:02.950158  1529 layer_factory.hpp:77] Creating layer conv4_3_norm_mbox_loc
I0104 20:52:02.950166  1529 net.cpp:94] Creating Layer conv4_3_norm_mbox_loc
I0104 20:52:02.950170  1529 net.cpp:435] conv4_3_norm_mbox_loc <- conv4_7/expand/bn_relu4_7/expand_0_split_1
I0104 20:52:02.950176  1529 net.cpp:409] conv4_3_norm_mbox_loc -> conv4_3_norm_mbox_loc
I0104 20:52:02.951036  1529 net.cpp:144] Setting up conv4_3_norm_mbox_loc
I0104 20:52:02.951043  1529 net.cpp:151] Top shape: 1 32 45 60 (86400)
I0104 20:52:02.951048  1529 net.cpp:159] Memory required for data: 417110788
I0104 20:52:02.951054  1529 layer_factory.hpp:77] Creating layer conv4_3_norm_mbox_loc_bn
I0104 20:52:02.951061  1529 net.cpp:94] Creating Layer conv4_3_norm_mbox_loc_bn
I0104 20:52:02.951066  1529 net.cpp:435] conv4_3_norm_mbox_loc_bn <- conv4_3_norm_mbox_loc
I0104 20:52:02.951071  1529 net.cpp:396] conv4_3_norm_mbox_loc_bn -> conv4_3_norm_mbox_loc (in-place)
I0104 20:52:02.951673  1529 net.cpp:144] Setting up conv4_3_norm_mbox_loc_bn
I0104 20:52:02.951679  1529 net.cpp:151] Top shape: 1 32 45 60 (86400)
I0104 20:52:02.951684  1529 net.cpp:159] Memory required for data: 417456388
I0104 20:52:02.951692  1529 layer_factory.hpp:77] Creating layer conv4_3_norm_mbox_loc_perm
I0104 20:52:02.951699  1529 net.cpp:94] Creating Layer conv4_3_norm_mbox_loc_perm
I0104 20:52:02.951702  1529 net.cpp:435] conv4_3_norm_mbox_loc_perm <- conv4_3_norm_mbox_loc
I0104 20:52:02.951714  1529 net.cpp:409] conv4_3_norm_mbox_loc_perm -> conv4_3_norm_mbox_loc_perm
I0104 20:52:02.951797  1529 net.cpp:144] Setting up conv4_3_norm_mbox_loc_perm
I0104 20:52:02.951803  1529 net.cpp:151] Top shape: 1 45 60 32 (86400)
I0104 20:52:02.951807  1529 net.cpp:159] Memory required for data: 417801988
I0104 20:52:02.951812  1529 layer_factory.hpp:77] Creating layer conv4_3_norm_mbox_loc_flat
I0104 20:52:02.951825  1529 net.cpp:94] Creating Layer conv4_3_norm_mbox_loc_flat
I0104 20:52:02.951829  1529 net.cpp:435] conv4_3_norm_mbox_loc_flat <- conv4_3_norm_mbox_loc_perm
I0104 20:52:02.951834  1529 net.cpp:409] conv4_3_norm_mbox_loc_flat -> conv4_3_norm_mbox_loc_flat
I0104 20:52:02.951858  1529 net.cpp:144] Setting up conv4_3_norm_mbox_loc_flat
I0104 20:52:02.951864  1529 net.cpp:151] Top shape: 1 86400 (86400)
I0104 20:52:02.951869  1529 net.cpp:159] Memory required for data: 418147588
I0104 20:52:02.951871  1529 layer_factory.hpp:77] Creating layer conv4_3_norm_mbox_conf_new
I0104 20:52:02.951879  1529 net.cpp:94] Creating Layer conv4_3_norm_mbox_conf_new
I0104 20:52:02.951884  1529 net.cpp:435] conv4_3_norm_mbox_conf_new <- conv4_7/expand/bn_relu4_7/expand_0_split_2
I0104 20:52:02.951889  1529 net.cpp:409] conv4_3_norm_mbox_conf_new -> conv4_3_norm_mbox_conf_new
I0104 20:52:02.956847  1529 net.cpp:144] Setting up conv4_3_norm_mbox_conf_new
I0104 20:52:02.956858  1529 net.cpp:151] Top shape: 1 168 45 60 (453600)
I0104 20:52:02.956881  1529 net.cpp:159] Memory required for data: 419961988
I0104 20:52:02.956887  1529 layer_factory.hpp:77] Creating layer conv4_3_norm_mbox_conf_bn
I0104 20:52:02.956895  1529 net.cpp:94] Creating Layer conv4_3_norm_mbox_conf_bn
I0104 20:52:02.956900  1529 net.cpp:435] conv4_3_norm_mbox_conf_bn <- conv4_3_norm_mbox_conf_new
I0104 20:52:02.956905  1529 net.cpp:396] conv4_3_norm_mbox_conf_bn -> conv4_3_norm_mbox_conf_new (in-place)
I0104 20:52:02.957525  1529 net.cpp:144] Setting up conv4_3_norm_mbox_conf_bn
I0104 20:52:02.957535  1529 net.cpp:151] Top shape: 1 168 45 60 (453600)
I0104 20:52:02.957540  1529 net.cpp:159] Memory required for data: 421776388
I0104 20:52:02.957547  1529 layer_factory.hpp:77] Creating layer conv4_3_norm_mbox_conf_perm
I0104 20:52:02.957553  1529 net.cpp:94] Creating Layer conv4_3_norm_mbox_conf_perm
I0104 20:52:02.957557  1529 net.cpp:435] conv4_3_norm_mbox_conf_perm <- conv4_3_norm_mbox_conf_new
I0104 20:52:02.957563  1529 net.cpp:409] conv4_3_norm_mbox_conf_perm -> conv4_3_norm_mbox_conf_perm
I0104 20:52:02.957641  1529 net.cpp:144] Setting up conv4_3_norm_mbox_conf_perm
I0104 20:52:02.957648  1529 net.cpp:151] Top shape: 1 45 60 168 (453600)
I0104 20:52:02.957651  1529 net.cpp:159] Memory required for data: 423590788
I0104 20:52:02.957655  1529 layer_factory.hpp:77] Creating layer conv4_3_norm_mbox_conf_flat
I0104 20:52:02.957660  1529 net.cpp:94] Creating Layer conv4_3_norm_mbox_conf_flat
I0104 20:52:02.957664  1529 net.cpp:435] conv4_3_norm_mbox_conf_flat <- conv4_3_norm_mbox_conf_perm
I0104 20:52:02.957669  1529 net.cpp:409] conv4_3_norm_mbox_conf_flat -> conv4_3_norm_mbox_conf_flat
I0104 20:52:02.957687  1529 net.cpp:144] Setting up conv4_3_norm_mbox_conf_flat
I0104 20:52:02.957693  1529 net.cpp:151] Top shape: 1 453600 (453600)
I0104 20:52:02.957697  1529 net.cpp:159] Memory required for data: 425405188
I0104 20:52:02.957700  1529 layer_factory.hpp:77] Creating layer conv4_3_norm_mbox_priorbox
I0104 20:52:02.957707  1529 net.cpp:94] Creating Layer conv4_3_norm_mbox_priorbox
I0104 20:52:02.957711  1529 net.cpp:435] conv4_3_norm_mbox_priorbox <- conv4_7/expand/bn_relu4_7/expand_0_split_3
I0104 20:52:02.957715  1529 net.cpp:435] conv4_3_norm_mbox_priorbox <- data_data_0_split_1
I0104 20:52:02.957720  1529 net.cpp:409] conv4_3_norm_mbox_priorbox -> conv4_3_norm_mbox_priorbox
I0104 20:52:02.957743  1529 net.cpp:144] Setting up conv4_3_norm_mbox_priorbox
I0104 20:52:02.957748  1529 net.cpp:151] Top shape: 1 2 86400 (172800)
I0104 20:52:02.957753  1529 net.cpp:159] Memory required for data: 426096388
I0104 20:52:02.957756  1529 layer_factory.hpp:77] Creating layer fc7_mbox_loc
I0104 20:52:02.957764  1529 net.cpp:94] Creating Layer fc7_mbox_loc
I0104 20:52:02.957768  1529 net.cpp:435] fc7_mbox_loc <- conv5_3/expand/bn_relu5_3/expand_0_split_1
I0104 20:52:02.957773  1529 net.cpp:409] fc7_mbox_loc -> fc7_mbox_loc
I0104 20:52:02.958716  1529 net.cpp:144] Setting up fc7_mbox_loc
I0104 20:52:02.958724  1529 net.cpp:151] Top shape: 1 24 23 30 (16560)
I0104 20:52:02.958729  1529 net.cpp:159] Memory required for data: 426162628
I0104 20:52:02.958735  1529 layer_factory.hpp:77] Creating layer fc7_mbox_loc_bn
I0104 20:52:02.958743  1529 net.cpp:94] Creating Layer fc7_mbox_loc_bn
I0104 20:52:02.958746  1529 net.cpp:435] fc7_mbox_loc_bn <- fc7_mbox_loc
I0104 20:52:02.958752  1529 net.cpp:396] fc7_mbox_loc_bn -> fc7_mbox_loc (in-place)
I0104 20:52:02.959331  1529 net.cpp:144] Setting up fc7_mbox_loc_bn
I0104 20:52:02.959337  1529 net.cpp:151] Top shape: 1 24 23 30 (16560)
I0104 20:52:02.959342  1529 net.cpp:159] Memory required for data: 426228868
I0104 20:52:02.959349  1529 layer_factory.hpp:77] Creating layer fc7_mbox_loc_perm
I0104 20:52:02.959357  1529 net.cpp:94] Creating Layer fc7_mbox_loc_perm
I0104 20:52:02.959359  1529 net.cpp:435] fc7_mbox_loc_perm <- fc7_mbox_loc
I0104 20:52:02.959364  1529 net.cpp:409] fc7_mbox_loc_perm -> fc7_mbox_loc_perm
I0104 20:52:02.959441  1529 net.cpp:144] Setting up fc7_mbox_loc_perm
I0104 20:52:02.959447  1529 net.cpp:151] Top shape: 1 23 30 24 (16560)
I0104 20:52:02.959451  1529 net.cpp:159] Memory required for data: 426295108
I0104 20:52:02.959455  1529 layer_factory.hpp:77] Creating layer fc7_mbox_loc_flat
I0104 20:52:02.959460  1529 net.cpp:94] Creating Layer fc7_mbox_loc_flat
I0104 20:52:02.959463  1529 net.cpp:435] fc7_mbox_loc_flat <- fc7_mbox_loc_perm
I0104 20:52:02.959468  1529 net.cpp:409] fc7_mbox_loc_flat -> fc7_mbox_loc_flat
I0104 20:52:02.959486  1529 net.cpp:144] Setting up fc7_mbox_loc_flat
I0104 20:52:02.959491  1529 net.cpp:151] Top shape: 1 16560 (16560)
I0104 20:52:02.959496  1529 net.cpp:159] Memory required for data: 426361348
I0104 20:52:02.959498  1529 layer_factory.hpp:77] Creating layer fc7_mbox_conf_new
I0104 20:52:02.959506  1529 net.cpp:94] Creating Layer fc7_mbox_conf_new
I0104 20:52:02.959511  1529 net.cpp:435] fc7_mbox_conf_new <- conv5_3/expand/bn_relu5_3/expand_0_split_2
I0104 20:52:02.959517  1529 net.cpp:409] fc7_mbox_conf_new -> fc7_mbox_conf_new
I0104 20:52:02.965184  1529 net.cpp:144] Setting up fc7_mbox_conf_new
I0104 20:52:02.965195  1529 net.cpp:151] Top shape: 1 126 23 30 (86940)
I0104 20:52:02.965200  1529 net.cpp:159] Memory required for data: 426709108
I0104 20:52:02.965207  1529 layer_factory.hpp:77] Creating layer fc7_mbox_conf_bn
I0104 20:52:02.965215  1529 net.cpp:94] Creating Layer fc7_mbox_conf_bn
I0104 20:52:02.965220  1529 net.cpp:435] fc7_mbox_conf_bn <- fc7_mbox_conf_new
I0104 20:52:02.965225  1529 net.cpp:396] fc7_mbox_conf_bn -> fc7_mbox_conf_new (in-place)
I0104 20:52:02.965807  1529 net.cpp:144] Setting up fc7_mbox_conf_bn
I0104 20:52:02.965816  1529 net.cpp:151] Top shape: 1 126 23 30 (86940)
I0104 20:52:02.965821  1529 net.cpp:159] Memory required for data: 427056868
I0104 20:52:02.965827  1529 layer_factory.hpp:77] Creating layer fc7_mbox_conf_perm
I0104 20:52:02.965833  1529 net.cpp:94] Creating Layer fc7_mbox_conf_perm
I0104 20:52:02.965837  1529 net.cpp:435] fc7_mbox_conf_perm <- fc7_mbox_conf_new
I0104 20:52:02.965842  1529 net.cpp:409] fc7_mbox_conf_perm -> fc7_mbox_conf_perm
I0104 20:52:02.965919  1529 net.cpp:144] Setting up fc7_mbox_conf_perm
I0104 20:52:02.965925  1529 net.cpp:151] Top shape: 1 23 30 126 (86940)
I0104 20:52:02.965930  1529 net.cpp:159] Memory required for data: 427404628
I0104 20:52:02.965934  1529 layer_factory.hpp:77] Creating layer fc7_mbox_conf_flat
I0104 20:52:02.965939  1529 net.cpp:94] Creating Layer fc7_mbox_conf_flat
I0104 20:52:02.965942  1529 net.cpp:435] fc7_mbox_conf_flat <- fc7_mbox_conf_perm
I0104 20:52:02.965947  1529 net.cpp:409] fc7_mbox_conf_flat -> fc7_mbox_conf_flat
I0104 20:52:02.965965  1529 net.cpp:144] Setting up fc7_mbox_conf_flat
I0104 20:52:02.965970  1529 net.cpp:151] Top shape: 1 86940 (86940)
I0104 20:52:02.965973  1529 net.cpp:159] Memory required for data: 427752388
I0104 20:52:02.965976  1529 layer_factory.hpp:77] Creating layer fc7_mbox_priorbox
I0104 20:52:02.965982  1529 net.cpp:94] Creating Layer fc7_mbox_priorbox
I0104 20:52:02.965986  1529 net.cpp:435] fc7_mbox_priorbox <- conv5_3/expand/bn_relu5_3/expand_0_split_3
I0104 20:52:02.965991  1529 net.cpp:435] fc7_mbox_priorbox <- data_data_0_split_2
I0104 20:52:02.965996  1529 net.cpp:409] fc7_mbox_priorbox -> fc7_mbox_priorbox
I0104 20:52:02.966015  1529 net.cpp:144] Setting up fc7_mbox_priorbox
I0104 20:52:02.966019  1529 net.cpp:151] Top shape: 1 2 16560 (33120)
I0104 20:52:02.966023  1529 net.cpp:159] Memory required for data: 427884868
I0104 20:52:02.966027  1529 layer_factory.hpp:77] Creating layer conv6_2_mbox_loc
I0104 20:52:02.966035  1529 net.cpp:94] Creating Layer conv6_2_mbox_loc
I0104 20:52:02.966038  1529 net.cpp:435] conv6_2_mbox_loc <- fc7_relu7_0_split_1
I0104 20:52:02.966044  1529 net.cpp:409] conv6_2_mbox_loc -> conv6_2_mbox_loc
I0104 20:52:02.969233  1529 net.cpp:144] Setting up conv6_2_mbox_loc
I0104 20:52:02.969245  1529 net.cpp:151] Top shape: 1 24 12 15 (4320)
I0104 20:52:02.969250  1529 net.cpp:159] Memory required for data: 427902148
I0104 20:52:02.969257  1529 layer_factory.hpp:77] Creating layer conv6_2_mbox_loc__bn
I0104 20:52:02.969265  1529 net.cpp:94] Creating Layer conv6_2_mbox_loc__bn
I0104 20:52:02.969269  1529 net.cpp:435] conv6_2_mbox_loc__bn <- conv6_2_mbox_loc
I0104 20:52:02.969275  1529 net.cpp:396] conv6_2_mbox_loc__bn -> conv6_2_mbox_loc (in-place)
I0104 20:52:02.969862  1529 net.cpp:144] Setting up conv6_2_mbox_loc__bn
I0104 20:52:02.969869  1529 net.cpp:151] Top shape: 1 24 12 15 (4320)
I0104 20:52:02.969874  1529 net.cpp:159] Memory required for data: 427919428
I0104 20:52:02.969882  1529 layer_factory.hpp:77] Creating layer conv6_2_mbox_loc_perm
I0104 20:52:02.969889  1529 net.cpp:94] Creating Layer conv6_2_mbox_loc_perm
I0104 20:52:02.969893  1529 net.cpp:435] conv6_2_mbox_loc_perm <- conv6_2_mbox_loc
I0104 20:52:02.969898  1529 net.cpp:409] conv6_2_mbox_loc_perm -> conv6_2_mbox_loc_perm
I0104 20:52:02.969974  1529 net.cpp:144] Setting up conv6_2_mbox_loc_perm
I0104 20:52:02.969980  1529 net.cpp:151] Top shape: 1 12 15 24 (4320)
I0104 20:52:02.969985  1529 net.cpp:159] Memory required for data: 427936708
I0104 20:52:02.969990  1529 layer_factory.hpp:77] Creating layer conv6_2_mbox_loc_flat
I0104 20:52:02.969995  1529 net.cpp:94] Creating Layer conv6_2_mbox_loc_flat
I0104 20:52:02.969997  1529 net.cpp:435] conv6_2_mbox_loc_flat <- conv6_2_mbox_loc_perm
I0104 20:52:02.970002  1529 net.cpp:409] conv6_2_mbox_loc_flat -> conv6_2_mbox_loc_flat
I0104 20:52:02.970021  1529 net.cpp:144] Setting up conv6_2_mbox_loc_flat
I0104 20:52:02.970029  1529 net.cpp:151] Top shape: 1 4320 (4320)
I0104 20:52:02.970033  1529 net.cpp:159] Memory required for data: 427953988
I0104 20:52:02.970036  1529 layer_factory.hpp:77] Creating layer conv6_2_mbox_conf_new
I0104 20:52:02.970044  1529 net.cpp:94] Creating Layer conv6_2_mbox_conf_new
I0104 20:52:02.970047  1529 net.cpp:435] conv6_2_mbox_conf_new <- fc7_relu7_0_split_2
I0104 20:52:02.970052  1529 net.cpp:409] conv6_2_mbox_conf_new -> conv6_2_mbox_conf_new
I0104 20:52:02.981482  1529 net.cpp:144] Setting up conv6_2_mbox_conf_new
I0104 20:52:02.981495  1529 net.cpp:151] Top shape: 1 126 12 15 (22680)
I0104 20:52:02.981503  1529 net.cpp:159] Memory required for data: 428044708
I0104 20:52:02.981510  1529 layer_factory.hpp:77] Creating layer conv6_2_mbox_conf_bn
I0104 20:52:02.981519  1529 net.cpp:94] Creating Layer conv6_2_mbox_conf_bn
I0104 20:52:02.981524  1529 net.cpp:435] conv6_2_mbox_conf_bn <- conv6_2_mbox_conf_new
I0104 20:52:02.981530  1529 net.cpp:396] conv6_2_mbox_conf_bn -> conv6_2_mbox_conf_new (in-place)
I0104 20:52:02.982165  1529 net.cpp:144] Setting up conv6_2_mbox_conf_bn
I0104 20:52:02.982177  1529 net.cpp:151] Top shape: 1 126 12 15 (22680)
I0104 20:52:02.982184  1529 net.cpp:159] Memory required for data: 428135428
I0104 20:52:02.982197  1529 layer_factory.hpp:77] Creating layer conv6_2_mbox_conf_perm
I0104 20:52:02.982205  1529 net.cpp:94] Creating Layer conv6_2_mbox_conf_perm
I0104 20:52:02.982211  1529 net.cpp:435] conv6_2_mbox_conf_perm <- conv6_2_mbox_conf_new
I0104 20:52:02.982219  1529 net.cpp:409] conv6_2_mbox_conf_perm -> conv6_2_mbox_conf_perm
I0104 20:52:02.982322  1529 net.cpp:144] Setting up conv6_2_mbox_conf_perm
I0104 20:52:02.982331  1529 net.cpp:151] Top shape: 1 12 15 126 (22680)
I0104 20:52:02.982338  1529 net.cpp:159] Memory required for data: 428226148
I0104 20:52:02.982343  1529 layer_factory.hpp:77] Creating layer conv6_2_mbox_conf_flat
I0104 20:52:02.982350  1529 net.cpp:94] Creating Layer conv6_2_mbox_conf_flat
I0104 20:52:02.982355  1529 net.cpp:435] conv6_2_mbox_conf_flat <- conv6_2_mbox_conf_perm
I0104 20:52:02.982363  1529 net.cpp:409] conv6_2_mbox_conf_flat -> conv6_2_mbox_conf_flat
I0104 20:52:02.982389  1529 net.cpp:144] Setting up conv6_2_mbox_conf_flat
I0104 20:52:02.982394  1529 net.cpp:151] Top shape: 1 22680 (22680)
I0104 20:52:02.982400  1529 net.cpp:159] Memory required for data: 428316868
I0104 20:52:02.982405  1529 layer_factory.hpp:77] Creating layer conv6_2_mbox_priorbox
I0104 20:52:02.982415  1529 net.cpp:94] Creating Layer conv6_2_mbox_priorbox
I0104 20:52:02.982420  1529 net.cpp:435] conv6_2_mbox_priorbox <- fc7_relu7_0_split_3
I0104 20:52:02.982426  1529 net.cpp:435] conv6_2_mbox_priorbox <- data_data_0_split_3
I0104 20:52:02.982434  1529 net.cpp:409] conv6_2_mbox_priorbox -> conv6_2_mbox_priorbox
I0104 20:52:02.982461  1529 net.cpp:144] Setting up conv6_2_mbox_priorbox
I0104 20:52:02.982467  1529 net.cpp:151] Top shape: 1 2 4320 (8640)
I0104 20:52:02.982473  1529 net.cpp:159] Memory required for data: 428351428
I0104 20:52:02.982486  1529 layer_factory.hpp:77] Creating layer conv7_2_mbox_loc
I0104 20:52:02.982497  1529 net.cpp:94] Creating Layer conv7_2_mbox_loc
I0104 20:52:02.982502  1529 net.cpp:435] conv7_2_mbox_loc <- conv6_2_conv6_2_relu_0_split_1
I0104 20:52:02.982511  1529 net.cpp:409] conv7_2_mbox_loc -> conv7_2_mbox_loc
I0104 20:52:02.983436  1529 net.cpp:144] Setting up conv7_2_mbox_loc
I0104 20:52:02.983444  1529 net.cpp:151] Top shape: 1 24 6 8 (1152)
I0104 20:52:02.983449  1529 net.cpp:159] Memory required for data: 428356036
I0104 20:52:02.983455  1529 layer_factory.hpp:77] Creating layer conv7_2_mbox_loc_bn
I0104 20:52:02.983462  1529 net.cpp:94] Creating Layer conv7_2_mbox_loc_bn
I0104 20:52:02.983466  1529 net.cpp:435] conv7_2_mbox_loc_bn <- conv7_2_mbox_loc
I0104 20:52:02.983471  1529 net.cpp:396] conv7_2_mbox_loc_bn -> conv7_2_mbox_loc (in-place)
I0104 20:52:02.984074  1529 net.cpp:144] Setting up conv7_2_mbox_loc_bn
I0104 20:52:02.984082  1529 net.cpp:151] Top shape: 1 24 6 8 (1152)
I0104 20:52:02.984086  1529 net.cpp:159] Memory required for data: 428360644
I0104 20:52:02.984094  1529 layer_factory.hpp:77] Creating layer conv7_2_mbox_loc_perm
I0104 20:52:02.984102  1529 net.cpp:94] Creating Layer conv7_2_mbox_loc_perm
I0104 20:52:02.984104  1529 net.cpp:435] conv7_2_mbox_loc_perm <- conv7_2_mbox_loc
I0104 20:52:02.984110  1529 net.cpp:409] conv7_2_mbox_loc_perm -> conv7_2_mbox_loc_perm
I0104 20:52:02.984190  1529 net.cpp:144] Setting up conv7_2_mbox_loc_perm
I0104 20:52:02.984196  1529 net.cpp:151] Top shape: 1 6 8 24 (1152)
I0104 20:52:02.984200  1529 net.cpp:159] Memory required for data: 428365252
I0104 20:52:02.984205  1529 layer_factory.hpp:77] Creating layer conv7_2_mbox_loc_flat
I0104 20:52:02.984210  1529 net.cpp:94] Creating Layer conv7_2_mbox_loc_flat
I0104 20:52:02.984212  1529 net.cpp:435] conv7_2_mbox_loc_flat <- conv7_2_mbox_loc_perm
I0104 20:52:02.984217  1529 net.cpp:409] conv7_2_mbox_loc_flat -> conv7_2_mbox_loc_flat
I0104 20:52:02.984236  1529 net.cpp:144] Setting up conv7_2_mbox_loc_flat
I0104 20:52:02.984241  1529 net.cpp:151] Top shape: 1 1152 (1152)
I0104 20:52:02.984244  1529 net.cpp:159] Memory required for data: 428369860
I0104 20:52:02.984247  1529 layer_factory.hpp:77] Creating layer conv7_2_mbox_conf_new
I0104 20:52:02.984254  1529 net.cpp:94] Creating Layer conv7_2_mbox_conf_new
I0104 20:52:02.984258  1529 net.cpp:435] conv7_2_mbox_conf_new <- conv6_2_conv6_2_relu_0_split_2
…
I0104 20:53:21.015287  1529 net.cpp:94] Creating Layer block_6_1_block_6_1_fixed_0_split
I0104 20:53:21.015290  1529 net.cpp:435] block_6_1_block_6_1_fixed_0_split <- block_6_1
I0104 20:53:21.015295  1529 net.cpp:409] block_6_1_block_6_1_fixed_0_split -> block_6_1_block_6_1_fixed_0_split_0
I0104 20:53:21.015301  1529 net.cpp:409] block_6_1_block_6_1_fixed_0_split -> block_6_1_block_6_1_fixed_0_split_1
I0104 20:53:21.015327  1529 net.cpp:144] Setting up block_6_1_block_6_1_fixed_0_split
I0104 20:53:21.015333  1529 net.cpp:151] Top shape: 1 160 12 15 (28800)
I0104 20:53:21.015337  1529 net.cpp:151] Top shape: 1 160 12 15 (28800)
I0104 20:53:21.015341  1529 net.cpp:159] Memory required for data: 406345024
I0104 20:53:21.015344  1529 layer_factory.hpp:77] Creating layer conv6_2/expand
I0104 20:53:21.015352  1529 net.cpp:94] Creating Layer conv6_2/expand
I0104 20:53:21.015355  1529 net.cpp:435] conv6_2/expand <- block_6_1_block_6_1_fixed_0_split_0
I0104 20:53:21.015360  1529 net.cpp:409] conv6_2/expand -> conv6_2/expand/bn
I0104 20:53:21.017464  1529 layer_factory.hpp:77] Creating layer conv6_2/expand
I0104 20:53:21.019049  1529 net.cpp:144] Setting up conv6_2/expand
I0104 20:53:21.019057  1529 net.cpp:151] Top shape: 1 960 12 15 (172800)
I0104 20:53:21.019062  1529 net.cpp:159] Memory required for data: 407036224
I0104 20:53:21.019068  1529 layer_factory.hpp:77] Creating layer relu6_2/expand
I0104 20:53:21.019073  1529 net.cpp:94] Creating Layer relu6_2/expand
I0104 20:53:21.019078  1529 net.cpp:435] relu6_2/expand <- conv6_2/expand/bn
I0104 20:53:21.019083  1529 net.cpp:396] relu6_2/expand -> conv6_2/expand/bn (in-place)
I0104 20:53:21.019088  1529 net.cpp:144] Setting up relu6_2/expand
I0104 20:53:21.019091  1529 net.cpp:151] Top shape: 1 960 12 15 (172800)
I0104 20:53:21.019095  1529 net.cpp:159] Memory required for data: 407727424
I0104 20:53:21.019098  1529 layer_factory.hpp:77] Creating layer conv6_2/expand/bn_fixed
I0104 20:53:21.019104  1529 net.cpp:94] Creating Layer conv6_2/expand/bn_fixed
I0104 20:53:21.019107  1529 net.cpp:435] conv6_2/expand/bn_fixed <- conv6_2/expand/bn
I0104 20:53:21.019111  1529 net.cpp:396] conv6_2/expand/bn_fixed -> conv6_2/expand/bn (in-place)
I0104 20:53:21.019140  1529 net.cpp:144] Setting up conv6_2/expand/bn_fixed
I0104 20:53:21.019145  1529 net.cpp:151] Top shape: 1 960 12 15 (172800)
I0104 20:53:21.019150  1529 net.cpp:159] Memory required for data: 408418624
I0104 20:53:21.019155  1529 layer_factory.hpp:77] Creating layer conv6_2/dwise
I0104 20:53:21.019160  1529 net.cpp:94] Creating Layer conv6_2/dwise
I0104 20:53:21.019165  1529 net.cpp:435] conv6_2/dwise <- conv6_2/expand/bn
I0104 20:53:21.019168  1529 net.cpp:409] conv6_2/dwise -> conv6_2/dwise/bn
I0104 20:53:21.019390  1529 layer_factory.hpp:77] Creating layer conv6_2/dwise
I0104 20:53:21.019726  1529 net.cpp:144] Setting up conv6_2/dwise
I0104 20:53:21.019733  1529 net.cpp:151] Top shape: 1 960 12 15 (172800)
I0104 20:53:21.019738  1529 net.cpp:159] Memory required for data: 409109824
I0104 20:53:21.019743  1529 layer_factory.hpp:77] Creating layer relu6_2/dwise
I0104 20:53:21.019748  1529 net.cpp:94] Creating Layer relu6_2/dwise
I0104 20:53:21.019752  1529 net.cpp:435] relu6_2/dwise <- conv6_2/dwise/bn
I0104 20:53:21.019757  1529 net.cpp:396] relu6_2/dwise -> conv6_2/dwise/bn (in-place)
I0104 20:53:21.019762  1529 net.cpp:144] Setting up relu6_2/dwise
I0104 20:53:21.019765  1529 net.cpp:151] Top shape: 1 960 12 15 (172800)
I0104 20:53:21.019769  1529 net.cpp:159] Memory required for data: 409801024
I0104 20:53:21.019773  1529 layer_factory.hpp:77] Creating layer conv6_2/dwise/bn_fixed
I0104 20:53:21.019778  1529 net.cpp:94] Creating Layer conv6_2/dwise/bn_fixed
I0104 20:53:21.019780  1529 net.cpp:435] conv6_2/dwise/bn_fixed <- conv6_2/dwise/bn
I0104 20:53:21.019785  1529 net.cpp:396] conv6_2/dwise/bn_fixed -> conv6_2/dwise/bn (in-place)
I0104 20:53:21.019812  1529 net.cpp:144] Setting up conv6_2/dwise/bn_fixed
I0104 20:53:21.019819  1529 net.cpp:151] Top shape: 1 960 12 15 (172800)
I0104 20:53:21.019822  1529 net.cpp:159] Memory required for data: 410492224
I0104 20:53:21.019827  1529 layer_factory.hpp:77] Creating layer conv6_2/linear
I0104 20:53:21.019834  1529 net.cpp:94] Creating Layer conv6_2/linear
I0104 20:53:21.019838  1529 net.cpp:435] conv6_2/linear <- conv6_2/dwise/bn
I0104 20:53:21.019843  1529 net.cpp:409] conv6_2/linear -> conv6_2/linear/bn
I0104 20:53:21.021940  1529 layer_factory.hpp:77] Creating layer conv6_2/linear
I0104 20:53:21.024201  1529 net.cpp:144] Setting up conv6_2/linear
I0104 20:53:21.024211  1529 net.cpp:151] Top shape: 1 160 12 15 (28800)
I0104 20:53:21.024233  1529 net.cpp:159] Memory required for data: 410607424
I0104 20:53:21.024240  1529 layer_factory.hpp:77] Creating layer conv6_2/linear/bn_fixed
I0104 20:53:21.024246  1529 net.cpp:94] Creating Layer conv6_2/linear/bn_fixed
I0104 20:53:21.024250  1529 net.cpp:435] conv6_2/linear/bn_fixed <- conv6_2/linear/bn
I0104 20:53:21.024256  1529 net.cpp:396] conv6_2/linear/bn_fixed -> conv6_2/linear/bn (in-place)
I0104 20:53:21.024286  1529 net.cpp:144] Setting up conv6_2/linear/bn_fixed
I0104 20:53:21.024292  1529 net.cpp:151] Top shape: 1 160 12 15 (28800)
I0104 20:53:21.024297  1529 net.cpp:159] Memory required for data: 410722624
I0104 20:53:21.024302  1529 layer_factory.hpp:77] Creating layer block_6_2
I0104 20:53:21.024307  1529 net.cpp:94] Creating Layer block_6_2
I0104 20:53:21.024312  1529 net.cpp:435] block_6_2 <- block_6_1_block_6_1_fixed_0_split_1
I0104 20:53:21.024315  1529 net.cpp:435] block_6_2 <- conv6_2/linear/bn
I0104 20:53:21.024320  1529 net.cpp:409] block_6_2 -> block_6_2
I0104 20:53:21.024338  1529 net.cpp:144] Setting up block_6_2
I0104 20:53:21.024343  1529 net.cpp:151] Top shape: 1 160 12 15 (28800)
I0104 20:53:21.024348  1529 net.cpp:159] Memory required for data: 410837824
I0104 20:53:21.024350  1529 layer_factory.hpp:77] Creating layer block_6_2_fixed
I0104 20:53:21.024355  1529 net.cpp:94] Creating Layer block_6_2_fixed
I0104 20:53:21.024358  1529 net.cpp:435] block_6_2_fixed <- block_6_2
I0104 20:53:21.024363  1529 net.cpp:396] block_6_2_fixed -> block_6_2 (in-place)
I0104 20:53:21.024390  1529 net.cpp:144] Setting up block_6_2_fixed
I0104 20:53:21.024395  1529 net.cpp:151] Top shape: 1 160 12 15 (28800)
I0104 20:53:21.024399  1529 net.cpp:159] Memory required for data: 410953024
I0104 20:53:21.024403  1529 layer_factory.hpp:77] Creating layer conv6_3/expand
I0104 20:53:21.024410  1529 net.cpp:94] Creating Layer conv6_3/expand
I0104 20:53:21.024415  1529 net.cpp:435] conv6_3/expand <- block_6_2
I0104 20:53:21.024422  1529 net.cpp:409] conv6_3/expand -> conv6_3/expand/bn
I0104 20:53:21.025888  1529 layer_factory.hpp:77] Creating layer conv6_3/expand
I0104 20:53:21.028118  1529 net.cpp:144] Setting up conv6_3/expand
I0104 20:53:21.028128  1529 net.cpp:151] Top shape: 1 960 12 15 (172800)
I0104 20:53:21.028134  1529 net.cpp:159] Memory required for data: 411644224
I0104 20:53:21.028141  1529 layer_factory.hpp:77] Creating layer relu6_3/expand
I0104 20:53:21.028146  1529 net.cpp:94] Creating Layer relu6_3/expand
I0104 20:53:21.028149  1529 net.cpp:435] relu6_3/expand <- conv6_3/expand/bn
I0104 20:53:21.028154  1529 net.cpp:396] relu6_3/expand -> conv6_3/expand/bn (in-place)
I0104 20:53:21.028160  1529 net.cpp:144] Setting up relu6_3/expand
I0104 20:53:21.028163  1529 net.cpp:151] Top shape: 1 960 12 15 (172800)
I0104 20:53:21.028167  1529 net.cpp:159] Memory required for data: 412335424
I0104 20:53:21.028170  1529 layer_factory.hpp:77] Creating layer conv6_3/expand/bn_fixed
I0104 20:53:21.028177  1529 net.cpp:94] Creating Layer conv6_3/expand/bn_fixed
I0104 20:53:21.028179  1529 net.cpp:435] conv6_3/expand/bn_fixed <- conv6_3/expand/bn
I0104 20:53:21.028184  1529 net.cpp:396] conv6_3/expand/bn_fixed -> conv6_3/expand/bn (in-place)
I0104 20:53:21.028214  1529 net.cpp:144] Setting up conv6_3/expand/bn_fixed
I0104 20:53:21.028219  1529 net.cpp:151] Top shape: 1 960 12 15 (172800)
I0104 20:53:21.028224  1529 net.cpp:159] Memory required for data: 413026624
I0104 20:53:21.028228  1529 layer_factory.hpp:77] Creating layer conv6_3/dwise
I0104 20:53:21.028235  1529 net.cpp:94] Creating Layer conv6_3/dwise
I0104 20:53:21.028239  1529 net.cpp:435] conv6_3/dwise <- conv6_3/expand/bn
I0104 20:53:21.028244  1529 net.cpp:409] conv6_3/dwise -> conv6_3/dwise/bn
I0104 20:53:21.028471  1529 layer_factory.hpp:77] Creating layer conv6_3/dwise
I0104 20:53:21.028820  1529 net.cpp:144] Setting up conv6_3/dwise
I0104 20:53:21.028825  1529 net.cpp:151] Top shape: 1 960 12 15 (172800)
I0104 20:53:21.028831  1529 net.cpp:159] Memory required for data: 413717824
I0104 20:53:21.028836  1529 layer_factory.hpp:77] Creating layer relu6_3/dwise
I0104 20:53:21.028841  1529 net.cpp:94] Creating Layer relu6_3/dwise
I0104 20:53:21.028844  1529 net.cpp:435] relu6_3/dwise <- conv6_3/dwise/bn
I0104 20:53:21.028848  1529 net.cpp:396] relu6_3/dwise -> conv6_3/dwise/bn (in-place)
I0104 20:53:21.028854  1529 net.cpp:144] Setting up relu6_3/dwise
I0104 20:53:21.028857  1529 net.cpp:151] Top shape: 1 960 12 15 (172800)
I0104 20:53:21.028861  1529 net.cpp:159] Memory required for data: 414409024
I0104 20:53:21.028865  1529 layer_factory.hpp:77] Creating layer conv6_3/dwise/bn_fixed
I0104 20:53:21.028870  1529 net.cpp:94] Creating Layer conv6_3/dwise/bn_fixed
I0104 20:53:21.028873  1529 net.cpp:435] conv6_3/dwise/bn_fixed <- conv6_3/dwise/bn
I0104 20:53:21.028878  1529 net.cpp:396] conv6_3/dwise/bn_fixed -> conv6_3/dwise/bn (in-place)
I0104 20:53:21.028906  1529 net.cpp:144] Setting up conv6_3/dwise/bn_fixed
I0104 20:53:21.028911  1529 net.cpp:151] Top shape: 1 960 12 15 (172800)
I0104 20:53:21.028916  1529 net.cpp:159] Memory required for data: 415100224
I0104 20:53:21.028920  1529 layer_factory.hpp:77] Creating layer conv6_3/linear
I0104 20:53:21.028928  1529 net.cpp:94] Creating Layer conv6_3/linear
I0104 20:53:21.028930  1529 net.cpp:435] conv6_3/linear <- conv6_3/dwise/bn
I0104 20:53:21.028935  1529 net.cpp:409] conv6_3/linear -> conv6_3/linear/bn
I0104 20:53:21.032963  1529 layer_factory.hpp:77] Creating layer conv6_3/linear
I0104 20:53:21.037119  1529 net.cpp:144] Setting up conv6_3/linear
I0104 20:53:21.037129  1529 net.cpp:151] Top shape: 1 320 12 15 (57600)
I0104 20:53:21.037135  1529 net.cpp:159] Memory required for data: 415330624
I0104 20:53:21.037142  1529 layer_factory.hpp:77] Creating layer conv6_3/linear/bn_fixed
I0104 20:53:21.037148  1529 net.cpp:94] Creating Layer conv6_3/linear/bn_fixed
I0104 20:53:21.037153  1529 net.cpp:435] conv6_3/linear/bn_fixed <- conv6_3/linear/bn
I0104 20:53:21.037158  1529 net.cpp:396] conv6_3/linear/bn_fixed -> conv6_3/linear/bn (in-place)
I0104 20:53:21.037189  1529 net.cpp:144] Setting up conv6_3/linear/bn_fixed
I0104 20:53:21.037192  1529 net.cpp:151] Top shape: 1 320 12 15 (57600)
I0104 20:53:21.037197  1529 net.cpp:159] Memory required for data: 415561024
I0104 20:53:21.037201  1529 layer_factory.hpp:77] Creating layer conv6_4
I0104 20:53:21.037209  1529 net.cpp:94] Creating Layer conv6_4
I0104 20:53:21.037212  1529 net.cpp:435] conv6_4 <- conv6_3/linear/bn
I0104 20:53:21.037217  1529 net.cpp:409] conv6_4 -> conv6_4/bn
I0104 20:53:21.042176  1529 layer_factory.hpp:77] Creating layer conv6_4
I0104 20:53:21.046974  1529 net.cpp:144] Setting up conv6_4
I0104 20:53:21.046985  1529 net.cpp:151] Top shape: 1 1280 12 15 (230400)
I0104 20:53:21.047006  1529 net.cpp:159] Memory required for data: 416482624
I0104 20:53:21.047013  1529 layer_factory.hpp:77] Creating layer relu7
I0104 20:53:21.047019  1529 net.cpp:94] Creating Layer relu7
I0104 20:53:21.047024  1529 net.cpp:435] relu7 <- conv6_4/bn
I0104 20:53:21.047029  1529 net.cpp:409] relu7 -> fc7
I0104 20:53:21.047066  1529 net.cpp:144] Setting up relu7
I0104 20:53:21.047072  1529 net.cpp:151] Top shape: 1 1280 12 15 (230400)
I0104 20:53:21.047076  1529 net.cpp:159] Memory required for data: 417404224
I0104 20:53:21.047080  1529 layer_factory.hpp:77] Creating layer fc7_fixed
I0104 20:53:21.047086  1529 net.cpp:94] Creating Layer fc7_fixed
I0104 20:53:21.047089  1529 net.cpp:435] fc7_fixed <- fc7
I0104 20:53:21.047093  1529 net.cpp:396] fc7_fixed -> fc7 (in-place)
I0104 20:53:21.047124  1529 net.cpp:144] Setting up fc7_fixed
I0104 20:53:21.047130  1529 net.cpp:151] Top shape: 1 1280 12 15 (230400)
I0104 20:53:21.047134  1529 net.cpp:159] Memory required for data: 418325824
I0104 20:53:21.047138  1529 layer_factory.hpp:77] Creating layer fc7_fc7_fixed_0_split
I0104 20:53:21.047145  1529 net.cpp:94] Creating Layer fc7_fc7_fixed_0_split
I0104 20:53:21.047148  1529 net.cpp:435] fc7_fc7_fixed_0_split <- fc7
I0104 20:53:21.047153  1529 net.cpp:409] fc7_fc7_fixed_0_split -> fc7_fc7_fixed_0_split_0
I0104 20:53:21.047159  1529 net.cpp:409] fc7_fc7_fixed_0_split -> fc7_fc7_fixed_0_split_1
I0104 20:53:21.047164  1529 net.cpp:409] fc7_fc7_fixed_0_split -> fc7_fc7_fixed_0_split_2
I0104 20:53:21.047169  1529 net.cpp:409] fc7_fc7_fixed_0_split -> fc7_fc7_fixed_0_split_3
I0104 20:53:21.047220  1529 net.cpp:144] Setting up fc7_fc7_fixed_0_split
I0104 20:53:21.047226  1529 net.cpp:151] Top shape: 1 1280 12 15 (230400)
I0104 20:53:21.047231  1529 net.cpp:151] Top shape: 1 1280 12 15 (230400)
I0104 20:53:21.047235  1529 net.cpp:151] Top shape: 1 1280 12 15 (230400)
I0104 20:53:21.047240  1529 net.cpp:151] Top shape: 1 1280 12 15 (230400)
I0104 20:53:21.047243  1529 net.cpp:159] Memory required for data: 422012224
I0104 20:53:21.047246  1529 layer_factory.hpp:77] Creating layer conv6_1
I0104 20:53:21.047266  1529 net.cpp:94] Creating Layer conv6_1
I0104 20:53:21.047271  1529 net.cpp:435] conv6_1 <- fc7_fc7_fixed_0_split_0
I0104 20:53:21.047279  1529 net.cpp:409] conv6_1 -> conv6_1
I0104 20:53:21.050487  1529 layer_factory.hpp:77] Creating layer conv6_1
I0104 20:53:21.053818  1529 net.cpp:144] Setting up conv6_1
I0104 20:53:21.053828  1529 net.cpp:151] Top shape: 1 256 12 15 (46080)
I0104 20:53:21.053834  1529 net.cpp:159] Memory required for data: 422196544
I0104 20:53:21.053841  1529 layer_factory.hpp:77] Creating layer conv6_1_relu
I0104 20:53:21.053846  1529 net.cpp:94] Creating Layer conv6_1_relu
I0104 20:53:21.053850  1529 net.cpp:435] conv6_1_relu <- conv6_1
I0104 20:53:21.053855  1529 net.cpp:396] conv6_1_relu -> conv6_1 (in-place)
I0104 20:53:21.053861  1529 net.cpp:144] Setting up conv6_1_relu
I0104 20:53:21.053864  1529 net.cpp:151] Top shape: 1 256 12 15 (46080)
I0104 20:53:21.053869  1529 net.cpp:159] Memory required for data: 422380864
I0104 20:53:21.053871  1529 layer_factory.hpp:77] Creating layer conv6_1_fixed
I0104 20:53:21.053877  1529 net.cpp:94] Creating Layer conv6_1_fixed
I0104 20:53:21.053880  1529 net.cpp:435] conv6_1_fixed <- conv6_1
I0104 20:53:21.053884  1529 net.cpp:396] conv6_1_fixed -> conv6_1 (in-place)
I0104 20:53:21.053915  1529 net.cpp:144] Setting up conv6_1_fixed
I0104 20:53:21.053921  1529 net.cpp:151] Top shape: 1 256 12 15 (46080)
I0104 20:53:21.053925  1529 net.cpp:159] Memory required for data: 422565184
I0104 20:53:21.053930  1529 layer_factory.hpp:77] Creating layer conv6_2
I0104 20:53:21.053937  1529 net.cpp:94] Creating Layer conv6_2
I0104 20:53:21.053941  1529 net.cpp:435] conv6_2 <- conv6_1
I0104 20:53:21.053946  1529 net.cpp:409] conv6_2 -> conv6_2
I0104 20:53:21.063127  1529 layer_factory.hpp:77] Creating layer conv6_2
I0104 20:53:21.072418  1529 net.cpp:144] Setting up conv6_2
I0104 20:53:21.072429  1529 net.cpp:151] Top shape: 1 512 6 8 (24576)
I0104 20:53:21.072453  1529 net.cpp:159] Memory required for data: 422663488
I0104 20:53:21.072459  1529 layer_factory.hpp:77] Creating layer conv6_2_relu
I0104 20:53:21.072464  1529 net.cpp:94] Creating Layer conv6_2_relu
I0104 20:53:21.072469  1529 net.cpp:435] conv6_2_relu <- conv6_2
I0104 20:53:21.072474  1529 net.cpp:396] conv6_2_relu -> conv6_2 (in-place)
I0104 20:53:21.072481  1529 net.cpp:144] Setting up conv6_2_relu
I0104 20:53:21.072484  1529 net.cpp:151] Top shape: 1 512 6 8 (24576)
I0104 20:53:21.072504  1529 net.cpp:159] Memory required for data: 422761792
I0104 20:53:21.072506  1529 layer_factory.hpp:77] Creating layer conv6_2_fixed
I0104 20:53:21.072512  1529 net.cpp:94] Creating Layer conv6_2_fixed
I0104 20:53:21.072515  1529 net.cpp:435] conv6_2_fixed <- conv6_2
I0104 20:53:21.072520  1529 net.cpp:396] conv6_2_fixed -> conv6_2 (in-place)
I0104 20:53:21.072551  1529 net.cpp:144] Setting up conv6_2_fixed
I0104 20:53:21.072556  1529 net.cpp:151] Top shape: 1 512 6 8 (24576)
I0104 20:53:21.072561  1529 net.cpp:159] Memory required for data: 422860096
I0104 20:53:21.072564  1529 layer_factory.hpp:77] Creating layer conv6_2_conv6_2_fixed_0_split
I0104 20:53:21.072571  1529 net.cpp:94] Creating Layer conv6_2_conv6_2_fixed_0_split
I0104 20:53:21.072573  1529 net.cpp:435] conv6_2_conv6_2_fixed_0_split <- conv6_2
I0104 20:53:21.072578  1529 net.cpp:409] conv6_2_conv6_2_fixed_0_split -> conv6_2_conv6_2_fixed_0_split_0
I0104 20:53:21.072584  1529 net.cpp:409] conv6_2_conv6_2_fixed_0_split -> conv6_2_conv6_2_fixed_0_split_1
I0104 20:53:21.072590  1529 net.cpp:409] conv6_2_conv6_2_fixed_0_split -> conv6_2_conv6_2_fixed_0_split_2
I0104 20:53:21.072595  1529 net.cpp:409] conv6_2_conv6_2_fixed_0_split -> conv6_2_conv6_2_fixed_0_split_3
I0104 20:53:21.072643  1529 net.cpp:144] Setting up conv6_2_conv6_2_fixed_0_split
I0104 20:53:21.072649  1529 net.cpp:151] Top shape: 1 512 6 8 (24576)
I0104 20:53:21.072654  1529 net.cpp:151] Top shape: 1 512 6 8 (24576)
I0104 20:53:21.072657  1529 net.cpp:151] Top shape: 1 512 6 8 (24576)
I0104 20:53:21.072661  1529 net.cpp:151] Top shape: 1 512 6 8 (24576)
I0104 20:53:21.072665  1529 net.cpp:159] Memory required for data: 423253312
I0104 20:53:21.072669  1529 layer_factory.hpp:77] Creating layer conv7_1
I0104 20:53:21.072675  1529 net.cpp:94] Creating Layer conv7_1
I0104 20:53:21.072679  1529 net.cpp:435] conv7_1 <- conv6_2_conv6_2_fixed_0_split_0
I0104 20:53:21.072685  1529 net.cpp:409] conv7_1 -> conv7_1
I0104 20:53:21.073243  1529 layer_factory.hpp:77] Creating layer conv7_1
I0104 20:53:21.073940  1529 net.cpp:144] Setting up conv7_1
I0104 20:53:21.073951  1529 net.cpp:151] Top shape: 1 128 6 8 (6144)
I0104 20:53:21.073957  1529 net.cpp:159] Memory required for data: 423277888
I0104 20:53:21.073963  1529 layer_factory.hpp:77] Creating layer conv7_1_relu
I0104 20:53:21.073968  1529 net.cpp:94] Creating Layer conv7_1_relu
I0104 20:53:21.073972  1529 net.cpp:435] conv7_1_relu <- conv7_1
I0104 20:53:21.073977  1529 net.cpp:396] conv7_1_relu -> conv7_1 (in-place)
I0104 20:53:21.073982  1529 net.cpp:144] Setting up conv7_1_relu
I0104 20:53:21.073987  1529 net.cpp:151] Top shape: 1 128 6 8 (6144)
I0104 20:53:21.073990  1529 net.cpp:159] Memory required for data: 423302464
I0104 20:53:21.073993  1529 layer_factory.hpp:77] Creating layer conv7_1_fixed
I0104 20:53:21.073998  1529 net.cpp:94] Creating Layer conv7_1_fixed
I0104 20:53:21.074002  1529 net.cpp:435] conv7_1_fixed <- conv7_1
I0104 20:53:21.074007  1529 net.cpp:396] conv7_1_fixed -> conv7_1 (in-place)
I0104 20:53:21.074035  1529 net.cpp:144] Setting up conv7_1_fixed
I0104 20:53:21.074040  1529 net.cpp:151] Top shape: 1 128 6 8 (6144)
I0104 20:53:21.074045  1529 net.cpp:159] Memory required for data: 423327040
I0104 20:53:21.074049  1529 layer_factory.hpp:77] Creating layer conv7_2
I0104 20:53:21.074056  1529 net.cpp:94] Creating Layer conv7_2
I0104 20:53:21.074060  1529 net.cpp:435] conv7_2 <- conv7_1
I0104 20:53:21.074065  1529 net.cpp:409] conv7_2 -> conv7_2
I0104 20:53:21.077350  1529 layer_factory.hpp:77] Creating layer conv7_2
I0104 20:53:21.080449  1529 net.cpp:144] Setting up conv7_2
I0104 20:53:21.080459  1529 net.cpp:151] Top shape: 1 256 3 4 (3072)
I0104 20:53:21.080480  1529 net.cpp:159] Memory required for data: 423339328
I0104 20:53:21.080487  1529 layer_factory.hpp:77] Creating layer conv7_2_relu
I0104 20:53:21.080492  1529 net.cpp:94] Creating Layer conv7_2_relu
I0104 20:53:21.080497  1529 net.cpp:435] conv7_2_relu <- conv7_2
I0104 20:53:21.080502  1529 net.cpp:396] conv7_2_relu -> conv7_2 (in-place)
I0104 20:53:21.080508  1529 net.cpp:144] Setting up conv7_2_relu
I0104 20:53:21.080511  1529 net.cpp:151] Top shape: 1 256 3 4 (3072)
I0104 20:53:21.080530  1529 net.cpp:159] Memory required for data: 423351616
I0104 20:53:21.080533  1529 layer_factory.hpp:77] Creating layer conv7_2_fixed
I0104 20:53:21.080539  1529 net.cpp:94] Creating Layer conv7_2_fixed
I0104 20:53:21.080543  1529 net.cpp:435] conv7_2_fixed <- conv7_2
I0104 20:53:21.080547  1529 net.cpp:396] conv7_2_fixed -> conv7_2 (in-place)
I0104 20:53:21.080581  1529 net.cpp:144] Setting up conv7_2_fixed
I0104 20:53:21.080587  1529 net.cpp:151] Top shape: 1 256 3 4 (3072)
I0104 20:53:21.080591  1529 net.cpp:159] Memory required for data: 423363904
I0104 20:53:21.080596  1529 layer_factory.hpp:77] Creating layer conv7_2_conv7_2_fixed_0_split
I0104 20:53:21.080601  1529 net.cpp:94] Creating Layer conv7_2_conv7_2_fixed_0_split
I0104 20:53:21.080605  1529 net.cpp:435] conv7_2_conv7_2_fixed_0_split <- conv7_2
I0104 20:53:21.080610  1529 net.cpp:409] conv7_2_conv7_2_fixed_0_split -> conv7_2_conv7_2_fixed_0_split_0
I0104 20:53:21.080615  1529 net.cpp:409] conv7_2_conv7_2_fixed_0_split -> conv7_2_conv7_2_fixed_0_split_1
I0104 20:53:21.080621  1529 net.cpp:409] conv7_2_conv7_2_fixed_0_split -> conv7_2_conv7_2_fixed_0_split_2
I0104 20:53:21.080662  1529 net.cpp:144] Setting up conv7_2_conv7_2_fixed_0_split
I0104 20:53:21.080667  1529 net.cpp:151] Top shape: 1 256 3 4 (3072)
I0104 20:53:21.080672  1529 net.cpp:151] Top shape: 1 256 3 4 (3072)
I0104 20:53:21.080674  1529 net.cpp:151] Top shape: 1 256 3 4 (3072)
I0104 20:53:21.080678  1529 net.cpp:159] Memory required for data: 423400768
I0104 20:53:21.080682  1529 layer_factory.hpp:77] Creating layer conv4_3_norm_mbox_loc
I0104 20:53:21.080689  1529 net.cpp:94] Creating Layer conv4_3_norm_mbox_loc
I0104 20:53:21.080693  1529 net.cpp:435] conv4_3_norm_mbox_loc <- conv4_7/expand/bn_conv4_7/expand/bn_fixed_0_split_1
I0104 20:53:21.080699  1529 net.cpp:409] conv4_3_norm_mbox_loc -> conv4_3_norm_mbox_loc
I0104 20:53:21.081502  1529 layer_factory.hpp:77] Creating layer conv4_3_norm_mbox_loc
I0104 20:53:21.082419  1529 net.cpp:144] Setting up conv4_3_norm_mbox_loc
I0104 20:53:21.082427  1529 net.cpp:151] Top shape: 1 32 45 60 (86400)
I0104 20:53:21.082432  1529 net.cpp:159] Memory required for data: 423746368
I0104 20:53:21.082453  1529 layer_factory.hpp:77] Creating layer conv4_3_norm_mbox_loc_perm
I0104 20:53:21.082459  1529 net.cpp:94] Creating Layer conv4_3_norm_mbox_loc_perm
I0104 20:53:21.082463  1529 net.cpp:435] conv4_3_norm_mbox_loc_perm <- conv4_3_norm_mbox_loc
I0104 20:53:21.082469  1529 net.cpp:409] conv4_3_norm_mbox_loc_perm -> conv4_3_norm_mbox_loc_perm
I0104 20:53:21.082551  1529 net.cpp:144] Setting up conv4_3_norm_mbox_loc_perm
I0104 20:53:21.082556  1529 net.cpp:151] Top shape: 1 45 60 32 (86400)
I0104 20:53:21.082561  1529 net.cpp:159] Memory required for data: 424091968
I0104 20:53:21.082564  1529 layer_factory.hpp:77] Creating layer conv4_3_norm_mbox_loc_flat
I0104 20:53:21.082571  1529 net.cpp:94] Creating Layer conv4_3_norm_mbox_loc_flat
I0104 20:53:21.082573  1529 net.cpp:435] conv4_3_norm_mbox_loc_flat <- conv4_3_norm_mbox_loc_perm
I0104 20:53:21.082578  1529 net.cpp:409] conv4_3_norm_mbox_loc_flat -> conv4_3_norm_mbox_loc_flat
I0104 20:53:21.082599  1529 net.cpp:144] Setting up conv4_3_norm_mbox_loc_flat
I0104 20:53:21.082604  1529 net.cpp:151] Top shape: 1 86400 (86400)
I0104 20:53:21.082609  1529 net.cpp:159] Memory required for data: 424437568
I0104 20:53:21.082612  1529 layer_factory.hpp:77] Creating layer conv4_3_norm_mbox_conf_new
I0104 20:53:21.082619  1529 net.cpp:94] Creating Layer conv4_3_norm_mbox_conf_new
I0104 20:53:21.082623  1529 net.cpp:435] conv4_3_norm_mbox_conf_new <- conv4_7/expand/bn_conv4_7/expand/bn_fixed_0_split_2
I0104 20:53:21.082628  1529 net.cpp:409] conv4_3_norm_mbox_conf_new -> conv4_3_norm_mbox_conf_new
I0104 20:53:21.087309  1529 layer_factory.hpp:77] Creating layer conv4_3_norm_mbox_conf_new
I0104 20:53:21.092198  1529 net.cpp:144] Setting up conv4_3_norm_mbox_conf_new
I0104 20:53:21.092208  1529 net.cpp:151] Top shape: 1 168 45 60 (453600)
I0104 20:53:21.092231  1529 net.cpp:159] Memory required for data: 426251968
I0104 20:53:21.092236  1529 layer_factory.hpp:77] Creating layer conv4_3_norm_mbox_conf_perm
I0104 20:53:21.092243  1529 net.cpp:94] Creating Layer conv4_3_norm_mbox_conf_perm
I0104 20:53:21.092248  1529 net.cpp:435] conv4_3_norm_mbox_conf_perm <- conv4_3_norm_mbox_conf_new
I0104 20:53:21.092253  1529 net.cpp:409] conv4_3_norm_mbox_conf_perm -> conv4_3_norm_mbox_conf_perm
I0104 20:53:21.092337  1529 net.cpp:144] Setting up conv4_3_norm_mbox_conf_perm
I0104 20:53:21.092344  1529 net.cpp:151] Top shape: 1 45 60 168 (453600)
I0104 20:53:21.092348  1529 net.cpp:159] Memory required for data: 428066368
I0104 20:53:21.092351  1529 layer_factory.hpp:77] Creating layer conv4_3_norm_mbox_conf_flat
I0104 20:53:21.092357  1529 net.cpp:94] Creating Layer conv4_3_norm_mbox_conf_flat
I0104 20:53:21.092360  1529 net.cpp:435] conv4_3_norm_mbox_conf_flat <- conv4_3_norm_mbox_conf_perm
I0104 20:53:21.092365  1529 net.cpp:409] conv4_3_norm_mbox_conf_flat -> conv4_3_norm_mbox_conf_flat
I0104 20:53:21.092384  1529 net.cpp:144] Setting up conv4_3_norm_mbox_conf_flat
I0104 20:53:21.092389  1529 net.cpp:151] Top shape: 1 453600 (453600)
I0104 20:53:21.092393  1529 net.cpp:159] Memory required for data: 429880768
I0104 20:53:21.092396  1529 layer_factory.hpp:77] Creating layer conv4_3_norm_mbox_priorbox
I0104 20:53:21.092403  1529 net.cpp:94] Creating Layer conv4_3_norm_mbox_priorbox
I0104 20:53:21.092407  1529 net.cpp:435] conv4_3_norm_mbox_priorbox <- conv4_7/expand/bn_conv4_7/expand/bn_fixed_0_split_3
I0104 20:53:21.092411  1529 net.cpp:435] conv4_3_norm_mbox_priorbox <- data_data_fixed_0_split_1
I0104 20:53:21.092417  1529 net.cpp:409] conv4_3_norm_mbox_priorbox -> conv4_3_norm_mbox_priorbox
I0104 20:53:21.092438  1529 net.cpp:144] Setting up conv4_3_norm_mbox_priorbox
I0104 20:53:21.092442  1529 net.cpp:151] Top shape: 1 2 86400 (172800)
I0104 20:53:21.092447  1529 net.cpp:159] Memory required for data: 430571968
I0104 20:53:21.092449  1529 layer_factory.hpp:77] Creating layer fc7_mbox_loc
I0104 20:53:21.092458  1529 net.cpp:94] Creating Layer fc7_mbox_loc
I0104 20:53:21.092461  1529 net.cpp:435] fc7_mbox_loc <- conv5_3/expand/bn_conv5_3/expand/bn_fixed_0_split_1
I0104 20:53:21.092466  1529 net.cpp:409] fc7_mbox_loc -> fc7_mbox_loc
I0104 20:53:21.093338  1529 layer_factory.hpp:77] Creating layer fc7_mbox_loc
I0104 20:53:21.094327  1529 net.cpp:144] Setting up fc7_mbox_loc
I0104 20:53:21.094334  1529 net.cpp:151] Top shape: 1 24 23 30 (16560)
I0104 20:53:21.094339  1529 net.cpp:159] Memory required for data: 430638208
I0104 20:53:21.094360  1529 layer_factory.hpp:77] Creating layer fc7_mbox_loc_perm
I0104 20:53:21.094367  1529 net.cpp:94] Creating Layer fc7_mbox_loc_perm
I0104 20:53:21.094370  1529 net.cpp:435] fc7_mbox_loc_perm <- fc7_mbox_loc
I0104 20:53:21.094375  1529 net.cpp:409] fc7_mbox_loc_perm -> fc7_mbox_loc_perm
I0104 20:53:21.094451  1529 net.cpp:144] Setting up fc7_mbox_loc_perm
I0104 20:53:21.094457  1529 net.cpp:151] Top shape: 1 23 30 24 (16560)
I0104 20:53:21.094462  1529 net.cpp:159] Memory required for data: 430704448
I0104 20:53:21.094465  1529 layer_factory.hpp:77] Creating layer fc7_mbox_loc_flat
I0104 20:53:21.094470  1529 net.cpp:94] Creating Layer fc7_mbox_loc_flat
I0104 20:53:21.094473  1529 net.cpp:435] fc7_mbox_loc_flat <- fc7_mbox_loc_perm
I0104 20:53:21.094478  1529 net.cpp:409] fc7_mbox_loc_flat -> fc7_mbox_loc_flat
I0104 20:53:21.094496  1529 net.cpp:144] Setting up fc7_mbox_loc_flat
I0104 20:53:21.094499  1529 net.cpp:151] Top shape: 1 16560 (16560)
I0104 20:53:21.094503  1529 net.cpp:159] Memory required for data: 430770688
I0104 20:53:21.094506  1529 layer_factory.hpp:77] Creating layer fc7_mbox_conf_new
I0104 20:53:21.094513  1529 net.cpp:94] Creating Layer fc7_mbox_conf_new
I0104 20:53:21.094517  1529 net.cpp:435] fc7_mbox_conf_new <- conv5_3/expand/bn_conv5_3/expand/bn_fixed_0_split_2
I0104 20:53:21.094522  1529 net.cpp:409] fc7_mbox_conf_new -> fc7_mbox_conf_new
I0104 20:53:21.099747  1529 layer_factory.hpp:77] Creating layer fc7_mbox_conf_new
I0104 20:53:21.105393  1529 net.cpp:144] Setting up fc7_mbox_conf_new
I0104 20:53:21.105404  1529 net.cpp:151] Top shape: 1 126 23 30 (86940)
I0104 20:53:21.105425  1529 net.cpp:159] Memory required for data: 431118448
I0104 20:53:21.105433  1529 layer_factory.hpp:77] Creating layer fc7_mbox_conf_perm
I0104 20:53:21.105439  1529 net.cpp:94] Creating Layer fc7_mbox_conf_perm
I0104 20:53:21.105444  1529 net.cpp:435] fc7_mbox_conf_perm <- fc7_mbox_conf_new
I0104 20:53:21.105451  1529 net.cpp:409] fc7_mbox_conf_perm -> fc7_mbox_conf_perm
I0104 20:53:21.105548  1529 net.cpp:144] Setting up fc7_mbox_conf_perm
I0104 20:53:21.105553  1529 net.cpp:151] Top shape: 1 23 30 126 (86940)
I0104 20:53:21.105558  1529 net.cpp:159] Memory required for data: 431466208
I0104 20:53:21.105562  1529 layer_factory.hpp:77] Creating layer fc7_mbox_conf_flat
I0104 20:53:21.105567  1529 net.cpp:94] Creating Layer fc7_mbox_conf_flat
I0104 20:53:21.105571  1529 net.cpp:435] fc7_mbox_conf_flat <- fc7_mbox_conf_perm
I0104 20:53:21.105576  1529 net.cpp:409] fc7_mbox_conf_flat -> fc7_mbox_conf_flat
I0104 20:53:21.105593  1529 net.cpp:144] Setting up fc7_mbox_conf_flat
I0104 20:53:21.105597  1529 net.cpp:151] Top shape: 1 86940 (86940)
I0104 20:53:21.105602  1529 net.cpp:159] Memory required for data: 431813968
I0104 20:53:21.105604  1529 layer_factory.hpp:77] Creating layer fc7_mbox_priorbox
I0104 20:53:21.105610  1529 net.cpp:94] Creating Layer fc7_mbox_priorbox
I0104 20:53:21.105614  1529 net.cpp:435] fc7_mbox_priorbox <- conv5_3/expand/bn_conv5_3/expand/bn_fixed_0_split_3
I0104 20:53:21.105618  1529 net.cpp:435] fc7_mbox_priorbox <- data_data_fixed_0_split_2
I0104 20:53:21.105623  1529 net.cpp:409] fc7_mbox_priorbox -> fc7_mbox_priorbox
I0104 20:53:21.105646  1529 net.cpp:144] Setting up fc7_mbox_priorbox
I0104 20:53:21.105650  1529 net.cpp:151] Top shape: 1 2 16560 (33120)
I0104 20:53:21.105654  1529 net.cpp:159] Memory required for data: 431946448
I0104 20:53:21.105659  1529 layer_factory.hpp:77] Creating layer conv6_2_mbox_loc
I0104 20:53:21.105665  1529 net.cpp:94] Creating Layer conv6_2_mbox_loc
I0104 20:53:21.105669  1529 net.cpp:435] conv6_2_mbox_loc <- fc7_fc7_fixed_0_split_1
I0104 20:53:21.105674  1529 net.cpp:409] conv6_2_mbox_loc -> conv6_2_mbox_loc
I0104 20:53:21.108669  1529 layer_factory.hpp:77] Creating layer conv6_2_mbox_loc
I0104 20:53:21.111687  1529 net.cpp:144] Setting up conv6_2_mbox_loc
I0104 20:53:21.111697  1529 net.cpp:151] Top shape: 1 24 12 15 (4320)
I0104 20:53:21.111724  1529 net.cpp:159] Memory required for data: 431963728
I0104 20:53:21.111732  1529 layer_factory.hpp:77] Creating layer conv6_2_mbox_loc_perm
I0104 20:53:21.111738  1529 net.cpp:94] Creating Layer conv6_2_mbox_loc_perm
I0104 20:53:21.111742  1529 net.cpp:435] conv6_2_mbox_loc_perm <- conv6_2_mbox_loc
I0104 20:53:21.111748  1529 net.cpp:409] conv6_2_mbox_loc_perm -> conv6_2_mbox_loc_perm
I0104 20:53:21.111830  1529 net.cpp:144] Setting up conv6_2_mbox_loc_perm
I0104 20:53:21.111836  1529 net.cpp:151] Top shape: 1 12 15 24 (4320)
I0104 20:53:21.111841  1529 net.cpp:159] Memory required for data: 431981008
I0104 20:53:21.111845  1529 layer_factory.hpp:77] Creating layer conv6_2_mbox_loc_flat
I0104 20:53:21.111850  1529 net.cpp:94] Creating Layer conv6_2_mbox_loc_flat
I0104 20:53:21.111853  1529 net.cpp:435] conv6_2_mbox_loc_flat <- conv6_2_mbox_loc_perm
I0104 20:53:21.111858  1529 net.cpp:409] conv6_2_mbox_loc_flat -> conv6_2_mbox_loc_flat
I0104 20:53:21.111876  1529 net.cpp:144] Setting up conv6_2_mbox_loc_flat
I0104 20:53:21.111881  1529 net.cpp:151] Top shape: 1 4320 (4320)
I0104 20:53:21.111884  1529 net.cpp:159] Memory required for data: 431998288
I0104 20:53:21.111887  1529 layer_factory.hpp:77] Creating layer conv6_2_mbox_conf_new
I0104 20:53:21.111896  1529 net.cpp:94] Creating Layer conv6_2_mbox_conf_new
I0104 20:53:21.111899  1529 net.cpp:435] conv6_2_mbox_conf_new <- fc7_fc7_fixed_0_split_2
I0104 20:53:21.111904  1529 net.cpp:409] conv6_2_mbox_conf_new -> conv6_2_mbox_conf_new
I0104 20:53:21.123035  1529 layer_factory.hpp:77] Creating layer conv6_2_mbox_conf_new
I0104 20:53:21.134186  1529 net.cpp:144] Setting up conv6_2_mbox_conf_new
I0104 20:53:21.134198  1529 net.cpp:151] Top shape: 1 126 12 15 (22680)
I0104 20:53:21.134222  1529 net.cpp:159] Memory required for data: 432089008
I0104 20:53:21.134228  1529 layer_factory.hpp:77] Creating layer conv6_2_mbox_conf_perm
I0104 20:53:21.134236  1529 net.cpp:94] Creating Layer conv6_2_mbox_conf_perm
I0104 20:53:21.134240  1529 net.cpp:435] conv6_2_mbox_conf_perm <- conv6_2_mbox_conf_new
I0104 20:53:21.134248  1529 net.cpp:409] conv6_2_mbox_conf_perm -> conv6_2_mbox_conf_perm
I0104 20:53:21.134344  1529 net.cpp:144] Setting up conv6_2_mbox_conf_perm
I0104 20:53:21.134351  1529 net.cpp:151] Top shape: 1 12 15 126 (22680)
I0104 20:53:21.134354  1529 net.cpp:159] Memory required for data: 432179728
I0104 20:53:21.134358  1529 layer_factory.hpp:77] Creating layer conv6_2_mbox_conf_flat
I0104 20:53:21.134363  1529 net.cpp:94] Creating Layer conv6_2_mbox_conf_flat
I0104 20:53:21.134367  1529 net.cpp:435] conv6_2_mbox_conf_flat <- conv6_2_mbox_conf_perm
I0104 20:53:21.134371  1529 net.cpp:409] conv6_2_mbox_conf_flat -> conv6_2_mbox_conf_flat
I0104 20:53:21.134390  1529 net.cpp:144] Setting up conv6_2_mbox_conf_flat
I0104 20:53:21.134394  1529 net.cpp:151] Top shape: 1 22680 (22680)
I0104 20:53:21.134398  1529 net.cpp:159] Memory required for data: 432270448
I0104 20:53:21.134407  1529 layer_factory.hpp:77] Creating layer conv6_2_mbox_priorbox
I0104 20:53:21.134419  1529 net.cpp:94] Creating Layer conv6_2_mbox_priorbox
I0104 20:53:21.134423  1529 net.cpp:435] conv6_2_mbox_priorbox <- fc7_fc7_fixed_0_split_3
I0104 20:53:21.134429  1529 net.cpp:435] conv6_2_mbox_priorbox <- data_data_fixed_0_split_3
I0104 20:53:21.134438  1529 net.cpp:409] conv6_2_mbox_priorbox -> conv6_2_mbox_priorbox
I0104 20:53:21.134464  1529 net.cpp:144] Setting up conv6_2_mbox_priorbox
I0104 20:53:21.134471  1529 net.cpp:151] Top shape: 1 2 4320 (8640)
I0104 20:53:21.134475  1529 net.cpp:159] Memory required for data: 432305008
I0104 20:53:21.134479  1529 layer_factory.hpp:77] Creating layer conv7_2_mbox_loc
I0104 20:53:21.134487  1529 net.cpp:94] Creating Layer conv7_2_mbox_loc
I0104 20:53:21.134491  1529 net.cpp:435] conv7_2_mbox_loc <- conv6_2_conv6_2_fixed_0_split_1
I0104 20:53:21.134498  1529 net.cpp:409] conv7_2_mbox_loc -> conv7_2_mbox_loc
I0104 20:53:21.135291  1529 layer_factory.hpp:77] Creating layer conv7_2_mbox_loc
I0104 20:53:21.136224  1529 net.cpp:144] Setting up conv7_2_mbox_loc
I0104 20:53:21.136230  1529 net.cpp:151] Top shape: 1 24 6 8 (1152)
I0104 20:53:21.136234  1529 net.cpp:159] Memory required for data: 432309616
I0104 20:53:21.136256  1529 layer_factory.hpp:77] Creating layer conv7_2_mbox_loc_perm
I0104 20:53:21.136263  1529 net.cpp:94] Creating Layer conv7_2_mbox_loc_perm
I0104 20:53:21.136267  1529 net.cpp:435] conv7_2_mbox_loc_perm <- conv7_2_mbox_loc
I0104 20:53:21.136273  1529 net.cpp:409] conv7_2_mbox_loc_perm -> conv7_2_mbox_loc_perm
I0104 20:53:21.136363  1529 net.cpp:144] Setting up conv7_2_mbox_loc_perm
I0104 20:53:21.136368  1529 net.cpp:151] Top shape: 1 6 8 24 (1152)
I0104 20:53:21.136373  1529 net.cpp:159] Memory required for data: 432314224
I0104 20:53:21.136375  1529 layer_factory.hpp:77] Creating layer conv7_2_mbox_loc_flat
I0104 20:53:21.136380  1529 net.cpp:94] Creating Layer conv7_2_mbox_loc_flat
I0104 20:53:21.136384  1529 net.cpp:435] conv7_2_mbox_loc_flat <- conv7_2_mbox_loc_perm
I0104 20:53:21.136389  1529 net.cpp:409] conv7_2_mbox_loc_flat -> conv7_2_mbox_loc_flat
I0104 20:53:21.136409  1529 net.cpp:144] Setting up conv7_2_mbox_loc_flat
I0104 20:53:21.136416  1529 net.cpp:151] Top shape: 1 1152 (1152)
I0104 20:53:21.136420  1529 net.cpp:159] Memory required for data: 432318832
I0104 20:53:21.136423  1529 layer_factory.hpp:77] Creating layer conv7_2_mbox_conf_new
I0104 20:53:21.136430  1529 net.cpp:94] Creating Layer conv7_2_mbox_conf_new
I0104 20:53:21.136435  1529 net.cpp:435] conv7_2_mbox_conf_new <- conv6_2_conv6_2_fixed_0_split_2
I0104 20:53:21.136440  1529 net.cpp:409] conv7_2_mbox_conf_new -> conv7_2_mbox_conf_new
I0104 20:53:21.141181  1529 layer_factory.hpp:77] Creating layer conv7_2_mbox_conf_new
I0104 20:53:21.145809  1529 net.cpp:144] Setting up conv7_2_mbox_conf_new
I0104 20:53:21.145819  1529 net.cpp:151] Top shape: 1 126 6 8 (6048)
I0104 20:53:21.145840  1529 net.cpp:159] Memory required for data: 432343024
I0104 20:53:21.145846  1529 layer_factory.hpp:77] Creating layer conv7_2_mbox_conf_perm
I0104 20:53:21.145853  1529 net.cpp:94] Creating Layer conv7_2_mbox_conf_perm
I0104 20:53:21.145857  1529 net.cpp:435] conv7_2_mbox_conf_perm <- conv7_2_mbox_conf_new
I0104 20:53:21.145864  1529 net.cpp:409] conv7_2_mbox_conf_perm -> conv7_2_mbox_conf_perm
I0104 20:53:21.145959  1529 net.cpp:144] Setting up conv7_2_mbox_conf_perm
I0104 20:53:21.145965  1529 net.cpp:151] Top shape: 1 6 8 126 (6048)
I0104 20:53:21.145970  1529 net.cpp:159] Memory required for data: 432367216
I0104 20:53:21.145973  1529 layer_factory.hpp:77] Creating layer conv7_2_mbox_conf_flat
I0104 20:53:21.145978  1529 net.cpp:94] Creating Layer conv7_2_mbox_conf_flat
I0104 20:53:21.145982  1529 net.cpp:435] conv7_2_mbox_conf_flat <- conv7_2_mbox_conf_perm
I0104 20:53:21.145987  1529 net.cpp:409] conv7_2_mbox_conf_flat -> conv7_2_mbox_conf_flat
I0104 20:53:21.146005  1529 net.cpp:144] Setting up conv7_2_mbox_conf_flat
I0104 20:53:21.146011  1529 net.cpp:151] Top shape: 1 6048 (6048)
I0104 20:53:21.146015  1529 net.cpp:159] Memory required for data: 432391408
I0104 20:53:21.146018  1529 layer_factory.hpp:77] Creating layer conv7_2_mbox_priorbox
I0104 20:53:21.146024  1529 net.cpp:94] Creating Layer conv7_2_mbox_priorbox
I0104 20:53:21.146028  1529 net.cpp:435] conv7_2_mbox_priorbox <- conv6_2_conv6_2_fixed_0_split_3
I0104 20:53:21.146032  1529 net.cpp:435] conv7_2_mbox_priorbox <- data_data_fixed_0_split_4
I0104 20:53:21.146037  1529 net.cpp:409] conv7_2_mbox_priorbox -> conv7_2_mbox_priorbox
I0104 20:53:21.146057  1529 net.cpp:144] Setting up conv7_2_mbox_priorbox
I0104 20:53:21.146061  1529 net.cpp:151] Top shape: 1 2 1152 (2304)
I0104 20:53:21.146065  1529 net.cpp:159] Memory required for data: 432400624
I0104 20:53:21.146068  1529 layer_factory.hpp:77] Creating layer conv8_2_mbox_loc
I0104 20:53:21.146076  1529 net.cpp:94] Creating Layer conv8_2_mbox_loc
I0104 20:53:21.146080  1529 net.cpp:435] conv8_2_mbox_loc <- conv7_2_conv7_2_fixed_0_split_0
I0104 20:53:21.146085  1529 net.cpp:409] conv8_2_mbox_loc -> conv8_2_mbox_loc
I0104 20:53:21.146456  1529 layer_factory.hpp:77] Creating layer conv8_2_mbox_loc
I0104 20:53:21.146981  1529 net.cpp:144] Setting up conv8_2_mbox_loc
I0104 20:53:21.146987  1529 net.cpp:151] Top shape: 1 16 3 4 (192)
I0104 20:53:21.146992  1529 net.cpp:159] Memory required for data: 432401392
I0104 20:53:21.146998  1529 layer_factory.hpp:77] Creating layer conv8_2_mbox_loc_perm
I0104 20:53:21.147003  1529 net.cpp:94] Creating Layer conv8_2_mbox_loc_perm
I0104 20:53:21.147007  1529 net.cpp:435] conv8_2_mbox_loc_perm <- conv8_2_mbox_loc
I0104 20:53:21.147012  1529 net.cpp:409] conv8_2_mbox_loc_perm -> conv8_2_mbox_loc_perm
I0104 20:53:21.147094  1529 net.cpp:144] Setting up conv8_2_mbox_loc_perm
I0104 20:53:21.147100  1529 net.cpp:151] Top shape: 1 3 4 16 (192)
I0104 20:53:21.147104  1529 net.cpp:159] Memory required for data: 432402160
I0104 20:53:21.147109  1529 layer_factory.hpp:77] Creating layer conv8_2_mbox_loc_flat
I0104 20:53:21.147112  1529 net.cpp:94] Creating Layer conv8_2_mbox_loc_flat
I0104 20:53:21.147116  1529 net.cpp:435] conv8_2_mbox_loc_flat <- conv8_2_mbox_loc_perm
I0104 20:53:21.147120  1529 net.cpp:409] conv8_2_mbox_loc_flat -> conv8_2_mbox_loc_flat
I0104 20:53:21.147140  1529 net.cpp:144] Setting up conv8_2_mbox_loc_flat
I0104 20:53:21.147143  1529 net.cpp:151] Top shape: 1 192 (192)
I0104 20:53:21.147147  1529 net.cpp:159] Memory required for data: 432402928
I0104 20:53:21.147150  1529 layer_factory.hpp:77] Creating layer conv8_2_mbox_conf_new
I0104 20:53:21.147157  1529 net.cpp:94] Creating Layer conv8_2_mbox_conf_new
I0104 20:53:21.147161  1529 net.cpp:435] conv8_2_mbox_conf_new <- conv7_2_conv7_2_fixed_0_split_1
I0104 20:53:21.147166  1529 net.cpp:409] conv8_2_mbox_conf_new -> conv8_2_mbox_conf_new
I0104 20:53:21.148443  1529 layer_factory.hpp:77] Creating layer conv8_2_mbox_conf_new
I0104 20:53:21.149825  1529 net.cpp:144] Setting up conv8_2_mbox_conf_new
I0104 20:53:21.149833  1529 net.cpp:151] Top shape: 1 84 3 4 (1008)
I0104 20:53:21.149837  1529 net.cpp:159] Memory required for data: 432406960
I0104 20:53:21.149858  1529 layer_factory.hpp:77] Creating layer conv8_2_mbox_conf_perm
I0104 20:53:21.149864  1529 net.cpp:94] Creating Layer conv8_2_mbox_conf_perm
I0104 20:53:21.149868  1529 net.cpp:435] conv8_2_mbox_conf_perm <- conv8_2_mbox_conf_new
I0104 20:53:21.149873  1529 net.cpp:409] conv8_2_mbox_conf_perm -> conv8_2_mbox_conf_perm
I0104 20:53:21.149955  1529 net.cpp:144] Setting up conv8_2_mbox_conf_perm
I0104 20:53:21.149960  1529 net.cpp:151] Top shape: 1 3 4 84 (1008)
I0104 20:53:21.149964  1529 net.cpp:159] Memory required for data: 432410992
I0104 20:53:21.149967  1529 layer_factory.hpp:77] Creating layer conv8_2_mbox_conf_flat
I0104 20:53:21.149972  1529 net.cpp:94] Creating Layer conv8_2_mbox_conf_flat
I0104 20:53:21.149976  1529 net.cpp:435] conv8_2_mbox_conf_flat <- conv8_2_mbox_conf_perm
I0104 20:53:21.149981  1529 net.cpp:409] conv8_2_mbox_conf_flat -> conv8_2_mbox_conf_flat
I0104 20:53:21.149998  1529 net.cpp:144] Setting up conv8_2_mbox_conf_flat
I0104 20:53:21.150002  1529 net.cpp:151] Top shape: 1 1008 (1008)
I0104 20:53:21.150005  1529 net.cpp:159] Memory required for data: 432415024
I0104 20:53:21.150009  1529 layer_factory.hpp:77] Creating layer conv8_2_mbox_priorbox
I0104 20:53:21.150014  1529 net.cpp:94] Creating Layer conv8_2_mbox_priorbox
I0104 20:53:21.150018  1529 net.cpp:435] conv8_2_mbox_priorbox <- conv7_2_conv7_2_fixed_0_split_2
I0104 20:53:21.150022  1529 net.cpp:435] conv8_2_mbox_priorbox <- data_data_fixed_0_split_5
I0104 20:53:21.150027  1529 net.cpp:409] conv8_2_mbox_priorbox -> conv8_2_mbox_priorbox
I0104 20:53:21.150046  1529 net.cpp:144] Setting up conv8_2_mbox_priorbox
I0104 20:53:21.150050  1529 net.cpp:151] Top shape: 1 2 192 (384)
I0104 20:53:21.150054  1529 net.cpp:159] Memory required for data: 432416560
I0104 20:53:21.150058  1529 layer_factory.hpp:77] Creating layer mbox_loc
I0104 20:53:21.150063  1529 net.cpp:94] Creating Layer mbox_loc
I0104 20:53:21.150066  1529 net.cpp:435] mbox_loc <- conv4_3_norm_mbox_loc_flat
I0104 20:53:21.150071  1529 net.cpp:435] mbox_loc <- fc7_mbox_loc_flat
I0104 20:53:21.150075  1529 net.cpp:435] mbox_loc <- conv6_2_mbox_loc_flat
I0104 20:53:21.150079  1529 net.cpp:435] mbox_loc <- conv7_2_mbox_loc_flat
I0104 20:53:21.150082  1529 net.cpp:435] mbox_loc <- conv8_2_mbox_loc_flat
I0104 20:53:21.150087  1529 net.cpp:409] mbox_loc -> mbox_loc
I0104 20:53:21.150107  1529 net.cpp:144] Setting up mbox_loc
I0104 20:53:21.150113  1529 net.cpp:151] Top shape: 1 108624 (108624)
I0104 20:53:21.150118  1529 net.cpp:159] Memory required for data: 432851056
I0104 20:53:21.150121  1529 layer_factory.hpp:77] Creating layer mbox_loc_fixed
I0104 20:53:21.150126  1529 net.cpp:94] Creating Layer mbox_loc_fixed
I0104 20:53:21.150130  1529 net.cpp:435] mbox_loc_fixed <- mbox_loc
I0104 20:53:21.150135  1529 net.cpp:396] mbox_loc_fixed -> mbox_loc (in-place)
I0104 20:53:21.150166  1529 net.cpp:144] Setting up mbox_loc_fixed
I0104 20:53:21.150169  1529 net.cpp:151] Top shape: 1 108624 (108624)
I0104 20:53:21.150173  1529 net.cpp:159] Memory required for data: 433285552
I0104 20:53:21.150177  1529 layer_factory.hpp:77] Creating layer mbox_conf
I0104 20:53:21.150183  1529 net.cpp:94] Creating Layer mbox_conf
I0104 20:53:21.150187  1529 net.cpp:435] mbox_conf <- conv4_3_norm_mbox_conf_flat
I0104 20:53:21.150190  1529 net.cpp:435] mbox_conf <- fc7_mbox_conf_flat
I0104 20:53:21.150194  1529 net.cpp:435] mbox_conf <- conv6_2_mbox_conf_flat
I0104 20:53:21.150198  1529 net.cpp:435] mbox_conf <- conv7_2_mbox_conf_flat
I0104 20:53:21.150202  1529 net.cpp:435] mbox_conf <- conv8_2_mbox_conf_flat
I0104 20:53:21.150207  1529 net.cpp:409] mbox_conf -> mbox_conf
I0104 20:53:21.150223  1529 net.cpp:144] Setting up mbox_conf
I0104 20:53:21.150228  1529 net.cpp:151] Top shape: 1 570276 (570276)
I0104 20:53:21.150231  1529 net.cpp:159] Memory required for data: 435566656
I0104 20:53:21.150234  1529 layer_factory.hpp:77] Creating layer mbox_conf_fixed
I0104 20:53:21.150239  1529 net.cpp:94] Creating Layer mbox_conf_fixed
I0104 20:53:21.150243  1529 net.cpp:435] mbox_conf_fixed <- mbox_conf
I0104 20:53:21.150247  1529 net.cpp:396] mbox_conf_fixed -> mbox_conf (in-place)
I0104 20:53:21.150274  1529 net.cpp:144] Setting up mbox_conf_fixed
I0104 20:53:21.150279  1529 net.cpp:151] Top shape: 1 570276 (570276)
I0104 20:53:21.150282  1529 net.cpp:159] Memory required for data: 437847760
I0104 20:53:21.150286  1529 layer_factory.hpp:77] Creating layer mbox_priorbox
I0104 20:53:21.150291  1529 net.cpp:94] Creating Layer mbox_priorbox
I0104 20:53:21.150295  1529 net.cpp:435] mbox_priorbox <- conv4_3_norm_mbox_priorbox
I0104 20:53:21.150298  1529 net.cpp:435] mbox_priorbox <- fc7_mbox_priorbox
I0104 20:53:21.150302  1529 net.cpp:435] mbox_priorbox <- conv6_2_mbox_priorbox
I0104 20:53:21.150305  1529 net.cpp:435] mbox_priorbox <- conv7_2_mbox_priorbox
I0104 20:53:21.150308  1529 net.cpp:435] mbox_priorbox <- conv8_2_mbox_priorbox
I0104 20:53:21.150312  1529 net.cpp:409] mbox_priorbox -> mbox_priorbox
I0104 20:53:21.150331  1529 net.cpp:144] Setting up mbox_priorbox
I0104 20:53:21.150334  1529 net.cpp:151] Top shape: 1 2 108624 (217248)
I0104 20:53:21.150338  1529 net.cpp:159] Memory required for data: 438716752
I0104 20:53:21.150341  1529 layer_factory.hpp:77] Creating layer mbox_priorbox_fixed
I0104 20:53:21.150346  1529 net.cpp:94] Creating Layer mbox_priorbox_fixed
I0104 20:53:21.150349  1529 net.cpp:435] mbox_priorbox_fixed <- mbox_priorbox
I0104 20:53:21.150354  1529 net.cpp:396] mbox_priorbox_fixed -> mbox_priorbox (in-place)
I0104 20:53:21.150382  1529 net.cpp:144] Setting up mbox_priorbox_fixed
I0104 20:53:21.150386  1529 net.cpp:151] Top shape: 1 2 108624 (217248)
I0104 20:53:21.150390  1529 net.cpp:159] Memory required for data: 439585744
I0104 20:53:21.150394  1529 layer_factory.hpp:77] Creating layer mbox_conf_reshape
I0104 20:53:21.150408  1529 net.cpp:94] Creating Layer mbox_conf_reshape
I0104 20:53:21.150413  1529 net.cpp:435] mbox_conf_reshape <- mbox_conf
I0104 20:53:21.150418  1529 net.cpp:409] mbox_conf_reshape -> mbox_conf_reshape
I0104 20:53:21.150439  1529 net.cpp:144] Setting up mbox_conf_reshape
I0104 20:53:21.150442  1529 net.cpp:151] Top shape: 1 27156 21 (570276)
I0104 20:53:21.150446  1529 net.cpp:159] Memory required for data: 441866848
I0104 20:53:21.150449  1529 layer_factory.hpp:77] Creating layer mbox_conf_softmax
I0104 20:53:21.150455  1529 net.cpp:94] Creating Layer mbox_conf_softmax
I0104 20:53:21.150460  1529 net.cpp:435] mbox_conf_softmax <- mbox_conf_reshape
I0104 20:53:21.150465  1529 net.cpp:409] mbox_conf_softmax -> mbox_conf_softmax
I0104 20:53:21.150522  1529 net.cpp:144] Setting up mbox_conf_softmax
I0104 20:53:21.150529  1529 net.cpp:151] Top shape: 1 27156 21 (570276)
I0104 20:53:21.150533  1529 net.cpp:159] Memory required for data: 444147952
I0104 20:53:21.150537  1529 layer_factory.hpp:77] Creating layer mbox_conf_flatten
I0104 20:53:21.150542  1529 net.cpp:94] Creating Layer mbox_conf_flatten
I0104 20:53:21.150547  1529 net.cpp:435] mbox_conf_flatten <- mbox_conf_softmax
I0104 20:53:21.150550  1529 net.cpp:409] mbox_conf_flatten -> mbox_conf_flatten
I0104 20:53:21.150569  1529 net.cpp:144] Setting up mbox_conf_flatten
I0104 20:53:21.150573  1529 net.cpp:151] Top shape: 1 570276 (570276)
I0104 20:53:21.150578  1529 net.cpp:159] Memory required for data: 446429056
I0104 20:53:21.150580  1529 layer_factory.hpp:77] Creating layer detection_out
I0104 20:53:21.150588  1529 net.cpp:94] Creating Layer detection_out
I0104 20:53:21.150591  1529 net.cpp:435] detection_out <- mbox_loc
I0104 20:53:21.150594  1529 net.cpp:435] detection_out <- mbox_conf_flatten
I0104 20:53:21.150599  1529 net.cpp:435] detection_out <- mbox_priorbox
I0104 20:53:21.150602  1529 net.cpp:409] detection_out -> detection_out
I0104 20:53:21.150651  1529 net.cpp:144] Setting up detection_out
I0104 20:53:21.150657  1529 net.cpp:151] Top shape: 1 1 1 7 (7)
I0104 20:53:21.150662  1529 net.cpp:159] Memory required for data: 446429084
I0104 20:53:21.150665  1529 layer_factory.hpp:77] Creating layer detection_eval
I0104 20:53:21.150671  1529 net.cpp:94] Creating Layer detection_eval
I0104 20:53:21.150676  1529 net.cpp:435] detection_eval <- detection_out
I0104 20:53:21.150678  1529 net.cpp:435] detection_eval <- label
I0104 20:53:21.150683  1529 net.cpp:409] detection_eval -> detection_eval
I0104 20:53:21.152293  1529 net.cpp:144] Setting up detection_eval
I0104 20:53:21.152302  1529 net.cpp:151] Top shape: 1 1 21 5 (105)
I0104 20:53:21.152307  1529 net.cpp:159] Memory required for data: 446429504
I0104 20:53:21.152309  1529 net.cpp:222] detection_eval does not need backward computation.
I0104 20:53:21.152313  1529 net.cpp:222] detection_out does not need backward computation.
I0104 20:53:21.152318  1529 net.cpp:222] mbox_conf_flatten does not need backward computation.
I0104 20:53:21.152320  1529 net.cpp:222] mbox_conf_softmax does not need backward computation.
…
