…
I0703 14:22:28.774458 28460 solver.cpp:99] Creating training net from net file: ../workspace/model/enet/train_val_encoder.prototxt
I0703 14:22:28.797176 28460 net.cpp:52] Initializing net from parameters: 
state {
  phase: TRAIN
}
layer {
  name: "data"
  type: "ImageSegData"
  top: "data"
  top: "label"
  include {
    phase: TRAIN
  }
  transform_param {
    scale: 0.022
    crop_size: 512
    mean_value: 73
    mean_value: 82
    mean_value: 72
  }
  image_data_param {
    source: "../workspace/data/cityscapes/img_seg.txt"
    batch_size: 5
    mirror: true
    shuffle: true
  }
}
layer {
  name: "ConvNd_1"
  type: "Convolution"
  bottom: "data"
  top: "ConvNd_1"
  convolution_param {
    num_output: 13
    bias_term: false
    pad: 1
    kernel_size: 3
    group: 1
    stride: 2
    weight_filler {
      type: "msra"
    }
    dilation: 1
  }
}
layer {
  name: "MaxPool2d_1"
  type: "Pooling"
  bottom: "data"
  top: "MaxPool2d_1"
  pooling_param {
    pool: MAX
    kernel_size: 3
    stride: 2
    pad: 0
  }
}
layer {
  name: "Concat_1"
  type: "Concat"
  bottom: "ConvNd_1"
  bottom: "MaxPool2d_1"
  top: "Concat_1"
  concat_param {
    axis: 1
  }
}
layer {
  name: "BatchNorm_1"
  type: "BatchNorm"
  bottom: "Concat_1"
  top: "BatchNorm_1"
  param {
    lr_mult: 1
    decay_mult: 0
  }
  param {
    lr_mult: 1
    decay_mult: 0
  }
  param {
    lr_mult: 0
    decay_mult: 0
  }
  param {
    lr_mult: 0
    decay_mult: 0
  }
  batch_norm_param {
    use_global_stats: false
    eps: 1e-05
    scale_filler {
      type: "constant"
      value: 1
    }
    bias_filler {
      type: "constant"
      value: 0
    }
  }
}
layer {
  name: "Threshold_1"
  type: "ReLU"
  bottom: "BatchNorm_1"
  top: "BatchNorm_1"
}
layer {
  name: "MaxPool2d_2"
  type: "Pooling"
  bottom: "BatchNorm_1"
  top: "MaxPool2d_2"
  pooling_param {
    pool: MAX
    kernel_size: 3
    stride: 2
    pad: 0
  }
}
layer {
  name: "ConvNd_2"
  type: "Convolution"
  bottom: "MaxPool2d_2"
  top: "ConvNd_2"
  convolution_param {
    num_output: 64
    bias_term: false
    pad: 0
    kernel_size: 1
    group: 1
    stride: 1
    weight_filler {
      type: "msra"
    }
    dilation: 1
  }
}
layer {
  name: "ConvNd_3"
  type: "Convolution"
  bottom: "BatchNorm_1"
  top: "ConvNd_3"
  convolution_param {
    num_output: 16
    bias_term: false
    pad: 0
    kernel_size: 2
    group: 1
    stride: 2
    weight_filler {
      type: "msra"
    }
    dilation: 1
  }
}
layer {
  name: "BatchNorm_2"
  type: "BatchNorm"
  bottom: "ConvNd_3"
  top: "BatchNorm_2"
  param {
    lr_mult: 1
    decay_mult: 0
  }
  param {
    lr_mult: 1
    decay_mult: 0
  }
  param {
    lr_mult: 0
    decay_mult: 0
  }
  param {
    lr_mult: 0
    decay_mult: 0
  }
  batch_norm_param {
    use_global_stats: false
    eps: 1e-05
    scale_filler {
      type: "constant"
      value: 1
    }
    bias_filler {
      type: "constant"
      value: 0
    }
  }
}
layer {
  name: "Threshold_2"
  type: "ReLU"
  bottom: "BatchNorm_2"
  top: "BatchNorm_2"
}
layer {
  name: "ConvNd_4"
  type: "Convolution"
  bottom: "BatchNorm_2"
  top: "ConvNd_4"
  convolution_param {
    num_output: 16
    bias_term: false
    pad: 1
    kernel_size: 3
    group: 1
    stride: 1
    weight_filler {
      type: "msra"
    }
    dilation: 1
  }
}
layer {
  name: "BatchNorm_3"
  type: "BatchNorm"
  bottom: "ConvNd_4"
  top: "BatchNorm_3"
  param {
    lr_mult: 1
    decay_mult: 0
  }
  param {
    lr_mult: 1
    decay_mult: 0
  }
  param {
    lr_mult: 0
    decay_mult: 0
  }
  param {
    lr_mult: 0
    decay_mult: 0
  }
  batch_norm_param {
    use_global_stats: false
    eps: 1e-05
    scale_filler {
      type: "constant"
      value: 1
    }
    bias_filler {
      type: "constant"
      value: 0
    }
  }
}
layer {
  name: "Threshold_3"
  type: "ReLU"
  bottom: "BatchNorm_3"
  top: "BatchNorm_3"
}
layer {
  name: "ConvNd_5"
  type: "Convolution"
  bottom: "BatchNorm_3"
  top: "ConvNd_5"
  convolution_param {
    num_output: 64
    bias_term: false
    pad: 0
    kernel_size: 1
    group: 1
    stride: 1
    weight_filler {
      type: "msra"
    }
    dilation: 1
  }
}
layer {
  name: "BatchNorm_4"
  type: "BatchNorm"
  bottom: "ConvNd_5"
  top: "BatchNorm_4"
  param {
    lr_mult: 1
    decay_mult: 0
  }
  param {
    lr_mult: 1
    decay_mult: 0
  }
  param {
    lr_mult: 0
    decay_mult: 0
  }
  param {
    lr_mult: 0
    decay_mult: 0
  }
  batch_norm_param {
    use_global_stats: false
    eps: 1e-05
    scale_filler {
      type: "constant"
      value: 1
    }
    bias_filler {
      type: "constant"
      value: 0
    }
  }
}
layer {
  name: "Threshold_4"
  type: "ReLU"
  bottom: "BatchNorm_4"
  top: "BatchNorm_4"
}
layer {
  name: "Add_1"
  type: "Eltwise"
  bottom: "ConvNd_2"
  bottom: "BatchNorm_4"
  top: "Add_1"
}
layer {
  name: "Threshold_5"
  type: "ReLU"
  bottom: "Add_1"
  top: "Add_1"
}
layer {
  name: "ConvNd_6"
  type: "Convolution"
  bottom: "Add_1"
  top: "ConvNd_6"
  convolution_param {
    num_output: 16
    bias_term: false
    pad: 0
    kernel_size: 1
    group: 1
    stride: 1
    weight_filler {
      type: "msra"
    }
    dilation: 1
  }
}
layer {
  name: "BatchNorm_5"
  type: "BatchNorm"
  bottom: "ConvNd_6"
  top: "BatchNorm_5"
  param {
    lr_mult: 1
    decay_mult: 0
  }
  param {
    lr_mult: 1
    decay_mult: 0
  }
  param {
    lr_mult: 0
    decay_mult: 0
  }
  param {
    lr_mult: 0
    decay_mult: 0
  }
  batch_norm_param {
    use_global_stats: false
    eps: 1e-05
    scale_filler {
      type: "constant"
      value: 1
    }
    bias_filler {
      type: "constant"
      value: 0
    }
  }
}
layer {
  name: "Threshold_6"
  type: "ReLU"
  bottom: "BatchNorm_5"
  top: "BatchNorm_5"
}
layer {
  name: "ConvNd_7"
  type: "Convolution"
  bottom: "BatchNorm_5"
  top: "ConvNd_7"
  convolution_param {
    num_output: 16
    bias_term: false
    pad: 1
    kernel_size: 3
    group: 1
    stride: 1
    weight_filler {
      type: "msra"
    }
    dilation: 1
  }
}
layer {
  name: "BatchNorm_6"
  type: "BatchNorm"
  bottom: "ConvNd_7"
  top: "BatchNorm_6"
  param {
    lr_mult: 1
    decay_mult: 0
  }
  param {
    lr_mult: 1
    decay_mult: 0
  }
  param {
    lr_mult: 0
    decay_mult: 0
  }
  param {
    lr_mult: 0
    decay_mult: 0
  }
  batch_norm_param {
    use_global_stats: false
    eps: 1e-05
    scale_filler {
      type: "constant"
      value: 1
    }
    bias_filler {
      type: "constant"
      value: 0
    }
  }
}
layer {
  name: "Threshold_7"
  type: "ReLU"
  bottom: "BatchNorm_6"
  top: "BatchNorm_6"
}
layer {
  name: "ConvNd_8"
  type: "Convolution"
  bottom: "BatchNorm_6"
  top: "ConvNd_8"
  convolution_param {
    num_output: 64
    bias_term: false
    pad: 0
    kernel_size: 1
    group: 1
    stride: 1
    weight_filler {
      type: "msra"
    }
    dilation: 1
  }
}
layer {
  name: "BatchNorm_7"
  type: "BatchNorm"
  bottom: "ConvNd_8"
  top: "BatchNorm_7"
  param {
    lr_mult: 1
    decay_mult: 0
  }
  param {
    lr_mult: 1
    decay_mult: 0
  }
  param {
    lr_mult: 0
    decay_mult: 0
  }
  param {
    lr_mult: 0
    decay_mult: 0
  }
  batch_norm_param {
    use_global_stats: false
    eps: 1e-05
    scale_filler {
      type: "constant"
      value: 1
    }
    bias_filler {
      type: "constant"
      value: 0
    }
  }
}
layer {
  name: "Threshold_8"
  type: "ReLU"
  bottom: "BatchNorm_7"
  top: "BatchNorm_7"
}
layer {
  name: "Add_2"
  type: "Eltwise"
  bottom: "Add_1"
  bottom: "BatchNorm_7"
  top: "Add_2"
}
layer {
  name: "Threshold_9"
  type: "ReLU"
  bottom: "Add_2"
  top: "Add_2"
}
layer {
  name: "ConvNd_9"
  type: "Convolution"
  bottom: "Add_2"
  top: "ConvNd_9"
  convolution_param {
    num_output: 16
    bias_term: false
    pad: 0
    kernel_size: 1
    group: 1
    stride: 1
    weight_filler {
      type: "msra"
    }
    dilation: 1
  }
}
layer {
  name: "BatchNorm_8"
  type: "BatchNorm"
  bottom: "ConvNd_9"
  top: "BatchNorm_8"
  param {
    lr_mult: 1
    decay_mult: 0
  }
  param {
    lr_mult: 1
    decay_mult: 0
  }
  param {
    lr_mult: 0
    decay_mult: 0
  }
  param {
    lr_mult: 0
    decay_mult: 0
  }
  batch_norm_param {
    use_global_stats: false
    eps: 1e-05
    scale_filler {
      type: "constant"
      value: 1
    }
    bias_filler {
      type: "constant"
      value: 0
    }
  }
}
layer {
  name: "Threshold_10"
  type: "ReLU"
  bottom: "BatchNorm_8"
  top: "BatchNorm_8"
}
layer {
  name: "ConvNd_10"
  type: "Convolution"
  bottom: "BatchNorm_8"
  top: "ConvNd_10"
  convolution_param {
    num_output: 16
    bias_term: false
    pad: 1
    kernel_size: 3
    group: 1
    stride: 1
    weight_filler {
      type: "msra"
    }
    dilation: 1
  }
}
layer {
  name: "BatchNorm_9"
  type: "BatchNorm"
  bottom: "ConvNd_10"
  top: "BatchNorm_9"
  param {
    lr_mult: 1
    decay_mult: 0
  }
  param {
    lr_mult: 1
    decay_mult: 0
  }
  param {
    lr_mult: 0
    decay_mult: 0
  }
  param {
    lr_mult: 0
    decay_mult: 0
  }
  batch_norm_param {
    use_global_stats: false
    eps: 1e-05
    scale_filler {
      type: "constant"
      value: 1
    }
    bias_filler {
      type: "constant"
      value: 0
    }
  }
}
layer {
  name: "Threshold_11"
  type: "ReLU"
  bottom: "BatchNorm_9"
  top: "BatchNorm_9"
}
layer {
  name: "ConvNd_11"
  type: "Convolution"
  bottom: "BatchNorm_9"
  top: "ConvNd_11"
  convolution_param {
    num_output: 64
    bias_term: false
    pad: 0
    kernel_size: 1
    group: 1
    stride: 1
    weight_filler {
      type: "msra"
    }
    dilation: 1
  }
}
layer {
  name: "BatchNorm_10"
  type: "BatchNorm"
  bottom: "ConvNd_11"
  top: "BatchNorm_10"
  param {
    lr_mult: 1
    decay_mult: 0
  }
  param {
    lr_mult: 1
    decay_mult: 0
  }
  param {
    lr_mult: 0
    decay_mult: 0
  }
  param {
    lr_mult: 0
    decay_mult: 0
  }
  batch_norm_param {
    use_global_stats: false
    eps: 1e-05
    scale_filler {
      type: "constant"
      value: 1
    }
    bias_filler {
      type: "constant"
      value: 0
    }
  }
}
layer {
  name: "Threshold_12"
  type: "ReLU"
  bottom: "BatchNorm_10"
  top: "BatchNorm_10"
}
layer {
  name: "Add_3"
  type: "Eltwise"
  bottom: "Add_2"
  bottom: "BatchNorm_10"
  top: "Add_3"
}
layer {
  name: "Threshold_13"
  type: "ReLU"
  bottom: "Add_3"
  top: "Add_3"
}
layer {
  name: "ConvNd_12"
  type: "Convolution"
  bottom: "Add_3"
  top: "ConvNd_12"
  convolution_param {
    num_output: 16
    bias_term: false
    pad: 0
    kernel_size: 1
    group: 1
    stride: 1
    weight_filler {
      type: "msra"
    }
    dilation: 1
  }
}
layer {
  name: "BatchNorm_11"
  type: "BatchNorm"
  bottom: "ConvNd_12"
  top: "BatchNorm_11"
  param {
    lr_mult: 1
    decay_mult: 0
  }
  param {
    lr_mult: 1
    decay_mult: 0
  }
  param {
    lr_mult: 0
    decay_mult: 0
  }
  param {
    lr_mult: 0
    decay_mult: 0
  }
  batch_norm_param {
    use_global_stats: false
    eps: 1e-05
    scale_filler {
      type: "constant"
      value: 1
    }
    bias_filler {
      type: "constant"
      value: 0
    }
  }
}
layer {
  name: "Threshold_14"
  type: "ReLU"
  bottom: "BatchNorm_11"
  top: "BatchNorm_11"
}
layer {
  name: "ConvNd_13"
  type: "Convolution"
  bottom: "BatchNorm_11"
  top: "ConvNd_13"
  convolution_param {
    num_output: 16
    bias_term: false
    pad: 1
    kernel_size: 3
    group: 1
    stride: 1
    weight_filler {
      type: "msra"
    }
    dilation: 1
  }
}
layer {
  name: "BatchNorm_12"
  type: "BatchNorm"
  bottom: "ConvNd_13"
  top: "BatchNorm_12"
  param {
    lr_mult: 1
    decay_mult: 0
  }
  param {
    lr_mult: 1
    decay_mult: 0
  }
  param {
    lr_mult: 0
    decay_mult: 0
  }
  param {
    lr_mult: 0
    decay_mult: 0
  }
  batch_norm_param {
    use_global_stats: false
    eps: 1e-05
    scale_filler {
      type: "constant"
      value: 1
    }
    bias_filler {
      type: "constant"
      value: 0
    }
  }
}
layer {
  name: "Threshold_15"
  type: "ReLU"
  bottom: "BatchNorm_12"
  top: "BatchNorm_12"
}
layer {
  name: "ConvNd_14"
  type: "Convolution"
  bottom: "BatchNorm_12"
  top: "ConvNd_14"
  convolution_param {
    num_output: 64
    bias_term: false
    pad: 0
    kernel_size: 1
    group: 1
    stride: 1
    weight_filler {
      type: "msra"
    }
    dilation: 1
  }
}
layer {
  name: "BatchNorm_13"
  type: "BatchNorm"
  bottom: "ConvNd_14"
  top: "BatchNorm_13"
  param {
    lr_mult: 1
    decay_mult: 0
  }
  param {
    lr_mult: 1
    decay_mult: 0
  }
  param {
    lr_mult: 0
    decay_mult: 0
  }
  param {
    lr_mult: 0
    decay_mult: 0
  }
  batch_norm_param {
    use_global_stats: false
    eps: 1e-05
    scale_filler {
      type: "constant"
      value: 1
    }
    bias_filler {
      type: "constant"
      value: 0
    }
  }
}
layer {
  name: "Threshold_16"
  type: "ReLU"
  bottom: "BatchNorm_13"
  top: "BatchNorm_13"
}
layer {
  name: "Add_4"
  type: "Eltwise"
  bottom: "Add_3"
  bottom: "BatchNorm_13"
  top: "Add_4"
}
layer {
  name: "Threshold_17"
  type: "ReLU"
  bottom: "Add_4"
  top: "Add_4"
}
layer {
  name: "ConvNd_15"
  type: "Convolution"
  bottom: "Add_4"
  top: "ConvNd_15"
  convolution_param {
    num_output: 16
    bias_term: false
    pad: 0
    kernel_size: 1
    group: 1
    stride: 1
    weight_filler {
      type: "msra"
    }
    dilation: 1
  }
}
layer {
  name: "BatchNorm_14"
  type: "BatchNorm"
  bottom: "ConvNd_15"
  top: "BatchNorm_14"
  param {
    lr_mult: 1
    decay_mult: 0
  }
  param {
    lr_mult: 1
    decay_mult: 0
  }
  param {
    lr_mult: 0
    decay_mult: 0
  }
  param {
    lr_mult: 0
    decay_mult: 0
  }
  batch_norm_param {
    use_global_stats: false
    eps: 1e-05
    scale_filler {
      type: "constant"
      value: 1
    }
    bias_filler {
      type: "constant"
      value: 0
    }
  }
}
layer {
  name: "Threshold_18"
  type: "ReLU"
  bottom: "BatchNorm_14"
  top: "BatchNorm_14"
}
layer {
  name: "ConvNd_16"
  type: "Convolution"
  bottom: "BatchNorm_14"
  top: "ConvNd_16"
  convolution_param {
    num_output: 16
    bias_term: false
    pad: 1
    kernel_size: 3
    group: 1
    stride: 1
    weight_filler {
      type: "msra"
    }
    dilation: 1
  }
}
layer {
  name: "BatchNorm_15"
  type: "BatchNorm"
  bottom: "ConvNd_16"
  top: "BatchNorm_15"
  param {
    lr_mult: 1
    decay_mult: 0
  }
  param {
    lr_mult: 1
    decay_mult: 0
  }
  param {
    lr_mult: 0
    decay_mult: 0
  }
  param {
    lr_mult: 0
    decay_mult: 0
  }
  batch_norm_param {
    use_global_stats: false
    eps: 1e-05
    scale_filler {
      type: "constant"
      value: 1
    }
    bias_filler {
      type: "constant"
      value: 0
    }
  }
}
layer {
  name: "Threshold_19"
  type: "ReLU"
  bottom: "BatchNorm_15"
  top: "BatchNorm_15"
}
layer {
  name: "ConvNd_17"
  type: "Convolution"
  bottom: "BatchNorm_15"
  top: "ConvNd_17"
  convolution_param {
    num_output: 64
    bias_term: false
    pad: 0
    kernel_size: 1
    group: 1
    stride: 1
    weight_filler {
      type: "msra"
    }
    dilation: 1
  }
}
layer {
  name: "BatchNorm_16"
  type: "BatchNorm"
  bottom: "ConvNd_17"
  top: "BatchNorm_16"
  param {
    lr_mult: 1
    decay_mult: 0
  }
  param {
    lr_mult: 1
    decay_mult: 0
  }
  param {
    lr_mult: 0
    decay_mult: 0
  }
  param {
    lr_mult: 0
    decay_mult: 0
  }
  batch_norm_param {
    use_global_stats: false
    eps: 1e-05
    scale_filler {
      type: "constant"
      value: 1
    }
    bias_filler {
      type: "constant"
      value: 0
    }
  }
}
layer {
  name: "Threshold_20"
  type: "ReLU"
  bottom: "BatchNorm_16"
  top: "BatchNorm_16"
}
layer {
  name: "Add_5"
  type: "Eltwise"
  bottom: "Add_4"
  bottom: "BatchNorm_16"
  top: "Add_5"
}
layer {
  name: "Threshold_21"
  type: "ReLU"
  bottom: "Add_5"
  top: "Add_5"
}
layer {
  name: "MaxPool2d_3"
  type: "Pooling"
  bottom: "Add_5"
  top: "MaxPool2d_3"
  pooling_param {
    pool: MAX
    kernel_size: 3
    stride: 2
    pad: 0
  }
}
layer {
  name: "ConvNd_18"
  type: "Convolution"
  bottom: "MaxPool2d_3"
  top: "ConvNd_18"
  convolution_param {
    num_output: 128
    bias_term: false
    pad: 0
    kernel_size: 1
    group: 1
    stride: 1
    weight_filler {
      type: "msra"
    }
    dilation: 1
  }
}
layer {
  name: "ConvNd_19"
  type: "Convolution"
  bottom: "Add_5"
  top: "ConvNd_19"
  convolution_param {
    num_output: 32
    bias_term: false
    pad: 0
    kernel_size: 2
    group: 1
    stride: 2
    weight_filler {
      type: "msra"
    }
    dilation: 1
  }
}
layer {
  name: "BatchNorm_17"
  type: "BatchNorm"
  bottom: "ConvNd_19"
  top: "BatchNorm_17"
  param {
    lr_mult: 1
    decay_mult: 0
  }
  param {
    lr_mult: 1
    decay_mult: 0
  }
  param {
    lr_mult: 0
    decay_mult: 0
  }
  param {
    lr_mult: 0
    decay_mult: 0
  }
  batch_norm_param {
    use_global_stats: false
    eps: 1e-05
    scale_filler {
      type: "constant"
      value: 1
    }
    bias_filler {
      type: "constant"
      value: 0
    }
  }
}
layer {
  name: "Threshold_22"
  type: "ReLU"
  bottom: "BatchNorm_17"
  top: "BatchNorm_17"
}
layer {
  name: "ConvNd_20"
  type: "Convolution"
  bottom: "BatchNorm_17"
  top: "ConvNd_20"
  convolution_param {
    num_output: 32
    bias_term: false
    pad: 1
    kernel_size: 3
    group: 1
    stride: 1
    weight_filler {
      type: "msra"
    }
    dilation: 1
  }
}
layer {
  name: "BatchNorm_18"
  type: "BatchNorm"
  bottom: "ConvNd_20"
  top: "BatchNorm_18"
  param {
    lr_mult: 1
    decay_mult: 0
  }
  param {
    lr_mult: 1
    decay_mult: 0
  }
  param {
    lr_mult: 0
    decay_mult: 0
  }
  param {
    lr_mult: 0
    decay_mult: 0
  }
  batch_norm_param {
    use_global_stats: false
    eps: 1e-05
    scale_filler {
      type: "constant"
      value: 1
    }
    bias_filler {
      type: "constant"
      value: 0
    }
  }
}
layer {
  name: "Threshold_23"
  type: "ReLU"
  bottom: "BatchNorm_18"
  top: "BatchNorm_18"
}
layer {
  name: "ConvNd_21"
  type: "Convolution"
  bottom: "BatchNorm_18"
  top: "ConvNd_21"
  convolution_param {
    num_output: 128
    bias_term: false
    pad: 0
    kernel_size: 1
    group: 1
    stride: 1
    weight_filler {
      type: "msra"
    }
    dilation: 1
  }
}
layer {
  name: "BatchNorm_19"
  type: "BatchNorm"
  bottom: "ConvNd_21"
  top: "BatchNorm_19"
  param {
    lr_mult: 1
    decay_mult: 0
  }
  param {
    lr_mult: 1
    decay_mult: 0
  }
  param {
    lr_mult: 0
    decay_mult: 0
  }
  param {
    lr_mult: 0
    decay_mult: 0
  }
  batch_norm_param {
    use_global_stats: false
    eps: 1e-05
    scale_filler {
      type: "constant"
      value: 1
    }
    bias_filler {
      type: "constant"
      value: 0
    }
  }
}
layer {
  name: "Threshold_24"
  type: "ReLU"
  bottom: "BatchNorm_19"
  top: "BatchNorm_19"
}
layer {
  name: "Add_6"
  type: "Eltwise"
  bottom: "ConvNd_18"
  bottom: "BatchNorm_19"
  top: "Add_6"
}
layer {
  name: "Threshold_25"
  type: "ReLU"
  bottom: "Add_6"
  top: "Add_6"
}
layer {
  name: "ConvNd_22"
  type: "Convolution"
  bottom: "Add_6"
  top: "ConvNd_22"
  convolution_param {
    num_output: 32
    bias_term: false
    pad: 0
    kernel_size: 1
    group: 1
    stride: 1
    weight_filler {
      type: "msra"
    }
    dilation: 1
  }
}
layer {
  name: "BatchNorm_20"
  type: "BatchNorm"
  bottom: "ConvNd_22"
  top: "BatchNorm_20"
  param {
    lr_mult: 1
    decay_mult: 0
  }
  param {
    lr_mult: 1
    decay_mult: 0
  }
  param {
    lr_mult: 0
    decay_mult: 0
  }
  param {
    lr_mult: 0
    decay_mult: 0
  }
  batch_norm_param {
    use_global_stats: false
    eps: 1e-05
    scale_filler {
      type: "constant"
      value: 1
    }
    bias_filler {
      type: "constant"
      value: 0
    }
  }
}
layer {
  name: "Threshold_26"
  type: "ReLU"
  bottom: "BatchNorm_20"
  top: "BatchNorm_20"
}
layer {
  name: "ConvNd_23"
  type: "Convolution"
  bottom: "BatchNorm_20"
  top: "ConvNd_23"
  convolution_param {
    num_output: 32
    bias_term: false
    pad: 1
    kernel_size: 3
    group: 1
    stride: 1
    weight_filler {
      type: "msra"
    }
    dilation: 1
  }
}
layer {
  name: "BatchNorm_21"
  type: "BatchNorm"
  bottom: "ConvNd_23"
  top: "BatchNorm_21"
  param {
    lr_mult: 1
    decay_mult: 0
  }
  param {
    lr_mult: 1
    decay_mult: 0
  }
  param {
    lr_mult: 0
    decay_mult: 0
  }
  param {
    lr_mult: 0
    decay_mult: 0
  }
  batch_norm_param {
    use_global_stats: false
    eps: 1e-05
    scale_filler {
      type: "constant"
      value: 1
    }
    bias_filler {
      type: "constant"
      value: 0
    }
  }
}
layer {
  name: "Threshold_27"
  type: "ReLU"
  bottom: "BatchNorm_21"
  top: "BatchNorm_21"
}
layer {
  name: "ConvNd_24"
  type: "Convolution"
  bottom: "BatchNorm_21"
  top: "ConvNd_24"
  convolution_param {
    num_output: 128
    bias_term: false
    pad: 0
    kernel_size: 1
    group: 1
    stride: 1
    weight_filler {
      type: "msra"
    }
    dilation: 1
  }
}
layer {
  name: "BatchNorm_22"
  type: "BatchNorm"
  bottom: "ConvNd_24"
  top: "BatchNorm_22"
  param {
    lr_mult: 1
    decay_mult: 0
  }
  param {
    lr_mult: 1
    decay_mult: 0
  }
  param {
    lr_mult: 0
    decay_mult: 0
  }
  param {
    lr_mult: 0
    decay_mult: 0
  }
  batch_norm_param {
    use_global_stats: false
    eps: 1e-05
    scale_filler {
      type: "constant"
      value: 1
    }
    bias_filler {
      type: "constant"
      value: 0
    }
  }
}
layer {
  name: "Threshold_28"
  type: "ReLU"
  bottom: "BatchNorm_22"
  top: "BatchNorm_22"
}
layer {
  name: "Add_7"
  type: "Eltwise"
  bottom: "Add_6"
  bottom: "BatchNorm_22"
  top: "Add_7"
}
layer {
  name: "Threshold_29"
  type: "ReLU"
  bottom: "Add_7"
  top: "Add_7"
}
layer {
  name: "ConvNd_25"
  type: "Convolution"
  bottom: "Add_7"
  top: "ConvNd_25"
  convolution_param {
    num_output: 32
    bias_term: false
    pad: 0
    kernel_size: 1
    group: 1
    stride: 1
    weight_filler {
      type: "msra"
    }
    dilation: 1
  }
}
layer {
  name: "BatchNorm_23"
  type: "BatchNorm"
  bottom: "ConvNd_25"
  top: "BatchNorm_23"
  param {
    lr_mult: 1
    decay_mult: 0
  }
  param {
    lr_mult: 1
    decay_mult: 0
  }
  param {
    lr_mult: 0
    decay_mult: 0
  }
  param {
    lr_mult: 0
    decay_mult: 0
  }
  batch_norm_param {
    use_global_stats: false
    eps: 1e-05
    scale_filler {
      type: "constant"
      value: 1
    }
    bias_filler {
      type: "constant"
      value: 0
    }
  }
}
layer {
  name: "Threshold_30"
  type: "ReLU"
  bottom: "BatchNorm_23"
  top: "BatchNorm_23"
}
layer {
  name: "ConvNd_26"
  type: "Convolution"
  bottom: "BatchNorm_23"
  top: "ConvNd_26"
  convolution_param {
    num_output: 32
    bias_term: false
    pad: 2
    kernel_size: 3
    group: 1
    stride: 1
    weight_filler {
      type: "msra"
    }
    dilation: 2
  }
}
layer {
  name: "BatchNorm_24"
  type: "BatchNorm"
  bottom: "ConvNd_26"
  top: "BatchNorm_24"
  param {
    lr_mult: 1
    decay_mult: 0
  }
  param {
    lr_mult: 1
    decay_mult: 0
  }
  param {
    lr_mult: 0
    decay_mult: 0
  }
  param {
    lr_mult: 0
    decay_mult: 0
  }
  batch_norm_param {
    use_global_stats: false
    eps: 1e-05
    scale_filler {
      type: "constant"
      value: 1
    }
    bias_filler {
      type: "constant"
      value: 0
    }
  }
}
layer {
  name: "Threshold_31"
  type: "ReLU"
  bottom: "BatchNorm_24"
  top: "BatchNorm_24"
}
layer {
  name: "ConvNd_27"
  type: "Convolution"
  bottom: "BatchNorm_24"
  top: "ConvNd_27"
  convolution_param {
    num_output: 128
    bias_term: false
    pad: 0
    kernel_size: 1
    group: 1
    stride: 1
    weight_filler {
      type: "msra"
    }
    dilation: 1
  }
}
layer {
  name: "BatchNorm_25"
  type: "BatchNorm"
  bottom: "ConvNd_27"
  top: "BatchNorm_25"
  param {
    lr_mult: 1
    decay_mult: 0
  }
  param {
    lr_mult: 1
    decay_mult: 0
  }
  param {
    lr_mult: 0
    decay_mult: 0
  }
  param {
    lr_mult: 0
    decay_mult: 0
  }
  batch_norm_param {
    use_global_stats: false
    eps: 1e-05
    scale_filler {
      type: "constant"
      value: 1
    }
    bias_filler {
      type: "constant"
      value: 0
    }
  }
}
layer {
  name: "Threshold_32"
  type: "ReLU"
  bottom: "BatchNorm_25"
  top: "BatchNorm_25"
}
layer {
  name: "Add_8"
  type: "Eltwise"
  bottom: "Add_7"
  bottom: "BatchNorm_25"
  top: "Add_8"
}
layer {
  name: "Threshold_33"
  type: "ReLU"
  bottom: "Add_8"
  top: "Add_8"
}
layer {
  name: "ConvNd_28"
  type: "Convolution"
  bottom: "Add_8"
  top: "ConvNd_28"
  convolution_param {
    num_output: 32
    bias_term: false
    pad: 0
    kernel_size: 1
    group: 1
    stride: 1
    weight_filler {
      type: "msra"
    }
    dilation: 1
  }
}
layer {
  name: "BatchNorm_26"
  type: "BatchNorm"
  bottom: "ConvNd_28"
  top: "BatchNorm_26"
  param {
    lr_mult: 1
    decay_mult: 0
  }
  param {
    lr_mult: 1
    decay_mult: 0
  }
  param {
    lr_mult: 0
    decay_mult: 0
  }
  param {
    lr_mult: 0
    decay_mult: 0
  }
  batch_norm_param {
    use_global_stats: false
    eps: 1e-05
    scale_filler {
      type: "constant"
      value: 1
    }
    bias_filler {
      type: "constant"
      value: 0
    }
  }
}
layer {
  name: "Threshold_34"
  type: "ReLU"
  bottom: "BatchNorm_26"
  top: "BatchNorm_26"
}
layer {
  name: "ConvNd_29"
  type: "Convolution"
  bottom: "BatchNorm_26"
  top: "ConvNd_29"
  convolution_param {
    num_output: 32
    bias_term: false
    group: 1
    stride: 1
    weight_filler {
      type: "msra"
    }
    pad_h: 2
    pad_w: 0
    kernel_h: 5
    kernel_w: 1
    dilation: 1
  }
}
layer {
  name: "BatchNorm_27"
  type: "BatchNorm"
  bottom: "ConvNd_29"
  top: "BatchNorm_27"
  param {
    lr_mult: 1
    decay_mult: 0
  }
  param {
    lr_mult: 1
    decay_mult: 0
  }
  param {
    lr_mult: 0
    decay_mult: 0
  }
  param {
    lr_mult: 0
    decay_mult: 0
  }
  batch_norm_param {
    use_global_stats: false
    eps: 1e-05
    scale_filler {
      type: "constant"
      value: 1
    }
    bias_filler {
      type: "constant"
      value: 0
    }
  }
}
layer {
  name: "Threshold_35"
  type: "ReLU"
  bottom: "BatchNorm_27"
  top: "BatchNorm_27"
}
layer {
  name: "ConvNd_30"
  type: "Convolution"
  bottom: "BatchNorm_27"
  top: "ConvNd_30"
  convolution_param {
    num_output: 32
    bias_term: false
    group: 1
    stride: 1
    weight_filler {
      type: "msra"
    }
    pad_h: 0
    pad_w: 2
    kernel_h: 1
    kernel_w: 5
    dilation: 1
  }
}
layer {
  name: "BatchNorm_28"
  type: "BatchNorm"
  bottom: "ConvNd_30"
  top: "BatchNorm_28"
  param {
    lr_mult: 1
    decay_mult: 0
  }
  param {
    lr_mult: 1
    decay_mult: 0
  }
  param {
    lr_mult: 0
    decay_mult: 0
  }
  param {
    lr_mult: 0
    decay_mult: 0
  }
  batch_norm_param {
    use_global_stats: false
    eps: 1e-05
    scale_filler {
      type: "constant"
      value: 1
    }
    bias_filler {
      type: "constant"
      value: 0
    }
  }
}
layer {
  name: "Threshold_36"
  type: "ReLU"
  bottom: "BatchNorm_28"
  top: "BatchNorm_28"
}
layer {
  name: "ConvNd_31"
  type: "Convolution"
  bottom: "BatchNorm_28"
  top: "ConvNd_31"
  convolution_param {
    num_output: 128
    bias_term: false
    pad: 0
    kernel_size: 1
    group: 1
    stride: 1
    weight_filler {
      type: "msra"
    }
    dilation: 1
  }
}
layer {
  name: "BatchNorm_29"
  type: "BatchNorm"
  bottom: "ConvNd_31"
  top: "BatchNorm_29"
  param {
    lr_mult: 1
    decay_mult: 0
  }
  param {
    lr_mult: 1
    decay_mult: 0
  }
  param {
    lr_mult: 0
    decay_mult: 0
  }
  param {
    lr_mult: 0
    decay_mult: 0
  }
  batch_norm_param {
    use_global_stats: false
    eps: 1e-05
    scale_filler {
      type: "constant"
      value: 1
    }
    bias_filler {
      type: "constant"
      value: 0
    }
  }
}
layer {
  name: "Threshold_37"
  type: "ReLU"
  bottom: "BatchNorm_29"
  top: "BatchNorm_29"
}
layer {
  name: "Add_9"
  type: "Eltwise"
  bottom: "Add_8"
  bottom: "BatchNorm_29"
  top: "Add_9"
}
layer {
  name: "Threshold_38"
  type: "ReLU"
  bottom: "Add_9"
  top: "Add_9"
}
layer {
  name: "ConvNd_32"
  type: "Convolution"
  bottom: "Add_9"
  top: "ConvNd_32"
  convolution_param {
    num_output: 32
    bias_term: false
    pad: 0
    kernel_size: 1
    group: 1
    stride: 1
    weight_filler {
      type: "msra"
    }
    dilation: 1
  }
}
layer {
  name: "BatchNorm_30"
  type: "BatchNorm"
  bottom: "ConvNd_32"
  top: "BatchNorm_30"
  param {
    lr_mult: 1
    decay_mult: 0
  }
  param {
    lr_mult: 1
    decay_mult: 0
  }
  param {
    lr_mult: 0
    decay_mult: 0
  }
  param {
    lr_mult: 0
    decay_mult: 0
  }
  batch_norm_param {
    use_global_stats: false
    eps: 1e-05
    scale_filler {
      type: "constant"
      value: 1
    }
    bias_filler {
      type: "constant"
      value: 0
    }
  }
}
layer {
  name: "Threshold_39"
  type: "ReLU"
  bottom: "BatchNorm_30"
  top: "BatchNorm_30"
}
layer {
  name: "ConvNd_33"
  type: "Convolution"
  bottom: "BatchNorm_30"
  top: "ConvNd_33"
  convolution_param {
    num_output: 32
    bias_term: false
    pad: 4
    kernel_size: 3
    group: 1
    stride: 1
    weight_filler {
      type: "msra"
    }
    dilation: 4
  }
}
layer {
  name: "BatchNorm_31"
  type: "BatchNorm"
  bottom: "ConvNd_33"
  top: "BatchNorm_31"
  param {
    lr_mult: 1
    decay_mult: 0
  }
  param {
    lr_mult: 1
    decay_mult: 0
  }
  param {
    lr_mult: 0
    decay_mult: 0
  }
  param {
    lr_mult: 0
    decay_mult: 0
  }
  batch_norm_param {
    use_global_stats: false
    eps: 1e-05
    scale_filler {
      type: "constant"
      value: 1
    }
    bias_filler {
      type: "constant"
      value: 0
    }
  }
}
layer {
  name: "Threshold_40"
  type: "ReLU"
  bottom: "BatchNorm_31"
  top: "BatchNorm_31"
}
layer {
  name: "ConvNd_34"
  type: "Convolution"
  bottom: "BatchNorm_31"
  top: "ConvNd_34"
  convolution_param {
    num_output: 128
    bias_term: false
    pad: 0
    kernel_size: 1
    group: 1
    stride: 1
    weight_filler {
      type: "msra"
    }
    dilation: 1
  }
}
layer {
  name: "BatchNorm_32"
  type:
I0703 14:22:28.798066 28460 layer_factory.hpp:77] Creating layer data
I0703 14:22:28.798127 28460 net.cpp:94] Creating Layer data
I0703 14:22:28.798136 28460 net.cpp:409] data -> data
I0703 14:22:28.798166 28460 net.cpp:409] data -> label
I0703 14:22:28.798983 28460 image_seg_data_layer.cpp:46] Opening file ../workspace/data/cityscapes/img_seg.txt
I0703 14:22:28.827383 28460 image_seg_data_layer.cpp:63] Shuffling data
I0703 14:22:28.827446 28460 image_seg_data_layer.cpp:68] A total of 2975 images.
I0703 14:22:28.892573 28460 image_seg_data_layer.cpp:97] output data size: 5,3,512,512
I0703 14:22:28.977311 28460 internal_thread.cpp:27] Starting internal thread(s) on GPU 1
I0703 14:22:28.977429 28460 net.cpp:144] Setting up data
I0703 14:22:28.977443 28460 net.cpp:151] Top shape: 5 3 512 512 (3932160)
I0703 14:22:28.977448 28460 net.cpp:151] Top shape: 5 1 512 512 (1310720)
I0703 14:22:28.977452 28460 net.cpp:159] Memory required for data: 20971520
I0703 14:22:28.977458 28460 layer_factory.hpp:77] Creating layer data_data_0_split
I0703 14:22:28.977471 28460 net.cpp:94] Creating Layer data_data_0_split
I0703 14:22:28.977478 28460 net.cpp:435] data_data_0_split <- data
I0703 14:22:28.977491 28460 net.cpp:409] data_data_0_split -> data_data_0_split_0
I0703 14:22:28.977502 28460 net.cpp:409] data_data_0_split -> data_data_0_split_1
I0703 14:22:28.977628 28460 net.cpp:144] Setting up data_data_0_split
I0703 14:22:28.977635 28460 net.cpp:151] Top shape: 5 3 512 512 (3932160)
I0703 14:22:28.977639 28460 net.cpp:151] Top shape: 5 3 512 512 (3932160)
I0703 14:22:28.977643 28460 net.cpp:159] Memory required for data: 52428800
I0703 14:22:28.977646 28460 layer_factory.hpp:77] Creating layer label_data_1_split
I0703 14:22:28.977653 28460 net.cpp:94] Creating Layer label_data_1_split
I0703 14:22:28.977656 28460 net.cpp:435] label_data_1_split <- label
I0703 14:22:28.977663 28460 net.cpp:409] label_data_1_split -> label_data_1_split_0
I0703 14:22:28.977686 28460 net.cpp:409] label_data_1_split -> label_data_1_split_1
I0703 14:22:28.977767 28460 net.cpp:144] Setting up label_data_1_split
I0703 14:22:28.977774 28460 net.cpp:151] Top shape: 5 1 512 512 (1310720)
I0703 14:22:28.977779 28460 net.cpp:151] Top shape: 5 1 512 512 (1310720)
I0703 14:22:28.977783 28460 net.cpp:159] Memory required for data: 62914560
I0703 14:22:28.977787 28460 layer_factory.hpp:77] Creating layer ConvNd_1
I0703 14:22:28.977803 28460 net.cpp:94] Creating Layer ConvNd_1
I0703 14:22:28.977807 28460 net.cpp:435] ConvNd_1 <- data_data_0_split_0
I0703 14:22:28.977813 28460 net.cpp:409] ConvNd_1 -> ConvNd_1
I0703 14:22:28.997361 28460 net.cpp:144] Setting up ConvNd_1
I0703 14:22:28.997380 28460 net.cpp:151] Top shape: 5 13 256 256 (4259840)
I0703 14:22:28.997385 28460 net.cpp:159] Memory required for data: 79953920
I0703 14:22:28.997403 28460 layer_factory.hpp:77] Creating layer MaxPool2d_1
I0703 14:22:28.997418 28460 net.cpp:94] Creating Layer MaxPool2d_1
I0703 14:22:28.997426 28460 net.cpp:435] MaxPool2d_1 <- data_data_0_split_1
I0703 14:22:28.997432 28460 net.cpp:409] MaxPool2d_1 -> MaxPool2d_1
I0703 14:22:28.997491 28460 net.cpp:144] Setting up MaxPool2d_1
I0703 14:22:28.997499 28460 net.cpp:151] Top shape: 5 3 256 256 (983040)
I0703 14:22:28.997504 28460 net.cpp:159] Memory required for data: 83886080
I0703 14:22:28.997509 28460 layer_factory.hpp:77] Creating layer Concat_1
I0703 14:22:28.997517 28460 net.cpp:94] Creating Layer Concat_1
I0703 14:22:28.997522 28460 net.cpp:435] Concat_1 <- ConvNd_1
I0703 14:22:28.997529 28460 net.cpp:435] Concat_1 <- MaxPool2d_1
I0703 14:22:28.997534 28460 net.cpp:409] Concat_1 -> Concat_1
I0703 14:22:28.997565 28460 net.cpp:144] Setting up Concat_1
I0703 14:22:28.997573 28460 net.cpp:151] Top shape: 5 16 256 256 (5242880)
I0703 14:22:28.997592 28460 net.cpp:159] Memory required for data: 104857600
I0703 14:22:28.997596 28460 layer_factory.hpp:77] Creating layer BatchNorm_1
I0703 14:22:28.997603 28460 net.cpp:94] Creating Layer BatchNorm_1
I0703 14:22:28.997606 28460 net.cpp:435] BatchNorm_1 <- Concat_1
I0703 14:22:28.997611 28460 net.cpp:409] BatchNorm_1 -> BatchNorm_1
I0703 14:22:28.998796 28460 net.cpp:144] Setting up BatchNorm_1
I0703 14:22:28.998809 28460 net.cpp:151] Top shape: 5 16 256 256 (5242880)
I0703 14:22:28.998812 28460 net.cpp:159] Memory required for data: 125829120
I0703 14:22:28.998826 28460 layer_factory.hpp:77] Creating layer Threshold_1
I0703 14:22:28.998834 28460 net.cpp:94] Creating Layer Threshold_1
I0703 14:22:28.998841 28460 net.cpp:435] Threshold_1 <- BatchNorm_1
I0703 14:22:28.998845 28460 net.cpp:396] Threshold_1 -> BatchNorm_1 (in-place)
I0703 14:22:28.998857 28460 net.cpp:144] Setting up Threshold_1
I0703 14:22:28.998864 28460 net.cpp:151] Top shape: 5 16 256 256 (5242880)
I0703 14:22:28.998868 28460 net.cpp:159] Memory required for data: 146800640
I0703 14:22:28.998872 28460 layer_factory.hpp:77] Creating layer BatchNorm_1_Threshold_1_0_split
I0703 14:22:28.998878 28460 net.cpp:94] Creating Layer BatchNorm_1_Threshold_1_0_split
I0703 14:22:28.998880 28460 net.cpp:435] BatchNorm_1_Threshold_1_0_split <- BatchNorm_1
I0703 14:22:28.998886 28460 net.cpp:409] BatchNorm_1_Threshold_1_0_split -> BatchNorm_1_Threshold_1_0_split_0
I0703 14:22:28.998893 28460 net.cpp:409] BatchNorm_1_Threshold_1_0_split -> BatchNorm_1_Threshold_1_0_split_1
I0703 14:22:28.998922 28460 net.cpp:144] Setting up BatchNorm_1_Threshold_1_0_split
I0703 14:22:28.998929 28460 net.cpp:151] Top shape: 5 16 256 256 (5242880)
I0703 14:22:28.998934 28460 net.cpp:151] Top shape: 5 16 256 256 (5242880)
I0703 14:22:28.998936 28460 net.cpp:159] Memory required for data: 188743680
I0703 14:22:28.998939 28460 layer_factory.hpp:77] Creating layer MaxPool2d_2
I0703 14:22:28.998944 28460 net.cpp:94] Creating Layer MaxPool2d_2
I0703 14:22:28.998948 28460 net.cpp:435] MaxPool2d_2 <- BatchNorm_1_Threshold_1_0_split_0
I0703 14:22:28.998953 28460 net.cpp:409] MaxPool2d_2 -> MaxPool2d_2
I0703 14:22:28.998982 28460 net.cpp:144] Setting up MaxPool2d_2
I0703 14:22:28.999001 28460 net.cpp:151] Top shape: 5 16 128 128 (1310720)
I0703 14:22:28.999004 28460 net.cpp:159] Memory required for data: 193986560
I0703 14:22:28.999007 28460 layer_factory.hpp:77] Creating layer ConvNd_2
I0703 14:22:28.999017 28460 net.cpp:94] Creating Layer ConvNd_2
I0703 14:22:28.999019 28460 net.cpp:435] ConvNd_2 <- MaxPool2d_2
I0703 14:22:28.999025 28460 net.cpp:409] ConvNd_2 -> ConvNd_2
I0703 14:22:28.999198 28460 net.cpp:144] Setting up ConvNd_2
I0703 14:22:28.999207 28460 net.cpp:151] Top shape: 5 64 128 128 (5242880)
I0703 14:22:28.999209 28460 net.cpp:159] Memory required for data: 214958080
I0703 14:22:28.999214 28460 layer_factory.hpp:77] Creating layer ConvNd_3
I0703 14:22:28.999222 28460 net.cpp:94] Creating Layer ConvNd_3
I0703 14:22:28.999225 28460 net.cpp:435] ConvNd_3 <- BatchNorm_1_Threshold_1_0_split_1
I0703 14:22:28.999231 28460 net.cpp:409] ConvNd_3 -> ConvNd_3
I0703 14:22:28.999385 28460 net.cpp:144] Setting up ConvNd_3
I0703 14:22:28.999392 28460 net.cpp:151] Top shape: 5 16 128 128 (1310720)
I0703 14:22:28.999395 28460 net.cpp:159] Memory required for data: 220200960
I0703 14:22:28.999399 28460 layer_factory.hpp:77] Creating layer BatchNorm_2
I0703 14:22:28.999406 28460 net.cpp:94] Creating Layer BatchNorm_2
I0703 14:22:28.999410 28460 net.cpp:435] BatchNorm_2 <- ConvNd_3
I0703 14:22:28.999415 28460 net.cpp:409] BatchNorm_2 -> BatchNorm_2
I0703 14:22:29.000769 28460 net.cpp:144] Setting up BatchNorm_2
I0703 14:22:29.000782 28460 net.cpp:151] Top shape: 5 16 128 128 (1310720)
I0703 14:22:29.000785 28460 net.cpp:159] Memory required for data: 225443840
I0703 14:22:29.000798 28460 layer_factory.hpp:77] Creating layer Threshold_2
I0703 14:22:29.000805 28460 net.cpp:94] Creating Layer Threshold_2
I0703 14:22:29.000810 28460 net.cpp:435] Threshold_2 <- BatchNorm_2
I0703 14:22:29.000815 28460 net.cpp:396] Threshold_2 -> BatchNorm_2 (in-place)
I0703 14:22:29.000823 28460 net.cpp:144] Setting up Threshold_2
I0703 14:22:29.000826 28460 net.cpp:151] Top shape: 5 16 128 128 (1310720)
I0703 14:22:29.000830 28460 net.cpp:159] Memory required for data: 230686720
I0703 14:22:29.000833 28460 layer_factory.hpp:77] Creating layer ConvNd_4
I0703 14:22:29.000840 28460 net.cpp:94] Creating Layer ConvNd_4
I0703 14:22:29.000844 28460 net.cpp:435] ConvNd_4 <- BatchNorm_2
I0703 14:22:29.000850 28460 net.cpp:409] ConvNd_4 -> ConvNd_4
I0703 14:22:29.001729 28460 net.cpp:144] Setting up ConvNd_4
I0703 14:22:29.001742 28460 net.cpp:151] Top shape: 5 16 128 128 (1310720)
I0703 14:22:29.001745 28460 net.cpp:159] Memory required for data: 235929600
I0703 14:22:29.001751 28460 layer_factory.hpp:77] Creating layer BatchNorm_3
I0703 14:22:29.001760 28460 net.cpp:94] Creating Layer BatchNorm_3
I0703 14:22:29.001765 28460 net.cpp:435] BatchNorm_3 <- ConvNd_4
I0703 14:22:29.001770 28460 net.cpp:409] BatchNorm_3 -> BatchNorm_3
I0703 14:22:29.002228 28460 net.cpp:144] Setting up BatchNorm_3
I0703 14:22:29.002236 28460 net.cpp:151] Top shape: 5 16 128 128 (1310720)
I0703 14:22:29.002240 28460 net.cpp:159] Memory required for data: 241172480
I0703 14:22:29.002251 28460 layer_factory.hpp:77] Creating layer Threshold_3
I0703 14:22:29.002259 28460 net.cpp:94] Creating Layer Threshold_3
I0703 14:22:29.002262 28460 net.cpp:435] Threshold_3 <- BatchNorm_3
I0703 14:22:29.002267 28460 net.cpp:396] Threshold_3 -> BatchNorm_3 (in-place)
I0703 14:22:29.002274 28460 net.cpp:144] Setting up Threshold_3
I0703 14:22:29.002279 28460 net.cpp:151] Top shape: 5 16 128 128 (1310720)
I0703 14:22:29.002281 28460 net.cpp:159] Memory required for data: 246415360
I0703 14:22:29.002285 28460 layer_factory.hpp:77] Creating layer ConvNd_5
I0703 14:22:29.002292 28460 net.cpp:94] Creating Layer ConvNd_5
I0703 14:22:29.002295 28460 net.cpp:435] ConvNd_5 <- BatchNorm_3
I0703 14:22:29.002300 28460 net.cpp:409] ConvNd_5 -> ConvNd_5
I0703 14:22:29.002461 28460 net.cpp:144] Setting up ConvNd_5
I0703 14:22:29.002468 28460 net.cpp:151] Top shape: 5 64 128 128 (5242880)
I0703 14:22:29.002471 28460 net.cpp:159] Memory required for data: 267386880
I0703 14:22:29.002476 28460 layer_factory.hpp:77] Creating layer BatchNorm_4
I0703 14:22:29.002496 28460 net.cpp:94] Creating Layer BatchNorm_4
I0703 14:22:29.002499 28460 net.cpp:435] BatchNorm_4 <- ConvNd_5
I0703 14:22:29.002506 28460 net.cpp:409] BatchNorm_4 -> BatchNorm_4
I0703 14:22:29.002950 28460 net.cpp:144] Setting up BatchNorm_4
I0703 14:22:29.002959 28460 net.cpp:151] Top shape: 5 64 128 128 (5242880)
I0703 14:22:29.002961 28460 net.cpp:159] Memory required for data: 288358400
I0703 14:22:29.002970 28460 layer_factory.hpp:77] Creating layer Threshold_4
I0703 14:22:29.002977 28460 net.cpp:94] Creating Layer Threshold_4
I0703 14:22:29.002981 28460 net.cpp:435] Threshold_4 <- BatchNorm_4
I0703 14:22:29.002985 28460 net.cpp:396] Threshold_4 -> BatchNorm_4 (in-place)
I0703 14:22:29.002992 28460 net.cpp:144] Setting up Threshold_4
I0703 14:22:29.002996 28460 net.cpp:151] Top shape: 5 64 128 128 (5242880)
I0703 14:22:29.003000 28460 net.cpp:159] Memory required for data: 309329920
I0703 14:22:29.003002 28460 layer_factory.hpp:77] Creating layer Add_1
I0703 14:22:29.003007 28460 net.cpp:94] Creating Layer Add_1
I0703 14:22:29.003011 28460 net.cpp:435] Add_1 <- ConvNd_2
I0703 14:22:29.003015 28460 net.cpp:435] Add_1 <- BatchNorm_4
I0703 14:22:29.003020 28460 net.cpp:409] Add_1 -> Add_1
I0703 14:22:29.003039 28460 net.cpp:144] Setting up Add_1
I0703 14:22:29.003046 28460 net.cpp:151] Top shape: 5 64 128 128 (5242880)
I0703 14:22:29.003048 28460 net.cpp:159] Memory required for data: 330301440
I0703 14:22:29.003051 28460 layer_factory.hpp:77] Creating layer Threshold_5
I0703 14:22:29.003057 28460 net.cpp:94] Creating Layer Threshold_5
I0703 14:22:29.003059 28460 net.cpp:435] Threshold_5 <- Add_1
I0703 14:22:29.003063 28460 net.cpp:396] Threshold_5 -> Add_1 (in-place)
I0703 14:22:29.003068 28460 net.cpp:144] Setting up Threshold_5
I0703 14:22:29.003073 28460 net.cpp:151] Top shape: 5 64 128 128 (5242880)
I0703 14:22:29.003075 28460 net.cpp:159] Memory required for data: 351272960
I0703 14:22:29.003078 28460 layer_factory.hpp:77] Creating layer Add_1_Threshold_5_0_split
I0703 14:22:29.003083 28460 net.cpp:94] Creating Layer Add_1_Threshold_5_0_split
I0703 14:22:29.003087 28460 net.cpp:435] Add_1_Threshold_5_0_split <- Add_1
I0703 14:22:29.003091 28460 net.cpp:409] Add_1_Threshold_5_0_split -> Add_1_Threshold_5_0_split_0
I0703 14:22:29.003098 28460 net.cpp:409] Add_1_Threshold_5_0_split -> Add_1_Threshold_5_0_split_1
I0703 14:22:29.003125 28460 net.cpp:144] Setting up Add_1_Threshold_5_0_split
I0703 14:22:29.003132 28460 net.cpp:151] Top shape: 5 64 128 128 (5242880)
I0703 14:22:29.003135 28460 net.cpp:151] Top shape: 5 64 128 128 (5242880)
I0703 14:22:29.003139 28460 net.cpp:159] Memory required for data: 393216000
I0703 14:22:29.003141 28460 layer_factory.hpp:77] Creating layer ConvNd_6
I0703 14:22:29.003150 28460 net.cpp:94] Creating Layer ConvNd_6
I0703 14:22:29.003154 28460 net.cpp:435] ConvNd_6 <- Add_1_Threshold_5_0_split_0
I0703 14:22:29.003159 28460 net.cpp:409] ConvNd_6 -> ConvNd_6
I0703 14:22:29.003316 28460 net.cpp:144] Setting up ConvNd_6
I0703 14:22:29.003324 28460 net.cpp:151] Top shape: 5 16 128 128 (1310720)
I0703 14:22:29.003327 28460 net.cpp:159] Memory required for data: 398458880
I0703 14:22:29.003331 28460 layer_factory.hpp:77] Creating layer BatchNorm_5
I0703 14:22:29.003338 28460 net.cpp:94] Creating Layer BatchNorm_5
I0703 14:22:29.003342 28460 net.cpp:435] BatchNorm_5 <- ConvNd_6
I0703 14:22:29.003347 28460 net.cpp:409] BatchNorm_5 -> BatchNorm_5
I0703 14:22:29.003841 28460 net.cpp:144] Setting up BatchNorm_5
I0703 14:22:29.003850 28460 net.cpp:151] Top shape: 5 16 128 128 (1310720)
I0703 14:22:29.003854 28460 net.cpp:159] Memory required for data: 403701760
I0703 14:22:29.003863 28460 layer_factory.hpp:77] Creating layer Threshold_6
I0703 14:22:29.003880 28460 net.cpp:94] Creating Layer Threshold_6
I0703 14:22:29.003885 28460 net.cpp:435] Threshold_6 <- BatchNorm_5
I0703 14:22:29.003891 28460 net.cpp:396] Threshold_6 -> BatchNorm_5 (in-place)
I0703 14:22:29.003897 28460 net.cpp:144] Setting up Threshold_6
I0703 14:22:29.003913 28460 net.cpp:151] Top shape: 5 16 128 128 (1310720)
I0703 14:22:29.003916 28460 net.cpp:159] Memory required for data: 408944640
I0703 14:22:29.003921 28460 layer_factory.hpp:77] Creating layer ConvNd_7
I0703 14:22:29.003928 28460 net.cpp:94] Creating Layer ConvNd_7
I0703 14:22:29.003931 28460 net.cpp:435] ConvNd_7 <- BatchNorm_5
I0703 14:22:29.003937 28460 net.cpp:409] ConvNd_7 -> ConvNd_7
I0703 14:22:29.004128 28460 net.cpp:144] Setting up ConvNd_7
I0703 14:22:29.004137 28460 net.cpp:151] Top shape: 5 16 128 128 (1310720)
I0703 14:22:29.004139 28460 net.cpp:159] Memory required for data: 414187520
I0703 14:22:29.004144 28460 layer_factory.hpp:77] Creating layer BatchNorm_6
I0703 14:22:29.004153 28460 net.cpp:94] Creating Layer BatchNorm_6
I0703 14:22:29.004155 28460 net.cpp:435] BatchNorm_6 <- ConvNd_7
I0703 14:22:29.004161 28460 net.cpp:409] BatchNorm_6 -> BatchNorm_6
I0703 14:22:29.004657 28460 net.cpp:144] Setting up BatchNorm_6
I0703 14:22:29.004665 28460 net.cpp:151] Top shape: 5 16 128 128 (1310720)
I0703 14:22:29.004668 28460 net.cpp:159] Memory required for data: 419430400
I0703 14:22:29.004679 28460 layer_factory.hpp:77] Creating layer Threshold_7
I0703 14:22:29.004686 28460 net.cpp:94] Creating Layer Threshold_7
I0703 14:22:29.004690 28460 net.cpp:435] Threshold_7 <- BatchNorm_6
I0703 14:22:29.004695 28460 net.cpp:396] Threshold_7 -> BatchNorm_6 (in-place)
I0703 14:22:29.004701 28460 net.cpp:144] Setting up Threshold_7
I0703 14:22:29.004705 28460 net.cpp:151] Top shape: 5 16 128 128 (1310720)
I0703 14:22:29.004709 28460 net.cpp:159] Memory required for data: 424673280
I0703 14:22:29.004712 28460 layer_factory.hpp:77] Creating layer ConvNd_8
I0703 14:22:29.004719 28460 net.cpp:94] Creating Layer ConvNd_8
I0703 14:22:29.004722 28460 net.cpp:435] ConvNd_8 <- BatchNorm_6
I0703 14:22:29.004729 28460 net.cpp:409] ConvNd_8 -> ConvNd_8
I0703 14:22:29.004904 28460 net.cpp:144] Setting up ConvNd_8
I0703 14:22:29.004912 28460 net.cpp:151] Top shape: 5 64 128 128 (5242880)
I0703 14:22:29.004915 28460 net.cpp:159] Memory required for data: 445644800
I0703 14:22:29.004920 28460 layer_factory.hpp:77] Creating layer BatchNorm_7
I0703 14:22:29.004940 28460 net.cpp:94] Creating Layer BatchNorm_7
I0703 14:22:29.004945 28460 net.cpp:435] BatchNorm_7 <- ConvNd_8
I0703 14:22:29.004950 28460 net.cpp:409] BatchNorm_7 -> BatchNorm_7
I0703 14:22:29.005407 28460 net.cpp:144] Setting up BatchNorm_7
I0703 14:22:29.005415 28460 net.cpp:151] Top shape: 5 64 128 128 (5242880)
I0703 14:22:29.005419 28460 net.cpp:159] Memory required for data: 466616320
I0703 14:22:29.005429 28460 layer_factory.hpp:77] Creating layer Threshold_8
I0703 14:22:29.005434 28460 net.cpp:94] Creating Layer Threshold_8
I0703 14:22:29.005437 28460 net.cpp:435] Threshold_8 <- BatchNorm_7
I0703 14:22:29.005441 28460 net.cpp:396] Threshold_8 -> BatchNorm_7 (in-place)
I0703 14:22:29.005447 28460 net.cpp:144] Setting up Threshold_8
I0703 14:22:29.005452 28460 net.cpp:151] Top shape: 5 64 128 128 (5242880)
I0703 14:22:29.005455 28460 net.cpp:159] Memory required for data: 487587840
I0703 14:22:29.005458 28460 layer_factory.hpp:77] Creating layer Add_2
I0703 14:22:29.005465 28460 net.cpp:94] Creating Layer Add_2
I0703 14:22:29.005468 28460 net.cpp:435] Add_2 <- Add_1_Threshold_5_0_split_1
I0703 14:22:29.005487 28460 net.cpp:435] Add_2 <- BatchNorm_7
I0703 14:22:29.005493 28460 net.cpp:409] Add_2 -> Add_2
I0703 14:22:29.005515 28460 net.cpp:144] Setting up Add_2
I0703 14:22:29.005522 28460 net.cpp:151] Top shape: 5 64 128 128 (5242880)
I0703 14:22:29.005525 28460 net.cpp:159] Memory required for data: 508559360
I0703 14:22:29.005528 28460 layer_factory.hpp:77] Creating layer Threshold_9
I0703 14:22:29.005533 28460 net.cpp:94] Creating Layer Threshold_9
I0703 14:22:29.005537 28460 net.cpp:435] Threshold_9 <- Add_2
I0703 14:22:29.005542 28460 net.cpp:396] Threshold_9 -> Add_2 (in-place)
I0703 14:22:29.005548 28460 net.cpp:144] Setting up Threshold_9
I0703 14:22:29.005551 28460 net.cpp:151] Top shape: 5 64 128 128 (5242880)
I0703 14:22:29.005555 28460 net.cpp:159] Memory required for data: 529530880
I0703 14:22:29.005568 28460 layer_factory.hpp:77] Creating layer Add_2_Threshold_9_0_split
I0703 14:22:29.005573 28460 net.cpp:94] Creating Layer Add_2_Threshold_9_0_split
I0703 14:22:29.005575 28460 net.cpp:435] Add_2_Threshold_9_0_split <- Add_2
I0703 14:22:29.005581 28460 net.cpp:409] Add_2_Threshold_9_0_split -> Add_2_Threshold_9_0_split_0
I0703 14:22:29.005587 28460 net.cpp:409] Add_2_Threshold_9_0_split -> Add_2_Threshold_9_0_split_1
I0703 14:22:29.005616 28460 net.cpp:144] Setting up Add_2_Threshold_9_0_split
I0703 14:22:29.005622 28460 net.cpp:151] Top shape: 5 64 128 128 (5242880)
I0703 14:22:29.005627 28460 net.cpp:151] Top shape: 5 64 128 128 (5242880)
I0703 14:22:29.005630 28460 net.cpp:159] Memory required for data: 571473920
I0703 14:22:29.005633 28460 layer_factory.hpp:77] Creating layer ConvNd_9
I0703 14:22:29.005653 28460 net.cpp:94] Creating Layer ConvNd_9
I0703 14:22:29.005659 28460 net.cpp:435] ConvNd_9 <- Add_2_Threshold_9_0_split_0
I0703 14:22:29.005666 28460 net.cpp:409] ConvNd_9 -> ConvNd_9
I0703 14:22:29.005831 28460 net.cpp:144] Setting up ConvNd_9
I0703 14:22:29.005837 28460 net.cpp:151] Top shape: 5 16 128 128 (1310720)
I0703 14:22:29.005841 28460 net.cpp:159] Memory required for data: 576716800
I0703 14:22:29.005846 28460 layer_factory.hpp:77] Creating layer BatchNorm_8
I0703 14:22:29.005853 28460 net.cpp:94] Creating Layer BatchNorm_8
I0703 14:22:29.005857 28460 net.cpp:435] BatchNorm_8 <- ConvNd_9
I0703 14:22:29.005863 28460 net.cpp:409] BatchNorm_8 -> BatchNorm_8
I0703 14:22:29.006327 28460 net.cpp:144] Setting up BatchNorm_8
I0703 14:22:29.006336 28460 net.cpp:151] Top shape: 5 16 128 128 (1310720)
I0703 14:22:29.006340 28460 net.cpp:159] Memory required for data: 581959680
I0703 14:22:29.006348 28460 layer_factory.hpp:77] Creating layer Threshold_10
I0703 14:22:29.006356 28460 net.cpp:94] Creating Layer Threshold_10
I0703 14:22:29.006361 28460 net.cpp:435] Threshold_10 <- BatchNorm_8
I0703 14:22:29.006364 28460 net.cpp:396] Threshold_10 -> BatchNorm_8 (in-place)
I0703 14:22:29.006371 28460 net.cpp:144] Setting up Threshold_10
I0703 14:22:29.006376 28460 net.cpp:151] Top shape: 5 16 128 128 (1310720)
I0703 14:22:29.006378 28460 net.cpp:159] Memory required for data: 587202560
I0703 14:22:29.006381 28460 layer_factory.hpp:77] Creating layer ConvNd_10
I0703 14:22:29.006388 28460 net.cpp:94] Creating Layer ConvNd_10
I0703 14:22:29.006392 28460 net.cpp:435] ConvNd_10 <- BatchNorm_8
I0703 14:22:29.006397 28460 net.cpp:409] ConvNd_10 -> ConvNd_10
I0703 14:22:29.006566 28460 net.cpp:144] Setting up ConvNd_10
I0703 14:22:29.006573 28460 net.cpp:151] Top shape: 5 16 128 128 (1310720)
I0703 14:22:29.006577 28460 net.cpp:159] Memory required for data: 592445440
I0703 14:22:29.006580 28460 layer_factory.hpp:77] Creating layer BatchNorm_9
I0703 14:22:29.006587 28460 net.cpp:94] Creating Layer BatchNorm_9
I0703 14:22:29.006592 28460 net.cpp:435] BatchNorm_9 <- ConvNd_10
I0703 14:22:29.006597 28460 net.cpp:409] BatchNorm_9 -> BatchNorm_9
I0703 14:22:29.007040 28460 net.cpp:144] Setting up BatchNorm_9
I0703 14:22:29.007046 28460 net.cpp:151] Top shape: 5 16 128 128 (1310720)
I0703 14:22:29.007050 28460 net.cpp:159] Memory required for data: 597688320
I0703 14:22:29.007058 28460 layer_factory.hpp:77] Creating layer Threshold_11
I0703 14:22:29.007064 28460 net.cpp:94] Creating Layer Threshold_11
I0703 14:22:29.007067 28460 net.cpp:435] Threshold_11 <- BatchNorm_9
I0703 14:22:29.007072 28460 net.cpp:396] Threshold_11 -> BatchNorm_9 (in-place)
I0703 14:22:29.007078 28460 net.cpp:144] Setting up Threshold_11
I0703 14:22:29.007082 28460 net.cpp:151] Top shape: 5 16 128 128 (1310720)
I0703 14:22:29.007086 28460 net.cpp:159] Memory required for data: 602931200
I0703 14:22:29.007088 28460 layer_factory.hpp:77] Creating layer ConvNd_11
I0703 14:22:29.007095 28460 net.cpp:94] Creating Layer ConvNd_11
I0703 14:22:29.007098 28460 net.cpp:435] ConvNd_11 <- BatchNorm_9
I0703 14:22:29.007103 28460 net.cpp:409] ConvNd_11 -> ConvNd_11
I0703 14:22:29.007262 28460 net.cpp:144] Setting up ConvNd_11
I0703 14:22:29.007278 28460 net.cpp:151] Top shape: 5 64 128 128 (5242880)
I0703 14:22:29.007282 28460 net.cpp:159] Memory required for data: 623902720
I0703 14:22:29.007287 28460 layer_factory.hpp:77] Creating layer BatchNorm_10
I0703 14:22:29.007293 28460 net.cpp:94] Creating Layer BatchNorm_10
I0703 14:22:29.007297 28460 net.cpp:435] BatchNorm_10 <- ConvNd_11
I0703 14:22:29.007302 28460 net.cpp:409] BatchNorm_10 -> BatchNorm_10
I0703 14:22:29.007761 28460 net.cpp:144] Setting up BatchNorm_10
I0703 14:22:29.007772 28460 net.cpp:151] Top shape: 5 64 128 128 (5242880)
I0703 14:22:29.007784 28460 net.cpp:159] Memory required for data: 644874240
I0703 14:22:29.007793 28460 layer_factory.hpp:77] Creating layer Threshold_12
I0703 14:22:29.007798 28460 net.cpp:94] Creating Layer Threshold_12
I0703 14:22:29.007802 28460 net.cpp:435] Threshold_12 <- BatchNorm_10
I0703 14:22:29.007807 28460 net.cpp:396] Threshold_12 -> BatchNorm_10 (in-place)
I0703 14:22:29.007812 28460 net.cpp:144] Setting up Threshold_12
I0703 14:22:29.007817 28460 net.cpp:151] Top shape: 5 64 128 128 (5242880)
I0703 14:22:29.007820 28460 net.cpp:159] Memory required for data: 665845760
I0703 14:22:29.007822 28460 layer_factory.hpp:77] Creating layer Add_3
I0703 14:22:29.007827 28460 net.cpp:94] Creating Layer Add_3
I0703 14:22:29.007830 28460 net.cpp:435] Add_3 <- Add_2_Threshold_9_0_split_1
I0703 14:22:29.007835 28460 net.cpp:435] Add_3 <- BatchNorm_10
I0703 14:22:29.007840 28460 net.cpp:409] Add_3 -> Add_3
I0703 14:22:29.007859 28460 net.cpp:144] Setting up Add_3
I0703 14:22:29.007864 28460 net.cpp:151] Top shape: 5 64 128 128 (5242880)
I0703 14:22:29.007867 28460 net.cpp:159] Memory required for data: 686817280
I0703 14:22:29.007871 28460 layer_factory.hpp:77] Creating layer Threshold_13
I0703 14:22:29.007875 28460 net.cpp:94] Creating Layer Threshold_13
I0703 14:22:29.007879 28460 net.cpp:435] Threshold_13 <- Add_3
I0703 14:22:29.007884 28460 net.cpp:396] Threshold_13 -> Add_3 (in-place)
I0703 14:22:29.007889 28460 net.cpp:144] Setting up Threshold_13
I0703 14:22:29.007892 28460 net.cpp:151] Top shape: 5 64 128 128 (5242880)
I0703 14:22:29.007895 28460 net.cpp:159] Memory required for data: 707788800
I0703 14:22:29.007899 28460 layer_factory.hpp:77] Creating layer Add_3_Threshold_13_0_split
I0703 14:22:29.007903 28460 net.cpp:94] Creating Layer Add_3_Threshold_13_0_split
I0703 14:22:29.007907 28460 net.cpp:435] Add_3_Threshold_13_0_split <- Add_3
I0703 14:22:29.007911 28460 net.cpp:409] Add_3_Threshold_13_0_split -> Add_3_Threshold_13_0_split_0
I0703 14:22:29.007917 28460 net.cpp:409] Add_3_Threshold_13_0_split -> Add_3_Threshold_13_0_split_1
I0703 14:22:29.007946 28460 net.cpp:144] Setting up Add_3_Threshold_13_0_split
I0703 14:22:29.007951 28460 net.cpp:151] Top shape: 5 64 128 128 (5242880)
I0703 14:22:29.007956 28460 net.cpp:151] Top shape: 5 64 128 128 (5242880)
I0703 14:22:29.007958 28460 net.cpp:159] Memory required for data: 749731840
I0703 14:22:29.007961 28460 layer_factory.hpp:77] Creating layer ConvNd_12
I0703 14:22:29.007969 28460 net.cpp:94] Creating Layer ConvNd_12
I0703 14:22:29.007972 28460 net.cpp:435] ConvNd_12 <- Add_3_Threshold_13_0_split_0
I0703 14:22:29.007978 28460 net.cpp:409] ConvNd_12 -> ConvNd_12
I0703 14:22:29.008138 28460 net.cpp:144] Setting up ConvNd_12
I0703 14:22:29.008146 28460 net.cpp:151] Top shape: 5 16 128 128 (1310720)
I0703 14:22:29.008148 28460 net.cpp:159] Memory required for data: 754974720
I0703 14:22:29.008154 28460 layer_factory.hpp:77] Creating layer BatchNorm_11
I0703 14:22:29.008160 28460 net.cpp:94] Creating Layer BatchNorm_11
I0703 14:22:29.008164 28460 net.cpp:435] BatchNorm_11 <- ConvNd_12
I0703 14:22:29.008169 28460 net.cpp:409] BatchNorm_11 -> BatchNorm_11
I0703 14:22:29.008621 28460 net.cpp:144] Setting up BatchNorm_11
I0703 14:22:29.008628 28460 net.cpp:151] Top shape: 5 16 128 128 (1310720)
I0703 14:22:29.008631 28460 net.cpp:159] Memory required for data: 760217600
I0703 14:22:29.008643 28460 layer_factory.hpp:77] Creating layer Threshold_14
I0703 14:22:29.008649 28460 net.cpp:94] Creating Layer Threshold_14
I0703 14:22:29.008663 28460 net.cpp:435] Threshold_14 <- BatchNorm_11
I0703 14:22:29.008668 28460 net.cpp:396] Threshold_14 -> BatchNorm_11 (in-place)
I0703 14:22:29.008674 28460 net.cpp:144] Setting up Threshold_14
I0703 14:22:29.008679 28460 net.cpp:151] Top shape: 5 16 128 128 (1310720)
I0703 14:22:29.008682 28460 net.cpp:159] Memory required for data: 765460480
I0703 14:22:29.008684 28460 layer_factory.hpp:77] Creating layer ConvNd_13
I0703 14:22:29.008692 28460 net.cpp:94] Creating Layer ConvNd_13
I0703 14:22:29.008695 28460 net.cpp:435] ConvNd_13 <- BatchNorm_11
I0703 14:22:29.008700 28460 net.cpp:409] ConvNd_13 -> ConvNd_13
I0703 14:22:29.008874 28460 net.cpp:144] Setting up ConvNd_13
I0703 14:22:29.008882 28460 net.cpp:151] Top shape: 5 16 128 128 (1310720)
I0703 14:22:29.008885 28460 net.cpp:159] Memory required for data: 770703360
I0703 14:22:29.008890 28460 layer_factory.hpp:77] Creating layer BatchNorm_12
I0703 14:22:29.008896 28460 net.cpp:94] Creating Layer BatchNorm_12
I0703 14:22:29.008900 28460 net.cpp:435] BatchNorm_12 <- ConvNd_13
I0703 14:22:29.008906 28460 net.cpp:409] BatchNorm_12 -> BatchNorm_12
I0703 14:22:29.009356 28460 net.cpp:144] Setting up BatchNorm_12
I0703 14:22:29.009364 28460 net.cpp:151] Top shape: 5 16 128 128 (1310720)
I0703 14:22:29.009367 28460 net.cpp:159] Memory required for data: 775946240
I0703 14:22:29.009377 28460 layer_factory.hpp:77] Creating layer Threshold_15
I0703 14:22:29.009382 28460 net.cpp:94] Creating Layer Threshold_15
I0703 14:22:29.009384 28460 net.cpp:435] Threshold_15 <- BatchNorm_12
I0703 14:22:29.009389 28460 net.cpp:396] Threshold_15 -> BatchNorm_12 (in-place)
I0703 14:22:29.009395 28460 net.cpp:144] Setting up Threshold_15
I0703 14:22:29.009399 28460 net.cpp:151] Top shape: 5 16 128 128 (1310720)
I0703 14:22:29.009402 28460 net.cpp:159] Memory required for data: 781189120
I0703 14:22:29.009405 28460 layer_factory.hpp:77] Creating layer ConvNd_14
I0703 14:22:29.009413 28460 net.cpp:94] Creating Layer ConvNd_14
I0703 14:22:29.009416 28460 net.cpp:435] ConvNd_14 <- BatchNorm_12
I0703 14:22:29.009420 28460 net.cpp:409] ConvNd_14 -> ConvNd_14
I0703 14:22:29.009588 28460 net.cpp:144] Setting up ConvNd_14
I0703 14:22:29.009595 28460 net.cpp:151] Top shape: 5 64 128 128 (5242880)
I0703 14:22:29.009598 28460 net.cpp:159] Memory required for data: 802160640
I0703 14:22:29.009603 28460 layer_factory.hpp:77] Creating layer BatchNorm_13
I0703 14:22:29.009609 28460 net.cpp:94] Creating Layer BatchNorm_13
I0703 14:22:29.009613 28460 net.cpp:435] BatchNorm_13 <- ConvNd_14
I0703 14:22:29.009619 28460 net.cpp:409] BatchNorm_13 -> BatchNorm_13
I0703 14:22:29.010083 28460 net.cpp:144] Setting up BatchNorm_13
I0703 14:22:29.010090 28460 net.cpp:151] Top shape: 5 64 128 128 (5242880)
I0703 14:22:29.010094 28460 net.cpp:159] Memory required for data: 823132160
I0703 14:22:29.010102 28460 layer_factory.hpp:77] Creating layer Threshold_16
I0703 14:22:29.010107 28460 net.cpp:94] Creating Layer Threshold_16
I0703 14:22:29.010110 28460 net.cpp:435] Threshold_16 <- BatchNorm_13
I0703 14:22:29.010115 28460 net.cpp:396] Threshold_16 -> BatchNorm_13 (in-place)
I0703 14:22:29.010123 28460 net.cpp:144] Setting up Threshold_16
I0703 14:22:29.010126 28460 net.cpp:151] Top shape: 5 64 128 128 (5242880)
I0703 14:22:29.010129 28460 net.cpp:159] Memory required for data: 844103680
I0703 14:22:29.010133 28460 layer_factory.hpp:77] Creating layer Add_4
I0703 14:22:29.010138 28460 net.cpp:94] Creating Layer Add_4
I0703 14:22:29.010140 28460 net.cpp:435] Add_4 <- Add_3_Threshold_13_0_split_1
I0703 14:22:29.010144 28460 net.cpp:435] Add_4 <- BatchNorm_13
I0703 14:22:29.010150 28460 net.cpp:409] Add_4 -> Add_4
I0703 14:22:29.010169 28460 net.cpp:144] Setting up Add_4
I0703 14:22:29.010175 28460 net.cpp:151] Top shape: 5 64 128 128 (5242880)
I0703 14:22:29.010179 28460 net.cpp:159] Memory required for data: 865075200
I0703 14:22:29.010182 28460 layer_factory.hpp:77] Creating layer Threshold_17
I0703 14:22:29.010186 28460 net.cpp:94] Creating Layer Threshold_17
I0703 14:22:29.010190 28460 net.cpp:435] Threshold_17 <- Add_4
I0703 14:22:29.010203 28460 net.cpp:396] Threshold_17 -> Add_4 (in-place)
I0703 14:22:29.010210 28460 net.cpp:144] Setting up Threshold_17
I0703 14:22:29.010215 28460 net.cpp:151] Top shape: 5 64 128 128 (5242880)
I0703 14:22:29.010216 28460 net.cpp:159] Memory required for data: 886046720
I0703 14:22:29.010219 28460 layer_factory.hpp:77] Creating layer Add_4_Threshold_17_0_split
I0703 14:22:29.010226 28460 net.cpp:94] Creating Layer Add_4_Threshold_17_0_split
I0703 14:22:29.010228 28460 net.cpp:435] Add_4_Threshold_17_0_split <- Add_4
I0703 14:22:29.010233 28460 net.cpp:409] Add_4_Threshold_17_0_split -> Add_4_Threshold_17_0_split_0
I0703 14:22:29.010239 28460 net.cpp:409] Add_4_Threshold_17_0_split -> Add_4_Threshold_17_0_split_1
I0703 14:22:29.010268 28460 net.cpp:144] Setting up Add_4_Threshold_17_0_split
I0703 14:22:29.010275 28460 net.cpp:151] Top shape: 5 64 128 128 (5242880)
I0703 14:22:29.010278 28460 net.cpp:151] Top shape: 5 64 128 128 (5242880)
I0703 14:22:29.010282 28460 net.cpp:159] Memory required for data: 927989760
I0703 14:22:29.010285 28460 layer_factory.hpp:77] Creating layer ConvNd_15
I0703 14:22:29.010293 28460 net.cpp:94] Creating Layer ConvNd_15
I0703 14:22:29.010295 28460 net.cpp:435] ConvNd_15 <- Add_4_Threshold_17_0_split_0
I0703 14:22:29.010301 28460 net.cpp:409] ConvNd_15 -> ConvNd_15
I0703 14:22:29.010466 28460 net.cpp:144] Setting up ConvNd_15
I0703 14:22:29.010474 28460 net.cpp:151] Top shape: 5 16 128 128 (1310720)
I0703 14:22:29.010478 28460 net.cpp:159] Memory required for data: 933232640
I0703 14:22:29.010481 28460 layer_factory.hpp:77] Creating layer BatchNorm_14
I0703 14:22:29.010488 28460 net.cpp:94] Creating Layer BatchNorm_14
I0703 14:22:29.010493 28460 net.cpp:435] BatchNorm_14 <- ConvNd_15
I0703 14:22:29.010498 28460 net.cpp:409] BatchNorm_14 -> BatchNorm_14
I0703 14:22:29.010983 28460 net.cpp:144] Setting up BatchNorm_14
I0703 14:22:29.010993 28460 net.cpp:151] Top shape: 5 16 128 128 (1310720)
I0703 14:22:29.010995 28460 net.cpp:159] Memory required for data: 938475520
I0703 14:22:29.011004 28460 layer_factory.hpp:77] Creating layer Threshold_18
I0703 14:22:29.011009 28460 net.cpp:94] Creating Layer Threshold_18
I0703 14:22:29.011013 28460 net.cpp:435] Threshold_18 <- BatchNorm_14
I0703 14:22:29.011018 28460 net.cpp:396] Threshold_18 -> BatchNorm_14 (in-place)
I0703 14:22:29.011024 28460 net.cpp:144] Setting up Threshold_18
I0703 14:22:29.011029 28460 net.cpp:151] Top shape: 5 16 128 128 (1310720)
I0703 14:22:29.011031 28460 net.cpp:159] Memory required for data: 943718400
I0703 14:22:29.011034 28460 layer_factory.hpp:77] Creating layer ConvNd_16
I0703 14:22:29.011042 28460 net.cpp:94] Creating Layer ConvNd_16
I0703 14:22:29.011045 28460 net.cpp:435] ConvNd_16 <- BatchNorm_14
I0703 14:22:29.011050 28460 net.cpp:409] ConvNd_16 -> ConvNd_16
I0703 14:22:29.011227 28460 net.cpp:144] Setting up ConvNd_16
I0703 14:22:29.011235 28460 net.cpp:151] Top shape: 5 16 128 128 (1310720)
I0703 14:22:29.011238 28460 net.cpp:159] Memory required for data: 948961280
I0703 14:22:29.011243 28460 layer_factory.hpp:77] Creating layer BatchNorm_15
I0703 14:22:29.011250 28460 net.cpp:94] Creating Layer BatchNorm_15
I0703 14:22:29.011253 28460 net.cpp:435] BatchNorm_15 <- ConvNd_16
I0703 14:22:29.011258 28460 net.cpp:409] BatchNorm_15 -> BatchNorm_15
I0703 14:22:29.011723 28460 net.cpp:144] Setting up BatchNorm_15
I0703 14:22:29.011731 28460 net.cpp:151] Top shape: 5 16 128 128 (1310720)
I0703 14:22:29.011734 28460 net.cpp:159] Memory required for data: 954204160
I0703 14:22:29.011742 28460 layer_factory.hpp:77] Creating layer Threshold_19
I0703 14:22:29.011750 28460 net.cpp:94] Creating Layer Threshold_19
I0703 14:22:29.011759 28460 net.cpp:435] Threshold_19 <- BatchNorm_15
I0703 14:22:29.011763 28460 net.cpp:396] Threshold_19 -> BatchNorm_15 (in-place)
I0703 14:22:29.011770 28460 net.cpp:144] Setting up Threshold_19
I0703 14:22:29.011775 28460 net.cpp:151] Top shape: 5 16 128 128 (1310720)
I0703 14:22:29.011777 28460 net.cpp:159] Memory required for data: 959447040
I0703 14:22:29.011790 28460 layer_factory.hpp:77] Creating layer ConvNd_17
I0703 14:22:29.011797 28460 net.cpp:94] Creating Layer ConvNd_17
I0703 14:22:29.011801 28460 net.cpp:435] ConvNd_17 <- BatchNorm_15
I0703 14:22:29.011807 28460 net.cpp:409] ConvNd_17 -> ConvNd_17
I0703 14:22:29.011978 28460 net.cpp:144] Setting up ConvNd_17
I0703 14:22:29.011986 28460 net.cpp:151] Top shape: 5 64 128 128 (5242880)
I0703 14:22:29.011989 28460 net.cpp:159] Memory required for data: 980418560
I0703 14:22:29.011994 28460 layer_factory.hpp:77] Creating layer BatchNorm_16
I0703 14:22:29.012001 28460 net.cpp:94] Creating Layer BatchNorm_16
I0703 14:22:29.012006 28460 net.cpp:435] BatchNorm_16 <- ConvNd_17
I0703 14:22:29.012012 28460 net.cpp:409] BatchNorm_16 -> BatchNorm_16
I0703 14:22:29.012485 28460 net.cpp:144] Setting up BatchNorm_16
I0703 14:22:29.012492 28460 net.cpp:151] Top shape: 5 64 128 128 (5242880)
I0703 14:22:29.012495 28460 net.cpp:159] Memory required for data: 1001390080
I0703 14:22:29.012504 28460 layer_factory.hpp:77] Creating layer Threshold_20
I0703 14:22:29.012509 28460 net.cpp:94] Creating Layer Threshold_20
I0703 14:22:29.012512 28460 net.cpp:435] Threshold_20 <- BatchNorm_16
I0703 14:22:29.012517 28460 net.cpp:396] Threshold_20 -> BatchNorm_16 (in-place)
I0703 14:22:29.012523 28460 net.cpp:144] Setting up Threshold_20
I0703 14:22:29.012528 28460 net.cpp:151] Top shape: 5 64 128 128 (5242880)
I0703 14:22:29.012531 28460 net.cpp:159] Memory required for data: 1022361600
I0703 14:22:29.012534 28460 layer_factory.hpp:77] Creating layer Add_5
I0703 14:22:29.012539 28460 net.cpp:94] Creating Layer Add_5
I0703 14:22:29.012543 28460 net.cpp:435] Add_5 <- Add_4_Threshold_17_0_split_1
I0703 14:22:29.012547 28460 net.cpp:435] Add_5 <- BatchNorm_16
I0703 14:22:29.012552 28460 net.cpp:409] Add_5 -> Add_5
I0703 14:22:29.012571 28460 net.cpp:144] Setting up Add_5
I0703 14:22:29.012576 28460 net.cpp:151] Top shape: 5 64 128 128 (5242880)
I0703 14:22:29.012579 28460 net.cpp:159] Memory required for data: 1043333120
I0703 14:22:29.012583 28460 layer_factory.hpp:77] Creating layer Threshold_21
I0703 14:22:29.012588 28460 net.cpp:94] Creating Layer Threshold_21
I0703 14:22:29.012590 28460 net.cpp:435] Threshold_21 <- Add_5
I0703 14:22:29.012594 28460 net.cpp:396] Threshold_21 -> Add_5 (in-place)
I0703 14:22:29.012599 28460 net.cpp:144] Setting up Threshold_21
I0703 14:22:29.012604 28460 net.cpp:151] Top shape: 5 64 128 128 (5242880)
I0703 14:22:29.012607 28460 net.cpp:159] Memory required for data: 1064304640
I0703 14:22:29.012610 28460 layer_factory.hpp:77] Creating layer Add_5_Threshold_21_0_split
I0703 14:22:29.012614 28460 net.cpp:94] Creating Layer Add_5_Threshold_21_0_split
I0703 14:22:29.012619 28460 net.cpp:435] Add_5_Threshold_21_0_split <- Add_5
I0703 14:22:29.012622 28460 net.cpp:409] Add_5_Threshold_21_0_split -> Add_5_Threshold_21_0_split_0
I0703 14:22:29.012629 28460 net.cpp:409] Add_5_Threshold_21_0_split -> Add_5_Threshold_21_0_split_1
I0703 14:22:29.012657 28460 net.cpp:144] Setting up Add_5_Threshold_21_0_split
I0703 14:22:29.012665 28460 net.cpp:151] Top shape: 5 64 128 128 (5242880)
I0703 14:22:29.012668 28460 net.cpp:151] Top shape: 5 64 128 128 (5242880)
I0703 14:22:29.012670 28460 net.cpp:159] Memory required for data: 1106247680
I0703 14:22:29.012673 28460 layer_factory.hpp:77] Creating layer MaxPool2d_3
I0703 14:22:29.012681 28460 net.cpp:94] Creating Layer MaxPool2d_3
I0703 14:22:29.012683 28460 net.cpp:435] MaxPool2d_3 <- Add_5_Threshold_21_0_split_0
I0703 14:22:29.012688 28460 net.cpp:409] MaxPool2d_3 -> MaxPool2d_3
I0703 14:22:29.012718 28460 net.cpp:144] Setting up MaxPool2d_3
I0703 14:22:29.012724 28460 net.cpp:151] Top shape: 5 64 64 64 (1310720)
I0703 14:22:29.012727 28460 net.cpp:159] Memory required for data: 1111490560
I0703 14:22:29.012730 28460 layer_factory.hpp:77] Creating layer ConvNd_18
I0703 14:22:29.012737 28460 net.cpp:94] Creating Layer ConvNd_18
I0703 14:22:29.012742 28460 net.cpp:435] ConvNd_18 <- MaxPool2d_3
I0703 14:22:29.012748 28460 net.cpp:409] ConvNd_18 -> ConvNd_18
I0703 14:22:29.012982 28460 net.cpp:144] Setting up ConvNd_18
I0703 14:22:29.012989 28460 net.cpp:151] Top shape: 5 128 64 64 (2621440)
I0703 14:22:29.012993 28460 net.cpp:159] Memory required for data: 1121976320
I0703 14:22:29.012998 28460 layer_factory.hpp:77] Creating layer ConvNd_19
I0703 14:22:29.013005 28460 net.cpp:94] Creating Layer ConvNd_19
I0703 14:22:29.013010 28460 net.cpp:435] ConvNd_19 <- Add_5_Threshold_21_0_split_1
I0703 14:22:29.013015 28460 net.cpp:409] ConvNd_19 -> ConvNd_19
I0703 14:22:29.013236 28460 net.cpp:144] Setting up ConvNd_19
I0703 14:22:29.013244 28460 net.cpp:151] Top shape: 5 32 64 64 (655360)
I0703 14:22:29.013247 28460 net.cpp:159] Memory required for data: 1124597760
I0703 14:22:29.013252 28460 layer_factory.hpp:77] Creating layer BatchNorm_17
I0703 14:22:29.013258 28460 net.cpp:94] Creating Layer BatchNorm_17
I0703 14:22:29.013262 28460 net.cpp:435] BatchNorm_17 <- ConvNd_19
I0703 14:22:29.013267 28460 net.cpp:409] BatchNorm_17 -> BatchNorm_17
I0703 14:22:29.013727 28460 net.cpp:144] Setting up BatchNorm_17
I0703 14:22:29.013734 28460 net.cpp:151] Top shape: 5 32 64 64 (655360)
I0703 14:22:29.013737 28460 net.cpp:159] Memory required for data: 1127219200
I0703 14:22:29.013746 28460 layer_factory.hpp:77] Creating layer Threshold_22
I0703 14:22:29.013751 28460 net.cpp:94] Creating Layer Threshold_22
I0703 14:22:29.013756 28460 net.cpp:435] Threshold_22 <- BatchNorm_17
I0703 14:22:29.013759 28460 net.cpp:396] Threshold_22 -> BatchNorm_17 (in-place)
I0703 14:22:29.013767 28460 net.cpp:144] Setting up Threshold_22
I0703 14:22:29.013772 28460 net.cpp:151] Top shape: 5 32 64 64 (655360)
I0703 14:22:29.013774 28460 net.cpp:159] Memory required for data: 1129840640
I0703 14:22:29.013777 28460 layer_factory.hpp:77] Creating layer ConvNd_20
I0703 14:22:29.013783 28460 net.cpp:94] Creating Layer ConvNd_20
I0703 14:22:29.013787 28460 net.cpp:435] ConvNd_20 <- BatchNorm_17
I0703 14:22:29.013792 28460 net.cpp:409] ConvNd_20 -> ConvNd_20
I0703 14:22:29.014029 28460 net.cpp:144] Setting up ConvNd_20
I0703 14:22:29.014036 28460 net.cpp:151] Top shape: 5 32 64 64 (655360)
I0703 14:22:29.014040 28460 net.cpp:159] Memory required for data: 1132462080
I0703 14:22:29.014045 28460 layer_factory.hpp:77] Creating layer BatchNorm_18
I0703 14:22:29.014051 28460 net.cpp:94] Creating Layer BatchNorm_18
I0703 14:22:29.014055 28460 net.cpp:435] BatchNorm_18 <- ConvNd_20
I0703 14:22:29.014061 28460 net.cpp:409] BatchNorm_18 -> BatchNorm_18
I0703 14:22:29.014520 28460 net.cpp:144] Setting up BatchNorm_18
I0703 14:22:29.014528 28460 net.cpp:151] Top shape: 5 32 64 64 (655360)
I0703 14:22:29.014531 28460 net.cpp:159] Memory required for data: 1135083520
I0703 14:22:29.014540 28460 layer_factory.hpp:77] Creating layer Threshold_23
I0703 14:22:29.014545 28460 net.cpp:94] Creating Layer Threshold_23
I0703 14:22:29.014549 28460 net.cpp:435] Threshold_23 <- BatchNorm_18
I0703 14:22:29.014554 28460 net.cpp:396] Threshold_23 -> BatchNorm_18 (in-place)
I0703 14:22:29.014559 28460 net.cpp:144] Setting up Threshold_23
I0703 14:22:29.014564 28460 net.cpp:151] Top shape: 5 32 64 64 (655360)
I0703 14:22:29.014566 28460 net.cpp:159] Memory required for data: 1137704960
I0703 14:22:29.014569 28460 layer_factory.hpp:77] Creating layer ConvNd_21
I0703 14:22:29.014576 28460 net.cpp:94] Creating Layer ConvNd_21
I0703 14:22:29.014580 28460 net.cpp:435] ConvNd_21 <- BatchNorm_18
I0703 14:22:29.014585 28460 net.cpp:409] ConvNd_21 -> ConvNd_21
I0703 14:22:29.014775 28460 net.cpp:144] Setting up ConvNd_21
I0703 14:22:29.014783 28460 net.cpp:151] Top shape: 5 128 64 64 (2621440)
I0703 14:22:29.014786 28460 net.cpp:159] Memory required for data: 1148190720
I0703 14:22:29.014791 28460 layer_factory.hpp:77] Creating layer BatchNorm_19
I0703 14:22:29.014797 28460 net.cpp:94] Creating Layer BatchNorm_19
I0703 14:22:29.014801 28460 net.cpp:435] BatchNorm_19 <- ConvNd_21
I0703 14:22:29.014806 28460 net.cpp:409] BatchNorm_19 -> BatchNorm_19
I0703 14:22:29.015226 28460 net.cpp:144] Setting up BatchNorm_19
I0703 14:22:29.015233 28460 net.cpp:151] Top shape: 5 128 64 64 (2621440)
I0703 14:22:29.015244 28460 net.cpp:159] Memory required for data: 1158676480
I0703 14:22:29.015254 28460 layer_factory.hpp:77] Creating layer Threshold_24
I0703 14:22:29.015259 28460 net.cpp:94] Creating Layer Threshold_24
I0703 14:22:29.015262 28460 net.cpp:435] Threshold_24 <- BatchNorm_19
I0703 14:22:29.015267 28460 net.cpp:396] Threshold_24 -> BatchNorm_19 (in-place)
I0703 14:22:29.015274 28460 net.cpp:144] Setting up Threshold_24
I0703 14:22:29.015277 28460 net.cpp:151] Top shape: 5 128 64 64 (2621440)
I0703 14:22:29.015280 28460 net.cpp:159] Memory required for data: 1169162240
I0703 14:22:29.015285 28460 layer_factory.hpp:77] Creating layer Add_6
I0703 14:22:29.015288 28460 net.cpp:94] Creating Layer Add_6
I0703 14:22:29.015291 28460 net.cpp:435] Add_6 <- ConvNd_18
I0703 14:22:29.015295 28460 net.cpp:435] Add_6 <- BatchNorm_19
I0703 14:22:29.015300 28460 net.cpp:409] Add_6 -> Add_6
I0703 14:22:29.015321 28460 net.cpp:144] Setting up Add_6
I0703 14:22:29.015326 28460 net.cpp:151] Top shape: 5 128 64 64 (2621440)
I0703 14:22:29.015329 28460 net.cpp:159] Memory required for data: 1179648000
I0703 14:22:29.015333 28460 layer_factory.hpp:77] Creating layer Threshold_25
I0703 14:22:29.015337 28460 net.cpp:94] Creating Layer Threshold_25
I0703 14:22:29.015341 28460 net.cpp:435] Threshold_25 <- Add_6
I0703 14:22:29.015345 28460 net.cpp:396] Threshold_25 -> Add_6 (in-place)
I0703 14:22:29.015352 28460 net.cpp:144] Setting up Threshold_25
I0703 14:22:29.015354 28460 net.cpp:151] Top shape: 5 128 64 64 (2621440)
I0703 14:22:29.015357 28460 net.cpp:159] Memory required for data: 1190133760
I0703 14:22:29.015360 28460 layer_factory.hpp:77] Creating layer Add_6_Threshold_25_0_split
I0703 14:22:29.015367 28460 net.cpp:94] Creating Layer Add_6_Threshold_25_0_split
I0703 14:22:29.015369 28460 net.cpp:435] Add_6_Threshold_25_0_split <- Add_6
I0703 14:22:29.015374 28460 net.cpp:409] Add_6_Threshold_25_0_split -> Add_6_Threshold_25_0_split_0
I0703 14:22:29.015380 28460 net.cpp:409] Add_6_Threshold_25_0_split -> Add_6_Threshold_25_0_split_1
I0703 14:22:29.015408 28460 net.cpp:144] Setting up Add_6_Threshold_25_0_split
I0703 14:22:29.015414 28460 net.cpp:151] Top shape: 5 128 64 64 (2621440)
I0703 14:22:29.015419 28460 net.cpp:151] Top shape: 5 128 64 64 (2621440)
I0703 14:22:29.015421 28460 net.cpp:159] Memory required for data: 1211105280
I0703 14:22:29.015424 28460 layer_factory.hpp:77] Creating layer ConvNd_22
I0703 14:22:29.015432 28460 net.cpp:94] Creating Layer ConvNd_22
I0703 14:22:29.015435 28460 net.cpp:435] ConvNd_22 <- Add_6_Threshold_25_0_split_0
I0703 14:22:29.015440 28460 net.cpp:409] ConvNd_22 -> ConvNd_22
I0703 14:22:29.015628 28460 net.cpp:144] Setting up ConvNd_22
I0703 14:22:29.015636 28460 net.cpp:151] Top shape: 5 32 64 64 (655360)
I0703 14:22:29.015640 28460 net.cpp:159] Memory required for data: 1213726720
I0703 14:22:29.015645 28460 layer_factory.hpp:77] Creating layer BatchNorm_20
I0703 14:22:29.015651 28460 net.cpp:94] Creating Layer BatchNorm_20
I0703 14:22:29.015655 28460 net.cpp:435] BatchNorm_20 <- ConvNd_22
I0703 14:22:29.015661 28460 net.cpp:409] BatchNorm_20 -> BatchNorm_20
I0703 14:22:29.016126 28460 net.cpp:144] Setting up BatchNorm_20
I0703 14:22:29.016135 28460 net.cpp:151] Top shape: 5 32 64 64 (655360)
I0703 14:22:29.016139 28460 net.cpp:159] Memory required for data: 1216348160
I0703 14:22:29.016146 28460 layer_factory.hpp:77] Creating layer Threshold_26
I0703 14:22:29.016151 28460 net.cpp:94] Creating Layer Threshold_26
I0703 14:22:29.016155 28460 net.cpp:435] Threshold_26 <- BatchNorm_20
I0703 14:22:29.016160 28460 net.cpp:396] Threshold_26 -> BatchNorm_20 (in-place)
I0703 14:22:29.016173 28460 net.cpp:144] Setting up Threshold_26
I0703 14:22:29.016177 28460 net.cpp:151] Top shape: 5 32 64 64 (655360)
I0703 14:22:29.016180 28460 net.cpp:159] Memory required for data: 1218969600
I0703 14:22:29.016183 28460 layer_factory.hpp:77] Creating layer ConvNd_23
I0703 14:22:29.016191 28460 net.cpp:94] Creating Layer ConvNd_23
I0703 14:22:29.016193 28460 net.cpp:435] ConvNd_23 <- BatchNorm_20
I0703 14:22:29.016207 28460 net.cpp:409] ConvNd_23 -> ConvNd_23
I0703 14:22:29.016443 28460 net.cpp:144] Setting up ConvNd_23
I0703 14:22:29.016451 28460 net.cpp:151] Top shape: 5 32 64 64 (655360)
I0703 14:22:29.016454 28460 net.cpp:159] Memory required for data: 1221591040
I0703 14:22:29.016459 28460 layer_factory.hpp:77] Creating layer BatchNorm_21
I0703 14:22:29.016466 28460 net.cpp:94] Creating Layer BatchNorm_21
I0703 14:22:29.016469 28460 net.cpp:435] BatchNorm_21 <- ConvNd_23
I0703 14:22:29.016474 28460 net.cpp:409] BatchNorm_21 -> BatchNorm_21
I0703 14:22:29.016937 28460 net.cpp:144] Setting up BatchNorm_21
I0703 14:22:29.016943 28460 net.cpp:151] Top shape: 5 32 64 64 (655360)
I0703 14:22:29.016947 28460 net.cpp:159] Memory required for data: 1224212480
I0703 14:22:29.016954 28460 layer_factory.hpp:77] Creating layer Threshold_27
I0703 14:22:29.016960 28460 net.cpp:94] Creating Layer Threshold_27
I0703 14:22:29.016964 28460 net.cpp:435] Threshold_27 <- BatchNorm_21
I0703 14:22:29.016968 28460 net.cpp:396] Threshold_27 -> BatchNorm_21 (in-place)
I0703 14:22:29.016974 28460 net.cpp:144] Setting up Threshold_27
I0703 14:22:29.016979 28460 net.cpp:151] Top shape: 5 32 64 64 (655360)
I0703 14:22:29.016981 28460 net.cpp:159] Memory required for data: 1226833920
I0703 14:22:29.016984 28460 layer_factory.hpp:77] Creating layer ConvNd_24
I0703 14:22:29.016991 28460 net.cpp:94] Creating Layer ConvNd_24
I0703 14:22:29.016995 28460 net.cpp:435] ConvNd_24 <- BatchNorm_21
I0703 14:22:29.017000 28460 net.cpp:409] ConvNd_24 -> ConvNd_24
I0703 14:22:29.017187 28460 net.cpp:144] Setting up ConvNd_24
I0703 14:22:29.017194 28460 net.cpp:151] Top shape: 5 128 64 64 (2621440)
I0703 14:22:29.017199 28460 net.cpp:159] Memory required for data: 1237319680
I0703 14:22:29.017206 28460 layer_factory.hpp:77] Creating layer BatchNorm_22
I0703 14:22:29.017213 28460 net.cpp:94] Creating Layer BatchNorm_22
I0703 14:22:29.017217 28460 net.cpp:435] BatchNorm_22 <- ConvNd_24
I0703 14:22:29.017223 28460 net.cpp:409] BatchNorm_22 -> BatchNorm_22
I0703 14:22:29.017643 28460 net.cpp:144] Setting up BatchNorm_22
I0703 14:22:29.017650 28460 net.cpp:151] Top shape: 5 128 64 64 (2621440)
I0703 14:22:29.017653 28460 net.cpp:159] Memory required for data: 1247805440
I0703 14:22:29.017663 28460 layer_factory.hpp:77] Creating layer Threshold_28
I0703 14:22:29.017668 28460 net.cpp:94] Creating Layer Threshold_28
I0703 14:22:29.017670 28460 net.cpp:435] Threshold_28 <- BatchNorm_22
I0703 14:22:29.017675 28460 net.cpp:396] Threshold_28 -> BatchNorm_22 (in-place)
I0703 14:22:29.017681 28460 net.cpp:144] Setting up Threshold_28
I0703 14:22:29.017688 28460 net.cpp:151] Top shape: 5 128 64 64 (2621440)
I0703 14:22:29.017690 28460 net.cpp:159] Memory required for data: 1258291200
I0703 14:22:29.017693 28460 layer_factory.hpp:77] Creating layer Add_7
I0703 14:22:29.017699 28460 net.cpp:94] Creating Layer Add_7
I0703 14:22:29.017701 28460 net.cpp:435] Add_7 <- Add_6_Threshold_25_0_split_1
I0703 14:22:29.017705 28460 net.cpp:435] Add_7 <- BatchNorm_22
I0703 14:22:29.017710 28460 net.cpp:409] Add_7 -> Add_7
I0703 14:22:29.017729 28460 net.cpp:144] Setting up Add_7
I0703 14:22:29.017735 28460 net.cpp:151] Top shape: 5 128 64 64 (2621440)
I0703 14:22:29.017736 28460 net.cpp:159] Memory required for data: 1268776960
I0703 14:22:29.017740 28460 layer_factory.hpp:77] Creating layer Threshold_29
I0703 14:22:29.017745 28460 net.cpp:94] Creating Layer Threshold_29
I0703 14:22:29.017748 28460 net.cpp:435] Threshold_29 <- Add_7
I0703 14:22:29.017752 28460 net.cpp:396] Threshold_29 -> Add_7 (in-place)
I0703 14:22:29.017757 28460 net.cpp:144] Setting up Threshold_29
I0703 14:22:29.017761 28460 net.cpp:151] Top shape: 5 128 64 64 (2621440)
I0703 14:22:29.017765 28460 net.cpp:159] Memory required for data: 1279262720
I0703 14:22:29.017767 28460 layer_factory.hpp:77] Creating layer Add_7_Threshold_29_0_split
I0703 14:22:29.017772 28460 net.cpp:94] Creating Layer Add_7_Threshold_29_0_split
I0703 14:22:29.017776 28460 net.cpp:435] Add_7_Threshold_29_0_split <- Add_7
I0703 14:22:29.017791 28460 net.cpp:409] Add_7_Threshold_29_0_split -> Add_7_Threshold_29_0_split_0
I0703 14:22:29.017797 28460 net.cpp:409] Add_7_Threshold_29_0_split -> Add_7_Threshold_29_0_split_1
I0703 14:22:29.017827 28460 net.cpp:144] Setting up Add_7_Threshold_29_0_split
I0703 14:22:29.017834 28460 net.cpp:151] Top shape: 5 128 64 64 (2621440)
I0703 14:22:29.017838 28460 net.cpp:151] Top shape: 5 128 64 64 (2621440)
I0703 14:22:29.017841 28460 net.cpp:159] Memory required for data: 1300234240
I0703 14:22:29.017844 28460 layer_factory.hpp:77] Creating layer ConvNd_25
I0703 14:22:29.017853 28460 net.cpp:94] Creating Layer ConvNd_25
I0703 14:22:29.017856 28460 net.cpp:435] ConvNd_25 <- Add_7_Threshold_29_0_split_0
I0703 14:22:29.017861 28460 net.cpp:409] ConvNd_25 -> ConvNd_25
I0703 14:22:29.018083 28460 net.cpp:144] Setting up ConvNd_25
I0703 14:22:29.018092 28460 net.cpp:151] Top shape: 5 32 64 64 (655360)
I0703 14:22:29.018095 28460 net.cpp:159] Memory required for data: 1302855680
I0703 14:22:29.018100 28460 layer_factory.hpp:77] Creating layer BatchNorm_23
I0703 14:22:29.018107 28460 net.cpp:94] Creating Layer BatchNorm_23
I0703 14:22:29.018111 28460 net.cpp:435] BatchNorm_23 <- ConvNd_25
I0703 14:22:29.018116 28460 net.cpp:409] BatchNorm_23 -> BatchNorm_23
I0703 14:22:29.018597 28460 net.cpp:144] Setting up BatchNorm_23
I0703 14:22:29.018605 28460 net.cpp:151] Top shape: 5 32 64 64 (655360)
I0703 14:22:29.018610 28460 net.cpp:159] Memory required for data: 1305477120
I0703 14:22:29.018617 28460 layer_factory.hpp:77] Creating layer Threshold_30
I0703 14:22:29.018623 28460 net.cpp:94] Creating Layer Threshold_30
I0703 14:22:29.018626 28460 net.cpp:435] Threshold_30 <- BatchNorm_23
I0703 14:22:29.018632 28460 net.cpp:396] Threshold_30 -> BatchNorm_23 (in-place)
I0703 14:22:29.018638 28460 net.cpp:144] Setting up Threshold_30
I0703 14:22:29.018642 28460 net.cpp:151] Top shape: 5 32 64 64 (655360)
I0703 14:22:29.018646 28460 net.cpp:159] Memory required for data: 1308098560
I0703 14:22:29.018649 28460 layer_factory.hpp:77] Creating layer ConvNd_26
I0703 14:22:29.018656 28460 net.cpp:94] Creating Layer ConvNd_26
I0703 14:22:29.018659 28460 net.cpp:435] ConvNd_26 <- BatchNorm_23
I0703 14:22:29.018664 28460 net.cpp:409] ConvNd_26 -> ConvNd_26
I0703 14:22:29.018901 28460 net.cpp:144] Setting up ConvNd_26
I0703 14:22:29.018909 28460 net.cpp:151] Top shape: 5 32 64 64 (655360)
I0703 14:22:29.018913 28460 net.cpp:159] Memory required for data: 1310720000
I0703 14:22:29.018916 28460 layer_factory.hpp:77] Creating layer BatchNorm_24
I0703 14:22:29.018923 28460 net.cpp:94] Creating Layer BatchNorm_24
I0703 14:22:29.018927 28460 net.cpp:435] BatchNorm_24 <- ConvNd_26
I0703 14:22:29.018934 28460 net.cpp:409] BatchNorm_24 -> BatchNorm_24
I0703 14:22:29.019395 28460 net.cpp:144] Setting up BatchNorm_24
I0703 14:22:29.019403 28460 net.cpp:151] Top shape: 5 32 64 64 (655360)
I0703 14:22:29.019407 28460 net.cpp:159] Memory required for data: 1313341440
I0703 14:22:29.019414 28460 layer_factory.hpp:77] Creating layer Threshold_31
I0703 14:22:29.019419 28460 net.cpp:94] Creating Layer Threshold_31
I0703 14:22:29.019423 28460 net.cpp:435] Threshold_31 <- BatchNorm_24
I0703 14:22:29.019428 28460 net.cpp:396] Threshold_31 -> BatchNorm_24 (in-place)
I0703 14:22:29.019434 28460 net.cpp:144] Setting up Threshold_31
I0703 14:22:29.019439 28460 net.cpp:151] Top shape: 5 32 64 64 (655360)
I0703 14:22:29.019443 28460 net.cpp:159] Memory required for data: 1315962880
I0703 14:22:29.019445 28460 layer_factory.hpp:77] Creating layer ConvNd_27
I0703 14:22:29.019452 28460 net.cpp:94] Creating Layer ConvNd_27
I0703 14:22:29.019455 28460 net.cpp:435] ConvNd_27 <- BatchNorm_24
I0703 14:22:29.019461 28460 net.cpp:409] ConvNd_27 -> ConvNd_27
I0703 14:22:29.019662 28460 net.cpp:144] Setting up ConvNd_27
I0703 14:22:29.019670 28460 net.cpp:151] Top shape: 5 128 64 64 (2621440)
I0703 14:22:29.019672 28460 net.cpp:159] Memory required for data: 1326448640
I0703 14:22:29.019677 28460 layer_factory.hpp:77] Creating layer BatchNorm_25
I0703 14:22:29.019685 28460 net.cpp:94] Creating Layer BatchNorm_25
I0703 14:22:29.019696 28460 net.cpp:435] BatchNorm_25 <- ConvNd_27
I0703 14:22:29.019702 28460 net.cpp:409] BatchNorm_25 -> BatchNorm_25
I0703 14:22:29.020138 28460 net.cpp:144] Setting up BatchNorm_25
I0703 14:22:29.020145 28460 net.cpp:151] Top shape: 5 128 64 64 (2621440)
I0703 14:22:29.020148 28460 net.cpp:159] Memory required for data: 1336934400
I0703 14:22:29.020157 28460 layer_factory.hpp:77] Creating layer Threshold_32
I0703 14:22:29.020162 28460 net.cpp:94] Creating Layer Threshold_32
I0703 14:22:29.020166 28460 net.cpp:435] Threshold_32 <- BatchNorm_25
I0703 14:22:29.020171 28460 net.cpp:396] Threshold_32 -> BatchNorm_25 (in-place)
I0703 14:22:29.020177 28460 net.cpp:144] Setting up Threshold_32
I0703 14:22:29.020182 28460 net.cpp:151] Top shape: 5 128 64 64 (2621440)
I0703 14:22:29.020184 28460 net.cpp:159] Memory required for data: 1347420160
I0703 14:22:29.020187 28460 layer_factory.hpp:77] Creating layer Add_8
I0703 14:22:29.020192 28460 net.cpp:94] Creating Layer Add_8
I0703 14:22:29.020196 28460 net.cpp:435] Add_8 <- Add_7_Threshold_29_0_split_1
I0703 14:22:29.020200 28460 net.cpp:435] Add_8 <- BatchNorm_25
I0703 14:22:29.020205 28460 net.cpp:409] Add_8 -> Add_8
I0703 14:22:29.020226 28460 net.cpp:144] Setting up Add_8
I0703 14:22:29.020233 28460 net.cpp:151] Top shape: 5 128 64 64 (2621440)
I0703 14:22:29.020236 28460 net.cpp:159] Memory required for data: 1357905920
I0703 14:22:29.020239 28460 layer_factory.hpp:77] Creating layer Threshold_33
I0703 14:22:29.020244 28460 net.cpp:94] Creating Layer Threshold_33
I0703 14:22:29.020248 28460 net.cpp:435] Threshold_33 <- Add_8
I0703 14:22:29.020252 28460 net.cpp:396] Threshold_33 -> Add_8 (in-place)
I0703 14:22:29.020257 28460 net.cpp:144] Setting up Threshold_33
I0703 14:22:29.020262 28460 net.cpp:151] Top shape: 5 128 64 64 (2621440)
I0703 14:22:29.020265 28460 net.cpp:159] Memory required for data: 1368391680
I0703 14:22:29.020268 28460 layer_factory.hpp:77] Creating layer Add_8_Threshold_33_0_split
I0703 14:22:29.020273 28460 net.cpp:94] Creating Layer Add_8_Threshold_33_0_split
I0703 14:22:29.020277 28460 net.cpp:435] Add_8_Threshold_33_0_split <- Add_8
I0703 14:22:29.020282 28460 net.cpp:409] Add_8_Threshold_33_0_split -> Add_8_Threshold_33_0_split_0
I0703 14:22:29.020288 28460 net.cpp:409] Add_8_Threshold_33_0_split -> Add_8_Threshold_33_0_split_1
I0703 14:22:29.020318 28460 net.cpp:144] Setting up Add_8_Threshold_33_0_split
I0703 14:22:29.020323 28460 net.cpp:151] Top shape: 5 128 64 64 (2621440)
I0703 14:22:29.020328 28460 net.cpp:151] Top shape: 5 128 64 64 (2621440)
I0703 14:22:29.020330 28460 net.cpp:159] Memory required for data: 1389363200
I0703 14:22:29.020334 28460 layer_factory.hpp:77] Creating layer ConvNd_28
I0703 14:22:29.020341 28460 net.cpp:94] Creating Layer ConvNd_28
I0703 14:22:29.020346 28460 net.cpp:435] ConvNd_28 <- Add_8_Threshold_33_0_split_0
I0703 14:22:29.020351 28460 net.cpp:409] ConvNd_28 -> ConvNd_28
I0703 14:22:29.020545 28460 net.cpp:144] Setting up ConvNd_28
I0703 14:22:29.020552 28460 net.cpp:151] Top shape: 5 32 64 64 (655360)
I0703 14:22:29.020556 28460 net.cpp:159] Memory required for data: 1391984640
I0703 14:22:29.020560 28460 layer_factory.hpp:77] Creating layer BatchNorm_26
I0703 14:22:29.020567 28460 net.cpp:94] Creating Layer BatchNorm_26
I0703 14:22:29.020570 28460 net.cpp:435] BatchNorm_26 <- ConvNd_28
I0703 14:22:29.020576 28460 net.cpp:409] BatchNorm_26 -> BatchNorm_26
I0703 14:22:29.021044 28460 net.cpp:144] Setting up BatchNorm_26
I0703 14:22:29.021051 28460 net.cpp:151] Top shape: 5 32 64 64 (655360)
I0703 14:22:29.021054 28460 net.cpp:159] Memory required for data: 1394606080
I0703 14:22:29.021064 28460 layer_factory.hpp:77] Creating layer Threshold_34
I0703 14:22:29.021068 28460 net.cpp:94] Creating Layer Threshold_34
I0703 14:22:29.021071 28460 net.cpp:435] Threshold_34 <- BatchNorm_26
I0703 14:22:29.021076 28460 net.cpp:396] Threshold_34 -> BatchNorm_26 (in-place)
I0703 14:22:29.021083 28460 net.cpp:144] Setting up Threshold_34
I0703 14:22:29.021088 28460 net.cpp:151] Top shape: 5 32 64 64 (655360)
I0703 14:22:29.021100 28460 net.cpp:159] Memory required for data: 1397227520
I0703 14:22:29.021103 28460 layer_factory.hpp:77] Creating layer ConvNd_29
I0703 14:22:29.021111 28460 net.cpp:94] Creating Layer ConvNd_29
I0703 14:22:29.021114 28460 net.cpp:435] ConvNd_29 <- BatchNorm_26
I0703 14:22:29.021119 28460 net.cpp:409] ConvNd_29 -> ConvNd_29
I0703 14:22:29.021339 28460 net.cpp:144] Setting up ConvNd_29
I0703 14:22:29.021361 28460 net.cpp:151] Top shape: 5 32 64 64 (655360)
I0703 14:22:29.021365 28460 net.cpp:159] Memory required for data: 1399848960
I0703 14:22:29.021371 28460 layer_factory.hpp:77] Creating layer BatchNorm_27
I0703 14:22:29.021378 28460 net.cpp:94] Creating Layer BatchNorm_27
I0703 14:22:29.021381 28460 net.cpp:435] BatchNorm_27 <- ConvNd_29
I0703 14:22:29.021387 28460 net.cpp:409] BatchNorm_27 -> BatchNorm_27
I0703 14:22:29.021862 28460 net.cpp:144] Setting up BatchNorm_27
I0703 14:22:29.021869 28460 net.cpp:151] Top shape: 5 32 64 64 (655360)
I0703 14:22:29.021873 28460 net.cpp:159] Memory required for data: 1402470400
I0703 14:22:29.021881 28460 layer_factory.hpp:77] Creating layer Threshold_35
I0703 14:22:29.021886 28460 net.cpp:94] Creating Layer Threshold_35
I0703 14:22:29.021890 28460 net.cpp:435] Threshold_35 <- BatchNorm_27
I0703 14:22:29.021895 28460 net.cpp:396] Threshold_35 -> BatchNorm_27 (in-place)
I0703 14:22:29.021901 28460 net.cpp:144] Setting up Threshold_35
I0703 14:22:29.021906 28460 net.cpp:151] Top shape: 5 32 64 64 (655360)
I0703 14:22:29.021908 28460 net.cpp:159] Memory required for data: 1405091840
I0703 14:22:29.021912 28460 layer_factory.hpp:77] Creating layer ConvNd_30
I0703 14:22:29.021919 28460 net.cpp:94] Creating Layer ConvNd_30
I0703 14:22:29.021922 28460 net.cpp:435] ConvNd_30 <- BatchNorm_27
I0703 14:22:29.021927 28460 net.cpp:409] ConvNd_30 -> ConvNd_30
I0703 14:22:29.022132 28460 net.cpp:144] Setting up ConvNd_30
I0703 14:22:29.022140 28460 net.cpp:151] Top shape: 5 32 64 64 (655360)
I0703 14:22:29.022143 28460 net.cpp:159] Memory required for data: 1407713280
I0703 14:22:29.022147 28460 layer_factory.hpp:77] Creating layer BatchNorm_28
I0703 14:22:29.022155 28460 net.cpp:94] Creating Layer BatchNorm_28
I0703 14:22:29.022158 28460 net.cpp:435] BatchNorm_28 <- ConvNd_30
I0703 14:22:29.022163 28460 net.cpp:409] BatchNorm_28 -> BatchNorm_28
I0703 14:22:29.022632 28460 net.cpp:144] Setting up BatchNorm_28
I0703 14:22:29.022640 28460 net.cpp:151] Top shape: 5 32 64 64 (655360)
I0703 14:22:29.022644 28460 net.cpp:159] Memory required for data: 1410334720
I0703 14:22:29.022651 28460 layer_factory.hpp:77] Creating layer Threshold_36
I0703 14:22:29.022656 28460 net.cpp:94] Creating Layer Threshold_36
I0703 14:22:29.022660 28460 net.cpp:435] Threshold_36 <- BatchNorm_28
I0703 14:22:29.022665 28460 net.cpp:396] Threshold_36 -> BatchNorm_28 (in-place)
I0703 14:22:29.022671 28460 net.cpp:144] Setting up Threshold_36
I0703 14:22:29.022675 28460 net.cpp:151] Top shape: 5 32 64 64 (655360)
I0703 14:22:29.022678 28460 net.cpp:159] Memory required for data: 1412956160
I0703 14:22:29.022681 28460 layer_factory.hpp:77] Creating layer ConvNd_31
I0703 14:22:29.022688 28460 net.cpp:94] Creating Layer ConvNd_31
I0703 14:22:29.022691 28460 net.cpp:435] ConvNd_31 <- BatchNorm_28
I0703 14:22:29.022697 28460 net.cpp:409] ConvNd_31 -> ConvNd_31
I0703 14:22:29.022891 28460 net.cpp:144] Setting up ConvNd_31
I0703 14:22:29.022899 28460 net.cpp:151] Top shape: 5 128 64 64 (2621440)
I0703 14:22:29.022902 28460 net.cpp:159] Memory required for data: 1423441920
I0703 14:22:29.022907 28460 layer_factory.hpp:77] Creating layer BatchNorm_29
I0703 14:22:29.022913 28460 net.cpp:94] Creating Layer BatchNorm_29
I0703 14:22:29.022917 28460 net.cpp:435] BatchNorm_29 <- ConvNd_31
I0703 14:22:29.022922 28460 net.cpp:409] BatchNorm_29 -> BatchNorm_29
I0703 14:22:29.023350 28460 net.cpp:144] Setting up BatchNorm_29
I0703 14:22:29.023356 28460 net.cpp:151] Top shape: 5 128 64 64 (2621440)
I0703 14:22:29.023360 28460 net.cpp:159] Memory required for data: 1433927680
I0703 14:22:29.023367 28460 layer_factory.hpp:77] Creating layer Threshold_37
I0703 14:22:29.023381 28460 net.cpp:94] Creating Layer Threshold_37
I0703 14:22:29.023386 28460 net.cpp:435] Threshold_37 <- BatchNorm_29
I0703 14:22:29.023391 28460 net.cpp:396] Threshold_37 -> BatchNorm_29 (in-place)
I0703 14:22:29.023396 28460 net.cpp:144] Setting up Threshold_37
I0703 14:22:29.023401 28460 net.cpp:151] Top shape: 5 128 64 64 (2621440)
I0703 14:22:29.023404 28460 net.cpp:159] Memory required for data: 1444413440
I0703 14:22:29.023407 28460 layer_factory.hpp:77] Creating layer Add_9
I0703 14:22:29.023412 28460 net.cpp:94] Creating Layer Add_9
I0703 14:22:29.023416 28460 net.cpp:435] Add_9 <- Add_8_Threshold_33_0_split_1
I0703 14:22:29.023420 28460 net.cpp:435] Add_9 <- BatchNorm_29
I0703 14:22:29.023424 28460 net.cpp:409] Add_9 -> Add_9
I0703 14:22:29.023445 28460 net.cpp:144] Setting up Add_9
I0703 14:22:29.023450 28460 net.cpp:151] Top shape: 5 128 64 64 (2621440)
I0703 14:22:29.023453 28460 net.cpp:159] Memory required for data: 1454899200
I0703 14:22:29.023456 28460 layer_factory.hpp:77] Creating layer Threshold_38
I0703 14:22:29.023461 28460 net.cpp:94] Creating Layer Threshold_38
I0703 14:22:29.023465 28460 net.cpp:435] Threshold_38 <- Add_9
I0703 14:22:29.023469 28460 net.cpp:396] Threshold_38 -> Add_9 (in-place)
I0703 14:22:29.023474 28460 net.cpp:144] Setting up Threshold_38
I0703 14:22:29.023478 28460 net.cpp:151] Top shape: 5 128 64 64 (2621440)
I0703 14:22:29.023481 28460 net.cpp:159] Memory required for data: 1465384960
I0703 14:22:29.023484 28460 layer_factory.hpp:77] Creating layer Add_9_Threshold_38_0_split
I0703 14:22:29.023490 28460 net.cpp:94] Creating Layer Add_9_Threshold_38_0_split
I0703 14:22:29.023494 28460 net.cpp:435] Add_9_Threshold_38_0_split <- Add_9
I0703 14:22:29.023499 28460 net.cpp:409] Add_9_Threshold_38_0_split -> Add_9_Threshold_38_0_split_0
I0703 14:22:29.023504 28460 net.cpp:409] Add_9_Threshold_38_0_split -> Add_9_Threshold_38_0_split_1
I0703 14:22:29.023532 28460 net.cpp:144] Setting up Add_9_Threshold_38_0_split
I0703 14:22:29.023538 28460 net.cpp:151] Top shape: 5 128 64 64 (2621440)
I0703 14:22:29.023543 28460 net.cpp:151] Top shape: 5 128 64 64 (2621440)
I0703 14:22:29.023545 28460 net.cpp:159] Memory required for data: 1486356480
I0703 14:22:29.023550 28460 layer_factory.hpp:77] Creating layer ConvNd_32
I0703 14:22:29.023556 28460 net.cpp:94] Creating Layer ConvNd_32
I0703 14:22:29.023561 28460 net.cpp:435] ConvNd_32 <- Add_9_Threshold_38_0_split_0
I0703 14:22:29.023566 28460 net.cpp:409] ConvNd_32 -> ConvNd_32
I0703 14:22:29.023767 28460 net.cpp:144] Setting up ConvNd_32
I0703 14:22:29.023774 28460 net.cpp:151] Top shape: 5 32 64 64 (655360)
I0703 14:22:29.023778 28460 net.cpp:159] Memory required for data: 1488977920
I0703 14:22:29.023783 28460 layer_factory.hpp:77] Creating layer BatchNorm_30
I0703 14:22:29.023789 28460 net.cpp:94] Creating Layer BatchNorm_30
I0703 14:22:29.023793 28460 net.cpp:435] BatchNorm_30 <- ConvNd_32
I0703 14:22:29.023799 28460 net.cpp:409] BatchNorm_30 -> BatchNorm_30
I0703 14:22:29.024272 28460 net.cpp:144] Setting up BatchNorm_30
I0703 14:22:29.024281 28460 net.cpp:151] Top shape: 5 32 64 64 (655360)
I0703 14:22:29.024283 28460 net.cpp:159] Memory required for data: 1491599360
I0703 14:22:29.024292 28460 layer_factory.hpp:77] Creating layer Threshold_39
I0703 14:22:29.024297 28460 net.cpp:94] Creating Layer Threshold_39
I0703 14:22:29.024302 28460 net.cpp:435] Threshold_39 <- BatchNorm_30
I0703 14:22:29.024305 28460 net.cpp:396] Threshold_39 -> BatchNorm_30 (in-place)
I0703 14:22:29.024312 28460 net.cpp:144] Setting up Threshold_39
I0703 14:22:29.024317 28460 net.cpp:151] Top shape: 5 32 64 64 (655360)
I0703 14:22:29.024319 28460 net.cpp:159] Memory required for data: 1494220800
I0703 14:22:29.024322 28460 layer_factory.hpp:77] Creating layer ConvNd_33
I0703 14:22:29.024329 28460 net.cpp:94] Creating Layer ConvNd_33
I0703 14:22:29.024333 28460 net.cpp:435] ConvNd_33 <- BatchNorm_30
I0703 14:22:29.024338 28460 net.cpp:409] ConvNd_33 -> ConvNd_33
I0703 14:22:29.024572 28460 net.cpp:144] Setting up ConvNd_33
I0703 14:22:29.024588 28460 net.cpp:151] Top shape: 5 32 64 64 (655360)
I0703 14:22:29.024591 28460 net.cpp:159] Memory required for data: 1496842240
I0703 14:22:29.024596 28460 layer_factory.hpp:77] Creating layer BatchNorm_31
I0703 14:22:29.024605 28460 net.cpp:94] Creating Layer BatchNorm_31
I0703 14:22:29.024610 28460 net.cpp:435] BatchNorm_31 <- ConvNd_33
I0703 14:22:29.024616 28460 net.cpp:409] BatchNorm_31 -> BatchNorm_31
I0703 14:22:29.025089 28460 net.cpp:144] Setting up BatchNorm_31
I0703 14:22:29.025097 28460 net.cpp:151] Top shape: 5 32 64 64 (655360)
I0703 14:22:29.025100 28460 net.cpp:159] Memory required for data: 1499463680
I0703 14:22:29.025110 28460 layer_factory.hpp:77] Creating layer Threshold_40
I0703 14:22:29.025115 28460 net.cpp:94] Creating Layer Threshold_40
I0703 14:22:29.025118 28460 net.cpp:435] Threshold_40 <- BatchNorm_31
I0703 14:22:29.025123 28460 net.cpp:396] Threshold_40 -> BatchNorm_31 (in-place)
I0703 14:22:29.025128 28460 net.cpp:144] Setting up Threshold_40
I0703 14:22:29.025133 28460 net.cpp:151] Top shape: 5 32 64 64 (655360)
I0703 14:22:29.025135 28460 net.cpp:159] Memory required for data: 1502085120
I0703 14:22:29.025140 28460 layer_factory.hpp:77] Creating layer ConvNd_34
I0703 14:22:29.025146 28460 net.cpp:94] Creating Layer ConvNd_34
I0703 14:22:29.025149 28460 net.cpp:435] ConvNd_34 <- BatchNorm_31
I0703 14:22:29.025154 28460 net.cpp:409] ConvNd_34 -> ConvNd_34
I0703 14:22:29.025352 28460 net.cpp:144] Setting up ConvNd_34
I0703 14:22:29.025358 28460 net.cpp:151] Top shape: 5 128 64 64 (2621440)
I0703 14:22:29.025362 28460 net.cpp:159] Memory required for data: 1512570880
I0703 14:22:29.025367 28460 layer_factory.hpp:77] Creating layer BatchNorm_32
I0703 14:22:29.025373 28460 net.cpp:94] Creating Layer BatchNorm_32
I0703 14:22:29.025377 28460 net.cpp:435] BatchNorm_32 <- ConvNd_34
I0703 14:22:29.025382 28460 net.cpp:409] BatchNorm_32 -> BatchNorm_32
I0703 14:22:29.025827 28460 net.cpp:144] Setting up BatchNorm_32
I0703 14:22:29.025836 28460 net.cpp:151] Top shape: 5 128 64 64 (2621440)
I0703 14:22:29.025840 28460 net.cpp:159] Memory required for data: 1523056640
I0703 14:22:29.025848 28460 layer_factory.hpp:77] Creating layer Threshold_41
I0703 14:22:29.025853 28460 net.cpp:94] Creating Layer Threshold_41
I0703 14:22:29.025857 28460 net.cpp:435] Threshold_41 <- BatchNorm_32
I0703 14:22:29.025862 28460 net.cpp:396] Threshold_41 -> BatchNorm_32 (in-place)
I0703 14:22:29.025868 28460 net.cpp:144] Setting up Threshold_41
I0703 14:22:29.025873 28460 net.cpp:151] Top shape: 5 128 64 64 (2621440)
I0703 14:22:29.025876 28460 net.cpp:159] Memory required for data: 1533542400
I0703 14:22:29.025879 28460 layer_factory.hpp:77] Creating layer Add_10
I0703 14:22:29.025884 28460 net.cpp:94] Creating Layer Add_10
I0703 14:22:29.025887 28460 net.cpp:435] Add_10 <- Add_9_Threshold_38_0_split_1
I0703 14:22:29.025892 28460 net.cpp:435] Add_10 <- BatchNorm_32
I0703 14:22:29.025897 28460 net.cpp:409] Add_10 -> Add_10
I0703 14:22:29.025918 28460 net.cpp:144] Setting up Add_10
I0703 14:22:29.025923 28460 net.cpp:151] Top shape: 5 128 64 64 (2621440)
I0703 14:22:29.025926 28460 net.cpp:159] Memory required for data: 1544028160
I0703 14:22:29.025929 28460 layer_factory.hpp:77] Creating layer Threshold_42
I0703 14:22:29.025934 28460 net.cpp:94] Creating Layer Threshold_42
I0703 14:22:29.025938 28460 net.cpp:435] Threshold_42 <- Add_10
I0703 14:22:29.025943 28460 net.cpp:396] Threshold_42 -> Add_10 (in-place)
I0703 14:22:29.025948 28460 net.cpp:144] Setting up Threshold_42
I0703 14:22:29.025951 28460 net.cpp:151] Top shape: 5 128 64 64 (2621440)
I0703 14:22:29.025954 28460 net.cpp:159] Memory required for data: 1554513920
I0703 14:22:29.025957 28460 layer_factory.hpp:77] Creating layer Add_10_Threshold_42_0_split
I0703 14:22:29.025964 28460 net.cpp:94] Creating Layer Add_10_Threshold_42_0_split
I0703 14:22:29.025966 28460 net.cpp:435] Add_10_Threshold_42_0_split <- Add_10
I0703 14:22:29.025971 28460 net.cpp:409] Add_10_Threshold_42_0_split -> Add_10_Threshold_42_0_split_0
I0703 14:22:29.025986 28460 net.cpp:409] Add_10_Threshold_42_0_split -> Add_10_Threshold_42_0_split_1
I0703 14:22:29.026016 28460 net.cpp:144] Setting up Add_10_Threshold_42_0_split
I0703 14:22:29.026023 28460 net.cpp:151] Top shape: 5 128 64 64 (2621440)
I0703 14:22:29.026026 28460 net.cpp:151] Top shape: 5 128 64 64 (2621440)
I0703 14:22:29.026031 28460 net.cpp:159] Memory required for data: 1575485440
I0703 14:22:29.026033 28460 layer_factory.hpp:77] Creating layer ConvNd_35
I0703 14:22:29.026041 28460 net.cpp:94] Creating Layer ConvNd_35
I0703 14:22:29.026044 28460 net.cpp:435] ConvNd_35 <- Add_10_Threshold_42_0_split_0
I0703 14:22:29.026051 28460 net.cpp:409] ConvNd_35 -> ConvNd_35
I0703 14:22:29.026264 28460 net.cpp:144] Setting up ConvNd_35
I0703 14:22:29.026273 28460 net.cpp:151] Top shape: 5 32 64 64 (655360)
I0703 14:22:29.026276 28460 net.cpp:159] Memory required for data: 1578106880
I0703 14:22:29.026281 28460 layer_factory.hpp:77] Creating layer BatchNorm_33
I0703 14:22:29.026288 28460 net.cpp:94] Creating Layer BatchNorm_33
I0703 14:22:29.026293 28460 net.cpp:435] BatchNorm_33 <- ConvNd_35
I0703 14:22:29.026298 28460 net.cpp:409] BatchNorm_33 -> BatchNorm_33
I0703 14:22:29.026767 28460 net.cpp:144] Setting up BatchNorm_33
I0703 14:22:29.026773 28460 net.cpp:151] Top shape: 5 32 64 64 (655360)
I0703 14:22:29.026777 28460 net.cpp:159] Memory required for data: 1580728320
I0703 14:22:29.026785 28460 layer_factory.hpp:77] Creating layer Threshold_43
I0703 14:22:29.026791 28460 net.cpp:94] Creating Layer Threshold_43
I0703 14:22:29.026794 28460 net.cpp:435] Threshold_43 <- BatchNorm_33
I0703 14:22:29.026799 28460 net.cpp:396] Threshold_43 -> BatchNorm_33 (in-place)
I0703 14:22:29.026805 28460 net.cpp:144] Setting up Threshold_43
I0703 14:22:29.026810 28460 net.cpp:151] Top shape: 5 32 64 64 (655360)
I0703 14:22:29.026813 28460 net.cpp:159] Memory required for data: 1583349760
I0703 14:22:29.026816 28460 layer_factory.hpp:77] Creating layer ConvNd_36
I0703 14:22:29.026823 28460 net.cpp:94] Creating Layer ConvNd_36
I0703 14:22:29.026827 28460 net.cpp:435] ConvNd_36 <- BatchNorm_33
I0703 14:22:29.026832 28460 net.cpp:409] ConvNd_36 -> ConvNd_36
I0703 14:22:29.027072 28460 net.cpp:144] Setting up ConvNd_36
I0703 14:22:29.027079 28460 net.cpp:151] Top shape: 5 32 64 64 (655360)
I0703 14:22:29.027082 28460 net.cpp:159] Memory required for data: 1585971200
I0703 14:22:29.027087 28460 layer_factory.hpp:77] Creating layer BatchNorm_34
I0703 14:22:29.027094 28460 net.cpp:94] Creating Layer BatchNorm_34
I0703 14:22:29.027097 28460 net.cpp:435] BatchNorm_34 <- ConvNd_36
I0703 14:22:29.027103 28460 net.cpp:409] BatchNorm_34 -> BatchNorm_34
I0703 14:22:29.027573 28460 net.cpp:144] Setting up BatchNorm_34
I0703 14:22:29.027581 28460 net.cpp:151] Top shape: 5 32 64 64 (655360)
I0703 14:22:29.027585 28460 net.cpp:159] Memory required for data: 1588592640
I0703 14:22:29.027593 28460 layer_factory.hpp:77] Creating layer Threshold_44
I0703 14:22:29.027598 28460 net.cpp:94] Creating Layer Threshold_44
I0703 14:22:29.027602 28460 net.cpp:435] Threshold_44 <- BatchNorm_34
I0703 14:22:29.027607 28460 net.cpp:396] Threshold_44 -> BatchNorm_34 (in-place)
I0703 14:22:29.027613 28460 net.cpp:144] Setting up Threshold_44
I0703 14:22:29.027618 28460 net.cpp:151] Top shape: 5 32 64 64 (655360)
I0703 14:22:29.027621 28460 net.cpp:159] Memory required for data: 1591214080
I0703 14:22:29.027624 28460 layer_factory.hpp:77] Creating layer ConvNd_37
I0703 14:22:29.027631 28460 net.cpp:94] Creating Layer ConvNd_37
I0703 14:22:29.027635 28460 net.cpp:435] ConvNd_37 <- BatchNorm_34
I0703 14:22:29.027639 28460 net.cpp:409] ConvNd_37 -> ConvNd_37
I0703 14:22:29.027842 28460 net.cpp:144] Setting up ConvNd_37
I0703 14:22:29.027849 28460 net.cpp:151] Top shape: 5 128 64 64 (2621440)
I0703 14:22:29.027853 28460 net.cpp:159] Memory required for data: 1601699840
I0703 14:22:29.027858 28460 layer_factory.hpp:77] Creating layer BatchNorm_35
I0703 14:22:29.027864 28460 net.cpp:94] Creating Layer BatchNorm_35
I0703 14:22:29.027868 28460 net.cpp:435] BatchNorm_35 <- ConvNd_37
I0703 14:22:29.027884 28460 net.cpp:409] BatchNorm_35 -> BatchNorm_35
I0703 14:22:29.028316 28460 net.cpp:144] Setting up BatchNorm_35
I0703 14:22:29.028323 28460 net.cpp:151] Top shape: 5 128 64 64 (2621440)
I0703 14:22:29.028327 28460 net.cpp:159] Memory required for data: 1612185600
I0703 14:22:29.028336 28460 layer_factory.hpp:77] Creating layer Threshold_45
I0703 14:22:29.028340 28460 net.cpp:94] Creating Layer Threshold_45
I0703 14:22:29.028344 28460 net.cpp:435] Threshold_45 <- BatchNorm_35
I0703 14:22:29.028349 28460 net.cpp:396] Threshold_45 -> BatchNorm_35 (in-place)
I0703 14:22:29.028355 28460 net.cpp:144] Setting up Threshold_45
I0703 14:22:29.028360 28460 net.cpp:151] Top shape: 5 128 64 64 (2621440)
I0703 14:22:29.028363 28460 net.cpp:159] Memory required for data: 1622671360
I0703 14:22:29.028367 28460 layer_factory.hpp:77] Creating layer Add_11
I0703 14:22:29.028373 28460 net.cpp:94] Creating Layer Add_11
I0703 14:22:29.028375 28460 net.cpp:435] Add_11 <- Add_10_Threshold_42_0_split_1
I0703 14:22:29.028379 28460 net.cpp:435] Add_11 <- BatchNorm_35
I0703 14:22:29.028385 28460 net.cpp:409] Add_11 -> Add_11
I0703 14:22:29.028404 28460 net.cpp:144] Setting up Add_11
I0703 14:22:29.028414 28460 net.cpp:151] Top shape: 5 128 64 64 (2621440)
I0703 14:22:29.028416 28460 net.cpp:159] Memory required for data: 1633157120
I0703 14:22:29.028420 28460 layer_factory.hpp:77] Creating layer Threshold_46
I0703 14:22:29.028425 28460 net.cpp:94] Creating Layer Threshold_46
I0703 14:22:29.028429 28460 net.cpp:435] Threshold_46 <- Add_11
I0703 14:22:29.028434 28460 net.cpp:396] Threshold_46 -> Add_11 (in-place)
I0703 14:22:29.028439 28460 net.cpp:144] Setting up Threshold_46
I0703 14:22:29.028442 28460 net.cpp:151] Top shape: 5 128 64 64 (2621440)
I0703 14:22:29.028445 28460 net.cpp:159] Memory required for data: 1643642880
I0703 14:22:29.028448 28460 layer_factory.hpp:77] Creating layer Add_11_Threshold_46_0_split
I0703 14:22:29.028455 28460 net.cpp:94] Creating Layer Add_11_Threshold_46_0_split
I0703 14:22:29.028457 28460 net.cpp:435] Add_11_Threshold_46_0_split <- Add_11
I0703 14:22:29.028462 28460 net.cpp:409] Add_11_Threshold_46_0_split -> Add_11_Threshold_46_0_split_0
I0703 14:22:29.028468 28460 net.cpp:409] Add_11_Threshold_46_0_split -> Add_11_Threshold_46_0_split_1
I0703 14:22:29.028498 28460 net.cpp:144] Setting up Add_11_Threshold_46_0_split
I0703 14:22:29.028504 28460 net.cpp:151] Top shape: 5 128 64 64 (2621440)
I0703 14:22:29.028507 28460 net.cpp:151] Top shape: 5 128 64 64 (2621440)
I0703 14:22:29.028511 28460 net.cpp:159] Memory required for data: 1664614400
I0703 14:22:29.028514 28460 layer_factory.hpp:77] Creating layer ConvNd_38
I0703 14:22:29.028522 28460 net.cpp:94] Creating Layer ConvNd_38
I0703 14:22:29.028525 28460 net.cpp:435] ConvNd_38 <- Add_11_Threshold_46_0_split_0
I0703 14:22:29.028532 28460 net.cpp:409] ConvNd_38 -> ConvNd_38
I0703 14:22:29.028748 28460 net.cpp:144] Setting up ConvNd_38
I0703 14:22:29.028756 28460 net.cpp:151] Top shape: 5 32 64 64 (655360)
I0703 14:22:29.028759 28460 net.cpp:159] Memory required for data: 1667235840
I0703 14:22:29.028764 28460 layer_factory.hpp:77] Creating layer BatchNorm_36
I0703 14:22:29.028771 28460 net.cpp:94] Creating Layer BatchNorm_36
I0703 14:22:29.028775 28460 net.cpp:435] BatchNorm_36 <- ConvNd_38
I0703 14:22:29.028780 28460 net.cpp:409] BatchNorm_36 -> BatchNorm_36
I0703 14:22:29.029250 28460 net.cpp:144] Setting up BatchNorm_36
I0703 14:22:29.029258 28460 net.cpp:151] Top shape: 5 32 64 64 (655360)
I0703 14:22:29.029261 28460 net.cpp:159] Memory required for data: 1669857280
I0703 14:22:29.029269 28460 layer_factory.hpp:77] Creating layer Threshold_47
I0703 14:22:29.029274 28460 net.cpp:94] Creating Layer Threshold_47
I0703 14:22:29.029278 28460 net.cpp:435] Threshold_47 <- BatchNorm_36
I0703 14:22:29.029283 28460 net.cpp:396] Threshold_47 -> BatchNorm_36 (in-place)
I0703 14:22:29.029289 28460 net.cpp:144] Setting up Threshold_47
I0703 14:22:29.029292 28460 net.cpp:151] Top shape: 5 32 64 64 (655360)
I0703 14:22:29.029296 28460 net.cpp:159] Memory required for data: 1672478720
I0703 14:22:29.029307 28460 layer_factory.hpp:77] Creating layer ConvNd_39
I0703 14:22:29.029315 28460 net.cpp:94] Creating Layer ConvNd_39
I0703 14:22:29.029319 28460 net.cpp:435] ConvNd_39 <- BatchNorm_36
I0703 14:22:29.029325 28460 net.cpp:409] ConvNd_39 -> ConvNd_39
I0703 14:22:29.029565 28460 net.cpp:144] Setting up ConvNd_39
I0703 14:22:29.029572 28460 net.cpp:151] Top shape: 5 32 64 64 (655360)
I0703 14:22:29.029575 28460 net.cpp:159] Memory required for data: 1675100160
I0703 14:22:29.029582 28460 layer_factory.hpp:77] Creating layer BatchNorm_37
I0703 14:22:29.029587 28460 net.cpp:94] Creating Layer BatchNorm_37
I0703 14:22:29.029590 28460 net.cpp:435] BatchNorm_37 <- ConvNd_39
I0703 14:22:29.029595 28460 net.cpp:409] BatchNorm_37 -> BatchNorm_37
I0703 14:22:29.030066 28460 net.cpp:144] Setting up BatchNorm_37
I0703 14:22:29.030072 28460 net.cpp:151] Top shape: 5 32 64 64 (655360)
I0703 14:22:29.030076 28460 net.cpp:159] Memory required for data: 1677721600
I0703 14:22:29.030083 28460 layer_factory.hpp:77] Creating layer Threshold_48
I0703 14:22:29.030088 28460 net.cpp:94] Creating Layer Threshold_48
I0703 14:22:29.030092 28460 net.cpp:435] Threshold_48 <- BatchNorm_37
I0703 14:22:29.030097 28460 net.cpp:396] Threshold_48 -> BatchNorm_37 (in-place)
I0703 14:22:29.030102 28460 net.cpp:144] Setting up Threshold_48
I0703 14:22:29.030107 28460 net.cpp:151] Top shape: 5 32 64 64 (655360)
I0703 14:22:29.030109 28460 net.cpp:159] Memory required for data: 1680343040
I0703 14:22:29.030112 28460 layer_factory.hpp:77] Creating layer ConvNd_40
I0703 14:22:29.030119 28460 net.cpp:94] Creating Layer ConvNd_40
I0703 14:22:29.030123 28460 net.cpp:435] ConvNd_40 <- BatchNorm_37
I0703 14:22:29.030128 28460 net.cpp:409] ConvNd_40 -> ConvNd_40
I0703 14:22:29.030321 28460 net.cpp:144] Setting up ConvNd_40
I0703 14:22:29.030329 28460 net.cpp:151] Top shape: 5 128 64 64 (2621440)
I0703 14:22:29.030333 28460 net.cpp:159] Memory required for data: 1690828800
I0703 14:22:29.030337 28460 layer_factory.hpp:77] Creating layer BatchNorm_38
I0703 14:22:29.030344 28460 net.cpp:94] Creating Layer BatchNorm_38
I0703 14:22:29.030347 28460 net.cpp:435] BatchNorm_38 <- ConvNd_40
I0703 14:22:29.030354 28460 net.cpp:409] BatchNorm_38 -> BatchNorm_38
I0703 14:22:29.030781 28460 net.cpp:144] Setting up BatchNorm_38
I0703 14:22:29.030788 28460 net.cpp:151] Top shape: 5 128 64 64 (2621440)
I0703 14:22:29.030791 28460 net.cpp:159] Memory required for data: 1701314560
I0703 14:22:29.030800 28460 layer_factory.hpp:77] Creating layer Threshold_49
I0703 14:22:29.030805 28460 net.cpp:94] Creating Layer Threshold_49
I0703 14:22:29.030808 28460 net.cpp:435] Threshold_49 <- BatchNorm_38
I0703 14:22:29.030813 28460 net.cpp:396] Threshold_49 -> BatchNorm_38 (in-place)
I0703 14:22:29.030819 28460 net.cpp:144] Setting up Threshold_49
I0703 14:22:29.030823 28460 net.cpp:151] Top shape: 5 128 64 64 (2621440)
I0703 14:22:29.030827 28460 net.cpp:159] Memory required for data: 1711800320
I0703 14:22:29.030829 28460 layer_factory.hpp:77] Creating layer Add_12
I0703 14:22:29.030834 28460 net.cpp:94] Creating Layer Add_12
I0703 14:22:29.030838 28460 net.cpp:435] Add_12 <- Add_11_Threshold_46_0_split_1
I0703 14:22:29.030841 28460 net.cpp:435] Add_12 <- BatchNorm_38
I0703 14:22:29.030846 28460 net.cpp:409] Add_12 -> Add_12
I0703 14:22:29.030867 28460 net.cpp:144] Setting up Add_12
I0703 14:22:29.030874 28460 net.cpp:151] Top shape: 5 128 64 64 (2621440)
I0703 14:22:29.030876 28460 net.cpp:159] Memory required for data: 1722286080
I0703 14:22:29.030879 28460 layer_factory.hpp:77] Creating layer Threshold_50
I0703 14:22:29.030884 28460 net.cpp:94] Creating Layer Threshold_50
I0703 14:22:29.030887 28460 net.cpp:435] Threshold_50 <- Add_12
I0703 14:22:29.030892 28460 net.cpp:396] Threshold_50 -> Add_12 (in-place)
I0703 14:22:29.030897 28460 net.cpp:144] Setting up Threshold_50
I0703 14:22:29.030902 28460 net.cpp:151] Top shape: 5 128 64 64 (2621440)
I0703 14:22:29.030905 28460 net.cpp:159] Memory required for data: 1732771840
I0703 14:22:29.030916 28460 layer_factory.hpp:77] Creating layer Add_12_Threshold_50_0_split
I0703 14:22:29.030921 28460 net.cpp:94] Creating Layer Add_12_Threshold_50_0_split
I0703 14:22:29.030925 28460 net.cpp:435] Add_12_Threshold_50_0_split <- Add_12
I0703 14:22:29.030930 28460 net.cpp:409] Add_12_Threshold_50_0_split -> Add_12_Threshold_50_0_split_0
I0703 14:22:29.030937 28460 net.cpp:409] Add_12_Threshold_50_0_split -> Add_12_Threshold_50_0_split_1
I0703 14:22:29.030967 28460 net.cpp:144] Setting up Add_12_Threshold_50_0_split
I0703 14:22:29.030974 28460 net.cpp:151] Top shape: 5 128 64 64 (2621440)
I0703 14:22:29.030978 28460 net.cpp:151] Top shape: 5 128 64 64 (2621440)
I0703 14:22:29.030980 28460 net.cpp:159] Memory required for data: 1753743360
I0703 14:22:29.030983 28460 layer_factory.hpp:77] Creating layer ConvNd_41
I0703 14:22:29.030992 28460 net.cpp:94] Creating Layer ConvNd_41
I0703 14:22:29.030995 28460 net.cpp:435] ConvNd_41 <- Add_12_Threshold_50_0_split_0
I0703 14:22:29.031002 28460 net.cpp:409] ConvNd_41 -> ConvNd_41
I0703 14:22:29.031199 28460 net.cpp:144] Setting up ConvNd_41
I0703 14:22:29.031208 28460 net.cpp:151] Top shape: 5 32 64 64 (655360)
I0703 14:22:29.031210 28460 net.cpp:159] Memory required for data: 1756364800
I0703 14:22:29.031214 28460 layer_factory.hpp:77] Creating layer BatchNorm_39
I0703 14:22:29.031221 28460 net.cpp:94] Creating Layer BatchNorm_39
I0703 14:22:29.031231 28460 net.cpp:435] BatchNorm_39 <- ConvNd_41
I0703 14:22:29.031236 28460 net.cpp:409] BatchNorm_39 -> BatchNorm_39
I0703 14:22:29.031738 28460 net.cpp:144] Setting up BatchNorm_39
I0703 14:22:29.031745 28460 net.cpp:151] Top shape: 5 32 64 64 (655360)
I0703 14:22:29.031749 28460 net.cpp:159] Memory required for data: 1758986240
I0703 14:22:29.031764 28460 layer_factory.hpp:77] Creating layer Threshold_51
I0703 14:22:29.031770 28460 net.cpp:94] Creating Layer Threshold_51
I0703 14:22:29.031774 28460 net.cpp:435] Threshold_51 <- BatchNorm_39
I0703 14:22:29.031780 28460 net.cpp:396] Threshold_51 -> BatchNorm_39 (in-place)
I0703 14:22:29.031786 28460 net.cpp:144] Setting up Threshold_51
I0703 14:22:29.031790 28460 net.cpp:151] Top shape: 5 32 64 64 (655360)
I0703 14:22:29.031793 28460 net.cpp:159] Memory required for data: 1761607680
I0703 14:22:29.031797 28460 layer_factory.hpp:77] Creating layer ConvNd_42
I0703 14:22:29.031805 28460 net.cpp:94] Creating Layer ConvNd_42
I0703 14:22:29.031807 28460 net.cpp:435] ConvNd_42 <- BatchNorm_39
I0703 14:22:29.031812 28460 net.cpp:409] ConvNd_42 -> ConvNd_42
I0703 14:22:29.032027 28460 net.cpp:144] Setting up ConvNd_42
I0703 14:22:29.032035 28460 net.cpp:151] Top shape: 5 32 64 64 (655360)
I0703 14:22:29.032039 28460 net.cpp:159] Memory required for data: 1764229120
I0703 14:22:29.032043 28460 layer_factory.hpp:77] Creating layer BatchNorm_40
I0703 14:22:29.032052 28460 net.cpp:94] Creating Layer BatchNorm_40
I0703 14:22:29.032054 28460 net.cpp:435] BatchNorm_40 <- ConvNd_42
I0703 14:22:29.032060 28460 net.cpp:409] BatchNorm_40 -> BatchNorm_40
I0703 14:22:29.032536 28460 net.cpp:144] Setting up BatchNorm_40
I0703 14:22:29.032544 28460 net.cpp:151] Top shape: 5 32 64 64 (655360)
I0703 14:22:29.032547 28460 net.cpp:159] Memory required for data: 1766850560
I0703 14:22:29.032555 28460 layer_factory.hpp:77] Creating layer Threshold_52
I0703 14:22:29.032560 28460 net.cpp:94] Creating Layer Threshold_52
I0703 14:22:29.032564 28460 net.cpp:435] Threshold_52 <- BatchNorm_40
I0703 14:22:29.032569 28460 net.cpp:396] Threshold_52 -> BatchNorm_40 (in-place)
I0703 14:22:29.032575 28460 net.cpp:144] Setting up Threshold_52
I0703 14:22:29.032578 28460 net.cpp:151] Top shape: 5 32 64 64 (655360)
I0703 14:22:29.032582 28460 net.cpp:159] Memory required for data: 1769472000
I0703 14:22:29.032585 28460 layer_factory.hpp:77] Creating layer ConvNd_43
I0703 14:22:29.032593 28460 net.cpp:94] Creating Layer ConvNd_43
I0703 14:22:29.032595 28460 net.cpp:435] ConvNd_43 <- BatchNorm_40
I0703 14:22:29.032601 28460 net.cpp:409] ConvNd_43 -> ConvNd_43
I0703 14:22:29.032804 28460 net.cpp:144] Setting up ConvNd_43
I0703 14:22:29.032822 28460 net.cpp:151] Top shape: 5 32 64 64 (655360)
I0703 14:22:29.032826 28460 net.cpp:159] Memory required for data: 1772093440
I0703 14:22:29.032831 28460 layer_factory.hpp:77] Creating layer BatchNorm_41
I0703 14:22:29.032838 28460 net.cpp:94] Creating Layer BatchNorm_41
I0703 14:22:29.032841 28460 net.cpp:435] BatchNorm_41 <- ConvNd_43
I0703 14:22:29.032847 28460 net.cpp:409] BatchNorm_41 -> BatchNorm_41
I0703 14:22:29.033325 28460 net.cpp:144] Setting up BatchNorm_41
I0703 14:22:29.033334 28460 net.cpp:151] Top shape: 5 32 64 64 (655360)
I0703 14:22:29.033336 28460 net.cpp:159] Memory required for data: 1774714880
I0703 14:22:29.033344 28460 layer_factory.hpp:77] Creating layer Threshold_53
I0703 14:22:29.033350 28460 net.cpp:94] Creating Layer Threshold_53
I0703 14:22:29.033354 28460 net.cpp:435] Threshold_53 <- BatchNorm_41
I0703 14:22:29.033360 28460 net.cpp:396] Threshold_53 -> BatchNorm_41 (in-place)
I0703 14:22:29.033365 28460 net.cpp:144] Setting up Threshold_53
I0703 14:22:29.033370 28460 net.cpp:151] Top shape: 5 32 64 64 (655360)
I0703 14:22:29.033372 28460 net.cpp:159] Memory required for data: 1777336320
I0703 14:22:29.033375 28460 layer_factory.hpp:77] Creating layer ConvNd_44
I0703 14:22:29.033382 28460 net.cpp:94] Creating Layer ConvNd_44
I0703 14:22:29.033386 28460 net.cpp:435] ConvNd_44 <- BatchNorm_41
I0703 14:22:29.033391 28460 net.cpp:409] ConvNd_44 -> ConvNd_44
I0703 14:22:29.033591 28460 net.cpp:144] Setting up ConvNd_44
I0703 14:22:29.033598 28460 net.cpp:151] Top shape: 5 128 64 64 (2621440)
I0703 14:22:29.033601 28460 net.cpp:159] Memory required for data: 1787822080
I0703 14:22:29.033607 28460 layer_factory.hpp:77] Creating layer BatchNorm_42
I0703 14:22:29.033612 28460 net.cpp:94] Creating Layer BatchNorm_42
I0703 14:22:29.033617 28460 net.cpp:435] BatchNorm_42 <- ConvNd_44
I0703 14:22:29.033622 28460 net.cpp:409] BatchNorm_42 -> BatchNorm_42
I0703 14:22:29.034060 28460 net.cpp:144] Setting up BatchNorm_42
I0703 14:22:29.034066 28460 net.cpp:151] Top shape: 5 128 64 64 (2621440)
I0703 14:22:29.034070 28460 net.cpp:159] Memory required for data: 1798307840
I0703 14:22:29.034080 28460 layer_factory.hpp:77] Creating layer Threshold_54
I0703 14:22:29.034083 28460 net.cpp:94] Creating Layer Threshold_54
I0703 14:22:29.034087 28460 net.cpp:435] Threshold_54 <- BatchNorm_42
I0703 14:22:29.034092 28460 net.cpp:396] Threshold_54 -> BatchNorm_42 (in-place)
I0703 14:22:29.034104 28460 net.cpp:144] Setting up Threshold_54
I0703 14:22:29.034108 28460 net.cpp:151] Top shape: 5 128 64 64 (2621440)
I0703 14:22:29.034111 28460 net.cpp:159] Memory required for data: 1808793600
I0703 14:22:29.034114 28460 layer_factory.hpp:77] Creating layer Add_13
I0703 14:22:29.034119 28460 net.cpp:94] Creating Layer Add_13
I0703 14:22:29.034123 28460 net.cpp:435] Add_13 <- Add_12_Threshold_50_0_split_1
I0703 14:22:29.034127 28460 net.cpp:435] Add_13 <- BatchNorm_42
I0703 14:22:29.034132 28460 net.cpp:409] Add_13 -> Add_13
I0703 14:22:29.034152 28460 net.cpp:144] Setting up Add_13
I0703 14:22:29.034158 28460 net.cpp:151] Top shape: 5 128 64 64 (2621440)
I0703 14:22:29.034162 28460 net.cpp:159] Memory required for data: 1819279360
I0703 14:22:29.034164 28460 layer_factory.hpp:77] Creating layer Threshold_55
I0703 14:22:29.034169 28460 net.cpp:94] Creating Layer Threshold_55
I0703 14:22:29.034173 28460 net.cpp:435] Threshold_55 <- Add_13
I0703 14:22:29.034178 28460 net.cpp:396] Threshold_55 -> Add_13 (in-place)
I0703 14:22:29.034183 28460 net.cpp:144] Setting up Threshold_55
I0703 14:22:29.034188 28460 net.cpp:151] Top shape: 5 128 64 64 (2621440)
I0703 14:22:29.034190 28460 net.cpp:159] Memory required for data: 1829765120
I0703 14:22:29.034194 28460 layer_factory.hpp:77] Creating layer Add_13_Threshold_55_0_split
I0703 14:22:29.034199 28460 net.cpp:94] Creating Layer Add_13_Threshold_55_0_split
I0703 14:22:29.034204 28460 net.cpp:435] Add_13_Threshold_55_0_split <- Add_13
I0703 14:22:29.034209 28460 net.cpp:409] Add_13_Threshold_55_0_split -> Add_13_Threshold_55_0_split_0
I0703 14:22:29.034214 28460 net.cpp:409] Add_13_Threshold_55_0_split -> Add_13_Threshold_55_0_split_1
I0703 14:22:29.034255 28460 net.cpp:144] Setting up Add_13_Threshold_55_0_split
I0703 14:22:29.034261 28460 net.cpp:151] Top shape: 5 128 64 64 (2621440)
I0703 14:22:29.034265 28460 net.cpp:151] Top shape: 5 128 64 64 (2621440)
I0703 14:22:29.034267 28460 net.cpp:159] Memory required for data: 1850736640
I0703 14:22:29.034271 28460 layer_factory.hpp:77] Creating layer ConvNd_45
I0703 14:22:29.034279 28460 net.cpp:94] Creating Layer ConvNd_45
I0703 14:22:29.034282 28460 net.cpp:435] ConvNd_45 <- Add_13_Threshold_55_0_split_0
I0703 14:22:29.034288 28460 net.cpp:409] ConvNd_45 -> ConvNd_45
I0703 14:22:29.034487 28460 net.cpp:144] Setting up ConvNd_45
I0703 14:22:29.034495 28460 net.cpp:151] Top shape: 5 32 64 64 (655360)
I0703 14:22:29.034498 28460 net.cpp:159] Memory required for data: 1853358080
I0703 14:22:29.034503 28460 layer_factory.hpp:77] Creating layer BatchNorm_43
I0703 14:22:29.034509 28460 net.cpp:94] Creating Layer BatchNorm_43
I0703 14:22:29.034513 28460 net.cpp:435] BatchNorm_43 <- ConvNd_45
I0703 14:22:29.034519 28460 net.cpp:409] BatchNorm_43 -> BatchNorm_43
I0703 14:22:29.034996 28460 net.cpp:144] Setting up BatchNorm_43
I0703 14:22:29.035002 28460 net.cpp:151] Top shape: 5 32 64 64 (655360)
I0703 14:22:29.035006 28460 net.cpp:159] Memory required for data: 1855979520
I0703 14:22:29.035020 28460 layer_factory.hpp:77] Creating layer Threshold_56
I0703 14:22:29.035027 28460 net.cpp:94] Creating Layer Threshold_56
I0703 14:22:29.035029 28460 net.cpp:435] Threshold_56 <- BatchNorm_43
I0703 14:22:29.035034 28460 net.cpp:396] Threshold_56 -> BatchNorm_43 (in-place)
I0703 14:22:29.035042 28460 net.cpp:144] Setting up Threshold_56
I0703 14:22:29.035044 28460 net.cpp:151] Top shape: 5 32 64 64 (655360)
I0703 14:22:29.035048 28460 net.cpp:159] Memory required for data: 1858600960
I0703 14:22:29.035051 28460 layer_factory.hpp:77] Creating layer ConvNd_46
I0703 14:22:29.035058 28460 net.cpp:94] Creating Layer ConvNd_46
I0703 14:22:29.035061 28460 net.cpp:435] ConvNd_46 <- BatchNorm_43
I0703 14:22:29.035066 28460 net.cpp:409] ConvNd_46 -> ConvNd_46
I0703 14:22:29.035307 28460 net.cpp:144] Setting up ConvNd_46
I0703 14:22:29.035313 28460 net.cpp:151] Top shape: 5 32 64 64 (655360)
I0703 14:22:29.035317 28460 net.cpp:159] Memory required for data: 1861222400
I0703 14:22:29.035321 28460 layer_factory.hpp:77] Creating layer BatchNorm_44
I0703 14:22:29.035329 28460 net.cpp:94] Creating Layer BatchNorm_44
I0703 14:22:29.035332 28460 net.cpp:435] BatchNorm_44 <- ConvNd_46
I0703 14:22:29.035338 28460 net.cpp:409] BatchNorm_44 -> BatchNorm_44
I0703 14:22:29.035830 28460 net.cpp:144] Setting up BatchNorm_44
I0703 14:22:29.035840 28460 net.cpp:151] Top shape: 5 32 64 64 (655360)
I0703 14:22:29.035842 28460 net.cpp:159] Memory required for data: 1863843840
I0703 14:22:29.035851 28460 layer_factory.hpp:77] Creating layer Threshold_57
I0703 14:22:29.035856 28460 net.cpp:94] Creating Layer Threshold_57
I0703 14:22:29.035861 28460 net.cpp:435] Threshold_57 <- BatchNorm_44
I0703 14:22:29.035866 28460 net.cpp:396] Threshold_57 -> BatchNorm_44 (in-place)
I0703 14:22:29.035871 28460 net.cpp:144] Setting up Threshold_57
I0703 14:22:29.035876 28460 net.cpp:151] Top shape: 5 32 64 64 (655360)
I0703 14:22:29.035878 28460 net.cpp:159] Memory required for data: 1866465280
I0703 14:22:29.035881 28460 layer_factory.hpp:77] Creating layer ConvNd_47
I0703 14:22:29.035888 28460 net.cpp:94] Creating Layer ConvNd_47
I0703 14:22:29.035892 28460 net.cpp:435] ConvNd_47 <- BatchNorm_44
I0703 14:22:29.035897 28460 net.cpp:409] ConvNd_47 -> ConvNd_47
I0703 14:22:29.036094 28460 net.cpp:144] Setting up ConvNd_47
I0703 14:22:29.036101 28460 net.cpp:151] Top shape: 5 128 64 64 (2621440)
I0703 14:22:29.036104 28460 net.cpp:159] Memory required for data: 1876951040
I0703 14:22:29.036109 28460 layer_factory.hpp:77] Creating layer BatchNorm_45
I0703 14:22:29.036115 28460 net.cpp:94] Creating Layer BatchNorm_45
I0703 14:22:29.036118 28460 net.cpp:435] BatchNorm_45 <- ConvNd_47
I0703 14:22:29.036134 28460 net.cpp:409] BatchNorm_45 -> BatchNorm_45
I0703 14:22:29.036577 28460 net.cpp:144] Setting up BatchNorm_45
I0703 14:22:29.036584 28460 net.cpp:151] Top shape: 5 128 64 64 (2621440)
I0703 14:22:29.036587 28460 net.cpp:159] Memory required for data: 1887436800
I0703 14:22:29.036597 28460 layer_factory.hpp:77] Creating layer Threshold_58
I0703 14:22:29.036602 28460 net.cpp:94] Creating Layer Threshold_58
I0703 14:22:29.036605 28460 net.cpp:435] Threshold_58 <- BatchNorm_45
I0703 14:22:29.036609 28460 net.cpp:396] Threshold_58 -> BatchNorm_45 (in-place)
I0703 14:22:29.036615 28460 net.cpp:144] Setting up Threshold_58
I0703 14:22:29.036622 28460 net.cpp:151] Top shape: 5 128 64 64 (2621440)
I0703 14:22:29.036624 28460 net.cpp:159] Memory required for data: 1897922560
I0703 14:22:29.036628 28460 layer_factory.hpp:77] Creating layer Add_14
I0703 14:22:29.036631 28460 net.cpp:94] Creating Layer Add_14
I0703 14:22:29.036635 28460 net.cpp:435] Add_14 <- Add_13_Threshold_55_0_split_1
I0703 14:22:29.036639 28460 net.cpp:435] Add_14 <- BatchNorm_45
I0703 14:22:29.036644 28460 net.cpp:409] Add_14 -> Add_14
I0703 14:22:29.036664 28460 net.cpp:144] Setting up Add_14
I0703 14:22:29.036670 28460 net.cpp:151] Top shape: 5 128 64 64 (2621440)
I0703 14:22:29.036672 28460 net.cpp:159] Memory required for data: 1908408320
I0703 14:22:29.036675 28460 layer_factory.hpp:77] Creating layer Threshold_59
I0703 14:22:29.036680 28460 net.cpp:94] Creating Layer Threshold_59
I0703 14:22:29.036684 28460 net.cpp:435] Threshold_59 <- Add_14
I0703 14:22:29.036689 28460 net.cpp:396] Threshold_59 -> Add_14 (in-place)
I0703 14:22:29.036693 28460 net.cpp:144] Setting up Threshold_59
I0703 14:22:29.036697 28460 net.cpp:151] Top shape: 5 128 64 64 (2621440)
I0703 14:22:29.036701 28460 net.cpp:159] Memory required for data: 1918894080
I0703 14:22:29.036705 28460 layer_factory.hpp:77] Creating layer Add_14_Threshold_59_0_split
I0703 14:22:29.036710 28460 net.cpp:94] Creating Layer Add_14_Threshold_59_0_split
I0703 14:22:29.036712 28460 net.cpp:435] Add_14_Threshold_59_0_split <- Add_14
I0703 14:22:29.036717 28460 net.cpp:409] Add_14_Threshold_59_0_split -> Add_14_Threshold_59_0_split_0
I0703 14:22:29.036723 28460 net.cpp:409] Add_14_Threshold_59_0_split -> Add_14_Threshold_59_0_split_1
I0703 14:22:29.036752 28460 net.cpp:144] Setting up Add_14_Threshold_59_0_split
I0703 14:22:29.036758 28460 net.cpp:151] Top shape: 5 128 64 64 (2621440)
I0703 14:22:29.036763 28460 net.cpp:151] Top shape: 5 128 64 64 (2621440)
I0703 14:22:29.036765 28460 net.cpp:159] Memory required for data: 1939865600
I0703 14:22:29.036768 28460 layer_factory.hpp:77] Creating layer ConvNd_48
I0703 14:22:29.036777 28460 net.cpp:94] Creating Layer ConvNd_48
I0703 14:22:29.036780 28460 net.cpp:435] ConvNd_48 <- Add_14_Threshold_59_0_split_0
I0703 14:22:29.036785 28460 net.cpp:409] ConvNd_48 -> ConvNd_48
I0703 14:22:29.036984 28460 net.cpp:144] Setting up ConvNd_48
I0703 14:22:29.036991 28460 net.cpp:151] Top shape: 5 32 64 64 (655360)
I0703 14:22:29.036995 28460 net.cpp:159] Memory required for data: 1942487040
I0703 14:22:29.036999 28460 layer_factory.hpp:77] Creating layer BatchNorm_46
I0703 14:22:29.037006 28460 net.cpp:94] Creating Layer BatchNorm_46
I0703 14:22:29.037009 28460 net.cpp:435] BatchNorm_46 <- ConvNd_48
I0703 14:22:29.037015 28460 net.cpp:409] BatchNorm_46 -> BatchNorm_46
I0703 14:22:29.037490 28460 net.cpp:144] Setting up BatchNorm_46
I0703 14:22:29.037497 28460 net.cpp:151] Top shape: 5 32 64 64 (655360)
I0703 14:22:29.037500 28460 net.cpp:159] Memory required for data: 1945108480
I0703 14:22:29.037509 28460 layer_factory.hpp:77] Creating layer Threshold_60
I0703 14:22:29.037514 28460 net.cpp:94] Creating Layer Threshold_60
I0703 14:22:29.037518 28460 net.cpp:435] Threshold_60 <- BatchNorm_46
I0703 14:22:29.037523 28460 net.cpp:396] Threshold_60 -> BatchNorm_46 (in-place)
I0703 14:22:29.037529 28460 net.cpp:144] Setting up Threshold_60
I0703 14:22:29.037533 28460 net.cpp:151] Top shape: 5 32 64 64 (655360)
I0703 14:22:29.037536 28460 net.cpp:159] Memory required for data: 1947729920
I0703 14:22:29.037547 28460 layer_factory.hpp:77] Creating layer ConvNd_49
I0703 14:22:29.037555 28460 net.cpp:94] Creating Layer ConvNd_49
I0703 14:22:29.037559 28460 net.cpp:435] ConvNd_49 <- BatchNorm_46
I0703 14:22:29.037564 28460 net.cpp:409] ConvNd_49 -> ConvNd_49
I0703 14:22:29.037806 28460 net.cpp:144] Setting up ConvNd_49
I0703 14:22:29.037814 28460 net.cpp:151] Top shape: 5 32 64 64 (655360)
I0703 14:22:29.037817 28460 net.cpp:159] Memory required for data: 1950351360
I0703 14:22:29.037822 28460 layer_factory.hpp:77] Creating layer BatchNorm_47
I0703 14:22:29.037828 28460 net.cpp:94] Creating Layer BatchNorm_47
I0703 14:22:29.037832 28460 net.cpp:435] BatchNorm_47 <- ConvNd_49
I0703 14:22:29.037838 28460 net.cpp:409] BatchNorm_47 -> BatchNorm_47
I0703 14:22:29.038318 28460 net.cpp:144] Setting up BatchNorm_47
I0703 14:22:29.038326 28460 net.cpp:151] Top shape: 5 32 64 64 (655360)
I0703 14:22:29.038329 28460 net.cpp:159] Memory required for data: 1952972800
I0703 14:22:29.038337 28460 layer_factory.hpp:77] Creating layer Threshold_61
I0703 14:22:29.038342 28460 net.cpp:94] Creating Layer Threshold_61
I0703 14:22:29.038345 28460 net.cpp:435] Threshold_61 <- BatchNorm_47
I0703 14:22:29.038350 28460 net.cpp:396] Threshold_61 -> BatchNorm_47 (in-place)
I0703 14:22:29.038357 28460 net.cpp:144] Setting up Threshold_61
I0703 14:22:29.038360 28460 net.cpp:151] Top shape: 5 32 64 64 (655360)
I0703 14:22:29.038363 28460 net.cpp:159] Memory required for data: 1955594240
I0703 14:22:29.038367 28460 layer_factory.hpp:77] Creating layer ConvNd_50
I0703 14:22:29.038373 28460 net.cpp:94] Creating Layer ConvNd_50
I0703 14:22:29.038377 28460 net.cpp:435] ConvNd_50 <- BatchNorm_47
I0703 14:22:29.038381 28460 net.cpp:409] ConvNd_50 -> ConvNd_50
I0703 14:22:29.038580 28460 net.cpp:144] Setting up ConvNd_50
I0703 14:22:29.038588 28460 net.cpp:151] Top shape: 5 128 64 64 (2621440)
I0703 14:22:29.038590 28460 net.cpp:159] Memory required for data: 1966080000
I0703 14:22:29.038594 28460 layer_factory.hpp:77] Creating layer BatchNorm_48
I0703 14:22:29.038601 28460 net.cpp:94] Creating Layer BatchNorm_48
I0703 14:22:29.038604 28460 net.cpp:435] BatchNorm_48 <- ConvNd_50
I0703 14:22:29.038610 28460 net.cpp:409] BatchNorm_48 -> BatchNorm_48
I0703 14:22:29.039045 28460 net.cpp:144] Setting up BatchNorm_48
I0703 14:22:29.039053 28460 net.cpp:151] Top shape: 5 128 64 64 (2621440)
I0703 14:22:29.039057 28460 net.cpp:159] Memory required for data: 1976565760
I0703 14:22:29.039064 28460 layer_factory.hpp:77] Creating layer Threshold_62
I0703 14:22:29.039069 28460 net.cpp:94] Creating Layer Threshold_62
I0703 14:22:29.039073 28460 net.cpp:435] Threshold_62 <- BatchNorm_48
I0703 14:22:29.039077 28460 net.cpp:396] Threshold_62 -> BatchNorm_48 (in-place)
I0703 14:22:29.039083 28460 net.cpp:144] Setting up Threshold_62
I0703 14:22:29.039088 28460 net.cpp:151] Top shape: 5 128 64 64 (2621440)
I0703 14:22:29.039090 28460 net.cpp:159] Memory required for data: 1987051520
I0703 14:22:29.039093 28460 layer_factory.hpp:77] Creating layer Add_15
I0703 14:22:29.039098 28460 net.cpp:94] Creating Layer Add_15
I0703 14:22:29.039101 28460 net.cpp:435] Add_15 <- Add_14_Threshold_59_0_split_1
I0703 14:22:29.039106 28460 net.cpp:435] Add_15 <- BatchNorm_48
I0703 14:22:29.039111 28460 net.cpp:409] Add_15 -> Add_15
I0703 14:22:29.039131 28460 net.cpp:144] Setting up Add_15
I0703 14:22:29.039135 28460 net.cpp:151] Top shape: 5 128 64 64 (2621440)
I0703 14:22:29.039139 28460 net.cpp:159] Memory required for data: 1997537280
I0703 14:22:29.039142 28460 layer_factory.hpp:77] Creating layer Threshold_63
I0703 14:22:29.039146 28460 net.cpp:94] Creating Layer Threshold_63
I0703 14:22:29.039149 28460 net.cpp:435] Threshold_63 <- Add_15
I0703 14:22:29.039155 28460 net.cpp:396] Threshold_63 -> Add_15 (in-place)
I0703 14:22:29.039160 28460 net.cpp:144] Setting up Threshold_63
I0703 14:22:29.039163 28460 net.cpp:151] Top shape: 5 128 64 64 (2621440)
I0703 14:22:29.039166 28460 net.cpp:159] Memory required for data: 2008023040
I0703 14:22:29.039170 28460 layer_factory.hpp:77] Creating layer Add_15_Threshold_63_0_split
I0703 14:22:29.039185 28460 net.cpp:94] Creating Layer Add_15_Threshold_63_0_split
I0703 14:22:29.039187 28460 net.cpp:435] Add_15_Threshold_63_0_split <- Add_15
I0703 14:22:29.039192 28460 net.cpp:409] Add_15_Threshold_63_0_split -> Add_15_Threshold_63_0_split_0
I0703 14:22:29.039199 28460 net.cpp:409] Add_15_Threshold_63_0_split -> Add_15_Threshold_63_0_split_1
I0703 14:22:29.039230 28460 net.cpp:144] Setting up Add_15_Threshold_63_0_split
I0703 14:22:29.039237 28460 net.cpp:151] Top shape: 5 128 64 64 (2621440)
I0703 14:22:29.039240 28460 net.cpp:151] Top shape: 5 128 64 64 (2621440)
I0703 14:22:29.039244 28460 net.cpp:159] Memory required for data: 2028994560
I0703 14:22:29.039247 28460 layer_factory.hpp:77] Creating layer ConvNd_51
I0703 14:22:29.039254 28460 net.cpp:94] Creating Layer ConvNd_51
I0703 14:22:29.039258 28460 net.cpp:435] ConvNd_51 <- Add_15_Threshold_63_0_split_0
I0703 14:22:29.039264 28460 net.cpp:409] ConvNd_51 -> ConvNd_51
I0703 14:22:29.039469 28460 net.cpp:144] Setting up ConvNd_51
I0703 14:22:29.039476 28460 net.cpp:151] Top shape: 5 32 64 64 (655360)
I0703 14:22:29.039479 28460 net.cpp:159] Memory required for data: 2031616000
I0703 14:22:29.039484 28460 layer_factory.hpp:77] Creating layer BatchNorm_49
I0703 14:22:29.039490 28460 net.cpp:94] Creating Layer BatchNorm_49
I0703 14:22:29.039494 28460 net.cpp:435] BatchNorm_49 <- ConvNd_51
I0703 14:22:29.039499 28460 net.cpp:409] BatchNorm_49 -> BatchNorm_49
I0703 14:22:29.040009 28460 net.cpp:144] Setting up BatchNorm_49
I0703 14:22:29.040019 28460 net.cpp:151] Top shape: 5 32 64 64 (655360)
I0703 14:22:29.040021 28460 net.cpp:159] Memory required for data: 2034237440
I0703 14:22:29.040030 28460 layer_factory.hpp:77] Creating layer Threshold_64
I0703 14:22:29.040036 28460 net.cpp:94] Creating Layer Threshold_64
I0703 14:22:29.040040 28460 net.cpp:435] Threshold_64 <- BatchNorm_49
I0703 14:22:29.040045 28460 net.cpp:396] Threshold_64 -> BatchNorm_49 (in-place)
I0703 14:22:29.040050 28460 net.cpp:144] Setting up Threshold_64
I0703 14:22:29.040055 28460 net.cpp:151] Top shape: 5 32 64 64 (655360)
I0703 14:22:29.040058 28460 net.cpp:159] Memory required for data: 2036858880
I0703 14:22:29.040061 28460 layer_factory.hpp:77] Creating layer ConvNd_52
I0703 14:22:29.040068 28460 net.cpp:94] Creating Layer ConvNd_52
I0703 14:22:29.040071 28460 net.cpp:435] ConvNd_52 <- BatchNorm_49
I0703 14:22:29.040076 28460 net.cpp:409] ConvNd_52 -> ConvNd_52
I0703 14:22:29.040339 28460 net.cpp:144] Setting up ConvNd_52
I0703 14:22:29.040347 28460 net.cpp:151] Top shape: 5 32 64 64 (655360)
I0703 14:22:29.040350 28460 net.cpp:159] Memory required for data: 2039480320
I0703 14:22:29.040355 28460 layer_factory.hpp:77] Creating layer BatchNorm_50
I0703 14:22:29.040361 28460 net.cpp:94] Creating Layer BatchNorm_50
I0703 14:22:29.040364 28460 net.cpp:435] BatchNorm_50 <- ConvNd_52
I0703 14:22:29.040371 28460 net.cpp:409] BatchNorm_50 -> BatchNorm_50
I0703 14:22:29.040872 28460 net.cpp:144] Setting up BatchNorm_50
I0703 14:22:29.040880 28460 net.cpp:151] Top shape: 5 32 64 64 (655360)
I0703 14:22:29.040884 28460 net.cpp:159] Memory required for data: 2042101760
I0703 14:22:29.040892 28460 layer_factory.hpp:77] Creating layer Threshold_65
I0703 14:22:29.040897 28460 net.cpp:94] Creating Layer Threshold_65
I0703 14:22:29.040901 28460 net.cpp:435] Threshold_65 <- BatchNorm_50
I0703 14:22:29.040905 28460 net.cpp:396] Threshold_65 -> BatchNorm_50 (in-place)
I0703 14:22:29.040912 28460 net.cpp:144] Setting up Threshold_65
I0703 14:22:29.040916 28460 net.cpp:151] Top shape: 5 32 64 64 (655360)
I0703 14:22:29.040920 28460 net.cpp:159] Memory required for data: 2044723200
I0703 14:22:29.040922 28460 layer_factory.hpp:77] Creating layer ConvNd_53
I0703 14:22:29.040930 28460 net.cpp:94] Creating Layer ConvNd_53
I0703 14:22:29.040932 28460 net.cpp:435] ConvNd_53 <- BatchNorm_50
I0703 14:22:29.040937 28460 net.cpp:409] ConvNd_53 -> ConvNd_53
I0703 14:22:29.041153 28460 net.cpp:144] Setting up ConvNd_53
I0703 14:22:29.041162 28460 net.cpp:151] Top shape: 5 128 64 64 (2621440)
I0703 14:22:29.041175 28460 net.cpp:159] Memory required for data: 2055208960
I0703 14:22:29.041182 28460 layer_factory.hpp:77] Creating layer BatchNorm_51
I0703 14:22:29.041188 28460 net.cpp:94] Creating Layer BatchNorm_51
I0703 14:22:29.041193 28460 net.cpp:435] BatchNorm_51 <- ConvNd_53
I0703 14:22:29.041198 28460 net.cpp:409] BatchNorm_51 -> BatchNorm_51
I0703 14:22:29.041676 28460 net.cpp:144] Setting up BatchNorm_51
I0703 14:22:29.041683 28460 net.cpp:151] Top shape: 5 128 64 64 (2621440)
I0703 14:22:29.041687 28460 net.cpp:159] Memory required for data: 2065694720
I0703 14:22:29.041697 28460 layer_factory.hpp:77] Creating layer Threshold_66
I0703 14:22:29.041702 28460 net.cpp:94] Creating Layer Threshold_66
I0703 14:22:29.041705 28460 net.cpp:435] Threshold_66 <- BatchNorm_51
I0703 14:22:29.041710 28460 net.cpp:396] Threshold_66 -> BatchNorm_51 (in-place)
I0703 14:22:29.041716 28460 net.cpp:144] Setting up Threshold_66
I0703 14:22:29.041720 28460 net.cpp:151] Top shape: 5 128 64 64 (2621440)
I0703 14:22:29.041723 28460 net.cpp:159] Memory required for data: 2076180480
I0703 14:22:29.041728 28460 layer_factory.hpp:77] Creating layer Add_16
I0703 14:22:29.041733 28460 net.cpp:94] Creating Layer Add_16
I0703 14:22:29.041735 28460 net.cpp:435] Add_16 <- Add_15_Threshold_63_0_split_1
I0703 14:22:29.041739 28460 net.cpp:435] Add_16 <- BatchNorm_51
I0703 14:22:29.041745 28460 net.cpp:409] Add_16 -> Add_16
I0703 14:22:29.041765 28460 net.cpp:144] Setting up Add_16
I0703 14:22:29.041770 28460 net.cpp:151] Top shape: 5 128 64 64 (2621440)
I0703 14:22:29.041774 28460 net.cpp:159] Memory required for data: 2086666240
I0703 14:22:29.041776 28460 layer_factory.hpp:77] Creating layer Threshold_67
I0703 14:22:29.041781 28460 net.cpp:94] Creating Layer Threshold_67
I0703 14:22:29.041785 28460 net.cpp:435] Threshold_67 <- Add_16
I0703 14:22:29.041790 28460 net.cpp:396] Threshold_67 -> Add_16 (in-place)
I0703 14:22:29.041795 28460 net.cpp:144] Setting up Threshold_67
I0703 14:22:29.041800 28460 net.cpp:151] Top shape: 5 128 64 64 (2621440)
I0703 14:22:29.041802 28460 net.cpp:159] Memory required for data: 2097152000
I0703 14:22:29.041805 28460 layer_factory.hpp:77] Creating layer Add_16_Threshold_67_0_split
I0703 14:22:29.041811 28460 net.cpp:94] Creating Layer Add_16_Threshold_67_0_split
I0703 14:22:29.041815 28460 net.cpp:435] Add_16_Threshold_67_0_split <- Add_16
I0703 14:22:29.041819 28460 net.cpp:409] Add_16_Threshold_67_0_split -> Add_16_Threshold_67_0_split_0
I0703 14:22:29.041826 28460 net.cpp:409] Add_16_Threshold_67_0_split -> Add_16_Threshold_67_0_split_1
I0703 14:22:29.041855 28460 net.cpp:144] Setting up Add_16_Threshold_67_0_split
I0703 14:22:29.041862 28460 net.cpp:151] Top shape: 5 128 64 64 (2621440)
I0703 14:22:29.041865 28460 net.cpp:151] Top shape: 5 128 64 64 (2621440)
I0703 14:22:29.041868 28460 net.cpp:159] Memory required for data: 2118123520
I0703 14:22:29.041872 28460 layer_factory.hpp:77] Creating layer ConvNd_54
I0703 14:22:29.041880 28460 net.cpp:94] Creating Layer ConvNd_54
I0703 14:22:29.041884 28460 net.cpp:435] ConvNd_54 <- Add_16_Threshold_67_0_split_0
I0703 14:22:29.041890 28460 net.cpp:409] ConvNd_54 -> ConvNd_54
I0703 14:22:29.042090 28460 net.cpp:144] Setting up ConvNd_54
I0703 14:22:29.042098 28460 net.cpp:151] Top shape: 5 32 64 64 (655360)
I0703 14:22:29.042101 28460 net.cpp:159] Memory required for data: 2120744960
I0703 14:22:29.042106 28460 layer_factory.hpp:77] Creating layer BatchNorm_52
I0703 14:22:29.042112 28460 net.cpp:94] Creating Layer BatchNorm_52
I0703 14:22:29.042116 28460 net.cpp:435] BatchNorm_52 <- ConvNd_54
I0703 14:22:29.042122 28460 net.cpp:409] BatchNorm_52 -> BatchNorm_52
I0703 14:22:29.042603 28460 net.cpp:144] Setting up BatchNorm_52
I0703 14:22:29.042610 28460 net.cpp:151] Top shape: 5 32 64 64 (655360)
I0703 14:22:29.042613 28460 net.cpp:159] Memory required for data: 2123366400
I0703 14:22:29.042623 28460 layer_factory.hpp:77] Creating layer Threshold_68
I0703 14:22:29.042627 28460 net.cpp:94] Creating Layer Threshold_68
I0703 14:22:29.042639 28460 net.cpp:435] Threshold_68 <- BatchNorm_52
I0703 14:22:29.042644 28460 net.cpp:396] Threshold_68 -> BatchNorm_52 (in-place)
I0703 14:22:29.042651 28460 net.cpp:144] Setting up Threshold_68
I0703 14:22:29.042655 28460 net.cpp:151] Top shape: 5 32 64 64 (655360)
I0703 14:22:29.042659 28460 net.cpp:159] Memory required for data: 2125987840
I0703 14:22:29.042661 28460 layer_factory.hpp:77] Creating layer ConvNd_55
I0703 14:22:29.042668 28460 net.cpp:94] Creating Layer ConvNd_55
I0703 14:22:29.042671 28460 net.cpp:435] ConvNd_55 <- BatchNorm_52
I0703 14:22:29.042677 28460 net.cpp:409] ConvNd_55 -> ConvNd_55
I0703 14:22:29.042888 28460 net.cpp:144] Setting up ConvNd_55
I0703 14:22:29.042896 28460 net.cpp:151] Top shape: 5 32 64 64 (655360)
I0703 14:22:29.042899 28460 net.cpp:159] Memory required for data: 2128609280
I0703 14:22:29.042904 28460 layer_factory.hpp:77] Creating layer BatchNorm_53
I0703 14:22:29.042910 28460 net.cpp:94] Creating Layer BatchNorm_53
I0703 14:22:29.042914 28460 net.cpp:435] BatchNorm_53 <- ConvNd_55
I0703 14:22:29.042919 28460 net.cpp:409] BatchNorm_53 -> BatchNorm_53
I0703 14:22:29.043399 28460 net.cpp:144] Setting up BatchNorm_53
I0703 14:22:29.043406 28460 net.cpp:151] Top shape: 5 32 64 64 (655360)
I0703 14:22:29.043409 28460 net.cpp:159] Memory required for data: 2131230720
I0703 14:22:29.043418 28460 layer_factory.hpp:77] Creating layer Threshold_69
I0703 14:22:29.043423 28460 net.cpp:94] Creating Layer Threshold_69
I0703 14:22:29.043427 28460 net.cpp:435] Threshold_69 <- BatchNorm_53
I0703 14:22:29.043431 28460 net.cpp:396] Threshold_69 -> BatchNorm_53 (in-place)
I0703 14:22:29.043437 28460 net.cpp:144] Setting up Threshold_69
I0703 14:22:29.043443 28460 net.cpp:151] Top shape: 5 32 64 64 (655360)
I0703 14:22:29.043447 28460 net.cpp:159] Memory required for data: 2133852160
I0703 14:22:29.043449 28460 layer_factory.hpp:77] Creating layer ConvNd_56
I0703 14:22:29.043455 28460 net.cpp:94] Creating Layer ConvNd_56
I0703 14:22:29.043459 28460 net.cpp:435] ConvNd_56 <- BatchNorm_53
I0703 14:22:29.043464 28460 net.cpp:409] ConvNd_56 -> ConvNd_56
I0703 14:22:29.043670 28460 net.cpp:144] Setting up ConvNd_56
I0703 14:22:29.043678 28460 net.cpp:151] Top shape: 5 32 64 64 (655360)
I0703 14:22:29.043681 28460 net.cpp:159] Memory required for data: 2136473600
I0703 14:22:29.043686 28460 layer_factory.hpp:77] Creating layer BatchNorm_54
I0703 14:22:29.043692 28460 net.cpp:94] Creating Layer BatchNorm_54
I0703 14:22:29.043696 28460 net.cpp:435] BatchNorm_54 <- ConvNd_56
I0703 14:22:29.043701 28460 net.cpp:409] BatchNorm_54 -> BatchNorm_54
I0703 14:22:29.044183 28460 net.cpp:144] Setting up BatchNorm_54
I0703 14:22:29.044191 28460 net.cpp:151] Top shape: 5 32 64 64 (655360)
I0703 14:22:29.044194 28460 net.cpp:159] Memory required for data: 2139095040
I0703 14:22:29.044203 28460 layer_factory.hpp:77] Creating layer Threshold_70
I0703 14:22:29.044209 28460 net.cpp:94] Creating Layer Threshold_70
I0703 14:22:29.044212 28460 net.cpp:435] Threshold_70 <- BatchNorm_54
I0703 14:22:29.044216 28460 net.cpp:396] Threshold_70 -> BatchNorm_54 (in-place)
I0703 14:22:29.044224 28460 net.cpp:144] Setting up Threshold_70
I0703 14:22:29.044227 28460 net.cpp:151] Top shape: 5 32 64 64 (655360)
I0703 14:22:29.044230 28460 net.cpp:159] Memory required for data: 2141716480
I0703 14:22:29.044234 28460 layer_factory.hpp:77] Creating layer ConvNd_57
I0703 14:22:29.044241 28460 net.cpp:94] Creating Layer ConvNd_57
I0703 14:22:29.044245 28460 net.cpp:435] ConvNd_57 <- BatchNorm_54
I0703 14:22:29.044250 28460 net.cpp:409] ConvNd_57 -> ConvNd_57
I0703 14:22:29.044448 28460 net.cpp:144] Setting up ConvNd_57
I0703 14:22:29.044456 28460 net.cpp:151] Top shape: 5 128 64 64 (2621440)
I0703 14:22:29.044459 28460 net.cpp:159] Memory required for data: 2152202240
I0703 14:22:29.044464 28460 layer_factory.hpp:77] Creating layer BatchNorm_55
I0703 14:22:29.044471 28460 net.cpp:94] Creating Layer BatchNorm_55
I0703 14:22:29.044474 28460 net.cpp:435] BatchNorm_55 <- ConvNd_57
I0703 14:22:29.044481 28460 net.cpp:409] BatchNorm_55 -> BatchNorm_55
I0703 14:22:29.044927 28460 net.cpp:144] Setting up BatchNorm_55
I0703 14:22:29.044934 28460 net.cpp:151] Top shape: 5 128 64 64 (2621440)
I0703 14:22:29.044939 28460 net.cpp:159] Memory required for data: 2162688000
I0703 14:22:29.044946 28460 layer_factory.hpp:77] Creating layer Threshold_71
I0703 14:22:29.044951 28460 net.cpp:94] Creating Layer Threshold_71
I0703 14:22:29.044955 28460 net.cpp:435] Threshold_71 <- BatchNorm_55
I0703 14:22:29.044961 28460 net.cpp:396] Threshold_71 -> BatchNorm_55 (in-place)
I0703 14:22:29.044967 28460 net.cpp:144] Setting up Threshold_71
I0703 14:22:29.044972 28460 net.cpp:151] Top shape: 5 128 64 64 (2621440)
I0703 14:22:29.044975 28460 net.cpp:159] Memory required for data: 2173173760
I0703 14:22:29.044978 28460 layer_factory.hpp:77] Creating layer Add_17
I0703 14:22:29.044983 28460 net.cpp:94] Creating Layer Add_17
I0703 14:22:29.044987 28460 net.cpp:435] Add_17 <- Add_16_Threshold_67_0_split_1
I0703 14:22:29.044991 28460 net.cpp:435] Add_17 <- BatchNorm_55
I0703 14:22:29.044996 28460 net.cpp:409] Add_17 -> Add_17
I0703 14:22:29.045017 28460 net.cpp:144] Setting up Add_17
I0703 14:22:29.045022 28460 net.cpp:151] Top shape: 5 128 64 64 (2621440)
I0703 14:22:29.045024 28460 net.cpp:159] Memory required for data: 2183659520
I0703 14:22:29.045028 28460 layer_factory.hpp:77] Creating layer Threshold_72
I0703 14:22:29.045033 28460 net.cpp:94] Creating Layer Threshold_72
I0703 14:22:29.045037 28460 net.cpp:435] Threshold_72 <- Add_17
I0703 14:22:29.045042 28460 net.cpp:396] Threshold_72 -> Add_17 (in-place)
I0703 14:22:29.045047 28460 net.cpp:144] Setting up Threshold_72
I0703 14:22:29.045050 28460 net.cpp:151] Top shape: 5 128 64 64 (2621440)
I0703 14:22:29.045053 28460 net.cpp:159] Memory required for data: 2194145280
I0703 14:22:29.045056 28460 layer_factory.hpp:77] Creating layer Add_17_Threshold_72_0_split
I0703 14:22:29.045063 28460 net.cpp:94] Creating Layer Add_17_Threshold_72_0_split
I0703 14:22:29.045065 28460 net.cpp:435] Add_17_Threshold_72_0_split <- Add_17
I0703 14:22:29.045070 28460 net.cpp:409] Add_17_Threshold_72_0_split -> Add_17_Threshold_72_0_split_0
I0703 14:22:29.045076 28460 net.cpp:409] Add_17_Threshold_72_0_split -> Add_17_Threshold_72_0_split_1
I0703 14:22:29.045107 28460 net.cpp:144] Setting up Add_17_Threshold_72_0_split
I0703 14:22:29.045114 28460 net.cpp:151] Top shape: 5 128 64 64 (2621440)
I0703 14:22:29.045117 28460 net.cpp:151] Top shape: 5 128 64 64 (2621440)
I0703 14:22:29.045120 28460 net.cpp:159] Memory required for data: 2215116800
I0703 14:22:29.045123 28460 layer_factory.hpp:77] Creating layer ConvNd_58
I0703 14:22:29.045131 28460 net.cpp:94] Creating Layer ConvNd_58
I0703 14:22:29.045135 28460 net.cpp:435] ConvNd_58 <- Add_17_Threshold_72_0_split_0
I0703 14:22:29.045140 28460 net.cpp:409] ConvNd_58 -> ConvNd_58
I0703 14:22:29.045342 28460 net.cpp:144] Setting up ConvNd_58
I0703 14:22:29.045349 28460 net.cpp:151] Top shape: 5 32 64 64 (655360)
I0703 14:22:29.045352 28460 net.cpp:159] Memory required for data: 2217738240
I0703 14:22:29.045356 28460 layer_factory.hpp:77] Creating layer BatchNorm_56
I0703 14:22:29.045364 28460 net.cpp:94] Creating Layer BatchNorm_56
I0703 14:22:29.045367 28460 net.cpp:435] BatchNorm_56 <- ConvNd_58
I0703 14:22:29.045373 28460 net.cpp:409] BatchNorm_56 -> BatchNorm_56
I0703 14:22:29.045855 28460 net.cpp:144] Setting up BatchNorm_56
I0703 14:22:29.045862 28460 net.cpp:151] Top shape: 5 32 64 64 (655360)
I0703 14:22:29.045866 28460 net.cpp:159] Memory required for data: 2220359680
I0703 14:22:29.045873 28460 layer_factory.hpp:77] Creating layer Threshold_73
I0703 14:22:29.045878 28460 net.cpp:94] Creating Layer Threshold_73
I0703 14:22:29.045882 28460 net.cpp:435] Threshold_73 <- BatchNorm_56
I0703 14:22:29.045887 28460 net.cpp:396] Threshold_73 -> BatchNorm_56 (in-place)
I0703 14:22:29.045893 28460 net.cpp:144] Setting up Threshold_73
I0703 14:22:29.045897 28460 net.cpp:151] Top shape: 5 32 64 64 (655360)
I0703 14:22:29.045902 28460 net.cpp:159] Memory required for data: 2222981120
I0703 14:22:29.045904 28460 layer_factory.hpp:77] Creating layer ConvNd_59
I0703 14:22:29.045919 28460 net.cpp:94] Creating Layer ConvNd_59
I0703 14:22:29.045922 28460 net.cpp:435] ConvNd_59 <- BatchNorm_56
I0703 14:22:29.045928 28460 net.cpp:409] ConvNd_59 -> ConvNd_59
I0703 14:22:29.046170 28460 net.cpp:144] Setting up ConvNd_59
I0703 14:22:29.046178 28460 net.cpp:151] Top shape: 5 32 64 64 (655360)
I0703 14:22:29.046181 28460 net.cpp:159] Memory required for data: 2225602560
I0703 14:22:29.046186 28460 layer_factory.hpp:77] Creating layer BatchNorm_57
I0703 14:22:29.046192 28460 net.cpp:94] Creating Layer BatchNorm_57
I0703 14:22:29.046196 28460 net.cpp:435] BatchNorm_57 <- ConvNd_59
I0703 14:22:29.046202 28460 net.cpp:409] BatchNorm_57 -> BatchNorm_57
I0703 14:22:29.046691 28460 net.cpp:144] Setting up BatchNorm_57
I0703 14:22:29.046699 28460 net.cpp:151] Top shape: 5 32 64 64 (655360)
I0703 14:22:29.046701 28460 net.cpp:159] Memory required for data: 2228224000
I0703 14:22:29.046710 28460 layer_factory.hpp:77] Creating layer Threshold_74
I0703 14:22:29.046715 28460 net.cpp:94] Creating Layer Threshold_74
I0703 14:22:29.046718 28460 net.cpp:435] Threshold_74 <- BatchNorm_57
I0703 14:22:29.046723 28460 net.cpp:396] Threshold_74 -> BatchNorm_57 (in-place)
I0703 14:22:29.046730 28460 net.cpp:144] Setting up Threshold_74
I0703 14:22:29.046735 28460 net.cpp:151] Top shape: 5 32 64 64 (655360)
I0703 14:22:29.046737 28460 net.cpp:159] Memory required for data: 2230845440
I0703 14:22:29.046741 28460 layer_factory.hpp:77] Creating layer ConvNd_60
I0703 14:22:29.046747 28460 net.cpp:94] Creating Layer ConvNd_60
I0703 14:22:29.046751 28460 net.cpp:435] ConvNd_60 <- BatchNorm_57
I0703 14:22:29.046756 28460 net.cpp:409] ConvNd_60 -> ConvNd_60
I0703 14:22:29.046958 28460 net.cpp:144] Setting up ConvNd_60
I0703 14:22:29.046964 28460 net.cpp:151] Top shape: 5 128 64 64 (2621440)
I0703 14:22:29.046967 28460 net.cpp:159] Memory required for data: 2241331200
I0703 14:22:29.046972 28460 layer_factory.hpp:77] Creating layer BatchNorm_58
I0703 14:22:29.046978 28460 net.cpp:94] Creating Layer BatchNorm_58
I0703 14:22:29.046983 28460 net.cpp:435] BatchNorm_58 <- ConvNd_60
I0703 14:22:29.046988 28460 net.cpp:409] BatchNorm_58 -> BatchNorm_58
I0703 14:22:29.047430 28460 net.cpp:144] Setting up BatchNorm_58
I0703 14:22:29.047436 28460 net.cpp:151] Top shape: 5 128 64 64 (2621440)
I0703 14:22:29.047439 28460 net.cpp:159] Memory required for data: 2251816960
I0703 14:22:29.047448 28460 layer_factory.hpp:77] Creating layer Threshold_75
I0703 14:22:29.047453 28460 net.cpp:94] Creating Layer Threshold_75
I0703 14:22:29.047456 28460 net.cpp:435] Threshold_75 <- BatchNorm_58
I0703 14:22:29.047461 28460 net.cpp:396] Threshold_75 -> BatchNorm_58 (in-place)
I0703 14:22:29.047467 28460 net.cpp:144] Setting up Threshold_75
I0703 14:22:29.047472 28460 net.cpp:151] Top shape: 5 128 64 64 (2621440)
I0703 14:22:29.047474 28460 net.cpp:159] Memory required for data: 2262302720
I0703 14:22:29.047477 28460 layer_factory.hpp:77] Creating layer Add_18
I0703 14:22:29.047482 28460 net.cpp:94] Creating Layer Add_18
I0703 14:22:29.047487 28460 net.cpp:435] Add_18 <- Add_17_Threshold_72_0_split_1
I0703 14:22:29.047490 28460 net.cpp:435] Add_18 <- BatchNorm_58
I0703 14:22:29.047494 28460 net.cpp:409] Add_18 -> Add_18
I0703 14:22:29.047515 28460 net.cpp:144] Setting up Add_18
I0703 14:22:29.047520 28460 net.cpp:151] Top shape: 5 128 64 64 (2621440)
I0703 14:22:29.047523 28460 net.cpp:159] Memory required for data: 2272788480
I0703 14:22:29.047526 28460 layer_factory.hpp:77] Creating layer Threshold_76
I0703 14:22:29.047531 28460 net.cpp:94] Creating Layer Threshold_76
I0703 14:22:29.047535 28460 net.cpp:435] Threshold_76 <- Add_18
I0703 14:22:29.047539 28460 net.cpp:396] Threshold_76 -> Add_18 (in-place)
I0703 14:22:29.047544 28460 net.cpp:144] Setting up Threshold_76
I0703 14:22:29.047549 28460 net.cpp:151] Top shape: 5 128 64 64 (2621440)
I0703 14:22:29.047551 28460 net.cpp:159] Memory required for data: 2283274240
I0703 14:22:29.047554 28460 layer_factory.hpp:77] Creating layer Add_18_Threshold_76_0_split
I0703 14:22:29.047567 28460 net.cpp:94] Creating Layer Add_18_Threshold_76_0_split
I0703 14:22:29.047572 28460 net.cpp:435] Add_18_Threshold_76_0_split <- Add_18
I0703 14:22:29.047577 28460 net.cpp:409] Add_18_Threshold_76_0_split -> Add_18_Threshold_76_0_split_0
I0703 14:22:29.047583 28460 net.cpp:409] Add_18_Threshold_76_0_split -> Add_18_Threshold_76_0_split_1
I0703 14:22:29.047614 28460 net.cpp:144] Setting up Add_18_Threshold_76_0_split
I0703 14:22:29.047621 28460 net.cpp:151] Top shape: 5 128 64 64 (2621440)
I0703 14:22:29.047624 28460 net.cpp:151] Top shape: 5 128 64 64 (2621440)
I0703 14:22:29.047626 28460 net.cpp:159] Memory required for data: 2304245760
I0703 14:22:29.047629 28460 layer_factory.hpp:77] Creating layer ConvNd_61
I0703 14:22:29.047638 28460 net.cpp:94] Creating Layer ConvNd_61
I0703 14:22:29.047641 28460 net.cpp:435] ConvNd_61 <- Add_18_Threshold_76_0_split_0
I0703 14:22:29.047646 28460 net.cpp:409] ConvNd_61 -> ConvNd_61
I0703 14:22:29.047853 28460 net.cpp:144] Setting up ConvNd_61
I0703 14:22:29.047860 28460 net.cpp:151] Top shape: 5 32 64 64 (655360)
I0703 14:22:29.047863 28460 net.cpp:159] Memory required for data: 2306867200
I0703 14:22:29.047868 28460 layer_factory.hpp:77] Creating layer BatchNorm_59
I0703 14:22:29.047874 28460 net.cpp:94] Creating Layer BatchNorm_59
I0703 14:22:29.047879 28460 net.cpp:435] BatchNorm_59 <- ConvNd_61
I0703 14:22:29.047884 28460 net.cpp:409] BatchNorm_59 -> BatchNorm_59
I0703 14:22:29.048367 28460 net.cpp:144] Setting up BatchNorm_59
I0703 14:22:29.048373 28460 net.cpp:151] Top shape: 5 32 64 64 (655360)
I0703 14:22:29.048377 28460 net.cpp:159] Memory required for data: 2309488640
I0703 14:22:29.048385 28460 layer_factory.hpp:77] Creating layer Threshold_77
I0703 14:22:29.048391 28460 net.cpp:94] Creating Layer Threshold_77
I0703 14:22:29.048394 28460 net.cpp:435] Threshold_77 <- BatchNorm_59
I0703 14:22:29.048400 28460 net.cpp:396] Threshold_77 -> BatchNorm_59 (in-place)
I0703 14:22:29.048405 28460 net.cpp:144] Setting up Threshold_77
I0703 14:22:29.048409 28460 net.cpp:151] Top shape: 5 32 64 64 (655360)
I0703 14:22:29.048413 28460 net.cpp:159] Memory required for data: 2312110080
I0703 14:22:29.048416 28460 layer_factory.hpp:77] Creating layer ConvNd_62
I0703 14:22:29.048424 28460 net.cpp:94] Creating Layer ConvNd_62
I0703 14:22:29.048426 28460 net.cpp:435] ConvNd_62 <- BatchNorm_59
I0703 14:22:29.048431 28460 net.cpp:409] ConvNd_62 -> ConvNd_62
I0703 14:22:29.048676 28460 net.cpp:144] Setting up ConvNd_62
I0703 14:22:29.048681 28460 net.cpp:151] Top shape: 5 32 64 64 (655360)
I0703 14:22:29.048684 28460 net.cpp:159] Memory required for data: 2314731520
I0703 14:22:29.048689 28460 layer_factory.hpp:77] Creating layer BatchNorm_60
I0703 14:22:29.048696 28460 net.cpp:94] Creating Layer BatchNorm_60
I0703 14:22:29.048699 28460 net.cpp:435] BatchNorm_60 <- ConvNd_62
I0703 14:22:29.048705 28460 net.cpp:409] BatchNorm_60 -> BatchNorm_60
I0703 14:22:29.049185 28460 net.cpp:144] Setting up BatchNorm_60
I0703 14:22:29.049192 28460 net.cpp:151] Top shape: 5 32 64 64 (655360)
I0703 14:22:29.049196 28460 net.cpp:159] Memory required for data: 2317352960
I0703 14:22:29.049203 28460 layer_factory.hpp:77] Creating layer Threshold_78
I0703 14:22:29.049208 28460 net.cpp:94] Creating Layer Threshold_78
I0703 14:22:29.049212 28460 net.cpp:435] Threshold_78 <- BatchNorm_60
I0703 14:22:29.049216 28460 net.cpp:396] Threshold_78 -> BatchNorm_60 (in-place)
I0703 14:22:29.049222 28460 net.cpp:144] Setting up Threshold_78
I0703 14:22:29.049226 28460 net.cpp:151] Top shape: 5 32 64 64 (655360)
I0703 14:22:29.049229 28460 net.cpp:159] Memory required for data: 2319974400
I0703 14:22:29.049232 28460 layer_factory.hpp:77] Creating layer ConvNd_63
I0703 14:22:29.049239 28460 net.cpp:94] Creating Layer ConvNd_63
I0703 14:22:29.049243 28460 net.cpp:435] ConvNd_63 <- BatchNorm_60
I0703 14:22:29.049249 28460 net.cpp:409] ConvNd_63 -> ConvNd_63
I0703 14:22:29.049448 28460 net.cpp:144] Setting up ConvNd_63
I0703 14:22:29.049453 28460 net.cpp:151] Top shape: 5 128 64 64 (2621440)
I0703 14:22:29.049465 28460 net.cpp:159] Memory required for data: 2330460160
I0703 14:22:29.049470 28460 layer_factory.hpp:77] Creating layer BatchNorm_61
I0703 14:22:29.049477 28460 net.cpp:94] Creating Layer BatchNorm_61
I0703 14:22:29.049480 28460 net.cpp:435] BatchNorm_61 <- ConvNd_63
I0703 14:22:29.049486 28460 net.cpp:409] BatchNorm_61 -> BatchNorm_61
I0703 14:22:29.049928 28460 net.cpp:144] Setting up BatchNorm_61
I0703 14:22:29.049935 28460 net.cpp:151] Top shape: 5 128 64 64 (2621440)
I0703 14:22:29.049937 28460 net.cpp:159] Memory required for data: 2340945920
I0703 14:22:29.049947 28460 layer_factory.hpp:77] Creating layer Threshold_79
I0703 14:22:29.049952 28460 net.cpp:94] Creating Layer Threshold_79
I0703 14:22:29.049955 28460 net.cpp:435] Threshold_79 <- BatchNorm_61
I0703 14:22:29.049959 28460 net.cpp:396] Threshold_79 -> BatchNorm_61 (in-place)
I0703 14:22:29.049965 28460 net.cpp:144] Setting up Threshold_79
I0703 14:22:29.049970 28460 net.cpp:151] Top shape: 5 128 64 64 (2621440)
I0703 14:22:29.049973 28460 net.cpp:159] Memory required for data: 2351431680
I0703 14:22:29.049975 28460 layer_factory.hpp:77] Creating layer Add_19
I0703 14:22:29.049980 28460 net.cpp:94] Creating Layer Add_19
I0703 14:22:29.049985 28460 net.cpp:435] Add_19 <- Add_18_Threshold_76_0_split_1
I0703 14:22:29.049989 28460 net.cpp:435] Add_19 <- BatchNorm_61
I0703 14:22:29.049993 28460 net.cpp:409] Add_19 -> Add_19
I0703 14:22:29.050014 28460 net.cpp:144] Setting up Add_19
I0703 14:22:29.050019 28460 net.cpp:151] Top shape: 5 128 64 64 (2621440)
I0703 14:22:29.050022 28460 net.cpp:159] Memory required for data: 2361917440
I0703 14:22:29.050025 28460 layer_factory.hpp:77] Creating layer Threshold_80
I0703 14:22:29.050029 28460 net.cpp:94] Creating Layer Threshold_80
I0703 14:22:29.050034 28460 net.cpp:435] Threshold_80 <- Add_19
I0703 14:22:29.050038 28460 net.cpp:396] Threshold_80 -> Add_19 (in-place)
I0703 14:22:29.050043 28460 net.cpp:144] Setting up Threshold_80
I0703 14:22:29.050047 28460 net.cpp:151] Top shape: 5 128 64 64 (2621440)
I0703 14:22:29.050050 28460 net.cpp:159] Memory required for data: 2372403200
I0703 14:22:29.050053 28460 layer_factory.hpp:77] Creating layer Add_19_Threshold_80_0_split
I0703 14:22:29.050058 28460 net.cpp:94] Creating Layer Add_19_Threshold_80_0_split
I0703 14:22:29.050061 28460 net.cpp:435] Add_19_Threshold_80_0_split <- Add_19
I0703 14:22:29.050066 28460 net.cpp:409] Add_19_Threshold_80_0_split -> Add_19_Threshold_80_0_split_0
I0703 14:22:29.050072 28460 net.cpp:409] Add_19_Threshold_80_0_split -> Add_19_Threshold_80_0_split_1
I0703 14:22:29.050101 28460 net.cpp:144] Setting up Add_19_Threshold_80_0_split
I0703 14:22:29.050105 28460 net.cpp:151] Top shape: 5 128 64 64 (2621440)
I0703 14:22:29.050109 28460 net.cpp:151] Top shape: 5 128 64 64 (2621440)
I0703 14:22:29.050112 28460 net.cpp:159] Memory required for data: 2393374720
I0703 14:22:29.050115 28460 layer_factory.hpp:77] Creating layer ConvNd_64
I0703 14:22:29.050123 28460 net.cpp:94] Creating Layer ConvNd_64
I0703 14:22:29.050127 28460 net.cpp:435] ConvNd_64 <- Add_19_Threshold_80_0_split_0
I0703 14:22:29.050132 28460 net.cpp:409] ConvNd_64 -> ConvNd_64
I0703 14:22:29.050333 28460 net.cpp:144] Setting up ConvNd_64
I0703 14:22:29.050339 28460 net.cpp:151] Top shape: 5 32 64 64 (655360)
I0703 14:22:29.050343 28460 net.cpp:159] Memory required for data: 2395996160
I0703 14:22:29.050348 28460 layer_factory.hpp:77] Creating layer BatchNorm_62
I0703 14:22:29.050354 28460 net.cpp:94] Creating Layer BatchNorm_62
I0703 14:22:29.050356 28460 net.cpp:435] BatchNorm_62 <- ConvNd_64
I0703 14:22:29.050362 28460 net.cpp:409] BatchNorm_62 -> BatchNorm_62
I0703 14:22:29.050843 28460 net.cpp:144] Setting up BatchNorm_62
I0703 14:22:29.050848 28460 net.cpp:151] Top shape: 5 32 64 64 (655360)
I0703 14:22:29.050851 28460 net.cpp:159] Memory required for data: 2398617600
I0703 14:22:29.050860 28460 layer_factory.hpp:77] Creating layer Threshold_81
I0703 14:22:29.050865 28460 net.cpp:94] Creating Layer Threshold_81
I0703 14:22:29.050869 28460 net.cpp:435] Threshold_81 <- BatchNorm_62
I0703 14:22:29.050882 28460 net.cpp:396] Threshold_81 -> BatchNorm_62 (in-place)
I0703 14:22:29.050889 28460 net.cpp:144] Setting up Threshold_81
I0703 14:22:29.050894 28460 net.cpp:151] Top shape: 5 32 64 64 (655360)
I0703 14:22:29.050896 28460 net.cpp:159] Memory required for data: 2401239040
I0703 14:22:29.050899 28460 layer_factory.hpp:77] Creating layer ConvNd_65
I0703 14:22:29.050907 28460 net.cpp:94] Creating Layer ConvNd_65
I0703 14:22:29.050910 28460 net.cpp:435] ConvNd_65 <- BatchNorm_62
I0703 14:22:29.050916 28460 net.cpp:409] ConvNd_65 -> ConvNd_65
I0703 14:22:29.051156 28460 net.cpp:144] Setting up ConvNd_65
I0703 14:22:29.051162 28460 net.cpp:151] Top shape: 5 32 64 64 (655360)
I0703 14:22:29.051165 28460 net.cpp:159] Memory required for data: 2403860480
I0703 14:22:29.051170 28460 layer_factory.hpp:77] Creating layer BatchNorm_63
I0703 14:22:29.051177 28460 net.cpp:94] Creating Layer BatchNorm_63
I0703 14:22:29.051180 28460 net.cpp:435] BatchNorm_63 <- ConvNd_65
I0703 14:22:29.051187 28460 net.cpp:409] BatchNorm_63 -> BatchNorm_63
I0703 14:22:29.051664 28460 net.cpp:144] Setting up BatchNorm_63
I0703 14:22:29.051671 28460 net.cpp:151] Top shape: 5 32 64 64 (655360)
I0703 14:22:29.051674 28460 net.cpp:159] Memory required for data: 2406481920
I0703 14:22:29.051682 28460 layer_factory.hpp:77] Creating layer Threshold_82
I0703 14:22:29.051687 28460 net.cpp:94] Creating Layer Threshold_82
I0703 14:22:29.051692 28460 net.cpp:435] Threshold_82 <- BatchNorm_63
I0703 14:22:29.051697 28460 net.cpp:396] Threshold_82 -> BatchNorm_63 (in-place)
I0703 14:22:29.051702 28460 net.cpp:144] Setting up Threshold_82
I0703 14:22:29.051705 28460 net.cpp:151] Top shape: 5 32 64 64 (655360)
I0703 14:22:29.051708 28460 net.cpp:159] Memory required for data: 2409103360
I0703 14:22:29.051712 28460 layer_factory.hpp:77] Creating layer ConvNd_66
I0703 14:22:29.051723 28460 net.cpp:94] Creating Layer ConvNd_66
I0703 14:22:29.051728 28460 net.cpp:435] ConvNd_66 <- BatchNorm_63
I0703 14:22:29.051733 28460 net.cpp:409] ConvNd_66 -> ConvNd_66
I0703 14:22:29.051951 28460 net.cpp:144] Setting up ConvNd_66
I0703 14:22:29.051957 28460 net.cpp:151] Top shape: 5 128 64 64 (2621440)
I0703 14:22:29.051960 28460 net.cpp:159] Memory required for data: 2419589120
I0703 14:22:29.051965 28460 layer_factory.hpp:77] Creating layer BatchNorm_64
I0703 14:22:29.051972 28460 net.cpp:94] Creating Layer BatchNorm_64
I0703 14:22:29.051976 28460 net.cpp:435] BatchNorm_64 <- ConvNd_66
I0703 14:22:29.051981 28460 net.cpp:409] BatchNorm_64 -> BatchNorm_64
I0703 14:22:29.052415 28460 net.cpp:144] Setting up BatchNorm_64
I0703 14:22:29.052423 28460 net.cpp:151] Top shape: 5 128 64 64 (2621440)
I0703 14:22:29.052425 28460 net.cpp:159] Memory required for data: 2430074880
I0703 14:22:29.052433 28460 layer_factory.hpp:77] Creating layer Threshold_83
I0703 14:22:29.052438 28460 net.cpp:94] Creating Layer Threshold_83
I0703 14:22:29.052443 28460 net.cpp:435] Threshold_83 <- BatchNorm_64
I0703 14:22:29.052448 28460 net.cpp:396] Threshold_83 -> BatchNorm_64 (in-place)
I0703 14:22:29.052453 28460 net.cpp:144] Setting up Threshold_83
I0703 14:22:29.052458 28460 net.cpp:151] Top shape: 5 128 64 64 (2621440)
I0703 14:22:29.052460 28460 net.cpp:159] Memory required for data: 2440560640
I0703 14:22:29.052464 28460 layer_factory.hpp:77] Creating layer Add_20
I0703 14:22:29.052469 28460 net.cpp:94] Creating Layer Add_20
I0703 14:22:29.052471 28460 net.cpp:435] Add_20 <- Add_19_Threshold_80_0_split_1
I0703 14:22:29.052476 28460 net.cpp:435] Add_20 <- BatchNorm_64
I0703 14:22:29.052481 28460 net.cpp:409] Add_20 -> Add_20
I0703 14:22:29.052501 28460 net.cpp:144] Setting up Add_20
I0703 14:22:29.052506 28460 net.cpp:151] Top shape: 5 128 64 64 (2621440)
I0703 14:22:29.052510 28460 net.cpp:159] Memory required for data: 2451046400
I0703 14:22:29.052512 28460 layer_factory.hpp:77] Creating layer Threshold_84
I0703 14:22:29.052517 28460 net.cpp:94] Creating Layer Threshold_84
I0703 14:22:29.052520 28460 net.cpp:435] Threshold_84 <- Add_20
I0703 14:22:29.052525 28460 net.cpp:396] Threshold_84 -> Add_20 (in-place)
I0703 14:22:29.052539 28460 net.cpp:144] Setting up Threshold_84
I0703 14:22:29.052544 28460 net.cpp:151] Top shape: 5 128 64 64 (2621440)
I0703 14:22:29.052546 28460 net.cpp:159] Memory required for data: 2461532160
I0703 14:22:29.052551 28460 layer_factory.hpp:77] Creating layer Add_20_Threshold_84_0_split
I0703 14:22:29.052556 28460 net.cpp:94] Creating Layer Add_20_Threshold_84_0_split
I0703 14:22:29.052559 28460 net.cpp:435] Add_20_Threshold_84_0_split <- Add_20
I0703 14:22:29.052563 28460 net.cpp:409] Add_20_Threshold_84_0_split -> Add_20_Threshold_84_0_split_0
I0703 14:22:29.052570 28460 net.cpp:409] Add_20_Threshold_84_0_split -> Add_20_Threshold_84_0_split_1
I0703 14:22:29.052601 28460 net.cpp:144] Setting up Add_20_Threshold_84_0_split
I0703 14:22:29.052606 28460 net.cpp:151] Top shape: 5 128 64 64 (2621440)
I0703 14:22:29.052610 28460 net.cpp:151] Top shape: 5 128 64 64 (2621440)
I0703 14:22:29.052613 28460 net.cpp:159] Memory required for data: 2482503680
I0703 14:22:29.052616 28460 layer_factory.hpp:77] Creating layer ConvNd_67
I0703 14:22:29.052624 28460 net.cpp:94] Creating Layer ConvNd_67
I0703 14:22:29.052628 28460 net.cpp:435] ConvNd_67 <- Add_20_Threshold_84_0_split_0
I0703 14:22:29.052634 28460 net.cpp:409] ConvNd_67 -> ConvNd_67
I0703 14:22:29.052832 28460 net.cpp:144] Setting up ConvNd_67
I0703 14:22:29.052839 28460 net.cpp:151] Top shape: 5 32 64 64 (655360)
I0703 14:22:29.052841 28460 net.cpp:159] Memory required for data: 2485125120
I0703 14:22:29.052846 28460 layer_factory.hpp:77] Creating layer BatchNorm_65
I0703 14:22:29.052853 28460 net.cpp:94] Creating Layer BatchNorm_65
I0703 14:22:29.052856 28460 net.cpp:435] BatchNorm_65 <- ConvNd_67
I0703 14:22:29.052862 28460 net.cpp:409] BatchNorm_65 -> BatchNorm_65
I0703 14:22:29.053335 28460 net.cpp:144] Setting up BatchNorm_65
I0703 14:22:29.053341 28460 net.cpp:151] Top shape: 5 32 64 64 (655360)
I0703 14:22:29.053344 28460 net.cpp:159] Memory required for data: 2487746560
I0703 14:22:29.053352 28460 layer_factory.hpp:77] Creating layer Threshold_85
I0703 14:22:29.053359 28460 net.cpp:94] Creating Layer Threshold_85
I0703 14:22:29.053362 28460 net.cpp:435] Threshold_85 <- BatchNorm_65
I0703 14:22:29.053366 28460 net.cpp:396] Threshold_85 -> BatchNorm_65 (in-place)
I0703 14:22:29.053372 28460 net.cpp:144] Setting up Threshold_85
I0703 14:22:29.053377 28460 net.cpp:151] Top shape: 5 32 64 64 (655360)
I0703 14:22:29.053380 28460 net.cpp:159] Memory required for data: 2490368000
I0703 14:22:29.053382 28460 layer_factory.hpp:77] Creating layer ConvNd_68
I0703 14:22:29.053390 28460 net.cpp:94] Creating Layer ConvNd_68
I0703 14:22:29.053393 28460 net.cpp:435] ConvNd_68 <- BatchNorm_65
I0703 14:22:29.053398 28460 net.cpp:409] ConvNd_68 -> ConvNd_68
I0703 14:22:29.053606 28460 net.cpp:144] Setting up ConvNd_68
I0703 14:22:29.053611 28460 net.cpp:151] Top shape: 5 32 64 64 (655360)
I0703 14:22:29.053614 28460 net.cpp:159] Memory required for data: 2492989440
I0703 14:22:29.053619 28460 layer_factory.hpp:77] Creating layer BatchNorm_66
I0703 14:22:29.053625 28460 net.cpp:94] Creating Layer BatchNorm_66
I0703 14:22:29.053628 28460 net.cpp:435] BatchNorm_66 <- ConvNd_68
I0703 14:22:29.053634 28460 net.cpp:409] BatchNorm_66 -> BatchNorm_66
I0703 14:22:29.054114 28460 net.cpp:144] Setting up BatchNorm_66
I0703 14:22:29.054121 28460 net.cpp:151] Top shape: 5 32 64 64 (655360)
I0703 14:22:29.054123 28460 net.cpp:159] Memory required for data: 2495610880
I0703 14:22:29.054132 28460 layer_factory.hpp:77] Creating layer Threshold_86
I0703 14:22:29.054143 28460 net.cpp:94] Creating Layer Threshold_86
I0703 14:22:29.054147 28460 net.cpp:435] Threshold_86 <- BatchNorm_66
I0703 14:22:29.054152 28460 net.cpp:396] Threshold_86 -> BatchNorm_66 (in-place)
I0703 14:22:29.054157 28460 net.cpp:144] Setting up Threshold_86
I0703 14:22:29.054162 28460 net.cpp:151] Top shape: 5 32 64 64 (655360)
I0703 14:22:29.054164 28460 net.cpp:159] Memory required for data: 2498232320
I0703 14:22:29.054167 28460 layer_factory.hpp:77] Creating layer ConvNd_69
I0703 14:22:29.054183 28460 net.cpp:94] Creating Layer ConvNd_69
I0703 14:22:29.054186 28460 net.cpp:435] ConvNd_69 <- BatchNorm_66
I0703 14:22:29.054191 28460 net.cpp:409] ConvNd_69 -> ConvNd_69
I0703 14:22:29.054399 28460 net.cpp:144] Setting up ConvNd_69
I0703 14:22:29.054406 28460 net.cpp:151] Top shape: 5 32 64 64 (655360)
I0703 14:22:29.054409 28460 net.cpp:159] Memory required for data: 2500853760
I0703 14:22:29.054414 28460 layer_factory.hpp:77] Creating layer BatchNorm_67
I0703 14:22:29.054419 28460 net.cpp:94] Creating Layer BatchNorm_67
I0703 14:22:29.054424 28460 net.cpp:435] BatchNorm_67 <- ConvNd_69
I0703 14:22:29.054430 28460 net.cpp:409] BatchNorm_67 -> BatchNorm_67
I0703 14:22:29.054919 28460 net.cpp:144] Setting up BatchNorm_67
I0703 14:22:29.054924 28460 net.cpp:151] Top shape: 5 32 64 64 (655360)
I0703 14:22:29.054929 28460 net.cpp:159] Memory required for data: 2503475200
I0703 14:22:29.054936 28460 layer_factory.hpp:77] Creating layer Threshold_87
I0703 14:22:29.054941 28460 net.cpp:94] Creating Layer Threshold_87
I0703 14:22:29.054945 28460 net.cpp:435] Threshold_87 <- BatchNorm_67
I0703 14:22:29.054950 28460 net.cpp:396] Threshold_87 -> BatchNorm_67 (in-place)
I0703 14:22:29.054956 28460 net.cpp:144] Setting up Threshold_87
I0703 14:22:29.054960 28460 net.cpp:151] Top shape: 5 32 64 64 (655360)
I0703 14:22:29.054962 28460 net.cpp:159] Memory required for data: 2506096640
I0703 14:22:29.054966 28460 layer_factory.hpp:77] Creating layer ConvNd_70
I0703 14:22:29.054973 28460 net.cpp:94] Creating Layer ConvNd_70
I0703 14:22:29.054976 28460 net.cpp:435] ConvNd_70 <- BatchNorm_67
I0703 14:22:29.054981 28460 net.cpp:409] ConvNd_70 -> ConvNd_70
I0703 14:22:29.055181 28460 net.cpp:144] Setting up ConvNd_70
I0703 14:22:29.055196 28460 net.cpp:151] Top shape: 5 128 64 64 (2621440)
I0703 14:22:29.055198 28460 net.cpp:159] Memory required for data: 2516582400
I0703 14:22:29.055202 28460 layer_factory.hpp:77] Creating layer BatchNorm_68
I0703 14:22:29.055209 28460 net.cpp:94] Creating Layer BatchNorm_68
I0703 14:22:29.055213 28460 net.cpp:435] BatchNorm_68 <- ConvNd_70
I0703 14:22:29.055218 28460 net.cpp:409] BatchNorm_68 -> BatchNorm_68
I0703 14:22:29.055653 28460 net.cpp:144] Setting up BatchNorm_68
I0703 14:22:29.055662 28460 net.cpp:151] Top shape: 5 128 64 64 (2621440)
I0703 14:22:29.055665 28460 net.cpp:159] Memory required for data: 2527068160
I0703 14:22:29.055675 28460 layer_factory.hpp:77] Creating layer Threshold_88
I0703 14:22:29.055680 28460 net.cpp:94] Creating Layer Threshold_88
I0703 14:22:29.055683 28460 net.cpp:435] Threshold_88 <- BatchNorm_68
I0703 14:22:29.055688 28460 net.cpp:396] Threshold_88 -> BatchNorm_68 (in-place)
I0703 14:22:29.055694 28460 net.cpp:144] Setting up Threshold_88
I0703 14:22:29.055698 28460 net.cpp:151] Top shape: 5 128 64 64 (2621440)
I0703 14:22:29.055701 28460 net.cpp:159] Memory required for data: 2537553920
I0703 14:22:29.055706 28460 layer_factory.hpp:77] Creating layer Add_21
I0703 14:22:29.055709 28460 net.cpp:94] Creating Layer Add_21
I0703 14:22:29.055713 28460 net.cpp:435] Add_21 <- Add_20_Threshold_84_0_split_1
I0703 14:22:29.055718 28460 net.cpp:435] Add_21 <- BatchNorm_68
I0703 14:22:29.055723 28460 net.cpp:409] Add_21 -> Add_21
I0703 14:22:29.055752 28460 net.cpp:144] Setting up Add_21
I0703 14:22:29.055763 28460 net.cpp:151] Top shape: 5 128 64 64 (2621440)
I0703 14:22:29.055768 28460 net.cpp:159] Memory required for data: 2548039680
I0703 14:22:29.055770 28460 layer_factory.hpp:77] Creating layer Threshold_89
I0703 14:22:29.055775 28460 net.cpp:94] Creating Layer Threshold_89
I0703 14:22:29.055779 28460 net.cpp:435] Threshold_89 <- Add_21
I0703 14:22:29.055784 28460 net.cpp:396] Threshold_89 -> Add_21 (in-place)
I0703 14:22:29.055789 28460 net.cpp:144] Setting up Threshold_89
I0703 14:22:29.055794 28460 net.cpp:151] Top shape: 5 128 64 64 (2621440)
I0703 14:22:29.055796 28460 net.cpp:159] Memory required for data: 2558525440
I0703 14:22:29.055800 28460 layer_factory.hpp:77] Creating layer Add_21_Threshold_89_0_split
I0703 14:22:29.055805 28460 net.cpp:94] Creating Layer Add_21_Threshold_89_0_split
I0703 14:22:29.055819 28460 net.cpp:435] Add_21_Threshold_89_0_split <- Add_21
I0703 14:22:29.055825 28460 net.cpp:409] Add_21_Threshold_89_0_split -> Add_21_Threshold_89_0_split_0
I0703 14:22:29.055832 28460 net.cpp:409] Add_21_Threshold_89_0_split -> Add_21_Threshold_89_0_split_1
I0703 14:22:29.055864 28460 net.cpp:144] Setting up Add_21_Threshold_89_0_split
I0703 14:22:29.055871 28460 net.cpp:151] Top shape: 5 128 64 64 (2621440)
I0703 14:22:29.055876 28460 net.cpp:151] Top shape: 5 128 64 64 (2621440)
I0703 14:22:29.055878 28460 net.cpp:159] Memory required for data: 2579496960
I0703 14:22:29.055881 28460 layer_factory.hpp:77] Creating layer ConvNd_71
I0703 14:22:29.055889 28460 net.cpp:94] Creating Layer ConvNd_71
I0703 14:22:29.055893 28460 net.cpp:435] ConvNd_71 <- Add_21_Threshold_89_0_split_0
I0703 14:22:29.055900 28460 net.cpp:409] ConvNd_71 -> ConvNd_71
I0703 14:22:29.056099 28460 net.cpp:144] Setting up ConvNd_71
I0703 14:22:29.056107 28460 net.cpp:151] Top shape: 5 32 64 64 (655360)
I0703 14:22:29.056110 28460 net.cpp:159] Memory required for data: 2582118400
I0703 14:22:29.056115 28460 layer_factory.hpp:77] Creating layer BatchNorm_69
I0703 14:22:29.056123 28460 net.cpp:94] Creating Layer BatchNorm_69
I0703 14:22:29.056125 28460 net.cpp:435] BatchNorm_69 <- ConvNd_71
I0703 14:22:29.056131 28460 net.cpp:409] BatchNorm_69 -> BatchNorm_69
I0703 14:22:29.056613 28460 net.cpp:144] Setting up BatchNorm_69
I0703 14:22:29.056620 28460 net.cpp:151] Top shape: 5 32 64 64 (655360)
I0703 14:22:29.056623 28460 net.cpp:159] Memory required for data: 2584739840
I0703 14:22:29.056632 28460 layer_factory.hpp:77] Creating layer Threshold_90
I0703 14:22:29.056638 28460 net.cpp:94] Creating Layer Threshold_90
I0703 14:22:29.056641 28460 net.cpp:435] Threshold_90 <- BatchNorm_69
I0703 14:22:29.056646 28460 net.cpp:396] Threshold_90 -> BatchNorm_69 (in-place)
I0703 14:22:29.056653 28460 net.cpp:144] Setting up Threshold_90
I0703 14:22:29.056656 28460 net.cpp:151] Top shape: 5 32 64 64 (655360)
I0703 14:22:29.056659 28460 net.cpp:159] Memory required for data: 2587361280
I0703 14:22:29.056663 28460 layer_factory.hpp:77] Creating layer ConvNd_72
I0703 14:22:29.056669 28460 net.cpp:94] Creating Layer ConvNd_72
I0703 14:22:29.056674 28460 net.cpp:435] ConvNd_72 <- BatchNorm_69
I0703 14:22:29.056679 28460 net.cpp:409] ConvNd_72 -> ConvNd_72
I0703 14:22:29.060159 28460 net.cpp:144] Setting up ConvNd_72
I0703 14:22:29.060176 28460 net.cpp:151] Top shape: 5 32 64 64 (655360)
I0703 14:22:29.060180 28460 net.cpp:159] Memory required for data: 2589982720
I0703 14:22:29.060187 28460 layer_factory.hpp:77] Creating layer BatchNorm_70
I0703 14:22:29.060197 28460 net.cpp:94] Creating Layer BatchNorm_70
I0703 14:22:29.060202 28460 net.cpp:435] BatchNorm_70 <- ConvNd_72
I0703 14:22:29.060210 28460 net.cpp:409] BatchNorm_70 -> BatchNorm_70
I0703 14:22:29.060714 28460 net.cpp:144] Setting up BatchNorm_70
I0703 14:22:29.060724 28460 net.cpp:151] Top shape: 5 32 64 64 (655360)
I0703 14:22:29.060726 28460 net.cpp:159] Memory required for data: 2592604160
I0703 14:22:29.060739 28460 layer_factory.hpp:77] Creating layer Threshold_91
I0703 14:22:29.060747 28460 net.cpp:94] Creating Layer Threshold_91
I0703 14:22:29.060752 28460 net.cpp:435] Threshold_91 <- BatchNorm_70
I0703 14:22:29.060758 28460 net.cpp:396] Threshold_91 -> BatchNorm_70 (in-place)
I0703 14:22:29.060766 28460 net.cpp:144] Setting up Threshold_91
I0703 14:22:29.060770 28460 net.cpp:151] Top shape: 5 32 64 64 (655360)
I0703 14:22:29.060773 28460 net.cpp:159] Memory required for data: 2595225600
I0703 14:22:29.060776 28460 layer_factory.hpp:77] Creating layer ConvNd_73
I0703 14:22:29.060784 28460 net.cpp:94] Creating Layer ConvNd_73
I0703 14:22:29.060787 28460 net.cpp:435] ConvNd_73 <- BatchNorm_70
I0703 14:22:29.060792 28460 net.cpp:409] ConvNd_73 -> ConvNd_73
I0703 14:22:29.061002 28460 net.cpp:144] Setting up ConvNd_73
I0703 14:22:29.061012 28460 net.cpp:151] Top shape: 5 128 64 64 (2621440)
I0703 14:22:29.061014 28460 net.cpp:159] Memory required for data: 2605711360
I0703 14:22:29.061031 28460 layer_factory.hpp:77] Creating layer BatchNorm_71
I0703 14:22:29.061038 28460 net.cpp:94] Creating Layer BatchNorm_71
I0703 14:22:29.061043 28460 net.cpp:435] BatchNorm_71 <- ConvNd_73
I0703 14:22:29.061048 28460 net.cpp:409] BatchNorm_71 -> BatchNorm_71
I0703 14:22:29.061503 28460 net.cpp:144] Setting up BatchNorm_71
I0703 14:22:29.061511 28460 net.cpp:151] Top shape: 5 128 64 64 (2621440)
I0703 14:22:29.061514 28460 net.cpp:159] Memory required for data: 2616197120
I0703 14:22:29.061522 28460 layer_factory.hpp:77] Creating layer Threshold_92
I0703 14:22:29.061527 28460 net.cpp:94] Creating Layer Threshold_92
I0703 14:22:29.061532 28460 net.cpp:435] Threshold_92 <- BatchNorm_71
I0703 14:22:29.061537 28460 net.cpp:396] Threshold_92 -> BatchNorm_71 (in-place)
I0703 14:22:29.061542 28460 net.cpp:144] Setting up Threshold_92
I0703 14:22:29.061547 28460 net.cpp:151] Top shape: 5 128 64 64 (2621440)
I0703 14:22:29.061550 28460 net.cpp:159] Memory required for data: 2626682880
I0703 14:22:29.061554 28460 layer_factory.hpp:77] Creating layer Add_22
I0703 14:22:29.061559 28460 net.cpp:94] Creating Layer Add_22
I0703 14:22:29.061563 28460 net.cpp:435] Add_22 <- Add_21_Threshold_89_0_split_1
I0703 14:22:29.061568 28460 net.cpp:435] Add_22 <- BatchNorm_71
I0703 14:22:29.061573 28460 net.cpp:409] Add_22 -> Add_22
I0703 14:22:29.061594 28460 net.cpp:144] Setting up Add_22
I0703 14:22:29.061600 28460 net.cpp:151] Top shape: 5 128 64 64 (2621440)
I0703 14:22:29.061604 28460 net.cpp:159] Memory required for data: 2637168640
I0703 14:22:29.061606 28460 layer_factory.hpp:77] Creating layer Threshold_93
I0703 14:22:29.061611 28460 net.cpp:94] Creating Layer Threshold_93
I0703 14:22:29.061614 28460 net.cpp:435] Threshold_93 <- Add_22
I0703 14:22:29.061619 28460 net.cpp:396] Threshold_93 -> Add_22 (in-place)
I0703 14:22:29.061625 28460 net.cpp:144] Setting up Threshold_93
I0703 14:22:29.061630 28460 net.cpp:151] Top shape: 5 128 64 64 (2621440)
I0703 14:22:29.061632 28460 net.cpp:159] Memory required for data: 2647654400
I0703 14:22:29.061635 28460 layer_factory.hpp:77] Creating layer deconv_encoder6_0_0
I0703 14:22:29.061643 28460 net.cpp:94] Creating Layer deconv_encoder6_0_0
I0703 14:22:29.061646 28460 net.cpp:435] deconv_encoder6_0_0 <- Add_22
I0703 14:22:29.061651 28460 net.cpp:409] deconv_encoder6_0_0 -> deconv_encoder6_0_0
I0703 14:22:29.064080 28460 net.cpp:144] Setting up deconv_encoder6_0_0
I0703 14:22:29.064095 28460 net.cpp:151] Top shape: 5 19 512 512 (24903680)
I0703 14:22:29.064097 28460 net.cpp:159] Memory required for data: 2747269120
I0703 14:22:29.064105 28460 layer_factory.hpp:77] Creating layer deconv_encoder6_0_0_deconv_encoder6_0_0_0_split
I0703 14:22:29.064111 28460 net.cpp:94] Creating Layer deconv_encoder6_0_0_deconv_encoder6_0_0_0_split
I0703 14:22:29.064116 28460 net.cpp:435] deconv_encoder6_0_0_deconv_encoder6_0_0_0_split <- deconv_encoder6_0_0
I0703 14:22:29.064121 28460 net.cpp:409] deconv_encoder6_0_0_deconv_encoder6_0_0_0_split -> deconv_encoder6_0_0_deconv_encoder6_0_0_0_split_0
I0703 14:22:29.064129 28460 net.cpp:409] deconv_encoder6_0_0_deconv_encoder6_0_0_0_split -> deconv_encoder6_0_0_deconv_encoder6_0_0_0_split_1
I0703 14:22:29.064165 28460 net.cpp:144] Setting up deconv_encoder6_0_0_deconv_encoder6_0_0_0_split
I0703 14:22:29.064172 28460 net.cpp:151] Top shape: 5 19 512 512 (24903680)
I0703 14:22:29.064177 28460 net.cpp:151] Top shape: 5 19 512 512 (24903680)
I0703 14:22:29.064179 28460 net.cpp:159] Memory required for data: 2946498560
I0703 14:22:29.064183 28460 layer_factory.hpp:77] Creating layer score
I0703 14:22:29.064190 28460 net.cpp:94] Creating Layer score
I0703 14:22:29.064193 28460 net.cpp:435] score <- deconv_encoder6_0_0_deconv_encoder6_0_0_0_split_0
I0703 14:22:29.064198 28460 net.cpp:435] score <- label_data_1_split_0
I0703 14:22:29.064204 28460 net.cpp:409] score -> score
I0703 14:22:29.064216 28460 layer_factory.hpp:77] Creating layer score
I0703 14:22:29.106638 28460 net.cpp:144] Setting up score
I0703 14:22:29.106688 28460 net.cpp:151] Top shape: (1)
I0703 14:22:29.106691 28460 net.cpp:154]     with loss weight 1
I0703 14:22:29.106712 28460 net.cpp:159] Memory required for data: 2946498564
I0703 14:22:29.106719 28460 layer_factory.hpp:77] Creating layer accuracy
I0703 14:22:29.106735 28460 net.cpp:94] Creating Layer accuracy
I0703 14:22:29.106741 28460 net.cpp:435] accuracy <- deconv_encoder6_0_0_deconv_encoder6_0_0_0_split_1
I0703 14:22:29.106748 28460 net.cpp:435] accuracy <- label_data_1_split_1
I0703 14:22:29.106755 28460 net.cpp:409] accuracy -> accuracy
I0703 14:22:29.106766 28460 net.cpp:409] accuracy -> per_class_accuracy
I0703 14:22:29.106806 28460 net.cpp:144] Setting up accuracy
I0703 14:22:29.106813 28460 net.cpp:151] Top shape: (1)
I0703 14:22:29.106817 28460 net.cpp:151] Top shape: 19 (19)
I0703 14:22:29.106820 28460 net.cpp:159] Memory required for data: 2946498644
I0703 14:22:29.106823 28460 net.cpp:222] accuracy does not need backward computation.
I0703 14:22:29.106832 28460 net.cpp:220] score needs backward computation.
I0703 14:22:29.106837 28460 net.cpp:220] deconv_encoder6_0_0_deconv_encoder6_0_0_0_split needs backward computation.
I0703 14:22:29.106839 28460 net.cpp:220] deconv_encoder6_0_0 needs backward computation.
…
