…
layer {
  name: "data"
  type: "ImageData"
  top: "data"
  top: "label"
  include {
    phase: TRAIN
  }
  transform_param {
    scale: 0.022
    mean_value: 73
    mean_value: 82
    mean_value: 72
    resize_param {
      prob: 1
      resize_mode: WARP
      height: 512
      width: 1024
    }
  }
  image_data_param {
    source: "/workspace/Segment/VAI/data/cityscapes/calibration.txt"
    batch_size: 1
    shuffle: true
    new_height: 512
    new_width: 1024
    root_folder: "/workspace/Segment/VAI/data/cityscapes/calibration_images/"
  }
}
layer {
  name: "ConvNd_1"
  type: "Convolution"
  bottom: "data"
  top: "ConvNd_1"
  convolution_param {
    num_output: 13
    bias_term: false
    pad: 1
    kernel_size: 3
    group: 1
    stride: 2
    dilation: 1
  }
}
layer {
  name: "MaxPool2d_1"
  type: "Pooling"
  bottom: "data"
  top: "MaxPool2d_1"
  pooling_param {
    pool: MAX
    kernel_size: 3
    stride: 2
    pad: 0
  }
}
layer {
  name: "Concat_1"
  type: "Concat"
  bottom: "ConvNd_1"
  bottom: "MaxPool2d_1"
  top: "Concat_1"
  concat_param {
    axis: 1
  }
}
layer {
  name: "BatchNorm_1"
  type: "BatchNorm"
  bottom: "Concat_1"
  top: "BatchNorm_1"
  param {
    lr_mult: 1
    decay_mult: 0
  }
  param {
    lr_mult: 1
    decay_mult: 0
  }
  param {
    lr_mult: 0
    decay_mult: 0
  }
  param {
    lr_mult: 0
    decay_mult: 0
  }
  batch_norm_param {
    use_global_stats: false
    eps: 1e-05
    scale_filler {
      type: "constant"
      value: 1
    }
    bias_filler {
      type: "constant"
      value: 0
    }
  }
}
layer {
  name: "Threshold_1"
  type: "ReLU"
  bottom: "BatchNorm_1"
  top: "BatchNorm_1"
}
layer {
  name: "MaxPool2d_2"
  type: "Pooling"
  bottom: "BatchNorm_1"
  top: "MaxPool2d_2"
  pooling_param {
    pool: MAX
    kernel_size: 3
    stride: 2
    pad: 0
  }
}
layer {
  name: "ConvNd_2"
  type: "Convolution"
  bottom: "MaxPool2d_2"
  top: "ConvNd_2"
  convolution_param {
    num_output: 64
    bias_term: false
    pad: 0
    kernel_size: 1
    group: 1
    stride: 1
    dilation: 1
  }
}
layer {
  name: "ConvNd_3"
  type: "Convolution"
  bottom: "BatchNorm_1"
  top: "ConvNd_3"
  convolution_param {
    num_output: 16
    bias_term: false
    pad: 0
    kernel_size: 2
    group: 1
    stride: 2
    dilation: 1
  }
}
layer {
  name: "BatchNorm_2"
  type: "BatchNorm"
  bottom: "ConvNd_3"
  top: "BatchNorm_2"
  param {
    lr_mult: 1
    decay_mult: 0
  }
  param {
    lr_mult: 1
    decay_mult: 0
  }
  param {
    lr_mult: 0
    decay_mult: 0
  }
  param {
    lr_mult: 0
    decay_mult: 0
  }
  batch_norm_param {
    use_global_stats: false
    eps: 1e-05
    scale_filler {
      type: "constant"
      value: 1
    }
    bias_filler {
      type: "constant"
      value: 0
    }
  }
}
layer {
  name: "Threshold_2"
  type: "ReLU"
  bottom: "BatchNorm_2"
  top: "BatchNorm_2"
}
layer {
  name: "ConvNd_4"
  type: "Convolution"
  bottom: "BatchNorm_2"
  top: "ConvNd_4"
  convolution_param {
    num_output: 16
    bias_term: false
    pad: 1
    kernel_size: 3
    group: 1
    stride: 1
    dilation: 1
  }
}
layer {
  name: "BatchNorm_3"
  type: "BatchNorm"
  bottom: "ConvNd_4"
  top: "BatchNorm_3"
  param {
    lr_mult: 1
    decay_mult: 0
  }
  param {
    lr_mult: 1
    decay_mult: 0
  }
  param {
    lr_mult: 0
    decay_mult: 0
  }
  param {
    lr_mult: 0
    decay_mult: 0
  }
  batch_norm_param {
    use_global_stats: false
    eps: 1e-05
    scale_filler {
      type: "constant"
      value: 1
    }
    bias_filler {
      type: "constant"
      value: 0
    }
  }
}
layer {
  name: "Threshold_3"
  type: "ReLU"
  bottom: "BatchNorm_3"
  top: "BatchNorm_3"
}
layer {
  name: "ConvNd_5"
  type: "Convolution"
  bottom: "BatchNorm_3"
  top: "ConvNd_5"
  convolution_param {
    num_output: 64
    bias_term: false
    pad: 0
    kernel_size: 1
    group: 1
    stride: 1
    dilation: 1
  }
}
layer {
  name: "BatchNorm_4"
  type: "BatchNorm"
  bottom: "ConvNd_5"
  top: "BatchNorm_4"
  param {
    lr_mult: 1
    decay_mult: 0
  }
  param {
    lr_mult: 1
    decay_mult: 0
  }
  param {
    lr_mult: 0
    decay_mult: 0
  }
  param {
    lr_mult: 0
    decay_mult: 0
  }
  batch_norm_param {
    use_global_stats: false
    eps: 1e-05
    scale_filler {
      type: "constant"
      value: 1
    }
    bias_filler {
      type: "constant"
      value: 0
    }
  }
}
layer {
  name: "Threshold_4"
  type: "ReLU"
  bottom: "BatchNorm_4"
  top: "BatchNorm_4"
}
layer {
  name: "Add_1"
  type: "Eltwise"
  bottom: "ConvNd_2"
  bottom: "BatchNorm_4"
  top: "Add_1"
}
layer {
  name: "Threshold_5"
  type: "ReLU"
  bottom: "Add_1"
  top: "Add_1"
}
layer {
  name: "ConvNd_6"
  type: "Convolution"
  bottom: "Add_1"
  top: "ConvNd_6"
  convolution_param {
    num_output: 16
    bias_term: false
    pad: 0
    kernel_size: 1
    group: 1
    stride: 1
    dilation: 1
  }
}
layer {
  name: "BatchNorm_5"
  type: "BatchNorm"
  bottom: "ConvNd_6"
  top: "BatchNorm_5"
  param {
    lr_mult: 1
    decay_mult: 0
  }
  param {
    lr_mult: 1
    decay_mult: 0
  }
  param {
    lr_mult: 0
    decay_mult: 0
  }
  param {
    lr_mult: 0
    decay_mult: 0
  }
  batch_norm_param {
    use_global_stats: false
    eps: 1e-05
    scale_filler {
      type: "constant"
      value: 1
    }
    bias_filler {
      type: "constant"
      value: 0
    }
  }
}
layer {
  name: "Threshold_6"
  type: "ReLU"
  bottom: "BatchNorm_5"
  top: "BatchNorm_5"
}
layer {
  name: "ConvNd_7"
  type: "Convolution"
  bottom: "BatchNorm_5"
  top: "ConvNd_7"
  convolution_param {
    num_output: 16
    bias_term: false
    pad: 1
    kernel_size: 3
    group: 1
    stride: 1
    dilation: 1
  }
}
layer {
  name: "BatchNorm_6"
  type: "BatchNorm"
  bottom: "ConvNd_7"
  top: "BatchNorm_6"
  param {
    lr_mult: 1
    decay_mult: 0
  }
  param {
    lr_mult: 1
    decay_mult: 0
  }
  param {
    lr_mult: 0
    decay_mult: 0
  }
  param {
    lr_mult: 0
    decay_mult: 0
  }
  batch_norm_param {
    use_global_stats: false
    eps: 1e-05
    scale_filler {
      type: "constant"
      value: 1
    }
    bias_filler {
      type: "constant"
      value: 0
    }
  }
}
layer {
  name: "Threshold_7"
  type: "ReLU"
  bottom: "BatchNorm_6"
  top: "BatchNorm_6"
}
layer {
  name: "ConvNd_8"
  type: "Convolution"
  bottom: "BatchNorm_6"
  top: "ConvNd_8"
  convolution_param {
    num_output: 64
    bias_term: false
    pad: 0
    kernel_size: 1
    group: 1
    stride: 1
    dilation: 1
  }
}
layer {
  name: "BatchNorm_7"
  type: "BatchNorm"
  bottom: "ConvNd_8"
  top: "BatchNorm_7"
  param {
    lr_mult: 1
    decay_mult: 0
  }
  param {
    lr_mult: 1
    decay_mult: 0
  }
  param {
    lr_mult: 0
    decay_mult: 0
  }
  param {
    lr_mult: 0
    decay_mult: 0
  }
  batch_norm_param {
    use_global_stats: false
    eps: 1e-05
    scale_filler {
      type: "constant"
      value: 1
    }
    bias_filler {
      type: "constant"
      value: 0
    }
  }
}
layer {
  name: "Threshold_8"
  type: "ReLU"
  bottom: "BatchNorm_7"
  top: "BatchNorm_7"
}
layer {
  name: "Add_2"
  type: "Eltwise"
  bottom: "Add_1"
  bottom: "BatchNorm_7"
  top: "Add_2"
}
layer {
  name: "Threshold_9"
  type: "ReLU"
  bottom: "Add_2"
  top: "Add_2"
}
layer {
  name: "ConvNd_9"
  type: "Convolution"
  bottom: "Add_2"
  top: "ConvNd_9"
  convolution_param {
    num_output: 16
    bias_term: false
    pad: 0
    kernel_size: 1
    group: 1
    stride: 1
    dilation: 1
  }
}
layer {
  name: "BatchNorm_8"
  type: "BatchNorm"
  bottom: "ConvNd_9"
  top: "BatchNorm_8"
  param {
    lr_mult: 1
    decay_mult: 0
  }
  param {
    lr_mult: 1
    decay_mult: 0
  }
  param {
    lr_mult: 0
    decay_mult: 0
  }
  param {
    lr_mult: 0
    decay_mult: 0
  }
  batch_norm_param {
    use_global_stats: false
    eps: 1e-05
    scale_filler {
      type: "constant"
      value: 1
    }
    bias_filler {
      type: "constant"
      value: 0
    }
  }
}
layer {
  name: "Threshold_10"
  type: "ReLU"
  bottom: "BatchNorm_8"
  top: "BatchNorm_8"
}
layer {
  name: "ConvNd_10"
  type: "Convolution"
  bottom: "BatchNorm_8"
  top: "ConvNd_10"
  convolution_param {
    num_output: 16
    bias_term: false
    pad: 1
    kernel_size: 3
    group: 1
    stride: 1
    dilation: 1
  }
}
layer {
  name: "BatchNorm_9"
  type: "BatchNorm"
  bottom: "ConvNd_10"
  top: "BatchNorm_9"
  param {
    lr_mult: 1
    decay_mult: 0
  }
  param {
    lr_mult: 1
    decay_mult: 0
  }
  param {
    lr_mult: 0
    decay_mult: 0
  }
  param {
    lr_mult: 0
    decay_mult: 0
  }
  batch_norm_param {
    use_global_stats: false
    eps: 1e-05
    scale_filler {
      type: "constant"
      value: 1
    }
    bias_filler {
      type: "constant"
      value: 0
    }
  }
}
layer {
  name: "Threshold_11"
  type: "ReLU"
  bottom: "BatchNorm_9"
  top: "BatchNorm_9"
}
layer {
  name: "ConvNd_11"
  type: "Convolution"
  bottom: "BatchNorm_9"
  top: "ConvNd_11"
  convolution_param {
    num_output: 64
    bias_term: false
    pad: 0
    kernel_size: 1
    group: 1
    stride: 1
    dilation: 1
  }
}
layer {
  name: "BatchNorm_10"
  type: "BatchNorm"
  bottom: "ConvNd_11"
  top: "BatchNorm_10"
  param {
    lr_mult: 1
    decay_mult: 0
  }
  param {
    lr_mult: 1
    decay_mult: 0
  }
  param {
    lr_mult: 0
    decay_mult: 0
  }
  param {
    lr_mult: 0
    decay_mult: 0
  }
  batch_norm_param {
    use_global_stats: false
    eps: 1e-05
    scale_filler {
      type: "constant"
      value: 1
    }
    bias_filler {
      type: "constant"
      value: 0
    }
  }
}
layer {
  name: "Threshold_12"
  type: "ReLU"
  bottom: "BatchNorm_10"
  top: "BatchNorm_10"
}
layer {
  name: "Add_3"
  type: "Eltwise"
  bottom: "Add_2"
  bottom: "BatchNorm_10"
  top: "Add_3"
}
layer {
  name: "Threshold_13"
  type: "ReLU"
  bottom: "Add_3"
  top: "Add_3"
}
layer {
  name: "ConvNd_12"
  type: "Convolution"
  bottom: "Add_3"
  top: "ConvNd_12"
  convolution_param {
    num_output: 16
    bias_term: false
    pad: 0
    kernel_size: 1
    group: 1
    stride: 1
    dilation: 1
  }
}
layer {
  name: "BatchNorm_11"
  type: "BatchNorm"
  bottom: "ConvNd_12"
  top: "BatchNorm_11"
  param {
    lr_mult: 1
    decay_mult: 0
  }
  param {
    lr_mult: 1
    decay_mult: 0
  }
  param {
    lr_mult: 0
    decay_mult: 0
  }
  param {
    lr_mult: 0
    decay_mult: 0
  }
  batch_norm_param {
    use_global_stats: false
    eps: 1e-05
    scale_filler {
      type: "constant"
      value: 1
    }
    bias_filler {
      type: "constant"
      value: 0
    }
  }
}
layer {
  name: "Threshold_14"
  type: "ReLU"
  bottom: "BatchNorm_11"
  top: "BatchNorm_11"
}
layer {
  name: "ConvNd_13"
  type: "Convolution"
  bottom: "BatchNorm_11"
  top: "ConvNd_13"
  convolution_param {
    num_output: 16
    bias_term: false
    pad: 1
    kernel_size: 3
    group: 1
    stride: 1
    dilation: 1
  }
}
layer {
  name: "BatchNorm_12"
  type: "BatchNorm"
  bottom: "ConvNd_13"
  top: "BatchNorm_12"
  param {
    lr_mult: 1
    decay_mult: 0
  }
  param {
    lr_mult: 1
    decay_mult: 0
  }
  param {
    lr_mult: 0
    decay_mult: 0
  }
  param {
    lr_mult: 0
    decay_mult: 0
  }
  batch_norm_param {
    use_global_stats: false
    eps: 1e-05
    scale_filler {
      type: "constant"
      value: 1
    }
    bias_filler {
      type: "constant"
      value: 0
    }
  }
}
layer {
  name: "Threshold_15"
  type: "ReLU"
  bottom: "BatchNorm_12"
  top: "BatchNorm_12"
}
layer {
  name: "ConvNd_14"
  type: "Convolution"
  bottom: "BatchNorm_12"
  top: "ConvNd_14"
  convolution_param {
    num_output: 64
    bias_term: false
    pad: 0
    kernel_size: 1
    group: 1
    stride: 1
    dilation: 1
  }
}
layer {
  name: "BatchNorm_13"
  type: "BatchNorm"
  bottom: "ConvNd_14"
  top: "BatchNorm_13"
  param {
    lr_mult: 1
    decay_mult: 0
  }
  param {
    lr_mult: 1
    decay_mult: 0
  }
  param {
    lr_mult: 0
    decay_mult: 0
  }
  param {
    lr_mult: 0
    decay_mult: 0
  }
  batch_norm_param {
    use_global_stats: false
    eps: 1e-05
    scale_filler {
      type: "constant"
      value: 1
    }
    bias_filler {
      type: "constant"
      value: 0
    }
  }
}
layer {
  name: "Threshold_16"
  type: "ReLU"
  bottom: "BatchNorm_13"
  top: "BatchNorm_13"
}
layer {
  name: "Add_4"
  type: "Eltwise"
  bottom: "Add_3"
  bottom: "BatchNorm_13"
  top: "Add_4"
}
layer {
  name: "Threshold_17"
  type: "ReLU"
  bottom: "Add_4"
  top: "Add_4"
}
layer {
  name: "ConvNd_15"
  type: "Convolution"
  bottom: "Add_4"
  top: "ConvNd_15"
  convolution_param {
    num_output: 16
    bias_term: false
    pad: 0
    kernel_size: 1
    group: 1
    stride: 1
    dilation: 1
  }
}
layer {
  name: "BatchNorm_14"
  type: "BatchNorm"
  bottom: "ConvNd_15"
  top: "BatchNorm_14"
  param {
    lr_mult: 1
    decay_mult: 0
  }
  param {
    lr_mult: 1
    decay_mult: 0
  }
  param {
    lr_mult: 0
    decay_mult: 0
  }
  param {
    lr_mult: 0
    decay_mult: 0
  }
  batch_norm_param {
    use_global_stats: false
    eps: 1e-05
    scale_filler {
      type: "constant"
      value: 1
    }
    bias_filler {
      type: "constant"
      value: 0
    }
  }
}
layer {
  name: "Threshold_18"
  type: "ReLU"
  bottom: "BatchNorm_14"
  top: "BatchNorm_14"
}
layer {
  name: "ConvNd_16"
  type: "Convolution"
  bottom: "BatchNorm_14"
  top: "ConvNd_16"
  convolution_param {
    num_output: 16
    bias_term: false
    pad: 1
    kernel_size: 3
    group: 1
    stride: 1
    dilation: 1
  }
}
layer {
  name: "BatchNorm_15"
  type: "BatchNorm"
  bottom: "ConvNd_16"
  top: "BatchNorm_15"
  param {
    lr_mult: 1
    decay_mult: 0
  }
  param {
    lr_mult: 1
    decay_mult: 0
  }
  param {
    lr_mult: 0
    decay_mult: 0
  }
  param {
    lr_mult: 0
    decay_mult: 0
  }
  batch_norm_param {
    use_global_stats: false
    eps: 1e-05
    scale_filler {
      type: "constant"
      value: 1
    }
    bias_filler {
      type: "constant"
      value: 0
    }
  }
}
layer {
  name: "Threshold_19"
  type: "ReLU"
  bottom: "BatchNorm_15"
  top: "BatchNorm_15"
}
layer {
  name: "ConvNd_17"
  type: "Convolution"
  bottom: "BatchNorm_15"
  top: "ConvNd_17"
  convolution_param {
    num_output: 64
    bias_term: false
    pad: 0
    kernel_size: 1
    group: 1
    stride: 1
    dilation: 1
  }
}
layer {
  name: "BatchNorm_16"
  type: "BatchNorm"
  bottom: "ConvNd_17"
  top: "BatchNorm_16"
  param {
    lr_mult: 1
    decay_mult: 0
  }
  param {
    lr_mult: 1
    decay_mult: 0
  }
  param {
    lr_mult: 0
    decay_mult: 0
  }
  param {
    lr_mult: 0
    decay_mult: 0
  }
  batch_norm_param {
    use_global_stats: false
    eps: 1e-05
    scale_filler {
      type: "constant"
      value: 1
    }
    bias_filler {
      type: "constant"
      value: 0
    }
  }
}
layer {
  name: "Threshold_20"
  type: "ReLU"
  bottom: "BatchNorm_16"
  top: "BatchNorm_16"
}
layer {
  name: "Add_5"
  type: "Eltwise"
  bottom: "Add_4"
  bottom: "BatchNorm_16"
  top: "Add_5"
}
layer {
  name: "Threshold_21"
  type: "ReLU"
  bottom: "Add_5"
  top: "Add_5"
}
layer {
  name: "MaxPool2d_3"
  type: "Pooling"
  bottom: "Add_5"
  top: "MaxPool2d_3"
  pooling_param {
    pool: MAX
    kernel_size: 3
    stride: 2
    pad: 0
  }
}
layer {
  name: "ConvNd_18"
  type: "Convolution"
  bottom: "MaxPool2d_3"
  top: "ConvNd_18"
  convolution_param {
    num_output: 128
    bias_term: false
    pad: 0
    kernel_size: 1
    group: 1
    stride: 1
    dilation: 1
  }
}
layer {
  name: "ConvNd_19"
  type: "Convolution"
  bottom: "Add_5"
  top: "ConvNd_19"
  convolution_param {
    num_output: 32
    bias_term: false
    pad: 0
    kernel_size: 2
    group: 1
    stride: 2
    dilation: 1
  }
}
layer {
  name: "BatchNorm_17"
  type: "BatchNorm"
  bottom: "ConvNd_19"
  top: "BatchNorm_17"
  param {
    lr_mult: 1
    decay_mult: 0
  }
  param {
    lr_mult: 1
    decay_mult: 0
  }
  param {
    lr_mult: 0
    decay_mult: 0
  }
  param {
    lr_mult: 0
    decay_mult: 0
  }
  batch_norm_param {
    use_global_stats: false
    eps: 1e-05
    scale_filler {
      type: "constant"
      value: 1
    }
    bias_filler {
      type: "constant"
      value: 0
    }
  }
}
layer {
  name: "Threshold_22"
  type: "ReLU"
  bottom: "BatchNorm_17"
  top: "BatchNorm_17"
}
layer {
  name: "ConvNd_20"
  type: "Convolution"
  bottom: "BatchNorm_17"
  top: "ConvNd_20"
  convolution_param {
    num_output: 32
    bias_term: false
    pad: 1
    kernel_size: 3
    group: 1
    stride: 1
    dilation: 1
  }
}
layer {
  name: "BatchNorm_18"
  type: "BatchNorm"
  bottom: "ConvNd_20"
  top: "BatchNorm_18"
  param {
    lr_mult: 1
    decay_mult: 0
  }
  param {
    lr_mult: 1
    decay_mult: 0
  }
  param {
    lr_mult: 0
    decay_mult: 0
  }
  param {
    lr_mult: 0
    decay_mult: 0
  }
  batch_norm_param {
    use_global_stats: false
    eps: 1e-05
    scale_filler {
      type: "constant"
      value: 1
    }
    bias_filler {
      type: "constant"
      value: 0
    }
  }
}
layer {
  name: "Threshold_23"
  type: "ReLU"
  bottom: "BatchNorm_18"
  top: "BatchNorm_18"
}
layer {
  name: "ConvNd_21"
  type: "Convolution"
  bottom: "BatchNorm_18"
  top: "ConvNd_21"
  convolution_param {
    num_output: 128
    bias_term: false
    pad: 0
    kernel_size: 1
    group: 1
    stride: 1
    dilation: 1
  }
}
layer {
  name: "BatchNorm_19"
  type: "BatchNorm"
  bottom: "ConvNd_21"
  top: "BatchNorm_19"
  param {
    lr_mult: 1
    decay_mult: 0
  }
  param {
    lr_mult: 1
    decay_mult: 0
  }
  param {
    lr_mult: 0
    decay_mult: 0
  }
  param {
    lr_mult: 0
    decay_mult: 0
  }
  batch_norm_param {
    use_global_stats: false
    eps: 1e-05
    scale_filler {
      type: "constant"
      value: 1
    }
    bias_filler {
      type: "constant"
      value: 0
    }
  }
}
layer {
  name: "Threshold_24"
  type: "ReLU"
  bottom: "BatchNorm_19"
  top: "BatchNorm_19"
}
layer {
  name: "Add_6"
  type: "Eltwise"
  bottom: "ConvNd_18"
  bottom: "BatchNorm_19"
  top: "Add_6"
}
layer {
  name: "Threshold_25"
  type: "ReLU"
  bottom: "Add_6"
  top: "Add_6"
}
layer {
  name: "ConvNd_22"
  type: "Convolution"
  bottom: "Add_6"
  top: "ConvNd_22"
  convolution_param {
    num_output: 32
    bias_term: false
    pad: 0
    kernel_size: 1
    group: 1
    stride: 1
    dilation: 1
  }
}
layer {
  name: "BatchNorm_20"
  type: "BatchNorm"
  bottom: "ConvNd_22"
  top: "BatchNorm_20"
  param {
    lr_mult: 1
    decay_mult: 0
  }
  param {
    lr_mult: 1
    decay_mult: 0
  }
  param {
    lr_mult: 0
    decay_mult: 0
  }
  param {
    lr_mult: 0
    decay_mult: 0
  }
  batch_norm_param {
    use_global_stats: false
    eps: 1e-05
    scale_filler {
      type: "constant"
      value: 1
    }
    bias_filler {
      type: "constant"
      value: 0
    }
  }
}
layer {
  name: "Threshold_26"
  type: "ReLU"
  bottom: "BatchNorm_20"
  top: "BatchNorm_20"
}
layer {
  name: "ConvNd_23"
  type: "Convolution"
  bottom: "BatchNorm_20"
  top: "ConvNd_23"
  convolution_param {
    num_output: 32
    bias_term: false
    pad: 1
    kernel_size: 3
    group: 1
    stride: 1
    dilation: 1
  }
}
layer {
  name: "BatchNorm_21"
  type: "BatchNorm"
  bottom: "ConvNd_23"
  top: "BatchNorm_21"
  param {
    lr_mult: 1
    decay_mult: 0
  }
  param {
    lr_mult: 1
    decay_mult: 0
  }
  param {
    lr_mult: 0
    decay_mult: 0
  }
  param {
    lr_mult: 0
    decay_mult: 0
  }
  batch_norm_param {
    use_global_stats: false
    eps: 1e-05
    scale_filler {
      type: "constant"
      value: 1
    }
    bias_filler {
      type: "constant"
      value: 0
    }
  }
}
layer {
  name: "Threshold_27"
  type: "ReLU"
  bottom: "BatchNorm_21"
  top: "BatchNorm_21"
}
layer {
  name: "ConvNd_24"
  type: "Convolution"
  bottom: "BatchNorm_21"
  top: "ConvNd_24"
  convolution_param {
    num_output: 128
    bias_term: false
    pad: 0
    kernel_size: 1
    group: 1
    stride: 1
    dilation: 1
  }
}
layer {
  name: "BatchNorm_22"
  type: "BatchNorm"
  bottom: "ConvNd_24"
  top: "BatchNorm_22"
  param {
    lr_mult: 1
    decay_mult: 0
  }
  param {
    lr_mult: 1
    decay_mult: 0
  }
  param {
    lr_mult: 0
    decay_mult: 0
  }
  param {
    lr_mult: 0
    decay_mult: 0
  }
  batch_norm_param {
    use_global_stats: false
    eps: 1e-05
    scale_filler {
      type: "constant"
      value: 1
    }
    bias_filler {
      type: "constant"
      value: 0
    }
  }
}
layer {
  name: "Threshold_28"
  type: "ReLU"
  bottom: "BatchNorm_22"
  top: "BatchNorm_22"
}
layer {
  name: "Add_7"
  type: "Eltwise"
  bottom: "Add_6"
  bottom: "BatchNorm_22"
  top: "Add_7"
}
layer {
  name: "Threshold_29"
  type: "ReLU"
  bottom: "Add_7"
  top: "Add_7"
}
layer {
  name: "ConvNd_25"
  type: "Convolution"
  bottom: "Add_7"
  top: "ConvNd_25"
  convolution_param {
    num_output: 32
    bias_term: false
    pad: 0
    kernel_size: 1
    group: 1
    stride: 1
    dilation: 1
  }
}
layer {
  name: "BatchNorm_23"
  type: "BatchNorm"
  bottom: "ConvNd_25"
  top: "BatchNorm_23"
  param {
    lr_mult: 1
    decay_mult: 0
  }
  param {
    lr_mult: 1
    decay_mult: 0
  }
  param {
    lr_mult: 0
    decay_mult: 0
  }
  param {
    lr_mult: 0
    decay_mult: 0
  }
  batch_norm_param {
    use_global_stats: false
    eps: 1e-05
    scale_filler {
      type: "constant"
      value: 1
    }
    bias_filler {
      type: "constant"
      value: 0
    }
  }
}
layer {
  name: "Threshold_30"
  type: "ReLU"
  bottom: "BatchNorm_23"
  top: "BatchNorm_23"
}
layer {
  name: "ConvNd_26"
  type: "Convolution"
  bottom: "BatchNorm_23"
  top: "ConvNd_26"
  convolution_param {
    num_output: 32
    bias_term: false
    pad: 2
    kernel_size: 3
    group: 1
    stride: 1
    dilation: 2
  }
}
layer {
  name: "BatchNorm_24"
  type: "BatchNorm"
  bottom: "ConvNd_26"
  top: "BatchNorm_24"
  param {
    lr_mult: 1
    decay_mult: 0
  }
  param {
    lr_mult: 1
    decay_mult: 0
  }
  param {
    lr_mult: 0
    decay_mult: 0
  }
  param {
    lr_mult: 0
    decay_mult: 0
  }
  batch_norm_param {
    use_global_stats: false
    eps: 1e-05
    scale_filler {
      type: "constant"
      value: 1
    }
    bias_filler {
      type: "constant"
      value: 0
    }
  }
}
layer {
  name: "Threshold_31"
  type: "ReLU"
  bottom: "BatchNorm_24"
  top: "BatchNorm_24"
}
layer {
  name: "ConvNd_27"
  type: "Convolution"
  bottom: "BatchNorm_24"
  top: "ConvNd_27"
  convolution_param {
    num_output: 128
    bias_term: false
    pad: 0
    kernel_size: 1
    group: 1
    stride: 1
    dilation: 1
  }
}
layer {
  name: "BatchNorm_25"
  type: "BatchNorm"
  bottom: "ConvNd_27"
  top: "BatchNorm_25"
  param {
    lr_mult: 1
    decay_mult: 0
  }
  param {
    lr_mult: 1
    decay_mult: 0
  }
  param {
    lr_mult: 0
    decay_mult: 0
  }
  param {
    lr_mult: 0
    decay_mult: 0
  }
  batch_norm_param {
    use_global_stats: false
    eps: 1e-05
    scale_filler {
      type: "constant"
      value: 1
    }
    bias_filler {
      type: "constant"
      value: 0
    }
  }
}
layer {
  name: "Threshold_32"
  type: "ReLU"
  bottom: "BatchNorm_25"
  top: "BatchNorm_25"
}
layer {
  name: "Add_8"
  type: "Eltwise"
  bottom: "Add_7"
  bottom: "BatchNorm_25"
  top: "Add_8"
}
layer {
  name: "Threshold_33"
  type: "ReLU"
  bottom: "Add_8"
  top: "Add_8"
}
layer {
  name: "ConvNd_28"
  type: "Convolution"
  bottom: "Add_8"
  top: "ConvNd_28"
  convolution_param {
    num_output: 32
    bias_term: false
    pad: 0
    kernel_size: 1
    group: 1
    stride: 1
    dilation: 1
  }
}
layer {
  name: "BatchNorm_26"
  type: "BatchNorm"
  bottom: "ConvNd_28"
  top: "BatchNorm_26"
  param {
    lr_mult: 1
    decay_mult: 0
  }
  param {
    lr_mult: 1
    decay_mult: 0
  }
  param {
    lr_mult: 0
    decay_mult: 0
  }
  param {
    lr_mult: 0
    decay_mult: 0
  }
  batch_norm_param {
    use_global_stats: false
    eps: 1e-05
    scale_filler {
      type: "constant"
      value: 1
    }
    bias_filler {
      type: "constant"
      value: 0
    }
  }
}
layer {
  name: "Threshold_34"
  type: "ReLU"
  bottom: "BatchNorm_26"
  top: "BatchNorm_26"
}
layer {
  name: "ConvNd_29"
  type: "Convolution"
  bottom: "BatchNorm_26"
  top: "ConvNd_29"
  convolution_param {
    num_output: 32
    bias_term: false
    group: 1
    stride: 1
    pad_h: 2
    pad_w: 0
    kernel_h: 5
    kernel_w: 1
    dilation: 1
  }
}
layer {
  name: "BatchNorm_27"
  type: "BatchNorm"
  bottom: "ConvNd_29"
  top: "BatchNorm_27"
  param {
    lr_mult: 1
    decay_mult: 0
  }
  param {
    lr_mult: 1
    decay_mult: 0
  }
  param {
    lr_mult: 0
    decay_mult: 0
  }
  param {
    lr_mult: 0
    decay_mult: 0
  }
  batch_norm_param {
    use_global_stats: false
    eps: 1e-05
    scale_filler {
      type: "constant"
      value: 1
    }
    bias_filler {
      type: "constant"
      value: 0
    }
  }
}
layer {
  name: "Threshold_35"
  type: "ReLU"
  bottom: "BatchNorm_27"
  top: "BatchNorm_27"
}
layer {
  name: "ConvNd_30"
  type: "Convolution"
  bottom: "BatchNorm_27"
  top: "ConvNd_30"
  convolution_param {
    num_output: 32
    bias_term: false
    group: 1
    stride: 1
    pad_h: 0
    pad_w: 2
    kernel_h: 1
    kernel_w: 5
    dilation: 1
  }
}
layer {
  name: "BatchNorm_28"
  type: "BatchNorm"
  bottom: "ConvNd_30"
  top: "BatchNorm_28"
  param {
    lr_mult: 1
    decay_mult: 0
  }
  param {
    lr_mult: 1
    decay_mult: 0
  }
  param {
    lr_mult: 0
    decay_mult: 0
  }
  param {
    lr_mult: 0
    decay_mult: 0
  }
  batch_norm_param {
    use_global_stats: false
    eps: 1e-05
    scale_filler {
      type: "constant"
      value: 1
    }
    bias_filler {
      type: "constant"
      value: 0
    }
  }
}
layer {
  name: "Threshold_36"
  type: "ReLU"
  bottom: "BatchNorm_28"
  top: "BatchNorm_28"
}
layer {
  name: "ConvNd_31"
  type: "Convolution"
  bottom: "BatchNorm_28"
  top: "ConvNd_31"
  convolution_param {
    num_output: 128
    bias_term: false
    pad: 0
    kernel_size: 1
    group: 1
    stride: 1
    dilation: 1
  }
}
layer {
  name: "BatchNorm_29"
  type: "BatchNorm"
  bottom: "ConvNd_31"
  top: "BatchNorm_29"
  param {
    lr_mult: 1
    decay_mult: 0
  }
  param {
    lr_mult: 1
    decay_mult: 0
  }
  param {
    lr_mult: 0
    decay_mult: 0
  }
  param {
    lr_mult: 0
    decay_mult: 0
  }
  batch_norm_param {
    use_global_stats: false
    eps: 1e-05
    scale_filler {
      type: "constant"
      value: 1
    }
    bias_filler {
      type: "constant"
      value: 0
    }
  }
}
layer {
  name: "Threshold_37"
  type: "ReLU"
  bottom: "BatchNorm_29"
  top: "BatchNorm_29"
}
layer {
  name: "Add_9"
  type: "Eltwise"
  bottom: "Add_8"
  bottom: "BatchNorm_29"
  top: "Add_9"
}
layer {
  name: "Threshold_38"
  type: "ReLU"
  bottom: "Add_9"
  top: "Add_9"
}
layer {
  name: "ConvNd_32"
  type: "Convolution"
  bottom: "Add_9"
  top: "ConvNd_32"
  convolution_param {
    num_output: 32
    bias_term: false
    pad: 0
    kernel_size: 1
    group: 1
    stride: 1
    dilation: 1
  }
}
layer {
  name: "BatchNorm_30"
  type: "BatchNorm"
  bottom: "ConvNd_32"
  top: "BatchNorm_30"
  param {
    lr_mult: 1
    decay_mult: 0
  }
  param {
    lr_mult: 1
    decay_mult: 0
  }
  param {
    lr_mult: 0
    decay_mult: 0
  }
  param {
    lr_mult: 0
    decay_mult: 0
  }
  batch_norm_param {
    use_global_stats: false
    eps: 1e-05
    scale_filler {
      type: "constant"
      value: 1
    }
    bias_filler {
      type: "constant"
      value: 0
    }
  }
}
layer {
  name: "Threshold_39"
  type: "ReLU"
  bottom: "BatchNorm_30"
  top: "BatchNorm_30"
}
layer {
  name: "ConvNd_33"
  type: "Convolution"
  bottom: "BatchNorm_30"
  top: "ConvNd_33"
  convolution_param {
    num_output: 32
    bias_term: false
    pad: 4
    kernel_size: 3
    group: 1
    stride: 1
    dilation: 4
  }
}
layer {
  name: "BatchNorm_31"
  type: "BatchNorm"
  bottom: "ConvNd_33"
  top: "BatchNorm_31"
  param {
    lr_mult: 1
    decay_mult: 0
  }
  param {
    lr_mult: 1
    decay_mult: 0
  }
  param {
    lr_mult: 0
    decay_mult: 0
  }
  param {
    lr_mult: 0
    decay_mult: 0
  }
  batch_norm_param {
    use_global_stats: false
    eps: 1e-05
    scale_filler {
      type: "constant"
      value: 1
    }
    bias_filler {
      type: "constant"
      value: 0
    }
  }
}
layer {
  name: "Threshold_40"
  type: "ReLU"
  bottom: "BatchNorm_31"
  top: "BatchNorm_31"
}
layer {
  name: "ConvNd_34"
  type: "Convolution"
  bottom: "BatchNorm_31"
  top: "ConvNd_34"
  convolution_param {
    num_output: 128
    bias_term: false
    pad: 0
    kernel_size: 1
    group: 1
    stride: 1
    dilation: 1
  }
}
layer {
  name: "BatchNorm_32"
  type: "BatchNorm"
  bottom: "ConvNd_34"
  top: "BatchNorm_32"
  param {
    lr_mult: 1
    decay_mult: 0
  }
  param {
    lr_mult: 1
    decay_mult: 0
  }
  param {
    lr_mult: 0
    decay_mult: 0
  }
  param {
    lr_mult: 0
    decay_mult: 0
  }
  batch_norm_param {
    use_global_stats: false
    eps: 1e-05
    scale_filler {
      type: "constant"
      value: 1
    }
    bias_filler {
      type: "constant"
      value: 0
    }
  }
}
layer {
  name: "Threshold_41"
  type: "ReLU"
  bottom: "BatchNorm_32"
  top: "BatchNorm_32"
}
layer {
  name: "Add_10"
  type: "Eltwise"
  bottom: "Add_9"
  bottom: "BatchNorm_32"
  top: "Add_10"
}
layer {
  name: "Threshold_42"
  type: "ReLU"
  bottom: "Add_10"
  top: "Add_10"
}
layer {
  name: "ConvNd_35"
  type: "Convolution"
  bottom: "Add_10"
  top: "ConvNd_35"
  convolution_param {
    num_output: 32
    bias_term: false
    pad: 0
    kernel_size: 1
    group: 1
    stride: 1
    dilation: 1
  }
}
layer {
  name: "BatchNorm_33"
  type: "BatchNorm"
  bottom: "ConvNd_35"
  top: "BatchNorm_33"
  param {
    lr_mult: 1
    decay_mult: 0
  }
  param {
    lr_mult: 1
    decay_mult: 0
  }
  param {
    lr_mult: 0
    decay_mult: 0
  }
  param {
    lr_mult: 0
    decay_mult: 0
  }
  batch_norm_param {
    use_global_stats: false
    eps: 1e-05
    scale_filler {
      type: "constant
I0225 05:24:40.747412   118 layer_factory.hpp:123] Creating layer data
I0225 05:24:40.747439   118 net.cpp:140] Creating Layer data
I0225 05:24:40.747448   118 net.cpp:455] data -> data
I0225 05:24:40.747467   118 net.cpp:455] data -> label
I0225 05:24:40.747488   118 image_data_layer.cpp:87] Opening file /workspace/Segment/VAI/data/cityscapes/calibration.txt
I0225 05:24:40.748100   118 image_data_layer.cpp:97] Shuffling data
I0225 05:24:40.748204   118 image_data_layer.cpp:102] A total of 1000 images.
I0225 05:24:40.826511   118 image_data_layer.cpp:130] output data size: 1,3,512,1024
I0225 05:24:40.852782   118 internal_thread.cpp:73] Starting internal thread(s) on GPU 0
I0225 05:24:40.852891   118 net.cpp:190] Setting up data
I0225 05:24:40.852902   118 net.cpp:197] Top shape: 1 3 512 1024 (1572864)
I0225 05:24:40.852916   118 net.cpp:197] Top shape: 1 (1)
I0225 05:24:40.852923   118 net.cpp:205] Memory required for data: 6291460
I0225 05:24:40.852931   118 layer_factory.hpp:123] Creating layer data_data_0_split
I0225 05:24:40.853657   118 net.cpp:140] Creating Layer data_data_0_split
I0225 05:24:40.853670   118 net.cpp:481] data_data_0_split <- data
I0225 05:24:40.853685   118 net.cpp:455] data_data_0_split -> data_data_0_split_0
I0225 05:24:40.853703   118 net.cpp:455] data_data_0_split -> data_data_0_split_1
I0225 05:24:40.853746   118 net.cpp:190] Setting up data_data_0_split
I0225 05:24:40.853754   118 net.cpp:197] Top shape: 1 3 512 1024 (1572864)
I0225 05:24:40.853761   118 net.cpp:197] Top shape: 1 3 512 1024 (1572864)
I0225 05:24:40.853768   118 net.cpp:205] Memory required for data: 18874372
I0225 05:24:40.853773   118 layer_factory.hpp:123] Creating layer ConvNd_1
I0225 05:24:40.853793   118 net.cpp:140] Creating Layer ConvNd_1
I0225 05:24:40.853798   118 net.cpp:481] ConvNd_1 <- data_data_0_split_0
I0225 05:24:40.853806   118 net.cpp:455] ConvNd_1 -> ConvNd_1
I0225 05:24:40.855423   118 net.cpp:190] Setting up ConvNd_1
I0225 05:24:40.855435   118 net.cpp:197] Top shape: 1 13 256 512 (1703936)
I0225 05:24:40.855449   118 net.cpp:205] Memory required for data: 25690116
I0225 05:24:40.855474   118 layer_factory.hpp:123] Creating layer MaxPool2d_1
I0225 05:24:40.855492   118 net.cpp:140] Creating Layer MaxPool2d_1
I0225 05:24:40.855499   118 net.cpp:481] MaxPool2d_1 <- data_data_0_split_1
I0225 05:24:40.855506   118 net.cpp:455] MaxPool2d_1 -> MaxPool2d_1
I0225 05:24:40.855548   118 net.cpp:190] Setting up MaxPool2d_1
I0225 05:24:40.855554   118 net.cpp:197] Top shape: 1 3 256 512 (393216)
I0225 05:24:40.855561   118 net.cpp:205] Memory required for data: 27262980
I0225 05:24:40.855567   118 layer_factory.hpp:123] Creating layer Concat_1
I0225 05:24:40.855581   118 net.cpp:140] Creating Layer Concat_1
I0225 05:24:40.855585   118 net.cpp:481] Concat_1 <- ConvNd_1
I0225 05:24:40.855592   118 net.cpp:481] Concat_1 <- MaxPool2d_1
I0225 05:24:40.855599   118 net.cpp:455] Concat_1 -> Concat_1
I0225 05:24:40.855993   118 net.cpp:190] Setting up Concat_1
I0225 05:24:40.856017   118 net.cpp:197] Top shape: 1 16 256 512 (2097152)
I0225 05:24:40.856036   118 net.cpp:205] Memory required for data: 35651588
I0225 05:24:40.856048   118 layer_factory.hpp:123] Creating layer BatchNorm_1
I0225 05:24:40.856071   118 net.cpp:140] Creating Layer BatchNorm_1
I0225 05:24:40.856082   118 net.cpp:481] BatchNorm_1 <- Concat_1
I0225 05:24:40.856097   118 net.cpp:455] BatchNorm_1 -> BatchNorm_1
I0225 05:24:40.857563   118 net.cpp:190] Setting up BatchNorm_1
I0225 05:24:40.857583   118 net.cpp:197] Top shape: 1 16 256 512 (2097152)
I0225 05:24:40.857597   118 net.cpp:205] Memory required for data: 44040196
I0225 05:24:40.857627   118 layer_factory.hpp:123] Creating layer Threshold_1
I0225 05:24:40.857642   118 net.cpp:140] Creating Layer Threshold_1
I0225 05:24:40.857653   118 net.cpp:481] Threshold_1 <- BatchNorm_1
I0225 05:24:40.857667   118 net.cpp:442] Threshold_1 -> BatchNorm_1 (in-place)
I0225 05:24:40.857686   118 net.cpp:190] Setting up Threshold_1
I0225 05:24:40.857695   118 net.cpp:197] Top shape: 1 16 256 512 (2097152)
I0225 05:24:40.857712   118 net.cpp:205] Memory required for data: 52428804
I0225 05:24:40.857726   118 layer_factory.hpp:123] Creating layer BatchNorm_1_Threshold_1_0_split
I0225 05:24:40.857744   118 net.cpp:140] Creating Layer BatchNorm_1_Threshold_1_0_split
I0225 05:24:40.857760   118 net.cpp:481] BatchNorm_1_Threshold_1_0_split <- BatchNorm_1
I0225 05:24:40.857779   118 net.cpp:455] BatchNorm_1_Threshold_1_0_split -> BatchNorm_1_Threshold_1_0_split_0
I0225 05:24:40.857798   118 net.cpp:455] BatchNorm_1_Threshold_1_0_split -> BatchNorm_1_Threshold_1_0_split_1
I0225 05:24:40.857904   118 net.cpp:190] Setting up BatchNorm_1_Threshold_1_0_split
I0225 05:24:40.857918   118 net.cpp:197] Top shape: 1 16 256 512 (2097152)
I0225 05:24:40.857935   118 net.cpp:197] Top shape: 1 16 256 512 (2097152)
I0225 05:24:40.857956   118 net.cpp:205] Memory required for data: 69206020
I0225 05:24:40.857971   118 layer_factory.hpp:123] Creating layer MaxPool2d_2
I0225 05:24:40.857990   118 net.cpp:140] Creating Layer MaxPool2d_2
I0225 05:24:40.858001   118 net.cpp:481] MaxPool2d_2 <- BatchNorm_1_Threshold_1_0_split_0
I0225 05:24:40.858023   118 net.cpp:455] MaxPool2d_2 -> MaxPool2d_2
I0225 05:24:40.858121   118 net.cpp:190] Setting up MaxPool2d_2
I0225 05:24:40.858139   118 net.cpp:197] Top shape: 1 16 128 256 (524288)
I0225 05:24:40.858162   118 net.cpp:205] Memory required for data: 71303172
I0225 05:24:40.858170   118 layer_factory.hpp:123] Creating layer ConvNd_2
I0225 05:24:40.858189   118 net.cpp:140] Creating Layer ConvNd_2
I0225 05:24:40.858201   118 net.cpp:481] ConvNd_2 <- MaxPool2d_2
I0225 05:24:40.858211   118 net.cpp:455] ConvNd_2 -> ConvNd_2
I0225 05:24:40.858604   118 net.cpp:190] Setting up ConvNd_2
I0225 05:24:40.858623   118 net.cpp:197] Top shape: 1 64 128 256 (2097152)
I0225 05:24:40.858636   118 net.cpp:205] Memory required for data: 79691780
I0225 05:24:40.858649   118 layer_factory.hpp:123] Creating layer ConvNd_3
I0225 05:24:40.858666   118 net.cpp:140] Creating Layer ConvNd_3
I0225 05:24:40.858676   118 net.cpp:481] ConvNd_3 <- BatchNorm_1_Threshold_1_0_split_1
I0225 05:24:40.858688   118 net.cpp:455] ConvNd_3 -> ConvNd_3
I0225 05:24:40.859077   118 net.cpp:190] Setting up ConvNd_3
I0225 05:24:40.859092   118 net.cpp:197] Top shape: 1 16 128 256 (524288)
I0225 05:24:40.859107   118 net.cpp:205] Memory required for data: 81788932
I0225 05:24:40.859122   118 layer_factory.hpp:123] Creating layer BatchNorm_2
I0225 05:24:40.859138   118 net.cpp:140] Creating Layer BatchNorm_2
I0225 05:24:40.859148   118 net.cpp:481] BatchNorm_2 <- ConvNd_3
I0225 05:24:40.859160   118 net.cpp:455] BatchNorm_2 -> BatchNorm_2
I0225 05:24:40.860563   118 net.cpp:190] Setting up BatchNorm_2
I0225 05:24:40.860584   118 net.cpp:197] Top shape: 1 16 128 256 (524288)
I0225 05:24:40.860599   118 net.cpp:205] Memory required for data: 83886084
I0225 05:24:40.860623   118 layer_factory.hpp:123] Creating layer Threshold_2
I0225 05:24:40.860637   118 net.cpp:140] Creating Layer Threshold_2
I0225 05:24:40.860648   118 net.cpp:481] Threshold_2 <- BatchNorm_2
I0225 05:24:40.860661   118 net.cpp:442] Threshold_2 -> BatchNorm_2 (in-place)
I0225 05:24:40.860677   118 net.cpp:190] Setting up Threshold_2
I0225 05:24:40.860687   118 net.cpp:197] Top shape: 1 16 128 256 (524288)
I0225 05:24:40.860707   118 net.cpp:205] Memory required for data: 85983236
I0225 05:24:40.860721   118 layer_factory.hpp:123] Creating layer ConvNd_4
I0225 05:24:40.860749   118 net.cpp:140] Creating Layer ConvNd_4
I0225 05:24:40.860764   118 net.cpp:481] ConvNd_4 <- BatchNorm_2
I0225 05:24:40.860780   118 net.cpp:455] ConvNd_4 -> ConvNd_4
I0225 05:24:40.861177   118 net.cpp:190] Setting up ConvNd_4
I0225 05:24:40.861193   118 net.cpp:197] Top shape: 1 16 128 256 (524288)
I0225 05:24:40.861207   118 net.cpp:205] Memory required for data: 88080388
I0225 05:24:40.861220   118 layer_factory.hpp:123] Creating layer BatchNorm_3
I0225 05:24:40.861238   118 net.cpp:140] Creating Layer BatchNorm_3
I0225 05:24:40.861248   118 net.cpp:481] BatchNorm_3 <- ConvNd_4
I0225 05:24:40.861260   118 net.cpp:455] BatchNorm_3 -> BatchNorm_3
I0225 05:24:40.862622   118 net.cpp:190] Setting up BatchNorm_3
I0225 05:24:40.862640   118 net.cpp:197] Top shape: 1 16 128 256 (524288)
I0225 05:24:40.862655   118 net.cpp:205] Memory required for data: 90177540
I0225 05:24:40.862681   118 layer_factory.hpp:123] Creating layer Threshold_3
I0225 05:24:40.862695   118 net.cpp:140] Creating Layer Threshold_3
I0225 05:24:40.862706   118 net.cpp:481] Threshold_3 <- BatchNorm_3
I0225 05:24:40.862721   118 net.cpp:442] Threshold_3 -> BatchNorm_3 (in-place)
I0225 05:24:40.862736   118 net.cpp:190] Setting up Threshold_3
I0225 05:24:40.862746   118 net.cpp:197] Top shape: 1 16 128 256 (524288)
I0225 05:24:40.862759   118 net.cpp:205] Memory required for data: 92274692
I0225 05:24:40.862767   118 layer_factory.hpp:123] Creating layer ConvNd_5
I0225 05:24:40.862783   118 net.cpp:140] Creating Layer ConvNd_5
I0225 05:24:40.862793   118 net.cpp:481] ConvNd_5 <- BatchNorm_3
I0225 05:24:40.862805   118 net.cpp:455] ConvNd_5 -> ConvNd_5
I0225 05:24:40.863201   118 net.cpp:190] Setting up ConvNd_5
I0225 05:24:40.863217   118 net.cpp:197] Top shape: 1 64 128 256 (2097152)
I0225 05:24:40.863232   118 net.cpp:205] Memory required for data: 100663300
I0225 05:24:40.863245   118 layer_factory.hpp:123] Creating layer BatchNorm_4
I0225 05:24:40.863261   118 net.cpp:140] Creating Layer BatchNorm_4
I0225 05:24:40.863272   118 net.cpp:481] BatchNorm_4 <- ConvNd_5
I0225 05:24:40.863286   118 net.cpp:455] BatchNorm_4 -> BatchNorm_4
I0225 05:24:40.864682   118 net.cpp:190] Setting up BatchNorm_4
I0225 05:24:40.864701   118 net.cpp:197] Top shape: 1 64 128 256 (2097152)
I0225 05:24:40.864717   118 net.cpp:205] Memory required for data: 109051908
I0225 05:24:40.864737   118 layer_factory.hpp:123] Creating layer Threshold_4
I0225 05:24:40.864750   118 net.cpp:140] Creating Layer Threshold_4
I0225 05:24:40.864761   118 net.cpp:481] Threshold_4 <- BatchNorm_4
I0225 05:24:40.864773   118 net.cpp:442] Threshold_4 -> BatchNorm_4 (in-place)
I0225 05:24:40.864787   118 net.cpp:190] Setting up Threshold_4
I0225 05:24:40.864797   118 net.cpp:197] Top shape: 1 64 128 256 (2097152)
I0225 05:24:40.864809   118 net.cpp:205] Memory required for data: 117440516
I0225 05:24:40.864817   118 layer_factory.hpp:123] Creating layer Add_1
I0225 05:24:40.864831   118 net.cpp:140] Creating Layer Add_1
I0225 05:24:40.864841   118 net.cpp:481] Add_1 <- ConvNd_2
I0225 05:24:40.864851   118 net.cpp:481] Add_1 <- BatchNorm_4
I0225 05:24:40.864861   118 net.cpp:455] Add_1 -> Add_1
I0225 05:24:40.864907   118 net.cpp:190] Setting up Add_1
I0225 05:24:40.864923   118 net.cpp:197] Top shape: 1 64 128 256 (2097152)
I0225 05:24:40.864943   118 net.cpp:205] Memory required for data: 125829124
I0225 05:24:40.864959   118 layer_factory.hpp:123] Creating layer Threshold_5
I0225 05:24:40.864979   118 net.cpp:140] Creating Layer Threshold_5
I0225 05:24:40.864993   118 net.cpp:481] Threshold_5 <- Add_1
I0225 05:24:40.865016   118 net.cpp:442] Threshold_5 -> Add_1 (in-place)
I0225 05:24:40.865038   118 net.cpp:190] Setting up Threshold_5
I0225 05:24:40.865054   118 net.cpp:197] Top shape: 1 64 128 256 (2097152)
I0225 05:24:40.865067   118 net.cpp:205] Memory required for data: 134217732
I0225 05:24:40.865082   118 layer_factory.hpp:123] Creating layer Add_1_Threshold_5_0_split
I0225 05:24:40.865104   118 net.cpp:140] Creating Layer Add_1_Threshold_5_0_split
I0225 05:24:40.865118   118 net.cpp:481] Add_1_Threshold_5_0_split <- Add_1
I0225 05:24:40.865129   118 net.cpp:455] Add_1_Threshold_5_0_split -> Add_1_Threshold_5_0_split_0
I0225 05:24:40.865150   118 net.cpp:455] Add_1_Threshold_5_0_split -> Add_1_Threshold_5_0_split_1
I0225 05:24:40.865244   118 net.cpp:190] Setting up Add_1_Threshold_5_0_split
I0225 05:24:40.865264   118 net.cpp:197] Top shape: 1 64 128 256 (2097152)
I0225 05:24:40.865280   118 net.cpp:197] Top shape: 1 64 128 256 (2097152)
I0225 05:24:40.865293   118 net.cpp:205] Memory required for data: 150994948
I0225 05:24:40.865300   118 layer_factory.hpp:123] Creating layer ConvNd_6
I0225 05:24:40.865319   118 net.cpp:140] Creating Layer ConvNd_6
I0225 05:24:40.865330   118 net.cpp:481] ConvNd_6 <- Add_1_Threshold_5_0_split_0
I0225 05:24:40.865341   118 net.cpp:455] ConvNd_6 -> ConvNd_6
I0225 05:24:40.865749   118 net.cpp:190] Setting up ConvNd_6
I0225 05:24:40.865765   118 net.cpp:197] Top shape: 1 16 128 256 (524288)
I0225 05:24:40.865780   118 net.cpp:205] Memory required for data: 153092100
I0225 05:24:40.865792   118 layer_factory.hpp:123] Creating layer BatchNorm_5
I0225 05:24:40.865809   118 net.cpp:140] Creating Layer BatchNorm_5
I0225 05:24:40.865819   118 net.cpp:481] BatchNorm_5 <- ConvNd_6
I0225 05:24:40.865833   118 net.cpp:455] BatchNorm_5 -> BatchNorm_5
I0225 05:24:40.867223   118 net.cpp:190] Setting up BatchNorm_5
I0225 05:24:40.867241   118 net.cpp:197] Top shape: 1 16 128 256 (524288)
I0225 05:24:40.867256   118 net.cpp:205] Memory required for data: 155189252
I0225 05:24:40.867275   118 layer_factory.hpp:123] Creating layer Threshold_6
I0225 05:24:40.867290   118 net.cpp:140] Creating Layer Threshold_6
I0225 05:24:40.867300   118 net.cpp:481] Threshold_6 <- BatchNorm_5
I0225 05:24:40.867314   118 net.cpp:442] Threshold_6 -> BatchNorm_5 (in-place)
I0225 05:24:40.867329   118 net.cpp:190] Setting up Threshold_6
I0225 05:24:40.867339   118 net.cpp:197] Top shape: 1 16 128 256 (524288)
I0225 05:24:40.867357   118 net.cpp:205] Memory required for data: 157286404
I0225 05:24:40.867372   118 layer_factory.hpp:123] Creating layer ConvNd_7
I0225 05:24:40.867398   118 net.cpp:140] Creating Layer ConvNd_7
I0225 05:24:40.867413   118 net.cpp:481] ConvNd_7 <- BatchNorm_5
I0225 05:24:40.867436   118 net.cpp:455] ConvNd_7 -> ConvNd_7
I0225 05:24:40.867856   118 net.cpp:190] Setting up ConvNd_7
I0225 05:24:40.867873   118 net.cpp:197] Top shape: 1 16 128 256 (524288)
I0225 05:24:40.867887   118 net.cpp:205] Memory required for data: 159383556
I0225 05:24:40.867899   118 layer_factory.hpp:123] Creating layer BatchNorm_6
I0225 05:24:40.867918   118 net.cpp:140] Creating Layer BatchNorm_6
I0225 05:24:40.867928   118 net.cpp:481] BatchNorm_6 <- ConvNd_7
I0225 05:24:40.867940   118 net.cpp:455] BatchNorm_6 -> BatchNorm_6
I0225 05:24:40.869366   118 net.cpp:190] Setting up BatchNorm_6
I0225 05:24:40.869385   118 net.cpp:197] Top shape: 1 16 128 256 (524288)
I0225 05:24:40.869398   118 net.cpp:205] Memory required for data: 161480708
I0225 05:24:40.869423   118 layer_factory.hpp:123] Creating layer Threshold_7
I0225 05:24:40.869437   118 net.cpp:140] Creating Layer Threshold_7
I0225 05:24:40.869449   118 net.cpp:481] Threshold_7 <- BatchNorm_6
I0225 05:24:40.869462   118 net.cpp:442] Threshold_7 -> BatchNorm_6 (in-place)
I0225 05:24:40.869478   118 net.cpp:190] Setting up Threshold_7
I0225 05:24:40.869488   118 net.cpp:197] Top shape: 1 16 128 256 (524288)
I0225 05:24:40.869500   118 net.cpp:205] Memory required for data: 163577860
I0225 05:24:40.869508   118 layer_factory.hpp:123] Creating layer ConvNd_8
I0225 05:24:40.869524   118 net.cpp:140] Creating Layer ConvNd_8
I0225 05:24:40.869534   118 net.cpp:481] ConvNd_8 <- BatchNorm_6
I0225 05:24:40.869546   118 net.cpp:455] ConvNd_8 -> ConvNd_8
I0225 05:24:40.869953   118 net.cpp:190] Setting up ConvNd_8
I0225 05:24:40.869971   118 net.cpp:197] Top shape: 1 64 128 256 (2097152)
I0225 05:24:40.869984   118 net.cpp:205] Memory required for data: 171966468
I0225 05:24:40.869997   118 layer_factory.hpp:123] Creating layer BatchNorm_7
I0225 05:24:40.870014   118 net.cpp:140] Creating Layer BatchNorm_7
I0225 05:24:40.870025   118 net.cpp:481] BatchNorm_7 <- ConvNd_8
I0225 05:24:40.870038   118 net.cpp:455] BatchNorm_7 -> BatchNorm_7
I0225 05:24:40.871434   118 net.cpp:190] Setting up BatchNorm_7
I0225 05:24:40.871453   118 net.cpp:197] Top shape: 1 64 128 256 (2097152)
I0225 05:24:40.871467   118 net.cpp:205] Memory required for data: 180355076
I0225 05:24:40.871486   118 layer_factory.hpp:123] Creating layer Threshold_8
I0225 05:24:40.871500   118 net.cpp:140] Creating Layer Threshold_8
I0225 05:24:40.871511   118 net.cpp:481] Threshold_8 <- BatchNorm_7
I0225 05:24:40.871526   118 net.cpp:442] Threshold_8 -> BatchNorm_7 (in-place)
I0225 05:24:40.871541   118 net.cpp:190] Setting up Threshold_8
I0225 05:24:40.871551   118 net.cpp:197] Top shape: 1 64 128 256 (2097152)
I0225 05:24:40.871562   118 net.cpp:205] Memory required for data: 188743684
I0225 05:24:40.871570   118 layer_factory.hpp:123] Creating layer Add_2
I0225 05:24:40.871584   118 net.cpp:140] Creating Layer Add_2
I0225 05:24:40.871595   118 net.cpp:481] Add_2 <- Add_1_Threshold_5_0_split_1
I0225 05:24:40.871604   118 net.cpp:481] Add_2 <- BatchNorm_7
I0225 05:24:40.871618   118 net.cpp:455] Add_2 -> Add_2
I0225 05:24:40.871675   118 net.cpp:190] Setting up Add_2
I0225 05:24:40.871693   118 net.cpp:197] Top shape: 1 64 128 256 (2097152)
I0225 05:24:40.871731   118 net.cpp:205] Memory required for data: 197132292
I0225 05:24:40.871747   118 layer_factory.hpp:123] Creating layer Threshold_9
I0225 05:24:40.871763   118 net.cpp:140] Creating Layer Threshold_9
I0225 05:24:40.871774   118 net.cpp:481] Threshold_9 <- Add_2
I0225 05:24:40.871796   118 net.cpp:442] Threshold_9 -> Add_2 (in-place)
I0225 05:24:40.871803   118 net.cpp:190] Setting up Threshold_9
I0225 05:24:40.871805   118 net.cpp:197] Top shape: 1 64 128 256 (2097152)
I0225 05:24:40.871811   118 net.cpp:205] Memory required for data: 205520900
I0225 05:24:40.871817   118 layer_factory.hpp:123] Creating layer Add_2_Threshold_9_0_split
I0225 05:24:40.871825   118 net.cpp:140] Creating Layer Add_2_Threshold_9_0_split
I0225 05:24:40.871832   118 net.cpp:481] Add_2_Threshold_9_0_split <- Add_2
I0225 05:24:40.871837   118 net.cpp:455] Add_2_Threshold_9_0_split -> Add_2_Threshold_9_0_split_0
I0225 05:24:40.871843   118 net.cpp:455] Add_2_Threshold_9_0_split -> Add_2_Threshold_9_0_split_1
I0225 05:24:40.871876   118 net.cpp:190] Setting up Add_2_Threshold_9_0_split
I0225 05:24:40.871883   118 net.cpp:197] Top shape: 1 64 128 256 (2097152)
I0225 05:24:40.871891   118 net.cpp:197] Top shape: 1 64 128 256 (2097152)
I0225 05:24:40.871897   118 net.cpp:205] Memory required for data: 222298116
I0225 05:24:40.871902   118 layer_factory.hpp:123] Creating layer ConvNd_9
I0225 05:24:40.871912   118 net.cpp:140] Creating Layer ConvNd_9
I0225 05:24:40.871920   118 net.cpp:481] ConvNd_9 <- Add_2_Threshold_9_0_split_0
I0225 05:24:40.871927   118 net.cpp:455] ConvNd_9 -> ConvNd_9
I0225 05:24:40.872092   118 net.cpp:190] Setting up ConvNd_9
I0225 05:24:40.872099   118 net.cpp:197] Top shape: 1 16 128 256 (524288)
I0225 05:24:40.872105   118 net.cpp:205] Memory required for data: 224395268
I0225 05:24:40.872110   118 layer_factory.hpp:123] Creating layer BatchNorm_8
I0225 05:24:40.872117   118 net.cpp:140] Creating Layer BatchNorm_8
I0225 05:24:40.872121   118 net.cpp:481] BatchNorm_8 <- ConvNd_9
I0225 05:24:40.872126   118 net.cpp:455] BatchNorm_8 -> BatchNorm_8
I0225 05:24:40.872705   118 net.cpp:190] Setting up BatchNorm_8
I0225 05:24:40.872714   118 net.cpp:197] Top shape: 1 16 128 256 (524288)
I0225 05:24:40.872720   118 net.cpp:205] Memory required for data: 226492420
I0225 05:24:40.872727   118 layer_factory.hpp:123] Creating layer Threshold_10
I0225 05:24:40.872732   118 net.cpp:140] Creating Layer Threshold_10
I0225 05:24:40.872736   118 net.cpp:481] Threshold_10 <- BatchNorm_8
I0225 05:24:40.872740   118 net.cpp:442] Threshold_10 -> BatchNorm_8 (in-place)
I0225 05:24:40.872746   118 net.cpp:190] Setting up Threshold_10
I0225 05:24:40.872750   118 net.cpp:197] Top shape: 1 16 128 256 (524288)
I0225 05:24:40.872754   118 net.cpp:205] Memory required for data: 228589572
I0225 05:24:40.872757   118 layer_factory.hpp:123] Creating layer ConvNd_10
I0225 05:24:40.872763   118 net.cpp:140] Creating Layer ConvNd_10
I0225 05:24:40.872766   118 net.cpp:481] ConvNd_10 <- BatchNorm_8
I0225 05:24:40.872771   118 net.cpp:455] ConvNd_10 -> ConvNd_10
I0225 05:24:40.872941   118 net.cpp:190] Setting up ConvNd_10
I0225 05:24:40.872949   118 net.cpp:197] Top shape: 1 16 128 256 (524288)
I0225 05:24:40.872954   118 net.cpp:205] Memory required for data: 230686724
I0225 05:24:40.872961   118 layer_factory.hpp:123] Creating layer BatchNorm_9
I0225 05:24:40.872967   118 net.cpp:140] Creating Layer BatchNorm_9
I0225 05:24:40.872972   118 net.cpp:481] BatchNorm_9 <- ConvNd_10
I0225 05:24:40.872977   118 net.cpp:455] BatchNorm_9 -> BatchNorm_9
I0225 05:24:40.873558   118 net.cpp:190] Setting up BatchNorm_9
I0225 05:24:40.873565   118 net.cpp:197] Top shape: 1 16 128 256 (524288)
I0225 05:24:40.873570   118 net.cpp:205] Memory required for data: 232783876
I0225 05:24:40.873579   118 layer_factory.hpp:123] Creating layer Threshold_11
I0225 05:24:40.873586   118 net.cpp:140] Creating Layer Threshold_11
I0225 05:24:40.873590   118 net.cpp:481] Threshold_11 <- BatchNorm_9
I0225 05:24:40.873594   118 net.cpp:442] Threshold_11 -> BatchNorm_9 (in-place)
I0225 05:24:40.873600   118 net.cpp:190] Setting up Threshold_11
I0225 05:24:40.873603   118 net.cpp:197] Top shape: 1 16 128 256 (524288)
I0225 05:24:40.873607   118 net.cpp:205] Memory required for data: 234881028
I0225 05:24:40.873610   118 layer_factory.hpp:123] Creating layer ConvNd_11
I0225 05:24:40.873617   118 net.cpp:140] Creating Layer ConvNd_11
I0225 05:24:40.873620   118 net.cpp:481] ConvNd_11 <- BatchNorm_9
I0225 05:24:40.873625   118 net.cpp:455] ConvNd_11 -> ConvNd_11
I0225 05:24:40.873786   118 net.cpp:190] Setting up ConvNd_11
I0225 05:24:40.873796   118 net.cpp:197] Top shape: 1 64 128 256 (2097152)
I0225 05:24:40.873802   118 net.cpp:205] Memory required for data: 243269636
I0225 05:24:40.873807   118 layer_factory.hpp:123] Creating layer BatchNorm_10
I0225 05:24:40.873814   118 net.cpp:140] Creating Layer BatchNorm_10
I0225 05:24:40.873818   118 net.cpp:481] BatchNorm_10 <- ConvNd_11
I0225 05:24:40.873823   118 net.cpp:455] BatchNorm_10 -> BatchNorm_10
I0225 05:24:40.874408   118 net.cpp:190] Setting up BatchNorm_10
I0225 05:24:40.874418   118 net.cpp:197] Top shape: 1 64 128 256 (2097152)
I0225 05:24:40.874423   118 net.cpp:205] Memory required for data: 251658244
I0225 05:24:40.874430   118 layer_factory.hpp:123] Creating layer Threshold_12
I0225 05:24:40.874439   118 net.cpp:140] Creating Layer Threshold_12
I0225 05:24:40.874441   118 net.cpp:481] Threshold_12 <- BatchNorm_10
I0225 05:24:40.874446   118 net.cpp:442] Threshold_12 -> BatchNorm_10 (in-place)
I0225 05:24:40.874452   118 net.cpp:190] Setting up Threshold_12
I0225 05:24:40.874455   118 net.cpp:197] Top shape: 1 64 128 256 (2097152)
I0225 05:24:40.874459   118 net.cpp:205] Memory required for data: 260046852
I0225 05:24:40.874464   118 layer_factory.hpp:123] Creating layer Add_3
I0225 05:24:40.874469   118 net.cpp:140] Creating Layer Add_3
I0225 05:24:40.874471   118 net.cpp:481] Add_3 <- Add_2_Threshold_9_0_split_1
I0225 05:24:40.874475   118 net.cpp:481] Add_3 <- BatchNorm_10
I0225 05:24:40.874480   118 net.cpp:455] Add_3 -> Add_3
I0225 05:24:40.874498   118 net.cpp:190] Setting up Add_3
I0225 05:24:40.874503   118 net.cpp:197] Top shape: 1 64 128 256 (2097152)
I0225 05:24:40.874508   118 net.cpp:205] Memory required for data: 268435460
I0225 05:24:40.874511   118 layer_factory.hpp:123] Creating layer Threshold_13
I0225 05:24:40.874516   118 net.cpp:140] Creating Layer Threshold_13
I0225 05:24:40.874519   118 net.cpp:481] Threshold_13 <- Add_3
I0225 05:24:40.874523   118 net.cpp:442] Threshold_13 -> Add_3 (in-place)
I0225 05:24:40.874528   118 net.cpp:190] Setting up Threshold_13
I0225 05:24:40.874531   118 net.cpp:197] Top shape: 1 64 128 256 (2097152)
I0225 05:24:40.874536   118 net.cpp:205] Memory required for data: 276824068
I0225 05:24:40.874539   118 layer_factory.hpp:123] Creating layer Add_3_Threshold_13_0_split
I0225 05:24:40.874543   118 net.cpp:140] Creating Layer Add_3_Threshold_13_0_split
I0225 05:24:40.874547   118 net.cpp:481] Add_3_Threshold_13_0_split <- Add_3
I0225 05:24:40.874552   118 net.cpp:455] Add_3_Threshold_13_0_split -> Add_3_Threshold_13_0_split_0
I0225 05:24:40.874557   118 net.cpp:455] Add_3_Threshold_13_0_split -> Add_3_Threshold_13_0_split_1
I0225 05:24:40.874593   118 net.cpp:190] Setting up Add_3_Threshold_13_0_split
I0225 05:24:40.874600   118 net.cpp:197] Top shape: 1 64 128 256 (2097152)
I0225 05:24:40.874608   118 net.cpp:197] Top shape: 1 64 128 256 (2097152)
I0225 05:24:40.874615   118 net.cpp:205] Memory required for data: 293601284
I0225 05:24:40.874619   118 layer_factory.hpp:123] Creating layer ConvNd_12
I0225 05:24:40.874626   118 net.cpp:140] Creating Layer ConvNd_12
I0225 05:24:40.874630   118 net.cpp:481] ConvNd_12 <- Add_3_Threshold_13_0_split_0
I0225 05:24:40.874635   118 net.cpp:455] ConvNd_12 -> ConvNd_12
I0225 05:24:40.874809   118 net.cpp:190] Setting up ConvNd_12
I0225 05:24:40.874816   118 net.cpp:197] Top shape: 1 16 128 256 (524288)
I0225 05:24:40.874821   118 net.cpp:205] Memory required for data: 295698436
I0225 05:24:40.874826   118 layer_factory.hpp:123] Creating layer BatchNorm_11
I0225 05:24:40.874833   118 net.cpp:140] Creating Layer BatchNorm_11
I0225 05:24:40.874837   118 net.cpp:481] BatchNorm_11 <- ConvNd_12
I0225 05:24:40.874843   118 net.cpp:455] BatchNorm_11 -> BatchNorm_11
I0225 05:24:40.876135   118 net.cpp:190] Setting up BatchNorm_11
I0225 05:24:40.876147   118 net.cpp:197] Top shape: 1 16 128 256 (524288)
I0225 05:24:40.876152   118 net.cpp:205] Memory required for data: 297795588
I0225 05:24:40.876164   118 layer_factory.hpp:123] Creating layer Threshold_14
I0225 05:24:40.876173   118 net.cpp:140] Creating Layer Threshold_14
I0225 05:24:40.876176   118 net.cpp:481] Threshold_14 <- BatchNorm_11
I0225 05:24:40.876181   118 net.cpp:442] Threshold_14 -> BatchNorm_11 (in-place)
I0225 05:24:40.876188   118 net.cpp:190] Setting up Threshold_14
I0225 05:24:40.876191   118 net.cpp:197] Top shape: 1 16 128 256 (524288)
I0225 05:24:40.876195   118 net.cpp:205] Memory required for data: 299892740
I0225 05:24:40.876199   118 layer_factory.hpp:123] Creating layer ConvNd_13
I0225 05:24:40.876205   118 net.cpp:140] Creating Layer ConvNd_13
I0225 05:24:40.876209   118 net.cpp:481] ConvNd_13 <- BatchNorm_11
I0225 05:24:40.876214   118 net.cpp:455] ConvNd_13 -> ConvNd_13
I0225 05:24:40.876400   118 net.cpp:190] Setting up ConvNd_13
I0225 05:24:40.876410   118 net.cpp:197] Top shape: 1 16 128 256 (524288)
I0225 05:24:40.876415   118 net.cpp:205] Memory required for data: 301989892
I0225 05:24:40.876420   118 layer_factory.hpp:123] Creating layer BatchNorm_12
I0225 05:24:40.876426   118 net.cpp:140] Creating Layer BatchNorm_12
I0225 05:24:40.876430   118 net.cpp:481] BatchNorm_12 <- ConvNd_13
I0225 05:24:40.876436   118 net.cpp:455] BatchNorm_12 -> BatchNorm_12
I0225 05:24:40.877030   118 net.cpp:190] Setting up BatchNorm_12
I0225 05:24:40.877039   118 net.cpp:197] Top shape: 1 16 128 256 (524288)
I0225 05:24:40.877044   118 net.cpp:205] Memory required for data: 304087044
I0225 05:24:40.877053   118 layer_factory.hpp:123] Creating layer Threshold_15
I0225 05:24:40.877059   118 net.cpp:140] Creating Layer Threshold_15
I0225 05:24:40.877063   118 net.cpp:481] Threshold_15 <- BatchNorm_12
I0225 05:24:40.877068   118 net.cpp:442] Threshold_15 -> BatchNorm_12 (in-place)
I0225 05:24:40.877074   118 net.cpp:190] Setting up Threshold_15
I0225 05:24:40.877077   118 net.cpp:197] Top shape: 1 16 128 256 (524288)
I0225 05:24:40.877081   118 net.cpp:205] Memory required for data: 306184196
I0225 05:24:40.877085   118 layer_factory.hpp:123] Creating layer ConvNd_14
I0225 05:24:40.877091   118 net.cpp:140] Creating Layer ConvNd_14
I0225 05:24:40.877094   118 net.cpp:481] ConvNd_14 <- BatchNorm_12
I0225 05:24:40.877099   118 net.cpp:455] ConvNd_14 -> ConvNd_14
I0225 05:24:40.877272   118 net.cpp:190] Setting up ConvNd_14
I0225 05:24:40.877280   118 net.cpp:197] Top shape: 1 64 128 256 (2097152)
I0225 05:24:40.877285   118 net.cpp:205] Memory required for data: 314572804
I0225 05:24:40.877290   118 layer_factory.hpp:123] Creating layer BatchNorm_13
I0225 05:24:40.877297   118 net.cpp:140] Creating Layer BatchNorm_13
I0225 05:24:40.877301   118 net.cpp:481] BatchNorm_13 <- ConvNd_14
I0225 05:24:40.877306   118 net.cpp:455] BatchNorm_13 -> BatchNorm_13
I0225 05:24:40.877919   118 net.cpp:190] Setting up BatchNorm_13
I0225 05:24:40.877928   118 net.cpp:197] Top shape: 1 64 128 256 (2097152)
I0225 05:24:40.877933   118 net.cpp:205] Memory required for data: 322961412
I0225 05:24:40.877940   118 layer_factory.hpp:123] Creating layer Threshold_16
I0225 05:24:40.877948   118 net.cpp:140] Creating Layer Threshold_16
I0225 05:24:40.877951   118 net.cpp:481] Threshold_16 <- BatchNorm_13
I0225 05:24:40.877955   118 net.cpp:442] Threshold_16 -> BatchNorm_13 (in-place)
I0225 05:24:40.877961   118 net.cpp:190] Setting up Threshold_16
I0225 05:24:40.877964   118 net.cpp:197] Top shape: 1 64 128 256 (2097152)
I0225 05:24:40.877969   118 net.cpp:205] Memory required for data: 331350020
I0225 05:24:40.877972   118 layer_factory.hpp:123] Creating layer Add_4
I0225 05:24:40.877977   118 net.cpp:140] Creating Layer Add_4
I0225 05:24:40.877981   118 net.cpp:481] Add_4 <- Add_3_Threshold_13_0_split_1
I0225 05:24:40.877985   118 net.cpp:481] Add_4 <- BatchNorm_13
I0225 05:24:40.877990   118 net.cpp:455] Add_4 -> Add_4
I0225 05:24:40.878010   118 net.cpp:190] Setting up Add_4
I0225 05:24:40.878015   118 net.cpp:197] Top shape: 1 64 128 256 (2097152)
I0225 05:24:40.878019   118 net.cpp:205] Memory required for data: 339738628
I0225 05:24:40.878022   118 layer_factory.hpp:123] Creating layer Threshold_17
I0225 05:24:40.878026   118 net.cpp:140] Creating Layer Threshold_17
I0225 05:24:40.878031   118 net.cpp:481] Threshold_17 <- Add_4
I0225 05:24:40.878034   118 net.cpp:442] Threshold_17 -> Add_4 (in-place)
I0225 05:24:40.878039   118 net.cpp:190] Setting up Threshold_17
I0225 05:24:40.878042   118 net.cpp:197] Top shape: 1 64 128 256 (2097152)
I0225 05:24:40.878046   118 net.cpp:205] Memory required for data: 348127236
I0225 05:24:40.878051   118 layer_factory.hpp:123] Creating layer Add_4_Threshold_17_0_split
I0225 05:24:40.878054   118 net.cpp:140] Creating Layer Add_4_Threshold_17_0_split
I0225 05:24:40.878058   118 net.cpp:481] Add_4_Threshold_17_0_split <- Add_4
I0225 05:24:40.878062   118 net.cpp:455] Add_4_Threshold_17_0_split -> Add_4_Threshold_17_0_split_0
I0225 05:24:40.878067   118 net.cpp:455] Add_4_Threshold_17_0_split -> Add_4_Threshold_17_0_split_1
I0225 05:24:40.878095   118 net.cpp:190] Setting up Add_4_Threshold_17_0_split
I0225 05:24:40.878100   118 net.cpp:197] Top shape: 1 64 128 256 (2097152)
I0225 05:24:40.878108   118 net.cpp:197] Top shape: 1 64 128 256 (2097152)
I0225 05:24:40.878114   118 net.cpp:205] Memory required for data: 364904452
I0225 05:24:40.878118   118 layer_factory.hpp:123] Creating layer ConvNd_15
I0225 05:24:40.878129   118 net.cpp:140] Creating Layer ConvNd_15
I0225 05:24:40.878136   118 net.cpp:481] ConvNd_15 <- Add_4_Threshold_17_0_split_0
I0225 05:24:40.878142   118 net.cpp:455] ConvNd_15 -> ConvNd_15
I0225 05:24:40.878322   118 net.cpp:190] Setting up ConvNd_15
I0225 05:24:40.878330   118 net.cpp:197] Top shape: 1 16 128 256 (524288)
I0225 05:24:40.878335   118 net.cpp:205] Memory required for data: 367001604
I0225 05:24:40.878341   118 layer_factory.hpp:123] Creating layer BatchNorm_14
I0225 05:24:40.878348   118 net.cpp:140] Creating Layer BatchNorm_14
I0225 05:24:40.878352   118 net.cpp:481] BatchNorm_14 <- ConvNd_15
I0225 05:24:40.878357   118 net.cpp:455] BatchNorm_14 -> BatchNorm_14
I0225 05:24:40.878950   118 net.cpp:190] Setting up BatchNorm_14
I0225 05:24:40.878958   118 net.cpp:197] Top shape: 1 16 128 256 (524288)
I0225 05:24:40.878964   118 net.cpp:205] Memory required for data: 369098756
I0225 05:24:40.878973   118 layer_factory.hpp:123] Creating layer Threshold_18
I0225 05:24:40.878978   118 net.cpp:140] Creating Layer Threshold_18
I0225 05:24:40.878981   118 net.cpp:481] Threshold_18 <- BatchNorm_14
I0225 05:24:40.878986   118 net.cpp:442] Threshold_18 -> BatchNorm_14 (in-place)
I0225 05:24:40.878991   118 net.cpp:190] Setting up Threshold_18
I0225 05:24:40.878995   118 net.cpp:197] Top shape: 1 16 128 256 (524288)
I0225 05:24:40.878999   118 net.cpp:205] Memory required for data: 371195908
I0225 05:24:40.879002   118 layer_factory.hpp:123] Creating layer ConvNd_16
I0225 05:24:40.879009   118 net.cpp:140] Creating Layer ConvNd_16
I0225 05:24:40.879012   118 net.cpp:481] ConvNd_16 <- BatchNorm_14
I0225 05:24:40.879017   118 net.cpp:455] ConvNd_16 -> ConvNd_16
I0225 05:24:40.879199   118 net.cpp:190] Setting up ConvNd_16
I0225 05:24:40.879206   118 net.cpp:197] Top shape: 1 16 128 256 (524288)
I0225 05:24:40.879211   118 net.cpp:205] Memory required for data: 373293060
I0225 05:24:40.879216   118 layer_factory.hpp:123] Creating layer BatchNorm_15
I0225 05:24:40.879223   118 net.cpp:140] Creating Layer BatchNorm_15
I0225 05:24:40.879227   118 net.cpp:481] BatchNorm_15 <- ConvNd_16
I0225 05:24:40.879232   118 net.cpp:455] BatchNorm_15 -> BatchNorm_15
I0225 05:24:40.879839   118 net.cpp:190] Setting up BatchNorm_15
I0225 05:24:40.879848   118 net.cpp:197] Top shape: 1 16 128 256 (524288)
I0225 05:24:40.879853   118 net.cpp:205] Memory required for data: 375390212
I0225 05:24:40.879861   118 layer_factory.hpp:123] Creating layer Threshold_19
I0225 05:24:40.879869   118 net.cpp:140] Creating Layer Threshold_19
I0225 05:24:40.879873   118 net.cpp:481] Threshold_19 <- BatchNorm_15
I0225 05:24:40.879878   118 net.cpp:442] Threshold_19 -> BatchNorm_15 (in-place)
I0225 05:24:40.879884   118 net.cpp:190] Setting up Threshold_19
I0225 05:24:40.879886   118 net.cpp:197] Top shape: 1 16 128 256 (524288)
I0225 05:24:40.879891   118 net.cpp:205] Memory required for data: 377487364
I0225 05:24:40.879894   118 layer_factory.hpp:123] Creating layer ConvNd_17
I0225 05:24:40.879902   118 net.cpp:140] Creating Layer ConvNd_17
I0225 05:24:40.879909   118 net.cpp:481] ConvNd_17 <- BatchNorm_15
I0225 05:24:40.879914   118 net.cpp:455] ConvNd_17 -> ConvNd_17
I0225 05:24:40.880079   118 net.cpp:190] Setting up ConvNd_17
I0225 05:24:40.880084   118 net.cpp:197] Top shape: 1 64 128 256 (2097152)
I0225 05:24:40.880090   118 net.cpp:205] Memory required for data: 385875972
I0225 05:24:40.880095   118 layer_factory.hpp:123] Creating layer BatchNorm_16
I0225 05:24:40.880102   118 net.cpp:140] Creating Layer BatchNorm_16
I0225 05:24:40.880106   118 net.cpp:481] BatchNorm_16 <- ConvNd_17
I0225 05:24:40.880111   118 net.cpp:455] BatchNorm_16 -> BatchNorm_16
I0225 05:24:40.880713   118 net.cpp:190] Setting up BatchNorm_16
I0225 05:24:40.880722   118 net.cpp:197] Top shape: 1 64 128 256 (2097152)
I0225 05:24:40.880728   118 net.cpp:205] Memory required for data: 394264580
I0225 05:24:40.880735   118 layer_factory.hpp:123] Creating layer Threshold_20
I0225 05:24:40.880740   118 net.cpp:140] Creating Layer Threshold_20
I0225 05:24:40.880744   118 net.cpp:481] Threshold_20 <- BatchNorm_16
I0225 05:24:40.880749   118 net.cpp:442] Threshold_20 -> BatchNorm_16 (in-place)
I0225 05:24:40.880754   118 net.cpp:190] Setting up Threshold_20
I0225 05:24:40.880758   118 net.cpp:197] Top shape: 1 64 128 256 (2097152)
I0225 05:24:40.880762   118 net.cpp:205] Memory required for data: 402653188
I0225 05:24:40.880765   118 layer_factory.hpp:123] Creating layer Add_5
I0225 05:24:40.880770   118 net.cpp:140] Creating Layer Add_5
I0225 05:24:40.880774   118 net.cpp:481] Add_5 <- Add_4_Threshold_17_0_split_1
I0225 05:24:40.880777   118 net.cpp:481] Add_5 <- BatchNorm_16
I0225 05:24:40.880782   118 net.cpp:455] Add_5 -> Add_5
I0225 05:24:40.880801   118 net.cpp:190] Setting up Add_5
I0225 05:24:40.880806   118 net.cpp:197] Top shape: 1 64 128 256 (2097152)
I0225 05:24:40.880811   118 net.cpp:205] Memory required for data: 411041796
I0225 05:24:40.880815   118 layer_factory.hpp:123] Creating layer Threshold_21
I0225 05:24:40.880818   118 net.cpp:140] Creating Layer Threshold_21
I0225 05:24:40.880822   118 net.cpp:481] Threshold_21 <- Add_5
I0225 05:24:40.880826   118 net.cpp:442] Threshold_21 -> Add_5 (in-place)
I0225 05:24:40.880831   118 net.cpp:190] Setting up Threshold_21
I0225 05:24:40.880834   118 net.cpp:197] Top shape: 1 64 128 256 (2097152)
I0225 05:24:40.880838   118 net.cpp:205] Memory required for data: 419430404
I0225 05:24:40.880841   118 layer_factory.hpp:123] Creating layer Add_5_Threshold_21_0_split
I0225 05:24:40.880846   118 net.cpp:140] Creating Layer Add_5_Threshold_21_0_split
I0225 05:24:40.880849   118 net.cpp:481] Add_5_Threshold_21_0_split <- Add_5
I0225 05:24:40.880853   118 net.cpp:455] Add_5_Threshold_21_0_split -> Add_5_Threshold_21_0_split_0
I0225 05:24:40.880859   118 net.cpp:455] Add_5_Threshold_21_0_split -> Add_5_Threshold_21_0_split_1
I0225 05:24:40.880888   118 net.cpp:190] Setting up Add_5_Threshold_21_0_split
I0225 05:24:40.880897   118 net.cpp:197] Top shape: 1 64 128 256 (2097152)
I0225 05:24:40.880908   118 net.cpp:197] Top shape: 1 64 128 256 (2097152)
I0225 05:24:40.880915   118 net.cpp:205] Memory required for data: 436207620
I0225 05:24:40.880921   118 layer_factory.hpp:123] Creating layer MaxPool2d_3
I0225 05:24:40.880928   118 net.cpp:140] Creating Layer MaxPool2d_3
I0225 05:24:40.880933   118 net.cpp:481] MaxPool2d_3 <- Add_5_Threshold_21_0_split_0
I0225 05:24:40.880937   118 net.cpp:455] MaxPool2d_3 -> MaxPool2d_3
I0225 05:24:40.880970   118 net.cpp:190] Setting up MaxPool2d_3
I0225 05:24:40.880975   118 net.cpp:197] Top shape: 1 64 64 128 (524288)
I0225 05:24:40.880983   118 net.cpp:205] Memory required for data: 438304772
I0225 05:24:40.880988   118 layer_factory.hpp:123] Creating layer ConvNd_18
I0225 05:24:40.880998   118 net.cpp:140] Creating Layer ConvNd_18
I0225 05:24:40.881003   118 net.cpp:481] ConvNd_18 <- MaxPool2d_3
I0225 05:24:40.881009   118 net.cpp:455] ConvNd_18 -> ConvNd_18
I0225 05:24:40.881189   118 net.cpp:190] Setting up ConvNd_18
I0225 05:24:40.881196   118 net.cpp:197] Top shape: 1 128 64 128 (1048576)
I0225 05:24:40.881201   118 net.cpp:205] Memory required for data: 442499076
I0225 05:24:40.881206   118 layer_factory.hpp:123] Creating layer ConvNd_19
I0225 05:24:40.881214   118 net.cpp:140] Creating Layer ConvNd_19
I0225 05:24:40.881218   118 net.cpp:481] ConvNd_19 <- Add_5_Threshold_21_0_split_1
I0225 05:24:40.881223   118 net.cpp:455] ConvNd_19 -> ConvNd_19
I0225 05:24:40.881402   118 net.cpp:190] Setting up ConvNd_19
I0225 05:24:40.881408   118 net.cpp:197] Top shape: 1 32 64 128 (262144)
I0225 05:24:40.881414   118 net.cpp:205] Memory required for data: 443547652
I0225 05:24:40.881419   118 layer_factory.hpp:123] Creating layer BatchNorm_17
I0225 05:24:40.881426   118 net.cpp:140] Creating Layer BatchNorm_17
I0225 05:24:40.881430   118 net.cpp:481] BatchNorm_17 <- ConvNd_19
I0225 05:24:40.881435   118 net.cpp:455] BatchNorm_17 -> BatchNorm_17
I0225 05:24:40.882027   118 net.cpp:190] Setting up BatchNorm_17
I0225 05:24:40.882035   118 net.cpp:197] Top shape: 1 32 64 128 (262144)
I0225 05:24:40.882040   118 net.cpp:205] Memory required for data: 444596228
I0225 05:24:40.882048   118 layer_factory.hpp:123] Creating layer Threshold_22
I0225 05:24:40.882053   118 net.cpp:140] Creating Layer Threshold_22
I0225 05:24:40.882057   118 net.cpp:481] Threshold_22 <- BatchNorm_17
I0225 05:24:40.882062   118 net.cpp:442] Threshold_22 -> BatchNorm_17 (in-place)
I0225 05:24:40.882068   118 net.cpp:190] Setting up Threshold_22
I0225 05:24:40.882071   118 net.cpp:197] Top shape: 1 32 64 128 (262144)
I0225 05:24:40.882076   118 net.cpp:205] Memory required for data: 445644804
I0225 05:24:40.882079   118 layer_factory.hpp:123] Creating layer ConvNd_20
I0225 05:24:40.882086   118 net.cpp:140] Creating Layer ConvNd_20
I0225 05:24:40.882089   118 net.cpp:481] ConvNd_20 <- BatchNorm_17
I0225 05:24:40.882094   118 net.cpp:455] ConvNd_20 -> ConvNd_20
I0225 05:24:40.882272   118 net.cpp:190] Setting up ConvNd_20
I0225 05:24:40.882280   118 net.cpp:197] Top shape: 1 32 64 128 (262144)
I0225 05:24:40.882285   118 net.cpp:205] Memory required for data: 446693380
I0225 05:24:40.882292   118 layer_factory.hpp:123] Creating layer BatchNorm_18
I0225 05:24:40.882298   118 net.cpp:140] Creating Layer BatchNorm_18
I0225 05:24:40.882302   118 net.cpp:481] BatchNorm_18 <- ConvNd_20
I0225 05:24:40.882308   118 net.cpp:455] BatchNorm_18 -> BatchNorm_18
I0225 05:24:40.882887   118 net.cpp:190] Setting up BatchNorm_18
I0225 05:24:40.882895   118 net.cpp:197] Top shape: 1 32 64 128 (262144)
I0225 05:24:40.882901   118 net.cpp:205] Memory required for data: 447741956
I0225 05:24:40.882910   118 layer_factory.hpp:123] Creating layer Threshold_23
I0225 05:24:40.882915   118 net.cpp:140] Creating Layer Threshold_23
I0225 05:24:40.882918   118 net.cpp:481] Threshold_23 <- BatchNorm_18
I0225 05:24:40.882922   118 net.cpp:442] Threshold_23 -> BatchNorm_18 (in-place)
I0225 05:24:40.882928   118 net.cpp:190] Setting up Threshold_23
I0225 05:24:40.882931   118 net.cpp:197] Top shape: 1 32 64 128 (262144)
I0225 05:24:40.882936   118 net.cpp:205] Memory required for data: 448790532
I0225 05:24:40.882939   118 layer_factory.hpp:123] Creating layer ConvNd_21
I0225 05:24:40.882946   118 net.cpp:140] Creating Layer ConvNd_21
I0225 05:24:40.882948   118 net.cpp:481] ConvNd_21 <- BatchNorm_18
I0225 05:24:40.882953   118 net.cpp:455] ConvNd_21 -> ConvNd_21
I0225 05:24:40.883128   118 net.cpp:190] Setting up ConvNd_21
I0225 05:24:40.883136   118 net.cpp:197] Top shape: 1 128 64 128 (1048576)
I0225 05:24:40.883141   118 net.cpp:205] Memory required for data: 452984836
I0225 05:24:40.883147   118 layer_factory.hpp:123] Creating layer BatchNorm_19
I0225 05:24:40.883153   118 net.cpp:140] Creating Layer BatchNorm_19
I0225 05:24:40.883157   118 net.cpp:481] BatchNorm_19 <- ConvNd_21
I0225 05:24:40.883169   118 net.cpp:455] BatchNorm_19 -> BatchNorm_19
I0225 05:24:40.883682   118 net.cpp:190] Setting up BatchNorm_19
I0225 05:24:40.883690   118 net.cpp:197] Top shape: 1 128 64 128 (1048576)
I0225 05:24:40.883697   118 net.cpp:205] Memory required for data: 457179140
I0225 05:24:40.883704   118 layer_factory.hpp:123] Creating layer Threshold_24
I0225 05:24:40.883711   118 net.cpp:140] Creating Layer Threshold_24
I0225 05:24:40.883715   118 net.cpp:481] Threshold_24 <- BatchNorm_19
I0225 05:24:40.883728   118 net.cpp:442] Threshold_24 -> BatchNorm_19 (in-place)
I0225 05:24:40.883733   118 net.cpp:190] Setting up Threshold_24
I0225 05:24:40.883736   118 net.cpp:197] Top shape: 1 128 64 128 (1048576)
I0225 05:24:40.883741   118 net.cpp:205] Memory required for data: 461373444
I0225 05:24:40.883744   118 layer_factory.hpp:123] Creating layer Add_6
I0225 05:24:40.883749   118 net.cpp:140] Creating Layer Add_6
I0225 05:24:40.883752   118 net.cpp:481] Add_6 <- ConvNd_18
I0225 05:24:40.883756   118 net.cpp:481] Add_6 <- BatchNorm_19
I0225 05:24:40.883761   118 net.cpp:455] Add_6 -> Add_6
I0225 05:24:40.883782   118 net.cpp:190] Setting up Add_6
I0225 05:24:40.883787   118 net.cpp:197] Top shape: 1 128 64 128 (1048576)
I0225 05:24:40.883792   118 net.cpp:205] Memory required for data: 465567748
I0225 05:24:40.883795   118 layer_factory.hpp:123] Creating layer Threshold_25
I0225 05:24:40.883800   118 net.cpp:140] Creating Layer Threshold_25
I0225 05:24:40.883803   118 net.cpp:481] Threshold_25 <- Add_6
I0225 05:24:40.883807   118 net.cpp:442] Threshold_25 -> Add_6 (in-place)
I0225 05:24:40.883812   118 net.cpp:190] Setting up Threshold_25
I0225 05:24:40.883816   118 net.cpp:197] Top shape: 1 128 64 128 (1048576)
I0225 05:24:40.883819   118 net.cpp:205] Memory required for data: 469762052
I0225 05:24:40.883823   118 layer_factory.hpp:123] Creating layer Add_6_Threshold_25_0_split
I0225 05:24:40.883828   118 net.cpp:140] Creating Layer Add_6_Threshold_25_0_split
I0225 05:24:40.883831   118 net.cpp:481] Add_6_Threshold_25_0_split <- Add_6
I0225 05:24:40.883836   118 net.cpp:455] Add_6_Threshold_25_0_split -> Add_6_Threshold_25_0_split_0
I0225 05:24:40.883841   118 net.cpp:455] Add_6_Threshold_25_0_split -> Add_6_Threshold_25_0_split_1
I0225 05:24:40.883869   118 net.cpp:190] Setting up Add_6_Threshold_25_0_split
I0225 05:24:40.883874   118 net.cpp:197] Top shape: 1 128 64 128 (1048576)
I0225 05:24:40.883879   118 net.cpp:197] Top shape: 1 128 64 128 (1048576)
I0225 05:24:40.883883   118 net.cpp:205] Memory required for data: 478150660
I0225 05:24:40.883886   118 layer_factory.hpp:123] Creating layer ConvNd_22
I0225 05:24:40.883893   118 net.cpp:140] Creating Layer ConvNd_22
I0225 05:24:40.883898   118 net.cpp:481] ConvNd_22 <- Add_6_Threshold_25_0_split_0
I0225 05:24:40.883904   118 net.cpp:455] ConvNd_22 -> ConvNd_22
I0225 05:24:40.884089   118 net.cpp:190] Setting up ConvNd_22
I0225 05:24:40.884096   118 net.cpp:197] Top shape: 1 32 64 128 (262144)
I0225 05:24:40.884101   118 net.cpp:205] Memory required for data: 479199236
I0225 05:24:40.884107   118 layer_factory.hpp:123] Creating layer BatchNorm_20
I0225 05:24:40.884114   118 net.cpp:140] Creating Layer BatchNorm_20
I0225 05:24:40.884119   118 net.cpp:481] BatchNorm_20 <- ConvNd_22
I0225 05:24:40.884124   118 net.cpp:455] BatchNorm_20 -> BatchNorm_20
I0225 05:24:40.884717   118 net.cpp:190] Setting up BatchNorm_20
I0225 05:24:40.884726   118 net.cpp:197] Top shape: 1 32 64 128 (262144)
I0225 05:24:40.884732   118 net.cpp:205] Memory required for data: 480247812
I0225 05:24:40.884739   118 layer_factory.hpp:123] Creating layer Threshold_26
I0225 05:24:40.884744   118 net.cpp:140] Creating Layer Threshold_26
I0225 05:24:40.884748   118 net.cpp:481] Threshold_26 <- BatchNorm_20
I0225 05:24:40.884753   118 net.cpp:442] Threshold_26 -> BatchNorm_20 (in-place)
I0225 05:24:40.884759   118 net.cpp:190] Setting up Threshold_26
I0225 05:24:40.884763   118 net.cpp:197] Top shape: 1 32 64 128 (262144)
I0225 05:24:40.884766   118 net.cpp:205] Memory required for data: 481296388
I0225 05:24:40.884769   118 layer_factory.hpp:123] Creating layer ConvNd_23
I0225 05:24:40.884776   118 net.cpp:140] Creating Layer ConvNd_23
I0225 05:24:40.884779   118 net.cpp:481] ConvNd_23 <- BatchNorm_20
I0225 05:24:40.884784   118 net.cpp:455] ConvNd_23 -> ConvNd_23
I0225 05:24:40.884965   118 net.cpp:190] Setting up ConvNd_23
I0225 05:24:40.884974   118 net.cpp:197] Top shape: 1 32 64 128 (262144)
I0225 05:24:40.884979   118 net.cpp:205] Memory required for data: 482344964
I0225 05:24:40.884984   118 layer_factory.hpp:123] Creating layer BatchNorm_21
I0225 05:24:40.884991   118 net.cpp:140] Creating Layer BatchNorm_21
I0225 05:24:40.884995   118 net.cpp:481] BatchNorm_21 <- ConvNd_23
I0225 05:24:40.885000   118 net.cpp:455] BatchNorm_21 -> BatchNorm_21
I0225 05:24:40.885596   118 net.cpp:190] Setting up BatchNorm_21
I0225 05:24:40.885604   118 net.cpp:197] Top shape: 1 32 64 128 (262144)
I0225 05:24:40.885609   118 net.cpp:205] Memory required for data: 483393540
I0225 05:24:40.885617   118 layer_factory.hpp:123] Creating layer Threshold_27
I0225 05:24:40.885624   118 net.cpp:140] Creating Layer Threshold_27
I0225 05:24:40.885628   118 net.cpp:481] Threshold_27 <- BatchNorm_21
I0225 05:24:40.885632   118 net.cpp:442] Threshold_27 -> BatchNorm_21 (in-place)
I0225 05:24:40.885638   118 net.cpp:190] Setting up Threshold_27
I0225 05:24:40.885641   118 net.cpp:197] Top shape: 1 32 64 128 (262144)
I0225 05:24:40.885645   118 net.cpp:205] Memory required for data: 484442116
I0225 05:24:40.885648   118 layer_factory.hpp:123] Creating layer ConvNd_24
I0225 05:24:40.885655   118 net.cpp:140] Creating Layer ConvNd_24
I0225 05:24:40.885658   118 net.cpp:481] ConvNd_24 <- BatchNorm_21
I0225 05:24:40.885663   118 net.cpp:455] ConvNd_24 -> ConvNd_24
I0225 05:24:40.885841   118 net.cpp:190] Setting up ConvNd_24
I0225 05:24:40.885848   118 net.cpp:197] Top shape: 1 128 64 128 (1048576)
I0225 05:24:40.885854   118 net.cpp:205] Memory required for data: 488636420
I0225 05:24:40.885864   118 layer_factory.hpp:123] Creating layer BatchNorm_22
I0225 05:24:40.885870   118 net.cpp:140] Creating Layer BatchNorm_22
I0225 05:24:40.885876   118 net.cpp:481] BatchNorm_22 <- ConvNd_24
I0225 05:24:40.885881   118 net.cpp:455] BatchNorm_22 -> BatchNorm_22
I0225 05:24:40.886397   118 net.cpp:190] Setting up BatchNorm_22
I0225 05:24:40.886405   118 net.cpp:197] Top shape: 1 128 64 128 (1048576)
I0225 05:24:40.886410   118 net.cpp:205] Memory required for data: 492830724
I0225 05:24:40.886420   118 layer_factory.hpp:123] Creating layer Threshold_28
I0225 05:24:40.886426   118 net.cpp:140] Creating Layer Threshold_28
I0225 05:24:40.886430   118 net.cpp:481] Threshold_28 <- BatchNorm_22
I0225 05:24:40.886435   118 net.cpp:442] Threshold_28 -> BatchNorm_22 (in-place)
I0225 05:24:40.886440   118 net.cpp:190] Setting up Threshold_28
I0225 05:24:40.886443   118 net.cpp:197] Top shape: 1 128 64 128 (1048576)
I0225 05:24:40.886448   118 net.cpp:205] Memory required for data: 497025028
I0225 05:24:40.886451   118 layer_factory.hpp:123] Creating layer Add_7
I0225 05:24:40.886456   118 net.cpp:140] Creating Layer Add_7
I0225 05:24:40.886461   118 net.cpp:481] Add_7 <- Add_6_Threshold_25_0_split_1
I0225 05:24:40.886464   118 net.cpp:481] Add_7 <- BatchNorm_22
I0225 05:24:40.886468   118 net.cpp:455] Add_7 -> Add_7
I0225 05:24:40.886487   118 net.cpp:190] Setting up Add_7
I0225 05:24:40.886492   118 net.cpp:197] Top shape: 1 128 64 128 (1048576)
I0225 05:24:40.886497   118 net.cpp:205] Memory required for data: 501219332
I0225 05:24:40.886500   118 layer_factory.hpp:123] Creating layer Threshold_29
I0225 05:24:40.886504   118 net.cpp:140] Creating Layer Threshold_29
I0225 05:24:40.886508   118 net.cpp:481] Threshold_29 <- Add_7
I0225 05:24:40.886512   118 net.cpp:442] Threshold_29 -> Add_7 (in-place)
I0225 05:24:40.886518   118 net.cpp:190] Setting up Threshold_29
I0225 05:24:40.886520   118 net.cpp:197] Top shape: 1 128 64 128 (1048576)
I0225 05:24:40.886524   118 net.cpp:205] Memory required for data: 505413636
I0225 05:24:40.886528   118 layer_factory.hpp:123] Creating layer Add_7_Threshold_29_0_split
I0225 05:24:40.886533   118 net.cpp:140] Creating Layer Add_7_Threshold_29_0_split
I0225 05:24:40.886535   118 net.cpp:481] Add_7_Threshold_29_0_split <- Add_7
I0225 05:24:40.886539   118 net.cpp:455] Add_7_Threshold_29_0_split -> Add_7_Threshold_29_0_split_0
I0225 05:24:40.886544   118 net.cpp:455] Add_7_Threshold_29_0_split -> Add_7_Threshold_29_0_split_1
I0225 05:24:40.886572   118 net.cpp:190] Setting up Add_7_Threshold_29_0_split
I0225 05:24:40.886577   118 net.cpp:197] Top shape: 1 128 64 128 (1048576)
I0225 05:24:40.886581   118 net.cpp:197] Top shape: 1 128 64 128 (1048576)
I0225 05:24:40.886585   118 net.cpp:205] Memory required for data: 513802244
I0225 05:24:40.886590   118 layer_factory.hpp:123] Creating layer ConvNd_25
I0225 05:24:40.886600   118 net.cpp:140] Creating Layer ConvNd_25
I0225 05:24:40.886606   118 net.cpp:481] ConvNd_25 <- Add_7_Threshold_29_0_split_0
I0225 05:24:40.886615   118 net.cpp:455] ConvNd_25 -> ConvNd_25
I0225 05:24:40.886795   118 net.cpp:190] Setting up ConvNd_25
I0225 05:24:40.886803   118 net.cpp:197] Top shape: 1 32 64 128 (262144)
I0225 05:24:40.886808   118 net.cpp:205] Memory required for data: 514850820
I0225 05:24:40.886814   118 layer_factory.hpp:123] Creating layer BatchNorm_23
I0225 05:24:40.886821   118 net.cpp:140] Creating Layer BatchNorm_23
I0225 05:24:40.886826   118 net.cpp:481] BatchNorm_23 <- ConvNd_25
I0225 05:24:40.886831   118 net.cpp:455] BatchNorm_23 -> BatchNorm_23
I0225 05:24:40.887419   118 net.cpp:190] Setting up BatchNorm_23
I0225 05:24:40.887428   118 net.cpp:197] Top shape: 1 32 64 128 (262144)
I0225 05:24:40.887432   118 net.cpp:205] Memory required for data: 515899396
I0225 05:24:40.887440   118 layer_factory.hpp:123] Creating layer Threshold_30
I0225 05:24:40.887445   118 net.cpp:140] Creating Layer Threshold_30
I0225 05:24:40.887449   118 net.cpp:481] Threshold_30 <- BatchNorm_23
I0225 05:24:40.887454   118 net.cpp:442] Threshold_30 -> BatchNorm_23 (in-place)
I0225 05:24:40.887459   118 net.cpp:190] Setting up Threshold_30
I0225 05:24:40.887464   118 net.cpp:197] Top shape: 1 32 64 128 (262144)
I0225 05:24:40.887467   118 net.cpp:205] Memory required for data: 516947972
I0225 05:24:40.887470   118 layer_factory.hpp:123] Creating layer ConvNd_26
I0225 05:24:40.887476   118 net.cpp:140] Creating Layer ConvNd_26
I0225 05:24:40.887480   118 net.cpp:481] ConvNd_26 <- BatchNorm_23
I0225 05:24:40.887485   118 net.cpp:455] ConvNd_26 -> ConvNd_26
I0225 05:24:40.887660   118 net.cpp:190] Setting up ConvNd_26
I0225 05:24:40.887667   118 net.cpp:197] Top shape: 1 32 64 128 (262144)
I0225 05:24:40.887672   118 net.cpp:205] Memory required for data: 517996548
I0225 05:24:40.887677   118 layer_factory.hpp:123] Creating layer BatchNorm_24
I0225 05:24:40.887684   118 net.cpp:140] Creating Layer BatchNorm_24
I0225 05:24:40.887688   118 net.cpp:481] BatchNorm_24 <- ConvNd_26
I0225 05:24:40.887693   118 net.cpp:455] BatchNorm_24 -> BatchNorm_24
I0225 05:24:40.888289   118 net.cpp:190] Setting up BatchNorm_24
I0225 05:24:40.888298   118 net.cpp:197] Top shape: 1 32 64 128 (262144)
I0225 05:24:40.888303   118 net.cpp:205] Memory required for data: 519045124
I0225 05:24:40.888311   118 layer_factory.hpp:123] Creating layer Threshold_31
I0225 05:24:40.888316   118 net.cpp:140] Creating Layer Threshold_31
I0225 05:24:40.888320   118 net.cpp:481] Threshold_31 <- BatchNorm_24
I0225 05:24:40.888325   118 net.cpp:442] Threshold_31 -> BatchNorm_24 (in-place)
I0225 05:24:40.888331   118 net.cpp:190] Setting up Threshold_31
I0225 05:24:40.888334   118 net.cpp:197] Top shape: 1 32 64 128 (262144)
I0225 05:24:40.888339   118 net.cpp:205] Memory required for data: 520093700
I0225 05:24:40.888341   118 layer_factory.hpp:123] Creating layer ConvNd_27
I0225 05:24:40.888348   118 net.cpp:140] Creating Layer ConvNd_27
I0225 05:24:40.888351   118 net.cpp:481] ConvNd_27 <- BatchNorm_24
I0225 05:24:40.888356   118 net.cpp:455] ConvNd_27 -> ConvNd_27
I0225 05:24:40.888536   118 net.cpp:190] Setting up ConvNd_27
I0225 05:24:40.888545   118 net.cpp:197] Top shape: 1 128 64 128 (1048576)
I0225 05:24:40.888550   118 net.cpp:205] Memory required for data: 524288004
I0225 05:24:40.888556   118 layer_factory.hpp:123] Creating layer BatchNorm_25
I0225 05:24:40.888562   118 net.cpp:140] Creating Layer BatchNorm_25
I0225 05:24:40.888566   118 net.cpp:481] BatchNorm_25 <- ConvNd_27
I0225 05:24:40.888571   118 net.cpp:455] BatchNorm_25 -> BatchNorm_25
I0225 05:24:40.889091   118 net.cpp:190] Setting up BatchNorm_25
I0225 05:24:40.889098   118 net.cpp:197] Top shape: 1 128 64 128 (1048576)
I0225 05:24:40.889104   118 net.cpp:205] Memory required for data: 528482308
I0225 05:24:40.889112   118 layer_factory.hpp:123] Creating layer Threshold_32
I0225 05:24:40.889118   118 net.cpp:140] Creating Layer Threshold_32
I0225 05:24:40.889122   118 net.cpp:481] Threshold_32 <- BatchNorm_25
I0225 05:24:40.889127   118 net.cpp:442] Threshold_32 -> BatchNorm_25 (in-place)
I0225 05:24:40.889132   118 net.cpp:190] Setting up Threshold_32
I0225 05:24:40.889135   118 net.cpp:197] Top shape: 1 128 64 128 (1048576)
I0225 05:24:40.889140   118 net.cpp:205] Memory required for data: 532676612
I0225 05:24:40.889143   118 layer_factory.hpp:123] Creating layer Add_8
I0225 05:24:40.889149   118 net.cpp:140] Creating Layer Add_8
I0225 05:24:40.889153   118 net.cpp:481] Add_8 <- Add_7_Threshold_29_0_split_1
I0225 05:24:40.889156   118 net.cpp:481] Add_8 <- BatchNorm_25
I0225 05:24:40.889161   118 net.cpp:455] Add_8 -> Add_8
I0225 05:24:40.889180   118 net.cpp:190] Setting up Add_8
I0225 05:24:40.889185   118 net.cpp:197] Top shape: 1 128 64 128 (1048576)
I0225 05:24:40.889190   118 net.cpp:205] Memory required for data: 536870916
I0225 05:24:40.889194   118 layer_factory.hpp:123] Creating layer Threshold_33
I0225 05:24:40.889197   118 net.cpp:140] Creating Layer Threshold_33
I0225 05:24:40.889201   118 net.cpp:481] Threshold_33 <- Add_8
I0225 05:24:40.889205   118 net.cpp:442] Threshold_33 -> Add_8 (in-place)
I0225 05:24:40.889210   118 net.cpp:190] Setting up Threshold_33
I0225 05:24:40.889214   118 net.cpp:197] Top shape: 1 128 64 128 (1048576)
I0225 05:24:40.889219   118 net.cpp:205] Memory required for data: 541065220
I0225 05:24:40.889221   118 layer_factory.hpp:123] Creating layer Add_8_Threshold_33_0_split
I0225 05:24:40.889226   118 net.cpp:140] Creating Layer Add_8_Threshold_33_0_split
I0225 05:24:40.889231   118 net.cpp:481] Add_8_Threshold_33_0_split <- Add_8
I0225 05:24:40.889238   118 net.cpp:455] Add_8_Threshold_33_0_split -> Add_8_Threshold_33_0_split_0
I0225 05:24:40.889247   118 net.cpp:455] Add_8_Threshold_33_0_split -> Add_8_Threshold_33_0_split_1
I0225 05:24:40.889282   118 net.cpp:190] Setting up Add_8_Threshold_33_0_split
I0225 05:24:40.889289   118 net.cpp:197] Top shape: 1 128 64 128 (1048576)
I0225 05:24:40.889297   118 net.cpp:197] Top shape: 1 128 64 128 (1048576)
I0225 05:24:40.889312   118 net.cpp:205] Memory required for data: 549453828
I0225 05:24:40.889317   118 layer_factory.hpp:123] Creating layer ConvNd_28
I0225 05:24:40.889323   118 net.cpp:140] Creating Layer ConvNd_28
I0225 05:24:40.889326   118 net.cpp:481] ConvNd_28 <- Add_8_Threshold_33_0_split_0
I0225 05:24:40.889331   118 net.cpp:455] ConvNd_28 -> ConvNd_28
I0225 05:24:40.889511   118 net.cpp:190] Setting up ConvNd_28
I0225 05:24:40.889519   118 net.cpp:197] Top shape: 1 32 64 128 (262144)
I0225 05:24:40.889524   118 net.cpp:205] Memory required for data: 550502404
I0225 05:24:40.889529   118 layer_factory.hpp:123] Creating layer BatchNorm_26
I0225 05:24:40.889536   118 net.cpp:140] Creating Layer BatchNorm_26
I0225 05:24:40.889540   118 net.cpp:481] BatchNorm_26 <- ConvNd_28
I0225 05:24:40.889545   118 net.cpp:455] BatchNorm_26 -> BatchNorm_26
I0225 05:24:40.890146   118 net.cpp:190] Setting up BatchNorm_26
I0225 05:24:40.890156   118 net.cpp:197] Top shape: 1 32 64 128 (262144)
I0225 05:24:40.890161   118 net.cpp:205] Memory required for data: 551550980
I0225 05:24:40.890169   118 layer_factory.hpp:123] Creating layer Threshold_34
I0225 05:24:40.890174   118 net.cpp:140] Creating Layer Threshold_34
I0225 05:24:40.890178   118 net.cpp:481] Threshold_34 <- BatchNorm_26
I0225 05:24:40.890182   118 net.cpp:442] Threshold_34 -> BatchNorm_26 (in-place)
I0225 05:24:40.890188   118 net.cpp:190] Setting up Threshold_34
I0225 05:24:40.890192   118 net.cpp:197] Top shape: 1 32 64 128 (262144)
I0225 05:24:40.890195   118 net.cpp:205] Memory required for data: 552599556
I0225 05:24:40.890198   118 layer_factory.hpp:123] Creating layer ConvNd_29
I0225 05:24:40.890205   118 net.cpp:140] Creating Layer ConvNd_29
I0225 05:24:40.890208   118 net.cpp:481] ConvNd_29 <- BatchNorm_26
I0225 05:24:40.890213   118 net.cpp:455] ConvNd_29 -> ConvNd_29
I0225 05:24:40.891069   118 net.cpp:190] Setting up ConvNd_29
I0225 05:24:40.891079   118 net.cpp:197] Top shape: 1 32 64 128 (262144)
I0225 05:24:40.891085   118 net.cpp:205] Memory required for data: 553648132
I0225 05:24:40.891091   118 layer_factory.hpp:123] Creating layer BatchNorm_27
I0225 05:24:40.891099   118 net.cpp:140] Creating Layer BatchNorm_27
I0225 05:24:40.891103   118 net.cpp:481] BatchNorm_27 <- ConvNd_29
I0225 05:24:40.891108   118 net.cpp:455] BatchNorm_27 -> BatchNorm_27
I0225 05:24:40.891729   118 net.cpp:190] Setting up BatchNorm_27
I0225 05:24:40.891738   118 net.cpp:197] Top shape: 1 32 64 128 (262144)
I0225 05:24:40.891743   118 net.cpp:205] Memory required for data: 554696708
I0225 05:24:40.891752   118 layer_factory.hpp:123] Creating layer Threshold_35
I0225 05:24:40.891757   118 net.cpp:140] Creating Layer Threshold_35
I0225 05:24:40.891762   118 net.cpp:481] Threshold_35 <- BatchNorm_27
I0225 05:24:40.891767   118 net.cpp:442] Threshold_35 -> BatchNorm_27 (in-place)
I0225 05:24:40.891772   118 net.cpp:190] Setting up Threshold_35
I0225 05:24:40.891775   118 net.cpp:197] Top shape: 1 32 64 128 (262144)
I0225 05:24:40.891779   118 net.cpp:205] Memory required for data: 555745284
I0225 05:24:40.891783   118 layer_factory.hpp:123] Creating layer ConvNd_30
I0225 05:24:40.891789   118 net.cpp:140] Creating Layer ConvNd_30
I0225 05:24:40.891793   118 net.cpp:481] ConvNd_30 <- BatchNorm_27
I0225 05:24:40.891798   118 net.cpp:455] ConvNd_30 -> ConvNd_30
I0225 05:24:40.891981   118 net.cpp:190] Setting up ConvNd_30
I0225 05:24:40.891993   118 net.cpp:197] Top shape: 1 32 64 128 (262144)
I0225 05:24:40.891999   118 net.cpp:205] Memory required for data: 556793860
I0225 05:24:40.892004   118 layer_factory.hpp:123] Creating layer BatchNorm_28
I0225 05:24:40.892011   118 net.cpp:140] Creating Layer BatchNorm_28
I0225 05:24:40.892015   118 net.cpp:481] BatchNorm_28 <- ConvNd_30
I0225 05:24:40.892021   118 net.cpp:455] BatchNorm_28 -> BatchNorm_28
I0225 05:24:40.892616   118 net.cpp:190] Setting up BatchNorm_28
I0225 05:24:40.892623   118 net.cpp:197] Top shape: 1 32 64 128 (262144)
I0225 05:24:40.892628   118 net.cpp:205] Memory required for data: 557842436
I0225 05:24:40.892637   118 layer_factory.hpp:123] Creating layer Threshold_36
I0225 05:24:40.892644   118 net.cpp:140] Creating Layer Threshold_36
I0225 05:24:40.892648   118 net.cpp:481] Threshold_36 <- BatchNorm_28
I0225 05:24:40.892652   118 net.cpp:442] Threshold_36 -> BatchNorm_28 (in-place)
I0225 05:24:40.892658   118 net.cpp:190] Setting up Threshold_36
I0225 05:24:40.892661   118 net.cpp:197] Top shape: 1 32 64 128 (262144)
I0225 05:24:40.892665   118 net.cpp:205] Memory required for data: 558891012
I0225 05:24:40.892669   118 layer_factory.hpp:123] Creating layer ConvNd_31
I0225 05:24:40.892675   118 net.cpp:140] Creating Layer ConvNd_31
I0225 05:24:40.892679   118 net.cpp:481] ConvNd_31 <- BatchNorm_28
I0225 05:24:40.892683   118 net.cpp:455] ConvNd_31 -> ConvNd_31
I0225 05:24:40.892856   118 net.cpp:190] Setting up ConvNd_31
I0225 05:24:40.892864   118 net.cpp:197] Top shape: 1 128 64 128 (1048576)
I0225 05:24:40.892870   118 net.cpp:205] Memory required for data: 563085316
I0225 05:24:40.892875   118 layer_factory.hpp:123] Creating layer BatchNorm_29
I0225 05:24:40.892882   118 net.cpp:140] Creating Layer BatchNorm_29
I0225 05:24:40.892886   118 net.cpp:481] BatchNorm_29 <- ConvNd_31
I0225 05:24:40.892891   118 net.cpp:455] BatchNorm_29 -> BatchNorm_29
I0225 05:24:40.893378   118 net.cpp:190] Setting up BatchNorm_29
I0225 05:24:40.893385   118 net.cpp:197] Top shape: 1 128 64 128 (1048576)
I0225 05:24:40.893390   118 net.cpp:205] Memory required for data: 567279620
I0225 05:24:40.893399   118 layer_factory.hpp:123] Creating layer Threshold_37
I0225 05:24:40.893405   118 net.cpp:140] Creating Layer Threshold_37
I0225 05:24:40.893409   118 net.cpp:481] Threshold_37 <- BatchNorm_29
I0225 05:24:40.893414   118 net.cpp:442] Threshold_37 -> BatchNorm_29 (in-place)
I0225 05:24:40.893419   118 net.cpp:190] Setting up Threshold_37
I0225 05:24:40.893422   118 net.cpp:197] Top shape: 1 128 64 128 (1048576)
I0225 05:24:40.893426   118 net.cpp:205] Memory required for data: 571473924
I0225 05:24:40.893430   118 layer_factory.hpp:123] Creating layer Add_9
I0225 05:24:40.893435   118 net.cpp:140] Creating Layer Add_9
I0225 05:24:40.893440   118 net.cpp:481] Add_9 <- Add_8_Threshold_33_0_split_1
I0225 05:24:40.893443   118 net.cpp:481] Add_9 <- BatchNorm_29
I0225 05:24:40.893447   118 net.cpp:455] Add_9 -> Add_9
I0225 05:24:40.893466   118 net.cpp:190] Setting up Add_9
I0225 05:24:40.893471   118 net.cpp:197] Top shape: 1 128 64 128 (1048576)
I0225 05:24:40.893476   118 net.cpp:205] Memory required for data: 575668228
I0225 05:24:40.893481   118 layer_factory.hpp:123] Creating layer Threshold_38
I0225 05:24:40.893484   118 net.cpp:140] Creating Layer Threshold_38
I0225 05:24:40.893488   118 net.cpp:481] Threshold_38 <- Add_9
I0225 05:24:40.893492   118 net.cpp:442] Threshold_38 -> Add_9 (in-place)
I0225 05:24:40.893497   118 net.cpp:190] Setting up Threshold_38
I0225 05:24:40.893501   118 net.cpp:197] Top shape: 1 128 64 128 (1048576)
I0225 05:24:40.893505   118 net.cpp:205] Memory required for data: 579862532
I0225 05:24:40.893508   118 layer_factory.hpp:123] Creating layer Add_9_Threshold_38_0_split
I0225 05:24:40.893513   118 net.cpp:140] Creating Layer Add_9_Threshold_38_0_split
I0225 05:24:40.893517   118 net.cpp:481] Add_9_Threshold_38_0_split <- Add_9
I0225 05:24:40.893522   118 net.cpp:455] Add_9_Threshold_38_0_split -> Add_9_Threshold_38_0_split_0
I0225 05:24:40.893527   118 net.cpp:455] Add_9_Threshold_38_0_split -> Add_9_Threshold_38_0_split_1
I0225 05:24:40.893553   118 net.cpp:190] Setting up Add_9_Threshold_38_0_split
I0225 05:24:40.893558   118 net.cpp:197] Top shape: 1 128 64 128 (1048576)
I0225 05:24:40.893563   118 net.cpp:197] Top shape: 1 128 64 128 (1048576)
I0225 05:24:40.893568   118 net.cpp:205] Memory required for data: 588251140
I0225 05:24:40.893570   118 layer_factory.hpp:123] Creating layer ConvNd_32
I0225 05:24:40.893577   118 net.cpp:140] Creating Layer ConvNd_32
I0225 05:24:40.893580   118 net.cpp:481] ConvNd_32 <- Add_9_Threshold_38_0_split_0
I0225 05:24:40.893585   118 net.cpp:455] ConvNd_32 -> ConvNd_32
I0225 05:24:40.893746   118 net.cpp:190] Setting up ConvNd_32
I0225 05:24:40.893752   118 net.cpp:197] Top shape: 1 32 64 128 (262144)
I0225 05:24:40.893757   118 net.cpp:205] Memory required for data: 589299716
I0225 05:24:40.893765   118 layer_factory.hpp:123] Creating layer BatchNorm_30
I0225 05:24:40.893772   118 net.cpp:140] Creating Layer BatchNorm_30
I0225 05:24:40.893775   118 net.cpp:481] BatchNorm_30 <- ConvNd_32
I0225 05:24:40.893781   118 net.cpp:455] BatchNorm_30 -> BatchNorm_30
I0225 05:24:40.894379   118 net.cpp:190] Setting up BatchNorm_30
I0225 05:24:40.894387   118 net.cpp:197] Top shape: 1 32 64 128 (262144)
I0225 05:24:40.894393   118 net.cpp:205] Memory required for data: 590348292
I0225 05:24:40.894402   118 layer_factory.hpp:123] Creating layer Threshold_39
I0225 05:24:40.894407   118 net.cpp:140] Creating Layer Threshold_39
I0225 05:24:40.894410   118 net.cpp:481] Threshold_39 <- BatchNorm_30
I0225 05:24:40.894415   118 net.cpp:442] Threshold_39 -> BatchNorm_30 (in-place)
I0225 05:24:40.894421   118 net.cpp:190] Setting up Threshold_39
I0225 05:24:40.894424   118 net.cpp:197] Top shape: 1 32 64 128 (262144)
I0225 05:24:40.894428   118 net.cpp:205] Memory required for data: 591396868
I0225 05:24:40.894431   118 layer_factory.hpp:123] Creating layer ConvNd_33
I0225 05:24:40.894438   118 net.cpp:140] Creating Layer ConvNd_33
I0225 05:24:40.894440   118 net.cpp:481] ConvNd_33 <- BatchNorm_30
I0225 05:24:40.894445   118 net.cpp:455] ConvNd_33 -> ConvNd_33
I0225 05:24:40.894623   118 net.cpp:190] Setting up ConvNd_33
I0225 05:24:40.894630   118 net.cpp:197] Top shape: 1 32 64 128 (262144)
I0225 05:24:40.894636   118 net.cpp:205] Memory required for data: 592445444
I0225 05:24:40.894641   118 layer_factory.hpp:123] Creating layer BatchNorm_31
I0225 05:24:40.894649   118 net.cpp:140] Creating Layer BatchNorm_31
I0225 05:24:40.894652   118 net.cpp:481] BatchNorm_31 <- ConvNd_33
I0225 05:24:40.894657   118 net.cpp:455] BatchNorm_31 -> BatchNorm_31
I0225 05:24:40.895247   118 net.cpp:190] Setting up BatchNorm_31
I0225 05:24:40.895256   118 net.cpp:197] Top shape: 1 32 64 128 (262144)
I0225 05:24:40.895260   118 net.cpp:205] Memory required for data: 593494020
I0225 05:24:40.895269   118 layer_factory.hpp:123] Creating layer Threshold_40
I0225 05:24:40.895277   118 net.cpp:140] Creating Layer Threshold_40
I0225 05:24:40.895283   118 net.cpp:481] Threshold_40 <- BatchNorm_31
I0225 05:24:40.895288   118 net.cpp:442] Threshold_40 -> BatchNorm_31 (in-place)
I0225 05:24:40.895294   118 net.cpp:190] Setting up Threshold_40
I0225 05:24:40.895298   118 net.cpp:197] Top shape: 1 32 64 128 (262144)
I0225 05:24:40.895303   118 net.cpp:205] Memory required for data: 594542596
I0225 05:24:40.895305   118 layer_factory.hpp:123] Creating layer ConvNd_34
I0225 05:24:40.895311   118 net.cpp:140] Creating Layer ConvNd_34
I0225 05:24:40.895314   118 net.cpp:481] ConvNd_34 <- BatchNorm_31
I0225 05:24:40.895318   118 net.cpp:455] ConvNd_34 -> ConvNd_34
I0225 05:24:40.895498   118 net.cpp:190] Setting up ConvNd_34
I0225 05:24:40.895505   118 net.cpp:197] Top shape: 1 128 64 128 (1048576)
I0225 05:24:40.895510   118 net.cpp:205] Memory required for data: 598736900
I0225 05:24:40.895515   118 layer_factory.hpp:123] Creating layer BatchNorm_32
I0225 05:24:40.895522   118 net.cpp:140] Creating Layer BatchNorm_32
I0225 05:24:40.895526   118 net.cpp:481] BatchNorm_32 <- ConvNd_34
I0225 05:24:40.895531   118 net.cpp:455] BatchNorm_32 -> BatchNorm_32
I0225 05:24:40.896044   118 net.cpp:190] Setting up BatchNorm_32
I0225 05:24:40.896054   118 net.cpp:197] Top shape: 1 128 64 128 (1048576)
I0225 05:24:40.896059   118 net.cpp:205] Memory required for data: 602931204
I0225 05:24:40.896067   118 layer_factory.hpp:123] Creating layer Threshold_41
I0225 05:24:40.896075   118 net.cpp:140] Creating Layer Threshold_41
I0225 05:24:40.896080   118 net.cpp:481] Threshold_41 <- BatchNorm_32
I0225 05:24:40.896083   118 net.cpp:442] Threshold_41 -> BatchNorm_32 (in-place)
I0225 05:24:40.896090   118 net.cpp:190] Setting up Threshold_41
I0225 05:24:40.896092   118 net.cpp:197] Top shape: 1 128 64 128 (1048576)
I0225 05:24:40.896096   118 net.cpp:205] Memory required for data: 607125508
I0225 05:24:40.896100   118 layer_factory.hpp:123] Creating layer Add_10
I0225 05:24:40.896106   118 net.cpp:140] Creating Layer Add_10
I0225 05:24:40.896109   118 net.cpp:481] Add_10 <- Add_9_Threshold_38_0_split_1
I0225 05:24:40.896112   118 net.cpp:481] Add_10 <- BatchNorm_32
I0225 05:24:40.896117   118 net.cpp:455] Add_10 -> Add_10
I0225 05:24:40.896136   118 net.cpp:190] Setting up Add_10
I0225 05:24:40.896142   118 net.cpp:197] Top shape: 1 128 64 128 (1048576)
I0225 05:24:40.896147   118 net.cpp:205] Memory required for data: 611319812
I0225 05:24:40.896150   118 layer_factory.hpp:123] Creating layer Threshold_42
I0225 05:24:40.896154   118 net.cpp:140] Creating Layer Threshold_42
I0225 05:24:40.896157   118 net.cpp:481] Threshold_42 <- Add_10
I0225 05:24:40.896162   118 net.cpp:442] Threshold_42 -> Add_10 (in-place)
I0225 05:24:40.896167   118 net.cpp:190] Setting up Threshold_42
I0225 05:24:40.896170   118 net.cpp:197] Top shape: 1 128 64 128 (1048576)
I0225 05:24:40.896174   118 net.cpp:205] Memory required for data: 615514116
I0225 05:24:40.896178   118 layer_factory.hpp:123] Creating layer Add_10_Threshold_42_0_split
I0225 05:24:40.896183   118 net.cpp:140] Creating Layer Add_10_Threshold_42_0_split
I0225 05:24:40.896185   118 net.cpp:481] Add_10_Threshold_42_0_split <- Add_10
I0225 05:24:40.896189   118 net.cpp:455] Add_10_Threshold_42_0_split -> Add_10_Threshold_42_0_split_0
I0225 05:24:40.896195   118 net.cpp:455] Add_10_Threshold_42_0_split -> Add_10_Threshold_42_0_split_1
I0225 05:24:40.896222   118 net.cpp:190] Setting up Add_10_Threshold_42_0_split
I0225 05:24:40.896227   118 net.cpp:197] Top shape: 1 128 64 128 (1048576)
I0225 05:24:40.896232   118 net.cpp:197] Top shape: 1 128 64 128 (1048576)
I0225 05:24:40.896236   118 net.cpp:205] Memory required for data: 623902724
I0225 05:24:40.896239   118 layer_factory.hpp:123] Creating layer ConvNd_35
I0225 05:24:40.896246   118 net.cpp:140] Creating Layer ConvNd_35
I0225 05:24:40.896250   118 net.cpp:481] ConvNd_35 <- Add_10_Threshold_42_0_split_0
I0225 05:24:40.896255   118 net.cpp:455] ConvNd_35 -> ConvNd_35
I0225 05:24:40.896432   118 net.cpp:190] Setting up ConvNd_35
I0225 05:24:40.896440   118 net.cpp:197] Top shape: 1 32 64 128 (262144)
I0225 05:24:40.896445   118 net.cpp:205] Memory required for data: 624951300
I0225 05:24:40.896450   118 layer_factory.hpp:123] Creating layer BatchNorm_33
I0225 05:24:40.896458   118 net.cpp:140] Creating Layer BatchNorm_33
I0225 05:24:40.896462   118 net.cpp:481] BatchNorm_33 <- ConvNd_35
I0225 05:24:40.896467   118 net.cpp:455] BatchNorm_33 -> BatchNorm_33
I0225 05:24:40.897068   118 net.cpp:190] Setting up BatchNorm_33
I0225 05:24:40.897075   118 net.cpp:197] Top shape: 1 32 64 128 (262144)
I0225 05:24:40.897080   118 net.cpp:205] Memory required for data: 625999876
I0225 05:24:40.897089   118 layer_factory.hpp:123] Creating layer Threshold_43
I0225 05:24:40.897095   118 net.cpp:140] Creating Layer Threshold_43
I0225 05:24:40.897099   118 net.cpp:481] Threshold_43 <- BatchNorm_33
I0225 05:24:40.897104   118 net.cpp:442] Threshold_43 -> BatchNorm_33 (in-place)
I0225 05:24:40.897109   118 net.cpp:190] Setting up Threshold_43
I0225 05:24:40.897114   118 net.cpp:197] Top shape: 1 32 64 128 (262144)
I0225 05:24:40.897117   118 net.cpp:205] Memory required for data: 627048452
I0225 05:24:40.897120   118 layer_factory.hpp:123] Creating layer ConvNd_36
I0225 05:24:40.897126   118 net.cpp:140] Creating Layer ConvNd_36
I0225 05:24:40.897130   118 net.cpp:481] ConvNd_36 <- BatchNorm_33
I0225 05:24:40.897135   118 net.cpp:455] ConvNd_36 -> ConvNd_36
I0225 05:24:40.897318   118 net.cpp:190] Setting up ConvNd_36
I0225 05:24:40.897326   118 net.cpp:197] Top shape: 1 32 64 128 (262144)
I0225 05:24:40.897331   118 net.cpp:205] Memory required for data: 628097028
I0225 05:24:40.897336   118 layer_factory.hpp:123] Creating layer BatchNorm_34
I0225 05:24:40.897344   118 net.cpp:140] Creating Layer BatchNorm_34
I0225 05:24:40.897348   118 net.cpp:481] BatchNorm_34 <- ConvNd_36
I0225 05:24:40.897353   118 net.cpp:455] BatchNorm_34 -> BatchNorm_34
I0225 05:24:40.897949   118 net.cpp:190] Setting up BatchNorm_34
I0225 05:24:40.897958   118 net.cpp:197] Top shape: 1 32 64 128 (262144)
I0225 05:24:40.897964   118 net.cpp:205] Memory required for data: 629145604
I0225 05:24:40.897971   118 layer_factory.hpp:123] Creating layer Threshold_44
I0225 05:24:40.897979   118 net.cpp:140] Creating Layer Threshold_44
I0225 05:24:40.897982   118 net.cpp:481] Threshold_44 <- BatchNorm_34
I0225 05:24:40.897986   118 net.cpp:442] Threshold_44 -> BatchNorm_34 (in-place)
I0225 05:24:40.897994   118 net.cpp:190] Setting up Threshold_44
I0225 05:24:40.897996   118 net.cpp:197] Top shape: 1 32 64 128 (262144)
I0225 05:24:40.898000   118 net.cpp:205] Memory required for data: 630194180
I0225 05:24:40.898005   118 layer_factory.hpp:123] Creating layer ConvNd_37
I0225 05:24:40.898010   118 net.cpp:140] Creating Layer ConvNd_37
I0225 05:24:40.898015   118 net.cpp:481] ConvNd_37 <- BatchNorm_34
I0225 05:24:40.898018   118 net.cpp:455] ConvNd_37 -> ConvNd_37
I0225 05:24:40.898185   118 net.cpp:190] Setting up ConvNd_37
I0225 05:24:40.898195   118 net.cpp:197] Top shape: 1 128 64 128 (1048576)
I0225 05:24:40.898205   118 net.cpp:205] Memory required for data: 634388484
I0225 05:24:40.898211   118 layer_factory.hpp:123] Creating layer BatchNorm_35
I0225 05:24:40.898218   118 net.cpp:140] Creating Layer BatchNorm_35
I0225 05:24:40.898222   118 net.cpp:481] BatchNorm_35 <- ConvNd_37
I0225 05:24:40.898227   118 net.cpp:455] BatchNorm_35 -> BatchNorm_35
I0225 05:24:40.898735   118 net.cpp:190] Setting up BatchNorm_35
I0225 05:24:40.898742   118 net.cpp:197] Top shape: 1 128 64 128 (1048576)
I0225 05:24:40.898748   118 net.cpp:205] Memory required for data: 638582788
I0225 05:24:40.898756   118 layer_factory.hpp:123] Creating layer Threshold_45
I0225 05:24:40.898761   118 net.cpp:140] Creating Layer Threshold_45
I0225 05:24:40.898766   118 net.cpp:481] Threshold_45 <- BatchNorm_35
I0225 05:24:40.898770   118 net.cpp:442] Threshold_45 -> BatchNorm_35 (in-place)
I0225 05:24:40.898775   118 net.cpp:190] Setting up Threshold_45
I0225 05:24:40.898779   118 net.cpp:197] Top shape: 1 128 64 128 (1048576)
I0225 05:24:40.898783   118 net.cpp:205] Memory required for data: 642777092
I0225 05:24:40.898787   118 layer_factory.hpp:123] Creating layer Add_11
I0225 05:24:40.898792   118 net.cpp:140] Creating Layer Add_11
I0225 05:24:40.898795   118 net.cpp:481] Add_11 <- Add_10_Threshold_42_0_split_1
I0225 05:24:40.898799   118 net.cpp:481] Add_11 <- BatchNorm_35
I0225 05:24:40.898803   118 net.cpp:455] Add_11 -> Add_11
I0225 05:24:40.898823   118 net.cpp:190] Setting up Add_11
I0225 05:24:40.898828   118 net.cpp:197] Top shape: 1 128 64 128 (1048576)
I0225 05:24:40.898833   118 net.cpp:205] Memory required for data: 646971396
I0225 05:24:40.898835   118 layer_factory.hpp:123] Creating layer Threshold_46
I0225 05:24:40.898839   118 net.cpp:140] Creating Layer Threshold_46
I0225 05:24:40.898844   118 net.cpp:481] Threshold_46 <- Add_11
I0225 05:24:40.898847   118 net.cpp:442] Threshold_46 -> Add_11 (in-place)
I0225 05:24:40.898852   118 net.cpp:190] Setting up Threshold_46
I0225 05:24:40.898855   118 net.cpp:197] Top shape: 1 128 64 128 (1048576)
I0225 05:24:40.898859   118 net.cpp:205] Memory required for data: 651165700
I0225 05:24:40.898862   118 layer_factory.hpp:123] Creating layer Add_11_Threshold_46_0_split
I0225 05:24:40.898867   118 net.cpp:140] Creating Layer Add_11_Threshold_46_0_split
I0225 05:24:40.898870   118 net.cpp:481] Add_11_Threshold_46_0_split <- Add_11
I0225 05:24:40.898875   118 net.cpp:455] Add_11_Threshold_46_0_split -> Add_11_Threshold_46_0_split_0
I0225 05:24:40.898880   118 net.cpp:455] Add_11_Threshold_46_0_split -> Add_11_Threshold_46_0_split_1
I0225 05:24:40.898907   118 net.cpp:190] Setting up Add_11_Threshold_46_0_split
I0225 05:24:40.898912   118 net.cpp:197] Top shape: 1 128 64 128 (1048576)
I0225 05:24:40.898917   118 net.cpp:197] Top shape: 1 128 64 128 (1048576)
I0225 05:24:40.898921   118 net.cpp:205] Memory required for data: 659554308
I0225 05:24:40.898924   118 layer_factory.hpp:123] Creating layer ConvNd_38
I0225 05:24:40.898931   118 net.cpp:140] Creating Layer ConvNd_38
I0225 05:24:40.898934   118 net.cpp:481] ConvNd_38 <- Add_11_Threshold_46_0_split_0
I0225 05:24:40.898939   118 net.cpp:455] ConvNd_38 -> ConvNd_38
I0225 05:24:40.899116   118 net.cpp:190] Setting up ConvNd_38
I0225 05:24:40.899123   118 net.cpp:197] Top shape: 1 32 64 128 (262144)
I0225 05:24:40.899128   118 net.cpp:205] Memory required for data: 660602884
I0225 05:24:40.899133   118 layer_factory.hpp:123] Creating layer BatchNorm_36
I0225 05:24:40.899142   118 net.cpp:140] Creating Layer BatchNorm_36
I0225 05:24:40.899145   118 net.cpp:481] BatchNorm_36 <- ConvNd_38
I0225 05:24:40.899150   118 net.cpp:455] BatchNorm_36 -> BatchNorm_36
I0225 05:24:40.899749   118 net.cpp:190] Setting up BatchNorm_36
I0225 05:24:40.899756   118 net.cpp:197] Top shape: 1 32 64 128 (262144)
I0225 05:24:40.899762   118 net.cpp:205] Memory required for data: 661651460
I0225 05:24:40.899770   118 layer_factory.hpp:123] Creating layer Threshold_47
I0225 05:24:40.899775   118 net.cpp:140] Creating Layer Threshold_47
I0225 05:24:40.899780   118 net.cpp:481] Threshold_47 <- BatchNorm_36
I0225 05:24:40.899785   118 net.cpp:442] Threshold_47 -> BatchNorm_36 (in-place)
I0225 05:24:40.899791   118 net.cpp:190] Setting up Threshold_47
I0225 05:24:40.899793   118 net.cpp:197] Top shape: 1 32 64 128 (262144)
I0225 05:24:40.899797   118 net.cpp:205] Memory required for data: 662700036
I0225 05:24:40.899801   118 layer_factory.hpp:123] Creating layer ConvNd_39
I0225 05:24:40.899806   118 net.cpp:140] Creating Layer ConvNd_39
I0225 05:24:40.899811   118 net.cpp:481] ConvNd_39 <- BatchNorm_36
I0225 05:24:40.899814   118 net.cpp:455] ConvNd_39 -> ConvNd_39
I0225 05:24:40.899991   118 net.cpp:190] Setting up ConvNd_39
I0225 05:24:40.899998   118 net.cpp:197] Top shape: 1 32 64 128 (262144)
I0225 05:24:40.900003   118 net.cpp:205] Memory required for data: 663748612
I0225 05:24:40.900008   118 layer_factory.hpp:123] Creating layer BatchNorm_37
I0225 05:24:40.900015   118 net.cpp:140] Creating Layer BatchNorm_37
I0225 05:24:40.900019   118 net.cpp:481] BatchNorm_37 <- ConvNd_39
I0225 05:24:40.900025   118 net.cpp:455] BatchNorm_37 -> BatchNorm_37
I0225 05:24:40.900617   118 net.cpp:190] Setting up BatchNorm_37
I0225 05:24:40.900625   118 net.cpp:197] Top shape: 1 32 64 128 (262144)
I0225 05:24:40.900630   118 net.cpp:205] Memory required for data: 664797188
I0225 05:24:40.900638   118 layer_factory.hpp:123] Creating layer Threshold_48
I0225 05:24:40.900643   118 net.cpp:140] Creating Layer Threshold_48
I0225 05:24:40.900647   118 net.cpp:481] Threshold_48 <- BatchNorm_37
I0225 05:24:40.900652   118 net.cpp:442] Threshold_48 -> BatchNorm_37 (in-place)
I0225 05:24:40.900658   118 net.cpp:190] Setting up Threshold_48
I0225 05:24:40.900661   118 net.cpp:197] Top shape: 1 32 64 128 (262144)
I0225 05:24:40.900665   118 net.cpp:205] Memory required for data: 665845764
I0225 05:24:40.900668   118 layer_factory.hpp:123] Creating layer ConvNd_40
I0225 05:24:40.900674   118 net.cpp:140] Creating Layer ConvNd_40
I0225 05:24:40.900678   118 net.cpp:481] ConvNd_40 <- BatchNorm_37
I0225 05:24:40.900683   118 net.cpp:455] ConvNd_40 -> ConvNd_40
I0225 05:24:40.900862   118 net.cpp:190] Setting up ConvNd_40
I0225 05:24:40.900871   118 net.cpp:197] Top shape: 1 128 64 128 (1048576)
I0225 05:24:40.900876   118 net.cpp:205] Memory required for data: 670040068
I0225 05:24:40.900880   118 layer_factory.hpp:123] Creating layer BatchNorm_38
I0225 05:24:40.900887   118 net.cpp:140] Creating Layer BatchNorm_38
I0225 05:24:40.900892   118 net.cpp:481] BatchNorm_38 <- ConvNd_40
I0225 05:24:40.900897   118 net.cpp:455] BatchNorm_38 -> BatchNorm_38
I0225 05:24:40.901404   118 net.cpp:190] Setting up BatchNorm_38
I0225 05:24:40.901412   118 net.cpp:197] Top shape: 1 128 64 128 (1048576)
I0225 05:24:40.901418   118 net.cpp:205] Memory required for data: 674234372
I0225 05:24:40.901427   118 layer_factory.hpp:123] Creating layer Threshold_49
I0225 05:24:40.901432   118 net.cpp:140] Creating Layer Threshold_49
I0225 05:24:40.901435   118 net.cpp:481] Threshold_49 <- BatchNorm_38
I0225 05:24:40.901439   118 net.cpp:442] Threshold_49 -> BatchNorm_38 (in-place)
I0225 05:24:40.901445   118 net.cpp:190] Setting up Threshold_49
I0225 05:24:40.901448   118 net.cpp:197] Top shape: 1 128 64 128 (1048576)
I0225 05:24:40.901453   118 net.cpp:205] Memory required for data: 678428676
I0225 05:24:40.901456   118 layer_factory.hpp:123] Creating layer Add_12
I0225 05:24:40.901460   118 net.cpp:140] Creating Layer Add_12
I0225 05:24:40.901464   118 net.cpp:481] Add_12 <- Add_11_Threshold_46_0_split_1
I0225 05:24:40.901468   118 net.cpp:481] Add_12 <- BatchNorm_38
I0225 05:24:40.901473   118 net.cpp:455] Add_12 -> Add_12
I0225 05:24:40.901491   118 net.cpp:190] Setting up Add_12
I0225 05:24:40.901497   118 net.cpp:197] Top shape: 1 128 64 128 (1048576)
I0225 05:24:40.901501   118 net.cpp:205] Memory required for data: 682622980
I0225 05:24:40.901505   118 layer_factory.hpp:123] Creating layer Threshold_50
I0225 05:24:40.901510   118 net.cpp:140] Creating Layer Threshold_50
I0225 05:24:40.901512   118 net.cpp:481] Threshold_50 <- Add_12
I0225 05:24:40.901517   118 net.cpp:442] Threshold_50 -> Add_12 (in-place)
I0225 05:24:40.901522   118 net.cpp:190] Setting up Threshold_50
I0225 05:24:40.901525   118 net.cpp:197] Top shape: 1 128 64 128 (1048576)
I0225 05:24:40.901530   118 net.cpp:205] Memory required for data: 686817284
I0225 05:24:40.901532   118 layer_factory.hpp:123] Creating layer Add_12_Threshold_50_0_split
I0225 05:24:40.901537   118 net.cpp:140] Creating Layer Add_12_Threshold_50_0_split
I0225 05:24:40.901540   118 net.cpp:481] Add_12_Threshold_50_0_split <- Add_12
I0225 05:24:40.901544   118 net.cpp:455] Add_12_Threshold_50_0_split -> Add_12_Threshold_50_0_split_0
I0225 05:24:40.901551   118 net.cpp:455] Add_12_Threshold_50_0_split -> Add_12_Threshold_50_0_split_1
I0225 05:24:40.901592   118 net.cpp:190] Setting up Add_12_Threshold_50_0_split
I0225 05:24:40.901597   118 net.cpp:197] Top shape: 1 128 64 128 (1048576)
I0225 05:24:40.901603   118 net.cpp:197] Top shape: 1 128 64 128 (1048576)
I0225 05:24:40.901609   118 net.cpp:205] Memory required for data: 695205892
I0225 05:24:40.901615   118 layer_factory.hpp:123] Creating layer ConvNd_41
I0225 05:24:40.901624   118 net.cpp:140] Creating Layer ConvNd_41
I0225 05:24:40.901628   118 net.cpp:481] ConvNd_41 <- Add_12_Threshold_50_0_split_0
I0225 05:24:40.901633   118 net.cpp:455] ConvNd_41 -> ConvNd_41
I0225 05:24:40.901809   118 net.cpp:190] Setting up ConvNd_41
I0225 05:24:40.901816   118 net.cpp:197] Top shape: 1 32 64 128 (262144)
I0225 05:24:40.901823   118 net.cpp:205] Memory required for data: 696254468
I0225 05:24:40.901827   118 layer_factory.hpp:123] Creating layer BatchNorm_39
I0225 05:24:40.901834   118 net.cpp:140] Creating Layer BatchNorm_39
I0225 05:24:40.901839   118 net.cpp:481] BatchNorm_39 <- ConvNd_41
I0225 05:24:40.901844   118 net.cpp:455] BatchNorm_39 -> BatchNorm_39
I0225 05:24:40.902441   118 net.cpp:190] Setting up BatchNorm_39
I0225 05:24:40.902448   118 net.cpp:197] Top shape: 1 32 64 128 (262144)
I0225 05:24:40.902454   118 net.cpp:205] Memory required for data: 697303044
I0225 05:24:40.902462   118 layer_factory.hpp:123] Creating layer Threshold_51
I0225 05:24:40.902467   118 net.cpp:140] Creating Layer Threshold_51
I0225 05:24:40.902472   118 net.cpp:481] Threshold_51 <- BatchNorm_39
I0225 05:24:40.902477   118 net.cpp:442] Threshold_51 -> BatchNorm_39 (in-place)
I0225 05:24:40.902482   118 net.cpp:190] Setting up Threshold_51
I0225 05:24:40.902484   118 net.cpp:197] Top shape: 1 32 64 128 (262144)
I0225 05:24:40.902489   118 net.cpp:205] Memory required for data: 698351620
I0225 05:24:40.902493   118 layer_factory.hpp:123] Creating layer ConvNd_42
I0225 05:24:40.902498   118 net.cpp:140] Creating Layer ConvNd_42
I0225 05:24:40.902503   118 net.cpp:481] ConvNd_42 <- BatchNorm_39
I0225 05:24:40.902506   118 net.cpp:455] ConvNd_42 -> ConvNd_42
I0225 05:24:40.902688   118 net.cpp:190] Setting up ConvNd_42
I0225 05:24:40.902696   118 net.cpp:197] Top shape: 1 32 64 128 (262144)
I0225 05:24:40.902701   118 net.cpp:205] Memory required for data: 699400196
I0225 05:24:40.902706   118 layer_factory.hpp:123] Creating layer BatchNorm_40
I0225 05:24:40.902714   118 net.cpp:140] Creating Layer BatchNorm_40
I0225 05:24:40.902717   118 net.cpp:481] BatchNorm_40 <- ConvNd_42
I0225 05:24:40.902722   118 net.cpp:455] BatchNorm_40 -> BatchNorm_40
I0225 05:24:40.903323   118 net.cpp:190] Setting up BatchNorm_40
I0225 05:24:40.903331   118 net.cpp:197] Top shape: 1 32 64 128 (262144)
I0225 05:24:40.903337   118 net.cpp:205] Memory required for data: 700448772
I0225 05:24:40.903345   118 layer_factory.hpp:123] Creating layer Threshold_52
I0225 05:24:40.903352   118 net.cpp:140] Creating Layer Threshold_52
I0225 05:24:40.903357   118 net.cpp:481] Threshold_52 <- BatchNorm_40
I0225 05:24:40.903360   118 net.cpp:442] Threshold_52 -> BatchNorm_40 (in-place)
I0225 05:24:40.903367   118 net.cpp:190] Setting up Threshold_52
I0225 05:24:40.903369   118 net.cpp:197] Top shape: 1 32 64 128 (262144)
I0225 05:24:40.903373   118 net.cpp:205] Memory required for data: 701497348
I0225 05:24:40.903376   118 layer_factory.hpp:123] Creating layer ConvNd_43
I0225 05:24:40.903383   118 net.cpp:140] Creating Layer ConvNd_43
I0225 05:24:40.903386   118 net.cpp:481] ConvNd_43 <- BatchNorm_40
I0225 05:24:40.903390   118 net.cpp:455] ConvNd_43 -> ConvNd_43
I0225 05:24:40.903574   118 net.cpp:190] Setting up ConvNd_43
I0225 05:24:40.903582   118 net.cpp:197] Top shape: 1 32 64 128 (262144)
I0225 05:24:40.903587   118 net.cpp:205] Memory required for data: 702545924
I0225 05:24:40.903592   118 layer_factory.hpp:123] Creating layer BatchNorm_41
I0225 05:24:40.903599   118 net.cpp:140] Creating Layer BatchNorm_41
I0225 05:24:40.903604   118 net.cpp:481] BatchNorm_41 <- ConvNd_43
I0225 05:24:40.903609   118 net.cpp:455] BatchNorm_41 -> BatchNorm_41
I0225 05:24:40.904233   118 net.cpp:190] Setting up BatchNorm_41
I0225 05:24:40.904242   118 net.cpp:197] Top shape: 1 32 64 128 (262144)
I0225 05:24:40.904247   118 net.cpp:205] Memory required for data: 703594500
I0225 05:24:40.904255   118 layer_factory.hpp:123] Creating layer Threshold_53
I0225 05:24:40.904260   118 net.cpp:140] Creating Layer Threshold_53
I0225 05:24:40.904264   118 net.cpp:481] Threshold_53 <- BatchNorm_41
I0225 05:24:40.904269   118 net.cpp:442] Threshold_53 -> BatchNorm_41 (in-place)
I0225 05:24:40.904275   118 net.cpp:190] Setting up Threshold_53
I0225 05:24:40.904278   118 net.cpp:197] Top shape: 1 32 64 128 (262144)
I0225 05:24:40.904284   118 net.cpp:205] Memory required for data: 704643076
I0225 05:24:40.904286   118 layer_factory.hpp:123] Creating layer ConvNd_44
I0225 05:24:40.904292   118 net.cpp:140] Creating Layer ConvNd_44
I0225 05:24:40.904295   118 net.cpp:481] ConvNd_44 <- BatchNorm_41
I0225 05:24:40.904301   118 net.cpp:455] ConvNd_44 -> ConvNd_44
I0225 05:24:40.904486   118 net.cpp:190] Setting up ConvNd_44
I0225 05:24:40.904500   118 net.cpp:197] Top shape: 1 128 64 128 (1048576)
I0225 05:24:40.904510   118 net.cpp:205] Memory required for data: 708837380
I0225 05:24:40.904515   118 layer_factory.hpp:123] Creating layer BatchNorm_42
I0225 05:24:40.904522   118 net.cpp:140] Creating Layer BatchNorm_42
I0225 05:24:40.904526   118 net.cpp:481] BatchNorm_42 <- ConvNd_44
I0225 05:24:40.904532   118 net.cpp:455] BatchNorm_42 -> BatchNorm_42
I0225 05:24:40.905050   118 net.cpp:190] Setting up BatchNorm_42
I0225 05:24:40.905056   118 net.cpp:197] Top shape: 1 128 64 128 (1048576)
I0225 05:24:40.905062   118 net.cpp:205] Memory required for data: 713031684
I0225 05:24:40.905071   118 layer_factory.hpp:123] Creating layer Threshold_54
I0225 05:24:40.905076   118 net.cpp:140] Creating Layer Threshold_54
I0225 05:24:40.905079   118 net.cpp:481] Threshold_54 <- BatchNorm_42
I0225 05:24:40.905084   118 net.cpp:442] Threshold_54 -> BatchNorm_42 (in-place)
I0225 05:24:40.905089   118 net.cpp:190] Setting up Threshold_54
I0225 05:24:40.905092   118 net.cpp:197] Top shape: 1 128 64 128 (1048576)
I0225 05:24:40.905097   118 net.cpp:205] Memory required for data: 717225988
I0225 05:24:40.905100   118 layer_factory.hpp:123] Creating layer Add_13
I0225 05:24:40.905107   118 net.cpp:140] Creating Layer Add_13
I0225 05:24:40.905109   118 net.cpp:481] Add_13 <- Add_12_Threshold_50_0_split_1
I0225 05:24:40.905113   118 net.cpp:481] Add_13 <- BatchNorm_42
I0225 05:24:40.905118   118 net.cpp:455] Add_13 -> Add_13
I0225 05:24:40.905138   118 net.cpp:190] Setting up Add_13
I0225 05:24:40.905143   118 net.cpp:197] Top shape: 1 128 64 128 (1048576)
I0225 05:24:40.905146   118 net.cpp:205] Memory required for data: 721420292
I0225 05:24:40.905150   118 layer_factory.hpp:123] Creating layer Threshold_55
I0225 05:24:40.905154   118 net.cpp:140] Creating Layer Threshold_55
I0225 05:24:40.905158   118 net.cpp:481] Threshold_55 <- Add_13
I0225 05:24:40.905162   118 net.cpp:442] Threshold_55 -> Add_13 (in-place)
I0225 05:24:40.905166   118 net.cpp:190] Setting up Threshold_55
I0225 05:24:40.905169   118 net.cpp:197] Top shape: 1 128 64 128 (1048576)
I0225 05:24:40.905174   118 net.cpp:205] Memory required for data: 725614596
I0225 05:24:40.905177   118 layer_factory.hpp:123] Creating layer Add_13_Threshold_55_0_split
I0225 05:24:40.905182   118 net.cpp:140] Creating Layer Add_13_Threshold_55_0_split
I0225 05:24:40.905185   118 net.cpp:481] Add_13_Threshold_55_0_split <- Add_13
I0225 05:24:40.905189   118 net.cpp:455] Add_13_Threshold_55_0_split -> Add_13_Threshold_55_0_split_0
I0225 05:24:40.905195   118 net.cpp:455] Add_13_Threshold_55_0_split -> Add_13_Threshold_55_0_split_1
I0225 05:24:40.905223   118 net.cpp:190] Setting up Add_13_Threshold_55_0_split
I0225 05:24:40.905228   118 net.cpp:197] Top shape: 1 128 64 128 (1048576)
I0225 05:24:40.905233   118 net.cpp:197] Top shape: 1 128 64 128 (1048576)
I0225 05:24:40.905237   118 net.cpp:205] Memory required for data: 734003204
I0225 05:24:40.905241   118 layer_factory.hpp:123] Creating layer ConvNd_45
I0225 05:24:40.905247   118 net.cpp:140] Creating Layer ConvNd_45
I0225 05:24:40.905251   118 net.cpp:481] ConvNd_45 <- Add_13_Threshold_55_0_split_0
I0225 05:24:40.905256   118 net.cpp:455] ConvNd_45 -> ConvNd_45
I0225 05:24:40.905437   118 net.cpp:190] Setting up ConvNd_45
I0225 05:24:40.905447   118 net.cpp:197] Top shape: 1 32 64 128 (262144)
I0225 05:24:40.905452   118 net.cpp:205] Memory required for data: 735051780
I0225 05:24:40.905457   118 layer_factory.hpp:123] Creating layer BatchNorm_43
I0225 05:24:40.905463   118 net.cpp:140] Creating Layer BatchNorm_43
I0225 05:24:40.905467   118 net.cpp:481] BatchNorm_43 <- ConvNd_45
I0225 05:24:40.905478   118 net.cpp:455] BatchNorm_43 -> BatchNorm_43
I0225 05:24:40.906085   118 net.cpp:190] Setting up BatchNorm_43
I0225 05:24:40.906093   118 net.cpp:197] Top shape: 1 32 64 128 (262144)
I0225 05:24:40.906100   118 net.cpp:205] Memory required for data: 736100356
I0225 05:24:40.906114   118 layer_factory.hpp:123] Creating layer Threshold_56
I0225 05:24:40.906121   118 net.cpp:140] Creating Layer Threshold_56
I0225 05:24:40.906126   118 net.cpp:481] Threshold_56 <- BatchNorm_43
I0225 05:24:40.906131   118 net.cpp:442] Threshold_56 -> BatchNorm_43 (in-place)
I0225 05:24:40.906136   118 net.cpp:190] Setting up Threshold_56
I0225 05:24:40.906139   118 net.cpp:197] Top shape: 1 32 64 128 (262144)
I0225 05:24:40.906143   118 net.cpp:205] Memory required for data: 737148932
I0225 05:24:40.906147   118 layer_factory.hpp:123] Creating layer ConvNd_46
I0225 05:24:40.906152   118 net.cpp:140] Creating Layer ConvNd_46
I0225 05:24:40.906157   118 net.cpp:481] ConvNd_46 <- BatchNorm_43
I0225 05:24:40.906162   118 net.cpp:455] ConvNd_46 -> ConvNd_46
I0225 05:24:40.906342   118 net.cpp:190] Setting up ConvNd_46
I0225 05:24:40.906348   118 net.cpp:197] Top shape: 1 32 64 128 (262144)
I0225 05:24:40.906354   118 net.cpp:205] Memory required for data: 738197508
I0225 05:24:40.906359   118 layer_factory.hpp:123] Creating layer BatchNorm_44
I0225 05:24:40.906366   118 net.cpp:140] Creating Layer BatchNorm_44
I0225 05:24:40.906370   118 net.cpp:481] BatchNorm_44 <- ConvNd_46
I0225 05:24:40.906376   118 net.cpp:455] BatchNorm_44 -> BatchNorm_44
I0225 05:24:40.906973   118 net.cpp:190] Setting up BatchNorm_44
I0225 05:24:40.906981   118 net.cpp:197] Top shape: 1 32 64 128 (262144)
I0225 05:24:40.906987   118 net.cpp:205] Memory required for data: 739246084
I0225 05:24:40.906996   118 layer_factory.hpp:123] Creating layer Threshold_57
I0225 05:24:40.907001   118 net.cpp:140] Creating Layer Threshold_57
I0225 05:24:40.907004   118 net.cpp:481] Threshold_57 <- BatchNorm_44
I0225 05:24:40.907011   118 net.cpp:442] Threshold_57 -> BatchNorm_44 (in-place)
I0225 05:24:40.907016   118 net.cpp:190] Setting up Threshold_57
I0225 05:24:40.907019   118 net.cpp:197] Top shape: 1 32 64 128 (262144)
I0225 05:24:40.907024   118 net.cpp:205] Memory required for data: 740294660
I0225 05:24:40.907027   118 layer_factory.hpp:123] Creating layer ConvNd_47
I0225 05:24:40.907033   118 net.cpp:140] Creating Layer ConvNd_47
I0225 05:24:40.907037   118 net.cpp:481] ConvNd_47 <- BatchNorm_44
I0225 05:24:40.907042   118 net.cpp:455] ConvNd_47 -> ConvNd_47
I0225 05:24:40.907215   118 net.cpp:190] Setting up ConvNd_47
I0225 05:24:40.907225   118 net.cpp:197] Top shape: 1 128 64 128 (1048576)
I0225 05:24:40.907230   118 net.cpp:205] Memory required for data: 744488964
I0225 05:24:40.907236   118 layer_factory.hpp:123] Creating layer BatchNorm_45
I0225 05:24:40.907243   118 net.cpp:140] Creating Layer BatchNorm_45
I0225 05:24:40.907246   118 net.cpp:481] BatchNorm_45 <- ConvNd_47
I0225 05:24:40.907253   118 net.cpp:455] BatchNorm_45 -> BatchNorm_45
I0225 05:24:40.907771   118 net.cpp:190] Setting up BatchNorm_45
I0225 05:24:40.907780   118 net.cpp:197] Top shape: 1 128 64 128 (1048576)
I0225 05:24:40.907786   118 net.cpp:205] Memory required for data: 748683268
I0225 05:24:40.907794   118 layer_factory.hpp:123] Creating layer Threshold_58
I0225 05:24:40.907800   118 net.cpp:140] Creating Layer Threshold_58
I0225 05:24:40.907804   118 net.cpp:481] Threshold_58 <- BatchNorm_45
I0225 05:24:40.907809   118 net.cpp:442] Threshold_58 -> BatchNorm_45 (in-place)
I0225 05:24:40.907814   118 net.cpp:190] Setting up Threshold_58
I0225 05:24:40.907817   118 net.cpp:197] Top shape: 1 128 64 128 (1048576)
I0225 05:24:40.907821   118 net.cpp:205] Memory required for data: 752877572
I0225 05:24:40.907825   118 layer_factory.hpp:123] Creating layer Add_14
I0225 05:24:40.907830   118 net.cpp:140] Creating Layer Add_14
I0225 05:24:40.907833   118 net.cpp:481] Add_14 <- Add_13_Threshold_55_0_split_1
I0225 05:24:40.907837   118 net.cpp:481] Add_14 <- BatchNorm_45
I0225 05:24:40.907842   118 net.cpp:455] Add_14 -> Add_14
I0225 05:24:40.907861   118 net.cpp:190] Setting up Add_14
I0225 05:24:40.907867   118 net.cpp:197] Top shape: 1 128 64 128 (1048576)
I0225 05:24:40.907871   118 net.cpp:205] Memory required for data: 757071876
I0225 05:24:40.907876   118 layer_factory.hpp:123] Creating layer Threshold_59
I0225 05:24:40.907879   118 net.cpp:140] Creating Layer Threshold_59
I0225 05:24:40.907882   118 net.cpp:481] Threshold_59 <- Add_14
I0225 05:24:40.907887   118 net.cpp:442] Threshold_59 -> Add_14 (in-place)
I0225 05:24:40.907891   118 net.cpp:190] Setting up Threshold_59
I0225 05:24:40.907894   118 net.cpp:197] Top shape: 1 128 64 128 (1048576)
I0225 05:24:40.907899   118 net.cpp:205] Memory required for data: 761266180
I0225 05:24:40.907902   118 layer_factory.hpp:123] Creating layer Add_14_Threshold_59_0_split
I0225 05:24:40.907907   118 net.cpp:140] Creating Layer Add_14_Threshold_59_0_split
I0225 05:24:40.907910   118 net.cpp:481] Add_14_Threshold_59_0_split <- Add_14
I0225 05:24:40.907915   118 net.cpp:455] Add_14_Threshold_59_0_split -> Add_14_Threshold_59_0_split_0
I0225 05:24:40.907920   118 net.cpp:455] Add_14_Threshold_59_0_split -> Add_14_Threshold_59_0_split_1
I0225 05:24:40.907948   118 net.cpp:190] Setting up Add_14_Threshold_59_0_split
I0225 05:24:40.907953   118 net.cpp:197] Top shape: 1 128 64 128 (1048576)
I0225 05:24:40.907958   118 net.cpp:197] Top shape: 1 128 64 128 (1048576)
I0225 05:24:40.907961   118 net.cpp:205] Memory required for data: 769654788
I0225 05:24:40.907965   118 layer_factory.hpp:123] Creating layer ConvNd_48
I0225 05:24:40.907971   118 net.cpp:140] Creating Layer ConvNd_48
I0225 05:24:40.907975   118 net.cpp:481] ConvNd_48 <- Add_14_Threshold_59_0_split_0
I0225 05:24:40.907980   118 net.cpp:455] ConvNd_48 -> ConvNd_48
I0225 05:24:40.908161   118 net.cpp:190] Setting up ConvNd_48
I0225 05:24:40.908169   118 net.cpp:197] Top shape: 1 32 64 128 (262144)
I0225 05:24:40.908174   118 net.cpp:205] Memory required for data: 770703364
I0225 05:24:40.908179   118 layer_factory.hpp:123] Creating layer BatchNorm_46
I0225 05:24:40.908186   118 net.cpp:140] Creating Layer BatchNorm_46
I0225 05:24:40.908190   118 net.cpp:481] BatchNorm_46 <- ConvNd_48
I0225 05:24:40.908195   118 net.cpp:455] BatchNorm_46 -> BatchNorm_46
I0225 05:24:40.908795   118 net.cpp:190] Setting up BatchNorm_46
I0225 05:24:40.908803   118 net.cpp:197] Top shape: 1 32 64 128 (262144)
I0225 05:24:40.908808   118 net.cpp:205] Memory required for data: 771751940
I0225 05:24:40.908816   118 layer_factory.hpp:123] Creating layer Threshold_60
I0225 05:24:40.908823   118 net.cpp:140] Creating Layer Threshold_60
I0225 05:24:40.908826   118 net.cpp:481] Threshold_60 <- BatchNorm_46
I0225 05:24:40.908830   118 net.cpp:442] Threshold_60 -> BatchNorm_46 (in-place)
I0225 05:24:40.908836   118 net.cpp:190] Setting up Threshold_60
I0225 05:24:40.908839   118 net.cpp:197] Top shape: 1 32 64 128 (262144)
I0225 05:24:40.908844   118 net.cpp:205] Memory required for data: 772800516
I0225 05:24:40.908848   118 layer_factory.hpp:123] Creating layer ConvNd_49
I0225 05:24:40.908854   118 net.cpp:140] Creating Layer ConvNd_49
I0225 05:24:40.908856   118 net.cpp:481] ConvNd_49 <- BatchNorm_46
I0225 05:24:40.908862   118 net.cpp:455] ConvNd_49 -> ConvNd_49
I0225 05:24:40.909044   118 net.cpp:190] Setting up ConvNd_49
I0225 05:24:40.909052   118 net.cpp:197] Top shape: 1 32 64 128 (262144)
I0225 05:24:40.909057   118 net.cpp:205] Memory required for data: 773849092
I0225 05:24:40.909063   118 layer_factory.hpp:123] Creating layer BatchNorm_47
I0225 05:24:40.909070   118 net.cpp:140] Creating Layer BatchNorm_47
I0225 05:24:40.909075   118 net.cpp:481] BatchNorm_47 <- ConvNd_49
I0225 05:24:40.909080   118 net.cpp:455] BatchNorm_47 -> BatchNorm_47
I0225 05:24:40.909680   118 net.cpp:190] Setting up BatchNorm_47
I0225 05:24:40.909688   118 net.cpp:197] Top shape: 1 32 64 128 (262144)
I0225 05:24:40.909693   118 net.cpp:205] Memory required for data: 774897668
I0225 05:24:40.909703   118 layer_factory.hpp:123] Creating layer Threshold_61
I0225 05:24:40.909708   118 net.cpp:140] Creating Layer Threshold_61
I0225 05:24:40.909711   118 net.cpp:481] Threshold_61 <- BatchNorm_47
I0225 05:24:40.909715   118 net.cpp:442] Threshold_61 -> BatchNorm_47 (in-place)
I0225 05:24:40.909721   118 net.cpp:190] Setting up Threshold_61
I0225 05:24:40.909724   118 net.cpp:197] Top shape: 1 32 64 128 (262144)
I0225 05:24:40.909729   118 net.cpp:205] Memory required for data: 775946244
I0225 05:24:40.909732   118 layer_factory.hpp:123] Creating layer ConvNd_50
I0225 05:24:40.909739   118 net.cpp:140] Creating Layer ConvNd_50
I0225 05:24:40.909741   118 net.cpp:481] ConvNd_50 <- BatchNorm_47
I0225 05:24:40.909746   118 net.cpp:455] ConvNd_50 -> ConvNd_50
I0225 05:24:40.910598   118 net.cpp:190] Setting up ConvNd_50
I0225 05:24:40.910609   118 net.cpp:197] Top shape: 1 128 64 128 (1048576)
I0225 05:24:40.910614   118 net.cpp:205] Memory required for data: 780140548
I0225 05:24:40.910620   118 layer_factory.hpp:123] Creating layer BatchNorm_48
I0225 05:24:40.910630   118 net.cpp:140] Creating Layer BatchNorm_48
I0225 05:24:40.910637   118 net.cpp:481] BatchNorm_48 <- ConvNd_50
I0225 05:24:40.910643   118 net.cpp:455] BatchNorm_48 -> BatchNorm_48
I0225 05:24:40.911183   118 net.cpp:190] Setting up BatchNorm_48
I0225 05:24:40.911192   118 net.cpp:197] Top shape: 1 128 64 128 (1048576)
I0225 05:24:40.911197   118 net.cpp:205] Memory required for data: 784334852
I0225 05:24:40.911206   118 layer_factory.hpp:123] Creating layer Threshold_62
I0225 05:24:40.911212   118 net.cpp:140] Creating Layer Threshold_62
I0225 05:24:40.911216   118 net.cpp:481] Threshold_62 <- BatchNorm_48
I0225 05:24:40.911221   118 net.cpp:442] Threshold_62 -> BatchNorm_48 (in-place)
I0225 05:24:40.911227   118 net.cpp:190] Setting up Threshold_62
I0225 05:24:40.911231   118 net.cpp:197] Top shape: 1 128 64 128 (1048576)
I0225 05:24:40.911234   118 net.cpp:205] Memory required for data: 788529156
I0225 05:24:40.911237   118 layer_factory.hpp:123] Creating layer Add_15
I0225 05:24:40.911243   118 net.cpp:140] Creating Layer Add_15
I0225 05:24:40.911247   118 net.cpp:481] Add_15 <- Add_14_Threshold_59_0_split_1
I0225 05:24:40.911250   118 net.cpp:481] Add_15 <- BatchNorm_48
I0225 05:24:40.911255   118 net.cpp:455] Add_15 -> Add_15
I0225 05:24:40.911274   118 net.cpp:190] Setting up Add_15
I0225 05:24:40.911279   118 net.cpp:197] Top shape: 1 128 64 128 (1048576)
I0225 05:24:40.911284   118 net.cpp:205] Memory required for data: 792723460
I0225 05:24:40.911288   118 layer_factory.hpp:123] Creating layer Threshold_63
I0225 05:24:40.911293   118 net.cpp:140] Creating Layer Threshold_63
I0225 05:24:40.911295   118 net.cpp:481] Threshold_63 <- Add_15
I0225 05:24:40.911300   118 net.cpp:442] Threshold_63 -> Add_15 (in-place)
I0225 05:24:40.911305   118 net.cpp:190] Setting up Threshold_63
I0225 05:24:40.911309   118 net.cpp:197] Top shape: 1 128 64 128 (1048576)
I0225 05:24:40.911312   118 net.cpp:205] Memory required for data: 796917764
I0225 05:24:40.911315   118 layer_factory.hpp:123] Creating layer Add_15_Threshold_63_0_split
I0225 05:24:40.911320   118 net.cpp:140] Creating Layer Add_15_Threshold_63_0_split
I0225 05:24:40.911324   118 net.cpp:481] Add_15_Threshold_63_0_split <- Add_15
I0225 05:24:40.911327   118 net.cpp:455] Add_15_Threshold_63_0_split -> Add_15_Threshold_63_0_split_0
I0225 05:24:40.911334   118 net.cpp:455] Add_15_Threshold_63_0_split -> Add_15_Threshold_63_0_split_1
I0225 05:24:40.911360   118 net.cpp:190] Setting up Add_15_Threshold_63_0_split
I0225 05:24:40.911367   118 net.cpp:197] Top shape: 1 128 64 128 (1048576)
I0225 05:24:40.911375   118 net.cpp:197] Top shape: 1 128 64 128 (1048576)
I0225 05:24:40.911381   118 net.cpp:205] Memory required for data: 805306372
I0225 05:24:40.911386   118 layer_factory.hpp:123] Creating layer ConvNd_51
I0225 05:24:40.911397   118 net.cpp:140] Creating Layer ConvNd_51
I0225 05:24:40.911403   118 net.cpp:481] ConvNd_51 <- Add_15_Threshold_63_0_split_0
I0225 05:24:40.911411   118 net.cpp:455] ConvNd_51 -> ConvNd_51
I0225 05:24:40.911593   118 net.cpp:190] Setting up ConvNd_51
I0225 05:24:40.911602   118 net.cpp:197] Top shape: 1 32 64 128 (262144)
I0225 05:24:40.911607   118 net.cpp:205] Memory required for data: 806354948
I0225 05:24:40.911612   118 layer_factory.hpp:123] Creating layer BatchNorm_49
I0225 05:24:40.911618   118 net.cpp:140] Creating Layer BatchNorm_49
I0225 05:24:40.911623   118 net.cpp:481] BatchNorm_49 <- ConvNd_51
I0225 05:24:40.911628   118 net.cpp:455] BatchNorm_49 -> BatchNorm_49
I0225 05:24:40.912248   118 net.cpp:190] Setting up BatchNorm_49
I0225 05:24:40.912258   118 net.cpp:197] Top shape: 1 32 64 128 (262144)
I0225 05:24:40.912263   118 net.cpp:205] Memory required for data: 807403524
I0225 05:24:40.912272   118 layer_factory.hpp:123] Creating layer Threshold_64
I0225 05:24:40.912277   118 net.cpp:140] Creating Layer Threshold_64
I0225 05:24:40.912281   118 net.cpp:481] Threshold_64 <- BatchNorm_49
I0225 05:24:40.912286   118 net.cpp:442] Threshold_64 -> BatchNorm_49 (in-place)
I0225 05:24:40.912292   118 net.cpp:190] Setting up Threshold_64
I0225 05:24:40.912295   118 net.cpp:197] Top shape: 1 32 64 128 (262144)
I0225 05:24:40.912299   118 net.cpp:205] Memory required for data: 808452100
I0225 05:24:40.912303   118 layer_factory.hpp:123] Creating layer ConvNd_52
I0225 05:24:40.912309   118 net.cpp:140] Creating Layer ConvNd_52
I0225 05:24:40.912312   118 net.cpp:481] ConvNd_52 <- BatchNorm_49
I0225 05:24:40.912317   118 net.cpp:455] ConvNd_52 -> ConvNd_52
I0225 05:24:40.912506   118 net.cpp:190] Setting up ConvNd_52
I0225 05:24:40.912514   118 net.cpp:197] Top shape: 1 32 64 128 (262144)
I0225 05:24:40.912519   118 net.cpp:205] Memory required for data: 809500676
I0225 05:24:40.912524   118 layer_factory.hpp:123] Creating layer BatchNorm_50
I0225 05:24:40.912531   118 net.cpp:140] Creating Layer BatchNorm_50
I0225 05:24:40.912534   118 net.cpp:481] BatchNorm_50 <- ConvNd_52
I0225 05:24:40.912540   118 net.cpp:455] BatchNorm_50 -> BatchNorm_50
I0225 05:24:40.913142   118 net.cpp:190] Setting up BatchNorm_50
I0225 05:24:40.913151   118 net.cpp:197] Top shape: 1 32 64 128 (262144)
I0225 05:24:40.913156   118 net.cpp:205] Memory required for data: 810549252
I0225 05:24:40.913166   118 layer_factory.hpp:123] Creating layer Threshold_65
I0225 05:24:40.913170   118 net.cpp:140] Creating Layer Threshold_65
I0225 05:24:40.913174   118 net.cpp:481] Threshold_65 <- BatchNorm_50
I0225 05:24:40.913179   118 net.cpp:442] Threshold_65 -> BatchNorm_50 (in-place)
I0225 05:24:40.913185   118 net.cpp:190] Setting up Threshold_65
I0225 05:24:40.913188   118 net.cpp:197] Top shape: 1 32 64 128 (262144)
I0225 05:24:40.913192   118 net.cpp:205] Memory required for data: 811597828
I0225 05:24:40.913195   118 layer_factory.hpp:123] Creating layer ConvNd_53
I0225 05:24:40.913202   118 net.cpp:140] Creating Layer ConvNd_53
I0225 05:24:40.913205   118 net.cpp:481] ConvNd_53 <- BatchNorm_50
I0225 05:24:40.913209   118 net.cpp:455] ConvNd_53 -> ConvNd_53
I0225 05:24:40.913388   118 net.cpp:190] Setting up ConvNd_53
I0225 05:24:40.913396   118 net.cpp:197] Top shape: 1 128 64 128 (1048576)
I0225 05:24:40.913401   118 net.cpp:205] Memory required for data: 815792132
I0225 05:24:40.913408   118 layer_factory.hpp:123] Creating layer BatchNorm_51
I0225 05:24:40.913414   118 net.cpp:140] Creating Layer BatchNorm_51
I0225 05:24:40.913419   118 net.cpp:481] BatchNorm_51 <- ConvNd_53
I0225 05:24:40.913424   118 net.cpp:455] BatchNorm_51 -> BatchNorm_51
I0225 05:24:40.913941   118 net.cpp:190] Setting up BatchNorm_51
I0225 05:24:40.913950   118 net.cpp:197] Top shape: 1 128 64 128 (1048576)
I0225 05:24:40.913955   118 net.cpp:205] Memory required for data: 819986436
I0225 05:24:40.913964   118 layer_factory.hpp:123] Creating layer Threshold_66
I0225 05:24:40.913970   118 net.cpp:140] Creating Layer Threshold_66
I0225 05:24:40.913975   118 net.cpp:481] Threshold_66 <- BatchNorm_51
I0225 05:24:40.913978   118 net.cpp:442] Threshold_66 -> BatchNorm_51 (in-place)
I0225 05:24:40.913985   118 net.cpp:190] Setting up Threshold_66
I0225 05:24:40.913987   118 net.cpp:197] Top shape: 1 128 64 128 (1048576)
I0225 05:24:40.913992   118 net.cpp:205] Memory required for data: 824180740
I0225 05:24:40.913995   118 layer_factory.hpp:123] Creating layer Add_16
I0225 05:24:40.914000   118 net.cpp:140] Creating Layer Add_16
I0225 05:24:40.914005   118 net.cpp:481] Add_16 <- Add_15_Threshold_63_0_split_1
I0225 05:24:40.914008   118 net.cpp:481] Add_16 <- BatchNorm_51
I0225 05:24:40.914012   118 net.cpp:455] Add_16 -> Add_16
I0225 05:24:40.914032   118 net.cpp:190] Setting up Add_16
I0225 05:24:40.914037   118 net.cpp:197] Top shape: 1 128 64 128 (1048576)
I0225 05:24:40.914042   118 net.cpp:205] Memory required for data: 828375044
I0225 05:24:40.914045   118 layer_factory.hpp:123] Creating layer Threshold_67
I0225 05:24:40.914049   118 net.cpp:140] Creating Layer Threshold_67
I0225 05:24:40.914053   118 net.cpp:481] Threshold_67 <- Add_16
I0225 05:24:40.914057   118 net.cpp:442] Threshold_67 -> Add_16 (in-place)
I0225 05:24:40.914062   118 net.cpp:190] Setting up Threshold_67
I0225 05:24:40.914065   118 net.cpp:197] Top shape: 1 128 64 128 (1048576)
I0225 05:24:40.914070   118 net.cpp:205] Memory required for data: 832569348
I0225 05:24:40.914073   118 layer_factory.hpp:123] Creating layer Add_16_Threshold_67_0_split
I0225 05:24:40.914078   118 net.cpp:140] Creating Layer Add_16_Threshold_67_0_split
I0225 05:24:40.914081   118 net.cpp:481] Add_16_Threshold_67_0_split <- Add_16
I0225 05:24:40.914085   118 net.cpp:455] Add_16_Threshold_67_0_split -> Add_16_Threshold_67_0_split_0
I0225 05:24:40.914091   118 net.cpp:455] Add_16_Threshold_67_0_split -> Add_16_Threshold_67_0_split_1
I0225 05:24:40.914125   118 net.cpp:190] Setting up Add_16_Threshold_67_0_split
I0225 05:24:40.914134   118 net.cpp:197] Top shape: 1 128 64 128 (1048576)
I0225 05:24:40.914141   118 net.cpp:197] Top shape: 1 128 64 128 (1048576)
I0225 05:24:40.914153   118 net.cpp:205] Memory required for data: 840957956
I0225 05:24:40.914156   118 layer_factory.hpp:123] Creating layer ConvNd_54
I0225 05:24:40.914163   118 net.cpp:140] Creating Layer ConvNd_54
I0225 05:24:40.914167   118 net.cpp:481] ConvNd_54 <- Add_16_Threshold_67_0_split_0
I0225 05:24:40.914172   118 net.cpp:455] ConvNd_54 -> ConvNd_54
I0225 05:24:40.914355   118 net.cpp:190] Setting up ConvNd_54
I0225 05:24:40.914363   118 net.cpp:197] Top shape: 1 32 64 128 (262144)
I0225 05:24:40.914368   118 net.cpp:205] Memory required for data: 842006532
I0225 05:24:40.914373   118 layer_factory.hpp:123] Creating layer BatchNorm_52
I0225 05:24:40.914381   118 net.cpp:140] Creating Layer BatchNorm_52
I0225 05:24:40.914384   118 net.cpp:481] BatchNorm_52 <- ConvNd_54
I0225 05:24:40.914391   118 net.cpp:455] BatchNorm_52 -> BatchNorm_52
I0225 05:24:40.914988   118 net.cpp:190] Setting up BatchNorm_52
I0225 05:24:40.914995   118 net.cpp:197] Top shape: 1 32 64 128 (262144)
I0225 05:24:40.915001   118 net.cpp:205] Memory required for data: 843055108
I0225 05:24:40.915009   118 layer_factory.hpp:123] Creating layer Threshold_68
I0225 05:24:40.915014   118 net.cpp:140] Creating Layer Threshold_68
I0225 05:24:40.915019   118 net.cpp:481] Threshold_68 <- BatchNorm_52
I0225 05:24:40.915024   118 net.cpp:442] Threshold_68 -> BatchNorm_52 (in-place)
I0225 05:24:40.915030   118 net.cpp:190] Setting up Threshold_68
I0225 05:24:40.915032   118 net.cpp:197] Top shape: 1 32 64 128 (262144)
I0225 05:24:40.915036   118 net.cpp:205] Memory required for data: 844103684
I0225 05:24:40.915040   118 layer_factory.hpp:123] Creating layer ConvNd_55
I0225 05:24:40.915045   118 net.cpp:140] Creating Layer ConvNd_55
I0225 05:24:40.915050   118 net.cpp:481] ConvNd_55 <- BatchNorm_52
I0225 05:24:40.915053   118 net.cpp:455] ConvNd_55 -> ConvNd_55
I0225 05:24:40.915233   118 net.cpp:190] Setting up ConvNd_55
I0225 05:24:40.915241   118 net.cpp:197] Top shape: 1 32 64 128 (262144)
I0225 05:24:40.915247   118 net.cpp:205] Memory required for data: 845152260
I0225 05:24:40.915252   118 layer_factory.hpp:123] Creating layer BatchNorm_53
I0225 05:24:40.915259   118 net.cpp:140] Creating Layer BatchNorm_53
I0225 05:24:40.915263   118 net.cpp:481] BatchNorm_53 <- ConvNd_55
I0225 05:24:40.915268   118 net.cpp:455] BatchNorm_53 -> BatchNorm_53
I0225 05:24:40.915876   118 net.cpp:190] Setting up BatchNorm_53
I0225 05:24:40.915884   118 net.cpp:197] Top shape: 1 32 64 128 (262144)
I0225 05:24:40.915890   118 net.cpp:205] Memory required for data: 846200836
I0225 05:24:40.915899   118 layer_factory.hpp:123] Creating layer Threshold_69
I0225 05:24:40.915904   118 net.cpp:140] Creating Layer Threshold_69
I0225 05:24:40.915908   118 net.cpp:481] Threshold_69 <- BatchNorm_53
I0225 05:24:40.915912   118 net.cpp:442] Threshold_69 -> BatchNorm_53 (in-place)
I0225 05:24:40.915918   118 net.cpp:190] Setting up Threshold_69
I0225 05:24:40.915921   118 net.cpp:197] Top shape: 1 32 64 128 (262144)
I0225 05:24:40.915925   118 net.cpp:205] Memory required for data: 847249412
I0225 05:24:40.915930   118 layer_factory.hpp:123] Creating layer ConvNd_56
I0225 05:24:40.915935   118 net.cpp:140] Creating Layer ConvNd_56
I0225 05:24:40.915938   118 net.cpp:481] ConvNd_56 <- BatchNorm_53
I0225 05:24:40.915942   118 net.cpp:455] ConvNd_56 -> ConvNd_56
I0225 05:24:40.916124   118 net.cpp:190] Setting up ConvNd_56
I0225 05:24:40.916132   118 net.cpp:197] Top shape: 1 32 64 128 (262144)
I0225 05:24:40.916137   118 net.cpp:205] Memory required for data: 848297988
I0225 05:24:40.916142   118 layer_factory.hpp:123] Creating layer BatchNorm_54
I0225 05:24:40.916149   118 net.cpp:140] Creating Layer BatchNorm_54
I0225 05:24:40.916153   118 net.cpp:481] BatchNorm_54 <- ConvNd_56
I0225 05:24:40.916159   118 net.cpp:455] BatchNorm_54 -> BatchNorm_54
I0225 05:24:40.916757   118 net.cpp:190] Setting up BatchNorm_54
I0225 05:24:40.916765   118 net.cpp:197] Top shape: 1 32 64 128 (262144)
I0225 05:24:40.916771   118 net.cpp:205] Memory required for data: 849346564
I0225 05:24:40.916779   118 layer_factory.hpp:123] Creating layer Threshold_70
I0225 05:24:40.916786   118 net.cpp:140] Creating Layer Threshold_70
I0225 05:24:40.916790   118 net.cpp:481] Threshold_70 <- BatchNorm_54
I0225 05:24:40.916795   118 net.cpp:442] Threshold_70 -> BatchNorm_54 (in-place)
I0225 05:24:40.916800   118 net.cpp:190] Setting up Threshold_70
I0225 05:24:40.916803   118 net.cpp:197] Top shape: 1 32 64 128 (262144)
I0225 05:24:40.916807   118 net.cpp:205] Memory required for data: 850395140
I0225 05:24:40.916810   118 layer_factory.hpp:123] Creating layer ConvNd_57
I0225 05:24:40.916816   118 net.cpp:140] Creating Layer ConvNd_57
I0225 05:24:40.916821   118 net.cpp:481] ConvNd_57 <- BatchNorm_54
I0225 05:24:40.916826   118 net.cpp:455] ConvNd_57 -> ConvNd_57
I0225 05:24:40.917006   118 net.cpp:190] Setting up ConvNd_57
I0225 05:24:40.917014   118 net.cpp:197] Top shape: 1 128 64 128 (1048576)
I0225 05:24:40.917019   118 net.cpp:205] Memory required for data: 854589444
I0225 05:24:40.917024   118 layer_factory.hpp:123] Creating layer BatchNorm_55
I0225 05:24:40.917032   118 net.cpp:140] Creating Layer BatchNorm_55
I0225 05:24:40.917035   118 net.cpp:481] BatchNorm_55 <- ConvNd_57
I0225 05:24:40.917040   118 net.cpp:455] BatchNorm_55 -> BatchNorm_55
I0225 05:24:40.917556   118 net.cpp:190] Setting up BatchNorm_55
I0225 05:24:40.917563   118 net.cpp:197] Top shape: 1 128 64 128 (1048576)
I0225 05:24:40.917568   118 net.cpp:205] Memory required for data: 858783748
I0225 05:24:40.917577   118 layer_factory.hpp:123] Creating layer Threshold_71
I0225 05:24:40.917582   118 net.cpp:140] Creating Layer Threshold_71
I0225 05:24:40.917587   118 net.cpp:481] Threshold_71 <- BatchNorm_55
I0225 05:24:40.917591   118 net.cpp:442] Threshold_71 -> BatchNorm_55 (in-place)
I0225 05:24:40.917598   118 net.cpp:190] Setting up Threshold_71
I0225 05:24:40.917600   118 net.cpp:197] Top shape: 1 128 64 128 (1048576)
I0225 05:24:40.917604   118 net.cpp:205] Memory required for data: 862978052
I0225 05:24:40.917608   118 layer_factory.hpp:123] Creating layer Add_17
I0225 05:24:40.917613   118 net.cpp:140] Creating Layer Add_17
I0225 05:24:40.917616   118 net.cpp:481] Add_17 <- Add_16_Threshold_67_0_split_1
I0225 05:24:40.917620   118 net.cpp:481] Add_17 <- BatchNorm_55
I0225 05:24:40.917624   118 net.cpp:455] Add_17 -> Add_17
I0225 05:24:40.917644   118 net.cpp:190] Setting up Add_17
I0225 05:24:40.917649   118 net.cpp:197] Top shape: 1 128 64 128 (1048576)
I0225 05:24:40.917654   118 net.cpp:205] Memory required for data: 867172356
I0225 05:24:40.917657   118 layer_factory.hpp:123] Creating layer Threshold_72
I0225 05:24:40.917662   118 net.cpp:140] Creating Layer Threshold_72
I0225 05:24:40.917665   118 net.cpp:481] Threshold_72 <- Add_17
I0225 05:24:40.917670   118 net.cpp:442] Threshold_72 -> Add_17 (in-place)
I0225 05:24:40.917675   118 net.cpp:190] Setting up Threshold_72
I0225 05:24:40.917677   118 net.cpp:197] Top shape: 1 128 64 128 (1048576)
I0225 05:24:40.917691   118 net.cpp:205] Memory required for data: 871366660
I0225 05:24:40.917695   118 layer_factory.hpp:123] Creating layer Add_17_Threshold_72_0_split
I0225 05:24:40.917699   118 net.cpp:140] Creating Layer Add_17_Threshold_72_0_split
I0225 05:24:40.917702   118 net.cpp:481] Add_17_Threshold_72_0_split <- Add_17
I0225 05:24:40.917707   118 net.cpp:455] Add_17_Threshold_72_0_split -> Add_17_Threshold_72_0_split_0
I0225 05:24:40.917713   118 net.cpp:455] Add_17_Threshold_72_0_split -> Add_17_Threshold_72_0_split_1
I0225 05:24:40.917752   118 net.cpp:190] Setting up Add_17_Threshold_72_0_split
I0225 05:24:40.917762   118 net.cpp:197] Top shape: 1 128 64 128 (1048576)
I0225 05:24:40.917768   118 net.cpp:197] Top shape: 1 128 64 128 (1048576)
I0225 05:24:40.917773   118 net.cpp:205] Memory required for data: 879755268
I0225 05:24:40.917775   118 layer_factory.hpp:123] Creating layer ConvNd_58
I0225 05:24:40.917784   118 net.cpp:140] Creating Layer ConvNd_58
I0225 05:24:40.917791   118 net.cpp:481] ConvNd_58 <- Add_17_Threshold_72_0_split_0
I0225 05:24:40.917798   118 net.cpp:455] ConvNd_58 -> ConvNd_58
I0225 05:24:40.917984   118 net.cpp:190] Setting up ConvNd_58
I0225 05:24:40.917992   118 net.cpp:197] Top shape: 1 32 64 128 (262144)
I0225 05:24:40.917997   118 net.cpp:205] Memory required for data: 880803844
I0225 05:24:40.918002   118 layer_factory.hpp:123] Creating layer BatchNorm_56
I0225 05:24:40.918009   118 net.cpp:140] Creating Layer BatchNorm_56
I0225 05:24:40.918013   118 net.cpp:481] BatchNorm_56 <- ConvNd_58
I0225 05:24:40.918020   118 net.cpp:455] BatchNorm_56 -> BatchNorm_56
I0225 05:24:40.918618   118 net.cpp:190] Setting up BatchNorm_56
I0225 05:24:40.918627   118 net.cpp:197] Top shape: 1 32 64 128 (262144)
I0225 05:24:40.918632   118 net.cpp:205] Memory required for data: 881852420
I0225 05:24:40.918640   118 layer_factory.hpp:123] Creating layer Threshold_73
I0225 05:24:40.918645   118 net.cpp:140] Creating Layer Threshold_73
…
I0225 05:24:41.397234   118 net.cpp:140] Creating Layer Add_21_Add_21_fixed_0_split
I0225 05:24:41.397239   118 net.cpp:481] Add_21_Add_21_fixed_0_split <- Add_21
I0225 05:24:41.397248   118 net.cpp:455] Add_21_Add_21_fixed_0_split -> Add_21_Add_21_fixed_0_split_0
I0225 05:24:41.397255   118 net.cpp:455] Add_21_Add_21_fixed_0_split -> Add_21_Add_21_fixed_0_split_1
I0225 05:24:41.397295   118 net.cpp:190] Setting up Add_21_Add_21_fixed_0_split
I0225 05:24:41.397301   118 net.cpp:197] Top shape: 1 128 64 128 (1048576)
I0225 05:24:41.397306   118 net.cpp:197] Top shape: 1 128 64 128 (1048576)
I0225 05:24:41.397310   118 net.cpp:205] Memory required for data: 1170210820
I0225 05:24:41.397313   118 layer_factory.hpp:123] Creating layer ConvNd_71
I0225 05:24:41.397322   118 net.cpp:140] Creating Layer ConvNd_71
I0225 05:24:41.397328   118 net.cpp:481] ConvNd_71 <- Add_21_Add_21_fixed_0_split_0
I0225 05:24:41.397337   118 net.cpp:455] ConvNd_71 -> BatchNorm_69
I0225 05:24:41.397505   118 layer_factory.hpp:123] Creating layer ConvNd_71
I0225 05:24:41.397781   118 net.cpp:190] Setting up ConvNd_71
I0225 05:24:41.397789   118 net.cpp:197] Top shape: 1 32 64 128 (262144)
I0225 05:24:41.397794   118 net.cpp:205] Memory required for data: 1171259396
I0225 05:24:41.397799   118 layer_factory.hpp:123] Creating layer Threshold_90
I0225 05:24:41.397804   118 net.cpp:140] Creating Layer Threshold_90
I0225 05:24:41.397807   118 net.cpp:481] Threshold_90 <- BatchNorm_69
I0225 05:24:41.397812   118 net.cpp:442] Threshold_90 -> BatchNorm_69 (in-place)
I0225 05:24:41.397817   118 net.cpp:190] Setting up Threshold_90
I0225 05:24:41.397820   118 net.cpp:197] Top shape: 1 32 64 128 (262144)
I0225 05:24:41.397825   118 net.cpp:205] Memory required for data: 1172307972
I0225 05:24:41.397827   118 layer_factory.hpp:123] Creating layer BatchNorm_69_fixed
I0225 05:24:41.397832   118 net.cpp:140] Creating Layer BatchNorm_69_fixed
I0225 05:24:41.397835   118 net.cpp:481] BatchNorm_69_fixed <- BatchNorm_69
I0225 05:24:41.397840   118 net.cpp:442] BatchNorm_69_fixed -> BatchNorm_69 (in-place)
I0225 05:24:41.397863   118 net.cpp:190] Setting up BatchNorm_69_fixed
I0225 05:24:41.397867   118 net.cpp:197] Top shape: 1 32 64 128 (262144)
I0225 05:24:41.397871   118 net.cpp:205] Memory required for data: 1173356548
I0225 05:24:41.397876   118 layer_factory.hpp:123] Creating layer ConvNd_72
I0225 05:24:41.397881   118 net.cpp:140] Creating Layer ConvNd_72
I0225 05:24:41.397886   118 net.cpp:481] ConvNd_72 <- BatchNorm_69
I0225 05:24:41.397889   118 net.cpp:455] ConvNd_72 -> BatchNorm_70
I0225 05:24:41.398036   118 layer_factory.hpp:123] Creating layer ConvNd_72
I0225 05:24:41.398320   118 net.cpp:190] Setting up ConvNd_72
I0225 05:24:41.398327   118 net.cpp:197] Top shape: 1 32 64 128 (262144)
I0225 05:24:41.398332   118 net.cpp:205] Memory required for data: 1174405124
I0225 05:24:41.398337   118 layer_factory.hpp:123] Creating layer Threshold_91
I0225 05:24:41.398342   118 net.cpp:140] Creating Layer Threshold_91
I0225 05:24:41.398345   118 net.cpp:481] Threshold_91 <- BatchNorm_70
I0225 05:24:41.398350   118 net.cpp:442] Threshold_91 -> BatchNorm_70 (in-place)
I0225 05:24:41.398355   118 net.cpp:190] Setting up Threshold_91
I0225 05:24:41.398357   118 net.cpp:197] Top shape: 1 32 64 128 (262144)
I0225 05:24:41.398361   118 net.cpp:205] Memory required for data: 1175453700
I0225 05:24:41.398365   118 layer_factory.hpp:123] Creating layer BatchNorm_70_fixed
I0225 05:24:41.398370   118 net.cpp:140] Creating Layer BatchNorm_70_fixed
I0225 05:24:41.398373   118 net.cpp:481] BatchNorm_70_fixed <- BatchNorm_70
I0225 05:24:41.398377   118 net.cpp:442] BatchNorm_70_fixed -> BatchNorm_70 (in-place)
I0225 05:24:41.398401   118 net.cpp:190] Setting up BatchNorm_70_fixed
I0225 05:24:41.398406   118 net.cpp:197] Top shape: 1 32 64 128 (262144)
I0225 05:24:41.398409   118 net.cpp:205] Memory required for data: 1176502276
I0225 05:24:41.398413   118 layer_factory.hpp:123] Creating layer ConvNd_73
I0225 05:24:41.398419   118 net.cpp:140] Creating Layer ConvNd_73
I0225 05:24:41.398422   118 net.cpp:481] ConvNd_73 <- BatchNorm_70
I0225 05:24:41.398427   118 net.cpp:455] ConvNd_73 -> BatchNorm_71
I0225 05:24:41.398574   118 layer_factory.hpp:123] Creating layer ConvNd_73
I0225 05:24:41.398834   118 net.cpp:190] Setting up ConvNd_73
I0225 05:24:41.398842   118 net.cpp:197] Top shape: 1 128 64 128 (1048576)
I0225 05:24:41.398847   118 net.cpp:205] Memory required for data: 1180696580
I0225 05:24:41.398852   118 layer_factory.hpp:123] Creating layer Threshold_92
I0225 05:24:41.398857   118 net.cpp:140] Creating Layer Threshold_92
I0225 05:24:41.398861   118 net.cpp:481] Threshold_92 <- BatchNorm_71
I0225 05:24:41.398865   118 net.cpp:442] Threshold_92 -> BatchNorm_71 (in-place)
I0225 05:24:41.398870   118 net.cpp:190] Setting up Threshold_92
I0225 05:24:41.398874   118 net.cpp:197] Top shape: 1 128 64 128 (1048576)
I0225 05:24:41.398877   118 net.cpp:205] Memory required for data: 1184890884
I0225 05:24:41.398881   118 layer_factory.hpp:123] Creating layer BatchNorm_71_fixed
I0225 05:24:41.398885   118 net.cpp:140] Creating Layer BatchNorm_71_fixed
I0225 05:24:41.398888   118 net.cpp:481] BatchNorm_71_fixed <- BatchNorm_71
I0225 05:24:41.398892   118 net.cpp:442] BatchNorm_71_fixed -> BatchNorm_71 (in-place)
I0225 05:24:41.398916   118 net.cpp:190] Setting up BatchNorm_71_fixed
I0225 05:24:41.398923   118 net.cpp:197] Top shape: 1 128 64 128 (1048576)
I0225 05:24:41.398927   118 net.cpp:205] Memory required for data: 1189085188
I0225 05:24:41.398931   118 layer_factory.hpp:123] Creating layer Add_22
I0225 05:24:41.398936   118 net.cpp:140] Creating Layer Add_22
I0225 05:24:41.398941   118 net.cpp:481] Add_22 <- Add_21_Add_21_fixed_0_split_1
I0225 05:24:41.398943   118 net.cpp:481] Add_22 <- BatchNorm_71
I0225 05:24:41.398947   118 net.cpp:455] Add_22 -> Add_22
I0225 05:24:41.398965   118 net.cpp:190] Setting up Add_22
I0225 05:24:41.398969   118 net.cpp:197] Top shape: 1 128 64 128 (1048576)
I0225 05:24:41.398973   118 net.cpp:205] Memory required for data: 1193279492
I0225 05:24:41.398977   118 layer_factory.hpp:123] Creating layer Threshold_93
I0225 05:24:41.398980   118 net.cpp:140] Creating Layer Threshold_93
I0225 05:24:41.398984   118 net.cpp:481] Threshold_93 <- Add_22
I0225 05:24:41.398988   118 net.cpp:442] Threshold_93 -> Add_22 (in-place)
I0225 05:24:41.398993   118 net.cpp:190] Setting up Threshold_93
I0225 05:24:41.398996   118 net.cpp:197] Top shape: 1 128 64 128 (1048576)
I0225 05:24:41.399003   118 net.cpp:205] Memory required for data: 1197473796
I0225 05:24:41.399008   118 layer_factory.hpp:123] Creating layer Add_22_fixed
I0225 05:24:41.399014   118 net.cpp:140] Creating Layer Add_22_fixed
I0225 05:24:41.399019   118 net.cpp:481] Add_22_fixed <- Add_22
I0225 05:24:41.399026   118 net.cpp:442] Add_22_fixed -> Add_22 (in-place)
I0225 05:24:41.399066   118 net.cpp:190] Setting up Add_22_fixed
I0225 05:24:41.399072   118 net.cpp:197] Top shape: 1 128 64 128 (1048576)
I0225 05:24:41.399077   118 net.cpp:205] Memory required for data: 1201668100
I0225 05:24:41.399082   118 layer_factory.hpp:123] Creating layer Add_22_Add_22_fixed_0_split
I0225 05:24:41.399087   118 net.cpp:140] Creating Layer Add_22_Add_22_fixed_0_split
I0225 05:24:41.399091   118 net.cpp:481] Add_22_Add_22_fixed_0_split <- Add_22
I0225 05:24:41.399096   118 net.cpp:455] Add_22_Add_22_fixed_0_split -> Add_22_Add_22_fixed_0_split_0
I0225 05:24:41.399101   118 net.cpp:455] Add_22_Add_22_fixed_0_split -> Add_22_Add_22_fixed_0_split_1
I0225 05:24:41.399139   118 net.cpp:190] Setting up Add_22_Add_22_fixed_0_split
I0225 05:24:41.399145   118 net.cpp:197] Top shape: 1 128 64 128 (1048576)
I0225 05:24:41.399150   118 net.cpp:197] Top shape: 1 128 64 128 (1048576)
I0225 05:24:41.399154   118 net.cpp:205] Memory required for data: 1210056708
I0225 05:24:41.399158   118 layer_factory.hpp:123] Creating layer ConvNd_74
I0225 05:24:41.399164   118 net.cpp:140] Creating Layer ConvNd_74
I0225 05:24:41.399168   118 net.cpp:481] ConvNd_74 <- Add_22_Add_22_fixed_0_split_0
I0225 05:24:41.399173   118 net.cpp:455] ConvNd_74 -> BatchNorm_72
I0225 05:24:41.399354   118 layer_factory.hpp:123] Creating layer ConvNd_74
I0225 05:24:41.399636   118 net.cpp:190] Setting up ConvNd_74
I0225 05:24:41.399643   118 net.cpp:197] Top shape: 1 64 64 128 (524288)
I0225 05:24:41.399648   118 net.cpp:205] Memory required for data: 1212153860
I0225 05:24:41.399654   118 layer_factory.hpp:123] Creating layer BatchNorm_72_fixed
I0225 05:24:41.399660   118 net.cpp:140] Creating Layer BatchNorm_72_fixed
I0225 05:24:41.399663   118 net.cpp:481] BatchNorm_72_fixed <- BatchNorm_72
I0225 05:24:41.399668   118 net.cpp:442] BatchNorm_72_fixed -> BatchNorm_72 (in-place)
I0225 05:24:41.399693   118 net.cpp:190] Setting up BatchNorm_72_fixed
I0225 05:24:41.399698   118 net.cpp:197] Top shape: 1 64 64 128 (524288)
I0225 05:24:41.399703   118 net.cpp:205] Memory required for data: 1214251012
I0225 05:24:41.399708   118 layer_factory.hpp:123] Creating layer UpsamplingBilinear2d_1
I0225 05:24:41.399749   118 net.cpp:140] Creating Layer UpsamplingBilinear2d_1
I0225 05:24:41.399755   118 net.cpp:481] UpsamplingBilinear2d_1 <- BatchNorm_72
I0225 05:24:41.399761   118 net.cpp:455] UpsamplingBilinear2d_1 -> UpsamplingBilinear2d_1
I0225 05:24:41.399937   118 layer_factory.hpp:123] Creating layer UpsamplingBilinear2d_1
I0225 05:24:41.400183   118 net.cpp:190] Setting up UpsamplingBilinear2d_1
I0225 05:24:41.400190   118 net.cpp:197] Top shape: 1 64 128 256 (2097152)
I0225 05:24:41.400197   118 net.cpp:205] Memory required for data: 1222639620
I0225 05:24:41.400202   118 layer_factory.hpp:123] Creating layer UpsamplingBilinear2d_1_fixed
I0225 05:24:41.400207   118 net.cpp:140] Creating Layer UpsamplingBilinear2d_1_fixed
I0225 05:24:41.400210   118 net.cpp:481] UpsamplingBilinear2d_1_fixed <- UpsamplingBilinear2d_1
I0225 05:24:41.400215   118 net.cpp:442] UpsamplingBilinear2d_1_fixed -> UpsamplingBilinear2d_1 (in-place)
I0225 05:24:41.400244   118 net.cpp:190] Setting up UpsamplingBilinear2d_1_fixed
I0225 05:24:41.400250   118 net.cpp:197] Top shape: 1 64 128 256 (2097152)
I0225 05:24:41.400255   118 net.cpp:205] Memory required for data: 1231028228
I0225 05:24:41.400259   118 layer_factory.hpp:123] Creating layer ConvNd_75
I0225 05:24:41.400266   118 net.cpp:140] Creating Layer ConvNd_75
I0225 05:24:41.400270   118 net.cpp:481] ConvNd_75 <- Add_22_Add_22_fixed_0_split_1
I0225 05:24:41.400275   118 net.cpp:455] ConvNd_75 -> BatchNorm_73
I0225 05:24:41.400450   118 layer_factory.hpp:123] Creating layer ConvNd_75
I0225 05:24:41.400734   118 net.cpp:190] Setting up ConvNd_75
I0225 05:24:41.400743   118 net.cpp:197] Top shape: 1 32 64 128 (262144)
I0225 05:24:41.400748   118 net.cpp:205] Memory required for data: 1232076804
I0225 05:24:41.400753   118 layer_factory.hpp:123] Creating layer Threshold_94
I0225 05:24:41.400758   118 net.cpp:140] Creating Layer Threshold_94
I0225 05:24:41.400761   118 net.cpp:481] Threshold_94 <- BatchNorm_73
I0225 05:24:41.400765   118 net.cpp:442] Threshold_94 -> BatchNorm_73 (in-place)
I0225 05:24:41.400771   118 net.cpp:190] Setting up Threshold_94
I0225 05:24:41.400774   118 net.cpp:197] Top shape: 1 32 64 128 (262144)
I0225 05:24:41.400779   118 net.cpp:205] Memory required for data: 1233125380
I0225 05:24:41.400782   118 layer_factory.hpp:123] Creating layer BatchNorm_73_fixed
I0225 05:24:41.400786   118 net.cpp:140] Creating Layer BatchNorm_73_fixed
I0225 05:24:41.400789   118 net.cpp:481] BatchNorm_73_fixed <- BatchNorm_73
I0225 05:24:41.400794   118 net.cpp:442] BatchNorm_73_fixed -> BatchNorm_73 (in-place)
I0225 05:24:41.401446   118 net.cpp:190] Setting up BatchNorm_73_fixed
I0225 05:24:41.401456   118 net.cpp:197] Top shape: 1 32 64 128 (262144)
I0225 05:24:41.401461   118 net.cpp:205] Memory required for data: 1234173956
I0225 05:24:41.401468   118 layer_factory.hpp:123] Creating layer ConvNd_76
I0225 05:24:41.401474   118 net.cpp:140] Creating Layer ConvNd_76
I0225 05:24:41.401477   118 net.cpp:481] ConvNd_76 <- BatchNorm_73
I0225 05:24:41.401484   118 net.cpp:455] ConvNd_76 -> BatchNorm_74
I0225 05:24:41.401633   118 layer_factory.hpp:123] Creating layer ConvNd_76
I0225 05:24:41.401937   118 net.cpp:190] Setting up ConvNd_76
I0225 05:24:41.401944   118 net.cpp:197] Top shape: 1 32 128 256 (1048576)
I0225 05:24:41.401949   118 net.cpp:205] Memory required for data: 1238368260
I0225 05:24:41.401954   118 layer_factory.hpp:123] Creating layer Threshold_95
I0225 05:24:41.401959   118 net.cpp:140] Creating Layer Threshold_95
I0225 05:24:41.401963   118 net.cpp:481] Threshold_95 <- BatchNorm_74
I0225 05:24:41.401968   118 net.cpp:442] Threshold_95 -> BatchNorm_74 (in-place)
I0225 05:24:41.401973   118 net.cpp:190] Setting up Threshold_95
I0225 05:24:41.401976   118 net.cpp:197] Top shape: 1 32 128 256 (1048576)
I0225 05:24:41.401980   118 net.cpp:205] Memory required for data: 1242562564
I0225 05:24:41.401983   118 layer_factory.hpp:123] Creating layer BatchNorm_74_fixed
I0225 05:24:41.401988   118 net.cpp:140] Creating Layer BatchNorm_74_fixed
I0225 05:24:41.401991   118 net.cpp:481] BatchNorm_74_fixed <- BatchNorm_74
I0225 05:24:41.401995   118 net.cpp:442] BatchNorm_74_fixed -> BatchNorm_74 (in-place)
I0225 05:24:41.402020   118 net.cpp:190] Setting up BatchNorm_74_fixed
I0225 05:24:41.402026   118 net.cpp:197] Top shape: 1 32 128 256 (1048576)
I0225 05:24:41.402030   118 net.cpp:205] Memory required for data: 1246756868
I0225 05:24:41.402034   118 layer_factory.hpp:123] Creating layer ConvNd_77
I0225 05:24:41.402040   118 net.cpp:140] Creating Layer ConvNd_77
I0225 05:24:41.402043   118 net.cpp:481] ConvNd_77 <- BatchNorm_74
I0225 05:24:41.402048   118 net.cpp:455] ConvNd_77 -> BatchNorm_75
I0225 05:24:41.402204   118 layer_factory.hpp:123] Creating layer ConvNd_77
I0225 05:24:41.402501   118 net.cpp:190] Setting up ConvNd_77
I0225 05:24:41.402510   118 net.cpp:197] Top shape: 1 64 128 256 (2097152)
I0225 05:24:41.402515   118 net.cpp:205] Memory required for data: 1255145476
I0225 05:24:41.402521   118 layer_factory.hpp:123] Creating layer Threshold_96
I0225 05:24:41.402526   118 net.cpp:140] Creating Layer Threshold_96
I0225 05:24:41.402529   118 net.cpp:481] Threshold_96 <- BatchNorm_75
I0225 05:24:41.402534   118 net.cpp:442] Threshold_96 -> BatchNorm_75 (in-place)
I0225 05:24:41.402540   118 net.cpp:190] Setting up Threshold_96
I0225 05:24:41.402544   118 net.cpp:197] Top shape: 1 64 128 256 (2097152)
I0225 05:24:41.402547   118 net.cpp:205] Memory required for data: 1263534084
I0225 05:24:41.402550   118 layer_factory.hpp:123] Creating layer BatchNorm_75_fixed
I0225 05:24:41.402555   118 net.cpp:140] Creating Layer BatchNorm_75_fixed
I0225 05:24:41.402559   118 net.cpp:481] BatchNorm_75_fixed <- BatchNorm_75
I0225 05:24:41.402562   118 net.cpp:442] BatchNorm_75_fixed -> BatchNorm_75 (in-place)
I0225 05:24:41.402587   118 net.cpp:190] Setting up BatchNorm_75_fixed
I0225 05:24:41.402592   118 net.cpp:197] Top shape: 1 64 128 256 (2097152)
I0225 05:24:41.402597   118 net.cpp:205] Memory required for data: 1271922692
I0225 05:24:41.402601   118 layer_factory.hpp:123] Creating layer Add_23
I0225 05:24:41.402606   118 net.cpp:140] Creating Layer Add_23
I0225 05:24:41.402609   118 net.cpp:481] Add_23 <- UpsamplingBilinear2d_1
I0225 05:24:41.402613   118 net.cpp:481] Add_23 <- BatchNorm_75
I0225 05:24:41.402617   118 net.cpp:455] Add_23 -> Add_23
I0225 05:24:41.402635   118 net.cpp:190] Setting up Add_23
I0225 05:24:41.402640   118 net.cpp:197] Top shape: 1 64 128 256 (2097152)
I0225 05:24:41.402644   118 net.cpp:205] Memory required for data: 1280311300
I0225 05:24:41.402647   118 layer_factory.hpp:123] Creating layer Threshold_97
I0225 05:24:41.402652   118 net.cpp:140] Creating Layer Threshold_97
I0225 05:24:41.402655   118 net.cpp:481] Threshold_97 <- Add_23
I0225 05:24:41.402659   118 net.cpp:442] Threshold_97 -> Add_23 (in-place)
I0225 05:24:41.402663   118 net.cpp:190] Setting up Threshold_97
I0225 05:24:41.402667   118 net.cpp:197] Top shape: 1 64 128 256 (2097152)
I0225 05:24:41.402670   118 net.cpp:205] Memory required for data: 1288699908
I0225 05:24:41.402673   118 layer_factory.hpp:123] Creating layer Add_23_fixed
I0225 05:24:41.402678   118 net.cpp:140] Creating Layer Add_23_fixed
I0225 05:24:41.402681   118 net.cpp:481] Add_23_fixed <- Add_23
I0225 05:24:41.402684   118 net.cpp:442] Add_23_fixed -> Add_23 (in-place)
I0225 05:24:41.402711   118 net.cpp:190] Setting up Add_23_fixed
I0225 05:24:41.402717   118 net.cpp:197] Top shape: 1 64 128 256 (2097152)
I0225 05:24:41.402721   118 net.cpp:205] Memory required for data: 1297088516
I0225 05:24:41.402734   118 layer_factory.hpp:123] Creating layer Add_23_Add_23_fixed_0_split
I0225 05:24:41.402742   118 net.cpp:140] Creating Layer Add_23_Add_23_fixed_0_split
I0225 05:24:41.402747   118 net.cpp:481] Add_23_Add_23_fixed_0_split <- Add_23
I0225 05:24:41.402755   118 net.cpp:455] Add_23_Add_23_fixed_0_split -> Add_23_Add_23_fixed_0_split_0
I0225 05:24:41.402765   118 net.cpp:455] Add_23_Add_23_fixed_0_split -> Add_23_Add_23_fixed_0_split_1
I0225 05:24:41.402796   118 net.cpp:190] Setting up Add_23_Add_23_fixed_0_split
I0225 05:24:41.402803   118 net.cpp:197] Top shape: 1 64 128 256 (2097152)
I0225 05:24:41.402808   118 net.cpp:197] Top shape: 1 64 128 256 (2097152)
I0225 05:24:41.402812   118 net.cpp:205] Memory required for data: 1313865732
I0225 05:24:41.402815   118 layer_factory.hpp:123] Creating layer ConvNd_78
I0225 05:24:41.402822   118 net.cpp:140] Creating Layer ConvNd_78
I0225 05:24:41.402825   118 net.cpp:481] ConvNd_78 <- Add_23_Add_23_fixed_0_split_0
I0225 05:24:41.402832   118 net.cpp:455] ConvNd_78 -> BatchNorm_76
I0225 05:24:41.403002   118 layer_factory.hpp:123] Creating layer ConvNd_78
I0225 05:24:41.403297   118 net.cpp:190] Setting up ConvNd_78
I0225 05:24:41.403306   118 net.cpp:197] Top shape: 1 16 128 256 (524288)
I0225 05:24:41.403311   118 net.cpp:205] Memory required for data: 1315962884
I0225 05:24:41.403316   118 layer_factory.hpp:123] Creating layer Threshold_98
I0225 05:24:41.403321   118 net.cpp:140] Creating Layer Threshold_98
I0225 05:24:41.403326   118 net.cpp:481] Threshold_98 <- BatchNorm_76
I0225 05:24:41.403329   118 net.cpp:442] Threshold_98 -> BatchNorm_76 (in-place)
I0225 05:24:41.403335   118 net.cpp:190] Setting up Threshold_98
I0225 05:24:41.403338   118 net.cpp:197] Top shape: 1 16 128 256 (524288)
I0225 05:24:41.403342   118 net.cpp:205] Memory required for data: 1318060036
I0225 05:24:41.403345   118 layer_factory.hpp:123] Creating layer BatchNorm_76_fixed
I0225 05:24:41.403350   118 net.cpp:140] Creating Layer BatchNorm_76_fixed
I0225 05:24:41.403353   118 net.cpp:481] BatchNorm_76_fixed <- BatchNorm_76
I0225 05:24:41.403357   118 net.cpp:442] BatchNorm_76_fixed -> BatchNorm_76 (in-place)
I0225 05:24:41.403381   118 net.cpp:190] Setting up BatchNorm_76_fixed
I0225 05:24:41.403388   118 net.cpp:197] Top shape: 1 16 128 256 (524288)
I0225 05:24:41.403393   118 net.cpp:205] Memory required for data: 1320157188
I0225 05:24:41.403396   118 layer_factory.hpp:123] Creating layer ConvNd_79
I0225 05:24:41.403403   118 net.cpp:140] Creating Layer ConvNd_79
I0225 05:24:41.403405   118 net.cpp:481] ConvNd_79 <- BatchNorm_76
I0225 05:24:41.403410   118 net.cpp:455] ConvNd_79 -> BatchNorm_77
I0225 05:24:41.403578   118 layer_factory.hpp:123] Creating layer ConvNd_79
I0225 05:24:41.403914   118 net.cpp:190] Setting up ConvNd_79
I0225 05:24:41.403925   118 net.cpp:197] Top shape: 1 16 128 256 (524288)
I0225 05:24:41.403932   118 net.cpp:205] Memory required for data: 1322254340
I0225 05:24:41.403940   118 layer_factory.hpp:123] Creating layer Threshold_99
I0225 05:24:41.403947   118 net.cpp:140] Creating Layer Threshold_99
I0225 05:24:41.403952   118 net.cpp:481] Threshold_99 <- BatchNorm_77
I0225 05:24:41.403959   118 net.cpp:442] Threshold_99 -> BatchNorm_77 (in-place)
I0225 05:24:41.403965   118 net.cpp:190] Setting up Threshold_99
I0225 05:24:41.403970   118 net.cpp:197] Top shape: 1 16 128 256 (524288)
I0225 05:24:41.403976   118 net.cpp:205] Memory required for data: 1324351492
I0225 05:24:41.403980   118 layer_factory.hpp:123] Creating layer BatchNorm_77_fixed
I0225 05:24:41.403986   118 net.cpp:140] Creating Layer BatchNorm_77_fixed
I0225 05:24:41.403991   118 net.cpp:481] BatchNorm_77_fixed <- BatchNorm_77
I0225 05:24:41.403997   118 net.cpp:442] BatchNorm_77_fixed -> BatchNorm_77 (in-place)
I0225 05:24:41.404028   118 net.cpp:190] Setting up BatchNorm_77_fixed
I0225 05:24:41.404036   118 net.cpp:197] Top shape: 1 16 128 256 (524288)
I0225 05:24:41.404042   118 net.cpp:205] Memory required for data: 1326448644
I0225 05:24:41.404047   118 layer_factory.hpp:123] Creating layer ConvNd_80
I0225 05:24:41.404057   118 net.cpp:140] Creating Layer ConvNd_80
I0225 05:24:41.404060   118 net.cpp:481] ConvNd_80 <- BatchNorm_77
I0225 05:24:41.404067   118 net.cpp:455] ConvNd_80 -> BatchNorm_78
I0225 05:24:41.404237   118 layer_factory.hpp:123] Creating layer ConvNd_80
I0225 05:24:41.404536   118 net.cpp:190] Setting up ConvNd_80
I0225 05:24:41.404543   118 net.cpp:197] Top shape: 1 64 128 256 (2097152)
I0225 05:24:41.404548   118 net.cpp:205] Memory required for data: 1334837252
I0225 05:24:41.404554   118 layer_factory.hpp:123] Creating layer Threshold_100
I0225 05:24:41.404558   118 net.cpp:140] Creating Layer Threshold_100
I0225 05:24:41.404562   118 net.cpp:481] Threshold_100 <- BatchNorm_78
I0225 05:24:41.404567   118 net.cpp:442] Threshold_100 -> BatchNorm_78 (in-place)
I0225 05:24:41.404572   118 net.cpp:190] Setting up Threshold_100
I0225 05:24:41.404575   118 net.cpp:197] Top shape: 1 64 128 256 (2097152)
I0225 05:24:41.404579   118 net.cpp:205] Memory required for data: 1343225860
I0225 05:24:41.404582   118 layer_factory.hpp:123] Creating layer BatchNorm_78_fixed
I0225 05:24:41.404587   118 net.cpp:140] Creating Layer BatchNorm_78_fixed
I0225 05:24:41.404590   118 net.cpp:481] BatchNorm_78_fixed <- BatchNorm_78
I0225 05:24:41.404594   118 net.cpp:442] BatchNorm_78_fixed -> BatchNorm_78 (in-place)
I0225 05:24:41.404619   118 net.cpp:190] Setting up BatchNorm_78_fixed
I0225 05:24:41.404624   118 net.cpp:197] Top shape: 1 64 128 256 (2097152)
I0225 05:24:41.404629   118 net.cpp:205] Memory required for data: 1351614468
I0225 05:24:41.404633   118 layer_factory.hpp:123] Creating layer Add_24
I0225 05:24:41.404639   118 net.cpp:140] Creating Layer Add_24
I0225 05:24:41.404642   118 net.cpp:481] Add_24 <- Add_23_Add_23_fixed_0_split_1
I0225 05:24:41.404646   118 net.cpp:481] Add_24 <- BatchNorm_78
I0225 05:24:41.404650   118 net.cpp:455] Add_24 -> Add_24
I0225 05:24:41.404667   118 net.cpp:190] Setting up Add_24
I0225 05:24:41.404671   118 net.cpp:197] Top shape: 1 64 128 256 (2097152)
I0225 05:24:41.404675   118 net.cpp:205] Memory required for data: 1360003076
I0225 05:24:41.404678   118 layer_factory.hpp:123] Creating layer Threshold_101
I0225 05:24:41.404682   118 net.cpp:140] Creating Layer Threshold_101
I0225 05:24:41.404686   118 net.cpp:481] Threshold_101 <- Add_24
I0225 05:24:41.404690   118 net.cpp:442] Threshold_101 -> Add_24 (in-place)
I0225 05:24:41.404695   118 net.cpp:190] Setting up Threshold_101
I0225 05:24:41.404697   118 net.cpp:197] Top shape: 1 64 128 256 (2097152)
I0225 05:24:41.404701   118 net.cpp:205] Memory required for data: 1368391684
I0225 05:24:41.404704   118 layer_factory.hpp:123] Creating layer Add_24_fixed
I0225 05:24:41.404709   118 net.cpp:140] Creating Layer Add_24_fixed
I0225 05:24:41.404712   118 net.cpp:481] Add_24_fixed <- Add_24
I0225 05:24:41.404716   118 net.cpp:442] Add_24_fixed -> Add_24 (in-place)
I0225 05:24:41.404747   118 net.cpp:190] Setting up Add_24_fixed
I0225 05:24:41.404752   118 net.cpp:197] Top shape: 1 64 128 256 (2097152)
I0225 05:24:41.404760   118 net.cpp:205] Memory required for data: 1376780292
I0225 05:24:41.404767   118 layer_factory.hpp:123] Creating layer Add_24_Add_24_fixed_0_split
I0225 05:24:41.404775   118 net.cpp:140] Creating Layer Add_24_Add_24_fixed_0_split
I0225 05:24:41.404781   118 net.cpp:481] Add_24_Add_24_fixed_0_split <- Add_24
I0225 05:24:41.404789   118 net.cpp:455] Add_24_Add_24_fixed_0_split -> Add_24_Add_24_fixed_0_split_0
I0225 05:24:41.404798   118 net.cpp:455] Add_24_Add_24_fixed_0_split -> Add_24_Add_24_fixed_0_split_1
I0225 05:24:41.404829   118 net.cpp:190] Setting up Add_24_Add_24_fixed_0_split
I0225 05:24:41.404834   118 net.cpp:197] Top shape: 1 64 128 256 (2097152)
I0225 05:24:41.404841   118 net.cpp:197] Top shape: 1 64 128 256 (2097152)
I0225 05:24:41.404847   118 net.cpp:205] Memory required for data: 1393557508
I0225 05:24:41.404852   118 layer_factory.hpp:123] Creating layer ConvNd_81
I0225 05:24:41.404863   118 net.cpp:140] Creating Layer ConvNd_81
I0225 05:24:41.404868   118 net.cpp:481] ConvNd_81 <- Add_24_Add_24_fixed_0_split_0
I0225 05:24:41.404875   118 net.cpp:455] ConvNd_81 -> BatchNorm_79
I0225 05:24:41.405042   118 layer_factory.hpp:123] Creating layer ConvNd_81
I0225 05:24:41.405344   118 net.cpp:190] Setting up ConvNd_81
I0225 05:24:41.405350   118 net.cpp:197] Top shape: 1 16 128 256 (524288)
I0225 05:24:41.405355   118 net.cpp:205] Memory required for data: 1395654660
I0225 05:24:41.405361   118 layer_factory.hpp:123] Creating layer Threshold_102
I0225 05:24:41.405366   118 net.cpp:140] Creating Layer Threshold_102
I0225 05:24:41.405369   118 net.cpp:481] Threshold_102 <- BatchNorm_79
I0225 05:24:41.405375   118 net.cpp:442] Threshold_102 -> BatchNorm_79 (in-place)
I0225 05:24:41.405380   118 net.cpp:190] Setting up Threshold_102
I0225 05:24:41.405382   118 net.cpp:197] Top shape: 1 16 128 256 (524288)
I0225 05:24:41.405386   118 net.cpp:205] Memory required for data: 1397751812
I0225 05:24:41.405390   118 layer_factory.hpp:123] Creating layer BatchNorm_79_fixed
I0225 05:24:41.405395   118 net.cpp:140] Creating Layer BatchNorm_79_fixed
I0225 05:24:41.405397   118 net.cpp:481] BatchNorm_79_fixed <- BatchNorm_79
I0225 05:24:41.405401   118 net.cpp:442] BatchNorm_79_fixed -> BatchNorm_79 (in-place)
I0225 05:24:41.405426   118 net.cpp:190] Setting up BatchNorm_79_fixed
I0225 05:24:41.405431   118 net.cpp:197] Top shape: 1 16 128 256 (524288)
I0225 05:24:41.405434   118 net.cpp:205] Memory required for data: 1399848964
I0225 05:24:41.405438   118 layer_factory.hpp:123] Creating layer ConvNd_82
I0225 05:24:41.405444   118 net.cpp:140] Creating Layer ConvNd_82
I0225 05:24:41.405447   118 net.cpp:481] ConvNd_82 <- BatchNorm_79
I0225 05:24:41.405452   118 net.cpp:455] ConvNd_82 -> BatchNorm_80
I0225 05:24:41.405609   118 layer_factory.hpp:123] Creating layer ConvNd_82
I0225 05:24:41.406530   118 net.cpp:190] Setting up ConvNd_82
I0225 05:24:41.406540   118 net.cpp:197] Top shape: 1 16 128 256 (524288)
I0225 05:24:41.406545   118 net.cpp:205] Memory required for data: 1401946116
I0225 05:24:41.406551   118 layer_factory.hpp:123] Creating layer Threshold_103
I0225 05:24:41.406558   118 net.cpp:140] Creating Layer Threshold_103
I0225 05:24:41.406560   118 net.cpp:481] Threshold_103 <- BatchNorm_80
I0225 05:24:41.406565   118 net.cpp:442] Threshold_103 -> BatchNorm_80 (in-place)
I0225 05:24:41.406571   118 net.cpp:190] Setting up Threshold_103
I0225 05:24:41.406574   118 net.cpp:197] Top shape: 1 16 128 256 (524288)
I0225 05:24:41.406579   118 net.cpp:205] Memory required for data: 1404043268
I0225 05:24:41.406581   118 layer_factory.hpp:123] Creating layer BatchNorm_80_fixed
I0225 05:24:41.406586   118 net.cpp:140] Creating Layer BatchNorm_80_fixed
I0225 05:24:41.406589   118 net.cpp:481] BatchNorm_80_fixed <- BatchNorm_80
I0225 05:24:41.406594   118 net.cpp:442] BatchNorm_80_fixed -> BatchNorm_80 (in-place)
I0225 05:24:41.406628   118 net.cpp:190] Setting up BatchNorm_80_fixed
I0225 05:24:41.406632   118 net.cpp:197] Top shape: 1 16 128 256 (524288)
I0225 05:24:41.406637   118 net.cpp:205] Memory required for data: 1406140420
I0225 05:24:41.406642   118 layer_factory.hpp:123] Creating layer ConvNd_83
I0225 05:24:41.406648   118 net.cpp:140] Creating Layer ConvNd_83
I0225 05:24:41.406651   118 net.cpp:481] ConvNd_83 <- BatchNorm_80
I0225 05:24:41.406656   118 net.cpp:455] ConvNd_83 -> BatchNorm_81
I0225 05:24:41.406826   118 layer_factory.hpp:123] Creating layer ConvNd_83
I0225 05:24:41.407137   118 net.cpp:190] Setting up ConvNd_83
I0225 05:24:41.407145   118 net.cpp:197] Top shape: 1 64 128 256 (2097152)
I0225 05:24:41.407151   118 net.cpp:205] Memory required for data: 1414529028
I0225 05:24:41.407156   118 layer_factory.hpp:123] Creating layer Threshold_104
I0225 05:24:41.407161   118 net.cpp:140] Creating Layer Threshold_104
I0225 05:24:41.407166   118 net.cpp:481] Threshold_104 <- BatchNorm_81
I0225 05:24:41.407169   118 net.cpp:442] Threshold_104 -> BatchNorm_81 (in-place)
I0225 05:24:41.407176   118 net.cpp:190] Setting up Threshold_104
I0225 05:24:41.407178   118 net.cpp:197] Top shape: 1 64 128 256 (2097152)
I0225 05:24:41.407182   118 net.cpp:205] Memory required for data: 1422917636
I0225 05:24:41.407186   118 layer_factory.hpp:123] Creating layer BatchNorm_81_fixed
I0225 05:24:41.407191   118 net.cpp:140] Creating Layer BatchNorm_81_fixed
I0225 05:24:41.407193   118 net.cpp:481] BatchNorm_81_fixed <- BatchNorm_81
I0225 05:24:41.407197   118 net.cpp:442] BatchNorm_81_fixed -> BatchNorm_81 (in-place)
I0225 05:24:41.407228   118 net.cpp:190] Setting up BatchNorm_81_fixed
I0225 05:24:41.407233   118 net.cpp:197] Top shape: 1 64 128 256 (2097152)
I0225 05:24:41.407238   118 net.cpp:205] Memory required for data: 1431306244
I0225 05:24:41.407243   118 layer_factory.hpp:123] Creating layer Add_25
I0225 05:24:41.407248   118 net.cpp:140] Creating Layer Add_25
I0225 05:24:41.407250   118 net.cpp:481] Add_25 <- Add_24_Add_24_fixed_0_split_1
I0225 05:24:41.407254   118 net.cpp:481] Add_25 <- BatchNorm_81
I0225 05:24:41.407259   118 net.cpp:455] Add_25 -> Add_25
I0225 05:24:41.407279   118 net.cpp:190] Setting up Add_25
I0225 05:24:41.407281   118 net.cpp:197] Top shape: 1 64 128 256 (2097152)
I0225 05:24:41.407289   118 net.cpp:205] Memory required for data: 1439694852
I0225 05:24:41.407292   118 layer_factory.hpp:123] Creating layer Threshold_105
I0225 05:24:41.407300   118 net.cpp:140] Creating Layer Threshold_105
I0225 05:24:41.407305   118 net.cpp:481] Threshold_105 <- Add_25
I0225 05:24:41.407312   118 net.cpp:442] Threshold_105 -> Add_25 (in-place)
I0225 05:24:41.407320   118 net.cpp:190] Setting up Threshold_105
I0225 05:24:41.407323   118 net.cpp:197] Top shape: 1 64 128 256 (2097152)
I0225 05:24:41.407328   118 net.cpp:205] Memory required for data: 1448083460
I0225 05:24:41.407332   118 layer_factory.hpp:123] Creating layer Add_25_fixed
I0225 05:24:41.407341   118 net.cpp:140] Creating Layer Add_25_fixed
I0225 05:24:41.407346   118 net.cpp:481] Add_25_fixed <- Add_25
I0225 05:24:41.407352   118 net.cpp:442] Add_25_fixed -> Add_25 (in-place)
I0225 05:24:41.407387   118 net.cpp:190] Setting up Add_25_fixed
I0225 05:24:41.407393   118 net.cpp:197] Top shape: 1 64 128 256 (2097152)
I0225 05:24:41.407402   118 net.cpp:205] Memory required for data: 1456472068
I0225 05:24:41.407408   118 layer_factory.hpp:123] Creating layer Add_25_Add_25_fixed_0_split
I0225 05:24:41.407416   118 net.cpp:140] Creating Layer Add_25_Add_25_fixed_0_split
I0225 05:24:41.407420   118 net.cpp:481] Add_25_Add_25_fixed_0_split <- Add_25
I0225 05:24:41.407425   118 net.cpp:455] Add_25_Add_25_fixed_0_split -> Add_25_Add_25_fixed_0_split_0
I0225 05:24:41.407431   118 net.cpp:455] Add_25_Add_25_fixed_0_split -> Add_25_Add_25_fixed_0_split_1
I0225 05:24:41.407470   118 net.cpp:190] Setting up Add_25_Add_25_fixed_0_split
I0225 05:24:41.407476   118 net.cpp:197] Top shape: 1 64 128 256 (2097152)
I0225 05:24:41.407481   118 net.cpp:197] Top shape: 1 64 128 256 (2097152)
I0225 05:24:41.407485   118 net.cpp:205] Memory required for data: 1473249284
I0225 05:24:41.407488   118 layer_factory.hpp:123] Creating layer ConvNd_84
I0225 05:24:41.407495   118 net.cpp:140] Creating Layer ConvNd_84
I0225 05:24:41.407500   118 net.cpp:481] ConvNd_84 <- Add_25_Add_25_fixed_0_split_0
I0225 05:24:41.407505   118 net.cpp:455] ConvNd_84 -> BatchNorm_82
I0225 05:24:41.407670   118 layer_factory.hpp:123] Creating layer ConvNd_84
I0225 05:24:41.407984   118 net.cpp:190] Setting up ConvNd_84
I0225 05:24:41.407992   118 net.cpp:197] Top shape: 1 16 128 256 (524288)
I0225 05:24:41.407999   118 net.cpp:205] Memory required for data: 1475346436
I0225 05:24:41.408004   118 layer_factory.hpp:123] Creating layer BatchNorm_82_fixed
I0225 05:24:41.408010   118 net.cpp:140] Creating Layer BatchNorm_82_fixed
I0225 05:24:41.408013   118 net.cpp:481] BatchNorm_82_fixed <- BatchNorm_82
I0225 05:24:41.408017   118 net.cpp:442] BatchNorm_82_fixed -> BatchNorm_82 (in-place)
I0225 05:24:41.408044   118 net.cpp:190] Setting up BatchNorm_82_fixed
I0225 05:24:41.408051   118 net.cpp:197] Top shape: 1 16 128 256 (524288)
I0225 05:24:41.408054   118 net.cpp:205] Memory required for data: 1477443588
I0225 05:24:41.408058   118 layer_factory.hpp:123] Creating layer UpsamplingBilinear2d_2
I0225 05:24:41.408066   118 net.cpp:140] Creating Layer UpsamplingBilinear2d_2
I0225 05:24:41.408069   118 net.cpp:481] UpsamplingBilinear2d_2 <- BatchNorm_82
I0225 05:24:41.408074   118 net.cpp:455] UpsamplingBilinear2d_2 -> UpsamplingBilinear2d_2
I0225 05:24:41.408221   118 layer_factory.hpp:123] Creating layer UpsamplingBilinear2d_2
I0225 05:24:41.408424   118 net.cpp:190] Setting up UpsamplingBilinear2d_2
I0225 05:24:41.408432   118 net.cpp:197] Top shape: 1 16 256 512 (2097152)
I0225 05:24:41.408437   118 net.cpp:205] Memory required for data: 1485832196
I0225 05:24:41.408442   118 layer_factory.hpp:123] Creating layer UpsamplingBilinear2d_2_fixed
I0225 05:24:41.408447   118 net.cpp:140] Creating Layer UpsamplingBilinear2d_2_fixed
I0225 05:24:41.408450   118 net.cpp:481] UpsamplingBilinear2d_2_fixed <- UpsamplingBilinear2d_2
I0225 05:24:41.408455   118 net.cpp:442] UpsamplingBilinear2d_2_fixed -> UpsamplingBilinear2d_2 (in-place)
I0225 05:24:41.408483   118 net.cpp:190] Setting up UpsamplingBilinear2d_2_fixed
I0225 05:24:41.408489   118 net.cpp:197] Top shape: 1 16 256 512 (2097152)
I0225 05:24:41.408493   118 net.cpp:205] Memory required for data: 1494220804
I0225 05:24:41.408497   118 layer_factory.hpp:123] Creating layer ConvNd_85
I0225 05:24:41.408504   118 net.cpp:140] Creating Layer ConvNd_85
I0225 05:24:41.408509   118 net.cpp:481] ConvNd_85 <- Add_25_Add_25_fixed_0_split_1
I0225 05:24:41.408514   118 net.cpp:455] ConvNd_85 -> BatchNorm_83
I0225 05:24:41.408674   118 layer_factory.hpp:123] Creating layer ConvNd_85
I0225 05:24:41.408972   118 net.cpp:190] Setting up ConvNd_85
I0225 05:24:41.408982   118 net.cpp:197] Top shape: 1 16 128 256 (524288)
I0225 05:24:41.408987   118 net.cpp:205] Memory required for data: 1496317956
I0225 05:24:41.408993   118 layer_factory.hpp:123] Creating layer Threshold_106
I0225 05:24:41.408998   118 net.cpp:140] Creating Layer Threshold_106
I0225 05:24:41.409000   118 net.cpp:481] Threshold_106 <- BatchNorm_83
I0225 05:24:41.409005   118 net.cpp:442] Threshold_106 -> BatchNorm_83 (in-place)
I0225 05:24:41.409011   118 net.cpp:190] Setting up Threshold_106
I0225 05:24:41.409014   118 net.cpp:197] Top shape: 1 16 128 256 (524288)
I0225 05:24:41.409018   118 net.cpp:205] Memory required for data: 1498415108
I0225 05:24:41.409021   118 layer_factory.hpp:123] Creating layer BatchNorm_83_fixed
I0225 05:24:41.409026   118 net.cpp:140] Creating Layer BatchNorm_83_fixed
I0225 05:24:41.409029   118 net.cpp:481] BatchNorm_83_fixed <- BatchNorm_83
I0225 05:24:41.409032   118 net.cpp:442] BatchNorm_83_fixed -> BatchNorm_83 (in-place)
I0225 05:24:41.409057   118 net.cpp:190] Setting up BatchNorm_83_fixed
I0225 05:24:41.409061   118 net.cpp:197] Top shape: 1 16 128 256 (524288)
I0225 05:24:41.409065   118 net.cpp:205] Memory required for data: 1500512260
I0225 05:24:41.409070   118 layer_factory.hpp:123] Creating layer ConvNd_86
I0225 05:24:41.409075   118 net.cpp:140] Creating Layer ConvNd_86
I0225 05:24:41.409078   118 net.cpp:481] ConvNd_86 <- BatchNorm_83
I0225 05:24:41.409083   118 net.cpp:455] ConvNd_86 -> BatchNorm_84
I0225 05:24:41.409247   118 layer_factory.hpp:123] Creating layer ConvNd_86
I0225 05:24:41.409628   118 net.cpp:190] Setting up ConvNd_86
I0225 05:24:41.409636   118 net.cpp:197] Top shape: 1 16 256 512 (2097152)
I0225 05:24:41.409641   118 net.cpp:205] Memory required for data: 1508900868
I0225 05:24:41.409646   118 layer_factory.hpp:123] Creating layer Threshold_107
I0225 05:24:41.409651   118 net.cpp:140] Creating Layer Threshold_107
I0225 05:24:41.409654   118 net.cpp:481] Threshold_107 <- BatchNorm_84
I0225 05:24:41.409658   118 net.cpp:442] Threshold_107 -> BatchNorm_84 (in-place)
I0225 05:24:41.409664   118 net.cpp:190] Setting up Threshold_107
I0225 05:24:41.409667   118 net.cpp:197] Top shape: 1 16 256 512 (2097152)
I0225 05:24:41.409670   118 net.cpp:205] Memory required for data: 1517289476
I0225 05:24:41.409674   118 layer_factory.hpp:123] Creating layer BatchNorm_84_fixed
I0225 05:24:41.409678   118 net.cpp:140] Creating Layer BatchNorm_84_fixed
I0225 05:24:41.409682   118 net.cpp:481] BatchNorm_84_fixed <- BatchNorm_84
I0225 05:24:41.409687   118 net.cpp:442] BatchNorm_84_fixed -> BatchNorm_84 (in-place)
I0225 05:24:41.409711   118 net.cpp:190] Setting up BatchNorm_84_fixed
I0225 05:24:41.409718   118 net.cpp:197] Top shape: 1 16 256 512 (2097152)
I0225 05:24:41.409723   118 net.cpp:205] Memory required for data: 1525678084
I0225 05:24:41.409726   118 layer_factory.hpp:123] Creating layer ConvNd_87
I0225 05:24:41.409734   118 net.cpp:140] Creating Layer ConvNd_87
I0225 05:24:41.409736   118 net.cpp:481] ConvNd_87 <- BatchNorm_84
I0225 05:24:41.409741   118 net.cpp:455] ConvNd_87 -> BatchNorm_85
I0225 05:24:41.409909   118 layer_factory.hpp:123] Creating layer ConvNd_87
I0225 05:24:41.410895   118 net.cpp:190] Setting up ConvNd_87
I0225 05:24:41.410907   118 net.cpp:197] Top shape: 1 16 256 512 (2097152)
I0225 05:24:41.410912   118 net.cpp:205] Memory required for data: 1534066692
I0225 05:24:41.410918   118 layer_factory.hpp:123] Creating layer Threshold_108
I0225 05:24:41.410923   118 net.cpp:140] Creating Layer Threshold_108
I0225 05:24:41.410928   118 net.cpp:481] Threshold_108 <- BatchNorm_85
I0225 05:24:41.410931   118 net.cpp:442] Threshold_108 -> BatchNorm_85 (in-place)
I0225 05:24:41.410938   118 net.cpp:190] Setting up Threshold_108
I0225 05:24:41.410940   118 net.cpp:197] Top shape: 1 16 256 512 (2097152)
I0225 05:24:41.410944   118 net.cpp:205] Memory required for data: 1542455300
I0225 05:24:41.410948   118 layer_factory.hpp:123] Creating layer BatchNorm_85_fixed
I0225 05:24:41.410953   118 net.cpp:140] Creating Layer BatchNorm_85_fixed
I0225 05:24:41.410955   118 net.cpp:481] BatchNorm_85_fixed <- BatchNorm_85
I0225 05:24:41.410959   118 net.cpp:442] BatchNorm_85_fixed -> BatchNorm_85 (in-place)
I0225 05:24:41.410984   118 net.cpp:190] Setting up BatchNorm_85_fixed
I0225 05:24:41.410990   118 net.cpp:197] Top shape: 1 16 256 512 (2097152)
I0225 05:24:41.410995   118 net.cpp:205] Memory required for data: 1550843908
I0225 05:24:41.411000   118 layer_factory.hpp:123] Creating layer Add_26
I0225 05:24:41.411005   118 net.cpp:140] Creating Layer Add_26
I0225 05:24:41.411007   118 net.cpp:481] Add_26 <- UpsamplingBilinear2d_2
I0225 05:24:41.411011   118 net.cpp:481] Add_26 <- BatchNorm_85
I0225 05:24:41.411015   118 net.cpp:455] Add_26 -> Add_26
I0225 05:24:41.411033   118 net.cpp:190] Setting up Add_26
I0225 05:24:41.411037   118 net.cpp:197] Top shape: 1 16 256 512 (2097152)
I0225 05:24:41.411041   118 net.cpp:205] Memory required for data: 1559232516
I0225 05:24:41.411044   118 layer_factory.hpp:123] Creating layer Threshold_109
I0225 05:24:41.411048   118 net.cpp:140] Creating Layer Threshold_109
I0225 05:24:41.411052   118 net.cpp:481] Threshold_109 <- Add_26
I0225 05:24:41.411056   118 net.cpp:442] Threshold_109 -> Add_26 (in-place)
I0225 05:24:41.411062   118 net.cpp:190] Setting up Threshold_109
I0225 05:24:41.411064   118 net.cpp:197] Top shape: 1 16 256 512 (2097152)
I0225 05:24:41.411068   118 net.cpp:205] Memory required for data: 1567621124
I0225 05:24:41.411072   118 layer_factory.hpp:123] Creating layer Add_26_fixed
I0225 05:24:41.411075   118 net.cpp:140] Creating Layer Add_26_fixed
I0225 05:24:41.411078   118 net.cpp:481] Add_26_fixed <- Add_26
I0225 05:24:41.411084   118 net.cpp:442] Add_26_fixed -> Add_26 (in-place)
I0225 05:24:41.411128   118 net.cpp:190] Setting up Add_26_fixed
I0225 05:24:41.411139   118 net.cpp:197] Top shape: 1 16 256 512 (2097152)
I0225 05:24:41.411144   118 net.cpp:205] Memory required for data: 1576009732
I0225 05:24:41.411154   118 layer_factory.hpp:123] Creating layer Add_26_Add_26_fixed_0_split
I0225 05:24:41.411161   118 net.cpp:140] Creating Layer Add_26_Add_26_fixed_0_split
I0225 05:24:41.411165   118 net.cpp:481] Add_26_Add_26_fixed_0_split <- Add_26
I0225 05:24:41.411170   118 net.cpp:455] Add_26_Add_26_fixed_0_split -> Add_26_Add_26_fixed_0_split_0
I0225 05:24:41.411175   118 net.cpp:455] Add_26_Add_26_fixed_0_split -> Add_26_Add_26_fixed_0_split_1
I0225 05:24:41.411213   118 net.cpp:190] Setting up Add_26_Add_26_fixed_0_split
I0225 05:24:41.411222   118 net.cpp:197] Top shape: 1 16 256 512 (2097152)
I0225 05:24:41.411227   118 net.cpp:197] Top shape: 1 16 256 512 (2097152)
I0225 05:24:41.411231   118 net.cpp:205] Memory required for data: 1592786948
I0225 05:24:41.411234   118 layer_factory.hpp:123] Creating layer ConvNd_88
I0225 05:24:41.411242   118 net.cpp:140] Creating Layer ConvNd_88
I0225 05:24:41.411245   118 net.cpp:481] ConvNd_88 <- Add_26_Add_26_fixed_0_split_0
I0225 05:24:41.411250   118 net.cpp:455] ConvNd_88 -> BatchNorm_86
I0225 05:24:41.411425   118 layer_factory.hpp:123] Creating layer ConvNd_88
I0225 05:24:41.412420   118 net.cpp:190] Setting up ConvNd_88
I0225 05:24:41.412429   118 net.cpp:197] Top shape: 1 4 256 512 (524288)
I0225 05:24:41.412436   118 net.cpp:205] Memory required for data: 1594884100
I0225 05:24:41.412441   118 layer_factory.hpp:123] Creating layer Threshold_110
I0225 05:24:41.412446   118 net.cpp:140] Creating Layer Threshold_110
I0225 05:24:41.412451   118 net.cpp:481] Threshold_110 <- BatchNorm_86
I0225 05:24:41.412456   118 net.cpp:442] Threshold_110 -> BatchNorm_86 (in-place)
I0225 05:24:41.412461   118 net.cpp:190] Setting up Threshold_110
I0225 05:24:41.412464   118 net.cpp:197] Top shape: 1 4 256 512 (524288)
I0225 05:24:41.412468   118 net.cpp:205] Memory required for data: 1596981252
I0225 05:24:41.412472   118 layer_factory.hpp:123] Creating layer BatchNorm_86_fixed
I0225 05:24:41.412477   118 net.cpp:140] Creating Layer BatchNorm_86_fixed
I0225 05:24:41.412479   118 net.cpp:481] BatchNorm_86_fixed <- BatchNorm_86
I0225 05:24:41.412483   118 net.cpp:442] BatchNorm_86_fixed -> BatchNorm_86 (in-place)
I0225 05:24:41.412519   118 net.cpp:190] Setting up BatchNorm_86_fixed
I0225 05:24:41.412525   118 net.cpp:197] Top shape: 1 4 256 512 (524288)
I0225 05:24:41.412529   118 net.cpp:205] Memory required for data: 1599078404
I0225 05:24:41.412534   118 layer_factory.hpp:123] Creating layer ConvNd_89
I0225 05:24:41.412540   118 net.cpp:140] Creating Layer ConvNd_89
I0225 05:24:41.412544   118 net.cpp:481] ConvNd_89 <- BatchNorm_86
I0225 05:24:41.412549   118 net.cpp:455] ConvNd_89 -> BatchNorm_87
I0225 05:24:41.412739   118 layer_factory.hpp:123] Creating layer ConvNd_89
I0225 05:24:41.413117   118 net.cpp:190] Setting up ConvNd_89
I0225 05:24:41.413125   118 net.cpp:197] Top shape: 1 4 256 512 (524288)
I0225 05:24:41.413130   118 net.cpp:205] Memory required for data: 1601175556
I0225 05:24:41.413136   118 layer_factory.hpp:123] Creating layer Threshold_111
I0225 05:24:41.413141   118 net.cpp:140] Creating Layer Threshold_111
I0225 05:24:41.413146   118 net.cpp:481] Threshold_111 <- BatchNorm_87
I0225 05:24:41.413149   118 net.cpp:442] Threshold_111 -> BatchNorm_87 (in-place)
I0225 05:24:41.413156   118 net.cpp:190] Setting up Threshold_111
I0225 05:24:41.413158   118 net.cpp:197] Top shape: 1 4 256 512 (524288)
I0225 05:24:41.413162   118 net.cpp:205] Memory required for data: 1603272708
I0225 05:24:41.413166   118 layer_factory.hpp:123] Creating layer BatchNorm_87_fixed
I0225 05:24:41.413169   118 net.cpp:140] Creating Layer BatchNorm_87_fixed
I0225 05:24:41.413172   118 net.cpp:481] BatchNorm_87_fixed <- BatchNorm_87
I0225 05:24:41.413177   118 net.cpp:442] BatchNorm_87_fixed -> BatchNorm_87 (in-place)
I0225 05:24:41.413208   118 net.cpp:190] Setting up BatchNorm_87_fixed
I0225 05:24:41.413213   118 net.cpp:197] Top shape: 1 4 256 512 (524288)
I0225 05:24:41.413218   118 net.cpp:205] Memory required for data: 1605369860
I0225 05:24:41.413221   118 layer_factory.hpp:123] Creating layer ConvNd_90
I0225 05:24:41.413228   118 net.cpp:140] Creating Layer ConvNd_90
I0225 05:24:41.413231   118 net.cpp:481] ConvNd_90 <- BatchNorm_87
I0225 05:24:41.413236   118 net.cpp:455] ConvNd_90 -> BatchNorm_88
I0225 05:24:41.413405   118 layer_factory.hpp:123] Creating layer ConvNd_90
I0225 05:24:41.414408   118 net.cpp:190] Setting up ConvNd_90
I0225 05:24:41.414419   118 net.cpp:197] Top shape: 1 16 256 512 (2097152)
I0225 05:24:41.414424   118 net.cpp:205] Memory required for data: 1613758468
I0225 05:24:41.414431   118 layer_factory.hpp:123] Creating layer Threshold_112
I0225 05:24:41.414436   118 net.cpp:140] Creating Layer Threshold_112
I0225 05:24:41.414440   118 net.cpp:481] Threshold_112 <- BatchNorm_88
I0225 05:24:41.414444   118 net.cpp:442] Threshold_112 -> BatchNorm_88 (in-place)
I0225 05:24:41.414451   118 net.cpp:190] Setting up Threshold_112
I0225 05:24:41.414454   118 net.cpp:197] Top shape: 1 16 256 512 (2097152)
I0225 05:24:41.414458   118 net.cpp:205] Memory required for data: 1622147076
I0225 05:24:41.414461   118 layer_factory.hpp:123] Creating layer BatchNorm_88_fixed
I0225 05:24:41.414466   118 net.cpp:140] Creating Layer BatchNorm_88_fixed
I0225 05:24:41.414469   118 net.cpp:481] BatchNorm_88_fixed <- BatchNorm_88
I0225 05:24:41.414474   118 net.cpp:442] BatchNorm_88_fixed -> BatchNorm_88 (in-place)
I0225 05:24:41.414507   118 net.cpp:190] Setting up BatchNorm_88_fixed
I0225 05:24:41.414513   118 net.cpp:197] Top shape: 1 16 256 512 (2097152)
I0225 05:24:41.414517   118 net.cpp:205] Memory required for data: 1630535684
I0225 05:24:41.414522   118 layer_factory.hpp:123] Creating layer Add_27
I0225 05:24:41.414527   118 net.cpp:140] Creating Layer Add_27
I0225 05:24:41.414531   118 net.cpp:481] Add_27 <- Add_26_Add_26_fixed_0_split_1
I0225 05:24:41.414535   118 net.cpp:481] Add_27 <- BatchNorm_88
I0225 05:24:41.414539   118 net.cpp:455] Add_27 -> Add_27
I0225 05:24:41.414557   118 net.cpp:190] Setting up Add_27
I0225 05:24:41.414561   118 net.cpp:197] Top shape: 1 16 256 512 (2097152)
I0225 05:24:41.414566   118 net.cpp:205] Memory required for data: 1638924292
I0225 05:24:41.414568   118 layer_factory.hpp:123] Creating layer Threshold_113
I0225 05:24:41.414573   118 net.cpp:140] Creating Layer Threshold_113
I0225 05:24:41.414577   118 net.cpp:481] Threshold_113 <- Add_27
I0225 05:24:41.414580   118 net.cpp:442] Threshold_113 -> Add_27 (in-place)
I0225 05:24:41.414585   118 net.cpp:190] Setting up Threshold_113
I0225 05:24:41.414588   118 net.cpp:197] Top shape: 1 16 256 512 (2097152)
I0225 05:24:41.414593   118 net.cpp:205] Memory required for data: 1647312900
I0225 05:24:41.414597   118 layer_factory.hpp:123] Creating layer Add_27_fixed
I0225 05:24:41.414604   118 net.cpp:140] Creating Layer Add_27_fixed
I0225 05:24:41.414609   118 net.cpp:481] Add_27_fixed <- Add_27
I0225 05:24:41.414615   118 net.cpp:442] Add_27_fixed -> Add_27 (in-place)
I0225 05:24:41.414654   118 net.cpp:190] Setting up Add_27_fixed
I0225 05:24:41.414664   118 net.cpp:197] Top shape: 1 16 256 512 (2097152)
I0225 05:24:41.414671   118 net.cpp:205] Memory required for data: 1655701508
I0225 05:24:41.414680   118 layer_factory.hpp:123] Creating layer ConvNd_91
I0225 05:24:41.414687   118 net.cpp:140] Creating Layer ConvNd_91
I0225 05:24:41.414690   118 net.cpp:481] ConvNd_91 <- Add_27
I0225 05:24:41.414695   118 net.cpp:455] ConvNd_91 -> ConvNd_91
I0225 05:24:41.414881   118 layer_factory.hpp:123] Creating layer ConvNd_91
I0225 05:24:41.416836   118 net.cpp:190] Setting up ConvNd_91
I0225 05:24:41.416847   118 net.cpp:197] Top shape: 1 19 512 1024 (9961472)
I0225 05:24:41.416853   118 net.cpp:205] Memory required for data: 1695547396
I0225 05:24:41.416859   118 layer_factory.hpp:123] Creating layer ConvNd_91_fixed
I0225 05:24:41.416865   118 net.cpp:140] Creating Layer ConvNd_91_fixed
I0225 05:24:41.416869   118 net.cpp:481] ConvNd_91_fixed <- ConvNd_91
I0225 05:24:41.416874   118 net.cpp:442] ConvNd_91_fixed -> ConvNd_91 (in-place)
I0225 05:24:41.416911   118 net.cpp:190] Setting up ConvNd_91_fixed
I0225 05:24:41.416918   118 net.cpp:197] Top shape: 1 19 512 1024 (9961472)
I0225 05:24:41.416923   118 net.cpp:205] Memory required for data: 1735393284
I0225 05:24:41.416927   118 layer_factory.hpp:123] Creating layer score
I0225 05:24:41.416932   118 net.cpp:140] Creating Layer score
I0225 05:24:41.416935   118 net.cpp:481] score <- ConvNd_91
I0225 05:24:41.416940   118 net.cpp:455] score -> score
I0225 05:24:41.416996   118 net.cpp:190] Setting up score
I0225 05:24:41.417002   118 net.cpp:197] Top shape: 1 19 512 1024 (9961472)
I0225 05:24:41.417008   118 net.cpp:205] Memory required for data: 1775239172
I0225 05:24:41.417013   118 net.cpp:268] score does not need backward computation.
I0225 05:24:41.417018   118 net.cpp:268] ConvNd_91_fixed does not need backward computation.
I0225 05:24:41.417023   118 net.cpp:268] ConvNd_91 does not need backward computation.
I0225 05:24:41.417028   118 net.cpp:268] Add_27_fixed does not need backward computation.
…
