…
I0715 08:47:51.075332  3347 solver.cpp:99] Creating training net from net file: ../workspace/model/unet-lite/train_val.prototxt
I0715 08:47:51.095576  3347 net.cpp:52] Initializing net from parameters: 
name: "unet"
state {
  phase: TRAIN
}
layer {
  name: "data"
  type: "ImageSegData"
  top: "data"
  top: "label"
  include {
    phase: TRAIN
  }
  transform_param {
    scale: 0.022
    crop_size: 512
    mean_value: 73
    mean_value: 82
    mean_value: 72
  }
  image_data_param {
    source: "../workspace/data/cityscapes/img_seg.txt"
    batch_size: 4
    mirror: true
    shuffle: true
  }
}
layer {
  name: "conv_d0a-b"
  type: "Convolution"
  bottom: "data"
  top: "d0b"
  param {
    lr_mult: 1
    decay_mult: 1
  }
  param {
    lr_mult: 2
    decay_mult: 0
  }
  convolution_param {
    num_output: 32
    pad: 1
    kernel_size: 3
    stride: 1
    weight_filler {
      type: "msra"
    }
  }
}
layer {
  name: "relu_d0b"
  type: "ReLU"
  bottom: "d0b"
  top: "relu_d0b"
}
layer {
  name: "conv_d0b-c"
  type: "Convolution"
  bottom: "relu_d0b"
  top: "d0c"
  param {
    lr_mult: 1
    decay_mult: 1
  }
  param {
    lr_mult: 2
    decay_mult: 0
  }
  convolution_param {
    num_output: 32
    pad: 1
    kernel_size: 3
    weight_filler {
      type: "msra"
    }
  }
}
layer {
  name: "BatchNorm_d0c"
  type: "BatchNorm"
  bottom: "d0c"
  top: "BatchNorm_d0c"
  param {
    lr_mult: 1
    decay_mult: 0
  }
  param {
    lr_mult: 1
    decay_mult: 0
  }
  param {
    lr_mult: 0
    decay_mult: 0
  }
  param {
    lr_mult: 0
    decay_mult: 0
  }
  batch_norm_param {
    use_global_stats: false
    eps: 1e-05
    scale_filler {
      type: "constant"
      value: 1
    }
    bias_filler {
      type: "constant"
      value: 0
    }
  }
}
layer {
  name: "relu_d0c"
  type: "ReLU"
  bottom: "BatchNorm_d0c"
  top: "relu_d0c"
}
layer {
  name: "pool_d0c-1a"
  type: "Pooling"
  bottom: "relu_d0c"
  top: "d1a"
  pooling_param {
    pool: MAX
    kernel_size: 2
    stride: 2
  }
}
layer {
  name: "conv_d1a-b"
  type: "Convolution"
  bottom: "d1a"
  top: "d1b"
  param {
    lr_mult: 1
    decay_mult: 1
  }
  param {
    lr_mult: 2
    decay_mult: 0
  }
  convolution_param {
    num_output: 64
    pad: 1
    kernel_size: 3
    weight_filler {
      type: "msra"
    }
  }
}
layer {
  name: "relu_d1b"
  type: "ReLU"
  bottom: "d1b"
  top: "relu_d1b"
}
layer {
  name: "conv_d1b-c"
  type: "Convolution"
  bottom: "relu_d1b"
  top: "d1c"
  param {
    lr_mult: 1
    decay_mult: 1
  }
  param {
    lr_mult: 2
    decay_mult: 0
  }
  convolution_param {
    num_output: 64
    pad: 1
    kernel_size: 3
    weight_filler {
      type: "msra"
    }
  }
}
layer {
  name: "BatchNorm_d1c"
  type: "BatchNorm"
  bottom: "d1c"
  top: "BatchNorm_d1c"
  param {
    lr_mult: 1
    decay_mult: 0
  }
  param {
    lr_mult: 1
    decay_mult: 0
  }
  param {
    lr_mult: 0
    decay_mult: 0
  }
  param {
    lr_mult: 0
    decay_mult: 0
  }
  batch_norm_param {
    use_global_stats: false
    eps: 1e-05
    scale_filler {
      type: "constant"
      value: 1
    }
    bias_filler {
      type: "constant"
      value: 0
    }
  }
}
layer {
  name: "relu_d1c"
  type: "ReLU"
  bottom: "BatchNorm_d1c"
  top: "relu_d1c"
}
layer {
  name: "pool_d1c-2a"
  type: "Pooling"
  bottom: "relu_d1c"
  top: "d2a"
  pooling_param {
    pool: MAX
    kernel_size: 2
    stride: 2
  }
}
layer {
  name: "conv_d2a-b"
  type: "Convolution"
  bottom: "d2a"
  top: "d2b"
  param {
    lr_mult: 1
    decay_mult: 1
  }
  param {
    lr_mult: 2
    decay_mult: 0
  }
  convolution_param {
    num_output: 128
    pad: 1
    kernel_size: 3
    weight_filler {
      type: "msra"
    }
  }
}
layer {
  name: "relu_d2b"
  type: "ReLU"
  bottom: "d2b"
  top: "relu_d2b"
}
layer {
  name: "conv_d2b-c"
  type: "Convolution"
  bottom: "relu_d2b"
  top: "d2c"
  param {
    lr_mult: 1
    decay_mult: 1
  }
  param {
    lr_mult: 2
    decay_mult: 0
  }
  convolution_param {
    num_output: 128
    pad: 1
    kernel_size: 3
    weight_filler {
      type: "msra"
    }
  }
}
layer {
  name: "BatchNorm_d2c"
  type: "BatchNorm"
  bottom: "d2c"
  top: "BatchNorm_d2c"
  param {
    lr_mult: 1
    decay_mult: 0
  }
  param {
    lr_mult: 1
    decay_mult: 0
  }
  param {
    lr_mult: 0
    decay_mult: 0
  }
  param {
    lr_mult: 0
    decay_mult: 0
  }
  batch_norm_param {
    use_global_stats: false
    eps: 1e-05
    scale_filler {
      type: "constant"
      value: 1
    }
    bias_filler {
      type: "constant"
      value: 0
    }
  }
}
layer {
  name: "relu_d2c"
  type: "ReLU"
  bottom: "BatchNorm_d2c"
  top: "relu_d2c"
}
layer {
  name: "pool_d2c-3a"
  type: "Pooling"
  bottom: "relu_d2c"
  top: "d3a"
  pooling_param {
    pool: MAX
    kernel_size: 2
    stride: 2
  }
}
layer {
  name: "conv_d3a-b"
  type: "Convolution"
  bottom: "d3a"
  top: "d3b"
  param {
    lr_mult: 1
    decay_mult: 1
  }
  param {
    lr_mult: 2
    decay_mult: 0
  }
  convolution_param {
    num_output: 256
    pad: 1
    kernel_size: 3
    weight_filler {
      type: "msra"
    }
  }
}
layer {
  name: "relu_d3b"
  type: "ReLU"
  bottom: "d3b"
  top: "relu_d3b"
}
layer {
  name: "conv_d3b-c"
  type: "Convolution"
  bottom: "relu_d3b"
  top: "d3c"
  param {
    lr_mult: 1
    decay_mult: 1
  }
  param {
    lr_mult: 2
    decay_mult: 0
  }
  convolution_param {
    num_output: 256
    pad: 1
    kernel_size: 3
    weight_filler {
      type: "msra"
    }
  }
}
layer {
  name: "BatchNorm_1"
  type: "BatchNorm"
  bottom: "d3c"
  top: "BatchNorm_1"
  param {
    lr_mult: 1
    decay_mult: 0
  }
  param {
    lr_mult: 1
    decay_mult: 0
  }
  param {
    lr_mult: 0
    decay_mult: 0
  }
  param {
    lr_mult: 0
    decay_mult: 0
  }
  batch_norm_param {
    use_global_stats: false
    eps: 1e-05
    scale_filler {
      type: "constant"
      value: 1
    }
    bias_filler {
      type: "constant"
      value: 0
    }
  }
}
layer {
  name: "relu_d3c"
  type: "ReLU"
  bottom: "BatchNorm_1"
  top: "relu_d3c"
}
layer {
  name: "pool_d3c-4a"
  type: "Pooling"
  bottom: "relu_d3c"
  top: "d4a"
  pooling_param {
    pool: MAX
    kernel_size: 2
    stride: 2
  }
}
layer {
  name: "conv_d4a-b"
  type: "Convolution"
  bottom: "d4a"
  top: "d4b"
  param {
    lr_mult: 1
    decay_mult: 1
  }
  param {
    lr_mult: 2
    decay_mult: 0
  }
  convolution_param {
    num_output: 512
    pad: 1
    kernel_size: 3
    weight_filler {
      type: "msra"
    }
  }
}
layer {
  name: "BatchNorm_2"
  type: "BatchNorm"
  bottom: "d4b"
  top: "BatchNorm_2"
  param {
    lr_mult: 1
    decay_mult: 0
  }
  param {
    lr_mult: 1
    decay_mult: 0
  }
  param {
    lr_mult: 0
    decay_mult: 0
  }
  param {
    lr_mult: 0
    decay_mult: 0
  }
  batch_norm_param {
    use_global_stats: false
    eps: 1e-05
    scale_filler {
      type: "constant"
      value: 1
    }
    bias_filler {
      type: "constant"
      value: 0
    }
  }
}
layer {
  name: "relu_d4b"
  type: "ReLU"
  bottom: "BatchNorm_2"
  top: "relu_d4b"
}
layer {
  name: "conv_d4b-c"
  type: "Convolution"
  bottom: "relu_d4b"
  top: "d4c"
  param {
    lr_mult: 1
    decay_mult: 1
  }
  param {
    lr_mult: 2
    decay_mult: 0
  }
  convolution_param {
    num_output: 512
    pad: 1
    kernel_size: 3
    weight_filler {
      type: "msra"
    }
  }
}
layer {
  name: "relu_d4c"
  type: "ReLU"
  bottom: "d4c"
  top: "relu_d4c"
}
layer {
  name: "upconv_d4c_u3a"
  type: "Deconvolution"
  bottom: "relu_d4c"
  top: "u3a"
  param {
    lr_mult: 1
    decay_mult: 1
  }
  param {
    lr_mult: 2
    decay_mult: 0
  }
  convolution_param {
    num_output: 256
    pad: 0
    kernel_size: 2
    stride: 2
    weight_filler {
      type: "msra"
    }
  }
}
layer {
  name: "relu_u3a"
  type: "ReLU"
  bottom: "u3a"
  top: "u3a"
}
layer {
  name: "concat_d3cc_u3a-b"
  type: "Concat"
  bottom: "u3a"
  bottom: "d3c"
  top: "u3b"
}
layer {
  name: "conv_u3b-c"
  type: "Convolution"
  bottom: "u3b"
  top: "u3c"
  param {
    lr_mult: 1
    decay_mult: 1
  }
  param {
    lr_mult: 2
    decay_mult: 0
  }
  convolution_param {
    num_output: 256
    pad: 1
    kernel_size: 3
    weight_filler {
      type: "msra"
    }
  }
}
layer {
  name: "relu_u3c"
  type: "ReLU"
  bottom: "u3c"
  top: "u3c"
}
layer {
  name: "conv_u3c-d"
  type: "Convolution"
  bottom: "u3c"
  top: "u3d"
  param {
    lr_mult: 1
    decay_mult: 1
  }
  param {
    lr_mult: 2
    decay_mult: 0
  }
  convolution_param {
    num_output: 256
    pad: 1
    kernel_size: 3
    weight_filler {
      type: "msra"
    }
  }
}
layer {
  name: "relu_u3d"
  type: "ReLU"
  bottom: "u3d"
  top: "u3d"
}
layer {
  name: "upconv_u3d_u2a"
  type: "Deconvolution"
  bottom: "u3d"
  top: "u2a"
  param {
    lr_mult: 1
    decay_mult: 1
  }
  param {
    lr_mult: 2
    decay_mult: 0
  }
  convolution_param {
    num_output: 128
    pad: 0
    kernel_size: 2
    stride: 2
    weight_filler {
      type: "msra"
    }
  }
}
layer {
  name: "relu_u2a"
  type: "ReLU"
  bottom: "u2a"
  top: "u2a"
}
layer {
  name: "concat_d2cc_u2a-b"
  type: "Concat"
  bottom: "u2a"
  bottom: "d2c"
  top: "u2b"
}
layer {
  name: "conv_u2b-c"
  type: "Convolution"
  bottom: "u2b"
  top: "u2c"
  param {
    lr_mult: 1
    decay_mult: 1
  }
  param {
    lr_mult: 2
    decay_mult: 0
  }
  convolution_param {
    num_output: 128
    pad: 1
    kernel_size: 3
    weight_filler {
      type: "msra"
    }
  }
}
layer {
  name: "relu_u2c"
  type: "ReLU"
  bottom: "u2c"
  top: "u2c"
}
layer {
  name: "conv_u2c-d"
  type: "Convolution"
  bottom: "u2c"
  top: "u2d"
  param {
    lr_mult: 1
    decay_mult: 1
  }
  param {
    lr_mult: 2
    decay_mult: 0
  }
  convolution_param {
    num_output: 128
    pad: 1
    kernel_size: 3
    weight_filler {
      type: "msra"
    }
  }
}
layer {
  name: "relu_u2d"
  type: "ReLU"
  bottom: "u2d"
  top: "u2d"
}
layer {
  name: "upconv_u2d_u1a"
  type: "Deconvolution"
  bottom: "u2d"
  top: "u1a"
  param {
    lr_mult: 1
    decay_mult: 1
  }
  param {
    lr_mult: 2
    decay_mult: 0
  }
  convolution_param {
    num_output: 64
    pad: 0
    kernel_size: 2
    stride: 2
    weight_filler {
      type: "msra"
    }
  }
}
layer {
  name: "relu_u1a"
  type: "ReLU"
  bottom: "u1a"
  top: "u1a"
}
layer {
  name: "concat_d1cc_u1a-b"
  type: "Concat"
  bottom: "u1a"
  bottom: "d1c"
  top: "u1b"
}
layer {
  name: "conv_u1b-c"
  type: "Convolution"
  bottom: "u1b"
  top: "u1c"
  param {
    lr_mult: 1
    decay_mult: 1
  }
  param {
    lr_mult: 2
    decay_mult: 0
  }
  convolution_param {
    num_output: 64
    pad: 1
    kernel_size: 3
    weight_filler {
      type: "msra"
    }
  }
}
layer {
  name: "relu_u1c"
  type: "ReLU"
  bottom: "u1c"
  top: "u1c"
}
layer {
  name: "conv_u1c-d"
  type: "Convolution"
  bottom: "u1c"
  top: "u1d"
  param {
    lr_mult: 1
    decay_mult: 1
  }
  param {
    lr_mult: 2
    decay_mult: 0
  }
  convolution_param {
    num_output: 64
    pad: 1
    kernel_size: 3
    weight_filler {
      type: "msra"
    }
  }
}
layer {
  name: "relu_u1d"
  type: "ReLU"
  bottom: "u1d"
  top: "u1d"
}
layer {
  name: "upconv_u1d_u0a_NEW"
  type: "Deconvolution"
  bottom: "u1d"
  top: "u0a"
  param {
    lr_mult: 1
    decay_mult: 1
  }
  param {
    lr_mult: 2
    decay_mult: 0
  }
  convolution_param {
    num_output: 32
    pad: 0
    kernel_size: 2
    stride: 2
    weight_filler {
      type: "msra"
    }
  }
}
layer {
  name: "relu_u0a"
  type: "ReLU"
  bottom: "u0a"
  top: "u0a"
}
layer {
  name: "concat_d0cc_u0a-b"
  type: "Concat"
  bottom: "u0a"
  bottom: "d0c"
  top: "u0b"
}
layer {
  name: "conv_u0b-c_New"
  type: "Convolution"
  bottom: "u0b"
  top: "u0c"
  param {
    lr_mult: 1
    decay_mult: 1
  }
  param {
    lr_mult: 2
    decay_mult: 0
  }
  convolution_param {
    num_output: 32
    pad: 1
    kernel_size: 3
    weight_filler {
      type: "msra"
    }
  }
}
layer {
  name: "relu_u0c"
  type: "ReLU"
  bottom: "u0c"
  top: "u0c"
}
layer {
  name: "conv_u0c-d_New"
  type: "Convolution"
  bottom: "u0c"
  top: "u0d"
  param {
    lr_mult: 1
    decay_mult: 1
  }
  param {
    lr_mult: 2
    decay_mult: 0
  }
  convolution_param {
    num_output: 32
    pad: 1
    kernel_size: 3
    weight_filler {
      type: "msra"
    }
  }
}
layer {
  name: "relu_u0d"
  type: "ReLU"
  bottom: "u0d"
  top: "u0d"
}
layer {
  name: "conv_u0d-score_New"
  type: "Convolution"
  bottom: "u0d"
  top: "conv_u0d-score_New"
  param {
    lr_mult: 1
    decay_mult: 1
  }
  param {
    lr_mult: 2
    decay_mult: 0
  }
  convolution_param {
    num_output: 19
    pad: 0
    kernel_size: 1
    weight_filler {
      type: "msra"
    }
  }
}
layer {
  name: "loss"
  type: "SoftmaxWithLoss"
  bottom: "conv_u0d-score_New"
  bottom: "label"
  top: "loss"
  include {
    phase: TRAIN
  }
  loss_param {
    ignore_label: 255
  }
}
layer {
  name: "acc"
  type: "Accuracy"
  bottom: "conv_u0d-score_New"
  bottom: "label"
  top: "acc"
  top: "per_acc"
  include {
    phase: TRAIN
  }
  accuracy_param {
    ignore_label: 255
  }
}
I0715 08:47:51.095832  3347 layer_factory.hpp:77] Creating layer data
I0715 08:47:51.095870  3347 net.cpp:94] Creating Layer data
I0715 08:47:51.095878  3347 net.cpp:409] data -> data
I0715 08:47:51.095906  3347 net.cpp:409] data -> label
I0715 08:47:51.095970  3347 image_seg_data_layer.cpp:46] Opening file ../workspace/data/cityscapes/img_seg.txt
I0715 08:47:51.099225  3347 image_seg_data_layer.cpp:63] Shuffling data
I0715 08:47:51.099285  3347 image_seg_data_layer.cpp:68] A total of 2975 images.
I0715 08:47:51.168458  3347 image_seg_data_layer.cpp:97] output data size: 4,3,512,512
I0715 08:47:51.238447  3347 internal_thread.cpp:27] Starting internal thread(s) on GPU 1
I0715 08:47:51.238517  3347 net.cpp:144] Setting up data
I0715 08:47:51.238528  3347 net.cpp:151] Top shape: 4 3 512 512 (3145728)
I0715 08:47:51.238533  3347 net.cpp:151] Top shape: 4 1 512 512 (1048576)
I0715 08:47:51.238535  3347 net.cpp:159] Memory required for data: 16777216
I0715 08:47:51.238544  3347 layer_factory.hpp:77] Creating layer label_data_1_split
I0715 08:47:51.238557  3347 net.cpp:94] Creating Layer label_data_1_split
I0715 08:47:51.238564  3347 net.cpp:435] label_data_1_split <- label
I0715 08:47:51.238577  3347 net.cpp:409] label_data_1_split -> label_data_1_split_0
I0715 08:47:51.238587  3347 net.cpp:409] label_data_1_split -> label_data_1_split_1
I0715 08:47:51.238656  3347 net.cpp:144] Setting up label_data_1_split
I0715 08:47:51.238662  3347 net.cpp:151] Top shape: 4 1 512 512 (1048576)
I0715 08:47:51.238665  3347 net.cpp:151] Top shape: 4 1 512 512 (1048576)
I0715 08:47:51.238668  3347 net.cpp:159] Memory required for data: 25165824
I0715 08:47:51.238672  3347 layer_factory.hpp:77] Creating layer conv_d0a-b
I0715 08:47:51.238689  3347 net.cpp:94] Creating Layer conv_d0a-b
I0715 08:47:51.238692  3347 net.cpp:435] conv_d0a-b <- data
I0715 08:47:51.238699  3347 net.cpp:409] conv_d0a-b -> d0b
I0715 08:47:51.240859  3347 net.cpp:144] Setting up conv_d0a-b
I0715 08:47:51.240878  3347 net.cpp:151] Top shape: 4 32 512 512 (33554432)
I0715 08:47:51.240883  3347 net.cpp:159] Memory required for data: 159383552
I0715 08:47:51.240906  3347 layer_factory.hpp:77] Creating layer relu_d0b
I0715 08:47:51.240916  3347 net.cpp:94] Creating Layer relu_d0b
I0715 08:47:51.240921  3347 net.cpp:435] relu_d0b <- d0b
I0715 08:47:51.240928  3347 net.cpp:409] relu_d0b -> relu_d0b
I0715 08:47:51.241048  3347 net.cpp:144] Setting up relu_d0b
I0715 08:47:51.241062  3347 net.cpp:151] Top shape: 4 32 512 512 (33554432)
I0715 08:47:51.241068  3347 net.cpp:159] Memory required for data: 293601280
I0715 08:47:51.241073  3347 layer_factory.hpp:77] Creating layer conv_d0b-c
I0715 08:47:51.241113  3347 net.cpp:94] Creating Layer conv_d0b-c
I0715 08:47:51.241123  3347 net.cpp:435] conv_d0b-c <- relu_d0b
I0715 08:47:51.241133  3347 net.cpp:409] conv_d0b-c -> d0c
I0715 08:47:51.242738  3347 net.cpp:144] Setting up conv_d0b-c
I0715 08:47:51.242753  3347 net.cpp:151] Top shape: 4 32 512 512 (33554432)
I0715 08:47:51.242758  3347 net.cpp:159] Memory required for data: 427819008
I0715 08:47:51.242765  3347 layer_factory.hpp:77] Creating layer d0c_conv_d0b-c_0_split
I0715 08:47:51.242774  3347 net.cpp:94] Creating Layer d0c_conv_d0b-c_0_split
I0715 08:47:51.242776  3347 net.cpp:435] d0c_conv_d0b-c_0_split <- d0c
I0715 08:47:51.242782  3347 net.cpp:409] d0c_conv_d0b-c_0_split -> d0c_conv_d0b-c_0_split_0
I0715 08:47:51.242790  3347 net.cpp:409] d0c_conv_d0b-c_0_split -> d0c_conv_d0b-c_0_split_1
I0715 08:47:51.242825  3347 net.cpp:144] Setting up d0c_conv_d0b-c_0_split
I0715 08:47:51.242835  3347 net.cpp:151] Top shape: 4 32 512 512 (33554432)
I0715 08:47:51.242839  3347 net.cpp:151] Top shape: 4 32 512 512 (33554432)
I0715 08:47:51.242841  3347 net.cpp:159] Memory required for data: 696254464
I0715 08:47:51.242846  3347 layer_factory.hpp:77] Creating layer BatchNorm_d0c
I0715 08:47:51.242852  3347 net.cpp:94] Creating Layer BatchNorm_d0c
I0715 08:47:51.242856  3347 net.cpp:435] BatchNorm_d0c <- d0c_conv_d0b-c_0_split_0
I0715 08:47:51.242862  3347 net.cpp:409] BatchNorm_d0c -> BatchNorm_d0c
I0715 08:47:51.244194  3347 net.cpp:144] Setting up BatchNorm_d0c
I0715 08:47:51.244207  3347 net.cpp:151] Top shape: 4 32 512 512 (33554432)
I0715 08:47:51.244211  3347 net.cpp:159] Memory required for data: 830472192
I0715 08:47:51.244225  3347 layer_factory.hpp:77] Creating layer relu_d0c
I0715 08:47:51.244231  3347 net.cpp:94] Creating Layer relu_d0c
I0715 08:47:51.244235  3347 net.cpp:435] relu_d0c <- BatchNorm_d0c
I0715 08:47:51.244240  3347 net.cpp:409] relu_d0c -> relu_d0c
I0715 08:47:51.244262  3347 net.cpp:144] Setting up relu_d0c
I0715 08:47:51.244267  3347 net.cpp:151] Top shape: 4 32 512 512 (33554432)
I0715 08:47:51.244271  3347 net.cpp:159] Memory required for data: 964689920
I0715 08:47:51.244273  3347 layer_factory.hpp:77] Creating layer pool_d0c-1a
I0715 08:47:51.244283  3347 net.cpp:94] Creating Layer pool_d0c-1a
I0715 08:47:51.244287  3347 net.cpp:435] pool_d0c-1a <- relu_d0c
I0715 08:47:51.244290  3347 net.cpp:409] pool_d0c-1a -> d1a
I0715 08:47:51.244328  3347 net.cpp:144] Setting up pool_d0c-1a
I0715 08:47:51.244333  3347 net.cpp:151] Top shape: 4 32 256 256 (8388608)
I0715 08:47:51.244336  3347 net.cpp:159] Memory required for data: 998244352
I0715 08:47:51.244339  3347 layer_factory.hpp:77] Creating layer conv_d1a-b
I0715 08:47:51.244349  3347 net.cpp:94] Creating Layer conv_d1a-b
I0715 08:47:51.244352  3347 net.cpp:435] conv_d1a-b <- d1a
I0715 08:47:51.244357  3347 net.cpp:409] conv_d1a-b -> d1b
I0715 08:47:51.245436  3347 net.cpp:144] Setting up conv_d1a-b
I0715 08:47:51.245450  3347 net.cpp:151] Top shape: 4 64 256 256 (16777216)
I0715 08:47:51.245452  3347 net.cpp:159] Memory required for data: 1065353216
I0715 08:47:51.245458  3347 layer_factory.hpp:77] Creating layer relu_d1b
I0715 08:47:51.245465  3347 net.cpp:94] Creating Layer relu_d1b
I0715 08:47:51.245468  3347 net.cpp:435] relu_d1b <- d1b
I0715 08:47:51.245473  3347 net.cpp:409] relu_d1b -> relu_d1b
I0715 08:47:51.245496  3347 net.cpp:144] Setting up relu_d1b
I0715 08:47:51.245501  3347 net.cpp:151] Top shape: 4 64 256 256 (16777216)
I0715 08:47:51.245504  3347 net.cpp:159] Memory required for data: 1132462080
I0715 08:47:51.245507  3347 layer_factory.hpp:77] Creating layer conv_d1b-c
I0715 08:47:51.245515  3347 net.cpp:94] Creating Layer conv_d1b-c
I0715 08:47:51.245518  3347 net.cpp:435] conv_d1b-c <- relu_d1b
I0715 08:47:51.245524  3347 net.cpp:409] conv_d1b-c -> d1c
I0715 08:47:51.246045  3347 net.cpp:144] Setting up conv_d1b-c
I0715 08:47:51.246053  3347 net.cpp:151] Top shape: 4 64 256 256 (16777216)
I0715 08:47:51.246057  3347 net.cpp:159] Memory required for data: 1199570944
I0715 08:47:51.246073  3347 layer_factory.hpp:77] Creating layer d1c_conv_d1b-c_0_split
I0715 08:47:51.246079  3347 net.cpp:94] Creating Layer d1c_conv_d1b-c_0_split
I0715 08:47:51.246083  3347 net.cpp:435] d1c_conv_d1b-c_0_split <- d1c
I0715 08:47:51.246088  3347 net.cpp:409] d1c_conv_d1b-c_0_split -> d1c_conv_d1b-c_0_split_0
I0715 08:47:51.246095  3347 net.cpp:409] d1c_conv_d1b-c_0_split -> d1c_conv_d1b-c_0_split_1
I0715 08:47:51.246129  3347 net.cpp:144] Setting up d1c_conv_d1b-c_0_split
I0715 08:47:51.246134  3347 net.cpp:151] Top shape: 4 64 256 256 (16777216)
I0715 08:47:51.246137  3347 net.cpp:151] Top shape: 4 64 256 256 (16777216)
I0715 08:47:51.246141  3347 net.cpp:159] Memory required for data: 1333788672
I0715 08:47:51.246145  3347 layer_factory.hpp:77] Creating layer BatchNorm_d1c
I0715 08:47:51.246152  3347 net.cpp:94] Creating Layer BatchNorm_d1c
I0715 08:47:51.246155  3347 net.cpp:435] BatchNorm_d1c <- d1c_conv_d1b-c_0_split_0
I0715 08:47:51.246161  3347 net.cpp:409] BatchNorm_d1c -> BatchNorm_d1c
I0715 08:47:51.246637  3347 net.cpp:144] Setting up BatchNorm_d1c
I0715 08:47:51.246645  3347 net.cpp:151] Top shape: 4 64 256 256 (16777216)
I0715 08:47:51.246649  3347 net.cpp:159] Memory required for data: 1400897536
I0715 08:47:51.246660  3347 layer_factory.hpp:77] Creating layer relu_d1c
I0715 08:47:51.246665  3347 net.cpp:94] Creating Layer relu_d1c
I0715 08:47:51.246670  3347 net.cpp:435] relu_d1c <- BatchNorm_d1c
I0715 08:47:51.246675  3347 net.cpp:409] relu_d1c -> relu_d1c
I0715 08:47:51.246695  3347 net.cpp:144] Setting up relu_d1c
I0715 08:47:51.246700  3347 net.cpp:151] Top shape: 4 64 256 256 (16777216)
I0715 08:47:51.246701  3347 net.cpp:159] Memory required for data: 1468006400
I0715 08:47:51.246706  3347 layer_factory.hpp:77] Creating layer pool_d1c-2a
I0715 08:47:51.246711  3347 net.cpp:94] Creating Layer pool_d1c-2a
I0715 08:47:51.246714  3347 net.cpp:435] pool_d1c-2a <- relu_d1c
I0715 08:47:51.246718  3347 net.cpp:409] pool_d1c-2a -> d2a
I0715 08:47:51.246747  3347 net.cpp:144] Setting up pool_d1c-2a
I0715 08:47:51.246753  3347 net.cpp:151] Top shape: 4 64 128 128 (4194304)
I0715 08:47:51.246757  3347 net.cpp:159] Memory required for data: 1484783616
I0715 08:47:51.246759  3347 layer_factory.hpp:77] Creating layer conv_d2a-b
I0715 08:47:51.246767  3347 net.cpp:94] Creating Layer conv_d2a-b
I0715 08:47:51.246771  3347 net.cpp:435] conv_d2a-b <- d2a
I0715 08:47:51.246776  3347 net.cpp:409] conv_d2a-b -> d2b
I0715 08:47:51.247568  3347 net.cpp:144] Setting up conv_d2a-b
I0715 08:47:51.247576  3347 net.cpp:151] Top shape: 4 128 128 128 (8388608)
I0715 08:47:51.247581  3347 net.cpp:159] Memory required for data: 1518338048
I0715 08:47:51.247586  3347 layer_factory.hpp:77] Creating layer relu_d2b
I0715 08:47:51.247591  3347 net.cpp:94] Creating Layer relu_d2b
I0715 08:47:51.247593  3347 net.cpp:435] relu_d2b <- d2b
I0715 08:47:51.247599  3347 net.cpp:409] relu_d2b -> relu_d2b
I0715 08:47:51.247620  3347 net.cpp:144] Setting up relu_d2b
I0715 08:47:51.247625  3347 net.cpp:151] Top shape: 4 128 128 128 (8388608)
I0715 08:47:51.247628  3347 net.cpp:159] Memory required for data: 1551892480
I0715 08:47:51.247632  3347 layer_factory.hpp:77] Creating layer conv_d2b-c
I0715 08:47:51.247638  3347 net.cpp:94] Creating Layer conv_d2b-c
I0715 08:47:51.247642  3347 net.cpp:435] conv_d2b-c <- relu_d2b
I0715 08:47:51.247648  3347 net.cpp:409] conv_d2b-c -> d2c
I0715 08:47:51.249141  3347 net.cpp:144] Setting up conv_d2b-c
I0715 08:47:51.249151  3347 net.cpp:151] Top shape: 4 128 128 128 (8388608)
I0715 08:47:51.249155  3347 net.cpp:159] Memory required for data: 1585446912
I0715 08:47:51.249161  3347 layer_factory.hpp:77] Creating layer d2c_conv_d2b-c_0_split
I0715 08:47:51.249166  3347 net.cpp:94] Creating Layer d2c_conv_d2b-c_0_split
I0715 08:47:51.249171  3347 net.cpp:435] d2c_conv_d2b-c_0_split <- d2c
I0715 08:47:51.249176  3347 net.cpp:409] d2c_conv_d2b-c_0_split -> d2c_conv_d2b-c_0_split_0
I0715 08:47:51.249181  3347 net.cpp:409] d2c_conv_d2b-c_0_split -> d2c_conv_d2b-c_0_split_1
I0715 08:47:51.249212  3347 net.cpp:144] Setting up d2c_conv_d2b-c_0_split
I0715 08:47:51.249228  3347 net.cpp:151] Top shape: 4 128 128 128 (8388608)
I0715 08:47:51.249233  3347 net.cpp:151] Top shape: 4 128 128 128 (8388608)
I0715 08:47:51.249234  3347 net.cpp:159] Memory required for data: 1652555776
I0715 08:47:51.249238  3347 layer_factory.hpp:77] Creating layer BatchNorm_d2c
I0715 08:47:51.249245  3347 net.cpp:94] Creating Layer BatchNorm_d2c
I0715 08:47:51.249249  3347 net.cpp:435] BatchNorm_d2c <- d2c_conv_d2b-c_0_split_0
I0715 08:47:51.249255  3347 net.cpp:409] BatchNorm_d2c -> BatchNorm_d2c
I0715 08:47:51.249670  3347 net.cpp:144] Setting up BatchNorm_d2c
I0715 08:47:51.249678  3347 net.cpp:151] Top shape: 4 128 128 128 (8388608)
I0715 08:47:51.249681  3347 net.cpp:159] Memory required for data: 1686110208
I0715 08:47:51.249691  3347 layer_factory.hpp:77] Creating layer relu_d2c
I0715 08:47:51.249696  3347 net.cpp:94] Creating Layer relu_d2c
I0715 08:47:51.249699  3347 net.cpp:435] relu_d2c <- BatchNorm_d2c
I0715 08:47:51.249704  3347 net.cpp:409] relu_d2c -> relu_d2c
I0715 08:47:51.249724  3347 net.cpp:144] Setting up relu_d2c
I0715 08:47:51.249729  3347 net.cpp:151] Top shape: 4 128 128 128 (8388608)
I0715 08:47:51.249732  3347 net.cpp:159] Memory required for data: 1719664640
I0715 08:47:51.249735  3347 layer_factory.hpp:77] Creating layer pool_d2c-3a
I0715 08:47:51.249740  3347 net.cpp:94] Creating Layer pool_d2c-3a
I0715 08:47:51.249744  3347 net.cpp:435] pool_d2c-3a <- relu_d2c
I0715 08:47:51.249748  3347 net.cpp:409] pool_d2c-3a -> d3a
I0715 08:47:51.249776  3347 net.cpp:144] Setting up pool_d2c-3a
I0715 08:47:51.249783  3347 net.cpp:151] Top shape: 4 128 64 64 (2097152)
I0715 08:47:51.249785  3347 net.cpp:159] Memory required for data: 1728053248
I0715 08:47:51.249788  3347 layer_factory.hpp:77] Creating layer conv_d3a-b
I0715 08:47:51.249796  3347 net.cpp:94] Creating Layer conv_d3a-b
I0715 08:47:51.249800  3347 net.cpp:435] conv_d3a-b <- d3a
I0715 08:47:51.249805  3347 net.cpp:409] conv_d3a-b -> d3b
I0715 08:47:51.253834  3347 net.cpp:144] Setting up conv_d3a-b
I0715 08:47:51.253846  3347 net.cpp:151] Top shape: 4 256 64 64 (4194304)
I0715 08:47:51.253849  3347 net.cpp:159] Memory required for data: 1744830464
I0715 08:47:51.253856  3347 layer_factory.hpp:77] Creating layer relu_d3b
I0715 08:47:51.253862  3347 net.cpp:94] Creating Layer relu_d3b
I0715 08:47:51.253866  3347 net.cpp:435] relu_d3b <- d3b
I0715 08:47:51.253871  3347 net.cpp:409] relu_d3b -> relu_d3b
I0715 08:47:51.253898  3347 net.cpp:144] Setting up relu_d3b
I0715 08:47:51.253903  3347 net.cpp:151] Top shape: 4 256 64 64 (4194304)
I0715 08:47:51.253906  3347 net.cpp:159] Memory required for data: 1761607680
I0715 08:47:51.253909  3347 layer_factory.hpp:77] Creating layer conv_d3b-c
I0715 08:47:51.253918  3347 net.cpp:94] Creating Layer conv_d3b-c
I0715 08:47:51.253921  3347 net.cpp:435] conv_d3b-c <- relu_d3b
I0715 08:47:51.253926  3347 net.cpp:409] conv_d3b-c -> d3c
I0715 08:47:51.259675  3347 net.cpp:144] Setting up conv_d3b-c
I0715 08:47:51.259688  3347 net.cpp:151] Top shape: 4 256 64 64 (4194304)
I0715 08:47:51.259691  3347 net.cpp:159] Memory required for data: 1778384896
I0715 08:47:51.259697  3347 layer_factory.hpp:77] Creating layer d3c_conv_d3b-c_0_split
I0715 08:47:51.259703  3347 net.cpp:94] Creating Layer d3c_conv_d3b-c_0_split
I0715 08:47:51.259708  3347 net.cpp:435] d3c_conv_d3b-c_0_split <- d3c
I0715 08:47:51.259713  3347 net.cpp:409] d3c_conv_d3b-c_0_split -> d3c_conv_d3b-c_0_split_0
I0715 08:47:51.259721  3347 net.cpp:409] d3c_conv_d3b-c_0_split -> d3c_conv_d3b-c_0_split_1
I0715 08:47:51.259765  3347 net.cpp:144] Setting up d3c_conv_d3b-c_0_split
I0715 08:47:51.259771  3347 net.cpp:151] Top shape: 4 256 64 64 (4194304)
I0715 08:47:51.259775  3347 net.cpp:151] Top shape: 4 256 64 64 (4194304)
I0715 08:47:51.259778  3347 net.cpp:159] Memory required for data: 1811939328
I0715 08:47:51.259781  3347 layer_factory.hpp:77] Creating layer BatchNorm_1
I0715 08:47:51.259789  3347 net.cpp:94] Creating Layer BatchNorm_1
I0715 08:47:51.259793  3347 net.cpp:435] BatchNorm_1 <- d3c_conv_d3b-c_0_split_0
I0715 08:47:51.259811  3347 net.cpp:409] BatchNorm_1 -> BatchNorm_1
I0715 08:47:51.260232  3347 net.cpp:144] Setting up BatchNorm_1
I0715 08:47:51.260241  3347 net.cpp:151] Top shape: 4 256 64 64 (4194304)
I0715 08:47:51.260244  3347 net.cpp:159] Memory required for data: 1828716544
I0715 08:47:51.260257  3347 layer_factory.hpp:77] Creating layer relu_d3c
I0715 08:47:51.260262  3347 net.cpp:94] Creating Layer relu_d3c
I0715 08:47:51.260267  3347 net.cpp:435] relu_d3c <- BatchNorm_1
I0715 08:47:51.260272  3347 net.cpp:409] relu_d3c -> relu_d3c
I0715 08:47:51.260293  3347 net.cpp:144] Setting up relu_d3c
I0715 08:47:51.260298  3347 net.cpp:151] Top shape: 4 256 64 64 (4194304)
I0715 08:47:51.260303  3347 net.cpp:159] Memory required for data: 1845493760
I0715 08:47:51.260305  3347 layer_factory.hpp:77] Creating layer pool_d3c-4a
I0715 08:47:51.260311  3347 net.cpp:94] Creating Layer pool_d3c-4a
I0715 08:47:51.260314  3347 net.cpp:435] pool_d3c-4a <- relu_d3c
I0715 08:47:51.260319  3347 net.cpp:409] pool_d3c-4a -> d4a
I0715 08:47:51.260349  3347 net.cpp:144] Setting up pool_d3c-4a
I0715 08:47:51.260354  3347 net.cpp:151] Top shape: 4 256 32 32 (1048576)
I0715 08:47:51.260357  3347 net.cpp:159] Memory required for data: 1849688064
I0715 08:47:51.260361  3347 layer_factory.hpp:77] Creating layer conv_d4a-b
I0715 08:47:51.260368  3347 net.cpp:94] Creating Layer conv_d4a-b
I0715 08:47:51.260372  3347 net.cpp:435] conv_d4a-b <- d4a
I0715 08:47:51.260377  3347 net.cpp:409] conv_d4a-b -> d4b
I0715 08:47:51.271503  3347 net.cpp:144] Setting up conv_d4a-b
I0715 08:47:51.271520  3347 net.cpp:151] Top shape: 4 512 32 32 (2097152)
I0715 08:47:51.271523  3347 net.cpp:159] Memory required for data: 1858076672
I0715 08:47:51.271530  3347 layer_factory.hpp:77] Creating layer BatchNorm_2
I0715 08:47:51.271539  3347 net.cpp:94] Creating Layer BatchNorm_2
I0715 08:47:51.271543  3347 net.cpp:435] BatchNorm_2 <- d4b
I0715 08:47:51.271549  3347 net.cpp:409] BatchNorm_2 -> BatchNorm_2
I0715 08:47:51.271986  3347 net.cpp:144] Setting up BatchNorm_2
I0715 08:47:51.271996  3347 net.cpp:151] Top shape: 4 512 32 32 (2097152)
I0715 08:47:51.271998  3347 net.cpp:159] Memory required for data: 1866465280
I0715 08:47:51.272007  3347 layer_factory.hpp:77] Creating layer relu_d4b
I0715 08:47:51.272014  3347 net.cpp:94] Creating Layer relu_d4b
I0715 08:47:51.272018  3347 net.cpp:435] relu_d4b <- BatchNorm_2
I0715 08:47:51.272023  3347 net.cpp:409] relu_d4b -> relu_d4b
I0715 08:47:51.272044  3347 net.cpp:144] Setting up relu_d4b
I0715 08:47:51.272048  3347 net.cpp:151] Top shape: 4 512 32 32 (2097152)
I0715 08:47:51.272053  3347 net.cpp:159] Memory required for data: 1874853888
I0715 08:47:51.272055  3347 layer_factory.hpp:77] Creating layer conv_d4b-c
I0715 08:47:51.272063  3347 net.cpp:94] Creating Layer conv_d4b-c
I0715 08:47:51.272066  3347 net.cpp:435] conv_d4b-c <- relu_d4b
I0715 08:47:51.272073  3347 net.cpp:409] conv_d4b-c -> d4c
I0715 08:47:51.294718  3347 net.cpp:144] Setting up conv_d4b-c
I0715 08:47:51.294744  3347 net.cpp:151] Top shape: 4 512 32 32 (2097152)
I0715 08:47:51.294746  3347 net.cpp:159] Memory required for data: 1883242496
I0715 08:47:51.294757  3347 layer_factory.hpp:77] Creating layer relu_d4c
I0715 08:47:51.294765  3347 net.cpp:94] Creating Layer relu_d4c
I0715 08:47:51.294770  3347 net.cpp:435] relu_d4c <- d4c
I0715 08:47:51.294778  3347 net.cpp:409] relu_d4c -> relu_d4c
I0715 08:47:51.294806  3347 net.cpp:144] Setting up relu_d4c
I0715 08:47:51.294811  3347 net.cpp:151] Top shape: 4 512 32 32 (2097152)
I0715 08:47:51.294814  3347 net.cpp:159] Memory required for data: 1891631104
I0715 08:47:51.294817  3347 layer_factory.hpp:77] Creating layer upconv_d4c_u3a
I0715 08:47:51.294827  3347 net.cpp:94] Creating Layer upconv_d4c_u3a
I0715 08:47:51.294831  3347 net.cpp:435] upconv_d4c_u3a <- relu_d4c
I0715 08:47:51.294836  3347 net.cpp:409] upconv_d4c_u3a -> u3a
I0715 08:47:51.300129  3347 net.cpp:144] Setting up upconv_d4c_u3a
I0715 08:47:51.300141  3347 net.cpp:151] Top shape: 4 256 64 64 (4194304)
I0715 08:47:51.300161  3347 net.cpp:159] Memory required for data: 1908408320
I0715 08:47:51.300168  3347 layer_factory.hpp:77] Creating layer relu_u3a
I0715 08:47:51.300174  3347 net.cpp:94] Creating Layer relu_u3a
I0715 08:47:51.300179  3347 net.cpp:435] relu_u3a <- u3a
I0715 08:47:51.300184  3347 net.cpp:396] relu_u3a -> u3a (in-place)
I0715 08:47:51.300191  3347 net.cpp:144] Setting up relu_u3a
I0715 08:47:51.300195  3347 net.cpp:151] Top shape: 4 256 64 64 (4194304)
I0715 08:47:51.300199  3347 net.cpp:159] Memory required for data: 1925185536
I0715 08:47:51.300202  3347 layer_factory.hpp:77] Creating layer concat_d3cc_u3a-b
I0715 08:47:51.300209  3347 net.cpp:94] Creating Layer concat_d3cc_u3a-b
I0715 08:47:51.300211  3347 net.cpp:435] concat_d3cc_u3a-b <- u3a
I0715 08:47:51.300216  3347 net.cpp:435] concat_d3cc_u3a-b <- d3c_conv_d3b-c_0_split_1
I0715 08:47:51.300220  3347 net.cpp:409] concat_d3cc_u3a-b -> u3b
I0715 08:47:51.300246  3347 net.cpp:144] Setting up concat_d3cc_u3a-b
I0715 08:47:51.300251  3347 net.cpp:151] Top shape: 4 512 64 64 (8388608)
I0715 08:47:51.300253  3347 net.cpp:159] Memory required for data: 1958739968
I0715 08:47:51.300257  3347 layer_factory.hpp:77] Creating layer conv_u3b-c
I0715 08:47:51.300266  3347 net.cpp:94] Creating Layer conv_u3b-c
I0715 08:47:51.300269  3347 net.cpp:435] conv_u3b-c <- u3b
I0715 08:47:51.300276  3347 net.cpp:409] conv_u3b-c -> u3c
I0715 08:47:51.311385  3347 net.cpp:144] Setting up conv_u3b-c
I0715 08:47:51.311403  3347 net.cpp:151] Top shape: 4 256 64 64 (4194304)
I0715 08:47:51.311405  3347 net.cpp:159] Memory required for data: 1975517184
I0715 08:47:51.311414  3347 layer_factory.hpp:77] Creating layer relu_u3c
I0715 08:47:51.311419  3347 net.cpp:94] Creating Layer relu_u3c
I0715 08:47:51.311424  3347 net.cpp:435] relu_u3c <- u3c
I0715 08:47:51.311429  3347 net.cpp:396] relu_u3c -> u3c (in-place)
I0715 08:47:51.311436  3347 net.cpp:144] Setting up relu_u3c
I0715 08:47:51.311440  3347 net.cpp:151] Top shape: 4 256 64 64 (4194304)
I0715 08:47:51.311444  3347 net.cpp:159] Memory required for data: 1992294400
I0715 08:47:51.311446  3347 layer_factory.hpp:77] Creating layer conv_u3c-d
I0715 08:47:51.311455  3347 net.cpp:94] Creating Layer conv_u3c-d
I0715 08:47:51.311458  3347 net.cpp:435] conv_u3c-d <- u3c
I0715 08:47:51.311463  3347 net.cpp:409] conv_u3c-d -> u3d
I0715 08:47:51.318011  3347 net.cpp:144] Setting up conv_u3c-d
I0715 08:47:51.318027  3347 net.cpp:151] Top shape: 4 256 64 64 (4194304)
I0715 08:47:51.318030  3347 net.cpp:159] Memory required for data: 2009071616
I0715 08:47:51.318037  3347 layer_factory.hpp:77] Creating layer relu_u3d
I0715 08:47:51.318042  3347 net.cpp:94] Creating Layer relu_u3d
I0715 08:47:51.318048  3347 net.cpp:435] relu_u3d <- u3d
I0715 08:47:51.318053  3347 net.cpp:396] relu_u3d -> u3d (in-place)
I0715 08:47:51.318060  3347 net.cpp:144] Setting up relu_u3d
I0715 08:47:51.318064  3347 net.cpp:151] Top shape: 4 256 64 64 (4194304)
I0715 08:47:51.318068  3347 net.cpp:159] Memory required for data: 2025848832
I0715 08:47:51.318070  3347 layer_factory.hpp:77] Creating layer upconv_u3d_u2a
I0715 08:47:51.318078  3347 net.cpp:94] Creating Layer upconv_u3d_u2a
I0715 08:47:51.318081  3347 net.cpp:435] upconv_u3d_u2a <- u3d
I0715 08:47:51.318087  3347 net.cpp:409] upconv_u3d_u2a -> u2a
I0715 08:47:51.319375  3347 net.cpp:144] Setting up upconv_u3d_u2a
I0715 08:47:51.319382  3347 net.cpp:151] Top shape: 4 128 128 128 (8388608)
I0715 08:47:51.319386  3347 net.cpp:159] Memory required for data: 2059403264
I0715 08:47:51.319392  3347 layer_factory.hpp:77] Creating layer relu_u2a
I0715 08:47:51.319397  3347 net.cpp:94] Creating Layer relu_u2a
I0715 08:47:51.319401  3347 net.cpp:435] relu_u2a <- u2a
I0715 08:47:51.319404  3347 net.cpp:396] relu_u2a -> u2a (in-place)
I0715 08:47:51.319411  3347 net.cpp:144] Setting up relu_u2a
I0715 08:47:51.319416  3347 net.cpp:151] Top shape: 4 128 128 128 (8388608)
I0715 08:47:51.319417  3347 net.cpp:159] Memory required for data: 2092957696
I0715 08:47:51.319420  3347 layer_factory.hpp:77] Creating layer concat_d2cc_u2a-b
I0715 08:47:51.319442  3347 net.cpp:94] Creating Layer concat_d2cc_u2a-b
I0715 08:47:51.319447  3347 net.cpp:435] concat_d2cc_u2a-b <- u2a
I0715 08:47:51.319450  3347 net.cpp:435] concat_d2cc_u2a-b <- d2c_conv_d2b-c_0_split_1
I0715 08:47:51.319455  3347 net.cpp:409] concat_d2cc_u2a-b -> u2b
I0715 08:47:51.319481  3347 net.cpp:144] Setting up concat_d2cc_u2a-b
I0715 08:47:51.319490  3347 net.cpp:151] Top shape: 4 256 128 128 (16777216)
I0715 08:47:51.319494  3347 net.cpp:159] Memory required for data: 2160066560
I0715 08:47:51.319496  3347 layer_factory.hpp:77] Creating layer conv_u2b-c
I0715 08:47:51.319504  3347 net.cpp:94] Creating Layer conv_u2b-c
I0715 08:47:51.319509  3347 net.cpp:435] conv_u2b-c <- u2b
I0715 08:47:51.319512  3347 net.cpp:409] conv_u2b-c -> u2c
I0715 08:47:51.324235  3347 net.cpp:144] Setting up conv_u2b-c
I0715 08:47:51.324251  3347 net.cpp:151] Top shape: 4 128 128 128 (8388608)
I0715 08:47:51.324254  3347 net.cpp:159] Memory required for data: 2193620992
I0715 08:47:51.324262  3347 layer_factory.hpp:77] Creating layer relu_u2c
I0715 08:47:51.324271  3347 net.cpp:94] Creating Layer relu_u2c
I0715 08:47:51.324275  3347 net.cpp:435] relu_u2c <- u2c
I0715 08:47:51.324280  3347 net.cpp:396] relu_u2c -> u2c (in-place)
I0715 08:47:51.324287  3347 net.cpp:144] Setting up relu_u2c
I0715 08:47:51.324291  3347 net.cpp:151] Top shape: 4 128 128 128 (8388608)
I0715 08:47:51.324295  3347 net.cpp:159] Memory required for data: 2227175424
I0715 08:47:51.324297  3347 layer_factory.hpp:77] Creating layer conv_u2c-d
I0715 08:47:51.324306  3347 net.cpp:94] Creating Layer conv_u2c-d
I0715 08:47:51.324308  3347 net.cpp:435] conv_u2c-d <- u2c
I0715 08:47:51.324314  3347 net.cpp:409] conv_u2c-d -> u2d
I0715 08:47:51.325727  3347 net.cpp:144] Setting up conv_u2c-d
I0715 08:47:51.325736  3347 net.cpp:151] Top shape: 4 128 128 128 (8388608)
I0715 08:47:51.325738  3347 net.cpp:159] Memory required for data: 2260729856
I0715 08:47:51.325744  3347 layer_factory.hpp:77] Creating layer relu_u2d
I0715 08:47:51.325749  3347 net.cpp:94] Creating Layer relu_u2d
I0715 08:47:51.325753  3347 net.cpp:435] relu_u2d <- u2d
I0715 08:47:51.325757  3347 net.cpp:396] relu_u2d -> u2d (in-place)
I0715 08:47:51.325763  3347 net.cpp:144] Setting up relu_u2d
I0715 08:47:51.325767  3347 net.cpp:151] Top shape: 4 128 128 128 (8388608)
I0715 08:47:51.325770  3347 net.cpp:159] Memory required for data: 2294284288
I0715 08:47:51.325773  3347 layer_factory.hpp:77] Creating layer upconv_u2d_u1a
I0715 08:47:51.325780  3347 net.cpp:94] Creating Layer upconv_u2d_u1a
I0715 08:47:51.325783  3347 net.cpp:435] upconv_u2d_u1a <- u2d
I0715 08:47:51.325788  3347 net.cpp:409] upconv_u2d_u1a -> u1a
I0715 08:47:51.326303  3347 net.cpp:144] Setting up upconv_u2d_u1a
I0715 08:47:51.326311  3347 net.cpp:151] Top shape: 4 64 256 256 (16777216)
I0715 08:47:51.326314  3347 net.cpp:159] Memory required for data: 2361393152
I0715 08:47:51.326320  3347 layer_factory.hpp:77] Creating layer relu_u1a
I0715 08:47:51.326324  3347 net.cpp:94] Creating Layer relu_u1a
I0715 08:47:51.326328  3347 net.cpp:435] relu_u1a <- u1a
I0715 08:47:51.326333  3347 net.cpp:396] relu_u1a -> u1a (in-place)
I0715 08:47:51.326339  3347 net.cpp:144] Setting up relu_u1a
I0715 08:47:51.326342  3347 net.cpp:151] Top shape: 4 64 256 256 (16777216)
I0715 08:47:51.326346  3347 net.cpp:159] Memory required for data: 2428502016
I0715 08:47:51.326350  3347 layer_factory.hpp:77] Creating layer concat_d1cc_u1a-b
I0715 08:47:51.326354  3347 net.cpp:94] Creating Layer concat_d1cc_u1a-b
I0715 08:47:51.326357  3347 net.cpp:435] concat_d1cc_u1a-b <- u1a
I0715 08:47:51.326362  3347 net.cpp:435] concat_d1cc_u1a-b <- d1c_conv_d1b-c_0_split_1
I0715 08:47:51.326366  3347 net.cpp:409] concat_d1cc_u1a-b -> u1b
I0715 08:47:51.326390  3347 net.cpp:144] Setting up concat_d1cc_u1a-b
I0715 08:47:51.326393  3347 net.cpp:151] Top shape: 4 128 256 256 (33554432)
I0715 08:47:51.326397  3347 net.cpp:159] Memory required for data: 2562719744
I0715 08:47:51.326400  3347 layer_factory.hpp:77] Creating layer conv_u1b-c
I0715 08:47:51.326419  3347 net.cpp:94] Creating Layer conv_u1b-c
I0715 08:47:51.326423  3347 net.cpp:435] conv_u1b-c <- u1b
I0715 08:47:51.326429  3347 net.cpp:409] conv_u1b-c -> u1c
I0715 08:47:51.327277  3347 net.cpp:144] Setting up conv_u1b-c
I0715 08:47:51.327286  3347 net.cpp:151] Top shape: 4 64 256 256 (16777216)
I0715 08:47:51.327288  3347 net.cpp:159] Memory required for data: 2629828608
I0715 08:47:51.327296  3347 layer_factory.hpp:77] Creating layer relu_u1c
I0715 08:47:51.327299  3347 net.cpp:94] Creating Layer relu_u1c
I0715 08:47:51.327303  3347 net.cpp:435] relu_u1c <- u1c
I0715 08:47:51.327307  3347 net.cpp:396] relu_u1c -> u1c (in-place)
I0715 08:47:51.327313  3347 net.cpp:144] Setting up relu_u1c
I0715 08:47:51.327317  3347 net.cpp:151] Top shape: 4 64 256 256 (16777216)
I0715 08:47:51.327320  3347 net.cpp:159] Memory required for data: 2696937472
I0715 08:47:51.327323  3347 layer_factory.hpp:77] Creating layer conv_u1c-d
I0715 08:47:51.327330  3347 net.cpp:94] Creating Layer conv_u1c-d
I0715 08:47:51.327333  3347 net.cpp:435] conv_u1c-d <- u1c
I0715 08:47:51.327338  3347 net.cpp:409] conv_u1c-d -> u1d
I0715 08:47:51.327896  3347 net.cpp:144] Setting up conv_u1c-d
I0715 08:47:51.327905  3347 net.cpp:151] Top shape: 4 64 256 256 (16777216)
I0715 08:47:51.327908  3347 net.cpp:159] Memory required for data: 2764046336
I0715 08:47:51.327913  3347 layer_factory.hpp:77] Creating layer relu_u1d
I0715 08:47:51.327919  3347 net.cpp:94] Creating Layer relu_u1d
I0715 08:47:51.327922  3347 net.cpp:435] relu_u1d <- u1d
I0715 08:47:51.327926  3347 net.cpp:396] relu_u1d -> u1d (in-place)
I0715 08:47:51.327932  3347 net.cpp:144] Setting up relu_u1d
I0715 08:47:51.327936  3347 net.cpp:151] Top shape: 4 64 256 256 (16777216)
I0715 08:47:51.327939  3347 net.cpp:159] Memory required for data: 2831155200
I0715 08:47:51.327942  3347 layer_factory.hpp:77] Creating layer upconv_u1d_u0a_NEW
I0715 08:47:51.327949  3347 net.cpp:94] Creating Layer upconv_u1d_u0a_NEW
I0715 08:47:51.327951  3347 net.cpp:435] upconv_u1d_u0a_NEW <- u1d
I0715 08:47:51.327957  3347 net.cpp:409] upconv_u1d_u0a_NEW -> u0a
I0715 08:47:51.329150  3347 net.cpp:144] Setting up upconv_u1d_u0a_NEW
I0715 08:47:51.329162  3347 net.cpp:151] Top shape: 4 32 512 512 (33554432)
I0715 08:47:51.329166  3347 net.cpp:159] Memory required for data: 2965372928
I0715 08:47:51.329180  3347 layer_factory.hpp:77] Creating layer relu_u0a
I0715 08:47:51.329185  3347 net.cpp:94] Creating Layer relu_u0a
I0715 08:47:51.329188  3347 net.cpp:435] relu_u0a <- u0a
I0715 08:47:51.329193  3347 net.cpp:396] relu_u0a -> u0a (in-place)
I0715 08:47:51.329201  3347 net.cpp:144] Setting up relu_u0a
I0715 08:47:51.329205  3347 net.cpp:151] Top shape: 4 32 512 512 (33554432)
I0715 08:47:51.329208  3347 net.cpp:159] Memory required for data: 3099590656
I0715 08:47:51.329211  3347 layer_factory.hpp:77] Creating layer concat_d0cc_u0a-b
I0715 08:47:51.329216  3347 net.cpp:94] Creating Layer concat_d0cc_u0a-b
I0715 08:47:51.329219  3347 net.cpp:435] concat_d0cc_u0a-b <- u0a
I0715 08:47:51.329223  3347 net.cpp:435] concat_d0cc_u0a-b <- d0c_conv_d0b-c_0_split_1
I0715 08:47:51.329228  3347 net.cpp:409] concat_d0cc_u0a-b -> u0b
I0715 08:47:51.329257  3347 net.cpp:144] Setting up concat_d0cc_u0a-b
I0715 08:47:51.329263  3347 net.cpp:151] Top shape: 4 64 512 512 (67108864)
I0715 08:47:51.329267  3347 net.cpp:159] Memory required for data: 3368026112
I0715 08:47:51.329269  3347 layer_factory.hpp:77] Creating layer conv_u0b-c_New
I0715 08:47:51.329278  3347 net.cpp:94] Creating Layer conv_u0b-c_New
I0715 08:47:51.329282  3347 net.cpp:435] conv_u0b-c_New <- u0b
I0715 08:47:51.329288  3347 net.cpp:409] conv_u0b-c_New -> u0c
I0715 08:47:51.330488  3347 net.cpp:144] Setting up conv_u0b-c_New
I0715 08:47:51.330502  3347 net.cpp:151] Top shape: 4 32 512 512 (33554432)
I0715 08:47:51.330504  3347 net.cpp:159] Memory required for data: 3502243840
I0715 08:47:51.330512  3347 layer_factory.hpp:77] Creating layer relu_u0c
I0715 08:47:51.330516  3347 net.cpp:94] Creating Layer relu_u0c
I0715 08:47:51.330521  3347 net.cpp:435] relu_u0c <- u0c
I0715 08:47:51.330538  3347 net.cpp:396] relu_u0c -> u0c (in-place)
I0715 08:47:51.330545  3347 net.cpp:144] Setting up relu_u0c
I0715 08:47:51.330552  3347 net.cpp:151] Top shape: 4 32 512 512 (33554432)
I0715 08:47:51.330556  3347 net.cpp:159] Memory required for data: 3636461568
I0715 08:47:51.330561  3347 layer_factory.hpp:77] Creating layer conv_u0c-d_New
I0715 08:47:51.330571  3347 net.cpp:94] Creating Layer conv_u0c-d_New
I0715 08:47:51.330576  3347 net.cpp:435] conv_u0c-d_New <- u0c
I0715 08:47:51.330585  3347 net.cpp:409] conv_u0c-d_New -> u0d
I0715 08:47:51.331719  3347 net.cpp:144] Setting up conv_u0c-d_New
I0715 08:47:51.331732  3347 net.cpp:151] Top shape: 4 32 512 512 (33554432)
I0715 08:47:51.331734  3347 net.cpp:159] Memory required for data: 3770679296
I0715 08:47:51.331742  3347 layer_factory.hpp:77] Creating layer relu_u0d
I0715 08:47:51.331748  3347 net.cpp:94] Creating Layer relu_u0d
I0715 08:47:51.331751  3347 net.cpp:435] relu_u0d <- u0d
I0715 08:47:51.331768  3347 net.cpp:396] relu_u0d -> u0d (in-place)
I0715 08:47:51.331776  3347 net.cpp:144] Setting up relu_u0d
I0715 08:47:51.331780  3347 net.cpp:151] Top shape: 4 32 512 512 (33554432)
I0715 08:47:51.331784  3347 net.cpp:159] Memory required for data: 3904897024
I0715 08:47:51.331785  3347 layer_factory.hpp:77] Creating layer conv_u0d-score_New
I0715 08:47:51.331794  3347 net.cpp:94] Creating Layer conv_u0d-score_New
I0715 08:47:51.331797  3347 net.cpp:435] conv_u0d-score_New <- u0d
I0715 08:47:51.331804  3347 net.cpp:409] conv_u0d-score_New -> conv_u0d-score_New
I0715 08:47:51.332165  3347 net.cpp:144] Setting up conv_u0d-score_New
I0715 08:47:51.332173  3347 net.cpp:151] Top shape: 4 19 512 512 (19922944)
I0715 08:47:51.332176  3347 net.cpp:159] Memory required for data: 3984588800
I0715 08:47:51.332182  3347 layer_factory.hpp:77] Creating layer conv_u0d-score_New_conv_u0d-score_New_0_split
I0715 08:47:51.332191  3347 net.cpp:94] Creating Layer conv_u0d-score_New_conv_u0d-score_New_0_split
I0715 08:47:51.332195  3347 net.cpp:435] conv_u0d-score_New_conv_u0d-score_New_0_split <- conv_u0d-score_New
I0715 08:47:51.332201  3347 net.cpp:409] conv_u0d-score_New_conv_u0d-score_New_0_split -> conv_u0d-score_New_conv_u0d-score_New_0_split_0
I0715 08:47:51.332208  3347 net.cpp:409] conv_u0d-score_New_conv_u0d-score_New_0_split -> conv_u0d-score_New_conv_u0d-score_New_0_split_1
I0715 08:47:51.332243  3347 net.cpp:144] Setting up conv_u0d-score_New_conv_u0d-score_New_0_split
I0715 08:47:51.332249  3347 net.cpp:151] Top shape: 4 19 512 512 (19922944)
I0715 08:47:51.332253  3347 net.cpp:151] Top shape: 4 19 512 512 (19922944)
I0715 08:47:51.332257  3347 net.cpp:159] Memory required for data: 4143972352
I0715 08:47:51.332259  3347 layer_factory.hpp:77] Creating layer loss
I0715 08:47:51.332267  3347 net.cpp:94] Creating Layer loss
I0715 08:47:51.332271  3347 net.cpp:435] loss <- conv_u0d-score_New_conv_u0d-score_New_0_split_0
I0715 08:47:51.332275  3347 net.cpp:435] loss <- label_data_1_split_0
I0715 08:47:51.332280  3347 net.cpp:409] loss -> loss
I0715 08:47:51.332295  3347 layer_factory.hpp:77] Creating layer loss
I0715 08:47:51.368185  3347 net.cpp:144] Setting up loss
I0715 08:47:51.368216  3347 net.cpp:151] Top shape: (1)
I0715 08:47:51.368222  3347 net.cpp:154]     with loss weight 1
I0715 08:47:51.368250  3347 net.cpp:159] Memory required for data: 4143972356
I0715 08:47:51.368258  3347 layer_factory.hpp:77] Creating layer acc
I0715 08:47:51.368276  3347 net.cpp:94] Creating Layer acc
I0715 08:47:51.368283  3347 net.cpp:435] acc <- conv_u0d-score_New_conv_u0d-score_New_0_split_1
I0715 08:47:51.368290  3347 net.cpp:435] acc <- label_data_1_split_1
I0715 08:47:51.368296  3347 net.cpp:409] acc -> acc
I0715 08:47:51.368309  3347 net.cpp:409] acc -> per_acc
I0715 08:47:51.368355  3347 net.cpp:144] Setting up acc
I0715 08:47:51.368363  3347 net.cpp:151] Top shape: (1)
I0715 08:47:51.368367  3347 net.cpp:151] Top shape: 19 (19)
I0715 08:47:51.368369  3347 net.cpp:159] Memory required for data: 4143972436
I0715 08:47:51.368373  3347 net.cpp:222] acc does not need backward computation.
I0715 08:47:51.368399  3347 net.cpp:220] loss needs backward computation.
I0715 08:47:51.368403  3347 net.cpp:220] conv_u0d-score_New_conv_u0d-score_New_0_split needs backward computation.
I0715 08:47:51.368407  3347 net.cpp:220] conv_u0d-score_New needs backward computation.
…
