…
I0716 13:14:33.143579 22071 decent_q.cpp:595] GPU device name: GeForce GTX 1080 Ti
I0716 13:14:34.314947 22071 net.cpp:369] The NetState phase (1) differed from the phase (0) specified by a rule in layer data
I0716 13:14:34.315312 22071 net.cpp:98] Initializing net from parameters: 
layer {
  name: "data"
  type: "ImageSegData"
  top: "data"
  top: "label"
  include {
    phase: TEST
  }
  transform_param {
    scale: 0.022
    mean_value: 73
    mean_value: 82
    mean_value: 72
  }
  image_data_param {
    source: "../data/val_img_seg_nomap.txt"
    batch_size: 1
    shuffle: false
  }
}
layer {
  name: "resize_down"
  type: "DeephiResize"
  bottom: "data"
  top: "data"
  include {
    phase: TEST
  }
  deephi_resize_param {
    new_height: 512
    new_width: 1024
  }
}
layer {
  name: "conv_d0a-b"
  type: "Convolution"
  bottom: "data"
  top: "d0b"
  param {
    lr_mult: 1
    decay_mult: 1
  }
  param {
    lr_mult: 2
    decay_mult: 0
  }
  convolution_param {
    num_output: 32
    pad: 1
    kernel_size: 3
    stride: 1
    weight_filler {
      type: "msra"
    }
  }
}
layer {
  name: "relu_d0b"
  type: "ReLU"
  bottom: "d0b"
  top: "relu_d0b"
}
layer {
  name: "conv_d0b-c"
  type: "Convolution"
  bottom: "relu_d0b"
  top: "d0c"
  param {
    lr_mult: 1
    decay_mult: 1
  }
  param {
    lr_mult: 2
    decay_mult: 0
  }
  convolution_param {
    num_output: 32
    pad: 1
    kernel_size: 3
    weight_filler {
      type: "msra"
    }
  }
}
layer {
  name: "BatchNorm_d0c"
  type: "BatchNorm"
  bottom: "d0c"
  top: "BatchNorm_d0c"
  param {
    lr_mult: 1
    decay_mult: 0
  }
  param {
    lr_mult: 1
    decay_mult: 0
  }
  param {
    lr_mult: 0
    decay_mult: 0
  }
  param {
    lr_mult: 0
    decay_mult: 0
  }
  batch_norm_param {
    use_global_stats: false
    eps: 1e-05
    scale_filler {
      type: "constant"
      value: 1
    }
    bias_filler {
      type: "constant"
      value: 0
    }
  }
}
layer {
  name: "relu_d0c"
  type: "ReLU"
  bottom: "BatchNorm_d0c"
  top: "relu_d0c"
}
layer {
  name: "pool_d0c-1a"
  type: "Pooling"
  bottom: "relu_d0c"
  top: "d1a"
  pooling_param {
    pool: MAX
    kernel_size: 2
    stride: 2
  }
}
layer {
  name: "conv_d1a-b"
  type: "Convolution"
  bottom: "d1a"
  top: "d1b"
  param {
    lr_mult: 1
    decay_mult: 1
  }
  param {
    lr_mult: 2
    decay_mult: 0
  }
  convolution_param {
    num_output: 64
    pad: 1
    kernel_size: 3
    weight_filler {
      type: "msra"
    }
  }
}
layer {
  name: "relu_d1b"
  type: "ReLU"
  bottom: "d1b"
  top: "relu_d1b"
}
layer {
  name: "conv_d1b-c"
  type: "Convolution"
  bottom: "relu_d1b"
  top: "d1c"
  param {
    lr_mult: 1
    decay_mult: 1
  }
  param {
    lr_mult: 2
    decay_mult: 0
  }
  convolution_param {
    num_output: 64
    pad: 1
    kernel_size: 3
    weight_filler {
      type: "msra"
    }
  }
}
layer {
  name: "BatchNorm_d1c"
  type: "BatchNorm"
  bottom: "d1c"
  top: "BatchNorm_d1c"
  param {
    lr_mult: 1
    decay_mult: 0
  }
  param {
    lr_mult: 1
    decay_mult: 0
  }
  param {
    lr_mult: 0
    decay_mult: 0
  }
  param {
    lr_mult: 0
    decay_mult: 0
  }
  batch_norm_param {
    use_global_stats: false
    eps: 1e-05
    scale_filler {
      type: "constant"
      value: 1
    }
    bias_filler {
      type: "constant"
      value: 0
    }
  }
}
layer {
  name: "relu_d1c"
  type: "ReLU"
  bottom: "BatchNorm_d1c"
  top: "relu_d1c"
}
layer {
  name: "pool_d1c-2a"
  type: "Pooling"
  bottom: "relu_d1c"
  top: "d2a"
  pooling_param {
    pool: MAX
    kernel_size: 2
    stride: 2
  }
}
layer {
  name: "conv_d2a-b"
  type: "Convolution"
  bottom: "d2a"
  top: "d2b"
  param {
    lr_mult: 1
    decay_mult: 1
  }
  param {
    lr_mult: 2
    decay_mult: 0
  }
  convolution_param {
    num_output: 128
    pad: 1
    kernel_size: 3
    weight_filler {
      type: "msra"
    }
  }
}
layer {
  name: "relu_d2b"
  type: "ReLU"
  bottom: "d2b"
  top: "relu_d2b"
}
layer {
  name: "conv_d2b-c"
  type: "Convolution"
  bottom: "relu_d2b"
  top: "d2c"
  param {
    lr_mult: 1
    decay_mult: 1
  }
  param {
    lr_mult: 2
    decay_mult: 0
  }
  convolution_param {
    num_output: 128
    pad: 1
    kernel_size: 3
    weight_filler {
      type: "msra"
    }
  }
}
layer {
  name: "BatchNorm_d2c"
  type: "BatchNorm"
  bottom: "d2c"
  top: "BatchNorm_d2c"
  param {
    lr_mult: 1
    decay_mult: 0
  }
  param {
    lr_mult: 1
    decay_mult: 0
  }
  param {
    lr_mult: 0
    decay_mult: 0
  }
  param {
    lr_mult: 0
    decay_mult: 0
  }
  batch_norm_param {
    use_global_stats: false
    eps: 1e-05
    scale_filler {
      type: "constant"
      value: 1
    }
    bias_filler {
      type: "constant"
      value: 0
    }
  }
}
layer {
  name: "relu_d2c"
  type: "ReLU"
  bottom: "BatchNorm_d2c"
  top: "relu_d2c"
}
layer {
  name: "pool_d2c-3a"
  type: "Pooling"
  bottom: "relu_d2c"
  top: "d3a"
  pooling_param {
    pool: MAX
    kernel_size: 2
    stride: 2
  }
}
layer {
  name: "conv_d3a-b"
  type: "Convolution"
  bottom: "d3a"
  top: "d3b"
  param {
    lr_mult: 1
    decay_mult: 1
  }
  param {
    lr_mult: 2
    decay_mult: 0
  }
  convolution_param {
    num_output: 256
    pad: 1
    kernel_size: 3
    weight_filler {
      type: "msra"
    }
  }
}
layer {
  name: "relu_d3b"
  type: "ReLU"
  bottom: "d3b"
  top: "relu_d3b"
}
layer {
  name: "conv_d3b-c"
  type: "Convolution"
  bottom: "relu_d3b"
  top: "d3c"
  param {
    lr_mult: 1
    decay_mult: 1
  }
  param {
    lr_mult: 2
    decay_mult: 0
  }
  convolution_param {
    num_output: 256
    pad: 1
    kernel_size: 3
    weight_filler {
      type: "msra"
    }
  }
}
layer {
  name: "BatchNorm_1"
  type: "BatchNorm"
  bottom: "d3c"
  top: "BatchNorm_1"
  param {
    lr_mult: 1
    decay_mult: 0
  }
  param {
    lr_mult: 1
    decay_mult: 0
  }
  param {
    lr_mult: 0
    decay_mult: 0
  }
  param {
    lr_mult: 0
    decay_mult: 0
  }
  batch_norm_param {
    use_global_stats: false
    eps: 1e-05
    scale_filler {
      type: "constant"
      value: 1
    }
    bias_filler {
      type: "constant"
      value: 0
    }
  }
}
layer {
  name: "relu_d3c"
  type: "ReLU"
  bottom: "BatchNorm_1"
  top: "relu_d3c"
}
layer {
  name: "pool_d3c-4a"
  type: "Pooling"
  bottom: "relu_d3c"
  top: "d4a"
  pooling_param {
    pool: MAX
    kernel_size: 2
    stride: 2
  }
}
layer {
  name: "conv_d4a-b"
  type: "Convolution"
  bottom: "d4a"
  top: "d4b"
  param {
    lr_mult: 1
    decay_mult: 1
  }
  param {
    lr_mult: 2
    decay_mult: 0
  }
  convolution_param {
    num_output: 512
    pad: 1
    kernel_size: 3
    weight_filler {
      type: "msra"
    }
  }
}
layer {
  name: "BatchNorm_2"
  type: "BatchNorm"
  bottom: "d4b"
  top: "BatchNorm_2"
  param {
    lr_mult: 1
    decay_mult: 0
  }
  param {
    lr_mult: 1
    decay_mult: 0
  }
  param {
    lr_mult: 0
    decay_mult: 0
  }
  param {
    lr_mult: 0
    decay_mult: 0
  }
  batch_norm_param {
    use_global_stats: false
    eps: 1e-05
    scale_filler {
      type: "constant"
      value: 1
    }
    bias_filler {
      type: "constant"
      value: 0
    }
  }
}
layer {
  name: "relu_d4b"
  type: "ReLU"
  bottom: "BatchNorm_2"
  top: "relu_d4b"
}
layer {
  name: "conv_d4b-c"
  type: "Convolution"
  bottom: "relu_d4b"
  top: "d4c"
  param {
    lr_mult: 1
    decay_mult: 1
  }
  param {
    lr_mult: 2
    decay_mult: 0
  }
  convolution_param {
    num_output: 512
    pad: 1
    kernel_size: 3
    weight_filler {
      type: "msra"
    }
  }
}
layer {
  name: "relu_d4c"
  type: "ReLU"
  bottom: "d4c"
  top: "relu_d4c"
}
layer {
  name: "upconv_d4c_u3a"
  type: "Deconvolution"
  bottom: "relu_d4c"
  top: "u3a"
  param {
    lr_mult: 1
    decay_mult: 1
  }
  param {
    lr_mult: 2
    decay_mult: 0
  }
  convolution_param {
    num_output: 256
    pad: 0
    kernel_size: 2
    stride: 2
    weight_filler {
      type: "msra"
    }
  }
}
layer {
  name: "relu_u3a"
  type: "ReLU"
  bottom: "u3a"
  top: "u3a"
}
layer {
  name: "concat_d3cc_u3a-b"
  type: "Concat"
  bottom: "u3a"
  bottom: "d3c"
  top: "u3b"
}
layer {
  name: "conv_u3b-c"
  type: "Convolution"
  bottom: "u3b"
  top: "u3c"
  param {
    lr_mult: 1
    decay_mult: 1
  }
  param {
    lr_mult: 2
    decay_mult: 0
  }
  convolution_param {
    num_output: 256
    pad: 1
    kernel_size: 3
    weight_filler {
      type: "msra"
    }
  }
}
layer {
  name: "relu_u3c"
  type: "ReLU"
  bottom: "u3c"
  top: "u3c"
}
layer {
  name: "conv_u3c-d"
  type: "Convolution"
  bottom: "u3c"
  top: "u3d"
  param {
    lr_mult: 1
    decay_mult: 1
  }
  param {
    lr_mult: 2
    decay_mult: 0
  }
  convolution_param {
    num_output: 256
    pad: 1
    kernel_size: 3
    weight_filler {
      type: "msra"
    }
  }
}
layer {
  name: "relu_u3d"
  type: "ReLU"
  bottom: "u3d"
  top: "u3d"
}
layer {
  name: "upconv_u3d_u2a"
  type: "Deconvolution"
  bottom: "u3d"
  top: "u2a"
  param {
    lr_mult: 1
    decay_mult: 1
  }
  param {
    lr_mult: 2
    decay_mult: 0
  }
  convolution_param {
    num_output: 128
    pad: 0
    kernel_size: 2
    stride: 2
    weight_filler {
      type: "msra"
    }
  }
}
layer {
  name: "relu_u2a"
  type: "ReLU"
  bottom: "u2a"
  top: "u2a"
}
layer {
  name: "concat_d2cc_u2a-b"
  type: "Concat"
  bottom: "u2a"
  bottom: "d2c"
  top: "u2b"
}
layer {
  name: "conv_u2b-c"
  type: "Convolution"
  bottom: "u2b"
  top: "u2c"
  param {
    lr_mult: 1
    decay_mult: 1
  }
  param {
    lr_mult: 2
    decay_mult: 0
  }
  convolution_param {
    num_output: 128
    pad: 1
    kernel_size: 3
    weight_filler {
      type: "msra"
    }
  }
}
layer {
  name: "relu_u2c"
  type: "ReLU"
  bottom: "u2c"
  top: "u2c"
}
layer {
  name: "conv_u2c-d"
  type: "Convolution"
  bottom: "u2c"
  top: "u2d"
  param {
    lr_mult: 1
    decay_mult: 1
  }
  param {
    lr_mult: 2
    decay_mult: 0
  }
  convolution_param {
    num_output: 128
    pad: 1
    kernel_size: 3
    weight_filler {
      type: "msra"
    }
  }
}
layer {
  name: "relu_u2d"
  type: "ReLU"
  bottom: "u2d"
  top: "u2d"
}
layer {
  name: "upconv_u2d_u1a"
  type: "Deconvolution"
  bottom: "u2d"
  top: "u1a"
  param {
    lr_mult: 1
    decay_mult: 1
  }
  param {
    lr_mult: 2
    decay_mult: 0
  }
  convolution_param {
    num_output: 64
    pad: 0
    kernel_size: 2
    stride: 2
    weight_filler {
      type: "msra"
    }
  }
}
layer {
  name: "relu_u1a"
  type: "ReLU"
  bottom: "u1a"
  top: "u1a"
}
layer {
  name: "concat_d1cc_u1a-b"
  type: "Concat"
  bottom: "u1a"
  bottom: "d1c"
  top: "u1b"
}
layer {
  name: "conv_u1b-c"
  type: "Convolution"
  bottom: "u1b"
  top: "u1c"
  param {
    lr_mult: 1
    decay_mult: 1
  }
  param {
    lr_mult: 2
    decay_mult: 0
  }
  convolution_param {
    num_output: 64
    pad: 1
    kernel_size: 3
    weight_filler {
      type: "msra"
    }
  }
}
layer {
  name: "relu_u1c"
  type: "ReLU"
  bottom: "u1c"
  top: "u1c"
}
layer {
  name: "conv_u1c-d"
  type: "Convolution"
  bottom: "u1c"
  top: "u1d"
  param {
    lr_mult: 1
    decay_mult: 1
  }
  param {
    lr_mult: 2
    decay_mult: 0
  }
  convolution_param {
    num_output: 64
    pad: 1
    kernel_size: 3
    weight_filler {
      type: "msra"
    }
  }
}
layer {
  name: "relu_u1d"
  type: "ReLU"
  bottom: "u1d"
  top: "u1d"
}
layer {
  name: "upconv_u1d_u0a_NEW"
  type: "Deconvolution"
  bottom: "u1d"
  top: "u0a"
  param {
    lr_mult: 1
    decay_mult: 1
  }
  param {
    lr_mult: 2
    decay_mult: 0
  }
  convolution_param {
    num_output: 32
    pad: 0
    kernel_size: 2
    stride: 2
    weight_filler {
      type: "msra"
    }
  }
}
layer {
  name: "relu_u0a"
  type: "ReLU"
  bottom: "u0a"
  top: "u0a"
}
layer {
  name: "concat_d0cc_u0a-b"
  type: "Concat"
  bottom: "u0a"
  bottom: "d0c"
  top: "u0b"
}
layer {
  name: "conv_u0b-c_New"
  type: "Convolution"
  bottom: "u0b"
  top: "u0c"
  param {
    lr_mult: 1
    decay_mult: 1
  }
  param {
    lr_mult: 2
    decay_mult: 0
  }
  convolution_param {
    num_output: 32
    pad: 1
    kernel_size: 3
    weight_filler {
      type: "msra"
    }
  }
}
layer {
  name: "relu_u0c"
  type: "ReLU"
  bottom: "u0c"
  top: "u0c"
}
layer {
  name: "conv_u0c-d_New"
  type: "Convolution"
  bottom: "u0c"
  top: "u0d"
  param {
    lr_mult: 1
    decay_mult: 1
  }
  param {
    lr_mult: 2
    decay_mult: 0
  }
  convolution_param {
    num_output: 32
    pad: 1
    kernel_size: 3
    weight_filler {
      type: "msra"
    }
  }
}
layer {
  name: "relu_u0d"
  type: "ReLU"
  bottom: "u0d"
  top: "u0d"
}
layer {
  name: "conv_u0d-score_New"
  type: "Convolution"
  bottom: "u0d"
  top: "conv_u0d-score_New"
  param {
    lr_mult: 1
    decay_mult: 1
  }
  param {
    lr_mult: 2
    decay_mult: 0
  }
  convolution_param {
    num_output: 19
    pad: 0
    kernel_size: 1
    weight_filler {
      type: "msra"
    }
  }
}
layer {
  name: "score"
  type: "Softmax"
  bottom: "conv_u0d-score_New"
  top: "score"
}
layer {
  name: "accuracy"
  type: "SegmentPixelIOU"
  bottom: "score"
  bottom: "label"
  top: "segmentation_eval"
  include {
    phase: TEST
  }
}
I0716 13:14:34.315541 22071 layer_factory.hpp:123] Creating layer data
I0716 13:14:34.315572 22071 net.cpp:140] Creating Layer data
I0716 13:14:34.315585 22071 net.cpp:455] data -> data
I0716 13:14:34.315598 22071 net.cpp:455] data -> label
I0716 13:14:34.315621 22071 image_seg_data_layer.cpp:46] Opening file ../data/val_img_seg_nomap.txt
I0716 13:14:34.316447 22071 image_seg_data_layer.cpp:68] A total of 500 images.
I0716 13:14:34.383456 22071 image_seg_data_layer.cpp:97] output data size: 1,3,1024,2048
I0716 13:14:34.521548 22071 internal_thread.cpp:73] Starting internal thread(s) on GPU 1
I0716 13:14:34.521721 22071 net.cpp:190] Setting up data
I0716 13:14:34.521734 22071 net.cpp:197] Top shape: 1 3 1024 2048 (6291456)
I0716 13:14:34.521741 22071 net.cpp:197] Top shape: 1 1 1024 2048 (2097152)
I0716 13:14:34.521745 22071 net.cpp:205] Memory required for data: 33554432
I0716 13:14:34.521752 22071 layer_factory.hpp:123] Creating layer resize_down
I0716 13:14:34.521767 22071 net.cpp:140] Creating Layer resize_down
I0716 13:14:34.521775 22071 net.cpp:481] resize_down <- data
I0716 13:14:34.521790 22071 net.cpp:442] resize_down -> data (in-place)
I0716 13:14:34.521803 22071 net.cpp:190] Setting up resize_down
I0716 13:14:34.521811 22071 net.cpp:197] Top shape: 1 3 512 1024 (1572864)
I0716 13:14:34.521813 22071 net.cpp:205] Memory required for data: 39845888
I0716 13:14:34.521818 22071 layer_factory.hpp:123] Creating layer conv_d0a-b
I0716 13:14:34.521831 22071 net.cpp:140] Creating Layer conv_d0a-b
I0716 13:14:34.521836 22071 net.cpp:481] conv_d0a-b <- data
I0716 13:14:34.521843 22071 net.cpp:455] conv_d0a-b -> d0b
I0716 13:14:34.524052 22071 net.cpp:190] Setting up conv_d0a-b
I0716 13:14:34.524065 22071 net.cpp:197] Top shape: 1 32 512 1024 (16777216)
I0716 13:14:34.524067 22071 net.cpp:205] Memory required for data: 106954752
I0716 13:14:34.524085 22071 layer_factory.hpp:123] Creating layer relu_d0b
I0716 13:14:34.524091 22071 net.cpp:140] Creating Layer relu_d0b
I0716 13:14:34.524094 22071 net.cpp:481] relu_d0b <- d0b
I0716 13:14:34.524099 22071 net.cpp:455] relu_d0b -> relu_d0b
I0716 13:14:34.524135 22071 net.cpp:190] Setting up relu_d0b
I0716 13:14:34.524142 22071 net.cpp:197] Top shape: 1 32 512 1024 (16777216)
I0716 13:14:34.524145 22071 net.cpp:205] Memory required for data: 174063616
I0716 13:14:34.524149 22071 layer_factory.hpp:123] Creating layer conv_d0b-c
I0716 13:14:34.524160 22071 net.cpp:140] Creating Layer conv_d0b-c
I0716 13:14:34.524169 22071 net.cpp:481] conv_d0b-c <- relu_d0b
I0716 13:14:34.524175 22071 net.cpp:455] conv_d0b-c -> d0c
I0716 13:14:34.526644 22071 net.cpp:190] Setting up conv_d0b-c
I0716 13:14:34.526656 22071 net.cpp:197] Top shape: 1 32 512 1024 (16777216)
I0716 13:14:34.526659 22071 net.cpp:205] Memory required for data: 241172480
I0716 13:14:34.526667 22071 layer_factory.hpp:123] Creating layer d0c_conv_d0b-c_0_split
I0716 13:14:34.526674 22071 net.cpp:140] Creating Layer d0c_conv_d0b-c_0_split
I0716 13:14:34.526676 22071 net.cpp:481] d0c_conv_d0b-c_0_split <- d0c
I0716 13:14:34.526682 22071 net.cpp:455] d0c_conv_d0b-c_0_split -> d0c_conv_d0b-c_0_split_0
I0716 13:14:34.526688 22071 net.cpp:455] d0c_conv_d0b-c_0_split -> d0c_conv_d0b-c_0_split_1
I0716 13:14:34.526736 22071 net.cpp:190] Setting up d0c_conv_d0b-c_0_split
I0716 13:14:34.526744 22071 net.cpp:197] Top shape: 1 32 512 1024 (16777216)
I0716 13:14:34.526748 22071 net.cpp:197] Top shape: 1 32 512 1024 (16777216)
I0716 13:14:34.526751 22071 net.cpp:205] Memory required for data: 375390208
I0716 13:14:34.526754 22071 layer_factory.hpp:123] Creating layer BatchNorm_d0c
I0716 13:14:34.526765 22071 net.cpp:140] Creating Layer BatchNorm_d0c
I0716 13:14:34.526768 22071 net.cpp:481] BatchNorm_d0c <- d0c_conv_d0b-c_0_split_0
I0716 13:14:34.526774 22071 net.cpp:455] BatchNorm_d0c -> BatchNorm_d0c
I0716 13:14:34.528362 22071 net.cpp:190] Setting up BatchNorm_d0c
I0716 13:14:34.528374 22071 net.cpp:197] Top shape: 1 32 512 1024 (16777216)
I0716 13:14:34.528378 22071 net.cpp:205] Memory required for data: 442499072
I0716 13:14:34.528390 22071 layer_factory.hpp:123] Creating layer relu_d0c
I0716 13:14:34.528398 22071 net.cpp:140] Creating Layer relu_d0c
I0716 13:14:34.528400 22071 net.cpp:481] relu_d0c <- BatchNorm_d0c
I0716 13:14:34.528405 22071 net.cpp:455] relu_d0c -> relu_d0c
I0716 13:14:34.528429 22071 net.cpp:190] Setting up relu_d0c
I0716 13:14:34.528434 22071 net.cpp:197] Top shape: 1 32 512 1024 (16777216)
I0716 13:14:34.528437 22071 net.cpp:205] Memory required for data: 509607936
I0716 13:14:34.528440 22071 layer_factory.hpp:123] Creating layer pool_d0c-1a
I0716 13:14:34.528447 22071 net.cpp:140] Creating Layer pool_d0c-1a
I0716 13:14:34.528450 22071 net.cpp:481] pool_d0c-1a <- relu_d0c
I0716 13:14:34.528455 22071 net.cpp:455] pool_d0c-1a -> d1a
I0716 13:14:34.528489 22071 net.cpp:190] Setting up pool_d0c-1a
I0716 13:14:34.528496 22071 net.cpp:197] Top shape: 1 32 256 512 (4194304)
I0716 13:14:34.528499 22071 net.cpp:205] Memory required for data: 526385152
I0716 13:14:34.528502 22071 layer_factory.hpp:123] Creating layer conv_d1a-b
I0716 13:14:34.528511 22071 net.cpp:140] Creating Layer conv_d1a-b
I0716 13:14:34.528513 22071 net.cpp:481] conv_d1a-b <- d1a
I0716 13:14:34.528518 22071 net.cpp:455] conv_d1a-b -> d1b
I0716 13:14:34.530356 22071 net.cpp:190] Setting up conv_d1a-b
I0716 13:14:34.530369 22071 net.cpp:197] Top shape: 1 64 256 512 (8388608)
I0716 13:14:34.530371 22071 net.cpp:205] Memory required for data: 559939584
I0716 13:14:34.530377 22071 layer_factory.hpp:123] Creating layer relu_d1b
I0716 13:14:34.530383 22071 net.cpp:140] Creating Layer relu_d1b
I0716 13:14:34.530387 22071 net.cpp:481] relu_d1b <- d1b
I0716 13:14:34.530391 22071 net.cpp:455] relu_d1b -> relu_d1b
I0716 13:14:34.530421 22071 net.cpp:190] Setting up relu_d1b
I0716 13:14:34.530426 22071 net.cpp:197] Top shape: 1 64 256 512 (8388608)
I0716 13:14:34.530431 22071 net.cpp:205] Memory required for data: 593494016
I0716 13:14:34.530432 22071 layer_factory.hpp:123] Creating layer conv_d1b-c
I0716 13:14:34.530441 22071 net.cpp:140] Creating Layer conv_d1b-c
I0716 13:14:34.530443 22071 net.cpp:481] conv_d1b-c <- relu_d1b
I0716 13:14:34.530448 22071 net.cpp:455] conv_d1b-c -> d1c
I0716 13:14:34.531050 22071 net.cpp:190] Setting up conv_d1b-c
I0716 13:14:34.531059 22071 net.cpp:197] Top shape: 1 64 256 512 (8388608)
I0716 13:14:34.531062 22071 net.cpp:205] Memory required for data: 627048448
I0716 13:14:34.531067 22071 layer_factory.hpp:123] Creating layer d1c_conv_d1b-c_0_split
I0716 13:14:34.531074 22071 net.cpp:140] Creating Layer d1c_conv_d1b-c_0_split
I0716 13:14:34.531076 22071 net.cpp:481] d1c_conv_d1b-c_0_split <- d1c
I0716 13:14:34.531081 22071 net.cpp:455] d1c_conv_d1b-c_0_split -> d1c_conv_d1b-c_0_split_0
I0716 13:14:34.531087 22071 net.cpp:455] d1c_conv_d1b-c_0_split -> d1c_conv_d1b-c_0_split_1
I0716 13:14:34.531124 22071 net.cpp:190] Setting up d1c_conv_d1b-c_0_split
I0716 13:14:34.531132 22071 net.cpp:197] Top shape: 1 64 256 512 (8388608)
I0716 13:14:34.531136 22071 net.cpp:197] Top shape: 1 64 256 512 (8388608)
I0716 13:14:34.531139 22071 net.cpp:205] Memory required for data: 694157312
I0716 13:14:34.531142 22071 layer_factory.hpp:123] Creating layer BatchNorm_d1c
I0716 13:14:34.531149 22071 net.cpp:140] Creating Layer BatchNorm_d1c
I0716 13:14:34.531152 22071 net.cpp:481] BatchNorm_d1c <- d1c_conv_d1b-c_0_split_0
I0716 13:14:34.531157 22071 net.cpp:455] BatchNorm_d1c -> BatchNorm_d1c
I0716 13:14:34.531836 22071 net.cpp:190] Setting up BatchNorm_d1c
I0716 13:14:34.531846 22071 net.cpp:197] Top shape: 1 64 256 512 (8388608)
I0716 13:14:34.531848 22071 net.cpp:205] Memory required for data: 727711744
I0716 13:14:34.531859 22071 layer_factory.hpp:123] Creating layer relu_d1c
I0716 13:14:34.531865 22071 net.cpp:140] Creating Layer relu_d1c
I0716 13:14:34.531868 22071 net.cpp:481] relu_d1c <- BatchNorm_d1c
I0716 13:14:34.531873 22071 net.cpp:455] relu_d1c -> relu_d1c
I0716 13:14:34.531896 22071 net.cpp:190] Setting up relu_d1c
I0716 13:14:34.531903 22071 net.cpp:197] Top shape: 1 64 256 512 (8388608)
I0716 13:14:34.531906 22071 net.cpp:205] Memory required for data: 761266176
I0716 13:14:34.531909 22071 layer_factory.hpp:123] Creating layer pool_d1c-2a
I0716 13:14:34.531915 22071 net.cpp:140] Creating Layer pool_d1c-2a
I0716 13:14:34.531919 22071 net.cpp:481] pool_d1c-2a <- relu_d1c
I0716 13:14:34.531924 22071 net.cpp:455] pool_d1c-2a -> d2a
I0716 13:14:34.531953 22071 net.cpp:190] Setting up pool_d1c-2a
I0716 13:14:34.531960 22071 net.cpp:197] Top shape: 1 64 128 256 (2097152)
I0716 13:14:34.531963 22071 net.cpp:205] Memory required for data: 769654784
I0716 13:14:34.531966 22071 layer_factory.hpp:123] Creating layer conv_d2a-b
I0716 13:14:34.531973 22071 net.cpp:140] Creating Layer conv_d2a-b
I0716 13:14:34.531977 22071 net.cpp:481] conv_d2a-b <- d2a
I0716 13:14:34.531982 22071 net.cpp:455] conv_d2a-b -> d2b
I0716 13:14:34.533555 22071 net.cpp:190] Setting up conv_d2a-b
I0716 13:14:34.533567 22071 net.cpp:197] Top shape: 1 128 128 256 (4194304)
I0716 13:14:34.533571 22071 net.cpp:205] Memory required for data: 786432000
I0716 13:14:34.533577 22071 layer_factory.hpp:123] Creating layer relu_d2b
I0716 13:14:34.533582 22071 net.cpp:140] Creating Layer relu_d2b
I0716 13:14:34.533586 22071 net.cpp:481] relu_d2b <- d2b
I0716 13:14:34.533591 22071 net.cpp:455] relu_d2b -> relu_d2b
I0716 13:14:34.533615 22071 net.cpp:190] Setting up relu_d2b
I0716 13:14:34.533622 22071 net.cpp:197] Top shape: 1 128 128 256 (4194304)
I0716 13:14:34.533627 22071 net.cpp:205] Memory required for data: 803209216
I0716 13:14:34.533629 22071 layer_factory.hpp:123] Creating layer conv_d2b-c
I0716 13:14:34.533638 22071 net.cpp:140] Creating Layer conv_d2b-c
I0716 13:14:34.533643 22071 net.cpp:481] conv_d2b-c <- relu_d2b
I0716 13:14:34.533650 22071 net.cpp:455] conv_d2b-c -> d2c
I0716 13:14:34.535154 22071 net.cpp:190] Setting up conv_d2b-c
I0716 13:14:34.535163 22071 net.cpp:197] Top shape: 1 128 128 256 (4194304)
I0716 13:14:34.535166 22071 net.cpp:205] Memory required for data: 819986432
I0716 13:14:34.535171 22071 layer_factory.hpp:123] Creating layer d2c_conv_d2b-c_0_split
I0716 13:14:34.535177 22071 net.cpp:140] Creating Layer d2c_conv_d2b-c_0_split
I0716 13:14:34.535181 22071 net.cpp:481] d2c_conv_d2b-c_0_split <- d2c
I0716 13:14:34.535187 22071 net.cpp:455] d2c_conv_d2b-c_0_split -> d2c_conv_d2b-c_0_split_0
I0716 13:14:34.535192 22071 net.cpp:455] d2c_conv_d2b-c_0_split -> d2c_conv_d2b-c_0_split_1
I0716 13:14:34.535230 22071 net.cpp:190] Setting up d2c_conv_d2b-c_0_split
I0716 13:14:34.535238 22071 net.cpp:197] Top shape: 1 128 128 256 (4194304)
I0716 13:14:34.535241 22071 net.cpp:197] Top shape: 1 128 128 256 (4194304)
I0716 13:14:34.535244 22071 net.cpp:205] Memory required for data: 853540864
I0716 13:14:34.535248 22071 layer_factory.hpp:123] Creating layer BatchNorm_d2c
I0716 13:14:34.535254 22071 net.cpp:140] Creating Layer BatchNorm_d2c
I0716 13:14:34.535257 22071 net.cpp:481] BatchNorm_d2c <- d2c_conv_d2b-c_0_split_0
I0716 13:14:34.535264 22071 net.cpp:455] BatchNorm_d2c -> BatchNorm_d2c
I0716 13:14:34.535832 22071 net.cpp:190] Setting up BatchNorm_d2c
I0716 13:14:34.535841 22071 net.cpp:197] Top shape: 1 128 128 256 (4194304)
I0716 13:14:34.535845 22071 net.cpp:205] Memory required for data: 870318080
I0716 13:14:34.535853 22071 layer_factory.hpp:123] Creating layer relu_d2c
I0716 13:14:34.535859 22071 net.cpp:140] Creating Layer relu_d2c
I0716 13:14:34.535862 22071 net.cpp:481] relu_d2c <- BatchNorm_d2c
I0716 13:14:34.535866 22071 net.cpp:455] relu_d2c -> relu_d2c
I0716 13:14:34.535887 22071 net.cpp:190] Setting up relu_d2c
I0716 13:14:34.535893 22071 net.cpp:197] Top shape: 1 128 128 256 (4194304)
I0716 13:14:34.535898 22071 net.cpp:205] Memory required for data: 887095296
I0716 13:14:34.535900 22071 layer_factory.hpp:123] Creating layer pool_d2c-3a
I0716 13:14:34.535907 22071 net.cpp:140] Creating Layer pool_d2c-3a
I0716 13:14:34.535909 22071 net.cpp:481] pool_d2c-3a <- relu_d2c
I0716 13:14:34.535914 22071 net.cpp:455] pool_d2c-3a -> d3a
I0716 13:14:34.535948 22071 net.cpp:190] Setting up pool_d2c-3a
I0716 13:14:34.535955 22071 net.cpp:197] Top shape: 1 128 64 128 (1048576)
I0716 13:14:34.535959 22071 net.cpp:205] Memory required for data: 891289600
I0716 13:14:34.535961 22071 layer_factory.hpp:123] Creating layer conv_d3a-b
I0716 13:14:34.535970 22071 net.cpp:140] Creating Layer conv_d3a-b
I0716 13:14:34.535975 22071 net.cpp:481] conv_d3a-b <- d3a
I0716 13:14:34.535981 22071 net.cpp:455] conv_d3a-b -> d3b
I0716 13:14:34.540161 22071 net.cpp:190] Setting up conv_d3a-b
I0716 13:14:34.540174 22071 net.cpp:197] Top shape: 1 256 64 128 (2097152)
I0716 13:14:34.540176 22071 net.cpp:205] Memory required for data: 899678208
I0716 13:14:34.540184 22071 layer_factory.hpp:123] Creating layer relu_d3b
I0716 13:14:34.540189 22071 net.cpp:140] Creating Layer relu_d3b
I0716 13:14:34.540192 22071 net.cpp:481] relu_d3b <- d3b
I0716 13:14:34.540197 22071 net.cpp:455] relu_d3b -> relu_d3b
I0716 13:14:34.540221 22071 net.cpp:190] Setting up relu_d3b
I0716 13:14:34.540228 22071 net.cpp:197] Top shape: 1 256 64 128 (2097152)
I0716 13:14:34.540232 22071 net.cpp:205] Memory required for data: 908066816
I0716 13:14:34.540235 22071 layer_factory.hpp:123] Creating layer conv_d3b-c
I0716 13:14:34.540246 22071 net.cpp:140] Creating Layer conv_d3b-c
I0716 13:14:34.540251 22071 net.cpp:481] conv_d3b-c <- relu_d3b
I0716 13:14:34.540257 22071 net.cpp:455] conv_d3b-c -> d3c
I0716 13:14:34.547101 22071 net.cpp:190] Setting up conv_d3b-c
I0716 13:14:34.547116 22071 net.cpp:197] Top shape: 1 256 64 128 (2097152)
I0716 13:14:34.547118 22071 net.cpp:205] Memory required for data: 916455424
I0716 13:14:34.547124 22071 layer_factory.hpp:123] Creating layer d3c_conv_d3b-c_0_split
I0716 13:14:34.547130 22071 net.cpp:140] Creating Layer d3c_conv_d3b-c_0_split
I0716 13:14:34.547134 22071 net.cpp:481] d3c_conv_d3b-c_0_split <- d3c
I0716 13:14:34.547139 22071 net.cpp:455] d3c_conv_d3b-c_0_split -> d3c_conv_d3b-c_0_split_0
I0716 13:14:34.547147 22071 net.cpp:455] d3c_conv_d3b-c_0_split -> d3c_conv_d3b-c_0_split_1
I0716 13:14:34.547181 22071 net.cpp:190] Setting up d3c_conv_d3b-c_0_split
I0716 13:14:34.547188 22071 net.cpp:197] Top shape: 1 256 64 128 (2097152)
I0716 13:14:34.547191 22071 net.cpp:197] Top shape: 1 256 64 128 (2097152)
I0716 13:14:34.547194 22071 net.cpp:205] Memory required for data: 933232640
I0716 13:14:34.547197 22071 layer_factory.hpp:123] Creating layer BatchNorm_1
I0716 13:14:34.547204 22071 net.cpp:140] Creating Layer BatchNorm_1
I0716 13:14:34.547207 22071 net.cpp:481] BatchNorm_1 <- d3c_conv_d3b-c_0_split_0
I0716 13:14:34.547214 22071 net.cpp:455] BatchNorm_1 -> BatchNorm_1
I0716 13:14:34.547773 22071 net.cpp:190] Setting up BatchNorm_1
I0716 13:14:34.547782 22071 net.cpp:197] Top shape: 1 256 64 128 (2097152)
I0716 13:14:34.547785 22071 net.cpp:205] Memory required for data: 941621248
I0716 13:14:34.547798 22071 layer_factory.hpp:123] Creating layer relu_d3c
I0716 13:14:34.547807 22071 net.cpp:140] Creating Layer relu_d3c
I0716 13:14:34.547811 22071 net.cpp:481] relu_d3c <- BatchNorm_1
I0716 13:14:34.547816 22071 net.cpp:455] relu_d3c -> relu_d3c
I0716 13:14:34.547839 22071 net.cpp:190] Setting up relu_d3c
I0716 13:14:34.547845 22071 net.cpp:197] Top shape: 1 256 64 128 (2097152)
I0716 13:14:34.547848 22071 net.cpp:205] Memory required for data: 950009856
I0716 13:14:34.547852 22071 layer_factory.hpp:123] Creating layer pool_d3c-4a
I0716 13:14:34.547857 22071 net.cpp:140] Creating Layer pool_d3c-4a
I0716 13:14:34.547860 22071 net.cpp:481] pool_d3c-4a <- relu_d3c
I0716 13:14:34.547865 22071 net.cpp:455] pool_d3c-4a -> d4a
I0716 13:14:34.547895 22071 net.cpp:190] Setting up pool_d3c-4a
I0716 13:14:34.547901 22071 net.cpp:197] Top shape: 1 256 32 64 (524288)
I0716 13:14:34.547904 22071 net.cpp:205] Memory required for data: 952107008
I0716 13:14:34.547907 22071 layer_factory.hpp:123] Creating layer conv_d4a-b
I0716 13:14:34.547915 22071 net.cpp:140] Creating Layer conv_d4a-b
I0716 13:14:34.547919 22071 net.cpp:481] conv_d4a-b <- d4a
I0716 13:14:34.547924 22071 net.cpp:455] conv_d4a-b -> d4b
I0716 13:14:34.561954 22071 net.cpp:190] Setting up conv_d4a-b
I0716 13:14:34.561977 22071 net.cpp:197] Top shape: 1 512 32 64 (1048576)
I0716 13:14:34.561980 22071 net.cpp:205] Memory required for data: 956301312
I0716 13:14:34.561990 22071 layer_factory.hpp:123] Creating layer BatchNorm_2
I0716 13:14:34.562000 22071 net.cpp:140] Creating Layer BatchNorm_2
I0716 13:14:34.562005 22071 net.cpp:481] BatchNorm_2 <- d4b
I0716 13:14:34.562013 22071 net.cpp:455] BatchNorm_2 -> BatchNorm_2
I0716 13:14:34.562557 22071 net.cpp:190] Setting up BatchNorm_2
I0716 13:14:34.562566 22071 net.cpp:197] Top shape: 1 512 32 64 (1048576)
I0716 13:14:34.562569 22071 net.cpp:205] Memory required for data: 960495616
I0716 13:14:34.562577 22071 layer_factory.hpp:123] Creating layer relu_d4b
I0716 13:14:34.562585 22071 net.cpp:140] Creating Layer relu_d4b
I0716 13:14:34.562589 22071 net.cpp:481] relu_d4b <- BatchNorm_2
I0716 13:14:34.562594 22071 net.cpp:455] relu_d4b -> relu_d4b
I0716 13:14:34.562616 22071 net.cpp:190] Setting up relu_d4b
I0716 13:14:34.562621 22071 net.cpp:197] Top shape: 1 512 32 64 (1048576)
I0716 13:14:34.562624 22071 net.cpp:205] Memory required for data: 964689920
I0716 13:14:34.562628 22071 layer_factory.hpp:123] Creating layer conv_d4b-c
I0716 13:14:34.562636 22071 net.cpp:140] Creating Layer conv_d4b-c
I0716 13:14:34.562639 22071 net.cpp:481] conv_d4b-c <- relu_d4b
I0716 13:14:34.562644 22071 net.cpp:455] conv_d4b-c -> d4c
I0716 13:14:34.590214 22071 net.cpp:190] Setting up conv_d4b-c
I0716 13:14:34.590237 22071 net.cpp:197] Top shape: 1 512 32 64 (1048576)
I0716 13:14:34.590240 22071 net.cpp:205] Memory required for data: 968884224
I0716 13:14:34.590250 22071 layer_factory.hpp:123] Creating layer relu_d4c
I0716 13:14:34.590258 22071 net.cpp:140] Creating Layer relu_d4c
I0716 13:14:34.590263 22071 net.cpp:481] relu_d4c <- d4c
I0716 13:14:34.590270 22071 net.cpp:455] relu_d4c -> relu_d4c
I0716 13:14:34.590298 22071 net.cpp:190] Setting up relu_d4c
I0716 13:14:34.590303 22071 net.cpp:197] Top shape: 1 512 32 64 (1048576)
I0716 13:14:34.590306 22071 net.cpp:205] Memory required for data: 973078528
I0716 13:14:34.590309 22071 layer_factory.hpp:123] Creating layer upconv_d4c_u3a
I0716 13:14:34.590317 22071 net.cpp:140] Creating Layer upconv_d4c_u3a
I0716 13:14:34.590320 22071 net.cpp:481] upconv_d4c_u3a <- relu_d4c
I0716 13:14:34.590325 22071 net.cpp:455] upconv_d4c_u3a -> u3a
I0716 13:14:34.596532 22071 net.cpp:190] Setting up upconv_d4c_u3a
I0716 13:14:34.596547 22071 net.cpp:197] Top shape: 1 256 64 128 (2097152)
I0716 13:14:34.596550 22071 net.cpp:205] Memory required for data: 981467136
I0716 13:14:34.596557 22071 layer_factory.hpp:123] Creating layer relu_u3a
I0716 13:14:34.596565 22071 net.cpp:140] Creating Layer relu_u3a
I0716 13:14:34.596568 22071 net.cpp:481] relu_u3a <- u3a
I0716 13:14:34.596573 22071 net.cpp:442] relu_u3a -> u3a (in-place)
I0716 13:14:34.596580 22071 net.cpp:190] Setting up relu_u3a
I0716 13:14:34.596585 22071 net.cpp:197] Top shape: 1 256 64 128 (2097152)
I0716 13:14:34.596587 22071 net.cpp:205] Memory required for data: 989855744
I0716 13:14:34.596590 22071 layer_factory.hpp:123] Creating layer concat_d3cc_u3a-b
I0716 13:14:34.596596 22071 net.cpp:140] Creating Layer concat_d3cc_u3a-b
I0716 13:14:34.596598 22071 net.cpp:481] concat_d3cc_u3a-b <- u3a
I0716 13:14:34.596602 22071 net.cpp:481] concat_d3cc_u3a-b <- d3c_conv_d3b-c_0_split_1
I0716 13:14:34.596607 22071 net.cpp:455] concat_d3cc_u3a-b -> u3b
I0716 13:14:34.596632 22071 net.cpp:190] Setting up concat_d3cc_u3a-b
I0716 13:14:34.596637 22071 net.cpp:197] Top shape: 1 512 64 128 (4194304)
I0716 13:14:34.596639 22071 net.cpp:205] Memory required for data: 1006632960
I0716 13:14:34.596642 22071 layer_factory.hpp:123] Creating layer conv_u3b-c
I0716 13:14:34.596650 22071 net.cpp:140] Creating Layer conv_u3b-c
I0716 13:14:34.596652 22071 net.cpp:481] conv_u3b-c <- u3b
I0716 13:14:34.596657 22071 net.cpp:455] conv_u3b-c -> u3c
I0716 13:14:34.614384 22071 net.cpp:190] Setting up conv_u3b-c
I0716 13:14:34.614405 22071 net.cpp:197] Top shape: 1 256 64 128 (2097152)
I0716 13:14:34.614408 22071 net.cpp:205] Memory required for data: 1015021568
I0716 13:14:34.614416 22071 layer_factory.hpp:123] Creating layer relu_u3c
I0716 13:14:34.614424 22071 net.cpp:140] Creating Layer relu_u3c
I0716 13:14:34.614428 22071 net.cpp:481] relu_u3c <- u3c
I0716 13:14:34.614434 22071 net.cpp:442] relu_u3c -> u3c (in-place)
I0716 13:14:34.614442 22071 net.cpp:190] Setting up relu_u3c
I0716 13:14:34.614446 22071 net.cpp:197] Top shape: 1 256 64 128 (2097152)
I0716 13:14:34.614449 22071 net.cpp:205] Memory required for data: 1023410176
I0716 13:14:34.614452 22071 layer_factory.hpp:123] Creating layer conv_u3c-d
I0716 13:14:34.614461 22071 net.cpp:140] Creating Layer conv_u3c-d
I0716 13:14:34.614464 22071 net.cpp:481] conv_u3c-d <- u3c
I0716 13:14:34.614468 22071 net.cpp:455] conv_u3c-d -> u3d
I0716 13:14:34.621383 22071 net.cpp:190] Setting up conv_u3c-d
I0716 13:14:34.621398 22071 net.cpp:197] Top shape: 1 256 64 128 (2097152)
I0716 13:14:34.621402 22071 net.cpp:205] Memory required for data: 1031798784
I0716 13:14:34.621408 22071 layer_factory.hpp:123] Creating layer relu_u3d
I0716 13:14:34.621415 22071 net.cpp:140] Creating Layer relu_u3d
I0716 13:14:34.621419 22071 net.cpp:481] relu_u3d <- u3d
I0716 13:14:34.621425 22071 net.cpp:442] relu_u3d -> u3d (in-place)
I0716 13:14:34.621433 22071 net.cpp:190] Setting up relu_u3d
I0716 13:14:34.621436 22071 net.cpp:197] Top shape: 1 256 64 128 (2097152)
I0716 13:14:34.621439 22071 net.cpp:205] Memory required for data: 1040187392
I0716 13:14:34.621443 22071 layer_factory.hpp:123] Creating layer upconv_u3d_u2a
I0716 13:14:34.621449 22071 net.cpp:140] Creating Layer upconv_u3d_u2a
I0716 13:14:34.621453 22071 net.cpp:481] upconv_u3d_u2a <- u3d
I0716 13:14:34.621457 22071 net.cpp:455] upconv_u3d_u2a -> u2a
I0716 13:14:34.622864 22071 net.cpp:190] Setting up upconv_u3d_u2a
I0716 13:14:34.622872 22071 net.cpp:197] Top shape: 1 128 128 256 (4194304)
I0716 13:14:34.622875 22071 net.cpp:205] Memory required for data: 1056964608
I0716 13:14:34.622880 22071 layer_factory.hpp:123] Creating layer relu_u2a
I0716 13:14:34.622885 22071 net.cpp:140] Creating Layer relu_u2a
I0716 13:14:34.622889 22071 net.cpp:481] relu_u2a <- u2a
I0716 13:14:34.622892 22071 net.cpp:442] relu_u2a -> u2a (in-place)
I0716 13:14:34.622898 22071 net.cpp:190] Setting up relu_u2a
I0716 13:14:34.622901 22071 net.cpp:197] Top shape: 1 128 128 256 (4194304)
I0716 13:14:34.622905 22071 net.cpp:205] Memory required for data: 1073741824
I0716 13:14:34.622907 22071 layer_factory.hpp:123] Creating layer concat_d2cc_u2a-b
I0716 13:14:34.622912 22071 net.cpp:140] Creating Layer concat_d2cc_u2a-b
I0716 13:14:34.622915 22071 net.cpp:481] concat_d2cc_u2a-b <- u2a
I0716 13:14:34.622920 22071 net.cpp:481] concat_d2cc_u2a-b <- d2c_conv_d2b-c_0_split_1
I0716 13:14:34.622923 22071 net.cpp:455] concat_d2cc_u2a-b -> u2b
I0716 13:14:34.622949 22071 net.cpp:190] Setting up concat_d2cc_u2a-b
I0716 13:14:34.622953 22071 net.cpp:197] Top shape: 1 256 128 256 (8388608)
I0716 13:14:34.622956 22071 net.cpp:205] Memory required for data: 1107296256
I0716 13:14:34.622959 22071 layer_factory.hpp:123] Creating layer conv_u2b-c
I0716 13:14:34.622967 22071 net.cpp:140] Creating Layer conv_u2b-c
I0716 13:14:34.622969 22071 net.cpp:481] conv_u2b-c <- u2b
I0716 13:14:34.622974 22071 net.cpp:455] conv_u2b-c -> u2c
I0716 13:14:34.627696 22071 net.cpp:190] Setting up conv_u2b-c
I0716 13:14:34.627710 22071 net.cpp:197] Top shape: 1 128 128 256 (4194304)
I0716 13:14:34.627713 22071 net.cpp:205] Memory required for data: 1124073472
I0716 13:14:34.627719 22071 layer_factory.hpp:123] Creating layer relu_u2c
I0716 13:14:34.627724 22071 net.cpp:140] Creating Layer relu_u2c
I0716 13:14:34.627728 22071 net.cpp:481] relu_u2c <- u2c
I0716 13:14:34.627732 22071 net.cpp:442] relu_u2c -> u2c (in-place)
I0716 13:14:34.627739 22071 net.cpp:190] Setting up relu_u2c
I0716 13:14:34.627743 22071 net.cpp:197] Top shape: 1 128 128 256 (4194304)
I0716 13:14:34.627746 22071 net.cpp:205] Memory required for data: 1140850688
I0716 13:14:34.627749 22071 layer_factory.hpp:123] Creating layer conv_u2c-d
I0716 13:14:34.627763 22071 net.cpp:140] Creating Layer conv_u2c-d
I0716 13:14:34.627765 22071 net.cpp:481] conv_u2c-d <- u2c
I0716 13:14:34.627770 22071 net.cpp:455] conv_u2c-d -> u2d
I0716 13:14:34.629288 22071 net.cpp:190] Setting up conv_u2c-d
I0716 13:14:34.629297 22071 net.cpp:197] Top shape: 1 128 128 256 (4194304)
I0716 13:14:34.629300 22071 net.cpp:205] Memory required for data: 1157627904
I0716 13:14:34.629307 22071 layer_factory.hpp:123] Creating layer relu_u2d
I0716 13:14:34.629312 22071 net.cpp:140] Creating Layer relu_u2d
I0716 13:14:34.629314 22071 net.cpp:481] relu_u2d <- u2d
I0716 13:14:34.629318 22071 net.cpp:442] relu_u2d -> u2d (in-place)
I0716 13:14:34.629324 22071 net.cpp:190] Setting up relu_u2d
I0716 13:14:34.629328 22071 net.cpp:197] Top shape: 1 128 128 256 (4194304)
I0716 13:14:34.629331 22071 net.cpp:205] Memory required for data: 1174405120
I0716 13:14:34.629333 22071 layer_factory.hpp:123] Creating layer upconv_u2d_u1a
I0716 13:14:34.629340 22071 net.cpp:140] Creating Layer upconv_u2d_u1a
I0716 13:14:34.629343 22071 net.cpp:481] upconv_u2d_u1a <- u2d
I0716 13:14:34.629348 22071 net.cpp:455] upconv_u2d_u1a -> u1a
I0716 13:14:34.629947 22071 net.cpp:190] Setting up upconv_u2d_u1a
I0716 13:14:34.629956 22071 net.cpp:197] Top shape: 1 64 256 512 (8388608)
I0716 13:14:34.629959 22071 net.cpp:205] Memory required for data: 1207959552
I0716 13:14:34.629964 22071 layer_factory.hpp:123] Creating layer relu_u1a
I0716 13:14:34.629968 22071 net.cpp:140] Creating Layer relu_u1a
I0716 13:14:34.629972 22071 net.cpp:481] relu_u1a <- u1a
I0716 13:14:34.629976 22071 net.cpp:442] relu_u1a -> u1a (in-place)
I0716 13:14:34.629981 22071 net.cpp:190] Setting up relu_u1a
I0716 13:14:34.629986 22071 net.cpp:197] Top shape: 1 64 256 512 (8388608)
I0716 13:14:34.629988 22071 net.cpp:205] Memory required for data: 1241513984
I0716 13:14:34.629992 22071 layer_factory.hpp:123] Creating layer concat_d1cc_u1a-b
I0716 13:14:34.629995 22071 net.cpp:140] Creating Layer concat_d1cc_u1a-b
I0716 13:14:34.629998 22071 net.cpp:481] concat_d1cc_u1a-b <- u1a
I0716 13:14:34.630002 22071 net.cpp:481] concat_d1cc_u1a-b <- d1c_conv_d1b-c_0_split_1
I0716 13:14:34.630007 22071 net.cpp:455] concat_d1cc_u1a-b -> u1b
I0716 13:14:34.630031 22071 net.cpp:190] Setting up concat_d1cc_u1a-b
I0716 13:14:34.630036 22071 net.cpp:197] Top shape: 1 128 256 512 (16777216)
I0716 13:14:34.630039 22071 net.cpp:205] Memory required for data: 1308622848
I0716 13:14:34.630043 22071 layer_factory.hpp:123] Creating layer conv_u1b-c
I0716 13:14:34.630049 22071 net.cpp:140] Creating Layer conv_u1b-c
I0716 13:14:34.630051 22071 net.cpp:481] conv_u1b-c <- u1b
I0716 13:14:34.630056 22071 net.cpp:455] conv_u1b-c -> u1c
I0716 13:14:34.631692 22071 net.cpp:190] Setting up conv_u1b-c
I0716 13:14:34.631703 22071 net.cpp:197] Top shape: 1 64 256 512 (8388608)
I0716 13:14:34.631706 22071 net.cpp:205] Memory required for data: 1342177280
I0716 13:14:34.631712 22071 layer_factory.hpp:123] Creating layer relu_u1c
I0716 13:14:34.631718 22071 net.cpp:140] Creating Layer relu_u1c
I0716 13:14:34.631721 22071 net.cpp:481] relu_u1c <- u1c
I0716 13:14:34.631726 22071 net.cpp:442] relu_u1c -> u1c (in-place)
I0716 13:14:34.631732 22071 net.cpp:190] Setting up relu_u1c
I0716 13:14:34.631737 22071 net.cpp:197] Top shape: 1 64 256 512 (8388608)
I0716 13:14:34.631741 22071 net.cpp:205] Memory required for data: 1375731712
I0716 13:14:34.631742 22071 layer_factory.hpp:123] Creating layer conv_u1c-d
I0716 13:14:34.631750 22071 net.cpp:140] Creating Layer conv_u1c-d
I0716 13:14:34.631753 22071 net.cpp:481] conv_u1c-d <- u1c
I0716 13:14:34.631763 22071 net.cpp:455] conv_u1c-d -> u1d
I0716 13:14:34.632405 22071 net.cpp:190] Setting up conv_u1c-d
I0716 13:14:34.632413 22071 net.cpp:197] Top shape: 1 64 256 512 (8388608)
I0716 13:14:34.632416 22071 net.cpp:205] Memory required for data: 1409286144
I0716 13:14:34.632421 22071 layer_factory.hpp:123] Creating layer relu_u1d
I0716 13:14:34.632426 22071 net.cpp:140] Creating Layer relu_u1d
I0716 13:14:34.632429 22071 net.cpp:481] relu_u1d <- u1d
I0716 13:14:34.632434 22071 net.cpp:442] relu_u1d -> u1d (in-place)
I0716 13:14:34.632439 22071 net.cpp:190] Setting up relu_u1d
I0716 13:14:34.632443 22071 net.cpp:197] Top shape: 1 64 256 512 (8388608)
I0716 13:14:34.632447 22071 net.cpp:205] Memory required for data: 1442840576
I0716 13:14:34.632449 22071 layer_factory.hpp:123] Creating layer upconv_u1d_u0a_NEW
I0716 13:14:34.632455 22071 net.cpp:140] Creating Layer upconv_u1d_u0a_NEW
I0716 13:14:34.632457 22071 net.cpp:481] upconv_u1d_u0a_NEW <- u1d
I0716 13:14:34.632463 22071 net.cpp:455] upconv_u1d_u0a_NEW -> u0a
I0716 13:14:34.633726 22071 net.cpp:190] Setting up upconv_u1d_u0a_NEW
I0716 13:14:34.633738 22071 net.cpp:197] Top shape: 1 32 512 1024 (16777216)
I0716 13:14:34.633741 22071 net.cpp:205] Memory required for data: 1509949440
I0716 13:14:34.633754 22071 layer_factory.hpp:123] Creating layer relu_u0a
I0716 13:14:34.633759 22071 net.cpp:140] Creating Layer relu_u0a
I0716 13:14:34.633762 22071 net.cpp:481] relu_u0a <- u0a
I0716 13:14:34.633766 22071 net.cpp:442] relu_u0a -> u0a (in-place)
I0716 13:14:34.633774 22071 net.cpp:190] Setting up relu_u0a
I0716 13:14:34.633777 22071 net.cpp:197] Top shape: 1 32 512 1024 (16777216)
I0716 13:14:34.633780 22071 net.cpp:205] Memory required for data: 1577058304
I0716 13:14:34.633782 22071 layer_factory.hpp:123] Creating layer concat_d0cc_u0a-b
I0716 13:14:34.633787 22071 net.cpp:140] Creating Layer concat_d0cc_u0a-b
I0716 13:14:34.633790 22071 net.cpp:481] concat_d0cc_u0a-b <- u0a
I0716 13:14:34.633795 22071 net.cpp:481] concat_d0cc_u0a-b <- d0c_conv_d0b-c_0_split_1
I0716 13:14:34.633798 22071 net.cpp:455] concat_d0cc_u0a-b -> u0b
I0716 13:14:34.633827 22071 net.cpp:190] Setting up concat_d0cc_u0a-b
I0716 13:14:34.633834 22071 net.cpp:197] Top shape: 1 64 512 1024 (33554432)
I0716 13:14:34.633837 22071 net.cpp:205] Memory required for data: 1711276032
I0716 13:14:34.633841 22071 layer_factory.hpp:123] Creating layer conv_u0b-c_New
I0716 13:14:34.633847 22071 net.cpp:140] Creating Layer conv_u0b-c_New
I0716 13:14:34.633850 22071 net.cpp:481] conv_u0b-c_New <- u0b
I0716 13:14:34.633855 22071 net.cpp:455] conv_u0b-c_New -> u0c
I0716 13:14:34.635221 22071 net.cpp:190] Setting up conv_u0b-c_New
I0716 13:14:34.635232 22071 net.cpp:197] Top shape: 1 32 512 1024 (16777216)
I0716 13:14:34.635236 22071 net.cpp:205] Memory required for data: 1778384896
I0716 13:14:34.635241 22071 layer_factory.hpp:123] Creating layer relu_u0c
I0716 13:14:34.635246 22071 net.cpp:140] Creating Layer relu_u0c
I0716 13:14:34.635249 22071 net.cpp:481] relu_u0c <- u0c
I0716 13:14:34.635254 22071 net.cpp:442] relu_u0c -> u0c (in-place)
I0716 13:14:34.635260 22071 net.cpp:190] Setting up relu_u0c
I0716 13:14:34.635264 22071 net.cpp:197] Top shape: 1 32 512 1024 (16777216)
I0716 13:14:34.635267 22071 net.cpp:205] Memory required for data: 1845493760
I0716 13:14:34.635269 22071 layer_factory.hpp:123] Creating layer conv_u0c-d_New
I0716 13:14:34.635277 22071 net.cpp:140] Creating Layer conv_u0c-d_New
I0716 13:14:34.635279 22071 net.cpp:481] conv_u0c-d_New <- u0c
I0716 13:14:34.635284 22071 net.cpp:455] conv_u0c-d_New -> u0d
I0716 13:14:34.636584 22071 net.cpp:190] Setting up conv_u0c-d_New
I0716 13:14:34.636596 22071 net.cpp:197] Top shape: 1 32 512 1024 (16777216)
I0716 13:14:34.636600 22071 net.cpp:205] Memory required for data: 1912602624
I0716 13:14:34.636605 22071 layer_factory.hpp:123] Creating layer relu_u0d
I0716 13:14:34.636610 22071 net.cpp:140] Creating Layer relu_u0d
I0716 13:14:34.636615 22071 net.cpp:481] relu_u0d <- u0d
I0716 13:14:34.636618 22071 net.cpp:442] relu_u0d -> u0d (in-place)
I0716 13:14:34.636626 22071 net.cpp:190] Setting up relu_u0d
I0716 13:14:34.636629 22071 net.cpp:197] Top shape: 1 32 512 1024 (16777216)
I0716 13:14:34.636631 22071 net.cpp:205] Memory required for data: 1979711488
I0716 13:14:34.636634 22071 layer_factory.hpp:123] Creating layer conv_u0d-score_New
I0716 13:14:34.636641 22071 net.cpp:140] Creating Layer conv_u0d-score_New
I0716 13:14:34.636644 22071 net.cpp:481] conv_u0d-score_New <- u0d
I0716 13:14:34.636649 22071 net.cpp:455] conv_u0d-score_New -> conv_u0d-score_New
I0716 13:14:34.637867 22071 net.cpp:190] Setting up conv_u0d-score_New
I0716 13:14:34.637879 22071 net.cpp:197] Top shape: 1 19 512 1024 (9961472)
I0716 13:14:34.637882 22071 net.cpp:205] Memory required for data: 2019557376
I0716 13:14:34.637888 22071 layer_factory.hpp:123] Creating layer score
I0716 13:14:34.637897 22071 net.cpp:140] Creating Layer score
I0716 13:14:34.637902 22071 net.cpp:481] score <- conv_u0d-score_New
I0716 13:14:34.637907 22071 net.cpp:455] score -> score
I0716 13:14:34.637975 22071 net.cpp:190] Setting up score
I0716 13:14:34.637982 22071 net.cpp:197] Top shape: 1 19 512 1024 (9961472)
I0716 13:14:34.637985 22071 net.cpp:205] Memory required for data: 2059403264
I0716 13:14:34.637989 22071 layer_factory.hpp:123] Creating layer accuracy
I0716 13:14:34.638016 22071 net.cpp:140] Creating Layer accuracy
I0716 13:14:34.638021 22071 net.cpp:481] accuracy <- score
I0716 13:14:34.638026 22071 net.cpp:481] accuracy <- label
I0716 13:14:34.638031 22071 net.cpp:455] accuracy -> segmentation_eval
I0716 13:14:34.638056 22071 net.cpp:190] Setting up accuracy
I0716 13:14:34.638062 22071 net.cpp:197] Top shape: 3 19 (57)
I0716 13:14:34.638065 22071 net.cpp:205] Memory required for data: 2059403492
I0716 13:14:34.638069 22071 net.cpp:268] accuracy does not need backward computation.
I0716 13:14:34.638077 22071 net.cpp:268] score does not need backward computation.
I0716 13:14:34.638080 22071 net.cpp:268] conv_u0d-score_New does not need backward computation.
I0716 13:14:34.638084 22071 net.cpp:268] relu_u0d does not need backward computation.
…
