…
I0716 13:24:22.336048 22821 net.cpp:98] Initializing net from parameters: 
state {
  phase: TRAIN
}
layer {
  name: "data"
  type: "ImageData"
  top: "data"
  top: "label"
  include {
    phase: TRAIN
  }
  transform_param {
    scale: 0.022
    mean_value: 73
    mean_value: 82
    mean_value: 72
    resize_param {
      prob: 1
      resize_mode: WARP
      height: 512
      width: 1024
    }
  }
  image_data_param {
    source: "../data/cityscapes/calibration.txt"
    batch_size: 1
    shuffle: true
    new_height: 512
    new_width: 1024
    root_folder: "../data/cityscapes/calibration_images/"
  }
}
layer {
  name: "conv_d0a-b"
  type: "Convolution"
  bottom: "data"
  top: "d0b"
  param {
    lr_mult: 1
    decay_mult: 1
  }
  param {
    lr_mult: 2
    decay_mult: 0
  }
  convolution_param {
    num_output: 32
    pad: 1
    kernel_size: 3
    stride: 1
    weight_filler {
      type: "msra"
    }
  }
}
layer {
  name: "relu_d0b"
  type: "ReLU"
  bottom: "d0b"
  top: "relu_d0b"
}
layer {
  name: "conv_d0b-c"
  type: "Convolution"
  bottom: "relu_d0b"
  top: "d0c"
  param {
    lr_mult: 1
    decay_mult: 1
  }
  param {
    lr_mult: 2
    decay_mult: 0
  }
  convolution_param {
    num_output: 32
    pad: 1
    kernel_size: 3
    weight_filler {
      type: "msra"
    }
  }
}
layer {
  name: "BatchNorm_d0c"
  type: "BatchNorm"
  bottom: "d0c"
  top: "BatchNorm_d0c"
  param {
    lr_mult: 1
    decay_mult: 0
  }
  param {
    lr_mult: 1
    decay_mult: 0
  }
  param {
    lr_mult: 0
    decay_mult: 0
  }
  param {
    lr_mult: 0
    decay_mult: 0
  }
  batch_norm_param {
    use_global_stats: false
    eps: 1e-05
    scale_filler {
      type: "constant"
      value: 1
    }
    bias_filler {
      type: "constant"
      value: 0
    }
  }
}
layer {
  name: "relu_d0c"
  type: "ReLU"
  bottom: "BatchNorm_d0c"
  top: "relu_d0c"
}
layer {
  name: "pool_d0c-1a"
  type: "Pooling"
  bottom: "relu_d0c"
  top: "d1a"
  pooling_param {
    pool: MAX
    kernel_size: 2
    stride: 2
  }
}
layer {
  name: "conv_d1a-b"
  type: "Convolution"
  bottom: "d1a"
  top: "d1b"
  param {
    lr_mult: 1
    decay_mult: 1
  }
  param {
    lr_mult: 2
    decay_mult: 0
  }
  convolution_param {
    num_output: 64
    pad: 1
    kernel_size: 3
    weight_filler {
      type: "msra"
    }
  }
}
layer {
  name: "relu_d1b"
  type: "ReLU"
  bottom: "d1b"
  top: "relu_d1b"
}
layer {
  name: "conv_d1b-c"
  type: "Convolution"
  bottom: "relu_d1b"
  top: "d1c"
  param {
    lr_mult: 1
    decay_mult: 1
  }
  param {
    lr_mult: 2
    decay_mult: 0
  }
  convolution_param {
    num_output: 64
    pad: 1
    kernel_size: 3
    weight_filler {
      type: "msra"
    }
  }
}
layer {
  name: "BatchNorm_d1c"
  type: "BatchNorm"
  bottom: "d1c"
  top: "BatchNorm_d1c"
  param {
    lr_mult: 1
    decay_mult: 0
  }
  param {
    lr_mult: 1
    decay_mult: 0
  }
  param {
    lr_mult: 0
    decay_mult: 0
  }
  param {
    lr_mult: 0
    decay_mult: 0
  }
  batch_norm_param {
    use_global_stats: false
    eps: 1e-05
    scale_filler {
      type: "constant"
      value: 1
    }
    bias_filler {
      type: "constant"
      value: 0
    }
  }
}
layer {
  name: "relu_d1c"
  type: "ReLU"
  bottom: "BatchNorm_d1c"
  top: "relu_d1c"
}
layer {
  name: "pool_d1c-2a"
  type: "Pooling"
  bottom: "relu_d1c"
  top: "d2a"
  pooling_param {
    pool: MAX
    kernel_size: 2
    stride: 2
  }
}
layer {
  name: "conv_d2a-b"
  type: "Convolution"
  bottom: "d2a"
  top: "d2b"
  param {
    lr_mult: 1
    decay_mult: 1
  }
  param {
    lr_mult: 2
    decay_mult: 0
  }
  convolution_param {
    num_output: 128
    pad: 1
    kernel_size: 3
    weight_filler {
      type: "msra"
    }
  }
}
layer {
  name: "relu_d2b"
  type: "ReLU"
  bottom: "d2b"
  top: "relu_d2b"
}
layer {
  name: "conv_d2b-c"
  type: "Convolution"
  bottom: "relu_d2b"
  top: "d2c"
  param {
    lr_mult: 1
    decay_mult: 1
  }
  param {
    lr_mult: 2
    decay_mult: 0
  }
  convolution_param {
    num_output: 128
    pad: 1
    kernel_size: 3
    weight_filler {
      type: "msra"
    }
  }
}
layer {
  name: "BatchNorm_d2c"
  type: "BatchNorm"
  bottom: "d2c"
  top: "BatchNorm_d2c"
  param {
    lr_mult: 1
    decay_mult: 0
  }
  param {
    lr_mult: 1
    decay_mult: 0
  }
  param {
    lr_mult: 0
    decay_mult: 0
  }
  param {
    lr_mult: 0
    decay_mult: 0
  }
  batch_norm_param {
    use_global_stats: false
    eps: 1e-05
    scale_filler {
      type: "constant"
      value: 1
    }
    bias_filler {
      type: "constant"
      value: 0
    }
  }
}
layer {
  name: "relu_d2c"
  type: "ReLU"
  bottom: "BatchNorm_d2c"
  top: "relu_d2c"
}
layer {
  name: "pool_d2c-3a"
  type: "Pooling"
  bottom: "relu_d2c"
  top: "d3a"
  pooling_param {
    pool: MAX
    kernel_size: 2
    stride: 2
  }
}
layer {
  name: "conv_d3a-b"
  type: "Convolution"
  bottom: "d3a"
  top: "d3b"
  param {
    lr_mult: 1
    decay_mult: 1
  }
  param {
    lr_mult: 2
    decay_mult: 0
  }
  convolution_param {
    num_output: 256
    pad: 1
    kernel_size: 3
    weight_filler {
      type: "msra"
    }
  }
}
layer {
  name: "relu_d3b"
  type: "ReLU"
  bottom: "d3b"
  top: "relu_d3b"
}
layer {
  name: "conv_d3b-c"
  type: "Convolution"
  bottom: "relu_d3b"
  top: "d3c"
  param {
    lr_mult: 1
    decay_mult: 1
  }
  param {
    lr_mult: 2
    decay_mult: 0
  }
  convolution_param {
    num_output: 256
    pad: 1
    kernel_size: 3
    weight_filler {
      type: "msra"
    }
  }
}
layer {
  name: "BatchNorm_1"
  type: "BatchNorm"
  bottom: "d3c"
  top: "BatchNorm_1"
  param {
    lr_mult: 1
    decay_mult: 0
  }
  param {
    lr_mult: 1
    decay_mult: 0
  }
  param {
    lr_mult: 0
    decay_mult: 0
  }
  param {
    lr_mult: 0
    decay_mult: 0
  }
  batch_norm_param {
    use_global_stats: false
    eps: 1e-05
    scale_filler {
      type: "constant"
      value: 1
    }
    bias_filler {
      type: "constant"
      value: 0
    }
  }
}
layer {
  name: "relu_d3c"
  type: "ReLU"
  bottom: "BatchNorm_1"
  top: "relu_d3c"
}
layer {
  name: "pool_d3c-4a"
  type: "Pooling"
  bottom: "relu_d3c"
  top: "d4a"
  pooling_param {
    pool: MAX
    kernel_size: 2
    stride: 2
  }
}
layer {
  name: "conv_d4a-b"
  type: "Convolution"
  bottom: "d4a"
  top: "d4b"
  param {
    lr_mult: 1
    decay_mult: 1
  }
  param {
    lr_mult: 2
    decay_mult: 0
  }
  convolution_param {
    num_output: 512
    pad: 1
    kernel_size: 3
    weight_filler {
      type: "msra"
    }
  }
}
layer {
  name: "BatchNorm_2"
  type: "BatchNorm"
  bottom: "d4b"
  top: "BatchNorm_2"
  param {
    lr_mult: 1
    decay_mult: 0
  }
  param {
    lr_mult: 1
    decay_mult: 0
  }
  param {
    lr_mult: 0
    decay_mult: 0
  }
  param {
    lr_mult: 0
    decay_mult: 0
  }
  batch_norm_param {
    use_global_stats: false
    eps: 1e-05
    scale_filler {
      type: "constant"
      value: 1
    }
    bias_filler {
      type: "constant"
      value: 0
    }
  }
}
layer {
  name: "relu_d4b"
  type: "ReLU"
  bottom: "BatchNorm_2"
  top: "relu_d4b"
}
layer {
  name: "conv_d4b-c"
  type: "Convolution"
  bottom: "relu_d4b"
  top: "d4c"
  param {
    lr_mult: 1
    decay_mult: 1
  }
  param {
    lr_mult: 2
    decay_mult: 0
  }
  convolution_param {
    num_output: 512
    pad: 1
    kernel_size: 3
    weight_filler {
      type: "msra"
    }
  }
}
layer {
  name: "relu_d4c"
  type: "ReLU"
  bottom: "d4c"
  top: "relu_d4c"
}
layer {
  name: "upconv_d4c_u3a"
  type: "Deconvolution"
  bottom: "relu_d4c"
  top: "u3a"
  param {
    lr_mult: 1
    decay_mult: 1
  }
  param {
    lr_mult: 2
    decay_mult: 0
  }
  convolution_param {
    num_output: 256
    pad: 0
    kernel_size: 2
    stride: 2
    weight_filler {
      type: "msra"
    }
  }
}
layer {
  name: "relu_u3a"
  type: "ReLU"
  bottom: "u3a"
  top: "u3a"
}
layer {
  name: "concat_d3cc_u3a-b"
  type: "Concat"
  bottom: "u3a"
  bottom: "d3c"
  top: "u3b"
}
layer {
  name: "conv_u3b-c"
  type: "Convolution"
  bottom: "u3b"
  top: "u3c"
  param {
    lr_mult: 1
    decay_mult: 1
  }
  param {
    lr_mult: 2
    decay_mult: 0
  }
  convolution_param {
    num_output: 256
    pad: 1
    kernel_size: 3
    weight_filler {
      type: "msra"
    }
  }
}
layer {
  name: "relu_u3c"
  type: "ReLU"
  bottom: "u3c"
  top: "u3c"
}
layer {
  name: "conv_u3c-d"
  type: "Convolution"
  bottom: "u3c"
  top: "u3d"
  param {
    lr_mult: 1
    decay_mult: 1
  }
  param {
    lr_mult: 2
    decay_mult: 0
  }
  convolution_param {
    num_output: 256
    pad: 1
    kernel_size: 3
    weight_filler {
      type: "msra"
    }
  }
}
layer {
  name: "relu_u3d"
  type: "ReLU"
  bottom: "u3d"
  top: "u3d"
}
layer {
  name: "upconv_u3d_u2a"
  type: "Deconvolution"
  bottom: "u3d"
  top: "u2a"
  param {
    lr_mult: 1
    decay_mult: 1
  }
  param {
    lr_mult: 2
    decay_mult: 0
  }
  convolution_param {
    num_output: 128
    pad: 0
    kernel_size: 2
    stride: 2
    weight_filler {
      type: "msra"
    }
  }
}
layer {
  name: "relu_u2a"
  type: "ReLU"
  bottom: "u2a"
  top: "u2a"
}
layer {
  name: "concat_d2cc_u2a-b"
  type: "Concat"
  bottom: "u2a"
  bottom: "d2c"
  top: "u2b"
}
layer {
  name: "conv_u2b-c"
  type: "Convolution"
  bottom: "u2b"
  top: "u2c"
  param {
    lr_mult: 1
    decay_mult: 1
  }
  param {
    lr_mult: 2
    decay_mult: 0
  }
  convolution_param {
    num_output: 128
    pad: 1
    kernel_size: 3
    weight_filler {
      type: "msra"
    }
  }
}
layer {
  name: "relu_u2c"
  type: "ReLU"
  bottom: "u2c"
  top: "u2c"
}
layer {
  name: "conv_u2c-d"
  type: "Convolution"
  bottom: "u2c"
  top: "u2d"
  param {
    lr_mult: 1
    decay_mult: 1
  }
  param {
    lr_mult: 2
    decay_mult: 0
  }
  convolution_param {
    num_output: 128
    pad: 1
    kernel_size: 3
    weight_filler {
      type: "msra"
    }
  }
}
layer {
  name: "relu_u2d"
  type: "ReLU"
  bottom: "u2d"
  top: "u2d"
}
layer {
  name: "upconv_u2d_u1a"
  type: "Deconvolution"
  bottom: "u2d"
  top: "u1a"
  param {
    lr_mult: 1
    decay_mult: 1
  }
  param {
    lr_mult: 2
    decay_mult: 0
  }
  convolution_param {
    num_output: 64
    pad: 0
    kernel_size: 2
    stride: 2
    weight_filler {
      type: "msra"
    }
  }
}
layer {
  name: "relu_u1a"
  type: "ReLU"
  bottom: "u1a"
  top: "u1a"
}
layer {
  name: "concat_d1cc_u1a-b"
  type: "Concat"
  bottom: "u1a"
  bottom: "d1c"
  top: "u1b"
}
layer {
  name: "conv_u1b-c"
  type: "Convolution"
  bottom: "u1b"
  top: "u1c"
  param {
    lr_mult: 1
    decay_mult: 1
  }
  param {
    lr_mult: 2
    decay_mult: 0
  }
  convolution_param {
    num_output: 64
    pad: 1
    kernel_size: 3
    weight_filler {
      type: "msra"
    }
  }
}
layer {
  name: "relu_u1c"
  type: "ReLU"
  bottom: "u1c"
  top: "u1c"
}
layer {
  name: "conv_u1c-d"
  type: "Convolution"
  bottom: "u1c"
  top: "u1d"
  param {
    lr_mult: 1
    decay_mult: 1
  }
  param {
    lr_mult: 2
    decay_mult: 0
  }
  convolution_param {
    num_output: 64
    pad: 1
    kernel_size: 3
    weight_filler {
      type: "msra"
    }
  }
}
layer {
  name: "relu_u1d"
  type: "ReLU"
  bottom: "u1d"
  top: "u1d"
}
layer {
  name: "upconv_u1d_u0a_NEW"
  type: "Deconvolution"
  bottom: "u1d"
  top: "u0a"
  param {
    lr_mult: 1
    decay_mult: 1
  }
  param {
    lr_mult: 2
    decay_mult: 0
  }
  convolution_param {
    num_output: 32
    pad: 0
    kernel_size: 2
    stride: 2
    weight_filler {
      type: "msra"
    }
  }
}
layer {
  name: "relu_u0a"
  type: "ReLU"
  bottom: "u0a"
  top: "u0a"
}
layer {
  name: "concat_d0cc_u0a-b"
  type: "Concat"
  bottom: "u0a"
  bottom: "d0c"
  top: "u0b"
}
layer {
  name: "conv_u0b-c_New"
  type: "Convolution"
  bottom: "u0b"
  top: "u0c"
  param {
    lr_mult: 1
    decay_mult: 1
  }
  param {
    lr_mult: 2
    decay_mult: 0
  }
  convolution_param {
    num_output: 32
    pad: 1
    kernel_size: 3
    weight_filler {
      type: "msra"
    }
  }
}
layer {
  name: "relu_u0c"
  type: "ReLU"
  bottom: "u0c"
  top: "u0c"
}
layer {
  name: "conv_u0c-d_New"
  type: "Convolution"
  bottom: "u0c"
  top: "u0d"
  param {
    lr_mult: 1
    decay_mult: 1
  }
  param {
    lr_mult: 2
    decay_mult: 0
  }
  convolution_param {
    num_output: 32
    pad: 1
    kernel_size: 3
    weight_filler {
      type: "msra"
    }
  }
}
layer {
  name: "relu_u0d"
  type: "ReLU"
  bottom: "u0d"
  top: "u0d"
}
layer {
  name: "conv_u0d-score_New"
  type: "Convolution"
  bottom: "u0d"
  top: "conv_u0d-score_New"
  param {
    lr_mult: 1
    decay_mult: 1
  }
  param {
    lr_mult: 2
    decay_mult: 0
  }
  convolution_param {
    num_output: 19
    pad: 0
    kernel_size: 1
    weight_filler {
      type: "msra"
    }
  }
}
layer {
  name: "score"
  type: "Softmax"
  bottom: "conv_u0d-score_New"
  top: "score"
}
I0716 13:24:22.336261 22821 layer_factory.hpp:123] Creating layer data
I0716 13:24:22.336292 22821 net.cpp:140] Creating Layer data
I0716 13:24:22.336304 22821 net.cpp:455] data -> data
I0716 13:24:22.336318 22821 net.cpp:455] data -> label
I0716 13:24:22.336340 22821 image_data_layer.cpp:87] Opening file ../data/cityscapes/calibration.txt
I0716 13:24:22.336663 22821 image_data_layer.cpp:97] Shuffling data
I0716 13:24:22.336732 22821 image_data_layer.cpp:102] A total of 1000 images.
I0716 13:24:22.410676 22821 image_data_layer.cpp:130] output data size: 1,3,512,1024
I0716 13:24:22.438539 22821 internal_thread.cpp:73] Starting internal thread(s) on GPU 1
I0716 13:24:22.438609 22821 net.cpp:190] Setting up data
I0716 13:24:22.438621 22821 net.cpp:197] Top shape: 1 3 512 1024 (1572864)
I0716 13:24:22.438625 22821 net.cpp:197] Top shape: 1 (1)
I0716 13:24:22.438628 22821 net.cpp:205] Memory required for data: 6291460
I0716 13:24:22.438634 22821 layer_factory.hpp:123] Creating layer conv_d0a-b
I0716 13:24:22.438648 22821 net.cpp:140] Creating Layer conv_d0a-b
I0716 13:24:22.438655 22821 net.cpp:481] conv_d0a-b <- data
I0716 13:24:22.438669 22821 net.cpp:455] conv_d0a-b -> d0b
I0716 13:24:22.440919 22821 net.cpp:190] Setting up conv_d0a-b
I0716 13:24:22.440932 22821 net.cpp:197] Top shape: 1 32 512 1024 (16777216)
I0716 13:24:22.440935 22821 net.cpp:205] Memory required for data: 73400324
I0716 13:24:22.440950 22821 layer_factory.hpp:123] Creating layer relu_d0b
I0716 13:24:22.440958 22821 net.cpp:140] Creating Layer relu_d0b
I0716 13:24:22.440963 22821 net.cpp:481] relu_d0b <- d0b
I0716 13:24:22.440968 22821 net.cpp:455] relu_d0b -> relu_d0b
I0716 13:24:22.441025 22821 net.cpp:190] Setting up relu_d0b
I0716 13:24:22.441032 22821 net.cpp:197] Top shape: 1 32 512 1024 (16777216)
I0716 13:24:22.441035 22821 net.cpp:205] Memory required for data: 140509188
I0716 13:24:22.441040 22821 layer_factory.hpp:123] Creating layer conv_d0b-c
I0716 13:24:22.441051 22821 net.cpp:140] Creating Layer conv_d0b-c
I0716 13:24:22.441056 22821 net.cpp:481] conv_d0b-c <- relu_d0b
I0716 13:24:22.441062 22821 net.cpp:455] conv_d0b-c -> d0c
I0716 13:24:22.443099 22821 net.cpp:190] Setting up conv_d0b-c
I0716 13:24:22.443112 22821 net.cpp:197] Top shape: 1 32 512 1024 (16777216)
I0716 13:24:22.443116 22821 net.cpp:205] Memory required for data: 207618052
I0716 13:24:22.443127 22821 layer_factory.hpp:123] Creating layer d0c_conv_d0b-c_0_split
I0716 13:24:22.443136 22821 net.cpp:140] Creating Layer d0c_conv_d0b-c_0_split
I0716 13:24:22.443141 22821 net.cpp:481] d0c_conv_d0b-c_0_split <- d0c
I0716 13:24:22.443150 22821 net.cpp:455] d0c_conv_d0b-c_0_split -> d0c_conv_d0b-c_0_split_0
I0716 13:24:22.443159 22821 net.cpp:455] d0c_conv_d0b-c_0_split -> d0c_conv_d0b-c_0_split_1
I0716 13:24:22.443199 22821 net.cpp:190] Setting up d0c_conv_d0b-c_0_split
I0716 13:24:22.443207 22821 net.cpp:197] Top shape: 1 32 512 1024 (16777216)
I0716 13:24:22.443210 22821 net.cpp:197] Top shape: 1 32 512 1024 (16777216)
I0716 13:24:22.443214 22821 net.cpp:205] Memory required for data: 341835780
I0716 13:24:22.443218 22821 layer_factory.hpp:123] Creating layer BatchNorm_d0c
I0716 13:24:22.443228 22821 net.cpp:140] Creating Layer BatchNorm_d0c
I0716 13:24:22.443230 22821 net.cpp:481] BatchNorm_d0c <- d0c_conv_d0b-c_0_split_0
I0716 13:24:22.443236 22821 net.cpp:455] BatchNorm_d0c -> BatchNorm_d0c
I0716 13:24:22.444814 22821 net.cpp:190] Setting up BatchNorm_d0c
I0716 13:24:22.444828 22821 net.cpp:197] Top shape: 1 32 512 1024 (16777216)
I0716 13:24:22.444831 22821 net.cpp:205] Memory required for data: 408944644
I0716 13:24:22.444849 22821 layer_factory.hpp:123] Creating layer relu_d0c
I0716 13:24:22.444856 22821 net.cpp:140] Creating Layer relu_d0c
I0716 13:24:22.444860 22821 net.cpp:481] relu_d0c <- BatchNorm_d0c
I0716 13:24:22.444866 22821 net.cpp:455] relu_d0c -> relu_d0c
I0716 13:24:22.444895 22821 net.cpp:190] Setting up relu_d0c
I0716 13:24:22.444901 22821 net.cpp:197] Top shape: 1 32 512 1024 (16777216)
I0716 13:24:22.444905 22821 net.cpp:205] Memory required for data: 476053508
I0716 13:24:22.444908 22821 layer_factory.hpp:123] Creating layer pool_d0c-1a
I0716 13:24:22.444916 22821 net.cpp:140] Creating Layer pool_d0c-1a
I0716 13:24:22.444921 22821 net.cpp:481] pool_d0c-1a <- relu_d0c
I0716 13:24:22.444926 22821 net.cpp:455] pool_d0c-1a -> d1a
I0716 13:24:22.444957 22821 net.cpp:190] Setting up pool_d0c-1a
I0716 13:24:22.444962 22821 net.cpp:197] Top shape: 1 32 256 512 (4194304)
I0716 13:24:22.444964 22821 net.cpp:205] Memory required for data: 492830724
I0716 13:24:22.444967 22821 layer_factory.hpp:123] Creating layer conv_d1a-b
I0716 13:24:22.444975 22821 net.cpp:140] Creating Layer conv_d1a-b
I0716 13:24:22.444978 22821 net.cpp:481] conv_d1a-b <- d1a
I0716 13:24:22.444985 22821 net.cpp:455] conv_d1a-b -> d1b
I0716 13:24:22.446856 22821 net.cpp:190] Setting up conv_d1a-b
I0716 13:24:22.446869 22821 net.cpp:197] Top shape: 1 64 256 512 (8388608)
I0716 13:24:22.446872 22821 net.cpp:205] Memory required for data: 526385156
I0716 13:24:22.446880 22821 layer_factory.hpp:123] Creating layer relu_d1b
I0716 13:24:22.446888 22821 net.cpp:140] Creating Layer relu_d1b
I0716 13:24:22.446893 22821 net.cpp:481] relu_d1b <- d1b
I0716 13:24:22.446900 22821 net.cpp:455] relu_d1b -> relu_d1b
I0716 13:24:22.446929 22821 net.cpp:190] Setting up relu_d1b
I0716 13:24:22.446936 22821 net.cpp:197] Top shape: 1 64 256 512 (8388608)
I0716 13:24:22.446940 22821 net.cpp:205] Memory required for data: 559939588
I0716 13:24:22.446943 22821 layer_factory.hpp:123] Creating layer conv_d1b-c
I0716 13:24:22.446954 22821 net.cpp:140] Creating Layer conv_d1b-c
I0716 13:24:22.446959 22821 net.cpp:481] conv_d1b-c <- relu_d1b
I0716 13:24:22.446965 22821 net.cpp:455] conv_d1b-c -> d1c
I0716 13:24:22.447566 22821 net.cpp:190] Setting up conv_d1b-c
I0716 13:24:22.447574 22821 net.cpp:197] Top shape: 1 64 256 512 (8388608)
I0716 13:24:22.447577 22821 net.cpp:205] Memory required for data: 593494020
I0716 13:24:22.447585 22821 layer_factory.hpp:123] Creating layer d1c_conv_d1b-c_0_split
I0716 13:24:22.447592 22821 net.cpp:140] Creating Layer d1c_conv_d1b-c_0_split
I0716 13:24:22.447597 22821 net.cpp:481] d1c_conv_d1b-c_0_split <- d1c
I0716 13:24:22.447602 22821 net.cpp:455] d1c_conv_d1b-c_0_split -> d1c_conv_d1b-c_0_split_0
I0716 13:24:22.447612 22821 net.cpp:455] d1c_conv_d1b-c_0_split -> d1c_conv_d1b-c_0_split_1
I0716 13:24:22.447648 22821 net.cpp:190] Setting up d1c_conv_d1b-c_0_split
I0716 13:24:22.447654 22821 net.cpp:197] Top shape: 1 64 256 512 (8388608)
I0716 13:24:22.447657 22821 net.cpp:197] Top shape: 1 64 256 512 (8388608)
I0716 13:24:22.447660 22821 net.cpp:205] Memory required for data: 660602884
I0716 13:24:22.447664 22821 layer_factory.hpp:123] Creating layer BatchNorm_d1c
I0716 13:24:22.447674 22821 net.cpp:140] Creating Layer BatchNorm_d1c
I0716 13:24:22.447679 22821 net.cpp:481] BatchNorm_d1c <- d1c_conv_d1b-c_0_split_0
I0716 13:24:22.447686 22821 net.cpp:455] BatchNorm_d1c -> BatchNorm_d1c
I0716 13:24:22.448344 22821 net.cpp:190] Setting up BatchNorm_d1c
I0716 13:24:22.448354 22821 net.cpp:197] Top shape: 1 64 256 512 (8388608)
I0716 13:24:22.448357 22821 net.cpp:205] Memory required for data: 694157316
I0716 13:24:22.448372 22821 layer_factory.hpp:123] Creating layer relu_d1c
I0716 13:24:22.448379 22821 net.cpp:140] Creating Layer relu_d1c
I0716 13:24:22.448384 22821 net.cpp:481] relu_d1c <- BatchNorm_d1c
I0716 13:24:22.448390 22821 net.cpp:455] relu_d1c -> relu_d1c
I0716 13:24:22.448415 22821 net.cpp:190] Setting up relu_d1c
I0716 13:24:22.448422 22821 net.cpp:197] Top shape: 1 64 256 512 (8388608)
I0716 13:24:22.448426 22821 net.cpp:205] Memory required for data: 727711748
I0716 13:24:22.448428 22821 layer_factory.hpp:123] Creating layer pool_d1c-2a
I0716 13:24:22.448436 22821 net.cpp:140] Creating Layer pool_d1c-2a
I0716 13:24:22.448441 22821 net.cpp:481] pool_d1c-2a <- relu_d1c
I0716 13:24:22.448447 22821 net.cpp:455] pool_d1c-2a -> d2a
I0716 13:24:22.448480 22821 net.cpp:190] Setting up pool_d1c-2a
I0716 13:24:22.448487 22821 net.cpp:197] Top shape: 1 64 128 256 (2097152)
I0716 13:24:22.448489 22821 net.cpp:205] Memory required for data: 736100356
I0716 13:24:22.448493 22821 layer_factory.hpp:123] Creating layer conv_d2a-b
I0716 13:24:22.448501 22821 net.cpp:140] Creating Layer conv_d2a-b
I0716 13:24:22.448506 22821 net.cpp:481] conv_d2a-b <- d2a
I0716 13:24:22.448513 22821 net.cpp:455] conv_d2a-b -> d2b
I0716 13:24:22.450086 22821 net.cpp:190] Setting up conv_d2a-b
I0716 13:24:22.450099 22821 net.cpp:197] Top shape: 1 128 128 256 (4194304)
I0716 13:24:22.450103 22821 net.cpp:205] Memory required for data: 752877572
I0716 13:24:22.450109 22821 layer_factory.hpp:123] Creating layer relu_d2b
I0716 13:24:22.450115 22821 net.cpp:140] Creating Layer relu_d2b
I0716 13:24:22.450119 22821 net.cpp:481] relu_d2b <- d2b
I0716 13:24:22.450124 22821 net.cpp:455] relu_d2b -> relu_d2b
I0716 13:24:22.450150 22821 net.cpp:190] Setting up relu_d2b
I0716 13:24:22.450156 22821 net.cpp:197] Top shape: 1 128 128 256 (4194304)
I0716 13:24:22.450160 22821 net.cpp:205] Memory required for data: 769654788
I0716 13:24:22.450163 22821 layer_factory.hpp:123] Creating layer conv_d2b-c
I0716 13:24:22.450173 22821 net.cpp:140] Creating Layer conv_d2b-c
I0716 13:24:22.450177 22821 net.cpp:481] conv_d2b-c <- relu_d2b
I0716 13:24:22.450184 22821 net.cpp:455] conv_d2b-c -> d2c
I0716 13:24:22.451680 22821 net.cpp:190] Setting up conv_d2b-c
I0716 13:24:22.451689 22821 net.cpp:197] Top shape: 1 128 128 256 (4194304)
I0716 13:24:22.451692 22821 net.cpp:205] Memory required for data: 786432004
I0716 13:24:22.451699 22821 layer_factory.hpp:123] Creating layer d2c_conv_d2b-c_0_split
I0716 13:24:22.451707 22821 net.cpp:140] Creating Layer d2c_conv_d2b-c_0_split
I0716 13:24:22.451712 22821 net.cpp:481] d2c_conv_d2b-c_0_split <- d2c
I0716 13:24:22.451719 22821 net.cpp:455] d2c_conv_d2b-c_0_split -> d2c_conv_d2b-c_0_split_0
I0716 13:24:22.451727 22821 net.cpp:455] d2c_conv_d2b-c_0_split -> d2c_conv_d2b-c_0_split_1
I0716 13:24:22.451769 22821 net.cpp:190] Setting up d2c_conv_d2b-c_0_split
I0716 13:24:22.451776 22821 net.cpp:197] Top shape: 1 128 128 256 (4194304)
I0716 13:24:22.451781 22821 net.cpp:197] Top shape: 1 128 128 256 (4194304)
I0716 13:24:22.451783 22821 net.cpp:205] Memory required for data: 819986436
I0716 13:24:22.451787 22821 layer_factory.hpp:123] Creating layer BatchNorm_d2c
I0716 13:24:22.451797 22821 net.cpp:140] Creating Layer BatchNorm_d2c
I0716 13:24:22.451802 22821 net.cpp:481] BatchNorm_d2c <- d2c_conv_d2b-c_0_split_0
I0716 13:24:22.451807 22821 net.cpp:455] BatchNorm_d2c -> BatchNorm_d2c
I0716 13:24:22.452333 22821 net.cpp:190] Setting up BatchNorm_d2c
I0716 13:24:22.452342 22821 net.cpp:197] Top shape: 1 128 128 256 (4194304)
I0716 13:24:22.452344 22821 net.cpp:205] Memory required for data: 836763652
I0716 13:24:22.452353 22821 layer_factory.hpp:123] Creating layer relu_d2c
I0716 13:24:22.452358 22821 net.cpp:140] Creating Layer relu_d2c
I0716 13:24:22.452361 22821 net.cpp:481] relu_d2c <- BatchNorm_d2c
I0716 13:24:22.452365 22821 net.cpp:455] relu_d2c -> relu_d2c
I0716 13:24:22.452383 22821 net.cpp:190] Setting up relu_d2c
I0716 13:24:22.452389 22821 net.cpp:197] Top shape: 1 128 128 256 (4194304)
I0716 13:24:22.452391 22821 net.cpp:205] Memory required for data: 853540868
I0716 13:24:22.452394 22821 layer_factory.hpp:123] Creating layer pool_d2c-3a
I0716 13:24:22.452399 22821 net.cpp:140] Creating Layer pool_d2c-3a
I0716 13:24:22.452402 22821 net.cpp:481] pool_d2c-3a <- relu_d2c
I0716 13:24:22.452407 22821 net.cpp:455] pool_d2c-3a -> d3a
I0716 13:24:22.452440 22821 net.cpp:190] Setting up pool_d2c-3a
I0716 13:24:22.452446 22821 net.cpp:197] Top shape: 1 128 64 128 (1048576)
I0716 13:24:22.452450 22821 net.cpp:205] Memory required for data: 857735172
I0716 13:24:22.452452 22821 layer_factory.hpp:123] Creating layer conv_d3a-b
I0716 13:24:22.452461 22821 net.cpp:140] Creating Layer conv_d3a-b
I0716 13:24:22.452466 22821 net.cpp:481] conv_d3a-b <- d3a
I0716 13:24:22.452472 22821 net.cpp:455] conv_d3a-b -> d3b
I0716 13:24:22.456658 22821 net.cpp:190] Setting up conv_d3a-b
I0716 13:24:22.456670 22821 net.cpp:197] Top shape: 1 256 64 128 (2097152)
I0716 13:24:22.456673 22821 net.cpp:205] Memory required for data: 866123780
I0716 13:24:22.456679 22821 layer_factory.hpp:123] Creating layer relu_d3b
I0716 13:24:22.456686 22821 net.cpp:140] Creating Layer relu_d3b
I0716 13:24:22.456688 22821 net.cpp:481] relu_d3b <- d3b
I0716 13:24:22.456696 22821 net.cpp:455] relu_d3b -> relu_d3b
I0716 13:24:22.456719 22821 net.cpp:190] Setting up relu_d3b
I0716 13:24:22.456727 22821 net.cpp:197] Top shape: 1 256 64 128 (2097152)
I0716 13:24:22.456729 22821 net.cpp:205] Memory required for data: 874512388
I0716 13:24:22.456732 22821 layer_factory.hpp:123] Creating layer conv_d3b-c
I0716 13:24:22.456739 22821 net.cpp:140] Creating Layer conv_d3b-c
I0716 13:24:22.456743 22821 net.cpp:481] conv_d3b-c <- relu_d3b
I0716 13:24:22.456750 22821 net.cpp:455] conv_d3b-c -> d3c
I0716 13:24:22.463596 22821 net.cpp:190] Setting up conv_d3b-c
I0716 13:24:22.463609 22821 net.cpp:197] Top shape: 1 256 64 128 (2097152)
I0716 13:24:22.463613 22821 net.cpp:205] Memory required for data: 882900996
I0716 13:24:22.463620 22821 layer_factory.hpp:123] Creating layer d3c_conv_d3b-c_0_split
I0716 13:24:22.463629 22821 net.cpp:140] Creating Layer d3c_conv_d3b-c_0_split
I0716 13:24:22.463634 22821 net.cpp:481] d3c_conv_d3b-c_0_split <- d3c
I0716 13:24:22.463641 22821 net.cpp:455] d3c_conv_d3b-c_0_split -> d3c_conv_d3b-c_0_split_0
I0716 13:24:22.463651 22821 net.cpp:455] d3c_conv_d3b-c_0_split -> d3c_conv_d3b-c_0_split_1
I0716 13:24:22.463690 22821 net.cpp:190] Setting up d3c_conv_d3b-c_0_split
I0716 13:24:22.463696 22821 net.cpp:197] Top shape: 1 256 64 128 (2097152)
I0716 13:24:22.463701 22821 net.cpp:197] Top shape: 1 256 64 128 (2097152)
I0716 13:24:22.463704 22821 net.cpp:205] Memory required for data: 899678212
I0716 13:24:22.463708 22821 layer_factory.hpp:123] Creating layer BatchNorm_1
I0716 13:24:22.463718 22821 net.cpp:140] Creating Layer BatchNorm_1
I0716 13:24:22.463722 22821 net.cpp:481] BatchNorm_1 <- d3c_conv_d3b-c_0_split_0
I0716 13:24:22.463728 22821 net.cpp:455] BatchNorm_1 -> BatchNorm_1
I0716 13:24:22.464264 22821 net.cpp:190] Setting up BatchNorm_1
I0716 13:24:22.464273 22821 net.cpp:197] Top shape: 1 256 64 128 (2097152)
I0716 13:24:22.464277 22821 net.cpp:205] Memory required for data: 908066820
I0716 13:24:22.464288 22821 layer_factory.hpp:123] Creating layer relu_d3c
I0716 13:24:22.464293 22821 net.cpp:140] Creating Layer relu_d3c
I0716 13:24:22.464296 22821 net.cpp:481] relu_d3c <- BatchNorm_1
I0716 13:24:22.464301 22821 net.cpp:455] relu_d3c -> relu_d3c
I0716 13:24:22.464323 22821 net.cpp:190] Setting up relu_d3c
I0716 13:24:22.464329 22821 net.cpp:197] Top shape: 1 256 64 128 (2097152)
I0716 13:24:22.464332 22821 net.cpp:205] Memory required for data: 916455428
I0716 13:24:22.464335 22821 layer_factory.hpp:123] Creating layer pool_d3c-4a
I0716 13:24:22.464341 22821 net.cpp:140] Creating Layer pool_d3c-4a
I0716 13:24:22.464346 22821 net.cpp:481] pool_d3c-4a <- relu_d3c
I0716 13:24:22.464352 22821 net.cpp:455] pool_d3c-4a -> d4a
I0716 13:24:22.464385 22821 net.cpp:190] Setting up pool_d3c-4a
I0716 13:24:22.464391 22821 net.cpp:197] Top shape: 1 256 32 64 (524288)
I0716 13:24:22.464395 22821 net.cpp:205] Memory required for data: 918552580
I0716 13:24:22.464397 22821 layer_factory.hpp:123] Creating layer conv_d4a-b
I0716 13:24:22.464404 22821 net.cpp:140] Creating Layer conv_d4a-b
I0716 13:24:22.464407 22821 net.cpp:481] conv_d4a-b <- d4a
I0716 13:24:22.464413 22821 net.cpp:455] conv_d4a-b -> d4b
I0716 13:24:22.478438 22821 net.cpp:190] Setting up conv_d4a-b
I0716 13:24:22.478459 22821 net.cpp:197] Top shape: 1 512 32 64 (1048576)
I0716 13:24:22.478463 22821 net.cpp:205] Memory required for data: 922746884
I0716 13:24:22.478471 22821 layer_factory.hpp:123] Creating layer BatchNorm_2
I0716 13:24:22.478485 22821 net.cpp:140] Creating Layer BatchNorm_2
I0716 13:24:22.478492 22821 net.cpp:481] BatchNorm_2 <- d4b
I0716 13:24:22.478502 22821 net.cpp:455] BatchNorm_2 -> BatchNorm_2
I0716 13:24:22.479048 22821 net.cpp:190] Setting up BatchNorm_2
I0716 13:24:22.479056 22821 net.cpp:197] Top shape: 1 512 32 64 (1048576)
I0716 13:24:22.479060 22821 net.cpp:205] Memory required for data: 926941188
I0716 13:24:22.479068 22821 layer_factory.hpp:123] Creating layer relu_d4b
I0716 13:24:22.479074 22821 net.cpp:140] Creating Layer relu_d4b
I0716 13:24:22.479077 22821 net.cpp:481] relu_d4b <- BatchNorm_2
I0716 13:24:22.479084 22821 net.cpp:455] relu_d4b -> relu_d4b
I0716 13:24:22.479104 22821 net.cpp:190] Setting up relu_d4b
I0716 13:24:22.479110 22821 net.cpp:197] Top shape: 1 512 32 64 (1048576)
I0716 13:24:22.479112 22821 net.cpp:205] Memory required for data: 931135492
I0716 13:24:22.479115 22821 layer_factory.hpp:123] Creating layer conv_d4b-c
I0716 13:24:22.479126 22821 net.cpp:140] Creating Layer conv_d4b-c
I0716 13:24:22.479130 22821 net.cpp:481] conv_d4b-c <- relu_d4b
I0716 13:24:22.479138 22821 net.cpp:455] conv_d4b-c -> d4c
I0716 13:24:22.504778 22821 net.cpp:190] Setting up conv_d4b-c
I0716 13:24:22.504801 22821 net.cpp:197] Top shape: 1 512 32 64 (1048576)
I0716 13:24:22.504804 22821 net.cpp:205] Memory required for data: 935329796
I0716 13:24:22.504812 22821 layer_factory.hpp:123] Creating layer relu_d4c
I0716 13:24:22.504822 22821 net.cpp:140] Creating Layer relu_d4c
I0716 13:24:22.504827 22821 net.cpp:481] relu_d4c <- d4c
I0716 13:24:22.504833 22821 net.cpp:455] relu_d4c -> relu_d4c
I0716 13:24:22.504863 22821 net.cpp:190] Setting up relu_d4c
I0716 13:24:22.504870 22821 net.cpp:197] Top shape: 1 512 32 64 (1048576)
I0716 13:24:22.504874 22821 net.cpp:205] Memory required for data: 939524100
I0716 13:24:22.504878 22821 layer_factory.hpp:123] Creating layer upconv_d4c_u3a
I0716 13:24:22.504889 22821 net.cpp:140] Creating Layer upconv_d4c_u3a
I0716 13:24:22.504894 22821 net.cpp:481] upconv_d4c_u3a <- relu_d4c
I0716 13:24:22.504901 22821 net.cpp:455] upconv_d4c_u3a -> u3a
I0716 13:24:22.510982 22821 net.cpp:190] Setting up upconv_d4c_u3a
I0716 13:24:22.510995 22821 net.cpp:197] Top shape: 1 256 64 128 (2097152)
I0716 13:24:22.511000 22821 net.cpp:205] Memory required for data: 947912708
I0716 13:24:22.511009 22821 layer_factory.hpp:123] Creating layer relu_u3a
I0716 13:24:22.511015 22821 net.cpp:140] Creating Layer relu_u3a
I0716 13:24:22.511019 22821 net.cpp:481] relu_u3a <- u3a
I0716 13:24:22.511024 22821 net.cpp:442] relu_u3a -> u3a (in-place)
I0716 13:24:22.511031 22821 net.cpp:190] Setting up relu_u3a
I0716 13:24:22.511035 22821 net.cpp:197] Top shape: 1 256 64 128 (2097152)
I0716 13:24:22.511039 22821 net.cpp:205] Memory required for data: 956301316
I0716 13:24:22.511041 22821 layer_factory.hpp:123] Creating layer concat_d3cc_u3a-b
I0716 13:24:22.511046 22821 net.cpp:140] Creating Layer concat_d3cc_u3a-b
I0716 13:24:22.511049 22821 net.cpp:481] concat_d3cc_u3a-b <- u3a
I0716 13:24:22.511054 22821 net.cpp:481] concat_d3cc_u3a-b <- d3c_conv_d3b-c_0_split_1
I0716 13:24:22.511059 22821 net.cpp:455] concat_d3cc_u3a-b -> u3b
I0716 13:24:22.511082 22821 net.cpp:190] Setting up concat_d3cc_u3a-b
I0716 13:24:22.511088 22821 net.cpp:197] Top shape: 1 512 64 128 (4194304)
I0716 13:24:22.511091 22821 net.cpp:205] Memory required for data: 973078532
I0716 13:24:22.511095 22821 layer_factory.hpp:123] Creating layer conv_u3b-c
I0716 13:24:22.511103 22821 net.cpp:140] Creating Layer conv_u3b-c
I0716 13:24:22.511108 22821 net.cpp:481] conv_u3b-c <- u3b
I0716 13:24:22.511116 22821 net.cpp:455] conv_u3b-c -> u3c
I0716 13:24:22.524550 22821 net.cpp:190] Setting up conv_u3b-c
I0716 13:24:22.524564 22821 net.cpp:197] Top shape: 1 256 64 128 (2097152)
I0716 13:24:22.524569 22821 net.cpp:205] Memory required for data: 981467140
I0716 13:24:22.524574 22821 layer_factory.hpp:123] Creating layer relu_u3c
I0716 13:24:22.524581 22821 net.cpp:140] Creating Layer relu_u3c
I0716 13:24:22.524585 22821 net.cpp:481] relu_u3c <- u3c
I0716 13:24:22.524591 22821 net.cpp:442] relu_u3c -> u3c (in-place)
I0716 13:24:22.524600 22821 net.cpp:190] Setting up relu_u3c
I0716 13:24:22.524603 22821 net.cpp:197] Top shape: 1 256 64 128 (2097152)
I0716 13:24:22.524606 22821 net.cpp:205] Memory required for data: 989855748
I0716 13:24:22.524610 22821 layer_factory.hpp:123] Creating layer conv_u3c-d
I0716 13:24:22.524619 22821 net.cpp:140] Creating Layer conv_u3c-d
I0716 13:24:22.524623 22821 net.cpp:481] conv_u3c-d <- u3c
I0716 13:24:22.524628 22821 net.cpp:455] conv_u3c-d -> u3d
I0716 13:24:22.531461 22821 net.cpp:190] Setting up conv_u3c-d
I0716 13:24:22.531473 22821 net.cpp:197] Top shape: 1 256 64 128 (2097152)
I0716 13:24:22.531476 22821 net.cpp:205] Memory required for data: 998244356
I0716 13:24:22.531482 22821 layer_factory.hpp:123] Creating layer relu_u3d
I0716 13:24:22.531488 22821 net.cpp:140] Creating Layer relu_u3d
I0716 13:24:22.531491 22821 net.cpp:481] relu_u3d <- u3d
I0716 13:24:22.531497 22821 net.cpp:442] relu_u3d -> u3d (in-place)
I0716 13:24:22.531502 22821 net.cpp:190] Setting up relu_u3d
I0716 13:24:22.531507 22821 net.cpp:197] Top shape: 1 256 64 128 (2097152)
I0716 13:24:22.531509 22821 net.cpp:205] Memory required for data: 1006632964
I0716 13:24:22.531512 22821 layer_factory.hpp:123] Creating layer upconv_u3d_u2a
I0716 13:24:22.531520 22821 net.cpp:140] Creating Layer upconv_u3d_u2a
I0716 13:24:22.531525 22821 net.cpp:481] upconv_u3d_u2a <- u3d
I0716 13:24:22.531531 22821 net.cpp:455] upconv_u3d_u2a -> u2a
I0716 13:24:22.532944 22821 net.cpp:190] Setting up upconv_u3d_u2a
I0716 13:24:22.532954 22821 net.cpp:197] Top shape: 1 128 128 256 (4194304)
I0716 13:24:22.532956 22821 net.cpp:205] Memory required for data: 1023410180
I0716 13:24:22.532963 22821 layer_factory.hpp:123] Creating layer relu_u2a
I0716 13:24:22.532968 22821 net.cpp:140] Creating Layer relu_u2a
I0716 13:24:22.532970 22821 net.cpp:481] relu_u2a <- u2a
I0716 13:24:22.532975 22821 net.cpp:442] relu_u2a -> u2a (in-place)
I0716 13:24:22.532980 22821 net.cpp:190] Setting up relu_u2a
I0716 13:24:22.532985 22821 net.cpp:197] Top shape: 1 128 128 256 (4194304)
I0716 13:24:22.532989 22821 net.cpp:205] Memory required for data: 1040187396
I0716 13:24:22.532990 22821 layer_factory.hpp:123] Creating layer concat_d2cc_u2a-b
I0716 13:24:22.532995 22821 net.cpp:140] Creating Layer concat_d2cc_u2a-b
I0716 13:24:22.532999 22821 net.cpp:481] concat_d2cc_u2a-b <- u2a
I0716 13:24:22.533004 22821 net.cpp:481] concat_d2cc_u2a-b <- d2c_conv_d2b-c_0_split_1
I0716 13:24:22.533008 22821 net.cpp:455] concat_d2cc_u2a-b -> u2b
I0716 13:24:22.533030 22821 net.cpp:190] Setting up concat_d2cc_u2a-b
I0716 13:24:22.533037 22821 net.cpp:197] Top shape: 1 256 128 256 (8388608)
I0716 13:24:22.533041 22821 net.cpp:205] Memory required for data: 1073741828
I0716 13:24:22.533042 22821 layer_factory.hpp:123] Creating layer conv_u2b-c
I0716 13:24:22.533049 22821 net.cpp:140] Creating Layer conv_u2b-c
I0716 13:24:22.533053 22821 net.cpp:481] conv_u2b-c <- u2b
I0716 13:24:22.533057 22821 net.cpp:455] conv_u2b-c -> u2c
I0716 13:24:22.537235 22821 net.cpp:190] Setting up conv_u2b-c
I0716 13:24:22.537247 22821 net.cpp:197] Top shape: 1 128 128 256 (4194304)
I0716 13:24:22.537251 22821 net.cpp:205] Memory required for data: 1090519044
I0716 13:24:22.537256 22821 layer_factory.hpp:123] Creating layer relu_u2c
I0716 13:24:22.537262 22821 net.cpp:140] Creating Layer relu_u2c
I0716 13:24:22.537266 22821 net.cpp:481] relu_u2c <- u2c
I0716 13:24:22.537271 22821 net.cpp:442] relu_u2c -> u2c (in-place)
I0716 13:24:22.537277 22821 net.cpp:190] Setting up relu_u2c
I0716 13:24:22.537281 22821 net.cpp:197] Top shape: 1 128 128 256 (4194304)
I0716 13:24:22.537283 22821 net.cpp:205] Memory required for data: 1107296260
I0716 13:24:22.537286 22821 layer_factory.hpp:123] Creating layer conv_u2c-d
I0716 13:24:22.537294 22821 net.cpp:140] Creating Layer conv_u2c-d
I0716 13:24:22.537298 22821 net.cpp:481] conv_u2c-d <- u2c
I0716 13:24:22.537304 22821 net.cpp:455] conv_u2c-d -> u2d
I0716 13:24:22.538820 22821 net.cpp:190] Setting up conv_u2c-d
I0716 13:24:22.538827 22821 net.cpp:197] Top shape: 1 128 128 256 (4194304)
I0716 13:24:22.538830 22821 net.cpp:205] Memory required for data: 1124073476
I0716 13:24:22.538836 22821 layer_factory.hpp:123] Creating layer relu_u2d
I0716 13:24:22.538841 22821 net.cpp:140] Creating Layer relu_u2d
I0716 13:24:22.538844 22821 net.cpp:481] relu_u2d <- u2d
I0716 13:24:22.538848 22821 net.cpp:442] relu_u2d -> u2d (in-place)
I0716 13:24:22.538854 22821 net.cpp:190] Setting up relu_u2d
I0716 13:24:22.538858 22821 net.cpp:197] Top shape: 1 128 128 256 (4194304)
I0716 13:24:22.538861 22821 net.cpp:205] Memory required for data: 1140850692
I0716 13:24:22.538863 22821 layer_factory.hpp:123] Creating layer upconv_u2d_u1a
I0716 13:24:22.538870 22821 net.cpp:140] Creating Layer upconv_u2d_u1a
I0716 13:24:22.538875 22821 net.cpp:481] upconv_u2d_u1a <- u2d
I0716 13:24:22.538882 22821 net.cpp:455] upconv_u2d_u1a -> u1a
I0716 13:24:22.539475 22821 net.cpp:190] Setting up upconv_u2d_u1a
I0716 13:24:22.539484 22821 net.cpp:197] Top shape: 1 64 256 512 (8388608)
I0716 13:24:22.539487 22821 net.cpp:205] Memory required for data: 1174405124
I0716 13:24:22.539492 22821 layer_factory.hpp:123] Creating layer relu_u1a
I0716 13:24:22.539497 22821 net.cpp:140] Creating Layer relu_u1a
I0716 13:24:22.539500 22821 net.cpp:481] relu_u1a <- u1a
I0716 13:24:22.539505 22821 net.cpp:442] relu_u1a -> u1a (in-place)
I0716 13:24:22.539510 22821 net.cpp:190] Setting up relu_u1a
I0716 13:24:22.539513 22821 net.cpp:197] Top shape: 1 64 256 512 (8388608)
I0716 13:24:22.539516 22821 net.cpp:205] Memory required for data: 1207959556
I0716 13:24:22.539520 22821 layer_factory.hpp:123] Creating layer concat_d1cc_u1a-b
I0716 13:24:22.539525 22821 net.cpp:140] Creating Layer concat_d1cc_u1a-b
I0716 13:24:22.539526 22821 net.cpp:481] concat_d1cc_u1a-b <- u1a
I0716 13:24:22.539531 22821 net.cpp:481] concat_d1cc_u1a-b <- d1c_conv_d1b-c_0_split_1
I0716 13:24:22.539539 22821 net.cpp:455] concat_d1cc_u1a-b -> u1b
I0716 13:24:22.539566 22821 net.cpp:190] Setting up concat_d1cc_u1a-b
I0716 13:24:22.539572 22821 net.cpp:197] Top shape: 1 128 256 512 (16777216)
I0716 13:24:22.539574 22821 net.cpp:205] Memory required for data: 1275068420
I0716 13:24:22.539578 22821 layer_factory.hpp:123] Creating layer conv_u1b-c
I0716 13:24:22.539588 22821 net.cpp:140] Creating Layer conv_u1b-c
I0716 13:24:22.539592 22821 net.cpp:481] conv_u1b-c <- u1b
I0716 13:24:22.539599 22821 net.cpp:455] conv_u1b-c -> u1c
I0716 13:24:22.541234 22821 net.cpp:190] Setting up conv_u1b-c
I0716 13:24:22.541246 22821 net.cpp:197] Top shape: 1 64 256 512 (8388608)
I0716 13:24:22.541249 22821 net.cpp:205] Memory required for data: 1308622852
I0716 13:24:22.541255 22821 layer_factory.hpp:123] Creating layer relu_u1c
I0716 13:24:22.541260 22821 net.cpp:140] Creating Layer relu_u1c
I0716 13:24:22.541263 22821 net.cpp:481] relu_u1c <- u1c
I0716 13:24:22.541268 22821 net.cpp:442] relu_u1c -> u1c (in-place)
I0716 13:24:22.541275 22821 net.cpp:190] Setting up relu_u1c
I0716 13:24:22.541280 22821 net.cpp:197] Top shape: 1 64 256 512 (8388608)
I0716 13:24:22.541282 22821 net.cpp:205] Memory required for data: 1342177284
I0716 13:24:22.541285 22821 layer_factory.hpp:123] Creating layer conv_u1c-d
I0716 13:24:22.541293 22821 net.cpp:140] Creating Layer conv_u1c-d
I0716 13:24:22.541297 22821 net.cpp:481] conv_u1c-d <- u1c
I0716 13:24:22.541304 22821 net.cpp:455] conv_u1c-d -> u1d
I0716 13:24:22.541936 22821 net.cpp:190] Setting up conv_u1c-d
I0716 13:24:22.541945 22821 net.cpp:197] Top shape: 1 64 256 512 (8388608)
I0716 13:24:22.541949 22821 net.cpp:205] Memory required for data: 1375731716
I0716 13:24:22.541954 22821 layer_factory.hpp:123] Creating layer relu_u1d
I0716 13:24:22.541959 22821 net.cpp:140] Creating Layer relu_u1d
I0716 13:24:22.541961 22821 net.cpp:481] relu_u1d <- u1d
I0716 13:24:22.541966 22821 net.cpp:442] relu_u1d -> u1d (in-place)
I0716 13:24:22.541971 22821 net.cpp:190] Setting up relu_u1d
I0716 13:24:22.541975 22821 net.cpp:197] Top shape: 1 64 256 512 (8388608)
I0716 13:24:22.541978 22821 net.cpp:205] Memory required for data: 1409286148
I0716 13:24:22.541981 22821 layer_factory.hpp:123] Creating layer upconv_u1d_u0a_NEW
I0716 13:24:22.541988 22821 net.cpp:140] Creating Layer upconv_u1d_u0a_NEW
I0716 13:24:22.541991 22821 net.cpp:481] upconv_u1d_u0a_NEW <- u1d
I0716 13:24:22.541996 22821 net.cpp:455] upconv_u1d_u0a_NEW -> u0a
I0716 13:24:22.543246 22821 net.cpp:190] Setting up upconv_u1d_u0a_NEW
I0716 13:24:22.543256 22821 net.cpp:197] Top shape: 1 32 512 1024 (16777216)
I0716 13:24:22.543259 22821 net.cpp:205] Memory required for data: 1476395012
I0716 13:24:22.543272 22821 layer_factory.hpp:123] Creating layer relu_u0a
I0716 13:24:22.543277 22821 net.cpp:140] Creating Layer relu_u0a
I0716 13:24:22.543282 22821 net.cpp:481] relu_u0a <- u0a
I0716 13:24:22.543285 22821 net.cpp:442] relu_u0a -> u0a (in-place)
I0716 13:24:22.543292 22821 net.cpp:190] Setting up relu_u0a
I0716 13:24:22.543296 22821 net.cpp:197] Top shape: 1 32 512 1024 (16777216)
I0716 13:24:22.543298 22821 net.cpp:205] Memory required for data: 1543503876
I0716 13:24:22.543301 22821 layer_factory.hpp:123] Creating layer concat_d0cc_u0a-b
I0716 13:24:22.543306 22821 net.cpp:140] Creating Layer concat_d0cc_u0a-b
I0716 13:24:22.543309 22821 net.cpp:481] concat_d0cc_u0a-b <- u0a
I0716 13:24:22.543313 22821 net.cpp:481] concat_d0cc_u0a-b <- d0c_conv_d0b-c_0_split_1
I0716 13:24:22.543318 22821 net.cpp:455] concat_d0cc_u0a-b -> u0b
I0716 13:24:22.543344 22821 net.cpp:190] Setting up concat_d0cc_u0a-b
I0716 13:24:22.543350 22821 net.cpp:197] Top shape: 1 64 512 1024 (33554432)
I0716 13:24:22.543354 22821 net.cpp:205] Memory required for data: 1677721604
I0716 13:24:22.543356 22821 layer_factory.hpp:123] Creating layer conv_u0b-c_New
I0716 13:24:22.543364 22821 net.cpp:140] Creating Layer conv_u0b-c_New
I0716 13:24:22.543367 22821 net.cpp:481] conv_u0b-c_New <- u0b
I0716 13:24:22.543372 22821 net.cpp:455] conv_u0b-c_New -> u0c
I0716 13:24:22.544747 22821 net.cpp:190] Setting up conv_u0b-c_New
I0716 13:24:22.544759 22821 net.cpp:197] Top shape: 1 32 512 1024 (16777216)
I0716 13:24:22.544762 22821 net.cpp:205] Memory required for data: 1744830468
I0716 13:24:22.544768 22821 layer_factory.hpp:123] Creating layer relu_u0c
I0716 13:24:22.544775 22821 net.cpp:140] Creating Layer relu_u0c
I0716 13:24:22.544777 22821 net.cpp:481] relu_u0c <- u0c
I0716 13:24:22.544782 22821 net.cpp:442] relu_u0c -> u0c (in-place)
I0716 13:24:22.544788 22821 net.cpp:190] Setting up relu_u0c
I0716 13:24:22.544793 22821 net.cpp:197] Top shape: 1 32 512 1024 (16777216)
I0716 13:24:22.544795 22821 net.cpp:205] Memory required for data: 1811939332
I0716 13:24:22.544798 22821 layer_factory.hpp:123] Creating layer conv_u0c-d_New
I0716 13:24:22.544806 22821 net.cpp:140] Creating Layer conv_u0c-d_New
I0716 13:24:22.544808 22821 net.cpp:481] conv_u0c-d_New <- u0c
I0716 13:24:22.544812 22821 net.cpp:455] conv_u0c-d_New -> u0d
I0716 13:24:22.546075 22821 net.cpp:190] Setting up conv_u0c-d_New
I0716 13:24:22.546087 22821 net.cpp:197] Top shape: 1 32 512 1024 (16777216)
I0716 13:24:22.546090 22821 net.cpp:205] Memory required for data: 1879048196
I0716 13:24:22.546095 22821 layer_factory.hpp:123] Creating layer relu_u0d
I0716 13:24:22.546102 22821 net.cpp:140] Creating Layer relu_u0d
I0716 13:24:22.546104 22821 net.cpp:481] relu_u0d <- u0d
I0716 13:24:22.546109 22821 net.cpp:442] relu_u0d -> u0d (in-place)
I0716 13:24:22.546115 22821 net.cpp:190] Setting up relu_u0d
I0716 13:24:22.546120 22821 net.cpp:197] Top shape: 1 32 512 1024 (16777216)
I0716 13:24:22.546123 22821 net.cpp:205] Memory required for data: 1946157060
I0716 13:24:22.546125 22821 layer_factory.hpp:123] Creating layer conv_u0d-score_New
I0716 13:24:22.546133 22821 net.cpp:140] Creating Layer conv_u0d-score_New
I0716 13:24:22.546135 22821 net.cpp:481] conv_u0d-score_New <- u0d
I0716 13:24:22.546140 22821 net.cpp:455] conv_u0d-score_New -> conv_u0d-score_New
I0716 13:24:22.547353 22821 net.cpp:190] Setting up conv_u0d-score_New
I0716 13:24:22.547364 22821 net.cpp:197] Top shape: 1 19 512 1024 (9961472)
I0716 13:24:22.547367 22821 net.cpp:205] Memory required for data: 1986002948
I0716 13:24:22.547374 22821 layer_factory.hpp:123] Creating layer score
I0716 13:24:22.547379 22821 net.cpp:140] Creating Layer score
I0716 13:24:22.547384 22821 net.cpp:481] score <- conv_u0d-score_New
I0716 13:24:22.547389 22821 net.cpp:455] score -> score
I0716 13:24:22.547459 22821 net.cpp:190] Setting up score
I0716 13:24:22.547466 22821 net.cpp:197] Top shape: 1 19 512 1024 (9961472)
I0716 13:24:22.547468 22821 net.cpp:205] Memory required for data: 2025848836
I0716 13:24:22.547472 22821 net.cpp:268] score does not need backward computation.
I0716 13:24:22.547484 22821 net.cpp:268] conv_u0d-score_New does not need backward computation.
I0716 13:24:22.547487 22821 net.cpp:268] relu_u0d does not need backward computation.
I0716 13:24:22.547490 22821 net.cpp:268] conv_u0c-d_New does not need backward computation.
…
I0716 13:24:22.724017 22821 net.cpp:98] Initializing net from parameters: 
state {
  phase: TRAIN
}
layer {
  name: "data"
  type: "ImageData"
  top: "data"
  top: "label"
  include {
    phase: TRAIN
  }
  transform_param {
    scale: 0.022
    mean_value: 73
    mean_value: 82
    mean_value: 72
    resize_param {
      prob: 1
      resize_mode: WARP
      height: 512
      width: 1024
    }
  }
  image_data_param {
    source: "../data/cityscapes/calibration.txt"
    batch_size: 1
    shuffle: true
    new_height: 512
    new_width: 1024
    root_folder: "../data/cityscapes/calibration_images/"
  }
}
layer {
  name: "data_fixed"
  type: "FixedNeuron"
  bottom: "data"
  top: "data"
  param {
    lr_mult: 0
    decay_mult: 0
  }
  fixed_param {
    fixed_method: OVER_FLOW
    bit_width: 8
    follow_data_layer: true
  }
}
layer {
  name: "conv_d0a-b"
  type: "ConvolutionFixed"
  bottom: "data"
  top: "d0b"
  param {
    lr_mult: 1
    decay_mult: 1
  }
  param {
    lr_mult: 2
    decay_mult: 0
  }
  convolution_param {
    num_output: 32
    pad: 1
    kernel_size: 3
    stride: 1
    weight_filler {
      type: "msra"
    }
  }
  fixed_param {
    fixed_method: DIFF_S
    bit_width: 8
  }
}
layer {
  name: "relu_d0b"
  type: "ReLU"
  bottom: "d0b"
  top: "relu_d0b"
}
layer {
  name: "relu_d0b_fixed"
  type: "FixedNeuron"
  bottom: "relu_d0b"
  top: "relu_d0b"
  param {
    lr_mult: 0
    decay_mult: 0
  }
  fixed_param {
    fixed_method: DIFF_S
    bit_width: 8
  }
}
layer {
  name: "conv_d0b-c"
  type: "ConvolutionFixed"
  bottom: "relu_d0b"
  top: "d0c"
  param {
    lr_mult: 1
    decay_mult: 1
  }
  param {
    lr_mult: 2
    decay_mult: 0
  }
  convolution_param {
    num_output: 32
    pad: 1
    kernel_size: 3
    weight_filler {
      type: "msra"
    }
  }
  fixed_param {
    fixed_method: DIFF_S
    bit_width: 8
  }
}
layer {
  name: "d0c_fixed"
  type: "FixedNeuron"
  bottom: "d0c"
  top: "d0c"
  param {
    lr_mult: 0
    decay_mult: 0
  }
  fixed_param {
    fixed_method: DIFF_S
    bit_width: 8
  }
}
layer {
  name: "BatchNorm_d0c"
  type: "ScaleFixed"
  bottom: "d0c"
  top: "BatchNorm_d0c"
  param {
    lr_mult: 1
    decay_mult: 1
  }
  param {
    lr_mult: 1
    decay_mult: 0
  }
  scale_param {
    bias_term: true
  }
  fixed_param {
    fixed_method: DIFF_S
    bit_width: 8
  }
}
layer {
  name: "relu_d0c"
  type: "ReLU"
  bottom: "BatchNorm_d0c"
  top: "relu_d0c"
}
layer {
  name: "pool_d0c-1a"
  type: "Pooling"
  bottom: "relu_d0c"
  top: "d1a"
  pooling_param {
    pool: MAX
    kernel_size: 2
    stride: 2
  }
}
layer {
  name: "d1a_fixed"
  type: "FixedNeuron"
  bottom: "d1a"
  top: "d1a"
  param {
    lr_mult: 0
    decay_mult: 0
  }
  fixed_param {
    fixed_method: DIFF_S
    bit_width: 8
  }
}
layer {
  name: "conv_d1a-b"
  type: "ConvolutionFixed"
  bottom: "d1a"
  top: "d1b"
  param {
    lr_mult: 1
    decay_mult: 1
  }
  param {
    lr_mult: 2
    decay_mult: 0
  }
  convolution_param {
    num_output: 64
    pad: 1
    kernel_size: 3
    weight_filler {
      type: "msra"
    }
  }
  fixed_param {
    fixed_method: DIFF_S
    bit_width: 8
  }
}
layer {
  name: "relu_d1b"
  type: "ReLU"
  bottom: "d1b"
  top: "relu_d1b"
}
layer {
  name: "relu_d1b_fixed"
  type: "FixedNeuron"
  bottom: "relu_d1b"
  top: "relu_d1b"
  param {
    lr_mult: 0
    decay_mult: 0
  }
  fixed_param {
    fixed_method: DIFF_S
    bit_width: 8
  }
}
layer {
  name: "conv_d1b-c"
  type: "ConvolutionFixed"
  bottom: "relu_d1b"
  top: "d1c"
  param {
    lr_mult: 1
    decay_mult: 1
  }
  param {
    lr_mult: 2
    decay_mult: 0
  }
  convolution_param {
    num_output: 64
    pad: 1
    kernel_size: 3
    weight_filler {
      type: "msra"
    }
  }
  fixed_param {
    fixed_method: DIFF_S
    bit_width: 8
  }
}
layer {
  name: "d1c_fixed"
  type: "FixedNeuron"
  bottom: "d1c"
  top: "d1c"
  param {
    lr_mult: 0
    decay_mult: 0
  }
  fixed_param {
    fixed_method: DIFF_S
    bit_width: 8
  }
}
layer {
  name: "BatchNorm_d1c"
  type: "ScaleFixed"
  bottom: "d1c"
  top: "BatchNorm_d1c"
  param {
    lr_mult: 1
    decay_mult: 1
  }
  param {
    lr_mult: 1
    decay_mult: 0
  }
  scale_param {
    bias_term: true
  }
  fixed_param {
    fixed_method: DIFF_S
    bit_width: 8
  }
}
layer {
  name: "relu_d1c"
  type: "ReLU"
  bottom: "BatchNorm_d1c"
  top: "relu_d1c"
}
layer {
  name: "pool_d1c-2a"
  type: "Pooling"
  bottom: "relu_d1c"
  top: "d2a"
  pooling_param {
    pool: MAX
    kernel_size: 2
    stride: 2
  }
}
layer {
  name: "d2a_fixed"
  type: "FixedNeuron"
  bottom: "d2a"
  top: "d2a"
  param {
    lr_mult: 0
    decay_mult: 0
  }
  fixed_param {
    fixed_method: DIFF_S
    bit_width: 8
  }
}
layer {
  name: "conv_d2a-b"
  type: "ConvolutionFixed"
  bottom: "d2a"
  top: "d2b"
  param {
    lr_mult: 1
    decay_mult: 1
  }
  param {
    lr_mult: 2
    decay_mult: 0
  }
  convolution_param {
    num_output: 128
    pad: 1
    kernel_size: 3
    weight_filler {
      type: "msra"
    }
  }
  fixed_param {
    fixed_method: DIFF_S
    bit_width: 8
  }
}
layer {
  name: "relu_d2b"
  type: "ReLU"
  bottom: "d2b"
  top: "relu_d2b"
}
layer {
  name: "relu_d2b_fixed"
  type: "FixedNeuron"
  bottom: "relu_d2b"
  top: "relu_d2b"
  param {
    lr_mult: 0
    decay_mult: 0
  }
  fixed_param {
    fixed_method: DIFF_S
    bit_width: 8
  }
}
layer {
  name: "conv_d2b-c"
  type: "ConvolutionFixed"
  bottom: "relu_d2b"
  top: "d2c"
  param {
    lr_mult: 1
    decay_mult: 1
  }
  param {
    lr_mult: 2
    decay_mult: 0
  }
  convolution_param {
    num_output: 128
    pad: 1
    kernel_size: 3
    weight_filler {
      type: "msra"
    }
  }
  fixed_param {
    fixed_method: DIFF_S
    bit_width: 8
  }
}
layer {
  name: "d2c_fixed"
  type: "FixedNeuron"
  bottom: "d2c"
  top: "d2c"
  param {
    lr_mult: 0
    decay_mult: 0
  }
  fixed_param {
    fixed_method: DIFF_S
    bit_width: 8
  }
}
layer {
  name: "BatchNorm_d2c"
  type: "ScaleFixed"
  bottom: "d2c"
  top: "BatchNorm_d2c"
  param {
    lr_mult: 1
    decay_mult: 1
  }
  param {
    lr_mult: 1
    decay_mult: 0
  }
  scale_param {
    bias_term: true
  }
  fixed_param {
    fixed_method: DIFF_S
    bit_width: 8
  }
}
layer {
  name: "relu_d2c"
  type: "ReLU"
  bottom: "BatchNorm_d2c"
  top: "relu_d2c"
}
layer {
  name: "pool_d2c-3a"
  type: "Pooling"
  bottom: "relu_d2c"
  top: "d3a"
  pooling_param {
    pool: MAX
    kernel_size: 2
    stride: 2
  }
}
layer {
  name: "d3a_fixed"
  type: "FixedNeuron"
  bottom: "d3a"
  top: "d3a"
  param {
    lr_mult: 0
    decay_mult: 0
  }
  fixed_param {
    fixed_method: DIFF_S
    bit_width: 8
  }
}
layer {
  name: "conv_d3a-b"
  type: "ConvolutionFixed"
  bottom: "d3a"
  top: "d3b"
  param {
    lr_mult: 1
    decay_mult: 1
  }
  param {
    lr_mult: 2
    decay_mult: 0
  }
  convolution_param {
    num_output: 256
    pad: 1
    kernel_size: 3
    weight_filler {
      type: "msra"
    }
  }
  fixed_param {
    fixed_method: DIFF_S
    bit_width: 8
  }
}
layer {
  name: "relu_d3b"
  type: "ReLU"
  bottom: "d3b"
  top: "relu_d3b"
}
layer {
  name: "relu_d3b_fixed"
  type: "FixedNeuron"
  bottom: "relu_d3b"
  top: "relu_d3b"
  param {
    lr_mult: 0
    decay_mult: 0
  }
  fixed_param {
    fixed_method: DIFF_S
    bit_width: 8
  }
}
layer {
  name: "conv_d3b-c"
  type: "ConvolutionFixed"
  bottom: "relu_d3b"
  top: "d3c"
  param {
    lr_mult: 1
    decay_mult: 1
  }
  param {
    lr_mult: 2
    decay_mult: 0
  }
  convolution_param {
    num_output: 256
    pad: 1
    kernel_size: 3
    weight_filler {
      type: "msra"
    }
  }
  fixed_param {
    fixed_method: DIFF_S
    bit_width: 8
  }
}
layer {
  name: "d3c_fixed"
  type: "FixedNeuron"
  bottom: "d3c"
  top: "d3c"
  param {
    lr_mult: 0
    decay_mult: 0
  }
  fixed_param {
    fixed_method: DIFF_S
    bit_width: 8
  }
}
layer {
  name: "BatchNorm_1"
  type: "ScaleFixed"
  bottom: "d3c"
  top: "BatchNorm_1"
  param {
    lr_mult: 1
    decay_mult: 1
  }
  param {
    lr_mult: 1
    decay_mult: 0
  }
  scale_param {
    bias_term: true
  }
  fixed_param {
    fixed_method: DIFF_S
    bit_width: 8
  }
}
layer {
  name: "relu_d3c"
  type: "ReLU"
  bottom: "BatchNorm_1"
  top: "relu_d3c"
}
layer {
  name: "pool_d3c-4a"
  type: "Pooling"
  bottom: "relu_d3c"
  top: "d4a"
  pooling_param {
    pool: MAX
    kernel_size: 2
    stride: 2
  }
}
layer {
  name: "d4a_fixed"
  type: "FixedNeuron"
  bottom: "d4a"
  top: "d4a"
  param {
    lr_mult: 0
    decay_mult: 0
  }
  fixed_param {
    fixed_method: DIFF_S
    bit_width: 8
  }
}
layer {
  name: "conv_d4a-b"
  type: "ConvolutionFixed"
  bottom: "d4a"
  top: "BatchNorm_2"
  param {
    lr_mult: 1
    decay_mult: 1
  }
  param {
    lr_mult: 1
    decay_mult: 0
  }
  convolution_param {
    num_output: 512
    bias_term: true
    pad: 1
    kernel_size: 3
    weight_filler {
      type: "msra"
    }
  }
  fixed_param {
    fixed_method: DIFF_S
    bit_width: 8
  }
}
layer {
  name: "relu_d4b"
  type: "ReLU"
  bottom: "BatchNorm_2"
  top: "relu_d4b"
}
layer {
  name: "relu_d4b_fixed"
  type: "FixedNeuron"
  bottom: "relu_d4b"
  top: "relu_d4b"
  param {
    lr_mult: 0
    decay_mult: 0
  }
  fixed_param {
    fixed_method: DIFF_S
    bit_width: 8
  }
}
layer {
  name: "conv_d4b-c"
  type: "ConvolutionFixed"
  bottom: "relu_d4b"
  top: "d4c"
  param {
    lr_mult: 1
    decay_mult: 1
  }
  param {
    lr_mult: 2
    decay_mult: 0
  }
  convolution_param {
    num_output: 512
    pad: 1
    kernel_size: 3
    weight_filler {
      type: "msra"
    }
  }
  fixed_param {
    fixed_method: DIFF_S
    bit_width: 8
  }
}
layer {
  name: "relu_d4c"
  type: "ReLU"
  bottom: "d4c"
  top: "relu_d4c"
}
layer {
  name: "relu_d4c_fixed"
  type: "FixedNeuron"
  bottom: "relu_d4c"
  top: "relu_d4c"
  param {
    lr_mult: 0
    decay_mult: 0
  }
  fixed_param {
    fixed_method: DIFF_S
    bit_width: 8
  }
}
layer {
  name: "upconv_d4c_u3a"
  type: "DeconvolutionFixed"
  bottom: "relu_d4c"
  top: "u3a"
  param {
    lr_mult: 1
    decay_mult: 1
  }
  param {
    lr_mult: 2
    decay_mult: 0
  }
  convolution_param {
    num_output: 256
    pad: 0
    kernel_size: 2
    stride: 2
    weight_filler {
      type: "msra"
    }
  }
  fixed_param {
    fixed_method: DIFF_S
    bit_width: 8
  }
}
layer {
  name: "relu_u3a"
  type: "ReLU"
  bottom: "u3a"
  top: "u3a"
}
layer {
  name: "concat_d3cc_u3a-b"
  type: "Concat"
  bottom: "u3a"
  bottom: "d3c"
  top: "u3b"
}
layer {
  name: "u3b_fixed"
  type: "FixedNeuron"
  bottom: "u3b"
  top: "u3b"
  param {
    lr_mult: 0
    decay_mult: 0
  }
  fixed_param {
    fixed_method: DIFF_S
    bit_width: 8
  }
}
layer {
  name: "conv_u3b-c"
  type: "ConvolutionFixed"
  bottom: "u3b"
  top: "u3c"
  param {
    lr_mult: 1
    decay_mult: 1
  }
  param {
    lr_mult: 2
    decay_mult: 0
  }
  convolution_param {
    num_output: 256
    pad: 1
    kernel_size: 3
    weight_filler {
      type: "msra"
    }
  }
  fixed_param {
    fixed_method: DIFF_S
    bit_width: 8
  }
}
layer {
  name: "relu_u3c"
  type: "ReLU"
  bottom: "u3c"
  top: "u3c"
}
layer {
  name: "u3c_fixed"
  type: "FixedNeuron"
  bottom: "u3c"
  top: "u3c"
  param {
    lr_mult: 0
    decay_mult: 0
  }
  fixed_param {
    fixed_method: DIFF_S
    bit_width: 8
  }
}
layer {
  name: "conv_u3c-d"
  type: "ConvolutionFixed"
  bottom: "u3c"
  top: "u3d"
  param {
    lr_mult: 1
    decay_mult: 1
  }
  param {
    lr_mult: 2
    decay_mult: 0
  }
  convolution_param {
    num_output: 256
    pad: 1
    kernel_size: 3
    weight_filler {
      type: "msra"
    }
  }
  fixed_param {
    fixed_method: DIFF_S
    bit_width: 8
  }
}
layer {
  name: "relu_u3d"
  type: "ReLU"
  bottom: "u3d"
  top: "u3d"
}
layer {
  name: "u3d_fixed"
  type: "FixedNeuron"
  bottom: "u3d"
  top: "u3d"
  param {
    lr_mult: 0
    decay_mult: 0
  }
  fixed_param {
    fixed_method: DIFF_S
    bit_width: 8
  }
}
layer {
  name: "upconv_u3d_u2a"
  type: "DeconvolutionFixed"
  bottom: "u3d"
  top: "u2a"
  param {
    lr_mult: 1
    decay_mult: 1
  }
  param {
    lr_mult: 2
    decay_mult: 0
  }
  convolution_param {
    num_output: 128
    pad: 0
    kernel_size: 2
    stride: 2
    weight_filler {
      type: "msra"
    }
  }
  fixed_param {
    fixed_method: DIFF_S
    bit_width: 8
  }
}
layer {
  name: "relu_u2a"
  type: "ReLU"
  bottom: "u2a"
  top: "u2a"
}
layer {
  name: "concat_d2cc_u2a-b"
  type: "Concat"
  bottom: "u2a"
  bottom: "d2c"
  top: "u2b"
}
layer {
  name: "u2b_fixed"
  type: "FixedNeuron"
  bottom: "u2b"
  top: "u2b"
  param {
    lr_mult: 0
    decay_mult: 0
  }
  fixed_param {
    fixed_method: DIFF_S
    bit_width: 8
  }
}
layer {
  name: "conv_u2b-c"
  type: "ConvolutionFixed"
  bottom: "u2b"
  top: "u2c"
  param {
    lr_mult: 1
    decay_mult: 1
  }
  param {
    lr_mult: 2
    decay_mult: 0
  }
  convolution_param {
    num_output: 128
    pad: 1
    kernel_size: 3
    weight_filler {
      type: "msra"
    }
  }
  fixed_param {
    fixed_method: DIFF_S
    bit_width: 8
  }
}
layer {
  name: "relu_u2c"
  type: "ReLU"
  bottom: "u2c"
  top: "u2c"
}
layer {
  name: "u2c_fixed"
  type: "FixedNeuron"
  bottom: "u2c"
  top: "u2c"
  param {
    lr_mult: 0
    decay_mult: 0
  }
  fixed_param {
    fixed_method: DIFF_S
    bit_width: 8
  }
}
layer {
  name: "conv_u2c-d"
  type: "ConvolutionFixed"
  bottom: "u2c"
  top: "u2d"
  param {
    lr_mult: 1
    decay_mult: 1
  }
  param {
    lr_mult: 2
    decay_mult: 0
  }
  convolution_param {
    num_output: 128
    pad: 1
    kernel_size: 3
    weight_filler {
      type: "msra"
    }
  }
  fixed_param {
    fixed_method: DIFF_S
    bit_width: 8
  }
}
layer {
  name: "relu_u2d"
  type: "ReLU"
  bottom: "u2d"
  top: "u2d"
}
layer {
  name: "u2d_fixed"
  type: "FixedNeuron"
  bottom: "u2d"
  top: "u2d"
  param {
    lr_mult: 0
    decay_mult: 0
  }
  fixed_param {
    fixed_method: DIFF_S
    bit_width: 8
  }
}
layer {
  name: "upconv_u2d_u1a"
  type: "DeconvolutionFixed"
  bottom: "u2d"
  top: "u1a"
  param {
    lr_mult: 1
    decay_mult: 1
  }
  param {
    lr_mult: 2
    decay_mult: 0
  }
  convolution_param {
    num_output: 64
    pad: 0
    kernel_size: 2
    stride: 2
    weight_filler {
      type: "msra"
    }
  }
  fixed_param {
    fixed_method: DIFF_S
    bit_width: 8
  }
}
layer {
  name: "relu_u1a"
  type: "ReLU"
  bottom: "u1a"
  top: "u1a"
}
layer {
  name: "concat_d1cc_u1a-b"
  type: "Concat"
  bottom: "u1a"
  bottom: "d1c"
  top: "u1b"
}
layer {
  name: "u1b_fixed"
  type: "FixedNeuron"
  bottom: "u1b"
  top: "u1b"
  param {
    lr_mult: 0
    decay_mult: 0
  }
  fixed_param {
    fixed_method: DIFF_S
    bit_width: 8
  }
}
layer {
  name: "conv_u1b-c"
  type: "ConvolutionFixed"
  bottom: "u1b"
  top: "u1c"
  param {
    lr_mult: 1
    decay_mult: 1
  }
  param {
    lr_mult: 2
    decay_mult: 0
  }
  convolution_param {
    num_output: 64
    pad: 1
    kernel_size: 3
    weight_filler {
      type: "msra"
    }
  }
  fixed_param {
    fixed_method: DIFF_S
    bit_width: 8
  }
}
layer {
  name: "relu_u1c"
  type: "ReLU"
  bottom: "u1c"
  top: "u1c"
}
layer {
  name: "u1c_fixed"
  type: "FixedNeuron"
  bottom: "u1c"
  top: "u1c"
  param {
    lr_mult: 0
    decay_mult: 0
  }
  fixed_param {
    fixed_method: DIFF_S
    bit_width: 8
  }
}
layer {
  name: "conv_u1c-d"
  type: "ConvolutionFixed"
  bottom: "u1c"
  top: "u1d"
  param {
    lr_mult: 1
    decay_mult: 1
  }
  param {
    lr_mult: 2
    decay_mult: 0
  }
  convolution_param {
    num_output: 64
    pad: 1
    kernel_size: 3
    weight_filler {
      type: "msra"
    }
  }
  fixed_param {
    fixed_method: DIFF_S
    bit_width: 8
  }
}
layer {
  name: "relu_u1d"
  type: "ReLU"
  bottom: "u1d"
  top: "u1d"
}
layer {
  name: "u1d_fixed"
  type: "FixedNeuron"
  bottom: "u1d"
  top: "u1d"
  param {
    lr_mult: 0
    decay_mult: 0
  }
  fixed_param {
    fixed_method: DIFF_S
    bit_width: 8
  }
}
layer {
  name: "upconv_u1d_u0a_NEW"
  type: "DeconvolutionFixed"
  bottom: "u1d"
  top: "u0a"
  param {
    lr_mult: 1
    decay_mult: 1
  }
  param {
    lr_mult: 2
    decay_mult: 0
  }
  convolution_param {
    num_output: 32
    pad: 0
    kernel_size: 2
    stride: 2
    weight_filler {
      type: "msra"
    }
  }
  fixed_param {
    fixed_method: DIFF_S
    bit_width: 8
  }
}
layer {
  name: "relu_u0a"
  type: "ReLU"
  bottom: "u0a"
  top: "u0a"
}
layer {
  name: "concat_d0cc_u0a-b"
  type: "Concat"
  bottom: "u0a"
  bottom: "d0c"
  top: "u0b"
}
layer {
  name: "u0b_fixed"
  type: "FixedNeuron"
  bottom: "u0b"
  top: "u0b"
  param {
    lr_mult: 0
    decay_mult: 0
  }
  fixed_param {
    fixed_method: DIFF_S
    bit_width: 8
  }
}
layer {
  name: "conv_u0b-c_New"
  type: "ConvolutionFixed"
  bottom: "u0b"
  top: "u0c"
  param {
    lr_mult: 1
    decay_mult: 1
  }
  param {
    lr_mult: 2
    decay_mult: 0
  }
  convolution_param {
    num_output: 32
    pad: 1
    kernel_size: 3
    weight_filler {
      type: "msra"
    }
  }
  fixed_param {
    fixed_method: DIFF_S
    bit_width: 8
  }
}
layer {
  name: "relu_u0c"
  type: "ReLU"
  bottom: "u0c"
  top: "u0c"
}
layer {
  name: "u0c_fixed"
  type: "FixedNeuron"
  bottom: "u0c"
  top: "u0c"
  param {
    lr_mult: 0
    decay_mult: 0
  }
  fixed_param {
    fixed_method: DIFF_S
    bit_width: 8
  }
}
layer {
  name: "conv_u0c-d_New"
  type: "ConvolutionFixed"
  bottom: "u0c"
  top: "u0d"
  param {
    lr_mult: 1
    decay_mult: 1
  }
  param {
    lr_mult: 2
    decay_mult: 0
  }
  convolution_param {
    num_output: 32
    pad: 1
    kernel_size: 3
    weight_filler {
      type: "msra"
    }
  }
  fixed_param {
    fixed_method: DIFF_S
    bit_width: 8
  }
}
layer {
  name: "relu_u0d"
  type: "ReLU"
  bottom: "u0d"
  top: "u0d"
}
layer {
  name: "u0d_fixed"
  type: "FixedNeuron"
  bottom: "u0d"
  top: "u0d"
  param {
    lr_mult: 0
    decay_mult: 0
  }
  fixed_param {
    fixed_method: DIFF_S
    bit_width: 8
  }
}
layer {
  name: "conv_u0d-score_New"
  type: "ConvolutionFixed"
  bottom: "u0d"
  top: "conv_u0d-score_New"
  param {
    lr_mult: 1
    decay_mult: 1
  }
  param {
    lr_mult: 2
    decay_mult: 0
  }
  convolution_param {
    num_output: 19
    pad: 0
    kernel_size: 1
    weight_filler {
      type: "msra"
    }
  }
  fixed_param {
    fixed_method: DIFF_S
    bit_width: 8
  }
}
layer {
  name: "conv_u0d-score_New_fixed"
  type: "FixedNeuron"
  bottom: "conv_u0d-score_New"
  top: "conv_u0d-score_New"
  param {
    lr_mult: 0
    decay_mult: 0
  }
  fixed_param {
    fixed_method: DIFF_S
    bit_width: 8
  }
}
layer {
  name: "score"
  type: "Softmax"
  bottom: "conv_u0d-score_New"
  top: "score"
}
I0716 13:24:22.724222 22821 layer_factory.hpp:123] Creating layer data
I0716 13:24:22.724237 22821 net.cpp:140] Creating Layer data
I0716 13:24:22.724243 22821 net.cpp:455] data -> data
I0716 13:24:22.724252 22821 net.cpp:455] data -> label
I0716 13:24:22.724261 22821 image_data_layer.cpp:87] Opening file ../data/cityscapes/calibration.txt
I0716 13:24:22.724488 22821 image_data_layer.cpp:97] Shuffling data
I0716 13:24:22.724509 22821 image_data_layer.cpp:102] A total of 1000 images.
I0716 13:24:22.794307 22821 image_data_layer.cpp:130] output data size: 1,3,512,1024
I0716 13:24:22.828691 22821 internal_thread.cpp:73] Starting internal thread(s) on GPU 1
I0716 13:24:22.828799 22821 net.cpp:190] Setting up data
I0716 13:24:22.828809 22821 net.cpp:197] Top shape: 1 3 512 1024 (1572864)
I0716 13:24:22.828814 22821 net.cpp:197] Top shape: 1 (1)
I0716 13:24:22.828817 22821 net.cpp:205] Memory required for data: 6291460
I0716 13:24:22.828824 22821 layer_factory.hpp:123] Creating layer data_fixed
I0716 13:24:22.828835 22821 net.cpp:140] Creating Layer data_fixed
I0716 13:24:22.828840 22821 net.cpp:481] data_fixed <- data
I0716 13:24:22.828846 22821 net.cpp:442] data_fixed -> data (in-place)
I0716 13:24:22.828899 22821 net.cpp:190] Setting up data_fixed
I0716 13:24:22.828907 22821 net.cpp:197] Top shape: 1 3 512 1024 (1572864)
I0716 13:24:22.828909 22821 net.cpp:205] Memory required for data: 12582916
I0716 13:24:22.828917 22821 layer_factory.hpp:123] Creating layer conv_d0a-b
I0716 13:24:22.828929 22821 net.cpp:140] Creating Layer conv_d0a-b
I0716 13:24:22.828933 22821 net.cpp:481] conv_d0a-b <- data
I0716 13:24:22.828938 22821 net.cpp:455] conv_d0a-b -> d0b
I0716 13:24:22.829241 22821 layer_factory.hpp:123] Creating layer conv_d0a-b
I0716 13:24:22.831631 22821 net.cpp:190] Setting up conv_d0a-b
I0716 13:24:22.831643 22821 net.cpp:197] Top shape: 1 32 512 1024 (16777216)
I0716 13:24:22.831647 22821 net.cpp:205] Memory required for data: 79691780
I0716 13:24:22.831655 22821 layer_factory.hpp:123] Creating layer relu_d0b
I0716 13:24:22.831662 22821 net.cpp:140] Creating Layer relu_d0b
I0716 13:24:22.831665 22821 net.cpp:481] relu_d0b <- d0b
I0716 13:24:22.831670 22821 net.cpp:455] relu_d0b -> relu_d0b
I0716 13:24:22.831995 22821 net.cpp:190] Setting up relu_d0b
I0716 13:24:22.832003 22821 net.cpp:197] Top shape: 1 32 512 1024 (16777216)
I0716 13:24:22.832006 22821 net.cpp:205] Memory required for data: 146800644
I0716 13:24:22.832010 22821 layer_factory.hpp:123] Creating layer relu_d0b_fixed
I0716 13:24:22.832015 22821 net.cpp:140] Creating Layer relu_d0b_fixed
I0716 13:24:22.832018 22821 net.cpp:481] relu_d0b_fixed <- relu_d0b
I0716 13:24:22.832023 22821 net.cpp:442] relu_d0b_fixed -> relu_d0b (in-place)
I0716 13:24:22.832181 22821 net.cpp:190] Setting up relu_d0b_fixed
I0716 13:24:22.832188 22821 net.cpp:197] Top shape: 1 32 512 1024 (16777216)
I0716 13:24:22.832191 22821 net.cpp:205] Memory required for data: 213909508
I0716 13:24:22.832196 22821 layer_factory.hpp:123] Creating layer conv_d0b-c
I0716 13:24:22.832203 22821 net.cpp:140] Creating Layer conv_d0b-c
I0716 13:24:22.832206 22821 net.cpp:481] conv_d0b-c <- relu_d0b
I0716 13:24:22.832212 22821 net.cpp:455] conv_d0b-c -> d0c
I0716 13:24:22.832563 22821 layer_factory.hpp:123] Creating layer conv_d0b-c
I0716 13:24:22.835026 22821 net.cpp:190] Setting up conv_d0b-c
I0716 13:24:22.835037 22821 net.cpp:197] Top shape: 1 32 512 1024 (16777216)
I0716 13:24:22.835041 22821 net.cpp:205] Memory required for data: 281018372
I0716 13:24:22.835048 22821 layer_factory.hpp:123] Creating layer d0c_fixed
I0716 13:24:22.835054 22821 net.cpp:140] Creating Layer d0c_fixed
I0716 13:24:22.835057 22821 net.cpp:481] d0c_fixed <- d0c
I0716 13:24:22.835062 22821 net.cpp:442] d0c_fixed -> d0c (in-place)
I0716 13:24:22.835103 22821 net.cpp:190] Setting up d0c_fixed
I0716 13:24:22.835111 22821 net.cpp:197] Top shape: 1 32 512 1024 (16777216)
I0716 13:24:22.835114 22821 net.cpp:205] Memory required for data: 348127236
I0716 13:24:22.835119 22821 layer_factory.hpp:123] Creating layer d0c_d0c_fixed_0_split
I0716 13:24:22.835124 22821 net.cpp:140] Creating Layer d0c_d0c_fixed_0_split
I0716 13:24:22.835127 22821 net.cpp:481] d0c_d0c_fixed_0_split <- d0c
I0716 13:24:22.835131 22821 net.cpp:455] d0c_d0c_fixed_0_split -> d0c_d0c_fixed_0_split_0
I0716 13:24:22.835139 22821 net.cpp:455] d0c_d0c_fixed_0_split -> d0c_d0c_fixed_0_split_1
I0716 13:24:22.835172 22821 net.cpp:190] Setting up d0c_d0c_fixed_0_split
I0716 13:24:22.835178 22821 net.cpp:197] Top shape: 1 32 512 1024 (16777216)
I0716 13:24:22.835182 22821 net.cpp:197] Top shape: 1 32 512 1024 (16777216)
I0716 13:24:22.835186 22821 net.cpp:205] Memory required for data: 482344964
I0716 13:24:22.835188 22821 layer_factory.hpp:123] Creating layer BatchNorm_d0c
I0716 13:24:22.835196 22821 net.cpp:140] Creating Layer BatchNorm_d0c
I0716 13:24:22.835199 22821 net.cpp:481] BatchNorm_d0c <- d0c_d0c_fixed_0_split_0
I0716 13:24:22.835203 22821 net.cpp:455] BatchNorm_d0c -> BatchNorm_d0c
I0716 13:24:22.835242 22821 layer_factory.hpp:123] Creating layer BatchNorm_d0c
I0716 13:24:22.836304 22821 layer_factory.hpp:123] Creating layer BatchNorm_d0c
I0716 13:24:22.836354 22821 layer_factory.hpp:123] Creating layer BatchNorm_d0c
I0716 13:24:22.839371 22821 net.cpp:190] Setting up BatchNorm_d0c
I0716 13:24:22.839383 22821 net.cpp:197] Top shape: 1 32 512 1024 (16777216)
I0716 13:24:22.839386 22821 net.cpp:205] Memory required for data: 549453828
I0716 13:24:22.839395 22821 layer_factory.hpp:123] Creating layer relu_d0c
I0716 13:24:22.839401 22821 net.cpp:140] Creating Layer relu_d0c
I0716 13:24:22.839403 22821 net.cpp:481] relu_d0c <- BatchNorm_d0c
I0716 13:24:22.839408 22821 net.cpp:455] relu_d0c -> relu_d0c
I0716 13:24:22.839439 22821 net.cpp:190] Setting up relu_d0c
I0716 13:24:22.839444 22821 net.cpp:197] Top shape: 1 32 512 1024 (16777216)
I0716 13:24:22.839447 22821 net.cpp:205] Memory required for data: 616562692
I0716 13:24:22.839450 22821 layer_factory.hpp:123] Creating layer pool_d0c-1a
I0716 13:24:22.839457 22821 net.cpp:140] Creating Layer pool_d0c-1a
I0716 13:24:22.839459 22821 net.cpp:481] pool_d0c-1a <- relu_d0c
I0716 13:24:22.839463 22821 net.cpp:455] pool_d0c-1a -> d1a
I0716 13:24:22.839498 22821 net.cpp:190] Setting up pool_d0c-1a
I0716 13:24:22.839505 22821 net.cpp:197] Top shape: 1 32 256 512 (4194304)
I0716 13:24:22.839509 22821 net.cpp:205] Memory required for data: 633339908
I0716 13:24:22.839511 22821 layer_factory.hpp:123] Creating layer d1a_fixed
I0716 13:24:22.839515 22821 net.cpp:140] Creating Layer d1a_fixed
I0716 13:24:22.839519 22821 net.cpp:481] d1a_fixed <- d1a
I0716 13:24:22.839524 22821 net.cpp:442] d1a_fixed -> d1a (in-place)
I0716 13:24:22.839556 22821 net.cpp:190] Setting up d1a_fixed
I0716 13:24:22.839562 22821 net.cpp:197] Top shape: 1 32 256 512 (4194304)
I0716 13:24:22.839565 22821 net.cpp:205] Memory required for data: 650117124
I0716 13:24:22.839570 22821 layer_factory.hpp:123] Creating layer conv_d1a-b
I0716 13:24:22.839577 22821 net.cpp:140] Creating Layer conv_d1a-b
I0716 13:24:22.839581 22821 net.cpp:481] conv_d1a-b <- d1a
I0716 13:24:22.839586 22821 net.cpp:455] conv_d1a-b -> d1b
I0716 13:24:22.839942 22821 layer_factory.hpp:123] Creating layer conv_d1a-b
I0716 13:24:22.841286 22821 net.cpp:190] Setting up conv_d1a-b
I0716 13:24:22.841297 22821 net.cpp:197] Top shape: 1 64 256 512 (8388608)
I0716 13:24:22.841300 22821 net.cpp:205] Memory required for data: 683671556
I0716 13:24:22.841307 22821 layer_factory.hpp:123] Creating layer relu_d1b
I0716 13:24:22.841312 22821 net.cpp:140] Creating Layer relu_d1b
I0716 13:24:22.841315 22821 net.cpp:481] relu_d1b <- d1b
I0716 13:24:22.841320 22821 net.cpp:455] relu_d1b -> relu_d1b
I0716 13:24:22.841346 22821 net.cpp:190] Setting up relu_d1b
I0716 13:24:22.841351 22821 net.cpp:197] Top shape: 1 64 256 512 (8388608)
I0716 13:24:22.841353 22821 net.cpp:205] Memory required for data: 717225988
I0716 13:24:22.841356 22821 layer_factory.hpp:123] Creating layer relu_d1b_fixed
I0716 13:24:22.841362 22821 net.cpp:140] Creating Layer relu_d1b_fixed
I0716 13:24:22.841365 22821 net.cpp:481] relu_d1b_fixed <- relu_d1b
I0716 13:24:22.841369 22821 net.cpp:442] relu_d1b_fixed -> relu_d1b (in-place)
I0716 13:24:22.841401 22821 net.cpp:190] Setting up relu_d1b_fixed
I0716 13:24:22.841406 22821 net.cpp:197] Top shape: 1 64 256 512 (8388608)
I0716 13:24:22.841409 22821 net.cpp:205] Memory required for data: 750780420
I0716 13:24:22.841413 22821 layer_factory.hpp:123] Creating layer conv_d1b-c
I0716 13:24:22.841420 22821 net.cpp:140] Creating Layer conv_d1b-c
I0716 13:24:22.841423 22821 net.cpp:481] conv_d1b-c <- relu_d1b
I0716 13:24:22.841429 22821 net.cpp:455] conv_d1b-c -> d1c
I0716 13:24:22.841922 22821 layer_factory.hpp:123] Creating layer conv_d1b-c
I0716 13:24:22.843386 22821 net.cpp:190] Setting up conv_d1b-c
I0716 13:24:22.843400 22821 net.cpp:197] Top shape: 1 64 256 512 (8388608)
I0716 13:24:22.843401 22821 net.cpp:205] Memory required for data: 784334852
I0716 13:24:22.843407 22821 layer_factory.hpp:123] Creating layer d1c_fixed
I0716 13:24:22.843413 22821 net.cpp:140] Creating Layer d1c_fixed
I0716 13:24:22.843417 22821 net.cpp:481] d1c_fixed <- d1c
I0716 13:24:22.843422 22821 net.cpp:442] d1c_fixed -> d1c (in-place)
I0716 13:24:22.843458 22821 net.cpp:190] Setting up d1c_fixed
I0716 13:24:22.843463 22821 net.cpp:197] Top shape: 1 64 256 512 (8388608)
I0716 13:24:22.843466 22821 net.cpp:205] Memory required for data: 817889284
I0716 13:24:22.843469 22821 layer_factory.hpp:123] Creating layer d1c_d1c_fixed_0_split
I0716 13:24:22.843475 22821 net.cpp:140] Creating Layer d1c_d1c_fixed_0_split
I0716 13:24:22.843478 22821 net.cpp:481] d1c_d1c_fixed_0_split <- d1c
I0716 13:24:22.843482 22821 net.cpp:455] d1c_d1c_fixed_0_split -> d1c_d1c_fixed_0_split_0
I0716 13:24:22.843489 22821 net.cpp:455] d1c_d1c_fixed_0_split -> d1c_d1c_fixed_0_split_1
I0716 13:24:22.843521 22821 net.cpp:190] Setting up d1c_d1c_fixed_0_split
I0716 13:24:22.843525 22821 net.cpp:197] Top shape: 1 64 256 512 (8388608)
I0716 13:24:22.843529 22821 net.cpp:197] Top shape: 1 64 256 512 (8388608)
I0716 13:24:22.843533 22821 net.cpp:205] Memory required for data: 884998148
I0716 13:24:22.843535 22821 layer_factory.hpp:123] Creating layer BatchNorm_d1c
I0716 13:24:22.843540 22821 net.cpp:140] Creating Layer BatchNorm_d1c
I0716 13:24:22.843544 22821 net.cpp:481] BatchNorm_d1c <- d1c_d1c_fixed_0_split_0
I0716 13:24:22.843549 22821 net.cpp:455] BatchNorm_d1c -> BatchNorm_d1c
I0716 13:24:22.843585 22821 layer_factory.hpp:123] Creating layer BatchNorm_d1c
I0716 13:24:22.843720 22821 layer_factory.hpp:123] Creating layer BatchNorm_d1c
I0716 13:24:22.843768 22821 layer_factory.hpp:123] Creating layer BatchNorm_d1c
I0716 13:24:22.844789 22821 net.cpp:190] Setting up BatchNorm_d1c
I0716 13:24:22.844801 22821 net.cpp:197] Top shape: 1 64 256 512 (8388608)
I0716 13:24:22.844805 22821 net.cpp:205] Memory required for data: 918552580
I0716 13:24:22.844813 22821 layer_factory.hpp:123] Creating layer relu_d1c
I0716 13:24:22.844820 22821 net.cpp:140] Creating Layer relu_d1c
I0716 13:24:22.844822 22821 net.cpp:481] relu_d1c <- BatchNorm_d1c
I0716 13:24:22.844827 22821 net.cpp:455] relu_d1c -> relu_d1c
I0716 13:24:22.844854 22821 net.cpp:190] Setting up relu_d1c
I0716 13:24:22.844859 22821 net.cpp:197] Top shape: 1 64 256 512 (8388608)
I0716 13:24:22.844862 22821 net.cpp:205] Memory required for data: 952107012
I0716 13:24:22.844866 22821 layer_factory.hpp:123] Creating layer pool_d1c-2a
I0716 13:24:22.844871 22821 net.cpp:140] Creating Layer pool_d1c-2a
I0716 13:24:22.844873 22821 net.cpp:481] pool_d1c-2a <- relu_d1c
I0716 13:24:22.844877 22821 net.cpp:455] pool_d1c-2a -> d2a
I0716 13:24:22.844911 22821 net.cpp:190] Setting up pool_d1c-2a
I0716 13:24:22.844918 22821 net.cpp:197] Top shape: 1 64 128 256 (2097152)
I0716 13:24:22.844920 22821 net.cpp:205] Memory required for data: 960495620
I0716 13:24:22.844923 22821 layer_factory.hpp:123] Creating layer d2a_fixed
I0716 13:24:22.844928 22821 net.cpp:140] Creating Layer d2a_fixed
I0716 13:24:22.844931 22821 net.cpp:481] d2a_fixed <- d2a
I0716 13:24:22.844935 22821 net.cpp:442] d2a_fixed -> d2a (in-place)
I0716 13:24:22.844967 22821 net.cpp:190] Setting up d2a_fixed
I0716 13:24:22.844974 22821 net.cpp:197] Top shape: 1 64 128 256 (2097152)
I0716 13:24:22.844976 22821 net.cpp:205] Memory required for data: 968884228
I0716 13:24:22.844980 22821 layer_factory.hpp:123] Creating layer conv_d2a-b
I0716 13:24:22.844988 22821 net.cpp:140] Creating Layer conv_d2a-b
I0716 13:24:22.844991 22821 net.cpp:481] conv_d2a-b <- d2a
I0716 13:24:22.844996 22821 net.cpp:455] conv_d2a-b -> d2b
I0716 13:24:22.845816 22821 layer_factory.hpp:123] Creating layer conv_d2a-b
I0716 13:24:22.846819 22821 net.cpp:190] Setting up conv_d2a-b
I0716 13:24:22.846828 22821 net.cpp:197] Top shape: 1 128 128 256 (4194304)
I0716 13:24:22.846832 22821 net.cpp:205] Memory required for data: 985661444
I0716 13:24:22.846837 22821 layer_factory.hpp:123] Creating layer relu_d2b
I0716 13:24:22.846841 22821 net.cpp:140] Creating Layer relu_d2b
I0716 13:24:22.846845 22821 net.cpp:481] relu_d2b <- d2b
I0716 13:24:22.846850 22821 net.cpp:455] relu_d2b -> relu_d2b
I0716 13:24:22.846875 22821 net.cpp:190] Setting up relu_d2b
I0716 13:24:22.846881 22821 net.cpp:197] Top shape: 1 128 128 256 (4194304)
I0716 13:24:22.846884 22821 net.cpp:205] Memory required for data: 1002438660
I0716 13:24:22.846887 22821 layer_factory.hpp:123] Creating layer relu_d2b_fixed
I0716 13:24:22.846894 22821 net.cpp:140] Creating Layer relu_d2b_fixed
I0716 13:24:22.846896 22821 net.cpp:481] relu_d2b_fixed <- relu_d2b
I0716 13:24:22.846900 22821 net.cpp:442] relu_d2b_fixed -> relu_d2b (in-place)
I0716 13:24:22.846932 22821 net.cpp:190] Setting up relu_d2b_fixed
I0716 13:24:22.846938 22821 net.cpp:197] Top shape: 1 128 128 256 (4194304)
I0716 13:24:22.846941 22821 net.cpp:205] Memory required for data: 1019215876
I0716 13:24:22.846946 22821 layer_factory.hpp:123] Creating layer conv_d2b-c
I0716 13:24:22.846952 22821 net.cpp:140] Creating Layer conv_d2b-c
I0716 13:24:22.846956 22821 net.cpp:481] conv_d2b-c <- relu_d2b
I0716 13:24:22.846961 22821 net.cpp:455] conv_d2b-c -> d2c
I0716 13:24:22.849138 22821 layer_factory.hpp:123] Creating layer conv_d2b-c
I0716 13:24:22.851475 22821 net.cpp:190] Setting up conv_d2b-c
I0716 13:24:22.851488 22821 net.cpp:197] Top shape: 1 128 128 256 (4194304)
I0716 13:24:22.851491 22821 net.cpp:205] Memory required for data: 1035993092
I0716 13:24:22.851497 22821 layer_factory.hpp:123] Creating layer d2c_fixed
I0716 13:24:22.851503 22821 net.cpp:140] Creating Layer d2c_fixed
I0716 13:24:22.851506 22821 net.cpp:481] d2c_fixed <- d2c
I0716 13:24:22.851511 22821 net.cpp:442] d2c_fixed -> d2c (in-place)
I0716 13:24:22.851548 22821 net.cpp:190] Setting up d2c_fixed
I0716 13:24:22.851555 22821 net.cpp:197] Top shape: 1 128 128 256 (4194304)
I0716 13:24:22.851558 22821 net.cpp:205] Memory required for data: 1052770308
I0716 13:24:22.851562 22821 layer_factory.hpp:123] Creating layer d2c_d2c_fixed_0_split
I0716 13:24:22.851567 22821 net.cpp:140] Creating Layer d2c_d2c_fixed_0_split
I0716 13:24:22.851570 22821 net.cpp:481] d2c_d2c_fixed_0_split <- d2c
I0716 13:24:22.851575 22821 net.cpp:455] d2c_d2c_fixed_0_split -> d2c_d2c_fixed_0_split_0
I0716 13:24:22.851581 22821 net.cpp:455] d2c_d2c_fixed_0_split -> d2c_d2c_fixed_0_split_1
I0716 13:24:22.851615 22821 net.cpp:190] Setting up d2c_d2c_fixed_0_split
I0716 13:24:22.851621 22821 net.cpp:197] Top shape: 1 128 128 256 (4194304)
I0716 13:24:22.851625 22821 net.cpp:197] Top shape: 1 128 128 256 (4194304)
I0716 13:24:22.851627 22821 net.cpp:205] Memory required for data: 1086324740
I0716 13:24:22.851630 22821 layer_factory.hpp:123] Creating layer BatchNorm_d2c
I0716 13:24:22.851636 22821 net.cpp:140] Creating Layer BatchNorm_d2c
I0716 13:24:22.851639 22821 net.cpp:481] BatchNorm_d2c <- d2c_d2c_fixed_0_split_0
I0716 13:24:22.851644 22821 net.cpp:455] BatchNorm_d2c -> BatchNorm_d2c
I0716 13:24:22.851680 22821 layer_factory.hpp:123] Creating layer BatchNorm_d2c
I0716 13:24:22.851763 22821 layer_factory.hpp:123] Creating layer BatchNorm_d2c
I0716 13:24:22.851801 22821 layer_factory.hpp:123] Creating layer BatchNorm_d2c
I0716 13:24:22.851965 22821 net.cpp:190] Setting up BatchNorm_d2c
I0716 13:24:22.851974 22821 net.cpp:197] Top shape: 1 128 128 256 (4194304)
I0716 13:24:22.851976 22821 net.cpp:205] Memory required for data: 1103101956
I0716 13:24:22.851981 22821 layer_factory.hpp:123] Creating layer relu_d2c
I0716 13:24:22.851987 22821 net.cpp:140] Creating Layer relu_d2c
I0716 13:24:22.851990 22821 net.cpp:481] relu_d2c <- BatchNorm_d2c
I0716 13:24:22.851995 22821 net.cpp:455] relu_d2c -> relu_d2c
I0716 13:24:22.852020 22821 net.cpp:190] Setting up relu_d2c
I0716 13:24:22.852026 22821 net.cpp:197] Top shape: 1 128 128 256 (4194304)
I0716 13:24:22.852030 22821 net.cpp:205] Memory required for data: 1119879172
I0716 13:24:22.852032 22821 layer_factory.hpp:123] Creating layer pool_d2c-3a
I0716 13:24:22.852037 22821 net.cpp:140] Creating Layer pool_d2c-3a
I0716 13:24:22.852041 22821 net.cpp:481] pool_d2c-3a <- relu_d2c
I0716 13:24:22.852046 22821 net.cpp:455] pool_d2c-3a -> d3a
I0716 13:24:22.852077 22821 net.cpp:190] Setting up pool_d2c-3a
I0716 13:24:22.852083 22821 net.cpp:197] Top shape: 1 128 64 128 (1048576)
I0716 13:24:22.852087 22821 net.cpp:205] Memory required for data: 1124073476
I0716 13:24:22.852089 22821 layer_factory.hpp:123] Creating layer d3a_fixed
I0716 13:24:22.852094 22821 net.cpp:140] Creating Layer d3a_fixed
I0716 13:24:22.852097 22821 net.cpp:481] d3a_fixed <- d3a
I0716 13:24:22.852102 22821 net.cpp:442] d3a_fixed -> d3a (in-place)
I0716 13:24:22.852134 22821 net.cpp:190] Setting up d3a_fixed
I0716 13:24:22.852140 22821 net.cpp:197] Top shape: 1 128 64 128 (1048576)
I0716 13:24:22.852144 22821 net.cpp:205] Memory required for data: 1128267780
I0716 13:24:22.852147 22821 layer_factory.hpp:123] Creating layer conv_d3a-b
I0716 13:24:22.852156 22821 net.cpp:140] Creating Layer conv_d3a-b
I0716 13:24:22.852159 22821 net.cpp:481] conv_d3a-b <- d3a
I0716 13:24:22.852164 22821 net.cpp:455] conv_d3a-b -> d3b
I0716 13:24:22.855640 22821 layer_factory.hpp:123] Creating layer conv_d3a-b
I0716 13:24:22.860035 22821 net.cpp:190] Setting up conv_d3a-b
I0716 13:24:22.860049 22821 net.cpp:197] Top shape: 1 256 64 128 (2097152)
I0716 13:24:22.860051 22821 net.cpp:205] Memory required for data: 1136656388
I0716 13:24:22.860057 22821 layer_factory.hpp:123] Creating layer relu_d3b
I0716 13:24:22.860062 22821 net.cpp:140] Creating Layer relu_d3b
I0716 13:24:22.860066 22821 net.cpp:481] relu_d3b <- d3b
I0716 13:24:22.860071 22821 net.cpp:455] relu_d3b -> relu_d3b
I0716 13:24:22.860097 22821 net.cpp:190] Setting up relu_d3b
I0716 13:24:22.860103 22821 net.cpp:197] Top shape: 1 256 64 128 (2097152)
I0716 13:24:22.860107 22821 net.cpp:205] Memory required for data: 1145044996
I0716 13:24:22.860110 22821 layer_factory.hpp:123] Creating layer relu_d3b_fixed
I0716 13:24:22.860116 22821 net.cpp:140] Creating Layer relu_d3b_fixed
I0716 13:24:22.860118 22821 net.cpp:481] relu_d3b_fixed <- relu_d3b
I0716 13:24:22.860122 22821 net.cpp:442] relu_d3b_fixed -> relu_d3b (in-place)
I0716 13:24:22.860157 22821 net.cpp:190] Setting up relu_d3b_fixed
I0716 13:24:22.860162 22821 net.cpp:197] Top shape: 1 256 64 128 (2097152)
I0716 13:24:22.860165 22821 net.cpp:205] Memory required for data: 1153433604
I0716 13:24:22.860169 22821 layer_factory.hpp:123] Creating layer conv_d3b-c
I0716 13:24:22.860177 22821 net.cpp:140] Creating Layer conv_d3b-c
I0716 13:24:22.860180 22821 net.cpp:481] conv_d3b-c <- relu_d3b
I0716 13:24:22.860185 22821 net.cpp:455] conv_d3b-c -> d3c
I0716 13:24:22.867097 22821 layer_factory.hpp:123] Creating layer conv_d3b-c
I0716 13:24:22.874166 22821 net.cpp:190] Setting up conv_d3b-c
I0716 13:24:22.874178 22821 net.cpp:197] Top shape: 1 256 64 128 (2097152)
I0716 13:24:22.874181 22821 net.cpp:205] Memory required for data: 1161822212
I0716 13:24:22.874191 22821 layer_factory.hpp:123] Creating layer d3c_fixed
I0716 13:24:22.874197 22821 net.cpp:140] Creating Layer d3c_fixed
I0716 13:24:22.874200 22821 net.cpp:481] d3c_fixed <- d3c
I0716 13:24:22.874205 22821 net.cpp:442] d3c_fixed -> d3c (in-place)
I0716 13:24:22.874243 22821 net.cpp:190] Setting up d3c_fixed
I0716 13:24:22.874248 22821 net.cpp:197] Top shape: 1 256 64 128 (2097152)
I0716 13:24:22.874251 22821 net.cpp:205] Memory required for data: 1170210820
I0716 13:24:22.874255 22821 layer_factory.hpp:123] Creating layer d3c_d3c_fixed_0_split
I0716 13:24:22.874260 22821 net.cpp:140] Creating Layer d3c_d3c_fixed_0_split
I0716 13:24:22.874264 22821 net.cpp:481] d3c_d3c_fixed_0_split <- d3c
I0716 13:24:22.874267 22821 net.cpp:455] d3c_d3c_fixed_0_split -> d3c_d3c_fixed_0_split_0
I0716 13:24:22.874274 22821 net.cpp:455] d3c_d3c_fixed_0_split -> d3c_d3c_fixed_0_split_1
I0716 13:24:22.874308 22821 net.cpp:190] Setting up d3c_d3c_fixed_0_split
I0716 13:24:22.874315 22821 net.cpp:197] Top shape: 1 256 64 128 (2097152)
I0716 13:24:22.874318 22821 net.cpp:197] Top shape: 1 256 64 128 (2097152)
I0716 13:24:22.874321 22821 net.cpp:205] Memory required for data: 1186988036
I0716 13:24:22.874325 22821 layer_factory.hpp:123] Creating layer BatchNorm_1
I0716 13:24:22.874330 22821 net.cpp:140] Creating Layer BatchNorm_1
I0716 13:24:22.874334 22821 net.cpp:481] BatchNorm_1 <- d3c_d3c_fixed_0_split_0
I0716 13:24:22.874339 22821 net.cpp:455] BatchNorm_1 -> BatchNorm_1
I0716 13:24:22.874377 22821 layer_factory.hpp:123] Creating layer BatchNorm_1
I0716 13:24:22.874449 22821 layer_factory.hpp:123] Creating layer BatchNorm_1
I0716 13:24:22.874486 22821 layer_factory.hpp:123] Creating layer BatchNorm_1
I0716 13:24:22.874615 22821 net.cpp:190] Setting up BatchNorm_1
I0716 13:24:22.874622 22821 net.cpp:197] Top shape: 1 256 64 128 (2097152)
I0716 13:24:22.874625 22821 net.cpp:205] Memory required for data: 1195376644
I0716 13:24:22.874631 22821 layer_factory.hpp:123] Creating layer relu_d3c
I0716 13:24:22.874635 22821 net.cpp:140] Creating Layer relu_d3c
I0716 13:24:22.874639 22821 net.cpp:481] relu_d3c <- BatchNorm_1
I0716 13:24:22.874644 22821 net.cpp:455] relu_d3c -> relu_d3c
I0716 13:24:22.874668 22821 net.cpp:190] Setting up relu_d3c
I0716 13:24:22.874675 22821 net.cpp:197] Top shape: 1 256 64 128 (2097152)
I0716 13:24:22.874678 22821 net.cpp:205] Memory required for data: 1203765252
I0716 13:24:22.874681 22821 layer_factory.hpp:123] Creating layer pool_d3c-4a
I0716 13:24:22.874686 22821 net.cpp:140] Creating Layer pool_d3c-4a
I0716 13:24:22.874691 22821 net.cpp:481] pool_d3c-4a <- relu_d3c
I0716 13:24:22.874696 22821 net.cpp:455] pool_d3c-4a -> d4a
I0716 13:24:22.874729 22821 net.cpp:190] Setting up pool_d3c-4a
I0716 13:24:22.874735 22821 net.cpp:197] Top shape: 1 256 32 64 (524288)
I0716 13:24:22.874738 22821 net.cpp:205] Memory required for data: 1205862404
I0716 13:24:22.874742 22821 layer_factory.hpp:123] Creating layer d4a_fixed
I0716 13:24:22.874747 22821 net.cpp:140] Creating Layer d4a_fixed
I0716 13:24:22.874749 22821 net.cpp:481] d4a_fixed <- d4a
I0716 13:24:22.874753 22821 net.cpp:442] d4a_fixed -> d4a (in-place)
I0716 13:24:22.874785 22821 net.cpp:190] Setting up d4a_fixed
I0716 13:24:22.874791 22821 net.cpp:197] Top shape: 1 256 32 64 (524288)
I0716 13:24:22.874794 22821 net.cpp:205] Memory required for data: 1207959556
I0716 13:24:22.874799 22821 layer_factory.hpp:123] Creating layer conv_d4a-b
I0716 13:24:22.874805 22821 net.cpp:140] Creating Layer conv_d4a-b
I0716 13:24:22.874809 22821 net.cpp:481] conv_d4a-b <- d4a
I0716 13:24:22.874814 22821 net.cpp:455] conv_d4a-b -> BatchNorm_2
I0716 13:24:22.888298 22821 layer_factory.hpp:123] Creating layer conv_d4a-b
I0716 13:24:22.901823 22821 net.cpp:190] Setting up conv_d4a-b
I0716 13:24:22.901839 22821 net.cpp:197] Top shape: 1 512 32 64 (1048576)
I0716 13:24:22.901842 22821 net.cpp:205] Memory required for data: 1212153860
I0716 13:24:22.901849 22821 layer_factory.hpp:123] Creating layer relu_d4b
I0716 13:24:22.901857 22821 net.cpp:140] Creating Layer relu_d4b
I0716 13:24:22.901861 22821 net.cpp:481] relu_d4b <- BatchNorm_2
I0716 13:24:22.901867 22821 net.cpp:455] relu_d4b -> relu_d4b
I0716 13:24:22.901895 22821 net.cpp:190] Setting up relu_d4b
I0716 13:24:22.901901 22821 net.cpp:197] Top shape: 1 512 32 64 (1048576)
I0716 13:24:22.901904 22821 net.cpp:205] Memory required for data: 1216348164
I0716 13:24:22.901907 22821 layer_factory.hpp:123] Creating layer relu_d4b_fixed
I0716 13:24:22.901912 22821 net.cpp:140] Creating Layer relu_d4b_fixed
I0716 13:24:22.901916 22821 net.cpp:481] relu_d4b_fixed <- relu_d4b
I0716 13:24:22.901921 22821 net.cpp:442] relu_d4b_fixed -> relu_d4b (in-place)
I0716 13:24:22.901955 22821 net.cpp:190] Setting up relu_d4b_fixed
I0716 13:24:22.901962 22821 net.cpp:197] Top shape: 1 512 32 64 (1048576)
I0716 13:24:22.901965 22821 net.cpp:205] Memory required for data: 1220542468
I0716 13:24:22.901969 22821 layer_factory.hpp:123] Creating layer conv_d4b-c
I0716 13:24:22.901978 22821 net.cpp:140] Creating Layer conv_d4b-c
I0716 13:24:22.901980 22821 net.cpp:481] conv_d4b-c <- relu_d4b
I0716 13:24:22.901986 22821 net.cpp:455] conv_d4b-c -> d4c
I0716 13:24:22.933290 22821 layer_factory.hpp:123] Creating layer conv_d4b-c
I0716 13:24:22.961894 22821 net.cpp:190] Setting up conv_d4b-c
I0716 13:24:22.961912 22821 net.cpp:197] Top shape: 1 512 32 64 (1048576)
I0716 13:24:22.961916 22821 net.cpp:205] Memory required for data: 1224736772
I0716 13:24:22.961925 22821 layer_factory.hpp:123] Creating layer relu_d4c
I0716 13:24:22.961932 22821 net.cpp:140] Creating Layer relu_d4c
I0716 13:24:22.961937 22821 net.cpp:481] relu_d4c <- d4c
I0716 13:24:22.961944 22821 net.cpp:455] relu_d4c -> relu_d4c
I0716 13:24:22.961973 22821 net.cpp:190] Setting up relu_d4c
I0716 13:24:22.961977 22821 net.cpp:197] Top shape: 1 512 32 64 (1048576)
I0716 13:24:22.961980 22821 net.cpp:205] Memory required for data: 1228931076
I0716 13:24:22.961984 22821 layer_factory.hpp:123] Creating layer relu_d4c_fixed
I0716 13:24:22.961989 22821 net.cpp:140] Creating Layer relu_d4c_fixed
I0716 13:24:22.961992 22821 net.cpp:481] relu_d4c_fixed <- relu_d4c
I0716 13:24:22.961997 22821 net.cpp:442] relu_d4c_fixed -> relu_d4c (in-place)
I0716 13:24:22.962033 22821 net.cpp:190] Setting up relu_d4c_fixed
I0716 13:24:22.962038 22821 net.cpp:197] Top shape: 1 512 32 64 (1048576)
I0716 13:24:22.962040 22821 net.cpp:205] Memory required for data: 1233125380
I0716 13:24:22.962044 22821 layer_factory.hpp:123] Creating layer upconv_d4c_u3a
I0716 13:24:22.962051 22821 net.cpp:140] Creating Layer upconv_d4c_u3a
I0716 13:24:22.962054 22821 net.cpp:481] upconv_d4c_u3a <- relu_d4c
I0716 13:24:22.962059 22821 net.cpp:455] upconv_d4c_u3a -> u3a
I0716 13:24:22.968349 22821 layer_factory.hpp:123] Creating layer upconv_d4c_u3a
I0716 13:24:22.976284 22821 net.cpp:190] Setting up upconv_d4c_u3a
I0716 13:24:22.976299 22821 net.cpp:197] Top shape: 1 256 64 128 (2097152)
I0716 13:24:22.976301 22821 net.cpp:205] Memory required for data: 1241513988
I0716 13:24:22.976308 22821 layer_factory.hpp:123] Creating layer relu_u3a
I0716 13:24:22.976315 22821 net.cpp:140] Creating Layer relu_u3a
I0716 13:24:22.976320 22821 net.cpp:481] relu_u3a <- u3a
I0716 13:24:22.976325 22821 net.cpp:442] relu_u3a -> u3a (in-place)
I0716 13:24:22.976334 22821 net.cpp:190] Setting up relu_u3a
I0716 13:24:22.976338 22821 net.cpp:197] Top shape: 1 256 64 128 (2097152)
I0716 13:24:22.976341 22821 net.cpp:205] Memory required for data: 1249902596
I0716 13:24:22.976344 22821 layer_factory.hpp:123] Creating layer concat_d3cc_u3a-b
I0716 13:24:22.976351 22821 net.cpp:140] Creating Layer concat_d3cc_u3a-b
I0716 13:24:22.976353 22821 net.cpp:481] concat_d3cc_u3a-b <- u3a
I0716 13:24:22.976357 22821 net.cpp:481] concat_d3cc_u3a-b <- d3c_d3c_fixed_0_split_1
I0716 13:24:22.976362 22821 net.cpp:455] concat_d3cc_u3a-b -> u3b
I0716 13:24:22.976390 22821 net.cpp:190] Setting up concat_d3cc_u3a-b
I0716 13:24:22.976395 22821 net.cpp:197] Top shape: 1 512 64 128 (4194304)
I0716 13:24:22.976398 22821 net.cpp:205] Memory required for data: 1266679812
I0716 13:24:22.976400 22821 layer_factory.hpp:123] Creating layer u3b_fixed
I0716 13:24:22.976406 22821 net.cpp:140] Creating Layer u3b_fixed
I0716 13:24:22.976409 22821 net.cpp:481] u3b_fixed <- u3b
I0716 13:24:22.976413 22821 net.cpp:442] u3b_fixed -> u3b (in-place)
I0716 13:24:22.976449 22821 net.cpp:190] Setting up u3b_fixed
I0716 13:24:22.976455 22821 net.cpp:197] Top shape: 1 512 64 128 (4194304)
I0716 13:24:22.976459 22821 net.cpp:205] Memory required for data: 1283457028
I0716 13:24:22.976464 22821 layer_factory.hpp:123] Creating layer conv_u3b-c
I0716 13:24:22.976471 22821 net.cpp:140] Creating Layer conv_u3b-c
I0716 13:24:22.976475 22821 net.cpp:481] conv_u3b-c <- u3b
I0716 13:24:22.976480 22821 net.cpp:455] conv_u3b-c -> u3c
I0716 13:24:22.989843 22821 layer_factory.hpp:123] Creating layer conv_u3b-c
I0716 13:24:23.003691 22821 net.cpp:190] Setting up conv_u3b-c
I0716 13:24:23.003711 22821 net.cpp:197] Top shape: 1 256 64 128 (2097152)
I0716 13:24:23.003715 22821 net.cpp:205] Memory required for data: 1291845636
I0716 13:24:23.003723 22821 layer_factory.hpp:123] Creating layer relu_u3c
I0716 13:24:23.003731 22821 net.cpp:140] Creating Layer relu_u3c
I0716 13:24:23.003736 22821 net.cpp:481] relu_u3c <- u3c
I0716 13:24:23.003743 22821 net.cpp:442] relu_u3c -> u3c (in-place)
I0716 13:24:23.003751 22821 net.cpp:190] Setting up relu_u3c
I0716 13:24:23.003762 22821 net.cpp:197] Top shape: 1 256 64 128 (2097152)
I0716 13:24:23.003765 22821 net.cpp:205] Memory required for data: 1300234244
I0716 13:24:23.003768 22821 layer_factory.hpp:123] Creating layer u3c_fixed
I0716 13:24:23.003774 22821 net.cpp:140] Creating Layer u3c_fixed
I0716 13:24:23.003777 22821 net.cpp:481] u3c_fixed <- u3c
I0716 13:24:23.003782 22821 net.cpp:442] u3c_fixed -> u3c (in-place)
I0716 13:24:23.003821 22821 net.cpp:190] Setting up u3c_fixed
I0716 13:24:23.003827 22821 net.cpp:197] Top shape: 1 256 64 128 (2097152)
I0716 13:24:23.003830 22821 net.cpp:205] Memory required for data: 1308622852
I0716 13:24:23.003834 22821 layer_factory.hpp:123] Creating layer conv_u3c-d
I0716 13:24:23.003844 22821 net.cpp:140] Creating Layer conv_u3c-d
I0716 13:24:23.003846 22821 net.cpp:481] conv_u3c-d <- u3c
I0716 13:24:23.003851 22821 net.cpp:455] conv_u3c-d -> u3d
I0716 13:24:23.012490 22821 layer_factory.hpp:123] Creating layer conv_u3c-d
I0716 13:24:23.019618 22821 net.cpp:190] Setting up conv_u3c-d
I0716 13:24:23.019634 22821 net.cpp:197] Top shape: 1 256 64 128 (2097152)
I0716 13:24:23.019637 22821 net.cpp:205] Memory required for data: 1317011460
I0716 13:24:23.019645 22821 layer_factory.hpp:123] Creating layer relu_u3d
I0716 13:24:23.019654 22821 net.cpp:140] Creating Layer relu_u3d
I0716 13:24:23.019659 22821 net.cpp:481] relu_u3d <- u3d
I0716 13:24:23.019665 22821 net.cpp:442] relu_u3d -> u3d (in-place)
I0716 13:24:23.019675 22821 net.cpp:190] Setting up relu_u3d
I0716 13:24:23.019680 22821 net.cpp:197] Top shape: 1 256 64 128 (2097152)
I0716 13:24:23.019682 22821 net.cpp:205] Memory required for data: 1325400068
I0716 13:24:23.019685 22821 layer_factory.hpp:123] Creating layer u3d_fixed
I0716 13:24:23.019690 22821 net.cpp:140] Creating Layer u3d_fixed
I0716 13:24:23.019695 22821 net.cpp:481] u3d_fixed <- u3d
I0716 13:24:23.019698 22821 net.cpp:442] u3d_fixed -> u3d (in-place)
I0716 13:24:23.019737 22821 net.cpp:190] Setting up u3d_fixed
I0716 13:24:23.019742 22821 net.cpp:197] Top shape: 1 256 64 128 (2097152)
I0716 13:24:23.019745 22821 net.cpp:205] Memory required for data: 1333788676
I0716 13:24:23.019750 22821 layer_factory.hpp:123] Creating layer upconv_u3d_u2a
I0716 13:24:23.019763 22821 net.cpp:140] Creating Layer upconv_u3d_u2a
I0716 13:24:23.019767 22821 net.cpp:481] upconv_u3d_u2a <- u3d
I0716 13:24:23.019773 22821 net.cpp:455] upconv_u3d_u2a -> u2a
I0716 13:24:23.021126 22821 layer_factory.hpp:123] Creating layer upconv_u3d_u2a
I0716 13:24:23.023350 22821 net.cpp:190] Setting up upconv_u3d_u2a
I0716 13:24:23.023367 22821 net.cpp:197] Top shape: 1 128 128 256 (4194304)
I0716 13:24:23.023372 22821 net.cpp:205] Memory required for data: 1350565892
I0716 13:24:23.023382 22821 layer_factory.hpp:123] Creating layer relu_u2a
I0716 13:24:23.023391 22821 net.cpp:140] Creating Layer relu_u2a
I0716 13:24:23.023396 22821 net.cpp:481] relu_u2a <- u2a
I0716 13:24:23.023403 22821 net.cpp:442] relu_u2a -> u2a (in-place)
I0716 13:24:23.023413 22821 net.cpp:190] Setting up relu_u2a
I0716 13:24:23.023419 22821 net.cpp:197] Top shape: 1 128 128 256 (4194304)
I0716 13:24:23.023424 22821 net.cpp:205] Memory required for data: 1367343108
I0716 13:24:23.023429 22821 layer_factory.hpp:123] Creating layer concat_d2cc_u2a-b
I0716 13:24:23.023437 22821 net.cpp:140] Creating Layer concat_d2cc_u2a-b
I0716 13:24:23.023442 22821 net.cpp:481] concat_d2cc_u2a-b <- u2a
I0716 13:24:23.023448 22821 net.cpp:481] concat_d2cc_u2a-b <- d2c_d2c_fixed_0_split_1
I0716 13:24:23.023456 22821 net.cpp:455] concat_d2cc_u2a-b -> u2b
I0716 13:24:23.023496 22821 net.cpp:190] Setting up concat_d2cc_u2a-b
I0716 13:24:23.023504 22821 net.cpp:197] Top shape: 1 256 128 256 (8388608)
I0716 13:24:23.023509 22821 net.cpp:205] Memory required for data: 1400897540
I0716 13:24:23.023514 22821 layer_factory.hpp:123] Creating layer u2b_fixed
I0716 13:24:23.023522 22821 net.cpp:140] Creating Layer u2b_fixed
I0716 13:24:23.023526 22821 net.cpp:481] u2b_fixed <- u2b
I0716 13:24:23.023535 22821 net.cpp:442] u2b_fixed -> u2b (in-place)
I0716 13:24:23.023591 22821 net.cpp:190] Setting up u2b_fixed
I0716 13:24:23.023598 22821 net.cpp:197] Top shape: 1 256 128 256 (8388608)
I0716 13:24:23.023602 22821 net.cpp:205] Memory required for data: 1434451972
I0716 13:24:23.023609 22821 layer_factory.hpp:123] Creating layer conv_u2b-c
I0716 13:24:23.023622 22821 net.cpp:140] Creating Layer conv_u2b-c
I0716 13:24:23.023627 22821 net.cpp:481] conv_u2b-c <- u2b
I0716 13:24:23.023635 22821 net.cpp:455] conv_u2b-c -> u2c
I0716 13:24:23.027228 22821 layer_factory.hpp:123] Creating layer conv_u2b-c
I0716 13:24:23.032289 22821 net.cpp:190] Setting up conv_u2b-c
I0716 13:24:23.032302 22821 net.cpp:197] Top shape: 1 128 128 256 (4194304)
I0716 13:24:23.032305 22821 net.cpp:205] Memory required for data: 1451229188
I0716 13:24:23.032311 22821 layer_factory.hpp:123] Creating layer relu_u2c
I0716 13:24:23.032318 22821 net.cpp:140] Creating Layer relu_u2c
I0716 13:24:23.032322 22821 net.cpp:481] relu_u2c <- u2c
I0716 13:24:23.032327 22821 net.cpp:442] relu_u2c -> u2c (in-place)
I0716 13:24:23.032335 22821 net.cpp:190] Setting up relu_u2c
I0716 13:24:23.032338 22821 net.cpp:197] Top shape: 1 128 128 256 (4194304)
I0716 13:24:23.032341 22821 net.cpp:205] Memory required for data: 1468006404
I0716 13:24:23.032344 22821 layer_factory.hpp:123] Creating layer u2c_fixed
I0716 13:24:23.032351 22821 net.cpp:140] Creating Layer u2c_fixed
I0716 13:24:23.032356 22821 net.cpp:481] u2c_fixed <- u2c
I0716 13:24:23.032359 22821 net.cpp:442] u2c_fixed -> u2c (in-place)
I0716 13:24:23.032399 22821 net.cpp:190] Setting up u2c_fixed
I0716 13:24:23.032407 22821 net.cpp:197] Top shape: 1 128 128 256 (4194304)
I0716 13:24:23.032409 22821 net.cpp:205] Memory required for data: 1484783620
I0716 13:24:23.032413 22821 layer_factory.hpp:123] Creating layer conv_u2c-d
I0716 13:24:23.032423 22821 net.cpp:140] Creating Layer conv_u2c-d
I0716 13:24:23.032425 22821 net.cpp:481] conv_u2c-d <- u2c
I0716 13:24:23.032431 22821 net.cpp:455] conv_u2c-d -> u2d
I0716 13:24:23.033939 22821 layer_factory.hpp:123] Creating layer conv_u2c-d
I0716 13:24:23.036339 22821 net.cpp:190] Setting up conv_u2c-d
I0716 13:24:23.036352 22821 net.cpp:197] Top shape: 1 128 128 256 (4194304)
I0716 13:24:23.036355 22821 net.cpp:205] Memory required for data: 1501560836
I0716 13:24:23.036361 22821 layer_factory.hpp:123] Creating layer relu_u2d
I0716 13:24:23.036366 22821 net.cpp:140] Creating Layer relu_u2d
I0716 13:24:23.036370 22821 net.cpp:481] relu_u2d <- u2d
I0716 13:24:23.036375 22821 net.cpp:442] relu_u2d -> u2d (in-place)
I0716 13:24:23.036381 22821 net.cpp:190] Setting up relu_u2d
I0716 13:24:23.036386 22821 net.cpp:197] Top shape: 1 128 128 256 (4194304)
I0716 13:24:23.036388 22821 net.cpp:205] Memory required for data: 1518338052
I0716 13:24:23.036391 22821 layer_factory.hpp:123] Creating layer u2d_fixed
I0716 13:24:23.036396 22821 net.cpp:140] Creating Layer u2d_fixed
I0716 13:24:23.036398 22821 net.cpp:481] u2d_fixed <- u2d
I0716 13:24:23.036402 22821 net.cpp:442] u2d_fixed -> u2d (in-place)
I0716 13:24:23.036443 22821 net.cpp:190] Setting up u2d_fixed
I0716 13:24:23.036449 22821 net.cpp:197] Top shape: 1 128 128 256 (4194304)
I0716 13:24:23.036453 22821 net.cpp:205] Memory required for data: 1535115268
I0716 13:24:23.036456 22821 layer_factory.hpp:123] Creating layer upconv_u2d_u1a
I0716 13:24:23.036464 22821 net.cpp:140] Creating Layer upconv_u2d_u1a
I0716 13:24:23.036468 22821 net.cpp:481] upconv_u2d_u1a <- u2d
I0716 13:24:23.036473 22821 net.cpp:455] upconv_u2d_u1a -> u1a
I0716 13:24:23.036957 22821 layer_factory.hpp:123] Creating layer upconv_u2d_u1a
I0716 13:24:23.037760 22821 net.cpp:190] Setting up upconv_u2d_u1a
I0716 13:24:23.037770 22821 net.cpp:197] Top shape: 1 64 256 512 (8388608)
I0716 13:24:23.037771 22821 net.cpp:205] Memory required for data: 1568669700
I0716 13:24:23.037776 22821 layer_factory.hpp:123] Creating layer relu_u1a
I0716 13:24:23.037781 22821 net.cpp:140] Creating Layer relu_u1a
I0716 13:24:23.037786 22821 net.cpp:481] relu_u1a <- u1a
I0716 13:24:23.037789 22821 net.cpp:442] relu_u1a -> u1a (in-place)
I0716 13:24:23.037796 22821 net.cpp:190] Setting up relu_u1a
I0716 13:24:23.037799 22821 net.cpp:197] Top shape: 1 64 256 512 (8388608)
I0716 13:24:23.037801 22821 net.cpp:205] Memory required for data: 1602224132
I0716 13:24:23.037806 22821 layer_factory.hpp:123] Creating layer concat_d1cc_u1a-b
I0716 13:24:23.037811 22821 net.cpp:140] Creating Layer concat_d1cc_u1a-b
I0716 13:24:23.037813 22821 net.cpp:481] concat_d1cc_u1a-b <- u1a
I0716 13:24:23.037817 22821 net.cpp:481] concat_d1cc_u1a-b <- d1c_d1c_fixed_0_split_1
I0716 13:24:23.037822 22821 net.cpp:455] concat_d1cc_u1a-b -> u1b
I0716 13:24:23.037850 22821 net.cpp:190] Setting up concat_d1cc_u1a-b
I0716 13:24:23.037856 22821 net.cpp:197] Top shape: 1 128 256 512 (16777216)
I0716 13:24:23.037859 22821 net.cpp:205] Memory required for data: 1669332996
I0716 13:24:23.037861 22821 layer_factory.hpp:123] Creating layer u1b_fixed
I0716 13:24:23.037866 22821 net.cpp:140] Creating Layer u1b_fixed
I0716 13:24:23.037870 22821 net.cpp:481] u1b_fixed <- u1b
I0716 13:24:23.037874 22821 net.cpp:442] u1b_fixed -> u1b (in-place)
I0716 13:24:23.037911 22821 net.cpp:190] Setting up u1b_fixed
I0716 13:24:23.037917 22821 net.cpp:197] Top shape: 1 128 256 512 (16777216)
I0716 13:24:23.037920 22821 net.cpp:205] Memory required for data: 1736441860
I0716 13:24:23.037925 22821 layer_factory.hpp:123] Creating layer conv_u1b-c
I0716 13:24:23.037932 22821 net.cpp:140] Creating Layer conv_u1b-c
I0716 13:24:23.037935 22821 net.cpp:481] conv_u1b-c <- u1b
I0716 13:24:23.037940 22821 net.cpp:455] conv_u1b-c -> u1c
I0716 13:24:23.038790 22821 layer_factory.hpp:123] Creating layer conv_u1b-c
I0716 13:24:23.040647 22821 net.cpp:190] Setting up conv_u1b-c
I0716 13:24:23.040659 22821 net.cpp:197] Top shape: 1 64 256 512 (8388608)
I0716 13:24:23.040663 22821 net.cpp:205] Memory required for data: 1769996292
I0716 13:24:23.040673 22821 layer_factory.hpp:123] Creating layer relu_u1c
I0716 13:24:23.040679 22821 net.cpp:140] Creating Layer relu_u1c
I0716 13:24:23.040683 22821 net.cpp:481] relu_u1c <- u1c
I0716 13:24:23.040688 22821 net.cpp:442] relu_u1c -> u1c (in-place)
I0716 13:24:23.040693 22821 net.cpp:190] Setting up relu_u1c
I0716 13:24:23.040697 22821 net.cpp:197] Top shape: 1 64 256 512 (8388608)
I0716 13:24:23.040700 22821 net.cpp:205] Memory required for data: 1803550724
I0716 13:24:23.040704 22821 layer_factory.hpp:123] Creating layer u1c_fixed
I0716 13:24:23.040709 22821 net.cpp:140] Creating Layer u1c_fixed
I0716 13:24:23.040710 22821 net.cpp:481] u1c_fixed <- u1c
I0716 13:24:23.040714 22821 net.cpp:442] u1c_fixed -> u1c (in-place)
I0716 13:24:23.040755 22821 net.cpp:190] Setting up u1c_fixed
I0716 13:24:23.040760 22821 net.cpp:197] Top shape: 1 64 256 512 (8388608)
I0716 13:24:23.040763 22821 net.cpp:205] Memory required for data: 1837105156
I0716 13:24:23.040767 22821 layer_factory.hpp:123] Creating layer conv_u1c-d
I0716 13:24:23.040776 22821 net.cpp:140] Creating Layer conv_u1c-d
I0716 13:24:23.040778 22821 net.cpp:481] conv_u1c-d <- u1c
I0716 13:24:23.040783 22821 net.cpp:455] conv_u1c-d -> u1d
I0716 13:24:23.041312 22821 layer_factory.hpp:123] Creating layer conv_u1c-d
I0716 13:24:23.042119 22821 net.cpp:190] Setting up conv_u1c-d
I0716 13:24:23.042127 22821 net.cpp:197] Top shape: 1 64 256 512 (8388608)
I0716 13:24:23.042130 22821 net.cpp:205] Memory required for data: 1870659588
I0716 13:24:23.042136 22821 layer_factory.hpp:123] Creating layer relu_u1d
I0716 13:24:23.042141 22821 net.cpp:140] Creating Layer relu_u1d
I0716 13:24:23.042145 22821 net.cpp:481] relu_u1d <- u1d
I0716 13:24:23.042148 22821 net.cpp:442] relu_u1d -> u1d (in-place)
I0716 13:24:23.042155 22821 net.cpp:190] Setting up relu_u1d
I0716 13:24:23.042158 22821 net.cpp:197] Top shape: 1 64 256 512 (8388608)
I0716 13:24:23.042160 22821 net.cpp:205] Memory required for data: 1904214020
I0716 13:24:23.042163 22821 layer_factory.hpp:123] Creating layer u1d_fixed
I0716 13:24:23.042168 22821 net.cpp:140] Creating Layer u1d_fixed
I0716 13:24:23.042171 22821 net.cpp:481] u1d_fixed <- u1d
I0716 13:24:23.042176 22821 net.cpp:442] u1d_fixed -> u1d (in-place)
I0716 13:24:23.042213 22821 net.cpp:190] Setting up u1d_fixed
I0716 13:24:23.042220 22821 net.cpp:197] Top shape: 1 64 256 512 (8388608)
I0716 13:24:23.042223 22821 net.cpp:205] Memory required for data: 1937768452
I0716 13:24:23.042227 22821 layer_factory.hpp:123] Creating layer upconv_u1d_u0a_NEW
I0716 13:24:23.042234 22821 net.cpp:140] Creating Layer upconv_u1d_u0a_NEW
I0716 13:24:23.042237 22821 net.cpp:481] upconv_u1d_u0a_NEW <- u1d
I0716 13:24:23.042243 22821 net.cpp:455] upconv_u1d_u0a_NEW -> u0a
I0716 13:24:23.042526 22821 layer_factory.hpp:123] Creating layer upconv_u1d_u0a_NEW
I0716 13:24:23.045058 22821 net.cpp:190] Setting up upconv_u1d_u0a_NEW
I0716 13:24:23.045071 22821 net.cpp:197] Top shape: 1 32 512 1024 (16777216)
I0716 13:24:23.045074 22821 net.cpp:205] Memory required for data: 2004877316
I0716 13:24:23.045081 22821 layer_factory.hpp:123] Creating layer relu_u0a
I0716 13:24:23.045086 22821 net.cpp:140] Creating Layer relu_u0a
I0716 13:24:23.045090 22821 net.cpp:481] relu_u0a <- u0a
I0716 13:24:23.045095 22821 net.cpp:442] relu_u0a -> u0a (in-place)
I0716 13:24:23.045102 22821 net.cpp:190] Setting up relu_u0a
I0716 13:24:23.045106 22821 net.cpp:197] Top shape: 1 32 512 1024 (16777216)
I0716 13:24:23.045109 22821 net.cpp:205] Memory required for data: 2071986180
I0716 13:24:23.045112 22821 layer_factory.hpp:123] Creating layer concat_d0cc_u0a-b
I0716 13:24:23.045117 22821 net.cpp:140] Creating Layer concat_d0cc_u0a-b
I0716 13:24:23.045120 22821 net.cpp:481] concat_d0cc_u0a-b <- u0a
I0716 13:24:23.045123 22821 net.cpp:481] concat_d0cc_u0a-b <- d0c_d0c_fixed_0_split_1
I0716 13:24:23.045128 22821 net.cpp:455] concat_d0cc_u0a-b -> u0b
I0716 13:24:23.045162 22821 net.cpp:190] Setting up concat_d0cc_u0a-b
I0716 13:24:23.045169 22821 net.cpp:197] Top shape: 1 64 512 1024 (33554432)
I0716 13:24:23.045172 22821 net.cpp:205] Memory required for data: 2206203908
I0716 13:24:23.045176 22821 layer_factory.hpp:123] Creating layer u0b_fixed
I0716 13:24:23.045181 22821 net.cpp:140] Creating Layer u0b_fixed
I0716 13:24:23.045183 22821 net.cpp:481] u0b_fixed <- u0b
I0716 13:24:23.045187 22821 net.cpp:442] u0b_fixed -> u0b (in-place)
I0716 13:24:23.045228 22821 net.cpp:190] Setting up u0b_fixed
I0716 13:24:23.045233 22821 net.cpp:197] Top shape: 1 64 512 1024 (33554432)
I0716 13:24:23.045236 22821 net.cpp:205] Memory required for data: 2340421636
I0716 13:24:23.045240 22821 layer_factory.hpp:123] Creating layer conv_u0b-c_New
I0716 13:24:23.045248 22821 net.cpp:140] Creating Layer conv_u0b-c_New
I0716 13:24:23.045251 22821 net.cpp:481] conv_u0b-c_New <- u0b
I0716 13:24:23.045256 22821 net.cpp:455] conv_u0b-c_New -> u0c
I0716 13:24:23.045624 22821 layer_factory.hpp:123] Creating layer conv_u0b-c_New
I0716 13:24:23.048079 22821 net.cpp:190] Setting up conv_u0b-c_New
I0716 13:24:23.048090 22821 net.cpp:197] Top shape: 1 32 512 1024 (16777216)
I0716 13:24:23.048094 22821 net.cpp:205] Memory required for data: 2407530500
I0716 13:24:23.048099 22821 layer_factory.hpp:123] Creating layer relu_u0c
I0716 13:24:23.048105 22821 net.cpp:140] Creating Layer relu_u0c
I0716 13:24:23.048110 22821 net.cpp:481] relu_u0c <- u0c
I0716 13:24:23.048113 22821 net.cpp:442] relu_u0c -> u0c (in-place)
I0716 13:24:23.048120 22821 net.cpp:190] Setting up relu_u0c
I0716 13:24:23.048125 22821 net.cpp:197] Top shape: 1 32 512 1024 (16777216)
I0716 13:24:23.048127 22821 net.cpp:205] Memory required for data: 2474639364
I0716 13:24:23.048130 22821 layer_factory.hpp:123] Creating layer u0c_fixed
I0716 13:24:23.048135 22821 net.cpp:140] Creating Layer u0c_fixed
I0716 13:24:23.048138 22821 net.cpp:481] u0c_fixed <- u0c
I0716 13:24:23.048142 22821 net.cpp:442] u0c_fixed -> u0c (in-place)
I0716 13:24:23.048187 22821 net.cpp:190] Setting up u0c_fixed
I0716 13:24:23.048193 22821 net.cpp:197] Top shape: 1 32 512 1024 (16777216)
I0716 13:24:23.048197 22821 net.cpp:205] Memory required for data: 2541748228
I0716 13:24:23.048200 22821 layer_factory.hpp:123] Creating layer conv_u0c-d_New
I0716 13:24:23.048208 22821 net.cpp:140] Creating Layer conv_u0c-d_New
I0716 13:24:23.048211 22821 net.cpp:481] conv_u0c-d_New <- u0c
I0716 13:24:23.048218 22821 net.cpp:455] conv_u0c-d_New -> u0d
I0716 13:24:23.048508 22821 layer_factory.hpp:123] Creating layer conv_u0c-d_New
I0716 13:24:23.050879 22821 net.cpp:190] Setting up conv_u0c-d_New
I0716 13:24:23.050890 22821 net.cpp:197] Top shape: 1 32 512 1024 (16777216)
I0716 13:24:23.050894 22821 net.cpp:205] Memory required for data: 2608857092
I0716 13:24:23.050899 22821 layer_factory.hpp:123] Creating layer relu_u0d
I0716 13:24:23.050905 22821 net.cpp:140] Creating Layer relu_u0d
I0716 13:24:23.050909 22821 net.cpp:481] relu_u0d <- u0d
I0716 13:24:23.050913 22821 net.cpp:442] relu_u0d -> u0d (in-place)
I0716 13:24:23.050920 22821 net.cpp:190] Setting up relu_u0d
I0716 13:24:23.050925 22821 net.cpp:197] Top shape: 1 32 512 1024 (16777216)
I0716 13:24:23.050926 22821 net.cpp:205] Memory required for data: 2675965956
I0716 13:24:23.050930 22821 layer_factory.hpp:123] Creating layer u0d_fixed
I0716 13:24:23.050935 22821 net.cpp:140] Creating Layer u0d_fixed
I0716 13:24:23.050937 22821 net.cpp:481] u0d_fixed <- u0d
I0716 13:24:23.050941 22821 net.cpp:442] u0d_fixed -> u0d (in-place)
I0716 13:24:23.050987 22821 net.cpp:190] Setting up u0d_fixed
I0716 13:24:23.050992 22821 net.cpp:197] Top shape: 1 32 512 1024 (16777216)
I0716 13:24:23.050994 22821 net.cpp:205] Memory required for data: 2743074820
I0716 13:24:23.050998 22821 layer_factory.hpp:123] Creating layer conv_u0d-score_New
I0716 13:24:23.051007 22821 net.cpp:140] Creating Layer conv_u0d-score_New
I0716 13:24:23.051010 22821 net.cpp:481] conv_u0d-score_New <- u0d
I0716 13:24:23.051015 22821 net.cpp:455] conv_u0d-score_New -> conv_u0d-score_New
I0716 13:24:23.051240 22821 layer_factory.hpp:123] Creating layer conv_u0d-score_New
I0716 13:24:23.053537 22821 net.cpp:190] Setting up conv_u0d-score_New
I0716 13:24:23.053550 22821 net.cpp:197] Top shape: 1 19 512 1024 (9961472)
I0716 13:24:23.053553 22821 net.cpp:205] Memory required for data: 2782920708
I0716 13:24:23.053560 22821 layer_factory.hpp:123] Creating layer conv_u0d-score_New_fixed
I0716 13:24:23.053566 22821 net.cpp:140] Creating Layer conv_u0d-score_New_fixed
I0716 13:24:23.053570 22821 net.cpp:481] conv_u0d-score_New_fixed <- conv_u0d-score_New
I0716 13:24:23.053575 22821 net.cpp:442] conv_u0d-score_New_fixed -> conv_u0d-score_New (in-place)
I0716 13:24:23.053622 22821 net.cpp:190] Setting up conv_u0d-score_New_fixed
I0716 13:24:23.053628 22821 net.cpp:197] Top shape: 1 19 512 1024 (9961472)
I0716 13:24:23.053632 22821 net.cpp:205] Memory required for data: 2822766596
I0716 13:24:23.053635 22821 layer_factory.hpp:123] Creating layer score
I0716 13:24:23.053642 22821 net.cpp:140] Creating Layer score
I0716 13:24:23.053645 22821 net.cpp:481] score <- conv_u0d-score_New
I0716 13:24:23.053650 22821 net.cpp:455] score -> score
I0716 13:24:23.053721 22821 net.cpp:190] Setting up score
I0716 13:24:23.053727 22821 net.cpp:197] Top shape: 1 19 512 1024 (9961472)
I0716 13:24:23.053731 22821 net.cpp:205] Memory required for data: 2862612484
I0716 13:24:23.053735 22821 net.cpp:268] score does not need backward computation.
I0716 13:24:23.053737 22821 net.cpp:268] conv_u0d-score_New_fixed does not need backward computation.
I0716 13:24:23.053741 22821 net.cpp:268] conv_u0d-score_New does not need backward computation.
I0716 13:24:23.053745 22821 net.cpp:268] u0d_fixed does not need backward computation.
…
I0716 13:28:30.293758 22821 net.cpp:330] Network initialization done.
I0716 13:28:30.440608 22821 net.cpp:369] The NetState phase (1) differed from the phase (0) specified by a rule in layer data
I0716 13:28:30.441104 22821 net.cpp:98] Initializing net from parameters: 
layer {
  name: "data"
  type: "ImageSegData"
  top: "data"
  top: "label"
  include {
    phase: TEST
  }
  transform_param {
    scale: 0.022
    mean_value: 73
    mean_value: 82
    mean_value: 72
  }
  image_data_param {
    source: "../data/val_img_seg_nomap.txt"
    batch_size: 1
    shuffle: false
  }
}
layer {
  name: "resize_down"
  type: "DeephiResize"
  bottom: "data"
  top: "data"
  include {
    phase: TEST
  }
  deephi_resize_param {
    new_height: 512
    new_width: 1024
  }
}
layer {
  name: "data_fixed"
  type: "FixedNeuron"
  bottom: "data"
  top: "data"
  param {
    lr_mult: 0
    decay_mult: 0
  }
  fixed_param {
    fixed_method: OVER_FLOW
    bit_width: 8
    follow_data_layer: true
  }
}
layer {
  name: "conv_d0a-b"
  type: "ConvolutionFixed"
  bottom: "data"
  top: "d0b"
  param {
    lr_mult: 1
    decay_mult: 1
  }
  param {
    lr_mult: 2
    decay_mult: 0
  }
  convolution_param {
    num_output: 32
    pad: 1
    kernel_size: 3
    stride: 1
    weight_filler {
      type: "msra"
    }
  }
  fixed_param {
    fixed_method: DIFF_S
    bit_width: 8
  }
}
layer {
  name: "relu_d0b"
  type: "ReLU"
  bottom: "d0b"
  top: "relu_d0b"
}
layer {
  name: "relu_d0b_fixed"
  type: "FixedNeuron"
  bottom: "relu_d0b"
  top: "relu_d0b"
  param {
    lr_mult: 0
    decay_mult: 0
  }
  fixed_param {
    fixed_method: DIFF_S
    bit_width: 8
  }
}
layer {
  name: "conv_d0b-c"
  type: "ConvolutionFixed"
  bottom: "relu_d0b"
  top: "d0c"
  param {
    lr_mult: 1
    decay_mult: 1
  }
  param {
    lr_mult: 2
    decay_mult: 0
  }
  convolution_param {
    num_output: 32
    pad: 1
    kernel_size: 3
    weight_filler {
      type: "msra"
    }
  }
  fixed_param {
    fixed_method: DIFF_S
    bit_width: 8
  }
}
layer {
  name: "d0c_fixed"
  type: "FixedNeuron"
  bottom: "d0c"
  top: "d0c"
  param {
    lr_mult: 0
    decay_mult: 0
  }
  fixed_param {
    fixed_method: DIFF_S
    bit_width: 8
  }
}
layer {
  name: "BatchNorm_d0c"
  type: "ScaleFixed"
  bottom: "d0c"
  top: "BatchNorm_d0c"
  param {
    lr_mult: 1
    decay_mult: 1
  }
  param {
    lr_mult: 1
    decay_mult: 0
  }
  scale_param {
    bias_term: true
  }
  fixed_param {
    fixed_method: DIFF_S
    bit_width: 8
  }
}
layer {
  name: "relu_d0c"
  type: "ReLU"
  bottom: "BatchNorm_d0c"
  top: "relu_d0c"
}
layer {
  name: "pool_d0c-1a"
  type: "Pooling"
  bottom: "relu_d0c"
  top: "d1a"
  pooling_param {
    pool: MAX
    kernel_size: 2
    stride: 2
  }
}
layer {
  name: "d1a_fixed"
  type: "FixedNeuron"
  bottom: "d1a"
  top: "d1a"
  param {
    lr_mult: 0
    decay_mult: 0
  }
  fixed_param {
    fixed_method: DIFF_S
    bit_width: 8
  }
}
layer {
  name: "conv_d1a-b"
  type: "ConvolutionFixed"
  bottom: "d1a"
  top: "d1b"
  param {
    lr_mult: 1
    decay_mult: 1
  }
  param {
    lr_mult: 2
    decay_mult: 0
  }
  convolution_param {
    num_output: 64
    pad: 1
    kernel_size: 3
    weight_filler {
      type: "msra"
    }
  }
  fixed_param {
    fixed_method: DIFF_S
    bit_width: 8
  }
}
layer {
  name: "relu_d1b"
  type: "ReLU"
  bottom: "d1b"
  top: "relu_d1b"
}
layer {
  name: "relu_d1b_fixed"
  type: "FixedNeuron"
  bottom: "relu_d1b"
  top: "relu_d1b"
  param {
    lr_mult: 0
    decay_mult: 0
  }
  fixed_param {
    fixed_method: DIFF_S
    bit_width: 8
  }
}
layer {
  name: "conv_d1b-c"
  type: "ConvolutionFixed"
  bottom: "relu_d1b"
  top: "d1c"
  param {
    lr_mult: 1
    decay_mult: 1
  }
  param {
    lr_mult: 2
    decay_mult: 0
  }
  convolution_param {
    num_output: 64
    pad: 1
    kernel_size: 3
    weight_filler {
      type: "msra"
    }
  }
  fixed_param {
    fixed_method: DIFF_S
    bit_width: 8
  }
}
layer {
  name: "d1c_fixed"
  type: "FixedNeuron"
  bottom: "d1c"
  top: "d1c"
  param {
    lr_mult: 0
    decay_mult: 0
  }
  fixed_param {
    fixed_method: DIFF_S
    bit_width: 8
  }
}
layer {
  name: "BatchNorm_d1c"
  type: "ScaleFixed"
  bottom: "d1c"
  top: "BatchNorm_d1c"
  param {
    lr_mult: 1
    decay_mult: 1
  }
  param {
    lr_mult: 1
    decay_mult: 0
  }
  scale_param {
    bias_term: true
  }
  fixed_param {
    fixed_method: DIFF_S
    bit_width: 8
  }
}
layer {
  name: "relu_d1c"
  type: "ReLU"
  bottom: "BatchNorm_d1c"
  top: "relu_d1c"
}
layer {
  name: "pool_d1c-2a"
  type: "Pooling"
  bottom: "relu_d1c"
  top: "d2a"
  pooling_param {
    pool: MAX
    kernel_size: 2
    stride: 2
  }
}
layer {
  name: "d2a_fixed"
  type: "FixedNeuron"
  bottom: "d2a"
  top: "d2a"
  param {
    lr_mult: 0
    decay_mult: 0
  }
  fixed_param {
    fixed_method: DIFF_S
    bit_width: 8
  }
}
layer {
  name: "conv_d2a-b"
  type: "ConvolutionFixed"
  bottom: "d2a"
  top: "d2b"
  param {
    lr_mult: 1
    decay_mult: 1
  }
  param {
    lr_mult: 2
    decay_mult: 0
  }
  convolution_param {
    num_output: 128
    pad: 1
    kernel_size: 3
    weight_filler {
      type: "msra"
    }
  }
  fixed_param {
    fixed_method: DIFF_S
    bit_width: 8
  }
}
layer {
  name: "relu_d2b"
  type: "ReLU"
  bottom: "d2b"
  top: "relu_d2b"
}
layer {
  name: "relu_d2b_fixed"
  type: "FixedNeuron"
  bottom: "relu_d2b"
  top: "relu_d2b"
  param {
    lr_mult: 0
    decay_mult: 0
  }
  fixed_param {
    fixed_method: DIFF_S
    bit_width: 8
  }
}
layer {
  name: "conv_d2b-c"
  type: "ConvolutionFixed"
  bottom: "relu_d2b"
  top: "d2c"
  param {
    lr_mult: 1
    decay_mult: 1
  }
  param {
    lr_mult: 2
    decay_mult: 0
  }
  convolution_param {
    num_output: 128
    pad: 1
    kernel_size: 3
    weight_filler {
      type: "msra"
    }
  }
  fixed_param {
    fixed_method: DIFF_S
    bit_width: 8
  }
}
layer {
  name: "d2c_fixed"
  type: "FixedNeuron"
  bottom: "d2c"
  top: "d2c"
  param {
    lr_mult: 0
    decay_mult: 0
  }
  fixed_param {
    fixed_method: DIFF_S
    bit_width: 8
  }
}
layer {
  name: "BatchNorm_d2c"
  type: "ScaleFixed"
  bottom: "d2c"
  top: "BatchNorm_d2c"
  param {
    lr_mult: 1
    decay_mult: 1
  }
  param {
    lr_mult: 1
    decay_mult: 0
  }
  scale_param {
    bias_term: true
  }
  fixed_param {
    fixed_method: DIFF_S
    bit_width: 8
  }
}
layer {
  name: "relu_d2c"
  type: "ReLU"
  bottom: "BatchNorm_d2c"
  top: "relu_d2c"
}
layer {
  name: "pool_d2c-3a"
  type: "Pooling"
  bottom: "relu_d2c"
  top: "d3a"
  pooling_param {
    pool: MAX
    kernel_size: 2
    stride: 2
  }
}
layer {
  name: "d3a_fixed"
  type: "FixedNeuron"
  bottom: "d3a"
  top: "d3a"
  param {
    lr_mult: 0
    decay_mult: 0
  }
  fixed_param {
    fixed_method: DIFF_S
    bit_width: 8
  }
}
layer {
  name: "conv_d3a-b"
  type: "ConvolutionFixed"
  bottom: "d3a"
  top: "d3b"
  param {
    lr_mult: 1
    decay_mult: 1
  }
  param {
    lr_mult: 2
    decay_mult: 0
  }
  convolution_param {
    num_output: 256
    pad: 1
    kernel_size: 3
    weight_filler {
      type: "msra"
    }
  }
  fixed_param {
    fixed_method: DIFF_S
    bit_width: 8
  }
}
layer {
  name: "relu_d3b"
  type: "ReLU"
  bottom: "d3b"
  top: "relu_d3b"
}
layer {
  name: "relu_d3b_fixed"
  type: "FixedNeuron"
  bottom: "relu_d3b"
  top: "relu_d3b"
  param {
    lr_mult: 0
    decay_mult: 0
  }
  fixed_param {
    fixed_method: DIFF_S
    bit_width: 8
  }
}
layer {
  name: "conv_d3b-c"
  type: "ConvolutionFixed"
  bottom: "relu_d3b"
  top: "d3c"
  param {
    lr_mult: 1
    decay_mult: 1
  }
  param {
    lr_mult: 2
    decay_mult: 0
  }
  convolution_param {
    num_output: 256
    pad: 1
    kernel_size: 3
    weight_filler {
      type: "msra"
    }
  }
  fixed_param {
    fixed_method: DIFF_S
    bit_width: 8
  }
}
layer {
  name: "d3c_fixed"
  type: "FixedNeuron"
  bottom: "d3c"
  top: "d3c"
  param {
    lr_mult: 0
    decay_mult: 0
  }
  fixed_param {
    fixed_method: DIFF_S
    bit_width: 8
  }
}
layer {
  name: "BatchNorm_1"
  type: "ScaleFixed"
  bottom: "d3c"
  top: "BatchNorm_1"
  param {
    lr_mult: 1
    decay_mult: 1
  }
  param {
    lr_mult: 1
    decay_mult: 0
  }
  scale_param {
    bias_term: true
  }
  fixed_param {
    fixed_method: DIFF_S
    bit_width: 8
  }
}
layer {
  name: "relu_d3c"
  type: "ReLU"
  bottom: "BatchNorm_1"
  top: "relu_d3c"
}
layer {
  name: "pool_d3c-4a"
  type: "Pooling"
  bottom: "relu_d3c"
  top: "d4a"
  pooling_param {
    pool: MAX
    kernel_size: 2
    stride: 2
  }
}
layer {
  name: "d4a_fixed"
  type: "FixedNeuron"
  bottom: "d4a"
  top: "d4a"
  param {
    lr_mult: 0
    decay_mult: 0
  }
  fixed_param {
    fixed_method: DIFF_S
    bit_width: 8
  }
}
layer {
  name: "conv_d4a-b"
  type: "ConvolutionFixed"
  bottom: "d4a"
  top: "BatchNorm_2"
  param {
    lr_mult: 1
    decay_mult: 1
  }
  param {
    lr_mult: 1
    decay_mult: 0
  }
  convolution_param {
    num_output: 512
    bias_term: true
    pad: 1
    kernel_size: 3
    weight_filler {
      type: "msra"
    }
  }
  fixed_param {
    fixed_method: DIFF_S
    bit_width: 8
  }
}
layer {
  name: "relu_d4b"
  type: "ReLU"
  bottom: "BatchNorm_2"
  top: "relu_d4b"
}
layer {
  name: "relu_d4b_fixed"
  type: "FixedNeuron"
  bottom: "relu_d4b"
  top: "relu_d4b"
  param {
    lr_mult: 0
    decay_mult: 0
  }
  fixed_param {
    fixed_method: DIFF_S
    bit_width: 8
  }
}
layer {
  name: "conv_d4b-c"
  type: "ConvolutionFixed"
  bottom: "relu_d4b"
  top: "d4c"
  param {
    lr_mult: 1
    decay_mult: 1
  }
  param {
    lr_mult: 2
    decay_mult: 0
  }
  convolution_param {
    num_output: 512
    pad: 1
    kernel_size: 3
    weight_filler {
      type: "msra"
    }
  }
  fixed_param {
    fixed_method: DIFF_S
    bit_width: 8
  }
}
layer {
  name: "relu_d4c"
  type: "ReLU"
  bottom: "d4c"
  top: "relu_d4c"
}
layer {
  name: "relu_d4c_fixed"
  type: "FixedNeuron"
  bottom: "relu_d4c"
  top: "relu_d4c"
  param {
    lr_mult: 0
    decay_mult: 0
  }
  fixed_param {
    fixed_method: DIFF_S
    bit_width: 8
  }
}
layer {
  name: "upconv_d4c_u3a"
  type: "DeconvolutionFixed"
  bottom: "relu_d4c"
  top: "u3a"
  param {
    lr_mult: 1
    decay_mult: 1
  }
  param {
    lr_mult: 2
    decay_mult: 0
  }
  convolution_param {
    num_output: 256
    pad: 0
    kernel_size: 2
    stride: 2
    weight_filler {
      type: "msra"
    }
  }
  fixed_param {
    fixed_method: DIFF_S
    bit_width: 8
  }
}
layer {
  name: "relu_u3a"
  type: "ReLU"
  bottom: "u3a"
  top: "u3a"
}
layer {
  name: "concat_d3cc_u3a-b"
  type: "Concat"
  bottom: "u3a"
  bottom: "d3c"
  top: "u3b"
}
layer {
  name: "u3b_fixed"
  type: "FixedNeuron"
  bottom: "u3b"
  top: "u3b"
  param {
    lr_mult: 0
    decay_mult: 0
  }
  fixed_param {
    fixed_method: DIFF_S
    bit_width: 8
  }
}
layer {
  name: "conv_u3b-c"
  type: "ConvolutionFixed"
  bottom: "u3b"
  top: "u3c"
  param {
    lr_mult: 1
    decay_mult: 1
  }
  param {
    lr_mult: 2
    decay_mult: 0
  }
  convolution_param {
    num_output: 256
    pad: 1
    kernel_size: 3
    weight_filler {
      type: "msra"
    }
  }
  fixed_param {
    fixed_method: DIFF_S
    bit_width: 8
  }
}
layer {
  name: "relu_u3c"
  type: "ReLU"
  bottom: "u3c"
  top: "u3c"
}
layer {
  name: "u3c_fixed"
  type: "FixedNeuron"
  bottom: "u3c"
  top: "u3c"
  param {
    lr_mult: 0
    decay_mult: 0
  }
  fixed_param {
    fixed_method: DIFF_S
    bit_width: 8
  }
}
layer {
  name: "conv_u3c-d"
  type: "ConvolutionFixed"
  bottom: "u3c"
  top: "u3d"
  param {
    lr_mult: 1
    decay_mult: 1
  }
  param {
    lr_mult: 2
    decay_mult: 0
  }
  convolution_param {
    num_output: 256
    pad: 1
    kernel_size: 3
    weight_filler {
      type: "msra"
    }
  }
  fixed_param {
    fixed_method: DIFF_S
    bit_width: 8
  }
}
layer {
  name: "relu_u3d"
  type: "ReLU"
  bottom: "u3d"
  top: "u3d"
}
layer {
  name: "u3d_fixed"
  type: "FixedNeuron"
  bottom: "u3d"
  top: "u3d"
  param {
    lr_mult: 0
    decay_mult: 0
  }
  fixed_param {
    fixed_method: DIFF_S
    bit_width: 8
  }
}
layer {
  name: "upconv_u3d_u2a"
  type: "DeconvolutionFixed"
  bottom: "u3d"
  top: "u2a"
  param {
    lr_mult: 1
    decay_mult: 1
  }
  param {
    lr_mult: 2
    decay_mult: 0
  }
  convolution_param {
    num_output: 128
    pad: 0
    kernel_size: 2
    stride: 2
    weight_filler {
      type: "msra"
    }
  }
  fixed_param {
    fixed_method: DIFF_S
    bit_width: 8
  }
}
layer {
  name: "relu_u2a"
  type: "ReLU"
  bottom: "u2a"
  top: "u2a"
}
layer {
  name: "concat_d2cc_u2a-b"
  type: "Concat"
  bottom: "u2a"
  bottom: "d2c"
  top: "u2b"
}
layer {
  name: "u2b_fixed"
  type: "FixedNeuron"
  bottom: "u2b"
  top: "u2b"
  param {
    lr_mult: 0
    decay_mult: 0
  }
  fixed_param {
    fixed_method: DIFF_S
    bit_width: 8
  }
}
layer {
  name: "conv_u2b-c"
  type: "ConvolutionFixed"
  bottom: "u2b"
  top: "u2c"
  param {
    lr_mult: 1
    decay_mult: 1
  }
  param {
    lr_mult: 2
    decay_mult: 0
  }
  convolution_param {
    num_output: 128
    pad: 1
    kernel_size: 3
    weight_filler {
      type: "msra"
    }
  }
  fixed_param {
    fixed_method: DIFF_S
    bit_width: 8
  }
}
layer {
  name: "relu_u2c"
  type: "ReLU"
  bottom: "u2c"
  top: "u2c"
}
layer {
  name: "u2c_fixed"
  type: "FixedNeuron"
  bottom: "u2c"
  top: "u2c"
  param {
    lr_mult: 0
    decay_mult: 0
  }
  fixed_param {
    fixed_method: DIFF_S
    bit_width: 8
  }
}
layer {
  name: "conv_u2c-d"
  type: "ConvolutionFixed"
  bottom: "u2c"
  top: "u2d"
  param {
    lr_mult: 1
    decay_mult: 1
  }
  param {
    lr_mult: 2
    decay_mult: 0
  }
  convolution_param {
    num_output: 128
    pad: 1
    kernel_size: 3
    weight_filler {
      type: "msra"
    }
  }
  fixed_param {
    fixed_method: DIFF_S
    bit_width: 8
  }
}
layer {
  name: "relu_u2d"
  type: "ReLU"
  bottom: "u2d"
  top: "u2d"
}
layer {
  name: "u2d_fixed"
  type: "FixedNeuron"
  bottom: "u2d"
  top: "u2d"
  param {
    lr_mult: 0
    decay_mult: 0
  }
  fixed_param {
    fixed_method: DIFF_S
    bit_width: 8
  }
}
layer {
  name: "upconv_u2d_u1a"
  type: "DeconvolutionFixed"
  bottom: "u2d"
  top: "u1a"
  param {
    lr_mult: 1
    decay_mult: 1
  }
  param {
    lr_mult: 2
    decay_mult: 0
  }
  convolution_param {
    num_output: 64
    pad: 0
    kernel_size: 2
    stride: 2
    weight_filler {
      type: "msra"
    }
  }
  fixed_param {
    fixed_method: DIFF_S
    bit_width: 8
  }
}
layer {
  name: "relu_u1a"
  type: "ReLU"
  bottom: "u1a"
  top: "u1a"
}
layer {
  name: "concat_d1cc_u1a-b"
  type: "Concat"
  bottom: "u1a"
  bottom: "d1c"
  top: "u1b"
}
layer {
  name: "u1b_fixed"
  type: "FixedNeuron"
  bottom: "u1b"
  top: "u1b"
  param {
    lr_mult: 0
    decay_mult: 0
  }
  fixed_param {
    fixed_method: DIFF_S
    bit_width: 8
  }
}
layer {
  name: "conv_u1b-c"
  type: "ConvolutionFixed"
  bottom: "u1b"
  top: "u1c"
  param {
    lr_mult: 1
    decay_mult: 1
  }
  param {
    lr_mult: 2
    decay_mult: 0
  }
  convolution_param {
    num_output: 64
    pad: 1
    kernel_size: 3
    weight_filler {
      type: "msra"
    }
  }
  fixed_param {
    fixed_method: DIFF_S
    bit_width: 8
  }
}
layer {
  name: "relu_u1c"
  type: "ReLU"
  bottom: "u1c"
  top: "u1c"
}
layer {
  name: "u1c_fixed"
  type: "FixedNeuron"
  bottom: "u1c"
  top: "u1c"
  param {
    lr_mult: 0
    decay_mult: 0
  }
  fixed_param {
    fixed_method: DIFF_S
    bit_width: 8
  }
}
layer {
  name: "conv_u1c-d"
  type: "ConvolutionFixed"
  bottom: "u1c"
  top: "u1d"
  param {
    lr_mult: 1
    decay_mult: 1
  }
  param {
    lr_mult: 2
    decay_mult: 0
  }
  convolution_param {
    num_output: 64
    pad: 1
    kernel_size: 3
    weight_filler {
      type: "msra"
    }
  }
  fixed_param {
    fixed_method: DIFF_S
    bit_width: 8
  }
}
layer {
  name: "relu_u1d"
  type: "ReLU"
  bottom: "u1d"
  top: "u1d"
}
layer {
  name: "u1d_fixed"
  type: "FixedNeuron"
  bottom: "u1d"
  top: "u1d"
  param {
    lr_mult: 0
    decay_mult: 0
  }
  fixed_param {
    fixed_method: DIFF_S
    bit_width: 8
  }
}
layer {
  name: "upconv_u1d_u0a_NEW"
  type: "DeconvolutionFixed"
  bottom: "u1d"
  top: "u0a"
  param {
    lr_mult: 1
    decay_mult: 1
  }
  param {
    lr_mult: 2
    decay_mult: 0
  }
  convolution_param {
    num_output: 32
    pad: 0
    kernel_size: 2
    stride: 2
    weight_filler {
      type: "msra"
    }
  }
  fixed_param {
    fixed_method: DIFF_S
    bit_width: 8
  }
}
layer {
  name: "relu_u0a"
  type: "ReLU"
  bottom: "u0a"
  top: "u0a"
}
layer {
  name: "concat_d0cc_u0a-b"
  type: "Concat"
  bottom: "u0a"
  bottom: "d0c"
  top: "u0b"
}
layer {
  name: "u0b_fixed"
  type: "FixedNeuron"
  bottom: "u0b"
  top: "u0b"
  param {
    lr_mult: 0
    decay_mult: 0
  }
  fixed_param {
    fixed_method: DIFF_S
    bit_width: 8
  }
}
layer {
  name: "conv_u0b-c_New"
  type: "ConvolutionFixed"
  bottom: "u0b"
  top: "u0c"
  param {
    lr_mult: 1
    decay_mult: 1
  }
  param {
    lr_mult: 2
    decay_mult: 0
  }
  convolution_param {
    num_output: 32
    pad: 1
    kernel_size: 3
    weight_filler {
      type: "msra"
    }
  }
  fixed_param {
    fixed_method: DIFF_S
    bit_width: 8
  }
}
layer {
  name: "relu_u0c"
  type: "ReLU"
  bottom: "u0c"
  top: "u0c"
}
layer {
  name: "u0c_fixed"
  type: "FixedNeuron"
  bottom: "u0c"
  top: "u0c"
  param {
    lr_mult: 0
    decay_mult: 0
  }
  fixed_param {
    fixed_method: DIFF_S
    bit_width: 8
  }
}
layer {
  name: "conv_u0c-d_New"
  type: "ConvolutionFixed"
  bottom: "u0c"
  top: "u0d"
  param {
    lr_mult: 1
    decay_mult: 1
  }
  param {
    lr_mult: 2
    decay_mult: 0
  }
  convolution_param {
    num_output: 32
    pad: 1
    kernel_size: 3
    weight_filler {
      type: "msra"
    }
  }
  fixed_param {
    fixed_method: DIFF_S
    bit_width: 8
  }
}
layer {
  name: "relu_u0d"
  type: "ReLU"
  bottom: "u0d"
  top: "u0d"
}
layer {
  name: "u0d_fixed"
  type: "FixedNeuron"
  bottom: "u0d"
  top: "u0d"
  param {
    lr_mult: 0
    decay_mult: 0
  }
  fixed_param {
    fixed_method: DIFF_S
    bit_width: 8
  }
}
layer {
  name: "conv_u0d-score_New"
  type: "ConvolutionFixed"
  bottom: "u0d"
  top: "conv_u0d-score_New"
  param {
    lr_mult: 1
    decay_mult: 1
  }
  param {
    lr_mult: 2
    decay_mult: 0
  }
  convolution_param {
    num_output: 19
    pad: 0
    kernel_size: 1
    weight_filler {
      type: "msra"
    }
  }
  fixed_param {
    fixed_method: DIFF_S
    bit_width: 8
  }
}
layer {
  name: "conv_u0d-score_New_fixed"
  type: "FixedNeuron"
  bottom: "conv_u0d-score_New"
  top: "conv_u0d-score_New"
  param {
    lr_mult: 0
    decay_mult: 0
  }
  fixed_param {
    fixed_method: DIFF_S
    bit_width: 8
  }
}
layer {
  name: "score"
  type: "Softmax"
  bottom: "conv_u0d-score_New"
  top: "score"
}
layer {
  name: "accuracy"
  type: "SegmentPixelIOU"
  bottom: "score"
  bottom: "label"
  top: "segmentation_eval"
  include {
    phase: TEST
  }
}
I0716 13:28:30.441352 22821 layer_factory.hpp:123] Creating layer data
I0716 13:28:30.441368 22821 net.cpp:140] Creating Layer data
I0716 13:28:30.441373 22821 net.cpp:455] data -> data
I0716 13:28:30.441381 22821 net.cpp:455] data -> label
I0716 13:28:30.441390 22821 image_seg_data_layer.cpp:46] Opening file ../data/val_img_seg_nomap.txt
I0716 13:28:30.441974 22821 image_seg_data_layer.cpp:68] A total of 500 images.
I0716 13:28:30.508275 22821 image_seg_data_layer.cpp:97] output data size: 1,3,1024,2048
I0716 13:28:30.649600 22821 internal_thread.cpp:73] Starting internal thread(s) on GPU 1
I0716 13:28:30.649788 22821 net.cpp:190] Setting up data
I0716 13:28:30.649801 22821 net.cpp:197] Top shape: 1 3 1024 2048 (6291456)
I0716 13:28:30.649806 22821 net.cpp:197] Top shape: 1 1 1024 2048 (2097152)
I0716 13:28:30.649809 22821 net.cpp:205] Memory required for data: 33554432
I0716 13:28:30.649814 22821 layer_factory.hpp:123] Creating layer resize_down
I0716 13:28:30.649827 22821 net.cpp:140] Creating Layer resize_down
I0716 13:28:30.649832 22821 net.cpp:481] resize_down <- data
I0716 13:28:30.649837 22821 net.cpp:442] resize_down -> data (in-place)
I0716 13:28:30.649847 22821 net.cpp:190] Setting up resize_down
I0716 13:28:30.649852 22821 net.cpp:197] Top shape: 1 3 512 1024 (1572864)
I0716 13:28:30.649854 22821 net.cpp:205] Memory required for data: 39845888
I0716 13:28:30.649857 22821 layer_factory.hpp:123] Creating layer data_fixed
I0716 13:28:30.649863 22821 net.cpp:140] Creating Layer data_fixed
I0716 13:28:30.649866 22821 net.cpp:481] data_fixed <- data
I0716 13:28:30.649871 22821 net.cpp:442] data_fixed -> data (in-place)
I0716 13:28:30.650014 22821 net.cpp:190] Setting up data_fixed
I0716 13:28:30.650022 22821 net.cpp:197] Top shape: 1 3 512 1024 (1572864)
I0716 13:28:30.650024 22821 net.cpp:205] Memory required for data: 46137344
I0716 13:28:30.650033 22821 layer_factory.hpp:123] Creating layer conv_d0a-b
I0716 13:28:30.650043 22821 net.cpp:140] Creating Layer conv_d0a-b
I0716 13:28:30.650046 22821 net.cpp:481] conv_d0a-b <- data
I0716 13:28:30.650051 22821 net.cpp:455] conv_d0a-b -> d0b
I0716 13:28:30.650319 22821 layer_factory.hpp:123] Creating layer conv_d0a-b
I0716 13:28:30.652706 22821 net.cpp:190] Setting up conv_d0a-b
I0716 13:28:30.652719 22821 net.cpp:197] Top shape: 1 32 512 1024 (16777216)
I0716 13:28:30.652722 22821 net.cpp:205] Memory required for data: 113246208
I0716 13:28:30.652730 22821 layer_factory.hpp:123] Creating layer relu_d0b
I0716 13:28:30.652739 22821 net.cpp:140] Creating Layer relu_d0b
I0716 13:28:30.652741 22821 net.cpp:481] relu_d0b <- d0b
I0716 13:28:30.652746 22821 net.cpp:455] relu_d0b -> relu_d0b
I0716 13:28:30.652781 22821 net.cpp:190] Setting up relu_d0b
I0716 13:28:30.652786 22821 net.cpp:197] Top shape: 1 32 512 1024 (16777216)
I0716 13:28:30.652789 22821 net.cpp:205] Memory required for data: 180355072
I0716 13:28:30.652792 22821 layer_factory.hpp:123] Creating layer relu_d0b_fixed
I0716 13:28:30.652797 22821 net.cpp:140] Creating Layer relu_d0b_fixed
I0716 13:28:30.652801 22821 net.cpp:481] relu_d0b_fixed <- relu_d0b
I0716 13:28:30.652806 22821 net.cpp:442] relu_d0b_fixed -> relu_d0b (in-place)
I0716 13:28:30.652840 22821 net.cpp:190] Setting up relu_d0b_fixed
I0716 13:28:30.652846 22821 net.cpp:197] Top shape: 1 32 512 1024 (16777216)
I0716 13:28:30.652849 22821 net.cpp:205] Memory required for data: 247463936
I0716 13:28:30.652853 22821 layer_factory.hpp:123] Creating layer conv_d0b-c
I0716 13:28:30.652861 22821 net.cpp:140] Creating Layer conv_d0b-c
I0716 13:28:30.652864 22821 net.cpp:481] conv_d0b-c <- relu_d0b
I0716 13:28:30.652869 22821 net.cpp:455] conv_d0b-c -> d0c
I0716 13:28:30.653138 22821 layer_factory.hpp:123] Creating layer conv_d0b-c
I0716 13:28:30.655475 22821 net.cpp:190] Setting up conv_d0b-c
I0716 13:28:30.655488 22821 net.cpp:197] Top shape: 1 32 512 1024 (16777216)
I0716 13:28:30.655491 22821 net.cpp:205] Memory required for data: 314572800
I0716 13:28:30.655499 22821 layer_factory.hpp:123] Creating layer d0c_fixed
I0716 13:28:30.655505 22821 net.cpp:140] Creating Layer d0c_fixed
I0716 13:28:30.655508 22821 net.cpp:481] d0c_fixed <- d0c
I0716 13:28:30.655514 22821 net.cpp:442] d0c_fixed -> d0c (in-place)
I0716 13:28:30.655555 22821 net.cpp:190] Setting up d0c_fixed
I0716 13:28:30.655562 22821 net.cpp:197] Top shape: 1 32 512 1024 (16777216)
I0716 13:28:30.655565 22821 net.cpp:205] Memory required for data: 381681664
I0716 13:28:30.655570 22821 layer_factory.hpp:123] Creating layer d0c_d0c_fixed_0_split
I0716 13:28:30.655576 22821 net.cpp:140] Creating Layer d0c_d0c_fixed_0_split
I0716 13:28:30.655580 22821 net.cpp:481] d0c_d0c_fixed_0_split <- d0c
I0716 13:28:30.655584 22821 net.cpp:455] d0c_d0c_fixed_0_split -> d0c_d0c_fixed_0_split_0
I0716 13:28:30.655591 22821 net.cpp:455] d0c_d0c_fixed_0_split -> d0c_d0c_fixed_0_split_1
I0716 13:28:30.655627 22821 net.cpp:190] Setting up d0c_d0c_fixed_0_split
I0716 13:28:30.655632 22821 net.cpp:197] Top shape: 1 32 512 1024 (16777216)
I0716 13:28:30.655635 22821 net.cpp:197] Top shape: 1 32 512 1024 (16777216)
I0716 13:28:30.655638 22821 net.cpp:205] Memory required for data: 515899392
I0716 13:28:30.655642 22821 layer_factory.hpp:123] Creating layer BatchNorm_d0c
I0716 13:28:30.655648 22821 net.cpp:140] Creating Layer BatchNorm_d0c
I0716 13:28:30.655652 22821 net.cpp:481] BatchNorm_d0c <- d0c_d0c_fixed_0_split_0
I0716 13:28:30.655656 22821 net.cpp:455] BatchNorm_d0c -> BatchNorm_d0c
I0716 13:28:30.655696 22821 layer_factory.hpp:123] Creating layer BatchNorm_d0c
I0716 13:28:30.656735 22821 layer_factory.hpp:123] Creating layer BatchNorm_d0c
I0716 13:28:30.656787 22821 layer_factory.hpp:123] Creating layer BatchNorm_d0c
I0716 13:28:30.659782 22821 net.cpp:190] Setting up BatchNorm_d0c
I0716 13:28:30.659795 22821 net.cpp:197] Top shape: 1 32 512 1024 (16777216)
I0716 13:28:30.659797 22821 net.cpp:205] Memory required for data: 583008256
I0716 13:28:30.659806 22821 layer_factory.hpp:123] Creating layer relu_d0c
I0716 13:28:30.659811 22821 net.cpp:140] Creating Layer relu_d0c
I0716 13:28:30.659814 22821 net.cpp:481] relu_d0c <- BatchNorm_d0c
I0716 13:28:30.659821 22821 net.cpp:455] relu_d0c -> relu_d0c
I0716 13:28:30.659853 22821 net.cpp:190] Setting up relu_d0c
I0716 13:28:30.659858 22821 net.cpp:197] Top shape: 1 32 512 1024 (16777216)
I0716 13:28:30.659862 22821 net.cpp:205] Memory required for data: 650117120
I0716 13:28:30.659864 22821 layer_factory.hpp:123] Creating layer pool_d0c-1a
I0716 13:28:30.659871 22821 net.cpp:140] Creating Layer pool_d0c-1a
I0716 13:28:30.659874 22821 net.cpp:481] pool_d0c-1a <- relu_d0c
I0716 13:28:30.659878 22821 net.cpp:455] pool_d0c-1a -> d1a
I0716 13:28:30.659915 22821 net.cpp:190] Setting up pool_d0c-1a
I0716 13:28:30.659922 22821 net.cpp:197] Top shape: 1 32 256 512 (4194304)
I0716 13:28:30.659925 22821 net.cpp:205] Memory required for data: 666894336
I0716 13:28:30.659927 22821 layer_factory.hpp:123] Creating layer d1a_fixed
I0716 13:28:30.659934 22821 net.cpp:140] Creating Layer d1a_fixed
I0716 13:28:30.659936 22821 net.cpp:481] d1a_fixed <- d1a
I0716 13:28:30.659940 22821 net.cpp:442] d1a_fixed -> d1a (in-place)
I0716 13:28:30.659974 22821 net.cpp:190] Setting up d1a_fixed
I0716 13:28:30.659981 22821 net.cpp:197] Top shape: 1 32 256 512 (4194304)
I0716 13:28:30.659983 22821 net.cpp:205] Memory required for data: 683671552
I0716 13:28:30.659988 22821 layer_factory.hpp:123] Creating layer conv_d1a-b
I0716 13:28:30.659996 22821 net.cpp:140] Creating Layer conv_d1a-b
I0716 13:28:30.659999 22821 net.cpp:481] conv_d1a-b <- d1a
I0716 13:28:30.660004 22821 net.cpp:455] conv_d1a-b -> d1b
I0716 13:28:30.660357 22821 layer_factory.hpp:123] Creating layer conv_d1a-b
I0716 13:28:30.661710 22821 net.cpp:190] Setting up conv_d1a-b
I0716 13:28:30.661721 22821 net.cpp:197] Top shape: 1 64 256 512 (8388608)
I0716 13:28:30.661725 22821 net.cpp:205] Memory required for data: 717225984
I0716 13:28:30.661731 22821 layer_factory.hpp:123] Creating layer relu_d1b
I0716 13:28:30.661736 22821 net.cpp:140] Creating Layer relu_d1b
I0716 13:28:30.661741 22821 net.cpp:481] relu_d1b <- d1b
I0716 13:28:30.661746 22821 net.cpp:455] relu_d1b -> relu_d1b
I0716 13:28:30.661773 22821 net.cpp:190] Setting up relu_d1b
I0716 13:28:30.661778 22821 net.cpp:197] Top shape: 1 64 256 512 (8388608)
I0716 13:28:30.661782 22821 net.cpp:205] Memory required for data: 750780416
I0716 13:28:30.661784 22821 layer_factory.hpp:123] Creating layer relu_d1b_fixed
I0716 13:28:30.661789 22821 net.cpp:140] Creating Layer relu_d1b_fixed
I0716 13:28:30.661792 22821 net.cpp:481] relu_d1b_fixed <- relu_d1b
I0716 13:28:30.661798 22821 net.cpp:442] relu_d1b_fixed -> relu_d1b (in-place)
I0716 13:28:30.661831 22821 net.cpp:190] Setting up relu_d1b_fixed
I0716 13:28:30.661837 22821 net.cpp:197] Top shape: 1 64 256 512 (8388608)
I0716 13:28:30.661840 22821 net.cpp:205] Memory required for data: 784334848
I0716 13:28:30.661844 22821 layer_factory.hpp:123] Creating layer conv_d1b-c
I0716 13:28:30.661854 22821 net.cpp:140] Creating Layer conv_d1b-c
I0716 13:28:30.661856 22821 net.cpp:481] conv_d1b-c <- relu_d1b
I0716 13:28:30.661861 22821 net.cpp:455] conv_d1b-c -> d1c
I0716 13:28:30.662367 22821 layer_factory.hpp:123] Creating layer conv_d1b-c
I0716 13:28:30.663887 22821 net.cpp:190] Setting up conv_d1b-c
I0716 13:28:30.663899 22821 net.cpp:197] Top shape: 1 64 256 512 (8388608)
I0716 13:28:30.663902 22821 net.cpp:205] Memory required for data: 817889280
I0716 13:28:30.663909 22821 layer_factory.hpp:123] Creating layer d1c_fixed
I0716 13:28:30.663915 22821 net.cpp:140] Creating Layer d1c_fixed
I0716 13:28:30.663918 22821 net.cpp:481] d1c_fixed <- d1c
I0716 13:28:30.663923 22821 net.cpp:442] d1c_fixed -> d1c (in-place)
I0716 13:28:30.663964 22821 net.cpp:190] Setting up d1c_fixed
I0716 13:28:30.663970 22821 net.cpp:197] Top shape: 1 64 256 512 (8388608)
I0716 13:28:30.663974 22821 net.cpp:205] Memory required for data: 851443712
I0716 13:28:30.663978 22821 layer_factory.hpp:123] Creating layer d1c_d1c_fixed_0_split
I0716 13:28:30.663983 22821 net.cpp:140] Creating Layer d1c_d1c_fixed_0_split
I0716 13:28:30.663986 22821 net.cpp:481] d1c_d1c_fixed_0_split <- d1c
I0716 13:28:30.663991 22821 net.cpp:455] d1c_d1c_fixed_0_split -> d1c_d1c_fixed_0_split_0
I0716 13:28:30.663997 22821 net.cpp:455] d1c_d1c_fixed_0_split -> d1c_d1c_fixed_0_split_1
I0716 13:28:30.664043 22821 net.cpp:190] Setting up d1c_d1c_fixed_0_split
I0716 13:28:30.664049 22821 net.cpp:197] Top shape: 1 64 256 512 (8388608)
I0716 13:28:30.664052 22821 net.cpp:197] Top shape: 1 64 256 512 (8388608)
I0716 13:28:30.664055 22821 net.cpp:205] Memory required for data: 918552576
I0716 13:28:30.664059 22821 layer_factory.hpp:123] Creating layer BatchNorm_d1c
I0716 13:28:30.664065 22821 net.cpp:140] Creating Layer BatchNorm_d1c
I0716 13:28:30.664069 22821 net.cpp:481] BatchNorm_d1c <- d1c_d1c_fixed_0_split_0
I0716 13:28:30.664074 22821 net.cpp:455] BatchNorm_d1c -> BatchNorm_d1c
I0716 13:28:30.664113 22821 layer_factory.hpp:123] Creating layer BatchNorm_d1c
I0716 13:28:30.664252 22821 layer_factory.hpp:123] Creating layer BatchNorm_d1c
I0716 13:28:30.664294 22821 layer_factory.hpp:123] Creating layer BatchNorm_d1c
I0716 13:28:30.667054 22821 net.cpp:190] Setting up BatchNorm_d1c
I0716 13:28:30.667068 22821 net.cpp:197] Top shape: 1 64 256 512 (8388608)
I0716 13:28:30.667071 22821 net.cpp:205] Memory required for data: 952107008
I0716 13:28:30.667080 22821 layer_factory.hpp:123] Creating layer relu_d1c
I0716 13:28:30.667086 22821 net.cpp:140] Creating Layer relu_d1c
I0716 13:28:30.667090 22821 net.cpp:481] relu_d1c <- BatchNorm_d1c
I0716 13:28:30.667095 22821 net.cpp:455] relu_d1c -> relu_d1c
I0716 13:28:30.667126 22821 net.cpp:190] Setting up relu_d1c
I0716 13:28:30.667134 22821 net.cpp:197] Top shape: 1 64 256 512 (8388608)
I0716 13:28:30.667136 22821 net.cpp:205] Memory required for data: 985661440
I0716 13:28:30.667140 22821 layer_factory.hpp:123] Creating layer pool_d1c-2a
I0716 13:28:30.667145 22821 net.cpp:140] Creating Layer pool_d1c-2a
I0716 13:28:30.667148 22821 net.cpp:481] pool_d1c-2a <- relu_d1c
I0716 13:28:30.667155 22821 net.cpp:455] pool_d1c-2a -> d2a
I0716 13:28:30.667191 22821 net.cpp:190] Setting up pool_d1c-2a
I0716 13:28:30.667197 22821 net.cpp:197] Top shape: 1 64 128 256 (2097152)
I0716 13:28:30.667201 22821 net.cpp:205] Memory required for data: 994050048
I0716 13:28:30.667203 22821 layer_factory.hpp:123] Creating layer d2a_fixed
I0716 13:28:30.667208 22821 net.cpp:140] Creating Layer d2a_fixed
I0716 13:28:30.667212 22821 net.cpp:481] d2a_fixed <- d2a
I0716 13:28:30.667217 22821 net.cpp:442] d2a_fixed -> d2a (in-place)
I0716 13:28:30.667250 22821 net.cpp:190] Setting up d2a_fixed
I0716 13:28:30.667256 22821 net.cpp:197] Top shape: 1 64 128 256 (2097152)
I0716 13:28:30.667259 22821 net.cpp:205] Memory required for data: 1002438656
I0716 13:28:30.667264 22821 layer_factory.hpp:123] Creating layer conv_d2a-b
I0716 13:28:30.667273 22821 net.cpp:140] Creating Layer conv_d2a-b
I0716 13:28:30.667275 22821 net.cpp:481] conv_d2a-b <- d2a
I0716 13:28:30.667280 22821 net.cpp:455] conv_d2a-b -> d2b
I0716 13:28:30.668103 22821 layer_factory.hpp:123] Creating layer conv_d2a-b
I0716 13:28:30.669107 22821 net.cpp:190] Setting up conv_d2a-b
I0716 13:28:30.669116 22821 net.cpp:197] Top shape: 1 128 128 256 (4194304)
I0716 13:28:30.669119 22821 net.cpp:205] Memory required for data: 1019215872
I0716 13:28:30.669126 22821 layer_factory.hpp:123] Creating layer relu_d2b
I0716 13:28:30.669131 22821 net.cpp:140] Creating Layer relu_d2b
I0716 13:28:30.669134 22821 net.cpp:481] relu_d2b <- d2b
I0716 13:28:30.669139 22821 net.cpp:455] relu_d2b -> relu_d2b
I0716 13:28:30.669167 22821 net.cpp:190] Setting up relu_d2b
I0716 13:28:30.669173 22821 net.cpp:197] Top shape: 1 128 128 256 (4194304)
I0716 13:28:30.669174 22821 net.cpp:205] Memory required for data: 1035993088
I0716 13:28:30.669178 22821 layer_factory.hpp:123] Creating layer relu_d2b_fixed
I0716 13:28:30.669183 22821 net.cpp:140] Creating Layer relu_d2b_fixed
I0716 13:28:30.669186 22821 net.cpp:481] relu_d2b_fixed <- relu_d2b
I0716 13:28:30.669190 22821 net.cpp:442] relu_d2b_fixed -> relu_d2b (in-place)
I0716 13:28:30.669224 22821 net.cpp:190] Setting up relu_d2b_fixed
I0716 13:28:30.669230 22821 net.cpp:197] Top shape: 1 128 128 256 (4194304)
I0716 13:28:30.669234 22821 net.cpp:205] Memory required for data: 1052770304
I0716 13:28:30.669237 22821 layer_factory.hpp:123] Creating layer conv_d2b-c
I0716 13:28:30.669245 22821 net.cpp:140] Creating Layer conv_d2b-c
I0716 13:28:30.669248 22821 net.cpp:481] conv_d2b-c <- relu_d2b
I0716 13:28:30.669253 22821 net.cpp:455] conv_d2b-c -> d2c
I0716 13:28:30.671389 22821 layer_factory.hpp:123] Creating layer conv_d2b-c
I0716 13:28:30.673702 22821 net.cpp:190] Setting up conv_d2b-c
I0716 13:28:30.673714 22821 net.cpp:197] Top shape: 1 128 128 256 (4194304)
I0716 13:28:30.673717 22821 net.cpp:205] Memory required for data: 1069547520
I0716 13:28:30.673723 22821 layer_factory.hpp:123] Creating layer d2c_fixed
I0716 13:28:30.673729 22821 net.cpp:140] Creating Layer d2c_fixed
I0716 13:28:30.673732 22821 net.cpp:481] d2c_fixed <- d2c
I0716 13:28:30.673738 22821 net.cpp:442] d2c_fixed -> d2c (in-place)
I0716 13:28:30.673776 22821 net.cpp:190] Setting up d2c_fixed
I0716 13:28:30.673781 22821 net.cpp:197] Top shape: 1 128 128 256 (4194304)
I0716 13:28:30.673784 22821 net.cpp:205] Memory required for data: 1086324736
I0716 13:28:30.673789 22821 layer_factory.hpp:123] Creating layer d2c_d2c_fixed_0_split
I0716 13:28:30.673794 22821 net.cpp:140] Creating Layer d2c_d2c_fixed_0_split
I0716 13:28:30.673797 22821 net.cpp:481] d2c_d2c_fixed_0_split <- d2c
I0716 13:28:30.673804 22821 net.cpp:455] d2c_d2c_fixed_0_split -> d2c_d2c_fixed_0_split_0
I0716 13:28:30.673810 22821 net.cpp:455] d2c_d2c_fixed_0_split -> d2c_d2c_fixed_0_split_1
I0716 13:28:30.673844 22821 net.cpp:190] Setting up d2c_d2c_fixed_0_split
I0716 13:28:30.673851 22821 net.cpp:197] Top shape: 1 128 128 256 (4194304)
I0716 13:28:30.673856 22821 net.cpp:197] Top shape: 1 128 128 256 (4194304)
I0716 13:28:30.673858 22821 net.cpp:205] Memory required for data: 1119879168
I0716 13:28:30.673861 22821 layer_factory.hpp:123] Creating layer BatchNorm_d2c
I0716 13:28:30.673867 22821 net.cpp:140] Creating Layer BatchNorm_d2c
I0716 13:28:30.673871 22821 net.cpp:481] BatchNorm_d2c <- d2c_d2c_fixed_0_split_0
I0716 13:28:30.673877 22821 net.cpp:455] BatchNorm_d2c -> BatchNorm_d2c
I0716 13:28:30.673914 22821 layer_factory.hpp:123] Creating layer BatchNorm_d2c
I0716 13:28:30.673995 22821 layer_factory.hpp:123] Creating layer BatchNorm_d2c
I0716 13:28:30.674036 22821 layer_factory.hpp:123] Creating layer BatchNorm_d2c
I0716 13:28:30.674207 22821 net.cpp:190] Setting up BatchNorm_d2c
I0716 13:28:30.674214 22821 net.cpp:197] Top shape: 1 128 128 256 (4194304)
I0716 13:28:30.674217 22821 net.cpp:205] Memory required for data: 1136656384
I0716 13:28:30.674223 22821 layer_factory.hpp:123] Creating layer relu_d2c
I0716 13:28:30.674228 22821 net.cpp:140] Creating Layer relu_d2c
I0716 13:28:30.674232 22821 net.cpp:481] relu_d2c <- BatchNorm_d2c
I0716 13:28:30.674237 22821 net.cpp:455] relu_d2c -> relu_d2c
I0716 13:28:30.674263 22821 net.cpp:190] Setting up relu_d2c
I0716 13:28:30.674269 22821 net.cpp:197] Top shape: 1 128 128 256 (4194304)
I0716 13:28:30.674273 22821 net.cpp:205] Memory required for data: 1153433600
I0716 13:28:30.674275 22821 layer_factory.hpp:123] Creating layer pool_d2c-3a
I0716 13:28:30.674280 22821 net.cpp:140] Creating Layer pool_d2c-3a
I0716 13:28:30.674284 22821 net.cpp:481] pool_d2c-3a <- relu_d2c
I0716 13:28:30.674288 22821 net.cpp:455] pool_d2c-3a -> d3a
I0716 13:28:30.674324 22821 net.cpp:190] Setting up pool_d2c-3a
I0716 13:28:30.674329 22821 net.cpp:197] Top shape: 1 128 64 128 (1048576)
I0716 13:28:30.674332 22821 net.cpp:205] Memory required for data: 1157627904
I0716 13:28:30.674335 22821 layer_factory.hpp:123] Creating layer d3a_fixed
I0716 13:28:30.674342 22821 net.cpp:140] Creating Layer d3a_fixed
I0716 13:28:30.674345 22821 net.cpp:481] d3a_fixed <- d3a
I0716 13:28:30.674350 22821 net.cpp:442] d3a_fixed -> d3a (in-place)
I0716 13:28:30.674382 22821 net.cpp:190] Setting up d3a_fixed
I0716 13:28:30.674388 22821 net.cpp:197] Top shape: 1 128 64 128 (1048576)
I0716 13:28:30.674391 22821 net.cpp:205] Memory required for data: 1161822208
I0716 13:28:30.674396 22821 layer_factory.hpp:123] Creating layer conv_d3a-b
I0716 13:28:30.674404 22821 net.cpp:140] Creating Layer conv_d3a-b
I0716 13:28:30.674407 22821 net.cpp:481] conv_d3a-b <- d3a
I0716 13:28:30.674412 22821 net.cpp:455] conv_d3a-b -> d3b
I0716 13:28:30.677811 22821 layer_factory.hpp:123] Creating layer conv_d3a-b
I0716 13:28:30.682032 22821 net.cpp:190] Setting up conv_d3a-b
I0716 13:28:30.682044 22821 net.cpp:197] Top shape: 1 256 64 128 (2097152)
I0716 13:28:30.682047 22821 net.cpp:205] Memory required for data: 1170210816
I0716 13:28:30.682054 22821 layer_factory.hpp:123] Creating layer relu_d3b
I0716 13:28:30.682060 22821 net.cpp:140] Creating Layer relu_d3b
I0716 13:28:30.682063 22821 net.cpp:481] relu_d3b <- d3b
I0716 13:28:30.682068 22821 net.cpp:455] relu_d3b -> relu_d3b
I0716 13:28:30.682096 22821 net.cpp:190] Setting up relu_d3b
I0716 13:28:30.682101 22821 net.cpp:197] Top shape: 1 256 64 128 (2097152)
I0716 13:28:30.682104 22821 net.cpp:205] Memory required for data: 1178599424
I0716 13:28:30.682107 22821 layer_factory.hpp:123] Creating layer relu_d3b_fixed
I0716 13:28:30.682113 22821 net.cpp:140] Creating Layer relu_d3b_fixed
I0716 13:28:30.682117 22821 net.cpp:481] relu_d3b_fixed <- relu_d3b
I0716 13:28:30.682121 22821 net.cpp:442] relu_d3b_fixed -> relu_d3b (in-place)
I0716 13:28:30.682157 22821 net.cpp:190] Setting up relu_d3b_fixed
I0716 13:28:30.682164 22821 net.cpp:197] Top shape: 1 256 64 128 (2097152)
I0716 13:28:30.682168 22821 net.cpp:205] Memory required for data: 1186988032
I0716 13:28:30.682171 22821 layer_factory.hpp:123] Creating layer conv_d3b-c
I0716 13:28:30.682179 22821 net.cpp:140] Creating Layer conv_d3b-c
I0716 13:28:30.682183 22821 net.cpp:481] conv_d3b-c <- relu_d3b
I0716 13:28:30.682188 22821 net.cpp:455] conv_d3b-c -> d3c
I0716 13:28:30.688951 22821 layer_factory.hpp:123] Creating layer conv_d3b-c
I0716 13:28:30.695858 22821 net.cpp:190] Setting up conv_d3b-c
I0716 13:28:30.695869 22821 net.cpp:197] Top shape: 1 256 64 128 (2097152)
I0716 13:28:30.695873 22821 net.cpp:205] Memory required for data: 1195376640
I0716 13:28:30.695883 22821 layer_factory.hpp:123] Creating layer d3c_fixed
I0716 13:28:30.695888 22821 net.cpp:140] Creating Layer d3c_fixed
I0716 13:28:30.695892 22821 net.cpp:481] d3c_fixed <- d3c
I0716 13:28:30.695897 22821 net.cpp:442] d3c_fixed -> d3c (in-place)
I0716 13:28:30.695936 22821 net.cpp:190] Setting up d3c_fixed
I0716 13:28:30.695941 22821 net.cpp:197] Top shape: 1 256 64 128 (2097152)
I0716 13:28:30.695945 22821 net.cpp:205] Memory required for data: 1203765248
I0716 13:28:30.695950 22821 layer_factory.hpp:123] Creating layer d3c_d3c_fixed_0_split
I0716 13:28:30.695955 22821 net.cpp:140] Creating Layer d3c_d3c_fixed_0_split
I0716 13:28:30.695957 22821 net.cpp:481] d3c_d3c_fixed_0_split <- d3c
I0716 13:28:30.695963 22821 net.cpp:455] d3c_d3c_fixed_0_split -> d3c_d3c_fixed_0_split_0
I0716 13:28:30.695969 22821 net.cpp:455] d3c_d3c_fixed_0_split -> d3c_d3c_fixed_0_split_1
I0716 13:28:30.696004 22821 net.cpp:190] Setting up d3c_d3c_fixed_0_split
I0716 13:28:30.696012 22821 net.cpp:197] Top shape: 1 256 64 128 (2097152)
I0716 13:28:30.696015 22821 net.cpp:197] Top shape: 1 256 64 128 (2097152)
I0716 13:28:30.696017 22821 net.cpp:205] Memory required for data: 1220542464
I0716 13:28:30.696020 22821 layer_factory.hpp:123] Creating layer BatchNorm_1
I0716 13:28:30.696028 22821 net.cpp:140] Creating Layer BatchNorm_1
I0716 13:28:30.696033 22821 net.cpp:481] BatchNorm_1 <- d3c_d3c_fixed_0_split_0
I0716 13:28:30.696038 22821 net.cpp:455] BatchNorm_1 -> BatchNorm_1
I0716 13:28:30.696075 22821 layer_factory.hpp:123] Creating layer BatchNorm_1
I0716 13:28:30.696151 22821 layer_factory.hpp:123] Creating layer BatchNorm_1
I0716 13:28:30.696189 22821 layer_factory.hpp:123] Creating layer BatchNorm_1
I0716 13:28:30.696324 22821 net.cpp:190] Setting up BatchNorm_1
I0716 13:28:30.696331 22821 net.cpp:197] Top shape: 1 256 64 128 (2097152)
I0716 13:28:30.696334 22821 net.cpp:205] Memory required for data: 1228931072
I0716 13:28:30.696341 22821 layer_factory.hpp:123] Creating layer relu_d3c
I0716 13:28:30.696346 22821 net.cpp:140] Creating Layer relu_d3c
I0716 13:28:30.696349 22821 net.cpp:481] relu_d3c <- BatchNorm_1
I0716 13:28:30.696354 22821 net.cpp:455] relu_d3c -> relu_d3c
I0716 13:28:30.696380 22821 net.cpp:190] Setting up relu_d3c
I0716 13:28:30.696388 22821 net.cpp:197] Top shape: 1 256 64 128 (2097152)
I0716 13:28:30.696390 22821 net.cpp:205] Memory required for data: 1237319680
I0716 13:28:30.696393 22821 layer_factory.hpp:123] Creating layer pool_d3c-4a
I0716 13:28:30.696399 22821 net.cpp:140] Creating Layer pool_d3c-4a
I0716 13:28:30.696403 22821 net.cpp:481] pool_d3c-4a <- relu_d3c
I0716 13:28:30.696406 22821 net.cpp:455] pool_d3c-4a -> d4a
I0716 13:28:30.696444 22821 net.cpp:190] Setting up pool_d3c-4a
I0716 13:28:30.696449 22821 net.cpp:197] Top shape: 1 256 32 64 (524288)
I0716 13:28:30.696452 22821 net.cpp:205] Memory required for data: 1239416832
I0716 13:28:30.696455 22821 layer_factory.hpp:123] Creating layer d4a_fixed
I0716 13:28:30.696460 22821 net.cpp:140] Creating Layer d4a_fixed
I0716 13:28:30.696465 22821 net.cpp:481] d4a_fixed <- d4a
I0716 13:28:30.696468 22821 net.cpp:442] d4a_fixed -> d4a (in-place)
I0716 13:28:30.696502 22821 net.cpp:190] Setting up d4a_fixed
I0716 13:28:30.696508 22821 net.cpp:197] Top shape: 1 256 32 64 (524288)
I0716 13:28:30.696511 22821 net.cpp:205] Memory required for data: 1241513984
I0716 13:28:30.696516 22821 layer_factory.hpp:123] Creating layer conv_d4a-b
I0716 13:28:30.696523 22821 net.cpp:140] Creating Layer conv_d4a-b
I0716 13:28:30.696527 22821 net.cpp:481] conv_d4a-b <- d4a
I0716 13:28:30.696532 22821 net.cpp:455] conv_d4a-b -> BatchNorm_2
I0716 13:28:30.709465 22821 layer_factory.hpp:123] Creating layer conv_d4a-b
I0716 13:28:30.722558 22821 net.cpp:190] Setting up conv_d4a-b
I0716 13:28:30.722571 22821 net.cpp:197] Top shape: 1 512 32 64 (1048576)
I0716 13:28:30.722575 22821 net.cpp:205] Memory required for data: 1245708288
I0716 13:28:30.722582 22821 layer_factory.hpp:123] Creating layer relu_d4b
I0716 13:28:30.722589 22821 net.cpp:140] Creating Layer relu_d4b
I0716 13:28:30.722592 22821 net.cpp:481] relu_d4b <- BatchNorm_2
I0716 13:28:30.722599 22821 net.cpp:455] relu_d4b -> relu_d4b
I0716 13:28:30.722627 22821 net.cpp:190] Setting up relu_d4b
I0716 13:28:30.722635 22821 net.cpp:197] Top shape: 1 512 32 64 (1048576)
I0716 13:28:30.722637 22821 net.cpp:205] Memory required for data: 1249902592
I0716 13:28:30.722640 22821 layer_factory.hpp:123] Creating layer relu_d4b_fixed
I0716 13:28:30.722646 22821 net.cpp:140] Creating Layer relu_d4b_fixed
I0716 13:28:30.722649 22821 net.cpp:481] relu_d4b_fixed <- relu_d4b
I0716 13:28:30.722653 22821 net.cpp:442] relu_d4b_fixed -> relu_d4b (in-place)
I0716 13:28:30.722690 22821 net.cpp:190] Setting up relu_d4b_fixed
I0716 13:28:30.722697 22821 net.cpp:197] Top shape: 1 512 32 64 (1048576)
I0716 13:28:30.722699 22821 net.cpp:205] Memory required for data: 1254096896
I0716 13:28:30.722703 22821 layer_factory.hpp:123] Creating layer conv_d4b-c
I0716 13:28:30.722712 22821 net.cpp:140] Creating Layer conv_d4b-c
I0716 13:28:30.722715 22821 net.cpp:481] conv_d4b-c <- relu_d4b
I0716 13:28:30.722720 22821 net.cpp:455] conv_d4b-c -> d4c
I0716 13:28:30.754047 22821 layer_factory.hpp:123] Creating layer conv_d4b-c
I0716 13:28:30.781800 22821 net.cpp:190] Setting up conv_d4b-c
I0716 13:28:30.781819 22821 net.cpp:197] Top shape: 1 512 32 64 (1048576)
I0716 13:28:30.781823 22821 net.cpp:205] Memory required for data: 1258291200
I0716 13:28:30.781831 22821 layer_factory.hpp:123] Creating layer relu_d4c
I0716 13:28:30.781838 22821 net.cpp:140] Creating Layer relu_d4c
I0716 13:28:30.781843 22821 net.cpp:481] relu_d4c <- d4c
I0716 13:28:30.781850 22821 net.cpp:455] relu_d4c -> relu_d4c
I0716 13:28:30.781882 22821 net.cpp:190] Setting up relu_d4c
I0716 13:28:30.781886 22821 net.cpp:197] Top shape: 1 512 32 64 (1048576)
I0716 13:28:30.781889 22821 net.cpp:205] Memory required for data: 1262485504
I0716 13:28:30.781893 22821 layer_factory.hpp:123] Creating layer relu_d4c_fixed
I0716 13:28:30.781898 22821 net.cpp:140] Creating Layer relu_d4c_fixed
I0716 13:28:30.781901 22821 net.cpp:481] relu_d4c_fixed <- relu_d4c
I0716 13:28:30.781906 22821 net.cpp:442] relu_d4c_fixed -> relu_d4c (in-place)
I0716 13:28:30.781944 22821 net.cpp:190] Setting up relu_d4c_fixed
I0716 13:28:30.781950 22821 net.cpp:197] Top shape: 1 512 32 64 (1048576)
I0716 13:28:30.781953 22821 net.cpp:205] Memory required for data: 1266679808
I0716 13:28:30.781957 22821 layer_factory.hpp:123] Creating layer upconv_d4c_u3a
I0716 13:28:30.781965 22821 net.cpp:140] Creating Layer upconv_d4c_u3a
I0716 13:28:30.781970 22821 net.cpp:481] upconv_d4c_u3a <- relu_d4c
I0716 13:28:30.781975 22821 net.cpp:455] upconv_d4c_u3a -> u3a
I0716 13:28:30.788053 22821 layer_factory.hpp:123] Creating layer upconv_d4c_u3a
I0716 13:28:30.795217 22821 net.cpp:190] Setting up upconv_d4c_u3a
I0716 13:28:30.795231 22821 net.cpp:197] Top shape: 1 256 64 128 (2097152)
I0716 13:28:30.795234 22821 net.cpp:205] Memory required for data: 1275068416
I0716 13:28:30.795240 22821 layer_factory.hpp:123] Creating layer relu_u3a
I0716 13:28:30.795246 22821 net.cpp:140] Creating Layer relu_u3a
I0716 13:28:30.795250 22821 net.cpp:481] relu_u3a <- u3a
I0716 13:28:30.795255 22821 net.cpp:442] relu_u3a -> u3a (in-place)
I0716 13:28:30.795262 22821 net.cpp:190] Setting up relu_u3a
I0716 13:28:30.795266 22821 net.cpp:197] Top shape: 1 256 64 128 (2097152)
I0716 13:28:30.795269 22821 net.cpp:205] Memory required for data: 1283457024
I0716 13:28:30.795272 22821 layer_factory.hpp:123] Creating layer concat_d3cc_u3a-b
I0716 13:28:30.795277 22821 net.cpp:140] Creating Layer concat_d3cc_u3a-b
I0716 13:28:30.795280 22821 net.cpp:481] concat_d3cc_u3a-b <- u3a
I0716 13:28:30.795284 22821 net.cpp:481] concat_d3cc_u3a-b <- d3c_d3c_fixed_0_split_1
I0716 13:28:30.795289 22821 net.cpp:455] concat_d3cc_u3a-b -> u3b
I0716 13:28:30.795318 22821 net.cpp:190] Setting up concat_d3cc_u3a-b
I0716 13:28:30.795325 22821 net.cpp:197] Top shape: 1 512 64 128 (4194304)
I0716 13:28:30.795328 22821 net.cpp:205] Memory required for data: 1300234240
I0716 13:28:30.795331 22821 layer_factory.hpp:123] Creating layer u3b_fixed
I0716 13:28:30.795336 22821 net.cpp:140] Creating Layer u3b_fixed
I0716 13:28:30.795339 22821 net.cpp:481] u3b_fixed <- u3b
I0716 13:28:30.795343 22821 net.cpp:442] u3b_fixed -> u3b (in-place)
I0716 13:28:30.795380 22821 net.cpp:190] Setting up u3b_fixed
I0716 13:28:30.795387 22821 net.cpp:197] Top shape: 1 512 64 128 (4194304)
I0716 13:28:30.795389 22821 net.cpp:205] Memory required for data: 1317011456
I0716 13:28:30.795393 22821 layer_factory.hpp:123] Creating layer conv_u3b-c
I0716 13:28:30.795403 22821 net.cpp:140] Creating Layer conv_u3b-c
I0716 13:28:30.795406 22821 net.cpp:481] conv_u3b-c <- u3b
I0716 13:28:30.795410 22821 net.cpp:455] conv_u3b-c -> u3c
I0716 13:28:30.808352 22821 layer_factory.hpp:123] Creating layer conv_u3b-c
I0716 13:28:30.822116 22821 net.cpp:190] Setting up conv_u3b-c
I0716 13:28:30.822137 22821 net.cpp:197] Top shape: 1 256 64 128 (2097152)
I0716 13:28:30.822140 22821 net.cpp:205] Memory required for data: 1325400064
I0716 13:28:30.822149 22821 layer_factory.hpp:123] Creating layer relu_u3c
I0716 13:28:30.822157 22821 net.cpp:140] Creating Layer relu_u3c
I0716 13:28:30.822162 22821 net.cpp:481] relu_u3c <- u3c
I0716 13:28:30.822168 22821 net.cpp:442] relu_u3c -> u3c (in-place)
I0716 13:28:30.822177 22821 net.cpp:190] Setting up relu_u3c
I0716 13:28:30.822181 22821 net.cpp:197] Top shape: 1 256 64 128 (2097152)
I0716 13:28:30.822185 22821 net.cpp:205] Memory required for data: 1333788672
I0716 13:28:30.822186 22821 layer_factory.hpp:123] Creating layer u3c_fixed
I0716 13:28:30.822192 22821 net.cpp:140] Creating Layer u3c_fixed
I0716 13:28:30.822196 22821 net.cpp:481] u3c_fixed <- u3c
I0716 13:28:30.822199 22821 net.cpp:442] u3c_fixed -> u3c (in-place)
I0716 13:28:30.822240 22821 net.cpp:190] Setting up u3c_fixed
I0716 13:28:30.822247 22821 net.cpp:197] Top shape: 1 256 64 128 (2097152)
I0716 13:28:30.822250 22821 net.cpp:205] Memory required for data: 1342177280
I0716 13:28:30.822254 22821 layer_factory.hpp:123] Creating layer conv_u3c-d
I0716 13:28:30.822263 22821 net.cpp:140] Creating Layer conv_u3c-d
I0716 13:28:30.822266 22821 net.cpp:481] conv_u3c-d <- u3c
I0716 13:28:30.822273 22821 net.cpp:455] conv_u3c-d -> u3d
I0716 13:28:30.829221 22821 layer_factory.hpp:123] Creating layer conv_u3c-d
I0716 13:28:30.836344 22821 net.cpp:190] Setting up conv_u3c-d
I0716 13:28:30.836364 22821 net.cpp:197] Top shape: 1 256 64 128 (2097152)
I0716 13:28:30.836367 22821 net.cpp:205] Memory required for data: 1350565888
I0716 13:28:30.836375 22821 layer_factory.hpp:123] Creating layer relu_u3d
I0716 13:28:30.836385 22821 net.cpp:140] Creating Layer relu_u3d
I0716 13:28:30.836388 22821 net.cpp:481] relu_u3d <- u3d
I0716 13:28:30.836396 22821 net.cpp:442] relu_u3d -> u3d (in-place)
I0716 13:28:30.836405 22821 net.cpp:190] Setting up relu_u3d
I0716 13:28:30.836408 22821 net.cpp:197] Top shape: 1 256 64 128 (2097152)
I0716 13:28:30.836411 22821 net.cpp:205] Memory required for data: 1358954496
I0716 13:28:30.836416 22821 layer_factory.hpp:123] Creating layer u3d_fixed
I0716 13:28:30.836421 22821 net.cpp:140] Creating Layer u3d_fixed
I0716 13:28:30.836423 22821 net.cpp:481] u3d_fixed <- u3d
I0716 13:28:30.836427 22821 net.cpp:442] u3d_fixed -> u3d (in-place)
I0716 13:28:30.836469 22821 net.cpp:190] Setting up u3d_fixed
I0716 13:28:30.836475 22821 net.cpp:197] Top shape: 1 256 64 128 (2097152)
I0716 13:28:30.836478 22821 net.cpp:205] Memory required for data: 1367343104
I0716 13:28:30.836483 22821 layer_factory.hpp:123] Creating layer upconv_u3d_u2a
I0716 13:28:30.836491 22821 net.cpp:140] Creating Layer upconv_u3d_u2a
I0716 13:28:30.836494 22821 net.cpp:481] upconv_u3d_u2a <- u3d
I0716 13:28:30.836499 22821 net.cpp:455] upconv_u3d_u2a -> u2a
I0716 13:28:30.837879 22821 layer_factory.hpp:123] Creating layer upconv_u3d_u2a
I0716 13:28:30.840173 22821 net.cpp:190] Setting up upconv_u3d_u2a
I0716 13:28:30.840184 22821 net.cpp:197] Top shape: 1 128 128 256 (4194304)
I0716 13:28:30.840188 22821 net.cpp:205] Memory required for data: 1384120320
I0716 13:28:30.840193 22821 layer_factory.hpp:123] Creating layer relu_u2a
I0716 13:28:30.840199 22821 net.cpp:140] Creating Layer relu_u2a
I0716 13:28:30.840204 22821 net.cpp:481] relu_u2a <- u2a
I0716 13:28:30.840209 22821 net.cpp:442] relu_u2a -> u2a (in-place)
I0716 13:28:30.840214 22821 net.cpp:190] Setting up relu_u2a
I0716 13:28:30.840219 22821 net.cpp:197] Top shape: 1 128 128 256 (4194304)
I0716 13:28:30.840221 22821 net.cpp:205] Memory required for data: 1400897536
I0716 13:28:30.840234 22821 layer_factory.hpp:123] Creating layer concat_d2cc_u2a-b
I0716 13:28:30.840240 22821 net.cpp:140] Creating Layer concat_d2cc_u2a-b
I0716 13:28:30.840242 22821 net.cpp:481] concat_d2cc_u2a-b <- u2a
I0716 13:28:30.840246 22821 net.cpp:481] concat_d2cc_u2a-b <- d2c_d2c_fixed_0_split_1
I0716 13:28:30.840251 22821 net.cpp:455] concat_d2cc_u2a-b -> u2b
I0716 13:28:30.840282 22821 net.cpp:190] Setting up concat_d2cc_u2a-b
I0716 13:28:30.840287 22821 net.cpp:197] Top shape: 1 256 128 256 (8388608)
I0716 13:28:30.840289 22821 net.cpp:205] Memory required for data: 1434451968
I0716 13:28:30.840292 22821 layer_factory.hpp:123] Creating layer u2b_fixed
I0716 13:28:30.840298 22821 net.cpp:140] Creating Layer u2b_fixed
I0716 13:28:30.840301 22821 net.cpp:481] u2b_fixed <- u2b
I0716 13:28:30.840306 22821 net.cpp:442] u2b_fixed -> u2b (in-place)
I0716 13:28:30.840345 22821 net.cpp:190] Setting up u2b_fixed
I0716 13:28:30.840351 22821 net.cpp:197] Top shape: 1 256 128 256 (8388608)
I0716 13:28:30.840354 22821 net.cpp:205] Memory required for data: 1468006400
I0716 13:28:30.840358 22821 layer_factory.hpp:123] Creating layer conv_u2b-c
I0716 13:28:30.840368 22821 net.cpp:140] Creating Layer conv_u2b-c
I0716 13:28:30.840370 22821 net.cpp:481] conv_u2b-c <- u2b
I0716 13:28:30.840376 22821 net.cpp:455] conv_u2b-c -> u2c
I0716 13:28:30.843833 22821 layer_factory.hpp:123] Creating layer conv_u2b-c
I0716 13:28:30.848879 22821 net.cpp:190] Setting up conv_u2b-c
I0716 13:28:30.848897 22821 net.cpp:197] Top shape: 1 128 128 256 (4194304)
I0716 13:28:30.848901 22821 net.cpp:205] Memory required for data: 1484783616
I0716 13:28:30.848908 22821 layer_factory.hpp:123] Creating layer relu_u2c
I0716 13:28:30.848919 22821 net.cpp:140] Creating Layer relu_u2c
I0716 13:28:30.848924 22821 net.cpp:481] relu_u2c <- u2c
I0716 13:28:30.848932 22821 net.cpp:442] relu_u2c -> u2c (in-place)
I0716 13:28:30.848938 22821 net.cpp:190] Setting up relu_u2c
I0716 13:28:30.848942 22821 net.cpp:197] Top shape: 1 128 128 256 (4194304)
I0716 13:28:30.848945 22821 net.cpp:205] Memory required for data: 1501560832
I0716 13:28:30.848949 22821 layer_factory.hpp:123] Creating layer u2c_fixed
I0716 13:28:30.848955 22821 net.cpp:140] Creating Layer u2c_fixed
I0716 13:28:30.848958 22821 net.cpp:481] u2c_fixed <- u2c
I0716 13:28:30.848963 22821 net.cpp:442] u2c_fixed -> u2c (in-place)
I0716 13:28:30.849005 22821 net.cpp:190] Setting up u2c_fixed
I0716 13:28:30.849012 22821 net.cpp:197] Top shape: 1 128 128 256 (4194304)
I0716 13:28:30.849015 22821 net.cpp:205] Memory required for data: 1518338048
I0716 13:28:30.849020 22821 layer_factory.hpp:123] Creating layer conv_u2c-d
I0716 13:28:30.849030 22821 net.cpp:140] Creating Layer conv_u2c-d
I0716 13:28:30.849032 22821 net.cpp:481] conv_u2c-d <- u2c
I0716 13:28:30.849037 22821 net.cpp:455] conv_u2c-d -> u2d
I0716 13:28:30.850543 22821 layer_factory.hpp:123] Creating layer conv_u2c-d
I0716 13:28:30.853605 22821 net.cpp:190] Setting up conv_u2c-d
I0716 13:28:30.853617 22821 net.cpp:197] Top shape: 1 128 128 256 (4194304)
I0716 13:28:30.853621 22821 net.cpp:205] Memory required for data: 1535115264
I0716 13:28:30.853626 22821 layer_factory.hpp:123] Creating layer relu_u2d
I0716 13:28:30.853632 22821 net.cpp:140] Creating Layer relu_u2d
I0716 13:28:30.853636 22821 net.cpp:481] relu_u2d <- u2d
I0716 13:28:30.853641 22821 net.cpp:442] relu_u2d -> u2d (in-place)
I0716 13:28:30.853647 22821 net.cpp:190] Setting up relu_u2d
I0716 13:28:30.853652 22821 net.cpp:197] Top shape: 1 128 128 256 (4194304)
I0716 13:28:30.853654 22821 net.cpp:205] Memory required for data: 1551892480
I0716 13:28:30.853657 22821 layer_factory.hpp:123] Creating layer u2d_fixed
I0716 13:28:30.853662 22821 net.cpp:140] Creating Layer u2d_fixed
I0716 13:28:30.853665 22821 net.cpp:481] u2d_fixed <- u2d
I0716 13:28:30.853669 22821 net.cpp:442] u2d_fixed -> u2d (in-place)
I0716 13:28:30.853713 22821 net.cpp:190] Setting up u2d_fixed
I0716 13:28:30.853726 22821 net.cpp:197] Top shape: 1 128 128 256 (4194304)
I0716 13:28:30.853729 22821 net.cpp:205] Memory required for data: 1568669696
I0716 13:28:30.853734 22821 layer_factory.hpp:123] Creating layer upconv_u2d_u1a
I0716 13:28:30.853741 22821 net.cpp:140] Creating Layer upconv_u2d_u1a
I0716 13:28:30.853745 22821 net.cpp:481] upconv_u2d_u1a <- u2d
I0716 13:28:30.853750 22821 net.cpp:455] upconv_u2d_u1a -> u1a
I0716 13:28:30.854251 22821 layer_factory.hpp:123] Creating layer upconv_u2d_u1a
I0716 13:28:30.855083 22821 net.cpp:190] Setting up upconv_u2d_u1a
I0716 13:28:30.855091 22821 net.cpp:197] Top shape: 1 64 256 512 (8388608)
I0716 13:28:30.855095 22821 net.cpp:205] Memory required for data: 1602224128
I0716 13:28:30.855100 22821 layer_factory.hpp:123] Creating layer relu_u1a
I0716 13:28:30.855105 22821 net.cpp:140] Creating Layer relu_u1a
I0716 13:28:30.855108 22821 net.cpp:481] relu_u1a <- u1a
I0716 13:28:30.855113 22821 net.cpp:442] relu_u1a -> u1a (in-place)
I0716 13:28:30.855119 22821 net.cpp:190] Setting up relu_u1a
I0716 13:28:30.855123 22821 net.cpp:197] Top shape: 1 64 256 512 (8388608)
I0716 13:28:30.855127 22821 net.cpp:205] Memory required for data: 1635778560
I0716 13:28:30.855130 22821 layer_factory.hpp:123] Creating layer concat_d1cc_u1a-b
I0716 13:28:30.855135 22821 net.cpp:140] Creating Layer concat_d1cc_u1a-b
I0716 13:28:30.855139 22821 net.cpp:481] concat_d1cc_u1a-b <- u1a
I0716 13:28:30.855142 22821 net.cpp:481] concat_d1cc_u1a-b <- d1c_d1c_fixed_0_split_1
I0716 13:28:30.855147 22821 net.cpp:455] concat_d1cc_u1a-b -> u1b
I0716 13:28:30.855178 22821 net.cpp:190] Setting up concat_d1cc_u1a-b
I0716 13:28:30.855185 22821 net.cpp:197] Top shape: 1 128 256 512 (16777216)
I0716 13:28:30.855187 22821 net.cpp:205] Memory required for data: 1702887424
I0716 13:28:30.855191 22821 layer_factory.hpp:123] Creating layer u1b_fixed
I0716 13:28:30.855196 22821 net.cpp:140] Creating Layer u1b_fixed
I0716 13:28:30.855199 22821 net.cpp:481] u1b_fixed <- u1b
I0716 13:28:30.855203 22821 net.cpp:442] u1b_fixed -> u1b (in-place)
I0716 13:28:30.855245 22821 net.cpp:190] Setting up u1b_fixed
I0716 13:28:30.855252 22821 net.cpp:197] Top shape: 1 128 256 512 (16777216)
I0716 13:28:30.855254 22821 net.cpp:205] Memory required for data: 1769996288
I0716 13:28:30.855258 22821 layer_factory.hpp:123] Creating layer conv_u1b-c
I0716 13:28:30.855268 22821 net.cpp:140] Creating Layer conv_u1b-c
I0716 13:28:30.855270 22821 net.cpp:481] conv_u1b-c <- u1b
I0716 13:28:30.855275 22821 net.cpp:455] conv_u1b-c -> u1c
I0716 13:28:30.856134 22821 layer_factory.hpp:123] Creating layer conv_u1b-c
I0716 13:28:30.859191 22821 net.cpp:190] Setting up conv_u1b-c
I0716 13:28:30.859202 22821 net.cpp:197] Top shape: 1 64 256 512 (8388608)
I0716 13:28:30.859205 22821 net.cpp:205] Memory required for data: 1803550720
I0716 13:28:30.859217 22821 layer_factory.hpp:123] Creating layer relu_u1c
I0716 13:28:30.859223 22821 net.cpp:140] Creating Layer relu_u1c
I0716 13:28:30.859227 22821 net.cpp:481] relu_u1c <- u1c
I0716 13:28:30.859232 22821 net.cpp:442] relu_u1c -> u1c (in-place)
I0716 13:28:30.859238 22821 net.cpp:190] Setting up relu_u1c
I0716 13:28:30.859242 22821 net.cpp:197] Top shape: 1 64 256 512 (8388608)
I0716 13:28:30.859246 22821 net.cpp:205] Memory required for data: 1837105152
I0716 13:28:30.859248 22821 layer_factory.hpp:123] Creating layer u1c_fixed
I0716 13:28:30.859253 22821 net.cpp:140] Creating Layer u1c_fixed
I0716 13:28:30.859256 22821 net.cpp:481] u1c_fixed <- u1c
I0716 13:28:30.859261 22821 net.cpp:442] u1c_fixed -> u1c (in-place)
I0716 13:28:30.859304 22821 net.cpp:190] Setting up u1c_fixed
I0716 13:28:30.859311 22821 net.cpp:197] Top shape: 1 64 256 512 (8388608)
I0716 13:28:30.859314 22821 net.cpp:205] Memory required for data: 1870659584
I0716 13:28:30.859319 22821 layer_factory.hpp:123] Creating layer conv_u1c-d
I0716 13:28:30.859328 22821 net.cpp:140] Creating Layer conv_u1c-d
I0716 13:28:30.859330 22821 net.cpp:481] conv_u1c-d <- u1c
I0716 13:28:30.859336 22821 net.cpp:455] conv_u1c-d -> u1d
I0716 13:28:30.859886 22821 layer_factory.hpp:123] Creating layer conv_u1c-d
I0716 13:28:30.860709 22821 net.cpp:190] Setting up conv_u1c-d
I0716 13:28:30.860718 22821 net.cpp:197] Top shape: 1 64 256 512 (8388608)
I0716 13:28:30.860723 22821 net.cpp:205] Memory required for data: 1904214016
I0716 13:28:30.860728 22821 layer_factory.hpp:123] Creating layer relu_u1d
I0716 13:28:30.860733 22821 net.cpp:140] Creating Layer relu_u1d
I0716 13:28:30.860735 22821 net.cpp:481] relu_u1d <- u1d
I0716 13:28:30.860740 22821 net.cpp:442] relu_u1d -> u1d (in-place)
I0716 13:28:30.860746 22821 net.cpp:190] Setting up relu_u1d
I0716 13:28:30.860750 22821 net.cpp:197] Top shape: 1 64 256 512 (8388608)
I0716 13:28:30.860754 22821 net.cpp:205] Memory required for data: 1937768448
I0716 13:28:30.860756 22821 layer_factory.hpp:123] Creating layer u1d_fixed
I0716 13:28:30.860762 22821 net.cpp:140] Creating Layer u1d_fixed
I0716 13:28:30.860765 22821 net.cpp:481] u1d_fixed <- u1d
I0716 13:28:30.860769 22821 net.cpp:442] u1d_fixed -> u1d (in-place)
I0716 13:28:30.860812 22821 net.cpp:190] Setting up u1d_fixed
I0716 13:28:30.860817 22821 net.cpp:197] Top shape: 1 64 256 512 (8388608)
I0716 13:28:30.860821 22821 net.cpp:205] Memory required for data: 1971322880
I0716 13:28:30.860824 22821 layer_factory.hpp:123] Creating layer upconv_u1d_u0a_NEW
I0716 13:28:30.860831 22821 net.cpp:140] Creating Layer upconv_u1d_u0a_NEW
I0716 13:28:30.860834 22821 net.cpp:481] upconv_u1d_u0a_NEW <- u1d
I0716 13:28:30.860839 22821 net.cpp:455] upconv_u1d_u0a_NEW -> u0a
I0716 13:28:30.861140 22821 layer_factory.hpp:123] Creating layer upconv_u1d_u0a_NEW
I0716 13:28:30.863638 22821 net.cpp:190] Setting up upconv_u1d_u0a_NEW
I0716 13:28:30.863651 22821 net.cpp:197] Top shape: 1 32 512 1024 (16777216)
I0716 13:28:30.863654 22821 net.cpp:205] Memory required for data: 2038431744
I0716 13:28:30.863660 22821 layer_factory.hpp:123] Creating layer relu_u0a
I0716 13:28:30.863665 22821 net.cpp:140] Creating Layer relu_u0a
I0716 13:28:30.863669 22821 net.cpp:481] relu_u0a <- u0a
I0716 13:28:30.863674 22821 net.cpp:442] relu_u0a -> u0a (in-place)
I0716 13:28:30.863682 22821 net.cpp:190] Setting up relu_u0a
I0716 13:28:30.863687 22821 net.cpp:197] Top shape: 1 32 512 1024 (16777216)
I0716 13:28:30.863689 22821 net.cpp:205] Memory required for data: 2105540608
I0716 13:28:30.863692 22821 layer_factory.hpp:123] Creating layer concat_d0cc_u0a-b
I0716 13:28:30.863696 22821 net.cpp:140] Creating Layer concat_d0cc_u0a-b
I0716 13:28:30.863699 22821 net.cpp:481] concat_d0cc_u0a-b <- u0a
I0716 13:28:30.863703 22821 net.cpp:481] concat_d0cc_u0a-b <- d0c_d0c_fixed_0_split_1
I0716 13:28:30.863708 22821 net.cpp:455] concat_d0cc_u0a-b -> u0b
I0716 13:28:30.863744 22821 net.cpp:190] Setting up concat_d0cc_u0a-b
I0716 13:28:30.863751 22821 net.cpp:197] Top shape: 1 64 512 1024 (33554432)
I0716 13:28:30.863759 22821 net.cpp:205] Memory required for data: 2239758336
I0716 13:28:30.863764 22821 layer_factory.hpp:123] Creating layer u0b_fixed
I0716 13:28:30.863768 22821 net.cpp:140] Creating Layer u0b_fixed
I0716 13:28:30.863771 22821 net.cpp:481] u0b_fixed <- u0b
I0716 13:28:30.863776 22821 net.cpp:442] u0b_fixed -> u0b (in-place)
I0716 13:28:30.863821 22821 net.cpp:190] Setting up u0b_fixed
I0716 13:28:30.863827 22821 net.cpp:197] Top shape: 1 64 512 1024 (33554432)
I0716 13:28:30.863831 22821 net.cpp:205] Memory required for data: 2373976064
I0716 13:28:30.863834 22821 layer_factory.hpp:123] Creating layer conv_u0b-c_New
I0716 13:28:30.863842 22821 net.cpp:140] Creating Layer conv_u0b-c_New
I0716 13:28:30.863845 22821 net.cpp:481] conv_u0b-c_New <- u0b
I0716 13:28:30.863857 22821 net.cpp:455] conv_u0b-c_New -> u0c
I0716 13:28:30.864231 22821 layer_factory.hpp:123] Creating layer conv_u0b-c_New
I0716 13:28:30.866629 22821 net.cpp:190] Setting up conv_u0b-c_New
I0716 13:28:30.866641 22821 net.cpp:197] Top shape: 1 32 512 1024 (16777216)
I0716 13:28:30.866645 22821 net.cpp:205] Memory required for data: 2441084928
I0716 13:28:30.866652 22821 layer_factory.hpp:123] Creating layer relu_u0c
I0716 13:28:30.866657 22821 net.cpp:140] Creating Layer relu_u0c
I0716 13:28:30.866660 22821 net.cpp:481] relu_u0c <- u0c
I0716 13:28:30.866665 22821 net.cpp:442] relu_u0c -> u0c (in-place)
I0716 13:28:30.866672 22821 net.cpp:190] Setting up relu_u0c
I0716 13:28:30.866677 22821 net.cpp:197] Top shape: 1 32 512 1024 (16777216)
I0716 13:28:30.866680 22821 net.cpp:205] Memory required for data: 2508193792
I0716 13:28:30.866683 22821 layer_factory.hpp:123] Creating layer u0c_fixed
I0716 13:28:30.866688 22821 net.cpp:140] Creating Layer u0c_fixed
I0716 13:28:30.866690 22821 net.cpp:481] u0c_fixed <- u0c
I0716 13:28:30.866695 22821 net.cpp:442] u0c_fixed -> u0c (in-place)
I0716 13:28:30.866744 22821 net.cpp:190] Setting up u0c_fixed
I0716 13:28:30.866750 22821 net.cpp:197] Top shape: 1 32 512 1024 (16777216)
I0716 13:28:30.866753 22821 net.cpp:205] Memory required for data: 2575302656
I0716 13:28:30.866758 22821 layer_factory.hpp:123] Creating layer conv_u0c-d_New
I0716 13:28:30.866766 22821 net.cpp:140] Creating Layer conv_u0c-d_New
I0716 13:28:30.866770 22821 net.cpp:481] conv_u0c-d_New <- u0c
I0716 13:28:30.866775 22821 net.cpp:455] conv_u0c-d_New -> u0d
I0716 13:28:30.867079 22821 layer_factory.hpp:123] Creating layer conv_u0c-d_New
I0716 13:28:30.869419 22821 net.cpp:190] Setting up conv_u0c-d_New
I0716 13:28:30.869431 22821 net.cpp:197] Top shape: 1 32 512 1024 (16777216)
I0716 13:28:30.869434 22821 net.cpp:205] Memory required for data: 2642411520
I0716 13:28:30.869441 22821 layer_factory.hpp:123] Creating layer relu_u0d
I0716 13:28:30.869446 22821 net.cpp:140] Creating Layer relu_u0d
I0716 13:28:30.869451 22821 net.cpp:481] relu_u0d <- u0d
I0716 13:28:30.869454 22821 net.cpp:442] relu_u0d -> u0d (in-place)
I0716 13:28:30.869462 22821 net.cpp:190] Setting up relu_u0d
I0716 13:28:30.869467 22821 net.cpp:197] Top shape: 1 32 512 1024 (16777216)
I0716 13:28:30.869469 22821 net.cpp:205] Memory required for data: 2709520384
I0716 13:28:30.869472 22821 layer_factory.hpp:123] Creating layer u0d_fixed
I0716 13:28:30.869477 22821 net.cpp:140] Creating Layer u0d_fixed
I0716 13:28:30.869480 22821 net.cpp:481] u0d_fixed <- u0d
I0716 13:28:30.869484 22821 net.cpp:442] u0d_fixed -> u0d (in-place)
I0716 13:28:30.869532 22821 net.cpp:190] Setting up u0d_fixed
I0716 13:28:30.869539 22821 net.cpp:197] Top shape: 1 32 512 1024 (16777216)
I0716 13:28:30.869542 22821 net.cpp:205] Memory required for data: 2776629248
I0716 13:28:30.869546 22821 layer_factory.hpp:123] Creating layer conv_u0d-score_New
I0716 13:28:30.869555 22821 net.cpp:140] Creating Layer conv_u0d-score_New
I0716 13:28:30.869558 22821 net.cpp:481] conv_u0d-score_New <- u0d
I0716 13:28:30.869565 22821 net.cpp:455] conv_u0d-score_New -> conv_u0d-score_New
I0716 13:28:30.869801 22821 layer_factory.hpp:123] Creating layer conv_u0d-score_New
I0716 13:28:30.872061 22821 net.cpp:190] Setting up conv_u0d-score_New
I0716 13:28:30.872074 22821 net.cpp:197] Top shape: 1 19 512 1024 (9961472)
I0716 13:28:30.872077 22821 net.cpp:205] Memory required for data: 2816475136
I0716 13:28:30.872083 22821 layer_factory.hpp:123] Creating layer conv_u0d-score_New_fixed
I0716 13:28:30.872090 22821 net.cpp:140] Creating Layer conv_u0d-score_New_fixed
I0716 13:28:30.872093 22821 net.cpp:481] conv_u0d-score_New_fixed <- conv_u0d-score_New
I0716 13:28:30.872099 22821 net.cpp:442] conv_u0d-score_New_fixed -> conv_u0d-score_New (in-place)
I0716 13:28:30.872148 22821 net.cpp:190] Setting up conv_u0d-score_New_fixed
I0716 13:28:30.872155 22821 net.cpp:197] Top shape: 1 19 512 1024 (9961472)
I0716 13:28:30.872159 22821 net.cpp:205] Memory required for data: 2856321024
I0716 13:28:30.872162 22821 layer_factory.hpp:123] Creating layer score
I0716 13:28:30.872169 22821 net.cpp:140] Creating Layer score
I0716 13:28:30.872172 22821 net.cpp:481] score <- conv_u0d-score_New
I0716 13:28:30.872177 22821 net.cpp:455] score -> score
I0716 13:28:30.872253 22821 net.cpp:190] Setting up score
I0716 13:28:30.872262 22821 net.cpp:197] Top shape: 1 19 512 1024 (9961472)
I0716 13:28:30.872264 22821 net.cpp:205] Memory required for data: 2896166912
I0716 13:28:30.872267 22821 layer_factory.hpp:123] Creating layer accuracy
I0716 13:28:30.872290 22821 net.cpp:140] Creating Layer accuracy
I0716 13:28:30.872294 22821 net.cpp:481] accuracy <- score
I0716 13:28:30.872298 22821 net.cpp:481] accuracy <- label
I0716 13:28:30.872303 22821 net.cpp:455] accuracy -> segmentation_eval
I0716 13:28:30.872334 22821 net.cpp:190] Setting up accuracy
I0716 13:28:30.872340 22821 net.cpp:197] Top shape: 3 19 (57)
I0716 13:28:30.872349 22821 net.cpp:205] Memory required for data: 2896167140
I0716 13:28:30.872352 22821 net.cpp:268] accuracy does not need backward computation.
I0716 13:28:30.872356 22821 net.cpp:268] score does not need backward computation.
I0716 13:28:30.872359 22821 net.cpp:268] conv_u0d-score_New_fixed does not need backward computation.
I0716 13:28:30.872362 22821 net.cpp:268] conv_u0d-score_New does not need backward computation.
…
