…
layer {
  name: "data"
  type: "ImageData"
  top: "data"
  top: "label"
  include {
    phase: TRAIN
  }
  transform_param {
    scale: 0.022
    mean_value: 73
    mean_value: 82
    mean_value: 72
    resize_param {
      prob: 1
      resize_mode: WARP
      height: 512
      width: 1024
    }
  }
  image_data_param {
    source: "/workspace/Segment/VAI/data/cityscapes/calibration.txt"
    batch_size: 1
    shuffle: true
    new_height: 512
    new_width: 1024
    root_folder: "/workspace/Segment/VAI/data/cityscapes/calibration_images/"
  }
}
layer {
  name: "conv_d0a-b"
  type: "Convolution"
  bottom: "data"
  top: "d0b"
  param {
    lr_mult: 1
    decay_mult: 1
  }
  param {
    lr_mult: 2
    decay_mult: 0
  }
  convolution_param {
    num_output: 64
    pad: 1
    kernel_size: 3
    stride: 1
    weight_filler {
      type: "msra"
    }
  }
}
layer {
  name: "relu_d0b"
  type: "ReLU"
  bottom: "d0b"
  top: "relu_d0b"
}
layer {
  name: "conv_d0b-c"
  type: "Convolution"
  bottom: "relu_d0b"
  top: "d0c"
  param {
    lr_mult: 1
    decay_mult: 1
  }
  param {
    lr_mult: 2
    decay_mult: 0
  }
  convolution_param {
    num_output: 64
    pad: 1
    kernel_size: 3
    weight_filler {
      type: "msra"
    }
  }
}
layer {
  name: "BatchNorm_d0c"
  type: "BatchNorm"
  bottom: "d0c"
  top: "BatchNorm_d0c"
  param {
    lr_mult: 1
    decay_mult: 0
  }
  param {
    lr_mult: 1
    decay_mult: 0
  }
  param {
    lr_mult: 0
    decay_mult: 0
  }
  param {
    lr_mult: 0
    decay_mult: 0
  }
  batch_norm_param {
    use_global_stats: true
    eps: 1e-05
    scale_filler {
      type: "constant"
      value: 1
    }
    bias_filler {
      type: "constant"
      value: 0
    }
  }
}
layer {
  name: "relu_d0c"
  type: "ReLU"
  bottom: "BatchNorm_d0c"
  top: "relu_d0c"
}
layer {
  name: "pool_d0c-1a"
  type: "Pooling"
  bottom: "relu_d0c"
  top: "d1a"
  pooling_param {
    pool: MAX
    kernel_size: 2
    stride: 2
  }
}
layer {
  name: "conv_d1a-b"
  type: "Convolution"
  bottom: "d1a"
  top: "d1b"
  param {
    lr_mult: 1
    decay_mult: 1
  }
  param {
    lr_mult: 2
    decay_mult: 0
  }
  convolution_param {
    num_output: 128
    pad: 1
    kernel_size: 3
    weight_filler {
      type: "msra"
    }
  }
}
layer {
  name: "relu_d1b"
  type: "ReLU"
  bottom: "d1b"
  top: "relu_d1b"
}
layer {
  name: "conv_d1b-c"
  type: "Convolution"
  bottom: "relu_d1b"
  top: "d1c"
  param {
    lr_mult: 1
    decay_mult: 1
  }
  param {
    lr_mult: 2
    decay_mult: 0
  }
  convolution_param {
    num_output: 128
    pad: 1
    kernel_size: 3
    weight_filler {
      type: "msra"
    }
  }
}
layer {
  name: "BatchNorm_d1c"
  type: "BatchNorm"
  bottom: "d1c"
  top: "BatchNorm_d1c"
  param {
    lr_mult: 1
    decay_mult: 0
  }
  param {
    lr_mult: 1
    decay_mult: 0
  }
  param {
    lr_mult: 0
    decay_mult: 0
  }
  param {
    lr_mult: 0
    decay_mult: 0
  }
  batch_norm_param {
    use_global_stats: true
    eps: 1e-05
    scale_filler {
      type: "constant"
      value: 1
    }
    bias_filler {
      type: "constant"
      value: 0
    }
  }
}
layer {
  name: "relu_d1c"
  type: "ReLU"
  bottom: "BatchNorm_d1c"
  top: "relu_d1c"
}
layer {
  name: "pool_d1c-2a"
  type: "Pooling"
  bottom: "relu_d1c"
  top: "d2a"
  pooling_param {
    pool: MAX
    kernel_size: 2
    stride: 2
  }
}
layer {
  name: "conv_d2a-b"
  type: "Convolution"
  bottom: "d2a"
  top: "d2b"
  param {
    lr_mult: 1
    decay_mult: 1
  }
  param {
    lr_mult: 2
    decay_mult: 0
  }
  convolution_param {
    num_output: 256
    pad: 1
    kernel_size: 3
    weight_filler {
      type: "msra"
    }
  }
}
layer {
  name: "relu_d2b"
  type: "ReLU"
  bottom: "d2b"
  top: "relu_d2b"
}
layer {
  name: "conv_d2b-c"
  type: "Convolution"
  bottom: "relu_d2b"
  top: "d2c"
  param {
    lr_mult: 1
    decay_mult: 1
  }
  param {
    lr_mult: 2
    decay_mult: 0
  }
  convolution_param {
    num_output: 256
    pad: 1
    kernel_size: 3
    weight_filler {
      type: "msra"
    }
  }
}
layer {
  name: "BatchNorm_d2c"
  type: "BatchNorm"
  bottom: "d2c"
  top: "BatchNorm_d2c"
  param {
    lr_mult: 1
    decay_mult: 0
  }
  param {
    lr_mult: 1
    decay_mult: 0
  }
  param {
    lr_mult: 0
    decay_mult: 0
  }
  param {
    lr_mult: 0
    decay_mult: 0
  }
  batch_norm_param {
    use_global_stats: true
    eps: 1e-05
    scale_filler {
      type: "constant"
      value: 1
    }
    bias_filler {
      type: "constant"
      value: 0
    }
  }
}
layer {
  name: "relu_d2c"
  type: "ReLU"
  bottom: "BatchNorm_d2c"
  top: "relu_d2c"
}
layer {
  name: "pool_d2c-3a"
  type: "Pooling"
  bottom: "relu_d2c"
  top: "d3a"
  pooling_param {
    pool: MAX
    kernel_size: 2
    stride: 2
  }
}
layer {
  name: "conv_d3a-b"
  type: "Convolution"
  bottom: "d3a"
  top: "d3b"
  param {
    lr_mult: 1
    decay_mult: 1
  }
  param {
    lr_mult: 2
    decay_mult: 0
  }
  convolution_param {
    num_output: 512
    pad: 1
    kernel_size: 3
    weight_filler {
      type: "msra"
    }
  }
}
layer {
  name: "relu_d3b"
  type: "ReLU"
  bottom: "d3b"
  top: "relu_d3b"
}
layer {
  name: "conv_d3b-c"
  type: "Convolution"
  bottom: "relu_d3b"
  top: "d3c"
  param {
    lr_mult: 1
    decay_mult: 1
  }
  param {
    lr_mult: 2
    decay_mult: 0
  }
  convolution_param {
    num_output: 512
    pad: 1
    kernel_size: 3
    weight_filler {
      type: "msra"
    }
  }
}
layer {
  name: "BatchNorm_1"
  type: "BatchNorm"
  bottom: "d3c"
  top: "BatchNorm_1"
  param {
    lr_mult: 1
    decay_mult: 0
  }
  param {
    lr_mult: 1
    decay_mult: 0
  }
  param {
    lr_mult: 0
    decay_mult: 0
  }
  param {
    lr_mult: 0
    decay_mult: 0
  }
  batch_norm_param {
    use_global_stats: true
    eps: 1e-05
    scale_filler {
      type: "constant"
      value: 1
    }
    bias_filler {
      type: "constant"
      value: 0
    }
  }
}
layer {
  name: "relu_d3c"
  type: "ReLU"
  bottom: "BatchNorm_1"
  top: "relu_d3c"
}
layer {
  name: "pool_d3c-4a"
  type: "Pooling"
  bottom: "relu_d3c"
  top: "d4a"
  pooling_param {
    pool: MAX
    kernel_size: 2
    stride: 2
  }
}
layer {
  name: "conv_d4a-b"
  type: "Convolution"
  bottom: "d4a"
  top: "d4b"
  param {
    lr_mult: 1
    decay_mult: 1
  }
  param {
    lr_mult: 2
    decay_mult: 0
  }
  convolution_param {
    num_output: 1024
    pad: 1
    kernel_size: 3
    weight_filler {
      type: "msra"
    }
  }
}
layer {
  name: "BatchNorm_2"
  type: "BatchNorm"
  bottom: "d4b"
  top: "BatchNorm_2"
  param {
    lr_mult: 1
    decay_mult: 0
  }
  param {
    lr_mult: 1
    decay_mult: 0
  }
  param {
    lr_mult: 0
    decay_mult: 0
  }
  param {
    lr_mult: 0
    decay_mult: 0
  }
  batch_norm_param {
    use_global_stats: true
    eps: 1e-05
    scale_filler {
      type: "constant"
      value: 1
    }
    bias_filler {
      type: "constant"
      value: 0
    }
  }
}
layer {
  name: "relu_d4b"
  type: "ReLU"
  bottom: "BatchNorm_2"
  top: "relu_d4b"
}
layer {
  name: "conv_d4b-c"
  type: "Convolution"
  bottom: "relu_d4b"
  top: "d4c"
  param {
    lr_mult: 1
    decay_mult: 1
  }
  param {
    lr_mult: 2
    decay_mult: 0
  }
  convolution_param {
    num_output: 1024
    pad: 1
    kernel_size: 3
    weight_filler {
      type: "msra"
    }
  }
}
layer {
  name: "relu_d4c"
  type: "ReLU"
  bottom: "d4c"
  top: "relu_d4c"
}
layer {
  name: "upconv_d4c_u3a"
  type: "Deconvolution"
  bottom: "relu_d4c"
  top: "u3a"
  param {
    lr_mult: 1
    decay_mult: 1
  }
  param {
    lr_mult: 2
    decay_mult: 0
  }
  convolution_param {
    num_output: 512
    pad: 0
    kernel_size: 2
    stride: 2
    weight_filler {
      type: "msra"
    }
  }
}
layer {
  name: "relu_u3a"
  type: "ReLU"
  bottom: "u3a"
  top: "u3a"
}
layer {
  name: "concat_d3cc_u3a-b"
  type: "Concat"
  bottom: "u3a"
  bottom: "d3c"
  top: "u3b"
}
layer {
  name: "conv_u3b-c"
  type: "Convolution"
  bottom: "u3b"
  top: "u3c"
  param {
    lr_mult: 1
    decay_mult: 1
  }
  param {
    lr_mult: 2
    decay_mult: 0
  }
  convolution_param {
    num_output: 512
    pad: 1
    kernel_size: 3
    weight_filler {
      type: "msra"
    }
  }
}
layer {
  name: "relu_u3c"
  type: "ReLU"
  bottom: "u3c"
  top: "u3c"
}
layer {
  name: "conv_u3c-d"
  type: "Convolution"
  bottom: "u3c"
  top: "u3d"
  param {
    lr_mult: 1
    decay_mult: 1
  }
  param {
    lr_mult: 2
    decay_mult: 0
  }
  convolution_param {
    num_output: 512
    pad: 1
    kernel_size: 3
    weight_filler {
      type: "msra"
    }
  }
}
layer {
  name: "relu_u3d"
  type: "ReLU"
  bottom: "u3d"
  top: "u3d"
}
layer {
  name: "upconv_u3d_u2a"
  type: "Deconvolution"
  bottom: "u3d"
  top: "u2a"
  param {
    lr_mult: 1
    decay_mult: 1
  }
  param {
    lr_mult: 2
    decay_mult: 0
  }
  convolution_param {
    num_output: 512
    pad: 0
    kernel_size: 2
    stride: 2
    weight_filler {
      type: "msra"
    }
  }
}
layer {
  name: "relu_u2a"
  type: "ReLU"
  bottom: "u2a"
  top: "u2a"
}
layer {
  name: "concat_d2cc_u2a-b"
  type: "Concat"
  bottom: "u2a"
  bottom: "d2c"
  top: "u2b"
}
layer {
  name: "conv_u2b-c"
  type: "Convolution"
  bottom: "u2b"
  top: "u2c"
  param {
    lr_mult: 1
    decay_mult: 1
  }
  param {
    lr_mult: 2
    decay_mult: 0
  }
  convolution_param {
    num_output: 256
    pad: 1
    kernel_size: 3
    weight_filler {
      type: "msra"
    }
  }
}
layer {
  name: "relu_u2c"
  type: "ReLU"
  bottom: "u2c"
  top: "u2c"
}
layer {
  name: "conv_u2c-d"
  type: "Convolution"
  bottom: "u2c"
  top: "u2d"
  param {
    lr_mult: 1
    decay_mult: 1
  }
  param {
    lr_mult: 2
    decay_mult: 0
  }
  convolution_param {
    num_output: 256
    pad: 1
    kernel_size: 3
    weight_filler {
      type: "msra"
    }
  }
}
layer {
  name: "relu_u2d"
  type: "ReLU"
  bottom: "u2d"
  top: "u2d"
}
layer {
  name: "upconv_u2d_u1a"
  type: "Deconvolution"
  bottom: "u2d"
  top: "u1a"
  param {
    lr_mult: 1
    decay_mult: 1
  }
  param {
    lr_mult: 2
    decay_mult: 0
  }
  convolution_param {
    num_output: 128
    pad: 0
    kernel_size: 2
    stride: 2
    weight_filler {
      type: "msra"
    }
  }
}
layer {
  name: "relu_u1a"
  type: "ReLU"
  bottom: "u1a"
  top: "u1a"
}
layer {
  name: "concat_d1cc_u1a-b"
  type: "Concat"
  bottom: "u1a"
  bottom: "d1c"
  top: "u1b"
}
layer {
  name: "conv_u1b-c"
  type: "Convolution"
  bottom: "u1b"
  top: "u1c"
  param {
    lr_mult: 1
    decay_mult: 1
  }
  param {
    lr_mult: 2
    decay_mult: 0
  }
  convolution_param {
    num_output: 128
    pad: 1
    kernel_size: 3
    weight_filler {
      type: "msra"
    }
  }
}
layer {
  name: "relu_u1c"
  type: "ReLU"
  bottom: "u1c"
  top: "u1c"
}
layer {
  name: "conv_u1c-d"
  type: "Convolution"
  bottom: "u1c"
  top: "u1d"
  param {
    lr_mult: 1
    decay_mult: 1
  }
  param {
    lr_mult: 2
    decay_mult: 0
  }
  convolution_param {
    num_output: 128
    pad: 1
    kernel_size: 3
    weight_filler {
      type: "msra"
    }
  }
}
layer {
  name: "relu_u1d"
  type: "ReLU"
  bottom: "u1d"
  top: "u1d"
}
layer {
  name: "upconv_u1d_u0a_NEW"
  type: "Deconvolution"
  bottom: "u1d"
  top: "u0a"
  param {
    lr_mult: 1
    decay_mult: 1
  }
  param {
    lr_mult: 2
    decay_mult: 0
  }
  convolution_param {
    num_output: 64
    pad: 0
    kernel_size: 2
    stride: 2
    weight_filler {
      type: "msra"
    }
  }
}
layer {
  name: "relu_u0a"
  type: "ReLU"
  bottom: "u0a"
  top: "u0a"
}
layer {
  name: "concat_d0cc_u0a-b"
  type: "Concat"
  bottom: "u0a"
  bottom: "d0c"
  top: "u0b"
}
layer {
  name: "conv_u0b-c_New"
  type: "Convolution"
  bottom: "u0b"
  top: "u0c"
  param {
    lr_mult: 1
    decay_mult: 1
  }
  param {
    lr_mult: 2
    decay_mult: 0
  }
  convolution_param {
    num_output: 64
    pad: 1
    kernel_size: 3
    weight_filler {
      type: "msra"
    }
  }
}
layer {
  name: "relu_u0c"
  type: "ReLU"
  bottom: "u0c"
  top: "u0c"
}
layer {
  name: "conv_u0c-d_New"
  type: "Convolution"
  bottom: "u0c"
  top: "u0d"
  param {
    lr_mult: 1
    decay_mult: 1
  }
  param {
    lr_mult: 2
    decay_mult: 0
  }
  convolution_param {
    num_output: 64
    pad: 1
    kernel_size: 3
    weight_filler {
      type: "msra"
    }
  }
}
layer {
  name: "relu_u0d"
  type: "ReLU"
  bottom: "u0d"
  top: "u0d"
}
layer {
  name: "conv_u0d-score_New"
  type: "Convolution"
  bottom: "u0d"
  top: "conv_u0d-score_New"
  param {
    lr_mult: 1
    decay_mult: 1
  }
  param {
    lr_mult: 2
    decay_mult: 0
  }
  convolution_param {
    num_output: 19
    pad: 0
    kernel_size: 1
    weight_filler {
      type: "msra"
    }
  }
}
layer {
  name: "score"
  type: "Softmax"
  bottom: "conv_u0d-score_New"
  top: "score"
}
I0225 09:15:10.028825   175 layer_factory.hpp:123] Creating layer data
I0225 09:15:10.028846   175 net.cpp:140] Creating Layer data
I0225 09:15:10.028851   175 net.cpp:455] data -> data
I0225 09:15:10.028861   175 net.cpp:455] data -> label
I0225 09:15:10.028878   175 image_data_layer.cpp:87] Opening file /workspace/Segment/VAI/data/cityscapes/calibration.txt
I0225 09:15:10.029203   175 image_data_layer.cpp:97] Shuffling data
I0225 09:15:10.029279   175 image_data_layer.cpp:102] A total of 1000 images.
I0225 09:15:10.094118   175 image_data_layer.cpp:130] output data size: 1,3,512,1024
I0225 09:15:10.127422   175 internal_thread.cpp:73] Starting internal thread(s) on GPU 0
I0225 09:15:10.127529   175 net.cpp:190] Setting up data
I0225 09:15:10.127540   175 net.cpp:197] Top shape: 1 3 512 1024 (1572864)
I0225 09:15:10.127552   175 net.cpp:197] Top shape: 1 (1)
I0225 09:15:10.127557   175 net.cpp:205] Memory required for data: 6291460
I0225 09:15:10.127562   175 layer_factory.hpp:123] Creating layer conv_d0a-b
I0225 09:15:10.127583   175 net.cpp:140] Creating Layer conv_d0a-b
I0225 09:15:10.127590   175 net.cpp:481] conv_d0a-b <- data
I0225 09:15:10.127599   175 net.cpp:455] conv_d0a-b -> d0b
I0225 09:15:10.128926   175 net.cpp:190] Setting up conv_d0a-b
I0225 09:15:10.128937   175 net.cpp:197] Top shape: 1 64 512 1024 (33554432)
I0225 09:15:10.128943   175 net.cpp:205] Memory required for data: 140509188
I0225 09:15:10.128968   175 layer_factory.hpp:123] Creating layer relu_d0b
I0225 09:15:10.128976   175 net.cpp:140] Creating Layer relu_d0b
I0225 09:15:10.128980   175 net.cpp:481] relu_d0b <- d0b
I0225 09:15:10.128985   175 net.cpp:455] relu_d0b -> relu_d0b
I0225 09:15:10.129012   175 net.cpp:190] Setting up relu_d0b
I0225 09:15:10.129017   175 net.cpp:197] Top shape: 1 64 512 1024 (33554432)
I0225 09:15:10.129022   175 net.cpp:205] Memory required for data: 274726916
I0225 09:15:10.129025   175 layer_factory.hpp:123] Creating layer conv_d0b-c
I0225 09:15:10.129034   175 net.cpp:140] Creating Layer conv_d0b-c
I0225 09:15:10.129037   175 net.cpp:481] conv_d0b-c <- relu_d0b
I0225 09:15:10.129042   175 net.cpp:455] conv_d0b-c -> d0c
I0225 09:15:10.130538   175 net.cpp:190] Setting up conv_d0b-c
I0225 09:15:10.130549   175 net.cpp:197] Top shape: 1 64 512 1024 (33554432)
I0225 09:15:10.130555   175 net.cpp:205] Memory required for data: 408944644
I0225 09:15:10.130563   175 layer_factory.hpp:123] Creating layer d0c_conv_d0b-c_0_split
I0225 09:15:10.130575   175 net.cpp:140] Creating Layer d0c_conv_d0b-c_0_split
I0225 09:15:10.130579   175 net.cpp:481] d0c_conv_d0b-c_0_split <- d0c
I0225 09:15:10.130584   175 net.cpp:455] d0c_conv_d0b-c_0_split -> d0c_conv_d0b-c_0_split_0
I0225 09:15:10.130591   175 net.cpp:455] d0c_conv_d0b-c_0_split -> d0c_conv_d0b-c_0_split_1
I0225 09:15:10.130625   175 net.cpp:190] Setting up d0c_conv_d0b-c_0_split
I0225 09:15:10.130630   175 net.cpp:197] Top shape: 1 64 512 1024 (33554432)
I0225 09:15:10.130635   175 net.cpp:197] Top shape: 1 64 512 1024 (33554432)
I0225 09:15:10.130640   175 net.cpp:205] Memory required for data: 677380100
I0225 09:15:10.130642   175 layer_factory.hpp:123] Creating layer BatchNorm_d0c
I0225 09:15:10.130650   175 net.cpp:140] Creating Layer BatchNorm_d0c
I0225 09:15:10.130654   175 net.cpp:481] BatchNorm_d0c <- d0c_conv_d0b-c_0_split_0
I0225 09:15:10.130659   175 net.cpp:455] BatchNorm_d0c -> BatchNorm_d0c
I0225 09:15:10.132089   175 net.cpp:190] Setting up BatchNorm_d0c
I0225 09:15:10.132102   175 net.cpp:197] Top shape: 1 64 512 1024 (33554432)
I0225 09:15:10.132107   175 net.cpp:205] Memory required for data: 811597828
I0225 09:15:10.132118   175 layer_factory.hpp:123] Creating layer relu_d0c
I0225 09:15:10.132124   175 net.cpp:140] Creating Layer relu_d0c
I0225 09:15:10.132128   175 net.cpp:481] relu_d0c <- BatchNorm_d0c
I0225 09:15:10.132133   175 net.cpp:455] relu_d0c -> relu_d0c
I0225 09:15:10.132155   175 net.cpp:190] Setting up relu_d0c
I0225 09:15:10.132159   175 net.cpp:197] Top shape: 1 64 512 1024 (33554432)
I0225 09:15:10.132164   175 net.cpp:205] Memory required for data: 945815556
I0225 09:15:10.132167   175 layer_factory.hpp:123] Creating layer pool_d0c-1a
I0225 09:15:10.132174   175 net.cpp:140] Creating Layer pool_d0c-1a
I0225 09:15:10.132177   175 net.cpp:481] pool_d0c-1a <- relu_d0c
I0225 09:15:10.132182   175 net.cpp:455] pool_d0c-1a -> d1a
I0225 09:15:10.132208   175 net.cpp:190] Setting up pool_d0c-1a
I0225 09:15:10.132217   175 net.cpp:197] Top shape: 1 64 256 512 (8388608)
I0225 09:15:10.132228   175 net.cpp:205] Memory required for data: 979369988
I0225 09:15:10.132232   175 layer_factory.hpp:123] Creating layer conv_d1a-b
I0225 09:15:10.132241   175 net.cpp:140] Creating Layer conv_d1a-b
I0225 09:15:10.132244   175 net.cpp:481] conv_d1a-b <- d1a
I0225 09:15:10.132249   175 net.cpp:455] conv_d1a-b -> d1b
I0225 09:15:10.133234   175 net.cpp:190] Setting up conv_d1a-b
I0225 09:15:10.133244   175 net.cpp:197] Top shape: 1 128 256 512 (16777216)
I0225 09:15:10.133249   175 net.cpp:205] Memory required for data: 1046478852
I0225 09:15:10.133255   175 layer_factory.hpp:123] Creating layer relu_d1b
I0225 09:15:10.133260   175 net.cpp:140] Creating Layer relu_d1b
I0225 09:15:10.133265   175 net.cpp:481] relu_d1b <- d1b
I0225 09:15:10.133270   175 net.cpp:455] relu_d1b -> relu_d1b
I0225 09:15:10.133286   175 net.cpp:190] Setting up relu_d1b
I0225 09:15:10.133291   175 net.cpp:197] Top shape: 1 128 256 512 (16777216)
I0225 09:15:10.133296   175 net.cpp:205] Memory required for data: 1113587716
I0225 09:15:10.133298   175 layer_factory.hpp:123] Creating layer conv_d1b-c
I0225 09:15:10.133306   175 net.cpp:140] Creating Layer conv_d1b-c
I0225 09:15:10.133308   175 net.cpp:481] conv_d1b-c <- relu_d1b
I0225 09:15:10.133313   175 net.cpp:455] conv_d1b-c -> d1c
I0225 09:15:10.135629   175 net.cpp:190] Setting up conv_d1b-c
I0225 09:15:10.135640   175 net.cpp:197] Top shape: 1 128 256 512 (16777216)
I0225 09:15:10.135648   175 net.cpp:205] Memory required for data: 1180696580
I0225 09:15:10.135654   175 layer_factory.hpp:123] Creating layer d1c_conv_d1b-c_0_split
I0225 09:15:10.135660   175 net.cpp:140] Creating Layer d1c_conv_d1b-c_0_split
I0225 09:15:10.135664   175 net.cpp:481] d1c_conv_d1b-c_0_split <- d1c
I0225 09:15:10.135669   175 net.cpp:455] d1c_conv_d1b-c_0_split -> d1c_conv_d1b-c_0_split_0
I0225 09:15:10.135676   175 net.cpp:455] d1c_conv_d1b-c_0_split -> d1c_conv_d1b-c_0_split_1
I0225 09:15:10.135707   175 net.cpp:190] Setting up d1c_conv_d1b-c_0_split
I0225 09:15:10.135713   175 net.cpp:197] Top shape: 1 128 256 512 (16777216)
I0225 09:15:10.135718   175 net.cpp:197] Top shape: 1 128 256 512 (16777216)
I0225 09:15:10.135722   175 net.cpp:205] Memory required for data: 1314914308
I0225 09:15:10.135726   175 layer_factory.hpp:123] Creating layer BatchNorm_d1c
I0225 09:15:10.135733   175 net.cpp:140] Creating Layer BatchNorm_d1c
I0225 09:15:10.135737   175 net.cpp:481] BatchNorm_d1c <- d1c_conv_d1b-c_0_split_0
I0225 09:15:10.135742   175 net.cpp:455] BatchNorm_d1c -> BatchNorm_d1c
I0225 09:15:10.136272   175 net.cpp:190] Setting up BatchNorm_d1c
I0225 09:15:10.136282   175 net.cpp:197] Top shape: 1 128 256 512 (16777216)
I0225 09:15:10.136287   175 net.cpp:205] Memory required for data: 1382023172
I0225 09:15:10.136297   175 layer_factory.hpp:123] Creating layer relu_d1c
I0225 09:15:10.136303   175 net.cpp:140] Creating Layer relu_d1c
I0225 09:15:10.136307   175 net.cpp:481] relu_d1c <- BatchNorm_d1c
I0225 09:15:10.136312   175 net.cpp:455] relu_d1c -> relu_d1c
I0225 09:15:10.136333   175 net.cpp:190] Setting up relu_d1c
I0225 09:15:10.136337   175 net.cpp:197] Top shape: 1 128 256 512 (16777216)
I0225 09:15:10.136341   175 net.cpp:205] Memory required for data: 1449132036
I0225 09:15:10.136345   175 layer_factory.hpp:123] Creating layer pool_d1c-2a
I0225 09:15:10.136350   175 net.cpp:140] Creating Layer pool_d1c-2a
I0225 09:15:10.136354   175 net.cpp:481] pool_d1c-2a <- relu_d1c
I0225 09:15:10.136358   175 net.cpp:455] pool_d1c-2a -> d2a
I0225 09:15:10.136385   175 net.cpp:190] Setting up pool_d1c-2a
I0225 09:15:10.136391   175 net.cpp:197] Top shape: 1 128 128 256 (4194304)
I0225 09:15:10.136397   175 net.cpp:205] Memory required for data: 1465909252
I0225 09:15:10.136400   175 layer_factory.hpp:123] Creating layer conv_d2a-b
I0225 09:15:10.136407   175 net.cpp:140] Creating Layer conv_d2a-b
I0225 09:15:10.136411   175 net.cpp:481] conv_d2a-b <- d2a
I0225 09:15:10.136415   175 net.cpp:455] conv_d2a-b -> d2b
I0225 09:15:10.140730   175 net.cpp:190] Setting up conv_d2a-b
I0225 09:15:10.140743   175 net.cpp:197] Top shape: 1 256 128 256 (8388608)
I0225 09:15:10.140748   175 net.cpp:205] Memory required for data: 1499463684
I0225 09:15:10.140755   175 layer_factory.hpp:123] Creating layer relu_d2b
I0225 09:15:10.140763   175 net.cpp:140] Creating Layer relu_d2b
I0225 09:15:10.140766   175 net.cpp:481] relu_d2b <- d2b
I0225 09:15:10.140771   175 net.cpp:455] relu_d2b -> relu_d2b
I0225 09:15:10.140789   175 net.cpp:190] Setting up relu_d2b
I0225 09:15:10.140794   175 net.cpp:197] Top shape: 1 256 128 256 (8388608)
I0225 09:15:10.140799   175 net.cpp:205] Memory required for data: 1533018116
I0225 09:15:10.140801   175 layer_factory.hpp:123] Creating layer conv_d2b-c
I0225 09:15:10.140810   175 net.cpp:140] Creating Layer conv_d2b-c
I0225 09:15:10.140812   175 net.cpp:481] conv_d2b-c <- relu_d2b
I0225 09:15:10.140817   175 net.cpp:455] conv_d2b-c -> d2c
I0225 09:15:10.147891   175 net.cpp:190] Setting up conv_d2b-c
I0225 09:15:10.147902   175 net.cpp:197] Top shape: 1 256 128 256 (8388608)
I0225 09:15:10.147909   175 net.cpp:205] Memory required for data: 1566572548
I0225 09:15:10.147915   175 layer_factory.hpp:123] Creating layer d2c_conv_d2b-c_0_split
I0225 09:15:10.147922   175 net.cpp:140] Creating Layer d2c_conv_d2b-c_0_split
I0225 09:15:10.147927   175 net.cpp:481] d2c_conv_d2b-c_0_split <- d2c
I0225 09:15:10.147933   175 net.cpp:455] d2c_conv_d2b-c_0_split -> d2c_conv_d2b-c_0_split_0
I0225 09:15:10.147938   175 net.cpp:455] d2c_conv_d2b-c_0_split -> d2c_conv_d2b-c_0_split_1
I0225 09:15:10.147966   175 net.cpp:190] Setting up d2c_conv_d2b-c_0_split
I0225 09:15:10.147970   175 net.cpp:197] Top shape: 1 256 128 256 (8388608)
I0225 09:15:10.147975   175 net.cpp:197] Top shape: 1 256 128 256 (8388608)
I0225 09:15:10.147979   175 net.cpp:205] Memory required for data: 1633681412
I0225 09:15:10.147982   175 layer_factory.hpp:123] Creating layer BatchNorm_d2c
I0225 09:15:10.147989   175 net.cpp:140] Creating Layer BatchNorm_d2c
I0225 09:15:10.147994   175 net.cpp:481] BatchNorm_d2c <- d2c_conv_d2b-c_0_split_0
I0225 09:15:10.148000   175 net.cpp:455] BatchNorm_d2c -> BatchNorm_d2c
I0225 09:15:10.148488   175 net.cpp:190] Setting up BatchNorm_d2c
I0225 09:15:10.148496   175 net.cpp:197] Top shape: 1 256 128 256 (8388608)
I0225 09:15:10.148501   175 net.cpp:205] Memory required for data: 1667235844
I0225 09:15:10.148509   175 layer_factory.hpp:123] Creating layer relu_d2c
I0225 09:15:10.148515   175 net.cpp:140] Creating Layer relu_d2c
I0225 09:15:10.148519   175 net.cpp:481] relu_d2c <- BatchNorm_d2c
I0225 09:15:10.148524   175 net.cpp:455] relu_d2c -> relu_d2c
I0225 09:15:10.148542   175 net.cpp:190] Setting up relu_d2c
I0225 09:15:10.148550   175 net.cpp:197] Top shape: 1 256 128 256 (8388608)
I0225 09:15:10.148555   175 net.cpp:205] Memory required for data: 1700790276
I0225 09:15:10.148558   175 layer_factory.hpp:123] Creating layer pool_d2c-3a
I0225 09:15:10.148564   175 net.cpp:140] Creating Layer pool_d2c-3a
I0225 09:15:10.148567   175 net.cpp:481] pool_d2c-3a <- relu_d2c
I0225 09:15:10.148572   175 net.cpp:455] pool_d2c-3a -> d3a
I0225 09:15:10.148598   175 net.cpp:190] Setting up pool_d2c-3a
I0225 09:15:10.148604   175 net.cpp:197] Top shape: 1 256 64 128 (2097152)
I0225 09:15:10.148608   175 net.cpp:205] Memory required for data: 1709178884
I0225 09:15:10.148612   175 layer_factory.hpp:123] Creating layer conv_d3a-b
I0225 09:15:10.148619   175 net.cpp:140] Creating Layer conv_d3a-b
I0225 09:15:10.148622   175 net.cpp:481] conv_d3a-b <- d3a
I0225 09:15:10.148627   175 net.cpp:455] conv_d3a-b -> d3b
I0225 09:15:10.162302   175 net.cpp:190] Setting up conv_d3a-b
I0225 09:15:10.162313   175 net.cpp:197] Top shape: 1 512 64 128 (4194304)
I0225 09:15:10.162319   175 net.cpp:205] Memory required for data: 1725956100
I0225 09:15:10.162326   175 layer_factory.hpp:123] Creating layer relu_d3b
I0225 09:15:10.162333   175 net.cpp:140] Creating Layer relu_d3b
I0225 09:15:10.162336   175 net.cpp:481] relu_d3b <- d3b
I0225 09:15:10.162343   175 net.cpp:455] relu_d3b -> relu_d3b
I0225 09:15:10.162364   175 net.cpp:190] Setting up relu_d3b
I0225 09:15:10.162369   175 net.cpp:197] Top shape: 1 512 64 128 (4194304)
I0225 09:15:10.162374   175 net.cpp:205] Memory required for data: 1742733316
I0225 09:15:10.162376   175 layer_factory.hpp:123] Creating layer conv_d3b-c
I0225 09:15:10.162384   175 net.cpp:140] Creating Layer conv_d3b-c
I0225 09:15:10.162387   175 net.cpp:481] conv_d3b-c <- relu_d3b
I0225 09:15:10.162392   175 net.cpp:455] conv_d3b-c -> d3c
I0225 09:15:10.189106   175 net.cpp:190] Setting up conv_d3b-c
I0225 09:15:10.189122   175 net.cpp:197] Top shape: 1 512 64 128 (4194304)
I0225 09:15:10.189129   175 net.cpp:205] Memory required for data: 1759510532
I0225 09:15:10.189138   175 layer_factory.hpp:123] Creating layer d3c_conv_d3b-c_0_split
I0225 09:15:10.189147   175 net.cpp:140] Creating Layer d3c_conv_d3b-c_0_split
I0225 09:15:10.189152   175 net.cpp:481] d3c_conv_d3b-c_0_split <- d3c
I0225 09:15:10.189158   175 net.cpp:455] d3c_conv_d3b-c_0_split -> d3c_conv_d3b-c_0_split_0
I0225 09:15:10.189168   175 net.cpp:455] d3c_conv_d3b-c_0_split -> d3c_conv_d3b-c_0_split_1
I0225 09:15:10.189198   175 net.cpp:190] Setting up d3c_conv_d3b-c_0_split
I0225 09:15:10.189201   175 net.cpp:197] Top shape: 1 512 64 128 (4194304)
I0225 09:15:10.189206   175 net.cpp:197] Top shape: 1 512 64 128 (4194304)
I0225 09:15:10.189210   175 net.cpp:205] Memory required for data: 1793064964
I0225 09:15:10.189213   175 layer_factory.hpp:123] Creating layer BatchNorm_1
I0225 09:15:10.189221   175 net.cpp:140] Creating Layer BatchNorm_1
I0225 09:15:10.189225   175 net.cpp:481] BatchNorm_1 <- d3c_conv_d3b-c_0_split_0
I0225 09:15:10.189230   175 net.cpp:455] BatchNorm_1 -> BatchNorm_1
I0225 09:15:10.189736   175 net.cpp:190] Setting up BatchNorm_1
I0225 09:15:10.189745   175 net.cpp:197] Top shape: 1 512 64 128 (4194304)
I0225 09:15:10.189751   175 net.cpp:205] Memory required for data: 1809842180
I0225 09:15:10.189764   175 layer_factory.hpp:123] Creating layer relu_d3c
I0225 09:15:10.189769   175 net.cpp:140] Creating Layer relu_d3c
I0225 09:15:10.189774   175 net.cpp:481] relu_d3c <- BatchNorm_1
I0225 09:15:10.189779   175 net.cpp:455] relu_d3c -> relu_d3c
I0225 09:15:10.189801   175 net.cpp:190] Setting up relu_d3c
I0225 09:15:10.189805   175 net.cpp:197] Top shape: 1 512 64 128 (4194304)
I0225 09:15:10.189810   175 net.cpp:205] Memory required for data: 1826619396
I0225 09:15:10.189815   175 layer_factory.hpp:123] Creating layer pool_d3c-4a
I0225 09:15:10.189821   175 net.cpp:140] Creating Layer pool_d3c-4a
I0225 09:15:10.189823   175 net.cpp:481] pool_d3c-4a <- relu_d3c
I0225 09:15:10.189828   175 net.cpp:455] pool_d3c-4a -> d4a
I0225 09:15:10.189863   175 net.cpp:190] Setting up pool_d3c-4a
I0225 09:15:10.189869   175 net.cpp:197] Top shape: 1 512 32 64 (1048576)
I0225 09:15:10.189874   175 net.cpp:205] Memory required for data: 1830813700
I0225 09:15:10.189877   175 layer_factory.hpp:123] Creating layer conv_d4a-b
I0225 09:15:10.189887   175 net.cpp:140] Creating Layer conv_d4a-b
I0225 09:15:10.189893   175 net.cpp:481] conv_d4a-b <- d4a
I0225 09:15:10.189900   175 net.cpp:455] conv_d4a-b -> d4b
I0225 09:15:10.241583   175 net.cpp:190] Setting up conv_d4a-b
I0225 09:15:10.241603   175 net.cpp:197] Top shape: 1 1024 32 64 (2097152)
I0225 09:15:10.241627   175 net.cpp:205] Memory required for data: 1839202308
I0225 09:15:10.241639   175 layer_factory.hpp:123] Creating layer BatchNorm_2
I0225 09:15:10.241650   175 net.cpp:140] Creating Layer BatchNorm_2
I0225 09:15:10.241655   175 net.cpp:481] BatchNorm_2 <- d4b
I0225 09:15:10.241664   175 net.cpp:455] BatchNorm_2 -> BatchNorm_2
I0225 09:15:10.242168   175 net.cpp:190] Setting up BatchNorm_2
I0225 09:15:10.242179   175 net.cpp:197] Top shape: 1 1024 32 64 (2097152)
I0225 09:15:10.242185   175 net.cpp:205] Memory required for data: 1847590916
I0225 09:15:10.242193   175 layer_factory.hpp:123] Creating layer relu_d4b
I0225 09:15:10.242199   175 net.cpp:140] Creating Layer relu_d4b
I0225 09:15:10.242203   175 net.cpp:481] relu_d4b <- BatchNorm_2
I0225 09:15:10.242208   175 net.cpp:455] relu_d4b -> relu_d4b
I0225 09:15:10.242230   175 net.cpp:190] Setting up relu_d4b
I0225 09:15:10.242234   175 net.cpp:197] Top shape: 1 1024 32 64 (2097152)
I0225 09:15:10.242239   175 net.cpp:205] Memory required for data: 1855979524
I0225 09:15:10.242242   175 layer_factory.hpp:123] Creating layer conv_d4b-c
I0225 09:15:10.242254   175 net.cpp:140] Creating Layer conv_d4b-c
I0225 09:15:10.242256   175 net.cpp:481] conv_d4b-c <- relu_d4b
I0225 09:15:10.242261   175 net.cpp:455] conv_d4b-c -> d4c
I0225 09:15:10.344348   175 net.cpp:190] Setting up conv_d4b-c
I0225 09:15:10.344367   175 net.cpp:197] Top shape: 1 1024 32 64 (2097152)
I0225 09:15:10.344390   175 net.cpp:205] Memory required for data: 1864368132
I0225 09:15:10.344401   175 layer_factory.hpp:123] Creating layer relu_d4c
I0225 09:15:10.344410   175 net.cpp:140] Creating Layer relu_d4c
I0225 09:15:10.344415   175 net.cpp:481] relu_d4c <- d4c
I0225 09:15:10.344424   175 net.cpp:455] relu_d4c -> relu_d4c
I0225 09:15:10.344460   175 net.cpp:190] Setting up relu_d4c
I0225 09:15:10.344463   175 net.cpp:197] Top shape: 1 1024 32 64 (2097152)
I0225 09:15:10.344468   175 net.cpp:205] Memory required for data: 1872756740
I0225 09:15:10.344471   175 layer_factory.hpp:123] Creating layer upconv_d4c_u3a
I0225 09:15:10.344485   175 net.cpp:140] Creating Layer upconv_d4c_u3a
I0225 09:15:10.344489   175 net.cpp:481] upconv_d4c_u3a <- relu_d4c
I0225 09:15:10.344494   175 net.cpp:455] upconv_d4c_u3a -> u3a
I0225 09:15:10.366590   175 net.cpp:190] Setting up upconv_d4c_u3a
I0225 09:15:10.366602   175 net.cpp:197] Top shape: 1 512 64 128 (4194304)
I0225 09:15:10.366624   175 net.cpp:205] Memory required for data: 1889533956
I0225 09:15:10.366631   175 layer_factory.hpp:123] Creating layer relu_u3a
I0225 09:15:10.366637   175 net.cpp:140] Creating Layer relu_u3a
I0225 09:15:10.366641   175 net.cpp:481] relu_u3a <- u3a
I0225 09:15:10.366645   175 net.cpp:442] relu_u3a -> u3a (in-place)
I0225 09:15:10.366652   175 net.cpp:190] Setting up relu_u3a
I0225 09:15:10.366655   175 net.cpp:197] Top shape: 1 512 64 128 (4194304)
I0225 09:15:10.366659   175 net.cpp:205] Memory required for data: 1906311172
I0225 09:15:10.366662   175 layer_factory.hpp:123] Creating layer concat_d3cc_u3a-b
I0225 09:15:10.366688   175 net.cpp:140] Creating Layer concat_d3cc_u3a-b
I0225 09:15:10.366691   175 net.cpp:481] concat_d3cc_u3a-b <- u3a
I0225 09:15:10.366695   175 net.cpp:481] concat_d3cc_u3a-b <- d3c_conv_d3b-c_0_split_1
I0225 09:15:10.366700   175 net.cpp:455] concat_d3cc_u3a-b -> u3b
I0225 09:15:10.366717   175 net.cpp:190] Setting up concat_d3cc_u3a-b
I0225 09:15:10.366721   175 net.cpp:197] Top shape: 1 1024 64 128 (8388608)
I0225 09:15:10.366725   175 net.cpp:205] Memory required for data: 1939865604
I0225 09:15:10.366729   175 layer_factory.hpp:123] Creating layer conv_u3b-c
I0225 09:15:10.366736   175 net.cpp:140] Creating Layer conv_u3b-c
I0225 09:15:10.366739   175 net.cpp:481] conv_u3b-c <- u3b
I0225 09:15:10.366744   175 net.cpp:455] conv_u3b-c -> u3c
I0225 09:15:10.415324   175 net.cpp:190] Setting up conv_u3b-c
I0225 09:15:10.415343   175 net.cpp:197] Top shape: 1 512 64 128 (4194304)
I0225 09:15:10.415366   175 net.cpp:205] Memory required for data: 1956642820
I0225 09:15:10.415377   175 layer_factory.hpp:123] Creating layer relu_u3c
I0225 09:15:10.415386   175 net.cpp:140] Creating Layer relu_u3c
I0225 09:15:10.415391   175 net.cpp:481] relu_u3c <- u3c
I0225 09:15:10.415398   175 net.cpp:442] relu_u3c -> u3c (in-place)
I0225 09:15:10.415408   175 net.cpp:190] Setting up relu_u3c
I0225 09:15:10.415411   175 net.cpp:197] Top shape: 1 512 64 128 (4194304)
I0225 09:15:10.415416   175 net.cpp:205] Memory required for data: 1973420036
I0225 09:15:10.415434   175 layer_factory.hpp:123] Creating layer conv_u3c-d
I0225 09:15:10.415443   175 net.cpp:140] Creating Layer conv_u3c-d
I0225 09:15:10.415446   175 net.cpp:481] conv_u3c-d <- u3c
I0225 09:15:10.415452   175 net.cpp:455] conv_u3c-d -> u3d
I0225 09:15:10.440232   175 net.cpp:190] Setting up conv_u3c-d
I0225 09:15:10.440248   175 net.cpp:197] Top shape: 1 512 64 128 (4194304)
I0225 09:15:10.440270   175 net.cpp:205] Memory required for data: 1990197252
I0225 09:15:10.440279   175 layer_factory.hpp:123] Creating layer relu_u3d
I0225 09:15:10.440287   175 net.cpp:140] Creating Layer relu_u3d
I0225 09:15:10.440294   175 net.cpp:481] relu_u3d <- u3d
I0225 09:15:10.440300   175 net.cpp:442] relu_u3d -> u3d (in-place)
I0225 09:15:10.440310   175 net.cpp:190] Setting up relu_u3d
I0225 09:15:10.440311   175 net.cpp:197] Top shape: 1 512 64 128 (4194304)
I0225 09:15:10.440331   175 net.cpp:205] Memory required for data: 2006974468
I0225 09:15:10.440335   175 layer_factory.hpp:123] Creating layer upconv_u3d_u2a
I0225 09:15:10.440343   175 net.cpp:140] Creating Layer upconv_u3d_u2a
I0225 09:15:10.440346   175 net.cpp:481] upconv_u3d_u2a <- u3d
I0225 09:15:10.440351   175 net.cpp:455] upconv_u3d_u2a -> u2a
I0225 09:15:10.451864   175 net.cpp:190] Setting up upconv_u3d_u2a
I0225 09:15:10.451875   175 net.cpp:197] Top shape: 1 512 128 256 (16777216)
I0225 09:15:10.451896   175 net.cpp:205] Memory required for data: 2074083332
I0225 09:15:10.451903   175 layer_factory.hpp:123] Creating layer relu_u2a
I0225 09:15:10.451908   175 net.cpp:140] Creating Layer relu_u2a
I0225 09:15:10.451912   175 net.cpp:481] relu_u2a <- u2a
I0225 09:15:10.451917   175 net.cpp:442] relu_u2a -> u2a (in-place)
I0225 09:15:10.451923   175 net.cpp:190] Setting up relu_u2a
I0225 09:15:10.451926   175 net.cpp:197] Top shape: 1 512 128 256 (16777216)
I0225 09:15:10.451930   175 net.cpp:205] Memory required for data: 2141192196
I0225 09:15:10.451933   175 layer_factory.hpp:123] Creating layer concat_d2cc_u2a-b
I0225 09:15:10.451938   175 net.cpp:140] Creating Layer concat_d2cc_u2a-b
I0225 09:15:10.451957   175 net.cpp:481] concat_d2cc_u2a-b <- u2a
I0225 09:15:10.451961   175 net.cpp:481] concat_d2cc_u2a-b <- d2c_conv_d2b-c_0_split_1
I0225 09:15:10.451966   175 net.cpp:455] concat_d2cc_u2a-b -> u2b
I0225 09:15:10.451982   175 net.cpp:190] Setting up concat_d2cc_u2a-b
I0225 09:15:10.451987   175 net.cpp:197] Top shape: 1 768 128 256 (25165824)
I0225 09:15:10.451990   175 net.cpp:205] Memory required for data: 2241855492
I0225 09:15:10.451993   175 layer_factory.hpp:123] Creating layer conv_u2b-c
I0225 09:15:10.452000   175 net.cpp:140] Creating Layer conv_u2b-c
I0225 09:15:10.452003   175 net.cpp:481] conv_u2b-c <- u2b
I0225 09:15:10.452008   175 net.cpp:455] conv_u2b-c -> u2c
I0225 09:15:10.469898   175 net.cpp:190] Setting up conv_u2b-c
I0225 09:15:10.469911   175 net.cpp:197] Top shape: 1 256 128 256 (8388608)
I0225 09:15:10.469933   175 net.cpp:205] Memory required for data: 2275409924
I0225 09:15:10.469940   175 layer_factory.hpp:123] Creating layer relu_u2c
I0225 09:15:10.469946   175 net.cpp:140] Creating Layer relu_u2c
I0225 09:15:10.469950   175 net.cpp:481] relu_u2c <- u2c
I0225 09:15:10.469955   175 net.cpp:442] relu_u2c -> u2c (in-place)
I0225 09:15:10.469962   175 net.cpp:190] Setting up relu_u2c
I0225 09:15:10.469965   175 net.cpp:197] Top shape: 1 256 128 256 (8388608)
I0225 09:15:10.469969   175 net.cpp:205] Memory required for data: 2308964356
I0225 09:15:10.469972   175 layer_factory.hpp:123] Creating layer conv_u2c-d
I0225 09:15:10.469995   175 net.cpp:140] Creating Layer conv_u2c-d
I0225 09:15:10.469998   175 net.cpp:481] conv_u2c-d <- u2c
I0225 09:15:10.470003   175 net.cpp:455] conv_u2c-d -> u2d
I0225 09:15:10.476578   175 net.cpp:190] Setting up conv_u2c-d
I0225 09:15:10.476590   175 net.cpp:197] Top shape: 1 256 128 256 (8388608)
I0225 09:15:10.476611   175 net.cpp:205] Memory required for data: 2342518788
I0225 09:15:10.476617   175 layer_factory.hpp:123] Creating layer relu_u2d
I0225 09:15:10.476624   175 net.cpp:140] Creating Layer relu_u2d
I0225 09:15:10.476627   175 net.cpp:481] relu_u2d <- u2d
I0225 09:15:10.476632   175 net.cpp:442] relu_u2d -> u2d (in-place)
I0225 09:15:10.476639   175 net.cpp:190] Setting up relu_u2d
I0225 09:15:10.476641   175 net.cpp:197] Top shape: 1 256 128 256 (8388608)
I0225 09:15:10.476645   175 net.cpp:205] Memory required for data: 2376073220
I0225 09:15:10.476649   175 layer_factory.hpp:123] Creating layer upconv_u2d_u1a
I0225 09:15:10.476655   175 net.cpp:140] Creating Layer upconv_u2d_u1a
I0225 09:15:10.476657   175 net.cpp:481] upconv_u2d_u1a <- u2d
I0225 09:15:10.476663   175 net.cpp:455] upconv_u2d_u1a -> u1a
I0225 09:15:10.478654   175 net.cpp:190] Setting up upconv_u2d_u1a
I0225 09:15:10.478665   175 net.cpp:197] Top shape: 1 128 256 512 (16777216)
I0225 09:15:10.478672   175 net.cpp:205] Memory required for data: 2443182084
I0225 09:15:10.478678   175 layer_factory.hpp:123] Creating layer relu_u1a
I0225 09:15:10.478683   175 net.cpp:140] Creating Layer relu_u1a
I0225 09:15:10.478688   175 net.cpp:481] relu_u1a <- u1a
I0225 09:15:10.478693   175 net.cpp:442] relu_u1a -> u1a (in-place)
I0225 09:15:10.478698   175 net.cpp:190] Setting up relu_u1a
I0225 09:15:10.478701   175 net.cpp:197] Top shape: 1 128 256 512 (16777216)
I0225 09:15:10.478705   175 net.cpp:205] Memory required for data: 2510290948
I0225 09:15:10.478708   175 layer_factory.hpp:123] Creating layer concat_d1cc_u1a-b
I0225 09:15:10.478714   175 net.cpp:140] Creating Layer concat_d1cc_u1a-b
I0225 09:15:10.478718   175 net.cpp:481] concat_d1cc_u1a-b <- u1a
I0225 09:15:10.478720   175 net.cpp:481] concat_d1cc_u1a-b <- d1c_conv_d1b-c_0_split_1
I0225 09:15:10.478725   175 net.cpp:455] concat_d1cc_u1a-b -> u1b
I0225 09:15:10.478746   175 net.cpp:190] Setting up concat_d1cc_u1a-b
I0225 09:15:10.478750   175 net.cpp:197] Top shape: 1 256 256 512 (33554432)
I0225 09:15:10.478754   175 net.cpp:205] Memory required for data: 2644508676
I0225 09:15:10.478757   175 layer_factory.hpp:123] Creating layer conv_u1b-c
I0225 09:15:10.478765   175 net.cpp:140] Creating Layer conv_u1b-c
I0225 09:15:10.478767   175 net.cpp:481] conv_u1b-c <- u1b
I0225 09:15:10.478772   175 net.cpp:455] conv_u1b-c -> u1c
I0225 09:15:10.482718   175 net.cpp:190] Setting up conv_u1b-c
I0225 09:15:10.482730   175 net.cpp:197] Top shape: 1 128 256 512 (16777216)
I0225 09:15:10.482735   175 net.cpp:205] Memory required for data: 2711617540
I0225 09:15:10.482743   175 layer_factory.hpp:123] Creating layer relu_u1c
I0225 09:15:10.482748   175 net.cpp:140] Creating Layer relu_u1c
I0225 09:15:10.482751   175 net.cpp:481] relu_u1c <- u1c
I0225 09:15:10.482756   175 net.cpp:442] relu_u1c -> u1c (in-place)
I0225 09:15:10.482762   175 net.cpp:190] Setting up relu_u1c
I0225 09:15:10.482765   175 net.cpp:197] Top shape: 1 128 256 512 (16777216)
I0225 09:15:10.482769   175 net.cpp:205] Memory required for data: 2778726404
I0225 09:15:10.482772   175 layer_factory.hpp:123] Creating layer conv_u1c-d
I0225 09:15:10.482779   175 net.cpp:140] Creating Layer conv_u1c-d
I0225 09:15:10.482782   175 net.cpp:481] conv_u1c-d <- u1c
I0225 09:15:10.482786   175 net.cpp:455] conv_u1c-d -> u1d
I0225 09:15:10.484946   175 net.cpp:190] Setting up conv_u1c-d
I0225 09:15:10.484961   175 net.cpp:197] Top shape: 1 128 256 512 (16777216)
I0225 09:15:10.484971   175 net.cpp:205] Memory required for data: 2845835268
I0225 09:15:10.484980   175 layer_factory.hpp:123] Creating layer relu_u1d
I0225 09:15:10.484989   175 net.cpp:140] Creating Layer relu_u1d
I0225 09:15:10.484994   175 net.cpp:481] relu_u1d <- u1d
I0225 09:15:10.485002   175 net.cpp:442] relu_u1d -> u1d (in-place)
I0225 09:15:10.485011   175 net.cpp:190] Setting up relu_u1d
I0225 09:15:10.485016   175 net.cpp:197] Top shape: 1 128 256 512 (16777216)
I0225 09:15:10.485023   175 net.cpp:205] Memory required for data: 2912944132
I0225 09:15:10.485028   175 layer_factory.hpp:123] Creating layer upconv_u1d_u0a_NEW
I0225 09:15:10.485039   175 net.cpp:140] Creating Layer upconv_u1d_u0a_NEW
I0225 09:15:10.485044   175 net.cpp:481] upconv_u1d_u0a_NEW <- u1d
I0225 09:15:10.485051   175 net.cpp:455] upconv_u1d_u0a_NEW -> u0a
I0225 09:15:10.486371   175 net.cpp:190] Setting up upconv_u1d_u0a_NEW
I0225 09:15:10.486380   175 net.cpp:197] Top shape: 1 64 512 1024 (33554432)
I0225 09:15:10.486402   175 net.cpp:205] Memory required for data: 3047161860
I0225 09:15:10.486413   175 layer_factory.hpp:123] Creating layer relu_u0a
I0225 09:15:10.486419   175 net.cpp:140] Creating Layer relu_u0a
I0225 09:15:10.486423   175 net.cpp:481] relu_u0a <- u0a
I0225 09:15:10.486428   175 net.cpp:442] relu_u0a -> u0a (in-place)
I0225 09:15:10.486435   175 net.cpp:190] Setting up relu_u0a
I0225 09:15:10.486438   175 net.cpp:197] Top shape: 1 64 512 1024 (33554432)
I0225 09:15:10.486443   175 net.cpp:205] Memory required for data: 3181379588
I0225 09:15:10.486445   175 layer_factory.hpp:123] Creating layer concat_d0cc_u0a-b
I0225 09:15:10.486465   175 net.cpp:140] Creating Layer concat_d0cc_u0a-b
I0225 09:15:10.486469   175 net.cpp:481] concat_d0cc_u0a-b <- u0a
I0225 09:15:10.486472   175 net.cpp:481] concat_d0cc_u0a-b <- d0c_conv_d0b-c_0_split_1
I0225 09:15:10.486477   175 net.cpp:455] concat_d0cc_u0a-b -> u0b
I0225 09:15:10.487278   175 net.cpp:190] Setting up concat_d0cc_u0a-b
I0225 09:15:10.487287   175 net.cpp:197] Top shape: 1 128 512 1024 (67108864)
I0225 09:15:10.487308   175 net.cpp:205] Memory required for data: 3449815044
I0225 09:15:10.487311   175 layer_factory.hpp:123] Creating layer conv_u0b-c_New
I0225 09:15:10.487320   175 net.cpp:140] Creating Layer conv_u0b-c_New
I0225 09:15:10.487324   175 net.cpp:481] conv_u0b-c_New <- u0b
I0225 09:15:10.487330   175 net.cpp:455] conv_u0b-c_New -> u0c
I0225 09:15:10.489054   175 net.cpp:190] Setting up conv_u0b-c_New
I0225 09:15:10.489065   175 net.cpp:197] Top shape: 1 64 512 1024 (33554432)
I0225 09:15:10.489087   175 net.cpp:205] Memory required for data: 3584032772
I0225 09:15:10.489094   175 layer_factory.hpp:123] Creating layer relu_u0c
I0225 09:15:10.489100   175 net.cpp:140] Creating Layer relu_u0c
I0225 09:15:10.489104   175 net.cpp:481] relu_u0c <- u0c
I0225 09:15:10.489109   175 net.cpp:442] relu_u0c -> u0c (in-place)
I0225 09:15:10.489115   175 net.cpp:190] Setting up relu_u0c
I0225 09:15:10.489118   175 net.cpp:197] Top shape: 1 64 512 1024 (33554432)
I0225 09:15:10.489136   175 net.cpp:205] Memory required for data: 3718250500
I0225 09:15:10.489140   175 layer_factory.hpp:123] Creating layer conv_u0c-d_New
I0225 09:15:10.489161   175 net.cpp:140] Creating Layer conv_u0c-d_New
I0225 09:15:10.489164   175 net.cpp:481] conv_u0c-d_New <- u0c
I0225 09:15:10.489169   175 net.cpp:455] conv_u0c-d_New -> u0d
I0225 09:15:10.490481   175 net.cpp:190] Setting up conv_u0c-d_New
I0225 09:15:10.490491   175 net.cpp:197] Top shape: 1 64 512 1024 (33554432)
I0225 09:15:10.490512   175 net.cpp:205] Memory required for data: 3852468228
I0225 09:15:10.490519   175 layer_factory.hpp:123] Creating layer relu_u0d
I0225 09:15:10.490525   175 net.cpp:140] Creating Layer relu_u0d
I0225 09:15:10.490527   175 net.cpp:481] relu_u0d <- u0d
I0225 09:15:10.490532   175 net.cpp:442] relu_u0d -> u0d (in-place)
I0225 09:15:10.490538   175 net.cpp:190] Setting up relu_u0d
I0225 09:15:10.490541   175 net.cpp:197] Top shape: 1 64 512 1024 (33554432)
I0225 09:15:10.490545   175 net.cpp:205] Memory required for data: 3986685956
I0225 09:15:10.490548   175 layer_factory.hpp:123] Creating layer conv_u0d-score_New
I0225 09:15:10.490556   175 net.cpp:140] Creating Layer conv_u0d-score_New
I0225 09:15:10.490573   175 net.cpp:481] conv_u0d-score_New <- u0d
I0225 09:15:10.490578   175 net.cpp:455] conv_u0d-score_New -> conv_u0d-score_New
I0225 09:15:10.491605   175 net.cpp:190] Setting up conv_u0d-score_New
I0225 09:15:10.491616   175 net.cpp:197] Top shape: 1 19 512 1024 (9961472)
I0225 09:15:10.491636   175 net.cpp:205] Memory required for data: 4026531844
I0225 09:15:10.491643   175 layer_factory.hpp:123] Creating layer score
I0225 09:15:10.491649   175 net.cpp:140] Creating Layer score
I0225 09:15:10.491652   175 net.cpp:481] score <- conv_u0d-score_New
I0225 09:15:10.491658   175 net.cpp:455] score -> score
I0225 09:15:10.491735   175 net.cpp:190] Setting up score
I0225 09:15:10.491741   175 net.cpp:197] Top shape: 1 19 512 1024 (9961472)
I0225 09:15:10.491747   175 net.cpp:205] Memory required for data: 4066377732
I0225 09:15:10.491750   175 net.cpp:268] score does not need backward computation.
I0225 09:15:10.491758   175 net.cpp:268] conv_u0d-score_New does not need backward computation.
I0225 09:15:10.491762   175 net.cpp:268] relu_u0d does not need backward computation.
I0225 09:15:10.491765   175 net.cpp:268] conv_u0c-d_New does not need backward computation.
…
layer {
  name: "data"
  type: "ImageData"
  top: "data"
  top: "label"
  include {
    phase: TRAIN
  }
  transform_param {
    scale: 0.022
    mean_value: 73
    mean_value: 82
    mean_value: 72
    resize_param {
      prob: 1
      resize_mode: WARP
      height: 512
      width: 1024
    }
  }
  image_data_param {
    source: "/workspace/Segment/VAI/data/cityscapes/calibration.txt"
    batch_size: 1
    shuffle: true
    new_height: 512
    new_width: 1024
    root_folder: "/workspace/Segment/VAI/data/cityscapes/calibration_images/"
  }
}
layer {
  name: "data_fixed"
  type: "FixedNeuron"
  bottom: "data"
  top: "data"
  param {
    lr_mult: 0
    decay_mult: 0
  }
  fixed_param {
    fixed_method: OVER_FLOW
    bit_width: 8
    follow_data_layer: true
  }
}
layer {
  name: "conv_d0a-b"
  type: "ConvolutionFixed"
  bottom: "data"
  top: "d0b"
  param {
    lr_mult: 1
    decay_mult: 1
  }
  param {
    lr_mult: 2
    decay_mult: 0
  }
  convolution_param {
    num_output: 64
    pad: 1
    kernel_size: 3
    stride: 1
    weight_filler {
      type: "msra"
    }
  }
  fixed_param {
    fixed_method: DIFF_S
    bit_width: 8
  }
}
layer {
  name: "relu_d0b"
  type: "ReLU"
  bottom: "d0b"
  top: "relu_d0b"
}
layer {
  name: "relu_d0b_fixed"
  type: "FixedNeuron"
  bottom: "relu_d0b"
  top: "relu_d0b"
  param {
    lr_mult: 0
    decay_mult: 0
  }
  fixed_param {
    fixed_method: DIFF_S
    bit_width: 8
  }
}
layer {
  name: "conv_d0b-c"
  type: "ConvolutionFixed"
  bottom: "relu_d0b"
  top: "d0c"
  param {
    lr_mult: 1
    decay_mult: 1
  }
  param {
    lr_mult: 2
    decay_mult: 0
  }
  convolution_param {
    num_output: 64
    pad: 1
    kernel_size: 3
    weight_filler {
      type: "msra"
    }
  }
  fixed_param {
    fixed_method: DIFF_S
    bit_width: 8
  }
}
layer {
  name: "d0c_fixed"
  type: "FixedNeuron"
  bottom: "d0c"
  top: "d0c"
  param {
    lr_mult: 0
    decay_mult: 0
  }
  fixed_param {
    fixed_method: DIFF_S
    bit_width: 8
  }
}
layer {
  name: "BatchNorm_d0c"
  type: "ScaleFixed"
  bottom: "d0c"
  top: "BatchNorm_d0c"
  param {
    lr_mult: 1
    decay_mult: 1
  }
  param {
    lr_mult: 1
    decay_mult: 0
  }
  scale_param {
    bias_term: true
  }
  fixed_param {
    fixed_method: DIFF_S
    bit_width: 8
  }
}
layer {
  name: "relu_d0c"
  type: "ReLU"
  bottom: "BatchNorm_d0c"
  top: "relu_d0c"
}
layer {
  name: "pool_d0c-1a"
  type: "Pooling"
  bottom: "relu_d0c"
  top: "d1a"
  pooling_param {
    pool: MAX
    kernel_size: 2
    stride: 2
  }
}
layer {
  name: "d1a_fixed"
  type: "FixedNeuron"
  bottom: "d1a"
  top: "d1a"
  param {
    lr_mult: 0
    decay_mult: 0
  }
  fixed_param {
    fixed_method: DIFF_S
    bit_width: 8
  }
}
layer {
  name: "conv_d1a-b"
  type: "ConvolutionFixed"
  bottom: "d1a"
  top: "d1b"
  param {
    lr_mult: 1
    decay_mult: 1
  }
  param {
    lr_mult: 2
    decay_mult: 0
  }
  convolution_param {
    num_output: 128
    pad: 1
    kernel_size: 3
    weight_filler {
      type: "msra"
    }
  }
  fixed_param {
    fixed_method: DIFF_S
    bit_width: 8
  }
}
layer {
  name: "relu_d1b"
  type: "ReLU"
  bottom: "d1b"
  top: "relu_d1b"
}
layer {
  name: "relu_d1b_fixed"
  type: "FixedNeuron"
  bottom: "relu_d1b"
  top: "relu_d1b"
  param {
    lr_mult: 0
    decay_mult: 0
  }
  fixed_param {
    fixed_method: DIFF_S
    bit_width: 8
  }
}
layer {
  name: "conv_d1b-c"
  type: "ConvolutionFixed"
  bottom: "relu_d1b"
  top: "d1c"
  param {
    lr_mult: 1
    decay_mult: 1
  }
  param {
    lr_mult: 2
    decay_mult: 0
  }
  convolution_param {
    num_output: 128
    pad: 1
    kernel_size: 3
    weight_filler {
      type: "msra"
    }
  }
  fixed_param {
    fixed_method: DIFF_S
    bit_width: 8
  }
}
layer {
  name: "d1c_fixed"
  type: "FixedNeuron"
  bottom: "d1c"
  top: "d1c"
  param {
    lr_mult: 0
    decay_mult: 0
  }
  fixed_param {
    fixed_method: DIFF_S
    bit_width: 8
  }
}
layer {
  name: "BatchNorm_d1c"
  type: "ScaleFixed"
  bottom: "d1c"
  top: "BatchNorm_d1c"
  param {
    lr_mult: 1
    decay_mult: 1
  }
  param {
    lr_mult: 1
    decay_mult: 0
  }
  scale_param {
    bias_term: true
  }
  fixed_param {
    fixed_method: DIFF_S
    bit_width: 8
  }
}
layer {
  name: "relu_d1c"
  type: "ReLU"
  bottom: "BatchNorm_d1c"
  top: "relu_d1c"
}
layer {
  name: "pool_d1c-2a"
  type: "Pooling"
  bottom: "relu_d1c"
  top: "d2a"
  pooling_param {
    pool: MAX
    kernel_size: 2
    stride: 2
  }
}
layer {
  name: "d2a_fixed"
  type: "FixedNeuron"
  bottom: "d2a"
  top: "d2a"
  param {
    lr_mult: 0
    decay_mult: 0
  }
  fixed_param {
    fixed_method: DIFF_S
    bit_width: 8
  }
}
layer {
  name: "conv_d2a-b"
  type: "ConvolutionFixed"
  bottom: "d2a"
  top: "d2b"
  param {
    lr_mult: 1
    decay_mult: 1
  }
  param {
    lr_mult: 2
    decay_mult: 0
  }
  convolution_param {
    num_output: 256
    pad: 1
    kernel_size: 3
    weight_filler {
      type: "msra"
    }
  }
  fixed_param {
    fixed_method: DIFF_S
    bit_width: 8
  }
}
layer {
  name: "relu_d2b"
  type: "ReLU"
  bottom: "d2b"
  top: "relu_d2b"
}
layer {
  name: "relu_d2b_fixed"
  type: "FixedNeuron"
  bottom: "relu_d2b"
  top: "relu_d2b"
  param {
    lr_mult: 0
    decay_mult: 0
  }
  fixed_param {
    fixed_method: DIFF_S
    bit_width: 8
  }
}
layer {
  name: "conv_d2b-c"
  type: "ConvolutionFixed"
  bottom: "relu_d2b"
  top: "d2c"
  param {
    lr_mult: 1
    decay_mult: 1
  }
  param {
    lr_mult: 2
    decay_mult: 0
  }
  convolution_param {
    num_output: 256
    pad: 1
    kernel_size: 3
    weight_filler {
      type: "msra"
    }
  }
  fixed_param {
    fixed_method: DIFF_S
    bit_width: 8
  }
}
layer {
  name: "d2c_fixed"
  type: "FixedNeuron"
  bottom: "d2c"
  top: "d2c"
  param {
    lr_mult: 0
    decay_mult: 0
  }
  fixed_param {
    fixed_method: DIFF_S
    bit_width: 8
  }
}
layer {
  name: "BatchNorm_d2c"
  type: "ScaleFixed"
  bottom: "d2c"
  top: "BatchNorm_d2c"
  param {
    lr_mult: 1
    decay_mult: 1
  }
  param {
    lr_mult: 1
    decay_mult: 0
  }
  scale_param {
    bias_term: true
  }
  fixed_param {
    fixed_method: DIFF_S
    bit_width: 8
  }
}
layer {
  name: "relu_d2c"
  type: "ReLU"
  bottom: "BatchNorm_d2c"
  top: "relu_d2c"
}
layer {
  name: "pool_d2c-3a"
  type: "Pooling"
  bottom: "relu_d2c"
  top: "d3a"
  pooling_param {
    pool: MAX
    kernel_size: 2
    stride: 2
  }
}
layer {
  name: "d3a_fixed"
  type: "FixedNeuron"
  bottom: "d3a"
  top: "d3a"
  param {
    lr_mult: 0
    decay_mult: 0
  }
  fixed_param {
    fixed_method: DIFF_S
    bit_width: 8
  }
}
layer {
  name: "conv_d3a-b"
  type: "ConvolutionFixed"
  bottom: "d3a"
  top: "d3b"
  param {
    lr_mult: 1
    decay_mult: 1
  }
  param {
    lr_mult: 2
    decay_mult: 0
  }
  convolution_param {
    num_output: 512
    pad: 1
    kernel_size: 3
    weight_filler {
      type: "msra"
    }
  }
  fixed_param {
    fixed_method: DIFF_S
    bit_width: 8
  }
}
layer {
  name: "relu_d3b"
  type: "ReLU"
  bottom: "d3b"
  top: "relu_d3b"
}
layer {
  name: "relu_d3b_fixed"
  type: "FixedNeuron"
  bottom: "relu_d3b"
  top: "relu_d3b"
  param {
    lr_mult: 0
    decay_mult: 0
  }
  fixed_param {
    fixed_method: DIFF_S
    bit_width: 8
  }
}
layer {
  name: "conv_d3b-c"
  type: "ConvolutionFixed"
  bottom: "relu_d3b"
  top: "d3c"
  param {
    lr_mult: 1
    decay_mult: 1
  }
  param {
    lr_mult: 2
    decay_mult: 0
  }
  convolution_param {
    num_output: 512
    pad: 1
    kernel_size: 3
    weight_filler {
      type: "msra"
    }
  }
  fixed_param {
    fixed_method: DIFF_S
    bit_width: 8
  }
}
layer {
  name: "d3c_fixed"
  type: "FixedNeuron"
  bottom: "d3c"
  top: "d3c"
  param {
    lr_mult: 0
    decay_mult: 0
  }
  fixed_param {
    fixed_method: DIFF_S
    bit_width: 8
  }
}
layer {
  name: "BatchNorm_1"
  type: "ScaleFixed"
  bottom: "d3c"
  top: "BatchNorm_1"
  param {
    lr_mult: 1
    decay_mult: 1
  }
  param {
    lr_mult: 1
    decay_mult: 0
  }
  scale_param {
    bias_term: true
  }
  fixed_param {
    fixed_method: DIFF_S
    bit_width: 8
  }
}
layer {
  name: "relu_d3c"
  type: "ReLU"
  bottom: "BatchNorm_1"
  top: "relu_d3c"
}
layer {
  name: "pool_d3c-4a"
  type: "Pooling"
  bottom: "relu_d3c"
  top: "d4a"
  pooling_param {
    pool: MAX
    kernel_size: 2
    stride: 2
  }
}
layer {
  name: "d4a_fixed"
  type: "FixedNeuron"
  bottom: "d4a"
  top: "d4a"
  param {
    lr_mult: 0
    decay_mult: 0
  }
  fixed_param {
    fixed_method: DIFF_S
    bit_width: 8
  }
}
layer {
  name: "conv_d4a-b"
  type: "ConvolutionFixed"
  bottom: "d4a"
  top: "BatchNorm_2"
  param {
    lr_mult: 1
    decay_mult: 1
  }
  param {
    lr_mult: 1
    decay_mult: 0
  }
  convolution_param {
    num_output: 1024
    bias_term: true
    pad: 1
    kernel_size: 3
    weight_filler {
      type: "msra"
    }
  }
  fixed_param {
    fixed_method: DIFF_S
    bit_width: 8
  }
}
layer {
  name: "relu_d4b"
  type: "ReLU"
  bottom: "BatchNorm_2"
  top: "relu_d4b"
}
layer {
  name: "relu_d4b_fixed"
  type: "FixedNeuron"
  bottom: "relu_d4b"
  top: "relu_d4b"
  param {
    lr_mult: 0
    decay_mult: 0
  }
  fixed_param {
    fixed_method: DIFF_S
    bit_width: 8
  }
}
layer {
  name: "conv_d4b-c"
  type: "ConvolutionFixed"
  bottom: "relu_d4b"
  top: "d4c"
  param {
    lr_mult: 1
    decay_mult: 1
  }
  param {
    lr_mult: 2
    decay_mult: 0
  }
  convolution_param {
    num_output: 1024
    pad: 1
    kernel_size: 3
    weight_filler {
      type: "msra"
    }
  }
  fixed_param {
    fixed_method: DIFF_S
    bit_width: 8
  }
}
layer {
  name: "relu_d4c"
  type: "ReLU"
  bottom: "d4c"
  top: "relu_d4c"
}
layer {
  name: "relu_d4c_fixed"
  type: "FixedNeuron"
  bottom: "relu_d4c"
  top: "relu_d4c"
  param {
    lr_mult: 0
    decay_mult: 0
  }
  fixed_param {
    fixed_method: DIFF_S
    bit_width: 8
  }
}
layer {
  name: "upconv_d4c_u3a"
  type: "DeconvolutionFixed"
  bottom: "relu_d4c"
  top: "u3a"
  param {
    lr_mult: 1
    decay_mult: 1
  }
  param {
    lr_mult: 2
    decay_mult: 0
  }
  convolution_param {
    num_output: 512
    pad: 0
    kernel_size: 2
    stride: 2
    weight_filler {
      type: "msra"
    }
  }
  fixed_param {
    fixed_method: DIFF_S
    bit_width: 8
  }
}
layer {
  name: "relu_u3a"
  type: "ReLU"
  bottom: "u3a"
  top: "u3a"
}
layer {
  name: "concat_d3cc_u3a-b"
  type: "Concat"
  bottom: "u3a"
  bottom: "d3c"
  top: "u3b"
}
layer {
  name: "u3b_fixed"
  type: "FixedNeuron"
  bottom: "u3b"
  top: "u3b"
  param {
    lr_mult: 0
    decay_mult: 0
  }
  fixed_param {
    fixed_method: DIFF_S
    bit_width: 8
  }
}
layer {
  name: "conv_u3b-c"
  type: "ConvolutionFixed"
  bottom: "u3b"
  top: "u3c"
  param {
    lr_mult: 1
    decay_mult: 1
  }
  param {
    lr_mult: 2
    decay_mult: 0
  }
  convolution_param {
    num_output: 512
    pad: 1
    kernel_size: 3
    weight_filler {
      type: "msra"
    }
  }
  fixed_param {
    fixed_method: DIFF_S
    bit_width: 8
  }
}
layer {
  name: "relu_u3c"
  type: "ReLU"
  bottom: "u3c"
  top: "u3c"
}
layer {
  name: "u3c_fixed"
  type: "FixedNeuron"
  bottom: "u3c"
  top: "u3c"
  param {
    lr_mult: 0
    decay_mult: 0
  }
  fixed_param {
    fixed_method: DIFF_S
    bit_width: 8
  }
}
layer {
  name: "conv_u3c-d"
  type: "ConvolutionFixed"
  bottom: "u3c"
  top: "u3d"
  param {
    lr_mult: 1
    decay_mult: 1
  }
  param {
    lr_mult: 2
    decay_mult: 0
  }
  convolution_param {
    num_output: 512
    pad: 1
    kernel_size: 3
    weight_filler {
      type: "msra"
    }
  }
  fixed_param {
    fixed_method: DIFF_S
    bit_width: 8
  }
}
layer {
  name: "relu_u3d"
  type: "ReLU"
  bottom: "u3d"
  top: "u3d"
}
layer {
  name: "u3d_fixed"
  type: "FixedNeuron"
  bottom: "u3d"
  top: "u3d"
  param {
    lr_mult: 0
    decay_mult: 0
  }
  fixed_param {
    fixed_method: DIFF_S
    bit_width: 8
  }
}
layer {
  name: "upconv_u3d_u2a"
  type: "DeconvolutionFixed"
  bottom: "u3d"
  top: "u2a"
  param {
    lr_mult: 1
    decay_mult: 1
  }
  param {
    lr_mult: 2
    decay_mult: 0
  }
  convolution_param {
    num_output: 512
    pad: 0
    kernel_size: 2
    stride: 2
    weight_filler {
      type: "msra"
    }
  }
  fixed_param {
    fixed_method: DIFF_S
    bit_width: 8
  }
}
layer {
  name: "relu_u2a"
  type: "ReLU"
  bottom: "u2a"
  top: "u2a"
}
layer {
  name: "concat_d2cc_u2a-b"
  type: "Concat"
  bottom: "u2a"
  bottom: "d2c"
  top: "u2b"
}
layer {
  name: "u2b_fixed"
  type: "FixedNeuron"
  bottom: "u2b"
  top: "u2b"
  param {
    lr_mult: 0
    decay_mult: 0
  }
  fixed_param {
    fixed_method: DIFF_S
    bit_width: 8
  }
}
layer {
  name: "conv_u2b-c"
  type: "ConvolutionFixed"
  bottom: "u2b"
  top: "u2c"
  param {
    lr_mult: 1
    decay_mult: 1
  }
  param {
    lr_mult: 2
    decay_mult: 0
  }
  convolution_param {
    num_output: 256
    pad: 1
    kernel_size: 3
    weight_filler {
      type: "msra"
    }
  }
  fixed_param {
    fixed_method: DIFF_S
    bit_width: 8
  }
}
layer {
  name: "relu_u2c"
  type: "ReLU"
  bottom: "u2c"
  top: "u2c"
}
layer {
  name: "u2c_fixed"
  type: "FixedNeuron"
  bottom: "u2c"
  top: "u2c"
  param {
    lr_mult: 0
    decay_mult: 0
  }
  fixed_param {
    fixed_method: DIFF_S
    bit_width: 8
  }
}
layer {
  name: "conv_u2c-d"
  type: "ConvolutionFixed"
  bottom: "u2c"
  top: "u2d"
  param {
    lr_mult: 1
    decay_mult: 1
  }
  param {
    lr_mult: 2
    decay_mult: 0
  }
  convolution_param {
    num_output: 256
    pad: 1
    kernel_size: 3
    weight_filler {
      type: "msra"
    }
  }
  fixed_param {
    fixed_method: DIFF_S
    bit_width: 8
  }
}
layer {
  name: "relu_u2d"
  type: "ReLU"
  bottom: "u2d"
  top: "u2d"
}
layer {
  name: "u2d_fixed"
  type: "FixedNeuron"
  bottom: "u2d"
  top: "u2d"
  param {
    lr_mult: 0
    decay_mult: 0
  }
  fixed_param {
    fixed_method: DIFF_S
    bit_width: 8
  }
}
layer {
  name: "upconv_u2d_u1a"
  type: "DeconvolutionFixed"
  bottom: "u2d"
  top: "u1a"
  param {
    lr_mult: 1
    decay_mult: 1
  }
  param {
    lr_mult: 2
    decay_mult: 0
  }
  convolution_param {
    num_output: 128
    pad: 0
    kernel_size: 2
    stride: 2
    weight_filler {
      type: "msra"
    }
  }
  fixed_param {
    fixed_method: DIFF_S
    bit_width: 8
  }
}
layer {
  name: "relu_u1a"
  type: "ReLU"
  bottom: "u1a"
  top: "u1a"
}
layer {
  name: "concat_d1cc_u1a-b"
  type: "Concat"
  bottom: "u1a"
  bottom: "d1c"
  top: "u1b"
}
layer {
  name: "u1b_fixed"
  type: "FixedNeuron"
  bottom: "u1b"
  top: "u1b"
  param {
    lr_mult: 0
    decay_mult: 0
  }
  fixed_param {
    fixed_method: DIFF_S
    bit_width: 8
  }
}
layer {
  name: "conv_u1b-c"
  type: "ConvolutionFixed"
  bottom: "u1b"
  top: "u1c"
  param {
    lr_mult: 1
    decay_mult: 1
  }
  param {
    lr_mult: 2
    decay_mult: 0
  }
  convolution_param {
    num_output: 128
    pad: 1
    kernel_size: 3
    weight_filler {
      type: "msra"
    }
  }
  fixed_param {
    fixed_method: DIFF_S
    bit_width: 8
  }
}
layer {
  name: "relu_u1c"
  type: "ReLU"
  bottom: "u1c"
  top: "u1c"
}
layer {
  name: "u1c_fixed"
  type: "FixedNeuron"
  bottom: "u1c"
  top: "u1c"
  param {
    lr_mult: 0
    decay_mult: 0
  }
  fixed_param {
    fixed_method: DIFF_S
    bit_width: 8
  }
}
layer {
  name: "conv_u1c-d"
  type: "ConvolutionFixed"
  bottom: "u1c"
  top: "u1d"
  param {
    lr_mult: 1
    decay_mult: 1
  }
  param {
    lr_mult: 2
    decay_mult: 0
  }
  convolution_param {
    num_output: 128
    pad: 1
    kernel_size: 3
    weight_filler {
      type: "msra"
    }
  }
  fixed_param {
    fixed_method: DIFF_S
    bit_width: 8
  }
}
layer {
  name: "relu_u1d"
  type: "ReLU"
  bottom: "u1d"
  top: "u1d"
}
layer {
  name: "u1d_fixed"
  type: "FixedNeuron"
  bottom: "u1d"
  top: "u1d"
  param {
    lr_mult: 0
    decay_mult: 0
  }
  fixed_param {
    fixed_method: DIFF_S
    bit_width: 8
  }
}
layer {
  name: "upconv_u1d_u0a_NEW"
  type: "DeconvolutionFixed"
  bottom: "u1d"
  top: "u0a"
  param {
    lr_mult: 1
    decay_mult: 1
  }
  param {
    lr_mult: 2
    decay_mult: 0
  }
  convolution_param {
    num_output: 64
    pad: 0
    kernel_size: 2
    stride: 2
    weight_filler {
      type: "msra"
    }
  }
  fixed_param {
    fixed_method: DIFF_S
    bit_width: 8
  }
}
layer {
  name: "relu_u0a"
  type: "ReLU"
  bottom: "u0a"
  top: "u0a"
}
layer {
  name: "concat_d0cc_u0a-b"
  type: "Concat"
  bottom: "u0a"
  bottom: "d0c"
  top: "u0b"
}
layer {
  name: "u0b_fixed"
  type: "FixedNeuron"
  bottom: "u0b"
  top: "u0b"
  param {
    lr_mult: 0
    decay_mult: 0
  }
  fixed_param {
    fixed_method: DIFF_S
    bit_width: 8
  }
}
layer {
  name: "conv_u0b-c_New"
  type: "ConvolutionFixed"
  bottom: "u0b"
  top: "u0c"
  param {
    lr_mult: 1
    decay_mult: 1
  }
  param {
    lr_mult: 2
    decay_mult: 0
  }
  convolution_param {
    num_output: 64
    pad: 1
    kernel_size: 3
    weight_filler {
      type: "msra"
    }
  }
  fixed_param {
    fixed_method: DIFF_S
    bit_width: 8
  }
}
layer {
  name: "relu_u0c"
  type: "ReLU"
  bottom: "u0c"
  top: "u0c"
}
layer {
  name: "u0c_fixed"
  type: "FixedNeuron"
  bottom: "u0c"
  top: "u0c"
  param {
    lr_mult: 0
    decay_mult: 0
  }
  fixed_param {
    fixed_method: DIFF_S
    bit_width: 8
  }
}
layer {
  name: "conv_u0c-d_New"
  type: "ConvolutionFixed"
  bottom: "u0c"
  top: "u0d"
  param {
    lr_mult: 1
    decay_mult: 1
  }
  param {
    lr_mult: 2
    decay_mult: 0
  }
  convolution_param {
    num_output: 64
    pad: 1
    kernel_size: 3
    weight_filler {
      type: "msra"
    }
  }
  fixed_param {
    fixed_method: DIFF_S
    bit_width: 8
  }
}
layer {
  name: "relu_u0d"
  type: "ReLU"
  bottom: "u0d"
  top: "u0d"
}
layer {
  name: "u0d_fixed"
  type: "FixedNeuron"
  bottom: "u0d"
  top: "u0d"
  param {
    lr_mult: 0
    decay_mult: 0
  }
  fixed_param {
    fixed_method: DIFF_S
    bit_width: 8
  }
}
layer {
  name: "conv_u0d-score_New"
  type: "ConvolutionFixed"
  bottom: "u0d"
  top: "conv_u0d-score_New"
  param {
    lr_mult: 1
    decay_mult: 1
  }
  param {
    lr_mult: 2
    decay_mult: 0
  }
  convolution_param {
    num_output: 19
    pad: 0
    kernel_size: 1
    weight_filler {
      type: "msra"
    }
  }
  fixed_param {
    fixed_method: DIFF_S
    bit_width: 8
  }
}
layer {
  name: "conv_u0d-score_New_fixed"
  type: "FixedNeuron"
  bottom: "conv_u0d-score_New"
  top: "conv_u0d-score_New"
  param {
    lr_mult: 0
    decay_mult: 0
  }
  fixed_param {
    fixed_method: DIFF_S
    bit_width: 8
  }
}
layer {
  name: "score"
  type: "Softmax"
  bottom: "conv_u0d-score_New"
  top: "score"
}
I0225 09:15:11.030589   175 layer_factory.hpp:123] Creating layer data
I0225 09:15:11.030612   175 net.cpp:140] Creating Layer data
I0225 09:15:11.030620   175 net.cpp:455] data -> data
I0225 09:15:11.030633   175 net.cpp:455] data -> label
I0225 09:15:11.030645   175 image_data_layer.cpp:87] Opening file /workspace/Segment/VAI/data/cityscapes/calibration.txt
I0225 09:15:11.031097   175 image_data_layer.cpp:97] Shuffling data
I0225 09:15:11.031141   175 image_data_layer.cpp:102] A total of 1000 images.
I0225 09:15:11.092640   175 image_data_layer.cpp:130] output data size: 1,3,512,1024
I0225 09:15:11.119025   175 internal_thread.cpp:73] Starting internal thread(s) on GPU 0
I0225 09:15:11.119117   175 net.cpp:190] Setting up data
I0225 09:15:11.119138   175 net.cpp:197] Top shape: 1 3 512 1024 (1572864)
I0225 09:15:11.119148   175 net.cpp:197] Top shape: 1 (1)
I0225 09:15:11.119155   175 net.cpp:205] Memory required for data: 6291460
I0225 09:15:11.119163   175 layer_factory.hpp:123] Creating layer data_fixed
I0225 09:15:11.119187   175 net.cpp:140] Creating Layer data_fixed
I0225 09:15:11.119194   175 net.cpp:481] data_fixed <- data
I0225 09:15:11.119202   175 net.cpp:442] data_fixed -> data (in-place)
I0225 09:15:11.119247   175 net.cpp:190] Setting up data_fixed
I0225 09:15:11.119253   175 net.cpp:197] Top shape: 1 3 512 1024 (1572864)
I0225 09:15:11.119258   175 net.cpp:205] Memory required for data: 12582916
I0225 09:15:11.119268   175 layer_factory.hpp:123] Creating layer conv_d0a-b
I0225 09:15:11.119283   175 net.cpp:140] Creating Layer conv_d0a-b
I0225 09:15:11.119287   175 net.cpp:481] conv_d0a-b <- data
I0225 09:15:11.119294   175 net.cpp:455] conv_d0a-b -> d0b
I0225 09:15:11.119704   175 layer_factory.hpp:123] Creating layer conv_d0a-b
I0225 09:15:11.121759   175 net.cpp:190] Setting up conv_d0a-b
I0225 09:15:11.121770   175 net.cpp:197] Top shape: 1 64 512 1024 (33554432)
I0225 09:15:11.121793   175 net.cpp:205] Memory required for data: 146800644
I0225 09:15:11.121800   175 layer_factory.hpp:123] Creating layer relu_d0b
I0225 09:15:11.121806   175 net.cpp:140] Creating Layer relu_d0b
I0225 09:15:11.121811   175 net.cpp:481] relu_d0b <- d0b
I0225 09:15:11.121816   175 net.cpp:455] relu_d0b -> relu_d0b
I0225 09:15:11.121846   175 net.cpp:190] Setting up relu_d0b
I0225 09:15:11.121852   175 net.cpp:197] Top shape: 1 64 512 1024 (33554432)
I0225 09:15:11.121856   175 net.cpp:205] Memory required for data: 281018372
I0225 09:15:11.121860   175 layer_factory.hpp:123] Creating layer relu_d0b_fixed
I0225 09:15:11.121866   175 net.cpp:140] Creating Layer relu_d0b_fixed
I0225 09:15:11.121870   175 net.cpp:481] relu_d0b_fixed <- relu_d0b
I0225 09:15:11.121874   175 net.cpp:442] relu_d0b_fixed -> relu_d0b (in-place)
I0225 09:15:11.121915   175 net.cpp:190] Setting up relu_d0b_fixed
I0225 09:15:11.121922   175 net.cpp:197] Top shape: 1 64 512 1024 (33554432)
I0225 09:15:11.121928   175 net.cpp:205] Memory required for data: 415236100
I0225 09:15:11.121935   175 layer_factory.hpp:123] Creating layer conv_d0b-c
I0225 09:15:11.121945   175 net.cpp:140] Creating Layer conv_d0b-c
I0225 09:15:11.121950   175 net.cpp:481] conv_d0b-c <- relu_d0b
I0225 09:15:11.121958   175 net.cpp:455] conv_d0b-c -> d0c
I0225 09:15:11.122543   175 layer_factory.hpp:123] Creating layer conv_d0b-c
I0225 09:15:11.124821   175 net.cpp:190] Setting up conv_d0b-c
I0225 09:15:11.124832   175 net.cpp:197] Top shape: 1 64 512 1024 (33554432)
I0225 09:15:11.124838   175 net.cpp:205] Memory required for data: 549453828
I0225 09:15:11.124846   175 layer_factory.hpp:123] Creating layer d0c_fixed
I0225 09:15:11.124852   175 net.cpp:140] Creating Layer d0c_fixed
I0225 09:15:11.124856   175 net.cpp:481] d0c_fixed <- d0c
I0225 09:15:11.124862   175 net.cpp:442] d0c_fixed -> d0c (in-place)
I0225 09:15:11.124904   175 net.cpp:190] Setting up d0c_fixed
I0225 09:15:11.124912   175 net.cpp:197] Top shape: 1 64 512 1024 (33554432)
I0225 09:15:11.124917   175 net.cpp:205] Memory required for data: 683671556
I0225 09:15:11.124922   175 layer_factory.hpp:123] Creating layer d0c_d0c_fixed_0_split
I0225 09:15:11.124928   175 net.cpp:140] Creating Layer d0c_d0c_fixed_0_split
I0225 09:15:11.124931   175 net.cpp:481] d0c_d0c_fixed_0_split <- d0c
I0225 09:15:11.124936   175 net.cpp:455] d0c_d0c_fixed_0_split -> d0c_d0c_fixed_0_split_0
I0225 09:15:11.124941   175 net.cpp:455] d0c_d0c_fixed_0_split -> d0c_d0c_fixed_0_split_1
I0225 09:15:11.124975   175 net.cpp:190] Setting up d0c_d0c_fixed_0_split
I0225 09:15:11.124979   175 net.cpp:197] Top shape: 1 64 512 1024 (33554432)
I0225 09:15:11.124986   175 net.cpp:197] Top shape: 1 64 512 1024 (33554432)
I0225 09:15:11.124992   175 net.cpp:205] Memory required for data: 952107012
I0225 09:15:11.124997   175 layer_factory.hpp:123] Creating layer BatchNorm_d0c
I0225 09:15:11.125006   175 net.cpp:140] Creating Layer BatchNorm_d0c
I0225 09:15:11.125010   175 net.cpp:481] BatchNorm_d0c <- d0c_d0c_fixed_0_split_0
I0225 09:15:11.125016   175 net.cpp:455] BatchNorm_d0c -> BatchNorm_d0c
I0225 09:15:11.125072   175 layer_factory.hpp:123] Creating layer BatchNorm_d0c
I0225 09:15:11.125995   175 layer_factory.hpp:123] Creating layer BatchNorm_d0c
I0225 09:15:11.126041   175 layer_factory.hpp:123] Creating layer BatchNorm_d0c
I0225 09:15:11.128618   175 net.cpp:190] Setting up BatchNorm_d0c
I0225 09:15:11.128628   175 net.cpp:197] Top shape: 1 64 512 1024 (33554432)
I0225 09:15:11.128633   175 net.cpp:205] Memory required for data: 1086324740
I0225 09:15:11.128641   175 layer_factory.hpp:123] Creating layer relu_d0c
I0225 09:15:11.128648   175 net.cpp:140] Creating Layer relu_d0c
I0225 09:15:11.128651   175 net.cpp:481] relu_d0c <- BatchNorm_d0c
I0225 09:15:11.128655   175 net.cpp:455] relu_d0c -> relu_d0c
I0225 09:15:11.128681   175 net.cpp:190] Setting up relu_d0c
I0225 09:15:11.128685   175 net.cpp:197] Top shape: 1 64 512 1024 (33554432)
I0225 09:15:11.128690   175 net.cpp:205] Memory required for data: 1220542468
I0225 09:15:11.128693   175 layer_factory.hpp:123] Creating layer pool_d0c-1a
I0225 09:15:11.128705   175 net.cpp:140] Creating Layer pool_d0c-1a
I0225 09:15:11.128710   175 net.cpp:481] pool_d0c-1a <- relu_d0c
I0225 09:15:11.128715   175 net.cpp:455] pool_d0c-1a -> d1a
I0225 09:15:11.128752   175 net.cpp:190] Setting up pool_d0c-1a
I0225 09:15:11.128759   175 net.cpp:197] Top shape: 1 64 256 512 (8388608)
I0225 09:15:11.128765   175 net.cpp:205] Memory required for data: 1254096900
I0225 09:15:11.128768   175 layer_factory.hpp:123] Creating layer d1a_fixed
I0225 09:15:11.128773   175 net.cpp:140] Creating Layer d1a_fixed
I0225 09:15:11.128777   175 net.cpp:481] d1a_fixed <- d1a
I0225 09:15:11.128782   175 net.cpp:442] d1a_fixed -> d1a (in-place)
I0225 09:15:11.128814   175 net.cpp:190] Setting up d1a_fixed
I0225 09:15:11.128819   175 net.cpp:197] Top shape: 1 64 256 512 (8388608)
I0225 09:15:11.128824   175 net.cpp:205] Memory required for data: 1287651332
I0225 09:15:11.128829   175 layer_factory.hpp:123] Creating layer conv_d1a-b
I0225 09:15:11.128839   175 net.cpp:140] Creating Layer conv_d1a-b
I0225 09:15:11.128844   175 net.cpp:481] conv_d1a-b <- d1a
I0225 09:15:11.128849   175 net.cpp:455] conv_d1a-b -> d1b
I0225 09:15:11.129662   175 layer_factory.hpp:123] Creating layer conv_d1a-b
I0225 09:15:11.131306   175 net.cpp:190] Setting up conv_d1a-b
I0225 09:15:11.131317   175 net.cpp:197] Top shape: 1 128 256 512 (16777216)
I0225 09:15:11.131323   175 net.cpp:205] Memory required for data: 1354760196
I0225 09:15:11.131330   175 layer_factory.hpp:123] Creating layer relu_d1b
I0225 09:15:11.131335   175 net.cpp:140] Creating Layer relu_d1b
I0225 09:15:11.131340   175 net.cpp:481] relu_d1b <- d1b
I0225 09:15:11.131343   175 net.cpp:455] relu_d1b -> relu_d1b
I0225 09:15:11.131366   175 net.cpp:190] Setting up relu_d1b
I0225 09:15:11.131369   175 net.cpp:197] Top shape: 1 128 256 512 (16777216)
I0225 09:15:11.131374   175 net.cpp:205] Memory required for data: 1421869060
I0225 09:15:11.131379   175 layer_factory.hpp:123] Creating layer relu_d1b_fixed
I0225 09:15:11.131387   175 net.cpp:140] Creating Layer relu_d1b_fixed
I0225 09:15:11.131392   175 net.cpp:481] relu_d1b_fixed <- relu_d1b
I0225 09:15:11.131397   175 net.cpp:442] relu_d1b_fixed -> relu_d1b (in-place)
I0225 09:15:11.131433   175 net.cpp:190] Setting up relu_d1b_fixed
I0225 09:15:11.131446   175 net.cpp:197] Top shape: 1 128 256 512 (16777216)
I0225 09:15:11.131451   175 net.cpp:205] Memory required for data: 1488977924
I0225 09:15:11.131456   175 layer_factory.hpp:123] Creating layer conv_d1b-c
I0225 09:15:11.131464   175 net.cpp:140] Creating Layer conv_d1b-c
I0225 09:15:11.131466   175 net.cpp:481] conv_d1b-c <- relu_d1b
I0225 09:15:11.131471   175 net.cpp:455] conv_d1b-c -> d1c
I0225 09:15:11.133543   175 layer_factory.hpp:123] Creating layer conv_d1b-c
I0225 09:15:11.135794   175 net.cpp:190] Setting up conv_d1b-c
I0225 09:15:11.135805   175 net.cpp:197] Top shape: 1 128 256 512 (16777216)
I0225 09:15:11.135812   175 net.cpp:205] Memory required for data: 1556086788
I0225 09:15:11.135818   175 layer_factory.hpp:123] Creating layer d1c_fixed
I0225 09:15:11.135825   175 net.cpp:140] Creating Layer d1c_fixed
I0225 09:15:11.135828   175 net.cpp:481] d1c_fixed <- d1c
I0225 09:15:11.135833   175 net.cpp:442] d1c_fixed -> d1c (in-place)
I0225 09:15:11.135864   175 net.cpp:190] Setting up d1c_fixed
I0225 09:15:11.135866   175 net.cpp:197] Top shape: 1 128 256 512 (16777216)
I0225 09:15:11.135871   175 net.cpp:205] Memory required for data: 1623195652
I0225 09:15:11.135875   175 layer_factory.hpp:123] Creating layer d1c_d1c_fixed_0_split
I0225 09:15:11.135880   175 net.cpp:140] Creating Layer d1c_d1c_fixed_0_split
I0225 09:15:11.135884   175 net.cpp:481] d1c_d1c_fixed_0_split <- d1c
I0225 09:15:11.135887   175 net.cpp:455] d1c_d1c_fixed_0_split -> d1c_d1c_fixed_0_split_0
I0225 09:15:11.135893   175 net.cpp:455] d1c_d1c_fixed_0_split -> d1c_d1c_fixed_0_split_1
I0225 09:15:11.135921   175 net.cpp:190] Setting up d1c_d1c_fixed_0_split
I0225 09:15:11.135934   175 net.cpp:197] Top shape: 1 128 256 512 (16777216)
I0225 09:15:11.135942   175 net.cpp:197] Top shape: 1 128 256 512 (16777216)
I0225 09:15:11.135948   175 net.cpp:205] Memory required for data: 1757413380
I0225 09:15:11.135952   175 layer_factory.hpp:123] Creating layer BatchNorm_d1c
I0225 09:15:11.135958   175 net.cpp:140] Creating Layer BatchNorm_d1c
I0225 09:15:11.135962   175 net.cpp:481] BatchNorm_d1c <- d1c_d1c_fixed_0_split_0
I0225 09:15:11.135967   175 net.cpp:455] BatchNorm_d1c -> BatchNorm_d1c
I0225 09:15:11.136006   175 layer_factory.hpp:123] Creating layer BatchNorm_d1c
I0225 09:15:11.136121   175 layer_factory.hpp:123] Creating layer BatchNorm_d1c
I0225 09:15:11.136168   175 layer_factory.hpp:123] Creating layer BatchNorm_d1c
I0225 09:15:11.137037   175 net.cpp:190] Setting up BatchNorm_d1c
I0225 09:15:11.137048   175 net.cpp:197] Top shape: 1 128 256 512 (16777216)
I0225 09:15:11.137053   175 net.cpp:205] Memory required for data: 1824522244
I0225 09:15:11.137061   175 layer_factory.hpp:123] Creating layer relu_d1c
I0225 09:15:11.137068   175 net.cpp:140] Creating Layer relu_d1c
I0225 09:15:11.137071   175 net.cpp:481] relu_d1c <- BatchNorm_d1c
I0225 09:15:11.137076   175 net.cpp:455] relu_d1c -> relu_d1c
I0225 09:15:11.137099   175 net.cpp:190] Setting up relu_d1c
I0225 09:15:11.137104   175 net.cpp:197] Top shape: 1 128 256 512 (16777216)
I0225 09:15:11.137109   175 net.cpp:205] Memory required for data: 1891631108
I0225 09:15:11.137111   175 layer_factory.hpp:123] Creating layer pool_d1c-2a
I0225 09:15:11.137117   175 net.cpp:140] Creating Layer pool_d1c-2a
I0225 09:15:11.137120   175 net.cpp:481] pool_d1c-2a <- relu_d1c
I0225 09:15:11.137125   175 net.cpp:455] pool_d1c-2a -> d2a
I0225 09:15:11.137151   175 net.cpp:190] Setting up pool_d1c-2a
I0225 09:15:11.137157   175 net.cpp:197] Top shape: 1 128 128 256 (4194304)
I0225 09:15:11.137161   175 net.cpp:205] Memory required for data: 1908408324
I0225 09:15:11.137166   175 layer_factory.hpp:123] Creating layer d2a_fixed
I0225 09:15:11.137171   175 net.cpp:140] Creating Layer d2a_fixed
I0225 09:15:11.137173   175 net.cpp:481] d2a_fixed <- d2a
I0225 09:15:11.137177   175 net.cpp:442] d2a_fixed -> d2a (in-place)
I0225 09:15:11.137202   175 net.cpp:190] Setting up d2a_fixed
I0225 09:15:11.137207   175 net.cpp:197] Top shape: 1 128 128 256 (4194304)
I0225 09:15:11.137212   175 net.cpp:205] Memory required for data: 1925185540
I0225 09:15:11.137215   175 layer_factory.hpp:123] Creating layer conv_d2a-b
I0225 09:15:11.137223   175 net.cpp:140] Creating Layer conv_d2a-b
I0225 09:15:11.137233   175 net.cpp:481] conv_d2a-b <- d2a
I0225 09:15:11.137238   175 net.cpp:455] conv_d2a-b -> d2b
I0225 09:15:11.141131   175 layer_factory.hpp:123] Creating layer conv_d2a-b
I0225 09:15:11.145145   175 net.cpp:190] Setting up conv_d2a-b
I0225 09:15:11.145156   175 net.cpp:197] Top shape: 1 256 128 256 (8388608)
I0225 09:15:11.145162   175 net.cpp:205] Memory required for data: 1958739972
I0225 09:15:11.145169   175 layer_factory.hpp:123] Creating layer relu_d2b
I0225 09:15:11.145174   175 net.cpp:140] Creating Layer relu_d2b
I0225 09:15:11.145177   175 net.cpp:481] relu_d2b <- d2b
I0225 09:15:11.145182   175 net.cpp:455] relu_d2b -> relu_d2b
I0225 09:15:11.145203   175 net.cpp:190] Setting up relu_d2b
I0225 09:15:11.145207   175 net.cpp:197] Top shape: 1 256 128 256 (8388608)
I0225 09:15:11.145211   175 net.cpp:205] Memory required for data: 1992294404
I0225 09:15:11.145215   175 layer_factory.hpp:123] Creating layer relu_d2b_fixed
I0225 09:15:11.145220   175 net.cpp:140] Creating Layer relu_d2b_fixed
I0225 09:15:11.145223   175 net.cpp:481] relu_d2b_fixed <- relu_d2b
I0225 09:15:11.145227   175 net.cpp:442] relu_d2b_fixed -> relu_d2b (in-place)
I0225 09:15:11.145253   175 net.cpp:190] Setting up relu_d2b_fixed
I0225 09:15:11.145259   175 net.cpp:197] Top shape: 1 256 128 256 (8388608)
I0225 09:15:11.145264   175 net.cpp:205] Memory required for data: 2025848836
I0225 09:15:11.145268   175 layer_factory.hpp:123] Creating layer conv_d2b-c
I0225 09:15:11.145275   175 net.cpp:140] Creating Layer conv_d2b-c
I0225 09:15:11.145279   175 net.cpp:481] conv_d2b-c <- relu_d2b
I0225 09:15:11.145283   175 net.cpp:455] conv_d2b-c -> d2c
I0225 09:15:11.152340   175 layer_factory.hpp:123] Creating layer conv_d2b-c
I0225 09:15:11.159497   175 net.cpp:190] Setting up conv_d2b-c
I0225 09:15:11.159508   175 net.cpp:197] Top shape: 1 256 128 256 (8388608)
I0225 09:15:11.159529   175 net.cpp:205] Memory required for data: 2059403268
I0225 09:15:11.159538   175 layer_factory.hpp:123] Creating layer d2c_fixed
I0225 09:15:11.159543   175 net.cpp:140] Creating Layer d2c_fixed
I0225 09:15:11.159548   175 net.cpp:481] d2c_fixed <- d2c
I0225 09:15:11.159552   175 net.cpp:442] d2c_fixed -> d2c (in-place)
I0225 09:15:11.159598   175 net.cpp:190] Setting up d2c_fixed
I0225 09:15:11.159602   175 net.cpp:197] Top shape: 1 256 128 256 (8388608)
I0225 09:15:11.159607   175 net.cpp:205] Memory required for data: 2092957700
I0225 09:15:11.159611   175 layer_factory.hpp:123] Creating layer d2c_d2c_fixed_0_split
I0225 09:15:11.159616   175 net.cpp:140] Creating Layer d2c_d2c_fixed_0_split
I0225 09:15:11.159620   175 net.cpp:481] d2c_d2c_fixed_0_split <- d2c
I0225 09:15:11.159624   175 net.cpp:455] d2c_d2c_fixed_0_split -> d2c_d2c_fixed_0_split_0
I0225 09:15:11.159629   175 net.cpp:455] d2c_d2c_fixed_0_split -> d2c_d2c_fixed_0_split_1
I0225 09:15:11.159657   175 net.cpp:190] Setting up d2c_d2c_fixed_0_split
I0225 09:15:11.159662   175 net.cpp:197] Top shape: 1 256 128 256 (8388608)
I0225 09:15:11.159667   175 net.cpp:197] Top shape: 1 256 128 256 (8388608)
I0225 09:15:11.159670   175 net.cpp:205] Memory required for data: 2160066564
I0225 09:15:11.159673   175 layer_factory.hpp:123] Creating layer BatchNorm_d2c
I0225 09:15:11.159680   175 net.cpp:140] Creating Layer BatchNorm_d2c
I0225 09:15:11.159683   175 net.cpp:481] BatchNorm_d2c <- d2c_d2c_fixed_0_split_0
I0225 09:15:11.159689   175 net.cpp:455] BatchNorm_d2c -> BatchNorm_d2c
I0225 09:15:11.159719   175 layer_factory.hpp:123] Creating layer BatchNorm_d2c
I0225 09:15:11.159785   175 layer_factory.hpp:123] Creating layer BatchNorm_d2c
I0225 09:15:11.159829   175 layer_factory.hpp:123] Creating layer BatchNorm_d2c
I0225 09:15:11.159996   175 net.cpp:190] Setting up BatchNorm_d2c
I0225 09:15:11.160002   175 net.cpp:197] Top shape: 1 256 128 256 (8388608)
I0225 09:15:11.160007   175 net.cpp:205] Memory required for data: 2193620996
I0225 09:15:11.160013   175 layer_factory.hpp:123] Creating layer relu_d2c
I0225 09:15:11.160019   175 net.cpp:140] Creating Layer relu_d2c
I0225 09:15:11.160022   175 net.cpp:481] relu_d2c <- BatchNorm_d2c
I0225 09:15:11.160027   175 net.cpp:455] relu_d2c -> relu_d2c
I0225 09:15:11.160049   175 net.cpp:190] Setting up relu_d2c
I0225 09:15:11.160053   175 net.cpp:197] Top shape: 1 256 128 256 (8388608)
I0225 09:15:11.160058   175 net.cpp:205] Memory required for data: 2227175428
I0225 09:15:11.160060   175 layer_factory.hpp:123] Creating layer pool_d2c-3a
I0225 09:15:11.160065   175 net.cpp:140] Creating Layer pool_d2c-3a
I0225 09:15:11.160068   175 net.cpp:481] pool_d2c-3a <- relu_d2c
I0225 09:15:11.160073   175 net.cpp:455] pool_d2c-3a -> d3a
I0225 09:15:11.160100   175 net.cpp:190] Setting up pool_d2c-3a
I0225 09:15:11.160106   175 net.cpp:197] Top shape: 1 256 64 128 (2097152)
I0225 09:15:11.160111   175 net.cpp:205] Memory required for data: 2235564036
I0225 09:15:11.160116   175 layer_factory.hpp:123] Creating layer d3a_fixed
I0225 09:15:11.160123   175 net.cpp:140] Creating Layer d3a_fixed
I0225 09:15:11.160130   175 net.cpp:481] d3a_fixed <- d3a
I0225 09:15:11.160136   175 net.cpp:442] d3a_fixed -> d3a (in-place)
I0225 09:15:11.160172   175 net.cpp:190] Setting up d3a_fixed
I0225 09:15:11.160181   175 net.cpp:197] Top shape: 1 256 64 128 (2097152)
I0225 09:15:11.160188   175 net.cpp:205] Memory required for data: 2243952644
I0225 09:15:11.160193   175 layer_factory.hpp:123] Creating layer conv_d3a-b
I0225 09:15:11.160202   175 net.cpp:140] Creating Layer conv_d3a-b
I0225 09:15:11.160205   175 net.cpp:481] conv_d3a-b <- d3a
I0225 09:15:11.160213   175 net.cpp:455] conv_d3a-b -> d3b
I0225 09:15:11.173002   175 layer_factory.hpp:123] Creating layer conv_d3a-b
I0225 09:15:11.185977   175 net.cpp:190] Setting up conv_d3a-b
I0225 09:15:11.185993   175 net.cpp:197] Top shape: 1 512 64 128 (4194304)
I0225 09:15:11.186002   175 net.cpp:205] Memory required for data: 2260729860
I0225 09:15:11.186013   175 layer_factory.hpp:123] Creating layer relu_d3b
I0225 09:15:11.186022   175 net.cpp:140] Creating Layer relu_d3b
I0225 09:15:11.186028   175 net.cpp:481] relu_d3b <- d3b
I0225 09:15:11.186036   175 net.cpp:455] relu_d3b -> relu_d3b
I0225 09:15:11.186067   175 net.cpp:190] Setting up relu_d3b
I0225 09:15:11.186074   175 net.cpp:197] Top shape: 1 512 64 128 (4194304)
I0225 09:15:11.186081   175 net.cpp:205] Memory required for data: 2277507076
I0225 09:15:11.186086   175 layer_factory.hpp:123] Creating layer relu_d3b_fixed
I0225 09:15:11.186094   175 net.cpp:140] Creating Layer relu_d3b_fixed
I0225 09:15:11.186100   175 net.cpp:481] relu_d3b_fixed <- relu_d3b
I0225 09:15:11.186106   175 net.cpp:442] relu_d3b_fixed -> relu_d3b (in-place)
I0225 09:15:11.186146   175 net.cpp:190] Setting up relu_d3b_fixed
I0225 09:15:11.186156   175 net.cpp:197] Top shape: 1 512 64 128 (4194304)
I0225 09:15:11.186162   175 net.cpp:205] Memory required for data: 2294284292
I0225 09:15:11.186169   175 layer_factory.hpp:123] Creating layer conv_d3b-c
I0225 09:15:11.186179   175 net.cpp:140] Creating Layer conv_d3b-c
I0225 09:15:11.186184   175 net.cpp:481] conv_d3b-c <- relu_d3b
I0225 09:15:11.186192   175 net.cpp:455] conv_d3b-c -> d3c
I0225 09:15:11.211416   175 layer_factory.hpp:123] Creating layer conv_d3b-c
I0225 09:15:11.236797   175 net.cpp:190] Setting up conv_d3b-c
I0225 09:15:11.236814   175 net.cpp:197] Top shape: 1 512 64 128 (4194304)
I0225 09:15:11.236837   175 net.cpp:205] Memory required for data: 2311061508
I0225 09:15:11.236852   175 layer_factory.hpp:123] Creating layer d3c_fixed
I0225 09:15:11.236860   175 net.cpp:140] Creating Layer d3c_fixed
I0225 09:15:11.236866   175 net.cpp:481] d3c_fixed <- d3c
I0225 09:15:11.236872   175 net.cpp:442] d3c_fixed -> d3c (in-place)
I0225 09:15:11.236904   175 net.cpp:190] Setting up d3c_fixed
I0225 09:15:11.236915   175 net.cpp:197] Top shape: 1 512 64 128 (4194304)
I0225 09:15:11.236919   175 net.cpp:205] Memory required for data: 2327838724
I0225 09:15:11.236924   175 layer_factory.hpp:123] Creating layer d3c_d3c_fixed_0_split
I0225 09:15:11.236929   175 net.cpp:140] Creating Layer d3c_d3c_fixed_0_split
I0225 09:15:11.236932   175 net.cpp:481] d3c_d3c_fixed_0_split <- d3c
I0225 09:15:11.236938   175 net.cpp:455] d3c_d3c_fixed_0_split -> d3c_d3c_fixed_0_split_0
I0225 09:15:11.236944   175 net.cpp:455] d3c_d3c_fixed_0_split -> d3c_d3c_fixed_0_split_1
I0225 09:15:11.236973   175 net.cpp:190] Setting up d3c_d3c_fixed_0_split
I0225 09:15:11.236979   175 net.cpp:197] Top shape: 1 512 64 128 (4194304)
I0225 09:15:11.236984   175 net.cpp:197] Top shape: 1 512 64 128 (4194304)
I0225 09:15:11.236986   175 net.cpp:205] Memory required for data: 2361393156
I0225 09:15:11.236990   175 layer_factory.hpp:123] Creating layer BatchNorm_1
I0225 09:15:11.236996   175 net.cpp:140] Creating Layer BatchNorm_1
I0225 09:15:11.237000   175 net.cpp:481] BatchNorm_1 <- d3c_d3c_fixed_0_split_0
I0225 09:15:11.237005   175 net.cpp:455] BatchNorm_1 -> BatchNorm_1
I0225 09:15:11.237038   175 layer_factory.hpp:123] Creating layer BatchNorm_1
I0225 09:15:11.237097   175 layer_factory.hpp:123] Creating layer BatchNorm_1
I0225 09:15:11.237126   175 layer_factory.hpp:123] Creating layer BatchNorm_1
I0225 09:15:11.237248   175 net.cpp:190] Setting up BatchNorm_1
I0225 09:15:11.237255   175 net.cpp:197] Top shape: 1 512 64 128 (4194304)
I0225 09:15:11.237260   175 net.cpp:205] Memory required for data: 2378170372
I0225 09:15:11.237267   175 layer_factory.hpp:123] Creating layer relu_d3c
I0225 09:15:11.237272   175 net.cpp:140] Creating Layer relu_d3c
I0225 09:15:11.237275   175 net.cpp:481] relu_d3c <- BatchNorm_1
I0225 09:15:11.237280   175 net.cpp:455] relu_d3c -> relu_d3c
I0225 09:15:11.237304   175 net.cpp:190] Setting up relu_d3c
I0225 09:15:11.237310   175 net.cpp:197] Top shape: 1 512 64 128 (4194304)
I0225 09:15:11.237314   175 net.cpp:205] Memory required for data: 2394947588
I0225 09:15:11.237318   175 layer_factory.hpp:123] Creating layer pool_d3c-4a
I0225 09:15:11.237323   175 net.cpp:140] Creating Layer pool_d3c-4a
I0225 09:15:11.237326   175 net.cpp:481] pool_d3c-4a <- relu_d3c
I0225 09:15:11.237330   175 net.cpp:455] pool_d3c-4a -> d4a
I0225 09:15:11.237360   175 net.cpp:190] Setting up pool_d3c-4a
I0225 09:15:11.237363   175 net.cpp:197] Top shape: 1 512 32 64 (1048576)
I0225 09:15:11.237370   175 net.cpp:205] Memory required for data: 2399141892
I0225 09:15:11.237375   175 layer_factory.hpp:123] Creating layer d4a_fixed
I0225 09:15:11.237383   175 net.cpp:140] Creating Layer d4a_fixed
I0225 09:15:11.237388   175 net.cpp:481] d4a_fixed <- d4a
I0225 09:15:11.237396   175 net.cpp:442] d4a_fixed -> d4a (in-place)
I0225 09:15:11.237432   175 net.cpp:190] Setting up d4a_fixed
I0225 09:15:11.237438   175 net.cpp:197] Top shape: 1 512 32 64 (1048576)
I0225 09:15:11.237445   175 net.cpp:205] Memory required for data: 2403336196
I0225 09:15:11.237453   175 layer_factory.hpp:123] Creating layer conv_d4a-b
I0225 09:15:11.237466   175 net.cpp:140] Creating Layer conv_d4a-b
I0225 09:15:11.237471   175 net.cpp:481] conv_d4a-b <- d4a
I0225 09:15:11.237476   175 net.cpp:455] conv_d4a-b -> BatchNorm_2
I0225 09:15:11.288105   175 layer_factory.hpp:123] Creating layer conv_d4a-b
I0225 09:15:11.338035   175 net.cpp:190] Setting up conv_d4a-b
I0225 09:15:11.338057   175 net.cpp:197] Top shape: 1 1024 32 64 (2097152)
I0225 09:15:11.338083   175 net.cpp:205] Memory required for data: 2411724804
I0225 09:15:11.338093   175 layer_factory.hpp:123] Creating layer relu_d4b
I0225 09:15:11.338102   175 net.cpp:140] Creating Layer relu_d4b
I0225 09:15:11.338107   175 net.cpp:481] relu_d4b <- BatchNorm_2
I0225 09:15:11.338115   175 net.cpp:455] relu_d4b -> relu_d4b
I0225 09:15:11.338135   175 net.cpp:190] Setting up relu_d4b
I0225 09:15:11.338138   175 net.cpp:197] Top shape: 1 1024 32 64 (2097152)
I0225 09:15:11.338142   175 net.cpp:205] Memory required for data: 2420113412
I0225 09:15:11.338145   175 layer_factory.hpp:123] Creating layer relu_d4b_fixed
I0225 09:15:11.338152   175 net.cpp:140] Creating Layer relu_d4b_fixed
I0225 09:15:11.338155   175 net.cpp:481] relu_d4b_fixed <- relu_d4b
I0225 09:15:11.338160   175 net.cpp:442] relu_d4b_fixed -> relu_d4b (in-place)
I0225 09:15:11.338188   175 net.cpp:190] Setting up relu_d4b_fixed
I0225 09:15:11.338194   175 net.cpp:197] Top shape: 1 1024 32 64 (2097152)
I0225 09:15:11.338198   175 net.cpp:205] Memory required for data: 2428502020
I0225 09:15:11.338202   175 layer_factory.hpp:123] Creating layer conv_d4b-c
I0225 09:15:11.338212   175 net.cpp:140] Creating Layer conv_d4b-c
I0225 09:15:11.338214   175 net.cpp:481] conv_d4b-c <- relu_d4b
I0225 09:15:11.338219   175 net.cpp:455] conv_d4b-c -> d4c
I0225 09:15:11.439296   175 layer_factory.hpp:123] Creating layer conv_d4b-c
I0225 09:15:11.541267   175 net.cpp:190] Setting up conv_d4b-c
I0225 09:15:11.541290   175 net.cpp:197] Top shape: 1 1024 32 64 (2097152)
I0225 09:15:11.541314   175 net.cpp:205] Memory required for data: 2436890628
I0225 09:15:11.541326   175 layer_factory.hpp:123] Creating layer relu_d4c
I0225 09:15:11.541334   175 net.cpp:140] Creating Layer relu_d4c
I0225 09:15:11.541340   175 net.cpp:481] relu_d4c <- d4c
I0225 09:15:11.541347   175 net.cpp:455] relu_d4c -> relu_d4c
I0225 09:15:11.541381   175 net.cpp:190] Setting up relu_d4c
I0225 09:15:11.541385   175 net.cpp:197] Top shape: 1 1024 32 64 (2097152)
I0225 09:15:11.541390   175 net.cpp:205] Memory required for data: 2445279236
I0225 09:15:11.541393   175 layer_factory.hpp:123] Creating layer relu_d4c_fixed
I0225 09:15:11.541400   175 net.cpp:140] Creating Layer relu_d4c_fixed
I0225 09:15:11.541404   175 net.cpp:481] relu_d4c_fixed <- relu_d4c
I0225 09:15:11.541407   175 net.cpp:442] relu_d4c_fixed -> relu_d4c (in-place)
I0225 09:15:11.541437   175 net.cpp:190] Setting up relu_d4c_fixed
I0225 09:15:11.541443   175 net.cpp:197] Top shape: 1 1024 32 64 (2097152)
I0225 09:15:11.541448   175 net.cpp:205] Memory required for data: 2453667844
I0225 09:15:11.541452   175 layer_factory.hpp:123] Creating layer upconv_d4c_u3a
I0225 09:15:11.541460   175 net.cpp:140] Creating Layer upconv_d4c_u3a
I0225 09:15:11.541465   175 net.cpp:481] upconv_d4c_u3a <- relu_d4c
I0225 09:15:11.541469   175 net.cpp:455] upconv_d4c_u3a -> u3a
I0225 09:15:11.564263   175 layer_factory.hpp:123] Creating layer upconv_d4c_u3a
I0225 09:15:11.586932   175 net.cpp:190] Setting up upconv_d4c_u3a
I0225 09:15:11.586946   175 net.cpp:197] Top shape: 1 512 64 128 (4194304)
I0225 09:15:11.586971   175 net.cpp:205] Memory required for data: 2470445060
I0225 09:15:11.586982   175 layer_factory.hpp:123] Creating layer relu_u3a
I0225 09:15:11.586989   175 net.cpp:140] Creating Layer relu_u3a
I0225 09:15:11.586994   175 net.cpp:481] relu_u3a <- u3a
I0225 09:15:11.587000   175 net.cpp:442] relu_u3a -> u3a (in-place)
I0225 09:15:11.587009   175 net.cpp:190] Setting up relu_u3a
I0225 09:15:11.587028   175 net.cpp:197] Top shape: 1 512 64 128 (4194304)
I0225 09:15:11.587033   175 net.cpp:205] Memory required for data: 2487222276
I0225 09:15:11.587035   175 layer_factory.hpp:123] Creating layer concat_d3cc_u3a-b
I0225 09:15:11.587041   175 net.cpp:140] Creating Layer concat_d3cc_u3a-b
I0225 09:15:11.587044   175 net.cpp:481] concat_d3cc_u3a-b <- u3a
I0225 09:15:11.587049   175 net.cpp:481] concat_d3cc_u3a-b <- d3c_d3c_fixed_0_split_1
I0225 09:15:11.587054   175 net.cpp:455] concat_d3cc_u3a-b -> u3b
I0225 09:15:11.587069   175 net.cpp:190] Setting up concat_d3cc_u3a-b
I0225 09:15:11.587074   175 net.cpp:197] Top shape: 1 1024 64 128 (8388608)
I0225 09:15:11.587077   175 net.cpp:205] Memory required for data: 2520776708
I0225 09:15:11.587080   175 layer_factory.hpp:123] Creating layer u3b_fixed
I0225 09:15:11.587086   175 net.cpp:140] Creating Layer u3b_fixed
I0225 09:15:11.587090   175 net.cpp:481] u3b_fixed <- u3b
I0225 09:15:11.587095   175 net.cpp:442] u3b_fixed -> u3b (in-place)
I0225 09:15:11.587122   175 net.cpp:190] Setting up u3b_fixed
I0225 09:15:11.587128   175 net.cpp:197] Top shape: 1 1024 64 128 (8388608)
I0225 09:15:11.587132   175 net.cpp:205] Memory required for data: 2554331140
I0225 09:15:11.587136   175 layer_factory.hpp:123] Creating layer conv_u3b-c
I0225 09:15:11.587144   175 net.cpp:140] Creating Layer conv_u3b-c
I0225 09:15:11.587147   175 net.cpp:481] conv_u3b-c <- u3b
I0225 09:15:11.587152   175 net.cpp:455] conv_u3b-c -> u3c
I0225 09:15:11.635900   175 layer_factory.hpp:123] Creating layer conv_u3b-c
I0225 09:15:11.685392   175 net.cpp:190] Setting up conv_u3b-c
I0225 09:15:11.685412   175 net.cpp:197] Top shape: 1 512 64 128 (4194304)
I0225 09:15:11.685437   175 net.cpp:205] Memory required for data: 2571108356
I0225 09:15:11.685448   175 layer_factory.hpp:123] Creating layer relu_u3c
I0225 09:15:11.685456   175 net.cpp:140] Creating Layer relu_u3c
I0225 09:15:11.685462   175 net.cpp:481] relu_u3c <- u3c
I0225 09:15:11.685468   175 net.cpp:442] relu_u3c -> u3c (in-place)
I0225 09:15:11.685477   175 net.cpp:190] Setting up relu_u3c
I0225 09:15:11.685479   175 net.cpp:197] Top shape: 1 512 64 128 (4194304)
I0225 09:15:11.685483   175 net.cpp:205] Memory required for data: 2587885572
I0225 09:15:11.685487   175 layer_factory.hpp:123] Creating layer u3c_fixed
I0225 09:15:11.685493   175 net.cpp:140] Creating Layer u3c_fixed
I0225 09:15:11.685497   175 net.cpp:481] u3c_fixed <- u3c
I0225 09:15:11.685500   175 net.cpp:442] u3c_fixed -> u3c (in-place)
I0225 09:15:11.685526   175 net.cpp:190] Setting up u3c_fixed
I0225 09:15:11.685530   175 net.cpp:197] Top shape: 1 512 64 128 (4194304)
I0225 09:15:11.685534   175 net.cpp:205] Memory required for data: 2604662788
I0225 09:15:11.685539   175 layer_factory.hpp:123] Creating layer conv_u3c-d
I0225 09:15:11.685547   175 net.cpp:140] Creating Layer conv_u3c-d
I0225 09:15:11.685550   175 net.cpp:481] conv_u3c-d <- u3c
I0225 09:15:11.685555   175 net.cpp:455] conv_u3c-d -> u3d
I0225 09:15:11.710927   175 layer_factory.hpp:123] Creating layer conv_u3c-d
I0225 09:15:11.735966   175 net.cpp:190] Setting up conv_u3c-d
I0225 09:15:11.735981   175 net.cpp:197] Top shape: 1 512 64 128 (4194304)
I0225 09:15:11.736006   175 net.cpp:205] Memory required for data: 2621440004
I0225 09:15:11.736016   175 layer_factory.hpp:123] Creating layer relu_u3d
I0225 09:15:11.736023   175 net.cpp:140] Creating Layer relu_u3d
I0225 09:15:11.736028   175 net.cpp:481] relu_u3d <- u3d
I0225 09:15:11.736034   175 net.cpp:442] relu_u3d -> u3d (in-place)
I0225 09:15:11.736042   175 net.cpp:190] Setting up relu_u3d
I0225 09:15:11.736045   175 net.cpp:197] Top shape: 1 512 64 128 (4194304)
I0225 09:15:11.736049   175 net.cpp:205] Memory required for data: 2638217220
I0225 09:15:11.736052   175 layer_factory.hpp:123] Creating layer u3d_fixed
I0225 09:15:11.736058   175 net.cpp:140] Creating Layer u3d_fixed
I0225 09:15:11.736061   175 net.cpp:481] u3d_fixed <- u3d
I0225 09:15:11.736065   175 net.cpp:442] u3d_fixed -> u3d (in-place)
I0225 09:15:11.736093   175 net.cpp:190] Setting up u3d_fixed
I0225 09:15:11.736095   175 net.cpp:197] Top shape: 1 512 64 128 (4194304)
I0225 09:15:11.736100   175 net.cpp:205] Memory required for data: 2654994436
I0225 09:15:11.736104   175 layer_factory.hpp:123] Creating layer upconv_u3d_u2a
I0225 09:15:11.736112   175 net.cpp:140] Creating Layer upconv_u3d_u2a
I0225 09:15:11.736115   175 net.cpp:481] upconv_u3d_u2a <- u3d
I0225 09:15:11.736120   175 net.cpp:455] upconv_u3d_u2a -> u2a
I0225 09:15:11.747367   175 layer_factory.hpp:123] Creating layer upconv_u3d_u2a
I0225 09:15:11.758523   175 net.cpp:190] Setting up upconv_u3d_u2a
I0225 09:15:11.758534   175 net.cpp:197] Top shape: 1 512 128 256 (16777216)
I0225 09:15:11.758555   175 net.cpp:205] Memory required for data: 2722103300
I0225 09:15:11.758563   175 layer_factory.hpp:123] Creating layer relu_u2a
I0225 09:15:11.758569   175 net.cpp:140] Creating Layer relu_u2a
I0225 09:15:11.758572   175 net.cpp:481] relu_u2a <- u2a
I0225 09:15:11.758577   175 net.cpp:442] relu_u2a -> u2a (in-place)
I0225 09:15:11.758584   175 net.cpp:190] Setting up relu_u2a
I0225 09:15:11.758586   175 net.cpp:197] Top shape: 1 512 128 256 (16777216)
I0225 09:15:11.758590   175 net.cpp:205] Memory required for data: 2789212164
I0225 09:15:11.758594   175 layer_factory.hpp:123] Creating layer concat_d2cc_u2a-b
I0225 09:15:11.758599   175 net.cpp:140] Creating Layer concat_d2cc_u2a-b
I0225 09:15:11.758617   175 net.cpp:481] concat_d2cc_u2a-b <- u2a
I0225 09:15:11.758621   175 net.cpp:481] concat_d2cc_u2a-b <- d2c_d2c_fixed_0_split_1
I0225 09:15:11.758625   175 net.cpp:455] concat_d2cc_u2a-b -> u2b
I0225 09:15:11.758648   175 net.cpp:190] Setting up concat_d2cc_u2a-b
I0225 09:15:11.758652   175 net.cpp:197] Top shape: 1 768 128 256 (25165824)
I0225 09:15:11.758656   175 net.cpp:205] Memory required for data: 2889875460
I0225 09:15:11.758661   175 layer_factory.hpp:123] Creating layer u2b_fixed
I0225 09:15:11.758666   175 net.cpp:140] Creating Layer u2b_fixed
I0225 09:15:11.758668   175 net.cpp:481] u2b_fixed <- u2b
I0225 09:15:11.758672   175 net.cpp:442] u2b_fixed -> u2b (in-place)
I0225 09:15:11.758700   175 net.cpp:190] Setting up u2b_fixed
I0225 09:15:11.758705   175 net.cpp:197] Top shape: 1 768 128 256 (25165824)
I0225 09:15:11.758709   175 net.cpp:205] Memory required for data: 2990538756
I0225 09:15:11.758714   175 layer_factory.hpp:123] Creating layer conv_u2b-c
I0225 09:15:11.758721   175 net.cpp:140] Creating Layer conv_u2b-c
I0225 09:15:11.758724   175 net.cpp:481] conv_u2b-c <- u2b
I0225 09:15:11.758729   175 net.cpp:455] conv_u2b-c -> u2c
I0225 09:15:11.777168   175 layer_factory.hpp:123] Creating layer conv_u2b-c
I0225 09:15:11.796264   175 net.cpp:190] Setting up conv_u2b-c
I0225 09:15:11.796277   175 net.cpp:197] Top shape: 1 256 128 256 (8388608)
I0225 09:15:11.796288   175 net.cpp:205] Memory required for data: 3024093188
I0225 09:15:11.796298   175 layer_factory.hpp:123] Creating layer relu_u2c
I0225 09:15:11.796305   175 net.cpp:140] Creating Layer relu_u2c
I0225 09:15:11.796310   175 net.cpp:481] relu_u2c <- u2c
I0225 09:15:11.796317   175 net.cpp:442] relu_u2c -> u2c (in-place)
I0225 09:15:11.796324   175 net.cpp:190] Setting up relu_u2c
I0225 09:15:11.796327   175 net.cpp:197] Top shape: 1 256 128 256 (8388608)
I0225 09:15:11.796332   175 net.cpp:205] Memory required for data: 3057647620
I0225 09:15:11.796335   175 layer_factory.hpp:123] Creating layer u2c_fixed
I0225 09:15:11.796344   175 net.cpp:140] Creating Layer u2c_fixed
I0225 09:15:11.796348   175 net.cpp:481] u2c_fixed <- u2c
I0225 09:15:11.796352   175 net.cpp:442] u2c_fixed -> u2c (in-place)
I0225 09:15:11.796381   175 net.cpp:190] Setting up u2c_fixed
I0225 09:15:11.796391   175 net.cpp:197] Top shape: 1 256 128 256 (8388608)
I0225 09:15:11.796396   175 net.cpp:205] Memory required for data: 3091202052
I0225 09:15:11.796399   175 layer_factory.hpp:123] Creating layer conv_u2c-d
I0225 09:15:11.796407   175 net.cpp:140] Creating Layer conv_u2c-d
I0225 09:15:11.796411   175 net.cpp:481] conv_u2c-d <- u2c
I0225 09:15:11.796414   175 net.cpp:455] conv_u2c-d -> u2d
I0225 09:15:11.802901   175 layer_factory.hpp:123] Creating layer conv_u2c-d
I0225 09:15:11.809370   175 net.cpp:190] Setting up conv_u2c-d
I0225 09:15:11.809381   175 net.cpp:197] Top shape: 1 256 128 256 (8388608)
I0225 09:15:11.809401   175 net.cpp:205] Memory required for data: 3124756484
I0225 09:15:11.809408   175 layer_factory.hpp:123] Creating layer relu_u2d
I0225 09:15:11.809413   175 net.cpp:140] Creating Layer relu_u2d
I0225 09:15:11.809417   175 net.cpp:481] relu_u2d <- u2d
I0225 09:15:11.809422   175 net.cpp:442] relu_u2d -> u2d (in-place)
I0225 09:15:11.809427   175 net.cpp:190] Setting up relu_u2d
I0225 09:15:11.809430   175 net.cpp:197] Top shape: 1 256 128 256 (8388608)
I0225 09:15:11.809434   175 net.cpp:205] Memory required for data: 3158310916
I0225 09:15:11.809437   175 layer_factory.hpp:123] Creating layer u2d_fixed
I0225 09:15:11.809458   175 net.cpp:140] Creating Layer u2d_fixed
I0225 09:15:11.809460   175 net.cpp:481] u2d_fixed <- u2d
I0225 09:15:11.809464   175 net.cpp:442] u2d_fixed -> u2d (in-place)
I0225 09:15:11.809494   175 net.cpp:190] Setting up u2d_fixed
I0225 09:15:11.809502   175 net.cpp:197] Top shape: 1 256 128 256 (8388608)
I0225 09:15:11.809507   175 net.cpp:205] Memory required for data: 3191865348
I0225 09:15:11.809511   175 layer_factory.hpp:123] Creating layer upconv_u2d_u1a
I0225 09:15:11.809518   175 net.cpp:140] Creating Layer upconv_u2d_u1a
I0225 09:15:11.809521   175 net.cpp:481] upconv_u2d_u1a <- u2d
I0225 09:15:11.809526   175 net.cpp:455] upconv_u2d_u1a -> u1a
I0225 09:15:11.810798   175 layer_factory.hpp:123] Creating layer upconv_u2d_u1a
I0225 09:15:11.812906   175 net.cpp:190] Setting up upconv_u2d_u1a
I0225 09:15:11.812916   175 net.cpp:197] Top shape: 1 128 256 512 (16777216)
I0225 09:15:11.812937   175 net.cpp:205] Memory required for data: 3258974212
I0225 09:15:11.812943   175 layer_factory.hpp:123] Creating layer relu_u1a
I0225 09:15:11.812949   175 net.cpp:140] Creating Layer relu_u1a
I0225 09:15:11.812952   175 net.cpp:481] relu_u1a <- u1a
I0225 09:15:11.812958   175 net.cpp:442] relu_u1a -> u1a (in-place)
I0225 09:15:11.812964   175 net.cpp:190] Setting up relu_u1a
I0225 09:15:11.812968   175 net.cpp:197] Top shape: 1 128 256 512 (16777216)
I0225 09:15:11.812971   175 net.cpp:205] Memory required for data: 3326083076
I0225 09:15:11.812974   175 layer_factory.hpp:123] Creating layer concat_d1cc_u1a-b
I0225 09:15:11.812979   175 net.cpp:140] Creating Layer concat_d1cc_u1a-b
I0225 09:15:11.812983   175 net.cpp:481] concat_d1cc_u1a-b <- u1a
I0225 09:15:11.812986   175 net.cpp:481] concat_d1cc_u1a-b <- d1c_d1c_fixed_0_split_1
I0225 09:15:11.812990   175 net.cpp:455] concat_d1cc_u1a-b -> u1b
I0225 09:15:11.813011   175 net.cpp:190] Setting up concat_d1cc_u1a-b
I0225 09:15:11.813015   175 net.cpp:197] Top shape: 1 256 256 512 (33554432)
I0225 09:15:11.813019   175 net.cpp:205] Memory required for data: 3460300804
I0225 09:15:11.813022   175 layer_factory.hpp:123] Creating layer u1b_fixed
I0225 09:15:11.813027   175 net.cpp:140] Creating Layer u1b_fixed
I0225 09:15:11.813031   175 net.cpp:481] u1b_fixed <- u1b
I0225 09:15:11.813035   175 net.cpp:442] u1b_fixed -> u1b (in-place)
I0225 09:15:11.813062   175 net.cpp:190] Setting up u1b_fixed
I0225 09:15:11.813071   175 net.cpp:197] Top shape: 1 256 256 512 (33554432)
I0225 09:15:11.813076   175 net.cpp:205] Memory required for data: 3594518532
I0225 09:15:11.813081   175 layer_factory.hpp:123] Creating layer conv_u1b-c
I0225 09:15:11.813087   175 net.cpp:140] Creating Layer conv_u1b-c
I0225 09:15:11.813091   175 net.cpp:481] conv_u1b-c <- u1b
I0225 09:15:11.813096   175 net.cpp:455] conv_u1b-c -> u1c
I0225 09:15:11.816885   175 layer_factory.hpp:123] Creating layer conv_u1b-c
I0225 09:15:11.820780   175 net.cpp:190] Setting up conv_u1b-c
I0225 09:15:11.820791   175 net.cpp:197] Top shape: 1 128 256 512 (16777216)
I0225 09:15:11.820812   175 net.cpp:205] Memory required for data: 3661627396
I0225 09:15:11.820823   175 layer_factory.hpp:123] Creating layer relu_u1c
I0225 09:15:11.820828   175 net.cpp:140] Creating Layer relu_u1c
I0225 09:15:11.820832   175 net.cpp:481] relu_u1c <- u1c
I0225 09:15:11.820837   175 net.cpp:442] relu_u1c -> u1c (in-place)
I0225 09:15:11.820843   175 net.cpp:190] Setting up relu_u1c
I0225 09:15:11.820847   175 net.cpp:197] Top shape: 1 128 256 512 (16777216)
I0225 09:15:11.820850   175 net.cpp:205] Memory required for data: 3728736260
I0225 09:15:11.820853   175 layer_factory.hpp:123] Creating layer u1c_fixed
I0225 09:15:11.820858   175 net.cpp:140] Creating Layer u1c_fixed
I0225 09:15:11.820860   175 net.cpp:481] u1c_fixed <- u1c
I0225 09:15:11.820864   175 net.cpp:442] u1c_fixed -> u1c (in-place)
I0225 09:15:11.820895   175 net.cpp:190] Setting up u1c_fixed
I0225 09:15:11.820901   175 net.cpp:197] Top shape: 1 128 256 512 (16777216)
I0225 09:15:11.820905   175 net.cpp:205] Memory required for data: 3795845124
I0225 09:15:11.820910   175 layer_factory.hpp:123] Creating layer conv_u1c-d
I0225 09:15:11.820916   175 net.cpp:140] Creating Layer conv_u1c-d
I0225 09:15:11.820920   175 net.cpp:481] conv_u1c-d <- u1c
I0225 09:15:11.820924   175 net.cpp:455] conv_u1c-d -> u1d
I0225 09:15:11.822312   175 layer_factory.hpp:123] Creating layer conv_u1c-d
I0225 09:15:11.824468   175 net.cpp:190] Setting up conv_u1c-d
I0225 09:15:11.824478   175 net.cpp:197] Top shape: 1 128 256 512 (16777216)
I0225 09:15:11.824499   175 net.cpp:205] Memory required for data: 3862953988
I0225 09:15:11.824506   175 layer_factory.hpp:123] Creating layer relu_u1d
I0225 09:15:11.824510   175 net.cpp:140] Creating Layer relu_u1d
I0225 09:15:11.824514   175 net.cpp:481] relu_u1d <- u1d
I0225 09:15:11.824518   175 net.cpp:442] relu_u1d -> u1d (in-place)
I0225 09:15:11.824524   175 net.cpp:190] Setting up relu_u1d
I0225 09:15:11.824527   175 net.cpp:197] Top shape: 1 128 256 512 (16777216)
I0225 09:15:11.824532   175 net.cpp:205] Memory required for data: 3930062852
I0225 09:15:11.824534   175 layer_factory.hpp:123] Creating layer u1d_fixed
I0225 09:15:11.824553   175 net.cpp:140] Creating Layer u1d_fixed
I0225 09:15:11.824558   175 net.cpp:481] u1d_fixed <- u1d
I0225 09:15:11.824560   175 net.cpp:442] u1d_fixed -> u1d (in-place)
I0225 09:15:11.824590   175 net.cpp:190] Setting up u1d_fixed
I0225 09:15:11.824600   175 net.cpp:197] Top shape: 1 128 256 512 (16777216)
I0225 09:15:11.824604   175 net.cpp:205] Memory required for data: 3997171716
I0225 09:15:11.824609   175 layer_factory.hpp:123] Creating layer upconv_u1d_u0a_NEW
I0225 09:15:11.824615   175 net.cpp:140] Creating Layer upconv_u1d_u0a_NEW
I0225 09:15:11.824618   175 net.cpp:481] upconv_u1d_u0a_NEW <- u1d
I0225 09:15:11.824623   175 net.cpp:455] upconv_u1d_u0a_NEW -> u0a
I0225 09:15:11.825073   175 layer_factory.hpp:123] Creating layer upconv_u1d_u0a_NEW
I0225 09:15:11.827265   175 net.cpp:190] Setting up upconv_u1d_u0a_NEW
I0225 09:15:11.827275   175 net.cpp:197] Top shape: 1 64 512 1024 (33554432)
I0225 09:15:11.827296   175 net.cpp:205] Memory required for data: 4131389444
I0225 09:15:11.827303   175 layer_factory.hpp:123] Creating layer relu_u0a
I0225 09:15:11.827308   175 net.cpp:140] Creating Layer relu_u0a
I0225 09:15:11.827312   175 net.cpp:481] relu_u0a <- u0a
I0225 09:15:11.827317   175 net.cpp:442] relu_u0a -> u0a (in-place)
I0225 09:15:11.827324   175 net.cpp:190] Setting up relu_u0a
I0225 09:15:11.827327   175 net.cpp:197] Top shape: 1 64 512 1024 (33554432)
I0225 09:15:11.827332   175 net.cpp:205] Memory required for data: 4265607172
I0225 09:15:11.827334   175 layer_factory.hpp:123] Creating layer concat_d0cc_u0a-b
I0225 09:15:11.827339   175 net.cpp:140] Creating Layer concat_d0cc_u0a-b
I0225 09:15:11.827342   175 net.cpp:481] concat_d0cc_u0a-b <- u0a
I0225 09:15:11.827347   175 net.cpp:481] concat_d0cc_u0a-b <- d0c_d0c_fixed_0_split_1
I0225 09:15:11.827350   175 net.cpp:455] concat_d0cc_u0a-b -> u0b
I0225 09:15:11.827375   175 net.cpp:190] Setting up concat_d0cc_u0a-b
I0225 09:15:11.827379   175 net.cpp:197] Top shape: 1 128 512 1024 (67108864)
I0225 09:15:11.827383   175 net.cpp:205] Memory required for data: 4534042628
I0225 09:15:11.827386   175 layer_factory.hpp:123] Creating layer u0b_fixed
I0225 09:15:11.827391   175 net.cpp:140] Creating Layer u0b_fixed
I0225 09:15:11.827394   175 net.cpp:481] u0b_fixed <- u0b
I0225 09:15:11.827399   175 net.cpp:442] u0b_fixed -> u0b (in-place)
I0225 09:15:11.827427   175 net.cpp:190] Setting up u0b_fixed
I0225 09:15:11.827433   175 net.cpp:197] Top shape: 1 128 512 1024 (67108864)
I0225 09:15:11.827437   175 net.cpp:205] Memory required for data: 4802478084
I0225 09:15:11.827441   175 layer_factory.hpp:123] Creating layer conv_u0b-c_New
I0225 09:15:11.827448   175 net.cpp:140] Creating Layer conv_u0b-c_New
I0225 09:15:11.827451   175 net.cpp:481] conv_u0b-c_New <- u0b
I0225 09:15:11.827456   175 net.cpp:455] conv_u0b-c_New -> u0c
I0225 09:15:11.828352   175 layer_factory.hpp:123] Creating layer conv_u0b-c_New
I0225 09:15:11.830863   175 net.cpp:190] Setting up conv_u0b-c_New
I0225 09:15:11.830874   175 net.cpp:197] Top shape: 1 64 512 1024 (33554432)
I0225 09:15:11.830880   175 net.cpp:205] Memory required for data: 4936695812
I0225 09:15:11.830888   175 layer_factory.hpp:123] Creating layer relu_u0c
I0225 09:15:11.830893   175 net.cpp:140] Creating Layer relu_u0c
I0225 09:15:11.830898   175 net.cpp:481] relu_u0c <- u0c
I0225 09:15:11.830902   175 net.cpp:442] relu_u0c -> u0c (in-place)
I0225 09:15:11.830909   175 net.cpp:190] Setting up relu_u0c
I0225 09:15:11.830911   175 net.cpp:197] Top shape: 1 64 512 1024 (33554432)
I0225 09:15:11.830915   175 net.cpp:205] Memory required for data: 5070913540
I0225 09:15:11.830919   175 layer_factory.hpp:123] Creating layer u0c_fixed
I0225 09:15:11.830924   175 net.cpp:140] Creating Layer u0c_fixed
I0225 09:15:11.830927   175 net.cpp:481] u0c_fixed <- u0c
I0225 09:15:11.830931   175 net.cpp:442] u0c_fixed -> u0c (in-place)
I0225 09:15:11.830965   175 net.cpp:190] Setting up u0c_fixed
I0225 09:15:11.830971   175 net.cpp:197] Top shape: 1 64 512 1024 (33554432)
I0225 09:15:11.830976   175 net.cpp:205] Memory required for data: 5205131268
I0225 09:15:11.830981   175 layer_factory.hpp:123] Creating layer conv_u0c-d_New
I0225 09:15:11.830987   175 net.cpp:140] Creating Layer conv_u0c-d_New
I0225 09:15:11.830991   175 net.cpp:481] conv_u0c-d_New <- u0c
I0225 09:15:11.830996   175 net.cpp:455] conv_u0c-d_New -> u0d
I0225 09:15:11.831473   175 layer_factory.hpp:123] Creating layer conv_u0c-d_New
I0225 09:15:11.833650   175 net.cpp:190] Setting up conv_u0c-d_New
I0225 09:15:11.833660   175 net.cpp:197] Top shape: 1 64 512 1024 (33554432)
I0225 09:15:11.833681   175 net.cpp:205] Memory required for data: 5339348996
I0225 09:15:11.833688   175 layer_factory.hpp:123] Creating layer relu_u0d
I0225 09:15:11.833693   175 net.cpp:140] Creating Layer relu_u0d
I0225 09:15:11.833698   175 net.cpp:481] relu_u0d <- u0d
I0225 09:15:11.833703   175 net.cpp:442] relu_u0d -> u0d (in-place)
I0225 09:15:11.833709   175 net.cpp:190] Setting up relu_u0d
I0225 09:15:11.833711   175 net.cpp:197] Top shape: 1 64 512 1024 (33554432)
I0225 09:15:11.833715   175 net.cpp:205] Memory required for data: 5473566724
I0225 09:15:11.833719   175 layer_factory.hpp:123] Creating layer u0d_fixed
I0225 09:15:11.833739   175 net.cpp:140] Creating Layer u0d_fixed
I0225 09:15:11.833741   175 net.cpp:481] u0d_fixed <- u0d
I0225 09:15:11.833745   175 net.cpp:442] u0d_fixed -> u0d (in-place)
I0225 09:15:11.833777   175 net.cpp:190] Setting up u0d_fixed
I0225 09:15:11.833781   175 net.cpp:197] Top shape: 1 64 512 1024 (33554432)
I0225 09:15:11.833786   175 net.cpp:205] Memory required for data: 5607784452
I0225 09:15:11.833791   175 layer_factory.hpp:123] Creating layer conv_u0d-score_New
I0225 09:15:11.833797   175 net.cpp:140] Creating Layer conv_u0d-score_New
I0225 09:15:11.833801   175 net.cpp:481] conv_u0d-score_New <- u0d
I0225 09:15:11.833806   175 net.cpp:455] conv_u0d-score_New -> conv_u0d-score_New
I0225 09:15:11.833981   175 layer_factory.hpp:123] Creating layer conv_u0d-score_New
I0225 09:15:11.835850   175 net.cpp:190] Setting up conv_u0d-score_New
I0225 09:15:11.835861   175 net.cpp:197] Top shape: 1 19 512 1024 (9961472)
I0225 09:15:11.835882   175 net.cpp:205] Memory required for data: 5647630340
I0225 09:15:11.835888   175 layer_factory.hpp:123] Creating layer conv_u0d-score_New_fixed
I0225 09:15:11.835894   175 net.cpp:140] Creating Layer conv_u0d-score_New_fixed
I0225 09:15:11.835898   175 net.cpp:481] conv_u0d-score_New_fixed <- conv_u0d-score_New
I0225 09:15:11.835904   175 net.cpp:442] conv_u0d-score_New_fixed -> conv_u0d-score_New (in-place)
I0225 09:15:11.835939   175 net.cpp:190] Setting up conv_u0d-score_New_fixed
I0225 09:15:11.835943   175 net.cpp:197] Top shape: 1 19 512 1024 (9961472)
I0225 09:15:11.835947   175 net.cpp:205] Memory required for data: 5687476228
I0225 09:15:11.835952   175 layer_factory.hpp:123] Creating layer score
I0225 09:15:11.835958   175 net.cpp:140] Creating Layer score
I0225 09:15:11.835960   175 net.cpp:481] score <- conv_u0d-score_New
I0225 09:15:11.835965   175 net.cpp:455] score -> score
I0225 09:15:11.836017   175 net.cpp:190] Setting up score
I0225 09:15:11.836024   175 net.cpp:197] Top shape: 1 19 512 1024 (9961472)
I0225 09:15:11.836028   175 net.cpp:205] Memory required for data: 5727322116
I0225 09:15:11.836031   175 net.cpp:268] score does not need backward computation.
I0225 09:15:11.836035   175 net.cpp:268] conv_u0d-score_New_fixed does not need backward computation.
I0225 09:15:11.836038   175 net.cpp:268] conv_u0d-score_New does not need backward computation.
I0225 09:15:11.836042   175 net.cpp:268] u0d_fixed does not need backward computation.
…
