…
I0625 00:35:38.180284  2541 net.cpp:323] The NetState phase (0) differed from the phase (1) specified by a rule in layer accuracy-top1
I0625 00:35:38.180287  2541 net.cpp:52] Initializing net from parameters:
name: "alexnetBNnoLRN m2 (as m3 but less DROP and less BN)"
state {
  phase: TRAIN
}
layer {
  name: "data"
  type: "Data"
  top: "data"
  top: "label"
  include {
    phase: TRAIN
  }
  transform_param {
    mirror: true
    crop_size: 227
    mean_value: 106
    mean_value: 116
    mean_value: 124
  }
  data_param {
    source: "input/lmdb/train_lmdb"
    batch_size: 256
    backend: LMDB
  }
}
layer {
  name: "conv1"
  type: "Convolution"
  bottom: "data"
  top: "conv1"
  param {
    lr_mult: 1
    decay_mult: 1
  }
  param {
    lr_mult: 2
    decay_mult: 0
  }
  convolution_param {
    num_output: 96
    pad: 1
    kernel_size: 11
    stride: 4
    weight_filler {
      type: "gaussian"
      std: 0.01
    }
    bias_filler {
      type: "constant"
      value: 0
    }
  }
}
layer {
  name: "bn1"
  type: "BatchNorm"
  bottom: "conv1"
  top: "bn1"
  param {
    lr_mult: 0
  }
  param {
    lr_mult: 0
  }
  param {
    lr_mult: 0
  }
  batch_norm_param {
    use_global_stats: false
  }
}
layer {
  name: "relu1"
  type: "ReLU"
  bottom: "bn1"
  top: "relu1"
}
layer {
  name: "pool1"
  type: "Pooling"
  bottom: "relu1"
  top: "pool1"
  pooling_param {
    pool: MAX
    kernel_size: 3
    stride: 2
  }
}
layer {
  name: "conv2"
  type: "Convolution"
  bottom: "pool1"
  top: "conv2"
  param {
    lr_mult: 1
    decay_mult: 1
  }
  param {
    lr_mult: 2
    decay_mult: 0
  }
  convolution_param {
    num_output: 256
    pad: 2
    kernel_size: 5
    group: 1
    weight_filler {
      type: "gaussian"
      std: 0.01
    }
    bias_filler {
      type: "constant"
      value: 1
    }
  }
}
layer {
  name: "bn2"
  type: "BatchNorm"
  bottom: "conv2"
  top: "bn2"
  param {
    lr_mult: 0
  }
  param {
    lr_mult: 0
  }
  param {
    lr_mult: 0
  }
  batch_norm_param {
    use_global_stats: false
  }
}
layer {
  name: "relu2"
  type: "ReLU"
  bottom: "bn2"
  top: "relu2"
}
layer {
  name: "pool2"
  type: "Pooling"
  bottom: "relu2"
  top: "pool2"
  pooling_param {
    pool: MAX
    kernel_size: 3
    stride: 2
  }
}
layer {
  name: "conv3"
  type: "Convolution"
  bottom: "pool2"
  top: "conv3"
  param {
    lr_mult: 1
    decay_mult: 1
  }
  param {
    lr_mult: 2
    decay_mult: 0
  }
  convolution_param {
    num_output: 384
    pad: 1
    kernel_size: 3
    weight_filler {
      type: "gaussian"
      std: 0.01
    }
    bias_filler {
      type: "constant"
      value: 0
    }
  }
}
layer {
  name: "relu3"
  type: "ReLU"
  bottom: "conv3"
  top: "relu3"
}
layer {
  name: "conv4"
  type: "Convolution"
  bottom: "relu3"
  top: "conv4"
  param {
    lr_mult: 1
    decay_mult: 1
  }
  param {
    lr_mult: 2
    decay_mult: 0
  }
  convolution_param {
    num_output: 384
    pad: 1
    kernel_size: 3
    group: 1
    weight_filler {
      type: "gaussian"
      std: 0.01
    }
    bias_filler {
      type: "constant"
      value: 1
    }
  }
}
layer {
  name: "relu4"
  type: "ReLU"
  bottom: "conv4"
  top: "relu4"
}
layer {
  name: "conv5"
  type: "Convolution"
  bottom: "relu4"
  top: "conv5"
  param {
    lr_mult: 1
    decay_mult: 1
  }
  param {
    lr_mult: 2
    decay_mult: 0
  }
  convolution_param {
    num_output: 256
    pad: 1
    kernel_size: 3
    group: 1
    weight_filler {
      type: "gaussian"
      std: 0.01
    }
    bias_filler {
      type: "constant"
      value: 1
    }
  }
}
layer {
  name: "relu5"
  type: "ReLU"
  bottom: "conv5"
  top: "relu5"
}
layer {
  name: "pool5"
  type: "Pooling"
  bottom: "relu5"
  top: "pool5"
  pooling_param {
    pool: MAX
    kernel_size: 3
    stride: 2
  }
}
layer {
  name: "fc6"
  type: "InnerProduct"
  bottom: "pool5"
  top: "fc6"
  param {
    lr_mult: 1
    decay_mult: 1
  }
  param {
    lr_mult: 2
    decay_mult: 0
  }
  inner_product_param {
    num_output: 4096
    weight_filler {
      type: "gaussian"
      std: 0.005
    }
    bias_filler {
      type: "constant"
      value: 1
    }
  }
}
layer {
  name: "relu6"
  type: "ReLU"
  bottom: "fc6"
  top: "relu6"
}
layer {
  name: "drop6"
  type: "Dropout"
  bottom: "relu6"
  top: "drop6"
  dropout_param {
    dropout_ratio: 0.5
  }
}
layer {
  name: "fc7"
  type: "InnerProduct"
  bottom: "drop6"
  top: "fc7"
  param {
    lr_mult: 1
    decay_mult: 1
  }
  param {
    lr_mult: 2
    decay_mult: 0
  }
  inner_product_param {
    num_output: 4096
    weight_filler {
      type: "gaussian"
      std: 0.005
    }
    bias_filler {
      type: "constant"
      value: 1
    }
  }
}
layer {
  name: "bn7"
  type: "BatchNorm"
  bottom: "fc7"
  top: "bn7"
  param {
    lr_mult: 0
  }
  param {
    lr_mult: 0
  }
  param {
    lr_mult: 0
  }
  batch_norm_param {
    use_global_stats: false
  }
}
layer {
  name: "relu7"
  type: "ReLU"
  bottom: "bn7"
  top: "relu7"
}
layer {
  name: "drop7"
  type: "Dropout"
  bottom: "relu7"
  top: "drop7"
  dropout_param {
    dropout_ratio: 0.5
  }
}
layer {
  name: "fc8"
  type: "InnerProduct"
  bottom: "drop7"
  top: "fc8"
  param {
    lr_mult: 1
    decay_mult: 1
  }
  param {
    lr_mult: 2
    decay_mult: 0
  }
  inner_product_param {
    num_output: 2
    weight_filler {
      type: "gaussian"
      std: 0.01
    }
    bias_filler {
      type: "constant"
      value: 0
    }
  }
}
layer {
  name: "loss"
  type: "SoftmaxWithLoss"
  bottom: "fc8"
  bottom: "label"
  top: "loss"
}
I0625 00:35:38.180490  2541 layer_factory.hpp:77] Creating layer data
I0625 00:35:38.180632  2541 internal_thread.cpp:27] Starting internal thread(s) on GPU 0
I0625 00:35:38.182111  2541 net.cpp:94] Creating Layer data
I0625 00:35:38.182126  2541 net.cpp:409] data -> data
I0625 00:35:38.182143  2541 net.cpp:409] data -> label
I0625 00:35:38.183516  2573 db_lmdb.cpp:35] Opened lmdb input/lmdb/train_lmdb
I0625 00:35:38.183538  2573 db_lmdb.cpp:38] Items count: 20000
I0625 00:35:38.183562  2573 data_reader.cpp:124] TRAIN: reading data using 1 channel(s)
I0625 00:35:38.183881  2541 data_layer.cpp:78] ReshapePrefetch 256, 3, 227, 227
I0625 00:35:38.183976  2541 data_layer.cpp:83] output data size: 256,3,227,227
I0625 00:35:38.686678  2541 internal_thread.cpp:27] Starting internal thread(s) on GPU 0
I0625 00:35:38.686758  2541 net.cpp:144] Setting up data
I0625 00:35:38.686765  2541 net.cpp:151] Top shape: 256 3 227 227 (39574272)
I0625 00:35:38.686775  2541 net.cpp:151] Top shape: 256 (256)
I0625 00:35:38.686779  2541 net.cpp:159] Memory required for data: 158298112
I0625 00:35:38.686784  2541 layer_factory.hpp:77] Creating layer conv1
I0625 00:35:38.686815  2541 net.cpp:94] Creating Layer conv1
I0625 00:35:38.686822  2541 net.cpp:435] conv1 <- data
I0625 00:35:38.686830  2541 net.cpp:409] conv1 -> conv1
I0625 00:35:38.687402  2541 net.cpp:144] Setting up conv1
I0625 00:35:38.687410  2541 net.cpp:151] Top shape: 256 96 55 55 (74342400)
I0625 00:35:38.687417  2541 net.cpp:159] Memory required for data: 455667712
I0625 00:35:38.687427  2541 layer_factory.hpp:77] Creating layer bn1
I0625 00:35:38.687448  2541 net.cpp:94] Creating Layer bn1
I0625 00:35:38.687451  2541 net.cpp:435] bn1 <- conv1
I0625 00:35:38.687456  2541 net.cpp:409] bn1 -> bn1
I0625 00:35:38.687949  2541 net.cpp:144] Setting up bn1
I0625 00:35:38.687956  2541 net.cpp:151] Top shape: 256 96 55 55 (74342400)
I0625 00:35:38.687963  2541 net.cpp:159] Memory required for data: 753037312
I0625 00:35:38.687973  2541 layer_factory.hpp:77] Creating layer relu1
I0625 00:35:38.687978  2541 net.cpp:94] Creating Layer relu1
I0625 00:35:38.687981  2541 net.cpp:435] relu1 <- bn1
I0625 00:35:38.687988  2541 net.cpp:409] relu1 -> relu1
I0625 00:35:38.688006  2541 net.cpp:144] Setting up relu1
I0625 00:35:38.688012  2541 net.cpp:151] Top shape: 256 96 55 55 (74342400)
I0625 00:35:38.688017  2541 net.cpp:159] Memory required for data: 1050406912
I0625 00:35:38.688020  2541 layer_factory.hpp:77] Creating layer pool1
I0625 00:35:38.688026  2541 net.cpp:94] Creating Layer pool1
I0625 00:35:38.688030  2541 net.cpp:435] pool1 <- relu1
I0625 00:35:38.688038  2541 net.cpp:409] pool1 -> pool1
I0625 00:35:38.688066  2541 net.cpp:144] Setting up pool1
I0625 00:35:38.688071  2541 net.cpp:151] Top shape: 256 96 27 27 (17915904)
I0625 00:35:38.688076  2541 net.cpp:159] Memory required for data: 1122070528
I0625 00:35:38.688078  2541 layer_factory.hpp:77] Creating layer conv2
I0625 00:35:38.688084  2541 net.cpp:94] Creating Layer conv2
I0625 00:35:38.688088  2541 net.cpp:435] conv2 <- pool1
I0625 00:35:38.688092  2541 net.cpp:409] conv2 -> conv2
I0625 00:35:38.703449  2541 net.cpp:144] Setting up conv2
I0625 00:35:38.703465  2541 net.cpp:151] Top shape: 256 256 27 27 (47775744)
I0625 00:35:38.703475  2541 net.cpp:159] Memory required for data: 1313173504
I0625 00:35:38.703487  2541 layer_factory.hpp:77] Creating layer bn2
I0625 00:35:38.703500  2541 net.cpp:94] Creating Layer bn2
I0625 00:35:38.703505  2541 net.cpp:435] bn2 <- conv2
I0625 00:35:38.703512  2541 net.cpp:409] bn2 -> bn2
I0625 00:35:38.704272  2541 net.cpp:144] Setting up bn2
I0625 00:35:38.704284  2541 net.cpp:151] Top shape: 256 256 27 27 (47775744)
I0625 00:35:38.704291  2541 net.cpp:159] Memory required for data: 1504276480
I0625 00:35:38.704301  2541 layer_factory.hpp:77] Creating layer relu2
I0625 00:35:38.704308  2541 net.cpp:94] Creating Layer relu2
I0625 00:35:38.704313  2541 net.cpp:435] relu2 <- bn2
I0625 00:35:38.704319  2541 net.cpp:409] relu2 -> relu2
I0625 00:35:38.704370  2541 net.cpp:144] Setting up relu2
I0625 00:35:38.704377  2541 net.cpp:151] Top shape: 256 256 27 27 (47775744)
I0625 00:35:38.704385  2541 net.cpp:159] Memory required for data: 1695379456
I0625 00:35:38.704388  2541 layer_factory.hpp:77] Creating layer pool2
I0625 00:35:38.704396  2541 net.cpp:94] Creating Layer pool2
I0625 00:35:38.704401  2541 net.cpp:435] pool2 <- relu2
I0625 00:35:38.704406  2541 net.cpp:409] pool2 -> pool2
I0625 00:35:38.704460  2541 net.cpp:144] Setting up pool2
I0625 00:35:38.704470  2541 net.cpp:151] Top shape: 256 256 13 13 (11075584)
I0625 00:35:38.704519  2541 net.cpp:159] Memory required for data: 1739681792
I0625 00:35:38.704530  2541 layer_factory.hpp:77] Creating layer conv3
I0625 00:35:38.704542  2541 net.cpp:94] Creating Layer conv3
I0625 00:35:38.704552  2541 net.cpp:435] conv3 <- pool2
I0625 00:35:38.704562  2541 net.cpp:409] conv3 -> conv3
I0625 00:35:38.738641  2541 net.cpp:144] Setting up conv3
I0625 00:35:38.738684  2541 net.cpp:151] Top shape: 256 384 13 13 (16613376)
I0625 00:35:38.738709  2541 net.cpp:159] Memory required for data: 1806135296
I0625 00:35:38.738734  2541 layer_factory.hpp:77] Creating layer relu3
I0625 00:35:38.738754  2541 net.cpp:94] Creating Layer relu3
I0625 00:35:38.738766  2541 net.cpp:435] relu3 <- conv3
I0625 00:35:38.738781  2541 net.cpp:409] relu3 -> relu3
I0625 00:35:38.738837  2541 net.cpp:144] Setting up relu3
I0625 00:35:38.738843  2541 net.cpp:151] Top shape: 256 384 13 13 (16613376)
I0625 00:35:38.738853  2541 net.cpp:159] Memory required for data: 1872588800
I0625 00:35:38.738860  2541 layer_factory.hpp:77] Creating layer conv4
I0625 00:35:38.738911  2541 net.cpp:94] Creating Layer conv4
I0625 00:35:38.738919  2541 net.cpp:435] conv4 <- relu3
I0625 00:35:38.738929  2541 net.cpp:409] conv4 -> conv4
I0625 00:35:38.772393  2541 net.cpp:144] Setting up conv4
I0625 00:35:38.772445  2541 net.cpp:151] Top shape: 256 384 13 13 (16613376)
I0625 00:35:38.772464  2541 net.cpp:159] Memory required for data: 1939042304
I0625 00:35:38.772487  2541 layer_factory.hpp:77] Creating layer relu4
I0625 00:35:38.772501  2541 net.cpp:94] Creating Layer relu4
I0625 00:35:38.772509  2541 net.cpp:435] relu4 <- conv4
I0625 00:35:38.772523  2541 net.cpp:409] relu4 -> relu4
I0625 00:35:38.772576  2541 net.cpp:144] Setting up relu4
I0625 00:35:38.772583  2541 net.cpp:151] Top shape: 256 384 13 13 (16613376)
I0625 00:35:38.772590  2541 net.cpp:159] Memory required for data: 2005495808
I0625 00:35:38.772594  2541 layer_factory.hpp:77] Creating layer conv5
I0625 00:35:38.772608  2541 net.cpp:94] Creating Layer conv5
I0625 00:35:38.772612  2541 net.cpp:435] conv5 <- relu4
I0625 00:35:38.772619  2541 net.cpp:409] conv5 -> conv5
I0625 00:35:38.788972  2541 net.cpp:144] Setting up conv5
I0625 00:35:38.788991  2541 net.cpp:151] Top shape: 256 256 13 13 (11075584)
I0625 00:35:38.789000  2541 net.cpp:159] Memory required for data: 2049798144
I0625 00:35:38.789009  2541 layer_factory.hpp:77] Creating layer relu5
I0625 00:35:38.789017  2541 net.cpp:94] Creating Layer relu5
I0625 00:35:38.789022  2541 net.cpp:435] relu5 <- conv5
I0625 00:35:38.789028  2541 net.cpp:409] relu5 -> relu5
I0625 00:35:38.789052  2541 net.cpp:144] Setting up relu5
I0625 00:35:38.789055  2541 net.cpp:151] Top shape: 256 256 13 13 (11075584)
I0625 00:35:38.789059  2541 net.cpp:159] Memory required for data: 2094100480
I0625 00:35:38.789062  2541 layer_factory.hpp:77] Creating layer pool5
I0625 00:35:38.789067  2541 net.cpp:94] Creating Layer pool5
I0625 00:35:38.789070  2541 net.cpp:435] pool5 <- relu5
I0625 00:35:38.789074  2541 net.cpp:409] pool5 -> pool5
I0625 00:35:38.789098  2541 net.cpp:144] Setting up pool5
I0625 00:35:38.789103  2541 net.cpp:151] Top shape: 256 256 6 6 (2359296)
I0625 00:35:38.789108  2541 net.cpp:159] Memory required for data: 2103537664
I0625 00:35:38.789110  2541 layer_factory.hpp:77] Creating layer fc6
I0625 00:35:38.789125  2541 net.cpp:94] Creating Layer fc6
I0625 00:35:38.789129  2541 net.cpp:435] fc6 <- pool5
I0625 00:35:38.789132  2541 net.cpp:409] fc6 -> fc6
I0625 00:35:39.118238  2541 net.cpp:144] Setting up fc6
I0625 00:35:39.118261  2541 net.cpp:151] Top shape: 256 4096 (1048576)
I0625 00:35:39.118271  2541 net.cpp:159] Memory required for data: 2107731968
I0625 00:35:39.118283  2541 layer_factory.hpp:77] Creating layer relu6
I0625 00:35:39.118294  2541 net.cpp:94] Creating Layer relu6
I0625 00:35:39.118299  2541 net.cpp:435] relu6 <- fc6
I0625 00:35:39.118304  2541 net.cpp:409] relu6 -> relu6
I0625 00:35:39.118322  2541 net.cpp:144] Setting up relu6
I0625 00:35:39.118328  2541 net.cpp:151] Top shape: 256 4096 (1048576)
I0625 00:35:39.118332  2541 net.cpp:159] Memory required for data: 2111926272
I0625 00:35:39.118336  2541 layer_factory.hpp:77] Creating layer drop6
I0625 00:35:39.118342  2541 net.cpp:94] Creating Layer drop6
I0625 00:35:39.118345  2541 net.cpp:435] drop6 <- relu6
I0625 00:35:39.118350  2541 net.cpp:409] drop6 -> drop6
I0625 00:35:39.118372  2541 net.cpp:144] Setting up drop6
I0625 00:35:39.118377  2541 net.cpp:151] Top shape: 256 4096 (1048576)
I0625 00:35:39.118383  2541 net.cpp:159] Memory required for data: 2116120576
I0625 00:35:39.118386  2541 layer_factory.hpp:77] Creating layer fc7
I0625 00:35:39.118396  2541 net.cpp:94] Creating Layer fc7
I0625 00:35:39.118398  2541 net.cpp:435] fc7 <- drop6
I0625 00:35:39.118402  2541 net.cpp:409] fc7 -> fc7
I0625 00:35:39.257925  2541 net.cpp:144] Setting up fc7
I0625 00:35:39.257949  2541 net.cpp:151] Top shape: 256 4096 (1048576)
I0625 00:35:39.257959  2541 net.cpp:159] Memory required for data: 2120314880
I0625 00:35:39.257970  2541 layer_factory.hpp:77] Creating layer bn7
I0625 00:35:39.257999  2541 net.cpp:94] Creating Layer bn7
I0625 00:35:39.258004  2541 net.cpp:435] bn7 <- fc7
I0625 00:35:39.258011  2541 net.cpp:409] bn7 -> bn7
I0625 00:35:39.258509  2541 net.cpp:144] Setting up bn7
I0625 00:35:39.258517  2541 net.cpp:151] Top shape: 256 4096 (1048576)
I0625 00:35:39.258522  2541 net.cpp:159] Memory required for data: 2124509184
I0625 00:35:39.258530  2541 layer_factory.hpp:77] Creating layer relu7
I0625 00:35:39.258536  2541 net.cpp:94] Creating Layer relu7
I0625 00:35:39.258539  2541 net.cpp:435] relu7 <- bn7
I0625 00:35:39.258545  2541 net.cpp:409] relu7 -> relu7
I0625 00:35:39.258569  2541 net.cpp:144] Setting up relu7
I0625 00:35:39.258574  2541 net.cpp:151] Top shape: 256 4096 (1048576)
I0625 00:35:39.258579  2541 net.cpp:159] Memory required for data: 2128703488
I0625 00:35:39.258582  2541 layer_factory.hpp:77] Creating layer drop7
I0625 00:35:39.258589  2541 net.cpp:94] Creating Layer drop7
I0625 00:35:39.258591  2541 net.cpp:435] drop7 <- relu7
I0625 00:35:39.258596  2541 net.cpp:409] drop7 -> drop7
I0625 00:35:39.258620  2541 net.cpp:144] Setting up drop7
I0625 00:35:39.258625  2541 net.cpp:151] Top shape: 256 4096 (1048576)
I0625 00:35:39.258630  2541 net.cpp:159] Memory required for data: 2132897792
I0625 00:35:39.258633  2541 layer_factory.hpp:77] Creating layer fc8
I0625 00:35:39.258639  2541 net.cpp:94] Creating Layer fc8
I0625 00:35:39.258642  2541 net.cpp:435] fc8 <- drop7
I0625 00:35:39.258648  2541 net.cpp:409] fc8 -> fc8
I0625 00:35:39.258797  2541 net.cpp:144] Setting up fc8
I0625 00:35:39.258802  2541 net.cpp:151] Top shape: 256 2 (512)
I0625 00:35:39.258807  2541 net.cpp:159] Memory required for data: 2132899840
I0625 00:35:39.258812  2541 layer_factory.hpp:77] Creating layer loss
I0625 00:35:39.258823  2541 net.cpp:94] Creating Layer loss
I0625 00:35:39.258827  2541 net.cpp:435] loss <- fc8
I0625 00:35:39.258831  2541 net.cpp:435] loss <- label
I0625 00:35:39.258837  2541 net.cpp:409] loss -> loss
I0625 00:35:39.258848  2541 layer_factory.hpp:77] Creating layer loss
…
I0625 00:35:39.259426  2541 net.cpp:323] The NetState phase (1) differed from the phase (0) specified by a rule in layer data
I0625 00:35:39.259440  2541 net.cpp:52] Initializing net from parameters:
name: "alexnetBNnoLRN m2 (as m3 but less DROP and less BN)"
state {
  phase: TEST
}
layer {
  name: "data"
  type: "Data"
  top: "data"
  top: "label"
  include {
    phase: TEST
  }
  transform_param {
    mirror: false
    crop_size: 227
    mean_value: 106
    mean_value: 116
    mean_value: 124
  }
  data_param {
    source: "input/lmdb/valid_lmdb"
    batch_size: 50
    backend: LMDB
  }
}
layer {
  name: "conv1"
  type: "Convolution"
  bottom: "data"
  top: "conv1"
  param {
    lr_mult: 1
    decay_mult: 1
  }
  param {
    lr_mult: 2
    decay_mult: 0
  }
  convolution_param {
    num_output: 96
    pad: 1
    kernel_size: 11
    stride: 4
    weight_filler {
      type: "gaussian"
      std: 0.01
    }
    bias_filler {
      type: "constant"
      value: 0
    }
  }
}
layer {
  name: "bn1"
  type: "BatchNorm"
  bottom: "conv1"
  top: "bn1"
  param {
    lr_mult: 0
  }
  param {
    lr_mult: 0
  }
  param {
    lr_mult: 0
  }
  batch_norm_param {
    use_global_stats: false
  }
}
layer {
  name: "relu1"
  type: "ReLU"
  bottom: "bn1"
  top: "relu1"
}
layer {
  name: "pool1"
  type: "Pooling"
  bottom: "relu1"
  top: "pool1"
  pooling_param {
    pool: MAX
    kernel_size: 3
    stride: 2
  }
}
layer {
  name: "conv2"
  type: "Convolution"
  bottom: "pool1"
  top: "conv2"
  param {
    lr_mult: 1
    decay_mult: 1
  }
  param {
    lr_mult: 2
    decay_mult: 0
  }
  convolution_param {
    num_output: 256
    pad: 2
    kernel_size: 5
    group: 1
    weight_filler {
      type: "gaussian"
      std: 0.01
    }
    bias_filler {
      type: "constant"
      value: 1
    }
  }
}
layer {
  name: "bn2"
  type: "BatchNorm"
  bottom: "conv2"
  top: "bn2"
  param {
    lr_mult: 0
  }
  param {
    lr_mult: 0
  }
  param {
    lr_mult: 0
  }
  batch_norm_param {
    use_global_stats: false
  }
}
layer {
  name: "relu2"
  type: "ReLU"
  bottom: "bn2"
  top: "relu2"
}
layer {
  name: "pool2"
  type: "Pooling"
  bottom: "relu2"
  top: "pool2"
  pooling_param {
    pool: MAX
    kernel_size: 3
    stride: 2
  }
}
layer {
  name: "conv3"
  type: "Convolution"
  bottom: "pool2"
  top: "conv3"
  param {
    lr_mult: 1
    decay_mult: 1
  }
  param {
    lr_mult: 2
    decay_mult: 0
  }
  convolution_param {
    num_output: 384
    pad: 1
    kernel_size: 3
    weight_filler {
      type: "gaussian"
      std: 0.01
    }
    bias_filler {
      type: "constant"
      value: 0
    }
  }
}
layer {
  name: "relu3"
  type: "ReLU"
  bottom: "conv3"
  top: "relu3"
}
layer {
  name: "conv4"
  type: "Convolution"
  bottom: "relu3"
  top: "conv4"
  param {
    lr_mult: 1
    decay_mult: 1
  }
  param {
    lr_mult: 2
    decay_mult: 0
  }
  convolution_param {
    num_output: 384
    pad: 1
    kernel_size: 3
    group: 1
    weight_filler {
      type: "gaussian"
      std: 0.01
    }
    bias_filler {
      type: "constant"
      value: 1
    }
  }
}
layer {
  name: "relu4"
  type: "ReLU"
  bottom: "conv4"
  top: "relu4"
}
layer {
  name: "conv5"
  type: "Convolution"
  bottom: "relu4"
  top: "conv5"
  param {
    lr_mult: 1
    decay_mult: 1
  }
  param {
    lr_mult: 2
    decay_mult: 0
  }
  convolution_param {
    num_output: 256
    pad: 1
    kernel_size: 3
    group: 1
    weight_filler {
      type: "gaussian"
      std: 0.01
    }
    bias_filler {
      type: "constant"
      value: 1
    }
  }
}
layer {
  name: "relu5"
  type: "ReLU"
  bottom: "conv5"
  top: "relu5"
}
layer {
  name: "pool5"
  type: "Pooling"
  bottom: "relu5"
  top: "pool5"
  pooling_param {
    pool: MAX
    kernel_size: 3
    stride: 2
  }
}
layer {
  name: "fc6"
  type: "InnerProduct"
  bottom: "pool5"
  top: "fc6"
  param {
    lr_mult: 1
    decay_mult: 1
  }
  param {
    lr_mult: 2
    decay_mult: 0
  }
  inner_product_param {
    num_output: 4096
    weight_filler {
      type: "gaussian"
      std: 0.005
    }
    bias_filler {
      type: "constant"
      value: 1
    }
  }
}
layer {
  name: "relu6"
  type: "ReLU"
  bottom: "fc6"
  top: "relu6"
}
layer {
  name: "drop6"
  type: "Dropout"
  bottom: "relu6"
  top: "drop6"
  dropout_param {
    dropout_ratio: 0.5
  }
}
layer {
  name: "fc7"
  type: "InnerProduct"
  bottom: "drop6"
  top: "fc7"
  param {
    lr_mult: 1
    decay_mult: 1
  }
  param {
    lr_mult: 2
    decay_mult: 0
  }
  inner_product_param {
    num_output: 4096
    weight_filler {
      type: "gaussian"
      std: 0.005
    }
    bias_filler {
      type: "constant"
      value: 1
    }
  }
}
layer {
  name: "bn7"
  type: "BatchNorm"
  bottom: "fc7"
  top: "bn7"
  param {
    lr_mult: 0
  }
  param {
    lr_mult: 0
  }
  param {
    lr_mult: 0
  }
  batch_norm_param {
    use_global_stats: false
  }
}
layer {
  name: "relu7"
  type: "ReLU"
  bottom: "bn7"
  top: "relu7"
}
layer {
  name: "drop7"
  type: "Dropout"
  bottom: "relu7"
  top: "drop7"
  dropout_param {
    dropout_ratio: 0.5
  }
}
layer {
  name: "fc8"
  type: "InnerProduct"
  bottom: "drop7"
  top: "fc8"
  param {
    lr_mult: 1
    decay_mult: 1
  }
  param {
    lr_mult: 2
    decay_mult: 0
  }
  inner_product_param {
    num_output: 2
    weight_filler {
      type: "gaussian"
      std: 0.01
    }
    bias_filler {
      type: "constant"
      value: 0
    }
  }
}
layer {
  name: "accuracy"
  type: "Accuracy"
  bottom: "fc8"
  bottom: "label"
  top: "accuracy"
  include {
    phase: TEST
  }
}
layer {
  name: "loss"
  type: "SoftmaxWithLoss"
  bottom: "fc8"
  bottom: "label"
  top: "loss"
}
layer {
  name: "accuracy-top1"
  type: "Accuracy"
  bottom: "fc8"
  bottom: "label"
  top: "top-1"
  include {
    phase: TEST
  }
}
I0625 00:35:39.259658  2541 layer_factory.hpp:77] Creating layer data
I0625 00:35:39.259703  2541 internal_thread.cpp:27] Starting internal thread(s) on GPU 0
I0625 00:35:39.261126  2541 net.cpp:94] Creating Layer data
I0625 00:35:39.261138  2541 net.cpp:409] data -> data
I0625 00:35:39.261148  2541 net.cpp:409] data -> label
I0625 00:35:39.262995  2603 db_lmdb.cpp:35] Opened lmdb input/lmdb/valid_lmdb
I0625 00:35:39.263020  2603 db_lmdb.cpp:38] Items count: 4000
I0625 00:35:39.263042  2603 data_reader.cpp:124] TEST: reading data using 1 channel(s)
I0625 00:35:39.263363  2541 data_layer.cpp:78] ReshapePrefetch 50, 3, 227, 227
I0625 00:35:39.263461  2541 data_layer.cpp:83] output data size: 50,3,227,227
I0625 00:35:39.365603  2541 internal_thread.cpp:27] Starting internal thread(s) on GPU 0
I0625 00:35:39.365680  2541 net.cpp:144] Setting up data
I0625 00:35:39.365685  2541 net.cpp:151] Top shape: 50 3 227 227 (7729350)
I0625 00:35:39.365696  2541 net.cpp:151] Top shape: 50 (50)
I0625 00:35:39.365700  2541 net.cpp:159] Memory required for data: 30917600
I0625 00:35:39.365705  2541 layer_factory.hpp:77] Creating layer label_data_1_split
I0625 00:35:39.365716  2541 net.cpp:94] Creating Layer label_data_1_split
I0625 00:35:39.365720  2541 net.cpp:435] label_data_1_split <- label
I0625 00:35:39.365727  2541 net.cpp:409] label_data_1_split -> label_data_1_split_0
I0625 00:35:39.365736  2541 net.cpp:409] label_data_1_split -> label_data_1_split_1
I0625 00:35:39.365741  2541 net.cpp:409] label_data_1_split -> label_data_1_split_2
I0625 00:35:39.365790  2541 net.cpp:144] Setting up label_data_1_split
I0625 00:35:39.365795  2541 net.cpp:151] Top shape: 50 (50)
I0625 00:35:39.365799  2541 net.cpp:151] Top shape: 50 (50)
I0625 00:35:39.365803  2541 net.cpp:151] Top shape: 50 (50)
I0625 00:35:39.365805  2541 net.cpp:159] Memory required for data: 30918200
I0625 00:35:39.365808  2541 layer_factory.hpp:77] Creating layer conv1
I0625 00:35:39.365819  2541 net.cpp:94] Creating Layer conv1
I0625 00:35:39.365835  2541 net.cpp:435] conv1 <- data
I0625 00:35:39.365857  2541 net.cpp:409] conv1 -> conv1
I0625 00:35:39.366483  2541 net.cpp:144] Setting up conv1
I0625 00:35:39.366490  2541 net.cpp:151] Top shape: 50 96 55 55 (14520000)
I0625 00:35:39.366497  2541 net.cpp:159] Memory required for data: 88998200
I0625 00:35:39.366506  2541 layer_factory.hpp:77] Creating layer bn1
I0625 00:35:39.366513  2541 net.cpp:94] Creating Layer bn1
I0625 00:35:39.366518  2541 net.cpp:435] bn1 <- conv1
I0625 00:35:39.366523  2541 net.cpp:409] bn1 -> bn1
I0625 00:35:39.367054  2541 net.cpp:144] Setting up bn1
I0625 00:35:39.367060  2541 net.cpp:151] Top shape: 50 96 55 55 (14520000)
I0625 00:35:39.367066  2541 net.cpp:159] Memory required for data: 147078200
I0625 00:35:39.367075  2541 layer_factory.hpp:77] Creating layer relu1
I0625 00:35:39.367082  2541 net.cpp:94] Creating Layer relu1
I0625 00:35:39.367086  2541 net.cpp:435] relu1 <- bn1
I0625 00:35:39.367092  2541 net.cpp:409] relu1 -> relu1
I0625 00:35:39.367107  2541 net.cpp:144] Setting up relu1
I0625 00:35:39.367113  2541 net.cpp:151] Top shape: 50 96 55 55 (14520000)
I0625 00:35:39.367117  2541 net.cpp:159] Memory required for data: 205158200
I0625 00:35:39.367121  2541 layer_factory.hpp:77] Creating layer pool1
I0625 00:35:39.367126  2541 net.cpp:94] Creating Layer pool1
I0625 00:35:39.367130  2541 net.cpp:435] pool1 <- relu1
I0625 00:35:39.367134  2541 net.cpp:409] pool1 -> pool1
I0625 00:35:39.367161  2541 net.cpp:144] Setting up pool1
I0625 00:35:39.367166  2541 net.cpp:151] Top shape: 50 96 27 27 (3499200)
I0625 00:35:39.367170  2541 net.cpp:159] Memory required for data: 219155000
I0625 00:35:39.367174  2541 layer_factory.hpp:77] Creating layer conv2
I0625 00:35:39.367180  2541 net.cpp:94] Creating Layer conv2
I0625 00:35:39.367184  2541 net.cpp:435] conv2 <- pool1
I0625 00:35:39.367190  2541 net.cpp:409] conv2 -> conv2
I0625 00:35:39.373386  2541 net.cpp:144] Setting up conv2
I0625 00:35:39.373402  2541 net.cpp:151] Top shape: 50 256 27 27 (9331200)
I0625 00:35:39.373410  2541 net.cpp:159] Memory required for data: 256479800
I0625 00:35:39.373420  2541 layer_factory.hpp:77] Creating layer bn2
I0625 00:35:39.373430  2541 net.cpp:94] Creating Layer bn2
I0625 00:35:39.373433  2541 net.cpp:435] bn2 <- conv2
I0625 00:35:39.373440  2541 net.cpp:409] bn2 -> bn2
I0625 00:35:39.374734  2541 net.cpp:144] Setting up bn2
I0625 00:35:39.374763  2541 net.cpp:151] Top shape: 50 256 27 27 (9331200)
I0625 00:35:39.374780  2541 net.cpp:159] Memory required for data: 293804600
I0625 00:35:39.374801  2541 layer_factory.hpp:77] Creating layer relu2
I0625 00:35:39.374816  2541 net.cpp:94] Creating Layer relu2
I0625 00:35:39.374825  2541 net.cpp:435] relu2 <- bn2
I0625 00:35:39.374836  2541 net.cpp:409] relu2 -> relu2
I0625 00:35:39.374873  2541 net.cpp:144] Setting up relu2
I0625 00:35:39.374881  2541 net.cpp:151] Top shape: 50 256 27 27 (9331200)
I0625 00:35:39.374891  2541 net.cpp:159] Memory required for data: 331129400
I0625 00:35:39.374898  2541 layer_factory.hpp:77] Creating layer pool2
I0625 00:35:39.374912  2541 net.cpp:94] Creating Layer pool2
I0625 00:35:39.374918  2541 net.cpp:435] pool2 <- relu2
I0625 00:35:39.374927  2541 net.cpp:409] pool2 -> pool2
I0625 00:35:39.374980  2541 net.cpp:144] Setting up pool2
I0625 00:35:39.374987  2541 net.cpp:151] Top shape: 50 256 13 13 (2163200)
I0625 00:35:39.374997  2541 net.cpp:159] Memory required for data: 339782200
I0625 00:35:39.375005  2541 layer_factory.hpp:77] Creating layer conv3
I0625 00:35:39.375025  2541 net.cpp:94] Creating Layer conv3
I0625 00:35:39.375032  2541 net.cpp:435] conv3 <- pool2
I0625 00:35:39.375042  2541 net.cpp:409] conv3 -> conv3
I0625 00:35:39.391136  2541 net.cpp:144] Setting up conv3
I0625 00:35:39.391165  2541 net.cpp:151] Top shape: 50 384 13 13 (3244800)
I0625 00:35:39.391178  2541 net.cpp:159] Memory required for data: 352761400
I0625 00:35:39.391193  2541 layer_factory.hpp:77] Creating layer relu3
I0625 00:35:39.391204  2541 net.cpp:94] Creating Layer relu3
I0625 00:35:39.391212  2541 net.cpp:435] relu3 <- conv3
I0625 00:35:39.391252  2541 net.cpp:409] relu3 -> relu3
I0625 00:35:39.391290  2541 net.cpp:144] Setting up relu3
I0625 00:35:39.391299  2541 net.cpp:151] Top shape: 50 384 13 13 (3244800)
I0625 00:35:39.391304  2541 net.cpp:159] Memory required for data: 365740600
I0625 00:35:39.391309  2541 layer_factory.hpp:77] Creating layer conv4
I0625 00:35:39.391321  2541 net.cpp:94] Creating Layer conv4
I0625 00:35:39.391328  2541 net.cpp:435] conv4 <- relu3
I0625 00:35:39.391336  2541 net.cpp:409] conv4 -> conv4
I0625 00:35:39.406935  2541 net.cpp:144] Setting up conv4
I0625 00:35:39.406963  2541 net.cpp:151] Top shape: 50 384 13 13 (3244800)
I0625 00:35:39.406976  2541 net.cpp:159] Memory required for data: 378719800
I0625 00:35:39.406996  2541 layer_factory.hpp:77] Creating layer relu4
I0625 00:35:39.407009  2541 net.cpp:94] Creating Layer relu4
I0625 00:35:39.407017  2541 net.cpp:435] relu4 <- conv4
I0625 00:35:39.407028  2541 net.cpp:409] relu4 -> relu4
I0625 00:35:39.407063  2541 net.cpp:144] Setting up relu4
I0625 00:35:39.407068  2541 net.cpp:151] Top shape: 50 384 13 13 (3244800)
I0625 00:35:39.407073  2541 net.cpp:159] Memory required for data: 391699000
I0625 00:35:39.407078  2541 layer_factory.hpp:77] Creating layer conv5
I0625 00:35:39.407096  2541 net.cpp:94] Creating Layer conv5
I0625 00:35:39.407101  2541 net.cpp:435] conv5 <- relu4
I0625 00:35:39.407106  2541 net.cpp:409] conv5 -> conv5
I0625 00:35:39.415923  2541 net.cpp:144] Setting up conv5
I0625 00:35:39.415951  2541 net.cpp:151] Top shape: 50 256 13 13 (2163200)
I0625 00:35:39.415963  2541 net.cpp:159] Memory required for data: 400351800
I0625 00:35:39.415989  2541 layer_factory.hpp:77] Creating layer relu5
I0625 00:35:39.415998  2541 net.cpp:94] Creating Layer relu5
I0625 00:35:39.416003  2541 net.cpp:435] relu5 <- conv5
I0625 00:35:39.416013  2541 net.cpp:409] relu5 -> relu5
I0625 00:35:39.416041  2541 net.cpp:144] Setting up relu5
I0625 00:35:39.416046  2541 net.cpp:151] Top shape: 50 256 13 13 (2163200)
I0625 00:35:39.416051  2541 net.cpp:159] Memory required for data: 409004600
I0625 00:35:39.416054  2541 layer_factory.hpp:77] Creating layer pool5
I0625 00:35:39.416060  2541 net.cpp:94] Creating Layer pool5
I0625 00:35:39.416064  2541 net.cpp:435] pool5 <- relu5
I0625 00:35:39.416067  2541 net.cpp:409] pool5 -> pool5
I0625 00:35:39.416088  2541 net.cpp:144] Setting up pool5
I0625 00:35:39.416091  2541 net.cpp:151] Top shape: 50 256 6 6 (460800)
I0625 00:35:39.416095  2541 net.cpp:159] Memory required for data: 410847800
I0625 00:35:39.416098  2541 layer_factory.hpp:77] Creating layer fc6
I0625 00:35:39.416105  2541 net.cpp:94] Creating Layer fc6
I0625 00:35:39.416110  2541 net.cpp:435] fc6 <- pool5
I0625 00:35:39.416112  2541 net.cpp:409] fc6 -> fc6
I0625 00:35:39.718333  2541 net.cpp:144] Setting up fc6
I0625 00:35:39.718358  2541 net.cpp:151] Top shape: 50 4096 (204800)
I0625 00:35:39.718366  2541 net.cpp:159] Memory required for data: 411667000
I0625 00:35:39.718376  2541 layer_factory.hpp:77] Creating layer relu6
I0625 00:35:39.718384  2541 net.cpp:94] Creating Layer relu6
I0625 00:35:39.718389  2541 net.cpp:435] relu6 <- fc6
I0625 00:35:39.718395  2541 net.cpp:409] relu6 -> relu6
I0625 00:35:39.718421  2541 net.cpp:144] Setting up relu6
I0625 00:35:39.718425  2541 net.cpp:151] Top shape: 50 4096 (204800)
I0625 00:35:39.718427  2541 net.cpp:159] Memory required for data: 412486200
I0625 00:35:39.718430  2541 layer_factory.hpp:77] Creating layer drop6
I0625 00:35:39.718436  2541 net.cpp:94] Creating Layer drop6
I0625 00:35:39.718454  2541 net.cpp:435] drop6 <- relu6
I0625 00:35:39.718458  2541 net.cpp:409] drop6 -> drop6
I0625 00:35:39.718479  2541 net.cpp:144] Setting up drop6
I0625 00:35:39.718484  2541 net.cpp:151] Top shape: 50 4096 (204800)
I0625 00:35:39.718487  2541 net.cpp:159] Memory required for data: 413305400
I0625 00:35:39.718490  2541 layer_factory.hpp:77] Creating layer fc7
I0625 00:35:39.718498  2541 net.cpp:94] Creating Layer fc7
I0625 00:35:39.718502  2541 net.cpp:435] fc7 <- drop6
I0625 00:35:39.718506  2541 net.cpp:409] fc7 -> fc7
I0625 00:35:39.852555  2541 net.cpp:144] Setting up fc7
I0625 00:35:39.852579  2541 net.cpp:151] Top shape: 50 4096 (204800)
I0625 00:35:39.852588  2541 net.cpp:159] Memory required for data: 414124600
I0625 00:35:39.852614  2541 layer_factory.hpp:77] Creating layer bn7
I0625 00:35:39.852627  2541 net.cpp:94] Creating Layer bn7
I0625 00:35:39.852630  2541 net.cpp:435] bn7 <- fc7
I0625 00:35:39.852638  2541 net.cpp:409] bn7 -> bn7
I0625 00:35:39.853130  2541 net.cpp:144] Setting up bn7
I0625 00:35:39.853137  2541 net.cpp:151] Top shape: 50 4096 (204800)
I0625 00:35:39.853142  2541 net.cpp:159] Memory required for data: 414943800
I0625 00:35:39.853150  2541 layer_factory.hpp:77] Creating layer relu7
I0625 00:35:39.853155  2541 net.cpp:94] Creating Layer relu7
I0625 00:35:39.853159  2541 net.cpp:435] relu7 <- bn7
I0625 00:35:39.853163  2541 net.cpp:409] relu7 -> relu7
I0625 00:35:39.853180  2541 net.cpp:144] Setting up relu7
I0625 00:35:39.853185  2541 net.cpp:151] Top shape: 50 4096 (204800)
I0625 00:35:39.853189  2541 net.cpp:159] Memory required for data: 415763000
I0625 00:35:39.853193  2541 layer_factory.hpp:77] Creating layer drop7
I0625 00:35:39.853199  2541 net.cpp:94] Creating Layer drop7
I0625 00:35:39.853201  2541 net.cpp:435] drop7 <- relu7
I0625 00:35:39.853205  2541 net.cpp:409] drop7 -> drop7
I0625 00:35:39.853245  2541 net.cpp:144] Setting up drop7
I0625 00:35:39.853250  2541 net.cpp:151] Top shape: 50 4096 (204800)
I0625 00:35:39.853255  2541 net.cpp:159] Memory required for data: 416582200
I0625 00:35:39.853258  2541 layer_factory.hpp:77] Creating layer fc8
I0625 00:35:39.853266  2541 net.cpp:94] Creating Layer fc8
I0625 00:35:39.853268  2541 net.cpp:435] fc8 <- drop7
I0625 00:35:39.853273  2541 net.cpp:409] fc8 -> fc8
I0625 00:35:39.853426  2541 net.cpp:144] Setting up fc8
I0625 00:35:39.853431  2541 net.cpp:151] Top shape: 50 2 (100)
I0625 00:35:39.853436  2541 net.cpp:159] Memory required for data: 416582600
I0625 00:35:39.853441  2541 layer_factory.hpp:77] Creating layer fc8_fc8_0_split
I0625 00:35:39.853446  2541 net.cpp:94] Creating Layer fc8_fc8_0_split
I0625 00:35:39.853451  2541 net.cpp:435] fc8_fc8_0_split <- fc8
I0625 00:35:39.853454  2541 net.cpp:409] fc8_fc8_0_split -> fc8_fc8_0_split_0
I0625 00:35:39.853461  2541 net.cpp:409] fc8_fc8_0_split -> fc8_fc8_0_split_1
I0625 00:35:39.853466  2541 net.cpp:409] fc8_fc8_0_split -> fc8_fc8_0_split_2
I0625 00:35:39.853497  2541 net.cpp:144] Setting up fc8_fc8_0_split
I0625 00:35:39.853503  2541 net.cpp:151] Top shape: 50 2 (100)
I0625 00:35:39.853507  2541 net.cpp:151] Top shape: 50 2 (100)
I0625 00:35:39.853511  2541 net.cpp:151] Top shape: 50 2 (100)
I0625 00:35:39.853515  2541 net.cpp:159] Memory required for data: 416583800
I0625 00:35:39.853519  2541 layer_factory.hpp:77] Creating layer accuracy
I0625 00:35:39.853525  2541 net.cpp:94] Creating Layer accuracy
I0625 00:35:39.853529  2541 net.cpp:435] accuracy <- fc8_fc8_0_split_0
I0625 00:35:39.853533  2541 net.cpp:435] accuracy <- label_data_1_split_0
I0625 00:35:39.853538  2541 net.cpp:409] accuracy -> accuracy
…
WARNING: Logging before InitGoogleLogging() is written to STDERR
I0625 02:03:40.533177  2637 gpu_memory.cpp:53] GPUMemory::Manager initialized with Caching (CUB) GPU Allocator
I0625 02:03:40.533200  2637 gpu_memory.cpp:55] Total memory: 25620447232, Free: 24454692864, dev_info[0]: total=25620447232 free=24454692864
I0625 02:03:40.536705  2637 net.cpp:52] Initializing net from parameters:
name: "AlexNet_BNnoLRN m2 deploy"
state {
  phase: TEST
}
layer {
  name: "data"
  type: "Input"
  top: "data"
  input_param {
    shape {
      dim: 1
      dim: 3
      dim: 227
      dim: 227
    }
  }
}
layer {
  name: "conv1"
  type: "Convolution"
  bottom: "data"
  top: "conv1"
  param {
    lr_mult: 1
    decay_mult: 1
  }
  param {
    lr_mult: 2
    decay_mult: 0
  }
  convolution_param {
    num_output: 96
    pad: 1
    kernel_size: 11
    stride: 4
    weight_filler {
      type: "gaussian"
      std: 0.01
    }
    bias_filler {
      type: "constant"
      value: 0
    }
  }
}
layer {
  name: "bn1"
  type: "BatchNorm"
  bottom: "conv1"
  top: "bn1"
  param {
    lr_mult: 0
  }
  param {
    lr_mult: 0
  }
  param {
    lr_mult: 0
  }
  batch_norm_param {
    use_global_stats: true
  }
}
layer {
  name: "relu1"
  type: "ReLU"
  bottom: "bn1"
  top: "relu1"
}
layer {
  name: "pool1"
  type: "Pooling"
  bottom: "relu1"
  top: "pool1"
  pooling_param {
    pool: MAX
    kernel_size: 3
    stride: 2
  }
}
layer {
  name: "conv2"
  type: "Convolution"
  bottom: "pool1"
  top: "conv2"
  param {
    lr_mult: 1
    decay_mult: 1
  }
  param {
    lr_mult: 2
    decay_mult: 0
  }
  convolution_param {
    num_output: 256
    pad: 2
    kernel_size: 5
    group: 1
    weight_filler {
      type: "gaussian"
      std: 0.01
    }
    bias_filler {
      type: "constant"
      value: 1
    }
  }
}
layer {
  name: "bn2"
  type: "BatchNorm"
  bottom: "conv2"
  top: "bn2"
  param {
    lr_mult: 0
  }
  param {
    lr_mult: 0
  }
  param {
    lr_mult: 0
  }
  batch_norm_param {
    use_global_stats: true
  }
}
layer {
  name: "relu2"
  type: "ReLU"
  bottom: "bn2"
  top: "relu2"
}
layer {
  name: "pool2"
  type: "Pooling"
  bottom: "relu2"
  top: "pool2"
  pooling_param {
    pool: MAX
    kernel_size: 3
    stride: 2
  }
}
layer {
  name: "conv3"
  type: "Convolution"
  bottom: "pool2"
  top: "conv3"
  param {
    lr_mult: 1
    decay_mult: 1
  }
  param {
    lr_mult: 2
    decay_mult: 0
  }
  convolution_param {
    num_output: 384
    pad: 1
    kernel_size: 3
    weight_filler {
      type: "gaussian"
      std: 0.01
    }
    bias_filler {
      type: "constant"
      value: 0
    }
  }
}
layer {
  name: "relu3"
  type: "ReLU"
  bottom: "conv3"
  top: "relu3"
}
layer {
  name: "conv4"
  type: "Convolution"
  bottom: "relu3"
  top: "conv4"
  param {
    lr_mult: 1
    decay_mult: 1
  }
  param {
    lr_mult: 2
    decay_mult: 0
  }
  convolution_param {
    num_output: 384
    pad: 1
    kernel_size: 3
    group: 1
    weight_filler {
      type: "gaussian"
      std: 0.01
    }
    bias_filler {
      type: "constant"
      value: 1
    }
  }
}
layer {
  name: "relu4"
  type: "ReLU"
  bottom: "conv4"
  top: "relu4"
}
layer {
  name: "conv5"
  type: "Convolution"
  bottom: "relu4"
  top: "conv5"
  param {
    lr_mult: 1
    decay_mult: 1
  }
  param {
    lr_mult: 2
    decay_mult: 0
  }
  convolution_param {
    num_output: 256
    pad: 1
    kernel_size: 3
    group: 1
    weight_filler {
      type: "gaussian"
      std: 0.01
    }
    bias_filler {
      type: "constant"
      value: 1
    }
  }
}
layer {
  name: "relu5"
  type: "ReLU"
  bottom: "conv5"
  top: "relu5"
}
layer {
  name: "pool5"
  type: "Pooling"
  bottom: "relu5"
  top: "pool5"
  pooling_param {
    pool: MAX
    kernel_size: 3
    stride: 2
  }
}
layer {
  name: "fc6"
  type: "InnerProduct"
  bottom: "pool5"
  top: "fc6"
  param {
    lr_mult: 1
    decay_mult: 1
  }
  param {
    lr_mult: 2
    decay_mult: 0
  }
  inner_product_param {
    num_output: 4096
    weight_filler {
      type: "gaussian"
      std: 0.005
    }
    bias_filler {
      type: "constant"
      value: 1
    }
  }
}
layer {
  name: "relu6"
  type: "ReLU"
  bottom: "fc6"
  top: "relu6"
}
layer {
  name: "drop6"
  type: "Dropout"
  bottom: "relu6"
  top: "drop6"
  dropout_param {
    dropout_ratio: 0.5
  }
}
layer {
  name: "fc7"
  type: "InnerProduct"
  bottom: "drop6"
  top: "fc7"
  param {
    lr_mult: 1
    decay_mult: 1
  }
  param {
    lr_mult: 2
    decay_mult: 0
  }
  inner_product_param {
    num_output: 4096
    weight_filler {
      type: "gaussian"
      std: 0.005
    }
    bias_filler {
      type: "constant"
      value: 1
    }
  }
}
layer {
  name: "bn7"
  type: "BatchNorm"
  bottom: "fc7"
  top: "bn7"
  param {
    lr_mult: 0
  }
  param {
    lr_mult: 0
  }
  param {
    lr_mult: 0
  }
  batch_norm_param {
    use_global_stats: true
  }
}
layer {
  name: "relu7"
  type: "ReLU"
  bottom: "bn7"
  top: "relu7"
}
layer {
  name: "drop7"
  type: "Dropout"
  bottom: "relu7"
  top: "drop7"
  dropout_param {
    dropout_ratio: 0.5
  }
}
layer {
  name: "fc8"
  type: "InnerProduct"
  bottom: "drop7"
  top: "fc8"
  param {
    lr_mult: 1
    decay_mult: 1
  }
  param {
    lr_mult: 2
    decay_mult: 0
  }
  inner_product_param {
    num_output: 2
    weight_filler {
      type: "gaussian"
      std: 0.01
    }
    bias_filler {
      type: "constant"
      value: 0
    }
  }
}
layer {
  name: "prob"
  type: "Softmax"
  bottom: "fc8"
  top: "prob"
}
I0625 02:03:40.537075  2637 layer_factory.hpp:77] Creating layer data
I0625 02:03:40.537098  2637 net.cpp:94] Creating Layer data
I0625 02:03:40.537115  2637 net.cpp:409] data -> data
I0625 02:03:40.537196  2637 net.cpp:144] Setting up data
I0625 02:03:40.537206  2637 net.cpp:151] Top shape: 1 3 227 227 (154587)
I0625 02:03:40.537218  2637 net.cpp:159] Memory required for data: 618348
I0625 02:03:40.537225  2637 layer_factory.hpp:77] Creating layer conv1
I0625 02:03:40.537248  2637 net.cpp:94] Creating Layer conv1
I0625 02:03:40.537256  2637 net.cpp:435] conv1 <- data
I0625 02:03:40.537264  2637 net.cpp:409] conv1 -> conv1
I0625 02:03:40.538889  2637 net.cpp:144] Setting up conv1
I0625 02:03:40.538903  2637 net.cpp:151] Top shape: 1 96 55 55 (290400)
I0625 02:03:40.538914  2637 net.cpp:159] Memory required for data: 1779948
I0625 02:03:40.538931  2637 layer_factory.hpp:77] Creating layer bn1
I0625 02:03:40.538942  2637 net.cpp:94] Creating Layer bn1
I0625 02:03:40.538949  2637 net.cpp:435] bn1 <- conv1
I0625 02:03:40.538959  2637 net.cpp:409] bn1 -> bn1
I0625 02:03:40.540053  2637 net.cpp:144] Setting up bn1
I0625 02:03:40.540064  2637 net.cpp:151] Top shape: 1 96 55 55 (290400)
I0625 02:03:40.540073  2637 net.cpp:159] Memory required for data: 2941548
I0625 02:03:40.540091  2637 layer_factory.hpp:77] Creating layer relu1
I0625 02:03:40.540102  2637 net.cpp:94] Creating Layer relu1
I0625 02:03:40.540108  2637 net.cpp:435] relu1 <- bn1
I0625 02:03:40.540115  2637 net.cpp:409] relu1 -> relu1
I0625 02:03:40.540158  2637 net.cpp:144] Setting up relu1
I0625 02:03:40.540166  2637 net.cpp:151] Top shape: 1 96 55 55 (290400)
I0625 02:03:40.540175  2637 net.cpp:159] Memory required for data: 4103148
I0625 02:03:40.540181  2637 layer_factory.hpp:77] Creating layer pool1
I0625 02:03:40.540191  2637 net.cpp:94] Creating Layer pool1
I0625 02:03:40.540200  2637 net.cpp:435] pool1 <- relu1
I0625 02:03:40.540208  2637 net.cpp:409] pool1 -> pool1
I0625 02:03:40.540257  2637 net.cpp:144] Setting up pool1
I0625 02:03:40.540266  2637 net.cpp:151] Top shape: 1 96 27 27 (69984)
I0625 02:03:40.540274  2637 net.cpp:159] Memory required for data: 4383084
I0625 02:03:40.540280  2637 layer_factory.hpp:77] Creating layer conv2
I0625 02:03:40.540294  2637 net.cpp:94] Creating Layer conv2
I0625 02:03:40.540307  2637 net.cpp:435] conv2 <- pool1
I0625 02:03:40.540315  2637 net.cpp:409] conv2 -> conv2
I0625 02:03:40.553406  2637 net.cpp:144] Setting up conv2
I0625 02:03:40.553423  2637 net.cpp:151] Top shape: 1 256 27 27 (186624)
I0625 02:03:40.553431  2637 net.cpp:159] Memory required for data: 5129580
I0625 02:03:40.553442  2637 layer_factory.hpp:77] Creating layer bn2
I0625 02:03:40.553454  2637 net.cpp:94] Creating Layer bn2
I0625 02:03:40.553459  2637 net.cpp:435] bn2 <- conv2
I0625 02:03:40.553467  2637 net.cpp:409] bn2 -> bn2
I0625 02:03:40.554111  2637 net.cpp:144] Setting up bn2
I0625 02:03:40.554119  2637 net.cpp:151] Top shape: 1 256 27 27 (186624)
I0625 02:03:40.554126  2637 net.cpp:159] Memory required for data: 5876076
I0625 02:03:40.554136  2637 layer_factory.hpp:77] Creating layer relu2
I0625 02:03:40.554142  2637 net.cpp:94] Creating Layer relu2
I0625 02:03:40.554147  2637 net.cpp:435] relu2 <- bn2
I0625 02:03:40.554153  2637 net.cpp:409] relu2 -> relu2
I0625 02:03:40.554173  2637 net.cpp:144] Setting up relu2
I0625 02:03:40.554180  2637 net.cpp:151] Top shape: 1 256 27 27 (186624)
I0625 02:03:40.554185  2637 net.cpp:159] Memory required for data: 6622572
I0625 02:03:40.554189  2637 layer_factory.hpp:77] Creating layer pool2
I0625 02:03:40.554196  2637 net.cpp:94] Creating Layer pool2
I0625 02:03:40.554200  2637 net.cpp:435] pool2 <- relu2
I0625 02:03:40.554206  2637 net.cpp:409] pool2 -> pool2
I0625 02:03:40.554240  2637 net.cpp:144] Setting up pool2
I0625 02:03:40.554246  2637 net.cpp:151] Top shape: 1 256 13 13 (43264)
I0625 02:03:40.554252  2637 net.cpp:159] Memory required for data: 6795628
I0625 02:03:40.554256  2637 layer_factory.hpp:77] Creating layer conv3
I0625 02:03:40.554265  2637 net.cpp:94] Creating Layer conv3
I0625 02:03:40.554268  2637 net.cpp:435] conv3 <- pool2
I0625 02:03:40.554275  2637 net.cpp:409] conv3 -> conv3
I0625 02:03:40.565874  2637 net.cpp:144] Setting up conv3
I0625 02:03:40.565887  2637 net.cpp:151] Top shape: 1 384 13 13 (64896)
I0625 02:03:40.565893  2637 net.cpp:159] Memory required for data: 7055212
I0625 02:03:40.565901  2637 layer_factory.hpp:77] Creating layer relu3
I0625 02:03:40.565907  2637 net.cpp:94] Creating Layer relu3
I0625 02:03:40.565910  2637 net.cpp:435] relu3 <- conv3
I0625 02:03:40.565915  2637 net.cpp:409] relu3 -> relu3
I0625 02:03:40.565933  2637 net.cpp:144] Setting up relu3
I0625 02:03:40.565937  2637 net.cpp:151] Top shape: 1 384 13 13 (64896)
I0625 02:03:40.565940  2637 net.cpp:159] Memory required for data: 7314796
I0625 02:03:40.565943  2637 layer_factory.hpp:77] Creating layer conv4
I0625 02:03:40.565951  2637 net.cpp:94] Creating Layer conv4
I0625 02:03:40.565954  2637 net.cpp:435] conv4 <- relu3
I0625 02:03:40.565958  2637 net.cpp:409] conv4 -> conv4
I0625 02:03:40.578052  2637 net.cpp:144] Setting up conv4
I0625 02:03:40.578063  2637 net.cpp:151] Top shape: 1 384 13 13 (64896)
I0625 02:03:40.578069  2637 net.cpp:159] Memory required for data: 7574380
I0625 02:03:40.578094  2637 layer_factory.hpp:77] Creating layer relu4
I0625 02:03:40.578099  2637 net.cpp:94] Creating Layer relu4
I0625 02:03:40.578102  2637 net.cpp:435] relu4 <- conv4
I0625 02:03:40.578106  2637 net.cpp:409] relu4 -> relu4
I0625 02:03:40.578124  2637 net.cpp:144] Setting up relu4
I0625 02:03:40.578126  2637 net.cpp:151] Top shape: 1 384 13 13 (64896)
I0625 02:03:40.578130  2637 net.cpp:159] Memory required for data: 7833964
I0625 02:03:40.578132  2637 layer_factory.hpp:77] Creating layer conv5
I0625 02:03:40.578138  2637 net.cpp:94] Creating Layer conv5
I0625 02:03:40.578140  2637 net.cpp:435] conv5 <- relu4
I0625 02:03:40.578143  2637 net.cpp:409] conv5 -> conv5
I0625 02:03:40.585901  2637 net.cpp:144] Setting up conv5
I0625 02:03:40.585913  2637 net.cpp:151] Top shape: 1 256 13 13 (43264)
I0625 02:03:40.585918  2637 net.cpp:159] Memory required for data: 8007020
I0625 02:03:40.585925  2637 layer_factory.hpp:77] Creating layer relu5
I0625 02:03:40.585930  2637 net.cpp:94] Creating Layer relu5
I0625 02:03:40.585933  2637 net.cpp:435] relu5 <- conv5
I0625 02:03:40.585937  2637 net.cpp:409] relu5 -> relu5
I0625 02:03:40.585953  2637 net.cpp:144] Setting up relu5
I0625 02:03:40.585956  2637 net.cpp:151] Top shape: 1 256 13 13 (43264)
I0625 02:03:40.585959  2637 net.cpp:159] Memory required for data: 8180076
I0625 02:03:40.585963  2637 layer_factory.hpp:77] Creating layer pool5
I0625 02:03:40.585968  2637 net.cpp:94] Creating Layer pool5
I0625 02:03:40.585971  2637 net.cpp:435] pool5 <- relu5
I0625 02:03:40.585974  2637 net.cpp:409] pool5 -> pool5
I0625 02:03:40.586009  2637 net.cpp:144] Setting up pool5
I0625 02:03:40.586012  2637 net.cpp:151] Top shape: 1 256 6 6 (9216)
I0625 02:03:40.586015  2637 net.cpp:159] Memory required for data: 8216940
I0625 02:03:40.586019  2637 layer_factory.hpp:77] Creating layer fc6
I0625 02:03:40.586025  2637 net.cpp:94] Creating Layer fc6
I0625 02:03:40.586028  2637 net.cpp:435] fc6 <- pool5
I0625 02:03:40.586031  2637 net.cpp:409] fc6 -> fc6
I0625 02:03:40.884820  2637 net.cpp:144] Setting up fc6
I0625 02:03:40.884842  2637 net.cpp:151] Top shape: 1 4096 (4096)
I0625 02:03:40.884850  2637 net.cpp:159] Memory required for data: 8233324
I0625 02:03:40.884861  2637 layer_factory.hpp:77] Creating layer relu6
I0625 02:03:40.884869  2637 net.cpp:94] Creating Layer relu6
I0625 02:03:40.884873  2637 net.cpp:435] relu6 <- fc6
I0625 02:03:40.884878  2637 net.cpp:409] relu6 -> relu6
I0625 02:03:40.884896  2637 net.cpp:144] Setting up relu6
I0625 02:03:40.884897  2637 net.cpp:151] Top shape: 1 4096 (4096)
I0625 02:03:40.884901  2637 net.cpp:159] Memory required for data: 8249708
I0625 02:03:40.884902  2637 layer_factory.hpp:77] Creating layer drop6
I0625 02:03:40.884907  2637 net.cpp:94] Creating Layer drop6
I0625 02:03:40.884909  2637 net.cpp:435] drop6 <- relu6
I0625 02:03:40.884912  2637 net.cpp:409] drop6 -> drop6
I0625 02:03:40.884946  2637 net.cpp:144] Setting up drop6
I0625 02:03:40.884948  2637 net.cpp:151] Top shape: 1 4096 (4096)
I0625 02:03:40.884951  2637 net.cpp:159] Memory required for data: 8266092
I0625 02:03:40.884953  2637 layer_factory.hpp:77] Creating layer fc7
I0625 02:03:40.884959  2637 net.cpp:94] Creating Layer fc7
I0625 02:03:40.884963  2637 net.cpp:435] fc7 <- drop6
I0625 02:03:40.884965  2637 net.cpp:409] fc7 -> fc7
I0625 02:03:41.017315  2637 net.cpp:144] Setting up fc7
I0625 02:03:41.017338  2637 net.cpp:151] Top shape: 1 4096 (4096)
I0625 02:03:41.017344  2637 net.cpp:159] Memory required for data: 8282476
I0625 02:03:41.017355  2637 layer_factory.hpp:77] Creating layer bn7
I0625 02:03:41.017364  2637 net.cpp:94] Creating Layer bn7
I0625 02:03:41.017369  2637 net.cpp:435] bn7 <- fc7
I0625 02:03:41.017375  2637 net.cpp:409] bn7 -> bn7
I0625 02:03:41.017885  2637 net.cpp:144] Setting up bn7
I0625 02:03:41.017891  2637 net.cpp:151] Top shape: 1 4096 (4096)
I0625 02:03:41.017895  2637 net.cpp:159] Memory required for data: 8298860
I0625 02:03:41.017904  2637 layer_factory.hpp:77] Creating layer relu7
I0625 02:03:41.017908  2637 net.cpp:94] Creating Layer relu7
I0625 02:03:41.017911  2637 net.cpp:435] relu7 <- bn7
I0625 02:03:41.017915  2637 net.cpp:409] relu7 -> relu7
I0625 02:03:41.017931  2637 net.cpp:144] Setting up relu7
I0625 02:03:41.017936  2637 net.cpp:151] Top shape: 1 4096 (4096)
I0625 02:03:41.017940  2637 net.cpp:159] Memory required for data: 8315244
I0625 02:03:41.017943  2637 layer_factory.hpp:77] Creating layer drop7
I0625 02:03:41.017949  2637 net.cpp:94] Creating Layer drop7
I0625 02:03:41.017952  2637 net.cpp:435] drop7 <- relu7
I0625 02:03:41.017956  2637 net.cpp:409] drop7 -> drop7
I0625 02:03:41.017979  2637 net.cpp:144] Setting up drop7
I0625 02:03:41.017984  2637 net.cpp:151] Top shape: 1 4096 (4096)
I0625 02:03:41.017987  2637 net.cpp:159] Memory required for data: 8331628
I0625 02:03:41.017992  2637 layer_factory.hpp:77] Creating layer fc8
I0625 02:03:41.017997  2637 net.cpp:94] Creating Layer fc8
I0625 02:03:41.017999  2637 net.cpp:435] fc8 <- drop7
I0625 02:03:41.018003  2637 net.cpp:409] fc8 -> fc8
I0625 02:03:41.018154  2637 net.cpp:144] Setting up fc8
I0625 02:03:41.018159  2637 net.cpp:151] Top shape: 1 2 (2)
I0625 02:03:41.018162  2637 net.cpp:159] Memory required for data: 8331636
I0625 02:03:41.018167  2637 layer_factory.hpp:77] Creating layer prob
I0625 02:03:41.018172  2637 net.cpp:94] Creating Layer prob
I0625 02:03:41.018174  2637 net.cpp:435] prob <- fc8
I0625 02:03:41.018179  2637 net.cpp:409] prob -> prob
I0625 02:03:41.018226  2637 net.cpp:144] Setting up prob
I0625 02:03:41.018231  2637 net.cpp:151] Top shape: 1 2 (2)
I0625 02:03:41.018234  2637 net.cpp:159] Memory required for data: 8331644
I0625 02:03:41.018239  2637 net.cpp:222] prob does not need backward computation.
I0625 02:03:41.018241  2637 net.cpp:222] fc8 does not need backward computation.
I0625 02:03:41.018244  2637 net.cpp:222] drop7 does not need backward computation.
I0625 02:03:41.018247  2637 net.cpp:222] relu7 does not need backward computation.
…
I0630 08:20:42.288275   120 net.cpp:323] The NetState phase (0) differed from the phase (1) specified by a rule in layer accuracy-top1
I0630 08:20:42.288280   120 net.cpp:52] Initializing net from parameters:
state {
  phase: TRAIN
}
layer {
  name: "data"
  type: "ImageData"
  top: "data"
  top: "label"
  include {
    phase: TRAIN
  }
  transform_param {
    crop_size: 227
    mean_value: 106
    mean_value: 116
    mean_value: 124
  }
  image_data_param {
    source: "deploy/alexnetBNnoLRN/quantiz/data/calib/calibration.txt"
    batch_size: 10
    shuffle: true
    root_folder: "deploy/alexnetBNnoLRN/quantiz/data/calib/"
  }
}
layer {
  name: "conv1"
  type: "Convolution"
  bottom: "data"
  top: "conv1"
  param {
    lr_mult: 1
    decay_mult: 1
  }
  param {
    lr_mult: 2
    decay_mult: 0
  }
  convolution_param {
    num_output: 96
    pad: 1
    kernel_size: 11
    stride: 4
    weight_filler {
      type: "gaussian"
      std: 0.01
    }
    bias_filler {
      type: "constant"
      value: 0
    }
  }
}
layer {
  name: "bn1"
  type: "BatchNorm"
  bottom: "conv1"
  top: "bn1"
  param {
    lr_mult: 0
  }
  param {
    lr_mult: 0
  }
  param {
    lr_mult: 0
  }
  batch_norm_param {
    use_global_stats: false
  }
}
layer {
  name: "relu1"
  type: "ReLU"
  bottom: "bn1"
  top: "relu1"
}
layer {
  name: "pool1"
  type: "Pooling"
  bottom: "relu1"
  top: "pool1"
  pooling_param {
    pool: MAX
    kernel_size: 3
    stride: 2
  }
}
layer {
  name: "conv2"
  type: "Convolution"
  bottom: "pool1"
  top: "conv2"
  param {
    lr_mult: 1
    decay_mult: 1
  }
  param {
    lr_mult: 2
    decay_mult: 0
  }
  convolution_param {
    num_output: 256
    pad: 2
    kernel_size: 5
    group: 1
    weight_filler {
      type: "gaussian"
      std: 0.01
    }
    bias_filler {
      type: "constant"
      value: 1
    }
  }
}
layer {
  name: "bn2"
  type: "BatchNorm"
  bottom: "conv2"
  top: "bn2"
  param {
    lr_mult: 0
  }
  param {
    lr_mult: 0
  }
  param {
    lr_mult: 0
  }
  batch_norm_param {
    use_global_stats: false
  }
}
layer {
  name: "relu2"
  type: "ReLU"
  bottom: "bn2"
  top: "relu2"
}
layer {
  name: "pool2"
  type: "Pooling"
  bottom: "relu2"
  top: "pool2"
  pooling_param {
    pool: MAX
    kernel_size: 3
    stride: 2
  }
}
layer {
  name: "conv3"
  type: "Convolution"
  bottom: "pool2"
  top: "conv3"
  param {
    lr_mult: 1
    decay_mult: 1
  }
  param {
    lr_mult: 2
    decay_mult: 0
  }
  convolution_param {
    num_output: 384
    pad: 1
    kernel_size: 3
    weight_filler {
      type: "gaussian"
      std: 0.01
    }
    bias_filler {
      type: "constant"
      value: 0
    }
  }
}
layer {
  name: "relu3"
  type: "ReLU"
  bottom: "conv3"
  top: "relu3"
}
layer {
  name: "conv4"
  type: "Convolution"
  bottom: "relu3"
  top: "conv4"
  param {
    lr_mult: 1
    decay_mult: 1
  }
  param {
    lr_mult: 2
    decay_mult: 0
  }
  convolution_param {
    num_output: 384
    pad: 1
    kernel_size: 3
    group: 1
    weight_filler {
      type: "gaussian"
      std: 0.01
    }
    bias_filler {
      type: "constant"
      value: 1
    }
  }
}
layer {
  name: "relu4"
  type: "ReLU"
  bottom: "conv4"
  top: "relu4"
}
layer {
  name: "conv5"
  type: "Convolution"
  bottom: "relu4"
  top: "conv5"
  param {
    lr_mult: 1
    decay_mult: 1
  }
  param {
    lr_mult: 2
    decay_mult: 0
  }
  convolution_param {
    num_output: 256
    pad: 1
    kernel_size: 3
    group: 1
    weight_filler {
      type: "gaussian"
      std: 0.01
    }
    bias_filler {
      type: "constant"
      value: 1
    }
  }
}
layer {
  name: "relu5"
  type: "ReLU"
  bottom: "conv5"
  top: "relu5"
}
layer {
  name: "pool5"
  type: "Pooling"
  bottom: "relu5"
  top: "pool5"
  pooling_param {
    pool: MAX
    kernel_size: 3
    stride: 2
  }
}
layer {
  name: "fc6"
  type: "InnerProduct"
  bottom: "pool5"
  top: "fc6"
  param {
    lr_mult: 1
    decay_mult: 1
  }
  param {
    lr_mult: 2
    decay_mult: 0
  }
  inner_product_param {
    num_output: 4096
    weight_filler {
      type: "gaussian"
      std: 0.005
    }
    bias_filler {
      type: "constant"
      value: 1
    }
  }
}
layer {
  name: "relu6"
  type: "ReLU"
  bottom: "fc6"
  top: "relu6"
}
layer {
  name: "fc7"
  type: "InnerProduct"
  bottom: "relu6"
  top: "fc7"
  param {
    lr_mult: 1
    decay_mult: 1
  }
  param {
    lr_mult: 2
    decay_mult: 0
  }
  inner_product_param {
    num_output: 4096
    weight_filler {
      type: "gaussian"
      std: 0.005
    }
    bias_filler {
      type: "constant"
      value: 1
    }
  }
}
layer {
  name: "bn7"
  type: "BatchNorm"
  bottom: "fc7"
  top: "bn7"
  param {
    lr_mult: 0
  }
  param {
    lr_mult: 0
  }
  param {
    lr_mult: 0
  }
  batch_norm_param {
    use_global_stats: false
  }
}
layer {
  name: "relu7"
  type: "ReLU"
  bottom: "bn7"
  top: "relu7"
}
layer {
  name: "fc8"
  type: "InnerProduct"
  bottom: "relu7"
  top: "fc8"
  param {
    lr_mult: 1
    decay_mult: 1
  }
  param {
    lr_mult: 2
    decay_mult: 0
  }
  inner_product_param {
    num_output: 2
    weight_filler {
      type: "gaussian"
      std: 0.01
    }
    bias_filler {
      type: "constant"
      value: 0
    }
  }
}
layer {
  name: "loss"
  type: "SoftmaxWithLoss"
  bottom: "fc8"
  bottom: "label"
  top: "loss"
}
I0630 08:20:42.288488   120 layer_factory.hpp:77] Creating layer data
I0630 08:20:42.288509   120 net.cpp:94] Creating Layer data
I0630 08:20:42.288514   120 net.cpp:409] data -> data
I0630 08:20:42.288527   120 net.cpp:409] data -> label
I0630 08:20:42.288906   120 image_data_layer.cpp:41] Opening file deploy/alexnetBNnoLRN/quantiz/data/calib/calibration.txt
I0630 08:20:42.289039   120 image_data_layer.cpp:51] Shuffling data
I0630 08:20:42.289054   120 image_data_layer.cpp:56] A total of 200 images.
I0630 08:20:42.290529   120 image_data_layer.cpp:84] output data size: 10,3,227,227
I0630 08:20:42.312175   120 internal_thread.cpp:27] Starting internal thread(s) on GPU 0
I0630 08:20:42.312269   120 net.cpp:144] Setting up data
I0630 08:20:42.312274   120 net.cpp:151] Top shape: 10 3 227 227 (1545870)
I0630 08:20:42.312288   120 net.cpp:151] Top shape: 10 (10)
I0630 08:20:42.312291   120 net.cpp:159] Memory required for data: 6183520
I0630 08:20:42.312296   120 layer_factory.hpp:77] Creating layer conv1
I0630 08:20:42.312312   120 net.cpp:94] Creating Layer conv1
I0630 08:20:42.312317   120 net.cpp:435] conv1 <- data
I0630 08:20:42.312325   120 net.cpp:409] conv1 -> conv1
I0630 08:20:42.312908   120 net.cpp:144] Setting up conv1
I0630 08:20:42.312916   120 net.cpp:151] Top shape: 10 96 55 55 (2904000)
I0630 08:20:42.312920   120 net.cpp:159] Memory required for data: 17799520
I0630 08:20:42.312940   120 layer_factory.hpp:77] Creating layer bn1
I0630 08:20:42.312949   120 net.cpp:94] Creating Layer bn1
I0630 08:20:42.312953   120 net.cpp:435] bn1 <- conv1
I0630 08:20:42.312958   120 net.cpp:409] bn1 -> bn1
I0630 08:20:42.313474   120 net.cpp:144] Setting up bn1
I0630 08:20:42.313480   120 net.cpp:151] Top shape: 10 96 55 55 (2904000)
I0630 08:20:42.313484   120 net.cpp:159] Memory required for data: 29415520
I0630 08:20:42.313493   120 layer_factory.hpp:77] Creating layer relu1
I0630 08:20:42.313498   120 net.cpp:94] Creating Layer relu1
I0630 08:20:42.313500   120 net.cpp:435] relu1 <- bn1
I0630 08:20:42.313504   120 net.cpp:409] relu1 -> relu1
I0630 08:20:42.313519   120 net.cpp:144] Setting up relu1
I0630 08:20:42.313522   120 net.cpp:151] Top shape: 10 96 55 55 (2904000)
I0630 08:20:42.313526   120 net.cpp:159] Memory required for data: 41031520
I0630 08:20:42.313529   120 layer_factory.hpp:77] Creating layer pool1
I0630 08:20:42.313534   120 net.cpp:94] Creating Layer pool1
I0630 08:20:42.313537   120 net.cpp:435] pool1 <- relu1
I0630 08:20:42.313541   120 net.cpp:409] pool1 -> pool1
I0630 08:20:42.313565   120 net.cpp:144] Setting up pool1
I0630 08:20:42.313570   120 net.cpp:151] Top shape: 10 96 27 27 (699840)
I0630 08:20:42.313575   120 net.cpp:159] Memory required for data: 43830880
I0630 08:20:42.313576   120 layer_factory.hpp:77] Creating layer conv2
I0630 08:20:42.313583   120 net.cpp:94] Creating Layer conv2
I0630 08:20:42.313586   120 net.cpp:435] conv2 <- pool1
I0630 08:20:42.313591   120 net.cpp:409] conv2 -> conv2
I0630 08:20:42.319602   120 net.cpp:144] Setting up conv2
I0630 08:20:42.319615   120 net.cpp:151] Top shape: 10 256 27 27 (1866240)
I0630 08:20:42.319622   120 net.cpp:159] Memory required for data: 51295840
I0630 08:20:42.319645   120 layer_factory.hpp:77] Creating layer bn2
I0630 08:20:42.319653   120 net.cpp:94] Creating Layer bn2
I0630 08:20:42.319656   120 net.cpp:435] bn2 <- conv2
I0630 08:20:42.319662   120 net.cpp:409] bn2 -> bn2
I0630 08:20:42.320101   120 net.cpp:144] Setting up bn2
I0630 08:20:42.320107   120 net.cpp:151] Top shape: 10 256 27 27 (1866240)
I0630 08:20:42.320112   120 net.cpp:159] Memory required for data: 58760800
I0630 08:20:42.320118   120 layer_factory.hpp:77] Creating layer relu2
I0630 08:20:42.320123   120 net.cpp:94] Creating Layer relu2
I0630 08:20:42.320127   120 net.cpp:435] relu2 <- bn2
I0630 08:20:42.320129   120 net.cpp:409] relu2 -> relu2
I0630 08:20:42.320145   120 net.cpp:144] Setting up relu2
I0630 08:20:42.320150   120 net.cpp:151] Top shape: 10 256 27 27 (1866240)
I0630 08:20:42.320154   120 net.cpp:159] Memory required for data: 66225760
I0630 08:20:42.320158   120 layer_factory.hpp:77] Creating layer pool2
I0630 08:20:42.320163   120 net.cpp:94] Creating Layer pool2
I0630 08:20:42.320165   120 net.cpp:435] pool2 <- relu2
I0630 08:20:42.320169   120 net.cpp:409] pool2 -> pool2
I0630 08:20:42.320191   120 net.cpp:144] Setting up pool2
I0630 08:20:42.320195   120 net.cpp:151] Top shape: 10 256 13 13 (432640)
I0630 08:20:42.320200   120 net.cpp:159] Memory required for data: 67956320
I0630 08:20:42.320204   120 layer_factory.hpp:77] Creating layer conv3
I0630 08:20:42.320210   120 net.cpp:94] Creating Layer conv3
I0630 08:20:42.320212   120 net.cpp:435] conv3 <- pool2
I0630 08:20:42.320216   120 net.cpp:409] conv3 -> conv3
I0630 08:20:42.327975   120 net.cpp:144] Setting up conv3
I0630 08:20:42.327987   120 net.cpp:151] Top shape: 10 384 13 13 (648960)
I0630 08:20:42.327992   120 net.cpp:159] Memory required for data: 70552160
I0630 08:20:42.328001   120 layer_factory.hpp:77] Creating layer relu3
I0630 08:20:42.328006   120 net.cpp:94] Creating Layer relu3
I0630 08:20:42.328009   120 net.cpp:435] relu3 <- conv3
I0630 08:20:42.328013   120 net.cpp:409] relu3 -> relu3
I0630 08:20:42.328029   120 net.cpp:144] Setting up relu3
I0630 08:20:42.328032   120 net.cpp:151] Top shape: 10 384 13 13 (648960)
I0630 08:20:42.328035   120 net.cpp:159] Memory required for data: 73148000
I0630 08:20:42.328037   120 layer_factory.hpp:77] Creating layer conv4
I0630 08:20:42.328043   120 net.cpp:94] Creating Layer conv4
I0630 08:20:42.328047   120 net.cpp:435] conv4 <- relu3
I0630 08:20:42.328049   120 net.cpp:409] conv4 -> conv4
I0630 08:20:42.339404   120 net.cpp:144] Setting up conv4
I0630 08:20:42.339418   120 net.cpp:151] Top shape: 10 384 13 13 (648960)
I0630 08:20:42.339424   120 net.cpp:159] Memory required for data: 75743840
I0630 08:20:42.339434   120 layer_factory.hpp:77] Creating layer relu4
I0630 08:20:42.339439   120 net.cpp:94] Creating Layer relu4
I0630 08:20:42.339442   120 net.cpp:435] relu4 <- conv4
I0630 08:20:42.339447   120 net.cpp:409] relu4 -> relu4
I0630 08:20:42.339463   120 net.cpp:144] Setting up relu4
I0630 08:20:42.339466   120 net.cpp:151] Top shape: 10 384 13 13 (648960)
I0630 08:20:42.339469   120 net.cpp:159] Memory required for data: 78339680
I0630 08:20:42.339471   120 layer_factory.hpp:77] Creating layer conv5
I0630 08:20:42.339478   120 net.cpp:94] Creating Layer conv5
I0630 08:20:42.339480   120 net.cpp:435] conv5 <- relu4
I0630 08:20:42.339484   120 net.cpp:409] conv5 -> conv5
I0630 08:20:42.347358   120 net.cpp:144] Setting up conv5
I0630 08:20:42.347370   120 net.cpp:151] Top shape: 10 256 13 13 (432640)
I0630 08:20:42.347375   120 net.cpp:159] Memory required for data: 80070240
I0630 08:20:42.347383   120 layer_factory.hpp:77] Creating layer relu5
I0630 08:20:42.347388   120 net.cpp:94] Creating Layer relu5
I0630 08:20:42.347391   120 net.cpp:435] relu5 <- conv5
I0630 08:20:42.347395   120 net.cpp:409] relu5 -> relu5
I0630 08:20:42.347411   120 net.cpp:144] Setting up relu5
I0630 08:20:42.347415   120 net.cpp:151] Top shape: 10 256 13 13 (432640)
I0630 08:20:42.347419   120 net.cpp:159] Memory required for data: 81800800
I0630 08:20:42.347420   120 layer_factory.hpp:77] Creating layer pool5
I0630 08:20:42.347425   120 net.cpp:94] Creating Layer pool5
I0630 08:20:42.347427   120 net.cpp:435] pool5 <- relu5
I0630 08:20:42.347430   120 net.cpp:409] pool5 -> pool5
I0630 08:20:42.347450   120 net.cpp:144] Setting up pool5
I0630 08:20:42.347452   120 net.cpp:151] Top shape: 10 256 6 6 (92160)
I0630 08:20:42.347455   120 net.cpp:159] Memory required for data: 82169440
I0630 08:20:42.347458   120 layer_factory.hpp:77] Creating layer fc6
I0630 08:20:42.347465   120 net.cpp:94] Creating Layer fc6
I0630 08:20:42.347467   120 net.cpp:435] fc6 <- pool5
I0630 08:20:42.347471   120 net.cpp:409] fc6 -> fc6
I0630 08:20:42.658249   120 net.cpp:144] Setting up fc6
I0630 08:20:42.658272   120 net.cpp:151] Top shape: 10 4096 (40960)
I0630 08:20:42.658278   120 net.cpp:159] Memory required for data: 82333280
I0630 08:20:42.658290   120 layer_factory.hpp:77] Creating layer relu6
I0630 08:20:42.658298   120 net.cpp:94] Creating Layer relu6
I0630 08:20:42.658301   120 net.cpp:435] relu6 <- fc6
I0630 08:20:42.658308   120 net.cpp:409] relu6 -> relu6
I0630 08:20:42.658331   120 net.cpp:144] Setting up relu6
I0630 08:20:42.658334   120 net.cpp:151] Top shape: 10 4096 (40960)
I0630 08:20:42.658337   120 net.cpp:159] Memory required for data: 82497120
I0630 08:20:42.658339   120 layer_factory.hpp:77] Creating layer fc7
I0630 08:20:42.658345   120 net.cpp:94] Creating Layer fc7
I0630 08:20:42.658349   120 net.cpp:435] fc7 <- relu6
I0630 08:20:42.658351   120 net.cpp:409] fc7 -> fc7
I0630 08:20:42.791407   120 net.cpp:144] Setting up fc7
I0630 08:20:42.791431   120 net.cpp:151] Top shape: 10 4096 (40960)
I0630 08:20:42.791437   120 net.cpp:159] Memory required for data: 82660960
I0630 08:20:42.791447   120 layer_factory.hpp:77] Creating layer bn7
I0630 08:20:42.791457   120 net.cpp:94] Creating Layer bn7
I0630 08:20:42.791460   120 net.cpp:435] bn7 <- fc7
I0630 08:20:42.791466   120 net.cpp:409] bn7 -> bn7
I0630 08:20:42.791913   120 net.cpp:144] Setting up bn7
I0630 08:20:42.791918   120 net.cpp:151] Top shape: 10 4096 (40960)
I0630 08:20:42.791923   120 net.cpp:159] Memory required for data: 82824800
I0630 08:20:42.791929   120 layer_factory.hpp:77] Creating layer relu7
I0630 08:20:42.791932   120 net.cpp:94] Creating Layer relu7
I0630 08:20:42.791935   120 net.cpp:435] relu7 <- bn7
I0630 08:20:42.791939   120 net.cpp:409] relu7 -> relu7
I0630 08:20:42.791954   120 net.cpp:144] Setting up relu7
I0630 08:20:42.791955   120 net.cpp:151] Top shape: 10 4096 (40960)
I0630 08:20:42.791960   120 net.cpp:159] Memory required for data: 82988640
I0630 08:20:42.791961   120 layer_factory.hpp:77] Creating layer fc8
I0630 08:20:42.791967   120 net.cpp:94] Creating Layer fc8
I0630 08:20:42.791971   120 net.cpp:435] fc8 <- relu7
I0630 08:20:42.791975   120 net.cpp:409] fc8 -> fc8
I0630 08:20:42.792136   120 net.cpp:144] Setting up fc8
I0630 08:20:42.792141   120 net.cpp:151] Top shape: 10 2 (20)
I0630 08:20:42.792145   120 net.cpp:159] Memory required for data: 82988720
I0630 08:20:42.792148   120 layer_factory.hpp:77] Creating layer loss
I0630 08:20:42.792160   120 net.cpp:94] Creating Layer loss
I0630 08:20:42.792163   120 net.cpp:435] loss <- fc8
I0630 08:20:42.792167   120 net.cpp:435] loss <- label
I0630 08:20:42.792171   120 net.cpp:409] loss -> loss
I0630 08:20:42.792181   120 layer_factory.hpp:77] Creating layer loss
…
I0630 08:20:43.699851   120 net.cpp:323] The NetState phase (0) differed from the phase (1) specified by a rule in layer accuracy-top1
I0630 08:20:43.699869   120 net.cpp:52] Initializing net from parameters:
state {
  phase: TRAIN
}
layer {
  name: "data"
  type: "ImageData"
  top: "data"
  top: "label"
  include {
    phase: TRAIN
  }
  transform_param {
    crop_size: 227
    mean_value: 106
    mean_value: 116
    mean_value: 124
  }
  image_data_param {
    source: "deploy/alexnetBNnoLRN/quantiz/data/calib/calibration.txt"
    batch_size: 10
    shuffle: true
    root_folder: "deploy/alexnetBNnoLRN/quantiz/data/calib/"
  }
}
layer {
  name: "data_fixed"
  type: "FixedNeuron"
  bottom: "data"
  top: "data"
  param {
    lr_mult: 0
    decay_mult: 0
  }
  fixed_param {
    fixed_method: OVER_FLOW
    bit_width: 8
    follow_data_layer: true
  }
}
layer {
  name: "conv1"
  type: "ConvolutionFixed"
  bottom: "data"
  top: "bn1"
  param {
    lr_mult: 1
    decay_mult: 1
  }
  param {
    lr_mult: 1
    decay_mult: 0
  }
  convolution_param {
    num_output: 96
    bias_term: true
    pad: 1
    kernel_size: 11
    stride: 4
    weight_filler {
      type: "gaussian"
      std: 0.01
    }
    bias_filler {
      type: "constant"
      value: 0
    }
  }
  fixed_param {
    fixed_method: DIFF_S
    bit_width: 8
  }
}
layer {
  name: "relu1"
  type: "ReLU"
  bottom: "bn1"
  top: "relu1"
}
layer {
  name: "pool1"
  type: "Pooling"
  bottom: "relu1"
  top: "pool1"
  pooling_param {
    pool: MAX
    kernel_size: 3
    stride: 2
  }
}
layer {
  name: "pool1_fixed"
  type: "FixedNeuron"
  bottom: "pool1"
  top: "pool1"
  param {
    lr_mult: 0
    decay_mult: 0
  }
  fixed_param {
    fixed_method: DIFF_S
    bit_width: 8
  }
}
layer {
  name: "conv2"
  type: "ConvolutionFixed"
  bottom: "pool1"
  top: "bn2"
  param {
    lr_mult: 1
    decay_mult: 1
  }
  param {
    lr_mult: 1
    decay_mult: 0
  }
  convolution_param {
    num_output: 256
    bias_term: true
    pad: 2
    kernel_size: 5
    group: 1
    weight_filler {
      type: "gaussian"
      std: 0.01
    }
    bias_filler {
      type: "constant"
      value: 1
    }
  }
  fixed_param {
    fixed_method: DIFF_S
    bit_width: 8
  }
}
layer {
  name: "relu2"
  type: "ReLU"
  bottom: "bn2"
  top: "relu2"
}
layer {
  name: "pool2"
  type: "Pooling"
  bottom: "relu2"
  top: "pool2"
  pooling_param {
    pool: MAX
    kernel_size: 3
    stride: 2
  }
}
layer {
  name: "pool2_fixed"
  type: "FixedNeuron"
  bottom: "pool2"
  top: "pool2"
  param {
    lr_mult: 0
    decay_mult: 0
  }
  fixed_param {
    fixed_method: DIFF_S
    bit_width: 8
  }
}
layer {
  name: "conv3"
  type: "ConvolutionFixed"
  bottom: "pool2"
  top: "conv3"
  param {
    lr_mult: 1
    decay_mult: 1
  }
  param {
    lr_mult: 2
    decay_mult: 0
  }
  convolution_param {
    num_output: 384
    pad: 1
    kernel_size: 3
    weight_filler {
      type: "gaussian"
      std: 0.01
    }
    bias_filler {
      type: "constant"
      value: 0
    }
  }
  fixed_param {
    fixed_method: DIFF_S
    bit_width: 8
  }
}
layer {
  name: "relu3"
  type: "ReLU"
  bottom: "conv3"
  top: "relu3"
}
layer {
  name: "relu3_fixed"
  type: "FixedNeuron"
  bottom: "relu3"
  top: "relu3"
  param {
    lr_mult: 0
    decay_mult: 0
  }
  fixed_param {
    fixed_method: DIFF_S
    bit_width: 8
  }
}
layer {
  name: "conv4"
  type: "ConvolutionFixed"
  bottom: "relu3"
  top: "conv4"
  param {
    lr_mult: 1
    decay_mult: 1
  }
  param {
    lr_mult: 2
    decay_mult: 0
  }
  convolution_param {
    num_output: 384
    pad: 1
    kernel_size: 3
    group: 1
    weight_filler {
      type: "gaussian"
      std: 0.01
    }
    bias_filler {
      type: "constant"
      value: 1
    }
  }
  fixed_param {
    fixed_method: DIFF_S
    bit_width: 8
  }
}
layer {
  name: "relu4"
  type: "ReLU"
  bottom: "conv4"
  top: "relu4"
}
layer {
  name: "relu4_fixed"
  type: "FixedNeuron"
  bottom: "relu4"
  top: "relu4"
  param {
    lr_mult: 0
    decay_mult: 0
  }
  fixed_param {
    fixed_method: DIFF_S
    bit_width: 8
  }
}
layer {
  name: "conv5"
  type: "ConvolutionFixed"
  bottom: "relu4"
  top: "conv5"
  param {
    lr_mult: 1
    decay_mult: 1
  }
  param {
    lr_mult: 2
    decay_mult: 0
  }
  convolution_param {
    num_output: 256
    pad: 1
    kernel_size: 3
    group: 1
    weight_filler {
      type: "gaussian"
      std: 0.01
    }
    bias_filler {
      type: "constant"
      value: 1
    }
  }
  fixed_param {
    fixed_method: DIFF_S
    bit_width: 8
  }
}
layer {
  name: "relu5"
  type: "ReLU"
  bottom: "conv5"
  top: "relu5"
}
layer {
  name: "pool5"
  type: "Pooling"
  bottom: "relu5"
  top: "pool5"
  pooling_param {
    pool: MAX
    kernel_size: 3
    stride: 2
  }
}
layer {
  name: "pool5_fixed"
  type: "FixedNeuron"
  bottom: "pool5"
  top: "pool5"
  param {
    lr_mult: 0
    decay_mult: 0
  }
  fixed_param {
    fixed_method: DIFF_S
    bit_width: 8
  }
}
layer {
  name: "fc6"
  type: "InnerProductFixed"
  bottom: "pool5"
  top: "fc6"
  param {
    lr_mult: 1
    decay_mult: 1
  }
  param {
    lr_mult: 2
    decay_mult: 0
  }
  inner_product_param {
    num_output: 4096
    weight_filler {
      type: "gaussian"
      std: 0.005
    }
    bias_filler {
      type: "constant"
      value: 1
    }
  }
  fixed_param {
    fixed_method: DIFF_S
    bit_width: 8
  }
}
layer {
  name: "relu6"
  type: "ReLU"
  bottom: "fc6"
  top: "relu6"
}
layer {
  name: "relu6_fixed"
  type: "FixedNeuron"
  bottom: "relu6"
  top: "relu6"
  param {
    lr_mult: 0
    decay_mult: 0
  }
  fixed_param {
    fixed_method: DIFF_S
    bit_width: 8
  }
}
layer {
  name: "fc7"
  type: "InnerProductFixed"
  bottom: "relu6"
  top: "bn7"
  param {
    lr_mult: 1
    decay_mult: 1
  }
  param {
    lr_mult: 1
    decay_mult: 0
  }
  inner_product_param {
    num_output: 4096
    bias_term: true
    weight_filler {
      type: "gaussian"
      std: 0.005
    }
    bias_filler {
      type: "constant"
      value: 1
    }
  }
  fixed_param {
    fixed_method: DIFF_S
    bit_width: 8
  }
}
layer {
  name: "relu7"
  type: "ReLU"
  bottom: "bn7"
  top: "relu7"
}
layer {
  name: "relu7_fixed"
  type: "FixedNeuron"
  bottom: "relu7"
  top: "relu7"
  param {
    lr_mult: 0
    decay_mult: 0
  }
  fixed_param {
    fixed_method: DIFF_S
    bit_width: 8
  }
}
layer {
  name: "fc8"
  type: "InnerProductFixed"
  bottom: "relu7"
  top: "fc8"
  param {
    lr_mult: 1
    decay_mult: 1
  }
  param {
    lr_mult: 2
    decay_mult: 0
  }
  inner_product_param {
    num_output: 2
    weight_filler {
      type: "gaussian"
      std: 0.01
    }
    bias_filler {
      type: "constant"
      value: 0
    }
  }
  fixed_param {
    fixed_method: DIFF_S
    bit_width: 8
  }
}
layer {
  name: "fc8_fixed"
  type: "FixedNeuron"
  bottom: "fc8"
  top: "fc8"
  param {
    lr_mult: 0
    decay_mult: 0
  }
  fixed_param {
    fixed_method: DIFF_S
    bit_width: 8
  }
}
layer {
  name: "loss"
  type: "SoftmaxWithLoss"
  bottom: "fc8"
  bottom: "label"
  top: "loss"
}
I0630 08:20:43.700037   120 layer_factory.hpp:77] Creating layer data
I0630 08:20:43.700048   120 net.cpp:94] Creating Layer data
I0630 08:20:43.700052   120 net.cpp:409] data -> data
I0630 08:20:43.700059   120 net.cpp:409] data -> label
I0630 08:20:43.700068   120 image_data_layer.cpp:41] Opening file deploy/alexnetBNnoLRN/quantiz/data/calib/calibration.txt
I0630 08:20:43.700132   120 image_data_layer.cpp:51] Shuffling data
I0630 08:20:43.700158   120 image_data_layer.cpp:56] A total of 200 images.
I0630 08:20:43.701395   120 image_data_layer.cpp:84] output data size: 10,3,227,227
I0630 08:20:43.723218   120 internal_thread.cpp:27] Starting internal thread(s) on GPU 0
I0630 08:20:43.723284   120 net.cpp:144] Setting up data
I0630 08:20:43.723289   120 net.cpp:151] Top shape: 10 3 227 227 (1545870)
I0630 08:20:43.723296   120 net.cpp:151] Top shape: 10 (10)
I0630 08:20:43.723299   120 net.cpp:159] Memory required for data: 6183520
I0630 08:20:43.723304   120 layer_factory.hpp:77] Creating layer data_fixed
I0630 08:20:43.723321   120 net.cpp:94] Creating Layer data_fixed
I0630 08:20:43.723341   120 net.cpp:435] data_fixed <- data
I0630 08:20:43.723347   120 net.cpp:396] data_fixed -> data (in-place)
I0630 08:20:43.723395   120 net.cpp:144] Setting up data_fixed
I0630 08:20:43.723399   120 net.cpp:151] Top shape: 10 3 227 227 (1545870)
I0630 08:20:43.723403   120 net.cpp:159] Memory required for data: 12367000
I0630 08:20:43.723412   120 layer_factory.hpp:77] Creating layer conv1
I0630 08:20:43.723421   120 net.cpp:94] Creating Layer conv1
I0630 08:20:43.723424   120 net.cpp:435] conv1 <- data
I0630 08:20:43.723428   120 net.cpp:409] conv1 -> bn1
I0630 08:20:43.723938   120 layer_factory.hpp:77] Creating layer conv1
I0630 08:20:43.724457   120 net.cpp:144] Setting up conv1
I0630 08:20:43.724462   120 net.cpp:151] Top shape: 10 96 55 55 (2904000)
I0630 08:20:43.724467   120 net.cpp:159] Memory required for data: 23983000
I0630 08:20:43.724474   120 layer_factory.hpp:77] Creating layer relu1
I0630 08:20:43.724480   120 net.cpp:94] Creating Layer relu1
I0630 08:20:43.724483   120 net.cpp:435] relu1 <- bn1
I0630 08:20:43.724488   120 net.cpp:409] relu1 -> relu1
I0630 08:20:43.724503   120 net.cpp:144] Setting up relu1
I0630 08:20:43.724506   120 net.cpp:151] Top shape: 10 96 55 55 (2904000)
I0630 08:20:43.724509   120 net.cpp:159] Memory required for data: 35599000
I0630 08:20:43.724512   120 layer_factory.hpp:77] Creating layer pool1
I0630 08:20:43.724519   120 net.cpp:94] Creating Layer pool1
I0630 08:20:43.724521   120 net.cpp:435] pool1 <- relu1
I0630 08:20:43.724525   120 net.cpp:409] pool1 -> pool1
I0630 08:20:43.724548   120 net.cpp:144] Setting up pool1
I0630 08:20:43.724553   120 net.cpp:151] Top shape: 10 96 27 27 (699840)
I0630 08:20:43.724556   120 net.cpp:159] Memory required for data: 38398360
I0630 08:20:43.724560   120 layer_factory.hpp:77] Creating layer pool1_fixed
I0630 08:20:43.724565   120 net.cpp:94] Creating Layer pool1_fixed
I0630 08:20:43.724567   120 net.cpp:435] pool1_fixed <- pool1
I0630 08:20:43.724570   120 net.cpp:396] pool1_fixed -> pool1 (in-place)
I0630 08:20:43.724591   120 net.cpp:144] Setting up pool1_fixed
I0630 08:20:43.724594   120 net.cpp:151] Top shape: 10 96 27 27 (699840)
I0630 08:20:43.724598   120 net.cpp:159] Memory required for data: 41197720
I0630 08:20:43.724601   120 layer_factory.hpp:77] Creating layer conv2
I0630 08:20:43.724607   120 net.cpp:94] Creating Layer conv2
I0630 08:20:43.724611   120 net.cpp:435] conv2 <- pool1
I0630 08:20:43.724614   120 net.cpp:409] conv2 -> bn2
I0630 08:20:43.730527   120 layer_factory.hpp:77] Creating layer conv2
I0630 08:20:43.736228   120 net.cpp:144] Setting up conv2
I0630 08:20:43.736241   120 net.cpp:151] Top shape: 10 256 27 27 (1866240)
I0630 08:20:43.736248   120 net.cpp:159] Memory required for data: 48662680
I0630 08:20:43.736270   120 layer_factory.hpp:77] Creating layer relu2
I0630 08:20:43.736276   120 net.cpp:94] Creating Layer relu2
I0630 08:20:43.736280   120 net.cpp:435] relu2 <- bn2
I0630 08:20:43.736284   120 net.cpp:409] relu2 -> relu2
I0630 08:20:43.736299   120 net.cpp:144] Setting up relu2
I0630 08:20:43.736300   120 net.cpp:151] Top shape: 10 256 27 27 (1866240)
I0630 08:20:43.736304   120 net.cpp:159] Memory required for data: 56127640
I0630 08:20:43.736306   120 layer_factory.hpp:77] Creating layer pool2
I0630 08:20:43.736311   120 net.cpp:94] Creating Layer pool2
I0630 08:20:43.736313   120 net.cpp:435] pool2 <- relu2
I0630 08:20:43.736317   120 net.cpp:409] pool2 -> pool2
I0630 08:20:43.736336   120 net.cpp:144] Setting up pool2
I0630 08:20:43.736340   120 net.cpp:151] Top shape: 10 256 13 13 (432640)
I0630 08:20:43.736344   120 net.cpp:159] Memory required for data: 57858200
I0630 08:20:43.736346   120 layer_factory.hpp:77] Creating layer pool2_fixed
I0630 08:20:43.736352   120 net.cpp:94] Creating Layer pool2_fixed
I0630 08:20:43.736354   120 net.cpp:435] pool2_fixed <- pool2
I0630 08:20:43.736358   120 net.cpp:396] pool2_fixed -> pool2 (in-place)
I0630 08:20:43.736377   120 net.cpp:144] Setting up pool2_fixed
I0630 08:20:43.736380   120 net.cpp:151] Top shape: 10 256 13 13 (432640)
I0630 08:20:43.736383   120 net.cpp:159] Memory required for data: 59588760
I0630 08:20:43.736387   120 layer_factory.hpp:77] Creating layer conv3
I0630 08:20:43.736393   120 net.cpp:94] Creating Layer conv3
I0630 08:20:43.736395   120 net.cpp:435] conv3 <- pool2
I0630 08:20:43.736399   120 net.cpp:409] conv3 -> conv3
I0630 08:20:43.743939   120 layer_factory.hpp:77] Creating layer conv3
I0630 08:20:43.751634   120 net.cpp:144] Setting up conv3
I0630 08:20:43.751646   120 net.cpp:151] Top shape: 10 384 13 13 (648960)
I0630 08:20:43.751652   120 net.cpp:159] Memory required for data: 62184600
I0630 08:20:43.751677   120 layer_factory.hpp:77] Creating layer relu3
I0630 08:20:43.751683   120 net.cpp:94] Creating Layer relu3
I0630 08:20:43.751686   120 net.cpp:435] relu3 <- conv3
I0630 08:20:43.751691   120 net.cpp:409] relu3 -> relu3
I0630 08:20:43.751704   120 net.cpp:144] Setting up relu3
I0630 08:20:43.751708   120 net.cpp:151] Top shape: 10 384 13 13 (648960)
I0630 08:20:43.751710   120 net.cpp:159] Memory required for data: 64780440
I0630 08:20:43.751713   120 layer_factory.hpp:77] Creating layer relu3_fixed
I0630 08:20:43.751718   120 net.cpp:94] Creating Layer relu3_fixed
I0630 08:20:43.751720   120 net.cpp:435] relu3_fixed <- relu3
I0630 08:20:43.751724   120 net.cpp:396] relu3_fixed -> relu3 (in-place)
I0630 08:20:43.751741   120 net.cpp:144] Setting up relu3_fixed
I0630 08:20:43.751744   120 net.cpp:151] Top shape: 10 384 13 13 (648960)
I0630 08:20:43.751747   120 net.cpp:159] Memory required for data: 67376280
I0630 08:20:43.751750   120 layer_factory.hpp:77] Creating layer conv4
I0630 08:20:43.751756   120 net.cpp:94] Creating Layer conv4
I0630 08:20:43.751758   120 net.cpp:435] conv4 <- relu3
I0630 08:20:43.751762   120 net.cpp:409] conv4 -> conv4
I0630 08:20:43.762861   120 layer_factory.hpp:77] Creating layer conv4
I0630 08:20:43.774314   120 net.cpp:144] Setting up conv4
I0630 08:20:43.774328   120 net.cpp:151] Top shape: 10 384 13 13 (648960)
I0630 08:20:43.774335   120 net.cpp:159] Memory required for data: 69972120
I0630 08:20:43.774360   120 layer_factory.hpp:77] Creating layer relu4
I0630 08:20:43.774366   120 net.cpp:94] Creating Layer relu4
I0630 08:20:43.774370   120 net.cpp:435] relu4 <- conv4
I0630 08:20:43.774376   120 net.cpp:409] relu4 -> relu4
I0630 08:20:43.774390   120 net.cpp:144] Setting up relu4
I0630 08:20:43.774392   120 net.cpp:151] Top shape: 10 384 13 13 (648960)
I0630 08:20:43.774395   120 net.cpp:159] Memory required for data: 72567960
I0630 08:20:43.774399   120 layer_factory.hpp:77] Creating layer relu4_fixed
I0630 08:20:43.774403   120 net.cpp:94] Creating Layer relu4_fixed
I0630 08:20:43.774405   120 net.cpp:435] relu4_fixed <- relu4
I0630 08:20:43.774408   120 net.cpp:396] relu4_fixed -> relu4 (in-place)
I0630 08:20:43.774441   120 net.cpp:144] Setting up relu4_fixed
I0630 08:20:43.774446   120 net.cpp:151] Top shape: 10 384 13 13 (648960)
I0630 08:20:43.774448   120 net.cpp:159] Memory required for data: 75163800
I0630 08:20:43.774451   120 layer_factory.hpp:77] Creating layer conv5
I0630 08:20:43.774458   120 net.cpp:94] Creating Layer conv5
I0630 08:20:43.774461   120 net.cpp:435] conv5 <- relu4
I0630 08:20:43.774466   120 net.cpp:409] conv5 -> conv5
I0630 08:20:43.782033   120 layer_factory.hpp:77] Creating layer conv5
I0630 08:20:43.789697   120 net.cpp:144] Setting up conv5
I0630 08:20:43.789711   120 net.cpp:151] Top shape: 10 256 13 13 (432640)
I0630 08:20:43.789717   120 net.cpp:159] Memory required for data: 76894360
I0630 08:20:43.789741   120 layer_factory.hpp:77] Creating layer relu5
I0630 08:20:43.789747   120 net.cpp:94] Creating Layer relu5
I0630 08:20:43.789752   120 net.cpp:435] relu5 <- conv5
I0630 08:20:43.789757   120 net.cpp:409] relu5 -> relu5
I0630 08:20:43.789772   120 net.cpp:144] Setting up relu5
I0630 08:20:43.789773   120 net.cpp:151] Top shape: 10 256 13 13 (432640)
I0630 08:20:43.789777   120 net.cpp:159] Memory required for data: 78624920
I0630 08:20:43.789779   120 layer_factory.hpp:77] Creating layer pool5
I0630 08:20:43.789783   120 net.cpp:94] Creating Layer pool5
I0630 08:20:43.789785   120 net.cpp:435] pool5 <- relu5
I0630 08:20:43.789788   120 net.cpp:409] pool5 -> pool5
I0630 08:20:43.789806   120 net.cpp:144] Setting up pool5
I0630 08:20:43.789814   120 net.cpp:151] Top shape: 10 256 6 6 (92160)
I0630 08:20:43.789819   120 net.cpp:159] Memory required for data: 78993560
I0630 08:20:43.789820   120 layer_factory.hpp:77] Creating layer pool5_fixed
I0630 08:20:43.789825   120 net.cpp:94] Creating Layer pool5_fixed
I0630 08:20:43.789829   120 net.cpp:435] pool5_fixed <- pool5
I0630 08:20:43.789831   120 net.cpp:396] pool5_fixed -> pool5 (in-place)
I0630 08:20:43.789865   120 net.cpp:144] Setting up pool5_fixed
I0630 08:20:43.789870   120 net.cpp:151] Top shape: 10 256 6 6 (92160)
I0630 08:20:43.789873   120 net.cpp:159] Memory required for data: 79362200
I0630 08:20:43.789876   120 layer_factory.hpp:77] Creating layer fc6
I0630 08:20:43.789882   120 net.cpp:94] Creating Layer fc6
I0630 08:20:43.789885   120 net.cpp:435] fc6 <- pool5
I0630 08:20:43.789888   120 net.cpp:409] fc6 -> fc6
I0630 08:20:44.090762   120 layer_factory.hpp:77] Creating layer fc6
I0630 08:20:44.385928   120 net.cpp:144] Setting up fc6
I0630 08:20:44.385951   120 net.cpp:151] Top shape: 10 4096 (40960)
I0630 08:20:44.385957   120 net.cpp:159] Memory required for data: 79526040
I0630 08:20:44.385970   120 layer_factory.hpp:77] Creating layer relu6
I0630 08:20:44.385977   120 net.cpp:94] Creating Layer relu6
I0630 08:20:44.385980   120 net.cpp:435] relu6 <- fc6
I0630 08:20:44.385987   120 net.cpp:409] relu6 -> relu6
I0630 08:20:44.386003   120 net.cpp:144] Setting up relu6
I0630 08:20:44.386005   120 net.cpp:151] Top shape: 10 4096 (40960)
I0630 08:20:44.386008   120 net.cpp:159] Memory required for data: 79689880
I0630 08:20:44.386010   120 layer_factory.hpp:77] Creating layer relu6_fixed
I0630 08:20:44.386016   120 net.cpp:94] Creating Layer relu6_fixed
I0630 08:20:44.386018   120 net.cpp:435] relu6_fixed <- relu6
I0630 08:20:44.386023   120 net.cpp:396] relu6_fixed -> relu6 (in-place)
I0630 08:20:44.386061   120 net.cpp:144] Setting up relu6_fixed
I0630 08:20:44.386063   120 net.cpp:151] Top shape: 10 4096 (40960)
I0630 08:20:44.386066   120 net.cpp:159] Memory required for data: 79853720
I0630 08:20:44.386070   120 layer_factory.hpp:77] Creating layer fc7
I0630 08:20:44.386075   120 net.cpp:94] Creating Layer fc7
I0630 08:20:44.386077   120 net.cpp:435] fc7 <- relu6
I0630 08:20:44.386080   120 net.cpp:409] fc7 -> bn7
I0630 08:20:44.518404   120 layer_factory.hpp:77] Creating layer fc7
I0630 08:20:44.650385   120 net.cpp:144] Setting up fc7
I0630 08:20:44.650408   120 net.cpp:151] Top shape: 10 4096 (40960)
I0630 08:20:44.650414   120 net.cpp:159] Memory required for data: 80017560
I0630 08:20:44.650425   120 layer_factory.hpp:77] Creating layer relu7
I0630 08:20:44.650431   120 net.cpp:94] Creating Layer relu7
I0630 08:20:44.650435   120 net.cpp:435] relu7 <- bn7
I0630 08:20:44.650441   120 net.cpp:409] relu7 -> relu7
I0630 08:20:44.650456   120 net.cpp:144] Setting up relu7
I0630 08:20:44.650460   120 net.cpp:151] Top shape: 10 4096 (40960)
I0630 08:20:44.650462   120 net.cpp:159] Memory required for data: 80181400
I0630 08:20:44.650465   120 layer_factory.hpp:77] Creating layer relu7_fixed
I0630 08:20:44.650470   120 net.cpp:94] Creating Layer relu7_fixed
I0630 08:20:44.650473   120 net.cpp:435] relu7_fixed <- relu7
I0630 08:20:44.650476   120 net.cpp:396] relu7_fixed -> relu7 (in-place)
I0630 08:20:44.650511   120 net.cpp:144] Setting up relu7_fixed
I0630 08:20:44.650512   120 net.cpp:151] Top shape: 10 4096 (40960)
I0630 08:20:44.650516   120 net.cpp:159] Memory required for data: 80345240
I0630 08:20:44.650518   120 layer_factory.hpp:77] Creating layer fc8
I0630 08:20:44.650524   120 net.cpp:94] Creating Layer fc8
I0630 08:20:44.650527   120 net.cpp:435] fc8 <- relu7
I0630 08:20:44.650529   120 net.cpp:409] fc8 -> fc8
I0630 08:20:44.650635   120 layer_factory.hpp:77] Creating layer fc8
I0630 08:20:44.650769   120 net.cpp:144] Setting up fc8
I0630 08:20:44.650774   120 net.cpp:151] Top shape: 10 2 (20)
I0630 08:20:44.650775   120 net.cpp:159] Memory required for data: 80345320
I0630 08:20:44.650780   120 layer_factory.hpp:77] Creating layer fc8_fixed
I0630 08:20:44.650784   120 net.cpp:94] Creating Layer fc8_fixed
I0630 08:20:44.650786   120 net.cpp:435] fc8_fixed <- fc8
I0630 08:20:44.650790   120 net.cpp:396] fc8_fixed -> fc8 (in-place)
I0630 08:20:44.650822   120 net.cpp:144] Setting up fc8_fixed
I0630 08:20:44.650827   120 net.cpp:151] Top shape: 10 2 (20)
I0630 08:20:44.650830   120 net.cpp:159] Memory required for data: 80345400
I0630 08:20:44.650833   120 layer_factory.hpp:77] Creating layer loss
I0630 08:20:44.650838   120 net.cpp:94] Creating Layer loss
I0630 08:20:44.650840   120 net.cpp:435] loss <- fc8
I0630 08:20:44.650844   120 net.cpp:435] loss <- label
I0630 08:20:44.650847   120 net.cpp:409] loss -> loss
I0630 08:20:44.650853   120 layer_factory.hpp:77] Creating layer loss
…
I0630 08:20:47.947981   120 net.cpp:284] Network initialization done.
I0630 08:20:48.045819   120 net.cpp:323] The NetState phase (1) differed from the phase (0) specified by a rule in layer data
I0630 08:20:48.045846   120 net.cpp:52] Initializing net from parameters:
layer {
  name: "data"
  type: "Data"
  top: "data"
  top: "label"
  include {
    phase: TEST
  }
  transform_param {
    mirror: false
    crop_size: 227
    mean_value: 106
    mean_value: 116
    mean_value: 124
  }
  data_param {
    source: "input/lmdb/valid_lmdb"
    batch_size: 50
    backend: LMDB
  }
}
layer {
  name: "data_fixed"
  type: "FixedNeuron"
  bottom: "data"
  top: "data"
  param {
    lr_mult: 0
    decay_mult: 0
  }
  fixed_param {
    fixed_method: OVER_FLOW
    bit_width: 8
    follow_data_layer: true
  }
}
layer {
  name: "conv1"
  type: "ConvolutionFixed"
  bottom: "data"
  top: "bn1"
  param {
    lr_mult: 1
    decay_mult: 1
  }
  param {
    lr_mult: 1
    decay_mult: 0
  }
  convolution_param {
    num_output: 96
    bias_term: true
    pad: 1
    kernel_size: 11
    stride: 4
    weight_filler {
      type: "gaussian"
      std: 0.01
    }
    bias_filler {
      type: "constant"
      value: 0
    }
  }
  fixed_param {
    fixed_method: DIFF_S
    bit_width: 8
  }
}
layer {
  name: "relu1"
  type: "ReLU"
  bottom: "bn1"
  top: "relu1"
}
layer {
  name: "pool1"
  type: "Pooling"
  bottom: "relu1"
  top: "pool1"
  pooling_param {
    pool: MAX
    kernel_size: 3
    stride: 2
  }
}
layer {
  name: "pool1_fixed"
  type: "FixedNeuron"
  bottom: "pool1"
  top: "pool1"
  param {
    lr_mult: 0
    decay_mult: 0
  }
  fixed_param {
    fixed_method: DIFF_S
    bit_width: 8
  }
}
layer {
  name: "conv2"
  type: "ConvolutionFixed"
  bottom: "pool1"
  top: "bn2"
  param {
    lr_mult: 1
    decay_mult: 1
  }
  param {
    lr_mult: 1
    decay_mult: 0
  }
  convolution_param {
    num_output: 256
    bias_term: true
    pad: 2
    kernel_size: 5
    group: 1
    weight_filler {
      type: "gaussian"
      std: 0.01
    }
    bias_filler {
      type: "constant"
      value: 1
    }
  }
  fixed_param {
    fixed_method: DIFF_S
    bit_width: 8
  }
}
layer {
  name: "relu2"
  type: "ReLU"
  bottom: "bn2"
  top: "relu2"
}
layer {
  name: "pool2"
  type: "Pooling"
  bottom: "relu2"
  top: "pool2"
  pooling_param {
    pool: MAX
    kernel_size: 3
    stride: 2
  }
}
layer {
  name: "pool2_fixed"
  type: "FixedNeuron"
  bottom: "pool2"
  top: "pool2"
  param {
    lr_mult: 0
    decay_mult: 0
  }
  fixed_param {
    fixed_method: DIFF_S
    bit_width: 8
  }
}
layer {
  name: "conv3"
  type: "ConvolutionFixed"
  bottom: "pool2"
  top: "conv3"
  param {
    lr_mult: 1
    decay_mult: 1
  }
  param {
    lr_mult: 2
    decay_mult: 0
  }
  convolution_param {
    num_output: 384
    pad: 1
    kernel_size: 3
    weight_filler {
      type: "gaussian"
      std: 0.01
    }
    bias_filler {
      type: "constant"
      value: 0
    }
  }
  fixed_param {
    fixed_method: DIFF_S
    bit_width: 8
  }
}
layer {
  name: "relu3"
  type: "ReLU"
  bottom: "conv3"
  top: "relu3"
}
layer {
  name: "relu3_fixed"
  type: "FixedNeuron"
  bottom: "relu3"
  top: "relu3"
  param {
    lr_mult: 0
    decay_mult: 0
  }
  fixed_param {
    fixed_method: DIFF_S
    bit_width: 8
  }
}
layer {
  name: "conv4"
  type: "ConvolutionFixed"
  bottom: "relu3"
  top: "conv4"
  param {
    lr_mult: 1
    decay_mult: 1
  }
  param {
    lr_mult: 2
    decay_mult: 0
  }
  convolution_param {
    num_output: 384
    pad: 1
    kernel_size: 3
    group: 1
    weight_filler {
      type: "gaussian"
      std: 0.01
    }
    bias_filler {
      type: "constant"
      value: 1
    }
  }
  fixed_param {
    fixed_method: DIFF_S
    bit_width: 8
  }
}
layer {
  name: "relu4"
  type: "ReLU"
  bottom: "conv4"
  top: "relu4"
}
layer {
  name: "relu4_fixed"
  type: "FixedNeuron"
  bottom: "relu4"
  top: "relu4"
  param {
    lr_mult: 0
    decay_mult: 0
  }
  fixed_param {
    fixed_method: DIFF_S
    bit_width: 8
  }
}
layer {
  name: "conv5"
  type: "ConvolutionFixed"
  bottom: "relu4"
  top: "conv5"
  param {
    lr_mult: 1
    decay_mult: 1
  }
  param {
    lr_mult: 2
    decay_mult: 0
  }
  convolution_param {
    num_output: 256
    pad: 1
    kernel_size: 3
    group: 1
    weight_filler {
      type: "gaussian"
      std: 0.01
    }
    bias_filler {
      type: "constant"
      value: 1
    }
  }
  fixed_param {
    fixed_method: DIFF_S
    bit_width: 8
  }
}
layer {
  name: "relu5"
  type: "ReLU"
  bottom: "conv5"
  top: "relu5"
}
layer {
  name: "pool5"
  type: "Pooling"
  bottom: "relu5"
  top: "pool5"
  pooling_param {
    pool: MAX
    kernel_size: 3
    stride: 2
  }
}
layer {
  name: "pool5_fixed"
  type: "FixedNeuron"
  bottom: "pool5"
  top: "pool5"
  param {
    lr_mult: 0
    decay_mult: 0
  }
  fixed_param {
    fixed_method: DIFF_S
    bit_width: 8
  }
}
layer {
  name: "fc6"
  type: "InnerProductFixed"
  bottom: "pool5"
  top: "fc6"
  param {
    lr_mult: 1
    decay_mult: 1
  }
  param {
    lr_mult: 2
    decay_mult: 0
  }
  inner_product_param {
    num_output: 4096
    weight_filler {
      type: "gaussian"
      std: 0.005
    }
    bias_filler {
      type: "constant"
      value: 1
    }
  }
  fixed_param {
    fixed_method: DIFF_S
    bit_width: 8
  }
}
layer {
  name: "relu6"
  type: "ReLU"
  bottom: "fc6"
  top: "relu6"
}
layer {
  name: "relu6_fixed"
  type: "FixedNeuron"
  bottom: "relu6"
  top: "relu6"
  param {
    lr_mult: 0
    decay_mult: 0
  }
  fixed_param {
    fixed_method: DIFF_S
    bit_width: 8
  }
}
layer {
  name: "fc7"
  type: "InnerProductFixed"
  bottom: "relu6"
  top: "bn7"
  param {
    lr_mult: 1
    decay_mult: 1
  }
  param {
    lr_mult: 1
    decay_mult: 0
  }
  inner_product_param {
    num_output: 4096
    bias_term: true
    weight_filler {
      type: "gaussian"
      std: 0.005
    }
    bias_filler {
      type: "constant"
      value: 1
    }
  }
  fixed_param {
    fixed_method: DIFF_S
    bit_width: 8
  }
}
layer {
  name: "relu7"
  type: "ReLU"
  bottom: "bn7"
  top: "relu7"
}
layer {
  name: "relu7_fixed"
  type: "FixedNeuron"
  bottom: "relu7"
  top: "relu7"
  param {
    lr_mult: 0
    decay_mult: 0
  }
  fixed_param {
    fixed_method: DIFF_S
    bit_width: 8
  }
}
layer {
  name: "fc8"
  type: "InnerProductFixed"
  bottom: "relu7"
  top: "fc8"
  param {
    lr_mult: 1
    decay_mult: 1
  }
  param {
    lr_mult: 2
    decay_mult: 0
  }
  inner_product_param {
    num_output: 2
    weight_filler {
      type: "gaussian"
      std: 0.01
    }
    bias_filler {
      type: "constant"
      value: 0
    }
  }
  fixed_param {
    fixed_method: DIFF_S
    bit_width: 8
  }
}
layer {
  name: "fc8_fixed"
  type: "FixedNeuron"
  bottom: "fc8"
  top: "fc8"
  param {
    lr_mult: 0
    decay_mult: 0
  }
  fixed_param {
    fixed_method: DIFF_S
    bit_width: 8
  }
}
layer {
  name: "accuracy"
  type: "Accuracy"
  bottom: "fc8"
  bottom: "label"
  top: "accuracy"
  include {
    phase: TEST
  }
}
layer {
  name: "loss"
  type: "SoftmaxWithLoss"
  bottom: "fc8"
  bottom: "label"
  top: "loss"
}
layer {
  name: "accuracy-top1"
  type: "Accuracy"
  bottom: "fc8"
  bottom: "label"
  top: "top-1"
  include {
    phase: TEST
  }
}
I0630 08:20:48.046275   120 layer_factory.hpp:77] Creating layer data
I0630 08:20:48.046319   120 internal_thread.cpp:27] Starting internal thread(s) on GPU 0
I0630 08:20:48.047544   120 net.cpp:94] Creating Layer data
I0630 08:20:48.047555   120 net.cpp:409] data -> data
I0630 08:20:48.047565   120 net.cpp:409] data -> label
I0630 08:20:48.048720   154 db_lmdb.cpp:35] Opened lmdb input/lmdb/valid_lmdb
I0630 08:20:48.048740   154 db_lmdb.cpp:38] Items count: 4000
I0630 08:20:48.048760   154 data_reader.cpp:124] TEST: reading data using 1 channel(s)
I0630 08:20:48.048898   120 data_layer.cpp:78] ReshapePrefetch 50, 3, 227, 227
I0630 08:20:48.048990   120 data_layer.cpp:83] output data size: 50,3,227,227
I0630 08:20:48.146492   120 internal_thread.cpp:27] Starting internal thread(s) on GPU 0
I0630 08:20:48.146576   120 net.cpp:144] Setting up data
I0630 08:20:48.146581   120 net.cpp:151] Top shape: 50 3 227 227 (7729350)
I0630 08:20:48.146589   120 net.cpp:151] Top shape: 50 (50)
I0630 08:20:48.146593   120 net.cpp:159] Memory required for data: 30917600
I0630 08:20:48.146597   120 layer_factory.hpp:77] Creating layer label_data_1_split
I0630 08:20:48.146610   120 net.cpp:94] Creating Layer label_data_1_split
I0630 08:20:48.146615   120 net.cpp:435] label_data_1_split <- label
I0630 08:20:48.146620   120 net.cpp:409] label_data_1_split -> label_data_1_split_0
I0630 08:20:48.146629   120 net.cpp:409] label_data_1_split -> label_data_1_split_1
I0630 08:20:48.146649   120 net.cpp:409] label_data_1_split -> label_data_1_split_2
I0630 08:20:48.146697   120 net.cpp:144] Setting up label_data_1_split
I0630 08:20:48.146703   120 net.cpp:151] Top shape: 50 (50)
I0630 08:20:48.146705   120 net.cpp:151] Top shape: 50 (50)
I0630 08:20:48.146708   120 net.cpp:151] Top shape: 50 (50)
I0630 08:20:48.146711   120 net.cpp:159] Memory required for data: 30918200
I0630 08:20:48.146714   120 layer_factory.hpp:77] Creating layer data_fixed
I0630 08:20:48.146721   120 net.cpp:94] Creating Layer data_fixed
I0630 08:20:48.146723   120 net.cpp:435] data_fixed <- data
I0630 08:20:48.146728   120 net.cpp:396] data_fixed -> data (in-place)
I0630 08:20:48.146786   120 net.cpp:144] Setting up data_fixed
I0630 08:20:48.146792   120 net.cpp:151] Top shape: 50 3 227 227 (7729350)
I0630 08:20:48.146796   120 net.cpp:159] Memory required for data: 61835600
I0630 08:20:48.146804   120 layer_factory.hpp:77] Creating layer conv1
I0630 08:20:48.146814   120 net.cpp:94] Creating Layer conv1
I0630 08:20:48.146817   120 net.cpp:435] conv1 <- data
I0630 08:20:48.146821   120 net.cpp:409] conv1 -> bn1
I0630 08:20:48.147302   120 layer_factory.hpp:77] Creating layer conv1
I0630 08:20:48.147814   120 net.cpp:144] Setting up conv1
I0630 08:20:48.147819   120 net.cpp:151] Top shape: 50 96 55 55 (14520000)
I0630 08:20:48.147825   120 net.cpp:159] Memory required for data: 119915600
I0630 08:20:48.147831   120 layer_factory.hpp:77] Creating layer relu1
I0630 08:20:48.147837   120 net.cpp:94] Creating Layer relu1
I0630 08:20:48.147840   120 net.cpp:435] relu1 <- bn1
I0630 08:20:48.147845   120 net.cpp:409] relu1 -> relu1
I0630 08:20:48.147861   120 net.cpp:144] Setting up relu1
I0630 08:20:48.147864   120 net.cpp:151] Top shape: 50 96 55 55 (14520000)
I0630 08:20:48.147868   120 net.cpp:159] Memory required for data: 177995600
I0630 08:20:48.147871   120 layer_factory.hpp:77] Creating layer pool1
I0630 08:20:48.147876   120 net.cpp:94] Creating Layer pool1
I0630 08:20:48.147879   120 net.cpp:435] pool1 <- relu1
I0630 08:20:48.147883   120 net.cpp:409] pool1 -> pool1
I0630 08:20:48.147905   120 net.cpp:144] Setting up pool1
I0630 08:20:48.147909   120 net.cpp:151] Top shape: 50 96 27 27 (3499200)
I0630 08:20:48.147913   120 net.cpp:159] Memory required for data: 191992400
I0630 08:20:48.147917   120 layer_factory.hpp:77] Creating layer pool1_fixed
I0630 08:20:48.147922   120 net.cpp:94] Creating Layer pool1_fixed
I0630 08:20:48.147923   120 net.cpp:435] pool1_fixed <- pool1
I0630 08:20:48.147927   120 net.cpp:396] pool1_fixed -> pool1 (in-place)
I0630 08:20:48.147948   120 net.cpp:144] Setting up pool1_fixed
I0630 08:20:48.147950   120 net.cpp:151] Top shape: 50 96 27 27 (3499200)
I0630 08:20:48.147954   120 net.cpp:159] Memory required for data: 205989200
I0630 08:20:48.147958   120 layer_factory.hpp:77] Creating layer conv2
I0630 08:20:48.147965   120 net.cpp:94] Creating Layer conv2
I0630 08:20:48.147967   120 net.cpp:435] conv2 <- pool1
I0630 08:20:48.147971   120 net.cpp:409] conv2 -> bn2
I0630 08:20:48.154292   120 layer_factory.hpp:77] Creating layer conv2
I0630 08:20:48.163252   120 net.cpp:144] Setting up conv2
I0630 08:20:48.163275   120 net.cpp:151] Top shape: 50 256 27 27 (9331200)
I0630 08:20:48.163292   120 net.cpp:159] Memory required for data: 243314000
I0630 08:20:48.163309   120 layer_factory.hpp:77] Creating layer relu2
I0630 08:20:48.163327   120 net.cpp:94] Creating Layer relu2
I0630 08:20:48.163334   120 net.cpp:435] relu2 <- bn2
I0630 08:20:48.163347   120 net.cpp:409] relu2 -> relu2
I0630 08:20:48.163380   120 net.cpp:144] Setting up relu2
I0630 08:20:48.163389   120 net.cpp:151] Top shape: 50 256 27 27 (9331200)
I0630 08:20:48.163398   120 net.cpp:159] Memory required for data: 280638800
I0630 08:20:48.163401   120 layer_factory.hpp:77] Creating layer pool2
I0630 08:20:48.163411   120 net.cpp:94] Creating Layer pool2
I0630 08:20:48.163415   120 net.cpp:435] pool2 <- relu2
I0630 08:20:48.163422   120 net.cpp:409] pool2 -> pool2
I0630 08:20:48.163460   120 net.cpp:144] Setting up pool2
I0630 08:20:48.163465   120 net.cpp:151] Top shape: 50 256 13 13 (2163200)
I0630 08:20:48.163470   120 net.cpp:159] Memory required for data: 289291600
I0630 08:20:48.163475   120 layer_factory.hpp:77] Creating layer pool2_fixed
I0630 08:20:48.163483   120 net.cpp:94] Creating Layer pool2_fixed
I0630 08:20:48.163487   120 net.cpp:435] pool2_fixed <- pool2
I0630 08:20:48.163492   120 net.cpp:396] pool2_fixed -> pool2 (in-place)
I0630 08:20:48.163529   120 net.cpp:144] Setting up pool2_fixed
I0630 08:20:48.163533   120 net.cpp:151] Top shape: 50 256 13 13 (2163200)
I0630 08:20:48.163539   120 net.cpp:159] Memory required for data: 297944400
I0630 08:20:48.163545   120 layer_factory.hpp:77] Creating layer conv3
I0630 08:20:48.163559   120 net.cpp:94] Creating Layer conv3
I0630 08:20:48.163563   120 net.cpp:435] conv3 <- pool2
I0630 08:20:48.163571   120 net.cpp:409] conv3 -> conv3
I0630 08:20:48.172996   120 layer_factory.hpp:77] Creating layer conv3
I0630 08:20:48.185829   120 net.cpp:144] Setting up conv3
I0630 08:20:48.185863   120 net.cpp:151] Top shape: 50 384 13 13 (3244800)
I0630 08:20:48.185876   120 net.cpp:159] Memory required for data: 310923600
I0630 08:20:48.185896   120 layer_factory.hpp:77] Creating layer relu3
I0630 08:20:48.185909   120 net.cpp:94] Creating Layer relu3
I0630 08:20:48.185917   120 net.cpp:435] relu3 <- conv3
I0630 08:20:48.185928   120 net.cpp:409] relu3 -> relu3
I0630 08:20:48.185971   120 net.cpp:144] Setting up relu3
I0630 08:20:48.185976   120 net.cpp:151] Top shape: 50 384 13 13 (3244800)
I0630 08:20:48.185981   120 net.cpp:159] Memory required for data: 323902800
I0630 08:20:48.185986   120 layer_factory.hpp:77] Creating layer relu3_fixed
I0630 08:20:48.185995   120 net.cpp:94] Creating Layer relu3_fixed
I0630 08:20:48.185999   120 net.cpp:435] relu3_fixed <- relu3
I0630 08:20:48.186005   120 net.cpp:396] relu3_fixed -> relu3 (in-place)
I0630 08:20:48.186045   120 net.cpp:144] Setting up relu3_fixed
I0630 08:20:48.186071   120 net.cpp:151] Top shape: 50 384 13 13 (3244800)
I0630 08:20:48.186077   120 net.cpp:159] Memory required for data: 336882000
I0630 08:20:48.186084   120 layer_factory.hpp:77] Creating layer conv4
I0630 08:20:48.186101   120 net.cpp:94] Creating Layer conv4
I0630 08:20:48.186105   120 net.cpp:435] conv4 <- relu3
I0630 08:20:48.186113   120 net.cpp:409] conv4 -> conv4
I0630 08:20:48.201902   120 layer_factory.hpp:77] Creating layer conv4
I0630 08:20:48.216367   120 net.cpp:144] Setting up conv4
I0630 08:20:48.216387   120 net.cpp:151] Top shape: 50 384 13 13 (3244800)
I0630 08:20:48.216394   120 net.cpp:159] Memory required for data: 349861200
I0630 08:20:48.216404   120 layer_factory.hpp:77] Creating layer relu4
I0630 08:20:48.216411   120 net.cpp:94] Creating Layer relu4
I0630 08:20:48.216415   120 net.cpp:435] relu4 <- conv4
I0630 08:20:48.216421   120 net.cpp:409] relu4 -> relu4
I0630 08:20:48.216436   120 net.cpp:144] Setting up relu4
I0630 08:20:48.216439   120 net.cpp:151] Top shape: 50 384 13 13 (3244800)
I0630 08:20:48.216442   120 net.cpp:159] Memory required for data: 362840400
I0630 08:20:48.216445   120 layer_factory.hpp:77] Creating layer relu4_fixed
I0630 08:20:48.216451   120 net.cpp:94] Creating Layer relu4_fixed
I0630 08:20:48.216454   120 net.cpp:435] relu4_fixed <- relu4
I0630 08:20:48.216457   120 net.cpp:396] relu4_fixed -> relu4 (in-place)
I0630 08:20:48.216475   120 net.cpp:144] Setting up relu4_fixed
I0630 08:20:48.216480   120 net.cpp:151] Top shape: 50 384 13 13 (3244800)
I0630 08:20:48.216483   120 net.cpp:159] Memory required for data: 375819600
I0630 08:20:48.216487   120 layer_factory.hpp:77] Creating layer conv5
I0630 08:20:48.216495   120 net.cpp:94] Creating Layer conv5
I0630 08:20:48.216497   120 net.cpp:435] conv5 <- relu4
I0630 08:20:48.216500   120 net.cpp:409] conv5 -> conv5
I0630 08:20:48.225914   120 layer_factory.hpp:77] Creating layer conv5
I0630 08:20:48.233448   120 net.cpp:144] Setting up conv5
I0630 08:20:48.233460   120 net.cpp:151] Top shape: 50 256 13 13 (2163200)
I0630 08:20:48.233467   120 net.cpp:159] Memory required for data: 384472400
I0630 08:20:48.233491   120 layer_factory.hpp:77] Creating layer relu5
I0630 08:20:48.233496   120 net.cpp:94] Creating Layer relu5
I0630 08:20:48.233500   120 net.cpp:435] relu5 <- conv5
I0630 08:20:48.233506   120 net.cpp:409] relu5 -> relu5
I0630 08:20:48.233523   120 net.cpp:144] Setting up relu5
I0630 08:20:48.233525   120 net.cpp:151] Top shape: 50 256 13 13 (2163200)
I0630 08:20:48.233528   120 net.cpp:159] Memory required for data: 393125200
I0630 08:20:48.233531   120 layer_factory.hpp:77] Creating layer pool5
I0630 08:20:48.233536   120 net.cpp:94] Creating Layer pool5
I0630 08:20:48.233537   120 net.cpp:435] pool5 <- relu5
I0630 08:20:48.233541   120 net.cpp:409] pool5 -> pool5
I0630 08:20:48.233559   120 net.cpp:144] Setting up pool5
I0630 08:20:48.233566   120 net.cpp:151] Top shape: 50 256 6 6 (460800)
I0630 08:20:48.233568   120 net.cpp:159] Memory required for data: 394968400
I0630 08:20:48.233570   120 layer_factory.hpp:77] Creating layer pool5_fixed
I0630 08:20:48.233575   120 net.cpp:94] Creating Layer pool5_fixed
I0630 08:20:48.233593   120 net.cpp:435] pool5_fixed <- pool5
I0630 08:20:48.233597   120 net.cpp:396] pool5_fixed -> pool5 (in-place)
I0630 08:20:48.233613   120 net.cpp:144] Setting up pool5_fixed
I0630 08:20:48.233616   120 net.cpp:151] Top shape: 50 256 6 6 (460800)
I0630 08:20:48.233619   120 net.cpp:159] Memory required for data: 396811600
I0630 08:20:48.233623   120 layer_factory.hpp:77] Creating layer fc6
I0630 08:20:48.233628   120 net.cpp:94] Creating Layer fc6
I0630 08:20:48.233629   120 net.cpp:435] fc6 <- pool5
I0630 08:20:48.233633   120 net.cpp:409] fc6 -> fc6
I0630 08:20:48.540912   120 layer_factory.hpp:77] Creating layer fc6
I0630 08:20:48.844460   120 net.cpp:144] Setting up fc6
I0630 08:20:48.844482   120 net.cpp:151] Top shape: 50 4096 (204800)
I0630 08:20:48.844489   120 net.cpp:159] Memory required for data: 397630800
I0630 08:20:48.844517   120 layer_factory.hpp:77] Creating layer relu6
I0630 08:20:48.844524   120 net.cpp:94] Creating Layer relu6
I0630 08:20:48.844528   120 net.cpp:435] relu6 <- fc6
I0630 08:20:48.844537   120 net.cpp:409] relu6 -> relu6
I0630 08:20:48.844552   120 net.cpp:144] Setting up relu6
I0630 08:20:48.844555   120 net.cpp:151] Top shape: 50 4096 (204800)
I0630 08:20:48.844558   120 net.cpp:159] Memory required for data: 398450000
I0630 08:20:48.844560   120 layer_factory.hpp:77] Creating layer relu6_fixed
I0630 08:20:48.844566   120 net.cpp:94] Creating Layer relu6_fixed
I0630 08:20:48.844568   120 net.cpp:435] relu6_fixed <- relu6
I0630 08:20:48.844571   120 net.cpp:396] relu6_fixed -> relu6 (in-place)
I0630 08:20:48.844588   120 net.cpp:144] Setting up relu6_fixed
I0630 08:20:48.844595   120 net.cpp:151] Top shape: 50 4096 (204800)
I0630 08:20:48.844599   120 net.cpp:159] Memory required for data: 399269200
I0630 08:20:48.844601   120 layer_factory.hpp:77] Creating layer fc7
I0630 08:20:48.844607   120 net.cpp:94] Creating Layer fc7
I0630 08:20:48.844609   120 net.cpp:435] fc7 <- relu6
I0630 08:20:48.844614   120 net.cpp:409] fc7 -> bn7
I0630 08:20:48.980356   120 layer_factory.hpp:77] Creating layer fc7
I0630 08:20:49.118368   120 net.cpp:144] Setting up fc7
I0630 08:20:49.118391   120 net.cpp:151] Top shape: 50 4096 (204800)
I0630 08:20:49.118399   120 net.cpp:159] Memory required for data: 400088400
I0630 08:20:49.118425   120 layer_factory.hpp:77] Creating layer relu7
I0630 08:20:49.118432   120 net.cpp:94] Creating Layer relu7
I0630 08:20:49.118436   120 net.cpp:435] relu7 <- bn7
I0630 08:20:49.118443   120 net.cpp:409] relu7 -> relu7
I0630 08:20:49.118460   120 net.cpp:144] Setting up relu7
I0630 08:20:49.118463   120 net.cpp:151] Top shape: 50 4096 (204800)
I0630 08:20:49.118465   120 net.cpp:159] Memory required for data: 400907600
I0630 08:20:49.118468   120 layer_factory.hpp:77] Creating layer relu7_fixed
I0630 08:20:49.118474   120 net.cpp:94] Creating Layer relu7_fixed
I0630 08:20:49.118476   120 net.cpp:435] relu7_fixed <- relu7
I0630 08:20:49.118479   120 net.cpp:396] relu7_fixed -> relu7 (in-place)
I0630 08:20:49.118497   120 net.cpp:144] Setting up relu7_fixed
I0630 08:20:49.118499   120 net.cpp:151] Top shape: 50 4096 (204800)
I0630 08:20:49.118502   120 net.cpp:159] Memory required for data: 401726800
I0630 08:20:49.118506   120 layer_factory.hpp:77] Creating layer fc8
I0630 08:20:49.118511   120 net.cpp:94] Creating Layer fc8
I0630 08:20:49.118515   120 net.cpp:435] fc8 <- relu7
I0630 08:20:49.118518   120 net.cpp:409] fc8 -> fc8
I0630 08:20:49.118620   120 layer_factory.hpp:77] Creating layer fc8
I0630 08:20:49.118782   120 net.cpp:144] Setting up fc8
I0630 08:20:49.118788   120 net.cpp:151] Top shape: 50 2 (100)
I0630 08:20:49.118791   120 net.cpp:159] Memory required for data: 401727200
I0630 08:20:49.118795   120 layer_factory.hpp:77] Creating layer fc8_fixed
I0630 08:20:49.118799   120 net.cpp:94] Creating Layer fc8_fixed
I0630 08:20:49.118803   120 net.cpp:435] fc8_fixed <- fc8
I0630 08:20:49.118806   120 net.cpp:396] fc8_fixed -> fc8 (in-place)
I0630 08:20:49.118825   120 net.cpp:144] Setting up fc8_fixed
I0630 08:20:49.118827   120 net.cpp:151] Top shape: 50 2 (100)
I0630 08:20:49.118831   120 net.cpp:159] Memory required for data: 401727600
I0630 08:20:49.118834   120 layer_factory.hpp:77] Creating layer fc8_fc8_fixed_0_split
I0630 08:20:49.118840   120 net.cpp:94] Creating Layer fc8_fc8_fixed_0_split
I0630 08:20:49.118842   120 net.cpp:435] fc8_fc8_fixed_0_split <- fc8
I0630 08:20:49.118846   120 net.cpp:409] fc8_fc8_fixed_0_split -> fc8_fc8_fixed_0_split_0
I0630 08:20:49.118851   120 net.cpp:409] fc8_fc8_fixed_0_split -> fc8_fc8_fixed_0_split_1
I0630 08:20:49.118855   120 net.cpp:409] fc8_fc8_fixed_0_split -> fc8_fc8_fixed_0_split_2
I0630 08:20:49.118882   120 net.cpp:144] Setting up fc8_fc8_fixed_0_split
I0630 08:20:49.118887   120 net.cpp:151] Top shape: 50 2 (100)
I0630 08:20:49.118891   120 net.cpp:151] Top shape: 50 2 (100)
I0630 08:20:49.118894   120 net.cpp:151] Top shape: 50 2 (100)
I0630 08:20:49.118897   120 net.cpp:159] Memory required for data: 401728800
I0630 08:20:49.118901   120 layer_factory.hpp:77] Creating layer accuracy
I0630 08:20:49.118906   120 net.cpp:94] Creating Layer accuracy
I0630 08:20:49.118909   120 net.cpp:435] accuracy <- fc8_fc8_fixed_0_split_0
I0630 08:20:49.118912   120 net.cpp:435] accuracy <- label_data_1_split_0
I0630 08:20:49.118916   120 net.cpp:409] accuracy -> accuracy
…
(c) Copyright 2016–2019 Xilinx, Inc. All rights reserved.

I0629 16:33:42.484397  9230 net.cpp:323] The NetState phase (1) differed from the phase (0) specified by a rule in layer data
I0629 16:33:42.484611  9230 net.cpp:52] Initializing net from parameters:
state {
  phase: TEST
}
layer {
  name: "data"
  type: "Data"
  top: "data"
  top: "label"
  include {
    phase: TEST
  }
  transform_param {
    mirror: false
    crop_size: 227
    mean_value: 106
    mean_value: 116
    mean_value: 124
  }
  data_param {
    source: "input/lmdb/valid_lmdb"
    batch_size: 50
    backend: LMDB
  }
}
layer {
  name: "conv1"
  type: "Convolution"
  bottom: "data"
  top: "conv1"
  param {
    lr_mult: 1
    decay_mult: 1
  }
  param {
    lr_mult: 2
    decay_mult: 0
  }
  convolution_param {
    num_output: 78
    pad: 1
    kernel_size: 11
    stride: 4
    weight_filler {
      type: "gaussian"
      std: 0.01
    }
    bias_filler {
      type: "constant"
      value: 0
    }
  }
}
layer {
  name: "bn1"
  type: "BatchNorm"
  bottom: "conv1"
  top: "bn1"
  param {
    lr_mult: 0
  }
  param {
    lr_mult: 0
  }
  param {
    lr_mult: 0
  }
  batch_norm_param {
    use_global_stats: false
  }
}
layer {
  name: "relu1"
  type: "ReLU"
  bottom: "bn1"
  top: "relu1"
}
layer {
  name: "pool1"
  type: "Pooling"
  bottom: "relu1"
  top: "pool1"
  pooling_param {
    pool: MAX
    kernel_size: 3
    stride: 2
  }
}
layer {
  name: "conv2"
  type: "Convolution"
  bottom: "pool1"
  top: "conv2"
  param {
    lr_mult: 1
    decay_mult: 1
  }
  param {
    lr_mult: 2
    decay_mult: 0
  }
  convolution_param {
    num_output: 180
    pad: 2
    kernel_size: 5
    group: 1
    weight_filler {
      type: "gaussian"
      std: 0.01
    }
    bias_filler {
      type: "constant"
      value: 1
    }
  }
}
layer {
  name: "bn2"
  type: "BatchNorm"
  bottom: "conv2"
  top: "bn2"
  param {
    lr_mult: 0
  }
  param {
    lr_mult: 0
  }
  param {
    lr_mult: 0
  }
  batch_norm_param {
    use_global_stats: false
  }
}
layer {
  name: "relu2"
  type: "ReLU"
  bottom: "bn2"
  top: "relu2"
}
layer {
  name: "pool2"
  type: "Pooling"
  bottom: "relu2"
  top: "pool2"
  pooling_param {
    pool: MAX
    kernel_size: 3
    stride: 2
  }
}
layer {
  name: "conv3"
  type: "Convolution"
  bottom: "pool2"
  top: "conv3"
  param {
    lr_mult: 1
    decay_mult: 1
  }
  param {
    lr_mult: 2
    decay_mult: 0
  }
  convolution_param {
    num_output: 40
    pad: 1
    kernel_size: 3
    weight_filler {
      type: "gaussian"
      std: 0.01
    }
    bias_filler {
      type: "constant"
      value: 0
    }
  }
}
layer {
  name: "relu3"
  type: "ReLU"
  bottom: "conv3"
  top: "relu3"
}
layer {
  name: "conv4"
  type: "Convolution"
  bottom: "relu3"
  top: "conv4"
  param {
    lr_mult: 1
    decay_mult: 1
  }
  param {
    lr_mult: 2
    decay_mult: 0
  }
  convolution_param {
    num_output: 40
    pad: 1
    kernel_size: 3
    group: 1
    weight_filler {
      type: "gaussian"
      std: 0.01
    }
    bias_filler {
      type: "constant"
      value: 1
    }
  }
}
layer {
  name: "relu4"
  type: "ReLU"
  bottom: "conv4"
  top: "relu4"
}
layer {
  name: "conv5"
  type: "Convolution"
  bottom: "relu4"
  top: "conv5"
  param {
    lr_mult: 1
    decay_mult: 1
  }
  param {
    lr_mult: 2
    decay_mult: 0
  }
  convolution_param {
    num_output: 26
    pad: 1
    kernel_size: 3
    group: 1
    weight_filler {
      type: "gaussian"
      std: 0.01
    }
    bias_filler {
      type: "constant"
      value: 1
    }
  }
}
layer {
  name: "relu5"
  type: "ReLU"
  bottom: "conv5"
  top: "relu5"
}
layer {
  name: "pool5"
  type: "Pooling"
  bottom: "relu5"
  top: "pool5"
  pooling_param {
    pool: MAX
    kernel_size: 3
    stride: 2
  }
}
layer {
  name: "fc6"
  type: "InnerProduct"
  bottom: "pool5"
  top: "fc6"
  param {
    lr_mult: 1
    decay_mult: 1
  }
  param {
    lr_mult: 2
    decay_mult: 0
  }
  inner_product_param {
    num_output: 4096
    weight_filler {
      type: "gaussian"
      std: 0.005
    }
    bias_filler {
      type: "constant"
      value: 1
    }
  }
}
layer {
  name: "relu6"
  type: "ReLU"
  bottom: "fc6"
  top: "relu6"
}
layer {
  name: "drop6"
  type: "Dropout"
  bottom: "relu6"
  top: "drop6"
  dropout_param {
    dropout_ratio: 0.5
  }
}
layer {
  name: "fc7"
  type: "InnerProduct"
  bottom: "drop6"
  top: "fc7"
  param {
    lr_mult: 1
    decay_mult: 1
  }
  param {
    lr_mult: 2
    decay_mult: 0
  }
  inner_product_param {
    num_output: 4096
    weight_filler {
      type: "gaussian"
      std: 0.005
    }
    bias_filler {
      type: "constant"
      value: 1
    }
  }
}
layer {
  name: "bn7"
  type: "BatchNorm"
  bottom: "fc7"
  top: "bn7"
  param {
    lr_mult: 0
  }
  param {
    lr_mult: 0
  }
  param {
    lr_mult: 0
  }
  batch_norm_param {
    use_global_stats: false
  }
}
layer {
  name: "relu7"
  type: "ReLU"
  bottom: "bn7"
  top: "relu7"
}
layer {
  name: "drop7"
  type: "Dropout"
  bottom: "relu7"
  top: "drop7"
  dropout_param {
    dropout_ratio: 0.5
  }
}
layer {
  name: "fc8"
  type: "InnerProduct"
  bottom: "drop7"
  top: "fc8"
  param {
    lr_mult: 1
    decay_mult: 1
  }
  param {
    lr_mult: 2
    decay_mult: 0
  }
  inner_product_param {
    num_output: 2
    weight_filler {
      type: "gaussian"
      std: 0.01
    }
    bias_filler {
      type: "constant"
      value: 0
    }
  }
}
layer {
  name: "accuracy"
  type: "Accuracy"
  bottom: "fc8"
  bottom: "label"
  top: "accuracy"
  include {
    phase: TEST
  }
}
layer {
  name: "loss"
  type: "SoftmaxWithLoss"
  bottom: "fc8"
  bottom: "label"
  top: "loss"
}
layer {
  name: "accuracy-top1"
  type: "Accuracy"
  bottom: "fc8"
  bottom: "label"
  top: "top-1"
  include {
    phase: TEST
  }
}
I0629 16:33:42.484841  9230 layer_factory.hpp:77] Creating layer data
I0629 16:33:42.485925  9230 internal_thread.cpp:27] Starting internal thread(s) on GPU 0
I0629 16:33:42.486449  9230 net.cpp:94] Creating Layer data
I0629 16:33:42.486459  9230 net.cpp:409] data -> data
I0629 16:33:42.486474  9230 net.cpp:409] data -> label
I0629 16:33:42.489090  9236 db_lmdb.cpp:35] Opened lmdb input/lmdb/valid_lmdb
I0629 16:33:42.489114  9236 db_lmdb.cpp:38] Items count: 4000
I0629 16:33:42.489135  9236 data_reader.cpp:124] TEST: reading data using 1 channel(s)
I0629 16:33:42.489377  9230 data_layer.cpp:78] ReshapePrefetch 50, 3, 227, 227
I0629 16:33:42.489390  9230 data_layer.cpp:83] output data size: 50,3,227,227
I0629 16:33:42.587529  9230 internal_thread.cpp:27] Starting internal thread(s) on GPU 0
I0629 16:33:42.587615  9230 net.cpp:144] Setting up data
I0629 16:33:42.587618  9230 net.cpp:151] Top shape: 50 3 227 227 (7729350)
I0629 16:33:42.587628  9230 net.cpp:151] Top shape: 50 (50)
I0629 16:33:42.587633  9230 net.cpp:159] Memory required for data: 30917600
I0629 16:33:42.587638  9230 layer_factory.hpp:77] Creating layer label_data_1_split
I0629 16:33:42.587647  9230 net.cpp:94] Creating Layer label_data_1_split
I0629 16:33:42.587651  9230 net.cpp:435] label_data_1_split <- label
I0629 16:33:42.587656  9230 net.cpp:409] label_data_1_split -> label_data_1_split_0
I0629 16:33:42.587664  9230 net.cpp:409] label_data_1_split -> label_data_1_split_1
I0629 16:33:42.587671  9230 net.cpp:409] label_data_1_split -> label_data_1_split_2
I0629 16:33:42.587677  9230 net.cpp:144] Setting up label_data_1_split
I0629 16:33:42.587680  9230 net.cpp:151] Top shape: 50 (50)
I0629 16:33:42.587683  9230 net.cpp:151] Top shape: 50 (50)
I0629 16:33:42.587687  9230 net.cpp:151] Top shape: 50 (50)
I0629 16:33:42.587690  9230 net.cpp:159] Memory required for data: 30918200
I0629 16:33:42.587693  9230 layer_factory.hpp:77] Creating layer conv1
I0629 16:33:42.587707  9230 net.cpp:94] Creating Layer conv1
I0629 16:33:42.587728  9230 net.cpp:435] conv1 <- data
I0629 16:33:42.587734  9230 net.cpp:409] conv1 -> conv1
I0629 16:33:42.588088  9230 net.cpp:144] Setting up conv1
I0629 16:33:42.588095  9230 net.cpp:151] Top shape: 50 78 55 55 (11797500)
I0629 16:33:42.588101  9230 net.cpp:159] Memory required for data: 78108200
I0629 16:33:42.588112  9230 layer_factory.hpp:77] Creating layer bn1
I0629 16:33:42.588119  9230 net.cpp:94] Creating Layer bn1
I0629 16:33:42.588124  9230 net.cpp:435] bn1 <- conv1
I0629 16:33:42.588127  9230 net.cpp:409] bn1 -> bn1
I0629 16:33:42.588155  9230 net.cpp:144] Setting up bn1
I0629 16:33:42.588179  9230 net.cpp:151] Top shape: 50 78 55 55 (11797500)
I0629 16:33:42.588186  9230 net.cpp:159] Memory required for data: 125298200
I0629 16:33:42.588196  9230 layer_factory.hpp:77] Creating layer relu1
I0629 16:33:42.588202  9230 net.cpp:94] Creating Layer relu1
I0629 16:33:42.588207  9230 net.cpp:435] relu1 <- bn1
I0629 16:33:42.588210  9230 net.cpp:409] relu1 -> relu1
I0629 16:33:42.588222  9230 net.cpp:144] Setting up relu1
I0629 16:33:42.588227  9230 net.cpp:151] Top shape: 50 78 55 55 (11797500)
I0629 16:33:42.588232  9230 net.cpp:159] Memory required for data: 172488200
I0629 16:33:42.588238  9230 layer_factory.hpp:77] Creating layer pool1
I0629 16:33:42.588244  9230 net.cpp:94] Creating Layer pool1
I0629 16:33:42.588250  9230 net.cpp:435] pool1 <- relu1
I0629 16:33:42.588255  9230 net.cpp:409] pool1 -> pool1
I0629 16:33:42.588266  9230 net.cpp:144] Setting up pool1
I0629 16:33:42.588274  9230 net.cpp:151] Top shape: 50 78 27 27 (2843100)
I0629 16:33:42.588279  9230 net.cpp:159] Memory required for data: 183860600
I0629 16:33:42.588284  9230 layer_factory.hpp:77] Creating layer conv2
I0629 16:33:42.588292  9230 net.cpp:94] Creating Layer conv2
I0629 16:33:42.588296  9230 net.cpp:435] conv2 <- pool1
I0629 16:33:42.588301  9230 net.cpp:409] conv2 -> conv2
I0629 16:33:42.591857  9230 net.cpp:144] Setting up conv2
I0629 16:33:42.591869  9230 net.cpp:151] Top shape: 50 180 27 27 (6561000)
I0629 16:33:42.591874  9230 net.cpp:159] Memory required for data: 210104600
I0629 16:33:42.591883  9230 layer_factory.hpp:77] Creating layer bn2
I0629 16:33:42.591889  9230 net.cpp:94] Creating Layer bn2
I0629 16:33:42.591909  9230 net.cpp:435] bn2 <- conv2
I0629 16:33:42.591914  9230 net.cpp:409] bn2 -> bn2
I0629 16:33:42.591939  9230 net.cpp:144] Setting up bn2
I0629 16:33:42.591948  9230 net.cpp:151] Top shape: 50 180 27 27 (6561000)
I0629 16:33:42.591953  9230 net.cpp:159] Memory required for data: 236348600
I0629 16:33:42.591960  9230 layer_factory.hpp:77] Creating layer relu2
I0629 16:33:42.591965  9230 net.cpp:94] Creating Layer relu2
I0629 16:33:42.591969  9230 net.cpp:435] relu2 <- bn2
I0629 16:33:42.591974  9230 net.cpp:409] relu2 -> relu2
I0629 16:33:42.591979  9230 net.cpp:144] Setting up relu2
I0629 16:33:42.591982  9230 net.cpp:151] Top shape: 50 180 27 27 (6561000)
I0629 16:33:42.591986  9230 net.cpp:159] Memory required for data: 262592600
I0629 16:33:42.591989  9230 layer_factory.hpp:77] Creating layer pool2
I0629 16:33:42.591995  9230 net.cpp:94] Creating Layer pool2
I0629 16:33:42.591997  9230 net.cpp:435] pool2 <- relu2
I0629 16:33:42.592001  9230 net.cpp:409] pool2 -> pool2
I0629 16:33:42.592007  9230 net.cpp:144] Setting up pool2
I0629 16:33:42.592010  9230 net.cpp:151] Top shape: 50 180 13 13 (1521000)
I0629 16:33:42.592015  9230 net.cpp:159] Memory required for data: 268676600
I0629 16:33:42.592018  9230 layer_factory.hpp:77] Creating layer conv3
I0629 16:33:42.592025  9230 net.cpp:94] Creating Layer conv3
I0629 16:33:42.592028  9230 net.cpp:435] conv3 <- pool2
I0629 16:33:42.592033  9230 net.cpp:409] conv3 -> conv3
I0629 16:33:42.592686  9230 net.cpp:144] Setting up conv3
I0629 16:33:42.592694  9230 net.cpp:151] Top shape: 50 40 13 13 (338000)
I0629 16:33:42.592698  9230 net.cpp:159] Memory required for data: 270028600
I0629 16:33:42.592703  9230 layer_factory.hpp:77] Creating layer relu3
I0629 16:33:42.592708  9230 net.cpp:94] Creating Layer relu3
I0629 16:33:42.592712  9230 net.cpp:435] relu3 <- conv3
I0629 16:33:42.592716  9230 net.cpp:409] relu3 -> relu3
I0629 16:33:42.592722  9230 net.cpp:144] Setting up relu3
I0629 16:33:42.592726  9230 net.cpp:151] Top shape: 50 40 13 13 (338000)
I0629 16:33:42.592730  9230 net.cpp:159] Memory required for data: 271380600
I0629 16:33:42.592734  9230 layer_factory.hpp:77] Creating layer conv4
I0629 16:33:42.592741  9230 net.cpp:94] Creating Layer conv4
I0629 16:33:42.592744  9230 net.cpp:435] conv4 <- relu3
I0629 16:33:42.592751  9230 net.cpp:409] conv4 -> conv4
I0629 16:33:42.592950  9230 net.cpp:144] Setting up conv4
I0629 16:33:42.592957  9230 net.cpp:151] Top shape: 50 40 13 13 (338000)
I0629 16:33:42.592972  9230 net.cpp:159] Memory required for data: 272732600
I0629 16:33:42.592979  9230 layer_factory.hpp:77] Creating layer relu4
I0629 16:33:42.592983  9230 net.cpp:94] Creating Layer relu4
I0629 16:33:42.592988  9230 net.cpp:435] relu4 <- conv4
I0629 16:33:42.592991  9230 net.cpp:409] relu4 -> relu4
I0629 16:33:42.592998  9230 net.cpp:144] Setting up relu4
I0629 16:33:42.593001  9230 net.cpp:151] Top shape: 50 40 13 13 (338000)
I0629 16:33:42.593006  9230 net.cpp:159] Memory required for data: 274084600
I0629 16:33:42.593011  9230 layer_factory.hpp:77] Creating layer conv5
I0629 16:33:42.593021  9230 net.cpp:94] Creating Layer conv5
I0629 16:33:42.593026  9230 net.cpp:435] conv5 <- relu4
I0629 16:33:42.593034  9230 net.cpp:409] conv5 -> conv5
I0629 16:33:42.593179  9230 net.cpp:144] Setting up conv5
I0629 16:33:42.593185  9230 net.cpp:151] Top shape: 50 26 13 13 (219700)
I0629 16:33:42.593190  9230 net.cpp:159] Memory required for data: 274963400
I0629 16:33:42.593195  9230 layer_factory.hpp:77] Creating layer relu5
I0629 16:33:42.593200  9230 net.cpp:94] Creating Layer relu5
I0629 16:33:42.593204  9230 net.cpp:435] relu5 <- conv5
I0629 16:33:42.593209  9230 net.cpp:409] relu5 -> relu5
I0629 16:33:42.593215  9230 net.cpp:144] Setting up relu5
I0629 16:33:42.593219  9230 net.cpp:151] Top shape: 50 26 13 13 (219700)
I0629 16:33:42.593223  9230 net.cpp:159] Memory required for data: 275842200
I0629 16:33:42.593226  9230 layer_factory.hpp:77] Creating layer pool5
I0629 16:33:42.593231  9230 net.cpp:94] Creating Layer pool5
I0629 16:33:42.593235  9230 net.cpp:435] pool5 <- relu5
I0629 16:33:42.593241  9230 net.cpp:409] pool5 -> pool5
I0629 16:33:42.593250  9230 net.cpp:144] Setting up pool5
I0629 16:33:42.593255  9230 net.cpp:151] Top shape: 50 26 6 6 (46800)
I0629 16:33:42.593259  9230 net.cpp:159] Memory required for data: 276029400
I0629 16:33:42.593263  9230 layer_factory.hpp:77] Creating layer fc6
I0629 16:33:42.593271  9230 net.cpp:94] Creating Layer fc6
I0629 16:33:42.593276  9230 net.cpp:435] fc6 <- pool5
I0629 16:33:42.593282  9230 net.cpp:409] fc6 -> fc6
I0629 16:33:42.632601  9230 net.cpp:144] Setting up fc6
I0629 16:33:42.632617  9230 net.cpp:151] Top shape: 50 4096 (204800)
I0629 16:33:42.632624  9230 net.cpp:159] Memory required for data: 276848600
I0629 16:33:42.632632  9230 layer_factory.hpp:77] Creating layer relu6
I0629 16:33:42.632639  9230 net.cpp:94] Creating Layer relu6
I0629 16:33:42.632642  9230 net.cpp:435] relu6 <- fc6
I0629 16:33:42.632648  9230 net.cpp:409] relu6 -> relu6
I0629 16:33:42.632658  9230 net.cpp:144] Setting up relu6
I0629 16:33:42.632660  9230 net.cpp:151] Top shape: 50 4096 (204800)
I0629 16:33:42.632664  9230 net.cpp:159] Memory required for data: 277667800
I0629 16:33:42.632668  9230 layer_factory.hpp:77] Creating layer drop6
I0629 16:33:42.632673  9230 net.cpp:94] Creating Layer drop6
I0629 16:33:42.632675  9230 net.cpp:435] drop6 <- relu6
I0629 16:33:42.632679  9230 net.cpp:409] drop6 -> drop6
I0629 16:33:42.632686  9230 net.cpp:144] Setting up drop6
I0629 16:33:42.632689  9230 net.cpp:151] Top shape: 50 4096 (204800)
I0629 16:33:42.632692  9230 net.cpp:159] Memory required for data: 278487000
I0629 16:33:42.632695  9230 layer_factory.hpp:77] Creating layer fc7
I0629 16:33:42.632700  9230 net.cpp:94] Creating Layer fc7
I0629 16:33:42.632719  9230 net.cpp:435] fc7 <- drop6
I0629 16:33:42.632725  9230 net.cpp:409] fc7 -> fc7
I0629 16:33:42.795805  9230 net.cpp:144] Setting up fc7
I0629 16:33:42.795827  9230 net.cpp:151] Top shape: 50 4096 (204800)
I0629 16:33:42.795835  9230 net.cpp:159] Memory required for data: 279306200
I0629 16:33:42.795843  9230 layer_factory.hpp:77] Creating layer bn7
I0629 16:33:42.795853  9230 net.cpp:94] Creating Layer bn7
I0629 16:33:42.795858  9230 net.cpp:435] bn7 <- fc7
I0629 16:33:42.795863  9230 net.cpp:409] bn7 -> bn7
I0629 16:33:42.795982  9230 net.cpp:144] Setting up bn7
I0629 16:33:42.795987  9230 net.cpp:151] Top shape: 50 4096 (204800)
I0629 16:33:42.795991  9230 net.cpp:159] Memory required for data: 280125400
I0629 16:33:42.796010  9230 layer_factory.hpp:77] Creating layer relu7
I0629 16:33:42.796016  9230 net.cpp:94] Creating Layer relu7
I0629 16:33:42.796020  9230 net.cpp:435] relu7 <- bn7
I0629 16:33:42.796025  9230 net.cpp:409] relu7 -> relu7
I0629 16:33:42.796030  9230 net.cpp:144] Setting up relu7
I0629 16:33:42.796033  9230 net.cpp:151] Top shape: 50 4096 (204800)
I0629 16:33:42.796037  9230 net.cpp:159] Memory required for data: 280944600
I0629 16:33:42.796041  9230 layer_factory.hpp:77] Creating layer drop7
I0629 16:33:42.796046  9230 net.cpp:94] Creating Layer drop7
I0629 16:33:42.796048  9230 net.cpp:435] drop7 <- relu7
I0629 16:33:42.796051  9230 net.cpp:409] drop7 -> drop7
I0629 16:33:42.796056  9230 net.cpp:144] Setting up drop7
I0629 16:33:42.796078  9230 net.cpp:151] Top shape: 50 4096 (204800)
I0629 16:33:42.796085  9230 net.cpp:159] Memory required for data: 281763800
I0629 16:33:42.796088  9230 layer_factory.hpp:77] Creating layer fc8
I0629 16:33:42.796093  9230 net.cpp:94] Creating Layer fc8
I0629 16:33:42.796097  9230 net.cpp:435] fc8 <- drop7
I0629 16:33:42.796102  9230 net.cpp:409] fc8 -> fc8
I0629 16:33:42.796216  9230 net.cpp:144] Setting up fc8
I0629 16:33:42.796221  9230 net.cpp:151] Top shape: 50 2 (100)
I0629 16:33:42.796227  9230 net.cpp:159] Memory required for data: 281764200
I0629 16:33:42.796250  9230 layer_factory.hpp:77] Creating layer fc8_fc8_0_split
I0629 16:33:42.796255  9230 net.cpp:94] Creating Layer fc8_fc8_0_split
I0629 16:33:42.796259  9230 net.cpp:435] fc8_fc8_0_split <- fc8
I0629 16:33:42.796263  9230 net.cpp:409] fc8_fc8_0_split -> fc8_fc8_0_split_0
I0629 16:33:42.796270  9230 net.cpp:409] fc8_fc8_0_split -> fc8_fc8_0_split_1
I0629 16:33:42.796277  9230 net.cpp:409] fc8_fc8_0_split -> fc8_fc8_0_split_2
I0629 16:33:42.796283  9230 net.cpp:144] Setting up fc8_fc8_0_split
I0629 16:33:42.796286  9230 net.cpp:151] Top shape: 50 2 (100)
I0629 16:33:42.796293  9230 net.cpp:151] Top shape: 50 2 (100)
I0629 16:33:42.796298  9230 net.cpp:151] Top shape: 50 2 (100)
I0629 16:33:42.796303  9230 net.cpp:159] Memory required for data: 281765400
I0629 16:33:42.796308  9230 layer_factory.hpp:77] Creating layer accuracy
I0629 16:33:42.796316  9230 net.cpp:94] Creating Layer accuracy
I0629 16:33:42.796322  9230 net.cpp:435] accuracy <- fc8_fc8_0_split_0
I0629 16:33:42.796326  9230 net.cpp:435] accuracy <- label_data_1_split_0
I0629 16:33:42.796331  9230 net.cpp:409] accuracy -> accuracy
…
I0630 08:11:19.404481   381 net.cpp:323] The NetState phase (0) differed from the phase (1) specified by a rule in layer accuracy-top1
I0630 08:11:19.404484   381 net.cpp:52] Initializing net from parameters:
state {
  phase: TRAIN
}
layer {
  name: "data"
  type: "ImageData"
  top: "data"
  top: "label"
  include {
    phase: TRAIN
  }
  transform_param {
    crop_size: 227
    mean_value: 106
    mean_value: 116
    mean_value: 124
  }
  image_data_param {
    source: "deploy/alexnetBNnoLRN/pruned/data/calib/calibration.txt"
    batch_size: 10
    shuffle: true
    root_folder: "deploy/alexnetBNnoLRN/pruned/data/calib/"
  }
}
layer {
  name: "conv1"
  type: "Convolution"
  bottom: "data"
  top: "conv1"
  param {
    lr_mult: 1
    decay_mult: 1
  }
  param {
    lr_mult: 2
    decay_mult: 0
  }
  convolution_param {
    num_output: 78
    pad: 1
    kernel_size: 11
    stride: 4
    weight_filler {
      type: "gaussian"
      std: 0.01
    }
    bias_filler {
      type: "constant"
      value: 0
    }
  }
}
layer {
  name: "bn1"
  type: "BatchNorm"
  bottom: "conv1"
  top: "bn1"
  param {
    lr_mult: 0
  }
  param {
    lr_mult: 0
  }
  param {
    lr_mult: 0
  }
  batch_norm_param {
    use_global_stats: false
  }
}
layer {
  name: "relu1"
  type: "ReLU"
  bottom: "bn1"
  top: "relu1"
}
layer {
  name: "pool1"
  type: "Pooling"
  bottom: "relu1"
  top: "pool1"
  pooling_param {
    pool: MAX
    kernel_size: 3
    stride: 2
  }
}
layer {
  name: "conv2"
  type: "Convolution"
  bottom: "pool1"
  top: "conv2"
  param {
    lr_mult: 1
    decay_mult: 1
  }
  param {
    lr_mult: 2
    decay_mult: 0
  }
  convolution_param {
    num_output: 180
    pad: 2
    kernel_size: 5
    group: 1
    weight_filler {
      type: "gaussian"
      std: 0.01
    }
    bias_filler {
      type: "constant"
      value: 1
    }
  }
}
layer {
  name: "bn2"
  type: "BatchNorm"
  bottom: "conv2"
  top: "bn2"
  param {
    lr_mult: 0
  }
  param {
    lr_mult: 0
  }
  param {
    lr_mult: 0
  }
  batch_norm_param {
    use_global_stats: false
  }
}
layer {
  name: "relu2"
  type: "ReLU"
  bottom: "bn2"
  top: "relu2"
}
layer {
  name: "pool2"
  type: "Pooling"
  bottom: "relu2"
  top: "pool2"
  pooling_param {
    pool: MAX
    kernel_size: 3
    stride: 2
  }
}
layer {
  name: "conv3"
  type: "Convolution"
  bottom: "pool2"
  top: "conv3"
  param {
    lr_mult: 1
    decay_mult: 1
  }
  param {
    lr_mult: 2
    decay_mult: 0
  }
  convolution_param {
    num_output: 40
    pad: 1
    kernel_size: 3
    weight_filler {
      type: "gaussian"
      std: 0.01
    }
    bias_filler {
      type: "constant"
      value: 0
    }
  }
}
layer {
  name: "relu3"
  type: "ReLU"
  bottom: "conv3"
  top: "relu3"
}
layer {
  name: "conv4"
  type: "Convolution"
  bottom: "relu3"
  top: "conv4"
  param {
    lr_mult: 1
    decay_mult: 1
  }
  param {
    lr_mult: 2
    decay_mult: 0
  }
  convolution_param {
    num_output: 40
    pad: 1
    kernel_size: 3
    group: 1
    weight_filler {
      type: "gaussian"
      std: 0.01
    }
    bias_filler {
      type: "constant"
      value: 1
    }
  }
}
layer {
  name: "relu4"
  type: "ReLU"
  bottom: "conv4"
  top: "relu4"
}
layer {
  name: "conv5"
  type: "Convolution"
  bottom: "relu4"
  top: "conv5"
  param {
    lr_mult: 1
    decay_mult: 1
  }
  param {
    lr_mult: 2
    decay_mult: 0
  }
  convolution_param {
    num_output: 26
    pad: 1
    kernel_size: 3
    group: 1
    weight_filler {
      type: "gaussian"
      std: 0.01
    }
    bias_filler {
      type: "constant"
      value: 1
    }
  }
}
layer {
  name: "relu5"
  type: "ReLU"
  bottom: "conv5"
  top: "relu5"
}
layer {
  name: "pool5"
  type: "Pooling"
  bottom: "relu5"
  top: "pool5"
  pooling_param {
    pool: MAX
    kernel_size: 3
    stride: 2
  }
}
layer {
  name: "fc6"
  type: "InnerProduct"
  bottom: "pool5"
  top: "fc6"
  param {
    lr_mult: 1
    decay_mult: 1
  }
  param {
    lr_mult: 2
    decay_mult: 0
  }
  inner_product_param {
    num_output: 4096
    weight_filler {
      type: "gaussian"
      std: 0.005
    }
    bias_filler {
      type: "constant"
      value: 1
    }
  }
}
layer {
  name: "relu6"
  type: "ReLU"
  bottom: "fc6"
  top: "relu6"
}
layer {
  name: "fc7"
  type: "InnerProduct"
  bottom: "relu6"
  top: "fc7"
  param {
    lr_mult: 1
    decay_mult: 1
  }
  param {
    lr_mult: 2
    decay_mult: 0
  }
  inner_product_param {
    num_output: 4096
    weight_filler {
      type: "gaussian"
      std: 0.005
    }
    bias_filler {
      type: "constant"
      value: 1
    }
  }
}
layer {
  name: "bn7"
  type: "BatchNorm"
  bottom: "fc7"
  top: "bn7"
  param {
    lr_mult: 0
  }
  param {
    lr_mult: 0
  }
  param {
    lr_mult: 0
  }
  batch_norm_param {
    use_global_stats: false
  }
}
layer {
  name: "relu7"
  type: "ReLU"
  bottom: "bn7"
  top: "relu7"
}
layer {
  name: "fc8"
  type: "InnerProduct"
  bottom: "relu7"
  top: "fc8"
  param {
    lr_mult: 1
    decay_mult: 1
  }
  param {
    lr_mult: 2
    decay_mult: 0
  }
  inner_product_param {
    num_output: 2
    weight_filler {
      type: "gaussian"
      std: 0.01
    }
    bias_filler {
      type: "constant"
      value: 0
    }
  }
}
layer {
  name: "loss"
  type: "SoftmaxWithLoss"
  bottom: "fc8"
  bottom: "label"
  top: "loss"
}
I0630 08:11:19.404721   381 layer_factory.hpp:77] Creating layer data
I0630 08:11:19.404762   381 net.cpp:94] Creating Layer data
I0630 08:11:19.404767   381 net.cpp:409] data -> data
I0630 08:11:19.404778   381 net.cpp:409] data -> label
I0630 08:11:19.405189   381 image_data_layer.cpp:41] Opening file deploy/alexnetBNnoLRN/pruned/data/calib/calibration.txt
I0630 08:11:19.405344   381 image_data_layer.cpp:51] Shuffling data
I0630 08:11:19.405360   381 image_data_layer.cpp:56] A total of 200 images.
I0630 08:11:19.406859   381 image_data_layer.cpp:84] output data size: 10,3,227,227
I0630 08:11:19.429114   381 internal_thread.cpp:27] Starting internal thread(s) on GPU 0
I0630 08:11:19.429211   381 net.cpp:144] Setting up data
I0630 08:11:19.429219   381 net.cpp:151] Top shape: 10 3 227 227 (1545870)
I0630 08:11:19.429227   381 net.cpp:151] Top shape: 10 (10)
I0630 08:11:19.429231   381 net.cpp:159] Memory required for data: 6183520
I0630 08:11:19.429236   381 layer_factory.hpp:77] Creating layer conv1
I0630 08:11:19.429255   381 net.cpp:94] Creating Layer conv1
I0630 08:11:19.429260   381 net.cpp:435] conv1 <- data
I0630 08:11:19.429266   381 net.cpp:409] conv1 -> conv1
I0630 08:11:19.429801   381 net.cpp:144] Setting up conv1
I0630 08:11:19.429808   381 net.cpp:151] Top shape: 10 78 55 55 (2359500)
I0630 08:11:19.429813   381 net.cpp:159] Memory required for data: 15621520
I0630 08:11:19.429834   381 layer_factory.hpp:77] Creating layer bn1
I0630 08:11:19.429841   381 net.cpp:94] Creating Layer bn1
I0630 08:11:19.429844   381 net.cpp:435] bn1 <- conv1
I0630 08:11:19.429849   381 net.cpp:409] bn1 -> bn1
I0630 08:11:19.430372   381 net.cpp:144] Setting up bn1
I0630 08:11:19.430378   381 net.cpp:151] Top shape: 10 78 55 55 (2359500)
I0630 08:11:19.430383   381 net.cpp:159] Memory required for data: 25059520
I0630 08:11:19.430392   381 layer_factory.hpp:77] Creating layer relu1
I0630 08:11:19.430397   381 net.cpp:94] Creating Layer relu1
I0630 08:11:19.430399   381 net.cpp:435] relu1 <- bn1
I0630 08:11:19.430403   381 net.cpp:409] relu1 -> relu1
I0630 08:11:19.430418   381 net.cpp:144] Setting up relu1
I0630 08:11:19.430420   381 net.cpp:151] Top shape: 10 78 55 55 (2359500)
I0630 08:11:19.430424   381 net.cpp:159] Memory required for data: 34497520
I0630 08:11:19.430428   381 layer_factory.hpp:77] Creating layer pool1
I0630 08:11:19.430433   381 net.cpp:94] Creating Layer pool1
I0630 08:11:19.430436   381 net.cpp:435] pool1 <- relu1
I0630 08:11:19.430440   381 net.cpp:409] pool1 -> pool1
I0630 08:11:19.430461   381 net.cpp:144] Setting up pool1
I0630 08:11:19.430465   381 net.cpp:151] Top shape: 10 78 27 27 (568620)
I0630 08:11:19.430469   381 net.cpp:159] Memory required for data: 36772000
I0630 08:11:19.430471   381 layer_factory.hpp:77] Creating layer conv2
I0630 08:11:19.430477   381 net.cpp:94] Creating Layer conv2
I0630 08:11:19.430480   381 net.cpp:435] conv2 <- pool1
I0630 08:11:19.430485   381 net.cpp:409] conv2 -> conv2
I0630 08:11:19.434011   381 net.cpp:144] Setting up conv2
I0630 08:11:19.434024   381 net.cpp:151] Top shape: 10 180 27 27 (1312200)
I0630 08:11:19.434031   381 net.cpp:159] Memory required for data: 42020800
I0630 08:11:19.434038   381 layer_factory.hpp:77] Creating layer bn2
I0630 08:11:19.434046   381 net.cpp:94] Creating Layer bn2
I0630 08:11:19.434056   381 net.cpp:435] bn2 <- conv2
I0630 08:11:19.434060   381 net.cpp:409] bn2 -> bn2
I0630 08:11:19.434572   381 net.cpp:144] Setting up bn2
I0630 08:11:19.434578   381 net.cpp:151] Top shape: 10 180 27 27 (1312200)
I0630 08:11:19.434582   381 net.cpp:159] Memory required for data: 47269600
I0630 08:11:19.434589   381 layer_factory.hpp:77] Creating layer relu2
I0630 08:11:19.434594   381 net.cpp:94] Creating Layer relu2
I0630 08:11:19.434597   381 net.cpp:435] relu2 <- bn2
I0630 08:11:19.434602   381 net.cpp:409] relu2 -> relu2
I0630 08:11:19.434615   381 net.cpp:144] Setting up relu2
I0630 08:11:19.434618   381 net.cpp:151] Top shape: 10 180 27 27 (1312200)
I0630 08:11:19.434623   381 net.cpp:159] Memory required for data: 52518400
I0630 08:11:19.434625   381 layer_factory.hpp:77] Creating layer pool2
I0630 08:11:19.434631   381 net.cpp:94] Creating Layer pool2
I0630 08:11:19.434634   381 net.cpp:435] pool2 <- relu2
I0630 08:11:19.434638   381 net.cpp:409] pool2 -> pool2
I0630 08:11:19.434659   381 net.cpp:144] Setting up pool2
I0630 08:11:19.434662   381 net.cpp:151] Top shape: 10 180 13 13 (304200)
I0630 08:11:19.434666   381 net.cpp:159] Memory required for data: 53735200
I0630 08:11:19.434669   381 layer_factory.hpp:77] Creating layer conv3
I0630 08:11:19.434674   381 net.cpp:94] Creating Layer conv3
I0630 08:11:19.434677   381 net.cpp:435] conv3 <- pool2
I0630 08:11:19.434681   381 net.cpp:409] conv3 -> conv3
I0630 08:11:19.435698   381 net.cpp:144] Setting up conv3
I0630 08:11:19.435705   381 net.cpp:151] Top shape: 10 40 13 13 (67600)
I0630 08:11:19.435711   381 net.cpp:159] Memory required for data: 54005600
I0630 08:11:19.435716   381 layer_factory.hpp:77] Creating layer relu3
I0630 08:11:19.435721   381 net.cpp:94] Creating Layer relu3
I0630 08:11:19.435724   381 net.cpp:435] relu3 <- conv3
I0630 08:11:19.435729   381 net.cpp:409] relu3 -> relu3
I0630 08:11:19.435743   381 net.cpp:144] Setting up relu3
I0630 08:11:19.435746   381 net.cpp:151] Top shape: 10 40 13 13 (67600)
I0630 08:11:19.435750   381 net.cpp:159] Memory required for data: 54276000
I0630 08:11:19.435753   381 layer_factory.hpp:77] Creating layer conv4
I0630 08:11:19.435760   381 net.cpp:94] Creating Layer conv4
I0630 08:11:19.435762   381 net.cpp:435] conv4 <- relu3
I0630 08:11:19.435766   381 net.cpp:409] conv4 -> conv4
I0630 08:11:19.436060   381 net.cpp:144] Setting up conv4
I0630 08:11:19.436065   381 net.cpp:151] Top shape: 10 40 13 13 (67600)
I0630 08:11:19.436069   381 net.cpp:159] Memory required for data: 54546400
I0630 08:11:19.436076   381 layer_factory.hpp:77] Creating layer relu4
I0630 08:11:19.436080   381 net.cpp:94] Creating Layer relu4
I0630 08:11:19.436082   381 net.cpp:435] relu4 <- conv4
I0630 08:11:19.436086   381 net.cpp:409] relu4 -> relu4
I0630 08:11:19.436100   381 net.cpp:144] Setting up relu4
I0630 08:11:19.436103   381 net.cpp:151] Top shape: 10 40 13 13 (67600)
I0630 08:11:19.436107   381 net.cpp:159] Memory required for data: 54816800
I0630 08:11:19.436110   381 layer_factory.hpp:77] Creating layer conv5
I0630 08:11:19.436116   381 net.cpp:94] Creating Layer conv5
I0630 08:11:19.436118   381 net.cpp:435] conv5 <- relu4
I0630 08:11:19.436122   381 net.cpp:409] conv5 -> conv5
I0630 08:11:19.436379   381 net.cpp:144] Setting up conv5
I0630 08:11:19.436384   381 net.cpp:151] Top shape: 10 26 13 13 (43940)
I0630 08:11:19.436388   381 net.cpp:159] Memory required for data: 54992560
I0630 08:11:19.436393   381 layer_factory.hpp:77] Creating layer relu5
I0630 08:11:19.436396   381 net.cpp:94] Creating Layer relu5
I0630 08:11:19.436399   381 net.cpp:435] relu5 <- conv5
I0630 08:11:19.436403   381 net.cpp:409] relu5 -> relu5
I0630 08:11:19.436416   381 net.cpp:144] Setting up relu5
I0630 08:11:19.436419   381 net.cpp:151] Top shape: 10 26 13 13 (43940)
I0630 08:11:19.436422   381 net.cpp:159] Memory required for data: 55168320
I0630 08:11:19.436425   381 layer_factory.hpp:77] Creating layer pool5
I0630 08:11:19.436429   381 net.cpp:94] Creating Layer pool5
I0630 08:11:19.436432   381 net.cpp:435] pool5 <- relu5
I0630 08:11:19.436436   381 net.cpp:409] pool5 -> pool5
I0630 08:11:19.436457   381 net.cpp:144] Setting up pool5
I0630 08:11:19.436460   381 net.cpp:151] Top shape: 10 26 6 6 (9360)
I0630 08:11:19.436465   381 net.cpp:159] Memory required for data: 55205760
I0630 08:11:19.436467   381 layer_factory.hpp:77] Creating layer fc6
I0630 08:11:19.436478   381 net.cpp:94] Creating Layer fc6
I0630 08:11:19.436481   381 net.cpp:435] fc6 <- pool5
I0630 08:11:19.436486   381 net.cpp:409] fc6 -> fc6
I0630 08:11:19.472607   381 net.cpp:144] Setting up fc6
I0630 08:11:19.472628   381 net.cpp:151] Top shape: 10 4096 (40960)
I0630 08:11:19.472635   381 net.cpp:159] Memory required for data: 55369600
I0630 08:11:19.472646   381 layer_factory.hpp:77] Creating layer relu6
I0630 08:11:19.472654   381 net.cpp:94] Creating Layer relu6
I0630 08:11:19.472659   381 net.cpp:435] relu6 <- fc6
I0630 08:11:19.472666   381 net.cpp:409] relu6 -> relu6
I0630 08:11:19.472689   381 net.cpp:144] Setting up relu6
I0630 08:11:19.472692   381 net.cpp:151] Top shape: 10 4096 (40960)
I0630 08:11:19.472695   381 net.cpp:159] Memory required for data: 55533440
I0630 08:11:19.472698   381 layer_factory.hpp:77] Creating layer fc7
I0630 08:11:19.472705   381 net.cpp:94] Creating Layer fc7
I0630 08:11:19.472708   381 net.cpp:435] fc7 <- relu6
I0630 08:11:19.472712   381 net.cpp:409] fc7 -> fc7
I0630 08:11:19.612498   381 net.cpp:144] Setting up fc7
I0630 08:11:19.612517   381 net.cpp:151] Top shape: 10 4096 (40960)
I0630 08:11:19.612524   381 net.cpp:159] Memory required for data: 55697280
I0630 08:11:19.612534   381 layer_factory.hpp:77] Creating layer bn7
I0630 08:11:19.612545   381 net.cpp:94] Creating Layer bn7
I0630 08:11:19.612548   381 net.cpp:435] bn7 <- fc7
I0630 08:11:19.612555   381 net.cpp:409] bn7 -> bn7
I0630 08:11:19.613032   381 net.cpp:144] Setting up bn7
I0630 08:11:19.613040   381 net.cpp:151] Top shape: 10 4096 (40960)
I0630 08:11:19.613044   381 net.cpp:159] Memory required for data: 55861120
I0630 08:11:19.613051   381 layer_factory.hpp:77] Creating layer relu7
I0630 08:11:19.613056   381 net.cpp:94] Creating Layer relu7
I0630 08:11:19.613059   381 net.cpp:435] relu7 <- bn7
I0630 08:11:19.613065   381 net.cpp:409] relu7 -> relu7
I0630 08:11:19.613082   381 net.cpp:144] Setting up relu7
I0630 08:11:19.613088   381 net.cpp:151] Top shape: 10 4096 (40960)
I0630 08:11:19.613091   381 net.cpp:159] Memory required for data: 56024960
I0630 08:11:19.613095   381 layer_factory.hpp:77] Creating layer fc8
I0630 08:11:19.613101   381 net.cpp:94] Creating Layer fc8
I0630 08:11:19.613104   381 net.cpp:435] fc8 <- relu7
I0630 08:11:19.613108   381 net.cpp:409] fc8 -> fc8
I0630 08:11:19.613260   381 net.cpp:144] Setting up fc8
I0630 08:11:19.613265   381 net.cpp:151] Top shape: 10 2 (20)
I0630 08:11:19.613267   381 net.cpp:159] Memory required for data: 56025040
I0630 08:11:19.613272   381 layer_factory.hpp:77] Creating layer loss
I0630 08:11:19.613286   381 net.cpp:94] Creating Layer loss
I0630 08:11:19.613288   381 net.cpp:435] loss <- fc8
I0630 08:11:19.613291   381 net.cpp:435] loss <- label
I0630 08:11:19.613296   381 net.cpp:409] loss -> loss
I0630 08:11:19.613306   381 layer_factory.hpp:77] Creating layer loss
…
I0630 08:11:20.012678   381 net.cpp:323] The NetState phase (0) differed from the phase (1) specified by a rule in layer accuracy-top1
I0630 08:11:20.012681   381 net.cpp:52] Initializing net from parameters:
state {
  phase: TRAIN
}
layer {
  name: "data"
  type: "ImageData"
  top: "data"
  top: "label"
  include {
    phase: TRAIN
  }
  transform_param {
    crop_size: 227
    mean_value: 106
    mean_value: 116
    mean_value: 124
  }
  image_data_param {
    source: "deploy/alexnetBNnoLRN/pruned/data/calib/calibration.txt"
    batch_size: 10
    shuffle: true
    root_folder: "deploy/alexnetBNnoLRN/pruned/data/calib/"
  }
}
layer {
  name: "data_fixed"
  type: "FixedNeuron"
  bottom: "data"
  top: "data"
  param {
    lr_mult: 0
    decay_mult: 0
  }
  fixed_param {
    fixed_method: OVER_FLOW
    bit_width: 8
    follow_data_layer: true
  }
}
layer {
  name: "conv1"
  type: "ConvolutionFixed"
  bottom: "data"
  top: "bn1"
  param {
    lr_mult: 1
    decay_mult: 1
  }
  param {
    lr_mult: 1
    decay_mult: 0
  }
  convolution_param {
    num_output: 78
    bias_term: true
    pad: 1
    kernel_size: 11
    stride: 4
    weight_filler {
      type: "gaussian"
      std: 0.01
    }
    bias_filler {
      type: "constant"
      value: 0
    }
  }
  fixed_param {
    fixed_method: DIFF_S
    bit_width: 8
  }
}
layer {
  name: "relu1"
  type: "ReLU"
  bottom: "bn1"
  top: "relu1"
}
layer {
  name: "pool1"
  type: "Pooling"
  bottom: "relu1"
  top: "pool1"
  pooling_param {
    pool: MAX
    kernel_size: 3
    stride: 2
  }
}
layer {
  name: "pool1_fixed"
  type: "FixedNeuron"
  bottom: "pool1"
  top: "pool1"
  param {
    lr_mult: 0
    decay_mult: 0
  }
  fixed_param {
    fixed_method: DIFF_S
    bit_width: 8
  }
}
layer {
  name: "conv2"
  type: "ConvolutionFixed"
  bottom: "pool1"
  top: "bn2"
  param {
    lr_mult: 1
    decay_mult: 1
  }
  param {
    lr_mult: 1
    decay_mult: 0
  }
  convolution_param {
    num_output: 180
    bias_term: true
    pad: 2
    kernel_size: 5
    group: 1
    weight_filler {
      type: "gaussian"
      std: 0.01
    }
    bias_filler {
      type: "constant"
      value: 1
    }
  }
  fixed_param {
    fixed_method: DIFF_S
    bit_width: 8
  }
}
layer {
  name: "relu2"
  type: "ReLU"
  bottom: "bn2"
  top: "relu2"
}
layer {
  name: "pool2"
  type: "Pooling"
  bottom: "relu2"
  top: "pool2"
  pooling_param {
    pool: MAX
    kernel_size: 3
    stride: 2
  }
}
layer {
  name: "pool2_fixed"
  type: "FixedNeuron"
  bottom: "pool2"
  top: "pool2"
  param {
    lr_mult: 0
    decay_mult: 0
  }
  fixed_param {
    fixed_method: DIFF_S
    bit_width: 8
  }
}
layer {
  name: "conv3"
  type: "ConvolutionFixed"
  bottom: "pool2"
  top: "conv3"
  param {
    lr_mult: 1
    decay_mult: 1
  }
  param {
    lr_mult: 2
    decay_mult: 0
  }
  convolution_param {
    num_output: 40
    pad: 1
    kernel_size: 3
    weight_filler {
      type: "gaussian"
      std: 0.01
    }
    bias_filler {
      type: "constant"
      value: 0
    }
  }
  fixed_param {
    fixed_method: DIFF_S
    bit_width: 8
  }
}
layer {
  name: "relu3"
  type: "ReLU"
  bottom: "conv3"
  top: "relu3"
}
layer {
  name: "relu3_fixed"
  type: "FixedNeuron"
  bottom: "relu3"
  top: "relu3"
  param {
    lr_mult: 0
    decay_mult: 0
  }
  fixed_param {
    fixed_method: DIFF_S
    bit_width: 8
  }
}
layer {
  name: "conv4"
  type: "ConvolutionFixed"
  bottom: "relu3"
  top: "conv4"
  param {
    lr_mult: 1
    decay_mult: 1
  }
  param {
    lr_mult: 2
    decay_mult: 0
  }
  convolution_param {
    num_output: 40
    pad: 1
    kernel_size: 3
    group: 1
    weight_filler {
      type: "gaussian"
      std: 0.01
    }
    bias_filler {
      type: "constant"
      value: 1
    }
  }
  fixed_param {
    fixed_method: DIFF_S
    bit_width: 8
  }
}
layer {
  name: "relu4"
  type: "ReLU"
  bottom: "conv4"
  top: "relu4"
}
layer {
  name: "relu4_fixed"
  type: "FixedNeuron"
  bottom: "relu4"
  top: "relu4"
  param {
    lr_mult: 0
    decay_mult: 0
  }
  fixed_param {
    fixed_method: DIFF_S
    bit_width: 8
  }
}
layer {
  name: "conv5"
  type: "ConvolutionFixed"
  bottom: "relu4"
  top: "conv5"
  param {
    lr_mult: 1
    decay_mult: 1
  }
  param {
    lr_mult: 2
    decay_mult: 0
  }
  convolution_param {
    num_output: 26
    pad: 1
    kernel_size: 3
    group: 1
    weight_filler {
      type: "gaussian"
      std: 0.01
    }
    bias_filler {
      type: "constant"
      value: 1
    }
  }
  fixed_param {
    fixed_method: DIFF_S
    bit_width: 8
  }
}
layer {
  name: "relu5"
  type: "ReLU"
  bottom: "conv5"
  top: "relu5"
}
layer {
  name: "pool5"
  type: "Pooling"
  bottom: "relu5"
  top: "pool5"
  pooling_param {
    pool: MAX
    kernel_size: 3
    stride: 2
  }
}
layer {
  name: "pool5_fixed"
  type: "FixedNeuron"
  bottom: "pool5"
  top: "pool5"
  param {
    lr_mult: 0
    decay_mult: 0
  }
  fixed_param {
    fixed_method: DIFF_S
    bit_width: 8
  }
}
layer {
  name: "fc6"
  type: "InnerProductFixed"
  bottom: "pool5"
  top: "fc6"
  param {
    lr_mult: 1
    decay_mult: 1
  }
  param {
    lr_mult: 2
    decay_mult: 0
  }
  inner_product_param {
    num_output: 4096
    weight_filler {
      type: "gaussian"
      std: 0.005
    }
    bias_filler {
      type: "constant"
      value: 1
    }
  }
  fixed_param {
    fixed_method: DIFF_S
    bit_width: 8
  }
}
layer {
  name: "relu6"
  type: "ReLU"
  bottom: "fc6"
  top: "relu6"
}
layer {
  name: "relu6_fixed"
  type: "FixedNeuron"
  bottom: "relu6"
  top: "relu6"
  param {
    lr_mult: 0
    decay_mult: 0
  }
  fixed_param {
    fixed_method: DIFF_S
    bit_width: 8
  }
}
layer {
  name: "fc7"
  type: "InnerProductFixed"
  bottom: "relu6"
  top: "bn7"
  param {
    lr_mult: 1
    decay_mult: 1
  }
  param {
    lr_mult: 1
    decay_mult: 0
  }
  inner_product_param {
    num_output: 4096
    bias_term: true
    weight_filler {
      type: "gaussian"
      std: 0.005
    }
    bias_filler {
      type: "constant"
      value: 1
    }
  }
  fixed_param {
    fixed_method: DIFF_S
    bit_width: 8
  }
}
layer {
  name: "relu7"
  type: "ReLU"
  bottom: "bn7"
  top: "relu7"
}
layer {
  name: "relu7_fixed"
  type: "FixedNeuron"
  bottom: "relu7"
  top: "relu7"
  param {
    lr_mult: 0
    decay_mult: 0
  }
  fixed_param {
    fixed_method: DIFF_S
    bit_width: 8
  }
}
layer {
  name: "fc8"
  type: "InnerProductFixed"
  bottom: "relu7"
  top: "fc8"
  param {
    lr_mult: 1
    decay_mult: 1
  }
  param {
    lr_mult: 2
    decay_mult: 0
  }
  inner_product_param {
    num_output: 2
    weight_filler {
      type: "gaussian"
      std: 0.01
    }
    bias_filler {
      type: "constant"
      value: 0
    }
  }
  fixed_param {
    fixed_method: DIFF_S
    bit_width: 8
  }
}
layer {
  name: "fc8_fixed"
  type: "FixedNeuron"
  bottom: "fc8"
  top: "fc8"
  param {
    lr_mult: 0
    decay_mult: 0
  }
  fixed_param {
    fixed_method: DIFF_S
    bit_width: 8
  }
}
layer {
  name: "loss"
  type: "SoftmaxWithLoss"
  bottom: "fc8"
  bottom: "label"
  top: "loss"
}
I0630 08:11:20.012867   381 layer_factory.hpp:77] Creating layer data
I0630 08:11:20.012879   381 net.cpp:94] Creating Layer data
I0630 08:11:20.012883   381 net.cpp:409] data -> data
I0630 08:11:20.012889   381 net.cpp:409] data -> label
I0630 08:11:20.012899   381 image_data_layer.cpp:41] Opening file deploy/alexnetBNnoLRN/pruned/data/calib/calibration.txt
I0630 08:11:20.012985   381 image_data_layer.cpp:51] Shuffling data
I0630 08:11:20.012997   381 image_data_layer.cpp:56] A total of 200 images.
I0630 08:11:20.014544   381 image_data_layer.cpp:84] output data size: 10,3,227,227
I0630 08:11:20.036832   381 internal_thread.cpp:27] Starting internal thread(s) on GPU 0
I0630 08:11:20.036911   381 net.cpp:144] Setting up data
I0630 08:11:20.036916   381 net.cpp:151] Top shape: 10 3 227 227 (1545870)
I0630 08:11:20.036926   381 net.cpp:151] Top shape: 10 (10)
I0630 08:11:20.036929   381 net.cpp:159] Memory required for data: 6183520
I0630 08:11:20.036933   381 layer_factory.hpp:77] Creating layer data_fixed
I0630 08:11:20.036952   381 net.cpp:94] Creating Layer data_fixed
I0630 08:11:20.036955   381 net.cpp:435] data_fixed <- data
I0630 08:11:20.036962   381 net.cpp:396] data_fixed -> data (in-place)
I0630 08:11:20.037007   381 net.cpp:144] Setting up data_fixed
I0630 08:11:20.037012   381 net.cpp:151] Top shape: 10 3 227 227 (1545870)
I0630 08:11:20.037016   381 net.cpp:159] Memory required for data: 12367000
I0630 08:11:20.037024   381 layer_factory.hpp:77] Creating layer conv1
I0630 08:11:20.037034   381 net.cpp:94] Creating Layer conv1
I0630 08:11:20.037036   381 net.cpp:435] conv1 <- data
I0630 08:11:20.037041   381 net.cpp:409] conv1 -> bn1
I0630 08:11:20.037479   381 layer_factory.hpp:77] Creating layer conv1
I0630 08:11:20.037935   381 net.cpp:144] Setting up conv1
I0630 08:11:20.037941   381 net.cpp:151] Top shape: 10 78 55 55 (2359500)
I0630 08:11:20.037946   381 net.cpp:159] Memory required for data: 21805000
I0630 08:11:20.037955   381 layer_factory.hpp:77] Creating layer relu1
I0630 08:11:20.037959   381 net.cpp:94] Creating Layer relu1
I0630 08:11:20.037962   381 net.cpp:435] relu1 <- bn1
I0630 08:11:20.037966   381 net.cpp:409] relu1 -> relu1
I0630 08:11:20.037981   381 net.cpp:144] Setting up relu1
I0630 08:11:20.037984   381 net.cpp:151] Top shape: 10 78 55 55 (2359500)
I0630 08:11:20.037988   381 net.cpp:159] Memory required for data: 31243000
I0630 08:11:20.037992   381 layer_factory.hpp:77] Creating layer pool1
I0630 08:11:20.037997   381 net.cpp:94] Creating Layer pool1
I0630 08:11:20.037999   381 net.cpp:435] pool1 <- relu1
I0630 08:11:20.038003   381 net.cpp:409] pool1 -> pool1
I0630 08:11:20.038028   381 net.cpp:144] Setting up pool1
I0630 08:11:20.038030   381 net.cpp:151] Top shape: 10 78 27 27 (568620)
I0630 08:11:20.038034   381 net.cpp:159] Memory required for data: 33517480
I0630 08:11:20.038038   381 layer_factory.hpp:77] Creating layer pool1_fixed
I0630 08:11:20.038043   381 net.cpp:94] Creating Layer pool1_fixed
I0630 08:11:20.038045   381 net.cpp:435] pool1_fixed <- pool1
I0630 08:11:20.038058   381 net.cpp:396] pool1_fixed -> pool1 (in-place)
I0630 08:11:20.038079   381 net.cpp:144] Setting up pool1_fixed
I0630 08:11:20.038082   381 net.cpp:151] Top shape: 10 78 27 27 (568620)
I0630 08:11:20.038086   381 net.cpp:159] Memory required for data: 35791960
I0630 08:11:20.038090   381 layer_factory.hpp:77] Creating layer conv2
I0630 08:11:20.038097   381 net.cpp:94] Creating Layer conv2
I0630 08:11:20.038100   381 net.cpp:435] conv2 <- pool1
I0630 08:11:20.038103   381 net.cpp:409] conv2 -> bn2
I0630 08:11:20.041548   381 layer_factory.hpp:77] Creating layer conv2
I0630 08:11:20.045606   381 net.cpp:144] Setting up conv2
I0630 08:11:20.045619   381 net.cpp:151] Top shape: 10 180 27 27 (1312200)
I0630 08:11:20.045625   381 net.cpp:159] Memory required for data: 41040760
I0630 08:11:20.045634   381 layer_factory.hpp:77] Creating layer relu2
I0630 08:11:20.045639   381 net.cpp:94] Creating Layer relu2
I0630 08:11:20.045642   381 net.cpp:435] relu2 <- bn2
I0630 08:11:20.045646   381 net.cpp:409] relu2 -> relu2
I0630 08:11:20.045677   381 net.cpp:144] Setting up relu2
I0630 08:11:20.045680   381 net.cpp:151] Top shape: 10 180 27 27 (1312200)
I0630 08:11:20.045683   381 net.cpp:159] Memory required for data: 46289560
I0630 08:11:20.045686   381 layer_factory.hpp:77] Creating layer pool2
I0630 08:11:20.045692   381 net.cpp:94] Creating Layer pool2
I0630 08:11:20.045694   381 net.cpp:435] pool2 <- relu2
I0630 08:11:20.045698   381 net.cpp:409] pool2 -> pool2
I0630 08:11:20.045720   381 net.cpp:144] Setting up pool2
I0630 08:11:20.045723   381 net.cpp:151] Top shape: 10 180 13 13 (304200)
I0630 08:11:20.045727   381 net.cpp:159] Memory required for data: 47506360
I0630 08:11:20.045729   381 layer_factory.hpp:77] Creating layer pool2_fixed
I0630 08:11:20.045735   381 net.cpp:94] Creating Layer pool2_fixed
I0630 08:11:20.045737   381 net.cpp:435] pool2_fixed <- pool2
I0630 08:11:20.045742   381 net.cpp:396] pool2_fixed -> pool2 (in-place)
I0630 08:11:20.045760   381 net.cpp:144] Setting up pool2_fixed
I0630 08:11:20.045763   381 net.cpp:151] Top shape: 10 180 13 13 (304200)
I0630 08:11:20.045768   381 net.cpp:159] Memory required for data: 48723160
I0630 08:11:20.045770   381 layer_factory.hpp:77] Creating layer conv3
I0630 08:11:20.045778   381 net.cpp:94] Creating Layer conv3
I0630 08:11:20.045779   381 net.cpp:435] conv3 <- pool2
I0630 08:11:20.045783   381 net.cpp:409] conv3 -> conv3
I0630 08:11:20.046465   381 layer_factory.hpp:77] Creating layer conv3
I0630 08:11:20.047224   381 net.cpp:144] Setting up conv3
I0630 08:11:20.047230   381 net.cpp:151] Top shape: 10 40 13 13 (67600)
I0630 08:11:20.047235   381 net.cpp:159] Memory required for data: 48993560
I0630 08:11:20.047241   381 layer_factory.hpp:77] Creating layer relu3
I0630 08:11:20.047246   381 net.cpp:94] Creating Layer relu3
I0630 08:11:20.047250   381 net.cpp:435] relu3 <- conv3
I0630 08:11:20.047253   381 net.cpp:409] relu3 -> relu3
I0630 08:11:20.047268   381 net.cpp:144] Setting up relu3
I0630 08:11:20.047271   381 net.cpp:151] Top shape: 10 40 13 13 (67600)
I0630 08:11:20.047276   381 net.cpp:159] Memory required for data: 49263960
I0630 08:11:20.047278   381 layer_factory.hpp:77] Creating layer relu3_fixed
I0630 08:11:20.047282   381 net.cpp:94] Creating Layer relu3_fixed
I0630 08:11:20.047286   381 net.cpp:435] relu3_fixed <- relu3
I0630 08:11:20.047289   381 net.cpp:396] relu3_fixed -> relu3 (in-place)
I0630 08:11:20.047309   381 net.cpp:144] Setting up relu3_fixed
I0630 08:11:20.047312   381 net.cpp:151] Top shape: 10 40 13 13 (67600)
I0630 08:11:20.047317   381 net.cpp:159] Memory required for data: 49534360
I0630 08:11:20.047320   381 layer_factory.hpp:77] Creating layer conv4
I0630 08:11:20.047327   381 net.cpp:94] Creating Layer conv4
I0630 08:11:20.047329   381 net.cpp:435] conv4 <- relu3
I0630 08:11:20.047333   381 net.cpp:409] conv4 -> conv4
I0630 08:11:20.047575   381 layer_factory.hpp:77] Creating layer conv4
I0630 08:11:20.047924   381 net.cpp:144] Setting up conv4
I0630 08:11:20.047930   381 net.cpp:151] Top shape: 10 40 13 13 (67600)
I0630 08:11:20.047933   381 net.cpp:159] Memory required for data: 49804760
I0630 08:11:20.047938   381 layer_factory.hpp:77] Creating layer relu4
I0630 08:11:20.047942   381 net.cpp:94] Creating Layer relu4
I0630 08:11:20.047945   381 net.cpp:435] relu4 <- conv4
I0630 08:11:20.047948   381 net.cpp:409] relu4 -> relu4
I0630 08:11:20.047962   381 net.cpp:144] Setting up relu4
I0630 08:11:20.047966   381 net.cpp:151] Top shape: 10 40 13 13 (67600)
I0630 08:11:20.047969   381 net.cpp:159] Memory required for data: 50075160
I0630 08:11:20.047972   381 layer_factory.hpp:77] Creating layer relu4_fixed
I0630 08:11:20.047976   381 net.cpp:94] Creating Layer relu4_fixed
I0630 08:11:20.047979   381 net.cpp:435] relu4_fixed <- relu4
I0630 08:11:20.047983   381 net.cpp:396] relu4_fixed -> relu4 (in-place)
I0630 08:11:20.048003   381 net.cpp:144] Setting up relu4_fixed
I0630 08:11:20.048007   381 net.cpp:151] Top shape: 10 40 13 13 (67600)
I0630 08:11:20.048010   381 net.cpp:159] Memory required for data: 50345560
I0630 08:11:20.048014   381 layer_factory.hpp:77] Creating layer conv5
I0630 08:11:20.048020   381 net.cpp:94] Creating Layer conv5
I0630 08:11:20.048023   381 net.cpp:435] conv5 <- relu4
I0630 08:11:20.048027   381 net.cpp:409] conv5 -> conv5
I0630 08:11:20.048238   381 layer_factory.hpp:77] Creating layer conv5
I0630 08:11:20.048542   381 net.cpp:144] Setting up conv5
I0630 08:11:20.048547   381 net.cpp:151] Top shape: 10 26 13 13 (43940)
I0630 08:11:20.048552   381 net.cpp:159] Memory required for data: 50521320
I0630 08:11:20.048555   381 layer_factory.hpp:77] Creating layer relu5
I0630 08:11:20.048559   381 net.cpp:94] Creating Layer relu5
I0630 08:11:20.048563   381 net.cpp:435] relu5 <- conv5
I0630 08:11:20.048565   381 net.cpp:409] relu5 -> relu5
I0630 08:11:20.048579   381 net.cpp:144] Setting up relu5
I0630 08:11:20.048583   381 net.cpp:151] Top shape: 10 26 13 13 (43940)
I0630 08:11:20.048586   381 net.cpp:159] Memory required for data: 50697080
I0630 08:11:20.048589   381 layer_factory.hpp:77] Creating layer pool5
I0630 08:11:20.048593   381 net.cpp:94] Creating Layer pool5
I0630 08:11:20.048596   381 net.cpp:435] pool5 <- relu5
I0630 08:11:20.048600   381 net.cpp:409] pool5 -> pool5
I0630 08:11:20.048621   381 net.cpp:144] Setting up pool5
I0630 08:11:20.048626   381 net.cpp:151] Top shape: 10 26 6 6 (9360)
I0630 08:11:20.048631   381 net.cpp:159] Memory required for data: 50734520
I0630 08:11:20.048635   381 layer_factory.hpp:77] Creating layer pool5_fixed
I0630 08:11:20.048638   381 net.cpp:94] Creating Layer pool5_fixed
I0630 08:11:20.048641   381 net.cpp:435] pool5_fixed <- pool5
I0630 08:11:20.048645   381 net.cpp:396] pool5_fixed -> pool5 (in-place)
I0630 08:11:20.048666   381 net.cpp:144] Setting up pool5_fixed
I0630 08:11:20.048668   381 net.cpp:151] Top shape: 10 26 6 6 (9360)
I0630 08:11:20.048672   381 net.cpp:159] Memory required for data: 50771960
I0630 08:11:20.048676   381 layer_factory.hpp:77] Creating layer fc6
I0630 08:11:20.048681   381 net.cpp:94] Creating Layer fc6
I0630 08:11:20.048684   381 net.cpp:435] fc6 <- pool5
I0630 08:11:20.048688   381 net.cpp:409] fc6 -> fc6
I0630 08:11:20.081426   381 layer_factory.hpp:77] Creating layer fc6
I0630 08:11:20.113795   381 net.cpp:144] Setting up fc6
I0630 08:11:20.113816   381 net.cpp:151] Top shape: 10 4096 (40960)
I0630 08:11:20.113821   381 net.cpp:159] Memory required for data: 50935800
I0630 08:11:20.113833   381 layer_factory.hpp:77] Creating layer relu6
I0630 08:11:20.113840   381 net.cpp:94] Creating Layer relu6
I0630 08:11:20.113844   381 net.cpp:435] relu6 <- fc6
I0630 08:11:20.113850   381 net.cpp:409] relu6 -> relu6
I0630 08:11:20.113869   381 net.cpp:144] Setting up relu6
I0630 08:11:20.113873   381 net.cpp:151] Top shape: 10 4096 (40960)
I0630 08:11:20.113876   381 net.cpp:159] Memory required for data: 51099640
I0630 08:11:20.113879   381 layer_factory.hpp:77] Creating layer relu6_fixed
I0630 08:11:20.113885   381 net.cpp:94] Creating Layer relu6_fixed
I0630 08:11:20.113888   381 net.cpp:435] relu6_fixed <- relu6
I0630 08:11:20.113891   381 net.cpp:396] relu6_fixed -> relu6 (in-place)
I0630 08:11:20.113911   381 net.cpp:144] Setting up relu6_fixed
I0630 08:11:20.113914   381 net.cpp:151] Top shape: 10 4096 (40960)
I0630 08:11:20.113916   381 net.cpp:159] Memory required for data: 51263480
I0630 08:11:20.113919   381 layer_factory.hpp:77] Creating layer fc7
I0630 08:11:20.113924   381 net.cpp:94] Creating Layer fc7
I0630 08:11:20.113927   381 net.cpp:435] fc7 <- relu6
I0630 08:11:20.113930   381 net.cpp:409] fc7 -> bn7
I0630 08:11:20.252655   381 layer_factory.hpp:77] Creating layer fc7
I0630 08:11:20.385092   381 net.cpp:144] Setting up fc7
I0630 08:11:20.385115   381 net.cpp:151] Top shape: 10 4096 (40960)
I0630 08:11:20.385121   381 net.cpp:159] Memory required for data: 51427320
I0630 08:11:20.385131   381 layer_factory.hpp:77] Creating layer relu7
I0630 08:11:20.385139   381 net.cpp:94] Creating Layer relu7
I0630 08:11:20.385143   381 net.cpp:435] relu7 <- bn7
I0630 08:11:20.385149   381 net.cpp:409] relu7 -> relu7
I0630 08:11:20.385181   381 net.cpp:144] Setting up relu7
I0630 08:11:20.385185   381 net.cpp:151] Top shape: 10 4096 (40960)
I0630 08:11:20.385188   381 net.cpp:159] Memory required for data: 51591160
I0630 08:11:20.385191   381 layer_factory.hpp:77] Creating layer relu7_fixed
I0630 08:11:20.385200   381 net.cpp:94] Creating Layer relu7_fixed
I0630 08:11:20.385202   381 net.cpp:435] relu7_fixed <- relu7
I0630 08:11:20.385206   381 net.cpp:396] relu7_fixed -> relu7 (in-place)
I0630 08:11:20.385231   381 net.cpp:144] Setting up relu7_fixed
I0630 08:11:20.385253   381 net.cpp:151] Top shape: 10 4096 (40960)
I0630 08:11:20.385257   381 net.cpp:159] Memory required for data: 51755000
I0630 08:11:20.385260   381 layer_factory.hpp:77] Creating layer fc8
I0630 08:11:20.385267   381 net.cpp:94] Creating Layer fc8
I0630 08:11:20.385269   381 net.cpp:435] fc8 <- relu7
I0630 08:11:20.385273   381 net.cpp:409] fc8 -> fc8
I0630 08:11:20.385381   381 layer_factory.hpp:77] Creating layer fc8
I0630 08:11:20.385556   381 net.cpp:144] Setting up fc8
I0630 08:11:20.385561   381 net.cpp:151] Top shape: 10 2 (20)
I0630 08:11:20.385565   381 net.cpp:159] Memory required for data: 51755080
I0630 08:11:20.385569   381 layer_factory.hpp:77] Creating layer fc8_fixed
I0630 08:11:20.385573   381 net.cpp:94] Creating Layer fc8_fixed
I0630 08:11:20.385576   381 net.cpp:435] fc8_fixed <- fc8
I0630 08:11:20.385581   381 net.cpp:396] fc8_fixed -> fc8 (in-place)
I0630 08:11:20.385601   381 net.cpp:144] Setting up fc8_fixed
I0630 08:11:20.385603   381 net.cpp:151] Top shape: 10 2 (20)
I0630 08:11:20.385607   381 net.cpp:159] Memory required for data: 51755160
I0630 08:11:20.385609   381 layer_factory.hpp:77] Creating layer loss
I0630 08:11:20.385614   381 net.cpp:94] Creating Layer loss
I0630 08:11:20.385617   381 net.cpp:435] loss <- fc8
I0630 08:11:20.385619   381 net.cpp:435] loss <- label
I0630 08:11:20.385623   381 net.cpp:409] loss -> loss
I0630 08:11:20.385629   381 layer_factory.hpp:77] Creating layer loss
…
I0630 08:11:22.454398   381 net.cpp:284] Network initialization done.
I0630 08:11:22.512554   381 net.cpp:323] The NetState phase (1) differed from the phase (0) specified by a rule in layer data
I0630 08:11:22.512581   381 net.cpp:52] Initializing net from parameters:
layer {
  name: "data"
  type: "Data"
  top: "data"
  top: "label"
  include {
    phase: TEST
  }
  transform_param {
    mirror: false
    crop_size: 227
    mean_value: 106
    mean_value: 116
    mean_value: 124
  }
  data_param {
    source: "input/lmdb/valid_lmdb"
    batch_size: 50
    backend: LMDB
  }
}
layer {
  name: "data_fixed"
  type: "FixedNeuron"
  bottom: "data"
  top: "data"
  param {
    lr_mult: 0
    decay_mult: 0
  }
  fixed_param {
    fixed_method: OVER_FLOW
    bit_width: 8
    follow_data_layer: true
  }
}
layer {
  name: "conv1"
  type: "ConvolutionFixed"
  bottom: "data"
  top: "bn1"
  param {
    lr_mult: 1
    decay_mult: 1
  }
  param {
    lr_mult: 1
    decay_mult: 0
  }
  convolution_param {
    num_output: 78
    bias_term: true
    pad: 1
    kernel_size: 11
    stride: 4
    weight_filler {
      type: "gaussian"
      std: 0.01
    }
    bias_filler {
      type: "constant"
      value: 0
    }
  }
  fixed_param {
    fixed_method: DIFF_S
    bit_width: 8
  }
}
layer {
  name: "relu1"
  type: "ReLU"
  bottom: "bn1"
  top: "relu1"
}
layer {
  name: "pool1"
  type: "Pooling"
  bottom: "relu1"
  top: "pool1"
  pooling_param {
    pool: MAX
    kernel_size: 3
    stride: 2
  }
}
layer {
  name: "pool1_fixed"
  type: "FixedNeuron"
  bottom: "pool1"
  top: "pool1"
  param {
    lr_mult: 0
    decay_mult: 0
  }
  fixed_param {
    fixed_method: DIFF_S
    bit_width: 8
  }
}
layer {
  name: "conv2"
  type: "ConvolutionFixed"
  bottom: "pool1"
  top: "bn2"
  param {
    lr_mult: 1
    decay_mult: 1
  }
  param {
    lr_mult: 1
    decay_mult: 0
  }
  convolution_param {
    num_output: 180
    bias_term: true
    pad: 2
    kernel_size: 5
    group: 1
    weight_filler {
      type: "gaussian"
      std: 0.01
    }
    bias_filler {
      type: "constant"
      value: 1
    }
  }
  fixed_param {
    fixed_method: DIFF_S
    bit_width: 8
  }
}
layer {
  name: "relu2"
  type: "ReLU"
  bottom: "bn2"
  top: "relu2"
}
layer {
  name: "pool2"
  type: "Pooling"
  bottom: "relu2"
  top: "pool2"
  pooling_param {
    pool: MAX
    kernel_size: 3
    stride: 2
  }
}
layer {
  name: "pool2_fixed"
  type: "FixedNeuron"
  bottom: "pool2"
  top: "pool2"
  param {
    lr_mult: 0
    decay_mult: 0
  }
  fixed_param {
    fixed_method: DIFF_S
    bit_width: 8
  }
}
layer {
  name: "conv3"
  type: "ConvolutionFixed"
  bottom: "pool2"
  top: "conv3"
  param {
    lr_mult: 1
    decay_mult: 1
  }
  param {
    lr_mult: 2
    decay_mult: 0
  }
  convolution_param {
    num_output: 40
    pad: 1
    kernel_size: 3
    weight_filler {
      type: "gaussian"
      std: 0.01
    }
    bias_filler {
      type: "constant"
      value: 0
    }
  }
  fixed_param {
    fixed_method: DIFF_S
    bit_width: 8
  }
}
layer {
  name: "relu3"
  type: "ReLU"
  bottom: "conv3"
  top: "relu3"
}
layer {
  name: "relu3_fixed"
  type: "FixedNeuron"
  bottom: "relu3"
  top: "relu3"
  param {
    lr_mult: 0
    decay_mult: 0
  }
  fixed_param {
    fixed_method: DIFF_S
    bit_width: 8
  }
}
layer {
  name: "conv4"
  type: "ConvolutionFixed"
  bottom: "relu3"
  top: "conv4"
  param {
    lr_mult: 1
    decay_mult: 1
  }
  param {
    lr_mult: 2
    decay_mult: 0
  }
  convolution_param {
    num_output: 40
    pad: 1
    kernel_size: 3
    group: 1
    weight_filler {
      type: "gaussian"
      std: 0.01
    }
    bias_filler {
      type: "constant"
      value: 1
    }
  }
  fixed_param {
    fixed_method: DIFF_S
    bit_width: 8
  }
}
layer {
  name: "relu4"
  type: "ReLU"
  bottom: "conv4"
  top: "relu4"
}
layer {
  name: "relu4_fixed"
  type: "FixedNeuron"
  bottom: "relu4"
  top: "relu4"
  param {
    lr_mult: 0
    decay_mult: 0
  }
  fixed_param {
    fixed_method: DIFF_S
    bit_width: 8
  }
}
layer {
  name: "conv5"
  type: "ConvolutionFixed"
  bottom: "relu4"
  top: "conv5"
  param {
    lr_mult: 1
    decay_mult: 1
  }
  param {
    lr_mult: 2
    decay_mult: 0
  }
  convolution_param {
    num_output: 26
    pad: 1
    kernel_size: 3
    group: 1
    weight_filler {
      type: "gaussian"
      std: 0.01
    }
    bias_filler {
      type: "constant"
      value: 1
    }
  }
  fixed_param {
    fixed_method: DIFF_S
    bit_width: 8
  }
}
layer {
  name: "relu5"
  type: "ReLU"
  bottom: "conv5"
  top: "relu5"
}
layer {
  name: "pool5"
  type: "Pooling"
  bottom: "relu5"
  top: "pool5"
  pooling_param {
    pool: MAX
    kernel_size: 3
    stride: 2
  }
}
layer {
  name: "pool5_fixed"
  type: "FixedNeuron"
  bottom: "pool5"
  top: "pool5"
  param {
    lr_mult: 0
    decay_mult: 0
  }
  fixed_param {
    fixed_method: DIFF_S
    bit_width: 8
  }
}
layer {
  name: "fc6"
  type: "InnerProductFixed"
  bottom: "pool5"
  top: "fc6"
  param {
    lr_mult: 1
    decay_mult: 1
  }
  param {
    lr_mult: 2
    decay_mult: 0
  }
  inner_product_param {
    num_output: 4096
    weight_filler {
      type: "gaussian"
      std: 0.005
    }
    bias_filler {
      type: "constant"
      value: 1
    }
  }
  fixed_param {
    fixed_method: DIFF_S
    bit_width: 8
  }
}
layer {
  name: "relu6"
  type: "ReLU"
  bottom: "fc6"
  top: "relu6"
}
layer {
  name: "relu6_fixed"
  type: "FixedNeuron"
  bottom: "relu6"
  top: "relu6"
  param {
    lr_mult: 0
    decay_mult: 0
  }
  fixed_param {
    fixed_method: DIFF_S
    bit_width: 8
  }
}
layer {
  name: "fc7"
  type: "InnerProductFixed"
  bottom: "relu6"
  top: "bn7"
  param {
    lr_mult: 1
    decay_mult: 1
  }
  param {
    lr_mult: 1
    decay_mult: 0
  }
  inner_product_param {
    num_output: 4096
    bias_term: true
    weight_filler {
      type: "gaussian"
      std: 0.005
    }
    bias_filler {
      type: "constant"
      value: 1
    }
  }
  fixed_param {
    fixed_method: DIFF_S
    bit_width: 8
  }
}
layer {
  name: "relu7"
  type: "ReLU"
  bottom: "bn7"
  top: "relu7"
}
layer {
  name: "relu7_fixed"
  type: "FixedNeuron"
  bottom: "relu7"
  top: "relu7"
  param {
    lr_mult: 0
    decay_mult: 0
  }
  fixed_param {
    fixed_method: DIFF_S
    bit_width: 8
  }
}
layer {
  name: "fc8"
  type: "InnerProductFixed"
  bottom: "relu7"
  top: "fc8"
  param {
    lr_mult: 1
    decay_mult: 1
  }
  param {
    lr_mult: 2
    decay_mult: 0
  }
  inner_product_param {
    num_output: 2
    weight_filler {
      type: "gaussian"
      std: 0.01
    }
    bias_filler {
      type: "constant"
      value: 0
    }
  }
  fixed_param {
    fixed_method: DIFF_S
    bit_width: 8
  }
}
layer {
  name: "fc8_fixed"
  type: "FixedNeuron"
  bottom: "fc8"
  top: "fc8"
  param {
    lr_mult: 0
    decay_mult: 0
  }
  fixed_param {
    fixed_method: DIFF_S
    bit_width: 8
  }
}
layer {
  name: "accuracy"
  type: "Accuracy"
  bottom: "fc8"
  bottom: "label"
  top: "accuracy"
  include {
    phase: TEST
  }
}
layer {
  name: "loss"
  type: "SoftmaxWithLoss"
  bottom: "fc8"
  bottom: "label"
  top: "loss"
}
layer {
  name: "accuracy-top1"
  type: "Accuracy"
  bottom: "fc8"
  bottom: "label"
  top: "top-1"
  include {
    phase: TEST
  }
}
I0630 08:11:22.513005   381 layer_factory.hpp:77] Creating layer data
I0630 08:11:22.513044   381 internal_thread.cpp:27] Starting internal thread(s) on GPU 0
I0630 08:11:22.514240   381 net.cpp:94] Creating Layer data
I0630 08:11:22.514252   381 net.cpp:409] data -> data
I0630 08:11:22.514262   381 net.cpp:409] data -> label
I0630 08:11:22.515360   415 db_lmdb.cpp:35] Opened lmdb input/lmdb/valid_lmdb
I0630 08:11:22.515379   415 db_lmdb.cpp:38] Items count: 4000
I0630 08:11:22.515408   415 data_reader.cpp:124] TEST: reading data using 1 channel(s)
I0630 08:11:22.515537   381 data_layer.cpp:78] ReshapePrefetch 50, 3, 227, 227
I0630 08:11:22.515625   381 data_layer.cpp:83] output data size: 50,3,227,227
I0630 08:11:22.612540   381 internal_thread.cpp:27] Starting internal thread(s) on GPU 0
I0630 08:11:22.612615   381 net.cpp:144] Setting up data
I0630 08:11:22.612620   381 net.cpp:151] Top shape: 50 3 227 227 (7729350)
I0630 08:11:22.612628   381 net.cpp:151] Top shape: 50 (50)
I0630 08:11:22.612632   381 net.cpp:159] Memory required for data: 30917600
I0630 08:11:22.612637   381 layer_factory.hpp:77] Creating layer label_data_1_split
I0630 08:11:22.612648   381 net.cpp:94] Creating Layer label_data_1_split
I0630 08:11:22.612650   381 net.cpp:435] label_data_1_split <- label
I0630 08:11:22.612658   381 net.cpp:409] label_data_1_split -> label_data_1_split_0
I0630 08:11:22.612665   381 net.cpp:409] label_data_1_split -> label_data_1_split_1
I0630 08:11:22.612668   381 net.cpp:409] label_data_1_split -> label_data_1_split_2
I0630 08:11:22.612733   381 net.cpp:144] Setting up label_data_1_split
I0630 08:11:22.612737   381 net.cpp:151] Top shape: 50 (50)
I0630 08:11:22.612741   381 net.cpp:151] Top shape: 50 (50)
I0630 08:11:22.612745   381 net.cpp:151] Top shape: 50 (50)
I0630 08:11:22.612747   381 net.cpp:159] Memory required for data: 30918200
I0630 08:11:22.612751   381 layer_factory.hpp:77] Creating layer data_fixed
I0630 08:11:22.612756   381 net.cpp:94] Creating Layer data_fixed
I0630 08:11:22.612759   381 net.cpp:435] data_fixed <- data
I0630 08:11:22.612763   381 net.cpp:396] data_fixed -> data (in-place)
I0630 08:11:22.612789   381 net.cpp:144] Setting up data_fixed
I0630 08:11:22.612793   381 net.cpp:151] Top shape: 50 3 227 227 (7729350)
I0630 08:11:22.612797   381 net.cpp:159] Memory required for data: 61835600
I0630 08:11:22.612805   381 layer_factory.hpp:77] Creating layer conv1
I0630 08:11:22.612815   381 net.cpp:94] Creating Layer conv1
I0630 08:11:22.612818   381 net.cpp:435] conv1 <- data
I0630 08:11:22.612823   381 net.cpp:409] conv1 -> bn1
I0630 08:11:22.613258   381 layer_factory.hpp:77] Creating layer conv1
I0630 08:11:22.613718   381 net.cpp:144] Setting up conv1
I0630 08:11:22.613723   381 net.cpp:151] Top shape: 50 78 55 55 (11797500)
I0630 08:11:22.613729   381 net.cpp:159] Memory required for data: 109025600
I0630 08:11:22.613736   381 layer_factory.hpp:77] Creating layer relu1
I0630 08:11:22.613742   381 net.cpp:94] Creating Layer relu1
I0630 08:11:22.613746   381 net.cpp:435] relu1 <- bn1
I0630 08:11:22.613750   381 net.cpp:409] relu1 -> relu1
I0630 08:11:22.613765   381 net.cpp:144] Setting up relu1
I0630 08:11:22.613768   381 net.cpp:151] Top shape: 50 78 55 55 (11797500)
I0630 08:11:22.613772   381 net.cpp:159] Memory required for data: 156215600
I0630 08:11:22.613775   381 layer_factory.hpp:77] Creating layer pool1
I0630 08:11:22.613780   381 net.cpp:94] Creating Layer pool1
I0630 08:11:22.613783   381 net.cpp:435] pool1 <- relu1
I0630 08:11:22.613787   381 net.cpp:409] pool1 -> pool1
I0630 08:11:22.613809   381 net.cpp:144] Setting up pool1
I0630 08:11:22.613814   381 net.cpp:151] Top shape: 50 78 27 27 (2843100)
I0630 08:11:22.613819   381 net.cpp:159] Memory required for data: 167588000
I0630 08:11:22.613822   381 layer_factory.hpp:77] Creating layer pool1_fixed
I0630 08:11:22.613826   381 net.cpp:94] Creating Layer pool1_fixed
I0630 08:11:22.613829   381 net.cpp:435] pool1_fixed <- pool1
I0630 08:11:22.613833   381 net.cpp:396] pool1_fixed -> pool1 (in-place)
I0630 08:11:22.613854   381 net.cpp:144] Setting up pool1_fixed
I0630 08:11:22.613859   381 net.cpp:151] Top shape: 50 78 27 27 (2843100)
I0630 08:11:22.613863   381 net.cpp:159] Memory required for data: 178960400
I0630 08:11:22.613867   381 layer_factory.hpp:77] Creating layer conv2
I0630 08:11:22.613874   381 net.cpp:94] Creating Layer conv2
I0630 08:11:22.613878   381 net.cpp:435] conv2 <- pool1
I0630 08:11:22.613881   381 net.cpp:409] conv2 -> bn2
I0630 08:11:22.619057   381 layer_factory.hpp:77] Creating layer conv2
I0630 08:11:22.623423   381 net.cpp:144] Setting up conv2
I0630 08:11:22.623440   381 net.cpp:151] Top shape: 50 180 27 27 (6561000)
I0630 08:11:22.623448   381 net.cpp:159] Memory required for data: 205204400
I0630 08:11:22.623458   381 layer_factory.hpp:77] Creating layer relu2
I0630 08:11:22.623466   381 net.cpp:94] Creating Layer relu2
I0630 08:11:22.623471   381 net.cpp:435] relu2 <- bn2
I0630 08:11:22.623476   381 net.cpp:409] relu2 -> relu2
I0630 08:11:22.623492   381 net.cpp:144] Setting up relu2
I0630 08:11:22.623495   381 net.cpp:151] Top shape: 50 180 27 27 (6561000)
I0630 08:11:22.623499   381 net.cpp:159] Memory required for data: 231448400
I0630 08:11:22.623502   381 layer_factory.hpp:77] Creating layer pool2
I0630 08:11:22.623507   381 net.cpp:94] Creating Layer pool2
I0630 08:11:22.623510   381 net.cpp:435] pool2 <- relu2
I0630 08:11:22.623514   381 net.cpp:409] pool2 -> pool2
I0630 08:11:22.623538   381 net.cpp:144] Setting up pool2
I0630 08:11:22.623543   381 net.cpp:151] Top shape: 50 180 13 13 (1521000)
I0630 08:11:22.623546   381 net.cpp:159] Memory required for data: 237532400
I0630 08:11:22.623549   381 layer_factory.hpp:77] Creating layer pool2_fixed
I0630 08:11:22.623555   381 net.cpp:94] Creating Layer pool2_fixed
I0630 08:11:22.623558   381 net.cpp:435] pool2_fixed <- pool2
I0630 08:11:22.623562   381 net.cpp:396] pool2_fixed -> pool2 (in-place)
I0630 08:11:22.623582   381 net.cpp:144] Setting up pool2_fixed
I0630 08:11:22.623587   381 net.cpp:151] Top shape: 50 180 13 13 (1521000)
I0630 08:11:22.623591   381 net.cpp:159] Memory required for data: 243616400
I0630 08:11:22.623595   381 layer_factory.hpp:77] Creating layer conv3
I0630 08:11:22.623602   381 net.cpp:94] Creating Layer conv3
I0630 08:11:22.623605   381 net.cpp:435] conv3 <- pool2
I0630 08:11:22.623610   381 net.cpp:409] conv3 -> conv3
I0630 08:11:22.624281   381 layer_factory.hpp:77] Creating layer conv3
I0630 08:11:22.625052   381 net.cpp:144] Setting up conv3
I0630 08:11:22.625059   381 net.cpp:151] Top shape: 50 40 13 13 (338000)
I0630 08:11:22.625066   381 net.cpp:159] Memory required for data: 244968400
I0630 08:11:22.625072   381 layer_factory.hpp:77] Creating layer relu3
I0630 08:11:22.625077   381 net.cpp:94] Creating Layer relu3
I0630 08:11:22.625080   381 net.cpp:435] relu3 <- conv3
I0630 08:11:22.625085   381 net.cpp:409] relu3 -> relu3
I0630 08:11:22.625100   381 net.cpp:144] Setting up relu3
I0630 08:11:22.625104   381 net.cpp:151] Top shape: 50 40 13 13 (338000)
I0630 08:11:22.625108   381 net.cpp:159] Memory required for data: 246320400
I0630 08:11:22.625111   381 layer_factory.hpp:77] Creating layer relu3_fixed
I0630 08:11:22.625116   381 net.cpp:94] Creating Layer relu3_fixed
I0630 08:11:22.625119   381 net.cpp:435] relu3_fixed <- relu3
I0630 08:11:22.625123   381 net.cpp:396] relu3_fixed -> relu3 (in-place)
I0630 08:11:22.625146   381 net.cpp:144] Setting up relu3_fixed
I0630 08:11:22.625149   381 net.cpp:151] Top shape: 50 40 13 13 (338000)
I0630 08:11:22.625152   381 net.cpp:159] Memory required for data: 247672400
I0630 08:11:22.625156   381 layer_factory.hpp:77] Creating layer conv4
I0630 08:11:22.625164   381 net.cpp:94] Creating Layer conv4
I0630 08:11:22.625166   381 net.cpp:435] conv4 <- relu3
I0630 08:11:22.625171   381 net.cpp:409] conv4 -> conv4
I0630 08:11:22.625416   381 layer_factory.hpp:77] Creating layer conv4
I0630 08:11:22.625784   381 net.cpp:144] Setting up conv4
I0630 08:11:22.625790   381 net.cpp:151] Top shape: 50 40 13 13 (338000)
I0630 08:11:22.625794   381 net.cpp:159] Memory required for data: 249024400
I0630 08:11:22.625799   381 layer_factory.hpp:77] Creating layer relu4
I0630 08:11:22.625803   381 net.cpp:94] Creating Layer relu4
I0630 08:11:22.625807   381 net.cpp:435] relu4 <- conv4
I0630 08:11:22.625810   381 net.cpp:409] relu4 -> relu4
I0630 08:11:22.625823   381 net.cpp:144] Setting up relu4
I0630 08:11:22.625826   381 net.cpp:151] Top shape: 50 40 13 13 (338000)
I0630 08:11:22.625830   381 net.cpp:159] Memory required for data: 250376400
I0630 08:11:22.625833   381 layer_factory.hpp:77] Creating layer relu4_fixed
I0630 08:11:22.625839   381 net.cpp:94] Creating Layer relu4_fixed
I0630 08:11:22.625842   381 net.cpp:435] relu4_fixed <- relu4
I0630 08:11:22.625846   381 net.cpp:396] relu4_fixed -> relu4 (in-place)
I0630 08:11:22.628258   381 net.cpp:144] Setting up relu4_fixed
I0630 08:11:22.628266   381 net.cpp:151] Top shape: 50 40 13 13 (338000)
I0630 08:11:22.628270   381 net.cpp:159] Memory required for data: 251728400
I0630 08:11:22.628274   381 layer_factory.hpp:77] Creating layer conv5
I0630 08:11:22.628298   381 net.cpp:94] Creating Layer conv5
I0630 08:11:22.628301   381 net.cpp:435] conv5 <- relu4
I0630 08:11:22.628305   381 net.cpp:409] conv5 -> conv5
I0630 08:11:22.628535   381 layer_factory.hpp:77] Creating layer conv5
I0630 08:11:22.628847   381 net.cpp:144] Setting up conv5
I0630 08:11:22.628854   381 net.cpp:151] Top shape: 50 26 13 13 (219700)
I0630 08:11:22.628859   381 net.cpp:159] Memory required for data: 252607200
I0630 08:11:22.628863   381 layer_factory.hpp:77] Creating layer relu5
I0630 08:11:22.628867   381 net.cpp:94] Creating Layer relu5
I0630 08:11:22.628871   381 net.cpp:435] relu5 <- conv5
I0630 08:11:22.628875   381 net.cpp:409] relu5 -> relu5
I0630 08:11:22.628890   381 net.cpp:144] Setting up relu5
I0630 08:11:22.628893   381 net.cpp:151] Top shape: 50 26 13 13 (219700)
I0630 08:11:22.628897   381 net.cpp:159] Memory required for data: 253486000
I0630 08:11:22.628901   381 layer_factory.hpp:77] Creating layer pool5
I0630 08:11:22.628906   381 net.cpp:94] Creating Layer pool5
I0630 08:11:22.628908   381 net.cpp:435] pool5 <- relu5
I0630 08:11:22.628912   381 net.cpp:409] pool5 -> pool5
I0630 08:11:22.628934   381 net.cpp:144] Setting up pool5
I0630 08:11:22.628937   381 net.cpp:151] Top shape: 50 26 6 6 (46800)
I0630 08:11:22.628942   381 net.cpp:159] Memory required for data: 253673200
I0630 08:11:22.628944   381 layer_factory.hpp:77] Creating layer pool5_fixed
I0630 08:11:22.628950   381 net.cpp:94] Creating Layer pool5_fixed
I0630 08:11:22.628952   381 net.cpp:435] pool5_fixed <- pool5
I0630 08:11:22.628957   381 net.cpp:396] pool5_fixed -> pool5 (in-place)
I0630 08:11:22.628976   381 net.cpp:144] Setting up pool5_fixed
I0630 08:11:22.628979   381 net.cpp:151] Top shape: 50 26 6 6 (46800)
I0630 08:11:22.628983   381 net.cpp:159] Memory required for data: 253860400
I0630 08:11:22.628986   381 layer_factory.hpp:77] Creating layer fc6
I0630 08:11:22.628993   381 net.cpp:94] Creating Layer fc6
I0630 08:11:22.628996   381 net.cpp:435] fc6 <- pool5
I0630 08:11:22.629001   381 net.cpp:409] fc6 -> fc6
I0630 08:11:22.664862   381 layer_factory.hpp:77] Creating layer fc6
I0630 08:11:22.698786   381 net.cpp:144] Setting up fc6
I0630 08:11:22.698807   381 net.cpp:151] Top shape: 50 4096 (204800)
I0630 08:11:22.698814   381 net.cpp:159] Memory required for data: 254679600
I0630 08:11:22.698827   381 layer_factory.hpp:77] Creating layer relu6
I0630 08:11:22.698833   381 net.cpp:94] Creating Layer relu6
I0630 08:11:22.698837   381 net.cpp:435] relu6 <- fc6
I0630 08:11:22.698843   381 net.cpp:409] relu6 -> relu6
I0630 08:11:22.698859   381 net.cpp:144] Setting up relu6
I0630 08:11:22.698861   381 net.cpp:151] Top shape: 50 4096 (204800)
I0630 08:11:22.698864   381 net.cpp:159] Memory required for data: 255498800
I0630 08:11:22.698866   381 layer_factory.hpp:77] Creating layer relu6_fixed
I0630 08:11:22.698873   381 net.cpp:94] Creating Layer relu6_fixed
I0630 08:11:22.698875   381 net.cpp:435] relu6_fixed <- relu6
I0630 08:11:22.698879   381 net.cpp:396] relu6_fixed -> relu6 (in-place)
I0630 08:11:22.698912   381 net.cpp:144] Setting up relu6_fixed
I0630 08:11:22.698915   381 net.cpp:151] Top shape: 50 4096 (204800)
I0630 08:11:22.698917   381 net.cpp:159] Memory required for data: 256318000
I0630 08:11:22.698920   381 layer_factory.hpp:77] Creating layer fc7
I0630 08:11:22.698926   381 net.cpp:94] Creating Layer fc7
I0630 08:11:22.698928   381 net.cpp:435] fc7 <- relu6
I0630 08:11:22.698932   381 net.cpp:409] fc7 -> bn7
I0630 08:11:22.834901   381 layer_factory.hpp:77] Creating layer fc7
I0630 08:11:22.971282   381 net.cpp:144] Setting up fc7
I0630 08:11:22.971305   381 net.cpp:151] Top shape: 50 4096 (204800)
I0630 08:11:22.971312   381 net.cpp:159] Memory required for data: 257137200
I0630 08:11:22.971323   381 layer_factory.hpp:77] Creating layer relu7
I0630 08:11:22.971329   381 net.cpp:94] Creating Layer relu7
I0630 08:11:22.971333   381 net.cpp:435] relu7 <- bn7
I0630 08:11:22.971338   381 net.cpp:409] relu7 -> relu7
I0630 08:11:22.971355   381 net.cpp:144] Setting up relu7
I0630 08:11:22.971359   381 net.cpp:151] Top shape: 50 4096 (204800)
I0630 08:11:22.971361   381 net.cpp:159] Memory required for data: 257956400
I0630 08:11:22.971364   381 layer_factory.hpp:77] Creating layer relu7_fixed
I0630 08:11:22.971370   381 net.cpp:94] Creating Layer relu7_fixed
I0630 08:11:22.971372   381 net.cpp:435] relu7_fixed <- relu7
I0630 08:11:22.971392   381 net.cpp:396] relu7_fixed -> relu7 (in-place)
I0630 08:11:22.971410   381 net.cpp:144] Setting up relu7_fixed
I0630 08:11:22.971416   381 net.cpp:151] Top shape: 50 4096 (204800)
I0630 08:11:22.971419   381 net.cpp:159] Memory required for data: 258775600
I0630 08:11:22.971422   381 layer_factory.hpp:77] Creating layer fc8
I0630 08:11:22.971428   381 net.cpp:94] Creating Layer fc8
I0630 08:11:22.971431   381 net.cpp:435] fc8 <- relu7
I0630 08:11:22.971434   381 net.cpp:409] fc8 -> fc8
I0630 08:11:22.971570   381 layer_factory.hpp:77] Creating layer fc8
I0630 08:11:22.971725   381 net.cpp:144] Setting up fc8
I0630 08:11:22.971730   381 net.cpp:151] Top shape: 50 2 (100)
I0630 08:11:22.971734   381 net.cpp:159] Memory required for data: 258776000
I0630 08:11:22.971737   381 layer_factory.hpp:77] Creating layer fc8_fixed
I0630 08:11:22.971742   381 net.cpp:94] Creating Layer fc8_fixed
I0630 08:11:22.971745   381 net.cpp:435] fc8_fixed <- fc8
I0630 08:11:22.971748   381 net.cpp:396] fc8_fixed -> fc8 (in-place)
I0630 08:11:22.971771   381 net.cpp:144] Setting up fc8_fixed
I0630 08:11:22.971773   381 net.cpp:151] Top shape: 50 2 (100)
I0630 08:11:22.971777   381 net.cpp:159] Memory required for data: 258776400
I0630 08:11:22.971781   381 layer_factory.hpp:77] Creating layer fc8_fc8_fixed_0_split
I0630 08:11:22.971787   381 net.cpp:94] Creating Layer fc8_fc8_fixed_0_split
I0630 08:11:22.971789   381 net.cpp:435] fc8_fc8_fixed_0_split <- fc8
I0630 08:11:22.971794   381 net.cpp:409] fc8_fc8_fixed_0_split -> fc8_fc8_fixed_0_split_0
I0630 08:11:22.971798   381 net.cpp:409] fc8_fc8_fixed_0_split -> fc8_fc8_fixed_0_split_1
I0630 08:11:22.971803   381 net.cpp:409] fc8_fc8_fixed_0_split -> fc8_fc8_fixed_0_split_2
I0630 08:11:22.971832   381 net.cpp:144] Setting up fc8_fc8_fixed_0_split
I0630 08:11:22.971835   381 net.cpp:151] Top shape: 50 2 (100)
I0630 08:11:22.971838   381 net.cpp:151] Top shape: 50 2 (100)
I0630 08:11:22.971841   381 net.cpp:151] Top shape: 50 2 (100)
I0630 08:11:22.971845   381 net.cpp:159] Memory required for data: 258777600
I0630 08:11:22.971848   381 layer_factory.hpp:77] Creating layer accuracy
I0630 08:11:22.971854   381 net.cpp:94] Creating Layer accuracy
I0630 08:11:22.971856   381 net.cpp:435] accuracy <- fc8_fc8_fixed_0_split_0
I0630 08:11:22.971876   381 net.cpp:435] accuracy <- label_data_1_split_0
I0630 08:11:22.971880   381 net.cpp:409] accuracy -> accuracy
…
