…
  name: "data"
  type: "AnnotatedData"
  top: "data"
  top: "label"
  include {
    phase: TEST
  }
  transform_param {
    mean_value: 104
    mean_value: 117
    mean_value: 123
    resize_param {
      prob: 1
      resize_mode: WARP
      height: 300
      width: 300
      interp_mode: LINEAR
    }
  }
  data_param {
    source: "/workspace/SSD/data/VOCdevkit/VOC0712/lmdb/VOC0712_test_lmdb"
    batch_size: 1
    backend: LMDB
  }
  annotated_data_param {
    batch_sampler {
    }
    label_map_file: "/workspace/SSD/data/labelmap_voc.prototxt"
  }
}
layer {
  name: "conv1_1"
  type: "Convolution"
  bottom: "data"
  top: "conv1_1"
  param {
    lr_mult: 1
    decay_mult: 1
  }
  param {
    lr_mult: 2
    decay_mult: 0
  }
  convolution_param {
    num_output: 64
    pad: 1
    kernel_size: 3
    weight_filler {
      type: "xavier"
    }
    bias_filler {
      type: "constant"
      value: 0
    }
  }
}
layer {
  name: "relu1_1"
  type: "ReLU"
  bottom: "conv1_1"
  top: "conv1_1"
}
layer {
  name: "conv1_2"
  type: "Convolution"
  bottom: "conv1_1"
  top: "conv1_2"
  param {
    lr_mult: 1
    decay_mult: 1
  }
  param {
    lr_mult: 2
    decay_mult: 0
  }
  convolution_param {
    num_output: 64
    pad: 1
    kernel_size: 3
    weight_filler {
      type: "xavier"
    }
    bias_filler {
      type: "constant"
      value: 0
    }
  }
}
layer {
  name: "relu1_2"
  type: "ReLU"
  bottom: "conv1_2"
  top: "conv1_2"
}
layer {
  name: "pool1"
  type: "Pooling"
  bottom: "conv1_2"
  top: "pool1"
  pooling_param {
    pool: MAX
    kernel_size: 2
    stride: 2
  }
}
layer {
  name: "conv2_1"
  type: "Convolution"
  bottom: "pool1"
  top: "conv2_1"
  param {
    lr_mult: 1
    decay_mult: 1
  }
  param {
    lr_mult: 2
    decay_mult: 0
  }
  convolution_param {
    num_output: 128
    pad: 1
    kernel_size: 3
    weight_filler {
      type: "xavier"
    }
    bias_filler {
      type: "constant"
      value: 0
    }
  }
}
layer {
  name: "relu2_1"
  type: "ReLU"
  bottom: "conv2_1"
  top: "conv2_1"
}
layer {
  name: "conv2_2"
  type: "Convolution"
  bottom: "conv2_1"
  top: "conv2_2"
  param {
    lr_mult: 1
    decay_mult: 1
  }
  param {
    lr_mult: 2
    decay_mult: 0
  }
  convolution_param {
    num_output: 128
    pad: 1
    kernel_size: 3
    weight_filler {
      type: "xavier"
    }
    bias_filler {
      type: "constant"
      value: 0
    }
  }
}
layer {
  name: "relu2_2"
  type: "ReLU"
  bottom: "conv2_2"
  top: "conv2_2"
}
layer {
  name: "pool2"
  type: "Pooling"
  bottom: "conv2_2"
  top: "pool2"
  pooling_param {
    pool: MAX
    kernel_size: 2
    stride: 2
  }
}
layer {
  name: "conv3_1"
  type: "Convolution"
  bottom: "pool2"
  top: "conv3_1"
  param {
    lr_mult: 1
    decay_mult: 1
  }
  param {
    lr_mult: 2
    decay_mult: 0
  }
  convolution_param {
    num_output: 256
    pad: 1
    kernel_size: 3
    weight_filler {
      type: "xavier"
    }
    bias_filler {
      type: "constant"
      value: 0
    }
  }
}
layer {
  name: "relu3_1"
  type: "ReLU"
  bottom: "conv3_1"
  top: "conv3_1"
}
layer {
  name: "conv3_2"
  type: "Convolution"
  bottom: "conv3_1"
  top: "conv3_2"
  param {
    lr_mult: 1
    decay_mult: 1
  }
  param {
    lr_mult: 2
    decay_mult: 0
  }
  convolution_param {
    num_output: 256
    pad: 1
    kernel_size: 3
    weight_filler {
      type: "xavier"
    }
    bias_filler {
      type: "constant"
      value: 0
    }
  }
}
layer {
  name: "relu3_2"
  type: "ReLU"
  bottom: "conv3_2"
  top: "conv3_2"
}
layer {
  name: "conv3_3"
  type: "Convolution"
  bottom: "conv3_2"
  top: "conv3_3"
  param {
    lr_mult: 1
    decay_mult: 1
  }
  param {
    lr_mult: 2
    decay_mult: 0
  }
  convolution_param {
    num_output: 256
    pad: 1
    kernel_size: 3
    weight_filler {
      type: "xavier"
    }
    bias_filler {
      type: "constant"
      value: 0
    }
  }
}
layer {
  name: "relu3_3"
  type: "ReLU"
  bottom: "conv3_3"
  top: "conv3_3"
}
layer {
  name: "pool3"
  type: "Pooling"
  bottom: "conv3_3"
  top: "pool3"
  pooling_param {
    pool: MAX
    kernel_size: 2
    stride: 2
  }
}
layer {
  name: "conv4_1"
  type: "Convolution"
  bottom: "pool3"
  top: "conv4_1"
  param {
    lr_mult: 1
    decay_mult: 1
  }
  param {
    lr_mult: 2
    decay_mult: 0
  }
  convolution_param {
    num_output: 512
    pad: 1
    kernel_size: 3
    weight_filler {
      type: "xavier"
    }
    bias_filler {
      type: "constant"
      value: 0
    }
  }
}
layer {
  name: "relu4_1"
  type: "ReLU"
  bottom: "conv4_1"
  top: "conv4_1"
}
layer {
  name: "conv4_2"
  type: "Convolution"
  bottom: "conv4_1"
  top: "conv4_2"
  param {
    lr_mult: 1
    decay_mult: 1
  }
  param {
    lr_mult: 2
    decay_mult: 0
  }
  convolution_param {
    num_output: 512
    pad: 1
    kernel_size: 3
    weight_filler {
      type: "xavier"
    }
    bias_filler {
      type: "constant"
      value: 0
    }
  }
}
layer {
  name: "relu4_2"
  type: "ReLU"
  bottom: "conv4_2"
  top: "conv4_2"
}
layer {
  name: "conv4_3"
  type: "Convolution"
  bottom: "conv4_2"
  top: "conv4_3"
  param {
    lr_mult: 1
    decay_mult: 1
  }
  param {
    lr_mult: 2
    decay_mult: 0
  }
  convolution_param {
    num_output: 512
    pad: 1
    kernel_size: 3
    weight_filler {
      type: "xavier"
    }
    bias_filler {
      type: "constant"
      value: 0
    }
  }
}
layer {
  name: "conv4_3_bn"
  type: "BatchNorm"
  bottom: "conv4_3"
  top: "conv4_3"
  param {
    lr_mult: 1
    decay_mult: 0
  }
  param {
    lr_mult: 1
    decay_mult: 0
  }
  param {
    lr_mult: 0
    decay_mult: 0
  }
  param {
    lr_mult: 0
    decay_mult: 0
  }
  batch_norm_param {
    use_global_stats: true
    eps: 1e-05
    scale_filler {
      type: "constant"
      value: 1
    }
    bias_filler {
      type: "constant"
      value: 0
    }
  }
}
layer {
  name: "relu4_3"
  type: "ReLU"
  bottom: "conv4_3"
  top: "conv4_3"
}
layer {
  name: "pool4"
  type: "Pooling"
  bottom: "conv4_3"
  top: "pool4"
  pooling_param {
    pool: MAX
    kernel_size: 2
    stride: 2
  }
}
layer {
  name: "conv5_1"
  type: "Convolution"
  bottom: "pool4"
  top: "conv5_1"
  param {
    lr_mult: 1
    decay_mult: 1
  }
  param {
    lr_mult: 2
    decay_mult: 0
  }
  convolution_param {
    num_output: 512
    pad: 1
    kernel_size: 3
    weight_filler {
      type: "xavier"
    }
    bias_filler {
      type: "constant"
      value: 0
    }
    dilation: 1
  }
}
layer {
  name: "relu5_1"
  type: "ReLU"
  bottom: "conv5_1"
  top: "conv5_1"
}
layer {
  name: "conv5_2"
  type: "Convolution"
  bottom: "conv5_1"
  top: "conv5_2"
  param {
    lr_mult: 1
    decay_mult: 1
  }
  param {
    lr_mult: 2
    decay_mult: 0
  }
  convolution_param {
    num_output: 512
    pad: 1
    kernel_size: 3
    weight_filler {
      type: "xavier"
    }
    bias_filler {
      type: "constant"
      value: 0
    }
    dilation: 1
  }
}
layer {
  name: "relu5_2"
  type: "ReLU"
  bottom: "conv5_2"
  top: "conv5_2"
}
layer {
  name: "conv5_3"
  type: "Convolution"
  bottom: "conv5_2"
  top: "conv5_3"
  param {
    lr_mult: 1
    decay_mult: 1
  }
  param {
    lr_mult: 2
    decay_mult: 0
  }
  convolution_param {
    num_output: 512
    pad: 1
    kernel_size: 3
    weight_filler {
      type: "xavier"
    }
    bias_filler {
      type: "constant"
      value: 0
    }
    dilation: 1
  }
}
layer {
  name: "relu5_3"
  type: "ReLU"
  bottom: "conv5_3"
  top: "conv5_3"
}
layer {
  name: "pool5"
  type: "Pooling"
  bottom: "conv5_3"
  top: "pool5"
  pooling_param {
    pool: MAX
    kernel_size: 3
    stride: 1
    pad: 1
  }
}
layer {
  name: "fc6_682"
  type: "Convolution"
  bottom: "pool5"
  top: "fc6_682"
  param {
    lr_mult: 1
    decay_mult: 1
  }
  param {
    lr_mult: 2
    decay_mult: 0
  }
  convolution_param {
    num_output: 682
    pad: 6
    kernel_size: 3
    weight_filler {
      type: "xavier"
    }
    bias_filler {
      type: "constant"
      value: 0
    }
    dilation: 6
  }
}
layer {
  name: "relu6"
  type: "ReLU"
  bottom: "fc6_682"
  top: "fc6_682"
}
layer {
  name: "fc7_682"
  type: "Convolution"
  bottom: "fc6_682"
  top: "fc7_682"
  param {
    lr_mult: 1
    decay_mult: 1
  }
  param {
    lr_mult: 2
    decay_mult: 0
  }
  convolution_param {
    num_output: 1024
    kernel_size: 1
    weight_filler {
      type: "xavier"
    }
    bias_filler {
      type: "constant"
      value: 0
    }
  }
}
layer {
  name: "relu7"
  type: "ReLU"
  bottom: "fc7_682"
  top: "fc7_682"
}
layer {
  name: "conv6_1"
  type: "Convolution"
  bottom: "fc7_682"
  top: "conv6_1"
  param {
    lr_mult: 1
    decay_mult: 1
  }
  param {
    lr_mult: 2
    decay_mult: 0
  }
  convolution_param {
    num_output: 256
    pad: 0
    kernel_size: 1
    stride: 1
    weight_filler {
      type: "xavier"
    }
    bias_filler {
      type: "constant"
      value: 0
    }
  }
}
layer {
  name: "conv6_1_relu"
  type: "ReLU"
  bottom: "conv6_1"
  top: "conv6_1"
}
layer {
  name: "conv6_2"
  type: "Convolution"
  bottom: "conv6_1"
  top: "conv6_2"
  param {
    lr_mult: 1
    decay_mult: 1
  }
  param {
    lr_mult: 2
    decay_mult: 0
  }
  convolution_param {
    num_output: 512
    pad: 1
    kernel_size: 3
    stride: 2
    weight_filler {
      type: "xavier"
    }
    bias_filler {
      type: "constant"
      value: 0
    }
  }
}
layer {
  name: "conv6_2_relu"
  type: "ReLU"
  bottom: "conv6_2"
  top: "conv6_2"
}
layer {
  name: "conv7_1"
  type: "Convolution"
  bottom: "conv6_2"
  top: "conv7_1"
  param {
    lr_mult: 1
    decay_mult: 1
  }
  param {
    lr_mult: 2
    decay_mult: 0
  }
  convolution_param {
    num_output: 128
    pad: 0
    kernel_size: 1
    stride: 1
    weight_filler {
      type: "xavier"
    }
    bias_filler {
      type: "constant"
      value: 0
    }
  }
}
layer {
  name: "conv7_1_relu"
  type: "ReLU"
  bottom: "conv7_1"
  top: "conv7_1"
}
layer {
  name: "conv7_2"
  type: "Convolution"
  bottom: "conv7_1"
  top: "conv7_2"
  param {
    lr_mult: 1
    decay_mult: 1
  }
  param {
    lr_mult: 2
    decay_mult: 0
  }
  convolution_param {
    num_output: 256
    pad: 1
    kernel_size: 3
    stride: 2
    weight_filler {
      type: "xavier"
    }
    bias_filler {
      type: "constant"
      value: 0
    }
  }
}
layer {
  name: "conv7_2_relu"
  type: "ReLU"
  bottom: "conv7_2"
  top: "conv7_2"
}
layer {
  name: "conv8_1"
  type: "Convolution"
  bottom: "conv7_2"
  top: "conv8_1"
  param {
    lr_mult: 1
    decay_mult: 1
  }
  param {
    lr_mult: 2
    decay_mult: 0
  }
  convolution_param {
    num_output: 128
    pad: 0
    kernel_size: 1
    stride: 1
    weight_filler {
      type: "xavier"
    }
    bias_filler {
      type: "constant"
      value: 0
    }
  }
}
layer {
  name: "conv8_1_relu"
  type: "ReLU"
  bottom: "conv8_1"
  top: "conv8_1"
}
layer {
  name: "conv8_2"
  type: "Convolution"
  bottom: "conv8_1"
  top: "conv8_2"
  param {
    lr_mult: 1
    decay_mult: 1
  }
  param {
    lr_mult: 2
    decay_mult: 0
  }
  convolution_param {
    num_output: 256
    pad: 0
    kernel_size: 3
    stride: 1
    weight_filler {
      type: "xavier"
    }
    bias_filler {
      type: "constant"
      value: 0
    }
  }
}
layer {
  name: "conv8_2_relu"
  type: "ReLU"
  bottom: "conv8_2"
  top: "conv8_2"
}
layer {
  name: "conv9_1"
  type: "Convolution"
  bottom: "conv8_2"
  top: "conv9_1"
  param {
    lr_mult: 1
    decay_mult: 1
  }
  param {
    lr_mult: 2
    decay_mult: 0
  }
  convolution_param {
    num_output: 128
    pad: 0
    kernel_size: 1
    stride: 1
    weight_filler {
      type: "xavier"
    }
    bias_filler {
      type: "constant"
      value: 0
    }
  }
}
layer {
  name: "conv9_1_relu"
  type: "ReLU"
  bottom: "conv9_1"
  top: "conv9_1"
}
layer {
  name: "conv9_2"
  type: "Convolution"
  bottom: "conv9_1"
  top: "conv9_2"
  param {
    lr_mult: 1
    decay_mult: 1
  }
  param {
    lr_mult: 2
    decay_mult: 0
  }
  convolution_param {
    num_output: 256
    pad: 0
    kernel_size: 3
    stride: 1
    weight_filler {
      type: "xavier"
    }
    bias_filler {
      type: "constant"
      value: 0
    }
  }
}
layer {
  name: "conv9_2_relu"
  type: "ReLU"
  bottom: "conv9_2"
  top: "conv9_2"
}
layer {
  name: "conv4_3_norm_mbox_loc"
  type: "Convolution"
  bottom: "conv4_3"
  top: "conv4_3_norm_mbox_loc"
  param {
    lr_mult: 1
    decay_mult: 1
  }
  param {
    lr_mult: 2
    decay_mult: 0
  }
  convolution_param {
    num_output: 16
    pad: 1
    kernel_size: 3
    stride: 1
    weight_filler {
      type: "xavier"
    }
    bias_filler {
      type: "constant"
      value: 0
    }
  }
}
layer {
  name: "conv4_3_norm_mbox_loc_perm"
  type: "Permute"
  bottom: "conv4_3_norm_mbox_loc"
  top: "conv4_3_norm_mbox_loc_perm"
  permute_param {
    order: 0
    order: 2
    order: 3
    order: 1
  }
}
layer {
  name: "conv4_3_norm_mbox_loc_flat"
  type: "Flatten"
  bottom: "conv4_3_norm_mbox_loc_perm"
  top: "conv4_3_norm_mbox_loc_flat"
  flatten_param {
    axis: 1
  }
}
layer {
  name: "conv4_3_norm_mbox_conf"
  type: "Convolution"
  bottom: "conv4_3"
  top: "conv4_3_norm_mbox_conf"
  param {
    lr_mult: 1
    decay_mult: 1
  }
  param {
    lr_mult: 2
    decay_mult: 0
  }
  convolution_param {
    num_output: 84
    pad: 1
    kernel_size: 3
    stride: 1
    weight_filler {
      type: "xavier"
    }
    bias_filler {
      type: "constant"
      value: 0
    }
  }
}
layer {
  name: "conv4_3_norm_mbox_conf_perm"
  type: "Permute"
  bottom: "conv4_3_norm_mbox_conf"
  top: "conv4_3_norm_mbox_conf_perm"
  permute_param {
    order: 0
    order: 2
    order: 3
    order: 1
  }
}
layer {
  name: "conv4_3_norm_mbox_conf_flat"
  type: "Flatten"
  bottom: "conv4_3_norm_mbox_conf_perm"
  top: "conv4_3_norm_mbox_conf_flat"
  flatten_param {
    axis: 1
  }
}
layer {
  name: "conv4_3_norm_mbox_priorbox"
  type: "PriorBox"
  bottom: "conv4_3"
  bottom: "data"
  top: "conv4_3_norm_mbox_priorbox"
  prior_box_param {
    min_size: 30
    max_size: 60
    aspect_ratio: 2
    flip: true
    clip: false
    variance: 0.1
    variance: 0.1
    variance: 0.2
    variance: 0.2
    step: 8
    offset: 0.5
  }
}
layer {
  name: "fc7_mbox_loc"
  type: "Convolution"
  bottom: "fc7_682"
  top: "fc7_mbox_loc"
  param {
    lr_mult: 1
    decay_mult: 1
  }
  param {
    lr_mult: 2
    decay_mult: 0
  }
  convolution_param {
    num_output: 24
    pad: 1
    kernel_size: 3
    stride: 1
    weight_filler {
      type: "xavier"
    }
    bias_filler {
      type: "constant"
      value: 0
    }
  }
}
layer {
  name: "fc7_mbox_loc_perm"
  type: "Permute"
  bottom: "fc7_mbox_loc"
  top: "fc7_mbox_loc_perm"
  permute_param {
    order: 0
    order: 2
    order: 3
    order: 1
  }
}
layer {
  name: "fc7_mbox_loc_flat"
  type: "Flatten"
  bottom: "fc7_mbox_loc_perm"
  top: "fc7_mbox_loc_flat"
  flatten_param {
    axis: 1
  }
}
layer {
  name: "fc7_mbox_conf"
  type: "Convolution"
  bottom: "fc7_682"
  top: "fc7_mbox_conf"
  param {
    lr_mult: 1
    decay_mult: 1
  }
  param {
    lr_mult: 2
    decay_mult: 0
  }
  convolution_param {
    num_output: 126
    pad: 1
    kernel_size: 3
    stride: 1
    weight_filler {
      type: "xavier"
    }
    bias_filler {
      type: "constant"
      value: 0
    }
  }
}
layer {
  name: "fc7_mbox_conf_perm"
  type: "Permute"
  bottom: "fc7_mbox_conf"
  top: "fc7_mbox_conf_perm"
  permute_param {
    order: 0
    order: 2
    order: 3
    order: 1
  }
}
layer {
  name: "fc7_mbox_conf_flat"
  type: "Flatten"
  bottom: "fc7_mbox_conf_perm"
  top: "fc7_mbox_conf_flat"
  flatten_param {
    axis: 1
  }
}
layer {
  name: "fc7_mbox_priorbox"
  type: "PriorBox"
  bottom: "fc7_682"
  bottom: "data"
  top: "fc7_mbox_priorbox"
  prior_box_param {
    min_size: 60
    max_size: 111
    aspect_ratio: 2
    aspect_ratio: 3
    flip: true
    clip: false
    variance: 0.1
    variance: 0.1
    variance: 0.2
    variance: 0.2
    step: 16
    offset: 0.5
  }
}
layer {
  name: "conv6_2_mbox_loc"
  type: "Convolution"
  bottom: "conv6_2"
  top: "conv6_2_mbox_loc"
  param {
    lr_mult: 1
    decay_mult: 1
  }
  param {
    lr_mult: 2
    decay_mult: 0
  }
  convolution_param {
    num_output: 24
    pad: 1
    kernel_size: 3
    stride: 1
    weight_filler {
      type: "xavier"
    }
    bias_filler {
      type: "constant"
      value: 0
    }
  }
}
layer {
  name: "conv6_2_mbox_loc_perm"
  type: "Permute"
  bottom: "conv6_2_mbox_loc"
  top: "conv6_2_mbox_loc_perm"
  permute_param {
    order: 0
    order: 2
    order: 3
    order: 1
  }
}
layer {
  name: "conv6_2_mbox_loc_flat"
  type: "Flatten"
  bottom: "conv6_2_mbox_loc_perm"
  top: "conv6_2_mbox_loc_flat"
  flatten_param {
    axis: 1
  }
}
layer {
  name: "conv6_2_mbox_conf"
  type: "Convolution"
  bottom: "conv6_2"
  top: "conv6_2_mbox_conf"
  param {
    lr_mult: 1
    decay_mult: 1
  }
  param {
    lr_mult: 2
    decay_mult: 0
  }
  convolution_param {
    num_output: 126
    pad: 1
    kernel_size: 3
    stride: 1
    weight_filler {
      type: "xavier"
    }
    bias_filler {
      type: "constant"
      value: 0
    }
  }
}
layer {
  name: "conv6_2_mbox_conf_perm"
  type: "Permute"
  bottom: "conv6_2_mbox_conf"
  top: "conv6_2_mbox_conf_perm"
  permute_param {
    order: 0
    order: 2
    order: 3
    order: 1
  }
}
layer {
  name: "conv6_2_mbox_conf_flat"
  type: "Flatten"
  bottom: "conv6_2_mbox_conf_perm"
  top: "conv6_2_mbox_conf_flat"
  flatten_param {
    axis: 1
  }
}
layer {
  name: "conv6_2_mbox_priorbox"
  type: "PriorBox"
  bottom: "conv6_2"
  bottom: "data"
  top: "conv6_2_mbox_priorbox"
  prior_box_param {
    min_size: 111
    max_size: 162
    aspect_ratio: 2
    aspect_ratio: 3
    flip: true
    clip: false
    variance: 0.1
    variance: 0.1
    variance: 0.2
    variance: 0.2
    step: 32
    offset: 0.5
  }
}
layer {
  name: "conv7_2_mbox_loc"
  type: "Convolution"
  bottom: "conv7_2"
  top: "conv7_2_mbox_loc"
  param {
    lr_mult: 1
    decay_mult: 1
  }
  param {
    lr_mult: 2
    decay_mult: 0
  }
  convolution_param {
    num_output: 24
    pad: 1
    kernel_size: 3
    stride: 1
    weight_filler {
      type: "xavier"
    }
    bias_filler {
      type: "constant"
      value: 0
    }
  }
}
layer {
  name: "conv7_2_mbox_loc_perm"
  type: "Permute"
  bottom: "conv7_2_mbox_loc"
  top: "conv7_2_mbox_loc_perm"
  permute_param {
    order: 0
    order: 2
    order: 3
    order: 1
  }
}
layer {
  name: "conv7_2_mbox_loc_flat"
  type: "Flatten"
  bottom: "conv7_2_mbox_loc_perm"
  top: "conv7_2_mbox_loc_flat"
  flatten_param {
    axis: 1
  }
}
layer {
  name: "conv7_2_mbox_conf"
  type: "Convolution"
  bottom: "conv7_2"
  top: "conv7_2_mbox_conf"
  param {
    lr_mult: 1
    decay_mult: 1
  }
  param {
    lr_mult: 2
    decay_mult: 0
  }
  convolution_param {
    num_output: 126
    pad: 1
    kernel_size: 3
    stride: 1
    weight_filler {
      type: "xavier"
    }
    bias_filler {
      type: "constant"
      value: 0
    }
  }
}
layer {
  name: "conv7_2_mbox_conf_perm"
  type: "Permute"
  bottom: "conv7_2_mbox_conf"
  top: "conv7_2_mbox_conf_perm"
  permute_param {
    order: 0
    order: 2
    order: 3
    order: 1
  }
}
layer {
  name: "conv7_2_mbox_conf_flat"
  type: "Flatten"
  bottom: "conv7_2_mbox_conf_perm"
  top: "conv7_2_mbox_conf_flat"
  flatten_param {
    axis: 1
  }
}
layer {
  name: "conv7_2_mbox_priorbox"
  type: "PriorBox"
  bottom: "conv7_2"
  bottom: "data"
  top: "conv7_2_mbox_priorbox"
  prior_box_param {
    min_size: 162
    max_size: 213
    aspect_ratio: 2
    aspect_ratio: 3
    flip: true
    clip: false
    variance: 0.1
    variance: 0.1
    variance: 0.2
    variance: 0.2
    step: 64
    offset: 0.5
  }
}
layer {
  name: "conv8_2_mbox_loc"
  type: "Convolution"
  bottom: "conv8_2"
  top: "conv8_2_mbox_loc"
  param {
    lr_mult: 1
    decay_mult: 1
  }
  param {
    lr_mult: 2
    decay_mult: 0
  }
  convolution_param {
    num_output: 16
    pad: 1
    kernel_size: 3
    stride: 1
    weight_filler {
      type: "xavier"
    }
    bias_filler {
      type: "constant"
      value: 0
    }
  }
}
layer {
  name: "conv8_2_mbox_loc_perm"
  type: "Permute"
  bottom: "conv8_2_mbox_loc"
  top: "conv8_2_mbox_loc_perm"
  permute_param {
    order: 0
    order: 2
    order: 3
    order: 1
  }
}
layer {
  name: "conv8_2_mbox_loc_flat"
  type: "Flatten"
  bottom: "conv8_2_mbox_loc_perm"
  top: "conv8_2_mbox_loc_flat"
  flatten_param {
    axis: 1
  }
}
layer {
  name: "conv8_2_mbox_conf"
  type: "Convolution"
  bottom: "conv8_2"
  top: "conv8_2_mbox_conf"
  param {
    lr_mult: 1
    decay_mult: 1
  }
  param {
    lr_mult: 2
    decay_mult: 0
  }
  convolution_param {
    num_output: 84
    pad: 1
    kernel_size: 3
    stride: 1
    weight_filler {
      type: "xavier"
    }
    bias_filler {
      type: "constant"
      value: 0
    }
  }
}
layer {
  name: "conv8_2_mbox_conf_perm"
  type: "Permute"
  bottom: "conv8_2_mbox_conf"
  top: "conv8_2_mbox_conf_perm"
  permute_param {
    order: 0
    order: 2
    order: 3
    order: 1
  }
}
layer {
  name: "conv8_2_mbox_conf_flat"
  type: "Flatten"
  bottom: "conv8_2_mbox_conf_perm"
  top: "conv8_2_mbox_conf_flat"
  flatten_param {
    axis: 1
  }
}
layer {
  name: "conv8_2_mbox_priorbox"
  type: "PriorBox"
  bottom: "conv8_2"
  bottom: "data"
  top: "conv8_2_mbox_priorbox"
  prior_box_param {
    min_size: 213
    max_size: 264
    aspect_ratio: 2
    flip: true
    clip: false
    variance: 0.1
    variance: 0.1
    variance: 0.2
    variance: 0.2
    step: 100
    offset: 0.5
  }
}
layer {
  name: "conv9_2_mbox_loc"
  type: "Convolution"
  bottom: "conv9_2"
  top: "conv9_2_mbox_loc"
  param {
    lr_mult: 1
    decay_mult: 1
  }
  param {
    lr_mult: 2
    decay_mult: 0
  }
  convolution_param {
    num_output: 16
    pad: 1
    kernel_size: 3
    stride: 1
    weight_filler {
      type: "xavier"
    }
    bias_filler {
      type: "constant"
      value: 0
    }
  }
}
layer {
  name: "conv9_2_mbox_loc_perm"
  type: "Permute"
  bottom: "conv9_2_mbox_loc"
  top: "conv9_2_mbox_loc_perm"
  permute_param {
    order: 0
    order: 2
    order: 3
    order: 1
  }
}
layer {
  name: "conv9_2_mbox_loc_flat"
  type: "Flatten"
  bottom: "conv9_2_mbox_loc_perm"
  top: "conv9_2_mbox_loc_flat"
  flatten_param {
    axis: 1
  }
}
layer {
  name: "conv9_2_mbox_conf"
  type: "Convolution"
  bottom: "conv9_2"
  top: "conv9_2_mbox_conf"
  param {
    lr_mult: 1
    decay_mult: 1
  }
  param {
    lr_mult: 2
    decay_mult: 0
  }
  convolution_param {
    num_output: 84
    pad: 1
    kernel_size: 3
    stride: 1
    weight_filler {
      type: "xavier"
    }
    bias_filler {
      type: "constant"
      value: 0
    }
  }
}
layer {
  name: "conv9_2_mbox_conf_perm"
  type: "Permute"
  bottom: "conv9_2_mbox_conf"
  top: "conv9_2_mbox_conf_perm"
  permute_param {
    order: 0
    order: 2
    order: 3
    order: 1
  }
}
layer {
  name: "conv9_2_mbox_conf_flat"
  type: "Flatten"
  bottom: "conv9_2_mbox_conf_perm"
  top: "conv9_2_mbox_conf_flat"
  flatten_param {
    axis: 1
  }
}
layer {
  name: "conv9_2_mbox_priorbox"
  type: "PriorBox"
  bottom: "conv9_2"
  bottom: "data"
  top: "conv9_2_mbox_priorbox"
  prior_box_param {
    min_size: 264
    max_size: 315
    aspect_ratio: 2
    flip: true
    clip: false
    variance: 0.1
    variance: 0.1
    variance: 0.2
    variance: 0.2
    step: 300
    offset: 0.5
  }
}
layer {
  name: "mbox_loc"
  type: "Concat"
  bottom: "conv4_3_norm_mbox_loc_flat"
  bottom: "fc7_mbox_loc_flat"
  bottom: "conv6_2_mbox_loc_flat"
  bottom: "conv7_2_mbox_loc_flat"
  bottom: "conv8_2_mbox_loc_flat"
  bottom: "conv9_2_mbox_loc_flat"
  top: "mbox_loc"
  concat_param {
    axis: 1
  }
}
layer {
  name: "mbox_conf"
  type: "Concat"
  bottom: "conv4_3_norm_mbox_conf_flat"
  bottom: "fc7_mbox_conf_flat"
  bottom: "conv6_2_mbox_conf_flat"
  bottom: "conv7_2_mbox_conf_flat"
  bottom: "conv8_2_mbox_conf_flat"
  bottom: "conv9_2_mbox_conf_flat"
  top: "mbox_conf"
  concat_param {
    axis: 1
  }
}
layer {
  name: "mbox_priorbox"
  type: "Concat"
  bottom: "conv4_3_norm_mbox_priorbox"
  bottom: "fc7_mbox_priorbox"
  bottom: "conv6_2_mbox_priorbox"
  bottom: "conv7_2_mbox_priorbox"
  bottom: "conv8_2_mbox_priorbox"
  bottom: "conv9_2_mbox_priorbox"
  top: "mbox_priorbox"
  concat_param {
    axis: 2
  }
}
layer {
  name: "mbox_conf_reshape"
  type: "Reshape"
  bottom: "mbox_conf"
  top: "mbox_conf_reshape"
  include {
    phase: TEST
  }
  reshape_param {
    shape {
      dim: 0
      dim: -1
      dim: 21
    }
  }
}
layer {
  name: "mbox_conf_softmax"
  type: "Softmax"
  bottom: "mbox_conf_reshape"
  top: "mbox_conf_softmax"
  include {
    phase: TEST
  }
  softmax_param {
    axis: 2
  }
}
layer {
  name: "mbox_conf_flatten"
  type: "Flatten"
  bottom: "mbox_conf_softmax"
  top: "mbox_conf_flatten"
  include {
    phase: TEST
  }
  flatten_param {
    axis: 1
  }
}
layer {
  name: "detection_out"
  type: "DetectionOutput"
  bottom: "mbox_loc"
  bottom: "mbox_conf_flatten"
  bottom: "mbox_priorbox"
  top: "detection_out"
  include {
    phase: TEST
  }
  detection_output_param {
    num_classes: 21
    share_location: true
    background_label_id: 0
    nms_param {
      nms_threshold: 0.45
      top_k: 400
    }
    save_output_param {
      output_directory: "snapshots/test_results"
      output_name_prefix: "comp4_det_test_"
      output_format: "VOC"
      label_map_file: "/workspace/SSD/data/labelmap_voc.prototxt"
      name_size_file: "/workspace/SSD/data/test_name_size.txt"
      num_test_image: 4952
    }
    code_type: CENTER_SIZE
    keep_top_k: 200
    confidence_threshold: 0.01
  }
}
layer {
  name: "detection_eval"
  type: "DetectionEvaluate"
  bottom: "detection_out"
  bottom: "label"
  top: "detection_eval"
  include {
    phase: TEST
  }
  detection_evaluate_param {
    num_classes: 21
    background_label_id: 0
    overlap_threshold: 0.5
    evaluate_difficult_gt: false
    name_size_file: "/workspace/SSD/data/test_name_size.txt"
  }
}
I0406 07:45:27.798355   791 layer_factory.hpp:93] Creating layer data
I0406 07:45:27.798422   791 internal_thread.cpp:43] Starting internal thread(s) on GPU 0
I0406 07:45:27.798691   791 net.cpp:110] Creating Layer data
I0406 07:45:27.798710   791 net.cpp:425] data -> data
I0406 07:45:27.798782   791 net.cpp:425] data -> label
I0406 07:45:27.801484   819 db_lmdb.cpp:51] Opened lmdb /workspace/SSD/data/VOCdevkit/VOC0712/lmdb/VOC0712_test_lmdb
I0406 07:45:27.801542   819 data_reader.cpp:140] TEST: reading data using 1 channel(s)
I0406 07:45:27.809494   791 annotated_data_layer.cpp:78] output data size: 1,3,300,300
I0406 07:45:27.817497   791 internal_thread.cpp:43] Starting internal thread(s) on GPU 0
I0406 07:45:27.817584   791 net.cpp:160] Setting up data
I0406 07:45:27.817591   791 net.cpp:167] Top shape: 1 3 300 300 (270000)
I0406 07:45:27.817600   791 net.cpp:167] Top shape: 1 1 2 8 (16)
I0406 07:45:27.817605   791 net.cpp:175] Memory required for data: 1080064
I0406 07:45:27.817610   791 layer_factory.hpp:93] Creating layer data_data_0_split
I0406 07:45:27.817642   791 net.cpp:110] Creating Layer data_data_0_split
I0406 07:45:27.817652   791 net.cpp:451] data_data_0_split <- data
I0406 07:45:27.817662   791 net.cpp:425] data_data_0_split -> data_data_0_split_0
I0406 07:45:27.817670   791 net.cpp:425] data_data_0_split -> data_data_0_split_1
I0406 07:45:27.817677   791 net.cpp:425] data_data_0_split -> data_data_0_split_2
I0406 07:45:27.817682   791 net.cpp:425] data_data_0_split -> data_data_0_split_3
I0406 07:45:27.817687   791 net.cpp:425] data_data_0_split -> data_data_0_split_4
I0406 07:45:27.817692   791 net.cpp:425] data_data_0_split -> data_data_0_split_5
I0406 07:45:27.817698   791 net.cpp:425] data_data_0_split -> data_data_0_split_6
I0406 07:45:27.817790   791 net.cpp:160] Setting up data_data_0_split
I0406 07:45:27.817796   791 net.cpp:167] Top shape: 1 3 300 300 (270000)
I0406 07:45:27.817802   791 net.cpp:167] Top shape: 1 3 300 300 (270000)
I0406 07:45:27.817806   791 net.cpp:167] Top shape: 1 3 300 300 (270000)
I0406 07:45:27.817811   791 net.cpp:167] Top shape: 1 3 300 300 (270000)
I0406 07:45:27.817814   791 net.cpp:167] Top shape: 1 3 300 300 (270000)
I0406 07:45:27.817818   791 net.cpp:167] Top shape: 1 3 300 300 (270000)
I0406 07:45:27.817823   791 net.cpp:167] Top shape: 1 3 300 300 (270000)
I0406 07:45:27.817827   791 net.cpp:175] Memory required for data: 8640064
I0406 07:45:27.817831   791 layer_factory.hpp:93] Creating layer conv1_1
I0406 07:45:27.817842   791 net.cpp:110] Creating Layer conv1_1
I0406 07:45:27.817845   791 net.cpp:451] conv1_1 <- data_data_0_split_0
I0406 07:45:27.817852   791 net.cpp:425] conv1_1 -> conv1_1
I0406 07:45:27.818253   791 net.cpp:160] Setting up conv1_1
I0406 07:45:27.818261   791 net.cpp:167] Top shape: 1 64 300 300 (5760000)
I0406 07:45:27.818267   791 net.cpp:175] Memory required for data: 31680064
I0406 07:45:27.818289   791 layer_factory.hpp:93] Creating layer relu1_1
I0406 07:45:27.818295   791 net.cpp:110] Creating Layer relu1_1
I0406 07:45:27.818300   791 net.cpp:451] relu1_1 <- conv1_1
I0406 07:45:27.818305   791 net.cpp:412] relu1_1 -> conv1_1 (in-place)
I0406 07:45:27.818315   791 net.cpp:160] Setting up relu1_1
I0406 07:45:27.818317   791 net.cpp:167] Top shape: 1 64 300 300 (5760000)
I0406 07:45:27.818322   791 net.cpp:175] Memory required for data: 54720064
I0406 07:45:27.818325   791 layer_factory.hpp:93] Creating layer conv1_2
I0406 07:45:27.818333   791 net.cpp:110] Creating Layer conv1_2
I0406 07:45:27.818336   791 net.cpp:451] conv1_2 <- conv1_1
I0406 07:45:27.818341   791 net.cpp:425] conv1_2 -> conv1_2
I0406 07:45:27.818809   791 net.cpp:160] Setting up conv1_2
I0406 07:45:27.818819   791 net.cpp:167] Top shape: 1 64 300 300 (5760000)
I0406 07:45:27.818825   791 net.cpp:175] Memory required for data: 77760064
I0406 07:45:27.818831   791 layer_factory.hpp:93] Creating layer relu1_2
I0406 07:45:27.818836   791 net.cpp:110] Creating Layer relu1_2
I0406 07:45:27.818840   791 net.cpp:451] relu1_2 <- conv1_2
I0406 07:45:27.818845   791 net.cpp:412] relu1_2 -> conv1_2 (in-place)
I0406 07:45:27.818850   791 net.cpp:160] Setting up relu1_2
I0406 07:45:27.818853   791 net.cpp:167] Top shape: 1 64 300 300 (5760000)
I0406 07:45:27.818857   791 net.cpp:175] Memory required for data: 100800064
I0406 07:45:27.818861   791 layer_factory.hpp:93] Creating layer pool1
I0406 07:45:27.818866   791 net.cpp:110] Creating Layer pool1
I0406 07:45:27.818871   791 net.cpp:451] pool1 <- conv1_2
I0406 07:45:27.818876   791 net.cpp:425] pool1 -> pool1
I0406 07:45:27.818910   791 net.cpp:160] Setting up pool1
I0406 07:45:27.818917   791 net.cpp:167] Top shape: 1 64 150 150 (1440000)
I0406 07:45:27.818923   791 net.cpp:175] Memory required for data: 106560064
I0406 07:45:27.818928   791 layer_factory.hpp:93] Creating layer conv2_1
I0406 07:45:27.818938   791 net.cpp:110] Creating Layer conv2_1
I0406 07:45:27.818943   791 net.cpp:451] conv2_1 <- pool1
I0406 07:45:27.818948   791 net.cpp:425] conv2_1 -> conv2_1
I0406 07:45:27.819770   791 net.cpp:160] Setting up conv2_1
I0406 07:45:27.819779   791 net.cpp:167] Top shape: 1 128 150 150 (2880000)
I0406 07:45:27.819785   791 net.cpp:175] Memory required for data: 118080064
I0406 07:45:27.819792   791 layer_factory.hpp:93] Creating layer relu2_1
I0406 07:45:27.819799   791 net.cpp:110] Creating Layer relu2_1
I0406 07:45:27.819803   791 net.cpp:451] relu2_1 <- conv2_1
I0406 07:45:27.819808   791 net.cpp:412] relu2_1 -> conv2_1 (in-place)
I0406 07:45:27.819813   791 net.cpp:160] Setting up relu2_1
I0406 07:45:27.819818   791 net.cpp:167] Top shape: 1 128 150 150 (2880000)
I0406 07:45:27.819821   791 net.cpp:175] Memory required for data: 129600064
I0406 07:45:27.819825   791 layer_factory.hpp:93] Creating layer conv2_2
I0406 07:45:27.819831   791 net.cpp:110] Creating Layer conv2_2
I0406 07:45:27.819835   791 net.cpp:451] conv2_2 <- conv2_1
I0406 07:45:27.819839   791 net.cpp:425] conv2_2 -> conv2_2
I0406 07:45:27.821003   791 net.cpp:160] Setting up conv2_2
I0406 07:45:27.821014   791 net.cpp:167] Top shape: 1 128 150 150 (2880000)
I0406 07:45:27.821019   791 net.cpp:175] Memory required for data: 141120064
I0406 07:45:27.821027   791 layer_factory.hpp:93] Creating layer relu2_2
I0406 07:45:27.821032   791 net.cpp:110] Creating Layer relu2_2
I0406 07:45:27.821035   791 net.cpp:451] relu2_2 <- conv2_2
I0406 07:45:27.821040   791 net.cpp:412] relu2_2 -> conv2_2 (in-place)
I0406 07:45:27.821046   791 net.cpp:160] Setting up relu2_2
I0406 07:45:27.821049   791 net.cpp:167] Top shape: 1 128 150 150 (2880000)
I0406 07:45:27.821053   791 net.cpp:175] Memory required for data: 152640064
I0406 07:45:27.821058   791 layer_factory.hpp:93] Creating layer pool2
I0406 07:45:27.821063   791 net.cpp:110] Creating Layer pool2
I0406 07:45:27.821065   791 net.cpp:451] pool2 <- conv2_2
I0406 07:45:27.821070   791 net.cpp:425] pool2 -> pool2
I0406 07:45:27.821101   791 net.cpp:160] Setting up pool2
I0406 07:45:27.821105   791 net.cpp:167] Top shape: 1 128 75 75 (720000)
I0406 07:45:27.821110   791 net.cpp:175] Memory required for data: 155520064
I0406 07:45:27.821113   791 layer_factory.hpp:93] Creating layer conv3_1
I0406 07:45:27.821120   791 net.cpp:110] Creating Layer conv3_1
I0406 07:45:27.821125   791 net.cpp:451] conv3_1 <- pool2
I0406 07:45:27.821133   791 net.cpp:425] conv3_1 -> conv3_1
I0406 07:45:27.824427   791 net.cpp:160] Setting up conv3_1
I0406 07:45:27.824440   791 net.cpp:167] Top shape: 1 256 75 75 (1440000)
I0406 07:45:27.824445   791 net.cpp:175] Memory required for data: 161280064
I0406 07:45:27.824453   791 layer_factory.hpp:93] Creating layer relu3_1
I0406 07:45:27.824460   791 net.cpp:110] Creating Layer relu3_1
I0406 07:45:27.824463   791 net.cpp:451] relu3_1 <- conv3_1
I0406 07:45:27.824468   791 net.cpp:412] relu3_1 -> conv3_1 (in-place)
I0406 07:45:27.824474   791 net.cpp:160] Setting up relu3_1
I0406 07:45:27.824478   791 net.cpp:167] Top shape: 1 256 75 75 (1440000)
I0406 07:45:27.824482   791 net.cpp:175] Memory required for data: 167040064
I0406 07:45:27.824486   791 layer_factory.hpp:93] Creating layer conv3_2
I0406 07:45:27.824493   791 net.cpp:110] Creating Layer conv3_2
I0406 07:45:27.824496   791 net.cpp:451] conv3_2 <- conv3_1
I0406 07:45:27.824501   791 net.cpp:425] conv3_2 -> conv3_2
I0406 07:45:27.829581   791 net.cpp:160] Setting up conv3_2
I0406 07:45:27.829593   791 net.cpp:167] Top shape: 1 256 75 75 (1440000)
I0406 07:45:27.829599   791 net.cpp:175] Memory required for data: 172800064
I0406 07:45:27.829607   791 layer_factory.hpp:93] Creating layer relu3_2
I0406 07:45:27.829612   791 net.cpp:110] Creating Layer relu3_2
I0406 07:45:27.829617   791 net.cpp:451] relu3_2 <- conv3_2
I0406 07:45:27.829620   791 net.cpp:412] relu3_2 -> conv3_2 (in-place)
I0406 07:45:27.829627   791 net.cpp:160] Setting up relu3_2
I0406 07:45:27.829630   791 net.cpp:167] Top shape: 1 256 75 75 (1440000)
I0406 07:45:27.829635   791 net.cpp:175] Memory required for data: 178560064
I0406 07:45:27.829638   791 layer_factory.hpp:93] Creating layer conv3_3
I0406 07:45:27.829646   791 net.cpp:110] Creating Layer conv3_3
I0406 07:45:27.829649   791 net.cpp:451] conv3_3 <- conv3_2
I0406 07:45:27.829655   791 net.cpp:425] conv3_3 -> conv3_3
I0406 07:45:27.834821   791 net.cpp:160] Setting up conv3_3
I0406 07:45:27.834833   791 net.cpp:167] Top shape: 1 256 75 75 (1440000)
I0406 07:45:27.834839   791 net.cpp:175] Memory required for data: 184320064
I0406 07:45:27.834846   791 layer_factory.hpp:93] Creating layer relu3_3
I0406 07:45:27.834852   791 net.cpp:110] Creating Layer relu3_3
I0406 07:45:27.834856   791 net.cpp:451] relu3_3 <- conv3_3
I0406 07:45:27.834861   791 net.cpp:412] relu3_3 -> conv3_3 (in-place)
I0406 07:45:27.834868   791 net.cpp:160] Setting up relu3_3
I0406 07:45:27.834872   791 net.cpp:167] Top shape: 1 256 75 75 (1440000)
I0406 07:45:27.834877   791 net.cpp:175] Memory required for data: 190080064
I0406 07:45:27.834879   791 layer_factory.hpp:93] Creating layer pool3
I0406 07:45:27.834884   791 net.cpp:110] Creating Layer pool3
I0406 07:45:27.834888   791 net.cpp:451] pool3 <- conv3_3
I0406 07:45:27.834892   791 net.cpp:425] pool3 -> pool3
I0406 07:45:27.834924   791 net.cpp:160] Setting up pool3
I0406 07:45:27.834928   791 net.cpp:167] Top shape: 1 256 38 38 (369664)
I0406 07:45:27.834933   791 net.cpp:175] Memory required for data: 191558720
I0406 07:45:27.834936   791 layer_factory.hpp:93] Creating layer conv4_1
I0406 07:45:27.834944   791 net.cpp:110] Creating Layer conv4_1
I0406 07:45:27.834949   791 net.cpp:451] conv4_1 <- pool3
I0406 07:45:27.834954   791 net.cpp:425] conv4_1 -> conv4_1
I0406 07:45:27.844666   791 net.cpp:160] Setting up conv4_1
I0406 07:45:27.844678   791 net.cpp:167] Top shape: 1 512 38 38 (739328)
I0406 07:45:27.844684   791 net.cpp:175] Memory required for data: 194516032
I0406 07:45:27.844691   791 layer_factory.hpp:93] Creating layer relu4_1
I0406 07:45:27.844697   791 net.cpp:110] Creating Layer relu4_1
I0406 07:45:27.844702   791 net.cpp:451] relu4_1 <- conv4_1
I0406 07:45:27.844707   791 net.cpp:412] relu4_1 -> conv4_1 (in-place)
I0406 07:45:27.844712   791 net.cpp:160] Setting up relu4_1
I0406 07:45:27.844715   791 net.cpp:167] Top shape: 1 512 38 38 (739328)
I0406 07:45:27.844720   791 net.cpp:175] Memory required for data: 197473344
I0406 07:45:27.844723   791 layer_factory.hpp:93] Creating layer conv4_2
I0406 07:45:27.844732   791 net.cpp:110] Creating Layer conv4_2
I0406 07:45:27.844734   791 net.cpp:451] conv4_2 <- conv4_1
I0406 07:45:27.844739   791 net.cpp:425] conv4_2 -> conv4_2
I0406 07:45:27.863759   791 net.cpp:160] Setting up conv4_2
I0406 07:45:27.863775   791 net.cpp:167] Top shape: 1 512 38 38 (739328)
I0406 07:45:27.863782   791 net.cpp:175] Memory required for data: 200430656
I0406 07:45:27.863793   791 layer_factory.hpp:93] Creating layer relu4_2
I0406 07:45:27.863801   791 net.cpp:110] Creating Layer relu4_2
I0406 07:45:27.863804   791 net.cpp:451] relu4_2 <- conv4_2
I0406 07:45:27.863811   791 net.cpp:412] relu4_2 -> conv4_2 (in-place)
I0406 07:45:27.863818   791 net.cpp:160] Setting up relu4_2
I0406 07:45:27.863821   791 net.cpp:167] Top shape: 1 512 38 38 (739328)
I0406 07:45:27.863826   791 net.cpp:175] Memory required for data: 203387968
I0406 07:45:27.863829   791 layer_factory.hpp:93] Creating layer conv4_3
I0406 07:45:27.863838   791 net.cpp:110] Creating Layer conv4_3
I0406 07:45:27.863842   791 net.cpp:451] conv4_3 <- conv4_2
I0406 07:45:27.863847   791 net.cpp:425] conv4_3 -> conv4_3
I0406 07:45:27.882716   791 net.cpp:160] Setting up conv4_3
I0406 07:45:27.882731   791 net.cpp:167] Top shape: 1 512 38 38 (739328)
I0406 07:45:27.882740   791 net.cpp:175] Memory required for data: 206345280
I0406 07:45:27.882747   791 layer_factory.hpp:93] Creating layer conv4_3_bn
I0406 07:45:27.882757   791 net.cpp:110] Creating Layer conv4_3_bn
I0406 07:45:27.882761   791 net.cpp:451] conv4_3_bn <- conv4_3
I0406 07:45:27.882767   791 net.cpp:412] conv4_3_bn -> conv4_3 (in-place)
I0406 07:45:27.883312   791 net.cpp:160] Setting up conv4_3_bn
I0406 07:45:27.883322   791 net.cpp:167] Top shape: 1 512 38 38 (739328)
I0406 07:45:27.883328   791 net.cpp:175] Memory required for data: 209302592
I0406 07:45:27.883337   791 layer_factory.hpp:93] Creating layer relu4_3
I0406 07:45:27.883343   791 net.cpp:110] Creating Layer relu4_3
I0406 07:45:27.883347   791 net.cpp:451] relu4_3 <- conv4_3
I0406 07:45:27.883352   791 net.cpp:412] relu4_3 -> conv4_3 (in-place)
I0406 07:45:27.883359   791 net.cpp:160] Setting up relu4_3
I0406 07:45:27.883363   791 net.cpp:167] Top shape: 1 512 38 38 (739328)
I0406 07:45:27.883366   791 net.cpp:175] Memory required for data: 212259904
I0406 07:45:27.883370   791 layer_factory.hpp:93] Creating layer conv4_3_relu4_3_0_split
I0406 07:45:27.883384   791 net.cpp:110] Creating Layer conv4_3_relu4_3_0_split
I0406 07:45:27.883388   791 net.cpp:451] conv4_3_relu4_3_0_split <- conv4_3
I0406 07:45:27.883392   791 net.cpp:425] conv4_3_relu4_3_0_split -> conv4_3_relu4_3_0_split_0
I0406 07:45:27.883399   791 net.cpp:425] conv4_3_relu4_3_0_split -> conv4_3_relu4_3_0_split_1
I0406 07:45:27.883404   791 net.cpp:425] conv4_3_relu4_3_0_split -> conv4_3_relu4_3_0_split_2
I0406 07:45:27.883409   791 net.cpp:425] conv4_3_relu4_3_0_split -> conv4_3_relu4_3_0_split_3
I0406 07:45:27.883456   791 net.cpp:160] Setting up conv4_3_relu4_3_0_split
I0406 07:45:27.883462   791 net.cpp:167] Top shape: 1 512 38 38 (739328)
I0406 07:45:27.883467   791 net.cpp:167] Top shape: 1 512 38 38 (739328)
I0406 07:45:27.883471   791 net.cpp:167] Top shape: 1 512 38 38 (739328)
I0406 07:45:27.883476   791 net.cpp:167] Top shape: 1 512 38 38 (739328)
I0406 07:45:27.883479   791 net.cpp:175] Memory required for data: 224089152
I0406 07:45:27.883483   791 layer_factory.hpp:93] Creating layer pool4
I0406 07:45:27.883489   791 net.cpp:110] Creating Layer pool4
I0406 07:45:27.883492   791 net.cpp:451] pool4 <- conv4_3_relu4_3_0_split_0
I0406 07:45:27.883498   791 net.cpp:425] pool4 -> pool4
I0406 07:45:27.883534   791 net.cpp:160] Setting up pool4
I0406 07:45:27.883543   791 net.cpp:167] Top shape: 1 512 19 19 (184832)
I0406 07:45:27.883550   791 net.cpp:175] Memory required for data: 224828480
I0406 07:45:27.883554   791 layer_factory.hpp:93] Creating layer conv5_1
I0406 07:45:27.883563   791 net.cpp:110] Creating Layer conv5_1
I0406 07:45:27.883567   791 net.cpp:451] conv5_1 <- pool4
I0406 07:45:27.883574   791 net.cpp:425] conv5_1 -> conv5_1
I0406 07:45:27.902446   791 net.cpp:160] Setting up conv5_1
I0406 07:45:27.902462   791 net.cpp:167] Top shape: 1 512 19 19 (184832)
I0406 07:45:27.902468   791 net.cpp:175] Memory required for data: 225567808
I0406 07:45:27.902477   791 layer_factory.hpp:93] Creating layer relu5_1
I0406 07:45:27.902483   791 net.cpp:110] Creating Layer relu5_1
I0406 07:45:27.902488   791 net.cpp:451] relu5_1 <- conv5_1
I0406 07:45:27.902494   791 net.cpp:412] relu5_1 -> conv5_1 (in-place)
I0406 07:45:27.902503   791 net.cpp:160] Setting up relu5_1
I0406 07:45:27.902505   791 net.cpp:167] Top shape: 1 512 19 19 (184832)
I0406 07:45:27.902509   791 net.cpp:175] Memory required for data: 226307136
I0406 07:45:27.902513   791 layer_factory.hpp:93] Creating layer conv5_2
I0406 07:45:27.902521   791 net.cpp:110] Creating Layer conv5_2
I0406 07:45:27.902524   791 net.cpp:451] conv5_2 <- conv5_1
I0406 07:45:27.902529   791 net.cpp:425] conv5_2 -> conv5_2
I0406 07:45:27.920573   791 net.cpp:160] Setting up conv5_2
I0406 07:45:27.920588   791 net.cpp:167] Top shape: 1 512 19 19 (184832)
I0406 07:45:27.920595   791 net.cpp:175] Memory required for data: 227046464
I0406 07:45:27.920603   791 layer_factory.hpp:93] Creating layer relu5_2
I0406 07:45:27.920610   791 net.cpp:110] Creating Layer relu5_2
I0406 07:45:27.920615   791 net.cpp:451] relu5_2 <- conv5_2
I0406 07:45:27.920620   791 net.cpp:412] relu5_2 -> conv5_2 (in-place)
I0406 07:45:27.920629   791 net.cpp:160] Setting up relu5_2
I0406 07:45:27.920631   791 net.cpp:167] Top shape: 1 512 19 19 (184832)
I0406 07:45:27.920635   791 net.cpp:175] Memory required for data: 227785792
I0406 07:45:27.920639   791 layer_factory.hpp:93] Creating layer conv5_3
I0406 07:45:27.920648   791 net.cpp:110] Creating Layer conv5_3
I0406 07:45:27.920651   791 net.cpp:451] conv5_3 <- conv5_2
I0406 07:45:27.920656   791 net.cpp:425] conv5_3 -> conv5_3
I0406 07:45:27.938530   791 net.cpp:160] Setting up conv5_3
I0406 07:45:27.938545   791 net.cpp:167] Top shape: 1 512 19 19 (184832)
I0406 07:45:27.938553   791 net.cpp:175] Memory required for data: 228525120
I0406 07:45:27.938561   791 layer_factory.hpp:93] Creating layer relu5_3
I0406 07:45:27.938568   791 net.cpp:110] Creating Layer relu5_3
I0406 07:45:27.938573   791 net.cpp:451] relu5_3 <- conv5_3
I0406 07:45:27.938578   791 net.cpp:412] relu5_3 -> conv5_3 (in-place)
I0406 07:45:27.938586   791 net.cpp:160] Setting up relu5_3
I0406 07:45:27.938589   791 net.cpp:167] Top shape: 1 512 19 19 (184832)
I0406 07:45:27.938593   791 net.cpp:175] Memory required for data: 229264448
I0406 07:45:27.938597   791 layer_factory.hpp:93] Creating layer pool5
I0406 07:45:27.938602   791 net.cpp:110] Creating Layer pool5
I0406 07:45:27.938606   791 net.cpp:451] pool5 <- conv5_3
I0406 07:45:27.938611   791 net.cpp:425] pool5 -> pool5
I0406 07:45:27.938644   791 net.cpp:160] Setting up pool5
I0406 07:45:27.938647   791 net.cpp:167] Top shape: 1 512 19 19 (184832)
I0406 07:45:27.938652   791 net.cpp:175] Memory required for data: 230003776
I0406 07:45:27.938655   791 layer_factory.hpp:93] Creating layer fc6_682
I0406 07:45:27.938663   791 net.cpp:110] Creating Layer fc6_682
I0406 07:45:27.938668   791 net.cpp:451] fc6_682 <- pool5
I0406 07:45:27.938673   791 net.cpp:425] fc6_682 -> fc6_682
I0406 07:45:27.962239   791 net.cpp:160] Setting up fc6_682
I0406 07:45:27.962255   791 net.cpp:167] Top shape: 1 682 19 19 (246202)
I0406 07:45:27.962263   791 net.cpp:175] Memory required for data: 230988584
I0406 07:45:27.962276   791 layer_factory.hpp:93] Creating layer relu6
I0406 07:45:27.962285   791 net.cpp:110] Creating Layer relu6
I0406 07:45:27.962289   791 net.cpp:451] relu6 <- fc6_682
I0406 07:45:27.962296   791 net.cpp:412] relu6 -> fc6_682 (in-place)
I0406 07:45:27.962307   791 net.cpp:160] Setting up relu6
I0406 07:45:27.962311   791 net.cpp:167] Top shape: 1 682 19 19 (246202)
I0406 07:45:27.962314   791 net.cpp:175] Memory required for data: 231973392
I0406 07:45:27.962317   791 layer_factory.hpp:93] Creating layer fc7_682
I0406 07:45:27.962325   791 net.cpp:110] Creating Layer fc7_682
I0406 07:45:27.962328   791 net.cpp:451] fc7_682 <- fc6_682
I0406 07:45:27.962333   791 net.cpp:425] fc7_682 -> fc7_682
I0406 07:45:27.967891   791 net.cpp:160] Setting up fc7_682
I0406 07:45:27.967903   791 net.cpp:167] Top shape: 1 1024 19 19 (369664)
I0406 07:45:27.967909   791 net.cpp:175] Memory required for data: 233452048
I0406 07:45:27.967916   791 layer_factory.hpp:93] Creating layer relu7
I0406 07:45:27.967921   791 net.cpp:110] Creating Layer relu7
I0406 07:45:27.967926   791 net.cpp:451] relu7 <- fc7_682
I0406 07:45:27.967929   791 net.cpp:412] relu7 -> fc7_682 (in-place)
I0406 07:45:27.967936   791 net.cpp:160] Setting up relu7
I0406 07:45:27.967939   791 net.cpp:167] Top shape: 1 1024 19 19 (369664)
I0406 07:45:27.967943   791 net.cpp:175] Memory required for data: 234930704
I0406 07:45:27.967947   791 layer_factory.hpp:93] Creating layer fc7_682_relu7_0_split
I0406 07:45:27.967952   791 net.cpp:110] Creating Layer fc7_682_relu7_0_split
I0406 07:45:27.967955   791 net.cpp:451] fc7_682_relu7_0_split <- fc7_682
I0406 07:45:27.967959   791 net.cpp:425] fc7_682_relu7_0_split -> fc7_682_relu7_0_split_0
I0406 07:45:27.967965   791 net.cpp:425] fc7_682_relu7_0_split -> fc7_682_relu7_0_split_1
I0406 07:45:27.967970   791 net.cpp:425] fc7_682_relu7_0_split -> fc7_682_relu7_0_split_2
I0406 07:45:27.967975   791 net.cpp:425] fc7_682_relu7_0_split -> fc7_682_relu7_0_split_3
I0406 07:45:27.968022   791 net.cpp:160] Setting up fc7_682_relu7_0_split
I0406 07:45:27.968029   791 net.cpp:167] Top shape: 1 1024 19 19 (369664)
I0406 07:45:27.968032   791 net.cpp:167] Top shape: 1 1024 19 19 (369664)
I0406 07:45:27.968036   791 net.cpp:167] Top shape: 1 1024 19 19 (369664)
I0406 07:45:27.968040   791 net.cpp:167] Top shape: 1 1024 19 19 (369664)
I0406 07:45:27.968044   791 net.cpp:175] Memory required for data: 240845328
I0406 07:45:27.968047   791 layer_factory.hpp:93] Creating layer conv6_1
I0406 07:45:27.968055   791 net.cpp:110] Creating Layer conv6_1
I0406 07:45:27.968058   791 net.cpp:451] conv6_1 <- fc7_682_relu7_0_split_0
I0406 07:45:27.968065   791 net.cpp:425] conv6_1 -> conv6_1
I0406 07:45:27.970342   791 net.cpp:160] Setting up conv6_1
I0406 07:45:27.970353   791 net.cpp:167] Top shape: 1 256 19 19 (92416)
I0406 07:45:27.970360   791 net.cpp:175] Memory required for data: 241214992
I0406 07:45:27.970366   791 layer_factory.hpp:93] Creating layer conv6_1_relu
I0406 07:45:27.970371   791 net.cpp:110] Creating Layer conv6_1_relu
I0406 07:45:27.970376   791 net.cpp:451] conv6_1_relu <- conv6_1
I0406 07:45:27.970381   791 net.cpp:412] conv6_1_relu -> conv6_1 (in-place)
I0406 07:45:27.970386   791 net.cpp:160] Setting up conv6_1_relu
I0406 07:45:27.970389   791 net.cpp:167] Top shape: 1 256 19 19 (92416)
I0406 07:45:27.970393   791 net.cpp:175] Memory required for data: 241584656
I0406 07:45:27.970396   791 layer_factory.hpp:93] Creating layer conv6_2
I0406 07:45:27.970403   791 net.cpp:110] Creating Layer conv6_2
I0406 07:45:27.970407   791 net.cpp:451] conv6_2 <- conv6_1
I0406 07:45:27.970412   791 net.cpp:425] conv6_2 -> conv6_2
I0406 07:45:27.979530   791 net.cpp:160] Setting up conv6_2
I0406 07:45:27.979543   791 net.cpp:167] Top shape: 1 512 10 10 (51200)
I0406 07:45:27.979549   791 net.cpp:175] Memory required for data: 241789456
I0406 07:45:27.979555   791 layer_factory.hpp:93] Creating layer conv6_2_relu
I0406 07:45:27.979562   791 net.cpp:110] Creating Layer conv6_2_relu
I0406 07:45:27.979565   791 net.cpp:451] conv6_2_relu <- conv6_2
I0406 07:45:27.979569   791 net.cpp:412] conv6_2_relu -> conv6_2 (in-place)
I0406 07:45:27.979576   791 net.cpp:160] Setting up conv6_2_relu
I0406 07:45:27.979579   791 net.cpp:167] Top shape: 1 512 10 10 (51200)
I0406 07:45:27.979583   791 net.cpp:175] Memory required for data: 241994256
I0406 07:45:27.979586   791 layer_factory.hpp:93] Creating layer conv6_2_conv6_2_relu_0_split
I0406 07:45:27.979593   791 net.cpp:110] Creating Layer conv6_2_conv6_2_relu_0_split
I0406 07:45:27.979595   791 net.cpp:451] conv6_2_conv6_2_relu_0_split <- conv6_2
I0406 07:45:27.979600   791 net.cpp:425] conv6_2_conv6_2_relu_0_split -> conv6_2_conv6_2_relu_0_split_0
I0406 07:45:27.979605   791 net.cpp:425] conv6_2_conv6_2_relu_0_split -> conv6_2_conv6_2_relu_0_split_1
I0406 07:45:27.979611   791 net.cpp:425] conv6_2_conv6_2_relu_0_split -> conv6_2_conv6_2_relu_0_split_2
I0406 07:45:27.979616   791 net.cpp:425] conv6_2_conv6_2_relu_0_split -> conv6_2_conv6_2_relu_0_split_3
I0406 07:45:27.979665   791 net.cpp:160] Setting up conv6_2_conv6_2_relu_0_split
I0406 07:45:27.979671   791 net.cpp:167] Top shape: 1 512 10 10 (51200)
I0406 07:45:27.979676   791 net.cpp:167] Top shape: 1 512 10 10 (51200)
I0406 07:45:27.979679   791 net.cpp:167] Top shape: 1 512 10 10 (51200)
I0406 07:45:27.979683   791 net.cpp:167] Top shape: 1 512 10 10 (51200)
I0406 07:45:27.979687   791 net.cpp:175] Memory required for data: 242813456
I0406 07:45:27.979691   791 layer_factory.hpp:93] Creating layer conv7_1
I0406 07:45:27.979698   791 net.cpp:110] Creating Layer conv7_1
I0406 07:45:27.979702   791 net.cpp:451] conv7_1 <- conv6_2_conv6_2_relu_0_split_0
I0406 07:45:27.979707   791 net.cpp:425] conv7_1 -> conv7_1
I0406 07:45:27.980293   791 net.cpp:160] Setting up conv7_1
I0406 07:45:27.980301   791 net.cpp:167] Top shape: 1 128 10 10 (12800)
I0406 07:45:27.980306   791 net.cpp:175] Memory required for data: 242864656
I0406 07:45:27.980311   791 layer_factory.hpp:93] Creating layer conv7_1_relu
I0406 07:45:27.980316   791 net.cpp:110] Creating Layer conv7_1_relu
I0406 07:45:27.980320   791 net.cpp:451] conv7_1_relu <- conv7_1
I0406 07:45:27.980325   791 net.cpp:412] conv7_1_relu -> conv7_1 (in-place)
I0406 07:45:27.980330   791 net.cpp:160] Setting up conv7_1_relu
I0406 07:45:27.980334   791 net.cpp:167] Top shape: 1 128 10 10 (12800)
I0406 07:45:27.980337   791 net.cpp:175] Memory required for data: 242915856
I0406 07:45:27.980340   791 layer_factory.hpp:93] Creating layer conv7_2
I0406 07:45:27.980347   791 net.cpp:110] Creating Layer conv7_2
I0406 07:45:27.980350   791 net.cpp:451] conv7_2 <- conv7_1
I0406 07:45:27.980355   791 net.cpp:425] conv7_2 -> conv7_2
I0406 07:45:27.983393   791 net.cpp:160] Setting up conv7_2
I0406 07:45:27.983404   791 net.cpp:167] Top shape: 1 256 5 5 (6400)
I0406 07:45:27.983410   791 net.cpp:175] Memory required for data: 242941456
I0406 07:45:27.983417   791 layer_factory.hpp:93] Creating layer conv7_2_relu
I0406 07:45:27.983422   791 net.cpp:110] Creating Layer conv7_2_relu
I0406 07:45:27.983426   791 net.cpp:451] conv7_2_relu <- conv7_2
I0406 07:45:27.983431   791 net.cpp:412] conv7_2_relu -> conv7_2 (in-place)
I0406 07:45:27.983438   791 net.cpp:160] Setting up conv7_2_relu
I0406 07:45:27.983441   791 net.cpp:167] Top shape: 1 256 5 5 (6400)
I0406 07:45:27.983445   791 net.cpp:175] Memory required for data: 242967056
I0406 07:45:27.983448   791 layer_factory.hpp:93] Creating layer conv7_2_conv7_2_relu_0_split
I0406 07:45:27.983453   791 net.cpp:110] Creating Layer conv7_2_conv7_2_relu_0_split
I0406 07:45:27.983456   791 net.cpp:451] conv7_2_conv7_2_relu_0_split <- conv7_2
I0406 07:45:27.983461   791 net.cpp:425] conv7_2_conv7_2_relu_0_split -> conv7_2_conv7_2_relu_0_split_0
I0406 07:45:27.983467   791 net.cpp:425] conv7_2_conv7_2_relu_0_split -> conv7_2_conv7_2_relu_0_split_1
I0406 07:45:27.983472   791 net.cpp:425] conv7_2_conv7_2_relu_0_split -> conv7_2_conv7_2_relu_0_split_2
I0406 07:45:27.983477   791 net.cpp:425] conv7_2_conv7_2_relu_0_split -> conv7_2_conv7_2_relu_0_split_3
I0406 07:45:27.983522   791 net.cpp:160] Setting up conv7_2_conv7_2_relu_0_split
I0406 07:45:27.983528   791 net.cpp:167] Top shape: 1 256 5 5 (6400)
I0406 07:45:27.983532   791 net.cpp:167] Top shape: 1 256 5 5 (6400)
I0406 07:45:27.983536   791 net.cpp:167] Top shape: 1 256 5 5 (6400)
I0406 07:45:27.983541   791 net.cpp:167] Top shape: 1 256 5 5 (6400)
I0406 07:45:27.983544   791 net.cpp:175] Memory required for data: 243069456
I0406 07:45:27.983547   791 layer_factory.hpp:93] Creating layer conv8_1
I0406 07:45:27.983556   791 net.cpp:110] Creating Layer conv8_1
I0406 07:45:27.983559   791 net.cpp:451] conv8_1 <- conv7_2_conv7_2_relu_0_split_0
I0406 07:45:27.983564   791 net.cpp:425] conv8_1 -> conv8_1
I0406 07:45:27.983958   791 net.cpp:160] Setting up conv8_1
I0406 07:45:27.983965   791 net.cpp:167] Top shape: 1 128 5 5 (3200)
I0406 07:45:27.983970   791 net.cpp:175] Memory required for data: 243082256
I0406 07:45:27.983976   791 layer_factory.hpp:93] Creating layer conv8_1_relu
I0406 07:45:27.983981   791 net.cpp:110] Creating Layer conv8_1_relu
I0406 07:45:27.983984   791 net.cpp:451] conv8_1_relu <- conv8_1
I0406 07:45:27.983989   791 net.cpp:412] conv8_1_relu -> conv8_1 (in-place)
I0406 07:45:27.983994   791 net.cpp:160] Setting up conv8_1_relu
I0406 07:45:27.983997   791 net.cpp:167] Top shape: 1 128 5 5 (3200)
I0406 07:45:27.984004   791 net.cpp:175] Memory required for data: 243095056
I0406 07:45:27.984009   791 layer_factory.hpp:93] Creating layer conv8_2
I0406 07:45:27.984019   791 net.cpp:110] Creating Layer conv8_2
I0406 07:45:27.984025   791 net.cpp:451] conv8_2 <- conv8_1
I0406 07:45:27.984032   791 net.cpp:425] conv8_2 -> conv8_2
I0406 07:45:27.987087   791 net.cpp:160] Setting up conv8_2
I0406 07:45:27.987097   791 net.cpp:167] Top shape: 1 256 3 3 (2304)
I0406 07:45:27.987103   791 net.cpp:175] Memory required for data: 243104272
I0406 07:45:27.987110   791 layer_factory.hpp:93] Creating layer conv8_2_relu
I0406 07:45:27.987115   791 net.cpp:110] Creating Layer conv8_2_relu
I0406 07:45:27.987119   791 net.cpp:451] conv8_2_relu <- conv8_2
I0406 07:45:27.987124   791 net.cpp:412] conv8_2_relu -> conv8_2 (in-place)
I0406 07:45:27.987130   791 net.cpp:160] Setting up conv8_2_relu
I0406 07:45:27.987133   791 net.cpp:167] Top shape: 1 256 3 3 (2304)
I0406 07:45:27.987138   791 net.cpp:175] Memory required for data: 243113488
I0406 07:45:27.987141   791 layer_factory.hpp:93] Creating layer conv8_2_conv8_2_relu_0_split
I0406 07:45:27.987146   791 net.cpp:110] Creating Layer conv8_2_conv8_2_relu_0_split
I0406 07:45:27.987149   791 net.cpp:451] conv8_2_conv8_2_relu_0_split <- conv8_2
I0406 07:45:27.987154   791 net.cpp:425] conv8_2_conv8_2_relu_0_split -> conv8_2_conv8_2_relu_0_split_0
I0406 07:45:27.987159   791 net.cpp:425] conv8_2_conv8_2_relu_0_split -> conv8_2_conv8_2_relu_0_split_1
I0406 07:45:27.987164   791 net.cpp:425] conv8_2_conv8_2_relu_0_split -> conv8_2_conv8_2_relu_0_split_2
I0406 07:45:27.987169   791 net.cpp:425] conv8_2_conv8_2_relu_0_split -> conv8_2_conv8_2_relu_0_split_3
I0406 07:45:27.987216   791 net.cpp:160] Setting up conv8_2_conv8_2_relu_0_split
I0406 07:45:27.987222   791 net.cpp:167] Top shape: 1 256 3 3 (2304)
I0406 07:45:27.987227   791 net.cpp:167] Top shape: 1 256 3 3 (2304)
I0406 07:45:27.987231   791 net.cpp:167] Top shape: 1 256 3 3 (2304)
I0406 07:45:27.987236   791 net.cpp:167] Top shape: 1 256 3 3 (2304)
I0406 07:45:27.987238   791 net.cpp:175] Memory required for data: 243150352
I0406 07:45:27.987243   791 layer_factory.hpp:93] Creating layer conv9_1
I0406 07:45:27.987255   791 net.cpp:110] Creating Layer conv9_1
I0406 07:45:27.987260   791 net.cpp:451] conv9_1 <- conv8_2_conv8_2_relu_0_split_0
I0406 07:45:27.987269   791 net.cpp:425] conv9_1 -> conv9_1
I0406 07:45:27.987677   791 net.cpp:160] Setting up conv9_1
I0406 07:45:27.987685   791 net.cpp:167] Top shape: 1 128 3 3 (1152)
I0406 07:45:27.987690   791 net.cpp:175] Memory required for data: 243154960
I0406 07:45:27.987696   791 layer_factory.hpp:93] Creating layer conv9_1_relu
I0406 07:45:27.987701   791 net.cpp:110] Creating Layer conv9_1_relu
I0406 07:45:27.987705   791 net.cpp:451] conv9_1_relu <- conv9_1
I0406 07:45:27.987709   791 net.cpp:412] conv9_1_relu -> conv9_1 (in-place)
I0406 07:45:27.987715   791 net.cpp:160] Setting up conv9_1_relu
I0406 07:45:27.987718   791 net.cpp:167] Top shape: 1 128 3 3 (1152)
I0406 07:45:27.987722   791 net.cpp:175] Memory required for data: 243159568
I0406 07:45:27.987725   791 layer_factory.hpp:93] Creating layer conv9_2
I0406 07:45:27.987731   791 net.cpp:110] Creating Layer conv9_2
I0406 07:45:27.987735   791 net.cpp:451] conv9_2 <- conv9_1
I0406 07:45:27.987740   791 net.cpp:425] conv9_2 -> conv9_2
I0406 07:45:27.990820   791 net.cpp:160] Setting up conv9_2
I0406 07:45:27.990833   791 net.cpp:167] Top shape: 1 256 1 1 (256)
I0406 07:45:27.990837   791 net.cpp:175] Memory required for data: 243160592
I0406 07:45:27.990844   791 layer_factory.hpp:93] Creating layer conv9_2_relu
I0406 07:45:27.990850   791 net.cpp:110] Creating Layer conv9_2_relu
I0406 07:45:27.990854   791 net.cpp:451] conv9_2_relu <- conv9_2
I0406 07:45:27.990859   791 net.cpp:412] conv9_2_relu -> conv9_2 (in-place)
I0406 07:45:27.990865   791 net.cpp:160] Setting up conv9_2_relu
I0406 07:45:27.990869   791 net.cpp:167] Top shape: 1 256 1 1 (256)
I0406 07:45:27.990873   791 net.cpp:175] Memory required for data: 243161616
I0406 07:45:27.990876   791 layer_factory.hpp:93] Creating layer conv9_2_conv9_2_relu_0_split
I0406 07:45:27.990881   791 net.cpp:110] Creating Layer conv9_2_conv9_2_relu_0_split
I0406 07:45:27.990885   791 net.cpp:451] conv9_2_conv9_2_relu_0_split <- conv9_2
I0406 07:45:27.990890   791 net.cpp:425] conv9_2_conv9_2_relu_0_split -> conv9_2_conv9_2_relu_0_split_0
I0406 07:45:27.990895   791 net.cpp:425] conv9_2_conv9_2_relu_0_split -> conv9_2_conv9_2_relu_0_split_1
I0406 07:45:27.990900   791 net.cpp:425] conv9_2_conv9_2_relu_0_split -> conv9_2_conv9_2_relu_0_split_2
I0406 07:45:27.990937   791 net.cpp:160] Setting up conv9_2_conv9_2_relu_0_split
I0406 07:45:27.990943   791 net.cpp:167] Top shape: 1 256 1 1 (256)
I0406 07:45:27.990947   791 net.cpp:167] Top shape: 1 256 1 1 (256)
I0406 07:45:27.990952   791 net.cpp:167] Top shape: 1 256 1 1 (256)
I0406 07:45:27.990954   791 net.cpp:175] Memory required for data: 243164688
I0406 07:45:27.990958   791 layer_factory.hpp:93] Creating layer conv4_3_norm_mbox_loc
I0406 07:45:27.990967   791 net.cpp:110] Creating Layer conv4_3_norm_mbox_loc
I0406 07:45:27.990970   791 net.cpp:451] conv4_3_norm_mbox_loc <- conv4_3_relu4_3_0_split_1
I0406 07:45:27.990975   791 net.cpp:425] conv4_3_norm_mbox_loc -> conv4_3_norm_mbox_loc
I0406 07:45:27.991624   791 net.cpp:160] Setting up conv4_3_norm_mbox_loc
I0406 07:45:27.991636   791 net.cpp:167] Top shape: 1 16 38 38 (23104)
I0406 07:45:27.991643   791 net.cpp:175] Memory required for data: 243257104
I0406 07:45:27.991650   791 layer_factory.hpp:93] Creating layer conv4_3_norm_mbox_loc_perm
I0406 07:45:27.991659   791 net.cpp:110] Creating Layer conv4_3_norm_mbox_loc_perm
I0406 07:45:27.991665   791 net.cpp:451] conv4_3_norm_mbox_loc_perm <- conv4_3_norm_mbox_loc
I0406 07:45:27.991672   791 net.cpp:425] conv4_3_norm_mbox_loc_perm -> conv4_3_norm_mbox_loc_perm
I0406 07:45:27.991761   791 net.cpp:160] Setting up conv4_3_norm_mbox_loc_perm
I0406 07:45:27.991771   791 net.cpp:167] Top shape: 1 38 38 16 (23104)
I0406 07:45:27.991780   791 net.cpp:175] Memory required for data: 243349520
I0406 07:45:27.991784   791 layer_factory.hpp:93] Creating layer conv4_3_norm_mbox_loc_flat
I0406 07:45:27.991801   791 net.cpp:110] Creating Layer conv4_3_norm_mbox_loc_flat
I0406 07:45:27.991806   791 net.cpp:451] conv4_3_norm_mbox_loc_flat <- conv4_3_norm_mbox_loc_perm
I0406 07:45:27.991814   791 net.cpp:425] conv4_3_norm_mbox_loc_flat -> conv4_3_norm_mbox_loc_flat
I0406 07:45:27.991842   791 net.cpp:160] Setting up conv4_3_norm_mbox_loc_flat
I0406 07:45:27.991850   791 net.cpp:167] Top shape: 1 23104 (23104)
I0406 07:45:27.991856   791 net.cpp:175] Memory required for data: 243441936
I0406 07:45:27.991861   791 layer_factory.hpp:93] Creating layer conv4_3_norm_mbox_conf
I0406 07:45:27.991871   791 net.cpp:110] Creating Layer conv4_3_norm_mbox_conf
I0406 07:45:27.991876   791 net.cpp:451] conv4_3_norm_mbox_conf <- conv4_3_relu4_3_0_split_2
I0406 07:45:27.991884   791 net.cpp:425] conv4_3_norm_mbox_conf -> conv4_3_norm_mbox_conf
I0406 07:45:27.995460   791 net.cpp:160] Setting up conv4_3_norm_mbox_conf
I0406 07:45:27.995471   791 net.cpp:167] Top shape: 1 84 38 38 (121296)
I0406 07:45:27.995476   791 net.cpp:175] Memory required for data: 243927120
I0406 07:45:27.995482   791 layer_factory.hpp:93] Creating layer conv4_3_norm_mbox_conf_perm
I0406 07:45:27.995492   791 net.cpp:110] Creating Layer conv4_3_norm_mbox_conf_perm
I0406 07:45:27.995497   791 net.cpp:451] conv4_3_norm_mbox_conf_perm <- conv4_3_norm_mbox_conf
I0406 07:45:27.995502   791 net.cpp:425] conv4_3_norm_mbox_conf_perm -> conv4_3_norm_mbox_conf_perm
I0406 07:45:27.995581   791 net.cpp:160] Setting up conv4_3_norm_mbox_conf_perm
I0406 07:45:27.995587   791 net.cpp:167] Top shape: 1 38 38 84 (121296)
I0406 07:45:27.995592   791 net.cpp:175] Memory required for data: 244412304
I0406 07:45:27.995596   791 layer_factory.hpp:93] Creating layer conv4_3_norm_mbox_conf_flat
I0406 07:45:27.995601   791 net.cpp:110] Creating Layer conv4_3_norm_mbox_conf_flat
I0406 07:45:27.995605   791 net.cpp:451] conv4_3_norm_mbox_conf_flat <- conv4_3_norm_mbox_conf_perm
I0406 07:45:27.995609   791 net.cpp:425] conv4_3_norm_mbox_conf_flat -> conv4_3_norm_mbox_conf_flat
I0406 07:45:27.995626   791 net.cpp:160] Setting up conv4_3_norm_mbox_conf_flat
I0406 07:45:27.995630   791 net.cpp:167] Top shape: 1 121296 (121296)
I0406 07:45:27.995635   791 net.cpp:175] Memory required for data: 244897488
I0406 07:45:27.995637   791 layer_factory.hpp:93] Creating layer conv4_3_norm_mbox_priorbox
I0406 07:45:27.995645   791 net.cpp:110] Creating Layer conv4_3_norm_mbox_priorbox
I0406 07:45:27.995647   791 net.cpp:451] conv4_3_norm_mbox_priorbox <- conv4_3_relu4_3_0_split_3
I0406 07:45:27.995651   791 net.cpp:451] conv4_3_norm_mbox_priorbox <- data_data_0_split_1
I0406 07:45:27.995656   791 net.cpp:425] conv4_3_norm_mbox_priorbox -> conv4_3_norm_mbox_priorbox
I0406 07:45:27.995676   791 net.cpp:160] Setting up conv4_3_norm_mbox_priorbox
I0406 07:45:27.995682   791 net.cpp:167] Top shape: 1 2 23104 (46208)
I0406 07:45:27.995685   791 net.cpp:175] Memory required for data: 245082320
I0406 07:45:27.995688   791 layer_factory.hpp:93] Creating layer fc7_mbox_loc
I0406 07:45:27.995697   791 net.cpp:110] Creating Layer fc7_mbox_loc
I0406 07:45:27.995703   791 net.cpp:451] fc7_mbox_loc <- fc7_682_relu7_0_split_1
I0406 07:45:27.995712   791 net.cpp:425] fc7_mbox_loc -> fc7_mbox_loc
I0406 07:45:27.997161   791 net.cpp:160] Setting up fc7_mbox_loc
I0406 07:45:27.997169   791 net.cpp:167] Top shape: 1 24 19 19 (8664)
I0406 07:45:27.997174   791 net.cpp:175] Memory required for data: 245116976
I0406 07:45:27.997180   791 layer_factory.hpp:93] Creating layer fc7_mbox_loc_perm
I0406 07:45:27.997186   791 net.cpp:110] Creating Layer fc7_mbox_loc_perm
I0406 07:45:27.997190   791 net.cpp:451] fc7_mbox_loc_perm <- fc7_mbox_loc
I0406 07:45:27.997195   791 net.cpp:425] fc7_mbox_loc_perm -> fc7_mbox_loc_perm
I0406 07:45:27.997277   791 net.cpp:160] Setting up fc7_mbox_loc_perm
I0406 07:45:27.997282   791 net.cpp:167] Top shape: 1 19 19 24 (8664)
I0406 07:45:27.997287   791 net.cpp:175] Memory required for data: 245151632
I0406 07:45:27.997289   791 layer_factory.hpp:93] Creating layer fc7_mbox_loc_flat
I0406 07:45:27.997294   791 net.cpp:110] Creating Layer fc7_mbox_loc_flat
I0406 07:45:27.997298   791 net.cpp:451] fc7_mbox_loc_flat <- fc7_mbox_loc_perm
I0406 07:45:27.997303   791 net.cpp:425] fc7_mbox_loc_flat -> fc7_mbox_loc_flat
I0406 07:45:27.997319   791 net.cpp:160] Setting up fc7_mbox_loc_flat
I0406 07:45:27.997323   791 net.cpp:167] Top shape: 1 8664 (8664)
I0406 07:45:27.997328   791 net.cpp:175] Memory required for data: 245186288
I0406 07:45:27.997330   791 layer_factory.hpp:93] Creating layer fc7_mbox_conf
I0406 07:45:27.997337   791 net.cpp:110] Creating Layer fc7_mbox_conf
I0406 07:45:27.997341   791 net.cpp:451] fc7_mbox_conf <- fc7_682_relu7_0_split_2
I0406 07:45:27.997345   791 net.cpp:425] fc7_mbox_conf -> fc7_mbox_conf
I0406 07:45:28.006377   791 net.cpp:160] Setting up fc7_mbox_conf
I0406 07:45:28.006389   791 net.cpp:167] Top shape: 1 126 19 19 (45486)
I0406 07:45:28.006395   791 net.cpp:175] Memory required for data: 245368232
I0406 07:45:28.006402   791 layer_factory.hpp:93] Creating layer fc7_mbox_conf_perm
I0406 07:45:28.006408   791 net.cpp:110] Creating Layer fc7_mbox_conf_perm
I0406 07:45:28.006413   791 net.cpp:451] fc7_mbox_conf_perm <- fc7_mbox_conf
I0406 07:45:28.006418   791 net.cpp:425] fc7_mbox_conf_perm -> fc7_mbox_conf_perm
I0406 07:45:28.006501   791 net.cpp:160] Setting up fc7_mbox_conf_perm
I0406 07:45:28.006507   791 net.cpp:167] Top shape: 1 19 19 126 (45486)
I0406 07:45:28.006512   791 net.cpp:175] Memory required for data: 245550176
I0406 07:45:28.006515   791 layer_factory.hpp:93] Creating layer fc7_mbox_conf_flat
I0406 07:45:28.006520   791 net.cpp:110] Creating Layer fc7_mbox_conf_flat
I0406 07:45:28.006523   791 net.cpp:451] fc7_mbox_conf_flat <- fc7_mbox_conf_perm
I0406 07:45:28.006528   791 net.cpp:425] fc7_mbox_conf_flat -> fc7_mbox_conf_flat
I0406 07:45:28.006546   791 net.cpp:160] Setting up fc7_mbox_conf_flat
I0406 07:45:28.006549   791 net.cpp:167] Top shape: 1 45486 (45486)
I0406 07:45:28.006554   791 net.cpp:175] Memory required for data: 245732120
I0406 07:45:28.006559   791 layer_factory.hpp:93] Creating layer fc7_mbox_priorbox
I0406 07:45:28.006569   791 net.cpp:110] Creating Layer fc7_mbox_priorbox
I0406 07:45:28.006573   791 net.cpp:451] fc7_mbox_priorbox <- fc7_682_relu7_0_split_3
I0406 07:45:28.006578   791 net.cpp:451] fc7_mbox_priorbox <- data_data_0_split_2
I0406 07:45:28.006587   791 net.cpp:425] fc7_mbox_priorbox -> fc7_mbox_priorbox
I0406 07:45:28.006618   791 net.cpp:160] Setting up fc7_mbox_priorbox
I0406 07:45:28.006625   791 net.cpp:167] Top shape: 1 2 8664 (17328)
I0406 07:45:28.006631   791 net.cpp:175] Memory required for data: 245801432
I0406 07:45:28.006635   791 layer_factory.hpp:93] Creating layer conv6_2_mbox_loc
I0406 07:45:28.006646   791 net.cpp:110] Creating Layer conv6_2_mbox_loc
I0406 07:45:28.006651   791 net.cpp:451] conv6_2_mbox_loc <- conv6_2_conv6_2_relu_0_split_1
I0406 07:45:28.006656   791 net.cpp:425] conv6_2_mbox_loc -> conv6_2_mbox_loc
I0406 07:45:28.007493   791 net.cpp:160] Setting up conv6_2_mbox_loc
I0406 07:45:28.007500   791 net.cpp:167] Top shape: 1 24 10 10 (2400)
I0406 07:45:28.007505   791 net.cpp:175] Memory required for data: 245811032
I0406 07:45:28.007511   791 layer_factory.hpp:93] Creating layer conv6_2_mbox_loc_perm
I0406 07:45:28.007517   791 net.cpp:110] Creating Layer conv6_2_mbox_loc_perm
I0406 07:45:28.007521   791 net.cpp:451] conv6_2_mbox_loc_perm <- conv6_2_mbox_loc
I0406 07:45:28.007526   791 net.cpp:425] conv6_2_mbox_loc_perm -> conv6_2_mbox_loc_perm
I0406 07:45:28.007608   791 net.cpp:160] Setting up conv6_2_mbox_loc_perm
I0406 07:45:28.007613   791 net.cpp:167] Top shape: 1 10 10 24 (2400)
I0406 07:45:28.007618   791 net.cpp:175] Memory required for data: 245820632
I0406 07:45:28.007622   791 layer_factory.hpp:93] Creating layer conv6_2_mbox_loc_flat
I0406 07:45:28.007627   791 net.cpp:110] Creating Layer conv6_2_mbox_loc_flat
I0406 07:45:28.007629   791 net.cpp:451] conv6_2_mbox_loc_flat <- conv6_2_mbox_loc_perm
I0406 07:45:28.007634   791 net.cpp:425] conv6_2_mbox_loc_flat -> conv6_2_mbox_loc_flat
I0406 07:45:28.007652   791 net.cpp:160] Setting up conv6_2_mbox_loc_flat
I0406 07:45:28.007655   791 net.cpp:167] Top shape: 1 2400 (2400)
I0406 07:45:28.007659   791 net.cpp:175] Memory required for data: 245830232
I0406 07:45:28.007663   791 layer_factory.hpp:93] Creating layer conv6_2_mbox_conf
I0406 07:45:28.007669   791 net.cpp:110] Creating Layer conv6_2_mbox_conf
I0406 07:45:28.007673   791 net.cpp:451] conv6_2_mbox_conf <- conv6_2_conv6_2_relu_0_split_2
I0406 07:45:28.007678   791 net.cpp:425] conv6_2_mbox_conf -> conv6_2_mbox_conf
I0406 07:45:28.012394   791 net.cpp:160] Setting up conv6_2_mbox_conf
I0406 07:45:28.012405   791 net.cpp:167] Top shape: 1 126 10 10 (12600)
I0406 07:45:28.012411   791 net.cpp:175] Memory required for data: 245880632
I0406 07:45:28.012418   791 layer_factory.hpp:93] Creating layer conv6_2_mbox_conf_perm
I0406 07:45:28.012424   791 net.cpp:110] Creating Layer conv6_2_mbox_conf_perm
I0406 07:45:28.012428   791 net.cpp:451] conv6_2_mbox_conf_perm <- conv6_2_mbox_conf
I0406 07:45:28.012434   791 net.cpp:425] conv6_2_mbox_conf_perm -> conv6_2_mbox_conf_perm
I0406 07:45:28.012513   791 net.cpp:160] Setting up conv6_2_mbox_conf_perm
I0406 07:45:28.012519   791 net.cpp:167] Top shape: 1 10 10 126 (12600)
I0406 07:45:28.012524   791 net.cpp:175] Memory required for data: 245931032
I0406 07:45:28.012527   791 layer_factory.hpp:93] Creating layer conv6_2_mbox_conf_flat
I0406 07:45:28.012532   791 net.cpp:110] Creating Layer conv6_2_mbox_conf_flat
I0406 07:45:28.012535   791 net.cpp:451] conv6_2_mbox_conf_flat <- conv6_2_mbox_conf_perm
I0406 07:45:28.012540   791 net.cpp:425] conv6_2_mbox_conf_flat -> conv6_2_mbox_conf_flat
I0406 07:45:28.012557   791 net.cpp:160] Setting up conv6_2_mbox_conf_flat
I0406 07:45:28.012562   791 net.cpp:167] Top shape: 1 12600 (12600)
I0406 07:45:28.012565   791 net.cpp:175] Memory required for data: 245981432
I0406 07:45:28.012568   791 layer_factory.hpp:93] Creating layer conv6_2_mbox_priorbox
I0406 07:45:28.012574   791 net.cpp:110] Creating Layer conv6_2_mbox_priorbox
I0406 07:45:28.012578   791 net.cpp:451] conv6_2_mbox_priorbox <- conv6_2_conv6_2_relu_0_split_3
I0406 07:45:28.012583   791 net.cpp:451] conv6_2_mbox_priorbox <- data_data_0_split_3
I0406 07:45:28.012588   791 net.cpp:425] conv6_2_mbox_priorbox -> conv6_2_mbox_priorbox
I0406 07:45:28.012605   791 net.cpp:160] Setting up conv6_2_mbox_priorbox
I0406 07:45:28.012609   791 net.cpp:167] Top shape: 1 2 2400 (4800)
I0406 07:45:28.012614   791 net.cpp:175] Memory required for data: 246000632
I0406 07:45:28.012616   791 layer_factory.hpp:93] Creating layer conv7_2_mbox_loc
I0406 07:45:28.012624   791 net.cpp:110] Creating Layer conv7_2_mbox_loc
I0406 07:45:28.012627   791 net.cpp:451] conv7_2_mbox_loc <- conv7_2_conv7_2_relu_0_split_1
I0406 07:45:28.012632   791 net.cpp:425] conv7_2_mbox_loc -> conv7_2_mbox_loc
I0406 07:45:28.013159   791 net.cpp:160] Setting up conv7_2_mbox_loc
I0406 07:45:28.013164   791 net.cpp:167] Top shape: 1 24 5 5 (600)
I0406 07:45:28.013170   791 net.cpp:175] Memory required for data: 246003032
I0406 07:45:28.013180   791 layer_factory.hpp:93] Creating layer conv7_2_mbox_loc_perm
I0406 07:45:28.013185   791 net.cpp:110] Creating Layer conv7_2_mbox_loc_perm
I0406 07:45:28.013188   791 net.cpp:451] conv7_2_mbox_loc_perm <- conv7_2_mbox_loc
I0406 07:45:28.013193   791 net.cpp:425] conv7_2_mbox_loc_perm -> conv7_2_mbox_loc_perm
I0406 07:45:28.013269   791 net.cpp:160] Setting up conv7_2_mbox_loc_perm
I0406 07:45:28.013275   791 net.cpp:167] Top shape: 1 5 5 24 (600)
I0406 07:45:28.013279   791 net.cpp:175] Memory required for data: 246005432
I0406 07:45:28.013283   791 layer_factory.hpp:93] Creating layer conv7_2_mbox_loc_flat
I0406 07:45:28.013288   791 net.cpp:110] Creating Layer conv7_2_mbox_loc_flat
I0406 07:45:28.013291   791 net.cpp:451] conv7_2_mbox_loc_flat <- conv7_2_mbox_loc_perm
I0406 07:45:28.013296   791 net.cpp:425] conv7_2_mbox_loc_flat -> conv7_2_mbox_loc_flat
I0406 07:45:28.013314   791 net.cpp:160] Setting up conv7_2_mbox_loc_flat
I0406 07:45:28.013316   791 net.cpp:167] Top shape: 1 600 (600)
I0406 07:45:28.013320   791 net.cpp:175] Memory required for data: 246007832
I0406 07:45:28.013324   791 layer_factory.hpp:93] Creating layer conv7_2_mbox_conf
I0406 07:45:28.013330   791 net.cpp:110] Creating Layer conv7_2_mbox_conf
I0406 07:45:28.013334   791 net.cpp:451] conv7_2_mbox_conf <- conv7_2_conv7_2_relu_0_split_2
I0406 07:45:28.013339   791 net.cpp:425] conv7_2_mbox_conf -> conv7_2_mbox_conf
I0406 07:45:28.016376   791 net.cpp:160] Setting up conv7_2_mbox_conf
I0406 07:45:28.016386   791 net.cpp:167] Top shape: 1 126 5 5 (3150)
I0406 07:45:28.016392   791 net.cpp:175] Memory required for data: 246020432
I0406 07:45:28.016399   791 layer_factory.hpp:93] Creating layer conv7_2_mbox_conf_perm
I0406 07:45:28.016407   791 net.cpp:110] Creating Layer conv7_2_mbox_conf_perm
I0406 07:45:28.016410   791 net.cpp:451] conv7_2_mbox_conf_perm <- conv7_2_mbox_conf
I0406 07:45:28.016415   791 net.cpp:425] conv7_2_mbox_conf_perm -> conv7_2_mbox_conf_perm
I0406 07:45:28.016492   791 net.cpp:160] Setting up conv7_2_mbox_conf_perm
I0406 07:45:28.016499   791 net.cpp:167] Top shape: 1 5 5 126 (3150)
I0406 07:45:28.016503   791 net.cpp:175] Memory required for data: 246033032
I0406 07:45:28.016507   791 layer_factory.hpp:93] Creating layer conv7_2_mbox_conf_flat
I0406 07:45:28.016512   791 net.cpp:110] Creating Layer conv7_2_mbox_conf_flat
I0406 07:45:28.016515   791 net.cpp:451] conv7_2_mbox_conf_flat <- conv7_2_mbox_conf_perm
I0406 07:45:28.016520   791 net.cpp:425] conv7_2_mbox_conf_flat -> conv7_2_mbox_conf_flat
I0406 07:45:28.016537   791 net.cpp:160] Setting up conv7_2_mbox_conf_flat
I0406 07:45:28.016541   791 net.cpp:167] Top shape: 1 3150 (3150)
I0406 07:45:28.016544   791 net.cpp:175] Memory required for data: 246045632
I0406 07:45:28.016548   791 layer_factory.hpp:93] Creating layer conv7_2_mbox_priorbox
I0406 07:45:28.016554   791 net.cpp:110] Creating Layer conv7_2_mbox_priorbox
I0406 07:45:28.016557   791 net.cpp:451] conv7_2_mbox_priorbox <- conv7_2_conv7_2_relu_0_split_3
I0406 07:45:28.016561   791 net.cpp:451] conv7_2_mbox_priorbox <- data_data_0_split_4
I0406 07:45:28.016566   791 net.cpp:425] conv7_2_mbox_priorbox -> conv7_2_mbox_priorbox
I0406 07:45:28.016584   791 net.cpp:160] Setting up conv7_2_mbox_priorbox
I0406 07:45:28.016588   791 net.cpp:167] Top shape: 1 2 600 (1200)
I0406 07:45:28.016592   791 net.cpp:175] Memory required for data: 246050432
I0406 07:45:28.016595   791 layer_factory.hpp:93] Creating layer conv8_2_mbox_loc
I0406 07:45:28.016602   791 net.cpp:110] Creating Layer conv8_2_mbox_loc
I0406 07:45:28.016607   791 net.cpp:451] conv8_2_mbox_loc <- conv8_2_conv8_2_relu_0_split_1
I0406 07:45:28.016613   791 net.cpp:425] conv8_2_mbox_loc -> conv8_2_mbox_loc
I0406 07:45:28.017050   791 net.cpp:160] Setting up conv8_2_mbox_loc
I0406 07:45:28.017056   791 net.cpp:167] Top shape: 1 16 3 3 (144)
I0406 07:45:28.017061   791 net.cpp:175] Memory required for data: 246051008
I0406 07:45:28.017067   791 layer_factory.hpp:93] Creating layer conv8_2_mbox_loc_perm
I0406 07:45:28.017073   791 net.cpp:110] Creating Layer conv8_2_mbox_loc_perm
I0406 07:45:28.017076   791 net.cpp:451] conv8_2_mbox_loc_perm <- conv8_2_mbox_loc
I0406 07:45:28.017081   791 net.cpp:425] conv8_2_mbox_loc_perm -> conv8_2_mbox_loc_perm
I0406 07:45:28.017159   791 net.cpp:160] Setting up conv8_2_mbox_loc_perm
I0406 07:45:28.017164   791 net.cpp:167] Top shape: 1 3 3 16 (144)
I0406 07:45:28.017168   791 net.cpp:175] Memory required for data: 246051584
I0406 07:45:28.017172   791 layer_factory.hpp:93] Creating layer conv8_2_mbox_loc_flat
I0406 07:45:28.017176   791 net.cpp:110] Creating Layer conv8_2_mbox_loc_flat
I0406 07:45:28.017180   791 net.cpp:451] conv8_2_mbox_loc_flat <- conv8_2_mbox_loc_perm
I0406 07:45:28.017184   791 net.cpp:425] conv8_2_mbox_loc_flat -> conv8_2_mbox_loc_flat
I0406 07:45:28.017201   791 net.cpp:160] Setting up conv8_2_mbox_loc_flat
I0406 07:45:28.017204   791 net.cpp:167] Top shape: 1 144 (144)
I0406 07:45:28.017208   791 net.cpp:175] Memory required for data: 246052160
I0406 07:45:28.017211   791 layer_factory.hpp:93] Creating layer conv8_2_mbox_conf
I0406 07:45:28.017218   791 net.cpp:110] Creating Layer conv8_2_mbox_conf
I0406 07:45:28.017222   791 net.cpp:451] conv8_2_mbox_conf <- conv8_2_conv8_2_relu_0_split_2
I0406 07:45:28.017227   791 net.cpp:425] conv8_2_mbox_conf -> conv8_2_mbox_conf
I0406 07:45:28.018541   791 net.cpp:160] Setting up conv8_2_mbox_conf
I0406 07:45:28.018549   791 net.cpp:167] Top shape: 1 84 3 3 (756)
I0406 07:45:28.018553   791 net.cpp:175] Memory required for data: 246055184
I0406 07:45:28.018559   791 layer_factory.hpp:93] Creating layer conv8_2_mbox_conf_perm
I0406 07:45:28.018565   791 net.cpp:110] Creating Layer conv8_2_mbox_conf_perm
I0406 07:45:28.018569   791 net.cpp:451] conv8_2_mbox_conf_perm <- conv8_2_mbox_conf
I0406 07:45:28.018574   791 net.cpp:425] conv8_2_mbox_conf_perm -> conv8_2_mbox_conf_perm
I0406 07:45:28.018651   791 net.cpp:160] Setting up conv8_2_mbox_conf_perm
I0406 07:45:28.018656   791 net.cpp:167] Top shape: 1 3 3 84 (756)
I0406 07:45:28.018661   791 net.cpp:175] Memory required for data: 246058208
I0406 07:45:28.018664   791 layer_factory.hpp:93] Creating layer conv8_2_mbox_conf_flat
I0406 07:45:28.018669   791 net.cpp:110] Creating Layer conv8_2_mbox_conf_flat
I0406 07:45:28.018672   791 net.cpp:451] conv8_2_mbox_conf_flat <- conv8_2_mbox_conf_perm
I0406 07:45:28.018677   791 net.cpp:425] conv8_2_mbox_conf_flat -> conv8_2_mbox_conf_flat
I0406 07:45:28.018694   791 net.cpp:160] Setting up conv8_2_mbox_conf_flat
I0406 07:45:28.018697   791 net.cpp:167] Top shape: 1 756 (756)
I0406 07:45:28.018702   791 net.cpp:175] Memory required for data: 246061232
I0406 07:45:28.018704   791 layer_factory.hpp:93] Creating layer conv8_2_mbox_priorbox
I0406 07:45:28.018710   791 net.cpp:110] Creating Layer conv8_2_mbox_priorbox
I0406 07:45:28.018714   791 net.cpp:451] conv8_2_mbox_priorbox <- conv8_2_conv8_2_relu_0_split_3
I0406 07:45:28.018718   791 net.cpp:451] conv8_2_mbox_priorbox <- data_data_0_split_5
I0406 07:45:28.018723   791 net.cpp:425] conv8_2_mbox_priorbox -> conv8_2_mbox_priorbox
I0406 07:45:28.018743   791 net.cpp:160] Setting up conv8_2_mbox_priorbox
I0406 07:45:28.018745   791 net.cpp:167] Top shape: 1 2 144 (288)
I0406 07:45:28.018749   791 net.cpp:175] Memory required for data: 246062384
I0406 07:45:28.018752   791 layer_factory.hpp:93] Creating layer conv9_2_mbox_loc
I0406 07:45:28.018760   791 net.cpp:110] Creating Layer conv9_2_mbox_loc
I0406 07:45:28.018764   791 net.cpp:451] conv9_2_mbox_loc <- conv9_2_conv9_2_relu_0_split_0
I0406 07:45:28.018769   791 net.cpp:425] conv9_2_mbox_loc -> conv9_2_mbox_loc
I0406 07:45:28.019186   791 net.cpp:160] Setting up conv9_2_mbox_loc
I0406 07:45:28.019192   791 net.cpp:167] Top shape: 1 16 1 1 (16)
I0406 07:45:28.019196   791 net.cpp:175] Memory required for data: 246062448
I0406 07:45:28.019202   791 layer_factory.hpp:93] Creating layer conv9_2_mbox_loc_perm
I0406 07:45:28.019207   791 net.cpp:110] Creating Layer conv9_2_mbox_loc_perm
I0406 07:45:28.019212   791 net.cpp:451] conv9_2_mbox_loc_perm <- conv9_2_mbox_loc
I0406 07:45:28.019217   791 net.cpp:425] conv9_2_mbox_loc_perm -> conv9_2_mbox_loc_perm
I0406 07:45:28.019295   791 net.cpp:160] Setting up conv9_2_mbox_loc_perm
I0406 07:45:28.019301   791 net.cpp:167] Top shape: 1 1 1 16 (16)
I0406 07:45:28.019305   791 net.cpp:175] Memory required for data: 246062512
I0406 07:45:28.019309   791 layer_factory.hpp:93] Creating layer conv9_2_mbox_loc_flat
I0406 07:45:28.019313   791 net.cpp:110] Creating Layer conv9_2_mbox_loc_flat
I0406 07:45:28.019317   791 net.cpp:451] conv9_2_mbox_loc_flat <- conv9_2_mbox_loc_perm
I0406 07:45:28.019322   791 net.cpp:425] conv9_2_mbox_loc_flat -> conv9_2_mbox_loc_flat
I0406 07:45:28.019340   791 net.cpp:160] Setting up conv9_2_mbox_loc_flat
I0406 07:45:28.019343   791 net.cpp:167] Top shape: 1 16 (16)
I0406 07:45:28.019347   791 net.cpp:175] Memory required for data: 246062576
I0406 07:45:28.019351   791 layer_factory.hpp:93] Creating layer conv9_2_mbox_conf
I0406 07:45:28.019357   791 net.cpp:110] Creating Layer conv9_2_mbox_conf
I0406 07:45:28.019361   791 net.cpp:451] conv9_2_mbox_conf <- conv9_2_conv9_2_relu_0_split_1
I0406 07:45:28.019366   791 net.cpp:425] conv9_2_mbox_conf -> conv9_2_mbox_conf
I0406 07:45:28.020655   791 net.cpp:160] Setting up conv9_2_mbox_conf
I0406 07:45:28.020663   791 net.cpp:167] Top shape: 1 84 1 1 (84)
I0406 07:45:28.020668   791 net.cpp:175] Memory required for data: 246062912
I0406 07:45:28.020673   791 layer_factory.hpp:93] Creating layer conv9_2_mbox_conf_perm
I0406 07:45:28.020679   791 net.cpp:110] Creating Layer conv9_2_mbox_conf_perm
I0406 07:45:28.020684   791 net.cpp:451] conv9_2_mbox_conf_perm <- conv9_2_mbox_conf
I0406 07:45:28.020689   791 net.cpp:425] conv9_2_mbox_conf_perm -> conv9_2_mbox_conf_perm
I0406 07:45:28.020772   791 net.cpp:160] Setting up conv9_2_mbox_conf_perm
I0406 07:45:28.020781   791 net.cpp:167] Top shape: 1 1 1 84 (84)
I0406 07:45:28.020788   791 net.cpp:175] Memory required for data: 246063248
I0406 07:45:28.020794   791 layer_factory.hpp:93] Creating layer conv9_2_mbox_conf_flat
I0406 07:45:28.020802   791 net.cpp:110] Creating Layer conv9_2_mbox_conf_flat
I0406 07:45:28.020808   791 net.cpp:451] conv9_2_mbox_conf_flat <- conv9_2_mbox_conf_perm
I0406 07:45:28.020817   791 net.cpp:425] conv9_2_mbox_conf_flat -> conv9_2_mbox_conf_flat
I0406 07:45:28.020844   791 net.cpp:160] Setting up conv9_2_mbox_conf_flat
I0406 07:45:28.020853   791 net.cpp:167] Top shape: 1 84 (84)
I0406 07:45:28.020859   791 net.cpp:175] Memory required for data: 246063584
I0406 07:45:28.020864   791 layer_factory.hpp:93] Creating layer conv9_2_mbox_priorbox
I0406 07:45:28.020874   791 net.cpp:110] Creating Layer conv9_2_mbox_priorbox
I0406 07:45:28.020879   791 net.cpp:451] conv9_2_mbox_priorbox <- conv9_2_conv9_2_relu_0_split_2
I0406 07:45:28.020884   791 net.cpp:451] conv9_2_mbox_priorbox <- data_data_0_split_6
I0406 07:45:28.020889   791 net.cpp:425] conv9_2_mbox_priorbox -> conv9_2_mbox_priorbox
I0406 07:45:28.020910   791 net.cpp:160] Setting up conv9_2_mbox_priorbox
I0406 07:45:28.020916   791 net.cpp:167] Top shape: 1 2 16 (32)
I0406 07:45:28.020921   791 net.cpp:175] Memory required for data: 246063712
I0406 07:45:28.020925   791 layer_factory.hpp:93] Creating layer mbox_loc
I0406 07:45:28.020939   791 net.cpp:110] Creating Layer mbox_loc
I0406 07:45:28.020943   791 net.cpp:451] mbox_loc <- conv4_3_norm_mbox_loc_flat
I0406 07:45:28.020947   791 net.cpp:451] mbox_loc <- fc7_mbox_loc_flat
I0406 07:45:28.020951   791 net.cpp:451] mbox_loc <- conv6_2_mbox_loc_flat
I0406 07:45:28.020956   791 net.cpp:451] mbox_loc <- conv7_2_mbox_loc_flat
I0406 07:45:28.020959   791 net.cpp:451] mbox_loc <- conv8_2_mbox_loc_flat
I0406 07:45:28.020963   791 net.cpp:451] mbox_loc <- conv9_2_mbox_loc_flat
I0406 07:45:28.020967   791 net.cpp:425] mbox_loc -> mbox_loc
I0406 07:45:28.020988   791 net.cpp:160] Setting up mbox_loc
I0406 07:45:28.020992   791 net.cpp:167] Top shape: 1 34928 (34928)
I0406 07:45:28.020997   791 net.cpp:175] Memory required for data: 246203424
I0406 07:45:28.020999   791 layer_factory.hpp:93] Creating layer mbox_conf
I0406 07:45:28.021004   791 net.cpp:110] Creating Layer mbox_conf
I0406 07:45:28.021008   791 net.cpp:451] mbox_conf <- conv4_3_norm_mbox_conf_flat
I0406 07:45:28.021013   791 net.cpp:451] mbox_conf <- fc7_mbox_conf_flat
I0406 07:45:28.021016   791 net.cpp:451] mbox_conf <- conv6_2_mbox_conf_flat
I0406 07:45:28.021019   791 net.cpp:451] mbox_conf <- conv7_2_mbox_conf_flat
I0406 07:45:28.021023   791 net.cpp:451] mbox_conf <- conv8_2_mbox_conf_flat
I0406 07:45:28.021026   791 net.cpp:451] mbox_conf <- conv9_2_mbox_conf_flat
I0406 07:45:28.021031   791 net.cpp:425] mbox_conf -> mbox_conf
I0406 07:45:28.021047   791 net.cpp:160] Setting up mbox_conf
I0406 07:45:28.021051   791 net.cpp:167] Top shape: 1 183372 (183372)
I0406 07:45:28.021056   791 net.cpp:175] Memory required for data: 246936912
I0406 07:45:28.021061   791 layer_factory.hpp:93] Creating layer mbox_priorbox
I0406 07:45:28.021068   791 net.cpp:110] Creating Layer mbox_priorbox
I0406 07:45:28.021073   791 net.cpp:451] mbox_priorbox <- conv4_3_norm_mbox_priorbox
I0406 07:45:28.021076   791 net.cpp:451] mbox_priorbox <- fc7_mbox_priorbox
I0406 07:45:28.021080   791 net.cpp:451] mbox_priorbox <- conv6_2_mbox_priorbox
I0406 07:45:28.021085   791 net.cpp:451] mbox_priorbox <- conv7_2_mbox_priorbox
I0406 07:45:28.021087   791 net.cpp:451] mbox_priorbox <- conv8_2_mbox_priorbox
I0406 07:45:28.021091   791 net.cpp:451] mbox_priorbox <- conv9_2_mbox_priorbox
I0406 07:45:28.021095   791 net.cpp:425] mbox_priorbox -> mbox_priorbox
I0406 07:45:28.021113   791 net.cpp:160] Setting up mbox_priorbox
I0406 07:45:28.021117   791 net.cpp:167] Top shape: 1 2 34928 (69856)
I0406 07:45:28.021121   791 net.cpp:175] Memory required for data: 247216336
I0406 07:45:28.021124   791 layer_factory.hpp:93] Creating layer mbox_conf_reshape
I0406 07:45:28.021142   791 net.cpp:110] Creating Layer mbox_conf_reshape
I0406 07:45:28.021145   791 net.cpp:451] mbox_conf_reshape <- mbox_conf
I0406 07:45:28.021150   791 net.cpp:425] mbox_conf_reshape -> mbox_conf_reshape
I0406 07:45:28.021169   791 net.cpp:160] Setting up mbox_conf_reshape
I0406 07:45:28.021173   791 net.cpp:167] Top shape: 1 8732 21 (183372)
I0406 07:45:28.021180   791 net.cpp:175] Memory required for data: 247949824
I0406 07:45:28.021184   791 layer_factory.hpp:93] Creating layer mbox_conf_softmax
I0406 07:45:28.021193   791 net.cpp:110] Creating Layer mbox_conf_softmax
I0406 07:45:28.021196   791 net.cpp:451] mbox_conf_softmax <- mbox_conf_reshape
I0406 07:45:28.021201   791 net.cpp:425] mbox_conf_softmax -> mbox_conf_softmax
I0406 07:45:28.021253   791 net.cpp:160] Setting up mbox_conf_softmax
I0406 07:45:28.021260   791 net.cpp:167] Top shape: 1 8732 21 (183372)
I0406 07:45:28.021263   791 net.cpp:175] Memory required for data: 248683312
I0406 07:45:28.021267   791 layer_factory.hpp:93] Creating layer mbox_conf_flatten
I0406 07:45:28.021271   791 net.cpp:110] Creating Layer mbox_conf_flatten
I0406 07:45:28.021275   791 net.cpp:451] mbox_conf_flatten <- mbox_conf_softmax
I0406 07:45:28.021281   791 net.cpp:425] mbox_conf_flatten -> mbox_conf_flatten
I0406 07:45:28.021297   791 net.cpp:160] Setting up mbox_conf_flatten
I0406 07:45:28.021301   791 net.cpp:167] Top shape: 1 183372 (183372)
I0406 07:45:28.021306   791 net.cpp:175] Memory required for data: 249416800
I0406 07:45:28.021308   791 layer_factory.hpp:93] Creating layer detection_out
I0406 07:45:28.021317   791 net.cpp:110] Creating Layer detection_out
I0406 07:45:28.021322   791 net.cpp:451] detection_out <- mbox_loc
I0406 07:45:28.021324   791 net.cpp:451] detection_out <- mbox_conf_flatten
I0406 07:45:28.021328   791 net.cpp:451] detection_out <- mbox_priorbox
I0406 07:45:28.021334   791 net.cpp:425] detection_out -> detection_out
I0406 07:45:28.023595   791 net.cpp:160] Setting up detection_out
I0406 07:45:28.023604   791 net.cpp:167] Top shape: 1 1 1 7 (7)
I0406 07:45:28.023609   791 net.cpp:175] Memory required for data: 249416828
I0406 07:45:28.023612   791 layer_factory.hpp:93] Creating layer detection_eval
I0406 07:45:28.023620   791 net.cpp:110] Creating Layer detection_eval
I0406 07:45:28.023624   791 net.cpp:451] detection_eval <- detection_out
I0406 07:45:28.023628   791 net.cpp:451] detection_eval <- label
I0406 07:45:28.023633   791 net.cpp:425] detection_eval -> detection_eval
I0406 07:45:28.025209   791 net.cpp:160] Setting up detection_eval
I0406 07:45:28.025218   791 net.cpp:167] Top shape: 1 1 21 5 (105)
I0406 07:45:28.025221   791 net.cpp:175] Memory required for data: 249417248
I0406 07:45:28.025225   791 net.cpp:238] detection_eval does not need backward computation.
I0406 07:45:28.025233   791 net.cpp:238] detection_out does not need backward computation.
I0406 07:45:28.025236   791 net.cpp:238] mbox_conf_flatten does not need backward computation.
I0406 07:45:28.025239   791 net.cpp:238] mbox_conf_softmax does not need backward computation.
…
