…
    phase: TRAIN
  }
  transform_param {
    crop_size: 300
    mean_value: 104
    mean_value: 117
    mean_value: 123
    resize_param {
      prob: 1
      resize_mode: WARP
      height: 300
      width: 300
      interp_mode: LINEAR
      interp_mode: AREA
      interp_mode: NEAREST
      interp_mode: CUBIC
      interp_mode: LANCZOS4
    }
  }
  image_data_param {
    source: "../calibration.txt"
    batch_size: 1
    shuffle: true
    new_height: 300
    new_width: 300
    root_folder: "/workspace/SSD/data/VOCdevkit/VOC2007/JPEGImages/"
  }
}
layer {
  name: "conv1_1"
  type: "Convolution"
  bottom: "data"
  top: "conv1_1"
  param {
    lr_mult: 1
    decay_mult: 1
  }
  param {
    lr_mult: 2
    decay_mult: 0
  }
  convolution_param {
    num_output: 64
    pad: 1
    kernel_size: 3
    weight_filler {
      type: "xavier"
    }
    bias_filler {
      type: "constant"
      value: 0
    }
  }
}
layer {
  name: "relu1_1"
  type: "ReLU"
  bottom: "conv1_1"
  top: "conv1_1"
}
layer {
  name: "conv1_2"
  type: "Convolution"
  bottom: "conv1_1"
  top: "conv1_2"
  param {
    lr_mult: 1
    decay_mult: 1
  }
  param {
    lr_mult: 2
    decay_mult: 0
  }
  convolution_param {
    num_output: 64
    pad: 1
    kernel_size: 3
    weight_filler {
      type: "xavier"
    }
    bias_filler {
      type: "constant"
      value: 0
    }
  }
}
layer {
  name: "relu1_2"
  type: "ReLU"
  bottom: "conv1_2"
  top: "conv1_2"
}
layer {
  name: "pool1"
  type: "Pooling"
  bottom: "conv1_2"
  top: "pool1"
  pooling_param {
    pool: MAX
    kernel_size: 2
    stride: 2
  }
}
layer {
  name: "conv2_1"
  type: "Convolution"
  bottom: "pool1"
  top: "conv2_1"
  param {
    lr_mult: 1
    decay_mult: 1
  }
  param {
    lr_mult: 2
    decay_mult: 0
  }
  convolution_param {
    num_output: 128
    pad: 1
    kernel_size: 3
    weight_filler {
      type: "xavier"
    }
    bias_filler {
      type: "constant"
      value: 0
    }
  }
}
layer {
  name: "relu2_1"
  type: "ReLU"
  bottom: "conv2_1"
  top: "conv2_1"
}
layer {
  name: "conv2_2"
  type: "Convolution"
  bottom: "conv2_1"
  top: "conv2_2"
  param {
    lr_mult: 1
    decay_mult: 1
  }
  param {
    lr_mult: 2
    decay_mult: 0
  }
  convolution_param {
    num_output: 128
    pad: 1
    kernel_size: 3
    weight_filler {
      type: "xavier"
    }
    bias_filler {
      type: "constant"
      value: 0
    }
  }
}
layer {
  name: "relu2_2"
  type: "ReLU"
  bottom: "conv2_2"
  top: "conv2_2"
}
layer {
  name: "pool2"
  type: "Pooling"
  bottom: "conv2_2"
  top: "pool2"
  pooling_param {
    pool: MAX
    kernel_size: 2
    stride: 2
  }
}
layer {
  name: "conv3_1"
  type: "Convolution"
  bottom: "pool2"
  top: "conv3_1"
  param {
    lr_mult: 1
    decay_mult: 1
  }
  param {
    lr_mult: 2
    decay_mult: 0
  }
  convolution_param {
    num_output: 256
    pad: 1
    kernel_size: 3
    weight_filler {
      type: "xavier"
    }
    bias_filler {
      type: "constant"
      value: 0
    }
  }
}
layer {
  name: "relu3_1"
  type: "ReLU"
  bottom: "conv3_1"
  top: "conv3_1"
}
layer {
  name: "conv3_2"
  type: "Convolution"
  bottom: "conv3_1"
  top: "conv3_2"
  param {
    lr_mult: 1
    decay_mult: 1
  }
  param {
    lr_mult: 2
    decay_mult: 0
  }
  convolution_param {
    num_output: 256
    pad: 1
    kernel_size: 3
    weight_filler {
      type: "xavier"
    }
    bias_filler {
      type: "constant"
      value: 0
    }
  }
}
layer {
  name: "relu3_2"
  type: "ReLU"
  bottom: "conv3_2"
  top: "conv3_2"
}
layer {
  name: "conv3_3"
  type: "Convolution"
  bottom: "conv3_2"
  top: "conv3_3"
  param {
    lr_mult: 1
    decay_mult: 1
  }
  param {
    lr_mult: 2
    decay_mult: 0
  }
  convolution_param {
    num_output: 256
    pad: 1
    kernel_size: 3
    weight_filler {
      type: "xavier"
    }
    bias_filler {
      type: "constant"
      value: 0
    }
  }
}
layer {
  name: "relu3_3"
  type: "ReLU"
  bottom: "conv3_3"
  top: "conv3_3"
}
layer {
  name: "pool3"
  type: "Pooling"
  bottom: "conv3_3"
  top: "pool3"
  pooling_param {
    pool: MAX
    kernel_size: 2
    stride: 2
  }
}
layer {
  name: "conv4_1"
  type: "Convolution"
  bottom: "pool3"
  top: "conv4_1"
  param {
    lr_mult: 1
    decay_mult: 1
  }
  param {
    lr_mult: 2
    decay_mult: 0
  }
  convolution_param {
    num_output: 512
    pad: 1
    kernel_size: 3
    weight_filler {
      type: "xavier"
    }
    bias_filler {
      type: "constant"
      value: 0
    }
  }
}
layer {
  name: "relu4_1"
  type: "ReLU"
  bottom: "conv4_1"
  top: "conv4_1"
}
layer {
  name: "conv4_2"
  type: "Convolution"
  bottom: "conv4_1"
  top: "conv4_2"
  param {
    lr_mult: 1
    decay_mult: 1
  }
  param {
    lr_mult: 2
    decay_mult: 0
  }
  convolution_param {
    num_output: 512
    pad: 1
    kernel_size: 3
    weight_filler {
      type: "xavier"
    }
    bias_filler {
      type: "constant"
      value: 0
    }
  }
}
layer {
  name: "relu4_2"
  type: "ReLU"
  bottom: "conv4_2"
  top: "conv4_2"
}
layer {
  name: "conv4_3"
  type: "Convolution"
  bottom: "conv4_2"
  top: "conv4_3"
  param {
    lr_mult: 1
    decay_mult: 1
  }
  param {
    lr_mult: 2
    decay_mult: 0
  }
  convolution_param {
    num_output: 512
    pad: 1
    kernel_size: 3
    weight_filler {
      type: "xavier"
    }
    bias_filler {
      type: "constant"
      value: 0
    }
  }
}
layer {
  name: "conv4_3_bn"
  type: "BatchNorm"
  bottom: "conv4_3"
  top: "conv4_3"
  param {
    lr_mult: 1
    decay_mult: 0
  }
  param {
    lr_mult: 1
    decay_mult: 0
  }
  param {
    lr_mult: 0
    decay_mult: 0
  }
  param {
    lr_mult: 0
    decay_mult: 0
  }
  batch_norm_param {
    use_global_stats: true
    eps: 1e-05
    scale_filler {
      type: "constant"
      value: 1
    }
    bias_filler {
      type: "constant"
      value: 0
    }
  }
}
layer {
  name: "relu4_3"
  type: "ReLU"
  bottom: "conv4_3"
  top: "conv4_3"
}
layer {
  name: "pool4"
  type: "Pooling"
  bottom: "conv4_3"
  top: "pool4"
  pooling_param {
    pool: MAX
    kernel_size: 2
    stride: 2
  }
}
layer {
  name: "conv5_1"
  type: "Convolution"
  bottom: "pool4"
  top: "conv5_1"
  param {
    lr_mult: 1
    decay_mult: 1
  }
  param {
    lr_mult: 2
    decay_mult: 0
  }
  convolution_param {
    num_output: 512
    pad: 1
    kernel_size: 3
    weight_filler {
      type: "xavier"
    }
    bias_filler {
      type: "constant"
      value: 0
    }
    dilation: 1
  }
}
layer {
  name: "relu5_1"
  type: "ReLU"
  bottom: "conv5_1"
  top: "conv5_1"
}
layer {
  name: "conv5_2"
  type: "Convolution"
  bottom: "conv5_1"
  top: "conv5_2"
  param {
    lr_mult: 1
    decay_mult: 1
  }
  param {
    lr_mult: 2
    decay_mult: 0
  }
  convolution_param {
    num_output: 512
    pad: 1
    kernel_size: 3
    weight_filler {
      type: "xavier"
    }
    bias_filler {
      type: "constant"
      value: 0
    }
    dilation: 1
  }
}
layer {
  name: "relu5_2"
  type: "ReLU"
  bottom: "conv5_2"
  top: "conv5_2"
}
layer {
  name: "conv5_3"
  type: "Convolution"
  bottom: "conv5_2"
  top: "conv5_3"
  param {
    lr_mult: 1
    decay_mult: 1
  }
  param {
    lr_mult: 2
    decay_mult: 0
  }
  convolution_param {
    num_output: 512
    pad: 1
    kernel_size: 3
    weight_filler {
      type: "xavier"
    }
    bias_filler {
      type: "constant"
      value: 0
    }
    dilation: 1
  }
}
layer {
  name: "relu5_3"
  type: "ReLU"
  bottom: "conv5_3"
  top: "conv5_3"
}
layer {
  name: "pool5"
  type: "Pooling"
  bottom: "conv5_3"
  top: "pool5"
  pooling_param {
    pool: MAX
    kernel_size: 3
    stride: 1
    pad: 1
  }
}
layer {
  name: "fc6_682"
  type: "Convolution"
  bottom: "pool5"
  top: "fc6_682"
  param {
    lr_mult: 1
    decay_mult: 1
  }
  param {
    lr_mult: 2
    decay_mult: 0
  }
  convolution_param {
    num_output: 682
    pad: 6
    kernel_size: 3
    weight_filler {
      type: "xavier"
    }
    bias_filler {
      type: "constant"
      value: 0
    }
    dilation: 6
  }
}
layer {
  name: "relu6"
  type: "ReLU"
  bottom: "fc6_682"
  top: "fc6_682"
}
layer {
  name: "fc7_682"
  type: "Convolution"
  bottom: "fc6_682"
  top: "fc7_682"
  param {
    lr_mult: 1
    decay_mult: 1
  }
  param {
    lr_mult: 2
    decay_mult: 0
  }
  convolution_param {
    num_output: 1024
    kernel_size: 1
    weight_filler {
      type: "xavier"
    }
    bias_filler {
      type: "constant"
      value: 0
    }
  }
}
layer {
  name: "relu7"
  type: "ReLU"
  bottom: "fc7_682"
  top: "fc7_682"
}
layer {
  name: "conv6_1"
  type: "Convolution"
  bottom: "fc7_682"
  top: "conv6_1"
  param {
    lr_mult: 1
    decay_mult: 1
  }
  param {
    lr_mult: 2
    decay_mult: 0
  }
  convolution_param {
    num_output: 256
    pad: 0
    kernel_size: 1
    stride: 1
    weight_filler {
      type: "xavier"
    }
    bias_filler {
      type: "constant"
      value: 0
    }
  }
}
layer {
  name: "conv6_1_relu"
  type: "ReLU"
  bottom: "conv6_1"
  top: "conv6_1"
}
layer {
  name: "conv6_2"
  type: "Convolution"
  bottom: "conv6_1"
  top: "conv6_2"
  param {
    lr_mult: 1
    decay_mult: 1
  }
  param {
    lr_mult: 2
    decay_mult: 0
  }
  convolution_param {
    num_output: 512
    pad: 1
    kernel_size: 3
    stride: 2
    weight_filler {
      type: "xavier"
    }
    bias_filler {
      type: "constant"
      value: 0
    }
  }
}
layer {
  name: "conv6_2_relu"
  type: "ReLU"
  bottom: "conv6_2"
  top: "conv6_2"
}
layer {
  name: "conv7_1"
  type: "Convolution"
  bottom: "conv6_2"
  top: "conv7_1"
  param {
    lr_mult: 1
    decay_mult: 1
  }
  param {
    lr_mult: 2
    decay_mult: 0
  }
  convolution_param {
    num_output: 128
    pad: 0
    kernel_size: 1
    stride: 1
    weight_filler {
      type: "xavier"
    }
    bias_filler {
      type: "constant"
      value: 0
    }
  }
}
layer {
  name: "conv7_1_relu"
  type: "ReLU"
  bottom: "conv7_1"
  top: "conv7_1"
}
layer {
  name: "conv7_2"
  type: "Convolution"
  bottom: "conv7_1"
  top: "conv7_2"
  param {
    lr_mult: 1
    decay_mult: 1
  }
  param {
    lr_mult: 2
    decay_mult: 0
  }
  convolution_param {
    num_output: 256
    pad: 1
    kernel_size: 3
    stride: 2
    weight_filler {
      type: "xavier"
    }
    bias_filler {
      type: "constant"
      value: 0
    }
  }
}
layer {
  name: "conv7_2_relu"
  type: "ReLU"
  bottom: "conv7_2"
  top: "conv7_2"
}
layer {
  name: "conv8_1"
  type: "Convolution"
  bottom: "conv7_2"
  top: "conv8_1"
  param {
    lr_mult: 1
    decay_mult: 1
  }
  param {
    lr_mult: 2
    decay_mult: 0
  }
  convolution_param {
    num_output: 128
    pad: 0
    kernel_size: 1
    stride: 1
    weight_filler {
      type: "xavier"
    }
    bias_filler {
      type: "constant"
      value: 0
    }
  }
}
layer {
  name: "conv8_1_relu"
  type: "ReLU"
  bottom: "conv8_1"
  top: "conv8_1"
}
layer {
  name: "conv8_2"
  type: "Convolution"
  bottom: "conv8_1"
  top: "conv8_2"
  param {
    lr_mult: 1
    decay_mult: 1
  }
  param {
    lr_mult: 2
    decay_mult: 0
  }
  convolution_param {
    num_output: 256
    pad: 0
    kernel_size: 3
    stride: 1
    weight_filler {
      type: "xavier"
    }
    bias_filler {
      type: "constant"
      value: 0
    }
  }
}
layer {
  name: "conv8_2_relu"
  type: "ReLU"
  bottom: "conv8_2"
  top: "conv8_2"
}
layer {
  name: "conv9_1"
  type: "Convolution"
  bottom: "conv8_2"
  top: "conv9_1"
  param {
    lr_mult: 1
    decay_mult: 1
  }
  param {
    lr_mult: 2
    decay_mult: 0
  }
  convolution_param {
    num_output: 128
    pad: 0
    kernel_size: 1
    stride: 1
    weight_filler {
      type: "xavier"
    }
    bias_filler {
      type: "constant"
      value: 0
    }
  }
}
layer {
  name: "conv9_1_relu"
  type: "ReLU"
  bottom: "conv9_1"
  top: "conv9_1"
}
layer {
  name: "conv9_2"
  type: "Convolution"
  bottom: "conv9_1"
  top: "conv9_2"
  param {
    lr_mult: 1
    decay_mult: 1
  }
  param {
    lr_mult: 2
    decay_mult: 0
  }
  convolution_param {
    num_output: 256
    pad: 0
    kernel_size: 3
    stride: 1
    weight_filler {
      type: "xavier"
    }
    bias_filler {
      type: "constant"
      value: 0
    }
  }
}
layer {
  name: "conv9_2_relu"
  type: "ReLU"
  bottom: "conv9_2"
  top: "conv9_2"
}
layer {
  name: "conv4_3_norm_mbox_loc"
  type: "Convolution"
  bottom: "conv4_3"
  top: "conv4_3_norm_mbox_loc"
  param {
    lr_mult: 1
    decay_mult: 1
  }
  param {
    lr_mult: 2
    decay_mult: 0
  }
  convolution_param {
    num_output: 16
    pad: 1
    kernel_size: 3
    stride: 1
    weight_filler {
      type: "xavier"
    }
    bias_filler {
      type: "constant"
      value: 0
    }
  }
}
layer {
  name: "conv4_3_norm_mbox_loc_perm"
  type: "Permute"
  bottom: "conv4_3_norm_mbox_loc"
  top: "conv4_3_norm_mbox_loc_perm"
  permute_param {
    order: 0
    order: 2
    order: 3
    order: 1
  }
}
layer {
  name: "conv4_3_norm_mbox_loc_flat"
  type: "Flatten"
  bottom: "conv4_3_norm_mbox_loc_perm"
  top: "conv4_3_norm_mbox_loc_flat"
  flatten_param {
    axis: 1
  }
}
layer {
  name: "conv4_3_norm_mbox_conf"
  type: "Convolution"
  bottom: "conv4_3"
  top: "conv4_3_norm_mbox_conf"
  param {
    lr_mult: 1
    decay_mult: 1
  }
  param {
    lr_mult: 2
    decay_mult: 0
  }
  convolution_param {
    num_output: 84
    pad: 1
    kernel_size: 3
    stride: 1
    weight_filler {
      type: "xavier"
    }
    bias_filler {
      type: "constant"
      value: 0
    }
  }
}
layer {
  name: "conv4_3_norm_mbox_conf_perm"
  type: "Permute"
  bottom: "conv4_3_norm_mbox_conf"
  top: "conv4_3_norm_mbox_conf_perm"
  permute_param {
    order: 0
    order: 2
    order: 3
    order: 1
  }
}
layer {
  name: "conv4_3_norm_mbox_conf_flat"
  type: "Flatten"
  bottom: "conv4_3_norm_mbox_conf_perm"
  top: "conv4_3_norm_mbox_conf_flat"
  flatten_param {
    axis: 1
  }
}
layer {
  name: "conv4_3_norm_mbox_priorbox"
  type: "PriorBox"
  bottom: "conv4_3"
  bottom: "data"
  top: "conv4_3_norm_mbox_priorbox"
  prior_box_param {
    min_size: 30
    max_size: 60
    aspect_ratio: 2
    flip: true
    clip: false
    variance: 0.1
    variance: 0.1
    variance: 0.2
    variance: 0.2
    step: 8
    offset: 0.5
  }
}
layer {
  name: "fc7_mbox_loc"
  type: "Convolution"
  bottom: "fc7_682"
  top: "fc7_mbox_loc"
  param {
    lr_mult: 1
    decay_mult: 1
  }
  param {
    lr_mult: 2
    decay_mult: 0
  }
  convolution_param {
    num_output: 24
    pad: 1
    kernel_size: 3
    stride: 1
    weight_filler {
      type: "xavier"
    }
    bias_filler {
      type: "constant"
      value: 0
    }
  }
}
layer {
  name: "fc7_mbox_loc_perm"
  type: "Permute"
  bottom: "fc7_mbox_loc"
  top: "fc7_mbox_loc_perm"
  permute_param {
    order: 0
    order: 2
    order: 3
    order: 1
  }
}
layer {
  name: "fc7_mbox_loc_flat"
  type: "Flatten"
  bottom: "fc7_mbox_loc_perm"
  top: "fc7_mbox_loc_flat"
  flatten_param {
    axis: 1
  }
}
layer {
  name: "fc7_mbox_conf"
  type: "Convolution"
  bottom: "fc7_682"
  top: "fc7_mbox_conf"
  param {
    lr_mult: 1
    decay_mult: 1
  }
  param {
    lr_mult: 2
    decay_mult: 0
  }
  convolution_param {
    num_output: 126
    pad: 1
    kernel_size: 3
    stride: 1
    weight_filler {
      type: "xavier"
    }
    bias_filler {
      type: "constant"
      value: 0
    }
  }
}
layer {
  name: "fc7_mbox_conf_perm"
  type: "Permute"
  bottom: "fc7_mbox_conf"
  top: "fc7_mbox_conf_perm"
  permute_param {
    order: 0
    order: 2
    order: 3
    order: 1
  }
}
layer {
  name: "fc7_mbox_conf_flat"
  type: "Flatten"
  bottom: "fc7_mbox_conf_perm"
  top: "fc7_mbox_conf_flat"
  flatten_param {
    axis: 1
  }
}
layer {
  name: "fc7_mbox_priorbox"
  type: "PriorBox"
  bottom: "fc7_682"
  bottom: "data"
  top: "fc7_mbox_priorbox"
  prior_box_param {
    min_size: 60
    max_size: 111
    aspect_ratio: 2
    aspect_ratio: 3
    flip: true
    clip: false
    variance: 0.1
    variance: 0.1
    variance: 0.2
    variance: 0.2
    step: 16
    offset: 0.5
  }
}
layer {
  name: "conv6_2_mbox_loc"
  type: "Convolution"
  bottom: "conv6_2"
  top: "conv6_2_mbox_loc"
  param {
    lr_mult: 1
    decay_mult: 1
  }
  param {
    lr_mult: 2
    decay_mult: 0
  }
  convolution_param {
    num_output: 24
    pad: 1
    kernel_size: 3
    stride: 1
    weight_filler {
      type: "xavier"
    }
    bias_filler {
      type: "constant"
      value: 0
    }
  }
}
layer {
  name: "conv6_2_mbox_loc_perm"
  type: "Permute"
  bottom: "conv6_2_mbox_loc"
  top: "conv6_2_mbox_loc_perm"
  permute_param {
    order: 0
    order: 2
    order: 3
    order: 1
  }
}
layer {
  name: "conv6_2_mbox_loc_flat"
  type: "Flatten"
  bottom: "conv6_2_mbox_loc_perm"
  top: "conv6_2_mbox_loc_flat"
  flatten_param {
    axis: 1
  }
}
layer {
  name: "conv6_2_mbox_conf"
  type: "Convolution"
  bottom: "conv6_2"
  top: "conv6_2_mbox_conf"
  param {
    lr_mult: 1
    decay_mult: 1
  }
  param {
    lr_mult: 2
    decay_mult: 0
  }
  convolution_param {
    num_output: 126
    pad: 1
    kernel_size: 3
    stride: 1
    weight_filler {
      type: "xavier"
    }
    bias_filler {
      type: "constant"
      value: 0
    }
  }
}
layer {
  name: "conv6_2_mbox_conf_perm"
  type: "Permute"
  bottom: "conv6_2_mbox_conf"
  top: "conv6_2_mbox_conf_perm"
  permute_param {
    order: 0
    order: 2
    order: 3
    order: 1
  }
}
layer {
  name: "conv6_2_mbox_conf_flat"
  type: "Flatten"
  bottom: "conv6_2_mbox_conf_perm"
  top: "conv6_2_mbox_conf_flat"
  flatten_param {
    axis: 1
  }
}
layer {
  name: "conv6_2_mbox_priorbox"
  type: "PriorBox"
  bottom: "conv6_2"
  bottom: "data"
  top: "conv6_2_mbox_priorbox"
  prior_box_param {
    min_size: 111
    max_size: 162
    aspect_ratio: 2
    aspect_ratio: 3
    flip: true
    clip: false
    variance: 0.1
    variance: 0.1
    variance: 0.2
    variance: 0.2
    step: 32
    offset: 0.5
  }
}
layer {
  name: "conv7_2_mbox_loc"
  type: "Convolution"
  bottom: "conv7_2"
  top: "conv7_2_mbox_loc"
  param {
    lr_mult: 1
    decay_mult: 1
  }
  param {
    lr_mult: 2
    decay_mult: 0
  }
  convolution_param {
    num_output: 24
    pad: 1
    kernel_size: 3
    stride: 1
    weight_filler {
      type: "xavier"
    }
    bias_filler {
      type: "constant"
      value: 0
    }
  }
}
layer {
  name: "conv7_2_mbox_loc_perm"
  type: "Permute"
  bottom: "conv7_2_mbox_loc"
  top: "conv7_2_mbox_loc_perm"
  permute_param {
    order: 0
    order: 2
    order: 3
    order: 1
  }
}
layer {
  name: "conv7_2_mbox_loc_flat"
  type: "Flatten"
  bottom: "conv7_2_mbox_loc_perm"
  top: "conv7_2_mbox_loc_flat"
  flatten_param {
    axis: 1
  }
}
layer {
  name: "conv7_2_mbox_conf"
  type: "Convolution"
  bottom: "conv7_2"
  top: "conv7_2_mbox_conf"
  param {
    lr_mult: 1
    decay_mult: 1
  }
  param {
    lr_mult: 2
    decay_mult: 0
  }
  convolution_param {
    num_output: 126
    pad: 1
    kernel_size: 3
    stride: 1
    weight_filler {
      type: "xavier"
    }
    bias_filler {
      type: "constant"
      value: 0
    }
  }
}
layer {
  name: "conv7_2_mbox_conf_perm"
  type: "Permute"
  bottom: "conv7_2_mbox_conf"
  top: "conv7_2_mbox_conf_perm"
  permute_param {
    order: 0
    order: 2
    order: 3
    order: 1
  }
}
layer {
  name: "conv7_2_mbox_conf_flat"
  type: "Flatten"
  bottom: "conv7_2_mbox_conf_perm"
  top: "conv7_2_mbox_conf_flat"
  flatten_param {
    axis: 1
  }
}
layer {
  name: "conv7_2_mbox_priorbox"
  type: "PriorBox"
  bottom: "conv7_2"
  bottom: "data"
  top: "conv7_2_mbox_priorbox"
  prior_box_param {
    min_size: 162
    max_size: 213
    aspect_ratio: 2
    aspect_ratio: 3
    flip: true
    clip: false
    variance: 0.1
    variance: 0.1
    variance: 0.2
    variance: 0.2
    step: 64
    offset: 0.5
  }
}
layer {
  name: "conv8_2_mbox_loc"
  type: "Convolution"
  bottom: "conv8_2"
  top: "conv8_2_mbox_loc"
  param {
    lr_mult: 1
    decay_mult: 1
  }
  param {
    lr_mult: 2
    decay_mult: 0
  }
  convolution_param {
    num_output: 16
    pad: 1
    kernel_size: 3
    stride: 1
    weight_filler {
      type: "xavier"
    }
    bias_filler {
      type: "constant"
      value: 0
    }
  }
}
layer {
  name: "conv8_2_mbox_loc_perm"
  type: "Permute"
  bottom: "conv8_2_mbox_loc"
  top: "conv8_2_mbox_loc_perm"
  permute_param {
    order: 0
    order: 2
    order: 3
    order: 1
  }
}
layer {
  name: "conv8_2_mbox_loc_flat"
  type: "Flatten"
  bottom: "conv8_2_mbox_loc_perm"
  top: "conv8_2_mbox_loc_flat"
  flatten_param {
    axis: 1
  }
}
layer {
  name: "conv8_2_mbox_conf"
  type: "Convolution"
  bottom: "conv8_2"
  top: "conv8_2_mbox_conf"
  param {
    lr_mult: 1
    decay_mult: 1
  }
  param {
    lr_mult: 2
    decay_mult: 0
  }
  convolution_param {
    num_output: 84
    pad: 1
    kernel_size: 3
    stride: 1
    weight_filler {
      type: "xavier"
    }
    bias_filler {
      type: "constant"
      value: 0
    }
  }
}
layer {
  name: "conv8_2_mbox_conf_perm"
  type: "Permute"
  bottom: "conv8_2_mbox_conf"
  top: "conv8_2_mbox_conf_perm"
  permute_param {
    order: 0
    order: 2
    order: 3
    order: 1
  }
}
layer {
  name: "conv8_2_mbox_conf_flat"
  type: "Flatten"
  bottom: "conv8_2_mbox_conf_perm"
  top: "conv8_2_mbox_conf_flat"
  flatten_param {
    axis: 1
  }
}
layer {
  name: "conv8_2_mbox_priorbox"
  type: "PriorBox"
  bottom: "conv8_2"
  bottom: "data"
  top: "conv8_2_mbox_priorbox"
  prior_box_param {
    min_size: 213
    max_size: 264
    aspect_ratio: 2
    flip: true
    clip: false
    variance: 0.1
    variance: 0.1
    variance: 0.2
    variance: 0.2
    step: 100
    offset: 0.5
  }
}
layer {
  name: "conv9_2_mbox_loc"
  type: "Convolution"
  bottom: "conv9_2"
  top: "conv9_2_mbox_loc"
  param {
    lr_mult: 1
    decay_mult: 1
  }
  param {
    lr_mult: 2
    decay_mult: 0
  }
  convolution_param {
    num_output: 16
    pad: 1
    kernel_size: 3
    stride: 1
    weight_filler {
      type: "xavier"
    }
    bias_filler {
      type: "constant"
      value: 0
    }
  }
}
layer {
  name: "conv9_2_mbox_loc_perm"
  type: "Permute"
  bottom: "conv9_2_mbox_loc"
  top: "conv9_2_mbox_loc_perm"
  permute_param {
    order: 0
    order: 2
    order: 3
    order: 1
  }
}
layer {
  name: "conv9_2_mbox_loc_flat"
  type: "Flatten"
  bottom: "conv9_2_mbox_loc_perm"
  top: "conv9_2_mbox_loc_flat"
  flatten_param {
    axis: 1
  }
}
layer {
  name: "conv9_2_mbox_conf"
  type: "Convolution"
  bottom: "conv9_2"
  top: "conv9_2_mbox_conf"
  param {
    lr_mult: 1
    decay_mult: 1
  }
  param {
    lr_mult: 2
    decay_mult: 0
  }
  convolution_param {
    num_output: 84
    pad: 1
    kernel_size: 3
    stride: 1
    weight_filler {
      type: "xavier"
    }
    bias_filler {
      type: "constant"
      value: 0
    }
  }
}
layer {
  name: "conv9_2_mbox_conf_perm"
  type: "Permute"
  bottom: "conv9_2_mbox_conf"
  top: "conv9_2_mbox_conf_perm"
  permute_param {
    order: 0
    order: 2
    order: 3
    order: 1
  }
}
layer {
  name: "conv9_2_mbox_conf_flat"
  type: "Flatten"
  bottom: "conv9_2_mbox_conf_perm"
  top: "conv9_2_mbox_conf_flat"
  flatten_param {
    axis: 1
  }
}
layer {
  name: "conv9_2_mbox_priorbox"
  type: "PriorBox"
  bottom: "conv9_2"
  bottom: "data"
  top: "conv9_2_mbox_priorbox"
  prior_box_param {
    min_size: 264
    max_size: 315
    aspect_ratio: 2
    flip: true
    clip: false
    variance: 0.1
    variance: 0.1
    variance: 0.2
    variance: 0.2
    step: 300
    offset: 0.5
  }
}
layer {
  name: "mbox_loc"
  type: "Concat"
  bottom: "conv4_3_norm_mbox_loc_flat"
  bottom: "fc7_mbox_loc_flat"
  bottom: "conv6_2_mbox_loc_flat"
  bottom: "conv7_2_mbox_loc_flat"
  bottom: "conv8_2_mbox_loc_flat"
  bottom: "conv9_2_mbox_loc_flat"
  top: "mbox_loc"
  concat_param {
    axis: 1
  }
}
layer {
  name: "mbox_conf"
  type: "Concat"
  bottom: "conv4_3_norm_mbox_conf_flat"
  bottom: "fc7_mbox_conf_flat"
  bottom: "conv6_2_mbox_conf_flat"
  bottom: "conv7_2_mbox_conf_flat"
  bottom: "conv8_2_mbox_conf_flat"
  bottom: "conv9_2_mbox_conf_flat"
  top: "mbox_conf"
  concat_param {
    axis: 1
  }
}
layer {
  name: "mbox_priorbox"
  type: "Concat"
  bottom: "conv4_3_norm_mbox_priorbox"
  bottom: "fc7_mbox_priorbox"
  bottom: "conv6_2_mbox_priorbox"
  bottom: "conv7_2_mbox_priorbox"
  bottom: "conv8_2_mbox_priorbox"
  bottom: "conv9_2_mbox_priorbox"
  top: "mbox_priorbox"
  concat_param {
    axis: 2
  }
}
I0406 07:47:28.330813   822 layer_factory.hpp:93] Creating layer data
I0406 07:47:28.330837   822 net.cpp:110] Creating Layer data
I0406 07:47:28.330842   822 net.cpp:425] data -> data
I0406 07:47:28.330859   822 net.cpp:425] data -> label
I0406 07:47:28.330931   822 image_data_layer.cpp:57] Opening file ../calibration.txt
I0406 07:47:28.331171   822 image_data_layer.cpp:67] Shuffling data
I0406 07:47:28.331225   822 image_data_layer.cpp:72] A total of 1000 images.
I0406 07:47:28.336338   822 image_data_layer.cpp:100] output data size: 1,3,300,300
I0406 07:47:28.343992   822 internal_thread.cpp:43] Starting internal thread(s) on GPU 0
I0406 07:47:28.344085   822 net.cpp:160] Setting up data
I0406 07:47:28.344131   822 net.cpp:167] Top shape: 1 3 300 300 (270000)
I0406 07:47:28.344149   822 net.cpp:167] Top shape: 1 (1)
I0406 07:47:28.344156   822 net.cpp:175] Memory required for data: 1080004
I0406 07:47:28.344163   822 layer_factory.hpp:93] Creating layer data_data_0_split
I0406 07:47:28.344230   822 net.cpp:110] Creating Layer data_data_0_split
I0406 07:47:28.344242   822 net.cpp:451] data_data_0_split <- data
I0406 07:47:28.344254   822 net.cpp:425] data_data_0_split -> data_data_0_split_0
I0406 07:47:28.344267   822 net.cpp:425] data_data_0_split -> data_data_0_split_1
I0406 07:47:28.344276   822 net.cpp:425] data_data_0_split -> data_data_0_split_2
I0406 07:47:28.344285   822 net.cpp:425] data_data_0_split -> data_data_0_split_3
I0406 07:47:28.344292   822 net.cpp:425] data_data_0_split -> data_data_0_split_4
I0406 07:47:28.344300   822 net.cpp:425] data_data_0_split -> data_data_0_split_5
I0406 07:47:28.344308   822 net.cpp:425] data_data_0_split -> data_data_0_split_6
I0406 07:47:28.344431   822 net.cpp:160] Setting up data_data_0_split
I0406 07:47:28.344440   822 net.cpp:167] Top shape: 1 3 300 300 (270000)
I0406 07:47:28.344449   822 net.cpp:167] Top shape: 1 3 300 300 (270000)
I0406 07:47:28.344455   822 net.cpp:167] Top shape: 1 3 300 300 (270000)
I0406 07:47:28.344461   822 net.cpp:167] Top shape: 1 3 300 300 (270000)
I0406 07:47:28.344468   822 net.cpp:167] Top shape: 1 3 300 300 (270000)
I0406 07:47:28.344475   822 net.cpp:167] Top shape: 1 3 300 300 (270000)
I0406 07:47:28.344481   822 net.cpp:167] Top shape: 1 3 300 300 (270000)
I0406 07:47:28.344488   822 net.cpp:175] Memory required for data: 8640004
I0406 07:47:28.344493   822 layer_factory.hpp:93] Creating layer conv1_1
I0406 07:47:28.344508   822 net.cpp:110] Creating Layer conv1_1
I0406 07:47:28.344513   822 net.cpp:451] conv1_1 <- data_data_0_split_0
I0406 07:47:28.344522   822 net.cpp:425] conv1_1 -> conv1_1
I0406 07:47:28.344897   822 net.cpp:160] Setting up conv1_1
I0406 07:47:28.344904   822 net.cpp:167] Top shape: 1 64 300 300 (5760000)
I0406 07:47:28.344909   822 net.cpp:175] Memory required for data: 31680004
I0406 07:47:28.344929   822 layer_factory.hpp:93] Creating layer relu1_1
I0406 07:47:28.344935   822 net.cpp:110] Creating Layer relu1_1
I0406 07:47:28.344939   822 net.cpp:451] relu1_1 <- conv1_1
I0406 07:47:28.344944   822 net.cpp:412] relu1_1 -> conv1_1 (in-place)
I0406 07:47:28.344954   822 net.cpp:160] Setting up relu1_1
I0406 07:47:28.344956   822 net.cpp:167] Top shape: 1 64 300 300 (5760000)
I0406 07:47:28.344960   822 net.cpp:175] Memory required for data: 54720004
I0406 07:47:28.344964   822 layer_factory.hpp:93] Creating layer conv1_2
I0406 07:47:28.344971   822 net.cpp:110] Creating Layer conv1_2
I0406 07:47:28.344974   822 net.cpp:451] conv1_2 <- conv1_1
I0406 07:47:28.344978   822 net.cpp:425] conv1_2 -> conv1_2
I0406 07:47:28.345417   822 net.cpp:160] Setting up conv1_2
I0406 07:47:28.345424   822 net.cpp:167] Top shape: 1 64 300 300 (5760000)
I0406 07:47:28.345429   822 net.cpp:175] Memory required for data: 77760004
I0406 07:47:28.345436   822 layer_factory.hpp:93] Creating layer relu1_2
I0406 07:47:28.345440   822 net.cpp:110] Creating Layer relu1_2
I0406 07:47:28.345444   822 net.cpp:451] relu1_2 <- conv1_2
I0406 07:47:28.345448   822 net.cpp:412] relu1_2 -> conv1_2 (in-place)
I0406 07:47:28.345453   822 net.cpp:160] Setting up relu1_2
I0406 07:47:28.345456   822 net.cpp:167] Top shape: 1 64 300 300 (5760000)
I0406 07:47:28.345461   822 net.cpp:175] Memory required for data: 100800004
I0406 07:47:28.345464   822 layer_factory.hpp:93] Creating layer pool1
I0406 07:47:28.345470   822 net.cpp:110] Creating Layer pool1
I0406 07:47:28.345474   822 net.cpp:451] pool1 <- conv1_2
I0406 07:47:28.345477   822 net.cpp:425] pool1 -> pool1
I0406 07:47:28.345510   822 net.cpp:160] Setting up pool1
I0406 07:47:28.345516   822 net.cpp:167] Top shape: 1 64 150 150 (1440000)
I0406 07:47:28.345520   822 net.cpp:175] Memory required for data: 106560004
I0406 07:47:28.345525   822 layer_factory.hpp:93] Creating layer conv2_1
I0406 07:47:28.345530   822 net.cpp:110] Creating Layer conv2_1
I0406 07:47:28.345533   822 net.cpp:451] conv2_1 <- pool1
I0406 07:47:28.345538   822 net.cpp:425] conv2_1 -> conv2_1
I0406 07:47:28.346150   822 net.cpp:160] Setting up conv2_1
I0406 07:47:28.346158   822 net.cpp:167] Top shape: 1 128 150 150 (2880000)
I0406 07:47:28.346163   822 net.cpp:175] Memory required for data: 118080004
I0406 07:47:28.346168   822 layer_factory.hpp:93] Creating layer relu2_1
I0406 07:47:28.346174   822 net.cpp:110] Creating Layer relu2_1
I0406 07:47:28.346177   822 net.cpp:451] relu2_1 <- conv2_1
I0406 07:47:28.346181   822 net.cpp:412] relu2_1 -> conv2_1 (in-place)
I0406 07:47:28.346186   822 net.cpp:160] Setting up relu2_1
I0406 07:47:28.346189   822 net.cpp:167] Top shape: 1 128 150 150 (2880000)
I0406 07:47:28.346194   822 net.cpp:175] Memory required for data: 129600004
I0406 07:47:28.346197   822 layer_factory.hpp:93] Creating layer conv2_2
I0406 07:47:28.346204   822 net.cpp:110] Creating Layer conv2_2
I0406 07:47:28.346206   822 net.cpp:451] conv2_2 <- conv2_1
I0406 07:47:28.346211   822 net.cpp:425] conv2_2 -> conv2_2
I0406 07:47:28.347338   822 net.cpp:160] Setting up conv2_2
I0406 07:47:28.347345   822 net.cpp:167] Top shape: 1 128 150 150 (2880000)
I0406 07:47:28.347350   822 net.cpp:175] Memory required for data: 141120004
I0406 07:47:28.347357   822 layer_factory.hpp:93] Creating layer relu2_2
I0406 07:47:28.347362   822 net.cpp:110] Creating Layer relu2_2
I0406 07:47:28.347364   822 net.cpp:451] relu2_2 <- conv2_2
I0406 07:47:28.347369   822 net.cpp:412] relu2_2 -> conv2_2 (in-place)
I0406 07:47:28.347374   822 net.cpp:160] Setting up relu2_2
I0406 07:47:28.347378   822 net.cpp:167] Top shape: 1 128 150 150 (2880000)
I0406 07:47:28.347381   822 net.cpp:175] Memory required for data: 152640004
I0406 07:47:28.347384   822 layer_factory.hpp:93] Creating layer pool2
I0406 07:47:28.347389   822 net.cpp:110] Creating Layer pool2
I0406 07:47:28.347393   822 net.cpp:451] pool2 <- conv2_2
I0406 07:47:28.347396   822 net.cpp:425] pool2 -> pool2
I0406 07:47:28.347435   822 net.cpp:160] Setting up pool2
I0406 07:47:28.347441   822 net.cpp:167] Top shape: 1 128 75 75 (720000)
I0406 07:47:28.347445   822 net.cpp:175] Memory required for data: 155520004
I0406 07:47:28.347450   822 layer_factory.hpp:93] Creating layer conv3_1
I0406 07:47:28.347455   822 net.cpp:110] Creating Layer conv3_1
I0406 07:47:28.347458   822 net.cpp:451] conv3_1 <- pool2
I0406 07:47:28.347463   822 net.cpp:425] conv3_1 -> conv3_1
I0406 07:47:28.350642   822 net.cpp:160] Setting up conv3_1
I0406 07:47:28.350653   822 net.cpp:167] Top shape: 1 256 75 75 (1440000)
I0406 07:47:28.350659   822 net.cpp:175] Memory required for data: 161280004
I0406 07:47:28.350667   822 layer_factory.hpp:93] Creating layer relu3_1
I0406 07:47:28.350672   822 net.cpp:110] Creating Layer relu3_1
I0406 07:47:28.350677   822 net.cpp:451] relu3_1 <- conv3_1
I0406 07:47:28.350682   822 net.cpp:412] relu3_1 -> conv3_1 (in-place)
I0406 07:47:28.350687   822 net.cpp:160] Setting up relu3_1
I0406 07:47:28.350690   822 net.cpp:167] Top shape: 1 256 75 75 (1440000)
I0406 07:47:28.350694   822 net.cpp:175] Memory required for data: 167040004
I0406 07:47:28.350697   822 layer_factory.hpp:93] Creating layer conv3_2
I0406 07:47:28.350704   822 net.cpp:110] Creating Layer conv3_2
I0406 07:47:28.350708   822 net.cpp:451] conv3_2 <- conv3_1
I0406 07:47:28.350713   822 net.cpp:425] conv3_2 -> conv3_2
I0406 07:47:28.355513   822 net.cpp:160] Setting up conv3_2
I0406 07:47:28.355525   822 net.cpp:167] Top shape: 1 256 75 75 (1440000)
I0406 07:47:28.355531   822 net.cpp:175] Memory required for data: 172800004
I0406 07:47:28.355537   822 layer_factory.hpp:93] Creating layer relu3_2
I0406 07:47:28.355543   822 net.cpp:110] Creating Layer relu3_2
I0406 07:47:28.355546   822 net.cpp:451] relu3_2 <- conv3_2
I0406 07:47:28.355551   822 net.cpp:412] relu3_2 -> conv3_2 (in-place)
I0406 07:47:28.355557   822 net.cpp:160] Setting up relu3_2
I0406 07:47:28.355561   822 net.cpp:167] Top shape: 1 256 75 75 (1440000)
I0406 07:47:28.355564   822 net.cpp:175] Memory required for data: 178560004
I0406 07:47:28.355567   822 layer_factory.hpp:93] Creating layer conv3_3
I0406 07:47:28.355576   822 net.cpp:110] Creating Layer conv3_3
I0406 07:47:28.355578   822 net.cpp:451] conv3_3 <- conv3_2
I0406 07:47:28.355583   822 net.cpp:425] conv3_3 -> conv3_3
I0406 07:47:28.360414   822 net.cpp:160] Setting up conv3_3
I0406 07:47:28.360424   822 net.cpp:167] Top shape: 1 256 75 75 (1440000)
I0406 07:47:28.360431   822 net.cpp:175] Memory required for data: 184320004
I0406 07:47:28.360437   822 layer_factory.hpp:93] Creating layer relu3_3
I0406 07:47:28.360443   822 net.cpp:110] Creating Layer relu3_3
I0406 07:47:28.360446   822 net.cpp:451] relu3_3 <- conv3_3
I0406 07:47:28.360451   822 net.cpp:412] relu3_3 -> conv3_3 (in-place)
I0406 07:47:28.360458   822 net.cpp:160] Setting up relu3_3
I0406 07:47:28.360461   822 net.cpp:167] Top shape: 1 256 75 75 (1440000)
I0406 07:47:28.360467   822 net.cpp:175] Memory required for data: 190080004
I0406 07:47:28.360471   822 layer_factory.hpp:93] Creating layer pool3
I0406 07:47:28.360476   822 net.cpp:110] Creating Layer pool3
I0406 07:47:28.360478   822 net.cpp:451] pool3 <- conv3_3
I0406 07:47:28.360483   822 net.cpp:425] pool3 -> pool3
I0406 07:47:28.360513   822 net.cpp:160] Setting up pool3
I0406 07:47:28.360517   822 net.cpp:167] Top shape: 1 256 38 38 (369664)
I0406 07:47:28.360522   822 net.cpp:175] Memory required for data: 191558660
I0406 07:47:28.360525   822 layer_factory.hpp:93] Creating layer conv4_1
I0406 07:47:28.360532   822 net.cpp:110] Creating Layer conv4_1
I0406 07:47:28.360535   822 net.cpp:451] conv4_1 <- pool3
I0406 07:47:28.360540   822 net.cpp:425] conv4_1 -> conv4_1
I0406 07:47:28.369750   822 net.cpp:160] Setting up conv4_1
I0406 07:47:28.369763   822 net.cpp:167] Top shape: 1 512 38 38 (739328)
I0406 07:47:28.369771   822 net.cpp:175] Memory required for data: 194515972
I0406 07:47:28.369778   822 layer_factory.hpp:93] Creating layer relu4_1
I0406 07:47:28.369784   822 net.cpp:110] Creating Layer relu4_1
I0406 07:47:28.369788   822 net.cpp:451] relu4_1 <- conv4_1
I0406 07:47:28.369793   822 net.cpp:412] relu4_1 -> conv4_1 (in-place)
I0406 07:47:28.369801   822 net.cpp:160] Setting up relu4_1
I0406 07:47:28.369805   822 net.cpp:167] Top shape: 1 512 38 38 (739328)
I0406 07:47:28.369810   822 net.cpp:175] Memory required for data: 197473284
I0406 07:47:28.369813   822 layer_factory.hpp:93] Creating layer conv4_2
I0406 07:47:28.369820   822 net.cpp:110] Creating Layer conv4_2
I0406 07:47:28.369824   822 net.cpp:451] conv4_2 <- conv4_1
I0406 07:47:28.369828   822 net.cpp:425] conv4_2 -> conv4_2
I0406 07:47:28.387871   822 net.cpp:160] Setting up conv4_2
I0406 07:47:28.387887   822 net.cpp:167] Top shape: 1 512 38 38 (739328)
I0406 07:47:28.387897   822 net.cpp:175] Memory required for data: 200430596
I0406 07:47:28.387909   822 layer_factory.hpp:93] Creating layer relu4_2
I0406 07:47:28.387917   822 net.cpp:110] Creating Layer relu4_2
I0406 07:47:28.387923   822 net.cpp:451] relu4_2 <- conv4_2
I0406 07:47:28.387928   822 net.cpp:412] relu4_2 -> conv4_2 (in-place)
I0406 07:47:28.387939   822 net.cpp:160] Setting up relu4_2
I0406 07:47:28.387943   822 net.cpp:167] Top shape: 1 512 38 38 (739328)
I0406 07:47:28.387946   822 net.cpp:175] Memory required for data: 203387908
I0406 07:47:28.387949   822 layer_factory.hpp:93] Creating layer conv4_3
I0406 07:47:28.387959   822 net.cpp:110] Creating Layer conv4_3
I0406 07:47:28.387961   822 net.cpp:451] conv4_3 <- conv4_2
I0406 07:47:28.387966   822 net.cpp:425] conv4_3 -> conv4_3
I0406 07:47:28.406018   822 net.cpp:160] Setting up conv4_3
I0406 07:47:28.406035   822 net.cpp:167] Top shape: 1 512 38 38 (739328)
I0406 07:47:28.406044   822 net.cpp:175] Memory required for data: 206345220
I0406 07:47:28.406055   822 layer_factory.hpp:93] Creating layer conv4_3_bn
I0406 07:47:28.406069   822 net.cpp:110] Creating Layer conv4_3_bn
I0406 07:47:28.406074   822 net.cpp:451] conv4_3_bn <- conv4_3
I0406 07:47:28.406080   822 net.cpp:412] conv4_3_bn -> conv4_3 (in-place)
I0406 07:47:28.406584   822 net.cpp:160] Setting up conv4_3_bn
I0406 07:47:28.406594   822 net.cpp:167] Top shape: 1 512 38 38 (739328)
I0406 07:47:28.406599   822 net.cpp:175] Memory required for data: 209302532
I0406 07:47:28.406608   822 layer_factory.hpp:93] Creating layer relu4_3
I0406 07:47:28.406613   822 net.cpp:110] Creating Layer relu4_3
I0406 07:47:28.406617   822 net.cpp:451] relu4_3 <- conv4_3
I0406 07:47:28.406622   822 net.cpp:412] relu4_3 -> conv4_3 (in-place)
I0406 07:47:28.406628   822 net.cpp:160] Setting up relu4_3
I0406 07:47:28.406632   822 net.cpp:167] Top shape: 1 512 38 38 (739328)
I0406 07:47:28.406636   822 net.cpp:175] Memory required for data: 212259844
I0406 07:47:28.406639   822 layer_factory.hpp:93] Creating layer conv4_3_relu4_3_0_split
I0406 07:47:28.406644   822 net.cpp:110] Creating Layer conv4_3_relu4_3_0_split
I0406 07:47:28.406648   822 net.cpp:451] conv4_3_relu4_3_0_split <- conv4_3
I0406 07:47:28.406653   822 net.cpp:425] conv4_3_relu4_3_0_split -> conv4_3_relu4_3_0_split_0
I0406 07:47:28.406659   822 net.cpp:425] conv4_3_relu4_3_0_split -> conv4_3_relu4_3_0_split_1
I0406 07:47:28.406664   822 net.cpp:425] conv4_3_relu4_3_0_split -> conv4_3_relu4_3_0_split_2
I0406 07:47:28.406669   822 net.cpp:425] conv4_3_relu4_3_0_split -> conv4_3_relu4_3_0_split_3
I0406 07:47:28.406713   822 net.cpp:160] Setting up conv4_3_relu4_3_0_split
I0406 07:47:28.406718   822 net.cpp:167] Top shape: 1 512 38 38 (739328)
I0406 07:47:28.406723   822 net.cpp:167] Top shape: 1 512 38 38 (739328)
I0406 07:47:28.406726   822 net.cpp:167] Top shape: 1 512 38 38 (739328)
I0406 07:47:28.406730   822 net.cpp:167] Top shape: 1 512 38 38 (739328)
I0406 07:47:28.406734   822 net.cpp:175] Memory required for data: 224089092
I0406 07:47:28.406738   822 layer_factory.hpp:93] Creating layer pool4
I0406 07:47:28.406744   822 net.cpp:110] Creating Layer pool4
I0406 07:47:28.406747   822 net.cpp:451] pool4 <- conv4_3_relu4_3_0_split_0
I0406 07:47:28.406752   822 net.cpp:425] pool4 -> pool4
I0406 07:47:28.406790   822 net.cpp:160] Setting up pool4
I0406 07:47:28.406795   822 net.cpp:167] Top shape: 1 512 19 19 (184832)
I0406 07:47:28.406800   822 net.cpp:175] Memory required for data: 224828420
I0406 07:47:28.406802   822 layer_factory.hpp:93] Creating layer conv5_1
I0406 07:47:28.406810   822 net.cpp:110] Creating Layer conv5_1
I0406 07:47:28.406814   822 net.cpp:451] conv5_1 <- pool4
I0406 07:47:28.406819   822 net.cpp:425] conv5_1 -> conv5_1
I0406 07:47:28.424751   822 net.cpp:160] Setting up conv5_1
I0406 07:47:28.424768   822 net.cpp:167] Top shape: 1 512 19 19 (184832)
I0406 07:47:28.424777   822 net.cpp:175] Memory required for data: 225567748
I0406 07:47:28.424787   822 layer_factory.hpp:93] Creating layer relu5_1
I0406 07:47:28.424794   822 net.cpp:110] Creating Layer relu5_1
I0406 07:47:28.424800   822 net.cpp:451] relu5_1 <- conv5_1
I0406 07:47:28.424806   822 net.cpp:412] relu5_1 -> conv5_1 (in-place)
I0406 07:47:28.424815   822 net.cpp:160] Setting up relu5_1
I0406 07:47:28.424819   822 net.cpp:167] Top shape: 1 512 19 19 (184832)
I0406 07:47:28.424823   822 net.cpp:175] Memory required for data: 226307076
I0406 07:47:28.424826   822 layer_factory.hpp:93] Creating layer conv5_2
I0406 07:47:28.424835   822 net.cpp:110] Creating Layer conv5_2
I0406 07:47:28.424839   822 net.cpp:451] conv5_2 <- conv5_1
I0406 07:47:28.424844   822 net.cpp:425] conv5_2 -> conv5_2
I0406 07:47:28.442914   822 net.cpp:160] Setting up conv5_2
I0406 07:47:28.442932   822 net.cpp:167] Top shape: 1 512 19 19 (184832)
I0406 07:47:28.442941   822 net.cpp:175] Memory required for data: 227046404
I0406 07:47:28.442951   822 layer_factory.hpp:93] Creating layer relu5_2
I0406 07:47:28.442960   822 net.cpp:110] Creating Layer relu5_2
I0406 07:47:28.442965   822 net.cpp:451] relu5_2 <- conv5_2
I0406 07:47:28.442971   822 net.cpp:412] relu5_2 -> conv5_2 (in-place)
I0406 07:47:28.442983   822 net.cpp:160] Setting up relu5_2
I0406 07:47:28.442986   822 net.cpp:167] Top shape: 1 512 19 19 (184832)
I0406 07:47:28.442991   822 net.cpp:175] Memory required for data: 227785732
I0406 07:47:28.442993   822 layer_factory.hpp:93] Creating layer conv5_3
I0406 07:47:28.443004   822 net.cpp:110] Creating Layer conv5_3
I0406 07:47:28.443008   822 net.cpp:451] conv5_3 <- conv5_2
I0406 07:47:28.443013   822 net.cpp:425] conv5_3 -> conv5_3
I0406 07:47:28.461105   822 net.cpp:160] Setting up conv5_3
I0406 07:47:28.461127   822 net.cpp:167] Top shape: 1 512 19 19 (184832)
I0406 07:47:28.461135   822 net.cpp:175] Memory required for data: 228525060
I0406 07:47:28.461146   822 layer_factory.hpp:93] Creating layer relu5_3
I0406 07:47:28.461155   822 net.cpp:110] Creating Layer relu5_3
I0406 07:47:28.461161   822 net.cpp:451] relu5_3 <- conv5_3
I0406 07:47:28.461167   822 net.cpp:412] relu5_3 -> conv5_3 (in-place)
I0406 07:47:28.461177   822 net.cpp:160] Setting up relu5_3
I0406 07:47:28.461180   822 net.cpp:167] Top shape: 1 512 19 19 (184832)
I0406 07:47:28.461184   822 net.cpp:175] Memory required for data: 229264388
I0406 07:47:28.461187   822 layer_factory.hpp:93] Creating layer pool5
I0406 07:47:28.461194   822 net.cpp:110] Creating Layer pool5
I0406 07:47:28.461196   822 net.cpp:451] pool5 <- conv5_3
I0406 07:47:28.461201   822 net.cpp:425] pool5 -> pool5
I0406 07:47:28.461238   822 net.cpp:160] Setting up pool5
I0406 07:47:28.461241   822 net.cpp:167] Top shape: 1 512 19 19 (184832)
I0406 07:47:28.461246   822 net.cpp:175] Memory required for data: 230003716
I0406 07:47:28.461249   822 layer_factory.hpp:93] Creating layer fc6_682
I0406 07:47:28.461257   822 net.cpp:110] Creating Layer fc6_682
I0406 07:47:28.461261   822 net.cpp:451] fc6_682 <- pool5
I0406 07:47:28.461266   822 net.cpp:425] fc6_682 -> fc6_682
I0406 07:47:28.485746   822 net.cpp:160] Setting up fc6_682
I0406 07:47:28.485767   822 net.cpp:167] Top shape: 1 682 19 19 (246202)
I0406 07:47:28.485776   822 net.cpp:175] Memory required for data: 230988524
I0406 07:47:28.485791   822 layer_factory.hpp:93] Creating layer relu6
I0406 07:47:28.485800   822 net.cpp:110] Creating Layer relu6
I0406 07:47:28.485805   822 net.cpp:451] relu6 <- fc6_682
I0406 07:47:28.485814   822 net.cpp:412] relu6 -> fc6_682 (in-place)
I0406 07:47:28.485826   822 net.cpp:160] Setting up relu6
I0406 07:47:28.485829   822 net.cpp:167] Top shape: 1 682 19 19 (246202)
I0406 07:47:28.485834   822 net.cpp:175] Memory required for data: 231973332
I0406 07:47:28.485837   822 layer_factory.hpp:93] Creating layer fc7_682
I0406 07:47:28.485846   822 net.cpp:110] Creating Layer fc7_682
I0406 07:47:28.485849   822 net.cpp:451] fc7_682 <- fc6_682
I0406 07:47:28.485854   822 net.cpp:425] fc7_682 -> fc7_682
I0406 07:47:28.491479   822 net.cpp:160] Setting up fc7_682
I0406 07:47:28.491492   822 net.cpp:167] Top shape: 1 1024 19 19 (369664)
I0406 07:47:28.491499   822 net.cpp:175] Memory required for data: 233451988
I0406 07:47:28.491508   822 layer_factory.hpp:93] Creating layer relu7
I0406 07:47:28.491514   822 net.cpp:110] Creating Layer relu7
I0406 07:47:28.491518   822 net.cpp:451] relu7 <- fc7_682
I0406 07:47:28.491523   822 net.cpp:412] relu7 -> fc7_682 (in-place)
I0406 07:47:28.491529   822 net.cpp:160] Setting up relu7
I0406 07:47:28.491533   822 net.cpp:167] Top shape: 1 1024 19 19 (369664)
I0406 07:47:28.491537   822 net.cpp:175] Memory required for data: 234930644
I0406 07:47:28.491540   822 layer_factory.hpp:93] Creating layer fc7_682_relu7_0_split
I0406 07:47:28.491546   822 net.cpp:110] Creating Layer fc7_682_relu7_0_split
I0406 07:47:28.491549   822 net.cpp:451] fc7_682_relu7_0_split <- fc7_682
I0406 07:47:28.491554   822 net.cpp:425] fc7_682_relu7_0_split -> fc7_682_relu7_0_split_0
I0406 07:47:28.491559   822 net.cpp:425] fc7_682_relu7_0_split -> fc7_682_relu7_0_split_1
I0406 07:47:28.491564   822 net.cpp:425] fc7_682_relu7_0_split -> fc7_682_relu7_0_split_2
I0406 07:47:28.491569   822 net.cpp:425] fc7_682_relu7_0_split -> fc7_682_relu7_0_split_3
I0406 07:47:28.491617   822 net.cpp:160] Setting up fc7_682_relu7_0_split
I0406 07:47:28.491623   822 net.cpp:167] Top shape: 1 1024 19 19 (369664)
I0406 07:47:28.491629   822 net.cpp:167] Top shape: 1 1024 19 19 (369664)
I0406 07:47:28.491632   822 net.cpp:167] Top shape: 1 1024 19 19 (369664)
I0406 07:47:28.491636   822 net.cpp:167] Top shape: 1 1024 19 19 (369664)
I0406 07:47:28.491641   822 net.cpp:175] Memory required for data: 240845268
I0406 07:47:28.491643   822 layer_factory.hpp:93] Creating layer conv6_1
I0406 07:47:28.491652   822 net.cpp:110] Creating Layer conv6_1
I0406 07:47:28.491655   822 net.cpp:451] conv6_1 <- fc7_682_relu7_0_split_0
I0406 07:47:28.491662   822 net.cpp:425] conv6_1 -> conv6_1
I0406 07:47:28.493947   822 net.cpp:160] Setting up conv6_1
I0406 07:47:28.493960   822 net.cpp:167] Top shape: 1 256 19 19 (92416)
I0406 07:47:28.493966   822 net.cpp:175] Memory required for data: 241214932
I0406 07:47:28.493973   822 layer_factory.hpp:93] Creating layer conv6_1_relu
I0406 07:47:28.493979   822 net.cpp:110] Creating Layer conv6_1_relu
I0406 07:47:28.493983   822 net.cpp:451] conv6_1_relu <- conv6_1
I0406 07:47:28.493988   822 net.cpp:412] conv6_1_relu -> conv6_1 (in-place)
I0406 07:47:28.493994   822 net.cpp:160] Setting up conv6_1_relu
I0406 07:47:28.493997   822 net.cpp:167] Top shape: 1 256 19 19 (92416)
I0406 07:47:28.494002   822 net.cpp:175] Memory required for data: 241584596
I0406 07:47:28.494005   822 layer_factory.hpp:93] Creating layer conv6_2
I0406 07:47:28.494011   822 net.cpp:110] Creating Layer conv6_2
I0406 07:47:28.494015   822 net.cpp:451] conv6_2 <- conv6_1
I0406 07:47:28.494019   822 net.cpp:425] conv6_2 -> conv6_2
I0406 07:47:28.503276   822 net.cpp:160] Setting up conv6_2
I0406 07:47:28.503294   822 net.cpp:167] Top shape: 1 512 10 10 (51200)
I0406 07:47:28.503302   822 net.cpp:175] Memory required for data: 241789396
I0406 07:47:28.503312   822 layer_factory.hpp:93] Creating layer conv6_2_relu
I0406 07:47:28.503320   822 net.cpp:110] Creating Layer conv6_2_relu
I0406 07:47:28.503325   822 net.cpp:451] conv6_2_relu <- conv6_2
I0406 07:47:28.503331   822 net.cpp:412] conv6_2_relu -> conv6_2 (in-place)
I0406 07:47:28.503341   822 net.cpp:160] Setting up conv6_2_relu
I0406 07:47:28.503345   822 net.cpp:167] Top shape: 1 512 10 10 (51200)
I0406 07:47:28.503348   822 net.cpp:175] Memory required for data: 241994196
I0406 07:47:28.503352   822 layer_factory.hpp:93] Creating layer conv6_2_conv6_2_relu_0_split
I0406 07:47:28.503358   822 net.cpp:110] Creating Layer conv6_2_conv6_2_relu_0_split
I0406 07:47:28.503361   822 net.cpp:451] conv6_2_conv6_2_relu_0_split <- conv6_2
I0406 07:47:28.503366   822 net.cpp:425] conv6_2_conv6_2_relu_0_split -> conv6_2_conv6_2_relu_0_split_0
I0406 07:47:28.503372   822 net.cpp:425] conv6_2_conv6_2_relu_0_split -> conv6_2_conv6_2_relu_0_split_1
I0406 07:47:28.503377   822 net.cpp:425] conv6_2_conv6_2_relu_0_split -> conv6_2_conv6_2_relu_0_split_2
I0406 07:47:28.503382   822 net.cpp:425] conv6_2_conv6_2_relu_0_split -> conv6_2_conv6_2_relu_0_split_3
I0406 07:47:28.503433   822 net.cpp:160] Setting up conv6_2_conv6_2_relu_0_split
I0406 07:47:28.503439   822 net.cpp:167] Top shape: 1 512 10 10 (51200)
I0406 07:47:28.503444   822 net.cpp:167] Top shape: 1 512 10 10 (51200)
I0406 07:47:28.503448   822 net.cpp:167] Top shape: 1 512 10 10 (51200)
I0406 07:47:28.503451   822 net.cpp:167] Top shape: 1 512 10 10 (51200)
I0406 07:47:28.503455   822 net.cpp:175] Memory required for data: 242813396
I0406 07:47:28.503459   822 layer_factory.hpp:93] Creating layer conv7_1
I0406 07:47:28.503469   822 net.cpp:110] Creating Layer conv7_1
I0406 07:47:28.503473   822 net.cpp:451] conv7_1 <- conv6_2_conv6_2_relu_0_split_0
I0406 07:47:28.503479   822 net.cpp:425] conv7_1 -> conv7_1
I0406 07:47:28.504050   822 net.cpp:160] Setting up conv7_1
I0406 07:47:28.504056   822 net.cpp:167] Top shape: 1 128 10 10 (12800)
I0406 07:47:28.504061   822 net.cpp:175] Memory required for data: 242864596
I0406 07:47:28.504066   822 layer_factory.hpp:93] Creating layer conv7_1_relu
I0406 07:47:28.504071   822 net.cpp:110] Creating Layer conv7_1_relu
I0406 07:47:28.504074   822 net.cpp:451] conv7_1_relu <- conv7_1
I0406 07:47:28.504079   822 net.cpp:412] conv7_1_relu -> conv7_1 (in-place)
I0406 07:47:28.504084   822 net.cpp:160] Setting up conv7_1_relu
I0406 07:47:28.504087   822 net.cpp:167] Top shape: 1 128 10 10 (12800)
I0406 07:47:28.504091   822 net.cpp:175] Memory required for data: 242915796
I0406 07:47:28.504096   822 layer_factory.hpp:93] Creating layer conv7_2
I0406 07:47:28.504101   822 net.cpp:110] Creating Layer conv7_2
I0406 07:47:28.504104   822 net.cpp:451] conv7_2 <- conv7_1
I0406 07:47:28.504109   822 net.cpp:425] conv7_2 -> conv7_2
I0406 07:47:28.507191   822 net.cpp:160] Setting up conv7_2
I0406 07:47:28.507202   822 net.cpp:167] Top shape: 1 256 5 5 (6400)
I0406 07:47:28.507208   822 net.cpp:175] Memory required for data: 242941396
I0406 07:47:28.507215   822 layer_factory.hpp:93] Creating layer conv7_2_relu
I0406 07:47:28.507220   822 net.cpp:110] Creating Layer conv7_2_relu
I0406 07:47:28.507223   822 net.cpp:451] conv7_2_relu <- conv7_2
I0406 07:47:28.507228   822 net.cpp:412] conv7_2_relu -> conv7_2 (in-place)
I0406 07:47:28.507234   822 net.cpp:160] Setting up conv7_2_relu
I0406 07:47:28.507237   822 net.cpp:167] Top shape: 1 256 5 5 (6400)
I0406 07:47:28.507242   822 net.cpp:175] Memory required for data: 242966996
I0406 07:47:28.507246   822 layer_factory.hpp:93] Creating layer conv7_2_conv7_2_relu_0_split
I0406 07:47:28.507251   822 net.cpp:110] Creating Layer conv7_2_conv7_2_relu_0_split
I0406 07:47:28.507253   822 net.cpp:451] conv7_2_conv7_2_relu_0_split <- conv7_2
I0406 07:47:28.507257   822 net.cpp:425] conv7_2_conv7_2_relu_0_split -> conv7_2_conv7_2_relu_0_split_0
I0406 07:47:28.507263   822 net.cpp:425] conv7_2_conv7_2_relu_0_split -> conv7_2_conv7_2_relu_0_split_1
I0406 07:47:28.507268   822 net.cpp:425] conv7_2_conv7_2_relu_0_split -> conv7_2_conv7_2_relu_0_split_2
I0406 07:47:28.507273   822 net.cpp:425] conv7_2_conv7_2_relu_0_split -> conv7_2_conv7_2_relu_0_split_3
I0406 07:47:28.507319   822 net.cpp:160] Setting up conv7_2_conv7_2_relu_0_split
I0406 07:47:28.507324   822 net.cpp:167] Top shape: 1 256 5 5 (6400)
I0406 07:47:28.507329   822 net.cpp:167] Top shape: 1 256 5 5 (6400)
I0406 07:47:28.507333   822 net.cpp:167] Top shape: 1 256 5 5 (6400)
I0406 07:47:28.507336   822 net.cpp:167] Top shape: 1 256 5 5 (6400)
I0406 07:47:28.507340   822 net.cpp:175] Memory required for data: 243069396
I0406 07:47:28.507344   822 layer_factory.hpp:93] Creating layer conv8_1
I0406 07:47:28.507351   822 net.cpp:110] Creating Layer conv8_1
I0406 07:47:28.507355   822 net.cpp:451] conv8_1 <- conv7_2_conv7_2_relu_0_split_0
I0406 07:47:28.507360   822 net.cpp:425] conv8_1 -> conv8_1
I0406 07:47:28.507745   822 net.cpp:160] Setting up conv8_1
I0406 07:47:28.507757   822 net.cpp:167] Top shape: 1 128 5 5 (3200)
I0406 07:47:28.507762   822 net.cpp:175] Memory required for data: 243082196
I0406 07:47:28.507767   822 layer_factory.hpp:93] Creating layer conv8_1_relu
I0406 07:47:28.507771   822 net.cpp:110] Creating Layer conv8_1_relu
I0406 07:47:28.507776   822 net.cpp:451] conv8_1_relu <- conv8_1
I0406 07:47:28.507779   822 net.cpp:412] conv8_1_relu -> conv8_1 (in-place)
I0406 07:47:28.507784   822 net.cpp:160] Setting up conv8_1_relu
I0406 07:47:28.507787   822 net.cpp:167] Top shape: 1 128 5 5 (3200)
I0406 07:47:28.507791   822 net.cpp:175] Memory required for data: 243094996
I0406 07:47:28.507795   822 layer_factory.hpp:93] Creating layer conv8_2
I0406 07:47:28.507802   822 net.cpp:110] Creating Layer conv8_2
I0406 07:47:28.507804   822 net.cpp:451] conv8_2 <- conv8_1
I0406 07:47:28.507809   822 net.cpp:425] conv8_2 -> conv8_2
I0406 07:47:28.510852   822 net.cpp:160] Setting up conv8_2
I0406 07:47:28.510864   822 net.cpp:167] Top shape: 1 256 3 3 (2304)
I0406 07:47:28.510869   822 net.cpp:175] Memory required for data: 243104212
I0406 07:47:28.510875   822 layer_factory.hpp:93] Creating layer conv8_2_relu
I0406 07:47:28.510880   822 net.cpp:110] Creating Layer conv8_2_relu
I0406 07:47:28.510885   822 net.cpp:451] conv8_2_relu <- conv8_2
I0406 07:47:28.510890   822 net.cpp:412] conv8_2_relu -> conv8_2 (in-place)
I0406 07:47:28.510895   822 net.cpp:160] Setting up conv8_2_relu
I0406 07:47:28.510898   822 net.cpp:167] Top shape: 1 256 3 3 (2304)
I0406 07:47:28.510902   822 net.cpp:175] Memory required for data: 243113428
I0406 07:47:28.510905   822 layer_factory.hpp:93] Creating layer conv8_2_conv8_2_relu_0_split
I0406 07:47:28.510910   822 net.cpp:110] Creating Layer conv8_2_conv8_2_relu_0_split
I0406 07:47:28.510913   822 net.cpp:451] conv8_2_conv8_2_relu_0_split <- conv8_2
I0406 07:47:28.510918   822 net.cpp:425] conv8_2_conv8_2_relu_0_split -> conv8_2_conv8_2_relu_0_split_0
I0406 07:47:28.510923   822 net.cpp:425] conv8_2_conv8_2_relu_0_split -> conv8_2_conv8_2_relu_0_split_1
I0406 07:47:28.510928   822 net.cpp:425] conv8_2_conv8_2_relu_0_split -> conv8_2_conv8_2_relu_0_split_2
I0406 07:47:28.510933   822 net.cpp:425] conv8_2_conv8_2_relu_0_split -> conv8_2_conv8_2_relu_0_split_3
I0406 07:47:28.510982   822 net.cpp:160] Setting up conv8_2_conv8_2_relu_0_split
I0406 07:47:28.510987   822 net.cpp:167] Top shape: 1 256 3 3 (2304)
I0406 07:47:28.510993   822 net.cpp:167] Top shape: 1 256 3 3 (2304)
I0406 07:47:28.510996   822 net.cpp:167] Top shape: 1 256 3 3 (2304)
I0406 07:47:28.510999   822 net.cpp:167] Top shape: 1 256 3 3 (2304)
I0406 07:47:28.511003   822 net.cpp:175] Memory required for data: 243150292
I0406 07:47:28.511006   822 layer_factory.hpp:93] Creating layer conv9_1
I0406 07:47:28.511014   822 net.cpp:110] Creating Layer conv9_1
I0406 07:47:28.511018   822 net.cpp:451] conv9_1 <- conv8_2_conv8_2_relu_0_split_0
I0406 07:47:28.511023   822 net.cpp:425] conv9_1 -> conv9_1
I0406 07:47:28.511406   822 net.cpp:160] Setting up conv9_1
I0406 07:47:28.511413   822 net.cpp:167] Top shape: 1 128 3 3 (1152)
I0406 07:47:28.511417   822 net.cpp:175] Memory required for data: 243154900
I0406 07:47:28.511423   822 layer_factory.hpp:93] Creating layer conv9_1_relu
I0406 07:47:28.511428   822 net.cpp:110] Creating Layer conv9_1_relu
I0406 07:47:28.511432   822 net.cpp:451] conv9_1_relu <- conv9_1
I0406 07:47:28.511436   822 net.cpp:412] conv9_1_relu -> conv9_1 (in-place)
I0406 07:47:28.511441   822 net.cpp:160] Setting up conv9_1_relu
I0406 07:47:28.511445   822 net.cpp:167] Top shape: 1 128 3 3 (1152)
I0406 07:47:28.511448   822 net.cpp:175] Memory required for data: 243159508
I0406 07:47:28.511453   822 layer_factory.hpp:93] Creating layer conv9_2
I0406 07:47:28.511459   822 net.cpp:110] Creating Layer conv9_2
I0406 07:47:28.511463   822 net.cpp:451] conv9_2 <- conv9_1
I0406 07:47:28.511467   822 net.cpp:425] conv9_2 -> conv9_2
I0406 07:47:28.514523   822 net.cpp:160] Setting up conv9_2
I0406 07:47:28.514534   822 net.cpp:167] Top shape: 1 256 1 1 (256)
I0406 07:47:28.514539   822 net.cpp:175] Memory required for data: 243160532
I0406 07:47:28.514545   822 layer_factory.hpp:93] Creating layer conv9_2_relu
I0406 07:47:28.514551   822 net.cpp:110] Creating Layer conv9_2_relu
I0406 07:47:28.514555   822 net.cpp:451] conv9_2_relu <- conv9_2
I0406 07:47:28.514560   822 net.cpp:412] conv9_2_relu -> conv9_2 (in-place)
I0406 07:47:28.514566   822 net.cpp:160] Setting up conv9_2_relu
I0406 07:47:28.514569   822 net.cpp:167] Top shape: 1 256 1 1 (256)
I0406 07:47:28.514573   822 net.cpp:175] Memory required for data: 243161556
I0406 07:47:28.514576   822 layer_factory.hpp:93] Creating layer conv9_2_conv9_2_relu_0_split
I0406 07:47:28.514581   822 net.cpp:110] Creating Layer conv9_2_conv9_2_relu_0_split
I0406 07:47:28.514585   822 net.cpp:451] conv9_2_conv9_2_relu_0_split <- conv9_2
I0406 07:47:28.514590   822 net.cpp:425] conv9_2_conv9_2_relu_0_split -> conv9_2_conv9_2_relu_0_split_0
I0406 07:47:28.514595   822 net.cpp:425] conv9_2_conv9_2_relu_0_split -> conv9_2_conv9_2_relu_0_split_1
I0406 07:47:28.514600   822 net.cpp:425] conv9_2_conv9_2_relu_0_split -> conv9_2_conv9_2_relu_0_split_2
I0406 07:47:28.514638   822 net.cpp:160] Setting up conv9_2_conv9_2_relu_0_split
I0406 07:47:28.514644   822 net.cpp:167] Top shape: 1 256 1 1 (256)
I0406 07:47:28.514648   822 net.cpp:167] Top shape: 1 256 1 1 (256)
I0406 07:47:28.514652   822 net.cpp:167] Top shape: 1 256 1 1 (256)
I0406 07:47:28.514655   822 net.cpp:175] Memory required for data: 243164628
I0406 07:47:28.514658   822 layer_factory.hpp:93] Creating layer conv4_3_norm_mbox_loc
I0406 07:47:28.514667   822 net.cpp:110] Creating Layer conv4_3_norm_mbox_loc
I0406 07:47:28.514670   822 net.cpp:451] conv4_3_norm_mbox_loc <- conv4_3_relu4_3_0_split_1
I0406 07:47:28.514676   822 net.cpp:425] conv4_3_norm_mbox_loc -> conv4_3_norm_mbox_loc
I0406 07:47:28.515307   822 net.cpp:160] Setting up conv4_3_norm_mbox_loc
I0406 07:47:28.515313   822 net.cpp:167] Top shape: 1 16 38 38 (23104)
I0406 07:47:28.515318   822 net.cpp:175] Memory required for data: 243257044
I0406 07:47:28.515324   822 layer_factory.hpp:93] Creating layer conv4_3_norm_mbox_loc_perm
I0406 07:47:28.515331   822 net.cpp:110] Creating Layer conv4_3_norm_mbox_loc_perm
I0406 07:47:28.515334   822 net.cpp:451] conv4_3_norm_mbox_loc_perm <- conv4_3_norm_mbox_loc
I0406 07:47:28.515339   822 net.cpp:425] conv4_3_norm_mbox_loc_perm -> conv4_3_norm_mbox_loc_perm
I0406 07:47:28.515415   822 net.cpp:160] Setting up conv4_3_norm_mbox_loc_perm
I0406 07:47:28.515421   822 net.cpp:167] Top shape: 1 38 38 16 (23104)
I0406 07:47:28.515425   822 net.cpp:175] Memory required for data: 243349460
I0406 07:47:28.515429   822 layer_factory.hpp:93] Creating layer conv4_3_norm_mbox_loc_flat
I0406 07:47:28.515439   822 net.cpp:110] Creating Layer conv4_3_norm_mbox_loc_flat
I0406 07:47:28.515444   822 net.cpp:451] conv4_3_norm_mbox_loc_flat <- conv4_3_norm_mbox_loc_perm
I0406 07:47:28.515447   822 net.cpp:425] conv4_3_norm_mbox_loc_flat -> conv4_3_norm_mbox_loc_flat
I0406 07:47:28.515468   822 net.cpp:160] Setting up conv4_3_norm_mbox_loc_flat
I0406 07:47:28.515473   822 net.cpp:167] Top shape: 1 23104 (23104)
I0406 07:47:28.515477   822 net.cpp:175] Memory required for data: 243441876
I0406 07:47:28.515480   822 layer_factory.hpp:93] Creating layer conv4_3_norm_mbox_conf
I0406 07:47:28.515488   822 net.cpp:110] Creating Layer conv4_3_norm_mbox_conf
I0406 07:47:28.515491   822 net.cpp:451] conv4_3_norm_mbox_conf <- conv4_3_relu4_3_0_split_2
I0406 07:47:28.515497   822 net.cpp:425] conv4_3_norm_mbox_conf -> conv4_3_norm_mbox_conf
I0406 07:47:28.519058   822 net.cpp:160] Setting up conv4_3_norm_mbox_conf
I0406 07:47:28.519069   822 net.cpp:167] Top shape: 1 84 38 38 (121296)
I0406 07:47:28.519075   822 net.cpp:175] Memory required for data: 243927060
I0406 07:47:28.519081   822 layer_factory.hpp:93] Creating layer conv4_3_norm_mbox_conf_perm
I0406 07:47:28.519090   822 net.cpp:110] Creating Layer conv4_3_norm_mbox_conf_perm
I0406 07:47:28.519094   822 net.cpp:451] conv4_3_norm_mbox_conf_perm <- conv4_3_norm_mbox_conf
I0406 07:47:28.519099   822 net.cpp:425] conv4_3_norm_mbox_conf_perm -> conv4_3_norm_mbox_conf_perm
I0406 07:47:28.519178   822 net.cpp:160] Setting up conv4_3_norm_mbox_conf_perm
I0406 07:47:28.519184   822 net.cpp:167] Top shape: 1 38 38 84 (121296)
I0406 07:47:28.519189   822 net.cpp:175] Memory required for data: 244412244
I0406 07:47:28.519192   822 layer_factory.hpp:93] Creating layer conv4_3_norm_mbox_conf_flat
I0406 07:47:28.519197   822 net.cpp:110] Creating Layer conv4_3_norm_mbox_conf_flat
I0406 07:47:28.519201   822 net.cpp:451] conv4_3_norm_mbox_conf_flat <- conv4_3_norm_mbox_conf_perm
I0406 07:47:28.519206   822 net.cpp:425] conv4_3_norm_mbox_conf_flat -> conv4_3_norm_mbox_conf_flat
I0406 07:47:28.519222   822 net.cpp:160] Setting up conv4_3_norm_mbox_conf_flat
I0406 07:47:28.519227   822 net.cpp:167] Top shape: 1 121296 (121296)
I0406 07:47:28.519230   822 net.cpp:175] Memory required for data: 244897428
I0406 07:47:28.519233   822 layer_factory.hpp:93] Creating layer conv4_3_norm_mbox_priorbox
I0406 07:47:28.519239   822 net.cpp:110] Creating Layer conv4_3_norm_mbox_priorbox
I0406 07:47:28.519243   822 net.cpp:451] conv4_3_norm_mbox_priorbox <- conv4_3_relu4_3_0_split_3
I0406 07:47:28.519248   822 net.cpp:451] conv4_3_norm_mbox_priorbox <- data_data_0_split_1
I0406 07:47:28.519253   822 net.cpp:425] conv4_3_norm_mbox_priorbox -> conv4_3_norm_mbox_priorbox
I0406 07:47:28.519273   822 net.cpp:160] Setting up conv4_3_norm_mbox_priorbox
I0406 07:47:28.519277   822 net.cpp:167] Top shape: 1 2 23104 (46208)
I0406 07:47:28.519282   822 net.cpp:175] Memory required for data: 245082260
I0406 07:47:28.519285   822 layer_factory.hpp:93] Creating layer fc7_mbox_loc
I0406 07:47:28.519294   822 net.cpp:110] Creating Layer fc7_mbox_loc
I0406 07:47:28.519297   822 net.cpp:451] fc7_mbox_loc <- fc7_682_relu7_0_split_1
I0406 07:47:28.519304   822 net.cpp:425] fc7_mbox_loc -> fc7_mbox_loc
I0406 07:47:28.520759   822 net.cpp:160] Setting up fc7_mbox_loc
I0406 07:47:28.520768   822 net.cpp:167] Top shape: 1 24 19 19 (8664)
I0406 07:47:28.520773   822 net.cpp:175] Memory required for data: 245116916
I0406 07:47:28.520779   822 layer_factory.hpp:93] Creating layer fc7_mbox_loc_perm
I0406 07:47:28.520786   822 net.cpp:110] Creating Layer fc7_mbox_loc_perm
I0406 07:47:28.520788   822 net.cpp:451] fc7_mbox_loc_perm <- fc7_mbox_loc
I0406 07:47:28.520793   822 net.cpp:425] fc7_mbox_loc_perm -> fc7_mbox_loc_perm
I0406 07:47:28.520874   822 net.cpp:160] Setting up fc7_mbox_loc_perm
I0406 07:47:28.520879   822 net.cpp:167] Top shape: 1 19 19 24 (8664)
I0406 07:47:28.520884   822 net.cpp:175] Memory required for data: 245151572
I0406 07:47:28.520887   822 layer_factory.hpp:93] Creating layer fc7_mbox_loc_flat
I0406 07:47:28.520891   822 net.cpp:110] Creating Layer fc7_mbox_loc_flat
I0406 07:47:28.520895   822 net.cpp:451] fc7_mbox_loc_flat <- fc7_mbox_loc_perm
I0406 07:47:28.520900   822 net.cpp:425] fc7_mbox_loc_flat -> fc7_mbox_loc_flat
I0406 07:47:28.520917   822 net.cpp:160] Setting up fc7_mbox_loc_flat
I0406 07:47:28.520921   822 net.cpp:167] Top shape: 1 8664 (8664)
I0406 07:47:28.520925   822 net.cpp:175] Memory required for data: 245186228
I0406 07:47:28.520928   822 layer_factory.hpp:93] Creating layer fc7_mbox_conf
I0406 07:47:28.520936   822 net.cpp:110] Creating Layer fc7_mbox_conf
I0406 07:47:28.520938   822 net.cpp:451] fc7_mbox_conf <- fc7_682_relu7_0_split_2
I0406 07:47:28.520943   822 net.cpp:425] fc7_mbox_conf -> fc7_mbox_conf
I0406 07:47:28.530000   822 net.cpp:160] Setting up fc7_mbox_conf
I0406 07:47:28.530015   822 net.cpp:167] Top shape: 1 126 19 19 (45486)
I0406 07:47:28.530022   822 net.cpp:175] Memory required for data: 245368172
I0406 07:47:28.530030   822 layer_factory.hpp:93] Creating layer fc7_mbox_conf_perm
I0406 07:47:28.530038   822 net.cpp:110] Creating Layer fc7_mbox_conf_perm
I0406 07:47:28.530043   822 net.cpp:451] fc7_mbox_conf_perm <- fc7_mbox_conf
I0406 07:47:28.530048   822 net.cpp:425] fc7_mbox_conf_perm -> fc7_mbox_conf_perm
I0406 07:47:28.530133   822 net.cpp:160] Setting up fc7_mbox_conf_perm
I0406 07:47:28.530139   822 net.cpp:167] Top shape: 1 19 19 126 (45486)
I0406 07:47:28.530144   822 net.cpp:175] Memory required for data: 245550116
I0406 07:47:28.530148   822 layer_factory.hpp:93] Creating layer fc7_mbox_conf_flat
I0406 07:47:28.530153   822 net.cpp:110] Creating Layer fc7_mbox_conf_flat
I0406 07:47:28.530156   822 net.cpp:451] fc7_mbox_conf_flat <- fc7_mbox_conf_perm
I0406 07:47:28.530161   822 net.cpp:425] fc7_mbox_conf_flat -> fc7_mbox_conf_flat
I0406 07:47:28.530179   822 net.cpp:160] Setting up fc7_mbox_conf_flat
I0406 07:47:28.530184   822 net.cpp:167] Top shape: 1 45486 (45486)
I0406 07:47:28.530189   822 net.cpp:175] Memory required for data: 245732060
I0406 07:47:28.530191   822 layer_factory.hpp:93] Creating layer fc7_mbox_priorbox
I0406 07:47:28.530197   822 net.cpp:110] Creating Layer fc7_mbox_priorbox
I0406 07:47:28.530201   822 net.cpp:451] fc7_mbox_priorbox <- fc7_682_relu7_0_split_3
I0406 07:47:28.530205   822 net.cpp:451] fc7_mbox_priorbox <- data_data_0_split_2
I0406 07:47:28.530210   822 net.cpp:425] fc7_mbox_priorbox -> fc7_mbox_priorbox
I0406 07:47:28.530230   822 net.cpp:160] Setting up fc7_mbox_priorbox
I0406 07:47:28.530234   822 net.cpp:167] Top shape: 1 2 8664 (17328)
I0406 07:47:28.530238   822 net.cpp:175] Memory required for data: 245801372
I0406 07:47:28.530241   822 layer_factory.hpp:93] Creating layer conv6_2_mbox_loc
I0406 07:47:28.530249   822 net.cpp:110] Creating Layer conv6_2_mbox_loc
I0406 07:47:28.530253   822 net.cpp:451] conv6_2_mbox_loc <- conv6_2_conv6_2_relu_0_split_1
I0406 07:47:28.530259   822 net.cpp:425] conv6_2_mbox_loc -> conv6_2_mbox_loc
I0406 07:47:28.531128   822 net.cpp:160] Setting up conv6_2_mbox_loc
I0406 07:47:28.531137   822 net.cpp:167] Top shape: 1 24 10 10 (2400)
I0406 07:47:28.531142   822 net.cpp:175] Memory required for data: 245810972
I0406 07:47:28.531148   822 layer_factory.hpp:93] Creating layer conv6_2_mbox_loc_perm
I0406 07:47:28.531155   822 net.cpp:110] Creating Layer conv6_2_mbox_loc_perm
I0406 07:47:28.531159   822 net.cpp:451] conv6_2_mbox_loc_perm <- conv6_2_mbox_loc
I0406 07:47:28.531164   822 net.cpp:425] conv6_2_mbox_loc_perm -> conv6_2_mbox_loc_perm
I0406 07:47:28.531244   822 net.cpp:160] Setting up conv6_2_mbox_loc_perm
I0406 07:47:28.531251   822 net.cpp:167] Top shape: 1 10 10 24 (2400)
I0406 07:47:28.531255   822 net.cpp:175] Memory required for data: 245820572
I0406 07:47:28.531258   822 layer_factory.hpp:93] Creating layer conv6_2_mbox_loc_flat
I0406 07:47:28.531263   822 net.cpp:110] Creating Layer conv6_2_mbox_loc_flat
I0406 07:47:28.531267   822 net.cpp:451] conv6_2_mbox_loc_flat <- conv6_2_mbox_loc_perm
I0406 07:47:28.531271   822 net.cpp:425] conv6_2_mbox_loc_flat -> conv6_2_mbox_loc_flat
I0406 07:47:28.531289   822 net.cpp:160] Setting up conv6_2_mbox_loc_flat
I0406 07:47:28.531292   822 net.cpp:167] Top shape: 1 2400 (2400)
I0406 07:47:28.531296   822 net.cpp:175] Memory required for data: 245830172
I0406 07:47:28.531299   822 layer_factory.hpp:93] Creating layer conv6_2_mbox_conf
I0406 07:47:28.531307   822 net.cpp:110] Creating Layer conv6_2_mbox_conf
I0406 07:47:28.531311   822 net.cpp:451] conv6_2_mbox_conf <- conv6_2_conv6_2_relu_0_split_2
I0406 07:47:28.531316   822 net.cpp:425] conv6_2_mbox_conf -> conv6_2_mbox_conf
I0406 07:47:28.536072   822 net.cpp:160] Setting up conv6_2_mbox_conf
I0406 07:47:28.536087   822 net.cpp:167] Top shape: 1 126 10 10 (12600)
I0406 07:47:28.536095   822 net.cpp:175] Memory required for data: 245880572
I0406 07:47:28.536103   822 layer_factory.hpp:93] Creating layer conv6_2_mbox_conf_perm
I0406 07:47:28.536113   822 net.cpp:110] Creating Layer conv6_2_mbox_conf_perm
I0406 07:47:28.536118   822 net.cpp:451] conv6_2_mbox_conf_perm <- conv6_2_mbox_conf
I0406 07:47:28.536124   822 net.cpp:425] conv6_2_mbox_conf_perm -> conv6_2_mbox_conf_perm
I0406 07:47:28.536216   822 net.cpp:160] Setting up conv6_2_mbox_conf_perm
I0406 07:47:28.536222   822 net.cpp:167] Top shape: 1 10 10 126 (12600)
I0406 07:47:28.536228   822 net.cpp:175] Memory required for data: 245930972
I0406 07:47:28.536231   822 layer_factory.hpp:93] Creating layer conv6_2_mbox_conf_flat
I0406 07:47:28.536237   822 net.cpp:110] Creating Layer conv6_2_mbox_conf_flat
I0406 07:47:28.536240   822 net.cpp:451] conv6_2_mbox_conf_flat <- conv6_2_mbox_conf_perm
I0406 07:47:28.536245   822 net.cpp:425] conv6_2_mbox_conf_flat -> conv6_2_mbox_conf_flat
I0406 07:47:28.536264   822 net.cpp:160] Setting up conv6_2_mbox_conf_flat
I0406 07:47:28.536267   822 net.cpp:167] Top shape: 1 12600 (12600)
I0406 07:47:28.536271   822 net.cpp:175] Memory required for data: 245981372
I0406 07:47:28.536275   822 layer_factory.hpp:93] Creating layer conv6_2_mbox_priorbox
I0406 07:47:28.536281   822 net.cpp:110] Creating Layer conv6_2_mbox_priorbox
I0406 07:47:28.536285   822 net.cpp:451] conv6_2_mbox_priorbox <- conv6_2_conv6_2_relu_0_split_3
I0406 07:47:28.536290   822 net.cpp:451] conv6_2_mbox_priorbox <- data_data_0_split_3
I0406 07:47:28.536295   822 net.cpp:425] conv6_2_mbox_priorbox -> conv6_2_mbox_priorbox
I0406 07:47:28.536316   822 net.cpp:160] Setting up conv6_2_mbox_priorbox
I0406 07:47:28.536320   822 net.cpp:167] Top shape: 1 2 2400 (4800)
I0406 07:47:28.536324   822 net.cpp:175] Memory required for data: 246000572
I0406 07:47:28.536327   822 layer_factory.hpp:93] Creating layer conv7_2_mbox_loc
I0406 07:47:28.536335   822 net.cpp:110] Creating Layer conv7_2_mbox_loc
I0406 07:47:28.536339   822 net.cpp:451] conv7_2_mbox_loc <- conv7_2_conv7_2_relu_0_split_1
I0406 07:47:28.536345   822 net.cpp:425] conv7_2_mbox_loc -> conv7_2_mbox_loc
I0406 07:47:28.536887   822 net.cpp:160] Setting up conv7_2_mbox_loc
I0406 07:47:28.536895   822 net.cpp:167] Top shape: 1 24 5 5 (600)
I0406 07:47:28.536900   822 net.cpp:175] Memory required for data: 246002972
I0406 07:47:28.536909   822 layer_factory.hpp:93] Creating layer conv7_2_mbox_loc_perm
I0406 07:47:28.536914   822 net.cpp:110] Creating Layer conv7_2_mbox_loc_perm
I0406 07:47:28.536918   822 net.cpp:451] conv7_2_mbox_loc_perm <- conv7_2_mbox_loc
I0406 07:47:28.536923   822 net.cpp:425] conv7_2_mbox_loc_perm -> conv7_2_mbox_loc_perm
I0406 07:47:28.536998   822 net.cpp:160] Setting up conv7_2_mbox_loc_perm
I0406 07:47:28.537004   822 net.cpp:167] Top shape: 1 5 5 24 (600)
I0406 07:47:28.537009   822 net.cpp:175] Memory required for data: 246005372
I0406 07:47:28.537012   822 layer_factory.hpp:93] Creating layer conv7_2_mbox_loc_flat
I0406 07:47:28.537017   822 net.cpp:110] Creating Layer conv7_2_mbox_loc_flat
I0406 07:47:28.537020   822 net.cpp:451] conv7_2_mbox_loc_flat <- conv7_2_mbox_loc_perm
I0406 07:47:28.537025   822 net.cpp:425] conv7_2_mbox_loc_flat -> conv7_2_mbox_loc_flat
I0406 07:47:28.537043   822 net.cpp:160] Setting up conv7_2_mbox_loc_flat
I0406 07:47:28.537047   822 net.cpp:167] Top shape: 1 600 (600)
I0406 07:47:28.537051   822 net.cpp:175] Memory required for data: 246007772
I0406 07:47:28.537055   822 layer_factory.hpp:93] Creating layer conv7_2_mbox_conf
I0406 07:47:28.537061   822 net.cpp:110] Creating Layer conv7_2_mbox_conf
I0406 07:47:28.537066   822 net.cpp:451] conv7_2_mbox_conf <- conv7_2_conv7_2_relu_0_split_2
I0406 07:47:28.537071   822 net.cpp:425] conv7_2_mbox_conf -> conv7_2_mbox_conf
I0406 07:47:28.540294   822 net.cpp:160] Setting up conv7_2_mbox_conf
I0406 07:47:28.540313   822 net.cpp:167] Top shape: 1 126 5 5 (3150)
I0406 07:47:28.540323   822 net.cpp:175] Memory required for data: 246020372
I0406 07:47:28.540333   822 layer_factory.hpp:93] Creating layer conv7_2_mbox_conf_perm
I0406 07:47:28.540343   822 net.cpp:110] Creating Layer conv7_2_mbox_conf_perm
I0406 07:47:28.540349   822 net.cpp:451] conv7_2_mbox_conf_perm <- conv7_2_mbox_conf
I0406 07:47:28.540355   822 net.cpp:425] conv7_2_mbox_conf_perm -> conv7_2_mbox_conf_perm
I0406 07:47:28.540439   822 net.cpp:160] Setting up conv7_2_mbox_conf_perm
I0406 07:47:28.540446   822 net.cpp:167] Top shape: 1 5 5 126 (3150)
I0406 07:47:28.540450   822 net.cpp:175] Memory required for data: 246032972
I0406 07:47:28.540453   822 layer_factory.hpp:93] Creating layer conv7_2_mbox_conf_flat
I0406 07:47:28.540459   822 net.cpp:110] Creating Layer conv7_2_mbox_conf_flat
I0406 07:47:28.540462   822 net.cpp:451] conv7_2_mbox_conf_flat <- conv7_2_mbox_conf_perm
I0406 07:47:28.540467   822 net.cpp:425] conv7_2_mbox_conf_flat -> conv7_2_mbox_conf_flat
I0406 07:47:28.540485   822 net.cpp:160] Setting up conv7_2_mbox_conf_flat
I0406 07:47:28.540489   822 net.cpp:167] Top shape: 1 3150 (3150)
I0406 07:47:28.540494   822 net.cpp:175] Memory required for data: 246045572
I0406 07:47:28.540498   822 layer_factory.hpp:93] Creating layer conv7_2_mbox_priorbox
I0406 07:47:28.540504   822 net.cpp:110] Creating Layer conv7_2_mbox_priorbox
I0406 07:47:28.540508   822 net.cpp:451] conv7_2_mbox_priorbox <- conv7_2_conv7_2_relu_0_split_3
I0406 07:47:28.540513   822 net.cpp:451] conv7_2_mbox_priorbox <- data_data_0_split_4
I0406 07:47:28.540518   822 net.cpp:425] conv7_2_mbox_priorbox -> conv7_2_mbox_priorbox
I0406 07:47:28.540549   822 net.cpp:160] Setting up conv7_2_mbox_priorbox
I0406 07:47:28.540551   822 net.cpp:167] Top shape: 1 2 600 (1200)
I0406 07:47:28.540555   822 net.cpp:175] Memory required for data: 246050372
I0406 07:47:28.540558   822 layer_factory.hpp:93] Creating layer conv8_2_mbox_loc
I0406 07:47:28.540568   822 net.cpp:110] Creating Layer conv8_2_mbox_loc
I0406 07:47:28.540572   822 net.cpp:451] conv8_2_mbox_loc <- conv8_2_conv8_2_relu_0_split_1
I0406 07:47:28.540577   822 net.cpp:425] conv8_2_mbox_loc -> conv8_2_mbox_loc
I0406 07:47:28.541035   822 net.cpp:160] Setting up conv8_2_mbox_loc
I0406 07:47:28.541043   822 net.cpp:167] Top shape: 1 16 3 3 (144)
I0406 07:47:28.541046   822 net.cpp:175] Memory required for data: 246050948
I0406 07:47:28.541052   822 layer_factory.hpp:93] Creating layer conv8_2_mbox_loc_perm
I0406 07:47:28.541059   822 net.cpp:110] Creating Layer conv8_2_mbox_loc_perm
I0406 07:47:28.541061   822 net.cpp:451] conv8_2_mbox_loc_perm <- conv8_2_mbox_loc
I0406 07:47:28.541066   822 net.cpp:425] conv8_2_mbox_loc_perm -> conv8_2_mbox_loc_perm
I0406 07:47:28.541148   822 net.cpp:160] Setting up conv8_2_mbox_loc_perm
I0406 07:47:28.541153   822 net.cpp:167] Top shape: 1 3 3 16 (144)
I0406 07:47:28.541158   822 net.cpp:175] Memory required for data: 246051524
I0406 07:47:28.541162   822 layer_factory.hpp:93] Creating layer conv8_2_mbox_loc_flat
I0406 07:47:28.541165   822 net.cpp:110] Creating Layer conv8_2_mbox_loc_flat
I0406 07:47:28.541169   822 net.cpp:451] conv8_2_mbox_loc_flat <- conv8_2_mbox_loc_perm
I0406 07:47:28.541173   822 net.cpp:425] conv8_2_mbox_loc_flat -> conv8_2_mbox_loc_flat
I0406 07:47:28.541193   822 net.cpp:160] Setting up conv8_2_mbox_loc_flat
I0406 07:47:28.541196   822 net.cpp:167] Top shape: 1 144 (144)
I0406 07:47:28.541200   822 net.cpp:175] Memory required for data: 246052100
I0406 07:47:28.541203   822 layer_factory.hpp:93] Creating layer conv8_2_mbox_conf
I0406 07:47:28.541210   822 net.cpp:110] Creating Layer conv8_2_mbox_conf
I0406 07:47:28.541213   822 net.cpp:451] conv8_2_mbox_conf <- conv8_2_conv8_2_relu_0_split_2
I0406 07:47:28.541219   822 net.cpp:425] conv8_2_mbox_conf -> conv8_2_mbox_conf
I0406 07:47:28.542548   822 net.cpp:160] Setting up conv8_2_mbox_conf
I0406 07:47:28.542555   822 net.cpp:167] Top shape: 1 84 3 3 (756)
I0406 07:47:28.542559   822 net.cpp:175] Memory required for data: 246055124
I0406 07:47:28.542565   822 layer_factory.hpp:93] Creating layer conv8_2_mbox_conf_perm
I0406 07:47:28.542572   822 net.cpp:110] Creating Layer conv8_2_mbox_conf_perm
I0406 07:47:28.542574   822 net.cpp:451] conv8_2_mbox_conf_perm <- conv8_2_mbox_conf
I0406 07:47:28.542579   822 net.cpp:425] conv8_2_mbox_conf_perm -> conv8_2_mbox_conf_perm
I0406 07:47:28.542659   822 net.cpp:160] Setting up conv8_2_mbox_conf_perm
I0406 07:47:28.542665   822 net.cpp:167] Top shape: 1 3 3 84 (756)
I0406 07:47:28.542668   822 net.cpp:175] Memory required for data: 246058148
I0406 07:47:28.542672   822 layer_factory.hpp:93] Creating layer conv8_2_mbox_conf_flat
I0406 07:47:28.542676   822 net.cpp:110] Creating Layer conv8_2_mbox_conf_flat
I0406 07:47:28.542680   822 net.cpp:451] conv8_2_mbox_conf_flat <- conv8_2_mbox_conf_perm
I0406 07:47:28.542685   822 net.cpp:425] conv8_2_mbox_conf_flat -> conv8_2_mbox_conf_flat
I0406 07:47:28.542702   822 net.cpp:160] Setting up conv8_2_mbox_conf_flat
I0406 07:47:28.542706   822 net.cpp:167] Top shape: 1 756 (756)
I0406 07:47:28.542709   822 net.cpp:175] Memory required for data: 246061172
I0406 07:47:28.542713   822 layer_factory.hpp:93] Creating layer conv8_2_mbox_priorbox
I0406 07:47:28.542718   822 net.cpp:110] Creating Layer conv8_2_mbox_priorbox
I0406 07:47:28.542722   822 net.cpp:451] conv8_2_mbox_priorbox <- conv8_2_conv8_2_relu_0_split_3
I0406 07:47:28.542726   822 net.cpp:451] conv8_2_mbox_priorbox <- data_data_0_split_5
I0406 07:47:28.542732   822 net.cpp:425] conv8_2_mbox_priorbox -> conv8_2_mbox_priorbox
I0406 07:47:28.542750   822 net.cpp:160] Setting up conv8_2_mbox_priorbox
I0406 07:47:28.542757   822 net.cpp:167] Top shape: 1 2 144 (288)
I0406 07:47:28.542760   822 net.cpp:175] Memory required for data: 246062324
I0406 07:47:28.542763   822 layer_factory.hpp:93] Creating layer conv9_2_mbox_loc
I0406 07:47:28.542770   822 net.cpp:110] Creating Layer conv9_2_mbox_loc
I0406 07:47:28.542774   822 net.cpp:451] conv9_2_mbox_loc <- conv9_2_conv9_2_relu_0_split_0
I0406 07:47:28.542779   822 net.cpp:425] conv9_2_mbox_loc -> conv9_2_mbox_loc
I0406 07:47:28.543206   822 net.cpp:160] Setting up conv9_2_mbox_loc
I0406 07:47:28.543213   822 net.cpp:167] Top shape: 1 16 1 1 (16)
I0406 07:47:28.543218   822 net.cpp:175] Memory required for data: 246062388
I0406 07:47:28.543223   822 layer_factory.hpp:93] Creating layer conv9_2_mbox_loc_perm
I0406 07:47:28.543229   822 net.cpp:110] Creating Layer conv9_2_mbox_loc_perm
I0406 07:47:28.543232   822 net.cpp:451] conv9_2_mbox_loc_perm <- conv9_2_mbox_loc
I0406 07:47:28.543237   822 net.cpp:425] conv9_2_mbox_loc_perm -> conv9_2_mbox_loc_perm
I0406 07:47:28.543320   822 net.cpp:160] Setting up conv9_2_mbox_loc_perm
I0406 07:47:28.543326   822 net.cpp:167] Top shape: 1 1 1 16 (16)
I0406 07:47:28.543331   822 net.cpp:175] Memory required for data: 246062452
I0406 07:47:28.543334   822 layer_factory.hpp:93] Creating layer conv9_2_mbox_loc_flat
I0406 07:47:28.543339   822 net.cpp:110] Creating Layer conv9_2_mbox_loc_flat
I0406 07:47:28.543342   822 net.cpp:451] conv9_2_mbox_loc_flat <- conv9_2_mbox_loc_perm
I0406 07:47:28.543347   822 net.cpp:425] conv9_2_mbox_loc_flat -> conv9_2_mbox_loc_flat
I0406 07:47:28.543365   822 net.cpp:160] Setting up conv9_2_mbox_loc_flat
I0406 07:47:28.543370   822 net.cpp:167] Top shape: 1 16 (16)
I0406 07:47:28.543373   822 net.cpp:175] Memory required for data: 246062516
I0406 07:47:28.543376   822 layer_factory.hpp:93] Creating layer conv9_2_mbox_conf
I0406 07:47:28.543383   822 net.cpp:110] Creating Layer conv9_2_mbox_conf
I0406 07:47:28.543387   822 net.cpp:451] conv9_2_mbox_conf <- conv9_2_conv9_2_relu_0_split_1
I0406 07:47:28.543392   822 net.cpp:425] conv9_2_mbox_conf -> conv9_2_mbox_conf
I0406 07:47:28.544719   822 net.cpp:160] Setting up conv9_2_mbox_conf
I0406 07:47:28.544726   822 net.cpp:167] Top shape: 1 84 1 1 (84)
I0406 07:47:28.544731   822 net.cpp:175] Memory required for data: 246062852
I0406 07:47:28.544736   822 layer_factory.hpp:93] Creating layer conv9_2_mbox_conf_perm
I0406 07:47:28.544742   822 net.cpp:110] Creating Layer conv9_2_mbox_conf_perm
I0406 07:47:28.544746   822 net.cpp:451] conv9_2_mbox_conf_perm <- conv9_2_mbox_conf
I0406 07:47:28.544751   822 net.cpp:425] conv9_2_mbox_conf_perm -> conv9_2_mbox_conf_perm
I0406 07:47:28.544826   822 net.cpp:160] Setting up conv9_2_mbox_conf_perm
I0406 07:47:28.544832   822 net.cpp:167] Top shape: 1 1 1 84 (84)
I0406 07:47:28.544836   822 net.cpp:175] Memory required for data: 246063188
I0406 07:47:28.544840   822 layer_factory.hpp:93] Creating layer conv9_2_mbox_conf_flat
I0406 07:47:28.544845   822 net.cpp:110] Creating Layer conv9_2_mbox_conf_flat
I0406 07:47:28.544848   822 net.cpp:451] conv9_2_mbox_conf_flat <- conv9_2_mbox_conf_perm
I0406 07:47:28.544853   822 net.cpp:425] conv9_2_mbox_conf_flat -> conv9_2_mbox_conf_flat
I0406 07:47:28.544870   822 net.cpp:160] Setting up conv9_2_mbox_conf_flat
I0406 07:47:28.544873   822 net.cpp:167] Top shape: 1 84 (84)
I0406 07:47:28.544878   822 net.cpp:175] Memory required for data: 246063524
I0406 07:47:28.544880   822 layer_factory.hpp:93] Creating layer conv9_2_mbox_priorbox
I0406 07:47:28.544886   822 net.cpp:110] Creating Layer conv9_2_mbox_priorbox
I0406 07:47:28.544889   822 net.cpp:451] conv9_2_mbox_priorbox <- conv9_2_conv9_2_relu_0_split_2
I0406 07:47:28.544893   822 net.cpp:451] conv9_2_mbox_priorbox <- data_data_0_split_6
I0406 07:47:28.544898   822 net.cpp:425] conv9_2_mbox_priorbox -> conv9_2_mbox_priorbox
I0406 07:47:28.544917   822 net.cpp:160] Setting up conv9_2_mbox_priorbox
I0406 07:47:28.544920   822 net.cpp:167] Top shape: 1 2 16 (32)
I0406 07:47:28.544924   822 net.cpp:175] Memory required for data: 246063652
I0406 07:47:28.544927   822 layer_factory.hpp:93] Creating layer mbox_loc
I0406 07:47:28.544939   822 net.cpp:110] Creating Layer mbox_loc
I0406 07:47:28.544945   822 net.cpp:451] mbox_loc <- conv4_3_norm_mbox_loc_flat
I0406 07:47:28.544948   822 net.cpp:451] mbox_loc <- fc7_mbox_loc_flat
I0406 07:47:28.544953   822 net.cpp:451] mbox_loc <- conv6_2_mbox_loc_flat
I0406 07:47:28.544957   822 net.cpp:451] mbox_loc <- conv7_2_mbox_loc_flat
I0406 07:47:28.544960   822 net.cpp:451] mbox_loc <- conv8_2_mbox_loc_flat
I0406 07:47:28.544965   822 net.cpp:451] mbox_loc <- conv9_2_mbox_loc_flat
I0406 07:47:28.544970   822 net.cpp:425] mbox_loc -> mbox_loc
I0406 07:47:28.544988   822 net.cpp:160] Setting up mbox_loc
I0406 07:47:28.544992   822 net.cpp:167] Top shape: 1 34928 (34928)
I0406 07:47:28.544996   822 net.cpp:175] Memory required for data: 246203364
I0406 07:47:28.544999   822 layer_factory.hpp:93] Creating layer mbox_conf
I0406 07:47:28.545004   822 net.cpp:110] Creating Layer mbox_conf
I0406 07:47:28.545007   822 net.cpp:451] mbox_conf <- conv4_3_norm_mbox_conf_flat
I0406 07:47:28.545011   822 net.cpp:451] mbox_conf <- fc7_mbox_conf_flat
I0406 07:47:28.545015   822 net.cpp:451] mbox_conf <- conv6_2_mbox_conf_flat
I0406 07:47:28.545019   822 net.cpp:451] mbox_conf <- conv7_2_mbox_conf_flat
I0406 07:47:28.545022   822 net.cpp:451] mbox_conf <- conv8_2_mbox_conf_flat
I0406 07:47:28.545027   822 net.cpp:451] mbox_conf <- conv9_2_mbox_conf_flat
I0406 07:47:28.545032   822 net.cpp:425] mbox_conf -> mbox_conf
I0406 07:47:28.545048   822 net.cpp:160] Setting up mbox_conf
I0406 07:47:28.545059   822 net.cpp:167] Top shape: 1 183372 (183372)
I0406 07:47:28.545064   822 net.cpp:175] Memory required for data: 246936852
I0406 07:47:28.545068   822 layer_factory.hpp:93] Creating layer mbox_priorbox
I0406 07:47:28.545073   822 net.cpp:110] Creating Layer mbox_priorbox
I0406 07:47:28.545075   822 net.cpp:451] mbox_priorbox <- conv4_3_norm_mbox_priorbox
I0406 07:47:28.545079   822 net.cpp:451] mbox_priorbox <- fc7_mbox_priorbox
I0406 07:47:28.545083   822 net.cpp:451] mbox_priorbox <- conv6_2_mbox_priorbox
I0406 07:47:28.545086   822 net.cpp:451] mbox_priorbox <- conv7_2_mbox_priorbox
I0406 07:47:28.545089   822 net.cpp:451] mbox_priorbox <- conv8_2_mbox_priorbox
I0406 07:47:28.545094   822 net.cpp:451] mbox_priorbox <- conv9_2_mbox_priorbox
I0406 07:47:28.545099   822 net.cpp:425] mbox_priorbox -> mbox_priorbox
I0406 07:47:28.545119   822 net.cpp:160] Setting up mbox_priorbox
I0406 07:47:28.545127   822 net.cpp:167] Top shape: 1 2 34928 (69856)
I0406 07:47:28.545135   822 net.cpp:175] Memory required for data: 247216276
I0406 07:47:28.545140   822 net.cpp:238] mbox_priorbox does not need backward computation.
I0406 07:47:28.545156   822 net.cpp:238] mbox_conf does not need backward computation.
I0406 07:47:28.545161   822 net.cpp:238] mbox_loc does not need backward computation.
I0406 07:47:28.545166   822 net.cpp:238] conv9_2_mbox_priorbox does not need backward computation.
…
    phase: TRAIN
  }
  transform_param {
    crop_size: 300
    mean_value: 104
    mean_value: 117
    mean_value: 123
    resize_param {
      prob: 1
      resize_mode: WARP
      height: 300
      width: 300
      interp_mode: LINEAR
      interp_mode: AREA
      interp_mode: NEAREST
      interp_mode: CUBIC
      interp_mode: LANCZOS4
    }
  }
  image_data_param {
    source: "../calibration.txt"
    batch_size: 1
    shuffle: true
    new_height: 300
    new_width: 300
    root_folder: "/workspace/SSD/data/VOCdevkit/VOC2007/JPEGImages/"
  }
}
layer {
  name: "data_fixed"
  type: "FixedNeuron"
  bottom: "data"
  top: "data"
  param {
    lr_mult: 0
    decay_mult: 0
  }
  fixed_param {
    fixed_method: OVER_FLOW
    bit_width: 8
    follow_data_layer: true
  }
}
layer {
  name: "conv1_1"
  type: "ConvolutionFixed"
  bottom: "data"
  top: "conv1_1"
  param {
    lr_mult: 1
    decay_mult: 1
  }
  param {
    lr_mult: 2
    decay_mult: 0
  }
  convolution_param {
    num_output: 64
    pad: 1
    kernel_size: 3
    weight_filler {
      type: "xavier"
    }
    bias_filler {
      type: "constant"
      value: 0
    }
  }
  fixed_param {
    fixed_method: DIFF_S
    bit_width: 8
  }
}
layer {
  name: "relu1_1"
  type: "ReLU"
  bottom: "conv1_1"
  top: "conv1_1"
}
layer {
  name: "conv1_1_fixed"
  type: "FixedNeuron"
  bottom: "conv1_1"
  top: "conv1_1"
  param {
    lr_mult: 0
    decay_mult: 0
  }
  fixed_param {
    fixed_method: DIFF_S
    bit_width: 8
  }
}
layer {
  name: "conv1_2"
  type: "ConvolutionFixed"
  bottom: "conv1_1"
  top: "conv1_2"
  param {
    lr_mult: 1
    decay_mult: 1
  }
  param {
    lr_mult: 2
    decay_mult: 0
  }
  convolution_param {
    num_output: 64
    pad: 1
    kernel_size: 3
    weight_filler {
      type: "xavier"
    }
    bias_filler {
      type: "constant"
      value: 0
    }
  }
  fixed_param {
    fixed_method: DIFF_S
    bit_width: 8
  }
}
layer {
  name: "relu1_2"
  type: "ReLU"
  bottom: "conv1_2"
  top: "conv1_2"
}
layer {
  name: "pool1"
  type: "Pooling"
  bottom: "conv1_2"
  top: "pool1"
  pooling_param {
    pool: MAX
    kernel_size: 2
    stride: 2
  }
}
layer {
  name: "pool1_fixed"
  type: "FixedNeuron"
  bottom: "pool1"
  top: "pool1"
  param {
    lr_mult: 0
    decay_mult: 0
  }
  fixed_param {
    fixed_method: DIFF_S
    bit_width: 8
  }
}
layer {
  name: "conv2_1"
  type: "ConvolutionFixed"
  bottom: "pool1"
  top: "conv2_1"
  param {
    lr_mult: 1
    decay_mult: 1
  }
  param {
    lr_mult: 2
    decay_mult: 0
  }
  convolution_param {
    num_output: 128
    pad: 1
    kernel_size: 3
    weight_filler {
      type: "xavier"
    }
    bias_filler {
      type: "constant"
      value: 0
    }
  }
  fixed_param {
    fixed_method: DIFF_S
    bit_width: 8
  }
}
layer {
  name: "relu2_1"
  type: "ReLU"
  bottom: "conv2_1"
  top: "conv2_1"
}
layer {
  name: "conv2_1_fixed"
  type: "FixedNeuron"
  bottom: "conv2_1"
  top: "conv2_1"
  param {
    lr_mult: 0
    decay_mult: 0
  }
  fixed_param {
    fixed_method: DIFF_S
    bit_width: 8
  }
}
layer {
  name: "conv2_2"
  type: "ConvolutionFixed"
  bottom: "conv2_1"
  top: "conv2_2"
  param {
    lr_mult: 1
    decay_mult: 1
  }
  param {
    lr_mult: 2
    decay_mult: 0
  }
  convolution_param {
    num_output: 128
    pad: 1
    kernel_size: 3
    weight_filler {
      type: "xavier"
    }
    bias_filler {
      type: "constant"
      value: 0
    }
  }
  fixed_param {
    fixed_method: DIFF_S
    bit_width: 8
  }
}
layer {
  name: "relu2_2"
  type: "ReLU"
  bottom: "conv2_2"
  top: "conv2_2"
}
layer {
  name: "pool2"
  type: "Pooling"
  bottom: "conv2_2"
  top: "pool2"
  pooling_param {
    pool: MAX
    kernel_size: 2
    stride: 2
  }
}
layer {
  name: "pool2_fixed"
  type: "FixedNeuron"
  bottom: "pool2"
  top: "pool2"
  param {
    lr_mult: 0
    decay_mult: 0
  }
  fixed_param {
    fixed_method: DIFF_S
    bit_width: 8
  }
}
layer {
  name: "conv3_1"
  type: "ConvolutionFixed"
  bottom: "pool2"
  top: "conv3_1"
  param {
    lr_mult: 1
    decay_mult: 1
  }
  param {
    lr_mult: 2
    decay_mult: 0
  }
  convolution_param {
    num_output: 256
    pad: 1
    kernel_size: 3
    weight_filler {
      type: "xavier"
    }
    bias_filler {
      type: "constant"
      value: 0
    }
  }
  fixed_param {
    fixed_method: DIFF_S
    bit_width: 8
  }
}
layer {
  name: "relu3_1"
  type: "ReLU"
  bottom: "conv3_1"
  top: "conv3_1"
}
layer {
  name: "conv3_1_fixed"
  type: "FixedNeuron"
  bottom: "conv3_1"
  top: "conv3_1"
  param {
    lr_mult: 0
    decay_mult: 0
  }
  fixed_param {
    fixed_method: DIFF_S
    bit_width: 8
  }
}
layer {
  name: "conv3_2"
  type: "ConvolutionFixed"
  bottom: "conv3_1"
  top: "conv3_2"
  param {
    lr_mult: 1
    decay_mult: 1
  }
  param {
    lr_mult: 2
    decay_mult: 0
  }
  convolution_param {
    num_output: 256
    pad: 1
    kernel_size: 3
    weight_filler {
      type: "xavier"
    }
    bias_filler {
      type: "constant"
      value: 0
    }
  }
  fixed_param {
    fixed_method: DIFF_S
    bit_width: 8
  }
}
layer {
  name: "relu3_2"
  type: "ReLU"
  bottom: "conv3_2"
  top: "conv3_2"
}
layer {
  name: "conv3_2_fixed"
  type: "FixedNeuron"
  bottom: "conv3_2"
  top: "conv3_2"
  param {
    lr_mult: 0
    decay_mult: 0
  }
  fixed_param {
    fixed_method: DIFF_S
    bit_width: 8
  }
}
layer {
  name: "conv3_3"
  type: "ConvolutionFixed"
  bottom: "conv3_2"
  top: "conv3_3"
  param {
    lr_mult: 1
    decay_mult: 1
  }
  param {
    lr_mult: 2
    decay_mult: 0
  }
  convolution_param {
    num_output: 256
    pad: 1
    kernel_size: 3
    weight_filler {
      type: "xavier"
    }
    bias_filler {
      type: "constant"
      value: 0
    }
  }
  fixed_param {
    fixed_method: DIFF_S
    bit_width: 8
  }
}
layer {
  name: "relu3_3"
  type: "ReLU"
  bottom: "conv3_3"
  top: "conv3_3"
}
layer {
  name: "pool3"
  type: "Pooling"
  bottom: "conv3_3"
  top: "pool3"
  pooling_param {
    pool: MAX
    kernel_size: 2
    stride: 2
  }
}
layer {
  name: "pool3_fixed"
  type: "FixedNeuron"
  bottom: "pool3"
  top: "pool3"
  param {
    lr_mult: 0
    decay_mult: 0
  }
  fixed_param {
    fixed_method: DIFF_S
    bit_width: 8
  }
}
layer {
  name: "conv4_1"
  type: "ConvolutionFixed"
  bottom: "pool3"
  top: "conv4_1"
  param {
    lr_mult: 1
    decay_mult: 1
  }
  param {
    lr_mult: 2
    decay_mult: 0
  }
  convolution_param {
    num_output: 512
    pad: 1
    kernel_size: 3
    weight_filler {
      type: "xavier"
    }
    bias_filler {
      type: "constant"
      value: 0
    }
  }
  fixed_param {
    fixed_method: DIFF_S
    bit_width: 8
  }
}
layer {
  name: "relu4_1"
  type: "ReLU"
  bottom: "conv4_1"
  top: "conv4_1"
}
layer {
  name: "conv4_1_fixed"
  type: "FixedNeuron"
  bottom: "conv4_1"
  top: "conv4_1"
  param {
    lr_mult: 0
    decay_mult: 0
  }
  fixed_param {
    fixed_method: DIFF_S
    bit_width: 8
  }
}
layer {
  name: "conv4_2"
  type: "ConvolutionFixed"
  bottom: "conv4_1"
  top: "conv4_2"
  param {
    lr_mult: 1
    decay_mult: 1
  }
  param {
    lr_mult: 2
    decay_mult: 0
  }
  convolution_param {
    num_output: 512
    pad: 1
    kernel_size: 3
    weight_filler {
      type: "xavier"
    }
    bias_filler {
      type: "constant"
      value: 0
    }
  }
  fixed_param {
    fixed_method: DIFF_S
    bit_width: 8
  }
}
layer {
  name: "relu4_2"
  type: "ReLU"
  bottom: "conv4_2"
  top: "conv4_2"
}
layer {
  name: "conv4_2_fixed"
  type: "FixedNeuron"
  bottom: "conv4_2"
  top: "conv4_2"
  param {
    lr_mult: 0
    decay_mult: 0
  }
  fixed_param {
    fixed_method: DIFF_S
    bit_width: 8
  }
}
layer {
  name: "conv4_3"
  type: "ConvolutionFixed"
  bottom: "conv4_2"
  top: "conv4_3"
  param {
    lr_mult: 1
    decay_mult: 1
  }
  param {
    lr_mult: 1
    decay_mult: 0
  }
  convolution_param {
    num_output: 512
    bias_term: true
    pad: 1
    kernel_size: 3
    weight_filler {
      type: "xavier"
    }
    bias_filler {
      type: "constant"
      value: 0
    }
  }
  fixed_param {
    fixed_method: DIFF_S
    bit_width: 8
  }
}
layer {
  name: "relu4_3"
  type: "ReLU"
  bottom: "conv4_3"
  top: "conv4_3"
}
layer {
  name: "conv4_3_fixed"
  type: "FixedNeuron"
  bottom: "conv4_3"
  top: "conv4_3"
  param {
    lr_mult: 0
    decay_mult: 0
  }
  fixed_param {
    fixed_method: DIFF_S
    bit_width: 8
  }
}
layer {
  name: "pool4"
  type: "Pooling"
  bottom: "conv4_3"
  top: "pool4"
  pooling_param {
    pool: MAX
    kernel_size: 2
    stride: 2
  }
}
layer {
  name: "conv5_1"
  type: "ConvolutionFixed"
  bottom: "pool4"
  top: "conv5_1"
  param {
    lr_mult: 1
    decay_mult: 1
  }
  param {
    lr_mult: 2
    decay_mult: 0
  }
  convolution_param {
    num_output: 512
    pad: 1
    kernel_size: 3
    weight_filler {
      type: "xavier"
    }
    bias_filler {
      type: "constant"
      value: 0
    }
    dilation: 1
  }
  fixed_param {
    fixed_method: DIFF_S
    bit_width: 8
  }
}
layer {
  name: "relu5_1"
  type: "ReLU"
  bottom: "conv5_1"
  top: "conv5_1"
}
layer {
  name: "conv5_1_fixed"
  type: "FixedNeuron"
  bottom: "conv5_1"
  top: "conv5_1"
  param {
    lr_mult: 0
    decay_mult: 0
  }
  fixed_param {
    fixed_method: DIFF_S
    bit_width: 8
  }
}
layer {
  name: "conv5_2"
  type: "ConvolutionFixed"
  bottom: "conv5_1"
  top: "conv5_2"
  param {
    lr_mult: 1
    decay_mult: 1
  }
  param {
    lr_mult: 2
    decay_mult: 0
  }
  convolution_param {
    num_output: 512
    pad: 1
    kernel_size: 3
    weight_filler {
      type: "xavier"
    }
    bias_filler {
      type: "constant"
      value: 0
    }
    dilation: 1
  }
  fixed_param {
    fixed_method: DIFF_S
    bit_width: 8
  }
}
layer {
  name: "relu5_2"
  type: "ReLU"
  bottom: "conv5_2"
  top: "conv5_2"
}
layer {
  name: "conv5_2_fixed"
  type: "FixedNeuron"
  bottom: "conv5_2"
  top: "conv5_2"
  param {
    lr_mult: 0
    decay_mult: 0
  }
  fixed_param {
    fixed_method: DIFF_S
    bit_width: 8
  }
}
layer {
  name: "conv5_3"
  type: "ConvolutionFixed"
  bottom: "conv5_2"
  top: "conv5_3"
  param {
    lr_mult: 1
    decay_mult: 1
  }
  param {
    lr_mult: 2
    decay_mult: 0
  }
  convolution_param {
    num_output: 512
    pad: 1
    kernel_size: 3
    weight_filler {
      type: "xavier"
    }
    bias_filler {
      type: "constant"
      value: 0
    }
    dilation: 1
  }
  fixed_param {
    fixed_method: DIFF_S
    bit_width: 8
  }
}
layer {
  name: "relu5_3"
  type: "ReLU"
  bottom: "conv5_3"
  top: "conv5_3"
}
layer {
  name: "pool5"
  type: "Pooling"
  bottom: "conv5_3"
  top: "pool5"
  pooling_param {
    pool: MAX
    kernel_size: 3
    stride: 1
    pad: 1
  }
}
layer {
  name: "pool5_fixed"
  type: "FixedNeuron"
  bottom: "pool5"
  top: "pool5"
  param {
    lr_mult: 0
    decay_mult: 0
  }
  fixed_param {
    fixed_method: DIFF_S
    bit_width: 8
  }
}
layer {
  name: "fc6_682"
  type: "ConvolutionFixed"
  bottom: "pool5"
  top: "fc6_682"
  param {
    lr_mult: 1
    decay_mult: 1
  }
  param {
    lr_mult: 2
    decay_mult: 0
  }
  convolution_param {
    num_output: 682
    pad: 6
    kernel_size: 3
    weight_filler {
      type: "xavier"
    }
    bias_filler {
      type: "constant"
      value: 0
    }
    dilation: 6
  }
  fixed_param {
    fixed_method: DIFF_S
    bit_width: 8
  }
}
layer {
  name: "relu6"
  type: "ReLU"
  bottom: "fc6_682"
  top: "fc6_682"
}
layer {
  name: "fc6_682_fixed"
  type: "FixedNeuron"
  bottom: "fc6_682"
  top: "fc6_682"
  param {
    lr_mult: 0
    decay_mult: 0
  }
  fixed_param {
    fixed_method: DIFF_S
    bit_width: 8
  }
}
layer {
  name: "fc7_682"
  type: "ConvolutionFixed"
  bottom: "fc6_682"
  top: "fc7_682"
  param {
    lr_mult: 1
    decay_mult: 1
  }
  param {
    lr_mult: 2
    decay_mult: 0
  }
  convolution_param {
    num_output: 1024
    kernel_size: 1
    weight_filler {
      type: "xavier"
    }
    bias_filler {
      type: "constant"
      value: 0
    }
  }
  fixed_param {
    fixed_method: DIFF_S
    bit_width: 8
  }
}
layer {
  name: "relu7"
  type: "ReLU"
  bottom: "fc7_682"
  top: "fc7_682"
}
layer {
  name: "fc7_682_fixed"
  type: "FixedNeuron"
  bottom: "fc7_682"
  top: "fc7_682"
  param {
    lr_mult: 0
    decay_mult: 0
  }
  fixed_param {
    fixed_method: DIFF_S
    bit_width: 8
  }
}
layer {
  name: "conv6_1"
  type: "ConvolutionFixed"
  bottom: "fc7_682"
  top: "conv6_1"
  param {
    lr_mult: 1
    decay_mult: 1
  }
  param {
    lr_mult: 2
    decay_mult: 0
  }
  convolution_param {
    num_output: 256
    pad: 0
    kernel_size: 1
    stride: 1
    weight_filler {
      type: "xavier"
    }
    bias_filler {
      type: "constant"
      value: 0
    }
  }
  fixed_param {
    fixed_method: DIFF_S
    bit_width: 8
  }
}
layer {
  name: "conv6_1_relu"
  type: "ReLU"
  bottom: "conv6_1"
  top: "conv6_1"
}
layer {
  name: "conv6_1_fixed"
  type: "FixedNeuron"
  bottom: "conv6_1"
  top: "conv6_1"
  param {
    lr_mult: 0
    decay_mult: 0
  }
  fixed_param {
    fixed_method: DIFF_S
    bit_width: 8
  }
}
layer {
  name: "conv6_2"
  type: "ConvolutionFixed"
  bottom: "conv6_1"
  top: "conv6_2"
  param {
    lr_mult: 1
    decay_mult: 1
  }
  param {
    lr_mult: 2
    decay_mult: 0
  }
  convolution_param {
    num_output: 512
    pad: 1
    kernel_size: 3
    stride: 2
    weight_filler {
      type: "xavier"
    }
    bias_filler {
      type: "constant"
      value: 0
    }
  }
  fixed_param {
    fixed_method: DIFF_S
    bit_width: 8
  }
}
layer {
  name: "conv6_2_relu"
  type: "ReLU"
  bottom: "conv6_2"
  top: "conv6_2"
}
layer {
  name: "conv6_2_fixed"
  type: "FixedNeuron"
  bottom: "conv6_2"
  top: "conv6_2"
  param {
    lr_mult: 0
    decay_mult: 0
  }
  fixed_param {
    fixed_method: DIFF_S
    bit_width: 8
  }
}
layer {
  name: "conv7_1"
  type: "ConvolutionFixed"
  bottom: "conv6_2"
  top: "conv7_1"
  param {
    lr_mult: 1
    decay_mult: 1
  }
  param {
    lr_mult: 2
    decay_mult: 0
  }
  convolution_param {
    num_output: 128
    pad: 0
    kernel_size: 1
    stride: 1
    weight_filler {
      type: "xavier"
    }
    bias_filler {
      type: "constant"
      value: 0
    }
  }
  fixed_param {
    fixed_method: DIFF_S
    bit_width: 8
  }
}
layer {
  name: "conv7_1_relu"
  type: "ReLU"
  bottom: "conv7_1"
  top: "conv7_1"
}
layer {
  name: "conv7_1_fixed"
  type: "FixedNeuron"
  bottom: "conv7_1"
  top: "conv7_1"
  param {
    lr_mult: 0
    decay_mult: 0
  }
  fixed_param {
    fixed_method: DIFF_S
    bit_width: 8
  }
}
layer {
  name: "conv7_2"
  type: "ConvolutionFixed"
  bottom: "conv7_1"
  top: "conv7_2"
  param {
    lr_mult: 1
    decay_mult: 1
  }
  param {
    lr_mult: 2
    decay_mult: 0
  }
  convolution_param {
    num_output: 256
    pad: 1
    kernel_size: 3
    stride: 2
    weight_filler {
      type: "xavier"
    }
    bias_filler {
      type: "constant"
      value: 0
    }
  }
  fixed_param {
    fixed_method: DIFF_S
    bit_width: 8
  }
}
layer {
  name: "conv7_2_relu"
  type: "ReLU"
  bottom: "conv7_2"
  top: "conv7_2"
}
layer {
  name: "conv7_2_fixed"
  type: "FixedNeuron"
  bottom: "conv7_2"
  top: "conv7_2"
  param {
    lr_mult: 0
    decay_mult: 0
  }
  fixed_param {
    fixed_method: DIFF_S
    bit_width: 8
  }
}
layer {
  name: "conv8_1"
  type: "ConvolutionFixed"
  bottom: "conv7_2"
  top: "conv8_1"
  param {
    lr_mult: 1
    decay_mult: 1
  }
  param {
    lr_mult: 2
    decay_mult: 0
  }
  convolution_param {
    num_output: 128
    pad: 0
    kernel_size: 1
    stride: 1
    weight_filler {
      type: "xavier"
    }
    bias_filler {
      type: "constant"
      value: 0
    }
  }
  fixed_param {
    fixed_method: DIFF_S
    bit_width: 8
  }
}
layer {
  name: "conv8_1_relu"
  type: "ReLU"
  bottom: "conv8_1"
  top: "conv8_1"
}
layer {
  name: "conv8_1_fixed"
  type: "FixedNeuron"
  bottom: "conv8_1"
  top: "conv8_1"
  param {
    lr_mult: 0
    decay_mult: 0
  }
  fixed_param {
    fixed_method: DIFF_S
    bit_width: 8
  }
}
layer {
  name: "conv8_2"
  type: "ConvolutionFixed"
  bottom: "conv8_1"
  top: "conv8_2"
  param {
    lr_mult: 1
    decay_mult: 1
  }
  param {
    lr_mult: 2
    decay_mult: 0
  }
  convolution_param {
    num_output: 256
    pad: 0
    kernel_size: 3
    stride: 1
    weight_filler {
      type: "xavier"
    }
    bias_filler {
      type: "constant"
      value: 0
    }
  }
  fixed_param {
    fixed_method: DIFF_S
    bit_width: 8
  }
}
layer {
  name: "conv8_2_relu"
  type: "ReLU"
  bottom: "conv8_2"
  top: "conv8_2"
}
layer {
  name: "conv8_2_fixed"
  type: "FixedNeuron"
  bottom: "conv8_2"
  top: "conv8_2"
  param {
    lr_mult: 0
    decay_mult: 0
  }
  fixed_param {
    fixed_method: DIFF_S
    bit_width: 8
  }
}
layer {
  name: "conv9_1"
  type: "ConvolutionFixed"
  bottom: "conv8_2"
  top: "conv9_1"
  param {
    lr_mult: 1
    decay_mult: 1
  }
  param {
    lr_mult: 2
    decay_mult: 0
  }
  convolution_param {
    num_output: 128
    pad: 0
    kernel_size: 1
    stride: 1
    weight_filler {
      type: "xavier"
    }
    bias_filler {
      type: "constant"
      value: 0
    }
  }
  fixed_param {
    fixed_method: DIFF_S
    bit_width: 8
  }
}
layer {
  name: "conv9_1_relu"
  type: "ReLU"
  bottom: "conv9_1"
  top: "conv9_1"
}
layer {
  name: "conv9_1_fixed"
  type: "FixedNeuron"
  bottom: "conv9_1"
  top: "conv9_1"
  param {
    lr_mult: 0
    decay_mult: 0
  }
  fixed_param {
    fixed_method: DIFF_S
    bit_width: 8
  }
}
layer {
  name: "conv9_2"
  type: "ConvolutionFixed"
  bottom: "conv9_1"
  top: "conv9_2"
  param {
    lr_mult: 1
    decay_mult: 1
  }
  param {
    lr_mult: 2
    decay_mult: 0
  }
  convolution_param {
    num_output: 256
    pad: 0
    kernel_size: 3
    stride: 1
    weight_filler {
      type: "xavier"
    }
    bias_filler {
      type: "constant"
      value: 0
    }
  }
  fixed_param {
    fixed_method: DIFF_S
    bit_width: 8
  }
}
layer {
  name: "conv9_2_relu"
  type: "ReLU"
  bottom: "conv9_2"
  top: "conv9_2"
}
layer {
  name: "conv9_2_fixed"
  type: "FixedNeuron"
  bottom: "conv9_2"
  top: "conv9_2"
  param {
    lr_mult: 0
    decay_mult: 0
  }
  fixed_param {
    fixed_method: DIFF_S
    bit_width: 8
  }
}
layer {
  name: "conv4_3_norm_mbox_loc"
  type: "ConvolutionFixed"
  bottom: "conv4_3"
  top: "conv4_3_norm_mbox_loc"
  param {
    lr_mult: 1
    decay_mult: 1
  }
  param {
    lr_mult: 2
    decay_mult: 0
  }
  convolution_param {
    num_output: 16
    pad: 1
    kernel_size: 3
    stride: 1
    weight_filler {
      type: "xavier"
    }
    bias_filler {
      type: "constant"
      value: 0
    }
  }
  fixed_param {
    fixed_method: DIFF_S
    bit_width: 8
  }
}
layer {
  name: "conv4_3_norm_mbox_loc_perm"
  type: "Permute"
  bottom: "conv4_3_norm_mbox_loc"
  top: "conv4_3_norm_mbox_loc_perm"
  permute_param {
    order: 0
    order: 2
    order: 3
    order: 1
  }
}
layer {
  name: "conv4_3_norm_mbox_loc_flat"
  type: "Flatten"
  bottom: "conv4_3_norm_mbox_loc_perm"
  top: "conv4_3_norm_mbox_loc_flat"
  flatten_param {
    axis: 1
  }
}
layer {
  name: "conv4_3_norm_mbox_conf"
  type: "ConvolutionFixed"
  bottom: "conv4_3"
  top: "conv4_3_norm_mbox_conf"
  param {
    lr_mult: 1
    decay_mult: 1
  }
  param {
    lr_mult: 2
    decay_mult: 0
  }
  convolution_param {
    num_output: 84
    pad: 1
    kernel_size: 3
    stride: 1
    weight_filler {
      type: "xavier"
    }
    bias_filler {
      type: "constant"
      value: 0
    }
  }
  fixed_param {
    fixed_method: DIFF_S
    bit_width: 8
  }
}
layer {
  name: "conv4_3_norm_mbox_conf_perm"
  type: "Permute"
  bottom: "conv4_3_norm_mbox_conf"
  top: "conv4_3_norm_mbox_conf_perm"
  permute_param {
    order: 0
    order: 2
    order: 3
    order: 1
  }
}
layer {
  name: "conv4_3_norm_mbox_conf_flat"
  type: "Flatten"
  bottom: "conv4_3_norm_mbox_conf_perm"
  top: "conv4_3_norm_mbox_conf_flat"
  flatten_param {
    axis: 1
  }
}
layer {
  name: "conv4_3_norm_mbox_priorbox"
  type: "PriorBox"
  bottom: "conv4_3"
  bottom: "data"
  top: "conv4_3_norm_mbox_priorbox"
  prior_box_param {
    min_size: 30
    max_size: 60
    aspect_ratio: 2
    flip: true
    clip: false
    variance: 0.1
    variance: 0.1
    variance: 0.2
    variance: 0.2
    step: 8
    offset: 0.5
  }
}
layer {
  name: "fc7_mbox_loc"
  type: "ConvolutionFixed"
  bottom: "fc7_682"
  top: "fc7_mbox_loc"
  param {
    lr_mult: 1
    decay_mult: 1
  }
  param {
    lr_mult: 2
    decay_mult: 0
  }
  convolution_param {
    num_output: 24
    pad: 1
    kernel_size: 3
    stride: 1
    weight_filler {
      type: "xavier"
    }
    bias_filler {
      type: "constant"
      value: 0
    }
  }
  fixed_param {
    fixed_method: DIFF_S
    bit_width: 8
  }
}
layer {
  name: "fc7_mbox_loc_perm"
  type: "Permute"
  bottom: "fc7_mbox_loc"
  top: "fc7_mbox_loc_perm"
  permute_param {
    order: 0
    order: 2
    order: 3
    order: 1
  }
}
layer {
  name: "fc7_mbox_loc_flat"
  type: "Flatten"
  bottom: "fc7_mbox_loc_perm"
  top: "fc7_mbox_loc_flat"
  flatten_param {
    axis: 1
  }
}
layer {
  name: "fc7_mbox_conf"
  type: "ConvolutionFixed"
  bottom: "fc7_682"
  top: "fc7_mbox_conf"
  param {
    lr_mult: 1
    decay_mult: 1
  }
  param {
    lr_mult: 2
    decay_mult: 0
  }
  convolution_param {
    num_output: 126
    pad: 1
    kernel_size: 3
    stride: 1
    weight_filler {
      type: "xavier"
    }
    bias_filler {
      type: "constant"
      value: 0
    }
  }
  fixed_param {
    fixed_method: DIFF_S
    bit_width: 8
  }
}
layer {
  name: "fc7_mbox_conf_perm"
  type: "Permute"
  bottom: "fc7_mbox_conf"
  top: "fc7_mbox_conf_perm"
  permute_param {
    order: 0
    order: 2
    order: 3
    order: 1
  }
}
layer {
  name: "fc7_mbox_conf_flat"
  type: "Flatten"
  bottom: "fc7_mbox_conf_perm"
  top: "fc7_mbox_conf_flat"
  flatten_param {
    axis: 1
  }
}
layer {
  name: "fc7_mbox_priorbox"
  type: "PriorBox"
  bottom: "fc7_682"
  bottom: "data"
  top: "fc7_mbox_priorbox"
  prior_box_param {
    min_size: 60
    max_size: 111
    aspect_ratio: 2
    aspect_ratio: 3
    flip: true
    clip: false
    variance: 0.1
    variance: 0.1
    variance: 0.2
    variance: 0.2
    step: 16
    offset: 0.5
  }
}
layer {
  name: "conv6_2_mbox_loc"
  type: "ConvolutionFixed"
  bottom: "conv6_2"
  top: "conv6_2_mbox_loc"
  param {
    lr_mult: 1
    decay_mult: 1
  }
  param {
    lr_mult: 2
    decay_mult: 0
  }
  convolution_param {
    num_output: 24
    pad: 1
    kernel_size: 3
    stride: 1
    weight_filler {
      type: "xavier"
    }
    bias_filler {
      type: "constant"
      value: 0
    }
  }
  fixed_param {
    fixed_method: DIFF_S
    bit_width: 8
  }
}
layer {
  name: "conv6_2_mbox_loc_perm"
  type: "Permute"
  bottom: "conv6_2_mbox_loc"
  top: "conv6_2_mbox_loc_perm"
  permute_param {
    order: 0
    order: 2
    order: 3
    order: 1
  }
}
layer {
  name: "conv6_2_mbox_loc_flat"
  type: "Flatten"
  bottom: "conv6_2_mbox_loc_perm"
  top: "conv6_2_mbox_loc_flat"
  flatten_param {
    axis: 1
  }
}
layer {
  name: "conv6_2_mbox_conf"
  type: "ConvolutionFixed"
  bottom: "conv6_2"
  top: "conv6_2_mbox_conf"
  param {
    lr_mult: 1
    decay_mult: 1
  }
  param {
    lr_mult: 2
    decay_mult: 0
  }
  convolution_param {
    num_output: 126
    pad: 1
    kernel_size: 3
    stride: 1
    weight_filler {
      type: "xavier"
    }
    bias_filler {
      type: "constant"
      value: 0
    }
  }
  fixed_param {
    fixed_method: DIFF_S
    bit_width: 8
  }
}
layer {
  name: "conv6_2_mbox_conf_perm"
  type: "Permute"
  bottom: "conv6_2_mbox_conf"
  top: "conv6_2_mbox_conf_perm"
  permute_param {
    order: 0
    order: 2
    order: 3
    order: 1
  }
}
layer {
  name: "conv6_2_mbox_conf_flat"
  type: "Flatten"
  bottom: "conv6_2_mbox_conf_perm"
  top: "conv6_2_mbox_conf_flat"
  flatten_param {
    axis: 1
  }
}
layer {
  name: "conv6_2_mbox_priorbox"
  type: "PriorBox"
  bottom: "conv6_2"
  bottom: "data"
  top: "conv6_2_mbox_priorbox"
  prior_box_param {
    min_size: 111
    max_size: 162
    aspect_ratio: 2
    aspect_ratio: 3
    flip: true
    clip: false
    variance: 0.1
    variance: 0.1
    variance: 0.2
    variance: 0.2
    step: 32
    offset: 0.5
  }
}
layer {
  name: "conv7_2_mbox_loc"
  type: "ConvolutionFixed"
  bottom: "conv7_2"
  top: "conv7_2_mbox_loc"
  param {
    lr_mult: 1
    decay_mult: 1
  }
  param {
    lr_mult: 2
    decay_mult: 0
  }
  convolution_param {
    num_output: 24
    pad: 1
    kernel_size: 3
    stride: 1
    weight_filler {
      type: "xavier"
    }
    bias_filler {
      type: "constant"
      value: 0
    }
  }
  fixed_param {
    fixed_method: DIFF_S
    bit_width: 8
  }
}
layer {
  name: "conv7_2_mbox_loc_perm"
  type: "Permute"
  bottom: "conv7_2_mbox_loc"
  top: "conv7_2_mbox_loc_perm"
  permute_param {
    order: 0
    order: 2
    order: 3
    order: 1
  }
}
layer {
  name: "conv7_2_mbox_loc_flat"
  type: "Flatten"
  bottom: "conv7_2_mbox_loc_perm"
  top: "conv7_2_mbox_loc_flat"
  flatten_param {
    axis: 1
  }
}
layer {
  name: "conv7_2_mbox_conf"
  type: "ConvolutionFixed"
  bottom: "conv7_2"
  top: "conv7_2_mbox_conf"
  param {
    lr_mult: 1
    decay_mult: 1
  }
  param {
    lr_mult: 2
    decay_mult: 0
  }
  convolution_param {
    num_output: 126
    pad: 1
    kernel_size: 3
    stride: 1
    weight_filler {
      type: "xavier"
    }
    bias_filler {
      type: "constant"
      value: 0
    }
  }
  fixed_param {
    fixed_method: DIFF_S
    bit_width: 8
  }
}
layer {
  name: "conv7_2_mbox_conf_perm"
  type: "Permute"
  bottom: "conv7_2_mbox_conf"
  top: "conv7_2_mbox_conf_perm"
  permute_param {
    order: 0
    order: 2
    order: 3
    order: 1
  }
}
layer {
  name: "conv7_2_mbox_conf_flat"
  type: "Flatten"
  bottom: "conv7_2_mbox_conf_perm"
  top: "conv7_2_mbox_conf_flat"
  flatten_param {
    axis: 1
  }
}
layer {
  name: "conv7_2_mbox_priorbox"
  type: "PriorBox"
  bottom: "conv7_2"
  bottom: "data"
  top: "conv7_2_mbox_priorbox"
  prior_box_param {
    min_size: 162
    max_size: 213
    aspect_ratio: 2
    aspect_ratio: 3
    flip: true
    clip: false
    variance: 0.1
    variance: 0.1
    variance: 0.2
    variance: 0.2
    step: 64
    offset: 0.5
  }
}
layer {
  name: "conv8_2_mbox_loc"
  type: "ConvolutionFixed"
  bottom: "conv8_2"
  top: "conv8_2_mbox_loc"
  param {
    lr_mult: 1
    decay_mult: 1
  }
  param {
    lr_mult: 2
    decay_mult: 0
  }
  convolution_param {
    num_output: 16
    pad: 1
    kernel_size: 3
    stride: 1
    weight_filler {
      type: "xavier"
    }
    bias_filler {
      type: "constant"
      value: 0
    }
  }
  fixed_param {
    fixed_method: DIFF_S
    bit_width: 8
  }
}
layer {
  name: "conv8_2_mbox_loc_perm"
  type: "Permute"
  bottom: "conv8_2_mbox_loc"
  top: "conv8_2_mbox_loc_perm"
  permute_param {
    order: 0
    order: 2
    order: 3
    order: 1
  }
}
layer {
  name: "conv8_2_mbox_loc_flat"
  type: "Flatten"
  bottom: "conv8_2_mbox_loc_perm"
  top: "conv8_2_mbox_loc_flat"
  flatten_param {
    axis: 1
  }
}
layer {
  name: "conv8_2_mbox_conf"
  type: "ConvolutionFixed"
  bottom: "conv8_2"
  top: "conv8_2_mbox_conf"
  param {
    lr_mult: 1
    decay_mult: 1
  }
  param {
    lr_mult: 2
    decay_mult: 0
  }
  convolution_param {
    num_output: 84
    pad: 1
    kernel_size: 3
    stride: 1
    weight_filler {
      type: "xavier"
    }
    bias_filler {
      type: "constant"
      value: 0
    }
  }
  fixed_param {
    fixed_method: DIFF_S
    bit_width: 8
  }
}
layer {
  name: "conv8_2_mbox_conf_perm"
  type: "Permute"
  bottom: "conv8_2_mbox_conf"
  top: "conv8_2_mbox_conf_perm"
  permute_param {
    order: 0
    order: 2
    order: 3
    order: 1
  }
}
layer {
  name: "conv8_2_mbox_conf_flat"
  type: "Flatten"
  bottom: "conv8_2_mbox_conf_perm"
  top: "conv8_2_mbox_conf_flat"
  flatten_param {
    axis: 1
  }
}
layer {
  name: "conv8_2_mbox_priorbox"
  type: "PriorBox"
  bottom: "conv8_2"
  bottom: "data"
  top: "conv8_2_mbox_priorbox"
  prior_box_param {
    min_size: 213
    max_size: 264
    aspect_ratio: 2
    flip: true
    clip: false
    variance: 0.1
    variance: 0.1
    variance: 0.2
    variance: 0.2
    step: 100
    offset: 0.5
  }
}
layer {
  name: "conv9_2_mbox_loc"
  type: "ConvolutionFixed"
  bottom: "conv9_2"
  top: "conv9_2_mbox_loc"
  param {
    lr_mult: 1
    decay_mult: 1
  }
  param {
    lr_mult: 2
    decay_mult: 0
  }
  convolution_param {
    num_output: 16
    pad: 1
    kernel_size: 3
    stride: 1
    weight_filler {
      type: "xavier"
    }
    bias_filler {
      type: "constant"
      value: 0
    }
  }
  fixed_param {
    fixed_method: DIFF_S
    bit_width: 8
  }
}
layer {
  name: "conv9_2_mbox_loc_perm"
  type: "Permute"
  bottom: "conv9_2_mbox_loc"
  top: "conv9_2_mbox_loc_perm"
  permute_param {
    order: 0
    order: 2
    order: 3
    order: 1
  }
}
layer {
  name: "conv9_2_mbox_loc_flat"
  type: "Flatten"
  bottom: "conv9_2_mbox_loc_perm"
  top: "conv9_2_mbox_loc_flat"
  flatten_param {
    axis: 1
  }
}
layer {
  name: "conv9_2_mbox_conf"
  type: "ConvolutionFixed"
  bottom: "conv9_2"
  top: "conv9_2_mbox_conf"
  param {
    lr_mult: 1
    decay_mult: 1
  }
  param {
    lr_mult: 2
    decay_mult: 0
  }
  convolution_param {
    num_output: 84
    pad: 1
    kernel_size: 3
    stride: 1
    weight_filler {
      type: "xavier"
    }
    bias_filler {
      type: "constant"
      value: 0
    }
  }
  fixed_param {
    fixed_method: DIFF_S
    bit_width: 8
  }
}
layer {
  name: "conv9_2_mbox_conf_perm"
  type: "Permute"
  bottom: "conv9_2_mbox_conf"
  top: "conv9_2_mbox_conf_perm"
  permute_param {
    order: 0
    order: 2
    order: 3
    order: 1
  }
}
layer {
  name: "conv9_2_mbox_conf_flat"
  type: "Flatten"
  bottom: "conv9_2_mbox_conf_perm"
  top: "conv9_2_mbox_conf_flat"
  flatten_param {
    axis: 1
  }
}
layer {
  name: "con
I0406 07:47:28.825471   822 layer_factory.hpp:93] Creating layer data
I0406 07:47:28.825490   822 net.cpp:110] Creating Layer data
I0406 07:47:28.825500   822 net.cpp:425] data -> data
I0406 07:47:28.825513   822 net.cpp:425] data -> label
I0406 07:47:28.825526   822 image_data_layer.cpp:57] Opening file ../calibration.txt
I0406 07:47:28.825785   822 image_data_layer.cpp:67] Shuffling data
I0406 07:47:28.825842   822 image_data_layer.cpp:72] A total of 1000 images.
I0406 07:47:28.828594   822 image_data_layer.cpp:100] output data size: 1,3,300,300
I0406 07:47:28.835142   822 internal_thread.cpp:43] Starting internal thread(s) on GPU 0
I0406 07:47:28.835331   822 net.cpp:160] Setting up data
I0406 07:47:28.835340   822 net.cpp:167] Top shape: 1 3 300 300 (270000)
I0406 07:47:28.835346   822 net.cpp:167] Top shape: 1 (1)
I0406 07:47:28.835350   822 net.cpp:175] Memory required for data: 1080004
I0406 07:47:28.835353   822 layer_factory.hpp:93] Creating layer data_fixed
I0406 07:47:28.835361   822 net.cpp:110] Creating Layer data_fixed
I0406 07:47:28.835364   822 net.cpp:451] data_fixed <- data
I0406 07:47:28.835371   822 net.cpp:412] data_fixed -> data (in-place)
I0406 07:47:28.835481   822 net.cpp:160] Setting up data_fixed
I0406 07:47:28.835487   822 net.cpp:167] Top shape: 1 3 300 300 (270000)
I0406 07:47:28.835492   822 net.cpp:175] Memory required for data: 2160004
I0406 07:47:28.835501   822 layer_factory.hpp:93] Creating layer data_data_fixed_0_split
I0406 07:47:28.835508   822 net.cpp:110] Creating Layer data_data_fixed_0_split
I0406 07:47:28.835511   822 net.cpp:451] data_data_fixed_0_split <- data
I0406 07:47:28.835517   822 net.cpp:425] data_data_fixed_0_split -> data_data_fixed_0_split_0
I0406 07:47:28.835523   822 net.cpp:425] data_data_fixed_0_split -> data_data_fixed_0_split_1
I0406 07:47:28.835530   822 net.cpp:425] data_data_fixed_0_split -> data_data_fixed_0_split_2
I0406 07:47:28.835534   822 net.cpp:425] data_data_fixed_0_split -> data_data_fixed_0_split_3
I0406 07:47:28.835539   822 net.cpp:425] data_data_fixed_0_split -> data_data_fixed_0_split_4
I0406 07:47:28.835547   822 net.cpp:425] data_data_fixed_0_split -> data_data_fixed_0_split_5
I0406 07:47:28.835556   822 net.cpp:425] data_data_fixed_0_split -> data_data_fixed_0_split_6
I0406 07:47:28.835667   822 net.cpp:160] Setting up data_data_fixed_0_split
I0406 07:47:28.835675   822 net.cpp:167] Top shape: 1 3 300 300 (270000)
I0406 07:47:28.835680   822 net.cpp:167] Top shape: 1 3 300 300 (270000)
I0406 07:47:28.835683   822 net.cpp:167] Top shape: 1 3 300 300 (270000)
I0406 07:47:28.835687   822 net.cpp:167] Top shape: 1 3 300 300 (270000)
I0406 07:47:28.835691   822 net.cpp:167] Top shape: 1 3 300 300 (270000)
I0406 07:47:28.835695   822 net.cpp:167] Top shape: 1 3 300 300 (270000)
I0406 07:47:28.835698   822 net.cpp:167] Top shape: 1 3 300 300 (270000)
I0406 07:47:28.835703   822 net.cpp:175] Memory required for data: 9720004
I0406 07:47:28.835706   822 layer_factory.hpp:93] Creating layer conv1_1
I0406 07:47:28.835716   822 net.cpp:110] Creating Layer conv1_1
I0406 07:47:28.835719   822 net.cpp:451] conv1_1 <- data_data_fixed_0_split_0
I0406 07:47:28.835726   822 net.cpp:425] conv1_1 -> conv1_1
I0406 07:47:28.835877   822 layer_factory.hpp:93] Creating layer conv1_1
I0406 07:47:28.836230   822 net.cpp:160] Setting up conv1_1
I0406 07:47:28.836238   822 net.cpp:167] Top shape: 1 64 300 300 (5760000)
I0406 07:47:28.836243   822 net.cpp:175] Memory required for data: 32760004
I0406 07:47:28.836251   822 layer_factory.hpp:93] Creating layer relu1_1
I0406 07:47:28.836257   822 net.cpp:110] Creating Layer relu1_1
I0406 07:47:28.836261   822 net.cpp:451] relu1_1 <- conv1_1
I0406 07:47:28.836264   822 net.cpp:412] relu1_1 -> conv1_1 (in-place)
I0406 07:47:28.836272   822 net.cpp:160] Setting up relu1_1
I0406 07:47:28.836274   822 net.cpp:167] Top shape: 1 64 300 300 (5760000)
I0406 07:47:28.836278   822 net.cpp:175] Memory required for data: 55800004
I0406 07:47:28.836282   822 layer_factory.hpp:93] Creating layer conv1_1_fixed
I0406 07:47:28.836287   822 net.cpp:110] Creating Layer conv1_1_fixed
I0406 07:47:28.836289   822 net.cpp:451] conv1_1_fixed <- conv1_1
I0406 07:47:28.836293   822 net.cpp:412] conv1_1_fixed -> conv1_1 (in-place)
I0406 07:47:28.836321   822 net.cpp:160] Setting up conv1_1_fixed
I0406 07:47:28.836325   822 net.cpp:167] Top shape: 1 64 300 300 (5760000)
I0406 07:47:28.836329   822 net.cpp:175] Memory required for data: 78840004
I0406 07:47:28.836334   822 layer_factory.hpp:93] Creating layer conv1_2
I0406 07:47:28.836340   822 net.cpp:110] Creating Layer conv1_2
I0406 07:47:28.836344   822 net.cpp:451] conv1_2 <- conv1_1
I0406 07:47:28.836349   822 net.cpp:425] conv1_2 -> conv1_2
I0406 07:47:28.836690   822 layer_factory.hpp:93] Creating layer conv1_2
I0406 07:47:28.837383   822 net.cpp:160] Setting up conv1_2
I0406 07:47:28.837389   822 net.cpp:167] Top shape: 1 64 300 300 (5760000)
I0406 07:47:28.837394   822 net.cpp:175] Memory required for data: 101880004
I0406 07:47:28.837401   822 layer_factory.hpp:93] Creating layer relu1_2
I0406 07:47:28.837406   822 net.cpp:110] Creating Layer relu1_2
I0406 07:47:28.837409   822 net.cpp:451] relu1_2 <- conv1_2
I0406 07:47:28.837414   822 net.cpp:412] relu1_2 -> conv1_2 (in-place)
I0406 07:47:28.837419   822 net.cpp:160] Setting up relu1_2
I0406 07:47:28.837422   822 net.cpp:167] Top shape: 1 64 300 300 (5760000)
I0406 07:47:28.837426   822 net.cpp:175] Memory required for data: 124920004
I0406 07:47:28.837430   822 layer_factory.hpp:93] Creating layer pool1
I0406 07:47:28.837435   822 net.cpp:110] Creating Layer pool1
I0406 07:47:28.837438   822 net.cpp:451] pool1 <- conv1_2
I0406 07:47:28.837442   822 net.cpp:425] pool1 -> pool1
I0406 07:47:28.837476   822 net.cpp:160] Setting up pool1
I0406 07:47:28.837482   822 net.cpp:167] Top shape: 1 64 150 150 (1440000)
I0406 07:47:28.837486   822 net.cpp:175] Memory required for data: 130680004
I0406 07:47:28.837491   822 layer_factory.hpp:93] Creating layer pool1_fixed
I0406 07:47:28.837494   822 net.cpp:110] Creating Layer pool1_fixed
I0406 07:47:28.837497   822 net.cpp:451] pool1_fixed <- pool1
I0406 07:47:28.837502   822 net.cpp:412] pool1_fixed -> pool1 (in-place)
I0406 07:47:28.837527   822 net.cpp:160] Setting up pool1_fixed
I0406 07:47:28.837533   822 net.cpp:167] Top shape: 1 64 150 150 (1440000)
I0406 07:47:28.837538   822 net.cpp:175] Memory required for data: 136440004
I0406 07:47:28.837543   822 layer_factory.hpp:93] Creating layer conv2_1
I0406 07:47:28.837548   822 net.cpp:110] Creating Layer conv2_1
I0406 07:47:28.837553   822 net.cpp:451] conv2_1 <- pool1
I0406 07:47:28.837556   822 net.cpp:425] conv2_1 -> conv2_1
I0406 07:47:28.838094   822 layer_factory.hpp:93] Creating layer conv2_1
I0406 07:47:28.838755   822 net.cpp:160] Setting up conv2_1
I0406 07:47:28.838763   822 net.cpp:167] Top shape: 1 128 150 150 (2880000)
I0406 07:47:28.838768   822 net.cpp:175] Memory required for data: 147960004
I0406 07:47:28.838774   822 layer_factory.hpp:93] Creating layer relu2_1
I0406 07:47:28.838779   822 net.cpp:110] Creating Layer relu2_1
I0406 07:47:28.838783   822 net.cpp:451] relu2_1 <- conv2_1
I0406 07:47:28.838788   822 net.cpp:412] relu2_1 -> conv2_1 (in-place)
I0406 07:47:28.838793   822 net.cpp:160] Setting up relu2_1
I0406 07:47:28.838795   822 net.cpp:167] Top shape: 1 128 150 150 (2880000)
I0406 07:47:28.838799   822 net.cpp:175] Memory required for data: 159480004
I0406 07:47:28.838802   822 layer_factory.hpp:93] Creating layer conv2_1_fixed
I0406 07:47:28.838807   822 net.cpp:110] Creating Layer conv2_1_fixed
I0406 07:47:28.838810   822 net.cpp:451] conv2_1_fixed <- conv2_1
I0406 07:47:28.838814   822 net.cpp:412] conv2_1_fixed -> conv2_1 (in-place)
I0406 07:47:28.838842   822 net.cpp:160] Setting up conv2_1_fixed
I0406 07:47:28.838847   822 net.cpp:167] Top shape: 1 128 150 150 (2880000)
I0406 07:47:28.838852   822 net.cpp:175] Memory required for data: 171000004
I0406 07:47:28.838856   822 layer_factory.hpp:93] Creating layer conv2_2
I0406 07:47:28.838862   822 net.cpp:110] Creating Layer conv2_2
I0406 07:47:28.838866   822 net.cpp:451] conv2_2 <- conv2_1
I0406 07:47:28.838871   822 net.cpp:425] conv2_2 -> conv2_2
I0406 07:47:28.839814   822 layer_factory.hpp:93] Creating layer conv2_2
I0406 07:47:28.840884   822 net.cpp:160] Setting up conv2_2
I0406 07:47:28.840893   822 net.cpp:167] Top shape: 1 128 150 150 (2880000)
I0406 07:47:28.840898   822 net.cpp:175] Memory required for data: 182520004
I0406 07:47:28.840903   822 layer_factory.hpp:93] Creating layer relu2_2
I0406 07:47:28.840907   822 net.cpp:110] Creating Layer relu2_2
I0406 07:47:28.840911   822 net.cpp:451] relu2_2 <- conv2_2
I0406 07:47:28.840915   822 net.cpp:412] relu2_2 -> conv2_2 (in-place)
I0406 07:47:28.840920   822 net.cpp:160] Setting up relu2_2
I0406 07:47:28.840924   822 net.cpp:167] Top shape: 1 128 150 150 (2880000)
I0406 07:47:28.840929   822 net.cpp:175] Memory required for data: 194040004
I0406 07:47:28.840931   822 layer_factory.hpp:93] Creating layer pool2
I0406 07:47:28.840935   822 net.cpp:110] Creating Layer pool2
I0406 07:47:28.840939   822 net.cpp:451] pool2 <- conv2_2
I0406 07:47:28.840942   822 net.cpp:425] pool2 -> pool2
I0406 07:47:28.840972   822 net.cpp:160] Setting up pool2
I0406 07:47:28.840977   822 net.cpp:167] Top shape: 1 128 75 75 (720000)
I0406 07:47:28.840982   822 net.cpp:175] Memory required for data: 196920004
I0406 07:47:28.840986   822 layer_factory.hpp:93] Creating layer pool2_fixed
I0406 07:47:28.840991   822 net.cpp:110] Creating Layer pool2_fixed
I0406 07:47:28.840993   822 net.cpp:451] pool2_fixed <- pool2
I0406 07:47:28.840998   822 net.cpp:412] pool2_fixed -> pool2 (in-place)
I0406 07:47:28.841023   822 net.cpp:160] Setting up pool2_fixed
I0406 07:47:28.841028   822 net.cpp:167] Top shape: 1 128 75 75 (720000)
I0406 07:47:28.841033   822 net.cpp:175] Memory required for data: 199800004
I0406 07:47:28.841037   822 layer_factory.hpp:93] Creating layer conv3_1
I0406 07:47:28.841043   822 net.cpp:110] Creating Layer conv3_1
I0406 07:47:28.841046   822 net.cpp:451] conv3_1 <- pool2
I0406 07:47:28.841051   822 net.cpp:425] conv3_1 -> conv3_1
I0406 07:47:28.844041   822 layer_factory.hpp:93] Creating layer conv3_1
I0406 07:47:28.847210   822 net.cpp:160] Setting up conv3_1
I0406 07:47:28.847223   822 net.cpp:167] Top shape: 1 256 75 75 (1440000)
I0406 07:47:28.847229   822 net.cpp:175] Memory required for data: 205560004
I0406 07:47:28.847234   822 layer_factory.hpp:93] Creating layer relu3_1
I0406 07:47:28.847240   822 net.cpp:110] Creating Layer relu3_1
I0406 07:47:28.847244   822 net.cpp:451] relu3_1 <- conv3_1
I0406 07:47:28.847249   822 net.cpp:412] relu3_1 -> conv3_1 (in-place)
I0406 07:47:28.847255   822 net.cpp:160] Setting up relu3_1
I0406 07:47:28.847259   822 net.cpp:167] Top shape: 1 256 75 75 (1440000)
I0406 07:47:28.847262   822 net.cpp:175] Memory required for data: 211320004
I0406 07:47:28.847265   822 layer_factory.hpp:93] Creating layer conv3_1_fixed
I0406 07:47:28.847270   822 net.cpp:110] Creating Layer conv3_1_fixed
I0406 07:47:28.847273   822 net.cpp:451] conv3_1_fixed <- conv3_1
I0406 07:47:28.847277   822 net.cpp:412] conv3_1_fixed -> conv3_1 (in-place)
I0406 07:47:28.847304   822 net.cpp:160] Setting up conv3_1_fixed
I0406 07:47:28.847313   822 net.cpp:167] Top shape: 1 256 75 75 (1440000)
I0406 07:47:28.847318   822 net.cpp:175] Memory required for data: 217080004
I0406 07:47:28.847322   822 layer_factory.hpp:93] Creating layer conv3_2
I0406 07:47:28.847329   822 net.cpp:110] Creating Layer conv3_2
I0406 07:47:28.847332   822 net.cpp:451] conv3_2 <- conv3_1
I0406 07:47:28.847337   822 net.cpp:425] conv3_2 -> conv3_2
I0406 07:47:28.852053   822 layer_factory.hpp:93] Creating layer conv3_2
I0406 07:47:28.856900   822 net.cpp:160] Setting up conv3_2
I0406 07:47:28.856912   822 net.cpp:167] Top shape: 1 256 75 75 (1440000)
I0406 07:47:28.856918   822 net.cpp:175] Memory required for data: 222840004
I0406 07:47:28.856926   822 layer_factory.hpp:93] Creating layer relu3_2
I0406 07:47:28.856932   822 net.cpp:110] Creating Layer relu3_2
I0406 07:47:28.856935   822 net.cpp:451] relu3_2 <- conv3_2
I0406 07:47:28.856940   822 net.cpp:412] relu3_2 -> conv3_2 (in-place)
I0406 07:47:28.856946   822 net.cpp:160] Setting up relu3_2
I0406 07:47:28.856950   822 net.cpp:167] Top shape: 1 256 75 75 (1440000)
I0406 07:47:28.856954   822 net.cpp:175] Memory required for data: 228600004
I0406 07:47:28.856957   822 layer_factory.hpp:93] Creating layer conv3_2_fixed
I0406 07:47:28.856962   822 net.cpp:110] Creating Layer conv3_2_fixed
I0406 07:47:28.856966   822 net.cpp:451] conv3_2_fixed <- conv3_2
I0406 07:47:28.856969   822 net.cpp:412] conv3_2_fixed -> conv3_2 (in-place)
I0406 07:47:28.856998   822 net.cpp:160] Setting up conv3_2_fixed
I0406 07:47:28.857002   822 net.cpp:167] Top shape: 1 256 75 75 (1440000)
I0406 07:47:28.857007   822 net.cpp:175] Memory required for data: 234360004
I0406 07:47:28.857010   822 layer_factory.hpp:93] Creating layer conv3_3
I0406 07:47:28.857018   822 net.cpp:110] Creating Layer conv3_3
I0406 07:47:28.857022   822 net.cpp:451] conv3_3 <- conv3_2
I0406 07:47:28.857026   822 net.cpp:425] conv3_3 -> conv3_3
I0406 07:47:28.861745   822 layer_factory.hpp:93] Creating layer conv3_3
I0406 07:47:28.866609   822 net.cpp:160] Setting up conv3_3
I0406 07:47:28.866621   822 net.cpp:167] Top shape: 1 256 75 75 (1440000)
I0406 07:47:28.866626   822 net.cpp:175] Memory required for data: 240120004
I0406 07:47:28.866633   822 layer_factory.hpp:93] Creating layer relu3_3
I0406 07:47:28.866638   822 net.cpp:110] Creating Layer relu3_3
I0406 07:47:28.866642   822 net.cpp:451] relu3_3 <- conv3_3
I0406 07:47:28.866647   822 net.cpp:412] relu3_3 -> conv3_3 (in-place)
I0406 07:47:28.866653   822 net.cpp:160] Setting up relu3_3
I0406 07:47:28.866658   822 net.cpp:167] Top shape: 1 256 75 75 (1440000)
I0406 07:47:28.866662   822 net.cpp:175] Memory required for data: 245880004
I0406 07:47:28.866665   822 layer_factory.hpp:93] Creating layer pool3
I0406 07:47:28.866670   822 net.cpp:110] Creating Layer pool3
I0406 07:47:28.866674   822 net.cpp:451] pool3 <- conv3_3
I0406 07:47:28.866678   822 net.cpp:425] pool3 -> pool3
I0406 07:47:28.866713   822 net.cpp:160] Setting up pool3
I0406 07:47:28.866724   822 net.cpp:167] Top shape: 1 256 38 38 (369664)
I0406 07:47:28.866729   822 net.cpp:175] Memory required for data: 247358660
I0406 07:47:28.866731   822 layer_factory.hpp:93] Creating layer pool3_fixed
I0406 07:47:28.866736   822 net.cpp:110] Creating Layer pool3_fixed
I0406 07:47:28.866740   822 net.cpp:451] pool3_fixed <- pool3
I0406 07:47:28.866744   822 net.cpp:412] pool3_fixed -> pool3 (in-place)
I0406 07:47:28.866771   822 net.cpp:160] Setting up pool3_fixed
I0406 07:47:28.866777   822 net.cpp:167] Top shape: 1 256 38 38 (369664)
I0406 07:47:28.866781   822 net.cpp:175] Memory required for data: 248837316
I0406 07:47:28.866786   822 layer_factory.hpp:93] Creating layer conv4_1
I0406 07:47:28.866793   822 net.cpp:110] Creating Layer conv4_1
I0406 07:47:28.866796   822 net.cpp:451] conv4_1 <- pool3
I0406 07:47:28.866802   822 net.cpp:425] conv4_1 -> conv4_1
I0406 07:47:28.875880   822 layer_factory.hpp:93] Creating layer conv4_1
I0406 07:47:28.885241   822 net.cpp:160] Setting up conv4_1
I0406 07:47:28.885251   822 net.cpp:167] Top shape: 1 512 38 38 (739328)
I0406 07:47:28.885258   822 net.cpp:175] Memory required for data: 251794628
I0406 07:47:28.885265   822 layer_factory.hpp:93] Creating layer relu4_1
I0406 07:47:28.885272   822 net.cpp:110] Creating Layer relu4_1
I0406 07:47:28.885275   822 net.cpp:451] relu4_1 <- conv4_1
I0406 07:47:28.885282   822 net.cpp:412] relu4_1 -> conv4_1 (in-place)
I0406 07:47:28.885288   822 net.cpp:160] Setting up relu4_1
I0406 07:47:28.885290   822 net.cpp:167] Top shape: 1 512 38 38 (739328)
I0406 07:47:28.885295   822 net.cpp:175] Memory required for data: 254751940
I0406 07:47:28.885298   822 layer_factory.hpp:93] Creating layer conv4_1_fixed
I0406 07:47:28.885303   822 net.cpp:110] Creating Layer conv4_1_fixed
I0406 07:47:28.885306   822 net.cpp:451] conv4_1_fixed <- conv4_1
I0406 07:47:28.885310   822 net.cpp:412] conv4_1_fixed -> conv4_1 (in-place)
I0406 07:47:28.885337   822 net.cpp:160] Setting up conv4_1_fixed
I0406 07:47:28.885341   822 net.cpp:167] Top shape: 1 512 38 38 (739328)
I0406 07:47:28.885345   822 net.cpp:175] Memory required for data: 257709252
I0406 07:47:28.885349   822 layer_factory.hpp:93] Creating layer conv4_2
I0406 07:47:28.885356   822 net.cpp:110] Creating Layer conv4_2
I0406 07:47:28.885360   822 net.cpp:451] conv4_2 <- conv4_1
I0406 07:47:28.885365   822 net.cpp:425] conv4_2 -> conv4_2
I0406 07:47:28.903261   822 layer_factory.hpp:93] Creating layer conv4_2
I0406 07:47:28.921190   822 net.cpp:160] Setting up conv4_2
I0406 07:47:28.921203   822 net.cpp:167] Top shape: 1 512 38 38 (739328)
I0406 07:47:28.921211   822 net.cpp:175] Memory required for data: 260666564
I0406 07:47:28.921222   822 layer_factory.hpp:93] Creating layer relu4_2
I0406 07:47:28.921231   822 net.cpp:110] Creating Layer relu4_2
I0406 07:47:28.921236   822 net.cpp:451] relu4_2 <- conv4_2
I0406 07:47:28.921241   822 net.cpp:412] relu4_2 -> conv4_2 (in-place)
I0406 07:47:28.921248   822 net.cpp:160] Setting up relu4_2
I0406 07:47:28.921252   822 net.cpp:167] Top shape: 1 512 38 38 (739328)
I0406 07:47:28.921257   822 net.cpp:175] Memory required for data: 263623876
I0406 07:47:28.921259   822 layer_factory.hpp:93] Creating layer conv4_2_fixed
I0406 07:47:28.921267   822 net.cpp:110] Creating Layer conv4_2_fixed
I0406 07:47:28.921270   822 net.cpp:451] conv4_2_fixed <- conv4_2
I0406 07:47:28.921275   822 net.cpp:412] conv4_2_fixed -> conv4_2 (in-place)
I0406 07:47:28.921303   822 net.cpp:160] Setting up conv4_2_fixed
I0406 07:47:28.921308   822 net.cpp:167] Top shape: 1 512 38 38 (739328)
I0406 07:47:28.921311   822 net.cpp:175] Memory required for data: 266581188
I0406 07:47:28.921316   822 layer_factory.hpp:93] Creating layer conv4_3
I0406 07:47:28.921324   822 net.cpp:110] Creating Layer conv4_3
I0406 07:47:28.921327   822 net.cpp:451] conv4_3 <- conv4_2
I0406 07:47:28.921332   822 net.cpp:425] conv4_3 -> conv4_3
I0406 07:47:28.939062   822 layer_factory.hpp:93] Creating layer conv4_3
I0406 07:47:28.956933   822 net.cpp:160] Setting up conv4_3
I0406 07:47:28.956948   822 net.cpp:167] Top shape: 1 512 38 38 (739328)
I0406 07:47:28.956956   822 net.cpp:175] Memory required for data: 269538500
I0406 07:47:28.956966   822 layer_factory.hpp:93] Creating layer relu4_3
I0406 07:47:28.956974   822 net.cpp:110] Creating Layer relu4_3
I0406 07:47:28.956979   822 net.cpp:451] relu4_3 <- conv4_3
I0406 07:47:28.956984   822 net.cpp:412] relu4_3 -> conv4_3 (in-place)
I0406 07:47:28.956992   822 net.cpp:160] Setting up relu4_3
I0406 07:47:28.956995   822 net.cpp:167] Top shape: 1 512 38 38 (739328)
I0406 07:47:28.957000   822 net.cpp:175] Memory required for data: 272495812
I0406 07:47:28.957002   822 layer_factory.hpp:93] Creating layer conv4_3_fixed
I0406 07:47:28.957008   822 net.cpp:110] Creating Layer conv4_3_fixed
I0406 07:47:28.957011   822 net.cpp:451] conv4_3_fixed <- conv4_3
I0406 07:47:28.957015   822 net.cpp:412] conv4_3_fixed -> conv4_3 (in-place)
I0406 07:47:28.957043   822 net.cpp:160] Setting up conv4_3_fixed
I0406 07:47:28.957047   822 net.cpp:167] Top shape: 1 512 38 38 (739328)
I0406 07:47:28.957051   822 net.cpp:175] Memory required for data: 275453124
I0406 07:47:28.957056   822 layer_factory.hpp:93] Creating layer conv4_3_conv4_3_fixed_0_split
I0406 07:47:28.957062   822 net.cpp:110] Creating Layer conv4_3_conv4_3_fixed_0_split
I0406 07:47:28.957065   822 net.cpp:451] conv4_3_conv4_3_fixed_0_split <- conv4_3
I0406 07:47:28.957070   822 net.cpp:425] conv4_3_conv4_3_fixed_0_split -> conv4_3_conv4_3_fixed_0_split_0
I0406 07:47:28.957077   822 net.cpp:425] conv4_3_conv4_3_fixed_0_split -> conv4_3_conv4_3_fixed_0_split_1
I0406 07:47:28.957082   822 net.cpp:425] conv4_3_conv4_3_fixed_0_split -> conv4_3_conv4_3_fixed_0_split_2
I0406 07:47:28.957087   822 net.cpp:425] conv4_3_conv4_3_fixed_0_split -> conv4_3_conv4_3_fixed_0_split_3
I0406 07:47:28.957131   822 net.cpp:160] Setting up conv4_3_conv4_3_fixed_0_split
I0406 07:47:28.957137   822 net.cpp:167] Top shape: 1 512 38 38 (739328)
I0406 07:47:28.957141   822 net.cpp:167] Top shape: 1 512 38 38 (739328)
I0406 07:47:28.957145   822 net.cpp:167] Top shape: 1 512 38 38 (739328)
I0406 07:47:28.957149   822 net.cpp:167] Top shape: 1 512 38 38 (739328)
I0406 07:47:28.957154   822 net.cpp:175] Memory required for data: 287282372
I0406 07:47:28.957156   822 layer_factory.hpp:93] Creating layer pool4
I0406 07:47:28.957162   822 net.cpp:110] Creating Layer pool4
I0406 07:47:28.957166   822 net.cpp:451] pool4 <- conv4_3_conv4_3_fixed_0_split_0
I0406 07:47:28.957171   822 net.cpp:425] pool4 -> pool4
I0406 07:47:28.957198   822 net.cpp:160] Setting up pool4
I0406 07:47:28.957206   822 net.cpp:167] Top shape: 1 512 19 19 (184832)
I0406 07:47:28.957209   822 net.cpp:175] Memory required for data: 288021700
I0406 07:47:28.957212   822 layer_factory.hpp:93] Creating layer conv5_1
I0406 07:47:28.957221   822 net.cpp:110] Creating Layer conv5_1
I0406 07:47:28.957224   822 net.cpp:451] conv5_1 <- pool4
I0406 07:47:28.957229   822 net.cpp:425] conv5_1 -> conv5_1
I0406 07:47:28.974905   822 layer_factory.hpp:93] Creating layer conv5_1
I0406 07:47:28.992794   822 net.cpp:160] Setting up conv5_1
I0406 07:47:28.992807   822 net.cpp:167] Top shape: 1 512 19 19 (184832)
I0406 07:47:28.992816   822 net.cpp:175] Memory required for data: 288761028
I0406 07:47:28.992830   822 layer_factory.hpp:93] Creating layer relu5_1
I0406 07:47:28.992837   822 net.cpp:110] Creating Layer relu5_1
I0406 07:47:28.992842   822 net.cpp:451] relu5_1 <- conv5_1
I0406 07:47:28.992848   822 net.cpp:412] relu5_1 -> conv5_1 (in-place)
I0406 07:47:28.992856   822 net.cpp:160] Setting up relu5_1
I0406 07:47:28.992859   822 net.cpp:167] Top shape: 1 512 19 19 (184832)
I0406 07:47:28.992863   822 net.cpp:175] Memory required for data: 289500356
I0406 07:47:28.992866   822 layer_factory.hpp:93] Creating layer conv5_1_fixed
I0406 07:47:28.992872   822 net.cpp:110] Creating Layer conv5_1_fixed
I0406 07:47:28.992875   822 net.cpp:451] conv5_1_fixed <- conv5_1
I0406 07:47:28.992879   822 net.cpp:412] conv5_1_fixed -> conv5_1 (in-place)
I0406 07:47:28.992908   822 net.cpp:160] Setting up conv5_1_fixed
I0406 07:47:28.992913   822 net.cpp:167] Top shape: 1 512 19 19 (184832)
I0406 07:47:28.992918   822 net.cpp:175] Memory required for data: 290239684
I0406 07:47:28.992923   822 layer_factory.hpp:93] Creating layer conv5_2
I0406 07:47:28.992930   822 net.cpp:110] Creating Layer conv5_2
I0406 07:47:28.992933   822 net.cpp:451] conv5_2 <- conv5_1
I0406 07:47:28.992939   822 net.cpp:425] conv5_2 -> conv5_2
I0406 07:47:29.010617   822 layer_factory.hpp:93] Creating layer conv5_2
I0406 07:47:29.028502   822 net.cpp:160] Setting up conv5_2
I0406 07:47:29.028515   822 net.cpp:167] Top shape: 1 512 19 19 (184832)
I0406 07:47:29.028524   822 net.cpp:175] Memory required for data: 290979012
I0406 07:47:29.028534   822 layer_factory.hpp:93] Creating layer relu5_2
I0406 07:47:29.028542   822 net.cpp:110] Creating Layer relu5_2
I0406 07:47:29.028546   822 net.cpp:451] relu5_2 <- conv5_2
I0406 07:47:29.028553   822 net.cpp:412] relu5_2 -> conv5_2 (in-place)
I0406 07:47:29.028561   822 net.cpp:160] Setting up relu5_2
I0406 07:47:29.028564   822 net.cpp:167] Top shape: 1 512 19 19 (184832)
I0406 07:47:29.028568   822 net.cpp:175] Memory required for data: 291718340
I0406 07:47:29.028571   822 layer_factory.hpp:93] Creating layer conv5_2_fixed
I0406 07:47:29.028576   822 net.cpp:110] Creating Layer conv5_2_fixed
I0406 07:47:29.028579   822 net.cpp:451] conv5_2_fixed <- conv5_2
I0406 07:47:29.028584   822 net.cpp:412] conv5_2_fixed -> conv5_2 (in-place)
I0406 07:47:29.028612   822 net.cpp:160] Setting up conv5_2_fixed
I0406 07:47:29.028617   822 net.cpp:167] Top shape: 1 512 19 19 (184832)
I0406 07:47:29.028622   822 net.cpp:175] Memory required for data: 292457668
I0406 07:47:29.028627   822 layer_factory.hpp:93] Creating layer conv5_3
I0406 07:47:29.028635   822 net.cpp:110] Creating Layer conv5_3
I0406 07:47:29.028638   822 net.cpp:451] conv5_3 <- conv5_2
I0406 07:47:29.028643   822 net.cpp:425] conv5_3 -> conv5_3
I0406 07:47:29.046311   822 layer_factory.hpp:93] Creating layer conv5_3
I0406 07:47:29.064198   822 net.cpp:160] Setting up conv5_3
I0406 07:47:29.064211   822 net.cpp:167] Top shape: 1 512 19 19 (184832)
I0406 07:47:29.064220   822 net.cpp:175] Memory required for data: 293196996
I0406 07:47:29.064230   822 layer_factory.hpp:93] Creating layer relu5_3
I0406 07:47:29.064237   822 net.cpp:110] Creating Layer relu5_3
I0406 07:47:29.064244   822 net.cpp:451] relu5_3 <- conv5_3
I0406 07:47:29.064249   822 net.cpp:412] relu5_3 -> conv5_3 (in-place)
I0406 07:47:29.064258   822 net.cpp:160] Setting up relu5_3
I0406 07:47:29.064261   822 net.cpp:167] Top shape: 1 512 19 19 (184832)
I0406 07:47:29.064265   822 net.cpp:175] Memory required for data: 293936324
I0406 07:47:29.064268   822 layer_factory.hpp:93] Creating layer pool5
I0406 07:47:29.064275   822 net.cpp:110] Creating Layer pool5
I0406 07:47:29.064277   822 net.cpp:451] pool5 <- conv5_3
I0406 07:47:29.064282   822 net.cpp:425] pool5 -> pool5
I0406 07:47:29.064316   822 net.cpp:160] Setting up pool5
I0406 07:47:29.064319   822 net.cpp:167] Top shape: 1 512 19 19 (184832)
I0406 07:47:29.064323   822 net.cpp:175] Memory required for data: 294675652
I0406 07:47:29.064327   822 layer_factory.hpp:93] Creating layer pool5_fixed
I0406 07:47:29.064332   822 net.cpp:110] Creating Layer pool5_fixed
I0406 07:47:29.064335   822 net.cpp:451] pool5_fixed <- pool5
I0406 07:47:29.064340   822 net.cpp:412] pool5_fixed -> pool5 (in-place)
I0406 07:47:29.064368   822 net.cpp:160] Setting up pool5_fixed
I0406 07:47:29.064373   822 net.cpp:167] Top shape: 1 512 19 19 (184832)
I0406 07:47:29.064378   822 net.cpp:175] Memory required for data: 295414980
I0406 07:47:29.064383   822 layer_factory.hpp:93] Creating layer fc6_682
I0406 07:47:29.064391   822 net.cpp:110] Creating Layer fc6_682
I0406 07:47:29.064395   822 net.cpp:451] fc6_682 <- pool5
I0406 07:47:29.064399   822 net.cpp:425] fc6_682 -> fc6_682
I0406 07:47:29.087899   822 layer_factory.hpp:93] Creating layer fc6_682
I0406 07:47:29.111464   822 net.cpp:160] Setting up fc6_682
I0406 07:47:29.111480   822 net.cpp:167] Top shape: 1 682 19 19 (246202)
I0406 07:47:29.111505   822 net.cpp:175] Memory required for data: 296399788
I0406 07:47:29.111516   822 layer_factory.hpp:93] Creating layer relu6
I0406 07:47:29.111523   822 net.cpp:110] Creating Layer relu6
I0406 07:47:29.111529   822 net.cpp:451] relu6 <- fc6_682
I0406 07:47:29.111536   822 net.cpp:412] relu6 -> fc6_682 (in-place)
I0406 07:47:29.111546   822 net.cpp:160] Setting up relu6
I0406 07:47:29.111549   822 net.cpp:167] Top shape: 1 682 19 19 (246202)
I0406 07:47:29.111553   822 net.cpp:175] Memory required for data: 297384596
I0406 07:47:29.111557   822 layer_factory.hpp:93] Creating layer fc6_682_fixed
I0406 07:47:29.111562   822 net.cpp:110] Creating Layer fc6_682_fixed
I0406 07:47:29.111565   822 net.cpp:451] fc6_682_fixed <- fc6_682
I0406 07:47:29.111569   822 net.cpp:412] fc6_682_fixed -> fc6_682 (in-place)
I0406 07:47:29.111599   822 net.cpp:160] Setting up fc6_682_fixed
I0406 07:47:29.111603   822 net.cpp:167] Top shape: 1 682 19 19 (246202)
I0406 07:47:29.111608   822 net.cpp:175] Memory required for data: 298369404
I0406 07:47:29.111613   822 layer_factory.hpp:93] Creating layer fc7_682
I0406 07:47:29.111620   822 net.cpp:110] Creating Layer fc7_682
I0406 07:47:29.111624   822 net.cpp:451] fc7_682 <- fc6_682
I0406 07:47:29.111629   822 net.cpp:425] fc7_682 -> fc7_682
I0406 07:47:29.117161   822 layer_factory.hpp:93] Creating layer fc7_682
I0406 07:47:29.122764   822 net.cpp:160] Setting up fc7_682
I0406 07:47:29.122776   822 net.cpp:167] Top shape: 1 1024 19 19 (369664)
I0406 07:47:29.122798   822 net.cpp:175] Memory required for data: 299848060
I0406 07:47:29.122805   822 layer_factory.hpp:93] Creating layer relu7
I0406 07:47:29.122810   822 net.cpp:110] Creating Layer relu7
I0406 07:47:29.122815   822 net.cpp:451] relu7 <- fc7_682
I0406 07:47:29.122820   822 net.cpp:412] relu7 -> fc7_682 (in-place)
I0406 07:47:29.122826   822 net.cpp:160] Setting up relu7
I0406 07:47:29.122829   822 net.cpp:167] Top shape: 1 1024 19 19 (369664)
I0406 07:47:29.122833   822 net.cpp:175] Memory required for data: 301326716
I0406 07:47:29.122836   822 layer_factory.hpp:93] Creating layer fc7_682_fixed
I0406 07:47:29.122841   822 net.cpp:110] Creating Layer fc7_682_fixed
I0406 07:47:29.122844   822 net.cpp:451] fc7_682_fixed <- fc7_682
I0406 07:47:29.122848   822 net.cpp:412] fc7_682_fixed -> fc7_682 (in-place)
I0406 07:47:29.122879   822 net.cpp:160] Setting up fc7_682_fixed
I0406 07:47:29.122882   822 net.cpp:167] Top shape: 1 1024 19 19 (369664)
I0406 07:47:29.122886   822 net.cpp:175] Memory required for data: 302805372
I0406 07:47:29.122890   822 layer_factory.hpp:93] Creating layer fc7_682_fc7_682_fixed_0_split
I0406 07:47:29.122896   822 net.cpp:110] Creating Layer fc7_682_fc7_682_fixed_0_split
I0406 07:47:29.122900   822 net.cpp:451] fc7_682_fc7_682_fixed_0_split <- fc7_682
I0406 07:47:29.122905   822 net.cpp:425] fc7_682_fc7_682_fixed_0_split -> fc7_682_fc7_682_fixed_0_split_0
I0406 07:47:29.122910   822 net.cpp:425] fc7_682_fc7_682_fixed_0_split -> fc7_682_fc7_682_fixed_0_split_1
I0406 07:47:29.122915   822 net.cpp:425] fc7_682_fc7_682_fixed_0_split -> fc7_682_fc7_682_fixed_0_split_2
I0406 07:47:29.122920   822 net.cpp:425] fc7_682_fc7_682_fixed_0_split -> fc7_682_fc7_682_fixed_0_split_3
I0406 07:47:29.122967   822 net.cpp:160] Setting up fc7_682_fc7_682_fixed_0_split
I0406 07:47:29.122972   822 net.cpp:167] Top shape: 1 1024 19 19 (369664)
I0406 07:47:29.122977   822 net.cpp:167] Top shape: 1 1024 19 19 (369664)
I0406 07:47:29.122980   822 net.cpp:167] Top shape: 1 1024 19 19 (369664)
I0406 07:47:29.122984   822 net.cpp:167] Top shape: 1 1024 19 19 (369664)
I0406 07:47:29.122988   822 net.cpp:175] Memory required for data: 308719996
I0406 07:47:29.122992   822 layer_factory.hpp:93] Creating layer conv6_1
I0406 07:47:29.122999   822 net.cpp:110] Creating Layer conv6_1
I0406 07:47:29.123003   822 net.cpp:451] conv6_1 <- fc7_682_fc7_682_fixed_0_split_0
I0406 07:47:29.123008   822 net.cpp:425] conv6_1 -> conv6_1
I0406 07:47:29.125211   822 layer_factory.hpp:93] Creating layer conv6_1
I0406 07:47:29.127519   822 net.cpp:160] Setting up conv6_1
I0406 07:47:29.127529   822 net.cpp:167] Top shape: 1 256 19 19 (92416)
I0406 07:47:29.127550   822 net.cpp:175] Memory required for data: 309089660
I0406 07:47:29.127557   822 layer_factory.hpp:93] Creating layer conv6_1_relu
I0406 07:47:29.127562   822 net.cpp:110] Creating Layer conv6_1_relu
I0406 07:47:29.127565   822 net.cpp:451] conv6_1_relu <- conv6_1
I0406 07:47:29.127570   822 net.cpp:412] conv6_1_relu -> conv6_1 (in-place)
I0406 07:47:29.127578   822 net.cpp:160] Setting up conv6_1_relu
I0406 07:47:29.127580   822 net.cpp:167] Top shape: 1 256 19 19 (92416)
I0406 07:47:29.127584   822 net.cpp:175] Memory required for data: 309459324
I0406 07:47:29.127588   822 layer_factory.hpp:93] Creating layer conv6_1_fixed
I0406 07:47:29.127593   822 net.cpp:110] Creating Layer conv6_1_fixed
I0406 07:47:29.127595   822 net.cpp:451] conv6_1_fixed <- conv6_1
I0406 07:47:29.127599   822 net.cpp:412] conv6_1_fixed -> conv6_1 (in-place)
I0406 07:47:29.127629   822 net.cpp:160] Setting up conv6_1_fixed
I0406 07:47:29.127635   822 net.cpp:167] Top shape: 1 256 19 19 (92416)
I0406 07:47:29.127640   822 net.cpp:175] Memory required for data: 309828988
I0406 07:47:29.127645   822 layer_factory.hpp:93] Creating layer conv6_2
I0406 07:47:29.127651   822 net.cpp:110] Creating Layer conv6_2
I0406 07:47:29.127655   822 net.cpp:451] conv6_2 <- conv6_1
I0406 07:47:29.127660   822 net.cpp:425] conv6_2 -> conv6_2
I0406 07:47:29.136538   822 layer_factory.hpp:93] Creating layer conv6_2
I0406 07:47:29.145586   822 net.cpp:160] Setting up conv6_2
I0406 07:47:29.145597   822 net.cpp:167] Top shape: 1 512 10 10 (51200)
I0406 07:47:29.145618   822 net.cpp:175] Memory required for data: 310033788
I0406 07:47:29.145625   822 layer_factory.hpp:93] Creating layer conv6_2_relu
I0406 07:47:29.145632   822 net.cpp:110] Creating Layer conv6_2_relu
I0406 07:47:29.145635   822 net.cpp:451] conv6_2_relu <- conv6_2
I0406 07:47:29.145640   822 net.cpp:412] conv6_2_relu -> conv6_2 (in-place)
I0406 07:47:29.145646   822 net.cpp:160] Setting up conv6_2_relu
I0406 07:47:29.145649   822 net.cpp:167] Top shape: 1 512 10 10 (51200)
I0406 07:47:29.145654   822 net.cpp:175] Memory required for data: 310238588
I0406 07:47:29.145658   822 layer_factory.hpp:93] Creating layer conv6_2_fixed
I0406 07:47:29.145661   822 net.cpp:110] Creating Layer conv6_2_fixed
I0406 07:47:29.145665   822 net.cpp:451] conv6_2_fixed <- conv6_2
I0406 07:47:29.145669   822 net.cpp:412] conv6_2_fixed -> conv6_2 (in-place)
I0406 07:47:29.145699   822 net.cpp:160] Setting up conv6_2_fixed
I0406 07:47:29.145701   822 net.cpp:167] Top shape: 1 512 10 10 (51200)
I0406 07:47:29.145706   822 net.cpp:175] Memory required for data: 310443388
I0406 07:47:29.145710   822 layer_factory.hpp:93] Creating layer conv6_2_conv6_2_fixed_0_split
I0406 07:47:29.145716   822 net.cpp:110] Creating Layer conv6_2_conv6_2_fixed_0_split
I0406 07:47:29.145720   822 net.cpp:451] conv6_2_conv6_2_fixed_0_split <- conv6_2
I0406 07:47:29.145725   822 net.cpp:425] conv6_2_conv6_2_fixed_0_split -> conv6_2_conv6_2_fixed_0_split_0
I0406 07:47:29.145730   822 net.cpp:425] conv6_2_conv6_2_fixed_0_split -> conv6_2_conv6_2_fixed_0_split_1
I0406 07:47:29.145735   822 net.cpp:425] conv6_2_conv6_2_fixed_0_split -> conv6_2_conv6_2_fixed_0_split_2
I0406 07:47:29.145740   822 net.cpp:425] conv6_2_conv6_2_fixed_0_split -> conv6_2_conv6_2_fixed_0_split_3
I0406 07:47:29.145787   822 net.cpp:160] Setting up conv6_2_conv6_2_fixed_0_split
I0406 07:47:29.145792   822 net.cpp:167] Top shape: 1 512 10 10 (51200)
I0406 07:47:29.145797   822 net.cpp:167] Top shape: 1 512 10 10 (51200)
I0406 07:47:29.145800   822 net.cpp:167] Top shape: 1 512 10 10 (51200)
I0406 07:47:29.145804   822 net.cpp:167] Top shape: 1 512 10 10 (51200)
I0406 07:47:29.145808   822 net.cpp:175] Memory required for data: 311262588
I0406 07:47:29.145812   822 layer_factory.hpp:93] Creating layer conv7_1
I0406 07:47:29.145818   822 net.cpp:110] Creating Layer conv7_1
I0406 07:47:29.145823   822 net.cpp:451] conv7_1 <- conv6_2_conv6_2_fixed_0_split_0
I0406 07:47:29.145828   822 net.cpp:425] conv7_1 -> conv7_1
I0406 07:47:29.146371   822 layer_factory.hpp:93] Creating layer conv7_1
I0406 07:47:29.147022   822 net.cpp:160] Setting up conv7_1
I0406 07:47:29.147030   822 net.cpp:167] Top shape: 1 128 10 10 (12800)
I0406 07:47:29.147035   822 net.cpp:175] Memory required for data: 311313788
I0406 07:47:29.147042   822 layer_factory.hpp:93] Creating layer conv7_1_relu
I0406 07:47:29.147047   822 net.cpp:110] Creating Layer conv7_1_relu
I0406 07:47:29.147049   822 net.cpp:451] conv7_1_relu <- conv7_1
…
I0406 07:48:05.768959   822 net.cpp:425] fc7_682_fc7_682_fixed_0_split -> fc7_682_fc7_682_fixed_0_split_0
I0406 07:48:05.768965   822 net.cpp:425] fc7_682_fc7_682_fixed_0_split -> fc7_682_fc7_682_fixed_0_split_1
I0406 07:48:05.768970   822 net.cpp:425] fc7_682_fc7_682_fixed_0_split -> fc7_682_fc7_682_fixed_0_split_2
I0406 07:48:05.768975   822 net.cpp:425] fc7_682_fc7_682_fixed_0_split -> fc7_682_fc7_682_fixed_0_split_3
I0406 07:48:05.769022   822 net.cpp:160] Setting up fc7_682_fc7_682_fixed_0_split
I0406 07:48:05.769027   822 net.cpp:167] Top shape: 1 1024 19 19 (369664)
I0406 07:48:05.769032   822 net.cpp:167] Top shape: 1 1024 19 19 (369664)
I0406 07:48:05.769037   822 net.cpp:167] Top shape: 1 1024 19 19 (369664)
I0406 07:48:05.769039   822 net.cpp:167] Top shape: 1 1024 19 19 (369664)
I0406 07:48:05.769043   822 net.cpp:175] Memory required for data: 308720056
I0406 07:48:05.769047   822 layer_factory.hpp:93] Creating layer conv6_1
I0406 07:48:05.769055   822 net.cpp:110] Creating Layer conv6_1
I0406 07:48:05.769059   822 net.cpp:451] conv6_1 <- fc7_682_fc7_682_fixed_0_split_0
I0406 07:48:05.769065   822 net.cpp:425] conv6_1 -> conv6_1
I0406 07:48:05.771252   822 layer_factory.hpp:93] Creating layer conv6_1
I0406 07:48:05.773566   822 net.cpp:160] Setting up conv6_1
I0406 07:48:05.773576   822 net.cpp:167] Top shape: 1 256 19 19 (92416)
I0406 07:48:05.773581   822 net.cpp:175] Memory required for data: 309089720
I0406 07:48:05.773587   822 layer_factory.hpp:93] Creating layer conv6_1_relu
I0406 07:48:05.773592   822 net.cpp:110] Creating Layer conv6_1_relu
I0406 07:48:05.773597   822 net.cpp:451] conv6_1_relu <- conv6_1
I0406 07:48:05.773602   822 net.cpp:412] conv6_1_relu -> conv6_1 (in-place)
I0406 07:48:05.773608   822 net.cpp:160] Setting up conv6_1_relu
I0406 07:48:05.773612   822 net.cpp:167] Top shape: 1 256 19 19 (92416)
I0406 07:48:05.773617   822 net.cpp:175] Memory required for data: 309459384
I0406 07:48:05.773620   822 layer_factory.hpp:93] Creating layer conv6_1_fixed
I0406 07:48:05.773624   822 net.cpp:110] Creating Layer conv6_1_fixed
I0406 07:48:05.773627   822 net.cpp:451] conv6_1_fixed <- conv6_1
I0406 07:48:05.773633   822 net.cpp:412] conv6_1_fixed -> conv6_1 (in-place)
I0406 07:48:05.773663   822 net.cpp:160] Setting up conv6_1_fixed
I0406 07:48:05.773667   822 net.cpp:167] Top shape: 1 256 19 19 (92416)
I0406 07:48:05.773671   822 net.cpp:175] Memory required for data: 309829048
I0406 07:48:05.773675   822 layer_factory.hpp:93] Creating layer conv6_2
I0406 07:48:05.773682   822 net.cpp:110] Creating Layer conv6_2
I0406 07:48:05.773686   822 net.cpp:451] conv6_2 <- conv6_1
I0406 07:48:05.773690   822 net.cpp:425] conv6_2 -> conv6_2
I0406 07:48:05.782737   822 layer_factory.hpp:93] Creating layer conv6_2
I0406 07:48:05.792456   822 net.cpp:160] Setting up conv6_2
I0406 07:48:05.792470   822 net.cpp:167] Top shape: 1 512 10 10 (51200)
I0406 07:48:05.792477   822 net.cpp:175] Memory required for data: 310033848
I0406 07:48:05.792486   822 layer_factory.hpp:93] Creating layer conv6_2_relu
I0406 07:48:05.792493   822 net.cpp:110] Creating Layer conv6_2_relu
I0406 07:48:05.792498   822 net.cpp:451] conv6_2_relu <- conv6_2
I0406 07:48:05.792503   822 net.cpp:412] conv6_2_relu -> conv6_2 (in-place)
I0406 07:48:05.792510   822 net.cpp:160] Setting up conv6_2_relu
I0406 07:48:05.792515   822 net.cpp:167] Top shape: 1 512 10 10 (51200)
I0406 07:48:05.792518   822 net.cpp:175] Memory required for data: 310238648
I0406 07:48:05.792521   822 layer_factory.hpp:93] Creating layer conv6_2_fixed
I0406 07:48:05.792527   822 net.cpp:110] Creating Layer conv6_2_fixed
I0406 07:48:05.792531   822 net.cpp:451] conv6_2_fixed <- conv6_2
I0406 07:48:05.792534   822 net.cpp:412] conv6_2_fixed -> conv6_2 (in-place)
I0406 07:48:05.792564   822 net.cpp:160] Setting up conv6_2_fixed
I0406 07:48:05.792574   822 net.cpp:167] Top shape: 1 512 10 10 (51200)
I0406 07:48:05.792579   822 net.cpp:175] Memory required for data: 310443448
I0406 07:48:05.792587   822 layer_factory.hpp:93] Creating layer conv6_2_conv6_2_fixed_0_split
I0406 07:48:05.792594   822 net.cpp:110] Creating Layer conv6_2_conv6_2_fixed_0_split
I0406 07:48:05.792598   822 net.cpp:451] conv6_2_conv6_2_fixed_0_split <- conv6_2
I0406 07:48:05.792605   822 net.cpp:425] conv6_2_conv6_2_fixed_0_split -> conv6_2_conv6_2_fixed_0_split_0
I0406 07:48:05.792614   822 net.cpp:425] conv6_2_conv6_2_fixed_0_split -> conv6_2_conv6_2_fixed_0_split_1
I0406 07:48:05.792623   822 net.cpp:425] conv6_2_conv6_2_fixed_0_split -> conv6_2_conv6_2_fixed_0_split_2
I0406 07:48:05.792630   822 net.cpp:425] conv6_2_conv6_2_fixed_0_split -> conv6_2_conv6_2_fixed_0_split_3
I0406 07:48:05.792680   822 net.cpp:160] Setting up conv6_2_conv6_2_fixed_0_split
I0406 07:48:05.792686   822 net.cpp:167] Top shape: 1 512 10 10 (51200)
I0406 07:48:05.792691   822 net.cpp:167] Top shape: 1 512 10 10 (51200)
I0406 07:48:05.792695   822 net.cpp:167] Top shape: 1 512 10 10 (51200)
I0406 07:48:05.792699   822 net.cpp:167] Top shape: 1 512 10 10 (51200)
I0406 07:48:05.792703   822 net.cpp:175] Memory required for data: 311262648
I0406 07:48:05.792706   822 layer_factory.hpp:93] Creating layer conv7_1
I0406 07:48:05.792714   822 net.cpp:110] Creating Layer conv7_1
I0406 07:48:05.792718   822 net.cpp:451] conv7_1 <- conv6_2_conv6_2_fixed_0_split_0
I0406 07:48:05.792724   822 net.cpp:425] conv7_1 -> conv7_1
I0406 07:48:05.793243   822 layer_factory.hpp:93] Creating layer conv7_1
I0406 07:48:05.793879   822 net.cpp:160] Setting up conv7_1
I0406 07:48:05.793886   822 net.cpp:167] Top shape: 1 128 10 10 (12800)
I0406 07:48:05.793891   822 net.cpp:175] Memory required for data: 311313848
I0406 07:48:05.793897   822 layer_factory.hpp:93] Creating layer conv7_1_relu
I0406 07:48:05.793902   822 net.cpp:110] Creating Layer conv7_1_relu
I0406 07:48:05.793906   822 net.cpp:451] conv7_1_relu <- conv7_1
I0406 07:48:05.793910   822 net.cpp:412] conv7_1_relu -> conv7_1 (in-place)
I0406 07:48:05.793916   822 net.cpp:160] Setting up conv7_1_relu
I0406 07:48:05.793920   822 net.cpp:167] Top shape: 1 128 10 10 (12800)
I0406 07:48:05.793923   822 net.cpp:175] Memory required for data: 311365048
I0406 07:48:05.793927   822 layer_factory.hpp:93] Creating layer conv7_1_fixed
I0406 07:48:05.793936   822 net.cpp:110] Creating Layer conv7_1_fixed
I0406 07:48:05.793938   822 net.cpp:451] conv7_1_fixed <- conv7_1
I0406 07:48:05.793943   822 net.cpp:412] conv7_1_fixed -> conv7_1 (in-place)
I0406 07:48:05.793972   822 net.cpp:160] Setting up conv7_1_fixed
I0406 07:48:05.793975   822 net.cpp:167] Top shape: 1 128 10 10 (12800)
I0406 07:48:05.793980   822 net.cpp:175] Memory required for data: 311416248
I0406 07:48:05.793984   822 layer_factory.hpp:93] Creating layer conv7_2
I0406 07:48:05.793992   822 net.cpp:110] Creating Layer conv7_2
I0406 07:48:05.793994   822 net.cpp:451] conv7_2 <- conv7_1
I0406 07:48:05.793999   822 net.cpp:425] conv7_2 -> conv7_2
I0406 07:48:05.796994   822 layer_factory.hpp:93] Creating layer conv7_2
I0406 07:48:05.800088   822 net.cpp:160] Setting up conv7_2
I0406 07:48:05.800098   822 net.cpp:167] Top shape: 1 256 5 5 (6400)
I0406 07:48:05.800104   822 net.cpp:175] Memory required for data: 311441848
I0406 07:48:05.800112   822 layer_factory.hpp:93] Creating layer conv7_2_relu
I0406 07:48:05.800117   822 net.cpp:110] Creating Layer conv7_2_relu
I0406 07:48:05.800120   822 net.cpp:451] conv7_2_relu <- conv7_2
I0406 07:48:05.800125   822 net.cpp:412] conv7_2_relu -> conv7_2 (in-place)
I0406 07:48:05.800132   822 net.cpp:160] Setting up conv7_2_relu
I0406 07:48:05.800137   822 net.cpp:167] Top shape: 1 256 5 5 (6400)
I0406 07:48:05.800140   822 net.cpp:175] Memory required for data: 311467448
I0406 07:48:05.800143   822 layer_factory.hpp:93] Creating layer conv7_2_fixed
I0406 07:48:05.800148   822 net.cpp:110] Creating Layer conv7_2_fixed
I0406 07:48:05.800151   822 net.cpp:451] conv7_2_fixed <- conv7_2
I0406 07:48:05.800155   822 net.cpp:412] conv7_2_fixed -> conv7_2 (in-place)
I0406 07:48:05.800190   822 net.cpp:160] Setting up conv7_2_fixed
I0406 07:48:05.800195   822 net.cpp:167] Top shape: 1 256 5 5 (6400)
I0406 07:48:05.800199   822 net.cpp:175] Memory required for data: 311493048
I0406 07:48:05.800204   822 layer_factory.hpp:93] Creating layer conv7_2_conv7_2_fixed_0_split
I0406 07:48:05.800210   822 net.cpp:110] Creating Layer conv7_2_conv7_2_fixed_0_split
I0406 07:48:05.800213   822 net.cpp:451] conv7_2_conv7_2_fixed_0_split <- conv7_2
I0406 07:48:05.800218   822 net.cpp:425] conv7_2_conv7_2_fixed_0_split -> conv7_2_conv7_2_fixed_0_split_0
I0406 07:48:05.800225   822 net.cpp:425] conv7_2_conv7_2_fixed_0_split -> conv7_2_conv7_2_fixed_0_split_1
I0406 07:48:05.800230   822 net.cpp:425] conv7_2_conv7_2_fixed_0_split -> conv7_2_conv7_2_fixed_0_split_2
I0406 07:48:05.800235   822 net.cpp:425] conv7_2_conv7_2_fixed_0_split -> conv7_2_conv7_2_fixed_0_split_3
I0406 07:48:05.800280   822 net.cpp:160] Setting up conv7_2_conv7_2_fixed_0_split
I0406 07:48:05.800287   822 net.cpp:167] Top shape: 1 256 5 5 (6400)
I0406 07:48:05.800290   822 net.cpp:167] Top shape: 1 256 5 5 (6400)
I0406 07:48:05.800294   822 net.cpp:167] Top shape: 1 256 5 5 (6400)
I0406 07:48:05.800298   822 net.cpp:167] Top shape: 1 256 5 5 (6400)
I0406 07:48:05.800303   822 net.cpp:175] Memory required for data: 311595448
I0406 07:48:05.800307   822 layer_factory.hpp:93] Creating layer conv8_1
I0406 07:48:05.800314   822 net.cpp:110] Creating Layer conv8_1
I0406 07:48:05.800318   822 net.cpp:451] conv8_1 <- conv7_2_conv7_2_fixed_0_split_0
I0406 07:48:05.800323   822 net.cpp:425] conv8_1 -> conv8_1
I0406 07:48:05.800653   822 layer_factory.hpp:93] Creating layer conv8_1
I0406 07:48:05.801096   822 net.cpp:160] Setting up conv8_1
I0406 07:48:05.801103   822 net.cpp:167] Top shape: 1 128 5 5 (3200)
I0406 07:48:05.801108   822 net.cpp:175] Memory required for data: 311608248
I0406 07:48:05.801115   822 layer_factory.hpp:93] Creating layer conv8_1_relu
I0406 07:48:05.801120   822 net.cpp:110] Creating Layer conv8_1_relu
I0406 07:48:05.801123   822 net.cpp:451] conv8_1_relu <- conv8_1
I0406 07:48:05.801127   822 net.cpp:412] conv8_1_relu -> conv8_1 (in-place)
I0406 07:48:05.801133   822 net.cpp:160] Setting up conv8_1_relu
I0406 07:48:05.801136   822 net.cpp:167] Top shape: 1 128 5 5 (3200)
I0406 07:48:05.801141   822 net.cpp:175] Memory required for data: 311621048
I0406 07:48:05.801143   822 layer_factory.hpp:93] Creating layer conv8_1_fixed
I0406 07:48:05.801148   822 net.cpp:110] Creating Layer conv8_1_fixed
I0406 07:48:05.801151   822 net.cpp:451] conv8_1_fixed <- conv8_1
I0406 07:48:05.801156   822 net.cpp:412] conv8_1_fixed -> conv8_1 (in-place)
I0406 07:48:05.801182   822 net.cpp:160] Setting up conv8_1_fixed
I0406 07:48:05.801187   822 net.cpp:167] Top shape: 1 128 5 5 (3200)
I0406 07:48:05.801192   822 net.cpp:175] Memory required for data: 311633848
I0406 07:48:05.801195   822 layer_factory.hpp:93] Creating layer conv8_2
I0406 07:48:05.801203   822 net.cpp:110] Creating Layer conv8_2
I0406 07:48:05.801206   822 net.cpp:451] conv8_2 <- conv8_1
I0406 07:48:05.801211   822 net.cpp:425] conv8_2 -> conv8_2
I0406 07:48:05.804244   822 layer_factory.hpp:93] Creating layer conv8_2
I0406 07:48:05.807397   822 net.cpp:160] Setting up conv8_2
I0406 07:48:05.807408   822 net.cpp:167] Top shape: 1 256 3 3 (2304)
I0406 07:48:05.807416   822 net.cpp:175] Memory required for data: 311643064
I0406 07:48:05.807425   822 layer_factory.hpp:93] Creating layer conv8_2_relu
I0406 07:48:05.807432   822 net.cpp:110] Creating Layer conv8_2_relu
I0406 07:48:05.807440   822 net.cpp:451] conv8_2_relu <- conv8_2
I0406 07:48:05.807448   822 net.cpp:412] conv8_2_relu -> conv8_2 (in-place)
I0406 07:48:05.807458   822 net.cpp:160] Setting up conv8_2_relu
I0406 07:48:05.807462   822 net.cpp:167] Top shape: 1 256 3 3 (2304)
I0406 07:48:05.807468   822 net.cpp:175] Memory required for data: 311652280
I0406 07:48:05.807473   822 layer_factory.hpp:93] Creating layer conv8_2_fixed
I0406 07:48:05.807480   822 net.cpp:110] Creating Layer conv8_2_fixed
I0406 07:48:05.807485   822 net.cpp:451] conv8_2_fixed <- conv8_2
I0406 07:48:05.807492   822 net.cpp:412] conv8_2_fixed -> conv8_2 (in-place)
I0406 07:48:05.807528   822 net.cpp:160] Setting up conv8_2_fixed
I0406 07:48:05.807533   822 net.cpp:167] Top shape: 1 256 3 3 (2304)
I0406 07:48:05.807538   822 net.cpp:175] Memory required for data: 311661496
I0406 07:48:05.807543   822 layer_factory.hpp:93] Creating layer conv8_2_conv8_2_fixed_0_split
I0406 07:48:05.807549   822 net.cpp:110] Creating Layer conv8_2_conv8_2_fixed_0_split
I0406 07:48:05.807552   822 net.cpp:451] conv8_2_conv8_2_fixed_0_split <- conv8_2
I0406 07:48:05.807559   822 net.cpp:425] conv8_2_conv8_2_fixed_0_split -> conv8_2_conv8_2_fixed_0_split_0
I0406 07:48:05.807564   822 net.cpp:425] conv8_2_conv8_2_fixed_0_split -> conv8_2_conv8_2_fixed_0_split_1
I0406 07:48:05.807569   822 net.cpp:425] conv8_2_conv8_2_fixed_0_split -> conv8_2_conv8_2_fixed_0_split_2
I0406 07:48:05.807574   822 net.cpp:425] conv8_2_conv8_2_fixed_0_split -> conv8_2_conv8_2_fixed_0_split_3
I0406 07:48:05.807622   822 net.cpp:160] Setting up conv8_2_conv8_2_fixed_0_split
I0406 07:48:05.807627   822 net.cpp:167] Top shape: 1 256 3 3 (2304)
I0406 07:48:05.807632   822 net.cpp:167] Top shape: 1 256 3 3 (2304)
I0406 07:48:05.807636   822 net.cpp:167] Top shape: 1 256 3 3 (2304)
I0406 07:48:05.807639   822 net.cpp:167] Top shape: 1 256 3 3 (2304)
I0406 07:48:05.807643   822 net.cpp:175] Memory required for data: 311698360
I0406 07:48:05.807646   822 layer_factory.hpp:93] Creating layer conv9_1
I0406 07:48:05.807655   822 net.cpp:110] Creating Layer conv9_1
I0406 07:48:05.807659   822 net.cpp:451] conv9_1 <- conv8_2_conv8_2_fixed_0_split_0
I0406 07:48:05.807664   822 net.cpp:425] conv9_1 -> conv9_1
I0406 07:48:05.808003   822 layer_factory.hpp:93] Creating layer conv9_1
I0406 07:48:05.808449   822 net.cpp:160] Setting up conv9_1
I0406 07:48:05.808456   822 net.cpp:167] Top shape: 1 128 3 3 (1152)
I0406 07:48:05.808461   822 net.cpp:175] Memory required for data: 311702968
I0406 07:48:05.808472   822 layer_factory.hpp:93] Creating layer conv9_1_relu
I0406 07:48:05.808476   822 net.cpp:110] Creating Layer conv9_1_relu
I0406 07:48:05.808480   822 net.cpp:451] conv9_1_relu <- conv9_1
I0406 07:48:05.808485   822 net.cpp:412] conv9_1_relu -> conv9_1 (in-place)
I0406 07:48:05.808490   822 net.cpp:160] Setting up conv9_1_relu
I0406 07:48:05.808493   822 net.cpp:167] Top shape: 1 128 3 3 (1152)
I0406 07:48:05.808498   822 net.cpp:175] Memory required for data: 311707576
I0406 07:48:05.808501   822 layer_factory.hpp:93] Creating layer conv9_1_fixed
I0406 07:48:05.808506   822 net.cpp:110] Creating Layer conv9_1_fixed
I0406 07:48:05.808511   822 net.cpp:451] conv9_1_fixed <- conv9_1
I0406 07:48:05.808514   822 net.cpp:412] conv9_1_fixed -> conv9_1 (in-place)
I0406 07:48:05.808542   822 net.cpp:160] Setting up conv9_1_fixed
I0406 07:48:05.808547   822 net.cpp:167] Top shape: 1 128 3 3 (1152)
I0406 07:48:05.808550   822 net.cpp:175] Memory required for data: 311712184
I0406 07:48:05.808554   822 layer_factory.hpp:93] Creating layer conv9_2
I0406 07:48:05.808562   822 net.cpp:110] Creating Layer conv9_2
I0406 07:48:05.808564   822 net.cpp:451] conv9_2 <- conv9_1
I0406 07:48:05.808569   822 net.cpp:425] conv9_2 -> conv9_2
I0406 07:48:05.811565   822 layer_factory.hpp:93] Creating layer conv9_2
I0406 07:48:05.814664   822 net.cpp:160] Setting up conv9_2
I0406 07:48:05.814676   822 net.cpp:167] Top shape: 1 256 1 1 (256)
I0406 07:48:05.814680   822 net.cpp:175] Memory required for data: 311713208
I0406 07:48:05.814687   822 layer_factory.hpp:93] Creating layer conv9_2_relu
I0406 07:48:05.814692   822 net.cpp:110] Creating Layer conv9_2_relu
I0406 07:48:05.814697   822 net.cpp:451] conv9_2_relu <- conv9_2
I0406 07:48:05.814702   822 net.cpp:412] conv9_2_relu -> conv9_2 (in-place)
I0406 07:48:05.814707   822 net.cpp:160] Setting up conv9_2_relu
I0406 07:48:05.814710   822 net.cpp:167] Top shape: 1 256 1 1 (256)
I0406 07:48:05.814714   822 net.cpp:175] Memory required for data: 311714232
I0406 07:48:05.814718   822 layer_factory.hpp:93] Creating layer conv9_2_fixed
I0406 07:48:05.814723   822 net.cpp:110] Creating Layer conv9_2_fixed
I0406 07:48:05.814726   822 net.cpp:451] conv9_2_fixed <- conv9_2
I0406 07:48:05.814730   822 net.cpp:412] conv9_2_fixed -> conv9_2 (in-place)
I0406 07:48:05.814759   822 net.cpp:160] Setting up conv9_2_fixed
I0406 07:48:05.814762   822 net.cpp:167] Top shape: 1 256 1 1 (256)
I0406 07:48:05.814766   822 net.cpp:175] Memory required for data: 311715256
I0406 07:48:05.814771   822 layer_factory.hpp:93] Creating layer conv9_2_conv9_2_fixed_0_split
I0406 07:48:05.814776   822 net.cpp:110] Creating Layer conv9_2_conv9_2_fixed_0_split
I0406 07:48:05.814779   822 net.cpp:451] conv9_2_conv9_2_fixed_0_split <- conv9_2
I0406 07:48:05.814785   822 net.cpp:425] conv9_2_conv9_2_fixed_0_split -> conv9_2_conv9_2_fixed_0_split_0
I0406 07:48:05.814790   822 net.cpp:425] conv9_2_conv9_2_fixed_0_split -> conv9_2_conv9_2_fixed_0_split_1
I0406 07:48:05.814795   822 net.cpp:425] conv9_2_conv9_2_fixed_0_split -> conv9_2_conv9_2_fixed_0_split_2
I0406 07:48:05.814832   822 net.cpp:160] Setting up conv9_2_conv9_2_fixed_0_split
I0406 07:48:05.814837   822 net.cpp:167] Top shape: 1 256 1 1 (256)
I0406 07:48:05.814842   822 net.cpp:167] Top shape: 1 256 1 1 (256)
I0406 07:48:05.814846   822 net.cpp:167] Top shape: 1 256 1 1 (256)
I0406 07:48:05.814851   822 net.cpp:175] Memory required for data: 311718328
I0406 07:48:05.814853   822 layer_factory.hpp:93] Creating layer conv4_3_norm_mbox_loc
I0406 07:48:05.814862   822 net.cpp:110] Creating Layer conv4_3_norm_mbox_loc
I0406 07:48:05.814865   822 net.cpp:451] conv4_3_norm_mbox_loc <- conv4_3_conv4_3_fixed_0_split_1
I0406 07:48:05.814872   822 net.cpp:425] conv4_3_norm_mbox_loc -> conv4_3_norm_mbox_loc
I0406 07:48:05.815446   822 layer_factory.hpp:93] Creating layer conv4_3_norm_mbox_loc
I0406 07:48:05.816143   822 net.cpp:160] Setting up conv4_3_norm_mbox_loc
I0406 07:48:05.816150   822 net.cpp:167] Top shape: 1 16 38 38 (23104)
I0406 07:48:05.816155   822 net.cpp:175] Memory required for data: 311810744
I0406 07:48:05.816161   822 layer_factory.hpp:93] Creating layer conv4_3_norm_mbox_loc_perm
I0406 07:48:05.816167   822 net.cpp:110] Creating Layer conv4_3_norm_mbox_loc_perm
I0406 07:48:05.816171   822 net.cpp:451] conv4_3_norm_mbox_loc_perm <- conv4_3_norm_mbox_loc
I0406 07:48:05.816176   822 net.cpp:425] conv4_3_norm_mbox_loc_perm -> conv4_3_norm_mbox_loc_perm
I0406 07:48:05.816269   822 net.cpp:160] Setting up conv4_3_norm_mbox_loc_perm
I0406 07:48:05.816275   822 net.cpp:167] Top shape: 1 38 38 16 (23104)
I0406 07:48:05.816280   822 net.cpp:175] Memory required for data: 311903160
I0406 07:48:05.816284   822 layer_factory.hpp:93] Creating layer conv4_3_norm_mbox_loc_flat
I0406 07:48:05.816289   822 net.cpp:110] Creating Layer conv4_3_norm_mbox_loc_flat
I0406 07:48:05.816293   822 net.cpp:451] conv4_3_norm_mbox_loc_flat <- conv4_3_norm_mbox_loc_perm
I0406 07:48:05.816298   822 net.cpp:425] conv4_3_norm_mbox_loc_flat -> conv4_3_norm_mbox_loc_flat
I0406 07:48:05.816318   822 net.cpp:160] Setting up conv4_3_norm_mbox_loc_flat
I0406 07:48:05.816320   822 net.cpp:167] Top shape: 1 23104 (23104)
I0406 07:48:05.816324   822 net.cpp:175] Memory required for data: 311995576
I0406 07:48:05.816329   822 layer_factory.hpp:93] Creating layer conv4_3_norm_mbox_conf
I0406 07:48:05.816335   822 net.cpp:110] Creating Layer conv4_3_norm_mbox_conf
I0406 07:48:05.816339   822 net.cpp:451] conv4_3_norm_mbox_conf <- conv4_3_conv4_3_fixed_0_split_2
I0406 07:48:05.816344   822 net.cpp:425] conv4_3_norm_mbox_conf -> conv4_3_norm_mbox_conf
I0406 07:48:05.819841   822 layer_factory.hpp:93] Creating layer conv4_3_norm_mbox_conf
I0406 07:48:05.823484   822 net.cpp:160] Setting up conv4_3_norm_mbox_conf
I0406 07:48:05.823496   822 net.cpp:167] Top shape: 1 84 38 38 (121296)
I0406 07:48:05.823503   822 net.cpp:175] Memory required for data: 312480760
I0406 07:48:05.823510   822 layer_factory.hpp:93] Creating layer conv4_3_norm_mbox_conf_perm
I0406 07:48:05.823518   822 net.cpp:110] Creating Layer conv4_3_norm_mbox_conf_perm
I0406 07:48:05.823523   822 net.cpp:451] conv4_3_norm_mbox_conf_perm <- conv4_3_norm_mbox_conf
I0406 07:48:05.823529   822 net.cpp:425] conv4_3_norm_mbox_conf_perm -> conv4_3_norm_mbox_conf_perm
I0406 07:48:05.823616   822 net.cpp:160] Setting up conv4_3_norm_mbox_conf_perm
I0406 07:48:05.823621   822 net.cpp:167] Top shape: 1 38 38 84 (121296)
I0406 07:48:05.823627   822 net.cpp:175] Memory required for data: 312965944
I0406 07:48:05.823630   822 layer_factory.hpp:93] Creating layer conv4_3_norm_mbox_conf_flat
I0406 07:48:05.823635   822 net.cpp:110] Creating Layer conv4_3_norm_mbox_conf_flat
I0406 07:48:05.823639   822 net.cpp:451] conv4_3_norm_mbox_conf_flat <- conv4_3_norm_mbox_conf_perm
I0406 07:48:05.823644   822 net.cpp:425] conv4_3_norm_mbox_conf_flat -> conv4_3_norm_mbox_conf_flat
I0406 07:48:05.823663   822 net.cpp:160] Setting up conv4_3_norm_mbox_conf_flat
I0406 07:48:05.823668   822 net.cpp:167] Top shape: 1 121296 (121296)
I0406 07:48:05.823671   822 net.cpp:175] Memory required for data: 313451128
I0406 07:48:05.823674   822 layer_factory.hpp:93] Creating layer conv4_3_norm_mbox_priorbox
I0406 07:48:05.823681   822 net.cpp:110] Creating Layer conv4_3_norm_mbox_priorbox
I0406 07:48:05.823685   822 net.cpp:451] conv4_3_norm_mbox_priorbox <- conv4_3_conv4_3_fixed_0_split_3
I0406 07:48:05.823690   822 net.cpp:451] conv4_3_norm_mbox_priorbox <- data_data_fixed_0_split_1
I0406 07:48:05.823696   822 net.cpp:425] conv4_3_norm_mbox_priorbox -> conv4_3_norm_mbox_priorbox
I0406 07:48:05.823717   822 net.cpp:160] Setting up conv4_3_norm_mbox_priorbox
I0406 07:48:05.823720   822 net.cpp:167] Top shape: 1 2 23104 (46208)
I0406 07:48:05.823725   822 net.cpp:175] Memory required for data: 313635960
I0406 07:48:05.823729   822 layer_factory.hpp:93] Creating layer fc7_mbox_loc
I0406 07:48:05.823735   822 net.cpp:110] Creating Layer fc7_mbox_loc
I0406 07:48:05.823740   822 net.cpp:451] fc7_mbox_loc <- fc7_682_fc7_682_fixed_0_split_1
I0406 07:48:05.823745   822 net.cpp:425] fc7_mbox_loc -> fc7_mbox_loc
I0406 07:48:05.825170   822 layer_factory.hpp:93] Creating layer fc7_mbox_loc
I0406 07:48:05.826699   822 net.cpp:160] Setting up fc7_mbox_loc
I0406 07:48:05.826706   822 net.cpp:167] Top shape: 1 24 19 19 (8664)
I0406 07:48:05.826711   822 net.cpp:175] Memory required for data: 313670616
I0406 07:48:05.826717   822 layer_factory.hpp:93] Creating layer fc7_mbox_loc_perm
I0406 07:48:05.826723   822 net.cpp:110] Creating Layer fc7_mbox_loc_perm
I0406 07:48:05.826727   822 net.cpp:451] fc7_mbox_loc_perm <- fc7_mbox_loc
I0406 07:48:05.826733   822 net.cpp:425] fc7_mbox_loc_perm -> fc7_mbox_loc_perm
I0406 07:48:05.826810   822 net.cpp:160] Setting up fc7_mbox_loc_perm
I0406 07:48:05.826815   822 net.cpp:167] Top shape: 1 19 19 24 (8664)
I0406 07:48:05.826820   822 net.cpp:175] Memory required for data: 313705272
I0406 07:48:05.826823   822 layer_factory.hpp:93] Creating layer fc7_mbox_loc_flat
I0406 07:48:05.826828   822 net.cpp:110] Creating Layer fc7_mbox_loc_flat
I0406 07:48:05.826833   822 net.cpp:451] fc7_mbox_loc_flat <- fc7_mbox_loc_perm
I0406 07:48:05.826838   822 net.cpp:425] fc7_mbox_loc_flat -> fc7_mbox_loc_flat
I0406 07:48:05.826855   822 net.cpp:160] Setting up fc7_mbox_loc_flat
I0406 07:48:05.826858   822 net.cpp:167] Top shape: 1 8664 (8664)
I0406 07:48:05.826864   822 net.cpp:175] Memory required for data: 313739928
I0406 07:48:05.826866   822 layer_factory.hpp:93] Creating layer fc7_mbox_conf
I0406 07:48:05.826874   822 net.cpp:110] Creating Layer fc7_mbox_conf
I0406 07:48:05.826877   822 net.cpp:451] fc7_mbox_conf <- fc7_682_fc7_682_fixed_0_split_2
I0406 07:48:05.826882   822 net.cpp:425] fc7_mbox_conf -> fc7_mbox_conf
I0406 07:48:05.835903   822 layer_factory.hpp:93] Creating layer fc7_mbox_conf
I0406 07:48:05.845294   822 net.cpp:160] Setting up fc7_mbox_conf
I0406 07:48:05.845312   822 net.cpp:167] Top shape: 1 126 19 19 (45486)
I0406 07:48:05.845322   822 net.cpp:175] Memory required for data: 313921872
I0406 07:48:05.845333   822 layer_factory.hpp:93] Creating layer fc7_mbox_conf_perm
I0406 07:48:05.845343   822 net.cpp:110] Creating Layer fc7_mbox_conf_perm
I0406 07:48:05.845350   822 net.cpp:451] fc7_mbox_conf_perm <- fc7_mbox_conf
I0406 07:48:05.845358   822 net.cpp:425] fc7_mbox_conf_perm -> fc7_mbox_conf_perm
I0406 07:48:05.845445   822 net.cpp:160] Setting up fc7_mbox_conf_perm
I0406 07:48:05.845451   822 net.cpp:167] Top shape: 1 19 19 126 (45486)
I0406 07:48:05.845456   822 net.cpp:175] Memory required for data: 314103816
I0406 07:48:05.845460   822 layer_factory.hpp:93] Creating layer fc7_mbox_conf_flat
I0406 07:48:05.845465   822 net.cpp:110] Creating Layer fc7_mbox_conf_flat
I0406 07:48:05.845469   822 net.cpp:451] fc7_mbox_conf_flat <- fc7_mbox_conf_perm
I0406 07:48:05.845474   822 net.cpp:425] fc7_mbox_conf_flat -> fc7_mbox_conf_flat
I0406 07:48:05.845499   822 net.cpp:160] Setting up fc7_mbox_conf_flat
I0406 07:48:05.845502   822 net.cpp:167] Top shape: 1 45486 (45486)
I0406 07:48:05.845506   822 net.cpp:175] Memory required for data: 314285760
I0406 07:48:05.845510   822 layer_factory.hpp:93] Creating layer fc7_mbox_priorbox
I0406 07:48:05.845517   822 net.cpp:110] Creating Layer fc7_mbox_priorbox
I0406 07:48:05.845521   822 net.cpp:451] fc7_mbox_priorbox <- fc7_682_fc7_682_fixed_0_split_3
I0406 07:48:05.845525   822 net.cpp:451] fc7_mbox_priorbox <- data_data_fixed_0_split_2
I0406 07:48:05.845530   822 net.cpp:425] fc7_mbox_priorbox -> fc7_mbox_priorbox
I0406 07:48:05.845552   822 net.cpp:160] Setting up fc7_mbox_priorbox
I0406 07:48:05.845558   822 net.cpp:167] Top shape: 1 2 8664 (17328)
I0406 07:48:05.845563   822 net.cpp:175] Memory required for data: 314355072
I0406 07:48:05.845566   822 layer_factory.hpp:93] Creating layer conv6_2_mbox_loc
I0406 07:48:05.845575   822 net.cpp:110] Creating Layer conv6_2_mbox_loc
I0406 07:48:05.845579   822 net.cpp:451] conv6_2_mbox_loc <- conv6_2_conv6_2_fixed_0_split_1
I0406 07:48:05.845585   822 net.cpp:425] conv6_2_mbox_loc -> conv6_2_mbox_loc
I0406 07:48:05.846381   822 layer_factory.hpp:93] Creating layer conv6_2_mbox_loc
I0406 07:48:05.847295   822 net.cpp:160] Setting up conv6_2_mbox_loc
I0406 07:48:05.847303   822 net.cpp:167] Top shape: 1 24 10 10 (2400)
I0406 07:48:05.847308   822 net.cpp:175] Memory required for data: 314364672
I0406 07:48:05.847314   822 layer_factory.hpp:93] Creating layer conv6_2_mbox_loc_perm
I0406 07:48:05.847321   822 net.cpp:110] Creating Layer conv6_2_mbox_loc_perm
I0406 07:48:05.847324   822 net.cpp:451] conv6_2_mbox_loc_perm <- conv6_2_mbox_loc
I0406 07:48:05.847329   822 net.cpp:425] conv6_2_mbox_loc_perm -> conv6_2_mbox_loc_perm
I0406 07:48:05.847409   822 net.cpp:160] Setting up conv6_2_mbox_loc_perm
I0406 07:48:05.847415   822 net.cpp:167] Top shape: 1 10 10 24 (2400)
I0406 07:48:05.847419   822 net.cpp:175] Memory required for data: 314374272
I0406 07:48:05.847424   822 layer_factory.hpp:93] Creating layer conv6_2_mbox_loc_flat
I0406 07:48:05.847429   822 net.cpp:110] Creating Layer conv6_2_mbox_loc_flat
I0406 07:48:05.847431   822 net.cpp:451] conv6_2_mbox_loc_flat <- conv6_2_mbox_loc_perm
I0406 07:48:05.847436   822 net.cpp:425] conv6_2_mbox_loc_flat -> conv6_2_mbox_loc_flat
I0406 07:48:05.847453   822 net.cpp:160] Setting up conv6_2_mbox_loc_flat
I0406 07:48:05.847457   822 net.cpp:167] Top shape: 1 2400 (2400)
I0406 07:48:05.847461   822 net.cpp:175] Memory required for data: 314383872
I0406 07:48:05.847465   822 layer_factory.hpp:93] Creating layer conv6_2_mbox_conf
I0406 07:48:05.847472   822 net.cpp:110] Creating Layer conv6_2_mbox_conf
I0406 07:48:05.847476   822 net.cpp:451] conv6_2_mbox_conf <- conv6_2_conv6_2_fixed_0_split_2
I0406 07:48:05.847481   822 net.cpp:425] conv6_2_mbox_conf -> conv6_2_mbox_conf
I0406 07:48:05.852444   822 layer_factory.hpp:93] Creating layer conv6_2_mbox_conf
I0406 07:48:05.857313   822 net.cpp:160] Setting up conv6_2_mbox_conf
I0406 07:48:05.857328   822 net.cpp:167] Top shape: 1 126 10 10 (12600)
I0406 07:48:05.857338   822 net.cpp:175] Memory required for data: 314434272
I0406 07:48:05.857350   822 layer_factory.hpp:93] Creating layer conv6_2_mbox_conf_perm
I0406 07:48:05.857360   822 net.cpp:110] Creating Layer conv6_2_mbox_conf_perm
I0406 07:48:05.857367   822 net.cpp:451] conv6_2_mbox_conf_perm <- conv6_2_mbox_conf
I0406 07:48:05.857375   822 net.cpp:425] conv6_2_mbox_conf_perm -> conv6_2_mbox_conf_perm
I0406 07:48:05.857481   822 net.cpp:160] Setting up conv6_2_mbox_conf_perm
I0406 07:48:05.857489   822 net.cpp:167] Top shape: 1 10 10 126 (12600)
I0406 07:48:05.857497   822 net.cpp:175] Memory required for data: 314484672
I0406 07:48:05.857502   822 layer_factory.hpp:93] Creating layer conv6_2_mbox_conf_flat
I0406 07:48:05.857511   822 net.cpp:110] Creating Layer conv6_2_mbox_conf_flat
I0406 07:48:05.857515   822 net.cpp:451] conv6_2_mbox_conf_flat <- conv6_2_mbox_conf_perm
I0406 07:48:05.857523   822 net.cpp:425] conv6_2_mbox_conf_flat -> conv6_2_mbox_conf_flat
I0406 07:48:05.857549   822 net.cpp:160] Setting up conv6_2_mbox_conf_flat
I0406 07:48:05.857554   822 net.cpp:167] Top shape: 1 12600 (12600)
I0406 07:48:05.857560   822 net.cpp:175] Memory required for data: 314535072
I0406 07:48:05.857565   822 layer_factory.hpp:93] Creating layer conv6_2_mbox_priorbox
I0406 07:48:05.857575   822 net.cpp:110] Creating Layer conv6_2_mbox_priorbox
I0406 07:48:05.857581   822 net.cpp:451] conv6_2_mbox_priorbox <- conv6_2_conv6_2_fixed_0_split_3
I0406 07:48:05.857589   822 net.cpp:451] conv6_2_mbox_priorbox <- data_data_fixed_0_split_3
I0406 07:48:05.857596   822 net.cpp:425] conv6_2_mbox_priorbox -> conv6_2_mbox_priorbox
I0406 07:48:05.857623   822 net.cpp:160] Setting up conv6_2_mbox_priorbox
I0406 07:48:05.857631   822 net.cpp:167] Top shape: 1 2 2400 (4800)
I0406 07:48:05.857638   822 net.cpp:175] Memory required for data: 314554272
I0406 07:48:05.857643   822 layer_factory.hpp:93] Creating layer conv7_2_mbox_loc
I0406 07:48:05.857656   822 net.cpp:110] Creating Layer conv7_2_mbox_loc
I0406 07:48:05.857661   822 net.cpp:451] conv7_2_mbox_loc <- conv7_2_conv7_2_fixed_0_split_1
I0406 07:48:05.857671   822 net.cpp:425] conv7_2_mbox_loc -> conv7_2_mbox_loc
I0406 07:48:05.858345   822 layer_factory.hpp:93] Creating layer conv7_2_mbox_loc
I0406 07:48:05.858968   822 net.cpp:160] Setting up conv7_2_mbox_loc
I0406 07:48:05.858975   822 net.cpp:167] Top shape: 1 24 5 5 (600)
I0406 07:48:05.858980   822 net.cpp:175] Memory required for data: 314556672
I0406 07:48:05.858986   822 layer_factory.hpp:93] Creating layer conv7_2_mbox_loc_perm
I0406 07:48:05.858992   822 net.cpp:110] Creating Layer conv7_2_mbox_loc_perm
I0406 07:48:05.858996   822 net.cpp:451] conv7_2_mbox_loc_perm <- conv7_2_mbox_loc
I0406 07:48:05.859001   822 net.cpp:425] conv7_2_mbox_loc_perm -> conv7_2_mbox_loc_perm
I0406 07:48:05.859084   822 net.cpp:160] Setting up conv7_2_mbox_loc_perm
I0406 07:48:05.859091   822 net.cpp:167] Top shape: 1 5 5 24 (600)
I0406 07:48:05.859094   822 net.cpp:175] Memory required for data: 314559072
I0406 07:48:05.859097   822 layer_factory.hpp:93] Creating layer conv7_2_mbox_loc_flat
I0406 07:48:05.859102   822 net.cpp:110] Creating Layer conv7_2_mbox_loc_flat
I0406 07:48:05.859107   822 net.cpp:451] conv7_2_mbox_loc_flat <- conv7_2_mbox_loc_perm
I0406 07:48:05.859110   822 net.cpp:425] conv7_2_mbox_loc_flat -> conv7_2_mbox_loc_flat
I0406 07:48:05.859128   822 net.cpp:160] Setting up conv7_2_mbox_loc_flat
I0406 07:48:05.859131   822 net.cpp:167] Top shape: 1 600 (600)
I0406 07:48:05.859135   822 net.cpp:175] Memory required for data: 314561472
I0406 07:48:05.859138   822 layer_factory.hpp:93] Creating layer conv7_2_mbox_conf
I0406 07:48:05.859146   822 net.cpp:110] Creating Layer conv7_2_mbox_conf
I0406 07:48:05.859150   822 net.cpp:451] conv7_2_mbox_conf <- conv7_2_conv7_2_fixed_0_split_2
I0406 07:48:05.859156   822 net.cpp:425] conv7_2_mbox_conf -> conv7_2_mbox_conf
I0406 07:48:05.862138   822 layer_factory.hpp:93] Creating layer conv7_2_mbox_conf
I0406 07:48:05.865234   822 net.cpp:160] Setting up conv7_2_mbox_conf
I0406 07:48:05.865245   822 net.cpp:167] Top shape: 1 126 5 5 (3150)
I0406 07:48:05.865252   822 net.cpp:175] Memory required for data: 314574072
I0406 07:48:05.865258   822 layer_factory.hpp:93] Creating layer conv7_2_mbox_conf_perm
I0406 07:48:05.865265   822 net.cpp:110] Creating Layer conv7_2_mbox_conf_perm
I0406 07:48:05.865269   822 net.cpp:451] conv7_2_mbox_conf_perm <- conv7_2_mbox_conf
I0406 07:48:05.865275   822 net.cpp:425] conv7_2_mbox_conf_perm -> conv7_2_mbox_conf_perm
I0406 07:48:05.865355   822 net.cpp:160] Setting up conv7_2_mbox_conf_perm
I0406 07:48:05.865361   822 net.cpp:167] Top shape: 1 5 5 126 (3150)
I0406 07:48:05.865365   822 net.cpp:175] Memory required for data: 314586672
I0406 07:48:05.865370   822 layer_factory.hpp:93] Creating layer conv7_2_mbox_conf_flat
I0406 07:48:05.865375   822 net.cpp:110] Creating Layer conv7_2_mbox_conf_flat
I0406 07:48:05.865378   822 net.cpp:451] conv7_2_mbox_conf_flat <- conv7_2_mbox_conf_perm
I0406 07:48:05.865382   822 net.cpp:425] conv7_2_mbox_conf_flat -> conv7_2_mbox_conf_flat
I0406 07:48:05.865401   822 net.cpp:160] Setting up conv7_2_mbox_conf_flat
I0406 07:48:05.865406   822 net.cpp:167] Top shape: 1 3150 (3150)
I0406 07:48:05.865409   822 net.cpp:175] Memory required for data: 314599272
I0406 07:48:05.865412   822 layer_factory.hpp:93] Creating layer conv7_2_mbox_priorbox
I0406 07:48:05.865419   822 net.cpp:110] Creating Layer conv7_2_mbox_priorbox
I0406 07:48:05.865422   822 net.cpp:451] conv7_2_mbox_priorbox <- conv7_2_conv7_2_fixed_0_split_3
I0406 07:48:05.865427   822 net.cpp:451] conv7_2_mbox_priorbox <- data_data_fixed_0_split_4
I0406 07:48:05.865432   822 net.cpp:425] conv7_2_mbox_priorbox -> conv7_2_mbox_priorbox
I0406 07:48:05.865451   822 net.cpp:160] Setting up conv7_2_mbox_priorbox
I0406 07:48:05.865464   822 net.cpp:167] Top shape: 1 2 600 (1200)
I0406 07:48:05.865468   822 net.cpp:175] Memory required for data: 314604072
I0406 07:48:05.865471   822 layer_factory.hpp:93] Creating layer conv8_2_mbox_loc
I0406 07:48:05.865479   822 net.cpp:110] Creating Layer conv8_2_mbox_loc
I0406 07:48:05.865483   822 net.cpp:451] conv8_2_mbox_loc <- conv8_2_conv8_2_fixed_0_split_1
I0406 07:48:05.865489   822 net.cpp:425] conv8_2_mbox_loc -> conv8_2_mbox_loc
I0406 07:48:05.865861   822 layer_factory.hpp:93] Creating layer conv8_2_mbox_loc
I0406 07:48:05.866354   822 net.cpp:160] Setting up conv8_2_mbox_loc
I0406 07:48:05.866362   822 net.cpp:167] Top shape: 1 16 3 3 (144)
I0406 07:48:05.866367   822 net.cpp:175] Memory required for data: 314604648
I0406 07:48:05.866372   822 layer_factory.hpp:93] Creating layer conv8_2_mbox_loc_perm
I0406 07:48:05.866379   822 net.cpp:110] Creating Layer conv8_2_mbox_loc_perm
I0406 07:48:05.866382   822 net.cpp:451] conv8_2_mbox_loc_perm <- conv8_2_mbox_loc
I0406 07:48:05.866387   822 net.cpp:425] conv8_2_mbox_loc_perm -> conv8_2_mbox_loc_perm
I0406 07:48:05.866462   822 net.cpp:160] Setting up conv8_2_mbox_loc_perm
I0406 07:48:05.866468   822 net.cpp:167] Top shape: 1 3 3 16 (144)
I0406 07:48:05.866472   822 net.cpp:175] Memory required for data: 314605224
I0406 07:48:05.866477   822 layer_factory.hpp:93] Creating layer conv8_2_mbox_loc_flat
I0406 07:48:05.866482   822 net.cpp:110] Creating Layer conv8_2_mbox_loc_flat
I0406 07:48:05.866484   822 net.cpp:451] conv8_2_mbox_loc_flat <- conv8_2_mbox_loc_perm
I0406 07:48:05.866489   822 net.cpp:425] conv8_2_mbox_loc_flat -> conv8_2_mbox_loc_flat
I0406 07:48:05.866508   822 net.cpp:160] Setting up conv8_2_mbox_loc_flat
I0406 07:48:05.866511   822 net.cpp:167] Top shape: 1 144 (144)
I0406 07:48:05.866515   822 net.cpp:175] Memory required for data: 314605800
I0406 07:48:05.866518   822 layer_factory.hpp:93] Creating layer conv8_2_mbox_conf
I0406 07:48:05.866525   822 net.cpp:110] Creating Layer conv8_2_mbox_conf
I0406 07:48:05.866529   822 net.cpp:451] conv8_2_mbox_conf <- conv8_2_conv8_2_fixed_0_split_2
I0406 07:48:05.866534   822 net.cpp:425] conv8_2_mbox_conf -> conv8_2_mbox_conf
I0406 07:48:05.867807   822 layer_factory.hpp:93] Creating layer conv8_2_mbox_conf
I0406 07:48:05.869201   822 net.cpp:160] Setting up conv8_2_mbox_conf
I0406 07:48:05.869210   822 net.cpp:167] Top shape: 1 84 3 3 (756)
I0406 07:48:05.869215   822 net.cpp:175] Memory required for data: 314608824
I0406 07:48:05.869221   822 layer_factory.hpp:93] Creating layer conv8_2_mbox_conf_perm
I0406 07:48:05.869227   822 net.cpp:110] Creating Layer conv8_2_mbox_conf_perm
I0406 07:48:05.869231   822 net.cpp:451] conv8_2_mbox_conf_perm <- conv8_2_mbox_conf
I0406 07:48:05.869236   822 net.cpp:425] conv8_2_mbox_conf_perm -> conv8_2_mbox_conf_perm
I0406 07:48:05.869321   822 net.cpp:160] Setting up conv8_2_mbox_conf_perm
I0406 07:48:05.869328   822 net.cpp:167] Top shape: 1 3 3 84 (756)
I0406 07:48:05.869331   822 net.cpp:175] Memory required for data: 314611848
I0406 07:48:05.869334   822 layer_factory.hpp:93] Creating layer conv8_2_mbox_conf_flat
I0406 07:48:05.869339   822 net.cpp:110] Creating Layer conv8_2_mbox_conf_flat
I0406 07:48:05.869343   822 net.cpp:451] conv8_2_mbox_conf_flat <- conv8_2_mbox_conf_perm
I0406 07:48:05.869349   822 net.cpp:425] conv8_2_mbox_conf_flat -> conv8_2_mbox_conf_flat
I0406 07:48:05.869367   822 net.cpp:160] Setting up conv8_2_mbox_conf_flat
I0406 07:48:05.869371   822 net.cpp:167] Top shape: 1 756 (756)
I0406 07:48:05.869375   822 net.cpp:175] Memory required for data: 314614872
I0406 07:48:05.869379   822 layer_factory.hpp:93] Creating layer conv8_2_mbox_priorbox
I0406 07:48:05.869385   822 net.cpp:110] Creating Layer conv8_2_mbox_priorbox
I0406 07:48:05.869387   822 net.cpp:451] conv8_2_mbox_priorbox <- conv8_2_conv8_2_fixed_0_split_3
I0406 07:48:05.869391   822 net.cpp:451] conv8_2_mbox_priorbox <- data_data_fixed_0_split_5
I0406 07:48:05.869397   822 net.cpp:425] conv8_2_mbox_priorbox -> conv8_2_mbox_priorbox
I0406 07:48:05.869419   822 net.cpp:160] Setting up conv8_2_mbox_priorbox
I0406 07:48:05.869423   822 net.cpp:167] Top shape: 1 2 144 (288)
I0406 07:48:05.869427   822 net.cpp:175] Memory required for data: 314616024
I0406 07:48:05.869431   822 layer_factory.hpp:93] Creating layer conv9_2_mbox_loc
I0406 07:48:05.869441   822 net.cpp:110] Creating Layer conv9_2_mbox_loc
I0406 07:48:05.869446   822 net.cpp:451] conv9_2_mbox_loc <- conv9_2_conv9_2_fixed_0_split_0
I0406 07:48:05.869451   822 net.cpp:425] conv9_2_mbox_loc -> conv9_2_mbox_loc
I0406 07:48:05.869829   822 layer_factory.hpp:93] Creating layer conv9_2_mbox_loc
I0406 07:48:05.870312   822 net.cpp:160] Setting up conv9_2_mbox_loc
I0406 07:48:05.870321   822 net.cpp:167] Top shape: 1 16 1 1 (16)
I0406 07:48:05.870326   822 net.cpp:175] Memory required for data: 314616088
I0406 07:48:05.870330   822 layer_factory.hpp:93] Creating layer conv9_2_mbox_loc_perm
I0406 07:48:05.870337   822 net.cpp:110] Creating Layer conv9_2_mbox_loc_perm
I0406 07:48:05.870342   822 net.cpp:451] conv9_2_mbox_loc_perm <- conv9_2_mbox_loc
I0406 07:48:05.870347   822 net.cpp:425] conv9_2_mbox_loc_perm -> conv9_2_mbox_loc_perm
I0406 07:48:05.870420   822 net.cpp:160] Setting up conv9_2_mbox_loc_perm
I0406 07:48:05.870424   822 net.cpp:167] Top shape: 1 1 1 16 (16)
I0406 07:48:05.870429   822 net.cpp:175] Memory required for data: 314616152
I0406 07:48:05.870431   822 layer_factory.hpp:93] Creating layer conv9_2_mbox_loc_flat
I0406 07:48:05.870436   822 net.cpp:110] Creating Layer conv9_2_mbox_loc_flat
I0406 07:48:05.870440   822 net.cpp:451] conv9_2_mbox_loc_flat <- conv9_2_mbox_loc_perm
I0406 07:48:05.870445   822 net.cpp:425] conv9_2_mbox_loc_flat -> conv9_2_mbox_loc_flat
I0406 07:48:05.870461   822 net.cpp:160] Setting up conv9_2_mbox_loc_flat
I0406 07:48:05.870465   822 net.cpp:167] Top shape: 1 16 (16)
I0406 07:48:05.870470   822 net.cpp:175] Memory required for data: 314616216
I0406 07:48:05.870472   822 layer_factory.hpp:93] Creating layer conv9_2_mbox_conf
I0406 07:48:05.870481   822 net.cpp:110] Creating Layer conv9_2_mbox_conf
I0406 07:48:05.870483   822 net.cpp:451] conv9_2_mbox_conf <- conv9_2_conv9_2_fixed_0_split_1
I0406 07:48:05.870489   822 net.cpp:425] conv9_2_mbox_conf -> conv9_2_mbox_conf
I0406 07:48:05.871762   822 layer_factory.hpp:93] Creating layer conv9_2_mbox_conf
I0406 07:48:05.873138   822 net.cpp:160] Setting up conv9_2_mbox_conf
I0406 07:48:05.873147   822 net.cpp:167] Top shape: 1 84 1 1 (84)
I0406 07:48:05.873152   822 net.cpp:175] Memory required for data: 314616552
I0406 07:48:05.873157   822 layer_factory.hpp:93] Creating layer conv9_2_mbox_conf_perm
I0406 07:48:05.873164   822 net.cpp:110] Creating Layer conv9_2_mbox_conf_perm
I0406 07:48:05.873168   822 net.cpp:451] conv9_2_mbox_conf_perm <- conv9_2_mbox_conf
I0406 07:48:05.873173   822 net.cpp:425] conv9_2_mbox_conf_perm -> conv9_2_mbox_conf_perm
I0406 07:48:05.873250   822 net.cpp:160] Setting up conv9_2_mbox_conf_perm
I0406 07:48:05.873256   822 net.cpp:167] Top shape: 1 1 1 84 (84)
I0406 07:48:05.873260   822 net.cpp:175] Memory required for data: 314616888
I0406 07:48:05.873263   822 layer_factory.hpp:93] Creating layer conv9_2_mbox_conf_flat
I0406 07:48:05.873268   822 net.cpp:110] Creating Layer conv9_2_mbox_conf_flat
I0406 07:48:05.873272   822 net.cpp:451] conv9_2_mbox_conf_flat <- conv9_2_mbox_conf_perm
I0406 07:48:05.873276   822 net.cpp:425] conv9_2_mbox_conf_flat -> conv9_2_mbox_conf_flat
I0406 07:48:05.873294   822 net.cpp:160] Setting up conv9_2_mbox_conf_flat
I0406 07:48:05.873297   822 net.cpp:167] Top shape: 1 84 (84)
I0406 07:48:05.873301   822 net.cpp:175] Memory required for data: 314617224
I0406 07:48:05.873304   822 layer_factory.hpp:93] Creating layer conv9_2_mbox_priorbox
I0406 07:48:05.873311   822 net.cpp:110] Creating Layer conv9_2_mbox_priorbox
I0406 07:48:05.873314   822 net.cpp:451] conv9_2_mbox_priorbox <- conv9_2_conv9_2_fixed_0_split_2
I0406 07:48:05.873318   822 net.cpp:451] conv9_2_mbox_priorbox <- data_data_fixed_0_split_6
I0406 07:48:05.873323   822 net.cpp:425] conv9_2_mbox_priorbox -> conv9_2_mbox_priorbox
I0406 07:48:05.873342   822 net.cpp:160] Setting up conv9_2_mbox_priorbox
I0406 07:48:05.873347   822 net.cpp:167] Top shape: 1 2 16 (32)
I0406 07:48:05.873350   822 net.cpp:175] Memory required for data: 314617352
I0406 07:48:05.873353   822 layer_factory.hpp:93] Creating layer mbox_loc
I0406 07:48:05.873359   822 net.cpp:110] Creating Layer mbox_loc
I0406 07:48:05.873363   822 net.cpp:451] mbox_loc <- conv4_3_norm_mbox_loc_flat
I0406 07:48:05.873368   822 net.cpp:451] mbox_loc <- fc7_mbox_loc_flat
I0406 07:48:05.873373   822 net.cpp:451] mbox_loc <- conv6_2_mbox_loc_flat
I0406 07:48:05.873376   822 net.cpp:451] mbox_loc <- conv7_2_mbox_loc_flat
I0406 07:48:05.873380   822 net.cpp:451] mbox_loc <- conv8_2_mbox_loc_flat
I0406 07:48:05.873384   822 net.cpp:451] mbox_loc <- conv9_2_mbox_loc_flat
I0406 07:48:05.873389   822 net.cpp:425] mbox_loc -> mbox_loc
I0406 07:48:05.873407   822 net.cpp:160] Setting up mbox_loc
I0406 07:48:05.873411   822 net.cpp:167] Top shape: 1 34928 (34928)
I0406 07:48:05.873415   822 net.cpp:175] Memory required for data: 314757064
I0406 07:48:05.873419   822 layer_factory.hpp:93] Creating layer mbox_loc_fixed
I0406 07:48:05.873423   822 net.cpp:110] Creating Layer mbox_loc_fixed
I0406 07:48:05.873427   822 net.cpp:451] mbox_loc_fixed <- mbox_loc
I0406 07:48:05.873431   822 net.cpp:412] mbox_loc_fixed -> mbox_loc (in-place)
I0406 07:48:05.873463   822 net.cpp:160] Setting up mbox_loc_fixed
I0406 07:48:05.873467   822 net.cpp:167] Top shape: 1 34928 (34928)
I0406 07:48:05.873471   822 net.cpp:175] Memory required for data: 314896776
I0406 07:48:05.873476   822 layer_factory.hpp:93] Creating layer mbox_conf
I0406 07:48:05.873482   822 net.cpp:110] Creating Layer mbox_conf
I0406 07:48:05.873486   822 net.cpp:451] mbox_conf <- conv4_3_norm_mbox_conf_flat
I0406 07:48:05.873490   822 net.cpp:451] mbox_conf <- fc7_mbox_conf_flat
I0406 07:48:05.873494   822 net.cpp:451] mbox_conf <- conv6_2_mbox_conf_flat
I0406 07:48:05.873498   822 net.cpp:451] mbox_conf <- conv7_2_mbox_conf_flat
I0406 07:48:05.873502   822 net.cpp:451] mbox_conf <- conv8_2_mbox_conf_flat
I0406 07:48:05.873505   822 net.cpp:451] mbox_conf <- conv9_2_mbox_conf_flat
I0406 07:48:05.873512   822 net.cpp:425] mbox_conf -> mbox_conf
I0406 07:48:05.873538   822 net.cpp:160] Setting up mbox_conf
I0406 07:48:05.873541   822 net.cpp:167] Top shape: 1 183372 (183372)
I0406 07:48:05.873548   822 net.cpp:175] Memory required for data: 315630264
I0406 07:48:05.873550   822 layer_factory.hpp:93] Creating layer mbox_conf_fixed
I0406 07:48:05.873559   822 net.cpp:110] Creating Layer mbox_conf_fixed
I0406 07:48:05.873562   822 net.cpp:451] mbox_conf_fixed <- mbox_conf
I0406 07:48:05.873567   822 net.cpp:412] mbox_conf_fixed -> mbox_conf (in-place)
I0406 07:48:05.873598   822 net.cpp:160] Setting up mbox_conf_fixed
I0406 07:48:05.873606   822 net.cpp:167] Top shape: 1 183372 (183372)
I0406 07:48:05.873612   822 net.cpp:175] Memory required for data: 316363752
I0406 07:48:05.873617   822 layer_factory.hpp:93] Creating layer mbox_priorbox
I0406 07:48:05.873622   822 net.cpp:110] Creating Layer mbox_priorbox
I0406 07:48:05.873626   822 net.cpp:451] mbox_priorbox <- conv4_3_norm_mbox_priorbox
I0406 07:48:05.873631   822 net.cpp:451] mbox_priorbox <- fc7_mbox_priorbox
I0406 07:48:05.873634   822 net.cpp:451] mbox_priorbox <- conv6_2_mbox_priorbox
I0406 07:48:05.873638   822 net.cpp:451] mbox_priorbox <- conv7_2_mbox_priorbox
I0406 07:48:05.873641   822 net.cpp:451] mbox_priorbox <- conv8_2_mbox_priorbox
I0406 07:48:05.873646   822 net.cpp:451] mbox_priorbox <- conv9_2_mbox_priorbox
I0406 07:48:05.873649   822 net.cpp:425] mbox_priorbox -> mbox_priorbox
I0406 07:48:05.873669   822 net.cpp:160] Setting up mbox_priorbox
I0406 07:48:05.873673   822 net.cpp:167] Top shape: 1 2 34928 (69856)
I0406 07:48:05.873679   822 net.cpp:175] Memory required for data: 316643176
I0406 07:48:05.873683   822 layer_factory.hpp:93] Creating layer mbox_priorbox_fixed
I0406 07:48:05.873689   822 net.cpp:110] Creating Layer mbox_priorbox_fixed
I0406 07:48:05.873693   822 net.cpp:451] mbox_priorbox_fixed <- mbox_priorbox
I0406 07:48:05.873697   822 net.cpp:412] mbox_priorbox_fixed -> mbox_priorbox (in-place)
I0406 07:48:05.873728   822 net.cpp:160] Setting up mbox_priorbox_fixed
I0406 07:48:05.873733   822 net.cpp:167] Top shape: 1 2 34928 (69856)
I0406 07:48:05.873737   822 net.cpp:175] Memory required for data: 316922600
I0406 07:48:05.873741   822 layer_factory.hpp:93] Creating layer mbox_conf_reshape
I0406 07:48:05.873756   822 net.cpp:110] Creating Layer mbox_conf_reshape
I0406 07:48:05.873759   822 net.cpp:451] mbox_conf_reshape <- mbox_conf
I0406 07:48:05.873764   822 net.cpp:425] mbox_conf_reshape -> mbox_conf_reshape
I0406 07:48:05.873798   822 net.cpp:160] Setting up mbox_conf_reshape
I0406 07:48:05.873803   822 net.cpp:167] Top shape: 1 8732 21 (183372)
I0406 07:48:05.873807   822 net.cpp:175] Memory required for data: 317656088
I0406 07:48:05.873811   822 layer_factory.hpp:93] Creating layer mbox_conf_softmax
I0406 07:48:05.873817   822 net.cpp:110] Creating Layer mbox_conf_softmax
I0406 07:48:05.873821   822 net.cpp:451] mbox_conf_softmax <- mbox_conf_reshape
I0406 07:48:05.873826   822 net.cpp:425] mbox_conf_softmax -> mbox_conf_softmax
I0406 07:48:05.873888   822 net.cpp:160] Setting up mbox_conf_softmax
I0406 07:48:05.873894   822 net.cpp:167] Top shape: 1 8732 21 (183372)
I0406 07:48:05.873899   822 net.cpp:175] Memory required for data: 318389576
I0406 07:48:05.873903   822 layer_factory.hpp:93] Creating layer mbox_conf_flatten
I0406 07:48:05.873908   822 net.cpp:110] Creating Layer mbox_conf_flatten
I0406 07:48:05.873912   822 net.cpp:451] mbox_conf_flatten <- mbox_conf_softmax
I0406 07:48:05.873919   822 net.cpp:425] mbox_conf_flatten -> mbox_conf_flatten
I0406 07:48:05.873940   822 net.cpp:160] Setting up mbox_conf_flatten
I0406 07:48:05.873944   822 net.cpp:167] Top shape: 1 183372 (183372)
I0406 07:48:05.873948   822 net.cpp:175] Memory required for data: 319123064
I0406 07:48:05.873951   822 layer_factory.hpp:93] Creating layer detection_out
I0406 07:48:05.873960   822 net.cpp:110] Creating Layer detection_out
I0406 07:48:05.873965   822 net.cpp:451] detection_out <- mbox_loc
I0406 07:48:05.873967   822 net.cpp:451] detection_out <- mbox_conf_flatten
I0406 07:48:05.873971   822 net.cpp:451] detection_out <- mbox_priorbox
I0406 07:48:05.873977   822 net.cpp:425] detection_out -> detection_out
I0406 07:48:05.878286   822 net.cpp:160] Setting up detection_out
I0406 07:48:05.878296   822 net.cpp:167] Top shape: 1 1 1 7 (7)
I0406 07:48:05.878301   822 net.cpp:175] Memory required for data: 319123092
I0406 07:48:05.878305   822 layer_factory.hpp:93] Creating layer detection_eval
I0406 07:48:05.878312   822 net.cpp:110] Creating Layer detection_eval
I0406 07:48:05.878316   822 net.cpp:451] detection_eval <- detection_out
I0406 07:48:05.878321   822 net.cpp:451] detection_eval <- label
I0406 07:48:05.878326   822 net.cpp:425] detection_eval -> detection_eval
I0406 07:48:05.879905   822 net.cpp:160] Setting up detection_eval
I0406 07:48:05.879914   822 net.cpp:167] Top shape: 1 1 21 5 (105)
I0406 07:48:05.879918   822 net.cpp:175] Memory required for data: 319123512
I0406 07:48:05.879922   822 net.cpp:238] detection_eval does not need backward computation.
I0406 07:48:05.879926   822 net.cpp:238] detection_out does not need backward computation.
I0406 07:48:05.879930   822 net.cpp:238] mbox_conf_flatten does not need backward computation.
I0406 07:48:05.879935   822 net.cpp:238] mbox_conf_softmax does not need backward computation.
…
