…
2022-06-20 12:03:18.522146 Epoch 250, Training loss 0.383176
2022-06-20 12:03:20.921110 Epoch 260, Training loss 0.373730
2022-06-20 12:03:23.321051 Epoch 270, Training loss 0.356083
2022-06-20 12:03:25.723352 Epoch 280, Training loss 0.356126
2022-06-20 12:03:28.125077 Epoch 290, Training loss 0.345961
2022-06-20 12:03:30.528722 Epoch 300, Training loss 0.338264


Elapsed time for training (s):  156.59708


----------------------------------------------------------------
        Layer (type)               Output Shape         Param #
================================================================
            Conv2d-1           [-1, 16, 32, 32]             448
              Tanh-2           [-1, 16, 32, 32]               0
         MaxPool2d-3           [-1, 16, 16, 16]               0
            Conv2d-4            [-1, 8, 16, 16]           1,160
           Sigmoid-5            [-1, 8, 16, 16]               0
         MaxPool2d-6              [-1, 8, 8, 8]               0
            Linear-7                   [-1, 32]          16,416
           Sigmoid-8                   [-1, 32]               0
            Linear-9                    [-1, 2]              66
================================================================
Total params: 18,090
Trainable params: 18,090
Non-trainable params: 0
----------------------------------------------------------------
Input size (MB): 0.01
Forward/backward pass size (MB): 0.32
Params size (MB): 0.07
Estimated Total Size (MB): 0.40
----------------------------------------------------------------
Trained model written to  ./build/data/cnn_float.pt
…
