…
I0224 07:28:15.354246  1272 decent_q.cpp:616] GPU device name: GeForce GTX 1080 Ti
I0224 07:28:16.078220  1272 net.cpp:369] The NetState phase (1) differed from the phase (0) specified by a rule in layer data
I0224 07:28:16.078310  1272 net.cpp:98] Initializing net from parameters: 
layer {
  name: "data"
  type: "ImageSegData"
  top: "data"
  top: "label"
  include {
    phase: TEST
  }
  transform_param {
    scale: 0.022
    mean_value: 73
    mean_value: 82
    mean_value: 72
  }
  image_data_param {
    source: "../data/val_img_seg_nomap.txt"
    batch_size: 1
    shuffle: false
  }
}
layer {
  name: "resize_down"
  type: "DeephiResize"
  bottom: "data"
  top: "data"
  include {
    phase: TEST
  }
  deephi_resize_param {
    resize_type: BILINEAR
    new_height: 512
    new_width: 1024
  }
}
layer {
  name: "ConvNd_1"
  type: "Convolution"
  bottom: "data"
  top: "ConvNd_1"
  convolution_param {
    num_output: 16
    bias_term: false
    pad: 1
    kernel_size: 3
    group: 1
    stride: 2
    dilation: 1
  }
}
layer {
  name: "BatchNorm_1"
  type: "BatchNorm"
  bottom: "ConvNd_1"
  top: "BatchNorm_1"
  param {
    lr_mult: 1
    decay_mult: 0
  }
  param {
    lr_mult: 1
    decay_mult: 0
  }
  param {
    lr_mult: 0
    decay_mult: 0
  }
  param {
    lr_mult: 0
    decay_mult: 0
  }
  batch_norm_param {
    use_global_stats: true
    eps: 1e-05
    scale_filler {
      type: "constant"
      value: 1
    }
    bias_filler {
      type: "constant"
      value: 0
    }
  }
}
layer {
  name: "Threshold_1"
  type: "ReLU"
  bottom: "BatchNorm_1"
  top: "BatchNorm_1"
}
layer {
  name: "AvgPool2d_1"
  type: "Pooling"
  bottom: "data"
  top: "AvgPool2d_1"
  pooling_param {
    pool: AVE
    kernel_size: 3
    stride: 2
    pad: 0
  }
}
layer {
  name: "Concat_1"
  type: "Concat"
  bottom: "BatchNorm_1"
  bottom: "AvgPool2d_1"
  top: "Concat_1"
  concat_param {
    axis: 1
  }
}
layer {
  name: "BatchNorm_2"
  type: "BatchNorm"
  bottom: "Concat_1"
  top: "BatchNorm_2"
  param {
    lr_mult: 1
    decay_mult: 0
  }
  param {
    lr_mult: 1
    decay_mult: 0
  }
  param {
    lr_mult: 0
    decay_mult: 0
  }
  param {
    lr_mult: 0
    decay_mult: 0
  }
  batch_norm_param {
    use_global_stats: true
    eps: 1e-05
    scale_filler {
      type: "constant"
      value: 1
    }
    bias_filler {
      type: "constant"
      value: 0
    }
  }
}
layer {
  name: "Threshold_2"
  type: "ReLU"
  bottom: "BatchNorm_2"
  top: "BatchNorm_2"
}
layer {
  name: "ConvNd_2"
  type: "Convolution"
  bottom: "BatchNorm_2"
  top: "ConvNd_2"
  convolution_param {
    num_output: 12
    bias_term: false
    pad: 1
    kernel_size: 3
    group: 1
    stride: 2
    weight_filler {
      type: "msra"
    }
    dilation: 1
  }
}
layer {
  name: "ConvNd_3"
  type: "Convolution"
  bottom: "ConvNd_2"
  top: "ConvNd_3"
  convolution_param {
    num_output: 16
    bias_term: false
    pad: 1
    kernel_size: 3
    group: 1
    stride: 1
    weight_filler {
      type: "msra"
    }
    dilation: 1
  }
}
layer {
  name: "ConvNd_4"
  type: "Convolution"
  bottom: "ConvNd_2"
  top: "ConvNd_4"
  convolution_param {
    num_output: 12
    bias_term: false
    pad: 2
    kernel_size: 3
    group: 1
    stride: 1
    weight_filler {
      type: "msra"
    }
    dilation: 2
  }
}
layer {
  name: "ConvNd_5"
  type: "Convolution"
  bottom: "ConvNd_2"
  top: "ConvNd_5"
  convolution_param {
    num_output: 12
    bias_term: false
    pad: 4
    kernel_size: 3
    group: 1
    stride: 1
    weight_filler {
      type: "msra"
    }
    dilation: 4
  }
}
layer {
  name: "Add_1"
  type: "Eltwise"
  bottom: "ConvNd_4"
  bottom: "ConvNd_5"
  top: "Add_1"
}
layer {
  name: "ConvNd_6"
  type: "Convolution"
  bottom: "ConvNd_2"
  top: "ConvNd_6"
  convolution_param {
    num_output: 12
    bias_term: false
    pad: 8
    kernel_size: 3
    group: 1
    stride: 1
    weight_filler {
      type: "msra"
    }
    dilation: 8
  }
}
layer {
  name: "Add_2"
  type: "Eltwise"
  bottom: "Add_1"
  bottom: "ConvNd_6"
  top: "Add_2"
}
layer {
  name: "ConvNd_7"
  type: "Convolution"
  bottom: "ConvNd_2"
  top: "ConvNd_7"
  convolution_param {
    num_output: 12
    bias_term: false
    pad: 16
    kernel_size: 3
    group: 1
    stride: 1
    weight_filler {
      type: "msra"
    }
    dilation: 16
  }
}
layer {
  name: "Add_3"
  type: "Eltwise"
  bottom: "Add_2"
  bottom: "ConvNd_7"
  top: "Add_3"
}
layer {
  name: "Concat_2"
  type: "Concat"
  bottom: "ConvNd_3"
  bottom: "ConvNd_4"
  bottom: "Add_1"
  bottom: "Add_2"
  bottom: "Add_3"
  top: "Concat_2"
  concat_param {
    axis: 1
  }
}
layer {
  name: "BatchNorm_3"
  type: "BatchNorm"
  bottom: "Concat_2"
  top: "BatchNorm_3"
  param {
    lr_mult: 1
    decay_mult: 0
  }
  param {
    lr_mult: 1
    decay_mult: 0
  }
  param {
    lr_mult: 0
    decay_mult: 0
  }
  param {
    lr_mult: 0
    decay_mult: 0
  }
  batch_norm_param {
    use_global_stats: true
    eps: 1e-05
    scale_filler {
      type: "constant"
      value: 1
    }
    bias_filler {
      type: "constant"
      value: 0
    }
  }
}
layer {
  name: "Threshold_3"
  type: "ReLU"
  bottom: "BatchNorm_3"
  top: "BatchNorm_3"
}
layer {
  name: "ConvNd_8"
  type: "Convolution"
  bottom: "BatchNorm_3"
  top: "ConvNd_8"
  convolution_param {
    num_output: 12
    bias_term: false
    pad: 0
    kernel_size: 1
    group: 1
    stride: 1
    weight_filler {
      type: "msra"
    }
    dilation: 1
  }
}
layer {
  name: "ConvNd_9"
  type: "Convolution"
  bottom: "ConvNd_8"
  top: "ConvNd_9"
  convolution_param {
    num_output: 16
    bias_term: false
    pad: 1
    kernel_size: 3
    group: 1
    stride: 1
    weight_filler {
      type: "msra"
    }
    dilation: 1
  }
}
layer {
  name: "ConvNd_10"
  type: "Convolution"
  bottom: "ConvNd_8"
  top: "ConvNd_10"
  convolution_param {
    num_output: 12
    bias_term: false
    pad: 2
    kernel_size: 3
    group: 1
    stride: 1
    weight_filler {
      type: "msra"
    }
    dilation: 2
  }
}
layer {
  name: "ConvNd_11"
  type: "Convolution"
  bottom: "ConvNd_8"
  top: "ConvNd_11"
  convolution_param {
    num_output: 12
    bias_term: false
    pad: 4
    kernel_size: 3
    group: 1
    stride: 1
    weight_filler {
      type: "msra"
    }
    dilation: 4
  }
}
layer {
  name: "Add_4"
  type: "Eltwise"
  bottom: "ConvNd_10"
  bottom: "ConvNd_11"
  top: "Add_4"
}
layer {
  name: "ConvNd_12"
  type: "Convolution"
  bottom: "ConvNd_8"
  top: "ConvNd_12"
  convolution_param {
    num_output: 12
    bias_term: false
    pad: 8
    kernel_size: 3
    group: 1
    stride: 1
    weight_filler {
      type: "msra"
    }
    dilation: 8
  }
}
layer {
  name: "Add_5"
  type: "Eltwise"
  bottom: "Add_4"
  bottom: "ConvNd_12"
  top: "Add_5"
}
layer {
  name: "ConvNd_13"
  type: "Convolution"
  bottom: "ConvNd_8"
  top: "ConvNd_13"
  convolution_param {
    num_output: 12
    bias_term: false
    pad: 16
    kernel_size: 3
    group: 1
    stride: 1
    weight_filler {
      type: "msra"
    }
    dilation: 16
  }
}
layer {
  name: "Add_6"
  type: "Eltwise"
  bottom: "Add_5"
  bottom: "ConvNd_13"
  top: "Add_6"
}
layer {
  name: "Concat_3"
  type: "Concat"
  bottom: "ConvNd_9"
  bottom: "ConvNd_10"
  bottom: "Add_4"
  bottom: "Add_5"
  bottom: "Add_6"
  top: "Concat_3"
  concat_param {
    axis: 1
  }
}
layer {
  name: "Add_7"
  type: "Eltwise"
  bottom: "BatchNorm_3"
  bottom: "Concat_3"
  top: "Add_7"
}
layer {
  name: "BatchNorm_4"
  type: "BatchNorm"
  bottom: "Add_7"
  top: "BatchNorm_4"
  param {
    lr_mult: 1
    decay_mult: 0
  }
  param {
    lr_mult: 1
    decay_mult: 0
  }
  param {
    lr_mult: 0
    decay_mult: 0
  }
  param {
    lr_mult: 0
    decay_mult: 0
  }
  batch_norm_param {
    use_global_stats: true
    eps: 1e-05
    scale_filler {
      type: "constant"
      value: 1
    }
    bias_filler {
      type: "constant"
      value: 0
    }
  }
}
layer {
  name: "Threshold_4"
  type: "ReLU"
  bottom: "BatchNorm_4"
  top: "BatchNorm_4"
}
layer {
  name: "ConvNd_14"
  type: "Convolution"
  bottom: "BatchNorm_4"
  top: "ConvNd_14"
  convolution_param {
    num_output: 12
    bias_term: false
    pad: 0
    kernel_size: 1
    group: 1
    stride: 1
    weight_filler {
      type: "msra"
    }
    dilation: 1
  }
}
layer {
  name: "ConvNd_15"
  type: "Convolution"
  bottom: "ConvNd_14"
  top: "ConvNd_15"
  convolution_param {
    num_output: 16
    bias_term: false
    pad: 1
    kernel_size: 3
    group: 1
    stride: 1
    weight_filler {
      type: "msra"
    }
    dilation: 1
  }
}
layer {
  name: "ConvNd_16"
  type: "Convolution"
  bottom: "ConvNd_14"
  top: "ConvNd_16"
  convolution_param {
    num_output: 12
    bias_term: false
    pad: 2
    kernel_size: 3
    group: 1
    stride: 1
    weight_filler {
      type: "msra"
    }
    dilation: 2
  }
}
layer {
  name: "ConvNd_17"
  type: "Convolution"
  bottom: "ConvNd_14"
  top: "ConvNd_17"
  convolution_param {
    num_output: 12
    bias_term: false
    pad: 4
    kernel_size: 3
    group: 1
    stride: 1
    weight_filler {
      type: "msra"
    }
    dilation: 4
  }
}
layer {
  name: "Add_8"
  type: "Eltwise"
  bottom: "ConvNd_16"
  bottom: "ConvNd_17"
  top: "Add_8"
}
layer {
  name: "ConvNd_18"
  type: "Convolution"
  bottom: "ConvNd_14"
  top: "ConvNd_18"
  convolution_param {
    num_output: 12
    bias_term: false
    pad: 8
    kernel_size: 3
    group: 1
    stride: 1
    weight_filler {
      type: "msra"
    }
    dilation: 8
  }
}
layer {
  name: "Add_9"
  type: "Eltwise"
  bottom: "Add_8"
  bottom: "ConvNd_18"
  top: "Add_9"
}
layer {
  name: "ConvNd_19"
  type: "Convolution"
  bottom: "ConvNd_14"
  top: "ConvNd_19"
  convolution_param {
    num_output: 12
    bias_term: false
    pad: 16
    kernel_size: 3
    group: 1
    stride: 1
    weight_filler {
      type: "msra"
    }
    dilation: 16
  }
}
layer {
  name: "Add_10"
  type: "Eltwise"
  bottom: "Add_9"
  bottom: "ConvNd_19"
  top: "Add_10"
}
layer {
  name: "Concat_4"
  type: "Concat"
  bottom: "ConvNd_15"
  bottom: "ConvNd_16"
  bottom: "Add_8"
  bottom: "Add_9"
  bottom: "Add_10"
  top: "Concat_4"
  concat_param {
    axis: 1
  }
}
layer {
  name: "Add_11"
  type: "Eltwise"
  bottom: "BatchNorm_4"
  bottom: "Concat_4"
  top: "Add_11"
}
layer {
  name: "BatchNorm_5"
  type: "BatchNorm"
  bottom: "Add_11"
  top: "BatchNorm_5"
  param {
    lr_mult: 1
    decay_mult: 0
  }
  param {
    lr_mult: 1
    decay_mult: 0
  }
  param {
    lr_mult: 0
    decay_mult: 0
  }
  param {
    lr_mult: 0
    decay_mult: 0
  }
  batch_norm_param {
    use_global_stats: true
    eps: 1e-05
    scale_filler {
      type: "constant"
      value: 1
    }
    bias_filler {
      type: "constant"
      value: 0
    }
  }
}
layer {
  name: "Threshold_5"
  type: "ReLU"
  bottom: "BatchNorm_5"
  top: "BatchNorm_5"
}
layer {
  name: "AvgPool2d_2"
  type: "Pooling"
  bottom: "data"
  top: "AvgPool2d_2"
  pooling_param {
    pool: AVE
    kernel_size: 3
    stride: 2
    pad: 0
  }
}
layer {
  name: "AvgPool2d_3"
  type: "Pooling"
  bottom: "AvgPool2d_2"
  top: "AvgPool2d_3"
  pooling_param {
    pool: AVE
    kernel_size: 3
    stride: 2
    pad: 0
  }
}
layer {
  name: "Concat_5"
  type: "Concat"
  bottom: "BatchNorm_5"
  bottom: "BatchNorm_3"
  bottom: "AvgPool2d_3"
  top: "Concat_5"
  concat_param {
    axis: 1
  }
}
layer {
  name: "BatchNorm_6"
  type: "BatchNorm"
  bottom: "Concat_5"
  top: "BatchNorm_6"
  param {
    lr_mult: 1
    decay_mult: 0
  }
  param {
    lr_mult: 1
    decay_mult: 0
  }
  param {
    lr_mult: 0
    decay_mult: 0
  }
  param {
    lr_mult: 0
    decay_mult: 0
  }
  batch_norm_param {
    use_global_stats: true
    eps: 1e-05
    scale_filler {
      type: "constant"
      value: 1
    }
    bias_filler {
      type: "constant"
      value: 0
    }
  }
}
layer {
  name: "Threshold_6"
  type: "ReLU"
  bottom: "BatchNorm_6"
  top: "BatchNorm_6"
}
layer {
  name: "ConvNd_20"
  type: "Convolution"
  bottom: "BatchNorm_6"
  top: "ConvNd_20"
  convolution_param {
    num_output: 19
    bias_term: false
    pad: 0
    kernel_size: 1
    group: 1
    stride: 1
    weight_filler {
      type: "msra"
    }
    dilation: 1
  }
}
layer {
  name: "ConvNd_21"
  type: "Convolution"
  bottom: "BatchNorm_6"
  top: "ConvNd_21"
  convolution_param {
    num_output: 25
    bias_term: false
    pad: 1
    kernel_size: 3
    group: 1
    stride: 2
    weight_filler {
      type: "msra"
    }
    dilation: 1
  }
}
layer {
  name: "ConvNd_22"
  type: "Convolution"
  bottom: "ConvNd_21"
  top: "ConvNd_22"
  convolution_param {
    num_output: 28
    bias_term: false
    pad: 1
    kernel_size: 3
    group: 1
    stride: 1
    weight_filler {
      type: "msra"
    }
    dilation: 1
  }
}
layer {
  name: "ConvNd_23"
  type: "Convolution"
  bottom: "ConvNd_21"
  top: "ConvNd_23"
  convolution_param {
    num_output: 25
    bias_term: false
    pad: 2
    kernel_size: 3
    group: 1
    stride: 1
    weight_filler {
      type: "msra"
    }
    dilation: 2
  }
}
layer {
  name: "ConvNd_24"
  type: "Convolution"
  bottom: "ConvNd_21"
  top: "ConvNd_24"
  convolution_param {
    num_output: 25
    bias_term: false
    pad: 4
    kernel_size: 3
    group: 1
    stride: 1
    weight_filler {
      type: "msra"
    }
    dilation: 4
  }
}
layer {
  name: "Add_12"
  type: "Eltwise"
  bottom: "ConvNd_23"
  bottom: "ConvNd_24"
  top: "Add_12"
}
layer {
  name: "ConvNd_25"
  type: "Convolution"
  bottom: "ConvNd_21"
  top: "ConvNd_25"
  convolution_param {
    num_output: 25
    bias_term: false
    pad: 8
    kernel_size: 3
    group: 1
    stride: 1
    weight_filler {
      type: "msra"
    }
    dilation: 8
  }
}
layer {
  name: "Add_13"
  type: "Eltwise"
  bottom: "Add_12"
  bottom: "ConvNd_25"
  top: "Add_13"
}
layer {
  name: "ConvNd_26"
  type: "Convolution"
  bottom: "ConvNd_21"
  top: "ConvNd_26"
  convolution_param {
    num_output: 25
    bias_term: false
    pad: 16
    kernel_size: 3
    group: 1
    stride: 1
    weight_filler {
      type: "msra"
    }
    dilation: 16
  }
}
layer {
  name: "Add_14"
  type: "Eltwise"
  bottom: "Add_13"
  bottom: "ConvNd_26"
  top: "Add_14"
}
layer {
  name: "Concat_6"
  type: "Concat"
  bottom: "ConvNd_22"
  bottom: "ConvNd_23"
  bottom: "Add_12"
  bottom: "Add_13"
  bottom: "Add_14"
  top: "Concat_6"
  concat_param {
    axis: 1
  }
}
layer {
  name: "BatchNorm_7"
  type: "BatchNorm"
  bottom: "Concat_6"
  top: "BatchNorm_7"
  param {
    lr_mult: 1
    decay_mult: 0
  }
  param {
    lr_mult: 1
    decay_mult: 0
  }
  param {
    lr_mult: 0
    decay_mult: 0
  }
  param {
    lr_mult: 0
    decay_mult: 0
  }
  batch_norm_param {
    use_global_stats: true
    eps: 1e-05
    scale_filler {
      type: "constant"
      value: 1
    }
    bias_filler {
      type: "constant"
      value: 0
    }
  }
}
layer {
  name: "Threshold_7"
  type: "ReLU"
  bottom: "BatchNorm_7"
  top: "BatchNorm_7"
}
layer {
  name: "ConvNd_27"
  type: "Convolution"
  bottom: "BatchNorm_7"
  top: "ConvNd_27"
  convolution_param {
    num_output: 25
    bias_term: false
    pad: 0
    kernel_size: 1
    group: 1
    stride: 1
    weight_filler {
      type: "msra"
    }
    dilation: 1
  }
}
layer {
  name: "ConvNd_28"
  type: "Convolution"
  bottom: "ConvNd_27"
  top: "ConvNd_28"
  convolution_param {
    num_output: 28
    bias_term: false
    pad: 1
    kernel_size: 3
    group: 1
    stride: 1
    weight_filler {
      type: "msra"
    }
    dilation: 1
  }
}
layer {
  name: "ConvNd_29"
  type: "Convolution"
  bottom: "ConvNd_27"
  top: "ConvNd_29"
  convolution_param {
    num_output: 25
    bias_term: false
    pad: 2
    kernel_size: 3
    group: 1
    stride: 1
    weight_filler {
      type: "msra"
    }
    dilation: 2
  }
}
layer {
  name: "ConvNd_30"
  type: "Convolution"
  bottom: "ConvNd_27"
  top: "ConvNd_30"
  convolution_param {
    num_output: 25
    bias_term: false
    pad: 4
    kernel_size: 3
    group: 1
    stride: 1
    weight_filler {
      type: "msra"
    }
    dilation: 4
  }
}
layer {
  name: "Add_15"
  type: "Eltwise"
  bottom: "ConvNd_29"
  bottom: "ConvNd_30"
  top: "Add_15"
}
layer {
  name: "ConvNd_31"
  type: "Convolution"
  bottom: "ConvNd_27"
  top: "ConvNd_31"
  convolution_param {
    num_output: 25
    bias_term: false
    pad: 8
    kernel_size: 3
    group: 1
    stride: 1
    weight_filler {
      type: "msra"
    }
    dilation: 8
  }
}
layer {
  name: "Add_16"
  type: "Eltwise"
  bottom: "Add_15"
  bottom: "ConvNd_31"
  top: "Add_16"
}
layer {
  name: "ConvNd_32"
  type: "Convolution"
  bottom: "ConvNd_27"
  top: "ConvNd_32"
  convolution_param {
    num_output: 25
    bias_term: false
    pad: 16
    kernel_size: 3
    group: 1
    stride: 1
    weight_filler {
      type: "msra"
    }
    dilation: 16
  }
}
layer {
  name: "Add_17"
  type: "Eltwise"
  bottom: "Add_16"
  bottom: "ConvNd_32"
  top: "Add_17"
}
layer {
  name: "Concat_7"
  type: "Concat"
  bottom: "ConvNd_28"
  bottom: "ConvNd_29"
  bottom: "Add_15"
  bottom: "Add_16"
  bottom: "Add_17"
  top: "Concat_7"
  concat_param {
    axis: 1
  }
}
layer {
  name: "Add_18"
  type: "Eltwise"
  bottom: "BatchNorm_7"
  bottom: "Concat_7"
  top: "Add_18"
}
layer {
  name: "BatchNorm_8"
  type: "BatchNorm"
  bottom: "Add_18"
  top: "BatchNorm_8"
  param {
    lr_mult: 1
    decay_mult: 0
  }
  param {
    lr_mult: 1
    decay_mult: 0
  }
  param {
    lr_mult: 0
    decay_mult: 0
  }
  param {
    lr_mult: 0
    decay_mult: 0
  }
  batch_norm_param {
    use_global_stats: true
    eps: 1e-05
    scale_filler {
      type: "constant"
      value: 1
    }
    bias_filler {
      type: "constant"
      value: 0
    }
  }
}
layer {
  name: "Threshold_8"
  type: "ReLU"
  bottom: "BatchNorm_8"
  top: "BatchNorm_8"
}
layer {
  name: "ConvNd_33"
  type: "Convolution"
  bottom: "BatchNorm_8"
  top: "ConvNd_33"
  convolution_param {
    num_output: 25
    bias_term: false
    pad: 0
    kernel_size: 1
    group: 1
    stride: 1
    weight_filler {
      type: "msra"
    }
    dilation: 1
  }
}
layer {
  name: "ConvNd_34"
  type: "Convolution"
  bottom: "ConvNd_33"
  top: "ConvNd_34"
  convolution_param {
    num_output: 28
    bias_term: false
    pad: 1
    kernel_size: 3
    group: 1
    stride: 1
    weight_filler {
      type: "msra"
    }
    dilation: 1
  }
}
layer {
  name: "ConvNd_35"
  type: "Convolution"
  bottom: "ConvNd_33"
  top: "ConvNd_35"
  convolution_param {
    num_output: 25
    bias_term: false
    pad: 2
    kernel_size: 3
    group: 1
    stride: 1
    weight_filler {
      type: "msra"
    }
    dilation: 2
  }
}
layer {
  name: "ConvNd_36"
  type: "Convolution"
  bottom: "ConvNd_33"
  top: "ConvNd_36"
  convolution_param {
    num_output: 25
    bias_term: false
    pad: 4
    kernel_size: 3
    group: 1
    stride: 1
    weight_filler {
      type: "msra"
    }
    dilation: 4
  }
}
layer {
  name: "Add_19"
  type: "Eltwise"
  bottom: "ConvNd_35"
  bottom: "ConvNd_36"
  top: "Add_19"
}
layer {
  name: "ConvNd_37"
  type: "Convolution"
  bottom: "ConvNd_33"
  top: "ConvNd_37"
  convolution_param {
    num_output: 25
    bias_term: false
    pad: 8
    kernel_size: 3
    group: 1
    stride: 1
    weight_filler {
      type: "msra"
    }
    dilation: 8
  }
}
layer {
  name: "Add_20"
  type: "Eltwise"
  bottom: "Add_19"
  bottom: "ConvNd_37"
  top: "Add_20"
}
layer {
  name: "ConvNd_38"
  type: "Convolution"
  bottom: "ConvNd_33"
  top: "ConvNd_38"
  convolution_param {
    num_output: 25
    bias_term: false
    pad: 16
    kernel_size: 3
    group: 1
    stride: 1
    weight_filler {
      type: "msra"
    }
    dilation: 16
  }
}
layer {
  name: "Add_21"
  type: "Eltwise"
  bottom: "Add_20"
  bottom: "ConvNd_38"
  top: "Add_21"
}
layer {
  name: "Concat_8"
  type: "Concat"
  bottom: "ConvNd_34"
  bottom: "ConvNd_35"
  bottom: "Add_19"
  bottom: "Add_20"
  bottom: "Add_21"
  top: "Concat_8"
  concat_param {
    axis: 1
  }
}
layer {
  name: "Add_22"
  type: "Eltwise"
  bottom: "BatchNorm_8"
  bottom: "Concat_8"
  top: "Add_22"
}
layer {
  name: "BatchNorm_9"
  type: "BatchNorm"
  bottom: "Add_22"
  top: "BatchNorm_9"
  param {
    lr_mult: 1
    decay_mult: 0
  }
  param {
    lr_mult: 1
    decay_mult: 0
  }
  param {
    lr_mult: 0
    decay_mult: 0
  }
  param {
    lr_mult: 0
    decay_mult: 0
  }
  batch_norm_param {
    use_global_stats: true
    eps: 1e-05
    scale_filler {
      type: "constant"
      value: 1
    }
    bias_filler {
      type: "constant"
      value: 0
    }
  }
}
layer {
  name: "Threshold_9"
  type: "ReLU"
  bottom: "BatchNorm_9"
  top: "BatchNorm_9"
}
layer {
  name: "ConvNd_39"
  type: "Convolution"
  bottom: "BatchNorm_9"
  top: "ConvNd_39"
  convolution_param {
    num_output: 25
    bias_term: false
    pad: 0
    kernel_size: 1
    group: 1
    stride: 1
    weight_filler {
      type: "msra"
    }
    dilation: 1
  }
}
layer {
  name: "ConvNd_40"
  type: "Convolution"
  bottom: "ConvNd_39"
  top: "ConvNd_40"
  convolution_param {
    num_output: 28
    bias_term: false
    pad: 1
    kernel_size: 3
    group: 1
    stride: 1
    weight_filler {
      type: "msra"
    }
    dilation: 1
  }
}
layer {
  name: "ConvNd_41"
  type: "Convolution"
  bottom: "ConvNd_39"
  top: "ConvNd_41"
  convolution_param {
    num_output: 25
    bias_term: false
    pad: 2
    kernel_size: 3
    group: 1
    stride: 1
    weight_filler {
      type: "msra"
    }
    dilation: 2
  }
}
layer {
  name: "ConvNd_42"
  type: "Convolution"
  bottom: "ConvNd_39"
  top: "ConvNd_42"
  convolution_param {
    num_output: 25
    bias_term: false
    pad: 4
    kernel_size: 3
    group: 1
    stride: 1
    weight_filler {
      type: "msra"
    }
    dilation: 4
  }
}
layer {
  name: "Add_23"
  type: "Eltwise"
  bottom: "ConvNd_41"
  bottom: "ConvNd_42"
  top: "Add_23"
}
layer {
  name: "ConvNd_43"
  type: "Convolution"
  bottom: "ConvNd_39"
  top: "ConvNd_43"
  convolution_param {
    num_output: 25
    bias_term: false
    pad: 8
    kernel_size: 3
    group: 1
    stride: 1
    weight_filler {
      type: "msra"
    }
    dilation: 8
  }
}
layer {
  name: "Add_24"
  type: "Eltwise"
  bottom: "Add_23"
  bottom: "ConvNd_43"
  top: "Add_24"
}
layer {
  name: "ConvNd_44"
  type: "Convolution"
  bottom: "ConvNd_39"
  top: "ConvNd_44"
  convolution_param {
    num_output: 25
    bias_term: false
    pad: 16
    kernel_size: 3
    group: 1
    stride: 1
    weight_filler {
      type: "msra"
    }
    dilation: 16
  }
}
layer {
  name: "Add_25"
  type: "Eltwise"
  bottom: "Add_24"
  bottom: "ConvNd_44"
  top: "Add_25"
}
layer {
  name: "Concat_9"
  type: "Concat"
  bottom: "ConvNd_40"
  bottom: "ConvNd_41"
  bottom: "Add_23"
  bottom: "Add_24"
  bottom: "Add_25"
  top: "Concat_9"
  concat_param {
    axis: 1
  }
}
layer {
  name: "Add_26"
  type: "Eltwise"
  bottom: "BatchNorm_9"
  bottom: "Concat_9"
  top: "Add_26"
}
layer {
  name: "BatchNorm_10"
  type: "BatchNorm"
  bottom: "Add_26"
  top: "BatchNorm_10"
  param {
    lr_mult: 1
    decay_mult: 0
  }
  param {
    lr_mult: 1
    decay_mult: 0
  }
  param {
    lr_mult: 0
    decay_mult: 0
  }
  param {
    lr_mult: 0
    decay_mult: 0
  }
  batch_norm_param {
    use_global_stats: true
    eps: 1e-05
    scale_filler {
      type: "constant"
      value: 1
    }
    bias_filler {
      type: "constant"
      value: 0
    }
  }
}
layer {
  name: "Threshold_10"
  type: "ReLU"
  bottom: "BatchNorm_10"
  top: "BatchNorm_10"
}
layer {
  name: "ConvNd_45"
  type: "Convolution"
  bottom: "BatchNorm_10"
  top: "ConvNd_45"
  convolution_param {
    num_output: 25
    bias_term: false
    pad: 0
    kernel_size: 1
    group: 1
    stride: 1
    weight_filler {
      type: "msra"
    }
    dilation: 1
  }
}
layer {
  name: "ConvNd_46"
  type: "Convolution"
  bottom: "ConvNd_45"
  top: "ConvNd_46"
  convolution_param {
    num_output: 28
    bias_term: false
    pad: 1
    kernel_size: 3
    group: 1
    stride: 1
    weight_filler {
      type: "msra"
    }
    dilation: 1
  }
}
layer {
  name: "ConvNd_47"
  type: "Convolution"
  bottom: "ConvNd_45"
  top: "ConvNd_47"
  convolution_param {
    num_output: 25
    bias_term: false
    pad: 2
    kernel_size: 3
    group: 1
    stride: 1
    weight_filler {
      type: "msra"
    }
    dilation: 2
  }
}
layer {
  name: "ConvNd_48"
  type: "Convolution"
  bottom: "ConvNd_45"
  top: "ConvNd_48"
  convolution_param {
    num_output: 25
    bias_term: false
    pad: 4
    kernel_size: 3
    group: 1
    stride: 1
    weight_filler {
      type: "msra"
    }
    dilation: 4
  }
}
layer {
  name: "Add_27"
  type: "Eltwise"
  bottom: "ConvNd_47"
  bottom: "ConvNd_48"
  top: "Add_27"
}
layer {
  name: "ConvNd_49"
  type: "Convolution"
  bottom: "ConvNd_45"
  top: "ConvNd_49"
  convolution_param {
    num_output: 25
    bias_term: false
    pad: 8
    kernel_size: 3
    group: 1
    stride: 1
    weight_filler {
      type: "msra"
    }
    dilation: 8
  }
}
layer {
  name: "Add_28"
  type: "Eltwise"
  bottom: "Add_27"
  bottom: "ConvNd_49"
  top: "Add_28"
}
layer {
  name: "ConvNd_50"
  type: "Convolution"
  bottom: "ConvNd_45"
  top: "ConvNd_50"
  convolution_param {
    num_output: 25
    bias_term: false
    pad: 16
    kernel_size: 3
    group: 1
    stride: 1
    weight_filler {
      type: "msra"
    }
    dilation: 16
  }
}
layer {
  name: "Add_29"
  type: "Eltwise"
  bottom: "Add_28"
  bottom: "ConvNd_50"
  top: "Add_29"
}
layer {
  name: "Concat_10"
  type: "Concat"
  bottom: "ConvNd_46"
  bottom: "ConvNd_47"
  bottom: "Add_27"
  bottom: "Add_28"
  bottom: "Add_29"
  top: "Concat_10"
  concat_param {
    axis: 1
  }
}
layer {
  name: "Add_30"
  type: "Eltwise"
  bottom: "BatchNorm_10"
  bottom: "Concat_10"
  top: "Add_30"
}
layer {
  name: "BatchNorm_11"
  type: "BatchNorm"
  bottom: "Add_30"
  top: "BatchNorm_11"
  param {
    lr_mult: 1
    decay_mult: 0
  }
  param {
    lr_mult: 1
    decay_mult: 0
  }
  param {
    lr_mult: 0
    decay_mult: 0
  }
  param {
    lr_mult: 0
    decay_mult: 0
  }
  batch_norm_param {
    use_global_stats: true
    eps: 1e-05
    scale_filler {
      type: "constant"
      value: 1
    }
    bias_filler {
      type: "constant"
      value: 0
    }
  }
}
layer {
  name: "Threshold_11"
  type: "ReLU"
  bottom: "BatchNorm_11"
  top: "BatchNorm_11"
}
layer {
  name: "ConvNd_51"
  type: "Convolution"
  bottom: "BatchNorm_11"
  top: "ConvNd_51"
  convolution_param {
    num_output: 25
    bias_term: false
    pad: 0
    kernel_size: 1
    group: 1
    stride: 1
    weight_filler {
      type: "msra"
    }
    dilation: 1
  }
}
layer {
  name: "ConvNd_52"
  type: "Convolution"
  bottom: "ConvNd_51"
  top: "ConvNd_52"
  convolution_param {
    num_output: 28
    bias_term: false
    pad: 1
    kernel_size: 3
    group: 1
    stride: 1
    weight_filler {
      type: "msra"
    }
    dilation: 1
  }
}
layer {
  name: "ConvNd_53"
  type: "Convolution"
  bottom: "ConvNd_51"
  top: "ConvNd_53"
  convolution_param {
    num_output: 25
    bias_term: false
    pad: 2
    kernel_size: 3
    group: 1
    stride: 1
    weight_filler {
      type: "msra"
    }
    dilation: 2
  }
}
layer {
  name: "ConvNd_54"
  type: "Convolution"
  bottom: "ConvNd_51"
  top: "ConvNd_54"
  convolution_param {
    num_output: 25
    bias_term: false
    pad: 4
    kernel_size: 3
    group: 1
    stride: 1
    weight_filler {
      type: "msra"
    }
    dilation: 4
  }
}
layer {
  name: "Add_31"
  type: "Eltwise"
  bottom: "ConvNd_53"
  bottom: "ConvNd_54"
  top: "Add_31"
}
layer {
  name: "ConvNd_55"
  type: "Convolution"
  bottom: "ConvNd_51"
  top: "ConvNd_55"
  convolution_param {
    num_output: 25
    bias_term: false
    pad: 8
    kernel_size: 3
    group: 1
    stride: 1
    weight_filler {
      type: "msra"
    }
    dilation: 8
  }
}
layer {
  name: "Add_32"
  type: "Eltwise"
  bottom: "Add_31"
  bottom: "ConvNd_55"
  top: "Add_32"
}
layer {
  name: "ConvNd_56"
  type: "Convolution"
  bottom: "ConvNd_51"
  top: "ConvNd_56"
  convolution_param {
    num_output: 25
    bias_term: false
    pad: 16
    kernel_size: 3
    group: 1
    stride: 1
    weight_filler {
      type: "msra"
    }
    dilation: 16
  }
}
layer {
  name: "Add_33"
  type: "Eltwise"
  bottom: "Add_32"
  bottom: "ConvNd_56"
  top: "Add_33"
}
layer {
  name: "Concat_11"
  type: "Concat"
  bottom: "ConvNd_52"
  bottom: "ConvNd_53"
  bottom: "Add_31"
  bottom: "Add_32"
  bottom: "Add_33"
  top: "Concat_11"
  concat_param {
    axis: 1
  }
}
layer {
  name: "Add_34"
  type: "Eltwise"
  bottom: "BatchNorm_11"
  bottom: "Concat_11"
  top: "Add_34"
}
layer {
  name: "BatchNorm_12"
  type: "BatchNorm"
  bottom: "Add_34"
  top: "BatchNorm_12"
  param {
    lr_mult: 1
    decay_mult: 0
  }
  param {
    lr_mult: 1
    decay_mult: 0
  }
  param {
    lr_mult: 0
    decay_mult: 0
  }
  param {
    lr_mult: 0
    decay_mult: 0
  }
  batch_norm_param {
    use_global_stats: true
    eps: 1e-05
    scale_filler {
      type: "constant"
      value: 1
    }
    bias_filler {
      type: "constant"
      value: 0
    }
  }
}
layer {
  name: "Threshold_12"
  type: "ReLU"
  bottom: "BatchNorm_12"
  top: "BatchNorm_12"
}
layer {
  name: "ConvNd_57"
  type: "Convolution"
  bottom: "BatchNorm_12"
  top: "ConvNd_57"
  convolution_param {
    num_output: 25
    bias_term: false
    pad: 0
    kernel_size: 1
    group: 1
    stride: 1
    weight_filler {
      type: "msra"
    }
    dilation: 1
  }
}
layer {
  name: "ConvNd_58"
  type: "Convolution"
  bottom: "ConvNd_57"
  top: "ConvNd_58"
  convolution_param {
    num_output: 28
    bias_term: false
    pad: 1
    kernel_size: 3
    group: 1
    stride: 1
    weight_filler {
      type: "msra"
    }
    dilation: 1
  }
}
layer {
  name: "ConvNd_59"
  type: "Convolution"
  bottom: "ConvNd_57"
  top: "ConvNd_59"
  convolution_param {
    num_output: 25
    bias_term: false
    pad: 2
    kernel_size: 3
    group: 1
    stride: 1
    weight_filler {
      type: "msra"
    }
    dilation: 2
  }
}
layer {
  name: "ConvNd_60"
  type: "Convolution"
  bottom: "ConvNd_57"
  top: "ConvNd_60"
  convolution_param {
    num_output: 25
    bias_term: false
    pad: 4
    kernel_size: 3
    group: 1
   
I0224 07:28:16.079962  1272 layer_factory.hpp:123] Creating layer data
I0224 07:28:16.079989  1272 net.cpp:140] Creating Layer data
I0224 07:28:16.079994  1272 net.cpp:455] data -> data
I0224 07:28:16.080008  1272 net.cpp:455] data -> label
I0224 07:28:16.080020  1272 image_seg_data_layer.cpp:46] Opening file ../data/val_img_seg_nomap.txt
I0224 07:28:16.080549  1272 image_seg_data_layer.cpp:68] A total of 500 images.
I0224 07:28:16.144599  1272 image_seg_data_layer.cpp:97] output data size: 1,3,1024,2048
I0224 07:28:16.278791  1272 internal_thread.cpp:73] Starting internal thread(s) on GPU 0
I0224 07:28:16.279062  1272 net.cpp:190] Setting up data
I0224 07:28:16.279072  1272 net.cpp:197] Top shape: 1 3 1024 2048 (6291456)
I0224 07:28:16.279081  1272 net.cpp:197] Top shape: 1 1 1024 2048 (2097152)
I0224 07:28:16.279085  1272 net.cpp:205] Memory required for data: 33554432
I0224 07:28:16.279091  1272 layer_factory.hpp:123] Creating layer resize_down
I0224 07:28:16.279109  1272 net.cpp:140] Creating Layer resize_down
I0224 07:28:16.279112  1272 net.cpp:481] resize_down <- data
I0224 07:28:16.279119  1272 net.cpp:442] resize_down -> data (in-place)
I0224 07:28:16.279129  1272 net.cpp:190] Setting up resize_down
I0224 07:28:16.279132  1272 net.cpp:197] Top shape: 1 3 512 1024 (1572864)
I0224 07:28:16.279136  1272 net.cpp:205] Memory required for data: 39845888
I0224 07:28:16.279139  1272 layer_factory.hpp:123] Creating layer data_resize_down_0_split
I0224 07:28:16.279170  1272 net.cpp:140] Creating Layer data_resize_down_0_split
I0224 07:28:16.279178  1272 net.cpp:481] data_resize_down_0_split <- data
I0224 07:28:16.279184  1272 net.cpp:455] data_resize_down_0_split -> data_resize_down_0_split_0
I0224 07:28:16.279191  1272 net.cpp:455] data_resize_down_0_split -> data_resize_down_0_split_1
I0224 07:28:16.279196  1272 net.cpp:455] data_resize_down_0_split -> data_resize_down_0_split_2
I0224 07:28:16.279253  1272 net.cpp:190] Setting up data_resize_down_0_split
I0224 07:28:16.279259  1272 net.cpp:197] Top shape: 1 3 512 1024 (1572864)
I0224 07:28:16.279264  1272 net.cpp:197] Top shape: 1 3 512 1024 (1572864)
I0224 07:28:16.279268  1272 net.cpp:197] Top shape: 1 3 512 1024 (1572864)
I0224 07:28:16.279273  1272 net.cpp:205] Memory required for data: 58720256
I0224 07:28:16.279278  1272 layer_factory.hpp:123] Creating layer ConvNd_1
I0224 07:28:16.279290  1272 net.cpp:140] Creating Layer ConvNd_1
I0224 07:28:16.279294  1272 net.cpp:481] ConvNd_1 <- data_resize_down_0_split_0
I0224 07:28:16.279299  1272 net.cpp:455] ConvNd_1 -> ConvNd_1
I0224 07:28:16.279589  1272 net.cpp:190] Setting up ConvNd_1
I0224 07:28:16.279597  1272 net.cpp:197] Top shape: 1 16 256 512 (2097152)
I0224 07:28:16.279603  1272 net.cpp:205] Memory required for data: 67108864
I0224 07:28:16.279624  1272 layer_factory.hpp:123] Creating layer BatchNorm_1
I0224 07:28:16.279636  1272 net.cpp:140] Creating Layer BatchNorm_1
I0224 07:28:16.279642  1272 net.cpp:481] BatchNorm_1 <- ConvNd_1
I0224 07:28:16.279650  1272 net.cpp:455] BatchNorm_1 -> BatchNorm_1
I0224 07:28:16.280426  1272 net.cpp:190] Setting up BatchNorm_1
I0224 07:28:16.280434  1272 net.cpp:197] Top shape: 1 16 256 512 (2097152)
I0224 07:28:16.280441  1272 net.cpp:205] Memory required for data: 75497472
I0224 07:28:16.280452  1272 layer_factory.hpp:123] Creating layer Threshold_1
I0224 07:28:16.280457  1272 net.cpp:140] Creating Layer Threshold_1
I0224 07:28:16.280462  1272 net.cpp:481] Threshold_1 <- BatchNorm_1
I0224 07:28:16.280467  1272 net.cpp:442] Threshold_1 -> BatchNorm_1 (in-place)
I0224 07:28:16.280478  1272 net.cpp:190] Setting up Threshold_1
I0224 07:28:16.280483  1272 net.cpp:197] Top shape: 1 16 256 512 (2097152)
I0224 07:28:16.280488  1272 net.cpp:205] Memory required for data: 83886080
I0224 07:28:16.280493  1272 layer_factory.hpp:123] Creating layer BatchNorm_1_Threshold_1_0_split
I0224 07:28:16.280500  1272 net.cpp:140] Creating Layer BatchNorm_1_Threshold_1_0_split
I0224 07:28:16.280505  1272 net.cpp:481] BatchNorm_1_Threshold_1_0_split <- BatchNorm_1
I0224 07:28:16.280512  1272 net.cpp:455] BatchNorm_1_Threshold_1_0_split -> BatchNorm_1_Threshold_1_0_split_0
I0224 07:28:16.280521  1272 net.cpp:455] BatchNorm_1_Threshold_1_0_split -> BatchNorm_1_Threshold_1_0_split_1
I0224 07:28:16.280565  1272 net.cpp:190] Setting up BatchNorm_1_Threshold_1_0_split
I0224 07:28:16.280572  1272 net.cpp:197] Top shape: 1 16 256 512 (2097152)
I0224 07:28:16.280578  1272 net.cpp:197] Top shape: 1 16 256 512 (2097152)
I0224 07:28:16.280581  1272 net.cpp:205] Memory required for data: 100663296
I0224 07:28:16.280586  1272 layer_factory.hpp:123] Creating layer AvgPool2d_1
I0224 07:28:16.280592  1272 net.cpp:140] Creating Layer AvgPool2d_1
I0224 07:28:16.280596  1272 net.cpp:481] AvgPool2d_1 <- data_resize_down_0_split_1
I0224 07:28:16.280601  1272 net.cpp:455] AvgPool2d_1 -> AvgPool2d_1
I0224 07:28:16.280633  1272 net.cpp:190] Setting up AvgPool2d_1
I0224 07:28:16.280642  1272 net.cpp:197] Top shape: 1 3 256 512 (393216)
I0224 07:28:16.280649  1272 net.cpp:205] Memory required for data: 102236160
I0224 07:28:16.280654  1272 layer_factory.hpp:123] Creating layer Concat_1
I0224 07:28:16.280664  1272 net.cpp:140] Creating Layer Concat_1
I0224 07:28:16.280668  1272 net.cpp:481] Concat_1 <- BatchNorm_1_Threshold_1_0_split_0
I0224 07:28:16.280673  1272 net.cpp:481] Concat_1 <- AvgPool2d_1
I0224 07:28:16.280676  1272 net.cpp:455] Concat_1 -> Concat_1
I0224 07:28:16.280695  1272 net.cpp:190] Setting up Concat_1
I0224 07:28:16.280700  1272 net.cpp:197] Top shape: 1 19 256 512 (2490368)
I0224 07:28:16.280706  1272 net.cpp:205] Memory required for data: 112197632
I0224 07:28:16.280711  1272 layer_factory.hpp:123] Creating layer BatchNorm_2
I0224 07:28:16.280720  1272 net.cpp:140] Creating Layer BatchNorm_2
I0224 07:28:16.280725  1272 net.cpp:481] BatchNorm_2 <- Concat_1
I0224 07:28:16.280735  1272 net.cpp:455] BatchNorm_2 -> BatchNorm_2
I0224 07:28:16.281347  1272 net.cpp:190] Setting up BatchNorm_2
I0224 07:28:16.281356  1272 net.cpp:197] Top shape: 1 19 256 512 (2490368)
I0224 07:28:16.281361  1272 net.cpp:205] Memory required for data: 122159104
I0224 07:28:16.281371  1272 layer_factory.hpp:123] Creating layer Threshold_2
I0224 07:28:16.281376  1272 net.cpp:140] Creating Layer Threshold_2
I0224 07:28:16.281380  1272 net.cpp:481] Threshold_2 <- BatchNorm_2
I0224 07:28:16.281385  1272 net.cpp:442] Threshold_2 -> BatchNorm_2 (in-place)
I0224 07:28:16.281391  1272 net.cpp:190] Setting up Threshold_2
I0224 07:28:16.281394  1272 net.cpp:197] Top shape: 1 19 256 512 (2490368)
I0224 07:28:16.281399  1272 net.cpp:205] Memory required for data: 132120576
I0224 07:28:16.281401  1272 layer_factory.hpp:123] Creating layer ConvNd_2
I0224 07:28:16.281409  1272 net.cpp:140] Creating Layer ConvNd_2
I0224 07:28:16.281411  1272 net.cpp:481] ConvNd_2 <- BatchNorm_2
I0224 07:28:16.281416  1272 net.cpp:455] ConvNd_2 -> ConvNd_2
I0224 07:28:16.281674  1272 net.cpp:190] Setting up ConvNd_2
I0224 07:28:16.281682  1272 net.cpp:197] Top shape: 1 12 128 256 (393216)
I0224 07:28:16.281687  1272 net.cpp:205] Memory required for data: 133693440
I0224 07:28:16.281692  1272 layer_factory.hpp:123] Creating layer ConvNd_2_ConvNd_2_0_split
I0224 07:28:16.281698  1272 net.cpp:140] Creating Layer ConvNd_2_ConvNd_2_0_split
I0224 07:28:16.281702  1272 net.cpp:481] ConvNd_2_ConvNd_2_0_split <- ConvNd_2
I0224 07:28:16.281706  1272 net.cpp:455] ConvNd_2_ConvNd_2_0_split -> ConvNd_2_ConvNd_2_0_split_0
I0224 07:28:16.281713  1272 net.cpp:455] ConvNd_2_ConvNd_2_0_split -> ConvNd_2_ConvNd_2_0_split_1
I0224 07:28:16.281718  1272 net.cpp:455] ConvNd_2_ConvNd_2_0_split -> ConvNd_2_ConvNd_2_0_split_2
I0224 07:28:16.281724  1272 net.cpp:455] ConvNd_2_ConvNd_2_0_split -> ConvNd_2_ConvNd_2_0_split_3
I0224 07:28:16.281733  1272 net.cpp:455] ConvNd_2_ConvNd_2_0_split -> ConvNd_2_ConvNd_2_0_split_4
I0224 07:28:16.281833  1272 net.cpp:190] Setting up ConvNd_2_ConvNd_2_0_split
I0224 07:28:16.281839  1272 net.cpp:197] Top shape: 1 12 128 256 (393216)
I0224 07:28:16.281846  1272 net.cpp:197] Top shape: 1 12 128 256 (393216)
I0224 07:28:16.281849  1272 net.cpp:197] Top shape: 1 12 128 256 (393216)
I0224 07:28:16.281853  1272 net.cpp:197] Top shape: 1 12 128 256 (393216)
I0224 07:28:16.281857  1272 net.cpp:197] Top shape: 1 12 128 256 (393216)
I0224 07:28:16.281862  1272 net.cpp:205] Memory required for data: 141557760
I0224 07:28:16.281864  1272 layer_factory.hpp:123] Creating layer ConvNd_3
I0224 07:28:16.281872  1272 net.cpp:140] Creating Layer ConvNd_3
I0224 07:28:16.281877  1272 net.cpp:481] ConvNd_3 <- ConvNd_2_ConvNd_2_0_split_0
I0224 07:28:16.281881  1272 net.cpp:455] ConvNd_3 -> ConvNd_3
I0224 07:28:16.282184  1272 net.cpp:190] Setting up ConvNd_3
I0224 07:28:16.282191  1272 net.cpp:197] Top shape: 1 16 128 256 (524288)
I0224 07:28:16.282196  1272 net.cpp:205] Memory required for data: 143654912
I0224 07:28:16.282202  1272 layer_factory.hpp:123] Creating layer ConvNd_4
I0224 07:28:16.282207  1272 net.cpp:140] Creating Layer ConvNd_4
I0224 07:28:16.282212  1272 net.cpp:481] ConvNd_4 <- ConvNd_2_ConvNd_2_0_split_1
I0224 07:28:16.282217  1272 net.cpp:455] ConvNd_4 -> ConvNd_4
I0224 07:28:16.282500  1272 net.cpp:190] Setting up ConvNd_4
I0224 07:28:16.282508  1272 net.cpp:197] Top shape: 1 12 128 256 (393216)
I0224 07:28:16.282513  1272 net.cpp:205] Memory required for data: 145227776
I0224 07:28:16.282518  1272 layer_factory.hpp:123] Creating layer ConvNd_4_ConvNd_4_0_split
I0224 07:28:16.282523  1272 net.cpp:140] Creating Layer ConvNd_4_ConvNd_4_0_split
I0224 07:28:16.282527  1272 net.cpp:481] ConvNd_4_ConvNd_4_0_split <- ConvNd_4
I0224 07:28:16.282532  1272 net.cpp:455] ConvNd_4_ConvNd_4_0_split -> ConvNd_4_ConvNd_4_0_split_0
I0224 07:28:16.282538  1272 net.cpp:455] ConvNd_4_ConvNd_4_0_split -> ConvNd_4_ConvNd_4_0_split_1
I0224 07:28:16.282574  1272 net.cpp:190] Setting up ConvNd_4_ConvNd_4_0_split
I0224 07:28:16.282579  1272 net.cpp:197] Top shape: 1 12 128 256 (393216)
I0224 07:28:16.282583  1272 net.cpp:197] Top shape: 1 12 128 256 (393216)
I0224 07:28:16.282588  1272 net.cpp:205] Memory required for data: 148373504
I0224 07:28:16.282593  1272 layer_factory.hpp:123] Creating layer ConvNd_5
I0224 07:28:16.282604  1272 net.cpp:140] Creating Layer ConvNd_5
I0224 07:28:16.282608  1272 net.cpp:481] ConvNd_5 <- ConvNd_2_ConvNd_2_0_split_2
I0224 07:28:16.282613  1272 net.cpp:455] ConvNd_5 -> ConvNd_5
I0224 07:28:16.282855  1272 net.cpp:190] Setting up ConvNd_5
I0224 07:28:16.282862  1272 net.cpp:197] Top shape: 1 12 128 256 (393216)
I0224 07:28:16.282866  1272 net.cpp:205] Memory required for data: 149946368
I0224 07:28:16.282871  1272 layer_factory.hpp:123] Creating layer Add_1
I0224 07:28:16.282877  1272 net.cpp:140] Creating Layer Add_1
I0224 07:28:16.282881  1272 net.cpp:481] Add_1 <- ConvNd_4_ConvNd_4_0_split_0
I0224 07:28:16.282886  1272 net.cpp:481] Add_1 <- ConvNd_5
I0224 07:28:16.282889  1272 net.cpp:455] Add_1 -> Add_1
I0224 07:28:16.282910  1272 net.cpp:190] Setting up Add_1
I0224 07:28:16.282920  1272 net.cpp:197] Top shape: 1 12 128 256 (393216)
I0224 07:28:16.282927  1272 net.cpp:205] Memory required for data: 151519232
I0224 07:28:16.282932  1272 layer_factory.hpp:123] Creating layer Add_1_Add_1_0_split
I0224 07:28:16.282940  1272 net.cpp:140] Creating Layer Add_1_Add_1_0_split
I0224 07:28:16.282946  1272 net.cpp:481] Add_1_Add_1_0_split <- Add_1
I0224 07:28:16.282954  1272 net.cpp:455] Add_1_Add_1_0_split -> Add_1_Add_1_0_split_0
I0224 07:28:16.282963  1272 net.cpp:455] Add_1_Add_1_0_split -> Add_1_Add_1_0_split_1
I0224 07:28:16.283000  1272 net.cpp:190] Setting up Add_1_Add_1_0_split
I0224 07:28:16.283007  1272 net.cpp:197] Top shape: 1 12 128 256 (393216)
I0224 07:28:16.283015  1272 net.cpp:197] Top shape: 1 12 128 256 (393216)
I0224 07:28:16.283020  1272 net.cpp:205] Memory required for data: 154664960
I0224 07:28:16.283025  1272 layer_factory.hpp:123] Creating layer ConvNd_6
I0224 07:28:16.283032  1272 net.cpp:140] Creating Layer ConvNd_6
I0224 07:28:16.283035  1272 net.cpp:481] ConvNd_6 <- ConvNd_2_ConvNd_2_0_split_3
I0224 07:28:16.283041  1272 net.cpp:455] ConvNd_6 -> ConvNd_6
I0224 07:28:16.283217  1272 net.cpp:190] Setting up ConvNd_6
I0224 07:28:16.283224  1272 net.cpp:197] Top shape: 1 12 128 256 (393216)
I0224 07:28:16.283229  1272 net.cpp:205] Memory required for data: 156237824
I0224 07:28:16.283234  1272 layer_factory.hpp:123] Creating layer Add_2
I0224 07:28:16.283239  1272 net.cpp:140] Creating Layer Add_2
I0224 07:28:16.283243  1272 net.cpp:481] Add_2 <- Add_1_Add_1_0_split_0
I0224 07:28:16.283248  1272 net.cpp:481] Add_2 <- ConvNd_6
I0224 07:28:16.283252  1272 net.cpp:455] Add_2 -> Add_2
I0224 07:28:16.283272  1272 net.cpp:190] Setting up Add_2
I0224 07:28:16.283280  1272 net.cpp:197] Top shape: 1 12 128 256 (393216)
I0224 07:28:16.283288  1272 net.cpp:205] Memory required for data: 157810688
I0224 07:28:16.283293  1272 layer_factory.hpp:123] Creating layer Add_2_Add_2_0_split
I0224 07:28:16.283299  1272 net.cpp:140] Creating Layer Add_2_Add_2_0_split
I0224 07:28:16.283305  1272 net.cpp:481] Add_2_Add_2_0_split <- Add_2
I0224 07:28:16.283313  1272 net.cpp:455] Add_2_Add_2_0_split -> Add_2_Add_2_0_split_0
I0224 07:28:16.283322  1272 net.cpp:455] Add_2_Add_2_0_split -> Add_2_Add_2_0_split_1
I0224 07:28:16.283357  1272 net.cpp:190] Setting up Add_2_Add_2_0_split
I0224 07:28:16.283363  1272 net.cpp:197] Top shape: 1 12 128 256 (393216)
I0224 07:28:16.283368  1272 net.cpp:197] Top shape: 1 12 128 256 (393216)
I0224 07:28:16.283372  1272 net.cpp:205] Memory required for data: 160956416
I0224 07:28:16.283375  1272 layer_factory.hpp:123] Creating layer ConvNd_7
I0224 07:28:16.283382  1272 net.cpp:140] Creating Layer ConvNd_7
I0224 07:28:16.283386  1272 net.cpp:481] ConvNd_7 <- ConvNd_2_ConvNd_2_0_split_4
I0224 07:28:16.283391  1272 net.cpp:455] ConvNd_7 -> ConvNd_7
I0224 07:28:16.283566  1272 net.cpp:190] Setting up ConvNd_7
I0224 07:28:16.283573  1272 net.cpp:197] Top shape: 1 12 128 256 (393216)
I0224 07:28:16.283578  1272 net.cpp:205] Memory required for data: 162529280
I0224 07:28:16.283584  1272 layer_factory.hpp:123] Creating layer Add_3
I0224 07:28:16.283589  1272 net.cpp:140] Creating Layer Add_3
I0224 07:28:16.283593  1272 net.cpp:481] Add_3 <- Add_2_Add_2_0_split_0
I0224 07:28:16.283597  1272 net.cpp:481] Add_3 <- ConvNd_7
I0224 07:28:16.283602  1272 net.cpp:455] Add_3 -> Add_3
I0224 07:28:16.283622  1272 net.cpp:190] Setting up Add_3
I0224 07:28:16.283630  1272 net.cpp:197] Top shape: 1 12 128 256 (393216)
I0224 07:28:16.283638  1272 net.cpp:205] Memory required for data: 164102144
I0224 07:28:16.283643  1272 layer_factory.hpp:123] Creating layer Concat_2
I0224 07:28:16.283650  1272 net.cpp:140] Creating Layer Concat_2
I0224 07:28:16.283656  1272 net.cpp:481] Concat_2 <- ConvNd_3
I0224 07:28:16.283663  1272 net.cpp:481] Concat_2 <- ConvNd_4_ConvNd_4_0_split_1
I0224 07:28:16.283668  1272 net.cpp:481] Concat_2 <- Add_1_Add_1_0_split_1
I0224 07:28:16.283675  1272 net.cpp:481] Concat_2 <- Add_2_Add_2_0_split_1
I0224 07:28:16.283681  1272 net.cpp:481] Concat_2 <- Add_3
I0224 07:28:16.283689  1272 net.cpp:455] Concat_2 -> Concat_2
I0224 07:28:16.283718  1272 net.cpp:190] Setting up Concat_2
I0224 07:28:16.283725  1272 net.cpp:197] Top shape: 1 64 128 256 (2097152)
I0224 07:28:16.283730  1272 net.cpp:205] Memory required for data: 172490752
I0224 07:28:16.283733  1272 layer_factory.hpp:123] Creating layer BatchNorm_3
I0224 07:28:16.283740  1272 net.cpp:140] Creating Layer BatchNorm_3
I0224 07:28:16.283743  1272 net.cpp:481] BatchNorm_3 <- Concat_2
I0224 07:28:16.283749  1272 net.cpp:455] BatchNorm_3 -> BatchNorm_3
I0224 07:28:16.284305  1272 net.cpp:190] Setting up BatchNorm_3
I0224 07:28:16.284313  1272 net.cpp:197] Top shape: 1 64 128 256 (2097152)
I0224 07:28:16.284318  1272 net.cpp:205] Memory required for data: 180879360
I0224 07:28:16.284327  1272 layer_factory.hpp:123] Creating layer Threshold_3
I0224 07:28:16.284332  1272 net.cpp:140] Creating Layer Threshold_3
I0224 07:28:16.284335  1272 net.cpp:481] Threshold_3 <- BatchNorm_3
I0224 07:28:16.284340  1272 net.cpp:442] Threshold_3 -> BatchNorm_3 (in-place)
I0224 07:28:16.284345  1272 net.cpp:190] Setting up Threshold_3
I0224 07:28:16.284348  1272 net.cpp:197] Top shape: 1 64 128 256 (2097152)
I0224 07:28:16.284354  1272 net.cpp:205] Memory required for data: 189267968
I0224 07:28:16.284358  1272 layer_factory.hpp:123] Creating layer BatchNorm_3_Threshold_3_0_split
I0224 07:28:16.284366  1272 net.cpp:140] Creating Layer BatchNorm_3_Threshold_3_0_split
I0224 07:28:16.284371  1272 net.cpp:481] BatchNorm_3_Threshold_3_0_split <- BatchNorm_3
I0224 07:28:16.284379  1272 net.cpp:455] BatchNorm_3_Threshold_3_0_split -> BatchNorm_3_Threshold_3_0_split_0
I0224 07:28:16.284387  1272 net.cpp:455] BatchNorm_3_Threshold_3_0_split -> BatchNorm_3_Threshold_3_0_split_1
I0224 07:28:16.284396  1272 net.cpp:455] BatchNorm_3_Threshold_3_0_split -> BatchNorm_3_Threshold_3_0_split_2
I0224 07:28:16.284452  1272 net.cpp:190] Setting up BatchNorm_3_Threshold_3_0_split
I0224 07:28:16.284461  1272 net.cpp:197] Top shape: 1 64 128 256 (2097152)
I0224 07:28:16.284469  1272 net.cpp:197] Top shape: 1 64 128 256 (2097152)
I0224 07:28:16.284476  1272 net.cpp:197] Top shape: 1 64 128 256 (2097152)
I0224 07:28:16.284483  1272 net.cpp:205] Memory required for data: 214433792
I0224 07:28:16.284489  1272 layer_factory.hpp:123] Creating layer ConvNd_8
I0224 07:28:16.284497  1272 net.cpp:140] Creating Layer ConvNd_8
I0224 07:28:16.284502  1272 net.cpp:481] ConvNd_8 <- BatchNorm_3_Threshold_3_0_split_0
I0224 07:28:16.284507  1272 net.cpp:455] ConvNd_8 -> ConvNd_8
I0224 07:28:16.284678  1272 net.cpp:190] Setting up ConvNd_8
I0224 07:28:16.284685  1272 net.cpp:197] Top shape: 1 12 128 256 (393216)
I0224 07:28:16.284691  1272 net.cpp:205] Memory required for data: 216006656
I0224 07:28:16.284696  1272 layer_factory.hpp:123] Creating layer ConvNd_8_ConvNd_8_0_split
I0224 07:28:16.284703  1272 net.cpp:140] Creating Layer ConvNd_8_ConvNd_8_0_split
I0224 07:28:16.284706  1272 net.cpp:481] ConvNd_8_ConvNd_8_0_split <- ConvNd_8
I0224 07:28:16.284711  1272 net.cpp:455] ConvNd_8_ConvNd_8_0_split -> ConvNd_8_ConvNd_8_0_split_0
I0224 07:28:16.284718  1272 net.cpp:455] ConvNd_8_ConvNd_8_0_split -> ConvNd_8_ConvNd_8_0_split_1
I0224 07:28:16.284723  1272 net.cpp:455] ConvNd_8_ConvNd_8_0_split -> ConvNd_8_ConvNd_8_0_split_2
I0224 07:28:16.284730  1272 net.cpp:455] ConvNd_8_ConvNd_8_0_split -> ConvNd_8_ConvNd_8_0_split_3
I0224 07:28:16.284737  1272 net.cpp:455] ConvNd_8_ConvNd_8_0_split -> ConvNd_8_ConvNd_8_0_split_4
I0224 07:28:16.284807  1272 net.cpp:190] Setting up ConvNd_8_ConvNd_8_0_split
I0224 07:28:16.284814  1272 net.cpp:197] Top shape: 1 12 128 256 (393216)
I0224 07:28:16.284819  1272 net.cpp:197] Top shape: 1 12 128 256 (393216)
I0224 07:28:16.284823  1272 net.cpp:197] Top shape: 1 12 128 256 (393216)
I0224 07:28:16.284827  1272 net.cpp:197] Top shape: 1 12 128 256 (393216)
I0224 07:28:16.284832  1272 net.cpp:197] Top shape: 1 12 128 256 (393216)
I0224 07:28:16.284835  1272 net.cpp:205] Memory required for data: 223870976
I0224 07:28:16.284838  1272 layer_factory.hpp:123] Creating layer ConvNd_9
I0224 07:28:16.284847  1272 net.cpp:140] Creating Layer ConvNd_9
I0224 07:28:16.284850  1272 net.cpp:481] ConvNd_9 <- ConvNd_8_ConvNd_8_0_split_0
I0224 07:28:16.284855  1272 net.cpp:455] ConvNd_9 -> ConvNd_9
I0224 07:28:16.285059  1272 net.cpp:190] Setting up ConvNd_9
I0224 07:28:16.285068  1272 net.cpp:197] Top shape: 1 16 128 256 (524288)
I0224 07:28:16.285073  1272 net.cpp:205] Memory required for data: 225968128
I0224 07:28:16.285079  1272 layer_factory.hpp:123] Creating layer ConvNd_10
I0224 07:28:16.285085  1272 net.cpp:140] Creating Layer ConvNd_10
I0224 07:28:16.285089  1272 net.cpp:481] ConvNd_10 <- ConvNd_8_ConvNd_8_0_split_1
I0224 07:28:16.285094  1272 net.cpp:455] ConvNd_10 -> ConvNd_10
I0224 07:28:16.285264  1272 net.cpp:190] Setting up ConvNd_10
I0224 07:28:16.285270  1272 net.cpp:197] Top shape: 1 12 128 256 (393216)
I0224 07:28:16.285274  1272 net.cpp:205] Memory required for data: 227540992
I0224 07:28:16.285279  1272 layer_factory.hpp:123] Creating layer ConvNd_10_ConvNd_10_0_split
I0224 07:28:16.285285  1272 net.cpp:140] Creating Layer ConvNd_10_ConvNd_10_0_split
I0224 07:28:16.285290  1272 net.cpp:481] ConvNd_10_ConvNd_10_0_split <- ConvNd_10
I0224 07:28:16.285295  1272 net.cpp:455] ConvNd_10_ConvNd_10_0_split -> ConvNd_10_ConvNd_10_0_split_0
I0224 07:28:16.285300  1272 net.cpp:455] ConvNd_10_ConvNd_10_0_split -> ConvNd_10_ConvNd_10_0_split_1
I0224 07:28:16.285348  1272 net.cpp:190] Setting up ConvNd_10_ConvNd_10_0_split
I0224 07:28:16.285357  1272 net.cpp:197] Top shape: 1 12 128 256 (393216)
I0224 07:28:16.285367  1272 net.cpp:197] Top shape: 1 12 128 256 (393216)
I0224 07:28:16.285373  1272 net.cpp:205] Memory required for data: 230686720
I0224 07:28:16.285379  1272 layer_factory.hpp:123] Creating layer ConvNd_11
I0224 07:28:16.285390  1272 net.cpp:140] Creating Layer ConvNd_11
I0224 07:28:16.285396  1272 net.cpp:481] ConvNd_11 <- ConvNd_8_ConvNd_8_0_split_2
I0224 07:28:16.285404  1272 net.cpp:455] ConvNd_11 -> ConvNd_11
I0224 07:28:16.285584  1272 net.cpp:190] Setting up ConvNd_11
I0224 07:28:16.285591  1272 net.cpp:197] Top shape: 1 12 128 256 (393216)
I0224 07:28:16.285596  1272 net.cpp:205] Memory required for data: 232259584
I0224 07:28:16.285601  1272 layer_factory.hpp:123] Creating layer Add_4
I0224 07:28:16.285607  1272 net.cpp:140] Creating Layer Add_4
I0224 07:28:16.285611  1272 net.cpp:481] Add_4 <- ConvNd_10_ConvNd_10_0_split_0
I0224 07:28:16.285615  1272 net.cpp:481] Add_4 <- ConvNd_11
I0224 07:28:16.285619  1272 net.cpp:455] Add_4 -> Add_4
I0224 07:28:16.285642  1272 net.cpp:190] Setting up Add_4
I0224 07:28:16.285651  1272 net.cpp:197] Top shape: 1 12 128 256 (393216)
I0224 07:28:16.285658  1272 net.cpp:205] Memory required for data: 233832448
I0224 07:28:16.285663  1272 layer_factory.hpp:123] Creating layer Add_4_Add_4_0_split
I0224 07:28:16.285671  1272 net.cpp:140] Creating Layer Add_4_Add_4_0_split
I0224 07:28:16.285677  1272 net.cpp:481] Add_4_Add_4_0_split <- Add_4
I0224 07:28:16.285686  1272 net.cpp:455] Add_4_Add_4_0_split -> Add_4_Add_4_0_split_0
I0224 07:28:16.285696  1272 net.cpp:455] Add_4_Add_4_0_split -> Add_4_Add_4_0_split_1
I0224 07:28:16.285730  1272 net.cpp:190] Setting up Add_4_Add_4_0_split
I0224 07:28:16.285738  1272 net.cpp:197] Top shape: 1 12 128 256 (393216)
I0224 07:28:16.285745  1272 net.cpp:197] Top shape: 1 12 128 256 (393216)
I0224 07:28:16.285751  1272 net.cpp:205] Memory required for data: 236978176
I0224 07:28:16.285756  1272 layer_factory.hpp:123] Creating layer ConvNd_12
I0224 07:28:16.285766  1272 net.cpp:140] Creating Layer ConvNd_12
I0224 07:28:16.285773  1272 net.cpp:481] ConvNd_12 <- ConvNd_8_ConvNd_8_0_split_3
I0224 07:28:16.285778  1272 net.cpp:455] ConvNd_12 -> ConvNd_12
I0224 07:28:16.285949  1272 net.cpp:190] Setting up ConvNd_12
I0224 07:28:16.285955  1272 net.cpp:197] Top shape: 1 12 128 256 (393216)
I0224 07:28:16.285960  1272 net.cpp:205] Memory required for data: 238551040
I0224 07:28:16.285965  1272 layer_factory.hpp:123] Creating layer Add_5
I0224 07:28:16.285970  1272 net.cpp:140] Creating Layer Add_5
I0224 07:28:16.285974  1272 net.cpp:481] Add_5 <- Add_4_Add_4_0_split_0
I0224 07:28:16.285979  1272 net.cpp:481] Add_5 <- ConvNd_12
I0224 07:28:16.285984  1272 net.cpp:455] Add_5 -> Add_5
I0224 07:28:16.286003  1272 net.cpp:190] Setting up Add_5
I0224 07:28:16.286011  1272 net.cpp:197] Top shape: 1 12 128 256 (393216)
I0224 07:28:16.286018  1272 net.cpp:205] Memory required for data: 240123904
I0224 07:28:16.286023  1272 layer_factory.hpp:123] Creating layer Add_5_Add_5_0_split
I0224 07:28:16.286031  1272 net.cpp:140] Creating Layer Add_5_Add_5_0_split
I0224 07:28:16.286036  1272 net.cpp:481] Add_5_Add_5_0_split <- Add_5
I0224 07:28:16.286044  1272 net.cpp:455] Add_5_Add_5_0_split -> Add_5_Add_5_0_split_0
I0224 07:28:16.286053  1272 net.cpp:455] Add_5_Add_5_0_split -> Add_5_Add_5_0_split_1
I0224 07:28:16.286098  1272 net.cpp:190] Setting up Add_5_Add_5_0_split
I0224 07:28:16.286106  1272 net.cpp:197] Top shape: 1 12 128 256 (393216)
I0224 07:28:16.286113  1272 net.cpp:197] Top shape: 1 12 128 256 (393216)
I0224 07:28:16.286119  1272 net.cpp:205] Memory required for data: 243269632
I0224 07:28:16.286123  1272 layer_factory.hpp:123] Creating layer ConvNd_13
I0224 07:28:16.286129  1272 net.cpp:140] Creating Layer ConvNd_13
I0224 07:28:16.286134  1272 net.cpp:481] ConvNd_13 <- ConvNd_8_ConvNd_8_0_split_4
I0224 07:28:16.286139  1272 net.cpp:455] ConvNd_13 -> ConvNd_13
I0224 07:28:16.286311  1272 net.cpp:190] Setting up ConvNd_13
I0224 07:28:16.286319  1272 net.cpp:197] Top shape: 1 12 128 256 (393216)
I0224 07:28:16.286324  1272 net.cpp:205] Memory required for data: 244842496
I0224 07:28:16.286329  1272 layer_factory.hpp:123] Creating layer Add_6
I0224 07:28:16.286334  1272 net.cpp:140] Creating Layer Add_6
I0224 07:28:16.286337  1272 net.cpp:481] Add_6 <- Add_5_Add_5_0_split_0
I0224 07:28:16.286341  1272 net.cpp:481] Add_6 <- ConvNd_13
I0224 07:28:16.286345  1272 net.cpp:455] Add_6 -> Add_6
I0224 07:28:16.286363  1272 net.cpp:190] Setting up Add_6
I0224 07:28:16.286367  1272 net.cpp:197] Top shape: 1 12 128 256 (393216)
I0224 07:28:16.286371  1272 net.cpp:205] Memory required for data: 246415360
I0224 07:28:16.286375  1272 layer_factory.hpp:123] Creating layer Concat_3
I0224 07:28:16.286379  1272 net.cpp:140] Creating Layer Concat_3
I0224 07:28:16.286383  1272 net.cpp:481] Concat_3 <- ConvNd_9
I0224 07:28:16.286386  1272 net.cpp:481] Concat_3 <- ConvNd_10_ConvNd_10_0_split_1
I0224 07:28:16.286391  1272 net.cpp:481] Concat_3 <- Add_4_Add_4_0_split_1
I0224 07:28:16.286393  1272 net.cpp:481] Concat_3 <- Add_5_Add_5_0_split_1
I0224 07:28:16.286398  1272 net.cpp:481] Concat_3 <- Add_6
I0224 07:28:16.286406  1272 net.cpp:455] Concat_3 -> Concat_3
I0224 07:28:16.286430  1272 net.cpp:190] Setting up Concat_3
I0224 07:28:16.286438  1272 net.cpp:197] Top shape: 1 64 128 256 (2097152)
I0224 07:28:16.286445  1272 net.cpp:205] Memory required for data: 254803968
I0224 07:28:16.286450  1272 layer_factory.hpp:123] Creating layer Add_7
I0224 07:28:16.286455  1272 net.cpp:140] Creating Layer Add_7
I0224 07:28:16.286459  1272 net.cpp:481] Add_7 <- BatchNorm_3_Threshold_3_0_split_1
I0224 07:28:16.286464  1272 net.cpp:481] Add_7 <- Concat_3
I0224 07:28:16.286471  1272 net.cpp:455] Add_7 -> Add_7
I0224 07:28:16.286494  1272 net.cpp:190] Setting up Add_7
I0224 07:28:16.286502  1272 net.cpp:197] Top shape: 1 64 128 256 (2097152)
I0224 07:28:16.286509  1272 net.cpp:205] Memory required for data: 263192576
I0224 07:28:16.286515  1272 layer_factory.hpp:123] Creating layer BatchNorm_4
I0224 07:28:16.286525  1272 net.cpp:140] Creating Layer BatchNorm_4
I0224 07:28:16.286530  1272 net.cpp:481] BatchNorm_4 <- Add_7
I0224 07:28:16.286538  1272 net.cpp:455] BatchNorm_4 -> BatchNorm_4
I0224 07:28:16.287098  1272 net.cpp:190] Setting up BatchNorm_4
I0224 07:28:16.287106  1272 net.cpp:197] Top shape: 1 64 128 256 (2097152)
I0224 07:28:16.287112  1272 net.cpp:205] Memory required for data: 271581184
I0224 07:28:16.287123  1272 layer_factory.hpp:123] Creating layer Threshold_4
I0224 07:28:16.287128  1272 net.cpp:140] Creating Layer Threshold_4
I0224 07:28:16.287132  1272 net.cpp:481] Threshold_4 <- BatchNorm_4
I0224 07:28:16.287137  1272 net.cpp:442] Threshold_4 -> BatchNorm_4 (in-place)
I0224 07:28:16.287143  1272 net.cpp:190] Setting up Threshold_4
I0224 07:28:16.287147  1272 net.cpp:197] Top shape: 1 64 128 256 (2097152)
I0224 07:28:16.287150  1272 net.cpp:205] Memory required for data: 279969792
I0224 07:28:16.287153  1272 layer_factory.hpp:123] Creating layer BatchNorm_4_Threshold_4_0_split
I0224 07:28:16.287158  1272 net.cpp:140] Creating Layer BatchNorm_4_Threshold_4_0_split
I0224 07:28:16.287163  1272 net.cpp:481] BatchNorm_4_Threshold_4_0_split <- BatchNorm_4
I0224 07:28:16.287166  1272 net.cpp:455] BatchNorm_4_Threshold_4_0_split -> BatchNorm_4_Threshold_4_0_split_0
I0224 07:28:16.287174  1272 net.cpp:455] BatchNorm_4_Threshold_4_0_split -> BatchNorm_4_Threshold_4_0_split_1
I0224 07:28:16.287204  1272 net.cpp:190] Setting up BatchNorm_4_Threshold_4_0_split
I0224 07:28:16.287209  1272 net.cpp:197] Top shape: 1 64 128 256 (2097152)
I0224 07:28:16.287214  1272 net.cpp:197] Top shape: 1 64 128 256 (2097152)
I0224 07:28:16.287219  1272 net.cpp:205] Memory required for data: 296747008
I0224 07:28:16.287221  1272 layer_factory.hpp:123] Creating layer ConvNd_14
I0224 07:28:16.287228  1272 net.cpp:140] Creating Layer ConvNd_14
I0224 07:28:16.287233  1272 net.cpp:481] ConvNd_14 <- BatchNorm_4_Threshold_4_0_split_0
I0224 07:28:16.287241  1272 net.cpp:455] ConvNd_14 -> ConvNd_14
I0224 07:28:16.287413  1272 net.cpp:190] Setting up ConvNd_14
I0224 07:28:16.287420  1272 net.cpp:197] Top shape: 1 12 128 256 (393216)
I0224 07:28:16.287425  1272 net.cpp:205] Memory required for data: 298319872
I0224 07:28:16.287431  1272 layer_factory.hpp:123] Creating layer ConvNd_14_ConvNd_14_0_split
I0224 07:28:16.287437  1272 net.cpp:140] Creating Layer ConvNd_14_ConvNd_14_0_split
I0224 07:28:16.287441  1272 net.cpp:481] ConvNd_14_ConvNd_14_0_split <- ConvNd_14
I0224 07:28:16.287446  1272 net.cpp:455] ConvNd_14_ConvNd_14_0_split -> ConvNd_14_ConvNd_14_0_split_0
I0224 07:28:16.287452  1272 net.cpp:455] ConvNd_14_ConvNd_14_0_split -> ConvNd_14_ConvNd_14_0_split_1
I0224 07:28:16.287462  1272 net.cpp:455] ConvNd_14_ConvNd_14_0_split -> ConvNd_14_ConvNd_14_0_split_2
I0224 07:28:16.287470  1272 net.cpp:455] ConvNd_14_ConvNd_14_0_split -> ConvNd_14_ConvNd_14_0_split_3
I0224 07:28:16.287478  1272 net.cpp:455] ConvNd_14_ConvNd_14_0_split -> ConvNd_14_ConvNd_14_0_split_4
I0224 07:28:16.287559  1272 net.cpp:190] Setting up ConvNd_14_ConvNd_14_0_split
I0224 07:28:16.287566  1272 net.cpp:197] Top shape: 1 12 128 256 (393216)
I0224 07:28:16.287572  1272 net.cpp:197] Top shape: 1 12 128 256 (393216)
I0224 07:28:16.287576  1272 net.cpp:197] Top shape: 1 12 128 256 (393216)
I0224 07:28:16.287581  1272 net.cpp:197] Top shape: 1 12 128 256 (393216)
I0224 07:28:16.287585  1272 net.cpp:197] Top shape: 1 12 128 256 (393216)
I0224 07:28:16.287588  1272 net.cpp:205] Memory required for data: 306184192
I0224 07:28:16.287592  1272 layer_factory.hpp:123] Creating layer ConvNd_15
I0224 07:28:16.287600  1272 net.cpp:140] Creating Layer ConvNd_15
I0224 07:28:16.287603  1272 net.cpp:481] ConvNd_15 <- ConvNd_14_ConvNd_14_0_split_0
I0224 07:28:16.287608  1272 net.cpp:455] ConvNd_15 -> ConvNd_15
I0224 07:28:16.287791  1272 net.cpp:190] Setting up ConvNd_15
I0224 07:28:16.287799  1272 net.cpp:197] Top shape: 1 16 128 256 (524288)
I0224 07:28:16.287804  1272 net.cpp:205] Memory required for data: 308281344
I0224 07:28:16.287809  1272 layer_factory.hpp:123] Creating layer ConvNd_16
I0224 07:28:16.287817  1272 net.cpp:140] Creating Layer ConvNd_16
I0224 07:28:16.287820  1272 net.cpp:481] ConvNd_16 <- ConvNd_14_ConvNd_14_0_split_1
I0224 07:28:16.287825  1272 net.cpp:455] ConvNd_16 -> ConvNd_16
I0224 07:28:16.288012  1272 net.cpp:190] Setting up ConvNd_16
I0224 07:28:16.288019  1272 net.cpp:197] Top shape: 1 12 128 256 (393216)
I0224 07:28:16.288024  1272 net.cpp:205] Memory required for data: 309854208
I0224 07:28:16.288029  1272 layer_factory.hpp:123] Creating layer ConvNd_16_ConvNd_16_0_split
I0224 07:28:16.288034  1272 net.cpp:140] Creating Layer ConvNd_16_ConvNd_16_0_split
I0224 07:28:16.288038  1272 net.cpp:481] ConvNd_16_ConvNd_16_0_split <- ConvNd_16
I0224 07:28:16.288043  1272 net.cpp:455] ConvNd_16_ConvNd_16_0_split -> ConvNd_16_ConvNd_16_0_split_0
I0224 07:28:16.288049  1272 net.cpp:455] ConvNd_16_ConvNd_16_0_split -> ConvNd_16_ConvNd_16_0_split_1
I0224 07:28:16.288080  1272 net.cpp:190] Setting up ConvNd_16_ConvNd_16_0_split
I0224 07:28:16.288087  1272 net.cpp:197] Top shape: 1 12 128 256 (393216)
I0224 07:28:16.288095  1272 net.cpp:197] Top shape: 1 12 128 256 (393216)
I0224 07:28:16.288101  1272 net.cpp:205] Memory required for data: 312999936
I0224 07:28:16.288106  1272 layer_factory.hpp:123] Creating layer ConvNd_17
I0224 07:28:16.288112  1272 net.cpp:140] Creating Layer ConvNd_17
I0224 07:28:16.288116  1272 net.cpp:481] ConvNd_17 <- ConvNd_14_ConvNd_14_0_split_2
I0224 07:28:16.288121  1272 net.cpp:455] ConvNd_17 -> ConvNd_17
I0224 07:28:16.288293  1272 net.cpp:190] Setting up ConvNd_17
I0224 07:28:16.288301  1272 net.cpp:197] Top shape: 1 12 128 256 (393216)
I0224 07:28:16.288305  1272 net.cpp:205] Memory required for data: 314572800
I0224 07:28:16.288311  1272 layer_factory.hpp:123] Creating layer Add_8
I0224 07:28:16.288316  1272 net.cpp:140] Creating Layer Add_8
I0224 07:28:16.288319  1272 net.cpp:481] Add_8 <- ConvNd_16_ConvNd_16_0_split_0
I0224 07:28:16.288324  1272 net.cpp:481] Add_8 <- ConvNd_17
I0224 07:28:16.288328  1272 net.cpp:455] Add_8 -> Add_8
I0224 07:28:16.288347  1272 net.cpp:190] Setting up Add_8
I0224 07:28:16.288353  1272 net.cpp:197] Top shape: 1 12 128 256 (393216)
I0224 07:28:16.288358  1272 net.cpp:205] Memory required for data: 316145664
I0224 07:28:16.288362  1272 layer_factory.hpp:123] Creating layer Add_8_Add_8_0_split
I0224 07:28:16.288367  1272 net.cpp:140] Creating Layer Add_8_Add_8_0_split
I0224 07:28:16.288372  1272 net.cpp:481] Add_8_Add_8_0_split <- Add_8
I0224 07:28:16.288379  1272 net.cpp:455] Add_8_Add_8_0_split -> Add_8_Add_8_0_split_0
I0224 07:28:16.288388  1272 net.cpp:455] Add_8_Add_8_0_split -> Add_8_Add_8_0_split_1
I0224 07:28:16.288420  1272 net.cpp:190] Setting up Add_8_Add_8_0_split
I0224 07:28:16.288426  1272 net.cpp:197] Top shape: 1 12 128 256 (393216)
I0224 07:28:16.288430  1272 net.cpp:197] Top shape: 1 12 128 256 (393216)
I0224 07:28:16.288434  1272 net.cpp:205] Memory required for data: 319291392
I0224 07:28:16.288439  1272 layer_factory.hpp:123] Creating layer ConvNd_18
I0224 07:28:16.288444  1272 net.cpp:140] Creating Layer ConvNd_18
I0224 07:28:16.288448  1272 net.cpp:481] ConvNd_18 <- ConvNd_14_ConvNd_14_0_split_3
I0224 07:28:16.288453  1272 net.cpp:455] ConvNd_18 -> ConvNd_18
I0224 07:28:16.288621  1272 net.cpp:190] Setting up ConvNd_18
I0224 07:28:16.288630  1272 net.cpp:197] Top shape: 1 12 128 256 (393216)
I0224 07:28:16.288635  1272 net.cpp:205] Memory required for data: 320864256
I0224 07:28:16.288638  1272 layer_factory.hpp:123] Creating layer Add_9
I0224 07:28:16.288645  1272 net.cpp:140] Creating Layer Add_9
I0224 07:28:16.288647  1272 net.cpp:481] Add_9 <- Add_8_Add_8_0_split_0
I0224 07:28:16.288651  1272 net.cpp:481] Add_9 <- ConvNd_18
I0224 07:28:16.288656  1272 net.cpp:455] Add_9 -> Add_9
I0224 07:28:16.288676  1272 net.cpp:190] Setting up Add_9
I0224 07:28:16.288683  1272 net.cpp:197] Top shape: 1 12 128 256 (393216)
I0224 07:28:16.288691  1272 net.cpp:205] Memory required for data: 322437120
I0224 07:28:16.288695  1272 layer_factory.hpp:123] Creating layer Add_9_Add_9_0_split
I0224 07:28:16.288702  1272 net.cpp:140] Creating Layer Add_9_Add_9_0_split
I0224 07:28:16.288707  1272 net.cpp:481] Add_9_Add_9_0_split <- Add_9
I0224 07:28:16.288715  1272 net.cpp:455] Add_9_Add_9_0_split -> Add_9_Add_9_0_split_0
I0224 07:28:16.288724  1272 net.cpp:455] Add_9_Add_9_0_split -> Add_9_Add_9_0_split_1
I0224 07:28:16.288767  1272 net.cpp:190] Setting up Add_9_Add_9_0_split
I0224 07:28:16.288775  1272 net.cpp:197] Top shape: 1 12 128 256 (393216)
I0224 07:28:16.288781  1272 net.cpp:197] Top shape: 1 12 128 256 (393216)
I0224 07:28:16.288787  1272 net.cpp:205] Memory required for data: 325582848
I0224 07:28:16.288792  1272 layer_factory.hpp:123] Creating layer ConvNd_19
I0224 07:28:16.288802  1272 net.cpp:140] Creating Layer ConvNd_19
I0224 07:28:16.288807  1272 net.cpp:481] ConvNd_19 <- ConvNd_14_ConvNd_14_0_split_4
I0224 07:28:16.288815  1272 net.cpp:455] ConvNd_19 -> ConvNd_19
I0224 07:28:16.288982  1272 net.cpp:190] Setting up ConvNd_19
I0224 07:28:16.288990  1272 net.cpp:197] Top shape: 1 12 128 256 (393216)
I0224 07:28:16.288993  1272 net.cpp:205] Memory required for data: 327155712
I0224 07:28:16.288998  1272 layer_factory.hpp:123] Creating layer Add_10
I0224 07:28:16.289003  1272 net.cpp:140] Creating Layer Add_10
I0224 07:28:16.289007  1272 net.cpp:481] Add_10 <- Add_9_Add_9_0_split_0
I0224 07:28:16.289011  1272 net.cpp:481] Add_10 <- ConvNd_19
I0224 07:28:16.289016  1272 net.cpp:455] Add_10 -> Add_10
I0224 07:28:16.289036  1272 net.cpp:190] Setting up Add_10
I0224 07:28:16.289043  1272 net.cpp:197] Top shape: 1 12 128 256 (393216)
I0224 07:28:16.289052  1272 net.cpp:205] Memory required for data: 328728576
I0224 07:28:16.289057  1272 layer_factory.hpp:123] Creating layer Concat_4
I0224 07:28:16.289064  1272 net.cpp:140] Creating Layer Concat_4
I0224 07:28:16.289069  1272 net.cpp:481] Concat_4 <- ConvNd_15
I0224 07:28:16.289077  1272 net.cpp:481] Concat_4 <- ConvNd_16_ConvNd_16_0_split_1
I0224 07:28:16.289083  1272 net.cpp:481] Concat_4 <- Add_8_Add_8_0_split_1
I0224 07:28:16.289088  1272 net.cpp:481] Concat_4 <- Add_9_Add_9_0_split_1
I0224 07:28:16.289094  1272 net.cpp:481] Concat_4 <- Add_10
I0224 07:28:16.289101  1272 net.cpp:455] Concat_4 -> Concat_4
I0224 07:28:16.289125  1272 net.cpp:190] Setting up Concat_4
I0224 07:28:16.289132  1272 net.cpp:197] Top shape: 1 64 128 256 (2097152)
I0224 07:28:16.289140  1272 net.cpp:205] Memory required for data: 337117184
I0224 07:28:16.289144  1272 layer_factory.hpp:123] Creating layer Add_11
I0224 07:28:16.289149  1272 net.cpp:140] Creating Layer Add_11
I0224 07:28:16.289152  1272 net.cpp:481] Add_11 <- BatchNorm_4_Threshold_4_0_split_1
I0224 07:28:16.289156  1272 net.cpp:481] Add_11 <- Concat_4
I0224 07:28:16.289161  1272 net.cpp:455] Add_11 -> Add_11
I0224 07:28:16.289178  1272 net.cpp:190] Setting up Add_11
I0224 07:28:16.289186  1272 net.cpp:197] Top shape: 1 64 128 256 (2097152)
I0224 07:28:16.289191  1272 net.cpp:205] Memory required for data: 345505792
I0224 07:28:16.289196  1272 layer_factory.hpp:123] Creating layer BatchNorm_5
I0224 07:28:16.289204  1272 net.cpp:140] Creating Layer BatchNorm_5
I0224 07:28:16.289211  1272 net.cpp:481] BatchNorm_5 <- Add_11
I0224 07:28:16.289218  1272 net.cpp:455] BatchNorm_5 -> BatchNorm_5
I0224 07:28:16.289789  1272 net.cpp:190] Setting up BatchNorm_5
I0224 07:28:16.289798  1272 net.cpp:197] Top shape: 1 64 128 256 (2097152)
I0224 07:28:16.289803  1272 net.cpp:205] Memory required for data: 353894400
I0224 07:28:16.289811  1272 layer_factory.hpp:123] Creating layer Threshold_5
I0224 07:28:16.289816  1272 net.cpp:140] Creating Layer Threshold_5
I0224 07:28:16.289820  1272 net.cpp:481] Threshold_5 <- BatchNorm_5
I0224 07:28:16.289824  1272 net.cpp:442] Threshold_5 -> BatchNorm_5 (in-place)
I0224 07:28:16.289831  1272 net.cpp:190] Setting up Threshold_5
I0224 07:28:16.289834  1272 net.cpp:197] Top shape: 1 64 128 256 (2097152)
I0224 07:28:16.289839  1272 net.cpp:205] Memory required for data: 362283008
I0224 07:28:16.289842  1272 layer_factory.hpp:123] Creating layer AvgPool2d_2
I0224 07:28:16.289847  1272 net.cpp:140] Creating Layer AvgPool2d_2
I0224 07:28:16.289850  1272 net.cpp:481] AvgPool2d_2 <- data_resize_down_0_split_2
I0224 07:28:16.289855  1272 net.cpp:455] AvgPool2d_2 -> AvgPool2d_2
I0224 07:28:16.289875  1272 net.cpp:190] Setting up AvgPool2d_2
I0224 07:28:16.289878  1272 net.cpp:197] Top shape: 1 3 256 512 (393216)
I0224 07:28:16.289882  1272 net.cpp:205] Memory required for data: 363855872
I0224 07:28:16.289886  1272 layer_factory.hpp:123] Creating layer AvgPool2d_3
I0224 07:28:16.289896  1272 net.cpp:140] Creating Layer AvgPool2d_3
I0224 07:28:16.289901  1272 net.cpp:481] AvgPool2d_3 <- AvgPool2d_2
I0224 07:28:16.289907  1272 net.cpp:455] AvgPool2d_3 -> AvgPool2d_3
I0224 07:28:16.289934  1272 net.cpp:190] Setting up AvgPool2d_3
I0224 07:28:16.289944  1272 net.cpp:197] Top shape: 1 3 128 256 (98304)
I0224 07:28:16.289952  1272 net.cpp:205] Memory required for data: 364249088
I0224 07:28:16.289958  1272 layer_factory.hpp:123] Creating layer Concat_5
I0224 07:28:16.289966  1272 net.cpp:140] Creating Layer Concat_5
I0224 07:28:16.289973  1272 net.cpp:481] Concat_5 <- BatchNorm_5
I0224 07:28:16.289978  1272 net.cpp:481] Concat_5 <- BatchNorm_3_Threshold_3_0_split_2
I0224 07:28:16.289984  1272 net.cpp:481] Concat_5 <- AvgPool2d_3
I0224 07:28:16.289992  1272 net.cpp:455] Concat_5 -> Concat_5
I0224 07:28:16.290019  1272 net.cpp:190] Setting up Concat_5
I0224 07:28:16.290027  1272 net.cpp:197] Top shape: 1 131 128 256 (4292608)
I0224 07:28:16.290035  1272 net.cpp:205] Memory required for data: 381419520
I0224 07:28:16.290041  1272 layer_factory.hpp:123] Creating layer BatchNorm_6
I0224 07:28:16.290050  1272 net.cpp:140] Creating Layer BatchNorm_6
I0224 07:28:16.290056  1272 net.cpp:481] BatchNorm_6 <- Concat_5
I0224 07:28:16.290066  1272 net.cpp:455] BatchNorm_6 -> BatchNorm_6
I0224 07:28:16.290618  1272 net.cpp:190] Setting up BatchNorm_6
I0224 07:28:16.290625  1272 net.cpp:197] Top shape: 1 131 128 256 (4292608)
I0224 07:28:16.290632  1272 net.cpp:205] Memory required for data: 398589952
I0224 07:28:16.290639  1272 layer_factory.hpp:123] Creating layer Threshold_6
I0224 07:28:16.290644  1272 net.cpp:140] Creating Layer Threshold_6
I0224 07:28:16.290648  1272 net.cpp:481] Threshold_6 <- BatchNorm_6
I0224 07:28:16.290652  1272 net.cpp:442] Threshold_6 -> BatchNorm_6 (in-place)
I0224 07:28:16.290658  1272 net.cpp:190] Setting up Threshold_6
I0224 07:28:16.290661  1272 net.cpp:197] Top shape: 1 131 128 256 (4292608)
I0224 07:28:16.290665  1272 net.cpp:205] Memory required for data: 415760384
I0224 07:28:16.290668  1272 layer_factory.hpp:123] Creating layer BatchNorm_6_Threshold_6_0_split
I0224 07:28:16.290673  1272 net.cpp:140] Creating Layer BatchNorm_6_Threshold_6_0_split
I0224 07:28:16.290676  1272 net.cpp:481] BatchNorm_6_Threshold_6_0_split <- BatchNorm_6
I0224 07:28:16.290680  1272 net.cpp:455] BatchNorm_6_Threshold_6_0_split -> BatchNorm_6_Threshold_6_0_split_0
I0224 07:28:16.290685  1272 net.cpp:455] BatchNorm_6_Threshold_6_0_split -> BatchNorm_6_Threshold_6_0_split_1
I0224 07:28:16.290724  1272 net.cpp:190] Setting up BatchNorm_6_Threshold_6_0_split
I0224 07:28:16.290733  1272 net.cpp:197] Top shape: 1 131 128 256 (4292608)
I0224 07:28:16.290742  1272 net.cpp:197] Top shape: 1 131 128 256 (4292608)
I0224 07:28:16.290750  1272 net.cpp:205] Memory required for data: 450101248
I0224 07:28:16.290755  1272 layer_factory.hpp:123] Creating layer ConvNd_20
I0224 07:28:16.290766  1272 net.cpp:140] Creating Layer ConvNd_20
I0224 07:28:16.290772  1272 net.cpp:481] ConvNd_20 <- BatchNorm_6_Threshold_6_0_split_0
I0224 07:28:16.290781  1272 net.cpp:455] ConvNd_20 -> ConvNd_20
I0224 07:28:16.290987  1272 net.cpp:190] Setting up ConvNd_20
I0224 07:28:16.290993  1272 net.cpp:197] Top shape: 1 19 128 256 (622592)
I0224 07:28:16.290999  1272 net.cpp:205] Memory required for data: 452591616
I0224 07:28:16.291004  1272 layer_factory.hpp:123] Creating layer ConvNd_21
I0224 07:28:16.291011  1272 net.cpp:140] Creating Layer ConvNd_21
I0224 07:28:16.291014  1272 net.cpp:481] ConvNd_21 <- BatchNorm_6_Threshold_6_0_split_1
I0224 07:28:16.291020  1272 net.cpp:455] ConvNd_21 -> ConvNd_21
I0224 07:28:16.292109  1272 net.cpp:190] Setting up ConvNd_21
I0224 07:28:16.292119  1272 net.cpp:197] Top shape: 1 25 64 128 (204800)
I0224 07:28:16.292125  1272 net.cpp:205] Memory required for data: 453410816
I0224 07:28:16.292130  1272 layer_factory.hpp:123] Creating layer ConvNd_21_ConvNd_21_0_split
I0224 07:28:16.292137  1272 net.cpp:140] Creating Layer ConvNd_21_ConvNd_21_0_split
I0224 07:28:16.292141  1272 net.cpp:481] ConvNd_21_ConvNd_21_0_split <- ConvNd_21
I0224 07:28:16.292146  1272 net.cpp:455] ConvNd_21_ConvNd_21_0_split -> ConvNd_21_ConvNd_21_0_split_0
I0224 07:28:16.292153  1272 net.cpp:455] ConvNd_21_ConvNd_21_0_split -> ConvNd_21_ConvNd_21_0_split_1
I0224 07:28:16.292158  1272 net.cpp:455] ConvNd_21_ConvNd_21_0_split -> ConvNd_21_ConvNd_21_0_split_2
I0224 07:28:16.292163  1272 net.cpp:455] ConvNd_21_ConvNd_21_0_split -> ConvNd_21_ConvNd_21_0_split_3
I0224 07:28:16.292168  1272 net.cpp:455] ConvNd_21_ConvNd_21_0_split -> ConvNd_21_ConvNd_21_0_split_4
I0224 07:28:16.292245  1272 net.cpp:190] Setting up ConvNd_21_ConvNd_21_0_split
I0224 07:28:16.292255  1272 net.cpp:197] Top shape: 1 25 64 128 (204800)
I0224 07:28:16.292263  1272 net.cpp:197] Top shape: 1 25 64 128 (204800)
I0224 07:28:16.292270  1272 net.cpp:197] Top shape: 1 25 64 128 (204800)
I0224 07:28:16.292277  1272 net.cpp:197] Top shape: 1 25 64 128 (204800)
I0224 07:28:16.292284  1272 net.cpp:197] Top shape: 1 25 64 128 (204800)
I0224 07:28:16.292289  1272 net.cpp:205] Memory required for data: 457506816
I0224 07:28:16.292292  1272 layer_factory.hpp:123] Creating layer ConvNd_22
I0224 07:28:16.292300  1272 net.cpp:140] Creating Layer ConvNd_22
I0224 07:28:16.292304  1272 net.cpp:481] ConvNd_22 <- ConvNd_21_ConvNd_21_0_split_0
I0224 07:28:16.292311  1272 net.cpp:455] ConvNd_22 -> ConvNd_22
I0224 07:28:16.292558  1272 net.cpp:190] Setting up ConvNd_22
I0224 07:28:16.292567  1272 net.cpp:197] Top shape: 1 28 64 128 (229376)
I0224 07:28:16.292572  1272 net.cpp:205] Memory required for data: 458424320
I0224 07:28:16.292584  1272 layer_factory.hpp:123] Creating layer ConvNd_23
I0224 07:28:16.292591  1272 net.cpp:140] Creating Layer ConvNd_23
I0224 07:28:16.292595  1272 net.cpp:481] ConvNd_23 <- ConvNd_21_ConvNd_21_0_split_1
I0224 07:28:16.292600  1272 net.cpp:455] ConvNd_23 -> ConvNd_23
I0224 07:28:16.292825  1272 net.cpp:190] Setting up ConvNd_23
I0224 07:28:16.292834  1272 net.cpp:197] Top shape: 1 25 64 128 (204800)
I0224 07:28:16.292838  1272 net.cpp:205] Memory required for data: 459243520
I0224 07:28:16.292842  1272 layer_factory.hpp:123] Creating layer ConvNd_23_ConvNd_23_0_split
I0224 07:28:16.292847  1272 net.cpp:140] Creating Layer ConvNd_23_ConvNd_23_0_split
I0224 07:28:16.292851  1272 net.cpp:481] ConvNd_23_ConvNd_23_0_split <- ConvNd_23
I0224 07:28:16.292857  1272 net.cpp:455] ConvNd_23_ConvNd_23_0_split -> ConvNd_23_ConvNd_23_0_split_0
I0224 07:28:16.292863  1272 net.cpp:455] ConvNd_23_ConvNd_23_0_split -> ConvNd_23_ConvNd_23_0_split_1
I0224 07:28:16.292897  1272 net.cpp:190] Setting up ConvNd_23_ConvNd_23_0_split
I0224 07:28:16.292906  1272 net.cpp:197] Top shape: 1 25 64 128 (204800)
I0224 07:28:16.292913  1272 net.cpp:197] Top shape: 1 25 64 128 (204800)
I0224 07:28:16.292920  1272 net.cpp:205] Memory required for data: 460881920
I0224 07:28:16.292925  1272 layer_factory.hpp:123] Creating layer ConvNd_24
I0224 07:28:16.292937  1272 net.cpp:140] Creating Layer ConvNd_24
I0224 07:28:16.292943  1272 net.cpp:481] ConvNd_24 <- ConvNd_21_ConvNd_21_0_split_2
I0224 07:28:16.292951  1272 net.cpp:455] ConvNd_24 -> ConvNd_24
I0224 07:28:16.293165  1272 net.cpp:190] Setting up ConvNd_24
I0224 07:28:16.293172  1272 net.cpp:197] Top shape: 1 25 64 128 (204800)
I0224 07:28:16.293177  1272 net.cpp:205] Memory required for data: 461701120
I0224 07:28:16.293182  1272 layer_factory.hpp:123] Creating layer Add_12
I0224 07:28:16.293187  1272 net.cpp:140] Creating Layer Add_12
I0224 07:28:16.293191  1272 net.cpp:481] Add_12 <- ConvNd_23_ConvNd_23_0_split_0
I0224 07:28:16.293196  1272 net.cpp:481] Add_12 <- ConvNd_24
I0224 07:28:16.293200  1272 net.cpp:455] Add_12 -> Add_12
I0224 07:28:16.293218  1272 net.cpp:190] Setting up Add_12
I0224 07:28:16.293222  1272 net.cpp:197] Top shape: 1 25 64 128 (204800)
I0224 07:28:16.293226  1272 net.cpp:205] Memory required for data: 462520320
I0224 07:28:16.293229  1272 layer_factory.hpp:123] Creating layer Add_12_Add_12_0_split
I0224 07:28:16.293234  1272 net.cpp:140] Creating Layer Add_12_Add_12_0_split
I0224 07:28:16.293237  1272 net.cpp:481] Add_12_Add_12_0_split <- Add_12
I0224 07:28:16.293242  1272 net.cpp:455] Add_12_Add_12_0_split -> Add_12_Add_12_0_split_0
I0224 07:28:16.293247  1272 net.cpp:455] Add_12_Add_12_0_split -> Add_12_Add_12_0_split_1
I0224 07:28:16.293278  1272 net.cpp:190] Setting up Add_12_Add_12_0_split
I0224 07:28:16.293287  1272 net.cpp:197] Top shape: 1 25 64 128 (204800)
I0224 07:28:16.293294  1272 net.cpp:197] Top shape: 1 25 64 128 (204800)
I0224 07:28:16.293299  1272 net.cpp:205] Memory required for data: 464158720
I0224 07:28:16.293303  1272 layer_factory.hpp:123] Creating layer ConvNd_25
I0224 07:28:16.293309  1272 net.cpp:140] Creating Layer ConvNd_25
I0224 07:28:16.293313  1272 net.cpp:481] ConvNd_25 <- ConvNd_21_ConvNd_21_0_split_3
I0224 07:28:16.293325  1272 net.cpp:455] ConvNd_25 -> ConvNd_25
I0224 07:28:16.293529  1272 net.cpp:190] Setting up ConvNd_25
I0224 07:28:16.293535  1272 net.cpp:197] Top shape: 1 25 64 128 (204800)
I0224 07:28:16.293540  1272 net.cpp:205] Memory required for data: 464977920
I0224 07:28:16.293545  1272 layer_factory.hpp:123] Creating layer Add_13
I0224 07:28:16.293550  1272 net.cpp:140] Creating Layer Add_13
I0224 07:28:16.293555  1272 net.cpp:481] Add_13 <- Add_12_Add_12_0_split_0
I0224 07:28:16.293560  1272 net.cpp:481] Add_13 <- ConvNd_25
I0224 07:28:16.293563  1272 net.cpp:455] Add_13 -> Add_13
I0224 07:28:16.293581  1272 net.cpp:190] Setting up Add_13
I0224 07:28:16.293586  1272 net.cpp:197] Top shape: 1 25 64 128 (204800)
I0224 07:28:16.293591  1272 net.cpp:205] Memory required for data: 465797120
I0224 07:28:16.293594  1272 layer_factory.hpp:123] Creating layer Add_13_Add_13_0_split
I0224 07:28:16.293599  1272 net.cpp:140] Creating Layer Add_13_Add_13_0_split
I0224 07:28:16.293602  1272 net.cpp:481] Add_13_Add_13_0_split <- Add_13
I0224 07:28:16.293607  1272 net.cpp:455] Add_13_Add_13_0_split -> Add_13_Add_13_0_split_0
I0224 07:28:16.293612  1272 net.cpp:455] Add_13_Add_13_0_split -> Add_13_Add_13_0_split_1
I0224 07:28:16.293644  1272 net.cpp:190] Setting up Add_13_Add_13_0_split
I0224 07:28:16.293653  1272 net.cpp:197] Top shape: 1 25 64 128 (204800)
I0224 07:28:16.293659  1272 net.cpp:197] Top shape: 1 25 64 128 (204800)
I0224 07:28:16.293665  1272 net.cpp:205] Memory required for data: 467435520
I0224 07:28:16.293669  1272 layer_factory.hpp:123] Creating layer ConvNd_26
I0224 07:28:16.293679  1272 net.cpp:140] Creating Layer ConvNd_26
I0224 07:28:16.293685  1272 net.cpp:481] ConvNd_26 <- ConvNd_21_ConvNd_21_0_split_4
I0224 07:28:16.293699  1272 net.cpp:455] ConvNd_26 -> ConvNd_26
I0224 07:28:16.293902  1272 net.cpp:190] Setting up ConvNd_26
I0224 07:28:16.293910  1272 net.cpp:197] Top shape: 1 25 64 128 (204800)
I0224 07:28:16.293915  1272 net.cpp:205] Memory required for data: 468254720
I0224 07:28:16.293920  1272 layer_factory.hpp:123] Creating layer Add_14
I0224 07:28:16.293925  1272 net.cpp:140] Creating Layer Add_14
I0224 07:28:16.293927  1272 net.cpp:481] Add_14 <- Add_13_Add_13_0_split_0
I0224 07:28:16.293932  1272 net.cpp:481] Add_14 <- ConvNd_26
I0224 07:28:16.293937  1272 net.cpp:455] Add_14 -> Add_14
I0224 07:28:16.293956  1272 net.cpp:190] Setting up Add_14
I0224 07:28:16.293960  1272 net.cpp:197] Top shape: 1 25 64 128 (204800)
I0224 07:28:16.293965  1272 net.cpp:205] Memory required for data: 469073920
I0224 07:28:16.293968  1272 layer_factory.hpp:123] Creating layer Concat_6
I0224 07:28:16.293973  1272 net.cpp:140] Creating Layer Concat_6
I0224 07:28:16.293977  1272 net.cpp:481] Concat_6 <- ConvNd_22
I0224 07:28:16.293980  1272 net.cpp:481] Concat_6 <- ConvNd_23_ConvNd_23_0_split_1
I0224 07:28:16.293984  1272 net.cpp:481] Concat_6 <- Add_12_Add_12_0_split_1
I0224 07:28:16.293988  1272 net.cpp:481] Concat_6 <- Add_13_Add_13_0_split_1
I0224 07:28:16.293992  1272 net.cpp:481] Concat_6 <- Add_14
I0224 07:28:16.293995  1272 net.cpp:455] Concat_6 -> Concat_6
I0224 07:28:16.294013  1272 net.cpp:190] Setting up Concat_6
I0224 07:28:16.294019  1272 net.cpp:197] Top shape: 1 128 64 128 (1048576)
I0224 07:28:16.294023  1272 net.cpp:205] Memory required for data: 473268224
I0224 07:28:16.294026  1272 layer_factory.hpp:123] Creating layer BatchNorm_7
I0224 07:28:16.294034  1272 net.cpp:140] Creating Layer BatchNorm_7
I0224 07:28:16.294036  1272 net.cpp:481] BatchNorm_7 <- Concat_6
I0224 07:28:16.294041  1272 net.cpp:455] BatchNorm_7 -> BatchNorm_7
I0224 07:28:16.294489  1272 net.cpp:190] Setting up BatchNorm_7
I0224 07:28:16.294497  1272 net.cpp:197] Top shape: 1 128 64 128 (1048576)
I0224 07:28:16.294502  1272 net.cpp:205] Memory required for data: 477462528
I0224 07:28:16.294509  1272 layer_factory.hpp:123] Creating layer Threshold_7
I0224 07:28:16.294514  1272 net.cpp:140] Creating Layer Threshold_7
I0224 07:28:16.294518  1272 net.cpp:481] Threshold_7 <- BatchNorm_7
I0224 07:28:16.294523  1272 net.cpp:442] Threshold_7 -> BatchNorm_7 (in-place)
I0224 07:28:16.294528  1272 net.cpp:190] Setting up Threshold_7
I0224 07:28:16.294531  1272 net.cpp:197] Top shape: 1 128 64 128 (1048576)
I0224 07:28:16.294535  1272 net.cpp:205] Memory required for data: 481656832
I0224 07:28:16.294538  1272 layer_factory.hpp:123] Creating layer BatchNorm_7_Threshold_7_0_split
I0224 07:28:16.294543  1272 net.cpp:140] Creating Layer BatchNorm_7_Threshold_7_0_split
I0224 07:28:16.294546  1272 net.cpp:481] BatchNorm_7_Threshold_7_0_split <- BatchNorm_7
I0224 07:28:16.294551  1272 net.cpp:455] BatchNorm_7_Threshold_7_0_split -> BatchNorm_7_Threshold_7_0_split_0
I0224 07:28:16.294556  1272 net.cpp:455] BatchNorm_7_Threshold_7_0_split -> BatchNorm_7_Threshold_7_0_split_1
I0224 07:28:16.294562  1272 net.cpp:455] BatchNorm_7_Threshold_7_0_split -> BatchNorm_7_Threshold_7_0_split_2
I0224 07:28:16.294597  1272 net.cpp:190] Setting up BatchNorm_7_Threshold_7_0_split
I0224 07:28:16.294602  1272 net.cpp:197] Top shape: 1 128 64 128 (1048576)
I0224 07:28:16.294607  1272 net.cpp:197] Top shape: 1 128 64 128 (1048576)
I0224 07:28:16.294611  1272 net.cpp:197] Top shape: 1 128 64 128 (1048576)
I0224 07:28:16.294615  1272 net.cpp:205] Memory required for data: 494239744
I0224 07:28:16.294618  1272 layer_factory.hpp:123] Creating layer ConvNd_27
I0224 07:28:16.294625  1272 net.cpp:140] Creating Layer ConvNd_27
I0224 07:28:16.294628  1272 net.cpp:481] ConvNd_27 <- BatchNorm_7_Threshold_7_0_split_0
I0224 07:28:16.294633  1272 net.cpp:455] ConvNd_27 -> ConvNd_27
I0224 07:28:16.294809  1272 net.cpp:190] Setting up ConvNd_27
I0224 07:28:16.294816  1272 net.cpp:197] Top shape: 1 25 64 128 (204800)
I0224 07:28:16.294821  1272 net.cpp:205] Memory required for data: 495058944
I0224 07:28:16.294826  1272 layer_factory.hpp:123] Creating layer ConvNd_27_ConvNd_27_0_split
I0224 07:28:16.294832  1272 net.cpp:140] Creating Layer ConvNd_27_ConvNd_27_0_split
I0224 07:28:16.294836  1272 net.cpp:481] ConvNd_27_ConvNd_27_0_split <- ConvNd_27
I0224 07:28:16.294840  1272 net.cpp:455] ConvNd_27_ConvNd_27_0_split -> ConvNd_27_ConvNd_27_0_split_0
I0224 07:28:16.294847  1272 net.cpp:455] ConvNd_27_ConvNd_27_0_split -> ConvNd_27_ConvNd_27_0_split_1
I0224 07:28:16.294852  1272 net.cpp:455] ConvNd_27_ConvNd_27_0_split -> ConvNd_27_ConvNd_27_0_split_2
I0224 07:28:16.294857  1272 net.cpp:455] ConvNd_27_ConvNd_27_0_split -> ConvNd_27_ConvNd_27_0_split_3
I0224 07:28:16.294862  1272 net.cpp:455] ConvNd_27_ConvNd_27_0_split -> ConvNd_27_ConvNd_27_0_split_4
I0224 07:28:16.294915  1272 net.cpp:190] Setting up ConvNd_27_ConvNd_27_0_split
I0224 07:28:16.294922  1272 net.cpp:197] Top shape: 1 25 64 128 (204800)
I0224 07:28:16.294927  1272 net.cpp:197] Top shape: 1 25 64 128 (204800)
I0224 07:28:16.294931  1272 net.cpp:197] Top shape: 1 25 64 128 (204800)
I0224 07:28:16.294935  1272 net.cpp:197] Top shape: 1 25 64 128 (204800)
I0224 07:28:16.294939  1272 net.cpp:197] Top shape: 1 25 64 128 (204800)
I0224 07:28:16.294942  1272 net.cpp:205] Memory required for data: 499154944
I0224 07:28:16.294945  1272 layer_factory.hpp:123] Creating layer ConvNd_28
I0224 07:28:16.294952  1272 net.cpp:140] Creating Layer ConvNd_28
I0224 07:28:16.294956  1272 net.cpp:481] ConvNd_28 <- ConvNd_27_ConvNd_27_0_split_0
I0224 07:28:16.294960  1272 net.cpp:455] ConvNd_28 -> ConvNd_28
I0224 07:28:16.295167  1272 net.cpp:190] Setting up ConvNd_28
I0224 07:28:16.295174  1272 net.cpp:197] Top shape: 1 28 64 128 (229376)
I0224 07:28:16.295179  1272 net.cpp:205] Memory required for data: 500072448
I0224 07:28:16.295184  1272 layer_factory.hpp:123] Creating layer ConvNd_29
I0224 07:28:16.295190  1272 net.cpp:140] Creating Layer ConvNd_29
I0224 07:28:16.295194  1272 net.cpp:481] ConvNd_29 <- ConvNd_27_ConvNd_27_0_split_1
I0224 07:28:16.295199  1272 net.cpp:455] ConvNd_29 -> ConvNd_29
I0224 07:28:16.295401  1272 net.cpp:190] Setting up ConvNd_29
I0224 07:28:16.295408  1272 net.cpp:197] Top shape: 1 25 64 128 (204800)
I0224 07:28:16.295413  1272 net.cpp:205] Memory required for data: 500891648
I0224 07:28:16.295416  1272 layer_factory.hpp:123] Creating layer ConvNd_29_ConvNd_29_0_split
I0224 07:28:16.295421  1272 net.cpp:140] Creating Layer ConvNd_29_ConvNd_29_0_split
I0224 07:28:16.295424  1272 net.cpp:481] ConvNd_29_ConvNd_29_0_split <- ConvNd_29
I0224 07:28:16.295429  1272 net.cpp:455] ConvNd_29_ConvNd_29_0_split -> ConvNd_29_ConvNd_29_0_split_0
I0224 07:28:16.295435  1272 net.cpp:455] ConvNd_29_ConvNd_29_0_split -> ConvNd_29_ConvNd_29_0_split_1
I0224 07:28:16.295461  1272 net.cpp:190] Setting up ConvNd_29_ConvNd_29_0_split
I0224 07:28:16.295464  1272 net.cpp:197] Top shape: 1 25 64 128 (204800)
I0224 07:28:16.295469  1272 net.cpp:197] Top shape: 1 25 64 128 (204800)
I0224 07:28:16.295472  1272 net.cpp:205] Memory required for data: 502530048
I0224 07:28:16.295476  1272 layer_factory.hpp:123] Creating layer ConvNd_30
I0224 07:28:16.295482  1272 net.cpp:140] Creating Layer ConvNd_30
I0224 07:28:16.295485  1272 net.cpp:481] ConvNd_30 <- ConvNd_27_ConvNd_27_0_split_2
I0224 07:28:16.295490  1272 net.cpp:455] ConvNd_30 -> ConvNd_30
I0224 07:28:16.295687  1272 net.cpp:190] Setting up ConvNd_30
I0224 07:28:16.295693  1272 net.cpp:197] Top shape: 1 25 64 128 (204800)
I0224 07:28:16.295697  1272 net.cpp:205] Memory required for data: 503349248
I0224 07:28:16.295706  1272 layer_factory.hpp:123] Creating layer Add_15
I0224 07:28:16.295711  1272 net.cpp:140] Creating Layer Add_15
I0224 07:28:16.295714  1272 net.cpp:481] Add_15 <- ConvNd_29_ConvNd_29_0_split_0
I0224 07:28:16.295718  1272 net.cpp:481] Add_15 <- ConvNd_30
I0224 07:28:16.295722  1272 net.cpp:455] Add_15 -> Add_15
I0224 07:28:16.295743  1272 net.cpp:190] Setting up Add_15
I0224 07:28:16.295747  1272 net.cpp:197] Top shape: 1 25 64 128 (204800)
I0224 07:28:16.295753  1272 net.cpp:205] Memory required for data: 504168448
I0224 07:28:16.295755  1272 layer_factory.hpp:123] Creating layer Add_15_Add_15_0_split
I0224 07:28:16.295760  1272 net.cpp:140] Creating Layer Add_15_Add_15_0_split
I0224 07:28:16.295764  1272 net.cpp:481] Add_15_Add_15_0_split <- Add_15
I0224 07:28:16.295768  1272 net.cpp:455] Add_15_Add_15_0_split -> Add_15_Add_15_0_split_0
I0224 07:28:16.295773  1272 net.cpp:455] Add_15_Add_15_0_split -> Add_15_Add_15_0_split_1
I0224 07:28:16.295799  1272 net.cpp:190] Setting up Add_15_Add_15_0_split
I0224 07:28:16.295802  1272 net.cpp:197] Top shape: 1 25 64 128 (204800)
I0224 07:28:16.295806  1272 net.cpp:197] Top shape: 1 25 64 128 (204800)
I0224 07:28:16.295810  1272 net.cpp:205] Memory required for data: 505806848
I0224 07:28:16.295814  1272 layer_factory.hpp:123] Creating layer ConvNd_31
I0224 07:28:16.295819  1272 net.cpp:140] Creating Layer ConvNd_31
I0224 07:28:16.295822  1272 net.cpp:481] ConvNd_31 <- ConvNd_27_ConvNd_27_0_split_3
I0224 07:28:16.295832  1272 net.cpp:455] ConvNd_31 -> ConvNd_31
I0224 07:28:16.296030  1272 net.cpp:190] Setting up ConvNd_31
I0224 07:28:16.296036  1272 net.cpp:197] Top shape: 1 25 64 128 (204800)
I0224 07:28:16.296041  1272 net.cpp:205] Memory required for data: 506626048
I0224 07:28:16.296046  1272 layer_factory.hpp:123] Creating layer Add_16
I0224 07:28:16.296051  1272 net.cpp:140] Creating Layer Add_16
I0224 07:28:16.296054  1272 net.cpp:481] Add_16 <- Add_15_Add_15_0_split_0
I0224 07:28:16.296058  1272 net.cpp:481] Add_16 <- ConvNd_31
I0224 07:28:16.296062  1272 net.cpp:455] Add_16 -> Add_16
I0224 07:28:16.296080  1272 net.cpp:190] Setting up Add_16
I0224 07:28:16.296083  1272 net.cpp:197] Top shape: 1 25 64 128 (204800)
I0224 07:28:16.296089  1272 net.cpp:205] Memory required for data: 507445248
I0224 07:28:16.296092  1272 layer_factory.hpp:123] Creating layer Add_16_Add_16_0_split
I0224 07:28:16.296097  1272 net.cpp:140] Creating Layer Add_16_Add_16_0_split
I0224 07:28:16.296100  1272 net.cpp:481] Add_16_Add_16_0_split <- Add_16
I0224 07:28:16.296104  1272 net.cpp:455] Add_16_Add_16_0_split -> Add_16_Add_16_0_split_0
I0224 07:28:16.296109  1272 net.cpp:455] Add_16_Add_16_0_split -> Add_16_Add_16_0_split_1
I0224 07:28:16.296134  1272 net.cpp:190] Setting up Add_16_Add_16_0_split
I0224 07:28:16.296137  1272 net.cpp:197] Top shape: 1 25 64 128 (204800)
I0224 07:28:16.296142  1272 net.cpp:197] Top shape: 1 25 64 128 (204800)
I0224 07:28:16.296146  1272 net.cpp:205] Memory required for data: 509083648
I0224 07:28:16.296149  1272 layer_factory.hpp:123] Creating layer ConvNd_32
I0224 07:28:16.296155  1272 net.cpp:140] Creating Layer ConvNd_32
I0224 07:28:16.296159  1272 net.cpp:481] ConvNd_32 <- ConvNd_27_ConvNd_27_0_split_4
I0224 07:28:16.296164  1272 net.cpp:455] ConvNd_32 -> ConvNd_32
I0224 07:28:16.296363  1272 net.cpp:190] Setting up ConvNd_32
I0224 07:28:16.296370  1272 net.cpp:197] Top shape: 1 25 64 128 (204800)
I0224 07:28:16.296373  1272 net.cpp:205] Memory required for data: 509902848
I0224 07:28:16.296378  1272 layer_factory.hpp:123] Creating layer Add_17
I0224 07:28:16.296383  1272 net.cpp:140] Creating Layer Add_17
I0224 07:28:16.296387  1272 net.cpp:481] Add_17 <- Add_16_Add_16_0_split_0
I0224 07:28:16.296391  1272 net.cpp:481] Add_17 <- ConvNd_32
I0224 07:28:16.296396  1272 net.cpp:455] Add_17 -> Add_17
I0224 07:28:16.296413  1272 net.cpp:190] Setting up Add_17
I0224 07:28:16.296416  1272 net.cpp:197] Top shape: 1 25 64 128 (204800)
I0224 07:28:16.296422  1272 net.cpp:205] Memory required for data: 510722048
I0224 07:28:16.296424  1272 layer_factory.hpp:123] Creating layer Concat_7
I0224 07:28:16.296429  1272 net.cpp:140] Creating Layer Concat_7
I0224 07:28:16.296432  1272 net.cpp:481] Concat_7 <- ConvNd_28
I0224 07:28:16.296437  1272 net.cpp:481] Concat_7 <- ConvNd_29_ConvNd_29_0_split_1
I0224 07:28:16.296440  1272 net.cpp:481] Concat_7 <- Add_15_Add_15_0_split_1
I0224 07:28:16.296443  1272 net.cpp:481] Concat_7 <- Add_16_Add_16_0_split_1
I0224 07:28:16.296447  1272 net.cpp:481] Concat_7 <- Add_17
I0224 07:28:16.296452  1272 net.cpp:455] Concat_7 -> Concat_7
I0224 07:28:16.296468  1272 net.cpp:190] Setting up Concat_7
I0224 07:28:16.296471  1272 net.cpp:197] Top shape: 1 128 64 128 (1048576)
I0224 07:28:16.296475  1272 net.cpp:205] Memory required for data: 514916352
I0224 07:28:16.296479  1272 layer_factory.hpp:123] Creating layer Add_18
I0224 07:28:16.296483  1272 net.cpp:140] Creating Layer Add_18
I0224 07:28:16.296488  1272 net.cpp:481] Add_18 <- BatchNorm_7_Threshold_7_0_split_1
I0224 07:28:16.296490  1272 net.cpp:481] Add_18 <- Concat_7
I0224 07:28:16.296495  1272 net.cpp:455] Add_18 -> Add_18
I0224 07:28:16.296510  1272 net.cpp:190] Setting up Add_18
I0224 07:28:16.296514  1272 net.cpp:197] Top shape: 1 128 64 128 (1048576)
I0224 07:28:16.296519  1272 net.cpp:205] Memory required for data: 519110656
I0224 07:28:16.296521  1272 layer_factory.hpp:123] Creating layer BatchNorm_8
I0224 07:28:16.296527  1272 net.cpp:140] Creating Layer BatchNorm_8
I0224 07:28:16.296531  1272 net.cpp:481] BatchNorm_8 <- Add_18
I0224 07:28:16.296536  1272 net.cpp:455] BatchNorm_8 -> BatchNorm_8
I0224 07:28:16.296991  1272 net.cpp:190] Setting up BatchNorm_8
I0224 07:28:16.297000  1272 net.cpp:197] Top shape: 1 128 64 128 (1048576)
I0224 07:28:16.297005  1272 net.cpp:205] Memory required for data: 523304960
I0224 07:28:16.297013  1272 layer_factory.hpp:123] Creating layer Threshold_8
I0224 07:28:16.297019  1272 net.cpp:140] Creating Layer Threshold_8
I0224 07:28:16.297021  1272 net.cpp:481] Threshold_8 <- BatchNorm_8
I0224 07:28:16.297026  1272 net.cpp:442] Threshold_8 -> BatchNorm_8 (in-place)
I0224 07:28:16.297032  1272 net.cpp:190] Setting up Threshold_8
I0224 07:28:16.297035  1272 net.cpp:197] Top shape: 1 128 64 128 (1048576)
I0224 07:28:16.297039  1272 net.cpp:205] Memory required for data: 527499264
I0224 07:28:16.297042  1272 layer_factory.hpp:123] Creating layer BatchNorm_8_Threshold_8_0_split
I0224 07:28:16.297049  1272 net.cpp:140] Creating Layer BatchNorm_8_Threshold_8_0_split
I0224 07:28:16.297051  1272 net.cpp:481] BatchNorm_8_Threshold_8_0_split <- BatchNorm_8
I0224 07:28:16.297055  1272 net.cpp:455] BatchNorm_8_Threshold_8_0_split -> BatchNorm_8_Threshold_8_0_split_0
I0224 07:28:16.297060  1272 net.cpp:455] BatchNorm_8_Threshold_8_0_split -> BatchNorm_8_Threshold_8_0_split_1
I0224 07:28:16.297088  1272 net.cpp:190] Setting up BatchNorm_8_Threshold_8_0_split
I0224 07:28:16.297096  1272 net.cpp:197] Top shape: 1 128 64 128 (1048576)
I0224 07:28:16.297102  1272 net.cpp:197] Top shape: 1 128 64 128 (1048576)
I0224 07:28:16.297108  1272 net.cpp:205] Memory required for data: 535887872
I0224 07:28:16.297113  1272 layer_factory.hpp:123] Creating layer ConvNd_33
I0224 07:28:16.297123  1272 net.cpp:140] Creating Layer ConvNd_33
I0224 07:28:16.297128  1272 net.cpp:481] ConvNd_33 <- BatchNorm_8_Threshold_8_0_split_0
I0224 07:28:16.297137  1272 net.cpp:455] ConvNd_33 -> ConvNd_33
I0224 07:28:16.297328  1272 net.cpp:190] Setting up ConvNd_33
I0224 07:28:16.297336  1272 net.cpp:197] Top shape: 1 25 64 128 (204800)
I0224 07:28:16.297343  1272 net.cpp:205] Memory required for data: 536707072
I0224 07:28:16.297348  1272 layer_factory.hpp:123] Creating layer ConvNd_33_ConvNd_33_0_split
I0224 07:28:16.297353  1272 net.cpp:140] Creating Layer ConvNd_33_ConvNd_33_0_split
I0224 07:28:16.297358  1272 net.cpp:481] ConvNd_33_ConvNd_33_0_split <- ConvNd_33
I0224 07:28:16.297363  1272 net.cpp:455] ConvNd_33_ConvNd_33_0_split -> ConvNd_33_ConvNd_33_0_split_0
I0224 07:28:16.297369  1272 net.cpp:455] ConvNd_33_ConvNd_33_0_split -> ConvNd_33_ConvNd_33_0_split_1
I0224 07:28:16.297374  1272 net.cpp:455] ConvNd_33_ConvNd_33_0_split -> ConvNd_33_ConvNd_33_0_split_2
I0224 07:28:16.297379  1272 net.cpp:455] ConvNd_33_ConvNd_33_0_split -> ConvNd_33_ConvNd_33_0_split_3
I0224 07:28:16.297384  1272 net.cpp:455] ConvNd_33_ConvNd_33_0_split -> ConvNd_33_ConvNd_33_0_split_4
I0224 07:28:16.297439  1272 net.cpp:190] Setting up ConvNd_33_ConvNd_33_0_split
I0224 07:28:16.297444  1272 net.cpp:197] Top shape: 1 25 64 128 (204800)
I0224 07:28:16.297449  1272 net.cpp:197] Top shape: 1 25 64 128 (204800)
I0224 07:28:16.297452  1272 net.cpp:197] Top shape: 1 25 64 128 (204800)
I0224 07:28:16.297456  1272 net.cpp:197] Top shape: 1 25 64 128 (204800)
I0224 07:28:16.297464  1272 net.cpp:197] Top shape: 1 25 64 128 (204800)
I0224 07:28:16.297468  1272 net.cpp:205] Memory required for data: 540803072
I0224 07:28:16.297472  1272 layer_factory.hpp:123] Creating layer ConvNd_34
I0224 07:28:16.297478  1272 net.cpp:140] Creating Layer ConvNd_34
I0224 07:28:16.297482  1272 net.cpp:481] ConvNd_34 <- ConvNd_33_ConvNd_33_0_split_0
I0224 07:28:16.297487  1272 net.cpp:455] ConvNd_34 -> ConvNd_34
I0224 07:28:16.297703  1272 net.cpp:190] Setting up ConvNd_34
I0224 07:28:16.297710  1272 net.cpp:197] Top shape: 1 28 64 128 (229376)
I0224 07:28:16.297715  1272 net.cpp:205] Memory required for data: 541720576
I0224 07:28:16.297720  1272 layer_factory.hpp:123] Creating layer ConvNd_35
I0224 07:28:16.297726  1272 net.cpp:140] Creating Layer ConvNd_35
I0224 07:28:16.297730  1272 net.cpp:481] ConvNd_35 <- ConvNd_33_ConvNd_33_0_split_1
I0224 07:28:16.297735  1272 net.cpp:455] ConvNd_35 -> ConvNd_35
I0224 07:28:16.297940  1272 net.cpp:190] Setting up ConvNd_35
I0224 07:28:16.297946  1272 net.cpp:197] Top shape: 1 25 64 128 (204800)
I0224 07:28:16.297950  1272 net.cpp:205] Memory required for data: 542539776
I0224 07:28:16.297955  1272 layer_factory.hpp:123] Creating layer ConvNd_35_ConvNd_35_0_split
I0224 07:28:16.297960  1272 net.cpp:140] Creating Layer ConvNd_35_ConvNd_35_0_split
I0224 07:28:16.297963  1272 net.cpp:481] ConvNd_35_ConvNd_35_0_split <- ConvNd_35
I0224 07:28:16.297968  1272 net.cpp:455] ConvNd_35_ConvNd_35_0_split -> ConvNd_35_ConvNd_35_0_split_0
I0224 07:28:16.297974  1272 net.cpp:455] ConvNd_35_ConvNd_35_0_split -> ConvNd_35_ConvNd_35_0_split_1
I0224 07:28:16.298002  1272 net.cpp:190] Setting up ConvNd_35_ConvNd_35_0_split
I0224 07:28:16.298004  1272 net.cpp:197] Top shape: 1 25 64 128 (204800)
I0224 07:28:16.298009  1272 net.cpp:197] Top shape: 1 25 64 128 (204800)
I0224 07:28:16.298013  1272 net.cpp:205] Memory required for data: 544178176
I0224 07:28:16.298017  1272 layer_factory.hpp:123] Creating layer ConvNd_36
I0224 07:28:16.298022  1272 net.cpp:140] Creating Layer ConvNd_36
I0224 07:28:16.298027  1272 net.cpp:481] ConvNd_36 <- ConvNd_33_ConvNd_33_0_split_2
I0224 07:28:16.298032  1272 net.cpp:455] ConvNd_36 -> ConvNd_36
I0224 07:28:16.298251  1272 net.cpp:190] Setting up ConvNd_36
I0224 07:28:16.298259  1272 net.cpp:197] Top shape: 1 25 64 128 (204800)
I0224 07:28:16.298264  1272 net.cpp:205] Memory required for data: 544997376
I0224 07:28:16.298267  1272 layer_factory.hpp:123] Creating layer Add_19
I0224 07:28:16.298272  1272 net.cpp:140] Creating Layer Add_19
I0224 07:28:16.298276  1272 net.cpp:481] Add_19 <- ConvNd_35_ConvNd_35_0_split_0
I0224 07:28:16.298280  1272 net.cpp:481] Add_19 <- ConvNd_36
I0224 07:28:16.298285  1272 net.cpp:455] Add_19 -> Add_19
I0224 07:28:16.298303  1272 net.cpp:190] Setting up Add_19
I0224 07:28:16.298307  1272 net.cpp:197] Top shape: 1 25 64 128 (204800)
I0224 07:28:16.298311  1272 net.cpp:205] Memory required for data: 545816576
I0224 07:28:16.298314  1272 layer_factory.hpp:123] Creating layer Add_19_Add_19_0_split
I0224 07:28:16.298321  1272 net.cpp:140] Creating Layer Add_19_Add_19_0_split
I0224 07:28:16.298323  1272 net.cpp:481] Add_19_Add_19_0_split <- Add_19
I0224 07:28:16.298328  1272 net.cpp:455] Add_19_Add_19_0_split -> Add_19_Add_19_0_split_0
I0224 07:28:16.298333  1272 net.cpp:455] Add_19_Add_19_0_split -> Add_19_Add_19_0_split_1
I0224 07:28:16.298360  1272 net.cpp:190] Setting up Add_19_Add_19_0_split
I0224 07:28:16.298367  1272 net.cpp:197] Top shape: 1 25 64 128 (204800)
I0224 07:28:16.298375  1272 net.cpp:197] Top shape: 1 25 64 128 (204800)
I0224 07:28:16.298382  1272 net.cpp:205] Memory required for data: 547454976
I0224 07:28:16.298386  1272 layer_factory.hpp:123] Creating layer ConvNd_37
I0224 07:28:16.298395  1272 net.cpp:140] Creating Layer ConvNd_37
I0224 07:28:16.298401  1272 net.cpp:481] ConvNd_37 <- ConvNd_33_ConvNd_33_0_split_3
I0224 07:28:16.298409  1272 net.cpp:455] ConvNd_37 -> ConvNd_37
I0224 07:28:16.298653  1272 net.cpp:190] Setting up ConvNd_37
I0224 07:28:16.298660  1272 net.cpp:197] Top shape: 1 25 64 128 (204800)
I0224 07:28:16.298666  1272 net.cpp:205] Memory required for data: 548274176
I0224 07:28:16.298671  1272 layer_factory.hpp:123] Creating layer Add_20
I0224 07:28:16.298676  1272 net.cpp:140] Creating Layer Add_20
I0224 07:28:16.298681  1272 net.cpp:481] Add_20 <- Add_19_Add_19_0_split_0
I0224 07:28:16.298684  1272 net.cpp:481] Add_20 <- ConvNd_37
I0224 07:28:16.298689  1272 net.cpp:455] Add_20 -> Add_20
I0224 07:28:16.298707  1272 net.cpp:190] Setting up Add_20
I0224 07:28:16.298710  1272 net.cpp:197] Top shape: 1 25 64 128 (204800)
I0224 07:28:16.298715  1272 net.cpp:205] Memory required for data: 549093376
I0224 07:28:16.298718  1272 layer_factory.hpp:123] Creating layer Add_20_Add_20_0_split
I0224 07:28:16.298723  1272 net.cpp:140] Creating Layer Add_20_Add_20_0_split
I0224 07:28:16.298727  1272 net.cpp:481] Add_20_Add_20_0_split <- Add_20
I0224 07:28:16.298730  1272 net.cpp:455] Add_20_Add_20_0_split -> Add_20_Add_20_0_split_0
I0224 07:28:16.298735  1272 net.cpp:455] Add_20_Add_20_0_split -> Add_20_Add_20_0_split_1
I0224 07:28:16.298774  1272 net.cpp:190] Setting up Add_20_Add_20_0_split
I0224 07:28:16.298781  1272 net.cpp:197] Top shape: 1 25 64 128 (204800)
I0224 07:28:16.298787  1272 net.cpp:197] Top shape: 1 25 64 128 (204800)
I0224 07:28:16.298794  1272 net.cpp:205] Memory required for data: 550731776
I0224 07:28:16.298799  1272 layer_factory.hpp:123] Creating layer ConvNd_38
I0224 07:28:16.298808  1272 net.cpp:140] Creating Layer ConvNd_38
I0224 07:28:16.298815  1272 net.cpp:481] ConvNd_38 <- ConvNd_33_ConvNd_33_0_split_4
I0224 07:28:16.298820  1272 net.cpp:455] ConvNd_38 -> ConvNd_38
I0224 07:28:16.299033  1272 net.cpp:190] Setting up ConvNd_38
I0224 07:28:16.299041  1272 net.cpp:197] Top shape: 1 25 64 128 (204800)
I0224 07:28:16.299046  1272 net.cpp:205] Memory required for data: 551550976
I0224 07:28:16.299052  1272 layer_factory.hpp:123] Creating layer Add_21
I0224 07:28:16.299057  1272 net.cpp:140] Creating Layer Add_21
I0224 07:28:16.299059  1272 net.cpp:481] Add_21 <- Add_20_Add_20_0_split_0
I0224 07:28:16.299064  1272 net.cpp:481] Add_21 <- ConvNd_38
I0224 07:28:16.299068  1272 net.cpp:455] Add_21 -> Add_21
I0224 07:28:16.299087  1272 net.cpp:190] Setting up Add_21
I0224 07:28:16.299090  1272 net.cpp:197] Top shape: 1 25 64 128 (204800)
I0224 07:28:16.299094  1272 net.cpp:205] Memory required for data: 552370176
I0224 07:28:16.299098  1272 layer_factory.hpp:123] Creating layer Concat_8
I0224 07:28:16.299103  1272 net.cpp:140] Creating Layer Concat_8
I0224 07:28:16.299106  1272 net.cpp:481] Concat_8 <- ConvNd_34
I0224 07:28:16.299110  1272 net.cpp:481] Concat_8 <- ConvNd_35_ConvNd_35_0_split_1
I0224 07:28:16.299113  1272 net.cpp:481] Concat_8 <- Add_19_Add_19_0_split_1
I0224 07:28:16.299118  1272 net.cpp:481] Concat_8 <- Add_20_Add_20_0_split_1
I0224 07:28:16.299120  1272 net.cpp:481] Concat_8 <- Add_21
I0224 07:28:16.299124  1272 net.cpp:455] Concat_8 -> Concat_8
I0224 07:28:16.299146  1272 net.cpp:190] Setting up Concat_8
I0224 07:28:16.299152  1272 net.cpp:197] Top shape: 1 128 64 128 (1048576)
I0224 07:28:16.299160  1272 net.cpp:205] Memory required for data: 556564480
I0224 07:28:16.299165  1272 layer_factory.hpp:123] Creating layer Add_22
I0224 07:28:16.299171  1272 net.cpp:140] Creating Layer Add_22
I0224 07:28:16.299177  1272 net.cpp:481] Add_22 <- BatchNorm_8_Threshold_8_0_split_1
I0224 07:28:16.299182  1272 net.cpp:481] Add_22 <- Concat_8
I0224 07:28:16.299186  1272 net.cpp:455] Add_22 -> Add_22
I0224 07:28:16.299208  1272 net.cpp:190] Setting up Add_22
I0224 07:28:16.299217  1272 net.cpp:197] Top shape: 1 128 64 128 (1048576)
I0224 07:28:16.299224  1272 net.cpp:205] Memory required for data: 560758784
I0224 07:28:16.299229  1272 layer_factory.hpp:123] Creating layer BatchNorm_9
I0224 07:28:16.299237  1272 net.cpp:140] Creating Layer BatchNorm_9
I0224 07:28:16.299239  1272 net.cpp:481] BatchNorm_9 <- Add_22
I0224 07:28:16.299244  1272 net.cpp:455] BatchNorm_9 -> BatchNorm_9
I0224 07:28:16.299696  1272 net.cpp:190] Setting up BatchNorm_9
I0224 07:28:16.299703  1272 net.cpp:197] Top shape: 1 128 64 128 (1048576)
I0224 07:28:16.299710  1272 net.cpp:205] Memory required for data: 564953088
I0224 07:28:16.299717  1272 layer_factory.hpp:123] Creating layer Threshold_9
I0224 07:28:16.299722  1272 net.cpp:140] Creating Layer Threshold_9
I0224 07:28:16.299726  1272 net.cpp:481] Threshold_9 <- BatchNorm_9
I0224 07:28:16.299731  1272 net.cpp:442] Threshold_9 -> BatchNorm_9 (in-place)
I0224 07:28:16.299736  1272 net.cpp:190] Setting up Threshold_9
I0224 07:28:16.299739  1272 net.cpp:197] Top shape: 1 128 64 128 (1048576)
I0224 07:28:16.299743  1272 net.cpp:205] Memory required for data: 569147392
I0224 07:28:16.299746  1272 layer_factory.hpp:123] Creating layer BatchNorm_9_Threshold_9_0_split
I0224 07:28:16.299751  1272 net.cpp:140] Creating Layer BatchNorm_9_Threshold_9_0_split
I0224 07:28:16.299754  1272 net.cpp:481] BatchNorm_9_Threshold_9_0_split <- BatchNorm_9
I0224 07:28:16.299758  1272 net.cpp:455] BatchNorm_9_Threshold_9_0_split -> BatchNorm_9_Threshold_9_0_split_0
I0224 07:28:16.299763  1272 net.cpp:455] BatchNorm_9_Threshold_9_0_split -> BatchNorm_9_Threshold_9_0_split_1
I0224 07:28:16.299790  1272 net.cpp:190] Setting up BatchNorm_9_Threshold_9_0_split
I0224 07:28:16.299794  1272 net.cpp:197] Top shape: 1 128 64 128 (1048576)
I0224 07:28:16.299798  1272 net.cpp:197] Top shape: 1 128 64 128 (1048576)
I0224 07:28:16.299803  1272 net.cpp:205] Memory required for data: 577536000
I0224 07:28:16.299805  1272 layer_factory.hpp:123] Creating layer ConvNd_39
I0224 07:28:16.299813  1272 net.cpp:140] Creating Layer ConvNd_39
I0224 07:28:16.299815  1272 net.cpp:481] ConvNd_39 <- BatchNorm_9_Threshold_9_0_split_0
I0224 07:28:16.299820  1272 net.cpp:455] ConvNd_39 -> ConvNd_39
I0224 07:28:16.299999  1272 net.cpp:190] Setting up ConvNd_39
I0224 07:28:16.300006  1272 net.cpp:197] Top shape: 1 25 64 128 (204800)
I0224 07:28:16.300011  1272 net.cpp:205] Memory required for data: 578355200
I0224 07:28:16.300015  1272 layer_factory.hpp:123] Creating layer ConvNd_39_ConvNd_39_0_split
I0224 07:28:16.300021  1272 net.cpp:140] Creating Layer ConvNd_39_ConvNd_39_0_split
I0224 07:28:16.300025  1272 net.cpp:481] ConvNd_39_ConvNd_39_0_split <- ConvNd_39
I0224 07:28:16.300030  1272 net.cpp:455] ConvNd_39_ConvNd_39_0_split -> ConvNd_39_ConvNd_39_0_split_0
I0224 07:28:16.300036  1272 net.cpp:455] ConvNd_39_ConvNd_39_0_split -> ConvNd_39_ConvNd_39_0_split_1
I0224 07:28:16.300041  1272 net.cpp:455] ConvNd_39_ConvNd_39_0_split -> ConvNd_39_ConvNd_39_0_split_2
I0224 07:28:16.300046  1272 net.cpp:455] ConvNd_39_ConvNd_39_0_split -> ConvNd_39_ConvNd_39_0_split_3
I0224 07:28:16.300051  1272 net.cpp:455] ConvNd_39_ConvNd_39_0_split -> ConvNd_39_ConvNd_39_0_split_4
I0224 07:28:16.300107  1272 net.cpp:190] Setting up ConvNd_39_ConvNd_39_0_split
I0224 07:28:16.300112  1272 net.cpp:197] Top shape: 1 25 64 128 (204800)
I0224 07:28:16.300117  1272 net.cpp:197] Top shape: 1 25 64 128 (204800)
I0224 07:28:16.300120  1272 net.cpp:197] Top shape: 1 25 64 128 (204800)
I0224 07:28:16.300123  1272 net.cpp:197] Top shape: 1 25 64 128 (204800)
I0224 07:28:16.300127  1272 net.cpp:197] Top shape: 1 25 64 128 (204800)
I0224 07:28:16.300132  1272 net.cpp:205] Memory required for data: 582451200
I0224 07:28:16.300135  1272 layer_factory.hpp:123] Creating layer ConvNd_40
I0224 07:28:16.300141  1272 net.cpp:140] Creating Layer ConvNd_40
I0224 07:28:16.300153  1272 net.cpp:481] ConvNd_40 <- ConvNd_39_ConvNd_39_0_split_0
I0224 07:28:16.300158  1272 net.cpp:455] ConvNd_40 -> ConvNd_40
I0224 07:28:16.300374  1272 net.cpp:190] Setting up ConvNd_40
I0224 07:28:16.300380  1272 net.cpp:197] Top shape: 1 28 64 128 (229376)
I0224 07:28:16.300385  1272 net.cpp:205] Memory required for data: 583368704
I0224 07:28:16.300390  1272 layer_factory.hpp:123] Creating layer ConvNd_41
I0224 07:28:16.300396  1272 net.cpp:140] Creating Layer ConvNd_41
I0224 07:28:16.300400  1272 net.cpp:481] ConvNd_41 <- ConvNd_39_ConvNd_39_0_split_1
I0224 07:28:16.300405  1272 net.cpp:455] ConvNd_41 -> ConvNd_41
I0224 07:28:16.300606  1272 net.cpp:190] Setting up ConvNd_41
I0224 07:28:16.300611  1272 net.cpp:197] Top shape: 1 25 64 128 (204800)
I0224 07:28:16.300617  1272 net.cpp:205] Memory required for data: 584187904
I0224 07:28:16.300621  1272 layer_factory.hpp:123] Creating layer ConvNd_41_ConvNd_41_0_split
I0224 07:28:16.300626  1272 net.cpp:140] Creating Layer ConvNd_41_ConvNd_41_0_split
I0224 07:28:16.300631  1272 net.cpp:481] ConvNd_41_ConvNd_41_0_split <- ConvNd_41
I0224 07:28:16.300635  1272 net.cpp:455] ConvNd_41_ConvNd_41_0_split -> ConvNd_41_ConvNd_41_0_split_0
I0224 07:28:16.300640  1272 net.cpp:455] ConvNd_41_ConvNd_41_0_split -> ConvNd_41_ConvNd_41_0_split_1
I0224 07:28:16.300668  1272 net.cpp:190] Setting up ConvNd_41_ConvNd_41_0_split
I0224 07:28:16.300673  1272 net.cpp:197] Top shape: 1 25 64 128 (204800)
I0224 07:28:16.300678  1272 net.cpp:197] Top shape: 1 25 64 128 (204800)
I0224 07:28:16.300683  1272 net.cpp:205] Memory required for data: 585826304
I0224 07:28:16.300685  1272 layer_factory.hpp:123] Creating layer ConvNd_42
I0224 07:28:16.300694  1272 net.cpp:140] Creating Layer ConvNd_42
I0224 07:28:16.300698  1272 net.cpp:481] ConvNd_42 <- ConvNd_39_ConvNd_39_0_split_2
I0224 07:28:16.300705  1272 net.cpp:455] ConvNd_42 -> ConvNd_42
I0224 07:28:16.300940  1272 net.cpp:190] Setting up ConvNd_42
I0224 07:28:16.300946  1272 net.cpp:197] Top shape: 1 25 64 128 (204800)
I0224 07:28:16.300951  1272 net.cpp:205] Memory required for data: 586645504
I0224 07:28:16.300957  1272 layer_factory.hpp:123] Creating layer Add_23
I0224 07:28:16.300962  1272 net.cpp:140] Creating Layer Add_23
I0224 07:28:16.300966  1272 net.cpp:481] Add_23 <- ConvNd_41_ConvNd_41_0_split_0
I0224 07:28:16.300971  1272 net.cpp:481] Add_23 <- ConvNd_42
I0224 07:28:16.300976  1272 net.cpp:455] Add_23 -> Add_23
I0224 07:28:16.300994  1272 net.cpp:190] Setting up Add_23
I0224 07:28:16.300997  1272 net.cpp:197] Top shape: 1 25 64 128 (204800)
I0224 07:28:16.301002  1272 net.cpp:205] Memory required for data: 587464704
I0224 07:28:16.301005  1272 layer_factory.hpp:123] Creating layer Add_23_Add_23_0_split
I0224 07:28:16.301010  1272 net.cpp:140] Creating Layer Add_23_Add_23_0_split
I0224 07:28:16.301015  1272 net.cpp:481] Add_23_Add_23_0_split <- Add_23
I0224 07:28:16.301023  1272 net.cpp:455] Add_23_Add_23_0_split -> Add_23_Add_23_0_split_0
I0224 07:28:16.301031  1272 net.cpp:455] Add_23_Add_23_0_split -> Add_23_Add_23_0_split_1
I0224 07:28:16.301069  1272 net.cpp:190] Setting up Add_23_Add_23_0_split
I0224 07:28:16.301077  1272 net.cpp:197] Top shape: 1 25 64 128 (204800)
I0224 07:28:16.301085  1272 net.cpp:197] Top shape: 1 25 64 128 (204800)
I0224 07:28:16.301091  1272 net.cpp:205] Memory required for data: 589103104
I0224 07:28:16.301095  1272 layer_factory.hpp:123] Creating layer ConvNd_43
I0224 07:28:16.301102  1272 net.cpp:140] Creating Layer ConvNd_43
I0224 07:28:16.301105  1272 net.cpp:481] ConvNd_43 <- ConvNd_39_ConvNd_39_0_split_3
I0224 07:28:16.301110  1272 net.cpp:455] ConvNd_43 -> ConvNd_43
I0224 07:28:16.301329  1272 net.cpp:190] Setting up ConvNd_43
I0224 07:28:16.301337  1272 net.cpp:197] Top shape: 1 25 64 128 (204800)
I0224 07:28:16.301342  1272 net.cpp:205] Memory required for data: 589922304
I0224 07:28:16.301347  1272 layer_factory.hpp:123] Creating layer Add_24
I0224 07:28:16.301352  1272 net.cpp:140] Creating Layer Add_24
I0224 07:28:16.301355  1272 net.cpp:481] Add_24 <- Add_23_Add_23_0_split_0
I0224 07:28:16.301359  1272 net.cpp:481] Add_24 <- ConvNd_43
I0224 07:28:16.301364  1272 net.cpp:455] Add_24 -> Add_24
I0224 07:28:16.301383  1272 net.cpp:190] Setting up Add_24
I0224 07:28:16.301390  1272 net.cpp:197] Top shape: 1 25 64 128 (204800)
I0224 07:28:16.301395  1272 net.cpp:205] Memory required for data: 590741504
I0224 07:28:16.301398  1272 layer_factory.hpp:123] Creating layer Add_24_Add_24_0_split
I0224 07:28:16.301403  1272 net.cpp:140] Creating Layer Add_24_Add_24_0_split
I0224 07:28:16.301406  1272 net.cpp:481] Add_24_Add_24_0_split <- Add_24
I0224 07:28:16.301411  1272 net.cpp:455] Add_24_Add_24_0_split -> Add_24_Add_24_0_split_0
I0224 07:28:16.301416  1272 net.cpp:455] Add_24_Add_24_0_split -> Add_24_Add_24_0_split_1
I0224 07:28:16.301443  1272 net.cpp:190] Setting up Add_24_Add_24_0_split
I0224 07:28:16.301452  1272 net.cpp:197] Top shape: 1 25 64 128 (204800)
I0224 07:28:16.301458  1272 net.cpp:197] Top shape: 1 25 64 128 (204800)
I0224 07:28:16.301465  1272 net.cpp:205] Memory required for data: 592379904
I0224 07:28:16.301470  1272 layer_factory.hpp:123] Creating layer ConvNd_44
I0224 07:28:16.301481  1272 net.cpp:140] Creating Layer ConvNd_44
I0224 07:28:16.301484  1272 net.cpp:481] ConvNd_44 <- ConvNd_39_ConvNd_39_0_split_4
I0224 07:28:16.301489  1272 net.cpp:455] ConvNd_44 -> ConvNd_44
I0224 07:28:16.301714  1272 net.cpp:190] Setting up ConvNd_44
I0224 07:28:16.301721  1272 net.cpp:197] Top shape: 1 25 64 128 (204800)
I0224 07:28:16.301726  1272 net.cpp:205] Memory required for data: 593199104
I0224 07:28:16.301731  1272 layer_factory.hpp:123] Creating layer Add_25
I0224 07:28:16.301738  1272 net.cpp:140] Creating Layer Add_25
I0224 07:28:16.301741  1272 net.cpp:481] Add_25 <- Add_24_Add_24_0_split_0
I0224 07:28:16.301745  1272 net.cpp:481] Add_25 <- ConvNd_44
I0224 07:28:16.301750  1272 net.cpp:455] Add_25 -> Add_25
I0224 07:28:16.301769  1272 net.cpp:190] Setting up Add_25
I0224 07:28:16.301771  1272 net.cpp:197] Top shape: 1 25 64 128 (204800)
I0224 07:28:16.301776  1272 net.cpp:205] Memory required for data: 594018304
I0224 07:28:16.301779  1272 layer_factory.hpp:123] Creating layer Concat_9
I0224 07:28:16.301784  1272 net.cpp:140] Creating Layer Concat_9
I0224 07:28:16.301787  1272 net.cpp:481] Concat_9 <- ConvNd_40
I0224 07:28:16.301791  1272 net.cpp:481] Concat_9 <- ConvNd_41_ConvNd_41_0_split_1
I0224 07:28:16.301795  1272 net.cpp:481] Concat_9 <- Add_23_Add_23_0_split_1
I0224 07:28:16.301798  1272 net.cpp:481] Concat_9 <- Add_24_Add_24_0_split_1
I0224 07:28:16.301802  1272 net.cpp:481] Concat_9 <- Add_25
I0224 07:28:16.301806  1272 net.cpp:455] Concat_9 -> Concat_9
I0224 07:28:16.301823  1272 net.cpp:190] Setting up Concat_9
I0224 07:28:16.301827  1272 net.cpp:197] Top shape: 1 128 64 128 (1048576)
I0224 07:28:16.301831  1272 net.cpp:205] Memory required for data: 598212608
I0224 07:28:16.301834  1272 layer_factory.hpp:123] Creating layer Add_26
I0224 07:28:16.301839  1272 net.cpp:140] Creating Layer Add_26
I0224 07:28:16.301843  1272 net.cpp:481] Add_26 <- BatchNorm_9_Threshold_9_0_split_1
I0224 07:28:16.301846  1272 net.cpp:481] Add_26 <- Concat_9
I0224 07:28:16.301851  1272 net.cpp:455] Add_26 -> Add_26
I0224 07:28:16.301867  1272 net.cpp:190] Setting up Add_26
I0224 07:28:16.301870  1272 net.cpp:197] Top shape: 1 128 64 128 (1048576)
I0224 07:28:16.301875  1272 net.cpp:205] Memory required for data: 602406912
I0224 07:28:16.301878  1272 layer_factory.hpp:123] Creating layer BatchNorm_10
I0224 07:28:16.301885  1272 net.cpp:140] Creating Layer BatchNorm_10
I0224 07:28:16.301888  1272 net.cpp:481] BatchNorm_10 <- Add_26
I0224 07:28:16.301893  1272 net.cpp:455] BatchNorm_10 -> BatchNorm_10
I0224 07:28:16.302340  1272 net.cpp:190] Setting up BatchNorm_10
I0224 07:28:16.302347  1272 net.cpp:197] Top shape: 1 128 64 128 (1048576)
I0224 07:28:16.302352  1272 net.cpp:205] Memory required for data: 606601216
I0224 07:28:16.302359  1272 layer_factory.hpp:123] Creating layer Threshold_10
I0224 07:28:16.302364  1272 net.cpp:140] Creating Layer Threshold_10
I0224 07:28:16.302368  1272 net.cpp:481] Threshold_10 <- BatchNorm_10
I0224 07:28:16.302372  1272 net.cpp:442] Threshold_10 -> BatchNorm_10 (in-place)
I0224 07:28:16.302378  1272 net.cpp:190] Setting up Threshold_10
I0224 07:28:16.302381  1272 net.cpp:197] Top shape: 1 128 64 128 (1048576)
I0224 07:28:16.302386  1272 net.cpp:205] Memory required for data: 610795520
I0224 07:28:16.302388  1272 layer_factory.hpp:123] Creating layer BatchNorm_10_Threshold_10_0_split
I0224 07:28:16.302393  1272 net.cpp:140] Creating Layer BatchNorm_10_Threshold_10_0_split
I0224 07:28:16.302397  1272 net.cpp:481] BatchNorm_10_Threshold_10_0_split <- BatchNorm_10
I0224 07:28:16.302400  1272 net.cpp:455] BatchNorm_10_Threshold_10_0_split -> BatchNorm_10_Threshold_10_0_split_0
I0224 07:28:16.302405  1272 net.cpp:455] BatchNorm_10_Threshold_10_0_split -> BatchNorm_10_Threshold_10_0_split_1
I0224 07:28:16.302433  1272 net.cpp:190] Setting up BatchNorm_10_Threshold_10_0_split
I0224 07:28:16.302436  1272 net.cpp:197] Top shape: 1 128 64 128 (1048576)
I0224 07:28:16.302440  1272 net.cpp:197] Top shape: 1 128 64 128 (1048576)
I0224 07:28:16.302444  1272 net.cpp:205] Memory required for data: 619184128
I0224 07:28:16.302448  1272 layer_factory.hpp:123] Creating layer ConvNd_45
I0224 07:28:16.302454  1272 net.cpp:140] Creating Layer ConvNd_45
I0224 07:28:16.302457  1272 net.cpp:481] ConvNd_45 <- BatchNorm_10_Threshold_10_0_split_0
I0224 07:28:16.302464  1272 net.cpp:455] ConvNd_45 -> ConvNd_45
I0224 07:28:16.302642  1272 net.cpp:190] Setting up ConvNd_45
I0224 07:28:16.302649  1272 net.cpp:197] Top shape: 1 25 64 128 (204800)
I0224 07:28:16.302654  1272 net.cpp:205] Memory required for data: 620003328
I0224 07:28:16.302659  1272 layer_factory.hpp:123] Creating layer ConvNd_45_ConvNd_45_0_split
I0224 07:28:16.302665  1272 net.cpp:140] Creating Layer ConvNd_45_ConvNd_45_0_split
I0224 07:28:16.302670  1272 net.cpp:481] ConvNd_45_ConvNd_45_0_split <- ConvNd_45
I0224 07:28:16.302675  1272 net.cpp:455] ConvNd_45_ConvNd_45_0_split -> ConvNd_45_ConvNd_45_0_split_0
I0224 07:28:16.302680  1272 net.cpp:455] ConvNd_45_ConvNd_45_0_split -> ConvNd_45_ConvNd_45_0_split_1
I0224 07:28:16.302685  1272 net.cpp:455] ConvNd_45_ConvNd_45_0_split -> ConvNd_45_ConvNd_45_0_split_2
I0224 07:28:16.302690  1272 net.cpp:455] ConvNd_45_ConvNd_45_0_split -> ConvNd_45_ConvNd_45_0_split_3
I0224 07:28:16.302695  1272 net.cpp:455] ConvNd_45_ConvNd_45_0_split -> ConvNd_45_ConvNd_45_0_split_4
I0224 07:28:16.302759  1272 net.cpp:190] Setting up ConvNd_45_ConvNd_45_0_split
I0224 07:28:16.302765  1272 net.cpp:197] Top shape: 1 25 64 128 (204800)
I0224 07:28:16.302770  1272 net.cpp:197] Top shape: 1 25 64 128 (204800)
I0224 07:28:16.302774  1272 net.cpp:197] Top shape: 1 25 64 128 (204800)
I0224 07:28:16.302778  1272 net.cpp:197] Top shape: 1 25 64 128 (204800)
I0224 07:28:16.302783  1272 net.cpp:197] Top shape: 1 25 64 128 (204800)
I0224 07:28:16.302786  1272 net.cpp:205] Memory required for data: 624099328
I0224 07:28:16.302789  1272 layer_factory.hpp:123] Creating layer ConvNd_46
I0224 07:28:16.302798  1272 net.cpp:140] Creating Layer ConvNd_46
I0224 07:28:16.302803  1272 net.cpp:481] ConvNd_46 <- ConvNd_45_ConvNd_45_0_split_0
I0224 07:28:16.302810  1272 net.cpp:455] ConvNd_46 -> ConvNd_46
I0224 07:28:16.303038  1272 net.cpp:190] Setting up ConvNd_46
I0224 07:28:16.303046  1272 net.cpp:197] Top shape: 1 28 64 128 (229376)
I0224 07:28:16.303051  1272 net.cpp:205] Memory required for data: 625016832
I0224 07:28:16.303056  1272 layer_factory.hpp:123] Creating layer ConvNd_47
I0224 07:28:16.303063  1272 net.cpp:140] Creating Layer ConvNd_47
I0224 07:28:16.303066  1272 net.cpp:481] ConvNd_47 <- ConvNd_45_ConvNd_45_0_split_1
I0224 07:28:16.303071  1272 net.cpp:455] ConvNd_47 -> ConvNd_47
I0224 07:28:16.303303  1272 net.cpp:190] Setting up ConvNd_47
I0224 07:28:16.303311  1272 net.cpp:197] Top shape: 1 25 64 128 (204800)
I0224 07:28:16.303316  1272 net.cpp:205] Memory required for data: 625836032
I0224 07:28:16.303321  1272 layer_factory.hpp:123] Creating layer ConvNd_47_ConvNd_47_0_split
I0224 07:28:16.303328  1272 net.cpp:140] Creating Layer ConvNd_47_ConvNd_47_0_split
I0224 07:28:16.303331  1272 net.cpp:481] ConvNd_47_ConvNd_47_0_split <- ConvNd_47
I0224 07:28:16.303336  1272 net.cpp:455] ConvNd_47_ConvNd_47_0_split -> ConvNd_47_ConvNd_47_0_split_0
I0224 07:28:16.303342  1272 net.cpp:455] ConvNd_47_ConvNd_47_0_split -> ConvNd_47_ConvNd_47_0_split_1
I0224 07:28:16.303369  1272 net.cpp:190] Setting up ConvNd_47_ConvNd_47_0_split
I0224 07:28:16.303377  1272 net.cpp:197] Top shape: 1 25 64 128 (204800)
I0224 07:28:16.303385  1272 net.cpp:197] Top shape: 1 25 64 128 (204800)
I0224 07:28:16.303391  1272 net.cpp:205] Memory required for data: 627474432
I0224 07:28:16.303396  1272 layer_factory.hpp:123] Creating layer ConvNd_48
I0224 07:28:16.303405  1272 net.cpp:140] Creating Layer ConvNd_48
I0224 07:28:16.303408  1272 net.cpp:481] ConvNd_48 <- ConvNd_45_ConvNd_45_0_split_2
I0224 07:28:16.303413  1272 net.cpp:455] ConvNd_48 -> ConvNd_48
I0224 07:28:16.303627  1272 net.cpp:190] Setting up ConvNd_48
I0224 07:28:16.303632  1272 net.cpp:197] Top shape: 1 25 64 128 (204800)
I0224 07:28:16.303637  1272 net.cpp:205] Memory required for data: 628293632
I0224 07:28:16.303642  1272 layer_factory.hpp:123] Creating layer Add_27
I0224 07:28:16.303647  1272 net.cpp:140] Creating Layer Add_27
I0224 07:28:16.303651  1272 net.cpp:481] Add_27 <- ConvNd_47_ConvNd_47_0_split_0
I0224 07:28:16.303655  1272 net.cpp:481] Add_27 <- ConvNd_48
I0224 07:28:16.303660  1272 net.cpp:455] Add_27 -> Add_27
I0224 07:28:16.303683  1272 net.cpp:190] Setting up Add_27
I0224 07:28:16.303690  1272 net.cpp:197] Top shape: 1 25 64 128 (204800)
I0224 07:28:16.303699  1272 net.cpp:205] Memory required for data: 629112832
I0224 07:28:16.303702  1272 layer_factory.hpp:123] Creating layer Add_27_Add_27_0_split
I0224 07:28:16.303710  1272 net.cpp:140] Creating Layer Add_27_Add_27_0_split
I0224 07:28:16.303716  1272 net.cpp:481] Add_27_Add_27_0_split <- Add_27
I0224 07:28:16.303723  1272 net.cpp:455] Add_27_Add_27_0_split -> Add_27_Add_27_0_split_0
I0224 07:28:16.303733  1272 net.cpp:455] Add_27_Add_27_0_split -> Add_27_Add_27_0_split_1
I0224 07:28:16.303776  1272 net.cpp:190] Setting up Add_27_Add_27_0_split
I0224 07:28:16.303784  1272 net.cpp:197] Top shape: 1 25 64 128 (204800)
I0224 07:28:16.303789  1272 net.cpp:197] Top shape: 1 25 64 128 (204800)
I0224 07:28:16.303793  1272 net.cpp:205] Memory required for data: 630751232
I0224 07:28:16.303797  1272 layer_factory.hpp:123] Creating layer ConvNd_49
I0224 07:28:16.303805  1272 net.cpp:140] Creating Layer ConvNd_49
I0224 07:28:16.303810  1272 net.cpp:481] ConvNd_49 <- ConvNd_45_ConvNd_45_0_split_3
I0224 07:28:16.303815  1272 net.cpp:455] ConvNd_49 -> ConvNd_49
I0224 07:28:16.304046  1272 net.cpp:190] Setting up ConvNd_49
I0224 07:28:16.304054  1272 net.cpp:197] Top shape: 1 25 64 128 (204800)
I0224 07:28:16.304059  1272 net.cpp:205] Memory required for data: 631570432
I0224 07:28:16.304064  1272 layer_factory.hpp:123] Creating layer Add_28
I0224 07:28:16.304069  1272 net.cpp:140] Creating Layer Add_28
I0224 07:28:16.304073  1272 net.cpp:481] Add_28 <- Add_27_Add_27_0_split_0
I0224 07:28:16.304077  1272 net.cpp:481] Add_28 <- ConvNd_49
I0224 07:28:16.304082  1272 net.cpp:455] Add_28 -> Add_28
I0224 07:28:16.304100  1272 net.cpp:190] Setting up Add_28
I0224 07:28:16.304105  1272 net.cpp:197] Top shape: 1 25 64 128 (204800)
I0224 07:28:16.304108  1272 net.cpp:205] Memory required for data: 632389632
I0224 07:28:16.304112  1272 layer_factory.hpp:123] Creating layer Add_28_Add_28_0_split
I0224 07:28:16.304116  1272 net.cpp:140] Creating Layer Add_28_Add_28_0_split
I0224 07:28:16.304122  1272 net.cpp:481] Add_28_Add_28_0_split <- Add_28
I0224 07:28:16.304129  1272 net.cpp:455] Add_28_Add_28_0_split -> Add_28_Add_28_0_split_0
I0224 07:28:16.304137  1272 net.cpp:455] Add_28_Add_28_0_split -> Add_28_Add_28_0_split_1
I0224 07:28:16.304175  1272 net.cpp:190] Setting up Add_28_Add_28_0_split
I0224 07:28:16.304181  1272 net.cpp:197] Top shape: 1 25 64 128 (204800)
I0224 07:28:16.304186  1272 net.cpp:197] Top shape: 1 25 64 128 (204800)
I0224 07:28:16.304190  1272 net.cpp:205] Memory required for data: 634028032
I0224 07:28:16.304193  1272 layer_factory.hpp:123] Creating layer ConvNd_50
I0224 07:28:16.304200  1272 net.cpp:140] Creating Layer ConvNd_50
I0224 07:28:16.304204  1272 net.cpp:481] ConvNd_50 <- ConvNd_45_ConvNd_45_0_split_4
I0224 07:28:16.304209  1272 net.cpp:455] ConvNd_50 -> ConvNd_50
I0224 07:28:16.304414  1272 net.cpp:190] Setting up ConvNd_50
I0224 07:28:16.304420  1272 net.cpp:197] Top shape: 1 25 64 128 (204800)
I0224 07:28:16.304425  1272 net.cpp:205] Memory required for data: 634847232
I0224 07:28:16.304430  1272 layer_factory.hpp:123] Creating layer Add_29
I0224 07:28:16.304435  1272 net.cpp:140] Creating Layer Add_29
I0224 07:28:16.304438  1272 net.cpp:481] Add_29 <- Add_28_Add_28_0_split_0
I0224 07:28:16.304442  1272 net.cpp:481] Add_29 <- ConvNd_50
I0224 07:28:16.304446  1272 net.cpp:455] Add_29 -> Add_29
I0224 07:28:16.304466  1272 net.cpp:190] Setting up Add_29
I0224 07:28:16.304468  1272 net.cpp:197] Top shape: 1 25 64 128 (204800)
I0224 07:28:16.304473  1272 net.cpp:205] Memory required for data: 635666432
I0224 07:28:16.304476  1272 layer_factory.hpp:123] Creating layer Concat_10
I0224 07:28:16.304481  1272 net.cpp:140] Creating Layer Concat_10
I0224 07:28:16.304484  1272 net.cpp:481] Concat_10 <- ConvNd_46
I0224 07:28:16.304488  1272 net.cpp:481] Concat_10 <- ConvNd_47_ConvNd_47_0_split_1
I0224 07:28:16.304492  1272 net.cpp:481] Concat_10 <- Add_27_Add_27_0_split_1
I0224 07:28:16.304495  1272 net.cpp:481] Concat_10 <- Add_28_Add_28_0_split_1
I0224 07:28:16.304499  1272 net.cpp:481] Concat_10 <- Add_29
I0224 07:28:16.304503  1272 net.cpp:455] Concat_10 -> Concat_10
I0224 07:28:16.304527  1272 net.cpp:190] Setting up Concat_10
I0224 07:28:16.304535  1272 net.cpp:197] Top shape: 1 128 64 128 (1048576)
I0224 07:28:16.304543  1272 net.cpp:205] Memory required for data: 639860736
I0224 07:28:16.304548  1272 layer_factory.hpp:123] Creating layer Add_30
I0224 07:28:16.304553  1272 net.cpp:140] Creating Layer Add_30
I0224 07:28:16.304556  1272 net.cpp:481] Add_30 <- BatchNorm_10_Threshold_10_0_split_1
I0224 07:28:16.304560  1272 net.cpp:481] Add_30 <- Concat_10
I0224 07:28:16.304564  1272 net.cpp:455] Add_30 -> Add_30
I0224 07:28:16.304582  1272 net.cpp:190] Setting up Add_30
I0224 07:28:16.304587  1272 net.cpp:197] Top shape: 1 128 64 128 (1048576)
I0224 07:28:16.304594  1272 net.cpp:205] Memory required for data: 644055040
I0224 07:28:16.304600  1272 layer_factory.hpp:123] Creating layer BatchNorm_11
I0224 07:28:16.304610  1272 net.cpp:140] Creating Layer BatchNorm_11
I0224 07:28:16.304615  1272 net.cpp:481] BatchNorm_11 <- Add_30
I0224 07:28:16.304623  1272 net.cpp:455] BatchNorm_11 -> BatchNorm_11
I0224 07:28:16.305100  1272 net.cpp:190] Setting up BatchNorm_11
I0224 07:28:16.305109  1272 net.cpp:197] Top shape: 1 128 64 128 (1048576)
I0224 07:28:16.305114  1272 net.cpp:205] Memory required for data: 648249344
I0224 07:28:16.305121  1272 layer_factory.hpp:123] Creating layer Threshold_11
I0224 07:28:16.305126  1272 net.cpp:140] Creating Layer Threshold_11
I0224 07:28:16.305130  1272 net.cpp:481] Threshold_11 <- BatchNorm_11
I0224 07:28:16.305135  1272 net.cpp:442] Threshold_11 -> BatchNorm_11 (in-place)
I0224 07:28:16.305140  1272 net.cpp:190] Setting up Threshold_11
I0224 07:28:16.305143  1272 net.cpp:197] Top shape: 1 128 64 128 (1048576)
I0224 07:28:16.305148  1272 net.cpp:205] Memory required for data: 652443648
I0224 07:28:16.305151  1272 layer_factory.hpp:123] Creating layer BatchNorm_11_Threshold_11_0_split
I0224 07:28:16.305156  1272 net.cpp:140] Creating Layer BatchNorm_11_Threshold_11_0_split
I0224 07:28:16.305160  1272 net.cpp:481] BatchNorm_11_Threshold_11_0_split <- BatchNorm_11
I0224 07:28:16.305163  1272 net.cpp:455] BatchNorm_11_Threshold_11_0_split -> BatchNorm_11_Threshold_11_0_split_0
I0224 07:28:16.305169  1272 net.cpp:455] BatchNorm_11_Threshold_11_0_split -> BatchNorm_11_Threshold_11_0_split_1
I0224 07:28:16.305198  1272 net.cpp:190] Setting up BatchNorm_11_Threshold_11_0_split
I0224 07:28:16.305207  1272 net.cpp:197] Top shape: 1 128 64 128 (1048576)
I0224 07:28:16.305214  1272 net.cpp:197] Top shape: 1 128 64 128 (1048576)
I0224 07:28:16.305220  1272 net.cpp:205] Memory required for data: 660832256
I0224 07:28:16.305224  1272 layer_factory.hpp:123] Creating layer ConvNd_51
I0224 07:28:16.305231  1272 net.cpp:140] Creating Layer ConvNd_51
I0224 07:28:16.305235  1272 net.cpp:481] ConvNd_51 <- BatchNorm_11_Threshold_11_0_split_0
I0224 07:28:16.305240  1272 net.cpp:455] ConvNd_51 -> ConvNd_51
I0224 07:28:16.305440  1272 net.cpp:190] Setting up ConvNd_51
I0224 07:28:16.305449  1272 net.cpp:197] Top shape: 1 25 64 128 (204800)
I0224 07:28:16.305454  1272 net.cpp:205] Memory required for data: 661651456
I0224 07:28:16.305459  1272 layer_factory.hpp:123] Creating layer ConvNd_51_ConvNd_51_0_split
I0224 07:28:16.305464  1272 net.cpp:140] Creating Layer ConvNd_51_ConvNd_51_0_split
I0224 07:28:16.305469  1272 net.cpp:481] ConvNd_51_ConvNd_51_0_split <- ConvNd_51
I0224 07:28:16.305474  1272 net.cpp:455] ConvNd_51_ConvNd_51_0_split -> ConvNd_51_ConvNd_51_0_split_0
I0224 07:28:16.305480  1272 net.cpp:455] ConvNd_51_ConvNd_51_0_split -> ConvNd_51_ConvNd_51_0_split_1
I0224 07:28:16.305486  1272 net.cpp:455] ConvNd_51_ConvNd_51_0_split -> ConvNd_51_ConvNd_51_0_split_2
I0224 07:28:16.305491  1272 net.cpp:455] ConvNd_51_ConvNd_51_0_split -> ConvNd_51_ConvNd_51_0_split_3
I0224 07:28:16.305495  1272 net.cpp:455] ConvNd_51_ConvNd_51_0_split -> ConvNd_51_ConvNd_51_0_split_4
I0224 07:28:16.305564  1272 net.cpp:190] Setting up ConvNd_51_ConvNd_51_0_split
I0224 07:28:16.305572  1272 net.cpp:197] Top shape: 1 25 64 128 (204800)
I0224 07:28:16.305577  1272 net.cpp:197] Top shape: 1 25 64 128 (204800)
I0224 07:28:16.305580  1272 net.cpp:197] Top shape: 1 25 64 128 (204800)
I0224 07:28:16.305584  1272 net.cpp:197] Top shape: 1 25 64 128 (204800)
I0224 07:28:16.305588  1272 net.cpp:197] Top shape: 1 25 64 128 (204800)
I0224 07:28:16.305593  1272 net.cpp:205] Memory required for data: 665747456
I0224 07:28:16.305595  1272 layer_factory.hpp:123] Creating layer ConvNd_52
I0224 07:28:16.305603  1272 net.cpp:140] Creating Layer ConvNd_52
I0224 07:28:16.305606  1272 net.cpp:481] ConvNd_52 <- ConvNd_51_ConvNd_51_0_split_0
I0224 07:28:16.305613  1272 net.cpp:455] ConvNd_52 -> ConvNd_52
I0224 07:28:16.305860  1272 net.cpp:190] Setting up ConvNd_52
I0224 07:28:16.305867  1272 net.cpp:197] Top shape: 1 28 64 128 (229376)
I0224 07:28:16.305872  1272 net.cpp:205] Memory required for data: 666664960
I0224 07:28:16.305877  1272 layer_factory.hpp:123] Creating layer ConvNd_53
I0224 07:28:16.305884  1272 net.cpp:140] Creating Layer ConvNd_53
I0224 07:28:16.305888  1272 net.cpp:481] ConvNd_53 <- ConvNd_51_ConvNd_51_0_split_1
I0224 07:28:16.305893  1272 net.cpp:455] ConvNd_53 -> ConvNd_53
I0224 07:28:16.306766  1272 net.cpp:190] Setting up ConvNd_53
I0224 07:28:16.306776  1272 net.cpp:197] Top shape: 1 25 64 128 (204800)
I0224 07:28:16.306782  1272 net.cpp:205] Memory required for data: 667484160
I0224 07:28:16.306787  1272 layer_factory.hpp:123] Creating layer ConvNd_53_ConvNd_53_0_split
I0224 07:28:16.306793  1272 net.cpp:140] Creating Layer ConvNd_53_ConvNd_53_0_split
I0224 07:28:16.306797  1272 net.cpp:481] ConvNd_53_ConvNd_53_0_split <- ConvNd_53
I0224 07:28:16.306802  1272 net.cpp:455] ConvNd_53_ConvNd_53_0_split -> ConvNd_53_ConvNd_53_0_split_0
I0224 07:28:16.306809  1272 net.cpp:455] ConvNd_53_ConvNd_53_0_split -> ConvNd_53_ConvNd_53_0_split_1
I0224 07:28:16.306838  1272 net.cpp:190] Setting up ConvNd_53_ConvNd_53_0_split
I0224 07:28:16.306843  1272 net.cpp:197] Top shape: 1 25 64 128 (204800)
I0224 07:28:16.306849  1272 net.cpp:197] Top shape: 1 25 64 128 (204800)
I0224 07:28:16.306852  1272 net.cpp:205] Memory required for data: 669122560
I0224 07:28:16.306855  1272 layer_factory.hpp:123] Creating layer ConvNd_54
I0224 07:28:16.306864  1272 net.cpp:140] Creating Layer ConvNd_54
I0224 07:28:16.306867  1272 net.cpp:481] ConvNd_54 <- ConvNd_51_ConvNd_51_0_split_2
I0224 07:28:16.306871  1272 net.cpp:455] ConvNd_54 -> ConvNd_54
I0224 07:28:16.307112  1272 net.cpp:190] Setting up ConvNd_54
I0224 07:28:16.307121  1272 net.cpp:197] Top shape: 1 25 64 128 (204800)
I0224 07:28:16.307126  1272 net.cpp:205] Memory required for data: 669941760
I0224 07:28:16.307130  1272 layer_factory.hpp:123] Creating layer Add_31
I0224 07:28:16.307135  1272 net.cpp:140] Creating Layer Add_31
I0224 07:28:16.307139  1272 net.cpp:481] Add_31 <- ConvNd_53_ConvNd_53_0_split_0
I0224 07:28:16.307144  1272 net.cpp:481] Add_31 <- ConvNd_54
I0224 07:28:16.307149  1272 net.cpp:455] Add_31 -> Add_31
I0224 07:28:16.307168  1272 net.cpp:190] Setting up Add_31
I0224 07:28:16.307173  1272 net.cpp:197] Top shape: 1 25 64 128 (204800)
I0224 07:28:16.307178  1272 net.cpp:205] Memory required for data: 670760960
I0224 07:28:16.307181  1272 layer_factory.hpp:123] Creating layer Add_31_Add_31_0_split
I0224 07:28:16.307186  1272 net.cpp:140] Creating Layer Add_31_Add_31_0_split
I0224 07:28:16.307190  1272 net.cpp:481] Add_31_Add_31_0_split <- Add_31
I0224 07:28:16.307199  1272 net.cpp:455] Add_31_Add_31_0_split -> Add_31_Add_31_0_split_0
I0224 07:28:16.307206  1272 net.cpp:455] Add_31_Add_31_0_split -> Add_31_Add_31_0_split_1
I0224 07:28:16.307247  1272 net.cpp:190] Setting up Add_31_Add_31_0_split
I0224 07:28:16.307253  1272 net.cpp:197] Top shape: 1 25 64 128 (204800)
I0224 07:28:16.307258  1272 net.cpp:197] Top shape: 1 25 64 128 (204800)
I0224 07:28:16.307262  1272 net.cpp:205] Memory required for data: 672399360
I0224 07:28:16.307265  1272 layer_factory.hpp:123] Creating layer ConvNd_55
I0224 07:28:16.307272  1272 net.cpp:140] Creating Layer ConvNd_55
I0224 07:28:16.307276  1272 net.cpp:481] ConvNd_55 <- ConvNd_51_ConvNd_51_0_split_3
I0224 07:28:16.307281  1272 net.cpp:455] ConvNd_55 -> ConvNd_55
I0224 07:28:16.307513  1272 net.cpp:190] Setting up ConvNd_55
I0224 07:28:16.307521  1272 net.cpp:197] Top shape: 1 25 64 128 (204800)
I0224 07:28:16.307526  1272 net.cpp:205] Memory required for data: 673218560
I0224 07:28:16.307531  1272 layer_factory.hpp:123] Creating layer Add_32
I0224 07:28:16.307536  1272 net.cpp:140] Creating Layer Add_32
I0224 07:28:16.307540  1272 net.cpp:481] Add_32 <- Add_31_Add_31_0_split_0
I0224 07:28:16.307545  1272 net.cpp:481] Add_32 <- ConvNd_55
I0224 07:28:16.307549  1272 net.cpp:455] Add_32 -> Add_32
I0224 07:28:16.307569  1272 net.cpp:190] Setting up Add_32
I0224 07:28:16.307571  1272 net.cpp:197] Top shape: 1 25 64 128 (204800)
I0224 07:28:16.307576  1272 net.cpp:205] Memory required for data: 674037760
I0224 07:28:16.307579  1272 layer_factory.hpp:123] Creating layer Add_32_Add_32_0_split
I0224 07:28:16.307584  1272 net.cpp:140] Creating Layer Add_32_Add_32_0_split
I0224 07:28:16.307587  1272 net.cpp:481] Add_32_Add_32_0_split <- Add_32
I0224 07:28:16.307591  1272 net.cpp:455] Add_32_Add_32_0_split -> Add_32_Add_32_0_split_0
I0224 07:28:16.307597  1272 net.cpp:455] Add_32_Add_32_0_split -> Add_32_Add_32_0_split_1
I0224 07:28:16.307622  1272 net.cpp:190] Setting up Add_32_Add_32_0_split
I0224 07:28:16.307628  1272 net.cpp:197] Top shape: 1 25 64 128 (204800)
I0224 07:28:16.307632  1272 net.cpp:197] Top shape: 1 25 64 128 (204800)
I0224 07:28:16.307636  1272 net.cpp:205] Memory required for data: 675676160
I0224 07:28:16.307641  1272 layer_factory.hpp:123] Creating layer ConvNd_56
I0224 07:28:16.307651  1272 net.cpp:140] Creating Layer ConvNd_56
I0224 07:28:16.307655  1272 net.cpp:481] ConvNd_56 <- ConvNd_51_ConvNd_51_0_split_4
I0224 07:28:16.307662  1272 net.cpp:455] ConvNd_56 -> ConvNd_56
I0224 07:28:16.307888  1272 net.cpp:190] Setting up ConvNd_56
I0224 07:28:16.307896  1272 net.cpp:197] Top shape: 1 25 64 128 (204800)
I0224 07:28:16.307901  1272 net.cpp:205] Memory required for data: 676495360
I0224 07:28:16.307906  1272 layer_factory.hpp:123] Creating layer Add_33
I0224 07:28:16.307911  1272 net.cpp:140] Creating Layer Add_33
I0224 07:28:16.307915  1272 net.cpp:481] Add_33 <- Add_32_Add_32_0_split_0
I0224 07:28:16.307919  1272 net.cpp:481] Add_33 <- ConvNd_56
I0224 07:28:16.307924  1272 net.cpp:455] Add_33 -> Add_33
I0224 07:28:16.307942  1272 net.cpp:190] Setting up Add_33
I0224 07:28:16.307950  1272 net.cpp:197] Top shape: 1 25 64 128 (204800)
I0224 07:28:16.307955  1272 net.cpp:205] Memory required for data: 677314560
I0224 07:28:16.307957  1272 layer_factory.hpp:123] Creating layer Concat_11
I0224 07:28:16.307962  1272 net.cpp:140] Creating Layer Concat_11
I0224 07:28:16.307966  1272 net.cpp:481] Concat_11 <- ConvNd_52
I0224 07:28:16.307971  1272 net.cpp:481] Concat_11 <- ConvNd_53_ConvNd_53_0_split_1
I0224 07:28:16.307976  1272 net.cpp:481] Concat_11 <- Add_31_Add_31_0_split_1
I0224 07:28:16.307981  1272 net.cpp:481] Concat_11 <- Add_32_Add_32_0_split_1
I0224 07:28:16.307986  1272 net.cpp:481] Concat_11 <- Add_33
I0224 07:28:16.307992  1272 net.cpp:455] Concat_11 -> Concat_11
I0224 07:28:16.308022  1272 net.cpp:190] Setting up Concat_11
I0224 07:28:16.308032  1272 net.cpp:197] Top shape: 1 128 64 128 (1048576)
I0224 07:28:16.308038  1272 net.cpp:205] Memory required for data: 681508864
I0224 07:28:16.308044  1272 layer_factory.hpp:123] Creating layer Add_34
I0224 07:28:16.308053  1272 net.cpp:140] Creating Layer Add_34
I0224 07:28:16.308058  1272 net.cpp:481] Add_34 <- BatchNorm_11_Threshold_11_0_split_1
I0224 07:28:16.308064  1272 net.cpp:481] Add_34 <- Concat_11
I0224 07:28:16.308073  1272 net.cpp:455] Add_34 -> Add_34
I0224 07:28:16.308099  1272 net.cpp:190] Setting up Add_34
I0224 07:28:16.308104  1272 net.cpp:197] Top shape: 1 128 64 128 (1048576)
I0224 07:28:16.308109  1272 net.cpp:205] Memory required for data: 685703168
I0224 07:28:16.308112  1272 layer_factory.hpp:123] Creating layer BatchNorm_12
I0224 07:28:16.308118  1272 net.cpp:140] Creating Layer BatchNorm_12
I0224 07:28:16.308122  1272 net.cpp:481] BatchNorm_12 <- Add_34
I0224 07:28:16.308127  1272 net.cpp:455] BatchNorm_12 -> BatchNorm_12
I0224 07:28:16.308604  1272 net.cpp:190] Setting up BatchNorm_12
I0224 07:28:16.308612  1272 net.cpp:197] Top shape: 1 128 64 128 (1048576)
I0224 07:28:16.308619  1272 net.cpp:205] Memory required for data: 689897472
I0224 07:28:16.308626  1272 layer_factory.hpp:123] Creating layer Threshold_12
I0224 07:28:16.308631  1272 net.cpp:140] Creating Layer Threshold_12
I0224 07:28:16.308635  1272 net.cpp:481] Threshold_12 <- BatchNorm_12
I0224 07:28:16.308640  1272 net.cpp:442] Threshold_12 -> BatchNorm_12 (in-place)
I0224 07:28:16.308645  1272 net.cpp:190] Setting up Threshold_12
I0224 07:28:16.308648  1272 net.cpp:197] Top shape: 1 128 64 128 (1048576)
I0224 07:28:16.308653  1272 net.cpp:205] Memory required for data: 694091776
I0224 07:28:16.308658  1272 layer_factory.hpp:123] Creating layer BatchNorm_12_Threshold_12_0_split
I0224 07:28:16.308665  1272 net.cpp:140] Creating Layer BatchNorm_12_Threshold_12_0_split
I0224 07:28:16.308670  1272 net.cpp:481] BatchNorm_12_Threshold_12_0_split <- BatchNorm_12
I0224 07:28:16.308677  1272 net.cpp:455] BatchNorm_12_Threshold_12_0_split -> BatchNorm_12_Threshold_12_0_split_0
I0224 07:28:16.308686  1272 net.cpp:455] BatchNorm_12_Threshold_12_0_split -> BatchNorm_12_Threshold_12_0_split_1
I0224 07:28:16.308729  1272 net.cpp:190] Setting up BatchNorm_12_Threshold_12_0_split
I0224 07:28:16.308738  1272 net.cpp:197] Top shape: 1 128 64 128 (1048576)
I0224 07:28:16.308746  1272 net.cpp:197] Top shape: 1 128 64 128 (1048576)
I0224 07:28:16.308753  1272 net.cpp:205] Memory required for data: 702480384
I0224 07:28:16.308759  1272 layer_factory.hpp:123] Creating layer ConvNd_57
I0224 07:28:16.308770  1272 net.cpp:140] Creating Layer ConvNd_57
I0224 07:28:16.308775  1272 net.cpp:481] ConvNd_57 <- BatchNorm_12_Threshold_12_0_split_0
I0224 07:28:16.308780  1272 net.cpp:455] ConvNd_57 -> ConvNd_57
I0224 07:28:16.308984  1272 net.cpp:190] Setting up ConvNd_57
I0224 07:28:16.308991  1272 net.cpp:197] Top shape: 1 25 64 128 (204800)
I0224 07:28:16.308996  1272 net.cpp:205] Memory required for data: 703299584
I0224 07:28:16.309001  1272 layer_factory.hpp:123] Creating layer ConvNd_57_ConvNd_57_0_split
I0224 07:28:16.309008  1272 net.cpp:140] Creating Layer ConvNd_57_ConvNd_57_0_split
I0224 07:28:16.309012  1272 net.cpp:481] ConvNd_57_ConvNd_57_0_split <- ConvNd_57
I0224 07:28:16.309017  1272 net.cpp:455] ConvNd_57_ConvNd_57_0_split -> ConvNd_57_ConvNd_57_0_split_0
I0224 07:28:16.309024  1272 net.cpp:455] ConvNd_57_ConvNd_57_0_split -> ConvNd_57_ConvNd_57_0_split_1
I0224 07:28:16.309029  1272 net.cpp:455] ConvNd_57_ConvNd_57_0_split -> ConvNd_57_ConvNd_57_0_split_2
I0224 07:28:16.309034  1272 net.cpp:455] ConvNd_57_ConvNd_57_0_split -> ConvNd_57_ConvNd_57_0_split_3
I0224 07:28:16.309039  1272 net.cpp:455] ConvNd_57_ConvNd_57_0_split -> ConvNd_57_ConvNd_57_0_split_4
I0224 07:28:16.309103  1272 net.cpp:190] Setting up ConvNd_57_ConvNd_57_0_split
I0224 07:28:16.309110  1272 net.cpp:197] Top shape: 1 25 64 128 (204800)
I0224 07:28:16.309115  1272 net.cpp:197] Top shape: 1 25 64 128 (204800)
I0224 07:28:16.309119  1272 net.cpp:197] Top shape: 1 25 64 128 (204800)
I0224 07:28:16.309123  1272 net.cpp:197] Top shape: 1 25 64 128 (204800)
I0224 07:28:16.309128  1272 net.cpp:197] Top shape: 1 25 64 128 (204800)
I0224 07:28:16.309131  1272 net.cpp:205] Memory required for data: 707395584
I0224 07:28:16.309134  1272 layer_factory.hpp:123] Creating layer ConvNd_58
I0224 07:28:16.309141  1272 net.cpp:140] Creating Layer ConvNd_58
I0224 07:28:16.309145  1272 net.cpp:481] ConvNd_58 <- ConvNd_57_ConvNd_57_0_split_0
I0224 07:28:16.309152  1272 net.cpp:455] ConvNd_58 -> ConvNd_58
I0224 07:28:16.309413  1272 net.cpp:190] Setting up ConvNd_58
I0224 07:28:16.309422  1272 net.cpp:197] Top shape: 1 28 64 128 (229376)
I0224 07:28:16.309428  1272 net.cpp:205] Memory required for data: 708313088
I0224 07:28:16.309433  1272 layer_factory.hpp:123] Creating layer ConvNd_59
I0224 07:28:16.309440  1272 net.cpp:140] Creating Layer ConvNd_59
I0224 07:28:16.309444  1272 net.cpp:481] ConvNd_59 <- ConvNd_57_ConvNd_57_0_split_1
I0224 07:28:16.309449  1272 net.cpp:455] ConvNd_59 -> ConvNd_59
I0224 07:28:16.309670  1272 net.cpp:190] Setting up ConvNd_59
I0224 07:28:16.309679  1272 net.cpp:197] Top shape: 1 25 64 128 (204800)
I0224 07:28:16.309684  1272 net.cpp:205] Memory required for data: 709132288
I0224 07:28:16.309689  1272 layer_factory.hpp:123] Creating layer ConvNd_59_ConvNd_59_0_split
I0224 07:28:16.309693  1272 net.cpp:140] Creating Layer ConvNd_59_ConvNd_59_0_split
I0224 07:28:16.309697  1272 net.cpp:481] ConvNd_59_ConvNd_59_0_split <- ConvNd_59
I0224 07:28:16.309702  1272 net.cpp:455] ConvNd_59_ConvNd_59_0_split -> ConvNd_59_ConvNd_59_0_split_0
I0224 07:28:16.309708  1272 net.cpp:455] ConvNd_59_ConvNd_59_0_split -> ConvNd_59_ConvNd_59_0_split_1
I0224 07:28:16.309736  1272 net.cpp:190] Setting up ConvNd_59_ConvNd_59_0_split
I0224 07:28:16.309742  1272 net.cpp:197] Top shape: 1 25 64 128 (204800)
I0224 07:28:16.309746  1272 net.cpp:197] Top shape: 1 25 64 128 (204800)
I0224 07:28:16.309751  1272 net.cpp:205] Memory required for data: 710770688
I0224 07:28:16.309754  1272 layer_factory.hpp:123] Creating layer ConvNd_60
I0224 07:28:16.309762  1272 net.cpp:140] Creating Layer ConvNd_60
I0224 07:28:16.309767  1272 net.cpp:481] ConvNd_60 <- ConvNd_57_ConvNd_57_0_split_2
I0224 07:28:16.309774  1272 net.cpp:455] ConvNd_60 -> ConvNd_60
I0224 07:28:16.309996  1272 net.cpp:190] Setting up ConvNd_60
I0224 07:28:16.310003  1272 net.cpp:197] Top shape: 1 25 64 128 (204800)
I0224 07:28:16.310009  1272 net.cpp:205] Memory required for data: 711589888
I0224 07:28:16.310014  1272 layer_factory.hpp:123] Creating layer Add_35
I0224 07:28:16.310019  1272 net.cpp:140] Creating Layer Add_35
I0224 07:28:16.310022  1272 net.cpp:481] Add_35 <- ConvNd_59_ConvNd_59_0_split_0
I0224 07:28:16.310027  1272 net.cpp:481] Add_35 <- ConvNd_60
I0224 07:28:16.310031  1272 net.cpp:455] Add_35 -> Add_35
I0224 07:28:16.310050  1272 net.cpp:190] Setting up Add_35
I0224 07:28:16.310055  1272 net.cpp:197] Top shape: 1 25 64 128 (204800)
I0224 07:28:16.310058  1272 net.cpp:205] Memory required for data: 712409088
I0224 07:28:16.310061  1272 layer_factory.hpp:123] Creating layer Add_35_Add_35_0_split
I0224 07:28:16.310066  1272 net.cpp:140] Creating Layer Add_35_Add_35_0_split
I0224 07:28:16.310070  1272 net.cpp:481] Add_35_Add_35_0_split <- Add_35
I0224 07:28:16.310076  1272 net.cpp:455] Add_35_Add_35_0_split -> Add_35_Add_35_0_split_0
I0224 07:28:16.310084  1272 net.cpp:455] Add_35_Add_35_0_split -> Add_35_Add_35_0_split_1
I0224 07:28:16.310123  1272 net.cpp:190] Setting up Add_35_Add_35_0_split
I0224 07:28:16.310132  1272 net.cpp:197] Top shape: 1 25 64 128 (204800)
I0224 07:28:16.310139  1272 net.cpp:197] Top shape: 1 25 64 128 (204800)
I0224 07:28:16.310143  1272 net.cpp:205] Memory required for data: 714047488
I0224 07:28:16.310147  1272 layer_factory.hpp:123] Creating layer ConvNd_61
I0224 07:28:16.310153  1272 net.cpp:140] Creating Layer ConvNd_61
I0224 07:28:16.310158  1272 net.cpp:481] ConvNd_61 <- ConvNd_57_ConvNd_57_0_split_3
I0224 07:28:16.310163  1272 net.cpp:455] ConvNd_61 -> ConvNd_61
I0224 07:28:16.310389  1272 net.cpp:190] Setting up ConvNd_61
I0224 07:28:16.310397  1272 net.cpp:197] Top shape: 1 25 64 128 (204800)
I0224 07:28:16.310402  1272 net.cpp:205] Memory required for data: 714866688
I0224 07:28:16.310407  1272 layer_factory.hpp:123] Creating layer Add_36
I0224 07:28:16.310412  1272 net.cpp:140] Creating Layer Add_36
I0224 07:28:16.310416  1272 net.cpp:481] Add_36 <- Add_35_Add_35_0_split_0
I0224 07:28:16.310420  1272 net.cpp:481] Add_36 <- ConvNd_61
I0224 07:28:16.310425  1272 net.cpp:455] Add_36 -> Add_36
I0224 07:28:16.310446  1272 net.cpp:190] Setting up Add_36
I0224 07:28:16.310456  1272 net.cpp:197] Top shape: 1 25 64 128 (204800)
I0224 07:28:16.310462  1272 net.cpp:205] Memory required for data: 715685888
I0224 07:28:16.310467  1272 layer_factory.hpp:123] Creating layer Add_36_Add_36_0_split
I0224 07:28:16.310475  1272 net.cpp:140] Creating Layer Add_36_Add_36_0_split
I0224 07:28:16.310482  1272 net.cpp:481] Add_36_Add_36_0_split <- Add_36
I0224 07:28:16.310489  1272 net.cpp:455] Add_36_Add_36_0_split -> Add_36_Add_36_0_split_0
I0224 07:28:16.310499  1272 net.cpp:455] Add_36_Add_36_0_split -> Add_36_Add_36_0_split_1
I0224 07:28:16.310540  1272 net.cpp:190] Setting up Add_36_Add_36_0_split
I0224 07:28:16.310549  1272 net.cpp:197] Top shape: 1 25 64 128 (204800)
I0224 07:28:16.310556  1272 net.cpp:197] Top shape: 1 25 64 128 (204800)
I0224 07:28:16.310564  1272 net.cpp:205] Memory required for data: 717324288
I0224 07:28:16.310570  1272 layer_factory.hpp:123] Creating layer ConvNd_62
I0224 07:28:16.310580  1272 net.cpp:140] Creating Layer ConvNd_62
I0224 07:28:16.310583  1272 net.cpp:481] ConvNd_62 <- ConvNd_57_ConvNd_57_0_split_4
I0224 07:28:16.310591  1272 net.cpp:455] ConvNd_62 -> ConvNd_62
I0224 07:28:16.310827  1272 net.cpp:190] Setting up ConvNd_62
I0224 07:28:16.310834  1272 net.cpp:197] Top shape: 1 25 64 128 (204800)
I0224 07:28:16.310839  1272 net.cpp:205] Memory required for data: 718143488
I0224 07:28:16.310845  1272 layer_factory.hpp:123] Creating layer Add_37
I0224 07:28:16.310850  1272 net.cpp:140] Creating Layer Add_37
I0224 07:28:16.310854  1272 net.cpp:481] Add_37 <- Add_36_Add_36_0_split_0
I0224 07:28:16.310858  1272 net.cpp:481] Add_37 <- ConvNd_62
I0224 07:28:16.310863  1272 net.cpp:455] Add_37 -> Add_37
I0224 07:28:16.310881  1272 net.cpp:190] Setting up Add_37
I0224 07:28:16.310891  1272 net.cpp:197] Top shape: 1 25 64 128 (204800)
I0224 07:28:16.310895  1272 net.cpp:205] Memory required for data: 718962688
I0224 07:28:16.310899  1272 layer_factory.hpp:123] Creating layer Concat_12
I0224 07:28:16.310905  1272 net.cpp:140] Creating Layer Concat_12
I0224 07:28:16.310910  1272 net.cpp:481] Concat_12 <- ConvNd_58
I0224 07:28:16.310916  1272 net.cpp:481] Concat_12 <- ConvNd_59_ConvNd_59_0_split_1
I0224 07:28:16.310920  1272 net.cpp:481] Concat_12 <- Add_35_Add_35_0_split_1
I0224 07:28:16.310923  1272 net.cpp:481] Concat_12 <- Add_36_Add_36_0_split_1
I0224 07:28:16.310927  1272 net.cpp:481] Concat_12 <- Add_37
I0224 07:28:16.310932  1272 net.cpp:455] Concat_12 -> Concat_12
I0224 07:28:16.310951  1272 net.cpp:190] Setting up Concat_12
I0224 07:28:16.310956  1272 net.cpp:197] Top shape: 1 128 64 128 (1048576)
I0224 07:28:16.310961  1272 net.cpp:205] Memory required for data: 723156992
I0224 07:28:16.310966  1272 layer_factory.hpp:123] Creating layer Add_38
I0224 07:28:16.310973  1272 net.cpp:140] Creating Layer Add_38
I0224 07:28:16.310978  1272 net.cpp:481] Add_38 <- BatchNorm_12_Threshold_12_0_split_1
I0224 07:28:16.310986  1272 net.cpp:481] Add_38 <- Concat_12
I0224 07:28:16.310992  1272 net.cpp:455] Add_38 -> Add_38
I0224 07:28:16.311012  1272 net.cpp:190] Setting up Add_38
I0224 07:28:16.311017  1272 net.cpp:197] Top shape: 1 128 64 128 (1048576)
I0224 07:28:16.311022  1272 net.cpp:205] Memory required for data: 727351296
I0224 07:28:16.311025  1272 layer_factory.hpp:123] Creating layer BatchNorm_13
I0224 07:28:16.311033  1272 net.cpp:140] Creating Layer BatchNorm_13
I0224 07:28:16.311036  1272 net.cpp:481] BatchNorm_13 <- Add_38
I0224 07:28:16.311043  1272 net.cpp:455] BatchNorm_13 -> BatchNorm_13
I0224 07:28:16.311520  1272 net.cpp:190] Setting up BatchNorm_13
I0224 07:28:16.311529  1272 net.cpp:197] Top shape: 1 128 64 128 (1048576)
I0224 07:28:16.311534  1272 net.cpp:205] Memory required for data: 731545600
I0224 07:28:16.311542  1272 layer_factory.hpp:123] Creating layer Threshold_13
I0224 07:28:16.311548  1272 net.cpp:140] Creating Layer Threshold_13
I0224 07:28:16.311553  1272 net.cpp:481] Threshold_13 <- BatchNorm_13
I0224 07:28:16.311556  1272 net.cpp:442] Threshold_13 -> BatchNorm_13 (in-place)
I0224 07:28:16.311563  1272 net.cpp:190] Setting up Threshold_13
I0224 07:28:16.311565  1272 net.cpp:197] Top shape: 1 128 64 128 (1048576)
I0224 07:28:16.311570  1272 net.cpp:205] Memory required for data: 735739904
I0224 07:28:16.311573  1272 layer_factory.hpp:123] Creating layer BatchNorm_13_Threshold_13_0_split
I0224 07:28:16.311578  1272 net.cpp:140] Creating Layer BatchNorm_13_Threshold_13_0_split
I0224 07:28:16.311580  1272 net.cpp:481] BatchNorm_13_Threshold_13_0_split <- BatchNorm_13
I0224 07:28:16.311585  1272 net.cpp:455] BatchNorm_13_Threshold_13_0_split -> BatchNorm_13_Threshold_13_0_split_0
I0224 07:28:16.311590  1272 net.cpp:455] BatchNorm_13_Threshold_13_0_split -> BatchNorm_13_Threshold_13_0_split_1
I0224 07:28:16.311619  1272 net.cpp:190] Setting up BatchNorm_13_Threshold_13_0_split
I0224 07:28:16.311623  1272 net.cpp:197] Top shape: 1 128 64 128 (1048576)
I0224 07:28:16.311627  1272 net.cpp:197] Top shape: 1 128 64 128 (1048576)
I0224 07:28:16.311631  1272 net.cpp:205] Memory required for data: 744128512
I0224 07:28:16.311635  1272 layer_factory.hpp:123] Creating layer ConvNd_63
I0224 07:28:16.311645  1272 net.cpp:140] Creating Layer ConvNd_63
I0224 07:28:16.311650  1272 net.cpp:481] ConvNd_63 <- BatchNorm_13_Threshold_13_0_split_0
I0224 07:28:16.311656  1272 net.cpp:455] ConvNd_63 -> ConvNd_63
I0224 07:28:16.311856  1272 net.cpp:190] Setting up ConvNd_63
I0224 07:28:16.311863  1272 net.cpp:197] Top shape: 1 25 64 128 (204800)
I0224 07:28:16.311868  1272 net.cpp:205] Memory required for data: 744947712
I0224 07:28:16.311874  1272 layer_factory.hpp:123] Creating layer ConvNd_63_ConvNd_63_0_split
I0224 07:28:16.311879  1272 net.cpp:140] Creating Layer ConvNd_63_ConvNd_63_0_split
I0224 07:28:16.311883  1272 net.cpp:481] ConvNd_63_ConvNd_63_0_split <- ConvNd_63
I0224 07:28:16.311889  1272 net.cpp:455] ConvNd_63_ConvNd_63_0_split -> ConvNd_63_ConvNd_63_0_split_0
I0224 07:28:16.311895  1272 net.cpp:455] ConvNd_63_ConvNd_63_0_split -> ConvNd_63_ConvNd_63_0_split_1
I0224 07:28:16.311902  1272 net.cpp:455] ConvNd_63_ConvNd_63_0_split -> ConvNd_63_ConvNd_63_0_split_2
I0224 07:28:16.311906  1272 net.cpp:455] ConvNd_63_ConvNd_63_0_split -> ConvNd_63_ConvNd_63_0_split_3
I0224 07:28:16.311911  1272 net.cpp:455] ConvNd_63_ConvNd_63_0_split -> ConvNd_63_ConvNd_63_0_split_4
I0224 07:28:16.311976  1272 net.cpp:190] Setting up ConvNd_63_ConvNd_63_0_split
I0224 07:28:16.311985  1272 net.cpp:197] Top shape: 1 25 64 128 (204800)
I0224 07:28:16.311990  1272 net.cpp:197] Top shape: 1 25 64 128 (204800)
I0224 07:28:16.311995  1272 net.cpp:197] Top shape: 1 25 64 128 (204800)
I0224 07:28:16.311998  1272 net.cpp:197] Top shape: 1 25 64 128 (204800)
I0224 07:28:16.312001  1272 net.cpp:197] Top shape: 1 25 64 128 (204800)
I0224 07:28:16.312006  1272 net.cpp:205] Memory required for data: 749043712
I0224 07:28:16.312016  1272 layer_factory.hpp:123] Creating layer ConvNd_64
I0224 07:28:16.312022  1272 net.cpp:140] Creating Layer ConvNd_64
I0224 07:28:16.312026  1272 net.cpp:481] ConvNd_64 <- ConvNd_63_ConvNd_63_0_split_0
I0224 07:28:16.312032  1272 net.cpp:455] ConvNd_64 -> ConvNd_64
I0224 07:28:16.312249  1272 net.cpp:190] Setting up ConvNd_64
I0224 07:28:16.312256  1272 net.cpp:197] Top shape: 1 28 64 128 (229376)
I0224 07:28:16.312261  1272 net.cpp:205] Memory required for data: 749961216
I0224 07:28:16.312270  1272 layer_factory.hpp:123] Creating layer ConvNd_65
I0224 07:28:16.312276  1272 net.cpp:140] Creating Layer ConvNd_65
I0224 07:28:16.312280  1272 net.cpp:481] ConvNd_65 <- ConvNd_63_ConvNd_63_0_split_1
I0224 07:28:16.312285  1272 net.cpp:455] ConvNd_65 -> ConvNd_65
I0224 07:28:16.312492  1272 net.cpp:190] Setting up ConvNd_65
I0224 07:28:16.312499  1272 net.cpp:197] Top shape: 1 25 64 128 (204800)
I0224 07:28:16.312503  1272 net.cpp:205] Memory required for data: 750780416
I0224 07:28:16.312508  1272 layer_factory.hpp:123] Creating layer ConvNd_65_ConvNd_65_0_split
I0224 07:28:16.312513  1272 net.cpp:140] Creating Layer ConvNd_65_ConvNd_65_0_split
I0224 07:28:16.312516  1272 net.cpp:481] ConvNd_65_ConvNd_65_0_split <- ConvNd_65
I0224 07:28:16.312521  1272 net.cpp:455] ConvNd_65_ConvNd_65_0_split -> ConvNd_65_ConvNd_65_0_split_0
I0224 07:28:16.312527  1272 net.cpp:455] ConvNd_65_ConvNd_65_0_split -> ConvNd_65_ConvNd_65_0_split_1
I0224 07:28:16.312554  1272 net.cpp:190] Setting up ConvNd_65_ConvNd_65_0_split
I0224 07:28:16.312559  1272 net.cpp:197] Top shape: 1 25 64 128 (204800)
I0224 07:28:16.312564  1272 net.cpp:197] Top shape: 1 25 64 128 (204800)
I0224 07:28:16.312568  1272 net.cpp:205] Memory required for data: 752418816
I0224 07:28:16.312572  1272 layer_factory.hpp:123] Creating layer ConvNd_66
I0224 07:28:16.312578  1272 net.cpp:140] Creating Layer ConvNd_66
I0224 07:28:16.312582  1272 net.cpp:481] ConvNd_66 <- ConvNd_63_ConvNd_63_0_split_2
I0224 07:28:16.312587  1272 net.cpp:455] ConvNd_66 -> ConvNd_66
I0224 07:28:16.312789  1272 net.cpp:190] Setting up ConvNd_66
I0224 07:28:16.312796  1272 net.cpp:197] Top shape: 1 25 64 128 (204800)
I0224 07:28:16.312801  1272 net.cpp:205] Memory required for data: 753238016
I0224 07:28:16.312805  1272 layer_factory.hpp:123] Creating layer Add_39
I0224 07:28:16.312810  1272 net.cpp:140] Creating Layer Add_39
I0224 07:28:16.312814  1272 net.cpp:481] Add_39 <- ConvNd_65_ConvNd_65_0_split_0
I0224 07:28:16.312819  1272 net.cpp:481] Add_39 <- ConvNd_66
I0224 07:28:16.312824  1272 net.cpp:455] Add_39 -> Add_39
I0224 07:28:16.312841  1272 net.cpp:190] Setting up Add_39
I0224 07:28:16.312846  1272 net.cpp:197] Top shape: 1 25 64 128 (204800)
I0224 07:28:16.312850  1272 net.cpp:205] Memory required for data: 754057216
I0224 07:28:16.312853  1272 layer_factory.hpp:123] Creating layer Add_39_Add_39_0_split
I0224 07:28:16.312858  1272 net.cpp:140] Creating Layer Add_39_Add_39_0_split
I0224 07:28:16.312862  1272 net.cpp:481] Add_39_Add_39_0_split <- Add_39
I0224 07:28:16.312867  1272 net.cpp:455] Add_39_Add_39_0_split -> Add_39_Add_39_0_split_0
I0224 07:28:16.312872  1272 net.cpp:455] Add_39_Add_39_0_split -> Add_39_Add_39_0_split_1
I0224 07:28:16.312898  1272 net.cpp:190] Setting up Add_39_Add_39_0_split
I0224 07:28:16.312903  1272 net.cpp:197] Top shape: 1 25 64 128 (204800)
I0224 07:28:16.312907  1272 net.cpp:197] Top shape: 1 25 64 128 (204800)
I0224 07:28:16.312911  1272 net.cpp:205] Memory required for data: 755695616
I0224 07:28:16.312916  1272 layer_factory.hpp:123] Creating layer ConvNd_67
I0224 07:28:16.312922  1272 net.cpp:140] Creating Layer ConvNd_67
I0224 07:28:16.312924  1272 net.cpp:481] ConvNd_67 <- ConvNd_63_ConvNd_63_0_split_3
I0224 07:28:16.312929  1272 net.cpp:455] ConvNd_67 -> ConvNd_67
I0224 07:28:16.313135  1272 net.cpp:190] Setting up ConvNd_67
I0224 07:28:16.313140  1272 net.cpp:197] Top shape: 1 25 64 128 (204800)
I0224 07:28:16.313145  1272 net.cpp:205] Memory required for data: 756514816
I0224 07:28:16.313150  1272 layer_factory.hpp:123] Creating layer Add_40
I0224 07:28:16.313154  1272 net.cpp:140] Creating Layer Add_40
I0224 07:28:16.313158  1272 net.cpp:481] Add_40 <- Add_39_Add_39_0_split_0
I0224 07:28:16.313163  1272 net.cpp:481] Add_40 <- ConvNd_67
I0224 07:28:16.313167  1272 net.cpp:455] Add_40 -> Add_40
I0224 07:28:16.313185  1272 net.cpp:190] Setting up Add_40
I0224 07:28:16.313190  1272 net.cpp:197] Top shape: 1 25 64 128 (204800)
I0224 07:28:16.313195  1272 net.cpp:205] Memory required for data: 757334016
I0224 07:28:16.313199  1272 layer_factory.hpp:123] Creating layer Add_40_Add_40_0_split
I0224 07:28:16.313203  1272 net.cpp:140] Creating Layer Add_40_Add_40_0_split
I0224 07:28:16.313206  1272 net.cpp:481] Add_40_Add_40_0_split <- Add_40
I0224 07:28:16.313211  1272 net.cpp:455] Add_40_Add_40_0_split -> Add_40_Add_40_0_split_0
I0224 07:28:16.313216  1272 net.cpp:455] Add_40_Add_40_0_split -> Add_40_Add_40_0_split_1
I0224 07:28:16.313246  1272 net.cpp:190] Setting up Add_40_Add_40_0_split
I0224 07:28:16.313253  1272 net.cpp:197] Top shape: 1 25 64 128 (204800)
I0224 07:28:16.313257  1272 net.cpp:197] Top shape: 1 25 64 128 (204800)
I0224 07:28:16.313261  1272 net.cpp:205] Memory required for data: 758972416
I0224 07:28:16.313266  1272 layer_factory.hpp:123] Creating layer ConvNd_68
I0224 07:28:16.313272  1272 net.cpp:140] Creating Layer ConvNd_68
I0224 07:28:16.313275  1272 net.cpp:481] ConvNd_68 <- ConvNd_63_ConvNd_63_0_split_4
I0224 07:28:16.313283  1272 net.cpp:455] ConvNd_68 -> ConvNd_68
I0224 07:28:16.313515  1272 net.cpp:190] Setting up ConvNd_68
I0224 07:28:16.313524  1272 net.cpp:197] Top shape: 1 25 64 128 (204800)
I0224 07:28:16.313529  1272 net.cpp:205] Memory required for data: 759791616
I0224 07:28:16.313534  1272 layer_factory.hpp:123] Creating layer Add_41
I0224 07:28:16.313539  1272 net.cpp:140] Creating Layer Add_41
I0224 07:28:16.313542  1272 net.cpp:481] Add_41 <- Add_40_Add_40_0_split_0
I0224 07:28:16.313546  1272 net.cpp:481] Add_41 <- ConvNd_68
I0224 07:28:16.313551  1272 net.cpp:455] Add_41 -> Add_41
I0224 07:28:16.313572  1272 net.cpp:190] Setting up Add_41
I0224 07:28:16.313580  1272 net.cpp:197] Top shape: 1 25 64 128 (204800)
I0224 07:28:16.313587  1272 net.cpp:205] Memory required for data: 760610816
I0224 07:28:16.313593  1272 layer_factory.hpp:123] Creating layer Concat_13
I0224 07:28:16.313601  1272 net.cpp:140] Creating Layer Concat_13
I0224 07:28:16.313606  1272 net.cpp:481] Concat_13 <- ConvNd_64
I0224 07:28:16.313612  1272 net.cpp:481] Concat_13 <- ConvNd_65_ConvNd_65_0_split_1
I0224 07:28:16.313619  1272 net.cpp:481] Concat_13 <- Add_39_Add_39_0_split_1
I0224 07:28:16.313625  1272 net.cpp:481] Concat_13 <- Add_40_Add_40_0_split_1
I0224 07:28:16.313632  1272 net.cpp:481] Concat_13 <- Add_41
I0224 07:28:16.313639  1272 net.cpp:455] Concat_13 -> Concat_13
I0224 07:28:16.313668  1272 net.cpp:190] Setting up Concat_13
I0224 07:28:16.313679  1272 net.cpp:197] Top shape: 1 128 64 128 (1048576)
I0224 07:28:16.313688  1272 net.cpp:205] Memory required for data: 764805120
I0224 07:28:16.313694  1272 layer_factory.hpp:123] Creating layer Add_42
I0224 07:28:16.313700  1272 net.cpp:140] Creating Layer Add_42
I0224 07:28:16.313704  1272 net.cpp:481] Add_42 <- BatchNorm_13_Threshold_13_0_split_1
I0224 07:28:16.313709  1272 net.cpp:481] Add_42 <- Concat_13
I0224 07:28:16.313714  1272 net.cpp:455] Add_42 -> Add_42
I0224 07:28:16.313733  1272 net.cpp:190] Setting up Add_42
I0224 07:28:16.313737  1272 net.cpp:197] Top shape: 1 128 64 128 (1048576)
I0224 07:28:16.313741  1272 net.cpp:205] Memory required for data: 768999424
I0224 07:28:16.313745  1272 layer_factory.hpp:123] Creating layer BatchNorm_14
I0224 07:28:16.313751  1272 net.cpp:140] Creating Layer BatchNorm_14
I0224 07:28:16.313755  1272 net.cpp:481] BatchNorm_14 <- Add_42
I0224 07:28:16.313760  1272 net.cpp:455] BatchNorm_14 -> BatchNorm_14
I0224 07:28:16.314241  1272 net.cpp:190] Setting up BatchNorm_14
I0224 07:28:16.314250  1272 net.cpp:197] Top shape: 1 128 64 128 (1048576)
I0224 07:28:16.314255  1272 net.cpp:205] Memory required for data: 773193728
I0224 07:28:16.314263  1272 layer_factory.hpp:123] Creating layer Threshold_14
I0224 07:28:16.314270  1272 net.cpp:140] Creating Layer Threshold_14
I0224 07:28:16.314273  1272 net.cpp:481] Threshold_14 <- BatchNorm_14
I0224 07:28:16.314277  1272 net.cpp:442] Threshold_14 -> BatchNorm_14 (in-place)
I0224 07:28:16.314283  1272 net.cpp:190] Setting up Threshold_14
I0224 07:28:16.314286  1272 net.cpp:197] Top shape: 1 128 64 128 (1048576)
I0224 07:28:16.314291  1272 net.cpp:205] Memory required for data: 777388032
I0224 07:28:16.314293  1272 layer_factory.hpp:123] Creating layer BatchNorm_14_Threshold_14_0_split
I0224 07:28:16.314298  1272 net.cpp:140] Creating Layer BatchNorm_14_Threshold_14_0_split
I0224 07:28:16.314301  1272 net.cpp:481] BatchNorm_14_Threshold_14_0_split <- BatchNorm_14
I0224 07:28:16.314306  1272 net.cpp:455] BatchNorm_14_Threshold_14_0_split -> BatchNorm_14_Threshold_14_0_split_0
I0224 07:28:16.314311  1272 net.cpp:455] BatchNorm_14_Threshold_14_0_split -> BatchNorm_14_Threshold_14_0_split_1
I0224 07:28:16.314343  1272 net.cpp:190] Setting up BatchNorm_14_Threshold_14_0_split
I0224 07:28:16.314352  1272 net.cpp:197] Top shape: 1 128 64 128 (1048576)
I0224 07:28:16.314358  1272 net.cpp:197] Top shape: 1 128 64 128 (1048576)
I0224 07:28:16.314365  1272 net.cpp:205] Memory required for data: 785776640
I0224 07:28:16.314370  1272 layer_factory.hpp:123] Creating layer ConvNd_69
I0224 07:28:16.314380  1272 net.cpp:140] Creating Layer ConvNd_69
I0224 07:28:16.314386  1272 net.cpp:481] ConvNd_69 <- BatchNorm_14_Threshold_14_0_split_0
I0224 07:28:16.314393  1272 net.cpp:455] ConvNd_69 -> ConvNd_69
I0224 07:28:16.314597  1272 net.cpp:190] Setting up ConvNd_69
I0224 07:28:16.314604  1272 net.cpp:197] Top shape: 1 25 64 128 (204800)
I0224 07:28:16.314610  1272 net.cpp:205] Memory required for data: 786595840
I0224 07:28:16.314615  1272 layer_factory.hpp:123] Creating layer ConvNd_69_ConvNd_69_0_split
I0224 07:28:16.314621  1272 net.cpp:140] Creating Layer ConvNd_69_ConvNd_69_0_split
I0224 07:28:16.314625  1272 net.cpp:481] ConvNd_69_ConvNd_69_0_split <- ConvNd_69
I0224 07:28:16.314630  1272 net.cpp:455] ConvNd_69_ConvNd_69_0_split -> ConvNd_69_ConvNd_69_0_split_0
I0224 07:28:16.314636  1272 net.cpp:455] ConvNd_69_ConvNd_69_0_split -> ConvNd_69_ConvNd_69_0_split_1
I0224 07:28:16.314642  1272 net.cpp:455] ConvNd_69_ConvNd_69_0_split -> ConvNd_69_ConvNd_69_0_split_2
I0224 07:28:16.314647  1272 net.cpp:455] ConvNd_69_ConvNd_69_0_split -> ConvNd_69_ConvNd_69_0_split_3
I0224 07:28:16.314651  1272 net.cpp:455] ConvNd_69_ConvNd_69_0_split -> ConvNd_69_ConvNd_69_0_split_4
I0224 07:28:16.314715  1272 net.cpp:190] Setting up ConvNd_69_ConvNd_69_0_split
I0224 07:28:16.314721  1272 net.cpp:197] Top shape: 1 25 64 128 (204800)
I0224 07:28:16.314726  1272 net.cpp:197] Top shape: 1 25 64 128 (204800)
I0224 07:28:16.314730  1272 net.cpp:197] Top shape: 1 25 64 128 (204800)
I0224 07:28:16.314734  1272 net.cpp:197] Top shape: 1 25 64 128 (204800)
I0224 07:28:16.314739  1272 net.cpp:197] Top shape: 1 25 64 128 (204800)
I0224 07:28:16.314745  1272 net.cpp:205] Memory required for data: 790691840
I0224 07:28:16.314751  1272 layer_factory.hpp:123] Creating layer ConvNd_70
I0224 07:28:16.314760  1272 net.cpp:140] Creating Layer ConvNd_70
I0224 07:28:16.314766  1272 net.cpp:481] ConvNd_70 <- ConvNd_69_ConvNd_69_0_split_0
I0224 07:28:16.314774  1272 net.cpp:455] ConvNd_70 -> ConvNd_70
I0224 07:28:16.315026  1272 net.cpp:190] Setting up ConvNd_70
I0224 07:28:16.315033  1272 net.cpp:197] Top shape: 1 28 64 128 (229376)
I0224 07:28:16.315039  1272 net.cpp:205] Memory required for data: 791609344
I0224 07:28:16.315044  1272 layer_factory.hpp:123] Creating layer ConvNd_71
I0224 07:28:16.315052  1272 net.cpp:140] Creating Layer ConvNd_71
I0224 07:28:16.315055  1272 net.cpp:481] ConvNd_71 <- ConvNd_69_ConvNd_69_0_split_1
I0224 07:28:16.315060  1272 net.cpp:455] ConvNd_71 -> ConvNd_71
I0224 07:28:16.315277  1272 net.cpp:190] Setting up ConvNd_71
I0224 07:28:16.315284  1272 net.cpp:197] Top shape: 1 25 64 128 (204800)
I0224 07:28:16.315289  1272 net.cpp:205] Memory required for data: 792428544
I0224 07:28:16.315294  1272 layer_factory.hpp:123] Creating layer ConvNd_71_ConvNd_71_0_split
I0224 07:28:16.315299  1272 net.cpp:140] Creating Layer ConvNd_71_ConvNd_71_0_split
I0224 07:28:16.315302  1272 net.cpp:481] ConvNd_71_ConvNd_71_0_split <- ConvNd_71
I0224 07:28:16.315307  1272 net.cpp:455] ConvNd_71_ConvNd_71_0_split -> ConvNd_71_ConvNd_71_0_split_0
I0224 07:28:16.315312  1272 net.cpp:455] ConvNd_71_ConvNd_71_0_split -> ConvNd_71_ConvNd_71_0_split_1
I0224 07:28:16.315346  1272 net.cpp:190] Setting up ConvNd_71_ConvNd_71_0_split
I0224 07:28:16.315353  1272 net.cpp:197] Top shape: 1 25 64 128 (204800)
I0224 07:28:16.315361  1272 net.cpp:197] Top shape: 1 25 64 128 (204800)
I0224 07:28:16.315366  1272 net.cpp:205] Memory required for data: 794066944
I0224 07:28:16.315371  1272 layer_factory.hpp:123] Creating layer ConvNd_72
I0224 07:28:16.315382  1272 net.cpp:140] Creating Layer ConvNd_72
I0224 07:28:16.315388  1272 net.cpp:481] ConvNd_72 <- ConvNd_69_ConvNd_69_0_split_2
I0224 07:28:16.315397  1272 net.cpp:455] ConvNd_72 -> ConvNd_72
I0224 07:28:16.315632  1272 net.cpp:190] Setting up ConvNd_72
I0224 07:28:16.315639  1272 net.cpp:197] Top shape: 1 25 64 128 (204800)
I0224 07:28:16.315644  1272 net.cpp:205] Memory required for data: 794886144
I0224 07:28:16.315649  1272 layer_factory.hpp:123] Creating layer Add_43
I0224 07:28:16.315655  1272 net.cpp:140] Creating Layer Add_43
I0224 07:28:16.315659  1272 net.cpp:481] Add_43 <- ConvNd_71_ConvNd_71_0_split_0
I0224 07:28:16.315663  1272 net.cpp:481] Add_43 <- ConvNd_72
I0224 07:28:16.315668  1272 net.cpp:455] Add_43 -> Add_43
I0224 07:28:16.315687  1272 net.cpp:190] Setting up Add_43
I0224 07:28:16.315692  1272 net.cpp:197] Top shape: 1 25 64 128 (204800)
I0224 07:28:16.315697  1272 net.cpp:205] Memory required for data: 795705344
I0224 07:28:16.315701  1272 layer_factory.hpp:123] Creating layer Add_43_Add_43_0_split
I0224 07:28:16.315708  1272 net.cpp:140] Creating Layer Add_43_Add_43_0_split
I0224 07:28:16.315713  1272 net.cpp:481] Add_43_Add_43_0_split <- Add_43
I0224 07:28:16.315719  1272 net.cpp:455] Add_43_Add_43_0_split -> Add_43_Add_43_0_split_0
I0224 07:28:16.315727  1272 net.cpp:455] Add_43_Add_43_0_split -> Add_43_Add_43_0_split_1
I0224 07:28:16.315765  1272 net.cpp:190] Setting up Add_43_Add_43_0_split
I0224 07:28:16.315773  1272 net.cpp:197] Top shape: 1 25 64 128 (204800)
I0224 07:28:16.315776  1272 net.cpp:197] Top shape: 1 25 64 128 (204800)
I0224 07:28:16.315780  1272 net.cpp:205] Memory required for data: 797343744
I0224 07:28:16.315785  1272 layer_factory.hpp:123] Creating layer ConvNd_73
I0224 07:28:16.315793  1272 net.cpp:140] Creating Layer ConvNd_73
I0224 07:28:16.315798  1272 net.cpp:481] ConvNd_73 <- ConvNd_69_ConvNd_69_0_split_3
I0224 07:28:16.315802  1272 net.cpp:455] ConvNd_73 -> ConvNd_73
I0224 07:28:16.316038  1272 net.cpp:190] Setting up ConvNd_73
I0224 07:28:16.316046  1272 net.cpp:197] Top shape: 1 25 64 128 (204800)
I0224 07:28:16.316051  1272 net.cpp:205] Memory required for data: 798162944
I0224 07:28:16.316056  1272 layer_factory.hpp:123] Creating layer Add_44
I0224 07:28:16.316062  1272 net.cpp:140] Creating Layer Add_44
I0224 07:28:16.316066  1272 net.cpp:481] Add_44 <- Add_43_Add_43_0_split_0
I0224 07:28:16.316071  1272 net.cpp:481] Add_44 <- ConvNd_73
I0224 07:28:16.316074  1272 net.cpp:455] Add_44 -> Add_44
I0224 07:28:16.316094  1272 net.cpp:190] Setting up Add_44
I0224 07:28:16.316098  1272 net.cpp:197] Top shape: 1 25 64 128 (204800)
I0224 07:28:16.316103  1272 net.cpp:205] Memory required for data: 798982144
I0224 07:28:16.316108  1272 layer_factory.hpp:123] Creating layer Add_44_Add_44_0_split
I0224 07:28:16.316115  1272 net.cpp:140] Creating Layer Add_44_Add_44_0_split
I0224 07:28:16.316120  1272 net.cpp:481] Add_44_Add_44_0_split <- Add_44
I0224 07:28:16.316128  1272 net.cpp:455] Add_44_Add_44_0_split -> Add_44_Add_44_0_split_0
I0224 07:28:16.316135  1272 net.cpp:455] Add_44_Add_44_0_split -> Add_44_Add_44_0_split_1
I0224 07:28:16.316171  1272 net.cpp:190] Setting up Add_44_Add_44_0_split
I0224 07:28:16.316177  1272 net.cpp:197] Top shape: 1 25 64 128 (204800)
I0224 07:28:16.316182  1272 net.cpp:197] Top shape: 1 25 64 128 (204800)
I0224 07:28:16.316186  1272 net.cpp:205] Memory required for data: 800620544
I0224 07:28:16.316191  1272 layer_factory.hpp:123] Creating layer ConvNd_74
I0224 07:28:16.316200  1272 net.cpp:140] Creating Layer ConvNd_74
I0224 07:28:16.316205  1272 net.cpp:481] ConvNd_74 <- ConvNd_69_ConvNd_69_0_split_4
I0224 07:28:16.316211  1272 net.cpp:455] ConvNd_74 -> ConvNd_74
I0224 07:28:16.316442  1272 net.cpp:190] Setting up ConvNd_74
I0224 07:28:16.316449  1272 net.cpp:197] Top shape: 1 25 64 128 (204800)
I0224 07:28:16.316454  1272 net.cpp:205] Memory required for data: 801439744
I0224 07:28:16.316459  1272 layer_factory.hpp:123] Creating layer Add_45
I0224 07:28:16.316464  1272 net.cpp:140] Creating Layer Add_45
I0224 07:28:16.316468  1272 net.cpp:481] Add_45 <- Add_44_Add_44_0_split_0
I0224 07:28:16.316473  1272 net.cpp:481] Add_45 <- ConvNd_74
I0224 07:28:16.316478  1272 net.cpp:455] Add_45 -> Add_45
I0224 07:28:16.316500  1272 net.cpp:190] Setting up Add_45
I0224 07:28:16.316509  1272 net.cpp:197] Top shape: 1 25 64 128 (204800)
I0224 07:28:16.316516  1272 net.cpp:205] Memory required for data: 802258944
I0224 07:28:16.316522  1272 layer_factory.hpp:123] Creating layer Concat_14
I0224 07:28:16.316530  1272 net.cpp:140] Creating Layer Concat_14
I0224 07:28:16.316536  1272 net.cpp:481] Concat_14 <- ConvNd_70
I0224 07:28:16.316542  1272 net.cpp:481] Concat_14 <- ConvNd_71_ConvNd_71_0_split_1
I0224 07:28:16.316550  1272 net.cpp:481] Concat_14 <- Add_43_Add_43_0_split_1
I0224 07:28:16.316555  1272 net.cpp:481] Concat_14 <- Add_44_Add_44_0_split_1
I0224 07:28:16.316561  1272 net.cpp:481] Concat_14 <- Add_45
I0224 07:28:16.316568  1272 net.cpp:455] Concat_14 -> Concat_14
I0224 07:28:16.316599  1272 net.cpp:190] Setting up Concat_14
I0224 07:28:16.316607  1272 net.cpp:197] Top shape: 1 128 64 128 (1048576)
I0224 07:28:16.316615  1272 net.cpp:205] Memory required for data: 806453248
I0224 07:28:16.316620  1272 layer_factory.hpp:123] Creating layer Add_46
I0224 07:28:16.316627  1272 net.cpp:140] Creating Layer Add_46
I0224 07:28:16.316633  1272 net.cpp:481] Add_46 <- BatchNorm_14_Threshold_14_0_split_1
I0224 07:28:16.316640  1272 net.cpp:481] Add_46 <- Concat_14
I0224 07:28:16.316648  1272 net.cpp:455] Add_46 -> Add_46
I0224 07:28:16.316678  1272 net.cpp:190] Setting up Add_46
I0224 07:28:16.316685  1272 net.cpp:197] Top shape: 1 128 64 128 (1048576)
I0224 07:28:16.316694  1272 net.cpp:205] Memory required for data: 810647552
I0224 07:28:16.316697  1272 layer_factory.hpp:123] Creating layer BatchNorm_15
I0224 07:28:16.316706  1272 net.cpp:140] Creating Layer BatchNorm_15
I0224 07:28:16.316712  1272 net.cpp:481] BatchNorm_15 <- Add_46
I0224 07:28:16.316721  1272 net.cpp:455] BatchNorm_15 -> BatchNorm_15
I0224 07:28:16.317212  1272 net.cpp:190] Setting up BatchNorm_15
I0224 07:28:16.317221  1272 net.cpp:197] Top shape: 1 128 64 128 (1048576)
I0224 07:28:16.317226  1272 net.cpp:205] Memory required for data: 814841856
I0224 07:28:16.317235  1272 layer_factory.hpp:123] Creating layer Threshold_15
I0224 07:28:16.317240  1272 net.cpp:140] Creating Layer Threshold_15
I0224 07:28:16.317245  1272 net.cpp:481] Threshold_15 <- BatchNorm_15
I0224 07:28:16.317248  1272 net.cpp:442] Threshold_15 -> BatchNorm_15 (in-place)
I0224 07:28:16.317255  1272 net.cpp:190] Setting up Threshold_15
I0224 07:28:16.317257  1272 net.cpp:197] Top shape: 1 128 64 128 (1048576)
I0224 07:28:16.317261  1272 net.cpp:205] Memory required for data: 819036160
I0224 07:28:16.317265  1272 layer_factory.hpp:123] Creating layer Concat_15
I0224 07:28:16.317270  1272 net.cpp:140] Creating Layer Concat_15
I0224 07:28:16.317272  1272 net.cpp:481] Concat_15 <- BatchNorm_7_Threshold_7_0_split_2
I0224 07:28:16.317276  1272 net.cpp:481] Concat_15 <- BatchNorm_15
I0224 07:28:16.317282  1272 net.cpp:455] Concat_15 -> Concat_15
I0224 07:28:16.317310  1272 net.cpp:190] Setting up Concat_15
I0224 07:28:16.317329  1272 net.cpp:197] Top shape: 1 256 64 128 (2097152)
I0224 07:28:16.317335  1272 net.cpp:205] Memory required for data: 827424768
I0224 07:28:16.317338  1272 layer_factory.hpp:123] Creating layer BatchNorm_16
I0224 07:28:16.317348  1272 net.cpp:140] Creating Layer BatchNorm_16
I0224 07:28:16.317353  1272 net.cpp:481] BatchNorm_16 <- Concat_15
I0224 07:28:16.317359  1272 net.cpp:455] BatchNorm_16 -> BatchNorm_16
I0224 07:28:16.317839  1272 net.cpp:190] Setting up BatchNorm_16
I0224 07:28:16.317847  1272 net.cpp:197] Top shape: 1 256 64 128 (2097152)
I0224 07:28:16.317852  1272 net.cpp:205] Memory required for data: 835813376
I0224 07:28:16.317859  1272 layer_factory.hpp:123] Creating layer Threshold_16
I0224 07:28:16.317864  1272 net.cpp:140] Creating Layer Threshold_16
I0224 07:28:16.317868  1272 net.cpp:481] Threshold_16 <- BatchNorm_16
I0224 07:28:16.317873  1272 net.cpp:442] Threshold_16 -> BatchNorm_16 (in-place)
I0224 07:28:16.317878  1272 net.cpp:190] Setting up Threshold_16
I0224 07:28:16.317881  1272 net.cpp:197] Top shape: 1 256 64 128 (2097152)
I0224 07:28:16.317885  1272 net.cpp:205] Memory required for data: 844201984
I0224 07:28:16.317888  1272 layer_factory.hpp:123] Creating layer ConvNd_75
I0224 07:28:16.317895  1272 net.cpp:140] Creating Layer ConvNd_75
I0224 07:28:16.317898  1272 net.cpp:481] ConvNd_75 <- BatchNorm_16
I0224 07:28:16.317905  1272 net.cpp:455] ConvNd_75 -> ConvNd_75
I0224 07:28:16.318143  1272 net.cpp:190] Setting up ConvNd_75
I0224 07:28:16.318151  1272 net.cpp:197] Top shape: 1 19 64 128 (155648)
I0224 07:28:16.318157  1272 net.cpp:205] Memory required for data: 844824576
I0224 07:28:16.318162  1272 layer_factory.hpp:123] Creating layer BatchNorm_17
I0224 07:28:16.318169  1272 net.cpp:140] Creating Layer BatchNorm_17
I0224 07:28:16.318173  1272 net.cpp:481] BatchNorm_17 <- ConvNd_75
I0224 07:28:16.318178  1272 net.cpp:455] BatchNorm_17 -> BatchNorm_17
I0224 07:28:16.318743  1272 net.cpp:190] Setting up BatchNorm_17
I0224 07:28:16.318751  1272 net.cpp:197] Top shape: 1 19 64 128 (155648)
I0224 07:28:16.318756  1272 net.cpp:205] Memory required for data: 845447168
I0224 07:28:16.318764  1272 layer_factory.hpp:123] Creating layer ConvNd_76
I0224 07:28:16.318771  1272 net.cpp:140] Creating Layer ConvNd_76
I0224 07:28:16.318775  1272 net.cpp:481] ConvNd_76 <- BatchNorm_17
I0224 07:28:16.318780  1272 net.cpp:455] ConvNd_76 -> ConvNd_76
I0224 07:28:16.318982  1272 net.cpp:190] Setting up ConvNd_76
I0224 07:28:16.318991  1272 net.cpp:197] Top shape: 1 19 128 256 (622592)
I0224 07:28:16.318996  1272 net.cpp:205] Memory required for data: 847937536
I0224 07:28:16.319001  1272 layer_factory.hpp:123] Creating layer 
I0224 07:28:16.319006  1272 net.cpp:140] Creating Layer 
I0224 07:28:16.319010  1272 net.cpp:481]  <- ConvNd_20
I0224 07:28:16.319015  1272 net.cpp:481]  <- ConvNd_76
I0224 07:28:16.319018  1272 net.cpp:455]  -> 
I0224 07:28:16.319037  1272 net.cpp:190] Setting up 
I0224 07:28:16.319041  1272 net.cpp:197] Top shape: 1 38 128 256 (1245184)
I0224 07:28:16.319046  1272 net.cpp:205] Memory required for data: 852918272
I0224 07:28:16.319051  1272 layer_factory.hpp:123] Creating layer BatchNorm_18
I0224 07:28:16.319059  1272 net.cpp:140] Creating Layer BatchNorm_18
I0224 07:28:16.319064  1272 net.cpp:481] BatchNorm_18 <- 
I0224 07:28:16.319072  1272 net.cpp:455] BatchNorm_18 -> BatchNorm_18
I0224 07:28:16.319644  1272 net.cpp:190] Setting up BatchNorm_18
I0224 07:28:16.319653  1272 net.cpp:197] Top shape: 1 38 128 256 (1245184)
I0224 07:28:16.319658  1272 net.cpp:205] Memory required for data: 857899008
I0224 07:28:16.319665  1272 layer_factory.hpp:123] Creating layer Threshold_17
I0224 07:28:16.319670  1272 net.cpp:140] Creating Layer Threshold_17
I0224 07:28:16.319674  1272 net.cpp:481] Threshold_17 <- BatchNorm_18
I0224 07:28:16.319679  1272 net.cpp:442] Threshold_17 -> BatchNorm_18 (in-place)
I0224 07:28:16.319684  1272 net.cpp:190] Setting up Threshold_17
I0224 07:28:16.319687  1272 net.cpp:197] Top shape: 1 38 128 256 (1245184)
I0224 07:28:16.319691  1272 net.cpp:205] Memory required for data: 862879744
I0224 07:28:16.319694  1272 layer_factory.hpp:123] Creating layer ConvNd_77
I0224 07:28:16.319700  1272 net.cpp:140] Creating Layer ConvNd_77
I0224 07:28:16.319703  1272 net.cpp:481] ConvNd_77 <- BatchNorm_18
I0224 07:28:16.319708  1272 net.cpp:455] ConvNd_77 -> ConvNd_77
I0224 07:28:16.319912  1272 net.cpp:190] Setting up ConvNd_77
I0224 07:28:16.319921  1272 net.cpp:197] Top shape: 1 4 128 256 (131072)
I0224 07:28:16.319926  1272 net.cpp:205] Memory required for data: 863404032
I0224 07:28:16.319931  1272 layer_factory.hpp:123] Creating layer ConvNd_77_ConvNd_77_0_split
I0224 07:28:16.319937  1272 net.cpp:140] Creating Layer ConvNd_77_ConvNd_77_0_split
I0224 07:28:16.319941  1272 net.cpp:481] ConvNd_77_ConvNd_77_0_split <- ConvNd_77
I0224 07:28:16.319947  1272 net.cpp:455] ConvNd_77_ConvNd_77_0_split -> ConvNd_77_ConvNd_77_0_split_0
I0224 07:28:16.319953  1272 net.cpp:455] ConvNd_77_ConvNd_77_0_split -> ConvNd_77_ConvNd_77_0_split_1
I0224 07:28:16.319958  1272 net.cpp:455] ConvNd_77_ConvNd_77_0_split -> ConvNd_77_ConvNd_77_0_split_2
I0224 07:28:16.319963  1272 net.cpp:455] ConvNd_77_ConvNd_77_0_split -> ConvNd_77_ConvNd_77_0_split_3
I0224 07:28:16.319968  1272 net.cpp:455] ConvNd_77_ConvNd_77_0_split -> ConvNd_77_ConvNd_77_0_split_4
I0224 07:28:16.320030  1272 net.cpp:190] Setting up ConvNd_77_ConvNd_77_0_split
I0224 07:28:16.320037  1272 net.cpp:197] Top shape: 1 4 128 256 (131072)
I0224 07:28:16.320044  1272 net.cpp:197] Top shape: 1 4 128 256 (131072)
I0224 07:28:16.320050  1272 net.cpp:197] Top shape: 1 4 128 256 (131072)
I0224 07:28:16.320056  1272 net.cpp:197] Top shape: 1 4 128 256 (131072)
I0224 07:28:16.320062  1272 net.cpp:197] Top shape: 1 4 128 256 (131072)
I0224 07:28:16.320068  1272 net.cpp:205] Memory required for data: 866025472
I0224 07:28:16.320073  1272 layer_factory.hpp:123] Creating layer ConvNd_78
I0224 07:28:16.320081  1272 net.cpp:140] Creating Layer ConvNd_78
I0224 07:28:16.320086  1272 net.cpp:481] ConvNd_78 <- ConvNd_77_ConvNd_77_0_split_0
I0224 07:28:16.320091  1272 net.cpp:455] ConvNd_78 -> ConvNd_78
I0224 07:28:16.320267  1272 net.cpp:190] Setting up ConvNd_78
I0224 07:28:16.320276  1272 net.cpp:197] Top shape: 1 4 128 256 (131072)
I0224 07:28:16.320281  1272 net.cpp:205] Memory required for data: 866549760
I0224 07:28:16.320286  1272 layer_factory.hpp:123] Creating layer ConvNd_79
I0224 07:28:16.320292  1272 net.cpp:140] Creating Layer ConvNd_79
I0224 07:28:16.320297  1272 net.cpp:481] ConvNd_79 <- ConvNd_77_ConvNd_77_0_split_1
I0224 07:28:16.320302  1272 net.cpp:455] ConvNd_79 -> ConvNd_79
I0224 07:28:16.320461  1272 net.cpp:190] Setting up ConvNd_79
I0224 07:28:16.320467  1272 net.cpp:197] Top shape: 1 4 128 256 (131072)
I0224 07:28:16.320472  1272 net.cpp:205] Memory required for data: 867074048
I0224 07:28:16.320477  1272 layer_factory.hpp:123] Creating layer ConvNd_79_ConvNd_79_0_split
I0224 07:28:16.320482  1272 net.cpp:140] Creating Layer ConvNd_79_ConvNd_79_0_split
I0224 07:28:16.320485  1272 net.cpp:481] ConvNd_79_ConvNd_79_0_split <- ConvNd_79
I0224 07:28:16.320490  1272 net.cpp:455] ConvNd_79_ConvNd_79_0_split -> ConvNd_79_ConvNd_79_0_split_0
I0224 07:28:16.320495  1272 net.cpp:455] ConvNd_79_ConvNd_79_0_split -> ConvNd_79_ConvNd_79_0_split_1
I0224 07:28:16.320524  1272 net.cpp:190] Setting up ConvNd_79_ConvNd_79_0_split
I0224 07:28:16.320529  1272 net.cpp:197] Top shape: 1 4 128 256 (131072)
I0224 07:28:16.320534  1272 net.cpp:197] Top shape: 1 4 128 256 (131072)
I0224 07:28:16.320538  1272 net.cpp:205] Memory required for data: 868122624
I0224 07:28:16.320541  1272 layer_factory.hpp:123] Creating layer ConvNd_80
I0224 07:28:16.320547  1272 net.cpp:140] Creating Layer ConvNd_80
I0224 07:28:16.320551  1272 net.cpp:481] ConvNd_80 <- ConvNd_77_ConvNd_77_0_split_2
I0224 07:28:16.320555  1272 net.cpp:455] ConvNd_80 -> ConvNd_80
I0224 07:28:16.320715  1272 net.cpp:190] Setting up ConvNd_80
I0224 07:28:16.320722  1272 net.cpp:197] Top shape: 1 4 128 256 (131072)
I0224 07:28:16.320727  1272 net.cpp:205] Memory required for data: 868646912
I0224 07:28:16.320731  1272 layer_factory.hpp:123] Creating layer Add_47
I0224 07:28:16.320737  1272 net.cpp:140] Creating Layer Add_47
I0224 07:28:16.320740  1272 net.cpp:481] Add_47 <- ConvNd_79_ConvNd_79_0_split_0
I0224 07:28:16.320745  1272 net.cpp:481] Add_47 <- ConvNd_80
I0224 07:28:16.320749  1272 net.cpp:455] Add_47 -> Add_47
I0224 07:28:16.320768  1272 net.cpp:190] Setting up Add_47
I0224 07:28:16.320771  1272 net.cpp:197] Top shape: 1 4 128 256 (131072)
I0224 07:28:16.320776  1272 net.cpp:205] Memory required for data: 869171200
I0224 07:28:16.320780  1272 layer_factory.hpp:123] Creating layer Add_47_Add_47_0_split
I0224 07:28:16.320785  1272 net.cpp:140] Creating Layer Add_47_Add_47_0_split
I0224 07:28:16.320787  1272 net.cpp:481] Add_47_Add_47_0_split <- Add_47
I0224 07:28:16.320792  1272 net.cpp:455] Add_47_Add_47_0_split -> Add_47_Add_47_0_split_0
I0224 07:28:16.320797  1272 net.cpp:455] Add_47_Add_47_0_split -> Add_47_Add_47_0_split_1
I0224 07:28:16.320829  1272 net.cpp:190] Setting up Add_47_Add_47_0_split
I0224 07:28:16.320835  1272 net.cpp:197] Top shape: 1 4 128 256 (131072)
I0224 07:28:16.320839  1272 net.cpp:197] Top shape: 1 4 128 256 (131072)
I0224 07:28:16.320843  1272 net.cpp:205] Memory required for data: 870219776
I0224 07:28:16.320847  1272 layer_factory.hpp:123] Creating layer ConvNd_81
I0224 07:28:16.320854  1272 net.cpp:140] Creating Layer ConvNd_81
I0224 07:28:16.320858  1272 net.cpp:481] ConvNd_81 <- ConvNd_77_ConvNd_77_0_split_3
I0224 07:28:16.320863  1272 net.cpp:455] ConvNd_81 -> ConvNd_81
I0224 07:28:16.321030  1272 net.cpp:190] Setting up ConvNd_81
I0224 07:28:16.321038  1272 net.cpp:197] Top shape: 1 4 128 256 (131072)
I0224 07:28:16.321041  1272 net.cpp:205] Memory required for data: 870744064
I0224 07:28:16.321046  1272 layer_factory.hpp:123] Creating layer Add_48
I0224 07:28:16.321051  1272 net.cpp:140] Creating Layer Add_48
I0224 07:28:16.321055  1272 net.cpp:481] Add_48 <- Add_47_Add_47_0_split_0
I0224 07:28:16.321059  1272 net.cpp:481] Add_48 <- ConvNd_81
I0224 07:28:16.321064  1272 net.cpp:455] Add_48 -> Add_48
I0224 07:28:16.321082  1272 net.cpp:190] Setting up Add_48
I0224 07:28:16.321090  1272 net.cpp:197] Top shape: 1 4 128 256 (131072)
I0224 07:28:16.321094  1272 net.cpp:205] Memory required for data: 871268352
I0224 07:28:16.321099  1272 layer_factory.hpp:123] Creating layer Add_48_Add_48_0_split
I0224 07:28:16.321103  1272 net.cpp:140] Creating Layer Add_48_Add_48_0_split
I0224 07:28:16.321107  1272 net.cpp:481] Add_48_Add_48_0_split <- Add_48
I0224 07:28:16.321111  1272 net.cpp:455] Add_48_Add_48_0_split -> Add_48_Add_48_0_split_0
I0224 07:28:16.321116  1272 net.cpp:455] Add_48_Add_48_0_split -> Add_48_Add_48_0_split_1
I0224 07:28:16.321143  1272 net.cpp:190] Setting up Add_48_Add_48_0_split
I0224 07:28:16.321148  1272 net.cpp:197] Top shape: 1 4 128 256 (131072)
I0224 07:28:16.321152  1272 net.cpp:197] Top shape: 1 4 128 256 (131072)
I0224 07:28:16.321156  1272 net.cpp:205] Memory required for data: 872316928
I0224 07:28:16.321159  1272 layer_factory.hpp:123] Creating layer ConvNd_82
I0224 07:28:16.321166  1272 net.cpp:140] Creating Layer ConvNd_82
I0224 07:28:16.321169  1272 net.cpp:481] ConvNd_82 <- ConvNd_77_ConvNd_77_0_split_4
I0224 07:28:16.321177  1272 net.cpp:455] ConvNd_82 -> ConvNd_82
I0224 07:28:16.321372  1272 net.cpp:190] Setting up ConvNd_82
I0224 07:28:16.321379  1272 net.cpp:197] Top shape: 1 4 128 256 (131072)
I0224 07:28:16.321385  1272 net.cpp:205] Memory required for data: 872841216
I0224 07:28:16.321390  1272 layer_factory.hpp:123] Creating layer Add_49
I0224 07:28:16.321395  1272 net.cpp:140] Creating Layer Add_49
I0224 07:28:16.321399  1272 net.cpp:481] Add_49 <- Add_48_Add_48_0_split_0
I0224 07:28:16.321404  1272 net.cpp:481] Add_49 <- ConvNd_82
I0224 07:28:16.321408  1272 net.cpp:455] Add_49 -> Add_49
I0224 07:28:16.321439  1272 net.cpp:190] Setting up Add_49
I0224 07:28:16.321449  1272 net.cpp:197] Top shape: 1 4 128 256 (131072)
I0224 07:28:16.321455  1272 net.cpp:205] Memory required for data: 873365504
I0224 07:28:16.321460  1272 layer_factory.hpp:123] Creating layer Concat_17
I0224 07:28:16.321467  1272 net.cpp:140] Creating Layer Concat_17
I0224 07:28:16.321473  1272 net.cpp:481] Concat_17 <- ConvNd_78
I0224 07:28:16.321480  1272 net.cpp:481] Concat_17 <- ConvNd_79_ConvNd_79_0_split_1
I0224 07:28:16.321485  1272 net.cpp:481] Concat_17 <- Add_47_Add_47_0_split_1
I0224 07:28:16.321491  1272 net.cpp:481] Concat_17 <- Add_48_Add_48_0_split_1
I0224 07:28:16.321496  1272 net.cpp:481] Concat_17 <- Add_49
I0224 07:28:16.321504  1272 net.cpp:455] Concat_17 -> Concat_17
I0224 07:28:16.321533  1272 net.cpp:190] Setting up Concat_17
I0224 07:28:16.321539  1272 net.cpp:197] Top shape: 1 20 128 256 (655360)
I0224 07:28:16.321544  1272 net.cpp:205] Memory required for data: 875986944
I0224 07:28:16.321547  1272 layer_factory.hpp:123] Creating layer BatchNorm_19
I0224 07:28:16.321554  1272 net.cpp:140] Creating Layer BatchNorm_19
I0224 07:28:16.321558  1272 net.cpp:481] BatchNorm_19 <- Concat_17
I0224 07:28:16.321564  1272 net.cpp:455] BatchNorm_19 -> BatchNorm_19
I0224 07:28:16.322134  1272 net.cpp:190] Setting up BatchNorm_19
I0224 07:28:16.322142  1272 net.cpp:197] Top shape: 1 20 128 256 (655360)
I0224 07:28:16.322149  1272 net.cpp:205] Memory required for data: 878608384
I0224 07:28:16.322156  1272 layer_factory.hpp:123] Creating layer Threshold_18
I0224 07:28:16.322161  1272 net.cpp:140] Creating Layer Threshold_18
I0224 07:28:16.322165  1272 net.cpp:481] Threshold_18 <- BatchNorm_19
I0224 07:28:16.322170  1272 net.cpp:442] Threshold_18 -> BatchNorm_19 (in-place)
I0224 07:28:16.322176  1272 net.cpp:190] Setting up Threshold_18
I0224 07:28:16.322180  1272 net.cpp:197] Top shape: 1 20 128 256 (655360)
I0224 07:28:16.322183  1272 net.cpp:205] Memory required for data: 881229824
I0224 07:28:16.322187  1272 layer_factory.hpp:123] Creating layer ConvNd_83
I0224 07:28:16.322192  1272 net.cpp:140] Creating Layer ConvNd_83
I0224 07:28:16.322196  1272 net.cpp:481] ConvNd_83 <- BatchNorm_19
I0224 07:28:16.322201  1272 net.cpp:455] ConvNd_83 -> ConvNd_83
I0224 07:28:16.322407  1272 net.cpp:190] Setting up ConvNd_83
I0224 07:28:16.322415  1272 net.cpp:197] Top shape: 1 19 256 512 (2490368)
I0224 07:28:16.322420  1272 net.cpp:205] Memory required for data: 891191296
I0224 07:28:16.322425  1272 layer_factory.hpp:123] Creating layer BatchNorm_20
I0224 07:28:16.322438  1272 net.cpp:140] Creating Layer BatchNorm_20
I0224 07:28:16.322441  1272 net.cpp:481] BatchNorm_20 <- ConvNd_83
I0224 07:28:16.322446  1272 net.cpp:455] BatchNorm_20 -> BatchNorm_20
I0224 07:28:16.323712  1272 net.cpp:190] Setting up BatchNorm_20
I0224 07:28:16.323722  1272 net.cpp:197] Top shape: 1 19 256 512 (2490368)
I0224 07:28:16.323729  1272 net.cpp:205] Memory required for data: 901152768
I0224 07:28:16.323737  1272 layer_factory.hpp:123] Creating layer Threshold_19
I0224 07:28:16.323742  1272 net.cpp:140] Creating Layer Threshold_19
I0224 07:28:16.323747  1272 net.cpp:481] Threshold_19 <- BatchNorm_20
I0224 07:28:16.323751  1272 net.cpp:442] Threshold_19 -> BatchNorm_20 (in-place)
I0224 07:28:16.323758  1272 net.cpp:190] Setting up Threshold_19
I0224 07:28:16.323761  1272 net.cpp:197] Top shape: 1 19 256 512 (2490368)
I0224 07:28:16.323765  1272 net.cpp:205] Memory required for data: 911114240
I0224 07:28:16.323768  1272 layer_factory.hpp:123] Creating layer Concat_18
I0224 07:28:16.323772  1272 net.cpp:140] Creating Layer Concat_18
I0224 07:28:16.323776  1272 net.cpp:481] Concat_18 <- BatchNorm_20
I0224 07:28:16.323779  1272 net.cpp:481] Concat_18 <- BatchNorm_1_Threshold_1_0_split_1
I0224 07:28:16.323784  1272 net.cpp:455] Concat_18 -> Concat_18
I0224 07:28:16.323803  1272 net.cpp:190] Setting up Concat_18
I0224 07:28:16.323807  1272 net.cpp:197] Top shape: 1 35 256 512 (4587520)
I0224 07:28:16.323812  1272 net.cpp:205] Memory required for data: 929464320
I0224 07:28:16.323815  1272 layer_factory.hpp:123] Creating layer ConvNd_84
I0224 07:28:16.323822  1272 net.cpp:140] Creating Layer ConvNd_84
I0224 07:28:16.323824  1272 net.cpp:481] ConvNd_84 <- Concat_18
I0224 07:28:16.323830  1272 net.cpp:455] ConvNd_84 -> ConvNd_84
I0224 07:28:16.324071  1272 net.cpp:190] Setting up ConvNd_84
I0224 07:28:16.324080  1272 net.cpp:197] Top shape: 1 19 256 512 (2490368)
I0224 07:28:16.324085  1272 net.cpp:205] Memory required for data: 939425792
I0224 07:28:16.324090  1272 layer_factory.hpp:123] Creating layer BatchNorm_21
I0224 07:28:16.324097  1272 net.cpp:140] Creating Layer BatchNorm_21
I0224 07:28:16.324101  1272 net.cpp:481] BatchNorm_21 <- ConvNd_84
I0224 07:28:16.324107  1272 net.cpp:455] BatchNorm_21 -> BatchNorm_21
I0224 07:28:16.324723  1272 net.cpp:190] Setting up BatchNorm_21
I0224 07:28:16.324730  1272 net.cpp:197] Top shape: 1 19 256 512 (2490368)
I0224 07:28:16.324735  1272 net.cpp:205] Memory required for data: 949387264
I0224 07:28:16.324743  1272 layer_factory.hpp:123] Creating layer Threshold_20
I0224 07:28:16.324748  1272 net.cpp:140] Creating Layer Threshold_20
I0224 07:28:16.324751  1272 net.cpp:481] Threshold_20 <- BatchNorm_21
I0224 07:28:16.324755  1272 net.cpp:442] Threshold_20 -> BatchNorm_21 (in-place)
I0224 07:28:16.324761  1272 net.cpp:190] Setting up Threshold_20
I0224 07:28:16.324764  1272 net.cpp:197] Top shape: 1 19 256 512 (2490368)
I0224 07:28:16.324769  1272 net.cpp:205] Memory required for data: 959348736
I0224 07:28:16.324771  1272 layer_factory.hpp:123] Creating layer ConvNd_85
I0224 07:28:16.324777  1272 net.cpp:140] Creating Layer ConvNd_85
I0224 07:28:16.324780  1272 net.cpp:481] ConvNd_85 <- BatchNorm_21
I0224 07:28:16.324785  1272 net.cpp:455] ConvNd_85 -> ConvNd_85
I0224 07:28:16.324962  1272 net.cpp:190] Setting up ConvNd_85
I0224 07:28:16.324968  1272 net.cpp:197] Top shape: 1 19 512 1024 (9961472)
I0224 07:28:16.324973  1272 net.cpp:205] Memory required for data: 999194624
I0224 07:28:16.324978  1272 layer_factory.hpp:123] Creating layer score
I0224 07:28:16.324983  1272 net.cpp:140] Creating Layer score
I0224 07:28:16.324986  1272 net.cpp:481] score <- ConvNd_85
I0224 07:28:16.324991  1272 net.cpp:455] score -> score
I0224 07:28:16.325048  1272 net.cpp:190] Setting up score
I0224 07:28:16.325054  1272 net.cpp:197] Top shape: 1 19 512 1024 (9961472)
I0224 07:28:16.325059  1272 net.cpp:205] Memory required for data: 1039040512
I0224 07:28:16.325062  1272 layer_factory.hpp:123] Creating layer accuracy
I0224 07:28:16.325073  1272 net.cpp:140] Creating Layer accuracy
I0224 07:28:16.325076  1272 net.cpp:481] accuracy <- score
I0224 07:28:16.325080  1272 net.cpp:481] accuracy <- label
I0224 07:28:16.325085  1272 net.cpp:455] accuracy -> segmentation_eval
I0224 07:28:16.325104  1272 net.cpp:190] Setting up accuracy
I0224 07:28:16.325109  1272 net.cpp:197] Top shape: 3 19 (57)
I0224 07:28:16.325114  1272 net.cpp:205] Memory required for data: 1039040740
I0224 07:28:16.325117  1272 net.cpp:268] accuracy does not need backward computation.
I0224 07:28:16.325121  1272 net.cpp:268] score does not need backward computation.
I0224 07:28:16.325125  1272 net.cpp:268] ConvNd_85 does not need backward computation.
I0224 07:28:16.325129  1272 net.cpp:268] Threshold_20 does not need backward computation.
…
