…
layer {
  name: "data"
  type: "ImageData"
  top: "data"
  top: "label"
  include {
    phase: TRAIN
  }
  transform_param {
    scale: 0.022
    mean_value: 73
    mean_value: 82
    mean_value: 72
    resize_param {
      prob: 1
      resize_mode: WARP
      height: 512
      width: 1024
    }
  }
  image_data_param {
    source: "/workspace/Segment/VAI/data/cityscapes/calibration.txt"
    batch_size: 1
    shuffle: true
    new_height: 512
    new_width: 1024
    root_folder: "/workspace/Segment/VAI/data/cityscapes/calibration_images/"
  }
}
layer {
  name: "ConvNd_1"
  type: "Convolution"
  bottom: "data"
  top: "ConvNd_1"
  convolution_param {
    num_output: 16
    bias_term: false
    pad: 1
    kernel_size: 3
    group: 1
    stride: 2
    dilation: 1
  }
}
layer {
  name: "BatchNorm_1"
  type: "BatchNorm"
  bottom: "ConvNd_1"
  top: "BatchNorm_1"
  param {
    lr_mult: 1
    decay_mult: 0
  }
  param {
    lr_mult: 1
    decay_mult: 0
  }
  param {
    lr_mult: 0
    decay_mult: 0
  }
  param {
    lr_mult: 0
    decay_mult: 0
  }
  batch_norm_param {
    use_global_stats: true
    eps: 1e-05
    scale_filler {
      type: "constant"
      value: 1
    }
    bias_filler {
      type: "constant"
      value: 0
    }
  }
}
layer {
  name: "Threshold_1"
  type: "ReLU"
  bottom: "BatchNorm_1"
  top: "BatchNorm_1"
}
layer {
  name: "AvgPool2d_1"
  type: "Pooling"
  bottom: "data"
  top: "AvgPool2d_1"
  pooling_param {
    pool: AVE
    kernel_size: 3
    stride: 2
    pad: 0
  }
}
layer {
  name: "Concat_1"
  type: "Concat"
  bottom: "BatchNorm_1"
  bottom: "AvgPool2d_1"
  top: "Concat_1"
  concat_param {
    axis: 1
  }
}
layer {
  name: "BatchNorm_2"
  type: "BatchNorm"
  bottom: "Concat_1"
  top: "BatchNorm_2"
  param {
    lr_mult: 1
    decay_mult: 0
  }
  param {
    lr_mult: 1
    decay_mult: 0
  }
  param {
    lr_mult: 0
    decay_mult: 0
  }
  param {
    lr_mult: 0
    decay_mult: 0
  }
  batch_norm_param {
    use_global_stats: true
    eps: 1e-05
    scale_filler {
      type: "constant"
      value: 1
    }
    bias_filler {
      type: "constant"
      value: 0
    }
  }
}
layer {
  name: "Threshold_2"
  type: "ReLU"
  bottom: "BatchNorm_2"
  top: "BatchNorm_2"
}
layer {
  name: "ConvNd_2"
  type: "Convolution"
  bottom: "BatchNorm_2"
  top: "ConvNd_2"
  convolution_param {
    num_output: 12
    bias_term: false
    pad: 1
    kernel_size: 3
    group: 1
    stride: 2
    weight_filler {
      type: "msra"
    }
    dilation: 1
  }
}
layer {
  name: "ConvNd_3"
  type: "Convolution"
  bottom: "ConvNd_2"
  top: "ConvNd_3"
  convolution_param {
    num_output: 16
    bias_term: false
    pad: 1
    kernel_size: 3
    group: 1
    stride: 1
    weight_filler {
      type: "msra"
    }
    dilation: 1
  }
}
layer {
  name: "ConvNd_4"
  type: "Convolution"
  bottom: "ConvNd_2"
  top: "ConvNd_4"
  convolution_param {
    num_output: 12
    bias_term: false
    pad: 2
    kernel_size: 3
    group: 1
    stride: 1
    weight_filler {
      type: "msra"
    }
    dilation: 2
  }
}
layer {
  name: "ConvNd_5"
  type: "Convolution"
  bottom: "ConvNd_2"
  top: "ConvNd_5"
  convolution_param {
    num_output: 12
    bias_term: false
    pad: 4
    kernel_size: 3
    group: 1
    stride: 1
    weight_filler {
      type: "msra"
    }
    dilation: 4
  }
}
layer {
  name: "Add_1"
  type: "Eltwise"
  bottom: "ConvNd_4"
  bottom: "ConvNd_5"
  top: "Add_1"
}
layer {
  name: "ConvNd_6"
  type: "Convolution"
  bottom: "ConvNd_2"
  top: "ConvNd_6"
  convolution_param {
    num_output: 12
    bias_term: false
    pad: 8
    kernel_size: 3
    group: 1
    stride: 1
    weight_filler {
      type: "msra"
    }
    dilation: 8
  }
}
layer {
  name: "Add_2"
  type: "Eltwise"
  bottom: "Add_1"
  bottom: "ConvNd_6"
  top: "Add_2"
}
layer {
  name: "ConvNd_7"
  type: "Convolution"
  bottom: "ConvNd_2"
  top: "ConvNd_7"
  convolution_param {
    num_output: 12
    bias_term: false
    pad: 16
    kernel_size: 3
    group: 1
    stride: 1
    weight_filler {
      type: "msra"
    }
    dilation: 16
  }
}
layer {
  name: "Add_3"
  type: "Eltwise"
  bottom: "Add_2"
  bottom: "ConvNd_7"
  top: "Add_3"
}
layer {
  name: "Concat_2"
  type: "Concat"
  bottom: "ConvNd_3"
  bottom: "ConvNd_4"
  bottom: "Add_1"
  bottom: "Add_2"
  bottom: "Add_3"
  top: "Concat_2"
  concat_param {
    axis: 1
  }
}
layer {
  name: "BatchNorm_3"
  type: "BatchNorm"
  bottom: "Concat_2"
  top: "BatchNorm_3"
  param {
    lr_mult: 1
    decay_mult: 0
  }
  param {
    lr_mult: 1
    decay_mult: 0
  }
  param {
    lr_mult: 0
    decay_mult: 0
  }
  param {
    lr_mult: 0
    decay_mult: 0
  }
  batch_norm_param {
    use_global_stats: true
    eps: 1e-05
    scale_filler {
      type: "constant"
      value: 1
    }
    bias_filler {
      type: "constant"
      value: 0
    }
  }
}
layer {
  name: "Threshold_3"
  type: "ReLU"
  bottom: "BatchNorm_3"
  top: "BatchNorm_3"
}
layer {
  name: "ConvNd_8"
  type: "Convolution"
  bottom: "BatchNorm_3"
  top: "ConvNd_8"
  convolution_param {
    num_output: 12
    bias_term: false
    pad: 0
    kernel_size: 1
    group: 1
    stride: 1
    weight_filler {
      type: "msra"
    }
    dilation: 1
  }
}
layer {
  name: "ConvNd_9"
  type: "Convolution"
  bottom: "ConvNd_8"
  top: "ConvNd_9"
  convolution_param {
    num_output: 16
    bias_term: false
    pad: 1
    kernel_size: 3
    group: 1
    stride: 1
    weight_filler {
      type: "msra"
    }
    dilation: 1
  }
}
layer {
  name: "ConvNd_10"
  type: "Convolution"
  bottom: "ConvNd_8"
  top: "ConvNd_10"
  convolution_param {
    num_output: 12
    bias_term: false
    pad: 2
    kernel_size: 3
    group: 1
    stride: 1
    weight_filler {
      type: "msra"
    }
    dilation: 2
  }
}
layer {
  name: "ConvNd_11"
  type: "Convolution"
  bottom: "ConvNd_8"
  top: "ConvNd_11"
  convolution_param {
    num_output: 12
    bias_term: false
    pad: 4
    kernel_size: 3
    group: 1
    stride: 1
    weight_filler {
      type: "msra"
    }
    dilation: 4
  }
}
layer {
  name: "Add_4"
  type: "Eltwise"
  bottom: "ConvNd_10"
  bottom: "ConvNd_11"
  top: "Add_4"
}
layer {
  name: "ConvNd_12"
  type: "Convolution"
  bottom: "ConvNd_8"
  top: "ConvNd_12"
  convolution_param {
    num_output: 12
    bias_term: false
    pad: 8
    kernel_size: 3
    group: 1
    stride: 1
    weight_filler {
      type: "msra"
    }
    dilation: 8
  }
}
layer {
  name: "Add_5"
  type: "Eltwise"
  bottom: "Add_4"
  bottom: "ConvNd_12"
  top: "Add_5"
}
layer {
  name: "ConvNd_13"
  type: "Convolution"
  bottom: "ConvNd_8"
  top: "ConvNd_13"
  convolution_param {
    num_output: 12
    bias_term: false
    pad: 16
    kernel_size: 3
    group: 1
    stride: 1
    weight_filler {
      type: "msra"
    }
    dilation: 16
  }
}
layer {
  name: "Add_6"
  type: "Eltwise"
  bottom: "Add_5"
  bottom: "ConvNd_13"
  top: "Add_6"
}
layer {
  name: "Concat_3"
  type: "Concat"
  bottom: "ConvNd_9"
  bottom: "ConvNd_10"
  bottom: "Add_4"
  bottom: "Add_5"
  bottom: "Add_6"
  top: "Concat_3"
  concat_param {
    axis: 1
  }
}
layer {
  name: "Add_7"
  type: "Eltwise"
  bottom: "BatchNorm_3"
  bottom: "Concat_3"
  top: "Add_7"
}
layer {
  name: "BatchNorm_4"
  type: "BatchNorm"
  bottom: "Add_7"
  top: "BatchNorm_4"
  param {
    lr_mult: 1
    decay_mult: 0
  }
  param {
    lr_mult: 1
    decay_mult: 0
  }
  param {
    lr_mult: 0
    decay_mult: 0
  }
  param {
    lr_mult: 0
    decay_mult: 0
  }
  batch_norm_param {
    use_global_stats: true
    eps: 1e-05
    scale_filler {
      type: "constant"
      value: 1
    }
    bias_filler {
      type: "constant"
      value: 0
    }
  }
}
layer {
  name: "Threshold_4"
  type: "ReLU"
  bottom: "BatchNorm_4"
  top: "BatchNorm_4"
}
layer {
  name: "ConvNd_14"
  type: "Convolution"
  bottom: "BatchNorm_4"
  top: "ConvNd_14"
  convolution_param {
    num_output: 12
    bias_term: false
    pad: 0
    kernel_size: 1
    group: 1
    stride: 1
    weight_filler {
      type: "msra"
    }
    dilation: 1
  }
}
layer {
  name: "ConvNd_15"
  type: "Convolution"
  bottom: "ConvNd_14"
  top: "ConvNd_15"
  convolution_param {
    num_output: 16
    bias_term: false
    pad: 1
    kernel_size: 3
    group: 1
    stride: 1
    weight_filler {
      type: "msra"
    }
    dilation: 1
  }
}
layer {
  name: "ConvNd_16"
  type: "Convolution"
  bottom: "ConvNd_14"
  top: "ConvNd_16"
  convolution_param {
    num_output: 12
    bias_term: false
    pad: 2
    kernel_size: 3
    group: 1
    stride: 1
    weight_filler {
      type: "msra"
    }
    dilation: 2
  }
}
layer {
  name: "ConvNd_17"
  type: "Convolution"
  bottom: "ConvNd_14"
  top: "ConvNd_17"
  convolution_param {
    num_output: 12
    bias_term: false
    pad: 4
    kernel_size: 3
    group: 1
    stride: 1
    weight_filler {
      type: "msra"
    }
    dilation: 4
  }
}
layer {
  name: "Add_8"
  type: "Eltwise"
  bottom: "ConvNd_16"
  bottom: "ConvNd_17"
  top: "Add_8"
}
layer {
  name: "ConvNd_18"
  type: "Convolution"
  bottom: "ConvNd_14"
  top: "ConvNd_18"
  convolution_param {
    num_output: 12
    bias_term: false
    pad: 8
    kernel_size: 3
    group: 1
    stride: 1
    weight_filler {
      type: "msra"
    }
    dilation: 8
  }
}
layer {
  name: "Add_9"
  type: "Eltwise"
  bottom: "Add_8"
  bottom: "ConvNd_18"
  top: "Add_9"
}
layer {
  name: "ConvNd_19"
  type: "Convolution"
  bottom: "ConvNd_14"
  top: "ConvNd_19"
  convolution_param {
    num_output: 12
    bias_term: false
    pad: 16
    kernel_size: 3
    group: 1
    stride: 1
    weight_filler {
      type: "msra"
    }
    dilation: 16
  }
}
layer {
  name: "Add_10"
  type: "Eltwise"
  bottom: "Add_9"
  bottom: "ConvNd_19"
  top: "Add_10"
}
layer {
  name: "Concat_4"
  type: "Concat"
  bottom: "ConvNd_15"
  bottom: "ConvNd_16"
  bottom: "Add_8"
  bottom: "Add_9"
  bottom: "Add_10"
  top: "Concat_4"
  concat_param {
    axis: 1
  }
}
layer {
  name: "Add_11"
  type: "Eltwise"
  bottom: "BatchNorm_4"
  bottom: "Concat_4"
  top: "Add_11"
}
layer {
  name: "BatchNorm_5"
  type: "BatchNorm"
  bottom: "Add_11"
  top: "BatchNorm_5"
  param {
    lr_mult: 1
    decay_mult: 0
  }
  param {
    lr_mult: 1
    decay_mult: 0
  }
  param {
    lr_mult: 0
    decay_mult: 0
  }
  param {
    lr_mult: 0
    decay_mult: 0
  }
  batch_norm_param {
    use_global_stats: true
    eps: 1e-05
    scale_filler {
      type: "constant"
      value: 1
    }
    bias_filler {
      type: "constant"
      value: 0
    }
  }
}
layer {
  name: "Threshold_5"
  type: "ReLU"
  bottom: "BatchNorm_5"
  top: "BatchNorm_5"
}
layer {
  name: "AvgPool2d_2"
  type: "Pooling"
  bottom: "data"
  top: "AvgPool2d_2"
  pooling_param {
    pool: AVE
    kernel_size: 3
    stride: 2
    pad: 0
  }
}
layer {
  name: "AvgPool2d_3"
  type: "Pooling"
  bottom: "AvgPool2d_2"
  top: "AvgPool2d_3"
  pooling_param {
    pool: AVE
    kernel_size: 3
    stride: 2
    pad: 0
  }
}
layer {
  name: "Concat_5"
  type: "Concat"
  bottom: "BatchNorm_5"
  bottom: "BatchNorm_3"
  bottom: "AvgPool2d_3"
  top: "Concat_5"
  concat_param {
    axis: 1
  }
}
layer {
  name: "BatchNorm_6"
  type: "BatchNorm"
  bottom: "Concat_5"
  top: "BatchNorm_6"
  param {
    lr_mult: 1
    decay_mult: 0
  }
  param {
    lr_mult: 1
    decay_mult: 0
  }
  param {
    lr_mult: 0
    decay_mult: 0
  }
  param {
    lr_mult: 0
    decay_mult: 0
  }
  batch_norm_param {
    use_global_stats: true
    eps: 1e-05
    scale_filler {
      type: "constant"
      value: 1
    }
    bias_filler {
      type: "constant"
      value: 0
    }
  }
}
layer {
  name: "Threshold_6"
  type: "ReLU"
  bottom: "BatchNorm_6"
  top: "BatchNorm_6"
}
layer {
  name: "ConvNd_20"
  type: "Convolution"
  bottom: "BatchNorm_6"
  top: "ConvNd_20"
  convolution_param {
    num_output: 19
    bias_term: false
    pad: 0
    kernel_size: 1
    group: 1
    stride: 1
    weight_filler {
      type: "msra"
    }
    dilation: 1
  }
}
layer {
  name: "ConvNd_21"
  type: "Convolution"
  bottom: "BatchNorm_6"
  top: "ConvNd_21"
  convolution_param {
    num_output: 25
    bias_term: false
    pad: 1
    kernel_size: 3
    group: 1
    stride: 2
    weight_filler {
      type: "msra"
    }
    dilation: 1
  }
}
layer {
  name: "ConvNd_22"
  type: "Convolution"
  bottom: "ConvNd_21"
  top: "ConvNd_22"
  convolution_param {
    num_output: 28
    bias_term: false
    pad: 1
    kernel_size: 3
    group: 1
    stride: 1
    weight_filler {
      type: "msra"
    }
    dilation: 1
  }
}
layer {
  name: "ConvNd_23"
  type: "Convolution"
  bottom: "ConvNd_21"
  top: "ConvNd_23"
  convolution_param {
    num_output: 25
    bias_term: false
    pad: 2
    kernel_size: 3
    group: 1
    stride: 1
    weight_filler {
      type: "msra"
    }
    dilation: 2
  }
}
layer {
  name: "ConvNd_24"
  type: "Convolution"
  bottom: "ConvNd_21"
  top: "ConvNd_24"
  convolution_param {
    num_output: 25
    bias_term: false
    pad: 4
    kernel_size: 3
    group: 1
    stride: 1
    weight_filler {
      type: "msra"
    }
    dilation: 4
  }
}
layer {
  name: "Add_12"
  type: "Eltwise"
  bottom: "ConvNd_23"
  bottom: "ConvNd_24"
  top: "Add_12"
}
layer {
  name: "ConvNd_25"
  type: "Convolution"
  bottom: "ConvNd_21"
  top: "ConvNd_25"
  convolution_param {
    num_output: 25
    bias_term: false
    pad: 8
    kernel_size: 3
    group: 1
    stride: 1
    weight_filler {
      type: "msra"
    }
    dilation: 8
  }
}
layer {
  name: "Add_13"
  type: "Eltwise"
  bottom: "Add_12"
  bottom: "ConvNd_25"
  top: "Add_13"
}
layer {
  name: "ConvNd_26"
  type: "Convolution"
  bottom: "ConvNd_21"
  top: "ConvNd_26"
  convolution_param {
    num_output: 25
    bias_term: false
    pad: 16
    kernel_size: 3
    group: 1
    stride: 1
    weight_filler {
      type: "msra"
    }
    dilation: 16
  }
}
layer {
  name: "Add_14"
  type: "Eltwise"
  bottom: "Add_13"
  bottom: "ConvNd_26"
  top: "Add_14"
}
layer {
  name: "Concat_6"
  type: "Concat"
  bottom: "ConvNd_22"
  bottom: "ConvNd_23"
  bottom: "Add_12"
  bottom: "Add_13"
  bottom: "Add_14"
  top: "Concat_6"
  concat_param {
    axis: 1
  }
}
layer {
  name: "BatchNorm_7"
  type: "BatchNorm"
  bottom: "Concat_6"
  top: "BatchNorm_7"
  param {
    lr_mult: 1
    decay_mult: 0
  }
  param {
    lr_mult: 1
    decay_mult: 0
  }
  param {
    lr_mult: 0
    decay_mult: 0
  }
  param {
    lr_mult: 0
    decay_mult: 0
  }
  batch_norm_param {
    use_global_stats: true
    eps: 1e-05
    scale_filler {
      type: "constant"
      value: 1
    }
    bias_filler {
      type: "constant"
      value: 0
    }
  }
}
layer {
  name: "Threshold_7"
  type: "ReLU"
  bottom: "BatchNorm_7"
  top: "BatchNorm_7"
}
layer {
  name: "ConvNd_27"
  type: "Convolution"
  bottom: "BatchNorm_7"
  top: "ConvNd_27"
  convolution_param {
    num_output: 25
    bias_term: false
    pad: 0
    kernel_size: 1
    group: 1
    stride: 1
    weight_filler {
      type: "msra"
    }
    dilation: 1
  }
}
layer {
  name: "ConvNd_28"
  type: "Convolution"
  bottom: "ConvNd_27"
  top: "ConvNd_28"
  convolution_param {
    num_output: 28
    bias_term: false
    pad: 1
    kernel_size: 3
    group: 1
    stride: 1
    weight_filler {
      type: "msra"
    }
    dilation: 1
  }
}
layer {
  name: "ConvNd_29"
  type: "Convolution"
  bottom: "ConvNd_27"
  top: "ConvNd_29"
  convolution_param {
    num_output: 25
    bias_term: false
    pad: 2
    kernel_size: 3
    group: 1
    stride: 1
    weight_filler {
      type: "msra"
    }
    dilation: 2
  }
}
layer {
  name: "ConvNd_30"
  type: "Convolution"
  bottom: "ConvNd_27"
  top: "ConvNd_30"
  convolution_param {
    num_output: 25
    bias_term: false
    pad: 4
    kernel_size: 3
    group: 1
    stride: 1
    weight_filler {
      type: "msra"
    }
    dilation: 4
  }
}
layer {
  name: "Add_15"
  type: "Eltwise"
  bottom: "ConvNd_29"
  bottom: "ConvNd_30"
  top: "Add_15"
}
layer {
  name: "ConvNd_31"
  type: "Convolution"
  bottom: "ConvNd_27"
  top: "ConvNd_31"
  convolution_param {
    num_output: 25
    bias_term: false
    pad: 8
    kernel_size: 3
    group: 1
    stride: 1
    weight_filler {
      type: "msra"
    }
    dilation: 8
  }
}
layer {
  name: "Add_16"
  type: "Eltwise"
  bottom: "Add_15"
  bottom: "ConvNd_31"
  top: "Add_16"
}
layer {
  name: "ConvNd_32"
  type: "Convolution"
  bottom: "ConvNd_27"
  top: "ConvNd_32"
  convolution_param {
    num_output: 25
    bias_term: false
    pad: 16
    kernel_size: 3
    group: 1
    stride: 1
    weight_filler {
      type: "msra"
    }
    dilation: 16
  }
}
layer {
  name: "Add_17"
  type: "Eltwise"
  bottom: "Add_16"
  bottom: "ConvNd_32"
  top: "Add_17"
}
layer {
  name: "Concat_7"
  type: "Concat"
  bottom: "ConvNd_28"
  bottom: "ConvNd_29"
  bottom: "Add_15"
  bottom: "Add_16"
  bottom: "Add_17"
  top: "Concat_7"
  concat_param {
    axis: 1
  }
}
layer {
  name: "Add_18"
  type: "Eltwise"
  bottom: "BatchNorm_7"
  bottom: "Concat_7"
  top: "Add_18"
}
layer {
  name: "BatchNorm_8"
  type: "BatchNorm"
  bottom: "Add_18"
  top: "BatchNorm_8"
  param {
    lr_mult: 1
    decay_mult: 0
  }
  param {
    lr_mult: 1
    decay_mult: 0
  }
  param {
    lr_mult: 0
    decay_mult: 0
  }
  param {
    lr_mult: 0
    decay_mult: 0
  }
  batch_norm_param {
    use_global_stats: true
    eps: 1e-05
    scale_filler {
      type: "constant"
      value: 1
    }
    bias_filler {
      type: "constant"
      value: 0
    }
  }
}
layer {
  name: "Threshold_8"
  type: "ReLU"
  bottom: "BatchNorm_8"
  top: "BatchNorm_8"
}
layer {
  name: "ConvNd_33"
  type: "Convolution"
  bottom: "BatchNorm_8"
  top: "ConvNd_33"
  convolution_param {
    num_output: 25
    bias_term: false
    pad: 0
    kernel_size: 1
    group: 1
    stride: 1
    weight_filler {
      type: "msra"
    }
    dilation: 1
  }
}
layer {
  name: "ConvNd_34"
  type: "Convolution"
  bottom: "ConvNd_33"
  top: "ConvNd_34"
  convolution_param {
    num_output: 28
    bias_term: false
    pad: 1
    kernel_size: 3
    group: 1
    stride: 1
    weight_filler {
      type: "msra"
    }
    dilation: 1
  }
}
layer {
  name: "ConvNd_35"
  type: "Convolution"
  bottom: "ConvNd_33"
  top: "ConvNd_35"
  convolution_param {
    num_output: 25
    bias_term: false
    pad: 2
    kernel_size: 3
    group: 1
    stride: 1
    weight_filler {
      type: "msra"
    }
    dilation: 2
  }
}
layer {
  name: "ConvNd_36"
  type: "Convolution"
  bottom: "ConvNd_33"
  top: "ConvNd_36"
  convolution_param {
    num_output: 25
    bias_term: false
    pad: 4
    kernel_size: 3
    group: 1
    stride: 1
    weight_filler {
      type: "msra"
    }
    dilation: 4
  }
}
layer {
  name: "Add_19"
  type: "Eltwise"
  bottom: "ConvNd_35"
  bottom: "ConvNd_36"
  top: "Add_19"
}
layer {
  name: "ConvNd_37"
  type: "Convolution"
  bottom: "ConvNd_33"
  top: "ConvNd_37"
  convolution_param {
    num_output: 25
    bias_term: false
    pad: 8
    kernel_size: 3
    group: 1
    stride: 1
    weight_filler {
      type: "msra"
    }
    dilation: 8
  }
}
layer {
  name: "Add_20"
  type: "Eltwise"
  bottom: "Add_19"
  bottom: "ConvNd_37"
  top: "Add_20"
}
layer {
  name: "ConvNd_38"
  type: "Convolution"
  bottom: "ConvNd_33"
  top: "ConvNd_38"
  convolution_param {
    num_output: 25
    bias_term: false
    pad: 16
    kernel_size: 3
    group: 1
    stride: 1
    weight_filler {
      type: "msra"
    }
    dilation: 16
  }
}
layer {
  name: "Add_21"
  type: "Eltwise"
  bottom: "Add_20"
  bottom: "ConvNd_38"
  top: "Add_21"
}
layer {
  name: "Concat_8"
  type: "Concat"
  bottom: "ConvNd_34"
  bottom: "ConvNd_35"
  bottom: "Add_19"
  bottom: "Add_20"
  bottom: "Add_21"
  top: "Concat_8"
  concat_param {
    axis: 1
  }
}
layer {
  name: "Add_22"
  type: "Eltwise"
  bottom: "BatchNorm_8"
  bottom: "Concat_8"
  top: "Add_22"
}
layer {
  name: "BatchNorm_9"
  type: "BatchNorm"
  bottom: "Add_22"
  top: "BatchNorm_9"
  param {
    lr_mult: 1
    decay_mult: 0
  }
  param {
    lr_mult: 1
    decay_mult: 0
  }
  param {
    lr_mult: 0
    decay_mult: 0
  }
  param {
    lr_mult: 0
    decay_mult: 0
  }
  batch_norm_param {
    use_global_stats: true
    eps: 1e-05
    scale_filler {
      type: "constant"
      value: 1
    }
    bias_filler {
      type: "constant"
      value: 0
    }
  }
}
layer {
  name: "Threshold_9"
  type: "ReLU"
  bottom: "BatchNorm_9"
  top: "BatchNorm_9"
}
layer {
  name: "ConvNd_39"
  type: "Convolution"
  bottom: "BatchNorm_9"
  top: "ConvNd_39"
  convolution_param {
    num_output: 25
    bias_term: false
    pad: 0
    kernel_size: 1
    group: 1
    stride: 1
    weight_filler {
      type: "msra"
    }
    dilation: 1
  }
}
layer {
  name: "ConvNd_40"
  type: "Convolution"
  bottom: "ConvNd_39"
  top: "ConvNd_40"
  convolution_param {
    num_output: 28
    bias_term: false
    pad: 1
    kernel_size: 3
    group: 1
    stride: 1
    weight_filler {
      type: "msra"
    }
    dilation: 1
  }
}
layer {
  name: "ConvNd_41"
  type: "Convolution"
  bottom: "ConvNd_39"
  top: "ConvNd_41"
  convolution_param {
    num_output: 25
    bias_term: false
    pad: 2
    kernel_size: 3
    group: 1
    stride: 1
    weight_filler {
      type: "msra"
    }
    dilation: 2
  }
}
layer {
  name: "ConvNd_42"
  type: "Convolution"
  bottom: "ConvNd_39"
  top: "ConvNd_42"
  convolution_param {
    num_output: 25
    bias_term: false
    pad: 4
    kernel_size: 3
    group: 1
    stride: 1
    weight_filler {
      type: "msra"
    }
    dilation: 4
  }
}
layer {
  name: "Add_23"
  type: "Eltwise"
  bottom: "ConvNd_41"
  bottom: "ConvNd_42"
  top: "Add_23"
}
layer {
  name: "ConvNd_43"
  type: "Convolution"
  bottom: "ConvNd_39"
  top: "ConvNd_43"
  convolution_param {
    num_output: 25
    bias_term: false
    pad: 8
    kernel_size: 3
    group: 1
    stride: 1
    weight_filler {
      type: "msra"
    }
    dilation: 8
  }
}
layer {
  name: "Add_24"
  type: "Eltwise"
  bottom: "Add_23"
  bottom: "ConvNd_43"
  top: "Add_24"
}
layer {
  name: "ConvNd_44"
  type: "Convolution"
  bottom: "ConvNd_39"
  top: "ConvNd_44"
  convolution_param {
    num_output: 25
    bias_term: false
    pad: 16
    kernel_size: 3
    group: 1
    stride: 1
    weight_filler {
      type: "msra"
    }
    dilation: 16
  }
}
layer {
  name: "Add_25"
  type: "Eltwise"
  bottom: "Add_24"
  bottom: "ConvNd_44"
  top: "Add_25"
}
layer {
  name: "Concat_9"
  type: "Concat"
  bottom: "ConvNd_40"
  bottom: "ConvNd_41"
  bottom: "Add_23"
  bottom: "Add_24"
  bottom: "Add_25"
  top: "Concat_9"
  concat_param {
    axis: 1
  }
}
layer {
  name: "Add_26"
  type: "Eltwise"
  bottom: "BatchNorm_9"
  bottom: "Concat_9"
  top: "Add_26"
}
layer {
  name: "BatchNorm_10"
  type: "BatchNorm"
  bottom: "Add_26"
  top: "BatchNorm_10"
  param {
    lr_mult: 1
    decay_mult: 0
  }
  param {
    lr_mult: 1
    decay_mult: 0
  }
  param {
    lr_mult: 0
    decay_mult: 0
  }
  param {
    lr_mult: 0
    decay_mult: 0
  }
  batch_norm_param {
    use_global_stats: true
    eps: 1e-05
    scale_filler {
      type: "constant"
      value: 1
    }
    bias_filler {
      type: "constant"
      value: 0
    }
  }
}
layer {
  name: "Threshold_10"
  type: "ReLU"
  bottom: "BatchNorm_10"
  top: "BatchNorm_10"
}
layer {
  name: "ConvNd_45"
  type: "Convolution"
  bottom: "BatchNorm_10"
  top: "ConvNd_45"
  convolution_param {
    num_output: 25
    bias_term: false
    pad: 0
    kernel_size: 1
    group: 1
    stride: 1
    weight_filler {
      type: "msra"
    }
    dilation: 1
  }
}
layer {
  name: "ConvNd_46"
  type: "Convolution"
  bottom: "ConvNd_45"
  top: "ConvNd_46"
  convolution_param {
    num_output: 28
    bias_term: false
    pad: 1
    kernel_size: 3
    group: 1
    stride: 1
    weight_filler {
      type: "msra"
    }
    dilation: 1
  }
}
layer {
  name: "ConvNd_47"
  type: "Convolution"
  bottom: "ConvNd_45"
  top: "ConvNd_47"
  convolution_param {
    num_output: 25
    bias_term: false
    pad: 2
    kernel_size: 3
    group: 1
    stride: 1
    weight_filler {
      type: "msra"
    }
    dilation: 2
  }
}
layer {
  name: "ConvNd_48"
  type: "Convolution"
  bottom: "ConvNd_45"
  top: "ConvNd_48"
  convolution_param {
    num_output: 25
    bias_term: false
    pad: 4
    kernel_size: 3
    group: 1
    stride: 1
    weight_filler {
      type: "msra"
    }
    dilation: 4
  }
}
layer {
  name: "Add_27"
  type: "Eltwise"
  bottom: "ConvNd_47"
  bottom: "ConvNd_48"
  top: "Add_27"
}
layer {
  name: "ConvNd_49"
  type: "Convolution"
  bottom: "ConvNd_45"
  top: "ConvNd_49"
  convolution_param {
    num_output: 25
    bias_term: false
    pad: 8
    kernel_size: 3
    group: 1
    stride: 1
    weight_filler {
      type: "msra"
    }
    dilation: 8
  }
}
layer {
  name: "Add_28"
  type: "Eltwise"
  bottom: "Add_27"
  bottom: "ConvNd_49"
  top: "Add_28"
}
layer {
  name: "ConvNd_50"
  type: "Convolution"
  bottom: "ConvNd_45"
  top: "ConvNd_50"
  convolution_param {
    num_output: 25
    bias_term: false
    pad: 16
    kernel_size: 3
    group: 1
    stride: 1
    weight_filler {
      type: "msra"
    }
    dilation: 16
  }
}
layer {
  name: "Add_29"
  type: "Eltwise"
  bottom: "Add_28"
  bottom: "ConvNd_50"
  top: "Add_29"
}
layer {
  name: "Concat_10"
  type: "Concat"
  bottom: "ConvNd_46"
  bottom: "ConvNd_47"
  bottom: "Add_27"
  bottom: "Add_28"
  bottom: "Add_29"
  top: "Concat_10"
  concat_param {
    axis: 1
  }
}
layer {
  name: "Add_30"
  type: "Eltwise"
  bottom: "BatchNorm_10"
  bottom: "Concat_10"
  top: "Add_30"
}
layer {
  name: "BatchNorm_11"
  type: "BatchNorm"
  bottom: "Add_30"
  top: "BatchNorm_11"
  param {
    lr_mult: 1
    decay_mult: 0
  }
  param {
    lr_mult: 1
    decay_mult: 0
  }
  param {
    lr_mult: 0
    decay_mult: 0
  }
  param {
    lr_mult: 0
    decay_mult: 0
  }
  batch_norm_param {
    use_global_stats: true
    eps: 1e-05
    scale_filler {
      type: "constant"
      value: 1
    }
    bias_filler {
      type: "constant"
      value: 0
    }
  }
}
layer {
  name: "Threshold_11"
  type: "ReLU"
  bottom: "BatchNorm_11"
  top: "BatchNorm_11"
}
layer {
  name: "ConvNd_51"
  type: "Convolution"
  bottom: "BatchNorm_11"
  top: "ConvNd_51"
  convolution_param {
    num_output: 25
    bias_term: false
    pad: 0
    kernel_size: 1
    group: 1
    stride: 1
    weight_filler {
      type: "msra"
    }
    dilation: 1
  }
}
layer {
  name: "ConvNd_52"
  type: "Convolution"
  bottom: "ConvNd_51"
  top: "ConvNd_52"
  convolution_param {
    num_output: 28
    bias_term: false
    pad: 1
    kernel_size: 3
    group: 1
    stride: 1
    weight_filler {
      type: "msra"
    }
    dilation: 1
  }
}
layer {
  name: "ConvNd_53"
  type: "Convolution"
  bottom: "ConvNd_51"
  top: "ConvNd_53"
  convolution_param {
    num_output: 25
    bias_term: false
    pad: 2
    kernel_size: 3
    group: 1
    stride: 1
    weight_filler {
      type: "msra"
    }
    dilation: 2
  }
}
layer {
  name: "ConvNd_54"
  type: "Convolution"
  bottom: "ConvNd_51"
  top: "ConvNd_54"
  convolution_param {
    num_output: 25
    bias_term: false
    pad: 4
    kernel_size: 3
    group: 1
    stride: 1
    weight_filler {
      type: "msra"
    }
    dilation: 4
  }
}
layer {
  name: "Add_31"
  type: "Eltwise"
  bottom: "ConvNd_53"
  bottom: "ConvNd_54"
  top: "Add_31"
}
layer {
  name: "ConvNd_55"
  type: "Convolution"
  bottom: "ConvNd_51"
  top: "ConvNd_55"
  convolution_param {
    num_output: 25
    bias_term: false
    pad: 8
    kernel_size: 3
    group: 1
    stride: 1
    weight_filler {
      type: "msra"
    }
    dilation: 8
  }
}
layer {
  name: "Add_32"
  type: "Eltwise"
  bottom: "Add_31"
  bottom: "ConvNd_55"
  top: "Add_32"
}
layer {
  name: "ConvNd_56"
  type: "Convolution"
  bottom: "ConvNd_51"
  top: "ConvNd_56"
  convolution_param {
    num_output: 25
    bias_term: false
    pad: 16
    kernel_size: 3
    group: 1
    stride: 1
    weight_filler {
      type: "msra"
    }
    dilation: 16
  }
}
layer {
  name: "Add_33"
  type: "Eltwise"
  bottom: "Add_32"
  bottom: "ConvNd_56"
  top: "Add_33"
}
layer {
  name: "Concat_11"
  type: "Concat"
  bottom: "ConvNd_52"
  bottom: "ConvNd_53"
  bottom: "Add_31"
  bottom: "Add_32"
  bottom: "Add_33"
  top: "Concat_11"
  concat_param {
    axis: 1
  }
}
layer {
  name: "Add_34"
  type: "Eltwise"
  bottom: "BatchNorm_11"
  bottom: "Concat_11"
  top: "Add_34"
}
layer {
  name: "BatchNorm_12"
  type: "BatchNorm"
  bottom: "Add_34"
  top: "BatchNorm_12"
  param {
    lr_mult: 1
    decay_mult: 0
  }
  param {
    lr_mult: 1
    decay_mult: 0
  }
  param {
    lr_mult: 0
    decay_mult: 0
  }
  param {
    lr_mult: 0
    decay_mult: 0
  }
  batch_norm_param {
    use_global_stats: true
    eps: 1e-05
    scale_filler {
      type: "constant"
      value: 1
    }
    bias_filler {
      type: "constant"
      value: 0
    }
  }
}
layer {
  name: "Threshold_12"
  type: "ReLU"
  bottom: "BatchNorm_12"
  top: "BatchNorm_12"
}
layer {
  name: "ConvNd_57"
  type: "Convolution"
  bottom: "BatchNorm_12"
  top: "ConvNd_57"
  convolution_param {
    num_output: 25
    bias_term: false
    pad: 0
    kernel_size: 1
    group: 1
    stride: 1
    weight_filler {
      type: "msra"
    }
    dilation: 1
  }
}
layer {
  name: "ConvNd_58"
  type: "Convolution"
  bottom: "ConvNd_57"
  top: "ConvNd_58"
  convolution_param {
    num_output: 28
    bias_term: false
    pad: 1
    kernel_size: 3
    group: 1
    stride: 1
    weight_filler {
      type: "msra"
    }
    dilation: 1
  }
}
layer {
  name: "ConvNd_59"
  type: "Convolution"
  bottom: "ConvNd_57"
  top: "ConvNd_59"
  convolution_param {
    num_output: 25
    bias_term: false
    pad: 2
    kernel_size: 3
    group: 1
    stride: 1
    weight_filler {
      type: "msra"
    }
    dilation: 2
  }
}
layer {
  name: "ConvNd_60"
  type: "Convolution"
  bottom: "ConvNd_57"
  top: "ConvNd_60"
  convolution_param {
    num_output: 25
    bias_term: 
I0224 07:36:01.494091  1325 layer_factory.hpp:123] Creating layer data
I0224 07:36:01.494119  1325 net.cpp:140] Creating Layer data
I0224 07:36:01.494128  1325 net.cpp:455] data -> data
I0224 07:36:01.494143  1325 net.cpp:455] data -> label
I0224 07:36:01.494168  1325 image_data_layer.cpp:87] Opening file /workspace/Segment/VAI/data/cityscapes/calibration.txt
I0224 07:36:01.494750  1325 image_data_layer.cpp:97] Shuffling data
I0224 07:36:01.494870  1325 image_data_layer.cpp:102] A total of 1000 images.
I0224 07:36:01.577200  1325 image_data_layer.cpp:130] output data size: 1,3,512,1024
I0224 07:36:01.603706  1325 internal_thread.cpp:73] Starting internal thread(s) on GPU 0
I0224 07:36:01.603835  1325 net.cpp:190] Setting up data
I0224 07:36:01.603844  1325 net.cpp:197] Top shape: 1 3 512 1024 (1572864)
I0224 07:36:01.603854  1325 net.cpp:197] Top shape: 1 (1)
I0224 07:36:01.603858  1325 net.cpp:205] Memory required for data: 6291460
I0224 07:36:01.603863  1325 layer_factory.hpp:123] Creating layer data_data_0_split
I0224 07:36:01.603878  1325 net.cpp:140] Creating Layer data_data_0_split
I0224 07:36:01.603883  1325 net.cpp:481] data_data_0_split <- data
I0224 07:36:01.603891  1325 net.cpp:455] data_data_0_split -> data_data_0_split_0
I0224 07:36:01.603902  1325 net.cpp:455] data_data_0_split -> data_data_0_split_1
I0224 07:36:01.603910  1325 net.cpp:455] data_data_0_split -> data_data_0_split_2
I0224 07:36:01.603965  1325 net.cpp:190] Setting up data_data_0_split
I0224 07:36:01.603972  1325 net.cpp:197] Top shape: 1 3 512 1024 (1572864)
I0224 07:36:01.603977  1325 net.cpp:197] Top shape: 1 3 512 1024 (1572864)
I0224 07:36:01.603981  1325 net.cpp:197] Top shape: 1 3 512 1024 (1572864)
I0224 07:36:01.603986  1325 net.cpp:205] Memory required for data: 25165828
I0224 07:36:01.603989  1325 layer_factory.hpp:123] Creating layer ConvNd_1
I0224 07:36:01.604003  1325 net.cpp:140] Creating Layer ConvNd_1
I0224 07:36:01.604009  1325 net.cpp:481] ConvNd_1 <- data_data_0_split_0
I0224 07:36:01.604015  1325 net.cpp:455] ConvNd_1 -> ConvNd_1
I0224 07:36:01.604301  1325 net.cpp:190] Setting up ConvNd_1
I0224 07:36:01.604310  1325 net.cpp:197] Top shape: 1 16 256 512 (2097152)
I0224 07:36:01.604315  1325 net.cpp:205] Memory required for data: 33554436
I0224 07:36:01.604336  1325 layer_factory.hpp:123] Creating layer BatchNorm_1
I0224 07:36:01.604344  1325 net.cpp:140] Creating Layer BatchNorm_1
I0224 07:36:01.604348  1325 net.cpp:481] BatchNorm_1 <- ConvNd_1
I0224 07:36:01.604355  1325 net.cpp:455] BatchNorm_1 -> BatchNorm_1
I0224 07:36:01.604955  1325 net.cpp:190] Setting up BatchNorm_1
I0224 07:36:01.604964  1325 net.cpp:197] Top shape: 1 16 256 512 (2097152)
I0224 07:36:01.604970  1325 net.cpp:205] Memory required for data: 41943044
I0224 07:36:01.604980  1325 layer_factory.hpp:123] Creating layer Threshold_1
I0224 07:36:01.604987  1325 net.cpp:140] Creating Layer Threshold_1
I0224 07:36:01.604990  1325 net.cpp:481] Threshold_1 <- BatchNorm_1
I0224 07:36:01.604995  1325 net.cpp:442] Threshold_1 -> BatchNorm_1 (in-place)
I0224 07:36:01.605005  1325 net.cpp:190] Setting up Threshold_1
I0224 07:36:01.605008  1325 net.cpp:197] Top shape: 1 16 256 512 (2097152)
I0224 07:36:01.605012  1325 net.cpp:205] Memory required for data: 50331652
I0224 07:36:01.605015  1325 layer_factory.hpp:123] Creating layer BatchNorm_1_Threshold_1_0_split
I0224 07:36:01.605020  1325 net.cpp:140] Creating Layer BatchNorm_1_Threshold_1_0_split
I0224 07:36:01.605023  1325 net.cpp:481] BatchNorm_1_Threshold_1_0_split <- BatchNorm_1
I0224 07:36:01.605028  1325 net.cpp:455] BatchNorm_1_Threshold_1_0_split -> BatchNorm_1_Threshold_1_0_split_0
I0224 07:36:01.605033  1325 net.cpp:455] BatchNorm_1_Threshold_1_0_split -> BatchNorm_1_Threshold_1_0_split_1
I0224 07:36:01.605062  1325 net.cpp:190] Setting up BatchNorm_1_Threshold_1_0_split
I0224 07:36:01.605065  1325 net.cpp:197] Top shape: 1 16 256 512 (2097152)
I0224 07:36:01.605070  1325 net.cpp:197] Top shape: 1 16 256 512 (2097152)
I0224 07:36:01.605074  1325 net.cpp:205] Memory required for data: 67108868
I0224 07:36:01.605077  1325 layer_factory.hpp:123] Creating layer AvgPool2d_1
I0224 07:36:01.605084  1325 net.cpp:140] Creating Layer AvgPool2d_1
I0224 07:36:01.605088  1325 net.cpp:481] AvgPool2d_1 <- data_data_0_split_1
I0224 07:36:01.605093  1325 net.cpp:455] AvgPool2d_1 -> AvgPool2d_1
I0224 07:36:01.605113  1325 net.cpp:190] Setting up AvgPool2d_1
I0224 07:36:01.605116  1325 net.cpp:197] Top shape: 1 3 256 512 (393216)
I0224 07:36:01.605121  1325 net.cpp:205] Memory required for data: 68681732
I0224 07:36:01.605125  1325 layer_factory.hpp:123] Creating layer Concat_1
I0224 07:36:01.605137  1325 net.cpp:140] Creating Layer Concat_1
I0224 07:36:01.605142  1325 net.cpp:481] Concat_1 <- BatchNorm_1_Threshold_1_0_split_0
I0224 07:36:01.605149  1325 net.cpp:481] Concat_1 <- AvgPool2d_1
I0224 07:36:01.605154  1325 net.cpp:455] Concat_1 -> Concat_1
I0224 07:36:01.605176  1325 net.cpp:190] Setting up Concat_1
I0224 07:36:01.605182  1325 net.cpp:197] Top shape: 1 19 256 512 (2490368)
I0224 07:36:01.605188  1325 net.cpp:205] Memory required for data: 78643204
I0224 07:36:01.605191  1325 layer_factory.hpp:123] Creating layer BatchNorm_2
I0224 07:36:01.605199  1325 net.cpp:140] Creating Layer BatchNorm_2
I0224 07:36:01.605202  1325 net.cpp:481] BatchNorm_2 <- Concat_1
I0224 07:36:01.605209  1325 net.cpp:455] BatchNorm_2 -> BatchNorm_2
I0224 07:36:01.605962  1325 net.cpp:190] Setting up BatchNorm_2
I0224 07:36:01.605969  1325 net.cpp:197] Top shape: 1 19 256 512 (2490368)
I0224 07:36:01.605974  1325 net.cpp:205] Memory required for data: 88604676
I0224 07:36:01.605984  1325 layer_factory.hpp:123] Creating layer Threshold_2
I0224 07:36:01.605991  1325 net.cpp:140] Creating Layer Threshold_2
I0224 07:36:01.605995  1325 net.cpp:481] Threshold_2 <- BatchNorm_2
I0224 07:36:01.605999  1325 net.cpp:442] Threshold_2 -> BatchNorm_2 (in-place)
I0224 07:36:01.606005  1325 net.cpp:190] Setting up Threshold_2
I0224 07:36:01.606009  1325 net.cpp:197] Top shape: 1 19 256 512 (2490368)
I0224 07:36:01.606014  1325 net.cpp:205] Memory required for data: 98566148
I0224 07:36:01.606016  1325 layer_factory.hpp:123] Creating layer ConvNd_2
I0224 07:36:01.606024  1325 net.cpp:140] Creating Layer ConvNd_2
I0224 07:36:01.606026  1325 net.cpp:481] ConvNd_2 <- BatchNorm_2
I0224 07:36:01.606030  1325 net.cpp:455] ConvNd_2 -> ConvNd_2
I0224 07:36:01.606312  1325 net.cpp:190] Setting up ConvNd_2
I0224 07:36:01.606320  1325 net.cpp:197] Top shape: 1 12 128 256 (393216)
I0224 07:36:01.606326  1325 net.cpp:205] Memory required for data: 100139012
I0224 07:36:01.606331  1325 layer_factory.hpp:123] Creating layer ConvNd_2_ConvNd_2_0_split
I0224 07:36:01.606338  1325 net.cpp:140] Creating Layer ConvNd_2_ConvNd_2_0_split
I0224 07:36:01.606340  1325 net.cpp:481] ConvNd_2_ConvNd_2_0_split <- ConvNd_2
I0224 07:36:01.606346  1325 net.cpp:455] ConvNd_2_ConvNd_2_0_split -> ConvNd_2_ConvNd_2_0_split_0
I0224 07:36:01.606359  1325 net.cpp:455] ConvNd_2_ConvNd_2_0_split -> ConvNd_2_ConvNd_2_0_split_1
I0224 07:36:01.606364  1325 net.cpp:455] ConvNd_2_ConvNd_2_0_split -> ConvNd_2_ConvNd_2_0_split_2
I0224 07:36:01.606369  1325 net.cpp:455] ConvNd_2_ConvNd_2_0_split -> ConvNd_2_ConvNd_2_0_split_3
I0224 07:36:01.606374  1325 net.cpp:455] ConvNd_2_ConvNd_2_0_split -> ConvNd_2_ConvNd_2_0_split_4
I0224 07:36:01.606463  1325 net.cpp:190] Setting up ConvNd_2_ConvNd_2_0_split
I0224 07:36:01.606469  1325 net.cpp:197] Top shape: 1 12 128 256 (393216)
I0224 07:36:01.606474  1325 net.cpp:197] Top shape: 1 12 128 256 (393216)
I0224 07:36:01.606478  1325 net.cpp:197] Top shape: 1 12 128 256 (393216)
I0224 07:36:01.606482  1325 net.cpp:197] Top shape: 1 12 128 256 (393216)
I0224 07:36:01.606487  1325 net.cpp:197] Top shape: 1 12 128 256 (393216)
I0224 07:36:01.606489  1325 net.cpp:205] Memory required for data: 108003332
I0224 07:36:01.606493  1325 layer_factory.hpp:123] Creating layer ConvNd_3
I0224 07:36:01.606501  1325 net.cpp:140] Creating Layer ConvNd_3
I0224 07:36:01.606504  1325 net.cpp:481] ConvNd_3 <- ConvNd_2_ConvNd_2_0_split_0
I0224 07:36:01.606510  1325 net.cpp:455] ConvNd_3 -> ConvNd_3
I0224 07:36:01.606695  1325 net.cpp:190] Setting up ConvNd_3
I0224 07:36:01.606703  1325 net.cpp:197] Top shape: 1 16 128 256 (524288)
I0224 07:36:01.606709  1325 net.cpp:205] Memory required for data: 110100484
I0224 07:36:01.606714  1325 layer_factory.hpp:123] Creating layer ConvNd_4
I0224 07:36:01.606720  1325 net.cpp:140] Creating Layer ConvNd_4
I0224 07:36:01.606724  1325 net.cpp:481] ConvNd_4 <- ConvNd_2_ConvNd_2_0_split_1
I0224 07:36:01.606729  1325 net.cpp:455] ConvNd_4 -> ConvNd_4
I0224 07:36:01.606901  1325 net.cpp:190] Setting up ConvNd_4
I0224 07:36:01.606909  1325 net.cpp:197] Top shape: 1 12 128 256 (393216)
I0224 07:36:01.606912  1325 net.cpp:205] Memory required for data: 111673348
I0224 07:36:01.606917  1325 layer_factory.hpp:123] Creating layer ConvNd_4_ConvNd_4_0_split
I0224 07:36:01.606922  1325 net.cpp:140] Creating Layer ConvNd_4_ConvNd_4_0_split
I0224 07:36:01.606926  1325 net.cpp:481] ConvNd_4_ConvNd_4_0_split <- ConvNd_4
I0224 07:36:01.606931  1325 net.cpp:455] ConvNd_4_ConvNd_4_0_split -> ConvNd_4_ConvNd_4_0_split_0
I0224 07:36:01.606936  1325 net.cpp:455] ConvNd_4_ConvNd_4_0_split -> ConvNd_4_ConvNd_4_0_split_1
I0224 07:36:01.606961  1325 net.cpp:190] Setting up ConvNd_4_ConvNd_4_0_split
I0224 07:36:01.606966  1325 net.cpp:197] Top shape: 1 12 128 256 (393216)
I0224 07:36:01.606969  1325 net.cpp:197] Top shape: 1 12 128 256 (393216)
I0224 07:36:01.606973  1325 net.cpp:205] Memory required for data: 114819076
I0224 07:36:01.606976  1325 layer_factory.hpp:123] Creating layer ConvNd_5
I0224 07:36:01.606983  1325 net.cpp:140] Creating Layer ConvNd_5
I0224 07:36:01.606986  1325 net.cpp:481] ConvNd_5 <- ConvNd_2_ConvNd_2_0_split_2
I0224 07:36:01.606993  1325 net.cpp:455] ConvNd_5 -> ConvNd_5
I0224 07:36:01.607210  1325 net.cpp:190] Setting up ConvNd_5
I0224 07:36:01.607218  1325 net.cpp:197] Top shape: 1 12 128 256 (393216)
I0224 07:36:01.607223  1325 net.cpp:205] Memory required for data: 116391940
I0224 07:36:01.607228  1325 layer_factory.hpp:123] Creating layer Add_1
I0224 07:36:01.607235  1325 net.cpp:140] Creating Layer Add_1
I0224 07:36:01.607239  1325 net.cpp:481] Add_1 <- ConvNd_4_ConvNd_4_0_split_0
I0224 07:36:01.607244  1325 net.cpp:481] Add_1 <- ConvNd_5
I0224 07:36:01.607247  1325 net.cpp:455] Add_1 -> Add_1
I0224 07:36:01.607264  1325 net.cpp:190] Setting up Add_1
I0224 07:36:01.607268  1325 net.cpp:197] Top shape: 1 12 128 256 (393216)
I0224 07:36:01.607272  1325 net.cpp:205] Memory required for data: 117964804
I0224 07:36:01.607276  1325 layer_factory.hpp:123] Creating layer Add_1_Add_1_0_split
I0224 07:36:01.607280  1325 net.cpp:140] Creating Layer Add_1_Add_1_0_split
I0224 07:36:01.607285  1325 net.cpp:481] Add_1_Add_1_0_split <- Add_1
I0224 07:36:01.607290  1325 net.cpp:455] Add_1_Add_1_0_split -> Add_1_Add_1_0_split_0
I0224 07:36:01.607295  1325 net.cpp:455] Add_1_Add_1_0_split -> Add_1_Add_1_0_split_1
I0224 07:36:01.607326  1325 net.cpp:190] Setting up Add_1_Add_1_0_split
I0224 07:36:01.607334  1325 net.cpp:197] Top shape: 1 12 128 256 (393216)
I0224 07:36:01.607342  1325 net.cpp:197] Top shape: 1 12 128 256 (393216)
I0224 07:36:01.607348  1325 net.cpp:205] Memory required for data: 121110532
I0224 07:36:01.607353  1325 layer_factory.hpp:123] Creating layer ConvNd_6
I0224 07:36:01.607364  1325 net.cpp:140] Creating Layer ConvNd_6
I0224 07:36:01.607370  1325 net.cpp:481] ConvNd_6 <- ConvNd_2_ConvNd_2_0_split_3
I0224 07:36:01.607376  1325 net.cpp:455] ConvNd_6 -> ConvNd_6
I0224 07:36:01.607543  1325 net.cpp:190] Setting up ConvNd_6
I0224 07:36:01.607550  1325 net.cpp:197] Top shape: 1 12 128 256 (393216)
I0224 07:36:01.607555  1325 net.cpp:205] Memory required for data: 122683396
I0224 07:36:01.607560  1325 layer_factory.hpp:123] Creating layer Add_2
I0224 07:36:01.607565  1325 net.cpp:140] Creating Layer Add_2
I0224 07:36:01.607569  1325 net.cpp:481] Add_2 <- Add_1_Add_1_0_split_0
I0224 07:36:01.607573  1325 net.cpp:481] Add_2 <- ConvNd_6
I0224 07:36:01.607578  1325 net.cpp:455] Add_2 -> Add_2
I0224 07:36:01.607594  1325 net.cpp:190] Setting up Add_2
I0224 07:36:01.607599  1325 net.cpp:197] Top shape: 1 12 128 256 (393216)
I0224 07:36:01.607602  1325 net.cpp:205] Memory required for data: 124256260
I0224 07:36:01.607605  1325 layer_factory.hpp:123] Creating layer Add_2_Add_2_0_split
I0224 07:36:01.607610  1325 net.cpp:140] Creating Layer Add_2_Add_2_0_split
I0224 07:36:01.607614  1325 net.cpp:481] Add_2_Add_2_0_split <- Add_2
I0224 07:36:01.607617  1325 net.cpp:455] Add_2_Add_2_0_split -> Add_2_Add_2_0_split_0
I0224 07:36:01.607630  1325 net.cpp:455] Add_2_Add_2_0_split -> Add_2_Add_2_0_split_1
I0224 07:36:01.607671  1325 net.cpp:190] Setting up Add_2_Add_2_0_split
I0224 07:36:01.607677  1325 net.cpp:197] Top shape: 1 12 128 256 (393216)
I0224 07:36:01.607684  1325 net.cpp:197] Top shape: 1 12 128 256 (393216)
I0224 07:36:01.607690  1325 net.cpp:205] Memory required for data: 127401988
I0224 07:36:01.607695  1325 layer_factory.hpp:123] Creating layer ConvNd_7
I0224 07:36:01.607704  1325 net.cpp:140] Creating Layer ConvNd_7
I0224 07:36:01.607708  1325 net.cpp:481] ConvNd_7 <- ConvNd_2_ConvNd_2_0_split_4
I0224 07:36:01.607714  1325 net.cpp:455] ConvNd_7 -> ConvNd_7
I0224 07:36:01.607883  1325 net.cpp:190] Setting up ConvNd_7
I0224 07:36:01.607890  1325 net.cpp:197] Top shape: 1 12 128 256 (393216)
I0224 07:36:01.607894  1325 net.cpp:205] Memory required for data: 128974852
I0224 07:36:01.607901  1325 layer_factory.hpp:123] Creating layer Add_3
I0224 07:36:01.607908  1325 net.cpp:140] Creating Layer Add_3
I0224 07:36:01.607910  1325 net.cpp:481] Add_3 <- Add_2_Add_2_0_split_0
I0224 07:36:01.607914  1325 net.cpp:481] Add_3 <- ConvNd_7
I0224 07:36:01.607919  1325 net.cpp:455] Add_3 -> Add_3
I0224 07:36:01.607937  1325 net.cpp:190] Setting up Add_3
I0224 07:36:01.607944  1325 net.cpp:197] Top shape: 1 12 128 256 (393216)
I0224 07:36:01.607949  1325 net.cpp:205] Memory required for data: 130547716
I0224 07:36:01.607952  1325 layer_factory.hpp:123] Creating layer Concat_2
I0224 07:36:01.607957  1325 net.cpp:140] Creating Layer Concat_2
I0224 07:36:01.607960  1325 net.cpp:481] Concat_2 <- ConvNd_3
I0224 07:36:01.607964  1325 net.cpp:481] Concat_2 <- ConvNd_4_ConvNd_4_0_split_1
I0224 07:36:01.607969  1325 net.cpp:481] Concat_2 <- Add_1_Add_1_0_split_1
I0224 07:36:01.607972  1325 net.cpp:481] Concat_2 <- Add_2_Add_2_0_split_1
I0224 07:36:01.607975  1325 net.cpp:481] Concat_2 <- Add_3
I0224 07:36:01.607980  1325 net.cpp:455] Concat_2 -> Concat_2
I0224 07:36:01.608000  1325 net.cpp:190] Setting up Concat_2
I0224 07:36:01.608007  1325 net.cpp:197] Top shape: 1 64 128 256 (2097152)
I0224 07:36:01.608011  1325 net.cpp:205] Memory required for data: 138936324
I0224 07:36:01.608014  1325 layer_factory.hpp:123] Creating layer BatchNorm_3
I0224 07:36:01.608022  1325 net.cpp:140] Creating Layer BatchNorm_3
I0224 07:36:01.608027  1325 net.cpp:481] BatchNorm_3 <- Concat_2
I0224 07:36:01.608034  1325 net.cpp:455] BatchNorm_3 -> BatchNorm_3
I0224 07:36:01.608588  1325 net.cpp:190] Setting up BatchNorm_3
I0224 07:36:01.608597  1325 net.cpp:197] Top shape: 1 64 128 256 (2097152)
I0224 07:36:01.608603  1325 net.cpp:205] Memory required for data: 147324932
I0224 07:36:01.608610  1325 layer_factory.hpp:123] Creating layer Threshold_3
I0224 07:36:01.608615  1325 net.cpp:140] Creating Layer Threshold_3
I0224 07:36:01.608619  1325 net.cpp:481] Threshold_3 <- BatchNorm_3
I0224 07:36:01.608623  1325 net.cpp:442] Threshold_3 -> BatchNorm_3 (in-place)
I0224 07:36:01.608629  1325 net.cpp:190] Setting up Threshold_3
I0224 07:36:01.608633  1325 net.cpp:197] Top shape: 1 64 128 256 (2097152)
I0224 07:36:01.608636  1325 net.cpp:205] Memory required for data: 155713540
I0224 07:36:01.608639  1325 layer_factory.hpp:123] Creating layer BatchNorm_3_Threshold_3_0_split
I0224 07:36:01.608644  1325 net.cpp:140] Creating Layer BatchNorm_3_Threshold_3_0_split
I0224 07:36:01.608649  1325 net.cpp:481] BatchNorm_3_Threshold_3_0_split <- BatchNorm_3
I0224 07:36:01.608652  1325 net.cpp:455] BatchNorm_3_Threshold_3_0_split -> BatchNorm_3_Threshold_3_0_split_0
I0224 07:36:01.608659  1325 net.cpp:455] BatchNorm_3_Threshold_3_0_split -> BatchNorm_3_Threshold_3_0_split_1
I0224 07:36:01.608664  1325 net.cpp:455] BatchNorm_3_Threshold_3_0_split -> BatchNorm_3_Threshold_3_0_split_2
I0224 07:36:01.608697  1325 net.cpp:190] Setting up BatchNorm_3_Threshold_3_0_split
I0224 07:36:01.608703  1325 net.cpp:197] Top shape: 1 64 128 256 (2097152)
I0224 07:36:01.608708  1325 net.cpp:197] Top shape: 1 64 128 256 (2097152)
I0224 07:36:01.608712  1325 net.cpp:197] Top shape: 1 64 128 256 (2097152)
I0224 07:36:01.608716  1325 net.cpp:205] Memory required for data: 180879364
I0224 07:36:01.608719  1325 layer_factory.hpp:123] Creating layer ConvNd_8
I0224 07:36:01.608726  1325 net.cpp:140] Creating Layer ConvNd_8
I0224 07:36:01.608731  1325 net.cpp:481] ConvNd_8 <- BatchNorm_3_Threshold_3_0_split_0
I0224 07:36:01.608736  1325 net.cpp:455] ConvNd_8 -> ConvNd_8
I0224 07:36:01.608896  1325 net.cpp:190] Setting up ConvNd_8
I0224 07:36:01.608903  1325 net.cpp:197] Top shape: 1 12 128 256 (393216)
I0224 07:36:01.608908  1325 net.cpp:205] Memory required for data: 182452228
I0224 07:36:01.608914  1325 layer_factory.hpp:123] Creating layer ConvNd_8_ConvNd_8_0_split
I0224 07:36:01.608923  1325 net.cpp:140] Creating Layer ConvNd_8_ConvNd_8_0_split
I0224 07:36:01.608928  1325 net.cpp:481] ConvNd_8_ConvNd_8_0_split <- ConvNd_8
I0224 07:36:01.608934  1325 net.cpp:455] ConvNd_8_ConvNd_8_0_split -> ConvNd_8_ConvNd_8_0_split_0
I0224 07:36:01.608942  1325 net.cpp:455] ConvNd_8_ConvNd_8_0_split -> ConvNd_8_ConvNd_8_0_split_1
I0224 07:36:01.608950  1325 net.cpp:455] ConvNd_8_ConvNd_8_0_split -> ConvNd_8_ConvNd_8_0_split_2
I0224 07:36:01.608958  1325 net.cpp:455] ConvNd_8_ConvNd_8_0_split -> ConvNd_8_ConvNd_8_0_split_3
I0224 07:36:01.608964  1325 net.cpp:455] ConvNd_8_ConvNd_8_0_split -> ConvNd_8_ConvNd_8_0_split_4
I0224 07:36:01.609025  1325 net.cpp:190] Setting up ConvNd_8_ConvNd_8_0_split
I0224 07:36:01.609032  1325 net.cpp:197] Top shape: 1 12 128 256 (393216)
I0224 07:36:01.609037  1325 net.cpp:197] Top shape: 1 12 128 256 (393216)
I0224 07:36:01.609041  1325 net.cpp:197] Top shape: 1 12 128 256 (393216)
I0224 07:36:01.609048  1325 net.cpp:197] Top shape: 1 12 128 256 (393216)
I0224 07:36:01.609053  1325 net.cpp:197] Top shape: 1 12 128 256 (393216)
I0224 07:36:01.609058  1325 net.cpp:205] Memory required for data: 190316548
I0224 07:36:01.609061  1325 layer_factory.hpp:123] Creating layer ConvNd_9
I0224 07:36:01.609069  1325 net.cpp:140] Creating Layer ConvNd_9
I0224 07:36:01.609074  1325 net.cpp:481] ConvNd_9 <- ConvNd_8_ConvNd_8_0_split_0
I0224 07:36:01.609081  1325 net.cpp:455] ConvNd_9 -> ConvNd_9
I0224 07:36:01.609258  1325 net.cpp:190] Setting up ConvNd_9
I0224 07:36:01.609266  1325 net.cpp:197] Top shape: 1 16 128 256 (524288)
I0224 07:36:01.609270  1325 net.cpp:205] Memory required for data: 192413700
I0224 07:36:01.609277  1325 layer_factory.hpp:123] Creating layer ConvNd_10
I0224 07:36:01.609287  1325 net.cpp:140] Creating Layer ConvNd_10
I0224 07:36:01.609292  1325 net.cpp:481] ConvNd_10 <- ConvNd_8_ConvNd_8_0_split_1
I0224 07:36:01.609297  1325 net.cpp:455] ConvNd_10 -> ConvNd_10
I0224 07:36:01.609477  1325 net.cpp:190] Setting up ConvNd_10
I0224 07:36:01.609484  1325 net.cpp:197] Top shape: 1 12 128 256 (393216)
I0224 07:36:01.609489  1325 net.cpp:205] Memory required for data: 193986564
I0224 07:36:01.609494  1325 layer_factory.hpp:123] Creating layer ConvNd_10_ConvNd_10_0_split
I0224 07:36:01.609501  1325 net.cpp:140] Creating Layer ConvNd_10_ConvNd_10_0_split
I0224 07:36:01.609506  1325 net.cpp:481] ConvNd_10_ConvNd_10_0_split <- ConvNd_10
I0224 07:36:01.609513  1325 net.cpp:455] ConvNd_10_ConvNd_10_0_split -> ConvNd_10_ConvNd_10_0_split_0
I0224 07:36:01.609519  1325 net.cpp:455] ConvNd_10_ConvNd_10_0_split -> ConvNd_10_ConvNd_10_0_split_1
I0224 07:36:01.609547  1325 net.cpp:190] Setting up ConvNd_10_ConvNd_10_0_split
I0224 07:36:01.609553  1325 net.cpp:197] Top shape: 1 12 128 256 (393216)
I0224 07:36:01.609557  1325 net.cpp:197] Top shape: 1 12 128 256 (393216)
I0224 07:36:01.609561  1325 net.cpp:205] Memory required for data: 197132292
I0224 07:36:01.609565  1325 layer_factory.hpp:123] Creating layer ConvNd_11
I0224 07:36:01.609572  1325 net.cpp:140] Creating Layer ConvNd_11
I0224 07:36:01.609576  1325 net.cpp:481] ConvNd_11 <- ConvNd_8_ConvNd_8_0_split_2
I0224 07:36:01.609583  1325 net.cpp:455] ConvNd_11 -> ConvNd_11
I0224 07:36:01.609748  1325 net.cpp:190] Setting up ConvNd_11
I0224 07:36:01.609755  1325 net.cpp:197] Top shape: 1 12 128 256 (393216)
I0224 07:36:01.609760  1325 net.cpp:205] Memory required for data: 198705156
I0224 07:36:01.609763  1325 layer_factory.hpp:123] Creating layer Add_4
I0224 07:36:01.609768  1325 net.cpp:140] Creating Layer Add_4
I0224 07:36:01.609772  1325 net.cpp:481] Add_4 <- ConvNd_10_ConvNd_10_0_split_0
I0224 07:36:01.609776  1325 net.cpp:481] Add_4 <- ConvNd_11
I0224 07:36:01.609781  1325 net.cpp:455] Add_4 -> Add_4
I0224 07:36:01.609798  1325 net.cpp:190] Setting up Add_4
I0224 07:36:01.609802  1325 net.cpp:197] Top shape: 1 12 128 256 (393216)
I0224 07:36:01.609807  1325 net.cpp:205] Memory required for data: 200278020
I0224 07:36:01.609809  1325 layer_factory.hpp:123] Creating layer Add_4_Add_4_0_split
I0224 07:36:01.609813  1325 net.cpp:140] Creating Layer Add_4_Add_4_0_split
I0224 07:36:01.609817  1325 net.cpp:481] Add_4_Add_4_0_split <- Add_4
I0224 07:36:01.609822  1325 net.cpp:455] Add_4_Add_4_0_split -> Add_4_Add_4_0_split_0
I0224 07:36:01.609827  1325 net.cpp:455] Add_4_Add_4_0_split -> Add_4_Add_4_0_split_1
I0224 07:36:01.609851  1325 net.cpp:190] Setting up Add_4_Add_4_0_split
I0224 07:36:01.609858  1325 net.cpp:197] Top shape: 1 12 128 256 (393216)
I0224 07:36:01.609863  1325 net.cpp:197] Top shape: 1 12 128 256 (393216)
I0224 07:36:01.609867  1325 net.cpp:205] Memory required for data: 203423748
I0224 07:36:01.609870  1325 layer_factory.hpp:123] Creating layer ConvNd_12
I0224 07:36:01.609877  1325 net.cpp:140] Creating Layer ConvNd_12
I0224 07:36:01.609880  1325 net.cpp:481] ConvNd_12 <- ConvNd_8_ConvNd_8_0_split_3
I0224 07:36:01.609885  1325 net.cpp:455] ConvNd_12 -> ConvNd_12
I0224 07:36:01.610046  1325 net.cpp:190] Setting up ConvNd_12
I0224 07:36:01.610054  1325 net.cpp:197] Top shape: 1 12 128 256 (393216)
I0224 07:36:01.610057  1325 net.cpp:205] Memory required for data: 204996612
I0224 07:36:01.610062  1325 layer_factory.hpp:123] Creating layer Add_5
I0224 07:36:01.610067  1325 net.cpp:140] Creating Layer Add_5
I0224 07:36:01.610070  1325 net.cpp:481] Add_5 <- Add_4_Add_4_0_split_0
I0224 07:36:01.610074  1325 net.cpp:481] Add_5 <- ConvNd_12
I0224 07:36:01.610080  1325 net.cpp:455] Add_5 -> Add_5
I0224 07:36:01.610095  1325 net.cpp:190] Setting up Add_5
I0224 07:36:01.610100  1325 net.cpp:197] Top shape: 1 12 128 256 (393216)
I0224 07:36:01.610105  1325 net.cpp:205] Memory required for data: 206569476
I0224 07:36:01.610107  1325 layer_factory.hpp:123] Creating layer Add_5_Add_5_0_split
I0224 07:36:01.610112  1325 net.cpp:140] Creating Layer Add_5_Add_5_0_split
I0224 07:36:01.610116  1325 net.cpp:481] Add_5_Add_5_0_split <- Add_5
I0224 07:36:01.610121  1325 net.cpp:455] Add_5_Add_5_0_split -> Add_5_Add_5_0_split_0
I0224 07:36:01.610126  1325 net.cpp:455] Add_5_Add_5_0_split -> Add_5_Add_5_0_split_1
I0224 07:36:01.610157  1325 net.cpp:190] Setting up Add_5_Add_5_0_split
I0224 07:36:01.610162  1325 net.cpp:197] Top shape: 1 12 128 256 (393216)
I0224 07:36:01.610167  1325 net.cpp:197] Top shape: 1 12 128 256 (393216)
I0224 07:36:01.610172  1325 net.cpp:205] Memory required for data: 209715204
I0224 07:36:01.610174  1325 layer_factory.hpp:123] Creating layer ConvNd_13
I0224 07:36:01.610180  1325 net.cpp:140] Creating Layer ConvNd_13
I0224 07:36:01.610184  1325 net.cpp:481] ConvNd_13 <- ConvNd_8_ConvNd_8_0_split_4
I0224 07:36:01.610188  1325 net.cpp:455] ConvNd_13 -> ConvNd_13
I0224 07:36:01.610343  1325 net.cpp:190] Setting up ConvNd_13
I0224 07:36:01.610350  1325 net.cpp:197] Top shape: 1 12 128 256 (393216)
I0224 07:36:01.610354  1325 net.cpp:205] Memory required for data: 211288068
I0224 07:36:01.610359  1325 layer_factory.hpp:123] Creating layer Add_6
I0224 07:36:01.610363  1325 net.cpp:140] Creating Layer Add_6
I0224 07:36:01.610368  1325 net.cpp:481] Add_6 <- Add_5_Add_5_0_split_0
I0224 07:36:01.610371  1325 net.cpp:481] Add_6 <- ConvNd_13
I0224 07:36:01.610376  1325 net.cpp:455] Add_6 -> Add_6
I0224 07:36:01.610393  1325 net.cpp:190] Setting up Add_6
I0224 07:36:01.610395  1325 net.cpp:197] Top shape: 1 12 128 256 (393216)
I0224 07:36:01.610400  1325 net.cpp:205] Memory required for data: 212860932
I0224 07:36:01.610404  1325 layer_factory.hpp:123] Creating layer Concat_3
I0224 07:36:01.610409  1325 net.cpp:140] Creating Layer Concat_3
I0224 07:36:01.610411  1325 net.cpp:481] Concat_3 <- ConvNd_9
I0224 07:36:01.610415  1325 net.cpp:481] Concat_3 <- ConvNd_10_ConvNd_10_0_split_1
I0224 07:36:01.610419  1325 net.cpp:481] Concat_3 <- Add_4_Add_4_0_split_1
I0224 07:36:01.610422  1325 net.cpp:481] Concat_3 <- Add_5_Add_5_0_split_1
I0224 07:36:01.610426  1325 net.cpp:481] Concat_3 <- Add_6
I0224 07:36:01.610430  1325 net.cpp:455] Concat_3 -> Concat_3
I0224 07:36:01.610450  1325 net.cpp:190] Setting up Concat_3
I0224 07:36:01.610456  1325 net.cpp:197] Top shape: 1 64 128 256 (2097152)
I0224 07:36:01.610461  1325 net.cpp:205] Memory required for data: 221249540
I0224 07:36:01.610466  1325 layer_factory.hpp:123] Creating layer Add_7
I0224 07:36:01.610472  1325 net.cpp:140] Creating Layer Add_7
I0224 07:36:01.610476  1325 net.cpp:481] Add_7 <- BatchNorm_3_Threshold_3_0_split_1
I0224 07:36:01.610482  1325 net.cpp:481] Add_7 <- Concat_3
I0224 07:36:01.610488  1325 net.cpp:455] Add_7 -> Add_7
I0224 07:36:01.610508  1325 net.cpp:190] Setting up Add_7
I0224 07:36:01.610514  1325 net.cpp:197] Top shape: 1 64 128 256 (2097152)
I0224 07:36:01.610519  1325 net.cpp:205] Memory required for data: 229638148
I0224 07:36:01.610522  1325 layer_factory.hpp:123] Creating layer BatchNorm_4
I0224 07:36:01.610532  1325 net.cpp:140] Creating Layer BatchNorm_4
I0224 07:36:01.610536  1325 net.cpp:481] BatchNorm_4 <- Add_7
I0224 07:36:01.610543  1325 net.cpp:455] BatchNorm_4 -> BatchNorm_4
I0224 07:36:01.611080  1325 net.cpp:190] Setting up BatchNorm_4
I0224 07:36:01.611088  1325 net.cpp:197] Top shape: 1 64 128 256 (2097152)
I0224 07:36:01.611093  1325 net.cpp:205] Memory required for data: 238026756
I0224 07:36:01.611104  1325 layer_factory.hpp:123] Creating layer Threshold_4
I0224 07:36:01.611109  1325 net.cpp:140] Creating Layer Threshold_4
I0224 07:36:01.611112  1325 net.cpp:481] Threshold_4 <- BatchNorm_4
I0224 07:36:01.611117  1325 net.cpp:442] Threshold_4 -> BatchNorm_4 (in-place)
I0224 07:36:01.611124  1325 net.cpp:190] Setting up Threshold_4
I0224 07:36:01.611126  1325 net.cpp:197] Top shape: 1 64 128 256 (2097152)
I0224 07:36:01.611130  1325 net.cpp:205] Memory required for data: 246415364
I0224 07:36:01.611135  1325 layer_factory.hpp:123] Creating layer BatchNorm_4_Threshold_4_0_split
I0224 07:36:01.611138  1325 net.cpp:140] Creating Layer BatchNorm_4_Threshold_4_0_split
I0224 07:36:01.611142  1325 net.cpp:481] BatchNorm_4_Threshold_4_0_split <- BatchNorm_4
I0224 07:36:01.611146  1325 net.cpp:455] BatchNorm_4_Threshold_4_0_split -> BatchNorm_4_Threshold_4_0_split_0
I0224 07:36:01.611152  1325 net.cpp:455] BatchNorm_4_Threshold_4_0_split -> BatchNorm_4_Threshold_4_0_split_1
I0224 07:36:01.611179  1325 net.cpp:190] Setting up BatchNorm_4_Threshold_4_0_split
I0224 07:36:01.611187  1325 net.cpp:197] Top shape: 1 64 128 256 (2097152)
I0224 07:36:01.611191  1325 net.cpp:197] Top shape: 1 64 128 256 (2097152)
I0224 07:36:01.611196  1325 net.cpp:205] Memory required for data: 263192580
I0224 07:36:01.611202  1325 layer_factory.hpp:123] Creating layer ConvNd_14
I0224 07:36:01.611210  1325 net.cpp:140] Creating Layer ConvNd_14
I0224 07:36:01.611214  1325 net.cpp:481] ConvNd_14 <- BatchNorm_4_Threshold_4_0_split_0
I0224 07:36:01.611219  1325 net.cpp:455] ConvNd_14 -> ConvNd_14
I0224 07:36:01.611380  1325 net.cpp:190] Setting up ConvNd_14
I0224 07:36:01.611387  1325 net.cpp:197] Top shape: 1 12 128 256 (393216)
I0224 07:36:01.611392  1325 net.cpp:205] Memory required for data: 264765444
I0224 07:36:01.611398  1325 layer_factory.hpp:123] Creating layer ConvNd_14_ConvNd_14_0_split
I0224 07:36:01.611407  1325 net.cpp:140] Creating Layer ConvNd_14_ConvNd_14_0_split
I0224 07:36:01.611411  1325 net.cpp:481] ConvNd_14_ConvNd_14_0_split <- ConvNd_14
I0224 07:36:01.611418  1325 net.cpp:455] ConvNd_14_ConvNd_14_0_split -> ConvNd_14_ConvNd_14_0_split_0
I0224 07:36:01.611425  1325 net.cpp:455] ConvNd_14_ConvNd_14_0_split -> ConvNd_14_ConvNd_14_0_split_1
I0224 07:36:01.611436  1325 net.cpp:455] ConvNd_14_ConvNd_14_0_split -> ConvNd_14_ConvNd_14_0_split_2
I0224 07:36:01.611443  1325 net.cpp:455] ConvNd_14_ConvNd_14_0_split -> ConvNd_14_ConvNd_14_0_split_3
I0224 07:36:01.611450  1325 net.cpp:455] ConvNd_14_ConvNd_14_0_split -> ConvNd_14_ConvNd_14_0_split_4
I0224 07:36:01.611512  1325 net.cpp:190] Setting up ConvNd_14_ConvNd_14_0_split
I0224 07:36:01.611521  1325 net.cpp:197] Top shape: 1 12 128 256 (393216)
I0224 07:36:01.611526  1325 net.cpp:197] Top shape: 1 12 128 256 (393216)
I0224 07:36:01.611531  1325 net.cpp:197] Top shape: 1 12 128 256 (393216)
I0224 07:36:01.611536  1325 net.cpp:197] Top shape: 1 12 128 256 (393216)
I0224 07:36:01.611541  1325 net.cpp:197] Top shape: 1 12 128 256 (393216)
I0224 07:36:01.611546  1325 net.cpp:205] Memory required for data: 272629764
I0224 07:36:01.611551  1325 layer_factory.hpp:123] Creating layer ConvNd_15
I0224 07:36:01.611559  1325 net.cpp:140] Creating Layer ConvNd_15
I0224 07:36:01.611563  1325 net.cpp:481] ConvNd_15 <- ConvNd_14_ConvNd_14_0_split_0
I0224 07:36:01.611568  1325 net.cpp:455] ConvNd_15 -> ConvNd_15
I0224 07:36:01.611742  1325 net.cpp:190] Setting up ConvNd_15
I0224 07:36:01.611748  1325 net.cpp:197] Top shape: 1 16 128 256 (524288)
I0224 07:36:01.611752  1325 net.cpp:205] Memory required for data: 274726916
I0224 07:36:01.611757  1325 layer_factory.hpp:123] Creating layer ConvNd_16
I0224 07:36:01.611764  1325 net.cpp:140] Creating Layer ConvNd_16
I0224 07:36:01.611768  1325 net.cpp:481] ConvNd_16 <- ConvNd_14_ConvNd_14_0_split_1
I0224 07:36:01.611773  1325 net.cpp:455] ConvNd_16 -> ConvNd_16
I0224 07:36:01.611932  1325 net.cpp:190] Setting up ConvNd_16
I0224 07:36:01.611937  1325 net.cpp:197] Top shape: 1 12 128 256 (393216)
I0224 07:36:01.611943  1325 net.cpp:205] Memory required for data: 276299780
I0224 07:36:01.611946  1325 layer_factory.hpp:123] Creating layer ConvNd_16_ConvNd_16_0_split
I0224 07:36:01.611950  1325 net.cpp:140] Creating Layer ConvNd_16_ConvNd_16_0_split
I0224 07:36:01.611954  1325 net.cpp:481] ConvNd_16_ConvNd_16_0_split <- ConvNd_16
I0224 07:36:01.611959  1325 net.cpp:455] ConvNd_16_ConvNd_16_0_split -> ConvNd_16_ConvNd_16_0_split_0
I0224 07:36:01.611965  1325 net.cpp:455] ConvNd_16_ConvNd_16_0_split -> ConvNd_16_ConvNd_16_0_split_1
I0224 07:36:01.611991  1325 net.cpp:190] Setting up ConvNd_16_ConvNd_16_0_split
I0224 07:36:01.611999  1325 net.cpp:197] Top shape: 1 12 128 256 (393216)
I0224 07:36:01.612002  1325 net.cpp:197] Top shape: 1 12 128 256 (393216)
I0224 07:36:01.612006  1325 net.cpp:205] Memory required for data: 279445508
I0224 07:36:01.612010  1325 layer_factory.hpp:123] Creating layer ConvNd_17
I0224 07:36:01.612016  1325 net.cpp:140] Creating Layer ConvNd_17
I0224 07:36:01.612020  1325 net.cpp:481] ConvNd_17 <- ConvNd_14_ConvNd_14_0_split_2
I0224 07:36:01.612026  1325 net.cpp:455] ConvNd_17 -> ConvNd_17
I0224 07:36:01.612193  1325 net.cpp:190] Setting up ConvNd_17
I0224 07:36:01.612200  1325 net.cpp:197] Top shape: 1 12 128 256 (393216)
I0224 07:36:01.612205  1325 net.cpp:205] Memory required for data: 281018372
I0224 07:36:01.612210  1325 layer_factory.hpp:123] Creating layer Add_8
I0224 07:36:01.612217  1325 net.cpp:140] Creating Layer Add_8
I0224 07:36:01.612223  1325 net.cpp:481] Add_8 <- ConvNd_16_ConvNd_16_0_split_0
I0224 07:36:01.612228  1325 net.cpp:481] Add_8 <- ConvNd_17
I0224 07:36:01.612234  1325 net.cpp:455] Add_8 -> Add_8
I0224 07:36:01.612255  1325 net.cpp:190] Setting up Add_8
I0224 07:36:01.612263  1325 net.cpp:197] Top shape: 1 12 128 256 (393216)
I0224 07:36:01.612267  1325 net.cpp:205] Memory required for data: 282591236
I0224 07:36:01.612272  1325 layer_factory.hpp:123] Creating layer Add_8_Add_8_0_split
I0224 07:36:01.612277  1325 net.cpp:140] Creating Layer Add_8_Add_8_0_split
I0224 07:36:01.612282  1325 net.cpp:481] Add_8_Add_8_0_split <- Add_8
I0224 07:36:01.612287  1325 net.cpp:455] Add_8_Add_8_0_split -> Add_8_Add_8_0_split_0
I0224 07:36:01.612294  1325 net.cpp:455] Add_8_Add_8_0_split -> Add_8_Add_8_0_split_1
I0224 07:36:01.612321  1325 net.cpp:190] Setting up Add_8_Add_8_0_split
I0224 07:36:01.612326  1325 net.cpp:197] Top shape: 1 12 128 256 (393216)
I0224 07:36:01.612330  1325 net.cpp:197] Top shape: 1 12 128 256 (393216)
I0224 07:36:01.612334  1325 net.cpp:205] Memory required for data: 285736964
I0224 07:36:01.612337  1325 layer_factory.hpp:123] Creating layer ConvNd_18
I0224 07:36:01.612344  1325 net.cpp:140] Creating Layer ConvNd_18
I0224 07:36:01.612347  1325 net.cpp:481] ConvNd_18 <- ConvNd_14_ConvNd_14_0_split_3
I0224 07:36:01.612352  1325 net.cpp:455] ConvNd_18 -> ConvNd_18
I0224 07:36:01.612515  1325 net.cpp:190] Setting up ConvNd_18
I0224 07:36:01.612522  1325 net.cpp:197] Top shape: 1 12 128 256 (393216)
I0224 07:36:01.612527  1325 net.cpp:205] Memory required for data: 287309828
I0224 07:36:01.612531  1325 layer_factory.hpp:123] Creating layer Add_9
I0224 07:36:01.612536  1325 net.cpp:140] Creating Layer Add_9
I0224 07:36:01.612540  1325 net.cpp:481] Add_9 <- Add_8_Add_8_0_split_0
I0224 07:36:01.612545  1325 net.cpp:481] Add_9 <- ConvNd_18
I0224 07:36:01.612548  1325 net.cpp:455] Add_9 -> Add_9
I0224 07:36:01.612565  1325 net.cpp:190] Setting up Add_9
I0224 07:36:01.612568  1325 net.cpp:197] Top shape: 1 12 128 256 (393216)
I0224 07:36:01.612573  1325 net.cpp:205] Memory required for data: 288882692
I0224 07:36:01.612576  1325 layer_factory.hpp:123] Creating layer Add_9_Add_9_0_split
I0224 07:36:01.612581  1325 net.cpp:140] Creating Layer Add_9_Add_9_0_split
I0224 07:36:01.612584  1325 net.cpp:481] Add_9_Add_9_0_split <- Add_9
I0224 07:36:01.612589  1325 net.cpp:455] Add_9_Add_9_0_split -> Add_9_Add_9_0_split_0
I0224 07:36:01.612594  1325 net.cpp:455] Add_9_Add_9_0_split -> Add_9_Add_9_0_split_1
I0224 07:36:01.612622  1325 net.cpp:190] Setting up Add_9_Add_9_0_split
I0224 07:36:01.612628  1325 net.cpp:197] Top shape: 1 12 128 256 (393216)
I0224 07:36:01.612632  1325 net.cpp:197] Top shape: 1 12 128 256 (393216)
I0224 07:36:01.612637  1325 net.cpp:205] Memory required for data: 292028420
I0224 07:36:01.612640  1325 layer_factory.hpp:123] Creating layer ConvNd_19
I0224 07:36:01.612646  1325 net.cpp:140] Creating Layer ConvNd_19
I0224 07:36:01.612649  1325 net.cpp:481] ConvNd_19 <- ConvNd_14_ConvNd_14_0_split_4
I0224 07:36:01.612654  1325 net.cpp:455] ConvNd_19 -> ConvNd_19
I0224 07:36:01.612814  1325 net.cpp:190] Setting up ConvNd_19
I0224 07:36:01.612820  1325 net.cpp:197] Top shape: 1 12 128 256 (393216)
I0224 07:36:01.612825  1325 net.cpp:205] Memory required for data: 293601284
I0224 07:36:01.612829  1325 layer_factory.hpp:123] Creating layer Add_10
I0224 07:36:01.612834  1325 net.cpp:140] Creating Layer Add_10
I0224 07:36:01.612838  1325 net.cpp:481] Add_10 <- Add_9_Add_9_0_split_0
I0224 07:36:01.612843  1325 net.cpp:481] Add_10 <- ConvNd_19
I0224 07:36:01.612846  1325 net.cpp:455] Add_10 -> Add_10
I0224 07:36:01.612864  1325 net.cpp:190] Setting up Add_10
I0224 07:36:01.612866  1325 net.cpp:197] Top shape: 1 12 128 256 (393216)
I0224 07:36:01.612871  1325 net.cpp:205] Memory required for data: 295174148
I0224 07:36:01.612874  1325 layer_factory.hpp:123] Creating layer Concat_4
I0224 07:36:01.612879  1325 net.cpp:140] Creating Layer Concat_4
I0224 07:36:01.612884  1325 net.cpp:481] Concat_4 <- ConvNd_15
I0224 07:36:01.612888  1325 net.cpp:481] Concat_4 <- ConvNd_16_ConvNd_16_0_split_1
I0224 07:36:01.612895  1325 net.cpp:481] Concat_4 <- Add_8_Add_8_0_split_1
I0224 07:36:01.612898  1325 net.cpp:481] Concat_4 <- Add_9_Add_9_0_split_1
I0224 07:36:01.612902  1325 net.cpp:481] Concat_4 <- Add_10
I0224 07:36:01.612908  1325 net.cpp:455] Concat_4 -> Concat_4
I0224 07:36:01.612931  1325 net.cpp:190] Setting up Concat_4
I0224 07:36:01.612936  1325 net.cpp:197] Top shape: 1 64 128 256 (2097152)
I0224 07:36:01.612941  1325 net.cpp:205] Memory required for data: 303562756
I0224 07:36:01.612943  1325 layer_factory.hpp:123] Creating layer Add_11
I0224 07:36:01.612951  1325 net.cpp:140] Creating Layer Add_11
I0224 07:36:01.612956  1325 net.cpp:481] Add_11 <- BatchNorm_4_Threshold_4_0_split_1
I0224 07:36:01.612960  1325 net.cpp:481] Add_11 <- Concat_4
I0224 07:36:01.612967  1325 net.cpp:455] Add_11 -> Add_11
I0224 07:36:01.612989  1325 net.cpp:190] Setting up Add_11
I0224 07:36:01.612995  1325 net.cpp:197] Top shape: 1 64 128 256 (2097152)
I0224 07:36:01.613000  1325 net.cpp:205] Memory required for data: 311951364
I0224 07:36:01.613003  1325 layer_factory.hpp:123] Creating layer BatchNorm_5
I0224 07:36:01.613013  1325 net.cpp:140] Creating Layer BatchNorm_5
I0224 07:36:01.613016  1325 net.cpp:481] BatchNorm_5 <- Add_11
I0224 07:36:01.613023  1325 net.cpp:455] BatchNorm_5 -> BatchNorm_5
I0224 07:36:01.613601  1325 net.cpp:190] Setting up BatchNorm_5
I0224 07:36:01.613610  1325 net.cpp:197] Top shape: 1 64 128 256 (2097152)
I0224 07:36:01.613615  1325 net.cpp:205] Memory required for data: 320339972
I0224 07:36:01.613626  1325 layer_factory.hpp:123] Creating layer Threshold_5
I0224 07:36:01.613633  1325 net.cpp:140] Creating Layer Threshold_5
I0224 07:36:01.613638  1325 net.cpp:481] Threshold_5 <- BatchNorm_5
I0224 07:36:01.613644  1325 net.cpp:442] Threshold_5 -> BatchNorm_5 (in-place)
I0224 07:36:01.613652  1325 net.cpp:190] Setting up Threshold_5
I0224 07:36:01.613656  1325 net.cpp:197] Top shape: 1 64 128 256 (2097152)
I0224 07:36:01.613662  1325 net.cpp:205] Memory required for data: 328728580
I0224 07:36:01.613667  1325 layer_factory.hpp:123] Creating layer AvgPool2d_2
I0224 07:36:01.613672  1325 net.cpp:140] Creating Layer AvgPool2d_2
I0224 07:36:01.613677  1325 net.cpp:481] AvgPool2d_2 <- data_data_0_split_2
I0224 07:36:01.613683  1325 net.cpp:455] AvgPool2d_2 -> AvgPool2d_2
I0224 07:36:01.613708  1325 net.cpp:190] Setting up AvgPool2d_2
I0224 07:36:01.613718  1325 net.cpp:197] Top shape: 1 3 256 512 (393216)
I0224 07:36:01.613723  1325 net.cpp:205] Memory required for data: 330301444
I0224 07:36:01.613726  1325 layer_factory.hpp:123] Creating layer AvgPool2d_3
I0224 07:36:01.613734  1325 net.cpp:140] Creating Layer AvgPool2d_3
I0224 07:36:01.613737  1325 net.cpp:481] AvgPool2d_3 <- AvgPool2d_2
I0224 07:36:01.613744  1325 net.cpp:455] AvgPool2d_3 -> AvgPool2d_3
I0224 07:36:01.613765  1325 net.cpp:190] Setting up AvgPool2d_3
I0224 07:36:01.613771  1325 net.cpp:197] Top shape: 1 3 128 256 (98304)
I0224 07:36:01.613776  1325 net.cpp:205] Memory required for data: 330694660
I0224 07:36:01.613780  1325 layer_factory.hpp:123] Creating layer Concat_5
I0224 07:36:01.613785  1325 net.cpp:140] Creating Layer Concat_5
I0224 07:36:01.613790  1325 net.cpp:481] Concat_5 <- BatchNorm_5
I0224 07:36:01.613793  1325 net.cpp:481] Concat_5 <- BatchNorm_3_Threshold_3_0_split_2
I0224 07:36:01.613798  1325 net.cpp:481] Concat_5 <- AvgPool2d_3
I0224 07:36:01.613804  1325 net.cpp:455] Concat_5 -> Concat_5
I0224 07:36:01.613826  1325 net.cpp:190] Setting up Concat_5
I0224 07:36:01.613831  1325 net.cpp:197] Top shape: 1 131 128 256 (4292608)
I0224 07:36:01.613837  1325 net.cpp:205] Memory required for data: 347865092
I0224 07:36:01.613839  1325 layer_factory.hpp:123] Creating layer BatchNorm_6
I0224 07:36:01.613848  1325 net.cpp:140] Creating Layer BatchNorm_6
I0224 07:36:01.613852  1325 net.cpp:481] BatchNorm_6 <- Concat_5
I0224 07:36:01.613859  1325 net.cpp:455] BatchNorm_6 -> BatchNorm_6
I0224 07:36:01.614389  1325 net.cpp:190] Setting up BatchNorm_6
I0224 07:36:01.614398  1325 net.cpp:197] Top shape: 1 131 128 256 (4292608)
I0224 07:36:01.614403  1325 net.cpp:205] Memory required for data: 365035524
I0224 07:36:01.614411  1325 layer_factory.hpp:123] Creating layer Threshold_6
I0224 07:36:01.614416  1325 net.cpp:140] Creating Layer Threshold_6
I0224 07:36:01.614419  1325 net.cpp:481] Threshold_6 <- BatchNorm_6
I0224 07:36:01.614424  1325 net.cpp:442] Threshold_6 -> BatchNorm_6 (in-place)
I0224 07:36:01.614429  1325 net.cpp:190] Setting up Threshold_6
I0224 07:36:01.614434  1325 net.cpp:197] Top shape: 1 131 128 256 (4292608)
I0224 07:36:01.614439  1325 net.cpp:205] Memory required for data: 382205956
I0224 07:36:01.614444  1325 layer_factory.hpp:123] Creating layer BatchNorm_6_Threshold_6_0_split
I0224 07:36:01.614451  1325 net.cpp:140] Creating Layer BatchNorm_6_Threshold_6_0_split
I0224 07:36:01.614455  1325 net.cpp:481] BatchNorm_6_Threshold_6_0_split <- BatchNorm_6
I0224 07:36:01.614461  1325 net.cpp:455] BatchNorm_6_Threshold_6_0_split -> BatchNorm_6_Threshold_6_0_split_0
I0224 07:36:01.614470  1325 net.cpp:455] BatchNorm_6_Threshold_6_0_split -> BatchNorm_6_Threshold_6_0_split_1
I0224 07:36:01.614497  1325 net.cpp:190] Setting up BatchNorm_6_Threshold_6_0_split
I0224 07:36:01.614503  1325 net.cpp:197] Top shape: 1 131 128 256 (4292608)
I0224 07:36:01.614507  1325 net.cpp:197] Top shape: 1 131 128 256 (4292608)
I0224 07:36:01.614511  1325 net.cpp:205] Memory required for data: 416546820
I0224 07:36:01.614516  1325 layer_factory.hpp:123] Creating layer ConvNd_20
I0224 07:36:01.614522  1325 net.cpp:140] Creating Layer ConvNd_20
I0224 07:36:01.614526  1325 net.cpp:481] ConvNd_20 <- BatchNorm_6_Threshold_6_0_split_0
I0224 07:36:01.614533  1325 net.cpp:455] ConvNd_20 -> ConvNd_20
I0224 07:36:01.614732  1325 net.cpp:190] Setting up ConvNd_20
I0224 07:36:01.614738  1325 net.cpp:197] Top shape: 1 19 128 256 (622592)
I0224 07:36:01.614743  1325 net.cpp:205] Memory required for data: 419037188
I0224 07:36:01.614749  1325 layer_factory.hpp:123] Creating layer ConvNd_21
I0224 07:36:01.614758  1325 net.cpp:140] Creating Layer ConvNd_21
I0224 07:36:01.614764  1325 net.cpp:481] ConvNd_21 <- BatchNorm_6_Threshold_6_0_split_1
I0224 07:36:01.614770  1325 net.cpp:455] ConvNd_21 -> ConvNd_21
I0224 07:36:01.615864  1325 net.cpp:190] Setting up ConvNd_21
I0224 07:36:01.615873  1325 net.cpp:197] Top shape: 1 25 64 128 (204800)
I0224 07:36:01.615880  1325 net.cpp:205] Memory required for data: 419856388
I0224 07:36:01.615885  1325 layer_factory.hpp:123] Creating layer ConvNd_21_ConvNd_21_0_split
I0224 07:36:01.615891  1325 net.cpp:140] Creating Layer ConvNd_21_ConvNd_21_0_split
I0224 07:36:01.615895  1325 net.cpp:481] ConvNd_21_ConvNd_21_0_split <- ConvNd_21
I0224 07:36:01.615900  1325 net.cpp:455] ConvNd_21_ConvNd_21_0_split -> ConvNd_21_ConvNd_21_0_split_0
I0224 07:36:01.615909  1325 net.cpp:455] ConvNd_21_ConvNd_21_0_split -> ConvNd_21_ConvNd_21_0_split_1
I0224 07:36:01.615917  1325 net.cpp:455] ConvNd_21_ConvNd_21_0_split -> ConvNd_21_ConvNd_21_0_split_2
I0224 07:36:01.615926  1325 net.cpp:455] ConvNd_21_ConvNd_21_0_split -> ConvNd_21_ConvNd_21_0_split_3
I0224 07:36:01.615931  1325 net.cpp:455] ConvNd_21_ConvNd_21_0_split -> ConvNd_21_ConvNd_21_0_split_4
I0224 07:36:01.615993  1325 net.cpp:190] Setting up ConvNd_21_ConvNd_21_0_split
I0224 07:36:01.615999  1325 net.cpp:197] Top shape: 1 25 64 128 (204800)
I0224 07:36:01.616004  1325 net.cpp:197] Top shape: 1 25 64 128 (204800)
I0224 07:36:01.616009  1325 net.cpp:197] Top shape: 1 25 64 128 (204800)
I0224 07:36:01.616015  1325 net.cpp:197] Top shape: 1 25 64 128 (204800)
I0224 07:36:01.616021  1325 net.cpp:197] Top shape: 1 25 64 128 (204800)
I0224 07:36:01.616027  1325 net.cpp:205] Memory required for data: 423952388
I0224 07:36:01.616032  1325 layer_factory.hpp:123] Creating layer ConvNd_22
I0224 07:36:01.616041  1325 net.cpp:140] Creating Layer ConvNd_22
I0224 07:36:01.616050  1325 net.cpp:481] ConvNd_22 <- ConvNd_21_ConvNd_21_0_split_0
I0224 07:36:01.616055  1325 net.cpp:455] ConvNd_22 -> ConvNd_22
I0224 07:36:01.616284  1325 net.cpp:190] Setting up ConvNd_22
I0224 07:36:01.616291  1325 net.cpp:197] Top shape: 1 28 64 128 (229376)
I0224 07:36:01.616297  1325 net.cpp:205] Memory required for data: 424869892
I0224 07:36:01.616302  1325 layer_factory.hpp:123] Creating layer ConvNd_23
I0224 07:36:01.616308  1325 net.cpp:140] Creating Layer ConvNd_23
I0224 07:36:01.616312  1325 net.cpp:481] ConvNd_23 <- ConvNd_21_ConvNd_21_0_split_1
I0224 07:36:01.616317  1325 net.cpp:455] ConvNd_23 -> ConvNd_23
I0224 07:36:01.616523  1325 net.cpp:190] Setting up ConvNd_23
I0224 07:36:01.616529  1325 net.cpp:197] Top shape: 1 25 64 128 (204800)
I0224 07:36:01.616534  1325 net.cpp:205] Memory required for data: 425689092
I0224 07:36:01.616539  1325 layer_factory.hpp:123] Creating layer ConvNd_23_ConvNd_23_0_split
I0224 07:36:01.616544  1325 net.cpp:140] Creating Layer ConvNd_23_ConvNd_23_0_split
I0224 07:36:01.616547  1325 net.cpp:481] ConvNd_23_ConvNd_23_0_split <- ConvNd_23
I0224 07:36:01.616552  1325 net.cpp:455] ConvNd_23_ConvNd_23_0_split -> ConvNd_23_ConvNd_23_0_split_0
I0224 07:36:01.616559  1325 net.cpp:455] ConvNd_23_ConvNd_23_0_split -> ConvNd_23_ConvNd_23_0_split_1
I0224 07:36:01.616585  1325 net.cpp:190] Setting up ConvNd_23_ConvNd_23_0_split
I0224 07:36:01.616590  1325 net.cpp:197] Top shape: 1 25 64 128 (204800)
I0224 07:36:01.616595  1325 net.cpp:197] Top shape: 1 25 64 128 (204800)
I0224 07:36:01.616598  1325 net.cpp:205] Memory required for data: 427327492
I0224 07:36:01.616601  1325 layer_factory.hpp:123] Creating layer ConvNd_24
I0224 07:36:01.616607  1325 net.cpp:140] Creating Layer ConvNd_24
I0224 07:36:01.616611  1325 net.cpp:481] ConvNd_24 <- ConvNd_21_ConvNd_21_0_split_2
I0224 07:36:01.616616  1325 net.cpp:455] ConvNd_24 -> ConvNd_24
I0224 07:36:01.616813  1325 net.cpp:190] Setting up ConvNd_24
I0224 07:36:01.616818  1325 net.cpp:197] Top shape: 1 25 64 128 (204800)
I0224 07:36:01.616824  1325 net.cpp:205] Memory required for data: 428146692
I0224 07:36:01.616828  1325 layer_factory.hpp:123] Creating layer Add_12
I0224 07:36:01.616833  1325 net.cpp:140] Creating Layer Add_12
I0224 07:36:01.616837  1325 net.cpp:481] Add_12 <- ConvNd_23_ConvNd_23_0_split_0
I0224 07:36:01.616842  1325 net.cpp:481] Add_12 <- ConvNd_24
I0224 07:36:01.616845  1325 net.cpp:455] Add_12 -> Add_12
I0224 07:36:01.616868  1325 net.cpp:190] Setting up Add_12
I0224 07:36:01.616873  1325 net.cpp:197] Top shape: 1 25 64 128 (204800)
I0224 07:36:01.616878  1325 net.cpp:205] Memory required for data: 428965892
I0224 07:36:01.616881  1325 layer_factory.hpp:123] Creating layer Add_12_Add_12_0_split
I0224 07:36:01.616888  1325 net.cpp:140] Creating Layer Add_12_Add_12_0_split
I0224 07:36:01.616894  1325 net.cpp:481] Add_12_Add_12_0_split <- Add_12
I0224 07:36:01.616899  1325 net.cpp:455] Add_12_Add_12_0_split -> Add_12_Add_12_0_split_0
I0224 07:36:01.616904  1325 net.cpp:455] Add_12_Add_12_0_split -> Add_12_Add_12_0_split_1
I0224 07:36:01.616942  1325 net.cpp:190] Setting up Add_12_Add_12_0_split
I0224 07:36:01.616948  1325 net.cpp:197] Top shape: 1 25 64 128 (204800)
I0224 07:36:01.616953  1325 net.cpp:197] Top shape: 1 25 64 128 (204800)
I0224 07:36:01.616958  1325 net.cpp:205] Memory required for data: 430604292
I0224 07:36:01.616962  1325 layer_factory.hpp:123] Creating layer ConvNd_25
I0224 07:36:01.616971  1325 net.cpp:140] Creating Layer ConvNd_25
I0224 07:36:01.616974  1325 net.cpp:481] ConvNd_25 <- ConvNd_21_ConvNd_21_0_split_3
I0224 07:36:01.616978  1325 net.cpp:455] ConvNd_25 -> ConvNd_25
I0224 07:36:01.617184  1325 net.cpp:190] Setting up ConvNd_25
I0224 07:36:01.617190  1325 net.cpp:197] Top shape: 1 25 64 128 (204800)
I0224 07:36:01.617195  1325 net.cpp:205] Memory required for data: 431423492
I0224 07:36:01.617199  1325 layer_factory.hpp:123] Creating layer Add_13
I0224 07:36:01.617204  1325 net.cpp:140] Creating Layer Add_13
I0224 07:36:01.617208  1325 net.cpp:481] Add_13 <- Add_12_Add_12_0_split_0
I0224 07:36:01.617213  1325 net.cpp:481] Add_13 <- ConvNd_25
I0224 07:36:01.617216  1325 net.cpp:455] Add_13 -> Add_13
I0224 07:36:01.617234  1325 net.cpp:190] Setting up Add_13
I0224 07:36:01.617239  1325 net.cpp:197] Top shape: 1 25 64 128 (204800)
I0224 07:36:01.617244  1325 net.cpp:205] Memory required for data: 432242692
I0224 07:36:01.617247  1325 layer_factory.hpp:123] Creating layer Add_13_Add_13_0_split
I0224 07:36:01.617252  1325 net.cpp:140] Creating Layer Add_13_Add_13_0_split
I0224 07:36:01.617255  1325 net.cpp:481] Add_13_Add_13_0_split <- Add_13
I0224 07:36:01.617260  1325 net.cpp:455] Add_13_Add_13_0_split -> Add_13_Add_13_0_split_0
I0224 07:36:01.617265  1325 net.cpp:455] Add_13_Add_13_0_split -> Add_13_Add_13_0_split_1
I0224 07:36:01.617295  1325 net.cpp:190] Setting up Add_13_Add_13_0_split
I0224 07:36:01.617300  1325 net.cpp:197] Top shape: 1 25 64 128 (204800)
I0224 07:36:01.617305  1325 net.cpp:197] Top shape: 1 25 64 128 (204800)
I0224 07:36:01.617310  1325 net.cpp:205] Memory required for data: 433881092
I0224 07:36:01.617321  1325 layer_factory.hpp:123] Creating layer ConvNd_26
I0224 07:36:01.617331  1325 net.cpp:140] Creating Layer ConvNd_26
I0224 07:36:01.617336  1325 net.cpp:481] ConvNd_26 <- ConvNd_21_ConvNd_21_0_split_4
I0224 07:36:01.617343  1325 net.cpp:455] ConvNd_26 -> ConvNd_26
I0224 07:36:01.617555  1325 net.cpp:190] Setting up ConvNd_26
I0224 07:36:01.617563  1325 net.cpp:197] Top shape: 1 25 64 128 (204800)
I0224 07:36:01.617566  1325 net.cpp:205] Memory required for data: 434700292
I0224 07:36:01.617571  1325 layer_factory.hpp:123] Creating layer Add_14
I0224 07:36:01.617576  1325 net.cpp:140] Creating Layer Add_14
I0224 07:36:01.617580  1325 net.cpp:481] Add_14 <- Add_13_Add_13_0_split_0
I0224 07:36:01.617584  1325 net.cpp:481] Add_14 <- ConvNd_26
I0224 07:36:01.617589  1325 net.cpp:455] Add_14 -> Add_14
I0224 07:36:01.617606  1325 net.cpp:190] Setting up Add_14
I0224 07:36:01.617611  1325 net.cpp:197] Top shape: 1 25 64 128 (204800)
I0224 07:36:01.617616  1325 net.cpp:205] Memory required for data: 435519492
I0224 07:36:01.617619  1325 layer_factory.hpp:123] Creating layer Concat_6
I0224 07:36:01.617624  1325 net.cpp:140] Creating Layer Concat_6
I0224 07:36:01.617628  1325 net.cpp:481] Concat_6 <- ConvNd_22
I0224 07:36:01.617635  1325 net.cpp:481] Concat_6 <- ConvNd_23_ConvNd_23_0_split_1
I0224 07:36:01.617638  1325 net.cpp:481] Concat_6 <- Add_12_Add_12_0_split_1
I0224 07:36:01.617641  1325 net.cpp:481] Concat_6 <- Add_13_Add_13_0_split_1
I0224 07:36:01.617645  1325 net.cpp:481] Concat_6 <- Add_14
I0224 07:36:01.617650  1325 net.cpp:455] Concat_6 -> Concat_6
I0224 07:36:01.617669  1325 net.cpp:190] Setting up Concat_6
I0224 07:36:01.617676  1325 net.cpp:197] Top shape: 1 128 64 128 (1048576)
I0224 07:36:01.617679  1325 net.cpp:205] Memory required for data: 439713796
I0224 07:36:01.617682  1325 layer_factory.hpp:123] Creating layer BatchNorm_7
I0224 07:36:01.617689  1325 net.cpp:140] Creating Layer BatchNorm_7
I0224 07:36:01.617693  1325 net.cpp:481] BatchNorm_7 <- Concat_6
I0224 07:36:01.617700  1325 net.cpp:455] BatchNorm_7 -> BatchNorm_7
I0224 07:36:01.618165  1325 net.cpp:190] Setting up BatchNorm_7
I0224 07:36:01.618172  1325 net.cpp:197] Top shape: 1 128 64 128 (1048576)
I0224 07:36:01.618178  1325 net.cpp:205] Memory required for data: 443908100
I0224 07:36:01.618189  1325 layer_factory.hpp:123] Creating layer Threshold_7
I0224 07:36:01.618197  1325 net.cpp:140] Creating Layer Threshold_7
I0224 07:36:01.618201  1325 net.cpp:481] Threshold_7 <- BatchNorm_7
I0224 07:36:01.618207  1325 net.cpp:442] Threshold_7 -> BatchNorm_7 (in-place)
I0224 07:36:01.618216  1325 net.cpp:190] Setting up Threshold_7
I0224 07:36:01.618221  1325 net.cpp:197] Top shape: 1 128 64 128 (1048576)
I0224 07:36:01.618227  1325 net.cpp:205] Memory required for data: 448102404
I0224 07:36:01.618232  1325 layer_factory.hpp:123] Creating layer BatchNorm_7_Threshold_7_0_split
I0224 07:36:01.618238  1325 net.cpp:140] Creating Layer BatchNorm_7_Threshold_7_0_split
I0224 07:36:01.618242  1325 net.cpp:481] BatchNorm_7_Threshold_7_0_split <- BatchNorm_7
I0224 07:36:01.618249  1325 net.cpp:455] BatchNorm_7_Threshold_7_0_split -> BatchNorm_7_Threshold_7_0_split_0
I0224 07:36:01.618257  1325 net.cpp:455] BatchNorm_7_Threshold_7_0_split -> BatchNorm_7_Threshold_7_0_split_1
I0224 07:36:01.618264  1325 net.cpp:455] BatchNorm_7_Threshold_7_0_split -> BatchNorm_7_Threshold_7_0_split_2
I0224 07:36:01.618306  1325 net.cpp:190] Setting up BatchNorm_7_Threshold_7_0_split
I0224 07:36:01.618312  1325 net.cpp:197] Top shape: 1 128 64 128 (1048576)
I0224 07:36:01.618319  1325 net.cpp:197] Top shape: 1 128 64 128 (1048576)
I0224 07:36:01.618325  1325 net.cpp:197] Top shape: 1 128 64 128 (1048576)
I0224 07:36:01.618331  1325 net.cpp:205] Memory required for data: 460685316
I0224 07:36:01.618335  1325 layer_factory.hpp:123] Creating layer ConvNd_27
I0224 07:36:01.618345  1325 net.cpp:140] Creating Layer ConvNd_27
I0224 07:36:01.618353  1325 net.cpp:481] ConvNd_27 <- BatchNorm_7_Threshold_7_0_split_0
I0224 07:36:01.618360  1325 net.cpp:455] ConvNd_27 -> ConvNd_27
I0224 07:36:01.618546  1325 net.cpp:190] Setting up ConvNd_27
I0224 07:36:01.618553  1325 net.cpp:197] Top shape: 1 25 64 128 (204800)
I0224 07:36:01.618558  1325 net.cpp:205] Memory required for data: 461504516
I0224 07:36:01.618566  1325 layer_factory.hpp:123] Creating layer ConvNd_27_ConvNd_27_0_split
I0224 07:36:01.618572  1325 net.cpp:140] Creating Layer ConvNd_27_ConvNd_27_0_split
I0224 07:36:01.618577  1325 net.cpp:481] ConvNd_27_ConvNd_27_0_split <- ConvNd_27
I0224 07:36:01.618584  1325 net.cpp:455] ConvNd_27_ConvNd_27_0_split -> ConvNd_27_ConvNd_27_0_split_0
I0224 07:36:01.618593  1325 net.cpp:455] ConvNd_27_ConvNd_27_0_split -> ConvNd_27_ConvNd_27_0_split_1
I0224 07:36:01.618602  1325 net.cpp:455] ConvNd_27_ConvNd_27_0_split -> ConvNd_27_ConvNd_27_0_split_2
I0224 07:36:01.618609  1325 net.cpp:455] ConvNd_27_ConvNd_27_0_split -> ConvNd_27_ConvNd_27_0_split_3
I0224 07:36:01.618616  1325 net.cpp:455] ConvNd_27_ConvNd_27_0_split -> ConvNd_27_ConvNd_27_0_split_4
I0224 07:36:01.618677  1325 net.cpp:190] Setting up ConvNd_27_ConvNd_27_0_split
I0224 07:36:01.618685  1325 net.cpp:197] Top shape: 1 25 64 128 (204800)
I0224 07:36:01.618690  1325 net.cpp:197] Top shape: 1 25 64 128 (204800)
I0224 07:36:01.618695  1325 net.cpp:197] Top shape: 1 25 64 128 (204800)
I0224 07:36:01.618700  1325 net.cpp:197] Top shape: 1 25 64 128 (204800)
I0224 07:36:01.618706  1325 net.cpp:197] Top shape: 1 25 64 128 (204800)
I0224 07:36:01.618711  1325 net.cpp:205] Memory required for data: 465600516
I0224 07:36:01.618716  1325 layer_factory.hpp:123] Creating layer ConvNd_28
I0224 07:36:01.618726  1325 net.cpp:140] Creating Layer ConvNd_28
I0224 07:36:01.618731  1325 net.cpp:481] ConvNd_28 <- ConvNd_27_ConvNd_27_0_split_0
I0224 07:36:01.618738  1325 net.cpp:455] ConvNd_28 -> ConvNd_28
I0224 07:36:01.618955  1325 net.cpp:190] Setting up ConvNd_28
I0224 07:36:01.618963  1325 net.cpp:197] Top shape: 1 28 64 128 (229376)
I0224 07:36:01.618968  1325 net.cpp:205] Memory required for data: 466518020
I0224 07:36:01.618973  1325 layer_factory.hpp:123] Creating layer ConvNd_29
I0224 07:36:01.618979  1325 net.cpp:140] Creating Layer ConvNd_29
I0224 07:36:01.618983  1325 net.cpp:481] ConvNd_29 <- ConvNd_27_ConvNd_27_0_split_1
I0224 07:36:01.618988  1325 net.cpp:455] ConvNd_29 -> ConvNd_29
I0224 07:36:01.619189  1325 net.cpp:190] Setting up ConvNd_29
I0224 07:36:01.619194  1325 net.cpp:197] Top shape: 1 25 64 128 (204800)
I0224 07:36:01.619199  1325 net.cpp:205] Memory required for data: 467337220
I0224 07:36:01.619204  1325 layer_factory.hpp:123] Creating layer ConvNd_29_ConvNd_29_0_split
I0224 07:36:01.619208  1325 net.cpp:140] Creating Layer ConvNd_29_ConvNd_29_0_split
I0224 07:36:01.619211  1325 net.cpp:481] ConvNd_29_ConvNd_29_0_split <- ConvNd_29
I0224 07:36:01.619217  1325 net.cpp:455] ConvNd_29_ConvNd_29_0_split -> ConvNd_29_ConvNd_29_0_split_0
I0224 07:36:01.619222  1325 net.cpp:455] ConvNd_29_ConvNd_29_0_split -> ConvNd_29_ConvNd_29_0_split_1
I0224 07:36:01.619248  1325 net.cpp:190] Setting up ConvNd_29_ConvNd_29_0_split
I0224 07:36:01.619254  1325 net.cpp:197] Top shape: 1 25 64 128 (204800)
I0224 07:36:01.619258  1325 net.cpp:197] Top shape: 1 25 64 128 (204800)
I0224 07:36:01.619262  1325 net.cpp:205] Memory required for data: 468975620
I0224 07:36:01.619266  1325 layer_factory.hpp:123] Creating layer ConvNd_30
I0224 07:36:01.619271  1325 net.cpp:140] Creating Layer ConvNd_30
I0224 07:36:01.619276  1325 net.cpp:481] ConvNd_30 <- ConvNd_27_ConvNd_27_0_split_2
I0224 07:36:01.619279  1325 net.cpp:455] ConvNd_30 -> ConvNd_30
I0224 07:36:01.619477  1325 net.cpp:190] Setting up ConvNd_30
I0224 07:36:01.619482  1325 net.cpp:197] Top shape: 1 25 64 128 (204800)
I0224 07:36:01.619487  1325 net.cpp:205] Memory required for data: 469794820
I0224 07:36:01.619493  1325 layer_factory.hpp:123] Creating layer Add_15
I0224 07:36:01.619499  1325 net.cpp:140] Creating Layer Add_15
I0224 07:36:01.619503  1325 net.cpp:481] Add_15 <- ConvNd_29_ConvNd_29_0_split_0
I0224 07:36:01.619508  1325 net.cpp:481] Add_15 <- ConvNd_30
I0224 07:36:01.619513  1325 net.cpp:455] Add_15 -> Add_15
I0224 07:36:01.619534  1325 net.cpp:190] Setting up Add_15
I0224 07:36:01.619539  1325 net.cpp:197] Top shape: 1 25 64 128 (204800)
I0224 07:36:01.619544  1325 net.cpp:205] Memory required for data: 470614020
I0224 07:36:01.619546  1325 layer_factory.hpp:123] Creating layer Add_15_Add_15_0_split
I0224 07:36:01.619551  1325 net.cpp:140] Creating Layer Add_15_Add_15_0_split
I0224 07:36:01.619555  1325 net.cpp:481] Add_15_Add_15_0_split <- Add_15
I0224 07:36:01.619560  1325 net.cpp:455] Add_15_Add_15_0_split -> Add_15_Add_15_0_split_0
I0224 07:36:01.619565  1325 net.cpp:455] Add_15_Add_15_0_split -> Add_15_Add_15_0_split_1
I0224 07:36:01.619590  1325 net.cpp:190] Setting up Add_15_Add_15_0_split
I0224 07:36:01.619596  1325 net.cpp:197] Top shape: 1 25 64 128 (204800)
I0224 07:36:01.619601  1325 net.cpp:197] Top shape: 1 25 64 128 (204800)
I0224 07:36:01.619604  1325 net.cpp:205] Memory required for data: 472252420
I0224 07:36:01.619607  1325 layer_factory.hpp:123] Creating layer ConvNd_31
I0224 07:36:01.619613  1325 net.cpp:140] Creating Layer ConvNd_31
I0224 07:36:01.619617  1325 net.cpp:481] ConvNd_31 <- ConvNd_27_ConvNd_27_0_split_3
I0224 07:36:01.619622  1325 net.cpp:455] ConvNd_31 -> ConvNd_31
I0224 07:36:01.619817  1325 net.cpp:190] Setting up ConvNd_31
I0224 07:36:01.619824  1325 net.cpp:197] Top shape: 1 25 64 128 (204800)
I0224 07:36:01.619829  1325 net.cpp:205] Memory required for data: 473071620
I0224 07:36:01.619833  1325 layer_factory.hpp:123] Creating layer Add_16
I0224 07:36:01.619838  1325 net.cpp:140] Creating Layer Add_16
I0224 07:36:01.619843  1325 net.cpp:481] Add_16 <- Add_15_Add_15_0_split_0
I0224 07:36:01.619846  1325 net.cpp:481] Add_16 <- ConvNd_31
I0224 07:36:01.619850  1325 net.cpp:455] Add_16 -> Add_16
I0224 07:36:01.619868  1325 net.cpp:190] Setting up Add_16
I0224 07:36:01.619874  1325 net.cpp:197] Top shape: 1 25 64 128 (204800)
I0224 07:36:01.619877  1325 net.cpp:205] Memory required for data: 473890820
I0224 07:36:01.619881  1325 layer_factory.hpp:123] Creating layer Add_16_Add_16_0_split
I0224 07:36:01.619885  1325 net.cpp:140] Creating Layer Add_16_Add_16_0_split
I0224 07:36:01.619889  1325 net.cpp:481] Add_16_Add_16_0_split <- Add_16
I0224 07:36:01.619895  1325 net.cpp:455] Add_16_Add_16_0_split -> Add_16_Add_16_0_split_0
I0224 07:36:01.619904  1325 net.cpp:455] Add_16_Add_16_0_split -> Add_16_Add_16_0_split_1
I0224 07:36:01.619933  1325 net.cpp:190] Setting up Add_16_Add_16_0_split
I0224 07:36:01.619940  1325 net.cpp:197] Top shape: 1 25 64 128 (204800)
I0224 07:36:01.619943  1325 net.cpp:197] Top shape: 1 25 64 128 (204800)
I0224 07:36:01.619949  1325 net.cpp:205] Memory required for data: 475529220
I0224 07:36:01.619954  1325 layer_factory.hpp:123] Creating layer ConvNd_32
I0224 07:36:01.619962  1325 net.cpp:140] Creating Layer ConvNd_32
I0224 07:36:01.619968  1325 net.cpp:481] ConvNd_32 <- ConvNd_27_ConvNd_27_0_split_4
I0224 07:36:01.619974  1325 net.cpp:455] ConvNd_32 -> ConvNd_32
I0224 07:36:01.620177  1325 net.cpp:190] Setting up ConvNd_32
I0224 07:36:01.620184  1325 net.cpp:197] Top shape: 1 25 64 128 (204800)
I0224 07:36:01.620188  1325 net.cpp:205] Memory required for data: 476348420
I0224 07:36:01.620194  1325 layer_factory.hpp:123] Creating layer Add_17
I0224 07:36:01.620203  1325 net.cpp:140] Creating Layer Add_17
I0224 07:36:01.620206  1325 net.cpp:481] Add_17 <- Add_16_Add_16_0_split_0
I0224 07:36:01.620213  1325 net.cpp:481] Add_17 <- ConvNd_32
I0224 07:36:01.620219  1325 net.cpp:455] Add_17 -> Add_17
I0224 07:36:01.620242  1325 net.cpp:190] Setting up Add_17
I0224 07:36:01.620247  1325 net.cpp:197] Top shape: 1 25 64 128 (204800)
I0224 07:36:01.620252  1325 net.cpp:205] Memory required for data: 477167620
I0224 07:36:01.620256  1325 layer_factory.hpp:123] Creating layer Concat_7
I0224 07:36:01.620263  1325 net.cpp:140] Creating Layer Concat_7
I0224 07:36:01.620268  1325 net.cpp:481] Concat_7 <- ConvNd_28
I0224 07:36:01.620273  1325 net.cpp:481] Concat_7 <- ConvNd_29_ConvNd_29_0_split_1
I0224 07:36:01.620280  1325 net.cpp:481] Concat_7 <- Add_15_Add_15_0_split_1
I0224 07:36:01.620285  1325 net.cpp:481] Concat_7 <- Add_16_Add_16_0_split_1
I0224 07:36:01.620290  1325 net.cpp:481] Concat_7 <- Add_17
I0224 07:36:01.620296  1325 net.cpp:455] Concat_7 -> Concat_7
I0224 07:36:01.620317  1325 net.cpp:190] Setting up Concat_7
I0224 07:36:01.620323  1325 net.cpp:197] Top shape: 1 128 64 128 (1048576)
I0224 07:36:01.620327  1325 net.cpp:205] Memory required for data: 481361924
I0224 07:36:01.620332  1325 layer_factory.hpp:123] Creating layer Add_18
I0224 07:36:01.620338  1325 net.cpp:140] Creating Layer Add_18
I0224 07:36:01.620343  1325 net.cpp:481] Add_18 <- BatchNorm_7_Threshold_7_0_split_1
I0224 07:36:01.620348  1325 net.cpp:481] Add_18 <- Concat_7
I0224 07:36:01.620354  1325 net.cpp:455] Add_18 -> Add_18
I0224 07:36:01.620376  1325 net.cpp:190] Setting up Add_18
I0224 07:36:01.620381  1325 net.cpp:197] Top shape: 1 128 64 128 (1048576)
I0224 07:36:01.620386  1325 net.cpp:205] Memory required for data: 485556228
I0224 07:36:01.620390  1325 layer_factory.hpp:123] Creating layer BatchNorm_8
I0224 07:36:01.620399  1325 net.cpp:140] Creating Layer BatchNorm_8
I0224 07:36:01.620404  1325 net.cpp:481] BatchNorm_8 <- Add_18
I0224 07:36:01.620411  1325 net.cpp:455] BatchNorm_8 -> BatchNorm_8
I0224 07:36:01.620872  1325 net.cpp:190] Setting up BatchNorm_8
I0224 07:36:01.620879  1325 net.cpp:197] Top shape: 1 128 64 128 (1048576)
I0224 07:36:01.620885  1325 net.cpp:205] Memory required for data: 489750532
I0224 07:36:01.620896  1325 layer_factory.hpp:123] Creating layer Threshold_8
I0224 07:36:01.620905  1325 net.cpp:140] Creating Layer Threshold_8
I0224 07:36:01.620909  1325 net.cpp:481] Threshold_8 <- BatchNorm_8
I0224 07:36:01.620915  1325 net.cpp:442] Threshold_8 -> BatchNorm_8 (in-place)
I0224 07:36:01.620923  1325 net.cpp:190] Setting up Threshold_8
I0224 07:36:01.620927  1325 net.cpp:197] Top shape: 1 128 64 128 (1048576)
I0224 07:36:01.620934  1325 net.cpp:205] Memory required for data: 493944836
I0224 07:36:01.620939  1325 layer_factory.hpp:123] Creating layer BatchNorm_8_Threshold_8_0_split
I0224 07:36:01.620944  1325 net.cpp:140] Creating Layer BatchNorm_8_Threshold_8_0_split
I0224 07:36:01.620949  1325 net.cpp:481] BatchNorm_8_Threshold_8_0_split <- BatchNorm_8
I0224 07:36:01.620955  1325 net.cpp:455] BatchNorm_8_Threshold_8_0_split -> BatchNorm_8_Threshold_8_0_split_0
I0224 07:36:01.620963  1325 net.cpp:455] BatchNorm_8_Threshold_8_0_split -> BatchNorm_8_Threshold_8_0_split_1
I0224 07:36:01.620996  1325 net.cpp:190] Setting up BatchNorm_8_Threshold_8_0_split
I0224 07:36:01.621002  1325 net.cpp:197] Top shape: 1 128 64 128 (1048576)
I0224 07:36:01.621006  1325 net.cpp:197] Top shape: 1 128 64 128 (1048576)
I0224 07:36:01.621012  1325 net.cpp:205] Memory required for data: 502333444
I0224 07:36:01.621016  1325 layer_factory.hpp:123] Creating layer ConvNd_33
I0224 07:36:01.621026  1325 net.cpp:140] Creating Layer ConvNd_33
I0224 07:36:01.621031  1325 net.cpp:481] ConvNd_33 <- BatchNorm_8_Threshold_8_0_split_0
I0224 07:36:01.621037  1325 net.cpp:455] ConvNd_33 -> ConvNd_33
I0224 07:36:01.621222  1325 net.cpp:190] Setting up ConvNd_33
I0224 07:36:01.621229  1325 net.cpp:197] Top shape: 1 25 64 128 (204800)
I0224 07:36:01.621234  1325 net.cpp:205] Memory required for data: 503152644
I0224 07:36:01.621240  1325 layer_factory.hpp:123] Creating layer ConvNd_33_ConvNd_33_0_split
I0224 07:36:01.621248  1325 net.cpp:140] Creating Layer ConvNd_33_ConvNd_33_0_split
I0224 07:36:01.621253  1325 net.cpp:481] ConvNd_33_ConvNd_33_0_split <- ConvNd_33
I0224 07:36:01.621260  1325 net.cpp:455] ConvNd_33_ConvNd_33_0_split -> ConvNd_33_ConvNd_33_0_split_0
I0224 07:36:01.621269  1325 net.cpp:455] ConvNd_33_ConvNd_33_0_split -> ConvNd_33_ConvNd_33_0_split_1
I0224 07:36:01.621278  1325 net.cpp:455] ConvNd_33_ConvNd_33_0_split -> ConvNd_33_ConvNd_33_0_split_2
I0224 07:36:01.621285  1325 net.cpp:455] ConvNd_33_ConvNd_33_0_split -> ConvNd_33_ConvNd_33_0_split_3
I0224 07:36:01.621292  1325 net.cpp:455] ConvNd_33_ConvNd_33_0_split -> ConvNd_33_ConvNd_33_0_split_4
I0224 07:36:01.621357  1325 net.cpp:190] Setting up ConvNd_33_ConvNd_33_0_split
I0224 07:36:01.621364  1325 net.cpp:197] Top shape: 1 25 64 128 (204800)
I0224 07:36:01.621368  1325 net.cpp:197] Top shape: 1 25 64 128 (204800)
I0224 07:36:01.621372  1325 net.cpp:197] Top shape: 1 25 64 128 (204800)
I0224 07:36:01.621378  1325 net.cpp:197] Top shape: 1 25 64 128 (204800)
I0224 07:36:01.621385  1325 net.cpp:197] Top shape: 1 25 64 128 (204800)
I0224 07:36:01.621390  1325 net.cpp:205] Memory required for data: 507248644
I0224 07:36:01.621395  1325 layer_factory.hpp:123] Creating layer ConvNd_34
I0224 07:36:01.621405  1325 net.cpp:140] Creating Layer ConvNd_34
I0224 07:36:01.621410  1325 net.cpp:481] ConvNd_34 <- ConvNd_33_ConvNd_33_0_split_0
I0224 07:36:01.621417  1325 net.cpp:455] ConvNd_34 -> ConvNd_34
I0224 07:36:01.621647  1325 net.cpp:190] Setting up ConvNd_34
I0224 07:36:01.621654  1325 net.cpp:197] Top shape: 1 28 64 128 (229376)
I0224 07:36:01.621659  1325 net.cpp:205] Memory required for data: 508166148
I0224 07:36:01.621664  1325 layer_factory.hpp:123] Creating layer ConvNd_35
I0224 07:36:01.621670  1325 net.cpp:140] Creating Layer ConvNd_35
I0224 07:36:01.621673  1325 net.cpp:481] ConvNd_35 <- ConvNd_33_ConvNd_33_0_split_1
I0224 07:36:01.621678  1325 net.cpp:455] ConvNd_35 -> ConvNd_35
I0224 07:36:01.621884  1325 net.cpp:190] Setting up ConvNd_35
I0224 07:36:01.621891  1325 net.cpp:197] Top shape: 1 25 64 128 (204800)
I0224 07:36:01.621896  1325 net.cpp:205] Memory required for data: 508985348
I0224 07:36:01.621901  1325 layer_factory.hpp:123] Creating layer ConvNd_35_ConvNd_35_0_split
I0224 07:36:01.621906  1325 net.cpp:140] Creating Layer ConvNd_35_ConvNd_35_0_split
I0224 07:36:01.621909  1325 net.cpp:481] ConvNd_35_ConvNd_35_0_split <- ConvNd_35
I0224 07:36:01.621914  1325 net.cpp:455] ConvNd_35_ConvNd_35_0_split -> ConvNd_35_ConvNd_35_0_split_0
I0224 07:36:01.621919  1325 net.cpp:455] ConvNd_35_ConvNd_35_0_split -> ConvNd_35_ConvNd_35_0_split_1
I0224 07:36:01.621946  1325 net.cpp:190] Setting up ConvNd_35_ConvNd_35_0_split
I0224 07:36:01.621953  1325 net.cpp:197] Top shape: 1 25 64 128 (204800)
I0224 07:36:01.621956  1325 net.cpp:197] Top shape: 1 25 64 128 (204800)
I0224 07:36:01.621960  1325 net.cpp:205] Memory required for data: 510623748
I0224 07:36:01.621963  1325 layer_factory.hpp:123] Creating layer ConvNd_36
I0224 07:36:01.621969  1325 net.cpp:140] Creating Layer ConvNd_36
I0224 07:36:01.621973  1325 net.cpp:481] ConvNd_36 <- ConvNd_33_ConvNd_33_0_split_2
I0224 07:36:01.621978  1325 net.cpp:455] ConvNd_36 -> ConvNd_36
I0224 07:36:01.622179  1325 net.cpp:190] Setting up ConvNd_36
I0224 07:36:01.622185  1325 net.cpp:197] Top shape: 1 25 64 128 (204800)
I0224 07:36:01.622189  1325 net.cpp:205] Memory required for data: 511442948
I0224 07:36:01.622195  1325 layer_factory.hpp:123] Creating layer Add_19
I0224 07:36:01.622200  1325 net.cpp:140] Creating Layer Add_19
I0224 07:36:01.622203  1325 net.cpp:481] Add_19 <- ConvNd_35_ConvNd_35_0_split_0
I0224 07:36:01.622207  1325 net.cpp:481] Add_19 <- ConvNd_36
I0224 07:36:01.622211  1325 net.cpp:455] Add_19 -> Add_19
I0224 07:36:01.622229  1325 net.cpp:190] Setting up Add_19
I0224 07:36:01.622234  1325 net.cpp:197] Top shape: 1 25 64 128 (204800)
I0224 07:36:01.622238  1325 net.cpp:205] Memory required for data: 512262148
I0224 07:36:01.622242  1325 layer_factory.hpp:123] Creating layer Add_19_Add_19_0_split
I0224 07:36:01.622246  1325 net.cpp:140] Creating Layer Add_19_Add_19_0_split
I0224 07:36:01.622251  1325 net.cpp:481] Add_19_Add_19_0_split <- Add_19
I0224 07:36:01.622254  1325 net.cpp:455] Add_19_Add_19_0_split -> Add_19_Add_19_0_split_0
I0224 07:36:01.622261  1325 net.cpp:455] Add_19_Add_19_0_split -> Add_19_Add_19_0_split_1
I0224 07:36:01.622287  1325 net.cpp:190] Setting up Add_19_Add_19_0_split
I0224 07:36:01.622292  1325 net.cpp:197] Top shape: 1 25 64 128 (204800)
I0224 07:36:01.622295  1325 net.cpp:197] Top shape: 1 25 64 128 (204800)
I0224 07:36:01.622301  1325 net.cpp:205] Memory required for data: 513900548
I0224 07:36:01.622305  1325 layer_factory.hpp:123] Creating layer ConvNd_37
I0224 07:36:01.622314  1325 net.cpp:140] Creating Layer ConvNd_37
I0224 07:36:01.622320  1325 net.cpp:481] ConvNd_37 <- ConvNd_33_ConvNd_33_0_split_3
I0224 07:36:01.622328  1325 net.cpp:455] ConvNd_37 -> ConvNd_37
I0224 07:36:01.622531  1325 net.cpp:190] Setting up ConvNd_37
I0224 07:36:01.622537  1325 net.cpp:197] Top shape: 1 25 64 128 (204800)
I0224 07:36:01.622542  1325 net.cpp:205] Memory required for data: 514719748
I0224 07:36:01.622546  1325 layer_factory.hpp:123] Creating layer Add_20
I0224 07:36:01.622551  1325 net.cpp:140] Creating Layer Add_20
I0224 07:36:01.622555  1325 net.cpp:481] Add_20 <- Add_19_Add_19_0_split_0
I0224 07:36:01.622560  1325 net.cpp:481] Add_20 <- ConvNd_37
I0224 07:36:01.622565  1325 net.cpp:455] Add_20 -> Add_20
I0224 07:36:01.622581  1325 net.cpp:190] Setting up Add_20
I0224 07:36:01.622586  1325 net.cpp:197] Top shape: 1 25 64 128 (204800)
I0224 07:36:01.622591  1325 net.cpp:205] Memory required for data: 515538948
I0224 07:36:01.622594  1325 layer_factory.hpp:123] Creating layer Add_20_Add_20_0_split
I0224 07:36:01.622598  1325 net.cpp:140] Creating Layer Add_20_Add_20_0_split
I0224 07:36:01.622602  1325 net.cpp:481] Add_20_Add_20_0_split <- Add_20
I0224 07:36:01.622608  1325 net.cpp:455] Add_20_Add_20_0_split -> Add_20_Add_20_0_split_0
I0224 07:36:01.622614  1325 net.cpp:455] Add_20_Add_20_0_split -> Add_20_Add_20_0_split_1
I0224 07:36:01.622640  1325 net.cpp:190] Setting up Add_20_Add_20_0_split
I0224 07:36:01.622645  1325 net.cpp:197] Top shape: 1 25 64 128 (204800)
I0224 07:36:01.622650  1325 net.cpp:197] Top shape: 1 25 64 128 (204800)
I0224 07:36:01.622654  1325 net.cpp:205] Memory required for data: 517177348
I0224 07:36:01.622658  1325 layer_factory.hpp:123] Creating layer ConvNd_38
I0224 07:36:01.622663  1325 net.cpp:140] Creating Layer ConvNd_38
I0224 07:36:01.622668  1325 net.cpp:481] ConvNd_38 <- ConvNd_33_ConvNd_33_0_split_4
I0224 07:36:01.622673  1325 net.cpp:455] ConvNd_38 -> ConvNd_38
I0224 07:36:01.622874  1325 net.cpp:190] Setting up ConvNd_38
I0224 07:36:01.622880  1325 net.cpp:197] Top shape: 1 25 64 128 (204800)
I0224 07:36:01.622884  1325 net.cpp:205] Memory required for data: 517996548
I0224 07:36:01.622889  1325 layer_factory.hpp:123] Creating layer Add_21
I0224 07:36:01.622895  1325 net.cpp:140] Creating Layer Add_21
I0224 07:36:01.622898  1325 net.cpp:481] Add_21 <- Add_20_Add_20_0_split_0
I0224 07:36:01.622902  1325 net.cpp:481] Add_21 <- ConvNd_38
I0224 07:36:01.622907  1325 net.cpp:455] Add_21 -> Add_21
I0224 07:36:01.622931  1325 net.cpp:190] Setting up Add_21
I0224 07:36:01.622936  1325 net.cpp:197] Top shape: 1 25 64 128 (204800)
I0224 07:36:01.622941  1325 net.cpp:205] Memory required for data: 518815748
I0224 07:36:01.622944  1325 layer_factory.hpp:123] Creating layer Concat_8
I0224 07:36:01.622951  1325 net.cpp:140] Creating Layer Concat_8
I0224 07:36:01.622956  1325 net.cpp:481] Concat_8 <- ConvNd_34
I0224 07:36:01.622961  1325 net.cpp:481] Concat_8 <- ConvNd_35_ConvNd_35_0_split_1
I0224 07:36:01.622967  1325 net.cpp:481] Concat_8 <- Add_19_Add_19_0_split_1
I0224 07:36:01.622972  1325 net.cpp:481] Concat_8 <- Add_20_Add_20_0_split_1
I0224 07:36:01.622977  1325 net.cpp:481] Concat_8 <- Add_21
I0224 07:36:01.622983  1325 net.cpp:455] Concat_8 -> Concat_8
I0224 07:36:01.623008  1325 net.cpp:190] Setting up Concat_8
I0224 07:36:01.623013  1325 net.cpp:197] Top shape: 1 128 64 128 (1048576)
I0224 07:36:01.623018  1325 net.cpp:205] Memory required for data: 523010052
I0224 07:36:01.623021  1325 layer_factory.hpp:123] Creating layer Add_22
I0224 07:36:01.623028  1325 net.cpp:140] Creating Layer Add_22
I0224 07:36:01.623034  1325 net.cpp:481] Add_22 <- BatchNorm_8_Threshold_8_0_split_1
I0224 07:36:01.623050  1325 net.cpp:481] Add_22 <- Concat_8
I0224 07:36:01.623057  1325 net.cpp:455] Add_22 -> Add_22
I0224 07:36:01.623080  1325 net.cpp:190] Setting up Add_22
I0224 07:36:01.623085  1325 net.cpp:197] Top shape: 1 128 64 128 (1048576)
I0224 07:36:01.623090  1325 net.cpp:205] Memory required for data: 527204356
I0224 07:36:01.623093  1325 layer_factory.hpp:123] Creating layer BatchNorm_9
I0224 07:36:01.623102  1325 net.cpp:140] Creating Layer BatchNorm_9
I0224 07:36:01.623106  1325 net.cpp:481] BatchNorm_9 <- Add_22
I0224 07:36:01.623113  1325 net.cpp:455] BatchNorm_9 -> BatchNorm_9
I0224 07:36:01.623590  1325 net.cpp:190] Setting up BatchNorm_9
I0224 07:36:01.623597  1325 net.cpp:197] Top shape: 1 128 64 128 (1048576)
I0224 07:36:01.623603  1325 net.cpp:205] Memory required for data: 531398660
I0224 07:36:01.623615  1325 layer_factory.hpp:123] Creating layer Threshold_9
I0224 07:36:01.623622  1325 net.cpp:140] Creating Layer Threshold_9
I0224 07:36:01.623626  1325 net.cpp:481] Threshold_9 <- BatchNorm_9
I0224 07:36:01.623632  1325 net.cpp:442] Threshold_9 -> BatchNorm_9 (in-place)
I0224 07:36:01.623641  1325 net.cpp:190] Setting up Threshold_9
I0224 07:36:01.623646  1325 net.cpp:197] Top shape: 1 128 64 128 (1048576)
I0224 07:36:01.623651  1325 net.cpp:205] Memory required for data: 535592964
I0224 07:36:01.623656  1325 layer_factory.hpp:123] Creating layer BatchNorm_9_Threshold_9_0_split
I0224 07:36:01.623662  1325 net.cpp:140] Creating Layer BatchNorm_9_Threshold_9_0_split
I0224 07:36:01.623667  1325 net.cpp:481] BatchNorm_9_Threshold_9_0_split <- BatchNorm_9
I0224 07:36:01.623673  1325 net.cpp:455] BatchNorm_9_Threshold_9_0_split -> BatchNorm_9_Threshold_9_0_split_0
I0224 07:36:01.623682  1325 net.cpp:455] BatchNorm_9_Threshold_9_0_split -> BatchNorm_9_Threshold_9_0_split_1
I0224 07:36:01.623713  1325 net.cpp:190] Setting up BatchNorm_9_Threshold_9_0_split
I0224 07:36:01.623718  1325 net.cpp:197] Top shape: 1 128 64 128 (1048576)
I0224 07:36:01.623723  1325 net.cpp:197] Top shape: 1 128 64 128 (1048576)
I0224 07:36:01.623728  1325 net.cpp:205] Memory required for data: 543981572
I0224 07:36:01.623733  1325 layer_factory.hpp:123] Creating layer ConvNd_39
I0224 07:36:01.623741  1325 net.cpp:140] Creating Layer ConvNd_39
I0224 07:36:01.623745  1325 net.cpp:481] ConvNd_39 <- BatchNorm_9_Threshold_9_0_split_0
I0224 07:36:01.623751  1325 net.cpp:455] ConvNd_39 -> ConvNd_39
I0224 07:36:01.623939  1325 net.cpp:190] Setting up ConvNd_39
I0224 07:36:01.623945  1325 net.cpp:197] Top shape: 1 25 64 128 (204800)
I0224 07:36:01.623950  1325 net.cpp:205] Memory required for data: 544800772
I0224 07:36:01.623955  1325 layer_factory.hpp:123] Creating layer ConvNd_39_ConvNd_39_0_split
I0224 07:36:01.623961  1325 net.cpp:140] Creating Layer ConvNd_39_ConvNd_39_0_split
I0224 07:36:01.623965  1325 net.cpp:481] ConvNd_39_ConvNd_39_0_split <- ConvNd_39
I0224 07:36:01.623970  1325 net.cpp:455] ConvNd_39_ConvNd_39_0_split -> ConvNd_39_ConvNd_39_0_split_0
I0224 07:36:01.623975  1325 net.cpp:455] ConvNd_39_ConvNd_39_0_split -> ConvNd_39_ConvNd_39_0_split_1
I0224 07:36:01.623981  1325 net.cpp:455] ConvNd_39_ConvNd_39_0_split -> ConvNd_39_ConvNd_39_0_split_2
I0224 07:36:01.623986  1325 net.cpp:455] ConvNd_39_ConvNd_39_0_split -> ConvNd_39_ConvNd_39_0_split_3
I0224 07:36:01.623991  1325 net.cpp:455] ConvNd_39_ConvNd_39_0_split -> ConvNd_39_ConvNd_39_0_split_4
I0224 07:36:01.624047  1325 net.cpp:190] Setting up ConvNd_39_ConvNd_39_0_split
I0224 07:36:01.624051  1325 net.cpp:197] Top shape: 1 25 64 128 (204800)
I0224 07:36:01.624055  1325 net.cpp:197] Top shape: 1 25 64 128 (204800)
I0224 07:36:01.624059  1325 net.cpp:197] Top shape: 1 25 64 128 (204800)
I0224 07:36:01.624064  1325 net.cpp:197] Top shape: 1 25 64 128 (204800)
I0224 07:36:01.624069  1325 net.cpp:197] Top shape: 1 25 64 128 (204800)
I0224 07:36:01.624075  1325 net.cpp:205] Memory required for data: 548896772
I0224 07:36:01.624080  1325 layer_factory.hpp:123] Creating layer ConvNd_40
I0224 07:36:01.624089  1325 net.cpp:140] Creating Layer ConvNd_40
I0224 07:36:01.624094  1325 net.cpp:481] ConvNd_40 <- ConvNd_39_ConvNd_39_0_split_0
I0224 07:36:01.624101  1325 net.cpp:455] ConvNd_40 -> ConvNd_40
I0224 07:36:01.624326  1325 net.cpp:190] Setting up ConvNd_40
I0224 07:36:01.624333  1325 net.cpp:197] Top shape: 1 28 64 128 (229376)
I0224 07:36:01.624338  1325 net.cpp:205] Memory required for data: 549814276
I0224 07:36:01.624344  1325 layer_factory.hpp:123] Creating layer ConvNd_41
I0224 07:36:01.624353  1325 net.cpp:140] Creating Layer ConvNd_41
I0224 07:36:01.624358  1325 net.cpp:481] ConvNd_41 <- ConvNd_39_ConvNd_39_0_split_1
I0224 07:36:01.624366  1325 net.cpp:455] ConvNd_41 -> ConvNd_41
I0224 07:36:01.624579  1325 net.cpp:190] Setting up ConvNd_41
I0224 07:36:01.624585  1325 net.cpp:197] Top shape: 1 25 64 128 (204800)
I0224 07:36:01.624590  1325 net.cpp:205] Memory required for data: 550633476
I0224 07:36:01.624596  1325 layer_factory.hpp:123] Creating layer ConvNd_41_ConvNd_41_0_split
I0224 07:36:01.624604  1325 net.cpp:140] Creating Layer ConvNd_41_ConvNd_41_0_split
I0224 07:36:01.624608  1325 net.cpp:481] ConvNd_41_ConvNd_41_0_split <- ConvNd_41
I0224 07:36:01.624615  1325 net.cpp:455] ConvNd_41_ConvNd_41_0_split -> ConvNd_41_ConvNd_41_0_split_0
I0224 07:36:01.624624  1325 net.cpp:455] ConvNd_41_ConvNd_41_0_split -> ConvNd_41_ConvNd_41_0_split_1
I0224 07:36:01.624656  1325 net.cpp:190] Setting up ConvNd_41_ConvNd_41_0_split
I0224 07:36:01.624662  1325 net.cpp:197] Top shape: 1 25 64 128 (204800)
I0224 07:36:01.624666  1325 net.cpp:197] Top shape: 1 25 64 128 (204800)
I0224 07:36:01.624671  1325 net.cpp:205] Memory required for data: 552271876
I0224 07:36:01.624676  1325 layer_factory.hpp:123] Creating layer ConvNd_42
I0224 07:36:01.624684  1325 net.cpp:140] Creating Layer ConvNd_42
I0224 07:36:01.624689  1325 net.cpp:481] ConvNd_42 <- ConvNd_39_ConvNd_39_0_split_2
I0224 07:36:01.624696  1325 net.cpp:455] ConvNd_42 -> ConvNd_42
I0224 07:36:01.624904  1325 net.cpp:190] Setting up ConvNd_42
I0224 07:36:01.624912  1325 net.cpp:197] Top shape: 1 25 64 128 (204800)
I0224 07:36:01.624915  1325 net.cpp:205] Memory required for data: 553091076
I0224 07:36:01.624922  1325 layer_factory.hpp:123] Creating layer Add_23
I0224 07:36:01.624933  1325 net.cpp:140] Creating Layer Add_23
I0224 07:36:01.624938  1325 net.cpp:481] Add_23 <- ConvNd_41_ConvNd_41_0_split_0
I0224 07:36:01.624943  1325 net.cpp:481] Add_23 <- ConvNd_42
I0224 07:36:01.624950  1325 net.cpp:455] Add_23 -> Add_23
I0224 07:36:01.624970  1325 net.cpp:190] Setting up Add_23
I0224 07:36:01.624975  1325 net.cpp:197] Top shape: 1 25 64 128 (204800)
I0224 07:36:01.624980  1325 net.cpp:205] Memory required for data: 553910276
I0224 07:36:01.624984  1325 layer_factory.hpp:123] Creating layer Add_23_Add_23_0_split
I0224 07:36:01.624989  1325 net.cpp:140] Creating Layer Add_23_Add_23_0_split
I0224 07:36:01.624994  1325 net.cpp:481] Add_23_Add_23_0_split <- Add_23
I0224 07:36:01.624999  1325 net.cpp:455] Add_23_Add_23_0_split -> Add_23_Add_23_0_split_0
I0224 07:36:01.625003  1325 net.cpp:455] Add_23_Add_23_0_split -> Add_23_Add_23_0_split_1
I0224 07:36:01.625033  1325 net.cpp:190] Setting up Add_23_Add_23_0_split
I0224 07:36:01.625039  1325 net.cpp:197] Top shape: 1 25 64 128 (204800)
I0224 07:36:01.625043  1325 net.cpp:197] Top shape: 1 25 64 128 (204800)
I0224 07:36:01.625049  1325 net.cpp:205] Memory required for data: 555548676
I0224 07:36:01.625054  1325 layer_factory.hpp:123] Creating layer ConvNd_43
I0224 07:36:01.625062  1325 net.cpp:140] Creating Layer ConvNd_43
I0224 07:36:01.625067  1325 net.cpp:481] ConvNd_43 <- ConvNd_39_ConvNd_39_0_split_3
I0224 07:36:01.625073  1325 net.cpp:455] ConvNd_43 -> ConvNd_43
I0224 07:36:01.625288  1325 net.cpp:190] Setting up ConvNd_43
I0224 07:36:01.625294  1325 net.cpp:197] Top shape: 1 25 64 128 (204800)
I0224 07:36:01.625299  1325 net.cpp:205] Memory required for data: 556367876
I0224 07:36:01.625303  1325 layer_factory.hpp:123] Creating layer Add_24
I0224 07:36:01.625309  1325 net.cpp:140] Creating Layer Add_24
I0224 07:36:01.625313  1325 net.cpp:481] Add_24 <- Add_23_Add_23_0_split_0
I0224 07:36:01.625325  1325 net.cpp:481] Add_24 <- ConvNd_43
I0224 07:36:01.625330  1325 net.cpp:455] Add_24 -> Add_24
I0224 07:36:01.625350  1325 net.cpp:190] Setting up Add_24
I0224 07:36:01.625356  1325 net.cpp:197] Top shape: 1 25 64 128 (204800)
I0224 07:36:01.625362  1325 net.cpp:205] Memory required for data: 557187076
I0224 07:36:01.625367  1325 layer_factory.hpp:123] Creating layer Add_24_Add_24_0_split
I0224 07:36:01.625375  1325 net.cpp:140] Creating Layer Add_24_Add_24_0_split
I0224 07:36:01.625380  1325 net.cpp:481] Add_24_Add_24_0_split <- Add_24
I0224 07:36:01.625385  1325 net.cpp:455] Add_24_Add_24_0_split -> Add_24_Add_24_0_split_0
I0224 07:36:01.625393  1325 net.cpp:455] Add_24_Add_24_0_split -> Add_24_Add_24_0_split_1
I0224 07:36:01.625425  1325 net.cpp:190] Setting up Add_24_Add_24_0_split
I0224 07:36:01.625432  1325 net.cpp:197] Top shape: 1 25 64 128 (204800)
I0224 07:36:01.625435  1325 net.cpp:197] Top shape: 1 25 64 128 (204800)
I0224 07:36:01.625440  1325 net.cpp:205] Memory required for data: 558825476
I0224 07:36:01.625445  1325 layer_factory.hpp:123] Creating layer ConvNd_44
I0224 07:36:01.625454  1325 net.cpp:140] Creating Layer ConvNd_44
I0224 07:36:01.625458  1325 net.cpp:481] ConvNd_44 <- ConvNd_39_ConvNd_39_0_split_4
I0224 07:36:01.625465  1325 net.cpp:455] ConvNd_44 -> ConvNd_44
I0224 07:36:01.625674  1325 net.cpp:190] Setting up ConvNd_44
I0224 07:36:01.625680  1325 net.cpp:197] Top shape: 1 25 64 128 (204800)
I0224 07:36:01.625685  1325 net.cpp:205] Memory required for data: 559644676
I0224 07:36:01.625689  1325 layer_factory.hpp:123] Creating layer Add_25
I0224 07:36:01.625695  1325 net.cpp:140] Creating Layer Add_25
I0224 07:36:01.625699  1325 net.cpp:481] Add_25 <- Add_24_Add_24_0_split_0
I0224 07:36:01.625703  1325 net.cpp:481] Add_25 <- ConvNd_44
I0224 07:36:01.625708  1325 net.cpp:455] Add_25 -> Add_25
I0224 07:36:01.625725  1325 net.cpp:190] Setting up Add_25
I0224 07:36:01.625730  1325 net.cpp:197] Top shape: 1 25 64 128 (204800)
I0224 07:36:01.625735  1325 net.cpp:205] Memory required for data: 560463876
I0224 07:36:01.625738  1325 layer_factory.hpp:123] Creating layer Concat_9
I0224 07:36:01.625756  1325 net.cpp:140] Creating Layer Concat_9
I0224 07:36:01.625758  1325 net.cpp:481] Concat_9 <- ConvNd_40
I0224 07:36:01.625763  1325 net.cpp:481] Concat_9 <- ConvNd_41_ConvNd_41_0_split_1
I0224 07:36:01.625768  1325 net.cpp:481] Concat_9 <- Add_23_Add_23_0_split_1
I0224 07:36:01.625772  1325 net.cpp:481] Concat_9 <- Add_24_Add_24_0_split_1
I0224 07:36:01.625777  1325 net.cpp:481] Concat_9 <- Add_25
I0224 07:36:01.625783  1325 net.cpp:455] Concat_9 -> Concat_9
I0224 07:36:01.625807  1325 net.cpp:190] Setting up Concat_9
I0224 07:36:01.625811  1325 net.cpp:197] Top shape: 1 128 64 128 (1048576)
I0224 07:36:01.625816  1325 net.cpp:205] Memory required for data: 564658180
I0224 07:36:01.625819  1325 layer_factory.hpp:123] Creating layer Add_26
I0224 07:36:01.625824  1325 net.cpp:140] Creating Layer Add_26
I0224 07:36:01.625828  1325 net.cpp:481] Add_26 <- BatchNorm_9_Threshold_9_0_split_1
I0224 07:36:01.625833  1325 net.cpp:481] Add_26 <- Concat_9
I0224 07:36:01.625839  1325 net.cpp:455] Add_26 -> Add_26
I0224 07:36:01.625860  1325 net.cpp:190] Setting up Add_26
I0224 07:36:01.625866  1325 net.cpp:197] Top shape: 1 128 64 128 (1048576)
I0224 07:36:01.625871  1325 net.cpp:205] Memory required for data: 568852484
I0224 07:36:01.625875  1325 layer_factory.hpp:123] Creating layer BatchNorm_10
I0224 07:36:01.625885  1325 net.cpp:140] Creating Layer BatchNorm_10
I0224 07:36:01.625890  1325 net.cpp:481] BatchNorm_10 <- Add_26
I0224 07:36:01.625895  1325 net.cpp:455] BatchNorm_10 -> BatchNorm_10
I0224 07:36:01.626361  1325 net.cpp:190] Setting up BatchNorm_10
I0224 07:36:01.626369  1325 net.cpp:197] Top shape: 1 128 64 128 (1048576)
I0224 07:36:01.626374  1325 net.cpp:205] Memory required for data: 573046788
I0224 07:36:01.626382  1325 layer_factory.hpp:123] Creating layer Threshold_10
I0224 07:36:01.626387  1325 net.cpp:140] Creating Layer Threshold_10
I0224 07:36:01.626391  1325 net.cpp:481] Threshold_10 <- BatchNorm_10
I0224 07:36:01.626396  1325 net.cpp:442] Threshold_10 -> BatchNorm_10 (in-place)
I0224 07:36:01.626402  1325 net.cpp:190] Setting up Threshold_10
I0224 07:36:01.626405  1325 net.cpp:197] Top shape: 1 128 64 128 (1048576)
I0224 07:36:01.626410  1325 net.cpp:205] Memory required for data: 577241092
I0224 07:36:01.626412  1325 layer_factory.hpp:123] Creating layer BatchNorm_10_Threshold_10_0_split
I0224 07:36:01.626418  1325 net.cpp:140] Creating Layer BatchNorm_10_Threshold_10_0_split
I0224 07:36:01.626421  1325 net.cpp:481] BatchNorm_10_Threshold_10_0_split <- BatchNorm_10
I0224 07:36:01.626425  1325 net.cpp:455] BatchNorm_10_Threshold_10_0_split -> BatchNorm_10_Threshold_10_0_split_0
I0224 07:36:01.626431  1325 net.cpp:455] BatchNorm_10_Threshold_10_0_split -> BatchNorm_10_Threshold_10_0_split_1
I0224 07:36:01.626461  1325 net.cpp:190] Setting up BatchNorm_10_Threshold_10_0_split
I0224 07:36:01.626467  1325 net.cpp:197] Top shape: 1 128 64 128 (1048576)
I0224 07:36:01.626471  1325 net.cpp:197] Top shape: 1 128 64 128 (1048576)
I0224 07:36:01.626475  1325 net.cpp:205] Memory required for data: 585629700
I0224 07:36:01.626478  1325 layer_factory.hpp:123] Creating layer ConvNd_45
I0224 07:36:01.626487  1325 net.cpp:140] Creating Layer ConvNd_45
I0224 07:36:01.626489  1325 net.cpp:481] ConvNd_45 <- BatchNorm_10_Threshold_10_0_split_0
I0224 07:36:01.626495  1325 net.cpp:455] ConvNd_45 -> ConvNd_45
I0224 07:36:01.626678  1325 net.cpp:190] Setting up ConvNd_45
I0224 07:36:01.626685  1325 net.cpp:197] Top shape: 1 25 64 128 (204800)
I0224 07:36:01.626690  1325 net.cpp:205] Memory required for data: 586448900
I0224 07:36:01.626695  1325 layer_factory.hpp:123] Creating layer ConvNd_45_ConvNd_45_0_split
I0224 07:36:01.626700  1325 net.cpp:140] Creating Layer ConvNd_45_ConvNd_45_0_split
I0224 07:36:01.626704  1325 net.cpp:481] ConvNd_45_ConvNd_45_0_split <- ConvNd_45
I0224 07:36:01.626709  1325 net.cpp:455] ConvNd_45_ConvNd_45_0_split -> ConvNd_45_ConvNd_45_0_split_0
I0224 07:36:01.626716  1325 net.cpp:455] ConvNd_45_ConvNd_45_0_split -> ConvNd_45_ConvNd_45_0_split_1
I0224 07:36:01.626724  1325 net.cpp:455] ConvNd_45_ConvNd_45_0_split -> ConvNd_45_ConvNd_45_0_split_2
I0224 07:36:01.626732  1325 net.cpp:455] ConvNd_45_ConvNd_45_0_split -> ConvNd_45_ConvNd_45_0_split_3
I0224 07:36:01.626739  1325 net.cpp:455] ConvNd_45_ConvNd_45_0_split -> ConvNd_45_ConvNd_45_0_split_4
I0224 07:36:01.626803  1325 net.cpp:190] Setting up ConvNd_45_ConvNd_45_0_split
I0224 07:36:01.626809  1325 net.cpp:197] Top shape: 1 25 64 128 (204800)
I0224 07:36:01.626814  1325 net.cpp:197] Top shape: 1 25 64 128 (204800)
I0224 07:36:01.626819  1325 net.cpp:197] Top shape: 1 25 64 128 (204800)
I0224 07:36:01.626825  1325 net.cpp:197] Top shape: 1 25 64 128 (204800)
I0224 07:36:01.626829  1325 net.cpp:197] Top shape: 1 25 64 128 (204800)
I0224 07:36:01.626832  1325 net.cpp:205] Memory required for data: 590544900
I0224 07:36:01.626837  1325 layer_factory.hpp:123] Creating layer ConvNd_46
I0224 07:36:01.626843  1325 net.cpp:140] Creating Layer ConvNd_46
I0224 07:36:01.626848  1325 net.cpp:481] ConvNd_46 <- ConvNd_45_ConvNd_45_0_split_0
I0224 07:36:01.626855  1325 net.cpp:455] ConvNd_46 -> ConvNd_46
I0224 07:36:01.627079  1325 net.cpp:190] Setting up ConvNd_46
I0224 07:36:01.627086  1325 net.cpp:197] Top shape: 1 28 64 128 (229376)
I0224 07:36:01.627091  1325 net.cpp:205] Memory required for data: 591462404
I0224 07:36:01.627097  1325 layer_factory.hpp:123] Creating layer ConvNd_47
I0224 07:36:01.627106  1325 net.cpp:140] Creating Layer ConvNd_47
I0224 07:36:01.627111  1325 net.cpp:481] ConvNd_47 <- ConvNd_45_ConvNd_45_0_split_1
I0224 07:36:01.627117  1325 net.cpp:455] ConvNd_47 -> ConvNd_47
I0224 07:36:01.627329  1325 net.cpp:190] Setting up ConvNd_47
I0224 07:36:01.627336  1325 net.cpp:197] Top shape: 1 25 64 128 (204800)
I0224 07:36:01.627341  1325 net.cpp:205] Memory required for data: 592281604
I0224 07:36:01.627346  1325 layer_factory.hpp:123] Creating layer ConvNd_47_ConvNd_47_0_split
I0224 07:36:01.627354  1325 net.cpp:140] Creating Layer ConvNd_47_ConvNd_47_0_split
I0224 07:36:01.627359  1325 net.cpp:481] ConvNd_47_ConvNd_47_0_split <- ConvNd_47
I0224 07:36:01.627365  1325 net.cpp:455] ConvNd_47_ConvNd_47_0_split -> ConvNd_47_ConvNd_47_0_split_0
I0224 07:36:01.627374  1325 net.cpp:455] ConvNd_47_ConvNd_47_0_split -> ConvNd_47_ConvNd_47_0_split_1
I0224 07:36:01.627408  1325 net.cpp:190] Setting up ConvNd_47_ConvNd_47_0_split
I0224 07:36:01.627413  1325 net.cpp:197] Top shape: 1 25 64 128 (204800)
I0224 07:36:01.627418  1325 net.cpp:197] Top shape: 1 25 64 128 (204800)
I0224 07:36:01.627421  1325 net.cpp:205] Memory required for data: 593920004
I0224 07:36:01.627425  1325 layer_factory.hpp:123] Creating layer ConvNd_48
I0224 07:36:01.627432  1325 net.cpp:140] Creating Layer ConvNd_48
I0224 07:36:01.627437  1325 net.cpp:481] ConvNd_48 <- ConvNd_45_ConvNd_45_0_split_2
I0224 07:36:01.627444  1325 net.cpp:455] ConvNd_48 -> ConvNd_48
I0224 07:36:01.627650  1325 net.cpp:190] Setting up ConvNd_48
I0224 07:36:01.627656  1325 net.cpp:197] Top shape: 1 25 64 128 (204800)
I0224 07:36:01.627661  1325 net.cpp:205] Memory required for data: 594739204
I0224 07:36:01.627665  1325 layer_factory.hpp:123] Creating layer Add_27
I0224 07:36:01.627671  1325 net.cpp:140] Creating Layer Add_27
I0224 07:36:01.627676  1325 net.cpp:481] Add_27 <- ConvNd_47_ConvNd_47_0_split_0
I0224 07:36:01.627679  1325 net.cpp:481] Add_27 <- ConvNd_48
I0224 07:36:01.627684  1325 net.cpp:455] Add_27 -> Add_27
I0224 07:36:01.627701  1325 net.cpp:190] Setting up Add_27
I0224 07:36:01.627707  1325 net.cpp:197] Top shape: 1 25 64 128 (204800)
I0224 07:36:01.627710  1325 net.cpp:205] Memory required for data: 595558404
I0224 07:36:01.627714  1325 layer_factory.hpp:123] Creating layer Add_27_Add_27_0_split
I0224 07:36:01.627718  1325 net.cpp:140] Creating Layer Add_27_Add_27_0_split
I0224 07:36:01.627722  1325 net.cpp:481] Add_27_Add_27_0_split <- Add_27
I0224 07:36:01.627727  1325 net.cpp:455] Add_27_Add_27_0_split -> Add_27_Add_27_0_split_0
I0224 07:36:01.627732  1325 net.cpp:455] Add_27_Add_27_0_split -> Add_27_Add_27_0_split_1
I0224 07:36:01.627759  1325 net.cpp:190] Setting up Add_27_Add_27_0_split
I0224 07:36:01.627764  1325 net.cpp:197] Top shape: 1 25 64 128 (204800)
I0224 07:36:01.627768  1325 net.cpp:197] Top shape: 1 25 64 128 (204800)
I0224 07:36:01.627773  1325 net.cpp:205] Memory required for data: 597196804
I0224 07:36:01.627775  1325 layer_factory.hpp:123] Creating layer ConvNd_49
I0224 07:36:01.627782  1325 net.cpp:140] Creating Layer ConvNd_49
I0224 07:36:01.627785  1325 net.cpp:481] ConvNd_49 <- ConvNd_45_ConvNd_45_0_split_3
I0224 07:36:01.627790  1325 net.cpp:455] ConvNd_49 -> ConvNd_49
I0224 07:36:01.627992  1325 net.cpp:190] Setting up ConvNd_49
I0224 07:36:01.627998  1325 net.cpp:197] Top shape: 1 25 64 128 (204800)
I0224 07:36:01.628002  1325 net.cpp:205] Memory required for data: 598016004
I0224 07:36:01.628007  1325 layer_factory.hpp:123] Creating layer Add_28
I0224 07:36:01.628013  1325 net.cpp:140] Creating Layer Add_28
I0224 07:36:01.628016  1325 net.cpp:481] Add_28 <- Add_27_Add_27_0_split_0
I0224 07:36:01.628021  1325 net.cpp:481] Add_28 <- ConvNd_49
I0224 07:36:01.628026  1325 net.cpp:455] Add_28 -> Add_28
I0224 07:36:01.628042  1325 net.cpp:190] Setting up Add_28
I0224 07:36:01.628047  1325 net.cpp:197] Top shape: 1 25 64 128 (204800)
I0224 07:36:01.628052  1325 net.cpp:205] Memory required for data: 598835204
I0224 07:36:01.628055  1325 layer_factory.hpp:123] Creating layer Add_28_Add_28_0_split
I0224 07:36:01.628059  1325 net.cpp:140] Creating Layer Add_28_Add_28_0_split
I0224 07:36:01.628063  1325 net.cpp:481] Add_28_Add_28_0_split <- Add_28
I0224 07:36:01.628067  1325 net.cpp:455] Add_28_Add_28_0_split -> Add_28_Add_28_0_split_0
I0224 07:36:01.628072  1325 net.cpp:455] Add_28_Add_28_0_split -> Add_28_Add_28_0_split_1
I0224 07:36:01.628098  1325 net.cpp:190] Setting up Add_28_Add_28_0_split
I0224 07:36:01.628103  1325 net.cpp:197] Top shape: 1 25 64 128 (204800)
I0224 07:36:01.628108  1325 net.cpp:197] Top shape: 1 25 64 128 (204800)
I0224 07:36:01.628113  1325 net.cpp:205] Memory required for data: 600473604
I0224 07:36:01.628115  1325 layer_factory.hpp:123] Creating layer ConvNd_50
I0224 07:36:01.628121  1325 net.cpp:140] Creating Layer ConvNd_50
I0224 07:36:01.628124  1325 net.cpp:481] ConvNd_50 <- ConvNd_45_ConvNd_45_0_split_4
I0224 07:36:01.628129  1325 net.cpp:455] ConvNd_50 -> ConvNd_50
I0224 07:36:01.628330  1325 net.cpp:190] Setting up ConvNd_50
I0224 07:36:01.628336  1325 net.cpp:197] Top shape: 1 25 64 128 (204800)
I0224 07:36:01.628341  1325 net.cpp:205] Memory required for data: 601292804
I0224 07:36:01.628345  1325 layer_factory.hpp:123] Creating layer Add_29
I0224 07:36:01.628350  1325 net.cpp:140] Creating Layer Add_29
I0224 07:36:01.628355  1325 net.cpp:481] Add_29 <- Add_28_Add_28_0_split_0
I0224 07:36:01.628358  1325 net.cpp:481] Add_29 <- ConvNd_50
I0224 07:36:01.628363  1325 net.cpp:455] Add_29 -> Add_29
I0224 07:36:01.628381  1325 net.cpp:190] Setting up Add_29
I0224 07:36:01.628386  1325 net.cpp:197] Top shape: 1 25 64 128 (204800)
I0224 07:36:01.628391  1325 net.cpp:205] Memory required for data: 602112004
I0224 07:36:01.628393  1325 layer_factory.hpp:123] Creating layer Concat_10
I0224 07:36:01.628398  1325 net.cpp:140] Creating Layer Concat_10
I0224 07:36:01.628402  1325 net.cpp:481] Concat_10 <- ConvNd_46
I0224 07:36:01.628405  1325 net.cpp:481] Concat_10 <- ConvNd_47_ConvNd_47_0_split_1
I0224 07:36:01.628409  1325 net.cpp:481] Concat_10 <- Add_27_Add_27_0_split_1
I0224 07:36:01.628413  1325 net.cpp:481] Concat_10 <- Add_28_Add_28_0_split_1
I0224 07:36:01.628417  1325 net.cpp:481] Concat_10 <- Add_29
I0224 07:36:01.628422  1325 net.cpp:455] Concat_10 -> Concat_10
I0224 07:36:01.628439  1325 net.cpp:190] Setting up Concat_10
I0224 07:36:01.628444  1325 net.cpp:197] Top shape: 1 128 64 128 (1048576)
I0224 07:36:01.628448  1325 net.cpp:205] Memory required for data: 606306308
I0224 07:36:01.628453  1325 layer_factory.hpp:123] Creating layer Add_30
I0224 07:36:01.628456  1325 net.cpp:140] Creating Layer Add_30
I0224 07:36:01.628460  1325 net.cpp:481] Add_30 <- BatchNorm_10_Threshold_10_0_split_1
I0224 07:36:01.628464  1325 net.cpp:481] Add_30 <- Concat_10
I0224 07:36:01.628469  1325 net.cpp:455] Add_30 -> Add_30
I0224 07:36:01.628485  1325 net.cpp:190] Setting up Add_30
I0224 07:36:01.628489  1325 net.cpp:197] Top shape: 1 128 64 128 (1048576)
I0224 07:36:01.628494  1325 net.cpp:205] Memory required for data: 610500612
I0224 07:36:01.628496  1325 layer_factory.hpp:123] Creating layer BatchNorm_11
I0224 07:36:01.628504  1325 net.cpp:140] Creating Layer BatchNorm_11
I0224 07:36:01.628506  1325 net.cpp:481] BatchNorm_11 <- Add_30
I0224 07:36:01.628511  1325 net.cpp:455] BatchNorm_11 -> BatchNorm_11
I0224 07:36:01.628976  1325 net.cpp:190] Setting up BatchNorm_11
I0224 07:36:01.628983  1325 net.cpp:197] Top shape: 1 128 64 128 (1048576)
I0224 07:36:01.628988  1325 net.cpp:205] Memory required for data: 614694916
I0224 07:36:01.628996  1325 layer_factory.hpp:123] Creating layer Threshold_11
I0224 07:36:01.629000  1325 net.cpp:140] Creating Layer Threshold_11
I0224 07:36:01.629004  1325 net.cpp:481] Threshold_11 <- BatchNorm_11
I0224 07:36:01.629009  1325 net.cpp:442] Threshold_11 -> BatchNorm_11 (in-place)
I0224 07:36:01.629014  1325 net.cpp:190] Setting up Threshold_11
I0224 07:36:01.629017  1325 net.cpp:197] Top shape: 1 128 64 128 (1048576)
I0224 07:36:01.629021  1325 net.cpp:205] Memory required for data: 618889220
I0224 07:36:01.629024  1325 layer_factory.hpp:123] Creating layer BatchNorm_11_Threshold_11_0_split
I0224 07:36:01.629030  1325 net.cpp:140] Creating Layer BatchNorm_11_Threshold_11_0_split
I0224 07:36:01.629034  1325 net.cpp:481] BatchNorm_11_Threshold_11_0_split <- BatchNorm_11
I0224 07:36:01.629037  1325 net.cpp:455] BatchNorm_11_Threshold_11_0_split -> BatchNorm_11_Threshold_11_0_split_0
I0224 07:36:01.629043  1325 net.cpp:455] BatchNorm_11_Threshold_11_0_split -> BatchNorm_11_Threshold_11_0_split_1
I0224 07:36:01.629070  1325 net.cpp:190] Setting up BatchNorm_11_Threshold_11_0_split
I0224 07:36:01.629076  1325 net.cpp:197] Top shape: 1 128 64 128 (1048576)
I0224 07:36:01.629081  1325 net.cpp:197] Top shape: 1 128 64 128 (1048576)
I0224 07:36:01.629084  1325 net.cpp:205] Memory required for data: 627277828
I0224 07:36:01.629087  1325 layer_factory.hpp:123] Creating layer ConvNd_51
I0224 07:36:01.629094  1325 net.cpp:140] Creating Layer ConvNd_51
I0224 07:36:01.629098  1325 net.cpp:481] ConvNd_51 <- BatchNorm_11_Threshold_11_0_split_0
I0224 07:36:01.629103  1325 net.cpp:455] ConvNd_51 -> ConvNd_51
I0224 07:36:01.629290  1325 net.cpp:190] Setting up ConvNd_51
I0224 07:36:01.629297  1325 net.cpp:197] Top shape: 1 25 64 128 (204800)
I0224 07:36:01.629302  1325 net.cpp:205] Memory required for data: 628097028
I0224 07:36:01.629308  1325 layer_factory.hpp:123] Creating layer ConvNd_51_ConvNd_51_0_split
I0224 07:36:01.629328  1325 net.cpp:140] Creating Layer ConvNd_51_ConvNd_51_0_split
I0224 07:36:01.629333  1325 net.cpp:481] ConvNd_51_ConvNd_51_0_split <- ConvNd_51
I0224 07:36:01.629340  1325 net.cpp:455] ConvNd_51_ConvNd_51_0_split -> ConvNd_51_ConvNd_51_0_split_0
I0224 07:36:01.629349  1325 net.cpp:455] ConvNd_51_ConvNd_51_0_split -> ConvNd_51_ConvNd_51_0_split_1
I0224 07:36:01.629356  1325 net.cpp:455] ConvNd_51_ConvNd_51_0_split -> ConvNd_51_ConvNd_51_0_split_2
I0224 07:36:01.629364  1325 net.cpp:455] ConvNd_51_ConvNd_51_0_split -> ConvNd_51_ConvNd_51_0_split_3
I0224 07:36:01.629370  1325 net.cpp:455] ConvNd_51_ConvNd_51_0_split -> ConvNd_51_ConvNd_51_0_split_4
I0224 07:36:01.629436  1325 net.cpp:190] Setting up ConvNd_51_ConvNd_51_0_split
I0224 07:36:01.629441  1325 net.cpp:197] Top shape: 1 25 64 128 (204800)
I0224 07:36:01.629446  1325 net.cpp:197] Top shape: 1 25 64 128 (204800)
I0224 07:36:01.629449  1325 net.cpp:197] Top shape: 1 25 64 128 (204800)
I0224 07:36:01.629453  1325 net.cpp:197] Top shape: 1 25 64 128 (204800)
I0224 07:36:01.629457  1325 net.cpp:197] Top shape: 1 25 64 128 (204800)
I0224 07:36:01.629462  1325 net.cpp:205] Memory required for data: 632193028
I0224 07:36:01.629464  1325 layer_factory.hpp:123] Creating layer ConvNd_52
I0224 07:36:01.629472  1325 net.cpp:140] Creating Layer ConvNd_52
I0224 07:36:01.629475  1325 net.cpp:481] ConvNd_52 <- ConvNd_51_ConvNd_51_0_split_0
I0224 07:36:01.629480  1325 net.cpp:455] ConvNd_52 -> ConvNd_52
I0224 07:36:01.629698  1325 net.cpp:190] Setting up ConvNd_52
I0224 07:36:01.629703  1325 net.cpp:197] Top shape: 1 28 64 128 (229376)
I0224 07:36:01.629709  1325 net.cpp:205] Memory required for data: 633110532
I0224 07:36:01.629714  1325 layer_factory.hpp:123] Creating layer ConvNd_53
I0224 07:36:01.629719  1325 net.cpp:140] Creating Layer ConvNd_53
I0224 07:36:01.629724  1325 net.cpp:481] ConvNd_53 <- ConvNd_51_ConvNd_51_0_split_1
I0224 07:36:01.629729  1325 net.cpp:455] ConvNd_53 -> ConvNd_53
I0224 07:36:01.630589  1325 net.cpp:190] Setting up ConvNd_53
I0224 07:36:01.630599  1325 net.cpp:197] Top shape: 1 25 64 128 (204800)
I0224 07:36:01.630604  1325 net.cpp:205] Memory required for data: 633929732
I0224 07:36:01.630609  1325 layer_factory.hpp:123] Creating layer ConvNd_53_ConvNd_53_0_split
I0224 07:36:01.630614  1325 net.cpp:140] Creating Layer ConvNd_53_ConvNd_53_0_split
I0224 07:36:01.630618  1325 net.cpp:481] ConvNd_53_ConvNd_53_0_split <- ConvNd_53
I0224 07:36:01.630625  1325 net.cpp:455] ConvNd_53_ConvNd_53_0_split -> ConvNd_53_ConvNd_53_0_split_0
I0224 07:36:01.630630  1325 net.cpp:455] ConvNd_53_ConvNd_53_0_split -> ConvNd_53_ConvNd_53_0_split_1
I0224 07:36:01.630661  1325 net.cpp:190] Setting up ConvNd_53_ConvNd_53_0_split
I0224 07:36:01.630666  1325 net.cpp:197] Top shape: 1 25 64 128 (204800)
I0224 07:36:01.630671  1325 net.cpp:197] Top shape: 1 25 64 128 (204800)
I0224 07:36:01.630674  1325 net.cpp:205] Memory required for data: 635568132
I0224 07:36:01.630677  1325 layer_factory.hpp:123] Creating layer ConvNd_54
I0224 07:36:01.630684  1325 net.cpp:140] Creating Layer ConvNd_54
I0224 07:36:01.630688  1325 net.cpp:481] ConvNd_54 <- ConvNd_51_ConvNd_51_0_split_2
I0224 07:36:01.630697  1325 net.cpp:455] ConvNd_54 -> ConvNd_54
I0224 07:36:01.630925  1325 net.cpp:190] Setting up ConvNd_54
I0224 07:36:01.630933  1325 net.cpp:197] Top shape: 1 25 64 128 (204800)
I0224 07:36:01.630937  1325 net.cpp:205] Memory required for data: 636387332
I0224 07:36:01.630942  1325 layer_factory.hpp:123] Creating layer Add_31
I0224 07:36:01.630947  1325 net.cpp:140] Creating Layer Add_31
I0224 07:36:01.630952  1325 net.cpp:481] Add_31 <- ConvNd_53_ConvNd_53_0_split_0
I0224 07:36:01.630959  1325 net.cpp:481] Add_31 <- ConvNd_54
I0224 07:36:01.630964  1325 net.cpp:455] Add_31 -> Add_31
I0224 07:36:01.630990  1325 net.cpp:190] Setting up Add_31
I0224 07:36:01.630996  1325 net.cpp:197] Top shape: 1 25 64 128 (204800)
I0224 07:36:01.631001  1325 net.cpp:205] Memory required for data: 637206532
I0224 07:36:01.631004  1325 layer_factory.hpp:123] Creating layer Add_31_Add_31_0_split
I0224 07:36:01.631011  1325 net.cpp:140] Creating Layer Add_31_Add_31_0_split
I0224 07:36:01.631016  1325 net.cpp:481] Add_31_Add_31_0_split <- Add_31
I0224 07:36:01.631022  1325 net.cpp:455] Add_31_Add_31_0_split -> Add_31_Add_31_0_split_0
I0224 07:36:01.631031  1325 net.cpp:455] Add_31_Add_31_0_split -> Add_31_Add_31_0_split_1
I0224 07:36:01.631063  1325 net.cpp:190] Setting up Add_31_Add_31_0_split
I0224 07:36:01.631069  1325 net.cpp:197] Top shape: 1 25 64 128 (204800)
I0224 07:36:01.631074  1325 net.cpp:197] Top shape: 1 25 64 128 (204800)
I0224 07:36:01.631079  1325 net.cpp:205] Memory required for data: 638844932
I0224 07:36:01.631083  1325 layer_factory.hpp:123] Creating layer ConvNd_55
I0224 07:36:01.631093  1325 net.cpp:140] Creating Layer ConvNd_55
I0224 07:36:01.631098  1325 net.cpp:481] ConvNd_55 <- ConvNd_51_ConvNd_51_0_split_3
I0224 07:36:01.631105  1325 net.cpp:455] ConvNd_55 -> ConvNd_55
I0224 07:36:01.631316  1325 net.cpp:190] Setting up ConvNd_55
I0224 07:36:01.631323  1325 net.cpp:197] Top shape: 1 25 64 128 (204800)
I0224 07:36:01.631328  1325 net.cpp:205] Memory required for data: 639664132
I0224 07:36:01.631335  1325 layer_factory.hpp:123] Creating layer Add_32
I0224 07:36:01.631341  1325 net.cpp:140] Creating Layer Add_32
I0224 07:36:01.631346  1325 net.cpp:481] Add_32 <- Add_31_Add_31_0_split_0
I0224 07:36:01.631351  1325 net.cpp:481] Add_32 <- ConvNd_55
I0224 07:36:01.631358  1325 net.cpp:455] Add_32 -> Add_32
I0224 07:36:01.631378  1325 net.cpp:190] Setting up Add_32
I0224 07:36:01.631384  1325 net.cpp:197] Top shape: 1 25 64 128 (204800)
I0224 07:36:01.631388  1325 net.cpp:205] Memory required for data: 640483332
I0224 07:36:01.631392  1325 layer_factory.hpp:123] Creating layer Add_32_Add_32_0_split
I0224 07:36:01.631399  1325 net.cpp:140] Creating Layer Add_32_Add_32_0_split
I0224 07:36:01.631403  1325 net.cpp:481] Add_32_Add_32_0_split <- Add_32
I0224 07:36:01.631410  1325 net.cpp:455] Add_32_Add_32_0_split -> Add_32_Add_32_0_split_0
I0224 07:36:01.631428  1325 net.cpp:455] Add_32_Add_32_0_split -> Add_32_Add_32_0_split_1
I0224 07:36:01.631460  1325 net.cpp:190] Setting up Add_32_Add_32_0_split
I0224 07:36:01.631466  1325 net.cpp:197] Top shape: 1 25 64 128 (204800)
I0224 07:36:01.631471  1325 net.cpp:197] Top shape: 1 25 64 128 (204800)
I0224 07:36:01.631475  1325 net.cpp:205] Memory required for data: 642121732
I0224 07:36:01.631479  1325 layer_factory.hpp:123] Creating layer ConvNd_56
I0224 07:36:01.631489  1325 net.cpp:140] Creating Layer ConvNd_56
I0224 07:36:01.631494  1325 net.cpp:481] ConvNd_56 <- ConvNd_51_ConvNd_51_0_split_4
I0224 07:36:01.631501  1325 net.cpp:455] ConvNd_56 -> ConvNd_56
I0224 07:36:01.631705  1325 net.cpp:190] Setting up ConvNd_56
I0224 07:36:01.631711  1325 net.cpp:197] Top shape: 1 25 64 128 (204800)
I0224 07:36:01.631716  1325 net.cpp:205] Memory required for data: 642940932
I0224 07:36:01.631719  1325 layer_factory.hpp:123] Creating layer Add_33
I0224 07:36:01.631724  1325 net.cpp:140] Creating Layer Add_33
I0224 07:36:01.631728  1325 net.cpp:481] Add_33 <- Add_32_Add_32_0_split_0
I0224 07:36:01.631732  1325 net.cpp:481] Add_33 <- ConvNd_56
I0224 07:36:01.631736  1325 net.cpp:455] Add_33 -> Add_33
I0224 07:36:01.631754  1325 net.cpp:190] Setting up Add_33
I0224 07:36:01.631759  1325 net.cpp:197] Top shape: 1 25 64 128 (204800)
I0224 07:36:01.631763  1325 net.cpp:205] Memory required for data: 643760132
I0224 07:36:01.631767  1325 layer_factory.hpp:123] Creating layer Concat_11
I0224 07:36:01.631772  1325 net.cpp:140] Creating Layer Concat_11
I0224 07:36:01.631775  1325 net.cpp:481] Concat_11 <- ConvNd_52
I0224 07:36:01.631778  1325 net.cpp:481] Concat_11 <- ConvNd_53_ConvNd_53_0_split_1
I0224 07:36:01.631783  1325 net.cpp:481] Concat_11 <- Add_31_Add_31_0_split_1
I0224 07:36:01.631786  1325 net.cpp:481] Concat_11 <- Add_32_Add_32_0_split_1
I0224 07:36:01.631789  1325 net.cpp:481] Concat_11 <- Add_33
I0224 07:36:01.631794  1325 net.cpp:455] Concat_11 -> Concat_11
I0224 07:36:01.631811  1325 net.cpp:190] Setting up Concat_11
I0224 07:36:01.631817  1325 net.cpp:197] Top shape: 1 128 64 128 (1048576)
I0224 07:36:01.631821  1325 net.cpp:205] Memory required for data: 647954436
I0224 07:36:01.631824  1325 layer_factory.hpp:123] Creating layer Add_34
I0224 07:36:01.631831  1325 net.cpp:140] Creating Layer Add_34
I0224 07:36:01.631837  1325 net.cpp:481] Add_34 <- BatchNorm_11_Threshold_11_0_split_1
I0224 07:36:01.631842  1325 net.cpp:481] Add_34 <- Concat_11
I0224 07:36:01.631846  1325 net.cpp:455] Add_34 -> Add_34
I0224 07:36:01.631867  1325 net.cpp:190] Setting up Add_34
I0224 07:36:01.631873  1325 net.cpp:197] Top shape: 1 128 64 128 (1048576)
I0224 07:36:01.631877  1325 net.cpp:205] Memory required for data: 652148740
I0224 07:36:01.631880  1325 layer_factory.hpp:123] Creating layer BatchNorm_12
I0224 07:36:01.631887  1325 net.cpp:140] Creating Layer BatchNorm_12
I0224 07:36:01.631891  1325 net.cpp:481] BatchNorm_12 <- Add_34
I0224 07:36:01.631896  1325 net.cpp:455] BatchNorm_12 -> BatchNorm_12
I0224 07:36:01.632371  1325 net.cpp:190] Setting up BatchNorm_12
I0224 07:36:01.632380  1325 net.cpp:197] Top shape: 1 128 64 128 (1048576)
I0224 07:36:01.632385  1325 net.cpp:205] Memory required for data: 656343044
I0224 07:36:01.632396  1325 layer_factory.hpp:123] Creating layer Threshold_12
I0224 07:36:01.632403  1325 net.cpp:140] Creating Layer Threshold_12
I0224 07:36:01.632408  1325 net.cpp:481] Threshold_12 <- BatchNorm_12
I0224 07:36:01.632416  1325 net.cpp:442] Threshold_12 -> BatchNorm_12 (in-place)
I0224 07:36:01.632422  1325 net.cpp:190] Setting up Threshold_12
I0224 07:36:01.632427  1325 net.cpp:197] Top shape: 1 128 64 128 (1048576)
I0224 07:36:01.632433  1325 net.cpp:205] Memory required for data: 660537348
I0224 07:36:01.632437  1325 layer_factory.hpp:123] Creating layer BatchNorm_12_Threshold_12_0_split
I0224 07:36:01.632443  1325 net.cpp:140] Creating Layer BatchNorm_12_Threshold_12_0_split
I0224 07:36:01.632447  1325 net.cpp:481] BatchNorm_12_Threshold_12_0_split <- BatchNorm_12
I0224 07:36:01.632454  1325 net.cpp:455] BatchNorm_12_Threshold_12_0_split -> BatchNorm_12_Threshold_12_0_split_0
I0224 07:36:01.632462  1325 net.cpp:455] BatchNorm_12_Threshold_12_0_split -> BatchNorm_12_Threshold_12_0_split_1
I0224 07:36:01.632495  1325 net.cpp:190] Setting up BatchNorm_12_Threshold_12_0_split
I0224 07:36:01.632501  1325 net.cpp:197] Top shape: 1 128 64 128 (1048576)
I0224 07:36:01.632505  1325 net.cpp:197] Top shape: 1 128 64 128 (1048576)
I0224 07:36:01.632510  1325 net.cpp:205] Memory required for data: 668925956
I0224 07:36:01.632515  1325 layer_factory.hpp:123] Creating layer ConvNd_57
I0224 07:36:01.632524  1325 net.cpp:140] Creating Layer ConvNd_57
I0224 07:36:01.632529  1325 net.cpp:481] ConvNd_57 <- BatchNorm_12_Threshold_12_0_split_0
I0224 07:36:01.632534  1325 net.cpp:455] ConvNd_57 -> ConvNd_57
I0224 07:36:01.632724  1325 net.cpp:190] Setting up ConvNd_57
I0224 07:36:01.632731  1325 net.cpp:197] Top shape: 1 25 64 128 (204800)
I0224 07:36:01.632736  1325 net.cpp:205] Memory required for data: 669745156
I0224 07:36:01.632742  1325 layer_factory.hpp:123] Creating layer ConvNd_57_ConvNd_57_0_split
I0224 07:36:01.632750  1325 net.cpp:140] Creating Layer ConvNd_57_ConvNd_57_0_split
I0224 07:36:01.632755  1325 net.cpp:481] ConvNd_57_ConvNd_57_0_split <- ConvNd_57
I0224 07:36:01.632761  1325 net.cpp:455] ConvNd_57_ConvNd_57_0_split -> ConvNd_57_ConvNd_57_0_split_0
I0224 07:36:01.632771  1325 net.cpp:455] ConvNd_57_ConvNd_57_0_split -> ConvNd_57_ConvNd_57_0_split_1
I0224 07:36:01.632779  1325 net.cpp:455] ConvNd_57_ConvNd_57_0_split -> ConvNd_57_ConvNd_57_0_split_2
I0224 07:36:01.632787  1325 net.cpp:455] ConvNd_57_ConvNd_57_0_split -> ConvNd_57_ConvNd_57_0_split_3
I0224 07:36:01.632793  1325 net.cpp:455] ConvNd_57_ConvNd_57_0_split -> ConvNd_57_ConvNd_57_0_split_4
I0224 07:36:01.632858  1325 net.cpp:190] Setting up ConvNd_57_ConvNd_57_0_split
I0224 07:36:01.632863  1325 net.cpp:197] Top shape: 1 25 64 128 (204800)
I0224 07:36:01.632869  1325 net.cpp:197] Top shape: 1 25 64 128 (204800)
I0224 07:36:01.632875  1325 net.cpp:197] Top shape: 1 25 64 128 (204800)
I0224 07:36:01.632881  1325 net.cpp:197] Top shape: 1 25 64 128 (204800)
I0224 07:36:01.632886  1325 net.cpp:197] Top shape: 1 25 64 128 (204800)
I0224 07:36:01.632891  1325 net.cpp:205] Memory required for data: 673841156
I0224 07:36:01.632896  1325 layer_factory.hpp:123] Creating layer ConvNd_58
I0224 07:36:01.632905  1325 net.cpp:140] Creating Layer ConvNd_58
I0224 07:36:01.632910  1325 net.cpp:481] ConvNd_58 <- ConvNd_57_ConvNd_57_0_split_0
I0224 07:36:01.632916  1325 net.cpp:455] ConvNd_58 -> ConvNd_58
I0224 07:36:01.633141  1325 net.cpp:190] Setting up ConvNd_58
I0224 07:36:01.633147  1325 net.cpp:197] Top shape: 1 28 64 128 (229376)
I0224 07:36:01.633152  1325 net.cpp:205] Memory required for data: 674758660
I0224 07:36:01.633158  1325 layer_factory.hpp:123] Creating layer ConvNd_59
I0224 07:36:01.633168  1325 net.cpp:140] Creating Layer ConvNd_59
I0224 07:36:01.633172  1325 net.cpp:481] ConvNd_59 <- ConvNd_57_ConvNd_57_0_split_1
I0224 07:36:01.633179  1325 net.cpp:455] ConvNd_59 -> ConvNd_59
I0224 07:36:01.633399  1325 net.cpp:190] Setting up ConvNd_59
I0224 07:36:01.633405  1325 net.cpp:197] Top shape: 1 25 64 128 (204800)
I0224 07:36:01.633410  1325 net.cpp:205] Memory required for data: 675577860
I0224 07:36:01.633415  1325 layer_factory.hpp:123] Creating layer ConvNd_59_ConvNd_59_0_split
I0224 07:36:01.633424  1325 net.cpp:140] Creating Layer ConvNd_59_ConvNd_59_0_split
I0224 07:36:01.633428  1325 net.cpp:481] ConvNd_59_ConvNd_59_0_split <- ConvNd_59
I0224 07:36:01.633435  1325 net.cpp:455] ConvNd_59_ConvNd_59_0_split -> ConvNd_59_ConvNd_59_0_split_0
I0224 07:36:01.633440  1325 net.cpp:455] ConvNd_59_ConvNd_59_0_split -> ConvNd_59_ConvNd_59_0_split_1
I0224 07:36:01.633471  1325 net.cpp:190] Setting up ConvNd_59_ConvNd_59_0_split
I0224 07:36:01.633477  1325 net.cpp:197] Top shape: 1 25 64 128 (204800)
I0224 07:36:01.633481  1325 net.cpp:197] Top shape: 1 25 64 128 (204800)
I0224 07:36:01.633486  1325 net.cpp:205] Memory required for data: 677216260
I0224 07:36:01.633488  1325 layer_factory.hpp:123] Creating layer ConvNd_60
I0224 07:36:01.633496  1325 net.cpp:140] Creating Layer ConvNd_60
I0224 07:36:01.633499  1325 net.cpp:481] ConvNd_60 <- ConvNd_57_ConvNd_57_0_split_2
I0224 07:36:01.633504  1325 net.cpp:455] ConvNd_60 -> ConvNd_60
I0224 07:36:01.633713  1325 net.cpp:190] Setting up ConvNd_60
I0224 07:36:01.633719  1325 net.cpp:197] Top shape: 1 25 64 128 (204800)
I0224 07:36:01.633724  1325 net.cpp:205] Memory required for data: 678035460
I0224 07:36:01.633728  1325 layer_factory.hpp:123] Creating layer Add_35
I0224 07:36:01.633734  1325 net.cpp:140] Creating Layer Add_35
I0224 07:36:01.633738  1325 net.cpp:481] Add_35 <- ConvNd_59_ConvNd_59_0_split_0
I0224 07:36:01.633742  1325 net.cpp:481] Add_35 <- ConvNd_60
I0224 07:36:01.633746  1325 net.cpp:455] Add_35 -> Add_35
I0224 07:36:01.633764  1325 net.cpp:190] Setting up Add_35
I0224 07:36:01.633769  1325 net.cpp:197] Top shape: 1 25 64 128 (204800)
I0224 07:36:01.633774  1325 net.cpp:205] Memory required for data: 678854660
I0224 07:36:01.633777  1325 layer_factory.hpp:123] Creating layer Add_35_Add_35_0_split
I0224 07:36:01.633782  1325 net.cpp:140] Creating Layer Add_35_Add_35_0_split
I0224 07:36:01.633786  1325 net.cpp:481] Add_35_Add_35_0_split <- Add_35
I0224 07:36:01.633790  1325 net.cpp:455] Add_35_Add_35_0_split -> Add_35_Add_35_0_split_0
I0224 07:36:01.633796  1325 net.cpp:455] Add_35_Add_35_0_split -> Add_35_Add_35_0_split_1
I0224 07:36:01.633822  1325 net.cpp:190] Setting up Add_35_Add_35_0_split
I0224 07:36:01.633827  1325 net.cpp:197] Top shape: 1 25 64 128 (204800)
I0224 07:36:01.633831  1325 net.cpp:197] Top shape: 1 25 64 128 (204800)
I0224 07:36:01.633836  1325 net.cpp:205] Memory required for data: 680493060
I0224 07:36:01.633838  1325 layer_factory.hpp:123] Creating layer ConvNd_61
I0224 07:36:01.633844  1325 net.cpp:140] Creating Layer ConvNd_61
I0224 07:36:01.633848  1325 net.cpp:481] ConvNd_61 <- ConvNd_57_ConvNd_57_0_split_3
I0224 07:36:01.633853  1325 net.cpp:455] ConvNd_61 -> ConvNd_61
I0224 07:36:01.634059  1325 net.cpp:190] Setting up ConvNd_61
I0224 07:36:01.634066  1325 net.cpp:197] Top shape: 1 25 64 128 (204800)
I0224 07:36:01.634070  1325 net.cpp:205] Memory required for data: 681312260
I0224 07:36:01.634075  1325 layer_factory.hpp:123] Creating layer Add_36
I0224 07:36:01.634080  1325 net.cpp:140] Creating Layer Add_36
I0224 07:36:01.634083  1325 net.cpp:481] Add_36 <- Add_35_Add_35_0_split_0
I0224 07:36:01.634088  1325 net.cpp:481] Add_36 <- ConvNd_61
I0224 07:36:01.634093  1325 net.cpp:455] Add_36 -> Add_36
I0224 07:36:01.634110  1325 net.cpp:190] Setting up Add_36
I0224 07:36:01.634116  1325 net.cpp:197] Top shape: 1 25 64 128 (204800)
I0224 07:36:01.634120  1325 net.cpp:205] Memory required for data: 682131460
I0224 07:36:01.634124  1325 layer_factory.hpp:123] Creating layer Add_36_Add_36_0_split
I0224 07:36:01.634129  1325 net.cpp:140] Creating Layer Add_36_Add_36_0_split
I0224 07:36:01.634131  1325 net.cpp:481] Add_36_Add_36_0_split <- Add_36
I0224 07:36:01.634136  1325 net.cpp:455] Add_36_Add_36_0_split -> Add_36_Add_36_0_split_0
I0224 07:36:01.634142  1325 net.cpp:455] Add_36_Add_36_0_split -> Add_36_Add_36_0_split_1
I0224 07:36:01.634167  1325 net.cpp:190] Setting up Add_36_Add_36_0_split
I0224 07:36:01.634173  1325 net.cpp:197] Top shape: 1 25 64 128 (204800)
I0224 07:36:01.634177  1325 net.cpp:197] Top shape: 1 25 64 128 (204800)
I0224 07:36:01.634181  1325 net.cpp:205] Memory required for data: 683769860
I0224 07:36:01.634184  1325 layer_factory.hpp:123] Creating layer ConvNd_62
I0224 07:36:01.634191  1325 net.cpp:140] Creating Layer ConvNd_62
I0224 07:36:01.634193  1325 net.cpp:481] ConvNd_62 <- ConvNd_57_ConvNd_57_0_split_4
I0224 07:36:01.634198  1325 net.cpp:455] ConvNd_62 -> ConvNd_62
I0224 07:36:01.634402  1325 net.cpp:190] Setting up ConvNd_62
I0224 07:36:01.634408  1325 net.cpp:197] Top shape: 1 25 64 128 (204800)
I0224 07:36:01.634413  1325 net.cpp:205] Memory required for data: 684589060
I0224 07:36:01.634418  1325 layer_factory.hpp:123] Creating layer Add_37
I0224 07:36:01.634423  1325 net.cpp:140] Creating Layer Add_37
I0224 07:36:01.634426  1325 net.cpp:481] Add_37 <- Add_36_Add_36_0_split_0
I0224 07:36:01.634430  1325 net.cpp:481] Add_37 <- ConvNd_62
I0224 07:36:01.634435  1325 net.cpp:455] Add_37 -> Add_37
I0224 07:36:01.634452  1325 net.cpp:190] Setting up Add_37
I0224 07:36:01.634457  1325 net.cpp:197] Top shape: 1 25 64 128 (204800)
I0224 07:36:01.634462  1325 net.cpp:205] Memory required for data: 685408260
I0224 07:36:01.634465  1325 layer_factory.hpp:123] Creating layer Concat_12
I0224 07:36:01.634470  1325 net.cpp:140] Creating Layer Concat_12
I0224 07:36:01.634474  1325 net.cpp:481] Concat_12 <- ConvNd_58
I0224 07:36:01.634477  1325 net.cpp:481] Concat_12 <- ConvNd_59_ConvNd_59_0_split_1
I0224 07:36:01.634481  1325 net.cpp:481] Concat_12 <- Add_35_Add_35_0_split_1
I0224 07:36:01.634485  1325 net.cpp:481] Concat_12 <- Add_36_Add_36_0_split_1
I0224 07:36:01.634488  1325 net.cpp:481] Concat_12 <- Add_37
I0224 07:36:01.634492  1325 net.cpp:455] Concat_12 -> Concat_12
I0224 07:36:01.634510  1325 net.cpp:190] Setting up Concat_12
I0224 07:36:01.634516  1325 net.cpp:197] Top shape: 1 128 64 128 (1048576)
I0224 07:36:01.634521  1325 net.cpp:205] Memory required for data: 689602564
I0224 07:36:01.634523  1325 layer_factory.hpp:123] Creating layer Add_38
I0224 07:36:01.634528  1325 net.cpp:140] Creating Layer Add_38
I0224 07:36:01.634531  1325 net.cpp:481] Add_38 <- BatchNorm_12_Threshold_12_0_split_1
I0224 07:36:01.634536  1325 net.cpp:481] Add_38 <- Concat_12
I0224 07:36:01.634541  1325 net.cpp:455] Add_38 -> Add_38
I0224 07:36:01.634557  1325 net.cpp:190] Setting up Add_38
I0224 07:36:01.634564  1325 net.cpp:197] Top shape: 1 128 64 128 (1048576)
I0224 07:36:01.634569  1325 net.cpp:205] Memory required for data: 693796868
I0224 07:36:01.634573  1325 layer_factory.hpp:123] Creating layer BatchNorm_13
I0224 07:36:01.634582  1325 net.cpp:140] Creating Layer BatchNorm_13
I0224 07:36:01.634586  1325 net.cpp:481] BatchNorm_13 <- Add_38
I0224 07:36:01.634593  1325 net.cpp:455] BatchNorm_13 -> BatchNorm_13
I0224 07:36:01.635057  1325 net.cpp:190] Setting up BatchNorm_13
I0224 07:36:01.635064  1325 net.cpp:197] Top shape: 1 128 64 128 (1048576)
I0224 07:36:01.635069  1325 net.cpp:205] Memory required for data: 697991172
I0224 07:36:01.635077  1325 layer_factory.hpp:123] Creating layer Threshold_13
I0224 07:36:01.635082  1325 net.cpp:140] Creating Layer Threshold_13
I0224 07:36:01.635087  1325 net.cpp:481] Threshold_13 <- BatchNorm_13
I0224 07:36:01.635090  1325 net.cpp:442] Threshold_13 -> BatchNorm_13 (in-place)
I0224 07:36:01.635097  1325 net.cpp:190] Setting up Threshold_13
…
I0224 07:38:38.398360  1325 net.cpp:481] Concat_13 <- Add_40_Add_40_fixed_0_split_1
I0224 07:38:38.398365  1325 net.cpp:481] Concat_13 <- Add_41
I0224 07:38:38.398373  1325 net.cpp:455] Concat_13 -> Concat_13
I0224 07:38:38.398402  1325 net.cpp:190] Setting up Concat_13
I0224 07:38:38.398408  1325 net.cpp:197] Top shape: 1 128 64 128 (1048576)
I0224 07:38:38.398416  1325 net.cpp:205] Memory required for data: 1048444928
I0224 07:38:38.398420  1325 layer_factory.hpp:123] Creating layer Concat_13_fixed
I0224 07:38:38.398428  1325 net.cpp:140] Creating Layer Concat_13_fixed
I0224 07:38:38.398434  1325 net.cpp:481] Concat_13_fixed <- Concat_13
I0224 07:38:38.398442  1325 net.cpp:442] Concat_13_fixed -> Concat_13 (in-place)
I0224 07:38:38.398478  1325 net.cpp:190] Setting up Concat_13_fixed
I0224 07:38:38.398483  1325 net.cpp:197] Top shape: 1 128 64 128 (1048576)
I0224 07:38:38.398489  1325 net.cpp:205] Memory required for data: 1052639232
I0224 07:38:38.398496  1325 layer_factory.hpp:123] Creating layer Add_42
I0224 07:38:38.398505  1325 net.cpp:140] Creating Layer Add_42
I0224 07:38:38.398511  1325 net.cpp:481] Add_42 <- BatchNorm_13_BatchNorm_13_fixed_0_split_1
I0224 07:38:38.398517  1325 net.cpp:481] Add_42 <- Concat_13
I0224 07:38:38.398524  1325 net.cpp:455] Add_42 -> Add_42
I0224 07:38:38.398550  1325 net.cpp:190] Setting up Add_42
I0224 07:38:38.398555  1325 net.cpp:197] Top shape: 1 128 64 128 (1048576)
I0224 07:38:38.398561  1325 net.cpp:205] Memory required for data: 1056833536
I0224 07:38:38.398566  1325 layer_factory.hpp:123] Creating layer Add_42_fixed
I0224 07:38:38.398574  1325 net.cpp:140] Creating Layer Add_42_fixed
I0224 07:38:38.398579  1325 net.cpp:481] Add_42_fixed <- Add_42
I0224 07:38:38.398587  1325 net.cpp:442] Add_42_fixed -> Add_42 (in-place)
I0224 07:38:38.398622  1325 net.cpp:190] Setting up Add_42_fixed
I0224 07:38:38.398628  1325 net.cpp:197] Top shape: 1 128 64 128 (1048576)
I0224 07:38:38.398635  1325 net.cpp:205] Memory required for data: 1061027840
I0224 07:38:38.398643  1325 layer_factory.hpp:123] Creating layer BatchNorm_14
I0224 07:38:38.398651  1325 net.cpp:140] Creating Layer BatchNorm_14
I0224 07:38:38.398658  1325 net.cpp:481] BatchNorm_14 <- Add_42
I0224 07:38:38.398664  1325 net.cpp:455] BatchNorm_14 -> BatchNorm_14
I0224 07:38:38.398703  1325 layer_factory.hpp:123] Creating layer BatchNorm_14
I0224 07:38:38.398768  1325 layer_factory.hpp:123] Creating layer BatchNorm_14
I0224 07:38:38.398803  1325 layer_factory.hpp:123] Creating layer BatchNorm_14
I0224 07:38:38.398910  1325 net.cpp:190] Setting up BatchNorm_14
I0224 07:38:38.398917  1325 net.cpp:197] Top shape: 1 128 64 128 (1048576)
I0224 07:38:38.398924  1325 net.cpp:205] Memory required for data: 1065222144
I0224 07:38:38.398933  1325 layer_factory.hpp:123] Creating layer Threshold_14
I0224 07:38:38.398941  1325 net.cpp:140] Creating Layer Threshold_14
I0224 07:38:38.398947  1325 net.cpp:481] Threshold_14 <- BatchNorm_14
I0224 07:38:38.398953  1325 net.cpp:442] Threshold_14 -> BatchNorm_14 (in-place)
I0224 07:38:38.398962  1325 net.cpp:190] Setting up Threshold_14
I0224 07:38:38.398967  1325 net.cpp:197] Top shape: 1 128 64 128 (1048576)
I0224 07:38:38.398973  1325 net.cpp:205] Memory required for data: 1069416448
I0224 07:38:38.398978  1325 layer_factory.hpp:123] Creating layer BatchNorm_14_fixed
I0224 07:38:38.398985  1325 net.cpp:140] Creating Layer BatchNorm_14_fixed
I0224 07:38:38.398991  1325 net.cpp:481] BatchNorm_14_fixed <- BatchNorm_14
I0224 07:38:38.398998  1325 net.cpp:442] BatchNorm_14_fixed -> BatchNorm_14 (in-place)
I0224 07:38:38.399029  1325 net.cpp:190] Setting up BatchNorm_14_fixed
I0224 07:38:38.399035  1325 net.cpp:197] Top shape: 1 128 64 128 (1048576)
I0224 07:38:38.399042  1325 net.cpp:205] Memory required for data: 1073610752
I0224 07:38:38.399049  1325 layer_factory.hpp:123] Creating layer BatchNorm_14_BatchNorm_14_fixed_0_split
I0224 07:38:38.399057  1325 net.cpp:140] Creating Layer BatchNorm_14_BatchNorm_14_fixed_0_split
I0224 07:38:38.399062  1325 net.cpp:481] BatchNorm_14_BatchNorm_14_fixed_0_split <- BatchNorm_14
I0224 07:38:38.399070  1325 net.cpp:455] BatchNorm_14_BatchNorm_14_fixed_0_split -> BatchNorm_14_BatchNorm_14_fixed_0_split_0
I0224 07:38:38.399082  1325 net.cpp:455] BatchNorm_14_BatchNorm_14_fixed_0_split -> BatchNorm_14_BatchNorm_14_fixed_0_split_1
I0224 07:38:38.399121  1325 net.cpp:190] Setting up BatchNorm_14_BatchNorm_14_fixed_0_split
I0224 07:38:38.399128  1325 net.cpp:197] Top shape: 1 128 64 128 (1048576)
I0224 07:38:38.399135  1325 net.cpp:197] Top shape: 1 128 64 128 (1048576)
I0224 07:38:38.399142  1325 net.cpp:205] Memory required for data: 1081999360
I0224 07:38:38.399147  1325 layer_factory.hpp:123] Creating layer ConvNd_69
I0224 07:38:38.399158  1325 net.cpp:140] Creating Layer ConvNd_69
I0224 07:38:38.399164  1325 net.cpp:481] ConvNd_69 <- BatchNorm_14_BatchNorm_14_fixed_0_split_0
I0224 07:38:38.399173  1325 net.cpp:455] ConvNd_69 -> ConvNd_69
I0224 07:38:38.399338  1325 layer_factory.hpp:123] Creating layer ConvNd_69
I0224 07:38:38.399562  1325 net.cpp:190] Setting up ConvNd_69
I0224 07:38:38.399570  1325 net.cpp:197] Top shape: 1 25 64 128 (204800)
I0224 07:38:38.399577  1325 net.cpp:205] Memory required for data: 1082818560
I0224 07:38:38.399585  1325 layer_factory.hpp:123] Creating layer ConvNd_69_fixed
I0224 07:38:38.399596  1325 net.cpp:140] Creating Layer ConvNd_69_fixed
I0224 07:38:38.399602  1325 net.cpp:481] ConvNd_69_fixed <- ConvNd_69
I0224 07:38:38.399610  1325 net.cpp:442] ConvNd_69_fixed -> ConvNd_69 (in-place)
I0224 07:38:38.399646  1325 net.cpp:190] Setting up ConvNd_69_fixed
I0224 07:38:38.399652  1325 net.cpp:197] Top shape: 1 25 64 128 (204800)
I0224 07:38:38.399659  1325 net.cpp:205] Memory required for data: 1083637760
I0224 07:38:38.399667  1325 layer_factory.hpp:123] Creating layer ConvNd_69_ConvNd_69_fixed_0_split
I0224 07:38:38.399675  1325 net.cpp:140] Creating Layer ConvNd_69_ConvNd_69_fixed_0_split
I0224 07:38:38.399680  1325 net.cpp:481] ConvNd_69_ConvNd_69_fixed_0_split <- ConvNd_69
I0224 07:38:38.399689  1325 net.cpp:455] ConvNd_69_ConvNd_69_fixed_0_split -> ConvNd_69_ConvNd_69_fixed_0_split_0
I0224 07:38:38.399698  1325 net.cpp:455] ConvNd_69_ConvNd_69_fixed_0_split -> ConvNd_69_ConvNd_69_fixed_0_split_1
I0224 07:38:38.399708  1325 net.cpp:455] ConvNd_69_ConvNd_69_fixed_0_split -> ConvNd_69_ConvNd_69_fixed_0_split_2
I0224 07:38:38.399719  1325 net.cpp:455] ConvNd_69_ConvNd_69_fixed_0_split -> ConvNd_69_ConvNd_69_fixed_0_split_3
I0224 07:38:38.399730  1325 net.cpp:455] ConvNd_69_ConvNd_69_fixed_0_split -> ConvNd_69_ConvNd_69_fixed_0_split_4
I0224 07:38:38.399796  1325 net.cpp:190] Setting up ConvNd_69_ConvNd_69_fixed_0_split
I0224 07:38:38.399801  1325 net.cpp:197] Top shape: 1 25 64 128 (204800)
I0224 07:38:38.399809  1325 net.cpp:197] Top shape: 1 25 64 128 (204800)
I0224 07:38:38.399816  1325 net.cpp:197] Top shape: 1 25 64 128 (204800)
I0224 07:38:38.399822  1325 net.cpp:197] Top shape: 1 25 64 128 (204800)
I0224 07:38:38.399829  1325 net.cpp:197] Top shape: 1 25 64 128 (204800)
I0224 07:38:38.399835  1325 net.cpp:205] Memory required for data: 1087733760
I0224 07:38:38.399842  1325 layer_factory.hpp:123] Creating layer ConvNd_70
I0224 07:38:38.399852  1325 net.cpp:140] Creating Layer ConvNd_70
I0224 07:38:38.399861  1325 net.cpp:481] ConvNd_70 <- ConvNd_69_ConvNd_69_fixed_0_split_0
I0224 07:38:38.399870  1325 net.cpp:455] ConvNd_70 -> ConvNd_70
I0224 07:38:38.400692  1325 layer_factory.hpp:123] Creating layer ConvNd_70
I0224 07:38:38.400976  1325 net.cpp:190] Setting up ConvNd_70
I0224 07:38:38.400985  1325 net.cpp:197] Top shape: 1 28 64 128 (229376)
I0224 07:38:38.400992  1325 net.cpp:205] Memory required for data: 1088651264
I0224 07:38:38.401000  1325 layer_factory.hpp:123] Creating layer ConvNd_71
I0224 07:38:38.401015  1325 net.cpp:140] Creating Layer ConvNd_71
I0224 07:38:38.401022  1325 net.cpp:481] ConvNd_71 <- ConvNd_69_ConvNd_69_fixed_0_split_1
I0224 07:38:38.401031  1325 net.cpp:455] ConvNd_71 -> ConvNd_71
I0224 07:38:38.401219  1325 layer_factory.hpp:123] Creating layer ConvNd_71
I0224 07:38:38.401477  1325 net.cpp:190] Setting up ConvNd_71
I0224 07:38:38.401485  1325 net.cpp:197] Top shape: 1 25 64 128 (204800)
I0224 07:38:38.401492  1325 net.cpp:205] Memory required for data: 1089470464
I0224 07:38:38.401500  1325 layer_factory.hpp:123] Creating layer ConvNd_71_fixed
I0224 07:38:38.401509  1325 net.cpp:140] Creating Layer ConvNd_71_fixed
I0224 07:38:38.401515  1325 net.cpp:481] ConvNd_71_fixed <- ConvNd_71
I0224 07:38:38.401521  1325 net.cpp:442] ConvNd_71_fixed -> ConvNd_71 (in-place)
I0224 07:38:38.401561  1325 net.cpp:190] Setting up ConvNd_71_fixed
I0224 07:38:38.401567  1325 net.cpp:197] Top shape: 1 25 64 128 (204800)
I0224 07:38:38.401574  1325 net.cpp:205] Memory required for data: 1090289664
I0224 07:38:38.401582  1325 layer_factory.hpp:123] Creating layer ConvNd_71_ConvNd_71_fixed_0_split
I0224 07:38:38.401590  1325 net.cpp:140] Creating Layer ConvNd_71_ConvNd_71_fixed_0_split
I0224 07:38:38.401595  1325 net.cpp:481] ConvNd_71_ConvNd_71_fixed_0_split <- ConvNd_71
I0224 07:38:38.401604  1325 net.cpp:455] ConvNd_71_ConvNd_71_fixed_0_split -> ConvNd_71_ConvNd_71_fixed_0_split_0
I0224 07:38:38.401614  1325 net.cpp:455] ConvNd_71_ConvNd_71_fixed_0_split -> ConvNd_71_ConvNd_71_fixed_0_split_1
I0224 07:38:38.401654  1325 net.cpp:190] Setting up ConvNd_71_ConvNd_71_fixed_0_split
I0224 07:38:38.401659  1325 net.cpp:197] Top shape: 1 25 64 128 (204800)
I0224 07:38:38.401667  1325 net.cpp:197] Top shape: 1 25 64 128 (204800)
I0224 07:38:38.401674  1325 net.cpp:205] Memory required for data: 1091928064
I0224 07:38:38.401679  1325 layer_factory.hpp:123] Creating layer ConvNd_72
I0224 07:38:38.401690  1325 net.cpp:140] Creating Layer ConvNd_72
I0224 07:38:38.401698  1325 net.cpp:481] ConvNd_72 <- ConvNd_69_ConvNd_69_fixed_0_split_2
I0224 07:38:38.401706  1325 net.cpp:455] ConvNd_72 -> ConvNd_72
I0224 07:38:38.401885  1325 layer_factory.hpp:123] Creating layer ConvNd_72
I0224 07:38:38.402132  1325 net.cpp:190] Setting up ConvNd_72
I0224 07:38:38.402139  1325 net.cpp:197] Top shape: 1 25 64 128 (204800)
I0224 07:38:38.402146  1325 net.cpp:205] Memory required for data: 1092747264
I0224 07:38:38.402154  1325 layer_factory.hpp:123] Creating layer ConvNd_72_fixed
I0224 07:38:38.402164  1325 net.cpp:140] Creating Layer ConvNd_72_fixed
I0224 07:38:38.402171  1325 net.cpp:481] ConvNd_72_fixed <- ConvNd_72
I0224 07:38:38.402179  1325 net.cpp:442] ConvNd_72_fixed -> ConvNd_72 (in-place)
I0224 07:38:38.402215  1325 net.cpp:190] Setting up ConvNd_72_fixed
I0224 07:38:38.402221  1325 net.cpp:197] Top shape: 1 25 64 128 (204800)
I0224 07:38:38.402228  1325 net.cpp:205] Memory required for data: 1093566464
I0224 07:38:38.402235  1325 layer_factory.hpp:123] Creating layer Add_43
I0224 07:38:38.402245  1325 net.cpp:140] Creating Layer Add_43
I0224 07:38:38.402251  1325 net.cpp:481] Add_43 <- ConvNd_71_ConvNd_71_fixed_0_split_0
I0224 07:38:38.402256  1325 net.cpp:481] Add_43 <- ConvNd_72
I0224 07:38:38.402264  1325 net.cpp:455] Add_43 -> Add_43
I0224 07:38:38.402289  1325 net.cpp:190] Setting up Add_43
I0224 07:38:38.402294  1325 net.cpp:197] Top shape: 1 25 64 128 (204800)
I0224 07:38:38.402302  1325 net.cpp:205] Memory required for data: 1094385664
I0224 07:38:38.402307  1325 layer_factory.hpp:123] Creating layer Add_43_fixed
I0224 07:38:38.402314  1325 net.cpp:140] Creating Layer Add_43_fixed
I0224 07:38:38.402320  1325 net.cpp:481] Add_43_fixed <- Add_43
I0224 07:38:38.402328  1325 net.cpp:442] Add_43_fixed -> Add_43 (in-place)
I0224 07:38:38.402364  1325 net.cpp:190] Setting up Add_43_fixed
I0224 07:38:38.402369  1325 net.cpp:197] Top shape: 1 25 64 128 (204800)
I0224 07:38:38.402376  1325 net.cpp:205] Memory required for data: 1095204864
I0224 07:38:38.402384  1325 layer_factory.hpp:123] Creating layer Add_43_Add_43_fixed_0_split
I0224 07:38:38.402392  1325 net.cpp:140] Creating Layer Add_43_Add_43_fixed_0_split
I0224 07:38:38.402397  1325 net.cpp:481] Add_43_Add_43_fixed_0_split <- Add_43
I0224 07:38:38.402405  1325 net.cpp:455] Add_43_Add_43_fixed_0_split -> Add_43_Add_43_fixed_0_split_0
I0224 07:38:38.402415  1325 net.cpp:455] Add_43_Add_43_fixed_0_split -> Add_43_Add_43_fixed_0_split_1
I0224 07:38:38.402451  1325 net.cpp:190] Setting up Add_43_Add_43_fixed_0_split
I0224 07:38:38.402456  1325 net.cpp:197] Top shape: 1 25 64 128 (204800)
I0224 07:38:38.402463  1325 net.cpp:197] Top shape: 1 25 64 128 (204800)
I0224 07:38:38.402470  1325 net.cpp:205] Memory required for data: 1096843264
I0224 07:38:38.402474  1325 layer_factory.hpp:123] Creating layer ConvNd_73
I0224 07:38:38.402485  1325 net.cpp:140] Creating Layer ConvNd_73
I0224 07:38:38.402492  1325 net.cpp:481] ConvNd_73 <- ConvNd_69_ConvNd_69_fixed_0_split_3
I0224 07:38:38.402500  1325 net.cpp:455] ConvNd_73 -> ConvNd_73
I0224 07:38:38.402681  1325 layer_factory.hpp:123] Creating layer ConvNd_73
I0224 07:38:38.402930  1325 net.cpp:190] Setting up ConvNd_73
I0224 07:38:38.402936  1325 net.cpp:197] Top shape: 1 25 64 128 (204800)
I0224 07:38:38.402943  1325 net.cpp:205] Memory required for data: 1097662464
I0224 07:38:38.402951  1325 layer_factory.hpp:123] Creating layer ConvNd_73_fixed
I0224 07:38:38.402961  1325 net.cpp:140] Creating Layer ConvNd_73_fixed
I0224 07:38:38.402967  1325 net.cpp:481] ConvNd_73_fixed <- ConvNd_73
I0224 07:38:38.402976  1325 net.cpp:442] ConvNd_73_fixed -> ConvNd_73 (in-place)
I0224 07:38:38.403010  1325 net.cpp:190] Setting up ConvNd_73_fixed
I0224 07:38:38.403017  1325 net.cpp:197] Top shape: 1 25 64 128 (204800)
I0224 07:38:38.403023  1325 net.cpp:205] Memory required for data: 1098481664
I0224 07:38:38.403030  1325 layer_factory.hpp:123] Creating layer Add_44
I0224 07:38:38.403039  1325 net.cpp:140] Creating Layer Add_44
I0224 07:38:38.403045  1325 net.cpp:481] Add_44 <- Add_43_Add_43_fixed_0_split_0
I0224 07:38:38.403051  1325 net.cpp:481] Add_44 <- ConvNd_73
I0224 07:38:38.403059  1325 net.cpp:455] Add_44 -> Add_44
I0224 07:38:38.403084  1325 net.cpp:190] Setting up Add_44
I0224 07:38:38.403090  1325 net.cpp:197] Top shape: 1 25 64 128 (204800)
I0224 07:38:38.403096  1325 net.cpp:205] Memory required for data: 1099300864
I0224 07:38:38.403101  1325 layer_factory.hpp:123] Creating layer Add_44_fixed
I0224 07:38:38.403108  1325 net.cpp:140] Creating Layer Add_44_fixed
I0224 07:38:38.403116  1325 net.cpp:481] Add_44_fixed <- Add_44
I0224 07:38:38.403124  1325 net.cpp:442] Add_44_fixed -> Add_44 (in-place)
I0224 07:38:38.403160  1325 net.cpp:190] Setting up Add_44_fixed
I0224 07:38:38.403165  1325 net.cpp:197] Top shape: 1 25 64 128 (204800)
I0224 07:38:38.403172  1325 net.cpp:205] Memory required for data: 1100120064
I0224 07:38:38.403179  1325 layer_factory.hpp:123] Creating layer Add_44_Add_44_fixed_0_split
I0224 07:38:38.403188  1325 net.cpp:140] Creating Layer Add_44_Add_44_fixed_0_split
I0224 07:38:38.403193  1325 net.cpp:481] Add_44_Add_44_fixed_0_split <- Add_44
I0224 07:38:38.403201  1325 net.cpp:455] Add_44_Add_44_fixed_0_split -> Add_44_Add_44_fixed_0_split_0
I0224 07:38:38.403210  1325 net.cpp:455] Add_44_Add_44_fixed_0_split -> Add_44_Add_44_fixed_0_split_1
I0224 07:38:38.403249  1325 net.cpp:190] Setting up Add_44_Add_44_fixed_0_split
I0224 07:38:38.403254  1325 net.cpp:197] Top shape: 1 25 64 128 (204800)
I0224 07:38:38.403261  1325 net.cpp:197] Top shape: 1 25 64 128 (204800)
I0224 07:38:38.403268  1325 net.cpp:205] Memory required for data: 1101758464
I0224 07:38:38.403273  1325 layer_factory.hpp:123] Creating layer ConvNd_74
I0224 07:38:38.403285  1325 net.cpp:140] Creating Layer ConvNd_74
I0224 07:38:38.403290  1325 net.cpp:481] ConvNd_74 <- ConvNd_69_ConvNd_69_fixed_0_split_4
I0224 07:38:38.403298  1325 net.cpp:455] ConvNd_74 -> ConvNd_74
I0224 07:38:38.403478  1325 layer_factory.hpp:123] Creating layer ConvNd_74
I0224 07:38:38.403730  1325 net.cpp:190] Setting up ConvNd_74
I0224 07:38:38.403738  1325 net.cpp:197] Top shape: 1 25 64 128 (204800)
I0224 07:38:38.403744  1325 net.cpp:205] Memory required for data: 1102577664
I0224 07:38:38.403751  1325 layer_factory.hpp:123] Creating layer ConvNd_74_fixed
I0224 07:38:38.403762  1325 net.cpp:140] Creating Layer ConvNd_74_fixed
I0224 07:38:38.403769  1325 net.cpp:481] ConvNd_74_fixed <- ConvNd_74
I0224 07:38:38.403775  1325 net.cpp:442] ConvNd_74_fixed -> ConvNd_74 (in-place)
I0224 07:38:38.403812  1325 net.cpp:190] Setting up ConvNd_74_fixed
I0224 07:38:38.403817  1325 net.cpp:197] Top shape: 1 25 64 128 (204800)
I0224 07:38:38.403825  1325 net.cpp:205] Memory required for data: 1103396864
I0224 07:38:38.403831  1325 layer_factory.hpp:123] Creating layer Add_45
I0224 07:38:38.403839  1325 net.cpp:140] Creating Layer Add_45
I0224 07:38:38.403846  1325 net.cpp:481] Add_45 <- Add_44_Add_44_fixed_0_split_0
I0224 07:38:38.403852  1325 net.cpp:481] Add_45 <- ConvNd_74
I0224 07:38:38.403859  1325 net.cpp:455] Add_45 -> Add_45
I0224 07:38:38.403885  1325 net.cpp:190] Setting up Add_45
I0224 07:38:38.403892  1325 net.cpp:197] Top shape: 1 25 64 128 (204800)
I0224 07:38:38.403898  1325 net.cpp:205] Memory required for data: 1104216064
I0224 07:38:38.403903  1325 layer_factory.hpp:123] Creating layer Concat_14
I0224 07:38:38.403911  1325 net.cpp:140] Creating Layer Concat_14
I0224 07:38:38.403916  1325 net.cpp:481] Concat_14 <- ConvNd_70
I0224 07:38:38.403923  1325 net.cpp:481] Concat_14 <- ConvNd_71_ConvNd_71_fixed_0_split_1
I0224 07:38:38.403929  1325 net.cpp:481] Concat_14 <- Add_43_Add_43_fixed_0_split_1
I0224 07:38:38.403935  1325 net.cpp:481] Concat_14 <- Add_44_Add_44_fixed_0_split_1
I0224 07:38:38.403941  1325 net.cpp:481] Concat_14 <- Add_45
I0224 07:38:38.403949  1325 net.cpp:455] Concat_14 -> Concat_14
I0224 07:38:38.403978  1325 net.cpp:190] Setting up Concat_14
I0224 07:38:38.403985  1325 net.cpp:197] Top shape: 1 128 64 128 (1048576)
I0224 07:38:38.403990  1325 net.cpp:205] Memory required for data: 1108410368
I0224 07:38:38.403995  1325 layer_factory.hpp:123] Creating layer Concat_14_fixed
I0224 07:38:38.404003  1325 net.cpp:140] Creating Layer Concat_14_fixed
I0224 07:38:38.404011  1325 net.cpp:481] Concat_14_fixed <- Concat_14
I0224 07:38:38.404017  1325 net.cpp:442] Concat_14_fixed -> Concat_14 (in-place)
I0224 07:38:38.404054  1325 net.cpp:190] Setting up Concat_14_fixed
I0224 07:38:38.404059  1325 net.cpp:197] Top shape: 1 128 64 128 (1048576)
I0224 07:38:38.404067  1325 net.cpp:205] Memory required for data: 1112604672
I0224 07:38:38.404073  1325 layer_factory.hpp:123] Creating layer Add_46
I0224 07:38:38.404083  1325 net.cpp:140] Creating Layer Add_46
I0224 07:38:38.404088  1325 net.cpp:481] Add_46 <- BatchNorm_14_BatchNorm_14_fixed_0_split_1
I0224 07:38:38.404094  1325 net.cpp:481] Add_46 <- Concat_14
I0224 07:38:38.404101  1325 net.cpp:455] Add_46 -> Add_46
I0224 07:38:38.404126  1325 net.cpp:190] Setting up Add_46
I0224 07:38:38.404132  1325 net.cpp:197] Top shape: 1 128 64 128 (1048576)
I0224 07:38:38.404139  1325 net.cpp:205] Memory required for data: 1116798976
I0224 07:38:38.404145  1325 layer_factory.hpp:123] Creating layer Add_46_fixed
I0224 07:38:38.404151  1325 net.cpp:140] Creating Layer Add_46_fixed
I0224 07:38:38.404157  1325 net.cpp:481] Add_46_fixed <- Add_46
I0224 07:38:38.404165  1325 net.cpp:442] Add_46_fixed -> Add_46 (in-place)
I0224 07:38:38.404201  1325 net.cpp:190] Setting up Add_46_fixed
I0224 07:38:38.404206  1325 net.cpp:197] Top shape: 1 128 64 128 (1048576)
I0224 07:38:38.404212  1325 net.cpp:205] Memory required for data: 1120993280
I0224 07:38:38.404219  1325 layer_factory.hpp:123] Creating layer BatchNorm_15
I0224 07:38:38.404229  1325 net.cpp:140] Creating Layer BatchNorm_15
I0224 07:38:38.404234  1325 net.cpp:481] BatchNorm_15 <- Add_46
I0224 07:38:38.404242  1325 net.cpp:455] BatchNorm_15 -> BatchNorm_15
I0224 07:38:38.404280  1325 layer_factory.hpp:123] Creating layer BatchNorm_15
I0224 07:38:38.404350  1325 layer_factory.hpp:123] Creating layer BatchNorm_15
I0224 07:38:38.404386  1325 layer_factory.hpp:123] Creating layer BatchNorm_15
I0224 07:38:38.404496  1325 net.cpp:190] Setting up BatchNorm_15
I0224 07:38:38.404502  1325 net.cpp:197] Top shape: 1 128 64 128 (1048576)
I0224 07:38:38.404510  1325 net.cpp:205] Memory required for data: 1125187584
I0224 07:38:38.404520  1325 layer_factory.hpp:123] Creating layer Threshold_15
I0224 07:38:38.404526  1325 net.cpp:140] Creating Layer Threshold_15
I0224 07:38:38.404532  1325 net.cpp:481] Threshold_15 <- BatchNorm_15
I0224 07:38:38.404539  1325 net.cpp:442] Threshold_15 -> BatchNorm_15 (in-place)
I0224 07:38:38.404549  1325 net.cpp:190] Setting up Threshold_15
I0224 07:38:38.404554  1325 net.cpp:197] Top shape: 1 128 64 128 (1048576)
I0224 07:38:38.404561  1325 net.cpp:205] Memory required for data: 1129381888
I0224 07:38:38.404567  1325 layer_factory.hpp:123] Creating layer Concat_15
I0224 07:38:38.404573  1325 net.cpp:140] Creating Layer Concat_15
I0224 07:38:38.404579  1325 net.cpp:481] Concat_15 <- BatchNorm_7_BatchNorm_7_fixed_0_split_2
I0224 07:38:38.404592  1325 net.cpp:481] Concat_15 <- BatchNorm_15
I0224 07:38:38.404599  1325 net.cpp:455] Concat_15 -> Concat_15
I0224 07:38:38.404624  1325 net.cpp:190] Setting up Concat_15
I0224 07:38:38.404629  1325 net.cpp:197] Top shape: 1 256 64 128 (2097152)
I0224 07:38:38.404636  1325 net.cpp:205] Memory required for data: 1137770496
I0224 07:38:38.404641  1325 layer_factory.hpp:123] Creating layer Concat_15_fixed
I0224 07:38:38.404649  1325 net.cpp:140] Creating Layer Concat_15_fixed
I0224 07:38:38.404654  1325 net.cpp:481] Concat_15_fixed <- Concat_15
I0224 07:38:38.404662  1325 net.cpp:442] Concat_15_fixed -> Concat_15 (in-place)
I0224 07:38:38.404700  1325 net.cpp:190] Setting up Concat_15_fixed
I0224 07:38:38.404704  1325 net.cpp:197] Top shape: 1 256 64 128 (2097152)
I0224 07:38:38.404711  1325 net.cpp:205] Memory required for data: 1146159104
I0224 07:38:38.404719  1325 layer_factory.hpp:123] Creating layer BatchNorm_16
I0224 07:38:38.404728  1325 net.cpp:140] Creating Layer BatchNorm_16
I0224 07:38:38.404733  1325 net.cpp:481] BatchNorm_16 <- Concat_15
I0224 07:38:38.404742  1325 net.cpp:455] BatchNorm_16 -> BatchNorm_16
I0224 07:38:38.404783  1325 layer_factory.hpp:123] Creating layer BatchNorm_16
I0224 07:38:38.404850  1325 layer_factory.hpp:123] Creating layer BatchNorm_16
I0224 07:38:38.404886  1325 layer_factory.hpp:123] Creating layer BatchNorm_16
I0224 07:38:38.404996  1325 net.cpp:190] Setting up BatchNorm_16
I0224 07:38:38.405002  1325 net.cpp:197] Top shape: 1 256 64 128 (2097152)
I0224 07:38:38.405009  1325 net.cpp:205] Memory required for data: 1154547712
I0224 07:38:38.405019  1325 layer_factory.hpp:123] Creating layer Threshold_16
I0224 07:38:38.405025  1325 net.cpp:140] Creating Layer Threshold_16
I0224 07:38:38.405031  1325 net.cpp:481] Threshold_16 <- BatchNorm_16
I0224 07:38:38.405038  1325 net.cpp:442] Threshold_16 -> BatchNorm_16 (in-place)
I0224 07:38:38.405047  1325 net.cpp:190] Setting up Threshold_16
I0224 07:38:38.405052  1325 net.cpp:197] Top shape: 1 256 64 128 (2097152)
I0224 07:38:38.405058  1325 net.cpp:205] Memory required for data: 1162936320
I0224 07:38:38.405063  1325 layer_factory.hpp:123] Creating layer BatchNorm_16_fixed
I0224 07:38:38.405071  1325 net.cpp:140] Creating Layer BatchNorm_16_fixed
I0224 07:38:38.405076  1325 net.cpp:481] BatchNorm_16_fixed <- BatchNorm_16
I0224 07:38:38.405084  1325 net.cpp:442] BatchNorm_16_fixed -> BatchNorm_16 (in-place)
I0224 07:38:38.405117  1325 net.cpp:190] Setting up BatchNorm_16_fixed
I0224 07:38:38.405122  1325 net.cpp:197] Top shape: 1 256 64 128 (2097152)
I0224 07:38:38.405128  1325 net.cpp:205] Memory required for data: 1171324928
I0224 07:38:38.405135  1325 layer_factory.hpp:123] Creating layer ConvNd_75
I0224 07:38:38.405146  1325 net.cpp:140] Creating Layer ConvNd_75
I0224 07:38:38.405154  1325 net.cpp:481] ConvNd_75 <- BatchNorm_16
I0224 07:38:38.405164  1325 net.cpp:455] ConvNd_75 -> BatchNorm_17
I0224 07:38:38.405373  1325 layer_factory.hpp:123] Creating layer ConvNd_75
I0224 07:38:38.405697  1325 net.cpp:190] Setting up ConvNd_75
I0224 07:38:38.405705  1325 net.cpp:197] Top shape: 1 19 64 128 (155648)
I0224 07:38:38.405714  1325 net.cpp:205] Memory required for data: 1171947520
I0224 07:38:38.405721  1325 layer_factory.hpp:123] Creating layer BatchNorm_17_fixed
I0224 07:38:38.405732  1325 net.cpp:140] Creating Layer BatchNorm_17_fixed
I0224 07:38:38.405738  1325 net.cpp:481] BatchNorm_17_fixed <- BatchNorm_17
I0224 07:38:38.405746  1325 net.cpp:442] BatchNorm_17_fixed -> BatchNorm_17 (in-place)
I0224 07:38:38.405779  1325 net.cpp:190] Setting up BatchNorm_17_fixed
I0224 07:38:38.405784  1325 net.cpp:197] Top shape: 1 19 64 128 (155648)
I0224 07:38:38.405791  1325 net.cpp:205] Memory required for data: 1172570112
I0224 07:38:38.405799  1325 layer_factory.hpp:123] Creating layer ConvNd_76
I0224 07:38:38.405809  1325 net.cpp:140] Creating Layer ConvNd_76
I0224 07:38:38.405815  1325 net.cpp:481] ConvNd_76 <- BatchNorm_17
I0224 07:38:38.405823  1325 net.cpp:455] ConvNd_76 -> ConvNd_76
I0224 07:38:38.405969  1325 layer_factory.hpp:123] Creating layer ConvNd_76
I0224 07:38:38.406186  1325 net.cpp:190] Setting up ConvNd_76
I0224 07:38:38.406193  1325 net.cpp:197] Top shape: 1 19 128 256 (622592)
I0224 07:38:38.406200  1325 net.cpp:205] Memory required for data: 1175060480
I0224 07:38:38.406208  1325 layer_factory.hpp:123] Creating layer 
I0224 07:38:38.406214  1325 net.cpp:140] Creating Layer 
I0224 07:38:38.406224  1325 net.cpp:481]  <- ConvNd_20
I0224 07:38:38.406230  1325 net.cpp:481]  <- ConvNd_76
I0224 07:38:38.406237  1325 net.cpp:455]  -> 
I0224 07:38:38.406263  1325 net.cpp:190] Setting up 
I0224 07:38:38.406268  1325 net.cpp:197] Top shape: 1 38 128 256 (1245184)
I0224 07:38:38.406276  1325 net.cpp:205] Memory required for data: 1180041216
I0224 07:38:38.406281  1325 layer_factory.hpp:123] Creating layer _fixed
I0224 07:38:38.406289  1325 net.cpp:140] Creating Layer _fixed
I0224 07:38:38.406294  1325 net.cpp:481] _fixed <- 
I0224 07:38:38.406301  1325 net.cpp:442] _fixed ->  (in-place)
I0224 07:38:38.406339  1325 net.cpp:190] Setting up _fixed
I0224 07:38:38.406345  1325 net.cpp:197] Top shape: 1 38 128 256 (1245184)
I0224 07:38:38.406352  1325 net.cpp:205] Memory required for data: 1185021952
I0224 07:38:38.406360  1325 layer_factory.hpp:123] Creating layer BatchNorm_18
I0224 07:38:38.406369  1325 net.cpp:140] Creating Layer BatchNorm_18
I0224 07:38:38.406374  1325 net.cpp:481] BatchNorm_18 <- 
I0224 07:38:38.406383  1325 net.cpp:455] BatchNorm_18 -> BatchNorm_18
I0224 07:38:38.406425  1325 layer_factory.hpp:123] Creating layer BatchNorm_18
I0224 07:38:38.406508  1325 layer_factory.hpp:123] Creating layer BatchNorm_18
I0224 07:38:38.406548  1325 layer_factory.hpp:123] Creating layer BatchNorm_18
I0224 07:38:38.406697  1325 net.cpp:190] Setting up BatchNorm_18
I0224 07:38:38.406703  1325 net.cpp:197] Top shape: 1 38 128 256 (1245184)
I0224 07:38:38.406710  1325 net.cpp:205] Memory required for data: 1190002688
I0224 07:38:38.406719  1325 layer_factory.hpp:123] Creating layer Threshold_17
I0224 07:38:38.406728  1325 net.cpp:140] Creating Layer Threshold_17
I0224 07:38:38.406733  1325 net.cpp:481] Threshold_17 <- BatchNorm_18
I0224 07:38:38.406741  1325 net.cpp:442] Threshold_17 -> BatchNorm_18 (in-place)
I0224 07:38:38.406750  1325 net.cpp:190] Setting up Threshold_17
I0224 07:38:38.406755  1325 net.cpp:197] Top shape: 1 38 128 256 (1245184)
I0224 07:38:38.406772  1325 net.cpp:205] Memory required for data: 1194983424
I0224 07:38:38.406777  1325 layer_factory.hpp:123] Creating layer BatchNorm_18_fixed
I0224 07:38:38.406785  1325 net.cpp:140] Creating Layer BatchNorm_18_fixed
I0224 07:38:38.406790  1325 net.cpp:481] BatchNorm_18_fixed <- BatchNorm_18
I0224 07:38:38.406797  1325 net.cpp:442] BatchNorm_18_fixed -> BatchNorm_18 (in-place)
I0224 07:38:38.406831  1325 net.cpp:190] Setting up BatchNorm_18_fixed
I0224 07:38:38.406836  1325 net.cpp:197] Top shape: 1 38 128 256 (1245184)
I0224 07:38:38.406843  1325 net.cpp:205] Memory required for data: 1199964160
I0224 07:38:38.406850  1325 layer_factory.hpp:123] Creating layer ConvNd_77
I0224 07:38:38.406859  1325 net.cpp:140] Creating Layer ConvNd_77
I0224 07:38:38.406865  1325 net.cpp:481] ConvNd_77 <- BatchNorm_18
I0224 07:38:38.406873  1325 net.cpp:455] ConvNd_77 -> ConvNd_77
I0224 07:38:38.407011  1325 layer_factory.hpp:123] Creating layer ConvNd_77
I0224 07:38:38.407222  1325 net.cpp:190] Setting up ConvNd_77
I0224 07:38:38.407229  1325 net.cpp:197] Top shape: 1 4 128 256 (131072)
I0224 07:38:38.407238  1325 net.cpp:205] Memory required for data: 1200488448
I0224 07:38:38.407244  1325 layer_factory.hpp:123] Creating layer ConvNd_77_fixed
I0224 07:38:38.407253  1325 net.cpp:140] Creating Layer ConvNd_77_fixed
I0224 07:38:38.407259  1325 net.cpp:481] ConvNd_77_fixed <- ConvNd_77
I0224 07:38:38.407266  1325 net.cpp:442] ConvNd_77_fixed -> ConvNd_77 (in-place)
I0224 07:38:38.407305  1325 net.cpp:190] Setting up ConvNd_77_fixed
I0224 07:38:38.407310  1325 net.cpp:197] Top shape: 1 4 128 256 (131072)
I0224 07:38:38.407317  1325 net.cpp:205] Memory required for data: 1201012736
I0224 07:38:38.407325  1325 layer_factory.hpp:123] Creating layer ConvNd_77_ConvNd_77_fixed_0_split
I0224 07:38:38.407335  1325 net.cpp:140] Creating Layer ConvNd_77_ConvNd_77_fixed_0_split
I0224 07:38:38.407339  1325 net.cpp:481] ConvNd_77_ConvNd_77_fixed_0_split <- ConvNd_77
I0224 07:38:38.407347  1325 net.cpp:455] ConvNd_77_ConvNd_77_fixed_0_split -> ConvNd_77_ConvNd_77_fixed_0_split_0
I0224 07:38:38.407356  1325 net.cpp:455] ConvNd_77_ConvNd_77_fixed_0_split -> ConvNd_77_ConvNd_77_fixed_0_split_1
I0224 07:38:38.407366  1325 net.cpp:455] ConvNd_77_ConvNd_77_fixed_0_split -> ConvNd_77_ConvNd_77_fixed_0_split_2
I0224 07:38:38.407375  1325 net.cpp:455] ConvNd_77_ConvNd_77_fixed_0_split -> ConvNd_77_ConvNd_77_fixed_0_split_3
I0224 07:38:38.407383  1325 net.cpp:455] ConvNd_77_ConvNd_77_fixed_0_split -> ConvNd_77_ConvNd_77_fixed_0_split_4
I0224 07:38:38.407452  1325 net.cpp:190] Setting up ConvNd_77_ConvNd_77_fixed_0_split
I0224 07:38:38.407459  1325 net.cpp:197] Top shape: 1 4 128 256 (131072)
I0224 07:38:38.407465  1325 net.cpp:197] Top shape: 1 4 128 256 (131072)
I0224 07:38:38.407472  1325 net.cpp:197] Top shape: 1 4 128 256 (131072)
I0224 07:38:38.407480  1325 net.cpp:197] Top shape: 1 4 128 256 (131072)
I0224 07:38:38.407485  1325 net.cpp:197] Top shape: 1 4 128 256 (131072)
I0224 07:38:38.407492  1325 net.cpp:205] Memory required for data: 1203634176
I0224 07:38:38.407497  1325 layer_factory.hpp:123] Creating layer ConvNd_78
I0224 07:38:38.407510  1325 net.cpp:140] Creating Layer ConvNd_78
I0224 07:38:38.407516  1325 net.cpp:481] ConvNd_78 <- ConvNd_77_ConvNd_77_fixed_0_split_0
I0224 07:38:38.407523  1325 net.cpp:455] ConvNd_78 -> ConvNd_78
I0224 07:38:38.407662  1325 layer_factory.hpp:123] Creating layer ConvNd_78
I0224 07:38:38.407876  1325 net.cpp:190] Setting up ConvNd_78
I0224 07:38:38.407883  1325 net.cpp:197] Top shape: 1 4 128 256 (131072)
I0224 07:38:38.407891  1325 net.cpp:205] Memory required for data: 1204158464
I0224 07:38:38.407898  1325 layer_factory.hpp:123] Creating layer ConvNd_79
I0224 07:38:38.407912  1325 net.cpp:140] Creating Layer ConvNd_79
I0224 07:38:38.407919  1325 net.cpp:481] ConvNd_79 <- ConvNd_77_ConvNd_77_fixed_0_split_1
I0224 07:38:38.407927  1325 net.cpp:455] ConvNd_79 -> ConvNd_79
I0224 07:38:38.408061  1325 layer_factory.hpp:123] Creating layer ConvNd_79
I0224 07:38:38.408263  1325 net.cpp:190] Setting up ConvNd_79
I0224 07:38:38.408270  1325 net.cpp:197] Top shape: 1 4 128 256 (131072)
I0224 07:38:38.408277  1325 net.cpp:205] Memory required for data: 1204682752
I0224 07:38:38.408284  1325 layer_factory.hpp:123] Creating layer ConvNd_79_fixed
I0224 07:38:38.408295  1325 net.cpp:140] Creating Layer ConvNd_79_fixed
I0224 07:38:38.408301  1325 net.cpp:481] ConvNd_79_fixed <- ConvNd_79
I0224 07:38:38.408309  1325 net.cpp:442] ConvNd_79_fixed -> ConvNd_79 (in-place)
I0224 07:38:38.408349  1325 net.cpp:190] Setting up ConvNd_79_fixed
I0224 07:38:38.408354  1325 net.cpp:197] Top shape: 1 4 128 256 (131072)
I0224 07:38:38.408361  1325 net.cpp:205] Memory required for data: 1205207040
I0224 07:38:38.408368  1325 layer_factory.hpp:123] Creating layer ConvNd_79_ConvNd_79_fixed_0_split
I0224 07:38:38.408376  1325 net.cpp:140] Creating Layer ConvNd_79_ConvNd_79_fixed_0_split
I0224 07:38:38.408381  1325 net.cpp:481] ConvNd_79_ConvNd_79_fixed_0_split <- ConvNd_79
I0224 07:38:38.408390  1325 net.cpp:455] ConvNd_79_ConvNd_79_fixed_0_split -> ConvNd_79_ConvNd_79_fixed_0_split_0
I0224 07:38:38.408399  1325 net.cpp:455] ConvNd_79_ConvNd_79_fixed_0_split -> ConvNd_79_ConvNd_79_fixed_0_split_1
I0224 07:38:38.408435  1325 net.cpp:190] Setting up ConvNd_79_ConvNd_79_fixed_0_split
I0224 07:38:38.408442  1325 net.cpp:197] Top shape: 1 4 128 256 (131072)
I0224 07:38:38.408448  1325 net.cpp:197] Top shape: 1 4 128 256 (131072)
I0224 07:38:38.408455  1325 net.cpp:205] Memory required for data: 1206255616
I0224 07:38:38.408459  1325 layer_factory.hpp:123] Creating layer ConvNd_80
I0224 07:38:38.408470  1325 net.cpp:140] Creating Layer ConvNd_80
I0224 07:38:38.408476  1325 net.cpp:481] ConvNd_80 <- ConvNd_77_ConvNd_77_fixed_0_split_2
I0224 07:38:38.408484  1325 net.cpp:455] ConvNd_80 -> ConvNd_80
I0224 07:38:38.408617  1325 layer_factory.hpp:123] Creating layer ConvNd_80
I0224 07:38:38.408819  1325 net.cpp:190] Setting up ConvNd_80
I0224 07:38:38.408826  1325 net.cpp:197] Top shape: 1 4 128 256 (131072)
I0224 07:38:38.408833  1325 net.cpp:205] Memory required for data: 1206779904
I0224 07:38:38.408840  1325 layer_factory.hpp:123] Creating layer ConvNd_80_fixed
I0224 07:38:38.408851  1325 net.cpp:140] Creating Layer ConvNd_80_fixed
I0224 07:38:38.408857  1325 net.cpp:481] ConvNd_80_fixed <- ConvNd_80
I0224 07:38:38.408874  1325 net.cpp:442] ConvNd_80_fixed -> ConvNd_80 (in-place)
I0224 07:38:38.408910  1325 net.cpp:190] Setting up ConvNd_80_fixed
I0224 07:38:38.408915  1325 net.cpp:197] Top shape: 1 4 128 256 (131072)
I0224 07:38:38.408921  1325 net.cpp:205] Memory required for data: 1207304192
I0224 07:38:38.408928  1325 layer_factory.hpp:123] Creating layer Add_47
I0224 07:38:38.408937  1325 net.cpp:140] Creating Layer Add_47
I0224 07:38:38.408943  1325 net.cpp:481] Add_47 <- ConvNd_79_ConvNd_79_fixed_0_split_0
I0224 07:38:38.408949  1325 net.cpp:481] Add_47 <- ConvNd_80
I0224 07:38:38.408957  1325 net.cpp:455] Add_47 -> Add_47
I0224 07:38:38.408982  1325 net.cpp:190] Setting up Add_47
I0224 07:38:38.408987  1325 net.cpp:197] Top shape: 1 4 128 256 (131072)
I0224 07:38:38.408994  1325 net.cpp:205] Memory required for data: 1207828480
I0224 07:38:38.408999  1325 layer_factory.hpp:123] Creating layer Add_47_fixed
I0224 07:38:38.409008  1325 net.cpp:140] Creating Layer Add_47_fixed
I0224 07:38:38.409013  1325 net.cpp:481] Add_47_fixed <- Add_47
I0224 07:38:38.409020  1325 net.cpp:442] Add_47_fixed -> Add_47 (in-place)
I0224 07:38:38.409057  1325 net.cpp:190] Setting up Add_47_fixed
I0224 07:38:38.409063  1325 net.cpp:197] Top shape: 1 4 128 256 (131072)
I0224 07:38:38.409070  1325 net.cpp:205] Memory required for data: 1208352768
I0224 07:38:38.409077  1325 layer_factory.hpp:123] Creating layer Add_47_Add_47_fixed_0_split
I0224 07:38:38.409085  1325 net.cpp:140] Creating Layer Add_47_Add_47_fixed_0_split
I0224 07:38:38.409090  1325 net.cpp:481] Add_47_Add_47_fixed_0_split <- Add_47
I0224 07:38:38.409098  1325 net.cpp:455] Add_47_Add_47_fixed_0_split -> Add_47_Add_47_fixed_0_split_0
I0224 07:38:38.409107  1325 net.cpp:455] Add_47_Add_47_fixed_0_split -> Add_47_Add_47_fixed_0_split_1
I0224 07:38:38.409142  1325 net.cpp:190] Setting up Add_47_Add_47_fixed_0_split
I0224 07:38:38.409148  1325 net.cpp:197] Top shape: 1 4 128 256 (131072)
I0224 07:38:38.409155  1325 net.cpp:197] Top shape: 1 4 128 256 (131072)
I0224 07:38:38.409162  1325 net.cpp:205] Memory required for data: 1209401344
I0224 07:38:38.409166  1325 layer_factory.hpp:123] Creating layer ConvNd_81
I0224 07:38:38.409178  1325 net.cpp:140] Creating Layer ConvNd_81
I0224 07:38:38.409184  1325 net.cpp:481] ConvNd_81 <- ConvNd_77_ConvNd_77_fixed_0_split_3
I0224 07:38:38.409193  1325 net.cpp:455] ConvNd_81 -> ConvNd_81
I0224 07:38:38.409330  1325 layer_factory.hpp:123] Creating layer ConvNd_81
I0224 07:38:38.409539  1325 net.cpp:190] Setting up ConvNd_81
I0224 07:38:38.409548  1325 net.cpp:197] Top shape: 1 4 128 256 (131072)
I0224 07:38:38.409554  1325 net.cpp:205] Memory required for data: 1209925632
I0224 07:38:38.409561  1325 layer_factory.hpp:123] Creating layer ConvNd_81_fixed
I0224 07:38:38.409572  1325 net.cpp:140] Creating Layer ConvNd_81_fixed
I0224 07:38:38.409579  1325 net.cpp:481] ConvNd_81_fixed <- ConvNd_81
I0224 07:38:38.409586  1325 net.cpp:442] ConvNd_81_fixed -> ConvNd_81 (in-place)
I0224 07:38:38.409621  1325 net.cpp:190] Setting up ConvNd_81_fixed
I0224 07:38:38.409627  1325 net.cpp:197] Top shape: 1 4 128 256 (131072)
I0224 07:38:38.409634  1325 net.cpp:205] Memory required for data: 1210449920
I0224 07:38:38.409641  1325 layer_factory.hpp:123] Creating layer Add_48
I0224 07:38:38.409651  1325 net.cpp:140] Creating Layer Add_48
I0224 07:38:38.409655  1325 net.cpp:481] Add_48 <- Add_47_Add_47_fixed_0_split_0
I0224 07:38:38.409662  1325 net.cpp:481] Add_48 <- ConvNd_81
I0224 07:38:38.409670  1325 net.cpp:455] Add_48 -> Add_48
I0224 07:38:38.409695  1325 net.cpp:190] Setting up Add_48
I0224 07:38:38.409701  1325 net.cpp:197] Top shape: 1 4 128 256 (131072)
I0224 07:38:38.409708  1325 net.cpp:205] Memory required for data: 1210974208
I0224 07:38:38.409713  1325 layer_factory.hpp:123] Creating layer Add_48_fixed
I0224 07:38:38.409721  1325 net.cpp:140] Creating Layer Add_48_fixed
I0224 07:38:38.409726  1325 net.cpp:481] Add_48_fixed <- Add_48
I0224 07:38:38.409734  1325 net.cpp:442] Add_48_fixed -> Add_48 (in-place)
I0224 07:38:38.409773  1325 net.cpp:190] Setting up Add_48_fixed
I0224 07:38:38.409778  1325 net.cpp:197] Top shape: 1 4 128 256 (131072)
I0224 07:38:38.409785  1325 net.cpp:205] Memory required for data: 1211498496
I0224 07:38:38.409793  1325 layer_factory.hpp:123] Creating layer Add_48_Add_48_fixed_0_split
I0224 07:38:38.409801  1325 net.cpp:140] Creating Layer Add_48_Add_48_fixed_0_split
I0224 07:38:38.409806  1325 net.cpp:481] Add_48_Add_48_fixed_0_split <- Add_48
I0224 07:38:38.409816  1325 net.cpp:455] Add_48_Add_48_fixed_0_split -> Add_48_Add_48_fixed_0_split_0
I0224 07:38:38.409824  1325 net.cpp:455] Add_48_Add_48_fixed_0_split -> Add_48_Add_48_fixed_0_split_1
I0224 07:38:38.409862  1325 net.cpp:190] Setting up Add_48_Add_48_fixed_0_split
I0224 07:38:38.409868  1325 net.cpp:197] Top shape: 1 4 128 256 (131072)
I0224 07:38:38.409874  1325 net.cpp:197] Top shape: 1 4 128 256 (131072)
I0224 07:38:38.409881  1325 net.cpp:205] Memory required for data: 1212547072
I0224 07:38:38.409886  1325 layer_factory.hpp:123] Creating layer ConvNd_82
I0224 07:38:38.409898  1325 net.cpp:140] Creating Layer ConvNd_82
I0224 07:38:38.409904  1325 net.cpp:481] ConvNd_82 <- ConvNd_77_ConvNd_77_fixed_0_split_4
I0224 07:38:38.409911  1325 net.cpp:455] ConvNd_82 -> ConvNd_82
I0224 07:38:38.410044  1325 layer_factory.hpp:123] Creating layer ConvNd_82
I0224 07:38:38.410248  1325 net.cpp:190] Setting up ConvNd_82
I0224 07:38:38.410254  1325 net.cpp:197] Top shape: 1 4 128 256 (131072)
I0224 07:38:38.410261  1325 net.cpp:205] Memory required for data: 1213071360
I0224 07:38:38.410269  1325 layer_factory.hpp:123] Creating layer ConvNd_82_fixed
I0224 07:38:38.410276  1325 net.cpp:140] Creating Layer ConvNd_82_fixed
I0224 07:38:38.410284  1325 net.cpp:481] ConvNd_82_fixed <- ConvNd_82
I0224 07:38:38.410292  1325 net.cpp:442] ConvNd_82_fixed -> ConvNd_82 (in-place)
I0224 07:38:38.410329  1325 net.cpp:190] Setting up ConvNd_82_fixed
I0224 07:38:38.410334  1325 net.cpp:197] Top shape: 1 4 128 256 (131072)
I0224 07:38:38.410341  1325 net.cpp:205] Memory required for data: 1213595648
I0224 07:38:38.410348  1325 layer_factory.hpp:123] Creating layer Add_49
I0224 07:38:38.410357  1325 net.cpp:140] Creating Layer Add_49
I0224 07:38:38.410362  1325 net.cpp:481] Add_49 <- Add_48_Add_48_fixed_0_split_0
I0224 07:38:38.410369  1325 net.cpp:481] Add_49 <- ConvNd_82
I0224 07:38:38.410377  1325 net.cpp:455] Add_49 -> Add_49
I0224 07:38:38.410403  1325 net.cpp:190] Setting up Add_49
I0224 07:38:38.410408  1325 net.cpp:197] Top shape: 1 4 128 256 (131072)
I0224 07:38:38.410414  1325 net.cpp:205] Memory required for data: 1214119936
I0224 07:38:38.410420  1325 layer_factory.hpp:123] Creating layer Concat_17
I0224 07:38:38.410429  1325 net.cpp:140] Creating Layer Concat_17
I0224 07:38:38.410434  1325 net.cpp:481] Concat_17 <- ConvNd_78
I0224 07:38:38.410440  1325 net.cpp:481] Concat_17 <- ConvNd_79_ConvNd_79_fixed_0_split_1
I0224 07:38:38.410447  1325 net.cpp:481] Concat_17 <- Add_47_Add_47_fixed_0_split_1
I0224 07:38:38.410452  1325 net.cpp:481] Concat_17 <- Add_48_Add_48_fixed_0_split_1
I0224 07:38:38.410459  1325 net.cpp:481] Concat_17 <- Add_49
I0224 07:38:38.410465  1325 net.cpp:455] Concat_17 -> Concat_17
I0224 07:38:38.410493  1325 net.cpp:190] Setting up Concat_17
I0224 07:38:38.410499  1325 net.cpp:197] Top shape: 1 20 128 256 (655360)
I0224 07:38:38.410506  1325 net.cpp:205] Memory required for data: 1216741376
I0224 07:38:38.410511  1325 layer_factory.hpp:123] Creating layer Concat_17_fixed
I0224 07:38:38.410521  1325 net.cpp:140] Creating Layer Concat_17_fixed
I0224 07:38:38.410526  1325 net.cpp:481] Concat_17_fixed <- Concat_17
I0224 07:38:38.410532  1325 net.cpp:442] Concat_17_fixed -> Concat_17 (in-place)
I0224 07:38:38.410569  1325 net.cpp:190] Setting up Concat_17_fixed
I0224 07:38:38.410576  1325 net.cpp:197] Top shape: 1 20 128 256 (655360)
I0224 07:38:38.410583  1325 net.cpp:205] Memory required for data: 1219362816
I0224 07:38:38.410590  1325 layer_factory.hpp:123] Creating layer BatchNorm_19
I0224 07:38:38.410599  1325 net.cpp:140] Creating Layer BatchNorm_19
I0224 07:38:38.410605  1325 net.cpp:481] BatchNorm_19 <- Concat_17
I0224 07:38:38.410612  1325 net.cpp:455] BatchNorm_19 -> BatchNorm_19
I0224 07:38:38.410652  1325 layer_factory.hpp:123] Creating layer BatchNorm_19
I0224 07:38:38.410737  1325 layer_factory.hpp:123] Creating layer BatchNorm_19
I0224 07:38:38.410776  1325 layer_factory.hpp:123] Creating layer BatchNorm_19
I0224 07:38:38.411556  1325 net.cpp:190] Setting up BatchNorm_19
I0224 07:38:38.411566  1325 net.cpp:197] Top shape: 1 20 128 256 (655360)
I0224 07:38:38.411574  1325 net.cpp:205] Memory required for data: 1221984256
I0224 07:38:38.411584  1325 layer_factory.hpp:123] Creating layer Threshold_18
I0224 07:38:38.411592  1325 net.cpp:140] Creating Layer Threshold_18
I0224 07:38:38.411600  1325 net.cpp:481] Threshold_18 <- BatchNorm_19
I0224 07:38:38.411608  1325 net.cpp:442] Threshold_18 -> BatchNorm_19 (in-place)
I0224 07:38:38.411618  1325 net.cpp:190] Setting up Threshold_18
I0224 07:38:38.411626  1325 net.cpp:197] Top shape: 1 20 128 256 (655360)
I0224 07:38:38.411633  1325 net.cpp:205] Memory required for data: 1224605696
I0224 07:38:38.411639  1325 layer_factory.hpp:123] Creating layer BatchNorm_19_fixed
I0224 07:38:38.411648  1325 net.cpp:140] Creating Layer BatchNorm_19_fixed
I0224 07:38:38.411653  1325 net.cpp:481] BatchNorm_19_fixed <- BatchNorm_19
I0224 07:38:38.411659  1325 net.cpp:442] BatchNorm_19_fixed -> BatchNorm_19 (in-place)
I0224 07:38:38.411702  1325 net.cpp:190] Setting up BatchNorm_19_fixed
I0224 07:38:38.411707  1325 net.cpp:197] Top shape: 1 20 128 256 (655360)
I0224 07:38:38.411715  1325 net.cpp:205] Memory required for data: 1227227136
I0224 07:38:38.411722  1325 layer_factory.hpp:123] Creating layer ConvNd_83
I0224 07:38:38.411732  1325 net.cpp:140] Creating Layer ConvNd_83
I0224 07:38:38.411741  1325 net.cpp:481] ConvNd_83 <- BatchNorm_19
I0224 07:38:38.411749  1325 net.cpp:455] ConvNd_83 -> BatchNorm_20
I0224 07:38:38.411937  1325 layer_factory.hpp:123] Creating layer ConvNd_83
I0224 07:38:38.412353  1325 net.cpp:190] Setting up ConvNd_83
I0224 07:38:38.412360  1325 net.cpp:197] Top shape: 1 19 256 512 (2490368)
I0224 07:38:38.412369  1325 net.cpp:205] Memory required for data: 1237188608
I0224 07:38:38.412386  1325 layer_factory.hpp:123] Creating layer Threshold_19
I0224 07:38:38.412395  1325 net.cpp:140] Creating Layer Threshold_19
I0224 07:38:38.412400  1325 net.cpp:481] Threshold_19 <- BatchNorm_20
I0224 07:38:38.412407  1325 net.cpp:442] Threshold_19 -> BatchNorm_20 (in-place)
I0224 07:38:38.412416  1325 net.cpp:190] Setting up Threshold_19
I0224 07:38:38.412425  1325 net.cpp:197] Top shape: 1 19 256 512 (2490368)
I0224 07:38:38.412431  1325 net.cpp:205] Memory required for data: 1247150080
I0224 07:38:38.412436  1325 layer_factory.hpp:123] Creating layer Concat_18
I0224 07:38:38.412444  1325 net.cpp:140] Creating Layer Concat_18
I0224 07:38:38.412449  1325 net.cpp:481] Concat_18 <- BatchNorm_20
I0224 07:38:38.412456  1325 net.cpp:481] Concat_18 <- BatchNorm_1_BatchNorm_1_fixed_0_split_1
I0224 07:38:38.412463  1325 net.cpp:455] Concat_18 -> Concat_18
I0224 07:38:38.412488  1325 net.cpp:190] Setting up Concat_18
I0224 07:38:38.412495  1325 net.cpp:197] Top shape: 1 35 256 512 (4587520)
I0224 07:38:38.412503  1325 net.cpp:205] Memory required for data: 1265500160
I0224 07:38:38.412508  1325 layer_factory.hpp:123] Creating layer Concat_18_fixed
I0224 07:38:38.412516  1325 net.cpp:140] Creating Layer Concat_18_fixed
I0224 07:38:38.412521  1325 net.cpp:481] Concat_18_fixed <- Concat_18
I0224 07:38:38.412529  1325 net.cpp:442] Concat_18_fixed -> Concat_18 (in-place)
I0224 07:38:38.412569  1325 net.cpp:190] Setting up Concat_18_fixed
I0224 07:38:38.412575  1325 net.cpp:197] Top shape: 1 35 256 512 (4587520)
I0224 07:38:38.412582  1325 net.cpp:205] Memory required for data: 1283850240
I0224 07:38:38.412590  1325 layer_factory.hpp:123] Creating layer ConvNd_84
I0224 07:38:38.412601  1325 net.cpp:140] Creating Layer ConvNd_84
I0224 07:38:38.412608  1325 net.cpp:481] ConvNd_84 <- Concat_18
I0224 07:38:38.412616  1325 net.cpp:455] ConvNd_84 -> BatchNorm_21
I0224 07:38:38.412837  1325 layer_factory.hpp:123] Creating layer ConvNd_84
I0224 07:38:38.413909  1325 net.cpp:190] Setting up ConvNd_84
I0224 07:38:38.413920  1325 net.cpp:197] Top shape: 1 19 256 512 (2490368)
I0224 07:38:38.413928  1325 net.cpp:205] Memory required for data: 1293811712
I0224 07:38:38.413938  1325 layer_factory.hpp:123] Creating layer Threshold_20
I0224 07:38:38.413946  1325 net.cpp:140] Creating Layer Threshold_20
I0224 07:38:38.413956  1325 net.cpp:481] Threshold_20 <- BatchNorm_21
I0224 07:38:38.413964  1325 net.cpp:442] Threshold_20 -> BatchNorm_21 (in-place)
I0224 07:38:38.413975  1325 net.cpp:190] Setting up Threshold_20
I0224 07:38:38.413980  1325 net.cpp:197] Top shape: 1 19 256 512 (2490368)
I0224 07:38:38.413988  1325 net.cpp:205] Memory required for data: 1303773184
I0224 07:38:38.413993  1325 layer_factory.hpp:123] Creating layer BatchNorm_21_fixed
I0224 07:38:38.414001  1325 net.cpp:140] Creating Layer BatchNorm_21_fixed
I0224 07:38:38.414006  1325 net.cpp:481] BatchNorm_21_fixed <- BatchNorm_21
I0224 07:38:38.414013  1325 net.cpp:442] BatchNorm_21_fixed -> BatchNorm_21 (in-place)
I0224 07:38:38.414054  1325 net.cpp:190] Setting up BatchNorm_21_fixed
I0224 07:38:38.414060  1325 net.cpp:197] Top shape: 1 19 256 512 (2490368)
I0224 07:38:38.414067  1325 net.cpp:205] Memory required for data: 1313734656
I0224 07:38:38.414077  1325 layer_factory.hpp:123] Creating layer ConvNd_85
I0224 07:38:38.414085  1325 net.cpp:140] Creating Layer ConvNd_85
I0224 07:38:38.414093  1325 net.cpp:481] ConvNd_85 <- BatchNorm_21
I0224 07:38:38.414101  1325 net.cpp:455] ConvNd_85 -> ConvNd_85
I0224 07:38:38.414250  1325 layer_factory.hpp:123] Creating layer ConvNd_85
I0224 07:38:38.414464  1325 net.cpp:190] Setting up ConvNd_85
I0224 07:38:38.414471  1325 net.cpp:197] Top shape: 1 19 512 1024 (9961472)
I0224 07:38:38.414479  1325 net.cpp:205] Memory required for data: 1353580544
I0224 07:38:38.414486  1325 layer_factory.hpp:123] Creating layer ConvNd_85_fixed
I0224 07:38:38.414496  1325 net.cpp:140] Creating Layer ConvNd_85_fixed
I0224 07:38:38.414502  1325 net.cpp:481] ConvNd_85_fixed <- ConvNd_85
I0224 07:38:38.414510  1325 net.cpp:442] ConvNd_85_fixed -> ConvNd_85 (in-place)
I0224 07:38:38.414546  1325 net.cpp:190] Setting up ConvNd_85_fixed
I0224 07:38:38.414552  1325 net.cpp:197] Top shape: 1 19 512 1024 (9961472)
I0224 07:38:38.414559  1325 net.cpp:205] Memory required for data: 1393426432
I0224 07:38:38.414567  1325 layer_factory.hpp:123] Creating layer score
I0224 07:38:38.414577  1325 net.cpp:140] Creating Layer score
I0224 07:38:38.414582  1325 net.cpp:481] score <- ConvNd_85
I0224 07:38:38.414589  1325 net.cpp:455] score -> score
I0224 07:38:38.414649  1325 net.cpp:190] Setting up score
I0224 07:38:38.414654  1325 net.cpp:197] Top shape: 1 19 512 1024 (9961472)
I0224 07:38:38.414661  1325 net.cpp:205] Memory required for data: 1433272320
I0224 07:38:38.414667  1325 layer_factory.hpp:123] Creating layer accuracy
I0224 07:38:38.414688  1325 net.cpp:140] Creating Layer accuracy
I0224 07:38:38.414695  1325 net.cpp:481] accuracy <- score
I0224 07:38:38.414700  1325 net.cpp:481] accuracy <- label
I0224 07:38:38.414708  1325 net.cpp:455] accuracy -> segmentation_eval
I0224 07:38:38.414737  1325 net.cpp:190] Setting up accuracy
I0224 07:38:38.414743  1325 net.cpp:197] Top shape: 3 19 (57)
I0224 07:38:38.414749  1325 net.cpp:205] Memory required for data: 1433272548
I0224 07:38:38.414755  1325 net.cpp:268] accuracy does not need backward computation.
I0224 07:38:38.414762  1325 net.cpp:268] score does not need backward computation.
I0224 07:38:38.414767  1325 net.cpp:268] ConvNd_85_fixed does not need backward computation.
I0224 07:38:38.414772  1325 net.cpp:268] ConvNd_85 does not need backward computation.
…
